…
I0403 18:02:09.545550  6507 net.cpp:313] The NetState phase (1) differed from the phase (0) specified by a rule in layer data
I0403 18:02:09.546699  6507 net.cpp:49] Initializing net from parameters: 
state {
  phase: TEST
}
layer {
  name: "data"
  type: "Data"
  top: "data"
  top: "label"
  include {
    phase: TEST
  }
  transform_param {
    mirror: false
    crop_size: 224
    mean_file: "/home/mohanty/data/final_dataset/lmdb/grayscale-40-60/mean.binaryproto"
  }
  data_param {
    source: "/home/mohanty/data/final_dataset/lmdb/grayscale-40-60/test_db"
    batch_size: 24
    backend: LMDB
  }
}
layer {
  name: "conv1/7x7_s2"
  type: "Convolution"
  bottom: "data"
  top: "conv1/7x7_s2"
  param {
    lr_mult: 1
    decay_mult: 1
  }
  param {
    lr_mult: 2
    decay_mult: 0
  }
  convolution_param {
    num_output: 64
    pad: 3
    kernel_size: 7
    stride: 2
    weight_filler {
      type: "xavier"
      std: 0.1
    }
    bias_filler {
      type: "constant"
      value: 0.2
    }
  }
}
layer {
  name: "conv1/relu_7x7"
  type: "ReLU"
  bottom: "conv1/7x7_s2"
  top: "conv1/7x7_s2"
}
layer {
  name: "pool1/3x3_s2"
  type: "Pooling"
  bottom: "conv1/7x7_s2"
  top: "pool1/3x3_s2"
  pooling_param {
    pool: MAX
    kernel_size: 3
    stride: 2
  }
}
layer {
  name: "pool1/norm1"
  type: "LRN"
  bottom: "pool1/3x3_s2"
  top: "pool1/norm1"
  lrn_param {
    local_size: 5
    alpha: 0.0001
    beta: 0.75
  }
}
layer {
  name: "conv2/3x3_reduce"
  type: "Convolution"
  bottom: "pool1/norm1"
  top: "conv2/3x3_reduce"
  param {
    lr_mult: 1
    decay_mult: 1
  }
  param {
    lr_mult: 2
    decay_mult: 0
  }
  convolution_param {
    num_output: 64
    kernel_size: 1
    weight_filler {
      type: "xavier"
      std: 0.1
    }
    bias_filler {
      type: "constant"
      value: 0.2
    }
  }
}
layer {
  name: "conv2/relu_3x3_reduce"
  type: "ReLU"
  bottom: "conv2/3x3_reduce"
  top: "conv2/3x3_reduce"
}
layer {
  name: "conv2/3x3"
  type: "Convolution"
  bottom: "conv2/3x3_reduce"
  top: "conv2/3x3"
  param {
    lr_mult: 1
    decay_mult: 1
  }
  param {
    lr_mult: 2
    decay_mult: 0
  }
  convolution_param {
    num_output: 192
    pad: 1
    kernel_size: 3
    weight_filler {
      type: "xavier"
      std: 0.03
    }
    bias_filler {
      type: "constant"
      value: 0.2
    }
  }
}
layer {
  name: "conv2/relu_3x3"
  type: "ReLU"
  bottom: "conv2/3x3"
  top: "conv2/3x3"
}
layer {
  name: "conv2/norm2"
  type: "LRN"
  bottom: "conv2/3x3"
  top: "conv2/norm2"
  lrn_param {
    local_size: 5
    alpha: 0.0001
    beta: 0.75
  }
}
layer {
  name: "pool2/3x3_s2"
  type: "Pooling"
  bottom: "conv2/norm2"
  top: "pool2/3x3_s2"
  pooling_param {
    pool: MAX
    kernel_size: 3
    stride: 2
  }
}
layer {
  name: "inception_3a/1x1"
  type: "Convolution"
  bottom: "pool2/3x3_s2"
  top: "inception_3a/1x1"
  param {
    lr_mult: 1
    decay_mult: 1
  }
  param {
    lr_mult: 2
    decay_mult: 0
  }
  convolution_param {
    num_output: 64
    kernel_size: 1
    weight_filler {
      type: "xavier"
      std: 0.03
    }
    bias_filler {
      type: "constant"
      value: 0.2
    }
  }
}
layer {
  name: "inception_3a/relu_1x1"
  type: "ReLU"
  bottom: "inception_3a/1x1"
  top: "inception_3a/1x1"
}
layer {
  name: "inception_3a/3x3_reduce"
  type: "Convolution"
  bottom: "pool2/3x3_s2"
  top: "inception_3a/3x3_reduce"
  param {
    lr_mult: 1
    decay_mult: 1
  }
  param {
    lr_mult: 2
    decay_mult: 0
  }
  convolution_param {
    num_output: 96
    kernel_size: 1
    weight_filler {
      type: "xavier"
      std: 0.09
    }
    bias_filler {
      type: "constant"
      value: 0.2
    }
  }
}
layer {
  name: "inception_3a/relu_3x3_reduce"
  type: "ReLU"
  bottom: "inception_3a/3x3_reduce"
  top: "inception_3a/3x3_reduce"
}
layer {
  name: "inception_3a/3x3"
  type: "Convolution"
  bottom: "inception_3a/3x3_reduce"
  top: "inception_3a/3x3"
  param {
    lr_mult: 1
    decay_mult: 1
  }
  param {
    lr_mult: 2
    decay_mult: 0
  }
  convolution_param {
    num_output: 128
    pad: 1
    kernel_size: 3
    weight_filler {
      type: "xavier"
      std: 0.03
    }
    bias_filler {
      type: "constant"
      value: 0.2
    }
  }
}
layer {
  name: "inception_3a/relu_3x3"
  type: "ReLU"
  bottom: "inception_3a/3x3"
  top: "inception_3a/3x3"
}
layer {
  name: "inception_3a/5x5_reduce"
  type: "Convolution"
  bottom: "pool2/3x3_s2"
  top: "inception_3a/5x5_reduce"
  param {
    lr_mult: 1
    decay_mult: 1
  }
  param {
    lr_mult: 2
    decay_mult: 0
  }
  convolution_param {
    num_output: 16
    kernel_size: 1
    weight_filler {
      type: "xavier"
      std: 0.2
    }
    bias_filler {
      type: "constant"
      value: 0.2
    }
  }
}
layer {
  name: "inception_3a/relu_5x5_reduce"
  type: "ReLU"
  bottom: "inception_3a/5x5_reduce"
  top: "inception_3a/5x5_reduce"
}
layer {
  name: "inception_3a/5x5"
  type: "Convolution"
  bottom: "inception_3a/5x5_reduce"
  top: "inception_3a/5x5"
  param {
    lr_mult: 1
    decay_mult: 1
  }
  param {
    lr_mult: 2
    decay_mult: 0
  }
  convolution_param {
    num_output: 32
    pad: 2
    kernel_size: 5
    weight_filler {
      type: "xavier"
      std: 0.03
    }
    bias_filler {
      type: "constant"
      value: 0.2
    }
  }
}
layer {
  name: "inception_3a/relu_5x5"
  type: "ReLU"
  bottom: "inception_3a/5x5"
  top: "inception_3a/5x5"
}
layer {
  name: "inception_3a/pool"
  type: "Pooling"
  bottom: "pool2/3x3_s2"
  top: "inception_3a/pool"
  pooling_param {
    pool: MAX
    kernel_size: 3
    stride: 1
    pad: 1
  }
}
layer {
  name: "inception_3a/pool_proj"
  type: "Convolution"
  bottom: "inception_3a/pool"
  top: "inception_3a/pool_proj"
  param {
    lr_mult: 1
    decay_mult: 1
  }
  param {
    lr_mult: 2
    decay_mult: 0
  }
  convolution_param {
    num_output: 32
    kernel_size: 1
    weight_filler {
      type: "xavier"
      std: 0.1
    }
    bias_filler {
      type: "constant"
      value: 0.2
    }
  }
}
layer {
  name: "inception_3a/relu_pool_proj"
  type: "ReLU"
  bottom: "inception_3a/pool_proj"
  top: "inception_3a/pool_proj"
}
layer {
  name: "inception_3a/output"
  type: "Concat"
  bottom: "inception_3a/1x1"
  bottom: "inception_3a/3x3"
  bottom: "inception_3a/5x5"
  bottom: "inception_3a/pool_proj"
  top: "inception_3a/output"
}
layer {
  name: "inception_3b/1x1"
  type: "Convolution"
  bottom: "inception_3a/output"
  top: "inception_3b/1x1"
  param {
    lr_mult: 1
    decay_mult: 1
  }
  param {
    lr_mult: 2
    decay_mult: 0
  }
  convolution_param {
    num_output: 128
    kernel_size: 1
    weight_filler {
      type: "xavier"
      std: 0.03
    }
    bias_filler {
      type: "constant"
      value: 0.2
    }
  }
}
layer {
  name: "inception_3b/relu_1x1"
  type: "ReLU"
  bottom: "inception_3b/1x1"
  top: "inception_3b/1x1"
}
layer {
  name: "inception_3b/3x3_reduce"
  type: "Convolution"
  bottom: "inception_3a/output"
  top: "inception_3b/3x3_reduce"
  param {
    lr_mult: 1
    decay_mult: 1
  }
  param {
    lr_mult: 2
    decay_mult: 0
  }
  convolution_param {
    num_output: 128
    kernel_size: 1
    weight_filler {
      type: "xavier"
      std: 0.09
    }
    bias_filler {
      type: "constant"
      value: 0.2
    }
  }
}
layer {
  name: "inception_3b/relu_3x3_reduce"
  type: "ReLU"
  bottom: "inception_3b/3x3_reduce"
  top: "inception_3b/3x3_reduce"
}
layer {
  name: "inception_3b/3x3"
  type: "Convolution"
  bottom: "inception_3b/3x3_reduce"
  top: "inception_3b/3x3"
  param {
    lr_mult: 1
    decay_mult: 1
  }
  param {
    lr_mult: 2
    decay_mult: 0
  }
  convolution_param {
    num_output: 192
    pad: 1
    kernel_size: 3
    weight_filler {
      type: "xavier"
      std: 0.03
    }
    bias_filler {
      type: "constant"
      value: 0.2
    }
  }
}
layer {
  name: "inception_3b/relu_3x3"
  type: "ReLU"
  bottom: "inception_3b/3x3"
  top: "inception_3b/3x3"
}
layer {
  name: "inception_3b/5x5_reduce"
  type: "Convolution"
  bottom: "inception_3a/output"
  top: "inception_3b/5x5_reduce"
  param {
    lr_mult: 1
    decay_mult: 1
  }
  param {
    lr_mult: 2
    decay_mult: 0
  }
  convolution_param {
    num_output: 32
    kernel_size: 1
    weight_filler {
      type: "xavier"
      std: 0.2
    }
    bias_filler {
      type: "constant"
      value: 0.2
    }
  }
}
layer {
  name: "inception_3b/relu_5x5_reduce"
  type: "ReLU"
  bottom: "inception_3b/5x5_reduce"
  top: "inception_3b/5x5_reduce"
}
layer {
  name: "inception_3b/5x5"
  type: "Convolution"
  bottom: "inception_3b/5x5_reduce"
  top: "inception_3b/5x5"
  param {
    lr_mult: 1
    decay_mult: 1
  }
  param {
    lr_mult: 2
    decay_mult: 0
  }
  convolution_param {
    num_output: 96
    pad: 2
    kernel_size: 5
    weight_filler {
      type: "xavier"
      std: 0.03
    }
    bias_filler {
      type: "constant"
      value: 0.2
    }
  }
}
layer {
  name: "inception_3b/relu_5x5"
  type: "ReLU"
  bottom: "inception_3b/5x5"
  top: "inception_3b/5x5"
}
layer {
  name: "inception_3b/pool"
  type: "Pooling"
  bottom: "inception_3a/output"
  top: "inception_3b/pool"
  pooling_param {
    pool: MAX
    kernel_size: 3
    stride: 1
    pad: 1
  }
}
layer {
  name: "inception_3b/pool_proj"
  type: "Convolution"
  bottom: "inception_3b/pool"
  top: "inception_3b/pool_proj"
  param {
    lr_mult: 1
    decay_mult: 1
  }
  param {
    lr_mult: 2
    decay_mult: 0
  }
  convolution_param {
    num_output: 64
    kernel_size: 1
    weight_filler {
      type: "xavier"
      std: 0.1
    }
    bias_filler {
      type: "constant"
      value: 0.2
    }
  }
}
layer {
  name: "inception_3b/relu_pool_proj"
  type: "ReLU"
  bottom: "inception_3b/pool_proj"
  top: "inception_3b/pool_proj"
}
layer {
  name: "inception_3b/output"
  type: "Concat"
  bottom: "inception_3b/1x1"
  bottom: "inception_3b/3x3"
  bottom: "inception_3b/5x5"
  bottom: "inception_3b/pool_proj"
  top: "inception_3b/output"
}
layer {
  name: "pool3/3x3_s2"
  type: "Pooling"
  bottom: "inception_3b/output"
  top: "pool3/3x3_s2"
  pooling_param {
    pool: MAX
    kernel_size: 3
    stride: 2
  }
}
layer {
  name: "inception_4a/1x1"
  type: "Convolution"
  bottom: "pool3/3x3_s2"
  top: "inception_4a/1x1"
  param {
    lr_mult: 1
    decay_mult: 1
  }
  param {
    lr_mult: 2
    decay_mult: 0
  }
  convolution_param {
    num_output: 192
    kernel_size: 1
    weight_filler {
      type: "xavier"
      std: 0.03
    }
    bias_filler {
      type: "constant"
      value: 0.2
    }
  }
}
layer {
  name: "inception_4a/relu_1x1"
  type: "ReLU"
  bottom: "inception_4a/1x1"
  top: "inception_4a/1x1"
}
layer {
  name: "inception_4a/3x3_reduce"
  type: "Convolution"
  bottom: "pool3/3x3_s2"
  top: "inception_4a/3x3_reduce"
  param {
    lr_mult: 1
    decay_mult: 1
  }
  param {
    lr_mult: 2
    decay_mult: 0
  }
  convolution_param {
    num_output: 96
    kernel_size: 1
    weight_filler {
      type: "xavier"
      std: 0.09
    }
    bias_filler {
      type: "constant"
      value: 0.2
    }
  }
}
layer {
  name: "inception_4a/relu_3x3_reduce"
  type: "ReLU"
  bottom: "inception_4a/3x3_reduce"
  top: "inception_4a/3x3_reduce"
}
layer {
  name: "inception_4a/3x3"
  type: "Convolution"
  bottom: "inception_4a/3x3_reduce"
  top: "inception_4a/3x3"
  param {
    lr_mult: 1
    decay_mult: 1
  }
  param {
    lr_mult: 2
    decay_mult: 0
  }
  convolution_param {
    num_output: 208
    pad: 1
    kernel_size: 3
    weight_filler {
      type: "xavier"
      std: 0.03
    }
    bias_filler {
      type: "constant"
      value: 0.2
    }
  }
}
layer {
  name: "inception_4a/relu_3x3"
  type: "ReLU"
  bottom: "inception_4a/3x3"
  top: "inception_4a/3x3"
}
layer {
  name: "inception_4a/5x5_reduce"
  type: "Convolution"
  bottom: "pool3/3x3_s2"
  top: "inception_4a/5x5_reduce"
  param {
    lr_mult: 1
    decay_mult: 1
  }
  param {
    lr_mult: 2
    decay_mult: 0
  }
  convolution_param {
    num_output: 16
    kernel_size: 1
    weight_filler {
      type: "xavier"
      std: 0.2
    }
    bias_filler {
      type: "constant"
      value: 0.2
    }
  }
}
layer {
  name: "inception_4a/relu_5x5_reduce"
  type: "ReLU"
  bottom: "inception_4a/5x5_reduce"
  top: "inception_4a/5x5_reduce"
}
layer {
  name: "inception_4a/5x5"
  type: "Convolution"
  bottom: "inception_4a/5x5_reduce"
  top: "inception_4a/5x5"
  param {
    lr_mult: 1
    decay_mult: 1
  }
  param {
    lr_mult: 2
    decay_mult: 0
  }
  convolution_param {
    num_output: 48
    pad: 2
    kernel_size: 5
    weight_filler {
      type: "xavier"
      std: 0.03
    }
    bias_filler {
      type: "constant"
      value: 0.2
    }
  }
}
layer {
  name: "inception_4a/relu_5x5"
  type: "ReLU"
  bottom: "inception_4a/5x5"
  top: "inception_4a/5x5"
}
layer {
  name: "inception_4a/pool"
  type: "Pooling"
  bottom: "pool3/3x3_s2"
  top: "inception_4a/pool"
  pooling_param {
    pool: MAX
    kernel_size: 3
    stride: 1
    pad: 1
  }
}
layer {
  name: "inception_4a/pool_proj"
  type: "Convolution"
  bottom: "inception_4a/pool"
  top: "inception_4a/pool_proj"
  param {
    lr_mult: 1
    decay_mult: 1
  }
  param {
    lr_mult: 2
    decay_mult: 0
  }
  convolution_param {
    num_output: 64
    kernel_size: 1
    weight_filler {
      type: "xavier"
      std: 0.1
    }
    bias_filler {
      type: "constant"
      value: 0.2
    }
  }
}
layer {
  name: "inception_4a/relu_pool_proj"
  type: "ReLU"
  bottom: "inception_4a/pool_proj"
  top: "inception_4a/pool_proj"
}
layer {
  name: "inception_4a/output"
  type: "Concat"
  bottom: "inception_4a/1x1"
  bottom: "inception_4a/3x3"
  bottom: "inception_4a/5x5"
  bottom: "inception_4a/pool_proj"
  top: "inception_4a/output"
}
layer {
  name: "loss1/ave_pool"
  type: "Pooling"
  bottom: "inception_4a/output"
  top: "loss1/ave_pool"
  pooling_param {
    pool: AVE
    kernel_size: 5
    stride: 3
  }
}
layer {
  name: "loss1/conv"
  type: "Convolution"
  bottom: "loss1/ave_pool"
  top: "loss1/conv"
  param {
    lr_mult: 1
    decay_mult: 1
  }
  param {
    lr_mult: 2
    decay_mult: 0
  }
  convolution_param {
    num_output: 128
    kernel_size: 1
    weight_filler {
      type: "xavier"
      std: 0.08
    }
    bias_filler {
      type: "constant"
      value: 0.2
    }
  }
}
layer {
  name: "loss1/relu_conv"
  type: "ReLU"
  bottom: "loss1/conv"
  top: "loss1/conv"
}
layer {
  name: "loss1/fc"
  type: "InnerProduct"
  bottom: "loss1/conv"
  top: "loss1/fc"
  param {
    lr_mult: 1
    decay_mult: 1
  }
  param {
    lr_mult: 2
    decay_mult: 0
  }
  inner_product_param {
    num_output: 1024
    weight_filler {
      type: "xavier"
      std: 0.02
    }
    bias_filler {
      type: "constant"
      value: 0.2
    }
  }
}
layer {
  name: "loss1/relu_fc"
  type: "ReLU"
  bottom: "loss1/fc"
  top: "loss1/fc"
}
layer {
  name: "loss1/drop_fc"
  type: "Dropout"
  bottom: "loss1/fc"
  top: "loss1/fc"
  dropout_param {
    dropout_ratio: 0.7
  }
}
layer {
  name: "loss1/classifier_plantvillage"
  type: "InnerProduct"
  bottom: "loss1/fc"
  top: "loss1/classifier_plantvillage"
  param {
    lr_mult: 1
    decay_mult: 1
  }
  param {
    lr_mult: 2
    decay_mult: 0
  }
  inner_product_param {
    num_output: 38
    weight_filler {
      type: "xavier"
      std: 0.0009765625
    }
    bias_filler {
      type: "constant"
      value: 0
    }
  }
}
layer {
  name: "inception_4b/1x1"
  type: "Convolution"
  bottom: "inception_4a/output"
  top: "inception_4b/1x1"
  param {
    lr_mult: 1
    decay_mult: 1
  }
  param {
    lr_mult: 2
    decay_mult: 0
  }
  convolution_param {
    num_output: 160
    kernel_size: 1
    weight_filler {
      type: "xavier"
      std: 0.03
    }
    bias_filler {
      type: "constant"
      value: 0.2
    }
  }
}
layer {
  name: "inception_4b/relu_1x1"
  type: "ReLU"
  bottom: "inception_4b/1x1"
  top: "inception_4b/1x1"
}
layer {
  name: "inception_4b/3x3_reduce"
  type: "Convolution"
  bottom: "inception_4a/output"
  top: "inception_4b/3x3_reduce"
  param {
    lr_mult: 1
    decay_mult: 1
  }
  param {
    lr_mult: 2
    decay_mult: 0
  }
  convolution_param {
    num_output: 112
    kernel_size: 1
    weight_filler {
      type: "xavier"
      std: 0.09
    }
    bias_filler {
      type: "constant"
      value: 0.2
    }
  }
}
layer {
  name: "inception_4b/relu_3x3_reduce"
  type: "ReLU"
  bottom: "inception_4b/3x3_reduce"
  top: "inception_4b/3x3_reduce"
}
layer {
  name: "inception_4b/3x3"
  type: "Convolution"
  bottom: "inception_4b/3x3_reduce"
  top: "inception_4b/3x3"
  param {
    lr_mult: 1
    decay_mult: 1
  }
  param {
    lr_mult: 2
    decay_mult: 0
  }
  convolution_param {
    num_output: 224
    pad: 1
    kernel_size: 3
    weight_filler {
      type: "xavier"
      std: 0.03
    }
    bias_filler {
      type: "constant"
      value: 0.2
    }
  }
}
layer {
  name: "inception_4b/relu_3x3"
  type: "ReLU"
  bottom: "inception_4b/3x3"
  top: "inception_4b/3x3"
}
layer {
  name: "inception_4b/5x5_reduce"
  type: "Convolution"
  bottom: "inception_4a/output"
  top: "inception_4b/5x5_reduce"
  param {
    lr_mult: 1
    decay_mult: 1
  }
  param {
    lr_mult: 2
    decay_mult: 0
  }
  convolution_param {
    num_output: 24
    kernel_size: 1
    weight_filler {
      type: "xavier"
      std: 0.2
    }
    bias_filler {
      type: "constant"
      value: 0.2
    }
  }
}
layer {
  name: "inception_4b/relu_5x5_reduce"
  type: "ReLU"
  bottom: "inception_4b/5x5_reduce"
  top: "inception_4b/5x5_reduce"
}
layer {
  name: "inception_4b/5x5"
  type: "Convolution"
  bottom: "inception_4b/5x5_reduce"
  top: "inception_4b/5x5"
  param {
    lr_mult: 1
    decay_mult: 1
  }
  param {
    lr_mult: 2
    decay_mult: 0
  }
  convolution_param {
    num_output: 64
    pad: 2
    kernel_size: 5
    weight_filler {
      type: "xavier"
      std: 0.03
    }
    bias_filler {
      type: "constant"
      value: 0.2
    }
  }
}
layer {
  name: "inception_4b/relu_5x5"
  type: "ReLU"
  bottom: "inception_4b/5x5"
  top: "inception_4b/5x5"
}
layer {
  name: "inception_4b/pool"
  type: "Pooling"
  bottom: "inception_4a/output"
  top: "inception_4b/pool"
  pooling_param {
    pool: MAX
    kernel_size: 3
    stride: 1
    pad: 1
  }
}
layer {
  name: "inception_4b/pool_proj"
  type: "Convolution"
  bottom: "inception_4b/pool"
  top: "inception_4b/pool_proj"
  param {
    lr_mult: 1
    decay_mult: 1
  }
  param {
    lr_mult: 2
    decay_mult: 0
  }
  convolution_param {
    num_output: 64
    kernel_size: 1
    weight_filler {
      type: "xavier"
      std: 0.1
    }
    bias_filler {
      type: "constant"
      value: 0.2
    }
  }
}
layer {
  name: "inception_4b/relu_pool_proj"
  type: "ReLU"
  bottom: "inception_4b/pool_proj"
  top: "inception_4b/pool_proj"
}
layer {
  name: "inception_4b/output"
  type: "Concat"
  bottom: "inception_4b/1x1"
  bottom: "inception_4b/3x3"
  bottom: "inception_4b/5x5"
  bottom: "inception_4b/pool_proj"
  top: "inception_4b/output"
}
layer {
  name: "inception_4c/1x1"
  type: "Convolution"
  bottom: "inception_4b/output"
  top: "inception_4c/1x1"
  param {
    lr_mult: 1
    decay_mult: 1
  }
  param {
    lr_mult: 2
    decay_mult: 0
  }
  convolution_param {
    num_output: 128
    kernel_size: 1
    weight_filler {
      type: "xavier"
      std: 0.03
    }
    bias_filler {
      type: "constant"
      value: 0.2
    }
  }
}
layer {
  name: "inception_4c/relu_1x1"
  type: "ReLU"
  bottom: "inception_4c/1x1"
  top: "inception_4c/1x1"
}
layer {
  name: "inception_4c/3x3_reduce"
  type: "Convolution"
  bottom: "inception_4b/output"
  top: "inception_4c/3x3_reduce"
  param {
    lr_mult: 1
    decay_mult: 1
  }
  param {
    lr_mult: 2
    decay_mult: 0
  }
  convolution_param {
    num_output: 128
    kernel_size: 1
    weight_filler {
      type: "xavier"
      std: 0.09
    }
    bias_filler {
      type: "constant"
      value: 0.2
    }
  }
}
layer {
  name: "inception_4c/relu_3x3_reduce"
  type: "ReLU"
  bottom: "inception_4c/3x3_reduce"
  top: "inception_4c/3x3_reduce"
}
layer {
  name: "inception_4c/3x3"
  type: "Convolution"
  bottom: "inception_4c/3x3_reduce"
  top: "inception_4c/3x3"
  param {
    lr_mult: 1
    decay_mult: 1
  }
  param {
    lr_mult: 2
    decay_mult: 0
  }
  convolution_param {
    num_output: 256
    pad: 1
    kernel_size: 3
    weight_filler {
      type: "xavier"
      std: 0.03
    }
    bias_filler {
      type: "constant"
      value: 0.2
    }
  }
}
layer {
  name: "inception_4c/relu_3x3"
  type: "ReLU"
  bottom: "inception_4c/3x3"
  top: "inception_4c/3x3"
}
layer {
  name: "inception_4c/5x5_reduce"
  type: "Convolution"
  bottom: "inception_4b/output"
  top: "inception_4c/5x5_reduce"
  param {
    lr_mult: 1
    decay_mult: 1
  }
  param {
    lr_mult: 2
    decay_mult: 0
  }
  convolution_param {
    num_output: 24
    kernel_size: 1
    weight_filler {
      type: "xavier"
      std: 0.2
    }
    bias_filler {
      type: "constant"
      value: 0.2
    }
  }
}
layer {
  name: "inception_4c/relu_5x5_reduce"
  type: "ReLU"
  bottom: "inception_4c/5x5_reduce"
  top: "inception_4c/5x5_reduce"
}
layer {
  name: "inception_4c/5x5"
  type: "Convolution"
  bottom: "inception_4c/5x5_reduce"
  top: "inception_4c/5x5"
  param {
    lr_mult: 1
    decay_mult: 1
  }
  param {
    lr_mult: 2
    decay_mult: 0
  }
  convolution_param {
    num_output: 64
    pad: 2
    kernel_size: 5
    weight_filler {
      type: "xavier"
      std: 0.03
    }
    bias_filler {
      type: "constant"
      value: 0.2
    }
  }
}
layer {
  name: "inception_4c/relu_5x5"
  type: "ReLU"
  bottom: "inception_4c/5x5"
  top: "inception_4c/5x5"
}
layer {
  name: "inception_4c/pool"
  type: "Pooling"
  bottom: "inception_4b/output"
  top: "inception_4c/pool"
  pooling_param {
    pool: MAX
    kernel_size: 3
    stride: 1
    pad: 1
  }
}
layer {
  name: "inception_4c/pool_proj"
  type: "Convolution"
  bottom: "inception_4c/pool"
  top: "inception_4c/pool_proj"
  param {
    lr_mult: 1
    decay_mult: 1
  }
  param {
    lr_mult: 2
    decay_mult: 0
  }
  convolution_param {
    num_output: 64
    kernel_size: 1
    weight_filler {
      type: "xavier"
      std: 0.1
    }
    bias_filler {
      type: "constant"
      value: 0.2
    }
  }
}
layer {
  name: "inception_4c/relu_pool_proj"
  type: "ReLU"
  bottom: "inception_4c/pool_proj"
  top: "inception_4c/pool_proj"
}
layer {
  name: "inception_4c/output"
  type: "Concat"
  bottom: "inception_4c/1x1"
  bottom: "inception_4c/3x3"
  bottom: "inception_4c/5x5"
  bottom: "inception_4c/pool_proj"
  top: "inception_4c/output"
}
layer {
  name: "inception_4d/1x1"
  type: "Convolution"
  bottom: "inception_4c/output"
  top: "inception_4d/1x1"
  param {
    lr_mult: 1
    decay_mult: 1
  }
  param {
    lr_mult: 2
    decay_mult: 0
  }
  convolution_param {
    num_output: 112
    kernel_size: 1
    weight_filler {
      type: "xavier"
      std: 0.03
    }
    bias_filler {
      type: "constant"
      value: 0.2
    }
  }
}
layer {
  name: "inception_4d/relu_1x1"
  type: "ReLU"
  bottom: "inception_4d/1x1"
  top: "inception_4d/1x1"
}
layer {
  name: "inception_4d/3x3_reduce"
  type: "Convolution"
  bottom: "inception_4c/output"
  top: "inception_4d/3x3_reduce"
  param {
    lr_mult: 1
    decay_mult: 1
  }
  param {
    lr_mult: 2
    decay_mult: 0
  }
  convolution_param {
    num_output: 144
    kernel_size: 1
    weight_filler {
      type: "xavier"
      std: 0.09
    }
    bias_filler {
      type: "constant"
      value: 0.2
    }
  }
}
layer {
  name: "inception_4d/relu_3x3_reduce"
  type: "ReLU"
  bottom: "inception_4d/3x3_reduce"
  top: "inception_4d/3x3_reduce"
}
layer {
  name: "inception_4d/3x3"
  type: "Convolution"
  bottom: "inception_4d/3x3_reduce"
  top: "inception_4d/3x3"
  param {
    lr_mult: 1
    decay_mult: 1
  }
  param {
    lr_mult: 2
    decay_mult: 0
  }
  convolution_param {
    num_output: 288
    pad: 1
    kernel_size: 3
    weight_filler {
      type: "xavier"
      std: 0.03
    }
    bias_filler {
      type: "constant"
      value: 0.2
    }
  }
}
layer {
  name: "inception_4d/relu_3x3"
  type: "ReLU"
  bottom: "inception_4d/3x3"
  top: "inception_4d/3x3"
}
layer {
  name: "inception_4d/5x5_reduce"
  type: "Convolution"
  bottom: "inception_4c/output"
  top: "inception_4d/5x5_reduce"
  param {
    lr_mult: 1
    decay_mult: 1
  }
  param {
    lr_mult: 2
    decay_mult: 0
  }
  convolution_param {
    num_output: 32
    kernel_size: 1
    weight_filler {
      type: "xavier"
      std: 0.2
    }
    bias_filler {
      type: "constant"
      value: 0.2
    }
  }
}
layer {
  name: "inception_4d/relu_5x5_reduce"
  type: "ReLU"
  bottom: "inception_4d/5x5_reduce"
  top: "inception_4d/5x5_reduce"
}
layer {
  name: "inception_4d/5x5"
  type: "Convolution"
  bottom: "inception_4d/5x5_reduce"
  top: "inception_4d/5x5"
  param {
    lr_mult: 1
    decay_mult: 1
  }
  param {
    lr_mult: 2
    decay_mult: 0
  }
  convolution_param {
    num_output: 64
    pad: 2
    kernel_size: 5
    weight_filler {
      type: "xavier"
      std: 0.03
    }
    bias_filler {
      type: "constant"
      value: 0.2
    }
  }
}
layer {
  name: "inception_4d/relu_5x5"
  type: "ReLU"
  bottom: "inception_4d/5x5"
  top: "inception_4d/5x5"
}
layer {
  name: "inception_4d/pool"
  type: "Pooling"
  bottom: "inception_4c/output"
  top: "inception_4d/pool"
  pooling_param {
    pool: MAX
    kernel_size: 3
    stride: 1
    pad: 1
  }
}
layer {
  name: "inception_4d/pool_proj"
  type: "Convolution"
  bottom: "inception_4d/pool"
  top: "inception_4d/pool_proj"
  param {
    lr_mult: 1
    decay_mult: 1
  }
  param {
    lr_mult: 2
    decay_mult: 0
  }
  convolution_param {
    num_output: 64
    kernel_size: 1
    weight_filler {
      type: "xavier"
      std: 0.1
    }
    bias_filler {
      type: "constant"
      value: 0.2
    }
  }
}
layer {
  name: "inception_4d/relu_pool_proj"
  type: "ReLU"
  bottom: "inception_4d/pool_proj"
  top: "inception_4d/pool_proj"
}
layer {
  name: "inception_4d/output"
  type: "Concat"
  bottom: "inception_4d/1x1"
  bottom: "inception_4d/3x3"
  bottom: "inception_4d/5x5"
  bottom: "inception_4d/pool_proj"
  top: "inception_4d/output"
}
layer {
  name: "loss2/ave_pool"
  type: "Pooling"
  bottom: "inception_4d/output"
  top: "loss2/ave_pool"
  pooling_param {
    pool: AVE
    kernel_size: 5
    stride: 3
  }
}
layer {
  name: "loss2/conv"
  type: "Convolution"
  bottom: "loss2/ave_pool"
  top: "loss2/conv"
  param {
    lr_mult: 1
    decay_mult: 1
  }
  param {
    lr_mult: 2
    decay_mult: 0
  }
  convolution_param {
    num_output: 128
    kernel_size: 1
    weight_filler {
      type: "xavier"
      std: 0.08
    }
    bias_filler {
      type: "constant"
      value: 0.2
    }
  }
}
layer {
  name: "loss2/relu_conv"
  type: "ReLU"
  bottom: "loss2/conv"
  top: "loss2/conv"
}
layer {
  name: "loss2/fc"
  type: "InnerProduct"
  bottom: "loss2/conv"
  top: "loss2/fc"
  param {
    lr_mult: 1
    decay_mult: 1
  }
  param {
    lr_mult: 2
    decay_mult: 0
  }
  inner_product_param {
    num_output: 1024
    weight_filler {
      type: "xavier"
      std: 0.02
    }
    bias_filler {
      type: "constant"
      value: 0.2
    }
  }
}
layer {
  name: "loss2/relu_fc"
  type: "ReLU"
  bottom: "loss2/fc"
  top: "loss2/fc"
}
layer {
  name: "loss2/drop_fc"
  type: "Dropout"
  bottom: "loss2/fc"
  top: "loss2/fc"
  dropout_param {
    dropout_ratio: 0.7
  }
}
layer {
  name: "loss2/classifier_plantvillage"
  type: "InnerProduct"
  bottom: "loss2/fc"
  top: "loss2/classifier_plantvillage"
  param {
    lr_mult: 1
    decay_mult: 1
  }
  param {
    lr_mult: 2
    decay_mult: 0
  }
  inner_product_param {
    num_output: 38
    weight_filler {
      type: "xavier"
      std: 0.0009765625
    }
    bias_filler {
      type: "constant"
      value: 0
    }
  }
}
layer {
  name: "inception_4e/1x1"
  type: "Convolution"
  bottom: "inception_4d/output"
  top: "inception_4e/1x1"
  param {
    lr_mult: 1
    decay_mult: 1
  }
  param {
    lr_mult: 2
    decay_mult: 0
  }
  convolution_param {
    num_output: 256
    kernel_size: 1
    weight_filler {
      type: "xavier"
      std: 0.03
    }
    bias_filler {
      type: "constant"
      value: 0.2
    }
  }
}
layer {
  name: "inception_4e/relu_1x1"
  type: "ReLU"
  bottom: "inception_4e/1x1"
  top: "inception_4e/1x1"
}
layer {
  name: "inception_4e/3x3_reduce"
  type: "Convolution"
  bottom: "inception_4d/output"
  top: "inception_4e/3x3_reduce"
  param {
    lr_mult: 1
    decay_mult: 1
  }
  param {
    lr_mult: 2
    decay_mult: 0
  }
  convolution_param {
    num_output: 160
    kernel_size: 1
    weight_filler {
      type: "xavier"
      std: 0.09
    }
    bias_filler {
      type: "constant"
      value: 0.2
    }
  }
}
layer {
  name: "inception_4e/relu_3x3_reduce"
  type: "ReLU"
  bottom: "inception_4e/3x3_reduce"
  top: "inception_4e/3x3_reduce"
}
layer {
  name: "inception_4e/3x3"
  type: "Convolution"
  bottom: "inception_4e/3x3_reduce"
  top: "inception_4e/3x3"
  param {
    lr_mult: 1
    decay_mult: 1
  }
  param {
    lr_mult: 2
    decay_mult: 0
  }
  convolution_param {
    num_output: 320
    pad: 1
    kernel_size: 3
    weight_filler {
      type: "xavier"
      std: 0.03
    }
    bias_filler {
      type: "constant"
      value: 0.2
    }
  }
}
layer {
  name: "inception_4e/relu_3x3"
  type: "ReLU"
  bottom: "inception_4e/3x3"
  top: "inception_4e/3x3"
}
layer {
  name: "inception_4e/5x5_reduce"
  type: "Convolution"
  bottom: "inception_4d/output"
  top: "inception_4e/5x5_reduce"
  param {
    lr_mult: 1
    decay_mult: 1
  }
  param {
    lr_mult: 2
    decay_mult: 0
  }
  convolution_param {
    num_output: 32
    kernel_size: 1
    weight_filler {
      type: "xavier"
      std: 0.2
    }
    bias_filler {
      type: "constant"
      value: 0.2
    }
  }
}
layer {
  name: "inception_4e/relu_5x5_reduce"
  type: "ReLU"
  bottom: "inception_4e/5x5_reduce"
  top: "inception_4e/5x5_reduce"
}
layer {
  name: "inception_4e/5x5"
  type: "Convolution"
  bottom: "inception_4e/5x5_reduce"
  top: "inception_4e/
I0403 18:02:09.548288  6507 layer_factory.hpp:77] Creating layer data
I0403 18:02:09.548868  6507 net.cpp:91] Creating Layer data
I0403 18:02:09.548902  6507 net.cpp:399] data -> data
I0403 18:02:09.548951  6507 net.cpp:399] data -> label
I0403 18:02:09.548987  6507 data_transformer.cpp:25] Loading mean file from: /home/mohanty/data/final_dataset/lmdb/grayscale-40-60/mean.binaryproto
I0403 18:02:09.550037  6512 db_lmdb.cpp:38] Opened lmdb /home/mohanty/data/final_dataset/lmdb/grayscale-40-60/test_db
I0403 18:02:09.562458  6507 data_layer.cpp:41] output data size: 24,3,224,224
I0403 18:02:09.590684  6507 net.cpp:141] Setting up data
I0403 18:02:09.590795  6507 net.cpp:148] Top shape: 24 3 224 224 (3612672)
I0403 18:02:09.590819  6507 net.cpp:148] Top shape: 24 (24)
I0403 18:02:09.590837  6507 net.cpp:156] Memory required for data: 14450784
I0403 18:02:09.590865  6507 layer_factory.hpp:77] Creating layer label_data_1_split
I0403 18:02:09.590893  6507 net.cpp:91] Creating Layer label_data_1_split
I0403 18:02:09.590914  6507 net.cpp:425] label_data_1_split <- label
I0403 18:02:09.590947  6507 net.cpp:399] label_data_1_split -> label_data_1_split_0
I0403 18:02:09.590976  6507 net.cpp:399] label_data_1_split -> label_data_1_split_1
I0403 18:02:09.590999  6507 net.cpp:399] label_data_1_split -> label_data_1_split_2
I0403 18:02:09.591022  6507 net.cpp:399] label_data_1_split -> label_data_1_split_3
I0403 18:02:09.591044  6507 net.cpp:399] label_data_1_split -> label_data_1_split_4
I0403 18:02:09.591066  6507 net.cpp:399] label_data_1_split -> label_data_1_split_5
I0403 18:02:09.591089  6507 net.cpp:399] label_data_1_split -> label_data_1_split_6
I0403 18:02:09.591110  6507 net.cpp:399] label_data_1_split -> label_data_1_split_7
I0403 18:02:09.591131  6507 net.cpp:399] label_data_1_split -> label_data_1_split_8
I0403 18:02:09.591153  6507 net.cpp:399] label_data_1_split -> label_data_1_split_9
I0403 18:02:09.591295  6507 net.cpp:141] Setting up label_data_1_split
I0403 18:02:09.591322  6507 net.cpp:148] Top shape: 24 (24)
I0403 18:02:09.591341  6507 net.cpp:148] Top shape: 24 (24)
I0403 18:02:09.591358  6507 net.cpp:148] Top shape: 24 (24)
I0403 18:02:09.591375  6507 net.cpp:148] Top shape: 24 (24)
I0403 18:02:09.591394  6507 net.cpp:148] Top shape: 24 (24)
I0403 18:02:09.591413  6507 net.cpp:148] Top shape: 24 (24)
I0403 18:02:09.591430  6507 net.cpp:148] Top shape: 24 (24)
I0403 18:02:09.591449  6507 net.cpp:148] Top shape: 24 (24)
I0403 18:02:09.591466  6507 net.cpp:148] Top shape: 24 (24)
I0403 18:02:09.591485  6507 net.cpp:148] Top shape: 24 (24)
I0403 18:02:09.591534  6507 net.cpp:156] Memory required for data: 14451744
I0403 18:02:09.591552  6507 layer_factory.hpp:77] Creating layer conv1/7x7_s2
I0403 18:02:09.591600  6507 net.cpp:91] Creating Layer conv1/7x7_s2
I0403 18:02:09.591621  6507 net.cpp:425] conv1/7x7_s2 <- data
I0403 18:02:09.591644  6507 net.cpp:399] conv1/7x7_s2 -> conv1/7x7_s2
I0403 18:02:09.737416  6507 net.cpp:141] Setting up conv1/7x7_s2
I0403 18:02:09.737526  6507 net.cpp:148] Top shape: 24 64 112 112 (19267584)
I0403 18:02:09.737546  6507 net.cpp:156] Memory required for data: 91522080
I0403 18:02:09.737579  6507 layer_factory.hpp:77] Creating layer conv1/relu_7x7
I0403 18:02:09.737608  6507 net.cpp:91] Creating Layer conv1/relu_7x7
I0403 18:02:09.737629  6507 net.cpp:425] conv1/relu_7x7 <- conv1/7x7_s2
I0403 18:02:09.737650  6507 net.cpp:386] conv1/relu_7x7 -> conv1/7x7_s2 (in-place)
I0403 18:02:09.737920  6507 net.cpp:141] Setting up conv1/relu_7x7
I0403 18:02:09.737948  6507 net.cpp:148] Top shape: 24 64 112 112 (19267584)
I0403 18:02:09.737965  6507 net.cpp:156] Memory required for data: 168592416
I0403 18:02:09.737982  6507 layer_factory.hpp:77] Creating layer pool1/3x3_s2
I0403 18:02:09.738008  6507 net.cpp:91] Creating Layer pool1/3x3_s2
I0403 18:02:09.738028  6507 net.cpp:425] pool1/3x3_s2 <- conv1/7x7_s2
I0403 18:02:09.738049  6507 net.cpp:399] pool1/3x3_s2 -> pool1/3x3_s2
I0403 18:02:09.738126  6507 net.cpp:141] Setting up pool1/3x3_s2
I0403 18:02:09.738152  6507 net.cpp:148] Top shape: 24 64 56 56 (4816896)
I0403 18:02:09.738168  6507 net.cpp:156] Memory required for data: 187860000
I0403 18:02:09.738184  6507 layer_factory.hpp:77] Creating layer pool1/norm1
I0403 18:02:09.738210  6507 net.cpp:91] Creating Layer pool1/norm1
I0403 18:02:09.738229  6507 net.cpp:425] pool1/norm1 <- pool1/3x3_s2
I0403 18:02:09.738255  6507 net.cpp:399] pool1/norm1 -> pool1/norm1
I0403 18:02:09.738553  6507 net.cpp:141] Setting up pool1/norm1
I0403 18:02:09.738580  6507 net.cpp:148] Top shape: 24 64 56 56 (4816896)
I0403 18:02:09.738597  6507 net.cpp:156] Memory required for data: 207127584
I0403 18:02:09.738613  6507 layer_factory.hpp:77] Creating layer conv2/3x3_reduce
I0403 18:02:09.738641  6507 net.cpp:91] Creating Layer conv2/3x3_reduce
I0403 18:02:09.738658  6507 net.cpp:425] conv2/3x3_reduce <- pool1/norm1
I0403 18:02:09.738678  6507 net.cpp:399] conv2/3x3_reduce -> conv2/3x3_reduce
I0403 18:02:09.740083  6507 net.cpp:141] Setting up conv2/3x3_reduce
I0403 18:02:09.740114  6507 net.cpp:148] Top shape: 24 64 56 56 (4816896)
I0403 18:02:09.740131  6507 net.cpp:156] Memory required for data: 226395168
I0403 18:02:09.740154  6507 layer_factory.hpp:77] Creating layer conv2/relu_3x3_reduce
I0403 18:02:09.740175  6507 net.cpp:91] Creating Layer conv2/relu_3x3_reduce
I0403 18:02:09.740192  6507 net.cpp:425] conv2/relu_3x3_reduce <- conv2/3x3_reduce
I0403 18:02:09.740211  6507 net.cpp:386] conv2/relu_3x3_reduce -> conv2/3x3_reduce (in-place)
I0403 18:02:09.740478  6507 net.cpp:141] Setting up conv2/relu_3x3_reduce
I0403 18:02:09.740509  6507 net.cpp:148] Top shape: 24 64 56 56 (4816896)
I0403 18:02:09.740526  6507 net.cpp:156] Memory required for data: 245662752
I0403 18:02:09.740543  6507 layer_factory.hpp:77] Creating layer conv2/3x3
I0403 18:02:09.740567  6507 net.cpp:91] Creating Layer conv2/3x3
I0403 18:02:09.740586  6507 net.cpp:425] conv2/3x3 <- conv2/3x3_reduce
I0403 18:02:09.740607  6507 net.cpp:399] conv2/3x3 -> conv2/3x3
I0403 18:02:09.742983  6507 net.cpp:141] Setting up conv2/3x3
I0403 18:02:09.743017  6507 net.cpp:148] Top shape: 24 192 56 56 (14450688)
I0403 18:02:09.743036  6507 net.cpp:156] Memory required for data: 303465504
I0403 18:02:09.743060  6507 layer_factory.hpp:77] Creating layer conv2/relu_3x3
I0403 18:02:09.743080  6507 net.cpp:91] Creating Layer conv2/relu_3x3
I0403 18:02:09.743098  6507 net.cpp:425] conv2/relu_3x3 <- conv2/3x3
I0403 18:02:09.743120  6507 net.cpp:386] conv2/relu_3x3 -> conv2/3x3 (in-place)
I0403 18:02:09.743314  6507 net.cpp:141] Setting up conv2/relu_3x3
I0403 18:02:09.743341  6507 net.cpp:148] Top shape: 24 192 56 56 (14450688)
I0403 18:02:09.743394  6507 net.cpp:156] Memory required for data: 361268256
I0403 18:02:09.743412  6507 layer_factory.hpp:77] Creating layer conv2/norm2
I0403 18:02:09.743435  6507 net.cpp:91] Creating Layer conv2/norm2
I0403 18:02:09.743455  6507 net.cpp:425] conv2/norm2 <- conv2/3x3
I0403 18:02:09.743474  6507 net.cpp:399] conv2/norm2 -> conv2/norm2
I0403 18:02:09.743826  6507 net.cpp:141] Setting up conv2/norm2
I0403 18:02:09.743856  6507 net.cpp:148] Top shape: 24 192 56 56 (14450688)
I0403 18:02:09.743876  6507 net.cpp:156] Memory required for data: 419071008
I0403 18:02:09.743894  6507 layer_factory.hpp:77] Creating layer pool2/3x3_s2
I0403 18:02:09.743913  6507 net.cpp:91] Creating Layer pool2/3x3_s2
I0403 18:02:09.743930  6507 net.cpp:425] pool2/3x3_s2 <- conv2/norm2
I0403 18:02:09.743950  6507 net.cpp:399] pool2/3x3_s2 -> pool2/3x3_s2
I0403 18:02:09.744009  6507 net.cpp:141] Setting up pool2/3x3_s2
I0403 18:02:09.744035  6507 net.cpp:148] Top shape: 24 192 28 28 (3612672)
I0403 18:02:09.744053  6507 net.cpp:156] Memory required for data: 433521696
I0403 18:02:09.744070  6507 layer_factory.hpp:77] Creating layer pool2/3x3_s2_pool2/3x3_s2_0_split
I0403 18:02:09.744091  6507 net.cpp:91] Creating Layer pool2/3x3_s2_pool2/3x3_s2_0_split
I0403 18:02:09.744108  6507 net.cpp:425] pool2/3x3_s2_pool2/3x3_s2_0_split <- pool2/3x3_s2
I0403 18:02:09.744130  6507 net.cpp:399] pool2/3x3_s2_pool2/3x3_s2_0_split -> pool2/3x3_s2_pool2/3x3_s2_0_split_0
I0403 18:02:09.744153  6507 net.cpp:399] pool2/3x3_s2_pool2/3x3_s2_0_split -> pool2/3x3_s2_pool2/3x3_s2_0_split_1
I0403 18:02:09.744174  6507 net.cpp:399] pool2/3x3_s2_pool2/3x3_s2_0_split -> pool2/3x3_s2_pool2/3x3_s2_0_split_2
I0403 18:02:09.744195  6507 net.cpp:399] pool2/3x3_s2_pool2/3x3_s2_0_split -> pool2/3x3_s2_pool2/3x3_s2_0_split_3
I0403 18:02:09.744277  6507 net.cpp:141] Setting up pool2/3x3_s2_pool2/3x3_s2_0_split
I0403 18:02:09.744304  6507 net.cpp:148] Top shape: 24 192 28 28 (3612672)
I0403 18:02:09.744324  6507 net.cpp:148] Top shape: 24 192 28 28 (3612672)
I0403 18:02:09.744341  6507 net.cpp:148] Top shape: 24 192 28 28 (3612672)
I0403 18:02:09.744359  6507 net.cpp:148] Top shape: 24 192 28 28 (3612672)
I0403 18:02:09.744375  6507 net.cpp:156] Memory required for data: 491324448
I0403 18:02:09.744391  6507 layer_factory.hpp:77] Creating layer inception_3a/1x1
I0403 18:02:09.744416  6507 net.cpp:91] Creating Layer inception_3a/1x1
I0403 18:02:09.744434  6507 net.cpp:425] inception_3a/1x1 <- pool2/3x3_s2_pool2/3x3_s2_0_split_0
I0403 18:02:09.744460  6507 net.cpp:399] inception_3a/1x1 -> inception_3a/1x1
I0403 18:02:09.746085  6507 net.cpp:141] Setting up inception_3a/1x1
I0403 18:02:09.746116  6507 net.cpp:148] Top shape: 24 64 28 28 (1204224)
I0403 18:02:09.746134  6507 net.cpp:156] Memory required for data: 496141344
I0403 18:02:09.746157  6507 layer_factory.hpp:77] Creating layer inception_3a/relu_1x1
I0403 18:02:09.746178  6507 net.cpp:91] Creating Layer inception_3a/relu_1x1
I0403 18:02:09.746196  6507 net.cpp:425] inception_3a/relu_1x1 <- inception_3a/1x1
I0403 18:02:09.746217  6507 net.cpp:386] inception_3a/relu_1x1 -> inception_3a/1x1 (in-place)
I0403 18:02:09.746412  6507 net.cpp:141] Setting up inception_3a/relu_1x1
I0403 18:02:09.746439  6507 net.cpp:148] Top shape: 24 64 28 28 (1204224)
I0403 18:02:09.746455  6507 net.cpp:156] Memory required for data: 500958240
I0403 18:02:09.746472  6507 layer_factory.hpp:77] Creating layer inception_3a/3x3_reduce
I0403 18:02:09.746497  6507 net.cpp:91] Creating Layer inception_3a/3x3_reduce
I0403 18:02:09.746516  6507 net.cpp:425] inception_3a/3x3_reduce <- pool2/3x3_s2_pool2/3x3_s2_0_split_1
I0403 18:02:09.746543  6507 net.cpp:399] inception_3a/3x3_reduce -> inception_3a/3x3_reduce
I0403 18:02:09.748314  6507 net.cpp:141] Setting up inception_3a/3x3_reduce
I0403 18:02:09.748347  6507 net.cpp:148] Top shape: 24 96 28 28 (1806336)
I0403 18:02:09.748365  6507 net.cpp:156] Memory required for data: 508183584
I0403 18:02:09.748389  6507 layer_factory.hpp:77] Creating layer inception_3a/relu_3x3_reduce
I0403 18:02:09.748425  6507 net.cpp:91] Creating Layer inception_3a/relu_3x3_reduce
I0403 18:02:09.748445  6507 net.cpp:425] inception_3a/relu_3x3_reduce <- inception_3a/3x3_reduce
I0403 18:02:09.748466  6507 net.cpp:386] inception_3a/relu_3x3_reduce -> inception_3a/3x3_reduce (in-place)
I0403 18:02:09.748649  6507 net.cpp:141] Setting up inception_3a/relu_3x3_reduce
I0403 18:02:09.748675  6507 net.cpp:148] Top shape: 24 96 28 28 (1806336)
I0403 18:02:09.748692  6507 net.cpp:156] Memory required for data: 515408928
I0403 18:02:09.748708  6507 layer_factory.hpp:77] Creating layer inception_3a/3x3
I0403 18:02:09.748731  6507 net.cpp:91] Creating Layer inception_3a/3x3
I0403 18:02:09.748749  6507 net.cpp:425] inception_3a/3x3 <- inception_3a/3x3_reduce
I0403 18:02:09.748772  6507 net.cpp:399] inception_3a/3x3 -> inception_3a/3x3
I0403 18:02:09.750444  6507 net.cpp:141] Setting up inception_3a/3x3
I0403 18:02:09.750475  6507 net.cpp:148] Top shape: 24 128 28 28 (2408448)
I0403 18:02:09.750493  6507 net.cpp:156] Memory required for data: 525042720
I0403 18:02:09.750512  6507 layer_factory.hpp:77] Creating layer inception_3a/relu_3x3
I0403 18:02:09.750532  6507 net.cpp:91] Creating Layer inception_3a/relu_3x3
I0403 18:02:09.750550  6507 net.cpp:425] inception_3a/relu_3x3 <- inception_3a/3x3
I0403 18:02:09.750571  6507 net.cpp:386] inception_3a/relu_3x3 -> inception_3a/3x3 (in-place)
I0403 18:02:09.750854  6507 net.cpp:141] Setting up inception_3a/relu_3x3
I0403 18:02:09.750882  6507 net.cpp:148] Top shape: 24 128 28 28 (2408448)
I0403 18:02:09.750900  6507 net.cpp:156] Memory required for data: 534676512
I0403 18:02:09.750916  6507 layer_factory.hpp:77] Creating layer inception_3a/5x5_reduce
I0403 18:02:09.750941  6507 net.cpp:91] Creating Layer inception_3a/5x5_reduce
I0403 18:02:09.750958  6507 net.cpp:425] inception_3a/5x5_reduce <- pool2/3x3_s2_pool2/3x3_s2_0_split_2
I0403 18:02:09.750978  6507 net.cpp:399] inception_3a/5x5_reduce -> inception_3a/5x5_reduce
I0403 18:02:09.751955  6507 net.cpp:141] Setting up inception_3a/5x5_reduce
I0403 18:02:09.751984  6507 net.cpp:148] Top shape: 24 16 28 28 (301056)
I0403 18:02:09.752001  6507 net.cpp:156] Memory required for data: 535880736
I0403 18:02:09.752020  6507 layer_factory.hpp:77] Creating layer inception_3a/relu_5x5_reduce
I0403 18:02:09.752040  6507 net.cpp:91] Creating Layer inception_3a/relu_5x5_reduce
I0403 18:02:09.752058  6507 net.cpp:425] inception_3a/relu_5x5_reduce <- inception_3a/5x5_reduce
I0403 18:02:09.752080  6507 net.cpp:386] inception_3a/relu_5x5_reduce -> inception_3a/5x5_reduce (in-place)
I0403 18:02:09.752391  6507 net.cpp:141] Setting up inception_3a/relu_5x5_reduce
I0403 18:02:09.752419  6507 net.cpp:148] Top shape: 24 16 28 28 (301056)
I0403 18:02:09.752436  6507 net.cpp:156] Memory required for data: 537084960
I0403 18:02:09.752452  6507 layer_factory.hpp:77] Creating layer inception_3a/5x5
I0403 18:02:09.752477  6507 net.cpp:91] Creating Layer inception_3a/5x5
I0403 18:02:09.752496  6507 net.cpp:425] inception_3a/5x5 <- inception_3a/5x5_reduce
I0403 18:02:09.752521  6507 net.cpp:399] inception_3a/5x5 -> inception_3a/5x5
I0403 18:02:09.753581  6507 net.cpp:141] Setting up inception_3a/5x5
I0403 18:02:09.753612  6507 net.cpp:148] Top shape: 24 32 28 28 (602112)
I0403 18:02:09.753630  6507 net.cpp:156] Memory required for data: 539493408
I0403 18:02:09.753650  6507 layer_factory.hpp:77] Creating layer inception_3a/relu_5x5
I0403 18:02:09.753670  6507 net.cpp:91] Creating Layer inception_3a/relu_5x5
I0403 18:02:09.753689  6507 net.cpp:425] inception_3a/relu_5x5 <- inception_3a/5x5
I0403 18:02:09.753710  6507 net.cpp:386] inception_3a/relu_5x5 -> inception_3a/5x5 (in-place)
I0403 18:02:09.753893  6507 net.cpp:141] Setting up inception_3a/relu_5x5
I0403 18:02:09.753919  6507 net.cpp:148] Top shape: 24 32 28 28 (602112)
I0403 18:02:09.753937  6507 net.cpp:156] Memory required for data: 541901856
I0403 18:02:09.753954  6507 layer_factory.hpp:77] Creating layer inception_3a/pool
I0403 18:02:09.753973  6507 net.cpp:91] Creating Layer inception_3a/pool
I0403 18:02:09.754005  6507 net.cpp:425] inception_3a/pool <- pool2/3x3_s2_pool2/3x3_s2_0_split_3
I0403 18:02:09.754029  6507 net.cpp:399] inception_3a/pool -> inception_3a/pool
I0403 18:02:09.754091  6507 net.cpp:141] Setting up inception_3a/pool
I0403 18:02:09.754117  6507 net.cpp:148] Top shape: 24 192 28 28 (3612672)
I0403 18:02:09.754132  6507 net.cpp:156] Memory required for data: 556352544
I0403 18:02:09.754148  6507 layer_factory.hpp:77] Creating layer inception_3a/pool_proj
I0403 18:02:09.754176  6507 net.cpp:91] Creating Layer inception_3a/pool_proj
I0403 18:02:09.754195  6507 net.cpp:425] inception_3a/pool_proj <- inception_3a/pool
I0403 18:02:09.754216  6507 net.cpp:399] inception_3a/pool_proj -> inception_3a/pool_proj
I0403 18:02:09.755272  6507 net.cpp:141] Setting up inception_3a/pool_proj
I0403 18:02:09.755303  6507 net.cpp:148] Top shape: 24 32 28 28 (602112)
I0403 18:02:09.755321  6507 net.cpp:156] Memory required for data: 558760992
I0403 18:02:09.755347  6507 layer_factory.hpp:77] Creating layer inception_3a/relu_pool_proj
I0403 18:02:09.755370  6507 net.cpp:91] Creating Layer inception_3a/relu_pool_proj
I0403 18:02:09.755393  6507 net.cpp:425] inception_3a/relu_pool_proj <- inception_3a/pool_proj
I0403 18:02:09.755414  6507 net.cpp:386] inception_3a/relu_pool_proj -> inception_3a/pool_proj (in-place)
I0403 18:02:09.755708  6507 net.cpp:141] Setting up inception_3a/relu_pool_proj
I0403 18:02:09.755739  6507 net.cpp:148] Top shape: 24 32 28 28 (602112)
I0403 18:02:09.755759  6507 net.cpp:156] Memory required for data: 561169440
I0403 18:02:09.755775  6507 layer_factory.hpp:77] Creating layer inception_3a/output
I0403 18:02:09.755795  6507 net.cpp:91] Creating Layer inception_3a/output
I0403 18:02:09.755812  6507 net.cpp:425] inception_3a/output <- inception_3a/1x1
I0403 18:02:09.755831  6507 net.cpp:425] inception_3a/output <- inception_3a/3x3
I0403 18:02:09.755851  6507 net.cpp:425] inception_3a/output <- inception_3a/5x5
I0403 18:02:09.755868  6507 net.cpp:425] inception_3a/output <- inception_3a/pool_proj
I0403 18:02:09.755890  6507 net.cpp:399] inception_3a/output -> inception_3a/output
I0403 18:02:09.755940  6507 net.cpp:141] Setting up inception_3a/output
I0403 18:02:09.755965  6507 net.cpp:148] Top shape: 24 256 28 28 (4816896)
I0403 18:02:09.755982  6507 net.cpp:156] Memory required for data: 580437024
I0403 18:02:09.756000  6507 layer_factory.hpp:77] Creating layer inception_3a/output_inception_3a/output_0_split
I0403 18:02:09.756021  6507 net.cpp:91] Creating Layer inception_3a/output_inception_3a/output_0_split
I0403 18:02:09.756042  6507 net.cpp:425] inception_3a/output_inception_3a/output_0_split <- inception_3a/output
I0403 18:02:09.756062  6507 net.cpp:399] inception_3a/output_inception_3a/output_0_split -> inception_3a/output_inception_3a/output_0_split_0
I0403 18:02:09.756083  6507 net.cpp:399] inception_3a/output_inception_3a/output_0_split -> inception_3a/output_inception_3a/output_0_split_1
I0403 18:02:09.756111  6507 net.cpp:399] inception_3a/output_inception_3a/output_0_split -> inception_3a/output_inception_3a/output_0_split_2
I0403 18:02:09.756134  6507 net.cpp:399] inception_3a/output_inception_3a/output_0_split -> inception_3a/output_inception_3a/output_0_split_3
I0403 18:02:09.756217  6507 net.cpp:141] Setting up inception_3a/output_inception_3a/output_0_split
I0403 18:02:09.756250  6507 net.cpp:148] Top shape: 24 256 28 28 (4816896)
I0403 18:02:09.756271  6507 net.cpp:148] Top shape: 24 256 28 28 (4816896)
I0403 18:02:09.756290  6507 net.cpp:148] Top shape: 24 256 28 28 (4816896)
I0403 18:02:09.756310  6507 net.cpp:148] Top shape: 24 256 28 28 (4816896)
I0403 18:02:09.756326  6507 net.cpp:156] Memory required for data: 657507360
I0403 18:02:09.756345  6507 layer_factory.hpp:77] Creating layer inception_3b/1x1
I0403 18:02:09.756368  6507 net.cpp:91] Creating Layer inception_3b/1x1
I0403 18:02:09.756389  6507 net.cpp:425] inception_3b/1x1 <- inception_3a/output_inception_3a/output_0_split_0
I0403 18:02:09.756409  6507 net.cpp:399] inception_3b/1x1 -> inception_3b/1x1
I0403 18:02:09.757632  6507 net.cpp:141] Setting up inception_3b/1x1
I0403 18:02:09.757681  6507 net.cpp:148] Top shape: 24 128 28 28 (2408448)
I0403 18:02:09.757701  6507 net.cpp:156] Memory required for data: 667141152
I0403 18:02:09.757722  6507 layer_factory.hpp:77] Creating layer inception_3b/relu_1x1
I0403 18:02:09.757742  6507 net.cpp:91] Creating Layer inception_3b/relu_1x1
I0403 18:02:09.757761  6507 net.cpp:425] inception_3b/relu_1x1 <- inception_3b/1x1
I0403 18:02:09.757779  6507 net.cpp:386] inception_3b/relu_1x1 -> inception_3b/1x1 (in-place)
I0403 18:02:09.757972  6507 net.cpp:141] Setting up inception_3b/relu_1x1
I0403 18:02:09.758002  6507 net.cpp:148] Top shape: 24 128 28 28 (2408448)
I0403 18:02:09.758018  6507 net.cpp:156] Memory required for data: 676774944
I0403 18:02:09.758035  6507 layer_factory.hpp:77] Creating layer inception_3b/3x3_reduce
I0403 18:02:09.758060  6507 net.cpp:91] Creating Layer inception_3b/3x3_reduce
I0403 18:02:09.758080  6507 net.cpp:425] inception_3b/3x3_reduce <- inception_3a/output_inception_3a/output_0_split_1
I0403 18:02:09.758102  6507 net.cpp:399] inception_3b/3x3_reduce -> inception_3b/3x3_reduce
I0403 18:02:09.759332  6507 net.cpp:141] Setting up inception_3b/3x3_reduce
I0403 18:02:09.759363  6507 net.cpp:148] Top shape: 24 128 28 28 (2408448)
I0403 18:02:09.759380  6507 net.cpp:156] Memory required for data: 686408736
I0403 18:02:09.759402  6507 layer_factory.hpp:77] Creating layer inception_3b/relu_3x3_reduce
I0403 18:02:09.759425  6507 net.cpp:91] Creating Layer inception_3b/relu_3x3_reduce
I0403 18:02:09.759443  6507 net.cpp:425] inception_3b/relu_3x3_reduce <- inception_3b/3x3_reduce
I0403 18:02:09.759464  6507 net.cpp:386] inception_3b/relu_3x3_reduce -> inception_3b/3x3_reduce (in-place)
I0403 18:02:09.759652  6507 net.cpp:141] Setting up inception_3b/relu_3x3_reduce
I0403 18:02:09.759680  6507 net.cpp:148] Top shape: 24 128 28 28 (2408448)
I0403 18:02:09.759696  6507 net.cpp:156] Memory required for data: 696042528
I0403 18:02:09.759714  6507 layer_factory.hpp:77] Creating layer inception_3b/3x3
I0403 18:02:09.759742  6507 net.cpp:91] Creating Layer inception_3b/3x3
I0403 18:02:09.759763  6507 net.cpp:425] inception_3b/3x3 <- inception_3b/3x3_reduce
I0403 18:02:09.759785  6507 net.cpp:399] inception_3b/3x3 -> inception_3b/3x3
I0403 18:02:09.762917  6507 net.cpp:141] Setting up inception_3b/3x3
I0403 18:02:09.762953  6507 net.cpp:148] Top shape: 24 192 28 28 (3612672)
I0403 18:02:09.762971  6507 net.cpp:156] Memory required for data: 710493216
I0403 18:02:09.762992  6507 layer_factory.hpp:77] Creating layer inception_3b/relu_3x3
I0403 18:02:09.763015  6507 net.cpp:91] Creating Layer inception_3b/relu_3x3
I0403 18:02:09.763033  6507 net.cpp:425] inception_3b/relu_3x3 <- inception_3b/3x3
I0403 18:02:09.763056  6507 net.cpp:386] inception_3b/relu_3x3 -> inception_3b/3x3 (in-place)
I0403 18:02:09.763356  6507 net.cpp:141] Setting up inception_3b/relu_3x3
I0403 18:02:09.763387  6507 net.cpp:148] Top shape: 24 192 28 28 (3612672)
I0403 18:02:09.763406  6507 net.cpp:156] Memory required for data: 724943904
I0403 18:02:09.763424  6507 layer_factory.hpp:77] Creating layer inception_3b/5x5_reduce
I0403 18:02:09.763452  6507 net.cpp:91] Creating Layer inception_3b/5x5_reduce
I0403 18:02:09.763470  6507 net.cpp:425] inception_3b/5x5_reduce <- inception_3a/output_inception_3a/output_0_split_2
I0403 18:02:09.763492  6507 net.cpp:399] inception_3b/5x5_reduce -> inception_3b/5x5_reduce
I0403 18:02:09.764586  6507 net.cpp:141] Setting up inception_3b/5x5_reduce
I0403 18:02:09.764621  6507 net.cpp:148] Top shape: 24 32 28 28 (602112)
I0403 18:02:09.764639  6507 net.cpp:156] Memory required for data: 727352352
I0403 18:02:09.764660  6507 layer_factory.hpp:77] Creating layer inception_3b/relu_5x5_reduce
I0403 18:02:09.764681  6507 net.cpp:91] Creating Layer inception_3b/relu_5x5_reduce
I0403 18:02:09.764699  6507 net.cpp:425] inception_3b/relu_5x5_reduce <- inception_3b/5x5_reduce
I0403 18:02:09.764724  6507 net.cpp:386] inception_3b/relu_5x5_reduce -> inception_3b/5x5_reduce (in-place)
I0403 18:02:09.764930  6507 net.cpp:141] Setting up inception_3b/relu_5x5_reduce
I0403 18:02:09.764958  6507 net.cpp:148] Top shape: 24 32 28 28 (602112)
I0403 18:02:09.764976  6507 net.cpp:156] Memory required for data: 729760800
I0403 18:02:09.764991  6507 layer_factory.hpp:77] Creating layer inception_3b/5x5
I0403 18:02:09.765017  6507 net.cpp:91] Creating Layer inception_3b/5x5
I0403 18:02:09.765036  6507 net.cpp:425] inception_3b/5x5 <- inception_3b/5x5_reduce
I0403 18:02:09.765064  6507 net.cpp:399] inception_3b/5x5 -> inception_3b/5x5
I0403 18:02:09.767218  6507 net.cpp:141] Setting up inception_3b/5x5
I0403 18:02:09.767254  6507 net.cpp:148] Top shape: 24 96 28 28 (1806336)
I0403 18:02:09.767273  6507 net.cpp:156] Memory required for data: 736986144
I0403 18:02:09.767294  6507 layer_factory.hpp:77] Creating layer inception_3b/relu_5x5
I0403 18:02:09.767318  6507 net.cpp:91] Creating Layer inception_3b/relu_5x5
I0403 18:02:09.767336  6507 net.cpp:425] inception_3b/relu_5x5 <- inception_3b/5x5
I0403 18:02:09.767355  6507 net.cpp:386] inception_3b/relu_5x5 -> inception_3b/5x5 (in-place)
I0403 18:02:09.767565  6507 net.cpp:141] Setting up inception_3b/relu_5x5
I0403 18:02:09.767593  6507 net.cpp:148] Top shape: 24 96 28 28 (1806336)
I0403 18:02:09.767609  6507 net.cpp:156] Memory required for data: 744211488
I0403 18:02:09.767627  6507 layer_factory.hpp:77] Creating layer inception_3b/pool
I0403 18:02:09.767647  6507 net.cpp:91] Creating Layer inception_3b/pool
I0403 18:02:09.767665  6507 net.cpp:425] inception_3b/pool <- inception_3a/output_inception_3a/output_0_split_3
I0403 18:02:09.767686  6507 net.cpp:399] inception_3b/pool -> inception_3b/pool
I0403 18:02:09.767750  6507 net.cpp:141] Setting up inception_3b/pool
I0403 18:02:09.767774  6507 net.cpp:148] Top shape: 24 256 28 28 (4816896)
I0403 18:02:09.767791  6507 net.cpp:156] Memory required for data: 763479072
I0403 18:02:09.767808  6507 layer_factory.hpp:77] Creating layer inception_3b/pool_proj
I0403 18:02:09.767835  6507 net.cpp:91] Creating Layer inception_3b/pool_proj
I0403 18:02:09.767855  6507 net.cpp:425] inception_3b/pool_proj <- inception_3b/pool
I0403 18:02:09.767876  6507 net.cpp:399] inception_3b/pool_proj -> inception_3b/pool_proj
I0403 18:02:09.769028  6507 net.cpp:141] Setting up inception_3b/pool_proj
I0403 18:02:09.769058  6507 net.cpp:148] Top shape: 24 64 28 28 (1204224)
I0403 18:02:09.769078  6507 net.cpp:156] Memory required for data: 768295968
I0403 18:02:09.769098  6507 layer_factory.hpp:77] Creating layer inception_3b/relu_pool_proj
I0403 18:02:09.769121  6507 net.cpp:91] Creating Layer inception_3b/relu_pool_proj
I0403 18:02:09.769140  6507 net.cpp:425] inception_3b/relu_pool_proj <- inception_3b/pool_proj
I0403 18:02:09.769160  6507 net.cpp:386] inception_3b/relu_pool_proj -> inception_3b/pool_proj (in-place)
I0403 18:02:09.769573  6507 net.cpp:141] Setting up inception_3b/relu_pool_proj
I0403 18:02:09.769603  6507 net.cpp:148] Top shape: 24 64 28 28 (1204224)
I0403 18:02:09.769619  6507 net.cpp:156] Memory required for data: 773112864
I0403 18:02:09.769636  6507 layer_factory.hpp:77] Creating layer inception_3b/output
I0403 18:02:09.769655  6507 net.cpp:91] Creating Layer inception_3b/output
I0403 18:02:09.769673  6507 net.cpp:425] inception_3b/output <- inception_3b/1x1
I0403 18:02:09.769691  6507 net.cpp:425] inception_3b/output <- inception_3b/3x3
I0403 18:02:09.769709  6507 net.cpp:425] inception_3b/output <- inception_3b/5x5
I0403 18:02:09.769727  6507 net.cpp:425] inception_3b/output <- inception_3b/pool_proj
I0403 18:02:09.769749  6507 net.cpp:399] inception_3b/output -> inception_3b/output
I0403 18:02:09.769798  6507 net.cpp:141] Setting up inception_3b/output
I0403 18:02:09.769825  6507 net.cpp:148] Top shape: 24 480 28 28 (9031680)
I0403 18:02:09.769843  6507 net.cpp:156] Memory required for data: 809239584
I0403 18:02:09.769860  6507 layer_factory.hpp:77] Creating layer pool3/3x3_s2
I0403 18:02:09.769881  6507 net.cpp:91] Creating Layer pool3/3x3_s2
I0403 18:02:09.769898  6507 net.cpp:425] pool3/3x3_s2 <- inception_3b/output
I0403 18:02:09.769938  6507 net.cpp:399] pool3/3x3_s2 -> pool3/3x3_s2
I0403 18:02:09.770004  6507 net.cpp:141] Setting up pool3/3x3_s2
I0403 18:02:09.770030  6507 net.cpp:148] Top shape: 24 480 14 14 (2257920)
I0403 18:02:09.770045  6507 net.cpp:156] Memory required for data: 818271264
I0403 18:02:09.770062  6507 layer_factory.hpp:77] Creating layer pool3/3x3_s2_pool3/3x3_s2_0_split
I0403 18:02:09.770086  6507 net.cpp:91] Creating Layer pool3/3x3_s2_pool3/3x3_s2_0_split
I0403 18:02:09.770103  6507 net.cpp:425] pool3/3x3_s2_pool3/3x3_s2_0_split <- pool3/3x3_s2
I0403 18:02:09.770123  6507 net.cpp:399] pool3/3x3_s2_pool3/3x3_s2_0_split -> pool3/3x3_s2_pool3/3x3_s2_0_split_0
I0403 18:02:09.770144  6507 net.cpp:399] pool3/3x3_s2_pool3/3x3_s2_0_split -> pool3/3x3_s2_pool3/3x3_s2_0_split_1
I0403 18:02:09.770165  6507 net.cpp:399] pool3/3x3_s2_pool3/3x3_s2_0_split -> pool3/3x3_s2_pool3/3x3_s2_0_split_2
I0403 18:02:09.770190  6507 net.cpp:399] pool3/3x3_s2_pool3/3x3_s2_0_split -> pool3/3x3_s2_pool3/3x3_s2_0_split_3
I0403 18:02:09.770282  6507 net.cpp:141] Setting up pool3/3x3_s2_pool3/3x3_s2_0_split
I0403 18:02:09.770309  6507 net.cpp:148] Top shape: 24 480 14 14 (2257920)
I0403 18:02:09.770328  6507 net.cpp:148] Top shape: 24 480 14 14 (2257920)
I0403 18:02:09.770345  6507 net.cpp:148] Top shape: 24 480 14 14 (2257920)
I0403 18:02:09.770364  6507 net.cpp:148] Top shape: 24 480 14 14 (2257920)
I0403 18:02:09.770380  6507 net.cpp:156] Memory required for data: 854397984
I0403 18:02:09.770396  6507 layer_factory.hpp:77] Creating layer inception_4a/1x1
I0403 18:02:09.770421  6507 net.cpp:91] Creating Layer inception_4a/1x1
I0403 18:02:09.770440  6507 net.cpp:425] inception_4a/1x1 <- pool3/3x3_s2_pool3/3x3_s2_0_split_0
I0403 18:02:09.770464  6507 net.cpp:399] inception_4a/1x1 -> inception_4a/1x1
I0403 18:02:09.772138  6507 net.cpp:141] Setting up inception_4a/1x1
I0403 18:02:09.772168  6507 net.cpp:148] Top shape: 24 192 14 14 (903168)
I0403 18:02:09.772186  6507 net.cpp:156] Memory required for data: 858010656
I0403 18:02:09.772207  6507 layer_factory.hpp:77] Creating layer inception_4a/relu_1x1
I0403 18:02:09.772231  6507 net.cpp:91] Creating Layer inception_4a/relu_1x1
I0403 18:02:09.772264  6507 net.cpp:425] inception_4a/relu_1x1 <- inception_4a/1x1
I0403 18:02:09.772285  6507 net.cpp:386] inception_4a/relu_1x1 -> inception_4a/1x1 (in-place)
I0403 18:02:09.772478  6507 net.cpp:141] Setting up inception_4a/relu_1x1
I0403 18:02:09.772510  6507 net.cpp:148] Top shape: 24 192 14 14 (903168)
I0403 18:02:09.772527  6507 net.cpp:156] Memory required for data: 861623328
I0403 18:02:09.772544  6507 layer_factory.hpp:77] Creating layer inception_4a/3x3_reduce
I0403 18:02:09.772570  6507 net.cpp:91] Creating Layer inception_4a/3x3_reduce
I0403 18:02:09.772589  6507 net.cpp:425] inception_4a/3x3_reduce <- pool3/3x3_s2_pool3/3x3_s2_0_split_1
I0403 18:02:09.772613  6507 net.cpp:399] inception_4a/3x3_reduce -> inception_4a/3x3_reduce
I0403 18:02:09.774000  6507 net.cpp:141] Setting up inception_4a/3x3_reduce
I0403 18:02:09.774030  6507 net.cpp:148] Top shape: 24 96 14 14 (451584)
I0403 18:02:09.774047  6507 net.cpp:156] Memory required for data: 863429664
I0403 18:02:09.774075  6507 layer_factory.hpp:77] Creating layer inception_4a/relu_3x3_reduce
I0403 18:02:09.774096  6507 net.cpp:91] Creating Layer inception_4a/relu_3x3_reduce
I0403 18:02:09.774113  6507 net.cpp:425] inception_4a/relu_3x3_reduce <- inception_4a/3x3_reduce
I0403 18:02:09.774137  6507 net.cpp:386] inception_4a/relu_3x3_reduce -> inception_4a/3x3_reduce (in-place)
I0403 18:02:09.774327  6507 net.cpp:141] Setting up inception_4a/relu_3x3_reduce
I0403 18:02:09.774353  6507 net.cpp:148] Top shape: 24 96 14 14 (451584)
I0403 18:02:09.774369  6507 net.cpp:156] Memory required for data: 865236000
I0403 18:02:09.774385  6507 layer_factory.hpp:77] Creating layer inception_4a/3x3
I0403 18:02:09.774410  6507 net.cpp:91] Creating Layer inception_4a/3x3
I0403 18:02:09.774430  6507 net.cpp:425] inception_4a/3x3 <- inception_4a/3x3_reduce
I0403 18:02:09.774453  6507 net.cpp:399] inception_4a/3x3 -> inception_4a/3x3
I0403 18:02:09.777254  6507 net.cpp:141] Setting up inception_4a/3x3
I0403 18:02:09.777284  6507 net.cpp:148] Top shape: 24 208 14 14 (978432)
I0403 18:02:09.777302  6507 net.cpp:156] Memory required for data: 869149728
I0403 18:02:09.777321  6507 layer_factory.hpp:77] Creating layer inception_4a/relu_3x3
I0403 18:02:09.777346  6507 net.cpp:91] Creating Layer inception_4a/relu_3x3
I0403 18:02:09.777365  6507 net.cpp:425] inception_4a/relu_3x3 <- inception_4a/3x3
I0403 18:02:09.777384  6507 net.cpp:386] inception_4a/relu_3x3 -> inception_4a/3x3 (in-place)
I0403 18:02:09.777678  6507 net.cpp:141] Setting up inception_4a/relu_3x3
I0403 18:02:09.777705  6507 net.cpp:148] Top shape: 24 208 14 14 (978432)
I0403 18:02:09.777721  6507 net.cpp:156] Memory required for data: 873063456
I0403 18:02:09.777737  6507 layer_factory.hpp:77] Creating layer inception_4a/5x5_reduce
I0403 18:02:09.777765  6507 net.cpp:91] Creating Layer inception_4a/5x5_reduce
I0403 18:02:09.777786  6507 net.cpp:425] inception_4a/5x5_reduce <- pool3/3x3_s2_pool3/3x3_s2_0_split_2
I0403 18:02:09.777806  6507 net.cpp:399] inception_4a/5x5_reduce -> inception_4a/5x5_reduce
I0403 18:02:09.778872  6507 net.cpp:141] Setting up inception_4a/5x5_reduce
I0403 18:02:09.778904  6507 net.cpp:148] Top shape: 24 16 14 14 (75264)
I0403 18:02:09.778921  6507 net.cpp:156] Memory required for data: 873364512
I0403 18:02:09.778941  6507 layer_factory.hpp:77] Creating layer inception_4a/relu_5x5_reduce
I0403 18:02:09.778962  6507 net.cpp:91] Creating Layer inception_4a/relu_5x5_reduce
I0403 18:02:09.778980  6507 net.cpp:425] inception_4a/relu_5x5_reduce <- inception_4a/5x5_reduce
I0403 18:02:09.779001  6507 net.cpp:386] inception_4a/relu_5x5_reduce -> inception_4a/5x5_reduce (in-place)
I0403 18:02:09.779189  6507 net.cpp:141] Setting up inception_4a/relu_5x5_reduce
I0403 18:02:09.779217  6507 net.cpp:148] Top shape: 24 16 14 14 (75264)
I0403 18:02:09.779232  6507 net.cpp:156] Memory required for data: 873665568
I0403 18:02:09.779253  6507 layer_factory.hpp:77] Creating layer inception_4a/5x5
I0403 18:02:09.779278  6507 net.cpp:91] Creating Layer inception_4a/5x5
I0403 18:02:09.779297  6507 net.cpp:425] inception_4a/5x5 <- inception_4a/5x5_reduce
I0403 18:02:09.779320  6507 net.cpp:399] inception_4a/5x5 -> inception_4a/5x5
I0403 18:02:09.780463  6507 net.cpp:141] Setting up inception_4a/5x5
I0403 18:02:09.780493  6507 net.cpp:148] Top shape: 24 48 14 14 (225792)
I0403 18:02:09.780509  6507 net.cpp:156] Memory required for data: 874568736
I0403 18:02:09.780530  6507 layer_factory.hpp:77] Creating layer inception_4a/relu_5x5
I0403 18:02:09.780553  6507 net.cpp:91] Creating Layer inception_4a/relu_5x5
I0403 18:02:09.780571  6507 net.cpp:425] inception_4a/relu_5x5 <- inception_4a/5x5
I0403 18:02:09.780591  6507 net.cpp:386] inception_4a/relu_5x5 -> inception_4a/5x5 (in-place)
I0403 18:02:09.780778  6507 net.cpp:141] Setting up inception_4a/relu_5x5
I0403 18:02:09.780805  6507 net.cpp:148] Top shape: 24 48 14 14 (225792)
I0403 18:02:09.780822  6507 net.cpp:156] Memory required for data: 875471904
I0403 18:02:09.780838  6507 layer_factory.hpp:77] Creating layer inception_4a/pool
I0403 18:02:09.780863  6507 net.cpp:91] Creating Layer inception_4a/pool
I0403 18:02:09.780882  6507 net.cpp:425] inception_4a/pool <- pool3/3x3_s2_pool3/3x3_s2_0_split_3
I0403 18:02:09.780901  6507 net.cpp:399] inception_4a/pool -> inception_4a/pool
I0403 18:02:09.780968  6507 net.cpp:141] Setting up inception_4a/pool
I0403 18:02:09.780994  6507 net.cpp:148] Top shape: 24 480 14 14 (2257920)
I0403 18:02:09.781010  6507 net.cpp:156] Memory required for data: 884503584
I0403 18:02:09.781028  6507 layer_factory.hpp:77] Creating layer inception_4a/pool_proj
I0403 18:02:09.781050  6507 net.cpp:91] Creating Layer inception_4a/pool_proj
I0403 18:02:09.781069  6507 net.cpp:425] inception_4a/pool_proj <- inception_4a/pool
I0403 18:02:09.781092  6507 net.cpp:399] inception_4a/pool_proj -> inception_4a/pool_proj
I0403 18:02:09.782327  6507 net.cpp:141] Setting up inception_4a/pool_proj
I0403 18:02:09.782361  6507 net.cpp:148] Top shape: 24 64 14 14 (301056)
I0403 18:02:09.782393  6507 net.cpp:156] Memory required for data: 885707808
I0403 18:02:09.782414  6507 layer_factory.hpp:77] Creating layer inception_4a/relu_pool_proj
I0403 18:02:09.782438  6507 net.cpp:91] Creating Layer inception_4a/relu_pool_proj
I0403 18:02:09.782457  6507 net.cpp:425] inception_4a/relu_pool_proj <- inception_4a/pool_proj
I0403 18:02:09.782476  6507 net.cpp:386] inception_4a/relu_pool_proj -> inception_4a/pool_proj (in-place)
I0403 18:02:09.782773  6507 net.cpp:141] Setting up inception_4a/relu_pool_proj
I0403 18:02:09.782800  6507 net.cpp:148] Top shape: 24 64 14 14 (301056)
I0403 18:02:09.782816  6507 net.cpp:156] Memory required for data: 886912032
I0403 18:02:09.782834  6507 layer_factory.hpp:77] Creating layer inception_4a/output
I0403 18:02:09.782855  6507 net.cpp:91] Creating Layer inception_4a/output
I0403 18:02:09.782872  6507 net.cpp:425] inception_4a/output <- inception_4a/1x1
I0403 18:02:09.782891  6507 net.cpp:425] inception_4a/output <- inception_4a/3x3
I0403 18:02:09.782908  6507 net.cpp:425] inception_4a/output <- inception_4a/5x5
I0403 18:02:09.782927  6507 net.cpp:425] inception_4a/output <- inception_4a/pool_proj
I0403 18:02:09.782945  6507 net.cpp:399] inception_4a/output -> inception_4a/output
I0403 18:02:09.782990  6507 net.cpp:141] Setting up inception_4a/output
I0403 18:02:09.783018  6507 net.cpp:148] Top shape: 24 512 14 14 (2408448)
I0403 18:02:09.783036  6507 net.cpp:156] Memory required for data: 896545824
I0403 18:02:09.783053  6507 layer_factory.hpp:77] Creating layer inception_4a/output_inception_4a/output_0_split
I0403 18:02:09.783073  6507 net.cpp:91] Creating Layer inception_4a/output_inception_4a/output_0_split
I0403 18:02:09.783090  6507 net.cpp:425] inception_4a/output_inception_4a/output_0_split <- inception_4a/output
I0403 18:02:09.783113  6507 net.cpp:399] inception_4a/output_inception_4a/output_0_split -> inception_4a/output_inception_4a/output_0_split_0
I0403 18:02:09.783138  6507 net.cpp:399] inception_4a/output_inception_4a/output_0_split -> inception_4a/output_inception_4a/output_0_split_1
I0403 18:02:09.783160  6507 net.cpp:399] inception_4a/output_inception_4a/output_0_split -> inception_4a/output_inception_4a/output_0_split_2
I0403 18:02:09.783181  6507 net.cpp:399] inception_4a/output_inception_4a/output_0_split -> inception_4a/output_inception_4a/output_0_split_3
I0403 18:02:09.783205  6507 net.cpp:399] inception_4a/output_inception_4a/output_0_split -> inception_4a/output_inception_4a/output_0_split_4
I0403 18:02:09.783308  6507 net.cpp:141] Setting up inception_4a/output_inception_4a/output_0_split
I0403 18:02:09.783334  6507 net.cpp:148] Top shape: 24 512 14 14 (2408448)
I0403 18:02:09.783354  6507 net.cpp:148] Top shape: 24 512 14 14 (2408448)
I0403 18:02:09.783372  6507 net.cpp:148] Top shape: 24 512 14 14 (2408448)
I0403 18:02:09.783390  6507 net.cpp:148] Top shape: 24 512 14 14 (2408448)
I0403 18:02:09.783407  6507 net.cpp:148] Top shape: 24 512 14 14 (2408448)
I0403 18:02:09.783422  6507 net.cpp:156] Memory required for data: 944714784
I0403 18:02:09.783439  6507 layer_factory.hpp:77] Creating layer loss1/ave_pool
I0403 18:02:09.783458  6507 net.cpp:91] Creating Layer loss1/ave_pool
I0403 18:02:09.783475  6507 net.cpp:425] loss1/ave_pool <- inception_4a/output_inception_4a/output_0_split_0
I0403 18:02:09.783499  6507 net.cpp:399] loss1/ave_pool -> loss1/ave_pool
I0403 18:02:09.783720  6507 net.cpp:141] Setting up loss1/ave_pool
I0403 18:02:09.783747  6507 net.cpp:148] Top shape: 24 512 4 4 (196608)
I0403 18:02:09.783763  6507 net.cpp:156] Memory required for data: 945501216
I0403 18:02:09.783781  6507 layer_factory.hpp:77] Creating layer loss1/conv
I0403 18:02:09.783804  6507 net.cpp:91] Creating Layer loss1/conv
I0403 18:02:09.783823  6507 net.cpp:425] loss1/conv <- loss1/ave_pool
I0403 18:02:09.783846  6507 net.cpp:399] loss1/conv -> loss1/conv
I0403 18:02:09.785332  6507 net.cpp:141] Setting up loss1/conv
I0403 18:02:09.785365  6507 net.cpp:148] Top shape: 24 128 4 4 (49152)
I0403 18:02:09.785398  6507 net.cpp:156] Memory required for data: 945697824
I0403 18:02:09.785419  6507 layer_factory.hpp:77] Creating layer loss1/relu_conv
I0403 18:02:09.785439  6507 net.cpp:91] Creating Layer loss1/relu_conv
I0403 18:02:09.785456  6507 net.cpp:425] loss1/relu_conv <- loss1/conv
I0403 18:02:09.785477  6507 net.cpp:386] loss1/relu_conv -> loss1/conv (in-place)
I0403 18:02:09.785773  6507 net.cpp:141] Setting up loss1/relu_conv
I0403 18:02:09.785802  6507 net.cpp:148] Top shape: 24 128 4 4 (49152)
I0403 18:02:09.785820  6507 net.cpp:156] Memory required for data: 945894432
I0403 18:02:09.785838  6507 layer_factory.hpp:77] Creating layer loss1/fc
I0403 18:02:09.785864  6507 net.cpp:91] Creating Layer loss1/fc
I0403 18:02:09.785883  6507 net.cpp:425] loss1/fc <- loss1/conv
I0403 18:02:09.785907  6507 net.cpp:399] loss1/fc -> loss1/fc
I0403 18:02:09.804697  6507 net.cpp:141] Setting up loss1/fc
I0403 18:02:09.804736  6507 net.cpp:148] Top shape: 24 1024 (24576)
I0403 18:02:09.804754  6507 net.cpp:156] Memory required for data: 945992736
I0403 18:02:09.804774  6507 layer_factory.hpp:77] Creating layer loss1/relu_fc
I0403 18:02:09.804798  6507 net.cpp:91] Creating Layer loss1/relu_fc
I0403 18:02:09.804817  6507 net.cpp:425] loss1/relu_fc <- loss1/fc
I0403 18:02:09.804836  6507 net.cpp:386] loss1/relu_fc -> loss1/fc (in-place)
I0403 18:02:09.805050  6507 net.cpp:141] Setting up loss1/relu_fc
I0403 18:02:09.805083  6507 net.cpp:148] Top shape: 24 1024 (24576)
I0403 18:02:09.805100  6507 net.cpp:156] Memory required for data: 946091040
I0403 18:02:09.805117  6507 layer_factory.hpp:77] Creating layer loss1/drop_fc
I0403 18:02:09.805147  6507 net.cpp:91] Creating Layer loss1/drop_fc
I0403 18:02:09.805167  6507 net.cpp:425] loss1/drop_fc <- loss1/fc
I0403 18:02:09.805187  6507 net.cpp:386] loss1/drop_fc -> loss1/fc (in-place)
I0403 18:02:09.805248  6507 net.cpp:141] Setting up loss1/drop_fc
I0403 18:02:09.805274  6507 net.cpp:148] Top shape: 24 1024 (24576)
I0403 18:02:09.805289  6507 net.cpp:156] Memory required for data: 946189344
I0403 18:02:09.805305  6507 layer_factory.hpp:77] Creating layer loss1/classifier_plantvillage
I0403 18:02:09.805326  6507 net.cpp:91] Creating Layer loss1/classifier_plantvillage
I0403 18:02:09.805344  6507 net.cpp:425] loss1/classifier_plantvillage <- loss1/fc
I0403 18:02:09.805368  6507 net.cpp:399] loss1/classifier_plantvillage -> loss1/classifier_plantvillage
I0403 18:02:09.806361  6507 net.cpp:141] Setting up loss1/classifier_plantvillage
I0403 18:02:09.806391  6507 net.cpp:148] Top shape: 24 38 (912)
I0403 18:02:09.806407  6507 net.cpp:156] Memory required for data: 946192992
I0403 18:02:09.806427  6507 layer_factory.hpp:77] Creating layer loss1/classifier_plantvillage_loss1/classifier_plantvillage_0_split
I0403 18:02:09.806449  6507 net.cpp:91] Creating Layer loss1/classifier_plantvillage_loss1/classifier_plantvillage_0_split
I0403 18:02:09.806468  6507 net.cpp:425] loss1/classifier_plantvillage_loss1/classifier_plantvillage_0_split <- loss1/classifier_plantvillage
I0403 18:02:09.806489  6507 net.cpp:399] loss1/classifier_plantvillage_loss1/classifier_plantvillage_0_split -> loss1/classifier_plantvillage_loss1/classifier_plantvillage_0_split_0
I0403 18:02:09.806510  6507 net.cpp:399] loss1/classifier_plantvillage_loss1/classifier_plantvillage_0_split -> loss1/classifier_plantvillage_loss1/classifier_plantvillage_0_split_1
I0403 18:02:09.806532  6507 net.cpp:399] loss1/classifier_plantvillage_loss1/classifier_plantvillage_0_split -> loss1/classifier_plantvillage_loss1/classifier_plantvillage_0_split_2
I0403 18:02:09.806605  6507 net.cpp:141] Setting up loss1/classifier_plantvillage_loss1/classifier_plantvillage_0_split
I0403 18:02:09.806632  6507 net.cpp:148] Top shape: 24 38 (912)
I0403 18:02:09.806649  6507 net.cpp:148] Top shape: 24 38 (912)
I0403 18:02:09.806666  6507 net.cpp:148] Top shape: 24 38 (912)
I0403 18:02:09.806681  6507 net.cpp:156] Memory required for data: 946203936
I0403 18:02:09.806697  6507 layer_factory.hpp:77] Creating layer inception_4b/1x1
I0403 18:02:09.806720  6507 net.cpp:91] Creating Layer inception_4b/1x1
I0403 18:02:09.806761  6507 net.cpp:425] inception_4b/1x1 <- inception_4a/output_inception_4a/output_0_split_1
I0403 18:02:09.806782  6507 net.cpp:399] inception_4b/1x1 -> inception_4b/1x1
I0403 18:02:09.808471  6507 net.cpp:141] Setting up inception_4b/1x1
I0403 18:02:09.808502  6507 net.cpp:148] Top shape: 24 160 14 14 (752640)
I0403 18:02:09.808521  6507 net.cpp:156] Memory required for data: 949214496
I0403 18:02:09.808542  6507 layer_factory.hpp:77] Creating layer inception_4b/relu_1x1
I0403 18:02:09.808559  6507 net.cpp:91] Creating Layer inception_4b/relu_1x1
I0403 18:02:09.808578  6507 net.cpp:425] inception_4b/relu_1x1 <- inception_4b/1x1
I0403 18:02:09.808598  6507 net.cpp:386] inception_4b/relu_1x1 -> inception_4b/1x1 (in-place)
I0403 18:02:09.808784  6507 net.cpp:141] Setting up inception_4b/relu_1x1
I0403 18:02:09.808809  6507 net.cpp:148] Top shape: 24 160 14 14 (752640)
I0403 18:02:09.808825  6507 net.cpp:156] Memory required for data: 952225056
I0403 18:02:09.808841  6507 layer_factory.hpp:77] Creating layer inception_4b/3x3_reduce
I0403 18:02:09.808871  6507 net.cpp:91] Creating Layer inception_4b/3x3_reduce
I0403 18:02:09.808890  6507 net.cpp:425] inception_4b/3x3_reduce <- inception_4a/output_inception_4a/output_0_split_2
I0403 18:02:09.808913  6507 net.cpp:399] inception_4b/3x3_reduce -> inception_4b/3x3_reduce
I0403 18:02:09.810338  6507 net.cpp:141] Setting up inception_4b/3x3_reduce
I0403 18:02:09.810365  6507 net.cpp:148] Top shape: 24 112 14 14 (526848)
I0403 18:02:09.810381  6507 net.cpp:156] Memory required for data: 954332448
I0403 18:02:09.810401  6507 layer_factory.hpp:77] Creating layer inception_4b/relu_3x3_reduce
I0403 18:02:09.810420  6507 net.cpp:91] Creating Layer inception_4b/relu_3x3_reduce
I0403 18:02:09.810437  6507 net.cpp:425] inception_4b/relu_3x3_reduce <- inception_4b/3x3_reduce
I0403 18:02:09.810459  6507 net.cpp:386] inception_4b/relu_3x3_reduce -> inception_4b/3x3_reduce (in-place)
I0403 18:02:09.810752  6507 net.cpp:141] Setting up inception_4b/relu_3x3_reduce
I0403 18:02:09.810780  6507 net.cpp:148] Top shape: 24 112 14 14 (526848)
I0403 18:02:09.810796  6507 net.cpp:156] Memory required for data: 956439840
I0403 18:02:09.810811  6507 layer_factory.hpp:77] Creating layer inception_4b/3x3
I0403 18:02:09.810834  6507 net.cpp:91] Creating Layer inception_4b/3x3
I0403 18:02:09.810854  6507 net.cpp:425] inception_4b/3x3 <- inception_4b/3x3_reduce
I0403 18:02:09.810878  6507 net.cpp:399] inception_4b/3x3 -> inception_4b/3x3
I0403 18:02:09.813936  6507 net.cpp:141] Setting up inception_4b/3x3
I0403 18:02:09.813966  6507 net.cpp:148] Top shape: 24 224 14 14 (1053696)
I0403 18:02:09.813983  6507 net.cpp:156] Memory required for data: 960654624
I0403 18:02:09.814003  6507 layer_factory.hpp:77] Creating layer inception_4b/relu_3x3
I0403 18:02:09.814024  6507 net.cpp:91] Creating Layer inception_4b/relu_3x3
I0403 18:02:09.814043  6507 net.cpp:425] inception_4b/relu_3x3 <- inception_4b/3x3
I0403 18:02:09.814061  6507 net.cpp:386] inception_4b/relu_3x3 -> inception_4b/3x3 (in-place)
I0403 18:02:09.814257  6507 net.cpp:141] Setting up inception_4b/relu_3x3
I0403 18:02:09.814285  6507 net.cpp:148] Top shape: 24 224 14 14 (1053696)
I0403 18:02:09.814302  6507 net.cpp:156] Memory required for data: 964869408
I0403 18:02:09.814318  6507 layer_factory.hpp:77] Creating layer inception_4b/5x5_reduce
I0403 18:02:09.814343  6507 net.cpp:91] Creating Layer inception_4b/5x5_reduce
I0403 18:02:09.814363  6507 net.cpp:425] inception_4b/5x5_reduce <- inception_4a/output_inception_4a/output_0_split_3
I0403 18:02:09.814383  6507 net.cpp:399] inception_4b/5x5_reduce -> inception_4b/5x5_reduce
I0403 18:02:09.815491  6507 net.cpp:141] Setting up inception_4b/5x5_reduce
I0403 18:02:09.815521  6507 net.cpp:148] Top shape: 24 24 14 14 (112896)
I0403 18:02:09.815537  6507 net.cpp:156] Memory required for data: 965320992
I0403 18:02:09.815557  6507 layer_factory.hpp:77] Creating layer inception_4b/relu_5x5_reduce
I0403 18:02:09.815577  6507 net.cpp:91] Creating Layer inception_4b/relu_5x5_reduce
I0403 18:02:09.815609  6507 net.cpp:425] inception_4b/relu_5x5_reduce <- inception_4b/5x5_reduce
I0403 18:02:09.815632  6507 net.cpp:386] inception_4b/relu_5x5_reduce -> inception_4b/5x5_reduce (in-place)
I0403 18:02:09.815853  6507 net.cpp:141] Setting up inception_4b/relu_5x5_reduce
I0403 18:02:09.815881  6507 net.cpp:148] Top shape: 24 24 14 14 (112896)
I0403 18:02:09.815897  6507 net.cpp:156] Memory required for data: 965772576
I0403 18:02:09.815914  6507 layer_factory.hpp:77] Creating layer inception_4b/5x5
I0403 18:02:09.815940  6507 net.cpp:91] Creating Layer inception_4b/5x5
I0403 18:02:09.815960  6507 net.cpp:425] inception_4b/5x5 <- inception_4b/5x5_reduce
I0403 18:02:09.815995  6507 net.cpp:399] inception_4b/5x5 -> inception_4b/5x5
I0403 18:02:09.817260  6507 net.cpp:141] Setting up inception_4b/5x5
I0403 18:02:09.817291  6507 net.cpp:148] Top shape: 24 64 14 14 (301056)
I0403 18:02:09.817307  6507 net.cpp:156] Memory required for data: 966976800
I0403 18:02:09.817328  6507 layer_factory.hpp:77] Creating layer inception_4b/relu_5x5
I0403 18:02:09.817348  6507 net.cpp:91] Creating Layer inception_4b/relu_5x5
I0403 18:02:09.817364  6507 net.cpp:425] inception_4b/relu_5x5 <- inception_4b/5x5
I0403 18:02:09.817385  6507 net.cpp:386] inception_4b/relu_5x5 -> inception_4b/5x5 (in-place)
I0403 18:02:09.817675  6507 net.cpp:141] Setting up inception_4b/relu_5x5
I0403 18:02:09.817703  6507 net.cpp:148] Top shape: 24 64 14 14 (301056)
I0403 18:02:09.817720  6507 net.cpp:156] Memory required for data: 968181024
I0403 18:02:09.817736  6507 layer_factory.hpp:77] Creating layer inception_4b/pool
I0403 18:02:09.817756  6507 net.cpp:91] Creating Layer inception_4b/pool
I0403 18:02:09.817773  6507 net.cpp:425] inception_4b/pool <- inception_4a/output_inception_4a/output_0_split_4
I0403 18:02:09.817795  6507 net.cpp:399] inception_4b/pool -> inception_4b/pool
I0403 18:02:09.817862  6507 net.cpp:141] Setting up inception_4b/pool
I0403 18:02:09.817888  6507 net.cpp:148] Top shape: 24 512 14 14 (2408448)
I0403 18:02:09.817903  6507 net.cpp:156] Memory required for data: 977814816
I0403 18:02:09.817919  6507 layer_factory.hpp:77] Creating layer inception_4b/pool_proj
I0403 18:02:09.817941  6507 net.cpp:91] Creating Layer inception_4b/pool_proj
I0403 18:02:09.817960  6507 net.cpp:425] inception_4b/pool_proj <- inception_4b/pool
I0403 18:02:09.817981  6507 net.cpp:399] inception_4b/pool_proj -> inception_4b/pool_proj
I0403 18:02:09.819200  6507 net.cpp:141] Setting up inception_4b/pool_proj
I0403 18:02:09.819232  6507 net.cpp:148] Top shape: 24 64 14 14 (301056)
I0403 18:02:09.819254  6507 net.cpp:156] Memory required for data: 979019040
I0403 18:02:09.819275  6507 layer_factory.hpp:77] Creating layer inception_4b/relu_pool_proj
I0403 18:02:09.819295  6507 net.cpp:91] Creating Layer inception_4b/relu_pool_proj
I0403 18:02:09.819313  6507 net.cpp:425] inception_4b/relu_pool_proj <- inception_4b/pool_proj
I0403 18:02:09.819334  6507 net.cpp:386] inception_4b/relu_pool_proj -> inception_4b/pool_proj (in-place)
I0403 18:02:09.819519  6507 net.cpp:141] Setting up inception_4b/relu_pool_proj
I0403 18:02:09.819543  6507 net.cpp:148] Top shape: 24 64 14 14 (301056)
I0403 18:02:09.819560  6507 net.cpp:156] Memory required for data: 980223264
I0403 18:02:09.819576  6507 layer_factory.hpp:77] Creating layer inception_4b/output
I0403 18:02:09.819594  6507 net.cpp:91] Creating Layer inception_4b/output
I0403 18:02:09.819610  6507 net.cpp:425] inception_4b/output <- inception_4b/1x1
I0403 18:02:09.819628  6507 net.cpp:425] inception_4b/output <- inception_4b/3x3
I0403 18:02:09.819646  6507 net.cpp:425] inception_4b/output <- inception_4b/5x5
I0403 18:02:09.819663  6507 net.cpp:425] inception_4b/output <- inception_4b/pool_proj
I0403 18:02:09.819684  6507 net.cpp:399] inception_4b/output -> inception_4b/output
I0403 18:02:09.819730  6507 net.cpp:141] Setting up inception_4b/output
I0403 18:02:09.819759  6507 net.cpp:148] Top shape: 24 512 14 14 (2408448)
I0403 18:02:09.819775  6507 net.cpp:156] Memory required for data: 989857056
I0403 18:02:09.819805  6507 layer_factory.hpp:77] Creating layer inception_4b/output_inception_4b/output_0_split
I0403 18:02:09.819824  6507 net.cpp:91] Creating Layer inception_4b/output_inception_4b/output_0_split
I0403 18:02:09.819841  6507 net.cpp:425] inception_4b/output_inception_4b/output_0_split <- inception_4b/output
I0403 18:02:09.819862  6507 net.cpp:399] inception_4b/output_inception_4b/output_0_split -> inception_4b/output_inception_4b/output_0_split_0
I0403 18:02:09.819886  6507 net.cpp:399] inception_4b/output_inception_4b/output_0_split -> inception_4b/output_inception_4b/output_0_split_1
I0403 18:02:09.819907  6507 net.cpp:399] inception_4b/output_inception_4b/output_0_split -> inception_4b/output_inception_4b/output_0_split_2
I0403 18:02:09.819929  6507 net.cpp:399] inception_4b/output_inception_4b/output_0_split -> inception_4b/output_inception_4b/output_0_split_3
I0403 18:02:09.820018  6507 net.cpp:141] Setting up inception_4b/output_inception_4b/output_0_split
I0403 18:02:09.820041  6507 net.cpp:148] Top shape: 24 512 14 14 (2408448)
I0403 18:02:09.820060  6507 net.cpp:148] Top shape: 24 512 14 14 (2408448)
I0403 18:02:09.820076  6507 net.cpp:148] Top shape: 24 512 14 14 (2408448)
I0403 18:02:09.820093  6507 net.cpp:148] Top shape: 24 512 14 14 (2408448)
I0403 18:02:09.820108  6507 net.cpp:156] Memory required for data: 1028392224
I0403 18:02:09.820123  6507 layer_factory.hpp:77] Creating layer inception_4c/1x1
I0403 18:02:09.820149  6507 net.cpp:91] Creating Layer inception_4c/1x1
I0403 18:02:09.820168  6507 net.cpp:425] inception_4c/1x1 <- inception_4b/output_inception_4b/output_0_split_0
I0403 18:02:09.820188  6507 net.cpp:399] inception_4c/1x1 -> inception_4c/1x1
I0403 18:02:09.821632  6507 net.cpp:141] Setting up inception_4c/1x1
I0403 18:02:09.821660  6507 net.cpp:148] Top shape: 24 128 14 14 (602112)
I0403 18:02:09.821676  6507 net.cpp:156] Memory required for data: 1030800672
I0403 18:02:09.821696  6507 layer_factory.hpp:77] Creating layer inception_4c/relu_1x1
I0403 18:02:09.821717  6507 net.cpp:91] Creating Layer inception_4c/relu_1x1
I0403 18:02:09.821734  6507 net.cpp:425] inception_4c/relu_1x1 <- inception_4c/1x1
I0403 18:02:09.821753  6507 net.cpp:386] inception_4c/relu_1x1 -> inception_4c/1x1 (in-place)
I0403 18:02:09.821934  6507 net.cpp:141] Setting up inception_4c/relu_1x1
I0403 18:02:09.821960  6507 net.cpp:148] Top shape: 24 128 14 14 (602112)
I0403 18:02:09.821976  6507 net.cpp:156] Memory required for data: 1033209120
I0403 18:02:09.821993  6507 layer_factory.hpp:77] Creating layer inception_4c/3x3_reduce
I0403 18:02:09.822015  6507 net.cpp:91] Creating Layer inception_4c/3x3_reduce
I0403 18:02:09.822031  6507 net.cpp:425] inception_4c/3x3_reduce <- inception_4b/output_inception_4b/output_0_split_1
I0403 18:02:09.822053  6507 net.cpp:399] inception_4c/3x3_reduce -> inception_4c/3x3_reduce
I0403 18:02:09.824076  6507 net.cpp:141] Setting up inception_4c/3x3_reduce
I0403 18:02:09.824108  6507 net.cpp:148] Top shape: 24 128 14 14 (602112)
I0403 18:02:09.824126  6507 net.cpp:156] Memory required for data: 1035617568
I0403 18:02:09.824146  6507 layer_factory.hpp:77] Creating layer inception_4c/relu_3x3_reduce
I0403 18:02:09.824164  6507 net.cpp:91] Creating Layer inception_4c/relu_3x3_reduce
I0403 18:02:09.824180  6507 net.cpp:425] inception_4c/relu_3x3_reduce <- inception_4c/3x3_reduce
I0403 18:02:09.824198  6507 net.cpp:386] inception_4c/relu_3x3_reduce -> inception_4c/3x3_reduce (in-place)
I0403 18:02:09.824492  6507 net.cpp:141] Setting up inception_4c/relu_3x3_reduce
I0403 18:02:09.824520  6507 net.cpp:148] Top shape: 24 128 14 14 (602112)
I0403 18:02:09.824538  6507 net.cpp:156] Memory required for data: 1038026016
I0403 18:02:09.824553  6507 layer_factory.hpp:77] Creating layer inception_4c/3x3
I0403 18:02:09.824579  6507 net.cpp:91] Creating Layer inception_4c/3x3
I0403 18:02:09.824595  6507 net.cpp:425] inception_4c/3x3 <- inception_4c/3x3_reduce
I0403 18:02:09.824615  6507 net.cpp:399] inception_4c/3x3 -> inception_4c/3x3
I0403 18:02:09.828191  6507 net.cpp:141] Setting up inception_4c/3x3
I0403 18:02:09.828233  6507 net.cpp:148] Top shape: 24 256 14 14 (1204224)
I0403 18:02:09.828255  6507 net.cpp:156] Memory required for data: 1042842912
I0403 18:02:09.828287  6507 layer_factory.hpp:77] Creating layer inception_4c/relu_3x3
I0403 18:02:09.828308  6507 net.cpp:91] Creating Layer inception_4c/relu_3x3
I0403 18:02:09.828325  6507 net.cpp:425] inception_4c/relu_3x3 <- inception_4c/3x3
I0403 18:02:09.828346  6507 net.cpp:386] inception_4c/relu_3x3 -> inception_4c/3x3 (in-place)
I0403 18:02:09.828529  6507 net.cpp:141] Setting up inception_4c/relu_3x3
I0403 18:02:09.828555  6507 net.cpp:148] Top shape: 24 256 14 14 (1204224)
I0403 18:02:09.828570  6507 net.cpp:156] Memory required for data: 1047659808
I0403 18:02:09.828585  6507 layer_factory.hpp:77] Creating layer inception_4c/5x5_reduce
I0403 18:02:09.828613  6507 net.cpp:91] Creating Layer inception_4c/5x5_reduce
I0403 18:02:09.828634  6507 net.cpp:425] inception_4c/5x5_reduce <- inception_4b/output_inception_4b/output_0_split_2
I0403 18:02:09.828656  6507 net.cpp:399] inception_4c/5x5_reduce -> inception_4c/5x5_reduce
I0403 18:02:09.829748  6507 net.cpp:141] Setting up inception_4c/5x5_reduce
I0403 18:02:09.829779  6507 net.cpp:148] Top shape: 24 24 14 14 (112896)
I0403 18:02:09.829795  6507 net.cpp:156] Memory required for data: 1048111392
I0403 18:02:09.829815  6507 layer_factory.hpp:77] Creating layer inception_4c/relu_5x5_reduce
I0403 18:02:09.829834  6507 net.cpp:91] Creating Layer inception_4c/relu_5x5_reduce
I0403 18:02:09.829851  6507 net.cpp:425] inception_4c/relu_5x5_reduce <- inception_4c/5x5_reduce
I0403 18:02:09.829871  6507 net.cpp:386] inception_4c/relu_5x5_reduce -> inception_4c/5x5_reduce (in-place)
I0403 18:02:09.830061  6507 net.cpp:141] Setting up inception_4c/relu_5x5_reduce
I0403 18:02:09.830085  6507 net.cpp:148] Top shape: 24 24 14 14 (112896)
I0403 18:02:09.830101  6507 net.cpp:156] Memory required for data: 1048562976
I0403 18:02:09.830117  6507 layer_factory.hpp:77] Creating layer inception_4c/5x5
I0403 18:02:09.830140  6507 net.cpp:91] Creating Layer inception_4c/5x5
I0403 18:02:09.830159  6507 net.cpp:425] inception_4c/5x5 <- inception_4c/5x5_reduce
I0403 18:02:09.830181  6507 net.cpp:399] inception_4c/5x5 -> inception_4c/5x5
I0403 18:02:09.831415  6507 net.cpp:141] Setting up inception_4c/5x5
I0403 18:02:09.831444  6507 net.cpp:148] Top shape: 24 64 14 14 (301056)
I0403 18:02:09.831459  6507 net.cpp:156] Memory required for data: 1049767200
I0403 18:02:09.831480  6507 layer_factory.hpp:77] Creating layer inception_4c/relu_5x5
I0403 18:02:09.831497  6507 net.cpp:91] Creating Layer inception_4c/relu_5x5
I0403 18:02:09.831516  6507 net.cpp:425] inception_4c/relu_5x5 <- inception_4c/5x5
I0403 18:02:09.831535  6507 net.cpp:386] inception_4c/relu_5x5 -> inception_4c/5x5 (in-place)
I0403 18:02:09.831821  6507 net.cpp:141] Setting up inception_4c/relu_5x5
I0403 18:02:09.831848  6507 net.cpp:148] Top shape: 24 64 14 14 (301056)
I0403 18:02:09.831863  6507 net.cpp:156] Memory required for data: 1050971424
I0403 18:02:09.831879  6507 layer_factory.hpp:77] Creating layer inception_4c/pool
I0403 18:02:09.831897  6507 net.cpp:91] Creating Layer inception_4c/pool
I0403 18:02:09.831914  6507 net.cpp:425] inception_4c/pool <- inception_4b/output_inception_4b/output_0_split_3
I0403 18:02:09.831934  6507 net.cpp:399] inception_4c/pool -> inception_4c/pool
I0403 18:02:09.832000  6507 net.cpp:141] Setting up inception_4c/pool
I0403 18:02:09.832025  6507 net.cpp:148] Top shape: 24 512 14 14 (2408448)
I0403 18:02:09.832041  6507 net.cpp:156] Memory required for data: 1060605216
I0403 18:02:09.832057  6507 layer_factory.hpp:77] Creating layer inception_4c/pool_proj
I0403 18:02:09.832085  6507 net.cpp:91] Creating Layer inception_4c/pool_proj
I0403 18:02:09.832103  6507 net.cpp:425] inception_4c/pool_proj <- inception_4c/pool
I0403 18:02:09.832123  6507 net.cpp:399] inception_4c/pool_proj -> inception_4c/pool_proj
I0403 18:02:09.833353  6507 net.cpp:141] Setting up inception_4c/pool_proj
I0403 18:02:09.833382  6507 net.cpp:148] Top shape: 24 64 14 14 (301056)
I0403 18:02:09.833412  6507 net.cpp:156] Memory required for data: 1061809440
I0403 18:02:09.833432  6507 layer_factory.hpp:77] Creating layer inception_4c/relu_pool_proj
I0403 18:02:09.833451  6507 net.cpp:91] Creating Layer inception_4c/relu_pool_proj
I0403 18:02:09.833467  6507 net.cpp:425] inception_4c/relu_pool_proj <- inception_4c/pool_proj
I0403 18:02:09.833488  6507 net.cpp:386] inception_4c/relu_pool_proj -> inception_4c/pool_proj (in-place)
I0403 18:02:09.833673  6507 net.cpp:141] Setting up inception_4c/relu_pool_proj
I0403 18:02:09.833699  6507 net.cpp:148] Top shape: 24 64 14 14 (301056)
I0403 18:02:09.833715  6507 net.cpp:156] Memory required for data: 1063013664
I0403 18:02:09.833730  6507 layer_factory.hpp:77] Creating layer inception_4c/output
I0403 18:02:09.833750  6507 net.cpp:91] Creating Layer inception_4c/output
I0403 18:02:09.833765  6507 net.cpp:425] inception_4c/output <- inception_4c/1x1
I0403 18:02:09.833782  6507 net.cpp:425] inception_4c/output <- inception_4c/3x3
I0403 18:02:09.833799  6507 net.cpp:425] inception_4c/output <- inception_4c/5x5
I0403 18:02:09.833816  6507 net.cpp:425] inception_4c/output <- inception_4c/pool_proj
I0403 18:02:09.833835  6507 net.cpp:399] inception_4c/output -> inception_4c/output
I0403 18:02:09.833881  6507 net.cpp:141] Setting up inception_4c/output
I0403 18:02:09.833909  6507 net.cpp:148] Top shape: 24 512 14 14 (2408448)
I0403 18:02:09.833925  6507 net.cpp:156] Memory required for data: 1072647456
I0403 18:02:09.833940  6507 layer_factory.hpp:77] Creating layer inception_4c/output_inception_4c/output_0_split
I0403 18:02:09.833959  6507 net.cpp:91] Creating Layer inception_4c/output_inception_4c/output_0_split
I0403 18:02:09.833974  6507 net.cpp:425] inception_4c/output_inception_4c/output_0_split <- inception_4c/output
I0403 18:02:09.833993  6507 net.cpp:399] inception_4c/output_inception_4c/output_0_split -> inception_4c/output_inception_4c/output_0_split_0
I0403 18:02:09.834017  6507 net.cpp:399] inception_4c/output_inception_4c/output_0_split -> inception_4c/output_inception_4c/output_0_split_1
I0403 18:02:09.834038  6507 net.cpp:399] inception_4c/output_inception_4c/output_0_split -> inception_4c/output_inception_4c/output_0_split_2
I0403 18:02:09.834059  6507 net.cpp:399] inception_4c/output_inception_4c/output_0_split -> inception_4c/output_inception_4c/output_0_split_3
I0403 18:02:09.834147  6507 net.cpp:141] Setting up inception_4c/output_inception_4c/output_0_split
I0403 18:02:09.834172  6507 net.cpp:148] Top shape: 24 512 14 14 (2408448)
I0403 18:02:09.834188  6507 net.cpp:148] Top shape: 24 512 14 14 (2408448)
I0403 18:02:09.834206  6507 net.cpp:148] Top shape: 24 512 14 14 (2408448)
I0403 18:02:09.834223  6507 net.cpp:148] Top shape: 24 512 14 14 (2408448)
I0403 18:02:09.834236  6507 net.cpp:156] Memory required for data: 1111182624
I0403 18:02:09.834257  6507 layer_factory.hpp:77] Creating layer inception_4d/1x1
I0403 18:02:09.834282  6507 net.cpp:91] Creating Layer inception_4d/1x1
I0403 18:02:09.834301  6507 net.cpp:425] inception_4d/1x1 <- inception_4c/output_inception_4c/output_0_split_0
I0403 18:02:09.834321  6507 net.cpp:399] inception_4d/1x1 -> inception_4d/1x1
I0403 18:02:09.835691  6507 net.cpp:141] Setting up inception_4d/1x1
I0403 18:02:09.835718  6507 net.cpp:148] Top shape: 24 112 14 14 (526848)
I0403 18:02:09.835736  6507 net.cpp:156] Memory required for data: 1113290016
I0403 18:02:09.835754  6507 layer_factory.hpp:77] Creating layer inception_4d/relu_1x1
I0403 18:02:09.835775  6507 net.cpp:91] Creating Layer inception_4d/relu_1x1
I0403 18:02:09.835794  6507 net.cpp:425] inception_4d/relu_1x1 <- inception_4d/1x1
I0403 18:02:09.835811  6507 net.cpp:386] inception_4d/relu_1x1 -> inception_4d/1x1 (in-place)
I0403 18:02:09.835995  6507 net.cpp:141] Setting up inception_4d/relu_1x1
I0403 18:02:09.836022  6507 net.cpp:148] Top shape: 24 112 14 14 (526848)
I0403 18:02:09.836040  6507 net.cpp:156] Memory required for data: 1115397408
I0403 18:02:09.836056  6507 layer_factory.hpp:77] Creating layer inception_4d/3x3_reduce
I0403 18:02:09.836096  6507 net.cpp:91] Creating Layer inception_4d/3x3_reduce
I0403 18:02:09.836115  6507 net.cpp:425] inception_4d/3x3_reduce <- inception_4c/output_inception_4c/output_0_split_1
I0403 18:02:09.836135  6507 net.cpp:399] inception_4d/3x3_reduce -> inception_4d/3x3_reduce
I0403 18:02:09.837638  6507 net.cpp:141] Setting up inception_4d/3x3_reduce
I0403 18:02:09.837666  6507 net.cpp:148] Top shape: 24 144 14 14 (677376)
I0403 18:02:09.837682  6507 net.cpp:156] Memory required for data: 1118106912
I0403 18:02:09.837700  6507 layer_factory.hpp:77] Creating layer inception_4d/relu_3x3_reduce
I0403 18:02:09.837723  6507 net.cpp:91] Creating Layer inception_4d/relu_3x3_reduce
I0403 18:02:09.837740  6507 net.cpp:425] inception_4d/relu_3x3_reduce <- inception_4d/3x3_reduce
I0403 18:02:09.837759  6507 net.cpp:386] inception_4d/relu_3x3_reduce -> inception_4d/3x3_reduce (in-place)
I0403 18:02:09.838044  6507 net.cpp:141] Setting up inception_4d/relu_3x3_reduce
I0403 18:02:09.838071  6507 net.cpp:148] Top shape: 24 144 14 14 (677376)
I0403 18:02:09.838088  6507 net.cpp:156] Memory required for data: 1120816416
I0403 18:02:09.838102  6507 layer_factory.hpp:77] Creating layer inception_4d/3x3
I0403 18:02:09.838125  6507 net.cpp:91] Creating Layer inception_4d/3x3
I0403 18:02:09.838143  6507 net.cpp:425] inception_4d/3x3 <- inception_4d/3x3_reduce
I0403 18:02:09.838166  6507 net.cpp:399] inception_4d/3x3 -> inception_4d/3x3
I0403 18:02:09.842636  6507 net.cpp:141] Setting up inception_4d/3x3
I0403 18:02:09.842667  6507 net.cpp:148] Top shape: 24 288 14 14 (1354752)
I0403 18:02:09.842687  6507 net.cpp:156] Memory required for data: 1126235424
I0403 18:02:09.842708  6507 layer_factory.hpp:77] Creating layer inception_4d/relu_3x3
I0403 18:02:09.842728  6507 net.cpp:91] Creating Layer inception_4d/relu_3x3
I0403 18:02:09.842746  6507 net.cpp:425] inception_4d/relu_3x3 <- inception_4d/3x3
I0403 18:02:09.842764  6507 net.cpp:386] inception_4d/relu_3x3 -> inception_4d/3x3 (in-place)
I0403 18:02:09.842960  6507 net.cpp:141] Setting up inception_4d/relu_3x3
I0403 18:02:09.842989  6507 net.cpp:148] Top shape: 24 288 14 14 (1354752)
I0403 18:02:09.843005  6507 net.cpp:156] Memory required for data: 1131654432
I0403 18:02:09.843022  6507 layer_factory.hpp:77] Creating layer inception_4d/5x5_reduce
I0403 18:02:09.843046  6507 net.cpp:91] Creating Layer inception_4d/5x5_reduce
I0403 18:02:09.843066  6507 net.cpp:425] inception_4d/5x5_reduce <- inception_4c/output_inception_4c/output_0_split_2
I0403 18:02:09.843087  6507 net.cpp:399] inception_4d/5x5_reduce -> inception_4d/5x5_reduce
I0403 18:02:09.844306  6507 net.cpp:141] Setting up inception_4d/5x5_reduce
I0403 18:02:09.844336  6507 net.cpp:148] Top shape: 24 32 14 14 (150528)
I0403 18:02:09.844353  6507 net.cpp:156] Memory required for data: 1132256544
I0403 18:02:09.844374  6507 layer_factory.hpp:77] Creating layer inception_4d/relu_5x5_reduce
I0403 18:02:09.844396  6507 net.cpp:91] Creating Layer inception_4d/relu_5x5_reduce
I0403 18:02:09.844415  6507 net.cpp:425] inception_4d/relu_5x5_reduce <- inception_4d/5x5_reduce
I0403 18:02:09.844436  6507 net.cpp:386] inception_4d/relu_5x5_reduce -> inception_4d/5x5_reduce (in-place)
I0403 18:02:09.844640  6507 net.cpp:141] Setting up inception_4d/relu_5x5_reduce
I0403 18:02:09.844666  6507 net.cpp:148] Top shape: 24 32 14 14 (150528)
I0403 18:02:09.844681  6507 net.cpp:156] Memory required for data: 1132858656
I0403 18:02:09.844698  6507 layer_factory.hpp:77] Creating layer inception_4d/5x5
I0403 18:02:09.844722  6507 net.cpp:91] Creating Layer inception_4d/5x5
I0403 18:02:09.844741  6507 net.cpp:425] inception_4d/5x5 <- inception_4d/5x5_reduce
I0403 18:02:09.844765  6507 net.cpp:399] inception_4d/5x5 -> inception_4d/5x5
I0403 18:02:09.846312  6507 net.cpp:141] Setting up inception_4d/5x5
I0403 18:02:09.846343  6507 net.cpp:148] Top shape: 24 64 14 14 (301056)
I0403 18:02:09.846374  6507 net.cpp:156] Memory required for data: 1134062880
I0403 18:02:09.846396  6507 layer_factory.hpp:77] Creating layer inception_4d/relu_5x5
I0403 18:02:09.846431  6507 net.cpp:91] Creating Layer inception_4d/relu_5x5
I0403 18:02:09.846451  6507 net.cpp:425] inception_4d/relu_5x5 <- inception_4d/5x5
I0403 18:02:09.846472  6507 net.cpp:386] inception_4d/relu_5x5 -> inception_4d/5x5 (in-place)
I0403 18:02:09.846786  6507 net.cpp:141] Setting up inception_4d/relu_5x5
I0403 18:02:09.846814  6507 net.cpp:148] Top shape: 24 64 14 14 (301056)
I0403 18:02:09.846830  6507 net.cpp:156] Memory required for data: 1135267104
I0403 18:02:09.846848  6507 layer_factory.hpp:77] Creating layer inception_4d/pool
I0403 18:02:09.846868  6507 net.cpp:91] Creating Layer inception_4d/pool
I0403 18:02:09.846884  6507 net.cpp:425] inception_4d/pool <- inception_4c/output_inception_4c/output_0_split_3
I0403 18:02:09.846907  6507 net.cpp:399] inception_4d/pool -> inception_4d/pool
I0403 18:02:09.846981  6507 net.cpp:141] Setting up inception_4d/pool
I0403 18:02:09.847007  6507 net.cpp:148] Top shape: 24 512 14 14 (2408448)
I0403 18:02:09.847023  6507 net.cpp:156] Memory required for data: 1144900896
I0403 18:02:09.847039  6507 layer_factory.hpp:77] Creating layer inception_4d/pool_proj
I0403 18:02:09.847066  6507 net.cpp:91] Creating Layer inception_4d/pool_proj
I0403 18:02:09.847085  6507 net.cpp:425] inception_4d/pool_proj <- inception_4d/pool
I0403 18:02:09.847106  6507 net.cpp:399] inception_4d/pool_proj -> inception_4d/pool_proj
I0403 18:02:09.848981  6507 net.cpp:141] Setting up inception_4d/pool_proj
I0403 18:02:09.849011  6507 net.cpp:148] Top shape: 24 64 14 14 (301056)
I0403 18:02:09.849032  6507 net.cpp:156] Memory required for data: 1146105120
I0403 18:02:09.849053  6507 layer_factory.hpp:77] Creating layer inception_4d/relu_pool_proj
I0403 18:02:09.849072  6507 net.cpp:91] Creating Layer inception_4d/relu_pool_proj
I0403 18:02:09.849091  6507 net.cpp:425] inception_4d/relu_pool_proj <- inception_4d/pool_proj
I0403 18:02:09.849108  6507 net.cpp:386] inception_4d/relu_pool_proj -> inception_4d/pool_proj (in-place)
I0403 18:02:09.849310  6507 net.cpp:141] Setting up inception_4d/relu_pool_proj
I0403 18:02:09.849340  6507 net.cpp:148] Top shape: 24 64 14 14 (301056)
I0403 18:02:09.849357  6507 net.cpp:156] Memory required for data: 1147309344
I0403 18:02:09.849375  6507 layer_factory.hpp:77] Creating layer inception_4d/output
I0403 18:02:09.849393  6507 net.cpp:91] Creating Layer inception_4d/output
I0403 18:02:09.849411  6507 net.cpp:425] inception_4d/output <- inception_4d/1x1
I0403 18:02:09.849431  6507 net.cpp:425] inception_4d/output <- inception_4d/3x3
I0403 18:02:09.849448  6507 net.cpp:425] inception_4d/output <- inception_4d/5x5
I0403 18:02:09.849467  6507 net.cpp:425] inception_4d/output <- inception_4d/pool_proj
I0403 18:02:09.849488  6507 net.cpp:399] inception_4d/output -> inception_4d/output
I0403 18:02:09.849539  6507 net.cpp:141] Setting up inception_4d/output
I0403 18:02:09.849565  6507 net.cpp:148] Top shape: 24 528 14 14 (2483712)
I0403 18:02:09.849581  6507 net.cpp:156] Memory required for data: 1157244192
I0403 18:02:09.849597  6507 layer_factory.hpp:77] Creating layer inception_4d/output_inception_4d/output_0_split
I0403 18:02:09.849620  6507 net.cpp:91] Creating Layer inception_4d/output_inception_4d/output_0_split
I0403 18:02:09.849638  6507 net.cpp:425] inception_4d/output_inception_4d/output_0_split <- inception_4d/output
I0403 18:02:09.849658  6507 net.cpp:399] inception_4d/output_inception_4d/output_0_split -> inception_4d/output_inception_4d/output_0_split_0
I0403 18:02:09.849685  6507 net.cpp:399] inception_4d/output_inception_4d/output_0_split -> inception_4d/output_inception_4d/output_0_split_1
I0403 18:02:09.849709  6507 net.cpp:399] inception_4d/output_inception_4d/output_0_split -> inception_4d/output_inception_4d/output_0_split_2
I0403 18:02:09.849732  6507 net.cpp:399] inception_4d/output_inception_4d/output_0_split -> inception_4d/output_inception_4d/output_0_split_3
I0403 18:02:09.849756  6507 net.cpp:399] inception_4d/output_inception_4d/output_0_split -> inception_4d/output_inception_4d/output_0_split_4
I0403 18:02:09.849865  6507 net.cpp:141] Setting up inception_4d/output_inception_4d/output_0_split
I0403 18:02:09.849905  6507 net.cpp:148] Top shape: 24 528 14 14 (2483712)
I0403 18:02:09.849923  6507 net.cpp:148] Top shape: 24 528 14 14 (2483712)
I0403 18:02:09.849941  6507 net.cpp:148] Top shape: 24 528 14 14 (2483712)
I0403 18:02:09.849957  6507 net.cpp:148] Top shape: 24 528 14 14 (2483712)
I0403 18:02:09.849975  6507 net.cpp:148] Top shape: 24 528 14 14 (2483712)
I0403 18:02:09.849992  6507 net.cpp:156] Memory required for data: 1206918432
I0403 18:02:09.850008  6507 layer_factory.hpp:77] Creating layer loss2/ave_pool
I0403 18:02:09.850031  6507 net.cpp:91] Creating Layer loss2/ave_pool
I0403 18:02:09.850050  6507 net.cpp:425] loss2/ave_pool <- inception_4d/output_inception_4d/output_0_split_0
I0403 18:02:09.850070  6507 net.cpp:399] loss2/ave_pool -> loss2/ave_pool
I0403 18:02:09.850399  6507 net.cpp:141] Setting up loss2/ave_pool
I0403 18:02:09.850430  6507 net.cpp:148] Top shape: 24 528 4 4 (202752)
I0403 18:02:09.850447  6507 net.cpp:156] Memory required for data: 1207729440
I0403 18:02:09.850464  6507 layer_factory.hpp:77] Creating layer loss2/conv
I0403 18:02:09.850486  6507 net.cpp:91] Creating Layer loss2/conv
I0403 18:02:09.850504  6507 net.cpp:425] loss2/conv <- loss2/ave_pool
I0403 18:02:09.850527  6507 net.cpp:399] loss2/conv -> loss2/conv
I0403 18:02:09.852567  6507 net.cpp:141] Setting up loss2/conv
I0403 18:02:09.852599  6507 net.cpp:148] Top shape: 24 128 4 4 (49152)
I0403 18:02:09.852617  6507 net.cpp:156] Memory required for data: 1207926048
I0403 18:02:09.852638  6507 layer_factory.hpp:77] Creating layer loss2/relu_conv
I0403 18:02:09.852658  6507 net.cpp:91] Creating Layer loss2/relu_conv
I0403 18:02:09.852675  6507 net.cpp:425] loss2/relu_conv <- loss2/conv
I0403 18:02:09.852697  6507 net.cpp:386] loss2/relu_conv -> loss2/conv (in-place)
I0403 18:02:09.852995  6507 net.cpp:141] Setting up loss2/relu_conv
I0403 18:02:09.853024  6507 net.cpp:148] Top shape: 24 128 4 4 (49152)
I0403 18:02:09.853040  6507 net.cpp:156] Memory required for data: 1208122656
I0403 18:02:09.853057  6507 layer_factory.hpp:77] Creating layer loss2/fc
I0403 18:02:09.853078  6507 net.cpp:91] Creating Layer loss2/fc
I0403 18:02:09.853096  6507 net.cpp:425] loss2/fc <- loss2/conv
I0403 18:02:09.853119  6507 net.cpp:399] loss2/fc -> loss2/fc
I0403 18:02:09.871230  6507 net.cpp:141] Setting up loss2/fc
I0403 18:02:09.871312  6507 net.cpp:148] Top shape: 24 1024 (24576)
I0403 18:02:09.871328  6507 net.cpp:156] Memory required for data: 1208220960
I0403 18:02:09.871350  6507 layer_factory.hpp:77] Creating layer loss2/relu_fc
I0403 18:02:09.871373  6507 net.cpp:91] Creating Layer loss2/relu_fc
I0403 18:02:09.871392  6507 net.cpp:425] loss2/relu_fc <- loss2/fc
I0403 18:02:09.871412  6507 net.cpp:386] loss2/relu_fc -> loss2/fc (in-place)
I0403 18:02:09.871780  6507 net.cpp:141] Setting up loss2/relu_fc
I0403 18:02:09.871809  6507 net.cpp:148] Top shape: 24 1024 (24576)
I0403 18:02:09.871826  6507 net.cpp:156] Memory required for data: 1208319264
I0403 18:02:09.871842  6507 layer_factory.hpp:77] Creating layer loss2/drop_fc
I0403 18:02:09.871861  6507 net.cpp:91] Creating Layer loss2/drop_fc
I0403 18:02:09.871878  6507 net.cpp:425] loss2/drop_fc <- loss2/fc
I0403 18:02:09.871896  6507 net.cpp:386] loss2/drop_fc -> loss2/fc (in-place)
I0403 18:02:09.871950  6507 net.cpp:141] Setting up loss2/drop_fc
I0403 18:02:09.871975  6507 net.cpp:148] Top shape: 24 1024 (24576)
I0403 18:02:09.871990  6507 net.cpp:156] Memory required for data: 1208417568
I0403 18:02:09.872006  6507 layer_factory.hpp:77] Creating layer loss2/classifier_plantvillage
I0403 18:02:09.872030  6507 net.cpp:91] Creating Layer loss2/classifier_plantvillage
I0403 18:02:09.872048  6507 net.cpp:425] loss2/classifier_plantvillage <- loss2/fc
I0403 18:02:09.872068  6507 net.cpp:399] loss2/classifier_plantvillage -> loss2/classifier_plantvillage
I0403 18:02:09.872532  6507 net.cpp:141] Setting up loss2/classifier_plantvillage
I0403 18:02:09.872571  6507 net.cpp:148] Top shape: 24 38 (912)
I0403 18:02:09.872617  6507 net.cpp:156] Memory required for data: 1208421216
I0403 18:02:09.872638  6507 layer_factory.hpp:77] Creating layer loss2/classifier_plantvillage_loss2/classifier_plantvillage_0_split
I0403 18:02:09.872658  6507 net.cpp:91] Creating Layer loss2/classifier_plantvillage_loss2/classifier_plantvillage_0_split
I0403 18:02:09.872676  6507 net.cpp:425] loss2/classifier_plantvillage_loss2/classifier_plantvillage_0_split <- loss2/classifier_plantvillage
I0403 18:02:09.872700  6507 net.cpp:399] loss2/classifier_plantvillage_loss2/classifier_plantvillage_0_split -> loss2/classifier_plantvillage_loss2/classifier_plantvillage_0_split_0
I0403 18:02:09.872725  6507 net.cpp:399] loss2/classifier_plantvillage_loss2/classifier_plantvillage_0_split -> loss2/classifier_plantvillage_loss2/classifier_plantvillage_0_split_1
I0403 18:02:09.872748  6507 net.cpp:399] loss2/classifier_plantvillage_loss2/classifier_plantvillage_0_split -> loss2/classifier_plantvillage_loss2/classifier_plantvillage_0_split_2
I0403 18:02:09.872834  6507 net.cpp:141] Setting up loss2/classifier_plantvillage_loss2/classifier_plantvillage_0_split
I0403 18:02:09.872874  6507 net.cpp:148] Top shape: 24 38 (912)
I0403 18:02:09.872891  6507 net.cpp:148] Top shape: 24 38 (912)
I0403 18:02:09.872920  6507 net.cpp:148] Top shape: 24 38 (912)
I0403 18:02:09.872936  6507 net.cpp:156] Memory required for data: 1208432160
I0403 18:02:09.872953  6507 layer_factory.hpp:77] Creating layer inception_4e/1x1
I0403 18:02:09.872977  6507 net.cpp:91] Creating Layer inception_4e/1x1
I0403 18:02:09.872994  6507 net.cpp:425] inception_4e/1x1 <- inception_4d/output_inception_4d/output_0_split_1
I0403 18:02:09.873016  6507 net.cpp:399] inception_4e/1x1 -> inception_4e/1x1
I0403 18:02:09.874934  6507 net.cpp:141] Setting up inception_4e/1x1
I0403 18:02:09.874963  6507 net.cpp:148] Top shape: 24 256 14 14 (1204224)
I0403 18:02:09.874979  6507 net.cpp:156] Memory required for data: 1213249056
I0403 18:02:09.875000  6507 layer_factory.hpp:77] Creating layer inception_4e/relu_1x1
I0403 18:02:09.875018  6507 net.cpp:91] Creating Layer inception_4e/relu_1x1
I0403 18:02:09.875036  6507 net.cpp:425] inception_4e/relu_1x1 <- inception_4e/1x1
I0403 18:02:09.875056  6507 net.cpp:386] inception_4e/relu_1x1 -> inception_4e/1x1 (in-place)
I0403 18:02:09.875363  6507 net.cpp:141] Setting up inception_4e/relu_1x1
I0403 18:02:09.875391  6507 net.cpp:148] Top shape: 24 256 14 14 (1204224)
I0403 18:02:09.875406  6507 net.cpp:156] Memory required for data: 1218065952
I0403 18:02:09.875422  6507 layer_factory.hpp:77] Creating layer inception_4e/3x3_reduce
I0403 18:02:09.875447  6507 net.cpp:91] Creating Layer inception_4e/3x3_reduce
I0403 18:02:09.875465  6507 net.cpp:425] inception_4e/3x3_reduce <- inception_4d/output_inception_4d/output_0_split_2
I0403 18:02:09.875488  6507 net.cpp:399] inception_4e/3x3_reduce -> inception_4e/3x3_reduce
I0403 18:02:09.877728  6507 net.cpp:141] Setting up inception_4e/3x3_reduce
I0403 18:02:09.877760  6507 net.cpp:148] Top shape: 24 160 14 14 (752640)
I0403 18:02:09.877779  6507 net.cpp:156] Memory required for data: 1221076512
I0403 18:02:09.877799  6507 layer_factory.hpp:77] Creating layer inception_4e/relu_3x3_reduce
I0403 18:02:09.877818  6507 net.cpp:91] Creating Layer inception_4e/relu_3x3_reduce
I0403 18:02:09.877840  6507 net.cpp:425] inception_4e/relu_3x3_reduce <- inception_4e/3x3_reduce
I0403 18:02:09.877866  6507 net.cpp:386] inception_4e/relu_3x3_reduce -> inception_4e/3x3_reduce (in-place)
I0403 18:02:09.878065  6507 net.cpp:141] Setting up inception_4e/relu_3x3_reduce
I0403 18:02:09.878093  6507 net.cpp:148] Top shape: 24 160 14 14 (752640)
I0403 18:02:09.878108  6507 net.cpp:156] Memory required for data: 1224087072
I0403 18:02:09.878124  6507 layer_factory.hpp:77] Creating layer inception_4e/3x3
I0403 18:02:09.878149  6507 net.cpp:91] Creating Layer inception_4e/3x3
I0403 18:02:09.878167  6507 net.cpp:425] inception_4e/3x3 <- inception_4e/3x3_reduce
I0403 18:02:09.878190  6507 net.cpp:399] inception_4e/3x3 -> inception_4e/3x3
I0403 18:02:09.883275  6507 net.cpp:141] Setting up inception_4e/3x3
I0403 18:02:09.883329  6507 net.cpp:148] Top shape: 24 320 14 14 (1505280)
I0403 18:02:09.883347  6507 net.cpp:156] Memory required for data: 1230108192
I0403 18:02:09.883368  6507 layer_factory.hpp:77] Creating layer inception_4e/relu_3x3
I0403 18:02:09.883389  6507 net.cpp:91] Creating Layer inception_4e/relu_3x3
I0403 18:02:09.883409  6507 net.cpp:425] inception_4e/relu_3x3 <- inception_4e/3x3
I0403 18:02:09.883426  6507 net.cpp:386] inception_4e/relu_3x3 -> inception_4e/3x3 (in-place)
I0403 18:02:09.883735  6507 net.cpp:141] Setting up inception_4e/relu_3x3
I0403 18:02:09.883762  6507 net.cpp:148] Top shape: 24 320 14 14 (1505280)
I0403 18:02:09.883777  6507 net.cpp:156] Memory required for data: 1236129312
I0403 18:02:09.883795  6507 layer_factory.hpp:77] Creating layer inception_4e/5x5_reduce
I0403 18:02:09.883828  6507 net.cpp:91] Creating Layer inception_4e/5x5_reduce
I0403 18:02:09.883849  6507 net.cpp:425] inception_4e/5x5_reduce <- inception_4d/output_inception_4d/output_0_split_3
I0403 18:02:09.883869  6507 net.cpp:399] inception_4e/5x5_reduce -> inception_4e/5x5_reduce
I0403 18:02:09.884943  6507 net.cpp:141] Setting up inception_4e/5x5_reduce
I0403 18:02:09.884970  6507 net.cpp:148] Top shape: 24 32 14 14 (150528)
I0403 18:02:09.884986  6507 net.cpp:156] Memory required for data: 1236731424
I0403 18:02:09.885005  6507 layer_factory.hpp:77] Creating layer inception_4e/relu_5x5_reduce
I0403 18:02:09.885025  6507 net.cpp:91] Creating Layer inception_4e/relu_5x5_reduce
I0403 18:02:09.885040  6507 net.cpp:425] inception_4e/relu_5x5_reduce <- inception_4e/5x5_reduce
I0403 18:02:09.885061  6507 net.cpp:386] inception_4e/relu_5x5_reduce -> inception_4e/5x5_reduce (in-place)
I0403 18:02:09.885362  6507 net.cpp:141] Setting up inception_4e/relu_5x5_reduce
I0403 18:02:09.885388  6507 net.cpp:148] Top shape: 24 32 14 14 (150528)
I0403 18:02:09.885403  6507 net.cpp:156] Memory required for data: 1237333536
I0403 18:02:09.885419  6507 layer_factory.hpp:77] Creating layer inception_4e/5x5
I0403 18:02:09.885459  6507 net.cpp:91] Creating Layer inception_4e/5x5
I0403 18:02:09.885480  6507 net.cpp:425] inception_4e/5x5 <- inception_4e/5x5_reduce
I0403 18:02:09.885500  6507 net.cpp:399] inception_4e/5x5 -> inception_4e/5x5
I0403 18:02:09.887341  6507 net.cpp:141] Setting up inception_4e/5x5
I0403 18:02:09.887372  6507 net.cpp:148] Top shape: 24 128 14 14 (602112)
I0403 18:02:09.887388  6507 net.cpp:156] Memory required for data: 1239741984
I0403 18:02:09.887408  6507 layer_factory.hpp:77] Creating layer inception_4e/relu_5x5
I0403 18:02:09.887428  6507 net.cpp:91] Creating Layer inception_4e/relu_5x5
I0403 18:02:09.887444  6507 net.cpp:425] inception_4e/relu_5x5 <- inception_4e/5x5
I0403 18:02:09.887462  6507 net.cpp:386] inception_4e/relu_5x5 -> inception_4e/5x5 (in-place)
I0403 18:02:09.887661  6507 net.cpp:141] Setting up inception_4e/relu_5x5
I0403 18:02:09.887686  6507 net.cpp:148] Top shape: 24 128 14 14 (602112)
I0403 18:02:09.887701  6507 net.cpp:156] Memory required for data: 1242150432
I0403 18:02:09.887717  6507 layer_factory.hpp:77] Creating layer inception_4e/pool
I0403 18:02:09.887737  6507 net.cpp:91] Creating Layer inception_4e/pool
I0403 18:02:09.887753  6507 net.cpp:425] inception_4e/pool <- inception_4d/output_inception_4d/output_0_split_4
I0403 18:02:09.887774  6507 net.cpp:399] inception_4e/pool -> inception_4e/pool
I0403 18:02:09.887845  6507 net.cpp:141] Setting up inception_4e/pool
I0403 18:02:09.887872  6507 net.cpp:148] Top shape: 24 528 14 14 (2483712)
I0403 18:02:09.887888  6507 net.cpp:156] Memory required for data: 1252085280
I0403 18:02:09.887904  6507 layer_factory.hpp:77] Creating layer inception_4e/pool_proj
I0403 18:02:09.887928  6507 net.cpp:91] Creating Layer inception_4e/pool_proj
I0403 18:02:09.887958  6507 net.cpp:425] inception_4e/pool_proj <- inception_4e/pool
I0403 18:02:09.887979  6507 net.cpp:399] inception_4e/pool_proj -> inception_4e/pool_proj
I0403 18:02:09.889500  6507 net.cpp:141] Setting up inception_4e/pool_proj
I0403 18:02:09.889542  6507 net.cpp:148] Top shape: 24 128 14 14 (602112)
I0403 18:02:09.889560  6507 net.cpp:156] Memory required for data: 1254493728
I0403 18:02:09.889580  6507 layer_factory.hpp:77] Creating layer inception_4e/relu_pool_proj
I0403 18:02:09.889598  6507 net.cpp:91] Creating Layer inception_4e/relu_pool_proj
I0403 18:02:09.889616  6507 net.cpp:425] inception_4e/relu_pool_proj <- inception_4e/pool_proj
I0403 18:02:09.889634  6507 net.cpp:386] inception_4e/relu_pool_proj -> inception_4e/pool_proj (in-place)
I0403 18:02:09.889927  6507 net.cpp:141] Setting up inception_4e/relu_pool_proj
I0403 18:02:09.889955  6507 net.cpp:148] Top shape: 24 128 14 14 (602112)
I0403 18:02:09.889971  6507 net.cpp:156] Memory required for data: 1256902176
I0403 18:02:09.889986  6507 layer_factory.hpp:77] Creating layer inception_4e/output
I0403 18:02:09.890005  6507 net.cpp:91] Creating Layer inception_4e/output
I0403 18:02:09.890022  6507 net.cpp:425] inception_4e/output <- inception_4e/1x1
I0403 18:02:09.890038  6507 net.cpp:425] inception_4e/output <- inception_4e/3x3
I0403 18:02:09.890056  6507 net.cpp:425] inception_4e/output <- inception_4e/5x5
I0403 18:02:09.890072  6507 net.cpp:425] inception_4e/output <- inception_4e/pool_proj
I0403 18:02:09.890089  6507 net.cpp:399] inception_4e/output -> inception_4e/output
I0403 18:02:09.890141  6507 net.cpp:141] Setting up inception_4e/output
I0403 18:02:09.890166  6507 net.cpp:148] Top shape: 24 832 14 14 (3913728)
I0403 18:02:09.890180  6507 net.cpp:156] Memory required for data: 1272557088
I0403 18:02:09.890195  6507 layer_factory.hpp:77] Creating layer pool4/3x3_s2
I0403 18:02:09.890221  6507 net.cpp:91] Creating Layer pool4/3x3_s2
I0403 18:02:09.890241  6507 net.cpp:425] pool4/3x3_s2 <- inception_4e/output
I0403 18:02:09.890264  6507 net.cpp:399] pool4/3x3_s2 -> pool4/3x3_s2
I0403 18:02:09.890332  6507 net.cpp:141] Setting up pool4/3x3_s2
I0403 18:02:09.890357  6507 net.cpp:148] Top shape: 24 832 7 7 (978432)
I0403 18:02:09.890372  6507 net.cpp:156] Memory required for data: 1276470816
I0403 18:02:09.890388  6507 layer_factory.hpp:77] Creating layer pool4/3x3_s2_pool4/3x3_s2_0_split
I0403 18:02:09.890405  6507 net.cpp:91] Creating Layer pool4/3x3_s2_pool4/3x3_s2_0_split
I0403 18:02:09.890421  6507 net.cpp:425] pool4/3x3_s2_pool4/3x3_s2_0_split <- pool4/3x3_s2
I0403 18:02:09.890442  6507 net.cpp:399] pool4/3x3_s2_pool4/3x3_s2_0_split -> pool4/3x3_s2_pool4/3x3_s2_0_split_0
I0403 18:02:09.890465  6507 net.cpp:399] pool4/3x3_s2_pool4/3x3_s2_0_split -> pool4/3x3_s2_pool4/3x3_s2_0_split_1
I0403 18:02:09.890485  6507 net.cpp:399] pool4/3x3_s2_pool4/3x3_s2_0_split -> pool4/3x3_s2_pool4/3x3_s2_0_split_2
I0403 18:02:09.890506  6507 net.cpp:399] pool4/3x3_s2_pool4/3x3_s2_0_split -> pool4/3x3_s2_pool4/3x3_s2_0_split_3
I0403 18:02:09.890597  6507 net.cpp:141] Setting up pool4/3x3_s2_pool4/3x3_s2_0_split
I0403 18:02:09.890625  6507 net.cpp:148] Top shape: 24 832 7 7 (978432)
I0403 18:02:09.890642  6507 net.cpp:148] Top shape: 24 832 7 7 (978432)
I0403 18:02:09.890660  6507 net.cpp:148] Top shape: 24 832 7 7 (978432)
I0403 18:02:09.890674  6507 net.cpp:148] Top shape: 24 832 7 7 (978432)
I0403 18:02:09.890689  6507 net.cpp:156] Memory required for data: 1292125728
I0403 18:02:09.890704  6507 layer_factory.hpp:77] Creating layer inception_5a/1x1
I0403 18:02:09.890727  6507 net.cpp:91] Creating Layer inception_5a/1x1
I0403 18:02:09.890746  6507 net.cpp:425] inception_5a/1x1 <- pool4/3x3_s2_pool4/3x3_s2_0_split_0
I0403 18:02:09.890765  6507 net.cpp:399] inception_5a/1x1 -> inception_5a/1x1
I0403 18:02:09.893654  6507 net.cpp:141] Setting up inception_5a/1x1
I0403 18:02:09.893685  6507 net.cpp:148] Top shape: 24 256 7 7 (301056)
I0403 18:02:09.893703  6507 net.cpp:156] Memory required for data: 1293329952
I0403 18:02:09.893723  6507 layer_factory.hpp:77] Creating layer inception_5a/relu_1x1
I0403 18:02:09.893740  6507 net.cpp:91] Creating Layer inception_5a/relu_1x1
I0403 18:02:09.893759  6507 net.cpp:425] inception_5a/relu_1x1 <- inception_5a/1x1
I0403 18:02:09.893779  6507 net.cpp:386] inception_5a/relu_1x1 -> inception_5a/1x1 (in-place)
I0403 18:02:09.894088  6507 net.cpp:141] Setting up inception_5a/relu_1x1
I0403 18:02:09.894115  6507 net.cpp:148] Top shape: 24 256 7 7 (301056)
I0403 18:02:09.894134  6507 net.cpp:156] Memory required for data: 1294534176
I0403 18:02:09.894150  6507 layer_factory.hpp:77] Creating layer inception_5a/3x3_reduce
I0403 18:02:09.894173  6507 net.cpp:91] Creating Layer inception_5a/3x3_reduce
I0403 18:02:09.894191  6507 net.cpp:425] inception_5a/3x3_reduce <- pool4/3x3_s2_pool4/3x3_s2_0_split_1
I0403 18:02:09.894212  6507 net.cpp:399] inception_5a/3x3_reduce -> inception_5a/3x3_reduce
I0403 18:02:09.896749  6507 net.cpp:141] Setting up inception_5a/3x3_reduce
I0403 18:02:09.896777  6507 net.cpp:148] Top shape: 24 160 7 7 (188160)
I0403 18:02:09.896793  6507 net.cpp:156] Memory required for data: 1295286816
I0403 18:02:09.896813  6507 layer_factory.hpp:77] Creating layer inception_5a/relu_3x3_reduce
I0403 18:02:09.896836  6507 net.cpp:91] Creating Layer inception_5a/relu_3x3_reduce
I0403 18:02:09.896853  6507 net.cpp:425] inception_5a/relu_3x3_reduce <- inception_5a/3x3_reduce
I0403 18:02:09.896872  6507 net.cpp:386] inception_5a/relu_3x3_reduce -> inception_5a/3x3_reduce (in-place)
I0403 18:02:09.897069  6507 net.cpp:141] Setting up inception_5a/relu_3x3_reduce
I0403 18:02:09.897097  6507 net.cpp:148] Top shape: 24 160 7 7 (188160)
I0403 18:02:09.897114  6507 net.cpp:156] Memory required for data: 1296039456
I0403 18:02:09.897131  6507 layer_factory.hpp:77] Creating layer inception_5a/3x3
I0403 18:02:09.897156  6507 net.cpp:91] Creating Layer inception_5a/3x3
I0403 18:02:09.897174  6507 net.cpp:425] inception_5a/3x3 <- inception_5a/3x3_reduce
I0403 18:02:09.897194  6507 net.cpp:399] inception_5a/3x3 -> inception_5a/3x3
I0403 18:02:09.902382  6507 net.cpp:141] Setting up inception_5a/3x3
I0403 18:02:09.902417  6507 net.cpp:148] Top shape: 24 320 7 7 (376320)
I0403 18:02:09.902436  6507 net.cpp:156] Memory required for data: 1297544736
I0403 18:02:09.902456  6507 layer_factory.hpp:77] Creating layer inception_5a/relu_3x3
I0403 18:02:09.902488  6507 net.cpp:91] Creating Layer inception_5a/relu_3x3
I0403 18:02:09.902505  6507 net.cpp:425] inception_5a/relu_3x3 <- inception_5a/3x3
I0403 18:02:09.902526  6507 net.cpp:386] inception_5a/relu_3x3 -> inception_5a/3x3 (in-place)
I0403 18:02:09.902828  6507 net.cpp:141] Setting up inception_5a/relu_3x3
I0403 18:02:09.902858  6507 net.cpp:148] Top shape: 24 320 7 7 (376320)
I0403 18:02:09.902875  6507 net.cpp:156] Memory required for data: 1299050016
I0403 18:02:09.902891  6507 layer_factory.hpp:77] Creating layer inception_5a/5x5_reduce
I0403 18:02:09.902915  6507 net.cpp:91] Creating Layer inception_5a/5x5_reduce
I0403 18:02:09.902933  6507 net.cpp:425] inception_5a/5x5_reduce <- pool4/3x3_s2_pool4/3x3_s2_0_split_2
I0403 18:02:09.902954  6507 net.cpp:399] inception_5a/5x5_reduce -> inception_5a/5x5_reduce
I0403 18:02:09.904171  6507 net.cpp:141] Setting up inception_5a/5x5_reduce
I0403 18:02:09.904203  6507 net.cpp:148] Top shape: 24 32 7 7 (37632)
I0403 18:02:09.904222  6507 net.cpp:156] Memory required for data: 1299200544
I0403 18:02:09.904245  6507 layer_factory.hpp:77] Creating layer inception_5a/relu_5x5_reduce
I0403 18:02:09.904266  6507 net.cpp:91] Creating Layer inception_5a/relu_5x5_reduce
I0403 18:02:09.904284  6507 net.cpp:425] inception_5a/relu_5x5_reduce <- inception_5a/5x5_reduce
I0403 18:02:09.904305  6507 net.cpp:386] inception_5a/relu_5x5_reduce -> inception_5a/5x5_reduce (in-place)
I0403 18:02:09.904624  6507 net.cpp:141] Setting up inception_5a/relu_5x5_reduce
I0403 18:02:09.904652  6507 net.cpp:148] Top shape: 24 32 7 7 (37632)
I0403 18:02:09.904670  6507 net.cpp:156] Memory required for data: 1299351072
I0403 18:02:09.904685  6507 layer_factory.hpp:77] Creating layer inception_5a/5x5
I0403 18:02:09.904709  6507 net.cpp:91] Creating Layer inception_5a/5x5
I0403 18:02:09.904728  6507 net.cpp:425] inception_5a/5x5 <- inception_5a/5x5_reduce
I0403 18:02:09.904752  6507 net.cpp:399] inception_5a/5x5 -> inception_5a/5x5
I0403 18:02:09.906576  6507 net.cpp:141] Setting up inception_5a/5x5
I0403 18:02:09.906620  6507 net.cpp:148] Top shape: 24 128 7 7 (150528)
I0403 18:02:09.906637  6507 net.cpp:156] Memory required for data: 1299953184
I0403 18:02:09.906657  6507 layer_factory.hpp:77] Creating layer inception_5a/relu_5x5
I0403 18:02:09.906677  6507 net.cpp:91] Creating Layer inception_5a/relu_5x5
I0403 18:02:09.906693  6507 net.cpp:425] inception_5a/relu_5x5 <- inception_5a/5x5
I0403 18:02:09.906713  6507 net.cpp:386] inception_5a/relu_5x5 -> inception_5a/5x5 (in-place)
I0403 18:02:09.906914  6507 net.cpp:141] Setting up inception_5a/relu_5x5
I0403 18:02:09.906940  6507 net.cpp:148] Top shape: 24 128 7 7 (150528)
I0403 18:02:09.906956  6507 net.cpp:156] Memory required for data: 1300555296
I0403 18:02:09.906972  6507 layer_factory.hpp:77] Creating layer inception_5a/pool
I0403 18:02:09.906991  6507 net.cpp:91] Creating Layer inception_5a/pool
I0403 18:02:09.907008  6507 net.cpp:425] inception_5a/pool <- pool4/3x3_s2_pool4/3x3_s2_0_split_3
I0403 18:02:09.907030  6507 net.cpp:399] inception_5a/pool -> inception_5a/pool
I0403 18:02:09.907102  6507 net.cpp:141] Setting up inception_5a/pool
I0403 18:02:09.907130  6507 net.cpp:148] Top shape: 24 832 7 7 (978432)
I0403 18:02:09.907145  6507 net.cpp:156] Memory required for data: 1304469024
I0403 18:02:09.907160  6507 layer_factory.hpp:77] Creating layer inception_5a/pool_proj
I0403 18:02:09.907184  6507 net.cpp:91] Creating Layer inception_5a/pool_proj
I0403 18:02:09.907203  6507 net.cpp:425] inception_5a/pool_proj <- inception_5a/pool
I0403 18:02:09.907222  6507 net.cpp:399] inception_5a/pool_proj -> inception_5a/pool_proj
I0403 18:02:09.909607  6507 net.cpp:141] Setting up inception_5a/pool_proj
I0403 18:02:09.909637  6507 net.cpp:148] Top shape: 24 128 7 7 (150528)
I0403 18:02:09.909653  6507 net.cpp:156] Memory required for data: 1305071136
I0403 18:02:09.909673  6507 layer_factory.hpp:77] Creating layer inception_5a/relu_pool_proj
I0403 18:02:09.909698  6507 net.cpp:91] Creating Layer inception_5a/relu_pool_proj
I0403 18:02:09.909718  6507 net.cpp:425] inception_5a/relu_pool_proj <- inception_5a/pool_proj
I0403 18:02:09.909737  6507 net.cpp:386] inception_5a/relu_pool_proj -> inception_5a/pool_proj (in-place)
I0403 18:02:09.910040  6507 net.cpp:141] Setting up inception_5a/relu_pool_proj
I0403 18:02:09.910066  6507 net.cpp:148] Top shape: 24 128 7 7 (150528)
I0403 18:02:09.910082  6507 net.cpp:156] Memory required for data: 1305673248
I0403 18:02:09.910099  6507 layer_factory.hpp:77] Creating layer inception_5a/output
I0403 18:02:09.910120  6507 net.cpp:91] Creating Layer inception_5a/output
I0403 18:02:09.910137  6507 net.cpp:425] inception_5a/output <- inception_5a/1x1
I0403 18:02:09.910156  6507 net.cpp:425] inception_5a/output <- inception_5a/3x3
I0403 18:02:09.910173  6507 net.cpp:425] inception_5a/output <- inception_5a/5x5
I0403 18:02:09.910190  6507 net.cpp:425] inception_5a/output <- inception_5a/pool_proj
I0403 18:02:09.910208  6507 net.cpp:399] inception_5a/output -> inception_5a/output
I0403 18:02:09.910267  6507 net.cpp:141] Setting up inception_5a/output
I0403 18:02:09.910292  6507 net.cpp:148] Top shape: 24 832 7 7 (978432)
I0403 18:02:09.910307  6507 net.cpp:156] Memory required for data: 1309586976
I0403 18:02:09.910323  6507 layer_factory.hpp:77] Creating layer inception_5a/output_inception_5a/output_0_split
I0403 18:02:09.910342  6507 net.cpp:91] Creating Layer inception_5a/output_inception_5a/output_0_split
I0403 18:02:09.910361  6507 net.cpp:425] inception_5a/output_inception_5a/output_0_split <- inception_5a/output
I0403 18:02:09.910382  6507 net.cpp:399] inception_5a/output_inception_5a/output_0_split -> inception_5a/output_inception_5a/output_0_split_0
I0403 18:02:09.910405  6507 net.cpp:399] inception_5a/output_inception_5a/output_0_split -> inception_5a/output_inception_5a/output_0_split_1
I0403 18:02:09.910428  6507 net.cpp:399] inception_5a/output_inception_5a/output_0_split -> inception_5a/output_inception_5a/output_0_split_2
I0403 18:02:09.910449  6507 net.cpp:399] inception_5a/output_inception_5a/output_0_split -> inception_5a/output_inception_5a/output_0_split_3
I0403 18:02:09.910572  6507 net.cpp:141] Setting up inception_5a/output_inception_5a/output_0_split
I0403 18:02:09.910596  6507 net.cpp:148] Top shape: 24 832 7 7 (978432)
I0403 18:02:09.910614  6507 net.cpp:148] Top shape: 24 832 7 7 (978432)
I0403 18:02:09.910631  6507 net.cpp:148] Top shape: 24 832 7 7 (978432)
I0403 18:02:09.910647  6507 net.cpp:148] Top shape: 24 832 7 7 (978432)
I0403 18:02:09.910663  6507 net.cpp:156] Memory required for data: 1325241888
I0403 18:02:09.910679  6507 layer_factory.hpp:77] Creating layer inception_5b/1x1
I0403 18:02:09.910703  6507 net.cpp:91] Creating Layer inception_5b/1x1
I0403 18:02:09.910722  6507 net.cpp:425] inception_5b/1x1 <- inception_5a/output_inception_5a/output_0_split_0
I0403 18:02:09.910744  6507 net.cpp:399] inception_5b/1x1 -> inception_5b/1x1
I0403 18:02:09.914582  6507 net.cpp:141] Setting up inception_5b/1x1
I0403 18:02:09.914611  6507 net.cpp:148] Top shape: 24 384 7 7 (451584)
I0403 18:02:09.914628  6507 net.cpp:156] Memory required for data: 1327048224
I0403 18:02:09.914646  6507 layer_factory.hpp:77] Creating layer inception_5b/relu_1x1
I0403 18:02:09.914669  6507 net.cpp:91] Creating Layer inception_5b/relu_1x1
I0403 18:02:09.914685  6507 net.cpp:425] inception_5b/relu_1x1 <- inception_5b/1x1
I0403 18:02:09.914705  6507 net.cpp:386] inception_5b/relu_1x1 -> inception_5b/1x1 (in-place)
I0403 18:02:09.915011  6507 net.cpp:141] Setting up inception_5b/relu_1x1
I0403 18:02:09.915037  6507 net.cpp:148] Top shape: 24 384 7 7 (451584)
I0403 18:02:09.915052  6507 net.cpp:156] Memory required for data: 1328854560
I0403 18:02:09.915069  6507 layer_factory.hpp:77] Creating layer inception_5b/3x3_reduce
I0403 18:02:09.915092  6507 net.cpp:91] Creating Layer inception_5b/3x3_reduce
I0403 18:02:09.915112  6507 net.cpp:425] inception_5b/3x3_reduce <- inception_5a/output_inception_5a/output_0_split_1
I0403 18:02:09.915138  6507 net.cpp:399] inception_5b/3x3_reduce -> inception_5b/3x3_reduce
I0403 18:02:09.917817  6507 net.cpp:141] Setting up inception_5b/3x3_reduce
I0403 18:02:09.917846  6507 net.cpp:148] Top shape: 24 192 7 7 (225792)
I0403 18:02:09.917863  6507 net.cpp:156] Memory required for data: 1329757728
I0403 18:02:09.917882  6507 layer_factory.hpp:77] Creating layer inception_5b/relu_3x3_reduce
I0403 18:02:09.917904  6507 net.cpp:91] Creating Layer inception_5b/relu_3x3_reduce
I0403 18:02:09.917922  6507 net.cpp:425] inception_5b/relu_3x3_reduce <- inception_5b/3x3_reduce
I0403 18:02:09.917940  6507 net.cpp:386] inception_5b/relu_3x3_reduce -> inception_5b/3x3_reduce (in-place)
I0403 18:02:09.918134  6507 net.cpp:141] Setting up inception_5b/relu_3x3_reduce
I0403 18:02:09.918159  6507 net.cpp:148] Top shape: 24 192 7 7 (225792)
I0403 18:02:09.918174  6507 net.cpp:156] Memory required for data: 1330660896
I0403 18:02:09.918190  6507 layer_factory.hpp:77] Creating layer inception_5b/3x3
I0403 18:02:09.918213  6507 net.cpp:91] Creating Layer inception_5b/3x3
I0403 18:02:09.918232  6507 net.cpp:425] inception_5b/3x3 <- inception_5b/3x3_reduce
I0403 18:02:09.918261  6507 net.cpp:399] inception_5b/3x3 -> inception_5b/3x3
I0403 18:02:09.924896  6507 net.cpp:141] Setting up inception_5b/3x3
I0403 18:02:09.924926  6507 net.cpp:148] Top shape: 24 384 7 7 (451584)
I0403 18:02:09.924942  6507 net.cpp:156] Memory required for data: 1332467232
I0403 18:02:09.924962  6507 layer_factory.hpp:77] Creating layer inception_5b/relu_3x3
I0403 18:02:09.924983  6507 net.cpp:91] Creating Layer inception_5b/relu_3x3
I0403 18:02:09.924999  6507 net.cpp:425] inception_5b/relu_3x3 <- inception_5b/3x3
I0403 18:02:09.925019  6507 net.cpp:386] inception_5b/relu_3x3 -> inception_5b/3x3 (in-place)
I0403 18:02:09.925323  6507 net.cpp:141] Setting up inception_5b/relu_3x3
I0403 18:02:09.925349  6507 net.cpp:148] Top shape: 24 384 7 7 (451584)
I0403 18:02:09.925365  6507 net.cpp:156] Memory required for data: 1334273568
I0403 18:02:09.925380  6507 layer_factory.hpp:77] Creating layer inception_5b/5x5_reduce
I0403 18:02:09.925423  6507 net.cpp:91] Creating Layer inception_5b/5x5_reduce
I0403 18:02:09.925442  6507 net.cpp:425] inception_5b/5x5_reduce <- inception_5a/output_inception_5a/output_0_split_2
I0403 18:02:09.925463  6507 net.cpp:399] inception_5b/5x5_reduce -> inception_5b/5x5_reduce
I0403 18:02:09.926733  6507 net.cpp:141] Setting up inception_5b/5x5_reduce
I0403 18:02:09.926764  6507 net.cpp:148] Top shape: 24 48 7 7 (56448)
I0403 18:02:09.926781  6507 net.cpp:156] Memory required for data: 1334499360
I0403 18:02:09.926800  6507 layer_factory.hpp:77] Creating layer inception_5b/relu_5x5_reduce
I0403 18:02:09.926820  6507 net.cpp:91] Creating Layer inception_5b/relu_5x5_reduce
I0403 18:02:09.926836  6507 net.cpp:425] inception_5b/relu_5x5_reduce <- inception_5b/5x5_reduce
I0403 18:02:09.926856  6507 net.cpp:386] inception_5b/relu_5x5_reduce -> inception_5b/5x5_reduce (in-place)
I0403 18:02:09.927232  6507 net.cpp:141] Setting up inception_5b/relu_5x5_reduce
I0403 18:02:09.927263  6507 net.cpp:148] Top shape: 24 48 7 7 (56448)
I0403 18:02:09.927278  6507 net.cpp:156] Memory required for data: 1334725152
I0403 18:02:09.927294  6507 layer_factory.hpp:77] Creating layer inception_5b/5x5
I0403 18:02:09.927315  6507 net.cpp:91] Creating Layer inception_5b/5x5
I0403 18:02:09.927332  6507 net.cpp:425] inception_5b/5x5 <- inception_5b/5x5_reduce
I0403 18:02:09.927352  6507 net.cpp:399] inception_5b/5x5 -> inception_5b/5x5
I0403 18:02:09.929379  6507 net.cpp:141] Setting up inception_5b/5x5
I0403 18:02:09.929409  6507 net.cpp:148] Top shape: 24 128 7 7 (150528)
I0403 18:02:09.929426  6507 net.cpp:156] Memory required for data: 1335327264
I0403 18:02:09.929445  6507 layer_factory.hpp:77] Creating layer inception_5b/relu_5x5
I0403 18:02:09.929463  6507 net.cpp:91] Creating Layer inception_5b/relu_5x5
I0403 18:02:09.929481  6507 net.cpp:425] inception_5b/relu_5x5 <- inception_5b/5x5
I0403 18:02:09.929502  6507 net.cpp:386] inception_5b/relu_5x5 -> inception_5b/5x5 (in-place)
I0403 18:02:09.929698  6507 net.cpp:141] Setting up inception_5b/relu_5x5
I0403 18:02:09.929723  6507 net.cpp:148] Top shape: 24 128 7 7 (150528)
I0403 18:02:09.929740  6507 net.cpp:156] Memory required for data: 1335929376
I0403 18:02:09.929755  6507 layer_factory.hpp:77] Creating layer inception_5b/pool
I0403 18:02:09.929774  6507 net.cpp:91] Creating Layer inception_5b/pool
I0403 18:02:09.929791  6507 net.cpp:425] inception_5b/pool <- inception_5a/output_inception_5a/output_0_split_3
I0403 18:02:09.929813  6507 net.cpp:399] inception_5b/pool -> inception_5b/pool
I0403 18:02:09.929888  6507 net.cpp:141] Setting up inception_5b/pool
I0403 18:02:09.929911  6507 net.cpp:148] Top shape: 24 832 7 7 (978432)
I0403 18:02:09.929926  6507 net.cpp:156] Memory required for data: 1339843104
I0403 18:02:09.929942  6507 layer_factory.hpp:77] Creating layer inception_5b/pool_proj
I0403 18:02:09.929980  6507 net.cpp:91] Creating Layer inception_5b/pool_proj
I0403 18:02:09.929998  6507 net.cpp:425] inception_5b/pool_proj <- inception_5b/pool
I0403 18:02:09.930018  6507 net.cpp:399] inception_5b/pool_proj -> inception_5b/pool_proj
I0403 18:02:09.932405  6507 net.cpp:141] Setting up inception_5b/pool_proj
I0403 18:02:09.932437  6507 net.cpp:148] Top shape: 24 128 7 7 (150528)
I0403 18:02:09.932454  6507 net.cpp:156] Memory required for data: 1340445216
I0403 18:02:09.932474  6507 layer_factory.hpp:77] Creating layer inception_5b/relu_pool_proj
I0403 18:02:09.932493  6507 net.cpp:91] Creating Layer inception_5b/relu_pool_proj
I0403 18:02:09.932510  6507 net.cpp:425] inception_5b/relu_pool_proj <- inception_5b/pool_proj
I0403 18:02:09.932529  6507 net.cpp:386] inception_5b/relu_pool_proj -> inception_5b/pool_proj (in-place)
I0403 18:02:09.932845  6507 net.cpp:141] Setting up inception_5b/relu_pool_proj
I0403 18:02:09.932874  6507 net.cpp:148] Top shape: 24 128 7 7 (150528)
I0403 18:02:09.932893  6507 net.cpp:156] Memory required for data: 1341047328
I0403 18:02:09.932909  6507 layer_factory.hpp:77] Creating layer inception_5b/output
I0403 18:02:09.932929  6507 net.cpp:91] Creating Layer inception_5b/output
I0403 18:02:09.932958  6507 net.cpp:425] inception_5b/output <- inception_5b/1x1
I0403 18:02:09.932977  6507 net.cpp:425] inception_5b/output <- inception_5b/3x3
I0403 18:02:09.932994  6507 net.cpp:425] inception_5b/output <- inception_5b/5x5
I0403 18:02:09.933012  6507 net.cpp:425] inception_5b/output <- inception_5b/pool_proj
I0403 18:02:09.933030  6507 net.cpp:399] inception_5b/output -> inception_5b/output
I0403 18:02:09.933085  6507 net.cpp:141] Setting up inception_5b/output
I0403 18:02:09.933110  6507 net.cpp:148] Top shape: 24 1024 7 7 (1204224)
I0403 18:02:09.933127  6507 net.cpp:156] Memory required for data: 1345864224
I0403 18:02:09.933143  6507 layer_factory.hpp:77] Creating layer pool5/7x7_s1
I0403 18:02:09.933163  6507 net.cpp:91] Creating Layer pool5/7x7_s1
I0403 18:02:09.933182  6507 net.cpp:425] pool5/7x7_s1 <- inception_5b/output
I0403 18:02:09.933200  6507 net.cpp:399] pool5/7x7_s1 -> pool5/7x7_s1
I0403 18:02:09.933430  6507 net.cpp:141] Setting up pool5/7x7_s1
I0403 18:02:09.933459  6507 net.cpp:148] Top shape: 24 1024 1 1 (24576)
I0403 18:02:09.933475  6507 net.cpp:156] Memory required for data: 1345962528
I0403 18:02:09.933490  6507 layer_factory.hpp:77] Creating layer pool5/drop_7x7_s1
I0403 18:02:09.933508  6507 net.cpp:91] Creating Layer pool5/drop_7x7_s1
I0403 18:02:09.933526  6507 net.cpp:425] pool5/drop_7x7_s1 <- pool5/7x7_s1
I0403 18:02:09.933544  6507 net.cpp:386] pool5/drop_7x7_s1 -> pool5/7x7_s1 (in-place)
I0403 18:02:09.933598  6507 net.cpp:141] Setting up pool5/drop_7x7_s1
I0403 18:02:09.933622  6507 net.cpp:148] Top shape: 24 1024 1 1 (24576)
I0403 18:02:09.933639  6507 net.cpp:156] Memory required for data: 1346060832
I0403 18:02:09.933653  6507 layer_factory.hpp:77] Creating layer loss3/classifier_plantvillage
I0403 18:02:09.933676  6507 net.cpp:91] Creating Layer loss3/classifier_plantvillage
I0403 18:02:09.933694  6507 net.cpp:425] loss3/classifier_plantvillage <- pool5/7x7_s1
I0403 18:02:09.933714  6507 net.cpp:399] loss3/classifier_plantvillage -> loss3/classifier_plantvillage
I0403 18:02:09.934149  6507 net.cpp:141] Setting up loss3/classifier_plantvillage
I0403 18:02:09.934175  6507 net.cpp:148] Top shape: 24 38 (912)
I0403 18:02:09.934190  6507 net.cpp:156] Memory required for data: 1346064480
I0403 18:02:09.934209  6507 layer_factory.hpp:77] Creating layer loss3/classifier_plantvillage_loss3/classifier_plantvillage_0_split
I0403 18:02:09.934228  6507 net.cpp:91] Creating Layer loss3/classifier_plantvillage_loss3/classifier_plantvillage_0_split
I0403 18:02:09.934249  6507 net.cpp:425] loss3/classifier_plantvillage_loss3/classifier_plantvillage_0_split <- loss3/classifier_plantvillage
I0403 18:02:09.934274  6507 net.cpp:399] loss3/classifier_plantvillage_loss3/classifier_plantvillage_0_split -> loss3/classifier_plantvillage_loss3/classifier_plantvillage_0_split_0
I0403 18:02:09.934298  6507 net.cpp:399] loss3/classifier_plantvillage_loss3/classifier_plantvillage_0_split -> loss3/classifier_plantvillage_loss3/classifier_plantvillage_0_split_1
I0403 18:02:09.934320  6507 net.cpp:399] loss3/classifier_plantvillage_loss3/classifier_plantvillage_0_split -> loss3/classifier_plantvillage_loss3/classifier_plantvillage_0_split_2
I0403 18:02:09.934342  6507 net.cpp:399] loss3/classifier_plantvillage_loss3/classifier_plantvillage_0_split -> loss3/classifier_plantvillage_loss3/classifier_plantvillage_0_split_3
I0403 18:02:09.934453  6507 net.cpp:141] Setting up loss3/classifier_plantvillage_loss3/classifier_plantvillage_0_split
I0403 18:02:09.934478  6507 net.cpp:148] Top shape: 24 38 (912)
I0403 18:02:09.934495  6507 net.cpp:148] Top shape: 24 38 (912)
I0403 18:02:09.934514  6507 net.cpp:148] Top shape: 24 38 (912)
I0403 18:02:09.934530  6507 net.cpp:148] Top shape: 24 38 (912)
I0403 18:02:09.934545  6507 net.cpp:156] Memory required for data: 1346079072
I0403 18:02:09.934561  6507 layer_factory.hpp:77] Creating layer loss1/loss
I0403 18:02:09.934583  6507 net.cpp:91] Creating Layer loss1/loss
I0403 18:02:09.934602  6507 net.cpp:425] loss1/loss <- loss1/classifier_plantvillage_loss1/classifier_plantvillage_0_split_0
I0403 18:02:09.934636  6507 net.cpp:425] loss1/loss <- label_data_1_split_0
…
