…
I0403 18:32:53.064784  7104 net.cpp:313] The NetState phase (1) differed from the phase (0) specified by a rule in layer data
I0403 18:32:53.066004  7104 net.cpp:49] Initializing net from parameters: 
state {
  phase: TEST
}
layer {
  name: "data"
  type: "Data"
  top: "data"
  top: "label"
  include {
    phase: TEST
  }
  transform_param {
    mirror: false
    crop_size: 224
    mean_file: "/home/mohanty/data/final_dataset/lmdb/grayscale-40-60/mean.binaryproto"
  }
  data_param {
    source: "/home/mohanty/data/final_dataset/lmdb/grayscale-40-60/test_db"
    batch_size: 24
    backend: LMDB
  }
}
layer {
  name: "conv1/7x7_s2"
  type: "Convolution"
  bottom: "data"
  top: "conv1/7x7_s2"
  param {
    lr_mult: 1
    decay_mult: 1
  }
  param {
    lr_mult: 2
    decay_mult: 0
  }
  convolution_param {
    num_output: 64
    pad: 3
    kernel_size: 7
    stride: 2
    weight_filler {
      type: "xavier"
      std: 0.1
    }
    bias_filler {
      type: "constant"
      value: 0.2
    }
  }
}
layer {
  name: "conv1/relu_7x7"
  type: "ReLU"
  bottom: "conv1/7x7_s2"
  top: "conv1/7x7_s2"
}
layer {
  name: "pool1/3x3_s2"
  type: "Pooling"
  bottom: "conv1/7x7_s2"
  top: "pool1/3x3_s2"
  pooling_param {
    pool: MAX
    kernel_size: 3
    stride: 2
  }
}
layer {
  name: "pool1/norm1"
  type: "LRN"
  bottom: "pool1/3x3_s2"
  top: "pool1/norm1"
  lrn_param {
    local_size: 5
    alpha: 0.0001
    beta: 0.75
  }
}
layer {
  name: "conv2/3x3_reduce"
  type: "Convolution"
  bottom: "pool1/norm1"
  top: "conv2/3x3_reduce"
  param {
    lr_mult: 1
    decay_mult: 1
  }
  param {
    lr_mult: 2
    decay_mult: 0
  }
  convolution_param {
    num_output: 64
    kernel_size: 1
    weight_filler {
      type: "xavier"
      std: 0.1
    }
    bias_filler {
      type: "constant"
      value: 0.2
    }
  }
}
layer {
  name: "conv2/relu_3x3_reduce"
  type: "ReLU"
  bottom: "conv2/3x3_reduce"
  top: "conv2/3x3_reduce"
}
layer {
  name: "conv2/3x3"
  type: "Convolution"
  bottom: "conv2/3x3_reduce"
  top: "conv2/3x3"
  param {
    lr_mult: 1
    decay_mult: 1
  }
  param {
    lr_mult: 2
    decay_mult: 0
  }
  convolution_param {
    num_output: 192
    pad: 1
    kernel_size: 3
    weight_filler {
      type: "xavier"
      std: 0.03
    }
    bias_filler {
      type: "constant"
      value: 0.2
    }
  }
}
layer {
  name: "conv2/relu_3x3"
  type: "ReLU"
  bottom: "conv2/3x3"
  top: "conv2/3x3"
}
layer {
  name: "conv2/norm2"
  type: "LRN"
  bottom: "conv2/3x3"
  top: "conv2/norm2"
  lrn_param {
    local_size: 5
    alpha: 0.0001
    beta: 0.75
  }
}
layer {
  name: "pool2/3x3_s2"
  type: "Pooling"
  bottom: "conv2/norm2"
  top: "pool2/3x3_s2"
  pooling_param {
    pool: MAX
    kernel_size: 3
    stride: 2
  }
}
layer {
  name: "inception_3a/1x1"
  type: "Convolution"
  bottom: "pool2/3x3_s2"
  top: "inception_3a/1x1"
  param {
    lr_mult: 1
    decay_mult: 1
  }
  param {
    lr_mult: 2
    decay_mult: 0
  }
  convolution_param {
    num_output: 64
    kernel_size: 1
    weight_filler {
      type: "xavier"
      std: 0.03
    }
    bias_filler {
      type: "constant"
      value: 0.2
    }
  }
}
layer {
  name: "inception_3a/relu_1x1"
  type: "ReLU"
  bottom: "inception_3a/1x1"
  top: "inception_3a/1x1"
}
layer {
  name: "inception_3a/3x3_reduce"
  type: "Convolution"
  bottom: "pool2/3x3_s2"
  top: "inception_3a/3x3_reduce"
  param {
    lr_mult: 1
    decay_mult: 1
  }
  param {
    lr_mult: 2
    decay_mult: 0
  }
  convolution_param {
    num_output: 96
    kernel_size: 1
    weight_filler {
      type: "xavier"
      std: 0.09
    }
    bias_filler {
      type: "constant"
      value: 0.2
    }
  }
}
layer {
  name: "inception_3a/relu_3x3_reduce"
  type: "ReLU"
  bottom: "inception_3a/3x3_reduce"
  top: "inception_3a/3x3_reduce"
}
layer {
  name: "inception_3a/3x3"
  type: "Convolution"
  bottom: "inception_3a/3x3_reduce"
  top: "inception_3a/3x3"
  param {
    lr_mult: 1
    decay_mult: 1
  }
  param {
    lr_mult: 2
    decay_mult: 0
  }
  convolution_param {
    num_output: 128
    pad: 1
    kernel_size: 3
    weight_filler {
      type: "xavier"
      std: 0.03
    }
    bias_filler {
      type: "constant"
      value: 0.2
    }
  }
}
layer {
  name: "inception_3a/relu_3x3"
  type: "ReLU"
  bottom: "inception_3a/3x3"
  top: "inception_3a/3x3"
}
layer {
  name: "inception_3a/5x5_reduce"
  type: "Convolution"
  bottom: "pool2/3x3_s2"
  top: "inception_3a/5x5_reduce"
  param {
    lr_mult: 1
    decay_mult: 1
  }
  param {
    lr_mult: 2
    decay_mult: 0
  }
  convolution_param {
    num_output: 16
    kernel_size: 1
    weight_filler {
      type: "xavier"
      std: 0.2
    }
    bias_filler {
      type: "constant"
      value: 0.2
    }
  }
}
layer {
  name: "inception_3a/relu_5x5_reduce"
  type: "ReLU"
  bottom: "inception_3a/5x5_reduce"
  top: "inception_3a/5x5_reduce"
}
layer {
  name: "inception_3a/5x5"
  type: "Convolution"
  bottom: "inception_3a/5x5_reduce"
  top: "inception_3a/5x5"
  param {
    lr_mult: 1
    decay_mult: 1
  }
  param {
    lr_mult: 2
    decay_mult: 0
  }
  convolution_param {
    num_output: 32
    pad: 2
    kernel_size: 5
    weight_filler {
      type: "xavier"
      std: 0.03
    }
    bias_filler {
      type: "constant"
      value: 0.2
    }
  }
}
layer {
  name: "inception_3a/relu_5x5"
  type: "ReLU"
  bottom: "inception_3a/5x5"
  top: "inception_3a/5x5"
}
layer {
  name: "inception_3a/pool"
  type: "Pooling"
  bottom: "pool2/3x3_s2"
  top: "inception_3a/pool"
  pooling_param {
    pool: MAX
    kernel_size: 3
    stride: 1
    pad: 1
  }
}
layer {
  name: "inception_3a/pool_proj"
  type: "Convolution"
  bottom: "inception_3a/pool"
  top: "inception_3a/pool_proj"
  param {
    lr_mult: 1
    decay_mult: 1
  }
  param {
    lr_mult: 2
    decay_mult: 0
  }
  convolution_param {
    num_output: 32
    kernel_size: 1
    weight_filler {
      type: "xavier"
      std: 0.1
    }
    bias_filler {
      type: "constant"
      value: 0.2
    }
  }
}
layer {
  name: "inception_3a/relu_pool_proj"
  type: "ReLU"
  bottom: "inception_3a/pool_proj"
  top: "inception_3a/pool_proj"
}
layer {
  name: "inception_3a/output"
  type: "Concat"
  bottom: "inception_3a/1x1"
  bottom: "inception_3a/3x3"
  bottom: "inception_3a/5x5"
  bottom: "inception_3a/pool_proj"
  top: "inception_3a/output"
}
layer {
  name: "inception_3b/1x1"
  type: "Convolution"
  bottom: "inception_3a/output"
  top: "inception_3b/1x1"
  param {
    lr_mult: 1
    decay_mult: 1
  }
  param {
    lr_mult: 2
    decay_mult: 0
  }
  convolution_param {
    num_output: 128
    kernel_size: 1
    weight_filler {
      type: "xavier"
      std: 0.03
    }
    bias_filler {
      type: "constant"
      value: 0.2
    }
  }
}
layer {
  name: "inception_3b/relu_1x1"
  type: "ReLU"
  bottom: "inception_3b/1x1"
  top: "inception_3b/1x1"
}
layer {
  name: "inception_3b/3x3_reduce"
  type: "Convolution"
  bottom: "inception_3a/output"
  top: "inception_3b/3x3_reduce"
  param {
    lr_mult: 1
    decay_mult: 1
  }
  param {
    lr_mult: 2
    decay_mult: 0
  }
  convolution_param {
    num_output: 128
    kernel_size: 1
    weight_filler {
      type: "xavier"
      std: 0.09
    }
    bias_filler {
      type: "constant"
      value: 0.2
    }
  }
}
layer {
  name: "inception_3b/relu_3x3_reduce"
  type: "ReLU"
  bottom: "inception_3b/3x3_reduce"
  top: "inception_3b/3x3_reduce"
}
layer {
  name: "inception_3b/3x3"
  type: "Convolution"
  bottom: "inception_3b/3x3_reduce"
  top: "inception_3b/3x3"
  param {
    lr_mult: 1
    decay_mult: 1
  }
  param {
    lr_mult: 2
    decay_mult: 0
  }
  convolution_param {
    num_output: 192
    pad: 1
    kernel_size: 3
    weight_filler {
      type: "xavier"
      std: 0.03
    }
    bias_filler {
      type: "constant"
      value: 0.2
    }
  }
}
layer {
  name: "inception_3b/relu_3x3"
  type: "ReLU"
  bottom: "inception_3b/3x3"
  top: "inception_3b/3x3"
}
layer {
  name: "inception_3b/5x5_reduce"
  type: "Convolution"
  bottom: "inception_3a/output"
  top: "inception_3b/5x5_reduce"
  param {
    lr_mult: 1
    decay_mult: 1
  }
  param {
    lr_mult: 2
    decay_mult: 0
  }
  convolution_param {
    num_output: 32
    kernel_size: 1
    weight_filler {
      type: "xavier"
      std: 0.2
    }
    bias_filler {
      type: "constant"
      value: 0.2
    }
  }
}
layer {
  name: "inception_3b/relu_5x5_reduce"
  type: "ReLU"
  bottom: "inception_3b/5x5_reduce"
  top: "inception_3b/5x5_reduce"
}
layer {
  name: "inception_3b/5x5"
  type: "Convolution"
  bottom: "inception_3b/5x5_reduce"
  top: "inception_3b/5x5"
  param {
    lr_mult: 1
    decay_mult: 1
  }
  param {
    lr_mult: 2
    decay_mult: 0
  }
  convolution_param {
    num_output: 96
    pad: 2
    kernel_size: 5
    weight_filler {
      type: "xavier"
      std: 0.03
    }
    bias_filler {
      type: "constant"
      value: 0.2
    }
  }
}
layer {
  name: "inception_3b/relu_5x5"
  type: "ReLU"
  bottom: "inception_3b/5x5"
  top: "inception_3b/5x5"
}
layer {
  name: "inception_3b/pool"
  type: "Pooling"
  bottom: "inception_3a/output"
  top: "inception_3b/pool"
  pooling_param {
    pool: MAX
    kernel_size: 3
    stride: 1
    pad: 1
  }
}
layer {
  name: "inception_3b/pool_proj"
  type: "Convolution"
  bottom: "inception_3b/pool"
  top: "inception_3b/pool_proj"
  param {
    lr_mult: 1
    decay_mult: 1
  }
  param {
    lr_mult: 2
    decay_mult: 0
  }
  convolution_param {
    num_output: 64
    kernel_size: 1
    weight_filler {
      type: "xavier"
      std: 0.1
    }
    bias_filler {
      type: "constant"
      value: 0.2
    }
  }
}
layer {
  name: "inception_3b/relu_pool_proj"
  type: "ReLU"
  bottom: "inception_3b/pool_proj"
  top: "inception_3b/pool_proj"
}
layer {
  name: "inception_3b/output"
  type: "Concat"
  bottom: "inception_3b/1x1"
  bottom: "inception_3b/3x3"
  bottom: "inception_3b/5x5"
  bottom: "inception_3b/pool_proj"
  top: "inception_3b/output"
}
layer {
  name: "pool3/3x3_s2"
  type: "Pooling"
  bottom: "inception_3b/output"
  top: "pool3/3x3_s2"
  pooling_param {
    pool: MAX
    kernel_size: 3
    stride: 2
  }
}
layer {
  name: "inception_4a/1x1"
  type: "Convolution"
  bottom: "pool3/3x3_s2"
  top: "inception_4a/1x1"
  param {
    lr_mult: 1
    decay_mult: 1
  }
  param {
    lr_mult: 2
    decay_mult: 0
  }
  convolution_param {
    num_output: 192
    kernel_size: 1
    weight_filler {
      type: "xavier"
      std: 0.03
    }
    bias_filler {
      type: "constant"
      value: 0.2
    }
  }
}
layer {
  name: "inception_4a/relu_1x1"
  type: "ReLU"
  bottom: "inception_4a/1x1"
  top: "inception_4a/1x1"
}
layer {
  name: "inception_4a/3x3_reduce"
  type: "Convolution"
  bottom: "pool3/3x3_s2"
  top: "inception_4a/3x3_reduce"
  param {
    lr_mult: 1
    decay_mult: 1
  }
  param {
    lr_mult: 2
    decay_mult: 0
  }
  convolution_param {
    num_output: 96
    kernel_size: 1
    weight_filler {
      type: "xavier"
      std: 0.09
    }
    bias_filler {
      type: "constant"
      value: 0.2
    }
  }
}
layer {
  name: "inception_4a/relu_3x3_reduce"
  type: "ReLU"
  bottom: "inception_4a/3x3_reduce"
  top: "inception_4a/3x3_reduce"
}
layer {
  name: "inception_4a/3x3"
  type: "Convolution"
  bottom: "inception_4a/3x3_reduce"
  top: "inception_4a/3x3"
  param {
    lr_mult: 1
    decay_mult: 1
  }
  param {
    lr_mult: 2
    decay_mult: 0
  }
  convolution_param {
    num_output: 208
    pad: 1
    kernel_size: 3
    weight_filler {
      type: "xavier"
      std: 0.03
    }
    bias_filler {
      type: "constant"
      value: 0.2
    }
  }
}
layer {
  name: "inception_4a/relu_3x3"
  type: "ReLU"
  bottom: "inception_4a/3x3"
  top: "inception_4a/3x3"
}
layer {
  name: "inception_4a/5x5_reduce"
  type: "Convolution"
  bottom: "pool3/3x3_s2"
  top: "inception_4a/5x5_reduce"
  param {
    lr_mult: 1
    decay_mult: 1
  }
  param {
    lr_mult: 2
    decay_mult: 0
  }
  convolution_param {
    num_output: 16
    kernel_size: 1
    weight_filler {
      type: "xavier"
      std: 0.2
    }
    bias_filler {
      type: "constant"
      value: 0.2
    }
  }
}
layer {
  name: "inception_4a/relu_5x5_reduce"
  type: "ReLU"
  bottom: "inception_4a/5x5_reduce"
  top: "inception_4a/5x5_reduce"
}
layer {
  name: "inception_4a/5x5"
  type: "Convolution"
  bottom: "inception_4a/5x5_reduce"
  top: "inception_4a/5x5"
  param {
    lr_mult: 1
    decay_mult: 1
  }
  param {
    lr_mult: 2
    decay_mult: 0
  }
  convolution_param {
    num_output: 48
    pad: 2
    kernel_size: 5
    weight_filler {
      type: "xavier"
      std: 0.03
    }
    bias_filler {
      type: "constant"
      value: 0.2
    }
  }
}
layer {
  name: "inception_4a/relu_5x5"
  type: "ReLU"
  bottom: "inception_4a/5x5"
  top: "inception_4a/5x5"
}
layer {
  name: "inception_4a/pool"
  type: "Pooling"
  bottom: "pool3/3x3_s2"
  top: "inception_4a/pool"
  pooling_param {
    pool: MAX
    kernel_size: 3
    stride: 1
    pad: 1
  }
}
layer {
  name: "inception_4a/pool_proj"
  type: "Convolution"
  bottom: "inception_4a/pool"
  top: "inception_4a/pool_proj"
  param {
    lr_mult: 1
    decay_mult: 1
  }
  param {
    lr_mult: 2
    decay_mult: 0
  }
  convolution_param {
    num_output: 64
    kernel_size: 1
    weight_filler {
      type: "xavier"
      std: 0.1
    }
    bias_filler {
      type: "constant"
      value: 0.2
    }
  }
}
layer {
  name: "inception_4a/relu_pool_proj"
  type: "ReLU"
  bottom: "inception_4a/pool_proj"
  top: "inception_4a/pool_proj"
}
layer {
  name: "inception_4a/output"
  type: "Concat"
  bottom: "inception_4a/1x1"
  bottom: "inception_4a/3x3"
  bottom: "inception_4a/5x5"
  bottom: "inception_4a/pool_proj"
  top: "inception_4a/output"
}
layer {
  name: "loss1/ave_pool"
  type: "Pooling"
  bottom: "inception_4a/output"
  top: "loss1/ave_pool"
  pooling_param {
    pool: AVE
    kernel_size: 5
    stride: 3
  }
}
layer {
  name: "loss1/conv"
  type: "Convolution"
  bottom: "loss1/ave_pool"
  top: "loss1/conv"
  param {
    lr_mult: 1
    decay_mult: 1
  }
  param {
    lr_mult: 2
    decay_mult: 0
  }
  convolution_param {
    num_output: 128
    kernel_size: 1
    weight_filler {
      type: "xavier"
      std: 0.08
    }
    bias_filler {
      type: "constant"
      value: 0.2
    }
  }
}
layer {
  name: "loss1/relu_conv"
  type: "ReLU"
  bottom: "loss1/conv"
  top: "loss1/conv"
}
layer {
  name: "loss1/fc"
  type: "InnerProduct"
  bottom: "loss1/conv"
  top: "loss1/fc"
  param {
    lr_mult: 1
    decay_mult: 1
  }
  param {
    lr_mult: 2
    decay_mult: 0
  }
  inner_product_param {
    num_output: 1024
    weight_filler {
      type: "xavier"
      std: 0.02
    }
    bias_filler {
      type: "constant"
      value: 0.2
    }
  }
}
layer {
  name: "loss1/relu_fc"
  type: "ReLU"
  bottom: "loss1/fc"
  top: "loss1/fc"
}
layer {
  name: "loss1/drop_fc"
  type: "Dropout"
  bottom: "loss1/fc"
  top: "loss1/fc"
  dropout_param {
    dropout_ratio: 0.7
  }
}
layer {
  name: "loss1/classifier_plantvillage"
  type: "InnerProduct"
  bottom: "loss1/fc"
  top: "loss1/classifier_plantvillage"
  param {
    lr_mult: 1
    decay_mult: 1
  }
  param {
    lr_mult: 2
    decay_mult: 0
  }
  inner_product_param {
    num_output: 38
    weight_filler {
      type: "xavier"
      std: 0.0009765625
    }
    bias_filler {
      type: "constant"
      value: 0
    }
  }
}
layer {
  name: "inception_4b/1x1"
  type: "Convolution"
  bottom: "inception_4a/output"
  top: "inception_4b/1x1"
  param {
    lr_mult: 1
    decay_mult: 1
  }
  param {
    lr_mult: 2
    decay_mult: 0
  }
  convolution_param {
    num_output: 160
    kernel_size: 1
    weight_filler {
      type: "xavier"
      std: 0.03
    }
    bias_filler {
      type: "constant"
      value: 0.2
    }
  }
}
layer {
  name: "inception_4b/relu_1x1"
  type: "ReLU"
  bottom: "inception_4b/1x1"
  top: "inception_4b/1x1"
}
layer {
  name: "inception_4b/3x3_reduce"
  type: "Convolution"
  bottom: "inception_4a/output"
  top: "inception_4b/3x3_reduce"
  param {
    lr_mult: 1
    decay_mult: 1
  }
  param {
    lr_mult: 2
    decay_mult: 0
  }
  convolution_param {
    num_output: 112
    kernel_size: 1
    weight_filler {
      type: "xavier"
      std: 0.09
    }
    bias_filler {
      type: "constant"
      value: 0.2
    }
  }
}
layer {
  name: "inception_4b/relu_3x3_reduce"
  type: "ReLU"
  bottom: "inception_4b/3x3_reduce"
  top: "inception_4b/3x3_reduce"
}
layer {
  name: "inception_4b/3x3"
  type: "Convolution"
  bottom: "inception_4b/3x3_reduce"
  top: "inception_4b/3x3"
  param {
    lr_mult: 1
    decay_mult: 1
  }
  param {
    lr_mult: 2
    decay_mult: 0
  }
  convolution_param {
    num_output: 224
    pad: 1
    kernel_size: 3
    weight_filler {
      type: "xavier"
      std: 0.03
    }
    bias_filler {
      type: "constant"
      value: 0.2
    }
  }
}
layer {
  name: "inception_4b/relu_3x3"
  type: "ReLU"
  bottom: "inception_4b/3x3"
  top: "inception_4b/3x3"
}
layer {
  name: "inception_4b/5x5_reduce"
  type: "Convolution"
  bottom: "inception_4a/output"
  top: "inception_4b/5x5_reduce"
  param {
    lr_mult: 1
    decay_mult: 1
  }
  param {
    lr_mult: 2
    decay_mult: 0
  }
  convolution_param {
    num_output: 24
    kernel_size: 1
    weight_filler {
      type: "xavier"
      std: 0.2
    }
    bias_filler {
      type: "constant"
      value: 0.2
    }
  }
}
layer {
  name: "inception_4b/relu_5x5_reduce"
  type: "ReLU"
  bottom: "inception_4b/5x5_reduce"
  top: "inception_4b/5x5_reduce"
}
layer {
  name: "inception_4b/5x5"
  type: "Convolution"
  bottom: "inception_4b/5x5_reduce"
  top: "inception_4b/5x5"
  param {
    lr_mult: 1
    decay_mult: 1
  }
  param {
    lr_mult: 2
    decay_mult: 0
  }
  convolution_param {
    num_output: 64
    pad: 2
    kernel_size: 5
    weight_filler {
      type: "xavier"
      std: 0.03
    }
    bias_filler {
      type: "constant"
      value: 0.2
    }
  }
}
layer {
  name: "inception_4b/relu_5x5"
  type: "ReLU"
  bottom: "inception_4b/5x5"
  top: "inception_4b/5x5"
}
layer {
  name: "inception_4b/pool"
  type: "Pooling"
  bottom: "inception_4a/output"
  top: "inception_4b/pool"
  pooling_param {
    pool: MAX
    kernel_size: 3
    stride: 1
    pad: 1
  }
}
layer {
  name: "inception_4b/pool_proj"
  type: "Convolution"
  bottom: "inception_4b/pool"
  top: "inception_4b/pool_proj"
  param {
    lr_mult: 1
    decay_mult: 1
  }
  param {
    lr_mult: 2
    decay_mult: 0
  }
  convolution_param {
    num_output: 64
    kernel_size: 1
    weight_filler {
      type: "xavier"
      std: 0.1
    }
    bias_filler {
      type: "constant"
      value: 0.2
    }
  }
}
layer {
  name: "inception_4b/relu_pool_proj"
  type: "ReLU"
  bottom: "inception_4b/pool_proj"
  top: "inception_4b/pool_proj"
}
layer {
  name: "inception_4b/output"
  type: "Concat"
  bottom: "inception_4b/1x1"
  bottom: "inception_4b/3x3"
  bottom: "inception_4b/5x5"
  bottom: "inception_4b/pool_proj"
  top: "inception_4b/output"
}
layer {
  name: "inception_4c/1x1"
  type: "Convolution"
  bottom: "inception_4b/output"
  top: "inception_4c/1x1"
  param {
    lr_mult: 1
    decay_mult: 1
  }
  param {
    lr_mult: 2
    decay_mult: 0
  }
  convolution_param {
    num_output: 128
    kernel_size: 1
    weight_filler {
      type: "xavier"
      std: 0.03
    }
    bias_filler {
      type: "constant"
      value: 0.2
    }
  }
}
layer {
  name: "inception_4c/relu_1x1"
  type: "ReLU"
  bottom: "inception_4c/1x1"
  top: "inception_4c/1x1"
}
layer {
  name: "inception_4c/3x3_reduce"
  type: "Convolution"
  bottom: "inception_4b/output"
  top: "inception_4c/3x3_reduce"
  param {
    lr_mult: 1
    decay_mult: 1
  }
  param {
    lr_mult: 2
    decay_mult: 0
  }
  convolution_param {
    num_output: 128
    kernel_size: 1
    weight_filler {
      type: "xavier"
      std: 0.09
    }
    bias_filler {
      type: "constant"
      value: 0.2
    }
  }
}
layer {
  name: "inception_4c/relu_3x3_reduce"
  type: "ReLU"
  bottom: "inception_4c/3x3_reduce"
  top: "inception_4c/3x3_reduce"
}
layer {
  name: "inception_4c/3x3"
  type: "Convolution"
  bottom: "inception_4c/3x3_reduce"
  top: "inception_4c/3x3"
  param {
    lr_mult: 1
    decay_mult: 1
  }
  param {
    lr_mult: 2
    decay_mult: 0
  }
  convolution_param {
    num_output: 256
    pad: 1
    kernel_size: 3
    weight_filler {
      type: "xavier"
      std: 0.03
    }
    bias_filler {
      type: "constant"
      value: 0.2
    }
  }
}
layer {
  name: "inception_4c/relu_3x3"
  type: "ReLU"
  bottom: "inception_4c/3x3"
  top: "inception_4c/3x3"
}
layer {
  name: "inception_4c/5x5_reduce"
  type: "Convolution"
  bottom: "inception_4b/output"
  top: "inception_4c/5x5_reduce"
  param {
    lr_mult: 1
    decay_mult: 1
  }
  param {
    lr_mult: 2
    decay_mult: 0
  }
  convolution_param {
    num_output: 24
    kernel_size: 1
    weight_filler {
      type: "xavier"
      std: 0.2
    }
    bias_filler {
      type: "constant"
      value: 0.2
    }
  }
}
layer {
  name: "inception_4c/relu_5x5_reduce"
  type: "ReLU"
  bottom: "inception_4c/5x5_reduce"
  top: "inception_4c/5x5_reduce"
}
layer {
  name: "inception_4c/5x5"
  type: "Convolution"
  bottom: "inception_4c/5x5_reduce"
  top: "inception_4c/5x5"
  param {
    lr_mult: 1
    decay_mult: 1
  }
  param {
    lr_mult: 2
    decay_mult: 0
  }
  convolution_param {
    num_output: 64
    pad: 2
    kernel_size: 5
    weight_filler {
      type: "xavier"
      std: 0.03
    }
    bias_filler {
      type: "constant"
      value: 0.2
    }
  }
}
layer {
  name: "inception_4c/relu_5x5"
  type: "ReLU"
  bottom: "inception_4c/5x5"
  top: "inception_4c/5x5"
}
layer {
  name: "inception_4c/pool"
  type: "Pooling"
  bottom: "inception_4b/output"
  top: "inception_4c/pool"
  pooling_param {
    pool: MAX
    kernel_size: 3
    stride: 1
    pad: 1
  }
}
layer {
  name: "inception_4c/pool_proj"
  type: "Convolution"
  bottom: "inception_4c/pool"
  top: "inception_4c/pool_proj"
  param {
    lr_mult: 1
    decay_mult: 1
  }
  param {
    lr_mult: 2
    decay_mult: 0
  }
  convolution_param {
    num_output: 64
    kernel_size: 1
    weight_filler {
      type: "xavier"
      std: 0.1
    }
    bias_filler {
      type: "constant"
      value: 0.2
    }
  }
}
layer {
  name: "inception_4c/relu_pool_proj"
  type: "ReLU"
  bottom: "inception_4c/pool_proj"
  top: "inception_4c/pool_proj"
}
layer {
  name: "inception_4c/output"
  type: "Concat"
  bottom: "inception_4c/1x1"
  bottom: "inception_4c/3x3"
  bottom: "inception_4c/5x5"
  bottom: "inception_4c/pool_proj"
  top: "inception_4c/output"
}
layer {
  name: "inception_4d/1x1"
  type: "Convolution"
  bottom: "inception_4c/output"
  top: "inception_4d/1x1"
  param {
    lr_mult: 1
    decay_mult: 1
  }
  param {
    lr_mult: 2
    decay_mult: 0
  }
  convolution_param {
    num_output: 112
    kernel_size: 1
    weight_filler {
      type: "xavier"
      std: 0.03
    }
    bias_filler {
      type: "constant"
      value: 0.2
    }
  }
}
layer {
  name: "inception_4d/relu_1x1"
  type: "ReLU"
  bottom: "inception_4d/1x1"
  top: "inception_4d/1x1"
}
layer {
  name: "inception_4d/3x3_reduce"
  type: "Convolution"
  bottom: "inception_4c/output"
  top: "inception_4d/3x3_reduce"
  param {
    lr_mult: 1
    decay_mult: 1
  }
  param {
    lr_mult: 2
    decay_mult: 0
  }
  convolution_param {
    num_output: 144
    kernel_size: 1
    weight_filler {
      type: "xavier"
      std: 0.09
    }
    bias_filler {
      type: "constant"
      value: 0.2
    }
  }
}
layer {
  name: "inception_4d/relu_3x3_reduce"
  type: "ReLU"
  bottom: "inception_4d/3x3_reduce"
  top: "inception_4d/3x3_reduce"
}
layer {
  name: "inception_4d/3x3"
  type: "Convolution"
  bottom: "inception_4d/3x3_reduce"
  top: "inception_4d/3x3"
  param {
    lr_mult: 1
    decay_mult: 1
  }
  param {
    lr_mult: 2
    decay_mult: 0
  }
  convolution_param {
    num_output: 288
    pad: 1
    kernel_size: 3
    weight_filler {
      type: "xavier"
      std: 0.03
    }
    bias_filler {
      type: "constant"
      value: 0.2
    }
  }
}
layer {
  name: "inception_4d/relu_3x3"
  type: "ReLU"
  bottom: "inception_4d/3x3"
  top: "inception_4d/3x3"
}
layer {
  name: "inception_4d/5x5_reduce"
  type: "Convolution"
  bottom: "inception_4c/output"
  top: "inception_4d/5x5_reduce"
  param {
    lr_mult: 1
    decay_mult: 1
  }
  param {
    lr_mult: 2
    decay_mult: 0
  }
  convolution_param {
    num_output: 32
    kernel_size: 1
    weight_filler {
      type: "xavier"
      std: 0.2
    }
    bias_filler {
      type: "constant"
      value: 0.2
    }
  }
}
layer {
  name: "inception_4d/relu_5x5_reduce"
  type: "ReLU"
  bottom: "inception_4d/5x5_reduce"
  top: "inception_4d/5x5_reduce"
}
layer {
  name: "inception_4d/5x5"
  type: "Convolution"
  bottom: "inception_4d/5x5_reduce"
  top: "inception_4d/5x5"
  param {
    lr_mult: 1
    decay_mult: 1
  }
  param {
    lr_mult: 2
    decay_mult: 0
  }
  convolution_param {
    num_output: 64
    pad: 2
    kernel_size: 5
    weight_filler {
      type: "xavier"
      std: 0.03
    }
    bias_filler {
      type: "constant"
      value: 0.2
    }
  }
}
layer {
  name: "inception_4d/relu_5x5"
  type: "ReLU"
  bottom: "inception_4d/5x5"
  top: "inception_4d/5x5"
}
layer {
  name: "inception_4d/pool"
  type: "Pooling"
  bottom: "inception_4c/output"
  top: "inception_4d/pool"
  pooling_param {
    pool: MAX
    kernel_size: 3
    stride: 1
    pad: 1
  }
}
layer {
  name: "inception_4d/pool_proj"
  type: "Convolution"
  bottom: "inception_4d/pool"
  top: "inception_4d/pool_proj"
  param {
    lr_mult: 1
    decay_mult: 1
  }
  param {
    lr_mult: 2
    decay_mult: 0
  }
  convolution_param {
    num_output: 64
    kernel_size: 1
    weight_filler {
      type: "xavier"
      std: 0.1
    }
    bias_filler {
      type: "constant"
      value: 0.2
    }
  }
}
layer {
  name: "inception_4d/relu_pool_proj"
  type: "ReLU"
  bottom: "inception_4d/pool_proj"
  top: "inception_4d/pool_proj"
}
layer {
  name: "inception_4d/output"
  type: "Concat"
  bottom: "inception_4d/1x1"
  bottom: "inception_4d/3x3"
  bottom: "inception_4d/5x5"
  bottom: "inception_4d/pool_proj"
  top: "inception_4d/output"
}
layer {
  name: "loss2/ave_pool"
  type: "Pooling"
  bottom: "inception_4d/output"
  top: "loss2/ave_pool"
  pooling_param {
    pool: AVE
    kernel_size: 5
    stride: 3
  }
}
layer {
  name: "loss2/conv"
  type: "Convolution"
  bottom: "loss2/ave_pool"
  top: "loss2/conv"
  param {
    lr_mult: 1
    decay_mult: 1
  }
  param {
    lr_mult: 2
    decay_mult: 0
  }
  convolution_param {
    num_output: 128
    kernel_size: 1
    weight_filler {
      type: "xavier"
      std: 0.08
    }
    bias_filler {
      type: "constant"
      value: 0.2
    }
  }
}
layer {
  name: "loss2/relu_conv"
  type: "ReLU"
  bottom: "loss2/conv"
  top: "loss2/conv"
}
layer {
  name: "loss2/fc"
  type: "InnerProduct"
  bottom: "loss2/conv"
  top: "loss2/fc"
  param {
    lr_mult: 1
    decay_mult: 1
  }
  param {
    lr_mult: 2
    decay_mult: 0
  }
  inner_product_param {
    num_output: 1024
    weight_filler {
      type: "xavier"
      std: 0.02
    }
    bias_filler {
      type: "constant"
      value: 0.2
    }
  }
}
layer {
  name: "loss2/relu_fc"
  type: "ReLU"
  bottom: "loss2/fc"
  top: "loss2/fc"
}
layer {
  name: "loss2/drop_fc"
  type: "Dropout"
  bottom: "loss2/fc"
  top: "loss2/fc"
  dropout_param {
    dropout_ratio: 0.7
  }
}
layer {
  name: "loss2/classifier_plantvillage"
  type: "InnerProduct"
  bottom: "loss2/fc"
  top: "loss2/classifier_plantvillage"
  param {
    lr_mult: 1
    decay_mult: 1
  }
  param {
    lr_mult: 2
    decay_mult: 0
  }
  inner_product_param {
    num_output: 38
    weight_filler {
      type: "xavier"
      std: 0.0009765625
    }
    bias_filler {
      type: "constant"
      value: 0
    }
  }
}
layer {
  name: "inception_4e/1x1"
  type: "Convolution"
  bottom: "inception_4d/output"
  top: "inception_4e/1x1"
  param {
    lr_mult: 1
    decay_mult: 1
  }
  param {
    lr_mult: 2
    decay_mult: 0
  }
  convolution_param {
    num_output: 256
    kernel_size: 1
    weight_filler {
      type: "xavier"
      std: 0.03
    }
    bias_filler {
      type: "constant"
      value: 0.2
    }
  }
}
layer {
  name: "inception_4e/relu_1x1"
  type: "ReLU"
  bottom: "inception_4e/1x1"
  top: "inception_4e/1x1"
}
layer {
  name: "inception_4e/3x3_reduce"
  type: "Convolution"
  bottom: "inception_4d/output"
  top: "inception_4e/3x3_reduce"
  param {
    lr_mult: 1
    decay_mult: 1
  }
  param {
    lr_mult: 2
    decay_mult: 0
  }
  convolution_param {
    num_output: 160
    kernel_size: 1
    weight_filler {
      type: "xavier"
      std: 0.09
    }
    bias_filler {
      type: "constant"
      value: 0.2
    }
  }
}
layer {
  name: "inception_4e/relu_3x3_reduce"
  type: "ReLU"
  bottom: "inception_4e/3x3_reduce"
  top: "inception_4e/3x3_reduce"
}
layer {
  name: "inception_4e/3x3"
  type: "Convolution"
  bottom: "inception_4e/3x3_reduce"
  top: "inception_4e/3x3"
  param {
    lr_mult: 1
    decay_mult: 1
  }
  param {
    lr_mult: 2
    decay_mult: 0
  }
  convolution_param {
    num_output: 320
    pad: 1
    kernel_size: 3
    weight_filler {
      type: "xavier"
      std: 0.03
    }
    bias_filler {
      type: "constant"
      value: 0.2
    }
  }
}
layer {
  name: "inception_4e/relu_3x3"
  type: "ReLU"
  bottom: "inception_4e/3x3"
  top: "inception_4e/3x3"
}
layer {
  name: "inception_4e/5x5_reduce"
  type: "Convolution"
  bottom: "inception_4d/output"
  top: "inception_4e/5x5_reduce"
  param {
    lr_mult: 1
    decay_mult: 1
  }
  param {
    lr_mult: 2
    decay_mult: 0
  }
  convolution_param {
    num_output: 32
    kernel_size: 1
    weight_filler {
      type: "xavier"
      std: 0.2
    }
    bias_filler {
      type: "constant"
      value: 0.2
    }
  }
}
layer {
  name: "inception_4e/relu_5x5_reduce"
  type: "ReLU"
  bottom: "inception_4e/5x5_reduce"
  top: "inception_4e/5x5_reduce"
}
layer {
  name: "inception_4e/5x5"
  type: "Convolution"
  bottom: "inception_4e/5x5_reduce"
  top: "inception_4e/
I0403 18:32:53.067724  7104 layer_factory.hpp:77] Creating layer data
I0403 18:32:53.068346  7104 net.cpp:91] Creating Layer data
I0403 18:32:53.068380  7104 net.cpp:399] data -> data
I0403 18:32:53.068435  7104 net.cpp:399] data -> label
I0403 18:32:53.068475  7104 data_transformer.cpp:25] Loading mean file from: /home/mohanty/data/final_dataset/lmdb/grayscale-40-60/mean.binaryproto
I0403 18:32:53.069532  7107 db_lmdb.cpp:38] Opened lmdb /home/mohanty/data/final_dataset/lmdb/grayscale-40-60/test_db
I0403 18:32:53.082294  7104 data_layer.cpp:41] output data size: 24,3,224,224
I0403 18:32:53.110677  7104 net.cpp:141] Setting up data
I0403 18:32:53.110741  7104 net.cpp:148] Top shape: 24 3 224 224 (3612672)
I0403 18:32:53.110765  7104 net.cpp:148] Top shape: 24 (24)
I0403 18:32:53.110782  7104 net.cpp:156] Memory required for data: 14450784
I0403 18:32:53.110812  7104 layer_factory.hpp:77] Creating layer label_data_1_split
I0403 18:32:53.110839  7104 net.cpp:91] Creating Layer label_data_1_split
I0403 18:32:53.110858  7104 net.cpp:425] label_data_1_split <- label
I0403 18:32:53.110893  7104 net.cpp:399] label_data_1_split -> label_data_1_split_0
I0403 18:32:53.110921  7104 net.cpp:399] label_data_1_split -> label_data_1_split_1
I0403 18:32:53.110944  7104 net.cpp:399] label_data_1_split -> label_data_1_split_2
I0403 18:32:53.110967  7104 net.cpp:399] label_data_1_split -> label_data_1_split_3
I0403 18:32:53.110991  7104 net.cpp:399] label_data_1_split -> label_data_1_split_4
I0403 18:32:53.111014  7104 net.cpp:399] label_data_1_split -> label_data_1_split_5
I0403 18:32:53.111035  7104 net.cpp:399] label_data_1_split -> label_data_1_split_6
I0403 18:32:53.111058  7104 net.cpp:399] label_data_1_split -> label_data_1_split_7
I0403 18:32:53.111079  7104 net.cpp:399] label_data_1_split -> label_data_1_split_8
I0403 18:32:53.111102  7104 net.cpp:399] label_data_1_split -> label_data_1_split_9
I0403 18:32:53.111223  7104 net.cpp:141] Setting up label_data_1_split
I0403 18:32:53.111249  7104 net.cpp:148] Top shape: 24 (24)
I0403 18:32:53.111268  7104 net.cpp:148] Top shape: 24 (24)
I0403 18:32:53.111290  7104 net.cpp:148] Top shape: 24 (24)
I0403 18:32:53.111309  7104 net.cpp:148] Top shape: 24 (24)
I0403 18:32:53.111325  7104 net.cpp:148] Top shape: 24 (24)
I0403 18:32:53.111345  7104 net.cpp:148] Top shape: 24 (24)
I0403 18:32:53.111361  7104 net.cpp:148] Top shape: 24 (24)
I0403 18:32:53.111377  7104 net.cpp:148] Top shape: 24 (24)
I0403 18:32:53.111393  7104 net.cpp:148] Top shape: 24 (24)
I0403 18:32:53.111412  7104 net.cpp:148] Top shape: 24 (24)
I0403 18:32:53.111446  7104 net.cpp:156] Memory required for data: 14451744
I0403 18:32:53.111464  7104 layer_factory.hpp:77] Creating layer conv1/7x7_s2
I0403 18:32:53.111496  7104 net.cpp:91] Creating Layer conv1/7x7_s2
I0403 18:32:53.111515  7104 net.cpp:425] conv1/7x7_s2 <- data
I0403 18:32:53.111534  7104 net.cpp:399] conv1/7x7_s2 -> conv1/7x7_s2
I0403 18:32:53.255379  7104 net.cpp:141] Setting up conv1/7x7_s2
I0403 18:32:53.255488  7104 net.cpp:148] Top shape: 24 64 112 112 (19267584)
I0403 18:32:53.255506  7104 net.cpp:156] Memory required for data: 91522080
I0403 18:32:53.255538  7104 layer_factory.hpp:77] Creating layer conv1/relu_7x7
I0403 18:32:53.255568  7104 net.cpp:91] Creating Layer conv1/relu_7x7
I0403 18:32:53.255589  7104 net.cpp:425] conv1/relu_7x7 <- conv1/7x7_s2
I0403 18:32:53.255609  7104 net.cpp:386] conv1/relu_7x7 -> conv1/7x7_s2 (in-place)
I0403 18:32:53.255877  7104 net.cpp:141] Setting up conv1/relu_7x7
I0403 18:32:53.255905  7104 net.cpp:148] Top shape: 24 64 112 112 (19267584)
I0403 18:32:53.255921  7104 net.cpp:156] Memory required for data: 168592416
I0403 18:32:53.255938  7104 layer_factory.hpp:77] Creating layer pool1/3x3_s2
I0403 18:32:53.255962  7104 net.cpp:91] Creating Layer pool1/3x3_s2
I0403 18:32:53.255982  7104 net.cpp:425] pool1/3x3_s2 <- conv1/7x7_s2
I0403 18:32:53.256001  7104 net.cpp:399] pool1/3x3_s2 -> pool1/3x3_s2
I0403 18:32:53.256079  7104 net.cpp:141] Setting up pool1/3x3_s2
I0403 18:32:53.256104  7104 net.cpp:148] Top shape: 24 64 56 56 (4816896)
I0403 18:32:53.256120  7104 net.cpp:156] Memory required for data: 187860000
I0403 18:32:53.256135  7104 layer_factory.hpp:77] Creating layer pool1/norm1
I0403 18:32:53.256160  7104 net.cpp:91] Creating Layer pool1/norm1
I0403 18:32:53.256178  7104 net.cpp:425] pool1/norm1 <- pool1/3x3_s2
I0403 18:32:53.256197  7104 net.cpp:399] pool1/norm1 -> pool1/norm1
I0403 18:32:53.256520  7104 net.cpp:141] Setting up pool1/norm1
I0403 18:32:53.256552  7104 net.cpp:148] Top shape: 24 64 56 56 (4816896)
I0403 18:32:53.256570  7104 net.cpp:156] Memory required for data: 207127584
I0403 18:32:53.256588  7104 layer_factory.hpp:77] Creating layer conv2/3x3_reduce
I0403 18:32:53.256621  7104 net.cpp:91] Creating Layer conv2/3x3_reduce
I0403 18:32:53.256642  7104 net.cpp:425] conv2/3x3_reduce <- pool1/norm1
I0403 18:32:53.256669  7104 net.cpp:399] conv2/3x3_reduce -> conv2/3x3_reduce
I0403 18:32:53.258152  7104 net.cpp:141] Setting up conv2/3x3_reduce
I0403 18:32:53.258185  7104 net.cpp:148] Top shape: 24 64 56 56 (4816896)
I0403 18:32:53.258203  7104 net.cpp:156] Memory required for data: 226395168
I0403 18:32:53.258229  7104 layer_factory.hpp:77] Creating layer conv2/relu_3x3_reduce
I0403 18:32:53.258252  7104 net.cpp:91] Creating Layer conv2/relu_3x3_reduce
I0403 18:32:53.258276  7104 net.cpp:425] conv2/relu_3x3_reduce <- conv2/3x3_reduce
I0403 18:32:53.258299  7104 net.cpp:386] conv2/relu_3x3_reduce -> conv2/3x3_reduce (in-place)
I0403 18:32:53.258590  7104 net.cpp:141] Setting up conv2/relu_3x3_reduce
I0403 18:32:53.258621  7104 net.cpp:148] Top shape: 24 64 56 56 (4816896)
I0403 18:32:53.258640  7104 net.cpp:156] Memory required for data: 245662752
I0403 18:32:53.258656  7104 layer_factory.hpp:77] Creating layer conv2/3x3
I0403 18:32:53.258687  7104 net.cpp:91] Creating Layer conv2/3x3
I0403 18:32:53.258708  7104 net.cpp:425] conv2/3x3 <- conv2/3x3_reduce
I0403 18:32:53.258728  7104 net.cpp:399] conv2/3x3 -> conv2/3x3
I0403 18:32:53.261157  7104 net.cpp:141] Setting up conv2/3x3
I0403 18:32:53.261189  7104 net.cpp:148] Top shape: 24 192 56 56 (14450688)
I0403 18:32:53.261207  7104 net.cpp:156] Memory required for data: 303465504
I0403 18:32:53.261231  7104 layer_factory.hpp:77] Creating layer conv2/relu_3x3
I0403 18:32:53.261255  7104 net.cpp:91] Creating Layer conv2/relu_3x3
I0403 18:32:53.261277  7104 net.cpp:425] conv2/relu_3x3 <- conv2/3x3
I0403 18:32:53.261298  7104 net.cpp:386] conv2/relu_3x3 -> conv2/3x3 (in-place)
I0403 18:32:53.261487  7104 net.cpp:141] Setting up conv2/relu_3x3
I0403 18:32:53.261515  7104 net.cpp:148] Top shape: 24 192 56 56 (14450688)
I0403 18:32:53.261566  7104 net.cpp:156] Memory required for data: 361268256
I0403 18:32:53.261584  7104 layer_factory.hpp:77] Creating layer conv2/norm2
I0403 18:32:53.261603  7104 net.cpp:91] Creating Layer conv2/norm2
I0403 18:32:53.261620  7104 net.cpp:425] conv2/norm2 <- conv2/3x3
I0403 18:32:53.261641  7104 net.cpp:399] conv2/norm2 -> conv2/norm2
I0403 18:32:53.261978  7104 net.cpp:141] Setting up conv2/norm2
I0403 18:32:53.262019  7104 net.cpp:148] Top shape: 24 192 56 56 (14450688)
I0403 18:32:53.262037  7104 net.cpp:156] Memory required for data: 419071008
I0403 18:32:53.262053  7104 layer_factory.hpp:77] Creating layer pool2/3x3_s2
I0403 18:32:53.262073  7104 net.cpp:91] Creating Layer pool2/3x3_s2
I0403 18:32:53.262090  7104 net.cpp:425] pool2/3x3_s2 <- conv2/norm2
I0403 18:32:53.262111  7104 net.cpp:399] pool2/3x3_s2 -> pool2/3x3_s2
I0403 18:32:53.262171  7104 net.cpp:141] Setting up pool2/3x3_s2
I0403 18:32:53.262195  7104 net.cpp:148] Top shape: 24 192 28 28 (3612672)
I0403 18:32:53.262209  7104 net.cpp:156] Memory required for data: 433521696
I0403 18:32:53.262225  7104 layer_factory.hpp:77] Creating layer pool2/3x3_s2_pool2/3x3_s2_0_split
I0403 18:32:53.262246  7104 net.cpp:91] Creating Layer pool2/3x3_s2_pool2/3x3_s2_0_split
I0403 18:32:53.262264  7104 net.cpp:425] pool2/3x3_s2_pool2/3x3_s2_0_split <- pool2/3x3_s2
I0403 18:32:53.262301  7104 net.cpp:399] pool2/3x3_s2_pool2/3x3_s2_0_split -> pool2/3x3_s2_pool2/3x3_s2_0_split_0
I0403 18:32:53.262327  7104 net.cpp:399] pool2/3x3_s2_pool2/3x3_s2_0_split -> pool2/3x3_s2_pool2/3x3_s2_0_split_1
I0403 18:32:53.262354  7104 net.cpp:399] pool2/3x3_s2_pool2/3x3_s2_0_split -> pool2/3x3_s2_pool2/3x3_s2_0_split_2
I0403 18:32:53.262375  7104 net.cpp:399] pool2/3x3_s2_pool2/3x3_s2_0_split -> pool2/3x3_s2_pool2/3x3_s2_0_split_3
I0403 18:32:53.262449  7104 net.cpp:141] Setting up pool2/3x3_s2_pool2/3x3_s2_0_split
I0403 18:32:53.262485  7104 net.cpp:148] Top shape: 24 192 28 28 (3612672)
I0403 18:32:53.262504  7104 net.cpp:148] Top shape: 24 192 28 28 (3612672)
I0403 18:32:53.262522  7104 net.cpp:148] Top shape: 24 192 28 28 (3612672)
I0403 18:32:53.262539  7104 net.cpp:148] Top shape: 24 192 28 28 (3612672)
I0403 18:32:53.262555  7104 net.cpp:156] Memory required for data: 491324448
I0403 18:32:53.262572  7104 layer_factory.hpp:77] Creating layer inception_3a/1x1
I0403 18:32:53.262598  7104 net.cpp:91] Creating Layer inception_3a/1x1
I0403 18:32:53.262615  7104 net.cpp:425] inception_3a/1x1 <- pool2/3x3_s2_pool2/3x3_s2_0_split_0
I0403 18:32:53.262635  7104 net.cpp:399] inception_3a/1x1 -> inception_3a/1x1
I0403 18:32:53.264255  7104 net.cpp:141] Setting up inception_3a/1x1
I0403 18:32:53.264293  7104 net.cpp:148] Top shape: 24 64 28 28 (1204224)
I0403 18:32:53.264313  7104 net.cpp:156] Memory required for data: 496141344
I0403 18:32:53.264334  7104 layer_factory.hpp:77] Creating layer inception_3a/relu_1x1
I0403 18:32:53.264358  7104 net.cpp:91] Creating Layer inception_3a/relu_1x1
I0403 18:32:53.264379  7104 net.cpp:425] inception_3a/relu_1x1 <- inception_3a/1x1
I0403 18:32:53.264399  7104 net.cpp:386] inception_3a/relu_1x1 -> inception_3a/1x1 (in-place)
I0403 18:32:53.264588  7104 net.cpp:141] Setting up inception_3a/relu_1x1
I0403 18:32:53.264619  7104 net.cpp:148] Top shape: 24 64 28 28 (1204224)
I0403 18:32:53.264638  7104 net.cpp:156] Memory required for data: 500958240
I0403 18:32:53.264655  7104 layer_factory.hpp:77] Creating layer inception_3a/3x3_reduce
I0403 18:32:53.264680  7104 net.cpp:91] Creating Layer inception_3a/3x3_reduce
I0403 18:32:53.264700  7104 net.cpp:425] inception_3a/3x3_reduce <- pool2/3x3_s2_pool2/3x3_s2_0_split_1
I0403 18:32:53.264722  7104 net.cpp:399] inception_3a/3x3_reduce -> inception_3a/3x3_reduce
I0403 18:32:53.266535  7104 net.cpp:141] Setting up inception_3a/3x3_reduce
I0403 18:32:53.266568  7104 net.cpp:148] Top shape: 24 96 28 28 (1806336)
I0403 18:32:53.266587  7104 net.cpp:156] Memory required for data: 508183584
I0403 18:32:53.266610  7104 layer_factory.hpp:77] Creating layer inception_3a/relu_3x3_reduce
I0403 18:32:53.266655  7104 net.cpp:91] Creating Layer inception_3a/relu_3x3_reduce
I0403 18:32:53.266677  7104 net.cpp:425] inception_3a/relu_3x3_reduce <- inception_3a/3x3_reduce
I0403 18:32:53.266700  7104 net.cpp:386] inception_3a/relu_3x3_reduce -> inception_3a/3x3_reduce (in-place)
I0403 18:32:53.266896  7104 net.cpp:141] Setting up inception_3a/relu_3x3_reduce
I0403 18:32:53.266927  7104 net.cpp:148] Top shape: 24 96 28 28 (1806336)
I0403 18:32:53.266944  7104 net.cpp:156] Memory required for data: 515408928
I0403 18:32:53.266960  7104 layer_factory.hpp:77] Creating layer inception_3a/3x3
I0403 18:32:53.266986  7104 net.cpp:91] Creating Layer inception_3a/3x3
I0403 18:32:53.267009  7104 net.cpp:425] inception_3a/3x3 <- inception_3a/3x3_reduce
I0403 18:32:53.267033  7104 net.cpp:399] inception_3a/3x3 -> inception_3a/3x3
I0403 18:32:53.268782  7104 net.cpp:141] Setting up inception_3a/3x3
I0403 18:32:53.268816  7104 net.cpp:148] Top shape: 24 128 28 28 (2408448)
I0403 18:32:53.268837  7104 net.cpp:156] Memory required for data: 525042720
I0403 18:32:53.268859  7104 layer_factory.hpp:77] Creating layer inception_3a/relu_3x3
I0403 18:32:53.268879  7104 net.cpp:91] Creating Layer inception_3a/relu_3x3
I0403 18:32:53.268896  7104 net.cpp:425] inception_3a/relu_3x3 <- inception_3a/3x3
I0403 18:32:53.268915  7104 net.cpp:386] inception_3a/relu_3x3 -> inception_3a/3x3 (in-place)
I0403 18:32:53.269207  7104 net.cpp:141] Setting up inception_3a/relu_3x3
I0403 18:32:53.269235  7104 net.cpp:148] Top shape: 24 128 28 28 (2408448)
I0403 18:32:53.269255  7104 net.cpp:156] Memory required for data: 534676512
I0403 18:32:53.269275  7104 layer_factory.hpp:77] Creating layer inception_3a/5x5_reduce
I0403 18:32:53.269299  7104 net.cpp:91] Creating Layer inception_3a/5x5_reduce
I0403 18:32:53.269317  7104 net.cpp:425] inception_3a/5x5_reduce <- pool2/3x3_s2_pool2/3x3_s2_0_split_2
I0403 18:32:53.269340  7104 net.cpp:399] inception_3a/5x5_reduce -> inception_3a/5x5_reduce
I0403 18:32:53.270364  7104 net.cpp:141] Setting up inception_3a/5x5_reduce
I0403 18:32:53.270400  7104 net.cpp:148] Top shape: 24 16 28 28 (301056)
I0403 18:32:53.270418  7104 net.cpp:156] Memory required for data: 535880736
I0403 18:32:53.270440  7104 layer_factory.hpp:77] Creating layer inception_3a/relu_5x5_reduce
I0403 18:32:53.270459  7104 net.cpp:91] Creating Layer inception_3a/relu_5x5_reduce
I0403 18:32:53.270478  7104 net.cpp:425] inception_3a/relu_5x5_reduce <- inception_3a/5x5_reduce
I0403 18:32:53.270496  7104 net.cpp:386] inception_3a/relu_5x5_reduce -> inception_3a/5x5_reduce (in-place)
I0403 18:32:53.270798  7104 net.cpp:141] Setting up inception_3a/relu_5x5_reduce
I0403 18:32:53.270826  7104 net.cpp:148] Top shape: 24 16 28 28 (301056)
I0403 18:32:53.270843  7104 net.cpp:156] Memory required for data: 537084960
I0403 18:32:53.270859  7104 layer_factory.hpp:77] Creating layer inception_3a/5x5
I0403 18:32:53.270884  7104 net.cpp:91] Creating Layer inception_3a/5x5
I0403 18:32:53.270903  7104 net.cpp:425] inception_3a/5x5 <- inception_3a/5x5_reduce
I0403 18:32:53.270926  7104 net.cpp:399] inception_3a/5x5 -> inception_3a/5x5
I0403 18:32:53.271999  7104 net.cpp:141] Setting up inception_3a/5x5
I0403 18:32:53.272032  7104 net.cpp:148] Top shape: 24 32 28 28 (602112)
I0403 18:32:53.272050  7104 net.cpp:156] Memory required for data: 539493408
I0403 18:32:53.272070  7104 layer_factory.hpp:77] Creating layer inception_3a/relu_5x5
I0403 18:32:53.272091  7104 net.cpp:91] Creating Layer inception_3a/relu_5x5
I0403 18:32:53.272111  7104 net.cpp:425] inception_3a/relu_5x5 <- inception_3a/5x5
I0403 18:32:53.272130  7104 net.cpp:386] inception_3a/relu_5x5 -> inception_3a/5x5 (in-place)
I0403 18:32:53.272333  7104 net.cpp:141] Setting up inception_3a/relu_5x5
I0403 18:32:53.272367  7104 net.cpp:148] Top shape: 24 32 28 28 (602112)
I0403 18:32:53.272384  7104 net.cpp:156] Memory required for data: 541901856
I0403 18:32:53.272402  7104 layer_factory.hpp:77] Creating layer inception_3a/pool
I0403 18:32:53.272421  7104 net.cpp:91] Creating Layer inception_3a/pool
I0403 18:32:53.272454  7104 net.cpp:425] inception_3a/pool <- pool2/3x3_s2_pool2/3x3_s2_0_split_3
I0403 18:32:53.272488  7104 net.cpp:399] inception_3a/pool -> inception_3a/pool
I0403 18:32:53.272549  7104 net.cpp:141] Setting up inception_3a/pool
I0403 18:32:53.272574  7104 net.cpp:148] Top shape: 24 192 28 28 (3612672)
I0403 18:32:53.272589  7104 net.cpp:156] Memory required for data: 556352544
I0403 18:32:53.272604  7104 layer_factory.hpp:77] Creating layer inception_3a/pool_proj
I0403 18:32:53.272629  7104 net.cpp:91] Creating Layer inception_3a/pool_proj
I0403 18:32:53.272647  7104 net.cpp:425] inception_3a/pool_proj <- inception_3a/pool
I0403 18:32:53.272670  7104 net.cpp:399] inception_3a/pool_proj -> inception_3a/pool_proj
I0403 18:32:53.273687  7104 net.cpp:141] Setting up inception_3a/pool_proj
I0403 18:32:53.273720  7104 net.cpp:148] Top shape: 24 32 28 28 (602112)
I0403 18:32:53.273737  7104 net.cpp:156] Memory required for data: 558760992
I0403 18:32:53.273764  7104 layer_factory.hpp:77] Creating layer inception_3a/relu_pool_proj
I0403 18:32:53.273785  7104 net.cpp:91] Creating Layer inception_3a/relu_pool_proj
I0403 18:32:53.273803  7104 net.cpp:425] inception_3a/relu_pool_proj <- inception_3a/pool_proj
I0403 18:32:53.273823  7104 net.cpp:386] inception_3a/relu_pool_proj -> inception_3a/pool_proj (in-place)
I0403 18:32:53.274111  7104 net.cpp:141] Setting up inception_3a/relu_pool_proj
I0403 18:32:53.274140  7104 net.cpp:148] Top shape: 24 32 28 28 (602112)
I0403 18:32:53.274161  7104 net.cpp:156] Memory required for data: 561169440
I0403 18:32:53.274178  7104 layer_factory.hpp:77] Creating layer inception_3a/output
I0403 18:32:53.274199  7104 net.cpp:91] Creating Layer inception_3a/output
I0403 18:32:53.274215  7104 net.cpp:425] inception_3a/output <- inception_3a/1x1
I0403 18:32:53.274232  7104 net.cpp:425] inception_3a/output <- inception_3a/3x3
I0403 18:32:53.274250  7104 net.cpp:425] inception_3a/output <- inception_3a/5x5
I0403 18:32:53.274266  7104 net.cpp:425] inception_3a/output <- inception_3a/pool_proj
I0403 18:32:53.274288  7104 net.cpp:399] inception_3a/output -> inception_3a/output
I0403 18:32:53.274340  7104 net.cpp:141] Setting up inception_3a/output
I0403 18:32:53.274364  7104 net.cpp:148] Top shape: 24 256 28 28 (4816896)
I0403 18:32:53.274380  7104 net.cpp:156] Memory required for data: 580437024
I0403 18:32:53.274396  7104 layer_factory.hpp:77] Creating layer inception_3a/output_inception_3a/output_0_split
I0403 18:32:53.274415  7104 net.cpp:91] Creating Layer inception_3a/output_inception_3a/output_0_split
I0403 18:32:53.274430  7104 net.cpp:425] inception_3a/output_inception_3a/output_0_split <- inception_3a/output
I0403 18:32:53.274451  7104 net.cpp:399] inception_3a/output_inception_3a/output_0_split -> inception_3a/output_inception_3a/output_0_split_0
I0403 18:32:53.274472  7104 net.cpp:399] inception_3a/output_inception_3a/output_0_split -> inception_3a/output_inception_3a/output_0_split_1
I0403 18:32:53.274499  7104 net.cpp:399] inception_3a/output_inception_3a/output_0_split -> inception_3a/output_inception_3a/output_0_split_2
I0403 18:32:53.274524  7104 net.cpp:399] inception_3a/output_inception_3a/output_0_split -> inception_3a/output_inception_3a/output_0_split_3
I0403 18:32:53.274603  7104 net.cpp:141] Setting up inception_3a/output_inception_3a/output_0_split
I0403 18:32:53.274627  7104 net.cpp:148] Top shape: 24 256 28 28 (4816896)
I0403 18:32:53.274644  7104 net.cpp:148] Top shape: 24 256 28 28 (4816896)
I0403 18:32:53.274662  7104 net.cpp:148] Top shape: 24 256 28 28 (4816896)
I0403 18:32:53.274677  7104 net.cpp:148] Top shape: 24 256 28 28 (4816896)
I0403 18:32:53.274691  7104 net.cpp:156] Memory required for data: 657507360
I0403 18:32:53.274708  7104 layer_factory.hpp:77] Creating layer inception_3b/1x1
I0403 18:32:53.274734  7104 net.cpp:91] Creating Layer inception_3b/1x1
I0403 18:32:53.274752  7104 net.cpp:425] inception_3b/1x1 <- inception_3a/output_inception_3a/output_0_split_0
I0403 18:32:53.274775  7104 net.cpp:399] inception_3b/1x1 -> inception_3b/1x1
I0403 18:32:53.275980  7104 net.cpp:141] Setting up inception_3b/1x1
I0403 18:32:53.276022  7104 net.cpp:148] Top shape: 24 128 28 28 (2408448)
I0403 18:32:53.276041  7104 net.cpp:156] Memory required for data: 667141152
I0403 18:32:53.276062  7104 layer_factory.hpp:77] Creating layer inception_3b/relu_1x1
I0403 18:32:53.276084  7104 net.cpp:91] Creating Layer inception_3b/relu_1x1
I0403 18:32:53.276103  7104 net.cpp:425] inception_3b/relu_1x1 <- inception_3b/1x1
I0403 18:32:53.276124  7104 net.cpp:386] inception_3b/relu_1x1 -> inception_3b/1x1 (in-place)
I0403 18:32:53.276316  7104 net.cpp:141] Setting up inception_3b/relu_1x1
I0403 18:32:53.276347  7104 net.cpp:148] Top shape: 24 128 28 28 (2408448)
I0403 18:32:53.276365  7104 net.cpp:156] Memory required for data: 676774944
I0403 18:32:53.276382  7104 layer_factory.hpp:77] Creating layer inception_3b/3x3_reduce
I0403 18:32:53.276403  7104 net.cpp:91] Creating Layer inception_3b/3x3_reduce
I0403 18:32:53.276422  7104 net.cpp:425] inception_3b/3x3_reduce <- inception_3a/output_inception_3a/output_0_split_1
I0403 18:32:53.276444  7104 net.cpp:399] inception_3b/3x3_reduce -> inception_3b/3x3_reduce
I0403 18:32:53.277649  7104 net.cpp:141] Setting up inception_3b/3x3_reduce
I0403 18:32:53.277680  7104 net.cpp:148] Top shape: 24 128 28 28 (2408448)
I0403 18:32:53.277698  7104 net.cpp:156] Memory required for data: 686408736
I0403 18:32:53.277719  7104 layer_factory.hpp:77] Creating layer inception_3b/relu_3x3_reduce
I0403 18:32:53.277741  7104 net.cpp:91] Creating Layer inception_3b/relu_3x3_reduce
I0403 18:32:53.277760  7104 net.cpp:425] inception_3b/relu_3x3_reduce <- inception_3b/3x3_reduce
I0403 18:32:53.277779  7104 net.cpp:386] inception_3b/relu_3x3_reduce -> inception_3b/3x3_reduce (in-place)
I0403 18:32:53.277963  7104 net.cpp:141] Setting up inception_3b/relu_3x3_reduce
I0403 18:32:53.277992  7104 net.cpp:148] Top shape: 24 128 28 28 (2408448)
I0403 18:32:53.278007  7104 net.cpp:156] Memory required for data: 696042528
I0403 18:32:53.278023  7104 layer_factory.hpp:77] Creating layer inception_3b/3x3
I0403 18:32:53.278051  7104 net.cpp:91] Creating Layer inception_3b/3x3
I0403 18:32:53.278070  7104 net.cpp:425] inception_3b/3x3 <- inception_3b/3x3_reduce
I0403 18:32:53.278093  7104 net.cpp:399] inception_3b/3x3 -> inception_3b/3x3
I0403 18:32:53.281144  7104 net.cpp:141] Setting up inception_3b/3x3
I0403 18:32:53.281177  7104 net.cpp:148] Top shape: 24 192 28 28 (3612672)
I0403 18:32:53.281196  7104 net.cpp:156] Memory required for data: 710493216
I0403 18:32:53.281216  7104 layer_factory.hpp:77] Creating layer inception_3b/relu_3x3
I0403 18:32:53.281235  7104 net.cpp:91] Creating Layer inception_3b/relu_3x3
I0403 18:32:53.281252  7104 net.cpp:425] inception_3b/relu_3x3 <- inception_3b/3x3
I0403 18:32:53.281276  7104 net.cpp:386] inception_3b/relu_3x3 -> inception_3b/3x3 (in-place)
I0403 18:32:53.281568  7104 net.cpp:141] Setting up inception_3b/relu_3x3
I0403 18:32:53.281597  7104 net.cpp:148] Top shape: 24 192 28 28 (3612672)
I0403 18:32:53.281620  7104 net.cpp:156] Memory required for data: 724943904
I0403 18:32:53.281635  7104 layer_factory.hpp:77] Creating layer inception_3b/5x5_reduce
I0403 18:32:53.281657  7104 net.cpp:91] Creating Layer inception_3b/5x5_reduce
I0403 18:32:53.281677  7104 net.cpp:425] inception_3b/5x5_reduce <- inception_3a/output_inception_3a/output_0_split_2
I0403 18:32:53.281699  7104 net.cpp:399] inception_3b/5x5_reduce -> inception_3b/5x5_reduce
I0403 18:32:53.282759  7104 net.cpp:141] Setting up inception_3b/5x5_reduce
I0403 18:32:53.282791  7104 net.cpp:148] Top shape: 24 32 28 28 (602112)
I0403 18:32:53.282809  7104 net.cpp:156] Memory required for data: 727352352
I0403 18:32:53.282829  7104 layer_factory.hpp:77] Creating layer inception_3b/relu_5x5_reduce
I0403 18:32:53.282851  7104 net.cpp:91] Creating Layer inception_3b/relu_5x5_reduce
I0403 18:32:53.282872  7104 net.cpp:425] inception_3b/relu_5x5_reduce <- inception_3b/5x5_reduce
I0403 18:32:53.282891  7104 net.cpp:386] inception_3b/relu_5x5_reduce -> inception_3b/5x5_reduce (in-place)
I0403 18:32:53.283099  7104 net.cpp:141] Setting up inception_3b/relu_5x5_reduce
I0403 18:32:53.283128  7104 net.cpp:148] Top shape: 24 32 28 28 (602112)
I0403 18:32:53.283145  7104 net.cpp:156] Memory required for data: 729760800
I0403 18:32:53.283161  7104 layer_factory.hpp:77] Creating layer inception_3b/5x5
I0403 18:32:53.283185  7104 net.cpp:91] Creating Layer inception_3b/5x5
I0403 18:32:53.283205  7104 net.cpp:425] inception_3b/5x5 <- inception_3b/5x5_reduce
I0403 18:32:53.283224  7104 net.cpp:399] inception_3b/5x5 -> inception_3b/5x5
I0403 18:32:53.285295  7104 net.cpp:141] Setting up inception_3b/5x5
I0403 18:32:53.285331  7104 net.cpp:148] Top shape: 24 96 28 28 (1806336)
I0403 18:32:53.285348  7104 net.cpp:156] Memory required for data: 736986144
I0403 18:32:53.285372  7104 layer_factory.hpp:77] Creating layer inception_3b/relu_5x5
I0403 18:32:53.285394  7104 net.cpp:91] Creating Layer inception_3b/relu_5x5
I0403 18:32:53.285416  7104 net.cpp:425] inception_3b/relu_5x5 <- inception_3b/5x5
I0403 18:32:53.285435  7104 net.cpp:386] inception_3b/relu_5x5 -> inception_3b/5x5 (in-place)
I0403 18:32:53.285639  7104 net.cpp:141] Setting up inception_3b/relu_5x5
I0403 18:32:53.285665  7104 net.cpp:148] Top shape: 24 96 28 28 (1806336)
I0403 18:32:53.285682  7104 net.cpp:156] Memory required for data: 744211488
I0403 18:32:53.285698  7104 layer_factory.hpp:77] Creating layer inception_3b/pool
I0403 18:32:53.285717  7104 net.cpp:91] Creating Layer inception_3b/pool
I0403 18:32:53.285734  7104 net.cpp:425] inception_3b/pool <- inception_3a/output_inception_3a/output_0_split_3
I0403 18:32:53.285753  7104 net.cpp:399] inception_3b/pool -> inception_3b/pool
I0403 18:32:53.285812  7104 net.cpp:141] Setting up inception_3b/pool
I0403 18:32:53.285836  7104 net.cpp:148] Top shape: 24 256 28 28 (4816896)
I0403 18:32:53.285851  7104 net.cpp:156] Memory required for data: 763479072
I0403 18:32:53.285867  7104 layer_factory.hpp:77] Creating layer inception_3b/pool_proj
I0403 18:32:53.285892  7104 net.cpp:91] Creating Layer inception_3b/pool_proj
I0403 18:32:53.285909  7104 net.cpp:425] inception_3b/pool_proj <- inception_3b/pool
I0403 18:32:53.285933  7104 net.cpp:399] inception_3b/pool_proj -> inception_3b/pool_proj
I0403 18:32:53.287048  7104 net.cpp:141] Setting up inception_3b/pool_proj
I0403 18:32:53.287081  7104 net.cpp:148] Top shape: 24 64 28 28 (1204224)
I0403 18:32:53.287097  7104 net.cpp:156] Memory required for data: 768295968
I0403 18:32:53.287117  7104 layer_factory.hpp:77] Creating layer inception_3b/relu_pool_proj
I0403 18:32:53.287137  7104 net.cpp:91] Creating Layer inception_3b/relu_pool_proj
I0403 18:32:53.287153  7104 net.cpp:425] inception_3b/relu_pool_proj <- inception_3b/pool_proj
I0403 18:32:53.287173  7104 net.cpp:386] inception_3b/relu_pool_proj -> inception_3b/pool_proj (in-place)
I0403 18:32:53.287576  7104 net.cpp:141] Setting up inception_3b/relu_pool_proj
I0403 18:32:53.287608  7104 net.cpp:148] Top shape: 24 64 28 28 (1204224)
I0403 18:32:53.287627  7104 net.cpp:156] Memory required for data: 773112864
I0403 18:32:53.287643  7104 layer_factory.hpp:77] Creating layer inception_3b/output
I0403 18:32:53.287662  7104 net.cpp:91] Creating Layer inception_3b/output
I0403 18:32:53.287678  7104 net.cpp:425] inception_3b/output <- inception_3b/1x1
I0403 18:32:53.287695  7104 net.cpp:425] inception_3b/output <- inception_3b/3x3
I0403 18:32:53.287714  7104 net.cpp:425] inception_3b/output <- inception_3b/5x5
I0403 18:32:53.287729  7104 net.cpp:425] inception_3b/output <- inception_3b/pool_proj
I0403 18:32:53.287746  7104 net.cpp:399] inception_3b/output -> inception_3b/output
I0403 18:32:53.287794  7104 net.cpp:141] Setting up inception_3b/output
I0403 18:32:53.287818  7104 net.cpp:148] Top shape: 24 480 28 28 (9031680)
I0403 18:32:53.287834  7104 net.cpp:156] Memory required for data: 809239584
I0403 18:32:53.287849  7104 layer_factory.hpp:77] Creating layer pool3/3x3_s2
I0403 18:32:53.287871  7104 net.cpp:91] Creating Layer pool3/3x3_s2
I0403 18:32:53.287888  7104 net.cpp:425] pool3/3x3_s2 <- inception_3b/output
I0403 18:32:53.287922  7104 net.cpp:399] pool3/3x3_s2 -> pool3/3x3_s2
I0403 18:32:53.287986  7104 net.cpp:141] Setting up pool3/3x3_s2
I0403 18:32:53.288010  7104 net.cpp:148] Top shape: 24 480 14 14 (2257920)
I0403 18:32:53.288025  7104 net.cpp:156] Memory required for data: 818271264
I0403 18:32:53.288041  7104 layer_factory.hpp:77] Creating layer pool3/3x3_s2_pool3/3x3_s2_0_split
I0403 18:32:53.288059  7104 net.cpp:91] Creating Layer pool3/3x3_s2_pool3/3x3_s2_0_split
I0403 18:32:53.288074  7104 net.cpp:425] pool3/3x3_s2_pool3/3x3_s2_0_split <- pool3/3x3_s2
I0403 18:32:53.288094  7104 net.cpp:399] pool3/3x3_s2_pool3/3x3_s2_0_split -> pool3/3x3_s2_pool3/3x3_s2_0_split_0
I0403 18:32:53.288116  7104 net.cpp:399] pool3/3x3_s2_pool3/3x3_s2_0_split -> pool3/3x3_s2_pool3/3x3_s2_0_split_1
I0403 18:32:53.288138  7104 net.cpp:399] pool3/3x3_s2_pool3/3x3_s2_0_split -> pool3/3x3_s2_pool3/3x3_s2_0_split_2
I0403 18:32:53.288159  7104 net.cpp:399] pool3/3x3_s2_pool3/3x3_s2_0_split -> pool3/3x3_s2_pool3/3x3_s2_0_split_3
I0403 18:32:53.288240  7104 net.cpp:141] Setting up pool3/3x3_s2_pool3/3x3_s2_0_split
I0403 18:32:53.288266  7104 net.cpp:148] Top shape: 24 480 14 14 (2257920)
I0403 18:32:53.288290  7104 net.cpp:148] Top shape: 24 480 14 14 (2257920)
I0403 18:32:53.288306  7104 net.cpp:148] Top shape: 24 480 14 14 (2257920)
I0403 18:32:53.288323  7104 net.cpp:148] Top shape: 24 480 14 14 (2257920)
I0403 18:32:53.288338  7104 net.cpp:156] Memory required for data: 854397984
I0403 18:32:53.288353  7104 layer_factory.hpp:77] Creating layer inception_4a/1x1
I0403 18:32:53.288377  7104 net.cpp:91] Creating Layer inception_4a/1x1
I0403 18:32:53.288395  7104 net.cpp:425] inception_4a/1x1 <- pool3/3x3_s2_pool3/3x3_s2_0_split_0
I0403 18:32:53.288415  7104 net.cpp:399] inception_4a/1x1 -> inception_4a/1x1
I0403 18:32:53.290102  7104 net.cpp:141] Setting up inception_4a/1x1
I0403 18:32:53.290132  7104 net.cpp:148] Top shape: 24 192 14 14 (903168)
I0403 18:32:53.290149  7104 net.cpp:156] Memory required for data: 858010656
I0403 18:32:53.290169  7104 layer_factory.hpp:77] Creating layer inception_4a/relu_1x1
I0403 18:32:53.290187  7104 net.cpp:91] Creating Layer inception_4a/relu_1x1
I0403 18:32:53.290207  7104 net.cpp:425] inception_4a/relu_1x1 <- inception_4a/1x1
I0403 18:32:53.290237  7104 net.cpp:386] inception_4a/relu_1x1 -> inception_4a/1x1 (in-place)
I0403 18:32:53.290431  7104 net.cpp:141] Setting up inception_4a/relu_1x1
I0403 18:32:53.290458  7104 net.cpp:148] Top shape: 24 192 14 14 (903168)
I0403 18:32:53.290482  7104 net.cpp:156] Memory required for data: 861623328
I0403 18:32:53.290498  7104 layer_factory.hpp:77] Creating layer inception_4a/3x3_reduce
I0403 18:32:53.290520  7104 net.cpp:91] Creating Layer inception_4a/3x3_reduce
I0403 18:32:53.290539  7104 net.cpp:425] inception_4a/3x3_reduce <- pool3/3x3_s2_pool3/3x3_s2_0_split_1
I0403 18:32:53.290562  7104 net.cpp:399] inception_4a/3x3_reduce -> inception_4a/3x3_reduce
I0403 18:32:53.291929  7104 net.cpp:141] Setting up inception_4a/3x3_reduce
I0403 18:32:53.291960  7104 net.cpp:148] Top shape: 24 96 14 14 (451584)
I0403 18:32:53.291976  7104 net.cpp:156] Memory required for data: 863429664
I0403 18:32:53.292003  7104 layer_factory.hpp:77] Creating layer inception_4a/relu_3x3_reduce
I0403 18:32:53.292026  7104 net.cpp:91] Creating Layer inception_4a/relu_3x3_reduce
I0403 18:32:53.292043  7104 net.cpp:425] inception_4a/relu_3x3_reduce <- inception_4a/3x3_reduce
I0403 18:32:53.292064  7104 net.cpp:386] inception_4a/relu_3x3_reduce -> inception_4a/3x3_reduce (in-place)
I0403 18:32:53.292253  7104 net.cpp:141] Setting up inception_4a/relu_3x3_reduce
I0403 18:32:53.292294  7104 net.cpp:148] Top shape: 24 96 14 14 (451584)
I0403 18:32:53.292312  7104 net.cpp:156] Memory required for data: 865236000
I0403 18:32:53.292330  7104 layer_factory.hpp:77] Creating layer inception_4a/3x3
I0403 18:32:53.292363  7104 net.cpp:91] Creating Layer inception_4a/3x3
I0403 18:32:53.292382  7104 net.cpp:425] inception_4a/3x3 <- inception_4a/3x3_reduce
I0403 18:32:53.292404  7104 net.cpp:399] inception_4a/3x3 -> inception_4a/3x3
I0403 18:32:53.295228  7104 net.cpp:141] Setting up inception_4a/3x3
I0403 18:32:53.295260  7104 net.cpp:148] Top shape: 24 208 14 14 (978432)
I0403 18:32:53.295284  7104 net.cpp:156] Memory required for data: 869149728
I0403 18:32:53.295305  7104 layer_factory.hpp:77] Creating layer inception_4a/relu_3x3
I0403 18:32:53.295327  7104 net.cpp:91] Creating Layer inception_4a/relu_3x3
I0403 18:32:53.295347  7104 net.cpp:425] inception_4a/relu_3x3 <- inception_4a/3x3
I0403 18:32:53.295367  7104 net.cpp:386] inception_4a/relu_3x3 -> inception_4a/3x3 (in-place)
I0403 18:32:53.295663  7104 net.cpp:141] Setting up inception_4a/relu_3x3
I0403 18:32:53.295691  7104 net.cpp:148] Top shape: 24 208 14 14 (978432)
I0403 18:32:53.295707  7104 net.cpp:156] Memory required for data: 873063456
I0403 18:32:53.295723  7104 layer_factory.hpp:77] Creating layer inception_4a/5x5_reduce
I0403 18:32:53.295747  7104 net.cpp:91] Creating Layer inception_4a/5x5_reduce
I0403 18:32:53.295766  7104 net.cpp:425] inception_4a/5x5_reduce <- pool3/3x3_s2_pool3/3x3_s2_0_split_2
I0403 18:32:53.295789  7104 net.cpp:399] inception_4a/5x5_reduce -> inception_4a/5x5_reduce
I0403 18:32:53.296864  7104 net.cpp:141] Setting up inception_4a/5x5_reduce
I0403 18:32:53.296895  7104 net.cpp:148] Top shape: 24 16 14 14 (75264)
I0403 18:32:53.296911  7104 net.cpp:156] Memory required for data: 873364512
I0403 18:32:53.296931  7104 layer_factory.hpp:77] Creating layer inception_4a/relu_5x5_reduce
I0403 18:32:53.296952  7104 net.cpp:91] Creating Layer inception_4a/relu_5x5_reduce
I0403 18:32:53.296970  7104 net.cpp:425] inception_4a/relu_5x5_reduce <- inception_4a/5x5_reduce
I0403 18:32:53.296988  7104 net.cpp:386] inception_4a/relu_5x5_reduce -> inception_4a/5x5_reduce (in-place)
I0403 18:32:53.297180  7104 net.cpp:141] Setting up inception_4a/relu_5x5_reduce
I0403 18:32:53.297209  7104 net.cpp:148] Top shape: 24 16 14 14 (75264)
I0403 18:32:53.297225  7104 net.cpp:156] Memory required for data: 873665568
I0403 18:32:53.297242  7104 layer_factory.hpp:77] Creating layer inception_4a/5x5
I0403 18:32:53.297266  7104 net.cpp:91] Creating Layer inception_4a/5x5
I0403 18:32:53.297291  7104 net.cpp:425] inception_4a/5x5 <- inception_4a/5x5_reduce
I0403 18:32:53.297312  7104 net.cpp:399] inception_4a/5x5 -> inception_4a/5x5
I0403 18:32:53.298462  7104 net.cpp:141] Setting up inception_4a/5x5
I0403 18:32:53.298496  7104 net.cpp:148] Top shape: 24 48 14 14 (225792)
I0403 18:32:53.298512  7104 net.cpp:156] Memory required for data: 874568736
I0403 18:32:53.298532  7104 layer_factory.hpp:77] Creating layer inception_4a/relu_5x5
I0403 18:32:53.298552  7104 net.cpp:91] Creating Layer inception_4a/relu_5x5
I0403 18:32:53.298568  7104 net.cpp:425] inception_4a/relu_5x5 <- inception_4a/5x5
I0403 18:32:53.298586  7104 net.cpp:386] inception_4a/relu_5x5 -> inception_4a/5x5 (in-place)
I0403 18:32:53.298779  7104 net.cpp:141] Setting up inception_4a/relu_5x5
I0403 18:32:53.298805  7104 net.cpp:148] Top shape: 24 48 14 14 (225792)
I0403 18:32:53.298820  7104 net.cpp:156] Memory required for data: 875471904
I0403 18:32:53.298836  7104 layer_factory.hpp:77] Creating layer inception_4a/pool
I0403 18:32:53.298856  7104 net.cpp:91] Creating Layer inception_4a/pool
I0403 18:32:53.298871  7104 net.cpp:425] inception_4a/pool <- pool3/3x3_s2_pool3/3x3_s2_0_split_3
I0403 18:32:53.298892  7104 net.cpp:399] inception_4a/pool -> inception_4a/pool
I0403 18:32:53.298957  7104 net.cpp:141] Setting up inception_4a/pool
I0403 18:32:53.298985  7104 net.cpp:148] Top shape: 24 480 14 14 (2257920)
I0403 18:32:53.299000  7104 net.cpp:156] Memory required for data: 884503584
I0403 18:32:53.299015  7104 layer_factory.hpp:77] Creating layer inception_4a/pool_proj
I0403 18:32:53.299038  7104 net.cpp:91] Creating Layer inception_4a/pool_proj
I0403 18:32:53.299057  7104 net.cpp:425] inception_4a/pool_proj <- inception_4a/pool
I0403 18:32:53.299078  7104 net.cpp:399] inception_4a/pool_proj -> inception_4a/pool_proj
I0403 18:32:53.300310  7104 net.cpp:141] Setting up inception_4a/pool_proj
I0403 18:32:53.300344  7104 net.cpp:148] Top shape: 24 64 14 14 (301056)
I0403 18:32:53.300377  7104 net.cpp:156] Memory required for data: 885707808
I0403 18:32:53.300400  7104 layer_factory.hpp:77] Creating layer inception_4a/relu_pool_proj
I0403 18:32:53.300420  7104 net.cpp:91] Creating Layer inception_4a/relu_pool_proj
I0403 18:32:53.300438  7104 net.cpp:425] inception_4a/relu_pool_proj <- inception_4a/pool_proj
I0403 18:32:53.300462  7104 net.cpp:386] inception_4a/relu_pool_proj -> inception_4a/pool_proj (in-place)
I0403 18:32:53.300761  7104 net.cpp:141] Setting up inception_4a/relu_pool_proj
I0403 18:32:53.300791  7104 net.cpp:148] Top shape: 24 64 14 14 (301056)
I0403 18:32:53.300808  7104 net.cpp:156] Memory required for data: 886912032
I0403 18:32:53.300824  7104 layer_factory.hpp:77] Creating layer inception_4a/output
I0403 18:32:53.300843  7104 net.cpp:91] Creating Layer inception_4a/output
I0403 18:32:53.300861  7104 net.cpp:425] inception_4a/output <- inception_4a/1x1
I0403 18:32:53.300879  7104 net.cpp:425] inception_4a/output <- inception_4a/3x3
I0403 18:32:53.300897  7104 net.cpp:425] inception_4a/output <- inception_4a/5x5
I0403 18:32:53.300915  7104 net.cpp:425] inception_4a/output <- inception_4a/pool_proj
I0403 18:32:53.300936  7104 net.cpp:399] inception_4a/output -> inception_4a/output
I0403 18:32:53.300984  7104 net.cpp:141] Setting up inception_4a/output
I0403 18:32:53.301013  7104 net.cpp:148] Top shape: 24 512 14 14 (2408448)
I0403 18:32:53.301030  7104 net.cpp:156] Memory required for data: 896545824
I0403 18:32:53.301048  7104 layer_factory.hpp:77] Creating layer inception_4a/output_inception_4a/output_0_split
I0403 18:32:53.301067  7104 net.cpp:91] Creating Layer inception_4a/output_inception_4a/output_0_split
I0403 18:32:53.301085  7104 net.cpp:425] inception_4a/output_inception_4a/output_0_split <- inception_4a/output
I0403 18:32:53.301105  7104 net.cpp:399] inception_4a/output_inception_4a/output_0_split -> inception_4a/output_inception_4a/output_0_split_0
I0403 18:32:53.301131  7104 net.cpp:399] inception_4a/output_inception_4a/output_0_split -> inception_4a/output_inception_4a/output_0_split_1
I0403 18:32:53.301156  7104 net.cpp:399] inception_4a/output_inception_4a/output_0_split -> inception_4a/output_inception_4a/output_0_split_2
I0403 18:32:53.301178  7104 net.cpp:399] inception_4a/output_inception_4a/output_0_split -> inception_4a/output_inception_4a/output_0_split_3
I0403 18:32:53.301201  7104 net.cpp:399] inception_4a/output_inception_4a/output_0_split -> inception_4a/output_inception_4a/output_0_split_4
I0403 18:32:53.301306  7104 net.cpp:141] Setting up inception_4a/output_inception_4a/output_0_split
I0403 18:32:53.301331  7104 net.cpp:148] Top shape: 24 512 14 14 (2408448)
I0403 18:32:53.301348  7104 net.cpp:148] Top shape: 24 512 14 14 (2408448)
I0403 18:32:53.301365  7104 net.cpp:148] Top shape: 24 512 14 14 (2408448)
I0403 18:32:53.301383  7104 net.cpp:148] Top shape: 24 512 14 14 (2408448)
I0403 18:32:53.301398  7104 net.cpp:148] Top shape: 24 512 14 14 (2408448)
I0403 18:32:53.301412  7104 net.cpp:156] Memory required for data: 944714784
I0403 18:32:53.301429  7104 layer_factory.hpp:77] Creating layer loss1/ave_pool
I0403 18:32:53.301448  7104 net.cpp:91] Creating Layer loss1/ave_pool
I0403 18:32:53.301466  7104 net.cpp:425] loss1/ave_pool <- inception_4a/output_inception_4a/output_0_split_0
I0403 18:32:53.301486  7104 net.cpp:399] loss1/ave_pool -> loss1/ave_pool
I0403 18:32:53.301707  7104 net.cpp:141] Setting up loss1/ave_pool
I0403 18:32:53.301735  7104 net.cpp:148] Top shape: 24 512 4 4 (196608)
I0403 18:32:53.301751  7104 net.cpp:156] Memory required for data: 945501216
I0403 18:32:53.301766  7104 layer_factory.hpp:77] Creating layer loss1/conv
I0403 18:32:53.301790  7104 net.cpp:91] Creating Layer loss1/conv
I0403 18:32:53.301810  7104 net.cpp:425] loss1/conv <- loss1/ave_pool
I0403 18:32:53.301832  7104 net.cpp:399] loss1/conv -> loss1/conv
I0403 18:32:53.303344  7104 net.cpp:141] Setting up loss1/conv
I0403 18:32:53.303375  7104 net.cpp:148] Top shape: 24 128 4 4 (49152)
I0403 18:32:53.303407  7104 net.cpp:156] Memory required for data: 945697824
I0403 18:32:53.303429  7104 layer_factory.hpp:77] Creating layer loss1/relu_conv
I0403 18:32:53.303453  7104 net.cpp:91] Creating Layer loss1/relu_conv
I0403 18:32:53.303472  7104 net.cpp:425] loss1/relu_conv <- loss1/conv
I0403 18:32:53.303491  7104 net.cpp:386] loss1/relu_conv -> loss1/conv (in-place)
I0403 18:32:53.303784  7104 net.cpp:141] Setting up loss1/relu_conv
I0403 18:32:53.303813  7104 net.cpp:148] Top shape: 24 128 4 4 (49152)
I0403 18:32:53.303830  7104 net.cpp:156] Memory required for data: 945894432
I0403 18:32:53.303848  7104 layer_factory.hpp:77] Creating layer loss1/fc
I0403 18:32:53.303876  7104 net.cpp:91] Creating Layer loss1/fc
I0403 18:32:53.303899  7104 net.cpp:425] loss1/fc <- loss1/conv
I0403 18:32:53.303920  7104 net.cpp:399] loss1/fc -> loss1/fc
I0403 18:32:53.322731  7104 net.cpp:141] Setting up loss1/fc
I0403 18:32:53.322772  7104 net.cpp:148] Top shape: 24 1024 (24576)
I0403 18:32:53.322788  7104 net.cpp:156] Memory required for data: 945992736
I0403 18:32:53.322808  7104 layer_factory.hpp:77] Creating layer loss1/relu_fc
I0403 18:32:53.322829  7104 net.cpp:91] Creating Layer loss1/relu_fc
I0403 18:32:53.322849  7104 net.cpp:425] loss1/relu_fc <- loss1/fc
I0403 18:32:53.322871  7104 net.cpp:386] loss1/relu_fc -> loss1/fc (in-place)
I0403 18:32:53.323077  7104 net.cpp:141] Setting up loss1/relu_fc
I0403 18:32:53.323106  7104 net.cpp:148] Top shape: 24 1024 (24576)
I0403 18:32:53.323122  7104 net.cpp:156] Memory required for data: 946091040
I0403 18:32:53.323139  7104 layer_factory.hpp:77] Creating layer loss1/drop_fc
I0403 18:32:53.323171  7104 net.cpp:91] Creating Layer loss1/drop_fc
I0403 18:32:53.323192  7104 net.cpp:425] loss1/drop_fc <- loss1/fc
I0403 18:32:53.323211  7104 net.cpp:386] loss1/drop_fc -> loss1/fc (in-place)
I0403 18:32:53.323264  7104 net.cpp:141] Setting up loss1/drop_fc
I0403 18:32:53.323299  7104 net.cpp:148] Top shape: 24 1024 (24576)
I0403 18:32:53.323318  7104 net.cpp:156] Memory required for data: 946189344
I0403 18:32:53.323336  7104 layer_factory.hpp:77] Creating layer loss1/classifier_plantvillage
I0403 18:32:53.323357  7104 net.cpp:91] Creating Layer loss1/classifier_plantvillage
I0403 18:32:53.323376  7104 net.cpp:425] loss1/classifier_plantvillage <- loss1/fc
I0403 18:32:53.323398  7104 net.cpp:399] loss1/classifier_plantvillage -> loss1/classifier_plantvillage
I0403 18:32:53.324378  7104 net.cpp:141] Setting up loss1/classifier_plantvillage
I0403 18:32:53.324409  7104 net.cpp:148] Top shape: 24 38 (912)
I0403 18:32:53.324426  7104 net.cpp:156] Memory required for data: 946192992
I0403 18:32:53.324448  7104 layer_factory.hpp:77] Creating layer loss1/classifier_plantvillage_loss1/classifier_plantvillage_0_split
I0403 18:32:53.324470  7104 net.cpp:91] Creating Layer loss1/classifier_plantvillage_loss1/classifier_plantvillage_0_split
I0403 18:32:53.324491  7104 net.cpp:425] loss1/classifier_plantvillage_loss1/classifier_plantvillage_0_split <- loss1/classifier_plantvillage
I0403 18:32:53.324512  7104 net.cpp:399] loss1/classifier_plantvillage_loss1/classifier_plantvillage_0_split -> loss1/classifier_plantvillage_loss1/classifier_plantvillage_0_split_0
I0403 18:32:53.324532  7104 net.cpp:399] loss1/classifier_plantvillage_loss1/classifier_plantvillage_0_split -> loss1/classifier_plantvillage_loss1/classifier_plantvillage_0_split_1
I0403 18:32:53.324554  7104 net.cpp:399] loss1/classifier_plantvillage_loss1/classifier_plantvillage_0_split -> loss1/classifier_plantvillage_loss1/classifier_plantvillage_0_split_2
I0403 18:32:53.324626  7104 net.cpp:141] Setting up loss1/classifier_plantvillage_loss1/classifier_plantvillage_0_split
I0403 18:32:53.324654  7104 net.cpp:148] Top shape: 24 38 (912)
I0403 18:32:53.324673  7104 net.cpp:148] Top shape: 24 38 (912)
I0403 18:32:53.324690  7104 net.cpp:148] Top shape: 24 38 (912)
I0403 18:32:53.324705  7104 net.cpp:156] Memory required for data: 946203936
I0403 18:32:53.324720  7104 layer_factory.hpp:77] Creating layer inception_4b/1x1
I0403 18:32:53.324741  7104 net.cpp:91] Creating Layer inception_4b/1x1
I0403 18:32:53.324776  7104 net.cpp:425] inception_4b/1x1 <- inception_4a/output_inception_4a/output_0_split_1
I0403 18:32:53.324797  7104 net.cpp:399] inception_4b/1x1 -> inception_4b/1x1
I0403 18:32:53.326527  7104 net.cpp:141] Setting up inception_4b/1x1
I0403 18:32:53.326560  7104 net.cpp:148] Top shape: 24 160 14 14 (752640)
I0403 18:32:53.326578  7104 net.cpp:156] Memory required for data: 949214496
I0403 18:32:53.326599  7104 layer_factory.hpp:77] Creating layer inception_4b/relu_1x1
I0403 18:32:53.326622  7104 net.cpp:91] Creating Layer inception_4b/relu_1x1
I0403 18:32:53.326642  7104 net.cpp:425] inception_4b/relu_1x1 <- inception_4b/1x1
I0403 18:32:53.326660  7104 net.cpp:386] inception_4b/relu_1x1 -> inception_4b/1x1 (in-place)
I0403 18:32:53.326855  7104 net.cpp:141] Setting up inception_4b/relu_1x1
I0403 18:32:53.326885  7104 net.cpp:148] Top shape: 24 160 14 14 (752640)
I0403 18:32:53.326901  7104 net.cpp:156] Memory required for data: 952225056
I0403 18:32:53.326917  7104 layer_factory.hpp:77] Creating layer inception_4b/3x3_reduce
I0403 18:32:53.326941  7104 net.cpp:91] Creating Layer inception_4b/3x3_reduce
I0403 18:32:53.326961  7104 net.cpp:425] inception_4b/3x3_reduce <- inception_4a/output_inception_4a/output_0_split_2
I0403 18:32:53.326982  7104 net.cpp:399] inception_4b/3x3_reduce -> inception_4b/3x3_reduce
I0403 18:32:53.328416  7104 net.cpp:141] Setting up inception_4b/3x3_reduce
I0403 18:32:53.328447  7104 net.cpp:148] Top shape: 24 112 14 14 (526848)
I0403 18:32:53.328466  7104 net.cpp:156] Memory required for data: 954332448
I0403 18:32:53.328490  7104 layer_factory.hpp:77] Creating layer inception_4b/relu_3x3_reduce
I0403 18:32:53.328512  7104 net.cpp:91] Creating Layer inception_4b/relu_3x3_reduce
I0403 18:32:53.328531  7104 net.cpp:425] inception_4b/relu_3x3_reduce <- inception_4b/3x3_reduce
I0403 18:32:53.328548  7104 net.cpp:386] inception_4b/relu_3x3_reduce -> inception_4b/3x3_reduce (in-place)
I0403 18:32:53.328850  7104 net.cpp:141] Setting up inception_4b/relu_3x3_reduce
I0403 18:32:53.328882  7104 net.cpp:148] Top shape: 24 112 14 14 (526848)
I0403 18:32:53.328901  7104 net.cpp:156] Memory required for data: 956439840
I0403 18:32:53.328919  7104 layer_factory.hpp:77] Creating layer inception_4b/3x3
I0403 18:32:53.328943  7104 net.cpp:91] Creating Layer inception_4b/3x3
I0403 18:32:53.328964  7104 net.cpp:425] inception_4b/3x3 <- inception_4b/3x3_reduce
I0403 18:32:53.328984  7104 net.cpp:399] inception_4b/3x3 -> inception_4b/3x3
I0403 18:32:53.332165  7104 net.cpp:141] Setting up inception_4b/3x3
I0403 18:32:53.332197  7104 net.cpp:148] Top shape: 24 224 14 14 (1053696)
I0403 18:32:53.332216  7104 net.cpp:156] Memory required for data: 960654624
I0403 18:32:53.332236  7104 layer_factory.hpp:77] Creating layer inception_4b/relu_3x3
I0403 18:32:53.332255  7104 net.cpp:91] Creating Layer inception_4b/relu_3x3
I0403 18:32:53.332291  7104 net.cpp:425] inception_4b/relu_3x3 <- inception_4b/3x3
I0403 18:32:53.332314  7104 net.cpp:386] inception_4b/relu_3x3 -> inception_4b/3x3 (in-place)
I0403 18:32:53.332509  7104 net.cpp:141] Setting up inception_4b/relu_3x3
I0403 18:32:53.332537  7104 net.cpp:148] Top shape: 24 224 14 14 (1053696)
I0403 18:32:53.332553  7104 net.cpp:156] Memory required for data: 964869408
I0403 18:32:53.332568  7104 layer_factory.hpp:77] Creating layer inception_4b/5x5_reduce
I0403 18:32:53.332592  7104 net.cpp:91] Creating Layer inception_4b/5x5_reduce
I0403 18:32:53.332612  7104 net.cpp:425] inception_4b/5x5_reduce <- inception_4a/output_inception_4a/output_0_split_3
I0403 18:32:53.332635  7104 net.cpp:399] inception_4b/5x5_reduce -> inception_4b/5x5_reduce
I0403 18:32:53.333791  7104 net.cpp:141] Setting up inception_4b/5x5_reduce
I0403 18:32:53.333822  7104 net.cpp:148] Top shape: 24 24 14 14 (112896)
I0403 18:32:53.333840  7104 net.cpp:156] Memory required for data: 965320992
I0403 18:32:53.333861  7104 layer_factory.hpp:77] Creating layer inception_4b/relu_5x5_reduce
I0403 18:32:53.333884  7104 net.cpp:91] Creating Layer inception_4b/relu_5x5_reduce
I0403 18:32:53.333920  7104 net.cpp:425] inception_4b/relu_5x5_reduce <- inception_4b/5x5_reduce
I0403 18:32:53.333940  7104 net.cpp:386] inception_4b/relu_5x5_reduce -> inception_4b/5x5_reduce (in-place)
I0403 18:32:53.334137  7104 net.cpp:141] Setting up inception_4b/relu_5x5_reduce
I0403 18:32:53.334164  7104 net.cpp:148] Top shape: 24 24 14 14 (112896)
I0403 18:32:53.334180  7104 net.cpp:156] Memory required for data: 965772576
I0403 18:32:53.334195  7104 layer_factory.hpp:77] Creating layer inception_4b/5x5
I0403 18:32:53.334219  7104 net.cpp:91] Creating Layer inception_4b/5x5
I0403 18:32:53.334239  7104 net.cpp:425] inception_4b/5x5 <- inception_4b/5x5_reduce
I0403 18:32:53.334262  7104 net.cpp:399] inception_4b/5x5 -> inception_4b/5x5
I0403 18:32:53.335573  7104 net.cpp:141] Setting up inception_4b/5x5
I0403 18:32:53.335605  7104 net.cpp:148] Top shape: 24 64 14 14 (301056)
I0403 18:32:53.335623  7104 net.cpp:156] Memory required for data: 966976800
I0403 18:32:53.335644  7104 layer_factory.hpp:77] Creating layer inception_4b/relu_5x5
I0403 18:32:53.335667  7104 net.cpp:91] Creating Layer inception_4b/relu_5x5
I0403 18:32:53.335688  7104 net.cpp:425] inception_4b/relu_5x5 <- inception_4b/5x5
I0403 18:32:53.335706  7104 net.cpp:386] inception_4b/relu_5x5 -> inception_4b/5x5 (in-place)
I0403 18:32:53.336012  7104 net.cpp:141] Setting up inception_4b/relu_5x5
I0403 18:32:53.336042  7104 net.cpp:148] Top shape: 24 64 14 14 (301056)
I0403 18:32:53.336060  7104 net.cpp:156] Memory required for data: 968181024
I0403 18:32:53.336076  7104 layer_factory.hpp:77] Creating layer inception_4b/pool
I0403 18:32:53.336100  7104 net.cpp:91] Creating Layer inception_4b/pool
I0403 18:32:53.336120  7104 net.cpp:425] inception_4b/pool <- inception_4a/output_inception_4a/output_0_split_4
I0403 18:32:53.336141  7104 net.cpp:399] inception_4b/pool -> inception_4b/pool
I0403 18:32:53.336212  7104 net.cpp:141] Setting up inception_4b/pool
I0403 18:32:53.336237  7104 net.cpp:148] Top shape: 24 512 14 14 (2408448)
I0403 18:32:53.336253  7104 net.cpp:156] Memory required for data: 977814816
I0403 18:32:53.336273  7104 layer_factory.hpp:77] Creating layer inception_4b/pool_proj
I0403 18:32:53.336300  7104 net.cpp:91] Creating Layer inception_4b/pool_proj
I0403 18:32:53.336318  7104 net.cpp:425] inception_4b/pool_proj <- inception_4b/pool
I0403 18:32:53.336340  7104 net.cpp:399] inception_4b/pool_proj -> inception_4b/pool_proj
I0403 18:32:53.337625  7104 net.cpp:141] Setting up inception_4b/pool_proj
I0403 18:32:53.337656  7104 net.cpp:148] Top shape: 24 64 14 14 (301056)
I0403 18:32:53.337679  7104 net.cpp:156] Memory required for data: 979019040
I0403 18:32:53.337702  7104 layer_factory.hpp:77] Creating layer inception_4b/relu_pool_proj
I0403 18:32:53.337721  7104 net.cpp:91] Creating Layer inception_4b/relu_pool_proj
I0403 18:32:53.337738  7104 net.cpp:425] inception_4b/relu_pool_proj <- inception_4b/pool_proj
I0403 18:32:53.337755  7104 net.cpp:386] inception_4b/relu_pool_proj -> inception_4b/pool_proj (in-place)
I0403 18:32:53.337949  7104 net.cpp:141] Setting up inception_4b/relu_pool_proj
I0403 18:32:53.337978  7104 net.cpp:148] Top shape: 24 64 14 14 (301056)
I0403 18:32:53.337995  7104 net.cpp:156] Memory required for data: 980223264
I0403 18:32:53.338011  7104 layer_factory.hpp:77] Creating layer inception_4b/output
I0403 18:32:53.338032  7104 net.cpp:91] Creating Layer inception_4b/output
I0403 18:32:53.338047  7104 net.cpp:425] inception_4b/output <- inception_4b/1x1
I0403 18:32:53.338064  7104 net.cpp:425] inception_4b/output <- inception_4b/3x3
I0403 18:32:53.338083  7104 net.cpp:425] inception_4b/output <- inception_4b/5x5
I0403 18:32:53.338099  7104 net.cpp:425] inception_4b/output <- inception_4b/pool_proj
I0403 18:32:53.338119  7104 net.cpp:399] inception_4b/output -> inception_4b/output
I0403 18:32:53.338168  7104 net.cpp:141] Setting up inception_4b/output
I0403 18:32:53.338193  7104 net.cpp:148] Top shape: 24 512 14 14 (2408448)
I0403 18:32:53.338209  7104 net.cpp:156] Memory required for data: 989857056
I0403 18:32:53.338240  7104 layer_factory.hpp:77] Creating layer inception_4b/output_inception_4b/output_0_split
I0403 18:32:53.338263  7104 net.cpp:91] Creating Layer inception_4b/output_inception_4b/output_0_split
I0403 18:32:53.338284  7104 net.cpp:425] inception_4b/output_inception_4b/output_0_split <- inception_4b/output
I0403 18:32:53.338304  7104 net.cpp:399] inception_4b/output_inception_4b/output_0_split -> inception_4b/output_inception_4b/output_0_split_0
I0403 18:32:53.338325  7104 net.cpp:399] inception_4b/output_inception_4b/output_0_split -> inception_4b/output_inception_4b/output_0_split_1
I0403 18:32:53.338351  7104 net.cpp:399] inception_4b/output_inception_4b/output_0_split -> inception_4b/output_inception_4b/output_0_split_2
I0403 18:32:53.338373  7104 net.cpp:399] inception_4b/output_inception_4b/output_0_split -> inception_4b/output_inception_4b/output_0_split_3
I0403 18:32:53.338465  7104 net.cpp:141] Setting up inception_4b/output_inception_4b/output_0_split
I0403 18:32:53.338492  7104 net.cpp:148] Top shape: 24 512 14 14 (2408448)
I0403 18:32:53.338511  7104 net.cpp:148] Top shape: 24 512 14 14 (2408448)
I0403 18:32:53.338527  7104 net.cpp:148] Top shape: 24 512 14 14 (2408448)
I0403 18:32:53.338544  7104 net.cpp:148] Top shape: 24 512 14 14 (2408448)
I0403 18:32:53.338559  7104 net.cpp:156] Memory required for data: 1028392224
I0403 18:32:53.338577  7104 layer_factory.hpp:77] Creating layer inception_4c/1x1
I0403 18:32:53.338601  7104 net.cpp:91] Creating Layer inception_4c/1x1
I0403 18:32:53.338620  7104 net.cpp:425] inception_4c/1x1 <- inception_4b/output_inception_4b/output_0_split_0
I0403 18:32:53.338644  7104 net.cpp:399] inception_4c/1x1 -> inception_4c/1x1
I0403 18:32:53.340172  7104 net.cpp:141] Setting up inception_4c/1x1
I0403 18:32:53.340206  7104 net.cpp:148] Top shape: 24 128 14 14 (602112)
I0403 18:32:53.340225  7104 net.cpp:156] Memory required for data: 1030800672
I0403 18:32:53.340246  7104 layer_factory.hpp:77] Creating layer inception_4c/relu_1x1
I0403 18:32:53.340267  7104 net.cpp:91] Creating Layer inception_4c/relu_1x1
I0403 18:32:53.340292  7104 net.cpp:425] inception_4c/relu_1x1 <- inception_4c/1x1
I0403 18:32:53.340314  7104 net.cpp:386] inception_4c/relu_1x1 -> inception_4c/1x1 (in-place)
I0403 18:32:53.340507  7104 net.cpp:141] Setting up inception_4c/relu_1x1
I0403 18:32:53.340534  7104 net.cpp:148] Top shape: 24 128 14 14 (602112)
I0403 18:32:53.340549  7104 net.cpp:156] Memory required for data: 1033209120
I0403 18:32:53.340565  7104 layer_factory.hpp:77] Creating layer inception_4c/3x3_reduce
I0403 18:32:53.340590  7104 net.cpp:91] Creating Layer inception_4c/3x3_reduce
I0403 18:32:53.340610  7104 net.cpp:425] inception_4c/3x3_reduce <- inception_4b/output_inception_4b/output_0_split_1
I0403 18:32:53.340633  7104 net.cpp:399] inception_4c/3x3_reduce -> inception_4c/3x3_reduce
I0403 18:32:53.342717  7104 net.cpp:141] Setting up inception_4c/3x3_reduce
I0403 18:32:53.342749  7104 net.cpp:148] Top shape: 24 128 14 14 (602112)
I0403 18:32:53.342768  7104 net.cpp:156] Memory required for data: 1035617568
I0403 18:32:53.342789  7104 layer_factory.hpp:77] Creating layer inception_4c/relu_3x3_reduce
I0403 18:32:53.342811  7104 net.cpp:91] Creating Layer inception_4c/relu_3x3_reduce
I0403 18:32:53.342830  7104 net.cpp:425] inception_4c/relu_3x3_reduce <- inception_4c/3x3_reduce
I0403 18:32:53.342850  7104 net.cpp:386] inception_4c/relu_3x3_reduce -> inception_4c/3x3_reduce (in-place)
I0403 18:32:53.343157  7104 net.cpp:141] Setting up inception_4c/relu_3x3_reduce
I0403 18:32:53.343185  7104 net.cpp:148] Top shape: 24 128 14 14 (602112)
I0403 18:32:53.343201  7104 net.cpp:156] Memory required for data: 1038026016
I0403 18:32:53.343217  7104 layer_factory.hpp:77] Creating layer inception_4c/3x3
I0403 18:32:53.343241  7104 net.cpp:91] Creating Layer inception_4c/3x3
I0403 18:32:53.343261  7104 net.cpp:425] inception_4c/3x3 <- inception_4c/3x3_reduce
I0403 18:32:53.343289  7104 net.cpp:399] inception_4c/3x3 -> inception_4c/3x3
I0403 18:32:53.347121  7104 net.cpp:141] Setting up inception_4c/3x3
I0403 18:32:53.347168  7104 net.cpp:148] Top shape: 24 256 14 14 (1204224)
I0403 18:32:53.347188  7104 net.cpp:156] Memory required for data: 1042842912
I0403 18:32:53.347223  7104 layer_factory.hpp:77] Creating layer inception_4c/relu_3x3
I0403 18:32:53.347249  7104 net.cpp:91] Creating Layer inception_4c/relu_3x3
I0403 18:32:53.347267  7104 net.cpp:425] inception_4c/relu_3x3 <- inception_4c/3x3
I0403 18:32:53.347297  7104 net.cpp:386] inception_4c/relu_3x3 -> inception_4c/3x3 (in-place)
I0403 18:32:53.347506  7104 net.cpp:141] Setting up inception_4c/relu_3x3
I0403 18:32:53.347534  7104 net.cpp:148] Top shape: 24 256 14 14 (1204224)
I0403 18:32:53.347550  7104 net.cpp:156] Memory required for data: 1047659808
I0403 18:32:53.347568  7104 layer_factory.hpp:77] Creating layer inception_4c/5x5_reduce
I0403 18:32:53.347595  7104 net.cpp:91] Creating Layer inception_4c/5x5_reduce
I0403 18:32:53.347616  7104 net.cpp:425] inception_4c/5x5_reduce <- inception_4b/output_inception_4b/output_0_split_2
I0403 18:32:53.347636  7104 net.cpp:399] inception_4c/5x5_reduce -> inception_4c/5x5_reduce
I0403 18:32:53.348800  7104 net.cpp:141] Setting up inception_4c/5x5_reduce
I0403 18:32:53.348832  7104 net.cpp:148] Top shape: 24 24 14 14 (112896)
I0403 18:32:53.348851  7104 net.cpp:156] Memory required for data: 1048111392
I0403 18:32:53.348873  7104 layer_factory.hpp:77] Creating layer inception_4c/relu_5x5_reduce
I0403 18:32:53.348896  7104 net.cpp:91] Creating Layer inception_4c/relu_5x5_reduce
I0403 18:32:53.348915  7104 net.cpp:425] inception_4c/relu_5x5_reduce <- inception_4c/5x5_reduce
I0403 18:32:53.348934  7104 net.cpp:386] inception_4c/relu_5x5_reduce -> inception_4c/5x5_reduce (in-place)
I0403 18:32:53.349130  7104 net.cpp:141] Setting up inception_4c/relu_5x5_reduce
I0403 18:32:53.349162  7104 net.cpp:148] Top shape: 24 24 14 14 (112896)
I0403 18:32:53.349180  7104 net.cpp:156] Memory required for data: 1048562976
I0403 18:32:53.349198  7104 layer_factory.hpp:77] Creating layer inception_4c/5x5
I0403 18:32:53.349221  7104 net.cpp:91] Creating Layer inception_4c/5x5
I0403 18:32:53.349241  7104 net.cpp:425] inception_4c/5x5 <- inception_4c/5x5_reduce
I0403 18:32:53.349264  7104 net.cpp:399] inception_4c/5x5 -> inception_4c/5x5
I0403 18:32:53.350607  7104 net.cpp:141] Setting up inception_4c/5x5
I0403 18:32:53.350642  7104 net.cpp:148] Top shape: 24 64 14 14 (301056)
I0403 18:32:53.350662  7104 net.cpp:156] Memory required for data: 1049767200
I0403 18:32:53.350683  7104 layer_factory.hpp:77] Creating layer inception_4c/relu_5x5
I0403 18:32:53.350703  7104 net.cpp:91] Creating Layer inception_4c/relu_5x5
I0403 18:32:53.350723  7104 net.cpp:425] inception_4c/relu_5x5 <- inception_4c/5x5
I0403 18:32:53.350744  7104 net.cpp:386] inception_4c/relu_5x5 -> inception_4c/5x5 (in-place)
I0403 18:32:53.351057  7104 net.cpp:141] Setting up inception_4c/relu_5x5
I0403 18:32:53.351091  7104 net.cpp:148] Top shape: 24 64 14 14 (301056)
I0403 18:32:53.351109  7104 net.cpp:156] Memory required for data: 1050971424
I0403 18:32:53.351126  7104 layer_factory.hpp:77] Creating layer inception_4c/pool
I0403 18:32:53.351147  7104 net.cpp:91] Creating Layer inception_4c/pool
I0403 18:32:53.351164  7104 net.cpp:425] inception_4c/pool <- inception_4b/output_inception_4b/output_0_split_3
I0403 18:32:53.351191  7104 net.cpp:399] inception_4c/pool -> inception_4c/pool
I0403 18:32:53.351263  7104 net.cpp:141] Setting up inception_4c/pool
I0403 18:32:53.351300  7104 net.cpp:148] Top shape: 24 512 14 14 (2408448)
I0403 18:32:53.351320  7104 net.cpp:156] Memory required for data: 1060605216
I0403 18:32:53.351335  7104 layer_factory.hpp:77] Creating layer inception_4c/pool_proj
I0403 18:32:53.351356  7104 net.cpp:91] Creating Layer inception_4c/pool_proj
I0403 18:32:53.351375  7104 net.cpp:425] inception_4c/pool_proj <- inception_4c/pool
I0403 18:32:53.351399  7104 net.cpp:399] inception_4c/pool_proj -> inception_4c/pool_proj
I0403 18:32:53.352721  7104 net.cpp:141] Setting up inception_4c/pool_proj
I0403 18:32:53.352753  7104 net.cpp:148] Top shape: 24 64 14 14 (301056)
I0403 18:32:53.352787  7104 net.cpp:156] Memory required for data: 1061809440
I0403 18:32:53.352807  7104 layer_factory.hpp:77] Creating layer inception_4c/relu_pool_proj
I0403 18:32:53.352829  7104 net.cpp:91] Creating Layer inception_4c/relu_pool_proj
I0403 18:32:53.352849  7104 net.cpp:425] inception_4c/relu_pool_proj <- inception_4c/pool_proj
I0403 18:32:53.352869  7104 net.cpp:386] inception_4c/relu_pool_proj -> inception_4c/pool_proj (in-place)
I0403 18:32:53.353066  7104 net.cpp:141] Setting up inception_4c/relu_pool_proj
I0403 18:32:53.353094  7104 net.cpp:148] Top shape: 24 64 14 14 (301056)
I0403 18:32:53.353111  7104 net.cpp:156] Memory required for data: 1063013664
I0403 18:32:53.353127  7104 layer_factory.hpp:77] Creating layer inception_4c/output
I0403 18:32:53.353145  7104 net.cpp:91] Creating Layer inception_4c/output
I0403 18:32:53.353162  7104 net.cpp:425] inception_4c/output <- inception_4c/1x1
I0403 18:32:53.353179  7104 net.cpp:425] inception_4c/output <- inception_4c/3x3
I0403 18:32:53.353196  7104 net.cpp:425] inception_4c/output <- inception_4c/5x5
I0403 18:32:53.353212  7104 net.cpp:425] inception_4c/output <- inception_4c/pool_proj
I0403 18:32:53.353232  7104 net.cpp:399] inception_4c/output -> inception_4c/output
I0403 18:32:53.353286  7104 net.cpp:141] Setting up inception_4c/output
I0403 18:32:53.353312  7104 net.cpp:148] Top shape: 24 512 14 14 (2408448)
I0403 18:32:53.353327  7104 net.cpp:156] Memory required for data: 1072647456
I0403 18:32:53.353343  7104 layer_factory.hpp:77] Creating layer inception_4c/output_inception_4c/output_0_split
I0403 18:32:53.353363  7104 net.cpp:91] Creating Layer inception_4c/output_inception_4c/output_0_split
I0403 18:32:53.353380  7104 net.cpp:425] inception_4c/output_inception_4c/output_0_split <- inception_4c/output
I0403 18:32:53.353399  7104 net.cpp:399] inception_4c/output_inception_4c/output_0_split -> inception_4c/output_inception_4c/output_0_split_0
I0403 18:32:53.353420  7104 net.cpp:399] inception_4c/output_inception_4c/output_0_split -> inception_4c/output_inception_4c/output_0_split_1
I0403 18:32:53.353446  7104 net.cpp:399] inception_4c/output_inception_4c/output_0_split -> inception_4c/output_inception_4c/output_0_split_2
I0403 18:32:53.353468  7104 net.cpp:399] inception_4c/output_inception_4c/output_0_split -> inception_4c/output_inception_4c/output_0_split_3
I0403 18:32:53.353560  7104 net.cpp:141] Setting up inception_4c/output_inception_4c/output_0_split
I0403 18:32:53.353585  7104 net.cpp:148] Top shape: 24 512 14 14 (2408448)
I0403 18:32:53.353602  7104 net.cpp:148] Top shape: 24 512 14 14 (2408448)
I0403 18:32:53.353618  7104 net.cpp:148] Top shape: 24 512 14 14 (2408448)
I0403 18:32:53.353636  7104 net.cpp:148] Top shape: 24 512 14 14 (2408448)
I0403 18:32:53.353651  7104 net.cpp:156] Memory required for data: 1111182624
I0403 18:32:53.353667  7104 layer_factory.hpp:77] Creating layer inception_4d/1x1
I0403 18:32:53.353690  7104 net.cpp:91] Creating Layer inception_4d/1x1
I0403 18:32:53.353708  7104 net.cpp:425] inception_4d/1x1 <- inception_4c/output_inception_4c/output_0_split_0
I0403 18:32:53.353730  7104 net.cpp:399] inception_4d/1x1 -> inception_4d/1x1
I0403 18:32:53.355198  7104 net.cpp:141] Setting up inception_4d/1x1
I0403 18:32:53.355231  7104 net.cpp:148] Top shape: 24 112 14 14 (526848)
I0403 18:32:53.355250  7104 net.cpp:156] Memory required for data: 1113290016
I0403 18:32:53.355274  7104 layer_factory.hpp:77] Creating layer inception_4d/relu_1x1
I0403 18:32:53.355298  7104 net.cpp:91] Creating Layer inception_4d/relu_1x1
I0403 18:32:53.355316  7104 net.cpp:425] inception_4d/relu_1x1 <- inception_4d/1x1
I0403 18:32:53.355335  7104 net.cpp:386] inception_4d/relu_1x1 -> inception_4d/1x1 (in-place)
I0403 18:32:53.355535  7104 net.cpp:141] Setting up inception_4d/relu_1x1
I0403 18:32:53.355564  7104 net.cpp:148] Top shape: 24 112 14 14 (526848)
I0403 18:32:53.355581  7104 net.cpp:156] Memory required for data: 1115397408
I0403 18:32:53.355597  7104 layer_factory.hpp:77] Creating layer inception_4d/3x3_reduce
I0403 18:32:53.355636  7104 net.cpp:91] Creating Layer inception_4d/3x3_reduce
I0403 18:32:53.355659  7104 net.cpp:425] inception_4d/3x3_reduce <- inception_4c/output_inception_4c/output_0_split_1
I0403 18:32:53.355680  7104 net.cpp:399] inception_4d/3x3_reduce -> inception_4d/3x3_reduce
I0403 18:32:53.357295  7104 net.cpp:141] Setting up inception_4d/3x3_reduce
I0403 18:32:53.357326  7104 net.cpp:148] Top shape: 24 144 14 14 (677376)
I0403 18:32:53.357344  7104 net.cpp:156] Memory required for data: 1118106912
I0403 18:32:53.357364  7104 layer_factory.hpp:77] Creating layer inception_4d/relu_3x3_reduce
I0403 18:32:53.357383  7104 net.cpp:91] Creating Layer inception_4d/relu_3x3_reduce
I0403 18:32:53.357399  7104 net.cpp:425] inception_4d/relu_3x3_reduce <- inception_4d/3x3_reduce
I0403 18:32:53.357419  7104 net.cpp:386] inception_4d/relu_3x3_reduce -> inception_4d/3x3_reduce (in-place)
I0403 18:32:53.357728  7104 net.cpp:141] Setting up inception_4d/relu_3x3_reduce
I0403 18:32:53.357756  7104 net.cpp:148] Top shape: 24 144 14 14 (677376)
I0403 18:32:53.357774  7104 net.cpp:156] Memory required for data: 1120816416
I0403 18:32:53.357789  7104 layer_factory.hpp:77] Creating layer inception_4d/3x3
I0403 18:32:53.357813  7104 net.cpp:91] Creating Layer inception_4d/3x3
I0403 18:32:53.357832  7104 net.cpp:425] inception_4d/3x3 <- inception_4d/3x3_reduce
I0403 18:32:53.357854  7104 net.cpp:399] inception_4d/3x3 -> inception_4d/3x3
I0403 18:32:53.362408  7104 net.cpp:141] Setting up inception_4d/3x3
I0403 18:32:53.362443  7104 net.cpp:148] Top shape: 24 288 14 14 (1354752)
I0403 18:32:53.362462  7104 net.cpp:156] Memory required for data: 1126235424
I0403 18:32:53.362483  7104 layer_factory.hpp:77] Creating layer inception_4d/relu_3x3
I0403 18:32:53.362505  7104 net.cpp:91] Creating Layer inception_4d/relu_3x3
I0403 18:32:53.362524  7104 net.cpp:425] inception_4d/relu_3x3 <- inception_4d/3x3
I0403 18:32:53.362543  7104 net.cpp:386] inception_4d/relu_3x3 -> inception_4d/3x3 (in-place)
I0403 18:32:53.362741  7104 net.cpp:141] Setting up inception_4d/relu_3x3
I0403 18:32:53.362771  7104 net.cpp:148] Top shape: 24 288 14 14 (1354752)
I0403 18:32:53.362787  7104 net.cpp:156] Memory required for data: 1131654432
I0403 18:32:53.362803  7104 layer_factory.hpp:77] Creating layer inception_4d/5x5_reduce
I0403 18:32:53.362825  7104 net.cpp:91] Creating Layer inception_4d/5x5_reduce
I0403 18:32:53.362843  7104 net.cpp:425] inception_4d/5x5_reduce <- inception_4c/output_inception_4c/output_0_split_2
I0403 18:32:53.362865  7104 net.cpp:399] inception_4d/5x5_reduce -> inception_4d/5x5_reduce
I0403 18:32:53.364097  7104 net.cpp:141] Setting up inception_4d/5x5_reduce
I0403 18:32:53.364128  7104 net.cpp:148] Top shape: 24 32 14 14 (150528)
I0403 18:32:53.364147  7104 net.cpp:156] Memory required for data: 1132256544
I0403 18:32:53.364167  7104 layer_factory.hpp:77] Creating layer inception_4d/relu_5x5_reduce
I0403 18:32:53.364189  7104 net.cpp:91] Creating Layer inception_4d/relu_5x5_reduce
I0403 18:32:53.364207  7104 net.cpp:425] inception_4d/relu_5x5_reduce <- inception_4d/5x5_reduce
I0403 18:32:53.364225  7104 net.cpp:386] inception_4d/relu_5x5_reduce -> inception_4d/5x5_reduce (in-place)
I0403 18:32:53.364435  7104 net.cpp:141] Setting up inception_4d/relu_5x5_reduce
I0403 18:32:53.364462  7104 net.cpp:148] Top shape: 24 32 14 14 (150528)
I0403 18:32:53.364478  7104 net.cpp:156] Memory required for data: 1132858656
I0403 18:32:53.364495  7104 layer_factory.hpp:77] Creating layer inception_4d/5x5
I0403 18:32:53.364518  7104 net.cpp:91] Creating Layer inception_4d/5x5
I0403 18:32:53.364538  7104 net.cpp:425] inception_4d/5x5 <- inception_4d/5x5_reduce
I0403 18:32:53.364558  7104 net.cpp:399] inception_4d/5x5 -> inception_4d/5x5
I0403 18:32:53.366135  7104 net.cpp:141] Setting up inception_4d/5x5
I0403 18:32:53.366168  7104 net.cpp:148] Top shape: 24 64 14 14 (301056)
I0403 18:32:53.366189  7104 net.cpp:156] Memory required for data: 1134062880
I0403 18:32:53.366210  7104 layer_factory.hpp:77] Creating layer inception_4d/relu_5x5
I0403 18:32:53.366248  7104 net.cpp:91] Creating Layer inception_4d/relu_5x5
I0403 18:32:53.366267  7104 net.cpp:425] inception_4d/relu_5x5 <- inception_4d/5x5
I0403 18:32:53.366296  7104 net.cpp:386] inception_4d/relu_5x5 -> inception_4d/5x5 (in-place)
I0403 18:32:53.366621  7104 net.cpp:141] Setting up inception_4d/relu_5x5
I0403 18:32:53.366653  7104 net.cpp:148] Top shape: 24 64 14 14 (301056)
I0403 18:32:53.366672  7104 net.cpp:156] Memory required for data: 1135267104
I0403 18:32:53.366689  7104 layer_factory.hpp:77] Creating layer inception_4d/pool
I0403 18:32:53.366709  7104 net.cpp:91] Creating Layer inception_4d/pool
I0403 18:32:53.366726  7104 net.cpp:425] inception_4d/pool <- inception_4c/output_inception_4c/output_0_split_3
I0403 18:32:53.366749  7104 net.cpp:399] inception_4d/pool -> inception_4d/pool
I0403 18:32:53.366823  7104 net.cpp:141] Setting up inception_4d/pool
I0403 18:32:53.366850  7104 net.cpp:148] Top shape: 24 512 14 14 (2408448)
I0403 18:32:53.366868  7104 net.cpp:156] Memory required for data: 1144900896
I0403 18:32:53.366883  7104 layer_factory.hpp:77] Creating layer inception_4d/pool_proj
I0403 18:32:53.366909  7104 net.cpp:91] Creating Layer inception_4d/pool_proj
I0403 18:32:53.366926  7104 net.cpp:425] inception_4d/pool_proj <- inception_4d/pool
I0403 18:32:53.366948  7104 net.cpp:399] inception_4d/pool_proj -> inception_4d/pool_proj
I0403 18:32:53.368839  7104 net.cpp:141] Setting up inception_4d/pool_proj
I0403 18:32:53.368871  7104 net.cpp:148] Top shape: 24 64 14 14 (301056)
I0403 18:32:53.368890  7104 net.cpp:156] Memory required for data: 1146105120
I0403 18:32:53.368909  7104 layer_factory.hpp:77] Creating layer inception_4d/relu_pool_proj
I0403 18:32:53.368932  7104 net.cpp:91] Creating Layer inception_4d/relu_pool_proj
I0403 18:32:53.368952  7104 net.cpp:425] inception_4d/relu_pool_proj <- inception_4d/pool_proj
I0403 18:32:53.368970  7104 net.cpp:386] inception_4d/relu_pool_proj -> inception_4d/pool_proj (in-place)
I0403 18:32:53.369170  7104 net.cpp:141] Setting up inception_4d/relu_pool_proj
I0403 18:32:53.369199  7104 net.cpp:148] Top shape: 24 64 14 14 (301056)
I0403 18:32:53.369216  7104 net.cpp:156] Memory required for data: 1147309344
I0403 18:32:53.369232  7104 layer_factory.hpp:77] Creating layer inception_4d/output
I0403 18:32:53.369251  7104 net.cpp:91] Creating Layer inception_4d/output
I0403 18:32:53.369266  7104 net.cpp:425] inception_4d/output <- inception_4d/1x1
I0403 18:32:53.369288  7104 net.cpp:425] inception_4d/output <- inception_4d/3x3
I0403 18:32:53.369307  7104 net.cpp:425] inception_4d/output <- inception_4d/5x5
I0403 18:32:53.369323  7104 net.cpp:425] inception_4d/output <- inception_4d/pool_proj
I0403 18:32:53.369341  7104 net.cpp:399] inception_4d/output -> inception_4d/output
I0403 18:32:53.369395  7104 net.cpp:141] Setting up inception_4d/output
I0403 18:32:53.369420  7104 net.cpp:148] Top shape: 24 528 14 14 (2483712)
I0403 18:32:53.369434  7104 net.cpp:156] Memory required for data: 1157244192
I0403 18:32:53.369451  7104 layer_factory.hpp:77] Creating layer inception_4d/output_inception_4d/output_0_split
I0403 18:32:53.369472  7104 net.cpp:91] Creating Layer inception_4d/output_inception_4d/output_0_split
I0403 18:32:53.369490  7104 net.cpp:425] inception_4d/output_inception_4d/output_0_split <- inception_4d/output
I0403 18:32:53.369509  7104 net.cpp:399] inception_4d/output_inception_4d/output_0_split -> inception_4d/output_inception_4d/output_0_split_0
I0403 18:32:53.369530  7104 net.cpp:399] inception_4d/output_inception_4d/output_0_split -> inception_4d/output_inception_4d/output_0_split_1
I0403 18:32:53.369552  7104 net.cpp:399] inception_4d/output_inception_4d/output_0_split -> inception_4d/output_inception_4d/output_0_split_2
I0403 18:32:53.369575  7104 net.cpp:399] inception_4d/output_inception_4d/output_0_split -> inception_4d/output_inception_4d/output_0_split_3
I0403 18:32:53.369598  7104 net.cpp:399] inception_4d/output_inception_4d/output_0_split -> inception_4d/output_inception_4d/output_0_split_4
I0403 18:32:53.369711  7104 net.cpp:141] Setting up inception_4d/output_inception_4d/output_0_split
I0403 18:32:53.369750  7104 net.cpp:148] Top shape: 24 528 14 14 (2483712)
I0403 18:32:53.369767  7104 net.cpp:148] Top shape: 24 528 14 14 (2483712)
I0403 18:32:53.369784  7104 net.cpp:148] Top shape: 24 528 14 14 (2483712)
I0403 18:32:53.369801  7104 net.cpp:148] Top shape: 24 528 14 14 (2483712)
I0403 18:32:53.369817  7104 net.cpp:148] Top shape: 24 528 14 14 (2483712)
I0403 18:32:53.369833  7104 net.cpp:156] Memory required for data: 1206918432
I0403 18:32:53.369848  7104 layer_factory.hpp:77] Creating layer loss2/ave_pool
I0403 18:32:53.369866  7104 net.cpp:91] Creating Layer loss2/ave_pool
I0403 18:32:53.369884  7104 net.cpp:425] loss2/ave_pool <- inception_4d/output_inception_4d/output_0_split_0
I0403 18:32:53.369905  7104 net.cpp:399] loss2/ave_pool -> loss2/ave_pool
I0403 18:32:53.370239  7104 net.cpp:141] Setting up loss2/ave_pool
I0403 18:32:53.370268  7104 net.cpp:148] Top shape: 24 528 4 4 (202752)
I0403 18:32:53.370290  7104 net.cpp:156] Memory required for data: 1207729440
I0403 18:32:53.370306  7104 layer_factory.hpp:77] Creating layer loss2/conv
I0403 18:32:53.370329  7104 net.cpp:91] Creating Layer loss2/conv
I0403 18:32:53.370349  7104 net.cpp:425] loss2/conv <- loss2/ave_pool
I0403 18:32:53.370371  7104 net.cpp:399] loss2/conv -> loss2/conv
I0403 18:32:53.372422  7104 net.cpp:141] Setting up loss2/conv
I0403 18:32:53.372457  7104 net.cpp:148] Top shape: 24 128 4 4 (49152)
I0403 18:32:53.372475  7104 net.cpp:156] Memory required for data: 1207926048
I0403 18:32:53.372494  7104 layer_factory.hpp:77] Creating layer loss2/relu_conv
I0403 18:32:53.372515  7104 net.cpp:91] Creating Layer loss2/relu_conv
I0403 18:32:53.372534  7104 net.cpp:425] loss2/relu_conv <- loss2/conv
I0403 18:32:53.372551  7104 net.cpp:386] loss2/relu_conv -> loss2/conv (in-place)
I0403 18:32:53.372859  7104 net.cpp:141] Setting up loss2/relu_conv
I0403 18:32:53.372890  7104 net.cpp:148] Top shape: 24 128 4 4 (49152)
I0403 18:32:53.372907  7104 net.cpp:156] Memory required for data: 1208122656
I0403 18:32:53.372925  7104 layer_factory.hpp:77] Creating layer loss2/fc
I0403 18:32:53.372944  7104 net.cpp:91] Creating Layer loss2/fc
I0403 18:32:53.372961  7104 net.cpp:425] loss2/fc <- loss2/conv
I0403 18:32:53.372984  7104 net.cpp:399] loss2/fc -> loss2/fc
I0403 18:32:53.392068  7104 net.cpp:141] Setting up loss2/fc
I0403 18:32:53.392115  7104 net.cpp:148] Top shape: 24 1024 (24576)
I0403 18:32:53.392132  7104 net.cpp:156] Memory required for data: 1208220960
I0403 18:32:53.392154  7104 layer_factory.hpp:77] Creating layer loss2/relu_fc
I0403 18:32:53.392176  7104 net.cpp:91] Creating Layer loss2/relu_fc
I0403 18:32:53.392195  7104 net.cpp:425] loss2/relu_fc <- loss2/fc
I0403 18:32:53.392215  7104 net.cpp:386] loss2/relu_fc -> loss2/fc (in-place)
I0403 18:32:53.392567  7104 net.cpp:141] Setting up loss2/relu_fc
I0403 18:32:53.392596  7104 net.cpp:148] Top shape: 24 1024 (24576)
I0403 18:32:53.392612  7104 net.cpp:156] Memory required for data: 1208319264
I0403 18:32:53.392628  7104 layer_factory.hpp:77] Creating layer loss2/drop_fc
I0403 18:32:53.392652  7104 net.cpp:91] Creating Layer loss2/drop_fc
I0403 18:32:53.392669  7104 net.cpp:425] loss2/drop_fc <- loss2/fc
I0403 18:32:53.392688  7104 net.cpp:386] loss2/drop_fc -> loss2/fc (in-place)
I0403 18:32:53.392743  7104 net.cpp:141] Setting up loss2/drop_fc
I0403 18:32:53.392770  7104 net.cpp:148] Top shape: 24 1024 (24576)
I0403 18:32:53.392786  7104 net.cpp:156] Memory required for data: 1208417568
I0403 18:32:53.392802  7104 layer_factory.hpp:77] Creating layer loss2/classifier_plantvillage
I0403 18:32:53.392822  7104 net.cpp:91] Creating Layer loss2/classifier_plantvillage
I0403 18:32:53.392838  7104 net.cpp:425] loss2/classifier_plantvillage <- loss2/fc
I0403 18:32:53.392860  7104 net.cpp:399] loss2/classifier_plantvillage -> loss2/classifier_plantvillage
I0403 18:32:53.393302  7104 net.cpp:141] Setting up loss2/classifier_plantvillage
I0403 18:32:53.393331  7104 net.cpp:148] Top shape: 24 38 (912)
I0403 18:32:53.393368  7104 net.cpp:156] Memory required for data: 1208421216
I0403 18:32:53.393389  7104 layer_factory.hpp:77] Creating layer loss2/classifier_plantvillage_loss2/classifier_plantvillage_0_split
I0403 18:32:53.393409  7104 net.cpp:91] Creating Layer loss2/classifier_plantvillage_loss2/classifier_plantvillage_0_split
I0403 18:32:53.393427  7104 net.cpp:425] loss2/classifier_plantvillage_loss2/classifier_plantvillage_0_split <- loss2/classifier_plantvillage
I0403 18:32:53.393448  7104 net.cpp:399] loss2/classifier_plantvillage_loss2/classifier_plantvillage_0_split -> loss2/classifier_plantvillage_loss2/classifier_plantvillage_0_split_0
I0403 18:32:53.393473  7104 net.cpp:399] loss2/classifier_plantvillage_loss2/classifier_plantvillage_0_split -> loss2/classifier_plantvillage_loss2/classifier_plantvillage_0_split_1
I0403 18:32:53.393497  7104 net.cpp:399] loss2/classifier_plantvillage_loss2/classifier_plantvillage_0_split -> loss2/classifier_plantvillage_loss2/classifier_plantvillage_0_split_2
I0403 18:32:53.393581  7104 net.cpp:141] Setting up loss2/classifier_plantvillage_loss2/classifier_plantvillage_0_split
I0403 18:32:53.393610  7104 net.cpp:148] Top shape: 24 38 (912)
I0403 18:32:53.393627  7104 net.cpp:148] Top shape: 24 38 (912)
I0403 18:32:53.393645  7104 net.cpp:148] Top shape: 24 38 (912)
I0403 18:32:53.393659  7104 net.cpp:156] Memory required for data: 1208432160
I0403 18:32:53.393676  7104 layer_factory.hpp:77] Creating layer inception_4e/1x1
I0403 18:32:53.393698  7104 net.cpp:91] Creating Layer inception_4e/1x1
I0403 18:32:53.393717  7104 net.cpp:425] inception_4e/1x1 <- inception_4d/output_inception_4d/output_0_split_1
I0403 18:32:53.393739  7104 net.cpp:399] inception_4e/1x1 -> inception_4e/1x1
I0403 18:32:53.395717  7104 net.cpp:141] Setting up inception_4e/1x1
I0403 18:32:53.395752  7104 net.cpp:148] Top shape: 24 256 14 14 (1204224)
I0403 18:32:53.395771  7104 net.cpp:156] Memory required for data: 1213249056
I0403 18:32:53.395792  7104 layer_factory.hpp:77] Creating layer inception_4e/relu_1x1
I0403 18:32:53.395812  7104 net.cpp:91] Creating Layer inception_4e/relu_1x1
I0403 18:32:53.395828  7104 net.cpp:425] inception_4e/relu_1x1 <- inception_4e/1x1
I0403 18:32:53.395849  7104 net.cpp:386] inception_4e/relu_1x1 -> inception_4e/1x1 (in-place)
I0403 18:32:53.396173  7104 net.cpp:141] Setting up inception_4e/relu_1x1
I0403 18:32:53.396204  7104 net.cpp:148] Top shape: 24 256 14 14 (1204224)
I0403 18:32:53.396222  7104 net.cpp:156] Memory required for data: 1218065952
I0403 18:32:53.396239  7104 layer_factory.hpp:77] Creating layer inception_4e/3x3_reduce
I0403 18:32:53.396266  7104 net.cpp:91] Creating Layer inception_4e/3x3_reduce
I0403 18:32:53.396291  7104 net.cpp:425] inception_4e/3x3_reduce <- inception_4d/output_inception_4d/output_0_split_2
I0403 18:32:53.396312  7104 net.cpp:399] inception_4e/3x3_reduce -> inception_4e/3x3_reduce
I0403 18:32:53.398627  7104 net.cpp:141] Setting up inception_4e/3x3_reduce
I0403 18:32:53.398663  7104 net.cpp:148] Top shape: 24 160 14 14 (752640)
I0403 18:32:53.398680  7104 net.cpp:156] Memory required for data: 1221076512
I0403 18:32:53.398701  7104 layer_factory.hpp:77] Creating layer inception_4e/relu_3x3_reduce
I0403 18:32:53.398720  7104 net.cpp:91] Creating Layer inception_4e/relu_3x3_reduce
I0403 18:32:53.398739  7104 net.cpp:425] inception_4e/relu_3x3_reduce <- inception_4e/3x3_reduce
I0403 18:32:53.398758  7104 net.cpp:386] inception_4e/relu_3x3_reduce -> inception_4e/3x3_reduce (in-place)
I0403 18:32:53.398960  7104 net.cpp:141] Setting up inception_4e/relu_3x3_reduce
I0403 18:32:53.398991  7104 net.cpp:148] Top shape: 24 160 14 14 (752640)
I0403 18:32:53.399009  7104 net.cpp:156] Memory required for data: 1224087072
I0403 18:32:53.399026  7104 layer_factory.hpp:77] Creating layer inception_4e/3x3
I0403 18:32:53.399051  7104 net.cpp:91] Creating Layer inception_4e/3x3
I0403 18:32:53.399070  7104 net.cpp:425] inception_4e/3x3 <- inception_4e/3x3_reduce
I0403 18:32:53.399096  7104 net.cpp:399] inception_4e/3x3 -> inception_4e/3x3
I0403 18:32:53.404495  7104 net.cpp:141] Setting up inception_4e/3x3
I0403 18:32:53.404544  7104 net.cpp:148] Top shape: 24 320 14 14 (1505280)
I0403 18:32:53.404563  7104 net.cpp:156] Memory required for data: 1230108192
I0403 18:32:53.404584  7104 layer_factory.hpp:77] Creating layer inception_4e/relu_3x3
I0403 18:32:53.404603  7104 net.cpp:91] Creating Layer inception_4e/relu_3x3
I0403 18:32:53.404620  7104 net.cpp:425] inception_4e/relu_3x3 <- inception_4e/3x3
I0403 18:32:53.404642  7104 net.cpp:386] inception_4e/relu_3x3 -> inception_4e/3x3 (in-place)
I0403 18:32:53.404963  7104 net.cpp:141] Setting up inception_4e/relu_3x3
I0403 18:32:53.404990  7104 net.cpp:148] Top shape: 24 320 14 14 (1505280)
I0403 18:32:53.405006  7104 net.cpp:156] Memory required for data: 1236129312
I0403 18:32:53.405022  7104 layer_factory.hpp:77] Creating layer inception_4e/5x5_reduce
I0403 18:32:53.405046  7104 net.cpp:91] Creating Layer inception_4e/5x5_reduce
I0403 18:32:53.405066  7104 net.cpp:425] inception_4e/5x5_reduce <- inception_4d/output_inception_4d/output_0_split_3
I0403 18:32:53.405089  7104 net.cpp:399] inception_4e/5x5_reduce -> inception_4e/5x5_reduce
I0403 18:32:53.406244  7104 net.cpp:141] Setting up inception_4e/5x5_reduce
I0403 18:32:53.406280  7104 net.cpp:148] Top shape: 24 32 14 14 (150528)
I0403 18:32:53.406301  7104 net.cpp:156] Memory required for data: 1236731424
I0403 18:32:53.406322  7104 layer_factory.hpp:77] Creating layer inception_4e/relu_5x5_reduce
I0403 18:32:53.406343  7104 net.cpp:91] Creating Layer inception_4e/relu_5x5_reduce
I0403 18:32:53.406361  7104 net.cpp:425] inception_4e/relu_5x5_reduce <- inception_4e/5x5_reduce
I0403 18:32:53.406383  7104 net.cpp:386] inception_4e/relu_5x5_reduce -> inception_4e/5x5_reduce (in-place)
I0403 18:32:53.406699  7104 net.cpp:141] Setting up inception_4e/relu_5x5_reduce
I0403 18:32:53.406728  7104 net.cpp:148] Top shape: 24 32 14 14 (150528)
I0403 18:32:53.406745  7104 net.cpp:156] Memory required for data: 1237333536
I0403 18:32:53.406762  7104 layer_factory.hpp:77] Creating layer inception_4e/5x5
I0403 18:32:53.406808  7104 net.cpp:91] Creating Layer inception_4e/5x5
I0403 18:32:53.406831  7104 net.cpp:425] inception_4e/5x5 <- inception_4e/5x5_reduce
I0403 18:32:53.406852  7104 net.cpp:399] inception_4e/5x5 -> inception_4e/5x5
I0403 18:32:53.408812  7104 net.cpp:141] Setting up inception_4e/5x5
I0403 18:32:53.408844  7104 net.cpp:148] Top shape: 24 128 14 14 (602112)
I0403 18:32:53.408861  7104 net.cpp:156] Memory required for data: 1239741984
I0403 18:32:53.408881  7104 layer_factory.hpp:77] Creating layer inception_4e/relu_5x5
I0403 18:32:53.408902  7104 net.cpp:91] Creating Layer inception_4e/relu_5x5
I0403 18:32:53.408921  7104 net.cpp:425] inception_4e/relu_5x5 <- inception_4e/5x5
I0403 18:32:53.408938  7104 net.cpp:386] inception_4e/relu_5x5 -> inception_4e/5x5 (in-place)
I0403 18:32:53.409149  7104 net.cpp:141] Setting up inception_4e/relu_5x5
I0403 18:32:53.409178  7104 net.cpp:148] Top shape: 24 128 14 14 (602112)
I0403 18:32:53.409195  7104 net.cpp:156] Memory required for data: 1242150432
I0403 18:32:53.409211  7104 layer_factory.hpp:77] Creating layer inception_4e/pool
I0403 18:32:53.409231  7104 net.cpp:91] Creating Layer inception_4e/pool
I0403 18:32:53.409248  7104 net.cpp:425] inception_4e/pool <- inception_4d/output_inception_4d/output_0_split_4
I0403 18:32:53.409268  7104 net.cpp:399] inception_4e/pool -> inception_4e/pool
I0403 18:32:53.409350  7104 net.cpp:141] Setting up inception_4e/pool
I0403 18:32:53.409376  7104 net.cpp:148] Top shape: 24 528 14 14 (2483712)
I0403 18:32:53.409391  7104 net.cpp:156] Memory required for data: 1252085280
I0403 18:32:53.409406  7104 layer_factory.hpp:77] Creating layer inception_4e/pool_proj
I0403 18:32:53.409430  7104 net.cpp:91] Creating Layer inception_4e/pool_proj
I0403 18:32:53.409449  7104 net.cpp:425] inception_4e/pool_proj <- inception_4e/pool
I0403 18:32:53.409471  7104 net.cpp:399] inception_4e/pool_proj -> inception_4e/pool_proj
I0403 18:32:53.411088  7104 net.cpp:141] Setting up inception_4e/pool_proj
I0403 18:32:53.411133  7104 net.cpp:148] Top shape: 24 128 14 14 (602112)
I0403 18:32:53.411151  7104 net.cpp:156] Memory required for data: 1254493728
I0403 18:32:53.411171  7104 layer_factory.hpp:77] Creating layer inception_4e/relu_pool_proj
I0403 18:32:53.411192  7104 net.cpp:91] Creating Layer inception_4e/relu_pool_proj
I0403 18:32:53.411211  7104 net.cpp:425] inception_4e/relu_pool_proj <- inception_4e/pool_proj
I0403 18:32:53.411231  7104 net.cpp:386] inception_4e/relu_pool_proj -> inception_4e/pool_proj (in-place)
I0403 18:32:53.411555  7104 net.cpp:141] Setting up inception_4e/relu_pool_proj
I0403 18:32:53.411584  7104 net.cpp:148] Top shape: 24 128 14 14 (602112)
I0403 18:32:53.411602  7104 net.cpp:156] Memory required for data: 1256902176
I0403 18:32:53.411617  7104 layer_factory.hpp:77] Creating layer inception_4e/output
I0403 18:32:53.411636  7104 net.cpp:91] Creating Layer inception_4e/output
I0403 18:32:53.411653  7104 net.cpp:425] inception_4e/output <- inception_4e/1x1
I0403 18:32:53.411670  7104 net.cpp:425] inception_4e/output <- inception_4e/3x3
I0403 18:32:53.411687  7104 net.cpp:425] inception_4e/output <- inception_4e/5x5
I0403 18:32:53.411705  7104 net.cpp:425] inception_4e/output <- inception_4e/pool_proj
I0403 18:32:53.411725  7104 net.cpp:399] inception_4e/output -> inception_4e/output
I0403 18:32:53.411779  7104 net.cpp:141] Setting up inception_4e/output
I0403 18:32:53.411804  7104 net.cpp:148] Top shape: 24 832 14 14 (3913728)
I0403 18:32:53.411820  7104 net.cpp:156] Memory required for data: 1272557088
I0403 18:32:53.411836  7104 layer_factory.hpp:77] Creating layer pool4/3x3_s2
I0403 18:32:53.411854  7104 net.cpp:91] Creating Layer pool4/3x3_s2
I0403 18:32:53.411870  7104 net.cpp:425] pool4/3x3_s2 <- inception_4e/output
I0403 18:32:53.411891  7104 net.cpp:399] pool4/3x3_s2 -> pool4/3x3_s2
I0403 18:32:53.411962  7104 net.cpp:141] Setting up pool4/3x3_s2
I0403 18:32:53.411988  7104 net.cpp:148] Top shape: 24 832 7 7 (978432)
I0403 18:32:53.412003  7104 net.cpp:156] Memory required for data: 1276470816
I0403 18:32:53.412019  7104 layer_factory.hpp:77] Creating layer pool4/3x3_s2_pool4/3x3_s2_0_split
I0403 18:32:53.412040  7104 net.cpp:91] Creating Layer pool4/3x3_s2_pool4/3x3_s2_0_split
I0403 18:32:53.412057  7104 net.cpp:425] pool4/3x3_s2_pool4/3x3_s2_0_split <- pool4/3x3_s2
I0403 18:32:53.412075  7104 net.cpp:399] pool4/3x3_s2_pool4/3x3_s2_0_split -> pool4/3x3_s2_pool4/3x3_s2_0_split_0
I0403 18:32:53.412098  7104 net.cpp:399] pool4/3x3_s2_pool4/3x3_s2_0_split -> pool4/3x3_s2_pool4/3x3_s2_0_split_1
I0403 18:32:53.412122  7104 net.cpp:399] pool4/3x3_s2_pool4/3x3_s2_0_split -> pool4/3x3_s2_pool4/3x3_s2_0_split_2
I0403 18:32:53.412142  7104 net.cpp:399] pool4/3x3_s2_pool4/3x3_s2_0_split -> pool4/3x3_s2_pool4/3x3_s2_0_split_3
I0403 18:32:53.412237  7104 net.cpp:141] Setting up pool4/3x3_s2_pool4/3x3_s2_0_split
I0403 18:32:53.412261  7104 net.cpp:148] Top shape: 24 832 7 7 (978432)
I0403 18:32:53.412292  7104 net.cpp:148] Top shape: 24 832 7 7 (978432)
I0403 18:32:53.412310  7104 net.cpp:148] Top shape: 24 832 7 7 (978432)
I0403 18:32:53.412327  7104 net.cpp:148] Top shape: 24 832 7 7 (978432)
I0403 18:32:53.412341  7104 net.cpp:156] Memory required for data: 1292125728
I0403 18:32:53.412358  7104 layer_factory.hpp:77] Creating layer inception_5a/1x1
I0403 18:32:53.412380  7104 net.cpp:91] Creating Layer inception_5a/1x1
I0403 18:32:53.412398  7104 net.cpp:425] inception_5a/1x1 <- pool4/3x3_s2_pool4/3x3_s2_0_split_0
I0403 18:32:53.412420  7104 net.cpp:399] inception_5a/1x1 -> inception_5a/1x1
I0403 18:32:53.415583  7104 net.cpp:141] Setting up inception_5a/1x1
I0403 18:32:53.415616  7104 net.cpp:148] Top shape: 24 256 7 7 (301056)
I0403 18:32:53.415637  7104 net.cpp:156] Memory required for data: 1293329952
I0403 18:32:53.415659  7104 layer_factory.hpp:77] Creating layer inception_5a/relu_1x1
I0403 18:32:53.415678  7104 net.cpp:91] Creating Layer inception_5a/relu_1x1
I0403 18:32:53.415696  7104 net.cpp:425] inception_5a/relu_1x1 <- inception_5a/1x1
I0403 18:32:53.415714  7104 net.cpp:386] inception_5a/relu_1x1 -> inception_5a/1x1 (in-place)
I0403 18:32:53.416049  7104 net.cpp:141] Setting up inception_5a/relu_1x1
I0403 18:32:53.416076  7104 net.cpp:148] Top shape: 24 256 7 7 (301056)
I0403 18:32:53.416095  7104 net.cpp:156] Memory required for data: 1294534176
I0403 18:32:53.416111  7104 layer_factory.hpp:77] Creating layer inception_5a/3x3_reduce
I0403 18:32:53.416132  7104 net.cpp:91] Creating Layer inception_5a/3x3_reduce
I0403 18:32:53.416151  7104 net.cpp:425] inception_5a/3x3_reduce <- pool4/3x3_s2_pool4/3x3_s2_0_split_1
I0403 18:32:53.416174  7104 net.cpp:399] inception_5a/3x3_reduce -> inception_5a/3x3_reduce
I0403 18:32:53.418795  7104 net.cpp:141] Setting up inception_5a/3x3_reduce
I0403 18:32:53.418830  7104 net.cpp:148] Top shape: 24 160 7 7 (188160)
I0403 18:32:53.418848  7104 net.cpp:156] Memory required for data: 1295286816
I0403 18:32:53.418869  7104 layer_factory.hpp:77] Creating layer inception_5a/relu_3x3_reduce
I0403 18:32:53.418889  7104 net.cpp:91] Creating Layer inception_5a/relu_3x3_reduce
I0403 18:32:53.418906  7104 net.cpp:425] inception_5a/relu_3x3_reduce <- inception_5a/3x3_reduce
I0403 18:32:53.418928  7104 net.cpp:386] inception_5a/relu_3x3_reduce -> inception_5a/3x3_reduce (in-place)
I0403 18:32:53.419128  7104 net.cpp:141] Setting up inception_5a/relu_3x3_reduce
I0403 18:32:53.419157  7104 net.cpp:148] Top shape: 24 160 7 7 (188160)
I0403 18:32:53.419172  7104 net.cpp:156] Memory required for data: 1296039456
I0403 18:32:53.419188  7104 layer_factory.hpp:77] Creating layer inception_5a/3x3
I0403 18:32:53.419210  7104 net.cpp:91] Creating Layer inception_5a/3x3
I0403 18:32:53.419230  7104 net.cpp:425] inception_5a/3x3 <- inception_5a/3x3_reduce
I0403 18:32:53.419255  7104 net.cpp:399] inception_5a/3x3 -> inception_5a/3x3
I0403 18:32:53.424644  7104 net.cpp:141] Setting up inception_5a/3x3
I0403 18:32:53.424679  7104 net.cpp:148] Top shape: 24 320 7 7 (376320)
I0403 18:32:53.424696  7104 net.cpp:156] Memory required for data: 1297544736
I0403 18:32:53.424716  7104 layer_factory.hpp:77] Creating layer inception_5a/relu_3x3
I0403 18:32:53.424739  7104 net.cpp:91] Creating Layer inception_5a/relu_3x3
I0403 18:32:53.424758  7104 net.cpp:425] inception_5a/relu_3x3 <- inception_5a/3x3
I0403 18:32:53.424778  7104 net.cpp:386] inception_5a/relu_3x3 -> inception_5a/3x3 (in-place)
I0403 18:32:53.425091  7104 net.cpp:141] Setting up inception_5a/relu_3x3
I0403 18:32:53.425120  7104 net.cpp:148] Top shape: 24 320 7 7 (376320)
I0403 18:32:53.425137  7104 net.cpp:156] Memory required for data: 1299050016
I0403 18:32:53.425153  7104 layer_factory.hpp:77] Creating layer inception_5a/5x5_reduce
I0403 18:32:53.425179  7104 net.cpp:91] Creating Layer inception_5a/5x5_reduce
I0403 18:32:53.425201  7104 net.cpp:425] inception_5a/5x5_reduce <- pool4/3x3_s2_pool4/3x3_s2_0_split_2
I0403 18:32:53.425223  7104 net.cpp:399] inception_5a/5x5_reduce -> inception_5a/5x5_reduce
I0403 18:32:53.426488  7104 net.cpp:141] Setting up inception_5a/5x5_reduce
I0403 18:32:53.426522  7104 net.cpp:148] Top shape: 24 32 7 7 (37632)
I0403 18:32:53.426543  7104 net.cpp:156] Memory required for data: 1299200544
I0403 18:32:53.426565  7104 layer_factory.hpp:77] Creating layer inception_5a/relu_5x5_reduce
I0403 18:32:53.426585  7104 net.cpp:91] Creating Layer inception_5a/relu_5x5_reduce
I0403 18:32:53.426601  7104 net.cpp:425] inception_5a/relu_5x5_reduce <- inception_5a/5x5_reduce
I0403 18:32:53.426620  7104 net.cpp:386] inception_5a/relu_5x5_reduce -> inception_5a/5x5_reduce (in-place)
I0403 18:32:53.426946  7104 net.cpp:141] Setting up inception_5a/relu_5x5_reduce
I0403 18:32:53.426978  7104 net.cpp:148] Top shape: 24 32 7 7 (37632)
I0403 18:32:53.426996  7104 net.cpp:156] Memory required for data: 1299351072
I0403 18:32:53.427014  7104 layer_factory.hpp:77] Creating layer inception_5a/5x5
I0403 18:32:53.427038  7104 net.cpp:91] Creating Layer inception_5a/5x5
I0403 18:32:53.427057  7104 net.cpp:425] inception_5a/5x5 <- inception_5a/5x5_reduce
I0403 18:32:53.427078  7104 net.cpp:399] inception_5a/5x5 -> inception_5a/5x5
I0403 18:32:53.428936  7104 net.cpp:141] Setting up inception_5a/5x5
I0403 18:32:53.428980  7104 net.cpp:148] Top shape: 24 128 7 7 (150528)
I0403 18:32:53.428998  7104 net.cpp:156] Memory required for data: 1299953184
I0403 18:32:53.429018  7104 layer_factory.hpp:77] Creating layer inception_5a/relu_5x5
I0403 18:32:53.429039  7104 net.cpp:91] Creating Layer inception_5a/relu_5x5
I0403 18:32:53.429057  7104 net.cpp:425] inception_5a/relu_5x5 <- inception_5a/5x5
I0403 18:32:53.429076  7104 net.cpp:386] inception_5a/relu_5x5 -> inception_5a/5x5 (in-place)
I0403 18:32:53.429287  7104 net.cpp:141] Setting up inception_5a/relu_5x5
I0403 18:32:53.429321  7104 net.cpp:148] Top shape: 24 128 7 7 (150528)
I0403 18:32:53.429338  7104 net.cpp:156] Memory required for data: 1300555296
I0403 18:32:53.429355  7104 layer_factory.hpp:77] Creating layer inception_5a/pool
I0403 18:32:53.429374  7104 net.cpp:91] Creating Layer inception_5a/pool
I0403 18:32:53.429394  7104 net.cpp:425] inception_5a/pool <- pool4/3x3_s2_pool4/3x3_s2_0_split_3
I0403 18:32:53.429415  7104 net.cpp:399] inception_5a/pool -> inception_5a/pool
I0403 18:32:53.429492  7104 net.cpp:141] Setting up inception_5a/pool
I0403 18:32:53.429519  7104 net.cpp:148] Top shape: 24 832 7 7 (978432)
I0403 18:32:53.429535  7104 net.cpp:156] Memory required for data: 1304469024
I0403 18:32:53.429551  7104 layer_factory.hpp:77] Creating layer inception_5a/pool_proj
I0403 18:32:53.429575  7104 net.cpp:91] Creating Layer inception_5a/pool_proj
I0403 18:32:53.429597  7104 net.cpp:425] inception_5a/pool_proj <- inception_5a/pool
I0403 18:32:53.429618  7104 net.cpp:399] inception_5a/pool_proj -> inception_5a/pool_proj
I0403 18:32:53.432077  7104 net.cpp:141] Setting up inception_5a/pool_proj
I0403 18:32:53.432112  7104 net.cpp:148] Top shape: 24 128 7 7 (150528)
I0403 18:32:53.432132  7104 net.cpp:156] Memory required for data: 1305071136
I0403 18:32:53.432153  7104 layer_factory.hpp:77] Creating layer inception_5a/relu_pool_proj
I0403 18:32:53.432174  7104 net.cpp:91] Creating Layer inception_5a/relu_pool_proj
I0403 18:32:53.432193  7104 net.cpp:425] inception_5a/relu_pool_proj <- inception_5a/pool_proj
I0403 18:32:53.432214  7104 net.cpp:386] inception_5a/relu_pool_proj -> inception_5a/pool_proj (in-place)
I0403 18:32:53.432543  7104 net.cpp:141] Setting up inception_5a/relu_pool_proj
I0403 18:32:53.432574  7104 net.cpp:148] Top shape: 24 128 7 7 (150528)
I0403 18:32:53.432591  7104 net.cpp:156] Memory required for data: 1305673248
I0403 18:32:53.432607  7104 layer_factory.hpp:77] Creating layer inception_5a/output
I0403 18:32:53.432628  7104 net.cpp:91] Creating Layer inception_5a/output
I0403 18:32:53.432646  7104 net.cpp:425] inception_5a/output <- inception_5a/1x1
I0403 18:32:53.432665  7104 net.cpp:425] inception_5a/output <- inception_5a/3x3
I0403 18:32:53.432682  7104 net.cpp:425] inception_5a/output <- inception_5a/5x5
I0403 18:32:53.432699  7104 net.cpp:425] inception_5a/output <- inception_5a/pool_proj
I0403 18:32:53.432718  7104 net.cpp:399] inception_5a/output -> inception_5a/output
I0403 18:32:53.432770  7104 net.cpp:141] Setting up inception_5a/output
I0403 18:32:53.432798  7104 net.cpp:148] Top shape: 24 832 7 7 (978432)
I0403 18:32:53.432816  7104 net.cpp:156] Memory required for data: 1309586976
I0403 18:32:53.432832  7104 layer_factory.hpp:77] Creating layer inception_5a/output_inception_5a/output_0_split
I0403 18:32:53.432850  7104 net.cpp:91] Creating Layer inception_5a/output_inception_5a/output_0_split
I0403 18:32:53.432867  7104 net.cpp:425] inception_5a/output_inception_5a/output_0_split <- inception_5a/output
I0403 18:32:53.432888  7104 net.cpp:399] inception_5a/output_inception_5a/output_0_split -> inception_5a/output_inception_5a/output_0_split_0
I0403 18:32:53.432911  7104 net.cpp:399] inception_5a/output_inception_5a/output_0_split -> inception_5a/output_inception_5a/output_0_split_1
I0403 18:32:53.432934  7104 net.cpp:399] inception_5a/output_inception_5a/output_0_split -> inception_5a/output_inception_5a/output_0_split_2
I0403 18:32:53.432956  7104 net.cpp:399] inception_5a/output_inception_5a/output_0_split -> inception_5a/output_inception_5a/output_0_split_3
I0403 18:32:53.433075  7104 net.cpp:141] Setting up inception_5a/output_inception_5a/output_0_split
I0403 18:32:53.433104  7104 net.cpp:148] Top shape: 24 832 7 7 (978432)
I0403 18:32:53.433122  7104 net.cpp:148] Top shape: 24 832 7 7 (978432)
I0403 18:32:53.433140  7104 net.cpp:148] Top shape: 24 832 7 7 (978432)
I0403 18:32:53.433156  7104 net.cpp:148] Top shape: 24 832 7 7 (978432)
I0403 18:32:53.433171  7104 net.cpp:156] Memory required for data: 1325241888
I0403 18:32:53.433187  7104 layer_factory.hpp:77] Creating layer inception_5b/1x1
I0403 18:32:53.433210  7104 net.cpp:91] Creating Layer inception_5b/1x1
I0403 18:32:53.433230  7104 net.cpp:425] inception_5b/1x1 <- inception_5a/output_inception_5a/output_0_split_0
I0403 18:32:53.433251  7104 net.cpp:399] inception_5b/1x1 -> inception_5b/1x1
I0403 18:32:53.437299  7104 net.cpp:141] Setting up inception_5b/1x1
I0403 18:32:53.437333  7104 net.cpp:148] Top shape: 24 384 7 7 (451584)
I0403 18:32:53.437352  7104 net.cpp:156] Memory required for data: 1327048224
I0403 18:32:53.437373  7104 layer_factory.hpp:77] Creating layer inception_5b/relu_1x1
I0403 18:32:53.437394  7104 net.cpp:91] Creating Layer inception_5b/relu_1x1
I0403 18:32:53.437414  7104 net.cpp:425] inception_5b/relu_1x1 <- inception_5b/1x1
I0403 18:32:53.437435  7104 net.cpp:386] inception_5b/relu_1x1 -> inception_5b/1x1 (in-place)
I0403 18:32:53.437764  7104 net.cpp:141] Setting up inception_5b/relu_1x1
I0403 18:32:53.437794  7104 net.cpp:148] Top shape: 24 384 7 7 (451584)
I0403 18:32:53.437811  7104 net.cpp:156] Memory required for data: 1328854560
I0403 18:32:53.437829  7104 layer_factory.hpp:77] Creating layer inception_5b/3x3_reduce
I0403 18:32:53.437855  7104 net.cpp:91] Creating Layer inception_5b/3x3_reduce
I0403 18:32:53.437876  7104 net.cpp:425] inception_5b/3x3_reduce <- inception_5a/output_inception_5a/output_0_split_1
I0403 18:32:53.437901  7104 net.cpp:399] inception_5b/3x3_reduce -> inception_5b/3x3_reduce
I0403 18:32:53.440776  7104 net.cpp:141] Setting up inception_5b/3x3_reduce
I0403 18:32:53.440811  7104 net.cpp:148] Top shape: 24 192 7 7 (225792)
I0403 18:32:53.440829  7104 net.cpp:156] Memory required for data: 1329757728
I0403 18:32:53.440850  7104 layer_factory.hpp:77] Creating layer inception_5b/relu_3x3_reduce
I0403 18:32:53.440876  7104 net.cpp:91] Creating Layer inception_5b/relu_3x3_reduce
I0403 18:32:53.440896  7104 net.cpp:425] inception_5b/relu_3x3_reduce <- inception_5b/3x3_reduce
I0403 18:32:53.440915  7104 net.cpp:386] inception_5b/relu_3x3_reduce -> inception_5b/3x3_reduce (in-place)
I0403 18:32:53.441123  7104 net.cpp:141] Setting up inception_5b/relu_3x3_reduce
I0403 18:32:53.441150  7104 net.cpp:148] Top shape: 24 192 7 7 (225792)
I0403 18:32:53.441166  7104 net.cpp:156] Memory required for data: 1330660896
I0403 18:32:53.441184  7104 layer_factory.hpp:77] Creating layer inception_5b/3x3
I0403 18:32:53.441210  7104 net.cpp:91] Creating Layer inception_5b/3x3
I0403 18:32:53.441228  7104 net.cpp:425] inception_5b/3x3 <- inception_5b/3x3_reduce
I0403 18:32:53.441248  7104 net.cpp:399] inception_5b/3x3 -> inception_5b/3x3
I0403 18:32:53.448509  7104 net.cpp:141] Setting up inception_5b/3x3
I0403 18:32:53.448547  7104 net.cpp:148] Top shape: 24 384 7 7 (451584)
I0403 18:32:53.448565  7104 net.cpp:156] Memory required for data: 1332467232
I0403 18:32:53.448587  7104 layer_factory.hpp:77] Creating layer inception_5b/relu_3x3
I0403 18:32:53.448609  7104 net.cpp:91] Creating Layer inception_5b/relu_3x3
I0403 18:32:53.448629  7104 net.cpp:425] inception_5b/relu_3x3 <- inception_5b/3x3
I0403 18:32:53.448649  7104 net.cpp:386] inception_5b/relu_3x3 -> inception_5b/3x3 (in-place)
I0403 18:32:53.448972  7104 net.cpp:141] Setting up inception_5b/relu_3x3
I0403 18:32:53.449002  7104 net.cpp:148] Top shape: 24 384 7 7 (451584)
I0403 18:32:53.449021  7104 net.cpp:156] Memory required for data: 1334273568
I0403 18:32:53.449038  7104 layer_factory.hpp:77] Creating layer inception_5b/5x5_reduce
I0403 18:32:53.449084  7104 net.cpp:91] Creating Layer inception_5b/5x5_reduce
I0403 18:32:53.449107  7104 net.cpp:425] inception_5b/5x5_reduce <- inception_5a/output_inception_5a/output_0_split_2
I0403 18:32:53.449132  7104 net.cpp:399] inception_5b/5x5_reduce -> inception_5b/5x5_reduce
I0403 18:32:53.450515  7104 net.cpp:141] Setting up inception_5b/5x5_reduce
I0403 18:32:53.450546  7104 net.cpp:148] Top shape: 24 48 7 7 (56448)
I0403 18:32:53.450565  7104 net.cpp:156] Memory required for data: 1334499360
I0403 18:32:53.450587  7104 layer_factory.hpp:77] Creating layer inception_5b/relu_5x5_reduce
I0403 18:32:53.450608  7104 net.cpp:91] Creating Layer inception_5b/relu_5x5_reduce
I0403 18:32:53.450628  7104 net.cpp:425] inception_5b/relu_5x5_reduce <- inception_5b/5x5_reduce
I0403 18:32:53.450647  7104 net.cpp:386] inception_5b/relu_5x5_reduce -> inception_5b/5x5_reduce (in-place)
I0403 18:32:53.451052  7104 net.cpp:141] Setting up inception_5b/relu_5x5_reduce
I0403 18:32:53.451081  7104 net.cpp:148] Top shape: 24 48 7 7 (56448)
I0403 18:32:53.451097  7104 net.cpp:156] Memory required for data: 1334725152
I0403 18:32:53.451112  7104 layer_factory.hpp:77] Creating layer inception_5b/5x5
I0403 18:32:53.451135  7104 net.cpp:91] Creating Layer inception_5b/5x5
I0403 18:32:53.451154  7104 net.cpp:425] inception_5b/5x5 <- inception_5b/5x5_reduce
I0403 18:32:53.451174  7104 net.cpp:399] inception_5b/5x5 -> inception_5b/5x5
I0403 18:32:53.453429  7104 net.cpp:141] Setting up inception_5b/5x5
I0403 18:32:53.453462  7104 net.cpp:148] Top shape: 24 128 7 7 (150528)
I0403 18:32:53.453480  7104 net.cpp:156] Memory required for data: 1335327264
I0403 18:32:53.453500  7104 layer_factory.hpp:77] Creating layer inception_5b/relu_5x5
I0403 18:32:53.453524  7104 net.cpp:91] Creating Layer inception_5b/relu_5x5
I0403 18:32:53.453543  7104 net.cpp:425] inception_5b/relu_5x5 <- inception_5b/5x5
I0403 18:32:53.453563  7104 net.cpp:386] inception_5b/relu_5x5 -> inception_5b/5x5 (in-place)
I0403 18:32:53.453776  7104 net.cpp:141] Setting up inception_5b/relu_5x5
I0403 18:32:53.453805  7104 net.cpp:148] Top shape: 24 128 7 7 (150528)
I0403 18:32:53.453822  7104 net.cpp:156] Memory required for data: 1335929376
I0403 18:32:53.453840  7104 layer_factory.hpp:77] Creating layer inception_5b/pool
I0403 18:32:53.453858  7104 net.cpp:91] Creating Layer inception_5b/pool
I0403 18:32:53.453876  7104 net.cpp:425] inception_5b/pool <- inception_5a/output_inception_5a/output_0_split_3
I0403 18:32:53.453899  7104 net.cpp:399] inception_5b/pool -> inception_5b/pool
I0403 18:32:53.453977  7104 net.cpp:141] Setting up inception_5b/pool
I0403 18:32:53.454005  7104 net.cpp:148] Top shape: 24 832 7 7 (978432)
I0403 18:32:53.454022  7104 net.cpp:156] Memory required for data: 1339843104
I0403 18:32:53.454037  7104 layer_factory.hpp:77] Creating layer inception_5b/pool_proj
I0403 18:32:53.454061  7104 net.cpp:91] Creating Layer inception_5b/pool_proj
I0403 18:32:53.454078  7104 net.cpp:425] inception_5b/pool_proj <- inception_5b/pool
I0403 18:32:53.454100  7104 net.cpp:399] inception_5b/pool_proj -> inception_5b/pool_proj
I0403 18:32:53.456612  7104 net.cpp:141] Setting up inception_5b/pool_proj
I0403 18:32:53.456648  7104 net.cpp:148] Top shape: 24 128 7 7 (150528)
I0403 18:32:53.456667  7104 net.cpp:156] Memory required for data: 1340445216
I0403 18:32:53.456687  7104 layer_factory.hpp:77] Creating layer inception_5b/relu_pool_proj
I0403 18:32:53.456709  7104 net.cpp:91] Creating Layer inception_5b/relu_pool_proj
I0403 18:32:53.456728  7104 net.cpp:425] inception_5b/relu_pool_proj <- inception_5b/pool_proj
I0403 18:32:53.456748  7104 net.cpp:386] inception_5b/relu_pool_proj -> inception_5b/pool_proj (in-place)
I0403 18:32:53.457072  7104 net.cpp:141] Setting up inception_5b/relu_pool_proj
I0403 18:32:53.457103  7104 net.cpp:148] Top shape: 24 128 7 7 (150528)
I0403 18:32:53.457121  7104 net.cpp:156] Memory required for data: 1341047328
I0403 18:32:53.457137  7104 layer_factory.hpp:77] Creating layer inception_5b/output
I0403 18:32:53.457157  7104 net.cpp:91] Creating Layer inception_5b/output
I0403 18:32:53.457190  7104 net.cpp:425] inception_5b/output <- inception_5b/1x1
I0403 18:32:53.457212  7104 net.cpp:425] inception_5b/output <- inception_5b/3x3
I0403 18:32:53.457232  7104 net.cpp:425] inception_5b/output <- inception_5b/5x5
I0403 18:32:53.457249  7104 net.cpp:425] inception_5b/output <- inception_5b/pool_proj
I0403 18:32:53.457269  7104 net.cpp:399] inception_5b/output -> inception_5b/output
I0403 18:32:53.457335  7104 net.cpp:141] Setting up inception_5b/output
I0403 18:32:53.457360  7104 net.cpp:148] Top shape: 24 1024 7 7 (1204224)
I0403 18:32:53.457376  7104 net.cpp:156] Memory required for data: 1345864224
I0403 18:32:53.457393  7104 layer_factory.hpp:77] Creating layer pool5/7x7_s1
I0403 18:32:53.457412  7104 net.cpp:91] Creating Layer pool5/7x7_s1
I0403 18:32:53.457429  7104 net.cpp:425] pool5/7x7_s1 <- inception_5b/output
I0403 18:32:53.457451  7104 net.cpp:399] pool5/7x7_s1 -> pool5/7x7_s1
I0403 18:32:53.457686  7104 net.cpp:141] Setting up pool5/7x7_s1
I0403 18:32:53.457715  7104 net.cpp:148] Top shape: 24 1024 1 1 (24576)
I0403 18:32:53.457731  7104 net.cpp:156] Memory required for data: 1345962528
I0403 18:32:53.457746  7104 layer_factory.hpp:77] Creating layer pool5/drop_7x7_s1
I0403 18:32:53.457769  7104 net.cpp:91] Creating Layer pool5/drop_7x7_s1
I0403 18:32:53.457787  7104 net.cpp:425] pool5/drop_7x7_s1 <- pool5/7x7_s1
I0403 18:32:53.457805  7104 net.cpp:386] pool5/drop_7x7_s1 -> pool5/7x7_s1 (in-place)
I0403 18:32:53.457861  7104 net.cpp:141] Setting up pool5/drop_7x7_s1
I0403 18:32:53.457886  7104 net.cpp:148] Top shape: 24 1024 1 1 (24576)
I0403 18:32:53.457902  7104 net.cpp:156] Memory required for data: 1346060832
I0403 18:32:53.457919  7104 layer_factory.hpp:77] Creating layer loss3/classifier_plantvillage
I0403 18:32:53.457942  7104 net.cpp:91] Creating Layer loss3/classifier_plantvillage
I0403 18:32:53.457960  7104 net.cpp:425] loss3/classifier_plantvillage <- pool5/7x7_s1
I0403 18:32:53.457981  7104 net.cpp:399] loss3/classifier_plantvillage -> loss3/classifier_plantvillage
I0403 18:32:53.458456  7104 net.cpp:141] Setting up loss3/classifier_plantvillage
I0403 18:32:53.458492  7104 net.cpp:148] Top shape: 24 38 (912)
I0403 18:32:53.458509  7104 net.cpp:156] Memory required for data: 1346064480
I0403 18:32:53.458529  7104 layer_factory.hpp:77] Creating layer loss3/classifier_plantvillage_loss3/classifier_plantvillage_0_split
I0403 18:32:53.458550  7104 net.cpp:91] Creating Layer loss3/classifier_plantvillage_loss3/classifier_plantvillage_0_split
I0403 18:32:53.458566  7104 net.cpp:425] loss3/classifier_plantvillage_loss3/classifier_plantvillage_0_split <- loss3/classifier_plantvillage
I0403 18:32:53.458590  7104 net.cpp:399] loss3/classifier_plantvillage_loss3/classifier_plantvillage_0_split -> loss3/classifier_plantvillage_loss3/classifier_plantvillage_0_split_0
I0403 18:32:53.458614  7104 net.cpp:399] loss3/classifier_plantvillage_loss3/classifier_plantvillage_0_split -> loss3/classifier_plantvillage_loss3/classifier_plantvillage_0_split_1
I0403 18:32:53.458636  7104 net.cpp:399] loss3/classifier_plantvillage_loss3/classifier_plantvillage_0_split -> loss3/classifier_plantvillage_loss3/classifier_plantvillage_0_split_2
I0403 18:32:53.458659  7104 net.cpp:399] loss3/classifier_plantvillage_loss3/classifier_plantvillage_0_split -> loss3/classifier_plantvillage_loss3/classifier_plantvillage_0_split_3
I0403 18:32:53.458776  7104 net.cpp:141] Setting up loss3/classifier_plantvillage_loss3/classifier_plantvillage_0_split
I0403 18:32:53.458801  7104 net.cpp:148] Top shape: 24 38 (912)
I0403 18:32:53.458819  7104 net.cpp:148] Top shape: 24 38 (912)
I0403 18:32:53.458837  7104 net.cpp:148] Top shape: 24 38 (912)
I0403 18:32:53.458854  7104 net.cpp:148] Top shape: 24 38 (912)
I0403 18:32:53.458868  7104 net.cpp:156] Memory required for data: 1346079072
I0403 18:32:53.458884  7104 layer_factory.hpp:77] Creating layer loss1/loss
I0403 18:32:53.458907  7104 net.cpp:91] Creating Layer loss1/loss
I0403 18:32:53.458926  7104 net.cpp:425] loss1/loss <- loss1/classifier_plantvillage_loss1/classifier_plantvillage_0_split_0
I0403 18:32:53.458961  7104 net.cpp:425] loss1/loss <- label_data_1_split_0
…
