…
I0403 18:16:30.643581  6765 net.cpp:313] The NetState phase (1) differed from the phase (0) specified by a rule in layer data
I0403 18:16:30.644840  6765 net.cpp:49] Initializing net from parameters: 
state {
  phase: TEST
}
layer {
  name: "data"
  type: "Data"
  top: "data"
  top: "label"
  include {
    phase: TEST
  }
  transform_param {
    mirror: false
    crop_size: 224
    mean_file: "/home/mohanty/data/final_dataset/lmdb/grayscale-40-60/mean.binaryproto"
  }
  data_param {
    source: "/home/mohanty/data/final_dataset/lmdb/grayscale-40-60/test_db"
    batch_size: 24
    backend: LMDB
  }
}
layer {
  name: "conv1/7x7_s2"
  type: "Convolution"
  bottom: "data"
  top: "conv1/7x7_s2"
  param {
    lr_mult: 1
    decay_mult: 1
  }
  param {
    lr_mult: 2
    decay_mult: 0
  }
  convolution_param {
    num_output: 64
    pad: 3
    kernel_size: 7
    stride: 2
    weight_filler {
      type: "xavier"
      std: 0.1
    }
    bias_filler {
      type: "constant"
      value: 0.2
    }
  }
}
layer {
  name: "conv1/relu_7x7"
  type: "ReLU"
  bottom: "conv1/7x7_s2"
  top: "conv1/7x7_s2"
}
layer {
  name: "pool1/3x3_s2"
  type: "Pooling"
  bottom: "conv1/7x7_s2"
  top: "pool1/3x3_s2"
  pooling_param {
    pool: MAX
    kernel_size: 3
    stride: 2
  }
}
layer {
  name: "pool1/norm1"
  type: "LRN"
  bottom: "pool1/3x3_s2"
  top: "pool1/norm1"
  lrn_param {
    local_size: 5
    alpha: 0.0001
    beta: 0.75
  }
}
layer {
  name: "conv2/3x3_reduce"
  type: "Convolution"
  bottom: "pool1/norm1"
  top: "conv2/3x3_reduce"
  param {
    lr_mult: 1
    decay_mult: 1
  }
  param {
    lr_mult: 2
    decay_mult: 0
  }
  convolution_param {
    num_output: 64
    kernel_size: 1
    weight_filler {
      type: "xavier"
      std: 0.1
    }
    bias_filler {
      type: "constant"
      value: 0.2
    }
  }
}
layer {
  name: "conv2/relu_3x3_reduce"
  type: "ReLU"
  bottom: "conv2/3x3_reduce"
  top: "conv2/3x3_reduce"
}
layer {
  name: "conv2/3x3"
  type: "Convolution"
  bottom: "conv2/3x3_reduce"
  top: "conv2/3x3"
  param {
    lr_mult: 1
    decay_mult: 1
  }
  param {
    lr_mult: 2
    decay_mult: 0
  }
  convolution_param {
    num_output: 192
    pad: 1
    kernel_size: 3
    weight_filler {
      type: "xavier"
      std: 0.03
    }
    bias_filler {
      type: "constant"
      value: 0.2
    }
  }
}
layer {
  name: "conv2/relu_3x3"
  type: "ReLU"
  bottom: "conv2/3x3"
  top: "conv2/3x3"
}
layer {
  name: "conv2/norm2"
  type: "LRN"
  bottom: "conv2/3x3"
  top: "conv2/norm2"
  lrn_param {
    local_size: 5
    alpha: 0.0001
    beta: 0.75
  }
}
layer {
  name: "pool2/3x3_s2"
  type: "Pooling"
  bottom: "conv2/norm2"
  top: "pool2/3x3_s2"
  pooling_param {
    pool: MAX
    kernel_size: 3
    stride: 2
  }
}
layer {
  name: "inception_3a/1x1"
  type: "Convolution"
  bottom: "pool2/3x3_s2"
  top: "inception_3a/1x1"
  param {
    lr_mult: 1
    decay_mult: 1
  }
  param {
    lr_mult: 2
    decay_mult: 0
  }
  convolution_param {
    num_output: 64
    kernel_size: 1
    weight_filler {
      type: "xavier"
      std: 0.03
    }
    bias_filler {
      type: "constant"
      value: 0.2
    }
  }
}
layer {
  name: "inception_3a/relu_1x1"
  type: "ReLU"
  bottom: "inception_3a/1x1"
  top: "inception_3a/1x1"
}
layer {
  name: "inception_3a/3x3_reduce"
  type: "Convolution"
  bottom: "pool2/3x3_s2"
  top: "inception_3a/3x3_reduce"
  param {
    lr_mult: 1
    decay_mult: 1
  }
  param {
    lr_mult: 2
    decay_mult: 0
  }
  convolution_param {
    num_output: 96
    kernel_size: 1
    weight_filler {
      type: "xavier"
      std: 0.09
    }
    bias_filler {
      type: "constant"
      value: 0.2
    }
  }
}
layer {
  name: "inception_3a/relu_3x3_reduce"
  type: "ReLU"
  bottom: "inception_3a/3x3_reduce"
  top: "inception_3a/3x3_reduce"
}
layer {
  name: "inception_3a/3x3"
  type: "Convolution"
  bottom: "inception_3a/3x3_reduce"
  top: "inception_3a/3x3"
  param {
    lr_mult: 1
    decay_mult: 1
  }
  param {
    lr_mult: 2
    decay_mult: 0
  }
  convolution_param {
    num_output: 128
    pad: 1
    kernel_size: 3
    weight_filler {
      type: "xavier"
      std: 0.03
    }
    bias_filler {
      type: "constant"
      value: 0.2
    }
  }
}
layer {
  name: "inception_3a/relu_3x3"
  type: "ReLU"
  bottom: "inception_3a/3x3"
  top: "inception_3a/3x3"
}
layer {
  name: "inception_3a/5x5_reduce"
  type: "Convolution"
  bottom: "pool2/3x3_s2"
  top: "inception_3a/5x5_reduce"
  param {
    lr_mult: 1
    decay_mult: 1
  }
  param {
    lr_mult: 2
    decay_mult: 0
  }
  convolution_param {
    num_output: 16
    kernel_size: 1
    weight_filler {
      type: "xavier"
      std: 0.2
    }
    bias_filler {
      type: "constant"
      value: 0.2
    }
  }
}
layer {
  name: "inception_3a/relu_5x5_reduce"
  type: "ReLU"
  bottom: "inception_3a/5x5_reduce"
  top: "inception_3a/5x5_reduce"
}
layer {
  name: "inception_3a/5x5"
  type: "Convolution"
  bottom: "inception_3a/5x5_reduce"
  top: "inception_3a/5x5"
  param {
    lr_mult: 1
    decay_mult: 1
  }
  param {
    lr_mult: 2
    decay_mult: 0
  }
  convolution_param {
    num_output: 32
    pad: 2
    kernel_size: 5
    weight_filler {
      type: "xavier"
      std: 0.03
    }
    bias_filler {
      type: "constant"
      value: 0.2
    }
  }
}
layer {
  name: "inception_3a/relu_5x5"
  type: "ReLU"
  bottom: "inception_3a/5x5"
  top: "inception_3a/5x5"
}
layer {
  name: "inception_3a/pool"
  type: "Pooling"
  bottom: "pool2/3x3_s2"
  top: "inception_3a/pool"
  pooling_param {
    pool: MAX
    kernel_size: 3
    stride: 1
    pad: 1
  }
}
layer {
  name: "inception_3a/pool_proj"
  type: "Convolution"
  bottom: "inception_3a/pool"
  top: "inception_3a/pool_proj"
  param {
    lr_mult: 1
    decay_mult: 1
  }
  param {
    lr_mult: 2
    decay_mult: 0
  }
  convolution_param {
    num_output: 32
    kernel_size: 1
    weight_filler {
      type: "xavier"
      std: 0.1
    }
    bias_filler {
      type: "constant"
      value: 0.2
    }
  }
}
layer {
  name: "inception_3a/relu_pool_proj"
  type: "ReLU"
  bottom: "inception_3a/pool_proj"
  top: "inception_3a/pool_proj"
}
layer {
  name: "inception_3a/output"
  type: "Concat"
  bottom: "inception_3a/1x1"
  bottom: "inception_3a/3x3"
  bottom: "inception_3a/5x5"
  bottom: "inception_3a/pool_proj"
  top: "inception_3a/output"
}
layer {
  name: "inception_3b/1x1"
  type: "Convolution"
  bottom: "inception_3a/output"
  top: "inception_3b/1x1"
  param {
    lr_mult: 1
    decay_mult: 1
  }
  param {
    lr_mult: 2
    decay_mult: 0
  }
  convolution_param {
    num_output: 128
    kernel_size: 1
    weight_filler {
      type: "xavier"
      std: 0.03
    }
    bias_filler {
      type: "constant"
      value: 0.2
    }
  }
}
layer {
  name: "inception_3b/relu_1x1"
  type: "ReLU"
  bottom: "inception_3b/1x1"
  top: "inception_3b/1x1"
}
layer {
  name: "inception_3b/3x3_reduce"
  type: "Convolution"
  bottom: "inception_3a/output"
  top: "inception_3b/3x3_reduce"
  param {
    lr_mult: 1
    decay_mult: 1
  }
  param {
    lr_mult: 2
    decay_mult: 0
  }
  convolution_param {
    num_output: 128
    kernel_size: 1
    weight_filler {
      type: "xavier"
      std: 0.09
    }
    bias_filler {
      type: "constant"
      value: 0.2
    }
  }
}
layer {
  name: "inception_3b/relu_3x3_reduce"
  type: "ReLU"
  bottom: "inception_3b/3x3_reduce"
  top: "inception_3b/3x3_reduce"
}
layer {
  name: "inception_3b/3x3"
  type: "Convolution"
  bottom: "inception_3b/3x3_reduce"
  top: "inception_3b/3x3"
  param {
    lr_mult: 1
    decay_mult: 1
  }
  param {
    lr_mult: 2
    decay_mult: 0
  }
  convolution_param {
    num_output: 192
    pad: 1
    kernel_size: 3
    weight_filler {
      type: "xavier"
      std: 0.03
    }
    bias_filler {
      type: "constant"
      value: 0.2
    }
  }
}
layer {
  name: "inception_3b/relu_3x3"
  type: "ReLU"
  bottom: "inception_3b/3x3"
  top: "inception_3b/3x3"
}
layer {
  name: "inception_3b/5x5_reduce"
  type: "Convolution"
  bottom: "inception_3a/output"
  top: "inception_3b/5x5_reduce"
  param {
    lr_mult: 1
    decay_mult: 1
  }
  param {
    lr_mult: 2
    decay_mult: 0
  }
  convolution_param {
    num_output: 32
    kernel_size: 1
    weight_filler {
      type: "xavier"
      std: 0.2
    }
    bias_filler {
      type: "constant"
      value: 0.2
    }
  }
}
layer {
  name: "inception_3b/relu_5x5_reduce"
  type: "ReLU"
  bottom: "inception_3b/5x5_reduce"
  top: "inception_3b/5x5_reduce"
}
layer {
  name: "inception_3b/5x5"
  type: "Convolution"
  bottom: "inception_3b/5x5_reduce"
  top: "inception_3b/5x5"
  param {
    lr_mult: 1
    decay_mult: 1
  }
  param {
    lr_mult: 2
    decay_mult: 0
  }
  convolution_param {
    num_output: 96
    pad: 2
    kernel_size: 5
    weight_filler {
      type: "xavier"
      std: 0.03
    }
    bias_filler {
      type: "constant"
      value: 0.2
    }
  }
}
layer {
  name: "inception_3b/relu_5x5"
  type: "ReLU"
  bottom: "inception_3b/5x5"
  top: "inception_3b/5x5"
}
layer {
  name: "inception_3b/pool"
  type: "Pooling"
  bottom: "inception_3a/output"
  top: "inception_3b/pool"
  pooling_param {
    pool: MAX
    kernel_size: 3
    stride: 1
    pad: 1
  }
}
layer {
  name: "inception_3b/pool_proj"
  type: "Convolution"
  bottom: "inception_3b/pool"
  top: "inception_3b/pool_proj"
  param {
    lr_mult: 1
    decay_mult: 1
  }
  param {
    lr_mult: 2
    decay_mult: 0
  }
  convolution_param {
    num_output: 64
    kernel_size: 1
    weight_filler {
      type: "xavier"
      std: 0.1
    }
    bias_filler {
      type: "constant"
      value: 0.2
    }
  }
}
layer {
  name: "inception_3b/relu_pool_proj"
  type: "ReLU"
  bottom: "inception_3b/pool_proj"
  top: "inception_3b/pool_proj"
}
layer {
  name: "inception_3b/output"
  type: "Concat"
  bottom: "inception_3b/1x1"
  bottom: "inception_3b/3x3"
  bottom: "inception_3b/5x5"
  bottom: "inception_3b/pool_proj"
  top: "inception_3b/output"
}
layer {
  name: "pool3/3x3_s2"
  type: "Pooling"
  bottom: "inception_3b/output"
  top: "pool3/3x3_s2"
  pooling_param {
    pool: MAX
    kernel_size: 3
    stride: 2
  }
}
layer {
  name: "inception_4a/1x1"
  type: "Convolution"
  bottom: "pool3/3x3_s2"
  top: "inception_4a/1x1"
  param {
    lr_mult: 1
    decay_mult: 1
  }
  param {
    lr_mult: 2
    decay_mult: 0
  }
  convolution_param {
    num_output: 192
    kernel_size: 1
    weight_filler {
      type: "xavier"
      std: 0.03
    }
    bias_filler {
      type: "constant"
      value: 0.2
    }
  }
}
layer {
  name: "inception_4a/relu_1x1"
  type: "ReLU"
  bottom: "inception_4a/1x1"
  top: "inception_4a/1x1"
}
layer {
  name: "inception_4a/3x3_reduce"
  type: "Convolution"
  bottom: "pool3/3x3_s2"
  top: "inception_4a/3x3_reduce"
  param {
    lr_mult: 1
    decay_mult: 1
  }
  param {
    lr_mult: 2
    decay_mult: 0
  }
  convolution_param {
    num_output: 96
    kernel_size: 1
    weight_filler {
      type: "xavier"
      std: 0.09
    }
    bias_filler {
      type: "constant"
      value: 0.2
    }
  }
}
layer {
  name: "inception_4a/relu_3x3_reduce"
  type: "ReLU"
  bottom: "inception_4a/3x3_reduce"
  top: "inception_4a/3x3_reduce"
}
layer {
  name: "inception_4a/3x3"
  type: "Convolution"
  bottom: "inception_4a/3x3_reduce"
  top: "inception_4a/3x3"
  param {
    lr_mult: 1
    decay_mult: 1
  }
  param {
    lr_mult: 2
    decay_mult: 0
  }
  convolution_param {
    num_output: 208
    pad: 1
    kernel_size: 3
    weight_filler {
      type: "xavier"
      std: 0.03
    }
    bias_filler {
      type: "constant"
      value: 0.2
    }
  }
}
layer {
  name: "inception_4a/relu_3x3"
  type: "ReLU"
  bottom: "inception_4a/3x3"
  top: "inception_4a/3x3"
}
layer {
  name: "inception_4a/5x5_reduce"
  type: "Convolution"
  bottom: "pool3/3x3_s2"
  top: "inception_4a/5x5_reduce"
  param {
    lr_mult: 1
    decay_mult: 1
  }
  param {
    lr_mult: 2
    decay_mult: 0
  }
  convolution_param {
    num_output: 16
    kernel_size: 1
    weight_filler {
      type: "xavier"
      std: 0.2
    }
    bias_filler {
      type: "constant"
      value: 0.2
    }
  }
}
layer {
  name: "inception_4a/relu_5x5_reduce"
  type: "ReLU"
  bottom: "inception_4a/5x5_reduce"
  top: "inception_4a/5x5_reduce"
}
layer {
  name: "inception_4a/5x5"
  type: "Convolution"
  bottom: "inception_4a/5x5_reduce"
  top: "inception_4a/5x5"
  param {
    lr_mult: 1
    decay_mult: 1
  }
  param {
    lr_mult: 2
    decay_mult: 0
  }
  convolution_param {
    num_output: 48
    pad: 2
    kernel_size: 5
    weight_filler {
      type: "xavier"
      std: 0.03
    }
    bias_filler {
      type: "constant"
      value: 0.2
    }
  }
}
layer {
  name: "inception_4a/relu_5x5"
  type: "ReLU"
  bottom: "inception_4a/5x5"
  top: "inception_4a/5x5"
}
layer {
  name: "inception_4a/pool"
  type: "Pooling"
  bottom: "pool3/3x3_s2"
  top: "inception_4a/pool"
  pooling_param {
    pool: MAX
    kernel_size: 3
    stride: 1
    pad: 1
  }
}
layer {
  name: "inception_4a/pool_proj"
  type: "Convolution"
  bottom: "inception_4a/pool"
  top: "inception_4a/pool_proj"
  param {
    lr_mult: 1
    decay_mult: 1
  }
  param {
    lr_mult: 2
    decay_mult: 0
  }
  convolution_param {
    num_output: 64
    kernel_size: 1
    weight_filler {
      type: "xavier"
      std: 0.1
    }
    bias_filler {
      type: "constant"
      value: 0.2
    }
  }
}
layer {
  name: "inception_4a/relu_pool_proj"
  type: "ReLU"
  bottom: "inception_4a/pool_proj"
  top: "inception_4a/pool_proj"
}
layer {
  name: "inception_4a/output"
  type: "Concat"
  bottom: "inception_4a/1x1"
  bottom: "inception_4a/3x3"
  bottom: "inception_4a/5x5"
  bottom: "inception_4a/pool_proj"
  top: "inception_4a/output"
}
layer {
  name: "loss1/ave_pool"
  type: "Pooling"
  bottom: "inception_4a/output"
  top: "loss1/ave_pool"
  pooling_param {
    pool: AVE
    kernel_size: 5
    stride: 3
  }
}
layer {
  name: "loss1/conv"
  type: "Convolution"
  bottom: "loss1/ave_pool"
  top: "loss1/conv"
  param {
    lr_mult: 1
    decay_mult: 1
  }
  param {
    lr_mult: 2
    decay_mult: 0
  }
  convolution_param {
    num_output: 128
    kernel_size: 1
    weight_filler {
      type: "xavier"
      std: 0.08
    }
    bias_filler {
      type: "constant"
      value: 0.2
    }
  }
}
layer {
  name: "loss1/relu_conv"
  type: "ReLU"
  bottom: "loss1/conv"
  top: "loss1/conv"
}
layer {
  name: "loss1/fc"
  type: "InnerProduct"
  bottom: "loss1/conv"
  top: "loss1/fc"
  param {
    lr_mult: 1
    decay_mult: 1
  }
  param {
    lr_mult: 2
    decay_mult: 0
  }
  inner_product_param {
    num_output: 1024
    weight_filler {
      type: "xavier"
      std: 0.02
    }
    bias_filler {
      type: "constant"
      value: 0.2
    }
  }
}
layer {
  name: "loss1/relu_fc"
  type: "ReLU"
  bottom: "loss1/fc"
  top: "loss1/fc"
}
layer {
  name: "loss1/drop_fc"
  type: "Dropout"
  bottom: "loss1/fc"
  top: "loss1/fc"
  dropout_param {
    dropout_ratio: 0.7
  }
}
layer {
  name: "loss1/classifier_plantvillage"
  type: "InnerProduct"
  bottom: "loss1/fc"
  top: "loss1/classifier_plantvillage"
  param {
    lr_mult: 1
    decay_mult: 1
  }
  param {
    lr_mult: 2
    decay_mult: 0
  }
  inner_product_param {
    num_output: 38
    weight_filler {
      type: "xavier"
      std: 0.0009765625
    }
    bias_filler {
      type: "constant"
      value: 0
    }
  }
}
layer {
  name: "inception_4b/1x1"
  type: "Convolution"
  bottom: "inception_4a/output"
  top: "inception_4b/1x1"
  param {
    lr_mult: 1
    decay_mult: 1
  }
  param {
    lr_mult: 2
    decay_mult: 0
  }
  convolution_param {
    num_output: 160
    kernel_size: 1
    weight_filler {
      type: "xavier"
      std: 0.03
    }
    bias_filler {
      type: "constant"
      value: 0.2
    }
  }
}
layer {
  name: "inception_4b/relu_1x1"
  type: "ReLU"
  bottom: "inception_4b/1x1"
  top: "inception_4b/1x1"
}
layer {
  name: "inception_4b/3x3_reduce"
  type: "Convolution"
  bottom: "inception_4a/output"
  top: "inception_4b/3x3_reduce"
  param {
    lr_mult: 1
    decay_mult: 1
  }
  param {
    lr_mult: 2
    decay_mult: 0
  }
  convolution_param {
    num_output: 112
    kernel_size: 1
    weight_filler {
      type: "xavier"
      std: 0.09
    }
    bias_filler {
      type: "constant"
      value: 0.2
    }
  }
}
layer {
  name: "inception_4b/relu_3x3_reduce"
  type: "ReLU"
  bottom: "inception_4b/3x3_reduce"
  top: "inception_4b/3x3_reduce"
}
layer {
  name: "inception_4b/3x3"
  type: "Convolution"
  bottom: "inception_4b/3x3_reduce"
  top: "inception_4b/3x3"
  param {
    lr_mult: 1
    decay_mult: 1
  }
  param {
    lr_mult: 2
    decay_mult: 0
  }
  convolution_param {
    num_output: 224
    pad: 1
    kernel_size: 3
    weight_filler {
      type: "xavier"
      std: 0.03
    }
    bias_filler {
      type: "constant"
      value: 0.2
    }
  }
}
layer {
  name: "inception_4b/relu_3x3"
  type: "ReLU"
  bottom: "inception_4b/3x3"
  top: "inception_4b/3x3"
}
layer {
  name: "inception_4b/5x5_reduce"
  type: "Convolution"
  bottom: "inception_4a/output"
  top: "inception_4b/5x5_reduce"
  param {
    lr_mult: 1
    decay_mult: 1
  }
  param {
    lr_mult: 2
    decay_mult: 0
  }
  convolution_param {
    num_output: 24
    kernel_size: 1
    weight_filler {
      type: "xavier"
      std: 0.2
    }
    bias_filler {
      type: "constant"
      value: 0.2
    }
  }
}
layer {
  name: "inception_4b/relu_5x5_reduce"
  type: "ReLU"
  bottom: "inception_4b/5x5_reduce"
  top: "inception_4b/5x5_reduce"
}
layer {
  name: "inception_4b/5x5"
  type: "Convolution"
  bottom: "inception_4b/5x5_reduce"
  top: "inception_4b/5x5"
  param {
    lr_mult: 1
    decay_mult: 1
  }
  param {
    lr_mult: 2
    decay_mult: 0
  }
  convolution_param {
    num_output: 64
    pad: 2
    kernel_size: 5
    weight_filler {
      type: "xavier"
      std: 0.03
    }
    bias_filler {
      type: "constant"
      value: 0.2
    }
  }
}
layer {
  name: "inception_4b/relu_5x5"
  type: "ReLU"
  bottom: "inception_4b/5x5"
  top: "inception_4b/5x5"
}
layer {
  name: "inception_4b/pool"
  type: "Pooling"
  bottom: "inception_4a/output"
  top: "inception_4b/pool"
  pooling_param {
    pool: MAX
    kernel_size: 3
    stride: 1
    pad: 1
  }
}
layer {
  name: "inception_4b/pool_proj"
  type: "Convolution"
  bottom: "inception_4b/pool"
  top: "inception_4b/pool_proj"
  param {
    lr_mult: 1
    decay_mult: 1
  }
  param {
    lr_mult: 2
    decay_mult: 0
  }
  convolution_param {
    num_output: 64
    kernel_size: 1
    weight_filler {
      type: "xavier"
      std: 0.1
    }
    bias_filler {
      type: "constant"
      value: 0.2
    }
  }
}
layer {
  name: "inception_4b/relu_pool_proj"
  type: "ReLU"
  bottom: "inception_4b/pool_proj"
  top: "inception_4b/pool_proj"
}
layer {
  name: "inception_4b/output"
  type: "Concat"
  bottom: "inception_4b/1x1"
  bottom: "inception_4b/3x3"
  bottom: "inception_4b/5x5"
  bottom: "inception_4b/pool_proj"
  top: "inception_4b/output"
}
layer {
  name: "inception_4c/1x1"
  type: "Convolution"
  bottom: "inception_4b/output"
  top: "inception_4c/1x1"
  param {
    lr_mult: 1
    decay_mult: 1
  }
  param {
    lr_mult: 2
    decay_mult: 0
  }
  convolution_param {
    num_output: 128
    kernel_size: 1
    weight_filler {
      type: "xavier"
      std: 0.03
    }
    bias_filler {
      type: "constant"
      value: 0.2
    }
  }
}
layer {
  name: "inception_4c/relu_1x1"
  type: "ReLU"
  bottom: "inception_4c/1x1"
  top: "inception_4c/1x1"
}
layer {
  name: "inception_4c/3x3_reduce"
  type: "Convolution"
  bottom: "inception_4b/output"
  top: "inception_4c/3x3_reduce"
  param {
    lr_mult: 1
    decay_mult: 1
  }
  param {
    lr_mult: 2
    decay_mult: 0
  }
  convolution_param {
    num_output: 128
    kernel_size: 1
    weight_filler {
      type: "xavier"
      std: 0.09
    }
    bias_filler {
      type: "constant"
      value: 0.2
    }
  }
}
layer {
  name: "inception_4c/relu_3x3_reduce"
  type: "ReLU"
  bottom: "inception_4c/3x3_reduce"
  top: "inception_4c/3x3_reduce"
}
layer {
  name: "inception_4c/3x3"
  type: "Convolution"
  bottom: "inception_4c/3x3_reduce"
  top: "inception_4c/3x3"
  param {
    lr_mult: 1
    decay_mult: 1
  }
  param {
    lr_mult: 2
    decay_mult: 0
  }
  convolution_param {
    num_output: 256
    pad: 1
    kernel_size: 3
    weight_filler {
      type: "xavier"
      std: 0.03
    }
    bias_filler {
      type: "constant"
      value: 0.2
    }
  }
}
layer {
  name: "inception_4c/relu_3x3"
  type: "ReLU"
  bottom: "inception_4c/3x3"
  top: "inception_4c/3x3"
}
layer {
  name: "inception_4c/5x5_reduce"
  type: "Convolution"
  bottom: "inception_4b/output"
  top: "inception_4c/5x5_reduce"
  param {
    lr_mult: 1
    decay_mult: 1
  }
  param {
    lr_mult: 2
    decay_mult: 0
  }
  convolution_param {
    num_output: 24
    kernel_size: 1
    weight_filler {
      type: "xavier"
      std: 0.2
    }
    bias_filler {
      type: "constant"
      value: 0.2
    }
  }
}
layer {
  name: "inception_4c/relu_5x5_reduce"
  type: "ReLU"
  bottom: "inception_4c/5x5_reduce"
  top: "inception_4c/5x5_reduce"
}
layer {
  name: "inception_4c/5x5"
  type: "Convolution"
  bottom: "inception_4c/5x5_reduce"
  top: "inception_4c/5x5"
  param {
    lr_mult: 1
    decay_mult: 1
  }
  param {
    lr_mult: 2
    decay_mult: 0
  }
  convolution_param {
    num_output: 64
    pad: 2
    kernel_size: 5
    weight_filler {
      type: "xavier"
      std: 0.03
    }
    bias_filler {
      type: "constant"
      value: 0.2
    }
  }
}
layer {
  name: "inception_4c/relu_5x5"
  type: "ReLU"
  bottom: "inception_4c/5x5"
  top: "inception_4c/5x5"
}
layer {
  name: "inception_4c/pool"
  type: "Pooling"
  bottom: "inception_4b/output"
  top: "inception_4c/pool"
  pooling_param {
    pool: MAX
    kernel_size: 3
    stride: 1
    pad: 1
  }
}
layer {
  name: "inception_4c/pool_proj"
  type: "Convolution"
  bottom: "inception_4c/pool"
  top: "inception_4c/pool_proj"
  param {
    lr_mult: 1
    decay_mult: 1
  }
  param {
    lr_mult: 2
    decay_mult: 0
  }
  convolution_param {
    num_output: 64
    kernel_size: 1
    weight_filler {
      type: "xavier"
      std: 0.1
    }
    bias_filler {
      type: "constant"
      value: 0.2
    }
  }
}
layer {
  name: "inception_4c/relu_pool_proj"
  type: "ReLU"
  bottom: "inception_4c/pool_proj"
  top: "inception_4c/pool_proj"
}
layer {
  name: "inception_4c/output"
  type: "Concat"
  bottom: "inception_4c/1x1"
  bottom: "inception_4c/3x3"
  bottom: "inception_4c/5x5"
  bottom: "inception_4c/pool_proj"
  top: "inception_4c/output"
}
layer {
  name: "inception_4d/1x1"
  type: "Convolution"
  bottom: "inception_4c/output"
  top: "inception_4d/1x1"
  param {
    lr_mult: 1
    decay_mult: 1
  }
  param {
    lr_mult: 2
    decay_mult: 0
  }
  convolution_param {
    num_output: 112
    kernel_size: 1
    weight_filler {
      type: "xavier"
      std: 0.03
    }
    bias_filler {
      type: "constant"
      value: 0.2
    }
  }
}
layer {
  name: "inception_4d/relu_1x1"
  type: "ReLU"
  bottom: "inception_4d/1x1"
  top: "inception_4d/1x1"
}
layer {
  name: "inception_4d/3x3_reduce"
  type: "Convolution"
  bottom: "inception_4c/output"
  top: "inception_4d/3x3_reduce"
  param {
    lr_mult: 1
    decay_mult: 1
  }
  param {
    lr_mult: 2
    decay_mult: 0
  }
  convolution_param {
    num_output: 144
    kernel_size: 1
    weight_filler {
      type: "xavier"
      std: 0.09
    }
    bias_filler {
      type: "constant"
      value: 0.2
    }
  }
}
layer {
  name: "inception_4d/relu_3x3_reduce"
  type: "ReLU"
  bottom: "inception_4d/3x3_reduce"
  top: "inception_4d/3x3_reduce"
}
layer {
  name: "inception_4d/3x3"
  type: "Convolution"
  bottom: "inception_4d/3x3_reduce"
  top: "inception_4d/3x3"
  param {
    lr_mult: 1
    decay_mult: 1
  }
  param {
    lr_mult: 2
    decay_mult: 0
  }
  convolution_param {
    num_output: 288
    pad: 1
    kernel_size: 3
    weight_filler {
      type: "xavier"
      std: 0.03
    }
    bias_filler {
      type: "constant"
      value: 0.2
    }
  }
}
layer {
  name: "inception_4d/relu_3x3"
  type: "ReLU"
  bottom: "inception_4d/3x3"
  top: "inception_4d/3x3"
}
layer {
  name: "inception_4d/5x5_reduce"
  type: "Convolution"
  bottom: "inception_4c/output"
  top: "inception_4d/5x5_reduce"
  param {
    lr_mult: 1
    decay_mult: 1
  }
  param {
    lr_mult: 2
    decay_mult: 0
  }
  convolution_param {
    num_output: 32
    kernel_size: 1
    weight_filler {
      type: "xavier"
      std: 0.2
    }
    bias_filler {
      type: "constant"
      value: 0.2
    }
  }
}
layer {
  name: "inception_4d/relu_5x5_reduce"
  type: "ReLU"
  bottom: "inception_4d/5x5_reduce"
  top: "inception_4d/5x5_reduce"
}
layer {
  name: "inception_4d/5x5"
  type: "Convolution"
  bottom: "inception_4d/5x5_reduce"
  top: "inception_4d/5x5"
  param {
    lr_mult: 1
    decay_mult: 1
  }
  param {
    lr_mult: 2
    decay_mult: 0
  }
  convolution_param {
    num_output: 64
    pad: 2
    kernel_size: 5
    weight_filler {
      type: "xavier"
      std: 0.03
    }
    bias_filler {
      type: "constant"
      value: 0.2
    }
  }
}
layer {
  name: "inception_4d/relu_5x5"
  type: "ReLU"
  bottom: "inception_4d/5x5"
  top: "inception_4d/5x5"
}
layer {
  name: "inception_4d/pool"
  type: "Pooling"
  bottom: "inception_4c/output"
  top: "inception_4d/pool"
  pooling_param {
    pool: MAX
    kernel_size: 3
    stride: 1
    pad: 1
  }
}
layer {
  name: "inception_4d/pool_proj"
  type: "Convolution"
  bottom: "inception_4d/pool"
  top: "inception_4d/pool_proj"
  param {
    lr_mult: 1
    decay_mult: 1
  }
  param {
    lr_mult: 2
    decay_mult: 0
  }
  convolution_param {
    num_output: 64
    kernel_size: 1
    weight_filler {
      type: "xavier"
      std: 0.1
    }
    bias_filler {
      type: "constant"
      value: 0.2
    }
  }
}
layer {
  name: "inception_4d/relu_pool_proj"
  type: "ReLU"
  bottom: "inception_4d/pool_proj"
  top: "inception_4d/pool_proj"
}
layer {
  name: "inception_4d/output"
  type: "Concat"
  bottom: "inception_4d/1x1"
  bottom: "inception_4d/3x3"
  bottom: "inception_4d/5x5"
  bottom: "inception_4d/pool_proj"
  top: "inception_4d/output"
}
layer {
  name: "loss2/ave_pool"
  type: "Pooling"
  bottom: "inception_4d/output"
  top: "loss2/ave_pool"
  pooling_param {
    pool: AVE
    kernel_size: 5
    stride: 3
  }
}
layer {
  name: "loss2/conv"
  type: "Convolution"
  bottom: "loss2/ave_pool"
  top: "loss2/conv"
  param {
    lr_mult: 1
    decay_mult: 1
  }
  param {
    lr_mult: 2
    decay_mult: 0
  }
  convolution_param {
    num_output: 128
    kernel_size: 1
    weight_filler {
      type: "xavier"
      std: 0.08
    }
    bias_filler {
      type: "constant"
      value: 0.2
    }
  }
}
layer {
  name: "loss2/relu_conv"
  type: "ReLU"
  bottom: "loss2/conv"
  top: "loss2/conv"
}
layer {
  name: "loss2/fc"
  type: "InnerProduct"
  bottom: "loss2/conv"
  top: "loss2/fc"
  param {
    lr_mult: 1
    decay_mult: 1
  }
  param {
    lr_mult: 2
    decay_mult: 0
  }
  inner_product_param {
    num_output: 1024
    weight_filler {
      type: "xavier"
      std: 0.02
    }
    bias_filler {
      type: "constant"
      value: 0.2
    }
  }
}
layer {
  name: "loss2/relu_fc"
  type: "ReLU"
  bottom: "loss2/fc"
  top: "loss2/fc"
}
layer {
  name: "loss2/drop_fc"
  type: "Dropout"
  bottom: "loss2/fc"
  top: "loss2/fc"
  dropout_param {
    dropout_ratio: 0.7
  }
}
layer {
  name: "loss2/classifier_plantvillage"
  type: "InnerProduct"
  bottom: "loss2/fc"
  top: "loss2/classifier_plantvillage"
  param {
    lr_mult: 1
    decay_mult: 1
  }
  param {
    lr_mult: 2
    decay_mult: 0
  }
  inner_product_param {
    num_output: 38
    weight_filler {
      type: "xavier"
      std: 0.0009765625
    }
    bias_filler {
      type: "constant"
      value: 0
    }
  }
}
layer {
  name: "inception_4e/1x1"
  type: "Convolution"
  bottom: "inception_4d/output"
  top: "inception_4e/1x1"
  param {
    lr_mult: 1
    decay_mult: 1
  }
  param {
    lr_mult: 2
    decay_mult: 0
  }
  convolution_param {
    num_output: 256
    kernel_size: 1
    weight_filler {
      type: "xavier"
      std: 0.03
    }
    bias_filler {
      type: "constant"
      value: 0.2
    }
  }
}
layer {
  name: "inception_4e/relu_1x1"
  type: "ReLU"
  bottom: "inception_4e/1x1"
  top: "inception_4e/1x1"
}
layer {
  name: "inception_4e/3x3_reduce"
  type: "Convolution"
  bottom: "inception_4d/output"
  top: "inception_4e/3x3_reduce"
  param {
    lr_mult: 1
    decay_mult: 1
  }
  param {
    lr_mult: 2
    decay_mult: 0
  }
  convolution_param {
    num_output: 160
    kernel_size: 1
    weight_filler {
      type: "xavier"
      std: 0.09
    }
    bias_filler {
      type: "constant"
      value: 0.2
    }
  }
}
layer {
  name: "inception_4e/relu_3x3_reduce"
  type: "ReLU"
  bottom: "inception_4e/3x3_reduce"
  top: "inception_4e/3x3_reduce"
}
layer {
  name: "inception_4e/3x3"
  type: "Convolution"
  bottom: "inception_4e/3x3_reduce"
  top: "inception_4e/3x3"
  param {
    lr_mult: 1
    decay_mult: 1
  }
  param {
    lr_mult: 2
    decay_mult: 0
  }
  convolution_param {
    num_output: 320
    pad: 1
    kernel_size: 3
    weight_filler {
      type: "xavier"
      std: 0.03
    }
    bias_filler {
      type: "constant"
      value: 0.2
    }
  }
}
layer {
  name: "inception_4e/relu_3x3"
  type: "ReLU"
  bottom: "inception_4e/3x3"
  top: "inception_4e/3x3"
}
layer {
  name: "inception_4e/5x5_reduce"
  type: "Convolution"
  bottom: "inception_4d/output"
  top: "inception_4e/5x5_reduce"
  param {
    lr_mult: 1
    decay_mult: 1
  }
  param {
    lr_mult: 2
    decay_mult: 0
  }
  convolution_param {
    num_output: 32
    kernel_size: 1
    weight_filler {
      type: "xavier"
      std: 0.2
    }
    bias_filler {
      type: "constant"
      value: 0.2
    }
  }
}
layer {
  name: "inception_4e/relu_5x5_reduce"
  type: "ReLU"
  bottom: "inception_4e/5x5_reduce"
  top: "inception_4e/5x5_reduce"
}
layer {
  name: "inception_4e/5x5"
  type: "Convolution"
  bottom: "inception_4e/5x5_reduce"
  top: "inception_4e/
I0403 18:16:30.646548  6765 layer_factory.hpp:77] Creating layer data
I0403 18:16:30.647193  6765 net.cpp:91] Creating Layer data
I0403 18:16:30.647225  6765 net.cpp:399] data -> data
I0403 18:16:30.647285  6765 net.cpp:399] data -> label
I0403 18:16:30.647323  6765 data_transformer.cpp:25] Loading mean file from: /home/mohanty/data/final_dataset/lmdb/grayscale-40-60/mean.binaryproto
I0403 18:16:30.648418  6767 db_lmdb.cpp:38] Opened lmdb /home/mohanty/data/final_dataset/lmdb/grayscale-40-60/test_db
I0403 18:16:30.661306  6765 data_layer.cpp:41] output data size: 24,3,224,224
I0403 18:16:30.689602  6765 net.cpp:141] Setting up data
I0403 18:16:30.689718  6765 net.cpp:148] Top shape: 24 3 224 224 (3612672)
I0403 18:16:30.689743  6765 net.cpp:148] Top shape: 24 (24)
I0403 18:16:30.689760  6765 net.cpp:156] Memory required for data: 14450784
I0403 18:16:30.689788  6765 layer_factory.hpp:77] Creating layer label_data_1_split
I0403 18:16:30.689816  6765 net.cpp:91] Creating Layer label_data_1_split
I0403 18:16:30.689836  6765 net.cpp:425] label_data_1_split <- label
I0403 18:16:30.689868  6765 net.cpp:399] label_data_1_split -> label_data_1_split_0
I0403 18:16:30.689898  6765 net.cpp:399] label_data_1_split -> label_data_1_split_1
I0403 18:16:30.689920  6765 net.cpp:399] label_data_1_split -> label_data_1_split_2
I0403 18:16:30.689944  6765 net.cpp:399] label_data_1_split -> label_data_1_split_3
I0403 18:16:30.689965  6765 net.cpp:399] label_data_1_split -> label_data_1_split_4
I0403 18:16:30.689985  6765 net.cpp:399] label_data_1_split -> label_data_1_split_5
I0403 18:16:30.690006  6765 net.cpp:399] label_data_1_split -> label_data_1_split_6
I0403 18:16:30.690028  6765 net.cpp:399] label_data_1_split -> label_data_1_split_7
I0403 18:16:30.690050  6765 net.cpp:399] label_data_1_split -> label_data_1_split_8
I0403 18:16:30.690071  6765 net.cpp:399] label_data_1_split -> label_data_1_split_9
I0403 18:16:30.690188  6765 net.cpp:141] Setting up label_data_1_split
I0403 18:16:30.690213  6765 net.cpp:148] Top shape: 24 (24)
I0403 18:16:30.690232  6765 net.cpp:148] Top shape: 24 (24)
I0403 18:16:30.690248  6765 net.cpp:148] Top shape: 24 (24)
I0403 18:16:30.690268  6765 net.cpp:148] Top shape: 24 (24)
I0403 18:16:30.690289  6765 net.cpp:148] Top shape: 24 (24)
I0403 18:16:30.690306  6765 net.cpp:148] Top shape: 24 (24)
I0403 18:16:30.690322  6765 net.cpp:148] Top shape: 24 (24)
I0403 18:16:30.690340  6765 net.cpp:148] Top shape: 24 (24)
I0403 18:16:30.690356  6765 net.cpp:148] Top shape: 24 (24)
I0403 18:16:30.690376  6765 net.cpp:148] Top shape: 24 (24)
I0403 18:16:30.690425  6765 net.cpp:156] Memory required for data: 14451744
I0403 18:16:30.690441  6765 layer_factory.hpp:77] Creating layer conv1/7x7_s2
I0403 18:16:30.690474  6765 net.cpp:91] Creating Layer conv1/7x7_s2
I0403 18:16:30.690495  6765 net.cpp:425] conv1/7x7_s2 <- data
I0403 18:16:30.690517  6765 net.cpp:399] conv1/7x7_s2 -> conv1/7x7_s2
I0403 18:16:30.834051  6765 net.cpp:141] Setting up conv1/7x7_s2
I0403 18:16:30.834161  6765 net.cpp:148] Top shape: 24 64 112 112 (19267584)
I0403 18:16:30.834182  6765 net.cpp:156] Memory required for data: 91522080
I0403 18:16:30.834216  6765 layer_factory.hpp:77] Creating layer conv1/relu_7x7
I0403 18:16:30.834259  6765 net.cpp:91] Creating Layer conv1/relu_7x7
I0403 18:16:30.834286  6765 net.cpp:425] conv1/relu_7x7 <- conv1/7x7_s2
I0403 18:16:30.834309  6765 net.cpp:386] conv1/relu_7x7 -> conv1/7x7_s2 (in-place)
I0403 18:16:30.834573  6765 net.cpp:141] Setting up conv1/relu_7x7
I0403 18:16:30.834600  6765 net.cpp:148] Top shape: 24 64 112 112 (19267584)
I0403 18:16:30.834616  6765 net.cpp:156] Memory required for data: 168592416
I0403 18:16:30.834631  6765 layer_factory.hpp:77] Creating layer pool1/3x3_s2
I0403 18:16:30.834658  6765 net.cpp:91] Creating Layer pool1/3x3_s2
I0403 18:16:30.834676  6765 net.cpp:425] pool1/3x3_s2 <- conv1/7x7_s2
I0403 18:16:30.834695  6765 net.cpp:399] pool1/3x3_s2 -> pool1/3x3_s2
I0403 18:16:30.834767  6765 net.cpp:141] Setting up pool1/3x3_s2
I0403 18:16:30.834792  6765 net.cpp:148] Top shape: 24 64 56 56 (4816896)
I0403 18:16:30.834808  6765 net.cpp:156] Memory required for data: 187860000
I0403 18:16:30.834825  6765 layer_factory.hpp:77] Creating layer pool1/norm1
I0403 18:16:30.834849  6765 net.cpp:91] Creating Layer pool1/norm1
I0403 18:16:30.834867  6765 net.cpp:425] pool1/norm1 <- pool1/3x3_s2
I0403 18:16:30.834885  6765 net.cpp:399] pool1/norm1 -> pool1/norm1
I0403 18:16:30.835178  6765 net.cpp:141] Setting up pool1/norm1
I0403 18:16:30.835206  6765 net.cpp:148] Top shape: 24 64 56 56 (4816896)
I0403 18:16:30.835222  6765 net.cpp:156] Memory required for data: 207127584
I0403 18:16:30.835238  6765 layer_factory.hpp:77] Creating layer conv2/3x3_reduce
I0403 18:16:30.835264  6765 net.cpp:91] Creating Layer conv2/3x3_reduce
I0403 18:16:30.835288  6765 net.cpp:425] conv2/3x3_reduce <- pool1/norm1
I0403 18:16:30.835307  6765 net.cpp:399] conv2/3x3_reduce -> conv2/3x3_reduce
I0403 18:16:30.836763  6765 net.cpp:141] Setting up conv2/3x3_reduce
I0403 18:16:30.836793  6765 net.cpp:148] Top shape: 24 64 56 56 (4816896)
I0403 18:16:30.836812  6765 net.cpp:156] Memory required for data: 226395168
I0403 18:16:30.836833  6765 layer_factory.hpp:77] Creating layer conv2/relu_3x3_reduce
I0403 18:16:30.836853  6765 net.cpp:91] Creating Layer conv2/relu_3x3_reduce
I0403 18:16:30.836869  6765 net.cpp:425] conv2/relu_3x3_reduce <- conv2/3x3_reduce
I0403 18:16:30.836890  6765 net.cpp:386] conv2/relu_3x3_reduce -> conv2/3x3_reduce (in-place)
I0403 18:16:30.837170  6765 net.cpp:141] Setting up conv2/relu_3x3_reduce
I0403 18:16:30.837199  6765 net.cpp:148] Top shape: 24 64 56 56 (4816896)
I0403 18:16:30.837216  6765 net.cpp:156] Memory required for data: 245662752
I0403 18:16:30.837231  6765 layer_factory.hpp:77] Creating layer conv2/3x3
I0403 18:16:30.837256  6765 net.cpp:91] Creating Layer conv2/3x3
I0403 18:16:30.837280  6765 net.cpp:425] conv2/3x3 <- conv2/3x3_reduce
I0403 18:16:30.837303  6765 net.cpp:399] conv2/3x3 -> conv2/3x3
I0403 18:16:30.839692  6765 net.cpp:141] Setting up conv2/3x3
I0403 18:16:30.839726  6765 net.cpp:148] Top shape: 24 192 56 56 (14450688)
I0403 18:16:30.839745  6765 net.cpp:156] Memory required for data: 303465504
I0403 18:16:30.839768  6765 layer_factory.hpp:77] Creating layer conv2/relu_3x3
I0403 18:16:30.839789  6765 net.cpp:91] Creating Layer conv2/relu_3x3
I0403 18:16:30.839807  6765 net.cpp:425] conv2/relu_3x3 <- conv2/3x3
I0403 18:16:30.839828  6765 net.cpp:386] conv2/relu_3x3 -> conv2/3x3 (in-place)
I0403 18:16:30.840013  6765 net.cpp:141] Setting up conv2/relu_3x3
I0403 18:16:30.840040  6765 net.cpp:148] Top shape: 24 192 56 56 (14450688)
I0403 18:16:30.840088  6765 net.cpp:156] Memory required for data: 361268256
I0403 18:16:30.840106  6765 layer_factory.hpp:77] Creating layer conv2/norm2
I0403 18:16:30.840131  6765 net.cpp:91] Creating Layer conv2/norm2
I0403 18:16:30.840148  6765 net.cpp:425] conv2/norm2 <- conv2/3x3
I0403 18:16:30.840167  6765 net.cpp:399] conv2/norm2 -> conv2/norm2
I0403 18:16:30.840483  6765 net.cpp:141] Setting up conv2/norm2
I0403 18:16:30.840515  6765 net.cpp:148] Top shape: 24 192 56 56 (14450688)
I0403 18:16:30.840533  6765 net.cpp:156] Memory required for data: 419071008
I0403 18:16:30.840548  6765 layer_factory.hpp:77] Creating layer pool2/3x3_s2
I0403 18:16:30.840566  6765 net.cpp:91] Creating Layer pool2/3x3_s2
I0403 18:16:30.840582  6765 net.cpp:425] pool2/3x3_s2 <- conv2/norm2
I0403 18:16:30.840601  6765 net.cpp:399] pool2/3x3_s2 -> pool2/3x3_s2
I0403 18:16:30.840656  6765 net.cpp:141] Setting up pool2/3x3_s2
I0403 18:16:30.840679  6765 net.cpp:148] Top shape: 24 192 28 28 (3612672)
I0403 18:16:30.840693  6765 net.cpp:156] Memory required for data: 433521696
I0403 18:16:30.840708  6765 layer_factory.hpp:77] Creating layer pool2/3x3_s2_pool2/3x3_s2_0_split
I0403 18:16:30.840730  6765 net.cpp:91] Creating Layer pool2/3x3_s2_pool2/3x3_s2_0_split
I0403 18:16:30.840746  6765 net.cpp:425] pool2/3x3_s2_pool2/3x3_s2_0_split <- pool2/3x3_s2
I0403 18:16:30.840764  6765 net.cpp:399] pool2/3x3_s2_pool2/3x3_s2_0_split -> pool2/3x3_s2_pool2/3x3_s2_0_split_0
I0403 18:16:30.840785  6765 net.cpp:399] pool2/3x3_s2_pool2/3x3_s2_0_split -> pool2/3x3_s2_pool2/3x3_s2_0_split_1
I0403 18:16:30.840806  6765 net.cpp:399] pool2/3x3_s2_pool2/3x3_s2_0_split -> pool2/3x3_s2_pool2/3x3_s2_0_split_2
I0403 18:16:30.840829  6765 net.cpp:399] pool2/3x3_s2_pool2/3x3_s2_0_split -> pool2/3x3_s2_pool2/3x3_s2_0_split_3
I0403 18:16:30.840903  6765 net.cpp:141] Setting up pool2/3x3_s2_pool2/3x3_s2_0_split
I0403 18:16:30.840926  6765 net.cpp:148] Top shape: 24 192 28 28 (3612672)
I0403 18:16:30.840945  6765 net.cpp:148] Top shape: 24 192 28 28 (3612672)
I0403 18:16:30.840960  6765 net.cpp:148] Top shape: 24 192 28 28 (3612672)
I0403 18:16:30.840976  6765 net.cpp:148] Top shape: 24 192 28 28 (3612672)
I0403 18:16:30.840991  6765 net.cpp:156] Memory required for data: 491324448
I0403 18:16:30.841006  6765 layer_factory.hpp:77] Creating layer inception_3a/1x1
I0403 18:16:30.841028  6765 net.cpp:91] Creating Layer inception_3a/1x1
I0403 18:16:30.841047  6765 net.cpp:425] inception_3a/1x1 <- pool2/3x3_s2_pool2/3x3_s2_0_split_0
I0403 18:16:30.841068  6765 net.cpp:399] inception_3a/1x1 -> inception_3a/1x1
I0403 18:16:30.842713  6765 net.cpp:141] Setting up inception_3a/1x1
I0403 18:16:30.842746  6765 net.cpp:148] Top shape: 24 64 28 28 (1204224)
I0403 18:16:30.842764  6765 net.cpp:156] Memory required for data: 496141344
I0403 18:16:30.842784  6765 layer_factory.hpp:77] Creating layer inception_3a/relu_1x1
I0403 18:16:30.842803  6765 net.cpp:91] Creating Layer inception_3a/relu_1x1
I0403 18:16:30.842820  6765 net.cpp:425] inception_3a/relu_1x1 <- inception_3a/1x1
I0403 18:16:30.842841  6765 net.cpp:386] inception_3a/relu_1x1 -> inception_3a/1x1 (in-place)
I0403 18:16:30.843021  6765 net.cpp:141] Setting up inception_3a/relu_1x1
I0403 18:16:30.843047  6765 net.cpp:148] Top shape: 24 64 28 28 (1204224)
I0403 18:16:30.843062  6765 net.cpp:156] Memory required for data: 500958240
I0403 18:16:30.843078  6765 layer_factory.hpp:77] Creating layer inception_3a/3x3_reduce
I0403 18:16:30.843101  6765 net.cpp:91] Creating Layer inception_3a/3x3_reduce
I0403 18:16:30.843121  6765 net.cpp:425] inception_3a/3x3_reduce <- pool2/3x3_s2_pool2/3x3_s2_0_split_1
I0403 18:16:30.843143  6765 net.cpp:399] inception_3a/3x3_reduce -> inception_3a/3x3_reduce
I0403 18:16:30.844925  6765 net.cpp:141] Setting up inception_3a/3x3_reduce
I0403 18:16:30.844957  6765 net.cpp:148] Top shape: 24 96 28 28 (1806336)
I0403 18:16:30.844975  6765 net.cpp:156] Memory required for data: 508183584
I0403 18:16:30.845000  6765 layer_factory.hpp:77] Creating layer inception_3a/relu_3x3_reduce
I0403 18:16:30.845041  6765 net.cpp:91] Creating Layer inception_3a/relu_3x3_reduce
I0403 18:16:30.845060  6765 net.cpp:425] inception_3a/relu_3x3_reduce <- inception_3a/3x3_reduce
I0403 18:16:30.845078  6765 net.cpp:386] inception_3a/relu_3x3_reduce -> inception_3a/3x3_reduce (in-place)
I0403 18:16:30.845283  6765 net.cpp:141] Setting up inception_3a/relu_3x3_reduce
I0403 18:16:30.845309  6765 net.cpp:148] Top shape: 24 96 28 28 (1806336)
I0403 18:16:30.845325  6765 net.cpp:156] Memory required for data: 515408928
I0403 18:16:30.845341  6765 layer_factory.hpp:77] Creating layer inception_3a/3x3
I0403 18:16:30.845367  6765 net.cpp:91] Creating Layer inception_3a/3x3
I0403 18:16:30.845386  6765 net.cpp:425] inception_3a/3x3 <- inception_3a/3x3_reduce
I0403 18:16:30.845404  6765 net.cpp:399] inception_3a/3x3 -> inception_3a/3x3
I0403 18:16:30.847013  6765 net.cpp:141] Setting up inception_3a/3x3
I0403 18:16:30.847043  6765 net.cpp:148] Top shape: 24 128 28 28 (2408448)
I0403 18:16:30.847059  6765 net.cpp:156] Memory required for data: 525042720
I0403 18:16:30.847077  6765 layer_factory.hpp:77] Creating layer inception_3a/relu_3x3
I0403 18:16:30.847100  6765 net.cpp:91] Creating Layer inception_3a/relu_3x3
I0403 18:16:30.847116  6765 net.cpp:425] inception_3a/relu_3x3 <- inception_3a/3x3
I0403 18:16:30.847133  6765 net.cpp:386] inception_3a/relu_3x3 -> inception_3a/3x3 (in-place)
I0403 18:16:30.847400  6765 net.cpp:141] Setting up inception_3a/relu_3x3
I0403 18:16:30.847426  6765 net.cpp:148] Top shape: 24 128 28 28 (2408448)
I0403 18:16:30.847440  6765 net.cpp:156] Memory required for data: 534676512
I0403 18:16:30.847455  6765 layer_factory.hpp:77] Creating layer inception_3a/5x5_reduce
I0403 18:16:30.847479  6765 net.cpp:91] Creating Layer inception_3a/5x5_reduce
I0403 18:16:30.847496  6765 net.cpp:425] inception_3a/5x5_reduce <- pool2/3x3_s2_pool2/3x3_s2_0_split_2
I0403 18:16:30.847517  6765 net.cpp:399] inception_3a/5x5_reduce -> inception_3a/5x5_reduce
I0403 18:16:30.848448  6765 net.cpp:141] Setting up inception_3a/5x5_reduce
I0403 18:16:30.848476  6765 net.cpp:148] Top shape: 24 16 28 28 (301056)
I0403 18:16:30.848494  6765 net.cpp:156] Memory required for data: 535880736
I0403 18:16:30.848512  6765 layer_factory.hpp:77] Creating layer inception_3a/relu_5x5_reduce
I0403 18:16:30.848534  6765 net.cpp:91] Creating Layer inception_3a/relu_5x5_reduce
I0403 18:16:30.848551  6765 net.cpp:425] inception_3a/relu_5x5_reduce <- inception_3a/5x5_reduce
I0403 18:16:30.848569  6765 net.cpp:386] inception_3a/relu_5x5_reduce -> inception_3a/5x5_reduce (in-place)
I0403 18:16:30.848845  6765 net.cpp:141] Setting up inception_3a/relu_5x5_reduce
I0403 18:16:30.848871  6765 net.cpp:148] Top shape: 24 16 28 28 (301056)
I0403 18:16:30.848886  6765 net.cpp:156] Memory required for data: 537084960
I0403 18:16:30.848901  6765 layer_factory.hpp:77] Creating layer inception_3a/5x5
I0403 18:16:30.848923  6765 net.cpp:91] Creating Layer inception_3a/5x5
I0403 18:16:30.848940  6765 net.cpp:425] inception_3a/5x5 <- inception_3a/5x5_reduce
I0403 18:16:30.848964  6765 net.cpp:399] inception_3a/5x5 -> inception_3a/5x5
I0403 18:16:30.849946  6765 net.cpp:141] Setting up inception_3a/5x5
I0403 18:16:30.849974  6765 net.cpp:148] Top shape: 24 32 28 28 (602112)
I0403 18:16:30.849990  6765 net.cpp:156] Memory required for data: 539493408
I0403 18:16:30.850009  6765 layer_factory.hpp:77] Creating layer inception_3a/relu_5x5
I0403 18:16:30.850028  6765 net.cpp:91] Creating Layer inception_3a/relu_5x5
I0403 18:16:30.850044  6765 net.cpp:425] inception_3a/relu_5x5 <- inception_3a/5x5
I0403 18:16:30.850064  6765 net.cpp:386] inception_3a/relu_5x5 -> inception_3a/5x5 (in-place)
I0403 18:16:30.850231  6765 net.cpp:141] Setting up inception_3a/relu_5x5
I0403 18:16:30.850255  6765 net.cpp:148] Top shape: 24 32 28 28 (602112)
I0403 18:16:30.850273  6765 net.cpp:156] Memory required for data: 541901856
I0403 18:16:30.850291  6765 layer_factory.hpp:77] Creating layer inception_3a/pool
I0403 18:16:30.850311  6765 net.cpp:91] Creating Layer inception_3a/pool
I0403 18:16:30.850342  6765 net.cpp:425] inception_3a/pool <- pool2/3x3_s2_pool2/3x3_s2_0_split_3
I0403 18:16:30.850360  6765 net.cpp:399] inception_3a/pool -> inception_3a/pool
I0403 18:16:30.850417  6765 net.cpp:141] Setting up inception_3a/pool
I0403 18:16:30.850440  6765 net.cpp:148] Top shape: 24 192 28 28 (3612672)
I0403 18:16:30.850455  6765 net.cpp:156] Memory required for data: 556352544
I0403 18:16:30.850469  6765 layer_factory.hpp:77] Creating layer inception_3a/pool_proj
I0403 18:16:30.850492  6765 net.cpp:91] Creating Layer inception_3a/pool_proj
I0403 18:16:30.850507  6765 net.cpp:425] inception_3a/pool_proj <- inception_3a/pool
I0403 18:16:30.850528  6765 net.cpp:399] inception_3a/pool_proj -> inception_3a/pool_proj
I0403 18:16:30.851454  6765 net.cpp:141] Setting up inception_3a/pool_proj
I0403 18:16:30.851481  6765 net.cpp:148] Top shape: 24 32 28 28 (602112)
I0403 18:16:30.851496  6765 net.cpp:156] Memory required for data: 558760992
I0403 18:16:30.851521  6765 layer_factory.hpp:77] Creating layer inception_3a/relu_pool_proj
I0403 18:16:30.851541  6765 net.cpp:91] Creating Layer inception_3a/relu_pool_proj
I0403 18:16:30.851559  6765 net.cpp:425] inception_3a/relu_pool_proj <- inception_3a/pool_proj
I0403 18:16:30.851577  6765 net.cpp:386] inception_3a/relu_pool_proj -> inception_3a/pool_proj (in-place)
I0403 18:16:30.851838  6765 net.cpp:141] Setting up inception_3a/relu_pool_proj
I0403 18:16:30.851864  6765 net.cpp:148] Top shape: 24 32 28 28 (602112)
I0403 18:16:30.851879  6765 net.cpp:156] Memory required for data: 561169440
I0403 18:16:30.851896  6765 layer_factory.hpp:77] Creating layer inception_3a/output
I0403 18:16:30.851912  6765 net.cpp:91] Creating Layer inception_3a/output
I0403 18:16:30.851927  6765 net.cpp:425] inception_3a/output <- inception_3a/1x1
I0403 18:16:30.851943  6765 net.cpp:425] inception_3a/output <- inception_3a/3x3
I0403 18:16:30.851959  6765 net.cpp:425] inception_3a/output <- inception_3a/5x5
I0403 18:16:30.851975  6765 net.cpp:425] inception_3a/output <- inception_3a/pool_proj
I0403 18:16:30.851997  6765 net.cpp:399] inception_3a/output -> inception_3a/output
I0403 18:16:30.852043  6765 net.cpp:141] Setting up inception_3a/output
I0403 18:16:30.852068  6765 net.cpp:148] Top shape: 24 256 28 28 (4816896)
I0403 18:16:30.852084  6765 net.cpp:156] Memory required for data: 580437024
I0403 18:16:30.852099  6765 layer_factory.hpp:77] Creating layer inception_3a/output_inception_3a/output_0_split
I0403 18:16:30.852116  6765 net.cpp:91] Creating Layer inception_3a/output_inception_3a/output_0_split
I0403 18:16:30.852131  6765 net.cpp:425] inception_3a/output_inception_3a/output_0_split <- inception_3a/output
I0403 18:16:30.852151  6765 net.cpp:399] inception_3a/output_inception_3a/output_0_split -> inception_3a/output_inception_3a/output_0_split_0
I0403 18:16:30.852185  6765 net.cpp:399] inception_3a/output_inception_3a/output_0_split -> inception_3a/output_inception_3a/output_0_split_1
I0403 18:16:30.852207  6765 net.cpp:399] inception_3a/output_inception_3a/output_0_split -> inception_3a/output_inception_3a/output_0_split_2
I0403 18:16:30.852228  6765 net.cpp:399] inception_3a/output_inception_3a/output_0_split -> inception_3a/output_inception_3a/output_0_split_3
I0403 18:16:30.852313  6765 net.cpp:141] Setting up inception_3a/output_inception_3a/output_0_split
I0403 18:16:30.852339  6765 net.cpp:148] Top shape: 24 256 28 28 (4816896)
I0403 18:16:30.852357  6765 net.cpp:148] Top shape: 24 256 28 28 (4816896)
I0403 18:16:30.852375  6765 net.cpp:148] Top shape: 24 256 28 28 (4816896)
I0403 18:16:30.852390  6765 net.cpp:148] Top shape: 24 256 28 28 (4816896)
I0403 18:16:30.852404  6765 net.cpp:156] Memory required for data: 657507360
I0403 18:16:30.852419  6765 layer_factory.hpp:77] Creating layer inception_3b/1x1
I0403 18:16:30.852443  6765 net.cpp:91] Creating Layer inception_3b/1x1
I0403 18:16:30.852463  6765 net.cpp:425] inception_3b/1x1 <- inception_3a/output_inception_3a/output_0_split_0
I0403 18:16:30.852494  6765 net.cpp:399] inception_3b/1x1 -> inception_3b/1x1
I0403 18:16:30.853602  6765 net.cpp:141] Setting up inception_3b/1x1
I0403 18:16:30.853646  6765 net.cpp:148] Top shape: 24 128 28 28 (2408448)
I0403 18:16:30.853665  6765 net.cpp:156] Memory required for data: 667141152
I0403 18:16:30.853685  6765 layer_factory.hpp:77] Creating layer inception_3b/relu_1x1
I0403 18:16:30.853704  6765 net.cpp:91] Creating Layer inception_3b/relu_1x1
I0403 18:16:30.853721  6765 net.cpp:425] inception_3b/relu_1x1 <- inception_3b/1x1
I0403 18:16:30.853740  6765 net.cpp:386] inception_3b/relu_1x1 -> inception_3b/1x1 (in-place)
I0403 18:16:30.853907  6765 net.cpp:141] Setting up inception_3b/relu_1x1
I0403 18:16:30.853932  6765 net.cpp:148] Top shape: 24 128 28 28 (2408448)
I0403 18:16:30.853948  6765 net.cpp:156] Memory required for data: 676774944
I0403 18:16:30.853962  6765 layer_factory.hpp:77] Creating layer inception_3b/3x3_reduce
I0403 18:16:30.853984  6765 net.cpp:91] Creating Layer inception_3b/3x3_reduce
I0403 18:16:30.854002  6765 net.cpp:425] inception_3b/3x3_reduce <- inception_3a/output_inception_3a/output_0_split_1
I0403 18:16:30.854023  6765 net.cpp:399] inception_3b/3x3_reduce -> inception_3b/3x3_reduce
I0403 18:16:30.855144  6765 net.cpp:141] Setting up inception_3b/3x3_reduce
I0403 18:16:30.855172  6765 net.cpp:148] Top shape: 24 128 28 28 (2408448)
I0403 18:16:30.855190  6765 net.cpp:156] Memory required for data: 686408736
I0403 18:16:30.855207  6765 layer_factory.hpp:77] Creating layer inception_3b/relu_3x3_reduce
I0403 18:16:30.855226  6765 net.cpp:91] Creating Layer inception_3b/relu_3x3_reduce
I0403 18:16:30.855240  6765 net.cpp:425] inception_3b/relu_3x3_reduce <- inception_3b/3x3_reduce
I0403 18:16:30.855260  6765 net.cpp:386] inception_3b/relu_3x3_reduce -> inception_3b/3x3_reduce (in-place)
I0403 18:16:30.855432  6765 net.cpp:141] Setting up inception_3b/relu_3x3_reduce
I0403 18:16:30.855456  6765 net.cpp:148] Top shape: 24 128 28 28 (2408448)
I0403 18:16:30.855470  6765 net.cpp:156] Memory required for data: 696042528
I0403 18:16:30.855486  6765 layer_factory.hpp:77] Creating layer inception_3b/3x3
I0403 18:16:30.855515  6765 net.cpp:91] Creating Layer inception_3b/3x3
I0403 18:16:30.855533  6765 net.cpp:425] inception_3b/3x3 <- inception_3b/3x3_reduce
I0403 18:16:30.855552  6765 net.cpp:399] inception_3b/3x3 -> inception_3b/3x3
I0403 18:16:30.858408  6765 net.cpp:141] Setting up inception_3b/3x3
I0403 18:16:30.858438  6765 net.cpp:148] Top shape: 24 192 28 28 (3612672)
I0403 18:16:30.858455  6765 net.cpp:156] Memory required for data: 710493216
I0403 18:16:30.858475  6765 layer_factory.hpp:77] Creating layer inception_3b/relu_3x3
I0403 18:16:30.858497  6765 net.cpp:91] Creating Layer inception_3b/relu_3x3
I0403 18:16:30.858516  6765 net.cpp:425] inception_3b/relu_3x3 <- inception_3b/3x3
I0403 18:16:30.858536  6765 net.cpp:386] inception_3b/relu_3x3 -> inception_3b/3x3 (in-place)
I0403 18:16:30.858808  6765 net.cpp:141] Setting up inception_3b/relu_3x3
I0403 18:16:30.858835  6765 net.cpp:148] Top shape: 24 192 28 28 (3612672)
I0403 18:16:30.858851  6765 net.cpp:156] Memory required for data: 724943904
I0403 18:16:30.858867  6765 layer_factory.hpp:77] Creating layer inception_3b/5x5_reduce
I0403 18:16:30.858892  6765 net.cpp:91] Creating Layer inception_3b/5x5_reduce
I0403 18:16:30.858912  6765 net.cpp:425] inception_3b/5x5_reduce <- inception_3a/output_inception_3a/output_0_split_2
I0403 18:16:30.858934  6765 net.cpp:399] inception_3b/5x5_reduce -> inception_3b/5x5_reduce
I0403 18:16:30.859930  6765 net.cpp:141] Setting up inception_3b/5x5_reduce
I0403 18:16:30.859961  6765 net.cpp:148] Top shape: 24 32 28 28 (602112)
I0403 18:16:30.859977  6765 net.cpp:156] Memory required for data: 727352352
I0403 18:16:30.859997  6765 layer_factory.hpp:77] Creating layer inception_3b/relu_5x5_reduce
I0403 18:16:30.860015  6765 net.cpp:91] Creating Layer inception_3b/relu_5x5_reduce
I0403 18:16:30.860033  6765 net.cpp:425] inception_3b/relu_5x5_reduce <- inception_3b/5x5_reduce
I0403 18:16:30.860054  6765 net.cpp:386] inception_3b/relu_5x5_reduce -> inception_3b/5x5_reduce (in-place)
I0403 18:16:30.860240  6765 net.cpp:141] Setting up inception_3b/relu_5x5_reduce
I0403 18:16:30.860267  6765 net.cpp:148] Top shape: 24 32 28 28 (602112)
I0403 18:16:30.860287  6765 net.cpp:156] Memory required for data: 729760800
I0403 18:16:30.860304  6765 layer_factory.hpp:77] Creating layer inception_3b/5x5
I0403 18:16:30.860327  6765 net.cpp:91] Creating Layer inception_3b/5x5
I0403 18:16:30.860344  6765 net.cpp:425] inception_3b/5x5 <- inception_3b/5x5_reduce
I0403 18:16:30.860368  6765 net.cpp:399] inception_3b/5x5 -> inception_3b/5x5
I0403 18:16:30.862360  6765 net.cpp:141] Setting up inception_3b/5x5
I0403 18:16:30.862393  6765 net.cpp:148] Top shape: 24 96 28 28 (1806336)
I0403 18:16:30.862411  6765 net.cpp:156] Memory required for data: 736986144
I0403 18:16:30.862431  6765 layer_factory.hpp:77] Creating layer inception_3b/relu_5x5
I0403 18:16:30.862449  6765 net.cpp:91] Creating Layer inception_3b/relu_5x5
I0403 18:16:30.862467  6765 net.cpp:425] inception_3b/relu_5x5 <- inception_3b/5x5
I0403 18:16:30.862486  6765 net.cpp:386] inception_3b/relu_5x5 -> inception_3b/5x5 (in-place)
I0403 18:16:30.862681  6765 net.cpp:141] Setting up inception_3b/relu_5x5
I0403 18:16:30.862706  6765 net.cpp:148] Top shape: 24 96 28 28 (1806336)
I0403 18:16:30.862721  6765 net.cpp:156] Memory required for data: 744211488
I0403 18:16:30.862737  6765 layer_factory.hpp:77] Creating layer inception_3b/pool
I0403 18:16:30.862756  6765 net.cpp:91] Creating Layer inception_3b/pool
I0403 18:16:30.862772  6765 net.cpp:425] inception_3b/pool <- inception_3a/output_inception_3a/output_0_split_3
I0403 18:16:30.862790  6765 net.cpp:399] inception_3b/pool -> inception_3b/pool
I0403 18:16:30.862846  6765 net.cpp:141] Setting up inception_3b/pool
I0403 18:16:30.862869  6765 net.cpp:148] Top shape: 24 256 28 28 (4816896)
I0403 18:16:30.862884  6765 net.cpp:156] Memory required for data: 763479072
I0403 18:16:30.862900  6765 layer_factory.hpp:77] Creating layer inception_3b/pool_proj
I0403 18:16:30.862926  6765 net.cpp:91] Creating Layer inception_3b/pool_proj
I0403 18:16:30.862942  6765 net.cpp:425] inception_3b/pool_proj <- inception_3b/pool
I0403 18:16:30.862962  6765 net.cpp:399] inception_3b/pool_proj -> inception_3b/pool_proj
I0403 18:16:30.864013  6765 net.cpp:141] Setting up inception_3b/pool_proj
I0403 18:16:30.864042  6765 net.cpp:148] Top shape: 24 64 28 28 (1204224)
I0403 18:16:30.864059  6765 net.cpp:156] Memory required for data: 768295968
I0403 18:16:30.864078  6765 layer_factory.hpp:77] Creating layer inception_3b/relu_pool_proj
I0403 18:16:30.864100  6765 net.cpp:91] Creating Layer inception_3b/relu_pool_proj
I0403 18:16:30.864119  6765 net.cpp:425] inception_3b/relu_pool_proj <- inception_3b/pool_proj
I0403 18:16:30.864135  6765 net.cpp:386] inception_3b/relu_pool_proj -> inception_3b/pool_proj (in-place)
I0403 18:16:30.864519  6765 net.cpp:141] Setting up inception_3b/relu_pool_proj
I0403 18:16:30.864547  6765 net.cpp:148] Top shape: 24 64 28 28 (1204224)
I0403 18:16:30.864563  6765 net.cpp:156] Memory required for data: 773112864
I0403 18:16:30.864578  6765 layer_factory.hpp:77] Creating layer inception_3b/output
I0403 18:16:30.864598  6765 net.cpp:91] Creating Layer inception_3b/output
I0403 18:16:30.864614  6765 net.cpp:425] inception_3b/output <- inception_3b/1x1
I0403 18:16:30.864631  6765 net.cpp:425] inception_3b/output <- inception_3b/3x3
I0403 18:16:30.864647  6765 net.cpp:425] inception_3b/output <- inception_3b/5x5
I0403 18:16:30.864665  6765 net.cpp:425] inception_3b/output <- inception_3b/pool_proj
I0403 18:16:30.864681  6765 net.cpp:399] inception_3b/output -> inception_3b/output
I0403 18:16:30.864725  6765 net.cpp:141] Setting up inception_3b/output
I0403 18:16:30.864751  6765 net.cpp:148] Top shape: 24 480 28 28 (9031680)
I0403 18:16:30.864768  6765 net.cpp:156] Memory required for data: 809239584
I0403 18:16:30.864783  6765 layer_factory.hpp:77] Creating layer pool3/3x3_s2
I0403 18:16:30.864800  6765 net.cpp:91] Creating Layer pool3/3x3_s2
I0403 18:16:30.864815  6765 net.cpp:425] pool3/3x3_s2 <- inception_3b/output
I0403 18:16:30.864851  6765 net.cpp:399] pool3/3x3_s2 -> pool3/3x3_s2
I0403 18:16:30.864912  6765 net.cpp:141] Setting up pool3/3x3_s2
I0403 18:16:30.864938  6765 net.cpp:148] Top shape: 24 480 14 14 (2257920)
I0403 18:16:30.864954  6765 net.cpp:156] Memory required for data: 818271264
I0403 18:16:30.864969  6765 layer_factory.hpp:77] Creating layer pool3/3x3_s2_pool3/3x3_s2_0_split
I0403 18:16:30.864987  6765 net.cpp:91] Creating Layer pool3/3x3_s2_pool3/3x3_s2_0_split
I0403 18:16:30.865003  6765 net.cpp:425] pool3/3x3_s2_pool3/3x3_s2_0_split <- pool3/3x3_s2
I0403 18:16:30.865020  6765 net.cpp:399] pool3/3x3_s2_pool3/3x3_s2_0_split -> pool3/3x3_s2_pool3/3x3_s2_0_split_0
I0403 18:16:30.865039  6765 net.cpp:399] pool3/3x3_s2_pool3/3x3_s2_0_split -> pool3/3x3_s2_pool3/3x3_s2_0_split_1
I0403 18:16:30.865062  6765 net.cpp:399] pool3/3x3_s2_pool3/3x3_s2_0_split -> pool3/3x3_s2_pool3/3x3_s2_0_split_2
I0403 18:16:30.865082  6765 net.cpp:399] pool3/3x3_s2_pool3/3x3_s2_0_split -> pool3/3x3_s2_pool3/3x3_s2_0_split_3
I0403 18:16:30.865162  6765 net.cpp:141] Setting up pool3/3x3_s2_pool3/3x3_s2_0_split
I0403 18:16:30.865185  6765 net.cpp:148] Top shape: 24 480 14 14 (2257920)
I0403 18:16:30.865202  6765 net.cpp:148] Top shape: 24 480 14 14 (2257920)
I0403 18:16:30.865218  6765 net.cpp:148] Top shape: 24 480 14 14 (2257920)
I0403 18:16:30.865234  6765 net.cpp:148] Top shape: 24 480 14 14 (2257920)
I0403 18:16:30.865248  6765 net.cpp:156] Memory required for data: 854397984
I0403 18:16:30.865264  6765 layer_factory.hpp:77] Creating layer inception_4a/1x1
I0403 18:16:30.865291  6765 net.cpp:91] Creating Layer inception_4a/1x1
I0403 18:16:30.865310  6765 net.cpp:425] inception_4a/1x1 <- pool3/3x3_s2_pool3/3x3_s2_0_split_0
I0403 18:16:30.865332  6765 net.cpp:399] inception_4a/1x1 -> inception_4a/1x1
I0403 18:16:30.866899  6765 net.cpp:141] Setting up inception_4a/1x1
I0403 18:16:30.866930  6765 net.cpp:148] Top shape: 24 192 14 14 (903168)
I0403 18:16:30.866945  6765 net.cpp:156] Memory required for data: 858010656
I0403 18:16:30.866966  6765 layer_factory.hpp:77] Creating layer inception_4a/relu_1x1
I0403 18:16:30.866988  6765 net.cpp:91] Creating Layer inception_4a/relu_1x1
I0403 18:16:30.867007  6765 net.cpp:425] inception_4a/relu_1x1 <- inception_4a/1x1
I0403 18:16:30.867025  6765 net.cpp:386] inception_4a/relu_1x1 -> inception_4a/1x1 (in-place)
I0403 18:16:30.867208  6765 net.cpp:141] Setting up inception_4a/relu_1x1
I0403 18:16:30.867233  6765 net.cpp:148] Top shape: 24 192 14 14 (903168)
I0403 18:16:30.867249  6765 net.cpp:156] Memory required for data: 861623328
I0403 18:16:30.867264  6765 layer_factory.hpp:77] Creating layer inception_4a/3x3_reduce
I0403 18:16:30.867291  6765 net.cpp:91] Creating Layer inception_4a/3x3_reduce
I0403 18:16:30.867311  6765 net.cpp:425] inception_4a/3x3_reduce <- pool3/3x3_s2_pool3/3x3_s2_0_split_1
I0403 18:16:30.867331  6765 net.cpp:399] inception_4a/3x3_reduce -> inception_4a/3x3_reduce
I0403 18:16:30.868607  6765 net.cpp:141] Setting up inception_4a/3x3_reduce
I0403 18:16:30.868636  6765 net.cpp:148] Top shape: 24 96 14 14 (451584)
I0403 18:16:30.868652  6765 net.cpp:156] Memory required for data: 863429664
I0403 18:16:30.868677  6765 layer_factory.hpp:77] Creating layer inception_4a/relu_3x3_reduce
I0403 18:16:30.868700  6765 net.cpp:91] Creating Layer inception_4a/relu_3x3_reduce
I0403 18:16:30.868718  6765 net.cpp:425] inception_4a/relu_3x3_reduce <- inception_4a/3x3_reduce
I0403 18:16:30.868736  6765 net.cpp:386] inception_4a/relu_3x3_reduce -> inception_4a/3x3_reduce (in-place)
I0403 18:16:30.868911  6765 net.cpp:141] Setting up inception_4a/relu_3x3_reduce
I0403 18:16:30.868939  6765 net.cpp:148] Top shape: 24 96 14 14 (451584)
I0403 18:16:30.868955  6765 net.cpp:156] Memory required for data: 865236000
I0403 18:16:30.868971  6765 layer_factory.hpp:77] Creating layer inception_4a/3x3
I0403 18:16:30.868993  6765 net.cpp:91] Creating Layer inception_4a/3x3
I0403 18:16:30.869011  6765 net.cpp:425] inception_4a/3x3 <- inception_4a/3x3_reduce
I0403 18:16:30.869031  6765 net.cpp:399] inception_4a/3x3 -> inception_4a/3x3
I0403 18:16:30.871724  6765 net.cpp:141] Setting up inception_4a/3x3
I0403 18:16:30.871757  6765 net.cpp:148] Top shape: 24 208 14 14 (978432)
I0403 18:16:30.871774  6765 net.cpp:156] Memory required for data: 869149728
I0403 18:16:30.871794  6765 layer_factory.hpp:77] Creating layer inception_4a/relu_3x3
I0403 18:16:30.871814  6765 net.cpp:91] Creating Layer inception_4a/relu_3x3
I0403 18:16:30.871829  6765 net.cpp:425] inception_4a/relu_3x3 <- inception_4a/3x3
I0403 18:16:30.871850  6765 net.cpp:386] inception_4a/relu_3x3 -> inception_4a/3x3 (in-place)
I0403 18:16:30.872125  6765 net.cpp:141] Setting up inception_4a/relu_3x3
I0403 18:16:30.872154  6765 net.cpp:148] Top shape: 24 208 14 14 (978432)
I0403 18:16:30.872171  6765 net.cpp:156] Memory required for data: 873063456
I0403 18:16:30.872187  6765 layer_factory.hpp:77] Creating layer inception_4a/5x5_reduce
I0403 18:16:30.872211  6765 net.cpp:91] Creating Layer inception_4a/5x5_reduce
I0403 18:16:30.872228  6765 net.cpp:425] inception_4a/5x5_reduce <- pool3/3x3_s2_pool3/3x3_s2_0_split_2
I0403 18:16:30.872249  6765 net.cpp:399] inception_4a/5x5_reduce -> inception_4a/5x5_reduce
I0403 18:16:30.873261  6765 net.cpp:141] Setting up inception_4a/5x5_reduce
I0403 18:16:30.873296  6765 net.cpp:148] Top shape: 24 16 14 14 (75264)
I0403 18:16:30.873313  6765 net.cpp:156] Memory required for data: 873364512
I0403 18:16:30.873332  6765 layer_factory.hpp:77] Creating layer inception_4a/relu_5x5_reduce
I0403 18:16:30.873352  6765 net.cpp:91] Creating Layer inception_4a/relu_5x5_reduce
I0403 18:16:30.873368  6765 net.cpp:425] inception_4a/relu_5x5_reduce <- inception_4a/5x5_reduce
I0403 18:16:30.873389  6765 net.cpp:386] inception_4a/relu_5x5_reduce -> inception_4a/5x5_reduce (in-place)
I0403 18:16:30.873567  6765 net.cpp:141] Setting up inception_4a/relu_5x5_reduce
I0403 18:16:30.873592  6765 net.cpp:148] Top shape: 24 16 14 14 (75264)
I0403 18:16:30.873607  6765 net.cpp:156] Memory required for data: 873665568
I0403 18:16:30.873622  6765 layer_factory.hpp:77] Creating layer inception_4a/5x5
I0403 18:16:30.873644  6765 net.cpp:91] Creating Layer inception_4a/5x5
I0403 18:16:30.873662  6765 net.cpp:425] inception_4a/5x5 <- inception_4a/5x5_reduce
I0403 18:16:30.873685  6765 net.cpp:399] inception_4a/5x5 -> inception_4a/5x5
I0403 18:16:30.874771  6765 net.cpp:141] Setting up inception_4a/5x5
I0403 18:16:30.874799  6765 net.cpp:148] Top shape: 24 48 14 14 (225792)
I0403 18:16:30.874815  6765 net.cpp:156] Memory required for data: 874568736
I0403 18:16:30.874833  6765 layer_factory.hpp:77] Creating layer inception_4a/relu_5x5
I0403 18:16:30.874855  6765 net.cpp:91] Creating Layer inception_4a/relu_5x5
I0403 18:16:30.874873  6765 net.cpp:425] inception_4a/relu_5x5 <- inception_4a/5x5
I0403 18:16:30.874891  6765 net.cpp:386] inception_4a/relu_5x5 -> inception_4a/5x5 (in-place)
I0403 18:16:30.875069  6765 net.cpp:141] Setting up inception_4a/relu_5x5
I0403 18:16:30.875094  6765 net.cpp:148] Top shape: 24 48 14 14 (225792)
I0403 18:16:30.875109  6765 net.cpp:156] Memory required for data: 875471904
I0403 18:16:30.875124  6765 layer_factory.hpp:77] Creating layer inception_4a/pool
I0403 18:16:30.875145  6765 net.cpp:91] Creating Layer inception_4a/pool
I0403 18:16:30.875164  6765 net.cpp:425] inception_4a/pool <- pool3/3x3_s2_pool3/3x3_s2_0_split_3
I0403 18:16:30.875183  6765 net.cpp:399] inception_4a/pool -> inception_4a/pool
I0403 18:16:30.875243  6765 net.cpp:141] Setting up inception_4a/pool
I0403 18:16:30.875267  6765 net.cpp:148] Top shape: 24 480 14 14 (2257920)
I0403 18:16:30.875288  6765 net.cpp:156] Memory required for data: 884503584
I0403 18:16:30.875303  6765 layer_factory.hpp:77] Creating layer inception_4a/pool_proj
I0403 18:16:30.875325  6765 net.cpp:91] Creating Layer inception_4a/pool_proj
I0403 18:16:30.875344  6765 net.cpp:425] inception_4a/pool_proj <- inception_4a/pool
I0403 18:16:30.875365  6765 net.cpp:399] inception_4a/pool_proj -> inception_4a/pool_proj
I0403 18:16:30.876519  6765 net.cpp:141] Setting up inception_4a/pool_proj
I0403 18:16:30.876552  6765 net.cpp:148] Top shape: 24 64 14 14 (301056)
I0403 18:16:30.876585  6765 net.cpp:156] Memory required for data: 885707808
I0403 18:16:30.876603  6765 layer_factory.hpp:77] Creating layer inception_4a/relu_pool_proj
I0403 18:16:30.876626  6765 net.cpp:91] Creating Layer inception_4a/relu_pool_proj
I0403 18:16:30.876644  6765 net.cpp:425] inception_4a/relu_pool_proj <- inception_4a/pool_proj
I0403 18:16:30.876662  6765 net.cpp:386] inception_4a/relu_pool_proj -> inception_4a/pool_proj (in-place)
I0403 18:16:30.876942  6765 net.cpp:141] Setting up inception_4a/relu_pool_proj
I0403 18:16:30.876971  6765 net.cpp:148] Top shape: 24 64 14 14 (301056)
I0403 18:16:30.876986  6765 net.cpp:156] Memory required for data: 886912032
I0403 18:16:30.877002  6765 layer_factory.hpp:77] Creating layer inception_4a/output
I0403 18:16:30.877020  6765 net.cpp:91] Creating Layer inception_4a/output
I0403 18:16:30.877037  6765 net.cpp:425] inception_4a/output <- inception_4a/1x1
I0403 18:16:30.877053  6765 net.cpp:425] inception_4a/output <- inception_4a/3x3
I0403 18:16:30.877070  6765 net.cpp:425] inception_4a/output <- inception_4a/5x5
I0403 18:16:30.877087  6765 net.cpp:425] inception_4a/output <- inception_4a/pool_proj
I0403 18:16:30.877104  6765 net.cpp:399] inception_4a/output -> inception_4a/output
I0403 18:16:30.877148  6765 net.cpp:141] Setting up inception_4a/output
I0403 18:16:30.877171  6765 net.cpp:148] Top shape: 24 512 14 14 (2408448)
I0403 18:16:30.877187  6765 net.cpp:156] Memory required for data: 896545824
I0403 18:16:30.877202  6765 layer_factory.hpp:77] Creating layer inception_4a/output_inception_4a/output_0_split
I0403 18:16:30.877220  6765 net.cpp:91] Creating Layer inception_4a/output_inception_4a/output_0_split
I0403 18:16:30.877235  6765 net.cpp:425] inception_4a/output_inception_4a/output_0_split <- inception_4a/output
I0403 18:16:30.877255  6765 net.cpp:399] inception_4a/output_inception_4a/output_0_split -> inception_4a/output_inception_4a/output_0_split_0
I0403 18:16:30.877282  6765 net.cpp:399] inception_4a/output_inception_4a/output_0_split -> inception_4a/output_inception_4a/output_0_split_1
I0403 18:16:30.877305  6765 net.cpp:399] inception_4a/output_inception_4a/output_0_split -> inception_4a/output_inception_4a/output_0_split_2
I0403 18:16:30.877327  6765 net.cpp:399] inception_4a/output_inception_4a/output_0_split -> inception_4a/output_inception_4a/output_0_split_3
I0403 18:16:30.877348  6765 net.cpp:399] inception_4a/output_inception_4a/output_0_split -> inception_4a/output_inception_4a/output_0_split_4
I0403 18:16:30.877447  6765 net.cpp:141] Setting up inception_4a/output_inception_4a/output_0_split
I0403 18:16:30.877471  6765 net.cpp:148] Top shape: 24 512 14 14 (2408448)
I0403 18:16:30.877490  6765 net.cpp:148] Top shape: 24 512 14 14 (2408448)
I0403 18:16:30.877506  6765 net.cpp:148] Top shape: 24 512 14 14 (2408448)
I0403 18:16:30.877522  6765 net.cpp:148] Top shape: 24 512 14 14 (2408448)
I0403 18:16:30.877538  6765 net.cpp:148] Top shape: 24 512 14 14 (2408448)
I0403 18:16:30.877553  6765 net.cpp:156] Memory required for data: 944714784
I0403 18:16:30.877569  6765 layer_factory.hpp:77] Creating layer loss1/ave_pool
I0403 18:16:30.877586  6765 net.cpp:91] Creating Layer loss1/ave_pool
I0403 18:16:30.877604  6765 net.cpp:425] loss1/ave_pool <- inception_4a/output_inception_4a/output_0_split_0
I0403 18:16:30.877624  6765 net.cpp:399] loss1/ave_pool -> loss1/ave_pool
I0403 18:16:30.877833  6765 net.cpp:141] Setting up loss1/ave_pool
I0403 18:16:30.877859  6765 net.cpp:148] Top shape: 24 512 4 4 (196608)
I0403 18:16:30.877877  6765 net.cpp:156] Memory required for data: 945501216
I0403 18:16:30.877893  6765 layer_factory.hpp:77] Creating layer loss1/conv
I0403 18:16:30.877913  6765 net.cpp:91] Creating Layer loss1/conv
I0403 18:16:30.877931  6765 net.cpp:425] loss1/conv <- loss1/ave_pool
I0403 18:16:30.877953  6765 net.cpp:399] loss1/conv -> loss1/conv
I0403 18:16:30.879361  6765 net.cpp:141] Setting up loss1/conv
I0403 18:16:30.879393  6765 net.cpp:148] Top shape: 24 128 4 4 (49152)
I0403 18:16:30.879426  6765 net.cpp:156] Memory required for data: 945697824
I0403 18:16:30.879447  6765 layer_factory.hpp:77] Creating layer loss1/relu_conv
I0403 18:16:30.879467  6765 net.cpp:91] Creating Layer loss1/relu_conv
I0403 18:16:30.879484  6765 net.cpp:425] loss1/relu_conv <- loss1/conv
I0403 18:16:30.879504  6765 net.cpp:386] loss1/relu_conv -> loss1/conv (in-place)
I0403 18:16:30.879787  6765 net.cpp:141] Setting up loss1/relu_conv
I0403 18:16:30.879815  6765 net.cpp:148] Top shape: 24 128 4 4 (49152)
I0403 18:16:30.879832  6765 net.cpp:156] Memory required for data: 945894432
I0403 18:16:30.879847  6765 layer_factory.hpp:77] Creating layer loss1/fc
I0403 18:16:30.879873  6765 net.cpp:91] Creating Layer loss1/fc
I0403 18:16:30.879891  6765 net.cpp:425] loss1/fc <- loss1/conv
I0403 18:16:30.879914  6765 net.cpp:399] loss1/fc -> loss1/fc
I0403 18:16:30.897578  6765 net.cpp:141] Setting up loss1/fc
I0403 18:16:30.897611  6765 net.cpp:148] Top shape: 24 1024 (24576)
I0403 18:16:30.897627  6765 net.cpp:156] Memory required for data: 945992736
I0403 18:16:30.897647  6765 layer_factory.hpp:77] Creating layer loss1/relu_fc
I0403 18:16:30.897670  6765 net.cpp:91] Creating Layer loss1/relu_fc
I0403 18:16:30.897689  6765 net.cpp:425] loss1/relu_fc <- loss1/fc
I0403 18:16:30.897707  6765 net.cpp:386] loss1/relu_fc -> loss1/fc (in-place)
I0403 18:16:30.897898  6765 net.cpp:141] Setting up loss1/relu_fc
I0403 18:16:30.897924  6765 net.cpp:148] Top shape: 24 1024 (24576)
I0403 18:16:30.897941  6765 net.cpp:156] Memory required for data: 946091040
I0403 18:16:30.897958  6765 layer_factory.hpp:77] Creating layer loss1/drop_fc
I0403 18:16:30.897984  6765 net.cpp:91] Creating Layer loss1/drop_fc
I0403 18:16:30.898005  6765 net.cpp:425] loss1/drop_fc <- loss1/fc
I0403 18:16:30.898025  6765 net.cpp:386] loss1/drop_fc -> loss1/fc (in-place)
I0403 18:16:30.898075  6765 net.cpp:141] Setting up loss1/drop_fc
I0403 18:16:30.898100  6765 net.cpp:148] Top shape: 24 1024 (24576)
I0403 18:16:30.898116  6765 net.cpp:156] Memory required for data: 946189344
I0403 18:16:30.898133  6765 layer_factory.hpp:77] Creating layer loss1/classifier_plantvillage
I0403 18:16:30.898157  6765 net.cpp:91] Creating Layer loss1/classifier_plantvillage
I0403 18:16:30.898176  6765 net.cpp:425] loss1/classifier_plantvillage <- loss1/fc
I0403 18:16:30.898195  6765 net.cpp:399] loss1/classifier_plantvillage -> loss1/classifier_plantvillage
I0403 18:16:30.899139  6765 net.cpp:141] Setting up loss1/classifier_plantvillage
I0403 18:16:30.899168  6765 net.cpp:148] Top shape: 24 38 (912)
I0403 18:16:30.899184  6765 net.cpp:156] Memory required for data: 946192992
I0403 18:16:30.899204  6765 layer_factory.hpp:77] Creating layer loss1/classifier_plantvillage_loss1/classifier_plantvillage_0_split
I0403 18:16:30.899224  6765 net.cpp:91] Creating Layer loss1/classifier_plantvillage_loss1/classifier_plantvillage_0_split
I0403 18:16:30.899240  6765 net.cpp:425] loss1/classifier_plantvillage_loss1/classifier_plantvillage_0_split <- loss1/classifier_plantvillage
I0403 18:16:30.899257  6765 net.cpp:399] loss1/classifier_plantvillage_loss1/classifier_plantvillage_0_split -> loss1/classifier_plantvillage_loss1/classifier_plantvillage_0_split_0
I0403 18:16:30.899286  6765 net.cpp:399] loss1/classifier_plantvillage_loss1/classifier_plantvillage_0_split -> loss1/classifier_plantvillage_loss1/classifier_plantvillage_0_split_1
I0403 18:16:30.899309  6765 net.cpp:399] loss1/classifier_plantvillage_loss1/classifier_plantvillage_0_split -> loss1/classifier_plantvillage_loss1/classifier_plantvillage_0_split_2
I0403 18:16:30.899377  6765 net.cpp:141] Setting up loss1/classifier_plantvillage_loss1/classifier_plantvillage_0_split
I0403 18:16:30.899399  6765 net.cpp:148] Top shape: 24 38 (912)
I0403 18:16:30.899416  6765 net.cpp:148] Top shape: 24 38 (912)
I0403 18:16:30.899431  6765 net.cpp:148] Top shape: 24 38 (912)
I0403 18:16:30.899446  6765 net.cpp:156] Memory required for data: 946203936
I0403 18:16:30.899461  6765 layer_factory.hpp:77] Creating layer inception_4b/1x1
I0403 18:16:30.899483  6765 net.cpp:91] Creating Layer inception_4b/1x1
I0403 18:16:30.899521  6765 net.cpp:425] inception_4b/1x1 <- inception_4a/output_inception_4a/output_0_split_1
I0403 18:16:30.899541  6765 net.cpp:399] inception_4b/1x1 -> inception_4b/1x1
I0403 18:16:30.901213  6765 net.cpp:141] Setting up inception_4b/1x1
I0403 18:16:30.901243  6765 net.cpp:148] Top shape: 24 160 14 14 (752640)
I0403 18:16:30.901260  6765 net.cpp:156] Memory required for data: 949214496
I0403 18:16:30.901285  6765 layer_factory.hpp:77] Creating layer inception_4b/relu_1x1
I0403 18:16:30.901305  6765 net.cpp:91] Creating Layer inception_4b/relu_1x1
I0403 18:16:30.901322  6765 net.cpp:425] inception_4b/relu_1x1 <- inception_4b/1x1
I0403 18:16:30.901345  6765 net.cpp:386] inception_4b/relu_1x1 -> inception_4b/1x1 (in-place)
I0403 18:16:30.901526  6765 net.cpp:141] Setting up inception_4b/relu_1x1
I0403 18:16:30.901551  6765 net.cpp:148] Top shape: 24 160 14 14 (752640)
I0403 18:16:30.901566  6765 net.cpp:156] Memory required for data: 952225056
I0403 18:16:30.901581  6765 layer_factory.hpp:77] Creating layer inception_4b/3x3_reduce
I0403 18:16:30.901605  6765 net.cpp:91] Creating Layer inception_4b/3x3_reduce
I0403 18:16:30.901623  6765 net.cpp:425] inception_4b/3x3_reduce <- inception_4a/output_inception_4a/output_0_split_2
I0403 18:16:30.901645  6765 net.cpp:399] inception_4b/3x3_reduce -> inception_4b/3x3_reduce
I0403 18:16:30.903019  6765 net.cpp:141] Setting up inception_4b/3x3_reduce
I0403 18:16:30.903049  6765 net.cpp:148] Top shape: 24 112 14 14 (526848)
I0403 18:16:30.903065  6765 net.cpp:156] Memory required for data: 954332448
I0403 18:16:30.903084  6765 layer_factory.hpp:77] Creating layer inception_4b/relu_3x3_reduce
I0403 18:16:30.903106  6765 net.cpp:91] Creating Layer inception_4b/relu_3x3_reduce
I0403 18:16:30.903126  6765 net.cpp:425] inception_4b/relu_3x3_reduce <- inception_4b/3x3_reduce
I0403 18:16:30.903144  6765 net.cpp:386] inception_4b/relu_3x3_reduce -> inception_4b/3x3_reduce (in-place)
I0403 18:16:30.903434  6765 net.cpp:141] Setting up inception_4b/relu_3x3_reduce
I0403 18:16:30.903462  6765 net.cpp:148] Top shape: 24 112 14 14 (526848)
I0403 18:16:30.903477  6765 net.cpp:156] Memory required for data: 956439840
I0403 18:16:30.903493  6765 layer_factory.hpp:77] Creating layer inception_4b/3x3
I0403 18:16:30.903517  6765 net.cpp:91] Creating Layer inception_4b/3x3
I0403 18:16:30.903534  6765 net.cpp:425] inception_4b/3x3 <- inception_4b/3x3_reduce
I0403 18:16:30.903556  6765 net.cpp:399] inception_4b/3x3 -> inception_4b/3x3
I0403 18:16:30.906563  6765 net.cpp:141] Setting up inception_4b/3x3
I0403 18:16:30.906595  6765 net.cpp:148] Top shape: 24 224 14 14 (1053696)
I0403 18:16:30.906612  6765 net.cpp:156] Memory required for data: 960654624
I0403 18:16:30.906632  6765 layer_factory.hpp:77] Creating layer inception_4b/relu_3x3
I0403 18:16:30.906654  6765 net.cpp:91] Creating Layer inception_4b/relu_3x3
I0403 18:16:30.906673  6765 net.cpp:425] inception_4b/relu_3x3 <- inception_4b/3x3
I0403 18:16:30.906692  6765 net.cpp:386] inception_4b/relu_3x3 -> inception_4b/3x3 (in-place)
I0403 18:16:30.906874  6765 net.cpp:141] Setting up inception_4b/relu_3x3
I0403 18:16:30.906899  6765 net.cpp:148] Top shape: 24 224 14 14 (1053696)
I0403 18:16:30.906913  6765 net.cpp:156] Memory required for data: 964869408
I0403 18:16:30.906929  6765 layer_factory.hpp:77] Creating layer inception_4b/5x5_reduce
I0403 18:16:30.906951  6765 net.cpp:91] Creating Layer inception_4b/5x5_reduce
I0403 18:16:30.906970  6765 net.cpp:425] inception_4b/5x5_reduce <- inception_4a/output_inception_4a/output_0_split_3
I0403 18:16:30.906993  6765 net.cpp:399] inception_4b/5x5_reduce -> inception_4b/5x5_reduce
I0403 18:16:30.908087  6765 net.cpp:141] Setting up inception_4b/5x5_reduce
I0403 18:16:30.908118  6765 net.cpp:148] Top shape: 24 24 14 14 (112896)
I0403 18:16:30.908134  6765 net.cpp:156] Memory required for data: 965320992
I0403 18:16:30.908154  6765 layer_factory.hpp:77] Creating layer inception_4b/relu_5x5_reduce
I0403 18:16:30.908174  6765 net.cpp:91] Creating Layer inception_4b/relu_5x5_reduce
I0403 18:16:30.908206  6765 net.cpp:425] inception_4b/relu_5x5_reduce <- inception_4b/5x5_reduce
I0403 18:16:30.908228  6765 net.cpp:386] inception_4b/relu_5x5_reduce -> inception_4b/5x5_reduce (in-place)
I0403 18:16:30.908421  6765 net.cpp:141] Setting up inception_4b/relu_5x5_reduce
I0403 18:16:30.908445  6765 net.cpp:148] Top shape: 24 24 14 14 (112896)
I0403 18:16:30.908460  6765 net.cpp:156] Memory required for data: 965772576
I0403 18:16:30.908476  6765 layer_factory.hpp:77] Creating layer inception_4b/5x5
I0403 18:16:30.908499  6765 net.cpp:91] Creating Layer inception_4b/5x5
I0403 18:16:30.908519  6765 net.cpp:425] inception_4b/5x5 <- inception_4b/5x5_reduce
I0403 18:16:30.908540  6765 net.cpp:399] inception_4b/5x5 -> inception_4b/5x5
I0403 18:16:30.909811  6765 net.cpp:141] Setting up inception_4b/5x5
I0403 18:16:30.909842  6765 net.cpp:148] Top shape: 24 64 14 14 (301056)
I0403 18:16:30.909858  6765 net.cpp:156] Memory required for data: 966976800
I0403 18:16:30.909878  6765 layer_factory.hpp:77] Creating layer inception_4b/relu_5x5
I0403 18:16:30.909898  6765 net.cpp:91] Creating Layer inception_4b/relu_5x5
I0403 18:16:30.909916  6765 net.cpp:425] inception_4b/relu_5x5 <- inception_4b/5x5
I0403 18:16:30.909937  6765 net.cpp:386] inception_4b/relu_5x5 -> inception_4b/5x5 (in-place)
I0403 18:16:30.910228  6765 net.cpp:141] Setting up inception_4b/relu_5x5
I0403 18:16:30.910259  6765 net.cpp:148] Top shape: 24 64 14 14 (301056)
I0403 18:16:30.910279  6765 net.cpp:156] Memory required for data: 968181024
I0403 18:16:30.910296  6765 layer_factory.hpp:77] Creating layer inception_4b/pool
I0403 18:16:30.910318  6765 net.cpp:91] Creating Layer inception_4b/pool
I0403 18:16:30.910336  6765 net.cpp:425] inception_4b/pool <- inception_4a/output_inception_4a/output_0_split_4
I0403 18:16:30.910356  6765 net.cpp:399] inception_4b/pool -> inception_4b/pool
I0403 18:16:30.910423  6765 net.cpp:141] Setting up inception_4b/pool
I0403 18:16:30.910450  6765 net.cpp:148] Top shape: 24 512 14 14 (2408448)
I0403 18:16:30.910466  6765 net.cpp:156] Memory required for data: 977814816
I0403 18:16:30.910482  6765 layer_factory.hpp:77] Creating layer inception_4b/pool_proj
I0403 18:16:30.910506  6765 net.cpp:91] Creating Layer inception_4b/pool_proj
I0403 18:16:30.910523  6765 net.cpp:425] inception_4b/pool_proj <- inception_4b/pool
I0403 18:16:30.910542  6765 net.cpp:399] inception_4b/pool_proj -> inception_4b/pool_proj
I0403 18:16:30.911789  6765 net.cpp:141] Setting up inception_4b/pool_proj
I0403 18:16:30.911819  6765 net.cpp:148] Top shape: 24 64 14 14 (301056)
I0403 18:16:30.911836  6765 net.cpp:156] Memory required for data: 979019040
I0403 18:16:30.911855  6765 layer_factory.hpp:77] Creating layer inception_4b/relu_pool_proj
I0403 18:16:30.911875  6765 net.cpp:91] Creating Layer inception_4b/relu_pool_proj
I0403 18:16:30.911896  6765 net.cpp:425] inception_4b/relu_pool_proj <- inception_4b/pool_proj
I0403 18:16:30.911914  6765 net.cpp:386] inception_4b/relu_pool_proj -> inception_4b/pool_proj (in-place)
I0403 18:16:30.912102  6765 net.cpp:141] Setting up inception_4b/relu_pool_proj
I0403 18:16:30.912129  6765 net.cpp:148] Top shape: 24 64 14 14 (301056)
I0403 18:16:30.912143  6765 net.cpp:156] Memory required for data: 980223264
I0403 18:16:30.912160  6765 layer_factory.hpp:77] Creating layer inception_4b/output
I0403 18:16:30.912181  6765 net.cpp:91] Creating Layer inception_4b/output
I0403 18:16:30.912199  6765 net.cpp:425] inception_4b/output <- inception_4b/1x1
I0403 18:16:30.912216  6765 net.cpp:425] inception_4b/output <- inception_4b/3x3
I0403 18:16:30.912232  6765 net.cpp:425] inception_4b/output <- inception_4b/5x5
I0403 18:16:30.912250  6765 net.cpp:425] inception_4b/output <- inception_4b/pool_proj
I0403 18:16:30.912266  6765 net.cpp:399] inception_4b/output -> inception_4b/output
I0403 18:16:30.912328  6765 net.cpp:141] Setting up inception_4b/output
I0403 18:16:30.912353  6765 net.cpp:148] Top shape: 24 512 14 14 (2408448)
I0403 18:16:30.912369  6765 net.cpp:156] Memory required for data: 989857056
I0403 18:16:30.912398  6765 layer_factory.hpp:77] Creating layer inception_4b/output_inception_4b/output_0_split
I0403 18:16:30.912417  6765 net.cpp:91] Creating Layer inception_4b/output_inception_4b/output_0_split
I0403 18:16:30.912433  6765 net.cpp:425] inception_4b/output_inception_4b/output_0_split <- inception_4b/output
I0403 18:16:30.912454  6765 net.cpp:399] inception_4b/output_inception_4b/output_0_split -> inception_4b/output_inception_4b/output_0_split_0
I0403 18:16:30.912477  6765 net.cpp:399] inception_4b/output_inception_4b/output_0_split -> inception_4b/output_inception_4b/output_0_split_1
I0403 18:16:30.912497  6765 net.cpp:399] inception_4b/output_inception_4b/output_0_split -> inception_4b/output_inception_4b/output_0_split_2
I0403 18:16:30.912519  6765 net.cpp:399] inception_4b/output_inception_4b/output_0_split -> inception_4b/output_inception_4b/output_0_split_3
I0403 18:16:30.912611  6765 net.cpp:141] Setting up inception_4b/output_inception_4b/output_0_split
I0403 18:16:30.912638  6765 net.cpp:148] Top shape: 24 512 14 14 (2408448)
I0403 18:16:30.912657  6765 net.cpp:148] Top shape: 24 512 14 14 (2408448)
I0403 18:16:30.912673  6765 net.cpp:148] Top shape: 24 512 14 14 (2408448)
I0403 18:16:30.912689  6765 net.cpp:148] Top shape: 24 512 14 14 (2408448)
I0403 18:16:30.912703  6765 net.cpp:156] Memory required for data: 1028392224
I0403 18:16:30.912719  6765 layer_factory.hpp:77] Creating layer inception_4c/1x1
I0403 18:16:30.912742  6765 net.cpp:91] Creating Layer inception_4c/1x1
I0403 18:16:30.912760  6765 net.cpp:425] inception_4c/1x1 <- inception_4b/output_inception_4b/output_0_split_0
I0403 18:16:30.912780  6765 net.cpp:399] inception_4c/1x1 -> inception_4c/1x1
I0403 18:16:30.914281  6765 net.cpp:141] Setting up inception_4c/1x1
I0403 18:16:30.914310  6765 net.cpp:148] Top shape: 24 128 14 14 (602112)
I0403 18:16:30.914326  6765 net.cpp:156] Memory required for data: 1030800672
I0403 18:16:30.914345  6765 layer_factory.hpp:77] Creating layer inception_4c/relu_1x1
I0403 18:16:30.914366  6765 net.cpp:91] Creating Layer inception_4c/relu_1x1
I0403 18:16:30.914384  6765 net.cpp:425] inception_4c/relu_1x1 <- inception_4c/1x1
I0403 18:16:30.914402  6765 net.cpp:386] inception_4c/relu_1x1 -> inception_4c/1x1 (in-place)
I0403 18:16:30.914588  6765 net.cpp:141] Setting up inception_4c/relu_1x1
I0403 18:16:30.914616  6765 net.cpp:148] Top shape: 24 128 14 14 (602112)
I0403 18:16:30.914631  6765 net.cpp:156] Memory required for data: 1033209120
I0403 18:16:30.914649  6765 layer_factory.hpp:77] Creating layer inception_4c/3x3_reduce
I0403 18:16:30.914671  6765 net.cpp:91] Creating Layer inception_4c/3x3_reduce
I0403 18:16:30.914690  6765 net.cpp:425] inception_4c/3x3_reduce <- inception_4b/output_inception_4b/output_0_split_1
I0403 18:16:30.914710  6765 net.cpp:399] inception_4c/3x3_reduce -> inception_4c/3x3_reduce
I0403 18:16:30.916779  6765 net.cpp:141] Setting up inception_4c/3x3_reduce
I0403 18:16:30.916808  6765 net.cpp:148] Top shape: 24 128 14 14 (602112)
I0403 18:16:30.916826  6765 net.cpp:156] Memory required for data: 1035617568
I0403 18:16:30.916844  6765 layer_factory.hpp:77] Creating layer inception_4c/relu_3x3_reduce
I0403 18:16:30.916862  6765 net.cpp:91] Creating Layer inception_4c/relu_3x3_reduce
I0403 18:16:30.916880  6765 net.cpp:425] inception_4c/relu_3x3_reduce <- inception_4c/3x3_reduce
I0403 18:16:30.916900  6765 net.cpp:386] inception_4c/relu_3x3_reduce -> inception_4c/3x3_reduce (in-place)
I0403 18:16:30.917201  6765 net.cpp:141] Setting up inception_4c/relu_3x3_reduce
I0403 18:16:30.917227  6765 net.cpp:148] Top shape: 24 128 14 14 (602112)
I0403 18:16:30.917243  6765 net.cpp:156] Memory required for data: 1038026016
I0403 18:16:30.917259  6765 layer_factory.hpp:77] Creating layer inception_4c/3x3
I0403 18:16:30.917289  6765 net.cpp:91] Creating Layer inception_4c/3x3
I0403 18:16:30.917309  6765 net.cpp:425] inception_4c/3x3 <- inception_4c/3x3_reduce
I0403 18:16:30.917330  6765 net.cpp:399] inception_4c/3x3 -> inception_4c/3x3
I0403 18:16:30.921077  6765 net.cpp:141] Setting up inception_4c/3x3
I0403 18:16:30.921121  6765 net.cpp:148] Top shape: 24 256 14 14 (1204224)
I0403 18:16:30.921138  6765 net.cpp:156] Memory required for data: 1042842912
I0403 18:16:30.921176  6765 layer_factory.hpp:77] Creating layer inception_4c/relu_3x3
I0403 18:16:30.921198  6765 net.cpp:91] Creating Layer inception_4c/relu_3x3
I0403 18:16:30.921216  6765 net.cpp:425] inception_4c/relu_3x3 <- inception_4c/3x3
I0403 18:16:30.921236  6765 net.cpp:386] inception_4c/relu_3x3 -> inception_4c/3x3 (in-place)
I0403 18:16:30.921429  6765 net.cpp:141] Setting up inception_4c/relu_3x3
I0403 18:16:30.921457  6765 net.cpp:148] Top shape: 24 256 14 14 (1204224)
I0403 18:16:30.921471  6765 net.cpp:156] Memory required for data: 1047659808
I0403 18:16:30.921488  6765 layer_factory.hpp:77] Creating layer inception_4c/5x5_reduce
I0403 18:16:30.921511  6765 net.cpp:91] Creating Layer inception_4c/5x5_reduce
I0403 18:16:30.921530  6765 net.cpp:425] inception_4c/5x5_reduce <- inception_4b/output_inception_4b/output_0_split_2
I0403 18:16:30.921551  6765 net.cpp:399] inception_4c/5x5_reduce -> inception_4c/5x5_reduce
I0403 18:16:30.922691  6765 net.cpp:141] Setting up inception_4c/5x5_reduce
I0403 18:16:30.922720  6765 net.cpp:148] Top shape: 24 24 14 14 (112896)
I0403 18:16:30.922736  6765 net.cpp:156] Memory required for data: 1048111392
I0403 18:16:30.922755  6765 layer_factory.hpp:77] Creating layer inception_4c/relu_5x5_reduce
I0403 18:16:30.922775  6765 net.cpp:91] Creating Layer inception_4c/relu_5x5_reduce
I0403 18:16:30.922791  6765 net.cpp:425] inception_4c/relu_5x5_reduce <- inception_4c/5x5_reduce
I0403 18:16:30.922811  6765 net.cpp:386] inception_4c/relu_5x5_reduce -> inception_4c/5x5_reduce (in-place)
I0403 18:16:30.923003  6765 net.cpp:141] Setting up inception_4c/relu_5x5_reduce
I0403 18:16:30.923028  6765 net.cpp:148] Top shape: 24 24 14 14 (112896)
I0403 18:16:30.923043  6765 net.cpp:156] Memory required for data: 1048562976
I0403 18:16:30.923059  6765 layer_factory.hpp:77] Creating layer inception_4c/5x5
I0403 18:16:30.923081  6765 net.cpp:91] Creating Layer inception_4c/5x5
I0403 18:16:30.923099  6765 net.cpp:425] inception_4c/5x5 <- inception_4c/5x5_reduce
I0403 18:16:30.923121  6765 net.cpp:399] inception_4c/5x5 -> inception_4c/5x5
I0403 18:16:30.924417  6765 net.cpp:141] Setting up inception_4c/5x5
I0403 18:16:30.924444  6765 net.cpp:148] Top shape: 24 64 14 14 (301056)
I0403 18:16:30.924460  6765 net.cpp:156] Memory required for data: 1049767200
I0403 18:16:30.924479  6765 layer_factory.hpp:77] Creating layer inception_4c/relu_5x5
I0403 18:16:30.924500  6765 net.cpp:91] Creating Layer inception_4c/relu_5x5
I0403 18:16:30.924520  6765 net.cpp:425] inception_4c/relu_5x5 <- inception_4c/5x5
I0403 18:16:30.924537  6765 net.cpp:386] inception_4c/relu_5x5 -> inception_4c/5x5 (in-place)
I0403 18:16:30.924839  6765 net.cpp:141] Setting up inception_4c/relu_5x5
I0403 18:16:30.924866  6765 net.cpp:148] Top shape: 24 64 14 14 (301056)
I0403 18:16:30.924882  6765 net.cpp:156] Memory required for data: 1050971424
I0403 18:16:30.924897  6765 layer_factory.hpp:77] Creating layer inception_4c/pool
I0403 18:16:30.924919  6765 net.cpp:91] Creating Layer inception_4c/pool
I0403 18:16:30.924937  6765 net.cpp:425] inception_4c/pool <- inception_4b/output_inception_4b/output_0_split_3
I0403 18:16:30.924957  6765 net.cpp:399] inception_4c/pool -> inception_4c/pool
I0403 18:16:30.925025  6765 net.cpp:141] Setting up inception_4c/pool
I0403 18:16:30.925050  6765 net.cpp:148] Top shape: 24 512 14 14 (2408448)
I0403 18:16:30.925065  6765 net.cpp:156] Memory required for data: 1060605216
I0403 18:16:30.925081  6765 layer_factory.hpp:77] Creating layer inception_4c/pool_proj
I0403 18:16:30.925104  6765 net.cpp:91] Creating Layer inception_4c/pool_proj
I0403 18:16:30.925122  6765 net.cpp:425] inception_4c/pool_proj <- inception_4c/pool
I0403 18:16:30.925144  6765 net.cpp:399] inception_4c/pool_proj -> inception_4c/pool_proj
I0403 18:16:30.926414  6765 net.cpp:141] Setting up inception_4c/pool_proj
I0403 18:16:30.926445  6765 net.cpp:148] Top shape: 24 64 14 14 (301056)
I0403 18:16:30.926475  6765 net.cpp:156] Memory required for data: 1061809440
I0403 18:16:30.926494  6765 layer_factory.hpp:77] Creating layer inception_4c/relu_pool_proj
I0403 18:16:30.926514  6765 net.cpp:91] Creating Layer inception_4c/relu_pool_proj
I0403 18:16:30.926532  6765 net.cpp:425] inception_4c/relu_pool_proj <- inception_4c/pool_proj
I0403 18:16:30.926553  6765 net.cpp:386] inception_4c/relu_pool_proj -> inception_4c/pool_proj (in-place)
I0403 18:16:30.926741  6765 net.cpp:141] Setting up inception_4c/relu_pool_proj
I0403 18:16:30.926767  6765 net.cpp:148] Top shape: 24 64 14 14 (301056)
I0403 18:16:30.926781  6765 net.cpp:156] Memory required for data: 1063013664
I0403 18:16:30.926797  6765 layer_factory.hpp:77] Creating layer inception_4c/output
I0403 18:16:30.926815  6765 net.cpp:91] Creating Layer inception_4c/output
I0403 18:16:30.926831  6765 net.cpp:425] inception_4c/output <- inception_4c/1x1
I0403 18:16:30.926851  6765 net.cpp:425] inception_4c/output <- inception_4c/3x3
I0403 18:16:30.926869  6765 net.cpp:425] inception_4c/output <- inception_4c/5x5
I0403 18:16:30.926887  6765 net.cpp:425] inception_4c/output <- inception_4c/pool_proj
I0403 18:16:30.926904  6765 net.cpp:399] inception_4c/output -> inception_4c/output
I0403 18:16:30.926954  6765 net.cpp:141] Setting up inception_4c/output
I0403 18:16:30.926978  6765 net.cpp:148] Top shape: 24 512 14 14 (2408448)
I0403 18:16:30.926992  6765 net.cpp:156] Memory required for data: 1072647456
I0403 18:16:30.927008  6765 layer_factory.hpp:77] Creating layer inception_4c/output_inception_4c/output_0_split
I0403 18:16:30.927026  6765 net.cpp:91] Creating Layer inception_4c/output_inception_4c/output_0_split
I0403 18:16:30.927042  6765 net.cpp:425] inception_4c/output_inception_4c/output_0_split <- inception_4c/output
I0403 18:16:30.927063  6765 net.cpp:399] inception_4c/output_inception_4c/output_0_split -> inception_4c/output_inception_4c/output_0_split_0
I0403 18:16:30.927085  6765 net.cpp:399] inception_4c/output_inception_4c/output_0_split -> inception_4c/output_inception_4c/output_0_split_1
I0403 18:16:30.927108  6765 net.cpp:399] inception_4c/output_inception_4c/output_0_split -> inception_4c/output_inception_4c/output_0_split_2
I0403 18:16:30.927129  6765 net.cpp:399] inception_4c/output_inception_4c/output_0_split -> inception_4c/output_inception_4c/output_0_split_3
I0403 18:16:30.927219  6765 net.cpp:141] Setting up inception_4c/output_inception_4c/output_0_split
I0403 18:16:30.927245  6765 net.cpp:148] Top shape: 24 512 14 14 (2408448)
I0403 18:16:30.927263  6765 net.cpp:148] Top shape: 24 512 14 14 (2408448)
I0403 18:16:30.927285  6765 net.cpp:148] Top shape: 24 512 14 14 (2408448)
I0403 18:16:30.927304  6765 net.cpp:148] Top shape: 24 512 14 14 (2408448)
I0403 18:16:30.927317  6765 net.cpp:156] Memory required for data: 1111182624
I0403 18:16:30.927332  6765 layer_factory.hpp:77] Creating layer inception_4d/1x1
I0403 18:16:30.927356  6765 net.cpp:91] Creating Layer inception_4d/1x1
I0403 18:16:30.927372  6765 net.cpp:425] inception_4d/1x1 <- inception_4c/output_inception_4c/output_0_split_0
I0403 18:16:30.927392  6765 net.cpp:399] inception_4d/1x1 -> inception_4d/1x1
I0403 18:16:30.928829  6765 net.cpp:141] Setting up inception_4d/1x1
I0403 18:16:30.928858  6765 net.cpp:148] Top shape: 24 112 14 14 (526848)
I0403 18:16:30.928874  6765 net.cpp:156] Memory required for data: 1113290016
I0403 18:16:30.928894  6765 layer_factory.hpp:77] Creating layer inception_4d/relu_1x1
I0403 18:16:30.928913  6765 net.cpp:91] Creating Layer inception_4d/relu_1x1
I0403 18:16:30.928930  6765 net.cpp:425] inception_4d/relu_1x1 <- inception_4d/1x1
I0403 18:16:30.928947  6765 net.cpp:386] inception_4d/relu_1x1 -> inception_4d/1x1 (in-place)
I0403 18:16:30.929141  6765 net.cpp:141] Setting up inception_4d/relu_1x1
I0403 18:16:30.929165  6765 net.cpp:148] Top shape: 24 112 14 14 (526848)
I0403 18:16:30.929179  6765 net.cpp:156] Memory required for data: 1115397408
I0403 18:16:30.929194  6765 layer_factory.hpp:77] Creating layer inception_4d/3x3_reduce
I0403 18:16:30.929231  6765 net.cpp:91] Creating Layer inception_4d/3x3_reduce
I0403 18:16:30.929250  6765 net.cpp:425] inception_4d/3x3_reduce <- inception_4c/output_inception_4c/output_0_split_1
I0403 18:16:30.929275  6765 net.cpp:399] inception_4d/3x3_reduce -> inception_4d/3x3_reduce
I0403 18:16:30.930814  6765 net.cpp:141] Setting up inception_4d/3x3_reduce
I0403 18:16:30.930841  6765 net.cpp:148] Top shape: 24 144 14 14 (677376)
I0403 18:16:30.930857  6765 net.cpp:156] Memory required for data: 1118106912
I0403 18:16:30.930876  6765 layer_factory.hpp:77] Creating layer inception_4d/relu_3x3_reduce
I0403 18:16:30.930897  6765 net.cpp:91] Creating Layer inception_4d/relu_3x3_reduce
I0403 18:16:30.930913  6765 net.cpp:425] inception_4d/relu_3x3_reduce <- inception_4d/3x3_reduce
I0403 18:16:30.930932  6765 net.cpp:386] inception_4d/relu_3x3_reduce -> inception_4d/3x3_reduce (in-place)
I0403 18:16:30.931226  6765 net.cpp:141] Setting up inception_4d/relu_3x3_reduce
I0403 18:16:30.931253  6765 net.cpp:148] Top shape: 24 144 14 14 (677376)
I0403 18:16:30.931268  6765 net.cpp:156] Memory required for data: 1120816416
I0403 18:16:30.931288  6765 layer_factory.hpp:77] Creating layer inception_4d/3x3
I0403 18:16:30.931311  6765 net.cpp:91] Creating Layer inception_4d/3x3
I0403 18:16:30.931329  6765 net.cpp:425] inception_4d/3x3 <- inception_4d/3x3_reduce
I0403 18:16:30.931349  6765 net.cpp:399] inception_4d/3x3 -> inception_4d/3x3
I0403 18:16:30.935655  6765 net.cpp:141] Setting up inception_4d/3x3
I0403 18:16:30.935686  6765 net.cpp:148] Top shape: 24 288 14 14 (1354752)
I0403 18:16:30.935703  6765 net.cpp:156] Memory required for data: 1126235424
I0403 18:16:30.935720  6765 layer_factory.hpp:77] Creating layer inception_4d/relu_3x3
I0403 18:16:30.935737  6765 net.cpp:91] Creating Layer inception_4d/relu_3x3
I0403 18:16:30.935752  6765 net.cpp:425] inception_4d/relu_3x3 <- inception_4d/3x3
I0403 18:16:30.935770  6765 net.cpp:386] inception_4d/relu_3x3 -> inception_4d/3x3 (in-place)
I0403 18:16:30.935951  6765 net.cpp:141] Setting up inception_4d/relu_3x3
I0403 18:16:30.935976  6765 net.cpp:148] Top shape: 24 288 14 14 (1354752)
I0403 18:16:30.935991  6765 net.cpp:156] Memory required for data: 1131654432
I0403 18:16:30.936005  6765 layer_factory.hpp:77] Creating layer inception_4d/5x5_reduce
I0403 18:16:30.936027  6765 net.cpp:91] Creating Layer inception_4d/5x5_reduce
I0403 18:16:30.936043  6765 net.cpp:425] inception_4d/5x5_reduce <- inception_4c/output_inception_4c/output_0_split_2
I0403 18:16:30.936069  6765 net.cpp:399] inception_4d/5x5_reduce -> inception_4d/5x5_reduce
I0403 18:16:30.937196  6765 net.cpp:141] Setting up inception_4d/5x5_reduce
I0403 18:16:30.937225  6765 net.cpp:148] Top shape: 24 32 14 14 (150528)
I0403 18:16:30.937242  6765 net.cpp:156] Memory required for data: 1132256544
I0403 18:16:30.937260  6765 layer_factory.hpp:77] Creating layer inception_4d/relu_5x5_reduce
I0403 18:16:30.937283  6765 net.cpp:91] Creating Layer inception_4d/relu_5x5_reduce
I0403 18:16:30.937299  6765 net.cpp:425] inception_4d/relu_5x5_reduce <- inception_4d/5x5_reduce
I0403 18:16:30.937319  6765 net.cpp:386] inception_4d/relu_5x5_reduce -> inception_4d/5x5_reduce (in-place)
I0403 18:16:30.937504  6765 net.cpp:141] Setting up inception_4d/relu_5x5_reduce
I0403 18:16:30.937527  6765 net.cpp:148] Top shape: 24 32 14 14 (150528)
I0403 18:16:30.937541  6765 net.cpp:156] Memory required for data: 1132858656
I0403 18:16:30.937556  6765 layer_factory.hpp:77] Creating layer inception_4d/5x5
I0403 18:16:30.937577  6765 net.cpp:91] Creating Layer inception_4d/5x5
I0403 18:16:30.937594  6765 net.cpp:425] inception_4d/5x5 <- inception_4d/5x5_reduce
I0403 18:16:30.937615  6765 net.cpp:399] inception_4d/5x5 -> inception_4d/5x5
I0403 18:16:30.939051  6765 net.cpp:141] Setting up inception_4d/5x5
I0403 18:16:30.939079  6765 net.cpp:148] Top shape: 24 64 14 14 (301056)
I0403 18:16:30.939093  6765 net.cpp:156] Memory required for data: 1134062880
I0403 18:16:30.939116  6765 layer_factory.hpp:77] Creating layer inception_4d/relu_5x5
I0403 18:16:30.939149  6765 net.cpp:91] Creating Layer inception_4d/relu_5x5
I0403 18:16:30.939167  6765 net.cpp:425] inception_4d/relu_5x5 <- inception_4d/5x5
I0403 18:16:30.939183  6765 net.cpp:386] inception_4d/relu_5x5 -> inception_4d/5x5 (in-place)
I0403 18:16:30.939481  6765 net.cpp:141] Setting up inception_4d/relu_5x5
I0403 18:16:30.939505  6765 net.cpp:148] Top shape: 24 64 14 14 (301056)
I0403 18:16:30.939519  6765 net.cpp:156] Memory required for data: 1135267104
I0403 18:16:30.939535  6765 layer_factory.hpp:77] Creating layer inception_4d/pool
I0403 18:16:30.939553  6765 net.cpp:91] Creating Layer inception_4d/pool
I0403 18:16:30.939568  6765 net.cpp:425] inception_4d/pool <- inception_4c/output_inception_4c/output_0_split_3
I0403 18:16:30.939589  6765 net.cpp:399] inception_4d/pool -> inception_4d/pool
I0403 18:16:30.939654  6765 net.cpp:141] Setting up inception_4d/pool
I0403 18:16:30.939677  6765 net.cpp:148] Top shape: 24 512 14 14 (2408448)
I0403 18:16:30.939692  6765 net.cpp:156] Memory required for data: 1144900896
I0403 18:16:30.939705  6765 layer_factory.hpp:77] Creating layer inception_4d/pool_proj
I0403 18:16:30.939733  6765 net.cpp:91] Creating Layer inception_4d/pool_proj
I0403 18:16:30.939749  6765 net.cpp:425] inception_4d/pool_proj <- inception_4d/pool
I0403 18:16:30.939767  6765 net.cpp:399] inception_4d/pool_proj -> inception_4d/pool_proj
I0403 18:16:30.941529  6765 net.cpp:141] Setting up inception_4d/pool_proj
I0403 18:16:30.941560  6765 net.cpp:148] Top shape: 24 64 14 14 (301056)
I0403 18:16:30.941576  6765 net.cpp:156] Memory required for data: 1146105120
I0403 18:16:30.941594  6765 layer_factory.hpp:77] Creating layer inception_4d/relu_pool_proj
I0403 18:16:30.941613  6765 net.cpp:91] Creating Layer inception_4d/relu_pool_proj
I0403 18:16:30.941629  6765 net.cpp:425] inception_4d/relu_pool_proj <- inception_4d/pool_proj
I0403 18:16:30.941647  6765 net.cpp:386] inception_4d/relu_pool_proj -> inception_4d/pool_proj (in-place)
I0403 18:16:30.941829  6765 net.cpp:141] Setting up inception_4d/relu_pool_proj
I0403 18:16:30.941854  6765 net.cpp:148] Top shape: 24 64 14 14 (301056)
I0403 18:16:30.941869  6765 net.cpp:156] Memory required for data: 1147309344
I0403 18:16:30.941884  6765 layer_factory.hpp:77] Creating layer inception_4d/output
I0403 18:16:30.941900  6765 net.cpp:91] Creating Layer inception_4d/output
I0403 18:16:30.941915  6765 net.cpp:425] inception_4d/output <- inception_4d/1x1
I0403 18:16:30.941931  6765 net.cpp:425] inception_4d/output <- inception_4d/3x3
I0403 18:16:30.941946  6765 net.cpp:425] inception_4d/output <- inception_4d/5x5
I0403 18:16:30.941962  6765 net.cpp:425] inception_4d/output <- inception_4d/pool_proj
I0403 18:16:30.941980  6765 net.cpp:399] inception_4d/output -> inception_4d/output
I0403 18:16:30.942028  6765 net.cpp:141] Setting up inception_4d/output
I0403 18:16:30.942052  6765 net.cpp:148] Top shape: 24 528 14 14 (2483712)
I0403 18:16:30.942066  6765 net.cpp:156] Memory required for data: 1157244192
I0403 18:16:30.942081  6765 layer_factory.hpp:77] Creating layer inception_4d/output_inception_4d/output_0_split
I0403 18:16:30.942100  6765 net.cpp:91] Creating Layer inception_4d/output_inception_4d/output_0_split
I0403 18:16:30.942113  6765 net.cpp:425] inception_4d/output_inception_4d/output_0_split <- inception_4d/output
I0403 18:16:30.942133  6765 net.cpp:399] inception_4d/output_inception_4d/output_0_split -> inception_4d/output_inception_4d/output_0_split_0
I0403 18:16:30.942154  6765 net.cpp:399] inception_4d/output_inception_4d/output_0_split -> inception_4d/output_inception_4d/output_0_split_1
I0403 18:16:30.942175  6765 net.cpp:399] inception_4d/output_inception_4d/output_0_split -> inception_4d/output_inception_4d/output_0_split_2
I0403 18:16:30.942198  6765 net.cpp:399] inception_4d/output_inception_4d/output_0_split -> inception_4d/output_inception_4d/output_0_split_3
I0403 18:16:30.942217  6765 net.cpp:399] inception_4d/output_inception_4d/output_0_split -> inception_4d/output_inception_4d/output_0_split_4
I0403 18:16:30.942330  6765 net.cpp:141] Setting up inception_4d/output_inception_4d/output_0_split
I0403 18:16:30.942365  6765 net.cpp:148] Top shape: 24 528 14 14 (2483712)
I0403 18:16:30.942383  6765 net.cpp:148] Top shape: 24 528 14 14 (2483712)
I0403 18:16:30.942397  6765 net.cpp:148] Top shape: 24 528 14 14 (2483712)
I0403 18:16:30.942414  6765 net.cpp:148] Top shape: 24 528 14 14 (2483712)
I0403 18:16:30.942428  6765 net.cpp:148] Top shape: 24 528 14 14 (2483712)
I0403 18:16:30.942441  6765 net.cpp:156] Memory required for data: 1206918432
I0403 18:16:30.942456  6765 layer_factory.hpp:77] Creating layer loss2/ave_pool
I0403 18:16:30.942476  6765 net.cpp:91] Creating Layer loss2/ave_pool
I0403 18:16:30.942492  6765 net.cpp:425] loss2/ave_pool <- inception_4d/output_inception_4d/output_0_split_0
I0403 18:16:30.942512  6765 net.cpp:399] loss2/ave_pool -> loss2/ave_pool
I0403 18:16:30.942822  6765 net.cpp:141] Setting up loss2/ave_pool
I0403 18:16:30.942850  6765 net.cpp:148] Top shape: 24 528 4 4 (202752)
I0403 18:16:30.942865  6765 net.cpp:156] Memory required for data: 1207729440
I0403 18:16:30.942881  6765 layer_factory.hpp:77] Creating layer loss2/conv
I0403 18:16:30.942903  6765 net.cpp:91] Creating Layer loss2/conv
I0403 18:16:30.942920  6765 net.cpp:425] loss2/conv <- loss2/ave_pool
I0403 18:16:30.942939  6765 net.cpp:399] loss2/conv -> loss2/conv
I0403 18:16:30.944886  6765 net.cpp:141] Setting up loss2/conv
I0403 18:16:30.944914  6765 net.cpp:148] Top shape: 24 128 4 4 (49152)
I0403 18:16:30.944931  6765 net.cpp:156] Memory required for data: 1207926048
I0403 18:16:30.944949  6765 layer_factory.hpp:77] Creating layer loss2/relu_conv
I0403 18:16:30.944970  6765 net.cpp:91] Creating Layer loss2/relu_conv
I0403 18:16:30.944988  6765 net.cpp:425] loss2/relu_conv <- loss2/conv
I0403 18:16:30.945005  6765 net.cpp:386] loss2/relu_conv -> loss2/conv (in-place)
I0403 18:16:30.945297  6765 net.cpp:141] Setting up loss2/relu_conv
I0403 18:16:30.945323  6765 net.cpp:148] Top shape: 24 128 4 4 (49152)
I0403 18:16:30.945338  6765 net.cpp:156] Memory required for data: 1208122656
I0403 18:16:30.945353  6765 layer_factory.hpp:77] Creating layer loss2/fc
I0403 18:16:30.945376  6765 net.cpp:91] Creating Layer loss2/fc
I0403 18:16:30.945394  6765 net.cpp:425] loss2/fc <- loss2/conv
I0403 18:16:30.945412  6765 net.cpp:399] loss2/fc -> loss2/fc
I0403 18:16:30.963441  6765 net.cpp:141] Setting up loss2/fc
I0403 18:16:30.963485  6765 net.cpp:148] Top shape: 24 1024 (24576)
I0403 18:16:30.963500  6765 net.cpp:156] Memory required for data: 1208220960
I0403 18:16:30.963518  6765 layer_factory.hpp:77] Creating layer loss2/relu_fc
I0403 18:16:30.963536  6765 net.cpp:91] Creating Layer loss2/relu_fc
I0403 18:16:30.963552  6765 net.cpp:425] loss2/relu_fc <- loss2/fc
I0403 18:16:30.963572  6765 net.cpp:386] loss2/relu_fc -> loss2/fc (in-place)
I0403 18:16:30.963868  6765 net.cpp:141] Setting up loss2/relu_fc
I0403 18:16:30.963896  6765 net.cpp:148] Top shape: 24 1024 (24576)
I0403 18:16:30.963912  6765 net.cpp:156] Memory required for data: 1208319264
I0403 18:16:30.963925  6765 layer_factory.hpp:77] Creating layer loss2/drop_fc
I0403 18:16:30.963943  6765 net.cpp:91] Creating Layer loss2/drop_fc
I0403 18:16:30.963958  6765 net.cpp:425] loss2/drop_fc <- loss2/fc
I0403 18:16:30.963979  6765 net.cpp:386] loss2/drop_fc -> loss2/fc (in-place)
I0403 18:16:30.964025  6765 net.cpp:141] Setting up loss2/drop_fc
I0403 18:16:30.964047  6765 net.cpp:148] Top shape: 24 1024 (24576)
I0403 18:16:30.964061  6765 net.cpp:156] Memory required for data: 1208417568
I0403 18:16:30.964076  6765 layer_factory.hpp:77] Creating layer loss2/classifier_plantvillage
I0403 18:16:30.964097  6765 net.cpp:91] Creating Layer loss2/classifier_plantvillage
I0403 18:16:30.964113  6765 net.cpp:425] loss2/classifier_plantvillage <- loss2/fc
I0403 18:16:30.964134  6765 net.cpp:399] loss2/classifier_plantvillage -> loss2/classifier_plantvillage
I0403 18:16:30.964531  6765 net.cpp:141] Setting up loss2/classifier_plantvillage
I0403 18:16:30.964556  6765 net.cpp:148] Top shape: 24 38 (912)
I0403 18:16:30.964587  6765 net.cpp:156] Memory required for data: 1208421216
I0403 18:16:30.964606  6765 layer_factory.hpp:77] Creating layer loss2/classifier_plantvillage_loss2/classifier_plantvillage_0_split
I0403 18:16:30.964627  6765 net.cpp:91] Creating Layer loss2/classifier_plantvillage_loss2/classifier_plantvillage_0_split
I0403 18:16:30.964643  6765 net.cpp:425] loss2/classifier_plantvillage_loss2/classifier_plantvillage_0_split <- loss2/classifier_plantvillage
I0403 18:16:30.964659  6765 net.cpp:399] loss2/classifier_plantvillage_loss2/classifier_plantvillage_0_split -> loss2/classifier_plantvillage_loss2/classifier_plantvillage_0_split_0
I0403 18:16:30.964681  6765 net.cpp:399] loss2/classifier_plantvillage_loss2/classifier_plantvillage_0_split -> loss2/classifier_plantvillage_loss2/classifier_plantvillage_0_split_1
I0403 18:16:30.964700  6765 net.cpp:399] loss2/classifier_plantvillage_loss2/classifier_plantvillage_0_split -> loss2/classifier_plantvillage_loss2/classifier_plantvillage_0_split_2
I0403 18:16:30.964779  6765 net.cpp:141] Setting up loss2/classifier_plantvillage_loss2/classifier_plantvillage_0_split
I0403 18:16:30.964802  6765 net.cpp:148] Top shape: 24 38 (912)
I0403 18:16:30.964818  6765 net.cpp:148] Top shape: 24 38 (912)
I0403 18:16:30.964833  6765 net.cpp:148] Top shape: 24 38 (912)
I0403 18:16:30.964845  6765 net.cpp:156] Memory required for data: 1208432160
I0403 18:16:30.964859  6765 layer_factory.hpp:77] Creating layer inception_4e/1x1
I0403 18:16:30.964879  6765 net.cpp:91] Creating Layer inception_4e/1x1
I0403 18:16:30.964896  6765 net.cpp:425] inception_4e/1x1 <- inception_4d/output_inception_4d/output_0_split_1
I0403 18:16:30.964917  6765 net.cpp:399] inception_4e/1x1 -> inception_4e/1x1
I0403 18:16:30.966697  6765 net.cpp:141] Setting up inception_4e/1x1
I0403 18:16:30.966724  6765 net.cpp:148] Top shape: 24 256 14 14 (1204224)
I0403 18:16:30.966739  6765 net.cpp:156] Memory required for data: 1213249056
I0403 18:16:30.966758  6765 layer_factory.hpp:77] Creating layer inception_4e/relu_1x1
I0403 18:16:30.966778  6765 net.cpp:91] Creating Layer inception_4e/relu_1x1
I0403 18:16:30.966795  6765 net.cpp:425] inception_4e/relu_1x1 <- inception_4e/1x1
I0403 18:16:30.966811  6765 net.cpp:386] inception_4e/relu_1x1 -> inception_4e/1x1 (in-place)
I0403 18:16:30.967097  6765 net.cpp:141] Setting up inception_4e/relu_1x1
I0403 18:16:30.967123  6765 net.cpp:148] Top shape: 24 256 14 14 (1204224)
I0403 18:16:30.967138  6765 net.cpp:156] Memory required for data: 1218065952
I0403 18:16:30.967152  6765 layer_factory.hpp:77] Creating layer inception_4e/3x3_reduce
I0403 18:16:30.967176  6765 net.cpp:91] Creating Layer inception_4e/3x3_reduce
I0403 18:16:30.967195  6765 net.cpp:425] inception_4e/3x3_reduce <- inception_4d/output_inception_4d/output_0_split_2
I0403 18:16:30.967216  6765 net.cpp:399] inception_4e/3x3_reduce -> inception_4e/3x3_reduce
I0403 18:16:30.969298  6765 net.cpp:141] Setting up inception_4e/3x3_reduce
I0403 18:16:30.969326  6765 net.cpp:148] Top shape: 24 160 14 14 (752640)
I0403 18:16:30.969341  6765 net.cpp:156] Memory required for data: 1221076512
I0403 18:16:30.969360  6765 layer_factory.hpp:77] Creating layer inception_4e/relu_3x3_reduce
I0403 18:16:30.969380  6765 net.cpp:91] Creating Layer inception_4e/relu_3x3_reduce
I0403 18:16:30.969398  6765 net.cpp:425] inception_4e/relu_3x3_reduce <- inception_4e/3x3_reduce
I0403 18:16:30.969414  6765 net.cpp:386] inception_4e/relu_3x3_reduce -> inception_4e/3x3_reduce (in-place)
I0403 18:16:30.969595  6765 net.cpp:141] Setting up inception_4e/relu_3x3_reduce
I0403 18:16:30.969619  6765 net.cpp:148] Top shape: 24 160 14 14 (752640)
I0403 18:16:30.969635  6765 net.cpp:156] Memory required for data: 1224087072
I0403 18:16:30.969650  6765 layer_factory.hpp:77] Creating layer inception_4e/3x3
I0403 18:16:30.969671  6765 net.cpp:91] Creating Layer inception_4e/3x3
I0403 18:16:30.969687  6765 net.cpp:425] inception_4e/3x3 <- inception_4e/3x3_reduce
I0403 18:16:30.969708  6765 net.cpp:399] inception_4e/3x3 -> inception_4e/3x3
I0403 18:16:30.974635  6765 net.cpp:141] Setting up inception_4e/3x3
I0403 18:16:30.974675  6765 net.cpp:148] Top shape: 24 320 14 14 (1505280)
I0403 18:16:30.974691  6765 net.cpp:156] Memory required for data: 1230108192
I0403 18:16:30.974709  6765 layer_factory.hpp:77] Creating layer inception_4e/relu_3x3
I0403 18:16:30.974730  6765 net.cpp:91] Creating Layer inception_4e/relu_3x3
I0403 18:16:30.974745  6765 net.cpp:425] inception_4e/relu_3x3 <- inception_4e/3x3
I0403 18:16:30.974762  6765 net.cpp:386] inception_4e/relu_3x3 -> inception_4e/3x3 (in-place)
I0403 18:16:30.975060  6765 net.cpp:141] Setting up inception_4e/relu_3x3
I0403 18:16:30.975088  6765 net.cpp:148] Top shape: 24 320 14 14 (1505280)
I0403 18:16:30.975105  6765 net.cpp:156] Memory required for data: 1236129312
I0403 18:16:30.975119  6765 layer_factory.hpp:77] Creating layer inception_4e/5x5_reduce
I0403 18:16:30.975142  6765 net.cpp:91] Creating Layer inception_4e/5x5_reduce
I0403 18:16:30.975158  6765 net.cpp:425] inception_4e/5x5_reduce <- inception_4d/output_inception_4d/output_0_split_3
I0403 18:16:30.975178  6765 net.cpp:399] inception_4e/5x5_reduce -> inception_4e/5x5_reduce
I0403 18:16:30.976235  6765 net.cpp:141] Setting up inception_4e/5x5_reduce
I0403 18:16:30.976263  6765 net.cpp:148] Top shape: 24 32 14 14 (150528)
I0403 18:16:30.976282  6765 net.cpp:156] Memory required for data: 1236731424
I0403 18:16:30.976300  6765 layer_factory.hpp:77] Creating layer inception_4e/relu_5x5_reduce
I0403 18:16:30.976320  6765 net.cpp:91] Creating Layer inception_4e/relu_5x5_reduce
I0403 18:16:30.976336  6765 net.cpp:425] inception_4e/relu_5x5_reduce <- inception_4e/5x5_reduce
I0403 18:16:30.976354  6765 net.cpp:386] inception_4e/relu_5x5_reduce -> inception_4e/5x5_reduce (in-place)
I0403 18:16:30.976655  6765 net.cpp:141] Setting up inception_4e/relu_5x5_reduce
I0403 18:16:30.976680  6765 net.cpp:148] Top shape: 24 32 14 14 (150528)
I0403 18:16:30.976696  6765 net.cpp:156] Memory required for data: 1237333536
I0403 18:16:30.976711  6765 layer_factory.hpp:77] Creating layer inception_4e/5x5
I0403 18:16:30.976747  6765 net.cpp:91] Creating Layer inception_4e/5x5
I0403 18:16:30.976765  6765 net.cpp:425] inception_4e/5x5 <- inception_4e/5x5_reduce
I0403 18:16:30.976784  6765 net.cpp:399] inception_4e/5x5 -> inception_4e/5x5
I0403 18:16:30.978586  6765 net.cpp:141] Setting up inception_4e/5x5
I0403 18:16:30.978613  6765 net.cpp:148] Top shape: 24 128 14 14 (602112)
I0403 18:16:30.978627  6765 net.cpp:156] Memory required for data: 1239741984
I0403 18:16:30.978646  6765 layer_factory.hpp:77] Creating layer inception_4e/relu_5x5
I0403 18:16:30.978665  6765 net.cpp:91] Creating Layer inception_4e/relu_5x5
I0403 18:16:30.978680  6765 net.cpp:425] inception_4e/relu_5x5 <- inception_4e/5x5
I0403 18:16:30.978699  6765 net.cpp:386] inception_4e/relu_5x5 -> inception_4e/5x5 (in-place)
I0403 18:16:30.978893  6765 net.cpp:141] Setting up inception_4e/relu_5x5
I0403 18:16:30.978916  6765 net.cpp:148] Top shape: 24 128 14 14 (602112)
I0403 18:16:30.978930  6765 net.cpp:156] Memory required for data: 1242150432
I0403 18:16:30.978945  6765 layer_factory.hpp:77] Creating layer inception_4e/pool
I0403 18:16:30.978965  6765 net.cpp:91] Creating Layer inception_4e/pool
I0403 18:16:30.978983  6765 net.cpp:425] inception_4e/pool <- inception_4d/output_inception_4d/output_0_split_4
I0403 18:16:30.979001  6765 net.cpp:399] inception_4e/pool -> inception_4e/pool
I0403 18:16:30.979068  6765 net.cpp:141] Setting up inception_4e/pool
I0403 18:16:30.979091  6765 net.cpp:148] Top shape: 24 528 14 14 (2483712)
I0403 18:16:30.979106  6765 net.cpp:156] Memory required for data: 1252085280
I0403 18:16:30.979121  6765 layer_factory.hpp:77] Creating layer inception_4e/pool_proj
I0403 18:16:30.979142  6765 net.cpp:91] Creating Layer inception_4e/pool_proj
I0403 18:16:30.979159  6765 net.cpp:425] inception_4e/pool_proj <- inception_4e/pool
I0403 18:16:30.979179  6765 net.cpp:399] inception_4e/pool_proj -> inception_4e/pool_proj
I0403 18:16:30.980648  6765 net.cpp:141] Setting up inception_4e/pool_proj
I0403 18:16:30.980690  6765 net.cpp:148] Top shape: 24 128 14 14 (602112)
I0403 18:16:30.980706  6765 net.cpp:156] Memory required for data: 1254493728
I0403 18:16:30.980723  6765 layer_factory.hpp:77] Creating layer inception_4e/relu_pool_proj
I0403 18:16:30.980741  6765 net.cpp:91] Creating Layer inception_4e/relu_pool_proj
I0403 18:16:30.980756  6765 net.cpp:425] inception_4e/relu_pool_proj <- inception_4e/pool_proj
I0403 18:16:30.980775  6765 net.cpp:386] inception_4e/relu_pool_proj -> inception_4e/pool_proj (in-place)
I0403 18:16:30.981062  6765 net.cpp:141] Setting up inception_4e/relu_pool_proj
I0403 18:16:30.981091  6765 net.cpp:148] Top shape: 24 128 14 14 (602112)
I0403 18:16:30.981106  6765 net.cpp:156] Memory required for data: 1256902176
I0403 18:16:30.981120  6765 layer_factory.hpp:77] Creating layer inception_4e/output
I0403 18:16:30.981138  6765 net.cpp:91] Creating Layer inception_4e/output
I0403 18:16:30.981153  6765 net.cpp:425] inception_4e/output <- inception_4e/1x1
I0403 18:16:30.981170  6765 net.cpp:425] inception_4e/output <- inception_4e/3x3
I0403 18:16:30.981186  6765 net.cpp:425] inception_4e/output <- inception_4e/5x5
I0403 18:16:30.981201  6765 net.cpp:425] inception_4e/output <- inception_4e/pool_proj
I0403 18:16:30.981220  6765 net.cpp:399] inception_4e/output -> inception_4e/output
I0403 18:16:30.981267  6765 net.cpp:141] Setting up inception_4e/output
I0403 18:16:30.981294  6765 net.cpp:148] Top shape: 24 832 14 14 (3913728)
I0403 18:16:30.981309  6765 net.cpp:156] Memory required for data: 1272557088
I0403 18:16:30.981324  6765 layer_factory.hpp:77] Creating layer pool4/3x3_s2
I0403 18:16:30.981343  6765 net.cpp:91] Creating Layer pool4/3x3_s2
I0403 18:16:30.981359  6765 net.cpp:425] pool4/3x3_s2 <- inception_4e/output
I0403 18:16:30.981377  6765 net.cpp:399] pool4/3x3_s2 -> pool4/3x3_s2
I0403 18:16:30.981444  6765 net.cpp:141] Setting up pool4/3x3_s2
I0403 18:16:30.981467  6765 net.cpp:148] Top shape: 24 832 7 7 (978432)
I0403 18:16:30.981482  6765 net.cpp:156] Memory required for data: 1276470816
I0403 18:16:30.981497  6765 layer_factory.hpp:77] Creating layer pool4/3x3_s2_pool4/3x3_s2_0_split
I0403 18:16:30.981513  6765 net.cpp:91] Creating Layer pool4/3x3_s2_pool4/3x3_s2_0_split
I0403 18:16:30.981529  6765 net.cpp:425] pool4/3x3_s2_pool4/3x3_s2_0_split <- pool4/3x3_s2
I0403 18:16:30.981549  6765 net.cpp:399] pool4/3x3_s2_pool4/3x3_s2_0_split -> pool4/3x3_s2_pool4/3x3_s2_0_split_0
I0403 18:16:30.981567  6765 net.cpp:399] pool4/3x3_s2_pool4/3x3_s2_0_split -> pool4/3x3_s2_pool4/3x3_s2_0_split_1
I0403 18:16:30.981588  6765 net.cpp:399] pool4/3x3_s2_pool4/3x3_s2_0_split -> pool4/3x3_s2_pool4/3x3_s2_0_split_2
I0403 18:16:30.981607  6765 net.cpp:399] pool4/3x3_s2_pool4/3x3_s2_0_split -> pool4/3x3_s2_pool4/3x3_s2_0_split_3
I0403 18:16:30.981699  6765 net.cpp:141] Setting up pool4/3x3_s2_pool4/3x3_s2_0_split
I0403 18:16:30.981724  6765 net.cpp:148] Top shape: 24 832 7 7 (978432)
I0403 18:16:30.981740  6765 net.cpp:148] Top shape: 24 832 7 7 (978432)
I0403 18:16:30.981755  6765 net.cpp:148] Top shape: 24 832 7 7 (978432)
I0403 18:16:30.981771  6765 net.cpp:148] Top shape: 24 832 7 7 (978432)
I0403 18:16:30.981784  6765 net.cpp:156] Memory required for data: 1292125728
I0403 18:16:30.981798  6765 layer_factory.hpp:77] Creating layer inception_5a/1x1
I0403 18:16:30.981819  6765 net.cpp:91] Creating Layer inception_5a/1x1
I0403 18:16:30.981837  6765 net.cpp:425] inception_5a/1x1 <- pool4/3x3_s2_pool4/3x3_s2_0_split_0
I0403 18:16:30.981854  6765 net.cpp:399] inception_5a/1x1 -> inception_5a/1x1
I0403 18:16:30.984717  6765 net.cpp:141] Setting up inception_5a/1x1
I0403 18:16:30.984746  6765 net.cpp:148] Top shape: 24 256 7 7 (301056)
I0403 18:16:30.984762  6765 net.cpp:156] Memory required for data: 1293329952
I0403 18:16:30.984781  6765 layer_factory.hpp:77] Creating layer inception_5a/relu_1x1
I0403 18:16:30.984799  6765 net.cpp:91] Creating Layer inception_5a/relu_1x1
I0403 18:16:30.984819  6765 net.cpp:425] inception_5a/relu_1x1 <- inception_5a/1x1
I0403 18:16:30.984838  6765 net.cpp:386] inception_5a/relu_1x1 -> inception_5a/1x1 (in-place)
I0403 18:16:30.985148  6765 net.cpp:141] Setting up inception_5a/relu_1x1
I0403 18:16:30.985175  6765 net.cpp:148] Top shape: 24 256 7 7 (301056)
I0403 18:16:30.985189  6765 net.cpp:156] Memory required for data: 1294534176
I0403 18:16:30.985204  6765 layer_factory.hpp:77] Creating layer inception_5a/3x3_reduce
I0403 18:16:30.985227  6765 net.cpp:91] Creating Layer inception_5a/3x3_reduce
I0403 18:16:30.985244  6765 net.cpp:425] inception_5a/3x3_reduce <- pool4/3x3_s2_pool4/3x3_s2_0_split_1
I0403 18:16:30.985265  6765 net.cpp:399] inception_5a/3x3_reduce -> inception_5a/3x3_reduce
I0403 18:16:30.987745  6765 net.cpp:141] Setting up inception_5a/3x3_reduce
I0403 18:16:30.987778  6765 net.cpp:148] Top shape: 24 160 7 7 (188160)
I0403 18:16:30.987795  6765 net.cpp:156] Memory required for data: 1295286816
I0403 18:16:30.987812  6765 layer_factory.hpp:77] Creating layer inception_5a/relu_3x3_reduce
I0403 18:16:30.987833  6765 net.cpp:91] Creating Layer inception_5a/relu_3x3_reduce
I0403 18:16:30.987848  6765 net.cpp:425] inception_5a/relu_3x3_reduce <- inception_5a/3x3_reduce
I0403 18:16:30.987865  6765 net.cpp:386] inception_5a/relu_3x3_reduce -> inception_5a/3x3_reduce (in-place)
I0403 18:16:30.988054  6765 net.cpp:141] Setting up inception_5a/relu_3x3_reduce
I0403 18:16:30.988081  6765 net.cpp:148] Top shape: 24 160 7 7 (188160)
I0403 18:16:30.988096  6765 net.cpp:156] Memory required for data: 1296039456
I0403 18:16:30.988111  6765 layer_factory.hpp:77] Creating layer inception_5a/3x3
I0403 18:16:30.988133  6765 net.cpp:91] Creating Layer inception_5a/3x3
I0403 18:16:30.988150  6765 net.cpp:425] inception_5a/3x3 <- inception_5a/3x3_reduce
I0403 18:16:30.988173  6765 net.cpp:399] inception_5a/3x3 -> inception_5a/3x3
I0403 18:16:30.993316  6765 net.cpp:141] Setting up inception_5a/3x3
I0403 18:16:30.993350  6765 net.cpp:148] Top shape: 24 320 7 7 (376320)
I0403 18:16:30.993365  6765 net.cpp:156] Memory required for data: 1297544736
I0403 18:16:30.993383  6765 layer_factory.hpp:77] Creating layer inception_5a/relu_3x3
I0403 18:16:30.993402  6765 net.cpp:91] Creating Layer inception_5a/relu_3x3
I0403 18:16:30.993418  6765 net.cpp:425] inception_5a/relu_3x3 <- inception_5a/3x3
I0403 18:16:30.993438  6765 net.cpp:386] inception_5a/relu_3x3 -> inception_5a/3x3 (in-place)
I0403 18:16:30.993734  6765 net.cpp:141] Setting up inception_5a/relu_3x3
I0403 18:16:30.993760  6765 net.cpp:148] Top shape: 24 320 7 7 (376320)
I0403 18:16:30.993777  6765 net.cpp:156] Memory required for data: 1299050016
I0403 18:16:30.993791  6765 layer_factory.hpp:77] Creating layer inception_5a/5x5_reduce
I0403 18:16:30.993813  6765 net.cpp:91] Creating Layer inception_5a/5x5_reduce
I0403 18:16:30.993831  6765 net.cpp:425] inception_5a/5x5_reduce <- pool4/3x3_s2_pool4/3x3_s2_0_split_2
I0403 18:16:30.993854  6765 net.cpp:399] inception_5a/5x5_reduce -> inception_5a/5x5_reduce
I0403 18:16:30.995100  6765 net.cpp:141] Setting up inception_5a/5x5_reduce
I0403 18:16:30.995129  6765 net.cpp:148] Top shape: 24 32 7 7 (37632)
I0403 18:16:30.995146  6765 net.cpp:156] Memory required for data: 1299200544
I0403 18:16:30.995164  6765 layer_factory.hpp:77] Creating layer inception_5a/relu_5x5_reduce
I0403 18:16:30.995185  6765 net.cpp:91] Creating Layer inception_5a/relu_5x5_reduce
I0403 18:16:30.995203  6765 net.cpp:425] inception_5a/relu_5x5_reduce <- inception_5a/5x5_reduce
I0403 18:16:30.995220  6765 net.cpp:386] inception_5a/relu_5x5_reduce -> inception_5a/5x5_reduce (in-place)
I0403 18:16:30.995538  6765 net.cpp:141] Setting up inception_5a/relu_5x5_reduce
I0403 18:16:30.995564  6765 net.cpp:148] Top shape: 24 32 7 7 (37632)
I0403 18:16:30.995579  6765 net.cpp:156] Memory required for data: 1299351072
I0403 18:16:30.995595  6765 layer_factory.hpp:77] Creating layer inception_5a/5x5
I0403 18:16:30.995617  6765 net.cpp:91] Creating Layer inception_5a/5x5
I0403 18:16:30.995635  6765 net.cpp:425] inception_5a/5x5 <- inception_5a/5x5_reduce
I0403 18:16:30.995656  6765 net.cpp:399] inception_5a/5x5 -> inception_5a/5x5
I0403 18:16:30.997439  6765 net.cpp:141] Setting up inception_5a/5x5
I0403 18:16:30.997480  6765 net.cpp:148] Top shape: 24 128 7 7 (150528)
I0403 18:16:30.997496  6765 net.cpp:156] Memory required for data: 1299953184
I0403 18:16:30.997514  6765 layer_factory.hpp:77] Creating layer inception_5a/relu_5x5
I0403 18:16:30.997534  6765 net.cpp:91] Creating Layer inception_5a/relu_5x5
I0403 18:16:30.997550  6765 net.cpp:425] inception_5a/relu_5x5 <- inception_5a/5x5
I0403 18:16:30.997570  6765 net.cpp:386] inception_5a/relu_5x5 -> inception_5a/5x5 (in-place)
I0403 18:16:30.997766  6765 net.cpp:141] Setting up inception_5a/relu_5x5
I0403 18:16:30.997791  6765 net.cpp:148] Top shape: 24 128 7 7 (150528)
I0403 18:16:30.997805  6765 net.cpp:156] Memory required for data: 1300555296
I0403 18:16:30.997820  6765 layer_factory.hpp:77] Creating layer inception_5a/pool
I0403 18:16:30.997840  6765 net.cpp:91] Creating Layer inception_5a/pool
I0403 18:16:30.997856  6765 net.cpp:425] inception_5a/pool <- pool4/3x3_s2_pool4/3x3_s2_0_split_3
I0403 18:16:30.997875  6765 net.cpp:399] inception_5a/pool -> inception_5a/pool
I0403 18:16:30.997947  6765 net.cpp:141] Setting up inception_5a/pool
I0403 18:16:30.997972  6765 net.cpp:148] Top shape: 24 832 7 7 (978432)
I0403 18:16:30.997987  6765 net.cpp:156] Memory required for data: 1304469024
I0403 18:16:30.998002  6765 layer_factory.hpp:77] Creating layer inception_5a/pool_proj
I0403 18:16:30.998023  6765 net.cpp:91] Creating Layer inception_5a/pool_proj
I0403 18:16:30.998041  6765 net.cpp:425] inception_5a/pool_proj <- inception_5a/pool
I0403 18:16:30.998062  6765 net.cpp:399] inception_5a/pool_proj -> inception_5a/pool_proj
I0403 18:16:31.000383  6765 net.cpp:141] Setting up inception_5a/pool_proj
I0403 18:16:31.000416  6765 net.cpp:148] Top shape: 24 128 7 7 (150528)
I0403 18:16:31.000432  6765 net.cpp:156] Memory required for data: 1305071136
I0403 18:16:31.000450  6765 layer_factory.hpp:77] Creating layer inception_5a/relu_pool_proj
I0403 18:16:31.000469  6765 net.cpp:91] Creating Layer inception_5a/relu_pool_proj
I0403 18:16:31.000485  6765 net.cpp:425] inception_5a/relu_pool_proj <- inception_5a/pool_proj
I0403 18:16:31.000506  6765 net.cpp:386] inception_5a/relu_pool_proj -> inception_5a/pool_proj (in-place)
I0403 18:16:31.000802  6765 net.cpp:141] Setting up inception_5a/relu_pool_proj
I0403 18:16:31.000833  6765 net.cpp:148] Top shape: 24 128 7 7 (150528)
I0403 18:16:31.000849  6765 net.cpp:156] Memory required for data: 1305673248
I0403 18:16:31.000864  6765 layer_factory.hpp:77] Creating layer inception_5a/output
I0403 18:16:31.000881  6765 net.cpp:91] Creating Layer inception_5a/output
I0403 18:16:31.000896  6765 net.cpp:425] inception_5a/output <- inception_5a/1x1
I0403 18:16:31.000915  6765 net.cpp:425] inception_5a/output <- inception_5a/3x3
I0403 18:16:31.000929  6765 net.cpp:425] inception_5a/output <- inception_5a/5x5
I0403 18:16:31.000946  6765 net.cpp:425] inception_5a/output <- inception_5a/pool_proj
I0403 18:16:31.000964  6765 net.cpp:399] inception_5a/output -> inception_5a/output
I0403 18:16:31.001015  6765 net.cpp:141] Setting up inception_5a/output
I0403 18:16:31.001039  6765 net.cpp:148] Top shape: 24 832 7 7 (978432)
I0403 18:16:31.001054  6765 net.cpp:156] Memory required for data: 1309586976
I0403 18:16:31.001070  6765 layer_factory.hpp:77] Creating layer inception_5a/output_inception_5a/output_0_split
I0403 18:16:31.001090  6765 net.cpp:91] Creating Layer inception_5a/output_inception_5a/output_0_split
I0403 18:16:31.001106  6765 net.cpp:425] inception_5a/output_inception_5a/output_0_split <- inception_5a/output
I0403 18:16:31.001123  6765 net.cpp:399] inception_5a/output_inception_5a/output_0_split -> inception_5a/output_inception_5a/output_0_split_0
I0403 18:16:31.001145  6765 net.cpp:399] inception_5a/output_inception_5a/output_0_split -> inception_5a/output_inception_5a/output_0_split_1
I0403 18:16:31.001166  6765 net.cpp:399] inception_5a/output_inception_5a/output_0_split -> inception_5a/output_inception_5a/output_0_split_2
I0403 18:16:31.001191  6765 net.cpp:399] inception_5a/output_inception_5a/output_0_split -> inception_5a/output_inception_5a/output_0_split_3
I0403 18:16:31.001310  6765 net.cpp:141] Setting up inception_5a/output_inception_5a/output_0_split
I0403 18:16:31.001335  6765 net.cpp:148] Top shape: 24 832 7 7 (978432)
I0403 18:16:31.001351  6765 net.cpp:148] Top shape: 24 832 7 7 (978432)
I0403 18:16:31.001368  6765 net.cpp:148] Top shape: 24 832 7 7 (978432)
I0403 18:16:31.001382  6765 net.cpp:148] Top shape: 24 832 7 7 (978432)
I0403 18:16:31.001395  6765 net.cpp:156] Memory required for data: 1325241888
I0403 18:16:31.001410  6765 layer_factory.hpp:77] Creating layer inception_5b/1x1
I0403 18:16:31.001432  6765 net.cpp:91] Creating Layer inception_5b/1x1
I0403 18:16:31.001451  6765 net.cpp:425] inception_5b/1x1 <- inception_5a/output_inception_5a/output_0_split_0
I0403 18:16:31.001471  6765 net.cpp:399] inception_5b/1x1 -> inception_5b/1x1
I0403 18:16:31.005287  6765 net.cpp:141] Setting up inception_5b/1x1
I0403 18:16:31.005322  6765 net.cpp:148] Top shape: 24 384 7 7 (451584)
I0403 18:16:31.005338  6765 net.cpp:156] Memory required for data: 1327048224
I0403 18:16:31.005357  6765 layer_factory.hpp:77] Creating layer inception_5b/relu_1x1
I0403 18:16:31.005375  6765 net.cpp:91] Creating Layer inception_5b/relu_1x1
I0403 18:16:31.005393  6765 net.cpp:425] inception_5b/relu_1x1 <- inception_5b/1x1
I0403 18:16:31.005409  6765 net.cpp:386] inception_5b/relu_1x1 -> inception_5b/1x1 (in-place)
I0403 18:16:31.005723  6765 net.cpp:141] Setting up inception_5b/relu_1x1
I0403 18:16:31.005753  6765 net.cpp:148] Top shape: 24 384 7 7 (451584)
I0403 18:16:31.005769  6765 net.cpp:156] Memory required for data: 1328854560
I0403 18:16:31.005784  6765 layer_factory.hpp:77] Creating layer inception_5b/3x3_reduce
I0403 18:16:31.005808  6765 net.cpp:91] Creating Layer inception_5b/3x3_reduce
I0403 18:16:31.005826  6765 net.cpp:425] inception_5b/3x3_reduce <- inception_5a/output_inception_5a/output_0_split_1
I0403 18:16:31.005846  6765 net.cpp:399] inception_5b/3x3_reduce -> inception_5b/3x3_reduce
I0403 18:16:31.008642  6765 net.cpp:141] Setting up inception_5b/3x3_reduce
I0403 18:16:31.008676  6765 net.cpp:148] Top shape: 24 192 7 7 (225792)
I0403 18:16:31.008693  6765 net.cpp:156] Memory required for data: 1329757728
I0403 18:16:31.008713  6765 layer_factory.hpp:77] Creating layer inception_5b/relu_3x3_reduce
I0403 18:16:31.008731  6765 net.cpp:91] Creating Layer inception_5b/relu_3x3_reduce
I0403 18:16:31.008749  6765 net.cpp:425] inception_5b/relu_3x3_reduce <- inception_5b/3x3_reduce
I0403 18:16:31.008770  6765 net.cpp:386] inception_5b/relu_3x3_reduce -> inception_5b/3x3_reduce (in-place)
I0403 18:16:31.008970  6765 net.cpp:141] Setting up inception_5b/relu_3x3_reduce
I0403 18:16:31.008996  6765 net.cpp:148] Top shape: 24 192 7 7 (225792)
I0403 18:16:31.009011  6765 net.cpp:156] Memory required for data: 1330660896
I0403 18:16:31.009024  6765 layer_factory.hpp:77] Creating layer inception_5b/3x3
I0403 18:16:31.009047  6765 net.cpp:91] Creating Layer inception_5b/3x3
I0403 18:16:31.009065  6765 net.cpp:425] inception_5b/3x3 <- inception_5b/3x3_reduce
I0403 18:16:31.009093  6765 net.cpp:399] inception_5b/3x3 -> inception_5b/3x3
I0403 18:16:31.016121  6765 net.cpp:141] Setting up inception_5b/3x3
I0403 18:16:31.016156  6765 net.cpp:148] Top shape: 24 384 7 7 (451584)
I0403 18:16:31.016173  6765 net.cpp:156] Memory required for data: 1332467232
I0403 18:16:31.016193  6765 layer_factory.hpp:77] Creating layer inception_5b/relu_3x3
I0403 18:16:31.016213  6765 net.cpp:91] Creating Layer inception_5b/relu_3x3
I0403 18:16:31.016230  6765 net.cpp:425] inception_5b/relu_3x3 <- inception_5b/3x3
I0403 18:16:31.016252  6765 net.cpp:386] inception_5b/relu_3x3 -> inception_5b/3x3 (in-place)
I0403 18:16:31.016562  6765 net.cpp:141] Setting up inception_5b/relu_3x3
I0403 18:16:31.016592  6765 net.cpp:148] Top shape: 24 384 7 7 (451584)
I0403 18:16:31.016608  6765 net.cpp:156] Memory required for data: 1334273568
I0403 18:16:31.016624  6765 layer_factory.hpp:77] Creating layer inception_5b/5x5_reduce
I0403 18:16:31.016669  6765 net.cpp:91] Creating Layer inception_5b/5x5_reduce
I0403 18:16:31.016688  6765 net.cpp:425] inception_5b/5x5_reduce <- inception_5a/output_inception_5a/output_0_split_2
I0403 18:16:31.016710  6765 net.cpp:399] inception_5b/5x5_reduce -> inception_5b/5x5_reduce
I0403 18:16:31.018034  6765 net.cpp:141] Setting up inception_5b/5x5_reduce
I0403 18:16:31.018065  6765 net.cpp:148] Top shape: 24 48 7 7 (56448)
I0403 18:16:31.018082  6765 net.cpp:156] Memory required for data: 1334499360
I0403 18:16:31.018101  6765 layer_factory.hpp:77] Creating layer inception_5b/relu_5x5_reduce
I0403 18:16:31.018121  6765 net.cpp:91] Creating Layer inception_5b/relu_5x5_reduce
I0403 18:16:31.018137  6765 net.cpp:425] inception_5b/relu_5x5_reduce <- inception_5b/5x5_reduce
I0403 18:16:31.018157  6765 net.cpp:386] inception_5b/relu_5x5_reduce -> inception_5b/5x5_reduce (in-place)
I0403 18:16:31.018548  6765 net.cpp:141] Setting up inception_5b/relu_5x5_reduce
I0403 18:16:31.018576  6765 net.cpp:148] Top shape: 24 48 7 7 (56448)
I0403 18:16:31.018592  6765 net.cpp:156] Memory required for data: 1334725152
I0403 18:16:31.018609  6765 layer_factory.hpp:77] Creating layer inception_5b/5x5
I0403 18:16:31.018630  6765 net.cpp:91] Creating Layer inception_5b/5x5
I0403 18:16:31.018647  6765 net.cpp:425] inception_5b/5x5 <- inception_5b/5x5_reduce
I0403 18:16:31.018667  6765 net.cpp:399] inception_5b/5x5 -> inception_5b/5x5
I0403 18:16:31.020838  6765 net.cpp:141] Setting up inception_5b/5x5
I0403 18:16:31.020865  6765 net.cpp:148] Top shape: 24 128 7 7 (150528)
I0403 18:16:31.020882  6765 net.cpp:156] Memory required for data: 1335327264
I0403 18:16:31.020901  6765 layer_factory.hpp:77] Creating layer inception_5b/relu_5x5
I0403 18:16:31.020921  6765 net.cpp:91] Creating Layer inception_5b/relu_5x5
I0403 18:16:31.020972  6765 net.cpp:425] inception_5b/relu_5x5 <- inception_5b/5x5
I0403 18:16:31.020990  6765 net.cpp:386] inception_5b/relu_5x5 -> inception_5b/5x5 (in-place)
I0403 18:16:31.021199  6765 net.cpp:141] Setting up inception_5b/relu_5x5
I0403 18:16:31.021239  6765 net.cpp:148] Top shape: 24 128 7 7 (150528)
I0403 18:16:31.021253  6765 net.cpp:156] Memory required for data: 1335929376
I0403 18:16:31.021273  6765 layer_factory.hpp:77] Creating layer inception_5b/pool
I0403 18:16:31.021297  6765 net.cpp:91] Creating Layer inception_5b/pool
I0403 18:16:31.021316  6765 net.cpp:425] inception_5b/pool <- inception_5a/output_inception_5a/output_0_split_3
I0403 18:16:31.021337  6765 net.cpp:399] inception_5b/pool -> inception_5b/pool
I0403 18:16:31.021414  6765 net.cpp:141] Setting up inception_5b/pool
I0403 18:16:31.021440  6765 net.cpp:148] Top shape: 24 832 7 7 (978432)
I0403 18:16:31.021455  6765 net.cpp:156] Memory required for data: 1339843104
I0403 18:16:31.021469  6765 layer_factory.hpp:77] Creating layer inception_5b/pool_proj
I0403 18:16:31.021492  6765 net.cpp:91] Creating Layer inception_5b/pool_proj
I0403 18:16:31.021510  6765 net.cpp:425] inception_5b/pool_proj <- inception_5b/pool
I0403 18:16:31.021533  6765 net.cpp:399] inception_5b/pool_proj -> inception_5b/pool_proj
I0403 18:16:31.023907  6765 net.cpp:141] Setting up inception_5b/pool_proj
I0403 18:16:31.023936  6765 net.cpp:148] Top shape: 24 128 7 7 (150528)
I0403 18:16:31.023952  6765 net.cpp:156] Memory required for data: 1340445216
I0403 18:16:31.023970  6765 layer_factory.hpp:77] Creating layer inception_5b/relu_pool_proj
I0403 18:16:31.023988  6765 net.cpp:91] Creating Layer inception_5b/relu_pool_proj
I0403 18:16:31.024005  6765 net.cpp:425] inception_5b/relu_pool_proj <- inception_5b/pool_proj
I0403 18:16:31.024025  6765 net.cpp:386] inception_5b/relu_pool_proj -> inception_5b/pool_proj (in-place)
I0403 18:16:31.024332  6765 net.cpp:141] Setting up inception_5b/relu_pool_proj
I0403 18:16:31.024358  6765 net.cpp:148] Top shape: 24 128 7 7 (150528)
I0403 18:16:31.024374  6765 net.cpp:156] Memory required for data: 1341047328
I0403 18:16:31.024389  6765 layer_factory.hpp:77] Creating layer inception_5b/output
I0403 18:16:31.024407  6765 net.cpp:91] Creating Layer inception_5b/output
I0403 18:16:31.024438  6765 net.cpp:425] inception_5b/output <- inception_5b/1x1
I0403 18:16:31.024456  6765 net.cpp:425] inception_5b/output <- inception_5b/3x3
I0403 18:16:31.024472  6765 net.cpp:425] inception_5b/output <- inception_5b/5x5
I0403 18:16:31.024487  6765 net.cpp:425] inception_5b/output <- inception_5b/pool_proj
I0403 18:16:31.024507  6765 net.cpp:399] inception_5b/output -> inception_5b/output
I0403 18:16:31.024560  6765 net.cpp:141] Setting up inception_5b/output
I0403 18:16:31.024585  6765 net.cpp:148] Top shape: 24 1024 7 7 (1204224)
I0403 18:16:31.024602  6765 net.cpp:156] Memory required for data: 1345864224
I0403 18:16:31.024617  6765 layer_factory.hpp:77] Creating layer pool5/7x7_s1
I0403 18:16:31.024636  6765 net.cpp:91] Creating Layer pool5/7x7_s1
I0403 18:16:31.024652  6765 net.cpp:425] pool5/7x7_s1 <- inception_5b/output
I0403 18:16:31.024670  6765 net.cpp:399] pool5/7x7_s1 -> pool5/7x7_s1
I0403 18:16:31.024893  6765 net.cpp:141] Setting up pool5/7x7_s1
I0403 18:16:31.024930  6765 net.cpp:148] Top shape: 24 1024 1 1 (24576)
I0403 18:16:31.024946  6765 net.cpp:156] Memory required for data: 1345962528
I0403 18:16:31.024961  6765 layer_factory.hpp:77] Creating layer pool5/drop_7x7_s1
I0403 18:16:31.024993  6765 net.cpp:91] Creating Layer pool5/drop_7x7_s1
I0403 18:16:31.025009  6765 net.cpp:425] pool5/drop_7x7_s1 <- pool5/7x7_s1
I0403 18:16:31.025030  6765 net.cpp:386] pool5/drop_7x7_s1 -> pool5/7x7_s1 (in-place)
I0403 18:16:31.025081  6765 net.cpp:141] Setting up pool5/drop_7x7_s1
I0403 18:16:31.025109  6765 net.cpp:148] Top shape: 24 1024 1 1 (24576)
I0403 18:16:31.025125  6765 net.cpp:156] Memory required for data: 1346060832
I0403 18:16:31.025141  6765 layer_factory.hpp:77] Creating layer loss3/classifier_plantvillage
I0403 18:16:31.025159  6765 net.cpp:91] Creating Layer loss3/classifier_plantvillage
I0403 18:16:31.025177  6765 net.cpp:425] loss3/classifier_plantvillage <- pool5/7x7_s1
I0403 18:16:31.025198  6765 net.cpp:399] loss3/classifier_plantvillage -> loss3/classifier_plantvillage
I0403 18:16:31.025640  6765 net.cpp:141] Setting up loss3/classifier_plantvillage
I0403 18:16:31.025665  6765 net.cpp:148] Top shape: 24 38 (912)
I0403 18:16:31.025679  6765 net.cpp:156] Memory required for data: 1346064480
I0403 18:16:31.025696  6765 layer_factory.hpp:77] Creating layer loss3/classifier_plantvillage_loss3/classifier_plantvillage_0_split
I0403 18:16:31.025718  6765 net.cpp:91] Creating Layer loss3/classifier_plantvillage_loss3/classifier_plantvillage_0_split
I0403 18:16:31.025734  6765 net.cpp:425] loss3/classifier_plantvillage_loss3/classifier_plantvillage_0_split <- loss3/classifier_plantvillage
I0403 18:16:31.025751  6765 net.cpp:399] loss3/classifier_plantvillage_loss3/classifier_plantvillage_0_split -> loss3/classifier_plantvillage_loss3/classifier_plantvillage_0_split_0
I0403 18:16:31.025773  6765 net.cpp:399] loss3/classifier_plantvillage_loss3/classifier_plantvillage_0_split -> loss3/classifier_plantvillage_loss3/classifier_plantvillage_0_split_1
I0403 18:16:31.025794  6765 net.cpp:399] loss3/classifier_plantvillage_loss3/classifier_plantvillage_0_split -> loss3/classifier_plantvillage_loss3/classifier_plantvillage_0_split_2
I0403 18:16:31.025815  6765 net.cpp:399] loss3/classifier_plantvillage_loss3/classifier_plantvillage_0_split -> loss3/classifier_plantvillage_loss3/classifier_plantvillage_0_split_3
I0403 18:16:31.025915  6765 net.cpp:141] Setting up loss3/classifier_plantvillage_loss3/classifier_plantvillage_0_split
I0403 18:16:31.025938  6765 net.cpp:148] Top shape: 24 38 (912)
I0403 18:16:31.025954  6765 net.cpp:148] Top shape: 24 38 (912)
I0403 18:16:31.025970  6765 net.cpp:148] Top shape: 24 38 (912)
I0403 18:16:31.025985  6765 net.cpp:148] Top shape: 24 38 (912)
I0403 18:16:31.025998  6765 net.cpp:156] Memory required for data: 1346079072
I0403 18:16:31.026012  6765 layer_factory.hpp:77] Creating layer loss1/loss
I0403 18:16:31.026034  6765 net.cpp:91] Creating Layer loss1/loss
I0403 18:16:31.026051  6765 net.cpp:425] loss1/loss <- loss1/classifier_plantvillage_loss1/classifier_plantvillage_0_split_0
I0403 18:16:31.026082  6765 net.cpp:425] loss1/loss <- label_data_1_split_0
…
