…
I0403 18:08:19.576308  6614 net.cpp:313] The NetState phase (1) differed from the phase (0) specified by a rule in layer data
I0403 18:08:19.577456  6614 net.cpp:49] Initializing net from parameters: 
state {
  phase: TEST
}
layer {
  name: "data"
  type: "Data"
  top: "data"
  top: "label"
  include {
    phase: TEST
  }
  transform_param {
    mirror: false
    crop_size: 224
    mean_file: "/home/mohanty/data/final_dataset/lmdb/grayscale-40-60/mean.binaryproto"
  }
  data_param {
    source: "/home/mohanty/data/final_dataset/lmdb/grayscale-40-60/test_db"
    batch_size: 24
    backend: LMDB
  }
}
layer {
  name: "conv1/7x7_s2"
  type: "Convolution"
  bottom: "data"
  top: "conv1/7x7_s2"
  param {
    lr_mult: 1
    decay_mult: 1
  }
  param {
    lr_mult: 2
    decay_mult: 0
  }
  convolution_param {
    num_output: 64
    pad: 3
    kernel_size: 7
    stride: 2
    weight_filler {
      type: "xavier"
      std: 0.1
    }
    bias_filler {
      type: "constant"
      value: 0.2
    }
  }
}
layer {
  name: "conv1/relu_7x7"
  type: "ReLU"
  bottom: "conv1/7x7_s2"
  top: "conv1/7x7_s2"
}
layer {
  name: "pool1/3x3_s2"
  type: "Pooling"
  bottom: "conv1/7x7_s2"
  top: "pool1/3x3_s2"
  pooling_param {
    pool: MAX
    kernel_size: 3
    stride: 2
  }
}
layer {
  name: "pool1/norm1"
  type: "LRN"
  bottom: "pool1/3x3_s2"
  top: "pool1/norm1"
  lrn_param {
    local_size: 5
    alpha: 0.0001
    beta: 0.75
  }
}
layer {
  name: "conv2/3x3_reduce"
  type: "Convolution"
  bottom: "pool1/norm1"
  top: "conv2/3x3_reduce"
  param {
    lr_mult: 1
    decay_mult: 1
  }
  param {
    lr_mult: 2
    decay_mult: 0
  }
  convolution_param {
    num_output: 64
    kernel_size: 1
    weight_filler {
      type: "xavier"
      std: 0.1
    }
    bias_filler {
      type: "constant"
      value: 0.2
    }
  }
}
layer {
  name: "conv2/relu_3x3_reduce"
  type: "ReLU"
  bottom: "conv2/3x3_reduce"
  top: "conv2/3x3_reduce"
}
layer {
  name: "conv2/3x3"
  type: "Convolution"
  bottom: "conv2/3x3_reduce"
  top: "conv2/3x3"
  param {
    lr_mult: 1
    decay_mult: 1
  }
  param {
    lr_mult: 2
    decay_mult: 0
  }
  convolution_param {
    num_output: 192
    pad: 1
    kernel_size: 3
    weight_filler {
      type: "xavier"
      std: 0.03
    }
    bias_filler {
      type: "constant"
      value: 0.2
    }
  }
}
layer {
  name: "conv2/relu_3x3"
  type: "ReLU"
  bottom: "conv2/3x3"
  top: "conv2/3x3"
}
layer {
  name: "conv2/norm2"
  type: "LRN"
  bottom: "conv2/3x3"
  top: "conv2/norm2"
  lrn_param {
    local_size: 5
    alpha: 0.0001
    beta: 0.75
  }
}
layer {
  name: "pool2/3x3_s2"
  type: "Pooling"
  bottom: "conv2/norm2"
  top: "pool2/3x3_s2"
  pooling_param {
    pool: MAX
    kernel_size: 3
    stride: 2
  }
}
layer {
  name: "inception_3a/1x1"
  type: "Convolution"
  bottom: "pool2/3x3_s2"
  top: "inception_3a/1x1"
  param {
    lr_mult: 1
    decay_mult: 1
  }
  param {
    lr_mult: 2
    decay_mult: 0
  }
  convolution_param {
    num_output: 64
    kernel_size: 1
    weight_filler {
      type: "xavier"
      std: 0.03
    }
    bias_filler {
      type: "constant"
      value: 0.2
    }
  }
}
layer {
  name: "inception_3a/relu_1x1"
  type: "ReLU"
  bottom: "inception_3a/1x1"
  top: "inception_3a/1x1"
}
layer {
  name: "inception_3a/3x3_reduce"
  type: "Convolution"
  bottom: "pool2/3x3_s2"
  top: "inception_3a/3x3_reduce"
  param {
    lr_mult: 1
    decay_mult: 1
  }
  param {
    lr_mult: 2
    decay_mult: 0
  }
  convolution_param {
    num_output: 96
    kernel_size: 1
    weight_filler {
      type: "xavier"
      std: 0.09
    }
    bias_filler {
      type: "constant"
      value: 0.2
    }
  }
}
layer {
  name: "inception_3a/relu_3x3_reduce"
  type: "ReLU"
  bottom: "inception_3a/3x3_reduce"
  top: "inception_3a/3x3_reduce"
}
layer {
  name: "inception_3a/3x3"
  type: "Convolution"
  bottom: "inception_3a/3x3_reduce"
  top: "inception_3a/3x3"
  param {
    lr_mult: 1
    decay_mult: 1
  }
  param {
    lr_mult: 2
    decay_mult: 0
  }
  convolution_param {
    num_output: 128
    pad: 1
    kernel_size: 3
    weight_filler {
      type: "xavier"
      std: 0.03
    }
    bias_filler {
      type: "constant"
      value: 0.2
    }
  }
}
layer {
  name: "inception_3a/relu_3x3"
  type: "ReLU"
  bottom: "inception_3a/3x3"
  top: "inception_3a/3x3"
}
layer {
  name: "inception_3a/5x5_reduce"
  type: "Convolution"
  bottom: "pool2/3x3_s2"
  top: "inception_3a/5x5_reduce"
  param {
    lr_mult: 1
    decay_mult: 1
  }
  param {
    lr_mult: 2
    decay_mult: 0
  }
  convolution_param {
    num_output: 16
    kernel_size: 1
    weight_filler {
      type: "xavier"
      std: 0.2
    }
    bias_filler {
      type: "constant"
      value: 0.2
    }
  }
}
layer {
  name: "inception_3a/relu_5x5_reduce"
  type: "ReLU"
  bottom: "inception_3a/5x5_reduce"
  top: "inception_3a/5x5_reduce"
}
layer {
  name: "inception_3a/5x5"
  type: "Convolution"
  bottom: "inception_3a/5x5_reduce"
  top: "inception_3a/5x5"
  param {
    lr_mult: 1
    decay_mult: 1
  }
  param {
    lr_mult: 2
    decay_mult: 0
  }
  convolution_param {
    num_output: 32
    pad: 2
    kernel_size: 5
    weight_filler {
      type: "xavier"
      std: 0.03
    }
    bias_filler {
      type: "constant"
      value: 0.2
    }
  }
}
layer {
  name: "inception_3a/relu_5x5"
  type: "ReLU"
  bottom: "inception_3a/5x5"
  top: "inception_3a/5x5"
}
layer {
  name: "inception_3a/pool"
  type: "Pooling"
  bottom: "pool2/3x3_s2"
  top: "inception_3a/pool"
  pooling_param {
    pool: MAX
    kernel_size: 3
    stride: 1
    pad: 1
  }
}
layer {
  name: "inception_3a/pool_proj"
  type: "Convolution"
  bottom: "inception_3a/pool"
  top: "inception_3a/pool_proj"
  param {
    lr_mult: 1
    decay_mult: 1
  }
  param {
    lr_mult: 2
    decay_mult: 0
  }
  convolution_param {
    num_output: 32
    kernel_size: 1
    weight_filler {
      type: "xavier"
      std: 0.1
    }
    bias_filler {
      type: "constant"
      value: 0.2
    }
  }
}
layer {
  name: "inception_3a/relu_pool_proj"
  type: "ReLU"
  bottom: "inception_3a/pool_proj"
  top: "inception_3a/pool_proj"
}
layer {
  name: "inception_3a/output"
  type: "Concat"
  bottom: "inception_3a/1x1"
  bottom: "inception_3a/3x3"
  bottom: "inception_3a/5x5"
  bottom: "inception_3a/pool_proj"
  top: "inception_3a/output"
}
layer {
  name: "inception_3b/1x1"
  type: "Convolution"
  bottom: "inception_3a/output"
  top: "inception_3b/1x1"
  param {
    lr_mult: 1
    decay_mult: 1
  }
  param {
    lr_mult: 2
    decay_mult: 0
  }
  convolution_param {
    num_output: 128
    kernel_size: 1
    weight_filler {
      type: "xavier"
      std: 0.03
    }
    bias_filler {
      type: "constant"
      value: 0.2
    }
  }
}
layer {
  name: "inception_3b/relu_1x1"
  type: "ReLU"
  bottom: "inception_3b/1x1"
  top: "inception_3b/1x1"
}
layer {
  name: "inception_3b/3x3_reduce"
  type: "Convolution"
  bottom: "inception_3a/output"
  top: "inception_3b/3x3_reduce"
  param {
    lr_mult: 1
    decay_mult: 1
  }
  param {
    lr_mult: 2
    decay_mult: 0
  }
  convolution_param {
    num_output: 128
    kernel_size: 1
    weight_filler {
      type: "xavier"
      std: 0.09
    }
    bias_filler {
      type: "constant"
      value: 0.2
    }
  }
}
layer {
  name: "inception_3b/relu_3x3_reduce"
  type: "ReLU"
  bottom: "inception_3b/3x3_reduce"
  top: "inception_3b/3x3_reduce"
}
layer {
  name: "inception_3b/3x3"
  type: "Convolution"
  bottom: "inception_3b/3x3_reduce"
  top: "inception_3b/3x3"
  param {
    lr_mult: 1
    decay_mult: 1
  }
  param {
    lr_mult: 2
    decay_mult: 0
  }
  convolution_param {
    num_output: 192
    pad: 1
    kernel_size: 3
    weight_filler {
      type: "xavier"
      std: 0.03
    }
    bias_filler {
      type: "constant"
      value: 0.2
    }
  }
}
layer {
  name: "inception_3b/relu_3x3"
  type: "ReLU"
  bottom: "inception_3b/3x3"
  top: "inception_3b/3x3"
}
layer {
  name: "inception_3b/5x5_reduce"
  type: "Convolution"
  bottom: "inception_3a/output"
  top: "inception_3b/5x5_reduce"
  param {
    lr_mult: 1
    decay_mult: 1
  }
  param {
    lr_mult: 2
    decay_mult: 0
  }
  convolution_param {
    num_output: 32
    kernel_size: 1
    weight_filler {
      type: "xavier"
      std: 0.2
    }
    bias_filler {
      type: "constant"
      value: 0.2
    }
  }
}
layer {
  name: "inception_3b/relu_5x5_reduce"
  type: "ReLU"
  bottom: "inception_3b/5x5_reduce"
  top: "inception_3b/5x5_reduce"
}
layer {
  name: "inception_3b/5x5"
  type: "Convolution"
  bottom: "inception_3b/5x5_reduce"
  top: "inception_3b/5x5"
  param {
    lr_mult: 1
    decay_mult: 1
  }
  param {
    lr_mult: 2
    decay_mult: 0
  }
  convolution_param {
    num_output: 96
    pad: 2
    kernel_size: 5
    weight_filler {
      type: "xavier"
      std: 0.03
    }
    bias_filler {
      type: "constant"
      value: 0.2
    }
  }
}
layer {
  name: "inception_3b/relu_5x5"
  type: "ReLU"
  bottom: "inception_3b/5x5"
  top: "inception_3b/5x5"
}
layer {
  name: "inception_3b/pool"
  type: "Pooling"
  bottom: "inception_3a/output"
  top: "inception_3b/pool"
  pooling_param {
    pool: MAX
    kernel_size: 3
    stride: 1
    pad: 1
  }
}
layer {
  name: "inception_3b/pool_proj"
  type: "Convolution"
  bottom: "inception_3b/pool"
  top: "inception_3b/pool_proj"
  param {
    lr_mult: 1
    decay_mult: 1
  }
  param {
    lr_mult: 2
    decay_mult: 0
  }
  convolution_param {
    num_output: 64
    kernel_size: 1
    weight_filler {
      type: "xavier"
      std: 0.1
    }
    bias_filler {
      type: "constant"
      value: 0.2
    }
  }
}
layer {
  name: "inception_3b/relu_pool_proj"
  type: "ReLU"
  bottom: "inception_3b/pool_proj"
  top: "inception_3b/pool_proj"
}
layer {
  name: "inception_3b/output"
  type: "Concat"
  bottom: "inception_3b/1x1"
  bottom: "inception_3b/3x3"
  bottom: "inception_3b/5x5"
  bottom: "inception_3b/pool_proj"
  top: "inception_3b/output"
}
layer {
  name: "pool3/3x3_s2"
  type: "Pooling"
  bottom: "inception_3b/output"
  top: "pool3/3x3_s2"
  pooling_param {
    pool: MAX
    kernel_size: 3
    stride: 2
  }
}
layer {
  name: "inception_4a/1x1"
  type: "Convolution"
  bottom: "pool3/3x3_s2"
  top: "inception_4a/1x1"
  param {
    lr_mult: 1
    decay_mult: 1
  }
  param {
    lr_mult: 2
    decay_mult: 0
  }
  convolution_param {
    num_output: 192
    kernel_size: 1
    weight_filler {
      type: "xavier"
      std: 0.03
    }
    bias_filler {
      type: "constant"
      value: 0.2
    }
  }
}
layer {
  name: "inception_4a/relu_1x1"
  type: "ReLU"
  bottom: "inception_4a/1x1"
  top: "inception_4a/1x1"
}
layer {
  name: "inception_4a/3x3_reduce"
  type: "Convolution"
  bottom: "pool3/3x3_s2"
  top: "inception_4a/3x3_reduce"
  param {
    lr_mult: 1
    decay_mult: 1
  }
  param {
    lr_mult: 2
    decay_mult: 0
  }
  convolution_param {
    num_output: 96
    kernel_size: 1
    weight_filler {
      type: "xavier"
      std: 0.09
    }
    bias_filler {
      type: "constant"
      value: 0.2
    }
  }
}
layer {
  name: "inception_4a/relu_3x3_reduce"
  type: "ReLU"
  bottom: "inception_4a/3x3_reduce"
  top: "inception_4a/3x3_reduce"
}
layer {
  name: "inception_4a/3x3"
  type: "Convolution"
  bottom: "inception_4a/3x3_reduce"
  top: "inception_4a/3x3"
  param {
    lr_mult: 1
    decay_mult: 1
  }
  param {
    lr_mult: 2
    decay_mult: 0
  }
  convolution_param {
    num_output: 208
    pad: 1
    kernel_size: 3
    weight_filler {
      type: "xavier"
      std: 0.03
    }
    bias_filler {
      type: "constant"
      value: 0.2
    }
  }
}
layer {
  name: "inception_4a/relu_3x3"
  type: "ReLU"
  bottom: "inception_4a/3x3"
  top: "inception_4a/3x3"
}
layer {
  name: "inception_4a/5x5_reduce"
  type: "Convolution"
  bottom: "pool3/3x3_s2"
  top: "inception_4a/5x5_reduce"
  param {
    lr_mult: 1
    decay_mult: 1
  }
  param {
    lr_mult: 2
    decay_mult: 0
  }
  convolution_param {
    num_output: 16
    kernel_size: 1
    weight_filler {
      type: "xavier"
      std: 0.2
    }
    bias_filler {
      type: "constant"
      value: 0.2
    }
  }
}
layer {
  name: "inception_4a/relu_5x5_reduce"
  type: "ReLU"
  bottom: "inception_4a/5x5_reduce"
  top: "inception_4a/5x5_reduce"
}
layer {
  name: "inception_4a/5x5"
  type: "Convolution"
  bottom: "inception_4a/5x5_reduce"
  top: "inception_4a/5x5"
  param {
    lr_mult: 1
    decay_mult: 1
  }
  param {
    lr_mult: 2
    decay_mult: 0
  }
  convolution_param {
    num_output: 48
    pad: 2
    kernel_size: 5
    weight_filler {
      type: "xavier"
      std: 0.03
    }
    bias_filler {
      type: "constant"
      value: 0.2
    }
  }
}
layer {
  name: "inception_4a/relu_5x5"
  type: "ReLU"
  bottom: "inception_4a/5x5"
  top: "inception_4a/5x5"
}
layer {
  name: "inception_4a/pool"
  type: "Pooling"
  bottom: "pool3/3x3_s2"
  top: "inception_4a/pool"
  pooling_param {
    pool: MAX
    kernel_size: 3
    stride: 1
    pad: 1
  }
}
layer {
  name: "inception_4a/pool_proj"
  type: "Convolution"
  bottom: "inception_4a/pool"
  top: "inception_4a/pool_proj"
  param {
    lr_mult: 1
    decay_mult: 1
  }
  param {
    lr_mult: 2
    decay_mult: 0
  }
  convolution_param {
    num_output: 64
    kernel_size: 1
    weight_filler {
      type: "xavier"
      std: 0.1
    }
    bias_filler {
      type: "constant"
      value: 0.2
    }
  }
}
layer {
  name: "inception_4a/relu_pool_proj"
  type: "ReLU"
  bottom: "inception_4a/pool_proj"
  top: "inception_4a/pool_proj"
}
layer {
  name: "inception_4a/output"
  type: "Concat"
  bottom: "inception_4a/1x1"
  bottom: "inception_4a/3x3"
  bottom: "inception_4a/5x5"
  bottom: "inception_4a/pool_proj"
  top: "inception_4a/output"
}
layer {
  name: "loss1/ave_pool"
  type: "Pooling"
  bottom: "inception_4a/output"
  top: "loss1/ave_pool"
  pooling_param {
    pool: AVE
    kernel_size: 5
    stride: 3
  }
}
layer {
  name: "loss1/conv"
  type: "Convolution"
  bottom: "loss1/ave_pool"
  top: "loss1/conv"
  param {
    lr_mult: 1
    decay_mult: 1
  }
  param {
    lr_mult: 2
    decay_mult: 0
  }
  convolution_param {
    num_output: 128
    kernel_size: 1
    weight_filler {
      type: "xavier"
      std: 0.08
    }
    bias_filler {
      type: "constant"
      value: 0.2
    }
  }
}
layer {
  name: "loss1/relu_conv"
  type: "ReLU"
  bottom: "loss1/conv"
  top: "loss1/conv"
}
layer {
  name: "loss1/fc"
  type: "InnerProduct"
  bottom: "loss1/conv"
  top: "loss1/fc"
  param {
    lr_mult: 1
    decay_mult: 1
  }
  param {
    lr_mult: 2
    decay_mult: 0
  }
  inner_product_param {
    num_output: 1024
    weight_filler {
      type: "xavier"
      std: 0.02
    }
    bias_filler {
      type: "constant"
      value: 0.2
    }
  }
}
layer {
  name: "loss1/relu_fc"
  type: "ReLU"
  bottom: "loss1/fc"
  top: "loss1/fc"
}
layer {
  name: "loss1/drop_fc"
  type: "Dropout"
  bottom: "loss1/fc"
  top: "loss1/fc"
  dropout_param {
    dropout_ratio: 0.7
  }
}
layer {
  name: "loss1/classifier_plantvillage"
  type: "InnerProduct"
  bottom: "loss1/fc"
  top: "loss1/classifier_plantvillage"
  param {
    lr_mult: 1
    decay_mult: 1
  }
  param {
    lr_mult: 2
    decay_mult: 0
  }
  inner_product_param {
    num_output: 38
    weight_filler {
      type: "xavier"
      std: 0.0009765625
    }
    bias_filler {
      type: "constant"
      value: 0
    }
  }
}
layer {
  name: "inception_4b/1x1"
  type: "Convolution"
  bottom: "inception_4a/output"
  top: "inception_4b/1x1"
  param {
    lr_mult: 1
    decay_mult: 1
  }
  param {
    lr_mult: 2
    decay_mult: 0
  }
  convolution_param {
    num_output: 160
    kernel_size: 1
    weight_filler {
      type: "xavier"
      std: 0.03
    }
    bias_filler {
      type: "constant"
      value: 0.2
    }
  }
}
layer {
  name: "inception_4b/relu_1x1"
  type: "ReLU"
  bottom: "inception_4b/1x1"
  top: "inception_4b/1x1"
}
layer {
  name: "inception_4b/3x3_reduce"
  type: "Convolution"
  bottom: "inception_4a/output"
  top: "inception_4b/3x3_reduce"
  param {
    lr_mult: 1
    decay_mult: 1
  }
  param {
    lr_mult: 2
    decay_mult: 0
  }
  convolution_param {
    num_output: 112
    kernel_size: 1
    weight_filler {
      type: "xavier"
      std: 0.09
    }
    bias_filler {
      type: "constant"
      value: 0.2
    }
  }
}
layer {
  name: "inception_4b/relu_3x3_reduce"
  type: "ReLU"
  bottom: "inception_4b/3x3_reduce"
  top: "inception_4b/3x3_reduce"
}
layer {
  name: "inception_4b/3x3"
  type: "Convolution"
  bottom: "inception_4b/3x3_reduce"
  top: "inception_4b/3x3"
  param {
    lr_mult: 1
    decay_mult: 1
  }
  param {
    lr_mult: 2
    decay_mult: 0
  }
  convolution_param {
    num_output: 224
    pad: 1
    kernel_size: 3
    weight_filler {
      type: "xavier"
      std: 0.03
    }
    bias_filler {
      type: "constant"
      value: 0.2
    }
  }
}
layer {
  name: "inception_4b/relu_3x3"
  type: "ReLU"
  bottom: "inception_4b/3x3"
  top: "inception_4b/3x3"
}
layer {
  name: "inception_4b/5x5_reduce"
  type: "Convolution"
  bottom: "inception_4a/output"
  top: "inception_4b/5x5_reduce"
  param {
    lr_mult: 1
    decay_mult: 1
  }
  param {
    lr_mult: 2
    decay_mult: 0
  }
  convolution_param {
    num_output: 24
    kernel_size: 1
    weight_filler {
      type: "xavier"
      std: 0.2
    }
    bias_filler {
      type: "constant"
      value: 0.2
    }
  }
}
layer {
  name: "inception_4b/relu_5x5_reduce"
  type: "ReLU"
  bottom: "inception_4b/5x5_reduce"
  top: "inception_4b/5x5_reduce"
}
layer {
  name: "inception_4b/5x5"
  type: "Convolution"
  bottom: "inception_4b/5x5_reduce"
  top: "inception_4b/5x5"
  param {
    lr_mult: 1
    decay_mult: 1
  }
  param {
    lr_mult: 2
    decay_mult: 0
  }
  convolution_param {
    num_output: 64
    pad: 2
    kernel_size: 5
    weight_filler {
      type: "xavier"
      std: 0.03
    }
    bias_filler {
      type: "constant"
      value: 0.2
    }
  }
}
layer {
  name: "inception_4b/relu_5x5"
  type: "ReLU"
  bottom: "inception_4b/5x5"
  top: "inception_4b/5x5"
}
layer {
  name: "inception_4b/pool"
  type: "Pooling"
  bottom: "inception_4a/output"
  top: "inception_4b/pool"
  pooling_param {
    pool: MAX
    kernel_size: 3
    stride: 1
    pad: 1
  }
}
layer {
  name: "inception_4b/pool_proj"
  type: "Convolution"
  bottom: "inception_4b/pool"
  top: "inception_4b/pool_proj"
  param {
    lr_mult: 1
    decay_mult: 1
  }
  param {
    lr_mult: 2
    decay_mult: 0
  }
  convolution_param {
    num_output: 64
    kernel_size: 1
    weight_filler {
      type: "xavier"
      std: 0.1
    }
    bias_filler {
      type: "constant"
      value: 0.2
    }
  }
}
layer {
  name: "inception_4b/relu_pool_proj"
  type: "ReLU"
  bottom: "inception_4b/pool_proj"
  top: "inception_4b/pool_proj"
}
layer {
  name: "inception_4b/output"
  type: "Concat"
  bottom: "inception_4b/1x1"
  bottom: "inception_4b/3x3"
  bottom: "inception_4b/5x5"
  bottom: "inception_4b/pool_proj"
  top: "inception_4b/output"
}
layer {
  name: "inception_4c/1x1"
  type: "Convolution"
  bottom: "inception_4b/output"
  top: "inception_4c/1x1"
  param {
    lr_mult: 1
    decay_mult: 1
  }
  param {
    lr_mult: 2
    decay_mult: 0
  }
  convolution_param {
    num_output: 128
    kernel_size: 1
    weight_filler {
      type: "xavier"
      std: 0.03
    }
    bias_filler {
      type: "constant"
      value: 0.2
    }
  }
}
layer {
  name: "inception_4c/relu_1x1"
  type: "ReLU"
  bottom: "inception_4c/1x1"
  top: "inception_4c/1x1"
}
layer {
  name: "inception_4c/3x3_reduce"
  type: "Convolution"
  bottom: "inception_4b/output"
  top: "inception_4c/3x3_reduce"
  param {
    lr_mult: 1
    decay_mult: 1
  }
  param {
    lr_mult: 2
    decay_mult: 0
  }
  convolution_param {
    num_output: 128
    kernel_size: 1
    weight_filler {
      type: "xavier"
      std: 0.09
    }
    bias_filler {
      type: "constant"
      value: 0.2
    }
  }
}
layer {
  name: "inception_4c/relu_3x3_reduce"
  type: "ReLU"
  bottom: "inception_4c/3x3_reduce"
  top: "inception_4c/3x3_reduce"
}
layer {
  name: "inception_4c/3x3"
  type: "Convolution"
  bottom: "inception_4c/3x3_reduce"
  top: "inception_4c/3x3"
  param {
    lr_mult: 1
    decay_mult: 1
  }
  param {
    lr_mult: 2
    decay_mult: 0
  }
  convolution_param {
    num_output: 256
    pad: 1
    kernel_size: 3
    weight_filler {
      type: "xavier"
      std: 0.03
    }
    bias_filler {
      type: "constant"
      value: 0.2
    }
  }
}
layer {
  name: "inception_4c/relu_3x3"
  type: "ReLU"
  bottom: "inception_4c/3x3"
  top: "inception_4c/3x3"
}
layer {
  name: "inception_4c/5x5_reduce"
  type: "Convolution"
  bottom: "inception_4b/output"
  top: "inception_4c/5x5_reduce"
  param {
    lr_mult: 1
    decay_mult: 1
  }
  param {
    lr_mult: 2
    decay_mult: 0
  }
  convolution_param {
    num_output: 24
    kernel_size: 1
    weight_filler {
      type: "xavier"
      std: 0.2
    }
    bias_filler {
      type: "constant"
      value: 0.2
    }
  }
}
layer {
  name: "inception_4c/relu_5x5_reduce"
  type: "ReLU"
  bottom: "inception_4c/5x5_reduce"
  top: "inception_4c/5x5_reduce"
}
layer {
  name: "inception_4c/5x5"
  type: "Convolution"
  bottom: "inception_4c/5x5_reduce"
  top: "inception_4c/5x5"
  param {
    lr_mult: 1
    decay_mult: 1
  }
  param {
    lr_mult: 2
    decay_mult: 0
  }
  convolution_param {
    num_output: 64
    pad: 2
    kernel_size: 5
    weight_filler {
      type: "xavier"
      std: 0.03
    }
    bias_filler {
      type: "constant"
      value: 0.2
    }
  }
}
layer {
  name: "inception_4c/relu_5x5"
  type: "ReLU"
  bottom: "inception_4c/5x5"
  top: "inception_4c/5x5"
}
layer {
  name: "inception_4c/pool"
  type: "Pooling"
  bottom: "inception_4b/output"
  top: "inception_4c/pool"
  pooling_param {
    pool: MAX
    kernel_size: 3
    stride: 1
    pad: 1
  }
}
layer {
  name: "inception_4c/pool_proj"
  type: "Convolution"
  bottom: "inception_4c/pool"
  top: "inception_4c/pool_proj"
  param {
    lr_mult: 1
    decay_mult: 1
  }
  param {
    lr_mult: 2
    decay_mult: 0
  }
  convolution_param {
    num_output: 64
    kernel_size: 1
    weight_filler {
      type: "xavier"
      std: 0.1
    }
    bias_filler {
      type: "constant"
      value: 0.2
    }
  }
}
layer {
  name: "inception_4c/relu_pool_proj"
  type: "ReLU"
  bottom: "inception_4c/pool_proj"
  top: "inception_4c/pool_proj"
}
layer {
  name: "inception_4c/output"
  type: "Concat"
  bottom: "inception_4c/1x1"
  bottom: "inception_4c/3x3"
  bottom: "inception_4c/5x5"
  bottom: "inception_4c/pool_proj"
  top: "inception_4c/output"
}
layer {
  name: "inception_4d/1x1"
  type: "Convolution"
  bottom: "inception_4c/output"
  top: "inception_4d/1x1"
  param {
    lr_mult: 1
    decay_mult: 1
  }
  param {
    lr_mult: 2
    decay_mult: 0
  }
  convolution_param {
    num_output: 112
    kernel_size: 1
    weight_filler {
      type: "xavier"
      std: 0.03
    }
    bias_filler {
      type: "constant"
      value: 0.2
    }
  }
}
layer {
  name: "inception_4d/relu_1x1"
  type: "ReLU"
  bottom: "inception_4d/1x1"
  top: "inception_4d/1x1"
}
layer {
  name: "inception_4d/3x3_reduce"
  type: "Convolution"
  bottom: "inception_4c/output"
  top: "inception_4d/3x3_reduce"
  param {
    lr_mult: 1
    decay_mult: 1
  }
  param {
    lr_mult: 2
    decay_mult: 0
  }
  convolution_param {
    num_output: 144
    kernel_size: 1
    weight_filler {
      type: "xavier"
      std: 0.09
    }
    bias_filler {
      type: "constant"
      value: 0.2
    }
  }
}
layer {
  name: "inception_4d/relu_3x3_reduce"
  type: "ReLU"
  bottom: "inception_4d/3x3_reduce"
  top: "inception_4d/3x3_reduce"
}
layer {
  name: "inception_4d/3x3"
  type: "Convolution"
  bottom: "inception_4d/3x3_reduce"
  top: "inception_4d/3x3"
  param {
    lr_mult: 1
    decay_mult: 1
  }
  param {
    lr_mult: 2
    decay_mult: 0
  }
  convolution_param {
    num_output: 288
    pad: 1
    kernel_size: 3
    weight_filler {
      type: "xavier"
      std: 0.03
    }
    bias_filler {
      type: "constant"
      value: 0.2
    }
  }
}
layer {
  name: "inception_4d/relu_3x3"
  type: "ReLU"
  bottom: "inception_4d/3x3"
  top: "inception_4d/3x3"
}
layer {
  name: "inception_4d/5x5_reduce"
  type: "Convolution"
  bottom: "inception_4c/output"
  top: "inception_4d/5x5_reduce"
  param {
    lr_mult: 1
    decay_mult: 1
  }
  param {
    lr_mult: 2
    decay_mult: 0
  }
  convolution_param {
    num_output: 32
    kernel_size: 1
    weight_filler {
      type: "xavier"
      std: 0.2
    }
    bias_filler {
      type: "constant"
      value: 0.2
    }
  }
}
layer {
  name: "inception_4d/relu_5x5_reduce"
  type: "ReLU"
  bottom: "inception_4d/5x5_reduce"
  top: "inception_4d/5x5_reduce"
}
layer {
  name: "inception_4d/5x5"
  type: "Convolution"
  bottom: "inception_4d/5x5_reduce"
  top: "inception_4d/5x5"
  param {
    lr_mult: 1
    decay_mult: 1
  }
  param {
    lr_mult: 2
    decay_mult: 0
  }
  convolution_param {
    num_output: 64
    pad: 2
    kernel_size: 5
    weight_filler {
      type: "xavier"
      std: 0.03
    }
    bias_filler {
      type: "constant"
      value: 0.2
    }
  }
}
layer {
  name: "inception_4d/relu_5x5"
  type: "ReLU"
  bottom: "inception_4d/5x5"
  top: "inception_4d/5x5"
}
layer {
  name: "inception_4d/pool"
  type: "Pooling"
  bottom: "inception_4c/output"
  top: "inception_4d/pool"
  pooling_param {
    pool: MAX
    kernel_size: 3
    stride: 1
    pad: 1
  }
}
layer {
  name: "inception_4d/pool_proj"
  type: "Convolution"
  bottom: "inception_4d/pool"
  top: "inception_4d/pool_proj"
  param {
    lr_mult: 1
    decay_mult: 1
  }
  param {
    lr_mult: 2
    decay_mult: 0
  }
  convolution_param {
    num_output: 64
    kernel_size: 1
    weight_filler {
      type: "xavier"
      std: 0.1
    }
    bias_filler {
      type: "constant"
      value: 0.2
    }
  }
}
layer {
  name: "inception_4d/relu_pool_proj"
  type: "ReLU"
  bottom: "inception_4d/pool_proj"
  top: "inception_4d/pool_proj"
}
layer {
  name: "inception_4d/output"
  type: "Concat"
  bottom: "inception_4d/1x1"
  bottom: "inception_4d/3x3"
  bottom: "inception_4d/5x5"
  bottom: "inception_4d/pool_proj"
  top: "inception_4d/output"
}
layer {
  name: "loss2/ave_pool"
  type: "Pooling"
  bottom: "inception_4d/output"
  top: "loss2/ave_pool"
  pooling_param {
    pool: AVE
    kernel_size: 5
    stride: 3
  }
}
layer {
  name: "loss2/conv"
  type: "Convolution"
  bottom: "loss2/ave_pool"
  top: "loss2/conv"
  param {
    lr_mult: 1
    decay_mult: 1
  }
  param {
    lr_mult: 2
    decay_mult: 0
  }
  convolution_param {
    num_output: 128
    kernel_size: 1
    weight_filler {
      type: "xavier"
      std: 0.08
    }
    bias_filler {
      type: "constant"
      value: 0.2
    }
  }
}
layer {
  name: "loss2/relu_conv"
  type: "ReLU"
  bottom: "loss2/conv"
  top: "loss2/conv"
}
layer {
  name: "loss2/fc"
  type: "InnerProduct"
  bottom: "loss2/conv"
  top: "loss2/fc"
  param {
    lr_mult: 1
    decay_mult: 1
  }
  param {
    lr_mult: 2
    decay_mult: 0
  }
  inner_product_param {
    num_output: 1024
    weight_filler {
      type: "xavier"
      std: 0.02
    }
    bias_filler {
      type: "constant"
      value: 0.2
    }
  }
}
layer {
  name: "loss2/relu_fc"
  type: "ReLU"
  bottom: "loss2/fc"
  top: "loss2/fc"
}
layer {
  name: "loss2/drop_fc"
  type: "Dropout"
  bottom: "loss2/fc"
  top: "loss2/fc"
  dropout_param {
    dropout_ratio: 0.7
  }
}
layer {
  name: "loss2/classifier_plantvillage"
  type: "InnerProduct"
  bottom: "loss2/fc"
  top: "loss2/classifier_plantvillage"
  param {
    lr_mult: 1
    decay_mult: 1
  }
  param {
    lr_mult: 2
    decay_mult: 0
  }
  inner_product_param {
    num_output: 38
    weight_filler {
      type: "xavier"
      std: 0.0009765625
    }
    bias_filler {
      type: "constant"
      value: 0
    }
  }
}
layer {
  name: "inception_4e/1x1"
  type: "Convolution"
  bottom: "inception_4d/output"
  top: "inception_4e/1x1"
  param {
    lr_mult: 1
    decay_mult: 1
  }
  param {
    lr_mult: 2
    decay_mult: 0
  }
  convolution_param {
    num_output: 256
    kernel_size: 1
    weight_filler {
      type: "xavier"
      std: 0.03
    }
    bias_filler {
      type: "constant"
      value: 0.2
    }
  }
}
layer {
  name: "inception_4e/relu_1x1"
  type: "ReLU"
  bottom: "inception_4e/1x1"
  top: "inception_4e/1x1"
}
layer {
  name: "inception_4e/3x3_reduce"
  type: "Convolution"
  bottom: "inception_4d/output"
  top: "inception_4e/3x3_reduce"
  param {
    lr_mult: 1
    decay_mult: 1
  }
  param {
    lr_mult: 2
    decay_mult: 0
  }
  convolution_param {
    num_output: 160
    kernel_size: 1
    weight_filler {
      type: "xavier"
      std: 0.09
    }
    bias_filler {
      type: "constant"
      value: 0.2
    }
  }
}
layer {
  name: "inception_4e/relu_3x3_reduce"
  type: "ReLU"
  bottom: "inception_4e/3x3_reduce"
  top: "inception_4e/3x3_reduce"
}
layer {
  name: "inception_4e/3x3"
  type: "Convolution"
  bottom: "inception_4e/3x3_reduce"
  top: "inception_4e/3x3"
  param {
    lr_mult: 1
    decay_mult: 1
  }
  param {
    lr_mult: 2
    decay_mult: 0
  }
  convolution_param {
    num_output: 320
    pad: 1
    kernel_size: 3
    weight_filler {
      type: "xavier"
      std: 0.03
    }
    bias_filler {
      type: "constant"
      value: 0.2
    }
  }
}
layer {
  name: "inception_4e/relu_3x3"
  type: "ReLU"
  bottom: "inception_4e/3x3"
  top: "inception_4e/3x3"
}
layer {
  name: "inception_4e/5x5_reduce"
  type: "Convolution"
  bottom: "inception_4d/output"
  top: "inception_4e/5x5_reduce"
  param {
    lr_mult: 1
    decay_mult: 1
  }
  param {
    lr_mult: 2
    decay_mult: 0
  }
  convolution_param {
    num_output: 32
    kernel_size: 1
    weight_filler {
      type: "xavier"
      std: 0.2
    }
    bias_filler {
      type: "constant"
      value: 0.2
    }
  }
}
layer {
  name: "inception_4e/relu_5x5_reduce"
  type: "ReLU"
  bottom: "inception_4e/5x5_reduce"
  top: "inception_4e/5x5_reduce"
}
layer {
  name: "inception_4e/5x5"
  type: "Convolution"
  bottom: "inception_4e/5x5_reduce"
  top: "inception_4e/
I0403 18:08:19.579255  6614 layer_factory.hpp:77] Creating layer data
I0403 18:08:19.579871  6614 net.cpp:91] Creating Layer data
I0403 18:08:19.579901  6614 net.cpp:399] data -> data
I0403 18:08:19.579952  6614 net.cpp:399] data -> label
I0403 18:08:19.579991  6614 data_transformer.cpp:25] Loading mean file from: /home/mohanty/data/final_dataset/lmdb/grayscale-40-60/mean.binaryproto
I0403 18:08:19.581125  6617 db_lmdb.cpp:38] Opened lmdb /home/mohanty/data/final_dataset/lmdb/grayscale-40-60/test_db
I0403 18:08:19.593554  6614 data_layer.cpp:41] output data size: 24,3,224,224
I0403 18:08:19.621341  6614 net.cpp:141] Setting up data
I0403 18:08:19.621440  6614 net.cpp:148] Top shape: 24 3 224 224 (3612672)
I0403 18:08:19.621465  6614 net.cpp:148] Top shape: 24 (24)
I0403 18:08:19.621480  6614 net.cpp:156] Memory required for data: 14450784
I0403 18:08:19.621520  6614 layer_factory.hpp:77] Creating layer label_data_1_split
I0403 18:08:19.621546  6614 net.cpp:91] Creating Layer label_data_1_split
I0403 18:08:19.621565  6614 net.cpp:425] label_data_1_split <- label
I0403 18:08:19.621597  6614 net.cpp:399] label_data_1_split -> label_data_1_split_0
I0403 18:08:19.621624  6614 net.cpp:399] label_data_1_split -> label_data_1_split_1
I0403 18:08:19.621645  6614 net.cpp:399] label_data_1_split -> label_data_1_split_2
I0403 18:08:19.621667  6614 net.cpp:399] label_data_1_split -> label_data_1_split_3
I0403 18:08:19.621687  6614 net.cpp:399] label_data_1_split -> label_data_1_split_4
I0403 18:08:19.621707  6614 net.cpp:399] label_data_1_split -> label_data_1_split_5
I0403 18:08:19.621726  6614 net.cpp:399] label_data_1_split -> label_data_1_split_6
I0403 18:08:19.621747  6614 net.cpp:399] label_data_1_split -> label_data_1_split_7
I0403 18:08:19.621767  6614 net.cpp:399] label_data_1_split -> label_data_1_split_8
I0403 18:08:19.621786  6614 net.cpp:399] label_data_1_split -> label_data_1_split_9
I0403 18:08:19.621902  6614 net.cpp:141] Setting up label_data_1_split
I0403 18:08:19.621925  6614 net.cpp:148] Top shape: 24 (24)
I0403 18:08:19.621942  6614 net.cpp:148] Top shape: 24 (24)
I0403 18:08:19.621959  6614 net.cpp:148] Top shape: 24 (24)
I0403 18:08:19.621976  6614 net.cpp:148] Top shape: 24 (24)
I0403 18:08:19.621992  6614 net.cpp:148] Top shape: 24 (24)
I0403 18:08:19.622007  6614 net.cpp:148] Top shape: 24 (24)
I0403 18:08:19.622023  6614 net.cpp:148] Top shape: 24 (24)
I0403 18:08:19.622040  6614 net.cpp:148] Top shape: 24 (24)
I0403 18:08:19.622056  6614 net.cpp:148] Top shape: 24 (24)
I0403 18:08:19.622076  6614 net.cpp:148] Top shape: 24 (24)
I0403 18:08:19.622122  6614 net.cpp:156] Memory required for data: 14451744
I0403 18:08:19.622138  6614 layer_factory.hpp:77] Creating layer conv1/7x7_s2
I0403 18:08:19.622169  6614 net.cpp:91] Creating Layer conv1/7x7_s2
I0403 18:08:19.622189  6614 net.cpp:425] conv1/7x7_s2 <- data
I0403 18:08:19.622210  6614 net.cpp:399] conv1/7x7_s2 -> conv1/7x7_s2
I0403 18:08:19.763494  6614 net.cpp:141] Setting up conv1/7x7_s2
I0403 18:08:19.763608  6614 net.cpp:148] Top shape: 24 64 112 112 (19267584)
I0403 18:08:19.763628  6614 net.cpp:156] Memory required for data: 91522080
I0403 18:08:19.763661  6614 layer_factory.hpp:77] Creating layer conv1/relu_7x7
I0403 18:08:19.763689  6614 net.cpp:91] Creating Layer conv1/relu_7x7
I0403 18:08:19.763710  6614 net.cpp:425] conv1/relu_7x7 <- conv1/7x7_s2
I0403 18:08:19.763736  6614 net.cpp:386] conv1/relu_7x7 -> conv1/7x7_s2 (in-place)
I0403 18:08:19.764014  6614 net.cpp:141] Setting up conv1/relu_7x7
I0403 18:08:19.764044  6614 net.cpp:148] Top shape: 24 64 112 112 (19267584)
I0403 18:08:19.764060  6614 net.cpp:156] Memory required for data: 168592416
I0403 18:08:19.764077  6614 layer_factory.hpp:77] Creating layer pool1/3x3_s2
I0403 18:08:19.764104  6614 net.cpp:91] Creating Layer pool1/3x3_s2
I0403 18:08:19.764123  6614 net.cpp:425] pool1/3x3_s2 <- conv1/7x7_s2
I0403 18:08:19.764144  6614 net.cpp:399] pool1/3x3_s2 -> pool1/3x3_s2
I0403 18:08:19.764221  6614 net.cpp:141] Setting up pool1/3x3_s2
I0403 18:08:19.764256  6614 net.cpp:148] Top shape: 24 64 56 56 (4816896)
I0403 18:08:19.764282  6614 net.cpp:156] Memory required for data: 187860000
I0403 18:08:19.764307  6614 layer_factory.hpp:77] Creating layer pool1/norm1
I0403 18:08:19.764341  6614 net.cpp:91] Creating Layer pool1/norm1
I0403 18:08:19.764361  6614 net.cpp:425] pool1/norm1 <- pool1/3x3_s2
I0403 18:08:19.764384  6614 net.cpp:399] pool1/norm1 -> pool1/norm1
I0403 18:08:19.764683  6614 net.cpp:141] Setting up pool1/norm1
I0403 18:08:19.764713  6614 net.cpp:148] Top shape: 24 64 56 56 (4816896)
I0403 18:08:19.764729  6614 net.cpp:156] Memory required for data: 207127584
I0403 18:08:19.764747  6614 layer_factory.hpp:77] Creating layer conv2/3x3_reduce
I0403 18:08:19.764775  6614 net.cpp:91] Creating Layer conv2/3x3_reduce
I0403 18:08:19.764792  6614 net.cpp:425] conv2/3x3_reduce <- pool1/norm1
I0403 18:08:19.764813  6614 net.cpp:399] conv2/3x3_reduce -> conv2/3x3_reduce
I0403 18:08:19.766227  6614 net.cpp:141] Setting up conv2/3x3_reduce
I0403 18:08:19.766263  6614 net.cpp:148] Top shape: 24 64 56 56 (4816896)
I0403 18:08:19.766279  6614 net.cpp:156] Memory required for data: 226395168
I0403 18:08:19.766302  6614 layer_factory.hpp:77] Creating layer conv2/relu_3x3_reduce
I0403 18:08:19.766322  6614 net.cpp:91] Creating Layer conv2/relu_3x3_reduce
I0403 18:08:19.766340  6614 net.cpp:425] conv2/relu_3x3_reduce <- conv2/3x3_reduce
I0403 18:08:19.766360  6614 net.cpp:386] conv2/relu_3x3_reduce -> conv2/3x3_reduce (in-place)
I0403 18:08:19.766628  6614 net.cpp:141] Setting up conv2/relu_3x3_reduce
I0403 18:08:19.766656  6614 net.cpp:148] Top shape: 24 64 56 56 (4816896)
I0403 18:08:19.766674  6614 net.cpp:156] Memory required for data: 245662752
I0403 18:08:19.766690  6614 layer_factory.hpp:77] Creating layer conv2/3x3
I0403 18:08:19.766713  6614 net.cpp:91] Creating Layer conv2/3x3
I0403 18:08:19.766732  6614 net.cpp:425] conv2/3x3 <- conv2/3x3_reduce
I0403 18:08:19.766753  6614 net.cpp:399] conv2/3x3 -> conv2/3x3
I0403 18:08:19.769175  6614 net.cpp:141] Setting up conv2/3x3
I0403 18:08:19.769207  6614 net.cpp:148] Top shape: 24 192 56 56 (14450688)
I0403 18:08:19.769225  6614 net.cpp:156] Memory required for data: 303465504
I0403 18:08:19.769253  6614 layer_factory.hpp:77] Creating layer conv2/relu_3x3
I0403 18:08:19.769276  6614 net.cpp:91] Creating Layer conv2/relu_3x3
I0403 18:08:19.769294  6614 net.cpp:425] conv2/relu_3x3 <- conv2/3x3
I0403 18:08:19.769312  6614 net.cpp:386] conv2/relu_3x3 -> conv2/3x3 (in-place)
I0403 18:08:19.769498  6614 net.cpp:141] Setting up conv2/relu_3x3
I0403 18:08:19.769525  6614 net.cpp:148] Top shape: 24 192 56 56 (14450688)
I0403 18:08:19.769574  6614 net.cpp:156] Memory required for data: 361268256
I0403 18:08:19.769592  6614 layer_factory.hpp:77] Creating layer conv2/norm2
I0403 18:08:19.769611  6614 net.cpp:91] Creating Layer conv2/norm2
I0403 18:08:19.769628  6614 net.cpp:425] conv2/norm2 <- conv2/3x3
I0403 18:08:19.769647  6614 net.cpp:399] conv2/norm2 -> conv2/norm2
I0403 18:08:19.769968  6614 net.cpp:141] Setting up conv2/norm2
I0403 18:08:19.769996  6614 net.cpp:148] Top shape: 24 192 56 56 (14450688)
I0403 18:08:19.770014  6614 net.cpp:156] Memory required for data: 419071008
I0403 18:08:19.770030  6614 layer_factory.hpp:77] Creating layer pool2/3x3_s2
I0403 18:08:19.770051  6614 net.cpp:91] Creating Layer pool2/3x3_s2
I0403 18:08:19.770068  6614 net.cpp:425] pool2/3x3_s2 <- conv2/norm2
I0403 18:08:19.770087  6614 net.cpp:399] pool2/3x3_s2 -> pool2/3x3_s2
I0403 18:08:19.770145  6614 net.cpp:141] Setting up pool2/3x3_s2
I0403 18:08:19.770169  6614 net.cpp:148] Top shape: 24 192 28 28 (3612672)
I0403 18:08:19.770186  6614 net.cpp:156] Memory required for data: 433521696
I0403 18:08:19.770202  6614 layer_factory.hpp:77] Creating layer pool2/3x3_s2_pool2/3x3_s2_0_split
I0403 18:08:19.770220  6614 net.cpp:91] Creating Layer pool2/3x3_s2_pool2/3x3_s2_0_split
I0403 18:08:19.770237  6614 net.cpp:425] pool2/3x3_s2_pool2/3x3_s2_0_split <- pool2/3x3_s2
I0403 18:08:19.770263  6614 net.cpp:399] pool2/3x3_s2_pool2/3x3_s2_0_split -> pool2/3x3_s2_pool2/3x3_s2_0_split_0
I0403 18:08:19.770287  6614 net.cpp:399] pool2/3x3_s2_pool2/3x3_s2_0_split -> pool2/3x3_s2_pool2/3x3_s2_0_split_1
I0403 18:08:19.770308  6614 net.cpp:399] pool2/3x3_s2_pool2/3x3_s2_0_split -> pool2/3x3_s2_pool2/3x3_s2_0_split_2
I0403 18:08:19.770328  6614 net.cpp:399] pool2/3x3_s2_pool2/3x3_s2_0_split -> pool2/3x3_s2_pool2/3x3_s2_0_split_3
I0403 18:08:19.770402  6614 net.cpp:141] Setting up pool2/3x3_s2_pool2/3x3_s2_0_split
I0403 18:08:19.770431  6614 net.cpp:148] Top shape: 24 192 28 28 (3612672)
I0403 18:08:19.770449  6614 net.cpp:148] Top shape: 24 192 28 28 (3612672)
I0403 18:08:19.770465  6614 net.cpp:148] Top shape: 24 192 28 28 (3612672)
I0403 18:08:19.770481  6614 net.cpp:148] Top shape: 24 192 28 28 (3612672)
I0403 18:08:19.770496  6614 net.cpp:156] Memory required for data: 491324448
I0403 18:08:19.770511  6614 layer_factory.hpp:77] Creating layer inception_3a/1x1
I0403 18:08:19.770534  6614 net.cpp:91] Creating Layer inception_3a/1x1
I0403 18:08:19.770552  6614 net.cpp:425] inception_3a/1x1 <- pool2/3x3_s2_pool2/3x3_s2_0_split_0
I0403 18:08:19.770571  6614 net.cpp:399] inception_3a/1x1 -> inception_3a/1x1
I0403 18:08:19.772222  6614 net.cpp:141] Setting up inception_3a/1x1
I0403 18:08:19.772277  6614 net.cpp:148] Top shape: 24 64 28 28 (1204224)
I0403 18:08:19.772297  6614 net.cpp:156] Memory required for data: 496141344
I0403 18:08:19.772317  6614 layer_factory.hpp:77] Creating layer inception_3a/relu_1x1
I0403 18:08:19.772341  6614 net.cpp:91] Creating Layer inception_3a/relu_1x1
I0403 18:08:19.772358  6614 net.cpp:425] inception_3a/relu_1x1 <- inception_3a/1x1
I0403 18:08:19.772377  6614 net.cpp:386] inception_3a/relu_1x1 -> inception_3a/1x1 (in-place)
I0403 18:08:19.772579  6614 net.cpp:141] Setting up inception_3a/relu_1x1
I0403 18:08:19.772608  6614 net.cpp:148] Top shape: 24 64 28 28 (1204224)
I0403 18:08:19.772624  6614 net.cpp:156] Memory required for data: 500958240
I0403 18:08:19.772640  6614 layer_factory.hpp:77] Creating layer inception_3a/3x3_reduce
I0403 18:08:19.772665  6614 net.cpp:91] Creating Layer inception_3a/3x3_reduce
I0403 18:08:19.772683  6614 net.cpp:425] inception_3a/3x3_reduce <- pool2/3x3_s2_pool2/3x3_s2_0_split_1
I0403 18:08:19.772703  6614 net.cpp:399] inception_3a/3x3_reduce -> inception_3a/3x3_reduce
I0403 18:08:19.774430  6614 net.cpp:141] Setting up inception_3a/3x3_reduce
I0403 18:08:19.774459  6614 net.cpp:148] Top shape: 24 96 28 28 (1806336)
I0403 18:08:19.774476  6614 net.cpp:156] Memory required for data: 508183584
I0403 18:08:19.774498  6614 layer_factory.hpp:77] Creating layer inception_3a/relu_3x3_reduce
I0403 18:08:19.774538  6614 net.cpp:91] Creating Layer inception_3a/relu_3x3_reduce
I0403 18:08:19.774556  6614 net.cpp:425] inception_3a/relu_3x3_reduce <- inception_3a/3x3_reduce
I0403 18:08:19.774577  6614 net.cpp:386] inception_3a/relu_3x3_reduce -> inception_3a/3x3_reduce (in-place)
I0403 18:08:19.774762  6614 net.cpp:141] Setting up inception_3a/relu_3x3_reduce
I0403 18:08:19.774790  6614 net.cpp:148] Top shape: 24 96 28 28 (1806336)
I0403 18:08:19.774806  6614 net.cpp:156] Memory required for data: 515408928
I0403 18:08:19.774822  6614 layer_factory.hpp:77] Creating layer inception_3a/3x3
I0403 18:08:19.774845  6614 net.cpp:91] Creating Layer inception_3a/3x3
I0403 18:08:19.774864  6614 net.cpp:425] inception_3a/3x3 <- inception_3a/3x3_reduce
I0403 18:08:19.774888  6614 net.cpp:399] inception_3a/3x3 -> inception_3a/3x3
I0403 18:08:19.776612  6614 net.cpp:141] Setting up inception_3a/3x3
I0403 18:08:19.776643  6614 net.cpp:148] Top shape: 24 128 28 28 (2408448)
I0403 18:08:19.776660  6614 net.cpp:156] Memory required for data: 525042720
I0403 18:08:19.776679  6614 layer_factory.hpp:77] Creating layer inception_3a/relu_3x3
I0403 18:08:19.776700  6614 net.cpp:91] Creating Layer inception_3a/relu_3x3
I0403 18:08:19.776715  6614 net.cpp:425] inception_3a/relu_3x3 <- inception_3a/3x3
I0403 18:08:19.776734  6614 net.cpp:386] inception_3a/relu_3x3 -> inception_3a/3x3 (in-place)
I0403 18:08:19.777011  6614 net.cpp:141] Setting up inception_3a/relu_3x3
I0403 18:08:19.777041  6614 net.cpp:148] Top shape: 24 128 28 28 (2408448)
I0403 18:08:19.777057  6614 net.cpp:156] Memory required for data: 534676512
I0403 18:08:19.777073  6614 layer_factory.hpp:77] Creating layer inception_3a/5x5_reduce
I0403 18:08:19.777096  6614 net.cpp:91] Creating Layer inception_3a/5x5_reduce
I0403 18:08:19.777114  6614 net.cpp:425] inception_3a/5x5_reduce <- pool2/3x3_s2_pool2/3x3_s2_0_split_2
I0403 18:08:19.777135  6614 net.cpp:399] inception_3a/5x5_reduce -> inception_3a/5x5_reduce
I0403 18:08:19.778149  6614 net.cpp:141] Setting up inception_3a/5x5_reduce
I0403 18:08:19.778180  6614 net.cpp:148] Top shape: 24 16 28 28 (301056)
I0403 18:08:19.778198  6614 net.cpp:156] Memory required for data: 535880736
I0403 18:08:19.778215  6614 layer_factory.hpp:77] Creating layer inception_3a/relu_5x5_reduce
I0403 18:08:19.778234  6614 net.cpp:91] Creating Layer inception_3a/relu_5x5_reduce
I0403 18:08:19.778257  6614 net.cpp:425] inception_3a/relu_5x5_reduce <- inception_3a/5x5_reduce
I0403 18:08:19.778278  6614 net.cpp:386] inception_3a/relu_5x5_reduce -> inception_3a/5x5_reduce (in-place)
I0403 18:08:19.778569  6614 net.cpp:141] Setting up inception_3a/relu_5x5_reduce
I0403 18:08:19.778596  6614 net.cpp:148] Top shape: 24 16 28 28 (301056)
I0403 18:08:19.778612  6614 net.cpp:156] Memory required for data: 537084960
I0403 18:08:19.778628  6614 layer_factory.hpp:77] Creating layer inception_3a/5x5
I0403 18:08:19.778652  6614 net.cpp:91] Creating Layer inception_3a/5x5
I0403 18:08:19.778671  6614 net.cpp:425] inception_3a/5x5 <- inception_3a/5x5_reduce
I0403 18:08:19.778692  6614 net.cpp:399] inception_3a/5x5 -> inception_3a/5x5
I0403 18:08:19.779762  6614 net.cpp:141] Setting up inception_3a/5x5
I0403 18:08:19.779789  6614 net.cpp:148] Top shape: 24 32 28 28 (602112)
I0403 18:08:19.779809  6614 net.cpp:156] Memory required for data: 539493408
I0403 18:08:19.779829  6614 layer_factory.hpp:77] Creating layer inception_3a/relu_5x5
I0403 18:08:19.779849  6614 net.cpp:91] Creating Layer inception_3a/relu_5x5
I0403 18:08:19.779865  6614 net.cpp:425] inception_3a/relu_5x5 <- inception_3a/5x5
I0403 18:08:19.779883  6614 net.cpp:386] inception_3a/relu_5x5 -> inception_3a/5x5 (in-place)
I0403 18:08:19.780061  6614 net.cpp:141] Setting up inception_3a/relu_5x5
I0403 18:08:19.780089  6614 net.cpp:148] Top shape: 24 32 28 28 (602112)
I0403 18:08:19.780105  6614 net.cpp:156] Memory required for data: 541901856
I0403 18:08:19.780122  6614 layer_factory.hpp:77] Creating layer inception_3a/pool
I0403 18:08:19.780139  6614 net.cpp:91] Creating Layer inception_3a/pool
I0403 18:08:19.780170  6614 net.cpp:425] inception_3a/pool <- pool2/3x3_s2_pool2/3x3_s2_0_split_3
I0403 18:08:19.780194  6614 net.cpp:399] inception_3a/pool -> inception_3a/pool
I0403 18:08:19.780256  6614 net.cpp:141] Setting up inception_3a/pool
I0403 18:08:19.780283  6614 net.cpp:148] Top shape: 24 192 28 28 (3612672)
I0403 18:08:19.780299  6614 net.cpp:156] Memory required for data: 556352544
I0403 18:08:19.780315  6614 layer_factory.hpp:77] Creating layer inception_3a/pool_proj
I0403 18:08:19.780336  6614 net.cpp:91] Creating Layer inception_3a/pool_proj
I0403 18:08:19.780354  6614 net.cpp:425] inception_3a/pool_proj <- inception_3a/pool
I0403 18:08:19.780376  6614 net.cpp:399] inception_3a/pool_proj -> inception_3a/pool_proj
I0403 18:08:19.781371  6614 net.cpp:141] Setting up inception_3a/pool_proj
I0403 18:08:19.781399  6614 net.cpp:148] Top shape: 24 32 28 28 (602112)
I0403 18:08:19.781415  6614 net.cpp:156] Memory required for data: 558760992
I0403 18:08:19.781441  6614 layer_factory.hpp:77] Creating layer inception_3a/relu_pool_proj
I0403 18:08:19.781462  6614 net.cpp:91] Creating Layer inception_3a/relu_pool_proj
I0403 18:08:19.781478  6614 net.cpp:425] inception_3a/relu_pool_proj <- inception_3a/pool_proj
I0403 18:08:19.781500  6614 net.cpp:386] inception_3a/relu_pool_proj -> inception_3a/pool_proj (in-place)
I0403 18:08:19.781783  6614 net.cpp:141] Setting up inception_3a/relu_pool_proj
I0403 18:08:19.781813  6614 net.cpp:148] Top shape: 24 32 28 28 (602112)
I0403 18:08:19.781831  6614 net.cpp:156] Memory required for data: 561169440
I0403 18:08:19.781847  6614 layer_factory.hpp:77] Creating layer inception_3a/output
I0403 18:08:19.781864  6614 net.cpp:91] Creating Layer inception_3a/output
I0403 18:08:19.781880  6614 net.cpp:425] inception_3a/output <- inception_3a/1x1
I0403 18:08:19.781898  6614 net.cpp:425] inception_3a/output <- inception_3a/3x3
I0403 18:08:19.781914  6614 net.cpp:425] inception_3a/output <- inception_3a/5x5
I0403 18:08:19.781930  6614 net.cpp:425] inception_3a/output <- inception_3a/pool_proj
I0403 18:08:19.781949  6614 net.cpp:399] inception_3a/output -> inception_3a/output
I0403 18:08:19.781998  6614 net.cpp:141] Setting up inception_3a/output
I0403 18:08:19.782022  6614 net.cpp:148] Top shape: 24 256 28 28 (4816896)
I0403 18:08:19.782037  6614 net.cpp:156] Memory required for data: 580437024
I0403 18:08:19.782052  6614 layer_factory.hpp:77] Creating layer inception_3a/output_inception_3a/output_0_split
I0403 18:08:19.782073  6614 net.cpp:91] Creating Layer inception_3a/output_inception_3a/output_0_split
I0403 18:08:19.782089  6614 net.cpp:425] inception_3a/output_inception_3a/output_0_split <- inception_3a/output
I0403 18:08:19.782107  6614 net.cpp:399] inception_3a/output_inception_3a/output_0_split -> inception_3a/output_inception_3a/output_0_split_0
I0403 18:08:19.782129  6614 net.cpp:399] inception_3a/output_inception_3a/output_0_split -> inception_3a/output_inception_3a/output_0_split_1
I0403 18:08:19.782156  6614 net.cpp:399] inception_3a/output_inception_3a/output_0_split -> inception_3a/output_inception_3a/output_0_split_2
I0403 18:08:19.782181  6614 net.cpp:399] inception_3a/output_inception_3a/output_0_split -> inception_3a/output_inception_3a/output_0_split_3
I0403 18:08:19.782272  6614 net.cpp:141] Setting up inception_3a/output_inception_3a/output_0_split
I0403 18:08:19.782297  6614 net.cpp:148] Top shape: 24 256 28 28 (4816896)
I0403 18:08:19.782315  6614 net.cpp:148] Top shape: 24 256 28 28 (4816896)
I0403 18:08:19.782330  6614 net.cpp:148] Top shape: 24 256 28 28 (4816896)
I0403 18:08:19.782347  6614 net.cpp:148] Top shape: 24 256 28 28 (4816896)
I0403 18:08:19.782361  6614 net.cpp:156] Memory required for data: 657507360
I0403 18:08:19.782377  6614 layer_factory.hpp:77] Creating layer inception_3b/1x1
I0403 18:08:19.782400  6614 net.cpp:91] Creating Layer inception_3b/1x1
I0403 18:08:19.782421  6614 net.cpp:425] inception_3b/1x1 <- inception_3a/output_inception_3a/output_0_split_0
I0403 18:08:19.782441  6614 net.cpp:399] inception_3b/1x1 -> inception_3b/1x1
I0403 18:08:19.783644  6614 net.cpp:141] Setting up inception_3b/1x1
I0403 18:08:19.783685  6614 net.cpp:148] Top shape: 24 128 28 28 (2408448)
I0403 18:08:19.783701  6614 net.cpp:156] Memory required for data: 667141152
I0403 18:08:19.783721  6614 layer_factory.hpp:77] Creating layer inception_3b/relu_1x1
I0403 18:08:19.783742  6614 net.cpp:91] Creating Layer inception_3b/relu_1x1
I0403 18:08:19.783759  6614 net.cpp:425] inception_3b/relu_1x1 <- inception_3b/1x1
I0403 18:08:19.783777  6614 net.cpp:386] inception_3b/relu_1x1 -> inception_3b/1x1 (in-place)
I0403 18:08:19.783958  6614 net.cpp:141] Setting up inception_3b/relu_1x1
I0403 18:08:19.783985  6614 net.cpp:148] Top shape: 24 128 28 28 (2408448)
I0403 18:08:19.784001  6614 net.cpp:156] Memory required for data: 676774944
I0403 18:08:19.784018  6614 layer_factory.hpp:77] Creating layer inception_3b/3x3_reduce
I0403 18:08:19.784040  6614 net.cpp:91] Creating Layer inception_3b/3x3_reduce
I0403 18:08:19.784060  6614 net.cpp:425] inception_3b/3x3_reduce <- inception_3a/output_inception_3a/output_0_split_1
I0403 18:08:19.784078  6614 net.cpp:399] inception_3b/3x3_reduce -> inception_3b/3x3_reduce
I0403 18:08:19.785250  6614 net.cpp:141] Setting up inception_3b/3x3_reduce
I0403 18:08:19.785279  6614 net.cpp:148] Top shape: 24 128 28 28 (2408448)
I0403 18:08:19.785295  6614 net.cpp:156] Memory required for data: 686408736
I0403 18:08:19.785313  6614 layer_factory.hpp:77] Creating layer inception_3b/relu_3x3_reduce
I0403 18:08:19.785334  6614 net.cpp:91] Creating Layer inception_3b/relu_3x3_reduce
I0403 18:08:19.785352  6614 net.cpp:425] inception_3b/relu_3x3_reduce <- inception_3b/3x3_reduce
I0403 18:08:19.785372  6614 net.cpp:386] inception_3b/relu_3x3_reduce -> inception_3b/3x3_reduce (in-place)
I0403 18:08:19.785557  6614 net.cpp:141] Setting up inception_3b/relu_3x3_reduce
I0403 18:08:19.785585  6614 net.cpp:148] Top shape: 24 128 28 28 (2408448)
I0403 18:08:19.785601  6614 net.cpp:156] Memory required for data: 696042528
I0403 18:08:19.785616  6614 layer_factory.hpp:77] Creating layer inception_3b/3x3
I0403 18:08:19.785640  6614 net.cpp:91] Creating Layer inception_3b/3x3
I0403 18:08:19.785660  6614 net.cpp:425] inception_3b/3x3 <- inception_3b/3x3_reduce
I0403 18:08:19.785682  6614 net.cpp:399] inception_3b/3x3 -> inception_3b/3x3
I0403 18:08:19.788583  6614 net.cpp:141] Setting up inception_3b/3x3
I0403 18:08:19.788614  6614 net.cpp:148] Top shape: 24 192 28 28 (3612672)
I0403 18:08:19.788630  6614 net.cpp:156] Memory required for data: 710493216
I0403 18:08:19.788650  6614 layer_factory.hpp:77] Creating layer inception_3b/relu_3x3
I0403 18:08:19.788668  6614 net.cpp:91] Creating Layer inception_3b/relu_3x3
I0403 18:08:19.788686  6614 net.cpp:425] inception_3b/relu_3x3 <- inception_3b/3x3
I0403 18:08:19.788702  6614 net.cpp:386] inception_3b/relu_3x3 -> inception_3b/3x3 (in-place)
I0403 18:08:19.788976  6614 net.cpp:141] Setting up inception_3b/relu_3x3
I0403 18:08:19.789005  6614 net.cpp:148] Top shape: 24 192 28 28 (3612672)
I0403 18:08:19.789021  6614 net.cpp:156] Memory required for data: 724943904
I0403 18:08:19.789036  6614 layer_factory.hpp:77] Creating layer inception_3b/5x5_reduce
I0403 18:08:19.789058  6614 net.cpp:91] Creating Layer inception_3b/5x5_reduce
I0403 18:08:19.789077  6614 net.cpp:425] inception_3b/5x5_reduce <- inception_3a/output_inception_3a/output_0_split_2
I0403 18:08:19.789096  6614 net.cpp:399] inception_3b/5x5_reduce -> inception_3b/5x5_reduce
I0403 18:08:19.790081  6614 net.cpp:141] Setting up inception_3b/5x5_reduce
I0403 18:08:19.790112  6614 net.cpp:148] Top shape: 24 32 28 28 (602112)
I0403 18:08:19.790127  6614 net.cpp:156] Memory required for data: 727352352
I0403 18:08:19.790146  6614 layer_factory.hpp:77] Creating layer inception_3b/relu_5x5_reduce
I0403 18:08:19.790164  6614 net.cpp:91] Creating Layer inception_3b/relu_5x5_reduce
I0403 18:08:19.790182  6614 net.cpp:425] inception_3b/relu_5x5_reduce <- inception_3b/5x5_reduce
I0403 18:08:19.790199  6614 net.cpp:386] inception_3b/relu_5x5_reduce -> inception_3b/5x5_reduce (in-place)
I0403 18:08:19.790397  6614 net.cpp:141] Setting up inception_3b/relu_5x5_reduce
I0403 18:08:19.790424  6614 net.cpp:148] Top shape: 24 32 28 28 (602112)
I0403 18:08:19.790441  6614 net.cpp:156] Memory required for data: 729760800
I0403 18:08:19.790455  6614 layer_factory.hpp:77] Creating layer inception_3b/5x5
I0403 18:08:19.790478  6614 net.cpp:91] Creating Layer inception_3b/5x5
I0403 18:08:19.790495  6614 net.cpp:425] inception_3b/5x5 <- inception_3b/5x5_reduce
I0403 18:08:19.790515  6614 net.cpp:399] inception_3b/5x5 -> inception_3b/5x5
I0403 18:08:19.792506  6614 net.cpp:141] Setting up inception_3b/5x5
I0403 18:08:19.792536  6614 net.cpp:148] Top shape: 24 96 28 28 (1806336)
I0403 18:08:19.792552  6614 net.cpp:156] Memory required for data: 736986144
I0403 18:08:19.792570  6614 layer_factory.hpp:77] Creating layer inception_3b/relu_5x5
I0403 18:08:19.792593  6614 net.cpp:91] Creating Layer inception_3b/relu_5x5
I0403 18:08:19.792610  6614 net.cpp:425] inception_3b/relu_5x5 <- inception_3b/5x5
I0403 18:08:19.792629  6614 net.cpp:386] inception_3b/relu_5x5 -> inception_3b/5x5 (in-place)
I0403 18:08:19.792836  6614 net.cpp:141] Setting up inception_3b/relu_5x5
I0403 18:08:19.792862  6614 net.cpp:148] Top shape: 24 96 28 28 (1806336)
I0403 18:08:19.792877  6614 net.cpp:156] Memory required for data: 744211488
I0403 18:08:19.792892  6614 layer_factory.hpp:77] Creating layer inception_3b/pool
I0403 18:08:19.792912  6614 net.cpp:91] Creating Layer inception_3b/pool
I0403 18:08:19.792928  6614 net.cpp:425] inception_3b/pool <- inception_3a/output_inception_3a/output_0_split_3
I0403 18:08:19.792946  6614 net.cpp:399] inception_3b/pool -> inception_3b/pool
I0403 18:08:19.793001  6614 net.cpp:141] Setting up inception_3b/pool
I0403 18:08:19.793025  6614 net.cpp:148] Top shape: 24 256 28 28 (4816896)
I0403 18:08:19.793040  6614 net.cpp:156] Memory required for data: 763479072
I0403 18:08:19.793054  6614 layer_factory.hpp:77] Creating layer inception_3b/pool_proj
I0403 18:08:19.793076  6614 net.cpp:91] Creating Layer inception_3b/pool_proj
I0403 18:08:19.793095  6614 net.cpp:425] inception_3b/pool_proj <- inception_3b/pool
I0403 18:08:19.793115  6614 net.cpp:399] inception_3b/pool_proj -> inception_3b/pool_proj
I0403 18:08:19.794160  6614 net.cpp:141] Setting up inception_3b/pool_proj
I0403 18:08:19.794189  6614 net.cpp:148] Top shape: 24 64 28 28 (1204224)
I0403 18:08:19.794205  6614 net.cpp:156] Memory required for data: 768295968
I0403 18:08:19.794224  6614 layer_factory.hpp:77] Creating layer inception_3b/relu_pool_proj
I0403 18:08:19.794245  6614 net.cpp:91] Creating Layer inception_3b/relu_pool_proj
I0403 18:08:19.794263  6614 net.cpp:425] inception_3b/relu_pool_proj <- inception_3b/pool_proj
I0403 18:08:19.794283  6614 net.cpp:386] inception_3b/relu_pool_proj -> inception_3b/pool_proj (in-place)
I0403 18:08:19.794658  6614 net.cpp:141] Setting up inception_3b/relu_pool_proj
I0403 18:08:19.794685  6614 net.cpp:148] Top shape: 24 64 28 28 (1204224)
I0403 18:08:19.794700  6614 net.cpp:156] Memory required for data: 773112864
I0403 18:08:19.794716  6614 layer_factory.hpp:77] Creating layer inception_3b/output
I0403 18:08:19.794734  6614 net.cpp:91] Creating Layer inception_3b/output
I0403 18:08:19.794749  6614 net.cpp:425] inception_3b/output <- inception_3b/1x1
I0403 18:08:19.794766  6614 net.cpp:425] inception_3b/output <- inception_3b/3x3
I0403 18:08:19.794783  6614 net.cpp:425] inception_3b/output <- inception_3b/5x5
I0403 18:08:19.794800  6614 net.cpp:425] inception_3b/output <- inception_3b/pool_proj
I0403 18:08:19.794816  6614 net.cpp:399] inception_3b/output -> inception_3b/output
I0403 18:08:19.794862  6614 net.cpp:141] Setting up inception_3b/output
I0403 18:08:19.794885  6614 net.cpp:148] Top shape: 24 480 28 28 (9031680)
I0403 18:08:19.794900  6614 net.cpp:156] Memory required for data: 809239584
I0403 18:08:19.794915  6614 layer_factory.hpp:77] Creating layer pool3/3x3_s2
I0403 18:08:19.794935  6614 net.cpp:91] Creating Layer pool3/3x3_s2
I0403 18:08:19.794952  6614 net.cpp:425] pool3/3x3_s2 <- inception_3b/output
I0403 18:08:19.794984  6614 net.cpp:399] pool3/3x3_s2 -> pool3/3x3_s2
I0403 18:08:19.795045  6614 net.cpp:141] Setting up pool3/3x3_s2
I0403 18:08:19.795068  6614 net.cpp:148] Top shape: 24 480 14 14 (2257920)
I0403 18:08:19.795083  6614 net.cpp:156] Memory required for data: 818271264
I0403 18:08:19.795099  6614 layer_factory.hpp:77] Creating layer pool3/3x3_s2_pool3/3x3_s2_0_split
I0403 18:08:19.795115  6614 net.cpp:91] Creating Layer pool3/3x3_s2_pool3/3x3_s2_0_split
I0403 18:08:19.795131  6614 net.cpp:425] pool3/3x3_s2_pool3/3x3_s2_0_split <- pool3/3x3_s2
I0403 18:08:19.795150  6614 net.cpp:399] pool3/3x3_s2_pool3/3x3_s2_0_split -> pool3/3x3_s2_pool3/3x3_s2_0_split_0
I0403 18:08:19.795171  6614 net.cpp:399] pool3/3x3_s2_pool3/3x3_s2_0_split -> pool3/3x3_s2_pool3/3x3_s2_0_split_1
I0403 18:08:19.795192  6614 net.cpp:399] pool3/3x3_s2_pool3/3x3_s2_0_split -> pool3/3x3_s2_pool3/3x3_s2_0_split_2
I0403 18:08:19.795212  6614 net.cpp:399] pool3/3x3_s2_pool3/3x3_s2_0_split -> pool3/3x3_s2_pool3/3x3_s2_0_split_3
I0403 18:08:19.795306  6614 net.cpp:141] Setting up pool3/3x3_s2_pool3/3x3_s2_0_split
I0403 18:08:19.795332  6614 net.cpp:148] Top shape: 24 480 14 14 (2257920)
I0403 18:08:19.795351  6614 net.cpp:148] Top shape: 24 480 14 14 (2257920)
I0403 18:08:19.795367  6614 net.cpp:148] Top shape: 24 480 14 14 (2257920)
I0403 18:08:19.795383  6614 net.cpp:148] Top shape: 24 480 14 14 (2257920)
I0403 18:08:19.795397  6614 net.cpp:156] Memory required for data: 854397984
I0403 18:08:19.795413  6614 layer_factory.hpp:77] Creating layer inception_4a/1x1
I0403 18:08:19.795435  6614 net.cpp:91] Creating Layer inception_4a/1x1
I0403 18:08:19.795454  6614 net.cpp:425] inception_4a/1x1 <- pool3/3x3_s2_pool3/3x3_s2_0_split_0
I0403 18:08:19.795477  6614 net.cpp:399] inception_4a/1x1 -> inception_4a/1x1
I0403 18:08:19.797049  6614 net.cpp:141] Setting up inception_4a/1x1
I0403 18:08:19.797075  6614 net.cpp:148] Top shape: 24 192 14 14 (903168)
I0403 18:08:19.797091  6614 net.cpp:156] Memory required for data: 858010656
I0403 18:08:19.797109  6614 layer_factory.hpp:77] Creating layer inception_4a/relu_1x1
I0403 18:08:19.797130  6614 net.cpp:91] Creating Layer inception_4a/relu_1x1
I0403 18:08:19.797147  6614 net.cpp:425] inception_4a/relu_1x1 <- inception_4a/1x1
I0403 18:08:19.797164  6614 net.cpp:386] inception_4a/relu_1x1 -> inception_4a/1x1 (in-place)
I0403 18:08:19.797349  6614 net.cpp:141] Setting up inception_4a/relu_1x1
I0403 18:08:19.797375  6614 net.cpp:148] Top shape: 24 192 14 14 (903168)
I0403 18:08:19.797390  6614 net.cpp:156] Memory required for data: 861623328
I0403 18:08:19.797405  6614 layer_factory.hpp:77] Creating layer inception_4a/3x3_reduce
I0403 18:08:19.797428  6614 net.cpp:91] Creating Layer inception_4a/3x3_reduce
I0403 18:08:19.797446  6614 net.cpp:425] inception_4a/3x3_reduce <- pool3/3x3_s2_pool3/3x3_s2_0_split_1
I0403 18:08:19.797468  6614 net.cpp:399] inception_4a/3x3_reduce -> inception_4a/3x3_reduce
I0403 18:08:19.798735  6614 net.cpp:141] Setting up inception_4a/3x3_reduce
I0403 18:08:19.798763  6614 net.cpp:148] Top shape: 24 96 14 14 (451584)
I0403 18:08:19.798779  6614 net.cpp:156] Memory required for data: 863429664
I0403 18:08:19.798804  6614 layer_factory.hpp:77] Creating layer inception_4a/relu_3x3_reduce
I0403 18:08:19.798825  6614 net.cpp:91] Creating Layer inception_4a/relu_3x3_reduce
I0403 18:08:19.798840  6614 net.cpp:425] inception_4a/relu_3x3_reduce <- inception_4a/3x3_reduce
I0403 18:08:19.798861  6614 net.cpp:386] inception_4a/relu_3x3_reduce -> inception_4a/3x3_reduce (in-place)
I0403 18:08:19.799037  6614 net.cpp:141] Setting up inception_4a/relu_3x3_reduce
I0403 18:08:19.799062  6614 net.cpp:148] Top shape: 24 96 14 14 (451584)
I0403 18:08:19.799077  6614 net.cpp:156] Memory required for data: 865236000
I0403 18:08:19.799091  6614 layer_factory.hpp:77] Creating layer inception_4a/3x3
I0403 18:08:19.799114  6614 net.cpp:91] Creating Layer inception_4a/3x3
I0403 18:08:19.799132  6614 net.cpp:425] inception_4a/3x3 <- inception_4a/3x3_reduce
I0403 18:08:19.799154  6614 net.cpp:399] inception_4a/3x3 -> inception_4a/3x3
I0403 18:08:19.801848  6614 net.cpp:141] Setting up inception_4a/3x3
I0403 18:08:19.801877  6614 net.cpp:148] Top shape: 24 208 14 14 (978432)
I0403 18:08:19.801903  6614 net.cpp:156] Memory required for data: 869149728
I0403 18:08:19.801921  6614 layer_factory.hpp:77] Creating layer inception_4a/relu_3x3
I0403 18:08:19.801942  6614 net.cpp:91] Creating Layer inception_4a/relu_3x3
I0403 18:08:19.801960  6614 net.cpp:425] inception_4a/relu_3x3 <- inception_4a/3x3
I0403 18:08:19.801980  6614 net.cpp:386] inception_4a/relu_3x3 -> inception_4a/3x3 (in-place)
I0403 18:08:19.802268  6614 net.cpp:141] Setting up inception_4a/relu_3x3
I0403 18:08:19.802294  6614 net.cpp:148] Top shape: 24 208 14 14 (978432)
I0403 18:08:19.802309  6614 net.cpp:156] Memory required for data: 873063456
I0403 18:08:19.802325  6614 layer_factory.hpp:77] Creating layer inception_4a/5x5_reduce
I0403 18:08:19.802348  6614 net.cpp:91] Creating Layer inception_4a/5x5_reduce
I0403 18:08:19.802367  6614 net.cpp:425] inception_4a/5x5_reduce <- pool3/3x3_s2_pool3/3x3_s2_0_split_2
I0403 18:08:19.802389  6614 net.cpp:399] inception_4a/5x5_reduce -> inception_4a/5x5_reduce
I0403 18:08:19.803424  6614 net.cpp:141] Setting up inception_4a/5x5_reduce
I0403 18:08:19.803452  6614 net.cpp:148] Top shape: 24 16 14 14 (75264)
I0403 18:08:19.803469  6614 net.cpp:156] Memory required for data: 873364512
I0403 18:08:19.803489  6614 layer_factory.hpp:77] Creating layer inception_4a/relu_5x5_reduce
I0403 18:08:19.803511  6614 net.cpp:91] Creating Layer inception_4a/relu_5x5_reduce
I0403 18:08:19.803527  6614 net.cpp:425] inception_4a/relu_5x5_reduce <- inception_4a/5x5_reduce
I0403 18:08:19.803558  6614 net.cpp:386] inception_4a/relu_5x5_reduce -> inception_4a/5x5_reduce (in-place)
I0403 18:08:19.803736  6614 net.cpp:141] Setting up inception_4a/relu_5x5_reduce
I0403 18:08:19.803764  6614 net.cpp:148] Top shape: 24 16 14 14 (75264)
I0403 18:08:19.803779  6614 net.cpp:156] Memory required for data: 873665568
I0403 18:08:19.803796  6614 layer_factory.hpp:77] Creating layer inception_4a/5x5
I0403 18:08:19.803817  6614 net.cpp:91] Creating Layer inception_4a/5x5
I0403 18:08:19.803835  6614 net.cpp:425] inception_4a/5x5 <- inception_4a/5x5_reduce
I0403 18:08:19.803854  6614 net.cpp:399] inception_4a/5x5 -> inception_4a/5x5
I0403 18:08:19.804934  6614 net.cpp:141] Setting up inception_4a/5x5
I0403 18:08:19.804961  6614 net.cpp:148] Top shape: 24 48 14 14 (225792)
I0403 18:08:19.804976  6614 net.cpp:156] Memory required for data: 874568736
I0403 18:08:19.804996  6614 layer_factory.hpp:77] Creating layer inception_4a/relu_5x5
I0403 18:08:19.805016  6614 net.cpp:91] Creating Layer inception_4a/relu_5x5
I0403 18:08:19.805030  6614 net.cpp:425] inception_4a/relu_5x5 <- inception_4a/5x5
I0403 18:08:19.805050  6614 net.cpp:386] inception_4a/relu_5x5 -> inception_4a/5x5 (in-place)
I0403 18:08:19.805227  6614 net.cpp:141] Setting up inception_4a/relu_5x5
I0403 18:08:19.805256  6614 net.cpp:148] Top shape: 24 48 14 14 (225792)
I0403 18:08:19.805274  6614 net.cpp:156] Memory required for data: 875471904
I0403 18:08:19.805289  6614 layer_factory.hpp:77] Creating layer inception_4a/pool
I0403 18:08:19.805310  6614 net.cpp:91] Creating Layer inception_4a/pool
I0403 18:08:19.805327  6614 net.cpp:425] inception_4a/pool <- pool3/3x3_s2_pool3/3x3_s2_0_split_3
I0403 18:08:19.805346  6614 net.cpp:399] inception_4a/pool -> inception_4a/pool
I0403 18:08:19.805408  6614 net.cpp:141] Setting up inception_4a/pool
I0403 18:08:19.805431  6614 net.cpp:148] Top shape: 24 480 14 14 (2257920)
I0403 18:08:19.805446  6614 net.cpp:156] Memory required for data: 884503584
I0403 18:08:19.805461  6614 layer_factory.hpp:77] Creating layer inception_4a/pool_proj
I0403 18:08:19.805483  6614 net.cpp:91] Creating Layer inception_4a/pool_proj
I0403 18:08:19.805501  6614 net.cpp:425] inception_4a/pool_proj <- inception_4a/pool
I0403 18:08:19.805523  6614 net.cpp:399] inception_4a/pool_proj -> inception_4a/pool_proj
I0403 18:08:19.806711  6614 net.cpp:141] Setting up inception_4a/pool_proj
I0403 18:08:19.806742  6614 net.cpp:148] Top shape: 24 64 14 14 (301056)
I0403 18:08:19.806772  6614 net.cpp:156] Memory required for data: 885707808
I0403 18:08:19.806792  6614 layer_factory.hpp:77] Creating layer inception_4a/relu_pool_proj
I0403 18:08:19.806810  6614 net.cpp:91] Creating Layer inception_4a/relu_pool_proj
I0403 18:08:19.806826  6614 net.cpp:425] inception_4a/relu_pool_proj <- inception_4a/pool_proj
I0403 18:08:19.806848  6614 net.cpp:386] inception_4a/relu_pool_proj -> inception_4a/pool_proj (in-place)
I0403 18:08:19.807131  6614 net.cpp:141] Setting up inception_4a/relu_pool_proj
I0403 18:08:19.807157  6614 net.cpp:148] Top shape: 24 64 14 14 (301056)
I0403 18:08:19.807173  6614 net.cpp:156] Memory required for data: 886912032
I0403 18:08:19.807188  6614 layer_factory.hpp:77] Creating layer inception_4a/output
I0403 18:08:19.807206  6614 net.cpp:91] Creating Layer inception_4a/output
I0403 18:08:19.807221  6614 net.cpp:425] inception_4a/output <- inception_4a/1x1
I0403 18:08:19.807243  6614 net.cpp:425] inception_4a/output <- inception_4a/3x3
I0403 18:08:19.807276  6614 net.cpp:425] inception_4a/output <- inception_4a/5x5
I0403 18:08:19.807292  6614 net.cpp:425] inception_4a/output <- inception_4a/pool_proj
I0403 18:08:19.807313  6614 net.cpp:399] inception_4a/output -> inception_4a/output
I0403 18:08:19.807359  6614 net.cpp:141] Setting up inception_4a/output
I0403 18:08:19.807385  6614 net.cpp:148] Top shape: 24 512 14 14 (2408448)
I0403 18:08:19.807402  6614 net.cpp:156] Memory required for data: 896545824
I0403 18:08:19.807418  6614 layer_factory.hpp:77] Creating layer inception_4a/output_inception_4a/output_0_split
I0403 18:08:19.807437  6614 net.cpp:91] Creating Layer inception_4a/output_inception_4a/output_0_split
I0403 18:08:19.807453  6614 net.cpp:425] inception_4a/output_inception_4a/output_0_split <- inception_4a/output
I0403 18:08:19.807472  6614 net.cpp:399] inception_4a/output_inception_4a/output_0_split -> inception_4a/output_inception_4a/output_0_split_0
I0403 18:08:19.807497  6614 net.cpp:399] inception_4a/output_inception_4a/output_0_split -> inception_4a/output_inception_4a/output_0_split_1
I0403 18:08:19.807520  6614 net.cpp:399] inception_4a/output_inception_4a/output_0_split -> inception_4a/output_inception_4a/output_0_split_2
I0403 18:08:19.807554  6614 net.cpp:399] inception_4a/output_inception_4a/output_0_split -> inception_4a/output_inception_4a/output_0_split_3
I0403 18:08:19.807574  6614 net.cpp:399] inception_4a/output_inception_4a/output_0_split -> inception_4a/output_inception_4a/output_0_split_4
I0403 18:08:19.807670  6614 net.cpp:141] Setting up inception_4a/output_inception_4a/output_0_split
I0403 18:08:19.807693  6614 net.cpp:148] Top shape: 24 512 14 14 (2408448)
I0403 18:08:19.807713  6614 net.cpp:148] Top shape: 24 512 14 14 (2408448)
I0403 18:08:19.807730  6614 net.cpp:148] Top shape: 24 512 14 14 (2408448)
I0403 18:08:19.807746  6614 net.cpp:148] Top shape: 24 512 14 14 (2408448)
I0403 18:08:19.807762  6614 net.cpp:148] Top shape: 24 512 14 14 (2408448)
I0403 18:08:19.807777  6614 net.cpp:156] Memory required for data: 944714784
I0403 18:08:19.807792  6614 layer_factory.hpp:77] Creating layer loss1/ave_pool
I0403 18:08:19.807811  6614 net.cpp:91] Creating Layer loss1/ave_pool
I0403 18:08:19.807826  6614 net.cpp:425] loss1/ave_pool <- inception_4a/output_inception_4a/output_0_split_0
I0403 18:08:19.807844  6614 net.cpp:399] loss1/ave_pool -> loss1/ave_pool
I0403 18:08:19.808053  6614 net.cpp:141] Setting up loss1/ave_pool
I0403 18:08:19.808078  6614 net.cpp:148] Top shape: 24 512 4 4 (196608)
I0403 18:08:19.808092  6614 net.cpp:156] Memory required for data: 945501216
I0403 18:08:19.808107  6614 layer_factory.hpp:77] Creating layer loss1/conv
I0403 18:08:19.808130  6614 net.cpp:91] Creating Layer loss1/conv
I0403 18:08:19.808147  6614 net.cpp:425] loss1/conv <- loss1/ave_pool
I0403 18:08:19.808169  6614 net.cpp:399] loss1/conv -> loss1/conv
I0403 18:08:19.809609  6614 net.cpp:141] Setting up loss1/conv
I0403 18:08:19.809638  6614 net.cpp:148] Top shape: 24 128 4 4 (49152)
I0403 18:08:19.809667  6614 net.cpp:156] Memory required for data: 945697824
I0403 18:08:19.809687  6614 layer_factory.hpp:77] Creating layer loss1/relu_conv
I0403 18:08:19.809708  6614 net.cpp:91] Creating Layer loss1/relu_conv
I0403 18:08:19.809726  6614 net.cpp:425] loss1/relu_conv <- loss1/conv
I0403 18:08:19.809743  6614 net.cpp:386] loss1/relu_conv -> loss1/conv (in-place)
I0403 18:08:19.810024  6614 net.cpp:141] Setting up loss1/relu_conv
I0403 18:08:19.810050  6614 net.cpp:148] Top shape: 24 128 4 4 (49152)
I0403 18:08:19.810066  6614 net.cpp:156] Memory required for data: 945894432
I0403 18:08:19.810081  6614 layer_factory.hpp:77] Creating layer loss1/fc
I0403 18:08:19.810107  6614 net.cpp:91] Creating Layer loss1/fc
I0403 18:08:19.810125  6614 net.cpp:425] loss1/fc <- loss1/conv
I0403 18:08:19.810144  6614 net.cpp:399] loss1/fc -> loss1/fc
I0403 18:08:19.828255  6614 net.cpp:141] Setting up loss1/fc
I0403 18:08:19.828305  6614 net.cpp:148] Top shape: 24 1024 (24576)
I0403 18:08:19.828320  6614 net.cpp:156] Memory required for data: 945992736
I0403 18:08:19.828341  6614 layer_factory.hpp:77] Creating layer loss1/relu_fc
I0403 18:08:19.828358  6614 net.cpp:91] Creating Layer loss1/relu_fc
I0403 18:08:19.828374  6614 net.cpp:425] loss1/relu_fc <- loss1/fc
I0403 18:08:19.828395  6614 net.cpp:386] loss1/relu_fc -> loss1/fc (in-place)
I0403 18:08:19.828600  6614 net.cpp:141] Setting up loss1/relu_fc
I0403 18:08:19.828625  6614 net.cpp:148] Top shape: 24 1024 (24576)
I0403 18:08:19.828640  6614 net.cpp:156] Memory required for data: 946091040
I0403 18:08:19.828655  6614 layer_factory.hpp:77] Creating layer loss1/drop_fc
I0403 18:08:19.828683  6614 net.cpp:91] Creating Layer loss1/drop_fc
I0403 18:08:19.828701  6614 net.cpp:425] loss1/drop_fc <- loss1/fc
I0403 18:08:19.828719  6614 net.cpp:386] loss1/drop_fc -> loss1/fc (in-place)
I0403 18:08:19.828769  6614 net.cpp:141] Setting up loss1/drop_fc
I0403 18:08:19.828796  6614 net.cpp:148] Top shape: 24 1024 (24576)
I0403 18:08:19.828814  6614 net.cpp:156] Memory required for data: 946189344
I0403 18:08:19.828829  6614 layer_factory.hpp:77] Creating layer loss1/classifier_plantvillage
I0403 18:08:19.828847  6614 net.cpp:91] Creating Layer loss1/classifier_plantvillage
I0403 18:08:19.828863  6614 net.cpp:425] loss1/classifier_plantvillage <- loss1/fc
I0403 18:08:19.828883  6614 net.cpp:399] loss1/classifier_plantvillage -> loss1/classifier_plantvillage
I0403 18:08:19.829789  6614 net.cpp:141] Setting up loss1/classifier_plantvillage
I0403 18:08:19.829816  6614 net.cpp:148] Top shape: 24 38 (912)
I0403 18:08:19.829831  6614 net.cpp:156] Memory required for data: 946192992
I0403 18:08:19.829850  6614 layer_factory.hpp:77] Creating layer loss1/classifier_plantvillage_loss1/classifier_plantvillage_0_split
I0403 18:08:19.829871  6614 net.cpp:91] Creating Layer loss1/classifier_plantvillage_loss1/classifier_plantvillage_0_split
I0403 18:08:19.829888  6614 net.cpp:425] loss1/classifier_plantvillage_loss1/classifier_plantvillage_0_split <- loss1/classifier_plantvillage
I0403 18:08:19.829907  6614 net.cpp:399] loss1/classifier_plantvillage_loss1/classifier_plantvillage_0_split -> loss1/classifier_plantvillage_loss1/classifier_plantvillage_0_split_0
I0403 18:08:19.829927  6614 net.cpp:399] loss1/classifier_plantvillage_loss1/classifier_plantvillage_0_split -> loss1/classifier_plantvillage_loss1/classifier_plantvillage_0_split_1
I0403 18:08:19.829948  6614 net.cpp:399] loss1/classifier_plantvillage_loss1/classifier_plantvillage_0_split -> loss1/classifier_plantvillage_loss1/classifier_plantvillage_0_split_2
I0403 18:08:19.830014  6614 net.cpp:141] Setting up loss1/classifier_plantvillage_loss1/classifier_plantvillage_0_split
I0403 18:08:19.830040  6614 net.cpp:148] Top shape: 24 38 (912)
I0403 18:08:19.830056  6614 net.cpp:148] Top shape: 24 38 (912)
I0403 18:08:19.830072  6614 net.cpp:148] Top shape: 24 38 (912)
I0403 18:08:19.830087  6614 net.cpp:156] Memory required for data: 946203936
I0403 18:08:19.830101  6614 layer_factory.hpp:77] Creating layer inception_4b/1x1
I0403 18:08:19.830122  6614 net.cpp:91] Creating Layer inception_4b/1x1
I0403 18:08:19.830159  6614 net.cpp:425] inception_4b/1x1 <- inception_4a/output_inception_4a/output_0_split_1
I0403 18:08:19.830183  6614 net.cpp:399] inception_4b/1x1 -> inception_4b/1x1
I0403 18:08:19.831903  6614 net.cpp:141] Setting up inception_4b/1x1
I0403 18:08:19.831933  6614 net.cpp:148] Top shape: 24 160 14 14 (752640)
I0403 18:08:19.831950  6614 net.cpp:156] Memory required for data: 949214496
I0403 18:08:19.831970  6614 layer_factory.hpp:77] Creating layer inception_4b/relu_1x1
I0403 18:08:19.831992  6614 net.cpp:91] Creating Layer inception_4b/relu_1x1
I0403 18:08:19.832010  6614 net.cpp:425] inception_4b/relu_1x1 <- inception_4b/1x1
I0403 18:08:19.832028  6614 net.cpp:386] inception_4b/relu_1x1 -> inception_4b/1x1 (in-place)
I0403 18:08:19.832234  6614 net.cpp:141] Setting up inception_4b/relu_1x1
I0403 18:08:19.832273  6614 net.cpp:148] Top shape: 24 160 14 14 (752640)
I0403 18:08:19.832289  6614 net.cpp:156] Memory required for data: 952225056
I0403 18:08:19.832305  6614 layer_factory.hpp:77] Creating layer inception_4b/3x3_reduce
I0403 18:08:19.832329  6614 net.cpp:91] Creating Layer inception_4b/3x3_reduce
I0403 18:08:19.832347  6614 net.cpp:425] inception_4b/3x3_reduce <- inception_4a/output_inception_4a/output_0_split_2
I0403 18:08:19.832367  6614 net.cpp:399] inception_4b/3x3_reduce -> inception_4b/3x3_reduce
I0403 18:08:19.833858  6614 net.cpp:141] Setting up inception_4b/3x3_reduce
I0403 18:08:19.833890  6614 net.cpp:148] Top shape: 24 112 14 14 (526848)
I0403 18:08:19.833906  6614 net.cpp:156] Memory required for data: 954332448
I0403 18:08:19.833926  6614 layer_factory.hpp:77] Creating layer inception_4b/relu_3x3_reduce
I0403 18:08:19.833945  6614 net.cpp:91] Creating Layer inception_4b/relu_3x3_reduce
I0403 18:08:19.833961  6614 net.cpp:425] inception_4b/relu_3x3_reduce <- inception_4b/3x3_reduce
I0403 18:08:19.833979  6614 net.cpp:386] inception_4b/relu_3x3_reduce -> inception_4b/3x3_reduce (in-place)
I0403 18:08:19.834270  6614 net.cpp:141] Setting up inception_4b/relu_3x3_reduce
I0403 18:08:19.834300  6614 net.cpp:148] Top shape: 24 112 14 14 (526848)
I0403 18:08:19.834316  6614 net.cpp:156] Memory required for data: 956439840
I0403 18:08:19.834332  6614 layer_factory.hpp:77] Creating layer inception_4b/3x3
I0403 18:08:19.834355  6614 net.cpp:91] Creating Layer inception_4b/3x3
I0403 18:08:19.834374  6614 net.cpp:425] inception_4b/3x3 <- inception_4b/3x3_reduce
I0403 18:08:19.834394  6614 net.cpp:399] inception_4b/3x3 -> inception_4b/3x3
I0403 18:08:19.837391  6614 net.cpp:141] Setting up inception_4b/3x3
I0403 18:08:19.837420  6614 net.cpp:148] Top shape: 24 224 14 14 (1053696)
I0403 18:08:19.837436  6614 net.cpp:156] Memory required for data: 960654624
I0403 18:08:19.837455  6614 layer_factory.hpp:77] Creating layer inception_4b/relu_3x3
I0403 18:08:19.837476  6614 net.cpp:91] Creating Layer inception_4b/relu_3x3
I0403 18:08:19.837494  6614 net.cpp:425] inception_4b/relu_3x3 <- inception_4b/3x3
I0403 18:08:19.837512  6614 net.cpp:386] inception_4b/relu_3x3 -> inception_4b/3x3 (in-place)
I0403 18:08:19.837694  6614 net.cpp:141] Setting up inception_4b/relu_3x3
I0403 18:08:19.837718  6614 net.cpp:148] Top shape: 24 224 14 14 (1053696)
I0403 18:08:19.837733  6614 net.cpp:156] Memory required for data: 964869408
I0403 18:08:19.837749  6614 layer_factory.hpp:77] Creating layer inception_4b/5x5_reduce
I0403 18:08:19.837774  6614 net.cpp:91] Creating Layer inception_4b/5x5_reduce
I0403 18:08:19.837795  6614 net.cpp:425] inception_4b/5x5_reduce <- inception_4a/output_inception_4a/output_0_split_3
I0403 18:08:19.837816  6614 net.cpp:399] inception_4b/5x5_reduce -> inception_4b/5x5_reduce
I0403 18:08:19.838904  6614 net.cpp:141] Setting up inception_4b/5x5_reduce
I0403 18:08:19.838934  6614 net.cpp:148] Top shape: 24 24 14 14 (112896)
I0403 18:08:19.838951  6614 net.cpp:156] Memory required for data: 965320992
I0403 18:08:19.838973  6614 layer_factory.hpp:77] Creating layer inception_4b/relu_5x5_reduce
I0403 18:08:19.838994  6614 net.cpp:91] Creating Layer inception_4b/relu_5x5_reduce
I0403 18:08:19.839030  6614 net.cpp:425] inception_4b/relu_5x5_reduce <- inception_4b/5x5_reduce
I0403 18:08:19.839049  6614 net.cpp:386] inception_4b/relu_5x5_reduce -> inception_4b/5x5_reduce (in-place)
I0403 18:08:19.839236  6614 net.cpp:141] Setting up inception_4b/relu_5x5_reduce
I0403 18:08:19.839279  6614 net.cpp:148] Top shape: 24 24 14 14 (112896)
I0403 18:08:19.839296  6614 net.cpp:156] Memory required for data: 965772576
I0403 18:08:19.839313  6614 layer_factory.hpp:77] Creating layer inception_4b/5x5
I0403 18:08:19.839339  6614 net.cpp:91] Creating Layer inception_4b/5x5
I0403 18:08:19.839360  6614 net.cpp:425] inception_4b/5x5 <- inception_4b/5x5_reduce
I0403 18:08:19.839382  6614 net.cpp:399] inception_4b/5x5 -> inception_4b/5x5
I0403 18:08:19.840636  6614 net.cpp:141] Setting up inception_4b/5x5
I0403 18:08:19.840667  6614 net.cpp:148] Top shape: 24 64 14 14 (301056)
I0403 18:08:19.840682  6614 net.cpp:156] Memory required for data: 966976800
I0403 18:08:19.840703  6614 layer_factory.hpp:77] Creating layer inception_4b/relu_5x5
I0403 18:08:19.840728  6614 net.cpp:91] Creating Layer inception_4b/relu_5x5
I0403 18:08:19.840747  6614 net.cpp:425] inception_4b/relu_5x5 <- inception_4b/5x5
I0403 18:08:19.840765  6614 net.cpp:386] inception_4b/relu_5x5 -> inception_4b/5x5 (in-place)
I0403 18:08:19.841053  6614 net.cpp:141] Setting up inception_4b/relu_5x5
I0403 18:08:19.841080  6614 net.cpp:148] Top shape: 24 64 14 14 (301056)
I0403 18:08:19.841099  6614 net.cpp:156] Memory required for data: 968181024
I0403 18:08:19.841114  6614 layer_factory.hpp:77] Creating layer inception_4b/pool
I0403 18:08:19.841136  6614 net.cpp:91] Creating Layer inception_4b/pool
I0403 18:08:19.841155  6614 net.cpp:425] inception_4b/pool <- inception_4a/output_inception_4a/output_0_split_4
I0403 18:08:19.841173  6614 net.cpp:399] inception_4b/pool -> inception_4b/pool
I0403 18:08:19.841259  6614 net.cpp:141] Setting up inception_4b/pool
I0403 18:08:19.841285  6614 net.cpp:148] Top shape: 24 512 14 14 (2408448)
I0403 18:08:19.841301  6614 net.cpp:156] Memory required for data: 977814816
I0403 18:08:19.841317  6614 layer_factory.hpp:77] Creating layer inception_4b/pool_proj
I0403 18:08:19.841341  6614 net.cpp:91] Creating Layer inception_4b/pool_proj
I0403 18:08:19.841358  6614 net.cpp:425] inception_4b/pool_proj <- inception_4b/pool
I0403 18:08:19.841382  6614 net.cpp:399] inception_4b/pool_proj -> inception_4b/pool_proj
I0403 18:08:19.842633  6614 net.cpp:141] Setting up inception_4b/pool_proj
I0403 18:08:19.842666  6614 net.cpp:148] Top shape: 24 64 14 14 (301056)
I0403 18:08:19.842685  6614 net.cpp:156] Memory required for data: 979019040
I0403 18:08:19.842705  6614 layer_factory.hpp:77] Creating layer inception_4b/relu_pool_proj
I0403 18:08:19.842725  6614 net.cpp:91] Creating Layer inception_4b/relu_pool_proj
I0403 18:08:19.842742  6614 net.cpp:425] inception_4b/relu_pool_proj <- inception_4b/pool_proj
I0403 18:08:19.842761  6614 net.cpp:386] inception_4b/relu_pool_proj -> inception_4b/pool_proj (in-place)
I0403 18:08:19.842948  6614 net.cpp:141] Setting up inception_4b/relu_pool_proj
I0403 18:08:19.842978  6614 net.cpp:148] Top shape: 24 64 14 14 (301056)
I0403 18:08:19.842994  6614 net.cpp:156] Memory required for data: 980223264
I0403 18:08:19.843010  6614 layer_factory.hpp:77] Creating layer inception_4b/output
I0403 18:08:19.843030  6614 net.cpp:91] Creating Layer inception_4b/output
I0403 18:08:19.843045  6614 net.cpp:425] inception_4b/output <- inception_4b/1x1
I0403 18:08:19.843065  6614 net.cpp:425] inception_4b/output <- inception_4b/3x3
I0403 18:08:19.843082  6614 net.cpp:425] inception_4b/output <- inception_4b/5x5
I0403 18:08:19.843099  6614 net.cpp:425] inception_4b/output <- inception_4b/pool_proj
I0403 18:08:19.843119  6614 net.cpp:399] inception_4b/output -> inception_4b/output
I0403 18:08:19.843166  6614 net.cpp:141] Setting up inception_4b/output
I0403 18:08:19.843191  6614 net.cpp:148] Top shape: 24 512 14 14 (2408448)
I0403 18:08:19.843207  6614 net.cpp:156] Memory required for data: 989857056
I0403 18:08:19.843237  6614 layer_factory.hpp:77] Creating layer inception_4b/output_inception_4b/output_0_split
I0403 18:08:19.843263  6614 net.cpp:91] Creating Layer inception_4b/output_inception_4b/output_0_split
I0403 18:08:19.843282  6614 net.cpp:425] inception_4b/output_inception_4b/output_0_split <- inception_4b/output
I0403 18:08:19.843300  6614 net.cpp:399] inception_4b/output_inception_4b/output_0_split -> inception_4b/output_inception_4b/output_0_split_0
I0403 18:08:19.843324  6614 net.cpp:399] inception_4b/output_inception_4b/output_0_split -> inception_4b/output_inception_4b/output_0_split_1
I0403 18:08:19.843346  6614 net.cpp:399] inception_4b/output_inception_4b/output_0_split -> inception_4b/output_inception_4b/output_0_split_2
I0403 18:08:19.843369  6614 net.cpp:399] inception_4b/output_inception_4b/output_0_split -> inception_4b/output_inception_4b/output_0_split_3
I0403 18:08:19.843456  6614 net.cpp:141] Setting up inception_4b/output_inception_4b/output_0_split
I0403 18:08:19.843482  6614 net.cpp:148] Top shape: 24 512 14 14 (2408448)
I0403 18:08:19.843500  6614 net.cpp:148] Top shape: 24 512 14 14 (2408448)
I0403 18:08:19.843516  6614 net.cpp:148] Top shape: 24 512 14 14 (2408448)
I0403 18:08:19.843533  6614 net.cpp:148] Top shape: 24 512 14 14 (2408448)
I0403 18:08:19.843546  6614 net.cpp:156] Memory required for data: 1028392224
I0403 18:08:19.843562  6614 layer_factory.hpp:77] Creating layer inception_4c/1x1
I0403 18:08:19.843585  6614 net.cpp:91] Creating Layer inception_4c/1x1
I0403 18:08:19.843605  6614 net.cpp:425] inception_4c/1x1 <- inception_4b/output_inception_4b/output_0_split_0
I0403 18:08:19.843626  6614 net.cpp:399] inception_4c/1x1 -> inception_4c/1x1
I0403 18:08:19.845088  6614 net.cpp:141] Setting up inception_4c/1x1
I0403 18:08:19.845118  6614 net.cpp:148] Top shape: 24 128 14 14 (602112)
I0403 18:08:19.845134  6614 net.cpp:156] Memory required for data: 1030800672
I0403 18:08:19.845155  6614 layer_factory.hpp:77] Creating layer inception_4c/relu_1x1
I0403 18:08:19.845176  6614 net.cpp:91] Creating Layer inception_4c/relu_1x1
I0403 18:08:19.845194  6614 net.cpp:425] inception_4c/relu_1x1 <- inception_4c/1x1
I0403 18:08:19.845216  6614 net.cpp:386] inception_4c/relu_1x1 -> inception_4c/1x1 (in-place)
I0403 18:08:19.845402  6614 net.cpp:141] Setting up inception_4c/relu_1x1
I0403 18:08:19.845429  6614 net.cpp:148] Top shape: 24 128 14 14 (602112)
I0403 18:08:19.845445  6614 net.cpp:156] Memory required for data: 1033209120
I0403 18:08:19.845463  6614 layer_factory.hpp:77] Creating layer inception_4c/3x3_reduce
I0403 18:08:19.845485  6614 net.cpp:91] Creating Layer inception_4c/3x3_reduce
I0403 18:08:19.845504  6614 net.cpp:425] inception_4c/3x3_reduce <- inception_4b/output_inception_4b/output_0_split_1
I0403 18:08:19.845525  6614 net.cpp:399] inception_4c/3x3_reduce -> inception_4c/3x3_reduce
I0403 18:08:19.847512  6614 net.cpp:141] Setting up inception_4c/3x3_reduce
I0403 18:08:19.847544  6614 net.cpp:148] Top shape: 24 128 14 14 (602112)
I0403 18:08:19.847561  6614 net.cpp:156] Memory required for data: 1035617568
I0403 18:08:19.847580  6614 layer_factory.hpp:77] Creating layer inception_4c/relu_3x3_reduce
I0403 18:08:19.847602  6614 net.cpp:91] Creating Layer inception_4c/relu_3x3_reduce
I0403 18:08:19.847620  6614 net.cpp:425] inception_4c/relu_3x3_reduce <- inception_4c/3x3_reduce
I0403 18:08:19.847638  6614 net.cpp:386] inception_4c/relu_3x3_reduce -> inception_4c/3x3_reduce (in-place)
I0403 18:08:19.847928  6614 net.cpp:141] Setting up inception_4c/relu_3x3_reduce
I0403 18:08:19.847954  6614 net.cpp:148] Top shape: 24 128 14 14 (602112)
I0403 18:08:19.847970  6614 net.cpp:156] Memory required for data: 1038026016
I0403 18:08:19.847986  6614 layer_factory.hpp:77] Creating layer inception_4c/3x3
I0403 18:08:19.848008  6614 net.cpp:91] Creating Layer inception_4c/3x3
I0403 18:08:19.848031  6614 net.cpp:425] inception_4c/3x3 <- inception_4c/3x3_reduce
I0403 18:08:19.848050  6614 net.cpp:399] inception_4c/3x3 -> inception_4c/3x3
I0403 18:08:19.851691  6614 net.cpp:141] Setting up inception_4c/3x3
I0403 18:08:19.851737  6614 net.cpp:148] Top shape: 24 256 14 14 (1204224)
I0403 18:08:19.851755  6614 net.cpp:156] Memory required for data: 1042842912
I0403 18:08:19.851790  6614 layer_factory.hpp:77] Creating layer inception_4c/relu_3x3
I0403 18:08:19.851815  6614 net.cpp:91] Creating Layer inception_4c/relu_3x3
I0403 18:08:19.851832  6614 net.cpp:425] inception_4c/relu_3x3 <- inception_4c/3x3
I0403 18:08:19.851852  6614 net.cpp:386] inception_4c/relu_3x3 -> inception_4c/3x3 (in-place)
I0403 18:08:19.852040  6614 net.cpp:141] Setting up inception_4c/relu_3x3
I0403 18:08:19.852071  6614 net.cpp:148] Top shape: 24 256 14 14 (1204224)
I0403 18:08:19.852087  6614 net.cpp:156] Memory required for data: 1047659808
I0403 18:08:19.852104  6614 layer_factory.hpp:77] Creating layer inception_4c/5x5_reduce
I0403 18:08:19.852128  6614 net.cpp:91] Creating Layer inception_4c/5x5_reduce
I0403 18:08:19.852149  6614 net.cpp:425] inception_4c/5x5_reduce <- inception_4b/output_inception_4b/output_0_split_2
I0403 18:08:19.852172  6614 net.cpp:399] inception_4c/5x5_reduce -> inception_4c/5x5_reduce
I0403 18:08:19.853291  6614 net.cpp:141] Setting up inception_4c/5x5_reduce
I0403 18:08:19.853322  6614 net.cpp:148] Top shape: 24 24 14 14 (112896)
I0403 18:08:19.853339  6614 net.cpp:156] Memory required for data: 1048111392
I0403 18:08:19.853359  6614 layer_factory.hpp:77] Creating layer inception_4c/relu_5x5_reduce
I0403 18:08:19.853381  6614 net.cpp:91] Creating Layer inception_4c/relu_5x5_reduce
I0403 18:08:19.853400  6614 net.cpp:425] inception_4c/relu_5x5_reduce <- inception_4c/5x5_reduce
I0403 18:08:19.853420  6614 net.cpp:386] inception_4c/relu_5x5_reduce -> inception_4c/5x5_reduce (in-place)
I0403 18:08:19.853610  6614 net.cpp:141] Setting up inception_4c/relu_5x5_reduce
I0403 18:08:19.853636  6614 net.cpp:148] Top shape: 24 24 14 14 (112896)
I0403 18:08:19.853651  6614 net.cpp:156] Memory required for data: 1048562976
I0403 18:08:19.853665  6614 layer_factory.hpp:77] Creating layer inception_4c/5x5
I0403 18:08:19.853689  6614 net.cpp:91] Creating Layer inception_4c/5x5
I0403 18:08:19.853708  6614 net.cpp:425] inception_4c/5x5 <- inception_4c/5x5_reduce
I0403 18:08:19.853730  6614 net.cpp:399] inception_4c/5x5 -> inception_4c/5x5
I0403 18:08:19.854984  6614 net.cpp:141] Setting up inception_4c/5x5
I0403 18:08:19.855015  6614 net.cpp:148] Top shape: 24 64 14 14 (301056)
I0403 18:08:19.855032  6614 net.cpp:156] Memory required for data: 1049767200
I0403 18:08:19.855051  6614 layer_factory.hpp:77] Creating layer inception_4c/relu_5x5
I0403 18:08:19.855070  6614 net.cpp:91] Creating Layer inception_4c/relu_5x5
I0403 18:08:19.855088  6614 net.cpp:425] inception_4c/relu_5x5 <- inception_4c/5x5
I0403 18:08:19.855109  6614 net.cpp:386] inception_4c/relu_5x5 -> inception_4c/5x5 (in-place)
I0403 18:08:19.855406  6614 net.cpp:141] Setting up inception_4c/relu_5x5
I0403 18:08:19.855435  6614 net.cpp:148] Top shape: 24 64 14 14 (301056)
I0403 18:08:19.855453  6614 net.cpp:156] Memory required for data: 1050971424
I0403 18:08:19.855468  6614 layer_factory.hpp:77] Creating layer inception_4c/pool
I0403 18:08:19.855486  6614 net.cpp:91] Creating Layer inception_4c/pool
I0403 18:08:19.855504  6614 net.cpp:425] inception_4c/pool <- inception_4b/output_inception_4b/output_0_split_3
I0403 18:08:19.855525  6614 net.cpp:399] inception_4c/pool -> inception_4c/pool
I0403 18:08:19.855592  6614 net.cpp:141] Setting up inception_4c/pool
I0403 18:08:19.855618  6614 net.cpp:148] Top shape: 24 512 14 14 (2408448)
I0403 18:08:19.855635  6614 net.cpp:156] Memory required for data: 1060605216
I0403 18:08:19.855653  6614 layer_factory.hpp:77] Creating layer inception_4c/pool_proj
I0403 18:08:19.855675  6614 net.cpp:91] Creating Layer inception_4c/pool_proj
I0403 18:08:19.855693  6614 net.cpp:425] inception_4c/pool_proj <- inception_4c/pool
I0403 18:08:19.855712  6614 net.cpp:399] inception_4c/pool_proj -> inception_4c/pool_proj
I0403 18:08:19.856948  6614 net.cpp:141] Setting up inception_4c/pool_proj
I0403 18:08:19.856981  6614 net.cpp:148] Top shape: 24 64 14 14 (301056)
I0403 18:08:19.857012  6614 net.cpp:156] Memory required for data: 1061809440
I0403 18:08:19.857034  6614 layer_factory.hpp:77] Creating layer inception_4c/relu_pool_proj
I0403 18:08:19.857053  6614 net.cpp:91] Creating Layer inception_4c/relu_pool_proj
I0403 18:08:19.857069  6614 net.cpp:425] inception_4c/relu_pool_proj <- inception_4c/pool_proj
I0403 18:08:19.857087  6614 net.cpp:386] inception_4c/relu_pool_proj -> inception_4c/pool_proj (in-place)
I0403 18:08:19.857273  6614 net.cpp:141] Setting up inception_4c/relu_pool_proj
I0403 18:08:19.857301  6614 net.cpp:148] Top shape: 24 64 14 14 (301056)
I0403 18:08:19.857316  6614 net.cpp:156] Memory required for data: 1063013664
I0403 18:08:19.857331  6614 layer_factory.hpp:77] Creating layer inception_4c/output
I0403 18:08:19.857350  6614 net.cpp:91] Creating Layer inception_4c/output
I0403 18:08:19.857367  6614 net.cpp:425] inception_4c/output <- inception_4c/1x1
I0403 18:08:19.857384  6614 net.cpp:425] inception_4c/output <- inception_4c/3x3
I0403 18:08:19.857401  6614 net.cpp:425] inception_4c/output <- inception_4c/5x5
I0403 18:08:19.857419  6614 net.cpp:425] inception_4c/output <- inception_4c/pool_proj
I0403 18:08:19.857439  6614 net.cpp:399] inception_4c/output -> inception_4c/output
I0403 18:08:19.857486  6614 net.cpp:141] Setting up inception_4c/output
I0403 18:08:19.857509  6614 net.cpp:148] Top shape: 24 512 14 14 (2408448)
I0403 18:08:19.857524  6614 net.cpp:156] Memory required for data: 1072647456
I0403 18:08:19.857539  6614 layer_factory.hpp:77] Creating layer inception_4c/output_inception_4c/output_0_split
I0403 18:08:19.857560  6614 net.cpp:91] Creating Layer inception_4c/output_inception_4c/output_0_split
I0403 18:08:19.857578  6614 net.cpp:425] inception_4c/output_inception_4c/output_0_split <- inception_4c/output
I0403 18:08:19.857595  6614 net.cpp:399] inception_4c/output_inception_4c/output_0_split -> inception_4c/output_inception_4c/output_0_split_0
I0403 18:08:19.857616  6614 net.cpp:399] inception_4c/output_inception_4c/output_0_split -> inception_4c/output_inception_4c/output_0_split_1
I0403 18:08:19.857640  6614 net.cpp:399] inception_4c/output_inception_4c/output_0_split -> inception_4c/output_inception_4c/output_0_split_2
I0403 18:08:19.857662  6614 net.cpp:399] inception_4c/output_inception_4c/output_0_split -> inception_4c/output_inception_4c/output_0_split_3
I0403 18:08:19.857748  6614 net.cpp:141] Setting up inception_4c/output_inception_4c/output_0_split
I0403 18:08:19.857772  6614 net.cpp:148] Top shape: 24 512 14 14 (2408448)
I0403 18:08:19.857789  6614 net.cpp:148] Top shape: 24 512 14 14 (2408448)
I0403 18:08:19.857805  6614 net.cpp:148] Top shape: 24 512 14 14 (2408448)
I0403 18:08:19.857820  6614 net.cpp:148] Top shape: 24 512 14 14 (2408448)
I0403 18:08:19.857834  6614 net.cpp:156] Memory required for data: 1111182624
I0403 18:08:19.857849  6614 layer_factory.hpp:77] Creating layer inception_4d/1x1
I0403 18:08:19.857872  6614 net.cpp:91] Creating Layer inception_4d/1x1
I0403 18:08:19.857892  6614 net.cpp:425] inception_4d/1x1 <- inception_4c/output_inception_4c/output_0_split_0
I0403 18:08:19.857913  6614 net.cpp:399] inception_4d/1x1 -> inception_4d/1x1
I0403 18:08:19.859302  6614 net.cpp:141] Setting up inception_4d/1x1
I0403 18:08:19.859331  6614 net.cpp:148] Top shape: 24 112 14 14 (526848)
I0403 18:08:19.859349  6614 net.cpp:156] Memory required for data: 1113290016
I0403 18:08:19.859367  6614 layer_factory.hpp:77] Creating layer inception_4d/relu_1x1
I0403 18:08:19.859387  6614 net.cpp:91] Creating Layer inception_4d/relu_1x1
I0403 18:08:19.859405  6614 net.cpp:425] inception_4d/relu_1x1 <- inception_4d/1x1
I0403 18:08:19.859422  6614 net.cpp:386] inception_4d/relu_1x1 -> inception_4d/1x1 (in-place)
I0403 18:08:19.859609  6614 net.cpp:141] Setting up inception_4d/relu_1x1
I0403 18:08:19.859633  6614 net.cpp:148] Top shape: 24 112 14 14 (526848)
I0403 18:08:19.859648  6614 net.cpp:156] Memory required for data: 1115397408
I0403 18:08:19.859663  6614 layer_factory.hpp:77] Creating layer inception_4d/3x3_reduce
I0403 18:08:19.859700  6614 net.cpp:91] Creating Layer inception_4d/3x3_reduce
I0403 18:08:19.859720  6614 net.cpp:425] inception_4d/3x3_reduce <- inception_4c/output_inception_4c/output_0_split_1
I0403 18:08:19.859740  6614 net.cpp:399] inception_4d/3x3_reduce -> inception_4d/3x3_reduce
I0403 18:08:19.861237  6614 net.cpp:141] Setting up inception_4d/3x3_reduce
I0403 18:08:19.861269  6614 net.cpp:148] Top shape: 24 144 14 14 (677376)
I0403 18:08:19.861287  6614 net.cpp:156] Memory required for data: 1118106912
I0403 18:08:19.861306  6614 layer_factory.hpp:77] Creating layer inception_4d/relu_3x3_reduce
I0403 18:08:19.861325  6614 net.cpp:91] Creating Layer inception_4d/relu_3x3_reduce
I0403 18:08:19.861342  6614 net.cpp:425] inception_4d/relu_3x3_reduce <- inception_4d/3x3_reduce
I0403 18:08:19.861362  6614 net.cpp:386] inception_4d/relu_3x3_reduce -> inception_4d/3x3_reduce (in-place)
I0403 18:08:19.861649  6614 net.cpp:141] Setting up inception_4d/relu_3x3_reduce
I0403 18:08:19.861675  6614 net.cpp:148] Top shape: 24 144 14 14 (677376)
I0403 18:08:19.861690  6614 net.cpp:156] Memory required for data: 1120816416
I0403 18:08:19.861706  6614 layer_factory.hpp:77] Creating layer inception_4d/3x3
I0403 18:08:19.861727  6614 net.cpp:91] Creating Layer inception_4d/3x3
I0403 18:08:19.861747  6614 net.cpp:425] inception_4d/3x3 <- inception_4d/3x3_reduce
I0403 18:08:19.861768  6614 net.cpp:399] inception_4d/3x3 -> inception_4d/3x3
I0403 18:08:19.865972  6614 net.cpp:141] Setting up inception_4d/3x3
I0403 18:08:19.866000  6614 net.cpp:148] Top shape: 24 288 14 14 (1354752)
I0403 18:08:19.866017  6614 net.cpp:156] Memory required for data: 1126235424
I0403 18:08:19.866037  6614 layer_factory.hpp:77] Creating layer inception_4d/relu_3x3
I0403 18:08:19.866058  6614 net.cpp:91] Creating Layer inception_4d/relu_3x3
I0403 18:08:19.866077  6614 net.cpp:425] inception_4d/relu_3x3 <- inception_4d/3x3
I0403 18:08:19.866096  6614 net.cpp:386] inception_4d/relu_3x3 -> inception_4d/3x3 (in-place)
I0403 18:08:19.866278  6614 net.cpp:141] Setting up inception_4d/relu_3x3
I0403 18:08:19.866307  6614 net.cpp:148] Top shape: 24 288 14 14 (1354752)
I0403 18:08:19.866322  6614 net.cpp:156] Memory required for data: 1131654432
I0403 18:08:19.866336  6614 layer_factory.hpp:77] Creating layer inception_4d/5x5_reduce
I0403 18:08:19.866358  6614 net.cpp:91] Creating Layer inception_4d/5x5_reduce
I0403 18:08:19.866376  6614 net.cpp:425] inception_4d/5x5_reduce <- inception_4c/output_inception_4c/output_0_split_2
I0403 18:08:19.866395  6614 net.cpp:399] inception_4d/5x5_reduce -> inception_4d/5x5_reduce
I0403 18:08:19.867523  6614 net.cpp:141] Setting up inception_4d/5x5_reduce
I0403 18:08:19.867552  6614 net.cpp:148] Top shape: 24 32 14 14 (150528)
I0403 18:08:19.867568  6614 net.cpp:156] Memory required for data: 1132256544
I0403 18:08:19.867586  6614 layer_factory.hpp:77] Creating layer inception_4d/relu_5x5_reduce
I0403 18:08:19.867606  6614 net.cpp:91] Creating Layer inception_4d/relu_5x5_reduce
I0403 18:08:19.867624  6614 net.cpp:425] inception_4d/relu_5x5_reduce <- inception_4d/5x5_reduce
I0403 18:08:19.867642  6614 net.cpp:386] inception_4d/relu_5x5_reduce -> inception_4d/5x5_reduce (in-place)
I0403 18:08:19.867825  6614 net.cpp:141] Setting up inception_4d/relu_5x5_reduce
I0403 18:08:19.867849  6614 net.cpp:148] Top shape: 24 32 14 14 (150528)
I0403 18:08:19.867864  6614 net.cpp:156] Memory required for data: 1132858656
I0403 18:08:19.867879  6614 layer_factory.hpp:77] Creating layer inception_4d/5x5
I0403 18:08:19.867903  6614 net.cpp:91] Creating Layer inception_4d/5x5
I0403 18:08:19.867920  6614 net.cpp:425] inception_4d/5x5 <- inception_4d/5x5_reduce
I0403 18:08:19.867939  6614 net.cpp:399] inception_4d/5x5 -> inception_4d/5x5
I0403 18:08:19.869366  6614 net.cpp:141] Setting up inception_4d/5x5
I0403 18:08:19.869396  6614 net.cpp:148] Top shape: 24 64 14 14 (301056)
I0403 18:08:19.869415  6614 net.cpp:156] Memory required for data: 1134062880
I0403 18:08:19.869436  6614 layer_factory.hpp:77] Creating layer inception_4d/relu_5x5
I0403 18:08:19.869469  6614 net.cpp:91] Creating Layer inception_4d/relu_5x5
I0403 18:08:19.869488  6614 net.cpp:425] inception_4d/relu_5x5 <- inception_4d/5x5
I0403 18:08:19.869508  6614 net.cpp:386] inception_4d/relu_5x5 -> inception_4d/5x5 (in-place)
I0403 18:08:19.869799  6614 net.cpp:141] Setting up inception_4d/relu_5x5
I0403 18:08:19.869828  6614 net.cpp:148] Top shape: 24 64 14 14 (301056)
I0403 18:08:19.869845  6614 net.cpp:156] Memory required for data: 1135267104
I0403 18:08:19.869861  6614 layer_factory.hpp:77] Creating layer inception_4d/pool
I0403 18:08:19.869879  6614 net.cpp:91] Creating Layer inception_4d/pool
I0403 18:08:19.869895  6614 net.cpp:425] inception_4d/pool <- inception_4c/output_inception_4c/output_0_split_3
I0403 18:08:19.869915  6614 net.cpp:399] inception_4d/pool -> inception_4d/pool
I0403 18:08:19.869982  6614 net.cpp:141] Setting up inception_4d/pool
I0403 18:08:19.870004  6614 net.cpp:148] Top shape: 24 512 14 14 (2408448)
I0403 18:08:19.870019  6614 net.cpp:156] Memory required for data: 1144900896
I0403 18:08:19.870034  6614 layer_factory.hpp:77] Creating layer inception_4d/pool_proj
I0403 18:08:19.870056  6614 net.cpp:91] Creating Layer inception_4d/pool_proj
I0403 18:08:19.870074  6614 net.cpp:425] inception_4d/pool_proj <- inception_4d/pool
I0403 18:08:19.870093  6614 net.cpp:399] inception_4d/pool_proj -> inception_4d/pool_proj
I0403 18:08:19.871845  6614 net.cpp:141] Setting up inception_4d/pool_proj
I0403 18:08:19.871875  6614 net.cpp:148] Top shape: 24 64 14 14 (301056)
I0403 18:08:19.871891  6614 net.cpp:156] Memory required for data: 1146105120
I0403 18:08:19.871909  6614 layer_factory.hpp:77] Creating layer inception_4d/relu_pool_proj
I0403 18:08:19.871930  6614 net.cpp:91] Creating Layer inception_4d/relu_pool_proj
I0403 18:08:19.871949  6614 net.cpp:425] inception_4d/relu_pool_proj <- inception_4d/pool_proj
I0403 18:08:19.871968  6614 net.cpp:386] inception_4d/relu_pool_proj -> inception_4d/pool_proj (in-place)
I0403 18:08:19.872149  6614 net.cpp:141] Setting up inception_4d/relu_pool_proj
I0403 18:08:19.872176  6614 net.cpp:148] Top shape: 24 64 14 14 (301056)
I0403 18:08:19.872192  6614 net.cpp:156] Memory required for data: 1147309344
I0403 18:08:19.872206  6614 layer_factory.hpp:77] Creating layer inception_4d/output
I0403 18:08:19.872223  6614 net.cpp:91] Creating Layer inception_4d/output
I0403 18:08:19.872248  6614 net.cpp:425] inception_4d/output <- inception_4d/1x1
I0403 18:08:19.872269  6614 net.cpp:425] inception_4d/output <- inception_4d/3x3
I0403 18:08:19.872287  6614 net.cpp:425] inception_4d/output <- inception_4d/5x5
I0403 18:08:19.872303  6614 net.cpp:425] inception_4d/output <- inception_4d/pool_proj
I0403 18:08:19.872319  6614 net.cpp:399] inception_4d/output -> inception_4d/output
I0403 18:08:19.872367  6614 net.cpp:141] Setting up inception_4d/output
I0403 18:08:19.872390  6614 net.cpp:148] Top shape: 24 528 14 14 (2483712)
I0403 18:08:19.872405  6614 net.cpp:156] Memory required for data: 1157244192
I0403 18:08:19.872419  6614 layer_factory.hpp:77] Creating layer inception_4d/output_inception_4d/output_0_split
I0403 18:08:19.872439  6614 net.cpp:91] Creating Layer inception_4d/output_inception_4d/output_0_split
I0403 18:08:19.872454  6614 net.cpp:425] inception_4d/output_inception_4d/output_0_split <- inception_4d/output
I0403 18:08:19.872473  6614 net.cpp:399] inception_4d/output_inception_4d/output_0_split -> inception_4d/output_inception_4d/output_0_split_0
I0403 18:08:19.872493  6614 net.cpp:399] inception_4d/output_inception_4d/output_0_split -> inception_4d/output_inception_4d/output_0_split_1
I0403 18:08:19.872514  6614 net.cpp:399] inception_4d/output_inception_4d/output_0_split -> inception_4d/output_inception_4d/output_0_split_2
I0403 18:08:19.872536  6614 net.cpp:399] inception_4d/output_inception_4d/output_0_split -> inception_4d/output_inception_4d/output_0_split_3
I0403 18:08:19.872558  6614 net.cpp:399] inception_4d/output_inception_4d/output_0_split -> inception_4d/output_inception_4d/output_0_split_4
I0403 18:08:19.872663  6614 net.cpp:141] Setting up inception_4d/output_inception_4d/output_0_split
I0403 18:08:19.872699  6614 net.cpp:148] Top shape: 24 528 14 14 (2483712)
I0403 18:08:19.872715  6614 net.cpp:148] Top shape: 24 528 14 14 (2483712)
I0403 18:08:19.872730  6614 net.cpp:148] Top shape: 24 528 14 14 (2483712)
I0403 18:08:19.872745  6614 net.cpp:148] Top shape: 24 528 14 14 (2483712)
I0403 18:08:19.872761  6614 net.cpp:148] Top shape: 24 528 14 14 (2483712)
I0403 18:08:19.872776  6614 net.cpp:156] Memory required for data: 1206918432
I0403 18:08:19.872789  6614 layer_factory.hpp:77] Creating layer loss2/ave_pool
I0403 18:08:19.872809  6614 net.cpp:91] Creating Layer loss2/ave_pool
I0403 18:08:19.872827  6614 net.cpp:425] loss2/ave_pool <- inception_4d/output_inception_4d/output_0_split_0
I0403 18:08:19.872844  6614 net.cpp:399] loss2/ave_pool -> loss2/ave_pool
I0403 18:08:19.873157  6614 net.cpp:141] Setting up loss2/ave_pool
I0403 18:08:19.873184  6614 net.cpp:148] Top shape: 24 528 4 4 (202752)
I0403 18:08:19.873199  6614 net.cpp:156] Memory required for data: 1207729440
I0403 18:08:19.873215  6614 layer_factory.hpp:77] Creating layer loss2/conv
I0403 18:08:19.873237  6614 net.cpp:91] Creating Layer loss2/conv
I0403 18:08:19.873272  6614 net.cpp:425] loss2/conv <- loss2/ave_pool
I0403 18:08:19.873296  6614 net.cpp:399] loss2/conv -> loss2/conv
I0403 18:08:19.875169  6614 net.cpp:141] Setting up loss2/conv
I0403 18:08:19.875200  6614 net.cpp:148] Top shape: 24 128 4 4 (49152)
I0403 18:08:19.875218  6614 net.cpp:156] Memory required for data: 1207926048
I0403 18:08:19.875238  6614 layer_factory.hpp:77] Creating layer loss2/relu_conv
I0403 18:08:19.875262  6614 net.cpp:91] Creating Layer loss2/relu_conv
I0403 18:08:19.875278  6614 net.cpp:425] loss2/relu_conv <- loss2/conv
I0403 18:08:19.875299  6614 net.cpp:386] loss2/relu_conv -> loss2/conv (in-place)
I0403 18:08:19.875584  6614 net.cpp:141] Setting up loss2/relu_conv
I0403 18:08:19.875614  6614 net.cpp:148] Top shape: 24 128 4 4 (49152)
I0403 18:08:19.875630  6614 net.cpp:156] Memory required for data: 1208122656
I0403 18:08:19.875648  6614 layer_factory.hpp:77] Creating layer loss2/fc
I0403 18:08:19.875668  6614 net.cpp:91] Creating Layer loss2/fc
I0403 18:08:19.875684  6614 net.cpp:425] loss2/fc <- loss2/conv
I0403 18:08:19.875704  6614 net.cpp:399] loss2/fc -> loss2/fc
I0403 18:08:19.893028  6614 net.cpp:141] Setting up loss2/fc
I0403 18:08:19.893070  6614 net.cpp:148] Top shape: 24 1024 (24576)
I0403 18:08:19.893090  6614 net.cpp:156] Memory required for data: 1208220960
I0403 18:08:19.893110  6614 layer_factory.hpp:77] Creating layer loss2/relu_fc
I0403 18:08:19.893129  6614 net.cpp:91] Creating Layer loss2/relu_fc
I0403 18:08:19.893148  6614 net.cpp:425] loss2/relu_fc <- loss2/fc
I0403 18:08:19.893167  6614 net.cpp:386] loss2/relu_fc -> loss2/fc (in-place)
I0403 18:08:19.893470  6614 net.cpp:141] Setting up loss2/relu_fc
I0403 18:08:19.893498  6614 net.cpp:148] Top shape: 24 1024 (24576)
I0403 18:08:19.893517  6614 net.cpp:156] Memory required for data: 1208319264
I0403 18:08:19.893532  6614 layer_factory.hpp:77] Creating layer loss2/drop_fc
I0403 18:08:19.893554  6614 net.cpp:91] Creating Layer loss2/drop_fc
I0403 18:08:19.893571  6614 net.cpp:425] loss2/drop_fc <- loss2/fc
I0403 18:08:19.893590  6614 net.cpp:386] loss2/drop_fc -> loss2/fc (in-place)
I0403 18:08:19.893640  6614 net.cpp:141] Setting up loss2/drop_fc
I0403 18:08:19.893666  6614 net.cpp:148] Top shape: 24 1024 (24576)
I0403 18:08:19.893682  6614 net.cpp:156] Memory required for data: 1208417568
I0403 18:08:19.893698  6614 layer_factory.hpp:77] Creating layer loss2/classifier_plantvillage
I0403 18:08:19.893719  6614 net.cpp:91] Creating Layer loss2/classifier_plantvillage
I0403 18:08:19.893738  6614 net.cpp:425] loss2/classifier_plantvillage <- loss2/fc
I0403 18:08:19.893755  6614 net.cpp:399] loss2/classifier_plantvillage -> loss2/classifier_plantvillage
I0403 18:08:19.894151  6614 net.cpp:141] Setting up loss2/classifier_plantvillage
I0403 18:08:19.894177  6614 net.cpp:148] Top shape: 24 38 (912)
I0403 18:08:19.894209  6614 net.cpp:156] Memory required for data: 1208421216
I0403 18:08:19.894229  6614 layer_factory.hpp:77] Creating layer loss2/classifier_plantvillage_loss2/classifier_plantvillage_0_split
I0403 18:08:19.894253  6614 net.cpp:91] Creating Layer loss2/classifier_plantvillage_loss2/classifier_plantvillage_0_split
I0403 18:08:19.894270  6614 net.cpp:425] loss2/classifier_plantvillage_loss2/classifier_plantvillage_0_split <- loss2/classifier_plantvillage
I0403 18:08:19.894290  6614 net.cpp:399] loss2/classifier_plantvillage_loss2/classifier_plantvillage_0_split -> loss2/classifier_plantvillage_loss2/classifier_plantvillage_0_split_0
I0403 18:08:19.894315  6614 net.cpp:399] loss2/classifier_plantvillage_loss2/classifier_plantvillage_0_split -> loss2/classifier_plantvillage_loss2/classifier_plantvillage_0_split_1
I0403 18:08:19.894336  6614 net.cpp:399] loss2/classifier_plantvillage_loss2/classifier_plantvillage_0_split -> loss2/classifier_plantvillage_loss2/classifier_plantvillage_0_split_2
I0403 18:08:19.894412  6614 net.cpp:141] Setting up loss2/classifier_plantvillage_loss2/classifier_plantvillage_0_split
I0403 18:08:19.894438  6614 net.cpp:148] Top shape: 24 38 (912)
I0403 18:08:19.894455  6614 net.cpp:148] Top shape: 24 38 (912)
I0403 18:08:19.894471  6614 net.cpp:148] Top shape: 24 38 (912)
I0403 18:08:19.894485  6614 net.cpp:156] Memory required for data: 1208432160
I0403 18:08:19.894500  6614 layer_factory.hpp:77] Creating layer inception_4e/1x1
I0403 18:08:19.894522  6614 net.cpp:91] Creating Layer inception_4e/1x1
I0403 18:08:19.894541  6614 net.cpp:425] inception_4e/1x1 <- inception_4d/output_inception_4d/output_0_split_1
I0403 18:08:19.894561  6614 net.cpp:399] inception_4e/1x1 -> inception_4e/1x1
I0403 18:08:19.896378  6614 net.cpp:141] Setting up inception_4e/1x1
I0403 18:08:19.896410  6614 net.cpp:148] Top shape: 24 256 14 14 (1204224)
I0403 18:08:19.896427  6614 net.cpp:156] Memory required for data: 1213249056
I0403 18:08:19.896448  6614 layer_factory.hpp:77] Creating layer inception_4e/relu_1x1
I0403 18:08:19.896466  6614 net.cpp:91] Creating Layer inception_4e/relu_1x1
I0403 18:08:19.896482  6614 net.cpp:425] inception_4e/relu_1x1 <- inception_4e/1x1
I0403 18:08:19.896502  6614 net.cpp:386] inception_4e/relu_1x1 -> inception_4e/1x1 (in-place)
I0403 18:08:19.896790  6614 net.cpp:141] Setting up inception_4e/relu_1x1
I0403 18:08:19.896818  6614 net.cpp:148] Top shape: 24 256 14 14 (1204224)
I0403 18:08:19.896836  6614 net.cpp:156] Memory required for data: 1218065952
I0403 18:08:19.896852  6614 layer_factory.hpp:77] Creating layer inception_4e/3x3_reduce
I0403 18:08:19.896873  6614 net.cpp:91] Creating Layer inception_4e/3x3_reduce
I0403 18:08:19.896891  6614 net.cpp:425] inception_4e/3x3_reduce <- inception_4d/output_inception_4d/output_0_split_2
I0403 18:08:19.896911  6614 net.cpp:399] inception_4e/3x3_reduce -> inception_4e/3x3_reduce
I0403 18:08:19.899013  6614 net.cpp:141] Setting up inception_4e/3x3_reduce
I0403 18:08:19.899047  6614 net.cpp:148] Top shape: 24 160 14 14 (752640)
I0403 18:08:19.899066  6614 net.cpp:156] Memory required for data: 1221076512
I0403 18:08:19.899086  6614 layer_factory.hpp:77] Creating layer inception_4e/relu_3x3_reduce
I0403 18:08:19.899104  6614 net.cpp:91] Creating Layer inception_4e/relu_3x3_reduce
I0403 18:08:19.899121  6614 net.cpp:425] inception_4e/relu_3x3_reduce <- inception_4e/3x3_reduce
I0403 18:08:19.899138  6614 net.cpp:386] inception_4e/relu_3x3_reduce -> inception_4e/3x3_reduce (in-place)
I0403 18:08:19.899333  6614 net.cpp:141] Setting up inception_4e/relu_3x3_reduce
I0403 18:08:19.899358  6614 net.cpp:148] Top shape: 24 160 14 14 (752640)
I0403 18:08:19.899374  6614 net.cpp:156] Memory required for data: 1224087072
I0403 18:08:19.899389  6614 layer_factory.hpp:77] Creating layer inception_4e/3x3
I0403 18:08:19.899411  6614 net.cpp:91] Creating Layer inception_4e/3x3
I0403 18:08:19.899430  6614 net.cpp:425] inception_4e/3x3 <- inception_4e/3x3_reduce
I0403 18:08:19.899452  6614 net.cpp:399] inception_4e/3x3 -> inception_4e/3x3
I0403 18:08:19.904424  6614 net.cpp:141] Setting up inception_4e/3x3
I0403 18:08:19.904466  6614 net.cpp:148] Top shape: 24 320 14 14 (1505280)
I0403 18:08:19.904484  6614 net.cpp:156] Memory required for data: 1230108192
I0403 18:08:19.904502  6614 layer_factory.hpp:77] Creating layer inception_4e/relu_3x3
I0403 18:08:19.904520  6614 net.cpp:91] Creating Layer inception_4e/relu_3x3
I0403 18:08:19.904543  6614 net.cpp:425] inception_4e/relu_3x3 <- inception_4e/3x3
I0403 18:08:19.904561  6614 net.cpp:386] inception_4e/relu_3x3 -> inception_4e/3x3 (in-place)
I0403 18:08:19.904857  6614 net.cpp:141] Setting up inception_4e/relu_3x3
I0403 18:08:19.904886  6614 net.cpp:148] Top shape: 24 320 14 14 (1505280)
I0403 18:08:19.904903  6614 net.cpp:156] Memory required for data: 1236129312
I0403 18:08:19.904918  6614 layer_factory.hpp:77] Creating layer inception_4e/5x5_reduce
I0403 18:08:19.904942  6614 net.cpp:91] Creating Layer inception_4e/5x5_reduce
I0403 18:08:19.904961  6614 net.cpp:425] inception_4e/5x5_reduce <- inception_4d/output_inception_4d/output_0_split_3
I0403 18:08:19.904984  6614 net.cpp:399] inception_4e/5x5_reduce -> inception_4e/5x5_reduce
I0403 18:08:19.906082  6614 net.cpp:141] Setting up inception_4e/5x5_reduce
I0403 18:08:19.906116  6614 net.cpp:148] Top shape: 24 32 14 14 (150528)
I0403 18:08:19.906132  6614 net.cpp:156] Memory required for data: 1236731424
I0403 18:08:19.906152  6614 layer_factory.hpp:77] Creating layer inception_4e/relu_5x5_reduce
I0403 18:08:19.906170  6614 net.cpp:91] Creating Layer inception_4e/relu_5x5_reduce
I0403 18:08:19.906189  6614 net.cpp:425] inception_4e/relu_5x5_reduce <- inception_4e/5x5_reduce
I0403 18:08:19.906211  6614 net.cpp:386] inception_4e/relu_5x5_reduce -> inception_4e/5x5_reduce (in-place)
I0403 18:08:19.906510  6614 net.cpp:141] Setting up inception_4e/relu_5x5_reduce
I0403 18:08:19.906538  6614 net.cpp:148] Top shape: 24 32 14 14 (150528)
I0403 18:08:19.906554  6614 net.cpp:156] Memory required for data: 1237333536
I0403 18:08:19.906569  6614 layer_factory.hpp:77] Creating layer inception_4e/5x5
I0403 18:08:19.906610  6614 net.cpp:91] Creating Layer inception_4e/5x5
I0403 18:08:19.906630  6614 net.cpp:425] inception_4e/5x5 <- inception_4e/5x5_reduce
I0403 18:08:19.906649  6614 net.cpp:399] inception_4e/5x5 -> inception_4e/5x5
I0403 18:08:19.908488  6614 net.cpp:141] Setting up inception_4e/5x5
I0403 18:08:19.908519  6614 net.cpp:148] Top shape: 24 128 14 14 (602112)
I0403 18:08:19.908535  6614 net.cpp:156] Memory required for data: 1239741984
I0403 18:08:19.908557  6614 layer_factory.hpp:77] Creating layer inception_4e/relu_5x5
I0403 18:08:19.908581  6614 net.cpp:91] Creating Layer inception_4e/relu_5x5
I0403 18:08:19.908599  6614 net.cpp:425] inception_4e/relu_5x5 <- inception_4e/5x5
I0403 18:08:19.908617  6614 net.cpp:386] inception_4e/relu_5x5 -> inception_4e/5x5 (in-place)
I0403 18:08:19.908819  6614 net.cpp:141] Setting up inception_4e/relu_5x5
I0403 18:08:19.908849  6614 net.cpp:148] Top shape: 24 128 14 14 (602112)
I0403 18:08:19.908865  6614 net.cpp:156] Memory required for data: 1242150432
I0403 18:08:19.908881  6614 layer_factory.hpp:77] Creating layer inception_4e/pool
I0403 18:08:19.908901  6614 net.cpp:91] Creating Layer inception_4e/pool
I0403 18:08:19.908918  6614 net.cpp:425] inception_4e/pool <- inception_4d/output_inception_4d/output_0_split_4
I0403 18:08:19.908941  6614 net.cpp:399] inception_4e/pool -> inception_4e/pool
I0403 18:08:19.909013  6614 net.cpp:141] Setting up inception_4e/pool
I0403 18:08:19.909039  6614 net.cpp:148] Top shape: 24 528 14 14 (2483712)
I0403 18:08:19.909056  6614 net.cpp:156] Memory required for data: 1252085280
I0403 18:08:19.909072  6614 layer_factory.hpp:77] Creating layer inception_4e/pool_proj
I0403 18:08:19.909097  6614 net.cpp:91] Creating Layer inception_4e/pool_proj
I0403 18:08:19.909117  6614 net.cpp:425] inception_4e/pool_proj <- inception_4e/pool
I0403 18:08:19.909137  6614 net.cpp:399] inception_4e/pool_proj -> inception_4e/pool_proj
I0403 18:08:19.910689  6614 net.cpp:141] Setting up inception_4e/pool_proj
I0403 18:08:19.910743  6614 net.cpp:148] Top shape: 24 128 14 14 (602112)
I0403 18:08:19.910760  6614 net.cpp:156] Memory required for data: 1254493728
I0403 18:08:19.910792  6614 layer_factory.hpp:77] Creating layer inception_4e/relu_pool_proj
I0403 18:08:19.910815  6614 net.cpp:91] Creating Layer inception_4e/relu_pool_proj
I0403 18:08:19.910832  6614 net.cpp:425] inception_4e/relu_pool_proj <- inception_4e/pool_proj
I0403 18:08:19.910851  6614 net.cpp:386] inception_4e/relu_pool_proj -> inception_4e/pool_proj (in-place)
I0403 18:08:19.911154  6614 net.cpp:141] Setting up inception_4e/relu_pool_proj
I0403 18:08:19.911182  6614 net.cpp:148] Top shape: 24 128 14 14 (602112)
I0403 18:08:19.911200  6614 net.cpp:156] Memory required for data: 1256902176
I0403 18:08:19.911216  6614 layer_factory.hpp:77] Creating layer inception_4e/output
I0403 18:08:19.911237  6614 net.cpp:91] Creating Layer inception_4e/output
I0403 18:08:19.911273  6614 net.cpp:425] inception_4e/output <- inception_4e/1x1
I0403 18:08:19.911293  6614 net.cpp:425] inception_4e/output <- inception_4e/3x3
I0403 18:08:19.911312  6614 net.cpp:425] inception_4e/output <- inception_4e/5x5
I0403 18:08:19.911330  6614 net.cpp:425] inception_4e/output <- inception_4e/pool_proj
I0403 18:08:19.911348  6614 net.cpp:399] inception_4e/output -> inception_4e/output
I0403 18:08:19.911414  6614 net.cpp:141] Setting up inception_4e/output
I0403 18:08:19.911440  6614 net.cpp:148] Top shape: 24 832 14 14 (3913728)
I0403 18:08:19.911455  6614 net.cpp:156] Memory required for data: 1272557088
I0403 18:08:19.911471  6614 layer_factory.hpp:77] Creating layer pool4/3x3_s2
I0403 18:08:19.911490  6614 net.cpp:91] Creating Layer pool4/3x3_s2
I0403 18:08:19.911507  6614 net.cpp:425] pool4/3x3_s2 <- inception_4e/output
I0403 18:08:19.911528  6614 net.cpp:399] pool4/3x3_s2 -> pool4/3x3_s2
I0403 18:08:19.911610  6614 net.cpp:141] Setting up pool4/3x3_s2
I0403 18:08:19.911635  6614 net.cpp:148] Top shape: 24 832 7 7 (978432)
I0403 18:08:19.911650  6614 net.cpp:156] Memory required for data: 1276470816
I0403 18:08:19.911665  6614 layer_factory.hpp:77] Creating layer pool4/3x3_s2_pool4/3x3_s2_0_split
I0403 18:08:19.911687  6614 net.cpp:91] Creating Layer pool4/3x3_s2_pool4/3x3_s2_0_split
I0403 18:08:19.911705  6614 net.cpp:425] pool4/3x3_s2_pool4/3x3_s2_0_split <- pool4/3x3_s2
I0403 18:08:19.911725  6614 net.cpp:399] pool4/3x3_s2_pool4/3x3_s2_0_split -> pool4/3x3_s2_pool4/3x3_s2_0_split_0
I0403 18:08:19.911747  6614 net.cpp:399] pool4/3x3_s2_pool4/3x3_s2_0_split -> pool4/3x3_s2_pool4/3x3_s2_0_split_1
I0403 18:08:19.911768  6614 net.cpp:399] pool4/3x3_s2_pool4/3x3_s2_0_split -> pool4/3x3_s2_pool4/3x3_s2_0_split_2
I0403 18:08:19.911790  6614 net.cpp:399] pool4/3x3_s2_pool4/3x3_s2_0_split -> pool4/3x3_s2_pool4/3x3_s2_0_split_3
I0403 18:08:19.911883  6614 net.cpp:141] Setting up pool4/3x3_s2_pool4/3x3_s2_0_split
I0403 18:08:19.911908  6614 net.cpp:148] Top shape: 24 832 7 7 (978432)
I0403 18:08:19.911926  6614 net.cpp:148] Top shape: 24 832 7 7 (978432)
I0403 18:08:19.911942  6614 net.cpp:148] Top shape: 24 832 7 7 (978432)
I0403 18:08:19.911957  6614 net.cpp:148] Top shape: 24 832 7 7 (978432)
I0403 18:08:19.911973  6614 net.cpp:156] Memory required for data: 1292125728
I0403 18:08:19.911988  6614 layer_factory.hpp:77] Creating layer inception_5a/1x1
I0403 18:08:19.912011  6614 net.cpp:91] Creating Layer inception_5a/1x1
I0403 18:08:19.912030  6614 net.cpp:425] inception_5a/1x1 <- pool4/3x3_s2_pool4/3x3_s2_0_split_0
I0403 18:08:19.912052  6614 net.cpp:399] inception_5a/1x1 -> inception_5a/1x1
I0403 18:08:19.914965  6614 net.cpp:141] Setting up inception_5a/1x1
I0403 18:08:19.914999  6614 net.cpp:148] Top shape: 24 256 7 7 (301056)
I0403 18:08:19.915019  6614 net.cpp:156] Memory required for data: 1293329952
I0403 18:08:19.915038  6614 layer_factory.hpp:77] Creating layer inception_5a/relu_1x1
I0403 18:08:19.915057  6614 net.cpp:91] Creating Layer inception_5a/relu_1x1
I0403 18:08:19.915076  6614 net.cpp:425] inception_5a/relu_1x1 <- inception_5a/1x1
I0403 18:08:19.915096  6614 net.cpp:386] inception_5a/relu_1x1 -> inception_5a/1x1 (in-place)
I0403 18:08:19.915417  6614 net.cpp:141] Setting up inception_5a/relu_1x1
I0403 18:08:19.915448  6614 net.cpp:148] Top shape: 24 256 7 7 (301056)
I0403 18:08:19.915467  6614 net.cpp:156] Memory required for data: 1294534176
I0403 18:08:19.915483  6614 layer_factory.hpp:77] Creating layer inception_5a/3x3_reduce
I0403 18:08:19.915506  6614 net.cpp:91] Creating Layer inception_5a/3x3_reduce
I0403 18:08:19.915526  6614 net.cpp:425] inception_5a/3x3_reduce <- pool4/3x3_s2_pool4/3x3_s2_0_split_1
I0403 18:08:19.915547  6614 net.cpp:399] inception_5a/3x3_reduce -> inception_5a/3x3_reduce
I0403 18:08:19.918054  6614 net.cpp:141] Setting up inception_5a/3x3_reduce
I0403 18:08:19.918087  6614 net.cpp:148] Top shape: 24 160 7 7 (188160)
I0403 18:08:19.918104  6614 net.cpp:156] Memory required for data: 1295286816
I0403 18:08:19.918123  6614 layer_factory.hpp:77] Creating layer inception_5a/relu_3x3_reduce
I0403 18:08:19.918145  6614 net.cpp:91] Creating Layer inception_5a/relu_3x3_reduce
I0403 18:08:19.918165  6614 net.cpp:425] inception_5a/relu_3x3_reduce <- inception_5a/3x3_reduce
I0403 18:08:19.918185  6614 net.cpp:386] inception_5a/relu_3x3_reduce -> inception_5a/3x3_reduce (in-place)
I0403 18:08:19.918383  6614 net.cpp:141] Setting up inception_5a/relu_3x3_reduce
I0403 18:08:19.918409  6614 net.cpp:148] Top shape: 24 160 7 7 (188160)
I0403 18:08:19.918427  6614 net.cpp:156] Memory required for data: 1296039456
I0403 18:08:19.918443  6614 layer_factory.hpp:77] Creating layer inception_5a/3x3
I0403 18:08:19.918464  6614 net.cpp:91] Creating Layer inception_5a/3x3
I0403 18:08:19.918483  6614 net.cpp:425] inception_5a/3x3 <- inception_5a/3x3_reduce
I0403 18:08:19.918506  6614 net.cpp:399] inception_5a/3x3 -> inception_5a/3x3
I0403 18:08:19.923694  6614 net.cpp:141] Setting up inception_5a/3x3
I0403 18:08:19.923727  6614 net.cpp:148] Top shape: 24 320 7 7 (376320)
I0403 18:08:19.923744  6614 net.cpp:156] Memory required for data: 1297544736
I0403 18:08:19.923764  6614 layer_factory.hpp:77] Creating layer inception_5a/relu_3x3
I0403 18:08:19.923785  6614 net.cpp:91] Creating Layer inception_5a/relu_3x3
I0403 18:08:19.923804  6614 net.cpp:425] inception_5a/relu_3x3 <- inception_5a/3x3
I0403 18:08:19.923820  6614 net.cpp:386] inception_5a/relu_3x3 -> inception_5a/3x3 (in-place)
I0403 18:08:19.924118  6614 net.cpp:141] Setting up inception_5a/relu_3x3
I0403 18:08:19.924144  6614 net.cpp:148] Top shape: 24 320 7 7 (376320)
I0403 18:08:19.924160  6614 net.cpp:156] Memory required for data: 1299050016
I0403 18:08:19.924175  6614 layer_factory.hpp:77] Creating layer inception_5a/5x5_reduce
I0403 18:08:19.924201  6614 net.cpp:91] Creating Layer inception_5a/5x5_reduce
I0403 18:08:19.924219  6614 net.cpp:425] inception_5a/5x5_reduce <- pool4/3x3_s2_pool4/3x3_s2_0_split_2
I0403 18:08:19.924243  6614 net.cpp:399] inception_5a/5x5_reduce -> inception_5a/5x5_reduce
I0403 18:08:19.925436  6614 net.cpp:141] Setting up inception_5a/5x5_reduce
I0403 18:08:19.925468  6614 net.cpp:148] Top shape: 24 32 7 7 (37632)
I0403 18:08:19.925487  6614 net.cpp:156] Memory required for data: 1299200544
I0403 18:08:19.925505  6614 layer_factory.hpp:77] Creating layer inception_5a/relu_5x5_reduce
I0403 18:08:19.925524  6614 net.cpp:91] Creating Layer inception_5a/relu_5x5_reduce
I0403 18:08:19.925541  6614 net.cpp:425] inception_5a/relu_5x5_reduce <- inception_5a/5x5_reduce
I0403 18:08:19.925559  6614 net.cpp:386] inception_5a/relu_5x5_reduce -> inception_5a/5x5_reduce (in-place)
I0403 18:08:19.925866  6614 net.cpp:141] Setting up inception_5a/relu_5x5_reduce
I0403 18:08:19.925895  6614 net.cpp:148] Top shape: 24 32 7 7 (37632)
I0403 18:08:19.925912  6614 net.cpp:156] Memory required for data: 1299351072
I0403 18:08:19.925928  6614 layer_factory.hpp:77] Creating layer inception_5a/5x5
I0403 18:08:19.925952  6614 net.cpp:91] Creating Layer inception_5a/5x5
I0403 18:08:19.925973  6614 net.cpp:425] inception_5a/5x5 <- inception_5a/5x5_reduce
I0403 18:08:19.925994  6614 net.cpp:399] inception_5a/5x5 -> inception_5a/5x5
I0403 18:08:19.927732  6614 net.cpp:141] Setting up inception_5a/5x5
I0403 18:08:19.927773  6614 net.cpp:148] Top shape: 24 128 7 7 (150528)
I0403 18:08:19.927791  6614 net.cpp:156] Memory required for data: 1299953184
I0403 18:08:19.927810  6614 layer_factory.hpp:77] Creating layer inception_5a/relu_5x5
I0403 18:08:19.927832  6614 net.cpp:91] Creating Layer inception_5a/relu_5x5
I0403 18:08:19.927850  6614 net.cpp:425] inception_5a/relu_5x5 <- inception_5a/5x5
I0403 18:08:19.927868  6614 net.cpp:386] inception_5a/relu_5x5 -> inception_5a/5x5 (in-place)
I0403 18:08:19.928062  6614 net.cpp:141] Setting up inception_5a/relu_5x5
I0403 18:08:19.928091  6614 net.cpp:148] Top shape: 24 128 7 7 (150528)
I0403 18:08:19.928105  6614 net.cpp:156] Memory required for data: 1300555296
I0403 18:08:19.928122  6614 layer_factory.hpp:77] Creating layer inception_5a/pool
I0403 18:08:19.928139  6614 net.cpp:91] Creating Layer inception_5a/pool
I0403 18:08:19.928156  6614 net.cpp:425] inception_5a/pool <- pool4/3x3_s2_pool4/3x3_s2_0_split_3
I0403 18:08:19.928177  6614 net.cpp:399] inception_5a/pool -> inception_5a/pool
I0403 18:08:19.928254  6614 net.cpp:141] Setting up inception_5a/pool
I0403 18:08:19.928280  6614 net.cpp:148] Top shape: 24 832 7 7 (978432)
I0403 18:08:19.928295  6614 net.cpp:156] Memory required for data: 1304469024
I0403 18:08:19.928310  6614 layer_factory.hpp:77] Creating layer inception_5a/pool_proj
I0403 18:08:19.928334  6614 net.cpp:91] Creating Layer inception_5a/pool_proj
I0403 18:08:19.928352  6614 net.cpp:425] inception_5a/pool_proj <- inception_5a/pool
I0403 18:08:19.928371  6614 net.cpp:399] inception_5a/pool_proj -> inception_5a/pool_proj
I0403 18:08:19.930686  6614 net.cpp:141] Setting up inception_5a/pool_proj
I0403 18:08:19.930719  6614 net.cpp:148] Top shape: 24 128 7 7 (150528)
I0403 18:08:19.930735  6614 net.cpp:156] Memory required for data: 1305071136
I0403 18:08:19.930755  6614 layer_factory.hpp:77] Creating layer inception_5a/relu_pool_proj
I0403 18:08:19.930776  6614 net.cpp:91] Creating Layer inception_5a/relu_pool_proj
I0403 18:08:19.930794  6614 net.cpp:425] inception_5a/relu_pool_proj <- inception_5a/pool_proj
I0403 18:08:19.930814  6614 net.cpp:386] inception_5a/relu_pool_proj -> inception_5a/pool_proj (in-place)
I0403 18:08:19.931130  6614 net.cpp:141] Setting up inception_5a/relu_pool_proj
I0403 18:08:19.931156  6614 net.cpp:148] Top shape: 24 128 7 7 (150528)
I0403 18:08:19.931172  6614 net.cpp:156] Memory required for data: 1305673248
I0403 18:08:19.931188  6614 layer_factory.hpp:77] Creating layer inception_5a/output
I0403 18:08:19.931208  6614 net.cpp:91] Creating Layer inception_5a/output
I0403 18:08:19.931226  6614 net.cpp:425] inception_5a/output <- inception_5a/1x1
I0403 18:08:19.931248  6614 net.cpp:425] inception_5a/output <- inception_5a/3x3
I0403 18:08:19.931265  6614 net.cpp:425] inception_5a/output <- inception_5a/5x5
I0403 18:08:19.931282  6614 net.cpp:425] inception_5a/output <- inception_5a/pool_proj
I0403 18:08:19.931300  6614 net.cpp:399] inception_5a/output -> inception_5a/output
I0403 18:08:19.931352  6614 net.cpp:141] Setting up inception_5a/output
I0403 18:08:19.931377  6614 net.cpp:148] Top shape: 24 832 7 7 (978432)
I0403 18:08:19.931393  6614 net.cpp:156] Memory required for data: 1309586976
I0403 18:08:19.931409  6614 layer_factory.hpp:77] Creating layer inception_5a/output_inception_5a/output_0_split
I0403 18:08:19.931427  6614 net.cpp:91] Creating Layer inception_5a/output_inception_5a/output_0_split
I0403 18:08:19.931442  6614 net.cpp:425] inception_5a/output_inception_5a/output_0_split <- inception_5a/output
I0403 18:08:19.931463  6614 net.cpp:399] inception_5a/output_inception_5a/output_0_split -> inception_5a/output_inception_5a/output_0_split_0
I0403 18:08:19.931484  6614 net.cpp:399] inception_5a/output_inception_5a/output_0_split -> inception_5a/output_inception_5a/output_0_split_1
I0403 18:08:19.931505  6614 net.cpp:399] inception_5a/output_inception_5a/output_0_split -> inception_5a/output_inception_5a/output_0_split_2
I0403 18:08:19.931527  6614 net.cpp:399] inception_5a/output_inception_5a/output_0_split -> inception_5a/output_inception_5a/output_0_split_3
I0403 18:08:19.931643  6614 net.cpp:141] Setting up inception_5a/output_inception_5a/output_0_split
I0403 18:08:19.931669  6614 net.cpp:148] Top shape: 24 832 7 7 (978432)
I0403 18:08:19.931686  6614 net.cpp:148] Top shape: 24 832 7 7 (978432)
I0403 18:08:19.931702  6614 net.cpp:148] Top shape: 24 832 7 7 (978432)
I0403 18:08:19.931720  6614 net.cpp:148] Top shape: 24 832 7 7 (978432)
I0403 18:08:19.931733  6614 net.cpp:156] Memory required for data: 1325241888
I0403 18:08:19.931748  6614 layer_factory.hpp:77] Creating layer inception_5b/1x1
I0403 18:08:19.931771  6614 net.cpp:91] Creating Layer inception_5b/1x1
I0403 18:08:19.931788  6614 net.cpp:425] inception_5b/1x1 <- inception_5a/output_inception_5a/output_0_split_0
I0403 18:08:19.931808  6614 net.cpp:399] inception_5b/1x1 -> inception_5b/1x1
I0403 18:08:19.935652  6614 net.cpp:141] Setting up inception_5b/1x1
I0403 18:08:19.935683  6614 net.cpp:148] Top shape: 24 384 7 7 (451584)
I0403 18:08:19.935700  6614 net.cpp:156] Memory required for data: 1327048224
I0403 18:08:19.935720  6614 layer_factory.hpp:77] Creating layer inception_5b/relu_1x1
I0403 18:08:19.935742  6614 net.cpp:91] Creating Layer inception_5b/relu_1x1
I0403 18:08:19.935762  6614 net.cpp:425] inception_5b/relu_1x1 <- inception_5b/1x1
I0403 18:08:19.935781  6614 net.cpp:386] inception_5b/relu_1x1 -> inception_5b/1x1 (in-place)
I0403 18:08:19.936095  6614 net.cpp:141] Setting up inception_5b/relu_1x1
I0403 18:08:19.936123  6614 net.cpp:148] Top shape: 24 384 7 7 (451584)
I0403 18:08:19.936141  6614 net.cpp:156] Memory required for data: 1328854560
I0403 18:08:19.936156  6614 layer_factory.hpp:77] Creating layer inception_5b/3x3_reduce
I0403 18:08:19.936180  6614 net.cpp:91] Creating Layer inception_5b/3x3_reduce
I0403 18:08:19.936199  6614 net.cpp:425] inception_5b/3x3_reduce <- inception_5a/output_inception_5a/output_0_split_1
I0403 18:08:19.936223  6614 net.cpp:399] inception_5b/3x3_reduce -> inception_5b/3x3_reduce
I0403 18:08:19.938936  6614 net.cpp:141] Setting up inception_5b/3x3_reduce
I0403 18:08:19.938967  6614 net.cpp:148] Top shape: 24 192 7 7 (225792)
I0403 18:08:19.938984  6614 net.cpp:156] Memory required for data: 1329757728
I0403 18:08:19.939004  6614 layer_factory.hpp:77] Creating layer inception_5b/relu_3x3_reduce
I0403 18:08:19.939026  6614 net.cpp:91] Creating Layer inception_5b/relu_3x3_reduce
I0403 18:08:19.939046  6614 net.cpp:425] inception_5b/relu_3x3_reduce <- inception_5b/3x3_reduce
I0403 18:08:19.939065  6614 net.cpp:386] inception_5b/relu_3x3_reduce -> inception_5b/3x3_reduce (in-place)
I0403 18:08:19.939266  6614 net.cpp:141] Setting up inception_5b/relu_3x3_reduce
I0403 18:08:19.939292  6614 net.cpp:148] Top shape: 24 192 7 7 (225792)
I0403 18:08:19.939308  6614 net.cpp:156] Memory required for data: 1330660896
I0403 18:08:19.939323  6614 layer_factory.hpp:77] Creating layer inception_5b/3x3
I0403 18:08:19.939348  6614 net.cpp:91] Creating Layer inception_5b/3x3
I0403 18:08:19.939368  6614 net.cpp:425] inception_5b/3x3 <- inception_5b/3x3_reduce
I0403 18:08:19.939388  6614 net.cpp:399] inception_5b/3x3 -> inception_5b/3x3
I0403 18:08:19.946254  6614 net.cpp:141] Setting up inception_5b/3x3
I0403 18:08:19.946285  6614 net.cpp:148] Top shape: 24 384 7 7 (451584)
I0403 18:08:19.946303  6614 net.cpp:156] Memory required for data: 1332467232
I0403 18:08:19.946323  6614 layer_factory.hpp:77] Creating layer inception_5b/relu_3x3
I0403 18:08:19.946346  6614 net.cpp:91] Creating Layer inception_5b/relu_3x3
I0403 18:08:19.946364  6614 net.cpp:425] inception_5b/relu_3x3 <- inception_5b/3x3
I0403 18:08:19.946384  6614 net.cpp:386] inception_5b/relu_3x3 -> inception_5b/3x3 (in-place)
I0403 18:08:19.946691  6614 net.cpp:141] Setting up inception_5b/relu_3x3
I0403 18:08:19.946720  6614 net.cpp:148] Top shape: 24 384 7 7 (451584)
I0403 18:08:19.946737  6614 net.cpp:156] Memory required for data: 1334273568
I0403 18:08:19.946753  6614 layer_factory.hpp:77] Creating layer inception_5b/5x5_reduce
I0403 18:08:19.946807  6614 net.cpp:91] Creating Layer inception_5b/5x5_reduce
I0403 18:08:19.946827  6614 net.cpp:425] inception_5b/5x5_reduce <- inception_5a/output_inception_5a/output_0_split_2
I0403 18:08:19.946849  6614 net.cpp:399] inception_5b/5x5_reduce -> inception_5b/5x5_reduce
I0403 18:08:19.948120  6614 net.cpp:141] Setting up inception_5b/5x5_reduce
I0403 18:08:19.948150  6614 net.cpp:148] Top shape: 24 48 7 7 (56448)
I0403 18:08:19.948168  6614 net.cpp:156] Memory required for data: 1334499360
I0403 18:08:19.948185  6614 layer_factory.hpp:77] Creating layer inception_5b/relu_5x5_reduce
I0403 18:08:19.948220  6614 net.cpp:91] Creating Layer inception_5b/relu_5x5_reduce
I0403 18:08:19.948243  6614 net.cpp:425] inception_5b/relu_5x5_reduce <- inception_5b/5x5_reduce
I0403 18:08:19.948266  6614 net.cpp:386] inception_5b/relu_5x5_reduce -> inception_5b/5x5_reduce (in-place)
I0403 18:08:19.948668  6614 net.cpp:141] Setting up inception_5b/relu_5x5_reduce
I0403 18:08:19.948695  6614 net.cpp:148] Top shape: 24 48 7 7 (56448)
I0403 18:08:19.948710  6614 net.cpp:156] Memory required for data: 1334725152
I0403 18:08:19.948726  6614 layer_factory.hpp:77] Creating layer inception_5b/5x5
I0403 18:08:19.948747  6614 net.cpp:91] Creating Layer inception_5b/5x5
I0403 18:08:19.948765  6614 net.cpp:425] inception_5b/5x5 <- inception_5b/5x5_reduce
I0403 18:08:19.948784  6614 net.cpp:399] inception_5b/5x5 -> inception_5b/5x5
I0403 18:08:19.950831  6614 net.cpp:141] Setting up inception_5b/5x5
I0403 18:08:19.950863  6614 net.cpp:148] Top shape: 24 128 7 7 (150528)
I0403 18:08:19.950881  6614 net.cpp:156] Memory required for data: 1335327264
I0403 18:08:19.950899  6614 layer_factory.hpp:77] Creating layer inception_5b/relu_5x5
I0403 18:08:19.950918  6614 net.cpp:91] Creating Layer inception_5b/relu_5x5
I0403 18:08:19.950937  6614 net.cpp:425] inception_5b/relu_5x5 <- inception_5b/5x5
I0403 18:08:19.950956  6614 net.cpp:386] inception_5b/relu_5x5 -> inception_5b/5x5 (in-place)
I0403 18:08:19.951148  6614 net.cpp:141] Setting up inception_5b/relu_5x5
I0403 18:08:19.951174  6614 net.cpp:148] Top shape: 24 128 7 7 (150528)
I0403 18:08:19.951191  6614 net.cpp:156] Memory required for data: 1335929376
I0403 18:08:19.951206  6614 layer_factory.hpp:77] Creating layer inception_5b/pool
I0403 18:08:19.951225  6614 net.cpp:91] Creating Layer inception_5b/pool
I0403 18:08:19.951246  6614 net.cpp:425] inception_5b/pool <- inception_5a/output_inception_5a/output_0_split_3
I0403 18:08:19.951269  6614 net.cpp:399] inception_5b/pool -> inception_5b/pool
I0403 18:08:19.951342  6614 net.cpp:141] Setting up inception_5b/pool
I0403 18:08:19.951369  6614 net.cpp:148] Top shape: 24 832 7 7 (978432)
I0403 18:08:19.951383  6614 net.cpp:156] Memory required for data: 1339843104
I0403 18:08:19.951400  6614 layer_factory.hpp:77] Creating layer inception_5b/pool_proj
I0403 18:08:19.951422  6614 net.cpp:91] Creating Layer inception_5b/pool_proj
I0403 18:08:19.951439  6614 net.cpp:425] inception_5b/pool_proj <- inception_5b/pool
I0403 18:08:19.951458  6614 net.cpp:399] inception_5b/pool_proj -> inception_5b/pool_proj
I0403 18:08:19.953771  6614 net.cpp:141] Setting up inception_5b/pool_proj
I0403 18:08:19.953801  6614 net.cpp:148] Top shape: 24 128 7 7 (150528)
I0403 18:08:19.953819  6614 net.cpp:156] Memory required for data: 1340445216
I0403 18:08:19.953837  6614 layer_factory.hpp:77] Creating layer inception_5b/relu_pool_proj
I0403 18:08:19.953858  6614 net.cpp:91] Creating Layer inception_5b/relu_pool_proj
I0403 18:08:19.953876  6614 net.cpp:425] inception_5b/relu_pool_proj <- inception_5b/pool_proj
I0403 18:08:19.953894  6614 net.cpp:386] inception_5b/relu_pool_proj -> inception_5b/pool_proj (in-place)
I0403 18:08:19.954192  6614 net.cpp:141] Setting up inception_5b/relu_pool_proj
I0403 18:08:19.954218  6614 net.cpp:148] Top shape: 24 128 7 7 (150528)
I0403 18:08:19.954234  6614 net.cpp:156] Memory required for data: 1341047328
I0403 18:08:19.954254  6614 layer_factory.hpp:77] Creating layer inception_5b/output
I0403 18:08:19.954277  6614 net.cpp:91] Creating Layer inception_5b/output
I0403 18:08:19.954306  6614 net.cpp:425] inception_5b/output <- inception_5b/1x1
I0403 18:08:19.954326  6614 net.cpp:425] inception_5b/output <- inception_5b/3x3
I0403 18:08:19.954342  6614 net.cpp:425] inception_5b/output <- inception_5b/5x5
I0403 18:08:19.954360  6614 net.cpp:425] inception_5b/output <- inception_5b/pool_proj
I0403 18:08:19.954376  6614 net.cpp:399] inception_5b/output -> inception_5b/output
I0403 18:08:19.954430  6614 net.cpp:141] Setting up inception_5b/output
I0403 18:08:19.954454  6614 net.cpp:148] Top shape: 24 1024 7 7 (1204224)
I0403 18:08:19.954469  6614 net.cpp:156] Memory required for data: 1345864224
I0403 18:08:19.954484  6614 layer_factory.hpp:77] Creating layer pool5/7x7_s1
I0403 18:08:19.954501  6614 net.cpp:91] Creating Layer pool5/7x7_s1
I0403 18:08:19.954517  6614 net.cpp:425] pool5/7x7_s1 <- inception_5b/output
I0403 18:08:19.954538  6614 net.cpp:399] pool5/7x7_s1 -> pool5/7x7_s1
I0403 18:08:19.954751  6614 net.cpp:141] Setting up pool5/7x7_s1
I0403 18:08:19.954777  6614 net.cpp:148] Top shape: 24 1024 1 1 (24576)
I0403 18:08:19.954792  6614 net.cpp:156] Memory required for data: 1345962528
I0403 18:08:19.954807  6614 layer_factory.hpp:77] Creating layer pool5/drop_7x7_s1
I0403 18:08:19.954828  6614 net.cpp:91] Creating Layer pool5/drop_7x7_s1
I0403 18:08:19.954845  6614 net.cpp:425] pool5/drop_7x7_s1 <- pool5/7x7_s1
I0403 18:08:19.954864  6614 net.cpp:386] pool5/drop_7x7_s1 -> pool5/7x7_s1 (in-place)
I0403 18:08:19.954915  6614 net.cpp:141] Setting up pool5/drop_7x7_s1
I0403 18:08:19.954937  6614 net.cpp:148] Top shape: 24 1024 1 1 (24576)
I0403 18:08:19.954952  6614 net.cpp:156] Memory required for data: 1346060832
I0403 18:08:19.954967  6614 layer_factory.hpp:77] Creating layer loss3/classifier_plantvillage
I0403 18:08:19.954989  6614 net.cpp:91] Creating Layer loss3/classifier_plantvillage
I0403 18:08:19.955008  6614 net.cpp:425] loss3/classifier_plantvillage <- pool5/7x7_s1
I0403 18:08:19.955026  6614 net.cpp:399] loss3/classifier_plantvillage -> loss3/classifier_plantvillage
I0403 18:08:19.955457  6614 net.cpp:141] Setting up loss3/classifier_plantvillage
I0403 18:08:19.955482  6614 net.cpp:148] Top shape: 24 38 (912)
I0403 18:08:19.955497  6614 net.cpp:156] Memory required for data: 1346064480
I0403 18:08:19.955516  6614 layer_factory.hpp:77] Creating layer loss3/classifier_plantvillage_loss3/classifier_plantvillage_0_split
I0403 18:08:19.955535  6614 net.cpp:91] Creating Layer loss3/classifier_plantvillage_loss3/classifier_plantvillage_0_split
I0403 18:08:19.955551  6614 net.cpp:425] loss3/classifier_plantvillage_loss3/classifier_plantvillage_0_split <- loss3/classifier_plantvillage
I0403 18:08:19.955572  6614 net.cpp:399] loss3/classifier_plantvillage_loss3/classifier_plantvillage_0_split -> loss3/classifier_plantvillage_loss3/classifier_plantvillage_0_split_0
I0403 18:08:19.955595  6614 net.cpp:399] loss3/classifier_plantvillage_loss3/classifier_plantvillage_0_split -> loss3/classifier_plantvillage_loss3/classifier_plantvillage_0_split_1
I0403 18:08:19.955617  6614 net.cpp:399] loss3/classifier_plantvillage_loss3/classifier_plantvillage_0_split -> loss3/classifier_plantvillage_loss3/classifier_plantvillage_0_split_2
I0403 18:08:19.955639  6614 net.cpp:399] loss3/classifier_plantvillage_loss3/classifier_plantvillage_0_split -> loss3/classifier_plantvillage_loss3/classifier_plantvillage_0_split_3
I0403 18:08:19.955742  6614 net.cpp:141] Setting up loss3/classifier_plantvillage_loss3/classifier_plantvillage_0_split
I0403 18:08:19.955765  6614 net.cpp:148] Top shape: 24 38 (912)
I0403 18:08:19.955782  6614 net.cpp:148] Top shape: 24 38 (912)
I0403 18:08:19.955799  6614 net.cpp:148] Top shape: 24 38 (912)
I0403 18:08:19.955814  6614 net.cpp:148] Top shape: 24 38 (912)
I0403 18:08:19.955829  6614 net.cpp:156] Memory required for data: 1346079072
I0403 18:08:19.955843  6614 layer_factory.hpp:77] Creating layer loss1/loss
I0403 18:08:19.955865  6614 net.cpp:91] Creating Layer loss1/loss
I0403 18:08:19.955883  6614 net.cpp:425] loss1/loss <- loss1/classifier_plantvillage_loss1/classifier_plantvillage_0_split_0
I0403 18:08:19.955914  6614 net.cpp:425] loss1/loss <- label_data_1_split_0
…
