…
I0403 18:12:25.028939  6687 net.cpp:313] The NetState phase (1) differed from the phase (0) specified by a rule in layer data
I0403 18:12:25.030092  6687 net.cpp:49] Initializing net from parameters: 
state {
  phase: TEST
}
layer {
  name: "data"
  type: "Data"
  top: "data"
  top: "label"
  include {
    phase: TEST
  }
  transform_param {
    mirror: false
    crop_size: 224
    mean_file: "/home/mohanty/data/final_dataset/lmdb/grayscale-40-60/mean.binaryproto"
  }
  data_param {
    source: "/home/mohanty/data/final_dataset/lmdb/grayscale-40-60/test_db"
    batch_size: 24
    backend: LMDB
  }
}
layer {
  name: "conv1/7x7_s2"
  type: "Convolution"
  bottom: "data"
  top: "conv1/7x7_s2"
  param {
    lr_mult: 1
    decay_mult: 1
  }
  param {
    lr_mult: 2
    decay_mult: 0
  }
  convolution_param {
    num_output: 64
    pad: 3
    kernel_size: 7
    stride: 2
    weight_filler {
      type: "xavier"
      std: 0.1
    }
    bias_filler {
      type: "constant"
      value: 0.2
    }
  }
}
layer {
  name: "conv1/relu_7x7"
  type: "ReLU"
  bottom: "conv1/7x7_s2"
  top: "conv1/7x7_s2"
}
layer {
  name: "pool1/3x3_s2"
  type: "Pooling"
  bottom: "conv1/7x7_s2"
  top: "pool1/3x3_s2"
  pooling_param {
    pool: MAX
    kernel_size: 3
    stride: 2
  }
}
layer {
  name: "pool1/norm1"
  type: "LRN"
  bottom: "pool1/3x3_s2"
  top: "pool1/norm1"
  lrn_param {
    local_size: 5
    alpha: 0.0001
    beta: 0.75
  }
}
layer {
  name: "conv2/3x3_reduce"
  type: "Convolution"
  bottom: "pool1/norm1"
  top: "conv2/3x3_reduce"
  param {
    lr_mult: 1
    decay_mult: 1
  }
  param {
    lr_mult: 2
    decay_mult: 0
  }
  convolution_param {
    num_output: 64
    kernel_size: 1
    weight_filler {
      type: "xavier"
      std: 0.1
    }
    bias_filler {
      type: "constant"
      value: 0.2
    }
  }
}
layer {
  name: "conv2/relu_3x3_reduce"
  type: "ReLU"
  bottom: "conv2/3x3_reduce"
  top: "conv2/3x3_reduce"
}
layer {
  name: "conv2/3x3"
  type: "Convolution"
  bottom: "conv2/3x3_reduce"
  top: "conv2/3x3"
  param {
    lr_mult: 1
    decay_mult: 1
  }
  param {
    lr_mult: 2
    decay_mult: 0
  }
  convolution_param {
    num_output: 192
    pad: 1
    kernel_size: 3
    weight_filler {
      type: "xavier"
      std: 0.03
    }
    bias_filler {
      type: "constant"
      value: 0.2
    }
  }
}
layer {
  name: "conv2/relu_3x3"
  type: "ReLU"
  bottom: "conv2/3x3"
  top: "conv2/3x3"
}
layer {
  name: "conv2/norm2"
  type: "LRN"
  bottom: "conv2/3x3"
  top: "conv2/norm2"
  lrn_param {
    local_size: 5
    alpha: 0.0001
    beta: 0.75
  }
}
layer {
  name: "pool2/3x3_s2"
  type: "Pooling"
  bottom: "conv2/norm2"
  top: "pool2/3x3_s2"
  pooling_param {
    pool: MAX
    kernel_size: 3
    stride: 2
  }
}
layer {
  name: "inception_3a/1x1"
  type: "Convolution"
  bottom: "pool2/3x3_s2"
  top: "inception_3a/1x1"
  param {
    lr_mult: 1
    decay_mult: 1
  }
  param {
    lr_mult: 2
    decay_mult: 0
  }
  convolution_param {
    num_output: 64
    kernel_size: 1
    weight_filler {
      type: "xavier"
      std: 0.03
    }
    bias_filler {
      type: "constant"
      value: 0.2
    }
  }
}
layer {
  name: "inception_3a/relu_1x1"
  type: "ReLU"
  bottom: "inception_3a/1x1"
  top: "inception_3a/1x1"
}
layer {
  name: "inception_3a/3x3_reduce"
  type: "Convolution"
  bottom: "pool2/3x3_s2"
  top: "inception_3a/3x3_reduce"
  param {
    lr_mult: 1
    decay_mult: 1
  }
  param {
    lr_mult: 2
    decay_mult: 0
  }
  convolution_param {
    num_output: 96
    kernel_size: 1
    weight_filler {
      type: "xavier"
      std: 0.09
    }
    bias_filler {
      type: "constant"
      value: 0.2
    }
  }
}
layer {
  name: "inception_3a/relu_3x3_reduce"
  type: "ReLU"
  bottom: "inception_3a/3x3_reduce"
  top: "inception_3a/3x3_reduce"
}
layer {
  name: "inception_3a/3x3"
  type: "Convolution"
  bottom: "inception_3a/3x3_reduce"
  top: "inception_3a/3x3"
  param {
    lr_mult: 1
    decay_mult: 1
  }
  param {
    lr_mult: 2
    decay_mult: 0
  }
  convolution_param {
    num_output: 128
    pad: 1
    kernel_size: 3
    weight_filler {
      type: "xavier"
      std: 0.03
    }
    bias_filler {
      type: "constant"
      value: 0.2
    }
  }
}
layer {
  name: "inception_3a/relu_3x3"
  type: "ReLU"
  bottom: "inception_3a/3x3"
  top: "inception_3a/3x3"
}
layer {
  name: "inception_3a/5x5_reduce"
  type: "Convolution"
  bottom: "pool2/3x3_s2"
  top: "inception_3a/5x5_reduce"
  param {
    lr_mult: 1
    decay_mult: 1
  }
  param {
    lr_mult: 2
    decay_mult: 0
  }
  convolution_param {
    num_output: 16
    kernel_size: 1
    weight_filler {
      type: "xavier"
      std: 0.2
    }
    bias_filler {
      type: "constant"
      value: 0.2
    }
  }
}
layer {
  name: "inception_3a/relu_5x5_reduce"
  type: "ReLU"
  bottom: "inception_3a/5x5_reduce"
  top: "inception_3a/5x5_reduce"
}
layer {
  name: "inception_3a/5x5"
  type: "Convolution"
  bottom: "inception_3a/5x5_reduce"
  top: "inception_3a/5x5"
  param {
    lr_mult: 1
    decay_mult: 1
  }
  param {
    lr_mult: 2
    decay_mult: 0
  }
  convolution_param {
    num_output: 32
    pad: 2
    kernel_size: 5
    weight_filler {
      type: "xavier"
      std: 0.03
    }
    bias_filler {
      type: "constant"
      value: 0.2
    }
  }
}
layer {
  name: "inception_3a/relu_5x5"
  type: "ReLU"
  bottom: "inception_3a/5x5"
  top: "inception_3a/5x5"
}
layer {
  name: "inception_3a/pool"
  type: "Pooling"
  bottom: "pool2/3x3_s2"
  top: "inception_3a/pool"
  pooling_param {
    pool: MAX
    kernel_size: 3
    stride: 1
    pad: 1
  }
}
layer {
  name: "inception_3a/pool_proj"
  type: "Convolution"
  bottom: "inception_3a/pool"
  top: "inception_3a/pool_proj"
  param {
    lr_mult: 1
    decay_mult: 1
  }
  param {
    lr_mult: 2
    decay_mult: 0
  }
  convolution_param {
    num_output: 32
    kernel_size: 1
    weight_filler {
      type: "xavier"
      std: 0.1
    }
    bias_filler {
      type: "constant"
      value: 0.2
    }
  }
}
layer {
  name: "inception_3a/relu_pool_proj"
  type: "ReLU"
  bottom: "inception_3a/pool_proj"
  top: "inception_3a/pool_proj"
}
layer {
  name: "inception_3a/output"
  type: "Concat"
  bottom: "inception_3a/1x1"
  bottom: "inception_3a/3x3"
  bottom: "inception_3a/5x5"
  bottom: "inception_3a/pool_proj"
  top: "inception_3a/output"
}
layer {
  name: "inception_3b/1x1"
  type: "Convolution"
  bottom: "inception_3a/output"
  top: "inception_3b/1x1"
  param {
    lr_mult: 1
    decay_mult: 1
  }
  param {
    lr_mult: 2
    decay_mult: 0
  }
  convolution_param {
    num_output: 128
    kernel_size: 1
    weight_filler {
      type: "xavier"
      std: 0.03
    }
    bias_filler {
      type: "constant"
      value: 0.2
    }
  }
}
layer {
  name: "inception_3b/relu_1x1"
  type: "ReLU"
  bottom: "inception_3b/1x1"
  top: "inception_3b/1x1"
}
layer {
  name: "inception_3b/3x3_reduce"
  type: "Convolution"
  bottom: "inception_3a/output"
  top: "inception_3b/3x3_reduce"
  param {
    lr_mult: 1
    decay_mult: 1
  }
  param {
    lr_mult: 2
    decay_mult: 0
  }
  convolution_param {
    num_output: 128
    kernel_size: 1
    weight_filler {
      type: "xavier"
      std: 0.09
    }
    bias_filler {
      type: "constant"
      value: 0.2
    }
  }
}
layer {
  name: "inception_3b/relu_3x3_reduce"
  type: "ReLU"
  bottom: "inception_3b/3x3_reduce"
  top: "inception_3b/3x3_reduce"
}
layer {
  name: "inception_3b/3x3"
  type: "Convolution"
  bottom: "inception_3b/3x3_reduce"
  top: "inception_3b/3x3"
  param {
    lr_mult: 1
    decay_mult: 1
  }
  param {
    lr_mult: 2
    decay_mult: 0
  }
  convolution_param {
    num_output: 192
    pad: 1
    kernel_size: 3
    weight_filler {
      type: "xavier"
      std: 0.03
    }
    bias_filler {
      type: "constant"
      value: 0.2
    }
  }
}
layer {
  name: "inception_3b/relu_3x3"
  type: "ReLU"
  bottom: "inception_3b/3x3"
  top: "inception_3b/3x3"
}
layer {
  name: "inception_3b/5x5_reduce"
  type: "Convolution"
  bottom: "inception_3a/output"
  top: "inception_3b/5x5_reduce"
  param {
    lr_mult: 1
    decay_mult: 1
  }
  param {
    lr_mult: 2
    decay_mult: 0
  }
  convolution_param {
    num_output: 32
    kernel_size: 1
    weight_filler {
      type: "xavier"
      std: 0.2
    }
    bias_filler {
      type: "constant"
      value: 0.2
    }
  }
}
layer {
  name: "inception_3b/relu_5x5_reduce"
  type: "ReLU"
  bottom: "inception_3b/5x5_reduce"
  top: "inception_3b/5x5_reduce"
}
layer {
  name: "inception_3b/5x5"
  type: "Convolution"
  bottom: "inception_3b/5x5_reduce"
  top: "inception_3b/5x5"
  param {
    lr_mult: 1
    decay_mult: 1
  }
  param {
    lr_mult: 2
    decay_mult: 0
  }
  convolution_param {
    num_output: 96
    pad: 2
    kernel_size: 5
    weight_filler {
      type: "xavier"
      std: 0.03
    }
    bias_filler {
      type: "constant"
      value: 0.2
    }
  }
}
layer {
  name: "inception_3b/relu_5x5"
  type: "ReLU"
  bottom: "inception_3b/5x5"
  top: "inception_3b/5x5"
}
layer {
  name: "inception_3b/pool"
  type: "Pooling"
  bottom: "inception_3a/output"
  top: "inception_3b/pool"
  pooling_param {
    pool: MAX
    kernel_size: 3
    stride: 1
    pad: 1
  }
}
layer {
  name: "inception_3b/pool_proj"
  type: "Convolution"
  bottom: "inception_3b/pool"
  top: "inception_3b/pool_proj"
  param {
    lr_mult: 1
    decay_mult: 1
  }
  param {
    lr_mult: 2
    decay_mult: 0
  }
  convolution_param {
    num_output: 64
    kernel_size: 1
    weight_filler {
      type: "xavier"
      std: 0.1
    }
    bias_filler {
      type: "constant"
      value: 0.2
    }
  }
}
layer {
  name: "inception_3b/relu_pool_proj"
  type: "ReLU"
  bottom: "inception_3b/pool_proj"
  top: "inception_3b/pool_proj"
}
layer {
  name: "inception_3b/output"
  type: "Concat"
  bottom: "inception_3b/1x1"
  bottom: "inception_3b/3x3"
  bottom: "inception_3b/5x5"
  bottom: "inception_3b/pool_proj"
  top: "inception_3b/output"
}
layer {
  name: "pool3/3x3_s2"
  type: "Pooling"
  bottom: "inception_3b/output"
  top: "pool3/3x3_s2"
  pooling_param {
    pool: MAX
    kernel_size: 3
    stride: 2
  }
}
layer {
  name: "inception_4a/1x1"
  type: "Convolution"
  bottom: "pool3/3x3_s2"
  top: "inception_4a/1x1"
  param {
    lr_mult: 1
    decay_mult: 1
  }
  param {
    lr_mult: 2
    decay_mult: 0
  }
  convolution_param {
    num_output: 192
    kernel_size: 1
    weight_filler {
      type: "xavier"
      std: 0.03
    }
    bias_filler {
      type: "constant"
      value: 0.2
    }
  }
}
layer {
  name: "inception_4a/relu_1x1"
  type: "ReLU"
  bottom: "inception_4a/1x1"
  top: "inception_4a/1x1"
}
layer {
  name: "inception_4a/3x3_reduce"
  type: "Convolution"
  bottom: "pool3/3x3_s2"
  top: "inception_4a/3x3_reduce"
  param {
    lr_mult: 1
    decay_mult: 1
  }
  param {
    lr_mult: 2
    decay_mult: 0
  }
  convolution_param {
    num_output: 96
    kernel_size: 1
    weight_filler {
      type: "xavier"
      std: 0.09
    }
    bias_filler {
      type: "constant"
      value: 0.2
    }
  }
}
layer {
  name: "inception_4a/relu_3x3_reduce"
  type: "ReLU"
  bottom: "inception_4a/3x3_reduce"
  top: "inception_4a/3x3_reduce"
}
layer {
  name: "inception_4a/3x3"
  type: "Convolution"
  bottom: "inception_4a/3x3_reduce"
  top: "inception_4a/3x3"
  param {
    lr_mult: 1
    decay_mult: 1
  }
  param {
    lr_mult: 2
    decay_mult: 0
  }
  convolution_param {
    num_output: 208
    pad: 1
    kernel_size: 3
    weight_filler {
      type: "xavier"
      std: 0.03
    }
    bias_filler {
      type: "constant"
      value: 0.2
    }
  }
}
layer {
  name: "inception_4a/relu_3x3"
  type: "ReLU"
  bottom: "inception_4a/3x3"
  top: "inception_4a/3x3"
}
layer {
  name: "inception_4a/5x5_reduce"
  type: "Convolution"
  bottom: "pool3/3x3_s2"
  top: "inception_4a/5x5_reduce"
  param {
    lr_mult: 1
    decay_mult: 1
  }
  param {
    lr_mult: 2
    decay_mult: 0
  }
  convolution_param {
    num_output: 16
    kernel_size: 1
    weight_filler {
      type: "xavier"
      std: 0.2
    }
    bias_filler {
      type: "constant"
      value: 0.2
    }
  }
}
layer {
  name: "inception_4a/relu_5x5_reduce"
  type: "ReLU"
  bottom: "inception_4a/5x5_reduce"
  top: "inception_4a/5x5_reduce"
}
layer {
  name: "inception_4a/5x5"
  type: "Convolution"
  bottom: "inception_4a/5x5_reduce"
  top: "inception_4a/5x5"
  param {
    lr_mult: 1
    decay_mult: 1
  }
  param {
    lr_mult: 2
    decay_mult: 0
  }
  convolution_param {
    num_output: 48
    pad: 2
    kernel_size: 5
    weight_filler {
      type: "xavier"
      std: 0.03
    }
    bias_filler {
      type: "constant"
      value: 0.2
    }
  }
}
layer {
  name: "inception_4a/relu_5x5"
  type: "ReLU"
  bottom: "inception_4a/5x5"
  top: "inception_4a/5x5"
}
layer {
  name: "inception_4a/pool"
  type: "Pooling"
  bottom: "pool3/3x3_s2"
  top: "inception_4a/pool"
  pooling_param {
    pool: MAX
    kernel_size: 3
    stride: 1
    pad: 1
  }
}
layer {
  name: "inception_4a/pool_proj"
  type: "Convolution"
  bottom: "inception_4a/pool"
  top: "inception_4a/pool_proj"
  param {
    lr_mult: 1
    decay_mult: 1
  }
  param {
    lr_mult: 2
    decay_mult: 0
  }
  convolution_param {
    num_output: 64
    kernel_size: 1
    weight_filler {
      type: "xavier"
      std: 0.1
    }
    bias_filler {
      type: "constant"
      value: 0.2
    }
  }
}
layer {
  name: "inception_4a/relu_pool_proj"
  type: "ReLU"
  bottom: "inception_4a/pool_proj"
  top: "inception_4a/pool_proj"
}
layer {
  name: "inception_4a/output"
  type: "Concat"
  bottom: "inception_4a/1x1"
  bottom: "inception_4a/3x3"
  bottom: "inception_4a/5x5"
  bottom: "inception_4a/pool_proj"
  top: "inception_4a/output"
}
layer {
  name: "loss1/ave_pool"
  type: "Pooling"
  bottom: "inception_4a/output"
  top: "loss1/ave_pool"
  pooling_param {
    pool: AVE
    kernel_size: 5
    stride: 3
  }
}
layer {
  name: "loss1/conv"
  type: "Convolution"
  bottom: "loss1/ave_pool"
  top: "loss1/conv"
  param {
    lr_mult: 1
    decay_mult: 1
  }
  param {
    lr_mult: 2
    decay_mult: 0
  }
  convolution_param {
    num_output: 128
    kernel_size: 1
    weight_filler {
      type: "xavier"
      std: 0.08
    }
    bias_filler {
      type: "constant"
      value: 0.2
    }
  }
}
layer {
  name: "loss1/relu_conv"
  type: "ReLU"
  bottom: "loss1/conv"
  top: "loss1/conv"
}
layer {
  name: "loss1/fc"
  type: "InnerProduct"
  bottom: "loss1/conv"
  top: "loss1/fc"
  param {
    lr_mult: 1
    decay_mult: 1
  }
  param {
    lr_mult: 2
    decay_mult: 0
  }
  inner_product_param {
    num_output: 1024
    weight_filler {
      type: "xavier"
      std: 0.02
    }
    bias_filler {
      type: "constant"
      value: 0.2
    }
  }
}
layer {
  name: "loss1/relu_fc"
  type: "ReLU"
  bottom: "loss1/fc"
  top: "loss1/fc"
}
layer {
  name: "loss1/drop_fc"
  type: "Dropout"
  bottom: "loss1/fc"
  top: "loss1/fc"
  dropout_param {
    dropout_ratio: 0.7
  }
}
layer {
  name: "loss1/classifier_plantvillage"
  type: "InnerProduct"
  bottom: "loss1/fc"
  top: "loss1/classifier_plantvillage"
  param {
    lr_mult: 1
    decay_mult: 1
  }
  param {
    lr_mult: 2
    decay_mult: 0
  }
  inner_product_param {
    num_output: 38
    weight_filler {
      type: "xavier"
      std: 0.0009765625
    }
    bias_filler {
      type: "constant"
      value: 0
    }
  }
}
layer {
  name: "inception_4b/1x1"
  type: "Convolution"
  bottom: "inception_4a/output"
  top: "inception_4b/1x1"
  param {
    lr_mult: 1
    decay_mult: 1
  }
  param {
    lr_mult: 2
    decay_mult: 0
  }
  convolution_param {
    num_output: 160
    kernel_size: 1
    weight_filler {
      type: "xavier"
      std: 0.03
    }
    bias_filler {
      type: "constant"
      value: 0.2
    }
  }
}
layer {
  name: "inception_4b/relu_1x1"
  type: "ReLU"
  bottom: "inception_4b/1x1"
  top: "inception_4b/1x1"
}
layer {
  name: "inception_4b/3x3_reduce"
  type: "Convolution"
  bottom: "inception_4a/output"
  top: "inception_4b/3x3_reduce"
  param {
    lr_mult: 1
    decay_mult: 1
  }
  param {
    lr_mult: 2
    decay_mult: 0
  }
  convolution_param {
    num_output: 112
    kernel_size: 1
    weight_filler {
      type: "xavier"
      std: 0.09
    }
    bias_filler {
      type: "constant"
      value: 0.2
    }
  }
}
layer {
  name: "inception_4b/relu_3x3_reduce"
  type: "ReLU"
  bottom: "inception_4b/3x3_reduce"
  top: "inception_4b/3x3_reduce"
}
layer {
  name: "inception_4b/3x3"
  type: "Convolution"
  bottom: "inception_4b/3x3_reduce"
  top: "inception_4b/3x3"
  param {
    lr_mult: 1
    decay_mult: 1
  }
  param {
    lr_mult: 2
    decay_mult: 0
  }
  convolution_param {
    num_output: 224
    pad: 1
    kernel_size: 3
    weight_filler {
      type: "xavier"
      std: 0.03
    }
    bias_filler {
      type: "constant"
      value: 0.2
    }
  }
}
layer {
  name: "inception_4b/relu_3x3"
  type: "ReLU"
  bottom: "inception_4b/3x3"
  top: "inception_4b/3x3"
}
layer {
  name: "inception_4b/5x5_reduce"
  type: "Convolution"
  bottom: "inception_4a/output"
  top: "inception_4b/5x5_reduce"
  param {
    lr_mult: 1
    decay_mult: 1
  }
  param {
    lr_mult: 2
    decay_mult: 0
  }
  convolution_param {
    num_output: 24
    kernel_size: 1
    weight_filler {
      type: "xavier"
      std: 0.2
    }
    bias_filler {
      type: "constant"
      value: 0.2
    }
  }
}
layer {
  name: "inception_4b/relu_5x5_reduce"
  type: "ReLU"
  bottom: "inception_4b/5x5_reduce"
  top: "inception_4b/5x5_reduce"
}
layer {
  name: "inception_4b/5x5"
  type: "Convolution"
  bottom: "inception_4b/5x5_reduce"
  top: "inception_4b/5x5"
  param {
    lr_mult: 1
    decay_mult: 1
  }
  param {
    lr_mult: 2
    decay_mult: 0
  }
  convolution_param {
    num_output: 64
    pad: 2
    kernel_size: 5
    weight_filler {
      type: "xavier"
      std: 0.03
    }
    bias_filler {
      type: "constant"
      value: 0.2
    }
  }
}
layer {
  name: "inception_4b/relu_5x5"
  type: "ReLU"
  bottom: "inception_4b/5x5"
  top: "inception_4b/5x5"
}
layer {
  name: "inception_4b/pool"
  type: "Pooling"
  bottom: "inception_4a/output"
  top: "inception_4b/pool"
  pooling_param {
    pool: MAX
    kernel_size: 3
    stride: 1
    pad: 1
  }
}
layer {
  name: "inception_4b/pool_proj"
  type: "Convolution"
  bottom: "inception_4b/pool"
  top: "inception_4b/pool_proj"
  param {
    lr_mult: 1
    decay_mult: 1
  }
  param {
    lr_mult: 2
    decay_mult: 0
  }
  convolution_param {
    num_output: 64
    kernel_size: 1
    weight_filler {
      type: "xavier"
      std: 0.1
    }
    bias_filler {
      type: "constant"
      value: 0.2
    }
  }
}
layer {
  name: "inception_4b/relu_pool_proj"
  type: "ReLU"
  bottom: "inception_4b/pool_proj"
  top: "inception_4b/pool_proj"
}
layer {
  name: "inception_4b/output"
  type: "Concat"
  bottom: "inception_4b/1x1"
  bottom: "inception_4b/3x3"
  bottom: "inception_4b/5x5"
  bottom: "inception_4b/pool_proj"
  top: "inception_4b/output"
}
layer {
  name: "inception_4c/1x1"
  type: "Convolution"
  bottom: "inception_4b/output"
  top: "inception_4c/1x1"
  param {
    lr_mult: 1
    decay_mult: 1
  }
  param {
    lr_mult: 2
    decay_mult: 0
  }
  convolution_param {
    num_output: 128
    kernel_size: 1
    weight_filler {
      type: "xavier"
      std: 0.03
    }
    bias_filler {
      type: "constant"
      value: 0.2
    }
  }
}
layer {
  name: "inception_4c/relu_1x1"
  type: "ReLU"
  bottom: "inception_4c/1x1"
  top: "inception_4c/1x1"
}
layer {
  name: "inception_4c/3x3_reduce"
  type: "Convolution"
  bottom: "inception_4b/output"
  top: "inception_4c/3x3_reduce"
  param {
    lr_mult: 1
    decay_mult: 1
  }
  param {
    lr_mult: 2
    decay_mult: 0
  }
  convolution_param {
    num_output: 128
    kernel_size: 1
    weight_filler {
      type: "xavier"
      std: 0.09
    }
    bias_filler {
      type: "constant"
      value: 0.2
    }
  }
}
layer {
  name: "inception_4c/relu_3x3_reduce"
  type: "ReLU"
  bottom: "inception_4c/3x3_reduce"
  top: "inception_4c/3x3_reduce"
}
layer {
  name: "inception_4c/3x3"
  type: "Convolution"
  bottom: "inception_4c/3x3_reduce"
  top: "inception_4c/3x3"
  param {
    lr_mult: 1
    decay_mult: 1
  }
  param {
    lr_mult: 2
    decay_mult: 0
  }
  convolution_param {
    num_output: 256
    pad: 1
    kernel_size: 3
    weight_filler {
      type: "xavier"
      std: 0.03
    }
    bias_filler {
      type: "constant"
      value: 0.2
    }
  }
}
layer {
  name: "inception_4c/relu_3x3"
  type: "ReLU"
  bottom: "inception_4c/3x3"
  top: "inception_4c/3x3"
}
layer {
  name: "inception_4c/5x5_reduce"
  type: "Convolution"
  bottom: "inception_4b/output"
  top: "inception_4c/5x5_reduce"
  param {
    lr_mult: 1
    decay_mult: 1
  }
  param {
    lr_mult: 2
    decay_mult: 0
  }
  convolution_param {
    num_output: 24
    kernel_size: 1
    weight_filler {
      type: "xavier"
      std: 0.2
    }
    bias_filler {
      type: "constant"
      value: 0.2
    }
  }
}
layer {
  name: "inception_4c/relu_5x5_reduce"
  type: "ReLU"
  bottom: "inception_4c/5x5_reduce"
  top: "inception_4c/5x5_reduce"
}
layer {
  name: "inception_4c/5x5"
  type: "Convolution"
  bottom: "inception_4c/5x5_reduce"
  top: "inception_4c/5x5"
  param {
    lr_mult: 1
    decay_mult: 1
  }
  param {
    lr_mult: 2
    decay_mult: 0
  }
  convolution_param {
    num_output: 64
    pad: 2
    kernel_size: 5
    weight_filler {
      type: "xavier"
      std: 0.03
    }
    bias_filler {
      type: "constant"
      value: 0.2
    }
  }
}
layer {
  name: "inception_4c/relu_5x5"
  type: "ReLU"
  bottom: "inception_4c/5x5"
  top: "inception_4c/5x5"
}
layer {
  name: "inception_4c/pool"
  type: "Pooling"
  bottom: "inception_4b/output"
  top: "inception_4c/pool"
  pooling_param {
    pool: MAX
    kernel_size: 3
    stride: 1
    pad: 1
  }
}
layer {
  name: "inception_4c/pool_proj"
  type: "Convolution"
  bottom: "inception_4c/pool"
  top: "inception_4c/pool_proj"
  param {
    lr_mult: 1
    decay_mult: 1
  }
  param {
    lr_mult: 2
    decay_mult: 0
  }
  convolution_param {
    num_output: 64
    kernel_size: 1
    weight_filler {
      type: "xavier"
      std: 0.1
    }
    bias_filler {
      type: "constant"
      value: 0.2
    }
  }
}
layer {
  name: "inception_4c/relu_pool_proj"
  type: "ReLU"
  bottom: "inception_4c/pool_proj"
  top: "inception_4c/pool_proj"
}
layer {
  name: "inception_4c/output"
  type: "Concat"
  bottom: "inception_4c/1x1"
  bottom: "inception_4c/3x3"
  bottom: "inception_4c/5x5"
  bottom: "inception_4c/pool_proj"
  top: "inception_4c/output"
}
layer {
  name: "inception_4d/1x1"
  type: "Convolution"
  bottom: "inception_4c/output"
  top: "inception_4d/1x1"
  param {
    lr_mult: 1
    decay_mult: 1
  }
  param {
    lr_mult: 2
    decay_mult: 0
  }
  convolution_param {
    num_output: 112
    kernel_size: 1
    weight_filler {
      type: "xavier"
      std: 0.03
    }
    bias_filler {
      type: "constant"
      value: 0.2
    }
  }
}
layer {
  name: "inception_4d/relu_1x1"
  type: "ReLU"
  bottom: "inception_4d/1x1"
  top: "inception_4d/1x1"
}
layer {
  name: "inception_4d/3x3_reduce"
  type: "Convolution"
  bottom: "inception_4c/output"
  top: "inception_4d/3x3_reduce"
  param {
    lr_mult: 1
    decay_mult: 1
  }
  param {
    lr_mult: 2
    decay_mult: 0
  }
  convolution_param {
    num_output: 144
    kernel_size: 1
    weight_filler {
      type: "xavier"
      std: 0.09
    }
    bias_filler {
      type: "constant"
      value: 0.2
    }
  }
}
layer {
  name: "inception_4d/relu_3x3_reduce"
  type: "ReLU"
  bottom: "inception_4d/3x3_reduce"
  top: "inception_4d/3x3_reduce"
}
layer {
  name: "inception_4d/3x3"
  type: "Convolution"
  bottom: "inception_4d/3x3_reduce"
  top: "inception_4d/3x3"
  param {
    lr_mult: 1
    decay_mult: 1
  }
  param {
    lr_mult: 2
    decay_mult: 0
  }
  convolution_param {
    num_output: 288
    pad: 1
    kernel_size: 3
    weight_filler {
      type: "xavier"
      std: 0.03
    }
    bias_filler {
      type: "constant"
      value: 0.2
    }
  }
}
layer {
  name: "inception_4d/relu_3x3"
  type: "ReLU"
  bottom: "inception_4d/3x3"
  top: "inception_4d/3x3"
}
layer {
  name: "inception_4d/5x5_reduce"
  type: "Convolution"
  bottom: "inception_4c/output"
  top: "inception_4d/5x5_reduce"
  param {
    lr_mult: 1
    decay_mult: 1
  }
  param {
    lr_mult: 2
    decay_mult: 0
  }
  convolution_param {
    num_output: 32
    kernel_size: 1
    weight_filler {
      type: "xavier"
      std: 0.2
    }
    bias_filler {
      type: "constant"
      value: 0.2
    }
  }
}
layer {
  name: "inception_4d/relu_5x5_reduce"
  type: "ReLU"
  bottom: "inception_4d/5x5_reduce"
  top: "inception_4d/5x5_reduce"
}
layer {
  name: "inception_4d/5x5"
  type: "Convolution"
  bottom: "inception_4d/5x5_reduce"
  top: "inception_4d/5x5"
  param {
    lr_mult: 1
    decay_mult: 1
  }
  param {
    lr_mult: 2
    decay_mult: 0
  }
  convolution_param {
    num_output: 64
    pad: 2
    kernel_size: 5
    weight_filler {
      type: "xavier"
      std: 0.03
    }
    bias_filler {
      type: "constant"
      value: 0.2
    }
  }
}
layer {
  name: "inception_4d/relu_5x5"
  type: "ReLU"
  bottom: "inception_4d/5x5"
  top: "inception_4d/5x5"
}
layer {
  name: "inception_4d/pool"
  type: "Pooling"
  bottom: "inception_4c/output"
  top: "inception_4d/pool"
  pooling_param {
    pool: MAX
    kernel_size: 3
    stride: 1
    pad: 1
  }
}
layer {
  name: "inception_4d/pool_proj"
  type: "Convolution"
  bottom: "inception_4d/pool"
  top: "inception_4d/pool_proj"
  param {
    lr_mult: 1
    decay_mult: 1
  }
  param {
    lr_mult: 2
    decay_mult: 0
  }
  convolution_param {
    num_output: 64
    kernel_size: 1
    weight_filler {
      type: "xavier"
      std: 0.1
    }
    bias_filler {
      type: "constant"
      value: 0.2
    }
  }
}
layer {
  name: "inception_4d/relu_pool_proj"
  type: "ReLU"
  bottom: "inception_4d/pool_proj"
  top: "inception_4d/pool_proj"
}
layer {
  name: "inception_4d/output"
  type: "Concat"
  bottom: "inception_4d/1x1"
  bottom: "inception_4d/3x3"
  bottom: "inception_4d/5x5"
  bottom: "inception_4d/pool_proj"
  top: "inception_4d/output"
}
layer {
  name: "loss2/ave_pool"
  type: "Pooling"
  bottom: "inception_4d/output"
  top: "loss2/ave_pool"
  pooling_param {
    pool: AVE
    kernel_size: 5
    stride: 3
  }
}
layer {
  name: "loss2/conv"
  type: "Convolution"
  bottom: "loss2/ave_pool"
  top: "loss2/conv"
  param {
    lr_mult: 1
    decay_mult: 1
  }
  param {
    lr_mult: 2
    decay_mult: 0
  }
  convolution_param {
    num_output: 128
    kernel_size: 1
    weight_filler {
      type: "xavier"
      std: 0.08
    }
    bias_filler {
      type: "constant"
      value: 0.2
    }
  }
}
layer {
  name: "loss2/relu_conv"
  type: "ReLU"
  bottom: "loss2/conv"
  top: "loss2/conv"
}
layer {
  name: "loss2/fc"
  type: "InnerProduct"
  bottom: "loss2/conv"
  top: "loss2/fc"
  param {
    lr_mult: 1
    decay_mult: 1
  }
  param {
    lr_mult: 2
    decay_mult: 0
  }
  inner_product_param {
    num_output: 1024
    weight_filler {
      type: "xavier"
      std: 0.02
    }
    bias_filler {
      type: "constant"
      value: 0.2
    }
  }
}
layer {
  name: "loss2/relu_fc"
  type: "ReLU"
  bottom: "loss2/fc"
  top: "loss2/fc"
}
layer {
  name: "loss2/drop_fc"
  type: "Dropout"
  bottom: "loss2/fc"
  top: "loss2/fc"
  dropout_param {
    dropout_ratio: 0.7
  }
}
layer {
  name: "loss2/classifier_plantvillage"
  type: "InnerProduct"
  bottom: "loss2/fc"
  top: "loss2/classifier_plantvillage"
  param {
    lr_mult: 1
    decay_mult: 1
  }
  param {
    lr_mult: 2
    decay_mult: 0
  }
  inner_product_param {
    num_output: 38
    weight_filler {
      type: "xavier"
      std: 0.0009765625
    }
    bias_filler {
      type: "constant"
      value: 0
    }
  }
}
layer {
  name: "inception_4e/1x1"
  type: "Convolution"
  bottom: "inception_4d/output"
  top: "inception_4e/1x1"
  param {
    lr_mult: 1
    decay_mult: 1
  }
  param {
    lr_mult: 2
    decay_mult: 0
  }
  convolution_param {
    num_output: 256
    kernel_size: 1
    weight_filler {
      type: "xavier"
      std: 0.03
    }
    bias_filler {
      type: "constant"
      value: 0.2
    }
  }
}
layer {
  name: "inception_4e/relu_1x1"
  type: "ReLU"
  bottom: "inception_4e/1x1"
  top: "inception_4e/1x1"
}
layer {
  name: "inception_4e/3x3_reduce"
  type: "Convolution"
  bottom: "inception_4d/output"
  top: "inception_4e/3x3_reduce"
  param {
    lr_mult: 1
    decay_mult: 1
  }
  param {
    lr_mult: 2
    decay_mult: 0
  }
  convolution_param {
    num_output: 160
    kernel_size: 1
    weight_filler {
      type: "xavier"
      std: 0.09
    }
    bias_filler {
      type: "constant"
      value: 0.2
    }
  }
}
layer {
  name: "inception_4e/relu_3x3_reduce"
  type: "ReLU"
  bottom: "inception_4e/3x3_reduce"
  top: "inception_4e/3x3_reduce"
}
layer {
  name: "inception_4e/3x3"
  type: "Convolution"
  bottom: "inception_4e/3x3_reduce"
  top: "inception_4e/3x3"
  param {
    lr_mult: 1
    decay_mult: 1
  }
  param {
    lr_mult: 2
    decay_mult: 0
  }
  convolution_param {
    num_output: 320
    pad: 1
    kernel_size: 3
    weight_filler {
      type: "xavier"
      std: 0.03
    }
    bias_filler {
      type: "constant"
      value: 0.2
    }
  }
}
layer {
  name: "inception_4e/relu_3x3"
  type: "ReLU"
  bottom: "inception_4e/3x3"
  top: "inception_4e/3x3"
}
layer {
  name: "inception_4e/5x5_reduce"
  type: "Convolution"
  bottom: "inception_4d/output"
  top: "inception_4e/5x5_reduce"
  param {
    lr_mult: 1
    decay_mult: 1
  }
  param {
    lr_mult: 2
    decay_mult: 0
  }
  convolution_param {
    num_output: 32
    kernel_size: 1
    weight_filler {
      type: "xavier"
      std: 0.2
    }
    bias_filler {
      type: "constant"
      value: 0.2
    }
  }
}
layer {
  name: "inception_4e/relu_5x5_reduce"
  type: "ReLU"
  bottom: "inception_4e/5x5_reduce"
  top: "inception_4e/5x5_reduce"
}
layer {
  name: "inception_4e/5x5"
  type: "Convolution"
  bottom: "inception_4e/5x5_reduce"
  top: "inception_4e/
I0403 18:12:25.032131  6687 layer_factory.hpp:77] Creating layer data
I0403 18:12:25.032750  6687 net.cpp:91] Creating Layer data
I0403 18:12:25.032783  6687 net.cpp:399] data -> data
I0403 18:12:25.032834  6687 net.cpp:399] data -> label
I0403 18:12:25.032869  6687 data_transformer.cpp:25] Loading mean file from: /home/mohanty/data/final_dataset/lmdb/grayscale-40-60/mean.binaryproto
I0403 18:12:25.046020  6692 db_lmdb.cpp:38] Opened lmdb /home/mohanty/data/final_dataset/lmdb/grayscale-40-60/test_db
I0403 18:12:25.050933  6687 data_layer.cpp:41] output data size: 24,3,224,224
I0403 18:12:25.079042  6687 net.cpp:141] Setting up data
I0403 18:12:25.079138  6687 net.cpp:148] Top shape: 24 3 224 224 (3612672)
I0403 18:12:25.079160  6687 net.cpp:148] Top shape: 24 (24)
I0403 18:12:25.079175  6687 net.cpp:156] Memory required for data: 14450784
I0403 18:12:25.079201  6687 layer_factory.hpp:77] Creating layer label_data_1_split
I0403 18:12:25.079227  6687 net.cpp:91] Creating Layer label_data_1_split
I0403 18:12:25.079249  6687 net.cpp:425] label_data_1_split <- label
I0403 18:12:25.079282  6687 net.cpp:399] label_data_1_split -> label_data_1_split_0
I0403 18:12:25.079308  6687 net.cpp:399] label_data_1_split -> label_data_1_split_1
I0403 18:12:25.079329  6687 net.cpp:399] label_data_1_split -> label_data_1_split_2
I0403 18:12:25.079350  6687 net.cpp:399] label_data_1_split -> label_data_1_split_3
I0403 18:12:25.079370  6687 net.cpp:399] label_data_1_split -> label_data_1_split_4
I0403 18:12:25.079388  6687 net.cpp:399] label_data_1_split -> label_data_1_split_5
I0403 18:12:25.079406  6687 net.cpp:399] label_data_1_split -> label_data_1_split_6
I0403 18:12:25.079427  6687 net.cpp:399] label_data_1_split -> label_data_1_split_7
I0403 18:12:25.079445  6687 net.cpp:399] label_data_1_split -> label_data_1_split_8
I0403 18:12:25.079465  6687 net.cpp:399] label_data_1_split -> label_data_1_split_9
I0403 18:12:25.079579  6687 net.cpp:141] Setting up label_data_1_split
I0403 18:12:25.079602  6687 net.cpp:148] Top shape: 24 (24)
I0403 18:12:25.079618  6687 net.cpp:148] Top shape: 24 (24)
I0403 18:12:25.079634  6687 net.cpp:148] Top shape: 24 (24)
I0403 18:12:25.079649  6687 net.cpp:148] Top shape: 24 (24)
I0403 18:12:25.079665  6687 net.cpp:148] Top shape: 24 (24)
I0403 18:12:25.079680  6687 net.cpp:148] Top shape: 24 (24)
I0403 18:12:25.079695  6687 net.cpp:148] Top shape: 24 (24)
I0403 18:12:25.079711  6687 net.cpp:148] Top shape: 24 (24)
I0403 18:12:25.079726  6687 net.cpp:148] Top shape: 24 (24)
I0403 18:12:25.079743  6687 net.cpp:148] Top shape: 24 (24)
I0403 18:12:25.079785  6687 net.cpp:156] Memory required for data: 14451744
I0403 18:12:25.079802  6687 layer_factory.hpp:77] Creating layer conv1/7x7_s2
I0403 18:12:25.079833  6687 net.cpp:91] Creating Layer conv1/7x7_s2
I0403 18:12:25.079850  6687 net.cpp:425] conv1/7x7_s2 <- data
I0403 18:12:25.079869  6687 net.cpp:399] conv1/7x7_s2 -> conv1/7x7_s2
I0403 18:12:25.223371  6687 net.cpp:141] Setting up conv1/7x7_s2
I0403 18:12:25.223484  6687 net.cpp:148] Top shape: 24 64 112 112 (19267584)
I0403 18:12:25.223502  6687 net.cpp:156] Memory required for data: 91522080
I0403 18:12:25.223536  6687 layer_factory.hpp:77] Creating layer conv1/relu_7x7
I0403 18:12:25.223564  6687 net.cpp:91] Creating Layer conv1/relu_7x7
I0403 18:12:25.223584  6687 net.cpp:425] conv1/relu_7x7 <- conv1/7x7_s2
I0403 18:12:25.223604  6687 net.cpp:386] conv1/relu_7x7 -> conv1/7x7_s2 (in-place)
I0403 18:12:25.223870  6687 net.cpp:141] Setting up conv1/relu_7x7
I0403 18:12:25.223899  6687 net.cpp:148] Top shape: 24 64 112 112 (19267584)
I0403 18:12:25.223917  6687 net.cpp:156] Memory required for data: 168592416
I0403 18:12:25.223933  6687 layer_factory.hpp:77] Creating layer pool1/3x3_s2
I0403 18:12:25.223959  6687 net.cpp:91] Creating Layer pool1/3x3_s2
I0403 18:12:25.223978  6687 net.cpp:425] pool1/3x3_s2 <- conv1/7x7_s2
I0403 18:12:25.223999  6687 net.cpp:399] pool1/3x3_s2 -> pool1/3x3_s2
I0403 18:12:25.224073  6687 net.cpp:141] Setting up pool1/3x3_s2
I0403 18:12:25.224099  6687 net.cpp:148] Top shape: 24 64 56 56 (4816896)
I0403 18:12:25.224117  6687 net.cpp:156] Memory required for data: 187860000
I0403 18:12:25.224133  6687 layer_factory.hpp:77] Creating layer pool1/norm1
I0403 18:12:25.224158  6687 net.cpp:91] Creating Layer pool1/norm1
I0403 18:12:25.224176  6687 net.cpp:425] pool1/norm1 <- pool1/3x3_s2
I0403 18:12:25.224195  6687 net.cpp:399] pool1/norm1 -> pool1/norm1
I0403 18:12:25.224521  6687 net.cpp:141] Setting up pool1/norm1
I0403 18:12:25.224550  6687 net.cpp:148] Top shape: 24 64 56 56 (4816896)
I0403 18:12:25.224567  6687 net.cpp:156] Memory required for data: 207127584
I0403 18:12:25.224583  6687 layer_factory.hpp:77] Creating layer conv2/3x3_reduce
I0403 18:12:25.224609  6687 net.cpp:91] Creating Layer conv2/3x3_reduce
I0403 18:12:25.224627  6687 net.cpp:425] conv2/3x3_reduce <- pool1/norm1
I0403 18:12:25.224647  6687 net.cpp:399] conv2/3x3_reduce -> conv2/3x3_reduce
I0403 18:12:25.226089  6687 net.cpp:141] Setting up conv2/3x3_reduce
I0403 18:12:25.226119  6687 net.cpp:148] Top shape: 24 64 56 56 (4816896)
I0403 18:12:25.226135  6687 net.cpp:156] Memory required for data: 226395168
I0403 18:12:25.226156  6687 layer_factory.hpp:77] Creating layer conv2/relu_3x3_reduce
I0403 18:12:25.226176  6687 net.cpp:91] Creating Layer conv2/relu_3x3_reduce
I0403 18:12:25.226192  6687 net.cpp:425] conv2/relu_3x3_reduce <- conv2/3x3_reduce
I0403 18:12:25.226210  6687 net.cpp:386] conv2/relu_3x3_reduce -> conv2/3x3_reduce (in-place)
I0403 18:12:25.226470  6687 net.cpp:141] Setting up conv2/relu_3x3_reduce
I0403 18:12:25.226498  6687 net.cpp:148] Top shape: 24 64 56 56 (4816896)
I0403 18:12:25.226513  6687 net.cpp:156] Memory required for data: 245662752
I0403 18:12:25.226529  6687 layer_factory.hpp:77] Creating layer conv2/3x3
I0403 18:12:25.226552  6687 net.cpp:91] Creating Layer conv2/3x3
I0403 18:12:25.226570  6687 net.cpp:425] conv2/3x3 <- conv2/3x3_reduce
I0403 18:12:25.226588  6687 net.cpp:399] conv2/3x3 -> conv2/3x3
I0403 18:12:25.228938  6687 net.cpp:141] Setting up conv2/3x3
I0403 18:12:25.228970  6687 net.cpp:148] Top shape: 24 192 56 56 (14450688)
I0403 18:12:25.228986  6687 net.cpp:156] Memory required for data: 303465504
I0403 18:12:25.229007  6687 layer_factory.hpp:77] Creating layer conv2/relu_3x3
I0403 18:12:25.229029  6687 net.cpp:91] Creating Layer conv2/relu_3x3
I0403 18:12:25.229048  6687 net.cpp:425] conv2/relu_3x3 <- conv2/3x3
I0403 18:12:25.229079  6687 net.cpp:386] conv2/relu_3x3 -> conv2/3x3 (in-place)
I0403 18:12:25.229270  6687 net.cpp:141] Setting up conv2/relu_3x3
I0403 18:12:25.229300  6687 net.cpp:148] Top shape: 24 192 56 56 (14450688)
I0403 18:12:25.229349  6687 net.cpp:156] Memory required for data: 361268256
I0403 18:12:25.229367  6687 layer_factory.hpp:77] Creating layer conv2/norm2
I0403 18:12:25.229387  6687 net.cpp:91] Creating Layer conv2/norm2
I0403 18:12:25.229404  6687 net.cpp:425] conv2/norm2 <- conv2/3x3
I0403 18:12:25.229426  6687 net.cpp:399] conv2/norm2 -> conv2/norm2
I0403 18:12:25.229746  6687 net.cpp:141] Setting up conv2/norm2
I0403 18:12:25.229785  6687 net.cpp:148] Top shape: 24 192 56 56 (14450688)
I0403 18:12:25.229801  6687 net.cpp:156] Memory required for data: 419071008
I0403 18:12:25.229816  6687 layer_factory.hpp:77] Creating layer pool2/3x3_s2
I0403 18:12:25.229835  6687 net.cpp:91] Creating Layer pool2/3x3_s2
I0403 18:12:25.229851  6687 net.cpp:425] pool2/3x3_s2 <- conv2/norm2
I0403 18:12:25.229871  6687 net.cpp:399] pool2/3x3_s2 -> pool2/3x3_s2
I0403 18:12:25.229925  6687 net.cpp:141] Setting up pool2/3x3_s2
I0403 18:12:25.229949  6687 net.cpp:148] Top shape: 24 192 28 28 (3612672)
I0403 18:12:25.229964  6687 net.cpp:156] Memory required for data: 433521696
I0403 18:12:25.229980  6687 layer_factory.hpp:77] Creating layer pool2/3x3_s2_pool2/3x3_s2_0_split
I0403 18:12:25.230000  6687 net.cpp:91] Creating Layer pool2/3x3_s2_pool2/3x3_s2_0_split
I0403 18:12:25.230016  6687 net.cpp:425] pool2/3x3_s2_pool2/3x3_s2_0_split <- pool2/3x3_s2
I0403 18:12:25.230036  6687 net.cpp:399] pool2/3x3_s2_pool2/3x3_s2_0_split -> pool2/3x3_s2_pool2/3x3_s2_0_split_0
I0403 18:12:25.230058  6687 net.cpp:399] pool2/3x3_s2_pool2/3x3_s2_0_split -> pool2/3x3_s2_pool2/3x3_s2_0_split_1
I0403 18:12:25.230078  6687 net.cpp:399] pool2/3x3_s2_pool2/3x3_s2_0_split -> pool2/3x3_s2_pool2/3x3_s2_0_split_2
I0403 18:12:25.230099  6687 net.cpp:399] pool2/3x3_s2_pool2/3x3_s2_0_split -> pool2/3x3_s2_pool2/3x3_s2_0_split_3
I0403 18:12:25.230170  6687 net.cpp:141] Setting up pool2/3x3_s2_pool2/3x3_s2_0_split
I0403 18:12:25.230191  6687 net.cpp:148] Top shape: 24 192 28 28 (3612672)
I0403 18:12:25.230208  6687 net.cpp:148] Top shape: 24 192 28 28 (3612672)
I0403 18:12:25.230224  6687 net.cpp:148] Top shape: 24 192 28 28 (3612672)
I0403 18:12:25.230244  6687 net.cpp:148] Top shape: 24 192 28 28 (3612672)
I0403 18:12:25.230259  6687 net.cpp:156] Memory required for data: 491324448
I0403 18:12:25.230275  6687 layer_factory.hpp:77] Creating layer inception_3a/1x1
I0403 18:12:25.230299  6687 net.cpp:91] Creating Layer inception_3a/1x1
I0403 18:12:25.230317  6687 net.cpp:425] inception_3a/1x1 <- pool2/3x3_s2_pool2/3x3_s2_0_split_0
I0403 18:12:25.230339  6687 net.cpp:399] inception_3a/1x1 -> inception_3a/1x1
I0403 18:12:25.231905  6687 net.cpp:141] Setting up inception_3a/1x1
I0403 18:12:25.231935  6687 net.cpp:148] Top shape: 24 64 28 28 (1204224)
I0403 18:12:25.231950  6687 net.cpp:156] Memory required for data: 496141344
I0403 18:12:25.231969  6687 layer_factory.hpp:77] Creating layer inception_3a/relu_1x1
I0403 18:12:25.231991  6687 net.cpp:91] Creating Layer inception_3a/relu_1x1
I0403 18:12:25.232007  6687 net.cpp:425] inception_3a/relu_1x1 <- inception_3a/1x1
I0403 18:12:25.232025  6687 net.cpp:386] inception_3a/relu_1x1 -> inception_3a/1x1 (in-place)
I0403 18:12:25.232198  6687 net.cpp:141] Setting up inception_3a/relu_1x1
I0403 18:12:25.232223  6687 net.cpp:148] Top shape: 24 64 28 28 (1204224)
I0403 18:12:25.232239  6687 net.cpp:156] Memory required for data: 500958240
I0403 18:12:25.232267  6687 layer_factory.hpp:77] Creating layer inception_3a/3x3_reduce
I0403 18:12:25.232295  6687 net.cpp:91] Creating Layer inception_3a/3x3_reduce
I0403 18:12:25.232311  6687 net.cpp:425] inception_3a/3x3_reduce <- pool2/3x3_s2_pool2/3x3_s2_0_split_1
I0403 18:12:25.232331  6687 net.cpp:399] inception_3a/3x3_reduce -> inception_3a/3x3_reduce
I0403 18:12:25.234022  6687 net.cpp:141] Setting up inception_3a/3x3_reduce
I0403 18:12:25.234051  6687 net.cpp:148] Top shape: 24 96 28 28 (1806336)
I0403 18:12:25.234067  6687 net.cpp:156] Memory required for data: 508183584
I0403 18:12:25.234089  6687 layer_factory.hpp:77] Creating layer inception_3a/relu_3x3_reduce
I0403 18:12:25.234127  6687 net.cpp:91] Creating Layer inception_3a/relu_3x3_reduce
I0403 18:12:25.234144  6687 net.cpp:425] inception_3a/relu_3x3_reduce <- inception_3a/3x3_reduce
I0403 18:12:25.234163  6687 net.cpp:386] inception_3a/relu_3x3_reduce -> inception_3a/3x3_reduce (in-place)
I0403 18:12:25.234354  6687 net.cpp:141] Setting up inception_3a/relu_3x3_reduce
I0403 18:12:25.234380  6687 net.cpp:148] Top shape: 24 96 28 28 (1806336)
I0403 18:12:25.234395  6687 net.cpp:156] Memory required for data: 515408928
I0403 18:12:25.234410  6687 layer_factory.hpp:77] Creating layer inception_3a/3x3
I0403 18:12:25.234432  6687 net.cpp:91] Creating Layer inception_3a/3x3
I0403 18:12:25.234449  6687 net.cpp:425] inception_3a/3x3 <- inception_3a/3x3_reduce
I0403 18:12:25.234472  6687 net.cpp:399] inception_3a/3x3 -> inception_3a/3x3
I0403 18:12:25.236114  6687 net.cpp:141] Setting up inception_3a/3x3
I0403 18:12:25.236143  6687 net.cpp:148] Top shape: 24 128 28 28 (2408448)
I0403 18:12:25.236158  6687 net.cpp:156] Memory required for data: 525042720
I0403 18:12:25.236177  6687 layer_factory.hpp:77] Creating layer inception_3a/relu_3x3
I0403 18:12:25.236198  6687 net.cpp:91] Creating Layer inception_3a/relu_3x3
I0403 18:12:25.236215  6687 net.cpp:425] inception_3a/relu_3x3 <- inception_3a/3x3
I0403 18:12:25.236233  6687 net.cpp:386] inception_3a/relu_3x3 -> inception_3a/3x3 (in-place)
I0403 18:12:25.236515  6687 net.cpp:141] Setting up inception_3a/relu_3x3
I0403 18:12:25.236541  6687 net.cpp:148] Top shape: 24 128 28 28 (2408448)
I0403 18:12:25.236555  6687 net.cpp:156] Memory required for data: 534676512
I0403 18:12:25.236570  6687 layer_factory.hpp:77] Creating layer inception_3a/5x5_reduce
I0403 18:12:25.236593  6687 net.cpp:91] Creating Layer inception_3a/5x5_reduce
I0403 18:12:25.236610  6687 net.cpp:425] inception_3a/5x5_reduce <- pool2/3x3_s2_pool2/3x3_s2_0_split_2
I0403 18:12:25.236631  6687 net.cpp:399] inception_3a/5x5_reduce -> inception_3a/5x5_reduce
I0403 18:12:25.237596  6687 net.cpp:141] Setting up inception_3a/5x5_reduce
I0403 18:12:25.237625  6687 net.cpp:148] Top shape: 24 16 28 28 (301056)
I0403 18:12:25.237642  6687 net.cpp:156] Memory required for data: 535880736
I0403 18:12:25.237659  6687 layer_factory.hpp:77] Creating layer inception_3a/relu_5x5_reduce
I0403 18:12:25.237678  6687 net.cpp:91] Creating Layer inception_3a/relu_5x5_reduce
I0403 18:12:25.237692  6687 net.cpp:425] inception_3a/relu_5x5_reduce <- inception_3a/5x5_reduce
I0403 18:12:25.237709  6687 net.cpp:386] inception_3a/relu_5x5_reduce -> inception_3a/5x5_reduce (in-place)
I0403 18:12:25.237994  6687 net.cpp:141] Setting up inception_3a/relu_5x5_reduce
I0403 18:12:25.238023  6687 net.cpp:148] Top shape: 24 16 28 28 (301056)
I0403 18:12:25.238039  6687 net.cpp:156] Memory required for data: 537084960
I0403 18:12:25.238054  6687 layer_factory.hpp:77] Creating layer inception_3a/5x5
I0403 18:12:25.238076  6687 net.cpp:91] Creating Layer inception_3a/5x5
I0403 18:12:25.238093  6687 net.cpp:425] inception_3a/5x5 <- inception_3a/5x5_reduce
I0403 18:12:25.238112  6687 net.cpp:399] inception_3a/5x5 -> inception_3a/5x5
I0403 18:12:25.239128  6687 net.cpp:141] Setting up inception_3a/5x5
I0403 18:12:25.239154  6687 net.cpp:148] Top shape: 24 32 28 28 (602112)
I0403 18:12:25.239169  6687 net.cpp:156] Memory required for data: 539493408
I0403 18:12:25.239187  6687 layer_factory.hpp:77] Creating layer inception_3a/relu_5x5
I0403 18:12:25.239207  6687 net.cpp:91] Creating Layer inception_3a/relu_5x5
I0403 18:12:25.239224  6687 net.cpp:425] inception_3a/relu_5x5 <- inception_3a/5x5
I0403 18:12:25.239245  6687 net.cpp:386] inception_3a/relu_5x5 -> inception_3a/5x5 (in-place)
I0403 18:12:25.239414  6687 net.cpp:141] Setting up inception_3a/relu_5x5
I0403 18:12:25.239439  6687 net.cpp:148] Top shape: 24 32 28 28 (602112)
I0403 18:12:25.239454  6687 net.cpp:156] Memory required for data: 541901856
I0403 18:12:25.239467  6687 layer_factory.hpp:77] Creating layer inception_3a/pool
I0403 18:12:25.239486  6687 net.cpp:91] Creating Layer inception_3a/pool
I0403 18:12:25.239516  6687 net.cpp:425] inception_3a/pool <- pool2/3x3_s2_pool2/3x3_s2_0_split_3
I0403 18:12:25.239537  6687 net.cpp:399] inception_3a/pool -> inception_3a/pool
I0403 18:12:25.239593  6687 net.cpp:141] Setting up inception_3a/pool
I0403 18:12:25.239614  6687 net.cpp:148] Top shape: 24 192 28 28 (3612672)
I0403 18:12:25.239629  6687 net.cpp:156] Memory required for data: 556352544
I0403 18:12:25.239644  6687 layer_factory.hpp:77] Creating layer inception_3a/pool_proj
I0403 18:12:25.239665  6687 net.cpp:91] Creating Layer inception_3a/pool_proj
I0403 18:12:25.239681  6687 net.cpp:425] inception_3a/pool_proj <- inception_3a/pool
I0403 18:12:25.239701  6687 net.cpp:399] inception_3a/pool_proj -> inception_3a/pool_proj
I0403 18:12:25.240643  6687 net.cpp:141] Setting up inception_3a/pool_proj
I0403 18:12:25.240670  6687 net.cpp:148] Top shape: 24 32 28 28 (602112)
I0403 18:12:25.240684  6687 net.cpp:156] Memory required for data: 558760992
I0403 18:12:25.240708  6687 layer_factory.hpp:77] Creating layer inception_3a/relu_pool_proj
I0403 18:12:25.240727  6687 net.cpp:91] Creating Layer inception_3a/relu_pool_proj
I0403 18:12:25.240743  6687 net.cpp:425] inception_3a/relu_pool_proj <- inception_3a/pool_proj
I0403 18:12:25.240761  6687 net.cpp:386] inception_3a/relu_pool_proj -> inception_3a/pool_proj (in-place)
I0403 18:12:25.241025  6687 net.cpp:141] Setting up inception_3a/relu_pool_proj
I0403 18:12:25.241051  6687 net.cpp:148] Top shape: 24 32 28 28 (602112)
I0403 18:12:25.241065  6687 net.cpp:156] Memory required for data: 561169440
I0403 18:12:25.241080  6687 layer_factory.hpp:77] Creating layer inception_3a/output
I0403 18:12:25.241099  6687 net.cpp:91] Creating Layer inception_3a/output
I0403 18:12:25.241116  6687 net.cpp:425] inception_3a/output <- inception_3a/1x1
I0403 18:12:25.241132  6687 net.cpp:425] inception_3a/output <- inception_3a/3x3
I0403 18:12:25.241147  6687 net.cpp:425] inception_3a/output <- inception_3a/5x5
I0403 18:12:25.241163  6687 net.cpp:425] inception_3a/output <- inception_3a/pool_proj
I0403 18:12:25.241178  6687 net.cpp:399] inception_3a/output -> inception_3a/output
I0403 18:12:25.241225  6687 net.cpp:141] Setting up inception_3a/output
I0403 18:12:25.241250  6687 net.cpp:148] Top shape: 24 256 28 28 (4816896)
I0403 18:12:25.241266  6687 net.cpp:156] Memory required for data: 580437024
I0403 18:12:25.241281  6687 layer_factory.hpp:77] Creating layer inception_3a/output_inception_3a/output_0_split
I0403 18:12:25.241297  6687 net.cpp:91] Creating Layer inception_3a/output_inception_3a/output_0_split
I0403 18:12:25.241312  6687 net.cpp:425] inception_3a/output_inception_3a/output_0_split <- inception_3a/output
I0403 18:12:25.241329  6687 net.cpp:399] inception_3a/output_inception_3a/output_0_split -> inception_3a/output_inception_3a/output_0_split_0
I0403 18:12:25.241350  6687 net.cpp:399] inception_3a/output_inception_3a/output_0_split -> inception_3a/output_inception_3a/output_0_split_1
I0403 18:12:25.241371  6687 net.cpp:399] inception_3a/output_inception_3a/output_0_split -> inception_3a/output_inception_3a/output_0_split_2
I0403 18:12:25.241394  6687 net.cpp:399] inception_3a/output_inception_3a/output_0_split -> inception_3a/output_inception_3a/output_0_split_3
I0403 18:12:25.241467  6687 net.cpp:141] Setting up inception_3a/output_inception_3a/output_0_split
I0403 18:12:25.241489  6687 net.cpp:148] Top shape: 24 256 28 28 (4816896)
I0403 18:12:25.241505  6687 net.cpp:148] Top shape: 24 256 28 28 (4816896)
I0403 18:12:25.241520  6687 net.cpp:148] Top shape: 24 256 28 28 (4816896)
I0403 18:12:25.241535  6687 net.cpp:148] Top shape: 24 256 28 28 (4816896)
I0403 18:12:25.241549  6687 net.cpp:156] Memory required for data: 657507360
I0403 18:12:25.241562  6687 layer_factory.hpp:77] Creating layer inception_3b/1x1
I0403 18:12:25.241583  6687 net.cpp:91] Creating Layer inception_3b/1x1
I0403 18:12:25.241600  6687 net.cpp:425] inception_3b/1x1 <- inception_3a/output_inception_3a/output_0_split_0
I0403 18:12:25.241621  6687 net.cpp:399] inception_3b/1x1 -> inception_3b/1x1
I0403 18:12:25.242722  6687 net.cpp:141] Setting up inception_3b/1x1
I0403 18:12:25.242761  6687 net.cpp:148] Top shape: 24 128 28 28 (2408448)
I0403 18:12:25.242777  6687 net.cpp:156] Memory required for data: 667141152
I0403 18:12:25.242796  6687 layer_factory.hpp:77] Creating layer inception_3b/relu_1x1
I0403 18:12:25.242813  6687 net.cpp:91] Creating Layer inception_3b/relu_1x1
I0403 18:12:25.242828  6687 net.cpp:425] inception_3b/relu_1x1 <- inception_3b/1x1
I0403 18:12:25.242847  6687 net.cpp:386] inception_3b/relu_1x1 -> inception_3b/1x1 (in-place)
I0403 18:12:25.243016  6687 net.cpp:141] Setting up inception_3b/relu_1x1
I0403 18:12:25.243041  6687 net.cpp:148] Top shape: 24 128 28 28 (2408448)
I0403 18:12:25.243057  6687 net.cpp:156] Memory required for data: 676774944
I0403 18:12:25.243070  6687 layer_factory.hpp:77] Creating layer inception_3b/3x3_reduce
I0403 18:12:25.243093  6687 net.cpp:91] Creating Layer inception_3b/3x3_reduce
I0403 18:12:25.243110  6687 net.cpp:425] inception_3b/3x3_reduce <- inception_3a/output_inception_3a/output_0_split_1
I0403 18:12:25.243131  6687 net.cpp:399] inception_3b/3x3_reduce -> inception_3b/3x3_reduce
I0403 18:12:25.244225  6687 net.cpp:141] Setting up inception_3b/3x3_reduce
I0403 18:12:25.244256  6687 net.cpp:148] Top shape: 24 128 28 28 (2408448)
I0403 18:12:25.244271  6687 net.cpp:156] Memory required for data: 686408736
I0403 18:12:25.244289  6687 layer_factory.hpp:77] Creating layer inception_3b/relu_3x3_reduce
I0403 18:12:25.244309  6687 net.cpp:91] Creating Layer inception_3b/relu_3x3_reduce
I0403 18:12:25.244325  6687 net.cpp:425] inception_3b/relu_3x3_reduce <- inception_3b/3x3_reduce
I0403 18:12:25.244343  6687 net.cpp:386] inception_3b/relu_3x3_reduce -> inception_3b/3x3_reduce (in-place)
I0403 18:12:25.244509  6687 net.cpp:141] Setting up inception_3b/relu_3x3_reduce
I0403 18:12:25.244534  6687 net.cpp:148] Top shape: 24 128 28 28 (2408448)
I0403 18:12:25.244549  6687 net.cpp:156] Memory required for data: 696042528
I0403 18:12:25.244562  6687 layer_factory.hpp:77] Creating layer inception_3b/3x3
I0403 18:12:25.244587  6687 net.cpp:91] Creating Layer inception_3b/3x3
I0403 18:12:25.244604  6687 net.cpp:425] inception_3b/3x3 <- inception_3b/3x3_reduce
I0403 18:12:25.244622  6687 net.cpp:399] inception_3b/3x3 -> inception_3b/3x3
I0403 18:12:25.247455  6687 net.cpp:141] Setting up inception_3b/3x3
I0403 18:12:25.247483  6687 net.cpp:148] Top shape: 24 192 28 28 (3612672)
I0403 18:12:25.247498  6687 net.cpp:156] Memory required for data: 710493216
I0403 18:12:25.247516  6687 layer_factory.hpp:77] Creating layer inception_3b/relu_3x3
I0403 18:12:25.247536  6687 net.cpp:91] Creating Layer inception_3b/relu_3x3
I0403 18:12:25.247552  6687 net.cpp:425] inception_3b/relu_3x3 <- inception_3b/3x3
I0403 18:12:25.247570  6687 net.cpp:386] inception_3b/relu_3x3 -> inception_3b/3x3 (in-place)
I0403 18:12:25.247835  6687 net.cpp:141] Setting up inception_3b/relu_3x3
I0403 18:12:25.247859  6687 net.cpp:148] Top shape: 24 192 28 28 (3612672)
I0403 18:12:25.247874  6687 net.cpp:156] Memory required for data: 724943904
I0403 18:12:25.247889  6687 layer_factory.hpp:77] Creating layer inception_3b/5x5_reduce
I0403 18:12:25.247910  6687 net.cpp:91] Creating Layer inception_3b/5x5_reduce
I0403 18:12:25.247927  6687 net.cpp:425] inception_3b/5x5_reduce <- inception_3a/output_inception_3a/output_0_split_2
I0403 18:12:25.247948  6687 net.cpp:399] inception_3b/5x5_reduce -> inception_3b/5x5_reduce
I0403 18:12:25.248924  6687 net.cpp:141] Setting up inception_3b/5x5_reduce
I0403 18:12:25.248950  6687 net.cpp:148] Top shape: 24 32 28 28 (602112)
I0403 18:12:25.248965  6687 net.cpp:156] Memory required for data: 727352352
I0403 18:12:25.248982  6687 layer_factory.hpp:77] Creating layer inception_3b/relu_5x5_reduce
I0403 18:12:25.249002  6687 net.cpp:91] Creating Layer inception_3b/relu_5x5_reduce
I0403 18:12:25.249019  6687 net.cpp:425] inception_3b/relu_5x5_reduce <- inception_3b/5x5_reduce
I0403 18:12:25.249037  6687 net.cpp:386] inception_3b/relu_5x5_reduce -> inception_3b/5x5_reduce (in-place)
I0403 18:12:25.249229  6687 net.cpp:141] Setting up inception_3b/relu_5x5_reduce
I0403 18:12:25.249259  6687 net.cpp:148] Top shape: 24 32 28 28 (602112)
I0403 18:12:25.249275  6687 net.cpp:156] Memory required for data: 729760800
I0403 18:12:25.249290  6687 layer_factory.hpp:77] Creating layer inception_3b/5x5
I0403 18:12:25.249311  6687 net.cpp:91] Creating Layer inception_3b/5x5
I0403 18:12:25.249328  6687 net.cpp:425] inception_3b/5x5 <- inception_3b/5x5_reduce
I0403 18:12:25.249346  6687 net.cpp:399] inception_3b/5x5 -> inception_3b/5x5
I0403 18:12:25.251287  6687 net.cpp:141] Setting up inception_3b/5x5
I0403 18:12:25.251315  6687 net.cpp:148] Top shape: 24 96 28 28 (1806336)
I0403 18:12:25.251332  6687 net.cpp:156] Memory required for data: 736986144
I0403 18:12:25.251349  6687 layer_factory.hpp:77] Creating layer inception_3b/relu_5x5
I0403 18:12:25.251366  6687 net.cpp:91] Creating Layer inception_3b/relu_5x5
I0403 18:12:25.251385  6687 net.cpp:425] inception_3b/relu_5x5 <- inception_3b/5x5
I0403 18:12:25.251402  6687 net.cpp:386] inception_3b/relu_5x5 -> inception_3b/5x5 (in-place)
I0403 18:12:25.251590  6687 net.cpp:141] Setting up inception_3b/relu_5x5
I0403 18:12:25.251615  6687 net.cpp:148] Top shape: 24 96 28 28 (1806336)
I0403 18:12:25.251628  6687 net.cpp:156] Memory required for data: 744211488
I0403 18:12:25.251643  6687 layer_factory.hpp:77] Creating layer inception_3b/pool
I0403 18:12:25.251660  6687 net.cpp:91] Creating Layer inception_3b/pool
I0403 18:12:25.251675  6687 net.cpp:425] inception_3b/pool <- inception_3a/output_inception_3a/output_0_split_3
I0403 18:12:25.251693  6687 net.cpp:399] inception_3b/pool -> inception_3b/pool
I0403 18:12:25.251754  6687 net.cpp:141] Setting up inception_3b/pool
I0403 18:12:25.251775  6687 net.cpp:148] Top shape: 24 256 28 28 (4816896)
I0403 18:12:25.251791  6687 net.cpp:156] Memory required for data: 763479072
I0403 18:12:25.251804  6687 layer_factory.hpp:77] Creating layer inception_3b/pool_proj
I0403 18:12:25.251827  6687 net.cpp:91] Creating Layer inception_3b/pool_proj
I0403 18:12:25.251843  6687 net.cpp:425] inception_3b/pool_proj <- inception_3b/pool
I0403 18:12:25.251864  6687 net.cpp:399] inception_3b/pool_proj -> inception_3b/pool_proj
I0403 18:12:25.252924  6687 net.cpp:141] Setting up inception_3b/pool_proj
I0403 18:12:25.252955  6687 net.cpp:148] Top shape: 24 64 28 28 (1204224)
I0403 18:12:25.252972  6687 net.cpp:156] Memory required for data: 768295968
I0403 18:12:25.252990  6687 layer_factory.hpp:77] Creating layer inception_3b/relu_pool_proj
I0403 18:12:25.253008  6687 net.cpp:91] Creating Layer inception_3b/relu_pool_proj
I0403 18:12:25.253024  6687 net.cpp:425] inception_3b/relu_pool_proj <- inception_3b/pool_proj
I0403 18:12:25.253044  6687 net.cpp:386] inception_3b/relu_pool_proj -> inception_3b/pool_proj (in-place)
I0403 18:12:25.253423  6687 net.cpp:141] Setting up inception_3b/relu_pool_proj
I0403 18:12:25.253453  6687 net.cpp:148] Top shape: 24 64 28 28 (1204224)
I0403 18:12:25.253468  6687 net.cpp:156] Memory required for data: 773112864
I0403 18:12:25.253484  6687 layer_factory.hpp:77] Creating layer inception_3b/output
I0403 18:12:25.253501  6687 net.cpp:91] Creating Layer inception_3b/output
I0403 18:12:25.253517  6687 net.cpp:425] inception_3b/output <- inception_3b/1x1
I0403 18:12:25.253535  6687 net.cpp:425] inception_3b/output <- inception_3b/3x3
I0403 18:12:25.253551  6687 net.cpp:425] inception_3b/output <- inception_3b/5x5
I0403 18:12:25.253566  6687 net.cpp:425] inception_3b/output <- inception_3b/pool_proj
I0403 18:12:25.253583  6687 net.cpp:399] inception_3b/output -> inception_3b/output
I0403 18:12:25.253628  6687 net.cpp:141] Setting up inception_3b/output
I0403 18:12:25.253653  6687 net.cpp:148] Top shape: 24 480 28 28 (9031680)
I0403 18:12:25.253667  6687 net.cpp:156] Memory required for data: 809239584
I0403 18:12:25.253682  6687 layer_factory.hpp:77] Creating layer pool3/3x3_s2
I0403 18:12:25.253702  6687 net.cpp:91] Creating Layer pool3/3x3_s2
I0403 18:12:25.253720  6687 net.cpp:425] pool3/3x3_s2 <- inception_3b/output
I0403 18:12:25.253753  6687 net.cpp:399] pool3/3x3_s2 -> pool3/3x3_s2
I0403 18:12:25.253813  6687 net.cpp:141] Setting up pool3/3x3_s2
I0403 18:12:25.253836  6687 net.cpp:148] Top shape: 24 480 14 14 (2257920)
I0403 18:12:25.253851  6687 net.cpp:156] Memory required for data: 818271264
I0403 18:12:25.253867  6687 layer_factory.hpp:77] Creating layer pool3/3x3_s2_pool3/3x3_s2_0_split
I0403 18:12:25.253885  6687 net.cpp:91] Creating Layer pool3/3x3_s2_pool3/3x3_s2_0_split
I0403 18:12:25.253901  6687 net.cpp:425] pool3/3x3_s2_pool3/3x3_s2_0_split <- pool3/3x3_s2
I0403 18:12:25.253921  6687 net.cpp:399] pool3/3x3_s2_pool3/3x3_s2_0_split -> pool3/3x3_s2_pool3/3x3_s2_0_split_0
I0403 18:12:25.253940  6687 net.cpp:399] pool3/3x3_s2_pool3/3x3_s2_0_split -> pool3/3x3_s2_pool3/3x3_s2_0_split_1
I0403 18:12:25.253962  6687 net.cpp:399] pool3/3x3_s2_pool3/3x3_s2_0_split -> pool3/3x3_s2_pool3/3x3_s2_0_split_2
I0403 18:12:25.253980  6687 net.cpp:399] pool3/3x3_s2_pool3/3x3_s2_0_split -> pool3/3x3_s2_pool3/3x3_s2_0_split_3
I0403 18:12:25.254058  6687 net.cpp:141] Setting up pool3/3x3_s2_pool3/3x3_s2_0_split
I0403 18:12:25.254084  6687 net.cpp:148] Top shape: 24 480 14 14 (2257920)
I0403 18:12:25.254102  6687 net.cpp:148] Top shape: 24 480 14 14 (2257920)
I0403 18:12:25.254118  6687 net.cpp:148] Top shape: 24 480 14 14 (2257920)
I0403 18:12:25.254134  6687 net.cpp:148] Top shape: 24 480 14 14 (2257920)
I0403 18:12:25.254148  6687 net.cpp:156] Memory required for data: 854397984
I0403 18:12:25.254163  6687 layer_factory.hpp:77] Creating layer inception_4a/1x1
I0403 18:12:25.254189  6687 net.cpp:91] Creating Layer inception_4a/1x1
I0403 18:12:25.254207  6687 net.cpp:425] inception_4a/1x1 <- pool3/3x3_s2_pool3/3x3_s2_0_split_0
I0403 18:12:25.254227  6687 net.cpp:399] inception_4a/1x1 -> inception_4a/1x1
I0403 18:12:25.255789  6687 net.cpp:141] Setting up inception_4a/1x1
I0403 18:12:25.255823  6687 net.cpp:148] Top shape: 24 192 14 14 (903168)
I0403 18:12:25.255841  6687 net.cpp:156] Memory required for data: 858010656
I0403 18:12:25.255859  6687 layer_factory.hpp:77] Creating layer inception_4a/relu_1x1
I0403 18:12:25.255878  6687 net.cpp:91] Creating Layer inception_4a/relu_1x1
I0403 18:12:25.255894  6687 net.cpp:425] inception_4a/relu_1x1 <- inception_4a/1x1
I0403 18:12:25.255914  6687 net.cpp:386] inception_4a/relu_1x1 -> inception_4a/1x1 (in-place)
I0403 18:12:25.256091  6687 net.cpp:141] Setting up inception_4a/relu_1x1
I0403 18:12:25.256116  6687 net.cpp:148] Top shape: 24 192 14 14 (903168)
I0403 18:12:25.256132  6687 net.cpp:156] Memory required for data: 861623328
I0403 18:12:25.256147  6687 layer_factory.hpp:77] Creating layer inception_4a/3x3_reduce
I0403 18:12:25.256170  6687 net.cpp:91] Creating Layer inception_4a/3x3_reduce
I0403 18:12:25.256188  6687 net.cpp:425] inception_4a/3x3_reduce <- pool3/3x3_s2_pool3/3x3_s2_0_split_1
I0403 18:12:25.256211  6687 net.cpp:399] inception_4a/3x3_reduce -> inception_4a/3x3_reduce
I0403 18:12:25.257477  6687 net.cpp:141] Setting up inception_4a/3x3_reduce
I0403 18:12:25.257506  6687 net.cpp:148] Top shape: 24 96 14 14 (451584)
I0403 18:12:25.257522  6687 net.cpp:156] Memory required for data: 863429664
I0403 18:12:25.257545  6687 layer_factory.hpp:77] Creating layer inception_4a/relu_3x3_reduce
I0403 18:12:25.257566  6687 net.cpp:91] Creating Layer inception_4a/relu_3x3_reduce
I0403 18:12:25.257583  6687 net.cpp:425] inception_4a/relu_3x3_reduce <- inception_4a/3x3_reduce
I0403 18:12:25.257602  6687 net.cpp:386] inception_4a/relu_3x3_reduce -> inception_4a/3x3_reduce (in-place)
I0403 18:12:25.257776  6687 net.cpp:141] Setting up inception_4a/relu_3x3_reduce
I0403 18:12:25.257802  6687 net.cpp:148] Top shape: 24 96 14 14 (451584)
I0403 18:12:25.257815  6687 net.cpp:156] Memory required for data: 865236000
I0403 18:12:25.257832  6687 layer_factory.hpp:77] Creating layer inception_4a/3x3
I0403 18:12:25.257853  6687 net.cpp:91] Creating Layer inception_4a/3x3
I0403 18:12:25.257871  6687 net.cpp:425] inception_4a/3x3 <- inception_4a/3x3_reduce
I0403 18:12:25.257894  6687 net.cpp:399] inception_4a/3x3 -> inception_4a/3x3
I0403 18:12:25.260597  6687 net.cpp:141] Setting up inception_4a/3x3
I0403 18:12:25.260628  6687 net.cpp:148] Top shape: 24 208 14 14 (978432)
I0403 18:12:25.260645  6687 net.cpp:156] Memory required for data: 869149728
I0403 18:12:25.260663  6687 layer_factory.hpp:77] Creating layer inception_4a/relu_3x3
I0403 18:12:25.260684  6687 net.cpp:91] Creating Layer inception_4a/relu_3x3
I0403 18:12:25.260702  6687 net.cpp:425] inception_4a/relu_3x3 <- inception_4a/3x3
I0403 18:12:25.260720  6687 net.cpp:386] inception_4a/relu_3x3 -> inception_4a/3x3 (in-place)
I0403 18:12:25.260996  6687 net.cpp:141] Setting up inception_4a/relu_3x3
I0403 18:12:25.261023  6687 net.cpp:148] Top shape: 24 208 14 14 (978432)
I0403 18:12:25.261039  6687 net.cpp:156] Memory required for data: 873063456
I0403 18:12:25.261055  6687 layer_factory.hpp:77] Creating layer inception_4a/5x5_reduce
I0403 18:12:25.261080  6687 net.cpp:91] Creating Layer inception_4a/5x5_reduce
I0403 18:12:25.261098  6687 net.cpp:425] inception_4a/5x5_reduce <- pool3/3x3_s2_pool3/3x3_s2_0_split_2
I0403 18:12:25.261119  6687 net.cpp:399] inception_4a/5x5_reduce -> inception_4a/5x5_reduce
I0403 18:12:25.262128  6687 net.cpp:141] Setting up inception_4a/5x5_reduce
I0403 18:12:25.262157  6687 net.cpp:148] Top shape: 24 16 14 14 (75264)
I0403 18:12:25.262173  6687 net.cpp:156] Memory required for data: 873364512
I0403 18:12:25.262192  6687 layer_factory.hpp:77] Creating layer inception_4a/relu_5x5_reduce
I0403 18:12:25.262213  6687 net.cpp:91] Creating Layer inception_4a/relu_5x5_reduce
I0403 18:12:25.262230  6687 net.cpp:425] inception_4a/relu_5x5_reduce <- inception_4a/5x5_reduce
I0403 18:12:25.262259  6687 net.cpp:386] inception_4a/relu_5x5_reduce -> inception_4a/5x5_reduce (in-place)
I0403 18:12:25.262440  6687 net.cpp:141] Setting up inception_4a/relu_5x5_reduce
I0403 18:12:25.262467  6687 net.cpp:148] Top shape: 24 16 14 14 (75264)
I0403 18:12:25.262482  6687 net.cpp:156] Memory required for data: 873665568
I0403 18:12:25.262498  6687 layer_factory.hpp:77] Creating layer inception_4a/5x5
I0403 18:12:25.262524  6687 net.cpp:91] Creating Layer inception_4a/5x5
I0403 18:12:25.262542  6687 net.cpp:425] inception_4a/5x5 <- inception_4a/5x5_reduce
I0403 18:12:25.262562  6687 net.cpp:399] inception_4a/5x5 -> inception_4a/5x5
I0403 18:12:25.263646  6687 net.cpp:141] Setting up inception_4a/5x5
I0403 18:12:25.263677  6687 net.cpp:148] Top shape: 24 48 14 14 (225792)
I0403 18:12:25.263695  6687 net.cpp:156] Memory required for data: 874568736
I0403 18:12:25.263715  6687 layer_factory.hpp:77] Creating layer inception_4a/relu_5x5
I0403 18:12:25.263731  6687 net.cpp:91] Creating Layer inception_4a/relu_5x5
I0403 18:12:25.263747  6687 net.cpp:425] inception_4a/relu_5x5 <- inception_4a/5x5
I0403 18:12:25.263764  6687 net.cpp:386] inception_4a/relu_5x5 -> inception_4a/5x5 (in-place)
I0403 18:12:25.263944  6687 net.cpp:141] Setting up inception_4a/relu_5x5
I0403 18:12:25.263969  6687 net.cpp:148] Top shape: 24 48 14 14 (225792)
I0403 18:12:25.263985  6687 net.cpp:156] Memory required for data: 875471904
I0403 18:12:25.264001  6687 layer_factory.hpp:77] Creating layer inception_4a/pool
I0403 18:12:25.264019  6687 net.cpp:91] Creating Layer inception_4a/pool
I0403 18:12:25.264035  6687 net.cpp:425] inception_4a/pool <- pool3/3x3_s2_pool3/3x3_s2_0_split_3
I0403 18:12:25.264056  6687 net.cpp:399] inception_4a/pool -> inception_4a/pool
I0403 18:12:25.264117  6687 net.cpp:141] Setting up inception_4a/pool
I0403 18:12:25.264144  6687 net.cpp:148] Top shape: 24 480 14 14 (2257920)
I0403 18:12:25.264159  6687 net.cpp:156] Memory required for data: 884503584
I0403 18:12:25.264173  6687 layer_factory.hpp:77] Creating layer inception_4a/pool_proj
I0403 18:12:25.264195  6687 net.cpp:91] Creating Layer inception_4a/pool_proj
I0403 18:12:25.264212  6687 net.cpp:425] inception_4a/pool_proj <- inception_4a/pool
I0403 18:12:25.264231  6687 net.cpp:399] inception_4a/pool_proj -> inception_4a/pool_proj
I0403 18:12:25.265403  6687 net.cpp:141] Setting up inception_4a/pool_proj
I0403 18:12:25.265437  6687 net.cpp:148] Top shape: 24 64 14 14 (301056)
I0403 18:12:25.265466  6687 net.cpp:156] Memory required for data: 885707808
I0403 18:12:25.265486  6687 layer_factory.hpp:77] Creating layer inception_4a/relu_pool_proj
I0403 18:12:25.265504  6687 net.cpp:91] Creating Layer inception_4a/relu_pool_proj
I0403 18:12:25.265521  6687 net.cpp:425] inception_4a/relu_pool_proj <- inception_4a/pool_proj
I0403 18:12:25.265540  6687 net.cpp:386] inception_4a/relu_pool_proj -> inception_4a/pool_proj (in-place)
I0403 18:12:25.265822  6687 net.cpp:141] Setting up inception_4a/relu_pool_proj
I0403 18:12:25.265851  6687 net.cpp:148] Top shape: 24 64 14 14 (301056)
I0403 18:12:25.265866  6687 net.cpp:156] Memory required for data: 886912032
I0403 18:12:25.265880  6687 layer_factory.hpp:77] Creating layer inception_4a/output
I0403 18:12:25.265898  6687 net.cpp:91] Creating Layer inception_4a/output
I0403 18:12:25.265913  6687 net.cpp:425] inception_4a/output <- inception_4a/1x1
I0403 18:12:25.265930  6687 net.cpp:425] inception_4a/output <- inception_4a/3x3
I0403 18:12:25.265946  6687 net.cpp:425] inception_4a/output <- inception_4a/5x5
I0403 18:12:25.265962  6687 net.cpp:425] inception_4a/output <- inception_4a/pool_proj
I0403 18:12:25.265979  6687 net.cpp:399] inception_4a/output -> inception_4a/output
I0403 18:12:25.266024  6687 net.cpp:141] Setting up inception_4a/output
I0403 18:12:25.266047  6687 net.cpp:148] Top shape: 24 512 14 14 (2408448)
I0403 18:12:25.266062  6687 net.cpp:156] Memory required for data: 896545824
I0403 18:12:25.266077  6687 layer_factory.hpp:77] Creating layer inception_4a/output_inception_4a/output_0_split
I0403 18:12:25.266099  6687 net.cpp:91] Creating Layer inception_4a/output_inception_4a/output_0_split
I0403 18:12:25.266116  6687 net.cpp:425] inception_4a/output_inception_4a/output_0_split <- inception_4a/output
I0403 18:12:25.266134  6687 net.cpp:399] inception_4a/output_inception_4a/output_0_split -> inception_4a/output_inception_4a/output_0_split_0
I0403 18:12:25.266155  6687 net.cpp:399] inception_4a/output_inception_4a/output_0_split -> inception_4a/output_inception_4a/output_0_split_1
I0403 18:12:25.266175  6687 net.cpp:399] inception_4a/output_inception_4a/output_0_split -> inception_4a/output_inception_4a/output_0_split_2
I0403 18:12:25.266197  6687 net.cpp:399] inception_4a/output_inception_4a/output_0_split -> inception_4a/output_inception_4a/output_0_split_3
I0403 18:12:25.266218  6687 net.cpp:399] inception_4a/output_inception_4a/output_0_split -> inception_4a/output_inception_4a/output_0_split_4
I0403 18:12:25.266314  6687 net.cpp:141] Setting up inception_4a/output_inception_4a/output_0_split
I0403 18:12:25.266338  6687 net.cpp:148] Top shape: 24 512 14 14 (2408448)
I0403 18:12:25.266355  6687 net.cpp:148] Top shape: 24 512 14 14 (2408448)
I0403 18:12:25.266371  6687 net.cpp:148] Top shape: 24 512 14 14 (2408448)
I0403 18:12:25.266386  6687 net.cpp:148] Top shape: 24 512 14 14 (2408448)
I0403 18:12:25.266402  6687 net.cpp:148] Top shape: 24 512 14 14 (2408448)
I0403 18:12:25.266414  6687 net.cpp:156] Memory required for data: 944714784
I0403 18:12:25.266428  6687 layer_factory.hpp:77] Creating layer loss1/ave_pool
I0403 18:12:25.266449  6687 net.cpp:91] Creating Layer loss1/ave_pool
I0403 18:12:25.266466  6687 net.cpp:425] loss1/ave_pool <- inception_4a/output_inception_4a/output_0_split_0
I0403 18:12:25.266484  6687 net.cpp:399] loss1/ave_pool -> loss1/ave_pool
I0403 18:12:25.266691  6687 net.cpp:141] Setting up loss1/ave_pool
I0403 18:12:25.266719  6687 net.cpp:148] Top shape: 24 512 4 4 (196608)
I0403 18:12:25.266734  6687 net.cpp:156] Memory required for data: 945501216
I0403 18:12:25.266748  6687 layer_factory.hpp:77] Creating layer loss1/conv
I0403 18:12:25.266770  6687 net.cpp:91] Creating Layer loss1/conv
I0403 18:12:25.266788  6687 net.cpp:425] loss1/conv <- loss1/ave_pool
I0403 18:12:25.266809  6687 net.cpp:399] loss1/conv -> loss1/conv
I0403 18:12:25.268213  6687 net.cpp:141] Setting up loss1/conv
I0403 18:12:25.268244  6687 net.cpp:148] Top shape: 24 128 4 4 (49152)
I0403 18:12:25.268275  6687 net.cpp:156] Memory required for data: 945697824
I0403 18:12:25.268295  6687 layer_factory.hpp:77] Creating layer loss1/relu_conv
I0403 18:12:25.268316  6687 net.cpp:91] Creating Layer loss1/relu_conv
I0403 18:12:25.268332  6687 net.cpp:425] loss1/relu_conv <- loss1/conv
I0403 18:12:25.268349  6687 net.cpp:386] loss1/relu_conv -> loss1/conv (in-place)
I0403 18:12:25.268627  6687 net.cpp:141] Setting up loss1/relu_conv
I0403 18:12:25.268653  6687 net.cpp:148] Top shape: 24 128 4 4 (49152)
I0403 18:12:25.268668  6687 net.cpp:156] Memory required for data: 945894432
I0403 18:12:25.268683  6687 layer_factory.hpp:77] Creating layer loss1/fc
I0403 18:12:25.268708  6687 net.cpp:91] Creating Layer loss1/fc
I0403 18:12:25.268726  6687 net.cpp:425] loss1/fc <- loss1/conv
I0403 18:12:25.268744  6687 net.cpp:399] loss1/fc -> loss1/fc
I0403 18:12:25.286325  6687 net.cpp:141] Setting up loss1/fc
I0403 18:12:25.286360  6687 net.cpp:148] Top shape: 24 1024 (24576)
I0403 18:12:25.286375  6687 net.cpp:156] Memory required for data: 945992736
I0403 18:12:25.286393  6687 layer_factory.hpp:77] Creating layer loss1/relu_fc
I0403 18:12:25.286411  6687 net.cpp:91] Creating Layer loss1/relu_fc
I0403 18:12:25.286427  6687 net.cpp:425] loss1/relu_fc <- loss1/fc
I0403 18:12:25.286445  6687 net.cpp:386] loss1/relu_fc -> loss1/fc (in-place)
I0403 18:12:25.286628  6687 net.cpp:141] Setting up loss1/relu_fc
I0403 18:12:25.286653  6687 net.cpp:148] Top shape: 24 1024 (24576)
I0403 18:12:25.286667  6687 net.cpp:156] Memory required for data: 946091040
I0403 18:12:25.286681  6687 layer_factory.hpp:77] Creating layer loss1/drop_fc
I0403 18:12:25.286707  6687 net.cpp:91] Creating Layer loss1/drop_fc
I0403 18:12:25.286726  6687 net.cpp:425] loss1/drop_fc <- loss1/fc
I0403 18:12:25.286743  6687 net.cpp:386] loss1/drop_fc -> loss1/fc (in-place)
I0403 18:12:25.286792  6687 net.cpp:141] Setting up loss1/drop_fc
I0403 18:12:25.286814  6687 net.cpp:148] Top shape: 24 1024 (24576)
I0403 18:12:25.286828  6687 net.cpp:156] Memory required for data: 946189344
I0403 18:12:25.286844  6687 layer_factory.hpp:77] Creating layer loss1/classifier_plantvillage
I0403 18:12:25.286864  6687 net.cpp:91] Creating Layer loss1/classifier_plantvillage
I0403 18:12:25.286881  6687 net.cpp:425] loss1/classifier_plantvillage <- loss1/fc
I0403 18:12:25.286901  6687 net.cpp:399] loss1/classifier_plantvillage -> loss1/classifier_plantvillage
I0403 18:12:25.287811  6687 net.cpp:141] Setting up loss1/classifier_plantvillage
I0403 18:12:25.287838  6687 net.cpp:148] Top shape: 24 38 (912)
I0403 18:12:25.287853  6687 net.cpp:156] Memory required for data: 946192992
I0403 18:12:25.287873  6687 layer_factory.hpp:77] Creating layer loss1/classifier_plantvillage_loss1/classifier_plantvillage_0_split
I0403 18:12:25.287889  6687 net.cpp:91] Creating Layer loss1/classifier_plantvillage_loss1/classifier_plantvillage_0_split
I0403 18:12:25.287904  6687 net.cpp:425] loss1/classifier_plantvillage_loss1/classifier_plantvillage_0_split <- loss1/classifier_plantvillage
I0403 18:12:25.287925  6687 net.cpp:399] loss1/classifier_plantvillage_loss1/classifier_plantvillage_0_split -> loss1/classifier_plantvillage_loss1/classifier_plantvillage_0_split_0
I0403 18:12:25.287945  6687 net.cpp:399] loss1/classifier_plantvillage_loss1/classifier_plantvillage_0_split -> loss1/classifier_plantvillage_loss1/classifier_plantvillage_0_split_1
I0403 18:12:25.287966  6687 net.cpp:399] loss1/classifier_plantvillage_loss1/classifier_plantvillage_0_split -> loss1/classifier_plantvillage_loss1/classifier_plantvillage_0_split_2
I0403 18:12:25.288030  6687 net.cpp:141] Setting up loss1/classifier_plantvillage_loss1/classifier_plantvillage_0_split
I0403 18:12:25.288067  6687 net.cpp:148] Top shape: 24 38 (912)
I0403 18:12:25.288084  6687 net.cpp:148] Top shape: 24 38 (912)
I0403 18:12:25.288100  6687 net.cpp:148] Top shape: 24 38 (912)
I0403 18:12:25.288115  6687 net.cpp:156] Memory required for data: 946203936
I0403 18:12:25.288130  6687 layer_factory.hpp:77] Creating layer inception_4b/1x1
I0403 18:12:25.288149  6687 net.cpp:91] Creating Layer inception_4b/1x1
I0403 18:12:25.288187  6687 net.cpp:425] inception_4b/1x1 <- inception_4a/output_inception_4a/output_0_split_1
I0403 18:12:25.288208  6687 net.cpp:399] inception_4b/1x1 -> inception_4b/1x1
I0403 18:12:25.289846  6687 net.cpp:141] Setting up inception_4b/1x1
I0403 18:12:25.289875  6687 net.cpp:148] Top shape: 24 160 14 14 (752640)
I0403 18:12:25.289891  6687 net.cpp:156] Memory required for data: 949214496
I0403 18:12:25.289909  6687 layer_factory.hpp:77] Creating layer inception_4b/relu_1x1
I0403 18:12:25.289929  6687 net.cpp:91] Creating Layer inception_4b/relu_1x1
I0403 18:12:25.289947  6687 net.cpp:425] inception_4b/relu_1x1 <- inception_4b/1x1
I0403 18:12:25.289963  6687 net.cpp:386] inception_4b/relu_1x1 -> inception_4b/1x1 (in-place)
I0403 18:12:25.290146  6687 net.cpp:141] Setting up inception_4b/relu_1x1
I0403 18:12:25.290171  6687 net.cpp:148] Top shape: 24 160 14 14 (752640)
I0403 18:12:25.290186  6687 net.cpp:156] Memory required for data: 952225056
I0403 18:12:25.290201  6687 layer_factory.hpp:77] Creating layer inception_4b/3x3_reduce
I0403 18:12:25.290225  6687 net.cpp:91] Creating Layer inception_4b/3x3_reduce
I0403 18:12:25.290246  6687 net.cpp:425] inception_4b/3x3_reduce <- inception_4a/output_inception_4a/output_0_split_2
I0403 18:12:25.290267  6687 net.cpp:399] inception_4b/3x3_reduce -> inception_4b/3x3_reduce
I0403 18:12:25.291625  6687 net.cpp:141] Setting up inception_4b/3x3_reduce
I0403 18:12:25.291652  6687 net.cpp:148] Top shape: 24 112 14 14 (526848)
I0403 18:12:25.291668  6687 net.cpp:156] Memory required for data: 954332448
I0403 18:12:25.291687  6687 layer_factory.hpp:77] Creating layer inception_4b/relu_3x3_reduce
I0403 18:12:25.291707  6687 net.cpp:91] Creating Layer inception_4b/relu_3x3_reduce
I0403 18:12:25.291725  6687 net.cpp:425] inception_4b/relu_3x3_reduce <- inception_4b/3x3_reduce
I0403 18:12:25.291743  6687 net.cpp:386] inception_4b/relu_3x3_reduce -> inception_4b/3x3_reduce (in-place)
I0403 18:12:25.292024  6687 net.cpp:141] Setting up inception_4b/relu_3x3_reduce
I0403 18:12:25.292050  6687 net.cpp:148] Top shape: 24 112 14 14 (526848)
I0403 18:12:25.292067  6687 net.cpp:156] Memory required for data: 956439840
I0403 18:12:25.292081  6687 layer_factory.hpp:77] Creating layer inception_4b/3x3
I0403 18:12:25.292105  6687 net.cpp:91] Creating Layer inception_4b/3x3
I0403 18:12:25.292122  6687 net.cpp:425] inception_4b/3x3 <- inception_4b/3x3_reduce
I0403 18:12:25.292141  6687 net.cpp:399] inception_4b/3x3 -> inception_4b/3x3
I0403 18:12:25.295164  6687 net.cpp:141] Setting up inception_4b/3x3
I0403 18:12:25.295195  6687 net.cpp:148] Top shape: 24 224 14 14 (1053696)
I0403 18:12:25.295212  6687 net.cpp:156] Memory required for data: 960654624
I0403 18:12:25.295230  6687 layer_factory.hpp:77] Creating layer inception_4b/relu_3x3
I0403 18:12:25.295253  6687 net.cpp:91] Creating Layer inception_4b/relu_3x3
I0403 18:12:25.295271  6687 net.cpp:425] inception_4b/relu_3x3 <- inception_4b/3x3
I0403 18:12:25.295291  6687 net.cpp:386] inception_4b/relu_3x3 -> inception_4b/3x3 (in-place)
I0403 18:12:25.295475  6687 net.cpp:141] Setting up inception_4b/relu_3x3
I0403 18:12:25.295500  6687 net.cpp:148] Top shape: 24 224 14 14 (1053696)
I0403 18:12:25.295516  6687 net.cpp:156] Memory required for data: 964869408
I0403 18:12:25.295529  6687 layer_factory.hpp:77] Creating layer inception_4b/5x5_reduce
I0403 18:12:25.295552  6687 net.cpp:91] Creating Layer inception_4b/5x5_reduce
I0403 18:12:25.295569  6687 net.cpp:425] inception_4b/5x5_reduce <- inception_4a/output_inception_4a/output_0_split_3
I0403 18:12:25.295591  6687 net.cpp:399] inception_4b/5x5_reduce -> inception_4b/5x5_reduce
I0403 18:12:25.296690  6687 net.cpp:141] Setting up inception_4b/5x5_reduce
I0403 18:12:25.296718  6687 net.cpp:148] Top shape: 24 24 14 14 (112896)
I0403 18:12:25.296735  6687 net.cpp:156] Memory required for data: 965320992
I0403 18:12:25.296752  6687 layer_factory.hpp:77] Creating layer inception_4b/relu_5x5_reduce
I0403 18:12:25.296772  6687 net.cpp:91] Creating Layer inception_4b/relu_5x5_reduce
I0403 18:12:25.296804  6687 net.cpp:425] inception_4b/relu_5x5_reduce <- inception_4b/5x5_reduce
I0403 18:12:25.296823  6687 net.cpp:386] inception_4b/relu_5x5_reduce -> inception_4b/5x5_reduce (in-place)
I0403 18:12:25.297006  6687 net.cpp:141] Setting up inception_4b/relu_5x5_reduce
I0403 18:12:25.297034  6687 net.cpp:148] Top shape: 24 24 14 14 (112896)
I0403 18:12:25.297049  6687 net.cpp:156] Memory required for data: 965772576
I0403 18:12:25.297065  6687 layer_factory.hpp:77] Creating layer inception_4b/5x5
I0403 18:12:25.297091  6687 net.cpp:91] Creating Layer inception_4b/5x5
I0403 18:12:25.297108  6687 net.cpp:425] inception_4b/5x5 <- inception_4b/5x5_reduce
I0403 18:12:25.297127  6687 net.cpp:399] inception_4b/5x5 -> inception_4b/5x5
I0403 18:12:25.298362  6687 net.cpp:141] Setting up inception_4b/5x5
I0403 18:12:25.298390  6687 net.cpp:148] Top shape: 24 64 14 14 (301056)
I0403 18:12:25.298406  6687 net.cpp:156] Memory required for data: 966976800
I0403 18:12:25.298424  6687 layer_factory.hpp:77] Creating layer inception_4b/relu_5x5
I0403 18:12:25.298444  6687 net.cpp:91] Creating Layer inception_4b/relu_5x5
I0403 18:12:25.298462  6687 net.cpp:425] inception_4b/relu_5x5 <- inception_4b/5x5
I0403 18:12:25.298480  6687 net.cpp:386] inception_4b/relu_5x5 -> inception_4b/5x5 (in-place)
I0403 18:12:25.298765  6687 net.cpp:141] Setting up inception_4b/relu_5x5
I0403 18:12:25.298790  6687 net.cpp:148] Top shape: 24 64 14 14 (301056)
I0403 18:12:25.298805  6687 net.cpp:156] Memory required for data: 968181024
I0403 18:12:25.298820  6687 layer_factory.hpp:77] Creating layer inception_4b/pool
I0403 18:12:25.298841  6687 net.cpp:91] Creating Layer inception_4b/pool
I0403 18:12:25.298858  6687 net.cpp:425] inception_4b/pool <- inception_4a/output_inception_4a/output_0_split_4
I0403 18:12:25.298877  6687 net.cpp:399] inception_4b/pool -> inception_4b/pool
I0403 18:12:25.298941  6687 net.cpp:141] Setting up inception_4b/pool
I0403 18:12:25.298965  6687 net.cpp:148] Top shape: 24 512 14 14 (2408448)
I0403 18:12:25.298979  6687 net.cpp:156] Memory required for data: 977814816
I0403 18:12:25.298995  6687 layer_factory.hpp:77] Creating layer inception_4b/pool_proj
I0403 18:12:25.299016  6687 net.cpp:91] Creating Layer inception_4b/pool_proj
I0403 18:12:25.299033  6687 net.cpp:425] inception_4b/pool_proj <- inception_4b/pool
I0403 18:12:25.299057  6687 net.cpp:399] inception_4b/pool_proj -> inception_4b/pool_proj
I0403 18:12:25.300312  6687 net.cpp:141] Setting up inception_4b/pool_proj
I0403 18:12:25.300340  6687 net.cpp:148] Top shape: 24 64 14 14 (301056)
I0403 18:12:25.300355  6687 net.cpp:156] Memory required for data: 979019040
I0403 18:12:25.300374  6687 layer_factory.hpp:77] Creating layer inception_4b/relu_pool_proj
I0403 18:12:25.300396  6687 net.cpp:91] Creating Layer inception_4b/relu_pool_proj
I0403 18:12:25.300415  6687 net.cpp:425] inception_4b/relu_pool_proj <- inception_4b/pool_proj
I0403 18:12:25.300432  6687 net.cpp:386] inception_4b/relu_pool_proj -> inception_4b/pool_proj (in-place)
I0403 18:12:25.300621  6687 net.cpp:141] Setting up inception_4b/relu_pool_proj
I0403 18:12:25.300649  6687 net.cpp:148] Top shape: 24 64 14 14 (301056)
I0403 18:12:25.300665  6687 net.cpp:156] Memory required for data: 980223264
I0403 18:12:25.300681  6687 layer_factory.hpp:77] Creating layer inception_4b/output
I0403 18:12:25.300698  6687 net.cpp:91] Creating Layer inception_4b/output
I0403 18:12:25.300715  6687 net.cpp:425] inception_4b/output <- inception_4b/1x1
I0403 18:12:25.300731  6687 net.cpp:425] inception_4b/output <- inception_4b/3x3
I0403 18:12:25.300748  6687 net.cpp:425] inception_4b/output <- inception_4b/5x5
I0403 18:12:25.300765  6687 net.cpp:425] inception_4b/output <- inception_4b/pool_proj
I0403 18:12:25.300781  6687 net.cpp:399] inception_4b/output -> inception_4b/output
I0403 18:12:25.300830  6687 net.cpp:141] Setting up inception_4b/output
I0403 18:12:25.300853  6687 net.cpp:148] Top shape: 24 512 14 14 (2408448)
I0403 18:12:25.300868  6687 net.cpp:156] Memory required for data: 989857056
I0403 18:12:25.300902  6687 layer_factory.hpp:77] Creating layer inception_4b/output_inception_4b/output_0_split
I0403 18:12:25.300921  6687 net.cpp:91] Creating Layer inception_4b/output_inception_4b/output_0_split
I0403 18:12:25.300937  6687 net.cpp:425] inception_4b/output_inception_4b/output_0_split <- inception_4b/output
I0403 18:12:25.300958  6687 net.cpp:399] inception_4b/output_inception_4b/output_0_split -> inception_4b/output_inception_4b/output_0_split_0
I0403 18:12:25.300979  6687 net.cpp:399] inception_4b/output_inception_4b/output_0_split -> inception_4b/output_inception_4b/output_0_split_1
I0403 18:12:25.301000  6687 net.cpp:399] inception_4b/output_inception_4b/output_0_split -> inception_4b/output_inception_4b/output_0_split_2
I0403 18:12:25.301024  6687 net.cpp:399] inception_4b/output_inception_4b/output_0_split -> inception_4b/output_inception_4b/output_0_split_3
I0403 18:12:25.301112  6687 net.cpp:141] Setting up inception_4b/output_inception_4b/output_0_split
I0403 18:12:25.301136  6687 net.cpp:148] Top shape: 24 512 14 14 (2408448)
I0403 18:12:25.301153  6687 net.cpp:148] Top shape: 24 512 14 14 (2408448)
I0403 18:12:25.301169  6687 net.cpp:148] Top shape: 24 512 14 14 (2408448)
I0403 18:12:25.301185  6687 net.cpp:148] Top shape: 24 512 14 14 (2408448)
I0403 18:12:25.301199  6687 net.cpp:156] Memory required for data: 1028392224
I0403 18:12:25.301215  6687 layer_factory.hpp:77] Creating layer inception_4c/1x1
I0403 18:12:25.301237  6687 net.cpp:91] Creating Layer inception_4c/1x1
I0403 18:12:25.301259  6687 net.cpp:425] inception_4c/1x1 <- inception_4b/output_inception_4b/output_0_split_0
I0403 18:12:25.301282  6687 net.cpp:399] inception_4c/1x1 -> inception_4c/1x1
I0403 18:12:25.302772  6687 net.cpp:141] Setting up inception_4c/1x1
I0403 18:12:25.302805  6687 net.cpp:148] Top shape: 24 128 14 14 (602112)
I0403 18:12:25.302821  6687 net.cpp:156] Memory required for data: 1030800672
I0403 18:12:25.302841  6687 layer_factory.hpp:77] Creating layer inception_4c/relu_1x1
I0403 18:12:25.302860  6687 net.cpp:91] Creating Layer inception_4c/relu_1x1
I0403 18:12:25.302875  6687 net.cpp:425] inception_4c/relu_1x1 <- inception_4c/1x1
I0403 18:12:25.302897  6687 net.cpp:386] inception_4c/relu_1x1 -> inception_4c/1x1 (in-place)
I0403 18:12:25.303084  6687 net.cpp:141] Setting up inception_4c/relu_1x1
I0403 18:12:25.303109  6687 net.cpp:148] Top shape: 24 128 14 14 (602112)
I0403 18:12:25.303124  6687 net.cpp:156] Memory required for data: 1033209120
I0403 18:12:25.303139  6687 layer_factory.hpp:77] Creating layer inception_4c/3x3_reduce
I0403 18:12:25.303161  6687 net.cpp:91] Creating Layer inception_4c/3x3_reduce
I0403 18:12:25.303180  6687 net.cpp:425] inception_4c/3x3_reduce <- inception_4b/output_inception_4b/output_0_split_1
I0403 18:12:25.303201  6687 net.cpp:399] inception_4c/3x3_reduce -> inception_4c/3x3_reduce
I0403 18:12:25.305249  6687 net.cpp:141] Setting up inception_4c/3x3_reduce
I0403 18:12:25.305279  6687 net.cpp:148] Top shape: 24 128 14 14 (602112)
I0403 18:12:25.305294  6687 net.cpp:156] Memory required for data: 1035617568
I0403 18:12:25.305315  6687 layer_factory.hpp:77] Creating layer inception_4c/relu_3x3_reduce
I0403 18:12:25.305335  6687 net.cpp:91] Creating Layer inception_4c/relu_3x3_reduce
I0403 18:12:25.305352  6687 net.cpp:425] inception_4c/relu_3x3_reduce <- inception_4c/3x3_reduce
I0403 18:12:25.305371  6687 net.cpp:386] inception_4c/relu_3x3_reduce -> inception_4c/3x3_reduce (in-place)
I0403 18:12:25.305668  6687 net.cpp:141] Setting up inception_4c/relu_3x3_reduce
I0403 18:12:25.305696  6687 net.cpp:148] Top shape: 24 128 14 14 (602112)
I0403 18:12:25.305711  6687 net.cpp:156] Memory required for data: 1038026016
I0403 18:12:25.305727  6687 layer_factory.hpp:77] Creating layer inception_4c/3x3
I0403 18:12:25.305750  6687 net.cpp:91] Creating Layer inception_4c/3x3
I0403 18:12:25.305768  6687 net.cpp:425] inception_4c/3x3 <- inception_4c/3x3_reduce
I0403 18:12:25.305791  6687 net.cpp:399] inception_4c/3x3 -> inception_4c/3x3
I0403 18:12:25.309562  6687 net.cpp:141] Setting up inception_4c/3x3
I0403 18:12:25.309605  6687 net.cpp:148] Top shape: 24 256 14 14 (1204224)
I0403 18:12:25.309623  6687 net.cpp:156] Memory required for data: 1042842912
I0403 18:12:25.309660  6687 layer_factory.hpp:77] Creating layer inception_4c/relu_3x3
I0403 18:12:25.309684  6687 net.cpp:91] Creating Layer inception_4c/relu_3x3
I0403 18:12:25.309700  6687 net.cpp:425] inception_4c/relu_3x3 <- inception_4c/3x3
I0403 18:12:25.309718  6687 net.cpp:386] inception_4c/relu_3x3 -> inception_4c/3x3 (in-place)
I0403 18:12:25.309906  6687 net.cpp:141] Setting up inception_4c/relu_3x3
I0403 18:12:25.309932  6687 net.cpp:148] Top shape: 24 256 14 14 (1204224)
I0403 18:12:25.309948  6687 net.cpp:156] Memory required for data: 1047659808
I0403 18:12:25.309963  6687 layer_factory.hpp:77] Creating layer inception_4c/5x5_reduce
I0403 18:12:25.309986  6687 net.cpp:91] Creating Layer inception_4c/5x5_reduce
I0403 18:12:25.310003  6687 net.cpp:425] inception_4c/5x5_reduce <- inception_4b/output_inception_4b/output_0_split_2
I0403 18:12:25.310026  6687 net.cpp:399] inception_4c/5x5_reduce -> inception_4c/5x5_reduce
I0403 18:12:25.311161  6687 net.cpp:141] Setting up inception_4c/5x5_reduce
I0403 18:12:25.311190  6687 net.cpp:148] Top shape: 24 24 14 14 (112896)
I0403 18:12:25.311206  6687 net.cpp:156] Memory required for data: 1048111392
I0403 18:12:25.311226  6687 layer_factory.hpp:77] Creating layer inception_4c/relu_5x5_reduce
I0403 18:12:25.311251  6687 net.cpp:91] Creating Layer inception_4c/relu_5x5_reduce
I0403 18:12:25.311269  6687 net.cpp:425] inception_4c/relu_5x5_reduce <- inception_4c/5x5_reduce
I0403 18:12:25.311287  6687 net.cpp:386] inception_4c/relu_5x5_reduce -> inception_4c/5x5_reduce (in-place)
I0403 18:12:25.311478  6687 net.cpp:141] Setting up inception_4c/relu_5x5_reduce
I0403 18:12:25.311506  6687 net.cpp:148] Top shape: 24 24 14 14 (112896)
I0403 18:12:25.311523  6687 net.cpp:156] Memory required for data: 1048562976
I0403 18:12:25.311539  6687 layer_factory.hpp:77] Creating layer inception_4c/5x5
I0403 18:12:25.311563  6687 net.cpp:91] Creating Layer inception_4c/5x5
I0403 18:12:25.311580  6687 net.cpp:425] inception_4c/5x5 <- inception_4c/5x5_reduce
I0403 18:12:25.311599  6687 net.cpp:399] inception_4c/5x5 -> inception_4c/5x5
I0403 18:12:25.312906  6687 net.cpp:141] Setting up inception_4c/5x5
I0403 18:12:25.312937  6687 net.cpp:148] Top shape: 24 64 14 14 (301056)
I0403 18:12:25.312954  6687 net.cpp:156] Memory required for data: 1049767200
I0403 18:12:25.312973  6687 layer_factory.hpp:77] Creating layer inception_4c/relu_5x5
I0403 18:12:25.312991  6687 net.cpp:91] Creating Layer inception_4c/relu_5x5
I0403 18:12:25.313009  6687 net.cpp:425] inception_4c/relu_5x5 <- inception_4c/5x5
I0403 18:12:25.313029  6687 net.cpp:386] inception_4c/relu_5x5 -> inception_4c/5x5 (in-place)
I0403 18:12:25.313333  6687 net.cpp:141] Setting up inception_4c/relu_5x5
I0403 18:12:25.313362  6687 net.cpp:148] Top shape: 24 64 14 14 (301056)
I0403 18:12:25.313379  6687 net.cpp:156] Memory required for data: 1050971424
I0403 18:12:25.313395  6687 layer_factory.hpp:77] Creating layer inception_4c/pool
I0403 18:12:25.313412  6687 net.cpp:91] Creating Layer inception_4c/pool
I0403 18:12:25.313429  6687 net.cpp:425] inception_4c/pool <- inception_4b/output_inception_4b/output_0_split_3
I0403 18:12:25.313452  6687 net.cpp:399] inception_4c/pool -> inception_4c/pool
I0403 18:12:25.313519  6687 net.cpp:141] Setting up inception_4c/pool
I0403 18:12:25.313544  6687 net.cpp:148] Top shape: 24 512 14 14 (2408448)
I0403 18:12:25.313558  6687 net.cpp:156] Memory required for data: 1060605216
I0403 18:12:25.313573  6687 layer_factory.hpp:77] Creating layer inception_4c/pool_proj
I0403 18:12:25.313597  6687 net.cpp:91] Creating Layer inception_4c/pool_proj
I0403 18:12:25.313616  6687 net.cpp:425] inception_4c/pool_proj <- inception_4c/pool
I0403 18:12:25.313638  6687 net.cpp:399] inception_4c/pool_proj -> inception_4c/pool_proj
I0403 18:12:25.314903  6687 net.cpp:141] Setting up inception_4c/pool_proj
I0403 18:12:25.314931  6687 net.cpp:148] Top shape: 24 64 14 14 (301056)
I0403 18:12:25.314961  6687 net.cpp:156] Memory required for data: 1061809440
I0403 18:12:25.314981  6687 layer_factory.hpp:77] Creating layer inception_4c/relu_pool_proj
I0403 18:12:25.315004  6687 net.cpp:91] Creating Layer inception_4c/relu_pool_proj
I0403 18:12:25.315022  6687 net.cpp:425] inception_4c/relu_pool_proj <- inception_4c/pool_proj
I0403 18:12:25.315040  6687 net.cpp:386] inception_4c/relu_pool_proj -> inception_4c/pool_proj (in-place)
I0403 18:12:25.315232  6687 net.cpp:141] Setting up inception_4c/relu_pool_proj
I0403 18:12:25.315264  6687 net.cpp:148] Top shape: 24 64 14 14 (301056)
I0403 18:12:25.315280  6687 net.cpp:156] Memory required for data: 1063013664
I0403 18:12:25.315295  6687 layer_factory.hpp:77] Creating layer inception_4c/output
I0403 18:12:25.315313  6687 net.cpp:91] Creating Layer inception_4c/output
I0403 18:12:25.315330  6687 net.cpp:425] inception_4c/output <- inception_4c/1x1
I0403 18:12:25.315347  6687 net.cpp:425] inception_4c/output <- inception_4c/3x3
I0403 18:12:25.315363  6687 net.cpp:425] inception_4c/output <- inception_4c/5x5
I0403 18:12:25.315381  6687 net.cpp:425] inception_4c/output <- inception_4c/pool_proj
I0403 18:12:25.315397  6687 net.cpp:399] inception_4c/output -> inception_4c/output
I0403 18:12:25.315448  6687 net.cpp:141] Setting up inception_4c/output
I0403 18:12:25.315470  6687 net.cpp:148] Top shape: 24 512 14 14 (2408448)
I0403 18:12:25.315485  6687 net.cpp:156] Memory required for data: 1072647456
I0403 18:12:25.315500  6687 layer_factory.hpp:77] Creating layer inception_4c/output_inception_4c/output_0_split
I0403 18:12:25.315518  6687 net.cpp:91] Creating Layer inception_4c/output_inception_4c/output_0_split
I0403 18:12:25.315533  6687 net.cpp:425] inception_4c/output_inception_4c/output_0_split <- inception_4c/output
I0403 18:12:25.315553  6687 net.cpp:399] inception_4c/output_inception_4c/output_0_split -> inception_4c/output_inception_4c/output_0_split_0
I0403 18:12:25.315575  6687 net.cpp:399] inception_4c/output_inception_4c/output_0_split -> inception_4c/output_inception_4c/output_0_split_1
I0403 18:12:25.315595  6687 net.cpp:399] inception_4c/output_inception_4c/output_0_split -> inception_4c/output_inception_4c/output_0_split_2
I0403 18:12:25.315618  6687 net.cpp:399] inception_4c/output_inception_4c/output_0_split -> inception_4c/output_inception_4c/output_0_split_3
I0403 18:12:25.315709  6687 net.cpp:141] Setting up inception_4c/output_inception_4c/output_0_split
I0403 18:12:25.315733  6687 net.cpp:148] Top shape: 24 512 14 14 (2408448)
I0403 18:12:25.315749  6687 net.cpp:148] Top shape: 24 512 14 14 (2408448)
I0403 18:12:25.315765  6687 net.cpp:148] Top shape: 24 512 14 14 (2408448)
I0403 18:12:25.315780  6687 net.cpp:148] Top shape: 24 512 14 14 (2408448)
I0403 18:12:25.315795  6687 net.cpp:156] Memory required for data: 1111182624
I0403 18:12:25.315810  6687 layer_factory.hpp:77] Creating layer inception_4d/1x1
I0403 18:12:25.315834  6687 net.cpp:91] Creating Layer inception_4d/1x1
I0403 18:12:25.315851  6687 net.cpp:425] inception_4d/1x1 <- inception_4c/output_inception_4c/output_0_split_0
I0403 18:12:25.315876  6687 net.cpp:399] inception_4d/1x1 -> inception_4d/1x1
I0403 18:12:25.317322  6687 net.cpp:141] Setting up inception_4d/1x1
I0403 18:12:25.317350  6687 net.cpp:148] Top shape: 24 112 14 14 (526848)
I0403 18:12:25.317366  6687 net.cpp:156] Memory required for data: 1113290016
I0403 18:12:25.317385  6687 layer_factory.hpp:77] Creating layer inception_4d/relu_1x1
I0403 18:12:25.317404  6687 net.cpp:91] Creating Layer inception_4d/relu_1x1
I0403 18:12:25.317420  6687 net.cpp:425] inception_4d/relu_1x1 <- inception_4d/1x1
I0403 18:12:25.317440  6687 net.cpp:386] inception_4d/relu_1x1 -> inception_4d/1x1 (in-place)
I0403 18:12:25.317632  6687 net.cpp:141] Setting up inception_4d/relu_1x1
I0403 18:12:25.317658  6687 net.cpp:148] Top shape: 24 112 14 14 (526848)
I0403 18:12:25.317675  6687 net.cpp:156] Memory required for data: 1115397408
I0403 18:12:25.317692  6687 layer_factory.hpp:77] Creating layer inception_4d/3x3_reduce
I0403 18:12:25.317729  6687 net.cpp:91] Creating Layer inception_4d/3x3_reduce
I0403 18:12:25.317749  6687 net.cpp:425] inception_4d/3x3_reduce <- inception_4c/output_inception_4c/output_0_split_1
I0403 18:12:25.317771  6687 net.cpp:399] inception_4d/3x3_reduce -> inception_4d/3x3_reduce
I0403 18:12:25.319317  6687 net.cpp:141] Setting up inception_4d/3x3_reduce
I0403 18:12:25.319347  6687 net.cpp:148] Top shape: 24 144 14 14 (677376)
I0403 18:12:25.319363  6687 net.cpp:156] Memory required for data: 1118106912
I0403 18:12:25.319383  6687 layer_factory.hpp:77] Creating layer inception_4d/relu_3x3_reduce
I0403 18:12:25.319401  6687 net.cpp:91] Creating Layer inception_4d/relu_3x3_reduce
I0403 18:12:25.319417  6687 net.cpp:425] inception_4d/relu_3x3_reduce <- inception_4d/3x3_reduce
I0403 18:12:25.319434  6687 net.cpp:386] inception_4d/relu_3x3_reduce -> inception_4d/3x3_reduce (in-place)
I0403 18:12:25.319726  6687 net.cpp:141] Setting up inception_4d/relu_3x3_reduce
I0403 18:12:25.319756  6687 net.cpp:148] Top shape: 24 144 14 14 (677376)
I0403 18:12:25.319772  6687 net.cpp:156] Memory required for data: 1120816416
I0403 18:12:25.319787  6687 layer_factory.hpp:77] Creating layer inception_4d/3x3
I0403 18:12:25.319808  6687 net.cpp:91] Creating Layer inception_4d/3x3
I0403 18:12:25.319825  6687 net.cpp:425] inception_4d/3x3 <- inception_4d/3x3_reduce
I0403 18:12:25.319844  6687 net.cpp:399] inception_4d/3x3 -> inception_4d/3x3
I0403 18:12:25.324223  6687 net.cpp:141] Setting up inception_4d/3x3
I0403 18:12:25.324255  6687 net.cpp:148] Top shape: 24 288 14 14 (1354752)
I0403 18:12:25.324271  6687 net.cpp:156] Memory required for data: 1126235424
I0403 18:12:25.324290  6687 layer_factory.hpp:77] Creating layer inception_4d/relu_3x3
I0403 18:12:25.324308  6687 net.cpp:91] Creating Layer inception_4d/relu_3x3
I0403 18:12:25.324326  6687 net.cpp:425] inception_4d/relu_3x3 <- inception_4d/3x3
I0403 18:12:25.324345  6687 net.cpp:386] inception_4d/relu_3x3 -> inception_4d/3x3 (in-place)
I0403 18:12:25.324533  6687 net.cpp:141] Setting up inception_4d/relu_3x3
I0403 18:12:25.324559  6687 net.cpp:148] Top shape: 24 288 14 14 (1354752)
I0403 18:12:25.324573  6687 net.cpp:156] Memory required for data: 1131654432
I0403 18:12:25.324589  6687 layer_factory.hpp:77] Creating layer inception_4d/5x5_reduce
I0403 18:12:25.324615  6687 net.cpp:91] Creating Layer inception_4d/5x5_reduce
I0403 18:12:25.324631  6687 net.cpp:425] inception_4d/5x5_reduce <- inception_4c/output_inception_4c/output_0_split_2
I0403 18:12:25.324652  6687 net.cpp:399] inception_4d/5x5_reduce -> inception_4d/5x5_reduce
I0403 18:12:25.325829  6687 net.cpp:141] Setting up inception_4d/5x5_reduce
I0403 18:12:25.325856  6687 net.cpp:148] Top shape: 24 32 14 14 (150528)
I0403 18:12:25.325872  6687 net.cpp:156] Memory required for data: 1132256544
I0403 18:12:25.325891  6687 layer_factory.hpp:77] Creating layer inception_4d/relu_5x5_reduce
I0403 18:12:25.325911  6687 net.cpp:91] Creating Layer inception_4d/relu_5x5_reduce
I0403 18:12:25.325927  6687 net.cpp:425] inception_4d/relu_5x5_reduce <- inception_4d/5x5_reduce
I0403 18:12:25.325944  6687 net.cpp:386] inception_4d/relu_5x5_reduce -> inception_4d/5x5_reduce (in-place)
I0403 18:12:25.326133  6687 net.cpp:141] Setting up inception_4d/relu_5x5_reduce
I0403 18:12:25.326158  6687 net.cpp:148] Top shape: 24 32 14 14 (150528)
I0403 18:12:25.326172  6687 net.cpp:156] Memory required for data: 1132858656
I0403 18:12:25.326189  6687 layer_factory.hpp:77] Creating layer inception_4d/5x5
I0403 18:12:25.326210  6687 net.cpp:91] Creating Layer inception_4d/5x5
I0403 18:12:25.326227  6687 net.cpp:425] inception_4d/5x5 <- inception_4d/5x5_reduce
I0403 18:12:25.326254  6687 net.cpp:399] inception_4d/5x5 -> inception_4d/5x5
I0403 18:12:25.327756  6687 net.cpp:141] Setting up inception_4d/5x5
I0403 18:12:25.327783  6687 net.cpp:148] Top shape: 24 64 14 14 (301056)
I0403 18:12:25.327798  6687 net.cpp:156] Memory required for data: 1134062880
I0403 18:12:25.327819  6687 layer_factory.hpp:77] Creating layer inception_4d/relu_5x5
I0403 18:12:25.327854  6687 net.cpp:91] Creating Layer inception_4d/relu_5x5
I0403 18:12:25.327872  6687 net.cpp:425] inception_4d/relu_5x5 <- inception_4d/5x5
I0403 18:12:25.327889  6687 net.cpp:386] inception_4d/relu_5x5 -> inception_4d/5x5 (in-place)
I0403 18:12:25.328181  6687 net.cpp:141] Setting up inception_4d/relu_5x5
I0403 18:12:25.328207  6687 net.cpp:148] Top shape: 24 64 14 14 (301056)
I0403 18:12:25.328222  6687 net.cpp:156] Memory required for data: 1135267104
I0403 18:12:25.328235  6687 layer_factory.hpp:77] Creating layer inception_4d/pool
I0403 18:12:25.328259  6687 net.cpp:91] Creating Layer inception_4d/pool
I0403 18:12:25.328276  6687 net.cpp:425] inception_4d/pool <- inception_4c/output_inception_4c/output_0_split_3
I0403 18:12:25.328294  6687 net.cpp:399] inception_4d/pool -> inception_4d/pool
I0403 18:12:25.328366  6687 net.cpp:141] Setting up inception_4d/pool
I0403 18:12:25.328388  6687 net.cpp:148] Top shape: 24 512 14 14 (2408448)
I0403 18:12:25.328402  6687 net.cpp:156] Memory required for data: 1144900896
I0403 18:12:25.328416  6687 layer_factory.hpp:77] Creating layer inception_4d/pool_proj
I0403 18:12:25.328438  6687 net.cpp:91] Creating Layer inception_4d/pool_proj
I0403 18:12:25.328454  6687 net.cpp:425] inception_4d/pool_proj <- inception_4d/pool
I0403 18:12:25.328474  6687 net.cpp:399] inception_4d/pool_proj -> inception_4d/pool_proj
I0403 18:12:25.330230  6687 net.cpp:141] Setting up inception_4d/pool_proj
I0403 18:12:25.330265  6687 net.cpp:148] Top shape: 24 64 14 14 (301056)
I0403 18:12:25.330279  6687 net.cpp:156] Memory required for data: 1146105120
I0403 18:12:25.330298  6687 layer_factory.hpp:77] Creating layer inception_4d/relu_pool_proj
I0403 18:12:25.330315  6687 net.cpp:91] Creating Layer inception_4d/relu_pool_proj
I0403 18:12:25.330332  6687 net.cpp:425] inception_4d/relu_pool_proj <- inception_4d/pool_proj
I0403 18:12:25.330350  6687 net.cpp:386] inception_4d/relu_pool_proj -> inception_4d/pool_proj (in-place)
I0403 18:12:25.330531  6687 net.cpp:141] Setting up inception_4d/relu_pool_proj
I0403 18:12:25.330555  6687 net.cpp:148] Top shape: 24 64 14 14 (301056)
I0403 18:12:25.330570  6687 net.cpp:156] Memory required for data: 1147309344
I0403 18:12:25.330585  6687 layer_factory.hpp:77] Creating layer inception_4d/output
I0403 18:12:25.330603  6687 net.cpp:91] Creating Layer inception_4d/output
I0403 18:12:25.330620  6687 net.cpp:425] inception_4d/output <- inception_4d/1x1
I0403 18:12:25.330636  6687 net.cpp:425] inception_4d/output <- inception_4d/3x3
I0403 18:12:25.330651  6687 net.cpp:425] inception_4d/output <- inception_4d/5x5
I0403 18:12:25.330667  6687 net.cpp:425] inception_4d/output <- inception_4d/pool_proj
I0403 18:12:25.330683  6687 net.cpp:399] inception_4d/output -> inception_4d/output
I0403 18:12:25.330730  6687 net.cpp:141] Setting up inception_4d/output
I0403 18:12:25.330754  6687 net.cpp:148] Top shape: 24 528 14 14 (2483712)
I0403 18:12:25.330767  6687 net.cpp:156] Memory required for data: 1157244192
I0403 18:12:25.330781  6687 layer_factory.hpp:77] Creating layer inception_4d/output_inception_4d/output_0_split
I0403 18:12:25.330798  6687 net.cpp:91] Creating Layer inception_4d/output_inception_4d/output_0_split
I0403 18:12:25.330813  6687 net.cpp:425] inception_4d/output_inception_4d/output_0_split <- inception_4d/output
I0403 18:12:25.330832  6687 net.cpp:399] inception_4d/output_inception_4d/output_0_split -> inception_4d/output_inception_4d/output_0_split_0
I0403 18:12:25.330852  6687 net.cpp:399] inception_4d/output_inception_4d/output_0_split -> inception_4d/output_inception_4d/output_0_split_1
I0403 18:12:25.330873  6687 net.cpp:399] inception_4d/output_inception_4d/output_0_split -> inception_4d/output_inception_4d/output_0_split_2
I0403 18:12:25.330891  6687 net.cpp:399] inception_4d/output_inception_4d/output_0_split -> inception_4d/output_inception_4d/output_0_split_3
I0403 18:12:25.330910  6687 net.cpp:399] inception_4d/output_inception_4d/output_0_split -> inception_4d/output_inception_4d/output_0_split_4
I0403 18:12:25.331012  6687 net.cpp:141] Setting up inception_4d/output_inception_4d/output_0_split
I0403 18:12:25.331048  6687 net.cpp:148] Top shape: 24 528 14 14 (2483712)
I0403 18:12:25.331066  6687 net.cpp:148] Top shape: 24 528 14 14 (2483712)
I0403 18:12:25.331082  6687 net.cpp:148] Top shape: 24 528 14 14 (2483712)
I0403 18:12:25.331097  6687 net.cpp:148] Top shape: 24 528 14 14 (2483712)
I0403 18:12:25.331112  6687 net.cpp:148] Top shape: 24 528 14 14 (2483712)
I0403 18:12:25.331126  6687 net.cpp:156] Memory required for data: 1206918432
I0403 18:12:25.331140  6687 layer_factory.hpp:77] Creating layer loss2/ave_pool
I0403 18:12:25.331156  6687 net.cpp:91] Creating Layer loss2/ave_pool
I0403 18:12:25.331172  6687 net.cpp:425] loss2/ave_pool <- inception_4d/output_inception_4d/output_0_split_0
I0403 18:12:25.331193  6687 net.cpp:399] loss2/ave_pool -> loss2/ave_pool
I0403 18:12:25.331504  6687 net.cpp:141] Setting up loss2/ave_pool
I0403 18:12:25.331531  6687 net.cpp:148] Top shape: 24 528 4 4 (202752)
I0403 18:12:25.331544  6687 net.cpp:156] Memory required for data: 1207729440
I0403 18:12:25.331559  6687 layer_factory.hpp:77] Creating layer loss2/conv
I0403 18:12:25.331581  6687 net.cpp:91] Creating Layer loss2/conv
I0403 18:12:25.331598  6687 net.cpp:425] loss2/conv <- loss2/ave_pool
I0403 18:12:25.331619  6687 net.cpp:399] loss2/conv -> loss2/conv
I0403 18:12:25.333508  6687 net.cpp:141] Setting up loss2/conv
I0403 18:12:25.333536  6687 net.cpp:148] Top shape: 24 128 4 4 (49152)
I0403 18:12:25.333555  6687 net.cpp:156] Memory required for data: 1207926048
I0403 18:12:25.333575  6687 layer_factory.hpp:77] Creating layer loss2/relu_conv
I0403 18:12:25.333591  6687 net.cpp:91] Creating Layer loss2/relu_conv
I0403 18:12:25.333607  6687 net.cpp:425] loss2/relu_conv <- loss2/conv
I0403 18:12:25.333624  6687 net.cpp:386] loss2/relu_conv -> loss2/conv (in-place)
I0403 18:12:25.333904  6687 net.cpp:141] Setting up loss2/relu_conv
I0403 18:12:25.333931  6687 net.cpp:148] Top shape: 24 128 4 4 (49152)
I0403 18:12:25.333946  6687 net.cpp:156] Memory required for data: 1208122656
I0403 18:12:25.333961  6687 layer_factory.hpp:77] Creating layer loss2/fc
I0403 18:12:25.333981  6687 net.cpp:91] Creating Layer loss2/fc
I0403 18:12:25.333997  6687 net.cpp:425] loss2/fc <- loss2/conv
I0403 18:12:25.334018  6687 net.cpp:399] loss2/fc -> loss2/fc
I0403 18:12:25.352046  6687 net.cpp:141] Setting up loss2/fc
I0403 18:12:25.352097  6687 net.cpp:148] Top shape: 24 1024 (24576)
I0403 18:12:25.352113  6687 net.cpp:156] Memory required for data: 1208220960
I0403 18:12:25.352131  6687 layer_factory.hpp:77] Creating layer loss2/relu_fc
I0403 18:12:25.352164  6687 net.cpp:91] Creating Layer loss2/relu_fc
I0403 18:12:25.352182  6687 net.cpp:425] loss2/relu_fc <- loss2/fc
I0403 18:12:25.352200  6687 net.cpp:386] loss2/relu_fc -> loss2/fc (in-place)
I0403 18:12:25.352527  6687 net.cpp:141] Setting up loss2/relu_fc
I0403 18:12:25.352555  6687 net.cpp:148] Top shape: 24 1024 (24576)
I0403 18:12:25.352571  6687 net.cpp:156] Memory required for data: 1208319264
I0403 18:12:25.352586  6687 layer_factory.hpp:77] Creating layer loss2/drop_fc
I0403 18:12:25.352607  6687 net.cpp:91] Creating Layer loss2/drop_fc
I0403 18:12:25.352623  6687 net.cpp:425] loss2/drop_fc <- loss2/fc
I0403 18:12:25.352641  6687 net.cpp:386] loss2/drop_fc -> loss2/fc (in-place)
I0403 18:12:25.352689  6687 net.cpp:141] Setting up loss2/drop_fc
I0403 18:12:25.352713  6687 net.cpp:148] Top shape: 24 1024 (24576)
I0403 18:12:25.352730  6687 net.cpp:156] Memory required for data: 1208417568
I0403 18:12:25.352746  6687 layer_factory.hpp:77] Creating layer loss2/classifier_plantvillage
I0403 18:12:25.352763  6687 net.cpp:91] Creating Layer loss2/classifier_plantvillage
I0403 18:12:25.352778  6687 net.cpp:425] loss2/classifier_plantvillage <- loss2/fc
I0403 18:12:25.352798  6687 net.cpp:399] loss2/classifier_plantvillage -> loss2/classifier_plantvillage
I0403 18:12:25.353190  6687 net.cpp:141] Setting up loss2/classifier_plantvillage
I0403 18:12:25.353217  6687 net.cpp:148] Top shape: 24 38 (912)
I0403 18:12:25.353255  6687 net.cpp:156] Memory required for data: 1208421216
I0403 18:12:25.353273  6687 layer_factory.hpp:77] Creating layer loss2/classifier_plantvillage_loss2/classifier_plantvillage_0_split
I0403 18:12:25.353291  6687 net.cpp:91] Creating Layer loss2/classifier_plantvillage_loss2/classifier_plantvillage_0_split
I0403 18:12:25.353307  6687 net.cpp:425] loss2/classifier_plantvillage_loss2/classifier_plantvillage_0_split <- loss2/classifier_plantvillage
I0403 18:12:25.353323  6687 net.cpp:399] loss2/classifier_plantvillage_loss2/classifier_plantvillage_0_split -> loss2/classifier_plantvillage_loss2/classifier_plantvillage_0_split_0
I0403 18:12:25.353345  6687 net.cpp:399] loss2/classifier_plantvillage_loss2/classifier_plantvillage_0_split -> loss2/classifier_plantvillage_loss2/classifier_plantvillage_0_split_1
I0403 18:12:25.353368  6687 net.cpp:399] loss2/classifier_plantvillage_loss2/classifier_plantvillage_0_split -> loss2/classifier_plantvillage_loss2/classifier_plantvillage_0_split_2
I0403 18:12:25.353443  6687 net.cpp:141] Setting up loss2/classifier_plantvillage_loss2/classifier_plantvillage_0_split
I0403 18:12:25.353466  6687 net.cpp:148] Top shape: 24 38 (912)
I0403 18:12:25.353482  6687 net.cpp:148] Top shape: 24 38 (912)
I0403 18:12:25.353497  6687 net.cpp:148] Top shape: 24 38 (912)
I0403 18:12:25.353510  6687 net.cpp:156] Memory required for data: 1208432160
I0403 18:12:25.353524  6687 layer_factory.hpp:77] Creating layer inception_4e/1x1
I0403 18:12:25.353548  6687 net.cpp:91] Creating Layer inception_4e/1x1
I0403 18:12:25.353564  6687 net.cpp:425] inception_4e/1x1 <- inception_4d/output_inception_4d/output_0_split_1
I0403 18:12:25.353585  6687 net.cpp:399] inception_4e/1x1 -> inception_4e/1x1
I0403 18:12:25.355370  6687 net.cpp:141] Setting up inception_4e/1x1
I0403 18:12:25.355397  6687 net.cpp:148] Top shape: 24 256 14 14 (1204224)
I0403 18:12:25.355412  6687 net.cpp:156] Memory required for data: 1213249056
I0403 18:12:25.355430  6687 layer_factory.hpp:77] Creating layer inception_4e/relu_1x1
I0403 18:12:25.355449  6687 net.cpp:91] Creating Layer inception_4e/relu_1x1
I0403 18:12:25.355466  6687 net.cpp:425] inception_4e/relu_1x1 <- inception_4e/1x1
I0403 18:12:25.355484  6687 net.cpp:386] inception_4e/relu_1x1 -> inception_4e/1x1 (in-place)
I0403 18:12:25.355777  6687 net.cpp:141] Setting up inception_4e/relu_1x1
I0403 18:12:25.355803  6687 net.cpp:148] Top shape: 24 256 14 14 (1204224)
I0403 18:12:25.355818  6687 net.cpp:156] Memory required for data: 1218065952
I0403 18:12:25.355832  6687 layer_factory.hpp:77] Creating layer inception_4e/3x3_reduce
I0403 18:12:25.355855  6687 net.cpp:91] Creating Layer inception_4e/3x3_reduce
I0403 18:12:25.355872  6687 net.cpp:425] inception_4e/3x3_reduce <- inception_4d/output_inception_4d/output_0_split_2
I0403 18:12:25.355891  6687 net.cpp:399] inception_4e/3x3_reduce -> inception_4e/3x3_reduce
I0403 18:12:25.358045  6687 net.cpp:141] Setting up inception_4e/3x3_reduce
I0403 18:12:25.358075  6687 net.cpp:148] Top shape: 24 160 14 14 (752640)
I0403 18:12:25.358093  6687 net.cpp:156] Memory required for data: 1221076512
I0403 18:12:25.358113  6687 layer_factory.hpp:77] Creating layer inception_4e/relu_3x3_reduce
I0403 18:12:25.358134  6687 net.cpp:91] Creating Layer inception_4e/relu_3x3_reduce
I0403 18:12:25.358150  6687 net.cpp:425] inception_4e/relu_3x3_reduce <- inception_4e/3x3_reduce
I0403 18:12:25.358168  6687 net.cpp:386] inception_4e/relu_3x3_reduce -> inception_4e/3x3_reduce (in-place)
I0403 18:12:25.358409  6687 net.cpp:141] Setting up inception_4e/relu_3x3_reduce
I0403 18:12:25.358438  6687 net.cpp:148] Top shape: 24 160 14 14 (752640)
I0403 18:12:25.358453  6687 net.cpp:156] Memory required for data: 1224087072
I0403 18:12:25.358469  6687 layer_factory.hpp:77] Creating layer inception_4e/3x3
I0403 18:12:25.358502  6687 net.cpp:91] Creating Layer inception_4e/3x3
I0403 18:12:25.358520  6687 net.cpp:425] inception_4e/3x3 <- inception_4e/3x3_reduce
I0403 18:12:25.358538  6687 net.cpp:399] inception_4e/3x3 -> inception_4e/3x3
I0403 18:12:25.363726  6687 net.cpp:141] Setting up inception_4e/3x3
I0403 18:12:25.363770  6687 net.cpp:148] Top shape: 24 320 14 14 (1505280)
I0403 18:12:25.363786  6687 net.cpp:156] Memory required for data: 1230108192
I0403 18:12:25.363804  6687 layer_factory.hpp:77] Creating layer inception_4e/relu_3x3
I0403 18:12:25.363822  6687 net.cpp:91] Creating Layer inception_4e/relu_3x3
I0403 18:12:25.363838  6687 net.cpp:425] inception_4e/relu_3x3 <- inception_4e/3x3
I0403 18:12:25.363858  6687 net.cpp:386] inception_4e/relu_3x3 -> inception_4e/3x3 (in-place)
I0403 18:12:25.364156  6687 net.cpp:141] Setting up inception_4e/relu_3x3
I0403 18:12:25.364183  6687 net.cpp:148] Top shape: 24 320 14 14 (1505280)
I0403 18:12:25.364198  6687 net.cpp:156] Memory required for data: 1236129312
I0403 18:12:25.364213  6687 layer_factory.hpp:77] Creating layer inception_4e/5x5_reduce
I0403 18:12:25.364236  6687 net.cpp:91] Creating Layer inception_4e/5x5_reduce
I0403 18:12:25.364259  6687 net.cpp:425] inception_4e/5x5_reduce <- inception_4d/output_inception_4d/output_0_split_3
I0403 18:12:25.364281  6687 net.cpp:399] inception_4e/5x5_reduce -> inception_4e/5x5_reduce
I0403 18:12:25.365353  6687 net.cpp:141] Setting up inception_4e/5x5_reduce
I0403 18:12:25.365381  6687 net.cpp:148] Top shape: 24 32 14 14 (150528)
I0403 18:12:25.365396  6687 net.cpp:156] Memory required for data: 1236731424
I0403 18:12:25.365416  6687 layer_factory.hpp:77] Creating layer inception_4e/relu_5x5_reduce
I0403 18:12:25.365435  6687 net.cpp:91] Creating Layer inception_4e/relu_5x5_reduce
I0403 18:12:25.365453  6687 net.cpp:425] inception_4e/relu_5x5_reduce <- inception_4e/5x5_reduce
I0403 18:12:25.365469  6687 net.cpp:386] inception_4e/relu_5x5_reduce -> inception_4e/5x5_reduce (in-place)
I0403 18:12:25.365769  6687 net.cpp:141] Setting up inception_4e/relu_5x5_reduce
I0403 18:12:25.365795  6687 net.cpp:148] Top shape: 24 32 14 14 (150528)
I0403 18:12:25.365810  6687 net.cpp:156] Memory required for data: 1237333536
I0403 18:12:25.365825  6687 layer_factory.hpp:77] Creating layer inception_4e/5x5
I0403 18:12:25.365864  6687 net.cpp:91] Creating Layer inception_4e/5x5
I0403 18:12:25.365883  6687 net.cpp:425] inception_4e/5x5 <- inception_4e/5x5_reduce
I0403 18:12:25.365903  6687 net.cpp:399] inception_4e/5x5 -> inception_4e/5x5
I0403 18:12:25.367744  6687 net.cpp:141] Setting up inception_4e/5x5
I0403 18:12:25.367772  6687 net.cpp:148] Top shape: 24 128 14 14 (602112)
I0403 18:12:25.367787  6687 net.cpp:156] Memory required for data: 1239741984
I0403 18:12:25.367806  6687 layer_factory.hpp:77] Creating layer inception_4e/relu_5x5
I0403 18:12:25.367827  6687 net.cpp:91] Creating Layer inception_4e/relu_5x5
I0403 18:12:25.367844  6687 net.cpp:425] inception_4e/relu_5x5 <- inception_4e/5x5
I0403 18:12:25.367861  6687 net.cpp:386] inception_4e/relu_5x5 -> inception_4e/5x5 (in-place)
I0403 18:12:25.368059  6687 net.cpp:141] Setting up inception_4e/relu_5x5
I0403 18:12:25.368088  6687 net.cpp:148] Top shape: 24 128 14 14 (602112)
I0403 18:12:25.368103  6687 net.cpp:156] Memory required for data: 1242150432
I0403 18:12:25.368118  6687 layer_factory.hpp:77] Creating layer inception_4e/pool
I0403 18:12:25.368135  6687 net.cpp:91] Creating Layer inception_4e/pool
I0403 18:12:25.368151  6687 net.cpp:425] inception_4e/pool <- inception_4d/output_inception_4d/output_0_split_4
I0403 18:12:25.368168  6687 net.cpp:399] inception_4e/pool -> inception_4e/pool
I0403 18:12:25.368243  6687 net.cpp:141] Setting up inception_4e/pool
I0403 18:12:25.368268  6687 net.cpp:148] Top shape: 24 528 14 14 (2483712)
I0403 18:12:25.368281  6687 net.cpp:156] Memory required for data: 1252085280
I0403 18:12:25.368296  6687 layer_factory.hpp:77] Creating layer inception_4e/pool_proj
I0403 18:12:25.368319  6687 net.cpp:91] Creating Layer inception_4e/pool_proj
I0403 18:12:25.368335  6687 net.cpp:425] inception_4e/pool_proj <- inception_4e/pool
I0403 18:12:25.368355  6687 net.cpp:399] inception_4e/pool_proj -> inception_4e/pool_proj
I0403 18:12:25.369871  6687 net.cpp:141] Setting up inception_4e/pool_proj
I0403 18:12:25.369910  6687 net.cpp:148] Top shape: 24 128 14 14 (602112)
I0403 18:12:25.369926  6687 net.cpp:156] Memory required for data: 1254493728
I0403 18:12:25.369946  6687 layer_factory.hpp:77] Creating layer inception_4e/relu_pool_proj
I0403 18:12:25.369962  6687 net.cpp:91] Creating Layer inception_4e/relu_pool_proj
I0403 18:12:25.369978  6687 net.cpp:425] inception_4e/relu_pool_proj <- inception_4e/pool_proj
I0403 18:12:25.370000  6687 net.cpp:386] inception_4e/relu_pool_proj -> inception_4e/pool_proj (in-place)
I0403 18:12:25.370301  6687 net.cpp:141] Setting up inception_4e/relu_pool_proj
I0403 18:12:25.370327  6687 net.cpp:148] Top shape: 24 128 14 14 (602112)
I0403 18:12:25.370342  6687 net.cpp:156] Memory required for data: 1256902176
I0403 18:12:25.370357  6687 layer_factory.hpp:77] Creating layer inception_4e/output
I0403 18:12:25.370374  6687 net.cpp:91] Creating Layer inception_4e/output
I0403 18:12:25.370390  6687 net.cpp:425] inception_4e/output <- inception_4e/1x1
I0403 18:12:25.370407  6687 net.cpp:425] inception_4e/output <- inception_4e/3x3
I0403 18:12:25.370424  6687 net.cpp:425] inception_4e/output <- inception_4e/5x5
I0403 18:12:25.370440  6687 net.cpp:425] inception_4e/output <- inception_4e/pool_proj
I0403 18:12:25.370460  6687 net.cpp:399] inception_4e/output -> inception_4e/output
I0403 18:12:25.370508  6687 net.cpp:141] Setting up inception_4e/output
I0403 18:12:25.370534  6687 net.cpp:148] Top shape: 24 832 14 14 (3913728)
I0403 18:12:25.370550  6687 net.cpp:156] Memory required for data: 1272557088
I0403 18:12:25.370564  6687 layer_factory.hpp:77] Creating layer pool4/3x3_s2
I0403 18:12:25.370582  6687 net.cpp:91] Creating Layer pool4/3x3_s2
I0403 18:12:25.370597  6687 net.cpp:425] pool4/3x3_s2 <- inception_4e/output
I0403 18:12:25.370618  6687 net.cpp:399] pool4/3x3_s2 -> pool4/3x3_s2
I0403 18:12:25.370687  6687 net.cpp:141] Setting up pool4/3x3_s2
I0403 18:12:25.370710  6687 net.cpp:148] Top shape: 24 832 7 7 (978432)
I0403 18:12:25.370724  6687 net.cpp:156] Memory required for data: 1276470816
I0403 18:12:25.370739  6687 layer_factory.hpp:77] Creating layer pool4/3x3_s2_pool4/3x3_s2_0_split
I0403 18:12:25.370759  6687 net.cpp:91] Creating Layer pool4/3x3_s2_pool4/3x3_s2_0_split
I0403 18:12:25.370775  6687 net.cpp:425] pool4/3x3_s2_pool4/3x3_s2_0_split <- pool4/3x3_s2
I0403 18:12:25.370792  6687 net.cpp:399] pool4/3x3_s2_pool4/3x3_s2_0_split -> pool4/3x3_s2_pool4/3x3_s2_0_split_0
I0403 18:12:25.370811  6687 net.cpp:399] pool4/3x3_s2_pool4/3x3_s2_0_split -> pool4/3x3_s2_pool4/3x3_s2_0_split_1
I0403 18:12:25.370834  6687 net.cpp:399] pool4/3x3_s2_pool4/3x3_s2_0_split -> pool4/3x3_s2_pool4/3x3_s2_0_split_2
I0403 18:12:25.370854  6687 net.cpp:399] pool4/3x3_s2_pool4/3x3_s2_0_split -> pool4/3x3_s2_pool4/3x3_s2_0_split_3
I0403 18:12:25.370945  6687 net.cpp:141] Setting up pool4/3x3_s2_pool4/3x3_s2_0_split
I0403 18:12:25.370970  6687 net.cpp:148] Top shape: 24 832 7 7 (978432)
I0403 18:12:25.370985  6687 net.cpp:148] Top shape: 24 832 7 7 (978432)
I0403 18:12:25.371001  6687 net.cpp:148] Top shape: 24 832 7 7 (978432)
I0403 18:12:25.371016  6687 net.cpp:148] Top shape: 24 832 7 7 (978432)
I0403 18:12:25.371042  6687 net.cpp:156] Memory required for data: 1292125728
I0403 18:12:25.371057  6687 layer_factory.hpp:77] Creating layer inception_5a/1x1
I0403 18:12:25.371079  6687 net.cpp:91] Creating Layer inception_5a/1x1
I0403 18:12:25.371098  6687 net.cpp:425] inception_5a/1x1 <- pool4/3x3_s2_pool4/3x3_s2_0_split_0
I0403 18:12:25.371119  6687 net.cpp:399] inception_5a/1x1 -> inception_5a/1x1
I0403 18:12:25.374068  6687 net.cpp:141] Setting up inception_5a/1x1
I0403 18:12:25.374097  6687 net.cpp:148] Top shape: 24 256 7 7 (301056)
I0403 18:12:25.374112  6687 net.cpp:156] Memory required for data: 1293329952
I0403 18:12:25.374131  6687 layer_factory.hpp:77] Creating layer inception_5a/relu_1x1
I0403 18:12:25.374150  6687 net.cpp:91] Creating Layer inception_5a/relu_1x1
I0403 18:12:25.374167  6687 net.cpp:425] inception_5a/relu_1x1 <- inception_5a/1x1
I0403 18:12:25.374184  6687 net.cpp:386] inception_5a/relu_1x1 -> inception_5a/1x1 (in-place)
I0403 18:12:25.374510  6687 net.cpp:141] Setting up inception_5a/relu_1x1
I0403 18:12:25.374536  6687 net.cpp:148] Top shape: 24 256 7 7 (301056)
I0403 18:12:25.374552  6687 net.cpp:156] Memory required for data: 1294534176
I0403 18:12:25.374567  6687 layer_factory.hpp:77] Creating layer inception_5a/3x3_reduce
I0403 18:12:25.374588  6687 net.cpp:91] Creating Layer inception_5a/3x3_reduce
I0403 18:12:25.374606  6687 net.cpp:425] inception_5a/3x3_reduce <- pool4/3x3_s2_pool4/3x3_s2_0_split_1
I0403 18:12:25.374629  6687 net.cpp:399] inception_5a/3x3_reduce -> inception_5a/3x3_reduce
I0403 18:12:25.377106  6687 net.cpp:141] Setting up inception_5a/3x3_reduce
I0403 18:12:25.377135  6687 net.cpp:148] Top shape: 24 160 7 7 (188160)
I0403 18:12:25.377151  6687 net.cpp:156] Memory required for data: 1295286816
I0403 18:12:25.377171  6687 layer_factory.hpp:77] Creating layer inception_5a/relu_3x3_reduce
I0403 18:12:25.377188  6687 net.cpp:91] Creating Layer inception_5a/relu_3x3_reduce
I0403 18:12:25.377204  6687 net.cpp:425] inception_5a/relu_3x3_reduce <- inception_5a/3x3_reduce
I0403 18:12:25.377224  6687 net.cpp:386] inception_5a/relu_3x3_reduce -> inception_5a/3x3_reduce (in-place)
I0403 18:12:25.377418  6687 net.cpp:141] Setting up inception_5a/relu_3x3_reduce
I0403 18:12:25.377444  6687 net.cpp:148] Top shape: 24 160 7 7 (188160)
I0403 18:12:25.377459  6687 net.cpp:156] Memory required for data: 1296039456
I0403 18:12:25.377472  6687 layer_factory.hpp:77] Creating layer inception_5a/3x3
I0403 18:12:25.377495  6687 net.cpp:91] Creating Layer inception_5a/3x3
I0403 18:12:25.377512  6687 net.cpp:425] inception_5a/3x3 <- inception_5a/3x3_reduce
I0403 18:12:25.377534  6687 net.cpp:399] inception_5a/3x3 -> inception_5a/3x3
I0403 18:12:25.382731  6687 net.cpp:141] Setting up inception_5a/3x3
I0403 18:12:25.382761  6687 net.cpp:148] Top shape: 24 320 7 7 (376320)
I0403 18:12:25.382776  6687 net.cpp:156] Memory required for data: 1297544736
I0403 18:12:25.382796  6687 layer_factory.hpp:77] Creating layer inception_5a/relu_3x3
I0403 18:12:25.382815  6687 net.cpp:91] Creating Layer inception_5a/relu_3x3
I0403 18:12:25.382832  6687 net.cpp:425] inception_5a/relu_3x3 <- inception_5a/3x3
I0403 18:12:25.382849  6687 net.cpp:386] inception_5a/relu_3x3 -> inception_5a/3x3 (in-place)
I0403 18:12:25.383146  6687 net.cpp:141] Setting up inception_5a/relu_3x3
I0403 18:12:25.383172  6687 net.cpp:148] Top shape: 24 320 7 7 (376320)
I0403 18:12:25.383188  6687 net.cpp:156] Memory required for data: 1299050016
I0403 18:12:25.383203  6687 layer_factory.hpp:77] Creating layer inception_5a/5x5_reduce
I0403 18:12:25.383225  6687 net.cpp:91] Creating Layer inception_5a/5x5_reduce
I0403 18:12:25.383246  6687 net.cpp:425] inception_5a/5x5_reduce <- pool4/3x3_s2_pool4/3x3_s2_0_split_2
I0403 18:12:25.383270  6687 net.cpp:399] inception_5a/5x5_reduce -> inception_5a/5x5_reduce
I0403 18:12:25.384459  6687 net.cpp:141] Setting up inception_5a/5x5_reduce
I0403 18:12:25.384490  6687 net.cpp:148] Top shape: 24 32 7 7 (37632)
I0403 18:12:25.384506  6687 net.cpp:156] Memory required for data: 1299200544
I0403 18:12:25.384524  6687 layer_factory.hpp:77] Creating layer inception_5a/relu_5x5_reduce
I0403 18:12:25.384542  6687 net.cpp:91] Creating Layer inception_5a/relu_5x5_reduce
I0403 18:12:25.384558  6687 net.cpp:425] inception_5a/relu_5x5_reduce <- inception_5a/5x5_reduce
I0403 18:12:25.384577  6687 net.cpp:386] inception_5a/relu_5x5_reduce -> inception_5a/5x5_reduce (in-place)
I0403 18:12:25.384884  6687 net.cpp:141] Setting up inception_5a/relu_5x5_reduce
I0403 18:12:25.384912  6687 net.cpp:148] Top shape: 24 32 7 7 (37632)
I0403 18:12:25.384928  6687 net.cpp:156] Memory required for data: 1299351072
I0403 18:12:25.384943  6687 layer_factory.hpp:77] Creating layer inception_5a/5x5
I0403 18:12:25.384963  6687 net.cpp:91] Creating Layer inception_5a/5x5
I0403 18:12:25.384980  6687 net.cpp:425] inception_5a/5x5 <- inception_5a/5x5_reduce
I0403 18:12:25.385001  6687 net.cpp:399] inception_5a/5x5 -> inception_5a/5x5
I0403 18:12:25.386747  6687 net.cpp:141] Setting up inception_5a/5x5
I0403 18:12:25.386787  6687 net.cpp:148] Top shape: 24 128 7 7 (150528)
I0403 18:12:25.386803  6687 net.cpp:156] Memory required for data: 1299953184
I0403 18:12:25.386821  6687 layer_factory.hpp:77] Creating layer inception_5a/relu_5x5
I0403 18:12:25.386842  6687 net.cpp:91] Creating Layer inception_5a/relu_5x5
I0403 18:12:25.386859  6687 net.cpp:425] inception_5a/relu_5x5 <- inception_5a/5x5
I0403 18:12:25.386876  6687 net.cpp:386] inception_5a/relu_5x5 -> inception_5a/5x5 (in-place)
I0403 18:12:25.387069  6687 net.cpp:141] Setting up inception_5a/relu_5x5
I0403 18:12:25.387096  6687 net.cpp:148] Top shape: 24 128 7 7 (150528)
I0403 18:12:25.387112  6687 net.cpp:156] Memory required for data: 1300555296
I0403 18:12:25.387127  6687 layer_factory.hpp:77] Creating layer inception_5a/pool
I0403 18:12:25.387145  6687 net.cpp:91] Creating Layer inception_5a/pool
I0403 18:12:25.387161  6687 net.cpp:425] inception_5a/pool <- pool4/3x3_s2_pool4/3x3_s2_0_split_3
I0403 18:12:25.387178  6687 net.cpp:399] inception_5a/pool -> inception_5a/pool
I0403 18:12:25.387255  6687 net.cpp:141] Setting up inception_5a/pool
I0403 18:12:25.387279  6687 net.cpp:148] Top shape: 24 832 7 7 (978432)
I0403 18:12:25.387293  6687 net.cpp:156] Memory required for data: 1304469024
I0403 18:12:25.387307  6687 layer_factory.hpp:77] Creating layer inception_5a/pool_proj
I0403 18:12:25.387329  6687 net.cpp:91] Creating Layer inception_5a/pool_proj
I0403 18:12:25.387346  6687 net.cpp:425] inception_5a/pool_proj <- inception_5a/pool
I0403 18:12:25.387367  6687 net.cpp:399] inception_5a/pool_proj -> inception_5a/pool_proj
I0403 18:12:25.389695  6687 net.cpp:141] Setting up inception_5a/pool_proj
I0403 18:12:25.389725  6687 net.cpp:148] Top shape: 24 128 7 7 (150528)
I0403 18:12:25.389740  6687 net.cpp:156] Memory required for data: 1305071136
I0403 18:12:25.389760  6687 layer_factory.hpp:77] Creating layer inception_5a/relu_pool_proj
I0403 18:12:25.389780  6687 net.cpp:91] Creating Layer inception_5a/relu_pool_proj
I0403 18:12:25.389796  6687 net.cpp:425] inception_5a/relu_pool_proj <- inception_5a/pool_proj
I0403 18:12:25.389814  6687 net.cpp:386] inception_5a/relu_pool_proj -> inception_5a/pool_proj (in-place)
I0403 18:12:25.390108  6687 net.cpp:141] Setting up inception_5a/relu_pool_proj
I0403 18:12:25.390136  6687 net.cpp:148] Top shape: 24 128 7 7 (150528)
I0403 18:12:25.390151  6687 net.cpp:156] Memory required for data: 1305673248
I0403 18:12:25.390166  6687 layer_factory.hpp:77] Creating layer inception_5a/output
I0403 18:12:25.390183  6687 net.cpp:91] Creating Layer inception_5a/output
I0403 18:12:25.390200  6687 net.cpp:425] inception_5a/output <- inception_5a/1x1
I0403 18:12:25.390216  6687 net.cpp:425] inception_5a/output <- inception_5a/3x3
I0403 18:12:25.390233  6687 net.cpp:425] inception_5a/output <- inception_5a/5x5
I0403 18:12:25.390254  6687 net.cpp:425] inception_5a/output <- inception_5a/pool_proj
I0403 18:12:25.390275  6687 net.cpp:399] inception_5a/output -> inception_5a/output
I0403 18:12:25.390324  6687 net.cpp:141] Setting up inception_5a/output
I0403 18:12:25.390350  6687 net.cpp:148] Top shape: 24 832 7 7 (978432)
I0403 18:12:25.390365  6687 net.cpp:156] Memory required for data: 1309586976
I0403 18:12:25.390380  6687 layer_factory.hpp:77] Creating layer inception_5a/output_inception_5a/output_0_split
I0403 18:12:25.390398  6687 net.cpp:91] Creating Layer inception_5a/output_inception_5a/output_0_split
I0403 18:12:25.390413  6687 net.cpp:425] inception_5a/output_inception_5a/output_0_split <- inception_5a/output
I0403 18:12:25.390434  6687 net.cpp:399] inception_5a/output_inception_5a/output_0_split -> inception_5a/output_inception_5a/output_0_split_0
I0403 18:12:25.390455  6687 net.cpp:399] inception_5a/output_inception_5a/output_0_split -> inception_5a/output_inception_5a/output_0_split_1
I0403 18:12:25.390475  6687 net.cpp:399] inception_5a/output_inception_5a/output_0_split -> inception_5a/output_inception_5a/output_0_split_2
I0403 18:12:25.390496  6687 net.cpp:399] inception_5a/output_inception_5a/output_0_split -> inception_5a/output_inception_5a/output_0_split_3
I0403 18:12:25.390607  6687 net.cpp:141] Setting up inception_5a/output_inception_5a/output_0_split
I0403 18:12:25.390630  6687 net.cpp:148] Top shape: 24 832 7 7 (978432)
I0403 18:12:25.390650  6687 net.cpp:148] Top shape: 24 832 7 7 (978432)
I0403 18:12:25.390664  6687 net.cpp:148] Top shape: 24 832 7 7 (978432)
I0403 18:12:25.390681  6687 net.cpp:148] Top shape: 24 832 7 7 (978432)
I0403 18:12:25.390694  6687 net.cpp:156] Memory required for data: 1325241888
I0403 18:12:25.390709  6687 layer_factory.hpp:77] Creating layer inception_5b/1x1
I0403 18:12:25.390728  6687 net.cpp:91] Creating Layer inception_5b/1x1
I0403 18:12:25.390745  6687 net.cpp:425] inception_5b/1x1 <- inception_5a/output_inception_5a/output_0_split_0
I0403 18:12:25.390766  6687 net.cpp:399] inception_5b/1x1 -> inception_5b/1x1
I0403 18:12:25.394580  6687 net.cpp:141] Setting up inception_5b/1x1
I0403 18:12:25.394610  6687 net.cpp:148] Top shape: 24 384 7 7 (451584)
I0403 18:12:25.394626  6687 net.cpp:156] Memory required for data: 1327048224
I0403 18:12:25.394645  6687 layer_factory.hpp:77] Creating layer inception_5b/relu_1x1
I0403 18:12:25.394662  6687 net.cpp:91] Creating Layer inception_5b/relu_1x1
I0403 18:12:25.394680  6687 net.cpp:425] inception_5b/relu_1x1 <- inception_5b/1x1
I0403 18:12:25.394700  6687 net.cpp:386] inception_5b/relu_1x1 -> inception_5b/1x1 (in-place)
I0403 18:12:25.395006  6687 net.cpp:141] Setting up inception_5b/relu_1x1
I0403 18:12:25.395032  6687 net.cpp:148] Top shape: 24 384 7 7 (451584)
I0403 18:12:25.395047  6687 net.cpp:156] Memory required for data: 1328854560
I0403 18:12:25.395063  6687 layer_factory.hpp:77] Creating layer inception_5b/3x3_reduce
I0403 18:12:25.395086  6687 net.cpp:91] Creating Layer inception_5b/3x3_reduce
I0403 18:12:25.395103  6687 net.cpp:425] inception_5b/3x3_reduce <- inception_5a/output_inception_5a/output_0_split_1
I0403 18:12:25.395125  6687 net.cpp:399] inception_5b/3x3_reduce -> inception_5b/3x3_reduce
I0403 18:12:25.397828  6687 net.cpp:141] Setting up inception_5b/3x3_reduce
I0403 18:12:25.397858  6687 net.cpp:148] Top shape: 24 192 7 7 (225792)
I0403 18:12:25.397874  6687 net.cpp:156] Memory required for data: 1329757728
I0403 18:12:25.397892  6687 layer_factory.hpp:77] Creating layer inception_5b/relu_3x3_reduce
I0403 18:12:25.397913  6687 net.cpp:91] Creating Layer inception_5b/relu_3x3_reduce
I0403 18:12:25.397932  6687 net.cpp:425] inception_5b/relu_3x3_reduce <- inception_5b/3x3_reduce
I0403 18:12:25.397949  6687 net.cpp:386] inception_5b/relu_3x3_reduce -> inception_5b/3x3_reduce (in-place)
I0403 18:12:25.398144  6687 net.cpp:141] Setting up inception_5b/relu_3x3_reduce
I0403 18:12:25.398169  6687 net.cpp:148] Top shape: 24 192 7 7 (225792)
I0403 18:12:25.398183  6687 net.cpp:156] Memory required for data: 1330660896
I0403 18:12:25.398198  6687 layer_factory.hpp:77] Creating layer inception_5b/3x3
I0403 18:12:25.398221  6687 net.cpp:91] Creating Layer inception_5b/3x3
I0403 18:12:25.398238  6687 net.cpp:425] inception_5b/3x3 <- inception_5b/3x3_reduce
I0403 18:12:25.398267  6687 net.cpp:399] inception_5b/3x3 -> inception_5b/3x3
I0403 18:12:25.405294  6687 net.cpp:141] Setting up inception_5b/3x3
I0403 18:12:25.405328  6687 net.cpp:148] Top shape: 24 384 7 7 (451584)
I0403 18:12:25.405344  6687 net.cpp:156] Memory required for data: 1332467232
I0403 18:12:25.405362  6687 layer_factory.hpp:77] Creating layer inception_5b/relu_3x3
I0403 18:12:25.405383  6687 net.cpp:91] Creating Layer inception_5b/relu_3x3
I0403 18:12:25.405402  6687 net.cpp:425] inception_5b/relu_3x3 <- inception_5b/3x3
I0403 18:12:25.405421  6687 net.cpp:386] inception_5b/relu_3x3 -> inception_5b/3x3 (in-place)
I0403 18:12:25.405728  6687 net.cpp:141] Setting up inception_5b/relu_3x3
I0403 18:12:25.405756  6687 net.cpp:148] Top shape: 24 384 7 7 (451584)
I0403 18:12:25.405771  6687 net.cpp:156] Memory required for data: 1334273568
I0403 18:12:25.405787  6687 layer_factory.hpp:77] Creating layer inception_5b/5x5_reduce
I0403 18:12:25.405832  6687 net.cpp:91] Creating Layer inception_5b/5x5_reduce
I0403 18:12:25.405850  6687 net.cpp:425] inception_5b/5x5_reduce <- inception_5a/output_inception_5a/output_0_split_2
I0403 18:12:25.405874  6687 net.cpp:399] inception_5b/5x5_reduce -> inception_5b/5x5_reduce
I0403 18:12:25.407210  6687 net.cpp:141] Setting up inception_5b/5x5_reduce
I0403 18:12:25.407243  6687 net.cpp:148] Top shape: 24 48 7 7 (56448)
I0403 18:12:25.407260  6687 net.cpp:156] Memory required for data: 1334499360
I0403 18:12:25.407280  6687 layer_factory.hpp:77] Creating layer inception_5b/relu_5x5_reduce
I0403 18:12:25.407299  6687 net.cpp:91] Creating Layer inception_5b/relu_5x5_reduce
I0403 18:12:25.407315  6687 net.cpp:425] inception_5b/relu_5x5_reduce <- inception_5b/5x5_reduce
I0403 18:12:25.407336  6687 net.cpp:386] inception_5b/relu_5x5_reduce -> inception_5b/5x5_reduce (in-place)
I0403 18:12:25.407727  6687 net.cpp:141] Setting up inception_5b/relu_5x5_reduce
I0403 18:12:25.407754  6687 net.cpp:148] Top shape: 24 48 7 7 (56448)
I0403 18:12:25.407770  6687 net.cpp:156] Memory required for data: 1334725152
I0403 18:12:25.407785  6687 layer_factory.hpp:77] Creating layer inception_5b/5x5
I0403 18:12:25.407806  6687 net.cpp:91] Creating Layer inception_5b/5x5
I0403 18:12:25.407824  6687 net.cpp:425] inception_5b/5x5 <- inception_5b/5x5_reduce
I0403 18:12:25.407843  6687 net.cpp:399] inception_5b/5x5 -> inception_5b/5x5
I0403 18:12:25.410004  6687 net.cpp:141] Setting up inception_5b/5x5
I0403 18:12:25.410033  6687 net.cpp:148] Top shape: 24 128 7 7 (150528)
I0403 18:12:25.410049  6687 net.cpp:156] Memory required for data: 1335327264
I0403 18:12:25.410068  6687 layer_factory.hpp:77] Creating layer inception_5b/relu_5x5
I0403 18:12:25.410089  6687 net.cpp:91] Creating Layer inception_5b/relu_5x5
I0403 18:12:25.410105  6687 net.cpp:425] inception_5b/relu_5x5 <- inception_5b/5x5
I0403 18:12:25.410123  6687 net.cpp:386] inception_5b/relu_5x5 -> inception_5b/5x5 (in-place)
I0403 18:12:25.410332  6687 net.cpp:141] Setting up inception_5b/relu_5x5
I0403 18:12:25.410361  6687 net.cpp:148] Top shape: 24 128 7 7 (150528)
I0403 18:12:25.410377  6687 net.cpp:156] Memory required for data: 1335929376
I0403 18:12:25.410392  6687 layer_factory.hpp:77] Creating layer inception_5b/pool
I0403 18:12:25.410411  6687 net.cpp:91] Creating Layer inception_5b/pool
I0403 18:12:25.410429  6687 net.cpp:425] inception_5b/pool <- inception_5a/output_inception_5a/output_0_split_3
I0403 18:12:25.410449  6687 net.cpp:399] inception_5b/pool -> inception_5b/pool
I0403 18:12:25.410526  6687 net.cpp:141] Setting up inception_5b/pool
I0403 18:12:25.410549  6687 net.cpp:148] Top shape: 24 832 7 7 (978432)
I0403 18:12:25.410565  6687 net.cpp:156] Memory required for data: 1339843104
I0403 18:12:25.410580  6687 layer_factory.hpp:77] Creating layer inception_5b/pool_proj
I0403 18:12:25.410604  6687 net.cpp:91] Creating Layer inception_5b/pool_proj
I0403 18:12:25.410621  6687 net.cpp:425] inception_5b/pool_proj <- inception_5b/pool
I0403 18:12:25.410643  6687 net.cpp:399] inception_5b/pool_proj -> inception_5b/pool_proj
I0403 18:12:25.413065  6687 net.cpp:141] Setting up inception_5b/pool_proj
I0403 18:12:25.413095  6687 net.cpp:148] Top shape: 24 128 7 7 (150528)
I0403 18:12:25.413111  6687 net.cpp:156] Memory required for data: 1340445216
I0403 18:12:25.413130  6687 layer_factory.hpp:77] Creating layer inception_5b/relu_pool_proj
I0403 18:12:25.413151  6687 net.cpp:91] Creating Layer inception_5b/relu_pool_proj
I0403 18:12:25.413168  6687 net.cpp:425] inception_5b/relu_pool_proj <- inception_5b/pool_proj
I0403 18:12:25.413187  6687 net.cpp:386] inception_5b/relu_pool_proj -> inception_5b/pool_proj (in-place)
I0403 18:12:25.413499  6687 net.cpp:141] Setting up inception_5b/relu_pool_proj
I0403 18:12:25.413527  6687 net.cpp:148] Top shape: 24 128 7 7 (150528)
I0403 18:12:25.413542  6687 net.cpp:156] Memory required for data: 1341047328
I0403 18:12:25.413558  6687 layer_factory.hpp:77] Creating layer inception_5b/output
I0403 18:12:25.413575  6687 net.cpp:91] Creating Layer inception_5b/output
I0403 18:12:25.413607  6687 net.cpp:425] inception_5b/output <- inception_5b/1x1
I0403 18:12:25.413625  6687 net.cpp:425] inception_5b/output <- inception_5b/3x3
I0403 18:12:25.413643  6687 net.cpp:425] inception_5b/output <- inception_5b/5x5
I0403 18:12:25.413661  6687 net.cpp:425] inception_5b/output <- inception_5b/pool_proj
I0403 18:12:25.413681  6687 net.cpp:399] inception_5b/output -> inception_5b/output
I0403 18:12:25.413736  6687 net.cpp:141] Setting up inception_5b/output
I0403 18:12:25.413760  6687 net.cpp:148] Top shape: 24 1024 7 7 (1204224)
I0403 18:12:25.413775  6687 net.cpp:156] Memory required for data: 1345864224
I0403 18:12:25.413790  6687 layer_factory.hpp:77] Creating layer pool5/7x7_s1
I0403 18:12:25.413808  6687 net.cpp:91] Creating Layer pool5/7x7_s1
I0403 18:12:25.413825  6687 net.cpp:425] pool5/7x7_s1 <- inception_5b/output
I0403 18:12:25.413846  6687 net.cpp:399] pool5/7x7_s1 -> pool5/7x7_s1
I0403 18:12:25.414072  6687 net.cpp:141] Setting up pool5/7x7_s1
I0403 18:12:25.414098  6687 net.cpp:148] Top shape: 24 1024 1 1 (24576)
I0403 18:12:25.414113  6687 net.cpp:156] Memory required for data: 1345962528
I0403 18:12:25.414129  6687 layer_factory.hpp:77] Creating layer pool5/drop_7x7_s1
I0403 18:12:25.414149  6687 net.cpp:91] Creating Layer pool5/drop_7x7_s1
I0403 18:12:25.414166  6687 net.cpp:425] pool5/drop_7x7_s1 <- pool5/7x7_s1
I0403 18:12:25.414185  6687 net.cpp:386] pool5/drop_7x7_s1 -> pool5/7x7_s1 (in-place)
I0403 18:12:25.414244  6687 net.cpp:141] Setting up pool5/drop_7x7_s1
I0403 18:12:25.414269  6687 net.cpp:148] Top shape: 24 1024 1 1 (24576)
I0403 18:12:25.414283  6687 net.cpp:156] Memory required for data: 1346060832
I0403 18:12:25.414299  6687 layer_factory.hpp:77] Creating layer loss3/classifier_plantvillage
I0403 18:12:25.414319  6687 net.cpp:91] Creating Layer loss3/classifier_plantvillage
I0403 18:12:25.414335  6687 net.cpp:425] loss3/classifier_plantvillage <- pool5/7x7_s1
I0403 18:12:25.414356  6687 net.cpp:399] loss3/classifier_plantvillage -> loss3/classifier_plantvillage
I0403 18:12:25.414800  6687 net.cpp:141] Setting up loss3/classifier_plantvillage
I0403 18:12:25.414831  6687 net.cpp:148] Top shape: 24 38 (912)
I0403 18:12:25.414847  6687 net.cpp:156] Memory required for data: 1346064480
I0403 18:12:25.414873  6687 layer_factory.hpp:77] Creating layer loss3/classifier_plantvillage_loss3/classifier_plantvillage_0_split
I0403 18:12:25.414896  6687 net.cpp:91] Creating Layer loss3/classifier_plantvillage_loss3/classifier_plantvillage_0_split
I0403 18:12:25.414913  6687 net.cpp:425] loss3/classifier_plantvillage_loss3/classifier_plantvillage_0_split <- loss3/classifier_plantvillage
I0403 18:12:25.414934  6687 net.cpp:399] loss3/classifier_plantvillage_loss3/classifier_plantvillage_0_split -> loss3/classifier_plantvillage_loss3/classifier_plantvillage_0_split_0
I0403 18:12:25.414955  6687 net.cpp:399] loss3/classifier_plantvillage_loss3/classifier_plantvillage_0_split -> loss3/classifier_plantvillage_loss3/classifier_plantvillage_0_split_1
I0403 18:12:25.414976  6687 net.cpp:399] loss3/classifier_plantvillage_loss3/classifier_plantvillage_0_split -> loss3/classifier_plantvillage_loss3/classifier_plantvillage_0_split_2
I0403 18:12:25.414996  6687 net.cpp:399] loss3/classifier_plantvillage_loss3/classifier_plantvillage_0_split -> loss3/classifier_plantvillage_loss3/classifier_plantvillage_0_split_3
I0403 18:12:25.415102  6687 net.cpp:141] Setting up loss3/classifier_plantvillage_loss3/classifier_plantvillage_0_split
I0403 18:12:25.415133  6687 net.cpp:148] Top shape: 24 38 (912)
I0403 18:12:25.415158  6687 net.cpp:148] Top shape: 24 38 (912)
I0403 18:12:25.415184  6687 net.cpp:148] Top shape: 24 38 (912)
I0403 18:12:25.415208  6687 net.cpp:148] Top shape: 24 38 (912)
I0403 18:12:25.415226  6687 net.cpp:156] Memory required for data: 1346079072
I0403 18:12:25.415246  6687 layer_factory.hpp:77] Creating layer loss1/loss
I0403 18:12:25.415271  6687 net.cpp:91] Creating Layer loss1/loss
I0403 18:12:25.415297  6687 net.cpp:425] loss1/loss <- loss1/classifier_plantvillage_loss1/classifier_plantvillage_0_split_0
I0403 18:12:25.415328  6687 net.cpp:425] loss1/loss <- label_data_1_split_0
…
