…
I0403 17:56:01.254315  6313 net.cpp:313] The NetState phase (1) differed from the phase (0) specified by a rule in layer data
I0403 17:56:01.255470  6313 net.cpp:49] Initializing net from parameters: 
state {
  phase: TEST
}
layer {
  name: "data"
  type: "Data"
  top: "data"
  top: "label"
  include {
    phase: TEST
  }
  transform_param {
    mirror: false
    crop_size: 224
    mean_file: "/home/mohanty/data/final_dataset/lmdb/grayscale-40-60/mean.binaryproto"
  }
  data_param {
    source: "/home/mohanty/data/final_dataset/lmdb/grayscale-40-60/test_db"
    batch_size: 24
    backend: LMDB
  }
}
layer {
  name: "conv1/7x7_s2"
  type: "Convolution"
  bottom: "data"
  top: "conv1/7x7_s2"
  param {
    lr_mult: 1
    decay_mult: 1
  }
  param {
    lr_mult: 2
    decay_mult: 0
  }
  convolution_param {
    num_output: 64
    pad: 3
    kernel_size: 7
    stride: 2
    weight_filler {
      type: "xavier"
      std: 0.1
    }
    bias_filler {
      type: "constant"
      value: 0.2
    }
  }
}
layer {
  name: "conv1/relu_7x7"
  type: "ReLU"
  bottom: "conv1/7x7_s2"
  top: "conv1/7x7_s2"
}
layer {
  name: "pool1/3x3_s2"
  type: "Pooling"
  bottom: "conv1/7x7_s2"
  top: "pool1/3x3_s2"
  pooling_param {
    pool: MAX
    kernel_size: 3
    stride: 2
  }
}
layer {
  name: "pool1/norm1"
  type: "LRN"
  bottom: "pool1/3x3_s2"
  top: "pool1/norm1"
  lrn_param {
    local_size: 5
    alpha: 0.0001
    beta: 0.75
  }
}
layer {
  name: "conv2/3x3_reduce"
  type: "Convolution"
  bottom: "pool1/norm1"
  top: "conv2/3x3_reduce"
  param {
    lr_mult: 1
    decay_mult: 1
  }
  param {
    lr_mult: 2
    decay_mult: 0
  }
  convolution_param {
    num_output: 64
    kernel_size: 1
    weight_filler {
      type: "xavier"
      std: 0.1
    }
    bias_filler {
      type: "constant"
      value: 0.2
    }
  }
}
layer {
  name: "conv2/relu_3x3_reduce"
  type: "ReLU"
  bottom: "conv2/3x3_reduce"
  top: "conv2/3x3_reduce"
}
layer {
  name: "conv2/3x3"
  type: "Convolution"
  bottom: "conv2/3x3_reduce"
  top: "conv2/3x3"
  param {
    lr_mult: 1
    decay_mult: 1
  }
  param {
    lr_mult: 2
    decay_mult: 0
  }
  convolution_param {
    num_output: 192
    pad: 1
    kernel_size: 3
    weight_filler {
      type: "xavier"
      std: 0.03
    }
    bias_filler {
      type: "constant"
      value: 0.2
    }
  }
}
layer {
  name: "conv2/relu_3x3"
  type: "ReLU"
  bottom: "conv2/3x3"
  top: "conv2/3x3"
}
layer {
  name: "conv2/norm2"
  type: "LRN"
  bottom: "conv2/3x3"
  top: "conv2/norm2"
  lrn_param {
    local_size: 5
    alpha: 0.0001
    beta: 0.75
  }
}
layer {
  name: "pool2/3x3_s2"
  type: "Pooling"
  bottom: "conv2/norm2"
  top: "pool2/3x3_s2"
  pooling_param {
    pool: MAX
    kernel_size: 3
    stride: 2
  }
}
layer {
  name: "inception_3a/1x1"
  type: "Convolution"
  bottom: "pool2/3x3_s2"
  top: "inception_3a/1x1"
  param {
    lr_mult: 1
    decay_mult: 1
  }
  param {
    lr_mult: 2
    decay_mult: 0
  }
  convolution_param {
    num_output: 64
    kernel_size: 1
    weight_filler {
      type: "xavier"
      std: 0.03
    }
    bias_filler {
      type: "constant"
      value: 0.2
    }
  }
}
layer {
  name: "inception_3a/relu_1x1"
  type: "ReLU"
  bottom: "inception_3a/1x1"
  top: "inception_3a/1x1"
}
layer {
  name: "inception_3a/3x3_reduce"
  type: "Convolution"
  bottom: "pool2/3x3_s2"
  top: "inception_3a/3x3_reduce"
  param {
    lr_mult: 1
    decay_mult: 1
  }
  param {
    lr_mult: 2
    decay_mult: 0
  }
  convolution_param {
    num_output: 96
    kernel_size: 1
    weight_filler {
      type: "xavier"
      std: 0.09
    }
    bias_filler {
      type: "constant"
      value: 0.2
    }
  }
}
layer {
  name: "inception_3a/relu_3x3_reduce"
  type: "ReLU"
  bottom: "inception_3a/3x3_reduce"
  top: "inception_3a/3x3_reduce"
}
layer {
  name: "inception_3a/3x3"
  type: "Convolution"
  bottom: "inception_3a/3x3_reduce"
  top: "inception_3a/3x3"
  param {
    lr_mult: 1
    decay_mult: 1
  }
  param {
    lr_mult: 2
    decay_mult: 0
  }
  convolution_param {
    num_output: 128
    pad: 1
    kernel_size: 3
    weight_filler {
      type: "xavier"
      std: 0.03
    }
    bias_filler {
      type: "constant"
      value: 0.2
    }
  }
}
layer {
  name: "inception_3a/relu_3x3"
  type: "ReLU"
  bottom: "inception_3a/3x3"
  top: "inception_3a/3x3"
}
layer {
  name: "inception_3a/5x5_reduce"
  type: "Convolution"
  bottom: "pool2/3x3_s2"
  top: "inception_3a/5x5_reduce"
  param {
    lr_mult: 1
    decay_mult: 1
  }
  param {
    lr_mult: 2
    decay_mult: 0
  }
  convolution_param {
    num_output: 16
    kernel_size: 1
    weight_filler {
      type: "xavier"
      std: 0.2
    }
    bias_filler {
      type: "constant"
      value: 0.2
    }
  }
}
layer {
  name: "inception_3a/relu_5x5_reduce"
  type: "ReLU"
  bottom: "inception_3a/5x5_reduce"
  top: "inception_3a/5x5_reduce"
}
layer {
  name: "inception_3a/5x5"
  type: "Convolution"
  bottom: "inception_3a/5x5_reduce"
  top: "inception_3a/5x5"
  param {
    lr_mult: 1
    decay_mult: 1
  }
  param {
    lr_mult: 2
    decay_mult: 0
  }
  convolution_param {
    num_output: 32
    pad: 2
    kernel_size: 5
    weight_filler {
      type: "xavier"
      std: 0.03
    }
    bias_filler {
      type: "constant"
      value: 0.2
    }
  }
}
layer {
  name: "inception_3a/relu_5x5"
  type: "ReLU"
  bottom: "inception_3a/5x5"
  top: "inception_3a/5x5"
}
layer {
  name: "inception_3a/pool"
  type: "Pooling"
  bottom: "pool2/3x3_s2"
  top: "inception_3a/pool"
  pooling_param {
    pool: MAX
    kernel_size: 3
    stride: 1
    pad: 1
  }
}
layer {
  name: "inception_3a/pool_proj"
  type: "Convolution"
  bottom: "inception_3a/pool"
  top: "inception_3a/pool_proj"
  param {
    lr_mult: 1
    decay_mult: 1
  }
  param {
    lr_mult: 2
    decay_mult: 0
  }
  convolution_param {
    num_output: 32
    kernel_size: 1
    weight_filler {
      type: "xavier"
      std: 0.1
    }
    bias_filler {
      type: "constant"
      value: 0.2
    }
  }
}
layer {
  name: "inception_3a/relu_pool_proj"
  type: "ReLU"
  bottom: "inception_3a/pool_proj"
  top: "inception_3a/pool_proj"
}
layer {
  name: "inception_3a/output"
  type: "Concat"
  bottom: "inception_3a/1x1"
  bottom: "inception_3a/3x3"
  bottom: "inception_3a/5x5"
  bottom: "inception_3a/pool_proj"
  top: "inception_3a/output"
}
layer {
  name: "inception_3b/1x1"
  type: "Convolution"
  bottom: "inception_3a/output"
  top: "inception_3b/1x1"
  param {
    lr_mult: 1
    decay_mult: 1
  }
  param {
    lr_mult: 2
    decay_mult: 0
  }
  convolution_param {
    num_output: 128
    kernel_size: 1
    weight_filler {
      type: "xavier"
      std: 0.03
    }
    bias_filler {
      type: "constant"
      value: 0.2
    }
  }
}
layer {
  name: "inception_3b/relu_1x1"
  type: "ReLU"
  bottom: "inception_3b/1x1"
  top: "inception_3b/1x1"
}
layer {
  name: "inception_3b/3x3_reduce"
  type: "Convolution"
  bottom: "inception_3a/output"
  top: "inception_3b/3x3_reduce"
  param {
    lr_mult: 1
    decay_mult: 1
  }
  param {
    lr_mult: 2
    decay_mult: 0
  }
  convolution_param {
    num_output: 128
    kernel_size: 1
    weight_filler {
      type: "xavier"
      std: 0.09
    }
    bias_filler {
      type: "constant"
      value: 0.2
    }
  }
}
layer {
  name: "inception_3b/relu_3x3_reduce"
  type: "ReLU"
  bottom: "inception_3b/3x3_reduce"
  top: "inception_3b/3x3_reduce"
}
layer {
  name: "inception_3b/3x3"
  type: "Convolution"
  bottom: "inception_3b/3x3_reduce"
  top: "inception_3b/3x3"
  param {
    lr_mult: 1
    decay_mult: 1
  }
  param {
    lr_mult: 2
    decay_mult: 0
  }
  convolution_param {
    num_output: 192
    pad: 1
    kernel_size: 3
    weight_filler {
      type: "xavier"
      std: 0.03
    }
    bias_filler {
      type: "constant"
      value: 0.2
    }
  }
}
layer {
  name: "inception_3b/relu_3x3"
  type: "ReLU"
  bottom: "inception_3b/3x3"
  top: "inception_3b/3x3"
}
layer {
  name: "inception_3b/5x5_reduce"
  type: "Convolution"
  bottom: "inception_3a/output"
  top: "inception_3b/5x5_reduce"
  param {
    lr_mult: 1
    decay_mult: 1
  }
  param {
    lr_mult: 2
    decay_mult: 0
  }
  convolution_param {
    num_output: 32
    kernel_size: 1
    weight_filler {
      type: "xavier"
      std: 0.2
    }
    bias_filler {
      type: "constant"
      value: 0.2
    }
  }
}
layer {
  name: "inception_3b/relu_5x5_reduce"
  type: "ReLU"
  bottom: "inception_3b/5x5_reduce"
  top: "inception_3b/5x5_reduce"
}
layer {
  name: "inception_3b/5x5"
  type: "Convolution"
  bottom: "inception_3b/5x5_reduce"
  top: "inception_3b/5x5"
  param {
    lr_mult: 1
    decay_mult: 1
  }
  param {
    lr_mult: 2
    decay_mult: 0
  }
  convolution_param {
    num_output: 96
    pad: 2
    kernel_size: 5
    weight_filler {
      type: "xavier"
      std: 0.03
    }
    bias_filler {
      type: "constant"
      value: 0.2
    }
  }
}
layer {
  name: "inception_3b/relu_5x5"
  type: "ReLU"
  bottom: "inception_3b/5x5"
  top: "inception_3b/5x5"
}
layer {
  name: "inception_3b/pool"
  type: "Pooling"
  bottom: "inception_3a/output"
  top: "inception_3b/pool"
  pooling_param {
    pool: MAX
    kernel_size: 3
    stride: 1
    pad: 1
  }
}
layer {
  name: "inception_3b/pool_proj"
  type: "Convolution"
  bottom: "inception_3b/pool"
  top: "inception_3b/pool_proj"
  param {
    lr_mult: 1
    decay_mult: 1
  }
  param {
    lr_mult: 2
    decay_mult: 0
  }
  convolution_param {
    num_output: 64
    kernel_size: 1
    weight_filler {
      type: "xavier"
      std: 0.1
    }
    bias_filler {
      type: "constant"
      value: 0.2
    }
  }
}
layer {
  name: "inception_3b/relu_pool_proj"
  type: "ReLU"
  bottom: "inception_3b/pool_proj"
  top: "inception_3b/pool_proj"
}
layer {
  name: "inception_3b/output"
  type: "Concat"
  bottom: "inception_3b/1x1"
  bottom: "inception_3b/3x3"
  bottom: "inception_3b/5x5"
  bottom: "inception_3b/pool_proj"
  top: "inception_3b/output"
}
layer {
  name: "pool3/3x3_s2"
  type: "Pooling"
  bottom: "inception_3b/output"
  top: "pool3/3x3_s2"
  pooling_param {
    pool: MAX
    kernel_size: 3
    stride: 2
  }
}
layer {
  name: "inception_4a/1x1"
  type: "Convolution"
  bottom: "pool3/3x3_s2"
  top: "inception_4a/1x1"
  param {
    lr_mult: 1
    decay_mult: 1
  }
  param {
    lr_mult: 2
    decay_mult: 0
  }
  convolution_param {
    num_output: 192
    kernel_size: 1
    weight_filler {
      type: "xavier"
      std: 0.03
    }
    bias_filler {
      type: "constant"
      value: 0.2
    }
  }
}
layer {
  name: "inception_4a/relu_1x1"
  type: "ReLU"
  bottom: "inception_4a/1x1"
  top: "inception_4a/1x1"
}
layer {
  name: "inception_4a/3x3_reduce"
  type: "Convolution"
  bottom: "pool3/3x3_s2"
  top: "inception_4a/3x3_reduce"
  param {
    lr_mult: 1
    decay_mult: 1
  }
  param {
    lr_mult: 2
    decay_mult: 0
  }
  convolution_param {
    num_output: 96
    kernel_size: 1
    weight_filler {
      type: "xavier"
      std: 0.09
    }
    bias_filler {
      type: "constant"
      value: 0.2
    }
  }
}
layer {
  name: "inception_4a/relu_3x3_reduce"
  type: "ReLU"
  bottom: "inception_4a/3x3_reduce"
  top: "inception_4a/3x3_reduce"
}
layer {
  name: "inception_4a/3x3"
  type: "Convolution"
  bottom: "inception_4a/3x3_reduce"
  top: "inception_4a/3x3"
  param {
    lr_mult: 1
    decay_mult: 1
  }
  param {
    lr_mult: 2
    decay_mult: 0
  }
  convolution_param {
    num_output: 208
    pad: 1
    kernel_size: 3
    weight_filler {
      type: "xavier"
      std: 0.03
    }
    bias_filler {
      type: "constant"
      value: 0.2
    }
  }
}
layer {
  name: "inception_4a/relu_3x3"
  type: "ReLU"
  bottom: "inception_4a/3x3"
  top: "inception_4a/3x3"
}
layer {
  name: "inception_4a/5x5_reduce"
  type: "Convolution"
  bottom: "pool3/3x3_s2"
  top: "inception_4a/5x5_reduce"
  param {
    lr_mult: 1
    decay_mult: 1
  }
  param {
    lr_mult: 2
    decay_mult: 0
  }
  convolution_param {
    num_output: 16
    kernel_size: 1
    weight_filler {
      type: "xavier"
      std: 0.2
    }
    bias_filler {
      type: "constant"
      value: 0.2
    }
  }
}
layer {
  name: "inception_4a/relu_5x5_reduce"
  type: "ReLU"
  bottom: "inception_4a/5x5_reduce"
  top: "inception_4a/5x5_reduce"
}
layer {
  name: "inception_4a/5x5"
  type: "Convolution"
  bottom: "inception_4a/5x5_reduce"
  top: "inception_4a/5x5"
  param {
    lr_mult: 1
    decay_mult: 1
  }
  param {
    lr_mult: 2
    decay_mult: 0
  }
  convolution_param {
    num_output: 48
    pad: 2
    kernel_size: 5
    weight_filler {
      type: "xavier"
      std: 0.03
    }
    bias_filler {
      type: "constant"
      value: 0.2
    }
  }
}
layer {
  name: "inception_4a/relu_5x5"
  type: "ReLU"
  bottom: "inception_4a/5x5"
  top: "inception_4a/5x5"
}
layer {
  name: "inception_4a/pool"
  type: "Pooling"
  bottom: "pool3/3x3_s2"
  top: "inception_4a/pool"
  pooling_param {
    pool: MAX
    kernel_size: 3
    stride: 1
    pad: 1
  }
}
layer {
  name: "inception_4a/pool_proj"
  type: "Convolution"
  bottom: "inception_4a/pool"
  top: "inception_4a/pool_proj"
  param {
    lr_mult: 1
    decay_mult: 1
  }
  param {
    lr_mult: 2
    decay_mult: 0
  }
  convolution_param {
    num_output: 64
    kernel_size: 1
    weight_filler {
      type: "xavier"
      std: 0.1
    }
    bias_filler {
      type: "constant"
      value: 0.2
    }
  }
}
layer {
  name: "inception_4a/relu_pool_proj"
  type: "ReLU"
  bottom: "inception_4a/pool_proj"
  top: "inception_4a/pool_proj"
}
layer {
  name: "inception_4a/output"
  type: "Concat"
  bottom: "inception_4a/1x1"
  bottom: "inception_4a/3x3"
  bottom: "inception_4a/5x5"
  bottom: "inception_4a/pool_proj"
  top: "inception_4a/output"
}
layer {
  name: "loss1/ave_pool"
  type: "Pooling"
  bottom: "inception_4a/output"
  top: "loss1/ave_pool"
  pooling_param {
    pool: AVE
    kernel_size: 5
    stride: 3
  }
}
layer {
  name: "loss1/conv"
  type: "Convolution"
  bottom: "loss1/ave_pool"
  top: "loss1/conv"
  param {
    lr_mult: 1
    decay_mult: 1
  }
  param {
    lr_mult: 2
    decay_mult: 0
  }
  convolution_param {
    num_output: 128
    kernel_size: 1
    weight_filler {
      type: "xavier"
      std: 0.08
    }
    bias_filler {
      type: "constant"
      value: 0.2
    }
  }
}
layer {
  name: "loss1/relu_conv"
  type: "ReLU"
  bottom: "loss1/conv"
  top: "loss1/conv"
}
layer {
  name: "loss1/fc"
  type: "InnerProduct"
  bottom: "loss1/conv"
  top: "loss1/fc"
  param {
    lr_mult: 1
    decay_mult: 1
  }
  param {
    lr_mult: 2
    decay_mult: 0
  }
  inner_product_param {
    num_output: 1024
    weight_filler {
      type: "xavier"
      std: 0.02
    }
    bias_filler {
      type: "constant"
      value: 0.2
    }
  }
}
layer {
  name: "loss1/relu_fc"
  type: "ReLU"
  bottom: "loss1/fc"
  top: "loss1/fc"
}
layer {
  name: "loss1/drop_fc"
  type: "Dropout"
  bottom: "loss1/fc"
  top: "loss1/fc"
  dropout_param {
    dropout_ratio: 0.7
  }
}
layer {
  name: "loss1/classifier_plantvillage"
  type: "InnerProduct"
  bottom: "loss1/fc"
  top: "loss1/classifier_plantvillage"
  param {
    lr_mult: 1
    decay_mult: 1
  }
  param {
    lr_mult: 2
    decay_mult: 0
  }
  inner_product_param {
    num_output: 38
    weight_filler {
      type: "xavier"
      std: 0.0009765625
    }
    bias_filler {
      type: "constant"
      value: 0
    }
  }
}
layer {
  name: "inception_4b/1x1"
  type: "Convolution"
  bottom: "inception_4a/output"
  top: "inception_4b/1x1"
  param {
    lr_mult: 1
    decay_mult: 1
  }
  param {
    lr_mult: 2
    decay_mult: 0
  }
  convolution_param {
    num_output: 160
    kernel_size: 1
    weight_filler {
      type: "xavier"
      std: 0.03
    }
    bias_filler {
      type: "constant"
      value: 0.2
    }
  }
}
layer {
  name: "inception_4b/relu_1x1"
  type: "ReLU"
  bottom: "inception_4b/1x1"
  top: "inception_4b/1x1"
}
layer {
  name: "inception_4b/3x3_reduce"
  type: "Convolution"
  bottom: "inception_4a/output"
  top: "inception_4b/3x3_reduce"
  param {
    lr_mult: 1
    decay_mult: 1
  }
  param {
    lr_mult: 2
    decay_mult: 0
  }
  convolution_param {
    num_output: 112
    kernel_size: 1
    weight_filler {
      type: "xavier"
      std: 0.09
    }
    bias_filler {
      type: "constant"
      value: 0.2
    }
  }
}
layer {
  name: "inception_4b/relu_3x3_reduce"
  type: "ReLU"
  bottom: "inception_4b/3x3_reduce"
  top: "inception_4b/3x3_reduce"
}
layer {
  name: "inception_4b/3x3"
  type: "Convolution"
  bottom: "inception_4b/3x3_reduce"
  top: "inception_4b/3x3"
  param {
    lr_mult: 1
    decay_mult: 1
  }
  param {
    lr_mult: 2
    decay_mult: 0
  }
  convolution_param {
    num_output: 224
    pad: 1
    kernel_size: 3
    weight_filler {
      type: "xavier"
      std: 0.03
    }
    bias_filler {
      type: "constant"
      value: 0.2
    }
  }
}
layer {
  name: "inception_4b/relu_3x3"
  type: "ReLU"
  bottom: "inception_4b/3x3"
  top: "inception_4b/3x3"
}
layer {
  name: "inception_4b/5x5_reduce"
  type: "Convolution"
  bottom: "inception_4a/output"
  top: "inception_4b/5x5_reduce"
  param {
    lr_mult: 1
    decay_mult: 1
  }
  param {
    lr_mult: 2
    decay_mult: 0
  }
  convolution_param {
    num_output: 24
    kernel_size: 1
    weight_filler {
      type: "xavier"
      std: 0.2
    }
    bias_filler {
      type: "constant"
      value: 0.2
    }
  }
}
layer {
  name: "inception_4b/relu_5x5_reduce"
  type: "ReLU"
  bottom: "inception_4b/5x5_reduce"
  top: "inception_4b/5x5_reduce"
}
layer {
  name: "inception_4b/5x5"
  type: "Convolution"
  bottom: "inception_4b/5x5_reduce"
  top: "inception_4b/5x5"
  param {
    lr_mult: 1
    decay_mult: 1
  }
  param {
    lr_mult: 2
    decay_mult: 0
  }
  convolution_param {
    num_output: 64
    pad: 2
    kernel_size: 5
    weight_filler {
      type: "xavier"
      std: 0.03
    }
    bias_filler {
      type: "constant"
      value: 0.2
    }
  }
}
layer {
  name: "inception_4b/relu_5x5"
  type: "ReLU"
  bottom: "inception_4b/5x5"
  top: "inception_4b/5x5"
}
layer {
  name: "inception_4b/pool"
  type: "Pooling"
  bottom: "inception_4a/output"
  top: "inception_4b/pool"
  pooling_param {
    pool: MAX
    kernel_size: 3
    stride: 1
    pad: 1
  }
}
layer {
  name: "inception_4b/pool_proj"
  type: "Convolution"
  bottom: "inception_4b/pool"
  top: "inception_4b/pool_proj"
  param {
    lr_mult: 1
    decay_mult: 1
  }
  param {
    lr_mult: 2
    decay_mult: 0
  }
  convolution_param {
    num_output: 64
    kernel_size: 1
    weight_filler {
      type: "xavier"
      std: 0.1
    }
    bias_filler {
      type: "constant"
      value: 0.2
    }
  }
}
layer {
  name: "inception_4b/relu_pool_proj"
  type: "ReLU"
  bottom: "inception_4b/pool_proj"
  top: "inception_4b/pool_proj"
}
layer {
  name: "inception_4b/output"
  type: "Concat"
  bottom: "inception_4b/1x1"
  bottom: "inception_4b/3x3"
  bottom: "inception_4b/5x5"
  bottom: "inception_4b/pool_proj"
  top: "inception_4b/output"
}
layer {
  name: "inception_4c/1x1"
  type: "Convolution"
  bottom: "inception_4b/output"
  top: "inception_4c/1x1"
  param {
    lr_mult: 1
    decay_mult: 1
  }
  param {
    lr_mult: 2
    decay_mult: 0
  }
  convolution_param {
    num_output: 128
    kernel_size: 1
    weight_filler {
      type: "xavier"
      std: 0.03
    }
    bias_filler {
      type: "constant"
      value: 0.2
    }
  }
}
layer {
  name: "inception_4c/relu_1x1"
  type: "ReLU"
  bottom: "inception_4c/1x1"
  top: "inception_4c/1x1"
}
layer {
  name: "inception_4c/3x3_reduce"
  type: "Convolution"
  bottom: "inception_4b/output"
  top: "inception_4c/3x3_reduce"
  param {
    lr_mult: 1
    decay_mult: 1
  }
  param {
    lr_mult: 2
    decay_mult: 0
  }
  convolution_param {
    num_output: 128
    kernel_size: 1
    weight_filler {
      type: "xavier"
      std: 0.09
    }
    bias_filler {
      type: "constant"
      value: 0.2
    }
  }
}
layer {
  name: "inception_4c/relu_3x3_reduce"
  type: "ReLU"
  bottom: "inception_4c/3x3_reduce"
  top: "inception_4c/3x3_reduce"
}
layer {
  name: "inception_4c/3x3"
  type: "Convolution"
  bottom: "inception_4c/3x3_reduce"
  top: "inception_4c/3x3"
  param {
    lr_mult: 1
    decay_mult: 1
  }
  param {
    lr_mult: 2
    decay_mult: 0
  }
  convolution_param {
    num_output: 256
    pad: 1
    kernel_size: 3
    weight_filler {
      type: "xavier"
      std: 0.03
    }
    bias_filler {
      type: "constant"
      value: 0.2
    }
  }
}
layer {
  name: "inception_4c/relu_3x3"
  type: "ReLU"
  bottom: "inception_4c/3x3"
  top: "inception_4c/3x3"
}
layer {
  name: "inception_4c/5x5_reduce"
  type: "Convolution"
  bottom: "inception_4b/output"
  top: "inception_4c/5x5_reduce"
  param {
    lr_mult: 1
    decay_mult: 1
  }
  param {
    lr_mult: 2
    decay_mult: 0
  }
  convolution_param {
    num_output: 24
    kernel_size: 1
    weight_filler {
      type: "xavier"
      std: 0.2
    }
    bias_filler {
      type: "constant"
      value: 0.2
    }
  }
}
layer {
  name: "inception_4c/relu_5x5_reduce"
  type: "ReLU"
  bottom: "inception_4c/5x5_reduce"
  top: "inception_4c/5x5_reduce"
}
layer {
  name: "inception_4c/5x5"
  type: "Convolution"
  bottom: "inception_4c/5x5_reduce"
  top: "inception_4c/5x5"
  param {
    lr_mult: 1
    decay_mult: 1
  }
  param {
    lr_mult: 2
    decay_mult: 0
  }
  convolution_param {
    num_output: 64
    pad: 2
    kernel_size: 5
    weight_filler {
      type: "xavier"
      std: 0.03
    }
    bias_filler {
      type: "constant"
      value: 0.2
    }
  }
}
layer {
  name: "inception_4c/relu_5x5"
  type: "ReLU"
  bottom: "inception_4c/5x5"
  top: "inception_4c/5x5"
}
layer {
  name: "inception_4c/pool"
  type: "Pooling"
  bottom: "inception_4b/output"
  top: "inception_4c/pool"
  pooling_param {
    pool: MAX
    kernel_size: 3
    stride: 1
    pad: 1
  }
}
layer {
  name: "inception_4c/pool_proj"
  type: "Convolution"
  bottom: "inception_4c/pool"
  top: "inception_4c/pool_proj"
  param {
    lr_mult: 1
    decay_mult: 1
  }
  param {
    lr_mult: 2
    decay_mult: 0
  }
  convolution_param {
    num_output: 64
    kernel_size: 1
    weight_filler {
      type: "xavier"
      std: 0.1
    }
    bias_filler {
      type: "constant"
      value: 0.2
    }
  }
}
layer {
  name: "inception_4c/relu_pool_proj"
  type: "ReLU"
  bottom: "inception_4c/pool_proj"
  top: "inception_4c/pool_proj"
}
layer {
  name: "inception_4c/output"
  type: "Concat"
  bottom: "inception_4c/1x1"
  bottom: "inception_4c/3x3"
  bottom: "inception_4c/5x5"
  bottom: "inception_4c/pool_proj"
  top: "inception_4c/output"
}
layer {
  name: "inception_4d/1x1"
  type: "Convolution"
  bottom: "inception_4c/output"
  top: "inception_4d/1x1"
  param {
    lr_mult: 1
    decay_mult: 1
  }
  param {
    lr_mult: 2
    decay_mult: 0
  }
  convolution_param {
    num_output: 112
    kernel_size: 1
    weight_filler {
      type: "xavier"
      std: 0.03
    }
    bias_filler {
      type: "constant"
      value: 0.2
    }
  }
}
layer {
  name: "inception_4d/relu_1x1"
  type: "ReLU"
  bottom: "inception_4d/1x1"
  top: "inception_4d/1x1"
}
layer {
  name: "inception_4d/3x3_reduce"
  type: "Convolution"
  bottom: "inception_4c/output"
  top: "inception_4d/3x3_reduce"
  param {
    lr_mult: 1
    decay_mult: 1
  }
  param {
    lr_mult: 2
    decay_mult: 0
  }
  convolution_param {
    num_output: 144
    kernel_size: 1
    weight_filler {
      type: "xavier"
      std: 0.09
    }
    bias_filler {
      type: "constant"
      value: 0.2
    }
  }
}
layer {
  name: "inception_4d/relu_3x3_reduce"
  type: "ReLU"
  bottom: "inception_4d/3x3_reduce"
  top: "inception_4d/3x3_reduce"
}
layer {
  name: "inception_4d/3x3"
  type: "Convolution"
  bottom: "inception_4d/3x3_reduce"
  top: "inception_4d/3x3"
  param {
    lr_mult: 1
    decay_mult: 1
  }
  param {
    lr_mult: 2
    decay_mult: 0
  }
  convolution_param {
    num_output: 288
    pad: 1
    kernel_size: 3
    weight_filler {
      type: "xavier"
      std: 0.03
    }
    bias_filler {
      type: "constant"
      value: 0.2
    }
  }
}
layer {
  name: "inception_4d/relu_3x3"
  type: "ReLU"
  bottom: "inception_4d/3x3"
  top: "inception_4d/3x3"
}
layer {
  name: "inception_4d/5x5_reduce"
  type: "Convolution"
  bottom: "inception_4c/output"
  top: "inception_4d/5x5_reduce"
  param {
    lr_mult: 1
    decay_mult: 1
  }
  param {
    lr_mult: 2
    decay_mult: 0
  }
  convolution_param {
    num_output: 32
    kernel_size: 1
    weight_filler {
      type: "xavier"
      std: 0.2
    }
    bias_filler {
      type: "constant"
      value: 0.2
    }
  }
}
layer {
  name: "inception_4d/relu_5x5_reduce"
  type: "ReLU"
  bottom: "inception_4d/5x5_reduce"
  top: "inception_4d/5x5_reduce"
}
layer {
  name: "inception_4d/5x5"
  type: "Convolution"
  bottom: "inception_4d/5x5_reduce"
  top: "inception_4d/5x5"
  param {
    lr_mult: 1
    decay_mult: 1
  }
  param {
    lr_mult: 2
    decay_mult: 0
  }
  convolution_param {
    num_output: 64
    pad: 2
    kernel_size: 5
    weight_filler {
      type: "xavier"
      std: 0.03
    }
    bias_filler {
      type: "constant"
      value: 0.2
    }
  }
}
layer {
  name: "inception_4d/relu_5x5"
  type: "ReLU"
  bottom: "inception_4d/5x5"
  top: "inception_4d/5x5"
}
layer {
  name: "inception_4d/pool"
  type: "Pooling"
  bottom: "inception_4c/output"
  top: "inception_4d/pool"
  pooling_param {
    pool: MAX
    kernel_size: 3
    stride: 1
    pad: 1
  }
}
layer {
  name: "inception_4d/pool_proj"
  type: "Convolution"
  bottom: "inception_4d/pool"
  top: "inception_4d/pool_proj"
  param {
    lr_mult: 1
    decay_mult: 1
  }
  param {
    lr_mult: 2
    decay_mult: 0
  }
  convolution_param {
    num_output: 64
    kernel_size: 1
    weight_filler {
      type: "xavier"
      std: 0.1
    }
    bias_filler {
      type: "constant"
      value: 0.2
    }
  }
}
layer {
  name: "inception_4d/relu_pool_proj"
  type: "ReLU"
  bottom: "inception_4d/pool_proj"
  top: "inception_4d/pool_proj"
}
layer {
  name: "inception_4d/output"
  type: "Concat"
  bottom: "inception_4d/1x1"
  bottom: "inception_4d/3x3"
  bottom: "inception_4d/5x5"
  bottom: "inception_4d/pool_proj"
  top: "inception_4d/output"
}
layer {
  name: "loss2/ave_pool"
  type: "Pooling"
  bottom: "inception_4d/output"
  top: "loss2/ave_pool"
  pooling_param {
    pool: AVE
    kernel_size: 5
    stride: 3
  }
}
layer {
  name: "loss2/conv"
  type: "Convolution"
  bottom: "loss2/ave_pool"
  top: "loss2/conv"
  param {
    lr_mult: 1
    decay_mult: 1
  }
  param {
    lr_mult: 2
    decay_mult: 0
  }
  convolution_param {
    num_output: 128
    kernel_size: 1
    weight_filler {
      type: "xavier"
      std: 0.08
    }
    bias_filler {
      type: "constant"
      value: 0.2
    }
  }
}
layer {
  name: "loss2/relu_conv"
  type: "ReLU"
  bottom: "loss2/conv"
  top: "loss2/conv"
}
layer {
  name: "loss2/fc"
  type: "InnerProduct"
  bottom: "loss2/conv"
  top: "loss2/fc"
  param {
    lr_mult: 1
    decay_mult: 1
  }
  param {
    lr_mult: 2
    decay_mult: 0
  }
  inner_product_param {
    num_output: 1024
    weight_filler {
      type: "xavier"
      std: 0.02
    }
    bias_filler {
      type: "constant"
      value: 0.2
    }
  }
}
layer {
  name: "loss2/relu_fc"
  type: "ReLU"
  bottom: "loss2/fc"
  top: "loss2/fc"
}
layer {
  name: "loss2/drop_fc"
  type: "Dropout"
  bottom: "loss2/fc"
  top: "loss2/fc"
  dropout_param {
    dropout_ratio: 0.7
  }
}
layer {
  name: "loss2/classifier_plantvillage"
  type: "InnerProduct"
  bottom: "loss2/fc"
  top: "loss2/classifier_plantvillage"
  param {
    lr_mult: 1
    decay_mult: 1
  }
  param {
    lr_mult: 2
    decay_mult: 0
  }
  inner_product_param {
    num_output: 38
    weight_filler {
      type: "xavier"
      std: 0.0009765625
    }
    bias_filler {
      type: "constant"
      value: 0
    }
  }
}
layer {
  name: "inception_4e/1x1"
  type: "Convolution"
  bottom: "inception_4d/output"
  top: "inception_4e/1x1"
  param {
    lr_mult: 1
    decay_mult: 1
  }
  param {
    lr_mult: 2
    decay_mult: 0
  }
  convolution_param {
    num_output: 256
    kernel_size: 1
    weight_filler {
      type: "xavier"
      std: 0.03
    }
    bias_filler {
      type: "constant"
      value: 0.2
    }
  }
}
layer {
  name: "inception_4e/relu_1x1"
  type: "ReLU"
  bottom: "inception_4e/1x1"
  top: "inception_4e/1x1"
}
layer {
  name: "inception_4e/3x3_reduce"
  type: "Convolution"
  bottom: "inception_4d/output"
  top: "inception_4e/3x3_reduce"
  param {
    lr_mult: 1
    decay_mult: 1
  }
  param {
    lr_mult: 2
    decay_mult: 0
  }
  convolution_param {
    num_output: 160
    kernel_size: 1
    weight_filler {
      type: "xavier"
      std: 0.09
    }
    bias_filler {
      type: "constant"
      value: 0.2
    }
  }
}
layer {
  name: "inception_4e/relu_3x3_reduce"
  type: "ReLU"
  bottom: "inception_4e/3x3_reduce"
  top: "inception_4e/3x3_reduce"
}
layer {
  name: "inception_4e/3x3"
  type: "Convolution"
  bottom: "inception_4e/3x3_reduce"
  top: "inception_4e/3x3"
  param {
    lr_mult: 1
    decay_mult: 1
  }
  param {
    lr_mult: 2
    decay_mult: 0
  }
  convolution_param {
    num_output: 320
    pad: 1
    kernel_size: 3
    weight_filler {
      type: "xavier"
      std: 0.03
    }
    bias_filler {
      type: "constant"
      value: 0.2
    }
  }
}
layer {
  name: "inception_4e/relu_3x3"
  type: "ReLU"
  bottom: "inception_4e/3x3"
  top: "inception_4e/3x3"
}
layer {
  name: "inception_4e/5x5_reduce"
  type: "Convolution"
  bottom: "inception_4d/output"
  top: "inception_4e/5x5_reduce"
  param {
    lr_mult: 1
    decay_mult: 1
  }
  param {
    lr_mult: 2
    decay_mult: 0
  }
  convolution_param {
    num_output: 32
    kernel_size: 1
    weight_filler {
      type: "xavier"
      std: 0.2
    }
    bias_filler {
      type: "constant"
      value: 0.2
    }
  }
}
layer {
  name: "inception_4e/relu_5x5_reduce"
  type: "ReLU"
  bottom: "inception_4e/5x5_reduce"
  top: "inception_4e/5x5_reduce"
}
layer {
  name: "inception_4e/5x5"
  type: "Convolution"
  bottom: "inception_4e/5x5_reduce"
  top: "inception_4e/
I0403 17:56:01.256716  6313 layer_factory.hpp:77] Creating layer data
I0403 17:56:01.257328  6313 net.cpp:91] Creating Layer data
I0403 17:56:01.257361  6313 net.cpp:399] data -> data
I0403 17:56:01.257413  6313 net.cpp:399] data -> label
I0403 17:56:01.257450  6313 data_transformer.cpp:25] Loading mean file from: /home/mohanty/data/final_dataset/lmdb/grayscale-40-60/mean.binaryproto
I0403 17:56:01.263919  6316 db_lmdb.cpp:38] Opened lmdb /home/mohanty/data/final_dataset/lmdb/grayscale-40-60/test_db
I0403 17:56:01.271488  6313 data_layer.cpp:41] output data size: 24,3,224,224
I0403 17:56:01.299511  6313 net.cpp:141] Setting up data
I0403 17:56:01.299614  6313 net.cpp:148] Top shape: 24 3 224 224 (3612672)
I0403 17:56:01.299639  6313 net.cpp:148] Top shape: 24 (24)
I0403 17:56:01.299657  6313 net.cpp:156] Memory required for data: 14450784
I0403 17:56:01.299686  6313 layer_factory.hpp:77] Creating layer label_data_1_split
I0403 17:56:01.299715  6313 net.cpp:91] Creating Layer label_data_1_split
I0403 17:56:01.299732  6313 net.cpp:425] label_data_1_split <- label
I0403 17:56:01.299765  6313 net.cpp:399] label_data_1_split -> label_data_1_split_0
I0403 17:56:01.299794  6313 net.cpp:399] label_data_1_split -> label_data_1_split_1
I0403 17:56:01.299818  6313 net.cpp:399] label_data_1_split -> label_data_1_split_2
I0403 17:56:01.299839  6313 net.cpp:399] label_data_1_split -> label_data_1_split_3
I0403 17:56:01.299860  6313 net.cpp:399] label_data_1_split -> label_data_1_split_4
I0403 17:56:01.299880  6313 net.cpp:399] label_data_1_split -> label_data_1_split_5
I0403 17:56:01.299901  6313 net.cpp:399] label_data_1_split -> label_data_1_split_6
I0403 17:56:01.299922  6313 net.cpp:399] label_data_1_split -> label_data_1_split_7
I0403 17:56:01.299943  6313 net.cpp:399] label_data_1_split -> label_data_1_split_8
I0403 17:56:01.299965  6313 net.cpp:399] label_data_1_split -> label_data_1_split_9
I0403 17:56:01.300086  6313 net.cpp:141] Setting up label_data_1_split
I0403 17:56:01.300109  6313 net.cpp:148] Top shape: 24 (24)
I0403 17:56:01.300127  6313 net.cpp:148] Top shape: 24 (24)
I0403 17:56:01.300145  6313 net.cpp:148] Top shape: 24 (24)
I0403 17:56:01.300161  6313 net.cpp:148] Top shape: 24 (24)
I0403 17:56:01.300181  6313 net.cpp:148] Top shape: 24 (24)
I0403 17:56:01.300197  6313 net.cpp:148] Top shape: 24 (24)
I0403 17:56:01.300215  6313 net.cpp:148] Top shape: 24 (24)
I0403 17:56:01.300230  6313 net.cpp:148] Top shape: 24 (24)
I0403 17:56:01.300247  6313 net.cpp:148] Top shape: 24 (24)
I0403 17:56:01.300263  6313 net.cpp:148] Top shape: 24 (24)
I0403 17:56:01.300318  6313 net.cpp:156] Memory required for data: 14451744
I0403 17:56:01.300335  6313 layer_factory.hpp:77] Creating layer conv1/7x7_s2
I0403 17:56:01.300369  6313 net.cpp:91] Creating Layer conv1/7x7_s2
I0403 17:56:01.300393  6313 net.cpp:425] conv1/7x7_s2 <- data
I0403 17:56:01.300415  6313 net.cpp:399] conv1/7x7_s2 -> conv1/7x7_s2
I0403 17:56:01.441170  6313 net.cpp:141] Setting up conv1/7x7_s2
I0403 17:56:01.441263  6313 net.cpp:148] Top shape: 24 64 112 112 (19267584)
I0403 17:56:01.441287  6313 net.cpp:156] Memory required for data: 91522080
I0403 17:56:01.441320  6313 layer_factory.hpp:77] Creating layer conv1/relu_7x7
I0403 17:56:01.441349  6313 net.cpp:91] Creating Layer conv1/relu_7x7
I0403 17:56:01.441368  6313 net.cpp:425] conv1/relu_7x7 <- conv1/7x7_s2
I0403 17:56:01.441387  6313 net.cpp:386] conv1/relu_7x7 -> conv1/7x7_s2 (in-place)
I0403 17:56:01.441675  6313 net.cpp:141] Setting up conv1/relu_7x7
I0403 17:56:01.441704  6313 net.cpp:148] Top shape: 24 64 112 112 (19267584)
I0403 17:56:01.441721  6313 net.cpp:156] Memory required for data: 168592416
I0403 17:56:01.441738  6313 layer_factory.hpp:77] Creating layer pool1/3x3_s2
I0403 17:56:01.441767  6313 net.cpp:91] Creating Layer pool1/3x3_s2
I0403 17:56:01.441787  6313 net.cpp:425] pool1/3x3_s2 <- conv1/7x7_s2
I0403 17:56:01.441809  6313 net.cpp:399] pool1/3x3_s2 -> pool1/3x3_s2
I0403 17:56:01.441892  6313 net.cpp:141] Setting up pool1/3x3_s2
I0403 17:56:01.441920  6313 net.cpp:148] Top shape: 24 64 56 56 (4816896)
I0403 17:56:01.441937  6313 net.cpp:156] Memory required for data: 187860000
I0403 17:56:01.441954  6313 layer_factory.hpp:77] Creating layer pool1/norm1
I0403 17:56:01.441982  6313 net.cpp:91] Creating Layer pool1/norm1
I0403 17:56:01.442003  6313 net.cpp:425] pool1/norm1 <- pool1/3x3_s2
I0403 17:56:01.442023  6313 net.cpp:399] pool1/norm1 -> pool1/norm1
I0403 17:56:01.442353  6313 net.cpp:141] Setting up pool1/norm1
I0403 17:56:01.442387  6313 net.cpp:148] Top shape: 24 64 56 56 (4816896)
I0403 17:56:01.442404  6313 net.cpp:156] Memory required for data: 207127584
I0403 17:56:01.442421  6313 layer_factory.hpp:77] Creating layer conv2/3x3_reduce
I0403 17:56:01.442451  6313 net.cpp:91] Creating Layer conv2/3x3_reduce
I0403 17:56:01.442472  6313 net.cpp:425] conv2/3x3_reduce <- pool1/norm1
I0403 17:56:01.442497  6313 net.cpp:399] conv2/3x3_reduce -> conv2/3x3_reduce
I0403 17:56:01.443958  6313 net.cpp:141] Setting up conv2/3x3_reduce
I0403 17:56:01.443990  6313 net.cpp:148] Top shape: 24 64 56 56 (4816896)
I0403 17:56:01.444008  6313 net.cpp:156] Memory required for data: 226395168
I0403 17:56:01.444031  6313 layer_factory.hpp:77] Creating layer conv2/relu_3x3_reduce
I0403 17:56:01.444056  6313 net.cpp:91] Creating Layer conv2/relu_3x3_reduce
I0403 17:56:01.444077  6313 net.cpp:425] conv2/relu_3x3_reduce <- conv2/3x3_reduce
I0403 17:56:01.444097  6313 net.cpp:386] conv2/relu_3x3_reduce -> conv2/3x3_reduce (in-place)
I0403 17:56:01.444388  6313 net.cpp:141] Setting up conv2/relu_3x3_reduce
I0403 17:56:01.444418  6313 net.cpp:148] Top shape: 24 64 56 56 (4816896)
I0403 17:56:01.444435  6313 net.cpp:156] Memory required for data: 245662752
I0403 17:56:01.444452  6313 layer_factory.hpp:77] Creating layer conv2/3x3
I0403 17:56:01.444478  6313 net.cpp:91] Creating Layer conv2/3x3
I0403 17:56:01.444499  6313 net.cpp:425] conv2/3x3 <- conv2/3x3_reduce
I0403 17:56:01.444525  6313 net.cpp:399] conv2/3x3 -> conv2/3x3
I0403 17:56:01.446954  6313 net.cpp:141] Setting up conv2/3x3
I0403 17:56:01.446986  6313 net.cpp:148] Top shape: 24 192 56 56 (14450688)
I0403 17:56:01.447003  6313 net.cpp:156] Memory required for data: 303465504
I0403 17:56:01.447027  6313 layer_factory.hpp:77] Creating layer conv2/relu_3x3
I0403 17:56:01.447052  6313 net.cpp:91] Creating Layer conv2/relu_3x3
I0403 17:56:01.447069  6313 net.cpp:425] conv2/relu_3x3 <- conv2/3x3
I0403 17:56:01.447089  6313 net.cpp:386] conv2/relu_3x3 -> conv2/3x3 (in-place)
I0403 17:56:01.447280  6313 net.cpp:141] Setting up conv2/relu_3x3
I0403 17:56:01.447312  6313 net.cpp:148] Top shape: 24 192 56 56 (14450688)
I0403 17:56:01.447361  6313 net.cpp:156] Memory required for data: 361268256
I0403 17:56:01.447378  6313 layer_factory.hpp:77] Creating layer conv2/norm2
I0403 17:56:01.447397  6313 net.cpp:91] Creating Layer conv2/norm2
I0403 17:56:01.447413  6313 net.cpp:425] conv2/norm2 <- conv2/3x3
I0403 17:56:01.447434  6313 net.cpp:399] conv2/norm2 -> conv2/norm2
I0403 17:56:01.447757  6313 net.cpp:141] Setting up conv2/norm2
I0403 17:56:01.447785  6313 net.cpp:148] Top shape: 24 192 56 56 (14450688)
I0403 17:56:01.447803  6313 net.cpp:156] Memory required for data: 419071008
I0403 17:56:01.447818  6313 layer_factory.hpp:77] Creating layer pool2/3x3_s2
I0403 17:56:01.447837  6313 net.cpp:91] Creating Layer pool2/3x3_s2
I0403 17:56:01.447854  6313 net.cpp:425] pool2/3x3_s2 <- conv2/norm2
I0403 17:56:01.447875  6313 net.cpp:399] pool2/3x3_s2 -> pool2/3x3_s2
I0403 17:56:01.447932  6313 net.cpp:141] Setting up pool2/3x3_s2
I0403 17:56:01.447957  6313 net.cpp:148] Top shape: 24 192 28 28 (3612672)
I0403 17:56:01.447974  6313 net.cpp:156] Memory required for data: 433521696
I0403 17:56:01.447991  6313 layer_factory.hpp:77] Creating layer pool2/3x3_s2_pool2/3x3_s2_0_split
I0403 17:56:01.448016  6313 net.cpp:91] Creating Layer pool2/3x3_s2_pool2/3x3_s2_0_split
I0403 17:56:01.448036  6313 net.cpp:425] pool2/3x3_s2_pool2/3x3_s2_0_split <- pool2/3x3_s2
I0403 17:56:01.448058  6313 net.cpp:399] pool2/3x3_s2_pool2/3x3_s2_0_split -> pool2/3x3_s2_pool2/3x3_s2_0_split_0
I0403 17:56:01.448082  6313 net.cpp:399] pool2/3x3_s2_pool2/3x3_s2_0_split -> pool2/3x3_s2_pool2/3x3_s2_0_split_1
I0403 17:56:01.448104  6313 net.cpp:399] pool2/3x3_s2_pool2/3x3_s2_0_split -> pool2/3x3_s2_pool2/3x3_s2_0_split_2
I0403 17:56:01.448125  6313 net.cpp:399] pool2/3x3_s2_pool2/3x3_s2_0_split -> pool2/3x3_s2_pool2/3x3_s2_0_split_3
I0403 17:56:01.448200  6313 net.cpp:141] Setting up pool2/3x3_s2_pool2/3x3_s2_0_split
I0403 17:56:01.448225  6313 net.cpp:148] Top shape: 24 192 28 28 (3612672)
I0403 17:56:01.448241  6313 net.cpp:148] Top shape: 24 192 28 28 (3612672)
I0403 17:56:01.448257  6313 net.cpp:148] Top shape: 24 192 28 28 (3612672)
I0403 17:56:01.448278  6313 net.cpp:148] Top shape: 24 192 28 28 (3612672)
I0403 17:56:01.448294  6313 net.cpp:156] Memory required for data: 491324448
I0403 17:56:01.448310  6313 layer_factory.hpp:77] Creating layer inception_3a/1x1
I0403 17:56:01.448334  6313 net.cpp:91] Creating Layer inception_3a/1x1
I0403 17:56:01.448354  6313 net.cpp:425] inception_3a/1x1 <- pool2/3x3_s2_pool2/3x3_s2_0_split_0
I0403 17:56:01.448375  6313 net.cpp:399] inception_3a/1x1 -> inception_3a/1x1
I0403 17:56:01.449975  6313 net.cpp:141] Setting up inception_3a/1x1
I0403 17:56:01.450008  6313 net.cpp:148] Top shape: 24 64 28 28 (1204224)
I0403 17:56:01.450027  6313 net.cpp:156] Memory required for data: 496141344
I0403 17:56:01.450047  6313 layer_factory.hpp:77] Creating layer inception_3a/relu_1x1
I0403 17:56:01.450073  6313 net.cpp:91] Creating Layer inception_3a/relu_1x1
I0403 17:56:01.450090  6313 net.cpp:425] inception_3a/relu_1x1 <- inception_3a/1x1
I0403 17:56:01.450109  6313 net.cpp:386] inception_3a/relu_1x1 -> inception_3a/1x1 (in-place)
I0403 17:56:01.450299  6313 net.cpp:141] Setting up inception_3a/relu_1x1
I0403 17:56:01.450326  6313 net.cpp:148] Top shape: 24 64 28 28 (1204224)
I0403 17:56:01.450341  6313 net.cpp:156] Memory required for data: 500958240
I0403 17:56:01.450357  6313 layer_factory.hpp:77] Creating layer inception_3a/3x3_reduce
I0403 17:56:01.450382  6313 net.cpp:91] Creating Layer inception_3a/3x3_reduce
I0403 17:56:01.450402  6313 net.cpp:425] inception_3a/3x3_reduce <- pool2/3x3_s2_pool2/3x3_s2_0_split_1
I0403 17:56:01.450423  6313 net.cpp:399] inception_3a/3x3_reduce -> inception_3a/3x3_reduce
I0403 17:56:01.452211  6313 net.cpp:141] Setting up inception_3a/3x3_reduce
I0403 17:56:01.452244  6313 net.cpp:148] Top shape: 24 96 28 28 (1806336)
I0403 17:56:01.452261  6313 net.cpp:156] Memory required for data: 508183584
I0403 17:56:01.452298  6313 layer_factory.hpp:77] Creating layer inception_3a/relu_3x3_reduce
I0403 17:56:01.452339  6313 net.cpp:91] Creating Layer inception_3a/relu_3x3_reduce
I0403 17:56:01.452359  6313 net.cpp:425] inception_3a/relu_3x3_reduce <- inception_3a/3x3_reduce
I0403 17:56:01.452378  6313 net.cpp:386] inception_3a/relu_3x3_reduce -> inception_3a/3x3_reduce (in-place)
I0403 17:56:01.452574  6313 net.cpp:141] Setting up inception_3a/relu_3x3_reduce
I0403 17:56:01.452601  6313 net.cpp:148] Top shape: 24 96 28 28 (1806336)
I0403 17:56:01.452617  6313 net.cpp:156] Memory required for data: 515408928
I0403 17:56:01.452632  6313 layer_factory.hpp:77] Creating layer inception_3a/3x3
I0403 17:56:01.452656  6313 net.cpp:91] Creating Layer inception_3a/3x3
I0403 17:56:01.452675  6313 net.cpp:425] inception_3a/3x3 <- inception_3a/3x3_reduce
I0403 17:56:01.452699  6313 net.cpp:399] inception_3a/3x3 -> inception_3a/3x3
I0403 17:56:01.454452  6313 net.cpp:141] Setting up inception_3a/3x3
I0403 17:56:01.454493  6313 net.cpp:148] Top shape: 24 128 28 28 (2408448)
I0403 17:56:01.454510  6313 net.cpp:156] Memory required for data: 525042720
I0403 17:56:01.454531  6313 layer_factory.hpp:77] Creating layer inception_3a/relu_3x3
I0403 17:56:01.454553  6313 net.cpp:91] Creating Layer inception_3a/relu_3x3
I0403 17:56:01.454573  6313 net.cpp:425] inception_3a/relu_3x3 <- inception_3a/3x3
I0403 17:56:01.454594  6313 net.cpp:386] inception_3a/relu_3x3 -> inception_3a/3x3 (in-place)
I0403 17:56:01.454886  6313 net.cpp:141] Setting up inception_3a/relu_3x3
I0403 17:56:01.454916  6313 net.cpp:148] Top shape: 24 128 28 28 (2408448)
I0403 17:56:01.454931  6313 net.cpp:156] Memory required for data: 534676512
I0403 17:56:01.454947  6313 layer_factory.hpp:77] Creating layer inception_3a/5x5_reduce
I0403 17:56:01.454970  6313 net.cpp:91] Creating Layer inception_3a/5x5_reduce
I0403 17:56:01.454989  6313 net.cpp:425] inception_3a/5x5_reduce <- pool2/3x3_s2_pool2/3x3_s2_0_split_2
I0403 17:56:01.455013  6313 net.cpp:399] inception_3a/5x5_reduce -> inception_3a/5x5_reduce
I0403 17:56:01.456051  6313 net.cpp:141] Setting up inception_3a/5x5_reduce
I0403 17:56:01.456082  6313 net.cpp:148] Top shape: 24 16 28 28 (301056)
I0403 17:56:01.456102  6313 net.cpp:156] Memory required for data: 535880736
I0403 17:56:01.456122  6313 layer_factory.hpp:77] Creating layer inception_3a/relu_5x5_reduce
I0403 17:56:01.456142  6313 net.cpp:91] Creating Layer inception_3a/relu_5x5_reduce
I0403 17:56:01.456161  6313 net.cpp:425] inception_3a/relu_5x5_reduce <- inception_3a/5x5_reduce
I0403 17:56:01.456181  6313 net.cpp:386] inception_3a/relu_5x5_reduce -> inception_3a/5x5_reduce (in-place)
I0403 17:56:01.456503  6313 net.cpp:141] Setting up inception_3a/relu_5x5_reduce
I0403 17:56:01.456537  6313 net.cpp:148] Top shape: 24 16 28 28 (301056)
I0403 17:56:01.456554  6313 net.cpp:156] Memory required for data: 537084960
I0403 17:56:01.456571  6313 layer_factory.hpp:77] Creating layer inception_3a/5x5
I0403 17:56:01.456595  6313 net.cpp:91] Creating Layer inception_3a/5x5
I0403 17:56:01.456614  6313 net.cpp:425] inception_3a/5x5 <- inception_3a/5x5_reduce
I0403 17:56:01.456634  6313 net.cpp:399] inception_3a/5x5 -> inception_3a/5x5
I0403 17:56:01.457741  6313 net.cpp:141] Setting up inception_3a/5x5
I0403 17:56:01.457772  6313 net.cpp:148] Top shape: 24 32 28 28 (602112)
I0403 17:56:01.457789  6313 net.cpp:156] Memory required for data: 539493408
I0403 17:56:01.457810  6313 layer_factory.hpp:77] Creating layer inception_3a/relu_5x5
I0403 17:56:01.457834  6313 net.cpp:91] Creating Layer inception_3a/relu_5x5
I0403 17:56:01.457852  6313 net.cpp:425] inception_3a/relu_5x5 <- inception_3a/5x5
I0403 17:56:01.457871  6313 net.cpp:386] inception_3a/relu_5x5 -> inception_3a/5x5 (in-place)
I0403 17:56:01.458057  6313 net.cpp:141] Setting up inception_3a/relu_5x5
I0403 17:56:01.458084  6313 net.cpp:148] Top shape: 24 32 28 28 (602112)
I0403 17:56:01.458101  6313 net.cpp:156] Memory required for data: 541901856
I0403 17:56:01.458117  6313 layer_factory.hpp:77] Creating layer inception_3a/pool
I0403 17:56:01.458139  6313 net.cpp:91] Creating Layer inception_3a/pool
I0403 17:56:01.458173  6313 net.cpp:425] inception_3a/pool <- pool2/3x3_s2_pool2/3x3_s2_0_split_3
I0403 17:56:01.458197  6313 net.cpp:399] inception_3a/pool -> inception_3a/pool
I0403 17:56:01.458263  6313 net.cpp:141] Setting up inception_3a/pool
I0403 17:56:01.458294  6313 net.cpp:148] Top shape: 24 192 28 28 (3612672)
I0403 17:56:01.458310  6313 net.cpp:156] Memory required for data: 556352544
I0403 17:56:01.458326  6313 layer_factory.hpp:77] Creating layer inception_3a/pool_proj
I0403 17:56:01.458350  6313 net.cpp:91] Creating Layer inception_3a/pool_proj
I0403 17:56:01.458370  6313 net.cpp:425] inception_3a/pool_proj <- inception_3a/pool
I0403 17:56:01.458395  6313 net.cpp:399] inception_3a/pool_proj -> inception_3a/pool_proj
I0403 17:56:01.459414  6313 net.cpp:141] Setting up inception_3a/pool_proj
I0403 17:56:01.459449  6313 net.cpp:148] Top shape: 24 32 28 28 (602112)
I0403 17:56:01.459467  6313 net.cpp:156] Memory required for data: 558760992
I0403 17:56:01.459492  6313 layer_factory.hpp:77] Creating layer inception_3a/relu_pool_proj
I0403 17:56:01.459514  6313 net.cpp:91] Creating Layer inception_3a/relu_pool_proj
I0403 17:56:01.459532  6313 net.cpp:425] inception_3a/relu_pool_proj <- inception_3a/pool_proj
I0403 17:56:01.459553  6313 net.cpp:386] inception_3a/relu_pool_proj -> inception_3a/pool_proj (in-place)
I0403 17:56:01.459839  6313 net.cpp:141] Setting up inception_3a/relu_pool_proj
I0403 17:56:01.459867  6313 net.cpp:148] Top shape: 24 32 28 28 (602112)
I0403 17:56:01.459884  6313 net.cpp:156] Memory required for data: 561169440
I0403 17:56:01.459902  6313 layer_factory.hpp:77] Creating layer inception_3a/output
I0403 17:56:01.459926  6313 net.cpp:91] Creating Layer inception_3a/output
I0403 17:56:01.459945  6313 net.cpp:425] inception_3a/output <- inception_3a/1x1
I0403 17:56:01.459964  6313 net.cpp:425] inception_3a/output <- inception_3a/3x3
I0403 17:56:01.459981  6313 net.cpp:425] inception_3a/output <- inception_3a/5x5
I0403 17:56:01.459997  6313 net.cpp:425] inception_3a/output <- inception_3a/pool_proj
I0403 17:56:01.460016  6313 net.cpp:399] inception_3a/output -> inception_3a/output
I0403 17:56:01.460067  6313 net.cpp:141] Setting up inception_3a/output
I0403 17:56:01.460091  6313 net.cpp:148] Top shape: 24 256 28 28 (4816896)
I0403 17:56:01.460108  6313 net.cpp:156] Memory required for data: 580437024
I0403 17:56:01.460124  6313 layer_factory.hpp:77] Creating layer inception_3a/output_inception_3a/output_0_split
I0403 17:56:01.460142  6313 net.cpp:91] Creating Layer inception_3a/output_inception_3a/output_0_split
I0403 17:56:01.460158  6313 net.cpp:425] inception_3a/output_inception_3a/output_0_split <- inception_3a/output
I0403 17:56:01.460180  6313 net.cpp:399] inception_3a/output_inception_3a/output_0_split -> inception_3a/output_inception_3a/output_0_split_0
I0403 17:56:01.460201  6313 net.cpp:399] inception_3a/output_inception_3a/output_0_split -> inception_3a/output_inception_3a/output_0_split_1
I0403 17:56:01.460224  6313 net.cpp:399] inception_3a/output_inception_3a/output_0_split -> inception_3a/output_inception_3a/output_0_split_2
I0403 17:56:01.460247  6313 net.cpp:399] inception_3a/output_inception_3a/output_0_split -> inception_3a/output_inception_3a/output_0_split_3
I0403 17:56:01.460330  6313 net.cpp:141] Setting up inception_3a/output_inception_3a/output_0_split
I0403 17:56:01.460355  6313 net.cpp:148] Top shape: 24 256 28 28 (4816896)
I0403 17:56:01.460373  6313 net.cpp:148] Top shape: 24 256 28 28 (4816896)
I0403 17:56:01.460391  6313 net.cpp:148] Top shape: 24 256 28 28 (4816896)
I0403 17:56:01.460407  6313 net.cpp:148] Top shape: 24 256 28 28 (4816896)
I0403 17:56:01.460422  6313 net.cpp:156] Memory required for data: 657507360
I0403 17:56:01.460438  6313 layer_factory.hpp:77] Creating layer inception_3b/1x1
I0403 17:56:01.460461  6313 net.cpp:91] Creating Layer inception_3b/1x1
I0403 17:56:01.460480  6313 net.cpp:425] inception_3b/1x1 <- inception_3a/output_inception_3a/output_0_split_0
I0403 17:56:01.460502  6313 net.cpp:399] inception_3b/1x1 -> inception_3b/1x1
I0403 17:56:01.461710  6313 net.cpp:141] Setting up inception_3b/1x1
I0403 17:56:01.461752  6313 net.cpp:148] Top shape: 24 128 28 28 (2408448)
I0403 17:56:01.461769  6313 net.cpp:156] Memory required for data: 667141152
I0403 17:56:01.461789  6313 layer_factory.hpp:77] Creating layer inception_3b/relu_1x1
I0403 17:56:01.461808  6313 net.cpp:91] Creating Layer inception_3b/relu_1x1
I0403 17:56:01.461825  6313 net.cpp:425] inception_3b/relu_1x1 <- inception_3b/1x1
I0403 17:56:01.461846  6313 net.cpp:386] inception_3b/relu_1x1 -> inception_3b/1x1 (in-place)
I0403 17:56:01.462038  6313 net.cpp:141] Setting up inception_3b/relu_1x1
I0403 17:56:01.462064  6313 net.cpp:148] Top shape: 24 128 28 28 (2408448)
I0403 17:56:01.462085  6313 net.cpp:156] Memory required for data: 676774944
I0403 17:56:01.462101  6313 layer_factory.hpp:77] Creating layer inception_3b/3x3_reduce
I0403 17:56:01.462126  6313 net.cpp:91] Creating Layer inception_3b/3x3_reduce
I0403 17:56:01.462144  6313 net.cpp:425] inception_3b/3x3_reduce <- inception_3a/output_inception_3a/output_0_split_1
I0403 17:56:01.462167  6313 net.cpp:399] inception_3b/3x3_reduce -> inception_3b/3x3_reduce
I0403 17:56:01.463382  6313 net.cpp:141] Setting up inception_3b/3x3_reduce
I0403 17:56:01.463413  6313 net.cpp:148] Top shape: 24 128 28 28 (2408448)
I0403 17:56:01.463431  6313 net.cpp:156] Memory required for data: 686408736
I0403 17:56:01.463451  6313 layer_factory.hpp:77] Creating layer inception_3b/relu_3x3_reduce
I0403 17:56:01.463470  6313 net.cpp:91] Creating Layer inception_3b/relu_3x3_reduce
I0403 17:56:01.463490  6313 net.cpp:425] inception_3b/relu_3x3_reduce <- inception_3b/3x3_reduce
I0403 17:56:01.463510  6313 net.cpp:386] inception_3b/relu_3x3_reduce -> inception_3b/3x3_reduce (in-place)
I0403 17:56:01.463691  6313 net.cpp:141] Setting up inception_3b/relu_3x3_reduce
I0403 17:56:01.463718  6313 net.cpp:148] Top shape: 24 128 28 28 (2408448)
I0403 17:56:01.463734  6313 net.cpp:156] Memory required for data: 696042528
I0403 17:56:01.463750  6313 layer_factory.hpp:77] Creating layer inception_3b/3x3
I0403 17:56:01.463778  6313 net.cpp:91] Creating Layer inception_3b/3x3
I0403 17:56:01.463798  6313 net.cpp:425] inception_3b/3x3 <- inception_3b/3x3_reduce
I0403 17:56:01.463817  6313 net.cpp:399] inception_3b/3x3 -> inception_3b/3x3
I0403 17:56:01.466877  6313 net.cpp:141] Setting up inception_3b/3x3
I0403 17:56:01.466910  6313 net.cpp:148] Top shape: 24 192 28 28 (3612672)
I0403 17:56:01.466928  6313 net.cpp:156] Memory required for data: 710493216
I0403 17:56:01.466950  6313 layer_factory.hpp:77] Creating layer inception_3b/relu_3x3
I0403 17:56:01.466972  6313 net.cpp:91] Creating Layer inception_3b/relu_3x3
I0403 17:56:01.466990  6313 net.cpp:425] inception_3b/relu_3x3 <- inception_3b/3x3
I0403 17:56:01.467010  6313 net.cpp:386] inception_3b/relu_3x3 -> inception_3b/3x3 (in-place)
I0403 17:56:01.467305  6313 net.cpp:141] Setting up inception_3b/relu_3x3
I0403 17:56:01.467334  6313 net.cpp:148] Top shape: 24 192 28 28 (3612672)
I0403 17:56:01.467351  6313 net.cpp:156] Memory required for data: 724943904
I0403 17:56:01.467368  6313 layer_factory.hpp:77] Creating layer inception_3b/5x5_reduce
I0403 17:56:01.467392  6313 net.cpp:91] Creating Layer inception_3b/5x5_reduce
I0403 17:56:01.467412  6313 net.cpp:425] inception_3b/5x5_reduce <- inception_3a/output_inception_3a/output_0_split_2
I0403 17:56:01.467437  6313 net.cpp:399] inception_3b/5x5_reduce -> inception_3b/5x5_reduce
I0403 17:56:01.468480  6313 net.cpp:141] Setting up inception_3b/5x5_reduce
I0403 17:56:01.468511  6313 net.cpp:148] Top shape: 24 32 28 28 (602112)
I0403 17:56:01.468529  6313 net.cpp:156] Memory required for data: 727352352
I0403 17:56:01.468550  6313 layer_factory.hpp:77] Creating layer inception_3b/relu_5x5_reduce
I0403 17:56:01.468571  6313 net.cpp:91] Creating Layer inception_3b/relu_5x5_reduce
I0403 17:56:01.468590  6313 net.cpp:425] inception_3b/relu_5x5_reduce <- inception_3b/5x5_reduce
I0403 17:56:01.468610  6313 net.cpp:386] inception_3b/relu_5x5_reduce -> inception_3b/5x5_reduce (in-place)
I0403 17:56:01.468816  6313 net.cpp:141] Setting up inception_3b/relu_5x5_reduce
I0403 17:56:01.468844  6313 net.cpp:148] Top shape: 24 32 28 28 (602112)
I0403 17:56:01.468863  6313 net.cpp:156] Memory required for data: 729760800
I0403 17:56:01.468879  6313 layer_factory.hpp:77] Creating layer inception_3b/5x5
I0403 17:56:01.468905  6313 net.cpp:91] Creating Layer inception_3b/5x5
I0403 17:56:01.468924  6313 net.cpp:425] inception_3b/5x5 <- inception_3b/5x5_reduce
I0403 17:56:01.468943  6313 net.cpp:399] inception_3b/5x5 -> inception_3b/5x5
I0403 17:56:01.471021  6313 net.cpp:141] Setting up inception_3b/5x5
I0403 17:56:01.471055  6313 net.cpp:148] Top shape: 24 96 28 28 (1806336)
I0403 17:56:01.471072  6313 net.cpp:156] Memory required for data: 736986144
I0403 17:56:01.471093  6313 layer_factory.hpp:77] Creating layer inception_3b/relu_5x5
I0403 17:56:01.471112  6313 net.cpp:91] Creating Layer inception_3b/relu_5x5
I0403 17:56:01.471129  6313 net.cpp:425] inception_3b/relu_5x5 <- inception_3b/5x5
I0403 17:56:01.471150  6313 net.cpp:386] inception_3b/relu_5x5 -> inception_3b/5x5 (in-place)
I0403 17:56:01.471359  6313 net.cpp:141] Setting up inception_3b/relu_5x5
I0403 17:56:01.471388  6313 net.cpp:148] Top shape: 24 96 28 28 (1806336)
I0403 17:56:01.471405  6313 net.cpp:156] Memory required for data: 744211488
I0403 17:56:01.471421  6313 layer_factory.hpp:77] Creating layer inception_3b/pool
I0403 17:56:01.471441  6313 net.cpp:91] Creating Layer inception_3b/pool
I0403 17:56:01.471457  6313 net.cpp:425] inception_3b/pool <- inception_3a/output_inception_3a/output_0_split_3
I0403 17:56:01.471477  6313 net.cpp:399] inception_3b/pool -> inception_3b/pool
I0403 17:56:01.471540  6313 net.cpp:141] Setting up inception_3b/pool
I0403 17:56:01.471567  6313 net.cpp:148] Top shape: 24 256 28 28 (4816896)
I0403 17:56:01.471583  6313 net.cpp:156] Memory required for data: 763479072
I0403 17:56:01.471599  6313 layer_factory.hpp:77] Creating layer inception_3b/pool_proj
I0403 17:56:01.471624  6313 net.cpp:91] Creating Layer inception_3b/pool_proj
I0403 17:56:01.471644  6313 net.cpp:425] inception_3b/pool_proj <- inception_3b/pool
I0403 17:56:01.471668  6313 net.cpp:399] inception_3b/pool_proj -> inception_3b/pool_proj
I0403 17:56:01.472793  6313 net.cpp:141] Setting up inception_3b/pool_proj
I0403 17:56:01.472826  6313 net.cpp:148] Top shape: 24 64 28 28 (1204224)
I0403 17:56:01.472843  6313 net.cpp:156] Memory required for data: 768295968
I0403 17:56:01.472863  6313 layer_factory.hpp:77] Creating layer inception_3b/relu_pool_proj
I0403 17:56:01.472882  6313 net.cpp:91] Creating Layer inception_3b/relu_pool_proj
I0403 17:56:01.472899  6313 net.cpp:425] inception_3b/relu_pool_proj <- inception_3b/pool_proj
I0403 17:56:01.472920  6313 net.cpp:386] inception_3b/relu_pool_proj -> inception_3b/pool_proj (in-place)
I0403 17:56:01.473345  6313 net.cpp:141] Setting up inception_3b/relu_pool_proj
I0403 17:56:01.473376  6313 net.cpp:148] Top shape: 24 64 28 28 (1204224)
I0403 17:56:01.473393  6313 net.cpp:156] Memory required for data: 773112864
I0403 17:56:01.473409  6313 layer_factory.hpp:77] Creating layer inception_3b/output
I0403 17:56:01.473428  6313 net.cpp:91] Creating Layer inception_3b/output
I0403 17:56:01.473445  6313 net.cpp:425] inception_3b/output <- inception_3b/1x1
I0403 17:56:01.473464  6313 net.cpp:425] inception_3b/output <- inception_3b/3x3
I0403 17:56:01.473480  6313 net.cpp:425] inception_3b/output <- inception_3b/5x5
I0403 17:56:01.473497  6313 net.cpp:425] inception_3b/output <- inception_3b/pool_proj
I0403 17:56:01.473515  6313 net.cpp:399] inception_3b/output -> inception_3b/output
I0403 17:56:01.473562  6313 net.cpp:141] Setting up inception_3b/output
I0403 17:56:01.473587  6313 net.cpp:148] Top shape: 24 480 28 28 (9031680)
I0403 17:56:01.473603  6313 net.cpp:156] Memory required for data: 809239584
I0403 17:56:01.473618  6313 layer_factory.hpp:77] Creating layer pool3/3x3_s2
I0403 17:56:01.473639  6313 net.cpp:91] Creating Layer pool3/3x3_s2
I0403 17:56:01.473656  6313 net.cpp:425] pool3/3x3_s2 <- inception_3b/output
I0403 17:56:01.473691  6313 net.cpp:399] pool3/3x3_s2 -> pool3/3x3_s2
I0403 17:56:01.473754  6313 net.cpp:141] Setting up pool3/3x3_s2
I0403 17:56:01.473779  6313 net.cpp:148] Top shape: 24 480 14 14 (2257920)
I0403 17:56:01.473795  6313 net.cpp:156] Memory required for data: 818271264
I0403 17:56:01.473810  6313 layer_factory.hpp:77] Creating layer pool3/3x3_s2_pool3/3x3_s2_0_split
I0403 17:56:01.473829  6313 net.cpp:91] Creating Layer pool3/3x3_s2_pool3/3x3_s2_0_split
I0403 17:56:01.473845  6313 net.cpp:425] pool3/3x3_s2_pool3/3x3_s2_0_split <- pool3/3x3_s2
I0403 17:56:01.473865  6313 net.cpp:399] pool3/3x3_s2_pool3/3x3_s2_0_split -> pool3/3x3_s2_pool3/3x3_s2_0_split_0
I0403 17:56:01.473887  6313 net.cpp:399] pool3/3x3_s2_pool3/3x3_s2_0_split -> pool3/3x3_s2_pool3/3x3_s2_0_split_1
I0403 17:56:01.473909  6313 net.cpp:399] pool3/3x3_s2_pool3/3x3_s2_0_split -> pool3/3x3_s2_pool3/3x3_s2_0_split_2
I0403 17:56:01.473929  6313 net.cpp:399] pool3/3x3_s2_pool3/3x3_s2_0_split -> pool3/3x3_s2_pool3/3x3_s2_0_split_3
I0403 17:56:01.474011  6313 net.cpp:141] Setting up pool3/3x3_s2_pool3/3x3_s2_0_split
I0403 17:56:01.474037  6313 net.cpp:148] Top shape: 24 480 14 14 (2257920)
I0403 17:56:01.474056  6313 net.cpp:148] Top shape: 24 480 14 14 (2257920)
I0403 17:56:01.474073  6313 net.cpp:148] Top shape: 24 480 14 14 (2257920)
I0403 17:56:01.474091  6313 net.cpp:148] Top shape: 24 480 14 14 (2257920)
I0403 17:56:01.474104  6313 net.cpp:156] Memory required for data: 854397984
I0403 17:56:01.474120  6313 layer_factory.hpp:77] Creating layer inception_4a/1x1
I0403 17:56:01.474144  6313 net.cpp:91] Creating Layer inception_4a/1x1
I0403 17:56:01.474162  6313 net.cpp:425] inception_4a/1x1 <- pool3/3x3_s2_pool3/3x3_s2_0_split_0
I0403 17:56:01.474182  6313 net.cpp:399] inception_4a/1x1 -> inception_4a/1x1
I0403 17:56:01.475847  6313 net.cpp:141] Setting up inception_4a/1x1
I0403 17:56:01.475879  6313 net.cpp:148] Top shape: 24 192 14 14 (903168)
I0403 17:56:01.475898  6313 net.cpp:156] Memory required for data: 858010656
I0403 17:56:01.475919  6313 layer_factory.hpp:77] Creating layer inception_4a/relu_1x1
I0403 17:56:01.475939  6313 net.cpp:91] Creating Layer inception_4a/relu_1x1
I0403 17:56:01.475956  6313 net.cpp:425] inception_4a/relu_1x1 <- inception_4a/1x1
I0403 17:56:01.475980  6313 net.cpp:386] inception_4a/relu_1x1 -> inception_4a/1x1 (in-place)
I0403 17:56:01.476168  6313 net.cpp:141] Setting up inception_4a/relu_1x1
I0403 17:56:01.476197  6313 net.cpp:148] Top shape: 24 192 14 14 (903168)
I0403 17:56:01.476212  6313 net.cpp:156] Memory required for data: 861623328
I0403 17:56:01.476228  6313 layer_factory.hpp:77] Creating layer inception_4a/3x3_reduce
I0403 17:56:01.476253  6313 net.cpp:91] Creating Layer inception_4a/3x3_reduce
I0403 17:56:01.476274  6313 net.cpp:425] inception_4a/3x3_reduce <- pool3/3x3_s2_pool3/3x3_s2_0_split_1
I0403 17:56:01.476300  6313 net.cpp:399] inception_4a/3x3_reduce -> inception_4a/3x3_reduce
I0403 17:56:01.477649  6313 net.cpp:141] Setting up inception_4a/3x3_reduce
I0403 17:56:01.477685  6313 net.cpp:148] Top shape: 24 96 14 14 (451584)
I0403 17:56:01.477705  6313 net.cpp:156] Memory required for data: 863429664
I0403 17:56:01.477733  6313 layer_factory.hpp:77] Creating layer inception_4a/relu_3x3_reduce
I0403 17:56:01.477772  6313 net.cpp:91] Creating Layer inception_4a/relu_3x3_reduce
I0403 17:56:01.477795  6313 net.cpp:425] inception_4a/relu_3x3_reduce <- inception_4a/3x3_reduce
I0403 17:56:01.477821  6313 net.cpp:386] inception_4a/relu_3x3_reduce -> inception_4a/3x3_reduce (in-place)
I0403 17:56:01.478013  6313 net.cpp:141] Setting up inception_4a/relu_3x3_reduce
I0403 17:56:01.478039  6313 net.cpp:148] Top shape: 24 96 14 14 (451584)
I0403 17:56:01.478055  6313 net.cpp:156] Memory required for data: 865236000
I0403 17:56:01.478070  6313 layer_factory.hpp:77] Creating layer inception_4a/3x3
I0403 17:56:01.478093  6313 net.cpp:91] Creating Layer inception_4a/3x3
I0403 17:56:01.478112  6313 net.cpp:425] inception_4a/3x3 <- inception_4a/3x3_reduce
I0403 17:56:01.478135  6313 net.cpp:399] inception_4a/3x3 -> inception_4a/3x3
I0403 17:56:01.480968  6313 net.cpp:141] Setting up inception_4a/3x3
I0403 17:56:01.481000  6313 net.cpp:148] Top shape: 24 208 14 14 (978432)
I0403 17:56:01.481017  6313 net.cpp:156] Memory required for data: 869149728
I0403 17:56:01.481039  6313 layer_factory.hpp:77] Creating layer inception_4a/relu_3x3
I0403 17:56:01.481061  6313 net.cpp:91] Creating Layer inception_4a/relu_3x3
I0403 17:56:01.481079  6313 net.cpp:425] inception_4a/relu_3x3 <- inception_4a/3x3
I0403 17:56:01.481098  6313 net.cpp:386] inception_4a/relu_3x3 -> inception_4a/3x3 (in-place)
I0403 17:56:01.481400  6313 net.cpp:141] Setting up inception_4a/relu_3x3
I0403 17:56:01.481429  6313 net.cpp:148] Top shape: 24 208 14 14 (978432)
I0403 17:56:01.481446  6313 net.cpp:156] Memory required for data: 873063456
I0403 17:56:01.481463  6313 layer_factory.hpp:77] Creating layer inception_4a/5x5_reduce
I0403 17:56:01.481489  6313 net.cpp:91] Creating Layer inception_4a/5x5_reduce
I0403 17:56:01.481508  6313 net.cpp:425] inception_4a/5x5_reduce <- pool3/3x3_s2_pool3/3x3_s2_0_split_2
I0403 17:56:01.481533  6313 net.cpp:399] inception_4a/5x5_reduce -> inception_4a/5x5_reduce
I0403 17:56:01.482607  6313 net.cpp:141] Setting up inception_4a/5x5_reduce
I0403 17:56:01.482637  6313 net.cpp:148] Top shape: 24 16 14 14 (75264)
I0403 17:56:01.482656  6313 net.cpp:156] Memory required for data: 873364512
I0403 17:56:01.482676  6313 layer_factory.hpp:77] Creating layer inception_4a/relu_5x5_reduce
I0403 17:56:01.482697  6313 net.cpp:91] Creating Layer inception_4a/relu_5x5_reduce
I0403 17:56:01.482714  6313 net.cpp:425] inception_4a/relu_5x5_reduce <- inception_4a/5x5_reduce
I0403 17:56:01.482733  6313 net.cpp:386] inception_4a/relu_5x5_reduce -> inception_4a/5x5_reduce (in-place)
I0403 17:56:01.482918  6313 net.cpp:141] Setting up inception_4a/relu_5x5_reduce
I0403 17:56:01.482944  6313 net.cpp:148] Top shape: 24 16 14 14 (75264)
I0403 17:56:01.482959  6313 net.cpp:156] Memory required for data: 873665568
I0403 17:56:01.482974  6313 layer_factory.hpp:77] Creating layer inception_4a/5x5
I0403 17:56:01.482998  6313 net.cpp:91] Creating Layer inception_4a/5x5
I0403 17:56:01.483016  6313 net.cpp:425] inception_4a/5x5 <- inception_4a/5x5_reduce
I0403 17:56:01.483036  6313 net.cpp:399] inception_4a/5x5 -> inception_4a/5x5
I0403 17:56:01.484146  6313 net.cpp:141] Setting up inception_4a/5x5
I0403 17:56:01.484176  6313 net.cpp:148] Top shape: 24 48 14 14 (225792)
I0403 17:56:01.484194  6313 net.cpp:156] Memory required for data: 874568736
I0403 17:56:01.484213  6313 layer_factory.hpp:77] Creating layer inception_4a/relu_5x5
I0403 17:56:01.484231  6313 net.cpp:91] Creating Layer inception_4a/relu_5x5
I0403 17:56:01.484247  6313 net.cpp:425] inception_4a/relu_5x5 <- inception_4a/5x5
I0403 17:56:01.484266  6313 net.cpp:386] inception_4a/relu_5x5 -> inception_4a/5x5 (in-place)
I0403 17:56:01.484452  6313 net.cpp:141] Setting up inception_4a/relu_5x5
I0403 17:56:01.484482  6313 net.cpp:148] Top shape: 24 48 14 14 (225792)
I0403 17:56:01.484498  6313 net.cpp:156] Memory required for data: 875471904
I0403 17:56:01.484513  6313 layer_factory.hpp:77] Creating layer inception_4a/pool
I0403 17:56:01.484532  6313 net.cpp:91] Creating Layer inception_4a/pool
I0403 17:56:01.484549  6313 net.cpp:425] inception_4a/pool <- pool3/3x3_s2_pool3/3x3_s2_0_split_3
I0403 17:56:01.484570  6313 net.cpp:399] inception_4a/pool -> inception_4a/pool
I0403 17:56:01.484632  6313 net.cpp:141] Setting up inception_4a/pool
I0403 17:56:01.484659  6313 net.cpp:148] Top shape: 24 480 14 14 (2257920)
I0403 17:56:01.484674  6313 net.cpp:156] Memory required for data: 884503584
I0403 17:56:01.484688  6313 layer_factory.hpp:77] Creating layer inception_4a/pool_proj
I0403 17:56:01.484712  6313 net.cpp:91] Creating Layer inception_4a/pool_proj
I0403 17:56:01.484730  6313 net.cpp:425] inception_4a/pool_proj <- inception_4a/pool
I0403 17:56:01.484750  6313 net.cpp:399] inception_4a/pool_proj -> inception_4a/pool_proj
I0403 17:56:01.485955  6313 net.cpp:141] Setting up inception_4a/pool_proj
I0403 17:56:01.485990  6313 net.cpp:148] Top shape: 24 64 14 14 (301056)
I0403 17:56:01.486022  6313 net.cpp:156] Memory required for data: 885707808
I0403 17:56:01.486042  6313 layer_factory.hpp:77] Creating layer inception_4a/relu_pool_proj
I0403 17:56:01.486062  6313 net.cpp:91] Creating Layer inception_4a/relu_pool_proj
I0403 17:56:01.486078  6313 net.cpp:425] inception_4a/relu_pool_proj <- inception_4a/pool_proj
I0403 17:56:01.486099  6313 net.cpp:386] inception_4a/relu_pool_proj -> inception_4a/pool_proj (in-place)
I0403 17:56:01.486394  6313 net.cpp:141] Setting up inception_4a/relu_pool_proj
I0403 17:56:01.486423  6313 net.cpp:148] Top shape: 24 64 14 14 (301056)
I0403 17:56:01.486440  6313 net.cpp:156] Memory required for data: 886912032
I0403 17:56:01.486455  6313 layer_factory.hpp:77] Creating layer inception_4a/output
I0403 17:56:01.486474  6313 net.cpp:91] Creating Layer inception_4a/output
I0403 17:56:01.486490  6313 net.cpp:425] inception_4a/output <- inception_4a/1x1
I0403 17:56:01.486507  6313 net.cpp:425] inception_4a/output <- inception_4a/3x3
I0403 17:56:01.486524  6313 net.cpp:425] inception_4a/output <- inception_4a/5x5
I0403 17:56:01.486541  6313 net.cpp:425] inception_4a/output <- inception_4a/pool_proj
I0403 17:56:01.486559  6313 net.cpp:399] inception_4a/output -> inception_4a/output
I0403 17:56:01.486606  6313 net.cpp:141] Setting up inception_4a/output
I0403 17:56:01.486631  6313 net.cpp:148] Top shape: 24 512 14 14 (2408448)
I0403 17:56:01.486646  6313 net.cpp:156] Memory required for data: 896545824
I0403 17:56:01.486661  6313 layer_factory.hpp:77] Creating layer inception_4a/output_inception_4a/output_0_split
I0403 17:56:01.486681  6313 net.cpp:91] Creating Layer inception_4a/output_inception_4a/output_0_split
I0403 17:56:01.486698  6313 net.cpp:425] inception_4a/output_inception_4a/output_0_split <- inception_4a/output
I0403 17:56:01.486717  6313 net.cpp:399] inception_4a/output_inception_4a/output_0_split -> inception_4a/output_inception_4a/output_0_split_0
I0403 17:56:01.486738  6313 net.cpp:399] inception_4a/output_inception_4a/output_0_split -> inception_4a/output_inception_4a/output_0_split_1
I0403 17:56:01.486760  6313 net.cpp:399] inception_4a/output_inception_4a/output_0_split -> inception_4a/output_inception_4a/output_0_split_2
I0403 17:56:01.486785  6313 net.cpp:399] inception_4a/output_inception_4a/output_0_split -> inception_4a/output_inception_4a/output_0_split_3
I0403 17:56:01.486807  6313 net.cpp:399] inception_4a/output_inception_4a/output_0_split -> inception_4a/output_inception_4a/output_0_split_4
I0403 17:56:01.486901  6313 net.cpp:141] Setting up inception_4a/output_inception_4a/output_0_split
I0403 17:56:01.486924  6313 net.cpp:148] Top shape: 24 512 14 14 (2408448)
I0403 17:56:01.486943  6313 net.cpp:148] Top shape: 24 512 14 14 (2408448)
I0403 17:56:01.486958  6313 net.cpp:148] Top shape: 24 512 14 14 (2408448)
I0403 17:56:01.486974  6313 net.cpp:148] Top shape: 24 512 14 14 (2408448)
I0403 17:56:01.486990  6313 net.cpp:148] Top shape: 24 512 14 14 (2408448)
I0403 17:56:01.487004  6313 net.cpp:156] Memory required for data: 944714784
I0403 17:56:01.487020  6313 layer_factory.hpp:77] Creating layer loss1/ave_pool
I0403 17:56:01.487040  6313 net.cpp:91] Creating Layer loss1/ave_pool
I0403 17:56:01.487058  6313 net.cpp:425] loss1/ave_pool <- inception_4a/output_inception_4a/output_0_split_0
I0403 17:56:01.487076  6313 net.cpp:399] loss1/ave_pool -> loss1/ave_pool
I0403 17:56:01.487293  6313 net.cpp:141] Setting up loss1/ave_pool
I0403 17:56:01.487321  6313 net.cpp:148] Top shape: 24 512 4 4 (196608)
I0403 17:56:01.487337  6313 net.cpp:156] Memory required for data: 945501216
I0403 17:56:01.487354  6313 layer_factory.hpp:77] Creating layer loss1/conv
I0403 17:56:01.487375  6313 net.cpp:91] Creating Layer loss1/conv
I0403 17:56:01.487395  6313 net.cpp:425] loss1/conv <- loss1/ave_pool
I0403 17:56:01.487413  6313 net.cpp:399] loss1/conv -> loss1/conv
I0403 17:56:01.488873  6313 net.cpp:141] Setting up loss1/conv
I0403 17:56:01.488903  6313 net.cpp:148] Top shape: 24 128 4 4 (49152)
I0403 17:56:01.488935  6313 net.cpp:156] Memory required for data: 945697824
I0403 17:56:01.488956  6313 layer_factory.hpp:77] Creating layer loss1/relu_conv
I0403 17:56:01.488979  6313 net.cpp:91] Creating Layer loss1/relu_conv
I0403 17:56:01.488996  6313 net.cpp:425] loss1/relu_conv <- loss1/conv
I0403 17:56:01.489014  6313 net.cpp:386] loss1/relu_conv -> loss1/conv (in-place)
I0403 17:56:01.489303  6313 net.cpp:141] Setting up loss1/relu_conv
I0403 17:56:01.489331  6313 net.cpp:148] Top shape: 24 128 4 4 (49152)
I0403 17:56:01.489346  6313 net.cpp:156] Memory required for data: 945894432
I0403 17:56:01.489362  6313 layer_factory.hpp:77] Creating layer loss1/fc
I0403 17:56:01.489388  6313 net.cpp:91] Creating Layer loss1/fc
I0403 17:56:01.489408  6313 net.cpp:425] loss1/fc <- loss1/conv
I0403 17:56:01.489428  6313 net.cpp:399] loss1/fc -> loss1/fc
I0403 17:56:01.507781  6313 net.cpp:141] Setting up loss1/fc
I0403 17:56:01.507817  6313 net.cpp:148] Top shape: 24 1024 (24576)
I0403 17:56:01.507834  6313 net.cpp:156] Memory required for data: 945992736
I0403 17:56:01.507854  6313 layer_factory.hpp:77] Creating layer loss1/relu_fc
I0403 17:56:01.507874  6313 net.cpp:91] Creating Layer loss1/relu_fc
I0403 17:56:01.507889  6313 net.cpp:425] loss1/relu_fc <- loss1/fc
I0403 17:56:01.507910  6313 net.cpp:386] loss1/relu_fc -> loss1/fc (in-place)
I0403 17:56:01.508102  6313 net.cpp:141] Setting up loss1/relu_fc
I0403 17:56:01.508129  6313 net.cpp:148] Top shape: 24 1024 (24576)
I0403 17:56:01.508146  6313 net.cpp:156] Memory required for data: 946091040
I0403 17:56:01.508162  6313 layer_factory.hpp:77] Creating layer loss1/drop_fc
I0403 17:56:01.508190  6313 net.cpp:91] Creating Layer loss1/drop_fc
I0403 17:56:01.508210  6313 net.cpp:425] loss1/drop_fc <- loss1/fc
I0403 17:56:01.508232  6313 net.cpp:386] loss1/drop_fc -> loss1/fc (in-place)
I0403 17:56:01.508288  6313 net.cpp:141] Setting up loss1/drop_fc
I0403 17:56:01.508313  6313 net.cpp:148] Top shape: 24 1024 (24576)
I0403 17:56:01.508330  6313 net.cpp:156] Memory required for data: 946189344
I0403 17:56:01.508347  6313 layer_factory.hpp:77] Creating layer loss1/classifier_plantvillage
I0403 17:56:01.508370  6313 net.cpp:91] Creating Layer loss1/classifier_plantvillage
I0403 17:56:01.508389  6313 net.cpp:425] loss1/classifier_plantvillage <- loss1/fc
I0403 17:56:01.508411  6313 net.cpp:399] loss1/classifier_plantvillage -> loss1/classifier_plantvillage
I0403 17:56:01.509340  6313 net.cpp:141] Setting up loss1/classifier_plantvillage
I0403 17:56:01.509372  6313 net.cpp:148] Top shape: 24 38 (912)
I0403 17:56:01.509390  6313 net.cpp:156] Memory required for data: 946192992
I0403 17:56:01.509410  6313 layer_factory.hpp:77] Creating layer loss1/classifier_plantvillage_loss1/classifier_plantvillage_0_split
I0403 17:56:01.509430  6313 net.cpp:91] Creating Layer loss1/classifier_plantvillage_loss1/classifier_plantvillage_0_split
I0403 17:56:01.509448  6313 net.cpp:425] loss1/classifier_plantvillage_loss1/classifier_plantvillage_0_split <- loss1/classifier_plantvillage
I0403 17:56:01.509467  6313 net.cpp:399] loss1/classifier_plantvillage_loss1/classifier_plantvillage_0_split -> loss1/classifier_plantvillage_loss1/classifier_plantvillage_0_split_0
I0403 17:56:01.509490  6313 net.cpp:399] loss1/classifier_plantvillage_loss1/classifier_plantvillage_0_split -> loss1/classifier_plantvillage_loss1/classifier_plantvillage_0_split_1
I0403 17:56:01.509511  6313 net.cpp:399] loss1/classifier_plantvillage_loss1/classifier_plantvillage_0_split -> loss1/classifier_plantvillage_loss1/classifier_plantvillage_0_split_2
I0403 17:56:01.509579  6313 net.cpp:141] Setting up loss1/classifier_plantvillage_loss1/classifier_plantvillage_0_split
I0403 17:56:01.509604  6313 net.cpp:148] Top shape: 24 38 (912)
I0403 17:56:01.509623  6313 net.cpp:148] Top shape: 24 38 (912)
I0403 17:56:01.509639  6313 net.cpp:148] Top shape: 24 38 (912)
I0403 17:56:01.509654  6313 net.cpp:156] Memory required for data: 946203936
I0403 17:56:01.509668  6313 layer_factory.hpp:77] Creating layer inception_4b/1x1
I0403 17:56:01.509688  6313 net.cpp:91] Creating Layer inception_4b/1x1
I0403 17:56:01.509723  6313 net.cpp:425] inception_4b/1x1 <- inception_4a/output_inception_4a/output_0_split_1
I0403 17:56:01.509744  6313 net.cpp:399] inception_4b/1x1 -> inception_4b/1x1
I0403 17:56:01.511430  6313 net.cpp:141] Setting up inception_4b/1x1
I0403 17:56:01.511461  6313 net.cpp:148] Top shape: 24 160 14 14 (752640)
I0403 17:56:01.511478  6313 net.cpp:156] Memory required for data: 949214496
I0403 17:56:01.511499  6313 layer_factory.hpp:77] Creating layer inception_4b/relu_1x1
I0403 17:56:01.511520  6313 net.cpp:91] Creating Layer inception_4b/relu_1x1
I0403 17:56:01.511538  6313 net.cpp:425] inception_4b/relu_1x1 <- inception_4b/1x1
I0403 17:56:01.511556  6313 net.cpp:386] inception_4b/relu_1x1 -> inception_4b/1x1 (in-place)
I0403 17:56:01.511737  6313 net.cpp:141] Setting up inception_4b/relu_1x1
I0403 17:56:01.511762  6313 net.cpp:148] Top shape: 24 160 14 14 (752640)
I0403 17:56:01.511777  6313 net.cpp:156] Memory required for data: 952225056
I0403 17:56:01.511793  6313 layer_factory.hpp:77] Creating layer inception_4b/3x3_reduce
I0403 17:56:01.511817  6313 net.cpp:91] Creating Layer inception_4b/3x3_reduce
I0403 17:56:01.511836  6313 net.cpp:425] inception_4b/3x3_reduce <- inception_4a/output_inception_4a/output_0_split_2
I0403 17:56:01.511855  6313 net.cpp:399] inception_4b/3x3_reduce -> inception_4b/3x3_reduce
I0403 17:56:01.513274  6313 net.cpp:141] Setting up inception_4b/3x3_reduce
I0403 17:56:01.513304  6313 net.cpp:148] Top shape: 24 112 14 14 (526848)
I0403 17:56:01.513321  6313 net.cpp:156] Memory required for data: 954332448
I0403 17:56:01.513341  6313 layer_factory.hpp:77] Creating layer inception_4b/relu_3x3_reduce
I0403 17:56:01.513365  6313 net.cpp:91] Creating Layer inception_4b/relu_3x3_reduce
I0403 17:56:01.513382  6313 net.cpp:425] inception_4b/relu_3x3_reduce <- inception_4b/3x3_reduce
I0403 17:56:01.513401  6313 net.cpp:386] inception_4b/relu_3x3_reduce -> inception_4b/3x3_reduce (in-place)
I0403 17:56:01.513690  6313 net.cpp:141] Setting up inception_4b/relu_3x3_reduce
I0403 17:56:01.513717  6313 net.cpp:148] Top shape: 24 112 14 14 (526848)
I0403 17:56:01.513732  6313 net.cpp:156] Memory required for data: 956439840
I0403 17:56:01.513748  6313 layer_factory.hpp:77] Creating layer inception_4b/3x3
I0403 17:56:01.513772  6313 net.cpp:91] Creating Layer inception_4b/3x3
I0403 17:56:01.513792  6313 net.cpp:425] inception_4b/3x3 <- inception_4b/3x3_reduce
I0403 17:56:01.513811  6313 net.cpp:399] inception_4b/3x3 -> inception_4b/3x3
I0403 17:56:01.516907  6313 net.cpp:141] Setting up inception_4b/3x3
I0403 17:56:01.516940  6313 net.cpp:148] Top shape: 24 224 14 14 (1053696)
I0403 17:56:01.516958  6313 net.cpp:156] Memory required for data: 960654624
I0403 17:56:01.516978  6313 layer_factory.hpp:77] Creating layer inception_4b/relu_3x3
I0403 17:56:01.516999  6313 net.cpp:91] Creating Layer inception_4b/relu_3x3
I0403 17:56:01.517019  6313 net.cpp:425] inception_4b/relu_3x3 <- inception_4b/3x3
I0403 17:56:01.517040  6313 net.cpp:386] inception_4b/relu_3x3 -> inception_4b/3x3 (in-place)
I0403 17:56:01.517225  6313 net.cpp:141] Setting up inception_4b/relu_3x3
I0403 17:56:01.517252  6313 net.cpp:148] Top shape: 24 224 14 14 (1053696)
I0403 17:56:01.517267  6313 net.cpp:156] Memory required for data: 964869408
I0403 17:56:01.517287  6313 layer_factory.hpp:77] Creating layer inception_4b/5x5_reduce
I0403 17:56:01.517312  6313 net.cpp:91] Creating Layer inception_4b/5x5_reduce
I0403 17:56:01.517331  6313 net.cpp:425] inception_4b/5x5_reduce <- inception_4a/output_inception_4a/output_0_split_3
I0403 17:56:01.517355  6313 net.cpp:399] inception_4b/5x5_reduce -> inception_4b/5x5_reduce
I0403 17:56:01.518468  6313 net.cpp:141] Setting up inception_4b/5x5_reduce
I0403 17:56:01.518498  6313 net.cpp:148] Top shape: 24 24 14 14 (112896)
I0403 17:56:01.518517  6313 net.cpp:156] Memory required for data: 965320992
I0403 17:56:01.518537  6313 layer_factory.hpp:77] Creating layer inception_4b/relu_5x5_reduce
I0403 17:56:01.518558  6313 net.cpp:91] Creating Layer inception_4b/relu_5x5_reduce
I0403 17:56:01.518591  6313 net.cpp:425] inception_4b/relu_5x5_reduce <- inception_4b/5x5_reduce
I0403 17:56:01.518610  6313 net.cpp:386] inception_4b/relu_5x5_reduce -> inception_4b/5x5_reduce (in-place)
I0403 17:56:01.518795  6313 net.cpp:141] Setting up inception_4b/relu_5x5_reduce
I0403 17:56:01.518824  6313 net.cpp:148] Top shape: 24 24 14 14 (112896)
I0403 17:56:01.518841  6313 net.cpp:156] Memory required for data: 965772576
I0403 17:56:01.518857  6313 layer_factory.hpp:77] Creating layer inception_4b/5x5
I0403 17:56:01.518879  6313 net.cpp:91] Creating Layer inception_4b/5x5
I0403 17:56:01.518898  6313 net.cpp:425] inception_4b/5x5 <- inception_4b/5x5_reduce
I0403 17:56:01.518918  6313 net.cpp:399] inception_4b/5x5 -> inception_4b/5x5
I0403 17:56:01.520175  6313 net.cpp:141] Setting up inception_4b/5x5
I0403 17:56:01.520206  6313 net.cpp:148] Top shape: 24 64 14 14 (301056)
I0403 17:56:01.520223  6313 net.cpp:156] Memory required for data: 966976800
I0403 17:56:01.520243  6313 layer_factory.hpp:77] Creating layer inception_4b/relu_5x5
I0403 17:56:01.520264  6313 net.cpp:91] Creating Layer inception_4b/relu_5x5
I0403 17:56:01.520287  6313 net.cpp:425] inception_4b/relu_5x5 <- inception_4b/5x5
I0403 17:56:01.520306  6313 net.cpp:386] inception_4b/relu_5x5 -> inception_4b/5x5 (in-place)
I0403 17:56:01.520601  6313 net.cpp:141] Setting up inception_4b/relu_5x5
I0403 17:56:01.520629  6313 net.cpp:148] Top shape: 24 64 14 14 (301056)
I0403 17:56:01.520648  6313 net.cpp:156] Memory required for data: 968181024
I0403 17:56:01.520663  6313 layer_factory.hpp:77] Creating layer inception_4b/pool
I0403 17:56:01.520685  6313 net.cpp:91] Creating Layer inception_4b/pool
I0403 17:56:01.520704  6313 net.cpp:425] inception_4b/pool <- inception_4a/output_inception_4a/output_0_split_4
I0403 17:56:01.520725  6313 net.cpp:399] inception_4b/pool -> inception_4b/pool
I0403 17:56:01.520792  6313 net.cpp:141] Setting up inception_4b/pool
I0403 17:56:01.520817  6313 net.cpp:148] Top shape: 24 512 14 14 (2408448)
I0403 17:56:01.520833  6313 net.cpp:156] Memory required for data: 977814816
I0403 17:56:01.520848  6313 layer_factory.hpp:77] Creating layer inception_4b/pool_proj
I0403 17:56:01.520870  6313 net.cpp:91] Creating Layer inception_4b/pool_proj
I0403 17:56:01.520889  6313 net.cpp:425] inception_4b/pool_proj <- inception_4b/pool
I0403 17:56:01.520910  6313 net.cpp:399] inception_4b/pool_proj -> inception_4b/pool_proj
I0403 17:56:01.522145  6313 net.cpp:141] Setting up inception_4b/pool_proj
I0403 17:56:01.522172  6313 net.cpp:148] Top shape: 24 64 14 14 (301056)
I0403 17:56:01.522188  6313 net.cpp:156] Memory required for data: 979019040
I0403 17:56:01.522207  6313 layer_factory.hpp:77] Creating layer inception_4b/relu_pool_proj
I0403 17:56:01.522230  6313 net.cpp:91] Creating Layer inception_4b/relu_pool_proj
I0403 17:56:01.522248  6313 net.cpp:425] inception_4b/relu_pool_proj <- inception_4b/pool_proj
I0403 17:56:01.522265  6313 net.cpp:386] inception_4b/relu_pool_proj -> inception_4b/pool_proj (in-place)
I0403 17:56:01.522465  6313 net.cpp:141] Setting up inception_4b/relu_pool_proj
I0403 17:56:01.522493  6313 net.cpp:148] Top shape: 24 64 14 14 (301056)
I0403 17:56:01.522510  6313 net.cpp:156] Memory required for data: 980223264
I0403 17:56:01.522526  6313 layer_factory.hpp:77] Creating layer inception_4b/output
I0403 17:56:01.522543  6313 net.cpp:91] Creating Layer inception_4b/output
I0403 17:56:01.522559  6313 net.cpp:425] inception_4b/output <- inception_4b/1x1
I0403 17:56:01.522578  6313 net.cpp:425] inception_4b/output <- inception_4b/3x3
I0403 17:56:01.522593  6313 net.cpp:425] inception_4b/output <- inception_4b/5x5
I0403 17:56:01.522610  6313 net.cpp:425] inception_4b/output <- inception_4b/pool_proj
I0403 17:56:01.522627  6313 net.cpp:399] inception_4b/output -> inception_4b/output
I0403 17:56:01.522676  6313 net.cpp:141] Setting up inception_4b/output
I0403 17:56:01.522699  6313 net.cpp:148] Top shape: 24 512 14 14 (2408448)
I0403 17:56:01.522714  6313 net.cpp:156] Memory required for data: 989857056
I0403 17:56:01.522744  6313 layer_factory.hpp:77] Creating layer inception_4b/output_inception_4b/output_0_split
I0403 17:56:01.522763  6313 net.cpp:91] Creating Layer inception_4b/output_inception_4b/output_0_split
I0403 17:56:01.522779  6313 net.cpp:425] inception_4b/output_inception_4b/output_0_split <- inception_4b/output
I0403 17:56:01.522802  6313 net.cpp:399] inception_4b/output_inception_4b/output_0_split -> inception_4b/output_inception_4b/output_0_split_0
I0403 17:56:01.522825  6313 net.cpp:399] inception_4b/output_inception_4b/output_0_split -> inception_4b/output_inception_4b/output_0_split_1
I0403 17:56:01.522846  6313 net.cpp:399] inception_4b/output_inception_4b/output_0_split -> inception_4b/output_inception_4b/output_0_split_2
I0403 17:56:01.522871  6313 net.cpp:399] inception_4b/output_inception_4b/output_0_split -> inception_4b/output_inception_4b/output_0_split_3
I0403 17:56:01.522958  6313 net.cpp:141] Setting up inception_4b/output_inception_4b/output_0_split
I0403 17:56:01.522982  6313 net.cpp:148] Top shape: 24 512 14 14 (2408448)
I0403 17:56:01.523000  6313 net.cpp:148] Top shape: 24 512 14 14 (2408448)
I0403 17:56:01.523016  6313 net.cpp:148] Top shape: 24 512 14 14 (2408448)
I0403 17:56:01.523031  6313 net.cpp:148] Top shape: 24 512 14 14 (2408448)
I0403 17:56:01.523046  6313 net.cpp:156] Memory required for data: 1028392224
I0403 17:56:01.523061  6313 layer_factory.hpp:77] Creating layer inception_4c/1x1
I0403 17:56:01.523084  6313 net.cpp:91] Creating Layer inception_4c/1x1
I0403 17:56:01.523103  6313 net.cpp:425] inception_4c/1x1 <- inception_4b/output_inception_4b/output_0_split_0
I0403 17:56:01.523124  6313 net.cpp:399] inception_4c/1x1 -> inception_4c/1x1
I0403 17:56:01.524608  6313 net.cpp:141] Setting up inception_4c/1x1
I0403 17:56:01.524642  6313 net.cpp:148] Top shape: 24 128 14 14 (602112)
I0403 17:56:01.524660  6313 net.cpp:156] Memory required for data: 1030800672
I0403 17:56:01.524680  6313 layer_factory.hpp:77] Creating layer inception_4c/relu_1x1
I0403 17:56:01.524700  6313 net.cpp:91] Creating Layer inception_4c/relu_1x1
I0403 17:56:01.524718  6313 net.cpp:425] inception_4c/relu_1x1 <- inception_4c/1x1
I0403 17:56:01.524739  6313 net.cpp:386] inception_4c/relu_1x1 -> inception_4c/1x1 (in-place)
I0403 17:56:01.524924  6313 net.cpp:141] Setting up inception_4c/relu_1x1
I0403 17:56:01.524950  6313 net.cpp:148] Top shape: 24 128 14 14 (602112)
I0403 17:56:01.524966  6313 net.cpp:156] Memory required for data: 1033209120
I0403 17:56:01.524981  6313 layer_factory.hpp:77] Creating layer inception_4c/3x3_reduce
I0403 17:56:01.525004  6313 net.cpp:91] Creating Layer inception_4c/3x3_reduce
I0403 17:56:01.525022  6313 net.cpp:425] inception_4c/3x3_reduce <- inception_4b/output_inception_4b/output_0_split_1
I0403 17:56:01.525044  6313 net.cpp:399] inception_4c/3x3_reduce -> inception_4c/3x3_reduce
I0403 17:56:01.527032  6313 net.cpp:141] Setting up inception_4c/3x3_reduce
I0403 17:56:01.527063  6313 net.cpp:148] Top shape: 24 128 14 14 (602112)
I0403 17:56:01.527081  6313 net.cpp:156] Memory required for data: 1035617568
I0403 17:56:01.527101  6313 layer_factory.hpp:77] Creating layer inception_4c/relu_3x3_reduce
I0403 17:56:01.527122  6313 net.cpp:91] Creating Layer inception_4c/relu_3x3_reduce
I0403 17:56:01.527143  6313 net.cpp:425] inception_4c/relu_3x3_reduce <- inception_4c/3x3_reduce
I0403 17:56:01.527160  6313 net.cpp:386] inception_4c/relu_3x3_reduce -> inception_4c/3x3_reduce (in-place)
I0403 17:56:01.527457  6313 net.cpp:141] Setting up inception_4c/relu_3x3_reduce
I0403 17:56:01.527484  6313 net.cpp:148] Top shape: 24 128 14 14 (602112)
I0403 17:56:01.527499  6313 net.cpp:156] Memory required for data: 1038026016
I0403 17:56:01.527515  6313 layer_factory.hpp:77] Creating layer inception_4c/3x3
I0403 17:56:01.527539  6313 net.cpp:91] Creating Layer inception_4c/3x3
I0403 17:56:01.527557  6313 net.cpp:425] inception_4c/3x3 <- inception_4c/3x3_reduce
I0403 17:56:01.527580  6313 net.cpp:399] inception_4c/3x3 -> inception_4c/3x3
I0403 17:56:01.531361  6313 net.cpp:141] Setting up inception_4c/3x3
I0403 17:56:01.531406  6313 net.cpp:148] Top shape: 24 256 14 14 (1204224)
I0403 17:56:01.531424  6313 net.cpp:156] Memory required for data: 1042842912
I0403 17:56:01.531461  6313 layer_factory.hpp:77] Creating layer inception_4c/relu_3x3
I0403 17:56:01.531487  6313 net.cpp:91] Creating Layer inception_4c/relu_3x3
I0403 17:56:01.531505  6313 net.cpp:425] inception_4c/relu_3x3 <- inception_4c/3x3
I0403 17:56:01.531525  6313 net.cpp:386] inception_4c/relu_3x3 -> inception_4c/3x3 (in-place)
I0403 17:56:01.531720  6313 net.cpp:141] Setting up inception_4c/relu_3x3
I0403 17:56:01.531747  6313 net.cpp:148] Top shape: 24 256 14 14 (1204224)
I0403 17:56:01.531762  6313 net.cpp:156] Memory required for data: 1047659808
I0403 17:56:01.531779  6313 layer_factory.hpp:77] Creating layer inception_4c/5x5_reduce
I0403 17:56:01.531802  6313 net.cpp:91] Creating Layer inception_4c/5x5_reduce
I0403 17:56:01.531821  6313 net.cpp:425] inception_4c/5x5_reduce <- inception_4b/output_inception_4b/output_0_split_2
I0403 17:56:01.531846  6313 net.cpp:399] inception_4c/5x5_reduce -> inception_4c/5x5_reduce
I0403 17:56:01.533010  6313 net.cpp:141] Setting up inception_4c/5x5_reduce
I0403 17:56:01.533041  6313 net.cpp:148] Top shape: 24 24 14 14 (112896)
I0403 17:56:01.533057  6313 net.cpp:156] Memory required for data: 1048111392
I0403 17:56:01.533077  6313 layer_factory.hpp:77] Creating layer inception_4c/relu_5x5_reduce
I0403 17:56:01.533098  6313 net.cpp:91] Creating Layer inception_4c/relu_5x5_reduce
I0403 17:56:01.533116  6313 net.cpp:425] inception_4c/relu_5x5_reduce <- inception_4c/5x5_reduce
I0403 17:56:01.533135  6313 net.cpp:386] inception_4c/relu_5x5_reduce -> inception_4c/5x5_reduce (in-place)
I0403 17:56:01.533340  6313 net.cpp:141] Setting up inception_4c/relu_5x5_reduce
I0403 17:56:01.533370  6313 net.cpp:148] Top shape: 24 24 14 14 (112896)
I0403 17:56:01.533387  6313 net.cpp:156] Memory required for data: 1048562976
I0403 17:56:01.533403  6313 layer_factory.hpp:77] Creating layer inception_4c/5x5
I0403 17:56:01.533427  6313 net.cpp:91] Creating Layer inception_4c/5x5
I0403 17:56:01.533445  6313 net.cpp:425] inception_4c/5x5 <- inception_4c/5x5_reduce
I0403 17:56:01.533465  6313 net.cpp:399] inception_4c/5x5 -> inception_4c/5x5
I0403 17:56:01.534787  6313 net.cpp:141] Setting up inception_4c/5x5
I0403 17:56:01.534821  6313 net.cpp:148] Top shape: 24 64 14 14 (301056)
I0403 17:56:01.534838  6313 net.cpp:156] Memory required for data: 1049767200
I0403 17:56:01.534859  6313 layer_factory.hpp:77] Creating layer inception_4c/relu_5x5
I0403 17:56:01.534879  6313 net.cpp:91] Creating Layer inception_4c/relu_5x5
I0403 17:56:01.534898  6313 net.cpp:425] inception_4c/relu_5x5 <- inception_4c/5x5
I0403 17:56:01.534919  6313 net.cpp:386] inception_4c/relu_5x5 -> inception_4c/5x5 (in-place)
I0403 17:56:01.535225  6313 net.cpp:141] Setting up inception_4c/relu_5x5
I0403 17:56:01.535257  6313 net.cpp:148] Top shape: 24 64 14 14 (301056)
I0403 17:56:01.535279  6313 net.cpp:156] Memory required for data: 1050971424
I0403 17:56:01.535297  6313 layer_factory.hpp:77] Creating layer inception_4c/pool
I0403 17:56:01.535317  6313 net.cpp:91] Creating Layer inception_4c/pool
I0403 17:56:01.535336  6313 net.cpp:425] inception_4c/pool <- inception_4b/output_inception_4b/output_0_split_3
I0403 17:56:01.535357  6313 net.cpp:399] inception_4c/pool -> inception_4c/pool
I0403 17:56:01.535428  6313 net.cpp:141] Setting up inception_4c/pool
I0403 17:56:01.535454  6313 net.cpp:148] Top shape: 24 512 14 14 (2408448)
I0403 17:56:01.535470  6313 net.cpp:156] Memory required for data: 1060605216
I0403 17:56:01.535486  6313 layer_factory.hpp:77] Creating layer inception_4c/pool_proj
I0403 17:56:01.535511  6313 net.cpp:91] Creating Layer inception_4c/pool_proj
I0403 17:56:01.535528  6313 net.cpp:425] inception_4c/pool_proj <- inception_4c/pool
I0403 17:56:01.535552  6313 net.cpp:399] inception_4c/pool_proj -> inception_4c/pool_proj
I0403 17:56:01.536844  6313 net.cpp:141] Setting up inception_4c/pool_proj
I0403 17:56:01.536875  6313 net.cpp:148] Top shape: 24 64 14 14 (301056)
I0403 17:56:01.536907  6313 net.cpp:156] Memory required for data: 1061809440
I0403 17:56:01.536929  6313 layer_factory.hpp:77] Creating layer inception_4c/relu_pool_proj
I0403 17:56:01.536953  6313 net.cpp:91] Creating Layer inception_4c/relu_pool_proj
I0403 17:56:01.536972  6313 net.cpp:425] inception_4c/relu_pool_proj <- inception_4c/pool_proj
I0403 17:56:01.536993  6313 net.cpp:386] inception_4c/relu_pool_proj -> inception_4c/pool_proj (in-place)
I0403 17:56:01.537189  6313 net.cpp:141] Setting up inception_4c/relu_pool_proj
I0403 17:56:01.537217  6313 net.cpp:148] Top shape: 24 64 14 14 (301056)
I0403 17:56:01.537233  6313 net.cpp:156] Memory required for data: 1063013664
I0403 17:56:01.537250  6313 layer_factory.hpp:77] Creating layer inception_4c/output
I0403 17:56:01.537274  6313 net.cpp:91] Creating Layer inception_4c/output
I0403 17:56:01.537294  6313 net.cpp:425] inception_4c/output <- inception_4c/1x1
I0403 17:56:01.537313  6313 net.cpp:425] inception_4c/output <- inception_4c/3x3
I0403 17:56:01.537331  6313 net.cpp:425] inception_4c/output <- inception_4c/5x5
I0403 17:56:01.537348  6313 net.cpp:425] inception_4c/output <- inception_4c/pool_proj
I0403 17:56:01.537365  6313 net.cpp:399] inception_4c/output -> inception_4c/output
I0403 17:56:01.537417  6313 net.cpp:141] Setting up inception_4c/output
I0403 17:56:01.537442  6313 net.cpp:148] Top shape: 24 512 14 14 (2408448)
I0403 17:56:01.537457  6313 net.cpp:156] Memory required for data: 1072647456
I0403 17:56:01.537474  6313 layer_factory.hpp:77] Creating layer inception_4c/output_inception_4c/output_0_split
I0403 17:56:01.537493  6313 net.cpp:91] Creating Layer inception_4c/output_inception_4c/output_0_split
I0403 17:56:01.537509  6313 net.cpp:425] inception_4c/output_inception_4c/output_0_split <- inception_4c/output
I0403 17:56:01.537530  6313 net.cpp:399] inception_4c/output_inception_4c/output_0_split -> inception_4c/output_inception_4c/output_0_split_0
I0403 17:56:01.537552  6313 net.cpp:399] inception_4c/output_inception_4c/output_0_split -> inception_4c/output_inception_4c/output_0_split_1
I0403 17:56:01.537575  6313 net.cpp:399] inception_4c/output_inception_4c/output_0_split -> inception_4c/output_inception_4c/output_0_split_2
I0403 17:56:01.537595  6313 net.cpp:399] inception_4c/output_inception_4c/output_0_split -> inception_4c/output_inception_4c/output_0_split_3
I0403 17:56:01.537691  6313 net.cpp:141] Setting up inception_4c/output_inception_4c/output_0_split
I0403 17:56:01.537716  6313 net.cpp:148] Top shape: 24 512 14 14 (2408448)
I0403 17:56:01.537734  6313 net.cpp:148] Top shape: 24 512 14 14 (2408448)
I0403 17:56:01.537750  6313 net.cpp:148] Top shape: 24 512 14 14 (2408448)
I0403 17:56:01.537766  6313 net.cpp:148] Top shape: 24 512 14 14 (2408448)
I0403 17:56:01.537781  6313 net.cpp:156] Memory required for data: 1111182624
I0403 17:56:01.537796  6313 layer_factory.hpp:77] Creating layer inception_4d/1x1
I0403 17:56:01.537820  6313 net.cpp:91] Creating Layer inception_4d/1x1
I0403 17:56:01.537839  6313 net.cpp:425] inception_4d/1x1 <- inception_4c/output_inception_4c/output_0_split_0
I0403 17:56:01.537863  6313 net.cpp:399] inception_4d/1x1 -> inception_4d/1x1
I0403 17:56:01.539330  6313 net.cpp:141] Setting up inception_4d/1x1
I0403 17:56:01.539362  6313 net.cpp:148] Top shape: 24 112 14 14 (526848)
I0403 17:56:01.539382  6313 net.cpp:156] Memory required for data: 1113290016
I0403 17:56:01.539402  6313 layer_factory.hpp:77] Creating layer inception_4d/relu_1x1
I0403 17:56:01.539422  6313 net.cpp:91] Creating Layer inception_4d/relu_1x1
I0403 17:56:01.539439  6313 net.cpp:425] inception_4d/relu_1x1 <- inception_4d/1x1
I0403 17:56:01.539463  6313 net.cpp:386] inception_4d/relu_1x1 -> inception_4d/1x1 (in-place)
I0403 17:56:01.539659  6313 net.cpp:141] Setting up inception_4d/relu_1x1
I0403 17:56:01.539687  6313 net.cpp:148] Top shape: 24 112 14 14 (526848)
I0403 17:56:01.539703  6313 net.cpp:156] Memory required for data: 1115397408
I0403 17:56:01.539721  6313 layer_factory.hpp:77] Creating layer inception_4d/3x3_reduce
I0403 17:56:01.539760  6313 net.cpp:91] Creating Layer inception_4d/3x3_reduce
I0403 17:56:01.539783  6313 net.cpp:425] inception_4d/3x3_reduce <- inception_4c/output_inception_4c/output_0_split_1
I0403 17:56:01.539805  6313 net.cpp:399] inception_4d/3x3_reduce -> inception_4d/3x3_reduce
I0403 17:56:01.541415  6313 net.cpp:141] Setting up inception_4d/3x3_reduce
I0403 17:56:01.541450  6313 net.cpp:148] Top shape: 24 144 14 14 (677376)
I0403 17:56:01.541471  6313 net.cpp:156] Memory required for data: 1118106912
I0403 17:56:01.541492  6313 layer_factory.hpp:77] Creating layer inception_4d/relu_3x3_reduce
I0403 17:56:01.541512  6313 net.cpp:91] Creating Layer inception_4d/relu_3x3_reduce
I0403 17:56:01.541529  6313 net.cpp:425] inception_4d/relu_3x3_reduce <- inception_4d/3x3_reduce
I0403 17:56:01.541548  6313 net.cpp:386] inception_4d/relu_3x3_reduce -> inception_4d/3x3_reduce (in-place)
I0403 17:56:01.541854  6313 net.cpp:141] Setting up inception_4d/relu_3x3_reduce
I0403 17:56:01.541885  6313 net.cpp:148] Top shape: 24 144 14 14 (677376)
I0403 17:56:01.541904  6313 net.cpp:156] Memory required for data: 1120816416
I0403 17:56:01.541920  6313 layer_factory.hpp:77] Creating layer inception_4d/3x3
I0403 17:56:01.541944  6313 net.cpp:91] Creating Layer inception_4d/3x3
I0403 17:56:01.541965  6313 net.cpp:425] inception_4d/3x3 <- inception_4d/3x3_reduce
I0403 17:56:01.541985  6313 net.cpp:399] inception_4d/3x3 -> inception_4d/3x3
I0403 17:56:01.546521  6313 net.cpp:141] Setting up inception_4d/3x3
I0403 17:56:01.546555  6313 net.cpp:148] Top shape: 24 288 14 14 (1354752)
I0403 17:56:01.546572  6313 net.cpp:156] Memory required for data: 1126235424
I0403 17:56:01.546593  6313 layer_factory.hpp:77] Creating layer inception_4d/relu_3x3
I0403 17:56:01.546614  6313 net.cpp:91] Creating Layer inception_4d/relu_3x3
I0403 17:56:01.546633  6313 net.cpp:425] inception_4d/relu_3x3 <- inception_4d/3x3
I0403 17:56:01.546655  6313 net.cpp:386] inception_4d/relu_3x3 -> inception_4d/3x3 (in-place)
I0403 17:56:01.546851  6313 net.cpp:141] Setting up inception_4d/relu_3x3
I0403 17:56:01.546880  6313 net.cpp:148] Top shape: 24 288 14 14 (1354752)
I0403 17:56:01.546895  6313 net.cpp:156] Memory required for data: 1131654432
I0403 17:56:01.546912  6313 layer_factory.hpp:77] Creating layer inception_4d/5x5_reduce
I0403 17:56:01.546936  6313 net.cpp:91] Creating Layer inception_4d/5x5_reduce
I0403 17:56:01.546955  6313 net.cpp:425] inception_4d/5x5_reduce <- inception_4c/output_inception_4c/output_0_split_2
I0403 17:56:01.546982  6313 net.cpp:399] inception_4d/5x5_reduce -> inception_4d/5x5_reduce
I0403 17:56:01.548205  6313 net.cpp:141] Setting up inception_4d/5x5_reduce
I0403 17:56:01.548236  6313 net.cpp:148] Top shape: 24 32 14 14 (150528)
I0403 17:56:01.548254  6313 net.cpp:156] Memory required for data: 1132256544
I0403 17:56:01.548279  6313 layer_factory.hpp:77] Creating layer inception_4d/relu_5x5_reduce
I0403 17:56:01.548300  6313 net.cpp:91] Creating Layer inception_4d/relu_5x5_reduce
I0403 17:56:01.548321  6313 net.cpp:425] inception_4d/relu_5x5_reduce <- inception_4d/5x5_reduce
I0403 17:56:01.548341  6313 net.cpp:386] inception_4d/relu_5x5_reduce -> inception_4d/5x5_reduce (in-place)
I0403 17:56:01.548539  6313 net.cpp:141] Setting up inception_4d/relu_5x5_reduce
I0403 17:56:01.548566  6313 net.cpp:148] Top shape: 24 32 14 14 (150528)
I0403 17:56:01.548583  6313 net.cpp:156] Memory required for data: 1132858656
I0403 17:56:01.548599  6313 layer_factory.hpp:77] Creating layer inception_4d/5x5
I0403 17:56:01.548621  6313 net.cpp:91] Creating Layer inception_4d/5x5
I0403 17:56:01.548640  6313 net.cpp:425] inception_4d/5x5 <- inception_4d/5x5_reduce
I0403 17:56:01.548663  6313 net.cpp:399] inception_4d/5x5 -> inception_4d/5x5
I0403 17:56:01.550230  6313 net.cpp:141] Setting up inception_4d/5x5
I0403 17:56:01.550261  6313 net.cpp:148] Top shape: 24 64 14 14 (301056)
I0403 17:56:01.550284  6313 net.cpp:156] Memory required for data: 1134062880
I0403 17:56:01.550307  6313 layer_factory.hpp:77] Creating layer inception_4d/relu_5x5
I0403 17:56:01.550348  6313 net.cpp:91] Creating Layer inception_4d/relu_5x5
I0403 17:56:01.550369  6313 net.cpp:425] inception_4d/relu_5x5 <- inception_4d/5x5
I0403 17:56:01.550390  6313 net.cpp:386] inception_4d/relu_5x5 -> inception_4d/5x5 (in-place)
I0403 17:56:01.550706  6313 net.cpp:141] Setting up inception_4d/relu_5x5
I0403 17:56:01.550735  6313 net.cpp:148] Top shape: 24 64 14 14 (301056)
I0403 17:56:01.550752  6313 net.cpp:156] Memory required for data: 1135267104
I0403 17:56:01.550770  6313 layer_factory.hpp:77] Creating layer inception_4d/pool
I0403 17:56:01.550791  6313 net.cpp:91] Creating Layer inception_4d/pool
I0403 17:56:01.550811  6313 net.cpp:425] inception_4d/pool <- inception_4c/output_inception_4c/output_0_split_3
I0403 17:56:01.550830  6313 net.cpp:399] inception_4d/pool -> inception_4d/pool
I0403 17:56:01.550905  6313 net.cpp:141] Setting up inception_4d/pool
I0403 17:56:01.550931  6313 net.cpp:148] Top shape: 24 512 14 14 (2408448)
I0403 17:56:01.550947  6313 net.cpp:156] Memory required for data: 1144900896
I0403 17:56:01.550963  6313 layer_factory.hpp:77] Creating layer inception_4d/pool_proj
I0403 17:56:01.550987  6313 net.cpp:91] Creating Layer inception_4d/pool_proj
I0403 17:56:01.551007  6313 net.cpp:425] inception_4d/pool_proj <- inception_4d/pool
I0403 17:56:01.551028  6313 net.cpp:399] inception_4d/pool_proj -> inception_4d/pool_proj
I0403 17:56:01.552896  6313 net.cpp:141] Setting up inception_4d/pool_proj
I0403 17:56:01.552927  6313 net.cpp:148] Top shape: 24 64 14 14 (301056)
I0403 17:56:01.552945  6313 net.cpp:156] Memory required for data: 1146105120
I0403 17:56:01.552965  6313 layer_factory.hpp:77] Creating layer inception_4d/relu_pool_proj
I0403 17:56:01.552985  6313 net.cpp:91] Creating Layer inception_4d/relu_pool_proj
I0403 17:56:01.553004  6313 net.cpp:425] inception_4d/relu_pool_proj <- inception_4d/pool_proj
I0403 17:56:01.553025  6313 net.cpp:386] inception_4d/relu_pool_proj -> inception_4d/pool_proj (in-place)
I0403 17:56:01.553222  6313 net.cpp:141] Setting up inception_4d/relu_pool_proj
I0403 17:56:01.553251  6313 net.cpp:148] Top shape: 24 64 14 14 (301056)
I0403 17:56:01.553268  6313 net.cpp:156] Memory required for data: 1147309344
I0403 17:56:01.553298  6313 layer_factory.hpp:77] Creating layer inception_4d/output
I0403 17:56:01.553320  6313 net.cpp:91] Creating Layer inception_4d/output
I0403 17:56:01.553339  6313 net.cpp:425] inception_4d/output <- inception_4d/1x1
I0403 17:56:01.553357  6313 net.cpp:425] inception_4d/output <- inception_4d/3x3
I0403 17:56:01.553375  6313 net.cpp:425] inception_4d/output <- inception_4d/5x5
I0403 17:56:01.553392  6313 net.cpp:425] inception_4d/output <- inception_4d/pool_proj
I0403 17:56:01.553411  6313 net.cpp:399] inception_4d/output -> inception_4d/output
I0403 17:56:01.553463  6313 net.cpp:141] Setting up inception_4d/output
I0403 17:56:01.553488  6313 net.cpp:148] Top shape: 24 528 14 14 (2483712)
I0403 17:56:01.553504  6313 net.cpp:156] Memory required for data: 1157244192
I0403 17:56:01.553519  6313 layer_factory.hpp:77] Creating layer inception_4d/output_inception_4d/output_0_split
I0403 17:56:01.553539  6313 net.cpp:91] Creating Layer inception_4d/output_inception_4d/output_0_split
I0403 17:56:01.553555  6313 net.cpp:425] inception_4d/output_inception_4d/output_0_split <- inception_4d/output
I0403 17:56:01.553576  6313 net.cpp:399] inception_4d/output_inception_4d/output_0_split -> inception_4d/output_inception_4d/output_0_split_0
I0403 17:56:01.553599  6313 net.cpp:399] inception_4d/output_inception_4d/output_0_split -> inception_4d/output_inception_4d/output_0_split_1
I0403 17:56:01.553622  6313 net.cpp:399] inception_4d/output_inception_4d/output_0_split -> inception_4d/output_inception_4d/output_0_split_2
I0403 17:56:01.553643  6313 net.cpp:399] inception_4d/output_inception_4d/output_0_split -> inception_4d/output_inception_4d/output_0_split_3
I0403 17:56:01.553664  6313 net.cpp:399] inception_4d/output_inception_4d/output_0_split -> inception_4d/output_inception_4d/output_0_split_4
I0403 17:56:01.553773  6313 net.cpp:141] Setting up inception_4d/output_inception_4d/output_0_split
I0403 17:56:01.553812  6313 net.cpp:148] Top shape: 24 528 14 14 (2483712)
I0403 17:56:01.553833  6313 net.cpp:148] Top shape: 24 528 14 14 (2483712)
I0403 17:56:01.553849  6313 net.cpp:148] Top shape: 24 528 14 14 (2483712)
I0403 17:56:01.553866  6313 net.cpp:148] Top shape: 24 528 14 14 (2483712)
I0403 17:56:01.553882  6313 net.cpp:148] Top shape: 24 528 14 14 (2483712)
I0403 17:56:01.553897  6313 net.cpp:156] Memory required for data: 1206918432
I0403 17:56:01.553913  6313 layer_factory.hpp:77] Creating layer loss2/ave_pool
I0403 17:56:01.553931  6313 net.cpp:91] Creating Layer loss2/ave_pool
I0403 17:56:01.553948  6313 net.cpp:425] loss2/ave_pool <- inception_4d/output_inception_4d/output_0_split_0
I0403 17:56:01.553971  6313 net.cpp:399] loss2/ave_pool -> loss2/ave_pool
I0403 17:56:01.554313  6313 net.cpp:141] Setting up loss2/ave_pool
I0403 17:56:01.554342  6313 net.cpp:148] Top shape: 24 528 4 4 (202752)
I0403 17:56:01.554358  6313 net.cpp:156] Memory required for data: 1207729440
I0403 17:56:01.554375  6313 layer_factory.hpp:77] Creating layer loss2/conv
I0403 17:56:01.554399  6313 net.cpp:91] Creating Layer loss2/conv
I0403 17:56:01.554417  6313 net.cpp:425] loss2/conv <- loss2/ave_pool
I0403 17:56:01.554440  6313 net.cpp:399] loss2/conv -> loss2/conv
I0403 17:56:01.556452  6313 net.cpp:141] Setting up loss2/conv
I0403 17:56:01.556485  6313 net.cpp:148] Top shape: 24 128 4 4 (49152)
I0403 17:56:01.556504  6313 net.cpp:156] Memory required for data: 1207926048
I0403 17:56:01.556524  6313 layer_factory.hpp:77] Creating layer loss2/relu_conv
I0403 17:56:01.556547  6313 net.cpp:91] Creating Layer loss2/relu_conv
I0403 17:56:01.556566  6313 net.cpp:425] loss2/relu_conv <- loss2/conv
I0403 17:56:01.556584  6313 net.cpp:386] loss2/relu_conv -> loss2/conv (in-place)
I0403 17:56:01.556886  6313 net.cpp:141] Setting up loss2/relu_conv
I0403 17:56:01.556915  6313 net.cpp:148] Top shape: 24 128 4 4 (49152)
I0403 17:56:01.556931  6313 net.cpp:156] Memory required for data: 1208122656
I0403 17:56:01.556947  6313 layer_factory.hpp:77] Creating layer loss2/fc
I0403 17:56:01.556970  6313 net.cpp:91] Creating Layer loss2/fc
I0403 17:56:01.556988  6313 net.cpp:425] loss2/fc <- loss2/conv
I0403 17:56:01.557011  6313 net.cpp:399] loss2/fc -> loss2/fc
I0403 17:56:01.575829  6313 net.cpp:141] Setting up loss2/fc
I0403 17:56:01.575866  6313 net.cpp:148] Top shape: 24 1024 (24576)
I0403 17:56:01.575884  6313 net.cpp:156] Memory required for data: 1208220960
I0403 17:56:01.575906  6313 layer_factory.hpp:77] Creating layer loss2/relu_fc
I0403 17:56:01.575927  6313 net.cpp:91] Creating Layer loss2/relu_fc
I0403 17:56:01.575948  6313 net.cpp:425] loss2/relu_fc <- loss2/fc
I0403 17:56:01.575968  6313 net.cpp:386] loss2/relu_fc -> loss2/fc (in-place)
I0403 17:56:01.576318  6313 net.cpp:141] Setting up loss2/relu_fc
I0403 17:56:01.576346  6313 net.cpp:148] Top shape: 24 1024 (24576)
I0403 17:56:01.576364  6313 net.cpp:156] Memory required for data: 1208319264
I0403 17:56:01.576380  6313 layer_factory.hpp:77] Creating layer loss2/drop_fc
I0403 17:56:01.576400  6313 net.cpp:91] Creating Layer loss2/drop_fc
I0403 17:56:01.576418  6313 net.cpp:425] loss2/drop_fc <- loss2/fc
I0403 17:56:01.576436  6313 net.cpp:386] loss2/drop_fc -> loss2/fc (in-place)
I0403 17:56:01.576488  6313 net.cpp:141] Setting up loss2/drop_fc
I0403 17:56:01.576514  6313 net.cpp:148] Top shape: 24 1024 (24576)
I0403 17:56:01.576530  6313 net.cpp:156] Memory required for data: 1208417568
I0403 17:56:01.576545  6313 layer_factory.hpp:77] Creating layer loss2/classifier_plantvillage
I0403 17:56:01.576565  6313 net.cpp:91] Creating Layer loss2/classifier_plantvillage
I0403 17:56:01.576581  6313 net.cpp:425] loss2/classifier_plantvillage <- loss2/fc
I0403 17:56:01.576601  6313 net.cpp:399] loss2/classifier_plantvillage -> loss2/classifier_plantvillage
I0403 17:56:01.577023  6313 net.cpp:141] Setting up loss2/classifier_plantvillage
I0403 17:56:01.577052  6313 net.cpp:148] Top shape: 24 38 (912)
I0403 17:56:01.577092  6313 net.cpp:156] Memory required for data: 1208421216
I0403 17:56:01.577112  6313 layer_factory.hpp:77] Creating layer loss2/classifier_plantvillage_loss2/classifier_plantvillage_0_split
I0403 17:56:01.577131  6313 net.cpp:91] Creating Layer loss2/classifier_plantvillage_loss2/classifier_plantvillage_0_split
I0403 17:56:01.577147  6313 net.cpp:425] loss2/classifier_plantvillage_loss2/classifier_plantvillage_0_split <- loss2/classifier_plantvillage
I0403 17:56:01.577165  6313 net.cpp:399] loss2/classifier_plantvillage_loss2/classifier_plantvillage_0_split -> loss2/classifier_plantvillage_loss2/classifier_plantvillage_0_split_0
I0403 17:56:01.577185  6313 net.cpp:399] loss2/classifier_plantvillage_loss2/classifier_plantvillage_0_split -> loss2/classifier_plantvillage_loss2/classifier_plantvillage_0_split_1
I0403 17:56:01.577210  6313 net.cpp:399] loss2/classifier_plantvillage_loss2/classifier_plantvillage_0_split -> loss2/classifier_plantvillage_loss2/classifier_plantvillage_0_split_2
I0403 17:56:01.577296  6313 net.cpp:141] Setting up loss2/classifier_plantvillage_loss2/classifier_plantvillage_0_split
I0403 17:56:01.577322  6313 net.cpp:148] Top shape: 24 38 (912)
I0403 17:56:01.577338  6313 net.cpp:148] Top shape: 24 38 (912)
I0403 17:56:01.577354  6313 net.cpp:148] Top shape: 24 38 (912)
I0403 17:56:01.577368  6313 net.cpp:156] Memory required for data: 1208432160
I0403 17:56:01.577383  6313 layer_factory.hpp:77] Creating layer inception_4e/1x1
I0403 17:56:01.577407  6313 net.cpp:91] Creating Layer inception_4e/1x1
I0403 17:56:01.577426  6313 net.cpp:425] inception_4e/1x1 <- inception_4d/output_inception_4d/output_0_split_1
I0403 17:56:01.577448  6313 net.cpp:399] inception_4e/1x1 -> inception_4e/1x1
I0403 17:56:01.579365  6313 net.cpp:141] Setting up inception_4e/1x1
I0403 17:56:01.579394  6313 net.cpp:148] Top shape: 24 256 14 14 (1204224)
I0403 17:56:01.579411  6313 net.cpp:156] Memory required for data: 1213249056
I0403 17:56:01.579432  6313 layer_factory.hpp:77] Creating layer inception_4e/relu_1x1
I0403 17:56:01.579452  6313 net.cpp:91] Creating Layer inception_4e/relu_1x1
I0403 17:56:01.579470  6313 net.cpp:425] inception_4e/relu_1x1 <- inception_4e/1x1
I0403 17:56:01.579488  6313 net.cpp:386] inception_4e/relu_1x1 -> inception_4e/1x1 (in-place)
I0403 17:56:01.579795  6313 net.cpp:141] Setting up inception_4e/relu_1x1
I0403 17:56:01.579823  6313 net.cpp:148] Top shape: 24 256 14 14 (1204224)
I0403 17:56:01.579838  6313 net.cpp:156] Memory required for data: 1218065952
I0403 17:56:01.579854  6313 layer_factory.hpp:77] Creating layer inception_4e/3x3_reduce
I0403 17:56:01.579879  6313 net.cpp:91] Creating Layer inception_4e/3x3_reduce
I0403 17:56:01.579896  6313 net.cpp:425] inception_4e/3x3_reduce <- inception_4d/output_inception_4d/output_0_split_2
I0403 17:56:01.579916  6313 net.cpp:399] inception_4e/3x3_reduce -> inception_4e/3x3_reduce
I0403 17:56:01.582106  6313 net.cpp:141] Setting up inception_4e/3x3_reduce
I0403 17:56:01.582139  6313 net.cpp:148] Top shape: 24 160 14 14 (752640)
I0403 17:56:01.582156  6313 net.cpp:156] Memory required for data: 1221076512
I0403 17:56:01.582175  6313 layer_factory.hpp:77] Creating layer inception_4e/relu_3x3_reduce
I0403 17:56:01.582197  6313 net.cpp:91] Creating Layer inception_4e/relu_3x3_reduce
I0403 17:56:01.582216  6313 net.cpp:425] inception_4e/relu_3x3_reduce <- inception_4e/3x3_reduce
I0403 17:56:01.582234  6313 net.cpp:386] inception_4e/relu_3x3_reduce -> inception_4e/3x3_reduce (in-place)
I0403 17:56:01.582433  6313 net.cpp:141] Setting up inception_4e/relu_3x3_reduce
I0403 17:56:01.582463  6313 net.cpp:148] Top shape: 24 160 14 14 (752640)
I0403 17:56:01.582480  6313 net.cpp:156] Memory required for data: 1224087072
I0403 17:56:01.582495  6313 layer_factory.hpp:77] Creating layer inception_4e/3x3
I0403 17:56:01.582517  6313 net.cpp:91] Creating Layer inception_4e/3x3
I0403 17:56:01.582535  6313 net.cpp:425] inception_4e/3x3 <- inception_4e/3x3_reduce
I0403 17:56:01.582556  6313 net.cpp:399] inception_4e/3x3 -> inception_4e/3x3
I0403 17:56:01.587726  6313 net.cpp:141] Setting up inception_4e/3x3
I0403 17:56:01.587771  6313 net.cpp:148] Top shape: 24 320 14 14 (1505280)
I0403 17:56:01.587791  6313 net.cpp:156] Memory required for data: 1230108192
I0403 17:56:01.587811  6313 layer_factory.hpp:77] Creating layer inception_4e/relu_3x3
I0403 17:56:01.587831  6313 net.cpp:91] Creating Layer inception_4e/relu_3x3
I0403 17:56:01.587848  6313 net.cpp:425] inception_4e/relu_3x3 <- inception_4e/3x3
I0403 17:56:01.587874  6313 net.cpp:386] inception_4e/relu_3x3 -> inception_4e/3x3 (in-place)
I0403 17:56:01.588186  6313 net.cpp:141] Setting up inception_4e/relu_3x3
I0403 17:56:01.588215  6313 net.cpp:148] Top shape: 24 320 14 14 (1505280)
I0403 17:56:01.588232  6313 net.cpp:156] Memory required for data: 1236129312
I0403 17:56:01.588248  6313 layer_factory.hpp:77] Creating layer inception_4e/5x5_reduce
I0403 17:56:01.588276  6313 net.cpp:91] Creating Layer inception_4e/5x5_reduce
I0403 17:56:01.588296  6313 net.cpp:425] inception_4e/5x5_reduce <- inception_4d/output_inception_4d/output_0_split_3
I0403 17:56:01.588320  6313 net.cpp:399] inception_4e/5x5_reduce -> inception_4e/5x5_reduce
I0403 17:56:01.589427  6313 net.cpp:141] Setting up inception_4e/5x5_reduce
I0403 17:56:01.589457  6313 net.cpp:148] Top shape: 24 32 14 14 (150528)
I0403 17:56:01.589473  6313 net.cpp:156] Memory required for data: 1236731424
I0403 17:56:01.589493  6313 layer_factory.hpp:77] Creating layer inception_4e/relu_5x5_reduce
I0403 17:56:01.589514  6313 net.cpp:91] Creating Layer inception_4e/relu_5x5_reduce
I0403 17:56:01.589531  6313 net.cpp:425] inception_4e/relu_5x5_reduce <- inception_4e/5x5_reduce
I0403 17:56:01.589550  6313 net.cpp:386] inception_4e/relu_5x5_reduce -> inception_4e/5x5_reduce (in-place)
I0403 17:56:01.589859  6313 net.cpp:141] Setting up inception_4e/relu_5x5_reduce
I0403 17:56:01.589886  6313 net.cpp:148] Top shape: 24 32 14 14 (150528)
I0403 17:56:01.589902  6313 net.cpp:156] Memory required for data: 1237333536
I0403 17:56:01.589917  6313 layer_factory.hpp:77] Creating layer inception_4e/5x5
I0403 17:56:01.589958  6313 net.cpp:91] Creating Layer inception_4e/5x5
I0403 17:56:01.589980  6313 net.cpp:425] inception_4e/5x5 <- inception_4e/5x5_reduce
I0403 17:56:01.590000  6313 net.cpp:399] inception_4e/5x5 -> inception_4e/5x5
I0403 17:56:01.591971  6313 net.cpp:141] Setting up inception_4e/5x5
I0403 17:56:01.592002  6313 net.cpp:148] Top shape: 24 128 14 14 (602112)
I0403 17:56:01.592020  6313 net.cpp:156] Memory required for data: 1239741984
I0403 17:56:01.592041  6313 layer_factory.hpp:77] Creating layer inception_4e/relu_5x5
I0403 17:56:01.592064  6313 net.cpp:91] Creating Layer inception_4e/relu_5x5
I0403 17:56:01.592082  6313 net.cpp:425] inception_4e/relu_5x5 <- inception_4e/5x5
I0403 17:56:01.592100  6313 net.cpp:386] inception_4e/relu_5x5 -> inception_4e/5x5 (in-place)
I0403 17:56:01.592317  6313 net.cpp:141] Setting up inception_4e/relu_5x5
I0403 17:56:01.592345  6313 net.cpp:148] Top shape: 24 128 14 14 (602112)
I0403 17:56:01.592363  6313 net.cpp:156] Memory required for data: 1242150432
I0403 17:56:01.592381  6313 layer_factory.hpp:77] Creating layer inception_4e/pool
I0403 17:56:01.592401  6313 net.cpp:91] Creating Layer inception_4e/pool
I0403 17:56:01.592417  6313 net.cpp:425] inception_4e/pool <- inception_4d/output_inception_4d/output_0_split_4
I0403 17:56:01.592437  6313 net.cpp:399] inception_4e/pool -> inception_4e/pool
I0403 17:56:01.592512  6313 net.cpp:141] Setting up inception_4e/pool
I0403 17:56:01.592537  6313 net.cpp:148] Top shape: 24 528 14 14 (2483712)
I0403 17:56:01.592555  6313 net.cpp:156] Memory required for data: 1252085280
I0403 17:56:01.592571  6313 layer_factory.hpp:77] Creating layer inception_4e/pool_proj
I0403 17:56:01.592594  6313 net.cpp:91] Creating Layer inception_4e/pool_proj
I0403 17:56:01.592612  6313 net.cpp:425] inception_4e/pool_proj <- inception_4e/pool
I0403 17:56:01.592634  6313 net.cpp:399] inception_4e/pool_proj -> inception_4e/pool_proj
I0403 17:56:01.594259  6313 net.cpp:141] Setting up inception_4e/pool_proj
I0403 17:56:01.594306  6313 net.cpp:148] Top shape: 24 128 14 14 (602112)
I0403 17:56:01.594326  6313 net.cpp:156] Memory required for data: 1254493728
I0403 17:56:01.594347  6313 layer_factory.hpp:77] Creating layer inception_4e/relu_pool_proj
I0403 17:56:01.594367  6313 net.cpp:91] Creating Layer inception_4e/relu_pool_proj
I0403 17:56:01.594385  6313 net.cpp:425] inception_4e/relu_pool_proj <- inception_4e/pool_proj
I0403 17:56:01.594406  6313 net.cpp:386] inception_4e/relu_pool_proj -> inception_4e/pool_proj (in-place)
I0403 17:56:01.594722  6313 net.cpp:141] Setting up inception_4e/relu_pool_proj
I0403 17:56:01.594750  6313 net.cpp:148] Top shape: 24 128 14 14 (602112)
I0403 17:56:01.594769  6313 net.cpp:156] Memory required for data: 1256902176
I0403 17:56:01.594784  6313 layer_factory.hpp:77] Creating layer inception_4e/output
I0403 17:56:01.594804  6313 net.cpp:91] Creating Layer inception_4e/output
I0403 17:56:01.594820  6313 net.cpp:425] inception_4e/output <- inception_4e/1x1
I0403 17:56:01.594838  6313 net.cpp:425] inception_4e/output <- inception_4e/3x3
I0403 17:56:01.594856  6313 net.cpp:425] inception_4e/output <- inception_4e/5x5
I0403 17:56:01.594871  6313 net.cpp:425] inception_4e/output <- inception_4e/pool_proj
I0403 17:56:01.594892  6313 net.cpp:399] inception_4e/output -> inception_4e/output
I0403 17:56:01.594945  6313 net.cpp:141] Setting up inception_4e/output
I0403 17:56:01.594972  6313 net.cpp:148] Top shape: 24 832 14 14 (3913728)
I0403 17:56:01.594990  6313 net.cpp:156] Memory required for data: 1272557088
I0403 17:56:01.595005  6313 layer_factory.hpp:77] Creating layer pool4/3x3_s2
I0403 17:56:01.595024  6313 net.cpp:91] Creating Layer pool4/3x3_s2
I0403 17:56:01.595041  6313 net.cpp:425] pool4/3x3_s2 <- inception_4e/output
I0403 17:56:01.595062  6313 net.cpp:399] pool4/3x3_s2 -> pool4/3x3_s2
I0403 17:56:01.595134  6313 net.cpp:141] Setting up pool4/3x3_s2
I0403 17:56:01.595160  6313 net.cpp:148] Top shape: 24 832 7 7 (978432)
I0403 17:56:01.595176  6313 net.cpp:156] Memory required for data: 1276470816
I0403 17:56:01.595191  6313 layer_factory.hpp:77] Creating layer pool4/3x3_s2_pool4/3x3_s2_0_split
I0403 17:56:01.595212  6313 net.cpp:91] Creating Layer pool4/3x3_s2_pool4/3x3_s2_0_split
I0403 17:56:01.595229  6313 net.cpp:425] pool4/3x3_s2_pool4/3x3_s2_0_split <- pool4/3x3_s2
I0403 17:56:01.595248  6313 net.cpp:399] pool4/3x3_s2_pool4/3x3_s2_0_split -> pool4/3x3_s2_pool4/3x3_s2_0_split_0
I0403 17:56:01.595273  6313 net.cpp:399] pool4/3x3_s2_pool4/3x3_s2_0_split -> pool4/3x3_s2_pool4/3x3_s2_0_split_1
I0403 17:56:01.595298  6313 net.cpp:399] pool4/3x3_s2_pool4/3x3_s2_0_split -> pool4/3x3_s2_pool4/3x3_s2_0_split_2
I0403 17:56:01.595324  6313 net.cpp:399] pool4/3x3_s2_pool4/3x3_s2_0_split -> pool4/3x3_s2_pool4/3x3_s2_0_split_3
I0403 17:56:01.595423  6313 net.cpp:141] Setting up pool4/3x3_s2_pool4/3x3_s2_0_split
I0403 17:56:01.595448  6313 net.cpp:148] Top shape: 24 832 7 7 (978432)
I0403 17:56:01.595468  6313 net.cpp:148] Top shape: 24 832 7 7 (978432)
I0403 17:56:01.595484  6313 net.cpp:148] Top shape: 24 832 7 7 (978432)
I0403 17:56:01.595500  6313 net.cpp:148] Top shape: 24 832 7 7 (978432)
I0403 17:56:01.595515  6313 net.cpp:156] Memory required for data: 1292125728
I0403 17:56:01.595531  6313 layer_factory.hpp:77] Creating layer inception_5a/1x1
I0403 17:56:01.595554  6313 net.cpp:91] Creating Layer inception_5a/1x1
I0403 17:56:01.595574  6313 net.cpp:425] inception_5a/1x1 <- pool4/3x3_s2_pool4/3x3_s2_0_split_0
I0403 17:56:01.595597  6313 net.cpp:399] inception_5a/1x1 -> inception_5a/1x1
I0403 17:56:01.598645  6313 net.cpp:141] Setting up inception_5a/1x1
I0403 17:56:01.598678  6313 net.cpp:148] Top shape: 24 256 7 7 (301056)
I0403 17:56:01.598697  6313 net.cpp:156] Memory required for data: 1293329952
I0403 17:56:01.598718  6313 layer_factory.hpp:77] Creating layer inception_5a/relu_1x1
I0403 17:56:01.598742  6313 net.cpp:91] Creating Layer inception_5a/relu_1x1
I0403 17:56:01.598760  6313 net.cpp:425] inception_5a/relu_1x1 <- inception_5a/1x1
I0403 17:56:01.598779  6313 net.cpp:386] inception_5a/relu_1x1 -> inception_5a/1x1 (in-place)
I0403 17:56:01.599117  6313 net.cpp:141] Setting up inception_5a/relu_1x1
I0403 17:56:01.599145  6313 net.cpp:148] Top shape: 24 256 7 7 (301056)
I0403 17:56:01.599162  6313 net.cpp:156] Memory required for data: 1294534176
I0403 17:56:01.599179  6313 layer_factory.hpp:77] Creating layer inception_5a/3x3_reduce
I0403 17:56:01.599205  6313 net.cpp:91] Creating Layer inception_5a/3x3_reduce
I0403 17:56:01.599225  6313 net.cpp:425] inception_5a/3x3_reduce <- pool4/3x3_s2_pool4/3x3_s2_0_split_1
I0403 17:56:01.599248  6313 net.cpp:399] inception_5a/3x3_reduce -> inception_5a/3x3_reduce
I0403 17:56:01.601873  6313 net.cpp:141] Setting up inception_5a/3x3_reduce
I0403 17:56:01.601905  6313 net.cpp:148] Top shape: 24 160 7 7 (188160)
I0403 17:56:01.601922  6313 net.cpp:156] Memory required for data: 1295286816
I0403 17:56:01.601943  6313 layer_factory.hpp:77] Creating layer inception_5a/relu_3x3_reduce
I0403 17:56:01.601963  6313 net.cpp:91] Creating Layer inception_5a/relu_3x3_reduce
I0403 17:56:01.601981  6313 net.cpp:425] inception_5a/relu_3x3_reduce <- inception_5a/3x3_reduce
I0403 17:56:01.602004  6313 net.cpp:386] inception_5a/relu_3x3_reduce -> inception_5a/3x3_reduce (in-place)
I0403 17:56:01.602205  6313 net.cpp:141] Setting up inception_5a/relu_3x3_reduce
I0403 17:56:01.602232  6313 net.cpp:148] Top shape: 24 160 7 7 (188160)
I0403 17:56:01.602248  6313 net.cpp:156] Memory required for data: 1296039456
I0403 17:56:01.602264  6313 layer_factory.hpp:77] Creating layer inception_5a/3x3
I0403 17:56:01.602293  6313 net.cpp:91] Creating Layer inception_5a/3x3
I0403 17:56:01.602314  6313 net.cpp:425] inception_5a/3x3 <- inception_5a/3x3_reduce
I0403 17:56:01.602339  6313 net.cpp:399] inception_5a/3x3 -> inception_5a/3x3
I0403 17:56:01.607712  6313 net.cpp:141] Setting up inception_5a/3x3
I0403 17:56:01.607744  6313 net.cpp:148] Top shape: 24 320 7 7 (376320)
I0403 17:56:01.607761  6313 net.cpp:156] Memory required for data: 1297544736
I0403 17:56:01.607782  6313 layer_factory.hpp:77] Creating layer inception_5a/relu_3x3
I0403 17:56:01.607805  6313 net.cpp:91] Creating Layer inception_5a/relu_3x3
I0403 17:56:01.607825  6313 net.cpp:425] inception_5a/relu_3x3 <- inception_5a/3x3
I0403 17:56:01.607846  6313 net.cpp:386] inception_5a/relu_3x3 -> inception_5a/3x3 (in-place)
I0403 17:56:01.608163  6313 net.cpp:141] Setting up inception_5a/relu_3x3
I0403 17:56:01.608191  6313 net.cpp:148] Top shape: 24 320 7 7 (376320)
I0403 17:56:01.608207  6313 net.cpp:156] Memory required for data: 1299050016
I0403 17:56:01.608223  6313 layer_factory.hpp:77] Creating layer inception_5a/5x5_reduce
I0403 17:56:01.608247  6313 net.cpp:91] Creating Layer inception_5a/5x5_reduce
I0403 17:56:01.608268  6313 net.cpp:425] inception_5a/5x5_reduce <- pool4/3x3_s2_pool4/3x3_s2_0_split_2
I0403 17:56:01.608296  6313 net.cpp:399] inception_5a/5x5_reduce -> inception_5a/5x5_reduce
I0403 17:56:01.609550  6313 net.cpp:141] Setting up inception_5a/5x5_reduce
I0403 17:56:01.609585  6313 net.cpp:148] Top shape: 24 32 7 7 (37632)
I0403 17:56:01.609602  6313 net.cpp:156] Memory required for data: 1299200544
I0403 17:56:01.609624  6313 layer_factory.hpp:77] Creating layer inception_5a/relu_5x5_reduce
I0403 17:56:01.609644  6313 net.cpp:91] Creating Layer inception_5a/relu_5x5_reduce
I0403 17:56:01.609661  6313 net.cpp:425] inception_5a/relu_5x5_reduce <- inception_5a/5x5_reduce
I0403 17:56:01.609680  6313 net.cpp:386] inception_5a/relu_5x5_reduce -> inception_5a/5x5_reduce (in-place)
I0403 17:56:01.610002  6313 net.cpp:141] Setting up inception_5a/relu_5x5_reduce
I0403 17:56:01.610028  6313 net.cpp:148] Top shape: 24 32 7 7 (37632)
I0403 17:56:01.610049  6313 net.cpp:156] Memory required for data: 1299351072
I0403 17:56:01.610065  6313 layer_factory.hpp:77] Creating layer inception_5a/5x5
I0403 17:56:01.610087  6313 net.cpp:91] Creating Layer inception_5a/5x5
I0403 17:56:01.610105  6313 net.cpp:425] inception_5a/5x5 <- inception_5a/5x5_reduce
I0403 17:56:01.610128  6313 net.cpp:399] inception_5a/5x5 -> inception_5a/5x5
I0403 17:56:01.611968  6313 net.cpp:141] Setting up inception_5a/5x5
I0403 17:56:01.612011  6313 net.cpp:148] Top shape: 24 128 7 7 (150528)
I0403 17:56:01.612030  6313 net.cpp:156] Memory required for data: 1299953184
I0403 17:56:01.612051  6313 layer_factory.hpp:77] Creating layer inception_5a/relu_5x5
I0403 17:56:01.612073  6313 net.cpp:91] Creating Layer inception_5a/relu_5x5
I0403 17:56:01.612092  6313 net.cpp:425] inception_5a/relu_5x5 <- inception_5a/5x5
I0403 17:56:01.612110  6313 net.cpp:386] inception_5a/relu_5x5 -> inception_5a/5x5 (in-place)
I0403 17:56:01.612321  6313 net.cpp:141] Setting up inception_5a/relu_5x5
I0403 17:56:01.612351  6313 net.cpp:148] Top shape: 24 128 7 7 (150528)
I0403 17:56:01.612368  6313 net.cpp:156] Memory required for data: 1300555296
I0403 17:56:01.612385  6313 layer_factory.hpp:77] Creating layer inception_5a/pool
I0403 17:56:01.612404  6313 net.cpp:91] Creating Layer inception_5a/pool
I0403 17:56:01.612421  6313 net.cpp:425] inception_5a/pool <- pool4/3x3_s2_pool4/3x3_s2_0_split_3
I0403 17:56:01.612440  6313 net.cpp:399] inception_5a/pool -> inception_5a/pool
I0403 17:56:01.612517  6313 net.cpp:141] Setting up inception_5a/pool
I0403 17:56:01.612542  6313 net.cpp:148] Top shape: 24 832 7 7 (978432)
I0403 17:56:01.612557  6313 net.cpp:156] Memory required for data: 1304469024
I0403 17:56:01.612573  6313 layer_factory.hpp:77] Creating layer inception_5a/pool_proj
I0403 17:56:01.612596  6313 net.cpp:91] Creating Layer inception_5a/pool_proj
I0403 17:56:01.612615  6313 net.cpp:425] inception_5a/pool_proj <- inception_5a/pool
I0403 17:56:01.612638  6313 net.cpp:399] inception_5a/pool_proj -> inception_5a/pool_proj
I0403 17:56:01.615082  6313 net.cpp:141] Setting up inception_5a/pool_proj
I0403 17:56:01.615114  6313 net.cpp:148] Top shape: 24 128 7 7 (150528)
I0403 17:56:01.615133  6313 net.cpp:156] Memory required for data: 1305071136
I0403 17:56:01.615152  6313 layer_factory.hpp:77] Creating layer inception_5a/relu_pool_proj
I0403 17:56:01.615175  6313 net.cpp:91] Creating Layer inception_5a/relu_pool_proj
I0403 17:56:01.615192  6313 net.cpp:425] inception_5a/relu_pool_proj <- inception_5a/pool_proj
I0403 17:56:01.615211  6313 net.cpp:386] inception_5a/relu_pool_proj -> inception_5a/pool_proj (in-place)
I0403 17:56:01.615528  6313 net.cpp:141] Setting up inception_5a/relu_pool_proj
I0403 17:56:01.615556  6313 net.cpp:148] Top shape: 24 128 7 7 (150528)
I0403 17:56:01.615572  6313 net.cpp:156] Memory required for data: 1305673248
I0403 17:56:01.615588  6313 layer_factory.hpp:77] Creating layer inception_5a/output
I0403 17:56:01.615607  6313 net.cpp:91] Creating Layer inception_5a/output
I0403 17:56:01.615624  6313 net.cpp:425] inception_5a/output <- inception_5a/1x1
I0403 17:56:01.615643  6313 net.cpp:425] inception_5a/output <- inception_5a/3x3
I0403 17:56:01.615659  6313 net.cpp:425] inception_5a/output <- inception_5a/5x5
I0403 17:56:01.615676  6313 net.cpp:425] inception_5a/output <- inception_5a/pool_proj
I0403 17:56:01.615697  6313 net.cpp:399] inception_5a/output -> inception_5a/output
I0403 17:56:01.615751  6313 net.cpp:141] Setting up inception_5a/output
I0403 17:56:01.615778  6313 net.cpp:148] Top shape: 24 832 7 7 (978432)
I0403 17:56:01.615794  6313 net.cpp:156] Memory required for data: 1309586976
I0403 17:56:01.615811  6313 layer_factory.hpp:77] Creating layer inception_5a/output_inception_5a/output_0_split
I0403 17:56:01.615828  6313 net.cpp:91] Creating Layer inception_5a/output_inception_5a/output_0_split
I0403 17:56:01.615845  6313 net.cpp:425] inception_5a/output_inception_5a/output_0_split <- inception_5a/output
I0403 17:56:01.615867  6313 net.cpp:399] inception_5a/output_inception_5a/output_0_split -> inception_5a/output_inception_5a/output_0_split_0
I0403 17:56:01.615890  6313 net.cpp:399] inception_5a/output_inception_5a/output_0_split -> inception_5a/output_inception_5a/output_0_split_1
I0403 17:56:01.615912  6313 net.cpp:399] inception_5a/output_inception_5a/output_0_split -> inception_5a/output_inception_5a/output_0_split_2
I0403 17:56:01.615934  6313 net.cpp:399] inception_5a/output_inception_5a/output_0_split -> inception_5a/output_inception_5a/output_0_split_3
I0403 17:56:01.616052  6313 net.cpp:141] Setting up inception_5a/output_inception_5a/output_0_split
I0403 17:56:01.616077  6313 net.cpp:148] Top shape: 24 832 7 7 (978432)
I0403 17:56:01.616094  6313 net.cpp:148] Top shape: 24 832 7 7 (978432)
I0403 17:56:01.616111  6313 net.cpp:148] Top shape: 24 832 7 7 (978432)
I0403 17:56:01.616127  6313 net.cpp:148] Top shape: 24 832 7 7 (978432)
I0403 17:56:01.616142  6313 net.cpp:156] Memory required for data: 1325241888
I0403 17:56:01.616158  6313 layer_factory.hpp:77] Creating layer inception_5b/1x1
I0403 17:56:01.616181  6313 net.cpp:91] Creating Layer inception_5b/1x1
I0403 17:56:01.616201  6313 net.cpp:425] inception_5b/1x1 <- inception_5a/output_inception_5a/output_0_split_0
I0403 17:56:01.616224  6313 net.cpp:399] inception_5b/1x1 -> inception_5b/1x1
I0403 17:56:01.620257  6313 net.cpp:141] Setting up inception_5b/1x1
I0403 17:56:01.620295  6313 net.cpp:148] Top shape: 24 384 7 7 (451584)
I0403 17:56:01.620313  6313 net.cpp:156] Memory required for data: 1327048224
I0403 17:56:01.620334  6313 layer_factory.hpp:77] Creating layer inception_5b/relu_1x1
I0403 17:56:01.620354  6313 net.cpp:91] Creating Layer inception_5b/relu_1x1
I0403 17:56:01.620373  6313 net.cpp:425] inception_5b/relu_1x1 <- inception_5b/1x1
I0403 17:56:01.620398  6313 net.cpp:386] inception_5b/relu_1x1 -> inception_5b/1x1 (in-place)
I0403 17:56:01.620739  6313 net.cpp:141] Setting up inception_5b/relu_1x1
I0403 17:56:01.620769  6313 net.cpp:148] Top shape: 24 384 7 7 (451584)
I0403 17:56:01.620784  6313 net.cpp:156] Memory required for data: 1328854560
I0403 17:56:01.620800  6313 layer_factory.hpp:77] Creating layer inception_5b/3x3_reduce
I0403 17:56:01.620825  6313 net.cpp:91] Creating Layer inception_5b/3x3_reduce
I0403 17:56:01.620843  6313 net.cpp:425] inception_5b/3x3_reduce <- inception_5a/output_inception_5a/output_0_split_1
I0403 17:56:01.620868  6313 net.cpp:399] inception_5b/3x3_reduce -> inception_5b/3x3_reduce
I0403 17:56:01.623746  6313 net.cpp:141] Setting up inception_5b/3x3_reduce
I0403 17:56:01.623780  6313 net.cpp:148] Top shape: 24 192 7 7 (225792)
I0403 17:56:01.623798  6313 net.cpp:156] Memory required for data: 1329757728
I0403 17:56:01.623818  6313 layer_factory.hpp:77] Creating layer inception_5b/relu_3x3_reduce
I0403 17:56:01.623838  6313 net.cpp:91] Creating Layer inception_5b/relu_3x3_reduce
I0403 17:56:01.623858  6313 net.cpp:425] inception_5b/relu_3x3_reduce <- inception_5b/3x3_reduce
I0403 17:56:01.623878  6313 net.cpp:386] inception_5b/relu_3x3_reduce -> inception_5b/3x3_reduce (in-place)
I0403 17:56:01.624080  6313 net.cpp:141] Setting up inception_5b/relu_3x3_reduce
I0403 17:56:01.624106  6313 net.cpp:148] Top shape: 24 192 7 7 (225792)
I0403 17:56:01.624122  6313 net.cpp:156] Memory required for data: 1330660896
I0403 17:56:01.624138  6313 layer_factory.hpp:77] Creating layer inception_5b/3x3
I0403 17:56:01.624164  6313 net.cpp:91] Creating Layer inception_5b/3x3
I0403 17:56:01.624184  6313 net.cpp:425] inception_5b/3x3 <- inception_5b/3x3_reduce
I0403 17:56:01.624207  6313 net.cpp:399] inception_5b/3x3 -> inception_5b/3x3
I0403 17:56:01.631361  6313 net.cpp:141] Setting up inception_5b/3x3
I0403 17:56:01.631394  6313 net.cpp:148] Top shape: 24 384 7 7 (451584)
I0403 17:56:01.631412  6313 net.cpp:156] Memory required for data: 1332467232
I0403 17:56:01.631433  6313 layer_factory.hpp:77] Creating layer inception_5b/relu_3x3
I0403 17:56:01.631456  6313 net.cpp:91] Creating Layer inception_5b/relu_3x3
I0403 17:56:01.631476  6313 net.cpp:425] inception_5b/relu_3x3 <- inception_5b/3x3
I0403 17:56:01.631496  6313 net.cpp:386] inception_5b/relu_3x3 -> inception_5b/3x3 (in-place)
I0403 17:56:01.631811  6313 net.cpp:141] Setting up inception_5b/relu_3x3
I0403 17:56:01.631839  6313 net.cpp:148] Top shape: 24 384 7 7 (451584)
I0403 17:56:01.631855  6313 net.cpp:156] Memory required for data: 1334273568
I0403 17:56:01.631871  6313 layer_factory.hpp:77] Creating layer inception_5b/5x5_reduce
I0403 17:56:01.631914  6313 net.cpp:91] Creating Layer inception_5b/5x5_reduce
I0403 17:56:01.631935  6313 net.cpp:425] inception_5b/5x5_reduce <- inception_5a/output_inception_5a/output_0_split_2
I0403 17:56:01.631959  6313 net.cpp:399] inception_5b/5x5_reduce -> inception_5b/5x5_reduce
I0403 17:56:01.633334  6313 net.cpp:141] Setting up inception_5b/5x5_reduce
I0403 17:56:01.633366  6313 net.cpp:148] Top shape: 24 48 7 7 (56448)
I0403 17:56:01.633384  6313 net.cpp:156] Memory required for data: 1334499360
I0403 17:56:01.633405  6313 layer_factory.hpp:77] Creating layer inception_5b/relu_5x5_reduce
I0403 17:56:01.633424  6313 net.cpp:91] Creating Layer inception_5b/relu_5x5_reduce
I0403 17:56:01.633442  6313 net.cpp:425] inception_5b/relu_5x5_reduce <- inception_5b/5x5_reduce
I0403 17:56:01.633463  6313 net.cpp:386] inception_5b/relu_5x5_reduce -> inception_5b/5x5_reduce (in-place)
I0403 17:56:01.633863  6313 net.cpp:141] Setting up inception_5b/relu_5x5_reduce
I0403 17:56:01.633893  6313 net.cpp:148] Top shape: 24 48 7 7 (56448)
I0403 17:56:01.633908  6313 net.cpp:156] Memory required for data: 1334725152
I0403 17:56:01.633924  6313 layer_factory.hpp:77] Creating layer inception_5b/5x5
I0403 17:56:01.633946  6313 net.cpp:91] Creating Layer inception_5b/5x5
I0403 17:56:01.633965  6313 net.cpp:425] inception_5b/5x5 <- inception_5b/5x5_reduce
I0403 17:56:01.633985  6313 net.cpp:399] inception_5b/5x5 -> inception_5b/5x5
I0403 17:56:01.636207  6313 net.cpp:141] Setting up inception_5b/5x5
I0403 17:56:01.636239  6313 net.cpp:148] Top shape: 24 128 7 7 (150528)
I0403 17:56:01.636255  6313 net.cpp:156] Memory required for data: 1335327264
I0403 17:56:01.636281  6313 layer_factory.hpp:77] Creating layer inception_5b/relu_5x5
I0403 17:56:01.636307  6313 net.cpp:91] Creating Layer inception_5b/relu_5x5
I0403 17:56:01.636325  6313 net.cpp:425] inception_5b/relu_5x5 <- inception_5b/5x5
I0403 17:56:01.636344  6313 net.cpp:386] inception_5b/relu_5x5 -> inception_5b/5x5 (in-place)
I0403 17:56:01.636554  6313 net.cpp:141] Setting up inception_5b/relu_5x5
I0403 17:56:01.636586  6313 net.cpp:148] Top shape: 24 128 7 7 (150528)
I0403 17:56:01.636605  6313 net.cpp:156] Memory required for data: 1335929376
I0403 17:56:01.636622  6313 layer_factory.hpp:77] Creating layer inception_5b/pool
I0403 17:56:01.636642  6313 net.cpp:91] Creating Layer inception_5b/pool
I0403 17:56:01.636661  6313 net.cpp:425] inception_5b/pool <- inception_5a/output_inception_5a/output_0_split_3
I0403 17:56:01.636683  6313 net.cpp:399] inception_5b/pool -> inception_5b/pool
I0403 17:56:01.636762  6313 net.cpp:141] Setting up inception_5b/pool
I0403 17:56:01.636787  6313 net.cpp:148] Top shape: 24 832 7 7 (978432)
I0403 17:56:01.636803  6313 net.cpp:156] Memory required for data: 1339843104
I0403 17:56:01.636818  6313 layer_factory.hpp:77] Creating layer inception_5b/pool_proj
I0403 17:56:01.636842  6313 net.cpp:91] Creating Layer inception_5b/pool_proj
I0403 17:56:01.636862  6313 net.cpp:425] inception_5b/pool_proj <- inception_5b/pool
I0403 17:56:01.636883  6313 net.cpp:399] inception_5b/pool_proj -> inception_5b/pool_proj
I0403 17:56:01.639367  6313 net.cpp:141] Setting up inception_5b/pool_proj
I0403 17:56:01.639401  6313 net.cpp:148] Top shape: 24 128 7 7 (150528)
I0403 17:56:01.639420  6313 net.cpp:156] Memory required for data: 1340445216
I0403 17:56:01.639439  6313 layer_factory.hpp:77] Creating layer inception_5b/relu_pool_proj
I0403 17:56:01.639458  6313 net.cpp:91] Creating Layer inception_5b/relu_pool_proj
I0403 17:56:01.639475  6313 net.cpp:425] inception_5b/relu_pool_proj <- inception_5b/pool_proj
I0403 17:56:01.639497  6313 net.cpp:386] inception_5b/relu_pool_proj -> inception_5b/pool_proj (in-place)
I0403 17:56:01.639816  6313 net.cpp:141] Setting up inception_5b/relu_pool_proj
I0403 17:56:01.639847  6313 net.cpp:148] Top shape: 24 128 7 7 (150528)
I0403 17:56:01.639863  6313 net.cpp:156] Memory required for data: 1341047328
I0403 17:56:01.639878  6313 layer_factory.hpp:77] Creating layer inception_5b/output
I0403 17:56:01.639899  6313 net.cpp:91] Creating Layer inception_5b/output
I0403 17:56:01.639932  6313 net.cpp:425] inception_5b/output <- inception_5b/1x1
I0403 17:56:01.639953  6313 net.cpp:425] inception_5b/output <- inception_5b/3x3
I0403 17:56:01.639972  6313 net.cpp:425] inception_5b/output <- inception_5b/5x5
I0403 17:56:01.639991  6313 net.cpp:425] inception_5b/output <- inception_5b/pool_proj
I0403 17:56:01.640013  6313 net.cpp:399] inception_5b/output -> inception_5b/output
I0403 17:56:01.640069  6313 net.cpp:141] Setting up inception_5b/output
I0403 17:56:01.640099  6313 net.cpp:148] Top shape: 24 1024 7 7 (1204224)
I0403 17:56:01.640115  6313 net.cpp:156] Memory required for data: 1345864224
I0403 17:56:01.640131  6313 layer_factory.hpp:77] Creating layer pool5/7x7_s1
I0403 17:56:01.640151  6313 net.cpp:91] Creating Layer pool5/7x7_s1
I0403 17:56:01.640169  6313 net.cpp:425] pool5/7x7_s1 <- inception_5b/output
I0403 17:56:01.640192  6313 net.cpp:399] pool5/7x7_s1 -> pool5/7x7_s1
I0403 17:56:01.640429  6313 net.cpp:141] Setting up pool5/7x7_s1
I0403 17:56:01.640456  6313 net.cpp:148] Top shape: 24 1024 1 1 (24576)
I0403 17:56:01.640472  6313 net.cpp:156] Memory required for data: 1345962528
I0403 17:56:01.640488  6313 layer_factory.hpp:77] Creating layer pool5/drop_7x7_s1
I0403 17:56:01.640507  6313 net.cpp:91] Creating Layer pool5/drop_7x7_s1
I0403 17:56:01.640524  6313 net.cpp:425] pool5/drop_7x7_s1 <- pool5/7x7_s1
I0403 17:56:01.640545  6313 net.cpp:386] pool5/drop_7x7_s1 -> pool5/7x7_s1 (in-place)
I0403 17:56:01.640601  6313 net.cpp:141] Setting up pool5/drop_7x7_s1
I0403 17:56:01.640626  6313 net.cpp:148] Top shape: 24 1024 1 1 (24576)
I0403 17:56:01.640641  6313 net.cpp:156] Memory required for data: 1346060832
I0403 17:56:01.640657  6313 layer_factory.hpp:77] Creating layer loss3/classifier_plantvillage
I0403 17:56:01.640677  6313 net.cpp:91] Creating Layer loss3/classifier_plantvillage
I0403 17:56:01.640694  6313 net.cpp:425] loss3/classifier_plantvillage <- pool5/7x7_s1
I0403 17:56:01.640719  6313 net.cpp:399] loss3/classifier_plantvillage -> loss3/classifier_plantvillage
I0403 17:56:01.641176  6313 net.cpp:141] Setting up loss3/classifier_plantvillage
I0403 17:56:01.641202  6313 net.cpp:148] Top shape: 24 38 (912)
I0403 17:56:01.641218  6313 net.cpp:156] Memory required for data: 1346064480
I0403 17:56:01.641238  6313 layer_factory.hpp:77] Creating layer loss3/classifier_plantvillage_loss3/classifier_plantvillage_0_split
I0403 17:56:01.641260  6313 net.cpp:91] Creating Layer loss3/classifier_plantvillage_loss3/classifier_plantvillage_0_split
I0403 17:56:01.641283  6313 net.cpp:425] loss3/classifier_plantvillage_loss3/classifier_plantvillage_0_split <- loss3/classifier_plantvillage
I0403 17:56:01.641305  6313 net.cpp:399] loss3/classifier_plantvillage_loss3/classifier_plantvillage_0_split -> loss3/classifier_plantvillage_loss3/classifier_plantvillage_0_split_0
I0403 17:56:01.641329  6313 net.cpp:399] loss3/classifier_plantvillage_loss3/classifier_plantvillage_0_split -> loss3/classifier_plantvillage_loss3/classifier_plantvillage_0_split_1
I0403 17:56:01.641350  6313 net.cpp:399] loss3/classifier_plantvillage_loss3/classifier_plantvillage_0_split -> loss3/classifier_plantvillage_loss3/classifier_plantvillage_0_split_2
I0403 17:56:01.641371  6313 net.cpp:399] loss3/classifier_plantvillage_loss3/classifier_plantvillage_0_split -> loss3/classifier_plantvillage_loss3/classifier_plantvillage_0_split_3
I0403 17:56:01.641479  6313 net.cpp:141] Setting up loss3/classifier_plantvillage_loss3/classifier_plantvillage_0_split
I0403 17:56:01.641505  6313 net.cpp:148] Top shape: 24 38 (912)
I0403 17:56:01.641521  6313 net.cpp:148] Top shape: 24 38 (912)
I0403 17:56:01.641538  6313 net.cpp:148] Top shape: 24 38 (912)
I0403 17:56:01.641554  6313 net.cpp:148] Top shape: 24 38 (912)
I0403 17:56:01.641569  6313 net.cpp:156] Memory required for data: 1346079072
I0403 17:56:01.641584  6313 layer_factory.hpp:77] Creating layer loss1/loss
I0403 17:56:01.641607  6313 net.cpp:91] Creating Layer loss1/loss
I0403 17:56:01.641625  6313 net.cpp:425] loss1/loss <- loss1/classifier_plantvillage_loss1/classifier_plantvillage_0_split_0
I0403 17:56:01.641659  6313 net.cpp:425] loss1/loss <- label_data_1_split_0
…
