…
I0403 18:37:00.501811  7181 net.cpp:313] The NetState phase (1) differed from the phase (0) specified by a rule in layer data
I0403 18:37:00.502964  7181 net.cpp:49] Initializing net from parameters: 
state {
  phase: TEST
}
layer {
  name: "data"
  type: "Data"
  top: "data"
  top: "label"
  include {
    phase: TEST
  }
  transform_param {
    mirror: false
    crop_size: 224
    mean_file: "/home/mohanty/data/final_dataset/lmdb/grayscale-40-60/mean.binaryproto"
  }
  data_param {
    source: "/home/mohanty/data/final_dataset/lmdb/grayscale-40-60/test_db"
    batch_size: 24
    backend: LMDB
  }
}
layer {
  name: "conv1/7x7_s2"
  type: "Convolution"
  bottom: "data"
  top: "conv1/7x7_s2"
  param {
    lr_mult: 1
    decay_mult: 1
  }
  param {
    lr_mult: 2
    decay_mult: 0
  }
  convolution_param {
    num_output: 64
    pad: 3
    kernel_size: 7
    stride: 2
    weight_filler {
      type: "xavier"
      std: 0.1
    }
    bias_filler {
      type: "constant"
      value: 0.2
    }
  }
}
layer {
  name: "conv1/relu_7x7"
  type: "ReLU"
  bottom: "conv1/7x7_s2"
  top: "conv1/7x7_s2"
}
layer {
  name: "pool1/3x3_s2"
  type: "Pooling"
  bottom: "conv1/7x7_s2"
  top: "pool1/3x3_s2"
  pooling_param {
    pool: MAX
    kernel_size: 3
    stride: 2
  }
}
layer {
  name: "pool1/norm1"
  type: "LRN"
  bottom: "pool1/3x3_s2"
  top: "pool1/norm1"
  lrn_param {
    local_size: 5
    alpha: 0.0001
    beta: 0.75
  }
}
layer {
  name: "conv2/3x3_reduce"
  type: "Convolution"
  bottom: "pool1/norm1"
  top: "conv2/3x3_reduce"
  param {
    lr_mult: 1
    decay_mult: 1
  }
  param {
    lr_mult: 2
    decay_mult: 0
  }
  convolution_param {
    num_output: 64
    kernel_size: 1
    weight_filler {
      type: "xavier"
      std: 0.1
    }
    bias_filler {
      type: "constant"
      value: 0.2
    }
  }
}
layer {
  name: "conv2/relu_3x3_reduce"
  type: "ReLU"
  bottom: "conv2/3x3_reduce"
  top: "conv2/3x3_reduce"
}
layer {
  name: "conv2/3x3"
  type: "Convolution"
  bottom: "conv2/3x3_reduce"
  top: "conv2/3x3"
  param {
    lr_mult: 1
    decay_mult: 1
  }
  param {
    lr_mult: 2
    decay_mult: 0
  }
  convolution_param {
    num_output: 192
    pad: 1
    kernel_size: 3
    weight_filler {
      type: "xavier"
      std: 0.03
    }
    bias_filler {
      type: "constant"
      value: 0.2
    }
  }
}
layer {
  name: "conv2/relu_3x3"
  type: "ReLU"
  bottom: "conv2/3x3"
  top: "conv2/3x3"
}
layer {
  name: "conv2/norm2"
  type: "LRN"
  bottom: "conv2/3x3"
  top: "conv2/norm2"
  lrn_param {
    local_size: 5
    alpha: 0.0001
    beta: 0.75
  }
}
layer {
  name: "pool2/3x3_s2"
  type: "Pooling"
  bottom: "conv2/norm2"
  top: "pool2/3x3_s2"
  pooling_param {
    pool: MAX
    kernel_size: 3
    stride: 2
  }
}
layer {
  name: "inception_3a/1x1"
  type: "Convolution"
  bottom: "pool2/3x3_s2"
  top: "inception_3a/1x1"
  param {
    lr_mult: 1
    decay_mult: 1
  }
  param {
    lr_mult: 2
    decay_mult: 0
  }
  convolution_param {
    num_output: 64
    kernel_size: 1
    weight_filler {
      type: "xavier"
      std: 0.03
    }
    bias_filler {
      type: "constant"
      value: 0.2
    }
  }
}
layer {
  name: "inception_3a/relu_1x1"
  type: "ReLU"
  bottom: "inception_3a/1x1"
  top: "inception_3a/1x1"
}
layer {
  name: "inception_3a/3x3_reduce"
  type: "Convolution"
  bottom: "pool2/3x3_s2"
  top: "inception_3a/3x3_reduce"
  param {
    lr_mult: 1
    decay_mult: 1
  }
  param {
    lr_mult: 2
    decay_mult: 0
  }
  convolution_param {
    num_output: 96
    kernel_size: 1
    weight_filler {
      type: "xavier"
      std: 0.09
    }
    bias_filler {
      type: "constant"
      value: 0.2
    }
  }
}
layer {
  name: "inception_3a/relu_3x3_reduce"
  type: "ReLU"
  bottom: "inception_3a/3x3_reduce"
  top: "inception_3a/3x3_reduce"
}
layer {
  name: "inception_3a/3x3"
  type: "Convolution"
  bottom: "inception_3a/3x3_reduce"
  top: "inception_3a/3x3"
  param {
    lr_mult: 1
    decay_mult: 1
  }
  param {
    lr_mult: 2
    decay_mult: 0
  }
  convolution_param {
    num_output: 128
    pad: 1
    kernel_size: 3
    weight_filler {
      type: "xavier"
      std: 0.03
    }
    bias_filler {
      type: "constant"
      value: 0.2
    }
  }
}
layer {
  name: "inception_3a/relu_3x3"
  type: "ReLU"
  bottom: "inception_3a/3x3"
  top: "inception_3a/3x3"
}
layer {
  name: "inception_3a/5x5_reduce"
  type: "Convolution"
  bottom: "pool2/3x3_s2"
  top: "inception_3a/5x5_reduce"
  param {
    lr_mult: 1
    decay_mult: 1
  }
  param {
    lr_mult: 2
    decay_mult: 0
  }
  convolution_param {
    num_output: 16
    kernel_size: 1
    weight_filler {
      type: "xavier"
      std: 0.2
    }
    bias_filler {
      type: "constant"
      value: 0.2
    }
  }
}
layer {
  name: "inception_3a/relu_5x5_reduce"
  type: "ReLU"
  bottom: "inception_3a/5x5_reduce"
  top: "inception_3a/5x5_reduce"
}
layer {
  name: "inception_3a/5x5"
  type: "Convolution"
  bottom: "inception_3a/5x5_reduce"
  top: "inception_3a/5x5"
  param {
    lr_mult: 1
    decay_mult: 1
  }
  param {
    lr_mult: 2
    decay_mult: 0
  }
  convolution_param {
    num_output: 32
    pad: 2
    kernel_size: 5
    weight_filler {
      type: "xavier"
      std: 0.03
    }
    bias_filler {
      type: "constant"
      value: 0.2
    }
  }
}
layer {
  name: "inception_3a/relu_5x5"
  type: "ReLU"
  bottom: "inception_3a/5x5"
  top: "inception_3a/5x5"
}
layer {
  name: "inception_3a/pool"
  type: "Pooling"
  bottom: "pool2/3x3_s2"
  top: "inception_3a/pool"
  pooling_param {
    pool: MAX
    kernel_size: 3
    stride: 1
    pad: 1
  }
}
layer {
  name: "inception_3a/pool_proj"
  type: "Convolution"
  bottom: "inception_3a/pool"
  top: "inception_3a/pool_proj"
  param {
    lr_mult: 1
    decay_mult: 1
  }
  param {
    lr_mult: 2
    decay_mult: 0
  }
  convolution_param {
    num_output: 32
    kernel_size: 1
    weight_filler {
      type: "xavier"
      std: 0.1
    }
    bias_filler {
      type: "constant"
      value: 0.2
    }
  }
}
layer {
  name: "inception_3a/relu_pool_proj"
  type: "ReLU"
  bottom: "inception_3a/pool_proj"
  top: "inception_3a/pool_proj"
}
layer {
  name: "inception_3a/output"
  type: "Concat"
  bottom: "inception_3a/1x1"
  bottom: "inception_3a/3x3"
  bottom: "inception_3a/5x5"
  bottom: "inception_3a/pool_proj"
  top: "inception_3a/output"
}
layer {
  name: "inception_3b/1x1"
  type: "Convolution"
  bottom: "inception_3a/output"
  top: "inception_3b/1x1"
  param {
    lr_mult: 1
    decay_mult: 1
  }
  param {
    lr_mult: 2
    decay_mult: 0
  }
  convolution_param {
    num_output: 128
    kernel_size: 1
    weight_filler {
      type: "xavier"
      std: 0.03
    }
    bias_filler {
      type: "constant"
      value: 0.2
    }
  }
}
layer {
  name: "inception_3b/relu_1x1"
  type: "ReLU"
  bottom: "inception_3b/1x1"
  top: "inception_3b/1x1"
}
layer {
  name: "inception_3b/3x3_reduce"
  type: "Convolution"
  bottom: "inception_3a/output"
  top: "inception_3b/3x3_reduce"
  param {
    lr_mult: 1
    decay_mult: 1
  }
  param {
    lr_mult: 2
    decay_mult: 0
  }
  convolution_param {
    num_output: 128
    kernel_size: 1
    weight_filler {
      type: "xavier"
      std: 0.09
    }
    bias_filler {
      type: "constant"
      value: 0.2
    }
  }
}
layer {
  name: "inception_3b/relu_3x3_reduce"
  type: "ReLU"
  bottom: "inception_3b/3x3_reduce"
  top: "inception_3b/3x3_reduce"
}
layer {
  name: "inception_3b/3x3"
  type: "Convolution"
  bottom: "inception_3b/3x3_reduce"
  top: "inception_3b/3x3"
  param {
    lr_mult: 1
    decay_mult: 1
  }
  param {
    lr_mult: 2
    decay_mult: 0
  }
  convolution_param {
    num_output: 192
    pad: 1
    kernel_size: 3
    weight_filler {
      type: "xavier"
      std: 0.03
    }
    bias_filler {
      type: "constant"
      value: 0.2
    }
  }
}
layer {
  name: "inception_3b/relu_3x3"
  type: "ReLU"
  bottom: "inception_3b/3x3"
  top: "inception_3b/3x3"
}
layer {
  name: "inception_3b/5x5_reduce"
  type: "Convolution"
  bottom: "inception_3a/output"
  top: "inception_3b/5x5_reduce"
  param {
    lr_mult: 1
    decay_mult: 1
  }
  param {
    lr_mult: 2
    decay_mult: 0
  }
  convolution_param {
    num_output: 32
    kernel_size: 1
    weight_filler {
      type: "xavier"
      std: 0.2
    }
    bias_filler {
      type: "constant"
      value: 0.2
    }
  }
}
layer {
  name: "inception_3b/relu_5x5_reduce"
  type: "ReLU"
  bottom: "inception_3b/5x5_reduce"
  top: "inception_3b/5x5_reduce"
}
layer {
  name: "inception_3b/5x5"
  type: "Convolution"
  bottom: "inception_3b/5x5_reduce"
  top: "inception_3b/5x5"
  param {
    lr_mult: 1
    decay_mult: 1
  }
  param {
    lr_mult: 2
    decay_mult: 0
  }
  convolution_param {
    num_output: 96
    pad: 2
    kernel_size: 5
    weight_filler {
      type: "xavier"
      std: 0.03
    }
    bias_filler {
      type: "constant"
      value: 0.2
    }
  }
}
layer {
  name: "inception_3b/relu_5x5"
  type: "ReLU"
  bottom: "inception_3b/5x5"
  top: "inception_3b/5x5"
}
layer {
  name: "inception_3b/pool"
  type: "Pooling"
  bottom: "inception_3a/output"
  top: "inception_3b/pool"
  pooling_param {
    pool: MAX
    kernel_size: 3
    stride: 1
    pad: 1
  }
}
layer {
  name: "inception_3b/pool_proj"
  type: "Convolution"
  bottom: "inception_3b/pool"
  top: "inception_3b/pool_proj"
  param {
    lr_mult: 1
    decay_mult: 1
  }
  param {
    lr_mult: 2
    decay_mult: 0
  }
  convolution_param {
    num_output: 64
    kernel_size: 1
    weight_filler {
      type: "xavier"
      std: 0.1
    }
    bias_filler {
      type: "constant"
      value: 0.2
    }
  }
}
layer {
  name: "inception_3b/relu_pool_proj"
  type: "ReLU"
  bottom: "inception_3b/pool_proj"
  top: "inception_3b/pool_proj"
}
layer {
  name: "inception_3b/output"
  type: "Concat"
  bottom: "inception_3b/1x1"
  bottom: "inception_3b/3x3"
  bottom: "inception_3b/5x5"
  bottom: "inception_3b/pool_proj"
  top: "inception_3b/output"
}
layer {
  name: "pool3/3x3_s2"
  type: "Pooling"
  bottom: "inception_3b/output"
  top: "pool3/3x3_s2"
  pooling_param {
    pool: MAX
    kernel_size: 3
    stride: 2
  }
}
layer {
  name: "inception_4a/1x1"
  type: "Convolution"
  bottom: "pool3/3x3_s2"
  top: "inception_4a/1x1"
  param {
    lr_mult: 1
    decay_mult: 1
  }
  param {
    lr_mult: 2
    decay_mult: 0
  }
  convolution_param {
    num_output: 192
    kernel_size: 1
    weight_filler {
      type: "xavier"
      std: 0.03
    }
    bias_filler {
      type: "constant"
      value: 0.2
    }
  }
}
layer {
  name: "inception_4a/relu_1x1"
  type: "ReLU"
  bottom: "inception_4a/1x1"
  top: "inception_4a/1x1"
}
layer {
  name: "inception_4a/3x3_reduce"
  type: "Convolution"
  bottom: "pool3/3x3_s2"
  top: "inception_4a/3x3_reduce"
  param {
    lr_mult: 1
    decay_mult: 1
  }
  param {
    lr_mult: 2
    decay_mult: 0
  }
  convolution_param {
    num_output: 96
    kernel_size: 1
    weight_filler {
      type: "xavier"
      std: 0.09
    }
    bias_filler {
      type: "constant"
      value: 0.2
    }
  }
}
layer {
  name: "inception_4a/relu_3x3_reduce"
  type: "ReLU"
  bottom: "inception_4a/3x3_reduce"
  top: "inception_4a/3x3_reduce"
}
layer {
  name: "inception_4a/3x3"
  type: "Convolution"
  bottom: "inception_4a/3x3_reduce"
  top: "inception_4a/3x3"
  param {
    lr_mult: 1
    decay_mult: 1
  }
  param {
    lr_mult: 2
    decay_mult: 0
  }
  convolution_param {
    num_output: 208
    pad: 1
    kernel_size: 3
    weight_filler {
      type: "xavier"
      std: 0.03
    }
    bias_filler {
      type: "constant"
      value: 0.2
    }
  }
}
layer {
  name: "inception_4a/relu_3x3"
  type: "ReLU"
  bottom: "inception_4a/3x3"
  top: "inception_4a/3x3"
}
layer {
  name: "inception_4a/5x5_reduce"
  type: "Convolution"
  bottom: "pool3/3x3_s2"
  top: "inception_4a/5x5_reduce"
  param {
    lr_mult: 1
    decay_mult: 1
  }
  param {
    lr_mult: 2
    decay_mult: 0
  }
  convolution_param {
    num_output: 16
    kernel_size: 1
    weight_filler {
      type: "xavier"
      std: 0.2
    }
    bias_filler {
      type: "constant"
      value: 0.2
    }
  }
}
layer {
  name: "inception_4a/relu_5x5_reduce"
  type: "ReLU"
  bottom: "inception_4a/5x5_reduce"
  top: "inception_4a/5x5_reduce"
}
layer {
  name: "inception_4a/5x5"
  type: "Convolution"
  bottom: "inception_4a/5x5_reduce"
  top: "inception_4a/5x5"
  param {
    lr_mult: 1
    decay_mult: 1
  }
  param {
    lr_mult: 2
    decay_mult: 0
  }
  convolution_param {
    num_output: 48
    pad: 2
    kernel_size: 5
    weight_filler {
      type: "xavier"
      std: 0.03
    }
    bias_filler {
      type: "constant"
      value: 0.2
    }
  }
}
layer {
  name: "inception_4a/relu_5x5"
  type: "ReLU"
  bottom: "inception_4a/5x5"
  top: "inception_4a/5x5"
}
layer {
  name: "inception_4a/pool"
  type: "Pooling"
  bottom: "pool3/3x3_s2"
  top: "inception_4a/pool"
  pooling_param {
    pool: MAX
    kernel_size: 3
    stride: 1
    pad: 1
  }
}
layer {
  name: "inception_4a/pool_proj"
  type: "Convolution"
  bottom: "inception_4a/pool"
  top: "inception_4a/pool_proj"
  param {
    lr_mult: 1
    decay_mult: 1
  }
  param {
    lr_mult: 2
    decay_mult: 0
  }
  convolution_param {
    num_output: 64
    kernel_size: 1
    weight_filler {
      type: "xavier"
      std: 0.1
    }
    bias_filler {
      type: "constant"
      value: 0.2
    }
  }
}
layer {
  name: "inception_4a/relu_pool_proj"
  type: "ReLU"
  bottom: "inception_4a/pool_proj"
  top: "inception_4a/pool_proj"
}
layer {
  name: "inception_4a/output"
  type: "Concat"
  bottom: "inception_4a/1x1"
  bottom: "inception_4a/3x3"
  bottom: "inception_4a/5x5"
  bottom: "inception_4a/pool_proj"
  top: "inception_4a/output"
}
layer {
  name: "loss1/ave_pool"
  type: "Pooling"
  bottom: "inception_4a/output"
  top: "loss1/ave_pool"
  pooling_param {
    pool: AVE
    kernel_size: 5
    stride: 3
  }
}
layer {
  name: "loss1/conv"
  type: "Convolution"
  bottom: "loss1/ave_pool"
  top: "loss1/conv"
  param {
    lr_mult: 1
    decay_mult: 1
  }
  param {
    lr_mult: 2
    decay_mult: 0
  }
  convolution_param {
    num_output: 128
    kernel_size: 1
    weight_filler {
      type: "xavier"
      std: 0.08
    }
    bias_filler {
      type: "constant"
      value: 0.2
    }
  }
}
layer {
  name: "loss1/relu_conv"
  type: "ReLU"
  bottom: "loss1/conv"
  top: "loss1/conv"
}
layer {
  name: "loss1/fc"
  type: "InnerProduct"
  bottom: "loss1/conv"
  top: "loss1/fc"
  param {
    lr_mult: 1
    decay_mult: 1
  }
  param {
    lr_mult: 2
    decay_mult: 0
  }
  inner_product_param {
    num_output: 1024
    weight_filler {
      type: "xavier"
      std: 0.02
    }
    bias_filler {
      type: "constant"
      value: 0.2
    }
  }
}
layer {
  name: "loss1/relu_fc"
  type: "ReLU"
  bottom: "loss1/fc"
  top: "loss1/fc"
}
layer {
  name: "loss1/drop_fc"
  type: "Dropout"
  bottom: "loss1/fc"
  top: "loss1/fc"
  dropout_param {
    dropout_ratio: 0.7
  }
}
layer {
  name: "loss1/classifier_plantvillage"
  type: "InnerProduct"
  bottom: "loss1/fc"
  top: "loss1/classifier_plantvillage"
  param {
    lr_mult: 1
    decay_mult: 1
  }
  param {
    lr_mult: 2
    decay_mult: 0
  }
  inner_product_param {
    num_output: 38
    weight_filler {
      type: "xavier"
      std: 0.0009765625
    }
    bias_filler {
      type: "constant"
      value: 0
    }
  }
}
layer {
  name: "inception_4b/1x1"
  type: "Convolution"
  bottom: "inception_4a/output"
  top: "inception_4b/1x1"
  param {
    lr_mult: 1
    decay_mult: 1
  }
  param {
    lr_mult: 2
    decay_mult: 0
  }
  convolution_param {
    num_output: 160
    kernel_size: 1
    weight_filler {
      type: "xavier"
      std: 0.03
    }
    bias_filler {
      type: "constant"
      value: 0.2
    }
  }
}
layer {
  name: "inception_4b/relu_1x1"
  type: "ReLU"
  bottom: "inception_4b/1x1"
  top: "inception_4b/1x1"
}
layer {
  name: "inception_4b/3x3_reduce"
  type: "Convolution"
  bottom: "inception_4a/output"
  top: "inception_4b/3x3_reduce"
  param {
    lr_mult: 1
    decay_mult: 1
  }
  param {
    lr_mult: 2
    decay_mult: 0
  }
  convolution_param {
    num_output: 112
    kernel_size: 1
    weight_filler {
      type: "xavier"
      std: 0.09
    }
    bias_filler {
      type: "constant"
      value: 0.2
    }
  }
}
layer {
  name: "inception_4b/relu_3x3_reduce"
  type: "ReLU"
  bottom: "inception_4b/3x3_reduce"
  top: "inception_4b/3x3_reduce"
}
layer {
  name: "inception_4b/3x3"
  type: "Convolution"
  bottom: "inception_4b/3x3_reduce"
  top: "inception_4b/3x3"
  param {
    lr_mult: 1
    decay_mult: 1
  }
  param {
    lr_mult: 2
    decay_mult: 0
  }
  convolution_param {
    num_output: 224
    pad: 1
    kernel_size: 3
    weight_filler {
      type: "xavier"
      std: 0.03
    }
    bias_filler {
      type: "constant"
      value: 0.2
    }
  }
}
layer {
  name: "inception_4b/relu_3x3"
  type: "ReLU"
  bottom: "inception_4b/3x3"
  top: "inception_4b/3x3"
}
layer {
  name: "inception_4b/5x5_reduce"
  type: "Convolution"
  bottom: "inception_4a/output"
  top: "inception_4b/5x5_reduce"
  param {
    lr_mult: 1
    decay_mult: 1
  }
  param {
    lr_mult: 2
    decay_mult: 0
  }
  convolution_param {
    num_output: 24
    kernel_size: 1
    weight_filler {
      type: "xavier"
      std: 0.2
    }
    bias_filler {
      type: "constant"
      value: 0.2
    }
  }
}
layer {
  name: "inception_4b/relu_5x5_reduce"
  type: "ReLU"
  bottom: "inception_4b/5x5_reduce"
  top: "inception_4b/5x5_reduce"
}
layer {
  name: "inception_4b/5x5"
  type: "Convolution"
  bottom: "inception_4b/5x5_reduce"
  top: "inception_4b/5x5"
  param {
    lr_mult: 1
    decay_mult: 1
  }
  param {
    lr_mult: 2
    decay_mult: 0
  }
  convolution_param {
    num_output: 64
    pad: 2
    kernel_size: 5
    weight_filler {
      type: "xavier"
      std: 0.03
    }
    bias_filler {
      type: "constant"
      value: 0.2
    }
  }
}
layer {
  name: "inception_4b/relu_5x5"
  type: "ReLU"
  bottom: "inception_4b/5x5"
  top: "inception_4b/5x5"
}
layer {
  name: "inception_4b/pool"
  type: "Pooling"
  bottom: "inception_4a/output"
  top: "inception_4b/pool"
  pooling_param {
    pool: MAX
    kernel_size: 3
    stride: 1
    pad: 1
  }
}
layer {
  name: "inception_4b/pool_proj"
  type: "Convolution"
  bottom: "inception_4b/pool"
  top: "inception_4b/pool_proj"
  param {
    lr_mult: 1
    decay_mult: 1
  }
  param {
    lr_mult: 2
    decay_mult: 0
  }
  convolution_param {
    num_output: 64
    kernel_size: 1
    weight_filler {
      type: "xavier"
      std: 0.1
    }
    bias_filler {
      type: "constant"
      value: 0.2
    }
  }
}
layer {
  name: "inception_4b/relu_pool_proj"
  type: "ReLU"
  bottom: "inception_4b/pool_proj"
  top: "inception_4b/pool_proj"
}
layer {
  name: "inception_4b/output"
  type: "Concat"
  bottom: "inception_4b/1x1"
  bottom: "inception_4b/3x3"
  bottom: "inception_4b/5x5"
  bottom: "inception_4b/pool_proj"
  top: "inception_4b/output"
}
layer {
  name: "inception_4c/1x1"
  type: "Convolution"
  bottom: "inception_4b/output"
  top: "inception_4c/1x1"
  param {
    lr_mult: 1
    decay_mult: 1
  }
  param {
    lr_mult: 2
    decay_mult: 0
  }
  convolution_param {
    num_output: 128
    kernel_size: 1
    weight_filler {
      type: "xavier"
      std: 0.03
    }
    bias_filler {
      type: "constant"
      value: 0.2
    }
  }
}
layer {
  name: "inception_4c/relu_1x1"
  type: "ReLU"
  bottom: "inception_4c/1x1"
  top: "inception_4c/1x1"
}
layer {
  name: "inception_4c/3x3_reduce"
  type: "Convolution"
  bottom: "inception_4b/output"
  top: "inception_4c/3x3_reduce"
  param {
    lr_mult: 1
    decay_mult: 1
  }
  param {
    lr_mult: 2
    decay_mult: 0
  }
  convolution_param {
    num_output: 128
    kernel_size: 1
    weight_filler {
      type: "xavier"
      std: 0.09
    }
    bias_filler {
      type: "constant"
      value: 0.2
    }
  }
}
layer {
  name: "inception_4c/relu_3x3_reduce"
  type: "ReLU"
  bottom: "inception_4c/3x3_reduce"
  top: "inception_4c/3x3_reduce"
}
layer {
  name: "inception_4c/3x3"
  type: "Convolution"
  bottom: "inception_4c/3x3_reduce"
  top: "inception_4c/3x3"
  param {
    lr_mult: 1
    decay_mult: 1
  }
  param {
    lr_mult: 2
    decay_mult: 0
  }
  convolution_param {
    num_output: 256
    pad: 1
    kernel_size: 3
    weight_filler {
      type: "xavier"
      std: 0.03
    }
    bias_filler {
      type: "constant"
      value: 0.2
    }
  }
}
layer {
  name: "inception_4c/relu_3x3"
  type: "ReLU"
  bottom: "inception_4c/3x3"
  top: "inception_4c/3x3"
}
layer {
  name: "inception_4c/5x5_reduce"
  type: "Convolution"
  bottom: "inception_4b/output"
  top: "inception_4c/5x5_reduce"
  param {
    lr_mult: 1
    decay_mult: 1
  }
  param {
    lr_mult: 2
    decay_mult: 0
  }
  convolution_param {
    num_output: 24
    kernel_size: 1
    weight_filler {
      type: "xavier"
      std: 0.2
    }
    bias_filler {
      type: "constant"
      value: 0.2
    }
  }
}
layer {
  name: "inception_4c/relu_5x5_reduce"
  type: "ReLU"
  bottom: "inception_4c/5x5_reduce"
  top: "inception_4c/5x5_reduce"
}
layer {
  name: "inception_4c/5x5"
  type: "Convolution"
  bottom: "inception_4c/5x5_reduce"
  top: "inception_4c/5x5"
  param {
    lr_mult: 1
    decay_mult: 1
  }
  param {
    lr_mult: 2
    decay_mult: 0
  }
  convolution_param {
    num_output: 64
    pad: 2
    kernel_size: 5
    weight_filler {
      type: "xavier"
      std: 0.03
    }
    bias_filler {
      type: "constant"
      value: 0.2
    }
  }
}
layer {
  name: "inception_4c/relu_5x5"
  type: "ReLU"
  bottom: "inception_4c/5x5"
  top: "inception_4c/5x5"
}
layer {
  name: "inception_4c/pool"
  type: "Pooling"
  bottom: "inception_4b/output"
  top: "inception_4c/pool"
  pooling_param {
    pool: MAX
    kernel_size: 3
    stride: 1
    pad: 1
  }
}
layer {
  name: "inception_4c/pool_proj"
  type: "Convolution"
  bottom: "inception_4c/pool"
  top: "inception_4c/pool_proj"
  param {
    lr_mult: 1
    decay_mult: 1
  }
  param {
    lr_mult: 2
    decay_mult: 0
  }
  convolution_param {
    num_output: 64
    kernel_size: 1
    weight_filler {
      type: "xavier"
      std: 0.1
    }
    bias_filler {
      type: "constant"
      value: 0.2
    }
  }
}
layer {
  name: "inception_4c/relu_pool_proj"
  type: "ReLU"
  bottom: "inception_4c/pool_proj"
  top: "inception_4c/pool_proj"
}
layer {
  name: "inception_4c/output"
  type: "Concat"
  bottom: "inception_4c/1x1"
  bottom: "inception_4c/3x3"
  bottom: "inception_4c/5x5"
  bottom: "inception_4c/pool_proj"
  top: "inception_4c/output"
}
layer {
  name: "inception_4d/1x1"
  type: "Convolution"
  bottom: "inception_4c/output"
  top: "inception_4d/1x1"
  param {
    lr_mult: 1
    decay_mult: 1
  }
  param {
    lr_mult: 2
    decay_mult: 0
  }
  convolution_param {
    num_output: 112
    kernel_size: 1
    weight_filler {
      type: "xavier"
      std: 0.03
    }
    bias_filler {
      type: "constant"
      value: 0.2
    }
  }
}
layer {
  name: "inception_4d/relu_1x1"
  type: "ReLU"
  bottom: "inception_4d/1x1"
  top: "inception_4d/1x1"
}
layer {
  name: "inception_4d/3x3_reduce"
  type: "Convolution"
  bottom: "inception_4c/output"
  top: "inception_4d/3x3_reduce"
  param {
    lr_mult: 1
    decay_mult: 1
  }
  param {
    lr_mult: 2
    decay_mult: 0
  }
  convolution_param {
    num_output: 144
    kernel_size: 1
    weight_filler {
      type: "xavier"
      std: 0.09
    }
    bias_filler {
      type: "constant"
      value: 0.2
    }
  }
}
layer {
  name: "inception_4d/relu_3x3_reduce"
  type: "ReLU"
  bottom: "inception_4d/3x3_reduce"
  top: "inception_4d/3x3_reduce"
}
layer {
  name: "inception_4d/3x3"
  type: "Convolution"
  bottom: "inception_4d/3x3_reduce"
  top: "inception_4d/3x3"
  param {
    lr_mult: 1
    decay_mult: 1
  }
  param {
    lr_mult: 2
    decay_mult: 0
  }
  convolution_param {
    num_output: 288
    pad: 1
    kernel_size: 3
    weight_filler {
      type: "xavier"
      std: 0.03
    }
    bias_filler {
      type: "constant"
      value: 0.2
    }
  }
}
layer {
  name: "inception_4d/relu_3x3"
  type: "ReLU"
  bottom: "inception_4d/3x3"
  top: "inception_4d/3x3"
}
layer {
  name: "inception_4d/5x5_reduce"
  type: "Convolution"
  bottom: "inception_4c/output"
  top: "inception_4d/5x5_reduce"
  param {
    lr_mult: 1
    decay_mult: 1
  }
  param {
    lr_mult: 2
    decay_mult: 0
  }
  convolution_param {
    num_output: 32
    kernel_size: 1
    weight_filler {
      type: "xavier"
      std: 0.2
    }
    bias_filler {
      type: "constant"
      value: 0.2
    }
  }
}
layer {
  name: "inception_4d/relu_5x5_reduce"
  type: "ReLU"
  bottom: "inception_4d/5x5_reduce"
  top: "inception_4d/5x5_reduce"
}
layer {
  name: "inception_4d/5x5"
  type: "Convolution"
  bottom: "inception_4d/5x5_reduce"
  top: "inception_4d/5x5"
  param {
    lr_mult: 1
    decay_mult: 1
  }
  param {
    lr_mult: 2
    decay_mult: 0
  }
  convolution_param {
    num_output: 64
    pad: 2
    kernel_size: 5
    weight_filler {
      type: "xavier"
      std: 0.03
    }
    bias_filler {
      type: "constant"
      value: 0.2
    }
  }
}
layer {
  name: "inception_4d/relu_5x5"
  type: "ReLU"
  bottom: "inception_4d/5x5"
  top: "inception_4d/5x5"
}
layer {
  name: "inception_4d/pool"
  type: "Pooling"
  bottom: "inception_4c/output"
  top: "inception_4d/pool"
  pooling_param {
    pool: MAX
    kernel_size: 3
    stride: 1
    pad: 1
  }
}
layer {
  name: "inception_4d/pool_proj"
  type: "Convolution"
  bottom: "inception_4d/pool"
  top: "inception_4d/pool_proj"
  param {
    lr_mult: 1
    decay_mult: 1
  }
  param {
    lr_mult: 2
    decay_mult: 0
  }
  convolution_param {
    num_output: 64
    kernel_size: 1
    weight_filler {
      type: "xavier"
      std: 0.1
    }
    bias_filler {
      type: "constant"
      value: 0.2
    }
  }
}
layer {
  name: "inception_4d/relu_pool_proj"
  type: "ReLU"
  bottom: "inception_4d/pool_proj"
  top: "inception_4d/pool_proj"
}
layer {
  name: "inception_4d/output"
  type: "Concat"
  bottom: "inception_4d/1x1"
  bottom: "inception_4d/3x3"
  bottom: "inception_4d/5x5"
  bottom: "inception_4d/pool_proj"
  top: "inception_4d/output"
}
layer {
  name: "loss2/ave_pool"
  type: "Pooling"
  bottom: "inception_4d/output"
  top: "loss2/ave_pool"
  pooling_param {
    pool: AVE
    kernel_size: 5
    stride: 3
  }
}
layer {
  name: "loss2/conv"
  type: "Convolution"
  bottom: "loss2/ave_pool"
  top: "loss2/conv"
  param {
    lr_mult: 1
    decay_mult: 1
  }
  param {
    lr_mult: 2
    decay_mult: 0
  }
  convolution_param {
    num_output: 128
    kernel_size: 1
    weight_filler {
      type: "xavier"
      std: 0.08
    }
    bias_filler {
      type: "constant"
      value: 0.2
    }
  }
}
layer {
  name: "loss2/relu_conv"
  type: "ReLU"
  bottom: "loss2/conv"
  top: "loss2/conv"
}
layer {
  name: "loss2/fc"
  type: "InnerProduct"
  bottom: "loss2/conv"
  top: "loss2/fc"
  param {
    lr_mult: 1
    decay_mult: 1
  }
  param {
    lr_mult: 2
    decay_mult: 0
  }
  inner_product_param {
    num_output: 1024
    weight_filler {
      type: "xavier"
      std: 0.02
    }
    bias_filler {
      type: "constant"
      value: 0.2
    }
  }
}
layer {
  name: "loss2/relu_fc"
  type: "ReLU"
  bottom: "loss2/fc"
  top: "loss2/fc"
}
layer {
  name: "loss2/drop_fc"
  type: "Dropout"
  bottom: "loss2/fc"
  top: "loss2/fc"
  dropout_param {
    dropout_ratio: 0.7
  }
}
layer {
  name: "loss2/classifier_plantvillage"
  type: "InnerProduct"
  bottom: "loss2/fc"
  top: "loss2/classifier_plantvillage"
  param {
    lr_mult: 1
    decay_mult: 1
  }
  param {
    lr_mult: 2
    decay_mult: 0
  }
  inner_product_param {
    num_output: 38
    weight_filler {
      type: "xavier"
      std: 0.0009765625
    }
    bias_filler {
      type: "constant"
      value: 0
    }
  }
}
layer {
  name: "inception_4e/1x1"
  type: "Convolution"
  bottom: "inception_4d/output"
  top: "inception_4e/1x1"
  param {
    lr_mult: 1
    decay_mult: 1
  }
  param {
    lr_mult: 2
    decay_mult: 0
  }
  convolution_param {
    num_output: 256
    kernel_size: 1
    weight_filler {
      type: "xavier"
      std: 0.03
    }
    bias_filler {
      type: "constant"
      value: 0.2
    }
  }
}
layer {
  name: "inception_4e/relu_1x1"
  type: "ReLU"
  bottom: "inception_4e/1x1"
  top: "inception_4e/1x1"
}
layer {
  name: "inception_4e/3x3_reduce"
  type: "Convolution"
  bottom: "inception_4d/output"
  top: "inception_4e/3x3_reduce"
  param {
    lr_mult: 1
    decay_mult: 1
  }
  param {
    lr_mult: 2
    decay_mult: 0
  }
  convolution_param {
    num_output: 160
    kernel_size: 1
    weight_filler {
      type: "xavier"
      std: 0.09
    }
    bias_filler {
      type: "constant"
      value: 0.2
    }
  }
}
layer {
  name: "inception_4e/relu_3x3_reduce"
  type: "ReLU"
  bottom: "inception_4e/3x3_reduce"
  top: "inception_4e/3x3_reduce"
}
layer {
  name: "inception_4e/3x3"
  type: "Convolution"
  bottom: "inception_4e/3x3_reduce"
  top: "inception_4e/3x3"
  param {
    lr_mult: 1
    decay_mult: 1
  }
  param {
    lr_mult: 2
    decay_mult: 0
  }
  convolution_param {
    num_output: 320
    pad: 1
    kernel_size: 3
    weight_filler {
      type: "xavier"
      std: 0.03
    }
    bias_filler {
      type: "constant"
      value: 0.2
    }
  }
}
layer {
  name: "inception_4e/relu_3x3"
  type: "ReLU"
  bottom: "inception_4e/3x3"
  top: "inception_4e/3x3"
}
layer {
  name: "inception_4e/5x5_reduce"
  type: "Convolution"
  bottom: "inception_4d/output"
  top: "inception_4e/5x5_reduce"
  param {
    lr_mult: 1
    decay_mult: 1
  }
  param {
    lr_mult: 2
    decay_mult: 0
  }
  convolution_param {
    num_output: 32
    kernel_size: 1
    weight_filler {
      type: "xavier"
      std: 0.2
    }
    bias_filler {
      type: "constant"
      value: 0.2
    }
  }
}
layer {
  name: "inception_4e/relu_5x5_reduce"
  type: "ReLU"
  bottom: "inception_4e/5x5_reduce"
  top: "inception_4e/5x5_reduce"
}
layer {
  name: "inception_4e/5x5"
  type: "Convolution"
  bottom: "inception_4e/5x5_reduce"
  top: "inception_4e/
I0403 18:37:00.504714  7181 layer_factory.hpp:77] Creating layer data
I0403 18:37:00.505345  7181 net.cpp:91] Creating Layer data
I0403 18:37:00.505378  7181 net.cpp:399] data -> data
I0403 18:37:00.505431  7181 net.cpp:399] data -> label
I0403 18:37:00.505470  7181 data_transformer.cpp:25] Loading mean file from: /home/mohanty/data/final_dataset/lmdb/grayscale-40-60/mean.binaryproto
I0403 18:37:00.506543  7183 db_lmdb.cpp:38] Opened lmdb /home/mohanty/data/final_dataset/lmdb/grayscale-40-60/test_db
I0403 18:37:00.519316  7181 data_layer.cpp:41] output data size: 24,3,224,224
I0403 18:37:00.548745  7181 net.cpp:141] Setting up data
I0403 18:37:00.548861  7181 net.cpp:148] Top shape: 24 3 224 224 (3612672)
I0403 18:37:00.548887  7181 net.cpp:148] Top shape: 24 (24)
I0403 18:37:00.548903  7181 net.cpp:156] Memory required for data: 14450784
I0403 18:37:00.548934  7181 layer_factory.hpp:77] Creating layer label_data_1_split
I0403 18:37:00.548962  7181 net.cpp:91] Creating Layer label_data_1_split
I0403 18:37:00.548981  7181 net.cpp:425] label_data_1_split <- label
I0403 18:37:00.549016  7181 net.cpp:399] label_data_1_split -> label_data_1_split_0
I0403 18:37:00.549046  7181 net.cpp:399] label_data_1_split -> label_data_1_split_1
I0403 18:37:00.549069  7181 net.cpp:399] label_data_1_split -> label_data_1_split_2
I0403 18:37:00.549093  7181 net.cpp:399] label_data_1_split -> label_data_1_split_3
I0403 18:37:00.549114  7181 net.cpp:399] label_data_1_split -> label_data_1_split_4
I0403 18:37:00.549136  7181 net.cpp:399] label_data_1_split -> label_data_1_split_5
I0403 18:37:00.549157  7181 net.cpp:399] label_data_1_split -> label_data_1_split_6
I0403 18:37:00.549180  7181 net.cpp:399] label_data_1_split -> label_data_1_split_7
I0403 18:37:00.549201  7181 net.cpp:399] label_data_1_split -> label_data_1_split_8
I0403 18:37:00.549224  7181 net.cpp:399] label_data_1_split -> label_data_1_split_9
I0403 18:37:00.549355  7181 net.cpp:141] Setting up label_data_1_split
I0403 18:37:00.549381  7181 net.cpp:148] Top shape: 24 (24)
I0403 18:37:00.549399  7181 net.cpp:148] Top shape: 24 (24)
I0403 18:37:00.549417  7181 net.cpp:148] Top shape: 24 (24)
I0403 18:37:00.549434  7181 net.cpp:148] Top shape: 24 (24)
I0403 18:37:00.549453  7181 net.cpp:148] Top shape: 24 (24)
I0403 18:37:00.549469  7181 net.cpp:148] Top shape: 24 (24)
I0403 18:37:00.549486  7181 net.cpp:148] Top shape: 24 (24)
I0403 18:37:00.549504  7181 net.cpp:148] Top shape: 24 (24)
I0403 18:37:00.549520  7181 net.cpp:148] Top shape: 24 (24)
I0403 18:37:00.549538  7181 net.cpp:148] Top shape: 24 (24)
I0403 18:37:00.549588  7181 net.cpp:156] Memory required for data: 14451744
I0403 18:37:00.549607  7181 layer_factory.hpp:77] Creating layer conv1/7x7_s2
I0403 18:37:00.549639  7181 net.cpp:91] Creating Layer conv1/7x7_s2
I0403 18:37:00.549660  7181 net.cpp:425] conv1/7x7_s2 <- data
I0403 18:37:00.549681  7181 net.cpp:399] conv1/7x7_s2 -> conv1/7x7_s2
I0403 18:37:00.698421  7181 net.cpp:141] Setting up conv1/7x7_s2
I0403 18:37:00.698534  7181 net.cpp:148] Top shape: 24 64 112 112 (19267584)
I0403 18:37:00.698554  7181 net.cpp:156] Memory required for data: 91522080
I0403 18:37:00.698585  7181 layer_factory.hpp:77] Creating layer conv1/relu_7x7
I0403 18:37:00.698614  7181 net.cpp:91] Creating Layer conv1/relu_7x7
I0403 18:37:00.698634  7181 net.cpp:425] conv1/relu_7x7 <- conv1/7x7_s2
I0403 18:37:00.698654  7181 net.cpp:386] conv1/relu_7x7 -> conv1/7x7_s2 (in-place)
I0403 18:37:00.698922  7181 net.cpp:141] Setting up conv1/relu_7x7
I0403 18:37:00.698951  7181 net.cpp:148] Top shape: 24 64 112 112 (19267584)
I0403 18:37:00.698968  7181 net.cpp:156] Memory required for data: 168592416
I0403 18:37:00.698984  7181 layer_factory.hpp:77] Creating layer pool1/3x3_s2
I0403 18:37:00.699010  7181 net.cpp:91] Creating Layer pool1/3x3_s2
I0403 18:37:00.699030  7181 net.cpp:425] pool1/3x3_s2 <- conv1/7x7_s2
I0403 18:37:00.699050  7181 net.cpp:399] pool1/3x3_s2 -> pool1/3x3_s2
I0403 18:37:00.699126  7181 net.cpp:141] Setting up pool1/3x3_s2
I0403 18:37:00.699151  7181 net.cpp:148] Top shape: 24 64 56 56 (4816896)
I0403 18:37:00.699168  7181 net.cpp:156] Memory required for data: 187860000
I0403 18:37:00.699185  7181 layer_factory.hpp:77] Creating layer pool1/norm1
I0403 18:37:00.699210  7181 net.cpp:91] Creating Layer pool1/norm1
I0403 18:37:00.699229  7181 net.cpp:425] pool1/norm1 <- pool1/3x3_s2
I0403 18:37:00.699249  7181 net.cpp:399] pool1/norm1 -> pool1/norm1
I0403 18:37:00.699545  7181 net.cpp:141] Setting up pool1/norm1
I0403 18:37:00.699574  7181 net.cpp:148] Top shape: 24 64 56 56 (4816896)
I0403 18:37:00.699591  7181 net.cpp:156] Memory required for data: 207127584
I0403 18:37:00.699607  7181 layer_factory.hpp:77] Creating layer conv2/3x3_reduce
I0403 18:37:00.699635  7181 net.cpp:91] Creating Layer conv2/3x3_reduce
I0403 18:37:00.699653  7181 net.cpp:425] conv2/3x3_reduce <- pool1/norm1
I0403 18:37:00.699673  7181 net.cpp:399] conv2/3x3_reduce -> conv2/3x3_reduce
I0403 18:37:00.701136  7181 net.cpp:141] Setting up conv2/3x3_reduce
I0403 18:37:00.701169  7181 net.cpp:148] Top shape: 24 64 56 56 (4816896)
I0403 18:37:00.701187  7181 net.cpp:156] Memory required for data: 226395168
I0403 18:37:00.701210  7181 layer_factory.hpp:77] Creating layer conv2/relu_3x3_reduce
I0403 18:37:00.701230  7181 net.cpp:91] Creating Layer conv2/relu_3x3_reduce
I0403 18:37:00.701247  7181 net.cpp:425] conv2/relu_3x3_reduce <- conv2/3x3_reduce
I0403 18:37:00.701267  7181 net.cpp:386] conv2/relu_3x3_reduce -> conv2/3x3_reduce (in-place)
I0403 18:37:00.701550  7181 net.cpp:141] Setting up conv2/relu_3x3_reduce
I0403 18:37:00.701580  7181 net.cpp:148] Top shape: 24 64 56 56 (4816896)
I0403 18:37:00.701596  7181 net.cpp:156] Memory required for data: 245662752
I0403 18:37:00.701611  7181 layer_factory.hpp:77] Creating layer conv2/3x3
I0403 18:37:00.701638  7181 net.cpp:91] Creating Layer conv2/3x3
I0403 18:37:00.701658  7181 net.cpp:425] conv2/3x3 <- conv2/3x3_reduce
I0403 18:37:00.701683  7181 net.cpp:399] conv2/3x3 -> conv2/3x3
I0403 18:37:00.704120  7181 net.cpp:141] Setting up conv2/3x3
I0403 18:37:00.704157  7181 net.cpp:148] Top shape: 24 192 56 56 (14450688)
I0403 18:37:00.704176  7181 net.cpp:156] Memory required for data: 303465504
I0403 18:37:00.704200  7181 layer_factory.hpp:77] Creating layer conv2/relu_3x3
I0403 18:37:00.704224  7181 net.cpp:91] Creating Layer conv2/relu_3x3
I0403 18:37:00.704244  7181 net.cpp:425] conv2/relu_3x3 <- conv2/3x3
I0403 18:37:00.704264  7181 net.cpp:386] conv2/relu_3x3 -> conv2/3x3 (in-place)
I0403 18:37:00.704458  7181 net.cpp:141] Setting up conv2/relu_3x3
I0403 18:37:00.704489  7181 net.cpp:148] Top shape: 24 192 56 56 (14450688)
I0403 18:37:00.704545  7181 net.cpp:156] Memory required for data: 361268256
I0403 18:37:00.704562  7181 layer_factory.hpp:77] Creating layer conv2/norm2
I0403 18:37:00.704584  7181 net.cpp:91] Creating Layer conv2/norm2
I0403 18:37:00.704602  7181 net.cpp:425] conv2/norm2 <- conv2/3x3
I0403 18:37:00.704623  7181 net.cpp:399] conv2/norm2 -> conv2/norm2
I0403 18:37:00.704947  7181 net.cpp:141] Setting up conv2/norm2
I0403 18:37:00.704977  7181 net.cpp:148] Top shape: 24 192 56 56 (14450688)
I0403 18:37:00.704994  7181 net.cpp:156] Memory required for data: 419071008
I0403 18:37:00.705011  7181 layer_factory.hpp:77] Creating layer pool2/3x3_s2
I0403 18:37:00.705031  7181 net.cpp:91] Creating Layer pool2/3x3_s2
I0403 18:37:00.705050  7181 net.cpp:425] pool2/3x3_s2 <- conv2/norm2
I0403 18:37:00.705072  7181 net.cpp:399] pool2/3x3_s2 -> pool2/3x3_s2
I0403 18:37:00.705129  7181 net.cpp:141] Setting up pool2/3x3_s2
I0403 18:37:00.705157  7181 net.cpp:148] Top shape: 24 192 28 28 (3612672)
I0403 18:37:00.705173  7181 net.cpp:156] Memory required for data: 433521696
I0403 18:37:00.705191  7181 layer_factory.hpp:77] Creating layer pool2/3x3_s2_pool2/3x3_s2_0_split
I0403 18:37:00.705215  7181 net.cpp:91] Creating Layer pool2/3x3_s2_pool2/3x3_s2_0_split
I0403 18:37:00.705232  7181 net.cpp:425] pool2/3x3_s2_pool2/3x3_s2_0_split <- pool2/3x3_s2
I0403 18:37:00.705251  7181 net.cpp:399] pool2/3x3_s2_pool2/3x3_s2_0_split -> pool2/3x3_s2_pool2/3x3_s2_0_split_0
I0403 18:37:00.705279  7181 net.cpp:399] pool2/3x3_s2_pool2/3x3_s2_0_split -> pool2/3x3_s2_pool2/3x3_s2_0_split_1
I0403 18:37:00.705305  7181 net.cpp:399] pool2/3x3_s2_pool2/3x3_s2_0_split -> pool2/3x3_s2_pool2/3x3_s2_0_split_2
I0403 18:37:00.705328  7181 net.cpp:399] pool2/3x3_s2_pool2/3x3_s2_0_split -> pool2/3x3_s2_pool2/3x3_s2_0_split_3
I0403 18:37:00.705406  7181 net.cpp:141] Setting up pool2/3x3_s2_pool2/3x3_s2_0_split
I0403 18:37:00.705432  7181 net.cpp:148] Top shape: 24 192 28 28 (3612672)
I0403 18:37:00.705451  7181 net.cpp:148] Top shape: 24 192 28 28 (3612672)
I0403 18:37:00.705469  7181 net.cpp:148] Top shape: 24 192 28 28 (3612672)
I0403 18:37:00.705487  7181 net.cpp:148] Top shape: 24 192 28 28 (3612672)
I0403 18:37:00.705502  7181 net.cpp:156] Memory required for data: 491324448
I0403 18:37:00.705520  7181 layer_factory.hpp:77] Creating layer inception_3a/1x1
I0403 18:37:00.705544  7181 net.cpp:91] Creating Layer inception_3a/1x1
I0403 18:37:00.705564  7181 net.cpp:425] inception_3a/1x1 <- pool2/3x3_s2_pool2/3x3_s2_0_split_0
I0403 18:37:00.705587  7181 net.cpp:399] inception_3a/1x1 -> inception_3a/1x1
I0403 18:37:00.707252  7181 net.cpp:141] Setting up inception_3a/1x1
I0403 18:37:00.707289  7181 net.cpp:148] Top shape: 24 64 28 28 (1204224)
I0403 18:37:00.707309  7181 net.cpp:156] Memory required for data: 496141344
I0403 18:37:00.707331  7181 layer_factory.hpp:77] Creating layer inception_3a/relu_1x1
I0403 18:37:00.707352  7181 net.cpp:91] Creating Layer inception_3a/relu_1x1
I0403 18:37:00.707376  7181 net.cpp:425] inception_3a/relu_1x1 <- inception_3a/1x1
I0403 18:37:00.707394  7181 net.cpp:386] inception_3a/relu_1x1 -> inception_3a/1x1 (in-place)
I0403 18:37:00.707576  7181 net.cpp:141] Setting up inception_3a/relu_1x1
I0403 18:37:00.707604  7181 net.cpp:148] Top shape: 24 64 28 28 (1204224)
I0403 18:37:00.707622  7181 net.cpp:156] Memory required for data: 500958240
I0403 18:37:00.707638  7181 layer_factory.hpp:77] Creating layer inception_3a/3x3_reduce
I0403 18:37:00.707662  7181 net.cpp:91] Creating Layer inception_3a/3x3_reduce
I0403 18:37:00.707684  7181 net.cpp:425] inception_3a/3x3_reduce <- pool2/3x3_s2_pool2/3x3_s2_0_split_1
I0403 18:37:00.707706  7181 net.cpp:399] inception_3a/3x3_reduce -> inception_3a/3x3_reduce
I0403 18:37:00.709507  7181 net.cpp:141] Setting up inception_3a/3x3_reduce
I0403 18:37:00.709540  7181 net.cpp:148] Top shape: 24 96 28 28 (1806336)
I0403 18:37:00.709559  7181 net.cpp:156] Memory required for data: 508183584
I0403 18:37:00.709583  7181 layer_factory.hpp:77] Creating layer inception_3a/relu_3x3_reduce
I0403 18:37:00.709627  7181 net.cpp:91] Creating Layer inception_3a/relu_3x3_reduce
I0403 18:37:00.709648  7181 net.cpp:425] inception_3a/relu_3x3_reduce <- inception_3a/3x3_reduce
I0403 18:37:00.709668  7181 net.cpp:386] inception_3a/relu_3x3_reduce -> inception_3a/3x3_reduce (in-place)
I0403 18:37:00.709861  7181 net.cpp:141] Setting up inception_3a/relu_3x3_reduce
I0403 18:37:00.709888  7181 net.cpp:148] Top shape: 24 96 28 28 (1806336)
I0403 18:37:00.709905  7181 net.cpp:156] Memory required for data: 515408928
I0403 18:37:00.709921  7181 layer_factory.hpp:77] Creating layer inception_3a/3x3
I0403 18:37:00.709945  7181 net.cpp:91] Creating Layer inception_3a/3x3
I0403 18:37:00.709964  7181 net.cpp:425] inception_3a/3x3 <- inception_3a/3x3_reduce
I0403 18:37:00.709990  7181 net.cpp:399] inception_3a/3x3 -> inception_3a/3x3
I0403 18:37:00.711705  7181 net.cpp:141] Setting up inception_3a/3x3
I0403 18:37:00.711736  7181 net.cpp:148] Top shape: 24 128 28 28 (2408448)
I0403 18:37:00.711755  7181 net.cpp:156] Memory required for data: 525042720
I0403 18:37:00.711777  7181 layer_factory.hpp:77] Creating layer inception_3a/relu_3x3
I0403 18:37:00.711799  7181 net.cpp:91] Creating Layer inception_3a/relu_3x3
I0403 18:37:00.711818  7181 net.cpp:425] inception_3a/relu_3x3 <- inception_3a/3x3
I0403 18:37:00.711838  7181 net.cpp:386] inception_3a/relu_3x3 -> inception_3a/3x3 (in-place)
I0403 18:37:00.712118  7181 net.cpp:141] Setting up inception_3a/relu_3x3
I0403 18:37:00.712147  7181 net.cpp:148] Top shape: 24 128 28 28 (2408448)
I0403 18:37:00.712164  7181 net.cpp:156] Memory required for data: 534676512
I0403 18:37:00.712182  7181 layer_factory.hpp:77] Creating layer inception_3a/5x5_reduce
I0403 18:37:00.712208  7181 net.cpp:91] Creating Layer inception_3a/5x5_reduce
I0403 18:37:00.712227  7181 net.cpp:425] inception_3a/5x5_reduce <- pool2/3x3_s2_pool2/3x3_s2_0_split_2
I0403 18:37:00.712249  7181 net.cpp:399] inception_3a/5x5_reduce -> inception_3a/5x5_reduce
I0403 18:37:00.713244  7181 net.cpp:141] Setting up inception_3a/5x5_reduce
I0403 18:37:00.713279  7181 net.cpp:148] Top shape: 24 16 28 28 (301056)
I0403 18:37:00.713299  7181 net.cpp:156] Memory required for data: 535880736
I0403 18:37:00.713320  7181 layer_factory.hpp:77] Creating layer inception_3a/relu_5x5_reduce
I0403 18:37:00.713346  7181 net.cpp:91] Creating Layer inception_3a/relu_5x5_reduce
I0403 18:37:00.713367  7181 net.cpp:425] inception_3a/relu_5x5_reduce <- inception_3a/5x5_reduce
I0403 18:37:00.713387  7181 net.cpp:386] inception_3a/relu_5x5_reduce -> inception_3a/5x5_reduce (in-place)
I0403 18:37:00.713687  7181 net.cpp:141] Setting up inception_3a/relu_5x5_reduce
I0403 18:37:00.713718  7181 net.cpp:148] Top shape: 24 16 28 28 (301056)
I0403 18:37:00.713738  7181 net.cpp:156] Memory required for data: 537084960
I0403 18:37:00.713755  7181 layer_factory.hpp:77] Creating layer inception_3a/5x5
I0403 18:37:00.713779  7181 net.cpp:91] Creating Layer inception_3a/5x5
I0403 18:37:00.713799  7181 net.cpp:425] inception_3a/5x5 <- inception_3a/5x5_reduce
I0403 18:37:00.713819  7181 net.cpp:399] inception_3a/5x5 -> inception_3a/5x5
I0403 18:37:00.714859  7181 net.cpp:141] Setting up inception_3a/5x5
I0403 18:37:00.714890  7181 net.cpp:148] Top shape: 24 32 28 28 (602112)
I0403 18:37:00.714907  7181 net.cpp:156] Memory required for data: 539493408
I0403 18:37:00.714928  7181 layer_factory.hpp:77] Creating layer inception_3a/relu_5x5
I0403 18:37:00.714952  7181 net.cpp:91] Creating Layer inception_3a/relu_5x5
I0403 18:37:00.714970  7181 net.cpp:425] inception_3a/relu_5x5 <- inception_3a/5x5
I0403 18:37:00.714989  7181 net.cpp:386] inception_3a/relu_5x5 -> inception_3a/5x5 (in-place)
I0403 18:37:00.715165  7181 net.cpp:141] Setting up inception_3a/relu_5x5
I0403 18:37:00.715194  7181 net.cpp:148] Top shape: 24 32 28 28 (602112)
I0403 18:37:00.715211  7181 net.cpp:156] Memory required for data: 541901856
I0403 18:37:00.715229  7181 layer_factory.hpp:77] Creating layer inception_3a/pool
I0403 18:37:00.715250  7181 net.cpp:91] Creating Layer inception_3a/pool
I0403 18:37:00.715286  7181 net.cpp:425] inception_3a/pool <- pool2/3x3_s2_pool2/3x3_s2_0_split_3
I0403 18:37:00.715308  7181 net.cpp:399] inception_3a/pool -> inception_3a/pool
I0403 18:37:00.715369  7181 net.cpp:141] Setting up inception_3a/pool
I0403 18:37:00.715394  7181 net.cpp:148] Top shape: 24 192 28 28 (3612672)
I0403 18:37:00.715411  7181 net.cpp:156] Memory required for data: 556352544
I0403 18:37:00.715428  7181 layer_factory.hpp:77] Creating layer inception_3a/pool_proj
I0403 18:37:00.715451  7181 net.cpp:91] Creating Layer inception_3a/pool_proj
I0403 18:37:00.715471  7181 net.cpp:425] inception_3a/pool_proj <- inception_3a/pool
I0403 18:37:00.715494  7181 net.cpp:399] inception_3a/pool_proj -> inception_3a/pool_proj
I0403 18:37:00.716478  7181 net.cpp:141] Setting up inception_3a/pool_proj
I0403 18:37:00.716513  7181 net.cpp:148] Top shape: 24 32 28 28 (602112)
I0403 18:37:00.716531  7181 net.cpp:156] Memory required for data: 558760992
I0403 18:37:00.716554  7181 layer_factory.hpp:77] Creating layer inception_3a/relu_pool_proj
I0403 18:37:00.716575  7181 net.cpp:91] Creating Layer inception_3a/relu_pool_proj
I0403 18:37:00.716604  7181 net.cpp:425] inception_3a/relu_pool_proj <- inception_3a/pool_proj
I0403 18:37:00.716624  7181 net.cpp:386] inception_3a/relu_pool_proj -> inception_3a/pool_proj (in-place)
I0403 18:37:00.716899  7181 net.cpp:141] Setting up inception_3a/relu_pool_proj
I0403 18:37:00.716928  7181 net.cpp:148] Top shape: 24 32 28 28 (602112)
I0403 18:37:00.716943  7181 net.cpp:156] Memory required for data: 561169440
I0403 18:37:00.716959  7181 layer_factory.hpp:77] Creating layer inception_3a/output
I0403 18:37:00.716981  7181 net.cpp:91] Creating Layer inception_3a/output
I0403 18:37:00.717000  7181 net.cpp:425] inception_3a/output <- inception_3a/1x1
I0403 18:37:00.717017  7181 net.cpp:425] inception_3a/output <- inception_3a/3x3
I0403 18:37:00.717036  7181 net.cpp:425] inception_3a/output <- inception_3a/5x5
I0403 18:37:00.717052  7181 net.cpp:425] inception_3a/output <- inception_3a/pool_proj
I0403 18:37:00.717069  7181 net.cpp:399] inception_3a/output -> inception_3a/output
I0403 18:37:00.717118  7181 net.cpp:141] Setting up inception_3a/output
I0403 18:37:00.717144  7181 net.cpp:148] Top shape: 24 256 28 28 (4816896)
I0403 18:37:00.717161  7181 net.cpp:156] Memory required for data: 580437024
I0403 18:37:00.717178  7181 layer_factory.hpp:77] Creating layer inception_3a/output_inception_3a/output_0_split
I0403 18:37:00.717196  7181 net.cpp:91] Creating Layer inception_3a/output_inception_3a/output_0_split
I0403 18:37:00.717211  7181 net.cpp:425] inception_3a/output_inception_3a/output_0_split <- inception_3a/output
I0403 18:37:00.717231  7181 net.cpp:399] inception_3a/output_inception_3a/output_0_split -> inception_3a/output_inception_3a/output_0_split_0
I0403 18:37:00.717254  7181 net.cpp:399] inception_3a/output_inception_3a/output_0_split -> inception_3a/output_inception_3a/output_0_split_1
I0403 18:37:00.717283  7181 net.cpp:399] inception_3a/output_inception_3a/output_0_split -> inception_3a/output_inception_3a/output_0_split_2
I0403 18:37:00.717306  7181 net.cpp:399] inception_3a/output_inception_3a/output_0_split -> inception_3a/output_inception_3a/output_0_split_3
I0403 18:37:00.717386  7181 net.cpp:141] Setting up inception_3a/output_inception_3a/output_0_split
I0403 18:37:00.717409  7181 net.cpp:148] Top shape: 24 256 28 28 (4816896)
I0403 18:37:00.717427  7181 net.cpp:148] Top shape: 24 256 28 28 (4816896)
I0403 18:37:00.717443  7181 net.cpp:148] Top shape: 24 256 28 28 (4816896)
I0403 18:37:00.717460  7181 net.cpp:148] Top shape: 24 256 28 28 (4816896)
I0403 18:37:00.717475  7181 net.cpp:156] Memory required for data: 657507360
I0403 18:37:00.717490  7181 layer_factory.hpp:77] Creating layer inception_3b/1x1
I0403 18:37:00.717514  7181 net.cpp:91] Creating Layer inception_3b/1x1
I0403 18:37:00.717532  7181 net.cpp:425] inception_3b/1x1 <- inception_3a/output_inception_3a/output_0_split_0
I0403 18:37:00.717555  7181 net.cpp:399] inception_3b/1x1 -> inception_3b/1x1
I0403 18:37:00.718713  7181 net.cpp:141] Setting up inception_3b/1x1
I0403 18:37:00.718755  7181 net.cpp:148] Top shape: 24 128 28 28 (2408448)
I0403 18:37:00.718773  7181 net.cpp:156] Memory required for data: 667141152
I0403 18:37:00.718793  7181 layer_factory.hpp:77] Creating layer inception_3b/relu_1x1
I0403 18:37:00.718812  7181 net.cpp:91] Creating Layer inception_3b/relu_1x1
I0403 18:37:00.718829  7181 net.cpp:425] inception_3b/relu_1x1 <- inception_3b/1x1
I0403 18:37:00.718850  7181 net.cpp:386] inception_3b/relu_1x1 -> inception_3b/1x1 (in-place)
I0403 18:37:00.719030  7181 net.cpp:141] Setting up inception_3b/relu_1x1
I0403 18:37:00.719058  7181 net.cpp:148] Top shape: 24 128 28 28 (2408448)
I0403 18:37:00.719072  7181 net.cpp:156] Memory required for data: 676774944
I0403 18:37:00.719087  7181 layer_factory.hpp:77] Creating layer inception_3b/3x3_reduce
I0403 18:37:00.719111  7181 net.cpp:91] Creating Layer inception_3b/3x3_reduce
I0403 18:37:00.719128  7181 net.cpp:425] inception_3b/3x3_reduce <- inception_3a/output_inception_3a/output_0_split_1
I0403 18:37:00.719151  7181 net.cpp:399] inception_3b/3x3_reduce -> inception_3b/3x3_reduce
I0403 18:37:00.720319  7181 net.cpp:141] Setting up inception_3b/3x3_reduce
I0403 18:37:00.720351  7181 net.cpp:148] Top shape: 24 128 28 28 (2408448)
I0403 18:37:00.720371  7181 net.cpp:156] Memory required for data: 686408736
I0403 18:37:00.720394  7181 layer_factory.hpp:77] Creating layer inception_3b/relu_3x3_reduce
I0403 18:37:00.720415  7181 net.cpp:91] Creating Layer inception_3b/relu_3x3_reduce
I0403 18:37:00.720433  7181 net.cpp:425] inception_3b/relu_3x3_reduce <- inception_3b/3x3_reduce
I0403 18:37:00.720455  7181 net.cpp:386] inception_3b/relu_3x3_reduce -> inception_3b/3x3_reduce (in-place)
I0403 18:37:00.720636  7181 net.cpp:141] Setting up inception_3b/relu_3x3_reduce
I0403 18:37:00.720665  7181 net.cpp:148] Top shape: 24 128 28 28 (2408448)
I0403 18:37:00.720684  7181 net.cpp:156] Memory required for data: 696042528
I0403 18:37:00.720700  7181 layer_factory.hpp:77] Creating layer inception_3b/3x3
I0403 18:37:00.720727  7181 net.cpp:91] Creating Layer inception_3b/3x3
I0403 18:37:00.720747  7181 net.cpp:425] inception_3b/3x3 <- inception_3b/3x3_reduce
I0403 18:37:00.720768  7181 net.cpp:399] inception_3b/3x3 -> inception_3b/3x3
I0403 18:37:00.723769  7181 net.cpp:141] Setting up inception_3b/3x3
I0403 18:37:00.723801  7181 net.cpp:148] Top shape: 24 192 28 28 (3612672)
I0403 18:37:00.723817  7181 net.cpp:156] Memory required for data: 710493216
I0403 18:37:00.723837  7181 layer_factory.hpp:77] Creating layer inception_3b/relu_3x3
I0403 18:37:00.723860  7181 net.cpp:91] Creating Layer inception_3b/relu_3x3
I0403 18:37:00.723878  7181 net.cpp:425] inception_3b/relu_3x3 <- inception_3b/3x3
I0403 18:37:00.723896  7181 net.cpp:386] inception_3b/relu_3x3 -> inception_3b/3x3 (in-place)
I0403 18:37:00.724175  7181 net.cpp:141] Setting up inception_3b/relu_3x3
I0403 18:37:00.724203  7181 net.cpp:148] Top shape: 24 192 28 28 (3612672)
I0403 18:37:00.724220  7181 net.cpp:156] Memory required for data: 724943904
I0403 18:37:00.724236  7181 layer_factory.hpp:77] Creating layer inception_3b/5x5_reduce
I0403 18:37:00.724258  7181 net.cpp:91] Creating Layer inception_3b/5x5_reduce
I0403 18:37:00.724282  7181 net.cpp:425] inception_3b/5x5_reduce <- inception_3a/output_inception_3a/output_0_split_2
I0403 18:37:00.724308  7181 net.cpp:399] inception_3b/5x5_reduce -> inception_3b/5x5_reduce
I0403 18:37:00.725320  7181 net.cpp:141] Setting up inception_3b/5x5_reduce
I0403 18:37:00.725350  7181 net.cpp:148] Top shape: 24 32 28 28 (602112)
I0403 18:37:00.725366  7181 net.cpp:156] Memory required for data: 727352352
I0403 18:37:00.725386  7181 layer_factory.hpp:77] Creating layer inception_3b/relu_5x5_reduce
I0403 18:37:00.725409  7181 net.cpp:91] Creating Layer inception_3b/relu_5x5_reduce
I0403 18:37:00.725427  7181 net.cpp:425] inception_3b/relu_5x5_reduce <- inception_3b/5x5_reduce
I0403 18:37:00.725445  7181 net.cpp:386] inception_3b/relu_5x5_reduce -> inception_3b/5x5_reduce (in-place)
I0403 18:37:00.725639  7181 net.cpp:141] Setting up inception_3b/relu_5x5_reduce
I0403 18:37:00.725666  7181 net.cpp:148] Top shape: 24 32 28 28 (602112)
I0403 18:37:00.725682  7181 net.cpp:156] Memory required for data: 729760800
I0403 18:37:00.725697  7181 layer_factory.hpp:77] Creating layer inception_3b/5x5
I0403 18:37:00.725723  7181 net.cpp:91] Creating Layer inception_3b/5x5
I0403 18:37:00.725741  7181 net.cpp:425] inception_3b/5x5 <- inception_3b/5x5_reduce
I0403 18:37:00.725760  7181 net.cpp:399] inception_3b/5x5 -> inception_3b/5x5
I0403 18:37:00.727774  7181 net.cpp:141] Setting up inception_3b/5x5
I0403 18:37:00.727809  7181 net.cpp:148] Top shape: 24 96 28 28 (1806336)
I0403 18:37:00.727829  7181 net.cpp:156] Memory required for data: 736986144
I0403 18:37:00.727849  7181 layer_factory.hpp:77] Creating layer inception_3b/relu_5x5
I0403 18:37:00.727869  7181 net.cpp:91] Creating Layer inception_3b/relu_5x5
I0403 18:37:00.727887  7181 net.cpp:425] inception_3b/relu_5x5 <- inception_3b/5x5
I0403 18:37:00.727910  7181 net.cpp:386] inception_3b/relu_5x5 -> inception_3b/5x5 (in-place)
I0403 18:37:00.728106  7181 net.cpp:141] Setting up inception_3b/relu_5x5
I0403 18:37:00.728134  7181 net.cpp:148] Top shape: 24 96 28 28 (1806336)
I0403 18:37:00.728149  7181 net.cpp:156] Memory required for data: 744211488
I0403 18:37:00.728165  7181 layer_factory.hpp:77] Creating layer inception_3b/pool
I0403 18:37:00.728185  7181 net.cpp:91] Creating Layer inception_3b/pool
I0403 18:37:00.728201  7181 net.cpp:425] inception_3b/pool <- inception_3a/output_inception_3a/output_0_split_3
I0403 18:37:00.728220  7181 net.cpp:399] inception_3b/pool -> inception_3b/pool
I0403 18:37:00.728286  7181 net.cpp:141] Setting up inception_3b/pool
I0403 18:37:00.728310  7181 net.cpp:148] Top shape: 24 256 28 28 (4816896)
I0403 18:37:00.728327  7181 net.cpp:156] Memory required for data: 763479072
I0403 18:37:00.728341  7181 layer_factory.hpp:77] Creating layer inception_3b/pool_proj
I0403 18:37:00.728365  7181 net.cpp:91] Creating Layer inception_3b/pool_proj
I0403 18:37:00.728384  7181 net.cpp:425] inception_3b/pool_proj <- inception_3b/pool
I0403 18:37:00.728406  7181 net.cpp:399] inception_3b/pool_proj -> inception_3b/pool_proj
I0403 18:37:00.729486  7181 net.cpp:141] Setting up inception_3b/pool_proj
I0403 18:37:00.729516  7181 net.cpp:148] Top shape: 24 64 28 28 (1204224)
I0403 18:37:00.729534  7181 net.cpp:156] Memory required for data: 768295968
I0403 18:37:00.729555  7181 layer_factory.hpp:77] Creating layer inception_3b/relu_pool_proj
I0403 18:37:00.729579  7181 net.cpp:91] Creating Layer inception_3b/relu_pool_proj
I0403 18:37:00.729599  7181 net.cpp:425] inception_3b/relu_pool_proj <- inception_3b/pool_proj
I0403 18:37:00.729617  7181 net.cpp:386] inception_3b/relu_pool_proj -> inception_3b/pool_proj (in-place)
I0403 18:37:00.730006  7181 net.cpp:141] Setting up inception_3b/relu_pool_proj
I0403 18:37:00.730036  7181 net.cpp:148] Top shape: 24 64 28 28 (1204224)
I0403 18:37:00.730052  7181 net.cpp:156] Memory required for data: 773112864
I0403 18:37:00.730069  7181 layer_factory.hpp:77] Creating layer inception_3b/output
I0403 18:37:00.730089  7181 net.cpp:91] Creating Layer inception_3b/output
I0403 18:37:00.730108  7181 net.cpp:425] inception_3b/output <- inception_3b/1x1
I0403 18:37:00.730126  7181 net.cpp:425] inception_3b/output <- inception_3b/3x3
I0403 18:37:00.730144  7181 net.cpp:425] inception_3b/output <- inception_3b/5x5
I0403 18:37:00.730159  7181 net.cpp:425] inception_3b/output <- inception_3b/pool_proj
I0403 18:37:00.730177  7181 net.cpp:399] inception_3b/output -> inception_3b/output
I0403 18:37:00.730224  7181 net.cpp:141] Setting up inception_3b/output
I0403 18:37:00.730248  7181 net.cpp:148] Top shape: 24 480 28 28 (9031680)
I0403 18:37:00.730263  7181 net.cpp:156] Memory required for data: 809239584
I0403 18:37:00.730283  7181 layer_factory.hpp:77] Creating layer pool3/3x3_s2
I0403 18:37:00.730303  7181 net.cpp:91] Creating Layer pool3/3x3_s2
I0403 18:37:00.730319  7181 net.cpp:425] pool3/3x3_s2 <- inception_3b/output
I0403 18:37:00.730358  7181 net.cpp:399] pool3/3x3_s2 -> pool3/3x3_s2
I0403 18:37:00.730422  7181 net.cpp:141] Setting up pool3/3x3_s2
I0403 18:37:00.730446  7181 net.cpp:148] Top shape: 24 480 14 14 (2257920)
I0403 18:37:00.730461  7181 net.cpp:156] Memory required for data: 818271264
I0403 18:37:00.730476  7181 layer_factory.hpp:77] Creating layer pool3/3x3_s2_pool3/3x3_s2_0_split
I0403 18:37:00.730494  7181 net.cpp:91] Creating Layer pool3/3x3_s2_pool3/3x3_s2_0_split
I0403 18:37:00.730509  7181 net.cpp:425] pool3/3x3_s2_pool3/3x3_s2_0_split <- pool3/3x3_s2
I0403 18:37:00.730527  7181 net.cpp:399] pool3/3x3_s2_pool3/3x3_s2_0_split -> pool3/3x3_s2_pool3/3x3_s2_0_split_0
I0403 18:37:00.730551  7181 net.cpp:399] pool3/3x3_s2_pool3/3x3_s2_0_split -> pool3/3x3_s2_pool3/3x3_s2_0_split_1
I0403 18:37:00.730572  7181 net.cpp:399] pool3/3x3_s2_pool3/3x3_s2_0_split -> pool3/3x3_s2_pool3/3x3_s2_0_split_2
I0403 18:37:00.730592  7181 net.cpp:399] pool3/3x3_s2_pool3/3x3_s2_0_split -> pool3/3x3_s2_pool3/3x3_s2_0_split_3
I0403 18:37:00.730672  7181 net.cpp:141] Setting up pool3/3x3_s2_pool3/3x3_s2_0_split
I0403 18:37:00.730696  7181 net.cpp:148] Top shape: 24 480 14 14 (2257920)
I0403 18:37:00.730715  7181 net.cpp:148] Top shape: 24 480 14 14 (2257920)
I0403 18:37:00.730731  7181 net.cpp:148] Top shape: 24 480 14 14 (2257920)
I0403 18:37:00.730746  7181 net.cpp:148] Top shape: 24 480 14 14 (2257920)
I0403 18:37:00.730762  7181 net.cpp:156] Memory required for data: 854397984
I0403 18:37:00.730777  7181 layer_factory.hpp:77] Creating layer inception_4a/1x1
I0403 18:37:00.730800  7181 net.cpp:91] Creating Layer inception_4a/1x1
I0403 18:37:00.730818  7181 net.cpp:425] inception_4a/1x1 <- pool3/3x3_s2_pool3/3x3_s2_0_split_0
I0403 18:37:00.730837  7181 net.cpp:399] inception_4a/1x1 -> inception_4a/1x1
I0403 18:37:00.732491  7181 net.cpp:141] Setting up inception_4a/1x1
I0403 18:37:00.732524  7181 net.cpp:148] Top shape: 24 192 14 14 (903168)
I0403 18:37:00.732542  7181 net.cpp:156] Memory required for data: 858010656
I0403 18:37:00.732561  7181 layer_factory.hpp:77] Creating layer inception_4a/relu_1x1
I0403 18:37:00.732580  7181 net.cpp:91] Creating Layer inception_4a/relu_1x1
I0403 18:37:00.732597  7181 net.cpp:425] inception_4a/relu_1x1 <- inception_4a/1x1
I0403 18:37:00.732619  7181 net.cpp:386] inception_4a/relu_1x1 -> inception_4a/1x1 (in-place)
I0403 18:37:00.732798  7181 net.cpp:141] Setting up inception_4a/relu_1x1
I0403 18:37:00.732827  7181 net.cpp:148] Top shape: 24 192 14 14 (903168)
I0403 18:37:00.732843  7181 net.cpp:156] Memory required for data: 861623328
I0403 18:37:00.732861  7181 layer_factory.hpp:77] Creating layer inception_4a/3x3_reduce
I0403 18:37:00.732884  7181 net.cpp:91] Creating Layer inception_4a/3x3_reduce
I0403 18:37:00.732903  7181 net.cpp:425] inception_4a/3x3_reduce <- pool3/3x3_s2_pool3/3x3_s2_0_split_1
I0403 18:37:00.732928  7181 net.cpp:399] inception_4a/3x3_reduce -> inception_4a/3x3_reduce
I0403 18:37:00.734222  7181 net.cpp:141] Setting up inception_4a/3x3_reduce
I0403 18:37:00.734256  7181 net.cpp:148] Top shape: 24 96 14 14 (451584)
I0403 18:37:00.734278  7181 net.cpp:156] Memory required for data: 863429664
I0403 18:37:00.734304  7181 layer_factory.hpp:77] Creating layer inception_4a/relu_3x3_reduce
I0403 18:37:00.734328  7181 net.cpp:91] Creating Layer inception_4a/relu_3x3_reduce
I0403 18:37:00.734347  7181 net.cpp:425] inception_4a/relu_3x3_reduce <- inception_4a/3x3_reduce
I0403 18:37:00.734366  7181 net.cpp:386] inception_4a/relu_3x3_reduce -> inception_4a/3x3_reduce (in-place)
I0403 18:37:00.734547  7181 net.cpp:141] Setting up inception_4a/relu_3x3_reduce
I0403 18:37:00.734575  7181 net.cpp:148] Top shape: 24 96 14 14 (451584)
I0403 18:37:00.734592  7181 net.cpp:156] Memory required for data: 865236000
I0403 18:37:00.734608  7181 layer_factory.hpp:77] Creating layer inception_4a/3x3
I0403 18:37:00.734632  7181 net.cpp:91] Creating Layer inception_4a/3x3
I0403 18:37:00.734649  7181 net.cpp:425] inception_4a/3x3 <- inception_4a/3x3_reduce
I0403 18:37:00.734671  7181 net.cpp:399] inception_4a/3x3 -> inception_4a/3x3
I0403 18:37:00.737396  7181 net.cpp:141] Setting up inception_4a/3x3
I0403 18:37:00.737428  7181 net.cpp:148] Top shape: 24 208 14 14 (978432)
I0403 18:37:00.737447  7181 net.cpp:156] Memory required for data: 869149728
I0403 18:37:00.737467  7181 layer_factory.hpp:77] Creating layer inception_4a/relu_3x3
I0403 18:37:00.737486  7181 net.cpp:91] Creating Layer inception_4a/relu_3x3
I0403 18:37:00.737504  7181 net.cpp:425] inception_4a/relu_3x3 <- inception_4a/3x3
I0403 18:37:00.737526  7181 net.cpp:386] inception_4a/relu_3x3 -> inception_4a/3x3 (in-place)
I0403 18:37:00.737807  7181 net.cpp:141] Setting up inception_4a/relu_3x3
I0403 18:37:00.737836  7181 net.cpp:148] Top shape: 24 208 14 14 (978432)
I0403 18:37:00.737851  7181 net.cpp:156] Memory required for data: 873063456
I0403 18:37:00.737867  7181 layer_factory.hpp:77] Creating layer inception_4a/5x5_reduce
I0403 18:37:00.737891  7181 net.cpp:91] Creating Layer inception_4a/5x5_reduce
I0403 18:37:00.737910  7181 net.cpp:425] inception_4a/5x5_reduce <- pool3/3x3_s2_pool3/3x3_s2_0_split_2
I0403 18:37:00.737932  7181 net.cpp:399] inception_4a/5x5_reduce -> inception_4a/5x5_reduce
I0403 18:37:00.738966  7181 net.cpp:141] Setting up inception_4a/5x5_reduce
I0403 18:37:00.738996  7181 net.cpp:148] Top shape: 24 16 14 14 (75264)
I0403 18:37:00.739014  7181 net.cpp:156] Memory required for data: 873364512
I0403 18:37:00.739035  7181 layer_factory.hpp:77] Creating layer inception_4a/relu_5x5_reduce
I0403 18:37:00.739058  7181 net.cpp:91] Creating Layer inception_4a/relu_5x5_reduce
I0403 18:37:00.739076  7181 net.cpp:425] inception_4a/relu_5x5_reduce <- inception_4a/5x5_reduce
I0403 18:37:00.739095  7181 net.cpp:386] inception_4a/relu_5x5_reduce -> inception_4a/5x5_reduce (in-place)
I0403 18:37:00.739284  7181 net.cpp:141] Setting up inception_4a/relu_5x5_reduce
I0403 18:37:00.739311  7181 net.cpp:148] Top shape: 24 16 14 14 (75264)
I0403 18:37:00.739327  7181 net.cpp:156] Memory required for data: 873665568
I0403 18:37:00.739344  7181 layer_factory.hpp:77] Creating layer inception_4a/5x5
I0403 18:37:00.739367  7181 net.cpp:91] Creating Layer inception_4a/5x5
I0403 18:37:00.739387  7181 net.cpp:425] inception_4a/5x5 <- inception_4a/5x5_reduce
I0403 18:37:00.739408  7181 net.cpp:399] inception_4a/5x5 -> inception_4a/5x5
I0403 18:37:00.740507  7181 net.cpp:141] Setting up inception_4a/5x5
I0403 18:37:00.740538  7181 net.cpp:148] Top shape: 24 48 14 14 (225792)
I0403 18:37:00.740556  7181 net.cpp:156] Memory required for data: 874568736
I0403 18:37:00.740576  7181 layer_factory.hpp:77] Creating layer inception_4a/relu_5x5
I0403 18:37:00.740598  7181 net.cpp:91] Creating Layer inception_4a/relu_5x5
I0403 18:37:00.740617  7181 net.cpp:425] inception_4a/relu_5x5 <- inception_4a/5x5
I0403 18:37:00.740635  7181 net.cpp:386] inception_4a/relu_5x5 -> inception_4a/5x5 (in-place)
I0403 18:37:00.740818  7181 net.cpp:141] Setting up inception_4a/relu_5x5
I0403 18:37:00.740849  7181 net.cpp:148] Top shape: 24 48 14 14 (225792)
I0403 18:37:00.740869  7181 net.cpp:156] Memory required for data: 875471904
I0403 18:37:00.740885  7181 layer_factory.hpp:77] Creating layer inception_4a/pool
I0403 18:37:00.740902  7181 net.cpp:91] Creating Layer inception_4a/pool
I0403 18:37:00.740919  7181 net.cpp:425] inception_4a/pool <- pool3/3x3_s2_pool3/3x3_s2_0_split_3
I0403 18:37:00.740941  7181 net.cpp:399] inception_4a/pool -> inception_4a/pool
I0403 18:37:00.741003  7181 net.cpp:141] Setting up inception_4a/pool
I0403 18:37:00.741027  7181 net.cpp:148] Top shape: 24 480 14 14 (2257920)
I0403 18:37:00.741044  7181 net.cpp:156] Memory required for data: 884503584
I0403 18:37:00.741057  7181 layer_factory.hpp:77] Creating layer inception_4a/pool_proj
I0403 18:37:00.741093  7181 net.cpp:91] Creating Layer inception_4a/pool_proj
I0403 18:37:00.741111  7181 net.cpp:425] inception_4a/pool_proj <- inception_4a/pool
I0403 18:37:00.741134  7181 net.cpp:399] inception_4a/pool_proj -> inception_4a/pool_proj
I0403 18:37:00.742386  7181 net.cpp:141] Setting up inception_4a/pool_proj
I0403 18:37:00.742420  7181 net.cpp:148] Top shape: 24 64 14 14 (301056)
I0403 18:37:00.742452  7181 net.cpp:156] Memory required for data: 885707808
I0403 18:37:00.742471  7181 layer_factory.hpp:77] Creating layer inception_4a/relu_pool_proj
I0403 18:37:00.742489  7181 net.cpp:91] Creating Layer inception_4a/relu_pool_proj
I0403 18:37:00.742506  7181 net.cpp:425] inception_4a/relu_pool_proj <- inception_4a/pool_proj
I0403 18:37:00.742524  7181 net.cpp:386] inception_4a/relu_pool_proj -> inception_4a/pool_proj (in-place)
I0403 18:37:00.742815  7181 net.cpp:141] Setting up inception_4a/relu_pool_proj
I0403 18:37:00.742846  7181 net.cpp:148] Top shape: 24 64 14 14 (301056)
I0403 18:37:00.742862  7181 net.cpp:156] Memory required for data: 886912032
I0403 18:37:00.742879  7181 layer_factory.hpp:77] Creating layer inception_4a/output
I0403 18:37:00.742900  7181 net.cpp:91] Creating Layer inception_4a/output
I0403 18:37:00.742918  7181 net.cpp:425] inception_4a/output <- inception_4a/1x1
I0403 18:37:00.742935  7181 net.cpp:425] inception_4a/output <- inception_4a/3x3
I0403 18:37:00.742951  7181 net.cpp:425] inception_4a/output <- inception_4a/5x5
I0403 18:37:00.742974  7181 net.cpp:425] inception_4a/output <- inception_4a/pool_proj
I0403 18:37:00.742993  7181 net.cpp:399] inception_4a/output -> inception_4a/output
I0403 18:37:00.743042  7181 net.cpp:141] Setting up inception_4a/output
I0403 18:37:00.743067  7181 net.cpp:148] Top shape: 24 512 14 14 (2408448)
I0403 18:37:00.743083  7181 net.cpp:156] Memory required for data: 896545824
I0403 18:37:00.743098  7181 layer_factory.hpp:77] Creating layer inception_4a/output_inception_4a/output_0_split
I0403 18:37:00.743119  7181 net.cpp:91] Creating Layer inception_4a/output_inception_4a/output_0_split
I0403 18:37:00.743139  7181 net.cpp:425] inception_4a/output_inception_4a/output_0_split <- inception_4a/output
I0403 18:37:00.743157  7181 net.cpp:399] inception_4a/output_inception_4a/output_0_split -> inception_4a/output_inception_4a/output_0_split_0
I0403 18:37:00.743178  7181 net.cpp:399] inception_4a/output_inception_4a/output_0_split -> inception_4a/output_inception_4a/output_0_split_1
I0403 18:37:00.743198  7181 net.cpp:399] inception_4a/output_inception_4a/output_0_split -> inception_4a/output_inception_4a/output_0_split_2
I0403 18:37:00.743223  7181 net.cpp:399] inception_4a/output_inception_4a/output_0_split -> inception_4a/output_inception_4a/output_0_split_3
I0403 18:37:00.743249  7181 net.cpp:399] inception_4a/output_inception_4a/output_0_split -> inception_4a/output_inception_4a/output_0_split_4
I0403 18:37:00.743355  7181 net.cpp:141] Setting up inception_4a/output_inception_4a/output_0_split
I0403 18:37:00.743386  7181 net.cpp:148] Top shape: 24 512 14 14 (2408448)
I0403 18:37:00.743408  7181 net.cpp:148] Top shape: 24 512 14 14 (2408448)
I0403 18:37:00.743430  7181 net.cpp:148] Top shape: 24 512 14 14 (2408448)
I0403 18:37:00.743448  7181 net.cpp:148] Top shape: 24 512 14 14 (2408448)
I0403 18:37:00.743465  7181 net.cpp:148] Top shape: 24 512 14 14 (2408448)
I0403 18:37:00.743479  7181 net.cpp:156] Memory required for data: 944714784
I0403 18:37:00.743495  7181 layer_factory.hpp:77] Creating layer loss1/ave_pool
I0403 18:37:00.743516  7181 net.cpp:91] Creating Layer loss1/ave_pool
I0403 18:37:00.743535  7181 net.cpp:425] loss1/ave_pool <- inception_4a/output_inception_4a/output_0_split_0
I0403 18:37:00.743554  7181 net.cpp:399] loss1/ave_pool -> loss1/ave_pool
I0403 18:37:00.743765  7181 net.cpp:141] Setting up loss1/ave_pool
I0403 18:37:00.743795  7181 net.cpp:148] Top shape: 24 512 4 4 (196608)
I0403 18:37:00.743813  7181 net.cpp:156] Memory required for data: 945501216
I0403 18:37:00.743829  7181 layer_factory.hpp:77] Creating layer loss1/conv
I0403 18:37:00.743852  7181 net.cpp:91] Creating Layer loss1/conv
I0403 18:37:00.743872  7181 net.cpp:425] loss1/conv <- loss1/ave_pool
I0403 18:37:00.743893  7181 net.cpp:399] loss1/conv -> loss1/conv
I0403 18:37:00.745349  7181 net.cpp:141] Setting up loss1/conv
I0403 18:37:00.745380  7181 net.cpp:148] Top shape: 24 128 4 4 (49152)
I0403 18:37:00.745415  7181 net.cpp:156] Memory required for data: 945697824
I0403 18:37:00.745439  7181 layer_factory.hpp:77] Creating layer loss1/relu_conv
I0403 18:37:00.745460  7181 net.cpp:91] Creating Layer loss1/relu_conv
I0403 18:37:00.745481  7181 net.cpp:425] loss1/relu_conv <- loss1/conv
I0403 18:37:00.745501  7181 net.cpp:386] loss1/relu_conv -> loss1/conv (in-place)
I0403 18:37:00.745790  7181 net.cpp:141] Setting up loss1/relu_conv
I0403 18:37:00.745818  7181 net.cpp:148] Top shape: 24 128 4 4 (49152)
I0403 18:37:00.745834  7181 net.cpp:156] Memory required for data: 945894432
I0403 18:37:00.745849  7181 layer_factory.hpp:77] Creating layer loss1/fc
I0403 18:37:00.745874  7181 net.cpp:91] Creating Layer loss1/fc
I0403 18:37:00.745898  7181 net.cpp:425] loss1/fc <- loss1/conv
I0403 18:37:00.745916  7181 net.cpp:399] loss1/fc -> loss1/fc
I0403 18:37:00.763850  7181 net.cpp:141] Setting up loss1/fc
I0403 18:37:00.763887  7181 net.cpp:148] Top shape: 24 1024 (24576)
I0403 18:37:00.763903  7181 net.cpp:156] Memory required for data: 945992736
I0403 18:37:00.763922  7181 layer_factory.hpp:77] Creating layer loss1/relu_fc
I0403 18:37:00.763943  7181 net.cpp:91] Creating Layer loss1/relu_fc
I0403 18:37:00.763962  7181 net.cpp:425] loss1/relu_fc <- loss1/fc
I0403 18:37:00.763981  7181 net.cpp:386] loss1/relu_fc -> loss1/fc (in-place)
I0403 18:37:00.764170  7181 net.cpp:141] Setting up loss1/relu_fc
I0403 18:37:00.764196  7181 net.cpp:148] Top shape: 24 1024 (24576)
I0403 18:37:00.764211  7181 net.cpp:156] Memory required for data: 946091040
I0403 18:37:00.764226  7181 layer_factory.hpp:77] Creating layer loss1/drop_fc
I0403 18:37:00.764255  7181 net.cpp:91] Creating Layer loss1/drop_fc
I0403 18:37:00.764276  7181 net.cpp:425] loss1/drop_fc <- loss1/fc
I0403 18:37:00.764299  7181 net.cpp:386] loss1/drop_fc -> loss1/fc (in-place)
I0403 18:37:00.764350  7181 net.cpp:141] Setting up loss1/drop_fc
I0403 18:37:00.764374  7181 net.cpp:148] Top shape: 24 1024 (24576)
I0403 18:37:00.764389  7181 net.cpp:156] Memory required for data: 946189344
I0403 18:37:00.764405  7181 layer_factory.hpp:77] Creating layer loss1/classifier_plantvillage
I0403 18:37:00.764427  7181 net.cpp:91] Creating Layer loss1/classifier_plantvillage
I0403 18:37:00.764446  7181 net.cpp:425] loss1/classifier_plantvillage <- loss1/fc
I0403 18:37:00.764467  7181 net.cpp:399] loss1/classifier_plantvillage -> loss1/classifier_plantvillage
I0403 18:37:00.765367  7181 net.cpp:141] Setting up loss1/classifier_plantvillage
I0403 18:37:00.765398  7181 net.cpp:148] Top shape: 24 38 (912)
I0403 18:37:00.765413  7181 net.cpp:156] Memory required for data: 946192992
I0403 18:37:00.765434  7181 layer_factory.hpp:77] Creating layer loss1/classifier_plantvillage_loss1/classifier_plantvillage_0_split
I0403 18:37:00.765451  7181 net.cpp:91] Creating Layer loss1/classifier_plantvillage_loss1/classifier_plantvillage_0_split
I0403 18:37:00.765468  7181 net.cpp:425] loss1/classifier_plantvillage_loss1/classifier_plantvillage_0_split <- loss1/classifier_plantvillage
I0403 18:37:00.765488  7181 net.cpp:399] loss1/classifier_plantvillage_loss1/classifier_plantvillage_0_split -> loss1/classifier_plantvillage_loss1/classifier_plantvillage_0_split_0
I0403 18:37:00.765511  7181 net.cpp:399] loss1/classifier_plantvillage_loss1/classifier_plantvillage_0_split -> loss1/classifier_plantvillage_loss1/classifier_plantvillage_0_split_1
I0403 18:37:00.765530  7181 net.cpp:399] loss1/classifier_plantvillage_loss1/classifier_plantvillage_0_split -> loss1/classifier_plantvillage_loss1/classifier_plantvillage_0_split_2
I0403 18:37:00.765596  7181 net.cpp:141] Setting up loss1/classifier_plantvillage_loss1/classifier_plantvillage_0_split
I0403 18:37:00.765620  7181 net.cpp:148] Top shape: 24 38 (912)
I0403 18:37:00.765636  7181 net.cpp:148] Top shape: 24 38 (912)
I0403 18:37:00.765652  7181 net.cpp:148] Top shape: 24 38 (912)
I0403 18:37:00.765666  7181 net.cpp:156] Memory required for data: 946203936
I0403 18:37:00.765681  7181 layer_factory.hpp:77] Creating layer inception_4b/1x1
I0403 18:37:00.765702  7181 net.cpp:91] Creating Layer inception_4b/1x1
I0403 18:37:00.765735  7181 net.cpp:425] inception_4b/1x1 <- inception_4a/output_inception_4a/output_0_split_1
I0403 18:37:00.765755  7181 net.cpp:399] inception_4b/1x1 -> inception_4b/1x1
I0403 18:37:00.767386  7181 net.cpp:141] Setting up inception_4b/1x1
I0403 18:37:00.767416  7181 net.cpp:148] Top shape: 24 160 14 14 (752640)
I0403 18:37:00.767434  7181 net.cpp:156] Memory required for data: 949214496
I0403 18:37:00.767453  7181 layer_factory.hpp:77] Creating layer inception_4b/relu_1x1
I0403 18:37:00.767475  7181 net.cpp:91] Creating Layer inception_4b/relu_1x1
I0403 18:37:00.767494  7181 net.cpp:425] inception_4b/relu_1x1 <- inception_4b/1x1
I0403 18:37:00.767514  7181 net.cpp:386] inception_4b/relu_1x1 -> inception_4b/1x1 (in-place)
I0403 18:37:00.767690  7181 net.cpp:141] Setting up inception_4b/relu_1x1
I0403 18:37:00.767716  7181 net.cpp:148] Top shape: 24 160 14 14 (752640)
I0403 18:37:00.767731  7181 net.cpp:156] Memory required for data: 952225056
I0403 18:37:00.767747  7181 layer_factory.hpp:77] Creating layer inception_4b/3x3_reduce
I0403 18:37:00.767771  7181 net.cpp:91] Creating Layer inception_4b/3x3_reduce
I0403 18:37:00.767791  7181 net.cpp:425] inception_4b/3x3_reduce <- inception_4a/output_inception_4a/output_0_split_2
I0403 18:37:00.767812  7181 net.cpp:399] inception_4b/3x3_reduce -> inception_4b/3x3_reduce
I0403 18:37:00.769156  7181 net.cpp:141] Setting up inception_4b/3x3_reduce
I0403 18:37:00.769186  7181 net.cpp:148] Top shape: 24 112 14 14 (526848)
I0403 18:37:00.769202  7181 net.cpp:156] Memory required for data: 954332448
I0403 18:37:00.769222  7181 layer_factory.hpp:77] Creating layer inception_4b/relu_3x3_reduce
I0403 18:37:00.769243  7181 net.cpp:91] Creating Layer inception_4b/relu_3x3_reduce
I0403 18:37:00.769261  7181 net.cpp:425] inception_4b/relu_3x3_reduce <- inception_4b/3x3_reduce
I0403 18:37:00.769284  7181 net.cpp:386] inception_4b/relu_3x3_reduce -> inception_4b/3x3_reduce (in-place)
I0403 18:37:00.769569  7181 net.cpp:141] Setting up inception_4b/relu_3x3_reduce
I0403 18:37:00.769595  7181 net.cpp:148] Top shape: 24 112 14 14 (526848)
I0403 18:37:00.769611  7181 net.cpp:156] Memory required for data: 956439840
I0403 18:37:00.769626  7181 layer_factory.hpp:77] Creating layer inception_4b/3x3
I0403 18:37:00.769649  7181 net.cpp:91] Creating Layer inception_4b/3x3
I0403 18:37:00.769667  7181 net.cpp:425] inception_4b/3x3 <- inception_4b/3x3_reduce
I0403 18:37:00.769688  7181 net.cpp:399] inception_4b/3x3 -> inception_4b/3x3
I0403 18:37:00.772747  7181 net.cpp:141] Setting up inception_4b/3x3
I0403 18:37:00.772781  7181 net.cpp:148] Top shape: 24 224 14 14 (1053696)
I0403 18:37:00.772800  7181 net.cpp:156] Memory required for data: 960654624
I0403 18:37:00.772821  7181 layer_factory.hpp:77] Creating layer inception_4b/relu_3x3
I0403 18:37:00.772842  7181 net.cpp:91] Creating Layer inception_4b/relu_3x3
I0403 18:37:00.772858  7181 net.cpp:425] inception_4b/relu_3x3 <- inception_4b/3x3
I0403 18:37:00.772881  7181 net.cpp:386] inception_4b/relu_3x3 -> inception_4b/3x3 (in-place)
I0403 18:37:00.773067  7181 net.cpp:141] Setting up inception_4b/relu_3x3
I0403 18:37:00.773097  7181 net.cpp:148] Top shape: 24 224 14 14 (1053696)
I0403 18:37:00.773115  7181 net.cpp:156] Memory required for data: 964869408
I0403 18:37:00.773131  7181 layer_factory.hpp:77] Creating layer inception_4b/5x5_reduce
I0403 18:37:00.773155  7181 net.cpp:91] Creating Layer inception_4b/5x5_reduce
I0403 18:37:00.773187  7181 net.cpp:425] inception_4b/5x5_reduce <- inception_4a/output_inception_4a/output_0_split_3
I0403 18:37:00.773211  7181 net.cpp:399] inception_4b/5x5_reduce -> inception_4b/5x5_reduce
I0403 18:37:00.774358  7181 net.cpp:141] Setting up inception_4b/5x5_reduce
I0403 18:37:00.774387  7181 net.cpp:148] Top shape: 24 24 14 14 (112896)
I0403 18:37:00.774405  7181 net.cpp:156] Memory required for data: 965320992
I0403 18:37:00.774423  7181 layer_factory.hpp:77] Creating layer inception_4b/relu_5x5_reduce
I0403 18:37:00.774444  7181 net.cpp:91] Creating Layer inception_4b/relu_5x5_reduce
I0403 18:37:00.774477  7181 net.cpp:425] inception_4b/relu_5x5_reduce <- inception_4b/5x5_reduce
I0403 18:37:00.774497  7181 net.cpp:386] inception_4b/relu_5x5_reduce -> inception_4b/5x5_reduce (in-place)
I0403 18:37:00.774685  7181 net.cpp:141] Setting up inception_4b/relu_5x5_reduce
I0403 18:37:00.774714  7181 net.cpp:148] Top shape: 24 24 14 14 (112896)
I0403 18:37:00.774732  7181 net.cpp:156] Memory required for data: 965772576
I0403 18:37:00.774747  7181 layer_factory.hpp:77] Creating layer inception_4b/5x5
I0403 18:37:00.774770  7181 net.cpp:91] Creating Layer inception_4b/5x5
I0403 18:37:00.774791  7181 net.cpp:425] inception_4b/5x5 <- inception_4b/5x5_reduce
I0403 18:37:00.774811  7181 net.cpp:399] inception_4b/5x5 -> inception_4b/5x5
I0403 18:37:00.776072  7181 net.cpp:141] Setting up inception_4b/5x5
I0403 18:37:00.776103  7181 net.cpp:148] Top shape: 24 64 14 14 (301056)
I0403 18:37:00.776120  7181 net.cpp:156] Memory required for data: 966976800
I0403 18:37:00.776139  7181 layer_factory.hpp:77] Creating layer inception_4b/relu_5x5
I0403 18:37:00.776162  7181 net.cpp:91] Creating Layer inception_4b/relu_5x5
I0403 18:37:00.776181  7181 net.cpp:425] inception_4b/relu_5x5 <- inception_4b/5x5
I0403 18:37:00.776201  7181 net.cpp:386] inception_4b/relu_5x5 -> inception_4b/5x5 (in-place)
I0403 18:37:00.776499  7181 net.cpp:141] Setting up inception_4b/relu_5x5
I0403 18:37:00.776526  7181 net.cpp:148] Top shape: 24 64 14 14 (301056)
I0403 18:37:00.776542  7181 net.cpp:156] Memory required for data: 968181024
I0403 18:37:00.776558  7181 layer_factory.hpp:77] Creating layer inception_4b/pool
I0403 18:37:00.776578  7181 net.cpp:91] Creating Layer inception_4b/pool
I0403 18:37:00.776595  7181 net.cpp:425] inception_4b/pool <- inception_4a/output_inception_4a/output_0_split_4
I0403 18:37:00.776619  7181 net.cpp:399] inception_4b/pool -> inception_4b/pool
I0403 18:37:00.776686  7181 net.cpp:141] Setting up inception_4b/pool
I0403 18:37:00.776711  7181 net.cpp:148] Top shape: 24 512 14 14 (2408448)
I0403 18:37:00.776727  7181 net.cpp:156] Memory required for data: 977814816
I0403 18:37:00.776743  7181 layer_factory.hpp:77] Creating layer inception_4b/pool_proj
I0403 18:37:00.776767  7181 net.cpp:91] Creating Layer inception_4b/pool_proj
I0403 18:37:00.776785  7181 net.cpp:425] inception_4b/pool_proj <- inception_4b/pool
I0403 18:37:00.776808  7181 net.cpp:399] inception_4b/pool_proj -> inception_4b/pool_proj
I0403 18:37:00.778040  7181 net.cpp:141] Setting up inception_4b/pool_proj
I0403 18:37:00.778071  7181 net.cpp:148] Top shape: 24 64 14 14 (301056)
I0403 18:37:00.778089  7181 net.cpp:156] Memory required for data: 979019040
I0403 18:37:00.778110  7181 layer_factory.hpp:77] Creating layer inception_4b/relu_pool_proj
I0403 18:37:00.778134  7181 net.cpp:91] Creating Layer inception_4b/relu_pool_proj
I0403 18:37:00.778153  7181 net.cpp:425] inception_4b/relu_pool_proj <- inception_4b/pool_proj
I0403 18:37:00.778173  7181 net.cpp:386] inception_4b/relu_pool_proj -> inception_4b/pool_proj (in-place)
I0403 18:37:00.778369  7181 net.cpp:141] Setting up inception_4b/relu_pool_proj
I0403 18:37:00.778398  7181 net.cpp:148] Top shape: 24 64 14 14 (301056)
I0403 18:37:00.778414  7181 net.cpp:156] Memory required for data: 980223264
I0403 18:37:00.778431  7181 layer_factory.hpp:77] Creating layer inception_4b/output
I0403 18:37:00.778453  7181 net.cpp:91] Creating Layer inception_4b/output
I0403 18:37:00.778471  7181 net.cpp:425] inception_4b/output <- inception_4b/1x1
I0403 18:37:00.778491  7181 net.cpp:425] inception_4b/output <- inception_4b/3x3
I0403 18:37:00.778507  7181 net.cpp:425] inception_4b/output <- inception_4b/5x5
I0403 18:37:00.778525  7181 net.cpp:425] inception_4b/output <- inception_4b/pool_proj
I0403 18:37:00.778545  7181 net.cpp:399] inception_4b/output -> inception_4b/output
I0403 18:37:00.778596  7181 net.cpp:141] Setting up inception_4b/output
I0403 18:37:00.778621  7181 net.cpp:148] Top shape: 24 512 14 14 (2408448)
I0403 18:37:00.778636  7181 net.cpp:156] Memory required for data: 989857056
I0403 18:37:00.778666  7181 layer_factory.hpp:77] Creating layer inception_4b/output_inception_4b/output_0_split
I0403 18:37:00.778687  7181 net.cpp:91] Creating Layer inception_4b/output_inception_4b/output_0_split
I0403 18:37:00.778702  7181 net.cpp:425] inception_4b/output_inception_4b/output_0_split <- inception_4b/output
I0403 18:37:00.778724  7181 net.cpp:399] inception_4b/output_inception_4b/output_0_split -> inception_4b/output_inception_4b/output_0_split_0
I0403 18:37:00.778748  7181 net.cpp:399] inception_4b/output_inception_4b/output_0_split -> inception_4b/output_inception_4b/output_0_split_1
I0403 18:37:00.778769  7181 net.cpp:399] inception_4b/output_inception_4b/output_0_split -> inception_4b/output_inception_4b/output_0_split_2
I0403 18:37:00.778791  7181 net.cpp:399] inception_4b/output_inception_4b/output_0_split -> inception_4b/output_inception_4b/output_0_split_3
I0403 18:37:00.778882  7181 net.cpp:141] Setting up inception_4b/output_inception_4b/output_0_split
I0403 18:37:00.778908  7181 net.cpp:148] Top shape: 24 512 14 14 (2408448)
I0403 18:37:00.778925  7181 net.cpp:148] Top shape: 24 512 14 14 (2408448)
I0403 18:37:00.778942  7181 net.cpp:148] Top shape: 24 512 14 14 (2408448)
I0403 18:37:00.778959  7181 net.cpp:148] Top shape: 24 512 14 14 (2408448)
I0403 18:37:00.778972  7181 net.cpp:156] Memory required for data: 1028392224
I0403 18:37:00.778988  7181 layer_factory.hpp:77] Creating layer inception_4c/1x1
I0403 18:37:00.779011  7181 net.cpp:91] Creating Layer inception_4c/1x1
I0403 18:37:00.779031  7181 net.cpp:425] inception_4c/1x1 <- inception_4b/output_inception_4b/output_0_split_0
I0403 18:37:00.779054  7181 net.cpp:399] inception_4c/1x1 -> inception_4c/1x1
I0403 18:37:00.780532  7181 net.cpp:141] Setting up inception_4c/1x1
I0403 18:37:00.780563  7181 net.cpp:148] Top shape: 24 128 14 14 (602112)
I0403 18:37:00.780581  7181 net.cpp:156] Memory required for data: 1030800672
I0403 18:37:00.780601  7181 layer_factory.hpp:77] Creating layer inception_4c/relu_1x1
I0403 18:37:00.780625  7181 net.cpp:91] Creating Layer inception_4c/relu_1x1
I0403 18:37:00.780647  7181 net.cpp:425] inception_4c/relu_1x1 <- inception_4c/1x1
I0403 18:37:00.780666  7181 net.cpp:386] inception_4c/relu_1x1 -> inception_4c/1x1 (in-place)
I0403 18:37:00.780858  7181 net.cpp:141] Setting up inception_4c/relu_1x1
I0403 18:37:00.780885  7181 net.cpp:148] Top shape: 24 128 14 14 (602112)
I0403 18:37:00.780901  7181 net.cpp:156] Memory required for data: 1033209120
I0403 18:37:00.780917  7181 layer_factory.hpp:77] Creating layer inception_4c/3x3_reduce
I0403 18:37:00.780942  7181 net.cpp:91] Creating Layer inception_4c/3x3_reduce
I0403 18:37:00.780962  7181 net.cpp:425] inception_4c/3x3_reduce <- inception_4b/output_inception_4b/output_0_split_1
I0403 18:37:00.780985  7181 net.cpp:399] inception_4c/3x3_reduce -> inception_4c/3x3_reduce
I0403 18:37:00.783007  7181 net.cpp:141] Setting up inception_4c/3x3_reduce
I0403 18:37:00.783038  7181 net.cpp:148] Top shape: 24 128 14 14 (602112)
I0403 18:37:00.783056  7181 net.cpp:156] Memory required for data: 1035617568
I0403 18:37:00.783077  7181 layer_factory.hpp:77] Creating layer inception_4c/relu_3x3_reduce
I0403 18:37:00.783097  7181 net.cpp:91] Creating Layer inception_4c/relu_3x3_reduce
I0403 18:37:00.783115  7181 net.cpp:425] inception_4c/relu_3x3_reduce <- inception_4c/3x3_reduce
I0403 18:37:00.783138  7181 net.cpp:386] inception_4c/relu_3x3_reduce -> inception_4c/3x3_reduce (in-place)
I0403 18:37:00.783435  7181 net.cpp:141] Setting up inception_4c/relu_3x3_reduce
I0403 18:37:00.783465  7181 net.cpp:148] Top shape: 24 128 14 14 (602112)
I0403 18:37:00.783484  7181 net.cpp:156] Memory required for data: 1038026016
I0403 18:37:00.783501  7181 layer_factory.hpp:77] Creating layer inception_4c/3x3
I0403 18:37:00.783526  7181 net.cpp:91] Creating Layer inception_4c/3x3
I0403 18:37:00.783546  7181 net.cpp:425] inception_4c/3x3 <- inception_4c/3x3_reduce
I0403 18:37:00.783568  7181 net.cpp:399] inception_4c/3x3 -> inception_4c/3x3
I0403 18:37:00.787294  7181 net.cpp:141] Setting up inception_4c/3x3
I0403 18:37:00.787340  7181 net.cpp:148] Top shape: 24 256 14 14 (1204224)
I0403 18:37:00.787359  7181 net.cpp:156] Memory required for data: 1042842912
I0403 18:37:00.787395  7181 layer_factory.hpp:77] Creating layer inception_4c/relu_3x3
I0403 18:37:00.787421  7181 net.cpp:91] Creating Layer inception_4c/relu_3x3
I0403 18:37:00.787442  7181 net.cpp:425] inception_4c/relu_3x3 <- inception_4c/3x3
I0403 18:37:00.787461  7181 net.cpp:386] inception_4c/relu_3x3 -> inception_4c/3x3 (in-place)
I0403 18:37:00.787648  7181 net.cpp:141] Setting up inception_4c/relu_3x3
I0403 18:37:00.787675  7181 net.cpp:148] Top shape: 24 256 14 14 (1204224)
I0403 18:37:00.787691  7181 net.cpp:156] Memory required for data: 1047659808
I0403 18:37:00.787708  7181 layer_factory.hpp:77] Creating layer inception_4c/5x5_reduce
I0403 18:37:00.787730  7181 net.cpp:91] Creating Layer inception_4c/5x5_reduce
I0403 18:37:00.787750  7181 net.cpp:425] inception_4c/5x5_reduce <- inception_4b/output_inception_4b/output_0_split_2
I0403 18:37:00.787773  7181 net.cpp:399] inception_4c/5x5_reduce -> inception_4c/5x5_reduce
I0403 18:37:00.788897  7181 net.cpp:141] Setting up inception_4c/5x5_reduce
I0403 18:37:00.788928  7181 net.cpp:148] Top shape: 24 24 14 14 (112896)
I0403 18:37:00.788944  7181 net.cpp:156] Memory required for data: 1048111392
I0403 18:37:00.788965  7181 layer_factory.hpp:77] Creating layer inception_4c/relu_5x5_reduce
I0403 18:37:00.788987  7181 net.cpp:91] Creating Layer inception_4c/relu_5x5_reduce
I0403 18:37:00.789005  7181 net.cpp:425] inception_4c/relu_5x5_reduce <- inception_4c/5x5_reduce
I0403 18:37:00.789023  7181 net.cpp:386] inception_4c/relu_5x5_reduce -> inception_4c/5x5_reduce (in-place)
I0403 18:37:00.789211  7181 net.cpp:141] Setting up inception_4c/relu_5x5_reduce
I0403 18:37:00.789243  7181 net.cpp:148] Top shape: 24 24 14 14 (112896)
I0403 18:37:00.789259  7181 net.cpp:156] Memory required for data: 1048562976
I0403 18:37:00.789279  7181 layer_factory.hpp:77] Creating layer inception_4c/5x5
I0403 18:37:00.789301  7181 net.cpp:91] Creating Layer inception_4c/5x5
I0403 18:37:00.789321  7181 net.cpp:425] inception_4c/5x5 <- inception_4c/5x5_reduce
I0403 18:37:00.789343  7181 net.cpp:399] inception_4c/5x5 -> inception_4c/5x5
I0403 18:37:00.790624  7181 net.cpp:141] Setting up inception_4c/5x5
I0403 18:37:00.790653  7181 net.cpp:148] Top shape: 24 64 14 14 (301056)
I0403 18:37:00.790669  7181 net.cpp:156] Memory required for data: 1049767200
I0403 18:37:00.790689  7181 layer_factory.hpp:77] Creating layer inception_4c/relu_5x5
I0403 18:37:00.790710  7181 net.cpp:91] Creating Layer inception_4c/relu_5x5
I0403 18:37:00.790729  7181 net.cpp:425] inception_4c/relu_5x5 <- inception_4c/5x5
I0403 18:37:00.790748  7181 net.cpp:386] inception_4c/relu_5x5 -> inception_4c/5x5 (in-place)
I0403 18:37:00.791043  7181 net.cpp:141] Setting up inception_4c/relu_5x5
I0403 18:37:00.791071  7181 net.cpp:148] Top shape: 24 64 14 14 (301056)
I0403 18:37:00.791087  7181 net.cpp:156] Memory required for data: 1050971424
I0403 18:37:00.791103  7181 layer_factory.hpp:77] Creating layer inception_4c/pool
I0403 18:37:00.791126  7181 net.cpp:91] Creating Layer inception_4c/pool
I0403 18:37:00.791143  7181 net.cpp:425] inception_4c/pool <- inception_4b/output_inception_4b/output_0_split_3
I0403 18:37:00.791163  7181 net.cpp:399] inception_4c/pool -> inception_4c/pool
I0403 18:37:00.791232  7181 net.cpp:141] Setting up inception_4c/pool
I0403 18:37:00.791259  7181 net.cpp:148] Top shape: 24 512 14 14 (2408448)
I0403 18:37:00.791277  7181 net.cpp:156] Memory required for data: 1060605216
I0403 18:37:00.791296  7181 layer_factory.hpp:77] Creating layer inception_4c/pool_proj
I0403 18:37:00.791321  7181 net.cpp:91] Creating Layer inception_4c/pool_proj
I0403 18:37:00.791339  7181 net.cpp:425] inception_4c/pool_proj <- inception_4c/pool
I0403 18:37:00.791363  7181 net.cpp:399] inception_4c/pool_proj -> inception_4c/pool_proj
I0403 18:37:00.792629  7181 net.cpp:141] Setting up inception_4c/pool_proj
I0403 18:37:00.792660  7181 net.cpp:148] Top shape: 24 64 14 14 (301056)
I0403 18:37:00.792693  7181 net.cpp:156] Memory required for data: 1061809440
I0403 18:37:00.792714  7181 layer_factory.hpp:77] Creating layer inception_4c/relu_pool_proj
I0403 18:37:00.792737  7181 net.cpp:91] Creating Layer inception_4c/relu_pool_proj
I0403 18:37:00.792754  7181 net.cpp:425] inception_4c/relu_pool_proj <- inception_4c/pool_proj
I0403 18:37:00.792774  7181 net.cpp:386] inception_4c/relu_pool_proj -> inception_4c/pool_proj (in-place)
I0403 18:37:00.792963  7181 net.cpp:141] Setting up inception_4c/relu_pool_proj
I0403 18:37:00.792989  7181 net.cpp:148] Top shape: 24 64 14 14 (301056)
I0403 18:37:00.793005  7181 net.cpp:156] Memory required for data: 1063013664
I0403 18:37:00.793021  7181 layer_factory.hpp:77] Creating layer inception_4c/output
I0403 18:37:00.793045  7181 net.cpp:91] Creating Layer inception_4c/output
I0403 18:37:00.793063  7181 net.cpp:425] inception_4c/output <- inception_4c/1x1
I0403 18:37:00.793081  7181 net.cpp:425] inception_4c/output <- inception_4c/3x3
I0403 18:37:00.793098  7181 net.cpp:425] inception_4c/output <- inception_4c/5x5
I0403 18:37:00.793115  7181 net.cpp:425] inception_4c/output <- inception_4c/pool_proj
I0403 18:37:00.793134  7181 net.cpp:399] inception_4c/output -> inception_4c/output
I0403 18:37:00.793185  7181 net.cpp:141] Setting up inception_4c/output
I0403 18:37:00.793210  7181 net.cpp:148] Top shape: 24 512 14 14 (2408448)
I0403 18:37:00.793226  7181 net.cpp:156] Memory required for data: 1072647456
I0403 18:37:00.793241  7181 layer_factory.hpp:77] Creating layer inception_4c/output_inception_4c/output_0_split
I0403 18:37:00.793259  7181 net.cpp:91] Creating Layer inception_4c/output_inception_4c/output_0_split
I0403 18:37:00.793282  7181 net.cpp:425] inception_4c/output_inception_4c/output_0_split <- inception_4c/output
I0403 18:37:00.793305  7181 net.cpp:399] inception_4c/output_inception_4c/output_0_split -> inception_4c/output_inception_4c/output_0_split_0
I0403 18:37:00.793329  7181 net.cpp:399] inception_4c/output_inception_4c/output_0_split -> inception_4c/output_inception_4c/output_0_split_1
I0403 18:37:00.793351  7181 net.cpp:399] inception_4c/output_inception_4c/output_0_split -> inception_4c/output_inception_4c/output_0_split_2
I0403 18:37:00.793373  7181 net.cpp:399] inception_4c/output_inception_4c/output_0_split -> inception_4c/output_inception_4c/output_0_split_3
I0403 18:37:00.793464  7181 net.cpp:141] Setting up inception_4c/output_inception_4c/output_0_split
I0403 18:37:00.793491  7181 net.cpp:148] Top shape: 24 512 14 14 (2408448)
I0403 18:37:00.793509  7181 net.cpp:148] Top shape: 24 512 14 14 (2408448)
I0403 18:37:00.793526  7181 net.cpp:148] Top shape: 24 512 14 14 (2408448)
I0403 18:37:00.793543  7181 net.cpp:148] Top shape: 24 512 14 14 (2408448)
I0403 18:37:00.793557  7181 net.cpp:156] Memory required for data: 1111182624
I0403 18:37:00.793575  7181 layer_factory.hpp:77] Creating layer inception_4d/1x1
I0403 18:37:00.793597  7181 net.cpp:91] Creating Layer inception_4d/1x1
I0403 18:37:00.793617  7181 net.cpp:425] inception_4d/1x1 <- inception_4c/output_inception_4c/output_0_split_0
I0403 18:37:00.793638  7181 net.cpp:399] inception_4d/1x1 -> inception_4d/1x1
I0403 18:37:00.795056  7181 net.cpp:141] Setting up inception_4d/1x1
I0403 18:37:00.795090  7181 net.cpp:148] Top shape: 24 112 14 14 (526848)
I0403 18:37:00.795109  7181 net.cpp:156] Memory required for data: 1113290016
I0403 18:37:00.795128  7181 layer_factory.hpp:77] Creating layer inception_4d/relu_1x1
I0403 18:37:00.795146  7181 net.cpp:91] Creating Layer inception_4d/relu_1x1
I0403 18:37:00.795163  7181 net.cpp:425] inception_4d/relu_1x1 <- inception_4d/1x1
I0403 18:37:00.795184  7181 net.cpp:386] inception_4d/relu_1x1 -> inception_4d/1x1 (in-place)
I0403 18:37:00.795379  7181 net.cpp:141] Setting up inception_4d/relu_1x1
I0403 18:37:00.795405  7181 net.cpp:148] Top shape: 24 112 14 14 (526848)
I0403 18:37:00.795423  7181 net.cpp:156] Memory required for data: 1115397408
I0403 18:37:00.795439  7181 layer_factory.hpp:77] Creating layer inception_4d/3x3_reduce
I0403 18:37:00.795476  7181 net.cpp:91] Creating Layer inception_4d/3x3_reduce
I0403 18:37:00.795495  7181 net.cpp:425] inception_4d/3x3_reduce <- inception_4c/output_inception_4c/output_0_split_1
I0403 18:37:00.795518  7181 net.cpp:399] inception_4d/3x3_reduce -> inception_4d/3x3_reduce
I0403 18:37:00.797121  7181 net.cpp:141] Setting up inception_4d/3x3_reduce
I0403 18:37:00.797155  7181 net.cpp:148] Top shape: 24 144 14 14 (677376)
I0403 18:37:00.797175  7181 net.cpp:156] Memory required for data: 1118106912
I0403 18:37:00.797196  7181 layer_factory.hpp:77] Creating layer inception_4d/relu_3x3_reduce
I0403 18:37:00.797216  7181 net.cpp:91] Creating Layer inception_4d/relu_3x3_reduce
I0403 18:37:00.797235  7181 net.cpp:425] inception_4d/relu_3x3_reduce <- inception_4d/3x3_reduce
I0403 18:37:00.797255  7181 net.cpp:386] inception_4d/relu_3x3_reduce -> inception_4d/3x3_reduce (in-place)
I0403 18:37:00.797570  7181 net.cpp:141] Setting up inception_4d/relu_3x3_reduce
I0403 18:37:00.797603  7181 net.cpp:148] Top shape: 24 144 14 14 (677376)
I0403 18:37:00.797624  7181 net.cpp:156] Memory required for data: 1120816416
I0403 18:37:00.797641  7181 layer_factory.hpp:77] Creating layer inception_4d/3x3
I0403 18:37:00.797664  7181 net.cpp:91] Creating Layer inception_4d/3x3
I0403 18:37:00.797686  7181 net.cpp:425] inception_4d/3x3 <- inception_4d/3x3_reduce
I0403 18:37:00.797709  7181 net.cpp:399] inception_4d/3x3 -> inception_4d/3x3
I0403 18:37:00.802307  7181 net.cpp:141] Setting up inception_4d/3x3
I0403 18:37:00.802340  7181 net.cpp:148] Top shape: 24 288 14 14 (1354752)
I0403 18:37:00.802361  7181 net.cpp:156] Memory required for data: 1126235424
I0403 18:37:00.802381  7181 layer_factory.hpp:77] Creating layer inception_4d/relu_3x3
I0403 18:37:00.802402  7181 net.cpp:91] Creating Layer inception_4d/relu_3x3
I0403 18:37:00.802422  7181 net.cpp:425] inception_4d/relu_3x3 <- inception_4d/3x3
I0403 18:37:00.802446  7181 net.cpp:386] inception_4d/relu_3x3 -> inception_4d/3x3 (in-place)
I0403 18:37:00.802645  7181 net.cpp:141] Setting up inception_4d/relu_3x3
I0403 18:37:00.802673  7181 net.cpp:148] Top shape: 24 288 14 14 (1354752)
I0403 18:37:00.802691  7181 net.cpp:156] Memory required for data: 1131654432
I0403 18:37:00.802709  7181 layer_factory.hpp:77] Creating layer inception_4d/5x5_reduce
I0403 18:37:00.802733  7181 net.cpp:91] Creating Layer inception_4d/5x5_reduce
I0403 18:37:00.802753  7181 net.cpp:425] inception_4d/5x5_reduce <- inception_4c/output_inception_4c/output_0_split_2
I0403 18:37:00.802775  7181 net.cpp:399] inception_4d/5x5_reduce -> inception_4d/5x5_reduce
I0403 18:37:00.804006  7181 net.cpp:141] Setting up inception_4d/5x5_reduce
I0403 18:37:00.804039  7181 net.cpp:148] Top shape: 24 32 14 14 (150528)
I0403 18:37:00.804059  7181 net.cpp:156] Memory required for data: 1132256544
I0403 18:37:00.804081  7181 layer_factory.hpp:77] Creating layer inception_4d/relu_5x5_reduce
I0403 18:37:00.804101  7181 net.cpp:91] Creating Layer inception_4d/relu_5x5_reduce
I0403 18:37:00.804121  7181 net.cpp:425] inception_4d/relu_5x5_reduce <- inception_4d/5x5_reduce
I0403 18:37:00.804142  7181 net.cpp:386] inception_4d/relu_5x5_reduce -> inception_4d/5x5_reduce (in-place)
I0403 18:37:00.804349  7181 net.cpp:141] Setting up inception_4d/relu_5x5_reduce
I0403 18:37:00.804378  7181 net.cpp:148] Top shape: 24 32 14 14 (150528)
I0403 18:37:00.804395  7181 net.cpp:156] Memory required for data: 1132858656
I0403 18:37:00.804411  7181 layer_factory.hpp:77] Creating layer inception_4d/5x5
I0403 18:37:00.804435  7181 net.cpp:91] Creating Layer inception_4d/5x5
I0403 18:37:00.804457  7181 net.cpp:425] inception_4d/5x5 <- inception_4d/5x5_reduce
I0403 18:37:00.804481  7181 net.cpp:399] inception_4d/5x5 -> inception_4d/5x5
I0403 18:37:00.806035  7181 net.cpp:141] Setting up inception_4d/5x5
I0403 18:37:00.806066  7181 net.cpp:148] Top shape: 24 64 14 14 (301056)
I0403 18:37:00.806085  7181 net.cpp:156] Memory required for data: 1134062880
I0403 18:37:00.806107  7181 layer_factory.hpp:77] Creating layer inception_4d/relu_5x5
I0403 18:37:00.806144  7181 net.cpp:91] Creating Layer inception_4d/relu_5x5
I0403 18:37:00.806164  7181 net.cpp:425] inception_4d/relu_5x5 <- inception_4d/5x5
I0403 18:37:00.806183  7181 net.cpp:386] inception_4d/relu_5x5 -> inception_4d/5x5 (in-place)
I0403 18:37:00.806509  7181 net.cpp:141] Setting up inception_4d/relu_5x5
I0403 18:37:00.806538  7181 net.cpp:148] Top shape: 24 64 14 14 (301056)
I0403 18:37:00.806555  7181 net.cpp:156] Memory required for data: 1135267104
I0403 18:37:00.806571  7181 layer_factory.hpp:77] Creating layer inception_4d/pool
I0403 18:37:00.806592  7181 net.cpp:91] Creating Layer inception_4d/pool
I0403 18:37:00.806612  7181 net.cpp:425] inception_4d/pool <- inception_4c/output_inception_4c/output_0_split_3
I0403 18:37:00.806632  7181 net.cpp:399] inception_4d/pool -> inception_4d/pool
I0403 18:37:00.806705  7181 net.cpp:141] Setting up inception_4d/pool
I0403 18:37:00.806731  7181 net.cpp:148] Top shape: 24 512 14 14 (2408448)
I0403 18:37:00.806747  7181 net.cpp:156] Memory required for data: 1144900896
I0403 18:37:00.806762  7181 layer_factory.hpp:77] Creating layer inception_4d/pool_proj
I0403 18:37:00.806785  7181 net.cpp:91] Creating Layer inception_4d/pool_proj
I0403 18:37:00.806804  7181 net.cpp:425] inception_4d/pool_proj <- inception_4d/pool
I0403 18:37:00.806828  7181 net.cpp:399] inception_4d/pool_proj -> inception_4d/pool_proj
I0403 18:37:00.808694  7181 net.cpp:141] Setting up inception_4d/pool_proj
I0403 18:37:00.808727  7181 net.cpp:148] Top shape: 24 64 14 14 (301056)
I0403 18:37:00.808744  7181 net.cpp:156] Memory required for data: 1146105120
I0403 18:37:00.808764  7181 layer_factory.hpp:77] Creating layer inception_4d/relu_pool_proj
I0403 18:37:00.808784  7181 net.cpp:91] Creating Layer inception_4d/relu_pool_proj
I0403 18:37:00.808802  7181 net.cpp:425] inception_4d/relu_pool_proj <- inception_4d/pool_proj
I0403 18:37:00.808825  7181 net.cpp:386] inception_4d/relu_pool_proj -> inception_4d/pool_proj (in-place)
I0403 18:37:00.809020  7181 net.cpp:141] Setting up inception_4d/relu_pool_proj
I0403 18:37:00.809047  7181 net.cpp:148] Top shape: 24 64 14 14 (301056)
I0403 18:37:00.809063  7181 net.cpp:156] Memory required for data: 1147309344
I0403 18:37:00.809079  7181 layer_factory.hpp:77] Creating layer inception_4d/output
I0403 18:37:00.809100  7181 net.cpp:91] Creating Layer inception_4d/output
I0403 18:37:00.809118  7181 net.cpp:425] inception_4d/output <- inception_4d/1x1
I0403 18:37:00.809137  7181 net.cpp:425] inception_4d/output <- inception_4d/3x3
I0403 18:37:00.809154  7181 net.cpp:425] inception_4d/output <- inception_4d/5x5
I0403 18:37:00.809171  7181 net.cpp:425] inception_4d/output <- inception_4d/pool_proj
I0403 18:37:00.809191  7181 net.cpp:399] inception_4d/output -> inception_4d/output
I0403 18:37:00.809247  7181 net.cpp:141] Setting up inception_4d/output
I0403 18:37:00.809276  7181 net.cpp:148] Top shape: 24 528 14 14 (2483712)
I0403 18:37:00.809293  7181 net.cpp:156] Memory required for data: 1157244192
I0403 18:37:00.809309  7181 layer_factory.hpp:77] Creating layer inception_4d/output_inception_4d/output_0_split
I0403 18:37:00.809327  7181 net.cpp:91] Creating Layer inception_4d/output_inception_4d/output_0_split
I0403 18:37:00.809345  7181 net.cpp:425] inception_4d/output_inception_4d/output_0_split <- inception_4d/output
I0403 18:37:00.809365  7181 net.cpp:399] inception_4d/output_inception_4d/output_0_split -> inception_4d/output_inception_4d/output_0_split_0
I0403 18:37:00.809389  7181 net.cpp:399] inception_4d/output_inception_4d/output_0_split -> inception_4d/output_inception_4d/output_0_split_1
I0403 18:37:00.809412  7181 net.cpp:399] inception_4d/output_inception_4d/output_0_split -> inception_4d/output_inception_4d/output_0_split_2
I0403 18:37:00.809434  7181 net.cpp:399] inception_4d/output_inception_4d/output_0_split -> inception_4d/output_inception_4d/output_0_split_3
I0403 18:37:00.809456  7181 net.cpp:399] inception_4d/output_inception_4d/output_0_split -> inception_4d/output_inception_4d/output_0_split_4
I0403 18:37:00.809568  7181 net.cpp:141] Setting up inception_4d/output_inception_4d/output_0_split
I0403 18:37:00.809607  7181 net.cpp:148] Top shape: 24 528 14 14 (2483712)
I0403 18:37:00.809628  7181 net.cpp:148] Top shape: 24 528 14 14 (2483712)
I0403 18:37:00.809645  7181 net.cpp:148] Top shape: 24 528 14 14 (2483712)
I0403 18:37:00.809662  7181 net.cpp:148] Top shape: 24 528 14 14 (2483712)
I0403 18:37:00.809679  7181 net.cpp:148] Top shape: 24 528 14 14 (2483712)
I0403 18:37:00.809695  7181 net.cpp:156] Memory required for data: 1206918432
I0403 18:37:00.809711  7181 layer_factory.hpp:77] Creating layer loss2/ave_pool
I0403 18:37:00.809730  7181 net.cpp:91] Creating Layer loss2/ave_pool
I0403 18:37:00.809747  7181 net.cpp:425] loss2/ave_pool <- inception_4d/output_inception_4d/output_0_split_0
I0403 18:37:00.809770  7181 net.cpp:399] loss2/ave_pool -> loss2/ave_pool
I0403 18:37:00.810102  7181 net.cpp:141] Setting up loss2/ave_pool
I0403 18:37:00.810130  7181 net.cpp:148] Top shape: 24 528 4 4 (202752)
I0403 18:37:00.810148  7181 net.cpp:156] Memory required for data: 1207729440
I0403 18:37:00.810163  7181 layer_factory.hpp:77] Creating layer loss2/conv
I0403 18:37:00.810189  7181 net.cpp:91] Creating Layer loss2/conv
I0403 18:37:00.810209  7181 net.cpp:425] loss2/conv <- loss2/ave_pool
I0403 18:37:00.810231  7181 net.cpp:399] loss2/conv -> loss2/conv
I0403 18:37:00.812233  7181 net.cpp:141] Setting up loss2/conv
I0403 18:37:00.812266  7181 net.cpp:148] Top shape: 24 128 4 4 (49152)
I0403 18:37:00.812297  7181 net.cpp:156] Memory required for data: 1207926048
I0403 18:37:00.812319  7181 layer_factory.hpp:77] Creating layer loss2/relu_conv
I0403 18:37:00.812341  7181 net.cpp:91] Creating Layer loss2/relu_conv
I0403 18:37:00.812360  7181 net.cpp:425] loss2/relu_conv <- loss2/conv
I0403 18:37:00.812377  7181 net.cpp:386] loss2/relu_conv -> loss2/conv (in-place)
I0403 18:37:00.812682  7181 net.cpp:141] Setting up loss2/relu_conv
I0403 18:37:00.812711  7181 net.cpp:148] Top shape: 24 128 4 4 (49152)
I0403 18:37:00.812728  7181 net.cpp:156] Memory required for data: 1208122656
I0403 18:37:00.812744  7181 layer_factory.hpp:77] Creating layer loss2/fc
I0403 18:37:00.812767  7181 net.cpp:91] Creating Layer loss2/fc
I0403 18:37:00.812785  7181 net.cpp:425] loss2/fc <- loss2/conv
I0403 18:37:00.812805  7181 net.cpp:399] loss2/fc -> loss2/fc
I0403 18:37:00.831713  7181 net.cpp:141] Setting up loss2/fc
I0403 18:37:00.831799  7181 net.cpp:148] Top shape: 24 1024 (24576)
I0403 18:37:00.831815  7181 net.cpp:156] Memory required for data: 1208220960
I0403 18:37:00.831837  7181 layer_factory.hpp:77] Creating layer loss2/relu_fc
I0403 18:37:00.831861  7181 net.cpp:91] Creating Layer loss2/relu_fc
I0403 18:37:00.831879  7181 net.cpp:425] loss2/relu_fc <- loss2/fc
I0403 18:37:00.831902  7181 net.cpp:386] loss2/relu_fc -> loss2/fc (in-place)
I0403 18:37:00.832312  7181 net.cpp:141] Setting up loss2/relu_fc
I0403 18:37:00.832342  7181 net.cpp:148] Top shape: 24 1024 (24576)
I0403 18:37:00.832358  7181 net.cpp:156] Memory required for data: 1208319264
I0403 18:37:00.832375  7181 layer_factory.hpp:77] Creating layer loss2/drop_fc
I0403 18:37:00.832396  7181 net.cpp:91] Creating Layer loss2/drop_fc
I0403 18:37:00.832412  7181 net.cpp:425] loss2/drop_fc <- loss2/fc
I0403 18:37:00.832433  7181 net.cpp:386] loss2/drop_fc -> loss2/fc (in-place)
I0403 18:37:00.832490  7181 net.cpp:141] Setting up loss2/drop_fc
I0403 18:37:00.832520  7181 net.cpp:148] Top shape: 24 1024 (24576)
I0403 18:37:00.832537  7181 net.cpp:156] Memory required for data: 1208417568
I0403 18:37:00.832556  7181 layer_factory.hpp:77] Creating layer loss2/classifier_plantvillage
I0403 18:37:00.832576  7181 net.cpp:91] Creating Layer loss2/classifier_plantvillage
I0403 18:37:00.832597  7181 net.cpp:425] loss2/classifier_plantvillage <- loss2/fc
I0403 18:37:00.832623  7181 net.cpp:399] loss2/classifier_plantvillage -> loss2/classifier_plantvillage
I0403 18:37:00.833065  7181 net.cpp:141] Setting up loss2/classifier_plantvillage
I0403 18:37:00.833098  7181 net.cpp:148] Top shape: 24 38 (912)
I0403 18:37:00.833138  7181 net.cpp:156] Memory required for data: 1208421216
I0403 18:37:00.833160  7181 layer_factory.hpp:77] Creating layer loss2/classifier_plantvillage_loss2/classifier_plantvillage_0_split
I0403 18:37:00.833183  7181 net.cpp:91] Creating Layer loss2/classifier_plantvillage_loss2/classifier_plantvillage_0_split
I0403 18:37:00.833200  7181 net.cpp:425] loss2/classifier_plantvillage_loss2/classifier_plantvillage_0_split <- loss2/classifier_plantvillage
I0403 18:37:00.833220  7181 net.cpp:399] loss2/classifier_plantvillage_loss2/classifier_plantvillage_0_split -> loss2/classifier_plantvillage_loss2/classifier_plantvillage_0_split_0
I0403 18:37:00.833240  7181 net.cpp:399] loss2/classifier_plantvillage_loss2/classifier_plantvillage_0_split -> loss2/classifier_plantvillage_loss2/classifier_plantvillage_0_split_1
I0403 18:37:00.833266  7181 net.cpp:399] loss2/classifier_plantvillage_loss2/classifier_plantvillage_0_split -> loss2/classifier_plantvillage_loss2/classifier_plantvillage_0_split_2
I0403 18:37:00.833360  7181 net.cpp:141] Setting up loss2/classifier_plantvillage_loss2/classifier_plantvillage_0_split
I0403 18:37:00.833385  7181 net.cpp:148] Top shape: 24 38 (912)
I0403 18:37:00.833403  7181 net.cpp:148] Top shape: 24 38 (912)
I0403 18:37:00.833420  7181 net.cpp:148] Top shape: 24 38 (912)
I0403 18:37:00.833434  7181 net.cpp:156] Memory required for data: 1208432160
I0403 18:37:00.833451  7181 layer_factory.hpp:77] Creating layer inception_4e/1x1
I0403 18:37:00.833472  7181 net.cpp:91] Creating Layer inception_4e/1x1
I0403 18:37:00.833492  7181 net.cpp:425] inception_4e/1x1 <- inception_4d/output_inception_4d/output_0_split_1
I0403 18:37:00.833515  7181 net.cpp:399] inception_4e/1x1 -> inception_4e/1x1
I0403 18:37:00.835510  7181 net.cpp:141] Setting up inception_4e/1x1
I0403 18:37:00.835541  7181 net.cpp:148] Top shape: 24 256 14 14 (1204224)
I0403 18:37:00.835559  7181 net.cpp:156] Memory required for data: 1213249056
I0403 18:37:00.835580  7181 layer_factory.hpp:77] Creating layer inception_4e/relu_1x1
I0403 18:37:00.835603  7181 net.cpp:91] Creating Layer inception_4e/relu_1x1
I0403 18:37:00.835623  7181 net.cpp:425] inception_4e/relu_1x1 <- inception_4e/1x1
I0403 18:37:00.835644  7181 net.cpp:386] inception_4e/relu_1x1 -> inception_4e/1x1 (in-place)
I0403 18:37:00.835959  7181 net.cpp:141] Setting up inception_4e/relu_1x1
I0403 18:37:00.835989  7181 net.cpp:148] Top shape: 24 256 14 14 (1204224)
I0403 18:37:00.836006  7181 net.cpp:156] Memory required for data: 1218065952
I0403 18:37:00.836024  7181 layer_factory.hpp:77] Creating layer inception_4e/3x3_reduce
I0403 18:37:00.836050  7181 net.cpp:91] Creating Layer inception_4e/3x3_reduce
I0403 18:37:00.836071  7181 net.cpp:425] inception_4e/3x3_reduce <- inception_4d/output_inception_4d/output_0_split_2
I0403 18:37:00.836091  7181 net.cpp:399] inception_4e/3x3_reduce -> inception_4e/3x3_reduce
I0403 18:37:00.838387  7181 net.cpp:141] Setting up inception_4e/3x3_reduce
I0403 18:37:00.838418  7181 net.cpp:148] Top shape: 24 160 14 14 (752640)
I0403 18:37:00.838436  7181 net.cpp:156] Memory required for data: 1221076512
I0403 18:37:00.838457  7181 layer_factory.hpp:77] Creating layer inception_4e/relu_3x3_reduce
I0403 18:37:00.838480  7181 net.cpp:91] Creating Layer inception_4e/relu_3x3_reduce
I0403 18:37:00.838500  7181 net.cpp:425] inception_4e/relu_3x3_reduce <- inception_4e/3x3_reduce
I0403 18:37:00.838520  7181 net.cpp:386] inception_4e/relu_3x3_reduce -> inception_4e/3x3_reduce (in-place)
I0403 18:37:00.838713  7181 net.cpp:141] Setting up inception_4e/relu_3x3_reduce
I0403 18:37:00.838742  7181 net.cpp:148] Top shape: 24 160 14 14 (752640)
I0403 18:37:00.838758  7181 net.cpp:156] Memory required for data: 1224087072
I0403 18:37:00.838775  7181 layer_factory.hpp:77] Creating layer inception_4e/3x3
I0403 18:37:00.838798  7181 net.cpp:91] Creating Layer inception_4e/3x3
I0403 18:37:00.838819  7181 net.cpp:425] inception_4e/3x3 <- inception_4e/3x3_reduce
I0403 18:37:00.838838  7181 net.cpp:399] inception_4e/3x3 -> inception_4e/3x3
I0403 18:37:00.844082  7181 net.cpp:141] Setting up inception_4e/3x3
I0403 18:37:00.844128  7181 net.cpp:148] Top shape: 24 320 14 14 (1505280)
I0403 18:37:00.844148  7181 net.cpp:156] Memory required for data: 1230108192
I0403 18:37:00.844169  7181 layer_factory.hpp:77] Creating layer inception_4e/relu_3x3
I0403 18:37:00.844190  7181 net.cpp:91] Creating Layer inception_4e/relu_3x3
I0403 18:37:00.844209  7181 net.cpp:425] inception_4e/relu_3x3 <- inception_4e/3x3
I0403 18:37:00.844229  7181 net.cpp:386] inception_4e/relu_3x3 -> inception_4e/3x3 (in-place)
I0403 18:37:00.844542  7181 net.cpp:141] Setting up inception_4e/relu_3x3
I0403 18:37:00.844573  7181 net.cpp:148] Top shape: 24 320 14 14 (1505280)
I0403 18:37:00.844591  7181 net.cpp:156] Memory required for data: 1236129312
I0403 18:37:00.844607  7181 layer_factory.hpp:77] Creating layer inception_4e/5x5_reduce
I0403 18:37:00.844632  7181 net.cpp:91] Creating Layer inception_4e/5x5_reduce
I0403 18:37:00.844650  7181 net.cpp:425] inception_4e/5x5_reduce <- inception_4d/output_inception_4d/output_0_split_3
I0403 18:37:00.844671  7181 net.cpp:399] inception_4e/5x5_reduce -> inception_4e/5x5_reduce
I0403 18:37:00.845778  7181 net.cpp:141] Setting up inception_4e/5x5_reduce
I0403 18:37:00.845808  7181 net.cpp:148] Top shape: 24 32 14 14 (150528)
I0403 18:37:00.845824  7181 net.cpp:156] Memory required for data: 1236731424
I0403 18:37:00.845844  7181 layer_factory.hpp:77] Creating layer inception_4e/relu_5x5_reduce
I0403 18:37:00.845866  7181 net.cpp:91] Creating Layer inception_4e/relu_5x5_reduce
I0403 18:37:00.845885  7181 net.cpp:425] inception_4e/relu_5x5_reduce <- inception_4e/5x5_reduce
I0403 18:37:00.845902  7181 net.cpp:386] inception_4e/relu_5x5_reduce -> inception_4e/5x5_reduce (in-place)
I0403 18:37:00.846210  7181 net.cpp:141] Setting up inception_4e/relu_5x5_reduce
I0403 18:37:00.846238  7181 net.cpp:148] Top shape: 24 32 14 14 (150528)
I0403 18:37:00.846254  7181 net.cpp:156] Memory required for data: 1237333536
I0403 18:37:00.846269  7181 layer_factory.hpp:77] Creating layer inception_4e/5x5
I0403 18:37:00.846317  7181 net.cpp:91] Creating Layer inception_4e/5x5
I0403 18:37:00.846338  7181 net.cpp:425] inception_4e/5x5 <- inception_4e/5x5_reduce
I0403 18:37:00.846361  7181 net.cpp:399] inception_4e/5x5 -> inception_4e/5x5
I0403 18:37:00.848268  7181 net.cpp:141] Setting up inception_4e/5x5
I0403 18:37:00.848301  7181 net.cpp:148] Top shape: 24 128 14 14 (602112)
I0403 18:37:00.848322  7181 net.cpp:156] Memory required for data: 1239741984
I0403 18:37:00.848342  7181 layer_factory.hpp:77] Creating layer inception_4e/relu_5x5
I0403 18:37:00.848362  7181 net.cpp:91] Creating Layer inception_4e/relu_5x5
I0403 18:37:00.848381  7181 net.cpp:425] inception_4e/relu_5x5 <- inception_4e/5x5
I0403 18:37:00.848402  7181 net.cpp:386] inception_4e/relu_5x5 -> inception_4e/5x5 (in-place)
I0403 18:37:00.848608  7181 net.cpp:141] Setting up inception_4e/relu_5x5
I0403 18:37:00.848636  7181 net.cpp:148] Top shape: 24 128 14 14 (602112)
I0403 18:37:00.848654  7181 net.cpp:156] Memory required for data: 1242150432
I0403 18:37:00.848670  7181 layer_factory.hpp:77] Creating layer inception_4e/pool
I0403 18:37:00.848693  7181 net.cpp:91] Creating Layer inception_4e/pool
I0403 18:37:00.848713  7181 net.cpp:425] inception_4e/pool <- inception_4d/output_inception_4d/output_0_split_4
I0403 18:37:00.848736  7181 net.cpp:399] inception_4e/pool -> inception_4e/pool
I0403 18:37:00.848812  7181 net.cpp:141] Setting up inception_4e/pool
I0403 18:37:00.848839  7181 net.cpp:148] Top shape: 24 528 14 14 (2483712)
I0403 18:37:00.848855  7181 net.cpp:156] Memory required for data: 1252085280
I0403 18:37:00.848872  7181 layer_factory.hpp:77] Creating layer inception_4e/pool_proj
I0403 18:37:00.848897  7181 net.cpp:91] Creating Layer inception_4e/pool_proj
I0403 18:37:00.848917  7181 net.cpp:425] inception_4e/pool_proj <- inception_4e/pool
I0403 18:37:00.848939  7181 net.cpp:399] inception_4e/pool_proj -> inception_4e/pool_proj
I0403 18:37:00.850507  7181 net.cpp:141] Setting up inception_4e/pool_proj
I0403 18:37:00.850548  7181 net.cpp:148] Top shape: 24 128 14 14 (602112)
I0403 18:37:00.850569  7181 net.cpp:156] Memory required for data: 1254493728
I0403 18:37:00.850589  7181 layer_factory.hpp:77] Creating layer inception_4e/relu_pool_proj
I0403 18:37:00.850610  7181 net.cpp:91] Creating Layer inception_4e/relu_pool_proj
I0403 18:37:00.850630  7181 net.cpp:425] inception_4e/relu_pool_proj <- inception_4e/pool_proj
I0403 18:37:00.850651  7181 net.cpp:386] inception_4e/relu_pool_proj -> inception_4e/pool_proj (in-place)
I0403 18:37:00.850952  7181 net.cpp:141] Setting up inception_4e/relu_pool_proj
I0403 18:37:00.850981  7181 net.cpp:148] Top shape: 24 128 14 14 (602112)
I0403 18:37:00.850997  7181 net.cpp:156] Memory required for data: 1256902176
I0403 18:37:00.851016  7181 layer_factory.hpp:77] Creating layer inception_4e/output
I0403 18:37:00.851037  7181 net.cpp:91] Creating Layer inception_4e/output
I0403 18:37:00.851054  7181 net.cpp:425] inception_4e/output <- inception_4e/1x1
I0403 18:37:00.851071  7181 net.cpp:425] inception_4e/output <- inception_4e/3x3
I0403 18:37:00.851089  7181 net.cpp:425] inception_4e/output <- inception_4e/5x5
I0403 18:37:00.851105  7181 net.cpp:425] inception_4e/output <- inception_4e/pool_proj
I0403 18:37:00.851127  7181 net.cpp:399] inception_4e/output -> inception_4e/output
I0403 18:37:00.851181  7181 net.cpp:141] Setting up inception_4e/output
I0403 18:37:00.851208  7181 net.cpp:148] Top shape: 24 832 14 14 (3913728)
I0403 18:37:00.851225  7181 net.cpp:156] Memory required for data: 1272557088
I0403 18:37:00.851241  7181 layer_factory.hpp:77] Creating layer pool4/3x3_s2
I0403 18:37:00.851260  7181 net.cpp:91] Creating Layer pool4/3x3_s2
I0403 18:37:00.851284  7181 net.cpp:425] pool4/3x3_s2 <- inception_4e/output
I0403 18:37:00.851303  7181 net.cpp:399] pool4/3x3_s2 -> pool4/3x3_s2
I0403 18:37:00.851377  7181 net.cpp:141] Setting up pool4/3x3_s2
I0403 18:37:00.851402  7181 net.cpp:148] Top shape: 24 832 7 7 (978432)
I0403 18:37:00.851418  7181 net.cpp:156] Memory required for data: 1276470816
I0403 18:37:00.851433  7181 layer_factory.hpp:77] Creating layer pool4/3x3_s2_pool4/3x3_s2_0_split
I0403 18:37:00.851451  7181 net.cpp:91] Creating Layer pool4/3x3_s2_pool4/3x3_s2_0_split
I0403 18:37:00.851469  7181 net.cpp:425] pool4/3x3_s2_pool4/3x3_s2_0_split <- pool4/3x3_s2
I0403 18:37:00.851490  7181 net.cpp:399] pool4/3x3_s2_pool4/3x3_s2_0_split -> pool4/3x3_s2_pool4/3x3_s2_0_split_0
I0403 18:37:00.851511  7181 net.cpp:399] pool4/3x3_s2_pool4/3x3_s2_0_split -> pool4/3x3_s2_pool4/3x3_s2_0_split_1
I0403 18:37:00.851532  7181 net.cpp:399] pool4/3x3_s2_pool4/3x3_s2_0_split -> pool4/3x3_s2_pool4/3x3_s2_0_split_2
I0403 18:37:00.851557  7181 net.cpp:399] pool4/3x3_s2_pool4/3x3_s2_0_split -> pool4/3x3_s2_pool4/3x3_s2_0_split_3
I0403 18:37:00.851655  7181 net.cpp:141] Setting up pool4/3x3_s2_pool4/3x3_s2_0_split
I0403 18:37:00.851680  7181 net.cpp:148] Top shape: 24 832 7 7 (978432)
I0403 18:37:00.851697  7181 net.cpp:148] Top shape: 24 832 7 7 (978432)
I0403 18:37:00.851714  7181 net.cpp:148] Top shape: 24 832 7 7 (978432)
I0403 18:37:00.851730  7181 net.cpp:148] Top shape: 24 832 7 7 (978432)
I0403 18:37:00.851747  7181 net.cpp:156] Memory required for data: 1292125728
I0403 18:37:00.851761  7181 layer_factory.hpp:77] Creating layer inception_5a/1x1
I0403 18:37:00.851785  7181 net.cpp:91] Creating Layer inception_5a/1x1
I0403 18:37:00.851805  7181 net.cpp:425] inception_5a/1x1 <- pool4/3x3_s2_pool4/3x3_s2_0_split_0
I0403 18:37:00.851827  7181 net.cpp:399] inception_5a/1x1 -> inception_5a/1x1
I0403 18:37:00.854809  7181 net.cpp:141] Setting up inception_5a/1x1
I0403 18:37:00.854841  7181 net.cpp:148] Top shape: 24 256 7 7 (301056)
I0403 18:37:00.854861  7181 net.cpp:156] Memory required for data: 1293329952
I0403 18:37:00.854881  7181 layer_factory.hpp:77] Creating layer inception_5a/relu_1x1
I0403 18:37:00.854902  7181 net.cpp:91] Creating Layer inception_5a/relu_1x1
I0403 18:37:00.854923  7181 net.cpp:425] inception_5a/relu_1x1 <- inception_5a/1x1
I0403 18:37:00.854943  7181 net.cpp:386] inception_5a/relu_1x1 -> inception_5a/1x1 (in-place)
I0403 18:37:00.855264  7181 net.cpp:141] Setting up inception_5a/relu_1x1
I0403 18:37:00.855298  7181 net.cpp:148] Top shape: 24 256 7 7 (301056)
I0403 18:37:00.855314  7181 net.cpp:156] Memory required for data: 1294534176
I0403 18:37:00.855330  7181 layer_factory.hpp:77] Creating layer inception_5a/3x3_reduce
I0403 18:37:00.855355  7181 net.cpp:91] Creating Layer inception_5a/3x3_reduce
I0403 18:37:00.855372  7181 net.cpp:425] inception_5a/3x3_reduce <- pool4/3x3_s2_pool4/3x3_s2_0_split_1
I0403 18:37:00.855396  7181 net.cpp:399] inception_5a/3x3_reduce -> inception_5a/3x3_reduce
I0403 18:37:00.857951  7181 net.cpp:141] Setting up inception_5a/3x3_reduce
I0403 18:37:00.857986  7181 net.cpp:148] Top shape: 24 160 7 7 (188160)
I0403 18:37:00.858006  7181 net.cpp:156] Memory required for data: 1295286816
I0403 18:37:00.858028  7181 layer_factory.hpp:77] Creating layer inception_5a/relu_3x3_reduce
I0403 18:37:00.858047  7181 net.cpp:91] Creating Layer inception_5a/relu_3x3_reduce
I0403 18:37:00.858064  7181 net.cpp:425] inception_5a/relu_3x3_reduce <- inception_5a/3x3_reduce
I0403 18:37:00.858085  7181 net.cpp:386] inception_5a/relu_3x3_reduce -> inception_5a/3x3_reduce (in-place)
I0403 18:37:00.858292  7181 net.cpp:141] Setting up inception_5a/relu_3x3_reduce
I0403 18:37:00.858320  7181 net.cpp:148] Top shape: 24 160 7 7 (188160)
I0403 18:37:00.858340  7181 net.cpp:156] Memory required for data: 1296039456
I0403 18:37:00.858361  7181 layer_factory.hpp:77] Creating layer inception_5a/3x3
I0403 18:37:00.858386  7181 net.cpp:91] Creating Layer inception_5a/3x3
I0403 18:37:00.858403  7181 net.cpp:425] inception_5a/3x3 <- inception_5a/3x3_reduce
I0403 18:37:00.858425  7181 net.cpp:399] inception_5a/3x3 -> inception_5a/3x3
I0403 18:37:00.863675  7181 net.cpp:141] Setting up inception_5a/3x3
I0403 18:37:00.863706  7181 net.cpp:148] Top shape: 24 320 7 7 (376320)
I0403 18:37:00.863724  7181 net.cpp:156] Memory required for data: 1297544736
I0403 18:37:00.863745  7181 layer_factory.hpp:77] Creating layer inception_5a/relu_3x3
I0403 18:37:00.863768  7181 net.cpp:91] Creating Layer inception_5a/relu_3x3
I0403 18:37:00.863787  7181 net.cpp:425] inception_5a/relu_3x3 <- inception_5a/3x3
I0403 18:37:00.863806  7181 net.cpp:386] inception_5a/relu_3x3 -> inception_5a/3x3 (in-place)
I0403 18:37:00.864114  7181 net.cpp:141] Setting up inception_5a/relu_3x3
I0403 18:37:00.864142  7181 net.cpp:148] Top shape: 24 320 7 7 (376320)
I0403 18:37:00.864158  7181 net.cpp:156] Memory required for data: 1299050016
I0403 18:37:00.864173  7181 layer_factory.hpp:77] Creating layer inception_5a/5x5_reduce
I0403 18:37:00.864197  7181 net.cpp:91] Creating Layer inception_5a/5x5_reduce
I0403 18:37:00.864217  7181 net.cpp:425] inception_5a/5x5_reduce <- pool4/3x3_s2_pool4/3x3_s2_0_split_2
I0403 18:37:00.864239  7181 net.cpp:399] inception_5a/5x5_reduce -> inception_5a/5x5_reduce
I0403 18:37:00.865460  7181 net.cpp:141] Setting up inception_5a/5x5_reduce
I0403 18:37:00.865494  7181 net.cpp:148] Top shape: 24 32 7 7 (37632)
I0403 18:37:00.865512  7181 net.cpp:156] Memory required for data: 1299200544
I0403 18:37:00.865531  7181 layer_factory.hpp:77] Creating layer inception_5a/relu_5x5_reduce
I0403 18:37:00.865552  7181 net.cpp:91] Creating Layer inception_5a/relu_5x5_reduce
I0403 18:37:00.865571  7181 net.cpp:425] inception_5a/relu_5x5_reduce <- inception_5a/5x5_reduce
I0403 18:37:00.865592  7181 net.cpp:386] inception_5a/relu_5x5_reduce -> inception_5a/5x5_reduce (in-place)
I0403 18:37:00.865905  7181 net.cpp:141] Setting up inception_5a/relu_5x5_reduce
I0403 18:37:00.865932  7181 net.cpp:148] Top shape: 24 32 7 7 (37632)
I0403 18:37:00.865949  7181 net.cpp:156] Memory required for data: 1299351072
I0403 18:37:00.865967  7181 layer_factory.hpp:77] Creating layer inception_5a/5x5
I0403 18:37:00.865990  7181 net.cpp:91] Creating Layer inception_5a/5x5
I0403 18:37:00.866011  7181 net.cpp:425] inception_5a/5x5 <- inception_5a/5x5_reduce
I0403 18:37:00.866034  7181 net.cpp:399] inception_5a/5x5 -> inception_5a/5x5
I0403 18:37:00.867817  7181 net.cpp:141] Setting up inception_5a/5x5
I0403 18:37:00.867861  7181 net.cpp:148] Top shape: 24 128 7 7 (150528)
I0403 18:37:00.867878  7181 net.cpp:156] Memory required for data: 1299953184
I0403 18:37:00.867898  7181 layer_factory.hpp:77] Creating layer inception_5a/relu_5x5
I0403 18:37:00.867919  7181 net.cpp:91] Creating Layer inception_5a/relu_5x5
I0403 18:37:00.867938  7181 net.cpp:425] inception_5a/relu_5x5 <- inception_5a/5x5
I0403 18:37:00.867957  7181 net.cpp:386] inception_5a/relu_5x5 -> inception_5a/5x5 (in-place)
I0403 18:37:00.868155  7181 net.cpp:141] Setting up inception_5a/relu_5x5
I0403 18:37:00.868181  7181 net.cpp:148] Top shape: 24 128 7 7 (150528)
I0403 18:37:00.868196  7181 net.cpp:156] Memory required for data: 1300555296
I0403 18:37:00.868212  7181 layer_factory.hpp:77] Creating layer inception_5a/pool
I0403 18:37:00.868232  7181 net.cpp:91] Creating Layer inception_5a/pool
I0403 18:37:00.868250  7181 net.cpp:425] inception_5a/pool <- pool4/3x3_s2_pool4/3x3_s2_0_split_3
I0403 18:37:00.868274  7181 net.cpp:399] inception_5a/pool -> inception_5a/pool
I0403 18:37:00.868351  7181 net.cpp:141] Setting up inception_5a/pool
I0403 18:37:00.868376  7181 net.cpp:148] Top shape: 24 832 7 7 (978432)
I0403 18:37:00.868392  7181 net.cpp:156] Memory required for data: 1304469024
I0403 18:37:00.868407  7181 layer_factory.hpp:77] Creating layer inception_5a/pool_proj
I0403 18:37:00.868430  7181 net.cpp:91] Creating Layer inception_5a/pool_proj
I0403 18:37:00.868449  7181 net.cpp:425] inception_5a/pool_proj <- inception_5a/pool
I0403 18:37:00.868471  7181 net.cpp:399] inception_5a/pool_proj -> inception_5a/pool_proj
I0403 18:37:00.870811  7181 net.cpp:141] Setting up inception_5a/pool_proj
I0403 18:37:00.870843  7181 net.cpp:148] Top shape: 24 128 7 7 (150528)
I0403 18:37:00.870860  7181 net.cpp:156] Memory required for data: 1305071136
I0403 18:37:00.870882  7181 layer_factory.hpp:77] Creating layer inception_5a/relu_pool_proj
I0403 18:37:00.870900  7181 net.cpp:91] Creating Layer inception_5a/relu_pool_proj
I0403 18:37:00.870916  7181 net.cpp:425] inception_5a/relu_pool_proj <- inception_5a/pool_proj
I0403 18:37:00.870940  7181 net.cpp:386] inception_5a/relu_pool_proj -> inception_5a/pool_proj (in-place)
I0403 18:37:00.871245  7181 net.cpp:141] Setting up inception_5a/relu_pool_proj
I0403 18:37:00.871279  7181 net.cpp:148] Top shape: 24 128 7 7 (150528)
I0403 18:37:00.871297  7181 net.cpp:156] Memory required for data: 1305673248
I0403 18:37:00.871314  7181 layer_factory.hpp:77] Creating layer inception_5a/output
I0403 18:37:00.871331  7181 net.cpp:91] Creating Layer inception_5a/output
I0403 18:37:00.871347  7181 net.cpp:425] inception_5a/output <- inception_5a/1x1
I0403 18:37:00.871366  7181 net.cpp:425] inception_5a/output <- inception_5a/3x3
I0403 18:37:00.871382  7181 net.cpp:425] inception_5a/output <- inception_5a/5x5
I0403 18:37:00.871400  7181 net.cpp:425] inception_5a/output <- inception_5a/pool_proj
I0403 18:37:00.871422  7181 net.cpp:399] inception_5a/output -> inception_5a/output
I0403 18:37:00.871474  7181 net.cpp:141] Setting up inception_5a/output
I0403 18:37:00.871500  7181 net.cpp:148] Top shape: 24 832 7 7 (978432)
I0403 18:37:00.871516  7181 net.cpp:156] Memory required for data: 1309586976
I0403 18:37:00.871531  7181 layer_factory.hpp:77] Creating layer inception_5a/output_inception_5a/output_0_split
I0403 18:37:00.871549  7181 net.cpp:91] Creating Layer inception_5a/output_inception_5a/output_0_split
I0403 18:37:00.871565  7181 net.cpp:425] inception_5a/output_inception_5a/output_0_split <- inception_5a/output
I0403 18:37:00.871583  7181 net.cpp:399] inception_5a/output_inception_5a/output_0_split -> inception_5a/output_inception_5a/output_0_split_0
I0403 18:37:00.871609  7181 net.cpp:399] inception_5a/output_inception_5a/output_0_split -> inception_5a/output_inception_5a/output_0_split_1
I0403 18:37:00.871631  7181 net.cpp:399] inception_5a/output_inception_5a/output_0_split -> inception_5a/output_inception_5a/output_0_split_2
I0403 18:37:00.871652  7181 net.cpp:399] inception_5a/output_inception_5a/output_0_split -> inception_5a/output_inception_5a/output_0_split_3
I0403 18:37:00.871768  7181 net.cpp:141] Setting up inception_5a/output_inception_5a/output_0_split
I0403 18:37:00.871793  7181 net.cpp:148] Top shape: 24 832 7 7 (978432)
I0403 18:37:00.871810  7181 net.cpp:148] Top shape: 24 832 7 7 (978432)
I0403 18:37:00.871827  7181 net.cpp:148] Top shape: 24 832 7 7 (978432)
I0403 18:37:00.871843  7181 net.cpp:148] Top shape: 24 832 7 7 (978432)
I0403 18:37:00.871870  7181 net.cpp:156] Memory required for data: 1325241888
I0403 18:37:00.871886  7181 layer_factory.hpp:77] Creating layer inception_5b/1x1
I0403 18:37:00.871911  7181 net.cpp:91] Creating Layer inception_5b/1x1
I0403 18:37:00.871929  7181 net.cpp:425] inception_5b/1x1 <- inception_5a/output_inception_5a/output_0_split_0
I0403 18:37:00.871953  7181 net.cpp:399] inception_5b/1x1 -> inception_5b/1x1
I0403 18:37:00.875855  7181 net.cpp:141] Setting up inception_5b/1x1
I0403 18:37:00.875888  7181 net.cpp:148] Top shape: 24 384 7 7 (451584)
I0403 18:37:00.875906  7181 net.cpp:156] Memory required for data: 1327048224
I0403 18:37:00.875926  7181 layer_factory.hpp:77] Creating layer inception_5b/relu_1x1
I0403 18:37:00.875947  7181 net.cpp:91] Creating Layer inception_5b/relu_1x1
I0403 18:37:00.875965  7181 net.cpp:425] inception_5b/relu_1x1 <- inception_5b/1x1
I0403 18:37:00.875987  7181 net.cpp:386] inception_5b/relu_1x1 -> inception_5b/1x1 (in-place)
I0403 18:37:00.876304  7181 net.cpp:141] Setting up inception_5b/relu_1x1
I0403 18:37:00.876332  7181 net.cpp:148] Top shape: 24 384 7 7 (451584)
I0403 18:37:00.876348  7181 net.cpp:156] Memory required for data: 1328854560
I0403 18:37:00.876364  7181 layer_factory.hpp:77] Creating layer inception_5b/3x3_reduce
I0403 18:37:00.876389  7181 net.cpp:91] Creating Layer inception_5b/3x3_reduce
I0403 18:37:00.876407  7181 net.cpp:425] inception_5b/3x3_reduce <- inception_5a/output_inception_5a/output_0_split_1
I0403 18:37:00.876430  7181 net.cpp:399] inception_5b/3x3_reduce -> inception_5b/3x3_reduce
I0403 18:37:00.879166  7181 net.cpp:141] Setting up inception_5b/3x3_reduce
I0403 18:37:00.879204  7181 net.cpp:148] Top shape: 24 192 7 7 (225792)
I0403 18:37:00.879223  7181 net.cpp:156] Memory required for data: 1329757728
I0403 18:37:00.879242  7181 layer_factory.hpp:77] Creating layer inception_5b/relu_3x3_reduce
I0403 18:37:00.879262  7181 net.cpp:91] Creating Layer inception_5b/relu_3x3_reduce
I0403 18:37:00.879287  7181 net.cpp:425] inception_5b/relu_3x3_reduce <- inception_5b/3x3_reduce
I0403 18:37:00.879308  7181 net.cpp:386] inception_5b/relu_3x3_reduce -> inception_5b/3x3_reduce (in-place)
I0403 18:37:00.879505  7181 net.cpp:141] Setting up inception_5b/relu_3x3_reduce
I0403 18:37:00.879534  7181 net.cpp:148] Top shape: 24 192 7 7 (225792)
I0403 18:37:00.879549  7181 net.cpp:156] Memory required for data: 1330660896
I0403 18:37:00.879564  7181 layer_factory.hpp:77] Creating layer inception_5b/3x3
I0403 18:37:00.879586  7181 net.cpp:91] Creating Layer inception_5b/3x3
I0403 18:37:00.879606  7181 net.cpp:425] inception_5b/3x3 <- inception_5b/3x3_reduce
I0403 18:37:00.879629  7181 net.cpp:399] inception_5b/3x3 -> inception_5b/3x3
I0403 18:37:00.886611  7181 net.cpp:141] Setting up inception_5b/3x3
I0403 18:37:00.886646  7181 net.cpp:148] Top shape: 24 384 7 7 (451584)
I0403 18:37:00.886663  7181 net.cpp:156] Memory required for data: 1332467232
I0403 18:37:00.886684  7181 layer_factory.hpp:77] Creating layer inception_5b/relu_3x3
I0403 18:37:00.886706  7181 net.cpp:91] Creating Layer inception_5b/relu_3x3
I0403 18:37:00.886747  7181 net.cpp:425] inception_5b/relu_3x3 <- inception_5b/3x3
I0403 18:37:00.886770  7181 net.cpp:386] inception_5b/relu_3x3 -> inception_5b/3x3 (in-place)
I0403 18:37:00.887087  7181 net.cpp:141] Setting up inception_5b/relu_3x3
I0403 18:37:00.887117  7181 net.cpp:148] Top shape: 24 384 7 7 (451584)
I0403 18:37:00.887135  7181 net.cpp:156] Memory required for data: 1334273568
I0403 18:37:00.887151  7181 layer_factory.hpp:77] Creating layer inception_5b/5x5_reduce
I0403 18:37:00.887194  7181 net.cpp:91] Creating Layer inception_5b/5x5_reduce
I0403 18:37:00.887217  7181 net.cpp:425] inception_5b/5x5_reduce <- inception_5a/output_inception_5a/output_0_split_2
I0403 18:37:00.887243  7181 net.cpp:399] inception_5b/5x5_reduce -> inception_5b/5x5_reduce
I0403 18:37:00.888609  7181 net.cpp:141] Setting up inception_5b/5x5_reduce
I0403 18:37:00.888641  7181 net.cpp:148] Top shape: 24 48 7 7 (56448)
I0403 18:37:00.888659  7181 net.cpp:156] Memory required for data: 1334499360
I0403 18:37:00.888680  7181 layer_factory.hpp:77] Creating layer inception_5b/relu_5x5_reduce
I0403 18:37:00.888700  7181 net.cpp:91] Creating Layer inception_5b/relu_5x5_reduce
I0403 18:37:00.888720  7181 net.cpp:425] inception_5b/relu_5x5_reduce <- inception_5b/5x5_reduce
I0403 18:37:00.888742  7181 net.cpp:386] inception_5b/relu_5x5_reduce -> inception_5b/5x5_reduce (in-place)
I0403 18:37:00.889143  7181 net.cpp:141] Setting up inception_5b/relu_5x5_reduce
I0403 18:37:00.889173  7181 net.cpp:148] Top shape: 24 48 7 7 (56448)
I0403 18:37:00.889189  7181 net.cpp:156] Memory required for data: 1334725152
I0403 18:37:00.889206  7181 layer_factory.hpp:77] Creating layer inception_5b/5x5
I0403 18:37:00.889228  7181 net.cpp:91] Creating Layer inception_5b/5x5
I0403 18:37:00.889246  7181 net.cpp:425] inception_5b/5x5 <- inception_5b/5x5_reduce
I0403 18:37:00.889267  7181 net.cpp:399] inception_5b/5x5 -> inception_5b/5x5
I0403 18:37:00.891470  7181 net.cpp:141] Setting up inception_5b/5x5
I0403 18:37:00.891502  7181 net.cpp:148] Top shape: 24 128 7 7 (150528)
I0403 18:37:00.891520  7181 net.cpp:156] Memory required for data: 1335327264
I0403 18:37:00.891541  7181 layer_factory.hpp:77] Creating layer inception_5b/relu_5x5
I0403 18:37:00.891566  7181 net.cpp:91] Creating Layer inception_5b/relu_5x5
I0403 18:37:00.891585  7181 net.cpp:425] inception_5b/relu_5x5 <- inception_5b/5x5
I0403 18:37:00.891607  7181 net.cpp:386] inception_5b/relu_5x5 -> inception_5b/5x5 (in-place)
I0403 18:37:00.891816  7181 net.cpp:141] Setting up inception_5b/relu_5x5
I0403 18:37:00.891845  7181 net.cpp:148] Top shape: 24 128 7 7 (150528)
I0403 18:37:00.891862  7181 net.cpp:156] Memory required for data: 1335929376
I0403 18:37:00.891880  7181 layer_factory.hpp:77] Creating layer inception_5b/pool
I0403 18:37:00.891901  7181 net.cpp:91] Creating Layer inception_5b/pool
I0403 18:37:00.891921  7181 net.cpp:425] inception_5b/pool <- inception_5a/output_inception_5a/output_0_split_3
I0403 18:37:00.891942  7181 net.cpp:399] inception_5b/pool -> inception_5b/pool
I0403 18:37:00.892020  7181 net.cpp:141] Setting up inception_5b/pool
I0403 18:37:00.892048  7181 net.cpp:148] Top shape: 24 832 7 7 (978432)
I0403 18:37:00.892066  7181 net.cpp:156] Memory required for data: 1339843104
I0403 18:37:00.892084  7181 layer_factory.hpp:77] Creating layer inception_5b/pool_proj
I0403 18:37:00.892109  7181 net.cpp:91] Creating Layer inception_5b/pool_proj
I0403 18:37:00.892130  7181 net.cpp:425] inception_5b/pool_proj <- inception_5b/pool
I0403 18:37:00.892154  7181 net.cpp:399] inception_5b/pool_proj -> inception_5b/pool_proj
I0403 18:37:00.894661  7181 net.cpp:141] Setting up inception_5b/pool_proj
I0403 18:37:00.894696  7181 net.cpp:148] Top shape: 24 128 7 7 (150528)
I0403 18:37:00.894716  7181 net.cpp:156] Memory required for data: 1340445216
I0403 18:37:00.894737  7181 layer_factory.hpp:77] Creating layer inception_5b/relu_pool_proj
I0403 18:37:00.894759  7181 net.cpp:91] Creating Layer inception_5b/relu_pool_proj
I0403 18:37:00.894779  7181 net.cpp:425] inception_5b/relu_pool_proj <- inception_5b/pool_proj
I0403 18:37:00.894801  7181 net.cpp:386] inception_5b/relu_pool_proj -> inception_5b/pool_proj (in-place)
I0403 18:37:00.895123  7181 net.cpp:141] Setting up inception_5b/relu_pool_proj
I0403 18:37:00.895154  7181 net.cpp:148] Top shape: 24 128 7 7 (150528)
I0403 18:37:00.895172  7181 net.cpp:156] Memory required for data: 1341047328
I0403 18:37:00.895190  7181 layer_factory.hpp:77] Creating layer inception_5b/output
I0403 18:37:00.895210  7181 net.cpp:91] Creating Layer inception_5b/output
I0403 18:37:00.895243  7181 net.cpp:425] inception_5b/output <- inception_5b/1x1
I0403 18:37:00.895263  7181 net.cpp:425] inception_5b/output <- inception_5b/3x3
I0403 18:37:00.895287  7181 net.cpp:425] inception_5b/output <- inception_5b/5x5
I0403 18:37:00.895306  7181 net.cpp:425] inception_5b/output <- inception_5b/pool_proj
I0403 18:37:00.895330  7181 net.cpp:399] inception_5b/output -> inception_5b/output
I0403 18:37:00.895386  7181 net.cpp:141] Setting up inception_5b/output
I0403 18:37:00.895416  7181 net.cpp:148] Top shape: 24 1024 7 7 (1204224)
I0403 18:37:00.895432  7181 net.cpp:156] Memory required for data: 1345864224
I0403 18:37:00.895448  7181 layer_factory.hpp:77] Creating layer pool5/7x7_s1
I0403 18:37:00.895468  7181 net.cpp:91] Creating Layer pool5/7x7_s1
I0403 18:37:00.895485  7181 net.cpp:425] pool5/7x7_s1 <- inception_5b/output
I0403 18:37:00.895509  7181 net.cpp:399] pool5/7x7_s1 -> pool5/7x7_s1
I0403 18:37:00.895743  7181 net.cpp:141] Setting up pool5/7x7_s1
I0403 18:37:00.895771  7181 net.cpp:148] Top shape: 24 1024 1 1 (24576)
I0403 18:37:00.895787  7181 net.cpp:156] Memory required for data: 1345962528
I0403 18:37:00.895803  7181 layer_factory.hpp:77] Creating layer pool5/drop_7x7_s1
I0403 18:37:00.895823  7181 net.cpp:91] Creating Layer pool5/drop_7x7_s1
I0403 18:37:00.895841  7181 net.cpp:425] pool5/drop_7x7_s1 <- pool5/7x7_s1
I0403 18:37:00.895864  7181 net.cpp:386] pool5/drop_7x7_s1 -> pool5/7x7_s1 (in-place)
I0403 18:37:00.895920  7181 net.cpp:141] Setting up pool5/drop_7x7_s1
I0403 18:37:00.895946  7181 net.cpp:148] Top shape: 24 1024 1 1 (24576)
I0403 18:37:00.895961  7181 net.cpp:156] Memory required for data: 1346060832
I0403 18:37:00.895978  7181 layer_factory.hpp:77] Creating layer loss3/classifier_plantvillage
I0403 18:37:00.895998  7181 net.cpp:91] Creating Layer loss3/classifier_plantvillage
I0403 18:37:00.896018  7181 net.cpp:425] loss3/classifier_plantvillage <- pool5/7x7_s1
I0403 18:37:00.896041  7181 net.cpp:399] loss3/classifier_plantvillage -> loss3/classifier_plantvillage
I0403 18:37:00.896509  7181 net.cpp:141] Setting up loss3/classifier_plantvillage
I0403 18:37:00.896538  7181 net.cpp:148] Top shape: 24 38 (912)
I0403 18:37:00.896554  7181 net.cpp:156] Memory required for data: 1346064480
I0403 18:37:00.896574  7181 layer_factory.hpp:77] Creating layer loss3/classifier_plantvillage_loss3/classifier_plantvillage_0_split
I0403 18:37:00.896597  7181 net.cpp:91] Creating Layer loss3/classifier_plantvillage_loss3/classifier_plantvillage_0_split
I0403 18:37:00.896617  7181 net.cpp:425] loss3/classifier_plantvillage_loss3/classifier_plantvillage_0_split <- loss3/classifier_plantvillage
I0403 18:37:00.896637  7181 net.cpp:399] loss3/classifier_plantvillage_loss3/classifier_plantvillage_0_split -> loss3/classifier_plantvillage_loss3/classifier_plantvillage_0_split_0
I0403 18:37:00.896666  7181 net.cpp:399] loss3/classifier_plantvillage_loss3/classifier_plantvillage_0_split -> loss3/classifier_plantvillage_loss3/classifier_plantvillage_0_split_1
I0403 18:37:00.896689  7181 net.cpp:399] loss3/classifier_plantvillage_loss3/classifier_plantvillage_0_split -> loss3/classifier_plantvillage_loss3/classifier_plantvillage_0_split_2
I0403 18:37:00.896713  7181 net.cpp:399] loss3/classifier_plantvillage_loss3/classifier_plantvillage_0_split -> loss3/classifier_plantvillage_loss3/classifier_plantvillage_0_split_3
I0403 18:37:00.896824  7181 net.cpp:141] Setting up loss3/classifier_plantvillage_loss3/classifier_plantvillage_0_split
I0403 18:37:00.896850  7181 net.cpp:148] Top shape: 24 38 (912)
I0403 18:37:00.896868  7181 net.cpp:148] Top shape: 24 38 (912)
I0403 18:37:00.896885  7181 net.cpp:148] Top shape: 24 38 (912)
I0403 18:37:00.896903  7181 net.cpp:148] Top shape: 24 38 (912)
I0403 18:37:00.896919  7181 net.cpp:156] Memory required for data: 1346079072
I0403 18:37:00.896935  7181 layer_factory.hpp:77] Creating layer loss1/loss
I0403 18:37:00.896960  7181 net.cpp:91] Creating Layer loss1/loss
I0403 18:37:00.896978  7181 net.cpp:425] loss1/loss <- loss1/classifier_plantvillage_loss1/classifier_plantvillage_0_split_0
I0403 18:37:00.897012  7181 net.cpp:425] loss1/loss <- label_data_1_split_0
…
