…
I0403 18:47:14.764807  7632 net.cpp:313] The NetState phase (1) differed from the phase (0) specified by a rule in layer data
I0403 18:47:14.766211  7632 net.cpp:49] Initializing net from parameters: 
state {
  phase: TEST
}
layer {
  name: "data"
  type: "Data"
  top: "data"
  top: "label"
  include {
    phase: TEST
  }
  transform_param {
    mirror: false
    crop_size: 224
    mean_file: "/home/mohanty/data/final_dataset/lmdb/grayscale-40-60/mean.binaryproto"
  }
  data_param {
    source: "/home/mohanty/data/final_dataset/lmdb/grayscale-40-60/test_db"
    batch_size: 24
    backend: LMDB
  }
}
layer {
  name: "conv1/7x7_s2"
  type: "Convolution"
  bottom: "data"
  top: "conv1/7x7_s2"
  param {
    lr_mult: 1
    decay_mult: 1
  }
  param {
    lr_mult: 2
    decay_mult: 0
  }
  convolution_param {
    num_output: 64
    pad: 3
    kernel_size: 7
    stride: 2
    weight_filler {
      type: "xavier"
      std: 0.1
    }
    bias_filler {
      type: "constant"
      value: 0.2
    }
  }
}
layer {
  name: "conv1/relu_7x7"
  type: "ReLU"
  bottom: "conv1/7x7_s2"
  top: "conv1/7x7_s2"
}
layer {
  name: "pool1/3x3_s2"
  type: "Pooling"
  bottom: "conv1/7x7_s2"
  top: "pool1/3x3_s2"
  pooling_param {
    pool: MAX
    kernel_size: 3
    stride: 2
  }
}
layer {
  name: "pool1/norm1"
  type: "LRN"
  bottom: "pool1/3x3_s2"
  top: "pool1/norm1"
  lrn_param {
    local_size: 5
    alpha: 0.0001
    beta: 0.75
  }
}
layer {
  name: "conv2/3x3_reduce"
  type: "Convolution"
  bottom: "pool1/norm1"
  top: "conv2/3x3_reduce"
  param {
    lr_mult: 1
    decay_mult: 1
  }
  param {
    lr_mult: 2
    decay_mult: 0
  }
  convolution_param {
    num_output: 64
    kernel_size: 1
    weight_filler {
      type: "xavier"
      std: 0.1
    }
    bias_filler {
      type: "constant"
      value: 0.2
    }
  }
}
layer {
  name: "conv2/relu_3x3_reduce"
  type: "ReLU"
  bottom: "conv2/3x3_reduce"
  top: "conv2/3x3_reduce"
}
layer {
  name: "conv2/3x3"
  type: "Convolution"
  bottom: "conv2/3x3_reduce"
  top: "conv2/3x3"
  param {
    lr_mult: 1
    decay_mult: 1
  }
  param {
    lr_mult: 2
    decay_mult: 0
  }
  convolution_param {
    num_output: 192
    pad: 1
    kernel_size: 3
    weight_filler {
      type: "xavier"
      std: 0.03
    }
    bias_filler {
      type: "constant"
      value: 0.2
    }
  }
}
layer {
  name: "conv2/relu_3x3"
  type: "ReLU"
  bottom: "conv2/3x3"
  top: "conv2/3x3"
}
layer {
  name: "conv2/norm2"
  type: "LRN"
  bottom: "conv2/3x3"
  top: "conv2/norm2"
  lrn_param {
    local_size: 5
    alpha: 0.0001
    beta: 0.75
  }
}
layer {
  name: "pool2/3x3_s2"
  type: "Pooling"
  bottom: "conv2/norm2"
  top: "pool2/3x3_s2"
  pooling_param {
    pool: MAX
    kernel_size: 3
    stride: 2
  }
}
layer {
  name: "inception_3a/1x1"
  type: "Convolution"
  bottom: "pool2/3x3_s2"
  top: "inception_3a/1x1"
  param {
    lr_mult: 1
    decay_mult: 1
  }
  param {
    lr_mult: 2
    decay_mult: 0
  }
  convolution_param {
    num_output: 64
    kernel_size: 1
    weight_filler {
      type: "xavier"
      std: 0.03
    }
    bias_filler {
      type: "constant"
      value: 0.2
    }
  }
}
layer {
  name: "inception_3a/relu_1x1"
  type: "ReLU"
  bottom: "inception_3a/1x1"
  top: "inception_3a/1x1"
}
layer {
  name: "inception_3a/3x3_reduce"
  type: "Convolution"
  bottom: "pool2/3x3_s2"
  top: "inception_3a/3x3_reduce"
  param {
    lr_mult: 1
    decay_mult: 1
  }
  param {
    lr_mult: 2
    decay_mult: 0
  }
  convolution_param {
    num_output: 96
    kernel_size: 1
    weight_filler {
      type: "xavier"
      std: 0.09
    }
    bias_filler {
      type: "constant"
      value: 0.2
    }
  }
}
layer {
  name: "inception_3a/relu_3x3_reduce"
  type: "ReLU"
  bottom: "inception_3a/3x3_reduce"
  top: "inception_3a/3x3_reduce"
}
layer {
  name: "inception_3a/3x3"
  type: "Convolution"
  bottom: "inception_3a/3x3_reduce"
  top: "inception_3a/3x3"
  param {
    lr_mult: 1
    decay_mult: 1
  }
  param {
    lr_mult: 2
    decay_mult: 0
  }
  convolution_param {
    num_output: 128
    pad: 1
    kernel_size: 3
    weight_filler {
      type: "xavier"
      std: 0.03
    }
    bias_filler {
      type: "constant"
      value: 0.2
    }
  }
}
layer {
  name: "inception_3a/relu_3x3"
  type: "ReLU"
  bottom: "inception_3a/3x3"
  top: "inception_3a/3x3"
}
layer {
  name: "inception_3a/5x5_reduce"
  type: "Convolution"
  bottom: "pool2/3x3_s2"
  top: "inception_3a/5x5_reduce"
  param {
    lr_mult: 1
    decay_mult: 1
  }
  param {
    lr_mult: 2
    decay_mult: 0
  }
  convolution_param {
    num_output: 16
    kernel_size: 1
    weight_filler {
      type: "xavier"
      std: 0.2
    }
    bias_filler {
      type: "constant"
      value: 0.2
    }
  }
}
layer {
  name: "inception_3a/relu_5x5_reduce"
  type: "ReLU"
  bottom: "inception_3a/5x5_reduce"
  top: "inception_3a/5x5_reduce"
}
layer {
  name: "inception_3a/5x5"
  type: "Convolution"
  bottom: "inception_3a/5x5_reduce"
  top: "inception_3a/5x5"
  param {
    lr_mult: 1
    decay_mult: 1
  }
  param {
    lr_mult: 2
    decay_mult: 0
  }
  convolution_param {
    num_output: 32
    pad: 2
    kernel_size: 5
    weight_filler {
      type: "xavier"
      std: 0.03
    }
    bias_filler {
      type: "constant"
      value: 0.2
    }
  }
}
layer {
  name: "inception_3a/relu_5x5"
  type: "ReLU"
  bottom: "inception_3a/5x5"
  top: "inception_3a/5x5"
}
layer {
  name: "inception_3a/pool"
  type: "Pooling"
  bottom: "pool2/3x3_s2"
  top: "inception_3a/pool"
  pooling_param {
    pool: MAX
    kernel_size: 3
    stride: 1
    pad: 1
  }
}
layer {
  name: "inception_3a/pool_proj"
  type: "Convolution"
  bottom: "inception_3a/pool"
  top: "inception_3a/pool_proj"
  param {
    lr_mult: 1
    decay_mult: 1
  }
  param {
    lr_mult: 2
    decay_mult: 0
  }
  convolution_param {
    num_output: 32
    kernel_size: 1
    weight_filler {
      type: "xavier"
      std: 0.1
    }
    bias_filler {
      type: "constant"
      value: 0.2
    }
  }
}
layer {
  name: "inception_3a/relu_pool_proj"
  type: "ReLU"
  bottom: "inception_3a/pool_proj"
  top: "inception_3a/pool_proj"
}
layer {
  name: "inception_3a/output"
  type: "Concat"
  bottom: "inception_3a/1x1"
  bottom: "inception_3a/3x3"
  bottom: "inception_3a/5x5"
  bottom: "inception_3a/pool_proj"
  top: "inception_3a/output"
}
layer {
  name: "inception_3b/1x1"
  type: "Convolution"
  bottom: "inception_3a/output"
  top: "inception_3b/1x1"
  param {
    lr_mult: 1
    decay_mult: 1
  }
  param {
    lr_mult: 2
    decay_mult: 0
  }
  convolution_param {
    num_output: 128
    kernel_size: 1
    weight_filler {
      type: "xavier"
      std: 0.03
    }
    bias_filler {
      type: "constant"
      value: 0.2
    }
  }
}
layer {
  name: "inception_3b/relu_1x1"
  type: "ReLU"
  bottom: "inception_3b/1x1"
  top: "inception_3b/1x1"
}
layer {
  name: "inception_3b/3x3_reduce"
  type: "Convolution"
  bottom: "inception_3a/output"
  top: "inception_3b/3x3_reduce"
  param {
    lr_mult: 1
    decay_mult: 1
  }
  param {
    lr_mult: 2
    decay_mult: 0
  }
  convolution_param {
    num_output: 128
    kernel_size: 1
    weight_filler {
      type: "xavier"
      std: 0.09
    }
    bias_filler {
      type: "constant"
      value: 0.2
    }
  }
}
layer {
  name: "inception_3b/relu_3x3_reduce"
  type: "ReLU"
  bottom: "inception_3b/3x3_reduce"
  top: "inception_3b/3x3_reduce"
}
layer {
  name: "inception_3b/3x3"
  type: "Convolution"
  bottom: "inception_3b/3x3_reduce"
  top: "inception_3b/3x3"
  param {
    lr_mult: 1
    decay_mult: 1
  }
  param {
    lr_mult: 2
    decay_mult: 0
  }
  convolution_param {
    num_output: 192
    pad: 1
    kernel_size: 3
    weight_filler {
      type: "xavier"
      std: 0.03
    }
    bias_filler {
      type: "constant"
      value: 0.2
    }
  }
}
layer {
  name: "inception_3b/relu_3x3"
  type: "ReLU"
  bottom: "inception_3b/3x3"
  top: "inception_3b/3x3"
}
layer {
  name: "inception_3b/5x5_reduce"
  type: "Convolution"
  bottom: "inception_3a/output"
  top: "inception_3b/5x5_reduce"
  param {
    lr_mult: 1
    decay_mult: 1
  }
  param {
    lr_mult: 2
    decay_mult: 0
  }
  convolution_param {
    num_output: 32
    kernel_size: 1
    weight_filler {
      type: "xavier"
      std: 0.2
    }
    bias_filler {
      type: "constant"
      value: 0.2
    }
  }
}
layer {
  name: "inception_3b/relu_5x5_reduce"
  type: "ReLU"
  bottom: "inception_3b/5x5_reduce"
  top: "inception_3b/5x5_reduce"
}
layer {
  name: "inception_3b/5x5"
  type: "Convolution"
  bottom: "inception_3b/5x5_reduce"
  top: "inception_3b/5x5"
  param {
    lr_mult: 1
    decay_mult: 1
  }
  param {
    lr_mult: 2
    decay_mult: 0
  }
  convolution_param {
    num_output: 96
    pad: 2
    kernel_size: 5
    weight_filler {
      type: "xavier"
      std: 0.03
    }
    bias_filler {
      type: "constant"
      value: 0.2
    }
  }
}
layer {
  name: "inception_3b/relu_5x5"
  type: "ReLU"
  bottom: "inception_3b/5x5"
  top: "inception_3b/5x5"
}
layer {
  name: "inception_3b/pool"
  type: "Pooling"
  bottom: "inception_3a/output"
  top: "inception_3b/pool"
  pooling_param {
    pool: MAX
    kernel_size: 3
    stride: 1
    pad: 1
  }
}
layer {
  name: "inception_3b/pool_proj"
  type: "Convolution"
  bottom: "inception_3b/pool"
  top: "inception_3b/pool_proj"
  param {
    lr_mult: 1
    decay_mult: 1
  }
  param {
    lr_mult: 2
    decay_mult: 0
  }
  convolution_param {
    num_output: 64
    kernel_size: 1
    weight_filler {
      type: "xavier"
      std: 0.1
    }
    bias_filler {
      type: "constant"
      value: 0.2
    }
  }
}
layer {
  name: "inception_3b/relu_pool_proj"
  type: "ReLU"
  bottom: "inception_3b/pool_proj"
  top: "inception_3b/pool_proj"
}
layer {
  name: "inception_3b/output"
  type: "Concat"
  bottom: "inception_3b/1x1"
  bottom: "inception_3b/3x3"
  bottom: "inception_3b/5x5"
  bottom: "inception_3b/pool_proj"
  top: "inception_3b/output"
}
layer {
  name: "pool3/3x3_s2"
  type: "Pooling"
  bottom: "inception_3b/output"
  top: "pool3/3x3_s2"
  pooling_param {
    pool: MAX
    kernel_size: 3
    stride: 2
  }
}
layer {
  name: "inception_4a/1x1"
  type: "Convolution"
  bottom: "pool3/3x3_s2"
  top: "inception_4a/1x1"
  param {
    lr_mult: 1
    decay_mult: 1
  }
  param {
    lr_mult: 2
    decay_mult: 0
  }
  convolution_param {
    num_output: 192
    kernel_size: 1
    weight_filler {
      type: "xavier"
      std: 0.03
    }
    bias_filler {
      type: "constant"
      value: 0.2
    }
  }
}
layer {
  name: "inception_4a/relu_1x1"
  type: "ReLU"
  bottom: "inception_4a/1x1"
  top: "inception_4a/1x1"
}
layer {
  name: "inception_4a/3x3_reduce"
  type: "Convolution"
  bottom: "pool3/3x3_s2"
  top: "inception_4a/3x3_reduce"
  param {
    lr_mult: 1
    decay_mult: 1
  }
  param {
    lr_mult: 2
    decay_mult: 0
  }
  convolution_param {
    num_output: 96
    kernel_size: 1
    weight_filler {
      type: "xavier"
      std: 0.09
    }
    bias_filler {
      type: "constant"
      value: 0.2
    }
  }
}
layer {
  name: "inception_4a/relu_3x3_reduce"
  type: "ReLU"
  bottom: "inception_4a/3x3_reduce"
  top: "inception_4a/3x3_reduce"
}
layer {
  name: "inception_4a/3x3"
  type: "Convolution"
  bottom: "inception_4a/3x3_reduce"
  top: "inception_4a/3x3"
  param {
    lr_mult: 1
    decay_mult: 1
  }
  param {
    lr_mult: 2
    decay_mult: 0
  }
  convolution_param {
    num_output: 208
    pad: 1
    kernel_size: 3
    weight_filler {
      type: "xavier"
      std: 0.03
    }
    bias_filler {
      type: "constant"
      value: 0.2
    }
  }
}
layer {
  name: "inception_4a/relu_3x3"
  type: "ReLU"
  bottom: "inception_4a/3x3"
  top: "inception_4a/3x3"
}
layer {
  name: "inception_4a/5x5_reduce"
  type: "Convolution"
  bottom: "pool3/3x3_s2"
  top: "inception_4a/5x5_reduce"
  param {
    lr_mult: 1
    decay_mult: 1
  }
  param {
    lr_mult: 2
    decay_mult: 0
  }
  convolution_param {
    num_output: 16
    kernel_size: 1
    weight_filler {
      type: "xavier"
      std: 0.2
    }
    bias_filler {
      type: "constant"
      value: 0.2
    }
  }
}
layer {
  name: "inception_4a/relu_5x5_reduce"
  type: "ReLU"
  bottom: "inception_4a/5x5_reduce"
  top: "inception_4a/5x5_reduce"
}
layer {
  name: "inception_4a/5x5"
  type: "Convolution"
  bottom: "inception_4a/5x5_reduce"
  top: "inception_4a/5x5"
  param {
    lr_mult: 1
    decay_mult: 1
  }
  param {
    lr_mult: 2
    decay_mult: 0
  }
  convolution_param {
    num_output: 48
    pad: 2
    kernel_size: 5
    weight_filler {
      type: "xavier"
      std: 0.03
    }
    bias_filler {
      type: "constant"
      value: 0.2
    }
  }
}
layer {
  name: "inception_4a/relu_5x5"
  type: "ReLU"
  bottom: "inception_4a/5x5"
  top: "inception_4a/5x5"
}
layer {
  name: "inception_4a/pool"
  type: "Pooling"
  bottom: "pool3/3x3_s2"
  top: "inception_4a/pool"
  pooling_param {
    pool: MAX
    kernel_size: 3
    stride: 1
    pad: 1
  }
}
layer {
  name: "inception_4a/pool_proj"
  type: "Convolution"
  bottom: "inception_4a/pool"
  top: "inception_4a/pool_proj"
  param {
    lr_mult: 1
    decay_mult: 1
  }
  param {
    lr_mult: 2
    decay_mult: 0
  }
  convolution_param {
    num_output: 64
    kernel_size: 1
    weight_filler {
      type: "xavier"
      std: 0.1
    }
    bias_filler {
      type: "constant"
      value: 0.2
    }
  }
}
layer {
  name: "inception_4a/relu_pool_proj"
  type: "ReLU"
  bottom: "inception_4a/pool_proj"
  top: "inception_4a/pool_proj"
}
layer {
  name: "inception_4a/output"
  type: "Concat"
  bottom: "inception_4a/1x1"
  bottom: "inception_4a/3x3"
  bottom: "inception_4a/5x5"
  bottom: "inception_4a/pool_proj"
  top: "inception_4a/output"
}
layer {
  name: "loss1/ave_pool"
  type: "Pooling"
  bottom: "inception_4a/output"
  top: "loss1/ave_pool"
  pooling_param {
    pool: AVE
    kernel_size: 5
    stride: 3
  }
}
layer {
  name: "loss1/conv"
  type: "Convolution"
  bottom: "loss1/ave_pool"
  top: "loss1/conv"
  param {
    lr_mult: 1
    decay_mult: 1
  }
  param {
    lr_mult: 2
    decay_mult: 0
  }
  convolution_param {
    num_output: 128
    kernel_size: 1
    weight_filler {
      type: "xavier"
      std: 0.08
    }
    bias_filler {
      type: "constant"
      value: 0.2
    }
  }
}
layer {
  name: "loss1/relu_conv"
  type: "ReLU"
  bottom: "loss1/conv"
  top: "loss1/conv"
}
layer {
  name: "loss1/fc"
  type: "InnerProduct"
  bottom: "loss1/conv"
  top: "loss1/fc"
  param {
    lr_mult: 1
    decay_mult: 1
  }
  param {
    lr_mult: 2
    decay_mult: 0
  }
  inner_product_param {
    num_output: 1024
    weight_filler {
      type: "xavier"
      std: 0.02
    }
    bias_filler {
      type: "constant"
      value: 0.2
    }
  }
}
layer {
  name: "loss1/relu_fc"
  type: "ReLU"
  bottom: "loss1/fc"
  top: "loss1/fc"
}
layer {
  name: "loss1/drop_fc"
  type: "Dropout"
  bottom: "loss1/fc"
  top: "loss1/fc"
  dropout_param {
    dropout_ratio: 0.7
  }
}
layer {
  name: "loss1/classifier_plantvillage"
  type: "InnerProduct"
  bottom: "loss1/fc"
  top: "loss1/classifier_plantvillage"
  param {
    lr_mult: 1
    decay_mult: 1
  }
  param {
    lr_mult: 2
    decay_mult: 0
  }
  inner_product_param {
    num_output: 38
    weight_filler {
      type: "xavier"
      std: 0.0009765625
    }
    bias_filler {
      type: "constant"
      value: 0
    }
  }
}
layer {
  name: "inception_4b/1x1"
  type: "Convolution"
  bottom: "inception_4a/output"
  top: "inception_4b/1x1"
  param {
    lr_mult: 1
    decay_mult: 1
  }
  param {
    lr_mult: 2
    decay_mult: 0
  }
  convolution_param {
    num_output: 160
    kernel_size: 1
    weight_filler {
      type: "xavier"
      std: 0.03
    }
    bias_filler {
      type: "constant"
      value: 0.2
    }
  }
}
layer {
  name: "inception_4b/relu_1x1"
  type: "ReLU"
  bottom: "inception_4b/1x1"
  top: "inception_4b/1x1"
}
layer {
  name: "inception_4b/3x3_reduce"
  type: "Convolution"
  bottom: "inception_4a/output"
  top: "inception_4b/3x3_reduce"
  param {
    lr_mult: 1
    decay_mult: 1
  }
  param {
    lr_mult: 2
    decay_mult: 0
  }
  convolution_param {
    num_output: 112
    kernel_size: 1
    weight_filler {
      type: "xavier"
      std: 0.09
    }
    bias_filler {
      type: "constant"
      value: 0.2
    }
  }
}
layer {
  name: "inception_4b/relu_3x3_reduce"
  type: "ReLU"
  bottom: "inception_4b/3x3_reduce"
  top: "inception_4b/3x3_reduce"
}
layer {
  name: "inception_4b/3x3"
  type: "Convolution"
  bottom: "inception_4b/3x3_reduce"
  top: "inception_4b/3x3"
  param {
    lr_mult: 1
    decay_mult: 1
  }
  param {
    lr_mult: 2
    decay_mult: 0
  }
  convolution_param {
    num_output: 224
    pad: 1
    kernel_size: 3
    weight_filler {
      type: "xavier"
      std: 0.03
    }
    bias_filler {
      type: "constant"
      value: 0.2
    }
  }
}
layer {
  name: "inception_4b/relu_3x3"
  type: "ReLU"
  bottom: "inception_4b/3x3"
  top: "inception_4b/3x3"
}
layer {
  name: "inception_4b/5x5_reduce"
  type: "Convolution"
  bottom: "inception_4a/output"
  top: "inception_4b/5x5_reduce"
  param {
    lr_mult: 1
    decay_mult: 1
  }
  param {
    lr_mult: 2
    decay_mult: 0
  }
  convolution_param {
    num_output: 24
    kernel_size: 1
    weight_filler {
      type: "xavier"
      std: 0.2
    }
    bias_filler {
      type: "constant"
      value: 0.2
    }
  }
}
layer {
  name: "inception_4b/relu_5x5_reduce"
  type: "ReLU"
  bottom: "inception_4b/5x5_reduce"
  top: "inception_4b/5x5_reduce"
}
layer {
  name: "inception_4b/5x5"
  type: "Convolution"
  bottom: "inception_4b/5x5_reduce"
  top: "inception_4b/5x5"
  param {
    lr_mult: 1
    decay_mult: 1
  }
  param {
    lr_mult: 2
    decay_mult: 0
  }
  convolution_param {
    num_output: 64
    pad: 2
    kernel_size: 5
    weight_filler {
      type: "xavier"
      std: 0.03
    }
    bias_filler {
      type: "constant"
      value: 0.2
    }
  }
}
layer {
  name: "inception_4b/relu_5x5"
  type: "ReLU"
  bottom: "inception_4b/5x5"
  top: "inception_4b/5x5"
}
layer {
  name: "inception_4b/pool"
  type: "Pooling"
  bottom: "inception_4a/output"
  top: "inception_4b/pool"
  pooling_param {
    pool: MAX
    kernel_size: 3
    stride: 1
    pad: 1
  }
}
layer {
  name: "inception_4b/pool_proj"
  type: "Convolution"
  bottom: "inception_4b/pool"
  top: "inception_4b/pool_proj"
  param {
    lr_mult: 1
    decay_mult: 1
  }
  param {
    lr_mult: 2
    decay_mult: 0
  }
  convolution_param {
    num_output: 64
    kernel_size: 1
    weight_filler {
      type: "xavier"
      std: 0.1
    }
    bias_filler {
      type: "constant"
      value: 0.2
    }
  }
}
layer {
  name: "inception_4b/relu_pool_proj"
  type: "ReLU"
  bottom: "inception_4b/pool_proj"
  top: "inception_4b/pool_proj"
}
layer {
  name: "inception_4b/output"
  type: "Concat"
  bottom: "inception_4b/1x1"
  bottom: "inception_4b/3x3"
  bottom: "inception_4b/5x5"
  bottom: "inception_4b/pool_proj"
  top: "inception_4b/output"
}
layer {
  name: "inception_4c/1x1"
  type: "Convolution"
  bottom: "inception_4b/output"
  top: "inception_4c/1x1"
  param {
    lr_mult: 1
    decay_mult: 1
  }
  param {
    lr_mult: 2
    decay_mult: 0
  }
  convolution_param {
    num_output: 128
    kernel_size: 1
    weight_filler {
      type: "xavier"
      std: 0.03
    }
    bias_filler {
      type: "constant"
      value: 0.2
    }
  }
}
layer {
  name: "inception_4c/relu_1x1"
  type: "ReLU"
  bottom: "inception_4c/1x1"
  top: "inception_4c/1x1"
}
layer {
  name: "inception_4c/3x3_reduce"
  type: "Convolution"
  bottom: "inception_4b/output"
  top: "inception_4c/3x3_reduce"
  param {
    lr_mult: 1
    decay_mult: 1
  }
  param {
    lr_mult: 2
    decay_mult: 0
  }
  convolution_param {
    num_output: 128
    kernel_size: 1
    weight_filler {
      type: "xavier"
      std: 0.09
    }
    bias_filler {
      type: "constant"
      value: 0.2
    }
  }
}
layer {
  name: "inception_4c/relu_3x3_reduce"
  type: "ReLU"
  bottom: "inception_4c/3x3_reduce"
  top: "inception_4c/3x3_reduce"
}
layer {
  name: "inception_4c/3x3"
  type: "Convolution"
  bottom: "inception_4c/3x3_reduce"
  top: "inception_4c/3x3"
  param {
    lr_mult: 1
    decay_mult: 1
  }
  param {
    lr_mult: 2
    decay_mult: 0
  }
  convolution_param {
    num_output: 256
    pad: 1
    kernel_size: 3
    weight_filler {
      type: "xavier"
      std: 0.03
    }
    bias_filler {
      type: "constant"
      value: 0.2
    }
  }
}
layer {
  name: "inception_4c/relu_3x3"
  type: "ReLU"
  bottom: "inception_4c/3x3"
  top: "inception_4c/3x3"
}
layer {
  name: "inception_4c/5x5_reduce"
  type: "Convolution"
  bottom: "inception_4b/output"
  top: "inception_4c/5x5_reduce"
  param {
    lr_mult: 1
    decay_mult: 1
  }
  param {
    lr_mult: 2
    decay_mult: 0
  }
  convolution_param {
    num_output: 24
    kernel_size: 1
    weight_filler {
      type: "xavier"
      std: 0.2
    }
    bias_filler {
      type: "constant"
      value: 0.2
    }
  }
}
layer {
  name: "inception_4c/relu_5x5_reduce"
  type: "ReLU"
  bottom: "inception_4c/5x5_reduce"
  top: "inception_4c/5x5_reduce"
}
layer {
  name: "inception_4c/5x5"
  type: "Convolution"
  bottom: "inception_4c/5x5_reduce"
  top: "inception_4c/5x5"
  param {
    lr_mult: 1
    decay_mult: 1
  }
  param {
    lr_mult: 2
    decay_mult: 0
  }
  convolution_param {
    num_output: 64
    pad: 2
    kernel_size: 5
    weight_filler {
      type: "xavier"
      std: 0.03
    }
    bias_filler {
      type: "constant"
      value: 0.2
    }
  }
}
layer {
  name: "inception_4c/relu_5x5"
  type: "ReLU"
  bottom: "inception_4c/5x5"
  top: "inception_4c/5x5"
}
layer {
  name: "inception_4c/pool"
  type: "Pooling"
  bottom: "inception_4b/output"
  top: "inception_4c/pool"
  pooling_param {
    pool: MAX
    kernel_size: 3
    stride: 1
    pad: 1
  }
}
layer {
  name: "inception_4c/pool_proj"
  type: "Convolution"
  bottom: "inception_4c/pool"
  top: "inception_4c/pool_proj"
  param {
    lr_mult: 1
    decay_mult: 1
  }
  param {
    lr_mult: 2
    decay_mult: 0
  }
  convolution_param {
    num_output: 64
    kernel_size: 1
    weight_filler {
      type: "xavier"
      std: 0.1
    }
    bias_filler {
      type: "constant"
      value: 0.2
    }
  }
}
layer {
  name: "inception_4c/relu_pool_proj"
  type: "ReLU"
  bottom: "inception_4c/pool_proj"
  top: "inception_4c/pool_proj"
}
layer {
  name: "inception_4c/output"
  type: "Concat"
  bottom: "inception_4c/1x1"
  bottom: "inception_4c/3x3"
  bottom: "inception_4c/5x5"
  bottom: "inception_4c/pool_proj"
  top: "inception_4c/output"
}
layer {
  name: "inception_4d/1x1"
  type: "Convolution"
  bottom: "inception_4c/output"
  top: "inception_4d/1x1"
  param {
    lr_mult: 1
    decay_mult: 1
  }
  param {
    lr_mult: 2
    decay_mult: 0
  }
  convolution_param {
    num_output: 112
    kernel_size: 1
    weight_filler {
      type: "xavier"
      std: 0.03
    }
    bias_filler {
      type: "constant"
      value: 0.2
    }
  }
}
layer {
  name: "inception_4d/relu_1x1"
  type: "ReLU"
  bottom: "inception_4d/1x1"
  top: "inception_4d/1x1"
}
layer {
  name: "inception_4d/3x3_reduce"
  type: "Convolution"
  bottom: "inception_4c/output"
  top: "inception_4d/3x3_reduce"
  param {
    lr_mult: 1
    decay_mult: 1
  }
  param {
    lr_mult: 2
    decay_mult: 0
  }
  convolution_param {
    num_output: 144
    kernel_size: 1
    weight_filler {
      type: "xavier"
      std: 0.09
    }
    bias_filler {
      type: "constant"
      value: 0.2
    }
  }
}
layer {
  name: "inception_4d/relu_3x3_reduce"
  type: "ReLU"
  bottom: "inception_4d/3x3_reduce"
  top: "inception_4d/3x3_reduce"
}
layer {
  name: "inception_4d/3x3"
  type: "Convolution"
  bottom: "inception_4d/3x3_reduce"
  top: "inception_4d/3x3"
  param {
    lr_mult: 1
    decay_mult: 1
  }
  param {
    lr_mult: 2
    decay_mult: 0
  }
  convolution_param {
    num_output: 288
    pad: 1
    kernel_size: 3
    weight_filler {
      type: "xavier"
      std: 0.03
    }
    bias_filler {
      type: "constant"
      value: 0.2
    }
  }
}
layer {
  name: "inception_4d/relu_3x3"
  type: "ReLU"
  bottom: "inception_4d/3x3"
  top: "inception_4d/3x3"
}
layer {
  name: "inception_4d/5x5_reduce"
  type: "Convolution"
  bottom: "inception_4c/output"
  top: "inception_4d/5x5_reduce"
  param {
    lr_mult: 1
    decay_mult: 1
  }
  param {
    lr_mult: 2
    decay_mult: 0
  }
  convolution_param {
    num_output: 32
    kernel_size: 1
    weight_filler {
      type: "xavier"
      std: 0.2
    }
    bias_filler {
      type: "constant"
      value: 0.2
    }
  }
}
layer {
  name: "inception_4d/relu_5x5_reduce"
  type: "ReLU"
  bottom: "inception_4d/5x5_reduce"
  top: "inception_4d/5x5_reduce"
}
layer {
  name: "inception_4d/5x5"
  type: "Convolution"
  bottom: "inception_4d/5x5_reduce"
  top: "inception_4d/5x5"
  param {
    lr_mult: 1
    decay_mult: 1
  }
  param {
    lr_mult: 2
    decay_mult: 0
  }
  convolution_param {
    num_output: 64
    pad: 2
    kernel_size: 5
    weight_filler {
      type: "xavier"
      std: 0.03
    }
    bias_filler {
      type: "constant"
      value: 0.2
    }
  }
}
layer {
  name: "inception_4d/relu_5x5"
  type: "ReLU"
  bottom: "inception_4d/5x5"
  top: "inception_4d/5x5"
}
layer {
  name: "inception_4d/pool"
  type: "Pooling"
  bottom: "inception_4c/output"
  top: "inception_4d/pool"
  pooling_param {
    pool: MAX
    kernel_size: 3
    stride: 1
    pad: 1
  }
}
layer {
  name: "inception_4d/pool_proj"
  type: "Convolution"
  bottom: "inception_4d/pool"
  top: "inception_4d/pool_proj"
  param {
    lr_mult: 1
    decay_mult: 1
  }
  param {
    lr_mult: 2
    decay_mult: 0
  }
  convolution_param {
    num_output: 64
    kernel_size: 1
    weight_filler {
      type: "xavier"
      std: 0.1
    }
    bias_filler {
      type: "constant"
      value: 0.2
    }
  }
}
layer {
  name: "inception_4d/relu_pool_proj"
  type: "ReLU"
  bottom: "inception_4d/pool_proj"
  top: "inception_4d/pool_proj"
}
layer {
  name: "inception_4d/output"
  type: "Concat"
  bottom: "inception_4d/1x1"
  bottom: "inception_4d/3x3"
  bottom: "inception_4d/5x5"
  bottom: "inception_4d/pool_proj"
  top: "inception_4d/output"
}
layer {
  name: "loss2/ave_pool"
  type: "Pooling"
  bottom: "inception_4d/output"
  top: "loss2/ave_pool"
  pooling_param {
    pool: AVE
    kernel_size: 5
    stride: 3
  }
}
layer {
  name: "loss2/conv"
  type: "Convolution"
  bottom: "loss2/ave_pool"
  top: "loss2/conv"
  param {
    lr_mult: 1
    decay_mult: 1
  }
  param {
    lr_mult: 2
    decay_mult: 0
  }
  convolution_param {
    num_output: 128
    kernel_size: 1
    weight_filler {
      type: "xavier"
      std: 0.08
    }
    bias_filler {
      type: "constant"
      value: 0.2
    }
  }
}
layer {
  name: "loss2/relu_conv"
  type: "ReLU"
  bottom: "loss2/conv"
  top: "loss2/conv"
}
layer {
  name: "loss2/fc"
  type: "InnerProduct"
  bottom: "loss2/conv"
  top: "loss2/fc"
  param {
    lr_mult: 1
    decay_mult: 1
  }
  param {
    lr_mult: 2
    decay_mult: 0
  }
  inner_product_param {
    num_output: 1024
    weight_filler {
      type: "xavier"
      std: 0.02
    }
    bias_filler {
      type: "constant"
      value: 0.2
    }
  }
}
layer {
  name: "loss2/relu_fc"
  type: "ReLU"
  bottom: "loss2/fc"
  top: "loss2/fc"
}
layer {
  name: "loss2/drop_fc"
  type: "Dropout"
  bottom: "loss2/fc"
  top: "loss2/fc"
  dropout_param {
    dropout_ratio: 0.7
  }
}
layer {
  name: "loss2/classifier_plantvillage"
  type: "InnerProduct"
  bottom: "loss2/fc"
  top: "loss2/classifier_plantvillage"
  param {
    lr_mult: 1
    decay_mult: 1
  }
  param {
    lr_mult: 2
    decay_mult: 0
  }
  inner_product_param {
    num_output: 38
    weight_filler {
      type: "xavier"
      std: 0.0009765625
    }
    bias_filler {
      type: "constant"
      value: 0
    }
  }
}
layer {
  name: "inception_4e/1x1"
  type: "Convolution"
  bottom: "inception_4d/output"
  top: "inception_4e/1x1"
  param {
    lr_mult: 1
    decay_mult: 1
  }
  param {
    lr_mult: 2
    decay_mult: 0
  }
  convolution_param {
    num_output: 256
    kernel_size: 1
    weight_filler {
      type: "xavier"
      std: 0.03
    }
    bias_filler {
      type: "constant"
      value: 0.2
    }
  }
}
layer {
  name: "inception_4e/relu_1x1"
  type: "ReLU"
  bottom: "inception_4e/1x1"
  top: "inception_4e/1x1"
}
layer {
  name: "inception_4e/3x3_reduce"
  type: "Convolution"
  bottom: "inception_4d/output"
  top: "inception_4e/3x3_reduce"
  param {
    lr_mult: 1
    decay_mult: 1
  }
  param {
    lr_mult: 2
    decay_mult: 0
  }
  convolution_param {
    num_output: 160
    kernel_size: 1
    weight_filler {
      type: "xavier"
      std: 0.09
    }
    bias_filler {
      type: "constant"
      value: 0.2
    }
  }
}
layer {
  name: "inception_4e/relu_3x3_reduce"
  type: "ReLU"
  bottom: "inception_4e/3x3_reduce"
  top: "inception_4e/3x3_reduce"
}
layer {
  name: "inception_4e/3x3"
  type: "Convolution"
  bottom: "inception_4e/3x3_reduce"
  top: "inception_4e/3x3"
  param {
    lr_mult: 1
    decay_mult: 1
  }
  param {
    lr_mult: 2
    decay_mult: 0
  }
  convolution_param {
    num_output: 320
    pad: 1
    kernel_size: 3
    weight_filler {
      type: "xavier"
      std: 0.03
    }
    bias_filler {
      type: "constant"
      value: 0.2
    }
  }
}
layer {
  name: "inception_4e/relu_3x3"
  type: "ReLU"
  bottom: "inception_4e/3x3"
  top: "inception_4e/3x3"
}
layer {
  name: "inception_4e/5x5_reduce"
  type: "Convolution"
  bottom: "inception_4d/output"
  top: "inception_4e/5x5_reduce"
  param {
    lr_mult: 1
    decay_mult: 1
  }
  param {
    lr_mult: 2
    decay_mult: 0
  }
  convolution_param {
    num_output: 32
    kernel_size: 1
    weight_filler {
      type: "xavier"
      std: 0.2
    }
    bias_filler {
      type: "constant"
      value: 0.2
    }
  }
}
layer {
  name: "inception_4e/relu_5x5_reduce"
  type: "ReLU"
  bottom: "inception_4e/5x5_reduce"
  top: "inception_4e/5x5_reduce"
}
layer {
  name: "inception_4e/5x5"
  type: "Convolution"
  bottom: "inception_4e/5x5_reduce"
  top: "inception_4e/
I0403 18:47:14.768630  7632 layer_factory.hpp:77] Creating layer data
I0403 18:47:14.769358  7632 net.cpp:91] Creating Layer data
I0403 18:47:14.769398  7632 net.cpp:399] data -> data
I0403 18:47:14.769461  7632 net.cpp:399] data -> label
I0403 18:47:14.769505  7632 data_transformer.cpp:25] Loading mean file from: /home/mohanty/data/final_dataset/lmdb/grayscale-40-60/mean.binaryproto
I0403 18:47:14.770860  7636 db_lmdb.cpp:38] Opened lmdb /home/mohanty/data/final_dataset/lmdb/grayscale-40-60/test_db
I0403 18:47:14.786638  7632 data_layer.cpp:41] output data size: 24,3,224,224
I0403 18:47:14.819877  7632 net.cpp:141] Setting up data
I0403 18:47:14.819980  7632 net.cpp:148] Top shape: 24 3 224 224 (3612672)
I0403 18:47:14.820009  7632 net.cpp:148] Top shape: 24 (24)
I0403 18:47:14.820029  7632 net.cpp:156] Memory required for data: 14450784
I0403 18:47:14.820062  7632 layer_factory.hpp:77] Creating layer label_data_1_split
I0403 18:47:14.820094  7632 net.cpp:91] Creating Layer label_data_1_split
I0403 18:47:14.820117  7632 net.cpp:425] label_data_1_split <- label
I0403 18:47:14.820158  7632 net.cpp:399] label_data_1_split -> label_data_1_split_0
I0403 18:47:14.820191  7632 net.cpp:399] label_data_1_split -> label_data_1_split_1
I0403 18:47:14.820219  7632 net.cpp:399] label_data_1_split -> label_data_1_split_2
I0403 18:47:14.820245  7632 net.cpp:399] label_data_1_split -> label_data_1_split_3
I0403 18:47:14.820268  7632 net.cpp:399] label_data_1_split -> label_data_1_split_4
I0403 18:47:14.820299  7632 net.cpp:399] label_data_1_split -> label_data_1_split_5
I0403 18:47:14.820325  7632 net.cpp:399] label_data_1_split -> label_data_1_split_6
I0403 18:47:14.820353  7632 net.cpp:399] label_data_1_split -> label_data_1_split_7
I0403 18:47:14.820377  7632 net.cpp:399] label_data_1_split -> label_data_1_split_8
I0403 18:47:14.820401  7632 net.cpp:399] label_data_1_split -> label_data_1_split_9
I0403 18:47:14.820539  7632 net.cpp:141] Setting up label_data_1_split
I0403 18:47:14.820570  7632 net.cpp:148] Top shape: 24 (24)
I0403 18:47:14.820593  7632 net.cpp:148] Top shape: 24 (24)
I0403 18:47:14.820614  7632 net.cpp:148] Top shape: 24 (24)
I0403 18:47:14.820636  7632 net.cpp:148] Top shape: 24 (24)
I0403 18:47:14.820657  7632 net.cpp:148] Top shape: 24 (24)
I0403 18:47:14.820677  7632 net.cpp:148] Top shape: 24 (24)
I0403 18:47:14.820698  7632 net.cpp:148] Top shape: 24 (24)
I0403 18:47:14.820719  7632 net.cpp:148] Top shape: 24 (24)
I0403 18:47:14.820739  7632 net.cpp:148] Top shape: 24 (24)
I0403 18:47:14.820760  7632 net.cpp:148] Top shape: 24 (24)
I0403 18:47:14.820816  7632 net.cpp:156] Memory required for data: 14451744
I0403 18:47:14.820838  7632 layer_factory.hpp:77] Creating layer conv1/7x7_s2
I0403 18:47:14.820888  7632 net.cpp:91] Creating Layer conv1/7x7_s2
I0403 18:47:14.820912  7632 net.cpp:425] conv1/7x7_s2 <- data
I0403 18:47:14.820936  7632 net.cpp:399] conv1/7x7_s2 -> conv1/7x7_s2
I0403 18:47:14.995700  7632 net.cpp:141] Setting up conv1/7x7_s2
I0403 18:47:14.995820  7632 net.cpp:148] Top shape: 24 64 112 112 (19267584)
I0403 18:47:14.995841  7632 net.cpp:156] Memory required for data: 91522080
I0403 18:47:14.995878  7632 layer_factory.hpp:77] Creating layer conv1/relu_7x7
I0403 18:47:14.995911  7632 net.cpp:91] Creating Layer conv1/relu_7x7
I0403 18:47:14.995935  7632 net.cpp:425] conv1/relu_7x7 <- conv1/7x7_s2
I0403 18:47:14.995959  7632 net.cpp:386] conv1/relu_7x7 -> conv1/7x7_s2 (in-place)
I0403 18:47:14.996265  7632 net.cpp:141] Setting up conv1/relu_7x7
I0403 18:47:14.996299  7632 net.cpp:148] Top shape: 24 64 112 112 (19267584)
I0403 18:47:14.996317  7632 net.cpp:156] Memory required for data: 168592416
I0403 18:47:14.996336  7632 layer_factory.hpp:77] Creating layer pool1/3x3_s2
I0403 18:47:14.996366  7632 net.cpp:91] Creating Layer pool1/3x3_s2
I0403 18:47:14.996388  7632 net.cpp:425] pool1/3x3_s2 <- conv1/7x7_s2
I0403 18:47:14.996412  7632 net.cpp:399] pool1/3x3_s2 -> pool1/3x3_s2
I0403 18:47:14.996500  7632 net.cpp:141] Setting up pool1/3x3_s2
I0403 18:47:14.996529  7632 net.cpp:148] Top shape: 24 64 56 56 (4816896)
I0403 18:47:14.996547  7632 net.cpp:156] Memory required for data: 187860000
I0403 18:47:14.996567  7632 layer_factory.hpp:77] Creating layer pool1/norm1
I0403 18:47:14.996597  7632 net.cpp:91] Creating Layer pool1/norm1
I0403 18:47:14.996619  7632 net.cpp:425] pool1/norm1 <- pool1/3x3_s2
I0403 18:47:14.996641  7632 net.cpp:399] pool1/norm1 -> pool1/norm1
I0403 18:47:14.996978  7632 net.cpp:141] Setting up pool1/norm1
I0403 18:47:14.997011  7632 net.cpp:148] Top shape: 24 64 56 56 (4816896)
I0403 18:47:14.997030  7632 net.cpp:156] Memory required for data: 207127584
I0403 18:47:14.997051  7632 layer_factory.hpp:77] Creating layer conv2/3x3_reduce
I0403 18:47:14.997079  7632 net.cpp:91] Creating Layer conv2/3x3_reduce
I0403 18:47:14.997100  7632 net.cpp:425] conv2/3x3_reduce <- pool1/norm1
I0403 18:47:14.997123  7632 net.cpp:399] conv2/3x3_reduce -> conv2/3x3_reduce
I0403 18:47:14.998764  7632 net.cpp:141] Setting up conv2/3x3_reduce
I0403 18:47:14.998802  7632 net.cpp:148] Top shape: 24 64 56 56 (4816896)
I0403 18:47:14.998823  7632 net.cpp:156] Memory required for data: 226395168
I0403 18:47:14.998849  7632 layer_factory.hpp:77] Creating layer conv2/relu_3x3_reduce
I0403 18:47:14.998874  7632 net.cpp:91] Creating Layer conv2/relu_3x3_reduce
I0403 18:47:14.998894  7632 net.cpp:425] conv2/relu_3x3_reduce <- conv2/3x3_reduce
I0403 18:47:14.998917  7632 net.cpp:386] conv2/relu_3x3_reduce -> conv2/3x3_reduce (in-place)
I0403 18:47:14.999234  7632 net.cpp:141] Setting up conv2/relu_3x3_reduce
I0403 18:47:14.999275  7632 net.cpp:148] Top shape: 24 64 56 56 (4816896)
I0403 18:47:14.999295  7632 net.cpp:156] Memory required for data: 245662752
I0403 18:47:14.999316  7632 layer_factory.hpp:77] Creating layer conv2/3x3
I0403 18:47:14.999346  7632 net.cpp:91] Creating Layer conv2/3x3
I0403 18:47:14.999371  7632 net.cpp:425] conv2/3x3 <- conv2/3x3_reduce
I0403 18:47:14.999398  7632 net.cpp:399] conv2/3x3 -> conv2/3x3
I0403 18:47:15.002193  7632 net.cpp:141] Setting up conv2/3x3
I0403 18:47:15.002231  7632 net.cpp:148] Top shape: 24 192 56 56 (14450688)
I0403 18:47:15.002267  7632 net.cpp:156] Memory required for data: 303465504
I0403 18:47:15.002297  7632 layer_factory.hpp:77] Creating layer conv2/relu_3x3
I0403 18:47:15.002321  7632 net.cpp:91] Creating Layer conv2/relu_3x3
I0403 18:47:15.002341  7632 net.cpp:425] conv2/relu_3x3 <- conv2/3x3
I0403 18:47:15.002367  7632 net.cpp:386] conv2/relu_3x3 -> conv2/3x3 (in-place)
I0403 18:47:15.002581  7632 net.cpp:141] Setting up conv2/relu_3x3
I0403 18:47:15.002614  7632 net.cpp:148] Top shape: 24 192 56 56 (14450688)
I0403 18:47:15.002671  7632 net.cpp:156] Memory required for data: 361268256
I0403 18:47:15.002693  7632 layer_factory.hpp:77] Creating layer conv2/norm2
I0403 18:47:15.002719  7632 net.cpp:91] Creating Layer conv2/norm2
I0403 18:47:15.002740  7632 net.cpp:425] conv2/norm2 <- conv2/3x3
I0403 18:47:15.002763  7632 net.cpp:399] conv2/norm2 -> conv2/norm2
I0403 18:47:15.003134  7632 net.cpp:141] Setting up conv2/norm2
I0403 18:47:15.003170  7632 net.cpp:148] Top shape: 24 192 56 56 (14450688)
I0403 18:47:15.003191  7632 net.cpp:156] Memory required for data: 419071008
I0403 18:47:15.003211  7632 layer_factory.hpp:77] Creating layer pool2/3x3_s2
I0403 18:47:15.003232  7632 net.cpp:91] Creating Layer pool2/3x3_s2
I0403 18:47:15.003259  7632 net.cpp:425] pool2/3x3_s2 <- conv2/norm2
I0403 18:47:15.003285  7632 net.cpp:399] pool2/3x3_s2 -> pool2/3x3_s2
I0403 18:47:15.003352  7632 net.cpp:141] Setting up pool2/3x3_s2
I0403 18:47:15.003381  7632 net.cpp:148] Top shape: 24 192 28 28 (3612672)
I0403 18:47:15.003399  7632 net.cpp:156] Memory required for data: 433521696
I0403 18:47:15.003418  7632 layer_factory.hpp:77] Creating layer pool2/3x3_s2_pool2/3x3_s2_0_split
I0403 18:47:15.003443  7632 net.cpp:91] Creating Layer pool2/3x3_s2_pool2/3x3_s2_0_split
I0403 18:47:15.003463  7632 net.cpp:425] pool2/3x3_s2_pool2/3x3_s2_0_split <- pool2/3x3_s2
I0403 18:47:15.003485  7632 net.cpp:399] pool2/3x3_s2_pool2/3x3_s2_0_split -> pool2/3x3_s2_pool2/3x3_s2_0_split_0
I0403 18:47:15.003510  7632 net.cpp:399] pool2/3x3_s2_pool2/3x3_s2_0_split -> pool2/3x3_s2_pool2/3x3_s2_0_split_1
I0403 18:47:15.003535  7632 net.cpp:399] pool2/3x3_s2_pool2/3x3_s2_0_split -> pool2/3x3_s2_pool2/3x3_s2_0_split_2
I0403 18:47:15.003562  7632 net.cpp:399] pool2/3x3_s2_pool2/3x3_s2_0_split -> pool2/3x3_s2_pool2/3x3_s2_0_split_3
I0403 18:47:15.003650  7632 net.cpp:141] Setting up pool2/3x3_s2_pool2/3x3_s2_0_split
I0403 18:47:15.003679  7632 net.cpp:148] Top shape: 24 192 28 28 (3612672)
I0403 18:47:15.003700  7632 net.cpp:148] Top shape: 24 192 28 28 (3612672)
I0403 18:47:15.003720  7632 net.cpp:148] Top shape: 24 192 28 28 (3612672)
I0403 18:47:15.003738  7632 net.cpp:148] Top shape: 24 192 28 28 (3612672)
I0403 18:47:15.003756  7632 net.cpp:156] Memory required for data: 491324448
I0403 18:47:15.003775  7632 layer_factory.hpp:77] Creating layer inception_3a/1x1
I0403 18:47:15.003803  7632 net.cpp:91] Creating Layer inception_3a/1x1
I0403 18:47:15.003824  7632 net.cpp:425] inception_3a/1x1 <- pool2/3x3_s2_pool2/3x3_s2_0_split_0
I0403 18:47:15.003850  7632 net.cpp:399] inception_3a/1x1 -> inception_3a/1x1
I0403 18:47:15.005702  7632 net.cpp:141] Setting up inception_3a/1x1
I0403 18:47:15.005743  7632 net.cpp:148] Top shape: 24 64 28 28 (1204224)
I0403 18:47:15.005765  7632 net.cpp:156] Memory required for data: 496141344
I0403 18:47:15.005789  7632 layer_factory.hpp:77] Creating layer inception_3a/relu_1x1
I0403 18:47:15.005812  7632 net.cpp:91] Creating Layer inception_3a/relu_1x1
I0403 18:47:15.005832  7632 net.cpp:425] inception_3a/relu_1x1 <- inception_3a/1x1
I0403 18:47:15.005857  7632 net.cpp:386] inception_3a/relu_1x1 -> inception_3a/1x1 (in-place)
I0403 18:47:15.006074  7632 net.cpp:141] Setting up inception_3a/relu_1x1
I0403 18:47:15.006106  7632 net.cpp:148] Top shape: 24 64 28 28 (1204224)
I0403 18:47:15.006125  7632 net.cpp:156] Memory required for data: 500958240
I0403 18:47:15.006145  7632 layer_factory.hpp:77] Creating layer inception_3a/3x3_reduce
I0403 18:47:15.006173  7632 net.cpp:91] Creating Layer inception_3a/3x3_reduce
I0403 18:47:15.006196  7632 net.cpp:425] inception_3a/3x3_reduce <- pool2/3x3_s2_pool2/3x3_s2_0_split_1
I0403 18:47:15.006223  7632 net.cpp:399] inception_3a/3x3_reduce -> inception_3a/3x3_reduce
I0403 18:47:15.008262  7632 net.cpp:141] Setting up inception_3a/3x3_reduce
I0403 18:47:15.008298  7632 net.cpp:148] Top shape: 24 96 28 28 (1806336)
I0403 18:47:15.008319  7632 net.cpp:156] Memory required for data: 508183584
I0403 18:47:15.008347  7632 layer_factory.hpp:77] Creating layer inception_3a/relu_3x3_reduce
I0403 18:47:15.008394  7632 net.cpp:91] Creating Layer inception_3a/relu_3x3_reduce
I0403 18:47:15.008417  7632 net.cpp:425] inception_3a/relu_3x3_reduce <- inception_3a/3x3_reduce
I0403 18:47:15.008440  7632 net.cpp:386] inception_3a/relu_3x3_reduce -> inception_3a/3x3_reduce (in-place)
I0403 18:47:15.008659  7632 net.cpp:141] Setting up inception_3a/relu_3x3_reduce
I0403 18:47:15.008693  7632 net.cpp:148] Top shape: 24 96 28 28 (1806336)
I0403 18:47:15.008713  7632 net.cpp:156] Memory required for data: 515408928
I0403 18:47:15.008733  7632 layer_factory.hpp:77] Creating layer inception_3a/3x3
I0403 18:47:15.008762  7632 net.cpp:91] Creating Layer inception_3a/3x3
I0403 18:47:15.008783  7632 net.cpp:425] inception_3a/3x3 <- inception_3a/3x3_reduce
I0403 18:47:15.008807  7632 net.cpp:399] inception_3a/3x3 -> inception_3a/3x3
I0403 18:47:15.010820  7632 net.cpp:141] Setting up inception_3a/3x3
I0403 18:47:15.010856  7632 net.cpp:148] Top shape: 24 128 28 28 (2408448)
I0403 18:47:15.010875  7632 net.cpp:156] Memory required for data: 525042720
I0403 18:47:15.010900  7632 layer_factory.hpp:77] Creating layer inception_3a/relu_3x3
I0403 18:47:15.010926  7632 net.cpp:91] Creating Layer inception_3a/relu_3x3
I0403 18:47:15.010946  7632 net.cpp:425] inception_3a/relu_3x3 <- inception_3a/3x3
I0403 18:47:15.010967  7632 net.cpp:386] inception_3a/relu_3x3 -> inception_3a/3x3 (in-place)
I0403 18:47:15.011299  7632 net.cpp:141] Setting up inception_3a/relu_3x3
I0403 18:47:15.011333  7632 net.cpp:148] Top shape: 24 128 28 28 (2408448)
I0403 18:47:15.011353  7632 net.cpp:156] Memory required for data: 534676512
I0403 18:47:15.011373  7632 layer_factory.hpp:77] Creating layer inception_3a/5x5_reduce
I0403 18:47:15.011402  7632 net.cpp:91] Creating Layer inception_3a/5x5_reduce
I0403 18:47:15.011425  7632 net.cpp:425] inception_3a/5x5_reduce <- pool2/3x3_s2_pool2/3x3_s2_0_split_2
I0403 18:47:15.011451  7632 net.cpp:399] inception_3a/5x5_reduce -> inception_3a/5x5_reduce
I0403 18:47:15.012620  7632 net.cpp:141] Setting up inception_3a/5x5_reduce
I0403 18:47:15.012655  7632 net.cpp:148] Top shape: 24 16 28 28 (301056)
I0403 18:47:15.012676  7632 net.cpp:156] Memory required for data: 535880736
I0403 18:47:15.012699  7632 layer_factory.hpp:77] Creating layer inception_3a/relu_5x5_reduce
I0403 18:47:15.012727  7632 net.cpp:91] Creating Layer inception_3a/relu_5x5_reduce
I0403 18:47:15.012748  7632 net.cpp:425] inception_3a/relu_5x5_reduce <- inception_3a/5x5_reduce
I0403 18:47:15.012770  7632 net.cpp:386] inception_3a/relu_5x5_reduce -> inception_3a/5x5_reduce (in-place)
I0403 18:47:15.013101  7632 net.cpp:141] Setting up inception_3a/relu_5x5_reduce
I0403 18:47:15.013135  7632 net.cpp:148] Top shape: 24 16 28 28 (301056)
I0403 18:47:15.013154  7632 net.cpp:156] Memory required for data: 537084960
I0403 18:47:15.013172  7632 layer_factory.hpp:77] Creating layer inception_3a/5x5
I0403 18:47:15.013201  7632 net.cpp:91] Creating Layer inception_3a/5x5
I0403 18:47:15.013224  7632 net.cpp:425] inception_3a/5x5 <- inception_3a/5x5_reduce
I0403 18:47:15.013257  7632 net.cpp:399] inception_3a/5x5 -> inception_3a/5x5
I0403 18:47:15.014482  7632 net.cpp:141] Setting up inception_3a/5x5
I0403 18:47:15.014518  7632 net.cpp:148] Top shape: 24 32 28 28 (602112)
I0403 18:47:15.014538  7632 net.cpp:156] Memory required for data: 539493408
I0403 18:47:15.014559  7632 layer_factory.hpp:77] Creating layer inception_3a/relu_5x5
I0403 18:47:15.014582  7632 net.cpp:91] Creating Layer inception_3a/relu_5x5
I0403 18:47:15.014602  7632 net.cpp:425] inception_3a/relu_5x5 <- inception_3a/5x5
I0403 18:47:15.014627  7632 net.cpp:386] inception_3a/relu_5x5 -> inception_3a/5x5 (in-place)
I0403 18:47:15.014840  7632 net.cpp:141] Setting up inception_3a/relu_5x5
I0403 18:47:15.014873  7632 net.cpp:148] Top shape: 24 32 28 28 (602112)
I0403 18:47:15.014890  7632 net.cpp:156] Memory required for data: 541901856
I0403 18:47:15.014909  7632 layer_factory.hpp:77] Creating layer inception_3a/pool
I0403 18:47:15.014935  7632 net.cpp:91] Creating Layer inception_3a/pool
I0403 18:47:15.014972  7632 net.cpp:425] inception_3a/pool <- pool2/3x3_s2_pool2/3x3_s2_0_split_3
I0403 18:47:15.014997  7632 net.cpp:399] inception_3a/pool -> inception_3a/pool
I0403 18:47:15.015067  7632 net.cpp:141] Setting up inception_3a/pool
I0403 18:47:15.015097  7632 net.cpp:148] Top shape: 24 192 28 28 (3612672)
I0403 18:47:15.015116  7632 net.cpp:156] Memory required for data: 556352544
I0403 18:47:15.015136  7632 layer_factory.hpp:77] Creating layer inception_3a/pool_proj
I0403 18:47:15.015163  7632 net.cpp:91] Creating Layer inception_3a/pool_proj
I0403 18:47:15.015187  7632 net.cpp:425] inception_3a/pool_proj <- inception_3a/pool
I0403 18:47:15.015214  7632 net.cpp:399] inception_3a/pool_proj -> inception_3a/pool_proj
I0403 18:47:15.016386  7632 net.cpp:141] Setting up inception_3a/pool_proj
I0403 18:47:15.016420  7632 net.cpp:148] Top shape: 24 32 28 28 (602112)
I0403 18:47:15.016441  7632 net.cpp:156] Memory required for data: 558760992
I0403 18:47:15.016471  7632 layer_factory.hpp:77] Creating layer inception_3a/relu_pool_proj
I0403 18:47:15.016499  7632 net.cpp:91] Creating Layer inception_3a/relu_pool_proj
I0403 18:47:15.016521  7632 net.cpp:425] inception_3a/relu_pool_proj <- inception_3a/pool_proj
I0403 18:47:15.016542  7632 net.cpp:386] inception_3a/relu_pool_proj -> inception_3a/pool_proj (in-place)
I0403 18:47:15.016870  7632 net.cpp:141] Setting up inception_3a/relu_pool_proj
I0403 18:47:15.016901  7632 net.cpp:148] Top shape: 24 32 28 28 (602112)
I0403 18:47:15.016921  7632 net.cpp:156] Memory required for data: 561169440
I0403 18:47:15.016939  7632 layer_factory.hpp:77] Creating layer inception_3a/output
I0403 18:47:15.016962  7632 net.cpp:91] Creating Layer inception_3a/output
I0403 18:47:15.016980  7632 net.cpp:425] inception_3a/output <- inception_3a/1x1
I0403 18:47:15.017000  7632 net.cpp:425] inception_3a/output <- inception_3a/3x3
I0403 18:47:15.017020  7632 net.cpp:425] inception_3a/output <- inception_3a/5x5
I0403 18:47:15.017040  7632 net.cpp:425] inception_3a/output <- inception_3a/pool_proj
I0403 18:47:15.017065  7632 net.cpp:399] inception_3a/output -> inception_3a/output
I0403 18:47:15.017122  7632 net.cpp:141] Setting up inception_3a/output
I0403 18:47:15.017153  7632 net.cpp:148] Top shape: 24 256 28 28 (4816896)
I0403 18:47:15.017173  7632 net.cpp:156] Memory required for data: 580437024
I0403 18:47:15.017190  7632 layer_factory.hpp:77] Creating layer inception_3a/output_inception_3a/output_0_split
I0403 18:47:15.017211  7632 net.cpp:91] Creating Layer inception_3a/output_inception_3a/output_0_split
I0403 18:47:15.017230  7632 net.cpp:425] inception_3a/output_inception_3a/output_0_split <- inception_3a/output
I0403 18:47:15.017268  7632 net.cpp:399] inception_3a/output_inception_3a/output_0_split -> inception_3a/output_inception_3a/output_0_split_0
I0403 18:47:15.017297  7632 net.cpp:399] inception_3a/output_inception_3a/output_0_split -> inception_3a/output_inception_3a/output_0_split_1
I0403 18:47:15.017325  7632 net.cpp:399] inception_3a/output_inception_3a/output_0_split -> inception_3a/output_inception_3a/output_0_split_2
I0403 18:47:15.017350  7632 net.cpp:399] inception_3a/output_inception_3a/output_0_split -> inception_3a/output_inception_3a/output_0_split_3
I0403 18:47:15.017438  7632 net.cpp:141] Setting up inception_3a/output_inception_3a/output_0_split
I0403 18:47:15.017467  7632 net.cpp:148] Top shape: 24 256 28 28 (4816896)
I0403 18:47:15.017488  7632 net.cpp:148] Top shape: 24 256 28 28 (4816896)
I0403 18:47:15.017508  7632 net.cpp:148] Top shape: 24 256 28 28 (4816896)
I0403 18:47:15.017527  7632 net.cpp:148] Top shape: 24 256 28 28 (4816896)
I0403 18:47:15.017545  7632 net.cpp:156] Memory required for data: 657507360
I0403 18:47:15.017562  7632 layer_factory.hpp:77] Creating layer inception_3b/1x1
I0403 18:47:15.017590  7632 net.cpp:91] Creating Layer inception_3b/1x1
I0403 18:47:15.017612  7632 net.cpp:425] inception_3b/1x1 <- inception_3a/output_inception_3a/output_0_split_0
I0403 18:47:15.017639  7632 net.cpp:399] inception_3b/1x1 -> inception_3b/1x1
I0403 18:47:15.019001  7632 net.cpp:141] Setting up inception_3b/1x1
I0403 18:47:15.019053  7632 net.cpp:148] Top shape: 24 128 28 28 (2408448)
I0403 18:47:15.019075  7632 net.cpp:156] Memory required for data: 667141152
I0403 18:47:15.019099  7632 layer_factory.hpp:77] Creating layer inception_3b/relu_1x1
I0403 18:47:15.019122  7632 net.cpp:91] Creating Layer inception_3b/relu_1x1
I0403 18:47:15.019142  7632 net.cpp:425] inception_3b/relu_1x1 <- inception_3b/1x1
I0403 18:47:15.019168  7632 net.cpp:386] inception_3b/relu_1x1 -> inception_3b/1x1 (in-place)
I0403 18:47:15.019388  7632 net.cpp:141] Setting up inception_3b/relu_1x1
I0403 18:47:15.019420  7632 net.cpp:148] Top shape: 24 128 28 28 (2408448)
I0403 18:47:15.019439  7632 net.cpp:156] Memory required for data: 676774944
I0403 18:47:15.019459  7632 layer_factory.hpp:77] Creating layer inception_3b/3x3_reduce
I0403 18:47:15.019486  7632 net.cpp:91] Creating Layer inception_3b/3x3_reduce
I0403 18:47:15.019510  7632 net.cpp:425] inception_3b/3x3_reduce <- inception_3a/output_inception_3a/output_0_split_1
I0403 18:47:15.019536  7632 net.cpp:399] inception_3b/3x3_reduce -> inception_3b/3x3_reduce
I0403 18:47:15.020898  7632 net.cpp:141] Setting up inception_3b/3x3_reduce
I0403 18:47:15.020936  7632 net.cpp:148] Top shape: 24 128 28 28 (2408448)
I0403 18:47:15.020956  7632 net.cpp:156] Memory required for data: 686408736
I0403 18:47:15.020980  7632 layer_factory.hpp:77] Creating layer inception_3b/relu_3x3_reduce
I0403 18:47:15.021004  7632 net.cpp:91] Creating Layer inception_3b/relu_3x3_reduce
I0403 18:47:15.021024  7632 net.cpp:425] inception_3b/relu_3x3_reduce <- inception_3b/3x3_reduce
I0403 18:47:15.021049  7632 net.cpp:386] inception_3b/relu_3x3_reduce -> inception_3b/3x3_reduce (in-place)
I0403 18:47:15.021267  7632 net.cpp:141] Setting up inception_3b/relu_3x3_reduce
I0403 18:47:15.021299  7632 net.cpp:148] Top shape: 24 128 28 28 (2408448)
I0403 18:47:15.021318  7632 net.cpp:156] Memory required for data: 696042528
I0403 18:47:15.021337  7632 layer_factory.hpp:77] Creating layer inception_3b/3x3
I0403 18:47:15.021369  7632 net.cpp:91] Creating Layer inception_3b/3x3
I0403 18:47:15.021392  7632 net.cpp:425] inception_3b/3x3 <- inception_3b/3x3_reduce
I0403 18:47:15.021417  7632 net.cpp:399] inception_3b/3x3 -> inception_3b/3x3
I0403 18:47:15.024966  7632 net.cpp:141] Setting up inception_3b/3x3
I0403 18:47:15.025002  7632 net.cpp:148] Top shape: 24 192 28 28 (3612672)
I0403 18:47:15.025020  7632 net.cpp:156] Memory required for data: 710493216
I0403 18:47:15.025043  7632 layer_factory.hpp:77] Creating layer inception_3b/relu_3x3
I0403 18:47:15.025068  7632 net.cpp:91] Creating Layer inception_3b/relu_3x3
I0403 18:47:15.025089  7632 net.cpp:425] inception_3b/relu_3x3 <- inception_3b/3x3
I0403 18:47:15.025110  7632 net.cpp:386] inception_3b/relu_3x3 -> inception_3b/3x3 (in-place)
I0403 18:47:15.025444  7632 net.cpp:141] Setting up inception_3b/relu_3x3
I0403 18:47:15.025477  7632 net.cpp:148] Top shape: 24 192 28 28 (3612672)
I0403 18:47:15.025496  7632 net.cpp:156] Memory required for data: 724943904
I0403 18:47:15.025514  7632 layer_factory.hpp:77] Creating layer inception_3b/5x5_reduce
I0403 18:47:15.025544  7632 net.cpp:91] Creating Layer inception_3b/5x5_reduce
I0403 18:47:15.025566  7632 net.cpp:425] inception_3b/5x5_reduce <- inception_3a/output_inception_3a/output_0_split_2
I0403 18:47:15.025593  7632 net.cpp:399] inception_3b/5x5_reduce -> inception_3b/5x5_reduce
I0403 18:47:15.026773  7632 net.cpp:141] Setting up inception_3b/5x5_reduce
I0403 18:47:15.026808  7632 net.cpp:148] Top shape: 24 32 28 28 (602112)
I0403 18:47:15.026829  7632 net.cpp:156] Memory required for data: 727352352
I0403 18:47:15.026852  7632 layer_factory.hpp:77] Creating layer inception_3b/relu_5x5_reduce
I0403 18:47:15.026875  7632 net.cpp:91] Creating Layer inception_3b/relu_5x5_reduce
I0403 18:47:15.026898  7632 net.cpp:425] inception_3b/relu_5x5_reduce <- inception_3b/5x5_reduce
I0403 18:47:15.026921  7632 net.cpp:386] inception_3b/relu_5x5_reduce -> inception_3b/5x5_reduce (in-place)
I0403 18:47:15.027158  7632 net.cpp:141] Setting up inception_3b/relu_5x5_reduce
I0403 18:47:15.027189  7632 net.cpp:148] Top shape: 24 32 28 28 (602112)
I0403 18:47:15.027206  7632 net.cpp:156] Memory required for data: 729760800
I0403 18:47:15.027225  7632 layer_factory.hpp:77] Creating layer inception_3b/5x5
I0403 18:47:15.027261  7632 net.cpp:91] Creating Layer inception_3b/5x5
I0403 18:47:15.027283  7632 net.cpp:425] inception_3b/5x5 <- inception_3b/5x5_reduce
I0403 18:47:15.027310  7632 net.cpp:399] inception_3b/5x5 -> inception_3b/5x5
I0403 18:47:15.029664  7632 net.cpp:141] Setting up inception_3b/5x5
I0403 18:47:15.029703  7632 net.cpp:148] Top shape: 24 96 28 28 (1806336)
I0403 18:47:15.029724  7632 net.cpp:156] Memory required for data: 736986144
I0403 18:47:15.029747  7632 layer_factory.hpp:77] Creating layer inception_3b/relu_5x5
I0403 18:47:15.029770  7632 net.cpp:91] Creating Layer inception_3b/relu_5x5
I0403 18:47:15.029790  7632 net.cpp:425] inception_3b/relu_5x5 <- inception_3b/5x5
I0403 18:47:15.029814  7632 net.cpp:386] inception_3b/relu_5x5 -> inception_3b/5x5 (in-place)
I0403 18:47:15.030051  7632 net.cpp:141] Setting up inception_3b/relu_5x5
I0403 18:47:15.030081  7632 net.cpp:148] Top shape: 24 96 28 28 (1806336)
I0403 18:47:15.030100  7632 net.cpp:156] Memory required for data: 744211488
I0403 18:47:15.030118  7632 layer_factory.hpp:77] Creating layer inception_3b/pool
I0403 18:47:15.030141  7632 net.cpp:91] Creating Layer inception_3b/pool
I0403 18:47:15.030161  7632 net.cpp:425] inception_3b/pool <- inception_3a/output_inception_3a/output_0_split_3
I0403 18:47:15.030184  7632 net.cpp:399] inception_3b/pool -> inception_3b/pool
I0403 18:47:15.030259  7632 net.cpp:141] Setting up inception_3b/pool
I0403 18:47:15.030288  7632 net.cpp:148] Top shape: 24 256 28 28 (4816896)
I0403 18:47:15.030308  7632 net.cpp:156] Memory required for data: 763479072
I0403 18:47:15.030325  7632 layer_factory.hpp:77] Creating layer inception_3b/pool_proj
I0403 18:47:15.030354  7632 net.cpp:91] Creating Layer inception_3b/pool_proj
I0403 18:47:15.030376  7632 net.cpp:425] inception_3b/pool_proj <- inception_3b/pool
I0403 18:47:15.030400  7632 net.cpp:399] inception_3b/pool_proj -> inception_3b/pool_proj
I0403 18:47:15.031662  7632 net.cpp:141] Setting up inception_3b/pool_proj
I0403 18:47:15.031695  7632 net.cpp:148] Top shape: 24 64 28 28 (1204224)
I0403 18:47:15.031715  7632 net.cpp:156] Memory required for data: 768295968
I0403 18:47:15.031739  7632 layer_factory.hpp:77] Creating layer inception_3b/relu_pool_proj
I0403 18:47:15.031765  7632 net.cpp:91] Creating Layer inception_3b/relu_pool_proj
I0403 18:47:15.031787  7632 net.cpp:425] inception_3b/relu_pool_proj <- inception_3b/pool_proj
I0403 18:47:15.031807  7632 net.cpp:386] inception_3b/relu_pool_proj -> inception_3b/pool_proj (in-place)
I0403 18:47:15.032259  7632 net.cpp:141] Setting up inception_3b/relu_pool_proj
I0403 18:47:15.032292  7632 net.cpp:148] Top shape: 24 64 28 28 (1204224)
I0403 18:47:15.032312  7632 net.cpp:156] Memory required for data: 773112864
I0403 18:47:15.032330  7632 layer_factory.hpp:77] Creating layer inception_3b/output
I0403 18:47:15.032356  7632 net.cpp:91] Creating Layer inception_3b/output
I0403 18:47:15.032376  7632 net.cpp:425] inception_3b/output <- inception_3b/1x1
I0403 18:47:15.032397  7632 net.cpp:425] inception_3b/output <- inception_3b/3x3
I0403 18:47:15.032416  7632 net.cpp:425] inception_3b/output <- inception_3b/5x5
I0403 18:47:15.032436  7632 net.cpp:425] inception_3b/output <- inception_3b/pool_proj
I0403 18:47:15.032457  7632 net.cpp:399] inception_3b/output -> inception_3b/output
I0403 18:47:15.032512  7632 net.cpp:141] Setting up inception_3b/output
I0403 18:47:15.032541  7632 net.cpp:148] Top shape: 24 480 28 28 (9031680)
I0403 18:47:15.032560  7632 net.cpp:156] Memory required for data: 809239584
I0403 18:47:15.032578  7632 layer_factory.hpp:77] Creating layer pool3/3x3_s2
I0403 18:47:15.032599  7632 net.cpp:91] Creating Layer pool3/3x3_s2
I0403 18:47:15.032619  7632 net.cpp:425] pool3/3x3_s2 <- inception_3b/output
I0403 18:47:15.032663  7632 net.cpp:399] pool3/3x3_s2 -> pool3/3x3_s2
I0403 18:47:15.032735  7632 net.cpp:141] Setting up pool3/3x3_s2
I0403 18:47:15.032768  7632 net.cpp:148] Top shape: 24 480 14 14 (2257920)
I0403 18:47:15.032786  7632 net.cpp:156] Memory required for data: 818271264
I0403 18:47:15.032804  7632 layer_factory.hpp:77] Creating layer pool3/3x3_s2_pool3/3x3_s2_0_split
I0403 18:47:15.032825  7632 net.cpp:91] Creating Layer pool3/3x3_s2_pool3/3x3_s2_0_split
I0403 18:47:15.032845  7632 net.cpp:425] pool3/3x3_s2_pool3/3x3_s2_0_split <- pool3/3x3_s2
I0403 18:47:15.032867  7632 net.cpp:399] pool3/3x3_s2_pool3/3x3_s2_0_split -> pool3/3x3_s2_pool3/3x3_s2_0_split_0
I0403 18:47:15.032891  7632 net.cpp:399] pool3/3x3_s2_pool3/3x3_s2_0_split -> pool3/3x3_s2_pool3/3x3_s2_0_split_1
I0403 18:47:15.032917  7632 net.cpp:399] pool3/3x3_s2_pool3/3x3_s2_0_split -> pool3/3x3_s2_pool3/3x3_s2_0_split_2
I0403 18:47:15.032941  7632 net.cpp:399] pool3/3x3_s2_pool3/3x3_s2_0_split -> pool3/3x3_s2_pool3/3x3_s2_0_split_3
I0403 18:47:15.033035  7632 net.cpp:141] Setting up pool3/3x3_s2_pool3/3x3_s2_0_split
I0403 18:47:15.033063  7632 net.cpp:148] Top shape: 24 480 14 14 (2257920)
I0403 18:47:15.033084  7632 net.cpp:148] Top shape: 24 480 14 14 (2257920)
I0403 18:47:15.033103  7632 net.cpp:148] Top shape: 24 480 14 14 (2257920)
I0403 18:47:15.033123  7632 net.cpp:148] Top shape: 24 480 14 14 (2257920)
I0403 18:47:15.033139  7632 net.cpp:156] Memory required for data: 854397984
I0403 18:47:15.033157  7632 layer_factory.hpp:77] Creating layer inception_4a/1x1
I0403 18:47:15.033185  7632 net.cpp:91] Creating Layer inception_4a/1x1
I0403 18:47:15.033207  7632 net.cpp:425] inception_4a/1x1 <- pool3/3x3_s2_pool3/3x3_s2_0_split_0
I0403 18:47:15.033234  7632 net.cpp:399] inception_4a/1x1 -> inception_4a/1x1
I0403 18:47:15.035136  7632 net.cpp:141] Setting up inception_4a/1x1
I0403 18:47:15.035172  7632 net.cpp:148] Top shape: 24 192 14 14 (903168)
I0403 18:47:15.035192  7632 net.cpp:156] Memory required for data: 858010656
I0403 18:47:15.035215  7632 layer_factory.hpp:77] Creating layer inception_4a/relu_1x1
I0403 18:47:15.035248  7632 net.cpp:91] Creating Layer inception_4a/relu_1x1
I0403 18:47:15.035270  7632 net.cpp:425] inception_4a/relu_1x1 <- inception_4a/1x1
I0403 18:47:15.035292  7632 net.cpp:386] inception_4a/relu_1x1 -> inception_4a/1x1 (in-place)
I0403 18:47:15.035511  7632 net.cpp:141] Setting up inception_4a/relu_1x1
I0403 18:47:15.035544  7632 net.cpp:148] Top shape: 24 192 14 14 (903168)
I0403 18:47:15.035562  7632 net.cpp:156] Memory required for data: 861623328
I0403 18:47:15.035581  7632 layer_factory.hpp:77] Creating layer inception_4a/3x3_reduce
I0403 18:47:15.035609  7632 net.cpp:91] Creating Layer inception_4a/3x3_reduce
I0403 18:47:15.035631  7632 net.cpp:425] inception_4a/3x3_reduce <- pool3/3x3_s2_pool3/3x3_s2_0_split_1
I0403 18:47:15.035658  7632 net.cpp:399] inception_4a/3x3_reduce -> inception_4a/3x3_reduce
I0403 18:47:15.037191  7632 net.cpp:141] Setting up inception_4a/3x3_reduce
I0403 18:47:15.037225  7632 net.cpp:148] Top shape: 24 96 14 14 (451584)
I0403 18:47:15.037256  7632 net.cpp:156] Memory required for data: 863429664
I0403 18:47:15.037287  7632 layer_factory.hpp:77] Creating layer inception_4a/relu_3x3_reduce
I0403 18:47:15.037313  7632 net.cpp:91] Creating Layer inception_4a/relu_3x3_reduce
I0403 18:47:15.037334  7632 net.cpp:425] inception_4a/relu_3x3_reduce <- inception_4a/3x3_reduce
I0403 18:47:15.037356  7632 net.cpp:386] inception_4a/relu_3x3_reduce -> inception_4a/3x3_reduce (in-place)
I0403 18:47:15.037571  7632 net.cpp:141] Setting up inception_4a/relu_3x3_reduce
I0403 18:47:15.037606  7632 net.cpp:148] Top shape: 24 96 14 14 (451584)
I0403 18:47:15.037626  7632 net.cpp:156] Memory required for data: 865236000
I0403 18:47:15.037645  7632 layer_factory.hpp:77] Creating layer inception_4a/3x3
I0403 18:47:15.037673  7632 net.cpp:91] Creating Layer inception_4a/3x3
I0403 18:47:15.037696  7632 net.cpp:425] inception_4a/3x3 <- inception_4a/3x3_reduce
I0403 18:47:15.037721  7632 net.cpp:399] inception_4a/3x3 -> inception_4a/3x3
I0403 18:47:15.040959  7632 net.cpp:141] Setting up inception_4a/3x3
I0403 18:47:15.040997  7632 net.cpp:148] Top shape: 24 208 14 14 (978432)
I0403 18:47:15.041018  7632 net.cpp:156] Memory required for data: 869149728
I0403 18:47:15.041040  7632 layer_factory.hpp:77] Creating layer inception_4a/relu_3x3
I0403 18:47:15.041071  7632 net.cpp:91] Creating Layer inception_4a/relu_3x3
I0403 18:47:15.041091  7632 net.cpp:425] inception_4a/relu_3x3 <- inception_4a/3x3
I0403 18:47:15.041115  7632 net.cpp:386] inception_4a/relu_3x3 -> inception_4a/3x3 (in-place)
I0403 18:47:15.041451  7632 net.cpp:141] Setting up inception_4a/relu_3x3
I0403 18:47:15.041496  7632 net.cpp:148] Top shape: 24 208 14 14 (978432)
I0403 18:47:15.041517  7632 net.cpp:156] Memory required for data: 873063456
I0403 18:47:15.041537  7632 layer_factory.hpp:77] Creating layer inception_4a/5x5_reduce
I0403 18:47:15.041566  7632 net.cpp:91] Creating Layer inception_4a/5x5_reduce
I0403 18:47:15.041589  7632 net.cpp:425] inception_4a/5x5_reduce <- pool3/3x3_s2_pool3/3x3_s2_0_split_2
I0403 18:47:15.041613  7632 net.cpp:399] inception_4a/5x5_reduce -> inception_4a/5x5_reduce
I0403 18:47:15.042847  7632 net.cpp:141] Setting up inception_4a/5x5_reduce
I0403 18:47:15.042883  7632 net.cpp:148] Top shape: 24 16 14 14 (75264)
I0403 18:47:15.042902  7632 net.cpp:156] Memory required for data: 873364512
I0403 18:47:15.042927  7632 layer_factory.hpp:77] Creating layer inception_4a/relu_5x5_reduce
I0403 18:47:15.042948  7632 net.cpp:91] Creating Layer inception_4a/relu_5x5_reduce
I0403 18:47:15.042969  7632 net.cpp:425] inception_4a/relu_5x5_reduce <- inception_4a/5x5_reduce
I0403 18:47:15.042995  7632 net.cpp:386] inception_4a/relu_5x5_reduce -> inception_4a/5x5_reduce (in-place)
I0403 18:47:15.043213  7632 net.cpp:141] Setting up inception_4a/relu_5x5_reduce
I0403 18:47:15.043251  7632 net.cpp:148] Top shape: 24 16 14 14 (75264)
I0403 18:47:15.043272  7632 net.cpp:156] Memory required for data: 873665568
I0403 18:47:15.043290  7632 layer_factory.hpp:77] Creating layer inception_4a/5x5
I0403 18:47:15.043318  7632 net.cpp:91] Creating Layer inception_4a/5x5
I0403 18:47:15.043339  7632 net.cpp:425] inception_4a/5x5 <- inception_4a/5x5_reduce
I0403 18:47:15.043367  7632 net.cpp:399] inception_4a/5x5 -> inception_4a/5x5
I0403 18:47:15.044675  7632 net.cpp:141] Setting up inception_4a/5x5
I0403 18:47:15.044710  7632 net.cpp:148] Top shape: 24 48 14 14 (225792)
I0403 18:47:15.044731  7632 net.cpp:156] Memory required for data: 874568736
I0403 18:47:15.044754  7632 layer_factory.hpp:77] Creating layer inception_4a/relu_5x5
I0403 18:47:15.044785  7632 net.cpp:91] Creating Layer inception_4a/relu_5x5
I0403 18:47:15.044807  7632 net.cpp:425] inception_4a/relu_5x5 <- inception_4a/5x5
I0403 18:47:15.044828  7632 net.cpp:386] inception_4a/relu_5x5 -> inception_4a/5x5 (in-place)
I0403 18:47:15.045047  7632 net.cpp:141] Setting up inception_4a/relu_5x5
I0403 18:47:15.045080  7632 net.cpp:148] Top shape: 24 48 14 14 (225792)
I0403 18:47:15.045099  7632 net.cpp:156] Memory required for data: 875471904
I0403 18:47:15.045117  7632 layer_factory.hpp:77] Creating layer inception_4a/pool
I0403 18:47:15.045141  7632 net.cpp:91] Creating Layer inception_4a/pool
I0403 18:47:15.045162  7632 net.cpp:425] inception_4a/pool <- pool3/3x3_s2_pool3/3x3_s2_0_split_3
I0403 18:47:15.045187  7632 net.cpp:399] inception_4a/pool -> inception_4a/pool
I0403 18:47:15.045270  7632 net.cpp:141] Setting up inception_4a/pool
I0403 18:47:15.045300  7632 net.cpp:148] Top shape: 24 480 14 14 (2257920)
I0403 18:47:15.045317  7632 net.cpp:156] Memory required for data: 884503584
I0403 18:47:15.045336  7632 layer_factory.hpp:77] Creating layer inception_4a/pool_proj
I0403 18:47:15.045364  7632 net.cpp:91] Creating Layer inception_4a/pool_proj
I0403 18:47:15.045385  7632 net.cpp:425] inception_4a/pool_proj <- inception_4a/pool
I0403 18:47:15.045413  7632 net.cpp:399] inception_4a/pool_proj -> inception_4a/pool_proj
I0403 18:47:15.046823  7632 net.cpp:141] Setting up inception_4a/pool_proj
I0403 18:47:15.046861  7632 net.cpp:148] Top shape: 24 64 14 14 (301056)
I0403 18:47:15.046898  7632 net.cpp:156] Memory required for data: 885707808
I0403 18:47:15.046923  7632 layer_factory.hpp:77] Creating layer inception_4a/relu_pool_proj
I0403 18:47:15.046952  7632 net.cpp:91] Creating Layer inception_4a/relu_pool_proj
I0403 18:47:15.046973  7632 net.cpp:425] inception_4a/relu_pool_proj <- inception_4a/pool_proj
I0403 18:47:15.046994  7632 net.cpp:386] inception_4a/relu_pool_proj -> inception_4a/pool_proj (in-place)
I0403 18:47:15.047338  7632 net.cpp:141] Setting up inception_4a/relu_pool_proj
I0403 18:47:15.047371  7632 net.cpp:148] Top shape: 24 64 14 14 (301056)
I0403 18:47:15.047390  7632 net.cpp:156] Memory required for data: 886912032
I0403 18:47:15.047410  7632 layer_factory.hpp:77] Creating layer inception_4a/output
I0403 18:47:15.047436  7632 net.cpp:91] Creating Layer inception_4a/output
I0403 18:47:15.047457  7632 net.cpp:425] inception_4a/output <- inception_4a/1x1
I0403 18:47:15.047477  7632 net.cpp:425] inception_4a/output <- inception_4a/3x3
I0403 18:47:15.047497  7632 net.cpp:425] inception_4a/output <- inception_4a/5x5
I0403 18:47:15.047518  7632 net.cpp:425] inception_4a/output <- inception_4a/pool_proj
I0403 18:47:15.047539  7632 net.cpp:399] inception_4a/output -> inception_4a/output
I0403 18:47:15.047596  7632 net.cpp:141] Setting up inception_4a/output
I0403 18:47:15.047624  7632 net.cpp:148] Top shape: 24 512 14 14 (2408448)
I0403 18:47:15.047642  7632 net.cpp:156] Memory required for data: 896545824
I0403 18:47:15.047662  7632 layer_factory.hpp:77] Creating layer inception_4a/output_inception_4a/output_0_split
I0403 18:47:15.047684  7632 net.cpp:91] Creating Layer inception_4a/output_inception_4a/output_0_split
I0403 18:47:15.047704  7632 net.cpp:425] inception_4a/output_inception_4a/output_0_split <- inception_4a/output
I0403 18:47:15.047731  7632 net.cpp:399] inception_4a/output_inception_4a/output_0_split -> inception_4a/output_inception_4a/output_0_split_0
I0403 18:47:15.047757  7632 net.cpp:399] inception_4a/output_inception_4a/output_0_split -> inception_4a/output_inception_4a/output_0_split_1
I0403 18:47:15.047782  7632 net.cpp:399] inception_4a/output_inception_4a/output_0_split -> inception_4a/output_inception_4a/output_0_split_2
I0403 18:47:15.047807  7632 net.cpp:399] inception_4a/output_inception_4a/output_0_split -> inception_4a/output_inception_4a/output_0_split_3
I0403 18:47:15.047832  7632 net.cpp:399] inception_4a/output_inception_4a/output_0_split -> inception_4a/output_inception_4a/output_0_split_4
I0403 18:47:15.047950  7632 net.cpp:141] Setting up inception_4a/output_inception_4a/output_0_split
I0403 18:47:15.047979  7632 net.cpp:148] Top shape: 24 512 14 14 (2408448)
I0403 18:47:15.048001  7632 net.cpp:148] Top shape: 24 512 14 14 (2408448)
I0403 18:47:15.048019  7632 net.cpp:148] Top shape: 24 512 14 14 (2408448)
I0403 18:47:15.048039  7632 net.cpp:148] Top shape: 24 512 14 14 (2408448)
I0403 18:47:15.048058  7632 net.cpp:148] Top shape: 24 512 14 14 (2408448)
I0403 18:47:15.048075  7632 net.cpp:156] Memory required for data: 944714784
I0403 18:47:15.048094  7632 layer_factory.hpp:77] Creating layer loss1/ave_pool
I0403 18:47:15.048115  7632 net.cpp:91] Creating Layer loss1/ave_pool
I0403 18:47:15.048136  7632 net.cpp:425] loss1/ave_pool <- inception_4a/output_inception_4a/output_0_split_0
I0403 18:47:15.048163  7632 net.cpp:399] loss1/ave_pool -> loss1/ave_pool
I0403 18:47:15.048424  7632 net.cpp:141] Setting up loss1/ave_pool
I0403 18:47:15.048456  7632 net.cpp:148] Top shape: 24 512 4 4 (196608)
I0403 18:47:15.048478  7632 net.cpp:156] Memory required for data: 945501216
I0403 18:47:15.048498  7632 layer_factory.hpp:77] Creating layer loss1/conv
I0403 18:47:15.048523  7632 net.cpp:91] Creating Layer loss1/conv
I0403 18:47:15.048544  7632 net.cpp:425] loss1/conv <- loss1/ave_pool
I0403 18:47:15.048571  7632 net.cpp:399] loss1/conv -> loss1/conv
I0403 18:47:15.050278  7632 net.cpp:141] Setting up loss1/conv
I0403 18:47:15.050317  7632 net.cpp:148] Top shape: 24 128 4 4 (49152)
I0403 18:47:15.050354  7632 net.cpp:156] Memory required for data: 945697824
I0403 18:47:15.050379  7632 layer_factory.hpp:77] Creating layer loss1/relu_conv
I0403 18:47:15.050400  7632 net.cpp:91] Creating Layer loss1/relu_conv
I0403 18:47:15.050421  7632 net.cpp:425] loss1/relu_conv <- loss1/conv
I0403 18:47:15.050446  7632 net.cpp:386] loss1/relu_conv -> loss1/conv (in-place)
I0403 18:47:15.050784  7632 net.cpp:141] Setting up loss1/relu_conv
I0403 18:47:15.050819  7632 net.cpp:148] Top shape: 24 128 4 4 (49152)
I0403 18:47:15.050840  7632 net.cpp:156] Memory required for data: 945894432
I0403 18:47:15.050860  7632 layer_factory.hpp:77] Creating layer loss1/fc
I0403 18:47:15.050889  7632 net.cpp:91] Creating Layer loss1/fc
I0403 18:47:15.050912  7632 net.cpp:425] loss1/fc <- loss1/conv
I0403 18:47:15.050938  7632 net.cpp:399] loss1/fc -> loss1/fc
I0403 18:47:15.073611  7632 net.cpp:141] Setting up loss1/fc
I0403 18:47:15.073652  7632 net.cpp:148] Top shape: 24 1024 (24576)
I0403 18:47:15.073671  7632 net.cpp:156] Memory required for data: 945992736
I0403 18:47:15.073695  7632 layer_factory.hpp:77] Creating layer loss1/relu_fc
I0403 18:47:15.073726  7632 net.cpp:91] Creating Layer loss1/relu_fc
I0403 18:47:15.073750  7632 net.cpp:425] loss1/relu_fc <- loss1/fc
I0403 18:47:15.073771  7632 net.cpp:386] loss1/relu_fc -> loss1/fc (in-place)
I0403 18:47:15.073998  7632 net.cpp:141] Setting up loss1/relu_fc
I0403 18:47:15.074031  7632 net.cpp:148] Top shape: 24 1024 (24576)
I0403 18:47:15.074050  7632 net.cpp:156] Memory required for data: 946091040
I0403 18:47:15.074069  7632 layer_factory.hpp:77] Creating layer loss1/drop_fc
I0403 18:47:15.074100  7632 net.cpp:91] Creating Layer loss1/drop_fc
I0403 18:47:15.074122  7632 net.cpp:425] loss1/drop_fc <- loss1/fc
I0403 18:47:15.074148  7632 net.cpp:386] loss1/drop_fc -> loss1/fc (in-place)
I0403 18:47:15.074213  7632 net.cpp:141] Setting up loss1/drop_fc
I0403 18:47:15.074249  7632 net.cpp:148] Top shape: 24 1024 (24576)
I0403 18:47:15.074268  7632 net.cpp:156] Memory required for data: 946189344
I0403 18:47:15.074288  7632 layer_factory.hpp:77] Creating layer loss1/classifier_plantvillage
I0403 18:47:15.074316  7632 net.cpp:91] Creating Layer loss1/classifier_plantvillage
I0403 18:47:15.074339  7632 net.cpp:425] loss1/classifier_plantvillage <- loss1/fc
I0403 18:47:15.074362  7632 net.cpp:399] loss1/classifier_plantvillage -> loss1/classifier_plantvillage
I0403 18:47:15.075475  7632 net.cpp:141] Setting up loss1/classifier_plantvillage
I0403 18:47:15.075510  7632 net.cpp:148] Top shape: 24 38 (912)
I0403 18:47:15.075530  7632 net.cpp:156] Memory required for data: 946192992
I0403 18:47:15.075553  7632 layer_factory.hpp:77] Creating layer loss1/classifier_plantvillage_loss1/classifier_plantvillage_0_split
I0403 18:47:15.075580  7632 net.cpp:91] Creating Layer loss1/classifier_plantvillage_loss1/classifier_plantvillage_0_split
I0403 18:47:15.075600  7632 net.cpp:425] loss1/classifier_plantvillage_loss1/classifier_plantvillage_0_split <- loss1/classifier_plantvillage
I0403 18:47:15.075623  7632 net.cpp:399] loss1/classifier_plantvillage_loss1/classifier_plantvillage_0_split -> loss1/classifier_plantvillage_loss1/classifier_plantvillage_0_split_0
I0403 18:47:15.075654  7632 net.cpp:399] loss1/classifier_plantvillage_loss1/classifier_plantvillage_0_split -> loss1/classifier_plantvillage_loss1/classifier_plantvillage_0_split_1
I0403 18:47:15.075678  7632 net.cpp:399] loss1/classifier_plantvillage_loss1/classifier_plantvillage_0_split -> loss1/classifier_plantvillage_loss1/classifier_plantvillage_0_split_2
I0403 18:47:15.075758  7632 net.cpp:141] Setting up loss1/classifier_plantvillage_loss1/classifier_plantvillage_0_split
I0403 18:47:15.075788  7632 net.cpp:148] Top shape: 24 38 (912)
I0403 18:47:15.075811  7632 net.cpp:148] Top shape: 24 38 (912)
I0403 18:47:15.075830  7632 net.cpp:148] Top shape: 24 38 (912)
I0403 18:47:15.075847  7632 net.cpp:156] Memory required for data: 946203936
I0403 18:47:15.075865  7632 layer_factory.hpp:77] Creating layer inception_4b/1x1
I0403 18:47:15.075894  7632 net.cpp:91] Creating Layer inception_4b/1x1
I0403 18:47:15.075934  7632 net.cpp:425] inception_4b/1x1 <- inception_4a/output_inception_4a/output_0_split_1
I0403 18:47:15.075960  7632 net.cpp:399] inception_4b/1x1 -> inception_4b/1x1
I0403 18:47:15.077929  7632 net.cpp:141] Setting up inception_4b/1x1
I0403 18:47:15.077966  7632 net.cpp:148] Top shape: 24 160 14 14 (752640)
I0403 18:47:15.077986  7632 net.cpp:156] Memory required for data: 949214496
I0403 18:47:15.078011  7632 layer_factory.hpp:77] Creating layer inception_4b/relu_1x1
I0403 18:47:15.078032  7632 net.cpp:91] Creating Layer inception_4b/relu_1x1
I0403 18:47:15.078052  7632 net.cpp:425] inception_4b/relu_1x1 <- inception_4b/1x1
I0403 18:47:15.078078  7632 net.cpp:386] inception_4b/relu_1x1 -> inception_4b/1x1 (in-place)
I0403 18:47:15.078310  7632 net.cpp:141] Setting up inception_4b/relu_1x1
I0403 18:47:15.078341  7632 net.cpp:148] Top shape: 24 160 14 14 (752640)
I0403 18:47:15.078361  7632 net.cpp:156] Memory required for data: 952225056
I0403 18:47:15.078378  7632 layer_factory.hpp:77] Creating layer inception_4b/3x3_reduce
I0403 18:47:15.078408  7632 net.cpp:91] Creating Layer inception_4b/3x3_reduce
I0403 18:47:15.078431  7632 net.cpp:425] inception_4b/3x3_reduce <- inception_4a/output_inception_4a/output_0_split_2
I0403 18:47:15.078459  7632 net.cpp:399] inception_4b/3x3_reduce -> inception_4b/3x3_reduce
I0403 18:47:15.080095  7632 net.cpp:141] Setting up inception_4b/3x3_reduce
I0403 18:47:15.080128  7632 net.cpp:148] Top shape: 24 112 14 14 (526848)
I0403 18:47:15.080148  7632 net.cpp:156] Memory required for data: 954332448
I0403 18:47:15.080173  7632 layer_factory.hpp:77] Creating layer inception_4b/relu_3x3_reduce
I0403 18:47:15.080199  7632 net.cpp:91] Creating Layer inception_4b/relu_3x3_reduce
I0403 18:47:15.080220  7632 net.cpp:425] inception_4b/relu_3x3_reduce <- inception_4b/3x3_reduce
I0403 18:47:15.080248  7632 net.cpp:386] inception_4b/relu_3x3_reduce -> inception_4b/3x3_reduce (in-place)
I0403 18:47:15.080591  7632 net.cpp:141] Setting up inception_4b/relu_3x3_reduce
I0403 18:47:15.080626  7632 net.cpp:148] Top shape: 24 112 14 14 (526848)
I0403 18:47:15.080644  7632 net.cpp:156] Memory required for data: 956439840
I0403 18:47:15.080663  7632 layer_factory.hpp:77] Creating layer inception_4b/3x3
I0403 18:47:15.080693  7632 net.cpp:91] Creating Layer inception_4b/3x3
I0403 18:47:15.080716  7632 net.cpp:425] inception_4b/3x3 <- inception_4b/3x3_reduce
I0403 18:47:15.080742  7632 net.cpp:399] inception_4b/3x3 -> inception_4b/3x3
I0403 18:47:15.084415  7632 net.cpp:141] Setting up inception_4b/3x3
I0403 18:47:15.084453  7632 net.cpp:148] Top shape: 24 224 14 14 (1053696)
I0403 18:47:15.084472  7632 net.cpp:156] Memory required for data: 960654624
I0403 18:47:15.084496  7632 layer_factory.hpp:77] Creating layer inception_4b/relu_3x3
I0403 18:47:15.084522  7632 net.cpp:91] Creating Layer inception_4b/relu_3x3
I0403 18:47:15.084543  7632 net.cpp:425] inception_4b/relu_3x3 <- inception_4b/3x3
I0403 18:47:15.084564  7632 net.cpp:386] inception_4b/relu_3x3 -> inception_4b/3x3 (in-place)
I0403 18:47:15.084787  7632 net.cpp:141] Setting up inception_4b/relu_3x3
I0403 18:47:15.084820  7632 net.cpp:148] Top shape: 24 224 14 14 (1053696)
I0403 18:47:15.084841  7632 net.cpp:156] Memory required for data: 964869408
I0403 18:47:15.084859  7632 layer_factory.hpp:77] Creating layer inception_4b/5x5_reduce
I0403 18:47:15.084887  7632 net.cpp:91] Creating Layer inception_4b/5x5_reduce
I0403 18:47:15.084910  7632 net.cpp:425] inception_4b/5x5_reduce <- inception_4a/output_inception_4a/output_0_split_3
I0403 18:47:15.084939  7632 net.cpp:399] inception_4b/5x5_reduce -> inception_4b/5x5_reduce
I0403 18:47:15.086268  7632 net.cpp:141] Setting up inception_4b/5x5_reduce
I0403 18:47:15.086304  7632 net.cpp:148] Top shape: 24 24 14 14 (112896)
I0403 18:47:15.086325  7632 net.cpp:156] Memory required for data: 965320992
I0403 18:47:15.086350  7632 layer_factory.hpp:77] Creating layer inception_4b/relu_5x5_reduce
I0403 18:47:15.086372  7632 net.cpp:91] Creating Layer inception_4b/relu_5x5_reduce
I0403 18:47:15.086410  7632 net.cpp:425] inception_4b/relu_5x5_reduce <- inception_4b/5x5_reduce
I0403 18:47:15.086436  7632 net.cpp:386] inception_4b/relu_5x5_reduce -> inception_4b/5x5_reduce (in-place)
I0403 18:47:15.086663  7632 net.cpp:141] Setting up inception_4b/relu_5x5_reduce
I0403 18:47:15.086694  7632 net.cpp:148] Top shape: 24 24 14 14 (112896)
I0403 18:47:15.086712  7632 net.cpp:156] Memory required for data: 965772576
I0403 18:47:15.086731  7632 layer_factory.hpp:77] Creating layer inception_4b/5x5
I0403 18:47:15.086760  7632 net.cpp:91] Creating Layer inception_4b/5x5
I0403 18:47:15.086783  7632 net.cpp:425] inception_4b/5x5 <- inception_4b/5x5_reduce
I0403 18:47:15.086810  7632 net.cpp:399] inception_4b/5x5 -> inception_4b/5x5
I0403 18:47:15.088307  7632 net.cpp:141] Setting up inception_4b/5x5
I0403 18:47:15.088351  7632 net.cpp:148] Top shape: 24 64 14 14 (301056)
I0403 18:47:15.088372  7632 net.cpp:156] Memory required for data: 966976800
I0403 18:47:15.088395  7632 layer_factory.hpp:77] Creating layer inception_4b/relu_5x5
I0403 18:47:15.088419  7632 net.cpp:91] Creating Layer inception_4b/relu_5x5
I0403 18:47:15.088439  7632 net.cpp:425] inception_4b/relu_5x5 <- inception_4b/5x5
I0403 18:47:15.088464  7632 net.cpp:386] inception_4b/relu_5x5 -> inception_4b/5x5 (in-place)
I0403 18:47:15.088806  7632 net.cpp:141] Setting up inception_4b/relu_5x5
I0403 18:47:15.088843  7632 net.cpp:148] Top shape: 24 64 14 14 (301056)
I0403 18:47:15.088863  7632 net.cpp:156] Memory required for data: 968181024
I0403 18:47:15.088881  7632 layer_factory.hpp:77] Creating layer inception_4b/pool
I0403 18:47:15.088904  7632 net.cpp:91] Creating Layer inception_4b/pool
I0403 18:47:15.088925  7632 net.cpp:425] inception_4b/pool <- inception_4a/output_inception_4a/output_0_split_4
I0403 18:47:15.088953  7632 net.cpp:399] inception_4b/pool -> inception_4b/pool
I0403 18:47:15.089031  7632 net.cpp:141] Setting up inception_4b/pool
I0403 18:47:15.089064  7632 net.cpp:148] Top shape: 24 512 14 14 (2408448)
I0403 18:47:15.089082  7632 net.cpp:156] Memory required for data: 977814816
I0403 18:47:15.089102  7632 layer_factory.hpp:77] Creating layer inception_4b/pool_proj
I0403 18:47:15.089130  7632 net.cpp:91] Creating Layer inception_4b/pool_proj
I0403 18:47:15.089154  7632 net.cpp:425] inception_4b/pool_proj <- inception_4b/pool
I0403 18:47:15.089177  7632 net.cpp:399] inception_4b/pool_proj -> inception_4b/pool_proj
I0403 18:47:15.090644  7632 net.cpp:141] Setting up inception_4b/pool_proj
I0403 18:47:15.090679  7632 net.cpp:148] Top shape: 24 64 14 14 (301056)
I0403 18:47:15.090701  7632 net.cpp:156] Memory required for data: 979019040
I0403 18:47:15.090724  7632 layer_factory.hpp:77] Creating layer inception_4b/relu_pool_proj
I0403 18:47:15.090750  7632 net.cpp:91] Creating Layer inception_4b/relu_pool_proj
I0403 18:47:15.090775  7632 net.cpp:425] inception_4b/relu_pool_proj <- inception_4b/pool_proj
I0403 18:47:15.090796  7632 net.cpp:386] inception_4b/relu_pool_proj -> inception_4b/pool_proj (in-place)
I0403 18:47:15.091017  7632 net.cpp:141] Setting up inception_4b/relu_pool_proj
I0403 18:47:15.091048  7632 net.cpp:148] Top shape: 24 64 14 14 (301056)
I0403 18:47:15.091068  7632 net.cpp:156] Memory required for data: 980223264
I0403 18:47:15.091086  7632 layer_factory.hpp:77] Creating layer inception_4b/output
I0403 18:47:15.091112  7632 net.cpp:91] Creating Layer inception_4b/output
I0403 18:47:15.091135  7632 net.cpp:425] inception_4b/output <- inception_4b/1x1
I0403 18:47:15.091155  7632 net.cpp:425] inception_4b/output <- inception_4b/3x3
I0403 18:47:15.091176  7632 net.cpp:425] inception_4b/output <- inception_4b/5x5
I0403 18:47:15.091195  7632 net.cpp:425] inception_4b/output <- inception_4b/pool_proj
I0403 18:47:15.091217  7632 net.cpp:399] inception_4b/output -> inception_4b/output
I0403 18:47:15.091281  7632 net.cpp:141] Setting up inception_4b/output
I0403 18:47:15.091312  7632 net.cpp:148] Top shape: 24 512 14 14 (2408448)
I0403 18:47:15.091331  7632 net.cpp:156] Memory required for data: 989857056
I0403 18:47:15.091367  7632 layer_factory.hpp:77] Creating layer inception_4b/output_inception_4b/output_0_split
I0403 18:47:15.091389  7632 net.cpp:91] Creating Layer inception_4b/output_inception_4b/output_0_split
I0403 18:47:15.091410  7632 net.cpp:425] inception_4b/output_inception_4b/output_0_split <- inception_4b/output
I0403 18:47:15.091434  7632 net.cpp:399] inception_4b/output_inception_4b/output_0_split -> inception_4b/output_inception_4b/output_0_split_0
I0403 18:47:15.091462  7632 net.cpp:399] inception_4b/output_inception_4b/output_0_split -> inception_4b/output_inception_4b/output_0_split_1
I0403 18:47:15.091486  7632 net.cpp:399] inception_4b/output_inception_4b/output_0_split -> inception_4b/output_inception_4b/output_0_split_2
I0403 18:47:15.091511  7632 net.cpp:399] inception_4b/output_inception_4b/output_0_split -> inception_4b/output_inception_4b/output_0_split_3
I0403 18:47:15.091621  7632 net.cpp:141] Setting up inception_4b/output_inception_4b/output_0_split
I0403 18:47:15.091655  7632 net.cpp:148] Top shape: 24 512 14 14 (2408448)
I0403 18:47:15.091676  7632 net.cpp:148] Top shape: 24 512 14 14 (2408448)
I0403 18:47:15.091696  7632 net.cpp:148] Top shape: 24 512 14 14 (2408448)
I0403 18:47:15.091716  7632 net.cpp:148] Top shape: 24 512 14 14 (2408448)
I0403 18:47:15.091733  7632 net.cpp:156] Memory required for data: 1028392224
I0403 18:47:15.091752  7632 layer_factory.hpp:77] Creating layer inception_4c/1x1
I0403 18:47:15.091778  7632 net.cpp:91] Creating Layer inception_4c/1x1
I0403 18:47:15.091800  7632 net.cpp:425] inception_4c/1x1 <- inception_4b/output_inception_4b/output_0_split_0
I0403 18:47:15.091825  7632 net.cpp:399] inception_4c/1x1 -> inception_4c/1x1
I0403 18:47:15.093581  7632 net.cpp:141] Setting up inception_4c/1x1
I0403 18:47:15.093617  7632 net.cpp:148] Top shape: 24 128 14 14 (602112)
I0403 18:47:15.093637  7632 net.cpp:156] Memory required for data: 1030800672
I0403 18:47:15.093660  7632 layer_factory.hpp:77] Creating layer inception_4c/relu_1x1
I0403 18:47:15.093688  7632 net.cpp:91] Creating Layer inception_4c/relu_1x1
I0403 18:47:15.093710  7632 net.cpp:425] inception_4c/relu_1x1 <- inception_4c/1x1
I0403 18:47:15.093732  7632 net.cpp:386] inception_4c/relu_1x1 -> inception_4c/1x1 (in-place)
I0403 18:47:15.093956  7632 net.cpp:141] Setting up inception_4c/relu_1x1
I0403 18:47:15.093991  7632 net.cpp:148] Top shape: 24 128 14 14 (602112)
I0403 18:47:15.094010  7632 net.cpp:156] Memory required for data: 1033209120
I0403 18:47:15.094029  7632 layer_factory.hpp:77] Creating layer inception_4c/3x3_reduce
I0403 18:47:15.094058  7632 net.cpp:91] Creating Layer inception_4c/3x3_reduce
I0403 18:47:15.094079  7632 net.cpp:425] inception_4c/3x3_reduce <- inception_4b/output_inception_4b/output_0_split_1
I0403 18:47:15.094104  7632 net.cpp:399] inception_4c/3x3_reduce -> inception_4c/3x3_reduce
I0403 18:47:15.096494  7632 net.cpp:141] Setting up inception_4c/3x3_reduce
I0403 18:47:15.096530  7632 net.cpp:148] Top shape: 24 128 14 14 (602112)
I0403 18:47:15.096550  7632 net.cpp:156] Memory required for data: 1035617568
I0403 18:47:15.096573  7632 layer_factory.hpp:77] Creating layer inception_4c/relu_3x3_reduce
I0403 18:47:15.096596  7632 net.cpp:91] Creating Layer inception_4c/relu_3x3_reduce
I0403 18:47:15.096616  7632 net.cpp:425] inception_4c/relu_3x3_reduce <- inception_4c/3x3_reduce
I0403 18:47:15.096640  7632 net.cpp:386] inception_4c/relu_3x3_reduce -> inception_4c/3x3_reduce (in-place)
I0403 18:47:15.096989  7632 net.cpp:141] Setting up inception_4c/relu_3x3_reduce
I0403 18:47:15.097023  7632 net.cpp:148] Top shape: 24 128 14 14 (602112)
I0403 18:47:15.097041  7632 net.cpp:156] Memory required for data: 1038026016
I0403 18:47:15.097060  7632 layer_factory.hpp:77] Creating layer inception_4c/3x3
I0403 18:47:15.097090  7632 net.cpp:91] Creating Layer inception_4c/3x3
I0403 18:47:15.097112  7632 net.cpp:425] inception_4c/3x3 <- inception_4c/3x3_reduce
I0403 18:47:15.097139  7632 net.cpp:399] inception_4c/3x3 -> inception_4c/3x3
I0403 18:47:15.101559  7632 net.cpp:141] Setting up inception_4c/3x3
I0403 18:47:15.101611  7632 net.cpp:148] Top shape: 24 256 14 14 (1204224)
I0403 18:47:15.101634  7632 net.cpp:156] Memory required for data: 1042842912
I0403 18:47:15.101673  7632 layer_factory.hpp:77] Creating layer inception_4c/relu_3x3
I0403 18:47:15.101699  7632 net.cpp:91] Creating Layer inception_4c/relu_3x3
I0403 18:47:15.101721  7632 net.cpp:425] inception_4c/relu_3x3 <- inception_4c/3x3
I0403 18:47:15.101745  7632 net.cpp:386] inception_4c/relu_3x3 -> inception_4c/3x3 (in-place)
I0403 18:47:15.101977  7632 net.cpp:141] Setting up inception_4c/relu_3x3
I0403 18:47:15.102010  7632 net.cpp:148] Top shape: 24 256 14 14 (1204224)
I0403 18:47:15.102028  7632 net.cpp:156] Memory required for data: 1047659808
I0403 18:47:15.102046  7632 layer_factory.hpp:77] Creating layer inception_4c/5x5_reduce
I0403 18:47:15.102077  7632 net.cpp:91] Creating Layer inception_4c/5x5_reduce
I0403 18:47:15.102099  7632 net.cpp:425] inception_4c/5x5_reduce <- inception_4b/output_inception_4b/output_0_split_2
I0403 18:47:15.102128  7632 net.cpp:399] inception_4c/5x5_reduce -> inception_4c/5x5_reduce
I0403 18:47:15.103476  7632 net.cpp:141] Setting up inception_4c/5x5_reduce
I0403 18:47:15.103510  7632 net.cpp:148] Top shape: 24 24 14 14 (112896)
I0403 18:47:15.103529  7632 net.cpp:156] Memory required for data: 1048111392
I0403 18:47:15.103552  7632 layer_factory.hpp:77] Creating layer inception_4c/relu_5x5_reduce
I0403 18:47:15.103574  7632 net.cpp:91] Creating Layer inception_4c/relu_5x5_reduce
I0403 18:47:15.103595  7632 net.cpp:425] inception_4c/relu_5x5_reduce <- inception_4c/5x5_reduce
I0403 18:47:15.103621  7632 net.cpp:386] inception_4c/relu_5x5_reduce -> inception_4c/5x5_reduce (in-place)
I0403 18:47:15.103849  7632 net.cpp:141] Setting up inception_4c/relu_5x5_reduce
I0403 18:47:15.103881  7632 net.cpp:148] Top shape: 24 24 14 14 (112896)
I0403 18:47:15.103899  7632 net.cpp:156] Memory required for data: 1048562976
I0403 18:47:15.103919  7632 layer_factory.hpp:77] Creating layer inception_4c/5x5
I0403 18:47:15.103946  7632 net.cpp:91] Creating Layer inception_4c/5x5
I0403 18:47:15.103968  7632 net.cpp:425] inception_4c/5x5 <- inception_4c/5x5_reduce
I0403 18:47:15.103996  7632 net.cpp:399] inception_4c/5x5 -> inception_4c/5x5
I0403 18:47:15.105520  7632 net.cpp:141] Setting up inception_4c/5x5
I0403 18:47:15.105556  7632 net.cpp:148] Top shape: 24 64 14 14 (301056)
I0403 18:47:15.105574  7632 net.cpp:156] Memory required for data: 1049767200
I0403 18:47:15.105597  7632 layer_factory.hpp:77] Creating layer inception_4c/relu_5x5
I0403 18:47:15.105623  7632 net.cpp:91] Creating Layer inception_4c/relu_5x5
I0403 18:47:15.105644  7632 net.cpp:425] inception_4c/relu_5x5 <- inception_4c/5x5
I0403 18:47:15.105667  7632 net.cpp:386] inception_4c/relu_5x5 -> inception_4c/5x5 (in-place)
I0403 18:47:15.106019  7632 net.cpp:141] Setting up inception_4c/relu_5x5
I0403 18:47:15.106052  7632 net.cpp:148] Top shape: 24 64 14 14 (301056)
I0403 18:47:15.106070  7632 net.cpp:156] Memory required for data: 1050971424
I0403 18:47:15.106091  7632 layer_factory.hpp:77] Creating layer inception_4c/pool
I0403 18:47:15.106115  7632 net.cpp:91] Creating Layer inception_4c/pool
I0403 18:47:15.106137  7632 net.cpp:425] inception_4c/pool <- inception_4b/output_inception_4b/output_0_split_3
I0403 18:47:15.106160  7632 net.cpp:399] inception_4c/pool -> inception_4c/pool
I0403 18:47:15.106250  7632 net.cpp:141] Setting up inception_4c/pool
I0403 18:47:15.106279  7632 net.cpp:148] Top shape: 24 512 14 14 (2408448)
I0403 18:47:15.106298  7632 net.cpp:156] Memory required for data: 1060605216
I0403 18:47:15.106317  7632 layer_factory.hpp:77] Creating layer inception_4c/pool_proj
I0403 18:47:15.106346  7632 net.cpp:91] Creating Layer inception_4c/pool_proj
I0403 18:47:15.106369  7632 net.cpp:425] inception_4c/pool_proj <- inception_4c/pool
I0403 18:47:15.106395  7632 net.cpp:399] inception_4c/pool_proj -> inception_4c/pool_proj
I0403 18:47:15.107885  7632 net.cpp:141] Setting up inception_4c/pool_proj
I0403 18:47:15.107921  7632 net.cpp:148] Top shape: 24 64 14 14 (301056)
I0403 18:47:15.107959  7632 net.cpp:156] Memory required for data: 1061809440
I0403 18:47:15.107985  7632 layer_factory.hpp:77] Creating layer inception_4c/relu_pool_proj
I0403 18:47:15.108006  7632 net.cpp:91] Creating Layer inception_4c/relu_pool_proj
I0403 18:47:15.108026  7632 net.cpp:425] inception_4c/relu_pool_proj <- inception_4c/pool_proj
I0403 18:47:15.108052  7632 net.cpp:386] inception_4c/relu_pool_proj -> inception_4c/pool_proj (in-place)
I0403 18:47:15.108283  7632 net.cpp:141] Setting up inception_4c/relu_pool_proj
I0403 18:47:15.108314  7632 net.cpp:148] Top shape: 24 64 14 14 (301056)
I0403 18:47:15.108333  7632 net.cpp:156] Memory required for data: 1063013664
I0403 18:47:15.108355  7632 layer_factory.hpp:77] Creating layer inception_4c/output
I0403 18:47:15.108376  7632 net.cpp:91] Creating Layer inception_4c/output
I0403 18:47:15.108394  7632 net.cpp:425] inception_4c/output <- inception_4c/1x1
I0403 18:47:15.108418  7632 net.cpp:425] inception_4c/output <- inception_4c/3x3
I0403 18:47:15.108441  7632 net.cpp:425] inception_4c/output <- inception_4c/5x5
I0403 18:47:15.108463  7632 net.cpp:425] inception_4c/output <- inception_4c/pool_proj
I0403 18:47:15.108486  7632 net.cpp:399] inception_4c/output -> inception_4c/output
I0403 18:47:15.108546  7632 net.cpp:141] Setting up inception_4c/output
I0403 18:47:15.108577  7632 net.cpp:148] Top shape: 24 512 14 14 (2408448)
I0403 18:47:15.108593  7632 net.cpp:156] Memory required for data: 1072647456
I0403 18:47:15.108613  7632 layer_factory.hpp:77] Creating layer inception_4c/output_inception_4c/output_0_split
I0403 18:47:15.108634  7632 net.cpp:91] Creating Layer inception_4c/output_inception_4c/output_0_split
I0403 18:47:15.108655  7632 net.cpp:425] inception_4c/output_inception_4c/output_0_split <- inception_4c/output
I0403 18:47:15.108680  7632 net.cpp:399] inception_4c/output_inception_4c/output_0_split -> inception_4c/output_inception_4c/output_0_split_0
I0403 18:47:15.108706  7632 net.cpp:399] inception_4c/output_inception_4c/output_0_split -> inception_4c/output_inception_4c/output_0_split_1
I0403 18:47:15.108732  7632 net.cpp:399] inception_4c/output_inception_4c/output_0_split -> inception_4c/output_inception_4c/output_0_split_2
I0403 18:47:15.108757  7632 net.cpp:399] inception_4c/output_inception_4c/output_0_split -> inception_4c/output_inception_4c/output_0_split_3
I0403 18:47:15.108868  7632 net.cpp:141] Setting up inception_4c/output_inception_4c/output_0_split
I0403 18:47:15.108901  7632 net.cpp:148] Top shape: 24 512 14 14 (2408448)
I0403 18:47:15.108922  7632 net.cpp:148] Top shape: 24 512 14 14 (2408448)
I0403 18:47:15.108942  7632 net.cpp:148] Top shape: 24 512 14 14 (2408448)
I0403 18:47:15.108961  7632 net.cpp:148] Top shape: 24 512 14 14 (2408448)
I0403 18:47:15.108978  7632 net.cpp:156] Memory required for data: 1111182624
I0403 18:47:15.108997  7632 layer_factory.hpp:77] Creating layer inception_4d/1x1
I0403 18:47:15.109025  7632 net.cpp:91] Creating Layer inception_4d/1x1
I0403 18:47:15.109046  7632 net.cpp:425] inception_4d/1x1 <- inception_4c/output_inception_4c/output_0_split_0
I0403 18:47:15.109069  7632 net.cpp:399] inception_4d/1x1 -> inception_4d/1x1
I0403 18:47:15.110759  7632 net.cpp:141] Setting up inception_4d/1x1
I0403 18:47:15.110797  7632 net.cpp:148] Top shape: 24 112 14 14 (526848)
I0403 18:47:15.110818  7632 net.cpp:156] Memory required for data: 1113290016
I0403 18:47:15.110843  7632 layer_factory.hpp:77] Creating layer inception_4d/relu_1x1
I0403 18:47:15.110865  7632 net.cpp:91] Creating Layer inception_4d/relu_1x1
I0403 18:47:15.110885  7632 net.cpp:425] inception_4d/relu_1x1 <- inception_4d/1x1
I0403 18:47:15.110910  7632 net.cpp:386] inception_4d/relu_1x1 -> inception_4d/1x1 (in-place)
I0403 18:47:15.111145  7632 net.cpp:141] Setting up inception_4d/relu_1x1
I0403 18:47:15.111176  7632 net.cpp:148] Top shape: 24 112 14 14 (526848)
I0403 18:47:15.111196  7632 net.cpp:156] Memory required for data: 1115397408
I0403 18:47:15.111215  7632 layer_factory.hpp:77] Creating layer inception_4d/3x3_reduce
I0403 18:47:15.111266  7632 net.cpp:91] Creating Layer inception_4d/3x3_reduce
I0403 18:47:15.111292  7632 net.cpp:425] inception_4d/3x3_reduce <- inception_4c/output_inception_4c/output_0_split_1
I0403 18:47:15.111320  7632 net.cpp:399] inception_4d/3x3_reduce -> inception_4d/3x3_reduce
I0403 18:47:15.113162  7632 net.cpp:141] Setting up inception_4d/3x3_reduce
I0403 18:47:15.113198  7632 net.cpp:148] Top shape: 24 144 14 14 (677376)
I0403 18:47:15.113217  7632 net.cpp:156] Memory required for data: 1118106912
I0403 18:47:15.113247  7632 layer_factory.hpp:77] Creating layer inception_4d/relu_3x3_reduce
I0403 18:47:15.113276  7632 net.cpp:91] Creating Layer inception_4d/relu_3x3_reduce
I0403 18:47:15.113297  7632 net.cpp:425] inception_4d/relu_3x3_reduce <- inception_4d/3x3_reduce
I0403 18:47:15.113320  7632 net.cpp:386] inception_4d/relu_3x3_reduce -> inception_4d/3x3_reduce (in-place)
I0403 18:47:15.113675  7632 net.cpp:141] Setting up inception_4d/relu_3x3_reduce
I0403 18:47:15.113708  7632 net.cpp:148] Top shape: 24 144 14 14 (677376)
I0403 18:47:15.113728  7632 net.cpp:156] Memory required for data: 1120816416
I0403 18:47:15.113746  7632 layer_factory.hpp:77] Creating layer inception_4d/3x3
I0403 18:47:15.113775  7632 net.cpp:91] Creating Layer inception_4d/3x3
I0403 18:47:15.113798  7632 net.cpp:425] inception_4d/3x3 <- inception_4d/3x3_reduce
I0403 18:47:15.113826  7632 net.cpp:399] inception_4d/3x3 -> inception_4d/3x3
I0403 18:47:15.119308  7632 net.cpp:141] Setting up inception_4d/3x3
I0403 18:47:15.119348  7632 net.cpp:148] Top shape: 24 288 14 14 (1354752)
I0403 18:47:15.119369  7632 net.cpp:156] Memory required for data: 1126235424
I0403 18:47:15.119392  7632 layer_factory.hpp:77] Creating layer inception_4d/relu_3x3
I0403 18:47:15.119416  7632 net.cpp:91] Creating Layer inception_4d/relu_3x3
I0403 18:47:15.119438  7632 net.cpp:425] inception_4d/relu_3x3 <- inception_4d/3x3
I0403 18:47:15.119459  7632 net.cpp:386] inception_4d/relu_3x3 -> inception_4d/3x3 (in-place)
I0403 18:47:15.119688  7632 net.cpp:141] Setting up inception_4d/relu_3x3
I0403 18:47:15.119719  7632 net.cpp:148] Top shape: 24 288 14 14 (1354752)
I0403 18:47:15.119737  7632 net.cpp:156] Memory required for data: 1131654432
I0403 18:47:15.119755  7632 layer_factory.hpp:77] Creating layer inception_4d/5x5_reduce
I0403 18:47:15.119783  7632 net.cpp:91] Creating Layer inception_4d/5x5_reduce
I0403 18:47:15.119807  7632 net.cpp:425] inception_4d/5x5_reduce <- inception_4c/output_inception_4c/output_0_split_2
I0403 18:47:15.119834  7632 net.cpp:399] inception_4d/5x5_reduce -> inception_4d/5x5_reduce
I0403 18:47:15.121250  7632 net.cpp:141] Setting up inception_4d/5x5_reduce
I0403 18:47:15.121289  7632 net.cpp:148] Top shape: 24 32 14 14 (150528)
I0403 18:47:15.121309  7632 net.cpp:156] Memory required for data: 1132256544
I0403 18:47:15.121333  7632 layer_factory.hpp:77] Creating layer inception_4d/relu_5x5_reduce
I0403 18:47:15.121357  7632 net.cpp:91] Creating Layer inception_4d/relu_5x5_reduce
I0403 18:47:15.121378  7632 net.cpp:425] inception_4d/relu_5x5_reduce <- inception_4d/5x5_reduce
I0403 18:47:15.121403  7632 net.cpp:386] inception_4d/relu_5x5_reduce -> inception_4d/5x5_reduce (in-place)
I0403 18:47:15.121636  7632 net.cpp:141] Setting up inception_4d/relu_5x5_reduce
I0403 18:47:15.121668  7632 net.cpp:148] Top shape: 24 32 14 14 (150528)
I0403 18:47:15.121688  7632 net.cpp:156] Memory required for data: 1132858656
I0403 18:47:15.121707  7632 layer_factory.hpp:77] Creating layer inception_4d/5x5
I0403 18:47:15.121736  7632 net.cpp:91] Creating Layer inception_4d/5x5
I0403 18:47:15.121757  7632 net.cpp:425] inception_4d/5x5 <- inception_4d/5x5_reduce
I0403 18:47:15.121783  7632 net.cpp:399] inception_4d/5x5 -> inception_4d/5x5
I0403 18:47:15.123565  7632 net.cpp:141] Setting up inception_4d/5x5
I0403 18:47:15.123599  7632 net.cpp:148] Top shape: 24 64 14 14 (301056)
I0403 18:47:15.123618  7632 net.cpp:156] Memory required for data: 1134062880
I0403 18:47:15.123643  7632 layer_factory.hpp:77] Creating layer inception_4d/relu_5x5
I0403 18:47:15.123687  7632 net.cpp:91] Creating Layer inception_4d/relu_5x5
I0403 18:47:15.123709  7632 net.cpp:425] inception_4d/relu_5x5 <- inception_4d/5x5
I0403 18:47:15.123730  7632 net.cpp:386] inception_4d/relu_5x5 -> inception_4d/5x5 (in-place)
I0403 18:47:15.124090  7632 net.cpp:141] Setting up inception_4d/relu_5x5
I0403 18:47:15.124124  7632 net.cpp:148] Top shape: 24 64 14 14 (301056)
I0403 18:47:15.124142  7632 net.cpp:156] Memory required for data: 1135267104
I0403 18:47:15.124161  7632 layer_factory.hpp:77] Creating layer inception_4d/pool
I0403 18:47:15.124182  7632 net.cpp:91] Creating Layer inception_4d/pool
I0403 18:47:15.124202  7632 net.cpp:425] inception_4d/pool <- inception_4c/output_inception_4c/output_0_split_3
I0403 18:47:15.124228  7632 net.cpp:399] inception_4d/pool -> inception_4d/pool
I0403 18:47:15.124318  7632 net.cpp:141] Setting up inception_4d/pool
I0403 18:47:15.124348  7632 net.cpp:148] Top shape: 24 512 14 14 (2408448)
I0403 18:47:15.124366  7632 net.cpp:156] Memory required for data: 1144900896
I0403 18:47:15.124384  7632 layer_factory.hpp:77] Creating layer inception_4d/pool_proj
I0403 18:47:15.124413  7632 net.cpp:91] Creating Layer inception_4d/pool_proj
I0403 18:47:15.124434  7632 net.cpp:425] inception_4d/pool_proj <- inception_4d/pool
I0403 18:47:15.124457  7632 net.cpp:399] inception_4d/pool_proj -> inception_4d/pool_proj
I0403 18:47:15.126586  7632 net.cpp:141] Setting up inception_4d/pool_proj
I0403 18:47:15.126626  7632 net.cpp:148] Top shape: 24 64 14 14 (301056)
I0403 18:47:15.126646  7632 net.cpp:156] Memory required for data: 1146105120
I0403 18:47:15.126668  7632 layer_factory.hpp:77] Creating layer inception_4d/relu_pool_proj
I0403 18:47:15.126690  7632 net.cpp:91] Creating Layer inception_4d/relu_pool_proj
I0403 18:47:15.126710  7632 net.cpp:425] inception_4d/relu_pool_proj <- inception_4d/pool_proj
I0403 18:47:15.126734  7632 net.cpp:386] inception_4d/relu_pool_proj -> inception_4d/pool_proj (in-place)
I0403 18:47:15.126965  7632 net.cpp:141] Setting up inception_4d/relu_pool_proj
I0403 18:47:15.126996  7632 net.cpp:148] Top shape: 24 64 14 14 (301056)
I0403 18:47:15.127014  7632 net.cpp:156] Memory required for data: 1147309344
I0403 18:47:15.127032  7632 layer_factory.hpp:77] Creating layer inception_4d/output
I0403 18:47:15.127053  7632 net.cpp:91] Creating Layer inception_4d/output
I0403 18:47:15.127073  7632 net.cpp:425] inception_4d/output <- inception_4d/1x1
I0403 18:47:15.127092  7632 net.cpp:425] inception_4d/output <- inception_4d/3x3
I0403 18:47:15.127112  7632 net.cpp:425] inception_4d/output <- inception_4d/5x5
I0403 18:47:15.127131  7632 net.cpp:425] inception_4d/output <- inception_4d/pool_proj
I0403 18:47:15.127154  7632 net.cpp:399] inception_4d/output -> inception_4d/output
I0403 18:47:15.127213  7632 net.cpp:141] Setting up inception_4d/output
I0403 18:47:15.127250  7632 net.cpp:148] Top shape: 24 528 14 14 (2483712)
I0403 18:47:15.127271  7632 net.cpp:156] Memory required for data: 1157244192
I0403 18:47:15.127290  7632 layer_factory.hpp:77] Creating layer inception_4d/output_inception_4d/output_0_split
I0403 18:47:15.127310  7632 net.cpp:91] Creating Layer inception_4d/output_inception_4d/output_0_split
I0403 18:47:15.127329  7632 net.cpp:425] inception_4d/output_inception_4d/output_0_split <- inception_4d/output
I0403 18:47:15.127356  7632 net.cpp:399] inception_4d/output_inception_4d/output_0_split -> inception_4d/output_inception_4d/output_0_split_0
I0403 18:47:15.127382  7632 net.cpp:399] inception_4d/output_inception_4d/output_0_split -> inception_4d/output_inception_4d/output_0_split_1
I0403 18:47:15.127408  7632 net.cpp:399] inception_4d/output_inception_4d/output_0_split -> inception_4d/output_inception_4d/output_0_split_2
I0403 18:47:15.127432  7632 net.cpp:399] inception_4d/output_inception_4d/output_0_split -> inception_4d/output_inception_4d/output_0_split_3
I0403 18:47:15.127456  7632 net.cpp:399] inception_4d/output_inception_4d/output_0_split -> inception_4d/output_inception_4d/output_0_split_4
I0403 18:47:15.127580  7632 net.cpp:141] Setting up inception_4d/output_inception_4d/output_0_split
I0403 18:47:15.127625  7632 net.cpp:148] Top shape: 24 528 14 14 (2483712)
I0403 18:47:15.127646  7632 net.cpp:148] Top shape: 24 528 14 14 (2483712)
I0403 18:47:15.127666  7632 net.cpp:148] Top shape: 24 528 14 14 (2483712)
I0403 18:47:15.127686  7632 net.cpp:148] Top shape: 24 528 14 14 (2483712)
I0403 18:47:15.127706  7632 net.cpp:148] Top shape: 24 528 14 14 (2483712)
I0403 18:47:15.127722  7632 net.cpp:156] Memory required for data: 1206918432
I0403 18:47:15.127739  7632 layer_factory.hpp:77] Creating layer loss2/ave_pool
I0403 18:47:15.127764  7632 net.cpp:91] Creating Layer loss2/ave_pool
I0403 18:47:15.127786  7632 net.cpp:425] loss2/ave_pool <- inception_4d/output_inception_4d/output_0_split_0
I0403 18:47:15.127812  7632 net.cpp:399] loss2/ave_pool -> loss2/ave_pool
I0403 18:47:15.128197  7632 net.cpp:141] Setting up loss2/ave_pool
I0403 18:47:15.128233  7632 net.cpp:148] Top shape: 24 528 4 4 (202752)
I0403 18:47:15.128259  7632 net.cpp:156] Memory required for data: 1207729440
I0403 18:47:15.128279  7632 layer_factory.hpp:77] Creating layer loss2/conv
I0403 18:47:15.128306  7632 net.cpp:91] Creating Layer loss2/conv
I0403 18:47:15.128327  7632 net.cpp:425] loss2/conv <- loss2/ave_pool
I0403 18:47:15.128351  7632 net.cpp:399] loss2/conv -> loss2/conv
I0403 18:47:15.130646  7632 net.cpp:141] Setting up loss2/conv
I0403 18:47:15.130682  7632 net.cpp:148] Top shape: 24 128 4 4 (49152)
I0403 18:47:15.130700  7632 net.cpp:156] Memory required for data: 1207926048
I0403 18:47:15.130723  7632 layer_factory.hpp:77] Creating layer loss2/relu_conv
I0403 18:47:15.130749  7632 net.cpp:91] Creating Layer loss2/relu_conv
I0403 18:47:15.130770  7632 net.cpp:425] loss2/relu_conv <- loss2/conv
I0403 18:47:15.130794  7632 net.cpp:386] loss2/relu_conv -> loss2/conv (in-place)
I0403 18:47:15.131134  7632 net.cpp:141] Setting up loss2/relu_conv
I0403 18:47:15.131166  7632 net.cpp:148] Top shape: 24 128 4 4 (49152)
I0403 18:47:15.131186  7632 net.cpp:156] Memory required for data: 1208122656
I0403 18:47:15.131203  7632 layer_factory.hpp:77] Creating layer loss2/fc
I0403 18:47:15.131229  7632 net.cpp:91] Creating Layer loss2/fc
I0403 18:47:15.131258  7632 net.cpp:425] loss2/fc <- loss2/conv
I0403 18:47:15.131283  7632 net.cpp:399] loss2/fc -> loss2/fc
I0403 18:47:15.153337  7632 net.cpp:141] Setting up loss2/fc
I0403 18:47:15.153381  7632 net.cpp:148] Top shape: 24 1024 (24576)
I0403 18:47:15.153401  7632 net.cpp:156] Memory required for data: 1208220960
I0403 18:47:15.153425  7632 layer_factory.hpp:77] Creating layer loss2/relu_fc
I0403 18:47:15.153448  7632 net.cpp:91] Creating Layer loss2/relu_fc
I0403 18:47:15.153468  7632 net.cpp:425] loss2/relu_fc <- loss2/fc
I0403 18:47:15.153493  7632 net.cpp:386] loss2/relu_fc -> loss2/fc (in-place)
I0403 18:47:15.153859  7632 net.cpp:141] Setting up loss2/relu_fc
I0403 18:47:15.153895  7632 net.cpp:148] Top shape: 24 1024 (24576)
I0403 18:47:15.153914  7632 net.cpp:156] Memory required for data: 1208319264
I0403 18:47:15.153934  7632 layer_factory.hpp:77] Creating layer loss2/drop_fc
I0403 18:47:15.153955  7632 net.cpp:91] Creating Layer loss2/drop_fc
I0403 18:47:15.153975  7632 net.cpp:425] loss2/drop_fc <- loss2/fc
I0403 18:47:15.154001  7632 net.cpp:386] loss2/drop_fc -> loss2/fc (in-place)
I0403 18:47:15.154063  7632 net.cpp:141] Setting up loss2/drop_fc
I0403 18:47:15.154093  7632 net.cpp:148] Top shape: 24 1024 (24576)
I0403 18:47:15.154110  7632 net.cpp:156] Memory required for data: 1208417568
I0403 18:47:15.154129  7632 layer_factory.hpp:77] Creating layer loss2/classifier_plantvillage
I0403 18:47:15.154155  7632 net.cpp:91] Creating Layer loss2/classifier_plantvillage
I0403 18:47:15.154176  7632 net.cpp:425] loss2/classifier_plantvillage <- loss2/fc
I0403 18:47:15.154202  7632 net.cpp:399] loss2/classifier_plantvillage -> loss2/classifier_plantvillage
I0403 18:47:15.154701  7632 net.cpp:141] Setting up loss2/classifier_plantvillage
I0403 18:47:15.154732  7632 net.cpp:148] Top shape: 24 38 (912)
I0403 18:47:15.154772  7632 net.cpp:156] Memory required for data: 1208421216
I0403 18:47:15.154796  7632 layer_factory.hpp:77] Creating layer loss2/classifier_plantvillage_loss2/classifier_plantvillage_0_split
I0403 18:47:15.154821  7632 net.cpp:91] Creating Layer loss2/classifier_plantvillage_loss2/classifier_plantvillage_0_split
I0403 18:47:15.154842  7632 net.cpp:425] loss2/classifier_plantvillage_loss2/classifier_plantvillage_0_split <- loss2/classifier_plantvillage
I0403 18:47:15.154865  7632 net.cpp:399] loss2/classifier_plantvillage_loss2/classifier_plantvillage_0_split -> loss2/classifier_plantvillage_loss2/classifier_plantvillage_0_split_0
I0403 18:47:15.154891  7632 net.cpp:399] loss2/classifier_plantvillage_loss2/classifier_plantvillage_0_split -> loss2/classifier_plantvillage_loss2/classifier_plantvillage_0_split_1
I0403 18:47:15.154916  7632 net.cpp:399] loss2/classifier_plantvillage_loss2/classifier_plantvillage_0_split -> loss2/classifier_plantvillage_loss2/classifier_plantvillage_0_split_2
I0403 18:47:15.155011  7632 net.cpp:141] Setting up loss2/classifier_plantvillage_loss2/classifier_plantvillage_0_split
I0403 18:47:15.155040  7632 net.cpp:148] Top shape: 24 38 (912)
I0403 18:47:15.155061  7632 net.cpp:148] Top shape: 24 38 (912)
I0403 18:47:15.155081  7632 net.cpp:148] Top shape: 24 38 (912)
I0403 18:47:15.155097  7632 net.cpp:156] Memory required for data: 1208432160
I0403 18:47:15.155115  7632 layer_factory.hpp:77] Creating layer inception_4e/1x1
I0403 18:47:15.155139  7632 net.cpp:91] Creating Layer inception_4e/1x1
I0403 18:47:15.155159  7632 net.cpp:425] inception_4e/1x1 <- inception_4d/output_inception_4d/output_0_split_1
I0403 18:47:15.155186  7632 net.cpp:399] inception_4e/1x1 -> inception_4e/1x1
I0403 18:47:15.157423  7632 net.cpp:141] Setting up inception_4e/1x1
I0403 18:47:15.157456  7632 net.cpp:148] Top shape: 24 256 14 14 (1204224)
I0403 18:47:15.157476  7632 net.cpp:156] Memory required for data: 1213249056
I0403 18:47:15.157500  7632 layer_factory.hpp:77] Creating layer inception_4e/relu_1x1
I0403 18:47:15.157526  7632 net.cpp:91] Creating Layer inception_4e/relu_1x1
I0403 18:47:15.157546  7632 net.cpp:425] inception_4e/relu_1x1 <- inception_4e/1x1
I0403 18:47:15.157567  7632 net.cpp:386] inception_4e/relu_1x1 -> inception_4e/1x1 (in-place)
I0403 18:47:15.157922  7632 net.cpp:141] Setting up inception_4e/relu_1x1
I0403 18:47:15.157953  7632 net.cpp:148] Top shape: 24 256 14 14 (1204224)
I0403 18:47:15.157973  7632 net.cpp:156] Memory required for data: 1218065952
I0403 18:47:15.157991  7632 layer_factory.hpp:77] Creating layer inception_4e/3x3_reduce
I0403 18:47:15.158020  7632 net.cpp:91] Creating Layer inception_4e/3x3_reduce
I0403 18:47:15.158043  7632 net.cpp:425] inception_4e/3x3_reduce <- inception_4d/output_inception_4d/output_0_split_2
I0403 18:47:15.158071  7632 net.cpp:399] inception_4e/3x3_reduce -> inception_4e/3x3_reduce
I0403 18:47:15.160697  7632 net.cpp:141] Setting up inception_4e/3x3_reduce
I0403 18:47:15.160735  7632 net.cpp:148] Top shape: 24 160 14 14 (752640)
I0403 18:47:15.160754  7632 net.cpp:156] Memory required for data: 1221076512
I0403 18:47:15.160778  7632 layer_factory.hpp:77] Creating layer inception_4e/relu_3x3_reduce
I0403 18:47:15.160801  7632 net.cpp:91] Creating Layer inception_4e/relu_3x3_reduce
I0403 18:47:15.160823  7632 net.cpp:425] inception_4e/relu_3x3_reduce <- inception_4e/3x3_reduce
I0403 18:47:15.160845  7632 net.cpp:386] inception_4e/relu_3x3_reduce -> inception_4e/3x3_reduce (in-place)
I0403 18:47:15.161074  7632 net.cpp:141] Setting up inception_4e/relu_3x3_reduce
I0403 18:47:15.161104  7632 net.cpp:148] Top shape: 24 160 14 14 (752640)
I0403 18:47:15.161123  7632 net.cpp:156] Memory required for data: 1224087072
I0403 18:47:15.161141  7632 layer_factory.hpp:77] Creating layer inception_4e/3x3
I0403 18:47:15.161169  7632 net.cpp:91] Creating Layer inception_4e/3x3
I0403 18:47:15.161193  7632 net.cpp:425] inception_4e/3x3 <- inception_4e/3x3_reduce
I0403 18:47:15.161216  7632 net.cpp:399] inception_4e/3x3 -> inception_4e/3x3
I0403 18:47:15.167497  7632 net.cpp:141] Setting up inception_4e/3x3
I0403 18:47:15.167548  7632 net.cpp:148] Top shape: 24 320 14 14 (1505280)
I0403 18:47:15.167569  7632 net.cpp:156] Memory required for data: 1230108192
I0403 18:47:15.167593  7632 layer_factory.hpp:77] Creating layer inception_4e/relu_3x3
I0403 18:47:15.167618  7632 net.cpp:91] Creating Layer inception_4e/relu_3x3
I0403 18:47:15.167637  7632 net.cpp:425] inception_4e/relu_3x3 <- inception_4e/3x3
I0403 18:47:15.167659  7632 net.cpp:386] inception_4e/relu_3x3 -> inception_4e/3x3 (in-place)
I0403 18:47:15.168025  7632 net.cpp:141] Setting up inception_4e/relu_3x3
I0403 18:47:15.168061  7632 net.cpp:148] Top shape: 24 320 14 14 (1505280)
I0403 18:47:15.168081  7632 net.cpp:156] Memory required for data: 1236129312
I0403 18:47:15.168098  7632 layer_factory.hpp:77] Creating layer inception_4e/5x5_reduce
I0403 18:47:15.168128  7632 net.cpp:91] Creating Layer inception_4e/5x5_reduce
I0403 18:47:15.168149  7632 net.cpp:425] inception_4e/5x5_reduce <- inception_4d/output_inception_4d/output_0_split_3
I0403 18:47:15.168174  7632 net.cpp:399] inception_4e/5x5_reduce -> inception_4e/5x5_reduce
I0403 18:47:15.169492  7632 net.cpp:141] Setting up inception_4e/5x5_reduce
I0403 18:47:15.169525  7632 net.cpp:148] Top shape: 24 32 14 14 (150528)
I0403 18:47:15.169544  7632 net.cpp:156] Memory required for data: 1236731424
I0403 18:47:15.169567  7632 layer_factory.hpp:77] Creating layer inception_4e/relu_5x5_reduce
I0403 18:47:15.169592  7632 net.cpp:91] Creating Layer inception_4e/relu_5x5_reduce
I0403 18:47:15.169613  7632 net.cpp:425] inception_4e/relu_5x5_reduce <- inception_4e/5x5_reduce
I0403 18:47:15.169636  7632 net.cpp:386] inception_4e/relu_5x5_reduce -> inception_4e/5x5_reduce (in-place)
I0403 18:47:15.170001  7632 net.cpp:141] Setting up inception_4e/relu_5x5_reduce
I0403 18:47:15.170033  7632 net.cpp:148] Top shape: 24 32 14 14 (150528)
I0403 18:47:15.170053  7632 net.cpp:156] Memory required for data: 1237333536
I0403 18:47:15.170070  7632 layer_factory.hpp:77] Creating layer inception_4e/5x5
I0403 18:47:15.170115  7632 net.cpp:91] Creating Layer inception_4e/5x5
I0403 18:47:15.170140  7632 net.cpp:425] inception_4e/5x5 <- inception_4e/5x5_reduce
I0403 18:47:15.170164  7632 net.cpp:399] inception_4e/5x5 -> inception_4e/5x5
I0403 18:47:15.172415  7632 net.cpp:141] Setting up inception_4e/5x5
I0403 18:47:15.172451  7632 net.cpp:148] Top shape: 24 128 14 14 (602112)
I0403 18:47:15.172469  7632 net.cpp:156] Memory required for data: 1239741984
I0403 18:47:15.172493  7632 layer_factory.hpp:77] Creating layer inception_4e/relu_5x5
I0403 18:47:15.172515  7632 net.cpp:91] Creating Layer inception_4e/relu_5x5
I0403 18:47:15.172535  7632 net.cpp:425] inception_4e/relu_5x5 <- inception_4e/5x5
I0403 18:47:15.172559  7632 net.cpp:386] inception_4e/relu_5x5 -> inception_4e/5x5 (in-place)
I0403 18:47:15.172806  7632 net.cpp:141] Setting up inception_4e/relu_5x5
I0403 18:47:15.172837  7632 net.cpp:148] Top shape: 24 128 14 14 (602112)
I0403 18:47:15.172857  7632 net.cpp:156] Memory required for data: 1242150432
I0403 18:47:15.172875  7632 layer_factory.hpp:77] Creating layer inception_4e/pool
I0403 18:47:15.172900  7632 net.cpp:91] Creating Layer inception_4e/pool
I0403 18:47:15.172922  7632 net.cpp:425] inception_4e/pool <- inception_4d/output_inception_4d/output_0_split_4
I0403 18:47:15.172945  7632 net.cpp:399] inception_4e/pool -> inception_4e/pool
I0403 18:47:15.173033  7632 net.cpp:141] Setting up inception_4e/pool
I0403 18:47:15.173063  7632 net.cpp:148] Top shape: 24 528 14 14 (2483712)
I0403 18:47:15.173081  7632 net.cpp:156] Memory required for data: 1252085280
I0403 18:47:15.173100  7632 layer_factory.hpp:77] Creating layer inception_4e/pool_proj
I0403 18:47:15.173127  7632 net.cpp:91] Creating Layer inception_4e/pool_proj
I0403 18:47:15.173151  7632 net.cpp:425] inception_4e/pool_proj <- inception_4e/pool
I0403 18:47:15.173177  7632 net.cpp:399] inception_4e/pool_proj -> inception_4e/pool_proj
I0403 18:47:15.175031  7632 net.cpp:141] Setting up inception_4e/pool_proj
I0403 18:47:15.175082  7632 net.cpp:148] Top shape: 24 128 14 14 (602112)
I0403 18:47:15.175104  7632 net.cpp:156] Memory required for data: 1254493728
I0403 18:47:15.175127  7632 layer_factory.hpp:77] Creating layer inception_4e/relu_pool_proj
I0403 18:47:15.175149  7632 net.cpp:91] Creating Layer inception_4e/relu_pool_proj
I0403 18:47:15.175170  7632 net.cpp:425] inception_4e/relu_pool_proj <- inception_4e/pool_proj
I0403 18:47:15.175194  7632 net.cpp:386] inception_4e/relu_pool_proj -> inception_4e/pool_proj (in-place)
I0403 18:47:15.175565  7632 net.cpp:141] Setting up inception_4e/relu_pool_proj
I0403 18:47:15.175600  7632 net.cpp:148] Top shape: 24 128 14 14 (602112)
I0403 18:47:15.175618  7632 net.cpp:156] Memory required for data: 1256902176
I0403 18:47:15.175637  7632 layer_factory.hpp:77] Creating layer inception_4e/output
I0403 18:47:15.175659  7632 net.cpp:91] Creating Layer inception_4e/output
I0403 18:47:15.175678  7632 net.cpp:425] inception_4e/output <- inception_4e/1x1
I0403 18:47:15.175699  7632 net.cpp:425] inception_4e/output <- inception_4e/3x3
I0403 18:47:15.175720  7632 net.cpp:425] inception_4e/output <- inception_4e/5x5
I0403 18:47:15.175740  7632 net.cpp:425] inception_4e/output <- inception_4e/pool_proj
I0403 18:47:15.175761  7632 net.cpp:399] inception_4e/output -> inception_4e/output
I0403 18:47:15.175823  7632 net.cpp:141] Setting up inception_4e/output
I0403 18:47:15.175853  7632 net.cpp:148] Top shape: 24 832 14 14 (3913728)
I0403 18:47:15.175870  7632 net.cpp:156] Memory required for data: 1272557088
I0403 18:47:15.175889  7632 layer_factory.hpp:77] Creating layer pool4/3x3_s2
I0403 18:47:15.175914  7632 net.cpp:91] Creating Layer pool4/3x3_s2
I0403 18:47:15.175933  7632 net.cpp:425] pool4/3x3_s2 <- inception_4e/output
I0403 18:47:15.175957  7632 net.cpp:399] pool4/3x3_s2 -> pool4/3x3_s2
I0403 18:47:15.176043  7632 net.cpp:141] Setting up pool4/3x3_s2
I0403 18:47:15.176072  7632 net.cpp:148] Top shape: 24 832 7 7 (978432)
I0403 18:47:15.176091  7632 net.cpp:156] Memory required for data: 1276470816
I0403 18:47:15.176110  7632 layer_factory.hpp:77] Creating layer pool4/3x3_s2_pool4/3x3_s2_0_split
I0403 18:47:15.176131  7632 net.cpp:91] Creating Layer pool4/3x3_s2_pool4/3x3_s2_0_split
I0403 18:47:15.176151  7632 net.cpp:425] pool4/3x3_s2_pool4/3x3_s2_0_split <- pool4/3x3_s2
I0403 18:47:15.176175  7632 net.cpp:399] pool4/3x3_s2_pool4/3x3_s2_0_split -> pool4/3x3_s2_pool4/3x3_s2_0_split_0
I0403 18:47:15.176201  7632 net.cpp:399] pool4/3x3_s2_pool4/3x3_s2_0_split -> pool4/3x3_s2_pool4/3x3_s2_0_split_1
I0403 18:47:15.176228  7632 net.cpp:399] pool4/3x3_s2_pool4/3x3_s2_0_split -> pool4/3x3_s2_pool4/3x3_s2_0_split_2
I0403 18:47:15.176259  7632 net.cpp:399] pool4/3x3_s2_pool4/3x3_s2_0_split -> pool4/3x3_s2_pool4/3x3_s2_0_split_3
I0403 18:47:15.176374  7632 net.cpp:141] Setting up pool4/3x3_s2_pool4/3x3_s2_0_split
I0403 18:47:15.176408  7632 net.cpp:148] Top shape: 24 832 7 7 (978432)
I0403 18:47:15.176429  7632 net.cpp:148] Top shape: 24 832 7 7 (978432)
I0403 18:47:15.176447  7632 net.cpp:148] Top shape: 24 832 7 7 (978432)
I0403 18:47:15.176467  7632 net.cpp:148] Top shape: 24 832 7 7 (978432)
I0403 18:47:15.176486  7632 net.cpp:156] Memory required for data: 1292125728
I0403 18:47:15.176503  7632 layer_factory.hpp:77] Creating layer inception_5a/1x1
I0403 18:47:15.176530  7632 net.cpp:91] Creating Layer inception_5a/1x1
I0403 18:47:15.176553  7632 net.cpp:425] inception_5a/1x1 <- pool4/3x3_s2_pool4/3x3_s2_0_split_0
I0403 18:47:15.176575  7632 net.cpp:399] inception_5a/1x1 -> inception_5a/1x1
I0403 18:47:15.180111  7632 net.cpp:141] Setting up inception_5a/1x1
I0403 18:47:15.180148  7632 net.cpp:148] Top shape: 24 256 7 7 (301056)
I0403 18:47:15.180167  7632 net.cpp:156] Memory required for data: 1293329952
I0403 18:47:15.180191  7632 layer_factory.hpp:77] Creating layer inception_5a/relu_1x1
I0403 18:47:15.180212  7632 net.cpp:91] Creating Layer inception_5a/relu_1x1
I0403 18:47:15.180236  7632 net.cpp:425] inception_5a/relu_1x1 <- inception_5a/1x1
I0403 18:47:15.180266  7632 net.cpp:386] inception_5a/relu_1x1 -> inception_5a/1x1 (in-place)
I0403 18:47:15.180651  7632 net.cpp:141] Setting up inception_5a/relu_1x1
I0403 18:47:15.180685  7632 net.cpp:148] Top shape: 24 256 7 7 (301056)
I0403 18:47:15.180703  7632 net.cpp:156] Memory required for data: 1294534176
I0403 18:47:15.180721  7632 layer_factory.hpp:77] Creating layer inception_5a/3x3_reduce
I0403 18:47:15.180749  7632 net.cpp:91] Creating Layer inception_5a/3x3_reduce
I0403 18:47:15.180773  7632 net.cpp:425] inception_5a/3x3_reduce <- pool4/3x3_s2_pool4/3x3_s2_0_split_1
I0403 18:47:15.180799  7632 net.cpp:399] inception_5a/3x3_reduce -> inception_5a/3x3_reduce
I0403 18:47:15.183838  7632 net.cpp:141] Setting up inception_5a/3x3_reduce
I0403 18:47:15.183878  7632 net.cpp:148] Top shape: 24 160 7 7 (188160)
I0403 18:47:15.183898  7632 net.cpp:156] Memory required for data: 1295286816
I0403 18:47:15.183923  7632 layer_factory.hpp:77] Creating layer inception_5a/relu_3x3_reduce
I0403 18:47:15.183945  7632 net.cpp:91] Creating Layer inception_5a/relu_3x3_reduce
I0403 18:47:15.183964  7632 net.cpp:425] inception_5a/relu_3x3_reduce <- inception_5a/3x3_reduce
I0403 18:47:15.183986  7632 net.cpp:386] inception_5a/relu_3x3_reduce -> inception_5a/3x3_reduce (in-place)
I0403 18:47:15.184222  7632 net.cpp:141] Setting up inception_5a/relu_3x3_reduce
I0403 18:47:15.184259  7632 net.cpp:148] Top shape: 24 160 7 7 (188160)
I0403 18:47:15.184279  7632 net.cpp:156] Memory required for data: 1296039456
I0403 18:47:15.184298  7632 layer_factory.hpp:77] Creating layer inception_5a/3x3
I0403 18:47:15.184325  7632 net.cpp:91] Creating Layer inception_5a/3x3
I0403 18:47:15.184348  7632 net.cpp:425] inception_5a/3x3 <- inception_5a/3x3_reduce
I0403 18:47:15.184376  7632 net.cpp:399] inception_5a/3x3 -> inception_5a/3x3
I0403 18:47:15.190713  7632 net.cpp:141] Setting up inception_5a/3x3
I0403 18:47:15.190752  7632 net.cpp:148] Top shape: 24 320 7 7 (376320)
I0403 18:47:15.190770  7632 net.cpp:156] Memory required for data: 1297544736
I0403 18:47:15.190793  7632 layer_factory.hpp:77] Creating layer inception_5a/relu_3x3
I0403 18:47:15.190815  7632 net.cpp:91] Creating Layer inception_5a/relu_3x3
I0403 18:47:15.190836  7632 net.cpp:425] inception_5a/relu_3x3 <- inception_5a/3x3
I0403 18:47:15.190862  7632 net.cpp:386] inception_5a/relu_3x3 -> inception_5a/3x3 (in-place)
I0403 18:47:15.191222  7632 net.cpp:141] Setting up inception_5a/relu_3x3
I0403 18:47:15.191262  7632 net.cpp:148] Top shape: 24 320 7 7 (376320)
I0403 18:47:15.191280  7632 net.cpp:156] Memory required for data: 1299050016
I0403 18:47:15.191299  7632 layer_factory.hpp:77] Creating layer inception_5a/5x5_reduce
I0403 18:47:15.191329  7632 net.cpp:91] Creating Layer inception_5a/5x5_reduce
I0403 18:47:15.191354  7632 net.cpp:425] inception_5a/5x5_reduce <- pool4/3x3_s2_pool4/3x3_s2_0_split_2
I0403 18:47:15.191380  7632 net.cpp:399] inception_5a/5x5_reduce -> inception_5a/5x5_reduce
I0403 18:47:15.192837  7632 net.cpp:141] Setting up inception_5a/5x5_reduce
I0403 18:47:15.192873  7632 net.cpp:148] Top shape: 24 32 7 7 (37632)
I0403 18:47:15.192893  7632 net.cpp:156] Memory required for data: 1299200544
I0403 18:47:15.192919  7632 layer_factory.hpp:77] Creating layer inception_5a/relu_5x5_reduce
I0403 18:47:15.192944  7632 net.cpp:91] Creating Layer inception_5a/relu_5x5_reduce
I0403 18:47:15.192965  7632 net.cpp:425] inception_5a/relu_5x5_reduce <- inception_5a/5x5_reduce
I0403 18:47:15.192988  7632 net.cpp:386] inception_5a/relu_5x5_reduce -> inception_5a/5x5_reduce (in-place)
I0403 18:47:15.193362  7632 net.cpp:141] Setting up inception_5a/relu_5x5_reduce
I0403 18:47:15.193394  7632 net.cpp:148] Top shape: 24 32 7 7 (37632)
I0403 18:47:15.193413  7632 net.cpp:156] Memory required for data: 1299351072
I0403 18:47:15.193434  7632 layer_factory.hpp:77] Creating layer inception_5a/5x5
I0403 18:47:15.193464  7632 net.cpp:91] Creating Layer inception_5a/5x5
I0403 18:47:15.193485  7632 net.cpp:425] inception_5a/5x5 <- inception_5a/5x5_reduce
I0403 18:47:15.193511  7632 net.cpp:399] inception_5a/5x5 -> inception_5a/5x5
I0403 18:47:15.195636  7632 net.cpp:141] Setting up inception_5a/5x5
I0403 18:47:15.195684  7632 net.cpp:148] Top shape: 24 128 7 7 (150528)
I0403 18:47:15.195704  7632 net.cpp:156] Memory required for data: 1299953184
I0403 18:47:15.195729  7632 layer_factory.hpp:77] Creating layer inception_5a/relu_5x5
I0403 18:47:15.195751  7632 net.cpp:91] Creating Layer inception_5a/relu_5x5
I0403 18:47:15.195771  7632 net.cpp:425] inception_5a/relu_5x5 <- inception_5a/5x5
I0403 18:47:15.195796  7632 net.cpp:386] inception_5a/relu_5x5 -> inception_5a/5x5 (in-place)
I0403 18:47:15.196034  7632 net.cpp:141] Setting up inception_5a/relu_5x5
I0403 18:47:15.196066  7632 net.cpp:148] Top shape: 24 128 7 7 (150528)
I0403 18:47:15.196084  7632 net.cpp:156] Memory required for data: 1300555296
I0403 18:47:15.196101  7632 layer_factory.hpp:77] Creating layer inception_5a/pool
I0403 18:47:15.196125  7632 net.cpp:91] Creating Layer inception_5a/pool
I0403 18:47:15.196148  7632 net.cpp:425] inception_5a/pool <- pool4/3x3_s2_pool4/3x3_s2_0_split_3
I0403 18:47:15.196171  7632 net.cpp:399] inception_5a/pool -> inception_5a/pool
I0403 18:47:15.196266  7632 net.cpp:141] Setting up inception_5a/pool
I0403 18:47:15.196296  7632 net.cpp:148] Top shape: 24 832 7 7 (978432)
I0403 18:47:15.196316  7632 net.cpp:156] Memory required for data: 1304469024
I0403 18:47:15.196333  7632 layer_factory.hpp:77] Creating layer inception_5a/pool_proj
I0403 18:47:15.196362  7632 net.cpp:91] Creating Layer inception_5a/pool_proj
I0403 18:47:15.196384  7632 net.cpp:425] inception_5a/pool_proj <- inception_5a/pool
I0403 18:47:15.196411  7632 net.cpp:399] inception_5a/pool_proj -> inception_5a/pool_proj
I0403 18:47:15.199231  7632 net.cpp:141] Setting up inception_5a/pool_proj
I0403 18:47:15.199278  7632 net.cpp:148] Top shape: 24 128 7 7 (150528)
I0403 18:47:15.199301  7632 net.cpp:156] Memory required for data: 1305071136
I0403 18:47:15.199324  7632 layer_factory.hpp:77] Creating layer inception_5a/relu_pool_proj
I0403 18:47:15.199347  7632 net.cpp:91] Creating Layer inception_5a/relu_pool_proj
I0403 18:47:15.199368  7632 net.cpp:425] inception_5a/relu_pool_proj <- inception_5a/pool_proj
I0403 18:47:15.199394  7632 net.cpp:386] inception_5a/relu_pool_proj -> inception_5a/pool_proj (in-place)
I0403 18:47:15.199750  7632 net.cpp:141] Setting up inception_5a/relu_pool_proj
I0403 18:47:15.199786  7632 net.cpp:148] Top shape: 24 128 7 7 (150528)
I0403 18:47:15.199806  7632 net.cpp:156] Memory required for data: 1305673248
I0403 18:47:15.199826  7632 layer_factory.hpp:77] Creating layer inception_5a/output
I0403 18:47:15.199847  7632 net.cpp:91] Creating Layer inception_5a/output
I0403 18:47:15.199868  7632 net.cpp:425] inception_5a/output <- inception_5a/1x1
I0403 18:47:15.199889  7632 net.cpp:425] inception_5a/output <- inception_5a/3x3
I0403 18:47:15.199909  7632 net.cpp:425] inception_5a/output <- inception_5a/5x5
I0403 18:47:15.199929  7632 net.cpp:425] inception_5a/output <- inception_5a/pool_proj
I0403 18:47:15.199954  7632 net.cpp:399] inception_5a/output -> inception_5a/output
I0403 18:47:15.200016  7632 net.cpp:141] Setting up inception_5a/output
I0403 18:47:15.200047  7632 net.cpp:148] Top shape: 24 832 7 7 (978432)
I0403 18:47:15.200065  7632 net.cpp:156] Memory required for data: 1309586976
I0403 18:47:15.200084  7632 layer_factory.hpp:77] Creating layer inception_5a/output_inception_5a/output_0_split
I0403 18:47:15.200109  7632 net.cpp:91] Creating Layer inception_5a/output_inception_5a/output_0_split
I0403 18:47:15.200131  7632 net.cpp:425] inception_5a/output_inception_5a/output_0_split <- inception_5a/output
I0403 18:47:15.200153  7632 net.cpp:399] inception_5a/output_inception_5a/output_0_split -> inception_5a/output_inception_5a/output_0_split_0
I0403 18:47:15.200179  7632 net.cpp:399] inception_5a/output_inception_5a/output_0_split -> inception_5a/output_inception_5a/output_0_split_1
I0403 18:47:15.200209  7632 net.cpp:399] inception_5a/output_inception_5a/output_0_split -> inception_5a/output_inception_5a/output_0_split_2
I0403 18:47:15.200237  7632 net.cpp:399] inception_5a/output_inception_5a/output_0_split -> inception_5a/output_inception_5a/output_0_split_3
I0403 18:47:15.200381  7632 net.cpp:141] Setting up inception_5a/output_inception_5a/output_0_split
I0403 18:47:15.200412  7632 net.cpp:148] Top shape: 24 832 7 7 (978432)
I0403 18:47:15.200433  7632 net.cpp:148] Top shape: 24 832 7 7 (978432)
I0403 18:47:15.200453  7632 net.cpp:148] Top shape: 24 832 7 7 (978432)
I0403 18:47:15.200472  7632 net.cpp:148] Top shape: 24 832 7 7 (978432)
I0403 18:47:15.200489  7632 net.cpp:156] Memory required for data: 1325241888
I0403 18:47:15.200507  7632 layer_factory.hpp:77] Creating layer inception_5b/1x1
I0403 18:47:15.200536  7632 net.cpp:91] Creating Layer inception_5b/1x1
I0403 18:47:15.200559  7632 net.cpp:425] inception_5b/1x1 <- inception_5a/output_inception_5a/output_0_split_0
I0403 18:47:15.200585  7632 net.cpp:399] inception_5b/1x1 -> inception_5b/1x1
I0403 18:47:15.205250  7632 net.cpp:141] Setting up inception_5b/1x1
I0403 18:47:15.205291  7632 net.cpp:148] Top shape: 24 384 7 7 (451584)
I0403 18:47:15.205310  7632 net.cpp:156] Memory required for data: 1327048224
I0403 18:47:15.205333  7632 layer_factory.hpp:77] Creating layer inception_5b/relu_1x1
I0403 18:47:15.205356  7632 net.cpp:91] Creating Layer inception_5b/relu_1x1
I0403 18:47:15.205376  7632 net.cpp:425] inception_5b/relu_1x1 <- inception_5b/1x1
I0403 18:47:15.205399  7632 net.cpp:386] inception_5b/relu_1x1 -> inception_5b/1x1 (in-place)
I0403 18:47:15.205772  7632 net.cpp:141] Setting up inception_5b/relu_1x1
I0403 18:47:15.205807  7632 net.cpp:148] Top shape: 24 384 7 7 (451584)
I0403 18:47:15.205827  7632 net.cpp:156] Memory required for data: 1328854560
I0403 18:47:15.205845  7632 layer_factory.hpp:77] Creating layer inception_5b/3x3_reduce
I0403 18:47:15.205873  7632 net.cpp:91] Creating Layer inception_5b/3x3_reduce
I0403 18:47:15.205896  7632 net.cpp:425] inception_5b/3x3_reduce <- inception_5a/output_inception_5a/output_0_split_1
I0403 18:47:15.205920  7632 net.cpp:399] inception_5b/3x3_reduce -> inception_5b/3x3_reduce
I0403 18:47:15.209179  7632 net.cpp:141] Setting up inception_5b/3x3_reduce
I0403 18:47:15.209218  7632 net.cpp:148] Top shape: 24 192 7 7 (225792)
I0403 18:47:15.209239  7632 net.cpp:156] Memory required for data: 1329757728
I0403 18:47:15.209267  7632 layer_factory.hpp:77] Creating layer inception_5b/relu_3x3_reduce
I0403 18:47:15.209291  7632 net.cpp:91] Creating Layer inception_5b/relu_3x3_reduce
I0403 18:47:15.209311  7632 net.cpp:425] inception_5b/relu_3x3_reduce <- inception_5b/3x3_reduce
I0403 18:47:15.209336  7632 net.cpp:386] inception_5b/relu_3x3_reduce -> inception_5b/3x3_reduce (in-place)
I0403 18:47:15.209574  7632 net.cpp:141] Setting up inception_5b/relu_3x3_reduce
I0403 18:47:15.209605  7632 net.cpp:148] Top shape: 24 192 7 7 (225792)
I0403 18:47:15.209624  7632 net.cpp:156] Memory required for data: 1330660896
I0403 18:47:15.209642  7632 layer_factory.hpp:77] Creating layer inception_5b/3x3
I0403 18:47:15.209669  7632 net.cpp:91] Creating Layer inception_5b/3x3
I0403 18:47:15.209692  7632 net.cpp:425] inception_5b/3x3 <- inception_5b/3x3_reduce
I0403 18:47:15.209718  7632 net.cpp:399] inception_5b/3x3 -> inception_5b/3x3
I0403 18:47:15.218070  7632 net.cpp:141] Setting up inception_5b/3x3
I0403 18:47:15.218109  7632 net.cpp:148] Top shape: 24 384 7 7 (451584)
I0403 18:47:15.218129  7632 net.cpp:156] Memory required for data: 1332467232
I0403 18:47:15.218152  7632 layer_factory.hpp:77] Creating layer inception_5b/relu_3x3
I0403 18:47:15.218174  7632 net.cpp:91] Creating Layer inception_5b/relu_3x3
I0403 18:47:15.218194  7632 net.cpp:425] inception_5b/relu_3x3 <- inception_5b/3x3
I0403 18:47:15.218222  7632 net.cpp:386] inception_5b/relu_3x3 -> inception_5b/3x3 (in-place)
I0403 18:47:15.218590  7632 net.cpp:141] Setting up inception_5b/relu_3x3
I0403 18:47:15.218626  7632 net.cpp:148] Top shape: 24 384 7 7 (451584)
I0403 18:47:15.218646  7632 net.cpp:156] Memory required for data: 1334273568
I0403 18:47:15.218664  7632 layer_factory.hpp:77] Creating layer inception_5b/5x5_reduce
I0403 18:47:15.218711  7632 net.cpp:91] Creating Layer inception_5b/5x5_reduce
I0403 18:47:15.218735  7632 net.cpp:425] inception_5b/5x5_reduce <- inception_5a/output_inception_5a/output_0_split_2
I0403 18:47:15.218760  7632 net.cpp:399] inception_5b/5x5_reduce -> inception_5b/5x5_reduce
I0403 18:47:15.220362  7632 net.cpp:141] Setting up inception_5b/5x5_reduce
I0403 18:47:15.220401  7632 net.cpp:148] Top shape: 24 48 7 7 (56448)
I0403 18:47:15.220422  7632 net.cpp:156] Memory required for data: 1334499360
I0403 18:47:15.220444  7632 layer_factory.hpp:77] Creating layer inception_5b/relu_5x5_reduce
I0403 18:47:15.220466  7632 net.cpp:91] Creating Layer inception_5b/relu_5x5_reduce
I0403 18:47:15.220486  7632 net.cpp:425] inception_5b/relu_5x5_reduce <- inception_5b/5x5_reduce
I0403 18:47:15.220510  7632 net.cpp:386] inception_5b/relu_5x5_reduce -> inception_5b/5x5_reduce (in-place)
I0403 18:47:15.220974  7632 net.cpp:141] Setting up inception_5b/relu_5x5_reduce
I0403 18:47:15.221007  7632 net.cpp:148] Top shape: 24 48 7 7 (56448)
I0403 18:47:15.221027  7632 net.cpp:156] Memory required for data: 1334725152
I0403 18:47:15.221045  7632 layer_factory.hpp:77] Creating layer inception_5b/5x5
I0403 18:47:15.221071  7632 net.cpp:91] Creating Layer inception_5b/5x5
I0403 18:47:15.221091  7632 net.cpp:425] inception_5b/5x5 <- inception_5b/5x5_reduce
I0403 18:47:15.221115  7632 net.cpp:399] inception_5b/5x5 -> inception_5b/5x5
I0403 18:47:15.223675  7632 net.cpp:141] Setting up inception_5b/5x5
I0403 18:47:15.223708  7632 net.cpp:148] Top shape: 24 128 7 7 (150528)
I0403 18:47:15.223727  7632 net.cpp:156] Memory required for data: 1335327264
I0403 18:47:15.223752  7632 layer_factory.hpp:77] Creating layer inception_5b/relu_5x5
I0403 18:47:15.223774  7632 net.cpp:91] Creating Layer inception_5b/relu_5x5
I0403 18:47:15.223798  7632 net.cpp:425] inception_5b/relu_5x5 <- inception_5b/5x5
I0403 18:47:15.223821  7632 net.cpp:386] inception_5b/relu_5x5 -> inception_5b/5x5 (in-place)
I0403 18:47:15.224061  7632 net.cpp:141] Setting up inception_5b/relu_5x5
I0403 18:47:15.224092  7632 net.cpp:148] Top shape: 24 128 7 7 (150528)
I0403 18:47:15.224112  7632 net.cpp:156] Memory required for data: 1335929376
I0403 18:47:15.224130  7632 layer_factory.hpp:77] Creating layer inception_5b/pool
I0403 18:47:15.224154  7632 net.cpp:91] Creating Layer inception_5b/pool
I0403 18:47:15.224177  7632 net.cpp:425] inception_5b/pool <- inception_5a/output_inception_5a/output_0_split_3
I0403 18:47:15.224200  7632 net.cpp:399] inception_5b/pool -> inception_5b/pool
I0403 18:47:15.224298  7632 net.cpp:141] Setting up inception_5b/pool
I0403 18:47:15.224329  7632 net.cpp:148] Top shape: 24 832 7 7 (978432)
I0403 18:47:15.224346  7632 net.cpp:156] Memory required for data: 1339843104
I0403 18:47:15.224365  7632 layer_factory.hpp:77] Creating layer inception_5b/pool_proj
I0403 18:47:15.224393  7632 net.cpp:91] Creating Layer inception_5b/pool_proj
I0403 18:47:15.224416  7632 net.cpp:425] inception_5b/pool_proj <- inception_5b/pool
I0403 18:47:15.224441  7632 net.cpp:399] inception_5b/pool_proj -> inception_5b/pool_proj
I0403 18:47:15.227288  7632 net.cpp:141] Setting up inception_5b/pool_proj
I0403 18:47:15.227324  7632 net.cpp:148] Top shape: 24 128 7 7 (150528)
I0403 18:47:15.227342  7632 net.cpp:156] Memory required for data: 1340445216
I0403 18:47:15.227366  7632 layer_factory.hpp:77] Creating layer inception_5b/relu_pool_proj
I0403 18:47:15.227390  7632 net.cpp:91] Creating Layer inception_5b/relu_pool_proj
I0403 18:47:15.227411  7632 net.cpp:425] inception_5b/relu_pool_proj <- inception_5b/pool_proj
I0403 18:47:15.227434  7632 net.cpp:386] inception_5b/relu_pool_proj -> inception_5b/pool_proj (in-place)
I0403 18:47:15.227799  7632 net.cpp:141] Setting up inception_5b/relu_pool_proj
I0403 18:47:15.227833  7632 net.cpp:148] Top shape: 24 128 7 7 (150528)
I0403 18:47:15.227852  7632 net.cpp:156] Memory required for data: 1341047328
I0403 18:47:15.227870  7632 layer_factory.hpp:77] Creating layer inception_5b/output
I0403 18:47:15.227892  7632 net.cpp:91] Creating Layer inception_5b/output
I0403 18:47:15.227931  7632 net.cpp:425] inception_5b/output <- inception_5b/1x1
I0403 18:47:15.227954  7632 net.cpp:425] inception_5b/output <- inception_5b/3x3
I0403 18:47:15.227975  7632 net.cpp:425] inception_5b/output <- inception_5b/5x5
I0403 18:47:15.227995  7632 net.cpp:425] inception_5b/output <- inception_5b/pool_proj
I0403 18:47:15.228020  7632 net.cpp:399] inception_5b/output -> inception_5b/output
I0403 18:47:15.228085  7632 net.cpp:141] Setting up inception_5b/output
I0403 18:47:15.228113  7632 net.cpp:148] Top shape: 24 1024 7 7 (1204224)
I0403 18:47:15.228135  7632 net.cpp:156] Memory required for data: 1345864224
I0403 18:47:15.228153  7632 layer_factory.hpp:77] Creating layer pool5/7x7_s1
I0403 18:47:15.228176  7632 net.cpp:91] Creating Layer pool5/7x7_s1
I0403 18:47:15.228196  7632 net.cpp:425] pool5/7x7_s1 <- inception_5b/output
I0403 18:47:15.228219  7632 net.cpp:399] pool5/7x7_s1 -> pool5/7x7_s1
I0403 18:47:15.228497  7632 net.cpp:141] Setting up pool5/7x7_s1
I0403 18:47:15.228529  7632 net.cpp:148] Top shape: 24 1024 1 1 (24576)
I0403 18:47:15.228549  7632 net.cpp:156] Memory required for data: 1345962528
I0403 18:47:15.228566  7632 layer_factory.hpp:77] Creating layer pool5/drop_7x7_s1
I0403 18:47:15.228590  7632 net.cpp:91] Creating Layer pool5/drop_7x7_s1
I0403 18:47:15.228610  7632 net.cpp:425] pool5/drop_7x7_s1 <- pool5/7x7_s1
I0403 18:47:15.228634  7632 net.cpp:386] pool5/drop_7x7_s1 -> pool5/7x7_s1 (in-place)
I0403 18:47:15.228695  7632 net.cpp:141] Setting up pool5/drop_7x7_s1
I0403 18:47:15.228727  7632 net.cpp:148] Top shape: 24 1024 1 1 (24576)
I0403 18:47:15.228749  7632 net.cpp:156] Memory required for data: 1346060832
I0403 18:47:15.228767  7632 layer_factory.hpp:77] Creating layer loss3/classifier_plantvillage
I0403 18:47:15.228790  7632 net.cpp:91] Creating Layer loss3/classifier_plantvillage
I0403 18:47:15.228811  7632 net.cpp:425] loss3/classifier_plantvillage <- pool5/7x7_s1
I0403 18:47:15.228835  7632 net.cpp:399] loss3/classifier_plantvillage -> loss3/classifier_plantvillage
I0403 18:47:15.229375  7632 net.cpp:141] Setting up loss3/classifier_plantvillage
I0403 18:47:15.229406  7632 net.cpp:148] Top shape: 24 38 (912)
I0403 18:47:15.229425  7632 net.cpp:156] Memory required for data: 1346064480
I0403 18:47:15.229449  7632 layer_factory.hpp:77] Creating layer loss3/classifier_plantvillage_loss3/classifier_plantvillage_0_split
I0403 18:47:15.229476  7632 net.cpp:91] Creating Layer loss3/classifier_plantvillage_loss3/classifier_plantvillage_0_split
I0403 18:47:15.229498  7632 net.cpp:425] loss3/classifier_plantvillage_loss3/classifier_plantvillage_0_split <- loss3/classifier_plantvillage
I0403 18:47:15.229521  7632 net.cpp:399] loss3/classifier_plantvillage_loss3/classifier_plantvillage_0_split -> loss3/classifier_plantvillage_loss3/classifier_plantvillage_0_split_0
I0403 18:47:15.229547  7632 net.cpp:399] loss3/classifier_plantvillage_loss3/classifier_plantvillage_0_split -> loss3/classifier_plantvillage_loss3/classifier_plantvillage_0_split_1
I0403 18:47:15.229575  7632 net.cpp:399] loss3/classifier_plantvillage_loss3/classifier_plantvillage_0_split -> loss3/classifier_plantvillage_loss3/classifier_plantvillage_0_split_2
I0403 18:47:15.229604  7632 net.cpp:399] loss3/classifier_plantvillage_loss3/classifier_plantvillage_0_split -> loss3/classifier_plantvillage_loss3/classifier_plantvillage_0_split_3
I0403 18:47:15.229729  7632 net.cpp:141] Setting up loss3/classifier_plantvillage_loss3/classifier_plantvillage_0_split
I0403 18:47:15.229758  7632 net.cpp:148] Top shape: 24 38 (912)
I0403 18:47:15.229778  7632 net.cpp:148] Top shape: 24 38 (912)
I0403 18:47:15.229797  7632 net.cpp:148] Top shape: 24 38 (912)
I0403 18:47:15.229816  7632 net.cpp:148] Top shape: 24 38 (912)
I0403 18:47:15.229835  7632 net.cpp:156] Memory required for data: 1346079072
I0403 18:47:15.229852  7632 layer_factory.hpp:77] Creating layer loss1/loss
I0403 18:47:15.229879  7632 net.cpp:91] Creating Layer loss1/loss
I0403 18:47:15.229902  7632 net.cpp:425] loss1/loss <- loss1/classifier_plantvillage_loss1/classifier_plantvillage_0_split_0
I0403 18:47:15.229938  7632 net.cpp:425] loss1/loss <- label_data_1_split_0
…
