…
I0403 10:34:49.042788 26896 net.cpp:313] The NetState phase (0) differed from the phase (1) specified by a rule in layer loss3/top-5
I0403 10:34:49.046386 26896 net.cpp:49] Initializing net from parameters: 
state {
  phase: TRAIN
}
layer {
  name: "data"
  type: "Data"
  top: "data"
  top: "label"
  include {
    phase: TRAIN
  }
  transform_param {
    mirror: true
    crop_size: 224
    mean_file: "/home/mohanty/data/final_dataset/lmdb/segmented-50-50/mean.binaryproto"
  }
  data_param {
    source: "/home/mohanty/data/final_dataset/lmdb/segmented-50-50/train_db"
    batch_size: 24
    backend: LMDB
  }
}
layer {
  name: "conv1/7x7_s2"
  type: "Convolution"
  bottom: "data"
  top: "conv1/7x7_s2"
  param {
    lr_mult: 1
    decay_mult: 1
  }
  param {
    lr_mult: 2
    decay_mult: 0
  }
  convolution_param {
    num_output: 64
    pad: 3
    kernel_size: 7
    stride: 2
    weight_filler {
      type: "xavier"
      std: 0.1
    }
    bias_filler {
      type: "constant"
      value: 0.2
    }
  }
}
layer {
  name: "conv1/relu_7x7"
  type: "ReLU"
  bottom: "conv1/7x7_s2"
  top: "conv1/7x7_s2"
}
layer {
  name: "pool1/3x3_s2"
  type: "Pooling"
  bottom: "conv1/7x7_s2"
  top: "pool1/3x3_s2"
  pooling_param {
    pool: MAX
    kernel_size: 3
    stride: 2
  }
}
layer {
  name: "pool1/norm1"
  type: "LRN"
  bottom: "pool1/3x3_s2"
  top: "pool1/norm1"
  lrn_param {
    local_size: 5
    alpha: 0.0001
    beta: 0.75
  }
}
layer {
  name: "conv2/3x3_reduce"
  type: "Convolution"
  bottom: "pool1/norm1"
  top: "conv2/3x3_reduce"
  param {
    lr_mult: 1
    decay_mult: 1
  }
  param {
    lr_mult: 2
    decay_mult: 0
  }
  convolution_param {
    num_output: 64
    kernel_size: 1
    weight_filler {
      type: "xavier"
      std: 0.1
    }
    bias_filler {
      type: "constant"
      value: 0.2
    }
  }
}
layer {
  name: "conv2/relu_3x3_reduce"
  type: "ReLU"
  bottom: "conv2/3x3_reduce"
  top: "conv2/3x3_reduce"
}
layer {
  name: "conv2/3x3"
  type: "Convolution"
  bottom: "conv2/3x3_reduce"
  top: "conv2/3x3"
  param {
    lr_mult: 1
    decay_mult: 1
  }
  param {
    lr_mult: 2
    decay_mult: 0
  }
  convolution_param {
    num_output: 192
    pad: 1
    kernel_size: 3
    weight_filler {
      type: "xavier"
      std: 0.03
    }
    bias_filler {
      type: "constant"
      value: 0.2
    }
  }
}
layer {
  name: "conv2/relu_3x3"
  type: "ReLU"
  bottom: "conv2/3x3"
  top: "conv2/3x3"
}
layer {
  name: "conv2/norm2"
  type: "LRN"
  bottom: "conv2/3x3"
  top: "conv2/norm2"
  lrn_param {
    local_size: 5
    alpha: 0.0001
    beta: 0.75
  }
}
layer {
  name: "pool2/3x3_s2"
  type: "Pooling"
  bottom: "conv2/norm2"
  top: "pool2/3x3_s2"
  pooling_param {
    pool: MAX
    kernel_size: 3
    stride: 2
  }
}
layer {
  name: "inception_3a/1x1"
  type: "Convolution"
  bottom: "pool2/3x3_s2"
  top: "inception_3a/1x1"
  param {
    lr_mult: 1
    decay_mult: 1
  }
  param {
    lr_mult: 2
    decay_mult: 0
  }
  convolution_param {
    num_output: 64
    kernel_size: 1
    weight_filler {
      type: "xavier"
      std: 0.03
    }
    bias_filler {
      type: "constant"
      value: 0.2
    }
  }
}
layer {
  name: "inception_3a/relu_1x1"
  type: "ReLU"
  bottom: "inception_3a/1x1"
  top: "inception_3a/1x1"
}
layer {
  name: "inception_3a/3x3_reduce"
  type: "Convolution"
  bottom: "pool2/3x3_s2"
  top: "inception_3a/3x3_reduce"
  param {
    lr_mult: 1
    decay_mult: 1
  }
  param {
    lr_mult: 2
    decay_mult: 0
  }
  convolution_param {
    num_output: 96
    kernel_size: 1
    weight_filler {
      type: "xavier"
      std: 0.09
    }
    bias_filler {
      type: "constant"
      value: 0.2
    }
  }
}
layer {
  name: "inception_3a/relu_3x3_reduce"
  type: "ReLU"
  bottom: "inception_3a/3x3_reduce"
  top: "inception_3a/3x3_reduce"
}
layer {
  name: "inception_3a/3x3"
  type: "Convolution"
  bottom: "inception_3a/3x3_reduce"
  top: "inception_3a/3x3"
  param {
    lr_mult: 1
    decay_mult: 1
  }
  param {
    lr_mult: 2
    decay_mult: 0
  }
  convolution_param {
    num_output: 128
    pad: 1
    kernel_size: 3
    weight_filler {
      type: "xavier"
      std: 0.03
    }
    bias_filler {
      type: "constant"
      value: 0.2
    }
  }
}
layer {
  name: "inception_3a/relu_3x3"
  type: "ReLU"
  bottom: "inception_3a/3x3"
  top: "inception_3a/3x3"
}
layer {
  name: "inception_3a/5x5_reduce"
  type: "Convolution"
  bottom: "pool2/3x3_s2"
  top: "inception_3a/5x5_reduce"
  param {
    lr_mult: 1
    decay_mult: 1
  }
  param {
    lr_mult: 2
    decay_mult: 0
  }
  convolution_param {
    num_output: 16
    kernel_size: 1
    weight_filler {
      type: "xavier"
      std: 0.2
    }
    bias_filler {
      type: "constant"
      value: 0.2
    }
  }
}
layer {
  name: "inception_3a/relu_5x5_reduce"
  type: "ReLU"
  bottom: "inception_3a/5x5_reduce"
  top: "inception_3a/5x5_reduce"
}
layer {
  name: "inception_3a/5x5"
  type: "Convolution"
  bottom: "inception_3a/5x5_reduce"
  top: "inception_3a/5x5"
  param {
    lr_mult: 1
    decay_mult: 1
  }
  param {
    lr_mult: 2
    decay_mult: 0
  }
  convolution_param {
    num_output: 32
    pad: 2
    kernel_size: 5
    weight_filler {
      type: "xavier"
      std: 0.03
    }
    bias_filler {
      type: "constant"
      value: 0.2
    }
  }
}
layer {
  name: "inception_3a/relu_5x5"
  type: "ReLU"
  bottom: "inception_3a/5x5"
  top: "inception_3a/5x5"
}
layer {
  name: "inception_3a/pool"
  type: "Pooling"
  bottom: "pool2/3x3_s2"
  top: "inception_3a/pool"
  pooling_param {
    pool: MAX
    kernel_size: 3
    stride: 1
    pad: 1
  }
}
layer {
  name: "inception_3a/pool_proj"
  type: "Convolution"
  bottom: "inception_3a/pool"
  top: "inception_3a/pool_proj"
  param {
    lr_mult: 1
    decay_mult: 1
  }
  param {
    lr_mult: 2
    decay_mult: 0
  }
  convolution_param {
    num_output: 32
    kernel_size: 1
    weight_filler {
      type: "xavier"
      std: 0.1
    }
    bias_filler {
      type: "constant"
      value: 0.2
    }
  }
}
layer {
  name: "inception_3a/relu_pool_proj"
  type: "ReLU"
  bottom: "inception_3a/pool_proj"
  top: "inception_3a/pool_proj"
}
layer {
  name: "inception_3a/output"
  type: "Concat"
  bottom: "inception_3a/1x1"
  bottom: "inception_3a/3x3"
  bottom: "inception_3a/5x5"
  bottom: "inception_3a/pool_proj"
  top: "inception_3a/output"
}
layer {
  name: "inception_3b/1x1"
  type: "Convolution"
  bottom: "inception_3a/output"
  top: "inception_3b/1x1"
  param {
    lr_mult: 1
    decay_mult: 1
  }
  param {
    lr_mult: 2
    decay_mult: 0
  }
  convolution_param {
    num_output: 128
    kernel_size: 1
    weight_filler {
      type: "xavier"
      std: 0.03
    }
    bias_filler {
      type: "constant"
      value: 0.2
    }
  }
}
layer {
  name: "inception_3b/relu_1x1"
  type: "ReLU"
  bottom: "inception_3b/1x1"
  top: "inception_3b/1x1"
}
layer {
  name: "inception_3b/3x3_reduce"
  type: "Convolution"
  bottom: "inception_3a/output"
  top: "inception_3b/3x3_reduce"
  param {
    lr_mult: 1
    decay_mult: 1
  }
  param {
    lr_mult: 2
    decay_mult: 0
  }
  convolution_param {
    num_output: 128
    kernel_size: 1
    weight_filler {
      type: "xavier"
      std: 0.09
    }
    bias_filler {
      type: "constant"
      value: 0.2
    }
  }
}
layer {
  name: "inception_3b/relu_3x3_reduce"
  type: "ReLU"
  bottom: "inception_3b/3x3_reduce"
  top: "inception_3b/3x3_reduce"
}
layer {
  name: "inception_3b/3x3"
  type: "Convolution"
  bottom: "inception_3b/3x3_reduce"
  top: "inception_3b/3x3"
  param {
    lr_mult: 1
    decay_mult: 1
  }
  param {
    lr_mult: 2
    decay_mult: 0
  }
  convolution_param {
    num_output: 192
    pad: 1
    kernel_size: 3
    weight_filler {
      type: "xavier"
      std: 0.03
    }
    bias_filler {
      type: "constant"
      value: 0.2
    }
  }
}
layer {
  name: "inception_3b/relu_3x3"
  type: "ReLU"
  bottom: "inception_3b/3x3"
  top: "inception_3b/3x3"
}
layer {
  name: "inception_3b/5x5_reduce"
  type: "Convolution"
  bottom: "inception_3a/output"
  top: "inception_3b/5x5_reduce"
  param {
    lr_mult: 1
    decay_mult: 1
  }
  param {
    lr_mult: 2
    decay_mult: 0
  }
  convolution_param {
    num_output: 32
    kernel_size: 1
    weight_filler {
      type: "xavier"
      std: 0.2
    }
    bias_filler {
      type: "constant"
      value: 0.2
    }
  }
}
layer {
  name: "inception_3b/relu_5x5_reduce"
  type: "ReLU"
  bottom: "inception_3b/5x5_reduce"
  top: "inception_3b/5x5_reduce"
}
layer {
  name: "inception_3b/5x5"
  type: "Convolution"
  bottom: "inception_3b/5x5_reduce"
  top: "inception_3b/5x5"
  param {
    lr_mult: 1
    decay_mult: 1
  }
  param {
    lr_mult: 2
    decay_mult: 0
  }
  convolution_param {
    num_output: 96
    pad: 2
    kernel_size: 5
    weight_filler {
      type: "xavier"
      std: 0.03
    }
    bias_filler {
      type: "constant"
      value: 0.2
    }
  }
}
layer {
  name: "inception_3b/relu_5x5"
  type: "ReLU"
  bottom: "inception_3b/5x5"
  top: "inception_3b/5x5"
}
layer {
  name: "inception_3b/pool"
  type: "Pooling"
  bottom: "inception_3a/output"
  top: "inception_3b/pool"
  pooling_param {
    pool: MAX
    kernel_size: 3
    stride: 1
    pad: 1
  }
}
layer {
  name: "inception_3b/pool_proj"
  type: "Convolution"
  bottom: "inception_3b/pool"
  top: "inception_3b/pool_proj"
  param {
    lr_mult: 1
    decay_mult: 1
  }
  param {
    lr_mult: 2
    decay_mult: 0
  }
  convolution_param {
    num_output: 64
    kernel_size: 1
    weight_filler {
      type: "xavier"
      std: 0.1
    }
    bias_filler {
      type: "constant"
      value: 0.2
    }
  }
}
layer {
  name: "inception_3b/relu_pool_proj"
  type: "ReLU"
  bottom: "inception_3b/pool_proj"
  top: "inception_3b/pool_proj"
}
layer {
  name: "inception_3b/output"
  type: "Concat"
  bottom: "inception_3b/1x1"
  bottom: "inception_3b/3x3"
  bottom: "inception_3b/5x5"
  bottom: "inception_3b/pool_proj"
  top: "inception_3b/output"
}
layer {
  name: "pool3/3x3_s2"
  type: "Pooling"
  bottom: "inception_3b/output"
  top: "pool3/3x3_s2"
  pooling_param {
    pool: MAX
    kernel_size: 3
    stride: 2
  }
}
layer {
  name: "inception_4a/1x1"
  type: "Convolution"
  bottom: "pool3/3x3_s2"
  top: "inception_4a/1x1"
  param {
    lr_mult: 1
    decay_mult: 1
  }
  param {
    lr_mult: 2
    decay_mult: 0
  }
  convolution_param {
    num_output: 192
    kernel_size: 1
    weight_filler {
      type: "xavier"
      std: 0.03
    }
    bias_filler {
      type: "constant"
      value: 0.2
    }
  }
}
layer {
  name: "inception_4a/relu_1x1"
  type: "ReLU"
  bottom: "inception_4a/1x1"
  top: "inception_4a/1x1"
}
layer {
  name: "inception_4a/3x3_reduce"
  type: "Convolution"
  bottom: "pool3/3x3_s2"
  top: "inception_4a/3x3_reduce"
  param {
    lr_mult: 1
    decay_mult: 1
  }
  param {
    lr_mult: 2
    decay_mult: 0
  }
  convolution_param {
    num_output: 96
    kernel_size: 1
    weight_filler {
      type: "xavier"
      std: 0.09
    }
    bias_filler {
      type: "constant"
      value: 0.2
    }
  }
}
layer {
  name: "inception_4a/relu_3x3_reduce"
  type: "ReLU"
  bottom: "inception_4a/3x3_reduce"
  top: "inception_4a/3x3_reduce"
}
layer {
  name: "inception_4a/3x3"
  type: "Convolution"
  bottom: "inception_4a/3x3_reduce"
  top: "inception_4a/3x3"
  param {
    lr_mult: 1
    decay_mult: 1
  }
  param {
    lr_mult: 2
    decay_mult: 0
  }
  convolution_param {
    num_output: 208
    pad: 1
    kernel_size: 3
    weight_filler {
      type: "xavier"
      std: 0.03
    }
    bias_filler {
      type: "constant"
      value: 0.2
    }
  }
}
layer {
  name: "inception_4a/relu_3x3"
  type: "ReLU"
  bottom: "inception_4a/3x3"
  top: "inception_4a/3x3"
}
layer {
  name: "inception_4a/5x5_reduce"
  type: "Convolution"
  bottom: "pool3/3x3_s2"
  top: "inception_4a/5x5_reduce"
  param {
    lr_mult: 1
    decay_mult: 1
  }
  param {
    lr_mult: 2
    decay_mult: 0
  }
  convolution_param {
    num_output: 16
    kernel_size: 1
    weight_filler {
      type: "xavier"
      std: 0.2
    }
    bias_filler {
      type: "constant"
      value: 0.2
    }
  }
}
layer {
  name: "inception_4a/relu_5x5_reduce"
  type: "ReLU"
  bottom: "inception_4a/5x5_reduce"
  top: "inception_4a/5x5_reduce"
}
layer {
  name: "inception_4a/5x5"
  type: "Convolution"
  bottom: "inception_4a/5x5_reduce"
  top: "inception_4a/5x5"
  param {
    lr_mult: 1
    decay_mult: 1
  }
  param {
    lr_mult: 2
    decay_mult: 0
  }
  convolution_param {
    num_output: 48
    pad: 2
    kernel_size: 5
    weight_filler {
      type: "xavier"
      std: 0.03
    }
    bias_filler {
      type: "constant"
      value: 0.2
    }
  }
}
layer {
  name: "inception_4a/relu_5x5"
  type: "ReLU"
  bottom: "inception_4a/5x5"
  top: "inception_4a/5x5"
}
layer {
  name: "inception_4a/pool"
  type: "Pooling"
  bottom: "pool3/3x3_s2"
  top: "inception_4a/pool"
  pooling_param {
    pool: MAX
    kernel_size: 3
    stride: 1
    pad: 1
  }
}
layer {
  name: "inception_4a/pool_proj"
  type: "Convolution"
  bottom: "inception_4a/pool"
  top: "inception_4a/pool_proj"
  param {
    lr_mult: 1
    decay_mult: 1
  }
  param {
    lr_mult: 2
    decay_mult: 0
  }
  convolution_param {
    num_output: 64
    kernel_size: 1
    weight_filler {
      type: "xavier"
      std: 0.1
    }
    bias_filler {
      type: "constant"
      value: 0.2
    }
  }
}
layer {
  name: "inception_4a/relu_pool_proj"
  type: "ReLU"
  bottom: "inception_4a/pool_proj"
  top: "inception_4a/pool_proj"
}
layer {
  name: "inception_4a/output"
  type: "Concat"
  bottom: "inception_4a/1x1"
  bottom: "inception_4a/3x3"
  bottom: "inception_4a/5x5"
  bottom: "inception_4a/pool_proj"
  top: "inception_4a/output"
}
layer {
  name: "loss1/ave_pool"
  type: "Pooling"
  bottom: "inception_4a/output"
  top: "loss1/ave_pool"
  pooling_param {
    pool: AVE
    kernel_size: 5
    stride: 3
  }
}
layer {
  name: "loss1/conv"
  type: "Convolution"
  bottom: "loss1/ave_pool"
  top: "loss1/conv"
  param {
    lr_mult: 1
    decay_mult: 1
  }
  param {
    lr_mult: 2
    decay_mult: 0
  }
  convolution_param {
    num_output: 128
    kernel_size: 1
    weight_filler {
      type: "xavier"
      std: 0.08
    }
    bias_filler {
      type: "constant"
      value: 0.2
    }
  }
}
layer {
  name: "loss1/relu_conv"
  type: "ReLU"
  bottom: "loss1/conv"
  top: "loss1/conv"
}
layer {
  name: "loss1/fc"
  type: "InnerProduct"
  bottom: "loss1/conv"
  top: "loss1/fc"
  param {
    lr_mult: 1
    decay_mult: 1
  }
  param {
    lr_mult: 2
    decay_mult: 0
  }
  inner_product_param {
    num_output: 1024
    weight_filler {
      type: "xavier"
      std: 0.02
    }
    bias_filler {
      type: "constant"
      value: 0.2
    }
  }
}
layer {
  name: "loss1/relu_fc"
  type: "ReLU"
  bottom: "loss1/fc"
  top: "loss1/fc"
}
layer {
  name: "loss1/drop_fc"
  type: "Dropout"
  bottom: "loss1/fc"
  top: "loss1/fc"
  dropout_param {
    dropout_ratio: 0.7
  }
}
layer {
  name: "loss1/classifier_plantvillage"
  type: "InnerProduct"
  bottom: "loss1/fc"
  top: "loss1/classifier_plantvillage"
  param {
    lr_mult: 1
    decay_mult: 1
  }
  param {
    lr_mult: 2
    decay_mult: 0
  }
  inner_product_param {
    num_output: 38
    weight_filler {
      type: "xavier"
      std: 0.0009765625
    }
    bias_filler {
      type: "constant"
      value: 0
    }
  }
}
layer {
  name: "inception_4b/1x1"
  type: "Convolution"
  bottom: "inception_4a/output"
  top: "inception_4b/1x1"
  param {
    lr_mult: 1
    decay_mult: 1
  }
  param {
    lr_mult: 2
    decay_mult: 0
  }
  convolution_param {
    num_output: 160
    kernel_size: 1
    weight_filler {
      type: "xavier"
      std: 0.03
    }
    bias_filler {
      type: "constant"
      value: 0.2
    }
  }
}
layer {
  name: "inception_4b/relu_1x1"
  type: "ReLU"
  bottom: "inception_4b/1x1"
  top: "inception_4b/1x1"
}
layer {
  name: "inception_4b/3x3_reduce"
  type: "Convolution"
  bottom: "inception_4a/output"
  top: "inception_4b/3x3_reduce"
  param {
    lr_mult: 1
    decay_mult: 1
  }
  param {
    lr_mult: 2
    decay_mult: 0
  }
  convolution_param {
    num_output: 112
    kernel_size: 1
    weight_filler {
      type: "xavier"
      std: 0.09
    }
    bias_filler {
      type: "constant"
      value: 0.2
    }
  }
}
layer {
  name: "inception_4b/relu_3x3_reduce"
  type: "ReLU"
  bottom: "inception_4b/3x3_reduce"
  top: "inception_4b/3x3_reduce"
}
layer {
  name: "inception_4b/3x3"
  type: "Convolution"
  bottom: "inception_4b/3x3_reduce"
  top: "inception_4b/3x3"
  param {
    lr_mult: 1
    decay_mult: 1
  }
  param {
    lr_mult: 2
    decay_mult: 0
  }
  convolution_param {
    num_output: 224
    pad: 1
    kernel_size: 3
    weight_filler {
      type: "xavier"
      std: 0.03
    }
    bias_filler {
      type: "constant"
      value: 0.2
    }
  }
}
layer {
  name: "inception_4b/relu_3x3"
  type: "ReLU"
  bottom: "inception_4b/3x3"
  top: "inception_4b/3x3"
}
layer {
  name: "inception_4b/5x5_reduce"
  type: "Convolution"
  bottom: "inception_4a/output"
  top: "inception_4b/5x5_reduce"
  param {
    lr_mult: 1
    decay_mult: 1
  }
  param {
    lr_mult: 2
    decay_mult: 0
  }
  convolution_param {
    num_output: 24
    kernel_size: 1
    weight_filler {
      type: "xavier"
      std: 0.2
    }
    bias_filler {
      type: "constant"
      value: 0.2
    }
  }
}
layer {
  name: "inception_4b/relu_5x5_reduce"
  type: "ReLU"
  bottom: "inception_4b/5x5_reduce"
  top: "inception_4b/5x5_reduce"
}
layer {
  name: "inception_4b/5x5"
  type: "Convolution"
  bottom: "inception_4b/5x5_reduce"
  top: "inception_4b/5x5"
  param {
    lr_mult: 1
    decay_mult: 1
  }
  param {
    lr_mult: 2
    decay_mult: 0
  }
  convolution_param {
    num_output: 64
    pad: 2
    kernel_size: 5
    weight_filler {
      type: "xavier"
      std: 0.03
    }
    bias_filler {
      type: "constant"
      value: 0.2
    }
  }
}
layer {
  name: "inception_4b/relu_5x5"
  type: "ReLU"
  bottom: "inception_4b/5x5"
  top: "inception_4b/5x5"
}
layer {
  name: "inception_4b/pool"
  type: "Pooling"
  bottom: "inception_4a/output"
  top: "inception_4b/pool"
  pooling_param {
    pool: MAX
    kernel_size: 3
    stride: 1
    pad: 1
  }
}
layer {
  name: "inception_4b/pool_proj"
  type: "Convolution"
  bottom: "inception_4b/pool"
  top: "inception_4b/pool_proj"
  param {
    lr_mult: 1
    decay_mult: 1
  }
  param {
    lr_mult: 2
    decay_mult: 0
  }
  convolution_param {
    num_output: 64
    kernel_size: 1
    weight_filler {
      type: "xavier"
      std: 0.1
    }
    bias_filler {
      type: "constant"
      value: 0.2
    }
  }
}
layer {
  name: "inception_4b/relu_pool_proj"
  type: "ReLU"
  bottom: "inception_4b/pool_proj"
  top: "inception_4b/pool_proj"
}
layer {
  name: "inception_4b/output"
  type: "Concat"
  bottom: "inception_4b/1x1"
  bottom: "inception_4b/3x3"
  bottom: "inception_4b/5x5"
  bottom: "inception_4b/pool_proj"
  top: "inception_4b/output"
}
layer {
  name: "inception_4c/1x1"
  type: "Convolution"
  bottom: "inception_4b/output"
  top: "inception_4c/1x1"
  param {
    lr_mult: 1
    decay_mult: 1
  }
  param {
    lr_mult: 2
    decay_mult: 0
  }
  convolution_param {
    num_output: 128
    kernel_size: 1
    weight_filler {
      type: "xavier"
      std: 0.03
    }
    bias_filler {
      type: "constant"
      value: 0.2
    }
  }
}
layer {
  name: "inception_4c/relu_1x1"
  type: "ReLU"
  bottom: "inception_4c/1x1"
  top: "inception_4c/1x1"
}
layer {
  name: "inception_4c/3x3_reduce"
  type: "Convolution"
  bottom: "inception_4b/output"
  top: "inception_4c/3x3_reduce"
  param {
    lr_mult: 1
    decay_mult: 1
  }
  param {
    lr_mult: 2
    decay_mult: 0
  }
  convolution_param {
    num_output: 128
    kernel_size: 1
    weight_filler {
      type: "xavier"
      std: 0.09
    }
    bias_filler {
      type: "constant"
      value: 0.2
    }
  }
}
layer {
  name: "inception_4c/relu_3x3_reduce"
  type: "ReLU"
  bottom: "inception_4c/3x3_reduce"
  top: "inception_4c/3x3_reduce"
}
layer {
  name: "inception_4c/3x3"
  type: "Convolution"
  bottom: "inception_4c/3x3_reduce"
  top: "inception_4c/3x3"
  param {
    lr_mult: 1
    decay_mult: 1
  }
  param {
    lr_mult: 2
    decay_mult: 0
  }
  convolution_param {
    num_output: 256
    pad: 1
    kernel_size: 3
    weight_filler {
      type: "xavier"
      std: 0.03
    }
    bias_filler {
      type: "constant"
      value: 0.2
    }
  }
}
layer {
  name: "inception_4c/relu_3x3"
  type: "ReLU"
  bottom: "inception_4c/3x3"
  top: "inception_4c/3x3"
}
layer {
  name: "inception_4c/5x5_reduce"
  type: "Convolution"
  bottom: "inception_4b/output"
  top: "inception_4c/5x5_reduce"
  param {
    lr_mult: 1
    decay_mult: 1
  }
  param {
    lr_mult: 2
    decay_mult: 0
  }
  convolution_param {
    num_output: 24
    kernel_size: 1
    weight_filler {
      type: "xavier"
      std: 0.2
    }
    bias_filler {
      type: "constant"
      value: 0.2
    }
  }
}
layer {
  name: "inception_4c/relu_5x5_reduce"
  type: "ReLU"
  bottom: "inception_4c/5x5_reduce"
  top: "inception_4c/5x5_reduce"
}
layer {
  name: "inception_4c/5x5"
  type: "Convolution"
  bottom: "inception_4c/5x5_reduce"
  top: "inception_4c/5x5"
  param {
    lr_mult: 1
    decay_mult: 1
  }
  param {
    lr_mult: 2
    decay_mult: 0
  }
  convolution_param {
    num_output: 64
    pad: 2
    kernel_size: 5
    weight_filler {
      type: "xavier"
      std: 0.03
    }
    bias_filler {
      type: "constant"
      value: 0.2
    }
  }
}
layer {
  name: "inception_4c/relu_5x5"
  type: "ReLU"
  bottom: "inception_4c/5x5"
  top: "inception_4c/5x5"
}
layer {
  name: "inception_4c/pool"
  type: "Pooling"
  bottom: "inception_4b/output"
  top: "inception_4c/pool"
  pooling_param {
    pool: MAX
    kernel_size: 3
    stride: 1
    pad: 1
  }
}
layer {
  name: "inception_4c/pool_proj"
  type: "Convolution"
  bottom: "inception_4c/pool"
  top: "inception_4c/pool_proj"
  param {
    lr_mult: 1
    decay_mult: 1
  }
  param {
    lr_mult: 2
    decay_mult: 0
  }
  convolution_param {
    num_output: 64
    kernel_size: 1
    weight_filler {
      type: "xavier"
      std: 0.1
    }
    bias_filler {
      type: "constant"
      value: 0.2
    }
  }
}
layer {
  name: "inception_4c/relu_pool_proj"
  type: "ReLU"
  bottom: "inception_4c/pool_proj"
  top: "inception_4c/pool_proj"
}
layer {
  name: "inception_4c/output"
  type: "Concat"
  bottom: "inception_4c/1x1"
  bottom: "inception_4c/3x3"
  bottom: "inception_4c/5x5"
  bottom: "inception_4c/pool_proj"
  top: "inception_4c/output"
}
layer {
  name: "inception_4d/1x1"
  type: "Convolution"
  bottom: "inception_4c/output"
  top: "inception_4d/1x1"
  param {
    lr_mult: 1
    decay_mult: 1
  }
  param {
    lr_mult: 2
    decay_mult: 0
  }
  convolution_param {
    num_output: 112
    kernel_size: 1
    weight_filler {
      type: "xavier"
      std: 0.03
    }
    bias_filler {
      type: "constant"
      value: 0.2
    }
  }
}
layer {
  name: "inception_4d/relu_1x1"
  type: "ReLU"
  bottom: "inception_4d/1x1"
  top: "inception_4d/1x1"
}
layer {
  name: "inception_4d/3x3_reduce"
  type: "Convolution"
  bottom: "inception_4c/output"
  top: "inception_4d/3x3_reduce"
  param {
    lr_mult: 1
    decay_mult: 1
  }
  param {
    lr_mult: 2
    decay_mult: 0
  }
  convolution_param {
    num_output: 144
    kernel_size: 1
    weight_filler {
      type: "xavier"
      std: 0.09
    }
    bias_filler {
      type: "constant"
      value: 0.2
    }
  }
}
layer {
  name: "inception_4d/relu_3x3_reduce"
  type: "ReLU"
  bottom: "inception_4d/3x3_reduce"
  top: "inception_4d/3x3_reduce"
}
layer {
  name: "inception_4d/3x3"
  type: "Convolution"
  bottom: "inception_4d/3x3_reduce"
  top: "inception_4d/3x3"
  param {
    lr_mult: 1
    decay_mult: 1
  }
  param {
    lr_mult: 2
    decay_mult: 0
  }
  convolution_param {
    num_output: 288
    pad: 1
    kernel_size: 3
    weight_filler {
      type: "xavier"
      std: 0.03
    }
    bias_filler {
      type: "constant"
      value: 0.2
    }
  }
}
layer {
  name: "inception_4d/relu_3x3"
  type: "ReLU"
  bottom: "inception_4d/3x3"
  top: "inception_4d/3x3"
}
layer {
  name: "inception_4d/5x5_reduce"
  type: "Convolution"
  bottom: "inception_4c/output"
  top: "inception_4d/5x5_reduce"
  param {
    lr_mult: 1
    decay_mult: 1
  }
  param {
    lr_mult: 2
    decay_mult: 0
  }
  convolution_param {
    num_output: 32
    kernel_size: 1
    weight_filler {
      type: "xavier"
      std: 0.2
    }
    bias_filler {
      type: "constant"
      value: 0.2
    }
  }
}
layer {
  name: "inception_4d/relu_5x5_reduce"
  type: "ReLU"
  bottom: "inception_4d/5x5_reduce"
  top: "inception_4d/5x5_reduce"
}
layer {
  name: "inception_4d/5x5"
  type: "Convolution"
  bottom: "inception_4d/5x5_reduce"
  top: "inception_4d/5x5"
  param {
    lr_mult: 1
    decay_mult: 1
  }
  param {
    lr_mult: 2
    decay_mult: 0
  }
  convolution_param {
    num_output: 64
    pad: 2
    kernel_size: 5
    weight_filler {
      type: "xavier"
      std: 0.03
    }
    bias_filler {
      type: "constant"
      value: 0.2
    }
  }
}
layer {
  name: "inception_4d/relu_5x5"
  type: "ReLU"
  bottom: "inception_4d/5x5"
  top: "inception_4d/5x5"
}
layer {
  name: "inception_4d/pool"
  type: "Pooling"
  bottom: "inception_4c/output"
  top: "inception_4d/pool"
  pooling_param {
    pool: MAX
    kernel_size: 3
    stride: 1
    pad: 1
  }
}
layer {
  name: "inception_4d/pool_proj"
  type: "Convolution"
  bottom: "inception_4d/pool"
  top: "inception_4d/pool_proj"
  param {
    lr_mult: 1
    decay_mult: 1
  }
  param {
    lr_mult: 2
    decay_mult: 0
  }
  convolution_param {
    num_output: 64
    kernel_size: 1
    weight_filler {
      type: "xavier"
      std: 0.1
    }
    bias_filler {
      type: "constant"
      value: 0.2
    }
  }
}
layer {
  name: "inception_4d/relu_pool_proj"
  type: "ReLU"
  bottom: "inception_4d/pool_proj"
  top: "inception_4d/pool_proj"
}
layer {
  name: "inception_4d/output"
  type: "Concat"
  bottom: "inception_4d/1x1"
  bottom: "inception_4d/3x3"
  bottom: "inception_4d/5x5"
  bottom: "inception_4d/pool_proj"
  top: "inception_4d/output"
}
layer {
  name: "loss2/ave_pool"
  type: "Pooling"
  bottom: "inception_4d/output"
  top: "loss2/ave_pool"
  pooling_param {
    pool: AVE
    kernel_size: 5
    stride: 3
  }
}
layer {
  name: "loss2/conv"
  type: "Convolution"
  bottom: "loss2/ave_pool"
  top: "loss2/conv"
  param {
    lr_mult: 1
    decay_mult: 1
  }
  param {
    lr_mult: 2
    decay_mult: 0
  }
  convolution_param {
    num_output: 128
    kernel_size: 1
    weight_filler {
      type: "xavier"
      std: 0.08
    }
    bias_filler {
      type: "constant"
      value: 0.2
    }
  }
}
layer {
  name: "loss2/relu_conv"
  type: "ReLU"
  bottom: "loss2/conv"
  top: "loss2/conv"
}
layer {
  name: "loss2/fc"
  type: "InnerProduct"
  bottom: "loss2/conv"
  top: "loss2/fc"
  param {
    lr_mult: 1
    decay_mult: 1
  }
  param {
    lr_mult: 2
    decay_mult: 0
  }
  inner_product_param {
    num_output: 1024
    weight_filler {
      type: "xavier"
      std: 0.02
    }
    bias_filler {
      type: "constant"
      value: 0.2
    }
  }
}
layer {
  name: "loss2/relu_fc"
  type: "ReLU"
  bottom: "loss2/fc"
  top: "loss2/fc"
}
layer {
  name: "loss2/drop_fc"
  type: "Dropout"
  bottom: "loss2/fc"
  top: "loss2/fc"
  dropout_param {
    dropout_ratio: 0.7
  }
}
layer {
  name: "loss2/classifier_plantvillage"
  type: "InnerProduct"
  bottom: "loss2/fc"
  top: "loss2/classifier_plantvillage"
  param {
    lr_mult: 1
    decay_mult: 1
  }
  param {
    lr_mult: 2
    decay_mult: 0
  }
  inner_product_param {
    num_output: 38
    weight_filler {
      type: "xavier"
      std: 0.0009765625
    }
    bias_filler {
      type: "constant"
      value: 0
    }
  }
}
layer {
  name: "inception_4e/1x1"
  type: "Convolution"
  bottom: "inception_4d/output"
  top: "inception_4e/1x1"
  param {
    lr_mult: 1
    decay_mult: 1
  }
  param {
    lr_mult: 2
    decay_mult: 0
  }
  convolution_param {
    num_output: 256
    kernel_size: 1
    weight_filler {
      type: "xavier"
      std: 0.03
    }
    bias_filler {
      type: "constant"
      value: 0.2
    }
  }
}
layer {
  name: "inception_4e/relu_1x1"
  type: "ReLU"
  bottom: "inception_4e/1x1"
  top: "inception_4e/1x1"
}
layer {
  name: "inception_4e/3x3_reduce"
  type: "Convolution"
  bottom: "inception_4d/output"
  top: "inception_4e/3x3_reduce"
  param {
    lr_mult: 1
    decay_mult: 1
  }
  param {
    lr_mult: 2
    decay_mult: 0
  }
  convolution_param {
    num_output: 160
    kernel_size: 1
    weight_filler {
      type: "xavier"
      std: 0.09
    }
    bias_filler {
      type: "constant"
      value: 0.2
    }
  }
}
layer {
  name: "inception_4e/relu_3x3_reduce"
  type: "ReLU"
  bottom: "inception_4e/3x3_reduce"
  top: "inception_4e/3x3_reduce"
}
layer {
  name: "inception_4e/3x3"
  type: "Convolution"
  bottom: "inception_4e/3x3_reduce"
  top: "inception_4e/3x3"
  param {
    lr_mult: 1
    decay_mult: 1
  }
  param {
    lr_mult: 2
    decay_mult: 0
  }
  convolution_param {
    num_output: 320
    pad: 1
    kernel_size: 3
    weight_filler {
      type: "xavier"
      std: 0.03
    }
    bias_filler {
      type: "constant"
      value: 0.2
    }
  }
}
layer {
  name: "inception_4e/relu_3x3"
  type: "ReLU"
  bottom: "inception_4e/3x3"
  top: "inception_4e/3x3"
}
layer {
  name: "inception_4e/5x5_reduce"
  type: "Convolution"
  bottom: "inception_4d/output"
  top: "inception_4e/5x5_reduce"
  param {
    lr_mult: 1
    decay_mult: 1
  }
  param {
    lr_mult: 2
    decay_mult: 0
  }
  convolution_param {
    num_output: 32
    kernel_size: 1
    weight_filler {
      type: "xavier"
      std: 0.2
    }
    bias_filler {
      type: "constant"
      value: 0.2
    }
  }
}
layer {
  name: "inception_4e/relu_5x5_reduce"
  type: "ReLU"
  bottom: "inception_4e/5x5_reduce"
  top: "inception_4e/5x5_reduce"
}
layer {
  name: "inception_4e/5x5"
  type: "Convolution"
  bottom: "inception_4e/5x5_reduce"
  top: "inception_4
I0403 10:34:49.047525 26896 layer_factory.hpp:77] Creating layer data
I0403 10:34:49.048152 26896 net.cpp:91] Creating Layer data
I0403 10:34:49.048192 26896 net.cpp:399] data -> data
I0403 10:34:49.048248 26896 net.cpp:399] data -> label
I0403 10:34:49.048281 26896 data_transformer.cpp:25] Loading mean file from: /home/mohanty/data/final_dataset/lmdb/segmented-50-50/mean.binaryproto
I0403 10:34:49.135429 26900 db_lmdb.cpp:38] Opened lmdb /home/mohanty/data/final_dataset/lmdb/segmented-50-50/train_db
I0403 10:34:49.175868 26896 data_layer.cpp:41] output data size: 24,3,224,224
I0403 10:34:49.203635 26896 net.cpp:141] Setting up data
I0403 10:34:49.203716 26896 net.cpp:148] Top shape: 24 3 224 224 (3612672)
I0403 10:34:49.203748 26896 net.cpp:148] Top shape: 24 (24)
I0403 10:34:49.203763 26896 net.cpp:156] Memory required for data: 14450784
I0403 10:34:49.203825 26896 layer_factory.hpp:77] Creating layer label_data_1_split
I0403 10:34:49.203858 26896 net.cpp:91] Creating Layer label_data_1_split
I0403 10:34:49.203878 26896 net.cpp:425] label_data_1_split <- label
I0403 10:34:49.203908 26896 net.cpp:399] label_data_1_split -> label_data_1_split_0
I0403 10:34:49.203936 26896 net.cpp:399] label_data_1_split -> label_data_1_split_1
I0403 10:34:49.203956 26896 net.cpp:399] label_data_1_split -> label_data_1_split_2
I0403 10:34:49.204035 26896 net.cpp:141] Setting up label_data_1_split
I0403 10:34:49.204059 26896 net.cpp:148] Top shape: 24 (24)
I0403 10:34:49.204074 26896 net.cpp:148] Top shape: 24 (24)
I0403 10:34:49.204089 26896 net.cpp:148] Top shape: 24 (24)
I0403 10:34:49.204102 26896 net.cpp:156] Memory required for data: 14451072
I0403 10:34:49.204116 26896 layer_factory.hpp:77] Creating layer conv1/7x7_s2
I0403 10:34:49.204150 26896 net.cpp:91] Creating Layer conv1/7x7_s2
I0403 10:34:49.204167 26896 net.cpp:425] conv1/7x7_s2 <- data
I0403 10:34:49.204186 26896 net.cpp:399] conv1/7x7_s2 -> conv1/7x7_s2
I0403 10:34:49.205076 26896 net.cpp:141] Setting up conv1/7x7_s2
I0403 10:34:49.205104 26896 net.cpp:148] Top shape: 24 64 112 112 (19267584)
I0403 10:34:49.205119 26896 net.cpp:156] Memory required for data: 91521408
I0403 10:34:49.205154 26896 layer_factory.hpp:77] Creating layer conv1/relu_7x7
I0403 10:34:49.205178 26896 net.cpp:91] Creating Layer conv1/relu_7x7
I0403 10:34:49.205195 26896 net.cpp:425] conv1/relu_7x7 <- conv1/7x7_s2
I0403 10:34:49.205212 26896 net.cpp:386] conv1/relu_7x7 -> conv1/7x7_s2 (in-place)
I0403 10:34:49.205232 26896 net.cpp:141] Setting up conv1/relu_7x7
I0403 10:34:49.205250 26896 net.cpp:148] Top shape: 24 64 112 112 (19267584)
I0403 10:34:49.205262 26896 net.cpp:156] Memory required for data: 168591744
I0403 10:34:49.205276 26896 layer_factory.hpp:77] Creating layer pool1/3x3_s2
I0403 10:34:49.205296 26896 net.cpp:91] Creating Layer pool1/3x3_s2
I0403 10:34:49.205312 26896 net.cpp:425] pool1/3x3_s2 <- conv1/7x7_s2
I0403 10:34:49.205327 26896 net.cpp:399] pool1/3x3_s2 -> pool1/3x3_s2
I0403 10:34:49.205389 26896 net.cpp:141] Setting up pool1/3x3_s2
I0403 10:34:49.205412 26896 net.cpp:148] Top shape: 24 64 56 56 (4816896)
I0403 10:34:49.205426 26896 net.cpp:156] Memory required for data: 187859328
I0403 10:34:49.205440 26896 layer_factory.hpp:77] Creating layer pool1/norm1
I0403 10:34:49.205459 26896 net.cpp:91] Creating Layer pool1/norm1
I0403 10:34:49.205473 26896 net.cpp:425] pool1/norm1 <- pool1/3x3_s2
I0403 10:34:49.205490 26896 net.cpp:399] pool1/norm1 -> pool1/norm1
I0403 10:34:49.205540 26896 net.cpp:141] Setting up pool1/norm1
I0403 10:34:49.205562 26896 net.cpp:148] Top shape: 24 64 56 56 (4816896)
I0403 10:34:49.205576 26896 net.cpp:156] Memory required for data: 207126912
I0403 10:34:49.205590 26896 layer_factory.hpp:77] Creating layer conv2/3x3_reduce
I0403 10:34:49.205610 26896 net.cpp:91] Creating Layer conv2/3x3_reduce
I0403 10:34:49.205626 26896 net.cpp:425] conv2/3x3_reduce <- pool1/norm1
I0403 10:34:49.205643 26896 net.cpp:399] conv2/3x3_reduce -> conv2/3x3_reduce
I0403 10:34:49.207851 26896 net.cpp:141] Setting up conv2/3x3_reduce
I0403 10:34:49.207890 26896 net.cpp:148] Top shape: 24 64 56 56 (4816896)
I0403 10:34:49.207906 26896 net.cpp:156] Memory required for data: 226394496
I0403 10:34:49.207926 26896 layer_factory.hpp:77] Creating layer conv2/relu_3x3_reduce
I0403 10:34:49.207944 26896 net.cpp:91] Creating Layer conv2/relu_3x3_reduce
I0403 10:34:49.207960 26896 net.cpp:425] conv2/relu_3x3_reduce <- conv2/3x3_reduce
I0403 10:34:49.207978 26896 net.cpp:386] conv2/relu_3x3_reduce -> conv2/3x3_reduce (in-place)
I0403 10:34:49.208001 26896 net.cpp:141] Setting up conv2/relu_3x3_reduce
I0403 10:34:49.208020 26896 net.cpp:148] Top shape: 24 64 56 56 (4816896)
I0403 10:34:49.208034 26896 net.cpp:156] Memory required for data: 245662080
I0403 10:34:49.208047 26896 layer_factory.hpp:77] Creating layer conv2/3x3
I0403 10:34:49.208070 26896 net.cpp:91] Creating Layer conv2/3x3
I0403 10:34:49.208086 26896 net.cpp:425] conv2/3x3 <- conv2/3x3_reduce
I0403 10:34:49.208122 26896 net.cpp:399] conv2/3x3 -> conv2/3x3
I0403 10:34:49.209275 26902 blocking_queue.cpp:50] Waiting for data
I0403 10:34:49.209416 26896 net.cpp:141] Setting up conv2/3x3
I0403 10:34:49.209444 26896 net.cpp:148] Top shape: 24 192 56 56 (14450688)
I0403 10:34:49.209460 26896 net.cpp:156] Memory required for data: 303464832
I0403 10:34:49.209480 26896 layer_factory.hpp:77] Creating layer conv2/relu_3x3
I0403 10:34:49.209497 26896 net.cpp:91] Creating Layer conv2/relu_3x3
I0403 10:34:49.209513 26896 net.cpp:425] conv2/relu_3x3 <- conv2/3x3
I0403 10:34:49.209530 26896 net.cpp:386] conv2/relu_3x3 -> conv2/3x3 (in-place)
I0403 10:34:49.209548 26896 net.cpp:141] Setting up conv2/relu_3x3
I0403 10:34:49.209564 26896 net.cpp:148] Top shape: 24 192 56 56 (14450688)
I0403 10:34:49.209578 26896 net.cpp:156] Memory required for data: 361267584
I0403 10:34:49.209590 26896 layer_factory.hpp:77] Creating layer conv2/norm2
I0403 10:34:49.209607 26896 net.cpp:91] Creating Layer conv2/norm2
I0403 10:34:49.209621 26896 net.cpp:425] conv2/norm2 <- conv2/3x3
I0403 10:34:49.209638 26896 net.cpp:399] conv2/norm2 -> conv2/norm2
I0403 10:34:49.209682 26896 net.cpp:141] Setting up conv2/norm2
I0403 10:34:49.209703 26896 net.cpp:148] Top shape: 24 192 56 56 (14450688)
I0403 10:34:49.209717 26896 net.cpp:156] Memory required for data: 419070336
I0403 10:34:49.209730 26896 layer_factory.hpp:77] Creating layer pool2/3x3_s2
I0403 10:34:49.209748 26896 net.cpp:91] Creating Layer pool2/3x3_s2
I0403 10:34:49.209764 26896 net.cpp:425] pool2/3x3_s2 <- conv2/norm2
I0403 10:34:49.209779 26896 net.cpp:399] pool2/3x3_s2 -> pool2/3x3_s2
I0403 10:34:49.209823 26896 net.cpp:141] Setting up pool2/3x3_s2
I0403 10:34:49.209846 26896 net.cpp:148] Top shape: 24 192 28 28 (3612672)
I0403 10:34:49.209859 26896 net.cpp:156] Memory required for data: 433521024
I0403 10:34:49.209872 26896 layer_factory.hpp:77] Creating layer pool2/3x3_s2_pool2/3x3_s2_0_split
I0403 10:34:49.209890 26896 net.cpp:91] Creating Layer pool2/3x3_s2_pool2/3x3_s2_0_split
I0403 10:34:49.209904 26896 net.cpp:425] pool2/3x3_s2_pool2/3x3_s2_0_split <- pool2/3x3_s2
I0403 10:34:49.209921 26896 net.cpp:399] pool2/3x3_s2_pool2/3x3_s2_0_split -> pool2/3x3_s2_pool2/3x3_s2_0_split_0
I0403 10:34:49.209940 26896 net.cpp:399] pool2/3x3_s2_pool2/3x3_s2_0_split -> pool2/3x3_s2_pool2/3x3_s2_0_split_1
I0403 10:34:49.209960 26896 net.cpp:399] pool2/3x3_s2_pool2/3x3_s2_0_split -> pool2/3x3_s2_pool2/3x3_s2_0_split_2
I0403 10:34:49.209980 26896 net.cpp:399] pool2/3x3_s2_pool2/3x3_s2_0_split -> pool2/3x3_s2_pool2/3x3_s2_0_split_3
I0403 10:34:49.210038 26896 net.cpp:141] Setting up pool2/3x3_s2_pool2/3x3_s2_0_split
I0403 10:34:49.210060 26896 net.cpp:148] Top shape: 24 192 28 28 (3612672)
I0403 10:34:49.210077 26896 net.cpp:148] Top shape: 24 192 28 28 (3612672)
I0403 10:34:49.210090 26896 net.cpp:148] Top shape: 24 192 28 28 (3612672)
I0403 10:34:49.210105 26896 net.cpp:148] Top shape: 24 192 28 28 (3612672)
I0403 10:34:49.210119 26896 net.cpp:156] Memory required for data: 491323776
I0403 10:34:49.210131 26896 layer_factory.hpp:77] Creating layer inception_3a/1x1
I0403 10:34:49.210152 26896 net.cpp:91] Creating Layer inception_3a/1x1
I0403 10:34:49.210167 26896 net.cpp:425] inception_3a/1x1 <- pool2/3x3_s2_pool2/3x3_s2_0_split_0
I0403 10:34:49.210186 26896 net.cpp:399] inception_3a/1x1 -> inception_3a/1x1
I0403 10:34:49.210929 26896 net.cpp:141] Setting up inception_3a/1x1
I0403 10:34:49.210955 26896 net.cpp:148] Top shape: 24 64 28 28 (1204224)
I0403 10:34:49.210969 26896 net.cpp:156] Memory required for data: 496140672
I0403 10:34:49.210988 26896 layer_factory.hpp:77] Creating layer inception_3a/relu_1x1
I0403 10:34:49.211022 26896 net.cpp:91] Creating Layer inception_3a/relu_1x1
I0403 10:34:49.211038 26896 net.cpp:425] inception_3a/relu_1x1 <- inception_3a/1x1
I0403 10:34:49.211055 26896 net.cpp:386] inception_3a/relu_1x1 -> inception_3a/1x1 (in-place)
I0403 10:34:49.211074 26896 net.cpp:141] Setting up inception_3a/relu_1x1
I0403 10:34:49.211091 26896 net.cpp:148] Top shape: 24 64 28 28 (1204224)
I0403 10:34:49.211119 26896 net.cpp:156] Memory required for data: 500957568
I0403 10:34:49.211134 26896 layer_factory.hpp:77] Creating layer inception_3a/3x3_reduce
I0403 10:34:49.211158 26896 net.cpp:91] Creating Layer inception_3a/3x3_reduce
I0403 10:34:49.211175 26896 net.cpp:425] inception_3a/3x3_reduce <- pool2/3x3_s2_pool2/3x3_s2_0_split_1
I0403 10:34:49.211194 26896 net.cpp:399] inception_3a/3x3_reduce -> inception_3a/3x3_reduce
I0403 10:34:49.211977 26896 net.cpp:141] Setting up inception_3a/3x3_reduce
I0403 10:34:49.212020 26896 net.cpp:148] Top shape: 24 96 28 28 (1806336)
I0403 10:34:49.212036 26896 net.cpp:156] Memory required for data: 508182912
I0403 10:34:49.212056 26896 layer_factory.hpp:77] Creating layer inception_3a/relu_3x3_reduce
I0403 10:34:49.212076 26896 net.cpp:91] Creating Layer inception_3a/relu_3x3_reduce
I0403 10:34:49.212092 26896 net.cpp:425] inception_3a/relu_3x3_reduce <- inception_3a/3x3_reduce
I0403 10:34:49.212111 26896 net.cpp:386] inception_3a/relu_3x3_reduce -> inception_3a/3x3_reduce (in-place)
I0403 10:34:49.212131 26896 net.cpp:141] Setting up inception_3a/relu_3x3_reduce
I0403 10:34:49.212148 26896 net.cpp:148] Top shape: 24 96 28 28 (1806336)
I0403 10:34:49.212162 26896 net.cpp:156] Memory required for data: 515408256
I0403 10:34:49.212175 26896 layer_factory.hpp:77] Creating layer inception_3a/3x3
I0403 10:34:49.212198 26896 net.cpp:91] Creating Layer inception_3a/3x3
I0403 10:34:49.212213 26896 net.cpp:425] inception_3a/3x3 <- inception_3a/3x3_reduce
I0403 10:34:49.212231 26896 net.cpp:399] inception_3a/3x3 -> inception_3a/3x3
I0403 10:34:49.212991 26896 net.cpp:141] Setting up inception_3a/3x3
I0403 10:34:49.213030 26896 net.cpp:148] Top shape: 24 128 28 28 (2408448)
I0403 10:34:49.213044 26896 net.cpp:156] Memory required for data: 525042048
I0403 10:34:49.213062 26896 layer_factory.hpp:77] Creating layer inception_3a/relu_3x3
I0403 10:34:49.213079 26896 net.cpp:91] Creating Layer inception_3a/relu_3x3
I0403 10:34:49.213095 26896 net.cpp:425] inception_3a/relu_3x3 <- inception_3a/3x3
I0403 10:34:49.213114 26896 net.cpp:386] inception_3a/relu_3x3 -> inception_3a/3x3 (in-place)
I0403 10:34:49.213134 26896 net.cpp:141] Setting up inception_3a/relu_3x3
I0403 10:34:49.213150 26896 net.cpp:148] Top shape: 24 128 28 28 (2408448)
I0403 10:34:49.213163 26896 net.cpp:156] Memory required for data: 534675840
I0403 10:34:49.213176 26896 layer_factory.hpp:77] Creating layer inception_3a/5x5_reduce
I0403 10:34:49.213196 26896 net.cpp:91] Creating Layer inception_3a/5x5_reduce
I0403 10:34:49.213212 26896 net.cpp:425] inception_3a/5x5_reduce <- pool2/3x3_s2_pool2/3x3_s2_0_split_2
I0403 10:34:49.213232 26896 net.cpp:399] inception_3a/5x5_reduce -> inception_3a/5x5_reduce
I0403 10:34:49.213452 26896 net.cpp:141] Setting up inception_3a/5x5_reduce
I0403 10:34:49.213475 26896 net.cpp:148] Top shape: 24 16 28 28 (301056)
I0403 10:34:49.213490 26896 net.cpp:156] Memory required for data: 535880064
I0403 10:34:49.213505 26896 layer_factory.hpp:77] Creating layer inception_3a/relu_5x5_reduce
I0403 10:34:49.213522 26896 net.cpp:91] Creating Layer inception_3a/relu_5x5_reduce
I0403 10:34:49.213537 26896 net.cpp:425] inception_3a/relu_5x5_reduce <- inception_3a/5x5_reduce
I0403 10:34:49.213557 26896 net.cpp:386] inception_3a/relu_5x5_reduce -> inception_3a/5x5_reduce (in-place)
I0403 10:34:49.213577 26896 net.cpp:141] Setting up inception_3a/relu_5x5_reduce
I0403 10:34:49.213593 26896 net.cpp:148] Top shape: 24 16 28 28 (301056)
I0403 10:34:49.213606 26896 net.cpp:156] Memory required for data: 537084288
I0403 10:34:49.213619 26896 layer_factory.hpp:77] Creating layer inception_3a/5x5
I0403 10:34:49.213641 26896 net.cpp:91] Creating Layer inception_3a/5x5
I0403 10:34:49.213657 26896 net.cpp:425] inception_3a/5x5 <- inception_3a/5x5_reduce
I0403 10:34:49.213675 26896 net.cpp:399] inception_3a/5x5 -> inception_3a/5x5
I0403 10:34:49.213939 26896 net.cpp:141] Setting up inception_3a/5x5
I0403 10:34:49.213963 26896 net.cpp:148] Top shape: 24 32 28 28 (602112)
I0403 10:34:49.213991 26896 net.cpp:156] Memory required for data: 539492736
I0403 10:34:49.214028 26896 layer_factory.hpp:77] Creating layer inception_3a/relu_5x5
I0403 10:34:49.214047 26896 net.cpp:91] Creating Layer inception_3a/relu_5x5
I0403 10:34:49.214063 26896 net.cpp:425] inception_3a/relu_5x5 <- inception_3a/5x5
I0403 10:34:49.214097 26896 net.cpp:386] inception_3a/relu_5x5 -> inception_3a/5x5 (in-place)
I0403 10:34:49.214115 26896 net.cpp:141] Setting up inception_3a/relu_5x5
I0403 10:34:49.214133 26896 net.cpp:148] Top shape: 24 32 28 28 (602112)
I0403 10:34:49.214146 26896 net.cpp:156] Memory required for data: 541901184
I0403 10:34:49.214159 26896 layer_factory.hpp:77] Creating layer inception_3a/pool
I0403 10:34:49.214176 26896 net.cpp:91] Creating Layer inception_3a/pool
I0403 10:34:49.214191 26896 net.cpp:425] inception_3a/pool <- pool2/3x3_s2_pool2/3x3_s2_0_split_3
I0403 10:34:49.214208 26896 net.cpp:399] inception_3a/pool -> inception_3a/pool
I0403 10:34:49.214256 26896 net.cpp:141] Setting up inception_3a/pool
I0403 10:34:49.214277 26896 net.cpp:148] Top shape: 24 192 28 28 (3612672)
I0403 10:34:49.214304 26896 net.cpp:156] Memory required for data: 556351872
I0403 10:34:49.214318 26896 layer_factory.hpp:77] Creating layer inception_3a/pool_proj
I0403 10:34:49.214339 26896 net.cpp:91] Creating Layer inception_3a/pool_proj
I0403 10:34:49.214356 26896 net.cpp:425] inception_3a/pool_proj <- inception_3a/pool
I0403 10:34:49.214375 26896 net.cpp:399] inception_3a/pool_proj -> inception_3a/pool_proj
I0403 10:34:49.214591 26896 net.cpp:141] Setting up inception_3a/pool_proj
I0403 10:34:49.214613 26896 net.cpp:148] Top shape: 24 32 28 28 (602112)
I0403 10:34:49.214628 26896 net.cpp:156] Memory required for data: 558760320
I0403 10:34:49.214649 26896 layer_factory.hpp:77] Creating layer inception_3a/relu_pool_proj
I0403 10:34:49.214668 26896 net.cpp:91] Creating Layer inception_3a/relu_pool_proj
I0403 10:34:49.214684 26896 net.cpp:425] inception_3a/relu_pool_proj <- inception_3a/pool_proj
I0403 10:34:49.214700 26896 net.cpp:386] inception_3a/relu_pool_proj -> inception_3a/pool_proj (in-place)
I0403 10:34:49.214717 26896 net.cpp:141] Setting up inception_3a/relu_pool_proj
I0403 10:34:49.214732 26896 net.cpp:148] Top shape: 24 32 28 28 (602112)
I0403 10:34:49.214745 26896 net.cpp:156] Memory required for data: 561168768
I0403 10:34:49.214758 26896 layer_factory.hpp:77] Creating layer inception_3a/output
I0403 10:34:49.214776 26896 net.cpp:91] Creating Layer inception_3a/output
I0403 10:34:49.214789 26896 net.cpp:425] inception_3a/output <- inception_3a/1x1
I0403 10:34:49.214804 26896 net.cpp:425] inception_3a/output <- inception_3a/3x3
I0403 10:34:49.214819 26896 net.cpp:425] inception_3a/output <- inception_3a/5x5
I0403 10:34:49.214834 26896 net.cpp:425] inception_3a/output <- inception_3a/pool_proj
I0403 10:34:49.214850 26896 net.cpp:399] inception_3a/output -> inception_3a/output
I0403 10:34:49.214890 26896 net.cpp:141] Setting up inception_3a/output
I0403 10:34:49.214911 26896 net.cpp:148] Top shape: 24 256 28 28 (4816896)
I0403 10:34:49.214926 26896 net.cpp:156] Memory required for data: 580436352
I0403 10:34:49.214939 26896 layer_factory.hpp:77] Creating layer inception_3a/output_inception_3a/output_0_split
I0403 10:34:49.214957 26896 net.cpp:91] Creating Layer inception_3a/output_inception_3a/output_0_split
I0403 10:34:49.214972 26896 net.cpp:425] inception_3a/output_inception_3a/output_0_split <- inception_3a/output
I0403 10:34:49.214988 26896 net.cpp:399] inception_3a/output_inception_3a/output_0_split -> inception_3a/output_inception_3a/output_0_split_0
I0403 10:34:49.215028 26896 net.cpp:399] inception_3a/output_inception_3a/output_0_split -> inception_3a/output_inception_3a/output_0_split_1
I0403 10:34:49.215049 26896 net.cpp:399] inception_3a/output_inception_3a/output_0_split -> inception_3a/output_inception_3a/output_0_split_2
I0403 10:34:49.215067 26896 net.cpp:399] inception_3a/output_inception_3a/output_0_split -> inception_3a/output_inception_3a/output_0_split_3
I0403 10:34:49.215131 26896 net.cpp:141] Setting up inception_3a/output_inception_3a/output_0_split
I0403 10:34:49.215162 26896 net.cpp:148] Top shape: 24 256 28 28 (4816896)
I0403 10:34:49.215178 26896 net.cpp:148] Top shape: 24 256 28 28 (4816896)
I0403 10:34:49.215193 26896 net.cpp:148] Top shape: 24 256 28 28 (4816896)
I0403 10:34:49.215209 26896 net.cpp:148] Top shape: 24 256 28 28 (4816896)
I0403 10:34:49.215221 26896 net.cpp:156] Memory required for data: 657506688
I0403 10:34:49.215235 26896 layer_factory.hpp:77] Creating layer inception_3b/1x1
I0403 10:34:49.215260 26896 net.cpp:91] Creating Layer inception_3b/1x1
I0403 10:34:49.215277 26896 net.cpp:425] inception_3b/1x1 <- inception_3a/output_inception_3a/output_0_split_0
I0403 10:34:49.215298 26896 net.cpp:399] inception_3b/1x1 -> inception_3b/1x1
I0403 10:34:49.215654 26896 net.cpp:141] Setting up inception_3b/1x1
I0403 10:34:49.215678 26896 net.cpp:148] Top shape: 24 128 28 28 (2408448)
I0403 10:34:49.215693 26896 net.cpp:156] Memory required for data: 667140480
I0403 10:34:49.215710 26896 layer_factory.hpp:77] Creating layer inception_3b/relu_1x1
I0403 10:34:49.215728 26896 net.cpp:91] Creating Layer inception_3b/relu_1x1
I0403 10:34:49.215744 26896 net.cpp:425] inception_3b/relu_1x1 <- inception_3b/1x1
I0403 10:34:49.215764 26896 net.cpp:386] inception_3b/relu_1x1 -> inception_3b/1x1 (in-place)
I0403 10:34:49.215783 26896 net.cpp:141] Setting up inception_3b/relu_1x1
I0403 10:34:49.215800 26896 net.cpp:148] Top shape: 24 128 28 28 (2408448)
I0403 10:34:49.215813 26896 net.cpp:156] Memory required for data: 676774272
I0403 10:34:49.215826 26896 layer_factory.hpp:77] Creating layer inception_3b/3x3_reduce
I0403 10:34:49.215847 26896 net.cpp:91] Creating Layer inception_3b/3x3_reduce
I0403 10:34:49.215864 26896 net.cpp:425] inception_3b/3x3_reduce <- inception_3a/output_inception_3a/output_0_split_1
I0403 10:34:49.215883 26896 net.cpp:399] inception_3b/3x3_reduce -> inception_3b/3x3_reduce
I0403 10:34:49.216250 26896 net.cpp:141] Setting up inception_3b/3x3_reduce
I0403 10:34:49.216274 26896 net.cpp:148] Top shape: 24 128 28 28 (2408448)
I0403 10:34:49.216289 26896 net.cpp:156] Memory required for data: 686408064
I0403 10:34:49.216306 26896 layer_factory.hpp:77] Creating layer inception_3b/relu_3x3_reduce
I0403 10:34:49.216323 26896 net.cpp:91] Creating Layer inception_3b/relu_3x3_reduce
I0403 10:34:49.216339 26896 net.cpp:425] inception_3b/relu_3x3_reduce <- inception_3b/3x3_reduce
I0403 10:34:49.216358 26896 net.cpp:386] inception_3b/relu_3x3_reduce -> inception_3b/3x3_reduce (in-place)
I0403 10:34:49.216378 26896 net.cpp:141] Setting up inception_3b/relu_3x3_reduce
I0403 10:34:49.216394 26896 net.cpp:148] Top shape: 24 128 28 28 (2408448)
I0403 10:34:49.216408 26896 net.cpp:156] Memory required for data: 696041856
I0403 10:34:49.216421 26896 layer_factory.hpp:77] Creating layer inception_3b/3x3
I0403 10:34:49.216446 26896 net.cpp:91] Creating Layer inception_3b/3x3
I0403 10:34:49.216464 26896 net.cpp:425] inception_3b/3x3 <- inception_3b/3x3_reduce
I0403 10:34:49.216482 26896 net.cpp:399] inception_3b/3x3 -> inception_3b/3x3
I0403 10:34:49.218341 26896 net.cpp:141] Setting up inception_3b/3x3
I0403 10:34:49.218369 26896 net.cpp:148] Top shape: 24 192 28 28 (3612672)
I0403 10:34:49.218384 26896 net.cpp:156] Memory required for data: 710492544
I0403 10:34:49.218400 26896 layer_factory.hpp:77] Creating layer inception_3b/relu_3x3
I0403 10:34:49.218418 26896 net.cpp:91] Creating Layer inception_3b/relu_3x3
I0403 10:34:49.218438 26896 net.cpp:425] inception_3b/relu_3x3 <- inception_3b/3x3
I0403 10:34:49.218456 26896 net.cpp:386] inception_3b/relu_3x3 -> inception_3b/3x3 (in-place)
I0403 10:34:49.218473 26896 net.cpp:141] Setting up inception_3b/relu_3x3
I0403 10:34:49.218490 26896 net.cpp:148] Top shape: 24 192 28 28 (3612672)
I0403 10:34:49.218503 26896 net.cpp:156] Memory required for data: 724943232
I0403 10:34:49.218518 26896 layer_factory.hpp:77] Creating layer inception_3b/5x5_reduce
I0403 10:34:49.218541 26896 net.cpp:91] Creating Layer inception_3b/5x5_reduce
I0403 10:34:49.218571 26896 net.cpp:425] inception_3b/5x5_reduce <- inception_3a/output_inception_3a/output_0_split_2
I0403 10:34:49.218591 26896 net.cpp:399] inception_3b/5x5_reduce -> inception_3b/5x5_reduce
I0403 10:34:49.218832 26896 net.cpp:141] Setting up inception_3b/5x5_reduce
I0403 10:34:49.218855 26896 net.cpp:148] Top shape: 24 32 28 28 (602112)
I0403 10:34:49.218869 26896 net.cpp:156] Memory required for data: 727351680
I0403 10:34:49.218888 26896 layer_factory.hpp:77] Creating layer inception_3b/relu_5x5_reduce
I0403 10:34:49.218904 26896 net.cpp:91] Creating Layer inception_3b/relu_5x5_reduce
I0403 10:34:49.218919 26896 net.cpp:425] inception_3b/relu_5x5_reduce <- inception_3b/5x5_reduce
I0403 10:34:49.218938 26896 net.cpp:386] inception_3b/relu_5x5_reduce -> inception_3b/5x5_reduce (in-place)
I0403 10:34:49.218957 26896 net.cpp:141] Setting up inception_3b/relu_5x5_reduce
I0403 10:34:49.218974 26896 net.cpp:148] Top shape: 24 32 28 28 (602112)
I0403 10:34:49.218987 26896 net.cpp:156] Memory required for data: 729760128
I0403 10:34:49.219012 26896 layer_factory.hpp:77] Creating layer inception_3b/5x5
I0403 10:34:49.219038 26896 net.cpp:91] Creating Layer inception_3b/5x5
I0403 10:34:49.219055 26896 net.cpp:425] inception_3b/5x5 <- inception_3b/5x5_reduce
I0403 10:34:49.219074 26896 net.cpp:399] inception_3b/5x5 -> inception_3b/5x5
I0403 10:34:49.220185 26896 net.cpp:141] Setting up inception_3b/5x5
I0403 10:34:49.220212 26896 net.cpp:148] Top shape: 24 96 28 28 (1806336)
I0403 10:34:49.220227 26896 net.cpp:156] Memory required for data: 736985472
I0403 10:34:49.220244 26896 layer_factory.hpp:77] Creating layer inception_3b/relu_5x5
I0403 10:34:49.220264 26896 net.cpp:91] Creating Layer inception_3b/relu_5x5
I0403 10:34:49.220281 26896 net.cpp:425] inception_3b/relu_5x5 <- inception_3b/5x5
I0403 10:34:49.220299 26896 net.cpp:386] inception_3b/relu_5x5 -> inception_3b/5x5 (in-place)
I0403 10:34:49.220317 26896 net.cpp:141] Setting up inception_3b/relu_5x5
I0403 10:34:49.220335 26896 net.cpp:148] Top shape: 24 96 28 28 (1806336)
I0403 10:34:49.220347 26896 net.cpp:156] Memory required for data: 744210816
I0403 10:34:49.220376 26896 layer_factory.hpp:77] Creating layer inception_3b/pool
I0403 10:34:49.220394 26896 net.cpp:91] Creating Layer inception_3b/pool
I0403 10:34:49.220412 26896 net.cpp:425] inception_3b/pool <- inception_3a/output_inception_3a/output_0_split_3
I0403 10:34:49.220430 26896 net.cpp:399] inception_3b/pool -> inception_3b/pool
I0403 10:34:49.220479 26896 net.cpp:141] Setting up inception_3b/pool
I0403 10:34:49.220500 26896 net.cpp:148] Top shape: 24 256 28 28 (4816896)
I0403 10:34:49.220515 26896 net.cpp:156] Memory required for data: 763478400
I0403 10:34:49.220528 26896 layer_factory.hpp:77] Creating layer inception_3b/pool_proj
I0403 10:34:49.220551 26896 net.cpp:91] Creating Layer inception_3b/pool_proj
I0403 10:34:49.220566 26896 net.cpp:425] inception_3b/pool_proj <- inception_3b/pool
I0403 10:34:49.220585 26896 net.cpp:399] inception_3b/pool_proj -> inception_3b/pool_proj
I0403 10:34:49.220881 26896 net.cpp:141] Setting up inception_3b/pool_proj
I0403 10:34:49.220906 26896 net.cpp:148] Top shape: 24 64 28 28 (1204224)
I0403 10:34:49.220921 26896 net.cpp:156] Memory required for data: 768295296
I0403 10:34:49.220937 26896 layer_factory.hpp:77] Creating layer inception_3b/relu_pool_proj
I0403 10:34:49.220955 26896 net.cpp:91] Creating Layer inception_3b/relu_pool_proj
I0403 10:34:49.220971 26896 net.cpp:425] inception_3b/relu_pool_proj <- inception_3b/pool_proj
I0403 10:34:49.220993 26896 net.cpp:386] inception_3b/relu_pool_proj -> inception_3b/pool_proj (in-place)
I0403 10:34:49.221017 26896 net.cpp:141] Setting up inception_3b/relu_pool_proj
I0403 10:34:49.221035 26896 net.cpp:148] Top shape: 24 64 28 28 (1204224)
I0403 10:34:49.221047 26896 net.cpp:156] Memory required for data: 773112192
I0403 10:34:49.221061 26896 layer_factory.hpp:77] Creating layer inception_3b/output
I0403 10:34:49.221078 26896 net.cpp:91] Creating Layer inception_3b/output
I0403 10:34:49.221092 26896 net.cpp:425] inception_3b/output <- inception_3b/1x1
I0403 10:34:49.221122 26896 net.cpp:425] inception_3b/output <- inception_3b/3x3
I0403 10:34:49.221140 26896 net.cpp:425] inception_3b/output <- inception_3b/5x5
I0403 10:34:49.221155 26896 net.cpp:425] inception_3b/output <- inception_3b/pool_proj
I0403 10:34:49.221175 26896 net.cpp:399] inception_3b/output -> inception_3b/output
I0403 10:34:49.221212 26896 net.cpp:141] Setting up inception_3b/output
I0403 10:34:49.221235 26896 net.cpp:148] Top shape: 24 480 28 28 (9031680)
I0403 10:34:49.221257 26896 net.cpp:156] Memory required for data: 809238912
I0403 10:34:49.221271 26896 layer_factory.hpp:77] Creating layer pool3/3x3_s2
I0403 10:34:49.221292 26896 net.cpp:91] Creating Layer pool3/3x3_s2
I0403 10:34:49.221309 26896 net.cpp:425] pool3/3x3_s2 <- inception_3b/output
I0403 10:34:49.221326 26896 net.cpp:399] pool3/3x3_s2 -> pool3/3x3_s2
I0403 10:34:49.221374 26896 net.cpp:141] Setting up pool3/3x3_s2
I0403 10:34:49.221397 26896 net.cpp:148] Top shape: 24 480 14 14 (2257920)
I0403 10:34:49.221411 26896 net.cpp:156] Memory required for data: 818270592
I0403 10:34:49.221426 26896 layer_factory.hpp:77] Creating layer pool3/3x3_s2_pool3/3x3_s2_0_split
I0403 10:34:49.221446 26896 net.cpp:91] Creating Layer pool3/3x3_s2_pool3/3x3_s2_0_split
I0403 10:34:49.221460 26896 net.cpp:425] pool3/3x3_s2_pool3/3x3_s2_0_split <- pool3/3x3_s2
I0403 10:34:49.221479 26896 net.cpp:399] pool3/3x3_s2_pool3/3x3_s2_0_split -> pool3/3x3_s2_pool3/3x3_s2_0_split_0
I0403 10:34:49.221500 26896 net.cpp:399] pool3/3x3_s2_pool3/3x3_s2_0_split -> pool3/3x3_s2_pool3/3x3_s2_0_split_1
I0403 10:34:49.221520 26896 net.cpp:399] pool3/3x3_s2_pool3/3x3_s2_0_split -> pool3/3x3_s2_pool3/3x3_s2_0_split_2
I0403 10:34:49.221539 26896 net.cpp:399] pool3/3x3_s2_pool3/3x3_s2_0_split -> pool3/3x3_s2_pool3/3x3_s2_0_split_3
I0403 10:34:49.221599 26896 net.cpp:141] Setting up pool3/3x3_s2_pool3/3x3_s2_0_split
I0403 10:34:49.221623 26896 net.cpp:148] Top shape: 24 480 14 14 (2257920)
I0403 10:34:49.221642 26896 net.cpp:148] Top shape: 24 480 14 14 (2257920)
I0403 10:34:49.221657 26896 net.cpp:148] Top shape: 24 480 14 14 (2257920)
I0403 10:34:49.221673 26896 net.cpp:148] Top shape: 24 480 14 14 (2257920)
I0403 10:34:49.221686 26896 net.cpp:156] Memory required for data: 854397312
I0403 10:34:49.221700 26896 layer_factory.hpp:77] Creating layer inception_4a/1x1
I0403 10:34:49.221722 26896 net.cpp:91] Creating Layer inception_4a/1x1
I0403 10:34:49.221740 26896 net.cpp:425] inception_4a/1x1 <- pool3/3x3_s2_pool3/3x3_s2_0_split_0
I0403 10:34:49.221767 26896 net.cpp:399] inception_4a/1x1 -> inception_4a/1x1
I0403 10:34:49.222447 26896 net.cpp:141] Setting up inception_4a/1x1
I0403 10:34:49.222471 26896 net.cpp:148] Top shape: 24 192 14 14 (903168)
I0403 10:34:49.222486 26896 net.cpp:156] Memory required for data: 858009984
I0403 10:34:49.222506 26896 layer_factory.hpp:77] Creating layer inception_4a/relu_1x1
I0403 10:34:49.222524 26896 net.cpp:91] Creating Layer inception_4a/relu_1x1
I0403 10:34:49.222539 26896 net.cpp:425] inception_4a/relu_1x1 <- inception_4a/1x1
I0403 10:34:49.222559 26896 net.cpp:386] inception_4a/relu_1x1 -> inception_4a/1x1 (in-place)
I0403 10:34:49.222579 26896 net.cpp:141] Setting up inception_4a/relu_1x1
I0403 10:34:49.222595 26896 net.cpp:148] Top shape: 24 192 14 14 (903168)
I0403 10:34:49.222612 26896 net.cpp:156] Memory required for data: 861622656
I0403 10:34:49.222626 26896 layer_factory.hpp:77] Creating layer inception_4a/3x3_reduce
I0403 10:34:49.222648 26896 net.cpp:91] Creating Layer inception_4a/3x3_reduce
I0403 10:34:49.222666 26896 net.cpp:425] inception_4a/3x3_reduce <- pool3/3x3_s2_pool3/3x3_s2_0_split_1
I0403 10:34:49.222686 26896 net.cpp:399] inception_4a/3x3_reduce -> inception_4a/3x3_reduce
I0403 10:34:49.223134 26896 net.cpp:141] Setting up inception_4a/3x3_reduce
I0403 10:34:49.223157 26896 net.cpp:148] Top shape: 24 96 14 14 (451584)
I0403 10:34:49.223171 26896 net.cpp:156] Memory required for data: 863428992
I0403 10:34:49.223193 26896 layer_factory.hpp:77] Creating layer inception_4a/relu_3x3_reduce
I0403 10:34:49.223225 26896 net.cpp:91] Creating Layer inception_4a/relu_3x3_reduce
I0403 10:34:49.223242 26896 net.cpp:425] inception_4a/relu_3x3_reduce <- inception_4a/3x3_reduce
I0403 10:34:49.223261 26896 net.cpp:386] inception_4a/relu_3x3_reduce -> inception_4a/3x3_reduce (in-place)
I0403 10:34:49.223281 26896 net.cpp:141] Setting up inception_4a/relu_3x3_reduce
I0403 10:34:49.223297 26896 net.cpp:148] Top shape: 24 96 14 14 (451584)
I0403 10:34:49.223310 26896 net.cpp:156] Memory required for data: 865235328
I0403 10:34:49.223325 26896 layer_factory.hpp:77] Creating layer inception_4a/3x3
I0403 10:34:49.223346 26896 net.cpp:91] Creating Layer inception_4a/3x3
I0403 10:34:49.223363 26896 net.cpp:425] inception_4a/3x3 <- inception_4a/3x3_reduce
I0403 10:34:49.223381 26896 net.cpp:399] inception_4a/3x3 -> inception_4a/3x3
I0403 10:34:49.225971 26896 net.cpp:141] Setting up inception_4a/3x3
I0403 10:34:49.226001 26896 net.cpp:148] Top shape: 24 208 14 14 (978432)
I0403 10:34:49.226018 26896 net.cpp:156] Memory required for data: 869149056
I0403 10:34:49.226035 26896 layer_factory.hpp:77] Creating layer inception_4a/relu_3x3
I0403 10:34:49.226053 26896 net.cpp:91] Creating Layer inception_4a/relu_3x3
I0403 10:34:49.226068 26896 net.cpp:425] inception_4a/relu_3x3 <- inception_4a/3x3
I0403 10:34:49.226085 26896 net.cpp:386] inception_4a/relu_3x3 -> inception_4a/3x3 (in-place)
I0403 10:34:49.226104 26896 net.cpp:141] Setting up inception_4a/relu_3x3
I0403 10:34:49.226119 26896 net.cpp:148] Top shape: 24 208 14 14 (978432)
I0403 10:34:49.226133 26896 net.cpp:156] Memory required for data: 873062784
I0403 10:34:49.226148 26896 layer_factory.hpp:77] Creating layer inception_4a/5x5_reduce
I0403 10:34:49.226171 26896 net.cpp:91] Creating Layer inception_4a/5x5_reduce
I0403 10:34:49.226187 26896 net.cpp:425] inception_4a/5x5_reduce <- pool3/3x3_s2_pool3/3x3_s2_0_split_2
I0403 10:34:49.226208 26896 net.cpp:399] inception_4a/5x5_reduce -> inception_4a/5x5_reduce
I0403 10:34:49.226449 26896 net.cpp:141] Setting up inception_4a/5x5_reduce
I0403 10:34:49.226474 26896 net.cpp:148] Top shape: 24 16 14 14 (75264)
I0403 10:34:49.226488 26896 net.cpp:156] Memory required for data: 873363840
I0403 10:34:49.226505 26896 layer_factory.hpp:77] Creating layer inception_4a/relu_5x5_reduce
I0403 10:34:49.226523 26896 net.cpp:91] Creating Layer inception_4a/relu_5x5_reduce
I0403 10:34:49.226538 26896 net.cpp:425] inception_4a/relu_5x5_reduce <- inception_4a/5x5_reduce
I0403 10:34:49.226555 26896 net.cpp:386] inception_4a/relu_5x5_reduce -> inception_4a/5x5_reduce (in-place)
I0403 10:34:49.226577 26896 net.cpp:141] Setting up inception_4a/relu_5x5_reduce
I0403 10:34:49.226594 26896 net.cpp:148] Top shape: 24 16 14 14 (75264)
I0403 10:34:49.226608 26896 net.cpp:156] Memory required for data: 873664896
I0403 10:34:49.226622 26896 layer_factory.hpp:77] Creating layer inception_4a/5x5
I0403 10:34:49.226642 26896 net.cpp:91] Creating Layer inception_4a/5x5
I0403 10:34:49.226658 26896 net.cpp:425] inception_4a/5x5 <- inception_4a/5x5_reduce
I0403 10:34:49.226680 26896 net.cpp:399] inception_4a/5x5 -> inception_4a/5x5
I0403 10:34:49.226982 26896 net.cpp:141] Setting up inception_4a/5x5
I0403 10:34:49.227012 26896 net.cpp:148] Top shape: 24 48 14 14 (225792)
I0403 10:34:49.227027 26896 net.cpp:156] Memory required for data: 874568064
I0403 10:34:49.227046 26896 layer_factory.hpp:77] Creating layer inception_4a/relu_5x5
I0403 10:34:49.227062 26896 net.cpp:91] Creating Layer inception_4a/relu_5x5
I0403 10:34:49.227077 26896 net.cpp:425] inception_4a/relu_5x5 <- inception_4a/5x5
I0403 10:34:49.227094 26896 net.cpp:386] inception_4a/relu_5x5 -> inception_4a/5x5 (in-place)
I0403 10:34:49.227113 26896 net.cpp:141] Setting up inception_4a/relu_5x5
I0403 10:34:49.227129 26896 net.cpp:148] Top shape: 24 48 14 14 (225792)
I0403 10:34:49.227144 26896 net.cpp:156] Memory required for data: 875471232
I0403 10:34:49.227157 26896 layer_factory.hpp:77] Creating layer inception_4a/pool
I0403 10:34:49.227177 26896 net.cpp:91] Creating Layer inception_4a/pool
I0403 10:34:49.227193 26896 net.cpp:425] inception_4a/pool <- pool3/3x3_s2_pool3/3x3_s2_0_split_3
I0403 10:34:49.227226 26896 net.cpp:399] inception_4a/pool -> inception_4a/pool
I0403 10:34:49.227277 26896 net.cpp:141] Setting up inception_4a/pool
I0403 10:34:49.227300 26896 net.cpp:148] Top shape: 24 480 14 14 (2257920)
I0403 10:34:49.227314 26896 net.cpp:156] Memory required for data: 884502912
I0403 10:34:49.227329 26896 layer_factory.hpp:77] Creating layer inception_4a/pool_proj
I0403 10:34:49.227351 26896 net.cpp:91] Creating Layer inception_4a/pool_proj
I0403 10:34:49.227368 26896 net.cpp:425] inception_4a/pool_proj <- inception_4a/pool
I0403 10:34:49.227390 26896 net.cpp:399] inception_4a/pool_proj -> inception_4a/pool_proj
I0403 10:34:49.227744 26896 net.cpp:141] Setting up inception_4a/pool_proj
I0403 10:34:49.227768 26896 net.cpp:148] Top shape: 24 64 14 14 (301056)
I0403 10:34:49.227783 26896 net.cpp:156] Memory required for data: 885707136
I0403 10:34:49.227800 26896 layer_factory.hpp:77] Creating layer inception_4a/relu_pool_proj
I0403 10:34:49.227818 26896 net.cpp:91] Creating Layer inception_4a/relu_pool_proj
I0403 10:34:49.227833 26896 net.cpp:425] inception_4a/relu_pool_proj <- inception_4a/pool_proj
I0403 10:34:49.227850 26896 net.cpp:386] inception_4a/relu_pool_proj -> inception_4a/pool_proj (in-place)
I0403 10:34:49.227869 26896 net.cpp:141] Setting up inception_4a/relu_pool_proj
I0403 10:34:49.227886 26896 net.cpp:148] Top shape: 24 64 14 14 (301056)
I0403 10:34:49.227900 26896 net.cpp:156] Memory required for data: 886911360
I0403 10:34:49.227913 26896 layer_factory.hpp:77] Creating layer inception_4a/output
I0403 10:34:49.227929 26896 net.cpp:91] Creating Layer inception_4a/output
I0403 10:34:49.227946 26896 net.cpp:425] inception_4a/output <- inception_4a/1x1
I0403 10:34:49.227960 26896 net.cpp:425] inception_4a/output <- inception_4a/3x3
I0403 10:34:49.227977 26896 net.cpp:425] inception_4a/output <- inception_4a/5x5
I0403 10:34:49.227993 26896 net.cpp:425] inception_4a/output <- inception_4a/pool_proj
I0403 10:34:49.228018 26896 net.cpp:399] inception_4a/output -> inception_4a/output
I0403 10:34:49.228055 26896 net.cpp:141] Setting up inception_4a/output
I0403 10:34:49.228080 26896 net.cpp:148] Top shape: 24 512 14 14 (2408448)
I0403 10:34:49.228096 26896 net.cpp:156] Memory required for data: 896545152
I0403 10:34:49.228111 26896 layer_factory.hpp:77] Creating layer inception_4a/output_inception_4a/output_0_split
I0403 10:34:49.228127 26896 net.cpp:91] Creating Layer inception_4a/output_inception_4a/output_0_split
I0403 10:34:49.228142 26896 net.cpp:425] inception_4a/output_inception_4a/output_0_split <- inception_4a/output
I0403 10:34:49.228159 26896 net.cpp:399] inception_4a/output_inception_4a/output_0_split -> inception_4a/output_inception_4a/output_0_split_0
I0403 10:34:49.228180 26896 net.cpp:399] inception_4a/output_inception_4a/output_0_split -> inception_4a/output_inception_4a/output_0_split_1
I0403 10:34:49.228204 26896 net.cpp:399] inception_4a/output_inception_4a/output_0_split -> inception_4a/output_inception_4a/output_0_split_2
I0403 10:34:49.228224 26896 net.cpp:399] inception_4a/output_inception_4a/output_0_split -> inception_4a/output_inception_4a/output_0_split_3
I0403 10:34:49.228242 26896 net.cpp:399] inception_4a/output_inception_4a/output_0_split -> inception_4a/output_inception_4a/output_0_split_4
I0403 10:34:49.228313 26896 net.cpp:141] Setting up inception_4a/output_inception_4a/output_0_split
I0403 10:34:49.228335 26896 net.cpp:148] Top shape: 24 512 14 14 (2408448)
I0403 10:34:49.228351 26896 net.cpp:148] Top shape: 24 512 14 14 (2408448)
I0403 10:34:49.228366 26896 net.cpp:148] Top shape: 24 512 14 14 (2408448)
I0403 10:34:49.228381 26896 net.cpp:148] Top shape: 24 512 14 14 (2408448)
I0403 10:34:49.228396 26896 net.cpp:148] Top shape: 24 512 14 14 (2408448)
I0403 10:34:49.228410 26896 net.cpp:156] Memory required for data: 944714112
I0403 10:34:49.228423 26896 layer_factory.hpp:77] Creating layer loss1/ave_pool
I0403 10:34:49.228443 26896 net.cpp:91] Creating Layer loss1/ave_pool
I0403 10:34:49.228471 26896 net.cpp:425] loss1/ave_pool <- inception_4a/output_inception_4a/output_0_split_0
I0403 10:34:49.228492 26896 net.cpp:399] loss1/ave_pool -> loss1/ave_pool
I0403 10:34:49.228528 26896 net.cpp:141] Setting up loss1/ave_pool
I0403 10:34:49.228550 26896 net.cpp:148] Top shape: 24 512 4 4 (196608)
I0403 10:34:49.228564 26896 net.cpp:156] Memory required for data: 945500544
I0403 10:34:49.228579 26896 layer_factory.hpp:77] Creating layer loss1/conv
I0403 10:34:49.228600 26896 net.cpp:91] Creating Layer loss1/conv
I0403 10:34:49.228617 26896 net.cpp:425] loss1/conv <- loss1/ave_pool
I0403 10:34:49.228637 26896 net.cpp:399] loss1/conv -> loss1/conv
I0403 10:34:49.229190 26896 net.cpp:141] Setting up loss1/conv
I0403 10:34:49.229215 26896 net.cpp:148] Top shape: 24 128 4 4 (49152)
I0403 10:34:49.229229 26896 net.cpp:156] Memory required for data: 945697152
I0403 10:34:49.229248 26896 layer_factory.hpp:77] Creating layer loss1/relu_conv
I0403 10:34:49.229264 26896 net.cpp:91] Creating Layer loss1/relu_conv
I0403 10:34:49.229279 26896 net.cpp:425] loss1/relu_conv <- loss1/conv
I0403 10:34:49.229296 26896 net.cpp:386] loss1/relu_conv -> loss1/conv (in-place)
I0403 10:34:49.229315 26896 net.cpp:141] Setting up loss1/relu_conv
I0403 10:34:49.229332 26896 net.cpp:148] Top shape: 24 128 4 4 (49152)
I0403 10:34:49.229346 26896 net.cpp:156] Memory required for data: 945893760
I0403 10:34:49.229359 26896 layer_factory.hpp:77] Creating layer loss1/fc
I0403 10:34:49.229382 26896 net.cpp:91] Creating Layer loss1/fc
I0403 10:34:49.229398 26896 net.cpp:425] loss1/fc <- loss1/conv
I0403 10:34:49.229419 26896 net.cpp:399] loss1/fc -> loss1/fc
I0403 10:34:49.244807 26896 net.cpp:141] Setting up loss1/fc
I0403 10:34:49.244851 26896 net.cpp:148] Top shape: 24 1024 (24576)
I0403 10:34:49.244868 26896 net.cpp:156] Memory required for data: 945992064
I0403 10:34:49.244886 26896 layer_factory.hpp:77] Creating layer loss1/relu_fc
I0403 10:34:49.244906 26896 net.cpp:91] Creating Layer loss1/relu_fc
I0403 10:34:49.244923 26896 net.cpp:425] loss1/relu_fc <- loss1/fc
I0403 10:34:49.244941 26896 net.cpp:386] loss1/relu_fc -> loss1/fc (in-place)
I0403 10:34:49.244961 26896 net.cpp:141] Setting up loss1/relu_fc
I0403 10:34:49.244976 26896 net.cpp:148] Top shape: 24 1024 (24576)
I0403 10:34:49.244990 26896 net.cpp:156] Memory required for data: 946090368
I0403 10:34:49.245023 26896 layer_factory.hpp:77] Creating layer loss1/drop_fc
I0403 10:34:49.245054 26896 net.cpp:91] Creating Layer loss1/drop_fc
I0403 10:34:49.245072 26896 net.cpp:425] loss1/drop_fc <- loss1/fc
I0403 10:34:49.245090 26896 net.cpp:386] loss1/drop_fc -> loss1/fc (in-place)
I0403 10:34:49.245133 26896 net.cpp:141] Setting up loss1/drop_fc
I0403 10:34:49.245154 26896 net.cpp:148] Top shape: 24 1024 (24576)
I0403 10:34:49.245168 26896 net.cpp:156] Memory required for data: 946188672
I0403 10:34:49.245182 26896 layer_factory.hpp:77] Creating layer loss1/classifier_plantvillage
I0403 10:34:49.245203 26896 net.cpp:91] Creating Layer loss1/classifier_plantvillage
I0403 10:34:49.245221 26896 net.cpp:425] loss1/classifier_plantvillage <- loss1/fc
I0403 10:34:49.245239 26896 net.cpp:399] loss1/classifier_plantvillage -> loss1/classifier_plantvillage
I0403 10:34:49.246057 26896 net.cpp:141] Setting up loss1/classifier_plantvillage
I0403 10:34:49.246083 26896 net.cpp:148] Top shape: 24 38 (912)
I0403 10:34:49.246098 26896 net.cpp:156] Memory required for data: 946192320
I0403 10:34:49.246115 26896 layer_factory.hpp:77] Creating layer inception_4b/1x1
I0403 10:34:49.246140 26896 net.cpp:91] Creating Layer inception_4b/1x1
I0403 10:34:49.246156 26896 net.cpp:425] inception_4b/1x1 <- inception_4a/output_inception_4a/output_0_split_1
I0403 10:34:49.246176 26896 net.cpp:399] inception_4b/1x1 -> inception_4b/1x1
I0403 10:34:49.246809 26896 net.cpp:141] Setting up inception_4b/1x1
I0403 10:34:49.246832 26896 net.cpp:148] Top shape: 24 160 14 14 (752640)
I0403 10:34:49.246846 26896 net.cpp:156] Memory required for data: 949202880
I0403 10:34:49.246862 26896 layer_factory.hpp:77] Creating layer inception_4b/relu_1x1
I0403 10:34:49.246897 26896 net.cpp:91] Creating Layer inception_4b/relu_1x1
I0403 10:34:49.246914 26896 net.cpp:425] inception_4b/relu_1x1 <- inception_4b/1x1
I0403 10:34:49.246933 26896 net.cpp:386] inception_4b/relu_1x1 -> inception_4b/1x1 (in-place)
I0403 10:34:49.246954 26896 net.cpp:141] Setting up inception_4b/relu_1x1
I0403 10:34:49.246970 26896 net.cpp:148] Top shape: 24 160 14 14 (752640)
I0403 10:34:49.246984 26896 net.cpp:156] Memory required for data: 952213440
I0403 10:34:49.247004 26896 layer_factory.hpp:77] Creating layer inception_4b/3x3_reduce
I0403 10:34:49.247027 26896 net.cpp:91] Creating Layer inception_4b/3x3_reduce
I0403 10:34:49.247045 26896 net.cpp:425] inception_4b/3x3_reduce <- inception_4a/output_inception_4a/output_0_split_2
I0403 10:34:49.247062 26896 net.cpp:399] inception_4b/3x3_reduce -> inception_4b/3x3_reduce
I0403 10:34:49.247565 26896 net.cpp:141] Setting up inception_4b/3x3_reduce
I0403 10:34:49.247588 26896 net.cpp:148] Top shape: 24 112 14 14 (526848)
I0403 10:34:49.247602 26896 net.cpp:156] Memory required for data: 954320832
I0403 10:34:49.247620 26896 layer_factory.hpp:77] Creating layer inception_4b/relu_3x3_reduce
I0403 10:34:49.247637 26896 net.cpp:91] Creating Layer inception_4b/relu_3x3_reduce
I0403 10:34:49.247658 26896 net.cpp:425] inception_4b/relu_3x3_reduce <- inception_4b/3x3_reduce
I0403 10:34:49.247676 26896 net.cpp:386] inception_4b/relu_3x3_reduce -> inception_4b/3x3_reduce (in-place)
I0403 10:34:49.247694 26896 net.cpp:141] Setting up inception_4b/relu_3x3_reduce
I0403 10:34:49.247711 26896 net.cpp:148] Top shape: 24 112 14 14 (526848)
I0403 10:34:49.247725 26896 net.cpp:156] Memory required for data: 956428224
I0403 10:34:49.247738 26896 layer_factory.hpp:77] Creating layer inception_4b/3x3
I0403 10:34:49.247761 26896 net.cpp:91] Creating Layer inception_4b/3x3
I0403 10:34:49.247777 26896 net.cpp:425] inception_4b/3x3 <- inception_4b/3x3_reduce
I0403 10:34:49.247795 26896 net.cpp:399] inception_4b/3x3 -> inception_4b/3x3
I0403 10:34:49.249703 26896 net.cpp:141] Setting up inception_4b/3x3
I0403 10:34:49.249730 26896 net.cpp:148] Top shape: 24 224 14 14 (1053696)
I0403 10:34:49.249745 26896 net.cpp:156] Memory required for data: 960643008
I0403 10:34:49.249763 26896 layer_factory.hpp:77] Creating layer inception_4b/relu_3x3
I0403 10:34:49.249780 26896 net.cpp:91] Creating Layer inception_4b/relu_3x3
I0403 10:34:49.249795 26896 net.cpp:425] inception_4b/relu_3x3 <- inception_4b/3x3
I0403 10:34:49.249815 26896 net.cpp:386] inception_4b/relu_3x3 -> inception_4b/3x3 (in-place)
I0403 10:34:49.249835 26896 net.cpp:141] Setting up inception_4b/relu_3x3
I0403 10:34:49.249851 26896 net.cpp:148] Top shape: 24 224 14 14 (1053696)
I0403 10:34:49.249866 26896 net.cpp:156] Memory required for data: 964857792
I0403 10:34:49.249879 26896 layer_factory.hpp:77] Creating layer inception_4b/5x5_reduce
I0403 10:34:49.249902 26896 net.cpp:91] Creating Layer inception_4b/5x5_reduce
I0403 10:34:49.249918 26896 net.cpp:425] inception_4b/5x5_reduce <- inception_4a/output_inception_4a/output_0_split_3
I0403 10:34:49.249936 26896 net.cpp:399] inception_4b/5x5_reduce -> inception_4b/5x5_reduce
I0403 10:34:49.250214 26896 net.cpp:141] Setting up inception_4b/5x5_reduce
I0403 10:34:49.250238 26896 net.cpp:148] Top shape: 24 24 14 14 (112896)
I0403 10:34:49.250253 26896 net.cpp:156] Memory required for data: 965309376
I0403 10:34:49.250270 26896 layer_factory.hpp:77] Creating layer inception_4b/relu_5x5_reduce
I0403 10:34:49.250288 26896 net.cpp:91] Creating Layer inception_4b/relu_5x5_reduce
I0403 10:34:49.250303 26896 net.cpp:425] inception_4b/relu_5x5_reduce <- inception_4b/5x5_reduce
I0403 10:34:49.250321 26896 net.cpp:386] inception_4b/relu_5x5_reduce -> inception_4b/5x5_reduce (in-place)
I0403 10:34:49.250341 26896 net.cpp:141] Setting up inception_4b/relu_5x5_reduce
I0403 10:34:49.250358 26896 net.cpp:148] Top shape: 24 24 14 14 (112896)
I0403 10:34:49.250372 26896 net.cpp:156] Memory required for data: 965760960
I0403 10:34:49.250385 26896 layer_factory.hpp:77] Creating layer inception_4b/5x5
I0403 10:34:49.250422 26896 net.cpp:91] Creating Layer inception_4b/5x5
I0403 10:34:49.250440 26896 net.cpp:425] inception_4b/5x5 <- inception_4b/5x5_reduce
I0403 10:34:49.250458 26896 net.cpp:399] inception_4b/5x5 -> inception_4b/5x5
I0403 10:34:49.250882 26896 net.cpp:141] Setting up inception_4b/5x5
I0403 10:34:49.250906 26896 net.cpp:148] Top shape: 24 64 14 14 (301056)
I0403 10:34:49.250921 26896 net.cpp:156] Memory required for data: 966965184
I0403 10:34:49.250938 26896 layer_factory.hpp:77] Creating layer inception_4b/relu_5x5
I0403 10:34:49.250957 26896 net.cpp:91] Creating Layer inception_4b/relu_5x5
I0403 10:34:49.250972 26896 net.cpp:425] inception_4b/relu_5x5 <- inception_4b/5x5
I0403 10:34:49.250990 26896 net.cpp:386] inception_4b/relu_5x5 -> inception_4b/5x5 (in-place)
I0403 10:34:49.251015 26896 net.cpp:141] Setting up inception_4b/relu_5x5
I0403 10:34:49.251044 26896 net.cpp:148] Top shape: 24 64 14 14 (301056)
I0403 10:34:49.251057 26896 net.cpp:156] Memory required for data: 968169408
I0403 10:34:49.251070 26896 layer_factory.hpp:77] Creating layer inception_4b/pool
I0403 10:34:49.251087 26896 net.cpp:91] Creating Layer inception_4b/pool
I0403 10:34:49.251102 26896 net.cpp:425] inception_4b/pool <- inception_4a/output_inception_4a/output_0_split_4
I0403 10:34:49.251121 26896 net.cpp:399] inception_4b/pool -> inception_4b/pool
I0403 10:34:49.251170 26896 net.cpp:141] Setting up inception_4b/pool
I0403 10:34:49.251191 26896 net.cpp:148] Top shape: 24 512 14 14 (2408448)
I0403 10:34:49.251205 26896 net.cpp:156] Memory required for data: 977803200
I0403 10:34:49.251219 26896 layer_factory.hpp:77] Creating layer inception_4b/pool_proj
I0403 10:34:49.251240 26896 net.cpp:91] Creating Layer inception_4b/pool_proj
I0403 10:34:49.251258 26896 net.cpp:425] inception_4b/pool_proj <- inception_4b/pool
I0403 10:34:49.251279 26896 net.cpp:399] inception_4b/pool_proj -> inception_4b/pool_proj
I0403 10:34:49.251657 26896 net.cpp:141] Setting up inception_4b/pool_proj
I0403 10:34:49.251682 26896 net.cpp:148] Top shape: 24 64 14 14 (301056)
I0403 10:34:49.251696 26896 net.cpp:156] Memory required for data: 979007424
I0403 10:34:49.251713 26896 layer_factory.hpp:77] Creating layer inception_4b/relu_pool_proj
I0403 10:34:49.251730 26896 net.cpp:91] Creating Layer inception_4b/relu_pool_proj
I0403 10:34:49.251746 26896 net.cpp:425] inception_4b/relu_pool_proj <- inception_4b/pool_proj
I0403 10:34:49.251763 26896 net.cpp:386] inception_4b/relu_pool_proj -> inception_4b/pool_proj (in-place)
I0403 10:34:49.251781 26896 net.cpp:141] Setting up inception_4b/relu_pool_proj
I0403 10:34:49.251798 26896 net.cpp:148] Top shape: 24 64 14 14 (301056)
I0403 10:34:49.251811 26896 net.cpp:156] Memory required for data: 980211648
I0403 10:34:49.251826 26896 layer_factory.hpp:77] Creating layer inception_4b/output
I0403 10:34:49.251842 26896 net.cpp:91] Creating Layer inception_4b/output
I0403 10:34:49.251857 26896 net.cpp:425] inception_4b/output <- inception_4b/1x1
I0403 10:34:49.251871 26896 net.cpp:425] inception_4b/output <- inception_4b/3x3
I0403 10:34:49.251886 26896 net.cpp:425] inception_4b/output <- inception_4b/5x5
I0403 10:34:49.251901 26896 net.cpp:425] inception_4b/output <- inception_4b/pool_proj
I0403 10:34:49.251920 26896 net.cpp:399] inception_4b/output -> inception_4b/output
I0403 10:34:49.251960 26896 net.cpp:141] Setting up inception_4b/output
I0403 10:34:49.251981 26896 net.cpp:148] Top shape: 24 512 14 14 (2408448)
I0403 10:34:49.251998 26896 net.cpp:156] Memory required for data: 989845440
I0403 10:34:49.252014 26896 layer_factory.hpp:77] Creating layer inception_4b/output_inception_4b/output_0_split
I0403 10:34:49.252032 26896 net.cpp:91] Creating Layer inception_4b/output_inception_4b/output_0_split
I0403 10:34:49.252048 26896 net.cpp:425] inception_4b/output_inception_4b/output_0_split <- inception_4b/output
I0403 10:34:49.252064 26896 net.cpp:399] inception_4b/output_inception_4b/output_0_split -> inception_4b/output_inception_4b/output_0_split_0
I0403 10:34:49.252086 26896 net.cpp:399] inception_4b/output_inception_4b/output_0_split -> inception_4b/output_inception_4b/output_0_split_1
I0403 10:34:49.252118 26896 net.cpp:399] inception_4b/output_inception_4b/output_0_split -> inception_4b/output_inception_4b/output_0_split_2
I0403 10:34:49.252140 26896 net.cpp:399] inception_4b/output_inception_4b/output_0_split -> inception_4b/output_inception_4b/output_0_split_3
I0403 10:34:49.252204 26896 net.cpp:141] Setting up inception_4b/output_inception_4b/output_0_split
I0403 10:34:49.252225 26896 net.cpp:148] Top shape: 24 512 14 14 (2408448)
I0403 10:34:49.252240 26896 net.cpp:148] Top shape: 24 512 14 14 (2408448)
I0403 10:34:49.252255 26896 net.cpp:148] Top shape: 24 512 14 14 (2408448)
I0403 10:34:49.252269 26896 net.cpp:148] Top shape: 24 512 14 14 (2408448)
I0403 10:34:49.252282 26896 net.cpp:156] Memory required for data: 1028380608
I0403 10:34:49.252295 26896 layer_factory.hpp:77] Creating layer inception_4c/1x1
I0403 10:34:49.252317 26896 net.cpp:91] Creating Layer inception_4c/1x1
I0403 10:34:49.252334 26896 net.cpp:425] inception_4c/1x1 <- inception_4b/output_inception_4b/output_0_split_0
I0403 10:34:49.252356 26896 net.cpp:399] inception_4c/1x1 -> inception_4c/1x1
I0403 10:34:49.252893 26896 net.cpp:141] Setting up inception_4c/1x1
I0403 10:34:49.252918 26896 net.cpp:148] Top shape: 24 128 14 14 (602112)
I0403 10:34:49.252931 26896 net.cpp:156] Memory required for data: 1030789056
I0403 10:34:49.252948 26896 layer_factory.hpp:77] Creating layer inception_4c/relu_1x1
I0403 10:34:49.252967 26896 net.cpp:91] Creating Layer inception_4c/relu_1x1
I0403 10:34:49.252985 26896 net.cpp:425] inception_4c/relu_1x1 <- inception_4c/1x1
I0403 10:34:49.253006 26896 net.cpp:386] inception_4c/relu_1x1 -> inception_4c/1x1 (in-place)
I0403 10:34:49.253026 26896 net.cpp:141] Setting up inception_4c/relu_1x1
I0403 10:34:49.253042 26896 net.cpp:148] Top shape: 24 128 14 14 (602112)
I0403 10:34:49.253057 26896 net.cpp:156] Memory required for data: 1033197504
I0403 10:34:49.253069 26896 layer_factory.hpp:77] Creating layer inception_4c/3x3_reduce
I0403 10:34:49.253092 26896 net.cpp:91] Creating Layer inception_4c/3x3_reduce
I0403 10:34:49.253108 26896 net.cpp:425] inception_4c/3x3_reduce <- inception_4b/output_inception_4b/output_0_split_1
I0403 10:34:49.253129 26896 net.cpp:399] inception_4c/3x3_reduce -> inception_4c/3x3_reduce
I0403 10:34:49.254184 26896 net.cpp:141] Setting up inception_4c/3x3_reduce
I0403 10:34:49.254210 26896 net.cpp:148] Top shape: 24 128 14 14 (602112)
I0403 10:34:49.254225 26896 net.cpp:156] Memory required for data: 1035605952
I0403 10:34:49.254243 26896 layer_factory.hpp:77] Creating layer inception_4c/relu_3x3_reduce
I0403 10:34:49.254261 26896 net.cpp:91] Creating Layer inception_4c/relu_3x3_reduce
I0403 10:34:49.254276 26896 net.cpp:425] inception_4c/relu_3x3_reduce <- inception_4c/3x3_reduce
I0403 10:34:49.254295 26896 net.cpp:386] inception_4c/relu_3x3_reduce -> inception_4c/3x3_reduce (in-place)
I0403 10:34:49.254314 26896 net.cpp:141] Setting up inception_4c/relu_3x3_reduce
I0403 10:34:49.254331 26896 net.cpp:148] Top shape: 24 128 14 14 (602112)
I0403 10:34:49.254344 26896 net.cpp:156] Memory required for data: 1038014400
I0403 10:34:49.254357 26896 layer_factory.hpp:77] Creating layer inception_4c/3x3
I0403 10:34:49.254379 26896 net.cpp:91] Creating Layer inception_4c/3x3
I0403 10:34:49.254396 26896 net.cpp:425] inception_4c/3x3 <- inception_4c/3x3_reduce
I0403 10:34:49.254415 26896 net.cpp:399] inception_4c/3x3 -> inception_4c/3x3
I0403 10:34:49.256719 26896 net.cpp:141] Setting up inception_4c/3x3
I0403 10:34:49.256747 26896 net.cpp:148] Top shape: 24 256 14 14 (1204224)
I0403 10:34:49.256762 26896 net.cpp:156] Memory required for data: 1042831296
I0403 10:34:49.256794 26896 layer_factory.hpp:77] Creating layer inception_4c/relu_3x3
I0403 10:34:49.256814 26896 net.cpp:91] Creating Layer inception_4c/relu_3x3
I0403 10:34:49.256830 26896 net.cpp:425] inception_4c/relu_3x3 <- inception_4c/3x3
I0403 10:34:49.256849 26896 net.cpp:386] inception_4c/relu_3x3 -> inception_4c/3x3 (in-place)
I0403 10:34:49.256881 26896 net.cpp:141] Setting up inception_4c/relu_3x3
I0403 10:34:49.256899 26896 net.cpp:148] Top shape: 24 256 14 14 (1204224)
I0403 10:34:49.256913 26896 net.cpp:156] Memory required for data: 1047648192
I0403 10:34:49.256927 26896 layer_factory.hpp:77] Creating layer inception_4c/5x5_reduce
I0403 10:34:49.256947 26896 net.cpp:91] Creating Layer inception_4c/5x5_reduce
I0403 10:34:49.256963 26896 net.cpp:425] inception_4c/5x5_reduce <- inception_4b/output_inception_4b/output_0_split_2
I0403 10:34:49.256983 26896 net.cpp:399] inception_4c/5x5_reduce -> inception_4c/5x5_reduce
I0403 10:34:49.257258 26896 net.cpp:141] Setting up inception_4c/5x5_reduce
I0403 10:34:49.257282 26896 net.cpp:148] Top shape: 24 24 14 14 (112896)
I0403 10:34:49.257297 26896 net.cpp:156] Memory required for data: 1048099776
I0403 10:34:49.257313 26896 layer_factory.hpp:77] Creating layer inception_4c/relu_5x5_reduce
I0403 10:34:49.257333 26896 net.cpp:91] Creating Layer inception_4c/relu_5x5_reduce
I0403 10:34:49.257349 26896 net.cpp:425] inception_4c/relu_5x5_reduce <- inception_4c/5x5_reduce
I0403 10:34:49.257366 26896 net.cpp:386] inception_4c/relu_5x5_reduce -> inception_4c/5x5_reduce (in-place)
I0403 10:34:49.257385 26896 net.cpp:141] Setting up inception_4c/relu_5x5_reduce
I0403 10:34:49.257401 26896 net.cpp:148] Top shape: 24 24 14 14 (112896)
I0403 10:34:49.257414 26896 net.cpp:156] Memory required for data: 1048551360
I0403 10:34:49.257427 26896 layer_factory.hpp:77] Creating layer inception_4c/5x5
I0403 10:34:49.257450 26896 net.cpp:91] Creating Layer inception_4c/5x5
I0403 10:34:49.257468 26896 net.cpp:425] inception_4c/5x5 <- inception_4c/5x5_reduce
I0403 10:34:49.257488 26896 net.cpp:399] inception_4c/5x5 -> inception_4c/5x5
I0403 10:34:49.257894 26896 net.cpp:141] Setting up inception_4c/5x5
I0403 10:34:49.257917 26896 net.cpp:148] Top shape: 24 64 14 14 (301056)
I0403 10:34:49.257931 26896 net.cpp:156] Memory required for data: 1049755584
I0403 10:34:49.257947 26896 layer_factory.hpp:77] Creating layer inception_4c/relu_5x5
I0403 10:34:49.257964 26896 net.cpp:91] Creating Layer inception_4c/relu_5x5
I0403 10:34:49.257980 26896 net.cpp:425] inception_4c/relu_5x5 <- inception_4c/5x5
I0403 10:34:49.258002 26896 net.cpp:386] inception_4c/relu_5x5 -> inception_4c/5x5 (in-place)
I0403 10:34:49.258021 26896 net.cpp:141] Setting up inception_4c/relu_5x5
I0403 10:34:49.258038 26896 net.cpp:148] Top shape: 24 64 14 14 (301056)
I0403 10:34:49.258051 26896 net.cpp:156] Memory required for data: 1050959808
I0403 10:34:49.258065 26896 layer_factory.hpp:77] Creating layer inception_4c/pool
I0403 10:34:49.258085 26896 net.cpp:91] Creating Layer inception_4c/pool
I0403 10:34:49.258100 26896 net.cpp:425] inception_4c/pool <- inception_4b/output_inception_4b/output_0_split_3
I0403 10:34:49.258118 26896 net.cpp:399] inception_4c/pool -> inception_4c/pool
I0403 10:34:49.258168 26896 net.cpp:141] Setting up inception_4c/pool
I0403 10:34:49.258189 26896 net.cpp:148] Top shape: 24 512 14 14 (2408448)
I0403 10:34:49.258203 26896 net.cpp:156] Memory required for data: 1060593600
I0403 10:34:49.258218 26896 layer_factory.hpp:77] Creating layer inception_4c/pool_proj
I0403 10:34:49.258239 26896 net.cpp:91] Creating Layer inception_4c/pool_proj
I0403 10:34:49.258255 26896 net.cpp:425] inception_4c/pool_proj <- inception_4c/pool
I0403 10:34:49.258275 26896 net.cpp:399] inception_4c/pool_proj -> inception_4c/pool_proj
I0403 10:34:49.258649 26896 net.cpp:141] Setting up inception_4c/pool_proj
I0403 10:34:49.258673 26896 net.cpp:148] Top shape: 24 64 14 14 (301056)
I0403 10:34:49.258687 26896 net.cpp:156] Memory required for data: 1061797824
I0403 10:34:49.258704 26896 layer_factory.hpp:77] Creating layer inception_4c/relu_pool_proj
I0403 10:34:49.258723 26896 net.cpp:91] Creating Layer inception_4c/relu_pool_proj
I0403 10:34:49.258740 26896 net.cpp:425] inception_4c/relu_pool_proj <- inception_4c/pool_proj
I0403 10:34:49.258756 26896 net.cpp:386] inception_4c/relu_pool_proj -> inception_4c/pool_proj (in-place)
I0403 10:34:49.258775 26896 net.cpp:141] Setting up inception_4c/relu_pool_proj
I0403 10:34:49.258805 26896 net.cpp:148] Top shape: 24 64 14 14 (301056)
I0403 10:34:49.258818 26896 net.cpp:156] Memory required for data: 1063002048
I0403 10:34:49.258833 26896 layer_factory.hpp:77] Creating layer inception_4c/output
I0403 10:34:49.258849 26896 net.cpp:91] Creating Layer inception_4c/output
I0403 10:34:49.258863 26896 net.cpp:425] inception_4c/output <- inception_4c/1x1
I0403 10:34:49.258879 26896 net.cpp:425] inception_4c/output <- inception_4c/3x3
I0403 10:34:49.258894 26896 net.cpp:425] inception_4c/output <- inception_4c/5x5
I0403 10:34:49.258909 26896 net.cpp:425] inception_4c/output <- inception_4c/pool_proj
I0403 10:34:49.258929 26896 net.cpp:399] inception_4c/output -> inception_4c/output
I0403 10:34:49.258965 26896 net.cpp:141] Setting up inception_4c/output
I0403 10:34:49.258987 26896 net.cpp:148] Top shape: 24 512 14 14 (2408448)
I0403 10:34:49.259019 26896 net.cpp:156] Memory required for data: 1072635840
I0403 10:34:49.259035 26896 layer_factory.hpp:77] Creating layer inception_4c/output_inception_4c/output_0_split
I0403 10:34:49.259052 26896 net.cpp:91] Creating Layer inception_4c/output_inception_4c/output_0_split
I0403 10:34:49.259068 26896 net.cpp:425] inception_4c/output_inception_4c/output_0_split <- inception_4c/output
I0403 10:34:49.259084 26896 net.cpp:399] inception_4c/output_inception_4c/output_0_split -> inception_4c/output_inception_4c/output_0_split_0
I0403 10:34:49.259104 26896 net.cpp:399] inception_4c/output_inception_4c/output_0_split -> inception_4c/output_inception_4c/output_0_split_1
I0403 10:34:49.259124 26896 net.cpp:399] inception_4c/output_inception_4c/output_0_split -> inception_4c/output_inception_4c/output_0_split_2
I0403 10:34:49.259142 26896 net.cpp:399] inception_4c/output_inception_4c/output_0_split -> inception_4c/output_inception_4c/output_0_split_3
I0403 10:34:49.259209 26896 net.cpp:141] Setting up inception_4c/output_inception_4c/output_0_split
I0403 10:34:49.259232 26896 net.cpp:148] Top shape: 24 512 14 14 (2408448)
I0403 10:34:49.259246 26896 net.cpp:148] Top shape: 24 512 14 14 (2408448)
I0403 10:34:49.259261 26896 net.cpp:148] Top shape: 24 512 14 14 (2408448)
I0403 10:34:49.259275 26896 net.cpp:148] Top shape: 24 512 14 14 (2408448)
I0403 10:34:49.259289 26896 net.cpp:156] Memory required for data: 1111171008
I0403 10:34:49.259304 26896 layer_factory.hpp:77] Creating layer inception_4d/1x1
I0403 10:34:49.259325 26896 net.cpp:91] Creating Layer inception_4d/1x1
I0403 10:34:49.259342 26896 net.cpp:425] inception_4d/1x1 <- inception_4c/output_inception_4c/output_0_split_0
I0403 10:34:49.259363 26896 net.cpp:399] inception_4d/1x1 -> inception_4d/1x1
I0403 10:34:49.259866 26896 net.cpp:141] Setting up inception_4d/1x1
I0403 10:34:49.259891 26896 net.cpp:148] Top shape: 24 112 14 14 (526848)
I0403 10:34:49.259904 26896 net.cpp:156] Memory required for data: 1113278400
I0403 10:34:49.259922 26896 layer_factory.hpp:77] Creating layer inception_4d/relu_1x1
I0403 10:34:49.259940 26896 net.cpp:91] Creating Layer inception_4d/relu_1x1
I0403 10:34:49.259956 26896 net.cpp:425] inception_4d/relu_1x1 <- inception_4d/1x1
I0403 10:34:49.259974 26896 net.cpp:386] inception_4d/relu_1x1 -> inception_4d/1x1 (in-place)
I0403 10:34:49.259991 26896 net.cpp:141] Setting up inception_4d/relu_1x1
I0403 10:34:49.260015 26896 net.cpp:148] Top shape: 24 112 14 14 (526848)
I0403 10:34:49.260028 26896 net.cpp:156] Memory required for data: 1115385792
I0403 10:34:49.260041 26896 layer_factory.hpp:77] Creating layer inception_4d/3x3_reduce
I0403 10:34:49.260063 26896 net.cpp:91] Creating Layer inception_4d/3x3_reduce
I0403 10:34:49.260081 26896 net.cpp:425] inception_4d/3x3_reduce <- inception_4c/output_inception_4c/output_0_split_1
I0403 10:34:49.260100 26896 net.cpp:399] inception_4d/3x3_reduce -> inception_4d/3x3_reduce
I0403 10:34:49.260704 26896 net.cpp:141] Setting up inception_4d/3x3_reduce
I0403 10:34:49.260727 26896 net.cpp:148] Top shape: 24 144 14 14 (677376)
I0403 10:34:49.260741 26896 net.cpp:156] Memory required for data: 1118095296
I0403 10:34:49.260771 26896 layer_factory.hpp:77] Creating layer inception_4d/relu_3x3_reduce
I0403 10:34:49.260789 26896 net.cpp:91] Creating Layer inception_4d/relu_3x3_reduce
I0403 10:34:49.260804 26896 net.cpp:425] inception_4d/relu_3x3_reduce <- inception_4d/3x3_reduce
I0403 10:34:49.260821 26896 net.cpp:386] inception_4d/relu_3x3_reduce -> inception_4d/3x3_reduce (in-place)
I0403 10:34:49.260839 26896 net.cpp:141] Setting up inception_4d/relu_3x3_reduce
I0403 10:34:49.260856 26896 net.cpp:148] Top shape: 24 144 14 14 (677376)
I0403 10:34:49.260869 26896 net.cpp:156] Memory required for data: 1120804800
I0403 10:34:49.260882 26896 layer_factory.hpp:77] Creating layer inception_4d/3x3
I0403 10:34:49.260905 26896 net.cpp:91] Creating Layer inception_4d/3x3
I0403 10:34:49.260921 26896 net.cpp:425] inception_4d/3x3 <- inception_4d/3x3_reduce
I0403 10:34:49.260941 26896 net.cpp:399] inception_4d/3x3 -> inception_4d/3x3
I0403 10:34:49.263913 26896 net.cpp:141] Setting up inception_4d/3x3
I0403 10:34:49.263941 26896 net.cpp:148] Top shape: 24 288 14 14 (1354752)
I0403 10:34:49.263955 26896 net.cpp:156] Memory required for data: 1126223808
I0403 10:34:49.263972 26896 layer_factory.hpp:77] Creating layer inception_4d/relu_3x3
I0403 10:34:49.263988 26896 net.cpp:91] Creating Layer inception_4d/relu_3x3
I0403 10:34:49.264009 26896 net.cpp:425] inception_4d/relu_3x3 <- inception_4d/3x3
I0403 10:34:49.264029 26896 net.cpp:386] inception_4d/relu_3x3 -> inception_4d/3x3 (in-place)
I0403 10:34:49.264048 26896 net.cpp:141] Setting up inception_4d/relu_3x3
I0403 10:34:49.264065 26896 net.cpp:148] Top shape: 24 288 14 14 (1354752)
I0403 10:34:49.264078 26896 net.cpp:156] Memory required for data: 1131642816
I0403 10:34:49.264091 26896 layer_factory.hpp:77] Creating layer inception_4d/5x5_reduce
I0403 10:34:49.264109 26896 net.cpp:91] Creating Layer inception_4d/5x5_reduce
I0403 10:34:49.264125 26896 net.cpp:425] inception_4d/5x5_reduce <- inception_4c/output_inception_4c/output_0_split_2
I0403 10:34:49.264145 26896 net.cpp:399] inception_4d/5x5_reduce -> inception_4d/5x5_reduce
I0403 10:34:49.264433 26896 net.cpp:141] Setting up inception_4d/5x5_reduce
I0403 10:34:49.264456 26896 net.cpp:148] Top shape: 24 32 14 14 (150528)
I0403 10:34:49.264470 26896 net.cpp:156] Memory required for data: 1132244928
I0403 10:34:49.264487 26896 layer_factory.hpp:77] Creating layer inception_4d/relu_5x5_reduce
I0403 10:34:49.264503 26896 net.cpp:91] Creating Layer inception_4d/relu_5x5_reduce
I0403 10:34:49.264518 26896 net.cpp:425] inception_4d/relu_5x5_reduce <- inception_4d/5x5_reduce
I0403 10:34:49.264535 26896 net.cpp:386] inception_4d/relu_5x5_reduce -> inception_4d/5x5_reduce (in-place)
I0403 10:34:49.264552 26896 net.cpp:141] Setting up inception_4d/relu_5x5_reduce
I0403 10:34:49.264569 26896 net.cpp:148] Top shape: 24 32 14 14 (150528)
I0403 10:34:49.264585 26896 net.cpp:156] Memory required for data: 1132847040
I0403 10:34:49.264596 26896 layer_factory.hpp:77] Creating layer inception_4d/5x5
I0403 10:34:49.264617 26896 net.cpp:91] Creating Layer inception_4d/5x5
I0403 10:34:49.264634 26896 net.cpp:425] inception_4d/5x5 <- inception_4d/5x5_reduce
I0403 10:34:49.264657 26896 net.cpp:399] inception_4d/5x5 -> inception_4d/5x5
I0403 10:34:49.265141 26896 net.cpp:141] Setting up inception_4d/5x5
I0403 10:34:49.265166 26896 net.cpp:148] Top shape: 24 64 14 14 (301056)
I0403 10:34:49.265179 26896 net.cpp:156] Memory required for data: 1134051264
I0403 10:34:49.265197 26896 layer_factory.hpp:77] Creating layer inception_4d/relu_5x5
I0403 10:34:49.265213 26896 net.cpp:91] Creating Layer inception_4d/relu_5x5
I0403 10:34:49.265228 26896 net.cpp:425] inception_4d/relu_5x5 <- inception_4d/5x5
I0403 10:34:49.265249 26896 net.cpp:386] inception_4d/relu_5x5 -> inception_4d/5x5 (in-place)
I0403 10:34:49.265267 26896 net.cpp:141] Setting up inception_4d/relu_5x5
I0403 10:34:49.265285 26896 net.cpp:148] Top shape: 24 64 14 14 (301056)
I0403 10:34:49.265298 26896 net.cpp:156] Memory required for data: 1135255488
I0403 10:34:49.265312 26896 layer_factory.hpp:77] Creating layer inception_4d/pool
I0403 10:34:49.265342 26896 net.cpp:91] Creating Layer inception_4d/pool
I0403 10:34:49.265359 26896 net.cpp:425] inception_4d/pool <- inception_4c/output_inception_4c/output_0_split_3
I0403 10:34:49.265377 26896 net.cpp:399] inception_4d/pool -> inception_4d/pool
I0403 10:34:49.265426 26896 net.cpp:141] Setting up inception_4d/pool
I0403 10:34:49.265449 26896 net.cpp:148] Top shape: 24 512 14 14 (2408448)
I0403 10:34:49.265462 26896 net.cpp:156] Memory required for data: 1144889280
I0403 10:34:49.265476 26896 layer_factory.hpp:77] Creating layer inception_4d/pool_proj
I0403 10:34:49.265499 26896 net.cpp:91] Creating Layer inception_4d/pool_proj
I0403 10:34:49.265516 26896 net.cpp:425] inception_4d/pool_proj <- inception_4d/pool
I0403 10:34:49.265537 26896 net.cpp:399] inception_4d/pool_proj -> inception_4d/pool_proj
I0403 10:34:49.266425 26896 net.cpp:141] Setting up inception_4d/pool_proj
I0403 10:34:49.266455 26896 net.cpp:148] Top shape: 24 64 14 14 (301056)
I0403 10:34:49.266470 26896 net.cpp:156] Memory required for data: 1146093504
I0403 10:34:49.266489 26896 layer_factory.hpp:77] Creating layer inception_4d/relu_pool_proj
I0403 10:34:49.266506 26896 net.cpp:91] Creating Layer inception_4d/relu_pool_proj
I0403 10:34:49.266521 26896 net.cpp:425] inception_4d/relu_pool_proj <- inception_4d/pool_proj
I0403 10:34:49.266540 26896 net.cpp:386] inception_4d/relu_pool_proj -> inception_4d/pool_proj (in-place)
I0403 10:34:49.266558 26896 net.cpp:141] Setting up inception_4d/relu_pool_proj
I0403 10:34:49.266576 26896 net.cpp:148] Top shape: 24 64 14 14 (301056)
I0403 10:34:49.266588 26896 net.cpp:156] Memory required for data: 1147297728
I0403 10:34:49.266602 26896 layer_factory.hpp:77] Creating layer inception_4d/output
I0403 10:34:49.266618 26896 net.cpp:91] Creating Layer inception_4d/output
I0403 10:34:49.266633 26896 net.cpp:425] inception_4d/output <- inception_4d/1x1
I0403 10:34:49.266649 26896 net.cpp:425] inception_4d/output <- inception_4d/3x3
I0403 10:34:49.266664 26896 net.cpp:425] inception_4d/output <- inception_4d/5x5
I0403 10:34:49.266680 26896 net.cpp:425] inception_4d/output <- inception_4d/pool_proj
I0403 10:34:49.266700 26896 net.cpp:399] inception_4d/output -> inception_4d/output
I0403 10:34:49.266736 26896 net.cpp:141] Setting up inception_4d/output
I0403 10:34:49.266759 26896 net.cpp:148] Top shape: 24 528 14 14 (2483712)
I0403 10:34:49.266774 26896 net.cpp:156] Memory required for data: 1157232576
I0403 10:34:49.266788 26896 layer_factory.hpp:77] Creating layer inception_4d/output_inception_4d/output_0_split
I0403 10:34:49.266805 26896 net.cpp:91] Creating Layer inception_4d/output_inception_4d/output_0_split
I0403 10:34:49.266821 26896 net.cpp:425] inception_4d/output_inception_4d/output_0_split <- inception_4d/output
I0403 10:34:49.266837 26896 net.cpp:399] inception_4d/output_inception_4d/output_0_split -> inception_4d/output_inception_4d/output_0_split_0
I0403 10:34:49.266857 26896 net.cpp:399] inception_4d/output_inception_4d/output_0_split -> inception_4d/output_inception_4d/output_0_split_1
I0403 10:34:49.266880 26896 net.cpp:399] inception_4d/output_inception_4d/output_0_split -> inception_4d/output_inception_4d/output_0_split_2
I0403 10:34:49.266901 26896 net.cpp:399] inception_4d/output_inception_4d/output_0_split -> inception_4d/output_inception_4d/output_0_split_3
I0403 10:34:49.266921 26896 net.cpp:399] inception_4d/output_inception_4d/output_0_split -> inception_4d/output_inception_4d/output_0_split_4
I0403 10:34:49.267001 26896 net.cpp:141] Setting up inception_4d/output_inception_4d/output_0_split
I0403 10:34:49.267024 26896 net.cpp:148] Top shape: 24 528 14 14 (2483712)
I0403 10:34:49.267040 26896 net.cpp:148] Top shape: 24 528 14 14 (2483712)
I0403 10:34:49.267053 26896 net.cpp:148] Top shape: 24 528 14 14 (2483712)
I0403 10:34:49.267068 26896 net.cpp:148] Top shape: 24 528 14 14 (2483712)
I0403 10:34:49.267082 26896 net.cpp:148] Top shape: 24 528 14 14 (2483712)
I0403 10:34:49.267096 26896 net.cpp:156] Memory required for data: 1206906816
I0403 10:34:49.267124 26896 layer_factory.hpp:77] Creating layer loss2/ave_pool
I0403 10:34:49.267145 26896 net.cpp:91] Creating Layer loss2/ave_pool
I0403 10:34:49.267161 26896 net.cpp:425] loss2/ave_pool <- inception_4d/output_inception_4d/output_0_split_0
I0403 10:34:49.267179 26896 net.cpp:399] loss2/ave_pool -> loss2/ave_pool
I0403 10:34:49.267218 26896 net.cpp:141] Setting up loss2/ave_pool
I0403 10:34:49.267240 26896 net.cpp:148] Top shape: 24 528 4 4 (202752)
I0403 10:34:49.267253 26896 net.cpp:156] Memory required for data: 1207717824
I0403 10:34:49.267267 26896 layer_factory.hpp:77] Creating layer loss2/conv
I0403 10:34:49.267290 26896 net.cpp:91] Creating Layer loss2/conv
I0403 10:34:49.267307 26896 net.cpp:425] loss2/conv <- loss2/ave_pool
I0403 10:34:49.267328 26896 net.cpp:399] loss2/conv -> loss2/conv
I0403 10:34:49.268390 26896 net.cpp:141] Setting up loss2/conv
I0403 10:34:49.268417 26896 net.cpp:148] Top shape: 24 128 4 4 (49152)
I0403 10:34:49.268432 26896 net.cpp:156] Memory required for data: 1207914432
I0403 10:34:49.268450 26896 layer_factory.hpp:77] Creating layer loss2/relu_conv
I0403 10:34:49.268466 26896 net.cpp:91] Creating Layer loss2/relu_conv
I0403 10:34:49.268482 26896 net.cpp:425] loss2/relu_conv <- loss2/conv
I0403 10:34:49.268504 26896 net.cpp:386] loss2/relu_conv -> loss2/conv (in-place)
I0403 10:34:49.268524 26896 net.cpp:141] Setting up loss2/relu_conv
I0403 10:34:49.268542 26896 net.cpp:148] Top shape: 24 128 4 4 (49152)
I0403 10:34:49.268555 26896 net.cpp:156] Memory required for data: 1208111040
I0403 10:34:49.268568 26896 layer_factory.hpp:77] Creating layer loss2/fc
I0403 10:34:49.268586 26896 net.cpp:91] Creating Layer loss2/fc
I0403 10:34:49.268602 26896 net.cpp:425] loss2/fc <- loss2/conv
I0403 10:34:49.268622 26896 net.cpp:399] loss2/fc -> loss2/fc
I0403 10:34:49.283741 26896 net.cpp:141] Setting up loss2/fc
I0403 10:34:49.283779 26896 net.cpp:148] Top shape: 24 1024 (24576)
I0403 10:34:49.283794 26896 net.cpp:156] Memory required for data: 1208209344
I0403 10:34:49.283812 26896 layer_factory.hpp:77] Creating layer loss2/relu_fc
I0403 10:34:49.283833 26896 net.cpp:91] Creating Layer loss2/relu_fc
I0403 10:34:49.283849 26896 net.cpp:425] loss2/relu_fc <- loss2/fc
I0403 10:34:49.283865 26896 net.cpp:386] loss2/relu_fc -> loss2/fc (in-place)
I0403 10:34:49.283884 26896 net.cpp:141] Setting up loss2/relu_fc
I0403 10:34:49.283900 26896 net.cpp:148] Top shape: 24 1024 (24576)
I0403 10:34:49.283912 26896 net.cpp:156] Memory required for data: 1208307648
I0403 10:34:49.283926 26896 layer_factory.hpp:77] Creating layer loss2/drop_fc
I0403 10:34:49.283942 26896 net.cpp:91] Creating Layer loss2/drop_fc
I0403 10:34:49.283960 26896 net.cpp:425] loss2/drop_fc <- loss2/fc
I0403 10:34:49.283977 26896 net.cpp:386] loss2/drop_fc -> loss2/fc (in-place)
I0403 10:34:49.284016 26896 net.cpp:141] Setting up loss2/drop_fc
I0403 10:34:49.284037 26896 net.cpp:148] Top shape: 24 1024 (24576)
I0403 10:34:49.284051 26896 net.cpp:156] Memory required for data: 1208405952
I0403 10:34:49.284065 26896 layer_factory.hpp:77] Creating layer loss2/classifier_plantvillage
I0403 10:34:49.284085 26896 net.cpp:91] Creating Layer loss2/classifier_plantvillage
I0403 10:34:49.284101 26896 net.cpp:425] loss2/classifier_plantvillage <- loss2/fc
I0403 10:34:49.284119 26896 net.cpp:399] loss2/classifier_plantvillage -> loss2/classifier_plantvillage
I0403 10:34:49.284421 26896 net.cpp:141] Setting up loss2/classifier_plantvillage
I0403 10:34:49.284443 26896 net.cpp:148] Top shape: 24 38 (912)
I0403 10:34:49.284458 26896 net.cpp:156] Memory required for data: 1208409600
I0403 10:34:49.284473 26896 layer_factory.hpp:77] Creating layer inception_4e/1x1
I0403 10:34:49.284498 26896 net.cpp:91] Creating Layer inception_4e/1x1
I0403 10:34:49.284515 26896 net.cpp:425] inception_4e/1x1 <- inception_4d/output_inception_4d/output_0_split_1
I0403 10:34:49.284534 26896 net.cpp:399] inception_4e/1x1 -> inception_4e/1x1
I0403 10:34:49.285434 26896 net.cpp:141] Setting up inception_4e/1x1
I0403 10:34:49.285457 26896 net.cpp:148] Top shape: 24 256 14 14 (1204224)
I0403 10:34:49.285487 26896 net.cpp:156] Memory required for data: 1213226496
I0403 10:34:49.285506 26896 layer_factory.hpp:77] Creating layer inception_4e/relu_1x1
I0403 10:34:49.285522 26896 net.cpp:91] Creating Layer inception_4e/relu_1x1
I0403 10:34:49.285537 26896 net.cpp:425] inception_4e/relu_1x1 <- inception_4e/1x1
I0403 10:34:49.285552 26896 net.cpp:386] inception_4e/relu_1x1 -> inception_4e/1x1 (in-place)
I0403 10:34:49.285572 26896 net.cpp:141] Setting up inception_4e/relu_1x1
I0403 10:34:49.285588 26896 net.cpp:148] Top shape: 24 256 14 14 (1204224)
I0403 10:34:49.285601 26896 net.cpp:156] Memory required for data: 1218043392
I0403 10:34:49.285614 26896 layer_factory.hpp:77] Creating layer inception_4e/3x3_reduce
I0403 10:34:49.285634 26896 net.cpp:91] Creating Layer inception_4e/3x3_reduce
I0403 10:34:49.285650 26896 net.cpp:425] inception_4e/3x3_reduce <- inception_4d/output_inception_4d/output_0_split_2
I0403 10:34:49.285670 26896 net.cpp:399] inception_4e/3x3_reduce -> inception_4e/3x3_reduce
I0403 10:34:49.286815 26896 net.cpp:141] Setting up inception_4e/3x3_reduce
I0403 10:34:49.286841 26896 net.cpp:148] Top shape: 24 160 14 14 (752640)
I0403 10:34:49.286855 26896 net.cpp:156] Memory required for data: 1221053952
I0403 10:34:49.286872 26896 layer_factory.hpp:77] Creating layer inception_4e/relu_3x3_reduce
I0403 10:34:49.286890 26896 net.cpp:91] Creating Layer inception_4e/relu_3x3_reduce
I0403 10:34:49.286905 26896 net.cpp:425] inception_4e/relu_3x3_reduce <- inception_4e/3x3_reduce
I0403 10:34:49.286923 26896 net.cpp:386] inception_4e/relu_3x3_reduce -> inception_4e/3x3_reduce (in-place)
I0403 10:34:49.286942 26896 net.cpp:141] Setting up inception_4e/relu_3x3_reduce
I0403 10:34:49.286958 26896 net.cpp:148] Top shape: 24 160 14 14 (752640)
I0403 10:34:49.286972 26896 net.cpp:156] Memory required for data: 1224064512
I0403 10:34:49.286984 26896 layer_factory.hpp:77] Creating layer inception_4e/3x3
I0403 10:34:49.287012 26896 net.cpp:91] Creating Layer inception_4e/3x3
I0403 10:34:49.287029 26896 net.cpp:425] inception_4e/3x3 <- inception_4e/3x3_reduce
I0403 10:34:49.287047 26896 net.cpp:399] inception_4e/3x3 -> inception_4e/3x3
I0403 10:34:49.290571 26896 net.cpp:141] Setting up inception_4e/3x3
I0403 10:34:49.290598 26896 net.cpp:148] Top shape: 24 320 14 14 (1505280)
I0403 10:34:49.290613 26896 net.cpp:156] Memory required for data: 1230085632
I0403 10:34:49.290630 26896 layer_factory.hpp:77] Creating layer inception_4e/relu_3x3
I0403 10:34:49.290649 26896 net.cpp:91] Creating Layer inception_4e/relu_3x3
I0403 10:34:49.290665 26896 net.cpp:425] inception_4e/relu_3x3 <- inception_4e/3x3
I0403 10:34:49.290681 26896 net.cpp:386] inception_4e/relu_3x3 -> inception_4e/3x3 (in-place)
I0403 10:34:49.290699 26896 net.cpp:141] Setting up inception_4e/relu_3x3
I0403 10:34:49.290715 26896 net.cpp:148] Top shape: 24 320 14 14 (1505280)
I0403 10:34:49.290729 26896 net.cpp:156] Memory required for data: 1236106752
I0403 10:34:49.290742 26896 layer_factory.hpp:77] Creating layer inception_4e/5x5_reduce
I0403 10:34:49.290763 26896 net.cpp:91] Creating Layer inception_4e/5x5_reduce
I0403 10:34:49.290781 26896 net.cpp:425] inception_4e/5x5_reduce <- inception_4d/output_inception_4d/output_0_split_3
I0403 10:34:49.290801 26896 net.cpp:399] inception_4e/5x5_reduce -> inception_4e/5x5_reduce
I0403 10:34:49.291102 26896 net.cpp:141] Setting up inception_4e/5x5_reduce
I0403 10:34:49.291126 26896 net.cpp:148] Top shape: 24 32 14 14 (150528)
I0403 10:34:49.291141 26896 net.cpp:156] Memory required for data: 1236708864
I0403 10:34:49.291157 26896 layer_factory.hpp:77] Creating layer inception_4e/relu_5x5_reduce
I0403 10:34:49.291173 26896 net.cpp:91] Creating Layer inception_4e/relu_5x5_reduce
I0403 10:34:49.291188 26896 net.cpp:425] inception_4e/relu_5x5_reduce <- inception_4e/5x5_reduce
I0403 10:34:49.291204 26896 net.cpp:386] inception_4e/relu_5x5_reduce -> inception_4e/5x5_reduce (in-place)
I0403 10:34:49.291223 26896 net.cpp:141] Setting up inception_4e/relu_5x5_reduce
I0403 10:34:49.291252 26896 net.cpp:148] Top shape: 24 32 14 14 (150528)
I0403 10:34:49.291267 26896 net.cpp:156] Memory required for data: 1237310976
I0403 10:34:49.291280 26896 layer_factory.hpp:77] Creating layer inception_4e/5x5
I0403 10:34:49.291301 26896 net.cpp:91] Creating Layer inception_4e/5x5
I0403 10:34:49.291318 26896 net.cpp:425] inception_4e/5x5 <- inception_4e/5x5_reduce
I0403 10:34:49.291339 26896 net.cpp:399] inception_4e/5x5 -> inception_4e/5x5
I0403 10:34:49.292070 26896 net.cpp:141] Setting up inception_4e/5x5
I0403 10:34:49.292094 26896 net.cpp:148] Top shape: 24 128 14 14 (602112)
I0403 10:34:49.292109 26896 net.cpp:156] Memory required for data: 1239719424
I0403 10:34:49.292124 26896 layer_factory.hpp:77] Creating layer inception_4e/relu_5x5
I0403 10:34:49.292143 26896 net.cpp:91] Creating Layer inception_4e/relu_5x5
I0403 10:34:49.292160 26896 net.cpp:425] inception_4e/relu_5x5 <- inception_4e/5x5
I0403 10:34:49.292176 26896 net.cpp:386] inception_4e/relu_5x5 -> inception_4e/5x5 (in-place)
I0403 10:34:49.292194 26896 net.cpp:141] Setting up inception_4e/relu_5x5
I0403 10:34:49.292210 26896 net.cpp:148] Top shape: 24 128 14 14 (602112)
I0403 10:34:49.292223 26896 net.cpp:156] Memory required for data: 1242127872
I0403 10:34:49.292237 26896 layer_factory.hpp:77] Creating layer inception_4e/pool
I0403 10:34:49.292270 26896 net.cpp:91] Creating Layer inception_4e/pool
I0403 10:34:49.292289 26896 net.cpp:425] inception_4e/pool <- inception_4d/output_inception_4d/output_0_split_4
I0403 10:34:49.292305 26896 net.cpp:399] inception_4e/pool -> inception_4e/pool
I0403 10:34:49.292354 26896 net.cpp:141] Setting up inception_4e/pool
I0403 10:34:49.292376 26896 net.cpp:148] Top shape: 24 528 14 14 (2483712)
I0403 10:34:49.292389 26896 net.cpp:156] Memory required for data: 1252062720
I0403 10:34:49.292403 26896 layer_factory.hpp:77] Creating layer inception_4e/pool_proj
I0403 10:34:49.292424 26896 net.cpp:91] Creating Layer inception_4e/pool_proj
I0403 10:34:49.292440 26896 net.cpp:425] inception_4e/pool_proj <- inception_4e/pool
I0403 10:34:49.292460 26896 net.cpp:399] inception_4e/pool_proj -> inception_4e/pool_proj
I0403 10:34:49.293006 26896 net.cpp:141] Setting up inception_4e/pool_proj
I0403 10:34:49.293030 26896 net.cpp:148] Top shape: 24 128 14 14 (602112)
I0403 10:34:49.293043 26896 net.cpp:156] Memory required for data: 1254471168
I0403 10:34:49.293061 26896 layer_factory.hpp:77] Creating layer inception_4e/relu_pool_proj
I0403 10:34:49.293077 26896 net.cpp:91] Creating Layer inception_4e/relu_pool_proj
I0403 10:34:49.293092 26896 net.cpp:425] inception_4e/relu_pool_proj <- inception_4e/pool_proj
I0403 10:34:49.293108 26896 net.cpp:386] inception_4e/relu_pool_proj -> inception_4e/pool_proj (in-place)
I0403 10:34:49.293126 26896 net.cpp:141] Setting up inception_4e/relu_pool_proj
I0403 10:34:49.293143 26896 net.cpp:148] Top shape: 24 128 14 14 (602112)
I0403 10:34:49.293156 26896 net.cpp:156] Memory required for data: 1256879616
I0403 10:34:49.293169 26896 layer_factory.hpp:77] Creating layer inception_4e/output
I0403 10:34:49.293185 26896 net.cpp:91] Creating Layer inception_4e/output
I0403 10:34:49.293200 26896 net.cpp:425] inception_4e/output <- inception_4e/1x1
I0403 10:34:49.293215 26896 net.cpp:425] inception_4e/output <- inception_4e/3x3
I0403 10:34:49.293229 26896 net.cpp:425] inception_4e/output <- inception_4e/5x5
I0403 10:34:49.293244 26896 net.cpp:425] inception_4e/output <- inception_4e/pool_proj
I0403 10:34:49.293261 26896 net.cpp:399] inception_4e/output -> inception_4e/output
I0403 10:34:49.293298 26896 net.cpp:141] Setting up inception_4e/output
I0403 10:34:49.293318 26896 net.cpp:148] Top shape: 24 832 14 14 (3913728)
I0403 10:34:49.293332 26896 net.cpp:156] Memory required for data: 1272534528
I0403 10:34:49.293345 26896 layer_factory.hpp:77] Creating layer pool4/3x3_s2
I0403 10:34:49.293365 26896 net.cpp:91] Creating Layer pool4/3x3_s2
I0403 10:34:49.293380 26896 net.cpp:425] pool4/3x3_s2 <- inception_4e/output
I0403 10:34:49.293397 26896 net.cpp:399] pool4/3x3_s2 -> pool4/3x3_s2
I0403 10:34:49.293457 26896 net.cpp:141] Setting up pool4/3x3_s2
I0403 10:34:49.293479 26896 net.cpp:148] Top shape: 24 832 7 7 (978432)
I0403 10:34:49.293493 26896 net.cpp:156] Memory required for data: 1276448256
I0403 10:34:49.293506 26896 layer_factory.hpp:77] Creating layer pool4/3x3_s2_pool4/3x3_s2_0_split
I0403 10:34:49.293524 26896 net.cpp:91] Creating Layer pool4/3x3_s2_pool4/3x3_s2_0_split
I0403 10:34:49.293539 26896 net.cpp:425] pool4/3x3_s2_pool4/3x3_s2_0_split <- pool4/3x3_s2
I0403 10:34:49.293557 26896 net.cpp:399] pool4/3x3_s2_pool4/3x3_s2_0_split -> pool4/3x3_s2_pool4/3x3_s2_0_split_0
I0403 10:34:49.293577 26896 net.cpp:399] pool4/3x3_s2_pool4/3x3_s2_0_split -> pool4/3x3_s2_pool4/3x3_s2_0_split_1
I0403 10:34:49.293596 26896 net.cpp:399] pool4/3x3_s2_pool4/3x3_s2_0_split -> pool4/3x3_s2_pool4/3x3_s2_0_split_2
I0403 10:34:49.293614 26896 net.cpp:399] pool4/3x3_s2_pool4/3x3_s2_0_split -> pool4/3x3_s2_pool4/3x3_s2_0_split_3
I0403 10:34:49.293678 26896 net.cpp:141] Setting up pool4/3x3_s2_pool4/3x3_s2_0_split
I0403 10:34:49.293701 26896 net.cpp:148] Top shape: 24 832 7 7 (978432)
I0403 10:34:49.293717 26896 net.cpp:148] Top shape: 24 832 7 7 (978432)
I0403 10:34:49.293732 26896 net.cpp:148] Top shape: 24 832 7 7 (978432)
I0403 10:34:49.293745 26896 net.cpp:148] Top shape: 24 832 7 7 (978432)
I0403 10:34:49.293758 26896 net.cpp:156] Memory required for data: 1292103168
I0403 10:34:49.293771 26896 layer_factory.hpp:77] Creating layer inception_5a/1x1
I0403 10:34:49.293792 26896 net.cpp:91] Creating Layer inception_5a/1x1
I0403 10:34:49.293808 26896 net.cpp:425] inception_5a/1x1 <- pool4/3x3_s2_pool4/3x3_s2_0_split_0
I0403 10:34:49.293828 26896 net.cpp:399] inception_5a/1x1 -> inception_5a/1x1
I0403 10:34:49.295624 26896 net.cpp:141] Setting up inception_5a/1x1
I0403 10:34:49.295650 26896 net.cpp:148] Top shape: 24 256 7 7 (301056)
I0403 10:34:49.295665 26896 net.cpp:156] Memory required for data: 1293307392
I0403 10:34:49.295681 26896 layer_factory.hpp:77] Creating layer inception_5a/relu_1x1
I0403 10:34:49.295699 26896 net.cpp:91] Creating Layer inception_5a/relu_1x1
I0403 10:34:49.295716 26896 net.cpp:425] inception_5a/relu_1x1 <- inception_5a/1x1
I0403 10:34:49.295732 26896 net.cpp:386] inception_5a/relu_1x1 -> inception_5a/1x1 (in-place)
I0403 10:34:49.295749 26896 net.cpp:141] Setting up inception_5a/relu_1x1
I0403 10:34:49.295765 26896 net.cpp:148] Top shape: 24 256 7 7 (301056)
I0403 10:34:49.295778 26896 net.cpp:156] Memory required for data: 1294511616
I0403 10:34:49.295791 26896 layer_factory.hpp:77] Creating layer inception_5a/3x3_reduce
I0403 10:34:49.295812 26896 net.cpp:91] Creating Layer inception_5a/3x3_reduce
I0403 10:34:49.295827 26896 net.cpp:425] inception_5a/3x3_reduce <- pool4/3x3_s2_pool4/3x3_s2_0_split_1
I0403 10:34:49.295848 26896 net.cpp:399] inception_5a/3x3_reduce -> inception_5a/3x3_reduce
I0403 10:34:49.297229 26896 net.cpp:141] Setting up inception_5a/3x3_reduce
I0403 10:34:49.297255 26896 net.cpp:148] Top shape: 24 160 7 7 (188160)
I0403 10:34:49.297269 26896 net.cpp:156] Memory required for data: 1295264256
I0403 10:34:49.297288 26896 layer_factory.hpp:77] Creating layer inception_5a/relu_3x3_reduce
I0403 10:34:49.297305 26896 net.cpp:91] Creating Layer inception_5a/relu_3x3_reduce
I0403 10:34:49.297322 26896 net.cpp:425] inception_5a/relu_3x3_reduce <- inception_5a/3x3_reduce
I0403 10:34:49.297348 26896 net.cpp:386] inception_5a/relu_3x3_reduce -> inception_5a/3x3_reduce (in-place)
I0403 10:34:49.297365 26896 net.cpp:141] Setting up inception_5a/relu_3x3_reduce
I0403 10:34:49.297381 26896 net.cpp:148] Top shape: 24 160 7 7 (188160)
I0403 10:34:49.297394 26896 net.cpp:156] Memory required for data: 1296016896
I0403 10:34:49.297408 26896 layer_factory.hpp:77] Creating layer inception_5a/3x3
I0403 10:34:49.297431 26896 net.cpp:91] Creating Layer inception_5a/3x3
I0403 10:34:49.297447 26896 net.cpp:425] inception_5a/3x3 <- inception_5a/3x3_reduce
I0403 10:34:49.297468 26896 net.cpp:399] inception_5a/3x3 -> inception_5a/3x3
I0403 10:34:49.301009 26896 net.cpp:141] Setting up inception_5a/3x3
I0403 10:34:49.301048 26896 net.cpp:148] Top shape: 24 320 7 7 (376320)
I0403 10:34:49.301064 26896 net.cpp:156] Memory required for data: 1297522176
I0403 10:34:49.301081 26896 layer_factory.hpp:77] Creating layer inception_5a/relu_3x3
I0403 10:34:49.301098 26896 net.cpp:91] Creating Layer inception_5a/relu_3x3
I0403 10:34:49.301115 26896 net.cpp:425] inception_5a/relu_3x3 <- inception_5a/3x3
I0403 10:34:49.301131 26896 net.cpp:386] inception_5a/relu_3x3 -> inception_5a/3x3 (in-place)
I0403 10:34:49.301148 26896 net.cpp:141] Setting up inception_5a/relu_3x3
I0403 10:34:49.301164 26896 net.cpp:148] Top shape: 24 320 7 7 (376320)
I0403 10:34:49.301177 26896 net.cpp:156] Memory required for data: 1299027456
I0403 10:34:49.301190 26896 layer_factory.hpp:77] Creating layer inception_5a/5x5_reduce
I0403 10:34:49.301213 26896 net.cpp:91] Creating Layer inception_5a/5x5_reduce
I0403 10:34:49.301229 26896 net.cpp:425] inception_5a/5x5_reduce <- pool4/3x3_s2_pool4/3x3_s2_0_split_2
I0403 10:34:49.301249 26896 net.cpp:399] inception_5a/5x5_reduce -> inception_5a/5x5_reduce
I0403 10:34:49.301604 26896 net.cpp:141] Setting up inception_5a/5x5_reduce
I0403 10:34:49.301627 26896 net.cpp:148] Top shape: 24 32 7 7 (37632)
I0403 10:34:49.301641 26896 net.cpp:156] Memory required for data: 1299177984
I0403 10:34:49.301658 26896 layer_factory.hpp:77] Creating layer inception_5a/relu_5x5_reduce
I0403 10:34:49.301678 26896 net.cpp:91] Creating Layer inception_5a/relu_5x5_reduce
I0403 10:34:49.301694 26896 net.cpp:425] inception_5a/relu_5x5_reduce <- inception_5a/5x5_reduce
I0403 10:34:49.301710 26896 net.cpp:386] inception_5a/relu_5x5_reduce -> inception_5a/5x5_reduce (in-place)
I0403 10:34:49.301729 26896 net.cpp:141] Setting up inception_5a/relu_5x5_reduce
I0403 10:34:49.301745 26896 net.cpp:148] Top shape: 24 32 7 7 (37632)
I0403 10:34:49.301759 26896 net.cpp:156] Memory required for data: 1299328512
I0403 10:34:49.301770 26896 layer_factory.hpp:77] Creating layer inception_5a/5x5
I0403 10:34:49.301792 26896 net.cpp:91] Creating Layer inception_5a/5x5
I0403 10:34:49.301807 26896 net.cpp:425] inception_5a/5x5 <- inception_5a/5x5_reduce
I0403 10:34:49.301828 26896 net.cpp:399] inception_5a/5x5 -> inception_5a/5x5
I0403 10:34:49.302562 26896 net.cpp:141] Setting up inception_5a/5x5
I0403 10:34:49.302587 26896 net.cpp:148] Top shape: 24 128 7 7 (150528)
I0403 10:34:49.302599 26896 net.cpp:156] Memory required for data: 1299930624
I0403 10:34:49.302615 26896 layer_factory.hpp:77] Creating layer inception_5a/relu_5x5
I0403 10:34:49.302633 26896 net.cpp:91] Creating Layer inception_5a/relu_5x5
I0403 10:34:49.302647 26896 net.cpp:425] inception_5a/relu_5x5 <- inception_5a/5x5
I0403 10:34:49.302664 26896 net.cpp:386] inception_5a/relu_5x5 -> inception_5a/5x5 (in-place)
I0403 10:34:49.302681 26896 net.cpp:141] Setting up inception_5a/relu_5x5
I0403 10:34:49.302697 26896 net.cpp:148] Top shape: 24 128 7 7 (150528)
I0403 10:34:49.302711 26896 net.cpp:156] Memory required for data: 1300532736
I0403 10:34:49.302723 26896 layer_factory.hpp:77] Creating layer inception_5a/pool
I0403 10:34:49.302739 26896 net.cpp:91] Creating Layer inception_5a/pool
I0403 10:34:49.302754 26896 net.cpp:425] inception_5a/pool <- pool4/3x3_s2_pool4/3x3_s2_0_split_3
I0403 10:34:49.302774 26896 net.cpp:399] inception_5a/pool -> inception_5a/pool
I0403 10:34:49.302825 26896 net.cpp:141] Setting up inception_5a/pool
I0403 10:34:49.302846 26896 net.cpp:148] Top shape: 24 832 7 7 (978432)
I0403 10:34:49.302860 26896 net.cpp:156] Memory required for data: 1304446464
I0403 10:34:49.302873 26896 layer_factory.hpp:77] Creating layer inception_5a/pool_proj
I0403 10:34:49.302896 26896 net.cpp:91] Creating Layer inception_5a/pool_proj
I0403 10:34:49.302911 26896 net.cpp:425] inception_5a/pool_proj <- inception_5a/pool
I0403 10:34:49.302930 26896 net.cpp:399] inception_5a/pool_proj -> inception_5a/pool_proj
I0403 10:34:49.304235 26896 net.cpp:141] Setting up inception_5a/pool_proj
I0403 10:34:49.304262 26896 net.cpp:148] Top shape: 24 128 7 7 (150528)
I0403 10:34:49.304277 26896 net.cpp:156] Memory required for data: 1305048576
I0403 10:34:49.304308 26896 layer_factory.hpp:77] Creating layer inception_5a/relu_pool_proj
I0403 10:34:49.304328 26896 net.cpp:91] Creating Layer inception_5a/relu_pool_proj
I0403 10:34:49.304344 26896 net.cpp:425] inception_5a/relu_pool_proj <- inception_5a/pool_proj
I0403 10:34:49.304363 26896 net.cpp:386] inception_5a/relu_pool_proj -> inception_5a/pool_proj (in-place)
I0403 10:34:49.304380 26896 net.cpp:141] Setting up inception_5a/relu_pool_proj
I0403 10:34:49.304397 26896 net.cpp:148] Top shape: 24 128 7 7 (150528)
I0403 10:34:49.304411 26896 net.cpp:156] Memory required for data: 1305650688
I0403 10:34:49.304425 26896 layer_factory.hpp:77] Creating layer inception_5a/output
I0403 10:34:49.304445 26896 net.cpp:91] Creating Layer inception_5a/output
I0403 10:34:49.304461 26896 net.cpp:425] inception_5a/output <- inception_5a/1x1
I0403 10:34:49.304476 26896 net.cpp:425] inception_5a/output <- inception_5a/3x3
I0403 10:34:49.304491 26896 net.cpp:425] inception_5a/output <- inception_5a/5x5
I0403 10:34:49.304507 26896 net.cpp:425] inception_5a/output <- inception_5a/pool_proj
I0403 10:34:49.304523 26896 net.cpp:399] inception_5a/output -> inception_5a/output
I0403 10:34:49.304560 26896 net.cpp:141] Setting up inception_5a/output
I0403 10:34:49.304584 26896 net.cpp:148] Top shape: 24 832 7 7 (978432)
I0403 10:34:49.304599 26896 net.cpp:156] Memory required for data: 1309564416
I0403 10:34:49.304612 26896 layer_factory.hpp:77] Creating layer inception_5a/output_inception_5a/output_0_split
I0403 10:34:49.304630 26896 net.cpp:91] Creating Layer inception_5a/output_inception_5a/output_0_split
I0403 10:34:49.304646 26896 net.cpp:425] inception_5a/output_inception_5a/output_0_split <- inception_5a/output
I0403 10:34:49.304662 26896 net.cpp:399] inception_5a/output_inception_5a/output_0_split -> inception_5a/output_inception_5a/output_0_split_0
I0403 10:34:49.304682 26896 net.cpp:399] inception_5a/output_inception_5a/output_0_split -> inception_5a/output_inception_5a/output_0_split_1
I0403 10:34:49.304703 26896 net.cpp:399] inception_5a/output_inception_5a/output_0_split -> inception_5a/output_inception_5a/output_0_split_2
I0403 10:34:49.304724 26896 net.cpp:399] inception_5a/output_inception_5a/output_0_split -> inception_5a/output_inception_5a/output_0_split_3
I0403 10:34:49.304800 26896 net.cpp:141] Setting up inception_5a/output_inception_5a/output_0_split
I0403 10:34:49.304821 26896 net.cpp:148] Top shape: 24 832 7 7 (978432)
I0403 10:34:49.304836 26896 net.cpp:148] Top shape: 24 832 7 7 (978432)
I0403 10:34:49.304852 26896 net.cpp:148] Top shape: 24 832 7 7 (978432)
I0403 10:34:49.304865 26896 net.cpp:148] Top shape: 24 832 7 7 (978432)
I0403 10:34:49.304878 26896 net.cpp:156] Memory required for data: 1325219328
I0403 10:34:49.304893 26896 layer_factory.hpp:77] Creating layer inception_5b/1x1
I0403 10:34:49.304914 26896 net.cpp:91] Creating Layer inception_5b/1x1
I0403 10:34:49.304931 26896 net.cpp:425] inception_5b/1x1 <- inception_5a/output_inception_5a/output_0_split_0
I0403 10:34:49.304951 26896 net.cpp:399] inception_5b/1x1 -> inception_5b/1x1
I0403 10:34:49.307448 26896 net.cpp:141] Setting up inception_5b/1x1
I0403 10:34:49.307474 26896 net.cpp:148] Top shape: 24 384 7 7 (451584)
I0403 10:34:49.307489 26896 net.cpp:156] Memory required for data: 1327025664
I0403 10:34:49.307507 26896 layer_factory.hpp:77] Creating layer inception_5b/relu_1x1
I0403 10:34:49.307524 26896 net.cpp:91] Creating Layer inception_5b/relu_1x1
I0403 10:34:49.307540 26896 net.cpp:425] inception_5b/relu_1x1 <- inception_5b/1x1
I0403 10:34:49.307556 26896 net.cpp:386] inception_5b/relu_1x1 -> inception_5b/1x1 (in-place)
I0403 10:34:49.307575 26896 net.cpp:141] Setting up inception_5b/relu_1x1
I0403 10:34:49.307591 26896 net.cpp:148] Top shape: 24 384 7 7 (451584)
I0403 10:34:49.307605 26896 net.cpp:156] Memory required for data: 1328832000
I0403 10:34:49.307620 26896 layer_factory.hpp:77] Creating layer inception_5b/3x3_reduce
I0403 10:34:49.307641 26896 net.cpp:91] Creating Layer inception_5b/3x3_reduce
I0403 10:34:49.307669 26896 net.cpp:425] inception_5b/3x3_reduce <- inception_5a/output_inception_5a/output_0_split_1
I0403 10:34:49.307693 26896 net.cpp:399] inception_5b/3x3_reduce -> inception_5b/3x3_reduce
I0403 10:34:49.309270 26896 net.cpp:141] Setting up inception_5b/3x3_reduce
I0403 10:34:49.309296 26896 net.cpp:148] Top shape: 24 192 7 7 (225792)
I0403 10:34:49.309311 26896 net.cpp:156] Memory required for data: 1329735168
I0403 10:34:49.309330 26896 layer_factory.hpp:77] Creating layer inception_5b/relu_3x3_reduce
I0403 10:34:49.309347 26896 net.cpp:91] Creating Layer inception_5b/relu_3x3_reduce
I0403 10:34:49.309365 26896 net.cpp:425] inception_5b/relu_3x3_reduce <- inception_5b/3x3_reduce
I0403 10:34:49.309381 26896 net.cpp:386] inception_5b/relu_3x3_reduce -> inception_5b/3x3_reduce (in-place)
I0403 10:34:49.309399 26896 net.cpp:141] Setting up inception_5b/relu_3x3_reduce
I0403 10:34:49.309417 26896 net.cpp:148] Top shape: 24 192 7 7 (225792)
I0403 10:34:49.309430 26896 net.cpp:156] Memory required for data: 1330638336
I0403 10:34:49.309444 26896 layer_factory.hpp:77] Creating layer inception_5b/3x3
I0403 10:34:49.309466 26896 net.cpp:91] Creating Layer inception_5b/3x3
I0403 10:34:49.309484 26896 net.cpp:425] inception_5b/3x3 <- inception_5b/3x3_reduce
I0403 10:34:49.309504 26896 net.cpp:399] inception_5b/3x3 -> inception_5b/3x3
I0403 10:34:49.314568 26896 net.cpp:141] Setting up inception_5b/3x3
I0403 10:34:49.314595 26896 net.cpp:148] Top shape: 24 384 7 7 (451584)
I0403 10:34:49.314610 26896 net.cpp:156] Memory required for data: 1332444672
I0403 10:34:49.314627 26896 layer_factory.hpp:77] Creating layer inception_5b/relu_3x3
I0403 10:34:49.314646 26896 net.cpp:91] Creating Layer inception_5b/relu_3x3
I0403 10:34:49.314664 26896 net.cpp:425] inception_5b/relu_3x3 <- inception_5b/3x3
I0403 10:34:49.314682 26896 net.cpp:386] inception_5b/relu_3x3 -> inception_5b/3x3 (in-place)
I0403 10:34:49.314700 26896 net.cpp:141] Setting up inception_5b/relu_3x3
I0403 10:34:49.314718 26896 net.cpp:148] Top shape: 24 384 7 7 (451584)
I0403 10:34:49.314730 26896 net.cpp:156] Memory required for data: 1334251008
I0403 10:34:49.314744 26896 layer_factory.hpp:77] Creating layer inception_5b/5x5_reduce
I0403 10:34:49.314766 26896 net.cpp:91] Creating Layer inception_5b/5x5_reduce
I0403 10:34:49.314784 26896 net.cpp:425] inception_5b/5x5_reduce <- inception_5a/output_inception_5a/output_0_split_2
I0403 10:34:49.314801 26896 net.cpp:399] inception_5b/5x5_reduce -> inception_5b/5x5_reduce
I0403 10:34:49.315253 26896 net.cpp:141] Setting up inception_5b/5x5_reduce
I0403 10:34:49.315276 26896 net.cpp:148] Top shape: 24 48 7 7 (56448)
I0403 10:34:49.315290 26896 net.cpp:156] Memory required for data: 1334476800
I0403 10:34:49.315306 26896 layer_factory.hpp:77] Creating layer inception_5b/relu_5x5_reduce
I0403 10:34:49.315325 26896 net.cpp:91] Creating Layer inception_5b/relu_5x5_reduce
I0403 10:34:49.315340 26896 net.cpp:425] inception_5b/relu_5x5_reduce <- inception_5b/5x5_reduce
I0403 10:34:49.315359 26896 net.cpp:386] inception_5b/relu_5x5_reduce -> inception_5b/5x5_reduce (in-place)
I0403 10:34:49.315378 26896 net.cpp:141] Setting up inception_5b/relu_5x5_reduce
I0403 10:34:49.315395 26896 net.cpp:148] Top shape: 24 48 7 7 (56448)
I0403 10:34:49.315408 26896 net.cpp:156] Memory required for data: 1334702592
I0403 10:34:49.315423 26896 layer_factory.hpp:77] Creating layer inception_5b/5x5
I0403 10:34:49.315444 26896 net.cpp:91] Creating Layer inception_5b/5x5
I0403 10:34:49.315461 26896 net.cpp:425] inception_5b/5x5 <- inception_5b/5x5_reduce
I0403 10:34:49.315479 26896 net.cpp:399] inception_5b/5x5 -> inception_5b/5x5
I0403 10:34:49.316524 26896 net.cpp:141] Setting up inception_5b/5x5
I0403 10:34:49.316550 26896 net.cpp:148] Top shape: 24 128 7 7 (150528)
I0403 10:34:49.316566 26896 net.cpp:156] Memory required for data: 1335304704
I0403 10:34:49.316583 26896 layer_factory.hpp:77] Creating layer inception_5b/relu_5x5
I0403 10:34:49.316601 26896 net.cpp:91] Creating Layer inception_5b/relu_5x5
I0403 10:34:49.316617 26896 net.cpp:425] inception_5b/relu_5x5 <- inception_5b/5x5
I0403 10:34:49.316650 26896 net.cpp:386] inception_5b/relu_5x5 -> inception_5b/5x5 (in-place)
I0403 10:34:49.316671 26896 net.cpp:141] Setting up inception_5b/relu_5x5
I0403 10:34:49.316689 26896 net.cpp:148] Top shape: 24 128 7 7 (150528)
I0403 10:34:49.316701 26896 net.cpp:156] Memory required for data: 1335906816
I0403 10:34:49.316715 26896 layer_factory.hpp:77] Creating layer inception_5b/pool
I0403 10:34:49.316731 26896 net.cpp:91] Creating Layer inception_5b/pool
I0403 10:34:49.316747 26896 net.cpp:425] inception_5b/pool <- inception_5a/output_inception_5a/output_0_split_3
I0403 10:34:49.316764 26896 net.cpp:399] inception_5b/pool -> inception_5b/pool
I0403 10:34:49.316817 26896 net.cpp:141] Setting up inception_5b/pool
I0403 10:34:49.316840 26896 net.cpp:148] Top shape: 24 832 7 7 (978432)
I0403 10:34:49.316854 26896 net.cpp:156] Memory required for data: 1339820544
I0403 10:34:49.316869 26896 layer_factory.hpp:77] Creating layer inception_5b/pool_proj
I0403 10:34:49.316890 26896 net.cpp:91] Creating Layer inception_5b/pool_proj
I0403 10:34:49.316906 26896 net.cpp:425] inception_5b/pool_proj <- inception_5b/pool
I0403 10:34:49.316925 26896 net.cpp:399] inception_5b/pool_proj -> inception_5b/pool_proj
I0403 10:34:49.318210 26896 net.cpp:141] Setting up inception_5b/pool_proj
I0403 10:34:49.318238 26896 net.cpp:148] Top shape: 24 128 7 7 (150528)
I0403 10:34:49.318253 26896 net.cpp:156] Memory required for data: 1340422656
I0403 10:34:49.318269 26896 layer_factory.hpp:77] Creating layer inception_5b/relu_pool_proj
I0403 10:34:49.318287 26896 net.cpp:91] Creating Layer inception_5b/relu_pool_proj
I0403 10:34:49.318305 26896 net.cpp:425] inception_5b/relu_pool_proj <- inception_5b/pool_proj
I0403 10:34:49.318325 26896 net.cpp:386] inception_5b/relu_pool_proj -> inception_5b/pool_proj (in-place)
I0403 10:34:49.318344 26896 net.cpp:141] Setting up inception_5b/relu_pool_proj
I0403 10:34:49.318362 26896 net.cpp:148] Top shape: 24 128 7 7 (150528)
I0403 10:34:49.318375 26896 net.cpp:156] Memory required for data: 1341024768
I0403 10:34:49.318389 26896 layer_factory.hpp:77] Creating layer inception_5b/output
I0403 10:34:49.318405 26896 net.cpp:91] Creating Layer inception_5b/output
I0403 10:34:49.318420 26896 net.cpp:425] inception_5b/output <- inception_5b/1x1
I0403 10:34:49.318436 26896 net.cpp:425] inception_5b/output <- inception_5b/3x3
I0403 10:34:49.318451 26896 net.cpp:425] inception_5b/output <- inception_5b/5x5
I0403 10:34:49.318466 26896 net.cpp:425] inception_5b/output <- inception_5b/pool_proj
I0403 10:34:49.318483 26896 net.cpp:399] inception_5b/output -> inception_5b/output
I0403 10:34:49.318522 26896 net.cpp:141] Setting up inception_5b/output
I0403 10:34:49.318544 26896 net.cpp:148] Top shape: 24 1024 7 7 (1204224)
I0403 10:34:49.318558 26896 net.cpp:156] Memory required for data: 1345841664
I0403 10:34:49.318572 26896 layer_factory.hpp:77] Creating layer pool5/7x7_s1
I0403 10:34:49.318589 26896 net.cpp:91] Creating Layer pool5/7x7_s1
I0403 10:34:49.318608 26896 net.cpp:425] pool5/7x7_s1 <- inception_5b/output
I0403 10:34:49.318625 26896 net.cpp:399] pool5/7x7_s1 -> pool5/7x7_s1
I0403 10:34:49.318665 26896 net.cpp:141] Setting up pool5/7x7_s1
I0403 10:34:49.318687 26896 net.cpp:148] Top shape: 24 1024 1 1 (24576)
I0403 10:34:49.318701 26896 net.cpp:156] Memory required for data: 1345939968
I0403 10:34:49.318714 26896 layer_factory.hpp:77] Creating layer pool5/drop_7x7_s1
I0403 10:34:49.318732 26896 net.cpp:91] Creating Layer pool5/drop_7x7_s1
I0403 10:34:49.318747 26896 net.cpp:425] pool5/drop_7x7_s1 <- pool5/7x7_s1
I0403 10:34:49.318766 26896 net.cpp:386] pool5/drop_7x7_s1 -> pool5/7x7_s1 (in-place)
I0403 10:34:49.318804 26896 net.cpp:141] Setting up pool5/drop_7x7_s1
I0403 10:34:49.318825 26896 net.cpp:148] Top shape: 24 1024 1 1 (24576)
I0403 10:34:49.318838 26896 net.cpp:156] Memory required for data: 1346038272
I0403 10:34:49.318851 26896 layer_factory.hpp:77] Creating layer loss3/classifier_plantvillage
I0403 10:34:49.318873 26896 net.cpp:91] Creating Layer loss3/classifier_plantvillage
I0403 10:34:49.318902 26896 net.cpp:425] loss3/classifier_plantvillage <- pool5/7x7_s1
I0403 10:34:49.318924 26896 net.cpp:399] loss3/classifier_plantvillage -> loss3/classifier_plantvillage
I0403 10:34:49.319265 26896 net.cpp:141] Setting up loss3/classifier_plantvillage
I0403 10:34:49.319289 26896 net.cpp:148] Top shape: 24 38 (912)
I0403 10:34:49.319304 26896 net.cpp:156] Memory required for data: 1346041920
I0403 10:34:49.319321 26896 layer_factory.hpp:77] Creating layer loss1/loss
I0403 10:34:49.319347 26896 net.cpp:91] Creating Layer loss1/loss
I0403 10:34:49.319365 26896 net.cpp:425] loss1/loss <- loss1/classifier_plantvillage
I0403 10:34:49.319381 26896 net.cpp:425] loss1/loss <- label_data_1_split_0
I0403 10:34:49.319398 26896 net.cpp:399] loss1/loss -> loss1/loss
…
I0403 10:34:49.328811 26896 net.cpp:313] The NetState phase (1) differed from the phase (0) specified by a rule in layer data
I0403 10:34:49.332509 26896 net.cpp:49] Initializing net from parameters: 
state {
  phase: TEST
}
layer {
  name: "data"
  type: "Data"
  top: "data"
  top: "label"
  include {
    phase: TEST
  }
  transform_param {
    mirror: false
    crop_size: 224
    mean_file: "/home/mohanty/data/final_dataset/lmdb/segmented-50-50/mean.binaryproto"
  }
  data_param {
    source: "/home/mohanty/data/final_dataset/lmdb/segmented-50-50/test_db"
    batch_size: 24
    backend: LMDB
  }
}
layer {
  name: "conv1/7x7_s2"
  type: "Convolution"
  bottom: "data"
  top: "conv1/7x7_s2"
  param {
    lr_mult: 1
    decay_mult: 1
  }
  param {
    lr_mult: 2
    decay_mult: 0
  }
  convolution_param {
    num_output: 64
    pad: 3
    kernel_size: 7
    stride: 2
    weight_filler {
      type: "xavier"
      std: 0.1
    }
    bias_filler {
      type: "constant"
      value: 0.2
    }
  }
}
layer {
  name: "conv1/relu_7x7"
  type: "ReLU"
  bottom: "conv1/7x7_s2"
  top: "conv1/7x7_s2"
}
layer {
  name: "pool1/3x3_s2"
  type: "Pooling"
  bottom: "conv1/7x7_s2"
  top: "pool1/3x3_s2"
  pooling_param {
    pool: MAX
    kernel_size: 3
    stride: 2
  }
}
layer {
  name: "pool1/norm1"
  type: "LRN"
  bottom: "pool1/3x3_s2"
  top: "pool1/norm1"
  lrn_param {
    local_size: 5
    alpha: 0.0001
    beta: 0.75
  }
}
layer {
  name: "conv2/3x3_reduce"
  type: "Convolution"
  bottom: "pool1/norm1"
  top: "conv2/3x3_reduce"
  param {
    lr_mult: 1
    decay_mult: 1
  }
  param {
    lr_mult: 2
    decay_mult: 0
  }
  convolution_param {
    num_output: 64
    kernel_size: 1
    weight_filler {
      type: "xavier"
      std: 0.1
    }
    bias_filler {
      type: "constant"
      value: 0.2
    }
  }
}
layer {
  name: "conv2/relu_3x3_reduce"
  type: "ReLU"
  bottom: "conv2/3x3_reduce"
  top: "conv2/3x3_reduce"
}
layer {
  name: "conv2/3x3"
  type: "Convolution"
  bottom: "conv2/3x3_reduce"
  top: "conv2/3x3"
  param {
    lr_mult: 1
    decay_mult: 1
  }
  param {
    lr_mult: 2
    decay_mult: 0
  }
  convolution_param {
    num_output: 192
    pad: 1
    kernel_size: 3
    weight_filler {
      type: "xavier"
      std: 0.03
    }
    bias_filler {
      type: "constant"
      value: 0.2
    }
  }
}
layer {
  name: "conv2/relu_3x3"
  type: "ReLU"
  bottom: "conv2/3x3"
  top: "conv2/3x3"
}
layer {
  name: "conv2/norm2"
  type: "LRN"
  bottom: "conv2/3x3"
  top: "conv2/norm2"
  lrn_param {
    local_size: 5
    alpha: 0.0001
    beta: 0.75
  }
}
layer {
  name: "pool2/3x3_s2"
  type: "Pooling"
  bottom: "conv2/norm2"
  top: "pool2/3x3_s2"
  pooling_param {
    pool: MAX
    kernel_size: 3
    stride: 2
  }
}
layer {
  name: "inception_3a/1x1"
  type: "Convolution"
  bottom: "pool2/3x3_s2"
  top: "inception_3a/1x1"
  param {
    lr_mult: 1
    decay_mult: 1
  }
  param {
    lr_mult: 2
    decay_mult: 0
  }
  convolution_param {
    num_output: 64
    kernel_size: 1
    weight_filler {
      type: "xavier"
      std: 0.03
    }
    bias_filler {
      type: "constant"
      value: 0.2
    }
  }
}
layer {
  name: "inception_3a/relu_1x1"
  type: "ReLU"
  bottom: "inception_3a/1x1"
  top: "inception_3a/1x1"
}
layer {
  name: "inception_3a/3x3_reduce"
  type: "Convolution"
  bottom: "pool2/3x3_s2"
  top: "inception_3a/3x3_reduce"
  param {
    lr_mult: 1
    decay_mult: 1
  }
  param {
    lr_mult: 2
    decay_mult: 0
  }
  convolution_param {
    num_output: 96
    kernel_size: 1
    weight_filler {
      type: "xavier"
      std: 0.09
    }
    bias_filler {
      type: "constant"
      value: 0.2
    }
  }
}
layer {
  name: "inception_3a/relu_3x3_reduce"
  type: "ReLU"
  bottom: "inception_3a/3x3_reduce"
  top: "inception_3a/3x3_reduce"
}
layer {
  name: "inception_3a/3x3"
  type: "Convolution"
  bottom: "inception_3a/3x3_reduce"
  top: "inception_3a/3x3"
  param {
    lr_mult: 1
    decay_mult: 1
  }
  param {
    lr_mult: 2
    decay_mult: 0
  }
  convolution_param {
    num_output: 128
    pad: 1
    kernel_size: 3
    weight_filler {
      type: "xavier"
      std: 0.03
    }
    bias_filler {
      type: "constant"
      value: 0.2
    }
  }
}
layer {
  name: "inception_3a/relu_3x3"
  type: "ReLU"
  bottom: "inception_3a/3x3"
  top: "inception_3a/3x3"
}
layer {
  name: "inception_3a/5x5_reduce"
  type: "Convolution"
  bottom: "pool2/3x3_s2"
  top: "inception_3a/5x5_reduce"
  param {
    lr_mult: 1
    decay_mult: 1
  }
  param {
    lr_mult: 2
    decay_mult: 0
  }
  convolution_param {
    num_output: 16
    kernel_size: 1
    weight_filler {
      type: "xavier"
      std: 0.2
    }
    bias_filler {
      type: "constant"
      value: 0.2
    }
  }
}
layer {
  name: "inception_3a/relu_5x5_reduce"
  type: "ReLU"
  bottom: "inception_3a/5x5_reduce"
  top: "inception_3a/5x5_reduce"
}
layer {
  name: "inception_3a/5x5"
  type: "Convolution"
  bottom: "inception_3a/5x5_reduce"
  top: "inception_3a/5x5"
  param {
    lr_mult: 1
    decay_mult: 1
  }
  param {
    lr_mult: 2
    decay_mult: 0
  }
  convolution_param {
    num_output: 32
    pad: 2
    kernel_size: 5
    weight_filler {
      type: "xavier"
      std: 0.03
    }
    bias_filler {
      type: "constant"
      value: 0.2
    }
  }
}
layer {
  name: "inception_3a/relu_5x5"
  type: "ReLU"
  bottom: "inception_3a/5x5"
  top: "inception_3a/5x5"
}
layer {
  name: "inception_3a/pool"
  type: "Pooling"
  bottom: "pool2/3x3_s2"
  top: "inception_3a/pool"
  pooling_param {
    pool: MAX
    kernel_size: 3
    stride: 1
    pad: 1
  }
}
layer {
  name: "inception_3a/pool_proj"
  type: "Convolution"
  bottom: "inception_3a/pool"
  top: "inception_3a/pool_proj"
  param {
    lr_mult: 1
    decay_mult: 1
  }
  param {
    lr_mult: 2
    decay_mult: 0
  }
  convolution_param {
    num_output: 32
    kernel_size: 1
    weight_filler {
      type: "xavier"
      std: 0.1
    }
    bias_filler {
      type: "constant"
      value: 0.2
    }
  }
}
layer {
  name: "inception_3a/relu_pool_proj"
  type: "ReLU"
  bottom: "inception_3a/pool_proj"
  top: "inception_3a/pool_proj"
}
layer {
  name: "inception_3a/output"
  type: "Concat"
  bottom: "inception_3a/1x1"
  bottom: "inception_3a/3x3"
  bottom: "inception_3a/5x5"
  bottom: "inception_3a/pool_proj"
  top: "inception_3a/output"
}
layer {
  name: "inception_3b/1x1"
  type: "Convolution"
  bottom: "inception_3a/output"
  top: "inception_3b/1x1"
  param {
    lr_mult: 1
    decay_mult: 1
  }
  param {
    lr_mult: 2
    decay_mult: 0
  }
  convolution_param {
    num_output: 128
    kernel_size: 1
    weight_filler {
      type: "xavier"
      std: 0.03
    }
    bias_filler {
      type: "constant"
      value: 0.2
    }
  }
}
layer {
  name: "inception_3b/relu_1x1"
  type: "ReLU"
  bottom: "inception_3b/1x1"
  top: "inception_3b/1x1"
}
layer {
  name: "inception_3b/3x3_reduce"
  type: "Convolution"
  bottom: "inception_3a/output"
  top: "inception_3b/3x3_reduce"
  param {
    lr_mult: 1
    decay_mult: 1
  }
  param {
    lr_mult: 2
    decay_mult: 0
  }
  convolution_param {
    num_output: 128
    kernel_size: 1
    weight_filler {
      type: "xavier"
      std: 0.09
    }
    bias_filler {
      type: "constant"
      value: 0.2
    }
  }
}
layer {
  name: "inception_3b/relu_3x3_reduce"
  type: "ReLU"
  bottom: "inception_3b/3x3_reduce"
  top: "inception_3b/3x3_reduce"
}
layer {
  name: "inception_3b/3x3"
  type: "Convolution"
  bottom: "inception_3b/3x3_reduce"
  top: "inception_3b/3x3"
  param {
    lr_mult: 1
    decay_mult: 1
  }
  param {
    lr_mult: 2
    decay_mult: 0
  }
  convolution_param {
    num_output: 192
    pad: 1
    kernel_size: 3
    weight_filler {
      type: "xavier"
      std: 0.03
    }
    bias_filler {
      type: "constant"
      value: 0.2
    }
  }
}
layer {
  name: "inception_3b/relu_3x3"
  type: "ReLU"
  bottom: "inception_3b/3x3"
  top: "inception_3b/3x3"
}
layer {
  name: "inception_3b/5x5_reduce"
  type: "Convolution"
  bottom: "inception_3a/output"
  top: "inception_3b/5x5_reduce"
  param {
    lr_mult: 1
    decay_mult: 1
  }
  param {
    lr_mult: 2
    decay_mult: 0
  }
  convolution_param {
    num_output: 32
    kernel_size: 1
    weight_filler {
      type: "xavier"
      std: 0.2
    }
    bias_filler {
      type: "constant"
      value: 0.2
    }
  }
}
layer {
  name: "inception_3b/relu_5x5_reduce"
  type: "ReLU"
  bottom: "inception_3b/5x5_reduce"
  top: "inception_3b/5x5_reduce"
}
layer {
  name: "inception_3b/5x5"
  type: "Convolution"
  bottom: "inception_3b/5x5_reduce"
  top: "inception_3b/5x5"
  param {
    lr_mult: 1
    decay_mult: 1
  }
  param {
    lr_mult: 2
    decay_mult: 0
  }
  convolution_param {
    num_output: 96
    pad: 2
    kernel_size: 5
    weight_filler {
      type: "xavier"
      std: 0.03
    }
    bias_filler {
      type: "constant"
      value: 0.2
    }
  }
}
layer {
  name: "inception_3b/relu_5x5"
  type: "ReLU"
  bottom: "inception_3b/5x5"
  top: "inception_3b/5x5"
}
layer {
  name: "inception_3b/pool"
  type: "Pooling"
  bottom: "inception_3a/output"
  top: "inception_3b/pool"
  pooling_param {
    pool: MAX
    kernel_size: 3
    stride: 1
    pad: 1
  }
}
layer {
  name: "inception_3b/pool_proj"
  type: "Convolution"
  bottom: "inception_3b/pool"
  top: "inception_3b/pool_proj"
  param {
    lr_mult: 1
    decay_mult: 1
  }
  param {
    lr_mult: 2
    decay_mult: 0
  }
  convolution_param {
    num_output: 64
    kernel_size: 1
    weight_filler {
      type: "xavier"
      std: 0.1
    }
    bias_filler {
      type: "constant"
      value: 0.2
    }
  }
}
layer {
  name: "inception_3b/relu_pool_proj"
  type: "ReLU"
  bottom: "inception_3b/pool_proj"
  top: "inception_3b/pool_proj"
}
layer {
  name: "inception_3b/output"
  type: "Concat"
  bottom: "inception_3b/1x1"
  bottom: "inception_3b/3x3"
  bottom: "inception_3b/5x5"
  bottom: "inception_3b/pool_proj"
  top: "inception_3b/output"
}
layer {
  name: "pool3/3x3_s2"
  type: "Pooling"
  bottom: "inception_3b/output"
  top: "pool3/3x3_s2"
  pooling_param {
    pool: MAX
    kernel_size: 3
    stride: 2
  }
}
layer {
  name: "inception_4a/1x1"
  type: "Convolution"
  bottom: "pool3/3x3_s2"
  top: "inception_4a/1x1"
  param {
    lr_mult: 1
    decay_mult: 1
  }
  param {
    lr_mult: 2
    decay_mult: 0
  }
  convolution_param {
    num_output: 192
    kernel_size: 1
    weight_filler {
      type: "xavier"
      std: 0.03
    }
    bias_filler {
      type: "constant"
      value: 0.2
    }
  }
}
layer {
  name: "inception_4a/relu_1x1"
  type: "ReLU"
  bottom: "inception_4a/1x1"
  top: "inception_4a/1x1"
}
layer {
  name: "inception_4a/3x3_reduce"
  type: "Convolution"
  bottom: "pool3/3x3_s2"
  top: "inception_4a/3x3_reduce"
  param {
    lr_mult: 1
    decay_mult: 1
  }
  param {
    lr_mult: 2
    decay_mult: 0
  }
  convolution_param {
    num_output: 96
    kernel_size: 1
    weight_filler {
      type: "xavier"
      std: 0.09
    }
    bias_filler {
      type: "constant"
      value: 0.2
    }
  }
}
layer {
  name: "inception_4a/relu_3x3_reduce"
  type: "ReLU"
  bottom: "inception_4a/3x3_reduce"
  top: "inception_4a/3x3_reduce"
}
layer {
  name: "inception_4a/3x3"
  type: "Convolution"
  bottom: "inception_4a/3x3_reduce"
  top: "inception_4a/3x3"
  param {
    lr_mult: 1
    decay_mult: 1
  }
  param {
    lr_mult: 2
    decay_mult: 0
  }
  convolution_param {
    num_output: 208
    pad: 1
    kernel_size: 3
    weight_filler {
      type: "xavier"
      std: 0.03
    }
    bias_filler {
      type: "constant"
      value: 0.2
    }
  }
}
layer {
  name: "inception_4a/relu_3x3"
  type: "ReLU"
  bottom: "inception_4a/3x3"
  top: "inception_4a/3x3"
}
layer {
  name: "inception_4a/5x5_reduce"
  type: "Convolution"
  bottom: "pool3/3x3_s2"
  top: "inception_4a/5x5_reduce"
  param {
    lr_mult: 1
    decay_mult: 1
  }
  param {
    lr_mult: 2
    decay_mult: 0
  }
  convolution_param {
    num_output: 16
    kernel_size: 1
    weight_filler {
      type: "xavier"
      std: 0.2
    }
    bias_filler {
      type: "constant"
      value: 0.2
    }
  }
}
layer {
  name: "inception_4a/relu_5x5_reduce"
  type: "ReLU"
  bottom: "inception_4a/5x5_reduce"
  top: "inception_4a/5x5_reduce"
}
layer {
  name: "inception_4a/5x5"
  type: "Convolution"
  bottom: "inception_4a/5x5_reduce"
  top: "inception_4a/5x5"
  param {
    lr_mult: 1
    decay_mult: 1
  }
  param {
    lr_mult: 2
    decay_mult: 0
  }
  convolution_param {
    num_output: 48
    pad: 2
    kernel_size: 5
    weight_filler {
      type: "xavier"
      std: 0.03
    }
    bias_filler {
      type: "constant"
      value: 0.2
    }
  }
}
layer {
  name: "inception_4a/relu_5x5"
  type: "ReLU"
  bottom: "inception_4a/5x5"
  top: "inception_4a/5x5"
}
layer {
  name: "inception_4a/pool"
  type: "Pooling"
  bottom: "pool3/3x3_s2"
  top: "inception_4a/pool"
  pooling_param {
    pool: MAX
    kernel_size: 3
    stride: 1
    pad: 1
  }
}
layer {
  name: "inception_4a/pool_proj"
  type: "Convolution"
  bottom: "inception_4a/pool"
  top: "inception_4a/pool_proj"
  param {
    lr_mult: 1
    decay_mult: 1
  }
  param {
    lr_mult: 2
    decay_mult: 0
  }
  convolution_param {
    num_output: 64
    kernel_size: 1
    weight_filler {
      type: "xavier"
      std: 0.1
    }
    bias_filler {
      type: "constant"
      value: 0.2
    }
  }
}
layer {
  name: "inception_4a/relu_pool_proj"
  type: "ReLU"
  bottom: "inception_4a/pool_proj"
  top: "inception_4a/pool_proj"
}
layer {
  name: "inception_4a/output"
  type: "Concat"
  bottom: "inception_4a/1x1"
  bottom: "inception_4a/3x3"
  bottom: "inception_4a/5x5"
  bottom: "inception_4a/pool_proj"
  top: "inception_4a/output"
}
layer {
  name: "loss1/ave_pool"
  type: "Pooling"
  bottom: "inception_4a/output"
  top: "loss1/ave_pool"
  pooling_param {
    pool: AVE
    kernel_size: 5
    stride: 3
  }
}
layer {
  name: "loss1/conv"
  type: "Convolution"
  bottom: "loss1/ave_pool"
  top: "loss1/conv"
  param {
    lr_mult: 1
    decay_mult: 1
  }
  param {
    lr_mult: 2
    decay_mult: 0
  }
  convolution_param {
    num_output: 128
    kernel_size: 1
    weight_filler {
      type: "xavier"
      std: 0.08
    }
    bias_filler {
      type: "constant"
      value: 0.2
    }
  }
}
layer {
  name: "loss1/relu_conv"
  type: "ReLU"
  bottom: "loss1/conv"
  top: "loss1/conv"
}
layer {
  name: "loss1/fc"
  type: "InnerProduct"
  bottom: "loss1/conv"
  top: "loss1/fc"
  param {
    lr_mult: 1
    decay_mult: 1
  }
  param {
    lr_mult: 2
    decay_mult: 0
  }
  inner_product_param {
    num_output: 1024
    weight_filler {
      type: "xavier"
      std: 0.02
    }
    bias_filler {
      type: "constant"
      value: 0.2
    }
  }
}
layer {
  name: "loss1/relu_fc"
  type: "ReLU"
  bottom: "loss1/fc"
  top: "loss1/fc"
}
layer {
  name: "loss1/drop_fc"
  type: "Dropout"
  bottom: "loss1/fc"
  top: "loss1/fc"
  dropout_param {
    dropout_ratio: 0.7
  }
}
layer {
  name: "loss1/classifier_plantvillage"
  type: "InnerProduct"
  bottom: "loss1/fc"
  top: "loss1/classifier_plantvillage"
  param {
    lr_mult: 1
    decay_mult: 1
  }
  param {
    lr_mult: 2
    decay_mult: 0
  }
  inner_product_param {
    num_output: 38
    weight_filler {
      type: "xavier"
      std: 0.0009765625
    }
    bias_filler {
      type: "constant"
      value: 0
    }
  }
}
layer {
  name: "inception_4b/1x1"
  type: "Convolution"
  bottom: "inception_4a/output"
  top: "inception_4b/1x1"
  param {
    lr_mult: 1
    decay_mult: 1
  }
  param {
    lr_mult: 2
    decay_mult: 0
  }
  convolution_param {
    num_output: 160
    kernel_size: 1
    weight_filler {
      type: "xavier"
      std: 0.03
    }
    bias_filler {
      type: "constant"
      value: 0.2
    }
  }
}
layer {
…
I0403 10:34:49.508452 26896 layer_factory.hpp:77] Creating layer inception_4c/pool
I0403 10:34:49.508471 26896 net.cpp:91] Creating Layer inception_4c/pool
I0403 10:34:49.508486 26896 net.cpp:425] inception_4c/pool <- inception_4b/output_inception_4b/output_0_split_3
I0403 10:34:49.508507 26896 net.cpp:399] inception_4c/pool -> inception_4c/pool
I0403 10:34:49.508564 26896 net.cpp:141] Setting up inception_4c/pool
I0403 10:34:49.508590 26896 net.cpp:148] Top shape: 24 512 14 14 (2408448)
I0403 10:34:49.508605 26896 net.cpp:156] Memory required for data: 1060605120
I0403 10:34:49.508620 26896 layer_factory.hpp:77] Creating layer inception_4c/pool_proj
I0403 10:34:49.508641 26896 net.cpp:91] Creating Layer inception_4c/pool_proj
I0403 10:34:49.508657 26896 net.cpp:425] inception_4c/pool_proj <- inception_4c/pool
I0403 10:34:49.508678 26896 net.cpp:399] inception_4c/pool_proj -> inception_4c/pool_proj
I0403 10:34:49.509114 26896 net.cpp:141] Setting up inception_4c/pool_proj
I0403 10:34:49.509140 26896 net.cpp:148] Top shape: 24 64 14 14 (301056)
I0403 10:34:49.509155 26896 net.cpp:156] Memory required for data: 1061809344
I0403 10:34:49.509171 26896 layer_factory.hpp:77] Creating layer inception_4c/relu_pool_proj
I0403 10:34:49.509189 26896 net.cpp:91] Creating Layer inception_4c/relu_pool_proj
I0403 10:34:49.509207 26896 net.cpp:425] inception_4c/relu_pool_proj <- inception_4c/pool_proj
I0403 10:34:49.509227 26896 net.cpp:386] inception_4c/relu_pool_proj -> inception_4c/pool_proj (in-place)
I0403 10:34:49.509248 26896 net.cpp:141] Setting up inception_4c/relu_pool_proj
I0403 10:34:49.509266 26896 net.cpp:148] Top shape: 24 64 14 14 (301056)
I0403 10:34:49.509280 26896 net.cpp:156] Memory required for data: 1063013568
I0403 10:34:49.509294 26896 layer_factory.hpp:77] Creating layer inception_4c/output
I0403 10:34:49.509311 26896 net.cpp:91] Creating Layer inception_4c/output
I0403 10:34:49.509327 26896 net.cpp:425] inception_4c/output <- inception_4c/1x1
I0403 10:34:49.509343 26896 net.cpp:425] inception_4c/output <- inception_4c/3x3
I0403 10:34:49.509359 26896 net.cpp:425] inception_4c/output <- inception_4c/5x5
I0403 10:34:49.509376 26896 net.cpp:425] inception_4c/output <- inception_4c/pool_proj
I0403 10:34:49.509392 26896 net.cpp:399] inception_4c/output -> inception_4c/output
I0403 10:34:49.509434 26896 net.cpp:141] Setting up inception_4c/output
I0403 10:34:49.509457 26896 net.cpp:148] Top shape: 24 512 14 14 (2408448)
I0403 10:34:49.509472 26896 net.cpp:156] Memory required for data: 1072647360
I0403 10:34:49.509486 26896 layer_factory.hpp:77] Creating layer inception_4c/output_inception_4c/output_0_split
I0403 10:34:49.509503 26896 net.cpp:91] Creating Layer inception_4c/output_inception_4c/output_0_split
I0403 10:34:49.509519 26896 net.cpp:425] inception_4c/output_inception_4c/output_0_split <- inception_4c/output
I0403 10:34:49.509539 26896 net.cpp:399] inception_4c/output_inception_4c/output_0_split -> inception_4c/output_inception_4c/output_0_split_0
I0403 10:34:49.509562 26896 net.cpp:399] inception_4c/output_inception_4c/output_0_split -> inception_4c/output_inception_4c/output_0_split_1
I0403 10:34:49.509582 26896 net.cpp:399] inception_4c/output_inception_4c/output_0_split -> inception_4c/output_inception_4c/output_0_split_2
I0403 10:34:49.509601 26896 net.cpp:399] inception_4c/output_inception_4c/output_0_split -> inception_4c/output_inception_4c/output_0_split_3
I0403 10:34:49.509693 26896 net.cpp:141] Setting up inception_4c/output_inception_4c/output_0_split
I0403 10:34:49.509717 26896 net.cpp:148] Top shape: 24 512 14 14 (2408448)
I0403 10:34:49.509733 26896 net.cpp:148] Top shape: 24 512 14 14 (2408448)
I0403 10:34:49.509748 26896 net.cpp:148] Top shape: 24 512 14 14 (2408448)
I0403 10:34:49.509763 26896 net.cpp:148] Top shape: 24 512 14 14 (2408448)
I0403 10:34:49.509778 26896 net.cpp:156] Memory required for data: 1111182528
I0403 10:34:49.509791 26896 layer_factory.hpp:77] Creating layer inception_4d/1x1
I0403 10:34:49.509814 26896 net.cpp:91] Creating Layer inception_4d/1x1
I0403 10:34:49.509831 26896 net.cpp:425] inception_4d/1x1 <- inception_4c/output_inception_4c/output_0_split_0
I0403 10:34:49.509850 26896 net.cpp:399] inception_4d/1x1 -> inception_4d/1x1
I0403 10:34:49.510419 26896 net.cpp:141] Setting up inception_4d/1x1
I0403 10:34:49.510444 26896 net.cpp:148] Top shape: 24 112 14 14 (526848)
I0403 10:34:49.510459 26896 net.cpp:156] Memory required for data: 1113289920
I0403 10:34:49.510476 26896 layer_factory.hpp:77] Creating layer inception_4d/relu_1x1
I0403 10:34:49.510496 26896 net.cpp:91] Creating Layer inception_4d/relu_1x1
I0403 10:34:49.510514 26896 net.cpp:425] inception_4d/relu_1x1 <- inception_4d/1x1
I0403 10:34:49.510530 26896 net.cpp:386] inception_4d/relu_1x1 -> inception_4d/1x1 (in-place)
I0403 10:34:49.510550 26896 net.cpp:141] Setting up inception_4d/relu_1x1
I0403 10:34:49.510567 26896 net.cpp:148] Top shape: 24 112 14 14 (526848)
I0403 10:34:49.510581 26896 net.cpp:156] Memory required for data: 1115397312
I0403 10:34:49.510596 26896 layer_factory.hpp:77] Creating layer inception_4d/3x3_reduce
I0403 10:34:49.510618 26896 net.cpp:91] Creating Layer inception_4d/3x3_reduce
I0403 10:34:49.510635 26896 net.cpp:425] inception_4d/3x3_reduce <- inception_4c/output_inception_4c/output_0_split_1
I0403 10:34:49.510654 26896 net.cpp:399] inception_4d/3x3_reduce -> inception_4d/3x3_reduce
I0403 10:34:49.511323 26896 net.cpp:141] Setting up inception_4d/3x3_reduce
I0403 10:34:49.511348 26896 net.cpp:148] Top shape: 24 144 14 14 (677376)
I0403 10:34:49.511363 26896 net.cpp:156] Memory required for data: 1118106816
I0403 10:34:49.511380 26896 layer_factory.hpp:77] Creating layer inception_4d/relu_3x3_reduce
I0403 10:34:49.511399 26896 net.cpp:91] Creating Layer inception_4d/relu_3x3_reduce
I0403 10:34:49.511421 26896 net.cpp:425] inception_4d/relu_3x3_reduce <- inception_4d/3x3_reduce
I0403 10:34:49.511451 26896 net.cpp:386] inception_4d/relu_3x3_reduce -> inception_4d/3x3_reduce (in-place)
I0403 10:34:49.511472 26896 net.cpp:141] Setting up inception_4d/relu_3x3_reduce
I0403 10:34:49.511489 26896 net.cpp:148] Top shape: 24 144 14 14 (677376)
I0403 10:34:49.511503 26896 net.cpp:156] Memory required for data: 1120816320
I0403 10:34:49.511518 26896 layer_factory.hpp:77] Creating layer inception_4d/3x3
I0403 10:34:49.511539 26896 net.cpp:91] Creating Layer inception_4d/3x3
I0403 10:34:49.511557 26896 net.cpp:425] inception_4d/3x3 <- inception_4d/3x3_reduce
I0403 10:34:49.511576 26896 net.cpp:399] inception_4d/3x3 -> inception_4d/3x3
I0403 10:34:49.514705 26896 net.cpp:141] Setting up inception_4d/3x3
I0403 10:34:49.514735 26896 net.cpp:148] Top shape: 24 288 14 14 (1354752)
I0403 10:34:49.514753 26896 net.cpp:156] Memory required for data: 1126235328
I0403 10:34:49.514770 26896 layer_factory.hpp:77] Creating layer inception_4d/relu_3x3
I0403 10:34:49.514789 26896 net.cpp:91] Creating Layer inception_4d/relu_3x3
I0403 10:34:49.514806 26896 net.cpp:425] inception_4d/relu_3x3 <- inception_4d/3x3
I0403 10:34:49.514822 26896 net.cpp:386] inception_4d/relu_3x3 -> inception_4d/3x3 (in-place)
I0403 10:34:49.514844 26896 net.cpp:141] Setting up inception_4d/relu_3x3
I0403 10:34:49.514863 26896 net.cpp:148] Top shape: 24 288 14 14 (1354752)
I0403 10:34:49.514876 26896 net.cpp:156] Memory required for data: 1131654336
I0403 10:34:49.514890 26896 layer_factory.hpp:77] Creating layer inception_4d/5x5_reduce
I0403 10:34:49.514927 26896 net.cpp:91] Creating Layer inception_4d/5x5_reduce
I0403 10:34:49.514945 26896 net.cpp:425] inception_4d/5x5_reduce <- inception_4c/output_inception_4c/output_0_split_2
I0403 10:34:49.514966 26896 net.cpp:399] inception_4d/5x5_reduce -> inception_4d/5x5_reduce
I0403 10:34:49.515313 26896 net.cpp:141] Setting up inception_4d/5x5_reduce
I0403 10:34:49.515338 26896 net.cpp:148] Top shape: 24 32 14 14 (150528)
I0403 10:34:49.515353 26896 net.cpp:156] Memory required for data: 1132256448
I0403 10:34:49.515370 26896 layer_factory.hpp:77] Creating layer inception_4d/relu_5x5_reduce
I0403 10:34:49.515389 26896 net.cpp:91] Creating Layer inception_4d/relu_5x5_reduce
I0403 10:34:49.515405 26896 net.cpp:425] inception_4d/relu_5x5_reduce <- inception_4d/5x5_reduce
I0403 10:34:49.515424 26896 net.cpp:386] inception_4d/relu_5x5_reduce -> inception_4d/5x5_reduce (in-place)
I0403 10:34:49.515444 26896 net.cpp:141] Setting up inception_4d/relu_5x5_reduce
I0403 10:34:49.515461 26896 net.cpp:148] Top shape: 24 32 14 14 (150528)
I0403 10:34:49.515475 26896 net.cpp:156] Memory required for data: 1132858560
I0403 10:34:49.515489 26896 layer_factory.hpp:77] Creating layer inception_4d/5x5
I0403 10:34:49.515509 26896 net.cpp:91] Creating Layer inception_4d/5x5
I0403 10:34:49.515525 26896 net.cpp:425] inception_4d/5x5 <- inception_4d/5x5_reduce
I0403 10:34:49.515545 26896 net.cpp:399] inception_4d/5x5 -> inception_4d/5x5
I0403 10:34:49.516078 26896 net.cpp:141] Setting up inception_4d/5x5
I0403 10:34:49.516103 26896 net.cpp:148] Top shape: 24 64 14 14 (301056)
I0403 10:34:49.516119 26896 net.cpp:156] Memory required for data: 1134062784
I0403 10:34:49.516135 26896 layer_factory.hpp:77] Creating layer inception_4d/relu_5x5
I0403 10:34:49.516154 26896 net.cpp:91] Creating Layer inception_4d/relu_5x5
I0403 10:34:49.516170 26896 net.cpp:425] inception_4d/relu_5x5 <- inception_4d/5x5
I0403 10:34:49.516186 26896 net.cpp:386] inception_4d/relu_5x5 -> inception_4d/5x5 (in-place)
I0403 10:34:49.516207 26896 net.cpp:141] Setting up inception_4d/relu_5x5
I0403 10:34:49.516225 26896 net.cpp:148] Top shape: 24 64 14 14 (301056)
I0403 10:34:49.516239 26896 net.cpp:156] Memory required for data: 1135267008
I0403 10:34:49.516253 26896 layer_factory.hpp:77] Creating layer inception_4d/pool
I0403 10:34:49.516270 26896 net.cpp:91] Creating Layer inception_4d/pool
I0403 10:34:49.516286 26896 net.cpp:425] inception_4d/pool <- inception_4c/output_inception_4c/output_0_split_3
I0403 10:34:49.516304 26896 net.cpp:399] inception_4d/pool -> inception_4d/pool
I0403 10:34:49.516363 26896 net.cpp:141] Setting up inception_4d/pool
I0403 10:34:49.516386 26896 net.cpp:148] Top shape: 24 512 14 14 (2408448)
I0403 10:34:49.516401 26896 net.cpp:156] Memory required for data: 1144900800
I0403 10:34:49.516414 26896 layer_factory.hpp:77] Creating layer inception_4d/pool_proj
I0403 10:34:49.516436 26896 net.cpp:91] Creating Layer inception_4d/pool_proj
I0403 10:34:49.516453 26896 net.cpp:425] inception_4d/pool_proj <- inception_4d/pool
I0403 10:34:49.516475 26896 net.cpp:399] inception_4d/pool_proj -> inception_4d/pool_proj
I0403 10:34:49.516893 26896 net.cpp:141] Setting up inception_4d/pool_proj
I0403 10:34:49.516918 26896 net.cpp:148] Top shape: 24 64 14 14 (301056)
I0403 10:34:49.516933 26896 net.cpp:156] Memory required for data: 1146105024
I0403 10:34:49.516950 26896 layer_factory.hpp:77] Creating layer inception_4d/relu_pool_proj
I0403 10:34:49.516969 26896 net.cpp:91] Creating Layer inception_4d/relu_pool_proj
I0403 10:34:49.516985 26896 net.cpp:425] inception_4d/relu_pool_proj <- inception_4d/pool_proj
I0403 10:34:49.517004 26896 net.cpp:386] inception_4d/relu_pool_proj -> inception_4d/pool_proj (in-place)
I0403 10:34:49.517022 26896 net.cpp:141] Setting up inception_4d/relu_pool_proj
I0403 10:34:49.517045 26896 net.cpp:148] Top shape: 24 64 14 14 (301056)
I0403 10:34:49.517058 26896 net.cpp:156] Memory required for data: 1147309248
I0403 10:34:49.517072 26896 layer_factory.hpp:77] Creating layer inception_4d/output
I0403 10:34:49.517105 26896 net.cpp:91] Creating Layer inception_4d/output
I0403 10:34:49.517123 26896 net.cpp:425] inception_4d/output <- inception_4d/1x1
I0403 10:34:49.517140 26896 net.cpp:425] inception_4d/output <- inception_4d/3x3
I0403 10:34:49.517156 26896 net.cpp:425] inception_4d/output <- inception_4d/5x5
I0403 10:34:49.517173 26896 net.cpp:425] inception_4d/output <- inception_4d/pool_proj
I0403 10:34:49.517190 26896 net.cpp:399] inception_4d/output -> inception_4d/output
I0403 10:34:49.517232 26896 net.cpp:141] Setting up inception_4d/output
I0403 10:34:49.517256 26896 net.cpp:148] Top shape: 24 528 14 14 (2483712)
I0403 10:34:49.517269 26896 net.cpp:156] Memory required for data: 1157244096
I0403 10:34:49.517283 26896 layer_factory.hpp:77] Creating layer inception_4d/output_inception_4d/output_0_split
I0403 10:34:49.517300 26896 net.cpp:91] Creating Layer inception_4d/output_inception_4d/output_0_split
I0403 10:34:49.517316 26896 net.cpp:425] inception_4d/output_inception_4d/output_0_split <- inception_4d/output
I0403 10:34:49.517333 26896 net.cpp:399] inception_4d/output_inception_4d/output_0_split -> inception_4d/output_inception_4d/output_0_split_0
I0403 10:34:49.517364 26896 net.cpp:399] inception_4d/output_inception_4d/output_0_split -> inception_4d/output_inception_4d/output_0_split_1
I0403 10:34:49.517391 26896 net.cpp:399] inception_4d/output_inception_4d/output_0_split -> inception_4d/output_inception_4d/output_0_split_2
I0403 10:34:49.517413 26896 net.cpp:399] inception_4d/output_inception_4d/output_0_split -> inception_4d/output_inception_4d/output_0_split_3
I0403 10:34:49.517431 26896 net.cpp:399] inception_4d/output_inception_4d/output_0_split -> inception_4d/output_inception_4d/output_0_split_4
I0403 10:34:49.517518 26896 net.cpp:141] Setting up inception_4d/output_inception_4d/output_0_split
I0403 10:34:49.517544 26896 net.cpp:148] Top shape: 24 528 14 14 (2483712)
I0403 10:34:49.517560 26896 net.cpp:148] Top shape: 24 528 14 14 (2483712)
I0403 10:34:49.517575 26896 net.cpp:148] Top shape: 24 528 14 14 (2483712)
I0403 10:34:49.517590 26896 net.cpp:148] Top shape: 24 528 14 14 (2483712)
I0403 10:34:49.517604 26896 net.cpp:148] Top shape: 24 528 14 14 (2483712)
I0403 10:34:49.517618 26896 net.cpp:156] Memory required for data: 1206918336
I0403 10:34:49.517632 26896 layer_factory.hpp:77] Creating layer loss2/ave_pool
I0403 10:34:49.517650 26896 net.cpp:91] Creating Layer loss2/ave_pool
I0403 10:34:49.517665 26896 net.cpp:425] loss2/ave_pool <- inception_4d/output_inception_4d/output_0_split_0
I0403 10:34:49.517683 26896 net.cpp:399] loss2/ave_pool -> loss2/ave_pool
I0403 10:34:49.517725 26896 net.cpp:141] Setting up loss2/ave_pool
I0403 10:34:49.517748 26896 net.cpp:148] Top shape: 24 528 4 4 (202752)
I0403 10:34:49.517762 26896 net.cpp:156] Memory required for data: 1207729344
I0403 10:34:49.517777 26896 layer_factory.hpp:77] Creating layer loss2/conv
I0403 10:34:49.517799 26896 net.cpp:91] Creating Layer loss2/conv
I0403 10:34:49.517817 26896 net.cpp:425] loss2/conv <- loss2/ave_pool
I0403 10:34:49.517839 26896 net.cpp:399] loss2/conv -> loss2/conv
I0403 10:34:49.518970 26896 net.cpp:141] Setting up loss2/conv
I0403 10:34:49.518998 26896 net.cpp:148] Top shape: 24 128 4 4 (49152)
I0403 10:34:49.519014 26896 net.cpp:156] Memory required for data: 1207925952
I0403 10:34:49.519043 26896 layer_factory.hpp:77] Creating layer loss2/relu_conv
I0403 10:34:49.519065 26896 net.cpp:91] Creating Layer loss2/relu_conv
I0403 10:34:49.519081 26896 net.cpp:425] loss2/relu_conv <- loss2/conv
I0403 10:34:49.519104 26896 net.cpp:386] loss2/relu_conv -> loss2/conv (in-place)
I0403 10:34:49.519124 26896 net.cpp:141] Setting up loss2/relu_conv
I0403 10:34:49.519142 26896 net.cpp:148] Top shape: 24 128 4 4 (49152)
I0403 10:34:49.519156 26896 net.cpp:156] Memory required for data: 1208122560
I0403 10:34:49.519170 26896 layer_factory.hpp:77] Creating layer loss2/fc
I0403 10:34:49.519191 26896 net.cpp:91] Creating Layer loss2/fc
I0403 10:34:49.519206 26896 net.cpp:425] loss2/fc <- loss2/conv
I0403 10:34:49.519227 26896 net.cpp:399] loss2/fc -> loss2/fc
I0403 10:34:49.536195 26896 net.cpp:141] Setting up loss2/fc
I0403 10:34:49.536252 26896 net.cpp:148] Top shape: 24 1024 (24576)
I0403 10:34:49.536269 26896 net.cpp:156] Memory required for data: 1208220864
I0403 10:34:49.536290 26896 layer_factory.hpp:77] Creating layer loss2/relu_fc
I0403 10:34:49.536315 26896 net.cpp:91] Creating Layer loss2/relu_fc
I0403 10:34:49.536334 26896 net.cpp:425] loss2/relu_fc <- loss2/fc
I0403 10:34:49.536355 26896 net.cpp:386] loss2/relu_fc -> loss2/fc (in-place)
I0403 10:34:49.536376 26896 net.cpp:141] Setting up loss2/relu_fc
I0403 10:34:49.536394 26896 net.cpp:148] Top shape: 24 1024 (24576)
I0403 10:34:49.536408 26896 net.cpp:156] Memory required for data: 1208319168
I0403 10:34:49.536422 26896 layer_factory.hpp:77] Creating layer loss2/drop_fc
I0403 10:34:49.536444 26896 net.cpp:91] Creating Layer loss2/drop_fc
I0403 10:34:49.536461 26896 net.cpp:425] loss2/drop_fc <- loss2/fc
I0403 10:34:49.536479 26896 net.cpp:386] loss2/drop_fc -> loss2/fc (in-place)
I0403 10:34:49.536523 26896 net.cpp:141] Setting up loss2/drop_fc
I0403 10:34:49.536548 26896 net.cpp:148] Top shape: 24 1024 (24576)
I0403 10:34:49.536563 26896 net.cpp:156] Memory required for data: 1208417472
I0403 10:34:49.536578 26896 layer_factory.hpp:77] Creating layer loss2/classifier_plantvillage
I0403 10:34:49.536598 26896 net.cpp:91] Creating Layer loss2/classifier_plantvillage
I0403 10:34:49.536615 26896 net.cpp:425] loss2/classifier_plantvillage <- loss2/fc
I0403 10:34:49.536636 26896 net.cpp:399] loss2/classifier_plantvillage -> loss2/classifier_plantvillage
I0403 10:34:49.536994 26896 net.cpp:141] Setting up loss2/classifier_plantvillage
I0403 10:34:49.537022 26896 net.cpp:148] Top shape: 24 38 (912)
I0403 10:34:49.537044 26896 net.cpp:156] Memory required for data: 1208421120
I0403 10:34:49.537061 26896 layer_factory.hpp:77] Creating layer loss2/classifier_plantvillage_loss2/classifier_plantvillage_0_split
I0403 10:34:49.537081 26896 net.cpp:91] Creating Layer loss2/classifier_plantvillage_loss2/classifier_plantvillage_0_split
I0403 10:34:49.537097 26896 net.cpp:425] loss2/classifier_plantvillage_loss2/classifier_plantvillage_0_split <- loss2/classifier_plantvillage
I0403 10:34:49.537117 26896 net.cpp:399] loss2/classifier_plantvillage_loss2/classifier_plantvillage_0_split -> loss2/classifier_plantvillage_loss2/classifier_plantvillage_0_split_0
I0403 10:34:49.537137 26896 net.cpp:399] loss2/classifier_plantvillage_loss2/classifier_plantvillage_0_split -> loss2/classifier_plantvillage_loss2/classifier_plantvillage_0_split_1
I0403 10:34:49.537158 26896 net.cpp:399] loss2/classifier_plantvillage_loss2/classifier_plantvillage_0_split -> loss2/classifier_plantvillage_loss2/classifier_plantvillage_0_split_2
I0403 10:34:49.537227 26896 net.cpp:141] Setting up loss2/classifier_plantvillage_loss2/classifier_plantvillage_0_split
I0403 10:34:49.537252 26896 net.cpp:148] Top shape: 24 38 (912)
I0403 10:34:49.537269 26896 net.cpp:148] Top shape: 24 38 (912)
I0403 10:34:49.537284 26896 net.cpp:148] Top shape: 24 38 (912)
I0403 10:34:49.537298 26896 net.cpp:156] Memory required for data: 1208432064
I0403 10:34:49.537312 26896 layer_factory.hpp:77] Creating layer inception_4e/1x1
I0403 10:34:49.537335 26896 net.cpp:91] Creating Layer inception_4e/1x1
I0403 10:34:49.537353 26896 net.cpp:425] inception_4e/1x1 <- inception_4d/output_inception_4d/output_0_split_1
I0403 10:34:49.537375 26896 net.cpp:399] inception_4e/1x1 -> inception_4e/1x1
I0403 10:34:49.538393 26896 net.cpp:141] Setting up inception_4e/1x1
I0403 10:34:49.538417 26896 net.cpp:148] Top shape: 24 256 14 14 (1204224)
I0403 10:34:49.538432 26896 net.cpp:156] Memory required for data: 1213248960
I0403 10:34:49.538450 26896 layer_factory.hpp:77] Creating layer inception_4e/relu_1x1
I0403 10:34:49.538470 26896 net.cpp:91] Creating Layer inception_4e/relu_1x1
I0403 10:34:49.538486 26896 net.cpp:425] inception_4e/relu_1x1 <- inception_4e/1x1
I0403 10:34:49.538506 26896 net.cpp:386] inception_4e/relu_1x1 -> inception_4e/1x1 (in-place)
I0403 10:34:49.538554 26896 net.cpp:141] Setting up inception_4e/relu_1x1
I0403 10:34:49.538573 26896 net.cpp:148] Top shape: 24 256 14 14 (1204224)
I0403 10:34:49.538588 26896 net.cpp:156] Memory required for data: 1218065856
I0403 10:34:49.538601 26896 layer_factory.hpp:77] Creating layer inception_4e/3x3_reduce
I0403 10:34:49.538625 26896 net.cpp:91] Creating Layer inception_4e/3x3_reduce
I0403 10:34:49.538641 26896 net.cpp:425] inception_4e/3x3_reduce <- inception_4d/output_inception_4d/output_0_split_2
I0403 10:34:49.538661 26896 net.cpp:399] inception_4e/3x3_reduce -> inception_4e/3x3_reduce
I0403 10:34:49.539943 26896 net.cpp:141] Setting up inception_4e/3x3_reduce
I0403 10:34:49.539971 26896 net.cpp:148] Top shape: 24 160 14 14 (752640)
I0403 10:34:49.539988 26896 net.cpp:156] Memory required for data: 1221076416
I0403 10:34:49.540004 26896 layer_factory.hpp:77] Creating layer inception_4e/relu_3x3_reduce
I0403 10:34:49.540022 26896 net.cpp:91] Creating Layer inception_4e/relu_3x3_reduce
I0403 10:34:49.540055 26896 net.cpp:425] inception_4e/relu_3x3_reduce <- inception_4e/3x3_reduce
I0403 10:34:49.540074 26896 net.cpp:386] inception_4e/relu_3x3_reduce -> inception_4e/3x3_reduce (in-place)
I0403 10:34:49.540097 26896 net.cpp:141] Setting up inception_4e/relu_3x3_reduce
I0403 10:34:49.540115 26896 net.cpp:148] Top shape: 24 160 14 14 (752640)
I0403 10:34:49.540129 26896 net.cpp:156] Memory required for data: 1224086976
I0403 10:34:49.540143 26896 layer_factory.hpp:77] Creating layer inception_4e/3x3
I0403 10:34:49.540163 26896 net.cpp:91] Creating Layer inception_4e/3x3
I0403 10:34:49.540180 26896 net.cpp:425] inception_4e/3x3 <- inception_4e/3x3_reduce
I0403 10:34:49.540201 26896 net.cpp:399] inception_4e/3x3 -> inception_4e/3x3
I0403 10:34:49.543907 26896 net.cpp:141] Setting up inception_4e/3x3
I0403 10:34:49.543936 26896 net.cpp:148] Top shape: 24 320 14 14 (1505280)
I0403 10:34:49.543951 26896 net.cpp:156] Memory required for data: 1230108096
I0403 10:34:49.543969 26896 layer_factory.hpp:77] Creating layer inception_4e/relu_3x3
I0403 10:34:49.543999 26896 net.cpp:91] Creating Layer inception_4e/relu_3x3
I0403 10:34:49.544016 26896 net.cpp:425] inception_4e/relu_3x3 <- inception_4e/3x3
I0403 10:34:49.544039 26896 net.cpp:386] inception_4e/relu_3x3 -> inception_4e/3x3 (in-place)
I0403 10:34:49.544059 26896 net.cpp:141] Setting up inception_4e/relu_3x3
I0403 10:34:49.544078 26896 net.cpp:148] Top shape: 24 320 14 14 (1505280)
I0403 10:34:49.544092 26896 net.cpp:156] Memory required for data: 1236129216
I0403 10:34:49.544106 26896 layer_factory.hpp:77] Creating layer inception_4e/5x5_reduce
I0403 10:34:49.544128 26896 net.cpp:91] Creating Layer inception_4e/5x5_reduce
I0403 10:34:49.544152 26896 net.cpp:425] inception_4e/5x5_reduce <- inception_4d/output_inception_4d/output_0_split_3
I0403 10:34:49.544172 26896 net.cpp:399] inception_4e/5x5_reduce -> inception_4e/5x5_reduce
I0403 10:34:49.544982 26896 net.cpp:141] Setting up inception_4e/5x5_reduce
I0403 10:34:49.545011 26896 net.cpp:148] Top shape: 24 32 14 14 (150528)
I0403 10:34:49.545028 26896 net.cpp:156] Memory required for data: 1236731328
I0403 10:34:49.545048 26896 layer_factory.hpp:77] Creating layer inception_4e/relu_5x5_reduce
I0403 10:34:49.545066 26896 net.cpp:91] Creating Layer inception_4e/relu_5x5_reduce
I0403 10:34:49.545086 26896 net.cpp:425] inception_4e/relu_5x5_reduce <- inception_4e/5x5_reduce
I0403 10:34:49.545106 26896 net.cpp:386] inception_4e/relu_5x5_reduce -> inception_4e/5x5_reduce (in-place)
I0403 10:34:49.545128 26896 net.cpp:141] Setting up inception_4e/relu_5x5_reduce
I0403 10:34:49.545145 26896 net.cpp:148] Top shape: 24 32 14 14 (150528)
I0403 10:34:49.545161 26896 net.cpp:156] Memory required for data: 1237333440
I0403 10:34:49.545173 26896 layer_factory.hpp:77] Creating layer inception_4e/5x5
I0403 10:34:49.545213 26896 net.cpp:91] Creating Layer inception_4e/5x5
I0403 10:34:49.545231 26896 net.cpp:425] inception_4e/5x5 <- inception_4e/5x5_reduce
I0403 10:34:49.545254 26896 net.cpp:399] inception_4e/5x5 -> inception_4e/5x5
I0403 10:34:49.546011 26896 net.cpp:141] Setting up inception_4e/5x5
I0403 10:34:49.546041 26896 net.cpp:148] Top shape: 24 128 14 14 (602112)
I0403 10:34:49.546056 26896 net.cpp:156] Memory required for data: 1239741888
I0403 10:34:49.546073 26896 layer_factory.hpp:77] Creating layer inception_4e/relu_5x5
I0403 10:34:49.546092 26896 net.cpp:91] Creating Layer inception_4e/relu_5x5
I0403 10:34:49.546108 26896 net.cpp:425] inception_4e/relu_5x5 <- inception_4e/5x5
I0403 10:34:49.546126 26896 net.cpp:386] inception_4e/relu_5x5 -> inception_4e/5x5 (in-place)
I0403 10:34:49.546146 26896 net.cpp:141] Setting up inception_4e/relu_5x5
I0403 10:34:49.546164 26896 net.cpp:148] Top shape: 24 128 14 14 (602112)
I0403 10:34:49.546178 26896 net.cpp:156] Memory required for data: 1242150336
I0403 10:34:49.546191 26896 layer_factory.hpp:77] Creating layer inception_4e/pool
I0403 10:34:49.546211 26896 net.cpp:91] Creating Layer inception_4e/pool
I0403 10:34:49.546226 26896 net.cpp:425] inception_4e/pool <- inception_4d/output_inception_4d/output_0_split_4
I0403 10:34:49.546246 26896 net.cpp:399] inception_4e/pool -> inception_4e/pool
I0403 10:34:49.546301 26896 net.cpp:141] Setting up inception_4e/pool
I0403 10:34:49.546325 26896 net.cpp:148] Top shape: 24 528 14 14 (2483712)
I0403 10:34:49.546340 26896 net.cpp:156] Memory required for data: 1252085184
I0403 10:34:49.546355 26896 layer_factory.hpp:77] Creating layer inception_4e/pool_proj
I0403 10:34:49.546376 26896 net.cpp:91] Creating Layer inception_4e/pool_proj
I0403 10:34:49.546393 26896 net.cpp:425] inception_4e/pool_proj <- inception_4e/pool
I0403 10:34:49.546414 26896 net.cpp:399] inception_4e/pool_proj -> inception_4e/pool_proj
I0403 10:34:49.546977 26896 net.cpp:141] Setting up inception_4e/pool_proj
I0403 10:34:49.547001 26896 net.cpp:148] Top shape: 24 128 14 14 (602112)
I0403 10:34:49.547015 26896 net.cpp:156] Memory required for data: 1254493632
I0403 10:34:49.547036 26896 layer_factory.hpp:77] Creating layer inception_4e/relu_pool_proj
I0403 10:34:49.547056 26896 net.cpp:91] Creating Layer inception_4e/relu_pool_proj
I0403 10:34:49.547071 26896 net.cpp:425] inception_4e/relu_pool_proj <- inception_4e/pool_proj
I0403 10:34:49.547088 26896 net.cpp:386] inception_4e/relu_pool_proj -> inception_4e/pool_proj (in-place)
I0403 10:34:49.547107 26896 net.cpp:141] Setting up inception_4e/relu_pool_proj
I0403 10:34:49.547124 26896 net.cpp:148] Top shape: 24 128 14 14 (602112)
I0403 10:34:49.547138 26896 net.cpp:156] Memory required for data: 1256902080
I0403 10:34:49.547152 26896 layer_factory.hpp:77] Creating layer inception_4e/output
I0403 10:34:49.547171 26896 net.cpp:91] Creating Layer inception_4e/output
I0403 10:34:49.547188 26896 net.cpp:425] inception_4e/output <- inception_4e/1x1
I0403 10:34:49.547204 26896 net.cpp:425] inception_4e/output <- inception_4e/3x3
I0403 10:34:49.547219 26896 net.cpp:425] inception_4e/output <- inception_4e/5x5
I0403 10:34:49.547235 26896 net.cpp:425] inception_4e/output <- inception_4e/pool_proj
I0403 10:34:49.547253 26896 net.cpp:399] inception_4e/output -> inception_4e/output
I0403 10:34:49.547293 26896 net.cpp:141] Setting up inception_4e/output
I0403 10:34:49.547315 26896 net.cpp:148] Top shape: 24 832 14 14 (3913728)
I0403 10:34:49.547329 26896 net.cpp:156] Memory required for data: 1272556992
I0403 10:34:49.547343 26896 layer_factory.hpp:77] Creating layer pool4/3x3_s2
I0403 10:34:49.547360 26896 net.cpp:91] Creating Layer pool4/3x3_s2
I0403 10:34:49.547376 26896 net.cpp:425] pool4/3x3_s2 <- inception_4e/output
I0403 10:34:49.547394 26896 net.cpp:399] pool4/3x3_s2 -> pool4/3x3_s2
I0403 10:34:49.547443 26896 net.cpp:141] Setting up pool4/3x3_s2
I0403 10:34:49.547466 26896 net.cpp:148] Top shape: 24 832 7 7 (978432)
I0403 10:34:49.547479 26896 net.cpp:156] Memory required for data: 1276470720
I0403 10:34:49.547493 26896 layer_factory.hpp:77] Creating layer pool4/3x3_s2_pool4/3x3_s2_0_split
I0403 10:34:49.547513 26896 net.cpp:91] Creating Layer pool4/3x3_s2_pool4/3x3_s2_0_split
I0403 10:34:49.547529 26896 net.cpp:425] pool4/3x3_s2_pool4/3x3_s2_0_split <- pool4/3x3_s2
I0403 10:34:49.547560 26896 net.cpp:399] pool4/3x3_s2_pool4/3x3_s2_0_split -> pool4/3x3_s2_pool4/3x3_s2_0_split_0
I0403 10:34:49.547581 26896 net.cpp:399] pool4/3x3_s2_pool4/3x3_s2_0_split -> pool4/3x3_s2_pool4/3x3_s2_0_split_1
I0403 10:34:49.547601 26896 net.cpp:399] pool4/3x3_s2_pool4/3x3_s2_0_split -> pool4/3x3_s2_pool4/3x3_s2_0_split_2
I0403 10:34:49.547623 26896 net.cpp:399] pool4/3x3_s2_pool4/3x3_s2_0_split -> pool4/3x3_s2_pool4/3x3_s2_0_split_3
I0403 10:34:49.547689 26896 net.cpp:141] Setting up pool4/3x3_s2_pool4/3x3_s2_0_split
I0403 10:34:49.547711 26896 net.cpp:148] Top shape: 24 832 7 7 (978432)
I0403 10:34:49.547727 26896 net.cpp:148] Top shape: 24 832 7 7 (978432)
I0403 10:34:49.547742 26896 net.cpp:148] Top shape: 24 832 7 7 (978432)
I0403 10:34:49.547760 26896 net.cpp:148] Top shape: 24 832 7 7 (978432)
I0403 10:34:49.547775 26896 net.cpp:156] Memory required for data: 1292125632
I0403 10:34:49.547787 26896 layer_factory.hpp:77] Creating layer inception_5a/1x1
I0403 10:34:49.547809 26896 net.cpp:91] Creating Layer inception_5a/1x1
I0403 10:34:49.547827 26896 net.cpp:425] inception_5a/1x1 <- pool4/3x3_s2_pool4/3x3_s2_0_split_0
I0403 10:34:49.547847 26896 net.cpp:399] inception_5a/1x1 -> inception_5a/1x1
I0403 10:34:49.549682 26896 net.cpp:141] Setting up inception_5a/1x1
I0403 10:34:49.549710 26896 net.cpp:148] Top shape: 24 256 7 7 (301056)
I0403 10:34:49.549726 26896 net.cpp:156] Memory required for data: 1293329856
I0403 10:34:49.549742 26896 layer_factory.hpp:77] Creating layer inception_5a/relu_1x1
I0403 10:34:49.549762 26896 net.cpp:91] Creating Layer inception_5a/relu_1x1
I0403 10:34:49.549777 26896 net.cpp:425] inception_5a/relu_1x1 <- inception_5a/1x1
I0403 10:34:49.549796 26896 net.cpp:386] inception_5a/relu_1x1 -> inception_5a/1x1 (in-place)
I0403 10:34:49.549818 26896 net.cpp:141] Setting up inception_5a/relu_1x1
I0403 10:34:49.549834 26896 net.cpp:148] Top shape: 24 256 7 7 (301056)
I0403 10:34:49.549847 26896 net.cpp:156] Memory required for data: 1294534080
I0403 10:34:49.549861 26896 layer_factory.hpp:77] Creating layer inception_5a/3x3_reduce
I0403 10:34:49.549885 26896 net.cpp:91] Creating Layer inception_5a/3x3_reduce
I0403 10:34:49.549903 26896 net.cpp:425] inception_5a/3x3_reduce <- pool4/3x3_s2_pool4/3x3_s2_0_split_1
I0403 10:34:49.549922 26896 net.cpp:399] inception_5a/3x3_reduce -> inception_5a/3x3_reduce
I0403 10:34:49.551403 26896 net.cpp:141] Setting up inception_5a/3x3_reduce
I0403 10:34:49.551430 26896 net.cpp:148] Top shape: 24 160 7 7 (188160)
I0403 10:34:49.551446 26896 net.cpp:156] Memory required for data: 1295286720
I0403 10:34:49.551463 26896 layer_factory.hpp:77] Creating layer inception_5a/relu_3x3_reduce
I0403 10:34:49.551482 26896 net.cpp:91] Creating Layer inception_5a/relu_3x3_reduce
I0403 10:34:49.551498 26896 net.cpp:425] inception_5a/relu_3x3_reduce <- inception_5a/3x3_reduce
I0403 10:34:49.551518 26896 net.cpp:386] inception_5a/relu_3x3_reduce -> inception_5a/3x3_reduce (in-place)
I0403 10:34:49.551539 26896 net.cpp:141] Setting up inception_5a/relu_3x3_reduce
I0403 10:34:49.551556 26896 net.cpp:148] Top shape: 24 160 7 7 (188160)
I0403 10:34:49.551570 26896 net.cpp:156] Memory required for data: 1296039360
I0403 10:34:49.551584 26896 layer_factory.hpp:77] Creating layer inception_5a/3x3
I0403 10:34:49.551609 26896 net.cpp:91] Creating Layer inception_5a/3x3
I0403 10:34:49.551626 26896 net.cpp:425] inception_5a/3x3 <- inception_5a/3x3_reduce
I0403 10:34:49.551645 26896 net.cpp:399] inception_5a/3x3 -> inception_5a/3x3
I0403 10:34:49.555418 26896 net.cpp:141] Setting up inception_5a/3x3
I0403 10:34:49.555447 26896 net.cpp:148] Top shape: 24 320 7 7 (376320)
I0403 10:34:49.555462 26896 net.cpp:156] Memory required for data: 1297544640
I0403 10:34:49.555487 26896 layer_factory.hpp:77] Creating layer inception_5a/relu_3x3
I0403 10:34:49.555513 26896 net.cpp:91] Creating Layer inception_5a/relu_3x3
I0403 10:34:49.555536 26896 net.cpp:425] inception_5a/relu_3x3 <- inception_5a/3x3
I0403 10:34:49.555557 26896 net.cpp:386] inception_5a/relu_3x3 -> inception_5a/3x3 (in-place)
I0403 10:34:49.555591 26896 net.cpp:141] Setting up inception_5a/relu_3x3
I0403 10:34:49.555610 26896 net.cpp:148] Top shape: 24 320 7 7 (376320)
I0403 10:34:49.555625 26896 net.cpp:156] Memory required for data: 1299049920
I0403 10:34:49.555640 26896 layer_factory.hpp:77] Creating layer inception_5a/5x5_reduce
I0403 10:34:49.555663 26896 net.cpp:91] Creating Layer inception_5a/5x5_reduce
I0403 10:34:49.555682 26896 net.cpp:425] inception_5a/5x5_reduce <- pool4/3x3_s2_pool4/3x3_s2_0_split_2
I0403 10:34:49.555701 26896 net.cpp:399] inception_5a/5x5_reduce -> inception_5a/5x5_reduce
I0403 10:34:49.556087 26896 net.cpp:141] Setting up inception_5a/5x5_reduce
I0403 10:34:49.556112 26896 net.cpp:148] Top shape: 24 32 7 7 (37632)
I0403 10:34:49.556126 26896 net.cpp:156] Memory required for data: 1299200448
I0403 10:34:49.556144 26896 layer_factory.hpp:77] Creating layer inception_5a/relu_5x5_reduce
I0403 10:34:49.556162 26896 net.cpp:91] Creating Layer inception_5a/relu_5x5_reduce
I0403 10:34:49.556179 26896 net.cpp:425] inception_5a/relu_5x5_reduce <- inception_5a/5x5_reduce
I0403 10:34:49.556198 26896 net.cpp:386] inception_5a/relu_5x5_reduce -> inception_5a/5x5_reduce (in-place)
I0403 10:34:49.556218 26896 net.cpp:141] Setting up inception_5a/relu_5x5_reduce
I0403 10:34:49.556236 26896 net.cpp:148] Top shape: 24 32 7 7 (37632)
I0403 10:34:49.556251 26896 net.cpp:156] Memory required for data: 1299350976
I0403 10:34:49.556263 26896 layer_factory.hpp:77] Creating layer inception_5a/5x5
I0403 10:34:49.556284 26896 net.cpp:91] Creating Layer inception_5a/5x5
I0403 10:34:49.556300 26896 net.cpp:425] inception_5a/5x5 <- inception_5a/5x5_reduce
I0403 10:34:49.556324 26896 net.cpp:399] inception_5a/5x5 -> inception_5a/5x5
I0403 10:34:49.557113 26896 net.cpp:141] Setting up inception_5a/5x5
I0403 10:34:49.557142 26896 net.cpp:148] Top shape: 24 128 7 7 (150528)
I0403 10:34:49.557157 26896 net.cpp:156] Memory required for data: 1299953088
I0403 10:34:49.557175 26896 layer_factory.hpp:77] Creating layer inception_5a/relu_5x5
I0403 10:34:49.557193 26896 net.cpp:91] Creating Layer inception_5a/relu_5x5
I0403 10:34:49.557209 26896 net.cpp:425] inception_5a/relu_5x5 <- inception_5a/5x5
I0403 10:34:49.557227 26896 net.cpp:386] inception_5a/relu_5x5 -> inception_5a/5x5 (in-place)
I0403 10:34:49.557246 26896 net.cpp:141] Setting up inception_5a/relu_5x5
I0403 10:34:49.557262 26896 net.cpp:148] Top shape: 24 128 7 7 (150528)
I0403 10:34:49.557276 26896 net.cpp:156] Memory required for data: 1300555200
I0403 10:34:49.557291 26896 layer_factory.hpp:77] Creating layer inception_5a/pool
I0403 10:34:49.557307 26896 net.cpp:91] Creating Layer inception_5a/pool
I0403 10:34:49.557323 26896 net.cpp:425] inception_5a/pool <- pool4/3x3_s2_pool4/3x3_s2_0_split_3
I0403 10:34:49.557344 26896 net.cpp:399] inception_5a/pool -> inception_5a/pool
I0403 10:34:49.557397 26896 net.cpp:141] Setting up inception_5a/pool
I0403 10:34:49.557420 26896 net.cpp:148] Top shape: 24 832 7 7 (978432)
I0403 10:34:49.557435 26896 net.cpp:156] Memory required for data: 1304468928
I0403 10:34:49.557449 26896 layer_factory.hpp:77] Creating layer inception_5a/pool_proj
I0403 10:34:49.557476 26896 net.cpp:91] Creating Layer inception_5a/pool_proj
I0403 10:34:49.557494 26896 net.cpp:425] inception_5a/pool_proj <- inception_5a/pool
I0403 10:34:49.557514 26896 net.cpp:399] inception_5a/pool_proj -> inception_5a/pool_proj
I0403 10:34:49.558821 26896 net.cpp:141] Setting up inception_5a/pool_proj
I0403 10:34:49.558852 26896 net.cpp:148] Top shape: 24 128 7 7 (150528)
I0403 10:34:49.558868 26896 net.cpp:156] Memory required for data: 1305071040
I0403 10:34:49.558887 26896 layer_factory.hpp:77] Creating layer inception_5a/relu_pool_proj
I0403 10:34:49.558905 26896 net.cpp:91] Creating Layer inception_5a/relu_pool_proj
I0403 10:34:49.558922 26896 net.cpp:425] inception_5a/relu_pool_proj <- inception_5a/pool_proj
I0403 10:34:49.558939 26896 net.cpp:386] inception_5a/relu_pool_proj -> inception_5a/pool_proj (in-place)
I0403 10:34:49.558959 26896 net.cpp:141] Setting up inception_5a/relu_pool_proj
I0403 10:34:49.558990 26896 net.cpp:148] Top shape: 24 128 7 7 (150528)
I0403 10:34:49.559005 26896 net.cpp:156] Memory required for data: 1305673152
I0403 10:34:49.559020 26896 layer_factory.hpp:77] Creating layer inception_5a/output
I0403 10:34:49.559049 26896 net.cpp:91] Creating Layer inception_5a/output
I0403 10:34:49.559067 26896 net.cpp:425] inception_5a/output <- inception_5a/1x1
I0403 10:34:49.559083 26896 net.cpp:425] inception_5a/output <- inception_5a/3x3
I0403 10:34:49.559099 26896 net.cpp:425] inception_5a/output <- inception_5a/5x5
I0403 10:34:49.559115 26896 net.cpp:425] inception_5a/output <- inception_5a/pool_proj
I0403 10:34:49.559135 26896 net.cpp:399] inception_5a/output -> inception_5a/output
I0403 10:34:49.559175 26896 net.cpp:141] Setting up inception_5a/output
I0403 10:34:49.559201 26896 net.cpp:148] Top shape: 24 832 7 7 (978432)
I0403 10:34:49.559216 26896 net.cpp:156] Memory required for data: 1309586880
I0403 10:34:49.559231 26896 layer_factory.hpp:77] Creating layer inception_5a/output_inception_5a/output_0_split
I0403 10:34:49.559247 26896 net.cpp:91] Creating Layer inception_5a/output_inception_5a/output_0_split
I0403 10:34:49.559263 26896 net.cpp:425] inception_5a/output_inception_5a/output_0_split <- inception_5a/output
I0403 10:34:49.559281 26896 net.cpp:399] inception_5a/output_inception_5a/output_0_split -> inception_5a/output_inception_5a/output_0_split_0
I0403 10:34:49.559301 26896 net.cpp:399] inception_5a/output_inception_5a/output_0_split -> inception_5a/output_inception_5a/output_0_split_1
I0403 10:34:49.559321 26896 net.cpp:399] inception_5a/output_inception_5a/output_0_split -> inception_5a/output_inception_5a/output_0_split_2
I0403 10:34:49.559345 26896 net.cpp:399] inception_5a/output_inception_5a/output_0_split -> inception_5a/output_inception_5a/output_0_split_3
I0403 10:34:49.559413 26896 net.cpp:141] Setting up inception_5a/output_inception_5a/output_0_split
I0403 10:34:49.559437 26896 net.cpp:148] Top shape: 24 832 7 7 (978432)
I0403 10:34:49.559453 26896 net.cpp:148] Top shape: 24 832 7 7 (978432)
I0403 10:34:49.559468 26896 net.cpp:148] Top shape: 24 832 7 7 (978432)
I0403 10:34:49.559483 26896 net.cpp:148] Top shape: 24 832 7 7 (978432)
I0403 10:34:49.559496 26896 net.cpp:156] Memory required for data: 1325241792
I0403 10:34:49.559510 26896 layer_factory.hpp:77] Creating layer inception_5b/1x1
I0403 10:34:49.559532 26896 net.cpp:91] Creating Layer inception_5b/1x1
I0403 10:34:49.559551 26896 net.cpp:425] inception_5b/1x1 <- inception_5a/output_inception_5a/output_0_split_0
I0403 10:34:49.559572 26896 net.cpp:399] inception_5b/1x1 -> inception_5b/1x1
I0403 10:34:49.562124 26896 net.cpp:141] Setting up inception_5b/1x1
I0403 10:34:49.562153 26896 net.cpp:148] Top shape: 24 384 7 7 (451584)
I0403 10:34:49.562168 26896 net.cpp:156] Memory required for data: 1327048128
I0403 10:34:49.562186 26896 layer_factory.hpp:77] Creating layer inception_5b/relu_1x1
I0403 10:34:49.562204 26896 net.cpp:91] Creating Layer inception_5b/relu_1x1
I0403 10:34:49.562222 26896 net.cpp:425] inception_5b/relu_1x1 <- inception_5b/1x1
I0403 10:34:49.562238 26896 net.cpp:386] inception_5b/relu_1x1 -> inception_5b/1x1 (in-place)
I0403 10:34:49.562258 26896 net.cpp:141] Setting up inception_5b/relu_1x1
I0403 10:34:49.562274 26896 net.cpp:148] Top shape: 24 384 7 7 (451584)
I0403 10:34:49.562288 26896 net.cpp:156] Memory required for data: 1328854464
I0403 10:34:49.562301 26896 layer_factory.hpp:77] Creating layer inception_5b/3x3_reduce
I0403 10:34:49.562326 26896 net.cpp:91] Creating Layer inception_5b/3x3_reduce
I0403 10:34:49.562345 26896 net.cpp:425] inception_5b/3x3_reduce <- inception_5a/output_inception_5a/output_0_split_1
I0403 10:34:49.562366 26896 net.cpp:399] inception_5b/3x3_reduce -> inception_5b/3x3_reduce
I0403 10:34:49.563978 26896 net.cpp:141] Setting up inception_5b/3x3_reduce
I0403 10:34:49.564009 26896 net.cpp:148] Top shape: 24 192 7 7 (225792)
I0403 10:34:49.564028 26896 net.cpp:156] Memory required for data: 1329757632
I0403 10:34:49.564049 26896 layer_factory.hpp:77] Creating layer inception_5b/relu_3x3_reduce
I0403 10:34:49.564082 26896 net.cpp:91] Creating Layer inception_5b/relu_3x3_reduce
I0403 10:34:49.564100 26896 net.cpp:425] inception_5b/relu_3x3_reduce <- inception_5b/3x3_reduce
I0403 10:34:49.564118 26896 net.cpp:386] inception_5b/relu_3x3_reduce -> inception_5b/3x3_reduce (in-place)
I0403 10:34:49.564138 26896 net.cpp:141] Setting up inception_5b/relu_3x3_reduce
I0403 10:34:49.564157 26896 net.cpp:148] Top shape: 24 192 7 7 (225792)
I0403 10:34:49.564170 26896 net.cpp:156] Memory required for data: 1330660800
I0403 10:34:49.564184 26896 layer_factory.hpp:77] Creating layer inception_5b/3x3
I0403 10:34:49.564208 26896 net.cpp:91] Creating Layer inception_5b/3x3
I0403 10:34:49.564225 26896 net.cpp:425] inception_5b/3x3 <- inception_5b/3x3_reduce
I0403 10:34:49.564247 26896 net.cpp:399] inception_5b/3x3 -> inception_5b/3x3
I0403 10:34:49.569478 26896 net.cpp:141] Setting up inception_5b/3x3
I0403 10:34:49.569506 26896 net.cpp:148] Top shape: 24 384 7 7 (451584)
I0403 10:34:49.569520 26896 net.cpp:156] Memory required for data: 1332467136
I0403 10:34:49.569538 26896 layer_factory.hpp:77] Creating layer inception_5b/relu_3x3
I0403 10:34:49.569557 26896 net.cpp:91] Creating Layer inception_5b/relu_3x3
I0403 10:34:49.569574 26896 net.cpp:425] inception_5b/relu_3x3 <- inception_5b/3x3
I0403 10:34:49.569593 26896 net.cpp:386] inception_5b/relu_3x3 -> inception_5b/3x3 (in-place)
I0403 10:34:49.569614 26896 net.cpp:141] Setting up inception_5b/relu_3x3
I0403 10:34:49.569631 26896 net.cpp:148] Top shape: 24 384 7 7 (451584)
I0403 10:34:49.569646 26896 net.cpp:156] Memory required for data: 1334273472
I0403 10:34:49.569661 26896 layer_factory.hpp:77] Creating layer inception_5b/5x5_reduce
I0403 10:34:49.569684 26896 net.cpp:91] Creating Layer inception_5b/5x5_reduce
I0403 10:34:49.569702 26896 net.cpp:425] inception_5b/5x5_reduce <- inception_5a/output_inception_5a/output_0_split_2
I0403 10:34:49.569721 26896 net.cpp:399] inception_5b/5x5_reduce -> inception_5b/5x5_reduce
I0403 10:34:49.570683 26896 net.cpp:141] Setting up inception_5b/5x5_reduce
I0403 10:34:49.570711 26896 net.cpp:148] Top shape: 24 48 7 7 (56448)
I0403 10:34:49.570726 26896 net.cpp:156] Memory required for data: 1334499264
I0403 10:34:49.570744 26896 layer_factory.hpp:77] Creating layer inception_5b/relu_5x5_reduce
I0403 10:34:49.570763 26896 net.cpp:91] Creating Layer inception_5b/relu_5x5_reduce
I0403 10:34:49.570780 26896 net.cpp:425] inception_5b/relu_5x5_reduce <- inception_5b/5x5_reduce
I0403 10:34:49.570799 26896 net.cpp:386] inception_5b/relu_5x5_reduce -> inception_5b/5x5_reduce (in-place)
I0403 10:34:49.570822 26896 net.cpp:141] Setting up inception_5b/relu_5x5_reduce
I0403 10:34:49.570838 26896 net.cpp:148] Top shape: 24 48 7 7 (56448)
I0403 10:34:49.570852 26896 net.cpp:156] Memory required for data: 1334725056
I0403 10:34:49.570866 26896 layer_factory.hpp:77] Creating layer inception_5b/5x5
I0403 10:34:49.570888 26896 net.cpp:91] Creating Layer inception_5b/5x5
I0403 10:34:49.570904 26896 net.cpp:425] inception_5b/5x5 <- inception_5b/5x5_reduce
I0403 10:34:49.570925 26896 net.cpp:399] inception_5b/5x5 -> inception_5b/5x5
I0403 10:34:49.571988 26896 net.cpp:141] Setting up inception_5b/5x5
I0403 10:34:49.572012 26896 net.cpp:148] Top shape: 24 128 7 7 (150528)
I0403 10:34:49.572031 26896 net.cpp:156] Memory required for data: 1335327168
I0403 10:34:49.572049 26896 layer_factory.hpp:77] Creating layer inception_5b/relu_5x5
I0403 10:34:49.572068 26896 net.cpp:91] Creating Layer inception_5b/relu_5x5
I0403 10:34:49.572084 26896 net.cpp:425] inception_5b/relu_5x5 <- inception_5b/5x5
I0403 10:34:49.572101 26896 net.cpp:386] inception_5b/relu_5x5 -> inception_5b/5x5 (in-place)
I0403 10:34:49.572119 26896 net.cpp:141] Setting up inception_5b/relu_5x5
I0403 10:34:49.572136 26896 net.cpp:148] Top shape: 24 128 7 7 (150528)
I0403 10:34:49.572150 26896 net.cpp:156] Memory required for data: 1335929280
I0403 10:34:49.572165 26896 layer_factory.hpp:77] Creating layer inception_5b/pool
I0403 10:34:49.572199 26896 net.cpp:91] Creating Layer inception_5b/pool
I0403 10:34:49.572216 26896 net.cpp:425] inception_5b/pool <- inception_5a/output_inception_5a/output_0_split_3
I0403 10:34:49.572234 26896 net.cpp:399] inception_5b/pool -> inception_5b/pool
I0403 10:34:49.572290 26896 net.cpp:141] Setting up inception_5b/pool
I0403 10:34:49.572312 26896 net.cpp:148] Top shape: 24 832 7 7 (978432)
I0403 10:34:49.572326 26896 net.cpp:156] Memory required for data: 1339843008
I0403 10:34:49.572340 26896 layer_factory.hpp:77] Creating layer inception_5b/pool_proj
I0403 10:34:49.572363 26896 net.cpp:91] Creating Layer inception_5b/pool_proj
I0403 10:34:49.572379 26896 net.cpp:425] inception_5b/pool_proj <- inception_5b/pool
I0403 10:34:49.572398 26896 net.cpp:399] inception_5b/pool_proj -> inception_5b/pool_proj
I0403 10:34:49.573675 26896 net.cpp:141] Setting up inception_5b/pool_proj
I0403 10:34:49.573703 26896 net.cpp:148] Top shape: 24 128 7 7 (150528)
I0403 10:34:49.573719 26896 net.cpp:156] Memory required for data: 1340445120
I0403 10:34:49.573735 26896 layer_factory.hpp:77] Creating layer inception_5b/relu_pool_proj
I0403 10:34:49.573755 26896 net.cpp:91] Creating Layer inception_5b/relu_pool_proj
I0403 10:34:49.573772 26896 net.cpp:425] inception_5b/relu_pool_proj <- inception_5b/pool_proj
I0403 10:34:49.573791 26896 net.cpp:386] inception_5b/relu_pool_proj -> inception_5b/pool_proj (in-place)
I0403 10:34:49.573812 26896 net.cpp:141] Setting up inception_5b/relu_pool_proj
I0403 10:34:49.573829 26896 net.cpp:148] Top shape: 24 128 7 7 (150528)
I0403 10:34:49.573843 26896 net.cpp:156] Memory required for data: 1341047232
I0403 10:34:49.573858 26896 layer_factory.hpp:77] Creating layer inception_5b/output
I0403 10:34:49.573874 26896 net.cpp:91] Creating Layer inception_5b/output
I0403 10:34:49.573889 26896 net.cpp:425] inception_5b/output <- inception_5b/1x1
I0403 10:34:49.573906 26896 net.cpp:425] inception_5b/output <- inception_5b/3x3
I0403 10:34:49.573921 26896 net.cpp:425] inception_5b/output <- inception_5b/5x5
I0403 10:34:49.573938 26896 net.cpp:425] inception_5b/output <- inception_5b/pool_proj
I0403 10:34:49.573956 26896 net.cpp:399] inception_5b/output -> inception_5b/output
I0403 10:34:49.573997 26896 net.cpp:141] Setting up inception_5b/output
I0403 10:34:49.574018 26896 net.cpp:148] Top shape: 24 1024 7 7 (1204224)
I0403 10:34:49.574038 26896 net.cpp:156] Memory required for data: 1345864128
I0403 10:34:49.574053 26896 layer_factory.hpp:77] Creating layer pool5/7x7_s1
I0403 10:34:49.574069 26896 net.cpp:91] Creating Layer pool5/7x7_s1
I0403 10:34:49.574085 26896 net.cpp:425] pool5/7x7_s1 <- inception_5b/output
I0403 10:34:49.574105 26896 net.cpp:399] pool5/7x7_s1 -> pool5/7x7_s1
I0403 10:34:49.574146 26896 net.cpp:141] Setting up pool5/7x7_s1
I0403 10:34:49.574167 26896 net.cpp:148] Top shape: 24 1024 1 1 (24576)
I0403 10:34:49.574182 26896 net.cpp:156] Memory required for data: 1345962432
I0403 10:34:49.574195 26896 layer_factory.hpp:77] Creating layer pool5/drop_7x7_s1
I0403 10:34:49.574214 26896 net.cpp:91] Creating Layer pool5/drop_7x7_s1
I0403 10:34:49.574230 26896 net.cpp:425] pool5/drop_7x7_s1 <- pool5/7x7_s1
I0403 10:34:49.574249 26896 net.cpp:386] pool5/drop_7x7_s1 -> pool5/7x7_s1 (in-place)
I0403 10:34:49.574285 26896 net.cpp:141] Setting up pool5/drop_7x7_s1
I0403 10:34:49.574306 26896 net.cpp:148] Top shape: 24 1024 1 1 (24576)
I0403 10:34:49.574323 26896 net.cpp:156] Memory required for data: 1346060736
I0403 10:34:49.574337 26896 layer_factory.hpp:77] Creating layer loss3/classifier_plantvillage
I0403 10:34:49.574357 26896 net.cpp:91] Creating Layer loss3/classifier_plantvillage
I0403 10:34:49.574373 26896 net.cpp:425] loss3/classifier_plantvillage <- pool5/7x7_s1
I0403 10:34:49.574391 26896 net.cpp:399] loss3/classifier_plantvillage -> loss3/classifier_plantvillage
I0403 10:34:49.574712 26896 net.cpp:141] Setting up loss3/classifier_plantvillage
I0403 10:34:49.574748 26896 net.cpp:148] Top shape: 24 38 (912)
I0403 10:34:49.574762 26896 net.cpp:156] Memory required for data: 1346064384
I0403 10:34:49.574792 26896 layer_factory.hpp:77] Creating layer loss3/classifier_plantvillage_loss3/classifier_plantvillage_0_split
I0403 10:34:49.574812 26896 net.cpp:91] Creating Layer loss3/classifier_plantvillage_loss3/classifier_plantvillage_0_split
I0403 10:34:49.574827 26896 net.cpp:425] loss3/classifier_plantvillage_loss3/classifier_plantvillage_0_split <- loss3/classifier_plantvillage
I0403 10:34:49.574846 26896 net.cpp:399] loss3/classifier_plantvillage_loss3/classifier_plantvillage_0_split -> loss3/classifier_plantvillage_loss3/classifier_plantvillage_0_split_0
I0403 10:34:49.574867 26896 net.cpp:399] loss3/classifier_plantvillage_loss3/classifier_plantvillage_0_split -> loss3/classifier_plantvillage_loss3/classifier_plantvillage_0_split_1
I0403 10:34:49.574887 26896 net.cpp:399] loss3/classifier_plantvillage_loss3/classifier_plantvillage_0_split -> loss3/classifier_plantvillage_loss3/classifier_plantvillage_0_split_2
I0403 10:34:49.574949 26896 net.cpp:141] Setting up loss3/classifier_plantvillage_loss3/classifier_plantvillage_0_split
I0403 10:34:49.574970 26896 net.cpp:148] Top shape: 24 38 (912)
I0403 10:34:49.574985 26896 net.cpp:148] Top shape: 24 38 (912)
I0403 10:34:49.575000 26896 net.cpp:148] Top shape: 24 38 (912)
I0403 10:34:49.575012 26896 net.cpp:156] Memory required for data: 1346075328
I0403 10:34:49.575028 26896 layer_factory.hpp:77] Creating layer loss1/loss
I0403 10:34:49.575047 26896 net.cpp:91] Creating Layer loss1/loss
I0403 10:34:49.575063 26896 net.cpp:425] loss1/loss <- loss1/classifier_plantvillage_loss1/classifier_plantvillage_0_split_0
I0403 10:34:49.575079 26896 net.cpp:425] loss1/loss <- label_data_1_split_0
…
