…
I0403 02:30:36.867555 28785 net.cpp:313] The NetState phase (0) differed from the phase (1) specified by a rule in layer accuracy
I0403 02:30:36.869465 28785 net.cpp:49] Initializing net from parameters: 
state {
  phase: TRAIN
}
layer {
  name: "data"
  type: "Data"
  top: "data"
  top: "label"
  include {
    phase: TRAIN
  }
  transform_param {
    mirror: true
    crop_size: 227
    mean_file: "/home/mohanty/data/final_dataset/lmdb/grayscale-60-40/mean.binaryproto"
  }
  data_param {
    source: "/home/mohanty/data/final_dataset/lmdb/grayscale-60-40/train_db"
    batch_size: 100
    backend: LMDB
  }
}
layer {
  name: "conv1"
  type: "Convolution"
  bottom: "data"
  top: "conv1"
  param {
    lr_mult: 1
    decay_mult: 1
  }
  param {
    lr_mult: 2
    decay_mult: 0
  }
  convolution_param {
    num_output: 96
    kernel_size: 11
    stride: 4
    weight_filler {
      type: "gaussian"
      std: 0.01
    }
    bias_filler {
      type: "constant"
      value: 0
    }
  }
}
layer {
  name: "relu1"
  type: "ReLU"
  bottom: "conv1"
  top: "conv1"
}
layer {
  name: "norm1"
  type: "LRN"
  bottom: "conv1"
  top: "norm1"
  lrn_param {
    local_size: 5
    alpha: 0.0001
    beta: 0.75
  }
}
layer {
  name: "pool1"
  type: "Pooling"
  bottom: "norm1"
  top: "pool1"
  pooling_param {
    pool: MAX
    kernel_size: 3
    stride: 2
  }
}
layer {
  name: "conv2"
  type: "Convolution"
  bottom: "pool1"
  top: "conv2"
  param {
    lr_mult: 1
    decay_mult: 1
  }
  param {
    lr_mult: 2
    decay_mult: 0
  }
  convolution_param {
    num_output: 256
    pad: 2
    kernel_size: 5
    group: 2
    weight_filler {
      type: "gaussian"
      std: 0.01
    }
    bias_filler {
      type: "constant"
      value: 0.1
    }
  }
}
layer {
  name: "relu2"
  type: "ReLU"
  bottom: "conv2"
  top: "conv2"
}
layer {
  name: "norm2"
  type: "LRN"
  bottom: "conv2"
  top: "norm2"
  lrn_param {
    local_size: 5
    alpha: 0.0001
    beta: 0.75
  }
}
layer {
  name: "pool2"
  type: "Pooling"
  bottom: "norm2"
  top: "pool2"
  pooling_param {
    pool: MAX
    kernel_size: 3
    stride: 2
  }
}
layer {
  name: "conv3"
  type: "Convolution"
  bottom: "pool2"
  top: "conv3"
  param {
    lr_mult: 1
    decay_mult: 1
  }
  param {
    lr_mult: 2
    decay_mult: 0
  }
  convolution_param {
    num_output: 384
    pad: 1
    kernel_size: 3
    weight_filler {
      type: "gaussian"
      std: 0.01
    }
    bias_filler {
      type: "constant"
      value: 0
    }
  }
}
layer {
  name: "relu3"
  type: "ReLU"
  bottom: "conv3"
  top: "conv3"
}
layer {
  name: "conv4"
  type: "Convolution"
  bottom: "conv3"
  top: "conv4"
  param {
    lr_mult: 1
    decay_mult: 1
  }
  param {
    lr_mult: 2
    decay_mult: 0
  }
  convolution_param {
    num_output: 384
    pad: 1
    kernel_size: 3
    group: 2
    weight_filler {
      type: "gaussian"
      std: 0.01
    }
    bias_filler {
      type: "constant"
      value: 0.1
    }
  }
}
layer {
  name: "relu4"
  type: "ReLU"
  bottom: "conv4"
  top: "conv4"
}
layer {
  name: "conv5"
  type: "Convolution"
  bottom: "conv4"
  top: "conv5"
  param {
    lr_mult: 1
    decay_mult: 1
  }
  param {
    lr_mult: 2
    decay_mult: 0
  }
  convolution_param {
    num_output: 256
    pad: 1
    kernel_size: 3
    group: 2
    weight_filler {
      type: "gaussian"
      std: 0.01
    }
    bias_filler {
      type: "constant"
      value: 0.1
    }
  }
}
layer {
  name: "relu5"
  type: "ReLU"
  bottom: "conv5"
  top: "conv5"
}
layer {
  name: "pool5"
  type: "Pooling"
  bottom: "conv5"
  top: "pool5"
  pooling_param {
    pool: MAX
    kernel_size: 3
    stride: 2
  }
}
layer {
  name: "fc6"
  type: "InnerProduct"
  bottom: "pool5"
  top: "fc6"
  param {
    lr_mult: 1
    decay_mult: 1
  }
  param {
    lr_mult: 2
    decay_mult: 0
  }
  inner_product_param {
    num_output: 4096
    weight_filler {
      type: "gaussian"
      std: 0.005
    }
    bias_filler {
      type: "constant"
      value: 0.1
    }
  }
}
layer {
  name: "relu6"
  type: "ReLU"
  bottom: "fc6"
  top: "fc6"
}
layer {
  name: "drop6"
  type: "Dropout"
  bottom: "fc6"
  top: "fc6"
  dropout_param {
    dropout_ratio: 0.5
  }
}
layer {
  name: "fc7"
  type: "InnerProduct"
  bottom: "fc6"
  top: "fc7"
  param {
    lr_mult: 1
    decay_mult: 1
  }
  param {
    lr_mult: 2
    decay_mult: 0
  }
  inner_product_param {
    num_output: 4096
    weight_filler {
      type: "gaussian"
      std: 0.005
    }
    bias_filler {
      type: "constant"
      value: 0.1
    }
  }
}
layer {
  name: "relu7"
  type: "ReLU"
  bottom: "fc7"
  top: "fc7"
}
layer {
  name: "drop7"
  type: "Dropout"
  bottom: "fc7"
  top: "fc7"
  dropout_param {
    dropout_ratio: 0.5
  }
}
layer {
  name: "fc8_plantvillage"
  type: "InnerProduct"
  bottom: "fc7"
  top: "fc8_plantvillage"
  param {
    lr_mult: 1
    decay_mult: 1
  }
  param {
    lr_mult: 2
    decay_mult: 0
  }
  inner_product_param {
    num_output: 38
    weight_filler {
      type: "gaussian"
      std: 0.01
    }
    bias_filler {
      type: "constant"
      value: 0
    }
  }
}
layer {
  name: "loss"
  type: "SoftmaxWithLoss"
  bottom: "fc8_plantvillage"
  bottom: "label"
  top: "loss"
}
I0403 02:30:36.872082 28785 layer_factory.hpp:77] Creating layer data
I0403 02:30:36.874778 28785 net.cpp:91] Creating Layer data
I0403 02:30:36.874949 28785 net.cpp:399] data -> data
I0403 02:30:36.875373 28785 net.cpp:399] data -> label
I0403 02:30:36.875483 28785 data_transformer.cpp:25] Loading mean file from: /home/mohanty/data/final_dataset/lmdb/grayscale-60-40/mean.binaryproto
I0403 02:30:36.916012 28792 db_lmdb.cpp:38] Opened lmdb /home/mohanty/data/final_dataset/lmdb/grayscale-60-40/train_db
I0403 02:30:36.939187 28785 data_layer.cpp:41] output data size: 100,3,227,227
I0403 02:30:37.077118 28785 net.cpp:141] Setting up data
I0403 02:30:37.077239 28785 net.cpp:148] Top shape: 100 3 227 227 (15458700)
I0403 02:30:37.077275 28785 net.cpp:148] Top shape: 100 (100)
I0403 02:30:37.077296 28785 net.cpp:156] Memory required for data: 61835200
I0403 02:30:37.077333 28785 layer_factory.hpp:77] Creating layer conv1
I0403 02:30:37.077388 28785 net.cpp:91] Creating Layer conv1
I0403 02:30:37.077414 28785 net.cpp:425] conv1 <- data
I0403 02:30:37.077451 28785 net.cpp:399] conv1 -> conv1
I0403 02:30:37.086947 28785 net.cpp:141] Setting up conv1
I0403 02:30:37.086987 28785 net.cpp:148] Top shape: 100 96 55 55 (29040000)
I0403 02:30:37.087021 28785 net.cpp:156] Memory required for data: 177995200
I0403 02:30:37.087090 28785 layer_factory.hpp:77] Creating layer relu1
I0403 02:30:37.087187 28785 net.cpp:91] Creating Layer relu1
I0403 02:30:37.087242 28785 net.cpp:425] relu1 <- conv1
I0403 02:30:37.087298 28785 net.cpp:386] relu1 -> conv1 (in-place)
I0403 02:30:37.087386 28785 net.cpp:141] Setting up relu1
I0403 02:30:37.087419 28785 net.cpp:148] Top shape: 100 96 55 55 (29040000)
I0403 02:30:37.087460 28785 net.cpp:156] Memory required for data: 294155200
I0403 02:30:37.087481 28785 layer_factory.hpp:77] Creating layer norm1
I0403 02:30:37.087507 28785 net.cpp:91] Creating Layer norm1
I0403 02:30:37.087563 28785 net.cpp:425] norm1 <- conv1
I0403 02:30:37.087587 28785 net.cpp:399] norm1 -> norm1
I0403 02:30:37.087702 28785 net.cpp:141] Setting up norm1
I0403 02:30:37.087730 28785 net.cpp:148] Top shape: 100 96 55 55 (29040000)
I0403 02:30:37.087754 28785 net.cpp:156] Memory required for data: 410315200
I0403 02:30:37.087779 28785 layer_factory.hpp:77] Creating layer pool1
I0403 02:30:37.087810 28785 net.cpp:91] Creating Layer pool1
I0403 02:30:37.087831 28785 net.cpp:425] pool1 <- norm1
I0403 02:30:37.087855 28785 net.cpp:399] pool1 -> pool1
I0403 02:30:37.087944 28785 net.cpp:141] Setting up pool1
I0403 02:30:37.087975 28785 net.cpp:148] Top shape: 100 96 27 27 (6998400)
I0403 02:30:37.087995 28785 net.cpp:156] Memory required for data: 438308800
I0403 02:30:37.088013 28785 layer_factory.hpp:77] Creating layer conv2
I0403 02:30:37.088040 28785 net.cpp:91] Creating Layer conv2
I0403 02:30:37.088063 28785 net.cpp:425] conv2 <- pool1
I0403 02:30:37.088086 28785 net.cpp:399] conv2 -> conv2
I0403 02:30:37.088510 28794 blocking_queue.cpp:50] Waiting for data
I0403 02:30:37.105310 28785 net.cpp:141] Setting up conv2
I0403 02:30:37.105350 28785 net.cpp:148] Top shape: 100 256 27 27 (18662400)
I0403 02:30:37.105370 28785 net.cpp:156] Memory required for data: 512958400
I0403 02:30:37.105397 28785 layer_factory.hpp:77] Creating layer relu2
I0403 02:30:37.105423 28785 net.cpp:91] Creating Layer relu2
I0403 02:30:37.105445 28785 net.cpp:425] relu2 <- conv2
I0403 02:30:37.105468 28785 net.cpp:386] relu2 -> conv2 (in-place)
I0403 02:30:37.105492 28785 net.cpp:141] Setting up relu2
I0403 02:30:37.105515 28785 net.cpp:148] Top shape: 100 256 27 27 (18662400)
I0403 02:30:37.105532 28785 net.cpp:156] Memory required for data: 587608000
I0403 02:30:37.105551 28785 layer_factory.hpp:77] Creating layer norm2
I0403 02:30:37.105576 28785 net.cpp:91] Creating Layer norm2
I0403 02:30:37.105597 28785 net.cpp:425] norm2 <- conv2
I0403 02:30:37.105618 28785 net.cpp:399] norm2 -> norm2
I0403 02:30:37.105676 28785 net.cpp:141] Setting up norm2
I0403 02:30:37.105706 28785 net.cpp:148] Top shape: 100 256 27 27 (18662400)
I0403 02:30:37.105726 28785 net.cpp:156] Memory required for data: 662257600
I0403 02:30:37.105743 28785 layer_factory.hpp:77] Creating layer pool2
I0403 02:30:37.105769 28785 net.cpp:91] Creating Layer pool2
I0403 02:30:37.105792 28785 net.cpp:425] pool2 <- norm2
I0403 02:30:37.105814 28785 net.cpp:399] pool2 -> pool2
I0403 02:30:37.105872 28785 net.cpp:141] Setting up pool2
I0403 02:30:37.105903 28785 net.cpp:148] Top shape: 100 256 13 13 (4326400)
I0403 02:30:37.105922 28785 net.cpp:156] Memory required for data: 679563200
I0403 02:30:37.105940 28785 layer_factory.hpp:77] Creating layer conv3
I0403 02:30:37.105968 28785 net.cpp:91] Creating Layer conv3
I0403 02:30:37.105991 28785 net.cpp:425] conv3 <- pool2
I0403 02:30:37.106016 28785 net.cpp:399] conv3 -> conv3
I0403 02:30:37.149302 28785 net.cpp:141] Setting up conv3
I0403 02:30:37.149345 28785 net.cpp:148] Top shape: 100 384 13 13 (6489600)
I0403 02:30:37.149366 28785 net.cpp:156] Memory required for data: 705521600
I0403 02:30:37.149394 28785 layer_factory.hpp:77] Creating layer relu3
I0403 02:30:37.149420 28785 net.cpp:91] Creating Layer relu3
I0403 02:30:37.149441 28785 net.cpp:425] relu3 <- conv3
I0403 02:30:37.149463 28785 net.cpp:386] relu3 -> conv3 (in-place)
I0403 02:30:37.149487 28785 net.cpp:141] Setting up relu3
I0403 02:30:37.149507 28785 net.cpp:148] Top shape: 100 384 13 13 (6489600)
I0403 02:30:37.149526 28785 net.cpp:156] Memory required for data: 731480000
I0403 02:30:37.149544 28785 layer_factory.hpp:77] Creating layer conv4
I0403 02:30:37.149572 28785 net.cpp:91] Creating Layer conv4
I0403 02:30:37.149593 28785 net.cpp:425] conv4 <- conv3
I0403 02:30:37.149618 28785 net.cpp:399] conv4 -> conv4
I0403 02:30:37.181051 28785 net.cpp:141] Setting up conv4
I0403 02:30:37.181092 28785 net.cpp:148] Top shape: 100 384 13 13 (6489600)
I0403 02:30:37.181113 28785 net.cpp:156] Memory required for data: 757438400
I0403 02:30:37.181159 28785 layer_factory.hpp:77] Creating layer relu4
I0403 02:30:37.181185 28785 net.cpp:91] Creating Layer relu4
I0403 02:30:37.181205 28785 net.cpp:425] relu4 <- conv4
I0403 02:30:37.181227 28785 net.cpp:386] relu4 -> conv4 (in-place)
I0403 02:30:37.181252 28785 net.cpp:141] Setting up relu4
I0403 02:30:37.181282 28785 net.cpp:148] Top shape: 100 384 13 13 (6489600)
I0403 02:30:37.181300 28785 net.cpp:156] Memory required for data: 783396800
I0403 02:30:37.181318 28785 layer_factory.hpp:77] Creating layer conv5
I0403 02:30:37.181346 28785 net.cpp:91] Creating Layer conv5
I0403 02:30:37.181368 28785 net.cpp:425] conv5 <- conv4
I0403 02:30:37.181393 28785 net.cpp:399] conv5 -> conv5
I0403 02:30:37.202453 28785 net.cpp:141] Setting up conv5
I0403 02:30:37.202491 28785 net.cpp:148] Top shape: 100 256 13 13 (4326400)
I0403 02:30:37.202512 28785 net.cpp:156] Memory required for data: 800702400
I0403 02:30:37.202538 28785 layer_factory.hpp:77] Creating layer relu5
I0403 02:30:37.202564 28785 net.cpp:91] Creating Layer relu5
I0403 02:30:37.202585 28785 net.cpp:425] relu5 <- conv5
I0403 02:30:37.202606 28785 net.cpp:386] relu5 -> conv5 (in-place)
I0403 02:30:37.202630 28785 net.cpp:141] Setting up relu5
I0403 02:30:37.202652 28785 net.cpp:148] Top shape: 100 256 13 13 (4326400)
I0403 02:30:37.202671 28785 net.cpp:156] Memory required for data: 818008000
I0403 02:30:37.202688 28785 layer_factory.hpp:77] Creating layer pool5
I0403 02:30:37.202713 28785 net.cpp:91] Creating Layer pool5
I0403 02:30:37.202733 28785 net.cpp:425] pool5 <- conv5
I0403 02:30:37.202757 28785 net.cpp:399] pool5 -> pool5
I0403 02:30:37.202819 28785 net.cpp:141] Setting up pool5
I0403 02:30:37.202849 28785 net.cpp:148] Top shape: 100 256 6 6 (921600)
I0403 02:30:37.202868 28785 net.cpp:156] Memory required for data: 821694400
I0403 02:30:37.202888 28785 layer_factory.hpp:77] Creating layer fc6
I0403 02:30:37.202940 28785 net.cpp:91] Creating Layer fc6
I0403 02:30:37.202968 28785 net.cpp:425] fc6 <- pool5
I0403 02:30:37.202993 28785 net.cpp:399] fc6 -> fc6
I0403 02:30:38.752226 28785 net.cpp:141] Setting up fc6
I0403 02:30:38.752321 28785 net.cpp:148] Top shape: 100 4096 (409600)
I0403 02:30:38.752337 28785 net.cpp:156] Memory required for data: 823332800
I0403 02:30:38.752359 28785 layer_factory.hpp:77] Creating layer relu6
I0403 02:30:38.752383 28785 net.cpp:91] Creating Layer relu6
I0403 02:30:38.752399 28785 net.cpp:425] relu6 <- fc6
I0403 02:30:38.752421 28785 net.cpp:386] relu6 -> fc6 (in-place)
I0403 02:30:38.752444 28785 net.cpp:141] Setting up relu6
I0403 02:30:38.752461 28785 net.cpp:148] Top shape: 100 4096 (409600)
I0403 02:30:38.752475 28785 net.cpp:156] Memory required for data: 824971200
I0403 02:30:38.752488 28785 layer_factory.hpp:77] Creating layer drop6
I0403 02:30:38.752538 28785 net.cpp:91] Creating Layer drop6
I0403 02:30:38.752557 28785 net.cpp:425] drop6 <- fc6
I0403 02:30:38.752576 28785 net.cpp:386] drop6 -> fc6 (in-place)
I0403 02:30:38.752634 28785 net.cpp:141] Setting up drop6
I0403 02:30:38.752656 28785 net.cpp:148] Top shape: 100 4096 (409600)
I0403 02:30:38.752671 28785 net.cpp:156] Memory required for data: 826609600
I0403 02:30:38.752686 28785 layer_factory.hpp:77] Creating layer fc7
I0403 02:30:38.752707 28785 net.cpp:91] Creating Layer fc7
I0403 02:30:38.752724 28785 net.cpp:425] fc7 <- fc6
I0403 02:30:38.752743 28785 net.cpp:399] fc7 -> fc7
I0403 02:30:39.357297 28785 net.cpp:141] Setting up fc7
I0403 02:30:39.357396 28785 net.cpp:148] Top shape: 100 4096 (409600)
I0403 02:30:39.357414 28785 net.cpp:156] Memory required for data: 828248000
I0403 02:30:39.357435 28785 layer_factory.hpp:77] Creating layer relu7
I0403 02:30:39.357460 28785 net.cpp:91] Creating Layer relu7
I0403 02:30:39.357477 28785 net.cpp:425] relu7 <- fc7
I0403 02:30:39.357496 28785 net.cpp:386] relu7 -> fc7 (in-place)
I0403 02:30:39.357517 28785 net.cpp:141] Setting up relu7
I0403 02:30:39.357533 28785 net.cpp:148] Top shape: 100 4096 (409600)
I0403 02:30:39.357547 28785 net.cpp:156] Memory required for data: 829886400
I0403 02:30:39.357560 28785 layer_factory.hpp:77] Creating layer drop7
I0403 02:30:39.357612 28785 net.cpp:91] Creating Layer drop7
I0403 02:30:39.357628 28785 net.cpp:425] drop7 <- fc7
I0403 02:30:39.357648 28785 net.cpp:386] drop7 -> fc7 (in-place)
I0403 02:30:39.357686 28785 net.cpp:141] Setting up drop7
I0403 02:30:39.357709 28785 net.cpp:148] Top shape: 100 4096 (409600)
I0403 02:30:39.357724 28785 net.cpp:156] Memory required for data: 831524800
I0403 02:30:39.357738 28785 layer_factory.hpp:77] Creating layer fc8_plantvillage
I0403 02:30:39.357759 28785 net.cpp:91] Creating Layer fc8_plantvillage
I0403 02:30:39.357775 28785 net.cpp:425] fc8_plantvillage <- fc7
I0403 02:30:39.357796 28785 net.cpp:399] fc8_plantvillage -> fc8_plantvillage
I0403 02:30:39.363865 28785 net.cpp:141] Setting up fc8_plantvillage
I0403 02:30:39.363894 28785 net.cpp:148] Top shape: 100 38 (3800)
I0403 02:30:39.363910 28785 net.cpp:156] Memory required for data: 831540000
I0403 02:30:39.363931 28785 layer_factory.hpp:77] Creating layer loss
I0403 02:30:39.363981 28785 net.cpp:91] Creating Layer loss
I0403 02:30:39.364001 28785 net.cpp:425] loss <- fc8_plantvillage
I0403 02:30:39.364017 28785 net.cpp:425] loss <- label
I0403 02:30:39.364043 28785 net.cpp:399] loss -> loss
I0403 02:30:39.364083 28785 layer_factory.hpp:77] Creating layer loss
…
I0403 02:30:39.366009 28785 net.cpp:313] The NetState phase (1) differed from the phase (0) specified by a rule in layer data
I0403 02:30:39.366693 28785 net.cpp:49] Initializing net from parameters: 
state {
  phase: TEST
}
layer {
  name: "data"
  type: "Data"
  top: "data"
  top: "label"
  include {
    phase: TEST
  }
  transform_param {
    crop_size: 227
    mean_file: "/home/mohanty/data/final_dataset/lmdb/grayscale-60-40/mean.binaryproto"
  }
  data_param {
    source: "/home/mohanty/data/final_dataset/lmdb/grayscale-60-40/test_db"
    batch_size: 100
    backend: LMDB
  }
}
layer {
  name: "conv1"
  type: "Convolution"
  bottom: "data"
  top: "conv1"
  param {
    lr_mult: 1
    decay_mult: 1
  }
  param {
    lr_mult: 2
    decay_mult: 0
  }
  convolution_param {
    num_output: 96
    kernel_size: 11
    stride: 4
    weight_filler {
      type: "gaussian"
      std: 0.01
    }
    bias_filler {
      type: "constant"
      value: 0
    }
  }
}
layer {
  name: "relu1"
  type: "ReLU"
  bottom: "conv1"
  top: "conv1"
}
layer {
  name: "norm1"
  type: "LRN"
  bottom: "conv1"
  top: "norm1"
  lrn_param {
    local_size: 5
    alpha: 0.0001
    beta: 0.75
  }
}
layer {
  name: "pool1"
  type: "Pooling"
  bottom: "norm1"
  top: "pool1"
  pooling_param {
    pool: MAX
    kernel_size: 3
    stride: 2
  }
}
layer {
  name: "conv2"
  type: "Convolution"
  bottom: "pool1"
  top: "conv2"
  param {
    lr_mult: 1
    decay_mult: 1
  }
  param {
    lr_mult: 2
    decay_mult: 0
  }
  convolution_param {
    num_output: 256
    pad: 2
    kernel_size: 5
    group: 2
    weight_filler {
      type: "gaussian"
      std: 0.01
    }
    bias_filler {
      type: "constant"
      value: 0.1
    }
  }
}
layer {
  name: "relu2"
  type: "ReLU"
  bottom: "conv2"
  top: "conv2"
}
layer {
  name: "norm2"
  type: "LRN"
  bottom: "conv2"
  top: "norm2"
  lrn_param {
    local_size: 5
    alpha: 0.0001
    beta: 0.75
  }
}
layer {
  name: "pool2"
  type: "Pooling"
  bottom: "norm2"
  top: "pool2"
  pooling_param {
    pool: MAX
    kernel_size: 3
    stride: 2
  }
}
layer {
  name: "conv3"
  type: "Convolution"
  bottom: "pool2"
  top: "conv3"
  param {
    lr_mult: 1
    decay_mult: 1
  }
  param {
    lr_mult: 2
    decay_mult: 0
  }
  convolution_param {
    num_output: 384
    pad: 1
    kernel_size: 3
    weight_filler {
      type: "gaussian"
      std: 0.01
    }
    bias_filler {
      type: "constant"
      value: 0
    }
  }
}
layer {
  name: "relu3"
  type: "ReLU"
  bottom: "conv3"
  top: "conv3"
}
layer {
  name: "conv4"
  type: "Convolution"
  bottom: "conv3"
  top: "conv4"
  param {
    lr_mult: 1
    decay_mult: 1
  }
  param {
    lr_mult: 2
    decay_mult: 0
  }
  convolution_param {
    num_output: 384
    pad: 1
    kernel_size: 3
    group: 2
    weight_filler {
      type: "gaussian"
      std: 0.01
    }
    bias_filler {
      type: "constant"
      value: 0.1
    }
  }
}
layer {
  name: "relu4"
  type: "ReLU"
  bottom: "conv4"
  top: "conv4"
}
layer {
  name: "conv5"
  type: "Convolution"
  bottom: "conv4"
  top: "conv5"
  param {
    lr_mult: 1
    decay_mult: 1
  }
  param {
    lr_mult: 2
    decay_mult: 0
  }
  convolution_param {
    num_output: 256
    pad: 1
    kernel_size: 3
    group: 2
    weight_filler {
      type: "gaussian"
      std: 0.01
    }
    bias_filler {
      type: "constant"
      value: 0.1
    }
  }
}
layer {
  name: "relu5"
  type: "ReLU"
  bottom: "conv5"
  top: "conv5"
}
layer {
  name: "pool5"
  type: "Pooling"
  bottom: "conv5"
  top: "pool5"
  pooling_param {
    pool: MAX
    kernel_size: 3
    stride: 2
  }
}
layer {
  name: "fc6"
  type: "InnerProduct"
  bottom: "pool5"
  top: "fc6"
  param {
    lr_mult: 1
    decay_mult: 1
  }
  param {
    lr_mult: 2
    decay_mult: 0
  }
  inner_product_param {
    num_output: 4096
    weight_filler {
      type: "gaussian"
      std: 0.005
    }
    bias_filler {
      type: "constant"
      value: 0.1
    }
  }
}
layer {
  name: "relu6"
  type: "ReLU"
  bottom: "fc6"
  top: "fc6"
}
layer {
  name: "drop6"
  type: "Dropout"
  bottom: "fc6"
  top: "fc6"
  dropout_param {
    dropout_ratio: 0.5
  }
}
layer {
  name: "fc7"
  type: "InnerProduct"
  bottom: "fc6"
  top: "fc7"
  param {
    lr_mult: 1
    decay_mult: 1
  }
  param {
    lr_mult: 2
    decay_mult: 0
  }
  inner_product_param {
    num_output: 4096
    weight_filler {
      type: "gaussian"
      std: 0.005
    }
    bias_filler {
      type: "constant"
      value: 0.1
    }
  }
}
layer {
  name: "relu7"
  type: "ReLU"
  bottom: "fc7"
  top: "fc7"
}
layer {
  name: "drop7"
  type: "Dropout"
  bottom: "fc7"
  top: "fc7"
  dropout_param {
    dropout_ratio: 0.5
  }
}
layer {
  name: "fc8_plantvillage"
  type: "InnerProduct"
  bottom: "fc7"
  top: "fc8_plantvillage"
  param {
    lr_mult: 1
    decay_mult: 1
  }
  param {
    lr_mult: 2
    decay_mult: 0
  }
  inner_product_param {
    num_output: 38
    weight_filler {
      type: "gaussian"
      std: 0.01
    }
    bias_filler {
      type: "constant"
      value: 0
    }
  }
}
layer {
  name: "loss"
  type: "SoftmaxWithLoss"
  bottom: "fc8_plantvillage"
  bottom: "label"
  top: "loss"
}
layer {
  name: "accuracy"
  type: "Accuracy"
  bottom: "fc8_plantvillage"
  bottom: "label"
  top: "accuracy"
  include {
    phase: TEST
  }
}
I0403 02:30:39.366874 28785 layer_factory.hpp:77] Creating layer data
I0403 02:30:39.367012 28785 net.cpp:91] Creating Layer data
I0403 02:30:39.367038 28785 net.cpp:399] data -> data
I0403 02:30:39.367064 28785 net.cpp:399] data -> label
I0403 02:30:39.367089 28785 data_transformer.cpp:25] Loading mean file from: /home/mohanty/data/final_dataset/lmdb/grayscale-60-40/mean.binaryproto
I0403 02:30:39.396577 28796 db_lmdb.cpp:38] Opened lmdb /home/mohanty/data/final_dataset/lmdb/grayscale-60-40/test_db
I0403 02:30:39.410100 28785 data_layer.cpp:41] output data size: 100,3,227,227
I0403 02:30:39.662379 28785 net.cpp:141] Setting up data
I0403 02:30:39.662657 28785 net.cpp:148] Top shape: 100 3 227 227 (15458700)
I0403 02:30:39.662730 28785 net.cpp:148] Top shape: 100 (100)
I0403 02:30:39.662804 28785 net.cpp:156] Memory required for data: 61835200
I0403 02:30:39.662859 28785 layer_factory.hpp:77] Creating layer label_data_1_split
I0403 02:30:39.662953 28785 net.cpp:91] Creating Layer label_data_1_split
I0403 02:30:39.663038 28785 net.cpp:425] label_data_1_split <- label
I0403 02:30:39.663130 28785 net.cpp:399] label_data_1_split -> label_data_1_split_0
I0403 02:30:39.663179 28785 net.cpp:399] label_data_1_split -> label_data_1_split_1
I0403 02:30:39.663332 28785 net.cpp:141] Setting up label_data_1_split
I0403 02:30:39.663363 28785 net.cpp:148] Top shape: 100 (100)
I0403 02:30:39.663411 28785 net.cpp:148] Top shape: 100 (100)
I0403 02:30:39.663449 28785 net.cpp:156] Memory required for data: 61836000
I0403 02:30:39.663485 28785 layer_factory.hpp:77] Creating layer conv1
I0403 02:30:39.663545 28785 net.cpp:91] Creating Layer conv1
I0403 02:30:39.663590 28785 net.cpp:425] conv1 <- data
I0403 02:30:39.663641 28785 net.cpp:399] conv1 -> conv1
I0403 02:30:39.666275 28785 net.cpp:141] Setting up conv1
I0403 02:30:39.666311 28785 net.cpp:148] Top shape: 100 96 55 55 (29040000)
I0403 02:30:39.666327 28785 net.cpp:156] Memory required for data: 177996000
I0403 02:30:39.666352 28785 layer_factory.hpp:77] Creating layer relu1
I0403 02:30:39.666393 28785 net.cpp:91] Creating Layer relu1
I0403 02:30:39.666437 28785 net.cpp:425] relu1 <- conv1
I0403 02:30:39.666456 28785 net.cpp:386] relu1 -> conv1 (in-place)
I0403 02:30:39.666476 28785 net.cpp:141] Setting up relu1
I0403 02:30:39.666494 28785 net.cpp:148] Top shape: 100 96 55 55 (29040000)
I0403 02:30:39.666509 28785 net.cpp:156] Memory required for data: 294156000
I0403 02:30:39.666524 28785 layer_factory.hpp:77] Creating layer norm1
I0403 02:30:39.666546 28785 net.cpp:91] Creating Layer norm1
I0403 02:30:39.666563 28785 net.cpp:425] norm1 <- conv1
I0403 02:30:39.666582 28785 net.cpp:399] norm1 -> norm1
I0403 02:30:39.666633 28785 net.cpp:141] Setting up norm1
I0403 02:30:39.666656 28785 net.cpp:148] Top shape: 100 96 55 55 (29040000)
I0403 02:30:39.666672 28785 net.cpp:156] Memory required for data: 410316000
I0403 02:30:39.666687 28785 layer_factory.hpp:77] Creating layer pool1
I0403 02:30:39.666707 28785 net.cpp:91] Creating Layer pool1
I0403 02:30:39.666724 28785 net.cpp:425] pool1 <- norm1
I0403 02:30:39.666743 28785 net.cpp:399] pool1 -> pool1
I0403 02:30:39.666792 28785 net.cpp:141] Setting up pool1
I0403 02:30:39.666816 28785 net.cpp:148] Top shape: 100 96 27 27 (6998400)
I0403 02:30:39.666831 28785 net.cpp:156] Memory required for data: 438309600
I0403 02:30:39.666880 28785 layer_factory.hpp:77] Creating layer conv2
I0403 02:30:39.666905 28785 net.cpp:91] Creating Layer conv2
I0403 02:30:39.666923 28785 net.cpp:425] conv2 <- pool1
I0403 02:30:39.666944 28785 net.cpp:399] conv2 -> conv2
I0403 02:30:39.679877 28785 net.cpp:141] Setting up conv2
I0403 02:30:39.679913 28785 net.cpp:148] Top shape: 100 256 27 27 (18662400)
I0403 02:30:39.679929 28785 net.cpp:156] Memory required for data: 512959200
I0403 02:30:39.679951 28785 layer_factory.hpp:77] Creating layer relu2
I0403 02:30:39.679973 28785 net.cpp:91] Creating Layer relu2
I0403 02:30:39.679991 28785 net.cpp:425] relu2 <- conv2
I0403 02:30:39.680011 28785 net.cpp:386] relu2 -> conv2 (in-place)
I0403 02:30:39.680032 28785 net.cpp:141] Setting up relu2
I0403 02:30:39.680050 28785 net.cpp:148] Top shape: 100 256 27 27 (18662400)
I0403 02:30:39.680068 28785 net.cpp:156] Memory required for data: 587608800
I0403 02:30:39.680083 28785 layer_factory.hpp:77] Creating layer norm2
I0403 02:30:39.680104 28785 net.cpp:91] Creating Layer norm2
I0403 02:30:39.680122 28785 net.cpp:425] norm2 <- conv2
I0403 02:30:39.680141 28785 net.cpp:399] norm2 -> norm2
I0403 02:30:39.680192 28785 net.cpp:141] Setting up norm2
I0403 02:30:39.680217 28785 net.cpp:148] Top shape: 100 256 27 27 (18662400)
I0403 02:30:39.680248 28785 net.cpp:156] Memory required for data: 662258400
I0403 02:30:39.680361 28785 layer_factory.hpp:77] Creating layer pool2
I0403 02:30:39.680444 28785 net.cpp:91] Creating Layer pool2
I0403 02:30:39.680516 28785 net.cpp:425] pool2 <- norm2
I0403 02:30:39.680615 28785 net.cpp:399] pool2 -> pool2
I0403 02:30:39.680716 28785 net.cpp:141] Setting up pool2
I0403 02:30:39.680820 28785 net.cpp:148] Top shape: 100 256 13 13 (4326400)
I0403 02:30:39.680920 28785 net.cpp:156] Memory required for data: 679564000
I0403 02:30:39.680986 28785 layer_factory.hpp:77] Creating layer conv3
I0403 02:30:39.681016 28785 net.cpp:91] Creating Layer conv3
I0403 02:30:39.681041 28785 net.cpp:425] conv3 <- pool2
I0403 02:30:39.681068 28785 net.cpp:399] conv3 -> conv3
I0403 02:30:39.718062 28785 net.cpp:141] Setting up conv3
I0403 02:30:39.718127 28785 net.cpp:148] Top shape: 100 384 13 13 (6489600)
I0403 02:30:39.718145 28785 net.cpp:156] Memory required for data: 705522400
I0403 02:30:39.718173 28785 layer_factory.hpp:77] Creating layer relu3
I0403 02:30:39.718215 28785 net.cpp:91] Creating Layer relu3
I0403 02:30:39.718245 28785 net.cpp:425] relu3 <- conv3
I0403 02:30:39.718296 28785 net.cpp:386] relu3 -> conv3 (in-place)
I0403 02:30:39.718349 28785 net.cpp:141] Setting up relu3
I0403 02:30:39.718376 28785 net.cpp:148] Top shape: 100 384 13 13 (6489600)
I0403 02:30:39.718394 28785 net.cpp:156] Memory required for data: 731480800
I0403 02:30:39.718408 28785 layer_factory.hpp:77] Creating layer conv4
I0403 02:30:39.718435 28785 net.cpp:91] Creating Layer conv4
I0403 02:30:39.718451 28785 net.cpp:425] conv4 <- conv3
I0403 02:30:39.718473 28785 net.cpp:399] conv4 -> conv4
I0403 02:30:39.745918 28785 net.cpp:141] Setting up conv4
I0403 02:30:39.784317 28785 net.cpp:148] Top shape: 100 384 13 13 (6489600)
I0403 02:30:39.784346 28785 net.cpp:156] Memory required for data: 757439200
I0403 02:30:39.784373 28785 layer_factory.hpp:77] Creating layer relu4
I0403 02:30:39.784399 28785 net.cpp:91] Creating Layer relu4
I0403 02:30:39.784418 28785 net.cpp:425] relu4 <- conv4
I0403 02:30:39.784441 28785 net.cpp:386] relu4 -> conv4 (in-place)
I0403 02:30:39.784466 28785 net.cpp:141] Setting up relu4
I0403 02:30:39.784484 28785 net.cpp:148] Top shape: 100 384 13 13 (6489600)
I0403 02:30:39.784500 28785 net.cpp:156] Memory required for data: 783397600
I0403 02:30:39.784517 28785 layer_factory.hpp:77] Creating layer conv5
I0403 02:30:39.784543 28785 net.cpp:91] Creating Layer conv5
I0403 02:30:39.784561 28785 net.cpp:425] conv5 <- conv4
I0403 02:30:39.784584 28785 net.cpp:399] conv5 -> conv5
I0403 02:30:39.805449 28785 net.cpp:141] Setting up conv5
I0403 02:30:39.805488 28785 net.cpp:148] Top shape: 100 256 13 13 (4326400)
I0403 02:30:39.805537 28785 net.cpp:156] Memory required for data: 800703200
I0403 02:30:39.805564 28785 layer_factory.hpp:77] Creating layer relu5
I0403 02:30:39.805588 28785 net.cpp:91] Creating Layer relu5
I0403 02:30:39.805606 28785 net.cpp:425] relu5 <- conv5
I0403 02:30:39.805626 28785 net.cpp:386] relu5 -> conv5 (in-place)
I0403 02:30:39.805647 28785 net.cpp:141] Setting up relu5
I0403 02:30:39.805668 28785 net.cpp:148] Top shape: 100 256 13 13 (4326400)
I0403 02:30:39.805685 28785 net.cpp:156] Memory required for data: 818008800
I0403 02:30:39.805699 28785 layer_factory.hpp:77] Creating layer pool5
I0403 02:30:39.805726 28785 net.cpp:91] Creating Layer pool5
I0403 02:30:39.805743 28785 net.cpp:425] pool5 <- conv5
I0403 02:30:39.805764 28785 net.cpp:399] pool5 -> pool5
I0403 02:30:39.805819 28785 net.cpp:141] Setting up pool5
I0403 02:30:39.805843 28785 net.cpp:148] Top shape: 100 256 6 6 (921600)
I0403 02:30:39.805860 28785 net.cpp:156] Memory required for data: 821695200
I0403 02:30:39.805876 28785 layer_factory.hpp:77] Creating layer fc6
I0403 02:30:39.805902 28785 net.cpp:91] Creating Layer fc6
I0403 02:30:39.805920 28785 net.cpp:425] fc6 <- pool5
I0403 02:30:39.805943 28785 net.cpp:399] fc6 -> fc6
I0403 02:30:41.231644 28785 net.cpp:141] Setting up fc6
I0403 02:30:41.231739 28785 net.cpp:148] Top shape: 100 4096 (409600)
I0403 02:30:41.231755 28785 net.cpp:156] Memory required for data: 823333600
I0403 02:30:41.231777 28785 layer_factory.hpp:77] Creating layer relu6
I0403 02:30:41.231801 28785 net.cpp:91] Creating Layer relu6
I0403 02:30:41.231819 28785 net.cpp:425] relu6 <- fc6
I0403 02:30:41.231840 28785 net.cpp:386] relu6 -> fc6 (in-place)
I0403 02:30:41.231864 28785 net.cpp:141] Setting up relu6
I0403 02:30:41.231881 28785 net.cpp:148] Top shape: 100 4096 (409600)
I0403 02:30:41.231895 28785 net.cpp:156] Memory required for data: 824972000
I0403 02:30:41.231909 28785 layer_factory.hpp:77] Creating layer drop6
I0403 02:30:41.231928 28785 net.cpp:91] Creating Layer drop6
I0403 02:30:41.231943 28785 net.cpp:425] drop6 <- fc6
I0403 02:30:41.231962 28785 net.cpp:386] drop6 -> fc6 (in-place)
I0403 02:30:41.232000 28785 net.cpp:141] Setting up drop6
I0403 02:30:41.232022 28785 net.cpp:148] Top shape: 100 4096 (409600)
I0403 02:30:41.232036 28785 net.cpp:156] Memory required for data: 826610400
I0403 02:30:41.232049 28785 layer_factory.hpp:77] Creating layer fc7
I0403 02:30:41.232072 28785 net.cpp:91] Creating Layer fc7
I0403 02:30:41.232089 28785 net.cpp:425] fc7 <- fc6
I0403 02:30:41.232106 28785 net.cpp:399] fc7 -> fc7
I0403 02:30:41.840813 28785 net.cpp:141] Setting up fc7
I0403 02:30:41.840911 28785 net.cpp:148] Top shape: 100 4096 (409600)
I0403 02:30:41.840930 28785 net.cpp:156] Memory required for data: 828248800
I0403 02:30:41.840955 28785 layer_factory.hpp:77] Creating layer relu7
I0403 02:30:41.840983 28785 net.cpp:91] Creating Layer relu7
I0403 02:30:41.841004 28785 net.cpp:425] relu7 <- fc7
I0403 02:30:41.841027 28785 net.cpp:386] relu7 -> fc7 (in-place)
I0403 02:30:41.841053 28785 net.cpp:141] Setting up relu7
I0403 02:30:41.841071 28785 net.cpp:148] Top shape: 100 4096 (409600)
I0403 02:30:41.841087 28785 net.cpp:156] Memory required for data: 829887200
I0403 02:30:41.841104 28785 layer_factory.hpp:77] Creating layer drop7
I0403 02:30:41.841125 28785 net.cpp:91] Creating Layer drop7
I0403 02:30:41.841141 28785 net.cpp:425] drop7 <- fc7
I0403 02:30:41.841162 28785 net.cpp:386] drop7 -> fc7 (in-place)
I0403 02:30:41.841205 28785 net.cpp:141] Setting up drop7
I0403 02:30:41.841245 28785 net.cpp:148] Top shape: 100 4096 (409600)
I0403 02:30:41.841267 28785 net.cpp:156] Memory required for data: 831525600
I0403 02:30:41.841289 28785 layer_factory.hpp:77] Creating layer fc8_plantvillage
I0403 02:30:41.841315 28785 net.cpp:91] Creating Layer fc8_plantvillage
I0403 02:30:41.841334 28785 net.cpp:425] fc8_plantvillage <- fc7
I0403 02:30:41.841359 28785 net.cpp:399] fc8_plantvillage -> fc8_plantvillage
I0403 02:30:41.850466 28785 net.cpp:141] Setting up fc8_plantvillage
I0403 02:30:41.850507 28785 net.cpp:148] Top shape: 100 38 (3800)
I0403 02:30:41.850571 28785 net.cpp:156] Memory required for data: 831540800
I0403 02:30:41.850600 28785 layer_factory.hpp:77] Creating layer fc8_plantvillage_fc8_plantvillage_0_split
I0403 02:30:41.850630 28785 net.cpp:91] Creating Layer fc8_plantvillage_fc8_plantvillage_0_split
I0403 02:30:41.850656 28785 net.cpp:425] fc8_plantvillage_fc8_plantvillage_0_split <- fc8_plantvillage
I0403 02:30:41.850683 28785 net.cpp:399] fc8_plantvillage_fc8_plantvillage_0_split -> fc8_plantvillage_fc8_plantvillage_0_split_0
I0403 02:30:41.850713 28785 net.cpp:399] fc8_plantvillage_fc8_plantvillage_0_split -> fc8_plantvillage_fc8_plantvillage_0_split_1
I0403 02:30:41.850776 28785 net.cpp:141] Setting up fc8_plantvillage_fc8_plantvillage_0_split
I0403 02:30:41.850803 28785 net.cpp:148] Top shape: 100 38 (3800)
I0403 02:30:41.850826 28785 net.cpp:148] Top shape: 100 38 (3800)
I0403 02:30:41.850847 28785 net.cpp:156] Memory required for data: 831571200
I0403 02:30:41.850865 28785 layer_factory.hpp:77] Creating layer loss
I0403 02:30:41.850895 28785 net.cpp:91] Creating Layer loss
I0403 02:30:41.850917 28785 net.cpp:425] loss <- fc8_plantvillage_fc8_plantvillage_0_split_0
I0403 02:30:41.850940 28785 net.cpp:425] loss <- label_data_1_split_0
I0403 02:30:41.850968 28785 net.cpp:399] loss -> loss
…
