…
I0403 15:41:03.836124 10961 net.cpp:313] The NetState phase (1) differed from the phase (0) specified by a rule in layer data
I0403 15:41:03.837231 10961 net.cpp:49] Initializing net from parameters: 
state {
  phase: TEST
}
layer {
  name: "data"
  type: "Data"
  top: "data"
  top: "label"
  include {
    phase: TEST
  }
  transform_param {
    mirror: false
    crop_size: 224
    mean_file: "/home/mohanty/data/final_dataset/lmdb/segmented-80-20/mean.binaryproto"
  }
  data_param {
    source: "/home/mohanty/data/final_dataset/lmdb/segmented-80-20/test_db"
    batch_size: 24
    backend: LMDB
  }
}
layer {
  name: "conv1/7x7_s2"
  type: "Convolution"
  bottom: "data"
  top: "conv1/7x7_s2"
  param {
    lr_mult: 1
    decay_mult: 1
  }
  param {
    lr_mult: 2
    decay_mult: 0
  }
  convolution_param {
    num_output: 64
    pad: 3
    kernel_size: 7
    stride: 2
    weight_filler {
      type: "xavier"
      std: 0.1
    }
    bias_filler {
      type: "constant"
      value: 0.2
    }
  }
}
layer {
  name: "conv1/relu_7x7"
  type: "ReLU"
  bottom: "conv1/7x7_s2"
  top: "conv1/7x7_s2"
}
layer {
  name: "pool1/3x3_s2"
  type: "Pooling"
  bottom: "conv1/7x7_s2"
  top: "pool1/3x3_s2"
  pooling_param {
    pool: MAX
    kernel_size: 3
    stride: 2
  }
}
layer {
  name: "pool1/norm1"
  type: "LRN"
  bottom: "pool1/3x3_s2"
  top: "pool1/norm1"
  lrn_param {
    local_size: 5
    alpha: 0.0001
    beta: 0.75
  }
}
layer {
  name: "conv2/3x3_reduce"
  type: "Convolution"
  bottom: "pool1/norm1"
  top: "conv2/3x3_reduce"
  param {
    lr_mult: 1
    decay_mult: 1
  }
  param {
    lr_mult: 2
    decay_mult: 0
  }
  convolution_param {
    num_output: 64
    kernel_size: 1
    weight_filler {
      type: "xavier"
      std: 0.1
    }
    bias_filler {
      type: "constant"
      value: 0.2
    }
  }
}
layer {
  name: "conv2/relu_3x3_reduce"
  type: "ReLU"
  bottom: "conv2/3x3_reduce"
  top: "conv2/3x3_reduce"
}
layer {
  name: "conv2/3x3"
  type: "Convolution"
  bottom: "conv2/3x3_reduce"
  top: "conv2/3x3"
  param {
    lr_mult: 1
    decay_mult: 1
  }
  param {
    lr_mult: 2
    decay_mult: 0
  }
  convolution_param {
    num_output: 192
    pad: 1
    kernel_size: 3
    weight_filler {
      type: "xavier"
      std: 0.03
    }
    bias_filler {
      type: "constant"
      value: 0.2
    }
  }
}
layer {
  name: "conv2/relu_3x3"
  type: "ReLU"
  bottom: "conv2/3x3"
  top: "conv2/3x3"
}
layer {
  name: "conv2/norm2"
  type: "LRN"
  bottom: "conv2/3x3"
  top: "conv2/norm2"
  lrn_param {
    local_size: 5
    alpha: 0.0001
    beta: 0.75
  }
}
layer {
  name: "pool2/3x3_s2"
  type: "Pooling"
  bottom: "conv2/norm2"
  top: "pool2/3x3_s2"
  pooling_param {
    pool: MAX
    kernel_size: 3
    stride: 2
  }
}
layer {
  name: "inception_3a/1x1"
  type: "Convolution"
  bottom: "pool2/3x3_s2"
  top: "inception_3a/1x1"
  param {
    lr_mult: 1
    decay_mult: 1
  }
  param {
    lr_mult: 2
    decay_mult: 0
  }
  convolution_param {
    num_output: 64
    kernel_size: 1
    weight_filler {
      type: "xavier"
      std: 0.03
    }
    bias_filler {
      type: "constant"
      value: 0.2
    }
  }
}
layer {
  name: "inception_3a/relu_1x1"
  type: "ReLU"
  bottom: "inception_3a/1x1"
  top: "inception_3a/1x1"
}
layer {
  name: "inception_3a/3x3_reduce"
  type: "Convolution"
  bottom: "pool2/3x3_s2"
  top: "inception_3a/3x3_reduce"
  param {
    lr_mult: 1
    decay_mult: 1
  }
  param {
    lr_mult: 2
    decay_mult: 0
  }
  convolution_param {
    num_output: 96
    kernel_size: 1
    weight_filler {
      type: "xavier"
      std: 0.09
    }
    bias_filler {
      type: "constant"
      value: 0.2
    }
  }
}
layer {
  name: "inception_3a/relu_3x3_reduce"
  type: "ReLU"
  bottom: "inception_3a/3x3_reduce"
  top: "inception_3a/3x3_reduce"
}
layer {
  name: "inception_3a/3x3"
  type: "Convolution"
  bottom: "inception_3a/3x3_reduce"
  top: "inception_3a/3x3"
  param {
    lr_mult: 1
    decay_mult: 1
  }
  param {
    lr_mult: 2
    decay_mult: 0
  }
  convolution_param {
    num_output: 128
    pad: 1
    kernel_size: 3
    weight_filler {
      type: "xavier"
      std: 0.03
    }
    bias_filler {
      type: "constant"
      value: 0.2
    }
  }
}
layer {
  name: "inception_3a/relu_3x3"
  type: "ReLU"
  bottom: "inception_3a/3x3"
  top: "inception_3a/3x3"
}
layer {
  name: "inception_3a/5x5_reduce"
  type: "Convolution"
  bottom: "pool2/3x3_s2"
  top: "inception_3a/5x5_reduce"
  param {
    lr_mult: 1
    decay_mult: 1
  }
  param {
    lr_mult: 2
    decay_mult: 0
  }
  convolution_param {
    num_output: 16
    kernel_size: 1
    weight_filler {
      type: "xavier"
      std: 0.2
    }
    bias_filler {
      type: "constant"
      value: 0.2
    }
  }
}
layer {
  name: "inception_3a/relu_5x5_reduce"
  type: "ReLU"
  bottom: "inception_3a/5x5_reduce"
  top: "inception_3a/5x5_reduce"
}
layer {
  name: "inception_3a/5x5"
  type: "Convolution"
  bottom: "inception_3a/5x5_reduce"
  top: "inception_3a/5x5"
  param {
    lr_mult: 1
    decay_mult: 1
  }
  param {
    lr_mult: 2
    decay_mult: 0
  }
  convolution_param {
    num_output: 32
    pad: 2
    kernel_size: 5
    weight_filler {
      type: "xavier"
      std: 0.03
    }
    bias_filler {
      type: "constant"
      value: 0.2
    }
  }
}
layer {
  name: "inception_3a/relu_5x5"
  type: "ReLU"
  bottom: "inception_3a/5x5"
  top: "inception_3a/5x5"
}
layer {
  name: "inception_3a/pool"
  type: "Pooling"
  bottom: "pool2/3x3_s2"
  top: "inception_3a/pool"
  pooling_param {
    pool: MAX
    kernel_size: 3
    stride: 1
    pad: 1
  }
}
layer {
  name: "inception_3a/pool_proj"
  type: "Convolution"
  bottom: "inception_3a/pool"
  top: "inception_3a/pool_proj"
  param {
    lr_mult: 1
    decay_mult: 1
  }
  param {
    lr_mult: 2
    decay_mult: 0
  }
  convolution_param {
    num_output: 32
    kernel_size: 1
    weight_filler {
      type: "xavier"
      std: 0.1
    }
    bias_filler {
      type: "constant"
      value: 0.2
    }
  }
}
layer {
  name: "inception_3a/relu_pool_proj"
  type: "ReLU"
  bottom: "inception_3a/pool_proj"
  top: "inception_3a/pool_proj"
}
layer {
  name: "inception_3a/output"
  type: "Concat"
  bottom: "inception_3a/1x1"
  bottom: "inception_3a/3x3"
  bottom: "inception_3a/5x5"
  bottom: "inception_3a/pool_proj"
  top: "inception_3a/output"
}
layer {
  name: "inception_3b/1x1"
  type: "Convolution"
  bottom: "inception_3a/output"
  top: "inception_3b/1x1"
  param {
    lr_mult: 1
    decay_mult: 1
  }
  param {
    lr_mult: 2
    decay_mult: 0
  }
  convolution_param {
    num_output: 128
    kernel_size: 1
    weight_filler {
      type: "xavier"
      std: 0.03
    }
    bias_filler {
      type: "constant"
      value: 0.2
    }
  }
}
layer {
  name: "inception_3b/relu_1x1"
  type: "ReLU"
  bottom: "inception_3b/1x1"
  top: "inception_3b/1x1"
}
layer {
  name: "inception_3b/3x3_reduce"
  type: "Convolution"
  bottom: "inception_3a/output"
  top: "inception_3b/3x3_reduce"
  param {
    lr_mult: 1
    decay_mult: 1
  }
  param {
    lr_mult: 2
    decay_mult: 0
  }
  convolution_param {
    num_output: 128
    kernel_size: 1
    weight_filler {
      type: "xavier"
      std: 0.09
    }
    bias_filler {
      type: "constant"
      value: 0.2
    }
  }
}
layer {
  name: "inception_3b/relu_3x3_reduce"
  type: "ReLU"
  bottom: "inception_3b/3x3_reduce"
  top: "inception_3b/3x3_reduce"
}
layer {
  name: "inception_3b/3x3"
  type: "Convolution"
  bottom: "inception_3b/3x3_reduce"
  top: "inception_3b/3x3"
  param {
    lr_mult: 1
    decay_mult: 1
  }
  param {
    lr_mult: 2
    decay_mult: 0
  }
  convolution_param {
    num_output: 192
    pad: 1
    kernel_size: 3
    weight_filler {
      type: "xavier"
      std: 0.03
    }
    bias_filler {
      type: "constant"
      value: 0.2
    }
  }
}
layer {
  name: "inception_3b/relu_3x3"
  type: "ReLU"
  bottom: "inception_3b/3x3"
  top: "inception_3b/3x3"
}
layer {
  name: "inception_3b/5x5_reduce"
  type: "Convolution"
  bottom: "inception_3a/output"
  top: "inception_3b/5x5_reduce"
  param {
    lr_mult: 1
    decay_mult: 1
  }
  param {
    lr_mult: 2
    decay_mult: 0
  }
  convolution_param {
    num_output: 32
    kernel_size: 1
    weight_filler {
      type: "xavier"
      std: 0.2
    }
    bias_filler {
      type: "constant"
      value: 0.2
    }
  }
}
layer {
  name: "inception_3b/relu_5x5_reduce"
  type: "ReLU"
  bottom: "inception_3b/5x5_reduce"
  top: "inception_3b/5x5_reduce"
}
layer {
  name: "inception_3b/5x5"
  type: "Convolution"
  bottom: "inception_3b/5x5_reduce"
  top: "inception_3b/5x5"
  param {
    lr_mult: 1
    decay_mult: 1
  }
  param {
    lr_mult: 2
    decay_mult: 0
  }
  convolution_param {
    num_output: 96
    pad: 2
    kernel_size: 5
    weight_filler {
      type: "xavier"
      std: 0.03
    }
    bias_filler {
      type: "constant"
      value: 0.2
    }
  }
}
layer {
  name: "inception_3b/relu_5x5"
  type: "ReLU"
  bottom: "inception_3b/5x5"
  top: "inception_3b/5x5"
}
layer {
  name: "inception_3b/pool"
  type: "Pooling"
  bottom: "inception_3a/output"
  top: "inception_3b/pool"
  pooling_param {
    pool: MAX
    kernel_size: 3
    stride: 1
    pad: 1
  }
}
layer {
  name: "inception_3b/pool_proj"
  type: "Convolution"
  bottom: "inception_3b/pool"
  top: "inception_3b/pool_proj"
  param {
    lr_mult: 1
    decay_mult: 1
  }
  param {
    lr_mult: 2
    decay_mult: 0
  }
  convolution_param {
    num_output: 64
    kernel_size: 1
    weight_filler {
      type: "xavier"
      std: 0.1
    }
    bias_filler {
      type: "constant"
      value: 0.2
    }
  }
}
layer {
  name: "inception_3b/relu_pool_proj"
  type: "ReLU"
  bottom: "inception_3b/pool_proj"
  top: "inception_3b/pool_proj"
}
layer {
  name: "inception_3b/output"
  type: "Concat"
  bottom: "inception_3b/1x1"
  bottom: "inception_3b/3x3"
  bottom: "inception_3b/5x5"
  bottom: "inception_3b/pool_proj"
  top: "inception_3b/output"
}
layer {
  name: "pool3/3x3_s2"
  type: "Pooling"
  bottom: "inception_3b/output"
  top: "pool3/3x3_s2"
  pooling_param {
    pool: MAX
    kernel_size: 3
    stride: 2
  }
}
layer {
  name: "inception_4a/1x1"
  type: "Convolution"
  bottom: "pool3/3x3_s2"
  top: "inception_4a/1x1"
  param {
    lr_mult: 1
    decay_mult: 1
  }
  param {
    lr_mult: 2
    decay_mult: 0
  }
  convolution_param {
    num_output: 192
    kernel_size: 1
    weight_filler {
      type: "xavier"
      std: 0.03
    }
    bias_filler {
      type: "constant"
      value: 0.2
    }
  }
}
layer {
  name: "inception_4a/relu_1x1"
  type: "ReLU"
  bottom: "inception_4a/1x1"
  top: "inception_4a/1x1"
}
layer {
  name: "inception_4a/3x3_reduce"
  type: "Convolution"
  bottom: "pool3/3x3_s2"
  top: "inception_4a/3x3_reduce"
  param {
    lr_mult: 1
    decay_mult: 1
  }
  param {
    lr_mult: 2
    decay_mult: 0
  }
  convolution_param {
    num_output: 96
    kernel_size: 1
    weight_filler {
      type: "xavier"
      std: 0.09
    }
    bias_filler {
      type: "constant"
      value: 0.2
    }
  }
}
layer {
  name: "inception_4a/relu_3x3_reduce"
  type: "ReLU"
  bottom: "inception_4a/3x3_reduce"
  top: "inception_4a/3x3_reduce"
}
layer {
  name: "inception_4a/3x3"
  type: "Convolution"
  bottom: "inception_4a/3x3_reduce"
  top: "inception_4a/3x3"
  param {
    lr_mult: 1
    decay_mult: 1
  }
  param {
    lr_mult: 2
    decay_mult: 0
  }
  convolution_param {
    num_output: 208
    pad: 1
    kernel_size: 3
    weight_filler {
      type: "xavier"
      std: 0.03
    }
    bias_filler {
      type: "constant"
      value: 0.2
    }
  }
}
layer {
  name: "inception_4a/relu_3x3"
  type: "ReLU"
  bottom: "inception_4a/3x3"
  top: "inception_4a/3x3"
}
layer {
  name: "inception_4a/5x5_reduce"
  type: "Convolution"
  bottom: "pool3/3x3_s2"
  top: "inception_4a/5x5_reduce"
  param {
    lr_mult: 1
    decay_mult: 1
  }
  param {
    lr_mult: 2
    decay_mult: 0
  }
  convolution_param {
    num_output: 16
    kernel_size: 1
    weight_filler {
      type: "xavier"
      std: 0.2
    }
    bias_filler {
      type: "constant"
      value: 0.2
    }
  }
}
layer {
  name: "inception_4a/relu_5x5_reduce"
  type: "ReLU"
  bottom: "inception_4a/5x5_reduce"
  top: "inception_4a/5x5_reduce"
}
layer {
  name: "inception_4a/5x5"
  type: "Convolution"
  bottom: "inception_4a/5x5_reduce"
  top: "inception_4a/5x5"
  param {
    lr_mult: 1
    decay_mult: 1
  }
  param {
    lr_mult: 2
    decay_mult: 0
  }
  convolution_param {
    num_output: 48
    pad: 2
    kernel_size: 5
    weight_filler {
      type: "xavier"
      std: 0.03
    }
    bias_filler {
      type: "constant"
      value: 0.2
    }
  }
}
layer {
  name: "inception_4a/relu_5x5"
  type: "ReLU"
  bottom: "inception_4a/5x5"
  top: "inception_4a/5x5"
}
layer {
  name: "inception_4a/pool"
  type: "Pooling"
  bottom: "pool3/3x3_s2"
  top: "inception_4a/pool"
  pooling_param {
    pool: MAX
    kernel_size: 3
    stride: 1
    pad: 1
  }
}
layer {
  name: "inception_4a/pool_proj"
  type: "Convolution"
  bottom: "inception_4a/pool"
  top: "inception_4a/pool_proj"
  param {
    lr_mult: 1
    decay_mult: 1
  }
  param {
    lr_mult: 2
    decay_mult: 0
  }
  convolution_param {
    num_output: 64
    kernel_size: 1
    weight_filler {
      type: "xavier"
      std: 0.1
    }
    bias_filler {
      type: "constant"
      value: 0.2
    }
  }
}
layer {
  name: "inception_4a/relu_pool_proj"
  type: "ReLU"
  bottom: "inception_4a/pool_proj"
  top: "inception_4a/pool_proj"
}
layer {
  name: "inception_4a/output"
  type: "Concat"
  bottom: "inception_4a/1x1"
  bottom: "inception_4a/3x3"
  bottom: "inception_4a/5x5"
  bottom: "inception_4a/pool_proj"
  top: "inception_4a/output"
}
layer {
  name: "loss1/ave_pool"
  type: "Pooling"
  bottom: "inception_4a/output"
  top: "loss1/ave_pool"
  pooling_param {
    pool: AVE
    kernel_size: 5
    stride: 3
  }
}
layer {
  name: "loss1/conv"
  type: "Convolution"
  bottom: "loss1/ave_pool"
  top: "loss1/conv"
  param {
    lr_mult: 1
    decay_mult: 1
  }
  param {
    lr_mult: 2
    decay_mult: 0
  }
  convolution_param {
    num_output: 128
    kernel_size: 1
    weight_filler {
      type: "xavier"
      std: 0.08
    }
    bias_filler {
      type: "constant"
      value: 0.2
    }
  }
}
layer {
  name: "loss1/relu_conv"
  type: "ReLU"
  bottom: "loss1/conv"
  top: "loss1/conv"
}
layer {
  name: "loss1/fc"
  type: "InnerProduct"
  bottom: "loss1/conv"
  top: "loss1/fc"
  param {
    lr_mult: 1
    decay_mult: 1
  }
  param {
    lr_mult: 2
    decay_mult: 0
  }
  inner_product_param {
    num_output: 1024
    weight_filler {
      type: "xavier"
      std: 0.02
    }
    bias_filler {
      type: "constant"
      value: 0.2
    }
  }
}
layer {
  name: "loss1/relu_fc"
  type: "ReLU"
  bottom: "loss1/fc"
  top: "loss1/fc"
}
layer {
  name: "loss1/drop_fc"
  type: "Dropout"
  bottom: "loss1/fc"
  top: "loss1/fc"
  dropout_param {
    dropout_ratio: 0.7
  }
}
layer {
  name: "loss1/classifier_plantvillage"
  type: "InnerProduct"
  bottom: "loss1/fc"
  top: "loss1/classifier_plantvillage"
  param {
    lr_mult: 1
    decay_mult: 1
  }
  param {
    lr_mult: 2
    decay_mult: 0
  }
  inner_product_param {
    num_output: 38
    weight_filler {
      type: "xavier"
      std: 0.0009765625
    }
    bias_filler {
      type: "constant"
      value: 0
    }
  }
}
layer {
  name: "inception_4b/1x1"
  type: "Convolution"
  bottom: "inception_4a/output"
  top: "inception_4b/1x1"
  param {
    lr_mult: 1
    decay_mult: 1
  }
  param {
    lr_mult: 2
    decay_mult: 0
  }
  convolution_param {
    num_output: 160
    kernel_size: 1
    weight_filler {
      type: "xavier"
      std: 0.03
    }
    bias_filler {
      type: "constant"
      value: 0.2
    }
  }
}
layer {
  name: "inception_4b/relu_1x1"
  type: "ReLU"
  bottom: "inception_4b/1x1"
  top: "inception_4b/1x1"
}
layer {
  name: "inception_4b/3x3_reduce"
  type: "Convolution"
  bottom: "inception_4a/output"
  top: "inception_4b/3x3_reduce"
  param {
    lr_mult: 1
    decay_mult: 1
  }
  param {
    lr_mult: 2
    decay_mult: 0
  }
  convolution_param {
    num_output: 112
    kernel_size: 1
    weight_filler {
      type: "xavier"
      std: 0.09
    }
    bias_filler {
      type: "constant"
      value: 0.2
    }
  }
}
layer {
  name: "inception_4b/relu_3x3_reduce"
  type: "ReLU"
  bottom: "inception_4b/3x3_reduce"
  top: "inception_4b/3x3_reduce"
}
layer {
  name: "inception_4b/3x3"
  type: "Convolution"
  bottom: "inception_4b/3x3_reduce"
  top: "inception_4b/3x3"
  param {
    lr_mult: 1
    decay_mult: 1
  }
  param {
    lr_mult: 2
    decay_mult: 0
  }
  convolution_param {
    num_output: 224
    pad: 1
    kernel_size: 3
    weight_filler {
      type: "xavier"
      std: 0.03
    }
    bias_filler {
      type: "constant"
      value: 0.2
    }
  }
}
layer {
  name: "inception_4b/relu_3x3"
  type: "ReLU"
  bottom: "inception_4b/3x3"
  top: "inception_4b/3x3"
}
layer {
  name: "inception_4b/5x5_reduce"
  type: "Convolution"
  bottom: "inception_4a/output"
  top: "inception_4b/5x5_reduce"
  param {
    lr_mult: 1
    decay_mult: 1
  }
  param {
    lr_mult: 2
    decay_mult: 0
  }
  convolution_param {
    num_output: 24
    kernel_size: 1
    weight_filler {
      type: "xavier"
      std: 0.2
    }
    bias_filler {
      type: "constant"
      value: 0.2
    }
  }
}
layer {
  name: "inception_4b/relu_5x5_reduce"
  type: "ReLU"
  bottom: "inception_4b/5x5_reduce"
  top: "inception_4b/5x5_reduce"
}
layer {
  name: "inception_4b/5x5"
  type: "Convolution"
  bottom: "inception_4b/5x5_reduce"
  top: "inception_4b/5x5"
  param {
    lr_mult: 1
    decay_mult: 1
  }
  param {
    lr_mult: 2
    decay_mult: 0
  }
  convolution_param {
    num_output: 64
    pad: 2
    kernel_size: 5
    weight_filler {
      type: "xavier"
      std: 0.03
    }
    bias_filler {
      type: "constant"
      value: 0.2
    }
  }
}
layer {
  name: "inception_4b/relu_5x5"
  type: "ReLU"
  bottom: "inception_4b/5x5"
  top: "inception_4b/5x5"
}
layer {
  name: "inception_4b/pool"
  type: "Pooling"
  bottom: "inception_4a/output"
  top: "inception_4b/pool"
  pooling_param {
    pool: MAX
    kernel_size: 3
    stride: 1
    pad: 1
  }
}
layer {
  name: "inception_4b/pool_proj"
  type: "Convolution"
  bottom: "inception_4b/pool"
  top: "inception_4b/pool_proj"
  param {
    lr_mult: 1
    decay_mult: 1
  }
  param {
    lr_mult: 2
    decay_mult: 0
  }
  convolution_param {
    num_output: 64
    kernel_size: 1
    weight_filler {
      type: "xavier"
      std: 0.1
    }
    bias_filler {
      type: "constant"
      value: 0.2
    }
  }
}
layer {
  name: "inception_4b/relu_pool_proj"
  type: "ReLU"
  bottom: "inception_4b/pool_proj"
  top: "inception_4b/pool_proj"
}
layer {
  name: "inception_4b/output"
  type: "Concat"
  bottom: "inception_4b/1x1"
  bottom: "inception_4b/3x3"
  bottom: "inception_4b/5x5"
  bottom: "inception_4b/pool_proj"
  top: "inception_4b/output"
}
layer {
  name: "inception_4c/1x1"
  type: "Convolution"
  bottom: "inception_4b/output"
  top: "inception_4c/1x1"
  param {
    lr_mult: 1
    decay_mult: 1
  }
  param {
    lr_mult: 2
    decay_mult: 0
  }
  convolution_param {
    num_output: 128
    kernel_size: 1
    weight_filler {
      type: "xavier"
      std: 0.03
    }
    bias_filler {
      type: "constant"
      value: 0.2
    }
  }
}
layer {
  name: "inception_4c/relu_1x1"
  type: "ReLU"
  bottom: "inception_4c/1x1"
  top: "inception_4c/1x1"
}
layer {
  name: "inception_4c/3x3_reduce"
  type: "Convolution"
  bottom: "inception_4b/output"
  top: "inception_4c/3x3_reduce"
  param {
    lr_mult: 1
    decay_mult: 1
  }
  param {
    lr_mult: 2
    decay_mult: 0
  }
  convolution_param {
    num_output: 128
    kernel_size: 1
    weight_filler {
      type: "xavier"
      std: 0.09
    }
    bias_filler {
      type: "constant"
      value: 0.2
    }
  }
}
layer {
  name: "inception_4c/relu_3x3_reduce"
  type: "ReLU"
  bottom: "inception_4c/3x3_reduce"
  top: "inception_4c/3x3_reduce"
}
layer {
  name: "inception_4c/3x3"
  type: "Convolution"
  bottom: "inception_4c/3x3_reduce"
  top: "inception_4c/3x3"
  param {
    lr_mult: 1
    decay_mult: 1
  }
  param {
    lr_mult: 2
    decay_mult: 0
  }
  convolution_param {
    num_output: 256
    pad: 1
    kernel_size: 3
    weight_filler {
      type: "xavier"
      std: 0.03
    }
    bias_filler {
      type: "constant"
      value: 0.2
    }
  }
}
layer {
  name: "inception_4c/relu_3x3"
  type: "ReLU"
  bottom: "inception_4c/3x3"
  top: "inception_4c/3x3"
}
layer {
  name: "inception_4c/5x5_reduce"
  type: "Convolution"
  bottom: "inception_4b/output"
  top: "inception_4c/5x5_reduce"
  param {
    lr_mult: 1
    decay_mult: 1
  }
  param {
    lr_mult: 2
    decay_mult: 0
  }
  convolution_param {
    num_output: 24
    kernel_size: 1
    weight_filler {
      type: "xavier"
      std: 0.2
    }
    bias_filler {
      type: "constant"
      value: 0.2
    }
  }
}
layer {
  name: "inception_4c/relu_5x5_reduce"
  type: "ReLU"
  bottom: "inception_4c/5x5_reduce"
  top: "inception_4c/5x5_reduce"
}
layer {
  name: "inception_4c/5x5"
  type: "Convolution"
  bottom: "inception_4c/5x5_reduce"
  top: "inception_4c/5x5"
  param {
    lr_mult: 1
    decay_mult: 1
  }
  param {
    lr_mult: 2
    decay_mult: 0
  }
  convolution_param {
    num_output: 64
    pad: 2
    kernel_size: 5
    weight_filler {
      type: "xavier"
      std: 0.03
    }
    bias_filler {
      type: "constant"
      value: 0.2
    }
  }
}
layer {
  name: "inception_4c/relu_5x5"
  type: "ReLU"
  bottom: "inception_4c/5x5"
  top: "inception_4c/5x5"
}
layer {
  name: "inception_4c/pool"
  type: "Pooling"
  bottom: "inception_4b/output"
  top: "inception_4c/pool"
  pooling_param {
    pool: MAX
    kernel_size: 3
    stride: 1
    pad: 1
  }
}
layer {
  name: "inception_4c/pool_proj"
  type: "Convolution"
  bottom: "inception_4c/pool"
  top: "inception_4c/pool_proj"
  param {
    lr_mult: 1
    decay_mult: 1
  }
  param {
    lr_mult: 2
    decay_mult: 0
  }
  convolution_param {
    num_output: 64
    kernel_size: 1
    weight_filler {
      type: "xavier"
      std: 0.1
    }
    bias_filler {
      type: "constant"
      value: 0.2
    }
  }
}
layer {
  name: "inception_4c/relu_pool_proj"
  type: "ReLU"
  bottom: "inception_4c/pool_proj"
  top: "inception_4c/pool_proj"
}
layer {
  name: "inception_4c/output"
  type: "Concat"
  bottom: "inception_4c/1x1"
  bottom: "inception_4c/3x3"
  bottom: "inception_4c/5x5"
  bottom: "inception_4c/pool_proj"
  top: "inception_4c/output"
}
layer {
  name: "inception_4d/1x1"
  type: "Convolution"
  bottom: "inception_4c/output"
  top: "inception_4d/1x1"
  param {
    lr_mult: 1
    decay_mult: 1
  }
  param {
    lr_mult: 2
    decay_mult: 0
  }
  convolution_param {
    num_output: 112
    kernel_size: 1
    weight_filler {
      type: "xavier"
      std: 0.03
    }
    bias_filler {
      type: "constant"
      value: 0.2
    }
  }
}
layer {
  name: "inception_4d/relu_1x1"
  type: "ReLU"
  bottom: "inception_4d/1x1"
  top: "inception_4d/1x1"
}
layer {
  name: "inception_4d/3x3_reduce"
  type: "Convolution"
  bottom: "inception_4c/output"
  top: "inception_4d/3x3_reduce"
  param {
    lr_mult: 1
    decay_mult: 1
  }
  param {
    lr_mult: 2
    decay_mult: 0
  }
  convolution_param {
    num_output: 144
    kernel_size: 1
    weight_filler {
      type: "xavier"
      std: 0.09
    }
    bias_filler {
      type: "constant"
      value: 0.2
    }
  }
}
layer {
  name: "inception_4d/relu_3x3_reduce"
  type: "ReLU"
  bottom: "inception_4d/3x3_reduce"
  top: "inception_4d/3x3_reduce"
}
layer {
  name: "inception_4d/3x3"
  type: "Convolution"
  bottom: "inception_4d/3x3_reduce"
  top: "inception_4d/3x3"
  param {
    lr_mult: 1
    decay_mult: 1
  }
  param {
    lr_mult: 2
    decay_mult: 0
  }
  convolution_param {
    num_output: 288
    pad: 1
    kernel_size: 3
    weight_filler {
      type: "xavier"
      std: 0.03
    }
    bias_filler {
      type: "constant"
      value: 0.2
    }
  }
}
layer {
  name: "inception_4d/relu_3x3"
  type: "ReLU"
  bottom: "inception_4d/3x3"
  top: "inception_4d/3x3"
}
layer {
  name: "inception_4d/5x5_reduce"
  type: "Convolution"
  bottom: "inception_4c/output"
  top: "inception_4d/5x5_reduce"
  param {
    lr_mult: 1
    decay_mult: 1
  }
  param {
    lr_mult: 2
    decay_mult: 0
  }
  convolution_param {
    num_output: 32
    kernel_size: 1
    weight_filler {
      type: "xavier"
      std: 0.2
    }
    bias_filler {
      type: "constant"
      value: 0.2
    }
  }
}
layer {
  name: "inception_4d/relu_5x5_reduce"
  type: "ReLU"
  bottom: "inception_4d/5x5_reduce"
  top: "inception_4d/5x5_reduce"
}
layer {
  name: "inception_4d/5x5"
  type: "Convolution"
  bottom: "inception_4d/5x5_reduce"
  top: "inception_4d/5x5"
  param {
    lr_mult: 1
    decay_mult: 1
  }
  param {
    lr_mult: 2
    decay_mult: 0
  }
  convolution_param {
    num_output: 64
    pad: 2
    kernel_size: 5
    weight_filler {
      type: "xavier"
      std: 0.03
    }
    bias_filler {
      type: "constant"
      value: 0.2
    }
  }
}
layer {
  name: "inception_4d/relu_5x5"
  type: "ReLU"
  bottom: "inception_4d/5x5"
  top: "inception_4d/5x5"
}
layer {
  name: "inception_4d/pool"
  type: "Pooling"
  bottom: "inception_4c/output"
  top: "inception_4d/pool"
  pooling_param {
    pool: MAX
    kernel_size: 3
    stride: 1
    pad: 1
  }
}
layer {
  name: "inception_4d/pool_proj"
  type: "Convolution"
  bottom: "inception_4d/pool"
  top: "inception_4d/pool_proj"
  param {
    lr_mult: 1
    decay_mult: 1
  }
  param {
    lr_mult: 2
    decay_mult: 0
  }
  convolution_param {
    num_output: 64
    kernel_size: 1
    weight_filler {
      type: "xavier"
      std: 0.1
    }
    bias_filler {
      type: "constant"
      value: 0.2
    }
  }
}
layer {
  name: "inception_4d/relu_pool_proj"
  type: "ReLU"
  bottom: "inception_4d/pool_proj"
  top: "inception_4d/pool_proj"
}
layer {
  name: "inception_4d/output"
  type: "Concat"
  bottom: "inception_4d/1x1"
  bottom: "inception_4d/3x3"
  bottom: "inception_4d/5x5"
  bottom: "inception_4d/pool_proj"
  top: "inception_4d/output"
}
layer {
  name: "loss2/ave_pool"
  type: "Pooling"
  bottom: "inception_4d/output"
  top: "loss2/ave_pool"
  pooling_param {
    pool: AVE
    kernel_size: 5
    stride: 3
  }
}
layer {
  name: "loss2/conv"
  type: "Convolution"
  bottom: "loss2/ave_pool"
  top: "loss2/conv"
  param {
    lr_mult: 1
    decay_mult: 1
  }
  param {
    lr_mult: 2
    decay_mult: 0
  }
  convolution_param {
    num_output: 128
    kernel_size: 1
    weight_filler {
      type: "xavier"
      std: 0.08
    }
    bias_filler {
      type: "constant"
      value: 0.2
    }
  }
}
layer {
  name: "loss2/relu_conv"
  type: "ReLU"
  bottom: "loss2/conv"
  top: "loss2/conv"
}
layer {
  name: "loss2/fc"
  type: "InnerProduct"
  bottom: "loss2/conv"
  top: "loss2/fc"
  param {
    lr_mult: 1
    decay_mult: 1
  }
  param {
    lr_mult: 2
    decay_mult: 0
  }
  inner_product_param {
    num_output: 1024
    weight_filler {
      type: "xavier"
      std: 0.02
    }
    bias_filler {
      type: "constant"
      value: 0.2
    }
  }
}
layer {
  name: "loss2/relu_fc"
  type: "ReLU"
  bottom: "loss2/fc"
  top: "loss2/fc"
}
layer {
  name: "loss2/drop_fc"
  type: "Dropout"
  bottom: "loss2/fc"
  top: "loss2/fc"
  dropout_param {
    dropout_ratio: 0.7
  }
}
layer {
  name: "loss2/classifier_plantvillage"
  type: "InnerProduct"
  bottom: "loss2/fc"
  top: "loss2/classifier_plantvillage"
  param {
    lr_mult: 1
    decay_mult: 1
  }
  param {
    lr_mult: 2
    decay_mult: 0
  }
  inner_product_param {
    num_output: 38
    weight_filler {
      type: "xavier"
      std: 0.0009765625
    }
    bias_filler {
      type: "constant"
      value: 0
    }
  }
}
layer {
  name: "inception_4e/1x1"
  type: "Convolution"
  bottom: "inception_4d/output"
  top: "inception_4e/1x1"
  param {
    lr_mult: 1
    decay_mult: 1
  }
  param {
    lr_mult: 2
    decay_mult: 0
  }
  convolution_param {
    num_output: 256
    kernel_size: 1
    weight_filler {
      type: "xavier"
      std: 0.03
    }
    bias_filler {
      type: "constant"
      value: 0.2
    }
  }
}
layer {
  name: "inception_4e/relu_1x1"
  type: "ReLU"
  bottom: "inception_4e/1x1"
  top: "inception_4e/1x1"
}
layer {
  name: "inception_4e/3x3_reduce"
  type: "Convolution"
  bottom: "inception_4d/output"
  top: "inception_4e/3x3_reduce"
  param {
    lr_mult: 1
    decay_mult: 1
  }
  param {
    lr_mult: 2
    decay_mult: 0
  }
  convolution_param {
    num_output: 160
    kernel_size: 1
    weight_filler {
      type: "xavier"
      std: 0.09
    }
    bias_filler {
      type: "constant"
      value: 0.2
    }
  }
}
layer {
  name: "inception_4e/relu_3x3_reduce"
  type: "ReLU"
  bottom: "inception_4e/3x3_reduce"
  top: "inception_4e/3x3_reduce"
}
layer {
  name: "inception_4e/3x3"
  type: "Convolution"
  bottom: "inception_4e/3x3_reduce"
  top: "inception_4e/3x3"
  param {
    lr_mult: 1
    decay_mult: 1
  }
  param {
    lr_mult: 2
    decay_mult: 0
  }
  convolution_param {
    num_output: 320
    pad: 1
    kernel_size: 3
    weight_filler {
      type: "xavier"
      std: 0.03
    }
    bias_filler {
      type: "constant"
      value: 0.2
    }
  }
}
layer {
  name: "inception_4e/relu_3x3"
  type: "ReLU"
  bottom: "inception_4e/3x3"
  top: "inception_4e/3x3"
}
layer {
  name: "inception_4e/5x5_reduce"
  type: "Convolution"
  bottom: "inception_4d/output"
  top: "inception_4e/5x5_reduce"
  param {
    lr_mult: 1
    decay_mult: 1
  }
  param {
    lr_mult: 2
    decay_mult: 0
  }
  convolution_param {
    num_output: 32
    kernel_size: 1
    weight_filler {
      type: "xavier"
      std: 0.2
    }
    bias_filler {
      type: "constant"
      value: 0.2
    }
  }
}
layer {
  name: "inception_4e/relu_5x5_reduce"
  type: "ReLU"
  bottom: "inception_4e/5x5_reduce"
  top: "inception_4e/5x5_reduce"
}
layer {
  name: "inception_4e/5x5"
  type: "Convolution"
  bottom: "inception_4e/5x5_reduce"
  top: "inception_4e/
I0403 15:41:03.838470 10961 layer_factory.hpp:77] Creating layer data
I0403 15:41:03.839051 10961 net.cpp:91] Creating Layer data
I0403 15:41:03.839081 10961 net.cpp:399] data -> data
I0403 15:41:03.839130 10961 net.cpp:399] data -> label
I0403 15:41:03.839169 10961 data_transformer.cpp:25] Loading mean file from: /home/mohanty/data/final_dataset/lmdb/segmented-80-20/mean.binaryproto
I0403 15:41:03.842234 10963 db_lmdb.cpp:38] Opened lmdb /home/mohanty/data/final_dataset/lmdb/segmented-80-20/test_db
I0403 15:41:03.851943 10961 data_layer.cpp:41] output data size: 24,3,224,224
I0403 15:41:03.878952 10961 net.cpp:141] Setting up data
I0403 15:41:03.879036 10961 net.cpp:148] Top shape: 24 3 224 224 (3612672)
I0403 15:41:03.879058 10961 net.cpp:148] Top shape: 24 (24)
I0403 15:41:03.879073 10961 net.cpp:156] Memory required for data: 14450784
I0403 15:41:03.879099 10961 layer_factory.hpp:77] Creating layer label_data_1_split
I0403 15:41:03.879125 10961 net.cpp:91] Creating Layer label_data_1_split
I0403 15:41:03.879143 10961 net.cpp:425] label_data_1_split <- label
I0403 15:41:03.879173 10961 net.cpp:399] label_data_1_split -> label_data_1_split_0
I0403 15:41:03.879200 10961 net.cpp:399] label_data_1_split -> label_data_1_split_1
I0403 15:41:03.879221 10961 net.cpp:399] label_data_1_split -> label_data_1_split_2
I0403 15:41:03.879241 10961 net.cpp:399] label_data_1_split -> label_data_1_split_3
I0403 15:41:03.879261 10961 net.cpp:399] label_data_1_split -> label_data_1_split_4
I0403 15:41:03.879281 10961 net.cpp:399] label_data_1_split -> label_data_1_split_5
I0403 15:41:03.879299 10961 net.cpp:399] label_data_1_split -> label_data_1_split_6
I0403 15:41:03.879319 10961 net.cpp:399] label_data_1_split -> label_data_1_split_7
I0403 15:41:03.879338 10961 net.cpp:399] label_data_1_split -> label_data_1_split_8
I0403 15:41:03.879357 10961 net.cpp:399] label_data_1_split -> label_data_1_split_9
I0403 15:41:03.879468 10961 net.cpp:141] Setting up label_data_1_split
I0403 15:41:03.879492 10961 net.cpp:148] Top shape: 24 (24)
I0403 15:41:03.879508 10961 net.cpp:148] Top shape: 24 (24)
I0403 15:41:03.879523 10961 net.cpp:148] Top shape: 24 (24)
I0403 15:41:03.879539 10961 net.cpp:148] Top shape: 24 (24)
I0403 15:41:03.879554 10961 net.cpp:148] Top shape: 24 (24)
I0403 15:41:03.879568 10961 net.cpp:148] Top shape: 24 (24)
I0403 15:41:03.879585 10961 net.cpp:148] Top shape: 24 (24)
I0403 15:41:03.879598 10961 net.cpp:148] Top shape: 24 (24)
I0403 15:41:03.879614 10961 net.cpp:148] Top shape: 24 (24)
I0403 15:41:03.879629 10961 net.cpp:148] Top shape: 24 (24)
I0403 15:41:03.879673 10961 net.cpp:156] Memory required for data: 14451744
I0403 15:41:03.879688 10961 layer_factory.hpp:77] Creating layer conv1/7x7_s2
I0403 15:41:03.879719 10961 net.cpp:91] Creating Layer conv1/7x7_s2
I0403 15:41:03.879737 10961 net.cpp:425] conv1/7x7_s2 <- data
I0403 15:41:03.879756 10961 net.cpp:399] conv1/7x7_s2 -> conv1/7x7_s2
I0403 15:41:04.017411 10961 net.cpp:141] Setting up conv1/7x7_s2
I0403 15:41:04.017498 10961 net.cpp:148] Top shape: 24 64 112 112 (19267584)
I0403 15:41:04.017515 10961 net.cpp:156] Memory required for data: 91522080
I0403 15:41:04.017544 10961 layer_factory.hpp:77] Creating layer conv1/relu_7x7
I0403 15:41:04.017570 10961 net.cpp:91] Creating Layer conv1/relu_7x7
I0403 15:41:04.017587 10961 net.cpp:425] conv1/relu_7x7 <- conv1/7x7_s2
I0403 15:41:04.017606 10961 net.cpp:386] conv1/relu_7x7 -> conv1/7x7_s2 (in-place)
I0403 15:41:04.017871 10961 net.cpp:141] Setting up conv1/relu_7x7
I0403 15:41:04.017897 10961 net.cpp:148] Top shape: 24 64 112 112 (19267584)
I0403 15:41:04.017911 10961 net.cpp:156] Memory required for data: 168592416
I0403 15:41:04.017928 10961 layer_factory.hpp:77] Creating layer pool1/3x3_s2
I0403 15:41:04.017952 10961 net.cpp:91] Creating Layer pool1/3x3_s2
I0403 15:41:04.017969 10961 net.cpp:425] pool1/3x3_s2 <- conv1/7x7_s2
I0403 15:41:04.018002 10961 net.cpp:399] pool1/3x3_s2 -> pool1/3x3_s2
I0403 15:41:04.018077 10961 net.cpp:141] Setting up pool1/3x3_s2
I0403 15:41:04.018100 10961 net.cpp:148] Top shape: 24 64 56 56 (4816896)
I0403 15:41:04.018115 10961 net.cpp:156] Memory required for data: 187860000
I0403 15:41:04.018129 10961 layer_factory.hpp:77] Creating layer pool1/norm1
I0403 15:41:04.018154 10961 net.cpp:91] Creating Layer pool1/norm1
I0403 15:41:04.018172 10961 net.cpp:425] pool1/norm1 <- pool1/3x3_s2
I0403 15:41:04.018190 10961 net.cpp:399] pool1/norm1 -> pool1/norm1
I0403 15:41:04.018481 10961 net.cpp:141] Setting up pool1/norm1
I0403 15:41:04.018507 10961 net.cpp:148] Top shape: 24 64 56 56 (4816896)
I0403 15:41:04.018522 10961 net.cpp:156] Memory required for data: 207127584
I0403 15:41:04.018537 10961 layer_factory.hpp:77] Creating layer conv2/3x3_reduce
I0403 15:41:04.018563 10961 net.cpp:91] Creating Layer conv2/3x3_reduce
I0403 15:41:04.018581 10961 net.cpp:425] conv2/3x3_reduce <- pool1/norm1
I0403 15:41:04.018602 10961 net.cpp:399] conv2/3x3_reduce -> conv2/3x3_reduce
I0403 15:41:04.019981 10961 net.cpp:141] Setting up conv2/3x3_reduce
I0403 15:41:04.020011 10961 net.cpp:148] Top shape: 24 64 56 56 (4816896)
I0403 15:41:04.020028 10961 net.cpp:156] Memory required for data: 226395168
I0403 15:41:04.020050 10961 layer_factory.hpp:77] Creating layer conv2/relu_3x3_reduce
I0403 15:41:04.020067 10961 net.cpp:91] Creating Layer conv2/relu_3x3_reduce
I0403 15:41:04.020082 10961 net.cpp:425] conv2/relu_3x3_reduce <- conv2/3x3_reduce
I0403 15:41:04.020102 10961 net.cpp:386] conv2/relu_3x3_reduce -> conv2/3x3_reduce (in-place)
I0403 15:41:04.020364 10961 net.cpp:141] Setting up conv2/relu_3x3_reduce
I0403 15:41:04.020390 10961 net.cpp:148] Top shape: 24 64 56 56 (4816896)
I0403 15:41:04.020406 10961 net.cpp:156] Memory required for data: 245662752
I0403 15:41:04.020421 10961 layer_factory.hpp:77] Creating layer conv2/3x3
I0403 15:41:04.020444 10961 net.cpp:91] Creating Layer conv2/3x3
I0403 15:41:04.020462 10961 net.cpp:425] conv2/3x3 <- conv2/3x3_reduce
I0403 15:41:04.020486 10961 net.cpp:399] conv2/3x3 -> conv2/3x3
I0403 15:41:04.022725 10961 net.cpp:141] Setting up conv2/3x3
I0403 15:41:04.022756 10961 net.cpp:148] Top shape: 24 192 56 56 (14450688)
I0403 15:41:04.022773 10961 net.cpp:156] Memory required for data: 303465504
I0403 15:41:04.022792 10961 layer_factory.hpp:77] Creating layer conv2/relu_3x3
I0403 15:41:04.022810 10961 net.cpp:91] Creating Layer conv2/relu_3x3
I0403 15:41:04.022826 10961 net.cpp:425] conv2/relu_3x3 <- conv2/3x3
I0403 15:41:04.022845 10961 net.cpp:386] conv2/relu_3x3 -> conv2/3x3 (in-place)
I0403 15:41:04.023016 10961 net.cpp:141] Setting up conv2/relu_3x3
I0403 15:41:04.023041 10961 net.cpp:148] Top shape: 24 192 56 56 (14450688)
I0403 15:41:04.023084 10961 net.cpp:156] Memory required for data: 361268256
I0403 15:41:04.023099 10961 layer_factory.hpp:77] Creating layer conv2/norm2
I0403 15:41:04.023119 10961 net.cpp:91] Creating Layer conv2/norm2
I0403 15:41:04.023135 10961 net.cpp:425] conv2/norm2 <- conv2/3x3
I0403 15:41:04.023152 10961 net.cpp:399] conv2/norm2 -> conv2/norm2
I0403 15:41:04.023452 10961 net.cpp:141] Setting up conv2/norm2
I0403 15:41:04.023480 10961 net.cpp:148] Top shape: 24 192 56 56 (14450688)
I0403 15:41:04.023496 10961 net.cpp:156] Memory required for data: 419071008
I0403 15:41:04.023510 10961 layer_factory.hpp:77] Creating layer pool2/3x3_s2
I0403 15:41:04.023527 10961 net.cpp:91] Creating Layer pool2/3x3_s2
I0403 15:41:04.023543 10961 net.cpp:425] pool2/3x3_s2 <- conv2/norm2
I0403 15:41:04.023561 10961 net.cpp:399] pool2/3x3_s2 -> pool2/3x3_s2
I0403 15:41:04.023614 10961 net.cpp:141] Setting up pool2/3x3_s2
I0403 15:41:04.023636 10961 net.cpp:148] Top shape: 24 192 28 28 (3612672)
I0403 15:41:04.023650 10961 net.cpp:156] Memory required for data: 433521696
I0403 15:41:04.023664 10961 layer_factory.hpp:77] Creating layer pool2/3x3_s2_pool2/3x3_s2_0_split
I0403 15:41:04.023681 10961 net.cpp:91] Creating Layer pool2/3x3_s2_pool2/3x3_s2_0_split
I0403 15:41:04.023696 10961 net.cpp:425] pool2/3x3_s2_pool2/3x3_s2_0_split <- pool2/3x3_s2
I0403 15:41:04.023716 10961 net.cpp:399] pool2/3x3_s2_pool2/3x3_s2_0_split -> pool2/3x3_s2_pool2/3x3_s2_0_split_0
I0403 15:41:04.023736 10961 net.cpp:399] pool2/3x3_s2_pool2/3x3_s2_0_split -> pool2/3x3_s2_pool2/3x3_s2_0_split_1
I0403 15:41:04.023756 10961 net.cpp:399] pool2/3x3_s2_pool2/3x3_s2_0_split -> pool2/3x3_s2_pool2/3x3_s2_0_split_2
I0403 15:41:04.023777 10961 net.cpp:399] pool2/3x3_s2_pool2/3x3_s2_0_split -> pool2/3x3_s2_pool2/3x3_s2_0_split_3
I0403 15:41:04.023846 10961 net.cpp:141] Setting up pool2/3x3_s2_pool2/3x3_s2_0_split
I0403 15:41:04.023869 10961 net.cpp:148] Top shape: 24 192 28 28 (3612672)
I0403 15:41:04.023883 10961 net.cpp:148] Top shape: 24 192 28 28 (3612672)
I0403 15:41:04.023898 10961 net.cpp:148] Top shape: 24 192 28 28 (3612672)
I0403 15:41:04.023913 10961 net.cpp:148] Top shape: 24 192 28 28 (3612672)
I0403 15:41:04.023928 10961 net.cpp:156] Memory required for data: 491324448
I0403 15:41:04.023941 10961 layer_factory.hpp:77] Creating layer inception_3a/1x1
I0403 15:41:04.023963 10961 net.cpp:91] Creating Layer inception_3a/1x1
I0403 15:41:04.023983 10961 net.cpp:425] inception_3a/1x1 <- pool2/3x3_s2_pool2/3x3_s2_0_split_0
I0403 15:41:04.024004 10961 net.cpp:399] inception_3a/1x1 -> inception_3a/1x1
I0403 15:41:04.025480 10961 net.cpp:141] Setting up inception_3a/1x1
I0403 15:41:04.025511 10961 net.cpp:148] Top shape: 24 64 28 28 (1204224)
I0403 15:41:04.025527 10961 net.cpp:156] Memory required for data: 496141344
I0403 15:41:04.025545 10961 layer_factory.hpp:77] Creating layer inception_3a/relu_1x1
I0403 15:41:04.025563 10961 net.cpp:91] Creating Layer inception_3a/relu_1x1
I0403 15:41:04.025578 10961 net.cpp:425] inception_3a/relu_1x1 <- inception_3a/1x1
I0403 15:41:04.025598 10961 net.cpp:386] inception_3a/relu_1x1 -> inception_3a/1x1 (in-place)
I0403 15:41:04.025763 10961 net.cpp:141] Setting up inception_3a/relu_1x1
I0403 15:41:04.025786 10961 net.cpp:148] Top shape: 24 64 28 28 (1204224)
I0403 15:41:04.025800 10961 net.cpp:156] Memory required for data: 500958240
I0403 15:41:04.025815 10961 layer_factory.hpp:77] Creating layer inception_3a/3x3_reduce
I0403 15:41:04.025836 10961 net.cpp:91] Creating Layer inception_3a/3x3_reduce
I0403 15:41:04.025853 10961 net.cpp:425] inception_3a/3x3_reduce <- pool2/3x3_s2_pool2/3x3_s2_0_split_1
I0403 15:41:04.025874 10961 net.cpp:399] inception_3a/3x3_reduce -> inception_3a/3x3_reduce
I0403 15:41:04.027509 10961 net.cpp:141] Setting up inception_3a/3x3_reduce
I0403 15:41:04.027539 10961 net.cpp:148] Top shape: 24 96 28 28 (1806336)
I0403 15:41:04.027555 10961 net.cpp:156] Memory required for data: 508183584
I0403 15:41:04.027575 10961 layer_factory.hpp:77] Creating layer inception_3a/relu_3x3_reduce
I0403 15:41:04.027609 10961 net.cpp:91] Creating Layer inception_3a/relu_3x3_reduce
I0403 15:41:04.027626 10961 net.cpp:425] inception_3a/relu_3x3_reduce <- inception_3a/3x3_reduce
I0403 15:41:04.027647 10961 net.cpp:386] inception_3a/relu_3x3_reduce -> inception_3a/3x3_reduce (in-place)
I0403 15:41:04.027818 10961 net.cpp:141] Setting up inception_3a/relu_3x3_reduce
I0403 15:41:04.027845 10961 net.cpp:148] Top shape: 24 96 28 28 (1806336)
I0403 15:41:04.027859 10961 net.cpp:156] Memory required for data: 515408928
I0403 15:41:04.027873 10961 layer_factory.hpp:77] Creating layer inception_3a/3x3
I0403 15:41:04.027895 10961 net.cpp:91] Creating Layer inception_3a/3x3
I0403 15:41:04.027911 10961 net.cpp:425] inception_3a/3x3 <- inception_3a/3x3_reduce
I0403 15:41:04.027931 10961 net.cpp:399] inception_3a/3x3 -> inception_3a/3x3
I0403 15:41:04.029522 10961 net.cpp:141] Setting up inception_3a/3x3
I0403 15:41:04.029549 10961 net.cpp:148] Top shape: 24 128 28 28 (2408448)
I0403 15:41:04.029566 10961 net.cpp:156] Memory required for data: 525042720
I0403 15:41:04.029582 10961 layer_factory.hpp:77] Creating layer inception_3a/relu_3x3
I0403 15:41:04.029600 10961 net.cpp:91] Creating Layer inception_3a/relu_3x3
I0403 15:41:04.029615 10961 net.cpp:425] inception_3a/relu_3x3 <- inception_3a/3x3
I0403 15:41:04.029633 10961 net.cpp:386] inception_3a/relu_3x3 -> inception_3a/3x3 (in-place)
I0403 15:41:04.029897 10961 net.cpp:141] Setting up inception_3a/relu_3x3
I0403 15:41:04.029925 10961 net.cpp:148] Top shape: 24 128 28 28 (2408448)
I0403 15:41:04.029939 10961 net.cpp:156] Memory required for data: 534676512
I0403 15:41:04.029953 10961 layer_factory.hpp:77] Creating layer inception_3a/5x5_reduce
I0403 15:41:04.029974 10961 net.cpp:91] Creating Layer inception_3a/5x5_reduce
I0403 15:41:04.029996 10961 net.cpp:425] inception_3a/5x5_reduce <- pool2/3x3_s2_pool2/3x3_s2_0_split_2
I0403 15:41:04.030017 10961 net.cpp:399] inception_3a/5x5_reduce -> inception_3a/5x5_reduce
I0403 15:41:04.030930 10961 net.cpp:141] Setting up inception_3a/5x5_reduce
I0403 15:41:04.030957 10961 net.cpp:148] Top shape: 24 16 28 28 (301056)
I0403 15:41:04.030973 10961 net.cpp:156] Memory required for data: 535880736
I0403 15:41:04.030995 10961 layer_factory.hpp:77] Creating layer inception_3a/relu_5x5_reduce
I0403 15:41:04.031015 10961 net.cpp:91] Creating Layer inception_3a/relu_5x5_reduce
I0403 15:41:04.031031 10961 net.cpp:425] inception_3a/relu_5x5_reduce <- inception_3a/5x5_reduce
I0403 15:41:04.031049 10961 net.cpp:386] inception_3a/relu_5x5_reduce -> inception_3a/5x5_reduce (in-place)
I0403 15:41:04.031334 10961 net.cpp:141] Setting up inception_3a/relu_5x5_reduce
I0403 15:41:04.031359 10961 net.cpp:148] Top shape: 24 16 28 28 (301056)
I0403 15:41:04.031374 10961 net.cpp:156] Memory required for data: 537084960
I0403 15:41:04.031388 10961 layer_factory.hpp:77] Creating layer inception_3a/5x5
I0403 15:41:04.031409 10961 net.cpp:91] Creating Layer inception_3a/5x5
I0403 15:41:04.031427 10961 net.cpp:425] inception_3a/5x5 <- inception_3a/5x5_reduce
I0403 15:41:04.031447 10961 net.cpp:399] inception_3a/5x5 -> inception_3a/5x5
I0403 15:41:04.032420 10961 net.cpp:141] Setting up inception_3a/5x5
I0403 15:41:04.032449 10961 net.cpp:148] Top shape: 24 32 28 28 (602112)
I0403 15:41:04.032465 10961 net.cpp:156] Memory required for data: 539493408
I0403 15:41:04.032483 10961 layer_factory.hpp:77] Creating layer inception_3a/relu_5x5
I0403 15:41:04.032500 10961 net.cpp:91] Creating Layer inception_3a/relu_5x5
I0403 15:41:04.032516 10961 net.cpp:425] inception_3a/relu_5x5 <- inception_3a/5x5
I0403 15:41:04.032534 10961 net.cpp:386] inception_3a/relu_5x5 -> inception_3a/5x5 (in-place)
I0403 15:41:04.032706 10961 net.cpp:141] Setting up inception_3a/relu_5x5
I0403 15:41:04.032729 10961 net.cpp:148] Top shape: 24 32 28 28 (602112)
I0403 15:41:04.032743 10961 net.cpp:156] Memory required for data: 541901856
I0403 15:41:04.032757 10961 layer_factory.hpp:77] Creating layer inception_3a/pool
I0403 15:41:04.032774 10961 net.cpp:91] Creating Layer inception_3a/pool
I0403 15:41:04.032804 10961 net.cpp:425] inception_3a/pool <- pool2/3x3_s2_pool2/3x3_s2_0_split_3
I0403 15:41:04.032824 10961 net.cpp:399] inception_3a/pool -> inception_3a/pool
I0403 15:41:04.032882 10961 net.cpp:141] Setting up inception_3a/pool
I0403 15:41:04.032905 10961 net.cpp:148] Top shape: 24 192 28 28 (3612672)
I0403 15:41:04.032922 10961 net.cpp:156] Memory required for data: 556352544
I0403 15:41:04.032935 10961 layer_factory.hpp:77] Creating layer inception_3a/pool_proj
I0403 15:41:04.032958 10961 net.cpp:91] Creating Layer inception_3a/pool_proj
I0403 15:41:04.032975 10961 net.cpp:425] inception_3a/pool_proj <- inception_3a/pool
I0403 15:41:04.032999 10961 net.cpp:399] inception_3a/pool_proj -> inception_3a/pool_proj
I0403 15:41:04.033922 10961 net.cpp:141] Setting up inception_3a/pool_proj
I0403 15:41:04.033948 10961 net.cpp:148] Top shape: 24 32 28 28 (602112)
I0403 15:41:04.033963 10961 net.cpp:156] Memory required for data: 558760992
I0403 15:41:04.033990 10961 layer_factory.hpp:77] Creating layer inception_3a/relu_pool_proj
I0403 15:41:04.034013 10961 net.cpp:91] Creating Layer inception_3a/relu_pool_proj
I0403 15:41:04.034029 10961 net.cpp:425] inception_3a/relu_pool_proj <- inception_3a/pool_proj
I0403 15:41:04.034045 10961 net.cpp:386] inception_3a/relu_pool_proj -> inception_3a/pool_proj (in-place)
I0403 15:41:04.034310 10961 net.cpp:141] Setting up inception_3a/relu_pool_proj
I0403 15:41:04.034335 10961 net.cpp:148] Top shape: 24 32 28 28 (602112)
I0403 15:41:04.034349 10961 net.cpp:156] Memory required for data: 561169440
I0403 15:41:04.034365 10961 layer_factory.hpp:77] Creating layer inception_3a/output
I0403 15:41:04.034384 10961 net.cpp:91] Creating Layer inception_3a/output
I0403 15:41:04.034399 10961 net.cpp:425] inception_3a/output <- inception_3a/1x1
I0403 15:41:04.034414 10961 net.cpp:425] inception_3a/output <- inception_3a/3x3
I0403 15:41:04.034430 10961 net.cpp:425] inception_3a/output <- inception_3a/5x5
I0403 15:41:04.034445 10961 net.cpp:425] inception_3a/output <- inception_3a/pool_proj
I0403 15:41:04.034463 10961 net.cpp:399] inception_3a/output -> inception_3a/output
I0403 15:41:04.034507 10961 net.cpp:141] Setting up inception_3a/output
I0403 15:41:04.034529 10961 net.cpp:148] Top shape: 24 256 28 28 (4816896)
I0403 15:41:04.034543 10961 net.cpp:156] Memory required for data: 580437024
I0403 15:41:04.034557 10961 layer_factory.hpp:77] Creating layer inception_3a/output_inception_3a/output_0_split
I0403 15:41:04.034576 10961 net.cpp:91] Creating Layer inception_3a/output_inception_3a/output_0_split
I0403 15:41:04.034592 10961 net.cpp:425] inception_3a/output_inception_3a/output_0_split <- inception_3a/output
I0403 15:41:04.034610 10961 net.cpp:399] inception_3a/output_inception_3a/output_0_split -> inception_3a/output_inception_3a/output_0_split_0
I0403 15:41:04.034631 10961 net.cpp:399] inception_3a/output_inception_3a/output_0_split -> inception_3a/output_inception_3a/output_0_split_1
I0403 15:41:04.034652 10961 net.cpp:399] inception_3a/output_inception_3a/output_0_split -> inception_3a/output_inception_3a/output_0_split_2
I0403 15:41:04.034672 10961 net.cpp:399] inception_3a/output_inception_3a/output_0_split -> inception_3a/output_inception_3a/output_0_split_3
I0403 15:41:04.034744 10961 net.cpp:141] Setting up inception_3a/output_inception_3a/output_0_split
I0403 15:41:04.034767 10961 net.cpp:148] Top shape: 24 256 28 28 (4816896)
I0403 15:41:04.034785 10961 net.cpp:148] Top shape: 24 256 28 28 (4816896)
I0403 15:41:04.034800 10961 net.cpp:148] Top shape: 24 256 28 28 (4816896)
I0403 15:41:04.034814 10961 net.cpp:148] Top shape: 24 256 28 28 (4816896)
I0403 15:41:04.034827 10961 net.cpp:156] Memory required for data: 657507360
I0403 15:41:04.034840 10961 layer_factory.hpp:77] Creating layer inception_3b/1x1
I0403 15:41:04.034862 10961 net.cpp:91] Creating Layer inception_3b/1x1
I0403 15:41:04.034878 10961 net.cpp:425] inception_3b/1x1 <- inception_3a/output_inception_3a/output_0_split_0
I0403 15:41:04.034898 10961 net.cpp:399] inception_3b/1x1 -> inception_3b/1x1
I0403 15:41:04.036042 10961 net.cpp:141] Setting up inception_3b/1x1
I0403 15:41:04.036083 10961 net.cpp:148] Top shape: 24 128 28 28 (2408448)
I0403 15:41:04.036100 10961 net.cpp:156] Memory required for data: 667141152
I0403 15:41:04.036118 10961 layer_factory.hpp:77] Creating layer inception_3b/relu_1x1
I0403 15:41:04.036136 10961 net.cpp:91] Creating Layer inception_3b/relu_1x1
I0403 15:41:04.036152 10961 net.cpp:425] inception_3b/relu_1x1 <- inception_3b/1x1
I0403 15:41:04.036170 10961 net.cpp:386] inception_3b/relu_1x1 -> inception_3b/1x1 (in-place)
I0403 15:41:04.036346 10961 net.cpp:141] Setting up inception_3b/relu_1x1
I0403 15:41:04.036370 10961 net.cpp:148] Top shape: 24 128 28 28 (2408448)
I0403 15:41:04.036386 10961 net.cpp:156] Memory required for data: 676774944
I0403 15:41:04.036399 10961 layer_factory.hpp:77] Creating layer inception_3b/3x3_reduce
I0403 15:41:04.036422 10961 net.cpp:91] Creating Layer inception_3b/3x3_reduce
I0403 15:41:04.036439 10961 net.cpp:425] inception_3b/3x3_reduce <- inception_3a/output_inception_3a/output_0_split_1
I0403 15:41:04.036461 10961 net.cpp:399] inception_3b/3x3_reduce -> inception_3b/3x3_reduce
I0403 15:41:04.037595 10961 net.cpp:141] Setting up inception_3b/3x3_reduce
I0403 15:41:04.037624 10961 net.cpp:148] Top shape: 24 128 28 28 (2408448)
I0403 15:41:04.037642 10961 net.cpp:156] Memory required for data: 686408736
I0403 15:41:04.037659 10961 layer_factory.hpp:77] Creating layer inception_3b/relu_3x3_reduce
I0403 15:41:04.037678 10961 net.cpp:91] Creating Layer inception_3b/relu_3x3_reduce
I0403 15:41:04.037693 10961 net.cpp:425] inception_3b/relu_3x3_reduce <- inception_3b/3x3_reduce
I0403 15:41:04.037713 10961 net.cpp:386] inception_3b/relu_3x3_reduce -> inception_3b/3x3_reduce (in-place)
I0403 15:41:04.037886 10961 net.cpp:141] Setting up inception_3b/relu_3x3_reduce
I0403 15:41:04.037920 10961 net.cpp:148] Top shape: 24 128 28 28 (2408448)
I0403 15:41:04.037935 10961 net.cpp:156] Memory required for data: 696042528
I0403 15:41:04.037950 10961 layer_factory.hpp:77] Creating layer inception_3b/3x3
I0403 15:41:04.037976 10961 net.cpp:91] Creating Layer inception_3b/3x3
I0403 15:41:04.038005 10961 net.cpp:425] inception_3b/3x3 <- inception_3b/3x3_reduce
I0403 15:41:04.038025 10961 net.cpp:399] inception_3b/3x3 -> inception_3b/3x3
I0403 15:41:04.040940 10961 net.cpp:141] Setting up inception_3b/3x3
I0403 15:41:04.040968 10961 net.cpp:148] Top shape: 24 192 28 28 (3612672)
I0403 15:41:04.040988 10961 net.cpp:156] Memory required for data: 710493216
I0403 15:41:04.041008 10961 layer_factory.hpp:77] Creating layer inception_3b/relu_3x3
I0403 15:41:04.041026 10961 net.cpp:91] Creating Layer inception_3b/relu_3x3
I0403 15:41:04.041043 10961 net.cpp:425] inception_3b/relu_3x3 <- inception_3b/3x3
I0403 15:41:04.041062 10961 net.cpp:386] inception_3b/relu_3x3 -> inception_3b/3x3 (in-place)
I0403 15:41:04.041335 10961 net.cpp:141] Setting up inception_3b/relu_3x3
I0403 15:41:04.041362 10961 net.cpp:148] Top shape: 24 192 28 28 (3612672)
I0403 15:41:04.041376 10961 net.cpp:156] Memory required for data: 724943904
I0403 15:41:04.041391 10961 layer_factory.hpp:77] Creating layer inception_3b/5x5_reduce
I0403 15:41:04.041415 10961 net.cpp:91] Creating Layer inception_3b/5x5_reduce
I0403 15:41:04.041434 10961 net.cpp:425] inception_3b/5x5_reduce <- inception_3a/output_inception_3a/output_0_split_2
I0403 15:41:04.041455 10961 net.cpp:399] inception_3b/5x5_reduce -> inception_3b/5x5_reduce
I0403 15:41:04.042433 10961 net.cpp:141] Setting up inception_3b/5x5_reduce
I0403 15:41:04.042464 10961 net.cpp:148] Top shape: 24 32 28 28 (602112)
I0403 15:41:04.042479 10961 net.cpp:156] Memory required for data: 727352352
I0403 15:41:04.042497 10961 layer_factory.hpp:77] Creating layer inception_3b/relu_5x5_reduce
I0403 15:41:04.042515 10961 net.cpp:91] Creating Layer inception_3b/relu_5x5_reduce
I0403 15:41:04.042531 10961 net.cpp:425] inception_3b/relu_5x5_reduce <- inception_3b/5x5_reduce
I0403 15:41:04.042551 10961 net.cpp:386] inception_3b/relu_5x5_reduce -> inception_3b/5x5_reduce (in-place)
I0403 15:41:04.042738 10961 net.cpp:141] Setting up inception_3b/relu_5x5_reduce
I0403 15:41:04.042762 10961 net.cpp:148] Top shape: 24 32 28 28 (602112)
I0403 15:41:04.042778 10961 net.cpp:156] Memory required for data: 729760800
I0403 15:41:04.042791 10961 layer_factory.hpp:77] Creating layer inception_3b/5x5
I0403 15:41:04.042814 10961 net.cpp:91] Creating Layer inception_3b/5x5
I0403 15:41:04.042831 10961 net.cpp:425] inception_3b/5x5 <- inception_3b/5x5_reduce
I0403 15:41:04.042852 10961 net.cpp:399] inception_3b/5x5 -> inception_3b/5x5
I0403 15:41:04.044818 10961 net.cpp:141] Setting up inception_3b/5x5
I0403 15:41:04.044847 10961 net.cpp:148] Top shape: 24 96 28 28 (1806336)
I0403 15:41:04.044863 10961 net.cpp:156] Memory required for data: 736986144
I0403 15:41:04.044881 10961 layer_factory.hpp:77] Creating layer inception_3b/relu_5x5
I0403 15:41:04.044903 10961 net.cpp:91] Creating Layer inception_3b/relu_5x5
I0403 15:41:04.044919 10961 net.cpp:425] inception_3b/relu_5x5 <- inception_3b/5x5
I0403 15:41:04.044937 10961 net.cpp:386] inception_3b/relu_5x5 -> inception_3b/5x5 (in-place)
I0403 15:41:04.045135 10961 net.cpp:141] Setting up inception_3b/relu_5x5
I0403 15:41:04.045159 10961 net.cpp:148] Top shape: 24 96 28 28 (1806336)
I0403 15:41:04.045174 10961 net.cpp:156] Memory required for data: 744211488
I0403 15:41:04.045188 10961 layer_factory.hpp:77] Creating layer inception_3b/pool
I0403 15:41:04.045205 10961 net.cpp:91] Creating Layer inception_3b/pool
I0403 15:41:04.045222 10961 net.cpp:425] inception_3b/pool <- inception_3a/output_inception_3a/output_0_split_3
I0403 15:41:04.045239 10961 net.cpp:399] inception_3b/pool -> inception_3b/pool
I0403 15:41:04.045295 10961 net.cpp:141] Setting up inception_3b/pool
I0403 15:41:04.045318 10961 net.cpp:148] Top shape: 24 256 28 28 (4816896)
I0403 15:41:04.045332 10961 net.cpp:156] Memory required for data: 763479072
I0403 15:41:04.045346 10961 layer_factory.hpp:77] Creating layer inception_3b/pool_proj
I0403 15:41:04.045369 10961 net.cpp:91] Creating Layer inception_3b/pool_proj
I0403 15:41:04.045387 10961 net.cpp:425] inception_3b/pool_proj <- inception_3b/pool
I0403 15:41:04.045405 10961 net.cpp:399] inception_3b/pool_proj -> inception_3b/pool_proj
I0403 15:41:04.046447 10961 net.cpp:141] Setting up inception_3b/pool_proj
I0403 15:41:04.046474 10961 net.cpp:148] Top shape: 24 64 28 28 (1204224)
I0403 15:41:04.046490 10961 net.cpp:156] Memory required for data: 768295968
I0403 15:41:04.046509 10961 layer_factory.hpp:77] Creating layer inception_3b/relu_pool_proj
I0403 15:41:04.046532 10961 net.cpp:91] Creating Layer inception_3b/relu_pool_proj
I0403 15:41:04.046550 10961 net.cpp:425] inception_3b/relu_pool_proj <- inception_3b/pool_proj
I0403 15:41:04.046566 10961 net.cpp:386] inception_3b/relu_pool_proj -> inception_3b/pool_proj (in-place)
I0403 15:41:04.046962 10961 net.cpp:141] Setting up inception_3b/relu_pool_proj
I0403 15:41:04.046991 10961 net.cpp:148] Top shape: 24 64 28 28 (1204224)
I0403 15:41:04.047008 10961 net.cpp:156] Memory required for data: 773112864
I0403 15:41:04.047022 10961 layer_factory.hpp:77] Creating layer inception_3b/output
I0403 15:41:04.047039 10961 net.cpp:91] Creating Layer inception_3b/output
I0403 15:41:04.047055 10961 net.cpp:425] inception_3b/output <- inception_3b/1x1
I0403 15:41:04.047071 10961 net.cpp:425] inception_3b/output <- inception_3b/3x3
I0403 15:41:04.047091 10961 net.cpp:425] inception_3b/output <- inception_3b/5x5
I0403 15:41:04.047106 10961 net.cpp:425] inception_3b/output <- inception_3b/pool_proj
I0403 15:41:04.047123 10961 net.cpp:399] inception_3b/output -> inception_3b/output
I0403 15:41:04.047166 10961 net.cpp:141] Setting up inception_3b/output
I0403 15:41:04.047191 10961 net.cpp:148] Top shape: 24 480 28 28 (9031680)
I0403 15:41:04.047206 10961 net.cpp:156] Memory required for data: 809239584
I0403 15:41:04.047221 10961 layer_factory.hpp:77] Creating layer pool3/3x3_s2
I0403 15:41:04.047238 10961 net.cpp:91] Creating Layer pool3/3x3_s2
I0403 15:41:04.047255 10961 net.cpp:425] pool3/3x3_s2 <- inception_3b/output
I0403 15:41:04.047289 10961 net.cpp:399] pool3/3x3_s2 -> pool3/3x3_s2
I0403 15:41:04.047348 10961 net.cpp:141] Setting up pool3/3x3_s2
I0403 15:41:04.047371 10961 net.cpp:148] Top shape: 24 480 14 14 (2257920)
I0403 15:41:04.047385 10961 net.cpp:156] Memory required for data: 818271264
I0403 15:41:04.047400 10961 layer_factory.hpp:77] Creating layer pool3/3x3_s2_pool3/3x3_s2_0_split
I0403 15:41:04.047420 10961 net.cpp:91] Creating Layer pool3/3x3_s2_pool3/3x3_s2_0_split
I0403 15:41:04.047435 10961 net.cpp:425] pool3/3x3_s2_pool3/3x3_s2_0_split <- pool3/3x3_s2
I0403 15:41:04.047452 10961 net.cpp:399] pool3/3x3_s2_pool3/3x3_s2_0_split -> pool3/3x3_s2_pool3/3x3_s2_0_split_0
I0403 15:41:04.047472 10961 net.cpp:399] pool3/3x3_s2_pool3/3x3_s2_0_split -> pool3/3x3_s2_pool3/3x3_s2_0_split_1
I0403 15:41:04.047492 10961 net.cpp:399] pool3/3x3_s2_pool3/3x3_s2_0_split -> pool3/3x3_s2_pool3/3x3_s2_0_split_2
I0403 15:41:04.047513 10961 net.cpp:399] pool3/3x3_s2_pool3/3x3_s2_0_split -> pool3/3x3_s2_pool3/3x3_s2_0_split_3
I0403 15:41:04.047590 10961 net.cpp:141] Setting up pool3/3x3_s2_pool3/3x3_s2_0_split
I0403 15:41:04.047612 10961 net.cpp:148] Top shape: 24 480 14 14 (2257920)
I0403 15:41:04.047628 10961 net.cpp:148] Top shape: 24 480 14 14 (2257920)
I0403 15:41:04.047643 10961 net.cpp:148] Top shape: 24 480 14 14 (2257920)
I0403 15:41:04.047658 10961 net.cpp:148] Top shape: 24 480 14 14 (2257920)
I0403 15:41:04.047672 10961 net.cpp:156] Memory required for data: 854397984
I0403 15:41:04.047685 10961 layer_factory.hpp:77] Creating layer inception_4a/1x1
I0403 15:41:04.047708 10961 net.cpp:91] Creating Layer inception_4a/1x1
I0403 15:41:04.047725 10961 net.cpp:425] inception_4a/1x1 <- pool3/3x3_s2_pool3/3x3_s2_0_split_0
I0403 15:41:04.047746 10961 net.cpp:399] inception_4a/1x1 -> inception_4a/1x1
I0403 15:41:04.049305 10961 net.cpp:141] Setting up inception_4a/1x1
I0403 15:41:04.049335 10961 net.cpp:148] Top shape: 24 192 14 14 (903168)
I0403 15:41:04.049350 10961 net.cpp:156] Memory required for data: 858010656
I0403 15:41:04.049367 10961 layer_factory.hpp:77] Creating layer inception_4a/relu_1x1
I0403 15:41:04.049388 10961 net.cpp:91] Creating Layer inception_4a/relu_1x1
I0403 15:41:04.049406 10961 net.cpp:425] inception_4a/relu_1x1 <- inception_4a/1x1
I0403 15:41:04.049423 10961 net.cpp:386] inception_4a/relu_1x1 -> inception_4a/1x1 (in-place)
I0403 15:41:04.049595 10961 net.cpp:141] Setting up inception_4a/relu_1x1
I0403 15:41:04.049623 10961 net.cpp:148] Top shape: 24 192 14 14 (903168)
I0403 15:41:04.049639 10961 net.cpp:156] Memory required for data: 861623328
I0403 15:41:04.049654 10961 layer_factory.hpp:77] Creating layer inception_4a/3x3_reduce
I0403 15:41:04.049676 10961 net.cpp:91] Creating Layer inception_4a/3x3_reduce
I0403 15:41:04.049693 10961 net.cpp:425] inception_4a/3x3_reduce <- pool3/3x3_s2_pool3/3x3_s2_0_split_1
I0403 15:41:04.049711 10961 net.cpp:399] inception_4a/3x3_reduce -> inception_4a/3x3_reduce
I0403 15:41:04.050989 10961 net.cpp:141] Setting up inception_4a/3x3_reduce
I0403 15:41:04.051017 10961 net.cpp:148] Top shape: 24 96 14 14 (451584)
I0403 15:41:04.051033 10961 net.cpp:156] Memory required for data: 863429664
I0403 15:41:04.051056 10961 layer_factory.hpp:77] Creating layer inception_4a/relu_3x3_reduce
I0403 15:41:04.051076 10961 net.cpp:91] Creating Layer inception_4a/relu_3x3_reduce
I0403 15:41:04.051092 10961 net.cpp:425] inception_4a/relu_3x3_reduce <- inception_4a/3x3_reduce
I0403 15:41:04.051111 10961 net.cpp:386] inception_4a/relu_3x3_reduce -> inception_4a/3x3_reduce (in-place)
I0403 15:41:04.051290 10961 net.cpp:141] Setting up inception_4a/relu_3x3_reduce
I0403 15:41:04.051316 10961 net.cpp:148] Top shape: 24 96 14 14 (451584)
I0403 15:41:04.051332 10961 net.cpp:156] Memory required for data: 865236000
I0403 15:41:04.051347 10961 layer_factory.hpp:77] Creating layer inception_4a/3x3
I0403 15:41:04.051369 10961 net.cpp:91] Creating Layer inception_4a/3x3
I0403 15:41:04.051386 10961 net.cpp:425] inception_4a/3x3 <- inception_4a/3x3_reduce
I0403 15:41:04.051405 10961 net.cpp:399] inception_4a/3x3 -> inception_4a/3x3
I0403 15:41:04.054142 10961 net.cpp:141] Setting up inception_4a/3x3
I0403 15:41:04.054172 10961 net.cpp:148] Top shape: 24 208 14 14 (978432)
I0403 15:41:04.054188 10961 net.cpp:156] Memory required for data: 869149728
I0403 15:41:04.054205 10961 layer_factory.hpp:77] Creating layer inception_4a/relu_3x3
I0403 15:41:04.054222 10961 net.cpp:91] Creating Layer inception_4a/relu_3x3
I0403 15:41:04.054237 10961 net.cpp:425] inception_4a/relu_3x3 <- inception_4a/3x3
I0403 15:41:04.054256 10961 net.cpp:386] inception_4a/relu_3x3 -> inception_4a/3x3 (in-place)
I0403 15:41:04.054523 10961 net.cpp:141] Setting up inception_4a/relu_3x3
I0403 15:41:04.054551 10961 net.cpp:148] Top shape: 24 208 14 14 (978432)
I0403 15:41:04.054566 10961 net.cpp:156] Memory required for data: 873063456
I0403 15:41:04.054580 10961 layer_factory.hpp:77] Creating layer inception_4a/5x5_reduce
I0403 15:41:04.054603 10961 net.cpp:91] Creating Layer inception_4a/5x5_reduce
I0403 15:41:04.054620 10961 net.cpp:425] inception_4a/5x5_reduce <- pool3/3x3_s2_pool3/3x3_s2_0_split_2
I0403 15:41:04.054638 10961 net.cpp:399] inception_4a/5x5_reduce -> inception_4a/5x5_reduce
I0403 15:41:04.055608 10961 net.cpp:141] Setting up inception_4a/5x5_reduce
I0403 15:41:04.055637 10961 net.cpp:148] Top shape: 24 16 14 14 (75264)
I0403 15:41:04.055654 10961 net.cpp:156] Memory required for data: 873364512
I0403 15:41:04.055671 10961 layer_factory.hpp:77] Creating layer inception_4a/relu_5x5_reduce
I0403 15:41:04.055688 10961 net.cpp:91] Creating Layer inception_4a/relu_5x5_reduce
I0403 15:41:04.055703 10961 net.cpp:425] inception_4a/relu_5x5_reduce <- inception_4a/5x5_reduce
I0403 15:41:04.055722 10961 net.cpp:386] inception_4a/relu_5x5_reduce -> inception_4a/5x5_reduce (in-place)
I0403 15:41:04.055893 10961 net.cpp:141] Setting up inception_4a/relu_5x5_reduce
I0403 15:41:04.055917 10961 net.cpp:148] Top shape: 24 16 14 14 (75264)
I0403 15:41:04.055932 10961 net.cpp:156] Memory required for data: 873665568
I0403 15:41:04.055945 10961 layer_factory.hpp:77] Creating layer inception_4a/5x5
I0403 15:41:04.055966 10961 net.cpp:91] Creating Layer inception_4a/5x5
I0403 15:41:04.055987 10961 net.cpp:425] inception_4a/5x5 <- inception_4a/5x5_reduce
I0403 15:41:04.056010 10961 net.cpp:399] inception_4a/5x5 -> inception_4a/5x5
I0403 15:41:04.057049 10961 net.cpp:141] Setting up inception_4a/5x5
I0403 15:41:04.057076 10961 net.cpp:148] Top shape: 24 48 14 14 (225792)
I0403 15:41:04.057091 10961 net.cpp:156] Memory required for data: 874568736
I0403 15:41:04.057109 10961 layer_factory.hpp:77] Creating layer inception_4a/relu_5x5
I0403 15:41:04.057128 10961 net.cpp:91] Creating Layer inception_4a/relu_5x5
I0403 15:41:04.057145 10961 net.cpp:425] inception_4a/relu_5x5 <- inception_4a/5x5
I0403 15:41:04.057163 10961 net.cpp:386] inception_4a/relu_5x5 -> inception_4a/5x5 (in-place)
I0403 15:41:04.057338 10961 net.cpp:141] Setting up inception_4a/relu_5x5
I0403 15:41:04.057363 10961 net.cpp:148] Top shape: 24 48 14 14 (225792)
I0403 15:41:04.057376 10961 net.cpp:156] Memory required for data: 875471904
I0403 15:41:04.057390 10961 layer_factory.hpp:77] Creating layer inception_4a/pool
I0403 15:41:04.057410 10961 net.cpp:91] Creating Layer inception_4a/pool
I0403 15:41:04.057426 10961 net.cpp:425] inception_4a/pool <- pool3/3x3_s2_pool3/3x3_s2_0_split_3
I0403 15:41:04.057443 10961 net.cpp:399] inception_4a/pool -> inception_4a/pool
I0403 15:41:04.057503 10961 net.cpp:141] Setting up inception_4a/pool
I0403 15:41:04.057526 10961 net.cpp:148] Top shape: 24 480 14 14 (2257920)
I0403 15:41:04.057540 10961 net.cpp:156] Memory required for data: 884503584
I0403 15:41:04.057554 10961 layer_factory.hpp:77] Creating layer inception_4a/pool_proj
I0403 15:41:04.057575 10961 net.cpp:91] Creating Layer inception_4a/pool_proj
I0403 15:41:04.057592 10961 net.cpp:425] inception_4a/pool_proj <- inception_4a/pool
I0403 15:41:04.057612 10961 net.cpp:399] inception_4a/pool_proj -> inception_4a/pool_proj
I0403 15:41:04.058732 10961 net.cpp:141] Setting up inception_4a/pool_proj
I0403 15:41:04.058758 10961 net.cpp:148] Top shape: 24 64 14 14 (301056)
I0403 15:41:04.058787 10961 net.cpp:156] Memory required for data: 885707808
I0403 15:41:04.058806 10961 layer_factory.hpp:77] Creating layer inception_4a/relu_pool_proj
I0403 15:41:04.058827 10961 net.cpp:91] Creating Layer inception_4a/relu_pool_proj
I0403 15:41:04.058845 10961 net.cpp:425] inception_4a/relu_pool_proj <- inception_4a/pool_proj
I0403 15:41:04.058861 10961 net.cpp:386] inception_4a/relu_pool_proj -> inception_4a/pool_proj (in-place)
I0403 15:41:04.059134 10961 net.cpp:141] Setting up inception_4a/relu_pool_proj
I0403 15:41:04.059159 10961 net.cpp:148] Top shape: 24 64 14 14 (301056)
I0403 15:41:04.059175 10961 net.cpp:156] Memory required for data: 886912032
I0403 15:41:04.059188 10961 layer_factory.hpp:77] Creating layer inception_4a/output
I0403 15:41:04.059208 10961 net.cpp:91] Creating Layer inception_4a/output
I0403 15:41:04.059224 10961 net.cpp:425] inception_4a/output <- inception_4a/1x1
I0403 15:41:04.059240 10961 net.cpp:425] inception_4a/output <- inception_4a/3x3
I0403 15:41:04.059257 10961 net.cpp:425] inception_4a/output <- inception_4a/5x5
I0403 15:41:04.059273 10961 net.cpp:425] inception_4a/output <- inception_4a/pool_proj
I0403 15:41:04.059289 10961 net.cpp:399] inception_4a/output -> inception_4a/output
I0403 15:41:04.059334 10961 net.cpp:141] Setting up inception_4a/output
I0403 15:41:04.059356 10961 net.cpp:148] Top shape: 24 512 14 14 (2408448)
I0403 15:41:04.059370 10961 net.cpp:156] Memory required for data: 896545824
I0403 15:41:04.059383 10961 layer_factory.hpp:77] Creating layer inception_4a/output_inception_4a/output_0_split
I0403 15:41:04.059401 10961 net.cpp:91] Creating Layer inception_4a/output_inception_4a/output_0_split
I0403 15:41:04.059415 10961 net.cpp:425] inception_4a/output_inception_4a/output_0_split <- inception_4a/output
I0403 15:41:04.059435 10961 net.cpp:399] inception_4a/output_inception_4a/output_0_split -> inception_4a/output_inception_4a/output_0_split_0
I0403 15:41:04.059456 10961 net.cpp:399] inception_4a/output_inception_4a/output_0_split -> inception_4a/output_inception_4a/output_0_split_1
I0403 15:41:04.059476 10961 net.cpp:399] inception_4a/output_inception_4a/output_0_split -> inception_4a/output_inception_4a/output_0_split_2
I0403 15:41:04.059495 10961 net.cpp:399] inception_4a/output_inception_4a/output_0_split -> inception_4a/output_inception_4a/output_0_split_3
I0403 15:41:04.059514 10961 net.cpp:399] inception_4a/output_inception_4a/output_0_split -> inception_4a/output_inception_4a/output_0_split_4
I0403 15:41:04.059602 10961 net.cpp:141] Setting up inception_4a/output_inception_4a/output_0_split
I0403 15:41:04.059625 10961 net.cpp:148] Top shape: 24 512 14 14 (2408448)
I0403 15:41:04.059643 10961 net.cpp:148] Top shape: 24 512 14 14 (2408448)
I0403 15:41:04.059658 10961 net.cpp:148] Top shape: 24 512 14 14 (2408448)
I0403 15:41:04.059672 10961 net.cpp:148] Top shape: 24 512 14 14 (2408448)
I0403 15:41:04.059686 10961 net.cpp:148] Top shape: 24 512 14 14 (2408448)
I0403 15:41:04.059700 10961 net.cpp:156] Memory required for data: 944714784
I0403 15:41:04.059715 10961 layer_factory.hpp:77] Creating layer loss1/ave_pool
I0403 15:41:04.059731 10961 net.cpp:91] Creating Layer loss1/ave_pool
I0403 15:41:04.059746 10961 net.cpp:425] loss1/ave_pool <- inception_4a/output_inception_4a/output_0_split_0
I0403 15:41:04.059765 10961 net.cpp:399] loss1/ave_pool -> loss1/ave_pool
I0403 15:41:04.059962 10961 net.cpp:141] Setting up loss1/ave_pool
I0403 15:41:04.059991 10961 net.cpp:148] Top shape: 24 512 4 4 (196608)
I0403 15:41:04.060006 10961 net.cpp:156] Memory required for data: 945501216
I0403 15:41:04.060021 10961 layer_factory.hpp:77] Creating layer loss1/conv
I0403 15:41:04.060045 10961 net.cpp:91] Creating Layer loss1/conv
I0403 15:41:04.060062 10961 net.cpp:425] loss1/conv <- loss1/ave_pool
I0403 15:41:04.060082 10961 net.cpp:399] loss1/conv -> loss1/conv
I0403 15:41:04.061434 10961 net.cpp:141] Setting up loss1/conv
I0403 15:41:04.061463 10961 net.cpp:148] Top shape: 24 128 4 4 (49152)
I0403 15:41:04.061491 10961 net.cpp:156] Memory required for data: 945697824
I0403 15:41:04.061511 10961 layer_factory.hpp:77] Creating layer loss1/relu_conv
I0403 15:41:04.061527 10961 net.cpp:91] Creating Layer loss1/relu_conv
I0403 15:41:04.061542 10961 net.cpp:425] loss1/relu_conv <- loss1/conv
I0403 15:41:04.061561 10961 net.cpp:386] loss1/relu_conv -> loss1/conv (in-place)
I0403 15:41:04.061830 10961 net.cpp:141] Setting up loss1/relu_conv
I0403 15:41:04.061856 10961 net.cpp:148] Top shape: 24 128 4 4 (49152)
I0403 15:41:04.061872 10961 net.cpp:156] Memory required for data: 945894432
I0403 15:41:04.061885 10961 layer_factory.hpp:77] Creating layer loss1/fc
I0403 15:41:04.061908 10961 net.cpp:91] Creating Layer loss1/fc
I0403 15:41:04.061928 10961 net.cpp:425] loss1/fc <- loss1/conv
I0403 15:41:04.061949 10961 net.cpp:399] loss1/fc -> loss1/fc
I0403 15:41:04.079309 10961 net.cpp:141] Setting up loss1/fc
I0403 15:41:04.079341 10961 net.cpp:148] Top shape: 24 1024 (24576)
I0403 15:41:04.079355 10961 net.cpp:156] Memory required for data: 945992736
I0403 15:41:04.079373 10961 layer_factory.hpp:77] Creating layer loss1/relu_fc
I0403 15:41:04.079393 10961 net.cpp:91] Creating Layer loss1/relu_fc
I0403 15:41:04.079409 10961 net.cpp:425] loss1/relu_fc <- loss1/fc
I0403 15:41:04.079427 10961 net.cpp:386] loss1/relu_fc -> loss1/fc (in-place)
I0403 15:41:04.079602 10961 net.cpp:141] Setting up loss1/relu_fc
I0403 15:41:04.079628 10961 net.cpp:148] Top shape: 24 1024 (24576)
I0403 15:41:04.079643 10961 net.cpp:156] Memory required for data: 946091040
I0403 15:41:04.079658 10961 layer_factory.hpp:77] Creating layer loss1/drop_fc
I0403 15:41:04.079686 10961 net.cpp:91] Creating Layer loss1/drop_fc
I0403 15:41:04.079704 10961 net.cpp:425] loss1/drop_fc <- loss1/fc
I0403 15:41:04.079720 10961 net.cpp:386] loss1/drop_fc -> loss1/fc (in-place)
I0403 15:41:04.079771 10961 net.cpp:141] Setting up loss1/drop_fc
I0403 15:41:04.079793 10961 net.cpp:148] Top shape: 24 1024 (24576)
I0403 15:41:04.079807 10961 net.cpp:156] Memory required for data: 946189344
I0403 15:41:04.079821 10961 layer_factory.hpp:77] Creating layer loss1/classifier_plantvillage
I0403 15:41:04.079839 10961 net.cpp:91] Creating Layer loss1/classifier_plantvillage
I0403 15:41:04.079856 10961 net.cpp:425] loss1/classifier_plantvillage <- loss1/fc
I0403 15:41:04.079877 10961 net.cpp:399] loss1/classifier_plantvillage -> loss1/classifier_plantvillage
I0403 15:41:04.080827 10961 net.cpp:141] Setting up loss1/classifier_plantvillage
I0403 15:41:04.080855 10961 net.cpp:148] Top shape: 24 38 (912)
I0403 15:41:04.080870 10961 net.cpp:156] Memory required for data: 946192992
I0403 15:41:04.080888 10961 layer_factory.hpp:77] Creating layer loss1/classifier_plantvillage_loss1/classifier_plantvillage_0_split
I0403 15:41:04.080909 10961 net.cpp:91] Creating Layer loss1/classifier_plantvillage_loss1/classifier_plantvillage_0_split
I0403 15:41:04.080927 10961 net.cpp:425] loss1/classifier_plantvillage_loss1/classifier_plantvillage_0_split <- loss1/classifier_plantvillage
I0403 15:41:04.080945 10961 net.cpp:399] loss1/classifier_plantvillage_loss1/classifier_plantvillage_0_split -> loss1/classifier_plantvillage_loss1/classifier_plantvillage_0_split_0
I0403 15:41:04.080965 10961 net.cpp:399] loss1/classifier_plantvillage_loss1/classifier_plantvillage_0_split -> loss1/classifier_plantvillage_loss1/classifier_plantvillage_0_split_1
I0403 15:41:04.080993 10961 net.cpp:399] loss1/classifier_plantvillage_loss1/classifier_plantvillage_0_split -> loss1/classifier_plantvillage_loss1/classifier_plantvillage_0_split_2
I0403 15:41:04.081060 10961 net.cpp:141] Setting up loss1/classifier_plantvillage_loss1/classifier_plantvillage_0_split
I0403 15:41:04.081084 10961 net.cpp:148] Top shape: 24 38 (912)
I0403 15:41:04.081099 10961 net.cpp:148] Top shape: 24 38 (912)
I0403 15:41:04.081115 10961 net.cpp:148] Top shape: 24 38 (912)
I0403 15:41:04.081128 10961 net.cpp:156] Memory required for data: 946203936
I0403 15:41:04.081142 10961 layer_factory.hpp:77] Creating layer inception_4b/1x1
I0403 15:41:04.081166 10961 net.cpp:91] Creating Layer inception_4b/1x1
I0403 15:41:04.081198 10961 net.cpp:425] inception_4b/1x1 <- inception_4a/output_inception_4a/output_0_split_1
I0403 15:41:04.081218 10961 net.cpp:399] inception_4b/1x1 -> inception_4b/1x1
I0403 15:41:04.082856 10961 net.cpp:141] Setting up inception_4b/1x1
I0403 15:41:04.082887 10961 net.cpp:148] Top shape: 24 160 14 14 (752640)
I0403 15:41:04.082904 10961 net.cpp:156] Memory required for data: 949214496
I0403 15:41:04.082923 10961 layer_factory.hpp:77] Creating layer inception_4b/relu_1x1
I0403 15:41:04.082942 10961 net.cpp:91] Creating Layer inception_4b/relu_1x1
I0403 15:41:04.082957 10961 net.cpp:425] inception_4b/relu_1x1 <- inception_4b/1x1
I0403 15:41:04.082980 10961 net.cpp:386] inception_4b/relu_1x1 -> inception_4b/1x1 (in-place)
I0403 15:41:04.083158 10961 net.cpp:141] Setting up inception_4b/relu_1x1
I0403 15:41:04.083184 10961 net.cpp:148] Top shape: 24 160 14 14 (752640)
I0403 15:41:04.083199 10961 net.cpp:156] Memory required for data: 952225056
I0403 15:41:04.083212 10961 layer_factory.hpp:77] Creating layer inception_4b/3x3_reduce
I0403 15:41:04.083236 10961 net.cpp:91] Creating Layer inception_4b/3x3_reduce
I0403 15:41:04.083256 10961 net.cpp:425] inception_4b/3x3_reduce <- inception_4a/output_inception_4a/output_0_split_2
I0403 15:41:04.083279 10961 net.cpp:399] inception_4b/3x3_reduce -> inception_4b/3x3_reduce
I0403 15:41:04.084624 10961 net.cpp:141] Setting up inception_4b/3x3_reduce
I0403 15:41:04.084651 10961 net.cpp:148] Top shape: 24 112 14 14 (526848)
I0403 15:41:04.084666 10961 net.cpp:156] Memory required for data: 954332448
I0403 15:41:04.084686 10961 layer_factory.hpp:77] Creating layer inception_4b/relu_3x3_reduce
I0403 15:41:04.084703 10961 net.cpp:91] Creating Layer inception_4b/relu_3x3_reduce
I0403 15:41:04.084719 10961 net.cpp:425] inception_4b/relu_3x3_reduce <- inception_4b/3x3_reduce
I0403 15:41:04.084739 10961 net.cpp:386] inception_4b/relu_3x3_reduce -> inception_4b/3x3_reduce (in-place)
I0403 15:41:04.085022 10961 net.cpp:141] Setting up inception_4b/relu_3x3_reduce
I0403 15:41:04.085049 10961 net.cpp:148] Top shape: 24 112 14 14 (526848)
I0403 15:41:04.085064 10961 net.cpp:156] Memory required for data: 956439840
I0403 15:41:04.085079 10961 layer_factory.hpp:77] Creating layer inception_4b/3x3
I0403 15:41:04.085101 10961 net.cpp:91] Creating Layer inception_4b/3x3
I0403 15:41:04.085119 10961 net.cpp:425] inception_4b/3x3 <- inception_4b/3x3_reduce
I0403 15:41:04.085139 10961 net.cpp:399] inception_4b/3x3 -> inception_4b/3x3
I0403 15:41:04.088116 10961 net.cpp:141] Setting up inception_4b/3x3
I0403 15:41:04.088146 10961 net.cpp:148] Top shape: 24 224 14 14 (1053696)
I0403 15:41:04.088161 10961 net.cpp:156] Memory required for data: 960654624
I0403 15:41:04.088181 10961 layer_factory.hpp:77] Creating layer inception_4b/relu_3x3
I0403 15:41:04.088201 10961 net.cpp:91] Creating Layer inception_4b/relu_3x3
I0403 15:41:04.088218 10961 net.cpp:425] inception_4b/relu_3x3 <- inception_4b/3x3
I0403 15:41:04.088235 10961 net.cpp:386] inception_4b/relu_3x3 -> inception_4b/3x3 (in-place)
I0403 15:41:04.088418 10961 net.cpp:141] Setting up inception_4b/relu_3x3
I0403 15:41:04.088444 10961 net.cpp:148] Top shape: 24 224 14 14 (1053696)
I0403 15:41:04.088460 10961 net.cpp:156] Memory required for data: 964869408
I0403 15:41:04.088474 10961 layer_factory.hpp:77] Creating layer inception_4b/5x5_reduce
I0403 15:41:04.088496 10961 net.cpp:91] Creating Layer inception_4b/5x5_reduce
I0403 15:41:04.088512 10961 net.cpp:425] inception_4b/5x5_reduce <- inception_4a/output_inception_4a/output_0_split_3
I0403 15:41:04.088536 10961 net.cpp:399] inception_4b/5x5_reduce -> inception_4b/5x5_reduce
I0403 15:41:04.089612 10961 net.cpp:141] Setting up inception_4b/5x5_reduce
I0403 15:41:04.089638 10961 net.cpp:148] Top shape: 24 24 14 14 (112896)
I0403 15:41:04.089654 10961 net.cpp:156] Memory required for data: 965320992
I0403 15:41:04.089673 10961 layer_factory.hpp:77] Creating layer inception_4b/relu_5x5_reduce
I0403 15:41:04.089690 10961 net.cpp:91] Creating Layer inception_4b/relu_5x5_reduce
I0403 15:41:04.089720 10961 net.cpp:425] inception_4b/relu_5x5_reduce <- inception_4b/5x5_reduce
I0403 15:41:04.089741 10961 net.cpp:386] inception_4b/relu_5x5_reduce -> inception_4b/5x5_reduce (in-place)
I0403 15:41:04.089921 10961 net.cpp:141] Setting up inception_4b/relu_5x5_reduce
I0403 15:41:04.089946 10961 net.cpp:148] Top shape: 24 24 14 14 (112896)
I0403 15:41:04.089962 10961 net.cpp:156] Memory required for data: 965772576
I0403 15:41:04.089975 10961 layer_factory.hpp:77] Creating layer inception_4b/5x5
I0403 15:41:04.090003 10961 net.cpp:91] Creating Layer inception_4b/5x5
I0403 15:41:04.090021 10961 net.cpp:425] inception_4b/5x5 <- inception_4b/5x5_reduce
I0403 15:41:04.090041 10961 net.cpp:399] inception_4b/5x5 -> inception_4b/5x5
I0403 15:41:04.091261 10961 net.cpp:141] Setting up inception_4b/5x5
I0403 15:41:04.091290 10961 net.cpp:148] Top shape: 24 64 14 14 (301056)
I0403 15:41:04.091307 10961 net.cpp:156] Memory required for data: 966976800
I0403 15:41:04.091325 10961 layer_factory.hpp:77] Creating layer inception_4b/relu_5x5
I0403 15:41:04.091343 10961 net.cpp:91] Creating Layer inception_4b/relu_5x5
I0403 15:41:04.091359 10961 net.cpp:425] inception_4b/relu_5x5 <- inception_4b/5x5
I0403 15:41:04.091379 10961 net.cpp:386] inception_4b/relu_5x5 -> inception_4b/5x5 (in-place)
I0403 15:41:04.091667 10961 net.cpp:141] Setting up inception_4b/relu_5x5
I0403 15:41:04.091696 10961 net.cpp:148] Top shape: 24 64 14 14 (301056)
I0403 15:41:04.091712 10961 net.cpp:156] Memory required for data: 968181024
I0403 15:41:04.091727 10961 layer_factory.hpp:77] Creating layer inception_4b/pool
I0403 15:41:04.091744 10961 net.cpp:91] Creating Layer inception_4b/pool
I0403 15:41:04.091761 10961 net.cpp:425] inception_4b/pool <- inception_4a/output_inception_4a/output_0_split_4
I0403 15:41:04.091781 10961 net.cpp:399] inception_4b/pool -> inception_4b/pool
I0403 15:41:04.091845 10961 net.cpp:141] Setting up inception_4b/pool
I0403 15:41:04.091868 10961 net.cpp:148] Top shape: 24 512 14 14 (2408448)
I0403 15:41:04.091882 10961 net.cpp:156] Memory required for data: 977814816
I0403 15:41:04.091897 10961 layer_factory.hpp:77] Creating layer inception_4b/pool_proj
I0403 15:41:04.091919 10961 net.cpp:91] Creating Layer inception_4b/pool_proj
I0403 15:41:04.091936 10961 net.cpp:425] inception_4b/pool_proj <- inception_4b/pool
I0403 15:41:04.091958 10961 net.cpp:399] inception_4b/pool_proj -> inception_4b/pool_proj
I0403 15:41:04.093152 10961 net.cpp:141] Setting up inception_4b/pool_proj
I0403 15:41:04.093183 10961 net.cpp:148] Top shape: 24 64 14 14 (301056)
I0403 15:41:04.093200 10961 net.cpp:156] Memory required for data: 979019040
I0403 15:41:04.093219 10961 layer_factory.hpp:77] Creating layer inception_4b/relu_pool_proj
I0403 15:41:04.093236 10961 net.cpp:91] Creating Layer inception_4b/relu_pool_proj
I0403 15:41:04.093252 10961 net.cpp:425] inception_4b/relu_pool_proj <- inception_4b/pool_proj
I0403 15:41:04.093272 10961 net.cpp:386] inception_4b/relu_pool_proj -> inception_4b/pool_proj (in-place)
I0403 15:41:04.093449 10961 net.cpp:141] Setting up inception_4b/relu_pool_proj
I0403 15:41:04.093474 10961 net.cpp:148] Top shape: 24 64 14 14 (301056)
I0403 15:41:04.093488 10961 net.cpp:156] Memory required for data: 980223264
I0403 15:41:04.093503 10961 layer_factory.hpp:77] Creating layer inception_4b/output
I0403 15:41:04.093521 10961 net.cpp:91] Creating Layer inception_4b/output
I0403 15:41:04.093536 10961 net.cpp:425] inception_4b/output <- inception_4b/1x1
I0403 15:41:04.093554 10961 net.cpp:425] inception_4b/output <- inception_4b/3x3
I0403 15:41:04.093569 10961 net.cpp:425] inception_4b/output <- inception_4b/5x5
I0403 15:41:04.093585 10961 net.cpp:425] inception_4b/output <- inception_4b/pool_proj
I0403 15:41:04.093605 10961 net.cpp:399] inception_4b/output -> inception_4b/output
I0403 15:41:04.093652 10961 net.cpp:141] Setting up inception_4b/output
I0403 15:41:04.093675 10961 net.cpp:148] Top shape: 24 512 14 14 (2408448)
I0403 15:41:04.093689 10961 net.cpp:156] Memory required for data: 989857056
I0403 15:41:04.093719 10961 layer_factory.hpp:77] Creating layer inception_4b/output_inception_4b/output_0_split
I0403 15:41:04.093737 10961 net.cpp:91] Creating Layer inception_4b/output_inception_4b/output_0_split
I0403 15:41:04.093754 10961 net.cpp:425] inception_4b/output_inception_4b/output_0_split <- inception_4b/output
I0403 15:41:04.093773 10961 net.cpp:399] inception_4b/output_inception_4b/output_0_split -> inception_4b/output_inception_4b/output_0_split_0
I0403 15:41:04.093794 10961 net.cpp:399] inception_4b/output_inception_4b/output_0_split -> inception_4b/output_inception_4b/output_0_split_1
I0403 15:41:04.093816 10961 net.cpp:399] inception_4b/output_inception_4b/output_0_split -> inception_4b/output_inception_4b/output_0_split_2
I0403 15:41:04.093835 10961 net.cpp:399] inception_4b/output_inception_4b/output_0_split -> inception_4b/output_inception_4b/output_0_split_3
I0403 15:41:04.093919 10961 net.cpp:141] Setting up inception_4b/output_inception_4b/output_0_split
I0403 15:41:04.093945 10961 net.cpp:148] Top shape: 24 512 14 14 (2408448)
I0403 15:41:04.093961 10961 net.cpp:148] Top shape: 24 512 14 14 (2408448)
I0403 15:41:04.093981 10961 net.cpp:148] Top shape: 24 512 14 14 (2408448)
I0403 15:41:04.093997 10961 net.cpp:148] Top shape: 24 512 14 14 (2408448)
I0403 15:41:04.094012 10961 net.cpp:156] Memory required for data: 1028392224
I0403 15:41:04.094027 10961 layer_factory.hpp:77] Creating layer inception_4c/1x1
I0403 15:41:04.094048 10961 net.cpp:91] Creating Layer inception_4c/1x1
I0403 15:41:04.094065 10961 net.cpp:425] inception_4c/1x1 <- inception_4b/output_inception_4b/output_0_split_0
I0403 15:41:04.094084 10961 net.cpp:399] inception_4c/1x1 -> inception_4c/1x1
I0403 15:41:04.095506 10961 net.cpp:141] Setting up inception_4c/1x1
I0403 15:41:04.095535 10961 net.cpp:148] Top shape: 24 128 14 14 (602112)
I0403 15:41:04.095551 10961 net.cpp:156] Memory required for data: 1030800672
I0403 15:41:04.095568 10961 layer_factory.hpp:77] Creating layer inception_4c/relu_1x1
I0403 15:41:04.095589 10961 net.cpp:91] Creating Layer inception_4c/relu_1x1
I0403 15:41:04.095607 10961 net.cpp:425] inception_4c/relu_1x1 <- inception_4c/1x1
I0403 15:41:04.095624 10961 net.cpp:386] inception_4c/relu_1x1 -> inception_4c/1x1 (in-place)
I0403 15:41:04.095801 10961 net.cpp:141] Setting up inception_4c/relu_1x1
I0403 15:41:04.095829 10961 net.cpp:148] Top shape: 24 128 14 14 (602112)
I0403 15:41:04.095844 10961 net.cpp:156] Memory required for data: 1033209120
I0403 15:41:04.095859 10961 layer_factory.hpp:77] Creating layer inception_4c/3x3_reduce
I0403 15:41:04.095880 10961 net.cpp:91] Creating Layer inception_4c/3x3_reduce
I0403 15:41:04.095898 10961 net.cpp:425] inception_4c/3x3_reduce <- inception_4b/output_inception_4b/output_0_split_1
I0403 15:41:04.095918 10961 net.cpp:399] inception_4c/3x3_reduce -> inception_4c/3x3_reduce
I0403 15:41:04.097867 10961 net.cpp:141] Setting up inception_4c/3x3_reduce
I0403 15:41:04.097898 10961 net.cpp:148] Top shape: 24 128 14 14 (602112)
I0403 15:41:04.097914 10961 net.cpp:156] Memory required for data: 1035617568
I0403 15:41:04.097934 10961 layer_factory.hpp:77] Creating layer inception_4c/relu_3x3_reduce
I0403 15:41:04.097952 10961 net.cpp:91] Creating Layer inception_4c/relu_3x3_reduce
I0403 15:41:04.097968 10961 net.cpp:425] inception_4c/relu_3x3_reduce <- inception_4c/3x3_reduce
I0403 15:41:04.097995 10961 net.cpp:386] inception_4c/relu_3x3_reduce -> inception_4c/3x3_reduce (in-place)
I0403 15:41:04.098294 10961 net.cpp:141] Setting up inception_4c/relu_3x3_reduce
I0403 15:41:04.098323 10961 net.cpp:148] Top shape: 24 128 14 14 (602112)
I0403 15:41:04.098340 10961 net.cpp:156] Memory required for data: 1038026016
I0403 15:41:04.098354 10961 layer_factory.hpp:77] Creating layer inception_4c/3x3
I0403 15:41:04.098387 10961 net.cpp:91] Creating Layer inception_4c/3x3
I0403 15:41:04.098405 10961 net.cpp:425] inception_4c/3x3 <- inception_4c/3x3_reduce
I0403 15:41:04.098424 10961 net.cpp:399] inception_4c/3x3 -> inception_4c/3x3
I0403 15:41:04.102001 10961 net.cpp:141] Setting up inception_4c/3x3
I0403 15:41:04.102042 10961 net.cpp:148] Top shape: 24 256 14 14 (1204224)
I0403 15:41:04.102061 10961 net.cpp:156] Memory required for data: 1042842912
I0403 15:41:04.102092 10961 layer_factory.hpp:77] Creating layer inception_4c/relu_3x3
I0403 15:41:04.102111 10961 net.cpp:91] Creating Layer inception_4c/relu_3x3
I0403 15:41:04.102128 10961 net.cpp:425] inception_4c/relu_3x3 <- inception_4c/3x3
I0403 15:41:04.102146 10961 net.cpp:386] inception_4c/relu_3x3 -> inception_4c/3x3 (in-place)
I0403 15:41:04.102319 10961 net.cpp:141] Setting up inception_4c/relu_3x3
I0403 15:41:04.102344 10961 net.cpp:148] Top shape: 24 256 14 14 (1204224)
I0403 15:41:04.102358 10961 net.cpp:156] Memory required for data: 1047659808
I0403 15:41:04.102372 10961 layer_factory.hpp:77] Creating layer inception_4c/5x5_reduce
I0403 15:41:04.102396 10961 net.cpp:91] Creating Layer inception_4c/5x5_reduce
I0403 15:41:04.102413 10961 net.cpp:425] inception_4c/5x5_reduce <- inception_4b/output_inception_4b/output_0_split_2
I0403 15:41:04.102437 10961 net.cpp:399] inception_4c/5x5_reduce -> inception_4c/5x5_reduce
I0403 15:41:04.103493 10961 net.cpp:141] Setting up inception_4c/5x5_reduce
I0403 15:41:04.103520 10961 net.cpp:148] Top shape: 24 24 14 14 (112896)
I0403 15:41:04.103535 10961 net.cpp:156] Memory required for data: 1048111392
I0403 15:41:04.103552 10961 layer_factory.hpp:77] Creating layer inception_4c/relu_5x5_reduce
I0403 15:41:04.103569 10961 net.cpp:91] Creating Layer inception_4c/relu_5x5_reduce
I0403 15:41:04.103585 10961 net.cpp:425] inception_4c/relu_5x5_reduce <- inception_4c/5x5_reduce
I0403 15:41:04.103605 10961 net.cpp:386] inception_4c/relu_5x5_reduce -> inception_4c/5x5_reduce (in-place)
I0403 15:41:04.103782 10961 net.cpp:141] Setting up inception_4c/relu_5x5_reduce
I0403 15:41:04.103806 10961 net.cpp:148] Top shape: 24 24 14 14 (112896)
I0403 15:41:04.103821 10961 net.cpp:156] Memory required for data: 1048562976
I0403 15:41:04.103834 10961 layer_factory.hpp:77] Creating layer inception_4c/5x5
I0403 15:41:04.103857 10961 net.cpp:91] Creating Layer inception_4c/5x5
I0403 15:41:04.103873 10961 net.cpp:425] inception_4c/5x5 <- inception_4c/5x5_reduce
I0403 15:41:04.103894 10961 net.cpp:399] inception_4c/5x5 -> inception_4c/5x5
I0403 15:41:04.105099 10961 net.cpp:141] Setting up inception_4c/5x5
I0403 15:41:04.105126 10961 net.cpp:148] Top shape: 24 64 14 14 (301056)
I0403 15:41:04.105141 10961 net.cpp:156] Memory required for data: 1049767200
I0403 15:41:04.105159 10961 layer_factory.hpp:77] Creating layer inception_4c/relu_5x5
I0403 15:41:04.105178 10961 net.cpp:91] Creating Layer inception_4c/relu_5x5
I0403 15:41:04.105195 10961 net.cpp:425] inception_4c/relu_5x5 <- inception_4c/5x5
I0403 15:41:04.105212 10961 net.cpp:386] inception_4c/relu_5x5 -> inception_4c/5x5 (in-place)
I0403 15:41:04.105490 10961 net.cpp:141] Setting up inception_4c/relu_5x5
I0403 15:41:04.105515 10961 net.cpp:148] Top shape: 24 64 14 14 (301056)
I0403 15:41:04.105530 10961 net.cpp:156] Memory required for data: 1050971424
I0403 15:41:04.105545 10961 layer_factory.hpp:77] Creating layer inception_4c/pool
I0403 15:41:04.105562 10961 net.cpp:91] Creating Layer inception_4c/pool
I0403 15:41:04.105577 10961 net.cpp:425] inception_4c/pool <- inception_4b/output_inception_4b/output_0_split_3
I0403 15:41:04.105597 10961 net.cpp:399] inception_4c/pool -> inception_4c/pool
I0403 15:41:04.105662 10961 net.cpp:141] Setting up inception_4c/pool
I0403 15:41:04.105685 10961 net.cpp:148] Top shape: 24 512 14 14 (2408448)
I0403 15:41:04.105700 10961 net.cpp:156] Memory required for data: 1060605216
I0403 15:41:04.105713 10961 layer_factory.hpp:77] Creating layer inception_4c/pool_proj
I0403 15:41:04.105736 10961 net.cpp:91] Creating Layer inception_4c/pool_proj
I0403 15:41:04.105751 10961 net.cpp:425] inception_4c/pool_proj <- inception_4c/pool
I0403 15:41:04.105774 10961 net.cpp:399] inception_4c/pool_proj -> inception_4c/pool_proj
I0403 15:41:04.106957 10961 net.cpp:141] Setting up inception_4c/pool_proj
I0403 15:41:04.106991 10961 net.cpp:148] Top shape: 24 64 14 14 (301056)
I0403 15:41:04.107019 10961 net.cpp:156] Memory required for data: 1061809440
I0403 15:41:04.107038 10961 layer_factory.hpp:77] Creating layer inception_4c/relu_pool_proj
I0403 15:41:04.107055 10961 net.cpp:91] Creating Layer inception_4c/relu_pool_proj
I0403 15:41:04.107070 10961 net.cpp:425] inception_4c/relu_pool_proj <- inception_4c/pool_proj
I0403 15:41:04.107089 10961 net.cpp:386] inception_4c/relu_pool_proj -> inception_4c/pool_proj (in-place)
I0403 15:41:04.107266 10961 net.cpp:141] Setting up inception_4c/relu_pool_proj
I0403 15:41:04.107291 10961 net.cpp:148] Top shape: 24 64 14 14 (301056)
I0403 15:41:04.107306 10961 net.cpp:156] Memory required for data: 1063013664
I0403 15:41:04.107319 10961 layer_factory.hpp:77] Creating layer inception_4c/output
I0403 15:41:04.107336 10961 net.cpp:91] Creating Layer inception_4c/output
I0403 15:41:04.107350 10961 net.cpp:425] inception_4c/output <- inception_4c/1x1
I0403 15:41:04.107367 10961 net.cpp:425] inception_4c/output <- inception_4c/3x3
I0403 15:41:04.107383 10961 net.cpp:425] inception_4c/output <- inception_4c/5x5
I0403 15:41:04.107398 10961 net.cpp:425] inception_4c/output <- inception_4c/pool_proj
I0403 15:41:04.107416 10961 net.cpp:399] inception_4c/output -> inception_4c/output
I0403 15:41:04.107465 10961 net.cpp:141] Setting up inception_4c/output
I0403 15:41:04.107488 10961 net.cpp:148] Top shape: 24 512 14 14 (2408448)
I0403 15:41:04.107501 10961 net.cpp:156] Memory required for data: 1072647456
I0403 15:41:04.107516 10961 layer_factory.hpp:77] Creating layer inception_4c/output_inception_4c/output_0_split
I0403 15:41:04.107532 10961 net.cpp:91] Creating Layer inception_4c/output_inception_4c/output_0_split
I0403 15:41:04.107547 10961 net.cpp:425] inception_4c/output_inception_4c/output_0_split <- inception_4c/output
I0403 15:41:04.107566 10961 net.cpp:399] inception_4c/output_inception_4c/output_0_split -> inception_4c/output_inception_4c/output_0_split_0
I0403 15:41:04.107586 10961 net.cpp:399] inception_4c/output_inception_4c/output_0_split -> inception_4c/output_inception_4c/output_0_split_1
I0403 15:41:04.107606 10961 net.cpp:399] inception_4c/output_inception_4c/output_0_split -> inception_4c/output_inception_4c/output_0_split_2
I0403 15:41:04.107625 10961 net.cpp:399] inception_4c/output_inception_4c/output_0_split -> inception_4c/output_inception_4c/output_0_split_3
I0403 15:41:04.107709 10961 net.cpp:141] Setting up inception_4c/output_inception_4c/output_0_split
I0403 15:41:04.107731 10961 net.cpp:148] Top shape: 24 512 14 14 (2408448)
I0403 15:41:04.107748 10961 net.cpp:148] Top shape: 24 512 14 14 (2408448)
I0403 15:41:04.107763 10961 net.cpp:148] Top shape: 24 512 14 14 (2408448)
I0403 15:41:04.107776 10961 net.cpp:148] Top shape: 24 512 14 14 (2408448)
I0403 15:41:04.107789 10961 net.cpp:156] Memory required for data: 1111182624
I0403 15:41:04.107803 10961 layer_factory.hpp:77] Creating layer inception_4d/1x1
I0403 15:41:04.107826 10961 net.cpp:91] Creating Layer inception_4d/1x1
I0403 15:41:04.107843 10961 net.cpp:425] inception_4d/1x1 <- inception_4c/output_inception_4c/output_0_split_0
I0403 15:41:04.107861 10961 net.cpp:399] inception_4d/1x1 -> inception_4d/1x1
I0403 15:41:04.109246 10961 net.cpp:141] Setting up inception_4d/1x1
I0403 15:41:04.109272 10961 net.cpp:148] Top shape: 24 112 14 14 (526848)
I0403 15:41:04.109287 10961 net.cpp:156] Memory required for data: 1113290016
I0403 15:41:04.109304 10961 layer_factory.hpp:77] Creating layer inception_4d/relu_1x1
I0403 15:41:04.109324 10961 net.cpp:91] Creating Layer inception_4d/relu_1x1
I0403 15:41:04.109340 10961 net.cpp:425] inception_4d/relu_1x1 <- inception_4d/1x1
I0403 15:41:04.109356 10961 net.cpp:386] inception_4d/relu_1x1 -> inception_4d/1x1 (in-place)
I0403 15:41:04.109535 10961 net.cpp:141] Setting up inception_4d/relu_1x1
I0403 15:41:04.109560 10961 net.cpp:148] Top shape: 24 112 14 14 (526848)
I0403 15:41:04.109573 10961 net.cpp:156] Memory required for data: 1115397408
I0403 15:41:04.109588 10961 layer_factory.hpp:77] Creating layer inception_4d/3x3_reduce
I0403 15:41:04.109622 10961 net.cpp:91] Creating Layer inception_4d/3x3_reduce
I0403 15:41:04.109640 10961 net.cpp:425] inception_4d/3x3_reduce <- inception_4c/output_inception_4c/output_0_split_1
I0403 15:41:04.109664 10961 net.cpp:399] inception_4d/3x3_reduce -> inception_4d/3x3_reduce
I0403 15:41:04.111137 10961 net.cpp:141] Setting up inception_4d/3x3_reduce
I0403 15:41:04.111165 10961 net.cpp:148] Top shape: 24 144 14 14 (677376)
I0403 15:41:04.111181 10961 net.cpp:156] Memory required for data: 1118106912
I0403 15:41:04.111197 10961 layer_factory.hpp:77] Creating layer inception_4d/relu_3x3_reduce
I0403 15:41:04.111217 10961 net.cpp:91] Creating Layer inception_4d/relu_3x3_reduce
I0403 15:41:04.111235 10961 net.cpp:425] inception_4d/relu_3x3_reduce <- inception_4d/3x3_reduce
I0403 15:41:04.111251 10961 net.cpp:386] inception_4d/relu_3x3_reduce -> inception_4d/3x3_reduce (in-place)
I0403 15:41:04.111536 10961 net.cpp:141] Setting up inception_4d/relu_3x3_reduce
I0403 15:41:04.111562 10961 net.cpp:148] Top shape: 24 144 14 14 (677376)
I0403 15:41:04.111577 10961 net.cpp:156] Memory required for data: 1120816416
I0403 15:41:04.111590 10961 layer_factory.hpp:77] Creating layer inception_4d/3x3
I0403 15:41:04.111613 10961 net.cpp:91] Creating Layer inception_4d/3x3
I0403 15:41:04.111629 10961 net.cpp:425] inception_4d/3x3 <- inception_4d/3x3_reduce
I0403 15:41:04.111650 10961 net.cpp:399] inception_4d/3x3 -> inception_4d/3x3
I0403 15:41:04.115813 10961 net.cpp:141] Setting up inception_4d/3x3
I0403 15:41:04.115842 10961 net.cpp:148] Top shape: 24 288 14 14 (1354752)
I0403 15:41:04.115859 10961 net.cpp:156] Memory required for data: 1126235424
I0403 15:41:04.115876 10961 layer_factory.hpp:77] Creating layer inception_4d/relu_3x3
I0403 15:41:04.115893 10961 net.cpp:91] Creating Layer inception_4d/relu_3x3
I0403 15:41:04.115911 10961 net.cpp:425] inception_4d/relu_3x3 <- inception_4d/3x3
I0403 15:41:04.115929 10961 net.cpp:386] inception_4d/relu_3x3 -> inception_4d/3x3 (in-place)
I0403 15:41:04.116113 10961 net.cpp:141] Setting up inception_4d/relu_3x3
I0403 15:41:04.116137 10961 net.cpp:148] Top shape: 24 288 14 14 (1354752)
I0403 15:41:04.116153 10961 net.cpp:156] Memory required for data: 1131654432
I0403 15:41:04.116168 10961 layer_factory.hpp:77] Creating layer inception_4d/5x5_reduce
I0403 15:41:04.116189 10961 net.cpp:91] Creating Layer inception_4d/5x5_reduce
I0403 15:41:04.116205 10961 net.cpp:425] inception_4d/5x5_reduce <- inception_4c/output_inception_4c/output_0_split_2
I0403 15:41:04.116227 10961 net.cpp:399] inception_4d/5x5_reduce -> inception_4d/5x5_reduce
I0403 15:41:04.117334 10961 net.cpp:141] Setting up inception_4d/5x5_reduce
I0403 15:41:04.117362 10961 net.cpp:148] Top shape: 24 32 14 14 (150528)
I0403 15:41:04.117377 10961 net.cpp:156] Memory required for data: 1132256544
I0403 15:41:04.117395 10961 layer_factory.hpp:77] Creating layer inception_4d/relu_5x5_reduce
I0403 15:41:04.117414 10961 net.cpp:91] Creating Layer inception_4d/relu_5x5_reduce
I0403 15:41:04.117431 10961 net.cpp:425] inception_4d/relu_5x5_reduce <- inception_4d/5x5_reduce
I0403 15:41:04.117449 10961 net.cpp:386] inception_4d/relu_5x5_reduce -> inception_4d/5x5_reduce (in-place)
I0403 15:41:04.117636 10961 net.cpp:141] Setting up inception_4d/relu_5x5_reduce
I0403 15:41:04.117660 10961 net.cpp:148] Top shape: 24 32 14 14 (150528)
I0403 15:41:04.117674 10961 net.cpp:156] Memory required for data: 1132858656
I0403 15:41:04.117688 10961 layer_factory.hpp:77] Creating layer inception_4d/5x5
I0403 15:41:04.117710 10961 net.cpp:91] Creating Layer inception_4d/5x5
I0403 15:41:04.117728 10961 net.cpp:425] inception_4d/5x5 <- inception_4d/5x5_reduce
I0403 15:41:04.117748 10961 net.cpp:399] inception_4d/5x5 -> inception_4d/5x5
I0403 15:41:04.119238 10961 net.cpp:141] Setting up inception_4d/5x5
I0403 15:41:04.119266 10961 net.cpp:148] Top shape: 24 64 14 14 (301056)
I0403 15:41:04.119282 10961 net.cpp:156] Memory required for data: 1134062880
I0403 15:41:04.119302 10961 layer_factory.hpp:77] Creating layer inception_4d/relu_5x5
I0403 15:41:04.119333 10961 net.cpp:91] Creating Layer inception_4d/relu_5x5
I0403 15:41:04.119351 10961 net.cpp:425] inception_4d/relu_5x5 <- inception_4d/5x5
I0403 15:41:04.119371 10961 net.cpp:386] inception_4d/relu_5x5 -> inception_4d/5x5 (in-place)
I0403 15:41:04.119673 10961 net.cpp:141] Setting up inception_4d/relu_5x5
I0403 15:41:04.119699 10961 net.cpp:148] Top shape: 24 64 14 14 (301056)
I0403 15:41:04.119714 10961 net.cpp:156] Memory required for data: 1135267104
I0403 15:41:04.119727 10961 layer_factory.hpp:77] Creating layer inception_4d/pool
I0403 15:41:04.119745 10961 net.cpp:91] Creating Layer inception_4d/pool
I0403 15:41:04.119761 10961 net.cpp:425] inception_4d/pool <- inception_4c/output_inception_4c/output_0_split_3
I0403 15:41:04.119782 10961 net.cpp:399] inception_4d/pool -> inception_4d/pool
I0403 15:41:04.119849 10961 net.cpp:141] Setting up inception_4d/pool
I0403 15:41:04.119874 10961 net.cpp:148] Top shape: 24 512 14 14 (2408448)
I0403 15:41:04.119889 10961 net.cpp:156] Memory required for data: 1144900896
I0403 15:41:04.119904 10961 layer_factory.hpp:77] Creating layer inception_4d/pool_proj
I0403 15:41:04.119926 10961 net.cpp:91] Creating Layer inception_4d/pool_proj
I0403 15:41:04.119945 10961 net.cpp:425] inception_4d/pool_proj <- inception_4d/pool
I0403 15:41:04.119963 10961 net.cpp:399] inception_4d/pool_proj -> inception_4d/pool_proj
I0403 15:41:04.121744 10961 net.cpp:141] Setting up inception_4d/pool_proj
I0403 15:41:04.121775 10961 net.cpp:148] Top shape: 24 64 14 14 (301056)
I0403 15:41:04.121793 10961 net.cpp:156] Memory required for data: 1146105120
I0403 15:41:04.121811 10961 layer_factory.hpp:77] Creating layer inception_4d/relu_pool_proj
I0403 15:41:04.121829 10961 net.cpp:91] Creating Layer inception_4d/relu_pool_proj
I0403 15:41:04.121845 10961 net.cpp:425] inception_4d/relu_pool_proj <- inception_4d/pool_proj
I0403 15:41:04.121862 10961 net.cpp:386] inception_4d/relu_pool_proj -> inception_4d/pool_proj (in-place)
I0403 15:41:04.122056 10961 net.cpp:141] Setting up inception_4d/relu_pool_proj
I0403 15:41:04.122081 10961 net.cpp:148] Top shape: 24 64 14 14 (301056)
I0403 15:41:04.122097 10961 net.cpp:156] Memory required for data: 1147309344
I0403 15:41:04.122110 10961 layer_factory.hpp:77] Creating layer inception_4d/output
I0403 15:41:04.122128 10961 net.cpp:91] Creating Layer inception_4d/output
I0403 15:41:04.122143 10961 net.cpp:425] inception_4d/output <- inception_4d/1x1
I0403 15:41:04.122160 10961 net.cpp:425] inception_4d/output <- inception_4d/3x3
I0403 15:41:04.122176 10961 net.cpp:425] inception_4d/output <- inception_4d/5x5
I0403 15:41:04.122194 10961 net.cpp:425] inception_4d/output <- inception_4d/pool_proj
I0403 15:41:04.122212 10961 net.cpp:399] inception_4d/output -> inception_4d/output
I0403 15:41:04.122261 10961 net.cpp:141] Setting up inception_4d/output
I0403 15:41:04.122283 10961 net.cpp:148] Top shape: 24 528 14 14 (2483712)
I0403 15:41:04.122298 10961 net.cpp:156] Memory required for data: 1157244192
I0403 15:41:04.122313 10961 layer_factory.hpp:77] Creating layer inception_4d/output_inception_4d/output_0_split
I0403 15:41:04.122333 10961 net.cpp:91] Creating Layer inception_4d/output_inception_4d/output_0_split
I0403 15:41:04.122349 10961 net.cpp:425] inception_4d/output_inception_4d/output_0_split <- inception_4d/output
I0403 15:41:04.122370 10961 net.cpp:399] inception_4d/output_inception_4d/output_0_split -> inception_4d/output_inception_4d/output_0_split_0
I0403 15:41:04.122391 10961 net.cpp:399] inception_4d/output_inception_4d/output_0_split -> inception_4d/output_inception_4d/output_0_split_1
I0403 15:41:04.122412 10961 net.cpp:399] inception_4d/output_inception_4d/output_0_split -> inception_4d/output_inception_4d/output_0_split_2
I0403 15:41:04.122432 10961 net.cpp:399] inception_4d/output_inception_4d/output_0_split -> inception_4d/output_inception_4d/output_0_split_3
I0403 15:41:04.122452 10961 net.cpp:399] inception_4d/output_inception_4d/output_0_split -> inception_4d/output_inception_4d/output_0_split_4
I0403 15:41:04.122555 10961 net.cpp:141] Setting up inception_4d/output_inception_4d/output_0_split
I0403 15:41:04.122589 10961 net.cpp:148] Top shape: 24 528 14 14 (2483712)
I0403 15:41:04.122606 10961 net.cpp:148] Top shape: 24 528 14 14 (2483712)
I0403 15:41:04.122622 10961 net.cpp:148] Top shape: 24 528 14 14 (2483712)
I0403 15:41:04.122637 10961 net.cpp:148] Top shape: 24 528 14 14 (2483712)
I0403 15:41:04.122653 10961 net.cpp:148] Top shape: 24 528 14 14 (2483712)
I0403 15:41:04.122666 10961 net.cpp:156] Memory required for data: 1206918432
I0403 15:41:04.122680 10961 layer_factory.hpp:77] Creating layer loss2/ave_pool
I0403 15:41:04.122701 10961 net.cpp:91] Creating Layer loss2/ave_pool
I0403 15:41:04.122717 10961 net.cpp:425] loss2/ave_pool <- inception_4d/output_inception_4d/output_0_split_0
I0403 15:41:04.122736 10961 net.cpp:399] loss2/ave_pool -> loss2/ave_pool
I0403 15:41:04.123052 10961 net.cpp:141] Setting up loss2/ave_pool
I0403 15:41:04.123080 10961 net.cpp:148] Top shape: 24 528 4 4 (202752)
I0403 15:41:04.123097 10961 net.cpp:156] Memory required for data: 1207729440
I0403 15:41:04.123111 10961 layer_factory.hpp:77] Creating layer loss2/conv
I0403 15:41:04.123134 10961 net.cpp:91] Creating Layer loss2/conv
I0403 15:41:04.123152 10961 net.cpp:425] loss2/conv <- loss2/ave_pool
I0403 15:41:04.123172 10961 net.cpp:399] loss2/conv -> loss2/conv
I0403 15:41:04.125092 10961 net.cpp:141] Setting up loss2/conv
I0403 15:41:04.125120 10961 net.cpp:148] Top shape: 24 128 4 4 (49152)
I0403 15:41:04.125136 10961 net.cpp:156] Memory required for data: 1207926048
I0403 15:41:04.125155 10961 layer_factory.hpp:77] Creating layer loss2/relu_conv
I0403 15:41:04.125176 10961 net.cpp:91] Creating Layer loss2/relu_conv
I0403 15:41:04.125193 10961 net.cpp:425] loss2/relu_conv <- loss2/conv
I0403 15:41:04.125211 10961 net.cpp:386] loss2/relu_conv -> loss2/conv (in-place)
I0403 15:41:04.125496 10961 net.cpp:141] Setting up loss2/relu_conv
I0403 15:41:04.125522 10961 net.cpp:148] Top shape: 24 128 4 4 (49152)
I0403 15:41:04.125538 10961 net.cpp:156] Memory required for data: 1208122656
I0403 15:41:04.125553 10961 layer_factory.hpp:77] Creating layer loss2/fc
I0403 15:41:04.125576 10961 net.cpp:91] Creating Layer loss2/fc
I0403 15:41:04.125594 10961 net.cpp:425] loss2/fc <- loss2/conv
I0403 15:41:04.125613 10961 net.cpp:399] loss2/fc -> loss2/fc
I0403 15:41:04.143170 10961 net.cpp:141] Setting up loss2/fc
I0403 15:41:04.143204 10961 net.cpp:148] Top shape: 24 1024 (24576)
I0403 15:41:04.143220 10961 net.cpp:156] Memory required for data: 1208220960
I0403 15:41:04.143237 10961 layer_factory.hpp:77] Creating layer loss2/relu_fc
I0403 15:41:04.143257 10961 net.cpp:91] Creating Layer loss2/relu_fc
I0403 15:41:04.143275 10961 net.cpp:425] loss2/relu_fc <- loss2/fc
I0403 15:41:04.143295 10961 net.cpp:386] loss2/relu_fc -> loss2/fc (in-place)
I0403 15:41:04.143594 10961 net.cpp:141] Setting up loss2/relu_fc
I0403 15:41:04.143621 10961 net.cpp:148] Top shape: 24 1024 (24576)
I0403 15:41:04.143637 10961 net.cpp:156] Memory required for data: 1208319264
I0403 15:41:04.143651 10961 layer_factory.hpp:77] Creating layer loss2/drop_fc
I0403 15:41:04.143668 10961 net.cpp:91] Creating Layer loss2/drop_fc
I0403 15:41:04.143684 10961 net.cpp:425] loss2/drop_fc <- loss2/fc
I0403 15:41:04.143703 10961 net.cpp:386] loss2/drop_fc -> loss2/fc (in-place)
I0403 15:41:04.143753 10961 net.cpp:141] Setting up loss2/drop_fc
I0403 15:41:04.143774 10961 net.cpp:148] Top shape: 24 1024 (24576)
I0403 15:41:04.143789 10961 net.cpp:156] Memory required for data: 1208417568
I0403 15:41:04.143802 10961 layer_factory.hpp:77] Creating layer loss2/classifier_plantvillage
I0403 15:41:04.143823 10961 net.cpp:91] Creating Layer loss2/classifier_plantvillage
I0403 15:41:04.143841 10961 net.cpp:425] loss2/classifier_plantvillage <- loss2/fc
I0403 15:41:04.143860 10961 net.cpp:399] loss2/classifier_plantvillage -> loss2/classifier_plantvillage
I0403 15:41:04.144258 10961 net.cpp:141] Setting up loss2/classifier_plantvillage
I0403 15:41:04.144281 10961 net.cpp:148] Top shape: 24 38 (912)
I0403 15:41:04.144311 10961 net.cpp:156] Memory required for data: 1208421216
I0403 15:41:04.144330 10961 layer_factory.hpp:77] Creating layer loss2/classifier_plantvillage_loss2/classifier_plantvillage_0_split
I0403 15:41:04.144351 10961 net.cpp:91] Creating Layer loss2/classifier_plantvillage_loss2/classifier_plantvillage_0_split
I0403 15:41:04.144367 10961 net.cpp:425] loss2/classifier_plantvillage_loss2/classifier_plantvillage_0_split <- loss2/classifier_plantvillage
I0403 15:41:04.144384 10961 net.cpp:399] loss2/classifier_plantvillage_loss2/classifier_plantvillage_0_split -> loss2/classifier_plantvillage_loss2/classifier_plantvillage_0_split_0
I0403 15:41:04.144404 10961 net.cpp:399] loss2/classifier_plantvillage_loss2/classifier_plantvillage_0_split -> loss2/classifier_plantvillage_loss2/classifier_plantvillage_0_split_1
I0403 15:41:04.144424 10961 net.cpp:399] loss2/classifier_plantvillage_loss2/classifier_plantvillage_0_split -> loss2/classifier_plantvillage_loss2/classifier_plantvillage_0_split_2
I0403 15:41:04.144501 10961 net.cpp:141] Setting up loss2/classifier_plantvillage_loss2/classifier_plantvillage_0_split
I0403 15:41:04.144523 10961 net.cpp:148] Top shape: 24 38 (912)
I0403 15:41:04.144539 10961 net.cpp:148] Top shape: 24 38 (912)
I0403 15:41:04.144554 10961 net.cpp:148] Top shape: 24 38 (912)
I0403 15:41:04.144567 10961 net.cpp:156] Memory required for data: 1208432160
I0403 15:41:04.144582 10961 layer_factory.hpp:77] Creating layer inception_4e/1x1
I0403 15:41:04.144601 10961 net.cpp:91] Creating Layer inception_4e/1x1
I0403 15:41:04.144618 10961 net.cpp:425] inception_4e/1x1 <- inception_4d/output_inception_4d/output_0_split_1
I0403 15:41:04.144639 10961 net.cpp:399] inception_4e/1x1 -> inception_4e/1x1
I0403 15:41:04.146411 10961 net.cpp:141] Setting up inception_4e/1x1
I0403 15:41:04.146438 10961 net.cpp:148] Top shape: 24 256 14 14 (1204224)
I0403 15:41:04.146453 10961 net.cpp:156] Memory required for data: 1213249056
I0403 15:41:04.146471 10961 layer_factory.hpp:77] Creating layer inception_4e/relu_1x1
I0403 15:41:04.146492 10961 net.cpp:91] Creating Layer inception_4e/relu_1x1
I0403 15:41:04.146507 10961 net.cpp:425] inception_4e/relu_1x1 <- inception_4e/1x1
I0403 15:41:04.146524 10961 net.cpp:386] inception_4e/relu_1x1 -> inception_4e/1x1 (in-place)
I0403 15:41:04.146811 10961 net.cpp:141] Setting up inception_4e/relu_1x1
I0403 15:41:04.146836 10961 net.cpp:148] Top shape: 24 256 14 14 (1204224)
I0403 15:41:04.146852 10961 net.cpp:156] Memory required for data: 1218065952
I0403 15:41:04.146865 10961 layer_factory.hpp:77] Creating layer inception_4e/3x3_reduce
I0403 15:41:04.146888 10961 net.cpp:91] Creating Layer inception_4e/3x3_reduce
I0403 15:41:04.146905 10961 net.cpp:425] inception_4e/3x3_reduce <- inception_4d/output_inception_4d/output_0_split_2
I0403 15:41:04.146927 10961 net.cpp:399] inception_4e/3x3_reduce -> inception_4e/3x3_reduce
I0403 15:41:04.149050 10961 net.cpp:141] Setting up inception_4e/3x3_reduce
I0403 15:41:04.149078 10961 net.cpp:148] Top shape: 24 160 14 14 (752640)
I0403 15:41:04.149094 10961 net.cpp:156] Memory required for data: 1221076512
I0403 15:41:04.149112 10961 layer_factory.hpp:77] Creating layer inception_4e/relu_3x3_reduce
I0403 15:41:04.149129 10961 net.cpp:91] Creating Layer inception_4e/relu_3x3_reduce
I0403 15:41:04.149145 10961 net.cpp:425] inception_4e/relu_3x3_reduce <- inception_4e/3x3_reduce
I0403 15:41:04.149164 10961 net.cpp:386] inception_4e/relu_3x3_reduce -> inception_4e/3x3_reduce (in-place)
I0403 15:41:04.149344 10961 net.cpp:141] Setting up inception_4e/relu_3x3_reduce
I0403 15:41:04.149369 10961 net.cpp:148] Top shape: 24 160 14 14 (752640)
I0403 15:41:04.149382 10961 net.cpp:156] Memory required for data: 1224087072
I0403 15:41:04.149397 10961 layer_factory.hpp:77] Creating layer inception_4e/3x3
I0403 15:41:04.149418 10961 net.cpp:91] Creating Layer inception_4e/3x3
I0403 15:41:04.149436 10961 net.cpp:425] inception_4e/3x3 <- inception_4e/3x3_reduce
I0403 15:41:04.149456 10961 net.cpp:399] inception_4e/3x3 -> inception_4e/3x3
I0403 15:41:04.154454 10961 net.cpp:141] Setting up inception_4e/3x3
I0403 15:41:04.154506 10961 net.cpp:148] Top shape: 24 320 14 14 (1505280)
I0403 15:41:04.154523 10961 net.cpp:156] Memory required for data: 1230108192
I0403 15:41:04.154541 10961 layer_factory.hpp:77] Creating layer inception_4e/relu_3x3
I0403 15:41:04.154562 10961 net.cpp:91] Creating Layer inception_4e/relu_3x3
I0403 15:41:04.154578 10961 net.cpp:425] inception_4e/relu_3x3 <- inception_4e/3x3
I0403 15:41:04.154597 10961 net.cpp:386] inception_4e/relu_3x3 -> inception_4e/3x3 (in-place)
I0403 15:41:04.154904 10961 net.cpp:141] Setting up inception_4e/relu_3x3
I0403 15:41:04.154932 10961 net.cpp:148] Top shape: 24 320 14 14 (1505280)
I0403 15:41:04.154947 10961 net.cpp:156] Memory required for data: 1236129312
I0403 15:41:04.154960 10961 layer_factory.hpp:77] Creating layer inception_4e/5x5_reduce
I0403 15:41:04.154988 10961 net.cpp:91] Creating Layer inception_4e/5x5_reduce
I0403 15:41:04.155006 10961 net.cpp:425] inception_4e/5x5_reduce <- inception_4d/output_inception_4d/output_0_split_3
I0403 15:41:04.155025 10961 net.cpp:399] inception_4e/5x5_reduce -> inception_4e/5x5_reduce
I0403 15:41:04.156100 10961 net.cpp:141] Setting up inception_4e/5x5_reduce
I0403 15:41:04.156127 10961 net.cpp:148] Top shape: 24 32 14 14 (150528)
I0403 15:41:04.156142 10961 net.cpp:156] Memory required for data: 1236731424
I0403 15:41:04.156159 10961 layer_factory.hpp:77] Creating layer inception_4e/relu_5x5_reduce
I0403 15:41:04.156177 10961 net.cpp:91] Creating Layer inception_4e/relu_5x5_reduce
I0403 15:41:04.156193 10961 net.cpp:425] inception_4e/relu_5x5_reduce <- inception_4e/5x5_reduce
I0403 15:41:04.156211 10961 net.cpp:386] inception_4e/relu_5x5_reduce -> inception_4e/5x5_reduce (in-place)
I0403 15:41:04.156507 10961 net.cpp:141] Setting up inception_4e/relu_5x5_reduce
I0403 15:41:04.156533 10961 net.cpp:148] Top shape: 24 32 14 14 (150528)
I0403 15:41:04.156548 10961 net.cpp:156] Memory required for data: 1237333536
I0403 15:41:04.156563 10961 layer_factory.hpp:77] Creating layer inception_4e/5x5
I0403 15:41:04.156599 10961 net.cpp:91] Creating Layer inception_4e/5x5
I0403 15:41:04.156616 10961 net.cpp:425] inception_4e/5x5 <- inception_4e/5x5_reduce
I0403 15:41:04.156635 10961 net.cpp:399] inception_4e/5x5 -> inception_4e/5x5
I0403 15:41:04.158498 10961 net.cpp:141] Setting up inception_4e/5x5
I0403 15:41:04.158527 10961 net.cpp:148] Top shape: 24 128 14 14 (602112)
I0403 15:41:04.158543 10961 net.cpp:156] Memory required for data: 1239741984
I0403 15:41:04.158561 10961 layer_factory.hpp:77] Creating layer inception_4e/relu_5x5
I0403 15:41:04.158579 10961 net.cpp:91] Creating Layer inception_4e/relu_5x5
I0403 15:41:04.158596 10961 net.cpp:425] inception_4e/relu_5x5 <- inception_4e/5x5
I0403 15:41:04.158613 10961 net.cpp:386] inception_4e/relu_5x5 -> inception_4e/5x5 (in-place)
I0403 15:41:04.158807 10961 net.cpp:141] Setting up inception_4e/relu_5x5
I0403 15:41:04.158830 10961 net.cpp:148] Top shape: 24 128 14 14 (602112)
I0403 15:41:04.158844 10961 net.cpp:156] Memory required for data: 1242150432
I0403 15:41:04.158859 10961 layer_factory.hpp:77] Creating layer inception_4e/pool
I0403 15:41:04.158876 10961 net.cpp:91] Creating Layer inception_4e/pool
I0403 15:41:04.158891 10961 net.cpp:425] inception_4e/pool <- inception_4d/output_inception_4d/output_0_split_4
I0403 15:41:04.158911 10961 net.cpp:399] inception_4e/pool -> inception_4e/pool
I0403 15:41:04.158987 10961 net.cpp:141] Setting up inception_4e/pool
I0403 15:41:04.159009 10961 net.cpp:148] Top shape: 24 528 14 14 (2483712)
I0403 15:41:04.159024 10961 net.cpp:156] Memory required for data: 1252085280
I0403 15:41:04.159039 10961 layer_factory.hpp:77] Creating layer inception_4e/pool_proj
I0403 15:41:04.159060 10961 net.cpp:91] Creating Layer inception_4e/pool_proj
I0403 15:41:04.159076 10961 net.cpp:425] inception_4e/pool_proj <- inception_4e/pool
I0403 15:41:04.159096 10961 net.cpp:399] inception_4e/pool_proj -> inception_4e/pool_proj
I0403 15:41:04.160562 10961 net.cpp:141] Setting up inception_4e/pool_proj
I0403 15:41:04.160601 10961 net.cpp:148] Top shape: 24 128 14 14 (602112)
I0403 15:41:04.160619 10961 net.cpp:156] Memory required for data: 1254493728
I0403 15:41:04.160635 10961 layer_factory.hpp:77] Creating layer inception_4e/relu_pool_proj
I0403 15:41:04.160655 10961 net.cpp:91] Creating Layer inception_4e/relu_pool_proj
I0403 15:41:04.160670 10961 net.cpp:425] inception_4e/relu_pool_proj <- inception_4e/pool_proj
I0403 15:41:04.160686 10961 net.cpp:386] inception_4e/relu_pool_proj -> inception_4e/pool_proj (in-place)
I0403 15:41:04.160972 10961 net.cpp:141] Setting up inception_4e/relu_pool_proj
I0403 15:41:04.161003 10961 net.cpp:148] Top shape: 24 128 14 14 (602112)
I0403 15:41:04.161020 10961 net.cpp:156] Memory required for data: 1256902176
I0403 15:41:04.161033 10961 layer_factory.hpp:77] Creating layer inception_4e/output
I0403 15:41:04.161051 10961 net.cpp:91] Creating Layer inception_4e/output
I0403 15:41:04.161067 10961 net.cpp:425] inception_4e/output <- inception_4e/1x1
I0403 15:41:04.161082 10961 net.cpp:425] inception_4e/output <- inception_4e/3x3
I0403 15:41:04.161098 10961 net.cpp:425] inception_4e/output <- inception_4e/5x5
I0403 15:41:04.161113 10961 net.cpp:425] inception_4e/output <- inception_4e/pool_proj
I0403 15:41:04.161130 10961 net.cpp:399] inception_4e/output -> inception_4e/output
I0403 15:41:04.161180 10961 net.cpp:141] Setting up inception_4e/output
I0403 15:41:04.161202 10961 net.cpp:148] Top shape: 24 832 14 14 (3913728)
I0403 15:41:04.161216 10961 net.cpp:156] Memory required for data: 1272557088
I0403 15:41:04.161231 10961 layer_factory.hpp:77] Creating layer pool4/3x3_s2
I0403 15:41:04.161249 10961 net.cpp:91] Creating Layer pool4/3x3_s2
I0403 15:41:04.161267 10961 net.cpp:425] pool4/3x3_s2 <- inception_4e/output
I0403 15:41:04.161284 10961 net.cpp:399] pool4/3x3_s2 -> pool4/3x3_s2
I0403 15:41:04.161355 10961 net.cpp:141] Setting up pool4/3x3_s2
I0403 15:41:04.161377 10961 net.cpp:148] Top shape: 24 832 7 7 (978432)
I0403 15:41:04.161392 10961 net.cpp:156] Memory required for data: 1276470816
I0403 15:41:04.161406 10961 layer_factory.hpp:77] Creating layer pool4/3x3_s2_pool4/3x3_s2_0_split
I0403 15:41:04.161422 10961 net.cpp:91] Creating Layer pool4/3x3_s2_pool4/3x3_s2_0_split
I0403 15:41:04.161437 10961 net.cpp:425] pool4/3x3_s2_pool4/3x3_s2_0_split <- pool4/3x3_s2
I0403 15:41:04.161455 10961 net.cpp:399] pool4/3x3_s2_pool4/3x3_s2_0_split -> pool4/3x3_s2_pool4/3x3_s2_0_split_0
I0403 15:41:04.161475 10961 net.cpp:399] pool4/3x3_s2_pool4/3x3_s2_0_split -> pool4/3x3_s2_pool4/3x3_s2_0_split_1
I0403 15:41:04.161495 10961 net.cpp:399] pool4/3x3_s2_pool4/3x3_s2_0_split -> pool4/3x3_s2_pool4/3x3_s2_0_split_2
I0403 15:41:04.161515 10961 net.cpp:399] pool4/3x3_s2_pool4/3x3_s2_0_split -> pool4/3x3_s2_pool4/3x3_s2_0_split_3
I0403 15:41:04.161604 10961 net.cpp:141] Setting up pool4/3x3_s2_pool4/3x3_s2_0_split
I0403 15:41:04.161628 10961 net.cpp:148] Top shape: 24 832 7 7 (978432)
I0403 15:41:04.161645 10961 net.cpp:148] Top shape: 24 832 7 7 (978432)
I0403 15:41:04.161660 10961 net.cpp:148] Top shape: 24 832 7 7 (978432)
I0403 15:41:04.161675 10961 net.cpp:148] Top shape: 24 832 7 7 (978432)
I0403 15:41:04.161689 10961 net.cpp:156] Memory required for data: 1292125728
I0403 15:41:04.161703 10961 layer_factory.hpp:77] Creating layer inception_5a/1x1
I0403 15:41:04.161725 10961 net.cpp:91] Creating Layer inception_5a/1x1
I0403 15:41:04.161741 10961 net.cpp:425] inception_5a/1x1 <- pool4/3x3_s2_pool4/3x3_s2_0_split_0
I0403 15:41:04.161761 10961 net.cpp:399] inception_5a/1x1 -> inception_5a/1x1
I0403 15:41:04.164551 10961 net.cpp:141] Setting up inception_5a/1x1
I0403 15:41:04.164582 10961 net.cpp:148] Top shape: 24 256 7 7 (301056)
I0403 15:41:04.164597 10961 net.cpp:156] Memory required for data: 1293329952
I0403 15:41:04.164615 10961 layer_factory.hpp:77] Creating layer inception_5a/relu_1x1
I0403 15:41:04.164633 10961 net.cpp:91] Creating Layer inception_5a/relu_1x1
I0403 15:41:04.164649 10961 net.cpp:425] inception_5a/relu_1x1 <- inception_5a/1x1
I0403 15:41:04.164667 10961 net.cpp:386] inception_5a/relu_1x1 -> inception_5a/1x1 (in-place)
I0403 15:41:04.164968 10961 net.cpp:141] Setting up inception_5a/relu_1x1
I0403 15:41:04.164999 10961 net.cpp:148] Top shape: 24 256 7 7 (301056)
I0403 15:41:04.165014 10961 net.cpp:156] Memory required for data: 1294534176
I0403 15:41:04.165030 10961 layer_factory.hpp:77] Creating layer inception_5a/3x3_reduce
I0403 15:41:04.165050 10961 net.cpp:91] Creating Layer inception_5a/3x3_reduce
I0403 15:41:04.165067 10961 net.cpp:425] inception_5a/3x3_reduce <- pool4/3x3_s2_pool4/3x3_s2_0_split_1
I0403 15:41:04.165088 10961 net.cpp:399] inception_5a/3x3_reduce -> inception_5a/3x3_reduce
I0403 15:41:04.167498 10961 net.cpp:141] Setting up inception_5a/3x3_reduce
I0403 15:41:04.167527 10961 net.cpp:148] Top shape: 24 160 7 7 (188160)
I0403 15:41:04.167542 10961 net.cpp:156] Memory required for data: 1295286816
I0403 15:41:04.167562 10961 layer_factory.hpp:77] Creating layer inception_5a/relu_3x3_reduce
I0403 15:41:04.167582 10961 net.cpp:91] Creating Layer inception_5a/relu_3x3_reduce
I0403 15:41:04.167599 10961 net.cpp:425] inception_5a/relu_3x3_reduce <- inception_5a/3x3_reduce
I0403 15:41:04.167616 10961 net.cpp:386] inception_5a/relu_3x3_reduce -> inception_5a/3x3_reduce (in-place)
I0403 15:41:04.167799 10961 net.cpp:141] Setting up inception_5a/relu_3x3_reduce
I0403 15:41:04.167826 10961 net.cpp:148] Top shape: 24 160 7 7 (188160)
I0403 15:41:04.167841 10961 net.cpp:156] Memory required for data: 1296039456
I0403 15:41:04.167855 10961 layer_factory.hpp:77] Creating layer inception_5a/3x3
I0403 15:41:04.167876 10961 net.cpp:91] Creating Layer inception_5a/3x3
I0403 15:41:04.167893 10961 net.cpp:425] inception_5a/3x3 <- inception_5a/3x3_reduce
I0403 15:41:04.167912 10961 net.cpp:399] inception_5a/3x3 -> inception_5a/3x3
I0403 15:41:04.172857 10961 net.cpp:141] Setting up inception_5a/3x3
I0403 15:41:04.172888 10961 net.cpp:148] Top shape: 24 320 7 7 (376320)
I0403 15:41:04.172902 10961 net.cpp:156] Memory required for data: 1297544736
I0403 15:41:04.172920 10961 layer_factory.hpp:77] Creating layer inception_5a/relu_3x3
I0403 15:41:04.172938 10961 net.cpp:91] Creating Layer inception_5a/relu_3x3
I0403 15:41:04.172955 10961 net.cpp:425] inception_5a/relu_3x3 <- inception_5a/3x3
I0403 15:41:04.172973 10961 net.cpp:386] inception_5a/relu_3x3 -> inception_5a/3x3 (in-place)
I0403 15:41:04.173272 10961 net.cpp:141] Setting up inception_5a/relu_3x3
I0403 15:41:04.173297 10961 net.cpp:148] Top shape: 24 320 7 7 (376320)
I0403 15:41:04.173312 10961 net.cpp:156] Memory required for data: 1299050016
I0403 15:41:04.173326 10961 layer_factory.hpp:77] Creating layer inception_5a/5x5_reduce
I0403 15:41:04.173348 10961 net.cpp:91] Creating Layer inception_5a/5x5_reduce
I0403 15:41:04.173367 10961 net.cpp:425] inception_5a/5x5_reduce <- pool4/3x3_s2_pool4/3x3_s2_0_split_2
I0403 15:41:04.173388 10961 net.cpp:399] inception_5a/5x5_reduce -> inception_5a/5x5_reduce
I0403 15:41:04.174525 10961 net.cpp:141] Setting up inception_5a/5x5_reduce
I0403 15:41:04.174554 10961 net.cpp:148] Top shape: 24 32 7 7 (37632)
I0403 15:41:04.174571 10961 net.cpp:156] Memory required for data: 1299200544
I0403 15:41:04.174588 10961 layer_factory.hpp:77] Creating layer inception_5a/relu_5x5_reduce
I0403 15:41:04.174607 10961 net.cpp:91] Creating Layer inception_5a/relu_5x5_reduce
I0403 15:41:04.174624 10961 net.cpp:425] inception_5a/relu_5x5_reduce <- inception_5a/5x5_reduce
I0403 15:41:04.174641 10961 net.cpp:386] inception_5a/relu_5x5_reduce -> inception_5a/5x5_reduce (in-place)
I0403 15:41:04.174940 10961 net.cpp:141] Setting up inception_5a/relu_5x5_reduce
I0403 15:41:04.174965 10961 net.cpp:148] Top shape: 24 32 7 7 (37632)
I0403 15:41:04.174984 10961 net.cpp:156] Memory required for data: 1299351072
I0403 15:41:04.175000 10961 layer_factory.hpp:77] Creating layer inception_5a/5x5
I0403 15:41:04.175022 10961 net.cpp:91] Creating Layer inception_5a/5x5
I0403 15:41:04.175040 10961 net.cpp:425] inception_5a/5x5 <- inception_5a/5x5_reduce
I0403 15:41:04.175060 10961 net.cpp:399] inception_5a/5x5 -> inception_5a/5x5
I0403 15:41:04.176726 10961 net.cpp:141] Setting up inception_5a/5x5
I0403 15:41:04.176765 10961 net.cpp:148] Top shape: 24 128 7 7 (150528)
I0403 15:41:04.176781 10961 net.cpp:156] Memory required for data: 1299953184
I0403 15:41:04.176800 10961 layer_factory.hpp:77] Creating layer inception_5a/relu_5x5
I0403 15:41:04.176816 10961 net.cpp:91] Creating Layer inception_5a/relu_5x5
I0403 15:41:04.176832 10961 net.cpp:425] inception_5a/relu_5x5 <- inception_5a/5x5
I0403 15:41:04.176852 10961 net.cpp:386] inception_5a/relu_5x5 -> inception_5a/5x5 (in-place)
I0403 15:41:04.177043 10961 net.cpp:141] Setting up inception_5a/relu_5x5
I0403 15:41:04.177068 10961 net.cpp:148] Top shape: 24 128 7 7 (150528)
I0403 15:41:04.177083 10961 net.cpp:156] Memory required for data: 1300555296
I0403 15:41:04.177096 10961 layer_factory.hpp:77] Creating layer inception_5a/pool
I0403 15:41:04.177116 10961 net.cpp:91] Creating Layer inception_5a/pool
I0403 15:41:04.177134 10961 net.cpp:425] inception_5a/pool <- pool4/3x3_s2_pool4/3x3_s2_0_split_3
I0403 15:41:04.177151 10961 net.cpp:399] inception_5a/pool -> inception_5a/pool
I0403 15:41:04.177220 10961 net.cpp:141] Setting up inception_5a/pool
I0403 15:41:04.177243 10961 net.cpp:148] Top shape: 24 832 7 7 (978432)
I0403 15:41:04.177256 10961 net.cpp:156] Memory required for data: 1304469024
I0403 15:41:04.177270 10961 layer_factory.hpp:77] Creating layer inception_5a/pool_proj
I0403 15:41:04.177291 10961 net.cpp:91] Creating Layer inception_5a/pool_proj
I0403 15:41:04.177309 10961 net.cpp:425] inception_5a/pool_proj <- inception_5a/pool
I0403 15:41:04.177330 10961 net.cpp:399] inception_5a/pool_proj -> inception_5a/pool_proj
I0403 15:41:04.179637 10961 net.cpp:141] Setting up inception_5a/pool_proj
I0403 15:41:04.179669 10961 net.cpp:148] Top shape: 24 128 7 7 (150528)
I0403 15:41:04.179687 10961 net.cpp:156] Memory required for data: 1305071136
I0403 15:41:04.179704 10961 layer_factory.hpp:77] Creating layer inception_5a/relu_pool_proj
I0403 15:41:04.179723 10961 net.cpp:91] Creating Layer inception_5a/relu_pool_proj
I0403 15:41:04.179739 10961 net.cpp:425] inception_5a/relu_pool_proj <- inception_5a/pool_proj
I0403 15:41:04.179764 10961 net.cpp:386] inception_5a/relu_pool_proj -> inception_5a/pool_proj (in-place)
I0403 15:41:04.180061 10961 net.cpp:141] Setting up inception_5a/relu_pool_proj
I0403 15:41:04.180089 10961 net.cpp:148] Top shape: 24 128 7 7 (150528)
I0403 15:41:04.180106 10961 net.cpp:156] Memory required for data: 1305673248
I0403 15:41:04.180120 10961 layer_factory.hpp:77] Creating layer inception_5a/output
I0403 15:41:04.180138 10961 net.cpp:91] Creating Layer inception_5a/output
I0403 15:41:04.180153 10961 net.cpp:425] inception_5a/output <- inception_5a/1x1
I0403 15:41:04.180171 10961 net.cpp:425] inception_5a/output <- inception_5a/3x3
I0403 15:41:04.180186 10961 net.cpp:425] inception_5a/output <- inception_5a/5x5
I0403 15:41:04.180202 10961 net.cpp:425] inception_5a/output <- inception_5a/pool_proj
I0403 15:41:04.180219 10961 net.cpp:399] inception_5a/output -> inception_5a/output
I0403 15:41:04.180271 10961 net.cpp:141] Setting up inception_5a/output
I0403 15:41:04.180295 10961 net.cpp:148] Top shape: 24 832 7 7 (978432)
I0403 15:41:04.180310 10961 net.cpp:156] Memory required for data: 1309586976
I0403 15:41:04.180325 10961 layer_factory.hpp:77] Creating layer inception_5a/output_inception_5a/output_0_split
I0403 15:41:04.180341 10961 net.cpp:91] Creating Layer inception_5a/output_inception_5a/output_0_split
I0403 15:41:04.180357 10961 net.cpp:425] inception_5a/output_inception_5a/output_0_split <- inception_5a/output
I0403 15:41:04.180377 10961 net.cpp:399] inception_5a/output_inception_5a/output_0_split -> inception_5a/output_inception_5a/output_0_split_0
I0403 15:41:04.180398 10961 net.cpp:399] inception_5a/output_inception_5a/output_0_split -> inception_5a/output_inception_5a/output_0_split_1
I0403 15:41:04.180418 10961 net.cpp:399] inception_5a/output_inception_5a/output_0_split -> inception_5a/output_inception_5a/output_0_split_2
I0403 15:41:04.180444 10961 net.cpp:399] inception_5a/output_inception_5a/output_0_split -> inception_5a/output_inception_5a/output_0_split_3
I0403 15:41:04.180553 10961 net.cpp:141] Setting up inception_5a/output_inception_5a/output_0_split
I0403 15:41:04.180577 10961 net.cpp:148] Top shape: 24 832 7 7 (978432)
I0403 15:41:04.180593 10961 net.cpp:148] Top shape: 24 832 7 7 (978432)
I0403 15:41:04.180608 10961 net.cpp:148] Top shape: 24 832 7 7 (978432)
I0403 15:41:04.180624 10961 net.cpp:148] Top shape: 24 832 7 7 (978432)
I0403 15:41:04.180636 10961 net.cpp:156] Memory required for data: 1325241888
I0403 15:41:04.180650 10961 layer_factory.hpp:77] Creating layer inception_5b/1x1
I0403 15:41:04.180672 10961 net.cpp:91] Creating Layer inception_5b/1x1
I0403 15:41:04.180691 10961 net.cpp:425] inception_5b/1x1 <- inception_5a/output_inception_5a/output_0_split_0
I0403 15:41:04.180711 10961 net.cpp:399] inception_5b/1x1 -> inception_5b/1x1
I0403 15:41:04.184509 10961 net.cpp:141] Setting up inception_5b/1x1
I0403 15:41:04.184540 10961 net.cpp:148] Top shape: 24 384 7 7 (451584)
I0403 15:41:04.184558 10961 net.cpp:156] Memory required for data: 1327048224
I0403 15:41:04.184577 10961 layer_factory.hpp:77] Creating layer inception_5b/relu_1x1
I0403 15:41:04.184595 10961 net.cpp:91] Creating Layer inception_5b/relu_1x1
I0403 15:41:04.184612 10961 net.cpp:425] inception_5b/relu_1x1 <- inception_5b/1x1
I0403 15:41:04.184629 10961 net.cpp:386] inception_5b/relu_1x1 -> inception_5b/1x1 (in-place)
I0403 15:41:04.184934 10961 net.cpp:141] Setting up inception_5b/relu_1x1
I0403 15:41:04.184962 10961 net.cpp:148] Top shape: 24 384 7 7 (451584)
I0403 15:41:04.184983 10961 net.cpp:156] Memory required for data: 1328854560
I0403 15:41:04.184999 10961 layer_factory.hpp:77] Creating layer inception_5b/3x3_reduce
I0403 15:41:04.185019 10961 net.cpp:91] Creating Layer inception_5b/3x3_reduce
I0403 15:41:04.185036 10961 net.cpp:425] inception_5b/3x3_reduce <- inception_5a/output_inception_5a/output_0_split_1
I0403 15:41:04.185058 10961 net.cpp:399] inception_5b/3x3_reduce -> inception_5b/3x3_reduce
I0403 15:41:04.187759 10961 net.cpp:141] Setting up inception_5b/3x3_reduce
I0403 15:41:04.187789 10961 net.cpp:148] Top shape: 24 192 7 7 (225792)
I0403 15:41:04.187805 10961 net.cpp:156] Memory required for data: 1329757728
I0403 15:41:04.187824 10961 layer_factory.hpp:77] Creating layer inception_5b/relu_3x3_reduce
I0403 15:41:04.187844 10961 net.cpp:91] Creating Layer inception_5b/relu_3x3_reduce
I0403 15:41:04.187862 10961 net.cpp:425] inception_5b/relu_3x3_reduce <- inception_5b/3x3_reduce
I0403 15:41:04.187880 10961 net.cpp:386] inception_5b/relu_3x3_reduce -> inception_5b/3x3_reduce (in-place)
I0403 15:41:04.188083 10961 net.cpp:141] Setting up inception_5b/relu_3x3_reduce
I0403 15:41:04.188108 10961 net.cpp:148] Top shape: 24 192 7 7 (225792)
I0403 15:41:04.188123 10961 net.cpp:156] Memory required for data: 1330660896
I0403 15:41:04.188138 10961 layer_factory.hpp:77] Creating layer inception_5b/3x3
I0403 15:41:04.188160 10961 net.cpp:91] Creating Layer inception_5b/3x3
I0403 15:41:04.188179 10961 net.cpp:425] inception_5b/3x3 <- inception_5b/3x3_reduce
I0403 15:41:04.188200 10961 net.cpp:399] inception_5b/3x3 -> inception_5b/3x3
I0403 15:41:04.195019 10961 net.cpp:141] Setting up inception_5b/3x3
I0403 15:41:04.195050 10961 net.cpp:148] Top shape: 24 384 7 7 (451584)
I0403 15:41:04.195065 10961 net.cpp:156] Memory required for data: 1332467232
I0403 15:41:04.195085 10961 layer_factory.hpp:77] Creating layer inception_5b/relu_3x3
I0403 15:41:04.195101 10961 net.cpp:91] Creating Layer inception_5b/relu_3x3
I0403 15:41:04.195118 10961 net.cpp:425] inception_5b/relu_3x3 <- inception_5b/3x3
I0403 15:41:04.195137 10961 net.cpp:386] inception_5b/relu_3x3 -> inception_5b/3x3 (in-place)
I0403 15:41:04.195441 10961 net.cpp:141] Setting up inception_5b/relu_3x3
I0403 15:41:04.195469 10961 net.cpp:148] Top shape: 24 384 7 7 (451584)
I0403 15:41:04.195487 10961 net.cpp:156] Memory required for data: 1334273568
I0403 15:41:04.195502 10961 layer_factory.hpp:77] Creating layer inception_5b/5x5_reduce
I0403 15:41:04.195540 10961 net.cpp:91] Creating Layer inception_5b/5x5_reduce
I0403 15:41:04.195560 10961 net.cpp:425] inception_5b/5x5_reduce <- inception_5a/output_inception_5a/output_0_split_2
I0403 15:41:04.195580 10961 net.cpp:399] inception_5b/5x5_reduce -> inception_5b/5x5_reduce
I0403 15:41:04.196841 10961 net.cpp:141] Setting up inception_5b/5x5_reduce
I0403 15:41:04.196871 10961 net.cpp:148] Top shape: 24 48 7 7 (56448)
I0403 15:41:04.196887 10961 net.cpp:156] Memory required for data: 1334499360
I0403 15:41:04.196904 10961 layer_factory.hpp:77] Creating layer inception_5b/relu_5x5_reduce
I0403 15:41:04.196923 10961 net.cpp:91] Creating Layer inception_5b/relu_5x5_reduce
I0403 15:41:04.196940 10961 net.cpp:425] inception_5b/relu_5x5_reduce <- inception_5b/5x5_reduce
I0403 15:41:04.196957 10961 net.cpp:386] inception_5b/relu_5x5_reduce -> inception_5b/5x5_reduce (in-place)
I0403 15:41:04.197327 10961 net.cpp:141] Setting up inception_5b/relu_5x5_reduce
I0403 15:41:04.197353 10961 net.cpp:148] Top shape: 24 48 7 7 (56448)
I0403 15:41:04.197368 10961 net.cpp:156] Memory required for data: 1334725152
I0403 15:41:04.197382 10961 layer_factory.hpp:77] Creating layer inception_5b/5x5
I0403 15:41:04.197402 10961 net.cpp:91] Creating Layer inception_5b/5x5
I0403 15:41:04.197419 10961 net.cpp:425] inception_5b/5x5 <- inception_5b/5x5_reduce
I0403 15:41:04.197438 10961 net.cpp:399] inception_5b/5x5 -> inception_5b/5x5
I0403 15:41:04.199450 10961 net.cpp:141] Setting up inception_5b/5x5
I0403 15:41:04.199479 10961 net.cpp:148] Top shape: 24 128 7 7 (150528)
I0403 15:41:04.199496 10961 net.cpp:156] Memory required for data: 1335327264
I0403 15:41:04.199512 10961 layer_factory.hpp:77] Creating layer inception_5b/relu_5x5
I0403 15:41:04.199530 10961 net.cpp:91] Creating Layer inception_5b/relu_5x5
I0403 15:41:04.199547 10961 net.cpp:425] inception_5b/relu_5x5 <- inception_5b/5x5
I0403 15:41:04.199565 10961 net.cpp:386] inception_5b/relu_5x5 -> inception_5b/5x5 (in-place)
I0403 15:41:04.199772 10961 net.cpp:141] Setting up inception_5b/relu_5x5
I0403 15:41:04.199796 10961 net.cpp:148] Top shape: 24 128 7 7 (150528)
I0403 15:41:04.199812 10961 net.cpp:156] Memory required for data: 1335929376
I0403 15:41:04.199826 10961 layer_factory.hpp:77] Creating layer inception_5b/pool
I0403 15:41:04.199844 10961 net.cpp:91] Creating Layer inception_5b/pool
I0403 15:41:04.199861 10961 net.cpp:425] inception_5b/pool <- inception_5a/output_inception_5a/output_0_split_3
I0403 15:41:04.199880 10961 net.cpp:399] inception_5b/pool -> inception_5b/pool
I0403 15:41:04.199966 10961 net.cpp:141] Setting up inception_5b/pool
I0403 15:41:04.199993 10961 net.cpp:148] Top shape: 24 832 7 7 (978432)
I0403 15:41:04.200008 10961 net.cpp:156] Memory required for data: 1339843104
I0403 15:41:04.200022 10961 layer_factory.hpp:77] Creating layer inception_5b/pool_proj
I0403 15:41:04.200043 10961 net.cpp:91] Creating Layer inception_5b/pool_proj
I0403 15:41:04.200062 10961 net.cpp:425] inception_5b/pool_proj <- inception_5b/pool
I0403 15:41:04.200081 10961 net.cpp:399] inception_5b/pool_proj -> inception_5b/pool_proj
I0403 15:41:04.202358 10961 net.cpp:141] Setting up inception_5b/pool_proj
I0403 15:41:04.202389 10961 net.cpp:148] Top shape: 24 128 7 7 (150528)
I0403 15:41:04.202404 10961 net.cpp:156] Memory required for data: 1340445216
I0403 15:41:04.202422 10961 layer_factory.hpp:77] Creating layer inception_5b/relu_pool_proj
I0403 15:41:04.202440 10961 net.cpp:91] Creating Layer inception_5b/relu_pool_proj
I0403 15:41:04.202457 10961 net.cpp:425] inception_5b/relu_pool_proj <- inception_5b/pool_proj
I0403 15:41:04.202474 10961 net.cpp:386] inception_5b/relu_pool_proj -> inception_5b/pool_proj (in-place)
I0403 15:41:04.202770 10961 net.cpp:141] Setting up inception_5b/relu_pool_proj
I0403 15:41:04.202798 10961 net.cpp:148] Top shape: 24 128 7 7 (150528)
I0403 15:41:04.202813 10961 net.cpp:156] Memory required for data: 1341047328
I0403 15:41:04.202828 10961 layer_factory.hpp:77] Creating layer inception_5b/output
I0403 15:41:04.202846 10961 net.cpp:91] Creating Layer inception_5b/output
I0403 15:41:04.202875 10961 net.cpp:425] inception_5b/output <- inception_5b/1x1
I0403 15:41:04.202893 10961 net.cpp:425] inception_5b/output <- inception_5b/3x3
I0403 15:41:04.202908 10961 net.cpp:425] inception_5b/output <- inception_5b/5x5
I0403 15:41:04.202926 10961 net.cpp:425] inception_5b/output <- inception_5b/pool_proj
I0403 15:41:04.202942 10961 net.cpp:399] inception_5b/output -> inception_5b/output
I0403 15:41:04.202999 10961 net.cpp:141] Setting up inception_5b/output
I0403 15:41:04.203022 10961 net.cpp:148] Top shape: 24 1024 7 7 (1204224)
I0403 15:41:04.203037 10961 net.cpp:156] Memory required for data: 1345864224
I0403 15:41:04.203052 10961 layer_factory.hpp:77] Creating layer pool5/7x7_s1
I0403 15:41:04.203070 10961 net.cpp:91] Creating Layer pool5/7x7_s1
I0403 15:41:04.203086 10961 net.cpp:425] pool5/7x7_s1 <- inception_5b/output
I0403 15:41:04.203104 10961 net.cpp:399] pool5/7x7_s1 -> pool5/7x7_s1
I0403 15:41:04.203317 10961 net.cpp:141] Setting up pool5/7x7_s1
I0403 15:41:04.203341 10961 net.cpp:148] Top shape: 24 1024 1 1 (24576)
I0403 15:41:04.203356 10961 net.cpp:156] Memory required for data: 1345962528
I0403 15:41:04.203371 10961 layer_factory.hpp:77] Creating layer pool5/drop_7x7_s1
I0403 15:41:04.203387 10961 net.cpp:91] Creating Layer pool5/drop_7x7_s1
I0403 15:41:04.203403 10961 net.cpp:425] pool5/drop_7x7_s1 <- pool5/7x7_s1
I0403 15:41:04.203423 10961 net.cpp:386] pool5/drop_7x7_s1 -> pool5/7x7_s1 (in-place)
I0403 15:41:04.203472 10961 net.cpp:141] Setting up pool5/drop_7x7_s1
I0403 15:41:04.203495 10961 net.cpp:148] Top shape: 24 1024 1 1 (24576)
I0403 15:41:04.203511 10961 net.cpp:156] Memory required for data: 1346060832
I0403 15:41:04.203526 10961 layer_factory.hpp:77] Creating layer loss3/classifier_plantvillage
I0403 15:41:04.203544 10961 net.cpp:91] Creating Layer loss3/classifier_plantvillage
I0403 15:41:04.203562 10961 net.cpp:425] loss3/classifier_plantvillage <- pool5/7x7_s1
I0403 15:41:04.203580 10961 net.cpp:399] loss3/classifier_plantvillage -> loss3/classifier_plantvillage
I0403 15:41:04.204000 10961 net.cpp:141] Setting up loss3/classifier_plantvillage
I0403 15:41:04.204025 10961 net.cpp:148] Top shape: 24 38 (912)
I0403 15:41:04.204037 10961 net.cpp:156] Memory required for data: 1346064480
I0403 15:41:04.204056 10961 layer_factory.hpp:77] Creating layer loss3/classifier_plantvillage_loss3/classifier_plantvillage_0_split
I0403 15:41:04.204077 10961 net.cpp:91] Creating Layer loss3/classifier_plantvillage_loss3/classifier_plantvillage_0_split
I0403 15:41:04.204093 10961 net.cpp:425] loss3/classifier_plantvillage_loss3/classifier_plantvillage_0_split <- loss3/classifier_plantvillage
I0403 15:41:04.204110 10961 net.cpp:399] loss3/classifier_plantvillage_loss3/classifier_plantvillage_0_split -> loss3/classifier_plantvillage_loss3/classifier_plantvillage_0_split_0
I0403 15:41:04.204129 10961 net.cpp:399] loss3/classifier_plantvillage_loss3/classifier_plantvillage_0_split -> loss3/classifier_plantvillage_loss3/classifier_plantvillage_0_split_1
I0403 15:41:04.204149 10961 net.cpp:399] loss3/classifier_plantvillage_loss3/classifier_plantvillage_0_split -> loss3/classifier_plantvillage_loss3/classifier_plantvillage_0_split_2
I0403 15:41:04.204171 10961 net.cpp:399] loss3/classifier_plantvillage_loss3/classifier_plantvillage_0_split -> loss3/classifier_plantvillage_loss3/classifier_plantvillage_0_split_3
I0403 15:41:04.204272 10961 net.cpp:141] Setting up loss3/classifier_plantvillage_loss3/classifier_plantvillage_0_split
I0403 15:41:04.204294 10961 net.cpp:148] Top shape: 24 38 (912)
I0403 15:41:04.204309 10961 net.cpp:148] Top shape: 24 38 (912)
I0403 15:41:04.204324 10961 net.cpp:148] Top shape: 24 38 (912)
I0403 15:41:04.204339 10961 net.cpp:148] Top shape: 24 38 (912)
I0403 15:41:04.204351 10961 net.cpp:156] Memory required for data: 1346079072
I0403 15:41:04.204365 10961 layer_factory.hpp:77] Creating layer loss1/loss
I0403 15:41:04.204387 10961 net.cpp:91] Creating Layer loss1/loss
I0403 15:41:04.204404 10961 net.cpp:425] loss1/loss <- loss1/classifier_plantvillage_loss1/classifier_plantvillage_0_split_0
I0403 15:41:04.204437 10961 net.cpp:425] loss1/loss <- label_data_1_split_0
…
