…
I0403 15:49:43.047824 11459 net.cpp:313] The NetState phase (1) differed from the phase (0) specified by a rule in layer data
I0403 15:49:43.049029 11459 net.cpp:49] Initializing net from parameters: 
state {
  phase: TEST
}
layer {
  name: "data"
  type: "Data"
  top: "data"
  top: "label"
  include {
    phase: TEST
  }
  transform_param {
    mirror: false
    crop_size: 224
    mean_file: "/home/mohanty/data/final_dataset/lmdb/segmented-80-20/mean.binaryproto"
  }
  data_param {
    source: "/home/mohanty/data/final_dataset/lmdb/segmented-80-20/test_db"
    batch_size: 24
    backend: LMDB
  }
}
layer {
  name: "conv1/7x7_s2"
  type: "Convolution"
  bottom: "data"
  top: "conv1/7x7_s2"
  param {
    lr_mult: 1
    decay_mult: 1
  }
  param {
    lr_mult: 2
    decay_mult: 0
  }
  convolution_param {
    num_output: 64
    pad: 3
    kernel_size: 7
    stride: 2
    weight_filler {
      type: "xavier"
      std: 0.1
    }
    bias_filler {
      type: "constant"
      value: 0.2
    }
  }
}
layer {
  name: "conv1/relu_7x7"
  type: "ReLU"
  bottom: "conv1/7x7_s2"
  top: "conv1/7x7_s2"
}
layer {
  name: "pool1/3x3_s2"
  type: "Pooling"
  bottom: "conv1/7x7_s2"
  top: "pool1/3x3_s2"
  pooling_param {
    pool: MAX
    kernel_size: 3
    stride: 2
  }
}
layer {
  name: "pool1/norm1"
  type: "LRN"
  bottom: "pool1/3x3_s2"
  top: "pool1/norm1"
  lrn_param {
    local_size: 5
    alpha: 0.0001
    beta: 0.75
  }
}
layer {
  name: "conv2/3x3_reduce"
  type: "Convolution"
  bottom: "pool1/norm1"
  top: "conv2/3x3_reduce"
  param {
    lr_mult: 1
    decay_mult: 1
  }
  param {
    lr_mult: 2
    decay_mult: 0
  }
  convolution_param {
    num_output: 64
    kernel_size: 1
    weight_filler {
      type: "xavier"
      std: 0.1
    }
    bias_filler {
      type: "constant"
      value: 0.2
    }
  }
}
layer {
  name: "conv2/relu_3x3_reduce"
  type: "ReLU"
  bottom: "conv2/3x3_reduce"
  top: "conv2/3x3_reduce"
}
layer {
  name: "conv2/3x3"
  type: "Convolution"
  bottom: "conv2/3x3_reduce"
  top: "conv2/3x3"
  param {
    lr_mult: 1
    decay_mult: 1
  }
  param {
    lr_mult: 2
    decay_mult: 0
  }
  convolution_param {
    num_output: 192
    pad: 1
    kernel_size: 3
    weight_filler {
      type: "xavier"
      std: 0.03
    }
    bias_filler {
      type: "constant"
      value: 0.2
    }
  }
}
layer {
  name: "conv2/relu_3x3"
  type: "ReLU"
  bottom: "conv2/3x3"
  top: "conv2/3x3"
}
layer {
  name: "conv2/norm2"
  type: "LRN"
  bottom: "conv2/3x3"
  top: "conv2/norm2"
  lrn_param {
    local_size: 5
    alpha: 0.0001
    beta: 0.75
  }
}
layer {
  name: "pool2/3x3_s2"
  type: "Pooling"
  bottom: "conv2/norm2"
  top: "pool2/3x3_s2"
  pooling_param {
    pool: MAX
    kernel_size: 3
    stride: 2
  }
}
layer {
  name: "inception_3a/1x1"
  type: "Convolution"
  bottom: "pool2/3x3_s2"
  top: "inception_3a/1x1"
  param {
    lr_mult: 1
    decay_mult: 1
  }
  param {
    lr_mult: 2
    decay_mult: 0
  }
  convolution_param {
    num_output: 64
    kernel_size: 1
    weight_filler {
      type: "xavier"
      std: 0.03
    }
    bias_filler {
      type: "constant"
      value: 0.2
    }
  }
}
layer {
  name: "inception_3a/relu_1x1"
  type: "ReLU"
  bottom: "inception_3a/1x1"
  top: "inception_3a/1x1"
}
layer {
  name: "inception_3a/3x3_reduce"
  type: "Convolution"
  bottom: "pool2/3x3_s2"
  top: "inception_3a/3x3_reduce"
  param {
    lr_mult: 1
    decay_mult: 1
  }
  param {
    lr_mult: 2
    decay_mult: 0
  }
  convolution_param {
    num_output: 96
    kernel_size: 1
    weight_filler {
      type: "xavier"
      std: 0.09
    }
    bias_filler {
      type: "constant"
      value: 0.2
    }
  }
}
layer {
  name: "inception_3a/relu_3x3_reduce"
  type: "ReLU"
  bottom: "inception_3a/3x3_reduce"
  top: "inception_3a/3x3_reduce"
}
layer {
  name: "inception_3a/3x3"
  type: "Convolution"
  bottom: "inception_3a/3x3_reduce"
  top: "inception_3a/3x3"
  param {
    lr_mult: 1
    decay_mult: 1
  }
  param {
    lr_mult: 2
    decay_mult: 0
  }
  convolution_param {
    num_output: 128
    pad: 1
    kernel_size: 3
    weight_filler {
      type: "xavier"
      std: 0.03
    }
    bias_filler {
      type: "constant"
      value: 0.2
    }
  }
}
layer {
  name: "inception_3a/relu_3x3"
  type: "ReLU"
  bottom: "inception_3a/3x3"
  top: "inception_3a/3x3"
}
layer {
  name: "inception_3a/5x5_reduce"
  type: "Convolution"
  bottom: "pool2/3x3_s2"
  top: "inception_3a/5x5_reduce"
  param {
    lr_mult: 1
    decay_mult: 1
  }
  param {
    lr_mult: 2
    decay_mult: 0
  }
  convolution_param {
    num_output: 16
    kernel_size: 1
    weight_filler {
      type: "xavier"
      std: 0.2
    }
    bias_filler {
      type: "constant"
      value: 0.2
    }
  }
}
layer {
  name: "inception_3a/relu_5x5_reduce"
  type: "ReLU"
  bottom: "inception_3a/5x5_reduce"
  top: "inception_3a/5x5_reduce"
}
layer {
  name: "inception_3a/5x5"
  type: "Convolution"
  bottom: "inception_3a/5x5_reduce"
  top: "inception_3a/5x5"
  param {
    lr_mult: 1
    decay_mult: 1
  }
  param {
    lr_mult: 2
    decay_mult: 0
  }
  convolution_param {
    num_output: 32
    pad: 2
    kernel_size: 5
    weight_filler {
      type: "xavier"
      std: 0.03
    }
    bias_filler {
      type: "constant"
      value: 0.2
    }
  }
}
layer {
  name: "inception_3a/relu_5x5"
  type: "ReLU"
  bottom: "inception_3a/5x5"
  top: "inception_3a/5x5"
}
layer {
  name: "inception_3a/pool"
  type: "Pooling"
  bottom: "pool2/3x3_s2"
  top: "inception_3a/pool"
  pooling_param {
    pool: MAX
    kernel_size: 3
    stride: 1
    pad: 1
  }
}
layer {
  name: "inception_3a/pool_proj"
  type: "Convolution"
  bottom: "inception_3a/pool"
  top: "inception_3a/pool_proj"
  param {
    lr_mult: 1
    decay_mult: 1
  }
  param {
    lr_mult: 2
    decay_mult: 0
  }
  convolution_param {
    num_output: 32
    kernel_size: 1
    weight_filler {
      type: "xavier"
      std: 0.1
    }
    bias_filler {
      type: "constant"
      value: 0.2
    }
  }
}
layer {
  name: "inception_3a/relu_pool_proj"
  type: "ReLU"
  bottom: "inception_3a/pool_proj"
  top: "inception_3a/pool_proj"
}
layer {
  name: "inception_3a/output"
  type: "Concat"
  bottom: "inception_3a/1x1"
  bottom: "inception_3a/3x3"
  bottom: "inception_3a/5x5"
  bottom: "inception_3a/pool_proj"
  top: "inception_3a/output"
}
layer {
  name: "inception_3b/1x1"
  type: "Convolution"
  bottom: "inception_3a/output"
  top: "inception_3b/1x1"
  param {
    lr_mult: 1
    decay_mult: 1
  }
  param {
    lr_mult: 2
    decay_mult: 0
  }
  convolution_param {
    num_output: 128
    kernel_size: 1
    weight_filler {
      type: "xavier"
      std: 0.03
    }
    bias_filler {
      type: "constant"
      value: 0.2
    }
  }
}
layer {
  name: "inception_3b/relu_1x1"
  type: "ReLU"
  bottom: "inception_3b/1x1"
  top: "inception_3b/1x1"
}
layer {
  name: "inception_3b/3x3_reduce"
  type: "Convolution"
  bottom: "inception_3a/output"
  top: "inception_3b/3x3_reduce"
  param {
    lr_mult: 1
    decay_mult: 1
  }
  param {
    lr_mult: 2
    decay_mult: 0
  }
  convolution_param {
    num_output: 128
    kernel_size: 1
    weight_filler {
      type: "xavier"
      std: 0.09
    }
    bias_filler {
      type: "constant"
      value: 0.2
    }
  }
}
layer {
  name: "inception_3b/relu_3x3_reduce"
  type: "ReLU"
  bottom: "inception_3b/3x3_reduce"
  top: "inception_3b/3x3_reduce"
}
layer {
  name: "inception_3b/3x3"
  type: "Convolution"
  bottom: "inception_3b/3x3_reduce"
  top: "inception_3b/3x3"
  param {
    lr_mult: 1
    decay_mult: 1
  }
  param {
    lr_mult: 2
    decay_mult: 0
  }
  convolution_param {
    num_output: 192
    pad: 1
    kernel_size: 3
    weight_filler {
      type: "xavier"
      std: 0.03
    }
    bias_filler {
      type: "constant"
      value: 0.2
    }
  }
}
layer {
  name: "inception_3b/relu_3x3"
  type: "ReLU"
  bottom: "inception_3b/3x3"
  top: "inception_3b/3x3"
}
layer {
  name: "inception_3b/5x5_reduce"
  type: "Convolution"
  bottom: "inception_3a/output"
  top: "inception_3b/5x5_reduce"
  param {
    lr_mult: 1
    decay_mult: 1
  }
  param {
    lr_mult: 2
    decay_mult: 0
  }
  convolution_param {
    num_output: 32
    kernel_size: 1
    weight_filler {
      type: "xavier"
      std: 0.2
    }
    bias_filler {
      type: "constant"
      value: 0.2
    }
  }
}
layer {
  name: "inception_3b/relu_5x5_reduce"
  type: "ReLU"
  bottom: "inception_3b/5x5_reduce"
  top: "inception_3b/5x5_reduce"
}
layer {
  name: "inception_3b/5x5"
  type: "Convolution"
  bottom: "inception_3b/5x5_reduce"
  top: "inception_3b/5x5"
  param {
    lr_mult: 1
    decay_mult: 1
  }
  param {
    lr_mult: 2
    decay_mult: 0
  }
  convolution_param {
    num_output: 96
    pad: 2
    kernel_size: 5
    weight_filler {
      type: "xavier"
      std: 0.03
    }
    bias_filler {
      type: "constant"
      value: 0.2
    }
  }
}
layer {
  name: "inception_3b/relu_5x5"
  type: "ReLU"
  bottom: "inception_3b/5x5"
  top: "inception_3b/5x5"
}
layer {
  name: "inception_3b/pool"
  type: "Pooling"
  bottom: "inception_3a/output"
  top: "inception_3b/pool"
  pooling_param {
    pool: MAX
    kernel_size: 3
    stride: 1
    pad: 1
  }
}
layer {
  name: "inception_3b/pool_proj"
  type: "Convolution"
  bottom: "inception_3b/pool"
  top: "inception_3b/pool_proj"
  param {
    lr_mult: 1
    decay_mult: 1
  }
  param {
    lr_mult: 2
    decay_mult: 0
  }
  convolution_param {
    num_output: 64
    kernel_size: 1
    weight_filler {
      type: "xavier"
      std: 0.1
    }
    bias_filler {
      type: "constant"
      value: 0.2
    }
  }
}
layer {
  name: "inception_3b/relu_pool_proj"
  type: "ReLU"
  bottom: "inception_3b/pool_proj"
  top: "inception_3b/pool_proj"
}
layer {
  name: "inception_3b/output"
  type: "Concat"
  bottom: "inception_3b/1x1"
  bottom: "inception_3b/3x3"
  bottom: "inception_3b/5x5"
  bottom: "inception_3b/pool_proj"
  top: "inception_3b/output"
}
layer {
  name: "pool3/3x3_s2"
  type: "Pooling"
  bottom: "inception_3b/output"
  top: "pool3/3x3_s2"
  pooling_param {
    pool: MAX
    kernel_size: 3
    stride: 2
  }
}
layer {
  name: "inception_4a/1x1"
  type: "Convolution"
  bottom: "pool3/3x3_s2"
  top: "inception_4a/1x1"
  param {
    lr_mult: 1
    decay_mult: 1
  }
  param {
    lr_mult: 2
    decay_mult: 0
  }
  convolution_param {
    num_output: 192
    kernel_size: 1
    weight_filler {
      type: "xavier"
      std: 0.03
    }
    bias_filler {
      type: "constant"
      value: 0.2
    }
  }
}
layer {
  name: "inception_4a/relu_1x1"
  type: "ReLU"
  bottom: "inception_4a/1x1"
  top: "inception_4a/1x1"
}
layer {
  name: "inception_4a/3x3_reduce"
  type: "Convolution"
  bottom: "pool3/3x3_s2"
  top: "inception_4a/3x3_reduce"
  param {
    lr_mult: 1
    decay_mult: 1
  }
  param {
    lr_mult: 2
    decay_mult: 0
  }
  convolution_param {
    num_output: 96
    kernel_size: 1
    weight_filler {
      type: "xavier"
      std: 0.09
    }
    bias_filler {
      type: "constant"
      value: 0.2
    }
  }
}
layer {
  name: "inception_4a/relu_3x3_reduce"
  type: "ReLU"
  bottom: "inception_4a/3x3_reduce"
  top: "inception_4a/3x3_reduce"
}
layer {
  name: "inception_4a/3x3"
  type: "Convolution"
  bottom: "inception_4a/3x3_reduce"
  top: "inception_4a/3x3"
  param {
    lr_mult: 1
    decay_mult: 1
  }
  param {
    lr_mult: 2
    decay_mult: 0
  }
  convolution_param {
    num_output: 208
    pad: 1
    kernel_size: 3
    weight_filler {
      type: "xavier"
      std: 0.03
    }
    bias_filler {
      type: "constant"
      value: 0.2
    }
  }
}
layer {
  name: "inception_4a/relu_3x3"
  type: "ReLU"
  bottom: "inception_4a/3x3"
  top: "inception_4a/3x3"
}
layer {
  name: "inception_4a/5x5_reduce"
  type: "Convolution"
  bottom: "pool3/3x3_s2"
  top: "inception_4a/5x5_reduce"
  param {
    lr_mult: 1
    decay_mult: 1
  }
  param {
    lr_mult: 2
    decay_mult: 0
  }
  convolution_param {
    num_output: 16
    kernel_size: 1
    weight_filler {
      type: "xavier"
      std: 0.2
    }
    bias_filler {
      type: "constant"
      value: 0.2
    }
  }
}
layer {
  name: "inception_4a/relu_5x5_reduce"
  type: "ReLU"
  bottom: "inception_4a/5x5_reduce"
  top: "inception_4a/5x5_reduce"
}
layer {
  name: "inception_4a/5x5"
  type: "Convolution"
  bottom: "inception_4a/5x5_reduce"
  top: "inception_4a/5x5"
  param {
    lr_mult: 1
    decay_mult: 1
  }
  param {
    lr_mult: 2
    decay_mult: 0
  }
  convolution_param {
    num_output: 48
    pad: 2
    kernel_size: 5
    weight_filler {
      type: "xavier"
      std: 0.03
    }
    bias_filler {
      type: "constant"
      value: 0.2
    }
  }
}
layer {
  name: "inception_4a/relu_5x5"
  type: "ReLU"
  bottom: "inception_4a/5x5"
  top: "inception_4a/5x5"
}
layer {
  name: "inception_4a/pool"
  type: "Pooling"
  bottom: "pool3/3x3_s2"
  top: "inception_4a/pool"
  pooling_param {
    pool: MAX
    kernel_size: 3
    stride: 1
    pad: 1
  }
}
layer {
  name: "inception_4a/pool_proj"
  type: "Convolution"
  bottom: "inception_4a/pool"
  top: "inception_4a/pool_proj"
  param {
    lr_mult: 1
    decay_mult: 1
  }
  param {
    lr_mult: 2
    decay_mult: 0
  }
  convolution_param {
    num_output: 64
    kernel_size: 1
    weight_filler {
      type: "xavier"
      std: 0.1
    }
    bias_filler {
      type: "constant"
      value: 0.2
    }
  }
}
layer {
  name: "inception_4a/relu_pool_proj"
  type: "ReLU"
  bottom: "inception_4a/pool_proj"
  top: "inception_4a/pool_proj"
}
layer {
  name: "inception_4a/output"
  type: "Concat"
  bottom: "inception_4a/1x1"
  bottom: "inception_4a/3x3"
  bottom: "inception_4a/5x5"
  bottom: "inception_4a/pool_proj"
  top: "inception_4a/output"
}
layer {
  name: "loss1/ave_pool"
  type: "Pooling"
  bottom: "inception_4a/output"
  top: "loss1/ave_pool"
  pooling_param {
    pool: AVE
    kernel_size: 5
    stride: 3
  }
}
layer {
  name: "loss1/conv"
  type: "Convolution"
  bottom: "loss1/ave_pool"
  top: "loss1/conv"
  param {
    lr_mult: 1
    decay_mult: 1
  }
  param {
    lr_mult: 2
    decay_mult: 0
  }
  convolution_param {
    num_output: 128
    kernel_size: 1
    weight_filler {
      type: "xavier"
      std: 0.08
    }
    bias_filler {
      type: "constant"
      value: 0.2
    }
  }
}
layer {
  name: "loss1/relu_conv"
  type: "ReLU"
  bottom: "loss1/conv"
  top: "loss1/conv"
}
layer {
  name: "loss1/fc"
  type: "InnerProduct"
  bottom: "loss1/conv"
  top: "loss1/fc"
  param {
    lr_mult: 1
    decay_mult: 1
  }
  param {
    lr_mult: 2
    decay_mult: 0
  }
  inner_product_param {
    num_output: 1024
    weight_filler {
      type: "xavier"
      std: 0.02
    }
    bias_filler {
      type: "constant"
      value: 0.2
    }
  }
}
layer {
  name: "loss1/relu_fc"
  type: "ReLU"
  bottom: "loss1/fc"
  top: "loss1/fc"
}
layer {
  name: "loss1/drop_fc"
  type: "Dropout"
  bottom: "loss1/fc"
  top: "loss1/fc"
  dropout_param {
    dropout_ratio: 0.7
  }
}
layer {
  name: "loss1/classifier_plantvillage"
  type: "InnerProduct"
  bottom: "loss1/fc"
  top: "loss1/classifier_plantvillage"
  param {
    lr_mult: 1
    decay_mult: 1
  }
  param {
    lr_mult: 2
    decay_mult: 0
  }
  inner_product_param {
    num_output: 38
    weight_filler {
      type: "xavier"
      std: 0.0009765625
    }
    bias_filler {
      type: "constant"
      value: 0
    }
  }
}
layer {
  name: "inception_4b/1x1"
  type: "Convolution"
  bottom: "inception_4a/output"
  top: "inception_4b/1x1"
  param {
    lr_mult: 1
    decay_mult: 1
  }
  param {
    lr_mult: 2
    decay_mult: 0
  }
  convolution_param {
    num_output: 160
    kernel_size: 1
    weight_filler {
      type: "xavier"
      std: 0.03
    }
    bias_filler {
      type: "constant"
      value: 0.2
    }
  }
}
layer {
  name: "inception_4b/relu_1x1"
  type: "ReLU"
  bottom: "inception_4b/1x1"
  top: "inception_4b/1x1"
}
layer {
  name: "inception_4b/3x3_reduce"
  type: "Convolution"
  bottom: "inception_4a/output"
  top: "inception_4b/3x3_reduce"
  param {
    lr_mult: 1
    decay_mult: 1
  }
  param {
    lr_mult: 2
    decay_mult: 0
  }
  convolution_param {
    num_output: 112
    kernel_size: 1
    weight_filler {
      type: "xavier"
      std: 0.09
    }
    bias_filler {
      type: "constant"
      value: 0.2
    }
  }
}
layer {
  name: "inception_4b/relu_3x3_reduce"
  type: "ReLU"
  bottom: "inception_4b/3x3_reduce"
  top: "inception_4b/3x3_reduce"
}
layer {
  name: "inception_4b/3x3"
  type: "Convolution"
  bottom: "inception_4b/3x3_reduce"
  top: "inception_4b/3x3"
  param {
    lr_mult: 1
    decay_mult: 1
  }
  param {
    lr_mult: 2
    decay_mult: 0
  }
  convolution_param {
    num_output: 224
    pad: 1
    kernel_size: 3
    weight_filler {
      type: "xavier"
      std: 0.03
    }
    bias_filler {
      type: "constant"
      value: 0.2
    }
  }
}
layer {
  name: "inception_4b/relu_3x3"
  type: "ReLU"
  bottom: "inception_4b/3x3"
  top: "inception_4b/3x3"
}
layer {
  name: "inception_4b/5x5_reduce"
  type: "Convolution"
  bottom: "inception_4a/output"
  top: "inception_4b/5x5_reduce"
  param {
    lr_mult: 1
    decay_mult: 1
  }
  param {
    lr_mult: 2
    decay_mult: 0
  }
  convolution_param {
    num_output: 24
    kernel_size: 1
    weight_filler {
      type: "xavier"
      std: 0.2
    }
    bias_filler {
      type: "constant"
      value: 0.2
    }
  }
}
layer {
  name: "inception_4b/relu_5x5_reduce"
  type: "ReLU"
  bottom: "inception_4b/5x5_reduce"
  top: "inception_4b/5x5_reduce"
}
layer {
  name: "inception_4b/5x5"
  type: "Convolution"
  bottom: "inception_4b/5x5_reduce"
  top: "inception_4b/5x5"
  param {
    lr_mult: 1
    decay_mult: 1
  }
  param {
    lr_mult: 2
    decay_mult: 0
  }
  convolution_param {
    num_output: 64
    pad: 2
    kernel_size: 5
    weight_filler {
      type: "xavier"
      std: 0.03
    }
    bias_filler {
      type: "constant"
      value: 0.2
    }
  }
}
layer {
  name: "inception_4b/relu_5x5"
  type: "ReLU"
  bottom: "inception_4b/5x5"
  top: "inception_4b/5x5"
}
layer {
  name: "inception_4b/pool"
  type: "Pooling"
  bottom: "inception_4a/output"
  top: "inception_4b/pool"
  pooling_param {
    pool: MAX
    kernel_size: 3
    stride: 1
    pad: 1
  }
}
layer {
  name: "inception_4b/pool_proj"
  type: "Convolution"
  bottom: "inception_4b/pool"
  top: "inception_4b/pool_proj"
  param {
    lr_mult: 1
    decay_mult: 1
  }
  param {
    lr_mult: 2
    decay_mult: 0
  }
  convolution_param {
    num_output: 64
    kernel_size: 1
    weight_filler {
      type: "xavier"
      std: 0.1
    }
    bias_filler {
      type: "constant"
      value: 0.2
    }
  }
}
layer {
  name: "inception_4b/relu_pool_proj"
  type: "ReLU"
  bottom: "inception_4b/pool_proj"
  top: "inception_4b/pool_proj"
}
layer {
  name: "inception_4b/output"
  type: "Concat"
  bottom: "inception_4b/1x1"
  bottom: "inception_4b/3x3"
  bottom: "inception_4b/5x5"
  bottom: "inception_4b/pool_proj"
  top: "inception_4b/output"
}
layer {
  name: "inception_4c/1x1"
  type: "Convolution"
  bottom: "inception_4b/output"
  top: "inception_4c/1x1"
  param {
    lr_mult: 1
    decay_mult: 1
  }
  param {
    lr_mult: 2
    decay_mult: 0
  }
  convolution_param {
    num_output: 128
    kernel_size: 1
    weight_filler {
      type: "xavier"
      std: 0.03
    }
    bias_filler {
      type: "constant"
      value: 0.2
    }
  }
}
layer {
  name: "inception_4c/relu_1x1"
  type: "ReLU"
  bottom: "inception_4c/1x1"
  top: "inception_4c/1x1"
}
layer {
  name: "inception_4c/3x3_reduce"
  type: "Convolution"
  bottom: "inception_4b/output"
  top: "inception_4c/3x3_reduce"
  param {
    lr_mult: 1
    decay_mult: 1
  }
  param {
    lr_mult: 2
    decay_mult: 0
  }
  convolution_param {
    num_output: 128
    kernel_size: 1
    weight_filler {
      type: "xavier"
      std: 0.09
    }
    bias_filler {
      type: "constant"
      value: 0.2
    }
  }
}
layer {
  name: "inception_4c/relu_3x3_reduce"
  type: "ReLU"
  bottom: "inception_4c/3x3_reduce"
  top: "inception_4c/3x3_reduce"
}
layer {
  name: "inception_4c/3x3"
  type: "Convolution"
  bottom: "inception_4c/3x3_reduce"
  top: "inception_4c/3x3"
  param {
    lr_mult: 1
    decay_mult: 1
  }
  param {
    lr_mult: 2
    decay_mult: 0
  }
  convolution_param {
    num_output: 256
    pad: 1
    kernel_size: 3
    weight_filler {
      type: "xavier"
      std: 0.03
    }
    bias_filler {
      type: "constant"
      value: 0.2
    }
  }
}
layer {
  name: "inception_4c/relu_3x3"
  type: "ReLU"
  bottom: "inception_4c/3x3"
  top: "inception_4c/3x3"
}
layer {
  name: "inception_4c/5x5_reduce"
  type: "Convolution"
  bottom: "inception_4b/output"
  top: "inception_4c/5x5_reduce"
  param {
    lr_mult: 1
    decay_mult: 1
  }
  param {
    lr_mult: 2
    decay_mult: 0
  }
  convolution_param {
    num_output: 24
    kernel_size: 1
    weight_filler {
      type: "xavier"
      std: 0.2
    }
    bias_filler {
      type: "constant"
      value: 0.2
    }
  }
}
layer {
  name: "inception_4c/relu_5x5_reduce"
  type: "ReLU"
  bottom: "inception_4c/5x5_reduce"
  top: "inception_4c/5x5_reduce"
}
layer {
  name: "inception_4c/5x5"
  type: "Convolution"
  bottom: "inception_4c/5x5_reduce"
  top: "inception_4c/5x5"
  param {
    lr_mult: 1
    decay_mult: 1
  }
  param {
    lr_mult: 2
    decay_mult: 0
  }
  convolution_param {
    num_output: 64
    pad: 2
    kernel_size: 5
    weight_filler {
      type: "xavier"
      std: 0.03
    }
    bias_filler {
      type: "constant"
      value: 0.2
    }
  }
}
layer {
  name: "inception_4c/relu_5x5"
  type: "ReLU"
  bottom: "inception_4c/5x5"
  top: "inception_4c/5x5"
}
layer {
  name: "inception_4c/pool"
  type: "Pooling"
  bottom: "inception_4b/output"
  top: "inception_4c/pool"
  pooling_param {
    pool: MAX
    kernel_size: 3
    stride: 1
    pad: 1
  }
}
layer {
  name: "inception_4c/pool_proj"
  type: "Convolution"
  bottom: "inception_4c/pool"
  top: "inception_4c/pool_proj"
  param {
    lr_mult: 1
    decay_mult: 1
  }
  param {
    lr_mult: 2
    decay_mult: 0
  }
  convolution_param {
    num_output: 64
    kernel_size: 1
    weight_filler {
      type: "xavier"
      std: 0.1
    }
    bias_filler {
      type: "constant"
      value: 0.2
    }
  }
}
layer {
  name: "inception_4c/relu_pool_proj"
  type: "ReLU"
  bottom: "inception_4c/pool_proj"
  top: "inception_4c/pool_proj"
}
layer {
  name: "inception_4c/output"
  type: "Concat"
  bottom: "inception_4c/1x1"
  bottom: "inception_4c/3x3"
  bottom: "inception_4c/5x5"
  bottom: "inception_4c/pool_proj"
  top: "inception_4c/output"
}
layer {
  name: "inception_4d/1x1"
  type: "Convolution"
  bottom: "inception_4c/output"
  top: "inception_4d/1x1"
  param {
    lr_mult: 1
    decay_mult: 1
  }
  param {
    lr_mult: 2
    decay_mult: 0
  }
  convolution_param {
    num_output: 112
    kernel_size: 1
    weight_filler {
      type: "xavier"
      std: 0.03
    }
    bias_filler {
      type: "constant"
      value: 0.2
    }
  }
}
layer {
  name: "inception_4d/relu_1x1"
  type: "ReLU"
  bottom: "inception_4d/1x1"
  top: "inception_4d/1x1"
}
layer {
  name: "inception_4d/3x3_reduce"
  type: "Convolution"
  bottom: "inception_4c/output"
  top: "inception_4d/3x3_reduce"
  param {
    lr_mult: 1
    decay_mult: 1
  }
  param {
    lr_mult: 2
    decay_mult: 0
  }
  convolution_param {
    num_output: 144
    kernel_size: 1
    weight_filler {
      type: "xavier"
      std: 0.09
    }
    bias_filler {
      type: "constant"
      value: 0.2
    }
  }
}
layer {
  name: "inception_4d/relu_3x3_reduce"
  type: "ReLU"
  bottom: "inception_4d/3x3_reduce"
  top: "inception_4d/3x3_reduce"
}
layer {
  name: "inception_4d/3x3"
  type: "Convolution"
  bottom: "inception_4d/3x3_reduce"
  top: "inception_4d/3x3"
  param {
    lr_mult: 1
    decay_mult: 1
  }
  param {
    lr_mult: 2
    decay_mult: 0
  }
  convolution_param {
    num_output: 288
    pad: 1
    kernel_size: 3
    weight_filler {
      type: "xavier"
      std: 0.03
    }
    bias_filler {
      type: "constant"
      value: 0.2
    }
  }
}
layer {
  name: "inception_4d/relu_3x3"
  type: "ReLU"
  bottom: "inception_4d/3x3"
  top: "inception_4d/3x3"
}
layer {
  name: "inception_4d/5x5_reduce"
  type: "Convolution"
  bottom: "inception_4c/output"
  top: "inception_4d/5x5_reduce"
  param {
    lr_mult: 1
    decay_mult: 1
  }
  param {
    lr_mult: 2
    decay_mult: 0
  }
  convolution_param {
    num_output: 32
    kernel_size: 1
    weight_filler {
      type: "xavier"
      std: 0.2
    }
    bias_filler {
      type: "constant"
      value: 0.2
    }
  }
}
layer {
  name: "inception_4d/relu_5x5_reduce"
  type: "ReLU"
  bottom: "inception_4d/5x5_reduce"
  top: "inception_4d/5x5_reduce"
}
layer {
  name: "inception_4d/5x5"
  type: "Convolution"
  bottom: "inception_4d/5x5_reduce"
  top: "inception_4d/5x5"
  param {
    lr_mult: 1
    decay_mult: 1
  }
  param {
    lr_mult: 2
    decay_mult: 0
  }
  convolution_param {
    num_output: 64
    pad: 2
    kernel_size: 5
    weight_filler {
      type: "xavier"
      std: 0.03
    }
    bias_filler {
      type: "constant"
      value: 0.2
    }
  }
}
layer {
  name: "inception_4d/relu_5x5"
  type: "ReLU"
  bottom: "inception_4d/5x5"
  top: "inception_4d/5x5"
}
layer {
  name: "inception_4d/pool"
  type: "Pooling"
  bottom: "inception_4c/output"
  top: "inception_4d/pool"
  pooling_param {
    pool: MAX
    kernel_size: 3
    stride: 1
    pad: 1
  }
}
layer {
  name: "inception_4d/pool_proj"
  type: "Convolution"
  bottom: "inception_4d/pool"
  top: "inception_4d/pool_proj"
  param {
    lr_mult: 1
    decay_mult: 1
  }
  param {
    lr_mult: 2
    decay_mult: 0
  }
  convolution_param {
    num_output: 64
    kernel_size: 1
    weight_filler {
      type: "xavier"
      std: 0.1
    }
    bias_filler {
      type: "constant"
      value: 0.2
    }
  }
}
layer {
  name: "inception_4d/relu_pool_proj"
  type: "ReLU"
  bottom: "inception_4d/pool_proj"
  top: "inception_4d/pool_proj"
}
layer {
  name: "inception_4d/output"
  type: "Concat"
  bottom: "inception_4d/1x1"
  bottom: "inception_4d/3x3"
  bottom: "inception_4d/5x5"
  bottom: "inception_4d/pool_proj"
  top: "inception_4d/output"
}
layer {
  name: "loss2/ave_pool"
  type: "Pooling"
  bottom: "inception_4d/output"
  top: "loss2/ave_pool"
  pooling_param {
    pool: AVE
    kernel_size: 5
    stride: 3
  }
}
layer {
  name: "loss2/conv"
  type: "Convolution"
  bottom: "loss2/ave_pool"
  top: "loss2/conv"
  param {
    lr_mult: 1
    decay_mult: 1
  }
  param {
    lr_mult: 2
    decay_mult: 0
  }
  convolution_param {
    num_output: 128
    kernel_size: 1
    weight_filler {
      type: "xavier"
      std: 0.08
    }
    bias_filler {
      type: "constant"
      value: 0.2
    }
  }
}
layer {
  name: "loss2/relu_conv"
  type: "ReLU"
  bottom: "loss2/conv"
  top: "loss2/conv"
}
layer {
  name: "loss2/fc"
  type: "InnerProduct"
  bottom: "loss2/conv"
  top: "loss2/fc"
  param {
    lr_mult: 1
    decay_mult: 1
  }
  param {
    lr_mult: 2
    decay_mult: 0
  }
  inner_product_param {
    num_output: 1024
    weight_filler {
      type: "xavier"
      std: 0.02
    }
    bias_filler {
      type: "constant"
      value: 0.2
    }
  }
}
layer {
  name: "loss2/relu_fc"
  type: "ReLU"
  bottom: "loss2/fc"
  top: "loss2/fc"
}
layer {
  name: "loss2/drop_fc"
  type: "Dropout"
  bottom: "loss2/fc"
  top: "loss2/fc"
  dropout_param {
    dropout_ratio: 0.7
  }
}
layer {
  name: "loss2/classifier_plantvillage"
  type: "InnerProduct"
  bottom: "loss2/fc"
  top: "loss2/classifier_plantvillage"
  param {
    lr_mult: 1
    decay_mult: 1
  }
  param {
    lr_mult: 2
    decay_mult: 0
  }
  inner_product_param {
    num_output: 38
    weight_filler {
      type: "xavier"
      std: 0.0009765625
    }
    bias_filler {
      type: "constant"
      value: 0
    }
  }
}
layer {
  name: "inception_4e/1x1"
  type: "Convolution"
  bottom: "inception_4d/output"
  top: "inception_4e/1x1"
  param {
    lr_mult: 1
    decay_mult: 1
  }
  param {
    lr_mult: 2
    decay_mult: 0
  }
  convolution_param {
    num_output: 256
    kernel_size: 1
    weight_filler {
      type: "xavier"
      std: 0.03
    }
    bias_filler {
      type: "constant"
      value: 0.2
    }
  }
}
layer {
  name: "inception_4e/relu_1x1"
  type: "ReLU"
  bottom: "inception_4e/1x1"
  top: "inception_4e/1x1"
}
layer {
  name: "inception_4e/3x3_reduce"
  type: "Convolution"
  bottom: "inception_4d/output"
  top: "inception_4e/3x3_reduce"
  param {
    lr_mult: 1
    decay_mult: 1
  }
  param {
    lr_mult: 2
    decay_mult: 0
  }
  convolution_param {
    num_output: 160
    kernel_size: 1
    weight_filler {
      type: "xavier"
      std: 0.09
    }
    bias_filler {
      type: "constant"
      value: 0.2
    }
  }
}
layer {
  name: "inception_4e/relu_3x3_reduce"
  type: "ReLU"
  bottom: "inception_4e/3x3_reduce"
  top: "inception_4e/3x3_reduce"
}
layer {
  name: "inception_4e/3x3"
  type: "Convolution"
  bottom: "inception_4e/3x3_reduce"
  top: "inception_4e/3x3"
  param {
    lr_mult: 1
    decay_mult: 1
  }
  param {
    lr_mult: 2
    decay_mult: 0
  }
  convolution_param {
    num_output: 320
    pad: 1
    kernel_size: 3
    weight_filler {
      type: "xavier"
      std: 0.03
    }
    bias_filler {
      type: "constant"
      value: 0.2
    }
  }
}
layer {
  name: "inception_4e/relu_3x3"
  type: "ReLU"
  bottom: "inception_4e/3x3"
  top: "inception_4e/3x3"
}
layer {
  name: "inception_4e/5x5_reduce"
  type: "Convolution"
  bottom: "inception_4d/output"
  top: "inception_4e/5x5_reduce"
  param {
    lr_mult: 1
    decay_mult: 1
  }
  param {
    lr_mult: 2
    decay_mult: 0
  }
  convolution_param {
    num_output: 32
    kernel_size: 1
    weight_filler {
      type: "xavier"
      std: 0.2
    }
    bias_filler {
      type: "constant"
      value: 0.2
    }
  }
}
layer {
  name: "inception_4e/relu_5x5_reduce"
  type: "ReLU"
  bottom: "inception_4e/5x5_reduce"
  top: "inception_4e/5x5_reduce"
}
layer {
  name: "inception_4e/5x5"
  type: "Convolution"
  bottom: "inception_4e/5x5_reduce"
  top: "inception_4e/
I0403 15:49:43.050282 11459 layer_factory.hpp:77] Creating layer data
I0403 15:49:43.050859 11459 net.cpp:91] Creating Layer data
I0403 15:49:43.050892 11459 net.cpp:399] data -> data
I0403 15:49:43.050945 11459 net.cpp:399] data -> label
I0403 15:49:43.050986 11459 data_transformer.cpp:25] Loading mean file from: /home/mohanty/data/final_dataset/lmdb/segmented-80-20/mean.binaryproto
I0403 15:49:43.053884 11471 db_lmdb.cpp:38] Opened lmdb /home/mohanty/data/final_dataset/lmdb/segmented-80-20/test_db
I0403 15:49:43.063875 11459 data_layer.cpp:41] output data size: 24,3,224,224
I0403 15:49:43.091425 11459 net.cpp:141] Setting up data
I0403 15:49:43.091513 11459 net.cpp:148] Top shape: 24 3 224 224 (3612672)
I0403 15:49:43.091536 11459 net.cpp:148] Top shape: 24 (24)
I0403 15:49:43.091552 11459 net.cpp:156] Memory required for data: 14450784
I0403 15:49:43.091579 11459 layer_factory.hpp:77] Creating layer label_data_1_split
I0403 15:49:43.091609 11459 net.cpp:91] Creating Layer label_data_1_split
I0403 15:49:43.091629 11459 net.cpp:425] label_data_1_split <- label
I0403 15:49:43.091660 11459 net.cpp:399] label_data_1_split -> label_data_1_split_0
I0403 15:49:43.091688 11459 net.cpp:399] label_data_1_split -> label_data_1_split_1
I0403 15:49:43.091711 11459 net.cpp:399] label_data_1_split -> label_data_1_split_2
I0403 15:49:43.091733 11459 net.cpp:399] label_data_1_split -> label_data_1_split_3
I0403 15:49:43.091754 11459 net.cpp:399] label_data_1_split -> label_data_1_split_4
I0403 15:49:43.091774 11459 net.cpp:399] label_data_1_split -> label_data_1_split_5
I0403 15:49:43.091794 11459 net.cpp:399] label_data_1_split -> label_data_1_split_6
I0403 15:49:43.091814 11459 net.cpp:399] label_data_1_split -> label_data_1_split_7
I0403 15:49:43.091835 11459 net.cpp:399] label_data_1_split -> label_data_1_split_8
I0403 15:49:43.091856 11459 net.cpp:399] label_data_1_split -> label_data_1_split_9
I0403 15:49:43.091979 11459 net.cpp:141] Setting up label_data_1_split
I0403 15:49:43.092003 11459 net.cpp:148] Top shape: 24 (24)
I0403 15:49:43.092020 11459 net.cpp:148] Top shape: 24 (24)
I0403 15:49:43.092036 11459 net.cpp:148] Top shape: 24 (24)
I0403 15:49:43.092052 11459 net.cpp:148] Top shape: 24 (24)
I0403 15:49:43.092068 11459 net.cpp:148] Top shape: 24 (24)
I0403 15:49:43.092083 11459 net.cpp:148] Top shape: 24 (24)
I0403 15:49:43.092099 11459 net.cpp:148] Top shape: 24 (24)
I0403 15:49:43.092114 11459 net.cpp:148] Top shape: 24 (24)
I0403 15:49:43.092130 11459 net.cpp:148] Top shape: 24 (24)
I0403 15:49:43.092146 11459 net.cpp:148] Top shape: 24 (24)
I0403 15:49:43.092190 11459 net.cpp:156] Memory required for data: 14451744
I0403 15:49:43.092207 11459 layer_factory.hpp:77] Creating layer conv1/7x7_s2
I0403 15:49:43.092239 11459 net.cpp:91] Creating Layer conv1/7x7_s2
I0403 15:49:43.092257 11459 net.cpp:425] conv1/7x7_s2 <- data
I0403 15:49:43.092278 11459 net.cpp:399] conv1/7x7_s2 -> conv1/7x7_s2
I0403 15:49:43.237114 11459 net.cpp:141] Setting up conv1/7x7_s2
I0403 15:49:43.237201 11459 net.cpp:148] Top shape: 24 64 112 112 (19267584)
I0403 15:49:43.237218 11459 net.cpp:156] Memory required for data: 91522080
I0403 15:49:43.237247 11459 layer_factory.hpp:77] Creating layer conv1/relu_7x7
I0403 15:49:43.237273 11459 net.cpp:91] Creating Layer conv1/relu_7x7
I0403 15:49:43.237292 11459 net.cpp:425] conv1/relu_7x7 <- conv1/7x7_s2
I0403 15:49:43.237308 11459 net.cpp:386] conv1/relu_7x7 -> conv1/7x7_s2 (in-place)
I0403 15:49:43.237556 11459 net.cpp:141] Setting up conv1/relu_7x7
I0403 15:49:43.237582 11459 net.cpp:148] Top shape: 24 64 112 112 (19267584)
I0403 15:49:43.237596 11459 net.cpp:156] Memory required for data: 168592416
I0403 15:49:43.237612 11459 layer_factory.hpp:77] Creating layer pool1/3x3_s2
I0403 15:49:43.237634 11459 net.cpp:91] Creating Layer pool1/3x3_s2
I0403 15:49:43.237651 11459 net.cpp:425] pool1/3x3_s2 <- conv1/7x7_s2
I0403 15:49:43.237670 11459 net.cpp:399] pool1/3x3_s2 -> pool1/3x3_s2
I0403 15:49:43.237741 11459 net.cpp:141] Setting up pool1/3x3_s2
I0403 15:49:43.237763 11459 net.cpp:148] Top shape: 24 64 56 56 (4816896)
I0403 15:49:43.237777 11459 net.cpp:156] Memory required for data: 187860000
I0403 15:49:43.237792 11459 layer_factory.hpp:77] Creating layer pool1/norm1
I0403 15:49:43.237815 11459 net.cpp:91] Creating Layer pool1/norm1
I0403 15:49:43.237831 11459 net.cpp:425] pool1/norm1 <- pool1/3x3_s2
I0403 15:49:43.237848 11459 net.cpp:399] pool1/norm1 -> pool1/norm1
I0403 15:49:43.238124 11459 net.cpp:141] Setting up pool1/norm1
I0403 15:49:43.238150 11459 net.cpp:148] Top shape: 24 64 56 56 (4816896)
I0403 15:49:43.238165 11459 net.cpp:156] Memory required for data: 207127584
I0403 15:49:43.238179 11459 layer_factory.hpp:77] Creating layer conv2/3x3_reduce
I0403 15:49:43.238204 11459 net.cpp:91] Creating Layer conv2/3x3_reduce
I0403 15:49:43.238219 11459 net.cpp:425] conv2/3x3_reduce <- pool1/norm1
I0403 15:49:43.238236 11459 net.cpp:399] conv2/3x3_reduce -> conv2/3x3_reduce
I0403 15:49:43.239565 11459 net.cpp:141] Setting up conv2/3x3_reduce
I0403 15:49:43.239594 11459 net.cpp:148] Top shape: 24 64 56 56 (4816896)
I0403 15:49:43.239610 11459 net.cpp:156] Memory required for data: 226395168
I0403 15:49:43.239630 11459 layer_factory.hpp:77] Creating layer conv2/relu_3x3_reduce
I0403 15:49:43.239650 11459 net.cpp:91] Creating Layer conv2/relu_3x3_reduce
I0403 15:49:43.239665 11459 net.cpp:425] conv2/relu_3x3_reduce <- conv2/3x3_reduce
I0403 15:49:43.239682 11459 net.cpp:386] conv2/relu_3x3_reduce -> conv2/3x3_reduce (in-place)
I0403 15:49:43.239938 11459 net.cpp:141] Setting up conv2/relu_3x3_reduce
I0403 15:49:43.239981 11459 net.cpp:148] Top shape: 24 64 56 56 (4816896)
I0403 15:49:43.239997 11459 net.cpp:156] Memory required for data: 245662752
I0403 15:49:43.240012 11459 layer_factory.hpp:77] Creating layer conv2/3x3
I0403 15:49:43.240036 11459 net.cpp:91] Creating Layer conv2/3x3
I0403 15:49:43.240052 11459 net.cpp:425] conv2/3x3 <- conv2/3x3_reduce
I0403 15:49:43.240074 11459 net.cpp:399] conv2/3x3 -> conv2/3x3
I0403 15:49:43.242393 11459 net.cpp:141] Setting up conv2/3x3
I0403 15:49:43.242424 11459 net.cpp:148] Top shape: 24 192 56 56 (14450688)
I0403 15:49:43.242439 11459 net.cpp:156] Memory required for data: 303465504
I0403 15:49:43.242460 11459 layer_factory.hpp:77] Creating layer conv2/relu_3x3
I0403 15:49:43.242480 11459 net.cpp:91] Creating Layer conv2/relu_3x3
I0403 15:49:43.242494 11459 net.cpp:425] conv2/relu_3x3 <- conv2/3x3
I0403 15:49:43.242514 11459 net.cpp:386] conv2/relu_3x3 -> conv2/3x3 (in-place)
I0403 15:49:43.242691 11459 net.cpp:141] Setting up conv2/relu_3x3
I0403 15:49:43.242715 11459 net.cpp:148] Top shape: 24 192 56 56 (14450688)
I0403 15:49:43.242759 11459 net.cpp:156] Memory required for data: 361268256
I0403 15:49:43.242775 11459 layer_factory.hpp:77] Creating layer conv2/norm2
I0403 15:49:43.242795 11459 net.cpp:91] Creating Layer conv2/norm2
I0403 15:49:43.242812 11459 net.cpp:425] conv2/norm2 <- conv2/3x3
I0403 15:49:43.242831 11459 net.cpp:399] conv2/norm2 -> conv2/norm2
I0403 15:49:43.243139 11459 net.cpp:141] Setting up conv2/norm2
I0403 15:49:43.243167 11459 net.cpp:148] Top shape: 24 192 56 56 (14450688)
I0403 15:49:43.243182 11459 net.cpp:156] Memory required for data: 419071008
I0403 15:49:43.243197 11459 layer_factory.hpp:77] Creating layer pool2/3x3_s2
I0403 15:49:43.243214 11459 net.cpp:91] Creating Layer pool2/3x3_s2
I0403 15:49:43.243230 11459 net.cpp:425] pool2/3x3_s2 <- conv2/norm2
I0403 15:49:43.243250 11459 net.cpp:399] pool2/3x3_s2 -> pool2/3x3_s2
I0403 15:49:43.243301 11459 net.cpp:141] Setting up pool2/3x3_s2
I0403 15:49:43.243324 11459 net.cpp:148] Top shape: 24 192 28 28 (3612672)
I0403 15:49:43.243337 11459 net.cpp:156] Memory required for data: 433521696
I0403 15:49:43.243352 11459 layer_factory.hpp:77] Creating layer pool2/3x3_s2_pool2/3x3_s2_0_split
I0403 15:49:43.243371 11459 net.cpp:91] Creating Layer pool2/3x3_s2_pool2/3x3_s2_0_split
I0403 15:49:43.243387 11459 net.cpp:425] pool2/3x3_s2_pool2/3x3_s2_0_split <- pool2/3x3_s2
I0403 15:49:43.243404 11459 net.cpp:399] pool2/3x3_s2_pool2/3x3_s2_0_split -> pool2/3x3_s2_pool2/3x3_s2_0_split_0
I0403 15:49:43.243423 11459 net.cpp:399] pool2/3x3_s2_pool2/3x3_s2_0_split -> pool2/3x3_s2_pool2/3x3_s2_0_split_1
I0403 15:49:43.243443 11459 net.cpp:399] pool2/3x3_s2_pool2/3x3_s2_0_split -> pool2/3x3_s2_pool2/3x3_s2_0_split_2
I0403 15:49:43.243464 11459 net.cpp:399] pool2/3x3_s2_pool2/3x3_s2_0_split -> pool2/3x3_s2_pool2/3x3_s2_0_split_3
I0403 15:49:43.243537 11459 net.cpp:141] Setting up pool2/3x3_s2_pool2/3x3_s2_0_split
I0403 15:49:43.243559 11459 net.cpp:148] Top shape: 24 192 28 28 (3612672)
I0403 15:49:43.243576 11459 net.cpp:148] Top shape: 24 192 28 28 (3612672)
I0403 15:49:43.243589 11459 net.cpp:148] Top shape: 24 192 28 28 (3612672)
I0403 15:49:43.243604 11459 net.cpp:148] Top shape: 24 192 28 28 (3612672)
I0403 15:49:43.243618 11459 net.cpp:156] Memory required for data: 491324448
I0403 15:49:43.243633 11459 layer_factory.hpp:77] Creating layer inception_3a/1x1
I0403 15:49:43.243654 11459 net.cpp:91] Creating Layer inception_3a/1x1
I0403 15:49:43.243670 11459 net.cpp:425] inception_3a/1x1 <- pool2/3x3_s2_pool2/3x3_s2_0_split_0
I0403 15:49:43.243691 11459 net.cpp:399] inception_3a/1x1 -> inception_3a/1x1
I0403 15:49:43.245223 11459 net.cpp:141] Setting up inception_3a/1x1
I0403 15:49:43.245254 11459 net.cpp:148] Top shape: 24 64 28 28 (1204224)
I0403 15:49:43.245270 11459 net.cpp:156] Memory required for data: 496141344
I0403 15:49:43.245288 11459 layer_factory.hpp:77] Creating layer inception_3a/relu_1x1
I0403 15:49:43.245307 11459 net.cpp:91] Creating Layer inception_3a/relu_1x1
I0403 15:49:43.245322 11459 net.cpp:425] inception_3a/relu_1x1 <- inception_3a/1x1
I0403 15:49:43.245342 11459 net.cpp:386] inception_3a/relu_1x1 -> inception_3a/1x1 (in-place)
I0403 15:49:43.245514 11459 net.cpp:141] Setting up inception_3a/relu_1x1
I0403 15:49:43.245538 11459 net.cpp:148] Top shape: 24 64 28 28 (1204224)
I0403 15:49:43.245553 11459 net.cpp:156] Memory required for data: 500958240
I0403 15:49:43.245568 11459 layer_factory.hpp:77] Creating layer inception_3a/3x3_reduce
I0403 15:49:43.245589 11459 net.cpp:91] Creating Layer inception_3a/3x3_reduce
I0403 15:49:43.245605 11459 net.cpp:425] inception_3a/3x3_reduce <- pool2/3x3_s2_pool2/3x3_s2_0_split_1
I0403 15:49:43.245626 11459 net.cpp:399] inception_3a/3x3_reduce -> inception_3a/3x3_reduce
I0403 15:49:43.247315 11459 net.cpp:141] Setting up inception_3a/3x3_reduce
I0403 15:49:43.247344 11459 net.cpp:148] Top shape: 24 96 28 28 (1806336)
I0403 15:49:43.247360 11459 net.cpp:156] Memory required for data: 508183584
I0403 15:49:43.247381 11459 layer_factory.hpp:77] Creating layer inception_3a/relu_3x3_reduce
I0403 15:49:43.247418 11459 net.cpp:91] Creating Layer inception_3a/relu_3x3_reduce
I0403 15:49:43.247436 11459 net.cpp:425] inception_3a/relu_3x3_reduce <- inception_3a/3x3_reduce
I0403 15:49:43.247453 11459 net.cpp:386] inception_3a/relu_3x3_reduce -> inception_3a/3x3_reduce (in-place)
I0403 15:49:43.247635 11459 net.cpp:141] Setting up inception_3a/relu_3x3_reduce
I0403 15:49:43.247663 11459 net.cpp:148] Top shape: 24 96 28 28 (1806336)
I0403 15:49:43.247678 11459 net.cpp:156] Memory required for data: 515408928
I0403 15:49:43.247692 11459 layer_factory.hpp:77] Creating layer inception_3a/3x3
I0403 15:49:43.247714 11459 net.cpp:91] Creating Layer inception_3a/3x3
I0403 15:49:43.247730 11459 net.cpp:425] inception_3a/3x3 <- inception_3a/3x3_reduce
I0403 15:49:43.247748 11459 net.cpp:399] inception_3a/3x3 -> inception_3a/3x3
I0403 15:49:43.249398 11459 net.cpp:141] Setting up inception_3a/3x3
I0403 15:49:43.249426 11459 net.cpp:148] Top shape: 24 128 28 28 (2408448)
I0403 15:49:43.249442 11459 net.cpp:156] Memory required for data: 525042720
I0403 15:49:43.249460 11459 layer_factory.hpp:77] Creating layer inception_3a/relu_3x3
I0403 15:49:43.249480 11459 net.cpp:91] Creating Layer inception_3a/relu_3x3
I0403 15:49:43.249496 11459 net.cpp:425] inception_3a/relu_3x3 <- inception_3a/3x3
I0403 15:49:43.249513 11459 net.cpp:386] inception_3a/relu_3x3 -> inception_3a/3x3 (in-place)
I0403 15:49:43.249784 11459 net.cpp:141] Setting up inception_3a/relu_3x3
I0403 15:49:43.249810 11459 net.cpp:148] Top shape: 24 128 28 28 (2408448)
I0403 15:49:43.249825 11459 net.cpp:156] Memory required for data: 534676512
I0403 15:49:43.249840 11459 layer_factory.hpp:77] Creating layer inception_3a/5x5_reduce
I0403 15:49:43.249861 11459 net.cpp:91] Creating Layer inception_3a/5x5_reduce
I0403 15:49:43.249878 11459 net.cpp:425] inception_3a/5x5_reduce <- pool2/3x3_s2_pool2/3x3_s2_0_split_2
I0403 15:49:43.249899 11459 net.cpp:399] inception_3a/5x5_reduce -> inception_3a/5x5_reduce
I0403 15:49:43.250850 11459 net.cpp:141] Setting up inception_3a/5x5_reduce
I0403 15:49:43.250877 11459 net.cpp:148] Top shape: 24 16 28 28 (301056)
I0403 15:49:43.250892 11459 net.cpp:156] Memory required for data: 535880736
I0403 15:49:43.250910 11459 layer_factory.hpp:77] Creating layer inception_3a/relu_5x5_reduce
I0403 15:49:43.250931 11459 net.cpp:91] Creating Layer inception_3a/relu_5x5_reduce
I0403 15:49:43.250951 11459 net.cpp:425] inception_3a/relu_5x5_reduce <- inception_3a/5x5_reduce
I0403 15:49:43.250969 11459 net.cpp:386] inception_3a/relu_5x5_reduce -> inception_3a/5x5_reduce (in-place)
I0403 15:49:43.251269 11459 net.cpp:141] Setting up inception_3a/relu_5x5_reduce
I0403 15:49:43.251294 11459 net.cpp:148] Top shape: 24 16 28 28 (301056)
I0403 15:49:43.251309 11459 net.cpp:156] Memory required for data: 537084960
I0403 15:49:43.251324 11459 layer_factory.hpp:77] Creating layer inception_3a/5x5
I0403 15:49:43.251346 11459 net.cpp:91] Creating Layer inception_3a/5x5
I0403 15:49:43.251363 11459 net.cpp:425] inception_3a/5x5 <- inception_3a/5x5_reduce
I0403 15:49:43.251384 11459 net.cpp:399] inception_3a/5x5 -> inception_3a/5x5
I0403 15:49:43.252396 11459 net.cpp:141] Setting up inception_3a/5x5
I0403 15:49:43.252424 11459 net.cpp:148] Top shape: 24 32 28 28 (602112)
I0403 15:49:43.252439 11459 net.cpp:156] Memory required for data: 539493408
I0403 15:49:43.252457 11459 layer_factory.hpp:77] Creating layer inception_3a/relu_5x5
I0403 15:49:43.252475 11459 net.cpp:91] Creating Layer inception_3a/relu_5x5
I0403 15:49:43.252490 11459 net.cpp:425] inception_3a/relu_5x5 <- inception_3a/5x5
I0403 15:49:43.252511 11459 net.cpp:386] inception_3a/relu_5x5 -> inception_3a/5x5 (in-place)
I0403 15:49:43.252682 11459 net.cpp:141] Setting up inception_3a/relu_5x5
I0403 15:49:43.252707 11459 net.cpp:148] Top shape: 24 32 28 28 (602112)
I0403 15:49:43.252720 11459 net.cpp:156] Memory required for data: 541901856
I0403 15:49:43.252735 11459 layer_factory.hpp:77] Creating layer inception_3a/pool
I0403 15:49:43.252755 11459 net.cpp:91] Creating Layer inception_3a/pool
I0403 15:49:43.252784 11459 net.cpp:425] inception_3a/pool <- pool2/3x3_s2_pool2/3x3_s2_0_split_3
I0403 15:49:43.252802 11459 net.cpp:399] inception_3a/pool -> inception_3a/pool
I0403 15:49:43.252859 11459 net.cpp:141] Setting up inception_3a/pool
I0403 15:49:43.252882 11459 net.cpp:148] Top shape: 24 192 28 28 (3612672)
I0403 15:49:43.252897 11459 net.cpp:156] Memory required for data: 556352544
I0403 15:49:43.252910 11459 layer_factory.hpp:77] Creating layer inception_3a/pool_proj
I0403 15:49:43.252931 11459 net.cpp:91] Creating Layer inception_3a/pool_proj
I0403 15:49:43.252953 11459 net.cpp:425] inception_3a/pool_proj <- inception_3a/pool
I0403 15:49:43.252974 11459 net.cpp:399] inception_3a/pool_proj -> inception_3a/pool_proj
I0403 15:49:43.253942 11459 net.cpp:141] Setting up inception_3a/pool_proj
I0403 15:49:43.253973 11459 net.cpp:148] Top shape: 24 32 28 28 (602112)
I0403 15:49:43.253989 11459 net.cpp:156] Memory required for data: 558760992
I0403 15:49:43.254014 11459 layer_factory.hpp:77] Creating layer inception_3a/relu_pool_proj
I0403 15:49:43.254034 11459 net.cpp:91] Creating Layer inception_3a/relu_pool_proj
I0403 15:49:43.254051 11459 net.cpp:425] inception_3a/relu_pool_proj <- inception_3a/pool_proj
I0403 15:49:43.254068 11459 net.cpp:386] inception_3a/relu_pool_proj -> inception_3a/pool_proj (in-place)
I0403 15:49:43.254354 11459 net.cpp:141] Setting up inception_3a/relu_pool_proj
I0403 15:49:43.254379 11459 net.cpp:148] Top shape: 24 32 28 28 (602112)
I0403 15:49:43.254393 11459 net.cpp:156] Memory required for data: 561169440
I0403 15:49:43.254408 11459 layer_factory.hpp:77] Creating layer inception_3a/output
I0403 15:49:43.254426 11459 net.cpp:91] Creating Layer inception_3a/output
I0403 15:49:43.254441 11459 net.cpp:425] inception_3a/output <- inception_3a/1x1
I0403 15:49:43.254457 11459 net.cpp:425] inception_3a/output <- inception_3a/3x3
I0403 15:49:43.254472 11459 net.cpp:425] inception_3a/output <- inception_3a/5x5
I0403 15:49:43.254488 11459 net.cpp:425] inception_3a/output <- inception_3a/pool_proj
I0403 15:49:43.254508 11459 net.cpp:399] inception_3a/output -> inception_3a/output
I0403 15:49:43.254554 11459 net.cpp:141] Setting up inception_3a/output
I0403 15:49:43.254578 11459 net.cpp:148] Top shape: 24 256 28 28 (4816896)
I0403 15:49:43.254595 11459 net.cpp:156] Memory required for data: 580437024
I0403 15:49:43.254608 11459 layer_factory.hpp:77] Creating layer inception_3a/output_inception_3a/output_0_split
I0403 15:49:43.254624 11459 net.cpp:91] Creating Layer inception_3a/output_inception_3a/output_0_split
I0403 15:49:43.254640 11459 net.cpp:425] inception_3a/output_inception_3a/output_0_split <- inception_3a/output
I0403 15:49:43.254659 11459 net.cpp:399] inception_3a/output_inception_3a/output_0_split -> inception_3a/output_inception_3a/output_0_split_0
I0403 15:49:43.254679 11459 net.cpp:399] inception_3a/output_inception_3a/output_0_split -> inception_3a/output_inception_3a/output_0_split_1
I0403 15:49:43.254703 11459 net.cpp:399] inception_3a/output_inception_3a/output_0_split -> inception_3a/output_inception_3a/output_0_split_2
I0403 15:49:43.254722 11459 net.cpp:399] inception_3a/output_inception_3a/output_0_split -> inception_3a/output_inception_3a/output_0_split_3
I0403 15:49:43.254796 11459 net.cpp:141] Setting up inception_3a/output_inception_3a/output_0_split
I0403 15:49:43.254819 11459 net.cpp:148] Top shape: 24 256 28 28 (4816896)
I0403 15:49:43.254835 11459 net.cpp:148] Top shape: 24 256 28 28 (4816896)
I0403 15:49:43.254851 11459 net.cpp:148] Top shape: 24 256 28 28 (4816896)
I0403 15:49:43.254866 11459 net.cpp:148] Top shape: 24 256 28 28 (4816896)
I0403 15:49:43.254879 11459 net.cpp:156] Memory required for data: 657507360
I0403 15:49:43.254894 11459 layer_factory.hpp:77] Creating layer inception_3b/1x1
I0403 15:49:43.254916 11459 net.cpp:91] Creating Layer inception_3b/1x1
I0403 15:49:43.254933 11459 net.cpp:425] inception_3b/1x1 <- inception_3a/output_inception_3a/output_0_split_0
I0403 15:49:43.254958 11459 net.cpp:399] inception_3b/1x1 -> inception_3b/1x1
I0403 15:49:43.256091 11459 net.cpp:141] Setting up inception_3b/1x1
I0403 15:49:43.256132 11459 net.cpp:148] Top shape: 24 128 28 28 (2408448)
I0403 15:49:43.256150 11459 net.cpp:156] Memory required for data: 667141152
I0403 15:49:43.256167 11459 layer_factory.hpp:77] Creating layer inception_3b/relu_1x1
I0403 15:49:43.256186 11459 net.cpp:91] Creating Layer inception_3b/relu_1x1
I0403 15:49:43.256203 11459 net.cpp:425] inception_3b/relu_1x1 <- inception_3b/1x1
I0403 15:49:43.256222 11459 net.cpp:386] inception_3b/relu_1x1 -> inception_3b/1x1 (in-place)
I0403 15:49:43.256397 11459 net.cpp:141] Setting up inception_3b/relu_1x1
I0403 15:49:43.256422 11459 net.cpp:148] Top shape: 24 128 28 28 (2408448)
I0403 15:49:43.256435 11459 net.cpp:156] Memory required for data: 676774944
I0403 15:49:43.256450 11459 layer_factory.hpp:77] Creating layer inception_3b/3x3_reduce
I0403 15:49:43.256472 11459 net.cpp:91] Creating Layer inception_3b/3x3_reduce
I0403 15:49:43.256489 11459 net.cpp:425] inception_3b/3x3_reduce <- inception_3a/output_inception_3a/output_0_split_1
I0403 15:49:43.256510 11459 net.cpp:399] inception_3b/3x3_reduce -> inception_3b/3x3_reduce
I0403 15:49:43.257648 11459 net.cpp:141] Setting up inception_3b/3x3_reduce
I0403 15:49:43.257678 11459 net.cpp:148] Top shape: 24 128 28 28 (2408448)
I0403 15:49:43.257694 11459 net.cpp:156] Memory required for data: 686408736
I0403 15:49:43.257714 11459 layer_factory.hpp:77] Creating layer inception_3b/relu_3x3_reduce
I0403 15:49:43.257730 11459 net.cpp:91] Creating Layer inception_3b/relu_3x3_reduce
I0403 15:49:43.257746 11459 net.cpp:425] inception_3b/relu_3x3_reduce <- inception_3b/3x3_reduce
I0403 15:49:43.257766 11459 net.cpp:386] inception_3b/relu_3x3_reduce -> inception_3b/3x3_reduce (in-place)
I0403 15:49:43.257938 11459 net.cpp:141] Setting up inception_3b/relu_3x3_reduce
I0403 15:49:43.257966 11459 net.cpp:148] Top shape: 24 128 28 28 (2408448)
I0403 15:49:43.257980 11459 net.cpp:156] Memory required for data: 696042528
I0403 15:49:43.257995 11459 layer_factory.hpp:77] Creating layer inception_3b/3x3
I0403 15:49:43.258021 11459 net.cpp:91] Creating Layer inception_3b/3x3
I0403 15:49:43.258038 11459 net.cpp:425] inception_3b/3x3 <- inception_3b/3x3_reduce
I0403 15:49:43.258057 11459 net.cpp:399] inception_3b/3x3 -> inception_3b/3x3
I0403 15:49:43.260917 11459 net.cpp:141] Setting up inception_3b/3x3
I0403 15:49:43.260948 11459 net.cpp:148] Top shape: 24 192 28 28 (3612672)
I0403 15:49:43.260967 11459 net.cpp:156] Memory required for data: 710493216
I0403 15:49:43.260983 11459 layer_factory.hpp:77] Creating layer inception_3b/relu_3x3
I0403 15:49:43.261003 11459 net.cpp:91] Creating Layer inception_3b/relu_3x3
I0403 15:49:43.261019 11459 net.cpp:425] inception_3b/relu_3x3 <- inception_3b/3x3
I0403 15:49:43.261036 11459 net.cpp:386] inception_3b/relu_3x3 -> inception_3b/3x3 (in-place)
I0403 15:49:43.261304 11459 net.cpp:141] Setting up inception_3b/relu_3x3
I0403 15:49:43.261329 11459 net.cpp:148] Top shape: 24 192 28 28 (3612672)
I0403 15:49:43.261343 11459 net.cpp:156] Memory required for data: 724943904
I0403 15:49:43.261358 11459 layer_factory.hpp:77] Creating layer inception_3b/5x5_reduce
I0403 15:49:43.261379 11459 net.cpp:91] Creating Layer inception_3b/5x5_reduce
I0403 15:49:43.261396 11459 net.cpp:425] inception_3b/5x5_reduce <- inception_3a/output_inception_3a/output_0_split_2
I0403 15:49:43.261416 11459 net.cpp:399] inception_3b/5x5_reduce -> inception_3b/5x5_reduce
I0403 15:49:43.262383 11459 net.cpp:141] Setting up inception_3b/5x5_reduce
I0403 15:49:43.262410 11459 net.cpp:148] Top shape: 24 32 28 28 (602112)
I0403 15:49:43.262425 11459 net.cpp:156] Memory required for data: 727352352
I0403 15:49:43.262442 11459 layer_factory.hpp:77] Creating layer inception_3b/relu_5x5_reduce
I0403 15:49:43.262460 11459 net.cpp:91] Creating Layer inception_3b/relu_5x5_reduce
I0403 15:49:43.262478 11459 net.cpp:425] inception_3b/relu_5x5_reduce <- inception_3b/5x5_reduce
I0403 15:49:43.262495 11459 net.cpp:386] inception_3b/relu_5x5_reduce -> inception_3b/5x5_reduce (in-place)
I0403 15:49:43.262678 11459 net.cpp:141] Setting up inception_3b/relu_5x5_reduce
I0403 15:49:43.262702 11459 net.cpp:148] Top shape: 24 32 28 28 (602112)
I0403 15:49:43.262717 11459 net.cpp:156] Memory required for data: 729760800
I0403 15:49:43.262730 11459 layer_factory.hpp:77] Creating layer inception_3b/5x5
I0403 15:49:43.262753 11459 net.cpp:91] Creating Layer inception_3b/5x5
I0403 15:49:43.262769 11459 net.cpp:425] inception_3b/5x5 <- inception_3b/5x5_reduce
I0403 15:49:43.262789 11459 net.cpp:399] inception_3b/5x5 -> inception_3b/5x5
I0403 15:49:43.264742 11459 net.cpp:141] Setting up inception_3b/5x5
I0403 15:49:43.264772 11459 net.cpp:148] Top shape: 24 96 28 28 (1806336)
I0403 15:49:43.264787 11459 net.cpp:156] Memory required for data: 736986144
I0403 15:49:43.264806 11459 layer_factory.hpp:77] Creating layer inception_3b/relu_5x5
I0403 15:49:43.264822 11459 net.cpp:91] Creating Layer inception_3b/relu_5x5
I0403 15:49:43.264838 11459 net.cpp:425] inception_3b/relu_5x5 <- inception_3b/5x5
I0403 15:49:43.264858 11459 net.cpp:386] inception_3b/relu_5x5 -> inception_3b/5x5 (in-place)
I0403 15:49:43.265067 11459 net.cpp:141] Setting up inception_3b/relu_5x5
I0403 15:49:43.265092 11459 net.cpp:148] Top shape: 24 96 28 28 (1806336)
I0403 15:49:43.265106 11459 net.cpp:156] Memory required for data: 744211488
I0403 15:49:43.265121 11459 layer_factory.hpp:77] Creating layer inception_3b/pool
I0403 15:49:43.265139 11459 net.cpp:91] Creating Layer inception_3b/pool
I0403 15:49:43.265153 11459 net.cpp:425] inception_3b/pool <- inception_3a/output_inception_3a/output_0_split_3
I0403 15:49:43.265183 11459 net.cpp:399] inception_3b/pool -> inception_3b/pool
I0403 15:49:43.265252 11459 net.cpp:141] Setting up inception_3b/pool
I0403 15:49:43.265275 11459 net.cpp:148] Top shape: 24 256 28 28 (4816896)
I0403 15:49:43.265288 11459 net.cpp:156] Memory required for data: 763479072
I0403 15:49:43.265302 11459 layer_factory.hpp:77] Creating layer inception_3b/pool_proj
I0403 15:49:43.265326 11459 net.cpp:91] Creating Layer inception_3b/pool_proj
I0403 15:49:43.265342 11459 net.cpp:425] inception_3b/pool_proj <- inception_3b/pool
I0403 15:49:43.265360 11459 net.cpp:399] inception_3b/pool_proj -> inception_3b/pool_proj
I0403 15:49:43.266399 11459 net.cpp:141] Setting up inception_3b/pool_proj
I0403 15:49:43.266427 11459 net.cpp:148] Top shape: 24 64 28 28 (1204224)
I0403 15:49:43.266441 11459 net.cpp:156] Memory required for data: 768295968
I0403 15:49:43.266459 11459 layer_factory.hpp:77] Creating layer inception_3b/relu_pool_proj
I0403 15:49:43.266479 11459 net.cpp:91] Creating Layer inception_3b/relu_pool_proj
I0403 15:49:43.266494 11459 net.cpp:425] inception_3b/relu_pool_proj <- inception_3b/pool_proj
I0403 15:49:43.266511 11459 net.cpp:386] inception_3b/relu_pool_proj -> inception_3b/pool_proj (in-place)
I0403 15:49:43.266894 11459 net.cpp:141] Setting up inception_3b/relu_pool_proj
I0403 15:49:43.266918 11459 net.cpp:148] Top shape: 24 64 28 28 (1204224)
I0403 15:49:43.266932 11459 net.cpp:156] Memory required for data: 773112864
I0403 15:49:43.266950 11459 layer_factory.hpp:77] Creating layer inception_3b/output
I0403 15:49:43.266970 11459 net.cpp:91] Creating Layer inception_3b/output
I0403 15:49:43.266986 11459 net.cpp:425] inception_3b/output <- inception_3b/1x1
I0403 15:49:43.267002 11459 net.cpp:425] inception_3b/output <- inception_3b/3x3
I0403 15:49:43.267019 11459 net.cpp:425] inception_3b/output <- inception_3b/5x5
I0403 15:49:43.267033 11459 net.cpp:425] inception_3b/output <- inception_3b/pool_proj
I0403 15:49:43.267050 11459 net.cpp:399] inception_3b/output -> inception_3b/output
I0403 15:49:43.267092 11459 net.cpp:141] Setting up inception_3b/output
I0403 15:49:43.267113 11459 net.cpp:148] Top shape: 24 480 28 28 (9031680)
I0403 15:49:43.267127 11459 net.cpp:156] Memory required for data: 809239584
I0403 15:49:43.267141 11459 layer_factory.hpp:77] Creating layer pool3/3x3_s2
I0403 15:49:43.267158 11459 net.cpp:91] Creating Layer pool3/3x3_s2
I0403 15:49:43.267174 11459 net.cpp:425] pool3/3x3_s2 <- inception_3b/output
I0403 15:49:43.267209 11459 net.cpp:399] pool3/3x3_s2 -> pool3/3x3_s2
I0403 15:49:43.267264 11459 net.cpp:141] Setting up pool3/3x3_s2
I0403 15:49:43.267288 11459 net.cpp:148] Top shape: 24 480 14 14 (2257920)
I0403 15:49:43.267303 11459 net.cpp:156] Memory required for data: 818271264
I0403 15:49:43.267318 11459 layer_factory.hpp:77] Creating layer pool3/3x3_s2_pool3/3x3_s2_0_split
I0403 15:49:43.267334 11459 net.cpp:91] Creating Layer pool3/3x3_s2_pool3/3x3_s2_0_split
I0403 15:49:43.267349 11459 net.cpp:425] pool3/3x3_s2_pool3/3x3_s2_0_split <- pool3/3x3_s2
I0403 15:49:43.267364 11459 net.cpp:399] pool3/3x3_s2_pool3/3x3_s2_0_split -> pool3/3x3_s2_pool3/3x3_s2_0_split_0
I0403 15:49:43.267382 11459 net.cpp:399] pool3/3x3_s2_pool3/3x3_s2_0_split -> pool3/3x3_s2_pool3/3x3_s2_0_split_1
I0403 15:49:43.267403 11459 net.cpp:399] pool3/3x3_s2_pool3/3x3_s2_0_split -> pool3/3x3_s2_pool3/3x3_s2_0_split_2
I0403 15:49:43.267422 11459 net.cpp:399] pool3/3x3_s2_pool3/3x3_s2_0_split -> pool3/3x3_s2_pool3/3x3_s2_0_split_3
I0403 15:49:43.267501 11459 net.cpp:141] Setting up pool3/3x3_s2_pool3/3x3_s2_0_split
I0403 15:49:43.267523 11459 net.cpp:148] Top shape: 24 480 14 14 (2257920)
I0403 15:49:43.267539 11459 net.cpp:148] Top shape: 24 480 14 14 (2257920)
I0403 15:49:43.267554 11459 net.cpp:148] Top shape: 24 480 14 14 (2257920)
I0403 15:49:43.267567 11459 net.cpp:148] Top shape: 24 480 14 14 (2257920)
I0403 15:49:43.267580 11459 net.cpp:156] Memory required for data: 854397984
I0403 15:49:43.267595 11459 layer_factory.hpp:77] Creating layer inception_4a/1x1
I0403 15:49:43.267616 11459 net.cpp:91] Creating Layer inception_4a/1x1
I0403 15:49:43.267632 11459 net.cpp:425] inception_4a/1x1 <- pool3/3x3_s2_pool3/3x3_s2_0_split_0
I0403 15:49:43.267652 11459 net.cpp:399] inception_4a/1x1 -> inception_4a/1x1
I0403 15:49:43.269213 11459 net.cpp:141] Setting up inception_4a/1x1
I0403 15:49:43.269240 11459 net.cpp:148] Top shape: 24 192 14 14 (903168)
I0403 15:49:43.269256 11459 net.cpp:156] Memory required for data: 858010656
I0403 15:49:43.269274 11459 layer_factory.hpp:77] Creating layer inception_4a/relu_1x1
I0403 15:49:43.269304 11459 net.cpp:91] Creating Layer inception_4a/relu_1x1
I0403 15:49:43.269320 11459 net.cpp:425] inception_4a/relu_1x1 <- inception_4a/1x1
I0403 15:49:43.269336 11459 net.cpp:386] inception_4a/relu_1x1 -> inception_4a/1x1 (in-place)
I0403 15:49:43.269515 11459 net.cpp:141] Setting up inception_4a/relu_1x1
I0403 15:49:43.269538 11459 net.cpp:148] Top shape: 24 192 14 14 (903168)
I0403 15:49:43.269552 11459 net.cpp:156] Memory required for data: 861623328
I0403 15:49:43.269567 11459 layer_factory.hpp:77] Creating layer inception_4a/3x3_reduce
I0403 15:49:43.269589 11459 net.cpp:91] Creating Layer inception_4a/3x3_reduce
I0403 15:49:43.269605 11459 net.cpp:425] inception_4a/3x3_reduce <- pool3/3x3_s2_pool3/3x3_s2_0_split_1
I0403 15:49:43.269626 11459 net.cpp:399] inception_4a/3x3_reduce -> inception_4a/3x3_reduce
I0403 15:49:43.270900 11459 net.cpp:141] Setting up inception_4a/3x3_reduce
I0403 15:49:43.270927 11459 net.cpp:148] Top shape: 24 96 14 14 (451584)
I0403 15:49:43.270946 11459 net.cpp:156] Memory required for data: 863429664
I0403 15:49:43.270972 11459 layer_factory.hpp:77] Creating layer inception_4a/relu_3x3_reduce
I0403 15:49:43.270992 11459 net.cpp:91] Creating Layer inception_4a/relu_3x3_reduce
I0403 15:49:43.271008 11459 net.cpp:425] inception_4a/relu_3x3_reduce <- inception_4a/3x3_reduce
I0403 15:49:43.271026 11459 net.cpp:386] inception_4a/relu_3x3_reduce -> inception_4a/3x3_reduce (in-place)
I0403 15:49:43.271201 11459 net.cpp:141] Setting up inception_4a/relu_3x3_reduce
I0403 15:49:43.271229 11459 net.cpp:148] Top shape: 24 96 14 14 (451584)
I0403 15:49:43.271245 11459 net.cpp:156] Memory required for data: 865236000
I0403 15:49:43.271258 11459 layer_factory.hpp:77] Creating layer inception_4a/3x3
I0403 15:49:43.271280 11459 net.cpp:91] Creating Layer inception_4a/3x3
I0403 15:49:43.271297 11459 net.cpp:425] inception_4a/3x3 <- inception_4a/3x3_reduce
I0403 15:49:43.271316 11459 net.cpp:399] inception_4a/3x3 -> inception_4a/3x3
I0403 15:49:43.274008 11459 net.cpp:141] Setting up inception_4a/3x3
I0403 15:49:43.274040 11459 net.cpp:148] Top shape: 24 208 14 14 (978432)
I0403 15:49:43.274056 11459 net.cpp:156] Memory required for data: 869149728
I0403 15:49:43.274075 11459 layer_factory.hpp:77] Creating layer inception_4a/relu_3x3
I0403 15:49:43.274093 11459 net.cpp:91] Creating Layer inception_4a/relu_3x3
I0403 15:49:43.274108 11459 net.cpp:425] inception_4a/relu_3x3 <- inception_4a/3x3
I0403 15:49:43.274128 11459 net.cpp:386] inception_4a/relu_3x3 -> inception_4a/3x3 (in-place)
I0403 15:49:43.274404 11459 net.cpp:141] Setting up inception_4a/relu_3x3
I0403 15:49:43.274431 11459 net.cpp:148] Top shape: 24 208 14 14 (978432)
I0403 15:49:43.274447 11459 net.cpp:156] Memory required for data: 873063456
I0403 15:49:43.274462 11459 layer_factory.hpp:77] Creating layer inception_4a/5x5_reduce
I0403 15:49:43.274487 11459 net.cpp:91] Creating Layer inception_4a/5x5_reduce
I0403 15:49:43.274502 11459 net.cpp:425] inception_4a/5x5_reduce <- pool3/3x3_s2_pool3/3x3_s2_0_split_2
I0403 15:49:43.274521 11459 net.cpp:399] inception_4a/5x5_reduce -> inception_4a/5x5_reduce
I0403 15:49:43.275544 11459 net.cpp:141] Setting up inception_4a/5x5_reduce
I0403 15:49:43.275571 11459 net.cpp:148] Top shape: 24 16 14 14 (75264)
I0403 15:49:43.275588 11459 net.cpp:156] Memory required for data: 873364512
I0403 15:49:43.275604 11459 layer_factory.hpp:77] Creating layer inception_4a/relu_5x5_reduce
I0403 15:49:43.275622 11459 net.cpp:91] Creating Layer inception_4a/relu_5x5_reduce
I0403 15:49:43.275638 11459 net.cpp:425] inception_4a/relu_5x5_reduce <- inception_4a/5x5_reduce
I0403 15:49:43.275658 11459 net.cpp:386] inception_4a/relu_5x5_reduce -> inception_4a/5x5_reduce (in-place)
I0403 15:49:43.275840 11459 net.cpp:141] Setting up inception_4a/relu_5x5_reduce
I0403 15:49:43.275864 11459 net.cpp:148] Top shape: 24 16 14 14 (75264)
I0403 15:49:43.275878 11459 net.cpp:156] Memory required for data: 873665568
I0403 15:49:43.275892 11459 layer_factory.hpp:77] Creating layer inception_4a/5x5
I0403 15:49:43.275914 11459 net.cpp:91] Creating Layer inception_4a/5x5
I0403 15:49:43.275931 11459 net.cpp:425] inception_4a/5x5 <- inception_4a/5x5_reduce
I0403 15:49:43.275955 11459 net.cpp:399] inception_4a/5x5 -> inception_4a/5x5
I0403 15:49:43.277048 11459 net.cpp:141] Setting up inception_4a/5x5
I0403 15:49:43.277076 11459 net.cpp:148] Top shape: 24 48 14 14 (225792)
I0403 15:49:43.277091 11459 net.cpp:156] Memory required for data: 874568736
I0403 15:49:43.277108 11459 layer_factory.hpp:77] Creating layer inception_4a/relu_5x5
I0403 15:49:43.277129 11459 net.cpp:91] Creating Layer inception_4a/relu_5x5
I0403 15:49:43.277145 11459 net.cpp:425] inception_4a/relu_5x5 <- inception_4a/5x5
I0403 15:49:43.277163 11459 net.cpp:386] inception_4a/relu_5x5 -> inception_4a/5x5 (in-place)
I0403 15:49:43.277341 11459 net.cpp:141] Setting up inception_4a/relu_5x5
I0403 15:49:43.277369 11459 net.cpp:148] Top shape: 24 48 14 14 (225792)
I0403 15:49:43.277385 11459 net.cpp:156] Memory required for data: 875471904
I0403 15:49:43.277400 11459 layer_factory.hpp:77] Creating layer inception_4a/pool
I0403 15:49:43.277417 11459 net.cpp:91] Creating Layer inception_4a/pool
I0403 15:49:43.277433 11459 net.cpp:425] inception_4a/pool <- pool3/3x3_s2_pool3/3x3_s2_0_split_3
I0403 15:49:43.277453 11459 net.cpp:399] inception_4a/pool -> inception_4a/pool
I0403 15:49:43.277513 11459 net.cpp:141] Setting up inception_4a/pool
I0403 15:49:43.277536 11459 net.cpp:148] Top shape: 24 480 14 14 (2257920)
I0403 15:49:43.277550 11459 net.cpp:156] Memory required for data: 884503584
I0403 15:49:43.277565 11459 layer_factory.hpp:77] Creating layer inception_4a/pool_proj
I0403 15:49:43.277586 11459 net.cpp:91] Creating Layer inception_4a/pool_proj
I0403 15:49:43.277603 11459 net.cpp:425] inception_4a/pool_proj <- inception_4a/pool
I0403 15:49:43.277622 11459 net.cpp:399] inception_4a/pool_proj -> inception_4a/pool_proj
I0403 15:49:43.278789 11459 net.cpp:141] Setting up inception_4a/pool_proj
I0403 15:49:43.278816 11459 net.cpp:148] Top shape: 24 64 14 14 (301056)
I0403 15:49:43.278846 11459 net.cpp:156] Memory required for data: 885707808
I0403 15:49:43.278866 11459 layer_factory.hpp:77] Creating layer inception_4a/relu_pool_proj
I0403 15:49:43.278887 11459 net.cpp:91] Creating Layer inception_4a/relu_pool_proj
I0403 15:49:43.278903 11459 net.cpp:425] inception_4a/relu_pool_proj <- inception_4a/pool_proj
I0403 15:49:43.278920 11459 net.cpp:386] inception_4a/relu_pool_proj -> inception_4a/pool_proj (in-place)
I0403 15:49:43.279217 11459 net.cpp:141] Setting up inception_4a/relu_pool_proj
I0403 15:49:43.279242 11459 net.cpp:148] Top shape: 24 64 14 14 (301056)
I0403 15:49:43.279258 11459 net.cpp:156] Memory required for data: 886912032
I0403 15:49:43.279271 11459 layer_factory.hpp:77] Creating layer inception_4a/output
I0403 15:49:43.279291 11459 net.cpp:91] Creating Layer inception_4a/output
I0403 15:49:43.279307 11459 net.cpp:425] inception_4a/output <- inception_4a/1x1
I0403 15:49:43.279323 11459 net.cpp:425] inception_4a/output <- inception_4a/3x3
I0403 15:49:43.279340 11459 net.cpp:425] inception_4a/output <- inception_4a/5x5
I0403 15:49:43.279356 11459 net.cpp:425] inception_4a/output <- inception_4a/pool_proj
I0403 15:49:43.279372 11459 net.cpp:399] inception_4a/output -> inception_4a/output
I0403 15:49:43.279417 11459 net.cpp:141] Setting up inception_4a/output
I0403 15:49:43.279440 11459 net.cpp:148] Top shape: 24 512 14 14 (2408448)
I0403 15:49:43.279453 11459 net.cpp:156] Memory required for data: 896545824
I0403 15:49:43.279469 11459 layer_factory.hpp:77] Creating layer inception_4a/output_inception_4a/output_0_split
I0403 15:49:43.279485 11459 net.cpp:91] Creating Layer inception_4a/output_inception_4a/output_0_split
I0403 15:49:43.279500 11459 net.cpp:425] inception_4a/output_inception_4a/output_0_split <- inception_4a/output
I0403 15:49:43.279520 11459 net.cpp:399] inception_4a/output_inception_4a/output_0_split -> inception_4a/output_inception_4a/output_0_split_0
I0403 15:49:43.279539 11459 net.cpp:399] inception_4a/output_inception_4a/output_0_split -> inception_4a/output_inception_4a/output_0_split_1
I0403 15:49:43.279559 11459 net.cpp:399] inception_4a/output_inception_4a/output_0_split -> inception_4a/output_inception_4a/output_0_split_2
I0403 15:49:43.279579 11459 net.cpp:399] inception_4a/output_inception_4a/output_0_split -> inception_4a/output_inception_4a/output_0_split_3
I0403 15:49:43.279598 11459 net.cpp:399] inception_4a/output_inception_4a/output_0_split -> inception_4a/output_inception_4a/output_0_split_4
I0403 15:49:43.279692 11459 net.cpp:141] Setting up inception_4a/output_inception_4a/output_0_split
I0403 15:49:43.279714 11459 net.cpp:148] Top shape: 24 512 14 14 (2408448)
I0403 15:49:43.279731 11459 net.cpp:148] Top shape: 24 512 14 14 (2408448)
I0403 15:49:43.279745 11459 net.cpp:148] Top shape: 24 512 14 14 (2408448)
I0403 15:49:43.279762 11459 net.cpp:148] Top shape: 24 512 14 14 (2408448)
I0403 15:49:43.279777 11459 net.cpp:148] Top shape: 24 512 14 14 (2408448)
I0403 15:49:43.279789 11459 net.cpp:156] Memory required for data: 944714784
I0403 15:49:43.279803 11459 layer_factory.hpp:77] Creating layer loss1/ave_pool
I0403 15:49:43.279820 11459 net.cpp:91] Creating Layer loss1/ave_pool
I0403 15:49:43.279835 11459 net.cpp:425] loss1/ave_pool <- inception_4a/output_inception_4a/output_0_split_0
I0403 15:49:43.279855 11459 net.cpp:399] loss1/ave_pool -> loss1/ave_pool
I0403 15:49:43.280069 11459 net.cpp:141] Setting up loss1/ave_pool
I0403 15:49:43.280094 11459 net.cpp:148] Top shape: 24 512 4 4 (196608)
I0403 15:49:43.280112 11459 net.cpp:156] Memory required for data: 945501216
I0403 15:49:43.280127 11459 layer_factory.hpp:77] Creating layer loss1/conv
I0403 15:49:43.280145 11459 net.cpp:91] Creating Layer loss1/conv
I0403 15:49:43.280161 11459 net.cpp:425] loss1/conv <- loss1/ave_pool
I0403 15:49:43.280181 11459 net.cpp:399] loss1/conv -> loss1/conv
I0403 15:49:43.281594 11459 net.cpp:141] Setting up loss1/conv
I0403 15:49:43.281625 11459 net.cpp:148] Top shape: 24 128 4 4 (49152)
I0403 15:49:43.281652 11459 net.cpp:156] Memory required for data: 945697824
I0403 15:49:43.281672 11459 layer_factory.hpp:77] Creating layer loss1/relu_conv
I0403 15:49:43.281690 11459 net.cpp:91] Creating Layer loss1/relu_conv
I0403 15:49:43.281705 11459 net.cpp:425] loss1/relu_conv <- loss1/conv
I0403 15:49:43.281725 11459 net.cpp:386] loss1/relu_conv -> loss1/conv (in-place)
I0403 15:49:43.282009 11459 net.cpp:141] Setting up loss1/relu_conv
I0403 15:49:43.282037 11459 net.cpp:148] Top shape: 24 128 4 4 (49152)
I0403 15:49:43.282053 11459 net.cpp:156] Memory required for data: 945894432
I0403 15:49:43.282068 11459 layer_factory.hpp:77] Creating layer loss1/fc
I0403 15:49:43.282091 11459 net.cpp:91] Creating Layer loss1/fc
I0403 15:49:43.282109 11459 net.cpp:425] loss1/fc <- loss1/conv
I0403 15:49:43.282133 11459 net.cpp:399] loss1/fc -> loss1/fc
I0403 15:49:43.299639 11459 net.cpp:141] Setting up loss1/fc
I0403 15:49:43.299674 11459 net.cpp:148] Top shape: 24 1024 (24576)
I0403 15:49:43.299690 11459 net.cpp:156] Memory required for data: 945992736
I0403 15:49:43.299707 11459 layer_factory.hpp:77] Creating layer loss1/relu_fc
I0403 15:49:43.299727 11459 net.cpp:91] Creating Layer loss1/relu_fc
I0403 15:49:43.299744 11459 net.cpp:425] loss1/relu_fc <- loss1/fc
I0403 15:49:43.299762 11459 net.cpp:386] loss1/relu_fc -> loss1/fc (in-place)
I0403 15:49:43.299943 11459 net.cpp:141] Setting up loss1/relu_fc
I0403 15:49:43.299970 11459 net.cpp:148] Top shape: 24 1024 (24576)
I0403 15:49:43.299984 11459 net.cpp:156] Memory required for data: 946091040
I0403 15:49:43.299998 11459 layer_factory.hpp:77] Creating layer loss1/drop_fc
I0403 15:49:43.300022 11459 net.cpp:91] Creating Layer loss1/drop_fc
I0403 15:49:43.300040 11459 net.cpp:425] loss1/drop_fc <- loss1/fc
I0403 15:49:43.300058 11459 net.cpp:386] loss1/drop_fc -> loss1/fc (in-place)
I0403 15:49:43.300107 11459 net.cpp:141] Setting up loss1/drop_fc
I0403 15:49:43.300129 11459 net.cpp:148] Top shape: 24 1024 (24576)
I0403 15:49:43.300143 11459 net.cpp:156] Memory required for data: 946189344
I0403 15:49:43.300158 11459 layer_factory.hpp:77] Creating layer loss1/classifier_plantvillage
I0403 15:49:43.300179 11459 net.cpp:91] Creating Layer loss1/classifier_plantvillage
I0403 15:49:43.300195 11459 net.cpp:425] loss1/classifier_plantvillage <- loss1/fc
I0403 15:49:43.300212 11459 net.cpp:399] loss1/classifier_plantvillage -> loss1/classifier_plantvillage
I0403 15:49:43.301107 11459 net.cpp:141] Setting up loss1/classifier_plantvillage
I0403 15:49:43.301134 11459 net.cpp:148] Top shape: 24 38 (912)
I0403 15:49:43.301148 11459 net.cpp:156] Memory required for data: 946192992
I0403 15:49:43.301167 11459 layer_factory.hpp:77] Creating layer loss1/classifier_plantvillage_loss1/classifier_plantvillage_0_split
I0403 15:49:43.301187 11459 net.cpp:91] Creating Layer loss1/classifier_plantvillage_loss1/classifier_plantvillage_0_split
I0403 15:49:43.301204 11459 net.cpp:425] loss1/classifier_plantvillage_loss1/classifier_plantvillage_0_split <- loss1/classifier_plantvillage
I0403 15:49:43.301221 11459 net.cpp:399] loss1/classifier_plantvillage_loss1/classifier_plantvillage_0_split -> loss1/classifier_plantvillage_loss1/classifier_plantvillage_0_split_0
I0403 15:49:43.301247 11459 net.cpp:399] loss1/classifier_plantvillage_loss1/classifier_plantvillage_0_split -> loss1/classifier_plantvillage_loss1/classifier_plantvillage_0_split_1
I0403 15:49:43.301266 11459 net.cpp:399] loss1/classifier_plantvillage_loss1/classifier_plantvillage_0_split -> loss1/classifier_plantvillage_loss1/classifier_plantvillage_0_split_2
I0403 15:49:43.301331 11459 net.cpp:141] Setting up loss1/classifier_plantvillage_loss1/classifier_plantvillage_0_split
I0403 15:49:43.301352 11459 net.cpp:148] Top shape: 24 38 (912)
I0403 15:49:43.301367 11459 net.cpp:148] Top shape: 24 38 (912)
I0403 15:49:43.301383 11459 net.cpp:148] Top shape: 24 38 (912)
I0403 15:49:43.301395 11459 net.cpp:156] Memory required for data: 946203936
I0403 15:49:43.301409 11459 layer_factory.hpp:77] Creating layer inception_4b/1x1
I0403 15:49:43.301430 11459 net.cpp:91] Creating Layer inception_4b/1x1
I0403 15:49:43.301463 11459 net.cpp:425] inception_4b/1x1 <- inception_4a/output_inception_4a/output_0_split_1
I0403 15:49:43.301482 11459 net.cpp:399] inception_4b/1x1 -> inception_4b/1x1
I0403 15:49:43.303102 11459 net.cpp:141] Setting up inception_4b/1x1
I0403 15:49:43.303131 11459 net.cpp:148] Top shape: 24 160 14 14 (752640)
I0403 15:49:43.303146 11459 net.cpp:156] Memory required for data: 949214496
I0403 15:49:43.303164 11459 layer_factory.hpp:77] Creating layer inception_4b/relu_1x1
I0403 15:49:43.303182 11459 net.cpp:91] Creating Layer inception_4b/relu_1x1
I0403 15:49:43.303197 11459 net.cpp:425] inception_4b/relu_1x1 <- inception_4b/1x1
I0403 15:49:43.303215 11459 net.cpp:386] inception_4b/relu_1x1 -> inception_4b/1x1 (in-place)
I0403 15:49:43.303390 11459 net.cpp:141] Setting up inception_4b/relu_1x1
I0403 15:49:43.303413 11459 net.cpp:148] Top shape: 24 160 14 14 (752640)
I0403 15:49:43.303427 11459 net.cpp:156] Memory required for data: 952225056
I0403 15:49:43.303442 11459 layer_factory.hpp:77] Creating layer inception_4b/3x3_reduce
I0403 15:49:43.303464 11459 net.cpp:91] Creating Layer inception_4b/3x3_reduce
I0403 15:49:43.303481 11459 net.cpp:425] inception_4b/3x3_reduce <- inception_4a/output_inception_4a/output_0_split_2
I0403 15:49:43.303503 11459 net.cpp:399] inception_4b/3x3_reduce -> inception_4b/3x3_reduce
I0403 15:49:43.304818 11459 net.cpp:141] Setting up inception_4b/3x3_reduce
I0403 15:49:43.304844 11459 net.cpp:148] Top shape: 24 112 14 14 (526848)
I0403 15:49:43.304859 11459 net.cpp:156] Memory required for data: 954332448
I0403 15:49:43.304877 11459 layer_factory.hpp:77] Creating layer inception_4b/relu_3x3_reduce
I0403 15:49:43.304896 11459 net.cpp:91] Creating Layer inception_4b/relu_3x3_reduce
I0403 15:49:43.304913 11459 net.cpp:425] inception_4b/relu_3x3_reduce <- inception_4b/3x3_reduce
I0403 15:49:43.304929 11459 net.cpp:386] inception_4b/relu_3x3_reduce -> inception_4b/3x3_reduce (in-place)
I0403 15:49:43.305207 11459 net.cpp:141] Setting up inception_4b/relu_3x3_reduce
I0403 15:49:43.305233 11459 net.cpp:148] Top shape: 24 112 14 14 (526848)
I0403 15:49:43.305248 11459 net.cpp:156] Memory required for data: 956439840
I0403 15:49:43.305261 11459 layer_factory.hpp:77] Creating layer inception_4b/3x3
I0403 15:49:43.305282 11459 net.cpp:91] Creating Layer inception_4b/3x3
I0403 15:49:43.305299 11459 net.cpp:425] inception_4b/3x3 <- inception_4b/3x3_reduce
I0403 15:49:43.305320 11459 net.cpp:399] inception_4b/3x3 -> inception_4b/3x3
I0403 15:49:43.308238 11459 net.cpp:141] Setting up inception_4b/3x3
I0403 15:49:43.308266 11459 net.cpp:148] Top shape: 24 224 14 14 (1053696)
I0403 15:49:43.308281 11459 net.cpp:156] Memory required for data: 960654624
I0403 15:49:43.308300 11459 layer_factory.hpp:77] Creating layer inception_4b/relu_3x3
I0403 15:49:43.308320 11459 net.cpp:91] Creating Layer inception_4b/relu_3x3
I0403 15:49:43.308336 11459 net.cpp:425] inception_4b/relu_3x3 <- inception_4b/3x3
I0403 15:49:43.308351 11459 net.cpp:386] inception_4b/relu_3x3 -> inception_4b/3x3 (in-place)
I0403 15:49:43.308531 11459 net.cpp:141] Setting up inception_4b/relu_3x3
I0403 15:49:43.308554 11459 net.cpp:148] Top shape: 24 224 14 14 (1053696)
I0403 15:49:43.308568 11459 net.cpp:156] Memory required for data: 964869408
I0403 15:49:43.308583 11459 layer_factory.hpp:77] Creating layer inception_4b/5x5_reduce
I0403 15:49:43.308604 11459 net.cpp:91] Creating Layer inception_4b/5x5_reduce
I0403 15:49:43.308620 11459 net.cpp:425] inception_4b/5x5_reduce <- inception_4a/output_inception_4a/output_0_split_3
I0403 15:49:43.308641 11459 net.cpp:399] inception_4b/5x5_reduce -> inception_4b/5x5_reduce
I0403 15:49:43.309731 11459 net.cpp:141] Setting up inception_4b/5x5_reduce
I0403 15:49:43.309759 11459 net.cpp:148] Top shape: 24 24 14 14 (112896)
I0403 15:49:43.309775 11459 net.cpp:156] Memory required for data: 965320992
I0403 15:49:43.309793 11459 layer_factory.hpp:77] Creating layer inception_4b/relu_5x5_reduce
I0403 15:49:43.309810 11459 net.cpp:91] Creating Layer inception_4b/relu_5x5_reduce
I0403 15:49:43.309851 11459 net.cpp:425] inception_4b/relu_5x5_reduce <- inception_4b/5x5_reduce
I0403 15:49:43.309872 11459 net.cpp:386] inception_4b/relu_5x5_reduce -> inception_4b/5x5_reduce (in-place)
I0403 15:49:43.310060 11459 net.cpp:141] Setting up inception_4b/relu_5x5_reduce
I0403 15:49:43.310084 11459 net.cpp:148] Top shape: 24 24 14 14 (112896)
I0403 15:49:43.310098 11459 net.cpp:156] Memory required for data: 965772576
I0403 15:49:43.310112 11459 layer_factory.hpp:77] Creating layer inception_4b/5x5
I0403 15:49:43.310133 11459 net.cpp:91] Creating Layer inception_4b/5x5
I0403 15:49:43.310150 11459 net.cpp:425] inception_4b/5x5 <- inception_4b/5x5_reduce
I0403 15:49:43.310170 11459 net.cpp:399] inception_4b/5x5 -> inception_4b/5x5
I0403 15:49:43.311364 11459 net.cpp:141] Setting up inception_4b/5x5
I0403 15:49:43.311393 11459 net.cpp:148] Top shape: 24 64 14 14 (301056)
I0403 15:49:43.311408 11459 net.cpp:156] Memory required for data: 966976800
I0403 15:49:43.311426 11459 layer_factory.hpp:77] Creating layer inception_4b/relu_5x5
I0403 15:49:43.311444 11459 net.cpp:91] Creating Layer inception_4b/relu_5x5
I0403 15:49:43.311460 11459 net.cpp:425] inception_4b/relu_5x5 <- inception_4b/5x5
I0403 15:49:43.311480 11459 net.cpp:386] inception_4b/relu_5x5 -> inception_4b/5x5 (in-place)
I0403 15:49:43.311753 11459 net.cpp:141] Setting up inception_4b/relu_5x5
I0403 15:49:43.311780 11459 net.cpp:148] Top shape: 24 64 14 14 (301056)
I0403 15:49:43.311795 11459 net.cpp:156] Memory required for data: 968181024
I0403 15:49:43.311810 11459 layer_factory.hpp:77] Creating layer inception_4b/pool
I0403 15:49:43.311827 11459 net.cpp:91] Creating Layer inception_4b/pool
I0403 15:49:43.311842 11459 net.cpp:425] inception_4b/pool <- inception_4a/output_inception_4a/output_0_split_4
I0403 15:49:43.311862 11459 net.cpp:399] inception_4b/pool -> inception_4b/pool
I0403 15:49:43.311923 11459 net.cpp:141] Setting up inception_4b/pool
I0403 15:49:43.311950 11459 net.cpp:148] Top shape: 24 512 14 14 (2408448)
I0403 15:49:43.311967 11459 net.cpp:156] Memory required for data: 977814816
I0403 15:49:43.311981 11459 layer_factory.hpp:77] Creating layer inception_4b/pool_proj
I0403 15:49:43.312002 11459 net.cpp:91] Creating Layer inception_4b/pool_proj
I0403 15:49:43.312019 11459 net.cpp:425] inception_4b/pool_proj <- inception_4b/pool
I0403 15:49:43.312037 11459 net.cpp:399] inception_4b/pool_proj -> inception_4b/pool_proj
I0403 15:49:43.313207 11459 net.cpp:141] Setting up inception_4b/pool_proj
I0403 15:49:43.313235 11459 net.cpp:148] Top shape: 24 64 14 14 (301056)
I0403 15:49:43.313249 11459 net.cpp:156] Memory required for data: 979019040
I0403 15:49:43.313267 11459 layer_factory.hpp:77] Creating layer inception_4b/relu_pool_proj
I0403 15:49:43.313287 11459 net.cpp:91] Creating Layer inception_4b/relu_pool_proj
I0403 15:49:43.313302 11459 net.cpp:425] inception_4b/relu_pool_proj <- inception_4b/pool_proj
I0403 15:49:43.313318 11459 net.cpp:386] inception_4b/relu_pool_proj -> inception_4b/pool_proj (in-place)
I0403 15:49:43.313494 11459 net.cpp:141] Setting up inception_4b/relu_pool_proj
I0403 15:49:43.313519 11459 net.cpp:148] Top shape: 24 64 14 14 (301056)
I0403 15:49:43.313532 11459 net.cpp:156] Memory required for data: 980223264
I0403 15:49:43.313546 11459 layer_factory.hpp:77] Creating layer inception_4b/output
I0403 15:49:43.313565 11459 net.cpp:91] Creating Layer inception_4b/output
I0403 15:49:43.313580 11459 net.cpp:425] inception_4b/output <- inception_4b/1x1
I0403 15:49:43.313596 11459 net.cpp:425] inception_4b/output <- inception_4b/3x3
I0403 15:49:43.313611 11459 net.cpp:425] inception_4b/output <- inception_4b/5x5
I0403 15:49:43.313627 11459 net.cpp:425] inception_4b/output <- inception_4b/pool_proj
I0403 15:49:43.313642 11459 net.cpp:399] inception_4b/output -> inception_4b/output
I0403 15:49:43.313688 11459 net.cpp:141] Setting up inception_4b/output
I0403 15:49:43.313710 11459 net.cpp:148] Top shape: 24 512 14 14 (2408448)
I0403 15:49:43.313724 11459 net.cpp:156] Memory required for data: 989857056
I0403 15:49:43.313752 11459 layer_factory.hpp:77] Creating layer inception_4b/output_inception_4b/output_0_split
I0403 15:49:43.313771 11459 net.cpp:91] Creating Layer inception_4b/output_inception_4b/output_0_split
I0403 15:49:43.313786 11459 net.cpp:425] inception_4b/output_inception_4b/output_0_split <- inception_4b/output
I0403 15:49:43.313804 11459 net.cpp:399] inception_4b/output_inception_4b/output_0_split -> inception_4b/output_inception_4b/output_0_split_0
I0403 15:49:43.313824 11459 net.cpp:399] inception_4b/output_inception_4b/output_0_split -> inception_4b/output_inception_4b/output_0_split_1
I0403 15:49:43.313843 11459 net.cpp:399] inception_4b/output_inception_4b/output_0_split -> inception_4b/output_inception_4b/output_0_split_2
I0403 15:49:43.313863 11459 net.cpp:399] inception_4b/output_inception_4b/output_0_split -> inception_4b/output_inception_4b/output_0_split_3
I0403 15:49:43.313946 11459 net.cpp:141] Setting up inception_4b/output_inception_4b/output_0_split
I0403 15:49:43.313973 11459 net.cpp:148] Top shape: 24 512 14 14 (2408448)
I0403 15:49:43.313990 11459 net.cpp:148] Top shape: 24 512 14 14 (2408448)
I0403 15:49:43.314004 11459 net.cpp:148] Top shape: 24 512 14 14 (2408448)
I0403 15:49:43.314018 11459 net.cpp:148] Top shape: 24 512 14 14 (2408448)
I0403 15:49:43.314031 11459 net.cpp:156] Memory required for data: 1028392224
I0403 15:49:43.314046 11459 layer_factory.hpp:77] Creating layer inception_4c/1x1
I0403 15:49:43.314066 11459 net.cpp:91] Creating Layer inception_4c/1x1
I0403 15:49:43.314082 11459 net.cpp:425] inception_4c/1x1 <- inception_4b/output_inception_4b/output_0_split_0
I0403 15:49:43.314100 11459 net.cpp:399] inception_4c/1x1 -> inception_4c/1x1
I0403 15:49:43.315497 11459 net.cpp:141] Setting up inception_4c/1x1
I0403 15:49:43.315524 11459 net.cpp:148] Top shape: 24 128 14 14 (602112)
I0403 15:49:43.315539 11459 net.cpp:156] Memory required for data: 1030800672
I0403 15:49:43.315557 11459 layer_factory.hpp:77] Creating layer inception_4c/relu_1x1
I0403 15:49:43.315578 11459 net.cpp:91] Creating Layer inception_4c/relu_1x1
I0403 15:49:43.315595 11459 net.cpp:425] inception_4c/relu_1x1 <- inception_4c/1x1
I0403 15:49:43.315611 11459 net.cpp:386] inception_4c/relu_1x1 -> inception_4c/1x1 (in-place)
I0403 15:49:43.315789 11459 net.cpp:141] Setting up inception_4c/relu_1x1
I0403 15:49:43.315815 11459 net.cpp:148] Top shape: 24 128 14 14 (602112)
I0403 15:49:43.315830 11459 net.cpp:156] Memory required for data: 1033209120
I0403 15:49:43.315845 11459 layer_factory.hpp:77] Creating layer inception_4c/3x3_reduce
I0403 15:49:43.315865 11459 net.cpp:91] Creating Layer inception_4c/3x3_reduce
I0403 15:49:43.315883 11459 net.cpp:425] inception_4c/3x3_reduce <- inception_4b/output_inception_4b/output_0_split_1
I0403 15:49:43.315901 11459 net.cpp:399] inception_4c/3x3_reduce -> inception_4c/3x3_reduce
I0403 15:49:43.317898 11459 net.cpp:141] Setting up inception_4c/3x3_reduce
I0403 15:49:43.317927 11459 net.cpp:148] Top shape: 24 128 14 14 (602112)
I0403 15:49:43.317944 11459 net.cpp:156] Memory required for data: 1035617568
I0403 15:49:43.317966 11459 layer_factory.hpp:77] Creating layer inception_4c/relu_3x3_reduce
I0403 15:49:43.317984 11459 net.cpp:91] Creating Layer inception_4c/relu_3x3_reduce
I0403 15:49:43.317999 11459 net.cpp:425] inception_4c/relu_3x3_reduce <- inception_4c/3x3_reduce
I0403 15:49:43.318019 11459 net.cpp:386] inception_4c/relu_3x3_reduce -> inception_4c/3x3_reduce (in-place)
I0403 15:49:43.318307 11459 net.cpp:141] Setting up inception_4c/relu_3x3_reduce
I0403 15:49:43.318333 11459 net.cpp:148] Top shape: 24 128 14 14 (602112)
I0403 15:49:43.318348 11459 net.cpp:156] Memory required for data: 1038026016
I0403 15:49:43.318363 11459 layer_factory.hpp:77] Creating layer inception_4c/3x3
I0403 15:49:43.318387 11459 net.cpp:91] Creating Layer inception_4c/3x3
I0403 15:49:43.318404 11459 net.cpp:425] inception_4c/3x3 <- inception_4c/3x3_reduce
I0403 15:49:43.318425 11459 net.cpp:399] inception_4c/3x3 -> inception_4c/3x3
I0403 15:49:43.322055 11459 net.cpp:141] Setting up inception_4c/3x3
I0403 15:49:43.322096 11459 net.cpp:148] Top shape: 24 256 14 14 (1204224)
I0403 15:49:43.322113 11459 net.cpp:156] Memory required for data: 1042842912
I0403 15:49:43.322144 11459 layer_factory.hpp:77] Creating layer inception_4c/relu_3x3
I0403 15:49:43.322163 11459 net.cpp:91] Creating Layer inception_4c/relu_3x3
I0403 15:49:43.322180 11459 net.cpp:425] inception_4c/relu_3x3 <- inception_4c/3x3
I0403 15:49:43.322199 11459 net.cpp:386] inception_4c/relu_3x3 -> inception_4c/3x3 (in-place)
I0403 15:49:43.322386 11459 net.cpp:141] Setting up inception_4c/relu_3x3
I0403 15:49:43.322410 11459 net.cpp:148] Top shape: 24 256 14 14 (1204224)
I0403 15:49:43.322424 11459 net.cpp:156] Memory required for data: 1047659808
I0403 15:49:43.322438 11459 layer_factory.hpp:77] Creating layer inception_4c/5x5_reduce
I0403 15:49:43.322461 11459 net.cpp:91] Creating Layer inception_4c/5x5_reduce
I0403 15:49:43.322479 11459 net.cpp:425] inception_4c/5x5_reduce <- inception_4b/output_inception_4b/output_0_split_2
I0403 15:49:43.322500 11459 net.cpp:399] inception_4c/5x5_reduce -> inception_4c/5x5_reduce
I0403 15:49:43.323606 11459 net.cpp:141] Setting up inception_4c/5x5_reduce
I0403 15:49:43.323634 11459 net.cpp:148] Top shape: 24 24 14 14 (112896)
I0403 15:49:43.323649 11459 net.cpp:156] Memory required for data: 1048111392
I0403 15:49:43.323668 11459 layer_factory.hpp:77] Creating layer inception_4c/relu_5x5_reduce
I0403 15:49:43.323685 11459 net.cpp:91] Creating Layer inception_4c/relu_5x5_reduce
I0403 15:49:43.323701 11459 net.cpp:425] inception_4c/relu_5x5_reduce <- inception_4c/5x5_reduce
I0403 15:49:43.323720 11459 net.cpp:386] inception_4c/relu_5x5_reduce -> inception_4c/5x5_reduce (in-place)
I0403 15:49:43.323904 11459 net.cpp:141] Setting up inception_4c/relu_5x5_reduce
I0403 15:49:43.323928 11459 net.cpp:148] Top shape: 24 24 14 14 (112896)
I0403 15:49:43.323942 11459 net.cpp:156] Memory required for data: 1048562976
I0403 15:49:43.323962 11459 layer_factory.hpp:77] Creating layer inception_4c/5x5
I0403 15:49:43.323984 11459 net.cpp:91] Creating Layer inception_4c/5x5
I0403 15:49:43.324002 11459 net.cpp:425] inception_4c/5x5 <- inception_4c/5x5_reduce
I0403 15:49:43.324023 11459 net.cpp:399] inception_4c/5x5 -> inception_4c/5x5
I0403 15:49:43.325279 11459 net.cpp:141] Setting up inception_4c/5x5
I0403 15:49:43.325306 11459 net.cpp:148] Top shape: 24 64 14 14 (301056)
I0403 15:49:43.325321 11459 net.cpp:156] Memory required for data: 1049767200
I0403 15:49:43.325340 11459 layer_factory.hpp:77] Creating layer inception_4c/relu_5x5
I0403 15:49:43.325361 11459 net.cpp:91] Creating Layer inception_4c/relu_5x5
I0403 15:49:43.325377 11459 net.cpp:425] inception_4c/relu_5x5 <- inception_4c/5x5
I0403 15:49:43.325393 11459 net.cpp:386] inception_4c/relu_5x5 -> inception_4c/5x5 (in-place)
I0403 15:49:43.325680 11459 net.cpp:141] Setting up inception_4c/relu_5x5
I0403 15:49:43.325706 11459 net.cpp:148] Top shape: 24 64 14 14 (301056)
I0403 15:49:43.325721 11459 net.cpp:156] Memory required for data: 1050971424
I0403 15:49:43.325736 11459 layer_factory.hpp:77] Creating layer inception_4c/pool
I0403 15:49:43.325755 11459 net.cpp:91] Creating Layer inception_4c/pool
I0403 15:49:43.325772 11459 net.cpp:425] inception_4c/pool <- inception_4b/output_inception_4b/output_0_split_3
I0403 15:49:43.325789 11459 net.cpp:399] inception_4c/pool -> inception_4c/pool
I0403 15:49:43.325856 11459 net.cpp:141] Setting up inception_4c/pool
I0403 15:49:43.325880 11459 net.cpp:148] Top shape: 24 512 14 14 (2408448)
I0403 15:49:43.325894 11459 net.cpp:156] Memory required for data: 1060605216
I0403 15:49:43.325908 11459 layer_factory.hpp:77] Creating layer inception_4c/pool_proj
I0403 15:49:43.325930 11459 net.cpp:91] Creating Layer inception_4c/pool_proj
I0403 15:49:43.325950 11459 net.cpp:425] inception_4c/pool_proj <- inception_4c/pool
I0403 15:49:43.325973 11459 net.cpp:399] inception_4c/pool_proj -> inception_4c/pool_proj
I0403 15:49:43.327198 11459 net.cpp:141] Setting up inception_4c/pool_proj
I0403 15:49:43.327226 11459 net.cpp:148] Top shape: 24 64 14 14 (301056)
I0403 15:49:43.327255 11459 net.cpp:156] Memory required for data: 1061809440
I0403 15:49:43.327275 11459 layer_factory.hpp:77] Creating layer inception_4c/relu_pool_proj
I0403 15:49:43.327292 11459 net.cpp:91] Creating Layer inception_4c/relu_pool_proj
I0403 15:49:43.327307 11459 net.cpp:425] inception_4c/relu_pool_proj <- inception_4c/pool_proj
I0403 15:49:43.327329 11459 net.cpp:386] inception_4c/relu_pool_proj -> inception_4c/pool_proj (in-place)
I0403 15:49:43.327510 11459 net.cpp:141] Setting up inception_4c/relu_pool_proj
I0403 15:49:43.327534 11459 net.cpp:148] Top shape: 24 64 14 14 (301056)
I0403 15:49:43.327548 11459 net.cpp:156] Memory required for data: 1063013664
I0403 15:49:43.327563 11459 layer_factory.hpp:77] Creating layer inception_4c/output
I0403 15:49:43.327579 11459 net.cpp:91] Creating Layer inception_4c/output
I0403 15:49:43.327594 11459 net.cpp:425] inception_4c/output <- inception_4c/1x1
I0403 15:49:43.327612 11459 net.cpp:425] inception_4c/output <- inception_4c/3x3
I0403 15:49:43.327630 11459 net.cpp:425] inception_4c/output <- inception_4c/5x5
I0403 15:49:43.327646 11459 net.cpp:425] inception_4c/output <- inception_4c/pool_proj
I0403 15:49:43.327661 11459 net.cpp:399] inception_4c/output -> inception_4c/output
I0403 15:49:43.327709 11459 net.cpp:141] Setting up inception_4c/output
I0403 15:49:43.327731 11459 net.cpp:148] Top shape: 24 512 14 14 (2408448)
I0403 15:49:43.327746 11459 net.cpp:156] Memory required for data: 1072647456
I0403 15:49:43.327760 11459 layer_factory.hpp:77] Creating layer inception_4c/output_inception_4c/output_0_split
I0403 15:49:43.327777 11459 net.cpp:91] Creating Layer inception_4c/output_inception_4c/output_0_split
I0403 15:49:43.327791 11459 net.cpp:425] inception_4c/output_inception_4c/output_0_split <- inception_4c/output
I0403 15:49:43.327811 11459 net.cpp:399] inception_4c/output_inception_4c/output_0_split -> inception_4c/output_inception_4c/output_0_split_0
I0403 15:49:43.327831 11459 net.cpp:399] inception_4c/output_inception_4c/output_0_split -> inception_4c/output_inception_4c/output_0_split_1
I0403 15:49:43.327852 11459 net.cpp:399] inception_4c/output_inception_4c/output_0_split -> inception_4c/output_inception_4c/output_0_split_2
I0403 15:49:43.327872 11459 net.cpp:399] inception_4c/output_inception_4c/output_0_split -> inception_4c/output_inception_4c/output_0_split_3
I0403 15:49:43.327967 11459 net.cpp:141] Setting up inception_4c/output_inception_4c/output_0_split
I0403 15:49:43.327992 11459 net.cpp:148] Top shape: 24 512 14 14 (2408448)
I0403 15:49:43.328009 11459 net.cpp:148] Top shape: 24 512 14 14 (2408448)
I0403 15:49:43.328024 11459 net.cpp:148] Top shape: 24 512 14 14 (2408448)
I0403 15:49:43.328039 11459 net.cpp:148] Top shape: 24 512 14 14 (2408448)
I0403 15:49:43.328053 11459 net.cpp:156] Memory required for data: 1111182624
I0403 15:49:43.328068 11459 layer_factory.hpp:77] Creating layer inception_4d/1x1
I0403 15:49:43.328088 11459 net.cpp:91] Creating Layer inception_4d/1x1
I0403 15:49:43.328105 11459 net.cpp:425] inception_4d/1x1 <- inception_4c/output_inception_4c/output_0_split_0
I0403 15:49:43.328125 11459 net.cpp:399] inception_4d/1x1 -> inception_4d/1x1
I0403 15:49:43.329530 11459 net.cpp:141] Setting up inception_4d/1x1
I0403 15:49:43.329560 11459 net.cpp:148] Top shape: 24 112 14 14 (526848)
I0403 15:49:43.329576 11459 net.cpp:156] Memory required for data: 1113290016
I0403 15:49:43.329593 11459 layer_factory.hpp:77] Creating layer inception_4d/relu_1x1
I0403 15:49:43.329612 11459 net.cpp:91] Creating Layer inception_4d/relu_1x1
I0403 15:49:43.329627 11459 net.cpp:425] inception_4d/relu_1x1 <- inception_4d/1x1
I0403 15:49:43.329646 11459 net.cpp:386] inception_4d/relu_1x1 -> inception_4d/1x1 (in-place)
I0403 15:49:43.329833 11459 net.cpp:141] Setting up inception_4d/relu_1x1
I0403 15:49:43.329857 11459 net.cpp:148] Top shape: 24 112 14 14 (526848)
I0403 15:49:43.329872 11459 net.cpp:156] Memory required for data: 1115397408
I0403 15:49:43.329887 11459 layer_factory.hpp:77] Creating layer inception_4d/3x3_reduce
I0403 15:49:43.329923 11459 net.cpp:91] Creating Layer inception_4d/3x3_reduce
I0403 15:49:43.329941 11459 net.cpp:425] inception_4d/3x3_reduce <- inception_4c/output_inception_4c/output_0_split_1
I0403 15:49:43.329967 11459 net.cpp:399] inception_4d/3x3_reduce -> inception_4d/3x3_reduce
I0403 15:49:43.331529 11459 net.cpp:141] Setting up inception_4d/3x3_reduce
I0403 15:49:43.331557 11459 net.cpp:148] Top shape: 24 144 14 14 (677376)
I0403 15:49:43.331571 11459 net.cpp:156] Memory required for data: 1118106912
I0403 15:49:43.331590 11459 layer_factory.hpp:77] Creating layer inception_4d/relu_3x3_reduce
I0403 15:49:43.331610 11459 net.cpp:91] Creating Layer inception_4d/relu_3x3_reduce
I0403 15:49:43.331626 11459 net.cpp:425] inception_4d/relu_3x3_reduce <- inception_4d/3x3_reduce
I0403 15:49:43.331645 11459 net.cpp:386] inception_4d/relu_3x3_reduce -> inception_4d/3x3_reduce (in-place)
I0403 15:49:43.331936 11459 net.cpp:141] Setting up inception_4d/relu_3x3_reduce
I0403 15:49:43.331965 11459 net.cpp:148] Top shape: 24 144 14 14 (677376)
I0403 15:49:43.331981 11459 net.cpp:156] Memory required for data: 1120816416
I0403 15:49:43.331996 11459 layer_factory.hpp:77] Creating layer inception_4d/3x3
I0403 15:49:43.332020 11459 net.cpp:91] Creating Layer inception_4d/3x3
I0403 15:49:43.332036 11459 net.cpp:425] inception_4d/3x3 <- inception_4d/3x3_reduce
I0403 15:49:43.332057 11459 net.cpp:399] inception_4d/3x3 -> inception_4d/3x3
I0403 15:49:43.336313 11459 net.cpp:141] Setting up inception_4d/3x3
I0403 15:49:43.336344 11459 net.cpp:148] Top shape: 24 288 14 14 (1354752)
I0403 15:49:43.336359 11459 net.cpp:156] Memory required for data: 1126235424
I0403 15:49:43.336377 11459 layer_factory.hpp:77] Creating layer inception_4d/relu_3x3
I0403 15:49:43.336395 11459 net.cpp:91] Creating Layer inception_4d/relu_3x3
I0403 15:49:43.336410 11459 net.cpp:425] inception_4d/relu_3x3 <- inception_4d/3x3
I0403 15:49:43.336427 11459 net.cpp:386] inception_4d/relu_3x3 -> inception_4d/3x3 (in-place)
I0403 15:49:43.336612 11459 net.cpp:141] Setting up inception_4d/relu_3x3
I0403 15:49:43.336635 11459 net.cpp:148] Top shape: 24 288 14 14 (1354752)
I0403 15:49:43.336649 11459 net.cpp:156] Memory required for data: 1131654432
I0403 15:49:43.336664 11459 layer_factory.hpp:77] Creating layer inception_4d/5x5_reduce
I0403 15:49:43.336684 11459 net.cpp:91] Creating Layer inception_4d/5x5_reduce
I0403 15:49:43.336701 11459 net.cpp:425] inception_4d/5x5_reduce <- inception_4c/output_inception_4c/output_0_split_2
I0403 15:49:43.336724 11459 net.cpp:399] inception_4d/5x5_reduce -> inception_4d/5x5_reduce
I0403 15:49:43.337841 11459 net.cpp:141] Setting up inception_4d/5x5_reduce
I0403 15:49:43.337870 11459 net.cpp:148] Top shape: 24 32 14 14 (150528)
I0403 15:49:43.337885 11459 net.cpp:156] Memory required for data: 1132256544
I0403 15:49:43.337903 11459 layer_factory.hpp:77] Creating layer inception_4d/relu_5x5_reduce
I0403 15:49:43.337921 11459 net.cpp:91] Creating Layer inception_4d/relu_5x5_reduce
I0403 15:49:43.337936 11459 net.cpp:425] inception_4d/relu_5x5_reduce <- inception_4d/5x5_reduce
I0403 15:49:43.337960 11459 net.cpp:386] inception_4d/relu_5x5_reduce -> inception_4d/5x5_reduce (in-place)
I0403 15:49:43.338142 11459 net.cpp:141] Setting up inception_4d/relu_5x5_reduce
I0403 15:49:43.338166 11459 net.cpp:148] Top shape: 24 32 14 14 (150528)
I0403 15:49:43.338181 11459 net.cpp:156] Memory required for data: 1132858656
I0403 15:49:43.338196 11459 layer_factory.hpp:77] Creating layer inception_4d/5x5
I0403 15:49:43.338217 11459 net.cpp:91] Creating Layer inception_4d/5x5
I0403 15:49:43.338234 11459 net.cpp:425] inception_4d/5x5 <- inception_4d/5x5_reduce
I0403 15:49:43.338254 11459 net.cpp:399] inception_4d/5x5 -> inception_4d/5x5
I0403 15:49:43.339706 11459 net.cpp:141] Setting up inception_4d/5x5
I0403 15:49:43.339733 11459 net.cpp:148] Top shape: 24 64 14 14 (301056)
I0403 15:49:43.339748 11459 net.cpp:156] Memory required for data: 1134062880
I0403 15:49:43.339766 11459 layer_factory.hpp:77] Creating layer inception_4d/relu_5x5
I0403 15:49:43.339800 11459 net.cpp:91] Creating Layer inception_4d/relu_5x5
I0403 15:49:43.339818 11459 net.cpp:425] inception_4d/relu_5x5 <- inception_4d/5x5
I0403 15:49:43.339835 11459 net.cpp:386] inception_4d/relu_5x5 -> inception_4d/5x5 (in-place)
I0403 15:49:43.340152 11459 net.cpp:141] Setting up inception_4d/relu_5x5
I0403 15:49:43.340178 11459 net.cpp:148] Top shape: 24 64 14 14 (301056)
I0403 15:49:43.340194 11459 net.cpp:156] Memory required for data: 1135267104
I0403 15:49:43.340209 11459 layer_factory.hpp:77] Creating layer inception_4d/pool
I0403 15:49:43.340227 11459 net.cpp:91] Creating Layer inception_4d/pool
I0403 15:49:43.340242 11459 net.cpp:425] inception_4d/pool <- inception_4c/output_inception_4c/output_0_split_3
I0403 15:49:43.340263 11459 net.cpp:399] inception_4d/pool -> inception_4d/pool
I0403 15:49:43.340332 11459 net.cpp:141] Setting up inception_4d/pool
I0403 15:49:43.340355 11459 net.cpp:148] Top shape: 24 512 14 14 (2408448)
I0403 15:49:43.340369 11459 net.cpp:156] Memory required for data: 1144900896
I0403 15:49:43.340384 11459 layer_factory.hpp:77] Creating layer inception_4d/pool_proj
I0403 15:49:43.340406 11459 net.cpp:91] Creating Layer inception_4d/pool_proj
I0403 15:49:43.340423 11459 net.cpp:425] inception_4d/pool_proj <- inception_4d/pool
I0403 15:49:43.340442 11459 net.cpp:399] inception_4d/pool_proj -> inception_4d/pool_proj
I0403 15:49:43.342231 11459 net.cpp:141] Setting up inception_4d/pool_proj
I0403 15:49:43.342262 11459 net.cpp:148] Top shape: 24 64 14 14 (301056)
I0403 15:49:43.342278 11459 net.cpp:156] Memory required for data: 1146105120
I0403 15:49:43.342295 11459 layer_factory.hpp:77] Creating layer inception_4d/relu_pool_proj
I0403 15:49:43.342313 11459 net.cpp:91] Creating Layer inception_4d/relu_pool_proj
I0403 15:49:43.342329 11459 net.cpp:425] inception_4d/relu_pool_proj <- inception_4d/pool_proj
I0403 15:49:43.342347 11459 net.cpp:386] inception_4d/relu_pool_proj -> inception_4d/pool_proj (in-place)
I0403 15:49:43.342528 11459 net.cpp:141] Setting up inception_4d/relu_pool_proj
I0403 15:49:43.342552 11459 net.cpp:148] Top shape: 24 64 14 14 (301056)
I0403 15:49:43.342566 11459 net.cpp:156] Memory required for data: 1147309344
I0403 15:49:43.342581 11459 layer_factory.hpp:77] Creating layer inception_4d/output
I0403 15:49:43.342597 11459 net.cpp:91] Creating Layer inception_4d/output
I0403 15:49:43.342612 11459 net.cpp:425] inception_4d/output <- inception_4d/1x1
I0403 15:49:43.342628 11459 net.cpp:425] inception_4d/output <- inception_4d/3x3
I0403 15:49:43.342643 11459 net.cpp:425] inception_4d/output <- inception_4d/5x5
I0403 15:49:43.342659 11459 net.cpp:425] inception_4d/output <- inception_4d/pool_proj
I0403 15:49:43.342677 11459 net.cpp:399] inception_4d/output -> inception_4d/output
I0403 15:49:43.342725 11459 net.cpp:141] Setting up inception_4d/output
I0403 15:49:43.342748 11459 net.cpp:148] Top shape: 24 528 14 14 (2483712)
I0403 15:49:43.342763 11459 net.cpp:156] Memory required for data: 1157244192
I0403 15:49:43.342777 11459 layer_factory.hpp:77] Creating layer inception_4d/output_inception_4d/output_0_split
I0403 15:49:43.342794 11459 net.cpp:91] Creating Layer inception_4d/output_inception_4d/output_0_split
I0403 15:49:43.342809 11459 net.cpp:425] inception_4d/output_inception_4d/output_0_split <- inception_4d/output
I0403 15:49:43.342829 11459 net.cpp:399] inception_4d/output_inception_4d/output_0_split -> inception_4d/output_inception_4d/output_0_split_0
I0403 15:49:43.342849 11459 net.cpp:399] inception_4d/output_inception_4d/output_0_split -> inception_4d/output_inception_4d/output_0_split_1
I0403 15:49:43.342869 11459 net.cpp:399] inception_4d/output_inception_4d/output_0_split -> inception_4d/output_inception_4d/output_0_split_2
I0403 15:49:43.342890 11459 net.cpp:399] inception_4d/output_inception_4d/output_0_split -> inception_4d/output_inception_4d/output_0_split_3
I0403 15:49:43.342908 11459 net.cpp:399] inception_4d/output_inception_4d/output_0_split -> inception_4d/output_inception_4d/output_0_split_4
I0403 15:49:43.343017 11459 net.cpp:141] Setting up inception_4d/output_inception_4d/output_0_split
I0403 15:49:43.343050 11459 net.cpp:148] Top shape: 24 528 14 14 (2483712)
I0403 15:49:43.343066 11459 net.cpp:148] Top shape: 24 528 14 14 (2483712)
I0403 15:49:43.343082 11459 net.cpp:148] Top shape: 24 528 14 14 (2483712)
I0403 15:49:43.343096 11459 net.cpp:148] Top shape: 24 528 14 14 (2483712)
I0403 15:49:43.343111 11459 net.cpp:148] Top shape: 24 528 14 14 (2483712)
I0403 15:49:43.343124 11459 net.cpp:156] Memory required for data: 1206918432
I0403 15:49:43.343138 11459 layer_factory.hpp:77] Creating layer loss2/ave_pool
I0403 15:49:43.343158 11459 net.cpp:91] Creating Layer loss2/ave_pool
I0403 15:49:43.343174 11459 net.cpp:425] loss2/ave_pool <- inception_4d/output_inception_4d/output_0_split_0
I0403 15:49:43.343194 11459 net.cpp:399] loss2/ave_pool -> loss2/ave_pool
I0403 15:49:43.343495 11459 net.cpp:141] Setting up loss2/ave_pool
I0403 15:49:43.343523 11459 net.cpp:148] Top shape: 24 528 4 4 (202752)
I0403 15:49:43.343539 11459 net.cpp:156] Memory required for data: 1207729440
I0403 15:49:43.343554 11459 layer_factory.hpp:77] Creating layer loss2/conv
I0403 15:49:43.343575 11459 net.cpp:91] Creating Layer loss2/conv
I0403 15:49:43.343592 11459 net.cpp:425] loss2/conv <- loss2/ave_pool
I0403 15:49:43.343611 11459 net.cpp:399] loss2/conv -> loss2/conv
I0403 15:49:43.345481 11459 net.cpp:141] Setting up loss2/conv
I0403 15:49:43.345509 11459 net.cpp:148] Top shape: 24 128 4 4 (49152)
I0403 15:49:43.345523 11459 net.cpp:156] Memory required for data: 1207926048
I0403 15:49:43.345541 11459 layer_factory.hpp:77] Creating layer loss2/relu_conv
I0403 15:49:43.345561 11459 net.cpp:91] Creating Layer loss2/relu_conv
I0403 15:49:43.345577 11459 net.cpp:425] loss2/relu_conv <- loss2/conv
I0403 15:49:43.345594 11459 net.cpp:386] loss2/relu_conv -> loss2/conv (in-place)
I0403 15:49:43.345875 11459 net.cpp:141] Setting up loss2/relu_conv
I0403 15:49:43.345899 11459 net.cpp:148] Top shape: 24 128 4 4 (49152)
I0403 15:49:43.345913 11459 net.cpp:156] Memory required for data: 1208122656
I0403 15:49:43.345927 11459 layer_factory.hpp:77] Creating layer loss2/fc
I0403 15:49:43.345955 11459 net.cpp:91] Creating Layer loss2/fc
I0403 15:49:43.345973 11459 net.cpp:425] loss2/fc <- loss2/conv
I0403 15:49:43.345991 11459 net.cpp:399] loss2/fc -> loss2/fc
I0403 15:49:43.363330 11459 net.cpp:141] Setting up loss2/fc
I0403 15:49:43.363363 11459 net.cpp:148] Top shape: 24 1024 (24576)
I0403 15:49:43.363379 11459 net.cpp:156] Memory required for data: 1208220960
I0403 15:49:43.363396 11459 layer_factory.hpp:77] Creating layer loss2/relu_fc
I0403 15:49:43.363414 11459 net.cpp:91] Creating Layer loss2/relu_fc
I0403 15:49:43.363430 11459 net.cpp:425] loss2/relu_fc <- loss2/fc
I0403 15:49:43.363448 11459 net.cpp:386] loss2/relu_fc -> loss2/fc (in-place)
I0403 15:49:43.363739 11459 net.cpp:141] Setting up loss2/relu_fc
I0403 15:49:43.363766 11459 net.cpp:148] Top shape: 24 1024 (24576)
I0403 15:49:43.363782 11459 net.cpp:156] Memory required for data: 1208319264
I0403 15:49:43.363796 11459 layer_factory.hpp:77] Creating layer loss2/drop_fc
I0403 15:49:43.363813 11459 net.cpp:91] Creating Layer loss2/drop_fc
I0403 15:49:43.363828 11459 net.cpp:425] loss2/drop_fc <- loss2/fc
I0403 15:49:43.363848 11459 net.cpp:386] loss2/drop_fc -> loss2/fc (in-place)
I0403 15:49:43.363896 11459 net.cpp:141] Setting up loss2/drop_fc
I0403 15:49:43.363919 11459 net.cpp:148] Top shape: 24 1024 (24576)
I0403 15:49:43.363932 11459 net.cpp:156] Memory required for data: 1208417568
I0403 15:49:43.363948 11459 layer_factory.hpp:77] Creating layer loss2/classifier_plantvillage
I0403 15:49:43.363970 11459 net.cpp:91] Creating Layer loss2/classifier_plantvillage
I0403 15:49:43.363986 11459 net.cpp:425] loss2/classifier_plantvillage <- loss2/fc
I0403 15:49:43.364006 11459 net.cpp:399] loss2/classifier_plantvillage -> loss2/classifier_plantvillage
I0403 15:49:43.364395 11459 net.cpp:141] Setting up loss2/classifier_plantvillage
I0403 15:49:43.364419 11459 net.cpp:148] Top shape: 24 38 (912)
I0403 15:49:43.364449 11459 net.cpp:156] Memory required for data: 1208421216
I0403 15:49:43.364467 11459 layer_factory.hpp:77] Creating layer loss2/classifier_plantvillage_loss2/classifier_plantvillage_0_split
I0403 15:49:43.364487 11459 net.cpp:91] Creating Layer loss2/classifier_plantvillage_loss2/classifier_plantvillage_0_split
I0403 15:49:43.364503 11459 net.cpp:425] loss2/classifier_plantvillage_loss2/classifier_plantvillage_0_split <- loss2/classifier_plantvillage
I0403 15:49:43.364521 11459 net.cpp:399] loss2/classifier_plantvillage_loss2/classifier_plantvillage_0_split -> loss2/classifier_plantvillage_loss2/classifier_plantvillage_0_split_0
I0403 15:49:43.364542 11459 net.cpp:399] loss2/classifier_plantvillage_loss2/classifier_plantvillage_0_split -> loss2/classifier_plantvillage_loss2/classifier_plantvillage_0_split_1
I0403 15:49:43.364560 11459 net.cpp:399] loss2/classifier_plantvillage_loss2/classifier_plantvillage_0_split -> loss2/classifier_plantvillage_loss2/classifier_plantvillage_0_split_2
I0403 15:49:43.364637 11459 net.cpp:141] Setting up loss2/classifier_plantvillage_loss2/classifier_plantvillage_0_split
I0403 15:49:43.364660 11459 net.cpp:148] Top shape: 24 38 (912)
I0403 15:49:43.364675 11459 net.cpp:148] Top shape: 24 38 (912)
I0403 15:49:43.364691 11459 net.cpp:148] Top shape: 24 38 (912)
I0403 15:49:43.364703 11459 net.cpp:156] Memory required for data: 1208432160
I0403 15:49:43.364717 11459 layer_factory.hpp:77] Creating layer inception_4e/1x1
I0403 15:49:43.364737 11459 net.cpp:91] Creating Layer inception_4e/1x1
I0403 15:49:43.364751 11459 net.cpp:425] inception_4e/1x1 <- inception_4d/output_inception_4d/output_0_split_1
I0403 15:49:43.364771 11459 net.cpp:399] inception_4e/1x1 -> inception_4e/1x1
I0403 15:49:43.366549 11459 net.cpp:141] Setting up inception_4e/1x1
I0403 15:49:43.366576 11459 net.cpp:148] Top shape: 24 256 14 14 (1204224)
I0403 15:49:43.366592 11459 net.cpp:156] Memory required for data: 1213249056
I0403 15:49:43.366610 11459 layer_factory.hpp:77] Creating layer inception_4e/relu_1x1
I0403 15:49:43.366628 11459 net.cpp:91] Creating Layer inception_4e/relu_1x1
I0403 15:49:43.366646 11459 net.cpp:425] inception_4e/relu_1x1 <- inception_4e/1x1
I0403 15:49:43.366662 11459 net.cpp:386] inception_4e/relu_1x1 -> inception_4e/1x1 (in-place)
I0403 15:49:43.366958 11459 net.cpp:141] Setting up inception_4e/relu_1x1
I0403 15:49:43.366983 11459 net.cpp:148] Top shape: 24 256 14 14 (1204224)
I0403 15:49:43.366998 11459 net.cpp:156] Memory required for data: 1218065952
I0403 15:49:43.367012 11459 layer_factory.hpp:77] Creating layer inception_4e/3x3_reduce
I0403 15:49:43.367033 11459 net.cpp:91] Creating Layer inception_4e/3x3_reduce
I0403 15:49:43.367051 11459 net.cpp:425] inception_4e/3x3_reduce <- inception_4d/output_inception_4d/output_0_split_2
I0403 15:49:43.367071 11459 net.cpp:399] inception_4e/3x3_reduce -> inception_4e/3x3_reduce
I0403 15:49:43.369164 11459 net.cpp:141] Setting up inception_4e/3x3_reduce
I0403 15:49:43.369194 11459 net.cpp:148] Top shape: 24 160 14 14 (752640)
I0403 15:49:43.369210 11459 net.cpp:156] Memory required for data: 1221076512
I0403 15:49:43.369227 11459 layer_factory.hpp:77] Creating layer inception_4e/relu_3x3_reduce
I0403 15:49:43.369247 11459 net.cpp:91] Creating Layer inception_4e/relu_3x3_reduce
I0403 15:49:43.369263 11459 net.cpp:425] inception_4e/relu_3x3_reduce <- inception_4e/3x3_reduce
I0403 15:49:43.369280 11459 net.cpp:386] inception_4e/relu_3x3_reduce -> inception_4e/3x3_reduce (in-place)
I0403 15:49:43.369462 11459 net.cpp:141] Setting up inception_4e/relu_3x3_reduce
I0403 15:49:43.369485 11459 net.cpp:148] Top shape: 24 160 14 14 (752640)
I0403 15:49:43.369499 11459 net.cpp:156] Memory required for data: 1224087072
I0403 15:49:43.369514 11459 layer_factory.hpp:77] Creating layer inception_4e/3x3
I0403 15:49:43.369535 11459 net.cpp:91] Creating Layer inception_4e/3x3
I0403 15:49:43.369554 11459 net.cpp:425] inception_4e/3x3 <- inception_4e/3x3_reduce
I0403 15:49:43.369572 11459 net.cpp:399] inception_4e/3x3 -> inception_4e/3x3
I0403 15:49:43.374614 11459 net.cpp:141] Setting up inception_4e/3x3
I0403 15:49:43.374653 11459 net.cpp:148] Top shape: 24 320 14 14 (1505280)
I0403 15:49:43.374670 11459 net.cpp:156] Memory required for data: 1230108192
I0403 15:49:43.374688 11459 layer_factory.hpp:77] Creating layer inception_4e/relu_3x3
I0403 15:49:43.374708 11459 net.cpp:91] Creating Layer inception_4e/relu_3x3
I0403 15:49:43.374725 11459 net.cpp:425] inception_4e/relu_3x3 <- inception_4e/3x3
I0403 15:49:43.374743 11459 net.cpp:386] inception_4e/relu_3x3 -> inception_4e/3x3 (in-place)
I0403 15:49:43.375052 11459 net.cpp:141] Setting up inception_4e/relu_3x3
I0403 15:49:43.375080 11459 net.cpp:148] Top shape: 24 320 14 14 (1505280)
I0403 15:49:43.375095 11459 net.cpp:156] Memory required for data: 1236129312
I0403 15:49:43.375110 11459 layer_factory.hpp:77] Creating layer inception_4e/5x5_reduce
I0403 15:49:43.375134 11459 net.cpp:91] Creating Layer inception_4e/5x5_reduce
I0403 15:49:43.375152 11459 net.cpp:425] inception_4e/5x5_reduce <- inception_4d/output_inception_4d/output_0_split_3
I0403 15:49:43.375171 11459 net.cpp:399] inception_4e/5x5_reduce -> inception_4e/5x5_reduce
I0403 15:49:43.376265 11459 net.cpp:141] Setting up inception_4e/5x5_reduce
I0403 15:49:43.376291 11459 net.cpp:148] Top shape: 24 32 14 14 (150528)
I0403 15:49:43.376307 11459 net.cpp:156] Memory required for data: 1236731424
I0403 15:49:43.376324 11459 layer_factory.hpp:77] Creating layer inception_4e/relu_5x5_reduce
I0403 15:49:43.376344 11459 net.cpp:91] Creating Layer inception_4e/relu_5x5_reduce
I0403 15:49:43.376363 11459 net.cpp:425] inception_4e/relu_5x5_reduce <- inception_4e/5x5_reduce
I0403 15:49:43.376379 11459 net.cpp:386] inception_4e/relu_5x5_reduce -> inception_4e/5x5_reduce (in-place)
I0403 15:49:43.376682 11459 net.cpp:141] Setting up inception_4e/relu_5x5_reduce
I0403 15:49:43.376708 11459 net.cpp:148] Top shape: 24 32 14 14 (150528)
I0403 15:49:43.376723 11459 net.cpp:156] Memory required for data: 1237333536
I0403 15:49:43.376736 11459 layer_factory.hpp:77] Creating layer inception_4e/5x5
I0403 15:49:43.376775 11459 net.cpp:91] Creating Layer inception_4e/5x5
I0403 15:49:43.376793 11459 net.cpp:425] inception_4e/5x5 <- inception_4e/5x5_reduce
I0403 15:49:43.376811 11459 net.cpp:399] inception_4e/5x5 -> inception_4e/5x5
I0403 15:49:43.378695 11459 net.cpp:141] Setting up inception_4e/5x5
I0403 15:49:43.378722 11459 net.cpp:148] Top shape: 24 128 14 14 (602112)
I0403 15:49:43.378737 11459 net.cpp:156] Memory required for data: 1239741984
I0403 15:49:43.378757 11459 layer_factory.hpp:77] Creating layer inception_4e/relu_5x5
I0403 15:49:43.378774 11459 net.cpp:91] Creating Layer inception_4e/relu_5x5
I0403 15:49:43.378790 11459 net.cpp:425] inception_4e/relu_5x5 <- inception_4e/5x5
I0403 15:49:43.378809 11459 net.cpp:386] inception_4e/relu_5x5 -> inception_4e/5x5 (in-place)
I0403 15:49:43.379019 11459 net.cpp:141] Setting up inception_4e/relu_5x5
I0403 15:49:43.379045 11459 net.cpp:148] Top shape: 24 128 14 14 (602112)
I0403 15:49:43.379060 11459 net.cpp:156] Memory required for data: 1242150432
I0403 15:49:43.379075 11459 layer_factory.hpp:77] Creating layer inception_4e/pool
I0403 15:49:43.379094 11459 net.cpp:91] Creating Layer inception_4e/pool
I0403 15:49:43.379112 11459 net.cpp:425] inception_4e/pool <- inception_4d/output_inception_4d/output_0_split_4
I0403 15:49:43.379128 11459 net.cpp:399] inception_4e/pool -> inception_4e/pool
I0403 15:49:43.379201 11459 net.cpp:141] Setting up inception_4e/pool
I0403 15:49:43.379225 11459 net.cpp:148] Top shape: 24 528 14 14 (2483712)
I0403 15:49:43.379238 11459 net.cpp:156] Memory required for data: 1252085280
I0403 15:49:43.379252 11459 layer_factory.hpp:77] Creating layer inception_4e/pool_proj
I0403 15:49:43.379274 11459 net.cpp:91] Creating Layer inception_4e/pool_proj
I0403 15:49:43.379292 11459 net.cpp:425] inception_4e/pool_proj <- inception_4e/pool
I0403 15:49:43.379312 11459 net.cpp:399] inception_4e/pool_proj -> inception_4e/pool_proj
I0403 15:49:43.380841 11459 net.cpp:141] Setting up inception_4e/pool_proj
I0403 15:49:43.380882 11459 net.cpp:148] Top shape: 24 128 14 14 (602112)
I0403 15:49:43.380897 11459 net.cpp:156] Memory required for data: 1254493728
I0403 15:49:43.380916 11459 layer_factory.hpp:77] Creating layer inception_4e/relu_pool_proj
I0403 15:49:43.380934 11459 net.cpp:91] Creating Layer inception_4e/relu_pool_proj
I0403 15:49:43.380954 11459 net.cpp:425] inception_4e/relu_pool_proj <- inception_4e/pool_proj
I0403 15:49:43.380975 11459 net.cpp:386] inception_4e/relu_pool_proj -> inception_4e/pool_proj (in-place)
I0403 15:49:43.381268 11459 net.cpp:141] Setting up inception_4e/relu_pool_proj
I0403 15:49:43.381294 11459 net.cpp:148] Top shape: 24 128 14 14 (602112)
I0403 15:49:43.381309 11459 net.cpp:156] Memory required for data: 1256902176
I0403 15:49:43.381325 11459 layer_factory.hpp:77] Creating layer inception_4e/output
I0403 15:49:43.381341 11459 net.cpp:91] Creating Layer inception_4e/output
I0403 15:49:43.381357 11459 net.cpp:425] inception_4e/output <- inception_4e/1x1
I0403 15:49:43.381373 11459 net.cpp:425] inception_4e/output <- inception_4e/3x3
I0403 15:49:43.381389 11459 net.cpp:425] inception_4e/output <- inception_4e/5x5
I0403 15:49:43.381405 11459 net.cpp:425] inception_4e/output <- inception_4e/pool_proj
I0403 15:49:43.381422 11459 net.cpp:399] inception_4e/output -> inception_4e/output
I0403 15:49:43.381472 11459 net.cpp:141] Setting up inception_4e/output
I0403 15:49:43.381495 11459 net.cpp:148] Top shape: 24 832 14 14 (3913728)
I0403 15:49:43.381510 11459 net.cpp:156] Memory required for data: 1272557088
I0403 15:49:43.381525 11459 layer_factory.hpp:77] Creating layer pool4/3x3_s2
I0403 15:49:43.381543 11459 net.cpp:91] Creating Layer pool4/3x3_s2
I0403 15:49:43.381559 11459 net.cpp:425] pool4/3x3_s2 <- inception_4e/output
I0403 15:49:43.381577 11459 net.cpp:399] pool4/3x3_s2 -> pool4/3x3_s2
I0403 15:49:43.381646 11459 net.cpp:141] Setting up pool4/3x3_s2
I0403 15:49:43.381670 11459 net.cpp:148] Top shape: 24 832 7 7 (978432)
I0403 15:49:43.381685 11459 net.cpp:156] Memory required for data: 1276470816
I0403 15:49:43.381698 11459 layer_factory.hpp:77] Creating layer pool4/3x3_s2_pool4/3x3_s2_0_split
I0403 15:49:43.381714 11459 net.cpp:91] Creating Layer pool4/3x3_s2_pool4/3x3_s2_0_split
I0403 15:49:43.381731 11459 net.cpp:425] pool4/3x3_s2_pool4/3x3_s2_0_split <- pool4/3x3_s2
I0403 15:49:43.381749 11459 net.cpp:399] pool4/3x3_s2_pool4/3x3_s2_0_split -> pool4/3x3_s2_pool4/3x3_s2_0_split_0
I0403 15:49:43.381769 11459 net.cpp:399] pool4/3x3_s2_pool4/3x3_s2_0_split -> pool4/3x3_s2_pool4/3x3_s2_0_split_1
I0403 15:49:43.381789 11459 net.cpp:399] pool4/3x3_s2_pool4/3x3_s2_0_split -> pool4/3x3_s2_pool4/3x3_s2_0_split_2
I0403 15:49:43.381808 11459 net.cpp:399] pool4/3x3_s2_pool4/3x3_s2_0_split -> pool4/3x3_s2_pool4/3x3_s2_0_split_3
I0403 15:49:43.381902 11459 net.cpp:141] Setting up pool4/3x3_s2_pool4/3x3_s2_0_split
I0403 15:49:43.381927 11459 net.cpp:148] Top shape: 24 832 7 7 (978432)
I0403 15:49:43.381943 11459 net.cpp:148] Top shape: 24 832 7 7 (978432)
I0403 15:49:43.381964 11459 net.cpp:148] Top shape: 24 832 7 7 (978432)
I0403 15:49:43.381980 11459 net.cpp:148] Top shape: 24 832 7 7 (978432)
I0403 15:49:43.381994 11459 net.cpp:156] Memory required for data: 1292125728
I0403 15:49:43.382007 11459 layer_factory.hpp:77] Creating layer inception_5a/1x1
I0403 15:49:43.382030 11459 net.cpp:91] Creating Layer inception_5a/1x1
I0403 15:49:43.382046 11459 net.cpp:425] inception_5a/1x1 <- pool4/3x3_s2_pool4/3x3_s2_0_split_0
I0403 15:49:43.382064 11459 net.cpp:399] inception_5a/1x1 -> inception_5a/1x1
I0403 15:49:43.384951 11459 net.cpp:141] Setting up inception_5a/1x1
I0403 15:49:43.384980 11459 net.cpp:148] Top shape: 24 256 7 7 (301056)
I0403 15:49:43.384995 11459 net.cpp:156] Memory required for data: 1293329952
I0403 15:49:43.385013 11459 layer_factory.hpp:77] Creating layer inception_5a/relu_1x1
I0403 15:49:43.385031 11459 net.cpp:91] Creating Layer inception_5a/relu_1x1
I0403 15:49:43.385051 11459 net.cpp:425] inception_5a/relu_1x1 <- inception_5a/1x1
I0403 15:49:43.385067 11459 net.cpp:386] inception_5a/relu_1x1 -> inception_5a/1x1 (in-place)
I0403 15:49:43.385385 11459 net.cpp:141] Setting up inception_5a/relu_1x1
I0403 15:49:43.385409 11459 net.cpp:148] Top shape: 24 256 7 7 (301056)
I0403 15:49:43.385426 11459 net.cpp:156] Memory required for data: 1294534176
I0403 15:49:43.385440 11459 layer_factory.hpp:77] Creating layer inception_5a/3x3_reduce
I0403 15:49:43.385462 11459 net.cpp:91] Creating Layer inception_5a/3x3_reduce
I0403 15:49:43.385479 11459 net.cpp:425] inception_5a/3x3_reduce <- pool4/3x3_s2_pool4/3x3_s2_0_split_1
I0403 15:49:43.385500 11459 net.cpp:399] inception_5a/3x3_reduce -> inception_5a/3x3_reduce
I0403 15:49:43.387992 11459 net.cpp:141] Setting up inception_5a/3x3_reduce
I0403 15:49:43.388025 11459 net.cpp:148] Top shape: 24 160 7 7 (188160)
I0403 15:49:43.388041 11459 net.cpp:156] Memory required for data: 1295286816
I0403 15:49:43.388058 11459 layer_factory.hpp:77] Creating layer inception_5a/relu_3x3_reduce
I0403 15:49:43.388077 11459 net.cpp:91] Creating Layer inception_5a/relu_3x3_reduce
I0403 15:49:43.388093 11459 net.cpp:425] inception_5a/relu_3x3_reduce <- inception_5a/3x3_reduce
I0403 15:49:43.388110 11459 net.cpp:386] inception_5a/relu_3x3_reduce -> inception_5a/3x3_reduce (in-place)
I0403 15:49:43.388308 11459 net.cpp:141] Setting up inception_5a/relu_3x3_reduce
I0403 15:49:43.388331 11459 net.cpp:148] Top shape: 24 160 7 7 (188160)
I0403 15:49:43.388346 11459 net.cpp:156] Memory required for data: 1296039456
I0403 15:49:43.388361 11459 layer_factory.hpp:77] Creating layer inception_5a/3x3
I0403 15:49:43.388383 11459 net.cpp:91] Creating Layer inception_5a/3x3
I0403 15:49:43.388401 11459 net.cpp:425] inception_5a/3x3 <- inception_5a/3x3_reduce
I0403 15:49:43.388422 11459 net.cpp:399] inception_5a/3x3 -> inception_5a/3x3
I0403 15:49:43.393435 11459 net.cpp:141] Setting up inception_5a/3x3
I0403 15:49:43.393465 11459 net.cpp:148] Top shape: 24 320 7 7 (376320)
I0403 15:49:43.393479 11459 net.cpp:156] Memory required for data: 1297544736
I0403 15:49:43.393497 11459 layer_factory.hpp:77] Creating layer inception_5a/relu_3x3
I0403 15:49:43.393515 11459 net.cpp:91] Creating Layer inception_5a/relu_3x3
I0403 15:49:43.393532 11459 net.cpp:425] inception_5a/relu_3x3 <- inception_5a/3x3
I0403 15:49:43.393549 11459 net.cpp:386] inception_5a/relu_3x3 -> inception_5a/3x3 (in-place)
I0403 15:49:43.393839 11459 net.cpp:141] Setting up inception_5a/relu_3x3
I0403 15:49:43.393864 11459 net.cpp:148] Top shape: 24 320 7 7 (376320)
I0403 15:49:43.393878 11459 net.cpp:156] Memory required for data: 1299050016
I0403 15:49:43.393893 11459 layer_factory.hpp:77] Creating layer inception_5a/5x5_reduce
I0403 15:49:43.393918 11459 net.cpp:91] Creating Layer inception_5a/5x5_reduce
I0403 15:49:43.393935 11459 net.cpp:425] inception_5a/5x5_reduce <- pool4/3x3_s2_pool4/3x3_s2_0_split_2
I0403 15:49:43.393959 11459 net.cpp:399] inception_5a/5x5_reduce -> inception_5a/5x5_reduce
I0403 15:49:43.395119 11459 net.cpp:141] Setting up inception_5a/5x5_reduce
I0403 15:49:43.395148 11459 net.cpp:148] Top shape: 24 32 7 7 (37632)
I0403 15:49:43.395162 11459 net.cpp:156] Memory required for data: 1299200544
I0403 15:49:43.395191 11459 layer_factory.hpp:77] Creating layer inception_5a/relu_5x5_reduce
I0403 15:49:43.395211 11459 net.cpp:91] Creating Layer inception_5a/relu_5x5_reduce
I0403 15:49:43.395228 11459 net.cpp:425] inception_5a/relu_5x5_reduce <- inception_5a/5x5_reduce
I0403 15:49:43.395246 11459 net.cpp:386] inception_5a/relu_5x5_reduce -> inception_5a/5x5_reduce (in-place)
I0403 15:49:43.395551 11459 net.cpp:141] Setting up inception_5a/relu_5x5_reduce
I0403 15:49:43.395576 11459 net.cpp:148] Top shape: 24 32 7 7 (37632)
I0403 15:49:43.395591 11459 net.cpp:156] Memory required for data: 1299351072
I0403 15:49:43.395606 11459 layer_factory.hpp:77] Creating layer inception_5a/5x5
I0403 15:49:43.395627 11459 net.cpp:91] Creating Layer inception_5a/5x5
I0403 15:49:43.395642 11459 net.cpp:425] inception_5a/5x5 <- inception_5a/5x5_reduce
I0403 15:49:43.395663 11459 net.cpp:399] inception_5a/5x5 -> inception_5a/5x5
I0403 15:49:43.397358 11459 net.cpp:141] Setting up inception_5a/5x5
I0403 15:49:43.397397 11459 net.cpp:148] Top shape: 24 128 7 7 (150528)
I0403 15:49:43.397413 11459 net.cpp:156] Memory required for data: 1299953184
I0403 15:49:43.397429 11459 layer_factory.hpp:77] Creating layer inception_5a/relu_5x5
I0403 15:49:43.397447 11459 net.cpp:91] Creating Layer inception_5a/relu_5x5
I0403 15:49:43.397464 11459 net.cpp:425] inception_5a/relu_5x5 <- inception_5a/5x5
I0403 15:49:43.397482 11459 net.cpp:386] inception_5a/relu_5x5 -> inception_5a/5x5 (in-place)
I0403 15:49:43.397670 11459 net.cpp:141] Setting up inception_5a/relu_5x5
I0403 15:49:43.397693 11459 net.cpp:148] Top shape: 24 128 7 7 (150528)
I0403 15:49:43.397707 11459 net.cpp:156] Memory required for data: 1300555296
I0403 15:49:43.397722 11459 layer_factory.hpp:77] Creating layer inception_5a/pool
I0403 15:49:43.397740 11459 net.cpp:91] Creating Layer inception_5a/pool
I0403 15:49:43.397756 11459 net.cpp:425] inception_5a/pool <- pool4/3x3_s2_pool4/3x3_s2_0_split_3
I0403 15:49:43.397774 11459 net.cpp:399] inception_5a/pool -> inception_5a/pool
I0403 15:49:43.397847 11459 net.cpp:141] Setting up inception_5a/pool
I0403 15:49:43.397869 11459 net.cpp:148] Top shape: 24 832 7 7 (978432)
I0403 15:49:43.397883 11459 net.cpp:156] Memory required for data: 1304469024
I0403 15:49:43.397897 11459 layer_factory.hpp:77] Creating layer inception_5a/pool_proj
I0403 15:49:43.397918 11459 net.cpp:91] Creating Layer inception_5a/pool_proj
I0403 15:49:43.397935 11459 net.cpp:425] inception_5a/pool_proj <- inception_5a/pool
I0403 15:49:43.397959 11459 net.cpp:399] inception_5a/pool_proj -> inception_5a/pool_proj
I0403 15:49:43.400226 11459 net.cpp:141] Setting up inception_5a/pool_proj
I0403 15:49:43.400257 11459 net.cpp:148] Top shape: 24 128 7 7 (150528)
I0403 15:49:43.400274 11459 net.cpp:156] Memory required for data: 1305071136
I0403 15:49:43.400291 11459 layer_factory.hpp:77] Creating layer inception_5a/relu_pool_proj
I0403 15:49:43.400310 11459 net.cpp:91] Creating Layer inception_5a/relu_pool_proj
I0403 15:49:43.400326 11459 net.cpp:425] inception_5a/relu_pool_proj <- inception_5a/pool_proj
I0403 15:49:43.400343 11459 net.cpp:386] inception_5a/relu_pool_proj -> inception_5a/pool_proj (in-place)
I0403 15:49:43.400631 11459 net.cpp:141] Setting up inception_5a/relu_pool_proj
I0403 15:49:43.400658 11459 net.cpp:148] Top shape: 24 128 7 7 (150528)
I0403 15:49:43.400672 11459 net.cpp:156] Memory required for data: 1305673248
I0403 15:49:43.400687 11459 layer_factory.hpp:77] Creating layer inception_5a/output
I0403 15:49:43.400704 11459 net.cpp:91] Creating Layer inception_5a/output
I0403 15:49:43.400719 11459 net.cpp:425] inception_5a/output <- inception_5a/1x1
I0403 15:49:43.400737 11459 net.cpp:425] inception_5a/output <- inception_5a/3x3
I0403 15:49:43.400751 11459 net.cpp:425] inception_5a/output <- inception_5a/5x5
I0403 15:49:43.400768 11459 net.cpp:425] inception_5a/output <- inception_5a/pool_proj
I0403 15:49:43.400786 11459 net.cpp:399] inception_5a/output -> inception_5a/output
I0403 15:49:43.400836 11459 net.cpp:141] Setting up inception_5a/output
I0403 15:49:43.400858 11459 net.cpp:148] Top shape: 24 832 7 7 (978432)
I0403 15:49:43.400873 11459 net.cpp:156] Memory required for data: 1309586976
I0403 15:49:43.400887 11459 layer_factory.hpp:77] Creating layer inception_5a/output_inception_5a/output_0_split
I0403 15:49:43.400918 11459 net.cpp:91] Creating Layer inception_5a/output_inception_5a/output_0_split
I0403 15:49:43.400935 11459 net.cpp:425] inception_5a/output_inception_5a/output_0_split <- inception_5a/output
I0403 15:49:43.400959 11459 net.cpp:399] inception_5a/output_inception_5a/output_0_split -> inception_5a/output_inception_5a/output_0_split_0
I0403 15:49:43.400979 11459 net.cpp:399] inception_5a/output_inception_5a/output_0_split -> inception_5a/output_inception_5a/output_0_split_1
I0403 15:49:43.401001 11459 net.cpp:399] inception_5a/output_inception_5a/output_0_split -> inception_5a/output_inception_5a/output_0_split_2
I0403 15:49:43.401022 11459 net.cpp:399] inception_5a/output_inception_5a/output_0_split -> inception_5a/output_inception_5a/output_0_split_3
I0403 15:49:43.401135 11459 net.cpp:141] Setting up inception_5a/output_inception_5a/output_0_split
I0403 15:49:43.401159 11459 net.cpp:148] Top shape: 24 832 7 7 (978432)
I0403 15:49:43.401175 11459 net.cpp:148] Top shape: 24 832 7 7 (978432)
I0403 15:49:43.401190 11459 net.cpp:148] Top shape: 24 832 7 7 (978432)
I0403 15:49:43.401216 11459 net.cpp:148] Top shape: 24 832 7 7 (978432)
I0403 15:49:43.401229 11459 net.cpp:156] Memory required for data: 1325241888
I0403 15:49:43.401243 11459 layer_factory.hpp:77] Creating layer inception_5b/1x1
I0403 15:49:43.401264 11459 net.cpp:91] Creating Layer inception_5b/1x1
I0403 15:49:43.401281 11459 net.cpp:425] inception_5b/1x1 <- inception_5a/output_inception_5a/output_0_split_0
I0403 15:49:43.401301 11459 net.cpp:399] inception_5b/1x1 -> inception_5b/1x1
I0403 15:49:43.405055 11459 net.cpp:141] Setting up inception_5b/1x1
I0403 15:49:43.405086 11459 net.cpp:148] Top shape: 24 384 7 7 (451584)
I0403 15:49:43.405102 11459 net.cpp:156] Memory required for data: 1327048224
I0403 15:49:43.405119 11459 layer_factory.hpp:77] Creating layer inception_5b/relu_1x1
I0403 15:49:43.405138 11459 net.cpp:91] Creating Layer inception_5b/relu_1x1
I0403 15:49:43.405153 11459 net.cpp:425] inception_5b/relu_1x1 <- inception_5b/1x1
I0403 15:49:43.405170 11459 net.cpp:386] inception_5b/relu_1x1 -> inception_5b/1x1 (in-place)
I0403 15:49:43.405475 11459 net.cpp:141] Setting up inception_5b/relu_1x1
I0403 15:49:43.405503 11459 net.cpp:148] Top shape: 24 384 7 7 (451584)
I0403 15:49:43.405517 11459 net.cpp:156] Memory required for data: 1328854560
I0403 15:49:43.405531 11459 layer_factory.hpp:77] Creating layer inception_5b/3x3_reduce
I0403 15:49:43.405552 11459 net.cpp:91] Creating Layer inception_5b/3x3_reduce
I0403 15:49:43.405570 11459 net.cpp:425] inception_5b/3x3_reduce <- inception_5a/output_inception_5a/output_0_split_1
I0403 15:49:43.405587 11459 net.cpp:399] inception_5b/3x3_reduce -> inception_5b/3x3_reduce
I0403 15:49:43.408241 11459 net.cpp:141] Setting up inception_5b/3x3_reduce
I0403 15:49:43.408272 11459 net.cpp:148] Top shape: 24 192 7 7 (225792)
I0403 15:49:43.408288 11459 net.cpp:156] Memory required for data: 1329757728
I0403 15:49:43.408305 11459 layer_factory.hpp:77] Creating layer inception_5b/relu_3x3_reduce
I0403 15:49:43.408323 11459 net.cpp:91] Creating Layer inception_5b/relu_3x3_reduce
I0403 15:49:43.408339 11459 net.cpp:425] inception_5b/relu_3x3_reduce <- inception_5b/3x3_reduce
I0403 15:49:43.408357 11459 net.cpp:386] inception_5b/relu_3x3_reduce -> inception_5b/3x3_reduce (in-place)
I0403 15:49:43.408547 11459 net.cpp:141] Setting up inception_5b/relu_3x3_reduce
I0403 15:49:43.408571 11459 net.cpp:148] Top shape: 24 192 7 7 (225792)
I0403 15:49:43.408586 11459 net.cpp:156] Memory required for data: 1330660896
I0403 15:49:43.408599 11459 layer_factory.hpp:77] Creating layer inception_5b/3x3
I0403 15:49:43.408620 11459 net.cpp:91] Creating Layer inception_5b/3x3
I0403 15:49:43.408638 11459 net.cpp:425] inception_5b/3x3 <- inception_5b/3x3_reduce
I0403 15:49:43.408658 11459 net.cpp:399] inception_5b/3x3 -> inception_5b/3x3
I0403 15:49:43.415277 11459 net.cpp:141] Setting up inception_5b/3x3
I0403 15:49:43.415307 11459 net.cpp:148] Top shape: 24 384 7 7 (451584)
I0403 15:49:43.415323 11459 net.cpp:156] Memory required for data: 1332467232
I0403 15:49:43.415340 11459 layer_factory.hpp:77] Creating layer inception_5b/relu_3x3
I0403 15:49:43.415357 11459 net.cpp:91] Creating Layer inception_5b/relu_3x3
I0403 15:49:43.415374 11459 net.cpp:425] inception_5b/relu_3x3 <- inception_5b/3x3
I0403 15:49:43.415391 11459 net.cpp:386] inception_5b/relu_3x3 -> inception_5b/3x3 (in-place)
I0403 15:49:43.415686 11459 net.cpp:141] Setting up inception_5b/relu_3x3
I0403 15:49:43.415714 11459 net.cpp:148] Top shape: 24 384 7 7 (451584)
I0403 15:49:43.415729 11459 net.cpp:156] Memory required for data: 1334273568
I0403 15:49:43.415742 11459 layer_factory.hpp:77] Creating layer inception_5b/5x5_reduce
I0403 15:49:43.415778 11459 net.cpp:91] Creating Layer inception_5b/5x5_reduce
I0403 15:49:43.415796 11459 net.cpp:425] inception_5b/5x5_reduce <- inception_5a/output_inception_5a/output_0_split_2
I0403 15:49:43.415815 11459 net.cpp:399] inception_5b/5x5_reduce -> inception_5b/5x5_reduce
I0403 15:49:43.417101 11459 net.cpp:141] Setting up inception_5b/5x5_reduce
I0403 15:49:43.417131 11459 net.cpp:148] Top shape: 24 48 7 7 (56448)
I0403 15:49:43.417146 11459 net.cpp:156] Memory required for data: 1334499360
I0403 15:49:43.417165 11459 layer_factory.hpp:77] Creating layer inception_5b/relu_5x5_reduce
I0403 15:49:43.417182 11459 net.cpp:91] Creating Layer inception_5b/relu_5x5_reduce
I0403 15:49:43.417197 11459 net.cpp:425] inception_5b/relu_5x5_reduce <- inception_5b/5x5_reduce
I0403 15:49:43.417217 11459 net.cpp:386] inception_5b/relu_5x5_reduce -> inception_5b/5x5_reduce (in-place)
I0403 15:49:43.417584 11459 net.cpp:141] Setting up inception_5b/relu_5x5_reduce
I0403 15:49:43.417610 11459 net.cpp:148] Top shape: 24 48 7 7 (56448)
I0403 15:49:43.417624 11459 net.cpp:156] Memory required for data: 1334725152
I0403 15:49:43.417639 11459 layer_factory.hpp:77] Creating layer inception_5b/5x5
I0403 15:49:43.417659 11459 net.cpp:91] Creating Layer inception_5b/5x5
I0403 15:49:43.417675 11459 net.cpp:425] inception_5b/5x5 <- inception_5b/5x5_reduce
I0403 15:49:43.417692 11459 net.cpp:399] inception_5b/5x5 -> inception_5b/5x5
I0403 15:49:43.419814 11459 net.cpp:141] Setting up inception_5b/5x5
I0403 15:49:43.419842 11459 net.cpp:148] Top shape: 24 128 7 7 (150528)
I0403 15:49:43.419857 11459 net.cpp:156] Memory required for data: 1335327264
I0403 15:49:43.419874 11459 layer_factory.hpp:77] Creating layer inception_5b/relu_5x5
I0403 15:49:43.419893 11459 net.cpp:91] Creating Layer inception_5b/relu_5x5
I0403 15:49:43.419910 11459 net.cpp:425] inception_5b/relu_5x5 <- inception_5b/5x5
I0403 15:49:43.419927 11459 net.cpp:386] inception_5b/relu_5x5 -> inception_5b/5x5 (in-place)
I0403 15:49:43.420121 11459 net.cpp:141] Setting up inception_5b/relu_5x5
I0403 15:49:43.420145 11459 net.cpp:148] Top shape: 24 128 7 7 (150528)
I0403 15:49:43.420159 11459 net.cpp:156] Memory required for data: 1335929376
I0403 15:49:43.420173 11459 layer_factory.hpp:77] Creating layer inception_5b/pool
I0403 15:49:43.420192 11459 net.cpp:91] Creating Layer inception_5b/pool
I0403 15:49:43.420210 11459 net.cpp:425] inception_5b/pool <- inception_5a/output_inception_5a/output_0_split_3
I0403 15:49:43.420228 11459 net.cpp:399] inception_5b/pool -> inception_5b/pool
I0403 15:49:43.420303 11459 net.cpp:141] Setting up inception_5b/pool
I0403 15:49:43.420326 11459 net.cpp:148] Top shape: 24 832 7 7 (978432)
I0403 15:49:43.420341 11459 net.cpp:156] Memory required for data: 1339843104
I0403 15:49:43.420354 11459 layer_factory.hpp:77] Creating layer inception_5b/pool_proj
I0403 15:49:43.420374 11459 net.cpp:91] Creating Layer inception_5b/pool_proj
I0403 15:49:43.420392 11459 net.cpp:425] inception_5b/pool_proj <- inception_5b/pool
I0403 15:49:43.420410 11459 net.cpp:399] inception_5b/pool_proj -> inception_5b/pool_proj
I0403 15:49:43.422741 11459 net.cpp:141] Setting up inception_5b/pool_proj
I0403 15:49:43.422770 11459 net.cpp:148] Top shape: 24 128 7 7 (150528)
I0403 15:49:43.422785 11459 net.cpp:156] Memory required for data: 1340445216
I0403 15:49:43.422804 11459 layer_factory.hpp:77] Creating layer inception_5b/relu_pool_proj
I0403 15:49:43.422821 11459 net.cpp:91] Creating Layer inception_5b/relu_pool_proj
I0403 15:49:43.422837 11459 net.cpp:425] inception_5b/relu_pool_proj <- inception_5b/pool_proj
I0403 15:49:43.422855 11459 net.cpp:386] inception_5b/relu_pool_proj -> inception_5b/pool_proj (in-place)
I0403 15:49:43.423157 11459 net.cpp:141] Setting up inception_5b/relu_pool_proj
I0403 15:49:43.423182 11459 net.cpp:148] Top shape: 24 128 7 7 (150528)
I0403 15:49:43.423197 11459 net.cpp:156] Memory required for data: 1341047328
I0403 15:49:43.423213 11459 layer_factory.hpp:77] Creating layer inception_5b/output
I0403 15:49:43.423229 11459 net.cpp:91] Creating Layer inception_5b/output
I0403 15:49:43.423259 11459 net.cpp:425] inception_5b/output <- inception_5b/1x1
I0403 15:49:43.423276 11459 net.cpp:425] inception_5b/output <- inception_5b/3x3
I0403 15:49:43.423292 11459 net.cpp:425] inception_5b/output <- inception_5b/5x5
I0403 15:49:43.423308 11459 net.cpp:425] inception_5b/output <- inception_5b/pool_proj
I0403 15:49:43.423326 11459 net.cpp:399] inception_5b/output -> inception_5b/output
I0403 15:49:43.423377 11459 net.cpp:141] Setting up inception_5b/output
I0403 15:49:43.423399 11459 net.cpp:148] Top shape: 24 1024 7 7 (1204224)
I0403 15:49:43.423416 11459 net.cpp:156] Memory required for data: 1345864224
I0403 15:49:43.423431 11459 layer_factory.hpp:77] Creating layer pool5/7x7_s1
I0403 15:49:43.423449 11459 net.cpp:91] Creating Layer pool5/7x7_s1
I0403 15:49:43.423465 11459 net.cpp:425] pool5/7x7_s1 <- inception_5b/output
I0403 15:49:43.423482 11459 net.cpp:399] pool5/7x7_s1 -> pool5/7x7_s1
I0403 15:49:43.423702 11459 net.cpp:141] Setting up pool5/7x7_s1
I0403 15:49:43.423725 11459 net.cpp:148] Top shape: 24 1024 1 1 (24576)
I0403 15:49:43.423739 11459 net.cpp:156] Memory required for data: 1345962528
I0403 15:49:43.423753 11459 layer_factory.hpp:77] Creating layer pool5/drop_7x7_s1
I0403 15:49:43.423771 11459 net.cpp:91] Creating Layer pool5/drop_7x7_s1
I0403 15:49:43.423787 11459 net.cpp:425] pool5/drop_7x7_s1 <- pool5/7x7_s1
I0403 15:49:43.423806 11459 net.cpp:386] pool5/drop_7x7_s1 -> pool5/7x7_s1 (in-place)
I0403 15:49:43.423854 11459 net.cpp:141] Setting up pool5/drop_7x7_s1
I0403 15:49:43.423878 11459 net.cpp:148] Top shape: 24 1024 1 1 (24576)
I0403 15:49:43.423893 11459 net.cpp:156] Memory required for data: 1346060832
I0403 15:49:43.423907 11459 layer_factory.hpp:77] Creating layer loss3/classifier_plantvillage
I0403 15:49:43.423925 11459 net.cpp:91] Creating Layer loss3/classifier_plantvillage
I0403 15:49:43.423941 11459 net.cpp:425] loss3/classifier_plantvillage <- pool5/7x7_s1
I0403 15:49:43.423966 11459 net.cpp:399] loss3/classifier_plantvillage -> loss3/classifier_plantvillage
I0403 15:49:43.424387 11459 net.cpp:141] Setting up loss3/classifier_plantvillage
I0403 15:49:43.424412 11459 net.cpp:148] Top shape: 24 38 (912)
I0403 15:49:43.424425 11459 net.cpp:156] Memory required for data: 1346064480
I0403 15:49:43.424443 11459 layer_factory.hpp:77] Creating layer loss3/classifier_plantvillage_loss3/classifier_plantvillage_0_split
I0403 15:49:43.424463 11459 net.cpp:91] Creating Layer loss3/classifier_plantvillage_loss3/classifier_plantvillage_0_split
I0403 15:49:43.424479 11459 net.cpp:425] loss3/classifier_plantvillage_loss3/classifier_plantvillage_0_split <- loss3/classifier_plantvillage
I0403 15:49:43.424495 11459 net.cpp:399] loss3/classifier_plantvillage_loss3/classifier_plantvillage_0_split -> loss3/classifier_plantvillage_loss3/classifier_plantvillage_0_split_0
I0403 15:49:43.424515 11459 net.cpp:399] loss3/classifier_plantvillage_loss3/classifier_plantvillage_0_split -> loss3/classifier_plantvillage_loss3/classifier_plantvillage_0_split_1
I0403 15:49:43.424536 11459 net.cpp:399] loss3/classifier_plantvillage_loss3/classifier_plantvillage_0_split -> loss3/classifier_plantvillage_loss3/classifier_plantvillage_0_split_2
I0403 15:49:43.424556 11459 net.cpp:399] loss3/classifier_plantvillage_loss3/classifier_plantvillage_0_split -> loss3/classifier_plantvillage_loss3/classifier_plantvillage_0_split_3
I0403 15:49:43.424657 11459 net.cpp:141] Setting up loss3/classifier_plantvillage_loss3/classifier_plantvillage_0_split
I0403 15:49:43.424679 11459 net.cpp:148] Top shape: 24 38 (912)
I0403 15:49:43.424695 11459 net.cpp:148] Top shape: 24 38 (912)
I0403 15:49:43.424708 11459 net.cpp:148] Top shape: 24 38 (912)
I0403 15:49:43.424723 11459 net.cpp:148] Top shape: 24 38 (912)
I0403 15:49:43.424736 11459 net.cpp:156] Memory required for data: 1346079072
I0403 15:49:43.424749 11459 layer_factory.hpp:77] Creating layer loss1/loss
I0403 15:49:43.424770 11459 net.cpp:91] Creating Layer loss1/loss
I0403 15:49:43.424787 11459 net.cpp:425] loss1/loss <- loss1/classifier_plantvillage_loss1/classifier_plantvillage_0_split_0
I0403 15:49:43.424815 11459 net.cpp:425] loss1/loss <- label_data_1_split_0
…
