…
I0403 15:39:37.115558 10865 net.cpp:313] The NetState phase (1) differed from the phase (0) specified by a rule in layer data
I0403 15:39:37.116731 10865 net.cpp:49] Initializing net from parameters: 
state {
  phase: TEST
}
layer {
  name: "data"
  type: "Data"
  top: "data"
  top: "label"
  include {
    phase: TEST
  }
  transform_param {
    mirror: false
    crop_size: 224
    mean_file: "/home/mohanty/data/final_dataset/lmdb/segmented-80-20/mean.binaryproto"
  }
  data_param {
    source: "/home/mohanty/data/final_dataset/lmdb/segmented-80-20/test_db"
    batch_size: 24
    backend: LMDB
  }
}
layer {
  name: "conv1/7x7_s2"
  type: "Convolution"
  bottom: "data"
  top: "conv1/7x7_s2"
  param {
    lr_mult: 1
    decay_mult: 1
  }
  param {
    lr_mult: 2
    decay_mult: 0
  }
  convolution_param {
    num_output: 64
    pad: 3
    kernel_size: 7
    stride: 2
    weight_filler {
      type: "xavier"
      std: 0.1
    }
    bias_filler {
      type: "constant"
      value: 0.2
    }
  }
}
layer {
  name: "conv1/relu_7x7"
  type: "ReLU"
  bottom: "conv1/7x7_s2"
  top: "conv1/7x7_s2"
}
layer {
  name: "pool1/3x3_s2"
  type: "Pooling"
  bottom: "conv1/7x7_s2"
  top: "pool1/3x3_s2"
  pooling_param {
    pool: MAX
    kernel_size: 3
    stride: 2
  }
}
layer {
  name: "pool1/norm1"
  type: "LRN"
  bottom: "pool1/3x3_s2"
  top: "pool1/norm1"
  lrn_param {
    local_size: 5
    alpha: 0.0001
    beta: 0.75
  }
}
layer {
  name: "conv2/3x3_reduce"
  type: "Convolution"
  bottom: "pool1/norm1"
  top: "conv2/3x3_reduce"
  param {
    lr_mult: 1
    decay_mult: 1
  }
  param {
    lr_mult: 2
    decay_mult: 0
  }
  convolution_param {
    num_output: 64
    kernel_size: 1
    weight_filler {
      type: "xavier"
      std: 0.1
    }
    bias_filler {
      type: "constant"
      value: 0.2
    }
  }
}
layer {
  name: "conv2/relu_3x3_reduce"
  type: "ReLU"
  bottom: "conv2/3x3_reduce"
  top: "conv2/3x3_reduce"
}
layer {
  name: "conv2/3x3"
  type: "Convolution"
  bottom: "conv2/3x3_reduce"
  top: "conv2/3x3"
  param {
    lr_mult: 1
    decay_mult: 1
  }
  param {
    lr_mult: 2
    decay_mult: 0
  }
  convolution_param {
    num_output: 192
    pad: 1
    kernel_size: 3
    weight_filler {
      type: "xavier"
      std: 0.03
    }
    bias_filler {
      type: "constant"
      value: 0.2
    }
  }
}
layer {
  name: "conv2/relu_3x3"
  type: "ReLU"
  bottom: "conv2/3x3"
  top: "conv2/3x3"
}
layer {
  name: "conv2/norm2"
  type: "LRN"
  bottom: "conv2/3x3"
  top: "conv2/norm2"
  lrn_param {
    local_size: 5
    alpha: 0.0001
    beta: 0.75
  }
}
layer {
  name: "pool2/3x3_s2"
  type: "Pooling"
  bottom: "conv2/norm2"
  top: "pool2/3x3_s2"
  pooling_param {
    pool: MAX
    kernel_size: 3
    stride: 2
  }
}
layer {
  name: "inception_3a/1x1"
  type: "Convolution"
  bottom: "pool2/3x3_s2"
  top: "inception_3a/1x1"
  param {
    lr_mult: 1
    decay_mult: 1
  }
  param {
    lr_mult: 2
    decay_mult: 0
  }
  convolution_param {
    num_output: 64
    kernel_size: 1
    weight_filler {
      type: "xavier"
      std: 0.03
    }
    bias_filler {
      type: "constant"
      value: 0.2
    }
  }
}
layer {
  name: "inception_3a/relu_1x1"
  type: "ReLU"
  bottom: "inception_3a/1x1"
  top: "inception_3a/1x1"
}
layer {
  name: "inception_3a/3x3_reduce"
  type: "Convolution"
  bottom: "pool2/3x3_s2"
  top: "inception_3a/3x3_reduce"
  param {
    lr_mult: 1
    decay_mult: 1
  }
  param {
    lr_mult: 2
    decay_mult: 0
  }
  convolution_param {
    num_output: 96
    kernel_size: 1
    weight_filler {
      type: "xavier"
      std: 0.09
    }
    bias_filler {
      type: "constant"
      value: 0.2
    }
  }
}
layer {
  name: "inception_3a/relu_3x3_reduce"
  type: "ReLU"
  bottom: "inception_3a/3x3_reduce"
  top: "inception_3a/3x3_reduce"
}
layer {
  name: "inception_3a/3x3"
  type: "Convolution"
  bottom: "inception_3a/3x3_reduce"
  top: "inception_3a/3x3"
  param {
    lr_mult: 1
    decay_mult: 1
  }
  param {
    lr_mult: 2
    decay_mult: 0
  }
  convolution_param {
    num_output: 128
    pad: 1
    kernel_size: 3
    weight_filler {
      type: "xavier"
      std: 0.03
    }
    bias_filler {
      type: "constant"
      value: 0.2
    }
  }
}
layer {
  name: "inception_3a/relu_3x3"
  type: "ReLU"
  bottom: "inception_3a/3x3"
  top: "inception_3a/3x3"
}
layer {
  name: "inception_3a/5x5_reduce"
  type: "Convolution"
  bottom: "pool2/3x3_s2"
  top: "inception_3a/5x5_reduce"
  param {
    lr_mult: 1
    decay_mult: 1
  }
  param {
    lr_mult: 2
    decay_mult: 0
  }
  convolution_param {
    num_output: 16
    kernel_size: 1
    weight_filler {
      type: "xavier"
      std: 0.2
    }
    bias_filler {
      type: "constant"
      value: 0.2
    }
  }
}
layer {
  name: "inception_3a/relu_5x5_reduce"
  type: "ReLU"
  bottom: "inception_3a/5x5_reduce"
  top: "inception_3a/5x5_reduce"
}
layer {
  name: "inception_3a/5x5"
  type: "Convolution"
  bottom: "inception_3a/5x5_reduce"
  top: "inception_3a/5x5"
  param {
    lr_mult: 1
    decay_mult: 1
  }
  param {
    lr_mult: 2
    decay_mult: 0
  }
  convolution_param {
    num_output: 32
    pad: 2
    kernel_size: 5
    weight_filler {
      type: "xavier"
      std: 0.03
    }
    bias_filler {
      type: "constant"
      value: 0.2
    }
  }
}
layer {
  name: "inception_3a/relu_5x5"
  type: "ReLU"
  bottom: "inception_3a/5x5"
  top: "inception_3a/5x5"
}
layer {
  name: "inception_3a/pool"
  type: "Pooling"
  bottom: "pool2/3x3_s2"
  top: "inception_3a/pool"
  pooling_param {
    pool: MAX
    kernel_size: 3
    stride: 1
    pad: 1
  }
}
layer {
  name: "inception_3a/pool_proj"
  type: "Convolution"
  bottom: "inception_3a/pool"
  top: "inception_3a/pool_proj"
  param {
    lr_mult: 1
    decay_mult: 1
  }
  param {
    lr_mult: 2
    decay_mult: 0
  }
  convolution_param {
    num_output: 32
    kernel_size: 1
    weight_filler {
      type: "xavier"
      std: 0.1
    }
    bias_filler {
      type: "constant"
      value: 0.2
    }
  }
}
layer {
  name: "inception_3a/relu_pool_proj"
  type: "ReLU"
  bottom: "inception_3a/pool_proj"
  top: "inception_3a/pool_proj"
}
layer {
  name: "inception_3a/output"
  type: "Concat"
  bottom: "inception_3a/1x1"
  bottom: "inception_3a/3x3"
  bottom: "inception_3a/5x5"
  bottom: "inception_3a/pool_proj"
  top: "inception_3a/output"
}
layer {
  name: "inception_3b/1x1"
  type: "Convolution"
  bottom: "inception_3a/output"
  top: "inception_3b/1x1"
  param {
    lr_mult: 1
    decay_mult: 1
  }
  param {
    lr_mult: 2
    decay_mult: 0
  }
  convolution_param {
    num_output: 128
    kernel_size: 1
    weight_filler {
      type: "xavier"
      std: 0.03
    }
    bias_filler {
      type: "constant"
      value: 0.2
    }
  }
}
layer {
  name: "inception_3b/relu_1x1"
  type: "ReLU"
  bottom: "inception_3b/1x1"
  top: "inception_3b/1x1"
}
layer {
  name: "inception_3b/3x3_reduce"
  type: "Convolution"
  bottom: "inception_3a/output"
  top: "inception_3b/3x3_reduce"
  param {
    lr_mult: 1
    decay_mult: 1
  }
  param {
    lr_mult: 2
    decay_mult: 0
  }
  convolution_param {
    num_output: 128
    kernel_size: 1
    weight_filler {
      type: "xavier"
      std: 0.09
    }
    bias_filler {
      type: "constant"
      value: 0.2
    }
  }
}
layer {
  name: "inception_3b/relu_3x3_reduce"
  type: "ReLU"
  bottom: "inception_3b/3x3_reduce"
  top: "inception_3b/3x3_reduce"
}
layer {
  name: "inception_3b/3x3"
  type: "Convolution"
  bottom: "inception_3b/3x3_reduce"
  top: "inception_3b/3x3"
  param {
    lr_mult: 1
    decay_mult: 1
  }
  param {
    lr_mult: 2
    decay_mult: 0
  }
  convolution_param {
    num_output: 192
    pad: 1
    kernel_size: 3
    weight_filler {
      type: "xavier"
      std: 0.03
    }
    bias_filler {
      type: "constant"
      value: 0.2
    }
  }
}
layer {
  name: "inception_3b/relu_3x3"
  type: "ReLU"
  bottom: "inception_3b/3x3"
  top: "inception_3b/3x3"
}
layer {
  name: "inception_3b/5x5_reduce"
  type: "Convolution"
  bottom: "inception_3a/output"
  top: "inception_3b/5x5_reduce"
  param {
    lr_mult: 1
    decay_mult: 1
  }
  param {
    lr_mult: 2
    decay_mult: 0
  }
  convolution_param {
    num_output: 32
    kernel_size: 1
    weight_filler {
      type: "xavier"
      std: 0.2
    }
    bias_filler {
      type: "constant"
      value: 0.2
    }
  }
}
layer {
  name: "inception_3b/relu_5x5_reduce"
  type: "ReLU"
  bottom: "inception_3b/5x5_reduce"
  top: "inception_3b/5x5_reduce"
}
layer {
  name: "inception_3b/5x5"
  type: "Convolution"
  bottom: "inception_3b/5x5_reduce"
  top: "inception_3b/5x5"
  param {
    lr_mult: 1
    decay_mult: 1
  }
  param {
    lr_mult: 2
    decay_mult: 0
  }
  convolution_param {
    num_output: 96
    pad: 2
    kernel_size: 5
    weight_filler {
      type: "xavier"
      std: 0.03
    }
    bias_filler {
      type: "constant"
      value: 0.2
    }
  }
}
layer {
  name: "inception_3b/relu_5x5"
  type: "ReLU"
  bottom: "inception_3b/5x5"
  top: "inception_3b/5x5"
}
layer {
  name: "inception_3b/pool"
  type: "Pooling"
  bottom: "inception_3a/output"
  top: "inception_3b/pool"
  pooling_param {
    pool: MAX
    kernel_size: 3
    stride: 1
    pad: 1
  }
}
layer {
  name: "inception_3b/pool_proj"
  type: "Convolution"
  bottom: "inception_3b/pool"
  top: "inception_3b/pool_proj"
  param {
    lr_mult: 1
    decay_mult: 1
  }
  param {
    lr_mult: 2
    decay_mult: 0
  }
  convolution_param {
    num_output: 64
    kernel_size: 1
    weight_filler {
      type: "xavier"
      std: 0.1
    }
    bias_filler {
      type: "constant"
      value: 0.2
    }
  }
}
layer {
  name: "inception_3b/relu_pool_proj"
  type: "ReLU"
  bottom: "inception_3b/pool_proj"
  top: "inception_3b/pool_proj"
}
layer {
  name: "inception_3b/output"
  type: "Concat"
  bottom: "inception_3b/1x1"
  bottom: "inception_3b/3x3"
  bottom: "inception_3b/5x5"
  bottom: "inception_3b/pool_proj"
  top: "inception_3b/output"
}
layer {
  name: "pool3/3x3_s2"
  type: "Pooling"
  bottom: "inception_3b/output"
  top: "pool3/3x3_s2"
  pooling_param {
    pool: MAX
    kernel_size: 3
    stride: 2
  }
}
layer {
  name: "inception_4a/1x1"
  type: "Convolution"
  bottom: "pool3/3x3_s2"
  top: "inception_4a/1x1"
  param {
    lr_mult: 1
    decay_mult: 1
  }
  param {
    lr_mult: 2
    decay_mult: 0
  }
  convolution_param {
    num_output: 192
    kernel_size: 1
    weight_filler {
      type: "xavier"
      std: 0.03
    }
    bias_filler {
      type: "constant"
      value: 0.2
    }
  }
}
layer {
  name: "inception_4a/relu_1x1"
  type: "ReLU"
  bottom: "inception_4a/1x1"
  top: "inception_4a/1x1"
}
layer {
  name: "inception_4a/3x3_reduce"
  type: "Convolution"
  bottom: "pool3/3x3_s2"
  top: "inception_4a/3x3_reduce"
  param {
    lr_mult: 1
    decay_mult: 1
  }
  param {
    lr_mult: 2
    decay_mult: 0
  }
  convolution_param {
    num_output: 96
    kernel_size: 1
    weight_filler {
      type: "xavier"
      std: 0.09
    }
    bias_filler {
      type: "constant"
      value: 0.2
    }
  }
}
layer {
  name: "inception_4a/relu_3x3_reduce"
  type: "ReLU"
  bottom: "inception_4a/3x3_reduce"
  top: "inception_4a/3x3_reduce"
}
layer {
  name: "inception_4a/3x3"
  type: "Convolution"
  bottom: "inception_4a/3x3_reduce"
  top: "inception_4a/3x3"
  param {
    lr_mult: 1
    decay_mult: 1
  }
  param {
    lr_mult: 2
    decay_mult: 0
  }
  convolution_param {
    num_output: 208
    pad: 1
    kernel_size: 3
    weight_filler {
      type: "xavier"
      std: 0.03
    }
    bias_filler {
      type: "constant"
      value: 0.2
    }
  }
}
layer {
  name: "inception_4a/relu_3x3"
  type: "ReLU"
  bottom: "inception_4a/3x3"
  top: "inception_4a/3x3"
}
layer {
  name: "inception_4a/5x5_reduce"
  type: "Convolution"
  bottom: "pool3/3x3_s2"
  top: "inception_4a/5x5_reduce"
  param {
    lr_mult: 1
    decay_mult: 1
  }
  param {
    lr_mult: 2
    decay_mult: 0
  }
  convolution_param {
    num_output: 16
    kernel_size: 1
    weight_filler {
      type: "xavier"
      std: 0.2
    }
    bias_filler {
      type: "constant"
      value: 0.2
    }
  }
}
layer {
  name: "inception_4a/relu_5x5_reduce"
  type: "ReLU"
  bottom: "inception_4a/5x5_reduce"
  top: "inception_4a/5x5_reduce"
}
layer {
  name: "inception_4a/5x5"
  type: "Convolution"
  bottom: "inception_4a/5x5_reduce"
  top: "inception_4a/5x5"
  param {
    lr_mult: 1
    decay_mult: 1
  }
  param {
    lr_mult: 2
    decay_mult: 0
  }
  convolution_param {
    num_output: 48
    pad: 2
    kernel_size: 5
    weight_filler {
      type: "xavier"
      std: 0.03
    }
    bias_filler {
      type: "constant"
      value: 0.2
    }
  }
}
layer {
  name: "inception_4a/relu_5x5"
  type: "ReLU"
  bottom: "inception_4a/5x5"
  top: "inception_4a/5x5"
}
layer {
  name: "inception_4a/pool"
  type: "Pooling"
  bottom: "pool3/3x3_s2"
  top: "inception_4a/pool"
  pooling_param {
    pool: MAX
    kernel_size: 3
    stride: 1
    pad: 1
  }
}
layer {
  name: "inception_4a/pool_proj"
  type: "Convolution"
  bottom: "inception_4a/pool"
  top: "inception_4a/pool_proj"
  param {
    lr_mult: 1
    decay_mult: 1
  }
  param {
    lr_mult: 2
    decay_mult: 0
  }
  convolution_param {
    num_output: 64
    kernel_size: 1
    weight_filler {
      type: "xavier"
      std: 0.1
    }
    bias_filler {
      type: "constant"
      value: 0.2
    }
  }
}
layer {
  name: "inception_4a/relu_pool_proj"
  type: "ReLU"
  bottom: "inception_4a/pool_proj"
  top: "inception_4a/pool_proj"
}
layer {
  name: "inception_4a/output"
  type: "Concat"
  bottom: "inception_4a/1x1"
  bottom: "inception_4a/3x3"
  bottom: "inception_4a/5x5"
  bottom: "inception_4a/pool_proj"
  top: "inception_4a/output"
}
layer {
  name: "loss1/ave_pool"
  type: "Pooling"
  bottom: "inception_4a/output"
  top: "loss1/ave_pool"
  pooling_param {
    pool: AVE
    kernel_size: 5
    stride: 3
  }
}
layer {
  name: "loss1/conv"
  type: "Convolution"
  bottom: "loss1/ave_pool"
  top: "loss1/conv"
  param {
    lr_mult: 1
    decay_mult: 1
  }
  param {
    lr_mult: 2
    decay_mult: 0
  }
  convolution_param {
    num_output: 128
    kernel_size: 1
    weight_filler {
      type: "xavier"
      std: 0.08
    }
    bias_filler {
      type: "constant"
      value: 0.2
    }
  }
}
layer {
  name: "loss1/relu_conv"
  type: "ReLU"
  bottom: "loss1/conv"
  top: "loss1/conv"
}
layer {
  name: "loss1/fc"
  type: "InnerProduct"
  bottom: "loss1/conv"
  top: "loss1/fc"
  param {
    lr_mult: 1
    decay_mult: 1
  }
  param {
    lr_mult: 2
    decay_mult: 0
  }
  inner_product_param {
    num_output: 1024
    weight_filler {
      type: "xavier"
      std: 0.02
    }
    bias_filler {
      type: "constant"
      value: 0.2
    }
  }
}
layer {
  name: "loss1/relu_fc"
  type: "ReLU"
  bottom: "loss1/fc"
  top: "loss1/fc"
}
layer {
  name: "loss1/drop_fc"
  type: "Dropout"
  bottom: "loss1/fc"
  top: "loss1/fc"
  dropout_param {
    dropout_ratio: 0.7
  }
}
layer {
  name: "loss1/classifier_plantvillage"
  type: "InnerProduct"
  bottom: "loss1/fc"
  top: "loss1/classifier_plantvillage"
  param {
    lr_mult: 1
    decay_mult: 1
  }
  param {
    lr_mult: 2
    decay_mult: 0
  }
  inner_product_param {
    num_output: 38
    weight_filler {
      type: "xavier"
      std: 0.0009765625
    }
    bias_filler {
      type: "constant"
      value: 0
    }
  }
}
layer {
  name: "inception_4b/1x1"
  type: "Convolution"
  bottom: "inception_4a/output"
  top: "inception_4b/1x1"
  param {
    lr_mult: 1
    decay_mult: 1
  }
  param {
    lr_mult: 2
    decay_mult: 0
  }
  convolution_param {
    num_output: 160
    kernel_size: 1
    weight_filler {
      type: "xavier"
      std: 0.03
    }
    bias_filler {
      type: "constant"
      value: 0.2
    }
  }
}
layer {
  name: "inception_4b/relu_1x1"
  type: "ReLU"
  bottom: "inception_4b/1x1"
  top: "inception_4b/1x1"
}
layer {
  name: "inception_4b/3x3_reduce"
  type: "Convolution"
  bottom: "inception_4a/output"
  top: "inception_4b/3x3_reduce"
  param {
    lr_mult: 1
    decay_mult: 1
  }
  param {
    lr_mult: 2
    decay_mult: 0
  }
  convolution_param {
    num_output: 112
    kernel_size: 1
    weight_filler {
      type: "xavier"
      std: 0.09
    }
    bias_filler {
      type: "constant"
      value: 0.2
    }
  }
}
layer {
  name: "inception_4b/relu_3x3_reduce"
  type: "ReLU"
  bottom: "inception_4b/3x3_reduce"
  top: "inception_4b/3x3_reduce"
}
layer {
  name: "inception_4b/3x3"
  type: "Convolution"
  bottom: "inception_4b/3x3_reduce"
  top: "inception_4b/3x3"
  param {
    lr_mult: 1
    decay_mult: 1
  }
  param {
    lr_mult: 2
    decay_mult: 0
  }
  convolution_param {
    num_output: 224
    pad: 1
    kernel_size: 3
    weight_filler {
      type: "xavier"
      std: 0.03
    }
    bias_filler {
      type: "constant"
      value: 0.2
    }
  }
}
layer {
  name: "inception_4b/relu_3x3"
  type: "ReLU"
  bottom: "inception_4b/3x3"
  top: "inception_4b/3x3"
}
layer {
  name: "inception_4b/5x5_reduce"
  type: "Convolution"
  bottom: "inception_4a/output"
  top: "inception_4b/5x5_reduce"
  param {
    lr_mult: 1
    decay_mult: 1
  }
  param {
    lr_mult: 2
    decay_mult: 0
  }
  convolution_param {
    num_output: 24
    kernel_size: 1
    weight_filler {
      type: "xavier"
      std: 0.2
    }
    bias_filler {
      type: "constant"
      value: 0.2
    }
  }
}
layer {
  name: "inception_4b/relu_5x5_reduce"
  type: "ReLU"
  bottom: "inception_4b/5x5_reduce"
  top: "inception_4b/5x5_reduce"
}
layer {
  name: "inception_4b/5x5"
  type: "Convolution"
  bottom: "inception_4b/5x5_reduce"
  top: "inception_4b/5x5"
  param {
    lr_mult: 1
    decay_mult: 1
  }
  param {
    lr_mult: 2
    decay_mult: 0
  }
  convolution_param {
    num_output: 64
    pad: 2
    kernel_size: 5
    weight_filler {
      type: "xavier"
      std: 0.03
    }
    bias_filler {
      type: "constant"
      value: 0.2
    }
  }
}
layer {
  name: "inception_4b/relu_5x5"
  type: "ReLU"
  bottom: "inception_4b/5x5"
  top: "inception_4b/5x5"
}
layer {
  name: "inception_4b/pool"
  type: "Pooling"
  bottom: "inception_4a/output"
  top: "inception_4b/pool"
  pooling_param {
    pool: MAX
    kernel_size: 3
    stride: 1
    pad: 1
  }
}
layer {
  name: "inception_4b/pool_proj"
  type: "Convolution"
  bottom: "inception_4b/pool"
  top: "inception_4b/pool_proj"
  param {
    lr_mult: 1
    decay_mult: 1
  }
  param {
    lr_mult: 2
    decay_mult: 0
  }
  convolution_param {
    num_output: 64
    kernel_size: 1
    weight_filler {
      type: "xavier"
      std: 0.1
    }
    bias_filler {
      type: "constant"
      value: 0.2
    }
  }
}
layer {
  name: "inception_4b/relu_pool_proj"
  type: "ReLU"
  bottom: "inception_4b/pool_proj"
  top: "inception_4b/pool_proj"
}
layer {
  name: "inception_4b/output"
  type: "Concat"
  bottom: "inception_4b/1x1"
  bottom: "inception_4b/3x3"
  bottom: "inception_4b/5x5"
  bottom: "inception_4b/pool_proj"
  top: "inception_4b/output"
}
layer {
  name: "inception_4c/1x1"
  type: "Convolution"
  bottom: "inception_4b/output"
  top: "inception_4c/1x1"
  param {
    lr_mult: 1
    decay_mult: 1
  }
  param {
    lr_mult: 2
    decay_mult: 0
  }
  convolution_param {
    num_output: 128
    kernel_size: 1
    weight_filler {
      type: "xavier"
      std: 0.03
    }
    bias_filler {
      type: "constant"
      value: 0.2
    }
  }
}
layer {
  name: "inception_4c/relu_1x1"
  type: "ReLU"
  bottom: "inception_4c/1x1"
  top: "inception_4c/1x1"
}
layer {
  name: "inception_4c/3x3_reduce"
  type: "Convolution"
  bottom: "inception_4b/output"
  top: "inception_4c/3x3_reduce"
  param {
    lr_mult: 1
    decay_mult: 1
  }
  param {
    lr_mult: 2
    decay_mult: 0
  }
  convolution_param {
    num_output: 128
    kernel_size: 1
    weight_filler {
      type: "xavier"
      std: 0.09
    }
    bias_filler {
      type: "constant"
      value: 0.2
    }
  }
}
layer {
  name: "inception_4c/relu_3x3_reduce"
  type: "ReLU"
  bottom: "inception_4c/3x3_reduce"
  top: "inception_4c/3x3_reduce"
}
layer {
  name: "inception_4c/3x3"
  type: "Convolution"
  bottom: "inception_4c/3x3_reduce"
  top: "inception_4c/3x3"
  param {
    lr_mult: 1
    decay_mult: 1
  }
  param {
    lr_mult: 2
    decay_mult: 0
  }
  convolution_param {
    num_output: 256
    pad: 1
    kernel_size: 3
    weight_filler {
      type: "xavier"
      std: 0.03
    }
    bias_filler {
      type: "constant"
      value: 0.2
    }
  }
}
layer {
  name: "inception_4c/relu_3x3"
  type: "ReLU"
  bottom: "inception_4c/3x3"
  top: "inception_4c/3x3"
}
layer {
  name: "inception_4c/5x5_reduce"
  type: "Convolution"
  bottom: "inception_4b/output"
  top: "inception_4c/5x5_reduce"
  param {
    lr_mult: 1
    decay_mult: 1
  }
  param {
    lr_mult: 2
    decay_mult: 0
  }
  convolution_param {
    num_output: 24
    kernel_size: 1
    weight_filler {
      type: "xavier"
      std: 0.2
    }
    bias_filler {
      type: "constant"
      value: 0.2
    }
  }
}
layer {
  name: "inception_4c/relu_5x5_reduce"
  type: "ReLU"
  bottom: "inception_4c/5x5_reduce"
  top: "inception_4c/5x5_reduce"
}
layer {
  name: "inception_4c/5x5"
  type: "Convolution"
  bottom: "inception_4c/5x5_reduce"
  top: "inception_4c/5x5"
  param {
    lr_mult: 1
    decay_mult: 1
  }
  param {
    lr_mult: 2
    decay_mult: 0
  }
  convolution_param {
    num_output: 64
    pad: 2
    kernel_size: 5
    weight_filler {
      type: "xavier"
      std: 0.03
    }
    bias_filler {
      type: "constant"
      value: 0.2
    }
  }
}
layer {
  name: "inception_4c/relu_5x5"
  type: "ReLU"
  bottom: "inception_4c/5x5"
  top: "inception_4c/5x5"
}
layer {
  name: "inception_4c/pool"
  type: "Pooling"
  bottom: "inception_4b/output"
  top: "inception_4c/pool"
  pooling_param {
    pool: MAX
    kernel_size: 3
    stride: 1
    pad: 1
  }
}
layer {
  name: "inception_4c/pool_proj"
  type: "Convolution"
  bottom: "inception_4c/pool"
  top: "inception_4c/pool_proj"
  param {
    lr_mult: 1
    decay_mult: 1
  }
  param {
    lr_mult: 2
    decay_mult: 0
  }
  convolution_param {
    num_output: 64
    kernel_size: 1
    weight_filler {
      type: "xavier"
      std: 0.1
    }
    bias_filler {
      type: "constant"
      value: 0.2
    }
  }
}
layer {
  name: "inception_4c/relu_pool_proj"
  type: "ReLU"
  bottom: "inception_4c/pool_proj"
  top: "inception_4c/pool_proj"
}
layer {
  name: "inception_4c/output"
  type: "Concat"
  bottom: "inception_4c/1x1"
  bottom: "inception_4c/3x3"
  bottom: "inception_4c/5x5"
  bottom: "inception_4c/pool_proj"
  top: "inception_4c/output"
}
layer {
  name: "inception_4d/1x1"
  type: "Convolution"
  bottom: "inception_4c/output"
  top: "inception_4d/1x1"
  param {
    lr_mult: 1
    decay_mult: 1
  }
  param {
    lr_mult: 2
    decay_mult: 0
  }
  convolution_param {
    num_output: 112
    kernel_size: 1
    weight_filler {
      type: "xavier"
      std: 0.03
    }
    bias_filler {
      type: "constant"
      value: 0.2
    }
  }
}
layer {
  name: "inception_4d/relu_1x1"
  type: "ReLU"
  bottom: "inception_4d/1x1"
  top: "inception_4d/1x1"
}
layer {
  name: "inception_4d/3x3_reduce"
  type: "Convolution"
  bottom: "inception_4c/output"
  top: "inception_4d/3x3_reduce"
  param {
    lr_mult: 1
    decay_mult: 1
  }
  param {
    lr_mult: 2
    decay_mult: 0
  }
  convolution_param {
    num_output: 144
    kernel_size: 1
    weight_filler {
      type: "xavier"
      std: 0.09
    }
    bias_filler {
      type: "constant"
      value: 0.2
    }
  }
}
layer {
  name: "inception_4d/relu_3x3_reduce"
  type: "ReLU"
  bottom: "inception_4d/3x3_reduce"
  top: "inception_4d/3x3_reduce"
}
layer {
  name: "inception_4d/3x3"
  type: "Convolution"
  bottom: "inception_4d/3x3_reduce"
  top: "inception_4d/3x3"
  param {
    lr_mult: 1
    decay_mult: 1
  }
  param {
    lr_mult: 2
    decay_mult: 0
  }
  convolution_param {
    num_output: 288
    pad: 1
    kernel_size: 3
    weight_filler {
      type: "xavier"
      std: 0.03
    }
    bias_filler {
      type: "constant"
      value: 0.2
    }
  }
}
layer {
  name: "inception_4d/relu_3x3"
  type: "ReLU"
  bottom: "inception_4d/3x3"
  top: "inception_4d/3x3"
}
layer {
  name: "inception_4d/5x5_reduce"
  type: "Convolution"
  bottom: "inception_4c/output"
  top: "inception_4d/5x5_reduce"
  param {
    lr_mult: 1
    decay_mult: 1
  }
  param {
    lr_mult: 2
    decay_mult: 0
  }
  convolution_param {
    num_output: 32
    kernel_size: 1
    weight_filler {
      type: "xavier"
      std: 0.2
    }
    bias_filler {
      type: "constant"
      value: 0.2
    }
  }
}
layer {
  name: "inception_4d/relu_5x5_reduce"
  type: "ReLU"
  bottom: "inception_4d/5x5_reduce"
  top: "inception_4d/5x5_reduce"
}
layer {
  name: "inception_4d/5x5"
  type: "Convolution"
  bottom: "inception_4d/5x5_reduce"
  top: "inception_4d/5x5"
  param {
    lr_mult: 1
    decay_mult: 1
  }
  param {
    lr_mult: 2
    decay_mult: 0
  }
  convolution_param {
    num_output: 64
    pad: 2
    kernel_size: 5
    weight_filler {
      type: "xavier"
      std: 0.03
    }
    bias_filler {
      type: "constant"
      value: 0.2
    }
  }
}
layer {
  name: "inception_4d/relu_5x5"
  type: "ReLU"
  bottom: "inception_4d/5x5"
  top: "inception_4d/5x5"
}
layer {
  name: "inception_4d/pool"
  type: "Pooling"
  bottom: "inception_4c/output"
  top: "inception_4d/pool"
  pooling_param {
    pool: MAX
    kernel_size: 3
    stride: 1
    pad: 1
  }
}
layer {
  name: "inception_4d/pool_proj"
  type: "Convolution"
  bottom: "inception_4d/pool"
  top: "inception_4d/pool_proj"
  param {
    lr_mult: 1
    decay_mult: 1
  }
  param {
    lr_mult: 2
    decay_mult: 0
  }
  convolution_param {
    num_output: 64
    kernel_size: 1
    weight_filler {
      type: "xavier"
      std: 0.1
    }
    bias_filler {
      type: "constant"
      value: 0.2
    }
  }
}
layer {
  name: "inception_4d/relu_pool_proj"
  type: "ReLU"
  bottom: "inception_4d/pool_proj"
  top: "inception_4d/pool_proj"
}
layer {
  name: "inception_4d/output"
  type: "Concat"
  bottom: "inception_4d/1x1"
  bottom: "inception_4d/3x3"
  bottom: "inception_4d/5x5"
  bottom: "inception_4d/pool_proj"
  top: "inception_4d/output"
}
layer {
  name: "loss2/ave_pool"
  type: "Pooling"
  bottom: "inception_4d/output"
  top: "loss2/ave_pool"
  pooling_param {
    pool: AVE
    kernel_size: 5
    stride: 3
  }
}
layer {
  name: "loss2/conv"
  type: "Convolution"
  bottom: "loss2/ave_pool"
  top: "loss2/conv"
  param {
    lr_mult: 1
    decay_mult: 1
  }
  param {
    lr_mult: 2
    decay_mult: 0
  }
  convolution_param {
    num_output: 128
    kernel_size: 1
    weight_filler {
      type: "xavier"
      std: 0.08
    }
    bias_filler {
      type: "constant"
      value: 0.2
    }
  }
}
layer {
  name: "loss2/relu_conv"
  type: "ReLU"
  bottom: "loss2/conv"
  top: "loss2/conv"
}
layer {
  name: "loss2/fc"
  type: "InnerProduct"
  bottom: "loss2/conv"
  top: "loss2/fc"
  param {
    lr_mult: 1
    decay_mult: 1
  }
  param {
    lr_mult: 2
    decay_mult: 0
  }
  inner_product_param {
    num_output: 1024
    weight_filler {
      type: "xavier"
      std: 0.02
    }
    bias_filler {
      type: "constant"
      value: 0.2
    }
  }
}
layer {
  name: "loss2/relu_fc"
  type: "ReLU"
  bottom: "loss2/fc"
  top: "loss2/fc"
}
layer {
  name: "loss2/drop_fc"
  type: "Dropout"
  bottom: "loss2/fc"
  top: "loss2/fc"
  dropout_param {
    dropout_ratio: 0.7
  }
}
layer {
  name: "loss2/classifier_plantvillage"
  type: "InnerProduct"
  bottom: "loss2/fc"
  top: "loss2/classifier_plantvillage"
  param {
    lr_mult: 1
    decay_mult: 1
  }
  param {
    lr_mult: 2
    decay_mult: 0
  }
  inner_product_param {
    num_output: 38
    weight_filler {
      type: "xavier"
      std: 0.0009765625
    }
    bias_filler {
      type: "constant"
      value: 0
    }
  }
}
layer {
  name: "inception_4e/1x1"
  type: "Convolution"
  bottom: "inception_4d/output"
  top: "inception_4e/1x1"
  param {
    lr_mult: 1
    decay_mult: 1
  }
  param {
    lr_mult: 2
    decay_mult: 0
  }
  convolution_param {
    num_output: 256
    kernel_size: 1
    weight_filler {
      type: "xavier"
      std: 0.03
    }
    bias_filler {
      type: "constant"
      value: 0.2
    }
  }
}
layer {
  name: "inception_4e/relu_1x1"
  type: "ReLU"
  bottom: "inception_4e/1x1"
  top: "inception_4e/1x1"
}
layer {
  name: "inception_4e/3x3_reduce"
  type: "Convolution"
  bottom: "inception_4d/output"
  top: "inception_4e/3x3_reduce"
  param {
    lr_mult: 1
    decay_mult: 1
  }
  param {
    lr_mult: 2
    decay_mult: 0
  }
  convolution_param {
    num_output: 160
    kernel_size: 1
    weight_filler {
      type: "xavier"
      std: 0.09
    }
    bias_filler {
      type: "constant"
      value: 0.2
    }
  }
}
layer {
  name: "inception_4e/relu_3x3_reduce"
  type: "ReLU"
  bottom: "inception_4e/3x3_reduce"
  top: "inception_4e/3x3_reduce"
}
layer {
  name: "inception_4e/3x3"
  type: "Convolution"
  bottom: "inception_4e/3x3_reduce"
  top: "inception_4e/3x3"
  param {
    lr_mult: 1
    decay_mult: 1
  }
  param {
    lr_mult: 2
    decay_mult: 0
  }
  convolution_param {
    num_output: 320
    pad: 1
    kernel_size: 3
    weight_filler {
      type: "xavier"
      std: 0.03
    }
    bias_filler {
      type: "constant"
      value: 0.2
    }
  }
}
layer {
  name: "inception_4e/relu_3x3"
  type: "ReLU"
  bottom: "inception_4e/3x3"
  top: "inception_4e/3x3"
}
layer {
  name: "inception_4e/5x5_reduce"
  type: "Convolution"
  bottom: "inception_4d/output"
  top: "inception_4e/5x5_reduce"
  param {
    lr_mult: 1
    decay_mult: 1
  }
  param {
    lr_mult: 2
    decay_mult: 0
  }
  convolution_param {
    num_output: 32
    kernel_size: 1
    weight_filler {
      type: "xavier"
      std: 0.2
    }
    bias_filler {
      type: "constant"
      value: 0.2
    }
  }
}
layer {
  name: "inception_4e/relu_5x5_reduce"
  type: "ReLU"
  bottom: "inception_4e/5x5_reduce"
  top: "inception_4e/5x5_reduce"
}
layer {
  name: "inception_4e/5x5"
  type: "Convolution"
  bottom: "inception_4e/5x5_reduce"
  top: "inception_4e/
I0403 15:39:37.118170 10865 layer_factory.hpp:77] Creating layer data
I0403 15:39:37.118788 10865 net.cpp:91] Creating Layer data
I0403 15:39:37.118821 10865 net.cpp:399] data -> data
I0403 15:39:37.118875 10865 net.cpp:399] data -> label
I0403 15:39:37.118913 10865 data_transformer.cpp:25] Loading mean file from: /home/mohanty/data/final_dataset/lmdb/segmented-80-20/mean.binaryproto
I0403 15:39:37.121234 10883 db_lmdb.cpp:38] Opened lmdb /home/mohanty/data/final_dataset/lmdb/segmented-80-20/test_db
I0403 15:39:37.132243 10865 data_layer.cpp:41] output data size: 24,3,224,224
I0403 15:39:37.160210 10865 net.cpp:141] Setting up data
I0403 15:39:37.160292 10865 net.cpp:148] Top shape: 24 3 224 224 (3612672)
I0403 15:39:37.160315 10865 net.cpp:148] Top shape: 24 (24)
I0403 15:39:37.160332 10865 net.cpp:156] Memory required for data: 14450784
I0403 15:39:37.160361 10865 layer_factory.hpp:77] Creating layer label_data_1_split
I0403 15:39:37.160388 10865 net.cpp:91] Creating Layer label_data_1_split
I0403 15:39:37.160408 10865 net.cpp:425] label_data_1_split <- label
I0403 15:39:37.160440 10865 net.cpp:399] label_data_1_split -> label_data_1_split_0
I0403 15:39:37.160468 10865 net.cpp:399] label_data_1_split -> label_data_1_split_1
I0403 15:39:37.160491 10865 net.cpp:399] label_data_1_split -> label_data_1_split_2
I0403 15:39:37.160513 10865 net.cpp:399] label_data_1_split -> label_data_1_split_3
I0403 15:39:37.160533 10865 net.cpp:399] label_data_1_split -> label_data_1_split_4
I0403 15:39:37.160554 10865 net.cpp:399] label_data_1_split -> label_data_1_split_5
I0403 15:39:37.160575 10865 net.cpp:399] label_data_1_split -> label_data_1_split_6
I0403 15:39:37.160596 10865 net.cpp:399] label_data_1_split -> label_data_1_split_7
I0403 15:39:37.160617 10865 net.cpp:399] label_data_1_split -> label_data_1_split_8
I0403 15:39:37.160639 10865 net.cpp:399] label_data_1_split -> label_data_1_split_9
I0403 15:39:37.160760 10865 net.cpp:141] Setting up label_data_1_split
I0403 15:39:37.160786 10865 net.cpp:148] Top shape: 24 (24)
I0403 15:39:37.160804 10865 net.cpp:148] Top shape: 24 (24)
I0403 15:39:37.160821 10865 net.cpp:148] Top shape: 24 (24)
I0403 15:39:37.160838 10865 net.cpp:148] Top shape: 24 (24)
I0403 15:39:37.160854 10865 net.cpp:148] Top shape: 24 (24)
I0403 15:39:37.160871 10865 net.cpp:148] Top shape: 24 (24)
I0403 15:39:37.160888 10865 net.cpp:148] Top shape: 24 (24)
I0403 15:39:37.160905 10865 net.cpp:148] Top shape: 24 (24)
I0403 15:39:37.160923 10865 net.cpp:148] Top shape: 24 (24)
I0403 15:39:37.160940 10865 net.cpp:148] Top shape: 24 (24)
I0403 15:39:37.160989 10865 net.cpp:156] Memory required for data: 14451744
I0403 15:39:37.161007 10865 layer_factory.hpp:77] Creating layer conv1/7x7_s2
I0403 15:39:37.161041 10865 net.cpp:91] Creating Layer conv1/7x7_s2
I0403 15:39:37.161061 10865 net.cpp:425] conv1/7x7_s2 <- data
I0403 15:39:37.161082 10865 net.cpp:399] conv1/7x7_s2 -> conv1/7x7_s2
I0403 15:39:37.303664 10865 net.cpp:141] Setting up conv1/7x7_s2
I0403 15:39:37.303750 10865 net.cpp:148] Top shape: 24 64 112 112 (19267584)
I0403 15:39:37.303768 10865 net.cpp:156] Memory required for data: 91522080
I0403 15:39:37.303798 10865 layer_factory.hpp:77] Creating layer conv1/relu_7x7
I0403 15:39:37.303825 10865 net.cpp:91] Creating Layer conv1/relu_7x7
I0403 15:39:37.303845 10865 net.cpp:425] conv1/relu_7x7 <- conv1/7x7_s2
I0403 15:39:37.303866 10865 net.cpp:386] conv1/relu_7x7 -> conv1/7x7_s2 (in-place)
I0403 15:39:37.304144 10865 net.cpp:141] Setting up conv1/relu_7x7
I0403 15:39:37.304172 10865 net.cpp:148] Top shape: 24 64 112 112 (19267584)
I0403 15:39:37.304188 10865 net.cpp:156] Memory required for data: 168592416
I0403 15:39:37.304214 10865 layer_factory.hpp:77] Creating layer pool1/3x3_s2
I0403 15:39:37.304239 10865 net.cpp:91] Creating Layer pool1/3x3_s2
I0403 15:39:37.304258 10865 net.cpp:425] pool1/3x3_s2 <- conv1/7x7_s2
I0403 15:39:37.304277 10865 net.cpp:399] pool1/3x3_s2 -> pool1/3x3_s2
I0403 15:39:37.304353 10865 net.cpp:141] Setting up pool1/3x3_s2
I0403 15:39:37.304379 10865 net.cpp:148] Top shape: 24 64 56 56 (4816896)
I0403 15:39:37.304395 10865 net.cpp:156] Memory required for data: 187860000
I0403 15:39:37.304411 10865 layer_factory.hpp:77] Creating layer pool1/norm1
I0403 15:39:37.304435 10865 net.cpp:91] Creating Layer pool1/norm1
I0403 15:39:37.304455 10865 net.cpp:425] pool1/norm1 <- pool1/3x3_s2
I0403 15:39:37.304473 10865 net.cpp:399] pool1/norm1 -> pool1/norm1
I0403 15:39:37.304760 10865 net.cpp:141] Setting up pool1/norm1
I0403 15:39:37.304788 10865 net.cpp:148] Top shape: 24 64 56 56 (4816896)
I0403 15:39:37.304805 10865 net.cpp:156] Memory required for data: 207127584
I0403 15:39:37.304821 10865 layer_factory.hpp:77] Creating layer conv2/3x3_reduce
I0403 15:39:37.304847 10865 net.cpp:91] Creating Layer conv2/3x3_reduce
I0403 15:39:37.304864 10865 net.cpp:425] conv2/3x3_reduce <- pool1/norm1
I0403 15:39:37.304884 10865 net.cpp:399] conv2/3x3_reduce -> conv2/3x3_reduce
I0403 15:39:37.306251 10865 net.cpp:141] Setting up conv2/3x3_reduce
I0403 15:39:37.306280 10865 net.cpp:148] Top shape: 24 64 56 56 (4816896)
I0403 15:39:37.306298 10865 net.cpp:156] Memory required for data: 226395168
I0403 15:39:37.306319 10865 layer_factory.hpp:77] Creating layer conv2/relu_3x3_reduce
I0403 15:39:37.306342 10865 net.cpp:91] Creating Layer conv2/relu_3x3_reduce
I0403 15:39:37.306360 10865 net.cpp:425] conv2/relu_3x3_reduce <- conv2/3x3_reduce
I0403 15:39:37.306378 10865 net.cpp:386] conv2/relu_3x3_reduce -> conv2/3x3_reduce (in-place)
I0403 15:39:37.306649 10865 net.cpp:141] Setting up conv2/relu_3x3_reduce
I0403 15:39:37.306676 10865 net.cpp:148] Top shape: 24 64 56 56 (4816896)
I0403 15:39:37.306692 10865 net.cpp:156] Memory required for data: 245662752
I0403 15:39:37.306709 10865 layer_factory.hpp:77] Creating layer conv2/3x3
I0403 15:39:37.306733 10865 net.cpp:91] Creating Layer conv2/3x3
I0403 15:39:37.306752 10865 net.cpp:425] conv2/3x3 <- conv2/3x3_reduce
I0403 15:39:37.306776 10865 net.cpp:399] conv2/3x3 -> conv2/3x3
I0403 15:39:37.309146 10865 net.cpp:141] Setting up conv2/3x3
I0403 15:39:37.309177 10865 net.cpp:148] Top shape: 24 192 56 56 (14450688)
I0403 15:39:37.309195 10865 net.cpp:156] Memory required for data: 303465504
I0403 15:39:37.309217 10865 layer_factory.hpp:77] Creating layer conv2/relu_3x3
I0403 15:39:37.309239 10865 net.cpp:91] Creating Layer conv2/relu_3x3
I0403 15:39:37.309257 10865 net.cpp:425] conv2/relu_3x3 <- conv2/3x3
I0403 15:39:37.309275 10865 net.cpp:386] conv2/relu_3x3 -> conv2/3x3 (in-place)
I0403 15:39:37.309451 10865 net.cpp:141] Setting up conv2/relu_3x3
I0403 15:39:37.309478 10865 net.cpp:148] Top shape: 24 192 56 56 (14450688)
I0403 15:39:37.309525 10865 net.cpp:156] Memory required for data: 361268256
I0403 15:39:37.309541 10865 layer_factory.hpp:77] Creating layer conv2/norm2
I0403 15:39:37.309562 10865 net.cpp:91] Creating Layer conv2/norm2
I0403 15:39:37.309581 10865 net.cpp:425] conv2/norm2 <- conv2/3x3
I0403 15:39:37.309600 10865 net.cpp:399] conv2/norm2 -> conv2/norm2
I0403 15:39:37.309906 10865 net.cpp:141] Setting up conv2/norm2
I0403 15:39:37.309939 10865 net.cpp:148] Top shape: 24 192 56 56 (14450688)
I0403 15:39:37.309962 10865 net.cpp:156] Memory required for data: 419071008
I0403 15:39:37.309979 10865 layer_factory.hpp:77] Creating layer pool2/3x3_s2
I0403 15:39:37.309998 10865 net.cpp:91] Creating Layer pool2/3x3_s2
I0403 15:39:37.310015 10865 net.cpp:425] pool2/3x3_s2 <- conv2/norm2
I0403 15:39:37.310036 10865 net.cpp:399] pool2/3x3_s2 -> pool2/3x3_s2
I0403 15:39:37.310093 10865 net.cpp:141] Setting up pool2/3x3_s2
I0403 15:39:37.310120 10865 net.cpp:148] Top shape: 24 192 28 28 (3612672)
I0403 15:39:37.310137 10865 net.cpp:156] Memory required for data: 433521696
I0403 15:39:37.310153 10865 layer_factory.hpp:77] Creating layer pool2/3x3_s2_pool2/3x3_s2_0_split
I0403 15:39:37.310170 10865 net.cpp:91] Creating Layer pool2/3x3_s2_pool2/3x3_s2_0_split
I0403 15:39:37.310187 10865 net.cpp:425] pool2/3x3_s2_pool2/3x3_s2_0_split <- pool2/3x3_s2
I0403 15:39:37.310205 10865 net.cpp:399] pool2/3x3_s2_pool2/3x3_s2_0_split -> pool2/3x3_s2_pool2/3x3_s2_0_split_0
I0403 15:39:37.310226 10865 net.cpp:399] pool2/3x3_s2_pool2/3x3_s2_0_split -> pool2/3x3_s2_pool2/3x3_s2_0_split_1
I0403 15:39:37.310250 10865 net.cpp:399] pool2/3x3_s2_pool2/3x3_s2_0_split -> pool2/3x3_s2_pool2/3x3_s2_0_split_2
I0403 15:39:37.310271 10865 net.cpp:399] pool2/3x3_s2_pool2/3x3_s2_0_split -> pool2/3x3_s2_pool2/3x3_s2_0_split_3
I0403 15:39:37.310345 10865 net.cpp:141] Setting up pool2/3x3_s2_pool2/3x3_s2_0_split
I0403 15:39:37.310369 10865 net.cpp:148] Top shape: 24 192 28 28 (3612672)
I0403 15:39:37.310386 10865 net.cpp:148] Top shape: 24 192 28 28 (3612672)
I0403 15:39:37.310402 10865 net.cpp:148] Top shape: 24 192 28 28 (3612672)
I0403 15:39:37.310418 10865 net.cpp:148] Top shape: 24 192 28 28 (3612672)
I0403 15:39:37.310432 10865 net.cpp:156] Memory required for data: 491324448
I0403 15:39:37.310448 10865 layer_factory.hpp:77] Creating layer inception_3a/1x1
I0403 15:39:37.310472 10865 net.cpp:91] Creating Layer inception_3a/1x1
I0403 15:39:37.310489 10865 net.cpp:425] inception_3a/1x1 <- pool2/3x3_s2_pool2/3x3_s2_0_split_0
I0403 15:39:37.310513 10865 net.cpp:399] inception_3a/1x1 -> inception_3a/1x1
I0403 15:39:37.312111 10865 net.cpp:141] Setting up inception_3a/1x1
I0403 15:39:37.312140 10865 net.cpp:148] Top shape: 24 64 28 28 (1204224)
I0403 15:39:37.312157 10865 net.cpp:156] Memory required for data: 496141344
I0403 15:39:37.312176 10865 layer_factory.hpp:77] Creating layer inception_3a/relu_1x1
I0403 15:39:37.312196 10865 net.cpp:91] Creating Layer inception_3a/relu_1x1
I0403 15:39:37.312213 10865 net.cpp:425] inception_3a/relu_1x1 <- inception_3a/1x1
I0403 15:39:37.312234 10865 net.cpp:386] inception_3a/relu_1x1 -> inception_3a/1x1 (in-place)
I0403 15:39:37.312410 10865 net.cpp:141] Setting up inception_3a/relu_1x1
I0403 15:39:37.312438 10865 net.cpp:148] Top shape: 24 64 28 28 (1204224)
I0403 15:39:37.312453 10865 net.cpp:156] Memory required for data: 500958240
I0403 15:39:37.312469 10865 layer_factory.hpp:77] Creating layer inception_3a/3x3_reduce
I0403 15:39:37.312492 10865 net.cpp:91] Creating Layer inception_3a/3x3_reduce
I0403 15:39:37.312510 10865 net.cpp:425] inception_3a/3x3_reduce <- pool2/3x3_s2_pool2/3x3_s2_0_split_1
I0403 15:39:37.312533 10865 net.cpp:399] inception_3a/3x3_reduce -> inception_3a/3x3_reduce
I0403 15:39:37.314282 10865 net.cpp:141] Setting up inception_3a/3x3_reduce
I0403 15:39:37.314312 10865 net.cpp:148] Top shape: 24 96 28 28 (1806336)
I0403 15:39:37.314328 10865 net.cpp:156] Memory required for data: 508183584
I0403 15:39:37.314352 10865 layer_factory.hpp:77] Creating layer inception_3a/relu_3x3_reduce
I0403 15:39:37.314390 10865 net.cpp:91] Creating Layer inception_3a/relu_3x3_reduce
I0403 15:39:37.314409 10865 net.cpp:425] inception_3a/relu_3x3_reduce <- inception_3a/3x3_reduce
I0403 15:39:37.314429 10865 net.cpp:386] inception_3a/relu_3x3_reduce -> inception_3a/3x3_reduce (in-place)
I0403 15:39:37.314612 10865 net.cpp:141] Setting up inception_3a/relu_3x3_reduce
I0403 15:39:37.314640 10865 net.cpp:148] Top shape: 24 96 28 28 (1806336)
I0403 15:39:37.314656 10865 net.cpp:156] Memory required for data: 515408928
I0403 15:39:37.314672 10865 layer_factory.hpp:77] Creating layer inception_3a/3x3
I0403 15:39:37.314697 10865 net.cpp:91] Creating Layer inception_3a/3x3
I0403 15:39:37.314715 10865 net.cpp:425] inception_3a/3x3 <- inception_3a/3x3_reduce
I0403 15:39:37.314738 10865 net.cpp:399] inception_3a/3x3 -> inception_3a/3x3
I0403 15:39:37.316457 10865 net.cpp:141] Setting up inception_3a/3x3
I0403 15:39:37.316485 10865 net.cpp:148] Top shape: 24 128 28 28 (2408448)
I0403 15:39:37.316501 10865 net.cpp:156] Memory required for data: 525042720
I0403 15:39:37.316521 10865 layer_factory.hpp:77] Creating layer inception_3a/relu_3x3
I0403 15:39:37.316545 10865 net.cpp:91] Creating Layer inception_3a/relu_3x3
I0403 15:39:37.316563 10865 net.cpp:425] inception_3a/relu_3x3 <- inception_3a/3x3
I0403 15:39:37.316582 10865 net.cpp:386] inception_3a/relu_3x3 -> inception_3a/3x3 (in-place)
I0403 15:39:37.316866 10865 net.cpp:141] Setting up inception_3a/relu_3x3
I0403 15:39:37.316893 10865 net.cpp:148] Top shape: 24 128 28 28 (2408448)
I0403 15:39:37.316910 10865 net.cpp:156] Memory required for data: 534676512
I0403 15:39:37.316927 10865 layer_factory.hpp:77] Creating layer inception_3a/5x5_reduce
I0403 15:39:37.316956 10865 net.cpp:91] Creating Layer inception_3a/5x5_reduce
I0403 15:39:37.316974 10865 net.cpp:425] inception_3a/5x5_reduce <- pool2/3x3_s2_pool2/3x3_s2_0_split_2
I0403 15:39:37.316997 10865 net.cpp:399] inception_3a/5x5_reduce -> inception_3a/5x5_reduce
I0403 15:39:37.318008 10865 net.cpp:141] Setting up inception_3a/5x5_reduce
I0403 15:39:37.318037 10865 net.cpp:148] Top shape: 24 16 28 28 (301056)
I0403 15:39:37.318054 10865 net.cpp:156] Memory required for data: 535880736
I0403 15:39:37.318074 10865 layer_factory.hpp:77] Creating layer inception_3a/relu_5x5_reduce
I0403 15:39:37.318095 10865 net.cpp:91] Creating Layer inception_3a/relu_5x5_reduce
I0403 15:39:37.318114 10865 net.cpp:425] inception_3a/relu_5x5_reduce <- inception_3a/5x5_reduce
I0403 15:39:37.318132 10865 net.cpp:386] inception_3a/relu_5x5_reduce -> inception_3a/5x5_reduce (in-place)
I0403 15:39:37.318433 10865 net.cpp:141] Setting up inception_3a/relu_5x5_reduce
I0403 15:39:37.318459 10865 net.cpp:148] Top shape: 24 16 28 28 (301056)
I0403 15:39:37.318475 10865 net.cpp:156] Memory required for data: 537084960
I0403 15:39:37.318492 10865 layer_factory.hpp:77] Creating layer inception_3a/5x5
I0403 15:39:37.318516 10865 net.cpp:91] Creating Layer inception_3a/5x5
I0403 15:39:37.318536 10865 net.cpp:425] inception_3a/5x5 <- inception_3a/5x5_reduce
I0403 15:39:37.318555 10865 net.cpp:399] inception_3a/5x5 -> inception_3a/5x5
I0403 15:39:37.319588 10865 net.cpp:141] Setting up inception_3a/5x5
I0403 15:39:37.319617 10865 net.cpp:148] Top shape: 24 32 28 28 (602112)
I0403 15:39:37.319633 10865 net.cpp:156] Memory required for data: 539493408
I0403 15:39:37.319653 10865 layer_factory.hpp:77] Creating layer inception_3a/relu_5x5
I0403 15:39:37.319674 10865 net.cpp:91] Creating Layer inception_3a/relu_5x5
I0403 15:39:37.319692 10865 net.cpp:425] inception_3a/relu_5x5 <- inception_3a/5x5
I0403 15:39:37.319711 10865 net.cpp:386] inception_3a/relu_5x5 -> inception_3a/5x5 (in-place)
I0403 15:39:37.319891 10865 net.cpp:141] Setting up inception_3a/relu_5x5
I0403 15:39:37.319916 10865 net.cpp:148] Top shape: 24 32 28 28 (602112)
I0403 15:39:37.319933 10865 net.cpp:156] Memory required for data: 541901856
I0403 15:39:37.319952 10865 layer_factory.hpp:77] Creating layer inception_3a/pool
I0403 15:39:37.319974 10865 net.cpp:91] Creating Layer inception_3a/pool
I0403 15:39:37.320005 10865 net.cpp:425] inception_3a/pool <- pool2/3x3_s2_pool2/3x3_s2_0_split_3
I0403 15:39:37.320025 10865 net.cpp:399] inception_3a/pool -> inception_3a/pool
I0403 15:39:37.320086 10865 net.cpp:141] Setting up inception_3a/pool
I0403 15:39:37.320111 10865 net.cpp:148] Top shape: 24 192 28 28 (3612672)
I0403 15:39:37.320127 10865 net.cpp:156] Memory required for data: 556352544
I0403 15:39:37.320142 10865 layer_factory.hpp:77] Creating layer inception_3a/pool_proj
I0403 15:39:37.320164 10865 net.cpp:91] Creating Layer inception_3a/pool_proj
I0403 15:39:37.320183 10865 net.cpp:425] inception_3a/pool_proj <- inception_3a/pool
I0403 15:39:37.320206 10865 net.cpp:399] inception_3a/pool_proj -> inception_3a/pool_proj
I0403 15:39:37.321187 10865 net.cpp:141] Setting up inception_3a/pool_proj
I0403 15:39:37.321218 10865 net.cpp:148] Top shape: 24 32 28 28 (602112)
I0403 15:39:37.321234 10865 net.cpp:156] Memory required for data: 558760992
I0403 15:39:37.321257 10865 layer_factory.hpp:77] Creating layer inception_3a/relu_pool_proj
I0403 15:39:37.321280 10865 net.cpp:91] Creating Layer inception_3a/relu_pool_proj
I0403 15:39:37.321298 10865 net.cpp:425] inception_3a/relu_pool_proj <- inception_3a/pool_proj
I0403 15:39:37.321316 10865 net.cpp:386] inception_3a/relu_pool_proj -> inception_3a/pool_proj (in-place)
I0403 15:39:37.321614 10865 net.cpp:141] Setting up inception_3a/relu_pool_proj
I0403 15:39:37.321641 10865 net.cpp:148] Top shape: 24 32 28 28 (602112)
I0403 15:39:37.321669 10865 net.cpp:156] Memory required for data: 561169440
I0403 15:39:37.321686 10865 layer_factory.hpp:77] Creating layer inception_3a/output
I0403 15:39:37.321704 10865 net.cpp:91] Creating Layer inception_3a/output
I0403 15:39:37.321720 10865 net.cpp:425] inception_3a/output <- inception_3a/1x1
I0403 15:39:37.321738 10865 net.cpp:425] inception_3a/output <- inception_3a/3x3
I0403 15:39:37.321755 10865 net.cpp:425] inception_3a/output <- inception_3a/5x5
I0403 15:39:37.321771 10865 net.cpp:425] inception_3a/output <- inception_3a/pool_proj
I0403 15:39:37.321791 10865 net.cpp:399] inception_3a/output -> inception_3a/output
I0403 15:39:37.321842 10865 net.cpp:141] Setting up inception_3a/output
I0403 15:39:37.321866 10865 net.cpp:148] Top shape: 24 256 28 28 (4816896)
I0403 15:39:37.321882 10865 net.cpp:156] Memory required for data: 580437024
I0403 15:39:37.321898 10865 layer_factory.hpp:77] Creating layer inception_3a/output_inception_3a/output_0_split
I0403 15:39:37.321916 10865 net.cpp:91] Creating Layer inception_3a/output_inception_3a/output_0_split
I0403 15:39:37.321933 10865 net.cpp:425] inception_3a/output_inception_3a/output_0_split <- inception_3a/output
I0403 15:39:37.321957 10865 net.cpp:399] inception_3a/output_inception_3a/output_0_split -> inception_3a/output_inception_3a/output_0_split_0
I0403 15:39:37.321980 10865 net.cpp:399] inception_3a/output_inception_3a/output_0_split -> inception_3a/output_inception_3a/output_0_split_1
I0403 15:39:37.322003 10865 net.cpp:399] inception_3a/output_inception_3a/output_0_split -> inception_3a/output_inception_3a/output_0_split_2
I0403 15:39:37.322026 10865 net.cpp:399] inception_3a/output_inception_3a/output_0_split -> inception_3a/output_inception_3a/output_0_split_3
I0403 15:39:37.322105 10865 net.cpp:141] Setting up inception_3a/output_inception_3a/output_0_split
I0403 15:39:37.322129 10865 net.cpp:148] Top shape: 24 256 28 28 (4816896)
I0403 15:39:37.322147 10865 net.cpp:148] Top shape: 24 256 28 28 (4816896)
I0403 15:39:37.322163 10865 net.cpp:148] Top shape: 24 256 28 28 (4816896)
I0403 15:39:37.322180 10865 net.cpp:148] Top shape: 24 256 28 28 (4816896)
I0403 15:39:37.322196 10865 net.cpp:156] Memory required for data: 657507360
I0403 15:39:37.322211 10865 layer_factory.hpp:77] Creating layer inception_3b/1x1
I0403 15:39:37.322234 10865 net.cpp:91] Creating Layer inception_3b/1x1
I0403 15:39:37.322253 10865 net.cpp:425] inception_3b/1x1 <- inception_3a/output_inception_3a/output_0_split_0
I0403 15:39:37.322274 10865 net.cpp:399] inception_3b/1x1 -> inception_3b/1x1
I0403 15:39:37.323468 10865 net.cpp:141] Setting up inception_3b/1x1
I0403 15:39:37.323508 10865 net.cpp:148] Top shape: 24 128 28 28 (2408448)
I0403 15:39:37.323525 10865 net.cpp:156] Memory required for data: 667141152
I0403 15:39:37.323544 10865 layer_factory.hpp:77] Creating layer inception_3b/relu_1x1
I0403 15:39:37.323564 10865 net.cpp:91] Creating Layer inception_3b/relu_1x1
I0403 15:39:37.323580 10865 net.cpp:425] inception_3b/relu_1x1 <- inception_3b/1x1
I0403 15:39:37.323602 10865 net.cpp:386] inception_3b/relu_1x1 -> inception_3b/1x1 (in-place)
I0403 15:39:37.323783 10865 net.cpp:141] Setting up inception_3b/relu_1x1
I0403 15:39:37.323808 10865 net.cpp:148] Top shape: 24 128 28 28 (2408448)
I0403 15:39:37.323825 10865 net.cpp:156] Memory required for data: 676774944
I0403 15:39:37.323840 10865 layer_factory.hpp:77] Creating layer inception_3b/3x3_reduce
I0403 15:39:37.323864 10865 net.cpp:91] Creating Layer inception_3b/3x3_reduce
I0403 15:39:37.323884 10865 net.cpp:425] inception_3b/3x3_reduce <- inception_3a/output_inception_3a/output_0_split_1
I0403 15:39:37.323906 10865 net.cpp:399] inception_3b/3x3_reduce -> inception_3b/3x3_reduce
I0403 15:39:37.325069 10865 net.cpp:141] Setting up inception_3b/3x3_reduce
I0403 15:39:37.325098 10865 net.cpp:148] Top shape: 24 128 28 28 (2408448)
I0403 15:39:37.325114 10865 net.cpp:156] Memory required for data: 686408736
I0403 15:39:37.325134 10865 layer_factory.hpp:77] Creating layer inception_3b/relu_3x3_reduce
I0403 15:39:37.325153 10865 net.cpp:91] Creating Layer inception_3b/relu_3x3_reduce
I0403 15:39:37.325170 10865 net.cpp:425] inception_3b/relu_3x3_reduce <- inception_3b/3x3_reduce
I0403 15:39:37.325191 10865 net.cpp:386] inception_3b/relu_3x3_reduce -> inception_3b/3x3_reduce (in-place)
I0403 15:39:37.325392 10865 net.cpp:141] Setting up inception_3b/relu_3x3_reduce
I0403 15:39:37.325418 10865 net.cpp:148] Top shape: 24 128 28 28 (2408448)
I0403 15:39:37.325434 10865 net.cpp:156] Memory required for data: 696042528
I0403 15:39:37.325450 10865 layer_factory.hpp:77] Creating layer inception_3b/3x3
I0403 15:39:37.325479 10865 net.cpp:91] Creating Layer inception_3b/3x3
I0403 15:39:37.325510 10865 net.cpp:425] inception_3b/3x3 <- inception_3b/3x3_reduce
I0403 15:39:37.325531 10865 net.cpp:399] inception_3b/3x3 -> inception_3b/3x3
I0403 15:39:37.328531 10865 net.cpp:141] Setting up inception_3b/3x3
I0403 15:39:37.328559 10865 net.cpp:148] Top shape: 24 192 28 28 (3612672)
I0403 15:39:37.328575 10865 net.cpp:156] Memory required for data: 710493216
I0403 15:39:37.328595 10865 layer_factory.hpp:77] Creating layer inception_3b/relu_3x3
I0403 15:39:37.328618 10865 net.cpp:91] Creating Layer inception_3b/relu_3x3
I0403 15:39:37.328635 10865 net.cpp:425] inception_3b/relu_3x3 <- inception_3b/3x3
I0403 15:39:37.328654 10865 net.cpp:386] inception_3b/relu_3x3 -> inception_3b/3x3 (in-place)
I0403 15:39:37.328938 10865 net.cpp:141] Setting up inception_3b/relu_3x3
I0403 15:39:37.328969 10865 net.cpp:148] Top shape: 24 192 28 28 (3612672)
I0403 15:39:37.328985 10865 net.cpp:156] Memory required for data: 724943904
I0403 15:39:37.329001 10865 layer_factory.hpp:77] Creating layer inception_3b/5x5_reduce
I0403 15:39:37.329026 10865 net.cpp:91] Creating Layer inception_3b/5x5_reduce
I0403 15:39:37.329046 10865 net.cpp:425] inception_3b/5x5_reduce <- inception_3a/output_inception_3a/output_0_split_2
I0403 15:39:37.329067 10865 net.cpp:399] inception_3b/5x5_reduce -> inception_3b/5x5_reduce
I0403 15:39:37.330085 10865 net.cpp:141] Setting up inception_3b/5x5_reduce
I0403 15:39:37.330113 10865 net.cpp:148] Top shape: 24 32 28 28 (602112)
I0403 15:39:37.330130 10865 net.cpp:156] Memory required for data: 727352352
I0403 15:39:37.330149 10865 layer_factory.hpp:77] Creating layer inception_3b/relu_5x5_reduce
I0403 15:39:37.330171 10865 net.cpp:91] Creating Layer inception_3b/relu_5x5_reduce
I0403 15:39:37.330189 10865 net.cpp:425] inception_3b/relu_5x5_reduce <- inception_3b/5x5_reduce
I0403 15:39:37.330209 10865 net.cpp:386] inception_3b/relu_5x5_reduce -> inception_3b/5x5_reduce (in-place)
I0403 15:39:37.330401 10865 net.cpp:141] Setting up inception_3b/relu_5x5_reduce
I0403 15:39:37.330430 10865 net.cpp:148] Top shape: 24 32 28 28 (602112)
I0403 15:39:37.330446 10865 net.cpp:156] Memory required for data: 729760800
I0403 15:39:37.330461 10865 layer_factory.hpp:77] Creating layer inception_3b/5x5
I0403 15:39:37.330482 10865 net.cpp:91] Creating Layer inception_3b/5x5
I0403 15:39:37.330499 10865 net.cpp:425] inception_3b/5x5 <- inception_3b/5x5_reduce
I0403 15:39:37.330521 10865 net.cpp:399] inception_3b/5x5 -> inception_3b/5x5
I0403 15:39:37.332592 10865 net.cpp:141] Setting up inception_3b/5x5
I0403 15:39:37.332620 10865 net.cpp:148] Top shape: 24 96 28 28 (1806336)
I0403 15:39:37.332636 10865 net.cpp:156] Memory required for data: 736986144
I0403 15:39:37.332655 10865 layer_factory.hpp:77] Creating layer inception_3b/relu_5x5
I0403 15:39:37.332674 10865 net.cpp:91] Creating Layer inception_3b/relu_5x5
I0403 15:39:37.332690 10865 net.cpp:425] inception_3b/relu_5x5 <- inception_3b/5x5
I0403 15:39:37.332710 10865 net.cpp:386] inception_3b/relu_5x5 -> inception_3b/5x5 (in-place)
I0403 15:39:37.332898 10865 net.cpp:141] Setting up inception_3b/relu_5x5
I0403 15:39:37.332924 10865 net.cpp:148] Top shape: 24 96 28 28 (1806336)
I0403 15:39:37.332939 10865 net.cpp:156] Memory required for data: 744211488
I0403 15:39:37.332959 10865 layer_factory.hpp:77] Creating layer inception_3b/pool
I0403 15:39:37.332979 10865 net.cpp:91] Creating Layer inception_3b/pool
I0403 15:39:37.332995 10865 net.cpp:425] inception_3b/pool <- inception_3a/output_inception_3a/output_0_split_3
I0403 15:39:37.333014 10865 net.cpp:399] inception_3b/pool -> inception_3b/pool
I0403 15:39:37.333072 10865 net.cpp:141] Setting up inception_3b/pool
I0403 15:39:37.333097 10865 net.cpp:148] Top shape: 24 256 28 28 (4816896)
I0403 15:39:37.333112 10865 net.cpp:156] Memory required for data: 763479072
I0403 15:39:37.333127 10865 layer_factory.hpp:77] Creating layer inception_3b/pool_proj
I0403 15:39:37.333148 10865 net.cpp:91] Creating Layer inception_3b/pool_proj
I0403 15:39:37.333166 10865 net.cpp:425] inception_3b/pool_proj <- inception_3b/pool
I0403 15:39:37.333189 10865 net.cpp:399] inception_3b/pool_proj -> inception_3b/pool_proj
I0403 15:39:37.334231 10865 net.cpp:141] Setting up inception_3b/pool_proj
I0403 15:39:37.334262 10865 net.cpp:148] Top shape: 24 64 28 28 (1204224)
I0403 15:39:37.334278 10865 net.cpp:156] Memory required for data: 768295968
I0403 15:39:37.334297 10865 layer_factory.hpp:77] Creating layer inception_3b/relu_pool_proj
I0403 15:39:37.334316 10865 net.cpp:91] Creating Layer inception_3b/relu_pool_proj
I0403 15:39:37.334333 10865 net.cpp:425] inception_3b/relu_pool_proj <- inception_3b/pool_proj
I0403 15:39:37.334352 10865 net.cpp:386] inception_3b/relu_pool_proj -> inception_3b/pool_proj (in-place)
I0403 15:39:37.334743 10865 net.cpp:141] Setting up inception_3b/relu_pool_proj
I0403 15:39:37.334770 10865 net.cpp:148] Top shape: 24 64 28 28 (1204224)
I0403 15:39:37.334785 10865 net.cpp:156] Memory required for data: 773112864
I0403 15:39:37.334800 10865 layer_factory.hpp:77] Creating layer inception_3b/output
I0403 15:39:37.334820 10865 net.cpp:91] Creating Layer inception_3b/output
I0403 15:39:37.334837 10865 net.cpp:425] inception_3b/output <- inception_3b/1x1
I0403 15:39:37.334856 10865 net.cpp:425] inception_3b/output <- inception_3b/3x3
I0403 15:39:37.334872 10865 net.cpp:425] inception_3b/output <- inception_3b/5x5
I0403 15:39:37.334887 10865 net.cpp:425] inception_3b/output <- inception_3b/pool_proj
I0403 15:39:37.334904 10865 net.cpp:399] inception_3b/output -> inception_3b/output
I0403 15:39:37.334955 10865 net.cpp:141] Setting up inception_3b/output
I0403 15:39:37.334980 10865 net.cpp:148] Top shape: 24 480 28 28 (9031680)
I0403 15:39:37.334995 10865 net.cpp:156] Memory required for data: 809239584
I0403 15:39:37.335011 10865 layer_factory.hpp:77] Creating layer pool3/3x3_s2
I0403 15:39:37.335028 10865 net.cpp:91] Creating Layer pool3/3x3_s2
I0403 15:39:37.335044 10865 net.cpp:425] pool3/3x3_s2 <- inception_3b/output
I0403 15:39:37.335079 10865 net.cpp:399] pool3/3x3_s2 -> pool3/3x3_s2
I0403 15:39:37.335139 10865 net.cpp:141] Setting up pool3/3x3_s2
I0403 15:39:37.335162 10865 net.cpp:148] Top shape: 24 480 14 14 (2257920)
I0403 15:39:37.335178 10865 net.cpp:156] Memory required for data: 818271264
I0403 15:39:37.335193 10865 layer_factory.hpp:77] Creating layer pool3/3x3_s2_pool3/3x3_s2_0_split
I0403 15:39:37.335213 10865 net.cpp:91] Creating Layer pool3/3x3_s2_pool3/3x3_s2_0_split
I0403 15:39:37.335230 10865 net.cpp:425] pool3/3x3_s2_pool3/3x3_s2_0_split <- pool3/3x3_s2
I0403 15:39:37.335249 10865 net.cpp:399] pool3/3x3_s2_pool3/3x3_s2_0_split -> pool3/3x3_s2_pool3/3x3_s2_0_split_0
I0403 15:39:37.335270 10865 net.cpp:399] pool3/3x3_s2_pool3/3x3_s2_0_split -> pool3/3x3_s2_pool3/3x3_s2_0_split_1
I0403 15:39:37.335290 10865 net.cpp:399] pool3/3x3_s2_pool3/3x3_s2_0_split -> pool3/3x3_s2_pool3/3x3_s2_0_split_2
I0403 15:39:37.335310 10865 net.cpp:399] pool3/3x3_s2_pool3/3x3_s2_0_split -> pool3/3x3_s2_pool3/3x3_s2_0_split_3
I0403 15:39:37.335397 10865 net.cpp:141] Setting up pool3/3x3_s2_pool3/3x3_s2_0_split
I0403 15:39:37.335424 10865 net.cpp:148] Top shape: 24 480 14 14 (2257920)
I0403 15:39:37.335443 10865 net.cpp:148] Top shape: 24 480 14 14 (2257920)
I0403 15:39:37.335460 10865 net.cpp:148] Top shape: 24 480 14 14 (2257920)
I0403 15:39:37.335477 10865 net.cpp:148] Top shape: 24 480 14 14 (2257920)
I0403 15:39:37.335491 10865 net.cpp:156] Memory required for data: 854397984
I0403 15:39:37.335506 10865 layer_factory.hpp:77] Creating layer inception_4a/1x1
I0403 15:39:37.335527 10865 net.cpp:91] Creating Layer inception_4a/1x1
I0403 15:39:37.335544 10865 net.cpp:425] inception_4a/1x1 <- pool3/3x3_s2_pool3/3x3_s2_0_split_0
I0403 15:39:37.335567 10865 net.cpp:399] inception_4a/1x1 -> inception_4a/1x1
I0403 15:39:37.337188 10865 net.cpp:141] Setting up inception_4a/1x1
I0403 15:39:37.337219 10865 net.cpp:148] Top shape: 24 192 14 14 (903168)
I0403 15:39:37.337236 10865 net.cpp:156] Memory required for data: 858010656
I0403 15:39:37.337256 10865 layer_factory.hpp:77] Creating layer inception_4a/relu_1x1
I0403 15:39:37.337276 10865 net.cpp:91] Creating Layer inception_4a/relu_1x1
I0403 15:39:37.337292 10865 net.cpp:425] inception_4a/relu_1x1 <- inception_4a/1x1
I0403 15:39:37.337311 10865 net.cpp:386] inception_4a/relu_1x1 -> inception_4a/1x1 (in-place)
I0403 15:39:37.337491 10865 net.cpp:141] Setting up inception_4a/relu_1x1
I0403 15:39:37.337517 10865 net.cpp:148] Top shape: 24 192 14 14 (903168)
I0403 15:39:37.337532 10865 net.cpp:156] Memory required for data: 861623328
I0403 15:39:37.337548 10865 layer_factory.hpp:77] Creating layer inception_4a/3x3_reduce
I0403 15:39:37.337571 10865 net.cpp:91] Creating Layer inception_4a/3x3_reduce
I0403 15:39:37.337589 10865 net.cpp:425] inception_4a/3x3_reduce <- pool3/3x3_s2_pool3/3x3_s2_0_split_1
I0403 15:39:37.337612 10865 net.cpp:399] inception_4a/3x3_reduce -> inception_4a/3x3_reduce
I0403 15:39:37.338915 10865 net.cpp:141] Setting up inception_4a/3x3_reduce
I0403 15:39:37.338949 10865 net.cpp:148] Top shape: 24 96 14 14 (451584)
I0403 15:39:37.338968 10865 net.cpp:156] Memory required for data: 863429664
I0403 15:39:37.338994 10865 layer_factory.hpp:77] Creating layer inception_4a/relu_3x3_reduce
I0403 15:39:37.339015 10865 net.cpp:91] Creating Layer inception_4a/relu_3x3_reduce
I0403 15:39:37.339032 10865 net.cpp:425] inception_4a/relu_3x3_reduce <- inception_4a/3x3_reduce
I0403 15:39:37.339051 10865 net.cpp:386] inception_4a/relu_3x3_reduce -> inception_4a/3x3_reduce (in-place)
I0403 15:39:37.339232 10865 net.cpp:141] Setting up inception_4a/relu_3x3_reduce
I0403 15:39:37.339260 10865 net.cpp:148] Top shape: 24 96 14 14 (451584)
I0403 15:39:37.339277 10865 net.cpp:156] Memory required for data: 865236000
I0403 15:39:37.339293 10865 layer_factory.hpp:77] Creating layer inception_4a/3x3
I0403 15:39:37.339315 10865 net.cpp:91] Creating Layer inception_4a/3x3
I0403 15:39:37.339334 10865 net.cpp:425] inception_4a/3x3 <- inception_4a/3x3_reduce
I0403 15:39:37.339356 10865 net.cpp:399] inception_4a/3x3 -> inception_4a/3x3
I0403 15:39:37.342103 10865 net.cpp:141] Setting up inception_4a/3x3
I0403 15:39:37.342131 10865 net.cpp:148] Top shape: 24 208 14 14 (978432)
I0403 15:39:37.342149 10865 net.cpp:156] Memory required for data: 869149728
I0403 15:39:37.342169 10865 layer_factory.hpp:77] Creating layer inception_4a/relu_3x3
I0403 15:39:37.342187 10865 net.cpp:91] Creating Layer inception_4a/relu_3x3
I0403 15:39:37.342205 10865 net.cpp:425] inception_4a/relu_3x3 <- inception_4a/3x3
I0403 15:39:37.342226 10865 net.cpp:386] inception_4a/relu_3x3 -> inception_4a/3x3 (in-place)
I0403 15:39:37.342514 10865 net.cpp:141] Setting up inception_4a/relu_3x3
I0403 15:39:37.342541 10865 net.cpp:148] Top shape: 24 208 14 14 (978432)
I0403 15:39:37.342558 10865 net.cpp:156] Memory required for data: 873063456
I0403 15:39:37.342574 10865 layer_factory.hpp:77] Creating layer inception_4a/5x5_reduce
I0403 15:39:37.342597 10865 net.cpp:91] Creating Layer inception_4a/5x5_reduce
I0403 15:39:37.342615 10865 net.cpp:425] inception_4a/5x5_reduce <- pool3/3x3_s2_pool3/3x3_s2_0_split_2
I0403 15:39:37.342638 10865 net.cpp:399] inception_4a/5x5_reduce -> inception_4a/5x5_reduce
I0403 15:39:37.343688 10865 net.cpp:141] Setting up inception_4a/5x5_reduce
I0403 15:39:37.343715 10865 net.cpp:148] Top shape: 24 16 14 14 (75264)
I0403 15:39:37.343731 10865 net.cpp:156] Memory required for data: 873364512
I0403 15:39:37.343751 10865 layer_factory.hpp:77] Creating layer inception_4a/relu_5x5_reduce
I0403 15:39:37.343770 10865 net.cpp:91] Creating Layer inception_4a/relu_5x5_reduce
I0403 15:39:37.343787 10865 net.cpp:425] inception_4a/relu_5x5_reduce <- inception_4a/5x5_reduce
I0403 15:39:37.343808 10865 net.cpp:386] inception_4a/relu_5x5_reduce -> inception_4a/5x5_reduce (in-place)
I0403 15:39:37.343997 10865 net.cpp:141] Setting up inception_4a/relu_5x5_reduce
I0403 15:39:37.344023 10865 net.cpp:148] Top shape: 24 16 14 14 (75264)
I0403 15:39:37.344039 10865 net.cpp:156] Memory required for data: 873665568
I0403 15:39:37.344055 10865 layer_factory.hpp:77] Creating layer inception_4a/5x5
I0403 15:39:37.344080 10865 net.cpp:91] Creating Layer inception_4a/5x5
I0403 15:39:37.344099 10865 net.cpp:425] inception_4a/5x5 <- inception_4a/5x5_reduce
I0403 15:39:37.344121 10865 net.cpp:399] inception_4a/5x5 -> inception_4a/5x5
I0403 15:39:37.345275 10865 net.cpp:141] Setting up inception_4a/5x5
I0403 15:39:37.345304 10865 net.cpp:148] Top shape: 24 48 14 14 (225792)
I0403 15:39:37.345319 10865 net.cpp:156] Memory required for data: 874568736
I0403 15:39:37.345338 10865 layer_factory.hpp:77] Creating layer inception_4a/relu_5x5
I0403 15:39:37.345360 10865 net.cpp:91] Creating Layer inception_4a/relu_5x5
I0403 15:39:37.345378 10865 net.cpp:425] inception_4a/relu_5x5 <- inception_4a/5x5
I0403 15:39:37.345397 10865 net.cpp:386] inception_4a/relu_5x5 -> inception_4a/5x5 (in-place)
I0403 15:39:37.345584 10865 net.cpp:141] Setting up inception_4a/relu_5x5
I0403 15:39:37.345610 10865 net.cpp:148] Top shape: 24 48 14 14 (225792)
I0403 15:39:37.345626 10865 net.cpp:156] Memory required for data: 875471904
I0403 15:39:37.345643 10865 layer_factory.hpp:77] Creating layer inception_4a/pool
I0403 15:39:37.345660 10865 net.cpp:91] Creating Layer inception_4a/pool
I0403 15:39:37.345677 10865 net.cpp:425] inception_4a/pool <- pool3/3x3_s2_pool3/3x3_s2_0_split_3
I0403 15:39:37.345700 10865 net.cpp:399] inception_4a/pool -> inception_4a/pool
I0403 15:39:37.345763 10865 net.cpp:141] Setting up inception_4a/pool
I0403 15:39:37.345788 10865 net.cpp:148] Top shape: 24 480 14 14 (2257920)
I0403 15:39:37.345803 10865 net.cpp:156] Memory required for data: 884503584
I0403 15:39:37.345818 10865 layer_factory.hpp:77] Creating layer inception_4a/pool_proj
I0403 15:39:37.345844 10865 net.cpp:91] Creating Layer inception_4a/pool_proj
I0403 15:39:37.345861 10865 net.cpp:425] inception_4a/pool_proj <- inception_4a/pool
I0403 15:39:37.345881 10865 net.cpp:399] inception_4a/pool_proj -> inception_4a/pool_proj
I0403 15:39:37.347120 10865 net.cpp:141] Setting up inception_4a/pool_proj
I0403 15:39:37.347151 10865 net.cpp:148] Top shape: 24 64 14 14 (301056)
I0403 15:39:37.347182 10865 net.cpp:156] Memory required for data: 885707808
I0403 15:39:37.347203 10865 layer_factory.hpp:77] Creating layer inception_4a/relu_pool_proj
I0403 15:39:37.347223 10865 net.cpp:91] Creating Layer inception_4a/relu_pool_proj
I0403 15:39:37.347240 10865 net.cpp:425] inception_4a/relu_pool_proj <- inception_4a/pool_proj
I0403 15:39:37.347262 10865 net.cpp:386] inception_4a/relu_pool_proj -> inception_4a/pool_proj (in-place)
I0403 15:39:37.347553 10865 net.cpp:141] Setting up inception_4a/relu_pool_proj
I0403 15:39:37.347582 10865 net.cpp:148] Top shape: 24 64 14 14 (301056)
I0403 15:39:37.347599 10865 net.cpp:156] Memory required for data: 886912032
I0403 15:39:37.347615 10865 layer_factory.hpp:77] Creating layer inception_4a/output
I0403 15:39:37.347635 10865 net.cpp:91] Creating Layer inception_4a/output
I0403 15:39:37.347652 10865 net.cpp:425] inception_4a/output <- inception_4a/1x1
I0403 15:39:37.347671 10865 net.cpp:425] inception_4a/output <- inception_4a/3x3
I0403 15:39:37.347687 10865 net.cpp:425] inception_4a/output <- inception_4a/5x5
I0403 15:39:37.347704 10865 net.cpp:425] inception_4a/output <- inception_4a/pool_proj
I0403 15:39:37.347721 10865 net.cpp:399] inception_4a/output -> inception_4a/output
I0403 15:39:37.347769 10865 net.cpp:141] Setting up inception_4a/output
I0403 15:39:37.347793 10865 net.cpp:148] Top shape: 24 512 14 14 (2408448)
I0403 15:39:37.347808 10865 net.cpp:156] Memory required for data: 896545824
I0403 15:39:37.347825 10865 layer_factory.hpp:77] Creating layer inception_4a/output_inception_4a/output_0_split
I0403 15:39:37.347846 10865 net.cpp:91] Creating Layer inception_4a/output_inception_4a/output_0_split
I0403 15:39:37.347863 10865 net.cpp:425] inception_4a/output_inception_4a/output_0_split <- inception_4a/output
I0403 15:39:37.347882 10865 net.cpp:399] inception_4a/output_inception_4a/output_0_split -> inception_4a/output_inception_4a/output_0_split_0
I0403 15:39:37.347903 10865 net.cpp:399] inception_4a/output_inception_4a/output_0_split -> inception_4a/output_inception_4a/output_0_split_1
I0403 15:39:37.347926 10865 net.cpp:399] inception_4a/output_inception_4a/output_0_split -> inception_4a/output_inception_4a/output_0_split_2
I0403 15:39:37.347962 10865 net.cpp:399] inception_4a/output_inception_4a/output_0_split -> inception_4a/output_inception_4a/output_0_split_3
I0403 15:39:37.347986 10865 net.cpp:399] inception_4a/output_inception_4a/output_0_split -> inception_4a/output_inception_4a/output_0_split_4
I0403 15:39:37.348083 10865 net.cpp:141] Setting up inception_4a/output_inception_4a/output_0_split
I0403 15:39:37.348106 10865 net.cpp:148] Top shape: 24 512 14 14 (2408448)
I0403 15:39:37.348124 10865 net.cpp:148] Top shape: 24 512 14 14 (2408448)
I0403 15:39:37.348141 10865 net.cpp:148] Top shape: 24 512 14 14 (2408448)
I0403 15:39:37.348157 10865 net.cpp:148] Top shape: 24 512 14 14 (2408448)
I0403 15:39:37.348175 10865 net.cpp:148] Top shape: 24 512 14 14 (2408448)
I0403 15:39:37.348188 10865 net.cpp:156] Memory required for data: 944714784
I0403 15:39:37.348204 10865 layer_factory.hpp:77] Creating layer loss1/ave_pool
I0403 15:39:37.348223 10865 net.cpp:91] Creating Layer loss1/ave_pool
I0403 15:39:37.348240 10865 net.cpp:425] loss1/ave_pool <- inception_4a/output_inception_4a/output_0_split_0
I0403 15:39:37.348261 10865 net.cpp:399] loss1/ave_pool -> loss1/ave_pool
I0403 15:39:37.348469 10865 net.cpp:141] Setting up loss1/ave_pool
I0403 15:39:37.348498 10865 net.cpp:148] Top shape: 24 512 4 4 (196608)
I0403 15:39:37.348515 10865 net.cpp:156] Memory required for data: 945501216
I0403 15:39:37.348531 10865 layer_factory.hpp:77] Creating layer loss1/conv
I0403 15:39:37.348557 10865 net.cpp:91] Creating Layer loss1/conv
I0403 15:39:37.348575 10865 net.cpp:425] loss1/conv <- loss1/ave_pool
I0403 15:39:37.348595 10865 net.cpp:399] loss1/conv -> loss1/conv
I0403 15:39:37.350050 10865 net.cpp:141] Setting up loss1/conv
I0403 15:39:37.350080 10865 net.cpp:148] Top shape: 24 128 4 4 (49152)
I0403 15:39:37.350111 10865 net.cpp:156] Memory required for data: 945697824
I0403 15:39:37.350133 10865 layer_factory.hpp:77] Creating layer loss1/relu_conv
I0403 15:39:37.350153 10865 net.cpp:91] Creating Layer loss1/relu_conv
I0403 15:39:37.350172 10865 net.cpp:425] loss1/relu_conv <- loss1/conv
I0403 15:39:37.350191 10865 net.cpp:386] loss1/relu_conv -> loss1/conv (in-place)
I0403 15:39:37.350494 10865 net.cpp:141] Setting up loss1/relu_conv
I0403 15:39:37.350522 10865 net.cpp:148] Top shape: 24 128 4 4 (49152)
I0403 15:39:37.350539 10865 net.cpp:156] Memory required for data: 945894432
I0403 15:39:37.350556 10865 layer_factory.hpp:77] Creating layer loss1/fc
I0403 15:39:37.350581 10865 net.cpp:91] Creating Layer loss1/fc
I0403 15:39:37.350600 10865 net.cpp:425] loss1/fc <- loss1/conv
I0403 15:39:37.350625 10865 net.cpp:399] loss1/fc -> loss1/fc
I0403 15:39:37.369093 10865 net.cpp:141] Setting up loss1/fc
I0403 15:39:37.369143 10865 net.cpp:148] Top shape: 24 1024 (24576)
I0403 15:39:37.369160 10865 net.cpp:156] Memory required for data: 945992736
I0403 15:39:37.369180 10865 layer_factory.hpp:77] Creating layer loss1/relu_fc
I0403 15:39:37.369199 10865 net.cpp:91] Creating Layer loss1/relu_fc
I0403 15:39:37.369216 10865 net.cpp:425] loss1/relu_fc <- loss1/fc
I0403 15:39:37.369235 10865 net.cpp:386] loss1/relu_fc -> loss1/fc (in-place)
I0403 15:39:37.369427 10865 net.cpp:141] Setting up loss1/relu_fc
I0403 15:39:37.369453 10865 net.cpp:148] Top shape: 24 1024 (24576)
I0403 15:39:37.369469 10865 net.cpp:156] Memory required for data: 946091040
I0403 15:39:37.369484 10865 layer_factory.hpp:77] Creating layer loss1/drop_fc
I0403 15:39:37.369513 10865 net.cpp:91] Creating Layer loss1/drop_fc
I0403 15:39:37.369531 10865 net.cpp:425] loss1/drop_fc <- loss1/fc
I0403 15:39:37.369555 10865 net.cpp:386] loss1/drop_fc -> loss1/fc (in-place)
I0403 15:39:37.369609 10865 net.cpp:141] Setting up loss1/drop_fc
I0403 15:39:37.369634 10865 net.cpp:148] Top shape: 24 1024 (24576)
I0403 15:39:37.369650 10865 net.cpp:156] Memory required for data: 946189344
I0403 15:39:37.369665 10865 layer_factory.hpp:77] Creating layer loss1/classifier_plantvillage
I0403 15:39:37.369689 10865 net.cpp:91] Creating Layer loss1/classifier_plantvillage
I0403 15:39:37.369707 10865 net.cpp:425] loss1/classifier_plantvillage <- loss1/fc
I0403 15:39:37.369729 10865 net.cpp:399] loss1/classifier_plantvillage -> loss1/classifier_plantvillage
I0403 15:39:37.370674 10865 net.cpp:141] Setting up loss1/classifier_plantvillage
I0403 15:39:37.370702 10865 net.cpp:148] Top shape: 24 38 (912)
I0403 15:39:37.370719 10865 net.cpp:156] Memory required for data: 946192992
I0403 15:39:37.370738 10865 layer_factory.hpp:77] Creating layer loss1/classifier_plantvillage_loss1/classifier_plantvillage_0_split
I0403 15:39:37.370759 10865 net.cpp:91] Creating Layer loss1/classifier_plantvillage_loss1/classifier_plantvillage_0_split
I0403 15:39:37.370775 10865 net.cpp:425] loss1/classifier_plantvillage_loss1/classifier_plantvillage_0_split <- loss1/classifier_plantvillage
I0403 15:39:37.370796 10865 net.cpp:399] loss1/classifier_plantvillage_loss1/classifier_plantvillage_0_split -> loss1/classifier_plantvillage_loss1/classifier_plantvillage_0_split_0
I0403 15:39:37.370820 10865 net.cpp:399] loss1/classifier_plantvillage_loss1/classifier_plantvillage_0_split -> loss1/classifier_plantvillage_loss1/classifier_plantvillage_0_split_1
I0403 15:39:37.370841 10865 net.cpp:399] loss1/classifier_plantvillage_loss1/classifier_plantvillage_0_split -> loss1/classifier_plantvillage_loss1/classifier_plantvillage_0_split_2
I0403 15:39:37.370908 10865 net.cpp:141] Setting up loss1/classifier_plantvillage_loss1/classifier_plantvillage_0_split
I0403 15:39:37.370934 10865 net.cpp:148] Top shape: 24 38 (912)
I0403 15:39:37.370955 10865 net.cpp:148] Top shape: 24 38 (912)
I0403 15:39:37.370973 10865 net.cpp:148] Top shape: 24 38 (912)
I0403 15:39:37.370990 10865 net.cpp:156] Memory required for data: 946203936
I0403 15:39:37.371004 10865 layer_factory.hpp:77] Creating layer inception_4b/1x1
I0403 15:39:37.371026 10865 net.cpp:91] Creating Layer inception_4b/1x1
I0403 15:39:37.371060 10865 net.cpp:425] inception_4b/1x1 <- inception_4a/output_inception_4a/output_0_split_1
I0403 15:39:37.371084 10865 net.cpp:399] inception_4b/1x1 -> inception_4b/1x1
I0403 15:39:37.372776 10865 net.cpp:141] Setting up inception_4b/1x1
I0403 15:39:37.372804 10865 net.cpp:148] Top shape: 24 160 14 14 (752640)
I0403 15:39:37.372822 10865 net.cpp:156] Memory required for data: 949214496
I0403 15:39:37.372840 10865 layer_factory.hpp:77] Creating layer inception_4b/relu_1x1
I0403 15:39:37.372859 10865 net.cpp:91] Creating Layer inception_4b/relu_1x1
I0403 15:39:37.372877 10865 net.cpp:425] inception_4b/relu_1x1 <- inception_4b/1x1
I0403 15:39:37.372898 10865 net.cpp:386] inception_4b/relu_1x1 -> inception_4b/1x1 (in-place)
I0403 15:39:37.373088 10865 net.cpp:141] Setting up inception_4b/relu_1x1
I0403 15:39:37.373116 10865 net.cpp:148] Top shape: 24 160 14 14 (752640)
I0403 15:39:37.373131 10865 net.cpp:156] Memory required for data: 952225056
I0403 15:39:37.373145 10865 layer_factory.hpp:77] Creating layer inception_4b/3x3_reduce
I0403 15:39:37.373168 10865 net.cpp:91] Creating Layer inception_4b/3x3_reduce
I0403 15:39:37.373188 10865 net.cpp:425] inception_4b/3x3_reduce <- inception_4a/output_inception_4a/output_0_split_2
I0403 15:39:37.373213 10865 net.cpp:399] inception_4b/3x3_reduce -> inception_4b/3x3_reduce
I0403 15:39:37.374608 10865 net.cpp:141] Setting up inception_4b/3x3_reduce
I0403 15:39:37.374635 10865 net.cpp:148] Top shape: 24 112 14 14 (526848)
I0403 15:39:37.374651 10865 net.cpp:156] Memory required for data: 954332448
I0403 15:39:37.374671 10865 layer_factory.hpp:77] Creating layer inception_4b/relu_3x3_reduce
I0403 15:39:37.374693 10865 net.cpp:91] Creating Layer inception_4b/relu_3x3_reduce
I0403 15:39:37.374711 10865 net.cpp:425] inception_4b/relu_3x3_reduce <- inception_4b/3x3_reduce
I0403 15:39:37.374730 10865 net.cpp:386] inception_4b/relu_3x3_reduce -> inception_4b/3x3_reduce (in-place)
I0403 15:39:37.375027 10865 net.cpp:141] Setting up inception_4b/relu_3x3_reduce
I0403 15:39:37.375054 10865 net.cpp:148] Top shape: 24 112 14 14 (526848)
I0403 15:39:37.375071 10865 net.cpp:156] Memory required for data: 956439840
I0403 15:39:37.375087 10865 layer_factory.hpp:77] Creating layer inception_4b/3x3
I0403 15:39:37.375111 10865 net.cpp:91] Creating Layer inception_4b/3x3
I0403 15:39:37.375129 10865 net.cpp:425] inception_4b/3x3 <- inception_4b/3x3_reduce
I0403 15:39:37.375152 10865 net.cpp:399] inception_4b/3x3 -> inception_4b/3x3
I0403 15:39:37.378257 10865 net.cpp:141] Setting up inception_4b/3x3
I0403 15:39:37.378290 10865 net.cpp:148] Top shape: 24 224 14 14 (1053696)
I0403 15:39:37.378320 10865 net.cpp:156] Memory required for data: 960654624
I0403 15:39:37.378340 10865 layer_factory.hpp:77] Creating layer inception_4b/relu_3x3
I0403 15:39:37.378360 10865 net.cpp:91] Creating Layer inception_4b/relu_3x3
I0403 15:39:37.378378 10865 net.cpp:425] inception_4b/relu_3x3 <- inception_4b/3x3
I0403 15:39:37.378399 10865 net.cpp:386] inception_4b/relu_3x3 -> inception_4b/3x3 (in-place)
I0403 15:39:37.378588 10865 net.cpp:141] Setting up inception_4b/relu_3x3
I0403 15:39:37.378614 10865 net.cpp:148] Top shape: 24 224 14 14 (1053696)
I0403 15:39:37.378629 10865 net.cpp:156] Memory required for data: 964869408
I0403 15:39:37.378645 10865 layer_factory.hpp:77] Creating layer inception_4b/5x5_reduce
I0403 15:39:37.378670 10865 net.cpp:91] Creating Layer inception_4b/5x5_reduce
I0403 15:39:37.378689 10865 net.cpp:425] inception_4b/5x5_reduce <- inception_4a/output_inception_4a/output_0_split_3
I0403 15:39:37.378711 10865 net.cpp:399] inception_4b/5x5_reduce -> inception_4b/5x5_reduce
I0403 15:39:37.379820 10865 net.cpp:141] Setting up inception_4b/5x5_reduce
I0403 15:39:37.379848 10865 net.cpp:148] Top shape: 24 24 14 14 (112896)
I0403 15:39:37.379864 10865 net.cpp:156] Memory required for data: 965320992
I0403 15:39:37.379884 10865 layer_factory.hpp:77] Creating layer inception_4b/relu_5x5_reduce
I0403 15:39:37.379906 10865 net.cpp:91] Creating Layer inception_4b/relu_5x5_reduce
I0403 15:39:37.379940 10865 net.cpp:425] inception_4b/relu_5x5_reduce <- inception_4b/5x5_reduce
I0403 15:39:37.379966 10865 net.cpp:386] inception_4b/relu_5x5_reduce -> inception_4b/5x5_reduce (in-place)
I0403 15:39:37.380153 10865 net.cpp:141] Setting up inception_4b/relu_5x5_reduce
I0403 15:39:37.380179 10865 net.cpp:148] Top shape: 24 24 14 14 (112896)
I0403 15:39:37.380195 10865 net.cpp:156] Memory required for data: 965772576
I0403 15:39:37.380211 10865 layer_factory.hpp:77] Creating layer inception_4b/5x5
I0403 15:39:37.380236 10865 net.cpp:91] Creating Layer inception_4b/5x5
I0403 15:39:37.380255 10865 net.cpp:425] inception_4b/5x5 <- inception_4b/5x5_reduce
I0403 15:39:37.380275 10865 net.cpp:399] inception_4b/5x5 -> inception_4b/5x5
I0403 15:39:37.381536 10865 net.cpp:141] Setting up inception_4b/5x5
I0403 15:39:37.381564 10865 net.cpp:148] Top shape: 24 64 14 14 (301056)
I0403 15:39:37.381582 10865 net.cpp:156] Memory required for data: 966976800
I0403 15:39:37.381602 10865 layer_factory.hpp:77] Creating layer inception_4b/relu_5x5
I0403 15:39:37.381619 10865 net.cpp:91] Creating Layer inception_4b/relu_5x5
I0403 15:39:37.381636 10865 net.cpp:425] inception_4b/relu_5x5 <- inception_4b/5x5
I0403 15:39:37.381657 10865 net.cpp:386] inception_4b/relu_5x5 -> inception_4b/5x5 (in-place)
I0403 15:39:37.381958 10865 net.cpp:141] Setting up inception_4b/relu_5x5
I0403 15:39:37.381984 10865 net.cpp:148] Top shape: 24 64 14 14 (301056)
I0403 15:39:37.382001 10865 net.cpp:156] Memory required for data: 968181024
I0403 15:39:37.382017 10865 layer_factory.hpp:77] Creating layer inception_4b/pool
I0403 15:39:37.382036 10865 net.cpp:91] Creating Layer inception_4b/pool
I0403 15:39:37.382055 10865 net.cpp:425] inception_4b/pool <- inception_4a/output_inception_4a/output_0_split_4
I0403 15:39:37.382076 10865 net.cpp:399] inception_4b/pool -> inception_4b/pool
I0403 15:39:37.382143 10865 net.cpp:141] Setting up inception_4b/pool
I0403 15:39:37.382169 10865 net.cpp:148] Top shape: 24 512 14 14 (2408448)
I0403 15:39:37.382184 10865 net.cpp:156] Memory required for data: 977814816
I0403 15:39:37.382200 10865 layer_factory.hpp:77] Creating layer inception_4b/pool_proj
I0403 15:39:37.382223 10865 net.cpp:91] Creating Layer inception_4b/pool_proj
I0403 15:39:37.382242 10865 net.cpp:425] inception_4b/pool_proj <- inception_4b/pool
I0403 15:39:37.382263 10865 net.cpp:399] inception_4b/pool_proj -> inception_4b/pool_proj
I0403 15:39:37.383497 10865 net.cpp:141] Setting up inception_4b/pool_proj
I0403 15:39:37.383525 10865 net.cpp:148] Top shape: 24 64 14 14 (301056)
I0403 15:39:37.383543 10865 net.cpp:156] Memory required for data: 979019040
I0403 15:39:37.383561 10865 layer_factory.hpp:77] Creating layer inception_4b/relu_pool_proj
I0403 15:39:37.383584 10865 net.cpp:91] Creating Layer inception_4b/relu_pool_proj
I0403 15:39:37.383602 10865 net.cpp:425] inception_4b/relu_pool_proj <- inception_4b/pool_proj
I0403 15:39:37.383621 10865 net.cpp:386] inception_4b/relu_pool_proj -> inception_4b/pool_proj (in-place)
I0403 15:39:37.383806 10865 net.cpp:141] Setting up inception_4b/relu_pool_proj
I0403 15:39:37.383834 10865 net.cpp:148] Top shape: 24 64 14 14 (301056)
I0403 15:39:37.383851 10865 net.cpp:156] Memory required for data: 980223264
I0403 15:39:37.383867 10865 layer_factory.hpp:77] Creating layer inception_4b/output
I0403 15:39:37.383884 10865 net.cpp:91] Creating Layer inception_4b/output
I0403 15:39:37.383901 10865 net.cpp:425] inception_4b/output <- inception_4b/1x1
I0403 15:39:37.383919 10865 net.cpp:425] inception_4b/output <- inception_4b/3x3
I0403 15:39:37.383935 10865 net.cpp:425] inception_4b/output <- inception_4b/5x5
I0403 15:39:37.383956 10865 net.cpp:425] inception_4b/output <- inception_4b/pool_proj
I0403 15:39:37.383975 10865 net.cpp:399] inception_4b/output -> inception_4b/output
I0403 15:39:37.384026 10865 net.cpp:141] Setting up inception_4b/output
I0403 15:39:37.384048 10865 net.cpp:148] Top shape: 24 512 14 14 (2408448)
I0403 15:39:37.384064 10865 net.cpp:156] Memory required for data: 989857056
I0403 15:39:37.384094 10865 layer_factory.hpp:77] Creating layer inception_4b/output_inception_4b/output_0_split
I0403 15:39:37.384114 10865 net.cpp:91] Creating Layer inception_4b/output_inception_4b/output_0_split
I0403 15:39:37.384133 10865 net.cpp:425] inception_4b/output_inception_4b/output_0_split <- inception_4b/output
I0403 15:39:37.384152 10865 net.cpp:399] inception_4b/output_inception_4b/output_0_split -> inception_4b/output_inception_4b/output_0_split_0
I0403 15:39:37.384173 10865 net.cpp:399] inception_4b/output_inception_4b/output_0_split -> inception_4b/output_inception_4b/output_0_split_1
I0403 15:39:37.384196 10865 net.cpp:399] inception_4b/output_inception_4b/output_0_split -> inception_4b/output_inception_4b/output_0_split_2
I0403 15:39:37.384215 10865 net.cpp:399] inception_4b/output_inception_4b/output_0_split -> inception_4b/output_inception_4b/output_0_split_3
I0403 15:39:37.384302 10865 net.cpp:141] Setting up inception_4b/output_inception_4b/output_0_split
I0403 15:39:37.384327 10865 net.cpp:148] Top shape: 24 512 14 14 (2408448)
I0403 15:39:37.384344 10865 net.cpp:148] Top shape: 24 512 14 14 (2408448)
I0403 15:39:37.384361 10865 net.cpp:148] Top shape: 24 512 14 14 (2408448)
I0403 15:39:37.384378 10865 net.cpp:148] Top shape: 24 512 14 14 (2408448)
I0403 15:39:37.384392 10865 net.cpp:156] Memory required for data: 1028392224
I0403 15:39:37.384407 10865 layer_factory.hpp:77] Creating layer inception_4c/1x1
I0403 15:39:37.384430 10865 net.cpp:91] Creating Layer inception_4c/1x1
I0403 15:39:37.384449 10865 net.cpp:425] inception_4c/1x1 <- inception_4b/output_inception_4b/output_0_split_0
I0403 15:39:37.384471 10865 net.cpp:399] inception_4c/1x1 -> inception_4c/1x1
I0403 15:39:37.385949 10865 net.cpp:141] Setting up inception_4c/1x1
I0403 15:39:37.385982 10865 net.cpp:148] Top shape: 24 128 14 14 (602112)
I0403 15:39:37.385999 10865 net.cpp:156] Memory required for data: 1030800672
I0403 15:39:37.386019 10865 layer_factory.hpp:77] Creating layer inception_4c/relu_1x1
I0403 15:39:37.386039 10865 net.cpp:91] Creating Layer inception_4c/relu_1x1
I0403 15:39:37.386057 10865 net.cpp:425] inception_4c/relu_1x1 <- inception_4c/1x1
I0403 15:39:37.386075 10865 net.cpp:386] inception_4c/relu_1x1 -> inception_4c/1x1 (in-place)
I0403 15:39:37.386266 10865 net.cpp:141] Setting up inception_4c/relu_1x1
I0403 15:39:37.386292 10865 net.cpp:148] Top shape: 24 128 14 14 (602112)
I0403 15:39:37.386307 10865 net.cpp:156] Memory required for data: 1033209120
I0403 15:39:37.386323 10865 layer_factory.hpp:77] Creating layer inception_4c/3x3_reduce
I0403 15:39:37.386346 10865 net.cpp:91] Creating Layer inception_4c/3x3_reduce
I0403 15:39:37.386365 10865 net.cpp:425] inception_4c/3x3_reduce <- inception_4b/output_inception_4b/output_0_split_1
I0403 15:39:37.386389 10865 net.cpp:399] inception_4c/3x3_reduce -> inception_4c/3x3_reduce
I0403 15:39:37.388475 10865 net.cpp:141] Setting up inception_4c/3x3_reduce
I0403 15:39:37.388505 10865 net.cpp:148] Top shape: 24 128 14 14 (602112)
I0403 15:39:37.388523 10865 net.cpp:156] Memory required for data: 1035617568
I0403 15:39:37.388543 10865 layer_factory.hpp:77] Creating layer inception_4c/relu_3x3_reduce
I0403 15:39:37.388566 10865 net.cpp:91] Creating Layer inception_4c/relu_3x3_reduce
I0403 15:39:37.388586 10865 net.cpp:425] inception_4c/relu_3x3_reduce <- inception_4c/3x3_reduce
I0403 15:39:37.388605 10865 net.cpp:386] inception_4c/relu_3x3_reduce -> inception_4c/3x3_reduce (in-place)
I0403 15:39:37.388911 10865 net.cpp:141] Setting up inception_4c/relu_3x3_reduce
I0403 15:39:37.388939 10865 net.cpp:148] Top shape: 24 128 14 14 (602112)
I0403 15:39:37.388962 10865 net.cpp:156] Memory required for data: 1038026016
I0403 15:39:37.388978 10865 layer_factory.hpp:77] Creating layer inception_4c/3x3
I0403 15:39:37.389003 10865 net.cpp:91] Creating Layer inception_4c/3x3
I0403 15:39:37.389024 10865 net.cpp:425] inception_4c/3x3 <- inception_4c/3x3_reduce
I0403 15:39:37.389048 10865 net.cpp:399] inception_4c/3x3 -> inception_4c/3x3
I0403 15:39:37.392905 10865 net.cpp:141] Setting up inception_4c/3x3
I0403 15:39:37.392953 10865 net.cpp:148] Top shape: 24 256 14 14 (1204224)
I0403 15:39:37.392972 10865 net.cpp:156] Memory required for data: 1042842912
I0403 15:39:37.393007 10865 layer_factory.hpp:77] Creating layer inception_4c/relu_3x3
I0403 15:39:37.393033 10865 net.cpp:91] Creating Layer inception_4c/relu_3x3
I0403 15:39:37.393051 10865 net.cpp:425] inception_4c/relu_3x3 <- inception_4c/3x3
I0403 15:39:37.393070 10865 net.cpp:386] inception_4c/relu_3x3 -> inception_4c/3x3 (in-place)
I0403 15:39:37.393265 10865 net.cpp:141] Setting up inception_4c/relu_3x3
I0403 15:39:37.393291 10865 net.cpp:148] Top shape: 24 256 14 14 (1204224)
I0403 15:39:37.393308 10865 net.cpp:156] Memory required for data: 1047659808
I0403 15:39:37.393324 10865 layer_factory.hpp:77] Creating layer inception_4c/5x5_reduce
I0403 15:39:37.393349 10865 net.cpp:91] Creating Layer inception_4c/5x5_reduce
I0403 15:39:37.393368 10865 net.cpp:425] inception_4c/5x5_reduce <- inception_4b/output_inception_4b/output_0_split_2
I0403 15:39:37.393391 10865 net.cpp:399] inception_4c/5x5_reduce -> inception_4c/5x5_reduce
I0403 15:39:37.394557 10865 net.cpp:141] Setting up inception_4c/5x5_reduce
I0403 15:39:37.394587 10865 net.cpp:148] Top shape: 24 24 14 14 (112896)
I0403 15:39:37.394604 10865 net.cpp:156] Memory required for data: 1048111392
I0403 15:39:37.394623 10865 layer_factory.hpp:77] Creating layer inception_4c/relu_5x5_reduce
I0403 15:39:37.394646 10865 net.cpp:91] Creating Layer inception_4c/relu_5x5_reduce
I0403 15:39:37.394665 10865 net.cpp:425] inception_4c/relu_5x5_reduce <- inception_4c/5x5_reduce
I0403 15:39:37.394685 10865 net.cpp:386] inception_4c/relu_5x5_reduce -> inception_4c/5x5_reduce (in-place)
I0403 15:39:37.394879 10865 net.cpp:141] Setting up inception_4c/relu_5x5_reduce
I0403 15:39:37.394906 10865 net.cpp:148] Top shape: 24 24 14 14 (112896)
I0403 15:39:37.394924 10865 net.cpp:156] Memory required for data: 1048562976
I0403 15:39:37.394940 10865 layer_factory.hpp:77] Creating layer inception_4c/5x5
I0403 15:39:37.394971 10865 net.cpp:91] Creating Layer inception_4c/5x5
I0403 15:39:37.394991 10865 net.cpp:425] inception_4c/5x5 <- inception_4c/5x5_reduce
I0403 15:39:37.395012 10865 net.cpp:399] inception_4c/5x5 -> inception_4c/5x5
I0403 15:39:37.396330 10865 net.cpp:141] Setting up inception_4c/5x5
I0403 15:39:37.396363 10865 net.cpp:148] Top shape: 24 64 14 14 (301056)
I0403 15:39:37.396380 10865 net.cpp:156] Memory required for data: 1049767200
I0403 15:39:37.396400 10865 layer_factory.hpp:77] Creating layer inception_4c/relu_5x5
I0403 15:39:37.396420 10865 net.cpp:91] Creating Layer inception_4c/relu_5x5
I0403 15:39:37.396438 10865 net.cpp:425] inception_4c/relu_5x5 <- inception_4c/5x5
I0403 15:39:37.396457 10865 net.cpp:386] inception_4c/relu_5x5 -> inception_4c/5x5 (in-place)
I0403 15:39:37.396764 10865 net.cpp:141] Setting up inception_4c/relu_5x5
I0403 15:39:37.396795 10865 net.cpp:148] Top shape: 24 64 14 14 (301056)
I0403 15:39:37.396812 10865 net.cpp:156] Memory required for data: 1050971424
I0403 15:39:37.396829 10865 layer_factory.hpp:77] Creating layer inception_4c/pool
I0403 15:39:37.396849 10865 net.cpp:91] Creating Layer inception_4c/pool
I0403 15:39:37.396867 10865 net.cpp:425] inception_4c/pool <- inception_4b/output_inception_4b/output_0_split_3
I0403 15:39:37.396888 10865 net.cpp:399] inception_4c/pool -> inception_4c/pool
I0403 15:39:37.396963 10865 net.cpp:141] Setting up inception_4c/pool
I0403 15:39:37.396989 10865 net.cpp:148] Top shape: 24 512 14 14 (2408448)
I0403 15:39:37.397006 10865 net.cpp:156] Memory required for data: 1060605216
I0403 15:39:37.397022 10865 layer_factory.hpp:77] Creating layer inception_4c/pool_proj
I0403 15:39:37.397047 10865 net.cpp:91] Creating Layer inception_4c/pool_proj
I0403 15:39:37.397065 10865 net.cpp:425] inception_4c/pool_proj <- inception_4c/pool
I0403 15:39:37.397088 10865 net.cpp:399] inception_4c/pool_proj -> inception_4c/pool_proj
I0403 15:39:37.398406 10865 net.cpp:141] Setting up inception_4c/pool_proj
I0403 15:39:37.398435 10865 net.cpp:148] Top shape: 24 64 14 14 (301056)
I0403 15:39:37.398468 10865 net.cpp:156] Memory required for data: 1061809440
I0403 15:39:37.398488 10865 layer_factory.hpp:77] Creating layer inception_4c/relu_pool_proj
I0403 15:39:37.398514 10865 net.cpp:91] Creating Layer inception_4c/relu_pool_proj
I0403 15:39:37.398532 10865 net.cpp:425] inception_4c/relu_pool_proj <- inception_4c/pool_proj
I0403 15:39:37.398552 10865 net.cpp:386] inception_4c/relu_pool_proj -> inception_4c/pool_proj (in-place)
I0403 15:39:37.398748 10865 net.cpp:141] Setting up inception_4c/relu_pool_proj
I0403 15:39:37.398775 10865 net.cpp:148] Top shape: 24 64 14 14 (301056)
I0403 15:39:37.398794 10865 net.cpp:156] Memory required for data: 1063013664
I0403 15:39:37.398811 10865 layer_factory.hpp:77] Creating layer inception_4c/output
I0403 15:39:37.398830 10865 net.cpp:91] Creating Layer inception_4c/output
I0403 15:39:37.398847 10865 net.cpp:425] inception_4c/output <- inception_4c/1x1
I0403 15:39:37.398864 10865 net.cpp:425] inception_4c/output <- inception_4c/3x3
I0403 15:39:37.398882 10865 net.cpp:425] inception_4c/output <- inception_4c/5x5
I0403 15:39:37.398900 10865 net.cpp:425] inception_4c/output <- inception_4c/pool_proj
I0403 15:39:37.398918 10865 net.cpp:399] inception_4c/output -> inception_4c/output
I0403 15:39:37.398974 10865 net.cpp:141] Setting up inception_4c/output
I0403 15:39:37.398999 10865 net.cpp:148] Top shape: 24 512 14 14 (2408448)
I0403 15:39:37.399015 10865 net.cpp:156] Memory required for data: 1072647456
I0403 15:39:37.399031 10865 layer_factory.hpp:77] Creating layer inception_4c/output_inception_4c/output_0_split
I0403 15:39:37.399050 10865 net.cpp:91] Creating Layer inception_4c/output_inception_4c/output_0_split
I0403 15:39:37.399067 10865 net.cpp:425] inception_4c/output_inception_4c/output_0_split <- inception_4c/output
I0403 15:39:37.399090 10865 net.cpp:399] inception_4c/output_inception_4c/output_0_split -> inception_4c/output_inception_4c/output_0_split_0
I0403 15:39:37.399112 10865 net.cpp:399] inception_4c/output_inception_4c/output_0_split -> inception_4c/output_inception_4c/output_0_split_1
I0403 15:39:37.399134 10865 net.cpp:399] inception_4c/output_inception_4c/output_0_split -> inception_4c/output_inception_4c/output_0_split_2
I0403 15:39:37.399155 10865 net.cpp:399] inception_4c/output_inception_4c/output_0_split -> inception_4c/output_inception_4c/output_0_split_3
I0403 15:39:37.399247 10865 net.cpp:141] Setting up inception_4c/output_inception_4c/output_0_split
I0403 15:39:37.399272 10865 net.cpp:148] Top shape: 24 512 14 14 (2408448)
I0403 15:39:37.399291 10865 net.cpp:148] Top shape: 24 512 14 14 (2408448)
I0403 15:39:37.399308 10865 net.cpp:148] Top shape: 24 512 14 14 (2408448)
I0403 15:39:37.399325 10865 net.cpp:148] Top shape: 24 512 14 14 (2408448)
I0403 15:39:37.399340 10865 net.cpp:156] Memory required for data: 1111182624
I0403 15:39:37.399356 10865 layer_factory.hpp:77] Creating layer inception_4d/1x1
I0403 15:39:37.399381 10865 net.cpp:91] Creating Layer inception_4d/1x1
I0403 15:39:37.399401 10865 net.cpp:425] inception_4d/1x1 <- inception_4c/output_inception_4c/output_0_split_0
I0403 15:39:37.399425 10865 net.cpp:399] inception_4d/1x1 -> inception_4d/1x1
I0403 15:39:37.400897 10865 net.cpp:141] Setting up inception_4d/1x1
I0403 15:39:37.400930 10865 net.cpp:148] Top shape: 24 112 14 14 (526848)
I0403 15:39:37.400950 10865 net.cpp:156] Memory required for data: 1113290016
I0403 15:39:37.400972 10865 layer_factory.hpp:77] Creating layer inception_4d/relu_1x1
I0403 15:39:37.400991 10865 net.cpp:91] Creating Layer inception_4d/relu_1x1
I0403 15:39:37.401010 10865 net.cpp:425] inception_4d/relu_1x1 <- inception_4d/1x1
I0403 15:39:37.401031 10865 net.cpp:386] inception_4d/relu_1x1 -> inception_4d/1x1 (in-place)
I0403 15:39:37.401229 10865 net.cpp:141] Setting up inception_4d/relu_1x1
I0403 15:39:37.401257 10865 net.cpp:148] Top shape: 24 112 14 14 (526848)
I0403 15:39:37.401273 10865 net.cpp:156] Memory required for data: 1115397408
I0403 15:39:37.401288 10865 layer_factory.hpp:77] Creating layer inception_4d/3x3_reduce
I0403 15:39:37.401327 10865 net.cpp:91] Creating Layer inception_4d/3x3_reduce
I0403 15:39:37.401348 10865 net.cpp:425] inception_4d/3x3_reduce <- inception_4c/output_inception_4c/output_0_split_1
I0403 15:39:37.401371 10865 net.cpp:399] inception_4d/3x3_reduce -> inception_4d/3x3_reduce
I0403 15:39:37.402987 10865 net.cpp:141] Setting up inception_4d/3x3_reduce
I0403 15:39:37.403017 10865 net.cpp:148] Top shape: 24 144 14 14 (677376)
I0403 15:39:37.403034 10865 net.cpp:156] Memory required for data: 1118106912
I0403 15:39:37.403054 10865 layer_factory.hpp:77] Creating layer inception_4d/relu_3x3_reduce
I0403 15:39:37.403076 10865 net.cpp:91] Creating Layer inception_4d/relu_3x3_reduce
I0403 15:39:37.403095 10865 net.cpp:425] inception_4d/relu_3x3_reduce <- inception_4d/3x3_reduce
I0403 15:39:37.403115 10865 net.cpp:386] inception_4d/relu_3x3_reduce -> inception_4d/3x3_reduce (in-place)
I0403 15:39:37.403424 10865 net.cpp:141] Setting up inception_4d/relu_3x3_reduce
I0403 15:39:37.403451 10865 net.cpp:148] Top shape: 24 144 14 14 (677376)
I0403 15:39:37.403467 10865 net.cpp:156] Memory required for data: 1120816416
I0403 15:39:37.403484 10865 layer_factory.hpp:77] Creating layer inception_4d/3x3
I0403 15:39:37.403511 10865 net.cpp:91] Creating Layer inception_4d/3x3
I0403 15:39:37.403530 10865 net.cpp:425] inception_4d/3x3 <- inception_4d/3x3_reduce
I0403 15:39:37.403551 10865 net.cpp:399] inception_4d/3x3 -> inception_4d/3x3
I0403 15:39:37.408115 10865 net.cpp:141] Setting up inception_4d/3x3
I0403 15:39:37.408149 10865 net.cpp:148] Top shape: 24 288 14 14 (1354752)
I0403 15:39:37.408166 10865 net.cpp:156] Memory required for data: 1126235424
I0403 15:39:37.408186 10865 layer_factory.hpp:77] Creating layer inception_4d/relu_3x3
I0403 15:39:37.408206 10865 net.cpp:91] Creating Layer inception_4d/relu_3x3
I0403 15:39:37.408223 10865 net.cpp:425] inception_4d/relu_3x3 <- inception_4d/3x3
I0403 15:39:37.408244 10865 net.cpp:386] inception_4d/relu_3x3 -> inception_4d/3x3 (in-place)
I0403 15:39:37.408437 10865 net.cpp:141] Setting up inception_4d/relu_3x3
I0403 15:39:37.408463 10865 net.cpp:148] Top shape: 24 288 14 14 (1354752)
I0403 15:39:37.408478 10865 net.cpp:156] Memory required for data: 1131654432
I0403 15:39:37.408493 10865 layer_factory.hpp:77] Creating layer inception_4d/5x5_reduce
I0403 15:39:37.408529 10865 net.cpp:91] Creating Layer inception_4d/5x5_reduce
I0403 15:39:37.408547 10865 net.cpp:425] inception_4d/5x5_reduce <- inception_4c/output_inception_4c/output_0_split_2
I0403 15:39:37.408568 10865 net.cpp:399] inception_4d/5x5_reduce -> inception_4d/5x5_reduce
I0403 15:39:37.409723 10865 net.cpp:141] Setting up inception_4d/5x5_reduce
I0403 15:39:37.409749 10865 net.cpp:148] Top shape: 24 32 14 14 (150528)
I0403 15:39:37.409766 10865 net.cpp:156] Memory required for data: 1132256544
I0403 15:39:37.409785 10865 layer_factory.hpp:77] Creating layer inception_4d/relu_5x5_reduce
I0403 15:39:37.409803 10865 net.cpp:91] Creating Layer inception_4d/relu_5x5_reduce
I0403 15:39:37.409819 10865 net.cpp:425] inception_4d/relu_5x5_reduce <- inception_4d/5x5_reduce
I0403 15:39:37.409839 10865 net.cpp:386] inception_4d/relu_5x5_reduce -> inception_4d/5x5_reduce (in-place)
I0403 15:39:37.410038 10865 net.cpp:141] Setting up inception_4d/relu_5x5_reduce
I0403 15:39:37.410063 10865 net.cpp:148] Top shape: 24 32 14 14 (150528)
I0403 15:39:37.410079 10865 net.cpp:156] Memory required for data: 1132858656
I0403 15:39:37.410094 10865 layer_factory.hpp:77] Creating layer inception_4d/5x5
I0403 15:39:37.410116 10865 net.cpp:91] Creating Layer inception_4d/5x5
I0403 15:39:37.410135 10865 net.cpp:425] inception_4d/5x5 <- inception_4d/5x5_reduce
I0403 15:39:37.410157 10865 net.cpp:399] inception_4d/5x5 -> inception_4d/5x5
I0403 15:39:37.411633 10865 net.cpp:141] Setting up inception_4d/5x5
I0403 15:39:37.411661 10865 net.cpp:148] Top shape: 24 64 14 14 (301056)
I0403 15:39:37.411677 10865 net.cpp:156] Memory required for data: 1134062880
I0403 15:39:37.411696 10865 layer_factory.hpp:77] Creating layer inception_4d/relu_5x5
I0403 15:39:37.411732 10865 net.cpp:91] Creating Layer inception_4d/relu_5x5
I0403 15:39:37.411751 10865 net.cpp:425] inception_4d/relu_5x5 <- inception_4d/5x5
I0403 15:39:37.411769 10865 net.cpp:386] inception_4d/relu_5x5 -> inception_4d/5x5 (in-place)
I0403 15:39:37.412077 10865 net.cpp:141] Setting up inception_4d/relu_5x5
I0403 15:39:37.412116 10865 net.cpp:148] Top shape: 24 64 14 14 (301056)
I0403 15:39:37.412132 10865 net.cpp:156] Memory required for data: 1135267104
I0403 15:39:37.412148 10865 layer_factory.hpp:77] Creating layer inception_4d/pool
I0403 15:39:37.412169 10865 net.cpp:91] Creating Layer inception_4d/pool
I0403 15:39:37.412188 10865 net.cpp:425] inception_4d/pool <- inception_4c/output_inception_4c/output_0_split_3
I0403 15:39:37.412207 10865 net.cpp:399] inception_4d/pool -> inception_4d/pool
I0403 15:39:37.412277 10865 net.cpp:141] Setting up inception_4d/pool
I0403 15:39:37.412302 10865 net.cpp:148] Top shape: 24 512 14 14 (2408448)
I0403 15:39:37.412317 10865 net.cpp:156] Memory required for data: 1144900896
I0403 15:39:37.412333 10865 layer_factory.hpp:77] Creating layer inception_4d/pool_proj
I0403 15:39:37.412358 10865 net.cpp:91] Creating Layer inception_4d/pool_proj
I0403 15:39:37.412376 10865 net.cpp:425] inception_4d/pool_proj <- inception_4d/pool
I0403 15:39:37.412398 10865 net.cpp:399] inception_4d/pool_proj -> inception_4d/pool_proj
I0403 15:39:37.414196 10865 net.cpp:141] Setting up inception_4d/pool_proj
I0403 15:39:37.414227 10865 net.cpp:148] Top shape: 24 64 14 14 (301056)
I0403 15:39:37.414243 10865 net.cpp:156] Memory required for data: 1146105120
I0403 15:39:37.414263 10865 layer_factory.hpp:77] Creating layer inception_4d/relu_pool_proj
I0403 15:39:37.414283 10865 net.cpp:91] Creating Layer inception_4d/relu_pool_proj
I0403 15:39:37.414299 10865 net.cpp:425] inception_4d/relu_pool_proj <- inception_4d/pool_proj
I0403 15:39:37.414319 10865 net.cpp:386] inception_4d/relu_pool_proj -> inception_4d/pool_proj (in-place)
I0403 15:39:37.414505 10865 net.cpp:141] Setting up inception_4d/relu_pool_proj
I0403 15:39:37.414530 10865 net.cpp:148] Top shape: 24 64 14 14 (301056)
I0403 15:39:37.414546 10865 net.cpp:156] Memory required for data: 1147309344
I0403 15:39:37.414561 10865 layer_factory.hpp:77] Creating layer inception_4d/output
I0403 15:39:37.414578 10865 net.cpp:91] Creating Layer inception_4d/output
I0403 15:39:37.414594 10865 net.cpp:425] inception_4d/output <- inception_4d/1x1
I0403 15:39:37.414611 10865 net.cpp:425] inception_4d/output <- inception_4d/3x3
I0403 15:39:37.414628 10865 net.cpp:425] inception_4d/output <- inception_4d/5x5
I0403 15:39:37.414644 10865 net.cpp:425] inception_4d/output <- inception_4d/pool_proj
I0403 15:39:37.414665 10865 net.cpp:399] inception_4d/output -> inception_4d/output
I0403 15:39:37.414716 10865 net.cpp:141] Setting up inception_4d/output
I0403 15:39:37.414739 10865 net.cpp:148] Top shape: 24 528 14 14 (2483712)
I0403 15:39:37.414754 10865 net.cpp:156] Memory required for data: 1157244192
I0403 15:39:37.414769 10865 layer_factory.hpp:77] Creating layer inception_4d/output_inception_4d/output_0_split
I0403 15:39:37.414788 10865 net.cpp:91] Creating Layer inception_4d/output_inception_4d/output_0_split
I0403 15:39:37.414804 10865 net.cpp:425] inception_4d/output_inception_4d/output_0_split <- inception_4d/output
I0403 15:39:37.414826 10865 net.cpp:399] inception_4d/output_inception_4d/output_0_split -> inception_4d/output_inception_4d/output_0_split_0
I0403 15:39:37.414849 10865 net.cpp:399] inception_4d/output_inception_4d/output_0_split -> inception_4d/output_inception_4d/output_0_split_1
I0403 15:39:37.414870 10865 net.cpp:399] inception_4d/output_inception_4d/output_0_split -> inception_4d/output_inception_4d/output_0_split_2
I0403 15:39:37.414891 10865 net.cpp:399] inception_4d/output_inception_4d/output_0_split -> inception_4d/output_inception_4d/output_0_split_3
I0403 15:39:37.414911 10865 net.cpp:399] inception_4d/output_inception_4d/output_0_split -> inception_4d/output_inception_4d/output_0_split_4
I0403 15:39:37.415020 10865 net.cpp:141] Setting up inception_4d/output_inception_4d/output_0_split
I0403 15:39:37.415058 10865 net.cpp:148] Top shape: 24 528 14 14 (2483712)
I0403 15:39:37.415076 10865 net.cpp:148] Top shape: 24 528 14 14 (2483712)
I0403 15:39:37.415092 10865 net.cpp:148] Top shape: 24 528 14 14 (2483712)
I0403 15:39:37.415108 10865 net.cpp:148] Top shape: 24 528 14 14 (2483712)
I0403 15:39:37.415125 10865 net.cpp:148] Top shape: 24 528 14 14 (2483712)
I0403 15:39:37.415139 10865 net.cpp:156] Memory required for data: 1206918432
I0403 15:39:37.415154 10865 layer_factory.hpp:77] Creating layer loss2/ave_pool
I0403 15:39:37.415174 10865 net.cpp:91] Creating Layer loss2/ave_pool
I0403 15:39:37.415189 10865 net.cpp:425] loss2/ave_pool <- inception_4d/output_inception_4d/output_0_split_0
I0403 15:39:37.415210 10865 net.cpp:399] loss2/ave_pool -> loss2/ave_pool
I0403 15:39:37.415523 10865 net.cpp:141] Setting up loss2/ave_pool
I0403 15:39:37.415549 10865 net.cpp:148] Top shape: 24 528 4 4 (202752)
I0403 15:39:37.415565 10865 net.cpp:156] Memory required for data: 1207729440
I0403 15:39:37.415580 10865 layer_factory.hpp:77] Creating layer loss2/conv
I0403 15:39:37.415602 10865 net.cpp:91] Creating Layer loss2/conv
I0403 15:39:37.415621 10865 net.cpp:425] loss2/conv <- loss2/ave_pool
I0403 15:39:37.415643 10865 net.cpp:399] loss2/conv -> loss2/conv
I0403 15:39:37.417554 10865 net.cpp:141] Setting up loss2/conv
I0403 15:39:37.417584 10865 net.cpp:148] Top shape: 24 128 4 4 (49152)
I0403 15:39:37.417601 10865 net.cpp:156] Memory required for data: 1207926048
I0403 15:39:37.417620 10865 layer_factory.hpp:77] Creating layer loss2/relu_conv
I0403 15:39:37.417641 10865 net.cpp:91] Creating Layer loss2/relu_conv
I0403 15:39:37.417659 10865 net.cpp:425] loss2/relu_conv <- loss2/conv
I0403 15:39:37.417677 10865 net.cpp:386] loss2/relu_conv -> loss2/conv (in-place)
I0403 15:39:37.417978 10865 net.cpp:141] Setting up loss2/relu_conv
I0403 15:39:37.418004 10865 net.cpp:148] Top shape: 24 128 4 4 (49152)
I0403 15:39:37.418020 10865 net.cpp:156] Memory required for data: 1208122656
I0403 15:39:37.418035 10865 layer_factory.hpp:77] Creating layer loss2/fc
I0403 15:39:37.418056 10865 net.cpp:91] Creating Layer loss2/fc
I0403 15:39:37.418076 10865 net.cpp:425] loss2/fc <- loss2/conv
I0403 15:39:37.418097 10865 net.cpp:399] loss2/fc -> loss2/fc
I0403 15:39:37.435948 10865 net.cpp:141] Setting up loss2/fc
I0403 15:39:37.435982 10865 net.cpp:148] Top shape: 24 1024 (24576)
I0403 15:39:37.435998 10865 net.cpp:156] Memory required for data: 1208220960
I0403 15:39:37.436017 10865 layer_factory.hpp:77] Creating layer loss2/relu_fc
I0403 15:39:37.436035 10865 net.cpp:91] Creating Layer loss2/relu_fc
I0403 15:39:37.436053 10865 net.cpp:425] loss2/relu_fc <- loss2/fc
I0403 15:39:37.436074 10865 net.cpp:386] loss2/relu_fc -> loss2/fc (in-place)
I0403 15:39:37.436379 10865 net.cpp:141] Setting up loss2/relu_fc
I0403 15:39:37.436405 10865 net.cpp:148] Top shape: 24 1024 (24576)
I0403 15:39:37.436421 10865 net.cpp:156] Memory required for data: 1208319264
I0403 15:39:37.436437 10865 layer_factory.hpp:77] Creating layer loss2/drop_fc
I0403 15:39:37.436455 10865 net.cpp:91] Creating Layer loss2/drop_fc
I0403 15:39:37.436472 10865 net.cpp:425] loss2/drop_fc <- loss2/fc
I0403 15:39:37.436496 10865 net.cpp:386] loss2/drop_fc -> loss2/fc (in-place)
I0403 15:39:37.436545 10865 net.cpp:141] Setting up loss2/drop_fc
I0403 15:39:37.436571 10865 net.cpp:148] Top shape: 24 1024 (24576)
I0403 15:39:37.436588 10865 net.cpp:156] Memory required for data: 1208417568
I0403 15:39:37.436604 10865 layer_factory.hpp:77] Creating layer loss2/classifier_plantvillage
I0403 15:39:37.436621 10865 net.cpp:91] Creating Layer loss2/classifier_plantvillage
I0403 15:39:37.436638 10865 net.cpp:425] loss2/classifier_plantvillage <- loss2/fc
I0403 15:39:37.436661 10865 net.cpp:399] loss2/classifier_plantvillage -> loss2/classifier_plantvillage
I0403 15:39:37.437070 10865 net.cpp:141] Setting up loss2/classifier_plantvillage
I0403 15:39:37.437095 10865 net.cpp:148] Top shape: 24 38 (912)
I0403 15:39:37.437126 10865 net.cpp:156] Memory required for data: 1208421216
I0403 15:39:37.437146 10865 layer_factory.hpp:77] Creating layer loss2/classifier_plantvillage_loss2/classifier_plantvillage_0_split
I0403 15:39:37.437167 10865 net.cpp:91] Creating Layer loss2/classifier_plantvillage_loss2/classifier_plantvillage_0_split
I0403 15:39:37.437186 10865 net.cpp:425] loss2/classifier_plantvillage_loss2/classifier_plantvillage_0_split <- loss2/classifier_plantvillage
I0403 15:39:37.437203 10865 net.cpp:399] loss2/classifier_plantvillage_loss2/classifier_plantvillage_0_split -> loss2/classifier_plantvillage_loss2/classifier_plantvillage_0_split_0
I0403 15:39:37.437224 10865 net.cpp:399] loss2/classifier_plantvillage_loss2/classifier_plantvillage_0_split -> loss2/classifier_plantvillage_loss2/classifier_plantvillage_0_split_1
I0403 15:39:37.437248 10865 net.cpp:399] loss2/classifier_plantvillage_loss2/classifier_plantvillage_0_split -> loss2/classifier_plantvillage_loss2/classifier_plantvillage_0_split_2
I0403 15:39:37.437325 10865 net.cpp:141] Setting up loss2/classifier_plantvillage_loss2/classifier_plantvillage_0_split
I0403 15:39:37.437350 10865 net.cpp:148] Top shape: 24 38 (912)
I0403 15:39:37.437366 10865 net.cpp:148] Top shape: 24 38 (912)
I0403 15:39:37.437382 10865 net.cpp:148] Top shape: 24 38 (912)
I0403 15:39:37.437397 10865 net.cpp:156] Memory required for data: 1208432160
I0403 15:39:37.437412 10865 layer_factory.hpp:77] Creating layer inception_4e/1x1
I0403 15:39:37.437433 10865 net.cpp:91] Creating Layer inception_4e/1x1
I0403 15:39:37.437453 10865 net.cpp:425] inception_4e/1x1 <- inception_4d/output_inception_4d/output_0_split_1
I0403 15:39:37.437472 10865 net.cpp:399] inception_4e/1x1 -> inception_4e/1x1
I0403 15:39:37.439301 10865 net.cpp:141] Setting up inception_4e/1x1
I0403 15:39:37.439329 10865 net.cpp:148] Top shape: 24 256 14 14 (1204224)
I0403 15:39:37.439347 10865 net.cpp:156] Memory required for data: 1213249056
I0403 15:39:37.439364 10865 layer_factory.hpp:77] Creating layer inception_4e/relu_1x1
I0403 15:39:37.439386 10865 net.cpp:91] Creating Layer inception_4e/relu_1x1
I0403 15:39:37.439404 10865 net.cpp:425] inception_4e/relu_1x1 <- inception_4e/1x1
I0403 15:39:37.439424 10865 net.cpp:386] inception_4e/relu_1x1 -> inception_4e/1x1 (in-place)
I0403 15:39:37.439718 10865 net.cpp:141] Setting up inception_4e/relu_1x1
I0403 15:39:37.439743 10865 net.cpp:148] Top shape: 24 256 14 14 (1204224)
I0403 15:39:37.439759 10865 net.cpp:156] Memory required for data: 1218065952
I0403 15:39:37.439775 10865 layer_factory.hpp:77] Creating layer inception_4e/3x3_reduce
I0403 15:39:37.439798 10865 net.cpp:91] Creating Layer inception_4e/3x3_reduce
I0403 15:39:37.439816 10865 net.cpp:425] inception_4e/3x3_reduce <- inception_4d/output_inception_4d/output_0_split_2
I0403 15:39:37.439837 10865 net.cpp:399] inception_4e/3x3_reduce -> inception_4e/3x3_reduce
I0403 15:39:37.441997 10865 net.cpp:141] Setting up inception_4e/3x3_reduce
I0403 15:39:37.442026 10865 net.cpp:148] Top shape: 24 160 14 14 (752640)
I0403 15:39:37.442044 10865 net.cpp:156] Memory required for data: 1221076512
I0403 15:39:37.442064 10865 layer_factory.hpp:77] Creating layer inception_4e/relu_3x3_reduce
I0403 15:39:37.442085 10865 net.cpp:91] Creating Layer inception_4e/relu_3x3_reduce
I0403 15:39:37.442106 10865 net.cpp:425] inception_4e/relu_3x3_reduce <- inception_4e/3x3_reduce
I0403 15:39:37.442123 10865 net.cpp:386] inception_4e/relu_3x3_reduce -> inception_4e/3x3_reduce (in-place)
I0403 15:39:37.442323 10865 net.cpp:141] Setting up inception_4e/relu_3x3_reduce
I0403 15:39:37.442350 10865 net.cpp:148] Top shape: 24 160 14 14 (752640)
I0403 15:39:37.442366 10865 net.cpp:156] Memory required for data: 1224087072
I0403 15:39:37.442383 10865 layer_factory.hpp:77] Creating layer inception_4e/3x3
I0403 15:39:37.442404 10865 net.cpp:91] Creating Layer inception_4e/3x3
I0403 15:39:37.442422 10865 net.cpp:425] inception_4e/3x3 <- inception_4e/3x3_reduce
I0403 15:39:37.442442 10865 net.cpp:399] inception_4e/3x3 -> inception_4e/3x3
I0403 15:39:37.447646 10865 net.cpp:141] Setting up inception_4e/3x3
I0403 15:39:37.447690 10865 net.cpp:148] Top shape: 24 320 14 14 (1505280)
I0403 15:39:37.447708 10865 net.cpp:156] Memory required for data: 1230108192
I0403 15:39:37.447728 10865 layer_factory.hpp:77] Creating layer inception_4e/relu_3x3
I0403 15:39:37.447747 10865 net.cpp:91] Creating Layer inception_4e/relu_3x3
I0403 15:39:37.447765 10865 net.cpp:425] inception_4e/relu_3x3 <- inception_4e/3x3
I0403 15:39:37.447783 10865 net.cpp:386] inception_4e/relu_3x3 -> inception_4e/3x3 (in-place)
I0403 15:39:37.448106 10865 net.cpp:141] Setting up inception_4e/relu_3x3
I0403 15:39:37.448132 10865 net.cpp:148] Top shape: 24 320 14 14 (1505280)
I0403 15:39:37.448148 10865 net.cpp:156] Memory required for data: 1236129312
I0403 15:39:37.448164 10865 layer_factory.hpp:77] Creating layer inception_4e/5x5_reduce
I0403 15:39:37.448189 10865 net.cpp:91] Creating Layer inception_4e/5x5_reduce
I0403 15:39:37.448210 10865 net.cpp:425] inception_4e/5x5_reduce <- inception_4d/output_inception_4d/output_0_split_3
I0403 15:39:37.448232 10865 net.cpp:399] inception_4e/5x5_reduce -> inception_4e/5x5_reduce
I0403 15:39:37.449333 10865 net.cpp:141] Setting up inception_4e/5x5_reduce
I0403 15:39:37.449362 10865 net.cpp:148] Top shape: 24 32 14 14 (150528)
I0403 15:39:37.449378 10865 net.cpp:156] Memory required for data: 1236731424
I0403 15:39:37.449398 10865 layer_factory.hpp:77] Creating layer inception_4e/relu_5x5_reduce
I0403 15:39:37.449419 10865 net.cpp:91] Creating Layer inception_4e/relu_5x5_reduce
I0403 15:39:37.449439 10865 net.cpp:425] inception_4e/relu_5x5_reduce <- inception_4e/5x5_reduce
I0403 15:39:37.449456 10865 net.cpp:386] inception_4e/relu_5x5_reduce -> inception_4e/5x5_reduce (in-place)
I0403 15:39:37.449765 10865 net.cpp:141] Setting up inception_4e/relu_5x5_reduce
I0403 15:39:37.449792 10865 net.cpp:148] Top shape: 24 32 14 14 (150528)
I0403 15:39:37.449808 10865 net.cpp:156] Memory required for data: 1237333536
I0403 15:39:37.449825 10865 layer_factory.hpp:77] Creating layer inception_4e/5x5
I0403 15:39:37.449865 10865 net.cpp:91] Creating Layer inception_4e/5x5
I0403 15:39:37.449885 10865 net.cpp:425] inception_4e/5x5 <- inception_4e/5x5_reduce
I0403 15:39:37.449906 10865 net.cpp:399] inception_4e/5x5 -> inception_4e/5x5
I0403 15:39:37.451856 10865 net.cpp:141] Setting up inception_4e/5x5
I0403 15:39:37.451886 10865 net.cpp:148] Top shape: 24 128 14 14 (602112)
I0403 15:39:37.451903 10865 net.cpp:156] Memory required for data: 1239741984
I0403 15:39:37.451925 10865 layer_factory.hpp:77] Creating layer inception_4e/relu_5x5
I0403 15:39:37.451951 10865 net.cpp:91] Creating Layer inception_4e/relu_5x5
I0403 15:39:37.451972 10865 net.cpp:425] inception_4e/relu_5x5 <- inception_4e/5x5
I0403 15:39:37.451992 10865 net.cpp:386] inception_4e/relu_5x5 -> inception_4e/5x5 (in-place)
I0403 15:39:37.452198 10865 net.cpp:141] Setting up inception_4e/relu_5x5
I0403 15:39:37.452224 10865 net.cpp:148] Top shape: 24 128 14 14 (602112)
I0403 15:39:37.452241 10865 net.cpp:156] Memory required for data: 1242150432
I0403 15:39:37.452257 10865 layer_factory.hpp:77] Creating layer inception_4e/pool
I0403 15:39:37.452280 10865 net.cpp:91] Creating Layer inception_4e/pool
I0403 15:39:37.452298 10865 net.cpp:425] inception_4e/pool <- inception_4d/output_inception_4d/output_0_split_4
I0403 15:39:37.452318 10865 net.cpp:399] inception_4e/pool -> inception_4e/pool
I0403 15:39:37.452395 10865 net.cpp:141] Setting up inception_4e/pool
I0403 15:39:37.452420 10865 net.cpp:148] Top shape: 24 528 14 14 (2483712)
I0403 15:39:37.452436 10865 net.cpp:156] Memory required for data: 1252085280
I0403 15:39:37.452453 10865 layer_factory.hpp:77] Creating layer inception_4e/pool_proj
I0403 15:39:37.452477 10865 net.cpp:91] Creating Layer inception_4e/pool_proj
I0403 15:39:37.452497 10865 net.cpp:425] inception_4e/pool_proj <- inception_4e/pool
I0403 15:39:37.452519 10865 net.cpp:399] inception_4e/pool_proj -> inception_4e/pool_proj
I0403 15:39:37.454128 10865 net.cpp:141] Setting up inception_4e/pool_proj
I0403 15:39:37.454169 10865 net.cpp:148] Top shape: 24 128 14 14 (602112)
I0403 15:39:37.454187 10865 net.cpp:156] Memory required for data: 1254493728
I0403 15:39:37.454207 10865 layer_factory.hpp:77] Creating layer inception_4e/relu_pool_proj
I0403 15:39:37.454227 10865 net.cpp:91] Creating Layer inception_4e/relu_pool_proj
I0403 15:39:37.454246 10865 net.cpp:425] inception_4e/relu_pool_proj <- inception_4e/pool_proj
I0403 15:39:37.454267 10865 net.cpp:386] inception_4e/relu_pool_proj -> inception_4e/pool_proj (in-place)
I0403 15:39:37.454576 10865 net.cpp:141] Setting up inception_4e/relu_pool_proj
I0403 15:39:37.454602 10865 net.cpp:148] Top shape: 24 128 14 14 (602112)
I0403 15:39:37.454619 10865 net.cpp:156] Memory required for data: 1256902176
I0403 15:39:37.454637 10865 layer_factory.hpp:77] Creating layer inception_4e/output
I0403 15:39:37.454656 10865 net.cpp:91] Creating Layer inception_4e/output
I0403 15:39:37.454674 10865 net.cpp:425] inception_4e/output <- inception_4e/1x1
I0403 15:39:37.454691 10865 net.cpp:425] inception_4e/output <- inception_4e/3x3
I0403 15:39:37.454710 10865 net.cpp:425] inception_4e/output <- inception_4e/5x5
I0403 15:39:37.454727 10865 net.cpp:425] inception_4e/output <- inception_4e/pool_proj
I0403 15:39:37.454748 10865 net.cpp:399] inception_4e/output -> inception_4e/output
I0403 15:39:37.454802 10865 net.cpp:141] Setting up inception_4e/output
I0403 15:39:37.454828 10865 net.cpp:148] Top shape: 24 832 14 14 (3913728)
I0403 15:39:37.454843 10865 net.cpp:156] Memory required for data: 1272557088
I0403 15:39:37.454859 10865 layer_factory.hpp:77] Creating layer pool4/3x3_s2
I0403 15:39:37.454881 10865 net.cpp:91] Creating Layer pool4/3x3_s2
I0403 15:39:37.454900 10865 net.cpp:425] pool4/3x3_s2 <- inception_4e/output
I0403 15:39:37.454923 10865 net.cpp:399] pool4/3x3_s2 -> pool4/3x3_s2
I0403 15:39:37.455003 10865 net.cpp:141] Setting up pool4/3x3_s2
I0403 15:39:37.455029 10865 net.cpp:148] Top shape: 24 832 7 7 (978432)
I0403 15:39:37.455044 10865 net.cpp:156] Memory required for data: 1276470816
I0403 15:39:37.455060 10865 layer_factory.hpp:77] Creating layer pool4/3x3_s2_pool4/3x3_s2_0_split
I0403 15:39:37.455081 10865 net.cpp:91] Creating Layer pool4/3x3_s2_pool4/3x3_s2_0_split
I0403 15:39:37.455099 10865 net.cpp:425] pool4/3x3_s2_pool4/3x3_s2_0_split <- pool4/3x3_s2
I0403 15:39:37.455118 10865 net.cpp:399] pool4/3x3_s2_pool4/3x3_s2_0_split -> pool4/3x3_s2_pool4/3x3_s2_0_split_0
I0403 15:39:37.455140 10865 net.cpp:399] pool4/3x3_s2_pool4/3x3_s2_0_split -> pool4/3x3_s2_pool4/3x3_s2_0_split_1
I0403 15:39:37.455162 10865 net.cpp:399] pool4/3x3_s2_pool4/3x3_s2_0_split -> pool4/3x3_s2_pool4/3x3_s2_0_split_2
I0403 15:39:37.455183 10865 net.cpp:399] pool4/3x3_s2_pool4/3x3_s2_0_split -> pool4/3x3_s2_pool4/3x3_s2_0_split_3
I0403 15:39:37.455282 10865 net.cpp:141] Setting up pool4/3x3_s2_pool4/3x3_s2_0_split
I0403 15:39:37.455307 10865 net.cpp:148] Top shape: 24 832 7 7 (978432)
I0403 15:39:37.455325 10865 net.cpp:148] Top shape: 24 832 7 7 (978432)
I0403 15:39:37.455343 10865 net.cpp:148] Top shape: 24 832 7 7 (978432)
I0403 15:39:37.455359 10865 net.cpp:148] Top shape: 24 832 7 7 (978432)
I0403 15:39:37.455375 10865 net.cpp:156] Memory required for data: 1292125728
I0403 15:39:37.455391 10865 layer_factory.hpp:77] Creating layer inception_5a/1x1
I0403 15:39:37.455415 10865 net.cpp:91] Creating Layer inception_5a/1x1
I0403 15:39:37.455435 10865 net.cpp:425] inception_5a/1x1 <- pool4/3x3_s2_pool4/3x3_s2_0_split_0
I0403 15:39:37.455457 10865 net.cpp:399] inception_5a/1x1 -> inception_5a/1x1
I0403 15:39:37.458528 10865 net.cpp:141] Setting up inception_5a/1x1
I0403 15:39:37.458559 10865 net.cpp:148] Top shape: 24 256 7 7 (301056)
I0403 15:39:37.458575 10865 net.cpp:156] Memory required for data: 1293329952
I0403 15:39:37.458596 10865 layer_factory.hpp:77] Creating layer inception_5a/relu_1x1
I0403 15:39:37.458618 10865 net.cpp:91] Creating Layer inception_5a/relu_1x1
I0403 15:39:37.458637 10865 net.cpp:425] inception_5a/relu_1x1 <- inception_5a/1x1
I0403 15:39:37.458657 10865 net.cpp:386] inception_5a/relu_1x1 -> inception_5a/1x1 (in-place)
I0403 15:39:37.458992 10865 net.cpp:141] Setting up inception_5a/relu_1x1
I0403 15:39:37.459020 10865 net.cpp:148] Top shape: 24 256 7 7 (301056)
I0403 15:39:37.459038 10865 net.cpp:156] Memory required for data: 1294534176
I0403 15:39:37.459054 10865 layer_factory.hpp:77] Creating layer inception_5a/3x3_reduce
I0403 15:39:37.459079 10865 net.cpp:91] Creating Layer inception_5a/3x3_reduce
I0403 15:39:37.459098 10865 net.cpp:425] inception_5a/3x3_reduce <- pool4/3x3_s2_pool4/3x3_s2_0_split_1
I0403 15:39:37.459121 10865 net.cpp:399] inception_5a/3x3_reduce -> inception_5a/3x3_reduce
I0403 15:39:37.461771 10865 net.cpp:141] Setting up inception_5a/3x3_reduce
I0403 15:39:37.461803 10865 net.cpp:148] Top shape: 24 160 7 7 (188160)
I0403 15:39:37.461822 10865 net.cpp:156] Memory required for data: 1295286816
I0403 15:39:37.461841 10865 layer_factory.hpp:77] Creating layer inception_5a/relu_3x3_reduce
I0403 15:39:37.461869 10865 net.cpp:91] Creating Layer inception_5a/relu_3x3_reduce
I0403 15:39:37.461887 10865 net.cpp:425] inception_5a/relu_3x3_reduce <- inception_5a/3x3_reduce
I0403 15:39:37.461908 10865 net.cpp:386] inception_5a/relu_3x3_reduce -> inception_5a/3x3_reduce (in-place)
I0403 15:39:37.462106 10865 net.cpp:141] Setting up inception_5a/relu_3x3_reduce
I0403 15:39:37.462132 10865 net.cpp:148] Top shape: 24 160 7 7 (188160)
I0403 15:39:37.462148 10865 net.cpp:156] Memory required for data: 1296039456
I0403 15:39:37.462164 10865 layer_factory.hpp:77] Creating layer inception_5a/3x3
I0403 15:39:37.462188 10865 net.cpp:91] Creating Layer inception_5a/3x3
I0403 15:39:37.462206 10865 net.cpp:425] inception_5a/3x3 <- inception_5a/3x3_reduce
I0403 15:39:37.462229 10865 net.cpp:399] inception_5a/3x3 -> inception_5a/3x3
I0403 15:39:37.467453 10865 net.cpp:141] Setting up inception_5a/3x3
I0403 15:39:37.467483 10865 net.cpp:148] Top shape: 24 320 7 7 (376320)
I0403 15:39:37.467499 10865 net.cpp:156] Memory required for data: 1297544736
I0403 15:39:37.467519 10865 layer_factory.hpp:77] Creating layer inception_5a/relu_3x3
I0403 15:39:37.467540 10865 net.cpp:91] Creating Layer inception_5a/relu_3x3
I0403 15:39:37.467558 10865 net.cpp:425] inception_5a/relu_3x3 <- inception_5a/3x3
I0403 15:39:37.467577 10865 net.cpp:386] inception_5a/relu_3x3 -> inception_5a/3x3 (in-place)
I0403 15:39:37.467885 10865 net.cpp:141] Setting up inception_5a/relu_3x3
I0403 15:39:37.467912 10865 net.cpp:148] Top shape: 24 320 7 7 (376320)
I0403 15:39:37.467929 10865 net.cpp:156] Memory required for data: 1299050016
I0403 15:39:37.467954 10865 layer_factory.hpp:77] Creating layer inception_5a/5x5_reduce
I0403 15:39:37.467983 10865 net.cpp:91] Creating Layer inception_5a/5x5_reduce
I0403 15:39:37.468001 10865 net.cpp:425] inception_5a/5x5_reduce <- pool4/3x3_s2_pool4/3x3_s2_0_split_2
I0403 15:39:37.468026 10865 net.cpp:399] inception_5a/5x5_reduce -> inception_5a/5x5_reduce
I0403 15:39:37.469280 10865 net.cpp:141] Setting up inception_5a/5x5_reduce
I0403 15:39:37.469310 10865 net.cpp:148] Top shape: 24 32 7 7 (37632)
I0403 15:39:37.469327 10865 net.cpp:156] Memory required for data: 1299200544
I0403 15:39:37.469347 10865 layer_factory.hpp:77] Creating layer inception_5a/relu_5x5_reduce
I0403 15:39:37.469367 10865 net.cpp:91] Creating Layer inception_5a/relu_5x5_reduce
I0403 15:39:37.469386 10865 net.cpp:425] inception_5a/relu_5x5_reduce <- inception_5a/5x5_reduce
I0403 15:39:37.469405 10865 net.cpp:386] inception_5a/relu_5x5_reduce -> inception_5a/5x5_reduce (in-place)
I0403 15:39:37.469715 10865 net.cpp:141] Setting up inception_5a/relu_5x5_reduce
I0403 15:39:37.469743 10865 net.cpp:148] Top shape: 24 32 7 7 (37632)
I0403 15:39:37.469759 10865 net.cpp:156] Memory required for data: 1299351072
I0403 15:39:37.469775 10865 layer_factory.hpp:77] Creating layer inception_5a/5x5
I0403 15:39:37.469799 10865 net.cpp:91] Creating Layer inception_5a/5x5
I0403 15:39:37.469818 10865 net.cpp:425] inception_5a/5x5 <- inception_5a/5x5_reduce
I0403 15:39:37.469844 10865 net.cpp:399] inception_5a/5x5 -> inception_5a/5x5
I0403 15:39:37.471632 10865 net.cpp:141] Setting up inception_5a/5x5
I0403 15:39:37.471673 10865 net.cpp:148] Top shape: 24 128 7 7 (150528)
I0403 15:39:37.471690 10865 net.cpp:156] Memory required for data: 1299953184
I0403 15:39:37.471709 10865 layer_factory.hpp:77] Creating layer inception_5a/relu_5x5
I0403 15:39:37.471731 10865 net.cpp:91] Creating Layer inception_5a/relu_5x5
I0403 15:39:37.471750 10865 net.cpp:425] inception_5a/relu_5x5 <- inception_5a/5x5
I0403 15:39:37.471768 10865 net.cpp:386] inception_5a/relu_5x5 -> inception_5a/5x5 (in-place)
I0403 15:39:37.471969 10865 net.cpp:141] Setting up inception_5a/relu_5x5
I0403 15:39:37.471995 10865 net.cpp:148] Top shape: 24 128 7 7 (150528)
I0403 15:39:37.472012 10865 net.cpp:156] Memory required for data: 1300555296
I0403 15:39:37.472028 10865 layer_factory.hpp:77] Creating layer inception_5a/pool
I0403 15:39:37.472048 10865 net.cpp:91] Creating Layer inception_5a/pool
I0403 15:39:37.472066 10865 net.cpp:425] inception_5a/pool <- pool4/3x3_s2_pool4/3x3_s2_0_split_3
I0403 15:39:37.472086 10865 net.cpp:399] inception_5a/pool -> inception_5a/pool
I0403 15:39:37.472162 10865 net.cpp:141] Setting up inception_5a/pool
I0403 15:39:37.472187 10865 net.cpp:148] Top shape: 24 832 7 7 (978432)
I0403 15:39:37.472203 10865 net.cpp:156] Memory required for data: 1304469024
I0403 15:39:37.472218 10865 layer_factory.hpp:77] Creating layer inception_5a/pool_proj
I0403 15:39:37.472241 10865 net.cpp:91] Creating Layer inception_5a/pool_proj
I0403 15:39:37.472260 10865 net.cpp:425] inception_5a/pool_proj <- inception_5a/pool
I0403 15:39:37.472283 10865 net.cpp:399] inception_5a/pool_proj -> inception_5a/pool_proj
I0403 15:39:37.474663 10865 net.cpp:141] Setting up inception_5a/pool_proj
I0403 15:39:37.474694 10865 net.cpp:148] Top shape: 24 128 7 7 (150528)
I0403 15:39:37.474710 10865 net.cpp:156] Memory required for data: 1305071136
I0403 15:39:37.474730 10865 layer_factory.hpp:77] Creating layer inception_5a/relu_pool_proj
I0403 15:39:37.474750 10865 net.cpp:91] Creating Layer inception_5a/relu_pool_proj
I0403 15:39:37.474767 10865 net.cpp:425] inception_5a/relu_pool_proj <- inception_5a/pool_proj
I0403 15:39:37.474788 10865 net.cpp:386] inception_5a/relu_pool_proj -> inception_5a/pool_proj (in-place)
I0403 15:39:37.475103 10865 net.cpp:141] Setting up inception_5a/relu_pool_proj
I0403 15:39:37.475131 10865 net.cpp:148] Top shape: 24 128 7 7 (150528)
I0403 15:39:37.475147 10865 net.cpp:156] Memory required for data: 1305673248
I0403 15:39:37.475162 10865 layer_factory.hpp:77] Creating layer inception_5a/output
I0403 15:39:37.475181 10865 net.cpp:91] Creating Layer inception_5a/output
I0403 15:39:37.475198 10865 net.cpp:425] inception_5a/output <- inception_5a/1x1
I0403 15:39:37.475216 10865 net.cpp:425] inception_5a/output <- inception_5a/3x3
I0403 15:39:37.475234 10865 net.cpp:425] inception_5a/output <- inception_5a/5x5
I0403 15:39:37.475251 10865 net.cpp:425] inception_5a/output <- inception_5a/pool_proj
I0403 15:39:37.475271 10865 net.cpp:399] inception_5a/output -> inception_5a/output
I0403 15:39:37.475323 10865 net.cpp:141] Setting up inception_5a/output
I0403 15:39:37.475352 10865 net.cpp:148] Top shape: 24 832 7 7 (978432)
I0403 15:39:37.475368 10865 net.cpp:156] Memory required for data: 1309586976
I0403 15:39:37.475383 10865 layer_factory.hpp:77] Creating layer inception_5a/output_inception_5a/output_0_split
I0403 15:39:37.475401 10865 net.cpp:91] Creating Layer inception_5a/output_inception_5a/output_0_split
I0403 15:39:37.475419 10865 net.cpp:425] inception_5a/output_inception_5a/output_0_split <- inception_5a/output
I0403 15:39:37.475436 10865 net.cpp:399] inception_5a/output_inception_5a/output_0_split -> inception_5a/output_inception_5a/output_0_split_0
I0403 15:39:37.475458 10865 net.cpp:399] inception_5a/output_inception_5a/output_0_split -> inception_5a/output_inception_5a/output_0_split_1
I0403 15:39:37.475481 10865 net.cpp:399] inception_5a/output_inception_5a/output_0_split -> inception_5a/output_inception_5a/output_0_split_2
I0403 15:39:37.475504 10865 net.cpp:399] inception_5a/output_inception_5a/output_0_split -> inception_5a/output_inception_5a/output_0_split_3
I0403 15:39:37.475623 10865 net.cpp:141] Setting up inception_5a/output_inception_5a/output_0_split
I0403 15:39:37.475648 10865 net.cpp:148] Top shape: 24 832 7 7 (978432)
I0403 15:39:37.475666 10865 net.cpp:148] Top shape: 24 832 7 7 (978432)
I0403 15:39:37.475682 10865 net.cpp:148] Top shape: 24 832 7 7 (978432)
I0403 15:39:37.475699 10865 net.cpp:148] Top shape: 24 832 7 7 (978432)
I0403 15:39:37.475714 10865 net.cpp:156] Memory required for data: 1325241888
I0403 15:39:37.475730 10865 layer_factory.hpp:77] Creating layer inception_5b/1x1
I0403 15:39:37.475754 10865 net.cpp:91] Creating Layer inception_5b/1x1
I0403 15:39:37.475772 10865 net.cpp:425] inception_5b/1x1 <- inception_5a/output_inception_5a/output_0_split_0
I0403 15:39:37.475795 10865 net.cpp:399] inception_5b/1x1 -> inception_5b/1x1
I0403 15:39:37.479645 10865 net.cpp:141] Setting up inception_5b/1x1
I0403 15:39:37.479676 10865 net.cpp:148] Top shape: 24 384 7 7 (451584)
I0403 15:39:37.479693 10865 net.cpp:156] Memory required for data: 1327048224
I0403 15:39:37.479712 10865 layer_factory.hpp:77] Creating layer inception_5b/relu_1x1
I0403 15:39:37.479732 10865 net.cpp:91] Creating Layer inception_5b/relu_1x1
I0403 15:39:37.479748 10865 net.cpp:425] inception_5b/relu_1x1 <- inception_5b/1x1
I0403 15:39:37.479769 10865 net.cpp:386] inception_5b/relu_1x1 -> inception_5b/1x1 (in-place)
I0403 15:39:37.480082 10865 net.cpp:141] Setting up inception_5b/relu_1x1
I0403 15:39:37.480110 10865 net.cpp:148] Top shape: 24 384 7 7 (451584)
I0403 15:39:37.480126 10865 net.cpp:156] Memory required for data: 1328854560
I0403 15:39:37.480142 10865 layer_factory.hpp:77] Creating layer inception_5b/3x3_reduce
I0403 15:39:37.480165 10865 net.cpp:91] Creating Layer inception_5b/3x3_reduce
I0403 15:39:37.480185 10865 net.cpp:425] inception_5b/3x3_reduce <- inception_5a/output_inception_5a/output_0_split_1
I0403 15:39:37.480204 10865 net.cpp:399] inception_5b/3x3_reduce -> inception_5b/3x3_reduce
I0403 15:39:37.482905 10865 net.cpp:141] Setting up inception_5b/3x3_reduce
I0403 15:39:37.482938 10865 net.cpp:148] Top shape: 24 192 7 7 (225792)
I0403 15:39:37.482959 10865 net.cpp:156] Memory required for data: 1329757728
I0403 15:39:37.482978 10865 layer_factory.hpp:77] Creating layer inception_5b/relu_3x3_reduce
I0403 15:39:37.482997 10865 net.cpp:91] Creating Layer inception_5b/relu_3x3_reduce
I0403 15:39:37.483014 10865 net.cpp:425] inception_5b/relu_3x3_reduce <- inception_5b/3x3_reduce
I0403 15:39:37.483034 10865 net.cpp:386] inception_5b/relu_3x3_reduce -> inception_5b/3x3_reduce (in-place)
I0403 15:39:37.483227 10865 net.cpp:141] Setting up inception_5b/relu_3x3_reduce
I0403 15:39:37.483253 10865 net.cpp:148] Top shape: 24 192 7 7 (225792)
I0403 15:39:37.483268 10865 net.cpp:156] Memory required for data: 1330660896
I0403 15:39:37.483283 10865 layer_factory.hpp:77] Creating layer inception_5b/3x3
I0403 15:39:37.483306 10865 net.cpp:91] Creating Layer inception_5b/3x3
I0403 15:39:37.483337 10865 net.cpp:425] inception_5b/3x3 <- inception_5b/3x3_reduce
I0403 15:39:37.483361 10865 net.cpp:399] inception_5b/3x3 -> inception_5b/3x3
I0403 15:39:37.490171 10865 net.cpp:141] Setting up inception_5b/3x3
I0403 15:39:37.490200 10865 net.cpp:148] Top shape: 24 384 7 7 (451584)
I0403 15:39:37.490216 10865 net.cpp:156] Memory required for data: 1332467232
I0403 15:39:37.490236 10865 layer_factory.hpp:77] Creating layer inception_5b/relu_3x3
I0403 15:39:37.490254 10865 net.cpp:91] Creating Layer inception_5b/relu_3x3
I0403 15:39:37.490272 10865 net.cpp:425] inception_5b/relu_3x3 <- inception_5b/3x3
I0403 15:39:37.490291 10865 net.cpp:386] inception_5b/relu_3x3 -> inception_5b/3x3 (in-place)
I0403 15:39:37.490591 10865 net.cpp:141] Setting up inception_5b/relu_3x3
I0403 15:39:37.490617 10865 net.cpp:148] Top shape: 24 384 7 7 (451584)
I0403 15:39:37.490633 10865 net.cpp:156] Memory required for data: 1334273568
I0403 15:39:37.490648 10865 layer_factory.hpp:77] Creating layer inception_5b/5x5_reduce
I0403 15:39:37.490690 10865 net.cpp:91] Creating Layer inception_5b/5x5_reduce
I0403 15:39:37.490710 10865 net.cpp:425] inception_5b/5x5_reduce <- inception_5a/output_inception_5a/output_0_split_2
I0403 15:39:37.490734 10865 net.cpp:399] inception_5b/5x5_reduce -> inception_5b/5x5_reduce
I0403 15:39:37.492028 10865 net.cpp:141] Setting up inception_5b/5x5_reduce
I0403 15:39:37.492056 10865 net.cpp:148] Top shape: 24 48 7 7 (56448)
I0403 15:39:37.492074 10865 net.cpp:156] Memory required for data: 1334499360
I0403 15:39:37.492092 10865 layer_factory.hpp:77] Creating layer inception_5b/relu_5x5_reduce
I0403 15:39:37.492111 10865 net.cpp:91] Creating Layer inception_5b/relu_5x5_reduce
I0403 15:39:37.492128 10865 net.cpp:425] inception_5b/relu_5x5_reduce <- inception_5b/5x5_reduce
I0403 15:39:37.492149 10865 net.cpp:386] inception_5b/relu_5x5_reduce -> inception_5b/5x5_reduce (in-place)
I0403 15:39:37.492527 10865 net.cpp:141] Setting up inception_5b/relu_5x5_reduce
I0403 15:39:37.492554 10865 net.cpp:148] Top shape: 24 48 7 7 (56448)
I0403 15:39:37.492569 10865 net.cpp:156] Memory required for data: 1334725152
I0403 15:39:37.492586 10865 layer_factory.hpp:77] Creating layer inception_5b/5x5
I0403 15:39:37.492607 10865 net.cpp:91] Creating Layer inception_5b/5x5
I0403 15:39:37.492624 10865 net.cpp:425] inception_5b/5x5 <- inception_5b/5x5_reduce
I0403 15:39:37.492645 10865 net.cpp:399] inception_5b/5x5 -> inception_5b/5x5
I0403 15:39:37.494746 10865 net.cpp:141] Setting up inception_5b/5x5
I0403 15:39:37.494774 10865 net.cpp:148] Top shape: 24 128 7 7 (150528)
I0403 15:39:37.494791 10865 net.cpp:156] Memory required for data: 1335327264
I0403 15:39:37.494809 10865 layer_factory.hpp:77] Creating layer inception_5b/relu_5x5
I0403 15:39:37.494830 10865 net.cpp:91] Creating Layer inception_5b/relu_5x5
I0403 15:39:37.494849 10865 net.cpp:425] inception_5b/relu_5x5 <- inception_5b/5x5
I0403 15:39:37.494868 10865 net.cpp:386] inception_5b/relu_5x5 -> inception_5b/5x5 (in-place)
I0403 15:39:37.495067 10865 net.cpp:141] Setting up inception_5b/relu_5x5
I0403 15:39:37.495095 10865 net.cpp:148] Top shape: 24 128 7 7 (150528)
I0403 15:39:37.495111 10865 net.cpp:156] Memory required for data: 1335929376
I0403 15:39:37.495126 10865 layer_factory.hpp:77] Creating layer inception_5b/pool
I0403 15:39:37.495144 10865 net.cpp:91] Creating Layer inception_5b/pool
I0403 15:39:37.495162 10865 net.cpp:425] inception_5b/pool <- inception_5a/output_inception_5a/output_0_split_3
I0403 15:39:37.495180 10865 net.cpp:399] inception_5b/pool -> inception_5b/pool
I0403 15:39:37.495256 10865 net.cpp:141] Setting up inception_5b/pool
I0403 15:39:37.495280 10865 net.cpp:148] Top shape: 24 832 7 7 (978432)
I0403 15:39:37.495296 10865 net.cpp:156] Memory required for data: 1339843104
I0403 15:39:37.495311 10865 layer_factory.hpp:77] Creating layer inception_5b/pool_proj
I0403 15:39:37.495332 10865 net.cpp:91] Creating Layer inception_5b/pool_proj
I0403 15:39:37.495352 10865 net.cpp:425] inception_5b/pool_proj <- inception_5b/pool
I0403 15:39:37.495373 10865 net.cpp:399] inception_5b/pool_proj -> inception_5b/pool_proj
I0403 15:39:37.497733 10865 net.cpp:141] Setting up inception_5b/pool_proj
I0403 15:39:37.497763 10865 net.cpp:148] Top shape: 24 128 7 7 (150528)
I0403 15:39:37.497781 10865 net.cpp:156] Memory required for data: 1340445216
I0403 15:39:37.497799 10865 layer_factory.hpp:77] Creating layer inception_5b/relu_pool_proj
I0403 15:39:37.497818 10865 net.cpp:91] Creating Layer inception_5b/relu_pool_proj
I0403 15:39:37.497838 10865 net.cpp:425] inception_5b/relu_pool_proj <- inception_5b/pool_proj
I0403 15:39:37.497858 10865 net.cpp:386] inception_5b/relu_pool_proj -> inception_5b/pool_proj (in-place)
I0403 15:39:37.498178 10865 net.cpp:141] Setting up inception_5b/relu_pool_proj
I0403 15:39:37.498204 10865 net.cpp:148] Top shape: 24 128 7 7 (150528)
I0403 15:39:37.498220 10865 net.cpp:156] Memory required for data: 1341047328
I0403 15:39:37.498235 10865 layer_factory.hpp:77] Creating layer inception_5b/output
I0403 15:39:37.498255 10865 net.cpp:91] Creating Layer inception_5b/output
I0403 15:39:37.498286 10865 net.cpp:425] inception_5b/output <- inception_5b/1x1
I0403 15:39:37.498306 10865 net.cpp:425] inception_5b/output <- inception_5b/3x3
I0403 15:39:37.498323 10865 net.cpp:425] inception_5b/output <- inception_5b/5x5
I0403 15:39:37.498339 10865 net.cpp:425] inception_5b/output <- inception_5b/pool_proj
I0403 15:39:37.498360 10865 net.cpp:399] inception_5b/output -> inception_5b/output
I0403 15:39:37.498412 10865 net.cpp:141] Setting up inception_5b/output
I0403 15:39:37.498438 10865 net.cpp:148] Top shape: 24 1024 7 7 (1204224)
I0403 15:39:37.498456 10865 net.cpp:156] Memory required for data: 1345864224
I0403 15:39:37.498471 10865 layer_factory.hpp:77] Creating layer pool5/7x7_s1
I0403 15:39:37.498488 10865 net.cpp:91] Creating Layer pool5/7x7_s1
I0403 15:39:37.498505 10865 net.cpp:425] pool5/7x7_s1 <- inception_5b/output
I0403 15:39:37.498528 10865 net.cpp:399] pool5/7x7_s1 -> pool5/7x7_s1
I0403 15:39:37.498762 10865 net.cpp:141] Setting up pool5/7x7_s1
I0403 15:39:37.498788 10865 net.cpp:148] Top shape: 24 1024 1 1 (24576)
I0403 15:39:37.498805 10865 net.cpp:156] Memory required for data: 1345962528
I0403 15:39:37.498821 10865 layer_factory.hpp:77] Creating layer pool5/drop_7x7_s1
I0403 15:39:37.498839 10865 net.cpp:91] Creating Layer pool5/drop_7x7_s1
I0403 15:39:37.498872 10865 net.cpp:425] pool5/drop_7x7_s1 <- pool5/7x7_s1
I0403 15:39:37.498890 10865 net.cpp:386] pool5/drop_7x7_s1 -> pool5/7x7_s1 (in-place)
I0403 15:39:37.498941 10865 net.cpp:141] Setting up pool5/drop_7x7_s1
I0403 15:39:37.498986 10865 net.cpp:148] Top shape: 24 1024 1 1 (24576)
I0403 15:39:37.499011 10865 net.cpp:156] Memory required for data: 1346060832
I0403 15:39:37.499027 10865 layer_factory.hpp:77] Creating layer loss3/classifier_plantvillage
I0403 15:39:37.499047 10865 net.cpp:91] Creating Layer loss3/classifier_plantvillage
I0403 15:39:37.499064 10865 net.cpp:425] loss3/classifier_plantvillage <- pool5/7x7_s1
I0403 15:39:37.499088 10865 net.cpp:399] loss3/classifier_plantvillage -> loss3/classifier_plantvillage
I0403 15:39:37.499529 10865 net.cpp:141] Setting up loss3/classifier_plantvillage
I0403 15:39:37.499557 10865 net.cpp:148] Top shape: 24 38 (912)
I0403 15:39:37.499573 10865 net.cpp:156] Memory required for data: 1346064480
I0403 15:39:37.499593 10865 layer_factory.hpp:77] Creating layer loss3/classifier_plantvillage_loss3/classifier_plantvillage_0_split
I0403 15:39:37.499613 10865 net.cpp:91] Creating Layer loss3/classifier_plantvillage_loss3/classifier_plantvillage_0_split
I0403 15:39:37.499629 10865 net.cpp:425] loss3/classifier_plantvillage_loss3/classifier_plantvillage_0_split <- loss3/classifier_plantvillage
I0403 15:39:37.499649 10865 net.cpp:399] loss3/classifier_plantvillage_loss3/classifier_plantvillage_0_split -> loss3/classifier_plantvillage_loss3/classifier_plantvillage_0_split_0
I0403 15:39:37.499670 10865 net.cpp:399] loss3/classifier_plantvillage_loss3/classifier_plantvillage_0_split -> loss3/classifier_plantvillage_loss3/classifier_plantvillage_0_split_1
I0403 15:39:37.499694 10865 net.cpp:399] loss3/classifier_plantvillage_loss3/classifier_plantvillage_0_split -> loss3/classifier_plantvillage_loss3/classifier_plantvillage_0_split_2
I0403 15:39:37.499716 10865 net.cpp:399] loss3/classifier_plantvillage_loss3/classifier_plantvillage_0_split -> loss3/classifier_plantvillage_loss3/classifier_plantvillage_0_split_3
I0403 15:39:37.499824 10865 net.cpp:141] Setting up loss3/classifier_plantvillage_loss3/classifier_plantvillage_0_split
I0403 15:39:37.499847 10865 net.cpp:148] Top shape: 24 38 (912)
I0403 15:39:37.499866 10865 net.cpp:148] Top shape: 24 38 (912)
I0403 15:39:37.499881 10865 net.cpp:148] Top shape: 24 38 (912)
I0403 15:39:37.499898 10865 net.cpp:148] Top shape: 24 38 (912)
I0403 15:39:37.499912 10865 net.cpp:156] Memory required for data: 1346079072
I0403 15:39:37.499929 10865 layer_factory.hpp:77] Creating layer loss1/loss
I0403 15:39:37.499958 10865 net.cpp:91] Creating Layer loss1/loss
I0403 15:39:37.499979 10865 net.cpp:425] loss1/loss <- loss1/classifier_plantvillage_loss1/classifier_plantvillage_0_split_0
I0403 15:39:37.500011 10865 net.cpp:425] loss1/loss <- label_data_1_split_0
…
