…
I0403 15:55:31.196027 11802 net.cpp:313] The NetState phase (1) differed from the phase (0) specified by a rule in layer data
I0403 15:55:31.197248 11802 net.cpp:49] Initializing net from parameters: 
state {
  phase: TEST
}
layer {
  name: "data"
  type: "Data"
  top: "data"
  top: "label"
  include {
    phase: TEST
  }
  transform_param {
    mirror: false
    crop_size: 224
    mean_file: "/home/mohanty/data/final_dataset/lmdb/segmented-80-20/mean.binaryproto"
  }
  data_param {
    source: "/home/mohanty/data/final_dataset/lmdb/segmented-80-20/test_db"
    batch_size: 24
    backend: LMDB
  }
}
layer {
  name: "conv1/7x7_s2"
  type: "Convolution"
  bottom: "data"
  top: "conv1/7x7_s2"
  param {
    lr_mult: 1
    decay_mult: 1
  }
  param {
    lr_mult: 2
    decay_mult: 0
  }
  convolution_param {
    num_output: 64
    pad: 3
    kernel_size: 7
    stride: 2
    weight_filler {
      type: "xavier"
      std: 0.1
    }
    bias_filler {
      type: "constant"
      value: 0.2
    }
  }
}
layer {
  name: "conv1/relu_7x7"
  type: "ReLU"
  bottom: "conv1/7x7_s2"
  top: "conv1/7x7_s2"
}
layer {
  name: "pool1/3x3_s2"
  type: "Pooling"
  bottom: "conv1/7x7_s2"
  top: "pool1/3x3_s2"
  pooling_param {
    pool: MAX
    kernel_size: 3
    stride: 2
  }
}
layer {
  name: "pool1/norm1"
  type: "LRN"
  bottom: "pool1/3x3_s2"
  top: "pool1/norm1"
  lrn_param {
    local_size: 5
    alpha: 0.0001
    beta: 0.75
  }
}
layer {
  name: "conv2/3x3_reduce"
  type: "Convolution"
  bottom: "pool1/norm1"
  top: "conv2/3x3_reduce"
  param {
    lr_mult: 1
    decay_mult: 1
  }
  param {
    lr_mult: 2
    decay_mult: 0
  }
  convolution_param {
    num_output: 64
    kernel_size: 1
    weight_filler {
      type: "xavier"
      std: 0.1
    }
    bias_filler {
      type: "constant"
      value: 0.2
    }
  }
}
layer {
  name: "conv2/relu_3x3_reduce"
  type: "ReLU"
  bottom: "conv2/3x3_reduce"
  top: "conv2/3x3_reduce"
}
layer {
  name: "conv2/3x3"
  type: "Convolution"
  bottom: "conv2/3x3_reduce"
  top: "conv2/3x3"
  param {
    lr_mult: 1
    decay_mult: 1
  }
  param {
    lr_mult: 2
    decay_mult: 0
  }
  convolution_param {
    num_output: 192
    pad: 1
    kernel_size: 3
    weight_filler {
      type: "xavier"
      std: 0.03
    }
    bias_filler {
      type: "constant"
      value: 0.2
    }
  }
}
layer {
  name: "conv2/relu_3x3"
  type: "ReLU"
  bottom: "conv2/3x3"
  top: "conv2/3x3"
}
layer {
  name: "conv2/norm2"
  type: "LRN"
  bottom: "conv2/3x3"
  top: "conv2/norm2"
  lrn_param {
    local_size: 5
    alpha: 0.0001
    beta: 0.75
  }
}
layer {
  name: "pool2/3x3_s2"
  type: "Pooling"
  bottom: "conv2/norm2"
  top: "pool2/3x3_s2"
  pooling_param {
    pool: MAX
    kernel_size: 3
    stride: 2
  }
}
layer {
  name: "inception_3a/1x1"
  type: "Convolution"
  bottom: "pool2/3x3_s2"
  top: "inception_3a/1x1"
  param {
    lr_mult: 1
    decay_mult: 1
  }
  param {
    lr_mult: 2
    decay_mult: 0
  }
  convolution_param {
    num_output: 64
    kernel_size: 1
    weight_filler {
      type: "xavier"
      std: 0.03
    }
    bias_filler {
      type: "constant"
      value: 0.2
    }
  }
}
layer {
  name: "inception_3a/relu_1x1"
  type: "ReLU"
  bottom: "inception_3a/1x1"
  top: "inception_3a/1x1"
}
layer {
  name: "inception_3a/3x3_reduce"
  type: "Convolution"
  bottom: "pool2/3x3_s2"
  top: "inception_3a/3x3_reduce"
  param {
    lr_mult: 1
    decay_mult: 1
  }
  param {
    lr_mult: 2
    decay_mult: 0
  }
  convolution_param {
    num_output: 96
    kernel_size: 1
    weight_filler {
      type: "xavier"
      std: 0.09
    }
    bias_filler {
      type: "constant"
      value: 0.2
    }
  }
}
layer {
  name: "inception_3a/relu_3x3_reduce"
  type: "ReLU"
  bottom: "inception_3a/3x3_reduce"
  top: "inception_3a/3x3_reduce"
}
layer {
  name: "inception_3a/3x3"
  type: "Convolution"
  bottom: "inception_3a/3x3_reduce"
  top: "inception_3a/3x3"
  param {
    lr_mult: 1
    decay_mult: 1
  }
  param {
    lr_mult: 2
    decay_mult: 0
  }
  convolution_param {
    num_output: 128
    pad: 1
    kernel_size: 3
    weight_filler {
      type: "xavier"
      std: 0.03
    }
    bias_filler {
      type: "constant"
      value: 0.2
    }
  }
}
layer {
  name: "inception_3a/relu_3x3"
  type: "ReLU"
  bottom: "inception_3a/3x3"
  top: "inception_3a/3x3"
}
layer {
  name: "inception_3a/5x5_reduce"
  type: "Convolution"
  bottom: "pool2/3x3_s2"
  top: "inception_3a/5x5_reduce"
  param {
    lr_mult: 1
    decay_mult: 1
  }
  param {
    lr_mult: 2
    decay_mult: 0
  }
  convolution_param {
    num_output: 16
    kernel_size: 1
    weight_filler {
      type: "xavier"
      std: 0.2
    }
    bias_filler {
      type: "constant"
      value: 0.2
    }
  }
}
layer {
  name: "inception_3a/relu_5x5_reduce"
  type: "ReLU"
  bottom: "inception_3a/5x5_reduce"
  top: "inception_3a/5x5_reduce"
}
layer {
  name: "inception_3a/5x5"
  type: "Convolution"
  bottom: "inception_3a/5x5_reduce"
  top: "inception_3a/5x5"
  param {
    lr_mult: 1
    decay_mult: 1
  }
  param {
    lr_mult: 2
    decay_mult: 0
  }
  convolution_param {
    num_output: 32
    pad: 2
    kernel_size: 5
    weight_filler {
      type: "xavier"
      std: 0.03
    }
    bias_filler {
      type: "constant"
      value: 0.2
    }
  }
}
layer {
  name: "inception_3a/relu_5x5"
  type: "ReLU"
  bottom: "inception_3a/5x5"
  top: "inception_3a/5x5"
}
layer {
  name: "inception_3a/pool"
  type: "Pooling"
  bottom: "pool2/3x3_s2"
  top: "inception_3a/pool"
  pooling_param {
    pool: MAX
    kernel_size: 3
    stride: 1
    pad: 1
  }
}
layer {
  name: "inception_3a/pool_proj"
  type: "Convolution"
  bottom: "inception_3a/pool"
  top: "inception_3a/pool_proj"
  param {
    lr_mult: 1
    decay_mult: 1
  }
  param {
    lr_mult: 2
    decay_mult: 0
  }
  convolution_param {
    num_output: 32
    kernel_size: 1
    weight_filler {
      type: "xavier"
      std: 0.1
    }
    bias_filler {
      type: "constant"
      value: 0.2
    }
  }
}
layer {
  name: "inception_3a/relu_pool_proj"
  type: "ReLU"
  bottom: "inception_3a/pool_proj"
  top: "inception_3a/pool_proj"
}
layer {
  name: "inception_3a/output"
  type: "Concat"
  bottom: "inception_3a/1x1"
  bottom: "inception_3a/3x3"
  bottom: "inception_3a/5x5"
  bottom: "inception_3a/pool_proj"
  top: "inception_3a/output"
}
layer {
  name: "inception_3b/1x1"
  type: "Convolution"
  bottom: "inception_3a/output"
  top: "inception_3b/1x1"
  param {
    lr_mult: 1
    decay_mult: 1
  }
  param {
    lr_mult: 2
    decay_mult: 0
  }
  convolution_param {
    num_output: 128
    kernel_size: 1
    weight_filler {
      type: "xavier"
      std: 0.03
    }
    bias_filler {
      type: "constant"
      value: 0.2
    }
  }
}
layer {
  name: "inception_3b/relu_1x1"
  type: "ReLU"
  bottom: "inception_3b/1x1"
  top: "inception_3b/1x1"
}
layer {
  name: "inception_3b/3x3_reduce"
  type: "Convolution"
  bottom: "inception_3a/output"
  top: "inception_3b/3x3_reduce"
  param {
    lr_mult: 1
    decay_mult: 1
  }
  param {
    lr_mult: 2
    decay_mult: 0
  }
  convolution_param {
    num_output: 128
    kernel_size: 1
    weight_filler {
      type: "xavier"
      std: 0.09
    }
    bias_filler {
      type: "constant"
      value: 0.2
    }
  }
}
layer {
  name: "inception_3b/relu_3x3_reduce"
  type: "ReLU"
  bottom: "inception_3b/3x3_reduce"
  top: "inception_3b/3x3_reduce"
}
layer {
  name: "inception_3b/3x3"
  type: "Convolution"
  bottom: "inception_3b/3x3_reduce"
  top: "inception_3b/3x3"
  param {
    lr_mult: 1
    decay_mult: 1
  }
  param {
    lr_mult: 2
    decay_mult: 0
  }
  convolution_param {
    num_output: 192
    pad: 1
    kernel_size: 3
    weight_filler {
      type: "xavier"
      std: 0.03
    }
    bias_filler {
      type: "constant"
      value: 0.2
    }
  }
}
layer {
  name: "inception_3b/relu_3x3"
  type: "ReLU"
  bottom: "inception_3b/3x3"
  top: "inception_3b/3x3"
}
layer {
  name: "inception_3b/5x5_reduce"
  type: "Convolution"
  bottom: "inception_3a/output"
  top: "inception_3b/5x5_reduce"
  param {
    lr_mult: 1
    decay_mult: 1
  }
  param {
    lr_mult: 2
    decay_mult: 0
  }
  convolution_param {
    num_output: 32
    kernel_size: 1
    weight_filler {
      type: "xavier"
      std: 0.2
    }
    bias_filler {
      type: "constant"
      value: 0.2
    }
  }
}
layer {
  name: "inception_3b/relu_5x5_reduce"
  type: "ReLU"
  bottom: "inception_3b/5x5_reduce"
  top: "inception_3b/5x5_reduce"
}
layer {
  name: "inception_3b/5x5"
  type: "Convolution"
  bottom: "inception_3b/5x5_reduce"
  top: "inception_3b/5x5"
  param {
    lr_mult: 1
    decay_mult: 1
  }
  param {
    lr_mult: 2
    decay_mult: 0
  }
  convolution_param {
    num_output: 96
    pad: 2
    kernel_size: 5
    weight_filler {
      type: "xavier"
      std: 0.03
    }
    bias_filler {
      type: "constant"
      value: 0.2
    }
  }
}
layer {
  name: "inception_3b/relu_5x5"
  type: "ReLU"
  bottom: "inception_3b/5x5"
  top: "inception_3b/5x5"
}
layer {
  name: "inception_3b/pool"
  type: "Pooling"
  bottom: "inception_3a/output"
  top: "inception_3b/pool"
  pooling_param {
    pool: MAX
    kernel_size: 3
    stride: 1
    pad: 1
  }
}
layer {
  name: "inception_3b/pool_proj"
  type: "Convolution"
  bottom: "inception_3b/pool"
  top: "inception_3b/pool_proj"
  param {
    lr_mult: 1
    decay_mult: 1
  }
  param {
    lr_mult: 2
    decay_mult: 0
  }
  convolution_param {
    num_output: 64
    kernel_size: 1
    weight_filler {
      type: "xavier"
      std: 0.1
    }
    bias_filler {
      type: "constant"
      value: 0.2
    }
  }
}
layer {
  name: "inception_3b/relu_pool_proj"
  type: "ReLU"
  bottom: "inception_3b/pool_proj"
  top: "inception_3b/pool_proj"
}
layer {
  name: "inception_3b/output"
  type: "Concat"
  bottom: "inception_3b/1x1"
  bottom: "inception_3b/3x3"
  bottom: "inception_3b/5x5"
  bottom: "inception_3b/pool_proj"
  top: "inception_3b/output"
}
layer {
  name: "pool3/3x3_s2"
  type: "Pooling"
  bottom: "inception_3b/output"
  top: "pool3/3x3_s2"
  pooling_param {
    pool: MAX
    kernel_size: 3
    stride: 2
  }
}
layer {
  name: "inception_4a/1x1"
  type: "Convolution"
  bottom: "pool3/3x3_s2"
  top: "inception_4a/1x1"
  param {
    lr_mult: 1
    decay_mult: 1
  }
  param {
    lr_mult: 2
    decay_mult: 0
  }
  convolution_param {
    num_output: 192
    kernel_size: 1
    weight_filler {
      type: "xavier"
      std: 0.03
    }
    bias_filler {
      type: "constant"
      value: 0.2
    }
  }
}
layer {
  name: "inception_4a/relu_1x1"
  type: "ReLU"
  bottom: "inception_4a/1x1"
  top: "inception_4a/1x1"
}
layer {
  name: "inception_4a/3x3_reduce"
  type: "Convolution"
  bottom: "pool3/3x3_s2"
  top: "inception_4a/3x3_reduce"
  param {
    lr_mult: 1
    decay_mult: 1
  }
  param {
    lr_mult: 2
    decay_mult: 0
  }
  convolution_param {
    num_output: 96
    kernel_size: 1
    weight_filler {
      type: "xavier"
      std: 0.09
    }
    bias_filler {
      type: "constant"
      value: 0.2
    }
  }
}
layer {
  name: "inception_4a/relu_3x3_reduce"
  type: "ReLU"
  bottom: "inception_4a/3x3_reduce"
  top: "inception_4a/3x3_reduce"
}
layer {
  name: "inception_4a/3x3"
  type: "Convolution"
  bottom: "inception_4a/3x3_reduce"
  top: "inception_4a/3x3"
  param {
    lr_mult: 1
    decay_mult: 1
  }
  param {
    lr_mult: 2
    decay_mult: 0
  }
  convolution_param {
    num_output: 208
    pad: 1
    kernel_size: 3
    weight_filler {
      type: "xavier"
      std: 0.03
    }
    bias_filler {
      type: "constant"
      value: 0.2
    }
  }
}
layer {
  name: "inception_4a/relu_3x3"
  type: "ReLU"
  bottom: "inception_4a/3x3"
  top: "inception_4a/3x3"
}
layer {
  name: "inception_4a/5x5_reduce"
  type: "Convolution"
  bottom: "pool3/3x3_s2"
  top: "inception_4a/5x5_reduce"
  param {
    lr_mult: 1
    decay_mult: 1
  }
  param {
    lr_mult: 2
    decay_mult: 0
  }
  convolution_param {
    num_output: 16
    kernel_size: 1
    weight_filler {
      type: "xavier"
      std: 0.2
    }
    bias_filler {
      type: "constant"
      value: 0.2
    }
  }
}
layer {
  name: "inception_4a/relu_5x5_reduce"
  type: "ReLU"
  bottom: "inception_4a/5x5_reduce"
  top: "inception_4a/5x5_reduce"
}
layer {
  name: "inception_4a/5x5"
  type: "Convolution"
  bottom: "inception_4a/5x5_reduce"
  top: "inception_4a/5x5"
  param {
    lr_mult: 1
    decay_mult: 1
  }
  param {
    lr_mult: 2
    decay_mult: 0
  }
  convolution_param {
    num_output: 48
    pad: 2
    kernel_size: 5
    weight_filler {
      type: "xavier"
      std: 0.03
    }
    bias_filler {
      type: "constant"
      value: 0.2
    }
  }
}
layer {
  name: "inception_4a/relu_5x5"
  type: "ReLU"
  bottom: "inception_4a/5x5"
  top: "inception_4a/5x5"
}
layer {
  name: "inception_4a/pool"
  type: "Pooling"
  bottom: "pool3/3x3_s2"
  top: "inception_4a/pool"
  pooling_param {
    pool: MAX
    kernel_size: 3
    stride: 1
    pad: 1
  }
}
layer {
  name: "inception_4a/pool_proj"
  type: "Convolution"
  bottom: "inception_4a/pool"
  top: "inception_4a/pool_proj"
  param {
    lr_mult: 1
    decay_mult: 1
  }
  param {
    lr_mult: 2
    decay_mult: 0
  }
  convolution_param {
    num_output: 64
    kernel_size: 1
    weight_filler {
      type: "xavier"
      std: 0.1
    }
    bias_filler {
      type: "constant"
      value: 0.2
    }
  }
}
layer {
  name: "inception_4a/relu_pool_proj"
  type: "ReLU"
  bottom: "inception_4a/pool_proj"
  top: "inception_4a/pool_proj"
}
layer {
  name: "inception_4a/output"
  type: "Concat"
  bottom: "inception_4a/1x1"
  bottom: "inception_4a/3x3"
  bottom: "inception_4a/5x5"
  bottom: "inception_4a/pool_proj"
  top: "inception_4a/output"
}
layer {
  name: "loss1/ave_pool"
  type: "Pooling"
  bottom: "inception_4a/output"
  top: "loss1/ave_pool"
  pooling_param {
    pool: AVE
    kernel_size: 5
    stride: 3
  }
}
layer {
  name: "loss1/conv"
  type: "Convolution"
  bottom: "loss1/ave_pool"
  top: "loss1/conv"
  param {
    lr_mult: 1
    decay_mult: 1
  }
  param {
    lr_mult: 2
    decay_mult: 0
  }
  convolution_param {
    num_output: 128
    kernel_size: 1
    weight_filler {
      type: "xavier"
      std: 0.08
    }
    bias_filler {
      type: "constant"
      value: 0.2
    }
  }
}
layer {
  name: "loss1/relu_conv"
  type: "ReLU"
  bottom: "loss1/conv"
  top: "loss1/conv"
}
layer {
  name: "loss1/fc"
  type: "InnerProduct"
  bottom: "loss1/conv"
  top: "loss1/fc"
  param {
    lr_mult: 1
    decay_mult: 1
  }
  param {
    lr_mult: 2
    decay_mult: 0
  }
  inner_product_param {
    num_output: 1024
    weight_filler {
      type: "xavier"
      std: 0.02
    }
    bias_filler {
      type: "constant"
      value: 0.2
    }
  }
}
layer {
  name: "loss1/relu_fc"
  type: "ReLU"
  bottom: "loss1/fc"
  top: "loss1/fc"
}
layer {
  name: "loss1/drop_fc"
  type: "Dropout"
  bottom: "loss1/fc"
  top: "loss1/fc"
  dropout_param {
    dropout_ratio: 0.7
  }
}
layer {
  name: "loss1/classifier_plantvillage"
  type: "InnerProduct"
  bottom: "loss1/fc"
  top: "loss1/classifier_plantvillage"
  param {
    lr_mult: 1
    decay_mult: 1
  }
  param {
    lr_mult: 2
    decay_mult: 0
  }
  inner_product_param {
    num_output: 38
    weight_filler {
      type: "xavier"
      std: 0.0009765625
    }
    bias_filler {
      type: "constant"
      value: 0
    }
  }
}
layer {
  name: "inception_4b/1x1"
  type: "Convolution"
  bottom: "inception_4a/output"
  top: "inception_4b/1x1"
  param {
    lr_mult: 1
    decay_mult: 1
  }
  param {
    lr_mult: 2
    decay_mult: 0
  }
  convolution_param {
    num_output: 160
    kernel_size: 1
    weight_filler {
      type: "xavier"
      std: 0.03
    }
    bias_filler {
      type: "constant"
      value: 0.2
    }
  }
}
layer {
  name: "inception_4b/relu_1x1"
  type: "ReLU"
  bottom: "inception_4b/1x1"
  top: "inception_4b/1x1"
}
layer {
  name: "inception_4b/3x3_reduce"
  type: "Convolution"
  bottom: "inception_4a/output"
  top: "inception_4b/3x3_reduce"
  param {
    lr_mult: 1
    decay_mult: 1
  }
  param {
    lr_mult: 2
    decay_mult: 0
  }
  convolution_param {
    num_output: 112
    kernel_size: 1
    weight_filler {
      type: "xavier"
      std: 0.09
    }
    bias_filler {
      type: "constant"
      value: 0.2
    }
  }
}
layer {
  name: "inception_4b/relu_3x3_reduce"
  type: "ReLU"
  bottom: "inception_4b/3x3_reduce"
  top: "inception_4b/3x3_reduce"
}
layer {
  name: "inception_4b/3x3"
  type: "Convolution"
  bottom: "inception_4b/3x3_reduce"
  top: "inception_4b/3x3"
  param {
    lr_mult: 1
    decay_mult: 1
  }
  param {
    lr_mult: 2
    decay_mult: 0
  }
  convolution_param {
    num_output: 224
    pad: 1
    kernel_size: 3
    weight_filler {
      type: "xavier"
      std: 0.03
    }
    bias_filler {
      type: "constant"
      value: 0.2
    }
  }
}
layer {
  name: "inception_4b/relu_3x3"
  type: "ReLU"
  bottom: "inception_4b/3x3"
  top: "inception_4b/3x3"
}
layer {
  name: "inception_4b/5x5_reduce"
  type: "Convolution"
  bottom: "inception_4a/output"
  top: "inception_4b/5x5_reduce"
  param {
    lr_mult: 1
    decay_mult: 1
  }
  param {
    lr_mult: 2
    decay_mult: 0
  }
  convolution_param {
    num_output: 24
    kernel_size: 1
    weight_filler {
      type: "xavier"
      std: 0.2
    }
    bias_filler {
      type: "constant"
      value: 0.2
    }
  }
}
layer {
  name: "inception_4b/relu_5x5_reduce"
  type: "ReLU"
  bottom: "inception_4b/5x5_reduce"
  top: "inception_4b/5x5_reduce"
}
layer {
  name: "inception_4b/5x5"
  type: "Convolution"
  bottom: "inception_4b/5x5_reduce"
  top: "inception_4b/5x5"
  param {
    lr_mult: 1
    decay_mult: 1
  }
  param {
    lr_mult: 2
    decay_mult: 0
  }
  convolution_param {
    num_output: 64
    pad: 2
    kernel_size: 5
    weight_filler {
      type: "xavier"
      std: 0.03
    }
    bias_filler {
      type: "constant"
      value: 0.2
    }
  }
}
layer {
  name: "inception_4b/relu_5x5"
  type: "ReLU"
  bottom: "inception_4b/5x5"
  top: "inception_4b/5x5"
}
layer {
  name: "inception_4b/pool"
  type: "Pooling"
  bottom: "inception_4a/output"
  top: "inception_4b/pool"
  pooling_param {
    pool: MAX
    kernel_size: 3
    stride: 1
    pad: 1
  }
}
layer {
  name: "inception_4b/pool_proj"
  type: "Convolution"
  bottom: "inception_4b/pool"
  top: "inception_4b/pool_proj"
  param {
    lr_mult: 1
    decay_mult: 1
  }
  param {
    lr_mult: 2
    decay_mult: 0
  }
  convolution_param {
    num_output: 64
    kernel_size: 1
    weight_filler {
      type: "xavier"
      std: 0.1
    }
    bias_filler {
      type: "constant"
      value: 0.2
    }
  }
}
layer {
  name: "inception_4b/relu_pool_proj"
  type: "ReLU"
  bottom: "inception_4b/pool_proj"
  top: "inception_4b/pool_proj"
}
layer {
  name: "inception_4b/output"
  type: "Concat"
  bottom: "inception_4b/1x1"
  bottom: "inception_4b/3x3"
  bottom: "inception_4b/5x5"
  bottom: "inception_4b/pool_proj"
  top: "inception_4b/output"
}
layer {
  name: "inception_4c/1x1"
  type: "Convolution"
  bottom: "inception_4b/output"
  top: "inception_4c/1x1"
  param {
    lr_mult: 1
    decay_mult: 1
  }
  param {
    lr_mult: 2
    decay_mult: 0
  }
  convolution_param {
    num_output: 128
    kernel_size: 1
    weight_filler {
      type: "xavier"
      std: 0.03
    }
    bias_filler {
      type: "constant"
      value: 0.2
    }
  }
}
layer {
  name: "inception_4c/relu_1x1"
  type: "ReLU"
  bottom: "inception_4c/1x1"
  top: "inception_4c/1x1"
}
layer {
  name: "inception_4c/3x3_reduce"
  type: "Convolution"
  bottom: "inception_4b/output"
  top: "inception_4c/3x3_reduce"
  param {
    lr_mult: 1
    decay_mult: 1
  }
  param {
    lr_mult: 2
    decay_mult: 0
  }
  convolution_param {
    num_output: 128
    kernel_size: 1
    weight_filler {
      type: "xavier"
      std: 0.09
    }
    bias_filler {
      type: "constant"
      value: 0.2
    }
  }
}
layer {
  name: "inception_4c/relu_3x3_reduce"
  type: "ReLU"
  bottom: "inception_4c/3x3_reduce"
  top: "inception_4c/3x3_reduce"
}
layer {
  name: "inception_4c/3x3"
  type: "Convolution"
  bottom: "inception_4c/3x3_reduce"
  top: "inception_4c/3x3"
  param {
    lr_mult: 1
    decay_mult: 1
  }
  param {
    lr_mult: 2
    decay_mult: 0
  }
  convolution_param {
    num_output: 256
    pad: 1
    kernel_size: 3
    weight_filler {
      type: "xavier"
      std: 0.03
    }
    bias_filler {
      type: "constant"
      value: 0.2
    }
  }
}
layer {
  name: "inception_4c/relu_3x3"
  type: "ReLU"
  bottom: "inception_4c/3x3"
  top: "inception_4c/3x3"
}
layer {
  name: "inception_4c/5x5_reduce"
  type: "Convolution"
  bottom: "inception_4b/output"
  top: "inception_4c/5x5_reduce"
  param {
    lr_mult: 1
    decay_mult: 1
  }
  param {
    lr_mult: 2
    decay_mult: 0
  }
  convolution_param {
    num_output: 24
    kernel_size: 1
    weight_filler {
      type: "xavier"
      std: 0.2
    }
    bias_filler {
      type: "constant"
      value: 0.2
    }
  }
}
layer {
  name: "inception_4c/relu_5x5_reduce"
  type: "ReLU"
  bottom: "inception_4c/5x5_reduce"
  top: "inception_4c/5x5_reduce"
}
layer {
  name: "inception_4c/5x5"
  type: "Convolution"
  bottom: "inception_4c/5x5_reduce"
  top: "inception_4c/5x5"
  param {
    lr_mult: 1
    decay_mult: 1
  }
  param {
    lr_mult: 2
    decay_mult: 0
  }
  convolution_param {
    num_output: 64
    pad: 2
    kernel_size: 5
    weight_filler {
      type: "xavier"
      std: 0.03
    }
    bias_filler {
      type: "constant"
      value: 0.2
    }
  }
}
layer {
  name: "inception_4c/relu_5x5"
  type: "ReLU"
  bottom: "inception_4c/5x5"
  top: "inception_4c/5x5"
}
layer {
  name: "inception_4c/pool"
  type: "Pooling"
  bottom: "inception_4b/output"
  top: "inception_4c/pool"
  pooling_param {
    pool: MAX
    kernel_size: 3
    stride: 1
    pad: 1
  }
}
layer {
  name: "inception_4c/pool_proj"
  type: "Convolution"
  bottom: "inception_4c/pool"
  top: "inception_4c/pool_proj"
  param {
    lr_mult: 1
    decay_mult: 1
  }
  param {
    lr_mult: 2
    decay_mult: 0
  }
  convolution_param {
    num_output: 64
    kernel_size: 1
    weight_filler {
      type: "xavier"
      std: 0.1
    }
    bias_filler {
      type: "constant"
      value: 0.2
    }
  }
}
layer {
  name: "inception_4c/relu_pool_proj"
  type: "ReLU"
  bottom: "inception_4c/pool_proj"
  top: "inception_4c/pool_proj"
}
layer {
  name: "inception_4c/output"
  type: "Concat"
  bottom: "inception_4c/1x1"
  bottom: "inception_4c/3x3"
  bottom: "inception_4c/5x5"
  bottom: "inception_4c/pool_proj"
  top: "inception_4c/output"
}
layer {
  name: "inception_4d/1x1"
  type: "Convolution"
  bottom: "inception_4c/output"
  top: "inception_4d/1x1"
  param {
    lr_mult: 1
    decay_mult: 1
  }
  param {
    lr_mult: 2
    decay_mult: 0
  }
  convolution_param {
    num_output: 112
    kernel_size: 1
    weight_filler {
      type: "xavier"
      std: 0.03
    }
    bias_filler {
      type: "constant"
      value: 0.2
    }
  }
}
layer {
  name: "inception_4d/relu_1x1"
  type: "ReLU"
  bottom: "inception_4d/1x1"
  top: "inception_4d/1x1"
}
layer {
  name: "inception_4d/3x3_reduce"
  type: "Convolution"
  bottom: "inception_4c/output"
  top: "inception_4d/3x3_reduce"
  param {
    lr_mult: 1
    decay_mult: 1
  }
  param {
    lr_mult: 2
    decay_mult: 0
  }
  convolution_param {
    num_output: 144
    kernel_size: 1
    weight_filler {
      type: "xavier"
      std: 0.09
    }
    bias_filler {
      type: "constant"
      value: 0.2
    }
  }
}
layer {
  name: "inception_4d/relu_3x3_reduce"
  type: "ReLU"
  bottom: "inception_4d/3x3_reduce"
  top: "inception_4d/3x3_reduce"
}
layer {
  name: "inception_4d/3x3"
  type: "Convolution"
  bottom: "inception_4d/3x3_reduce"
  top: "inception_4d/3x3"
  param {
    lr_mult: 1
    decay_mult: 1
  }
  param {
    lr_mult: 2
    decay_mult: 0
  }
  convolution_param {
    num_output: 288
    pad: 1
    kernel_size: 3
    weight_filler {
      type: "xavier"
      std: 0.03
    }
    bias_filler {
      type: "constant"
      value: 0.2
    }
  }
}
layer {
  name: "inception_4d/relu_3x3"
  type: "ReLU"
  bottom: "inception_4d/3x3"
  top: "inception_4d/3x3"
}
layer {
  name: "inception_4d/5x5_reduce"
  type: "Convolution"
  bottom: "inception_4c/output"
  top: "inception_4d/5x5_reduce"
  param {
    lr_mult: 1
    decay_mult: 1
  }
  param {
    lr_mult: 2
    decay_mult: 0
  }
  convolution_param {
    num_output: 32
    kernel_size: 1
    weight_filler {
      type: "xavier"
      std: 0.2
    }
    bias_filler {
      type: "constant"
      value: 0.2
    }
  }
}
layer {
  name: "inception_4d/relu_5x5_reduce"
  type: "ReLU"
  bottom: "inception_4d/5x5_reduce"
  top: "inception_4d/5x5_reduce"
}
layer {
  name: "inception_4d/5x5"
  type: "Convolution"
  bottom: "inception_4d/5x5_reduce"
  top: "inception_4d/5x5"
  param {
    lr_mult: 1
    decay_mult: 1
  }
  param {
    lr_mult: 2
    decay_mult: 0
  }
  convolution_param {
    num_output: 64
    pad: 2
    kernel_size: 5
    weight_filler {
      type: "xavier"
      std: 0.03
    }
    bias_filler {
      type: "constant"
      value: 0.2
    }
  }
}
layer {
  name: "inception_4d/relu_5x5"
  type: "ReLU"
  bottom: "inception_4d/5x5"
  top: "inception_4d/5x5"
}
layer {
  name: "inception_4d/pool"
  type: "Pooling"
  bottom: "inception_4c/output"
  top: "inception_4d/pool"
  pooling_param {
    pool: MAX
    kernel_size: 3
    stride: 1
    pad: 1
  }
}
layer {
  name: "inception_4d/pool_proj"
  type: "Convolution"
  bottom: "inception_4d/pool"
  top: "inception_4d/pool_proj"
  param {
    lr_mult: 1
    decay_mult: 1
  }
  param {
    lr_mult: 2
    decay_mult: 0
  }
  convolution_param {
    num_output: 64
    kernel_size: 1
    weight_filler {
      type: "xavier"
      std: 0.1
    }
    bias_filler {
      type: "constant"
      value: 0.2
    }
  }
}
layer {
  name: "inception_4d/relu_pool_proj"
  type: "ReLU"
  bottom: "inception_4d/pool_proj"
  top: "inception_4d/pool_proj"
}
layer {
  name: "inception_4d/output"
  type: "Concat"
  bottom: "inception_4d/1x1"
  bottom: "inception_4d/3x3"
  bottom: "inception_4d/5x5"
  bottom: "inception_4d/pool_proj"
  top: "inception_4d/output"
}
layer {
  name: "loss2/ave_pool"
  type: "Pooling"
  bottom: "inception_4d/output"
  top: "loss2/ave_pool"
  pooling_param {
    pool: AVE
    kernel_size: 5
    stride: 3
  }
}
layer {
  name: "loss2/conv"
  type: "Convolution"
  bottom: "loss2/ave_pool"
  top: "loss2/conv"
  param {
    lr_mult: 1
    decay_mult: 1
  }
  param {
    lr_mult: 2
    decay_mult: 0
  }
  convolution_param {
    num_output: 128
    kernel_size: 1
    weight_filler {
      type: "xavier"
      std: 0.08
    }
    bias_filler {
      type: "constant"
      value: 0.2
    }
  }
}
layer {
  name: "loss2/relu_conv"
  type: "ReLU"
  bottom: "loss2/conv"
  top: "loss2/conv"
}
layer {
  name: "loss2/fc"
  type: "InnerProduct"
  bottom: "loss2/conv"
  top: "loss2/fc"
  param {
    lr_mult: 1
    decay_mult: 1
  }
  param {
    lr_mult: 2
    decay_mult: 0
  }
  inner_product_param {
    num_output: 1024
    weight_filler {
      type: "xavier"
      std: 0.02
    }
    bias_filler {
      type: "constant"
      value: 0.2
    }
  }
}
layer {
  name: "loss2/relu_fc"
  type: "ReLU"
  bottom: "loss2/fc"
  top: "loss2/fc"
}
layer {
  name: "loss2/drop_fc"
  type: "Dropout"
  bottom: "loss2/fc"
  top: "loss2/fc"
  dropout_param {
    dropout_ratio: 0.7
  }
}
layer {
  name: "loss2/classifier_plantvillage"
  type: "InnerProduct"
  bottom: "loss2/fc"
  top: "loss2/classifier_plantvillage"
  param {
    lr_mult: 1
    decay_mult: 1
  }
  param {
    lr_mult: 2
    decay_mult: 0
  }
  inner_product_param {
    num_output: 38
    weight_filler {
      type: "xavier"
      std: 0.0009765625
    }
    bias_filler {
      type: "constant"
      value: 0
    }
  }
}
layer {
  name: "inception_4e/1x1"
  type: "Convolution"
  bottom: "inception_4d/output"
  top: "inception_4e/1x1"
  param {
    lr_mult: 1
    decay_mult: 1
  }
  param {
    lr_mult: 2
    decay_mult: 0
  }
  convolution_param {
    num_output: 256
    kernel_size: 1
    weight_filler {
      type: "xavier"
      std: 0.03
    }
    bias_filler {
      type: "constant"
      value: 0.2
    }
  }
}
layer {
  name: "inception_4e/relu_1x1"
  type: "ReLU"
  bottom: "inception_4e/1x1"
  top: "inception_4e/1x1"
}
layer {
  name: "inception_4e/3x3_reduce"
  type: "Convolution"
  bottom: "inception_4d/output"
  top: "inception_4e/3x3_reduce"
  param {
    lr_mult: 1
    decay_mult: 1
  }
  param {
    lr_mult: 2
    decay_mult: 0
  }
  convolution_param {
    num_output: 160
    kernel_size: 1
    weight_filler {
      type: "xavier"
      std: 0.09
    }
    bias_filler {
      type: "constant"
      value: 0.2
    }
  }
}
layer {
  name: "inception_4e/relu_3x3_reduce"
  type: "ReLU"
  bottom: "inception_4e/3x3_reduce"
  top: "inception_4e/3x3_reduce"
}
layer {
  name: "inception_4e/3x3"
  type: "Convolution"
  bottom: "inception_4e/3x3_reduce"
  top: "inception_4e/3x3"
  param {
    lr_mult: 1
    decay_mult: 1
  }
  param {
    lr_mult: 2
    decay_mult: 0
  }
  convolution_param {
    num_output: 320
    pad: 1
    kernel_size: 3
    weight_filler {
      type: "xavier"
      std: 0.03
    }
    bias_filler {
      type: "constant"
      value: 0.2
    }
  }
}
layer {
  name: "inception_4e/relu_3x3"
  type: "ReLU"
  bottom: "inception_4e/3x3"
  top: "inception_4e/3x3"
}
layer {
  name: "inception_4e/5x5_reduce"
  type: "Convolution"
  bottom: "inception_4d/output"
  top: "inception_4e/5x5_reduce"
  param {
    lr_mult: 1
    decay_mult: 1
  }
  param {
    lr_mult: 2
    decay_mult: 0
  }
  convolution_param {
    num_output: 32
    kernel_size: 1
    weight_filler {
      type: "xavier"
      std: 0.2
    }
    bias_filler {
      type: "constant"
      value: 0.2
    }
  }
}
layer {
  name: "inception_4e/relu_5x5_reduce"
  type: "ReLU"
  bottom: "inception_4e/5x5_reduce"
  top: "inception_4e/5x5_reduce"
}
layer {
  name: "inception_4e/5x5"
  type: "Convolution"
  bottom: "inception_4e/5x5_reduce"
  top: "inception_4e/
I0403 15:55:31.198557 11802 layer_factory.hpp:77] Creating layer data
I0403 15:55:31.199187 11802 net.cpp:91] Creating Layer data
I0403 15:55:31.199218 11802 net.cpp:399] data -> data
I0403 15:55:31.199272 11802 net.cpp:399] data -> label
I0403 15:55:31.199311 11802 data_transformer.cpp:25] Loading mean file from: /home/mohanty/data/final_dataset/lmdb/segmented-80-20/mean.binaryproto
I0403 15:55:31.202309 11805 db_lmdb.cpp:38] Opened lmdb /home/mohanty/data/final_dataset/lmdb/segmented-80-20/test_db
I0403 15:55:31.212398 11802 data_layer.cpp:41] output data size: 24,3,224,224
I0403 15:55:31.240130 11802 net.cpp:141] Setting up data
I0403 15:55:31.240219 11802 net.cpp:148] Top shape: 24 3 224 224 (3612672)
I0403 15:55:31.240243 11802 net.cpp:148] Top shape: 24 (24)
I0403 15:55:31.240262 11802 net.cpp:156] Memory required for data: 14450784
I0403 15:55:31.240289 11802 layer_factory.hpp:77] Creating layer label_data_1_split
I0403 15:55:31.240319 11802 net.cpp:91] Creating Layer label_data_1_split
I0403 15:55:31.240339 11802 net.cpp:425] label_data_1_split <- label
I0403 15:55:31.240372 11802 net.cpp:399] label_data_1_split -> label_data_1_split_0
I0403 15:55:31.240401 11802 net.cpp:399] label_data_1_split -> label_data_1_split_1
I0403 15:55:31.240425 11802 net.cpp:399] label_data_1_split -> label_data_1_split_2
I0403 15:55:31.240448 11802 net.cpp:399] label_data_1_split -> label_data_1_split_3
I0403 15:55:31.240470 11802 net.cpp:399] label_data_1_split -> label_data_1_split_4
I0403 15:55:31.240494 11802 net.cpp:399] label_data_1_split -> label_data_1_split_5
I0403 15:55:31.240514 11802 net.cpp:399] label_data_1_split -> label_data_1_split_6
I0403 15:55:31.240536 11802 net.cpp:399] label_data_1_split -> label_data_1_split_7
I0403 15:55:31.240558 11802 net.cpp:399] label_data_1_split -> label_data_1_split_8
I0403 15:55:31.240581 11802 net.cpp:399] label_data_1_split -> label_data_1_split_9
I0403 15:55:31.240703 11802 net.cpp:141] Setting up label_data_1_split
I0403 15:55:31.240731 11802 net.cpp:148] Top shape: 24 (24)
I0403 15:55:31.240751 11802 net.cpp:148] Top shape: 24 (24)
I0403 15:55:31.240767 11802 net.cpp:148] Top shape: 24 (24)
I0403 15:55:31.240783 11802 net.cpp:148] Top shape: 24 (24)
I0403 15:55:31.240802 11802 net.cpp:148] Top shape: 24 (24)
I0403 15:55:31.240818 11802 net.cpp:148] Top shape: 24 (24)
I0403 15:55:31.240835 11802 net.cpp:148] Top shape: 24 (24)
I0403 15:55:31.240854 11802 net.cpp:148] Top shape: 24 (24)
I0403 15:55:31.240871 11802 net.cpp:148] Top shape: 24 (24)
I0403 15:55:31.240888 11802 net.cpp:148] Top shape: 24 (24)
I0403 15:55:31.240936 11802 net.cpp:156] Memory required for data: 14451744
I0403 15:55:31.240958 11802 layer_factory.hpp:77] Creating layer conv1/7x7_s2
I0403 15:55:31.240993 11802 net.cpp:91] Creating Layer conv1/7x7_s2
I0403 15:55:31.241014 11802 net.cpp:425] conv1/7x7_s2 <- data
I0403 15:55:31.241034 11802 net.cpp:399] conv1/7x7_s2 -> conv1/7x7_s2
I0403 15:55:31.382911 11802 net.cpp:141] Setting up conv1/7x7_s2
I0403 15:55:31.383002 11802 net.cpp:148] Top shape: 24 64 112 112 (19267584)
I0403 15:55:31.383018 11802 net.cpp:156] Memory required for data: 91522080
I0403 15:55:31.383050 11802 layer_factory.hpp:77] Creating layer conv1/relu_7x7
I0403 15:55:31.383077 11802 net.cpp:91] Creating Layer conv1/relu_7x7
I0403 15:55:31.383095 11802 net.cpp:425] conv1/relu_7x7 <- conv1/7x7_s2
I0403 15:55:31.383116 11802 net.cpp:386] conv1/relu_7x7 -> conv1/7x7_s2 (in-place)
I0403 15:55:31.383368 11802 net.cpp:141] Setting up conv1/relu_7x7
I0403 15:55:31.383394 11802 net.cpp:148] Top shape: 24 64 112 112 (19267584)
I0403 15:55:31.383409 11802 net.cpp:156] Memory required for data: 168592416
I0403 15:55:31.383424 11802 layer_factory.hpp:77] Creating layer pool1/3x3_s2
I0403 15:55:31.383450 11802 net.cpp:91] Creating Layer pool1/3x3_s2
I0403 15:55:31.383467 11802 net.cpp:425] pool1/3x3_s2 <- conv1/7x7_s2
I0403 15:55:31.383486 11802 net.cpp:399] pool1/3x3_s2 -> pool1/3x3_s2
I0403 15:55:31.383560 11802 net.cpp:141] Setting up pool1/3x3_s2
I0403 15:55:31.383585 11802 net.cpp:148] Top shape: 24 64 56 56 (4816896)
I0403 15:55:31.383600 11802 net.cpp:156] Memory required for data: 187860000
I0403 15:55:31.383615 11802 layer_factory.hpp:77] Creating layer pool1/norm1
I0403 15:55:31.383640 11802 net.cpp:91] Creating Layer pool1/norm1
I0403 15:55:31.383656 11802 net.cpp:425] pool1/norm1 <- pool1/3x3_s2
I0403 15:55:31.383676 11802 net.cpp:399] pool1/norm1 -> pool1/norm1
I0403 15:55:31.383958 11802 net.cpp:141] Setting up pool1/norm1
I0403 15:55:31.383985 11802 net.cpp:148] Top shape: 24 64 56 56 (4816896)
I0403 15:55:31.384001 11802 net.cpp:156] Memory required for data: 207127584
I0403 15:55:31.384016 11802 layer_factory.hpp:77] Creating layer conv2/3x3_reduce
I0403 15:55:31.384040 11802 net.cpp:91] Creating Layer conv2/3x3_reduce
I0403 15:55:31.384057 11802 net.cpp:425] conv2/3x3_reduce <- pool1/norm1
I0403 15:55:31.384076 11802 net.cpp:399] conv2/3x3_reduce -> conv2/3x3_reduce
I0403 15:55:31.385450 11802 net.cpp:141] Setting up conv2/3x3_reduce
I0403 15:55:31.385481 11802 net.cpp:148] Top shape: 24 64 56 56 (4816896)
I0403 15:55:31.385499 11802 net.cpp:156] Memory required for data: 226395168
I0403 15:55:31.385519 11802 layer_factory.hpp:77] Creating layer conv2/relu_3x3_reduce
I0403 15:55:31.385538 11802 net.cpp:91] Creating Layer conv2/relu_3x3_reduce
I0403 15:55:31.385555 11802 net.cpp:425] conv2/relu_3x3_reduce <- conv2/3x3_reduce
I0403 15:55:31.385574 11802 net.cpp:386] conv2/relu_3x3_reduce -> conv2/3x3_reduce (in-place)
I0403 15:55:31.385836 11802 net.cpp:141] Setting up conv2/relu_3x3_reduce
I0403 15:55:31.385865 11802 net.cpp:148] Top shape: 24 64 56 56 (4816896)
I0403 15:55:31.385881 11802 net.cpp:156] Memory required for data: 245662752
I0403 15:55:31.385896 11802 layer_factory.hpp:77] Creating layer conv2/3x3
I0403 15:55:31.385921 11802 net.cpp:91] Creating Layer conv2/3x3
I0403 15:55:31.385939 11802 net.cpp:425] conv2/3x3 <- conv2/3x3_reduce
I0403 15:55:31.385967 11802 net.cpp:399] conv2/3x3 -> conv2/3x3
I0403 15:55:31.388242 11802 net.cpp:141] Setting up conv2/3x3
I0403 15:55:31.388275 11802 net.cpp:148] Top shape: 24 192 56 56 (14450688)
I0403 15:55:31.388293 11802 net.cpp:156] Memory required for data: 303465504
I0403 15:55:31.388314 11802 layer_factory.hpp:77] Creating layer conv2/relu_3x3
I0403 15:55:31.388334 11802 net.cpp:91] Creating Layer conv2/relu_3x3
I0403 15:55:31.388350 11802 net.cpp:425] conv2/relu_3x3 <- conv2/3x3
I0403 15:55:31.388370 11802 net.cpp:386] conv2/relu_3x3 -> conv2/3x3 (in-place)
I0403 15:55:31.388542 11802 net.cpp:141] Setting up conv2/relu_3x3
I0403 15:55:31.388567 11802 net.cpp:148] Top shape: 24 192 56 56 (14450688)
I0403 15:55:31.388612 11802 net.cpp:156] Memory required for data: 361268256
I0403 15:55:31.388628 11802 layer_factory.hpp:77] Creating layer conv2/norm2
I0403 15:55:31.388649 11802 net.cpp:91] Creating Layer conv2/norm2
I0403 15:55:31.388665 11802 net.cpp:425] conv2/norm2 <- conv2/3x3
I0403 15:55:31.388685 11802 net.cpp:399] conv2/norm2 -> conv2/norm2
I0403 15:55:31.388994 11802 net.cpp:141] Setting up conv2/norm2
I0403 15:55:31.389024 11802 net.cpp:148] Top shape: 24 192 56 56 (14450688)
I0403 15:55:31.389039 11802 net.cpp:156] Memory required for data: 419071008
I0403 15:55:31.389055 11802 layer_factory.hpp:77] Creating layer pool2/3x3_s2
I0403 15:55:31.389072 11802 net.cpp:91] Creating Layer pool2/3x3_s2
I0403 15:55:31.389088 11802 net.cpp:425] pool2/3x3_s2 <- conv2/norm2
I0403 15:55:31.389108 11802 net.cpp:399] pool2/3x3_s2 -> pool2/3x3_s2
I0403 15:55:31.389163 11802 net.cpp:141] Setting up pool2/3x3_s2
I0403 15:55:31.389186 11802 net.cpp:148] Top shape: 24 192 28 28 (3612672)
I0403 15:55:31.389201 11802 net.cpp:156] Memory required for data: 433521696
I0403 15:55:31.389216 11802 layer_factory.hpp:77] Creating layer pool2/3x3_s2_pool2/3x3_s2_0_split
I0403 15:55:31.389236 11802 net.cpp:91] Creating Layer pool2/3x3_s2_pool2/3x3_s2_0_split
I0403 15:55:31.389253 11802 net.cpp:425] pool2/3x3_s2_pool2/3x3_s2_0_split <- pool2/3x3_s2
I0403 15:55:31.389271 11802 net.cpp:399] pool2/3x3_s2_pool2/3x3_s2_0_split -> pool2/3x3_s2_pool2/3x3_s2_0_split_0
I0403 15:55:31.389291 11802 net.cpp:399] pool2/3x3_s2_pool2/3x3_s2_0_split -> pool2/3x3_s2_pool2/3x3_s2_0_split_1
I0403 15:55:31.389309 11802 net.cpp:399] pool2/3x3_s2_pool2/3x3_s2_0_split -> pool2/3x3_s2_pool2/3x3_s2_0_split_2
I0403 15:55:31.389328 11802 net.cpp:399] pool2/3x3_s2_pool2/3x3_s2_0_split -> pool2/3x3_s2_pool2/3x3_s2_0_split_3
I0403 15:55:31.389400 11802 net.cpp:141] Setting up pool2/3x3_s2_pool2/3x3_s2_0_split
I0403 15:55:31.389421 11802 net.cpp:148] Top shape: 24 192 28 28 (3612672)
I0403 15:55:31.389438 11802 net.cpp:148] Top shape: 24 192 28 28 (3612672)
I0403 15:55:31.389454 11802 net.cpp:148] Top shape: 24 192 28 28 (3612672)
I0403 15:55:31.389469 11802 net.cpp:148] Top shape: 24 192 28 28 (3612672)
I0403 15:55:31.389483 11802 net.cpp:156] Memory required for data: 491324448
I0403 15:55:31.389497 11802 layer_factory.hpp:77] Creating layer inception_3a/1x1
I0403 15:55:31.389520 11802 net.cpp:91] Creating Layer inception_3a/1x1
I0403 15:55:31.389539 11802 net.cpp:425] inception_3a/1x1 <- pool2/3x3_s2_pool2/3x3_s2_0_split_0
I0403 15:55:31.389559 11802 net.cpp:399] inception_3a/1x1 -> inception_3a/1x1
I0403 15:55:31.391080 11802 net.cpp:141] Setting up inception_3a/1x1
I0403 15:55:31.391111 11802 net.cpp:148] Top shape: 24 64 28 28 (1204224)
I0403 15:55:31.391127 11802 net.cpp:156] Memory required for data: 496141344
I0403 15:55:31.391146 11802 layer_factory.hpp:77] Creating layer inception_3a/relu_1x1
I0403 15:55:31.391165 11802 net.cpp:91] Creating Layer inception_3a/relu_1x1
I0403 15:55:31.391180 11802 net.cpp:425] inception_3a/relu_1x1 <- inception_3a/1x1
I0403 15:55:31.391201 11802 net.cpp:386] inception_3a/relu_1x1 -> inception_3a/1x1 (in-place)
I0403 15:55:31.391374 11802 net.cpp:141] Setting up inception_3a/relu_1x1
I0403 15:55:31.391399 11802 net.cpp:148] Top shape: 24 64 28 28 (1204224)
I0403 15:55:31.391414 11802 net.cpp:156] Memory required for data: 500958240
I0403 15:55:31.391429 11802 layer_factory.hpp:77] Creating layer inception_3a/3x3_reduce
I0403 15:55:31.391451 11802 net.cpp:91] Creating Layer inception_3a/3x3_reduce
I0403 15:55:31.391469 11802 net.cpp:425] inception_3a/3x3_reduce <- pool2/3x3_s2_pool2/3x3_s2_0_split_1
I0403 15:55:31.391490 11802 net.cpp:399] inception_3a/3x3_reduce -> inception_3a/3x3_reduce
I0403 15:55:31.393199 11802 net.cpp:141] Setting up inception_3a/3x3_reduce
I0403 15:55:31.393239 11802 net.cpp:148] Top shape: 24 96 28 28 (1806336)
I0403 15:55:31.393256 11802 net.cpp:156] Memory required for data: 508183584
I0403 15:55:31.393278 11802 layer_factory.hpp:77] Creating layer inception_3a/relu_3x3_reduce
I0403 15:55:31.393316 11802 net.cpp:91] Creating Layer inception_3a/relu_3x3_reduce
I0403 15:55:31.393333 11802 net.cpp:425] inception_3a/relu_3x3_reduce <- inception_3a/3x3_reduce
I0403 15:55:31.393352 11802 net.cpp:386] inception_3a/relu_3x3_reduce -> inception_3a/3x3_reduce (in-place)
I0403 15:55:31.393527 11802 net.cpp:141] Setting up inception_3a/relu_3x3_reduce
I0403 15:55:31.393554 11802 net.cpp:148] Top shape: 24 96 28 28 (1806336)
I0403 15:55:31.393569 11802 net.cpp:156] Memory required for data: 515408928
I0403 15:55:31.393585 11802 layer_factory.hpp:77] Creating layer inception_3a/3x3
I0403 15:55:31.393607 11802 net.cpp:91] Creating Layer inception_3a/3x3
I0403 15:55:31.393625 11802 net.cpp:425] inception_3a/3x3 <- inception_3a/3x3_reduce
I0403 15:55:31.393643 11802 net.cpp:399] inception_3a/3x3 -> inception_3a/3x3
I0403 15:55:31.395269 11802 net.cpp:141] Setting up inception_3a/3x3
I0403 15:55:31.395298 11802 net.cpp:148] Top shape: 24 128 28 28 (2408448)
I0403 15:55:31.395313 11802 net.cpp:156] Memory required for data: 525042720
I0403 15:55:31.395333 11802 layer_factory.hpp:77] Creating layer inception_3a/relu_3x3
I0403 15:55:31.395350 11802 net.cpp:91] Creating Layer inception_3a/relu_3x3
I0403 15:55:31.395366 11802 net.cpp:425] inception_3a/relu_3x3 <- inception_3a/3x3
I0403 15:55:31.395386 11802 net.cpp:386] inception_3a/relu_3x3 -> inception_3a/3x3 (in-place)
I0403 15:55:31.395660 11802 net.cpp:141] Setting up inception_3a/relu_3x3
I0403 15:55:31.395686 11802 net.cpp:148] Top shape: 24 128 28 28 (2408448)
I0403 15:55:31.395702 11802 net.cpp:156] Memory required for data: 534676512
I0403 15:55:31.395717 11802 layer_factory.hpp:77] Creating layer inception_3a/5x5_reduce
I0403 15:55:31.395740 11802 net.cpp:91] Creating Layer inception_3a/5x5_reduce
I0403 15:55:31.395756 11802 net.cpp:425] inception_3a/5x5_reduce <- pool2/3x3_s2_pool2/3x3_s2_0_split_2
I0403 15:55:31.395777 11802 net.cpp:399] inception_3a/5x5_reduce -> inception_3a/5x5_reduce
I0403 15:55:31.396730 11802 net.cpp:141] Setting up inception_3a/5x5_reduce
I0403 15:55:31.396757 11802 net.cpp:148] Top shape: 24 16 28 28 (301056)
I0403 15:55:31.396773 11802 net.cpp:156] Memory required for data: 535880736
I0403 15:55:31.396792 11802 layer_factory.hpp:77] Creating layer inception_3a/relu_5x5_reduce
I0403 15:55:31.396812 11802 net.cpp:91] Creating Layer inception_3a/relu_5x5_reduce
I0403 15:55:31.396829 11802 net.cpp:425] inception_3a/relu_5x5_reduce <- inception_3a/5x5_reduce
I0403 15:55:31.396847 11802 net.cpp:386] inception_3a/relu_5x5_reduce -> inception_3a/5x5_reduce (in-place)
I0403 15:55:31.397146 11802 net.cpp:141] Setting up inception_3a/relu_5x5_reduce
I0403 15:55:31.397172 11802 net.cpp:148] Top shape: 24 16 28 28 (301056)
I0403 15:55:31.397188 11802 net.cpp:156] Memory required for data: 537084960
I0403 15:55:31.397205 11802 layer_factory.hpp:77] Creating layer inception_3a/5x5
I0403 15:55:31.397228 11802 net.cpp:91] Creating Layer inception_3a/5x5
I0403 15:55:31.397244 11802 net.cpp:425] inception_3a/5x5 <- inception_3a/5x5_reduce
I0403 15:55:31.397266 11802 net.cpp:399] inception_3a/5x5 -> inception_3a/5x5
I0403 15:55:31.398310 11802 net.cpp:141] Setting up inception_3a/5x5
I0403 15:55:31.398337 11802 net.cpp:148] Top shape: 24 32 28 28 (602112)
I0403 15:55:31.398353 11802 net.cpp:156] Memory required for data: 539493408
I0403 15:55:31.398372 11802 layer_factory.hpp:77] Creating layer inception_3a/relu_5x5
I0403 15:55:31.398391 11802 net.cpp:91] Creating Layer inception_3a/relu_5x5
I0403 15:55:31.398407 11802 net.cpp:425] inception_3a/relu_5x5 <- inception_3a/5x5
I0403 15:55:31.398427 11802 net.cpp:386] inception_3a/relu_5x5 -> inception_3a/5x5 (in-place)
I0403 15:55:31.398598 11802 net.cpp:141] Setting up inception_3a/relu_5x5
I0403 15:55:31.398623 11802 net.cpp:148] Top shape: 24 32 28 28 (602112)
I0403 15:55:31.398638 11802 net.cpp:156] Memory required for data: 541901856
I0403 15:55:31.398653 11802 layer_factory.hpp:77] Creating layer inception_3a/pool
I0403 15:55:31.398676 11802 net.cpp:91] Creating Layer inception_3a/pool
I0403 15:55:31.398705 11802 net.cpp:425] inception_3a/pool <- pool2/3x3_s2_pool2/3x3_s2_0_split_3
I0403 15:55:31.398725 11802 net.cpp:399] inception_3a/pool -> inception_3a/pool
I0403 15:55:31.398783 11802 net.cpp:141] Setting up inception_3a/pool
I0403 15:55:31.398807 11802 net.cpp:148] Top shape: 24 192 28 28 (3612672)
I0403 15:55:31.398820 11802 net.cpp:156] Memory required for data: 556352544
I0403 15:55:31.398835 11802 layer_factory.hpp:77] Creating layer inception_3a/pool_proj
I0403 15:55:31.398857 11802 net.cpp:91] Creating Layer inception_3a/pool_proj
I0403 15:55:31.398874 11802 net.cpp:425] inception_3a/pool_proj <- inception_3a/pool
I0403 15:55:31.398895 11802 net.cpp:399] inception_3a/pool_proj -> inception_3a/pool_proj
I0403 15:55:31.399850 11802 net.cpp:141] Setting up inception_3a/pool_proj
I0403 15:55:31.399880 11802 net.cpp:148] Top shape: 24 32 28 28 (602112)
I0403 15:55:31.399896 11802 net.cpp:156] Memory required for data: 558760992
I0403 15:55:31.399919 11802 layer_factory.hpp:77] Creating layer inception_3a/relu_pool_proj
I0403 15:55:31.399940 11802 net.cpp:91] Creating Layer inception_3a/relu_pool_proj
I0403 15:55:31.399976 11802 net.cpp:425] inception_3a/relu_pool_proj <- inception_3a/pool_proj
I0403 15:55:31.399997 11802 net.cpp:386] inception_3a/relu_pool_proj -> inception_3a/pool_proj (in-place)
I0403 15:55:31.400284 11802 net.cpp:141] Setting up inception_3a/relu_pool_proj
I0403 15:55:31.400310 11802 net.cpp:148] Top shape: 24 32 28 28 (602112)
I0403 15:55:31.400326 11802 net.cpp:156] Memory required for data: 561169440
I0403 15:55:31.400342 11802 layer_factory.hpp:77] Creating layer inception_3a/output
I0403 15:55:31.400362 11802 net.cpp:91] Creating Layer inception_3a/output
I0403 15:55:31.400377 11802 net.cpp:425] inception_3a/output <- inception_3a/1x1
I0403 15:55:31.400394 11802 net.cpp:425] inception_3a/output <- inception_3a/3x3
I0403 15:55:31.400411 11802 net.cpp:425] inception_3a/output <- inception_3a/5x5
I0403 15:55:31.400427 11802 net.cpp:425] inception_3a/output <- inception_3a/pool_proj
I0403 15:55:31.400447 11802 net.cpp:399] inception_3a/output -> inception_3a/output
I0403 15:55:31.400495 11802 net.cpp:141] Setting up inception_3a/output
I0403 15:55:31.400522 11802 net.cpp:148] Top shape: 24 256 28 28 (4816896)
I0403 15:55:31.400538 11802 net.cpp:156] Memory required for data: 580437024
I0403 15:55:31.400554 11802 layer_factory.hpp:77] Creating layer inception_3a/output_inception_3a/output_0_split
I0403 15:55:31.400571 11802 net.cpp:91] Creating Layer inception_3a/output_inception_3a/output_0_split
I0403 15:55:31.400588 11802 net.cpp:425] inception_3a/output_inception_3a/output_0_split <- inception_3a/output
I0403 15:55:31.400605 11802 net.cpp:399] inception_3a/output_inception_3a/output_0_split -> inception_3a/output_inception_3a/output_0_split_0
I0403 15:55:31.400627 11802 net.cpp:399] inception_3a/output_inception_3a/output_0_split -> inception_3a/output_inception_3a/output_0_split_1
I0403 15:55:31.400652 11802 net.cpp:399] inception_3a/output_inception_3a/output_0_split -> inception_3a/output_inception_3a/output_0_split_2
I0403 15:55:31.400673 11802 net.cpp:399] inception_3a/output_inception_3a/output_0_split -> inception_3a/output_inception_3a/output_0_split_3
I0403 15:55:31.400749 11802 net.cpp:141] Setting up inception_3a/output_inception_3a/output_0_split
I0403 15:55:31.400775 11802 net.cpp:148] Top shape: 24 256 28 28 (4816896)
I0403 15:55:31.400794 11802 net.cpp:148] Top shape: 24 256 28 28 (4816896)
I0403 15:55:31.400810 11802 net.cpp:148] Top shape: 24 256 28 28 (4816896)
I0403 15:55:31.400825 11802 net.cpp:148] Top shape: 24 256 28 28 (4816896)
I0403 15:55:31.400840 11802 net.cpp:156] Memory required for data: 657507360
I0403 15:55:31.400854 11802 layer_factory.hpp:77] Creating layer inception_3b/1x1
I0403 15:55:31.400877 11802 net.cpp:91] Creating Layer inception_3b/1x1
I0403 15:55:31.400895 11802 net.cpp:425] inception_3b/1x1 <- inception_3a/output_inception_3a/output_0_split_0
I0403 15:55:31.400914 11802 net.cpp:399] inception_3b/1x1 -> inception_3b/1x1
I0403 15:55:31.402076 11802 net.cpp:141] Setting up inception_3b/1x1
I0403 15:55:31.402119 11802 net.cpp:148] Top shape: 24 128 28 28 (2408448)
I0403 15:55:31.402137 11802 net.cpp:156] Memory required for data: 667141152
I0403 15:55:31.402156 11802 layer_factory.hpp:77] Creating layer inception_3b/relu_1x1
I0403 15:55:31.402174 11802 net.cpp:91] Creating Layer inception_3b/relu_1x1
I0403 15:55:31.402191 11802 net.cpp:425] inception_3b/relu_1x1 <- inception_3b/1x1
I0403 15:55:31.402212 11802 net.cpp:386] inception_3b/relu_1x1 -> inception_3b/1x1 (in-place)
I0403 15:55:31.402398 11802 net.cpp:141] Setting up inception_3b/relu_1x1
I0403 15:55:31.402423 11802 net.cpp:148] Top shape: 24 128 28 28 (2408448)
I0403 15:55:31.402439 11802 net.cpp:156] Memory required for data: 676774944
I0403 15:55:31.402454 11802 layer_factory.hpp:77] Creating layer inception_3b/3x3_reduce
I0403 15:55:31.402477 11802 net.cpp:91] Creating Layer inception_3b/3x3_reduce
I0403 15:55:31.402497 11802 net.cpp:425] inception_3b/3x3_reduce <- inception_3a/output_inception_3a/output_0_split_1
I0403 15:55:31.402518 11802 net.cpp:399] inception_3b/3x3_reduce -> inception_3b/3x3_reduce
I0403 15:55:31.403673 11802 net.cpp:141] Setting up inception_3b/3x3_reduce
I0403 15:55:31.403705 11802 net.cpp:148] Top shape: 24 128 28 28 (2408448)
I0403 15:55:31.403723 11802 net.cpp:156] Memory required for data: 686408736
I0403 15:55:31.403741 11802 layer_factory.hpp:77] Creating layer inception_3b/relu_3x3_reduce
I0403 15:55:31.403760 11802 net.cpp:91] Creating Layer inception_3b/relu_3x3_reduce
I0403 15:55:31.403777 11802 net.cpp:425] inception_3b/relu_3x3_reduce <- inception_3b/3x3_reduce
I0403 15:55:31.403795 11802 net.cpp:386] inception_3b/relu_3x3_reduce -> inception_3b/3x3_reduce (in-place)
I0403 15:55:31.403976 11802 net.cpp:141] Setting up inception_3b/relu_3x3_reduce
I0403 15:55:31.404002 11802 net.cpp:148] Top shape: 24 128 28 28 (2408448)
I0403 15:55:31.404017 11802 net.cpp:156] Memory required for data: 696042528
I0403 15:55:31.404033 11802 layer_factory.hpp:77] Creating layer inception_3b/3x3
I0403 15:55:31.404058 11802 net.cpp:91] Creating Layer inception_3b/3x3
I0403 15:55:31.404077 11802 net.cpp:425] inception_3b/3x3 <- inception_3b/3x3_reduce
I0403 15:55:31.404098 11802 net.cpp:399] inception_3b/3x3 -> inception_3b/3x3
I0403 15:55:31.407080 11802 net.cpp:141] Setting up inception_3b/3x3
I0403 15:55:31.407109 11802 net.cpp:148] Top shape: 24 192 28 28 (3612672)
I0403 15:55:31.407125 11802 net.cpp:156] Memory required for data: 710493216
I0403 15:55:31.407145 11802 layer_factory.hpp:77] Creating layer inception_3b/relu_3x3
I0403 15:55:31.407163 11802 net.cpp:91] Creating Layer inception_3b/relu_3x3
I0403 15:55:31.407179 11802 net.cpp:425] inception_3b/relu_3x3 <- inception_3b/3x3
I0403 15:55:31.407199 11802 net.cpp:386] inception_3b/relu_3x3 -> inception_3b/3x3 (in-place)
I0403 15:55:31.407483 11802 net.cpp:141] Setting up inception_3b/relu_3x3
I0403 15:55:31.407510 11802 net.cpp:148] Top shape: 24 192 28 28 (3612672)
I0403 15:55:31.407526 11802 net.cpp:156] Memory required for data: 724943904
I0403 15:55:31.407542 11802 layer_factory.hpp:77] Creating layer inception_3b/5x5_reduce
I0403 15:55:31.407565 11802 net.cpp:91] Creating Layer inception_3b/5x5_reduce
I0403 15:55:31.407583 11802 net.cpp:425] inception_3b/5x5_reduce <- inception_3a/output_inception_3a/output_0_split_2
I0403 15:55:31.407608 11802 net.cpp:399] inception_3b/5x5_reduce -> inception_3b/5x5_reduce
I0403 15:55:31.408622 11802 net.cpp:141] Setting up inception_3b/5x5_reduce
I0403 15:55:31.408651 11802 net.cpp:148] Top shape: 24 32 28 28 (602112)
I0403 15:55:31.408668 11802 net.cpp:156] Memory required for data: 727352352
I0403 15:55:31.408687 11802 layer_factory.hpp:77] Creating layer inception_3b/relu_5x5_reduce
I0403 15:55:31.408706 11802 net.cpp:91] Creating Layer inception_3b/relu_5x5_reduce
I0403 15:55:31.408722 11802 net.cpp:425] inception_3b/relu_5x5_reduce <- inception_3b/5x5_reduce
I0403 15:55:31.408742 11802 net.cpp:386] inception_3b/relu_5x5_reduce -> inception_3b/5x5_reduce (in-place)
I0403 15:55:31.408937 11802 net.cpp:141] Setting up inception_3b/relu_5x5_reduce
I0403 15:55:31.408973 11802 net.cpp:148] Top shape: 24 32 28 28 (602112)
I0403 15:55:31.408992 11802 net.cpp:156] Memory required for data: 729760800
I0403 15:55:31.409006 11802 layer_factory.hpp:77] Creating layer inception_3b/5x5
I0403 15:55:31.409030 11802 net.cpp:91] Creating Layer inception_3b/5x5
I0403 15:55:31.409049 11802 net.cpp:425] inception_3b/5x5 <- inception_3b/5x5_reduce
I0403 15:55:31.409070 11802 net.cpp:399] inception_3b/5x5 -> inception_3b/5x5
I0403 15:55:31.411089 11802 net.cpp:141] Setting up inception_3b/5x5
I0403 15:55:31.411120 11802 net.cpp:148] Top shape: 24 96 28 28 (1806336)
I0403 15:55:31.411139 11802 net.cpp:156] Memory required for data: 736986144
I0403 15:55:31.411157 11802 layer_factory.hpp:77] Creating layer inception_3b/relu_5x5
I0403 15:55:31.411177 11802 net.cpp:91] Creating Layer inception_3b/relu_5x5
I0403 15:55:31.411193 11802 net.cpp:425] inception_3b/relu_5x5 <- inception_3b/5x5
I0403 15:55:31.411211 11802 net.cpp:386] inception_3b/relu_5x5 -> inception_3b/5x5 (in-place)
I0403 15:55:31.411406 11802 net.cpp:141] Setting up inception_3b/relu_5x5
I0403 15:55:31.411432 11802 net.cpp:148] Top shape: 24 96 28 28 (1806336)
I0403 15:55:31.411448 11802 net.cpp:156] Memory required for data: 744211488
I0403 15:55:31.411463 11802 layer_factory.hpp:77] Creating layer inception_3b/pool
I0403 15:55:31.411480 11802 net.cpp:91] Creating Layer inception_3b/pool
I0403 15:55:31.411497 11802 net.cpp:425] inception_3b/pool <- inception_3a/output_inception_3a/output_0_split_3
I0403 15:55:31.411516 11802 net.cpp:399] inception_3b/pool -> inception_3b/pool
I0403 15:55:31.411573 11802 net.cpp:141] Setting up inception_3b/pool
I0403 15:55:31.411600 11802 net.cpp:148] Top shape: 24 256 28 28 (4816896)
I0403 15:55:31.411617 11802 net.cpp:156] Memory required for data: 763479072
I0403 15:55:31.411631 11802 layer_factory.hpp:77] Creating layer inception_3b/pool_proj
I0403 15:55:31.411654 11802 net.cpp:91] Creating Layer inception_3b/pool_proj
I0403 15:55:31.411672 11802 net.cpp:425] inception_3b/pool_proj <- inception_3b/pool
I0403 15:55:31.411691 11802 net.cpp:399] inception_3b/pool_proj -> inception_3b/pool_proj
I0403 15:55:31.412771 11802 net.cpp:141] Setting up inception_3b/pool_proj
I0403 15:55:31.412799 11802 net.cpp:148] Top shape: 24 64 28 28 (1204224)
I0403 15:55:31.412816 11802 net.cpp:156] Memory required for data: 768295968
I0403 15:55:31.412834 11802 layer_factory.hpp:77] Creating layer inception_3b/relu_pool_proj
I0403 15:55:31.412856 11802 net.cpp:91] Creating Layer inception_3b/relu_pool_proj
I0403 15:55:31.412874 11802 net.cpp:425] inception_3b/relu_pool_proj <- inception_3b/pool_proj
I0403 15:55:31.412892 11802 net.cpp:386] inception_3b/relu_pool_proj -> inception_3b/pool_proj (in-place)
I0403 15:55:31.413333 11802 net.cpp:141] Setting up inception_3b/relu_pool_proj
I0403 15:55:31.413362 11802 net.cpp:148] Top shape: 24 64 28 28 (1204224)
I0403 15:55:31.413377 11802 net.cpp:156] Memory required for data: 773112864
I0403 15:55:31.413393 11802 layer_factory.hpp:77] Creating layer inception_3b/output
I0403 15:55:31.413409 11802 net.cpp:91] Creating Layer inception_3b/output
I0403 15:55:31.413425 11802 net.cpp:425] inception_3b/output <- inception_3b/1x1
I0403 15:55:31.413442 11802 net.cpp:425] inception_3b/output <- inception_3b/3x3
I0403 15:55:31.413458 11802 net.cpp:425] inception_3b/output <- inception_3b/5x5
I0403 15:55:31.413475 11802 net.cpp:425] inception_3b/output <- inception_3b/pool_proj
I0403 15:55:31.413494 11802 net.cpp:399] inception_3b/output -> inception_3b/output
I0403 15:55:31.413542 11802 net.cpp:141] Setting up inception_3b/output
I0403 15:55:31.413565 11802 net.cpp:148] Top shape: 24 480 28 28 (9031680)
I0403 15:55:31.413580 11802 net.cpp:156] Memory required for data: 809239584
I0403 15:55:31.413595 11802 layer_factory.hpp:77] Creating layer pool3/3x3_s2
I0403 15:55:31.413612 11802 net.cpp:91] Creating Layer pool3/3x3_s2
I0403 15:55:31.413628 11802 net.cpp:425] pool3/3x3_s2 <- inception_3b/output
I0403 15:55:31.413666 11802 net.cpp:399] pool3/3x3_s2 -> pool3/3x3_s2
I0403 15:55:31.413725 11802 net.cpp:141] Setting up pool3/3x3_s2
I0403 15:55:31.413749 11802 net.cpp:148] Top shape: 24 480 14 14 (2257920)
I0403 15:55:31.413764 11802 net.cpp:156] Memory required for data: 818271264
I0403 15:55:31.413779 11802 layer_factory.hpp:77] Creating layer pool3/3x3_s2_pool3/3x3_s2_0_split
I0403 15:55:31.413800 11802 net.cpp:91] Creating Layer pool3/3x3_s2_pool3/3x3_s2_0_split
I0403 15:55:31.413816 11802 net.cpp:425] pool3/3x3_s2_pool3/3x3_s2_0_split <- pool3/3x3_s2
I0403 15:55:31.413836 11802 net.cpp:399] pool3/3x3_s2_pool3/3x3_s2_0_split -> pool3/3x3_s2_pool3/3x3_s2_0_split_0
I0403 15:55:31.413858 11802 net.cpp:399] pool3/3x3_s2_pool3/3x3_s2_0_split -> pool3/3x3_s2_pool3/3x3_s2_0_split_1
I0403 15:55:31.413879 11802 net.cpp:399] pool3/3x3_s2_pool3/3x3_s2_0_split -> pool3/3x3_s2_pool3/3x3_s2_0_split_2
I0403 15:55:31.413900 11802 net.cpp:399] pool3/3x3_s2_pool3/3x3_s2_0_split -> pool3/3x3_s2_pool3/3x3_s2_0_split_3
I0403 15:55:31.413981 11802 net.cpp:141] Setting up pool3/3x3_s2_pool3/3x3_s2_0_split
I0403 15:55:31.414005 11802 net.cpp:148] Top shape: 24 480 14 14 (2257920)
I0403 15:55:31.414022 11802 net.cpp:148] Top shape: 24 480 14 14 (2257920)
I0403 15:55:31.414038 11802 net.cpp:148] Top shape: 24 480 14 14 (2257920)
I0403 15:55:31.414054 11802 net.cpp:148] Top shape: 24 480 14 14 (2257920)
I0403 15:55:31.414068 11802 net.cpp:156] Memory required for data: 854397984
I0403 15:55:31.414083 11802 layer_factory.hpp:77] Creating layer inception_4a/1x1
I0403 15:55:31.414106 11802 net.cpp:91] Creating Layer inception_4a/1x1
I0403 15:55:31.414124 11802 net.cpp:425] inception_4a/1x1 <- pool3/3x3_s2_pool3/3x3_s2_0_split_0
I0403 15:55:31.414146 11802 net.cpp:399] inception_4a/1x1 -> inception_4a/1x1
I0403 15:55:31.415757 11802 net.cpp:141] Setting up inception_4a/1x1
I0403 15:55:31.415786 11802 net.cpp:148] Top shape: 24 192 14 14 (903168)
I0403 15:55:31.415802 11802 net.cpp:156] Memory required for data: 858010656
I0403 15:55:31.415820 11802 layer_factory.hpp:77] Creating layer inception_4a/relu_1x1
I0403 15:55:31.415843 11802 net.cpp:91] Creating Layer inception_4a/relu_1x1
I0403 15:55:31.415860 11802 net.cpp:425] inception_4a/relu_1x1 <- inception_4a/1x1
I0403 15:55:31.415879 11802 net.cpp:386] inception_4a/relu_1x1 -> inception_4a/1x1 (in-place)
I0403 15:55:31.416065 11802 net.cpp:141] Setting up inception_4a/relu_1x1
I0403 15:55:31.416093 11802 net.cpp:148] Top shape: 24 192 14 14 (903168)
I0403 15:55:31.416110 11802 net.cpp:156] Memory required for data: 861623328
I0403 15:55:31.416126 11802 layer_factory.hpp:77] Creating layer inception_4a/3x3_reduce
I0403 15:55:31.416148 11802 net.cpp:91] Creating Layer inception_4a/3x3_reduce
I0403 15:55:31.416167 11802 net.cpp:425] inception_4a/3x3_reduce <- pool3/3x3_s2_pool3/3x3_s2_0_split_1
I0403 15:55:31.416185 11802 net.cpp:399] inception_4a/3x3_reduce -> inception_4a/3x3_reduce
I0403 15:55:31.417477 11802 net.cpp:141] Setting up inception_4a/3x3_reduce
I0403 15:55:31.417505 11802 net.cpp:148] Top shape: 24 96 14 14 (451584)
I0403 15:55:31.417522 11802 net.cpp:156] Memory required for data: 863429664
I0403 15:55:31.417551 11802 layer_factory.hpp:77] Creating layer inception_4a/relu_3x3_reduce
I0403 15:55:31.417574 11802 net.cpp:91] Creating Layer inception_4a/relu_3x3_reduce
I0403 15:55:31.417593 11802 net.cpp:425] inception_4a/relu_3x3_reduce <- inception_4a/3x3_reduce
I0403 15:55:31.417609 11802 net.cpp:386] inception_4a/relu_3x3_reduce -> inception_4a/3x3_reduce (in-place)
I0403 15:55:31.417785 11802 net.cpp:141] Setting up inception_4a/relu_3x3_reduce
I0403 15:55:31.417814 11802 net.cpp:148] Top shape: 24 96 14 14 (451584)
I0403 15:55:31.417829 11802 net.cpp:156] Memory required for data: 865236000
I0403 15:55:31.417845 11802 layer_factory.hpp:77] Creating layer inception_4a/3x3
I0403 15:55:31.417867 11802 net.cpp:91] Creating Layer inception_4a/3x3
I0403 15:55:31.417886 11802 net.cpp:425] inception_4a/3x3 <- inception_4a/3x3_reduce
I0403 15:55:31.417906 11802 net.cpp:399] inception_4a/3x3 -> inception_4a/3x3
I0403 15:55:31.420610 11802 net.cpp:141] Setting up inception_4a/3x3
I0403 15:55:31.420641 11802 net.cpp:148] Top shape: 24 208 14 14 (978432)
I0403 15:55:31.420658 11802 net.cpp:156] Memory required for data: 869149728
I0403 15:55:31.420678 11802 layer_factory.hpp:77] Creating layer inception_4a/relu_3x3
I0403 15:55:31.420696 11802 net.cpp:91] Creating Layer inception_4a/relu_3x3
I0403 15:55:31.420712 11802 net.cpp:425] inception_4a/relu_3x3 <- inception_4a/3x3
I0403 15:55:31.420732 11802 net.cpp:386] inception_4a/relu_3x3 -> inception_4a/3x3 (in-place)
I0403 15:55:31.421022 11802 net.cpp:141] Setting up inception_4a/relu_3x3
I0403 15:55:31.421051 11802 net.cpp:148] Top shape: 24 208 14 14 (978432)
I0403 15:55:31.421066 11802 net.cpp:156] Memory required for data: 873063456
I0403 15:55:31.421082 11802 layer_factory.hpp:77] Creating layer inception_4a/5x5_reduce
I0403 15:55:31.421105 11802 net.cpp:91] Creating Layer inception_4a/5x5_reduce
I0403 15:55:31.421123 11802 net.cpp:425] inception_4a/5x5_reduce <- pool3/3x3_s2_pool3/3x3_s2_0_split_2
I0403 15:55:31.421141 11802 net.cpp:399] inception_4a/5x5_reduce -> inception_4a/5x5_reduce
I0403 15:55:31.422158 11802 net.cpp:141] Setting up inception_4a/5x5_reduce
I0403 15:55:31.422186 11802 net.cpp:148] Top shape: 24 16 14 14 (75264)
I0403 15:55:31.422202 11802 net.cpp:156] Memory required for data: 873364512
I0403 15:55:31.422220 11802 layer_factory.hpp:77] Creating layer inception_4a/relu_5x5_reduce
I0403 15:55:31.422238 11802 net.cpp:91] Creating Layer inception_4a/relu_5x5_reduce
I0403 15:55:31.422255 11802 net.cpp:425] inception_4a/relu_5x5_reduce <- inception_4a/5x5_reduce
I0403 15:55:31.422274 11802 net.cpp:386] inception_4a/relu_5x5_reduce -> inception_4a/5x5_reduce (in-place)
I0403 15:55:31.422448 11802 net.cpp:141] Setting up inception_4a/relu_5x5_reduce
I0403 15:55:31.422474 11802 net.cpp:148] Top shape: 24 16 14 14 (75264)
I0403 15:55:31.422489 11802 net.cpp:156] Memory required for data: 873665568
I0403 15:55:31.422504 11802 layer_factory.hpp:77] Creating layer inception_4a/5x5
I0403 15:55:31.422526 11802 net.cpp:91] Creating Layer inception_4a/5x5
I0403 15:55:31.422544 11802 net.cpp:425] inception_4a/5x5 <- inception_4a/5x5_reduce
I0403 15:55:31.422564 11802 net.cpp:399] inception_4a/5x5 -> inception_4a/5x5
I0403 15:55:31.423637 11802 net.cpp:141] Setting up inception_4a/5x5
I0403 15:55:31.423666 11802 net.cpp:148] Top shape: 24 48 14 14 (225792)
I0403 15:55:31.423681 11802 net.cpp:156] Memory required for data: 874568736
I0403 15:55:31.423698 11802 layer_factory.hpp:77] Creating layer inception_4a/relu_5x5
I0403 15:55:31.423719 11802 net.cpp:91] Creating Layer inception_4a/relu_5x5
I0403 15:55:31.423737 11802 net.cpp:425] inception_4a/relu_5x5 <- inception_4a/5x5
I0403 15:55:31.423754 11802 net.cpp:386] inception_4a/relu_5x5 -> inception_4a/5x5 (in-place)
I0403 15:55:31.423928 11802 net.cpp:141] Setting up inception_4a/relu_5x5
I0403 15:55:31.423959 11802 net.cpp:148] Top shape: 24 48 14 14 (225792)
I0403 15:55:31.423975 11802 net.cpp:156] Memory required for data: 875471904
I0403 15:55:31.423990 11802 layer_factory.hpp:77] Creating layer inception_4a/pool
I0403 15:55:31.424008 11802 net.cpp:91] Creating Layer inception_4a/pool
I0403 15:55:31.424024 11802 net.cpp:425] inception_4a/pool <- pool3/3x3_s2_pool3/3x3_s2_0_split_3
I0403 15:55:31.424042 11802 net.cpp:399] inception_4a/pool -> inception_4a/pool
I0403 15:55:31.424108 11802 net.cpp:141] Setting up inception_4a/pool
I0403 15:55:31.424130 11802 net.cpp:148] Top shape: 24 480 14 14 (2257920)
I0403 15:55:31.424145 11802 net.cpp:156] Memory required for data: 884503584
I0403 15:55:31.424160 11802 layer_factory.hpp:77] Creating layer inception_4a/pool_proj
I0403 15:55:31.424181 11802 net.cpp:91] Creating Layer inception_4a/pool_proj
I0403 15:55:31.424201 11802 net.cpp:425] inception_4a/pool_proj <- inception_4a/pool
I0403 15:55:31.424221 11802 net.cpp:399] inception_4a/pool_proj -> inception_4a/pool_proj
I0403 15:55:31.425370 11802 net.cpp:141] Setting up inception_4a/pool_proj
I0403 15:55:31.425400 11802 net.cpp:148] Top shape: 24 64 14 14 (301056)
I0403 15:55:31.425431 11802 net.cpp:156] Memory required for data: 885707808
I0403 15:55:31.425451 11802 layer_factory.hpp:77] Creating layer inception_4a/relu_pool_proj
I0403 15:55:31.425473 11802 net.cpp:91] Creating Layer inception_4a/relu_pool_proj
I0403 15:55:31.425492 11802 net.cpp:425] inception_4a/relu_pool_proj <- inception_4a/pool_proj
I0403 15:55:31.425509 11802 net.cpp:386] inception_4a/relu_pool_proj -> inception_4a/pool_proj (in-place)
I0403 15:55:31.425788 11802 net.cpp:141] Setting up inception_4a/relu_pool_proj
I0403 15:55:31.425814 11802 net.cpp:148] Top shape: 24 64 14 14 (301056)
I0403 15:55:31.425830 11802 net.cpp:156] Memory required for data: 886912032
I0403 15:55:31.425845 11802 layer_factory.hpp:77] Creating layer inception_4a/output
I0403 15:55:31.425865 11802 net.cpp:91] Creating Layer inception_4a/output
I0403 15:55:31.425882 11802 net.cpp:425] inception_4a/output <- inception_4a/1x1
I0403 15:55:31.425899 11802 net.cpp:425] inception_4a/output <- inception_4a/3x3
I0403 15:55:31.425915 11802 net.cpp:425] inception_4a/output <- inception_4a/5x5
I0403 15:55:31.425931 11802 net.cpp:425] inception_4a/output <- inception_4a/pool_proj
I0403 15:55:31.425952 11802 net.cpp:399] inception_4a/output -> inception_4a/output
I0403 15:55:31.426000 11802 net.cpp:141] Setting up inception_4a/output
I0403 15:55:31.426023 11802 net.cpp:148] Top shape: 24 512 14 14 (2408448)
I0403 15:55:31.426038 11802 net.cpp:156] Memory required for data: 896545824
I0403 15:55:31.426054 11802 layer_factory.hpp:77] Creating layer inception_4a/output_inception_4a/output_0_split
I0403 15:55:31.426071 11802 net.cpp:91] Creating Layer inception_4a/output_inception_4a/output_0_split
I0403 15:55:31.426087 11802 net.cpp:425] inception_4a/output_inception_4a/output_0_split <- inception_4a/output
I0403 15:55:31.426108 11802 net.cpp:399] inception_4a/output_inception_4a/output_0_split -> inception_4a/output_inception_4a/output_0_split_0
I0403 15:55:31.426131 11802 net.cpp:399] inception_4a/output_inception_4a/output_0_split -> inception_4a/output_inception_4a/output_0_split_1
I0403 15:55:31.426151 11802 net.cpp:399] inception_4a/output_inception_4a/output_0_split -> inception_4a/output_inception_4a/output_0_split_2
I0403 15:55:31.426170 11802 net.cpp:399] inception_4a/output_inception_4a/output_0_split -> inception_4a/output_inception_4a/output_0_split_3
I0403 15:55:31.426193 11802 net.cpp:399] inception_4a/output_inception_4a/output_0_split -> inception_4a/output_inception_4a/output_0_split_4
I0403 15:55:31.426286 11802 net.cpp:141] Setting up inception_4a/output_inception_4a/output_0_split
I0403 15:55:31.426311 11802 net.cpp:148] Top shape: 24 512 14 14 (2408448)
I0403 15:55:31.426327 11802 net.cpp:148] Top shape: 24 512 14 14 (2408448)
I0403 15:55:31.426342 11802 net.cpp:148] Top shape: 24 512 14 14 (2408448)
I0403 15:55:31.426358 11802 net.cpp:148] Top shape: 24 512 14 14 (2408448)
I0403 15:55:31.426373 11802 net.cpp:148] Top shape: 24 512 14 14 (2408448)
I0403 15:55:31.426388 11802 net.cpp:156] Memory required for data: 944714784
I0403 15:55:31.426403 11802 layer_factory.hpp:77] Creating layer loss1/ave_pool
I0403 15:55:31.426419 11802 net.cpp:91] Creating Layer loss1/ave_pool
I0403 15:55:31.426436 11802 net.cpp:425] loss1/ave_pool <- inception_4a/output_inception_4a/output_0_split_0
I0403 15:55:31.426456 11802 net.cpp:399] loss1/ave_pool -> loss1/ave_pool
I0403 15:55:31.426658 11802 net.cpp:141] Setting up loss1/ave_pool
I0403 15:55:31.426684 11802 net.cpp:148] Top shape: 24 512 4 4 (196608)
I0403 15:55:31.426699 11802 net.cpp:156] Memory required for data: 945501216
I0403 15:55:31.426714 11802 layer_factory.hpp:77] Creating layer loss1/conv
I0403 15:55:31.426736 11802 net.cpp:91] Creating Layer loss1/conv
I0403 15:55:31.426755 11802 net.cpp:425] loss1/conv <- loss1/ave_pool
I0403 15:55:31.426774 11802 net.cpp:399] loss1/conv -> loss1/conv
I0403 15:55:31.428171 11802 net.cpp:141] Setting up loss1/conv
I0403 15:55:31.428201 11802 net.cpp:148] Top shape: 24 128 4 4 (49152)
I0403 15:55:31.428231 11802 net.cpp:156] Memory required for data: 945697824
I0403 15:55:31.428251 11802 layer_factory.hpp:77] Creating layer loss1/relu_conv
I0403 15:55:31.428269 11802 net.cpp:91] Creating Layer loss1/relu_conv
I0403 15:55:31.428285 11802 net.cpp:425] loss1/relu_conv <- loss1/conv
I0403 15:55:31.428305 11802 net.cpp:386] loss1/relu_conv -> loss1/conv (in-place)
I0403 15:55:31.428583 11802 net.cpp:141] Setting up loss1/relu_conv
I0403 15:55:31.428612 11802 net.cpp:148] Top shape: 24 128 4 4 (49152)
I0403 15:55:31.428627 11802 net.cpp:156] Memory required for data: 945894432
I0403 15:55:31.428642 11802 layer_factory.hpp:77] Creating layer loss1/fc
I0403 15:55:31.428665 11802 net.cpp:91] Creating Layer loss1/fc
I0403 15:55:31.428683 11802 net.cpp:425] loss1/fc <- loss1/conv
I0403 15:55:31.428704 11802 net.cpp:399] loss1/fc -> loss1/fc
I0403 15:55:31.447011 11802 net.cpp:141] Setting up loss1/fc
I0403 15:55:31.447049 11802 net.cpp:148] Top shape: 24 1024 (24576)
I0403 15:55:31.447067 11802 net.cpp:156] Memory required for data: 945992736
I0403 15:55:31.447085 11802 layer_factory.hpp:77] Creating layer loss1/relu_fc
I0403 15:55:31.447105 11802 net.cpp:91] Creating Layer loss1/relu_fc
I0403 15:55:31.447121 11802 net.cpp:425] loss1/relu_fc <- loss1/fc
I0403 15:55:31.447139 11802 net.cpp:386] loss1/relu_fc -> loss1/fc (in-place)
I0403 15:55:31.447329 11802 net.cpp:141] Setting up loss1/relu_fc
I0403 15:55:31.447356 11802 net.cpp:148] Top shape: 24 1024 (24576)
I0403 15:55:31.447372 11802 net.cpp:156] Memory required for data: 946091040
I0403 15:55:31.447388 11802 layer_factory.hpp:77] Creating layer loss1/drop_fc
I0403 15:55:31.447415 11802 net.cpp:91] Creating Layer loss1/drop_fc
I0403 15:55:31.447433 11802 net.cpp:425] loss1/drop_fc <- loss1/fc
I0403 15:55:31.447451 11802 net.cpp:386] loss1/drop_fc -> loss1/fc (in-place)
I0403 15:55:31.447518 11802 net.cpp:141] Setting up loss1/drop_fc
I0403 15:55:31.447543 11802 net.cpp:148] Top shape: 24 1024 (24576)
I0403 15:55:31.447558 11802 net.cpp:156] Memory required for data: 946189344
I0403 15:55:31.447574 11802 layer_factory.hpp:77] Creating layer loss1/classifier_plantvillage
I0403 15:55:31.447597 11802 net.cpp:91] Creating Layer loss1/classifier_plantvillage
I0403 15:55:31.447616 11802 net.cpp:425] loss1/classifier_plantvillage <- loss1/fc
I0403 15:55:31.447636 11802 net.cpp:399] loss1/classifier_plantvillage -> loss1/classifier_plantvillage
I0403 15:55:31.448619 11802 net.cpp:141] Setting up loss1/classifier_plantvillage
I0403 15:55:31.448650 11802 net.cpp:148] Top shape: 24 38 (912)
I0403 15:55:31.448668 11802 net.cpp:156] Memory required for data: 946192992
I0403 15:55:31.448686 11802 layer_factory.hpp:77] Creating layer loss1/classifier_plantvillage_loss1/classifier_plantvillage_0_split
I0403 15:55:31.448717 11802 net.cpp:91] Creating Layer loss1/classifier_plantvillage_loss1/classifier_plantvillage_0_split
I0403 15:55:31.448734 11802 net.cpp:425] loss1/classifier_plantvillage_loss1/classifier_plantvillage_0_split <- loss1/classifier_plantvillage
I0403 15:55:31.448751 11802 net.cpp:399] loss1/classifier_plantvillage_loss1/classifier_plantvillage_0_split -> loss1/classifier_plantvillage_loss1/classifier_plantvillage_0_split_0
I0403 15:55:31.448772 11802 net.cpp:399] loss1/classifier_plantvillage_loss1/classifier_plantvillage_0_split -> loss1/classifier_plantvillage_loss1/classifier_plantvillage_0_split_1
I0403 15:55:31.448796 11802 net.cpp:399] loss1/classifier_plantvillage_loss1/classifier_plantvillage_0_split -> loss1/classifier_plantvillage_loss1/classifier_plantvillage_0_split_2
I0403 15:55:31.448863 11802 net.cpp:141] Setting up loss1/classifier_plantvillage_loss1/classifier_plantvillage_0_split
I0403 15:55:31.448885 11802 net.cpp:148] Top shape: 24 38 (912)
I0403 15:55:31.448901 11802 net.cpp:148] Top shape: 24 38 (912)
I0403 15:55:31.448917 11802 net.cpp:148] Top shape: 24 38 (912)
I0403 15:55:31.448931 11802 net.cpp:156] Memory required for data: 946203936
I0403 15:55:31.448950 11802 layer_factory.hpp:77] Creating layer inception_4b/1x1
I0403 15:55:31.448971 11802 net.cpp:91] Creating Layer inception_4b/1x1
I0403 15:55:31.449005 11802 net.cpp:425] inception_4b/1x1 <- inception_4a/output_inception_4a/output_0_split_1
I0403 15:55:31.449028 11802 net.cpp:399] inception_4b/1x1 -> inception_4b/1x1
I0403 15:55:31.450670 11802 net.cpp:141] Setting up inception_4b/1x1
I0403 15:55:31.450697 11802 net.cpp:148] Top shape: 24 160 14 14 (752640)
I0403 15:55:31.450714 11802 net.cpp:156] Memory required for data: 949214496
I0403 15:55:31.450732 11802 layer_factory.hpp:77] Creating layer inception_4b/relu_1x1
I0403 15:55:31.450750 11802 net.cpp:91] Creating Layer inception_4b/relu_1x1
I0403 15:55:31.450767 11802 net.cpp:425] inception_4b/relu_1x1 <- inception_4b/1x1
I0403 15:55:31.450786 11802 net.cpp:386] inception_4b/relu_1x1 -> inception_4b/1x1 (in-place)
I0403 15:55:31.450970 11802 net.cpp:141] Setting up inception_4b/relu_1x1
I0403 15:55:31.450995 11802 net.cpp:148] Top shape: 24 160 14 14 (752640)
I0403 15:55:31.451010 11802 net.cpp:156] Memory required for data: 952225056
I0403 15:55:31.451025 11802 layer_factory.hpp:77] Creating layer inception_4b/3x3_reduce
I0403 15:55:31.451047 11802 net.cpp:91] Creating Layer inception_4b/3x3_reduce
I0403 15:55:31.451066 11802 net.cpp:425] inception_4b/3x3_reduce <- inception_4a/output_inception_4a/output_0_split_2
I0403 15:55:31.451086 11802 net.cpp:399] inception_4b/3x3_reduce -> inception_4b/3x3_reduce
I0403 15:55:31.452448 11802 net.cpp:141] Setting up inception_4b/3x3_reduce
I0403 15:55:31.452476 11802 net.cpp:148] Top shape: 24 112 14 14 (526848)
I0403 15:55:31.452492 11802 net.cpp:156] Memory required for data: 954332448
I0403 15:55:31.452510 11802 layer_factory.hpp:77] Creating layer inception_4b/relu_3x3_reduce
I0403 15:55:31.452533 11802 net.cpp:91] Creating Layer inception_4b/relu_3x3_reduce
I0403 15:55:31.452550 11802 net.cpp:425] inception_4b/relu_3x3_reduce <- inception_4b/3x3_reduce
I0403 15:55:31.452567 11802 net.cpp:386] inception_4b/relu_3x3_reduce -> inception_4b/3x3_reduce (in-place)
I0403 15:55:31.452852 11802 net.cpp:141] Setting up inception_4b/relu_3x3_reduce
I0403 15:55:31.452879 11802 net.cpp:148] Top shape: 24 112 14 14 (526848)
I0403 15:55:31.452894 11802 net.cpp:156] Memory required for data: 956439840
I0403 15:55:31.452909 11802 layer_factory.hpp:77] Creating layer inception_4b/3x3
I0403 15:55:31.452932 11802 net.cpp:91] Creating Layer inception_4b/3x3
I0403 15:55:31.452953 11802 net.cpp:425] inception_4b/3x3 <- inception_4b/3x3_reduce
I0403 15:55:31.452977 11802 net.cpp:399] inception_4b/3x3 -> inception_4b/3x3
I0403 15:55:31.455967 11802 net.cpp:141] Setting up inception_4b/3x3
I0403 15:55:31.455998 11802 net.cpp:148] Top shape: 24 224 14 14 (1053696)
I0403 15:55:31.456014 11802 net.cpp:156] Memory required for data: 960654624
I0403 15:55:31.456034 11802 layer_factory.hpp:77] Creating layer inception_4b/relu_3x3
I0403 15:55:31.456053 11802 net.cpp:91] Creating Layer inception_4b/relu_3x3
I0403 15:55:31.456068 11802 net.cpp:425] inception_4b/relu_3x3 <- inception_4b/3x3
I0403 15:55:31.456086 11802 net.cpp:386] inception_4b/relu_3x3 -> inception_4b/3x3 (in-place)
I0403 15:55:31.456269 11802 net.cpp:141] Setting up inception_4b/relu_3x3
I0403 15:55:31.456295 11802 net.cpp:148] Top shape: 24 224 14 14 (1053696)
I0403 15:55:31.456311 11802 net.cpp:156] Memory required for data: 964869408
I0403 15:55:31.456326 11802 layer_factory.hpp:77] Creating layer inception_4b/5x5_reduce
I0403 15:55:31.456348 11802 net.cpp:91] Creating Layer inception_4b/5x5_reduce
I0403 15:55:31.456367 11802 net.cpp:425] inception_4b/5x5_reduce <- inception_4a/output_inception_4a/output_0_split_3
I0403 15:55:31.456385 11802 net.cpp:399] inception_4b/5x5_reduce -> inception_4b/5x5_reduce
I0403 15:55:31.457464 11802 net.cpp:141] Setting up inception_4b/5x5_reduce
I0403 15:55:31.457492 11802 net.cpp:148] Top shape: 24 24 14 14 (112896)
I0403 15:55:31.457509 11802 net.cpp:156] Memory required for data: 965320992
I0403 15:55:31.457527 11802 layer_factory.hpp:77] Creating layer inception_4b/relu_5x5_reduce
I0403 15:55:31.457545 11802 net.cpp:91] Creating Layer inception_4b/relu_5x5_reduce
I0403 15:55:31.457578 11802 net.cpp:425] inception_4b/relu_5x5_reduce <- inception_4b/5x5_reduce
I0403 15:55:31.457597 11802 net.cpp:386] inception_4b/relu_5x5_reduce -> inception_4b/5x5_reduce (in-place)
I0403 15:55:31.457778 11802 net.cpp:141] Setting up inception_4b/relu_5x5_reduce
I0403 15:55:31.457803 11802 net.cpp:148] Top shape: 24 24 14 14 (112896)
I0403 15:55:31.457818 11802 net.cpp:156] Memory required for data: 965772576
I0403 15:55:31.457834 11802 layer_factory.hpp:77] Creating layer inception_4b/5x5
I0403 15:55:31.457855 11802 net.cpp:91] Creating Layer inception_4b/5x5
I0403 15:55:31.457873 11802 net.cpp:425] inception_4b/5x5 <- inception_4b/5x5_reduce
I0403 15:55:31.457895 11802 net.cpp:399] inception_4b/5x5 -> inception_4b/5x5
I0403 15:55:31.459136 11802 net.cpp:141] Setting up inception_4b/5x5
I0403 15:55:31.459164 11802 net.cpp:148] Top shape: 24 64 14 14 (301056)
I0403 15:55:31.459179 11802 net.cpp:156] Memory required for data: 966976800
I0403 15:55:31.459197 11802 layer_factory.hpp:77] Creating layer inception_4b/relu_5x5
I0403 15:55:31.459215 11802 net.cpp:91] Creating Layer inception_4b/relu_5x5
I0403 15:55:31.459233 11802 net.cpp:425] inception_4b/relu_5x5 <- inception_4b/5x5
I0403 15:55:31.459252 11802 net.cpp:386] inception_4b/relu_5x5 -> inception_4b/5x5 (in-place)
I0403 15:55:31.459535 11802 net.cpp:141] Setting up inception_4b/relu_5x5
I0403 15:55:31.459563 11802 net.cpp:148] Top shape: 24 64 14 14 (301056)
I0403 15:55:31.459578 11802 net.cpp:156] Memory required for data: 968181024
I0403 15:55:31.459592 11802 layer_factory.hpp:77] Creating layer inception_4b/pool
I0403 15:55:31.459610 11802 net.cpp:91] Creating Layer inception_4b/pool
I0403 15:55:31.459626 11802 net.cpp:425] inception_4b/pool <- inception_4a/output_inception_4a/output_0_split_4
I0403 15:55:31.459650 11802 net.cpp:399] inception_4b/pool -> inception_4b/pool
I0403 15:55:31.459717 11802 net.cpp:141] Setting up inception_4b/pool
I0403 15:55:31.459741 11802 net.cpp:148] Top shape: 24 512 14 14 (2408448)
I0403 15:55:31.459755 11802 net.cpp:156] Memory required for data: 977814816
I0403 15:55:31.459770 11802 layer_factory.hpp:77] Creating layer inception_4b/pool_proj
I0403 15:55:31.459794 11802 net.cpp:91] Creating Layer inception_4b/pool_proj
I0403 15:55:31.459811 11802 net.cpp:425] inception_4b/pool_proj <- inception_4b/pool
I0403 15:55:31.459830 11802 net.cpp:399] inception_4b/pool_proj -> inception_4b/pool_proj
I0403 15:55:31.461035 11802 net.cpp:141] Setting up inception_4b/pool_proj
I0403 15:55:31.461062 11802 net.cpp:148] Top shape: 24 64 14 14 (301056)
I0403 15:55:31.461077 11802 net.cpp:156] Memory required for data: 979019040
I0403 15:55:31.461097 11802 layer_factory.hpp:77] Creating layer inception_4b/relu_pool_proj
I0403 15:55:31.461114 11802 net.cpp:91] Creating Layer inception_4b/relu_pool_proj
I0403 15:55:31.461130 11802 net.cpp:425] inception_4b/relu_pool_proj <- inception_4b/pool_proj
I0403 15:55:31.461151 11802 net.cpp:386] inception_4b/relu_pool_proj -> inception_4b/pool_proj (in-place)
I0403 15:55:31.461330 11802 net.cpp:141] Setting up inception_4b/relu_pool_proj
I0403 15:55:31.461355 11802 net.cpp:148] Top shape: 24 64 14 14 (301056)
I0403 15:55:31.461370 11802 net.cpp:156] Memory required for data: 980223264
I0403 15:55:31.461385 11802 layer_factory.hpp:77] Creating layer inception_4b/output
I0403 15:55:31.461405 11802 net.cpp:91] Creating Layer inception_4b/output
I0403 15:55:31.461421 11802 net.cpp:425] inception_4b/output <- inception_4b/1x1
I0403 15:55:31.461439 11802 net.cpp:425] inception_4b/output <- inception_4b/3x3
I0403 15:55:31.461455 11802 net.cpp:425] inception_4b/output <- inception_4b/5x5
I0403 15:55:31.461472 11802 net.cpp:425] inception_4b/output <- inception_4b/pool_proj
I0403 15:55:31.461488 11802 net.cpp:399] inception_4b/output -> inception_4b/output
I0403 15:55:31.461534 11802 net.cpp:141] Setting up inception_4b/output
I0403 15:55:31.461557 11802 net.cpp:148] Top shape: 24 512 14 14 (2408448)
I0403 15:55:31.461571 11802 net.cpp:156] Memory required for data: 989857056
I0403 15:55:31.461601 11802 layer_factory.hpp:77] Creating layer inception_4b/output_inception_4b/output_0_split
I0403 15:55:31.461618 11802 net.cpp:91] Creating Layer inception_4b/output_inception_4b/output_0_split
I0403 15:55:31.461634 11802 net.cpp:425] inception_4b/output_inception_4b/output_0_split <- inception_4b/output
I0403 15:55:31.461654 11802 net.cpp:399] inception_4b/output_inception_4b/output_0_split -> inception_4b/output_inception_4b/output_0_split_0
I0403 15:55:31.461676 11802 net.cpp:399] inception_4b/output_inception_4b/output_0_split -> inception_4b/output_inception_4b/output_0_split_1
I0403 15:55:31.461697 11802 net.cpp:399] inception_4b/output_inception_4b/output_0_split -> inception_4b/output_inception_4b/output_0_split_2
I0403 15:55:31.461717 11802 net.cpp:399] inception_4b/output_inception_4b/output_0_split -> inception_4b/output_inception_4b/output_0_split_3
I0403 15:55:31.461801 11802 net.cpp:141] Setting up inception_4b/output_inception_4b/output_0_split
I0403 15:55:31.461827 11802 net.cpp:148] Top shape: 24 512 14 14 (2408448)
I0403 15:55:31.461843 11802 net.cpp:148] Top shape: 24 512 14 14 (2408448)
I0403 15:55:31.461859 11802 net.cpp:148] Top shape: 24 512 14 14 (2408448)
I0403 15:55:31.461875 11802 net.cpp:148] Top shape: 24 512 14 14 (2408448)
I0403 15:55:31.461889 11802 net.cpp:156] Memory required for data: 1028392224
I0403 15:55:31.461905 11802 layer_factory.hpp:77] Creating layer inception_4c/1x1
I0403 15:55:31.461927 11802 net.cpp:91] Creating Layer inception_4c/1x1
I0403 15:55:31.461946 11802 net.cpp:425] inception_4c/1x1 <- inception_4b/output_inception_4b/output_0_split_0
I0403 15:55:31.461969 11802 net.cpp:399] inception_4c/1x1 -> inception_4c/1x1
I0403 15:55:31.463408 11802 net.cpp:141] Setting up inception_4c/1x1
I0403 15:55:31.463436 11802 net.cpp:148] Top shape: 24 128 14 14 (602112)
I0403 15:55:31.463451 11802 net.cpp:156] Memory required for data: 1030800672
I0403 15:55:31.463469 11802 layer_factory.hpp:77] Creating layer inception_4c/relu_1x1
I0403 15:55:31.463493 11802 net.cpp:91] Creating Layer inception_4c/relu_1x1
I0403 15:55:31.463511 11802 net.cpp:425] inception_4c/relu_1x1 <- inception_4c/1x1
I0403 15:55:31.463528 11802 net.cpp:386] inception_4c/relu_1x1 -> inception_4c/1x1 (in-place)
I0403 15:55:31.463709 11802 net.cpp:141] Setting up inception_4c/relu_1x1
I0403 15:55:31.463737 11802 net.cpp:148] Top shape: 24 128 14 14 (602112)
I0403 15:55:31.463752 11802 net.cpp:156] Memory required for data: 1033209120
I0403 15:55:31.463768 11802 layer_factory.hpp:77] Creating layer inception_4c/3x3_reduce
I0403 15:55:31.463790 11802 net.cpp:91] Creating Layer inception_4c/3x3_reduce
I0403 15:55:31.463809 11802 net.cpp:425] inception_4c/3x3_reduce <- inception_4b/output_inception_4b/output_0_split_1
I0403 15:55:31.463827 11802 net.cpp:399] inception_4c/3x3_reduce -> inception_4c/3x3_reduce
I0403 15:55:31.465791 11802 net.cpp:141] Setting up inception_4c/3x3_reduce
I0403 15:55:31.465822 11802 net.cpp:148] Top shape: 24 128 14 14 (602112)
I0403 15:55:31.465838 11802 net.cpp:156] Memory required for data: 1035617568
I0403 15:55:31.465857 11802 layer_factory.hpp:77] Creating layer inception_4c/relu_3x3_reduce
I0403 15:55:31.465875 11802 net.cpp:91] Creating Layer inception_4c/relu_3x3_reduce
I0403 15:55:31.465891 11802 net.cpp:425] inception_4c/relu_3x3_reduce <- inception_4c/3x3_reduce
I0403 15:55:31.465911 11802 net.cpp:386] inception_4c/relu_3x3_reduce -> inception_4c/3x3_reduce (in-place)
I0403 15:55:31.466204 11802 net.cpp:141] Setting up inception_4c/relu_3x3_reduce
I0403 15:55:31.466233 11802 net.cpp:148] Top shape: 24 128 14 14 (602112)
I0403 15:55:31.466249 11802 net.cpp:156] Memory required for data: 1038026016
I0403 15:55:31.466264 11802 layer_factory.hpp:77] Creating layer inception_4c/3x3
I0403 15:55:31.466289 11802 net.cpp:91] Creating Layer inception_4c/3x3
I0403 15:55:31.466305 11802 net.cpp:425] inception_4c/3x3 <- inception_4c/3x3_reduce
I0403 15:55:31.466325 11802 net.cpp:399] inception_4c/3x3 -> inception_4c/3x3
I0403 15:55:31.469995 11802 net.cpp:141] Setting up inception_4c/3x3
I0403 15:55:31.470036 11802 net.cpp:148] Top shape: 24 256 14 14 (1204224)
I0403 15:55:31.470053 11802 net.cpp:156] Memory required for data: 1042842912
I0403 15:55:31.470085 11802 layer_factory.hpp:77] Creating layer inception_4c/relu_3x3
I0403 15:55:31.470106 11802 net.cpp:91] Creating Layer inception_4c/relu_3x3
I0403 15:55:31.470124 11802 net.cpp:425] inception_4c/relu_3x3 <- inception_4c/3x3
I0403 15:55:31.470144 11802 net.cpp:386] inception_4c/relu_3x3 -> inception_4c/3x3 (in-place)
I0403 15:55:31.470325 11802 net.cpp:141] Setting up inception_4c/relu_3x3
I0403 15:55:31.470350 11802 net.cpp:148] Top shape: 24 256 14 14 (1204224)
I0403 15:55:31.470366 11802 net.cpp:156] Memory required for data: 1047659808
I0403 15:55:31.470381 11802 layer_factory.hpp:77] Creating layer inception_4c/5x5_reduce
I0403 15:55:31.470404 11802 net.cpp:91] Creating Layer inception_4c/5x5_reduce
I0403 15:55:31.470422 11802 net.cpp:425] inception_4c/5x5_reduce <- inception_4b/output_inception_4b/output_0_split_2
I0403 15:55:31.470444 11802 net.cpp:399] inception_4c/5x5_reduce -> inception_4c/5x5_reduce
I0403 15:55:31.471540 11802 net.cpp:141] Setting up inception_4c/5x5_reduce
I0403 15:55:31.471568 11802 net.cpp:148] Top shape: 24 24 14 14 (112896)
I0403 15:55:31.471585 11802 net.cpp:156] Memory required for data: 1048111392
I0403 15:55:31.471603 11802 layer_factory.hpp:77] Creating layer inception_4c/relu_5x5_reduce
I0403 15:55:31.471621 11802 net.cpp:91] Creating Layer inception_4c/relu_5x5_reduce
I0403 15:55:31.471637 11802 net.cpp:425] inception_4c/relu_5x5_reduce <- inception_4c/5x5_reduce
I0403 15:55:31.471658 11802 net.cpp:386] inception_4c/relu_5x5_reduce -> inception_4c/5x5_reduce (in-place)
I0403 15:55:31.471843 11802 net.cpp:141] Setting up inception_4c/relu_5x5_reduce
I0403 15:55:31.471868 11802 net.cpp:148] Top shape: 24 24 14 14 (112896)
I0403 15:55:31.471882 11802 net.cpp:156] Memory required for data: 1048562976
I0403 15:55:31.471897 11802 layer_factory.hpp:77] Creating layer inception_4c/5x5
I0403 15:55:31.471920 11802 net.cpp:91] Creating Layer inception_4c/5x5
I0403 15:55:31.471936 11802 net.cpp:425] inception_4c/5x5 <- inception_4c/5x5_reduce
I0403 15:55:31.471962 11802 net.cpp:399] inception_4c/5x5 -> inception_4c/5x5
I0403 15:55:31.473209 11802 net.cpp:141] Setting up inception_4c/5x5
I0403 15:55:31.473237 11802 net.cpp:148] Top shape: 24 64 14 14 (301056)
I0403 15:55:31.473253 11802 net.cpp:156] Memory required for data: 1049767200
I0403 15:55:31.473271 11802 layer_factory.hpp:77] Creating layer inception_4c/relu_5x5
I0403 15:55:31.473292 11802 net.cpp:91] Creating Layer inception_4c/relu_5x5
I0403 15:55:31.473309 11802 net.cpp:425] inception_4c/relu_5x5 <- inception_4c/5x5
I0403 15:55:31.473327 11802 net.cpp:386] inception_4c/relu_5x5 -> inception_4c/5x5 (in-place)
I0403 15:55:31.473616 11802 net.cpp:141] Setting up inception_4c/relu_5x5
I0403 15:55:31.473642 11802 net.cpp:148] Top shape: 24 64 14 14 (301056)
I0403 15:55:31.473659 11802 net.cpp:156] Memory required for data: 1050971424
I0403 15:55:31.473673 11802 layer_factory.hpp:77] Creating layer inception_4c/pool
I0403 15:55:31.473695 11802 net.cpp:91] Creating Layer inception_4c/pool
I0403 15:55:31.473711 11802 net.cpp:425] inception_4c/pool <- inception_4b/output_inception_4b/output_0_split_3
I0403 15:55:31.473729 11802 net.cpp:399] inception_4c/pool -> inception_4c/pool
I0403 15:55:31.473799 11802 net.cpp:141] Setting up inception_4c/pool
I0403 15:55:31.473824 11802 net.cpp:148] Top shape: 24 512 14 14 (2408448)
I0403 15:55:31.473839 11802 net.cpp:156] Memory required for data: 1060605216
I0403 15:55:31.473853 11802 layer_factory.hpp:77] Creating layer inception_4c/pool_proj
I0403 15:55:31.473875 11802 net.cpp:91] Creating Layer inception_4c/pool_proj
I0403 15:55:31.473892 11802 net.cpp:425] inception_4c/pool_proj <- inception_4c/pool
I0403 15:55:31.473914 11802 net.cpp:399] inception_4c/pool_proj -> inception_4c/pool_proj
I0403 15:55:31.475136 11802 net.cpp:141] Setting up inception_4c/pool_proj
I0403 15:55:31.475163 11802 net.cpp:148] Top shape: 24 64 14 14 (301056)
I0403 15:55:31.475191 11802 net.cpp:156] Memory required for data: 1061809440
I0403 15:55:31.475214 11802 layer_factory.hpp:77] Creating layer inception_4c/relu_pool_proj
I0403 15:55:31.475231 11802 net.cpp:91] Creating Layer inception_4c/relu_pool_proj
I0403 15:55:31.475249 11802 net.cpp:425] inception_4c/relu_pool_proj <- inception_4c/pool_proj
I0403 15:55:31.475270 11802 net.cpp:386] inception_4c/relu_pool_proj -> inception_4c/pool_proj (in-place)
I0403 15:55:31.475453 11802 net.cpp:141] Setting up inception_4c/relu_pool_proj
I0403 15:55:31.475478 11802 net.cpp:148] Top shape: 24 64 14 14 (301056)
I0403 15:55:31.475493 11802 net.cpp:156] Memory required for data: 1063013664
I0403 15:55:31.475508 11802 layer_factory.hpp:77] Creating layer inception_4c/output
I0403 15:55:31.475528 11802 net.cpp:91] Creating Layer inception_4c/output
I0403 15:55:31.475544 11802 net.cpp:425] inception_4c/output <- inception_4c/1x1
I0403 15:55:31.475561 11802 net.cpp:425] inception_4c/output <- inception_4c/3x3
I0403 15:55:31.475577 11802 net.cpp:425] inception_4c/output <- inception_4c/5x5
I0403 15:55:31.475594 11802 net.cpp:425] inception_4c/output <- inception_4c/pool_proj
I0403 15:55:31.475610 11802 net.cpp:399] inception_4c/output -> inception_4c/output
I0403 15:55:31.475656 11802 net.cpp:141] Setting up inception_4c/output
I0403 15:55:31.475679 11802 net.cpp:148] Top shape: 24 512 14 14 (2408448)
I0403 15:55:31.475694 11802 net.cpp:156] Memory required for data: 1072647456
I0403 15:55:31.475709 11802 layer_factory.hpp:77] Creating layer inception_4c/output_inception_4c/output_0_split
I0403 15:55:31.475726 11802 net.cpp:91] Creating Layer inception_4c/output_inception_4c/output_0_split
I0403 15:55:31.475742 11802 net.cpp:425] inception_4c/output_inception_4c/output_0_split <- inception_4c/output
I0403 15:55:31.475762 11802 net.cpp:399] inception_4c/output_inception_4c/output_0_split -> inception_4c/output_inception_4c/output_0_split_0
I0403 15:55:31.475783 11802 net.cpp:399] inception_4c/output_inception_4c/output_0_split -> inception_4c/output_inception_4c/output_0_split_1
I0403 15:55:31.475805 11802 net.cpp:399] inception_4c/output_inception_4c/output_0_split -> inception_4c/output_inception_4c/output_0_split_2
I0403 15:55:31.475824 11802 net.cpp:399] inception_4c/output_inception_4c/output_0_split -> inception_4c/output_inception_4c/output_0_split_3
I0403 15:55:31.475908 11802 net.cpp:141] Setting up inception_4c/output_inception_4c/output_0_split
I0403 15:55:31.475935 11802 net.cpp:148] Top shape: 24 512 14 14 (2408448)
I0403 15:55:31.475957 11802 net.cpp:148] Top shape: 24 512 14 14 (2408448)
I0403 15:55:31.475975 11802 net.cpp:148] Top shape: 24 512 14 14 (2408448)
I0403 15:55:31.475991 11802 net.cpp:148] Top shape: 24 512 14 14 (2408448)
I0403 15:55:31.476004 11802 net.cpp:156] Memory required for data: 1111182624
I0403 15:55:31.476018 11802 layer_factory.hpp:77] Creating layer inception_4d/1x1
I0403 15:55:31.476042 11802 net.cpp:91] Creating Layer inception_4d/1x1
I0403 15:55:31.476059 11802 net.cpp:425] inception_4d/1x1 <- inception_4c/output_inception_4c/output_0_split_0
I0403 15:55:31.476078 11802 net.cpp:399] inception_4d/1x1 -> inception_4d/1x1
I0403 15:55:31.477454 11802 net.cpp:141] Setting up inception_4d/1x1
I0403 15:55:31.477484 11802 net.cpp:148] Top shape: 24 112 14 14 (526848)
I0403 15:55:31.477501 11802 net.cpp:156] Memory required for data: 1113290016
I0403 15:55:31.477520 11802 layer_factory.hpp:77] Creating layer inception_4d/relu_1x1
I0403 15:55:31.477540 11802 net.cpp:91] Creating Layer inception_4d/relu_1x1
I0403 15:55:31.477556 11802 net.cpp:425] inception_4d/relu_1x1 <- inception_4d/1x1
I0403 15:55:31.477572 11802 net.cpp:386] inception_4d/relu_1x1 -> inception_4d/1x1 (in-place)
I0403 15:55:31.477757 11802 net.cpp:141] Setting up inception_4d/relu_1x1
I0403 15:55:31.477782 11802 net.cpp:148] Top shape: 24 112 14 14 (526848)
I0403 15:55:31.477797 11802 net.cpp:156] Memory required for data: 1115397408
I0403 15:55:31.477812 11802 layer_factory.hpp:77] Creating layer inception_4d/3x3_reduce
I0403 15:55:31.477848 11802 net.cpp:91] Creating Layer inception_4d/3x3_reduce
I0403 15:55:31.477866 11802 net.cpp:425] inception_4d/3x3_reduce <- inception_4c/output_inception_4c/output_0_split_1
I0403 15:55:31.477887 11802 net.cpp:399] inception_4d/3x3_reduce -> inception_4d/3x3_reduce
I0403 15:55:31.479409 11802 net.cpp:141] Setting up inception_4d/3x3_reduce
I0403 15:55:31.479437 11802 net.cpp:148] Top shape: 24 144 14 14 (677376)
I0403 15:55:31.479452 11802 net.cpp:156] Memory required for data: 1118106912
I0403 15:55:31.479471 11802 layer_factory.hpp:77] Creating layer inception_4d/relu_3x3_reduce
I0403 15:55:31.479492 11802 net.cpp:91] Creating Layer inception_4d/relu_3x3_reduce
I0403 15:55:31.479509 11802 net.cpp:425] inception_4d/relu_3x3_reduce <- inception_4d/3x3_reduce
I0403 15:55:31.479527 11802 net.cpp:386] inception_4d/relu_3x3_reduce -> inception_4d/3x3_reduce (in-place)
I0403 15:55:31.479815 11802 net.cpp:141] Setting up inception_4d/relu_3x3_reduce
I0403 15:55:31.479840 11802 net.cpp:148] Top shape: 24 144 14 14 (677376)
I0403 15:55:31.479856 11802 net.cpp:156] Memory required for data: 1120816416
I0403 15:55:31.479871 11802 layer_factory.hpp:77] Creating layer inception_4d/3x3
I0403 15:55:31.479892 11802 net.cpp:91] Creating Layer inception_4d/3x3
I0403 15:55:31.479910 11802 net.cpp:425] inception_4d/3x3 <- inception_4d/3x3_reduce
I0403 15:55:31.479931 11802 net.cpp:399] inception_4d/3x3 -> inception_4d/3x3
I0403 15:55:31.484221 11802 net.cpp:141] Setting up inception_4d/3x3
I0403 15:55:31.484253 11802 net.cpp:148] Top shape: 24 288 14 14 (1354752)
I0403 15:55:31.484272 11802 net.cpp:156] Memory required for data: 1126235424
I0403 15:55:31.484290 11802 layer_factory.hpp:77] Creating layer inception_4d/relu_3x3
I0403 15:55:31.484308 11802 net.cpp:91] Creating Layer inception_4d/relu_3x3
I0403 15:55:31.484324 11802 net.cpp:425] inception_4d/relu_3x3 <- inception_4d/3x3
I0403 15:55:31.484344 11802 net.cpp:386] inception_4d/relu_3x3 -> inception_4d/3x3 (in-place)
I0403 15:55:31.484529 11802 net.cpp:141] Setting up inception_4d/relu_3x3
I0403 15:55:31.484554 11802 net.cpp:148] Top shape: 24 288 14 14 (1354752)
I0403 15:55:31.484568 11802 net.cpp:156] Memory required for data: 1131654432
I0403 15:55:31.484583 11802 layer_factory.hpp:77] Creating layer inception_4d/5x5_reduce
I0403 15:55:31.484606 11802 net.cpp:91] Creating Layer inception_4d/5x5_reduce
I0403 15:55:31.484623 11802 net.cpp:425] inception_4d/5x5_reduce <- inception_4c/output_inception_4c/output_0_split_2
I0403 15:55:31.484645 11802 net.cpp:399] inception_4d/5x5_reduce -> inception_4d/5x5_reduce
I0403 15:55:31.485792 11802 net.cpp:141] Setting up inception_4d/5x5_reduce
I0403 15:55:31.485822 11802 net.cpp:148] Top shape: 24 32 14 14 (150528)
I0403 15:55:31.485838 11802 net.cpp:156] Memory required for data: 1132256544
I0403 15:55:31.485857 11802 layer_factory.hpp:77] Creating layer inception_4d/relu_5x5_reduce
I0403 15:55:31.485875 11802 net.cpp:91] Creating Layer inception_4d/relu_5x5_reduce
I0403 15:55:31.485891 11802 net.cpp:425] inception_4d/relu_5x5_reduce <- inception_4d/5x5_reduce
I0403 15:55:31.485909 11802 net.cpp:386] inception_4d/relu_5x5_reduce -> inception_4d/5x5_reduce (in-place)
I0403 15:55:31.486127 11802 net.cpp:141] Setting up inception_4d/relu_5x5_reduce
I0403 15:55:31.486153 11802 net.cpp:148] Top shape: 24 32 14 14 (150528)
I0403 15:55:31.486168 11802 net.cpp:156] Memory required for data: 1132858656
I0403 15:55:31.486184 11802 layer_factory.hpp:77] Creating layer inception_4d/5x5
I0403 15:55:31.486207 11802 net.cpp:91] Creating Layer inception_4d/5x5
I0403 15:55:31.486227 11802 net.cpp:425] inception_4d/5x5 <- inception_4d/5x5_reduce
I0403 15:55:31.486248 11802 net.cpp:399] inception_4d/5x5 -> inception_4d/5x5
I0403 15:55:31.487767 11802 net.cpp:141] Setting up inception_4d/5x5
I0403 15:55:31.487797 11802 net.cpp:148] Top shape: 24 64 14 14 (301056)
I0403 15:55:31.487812 11802 net.cpp:156] Memory required for data: 1134062880
I0403 15:55:31.487833 11802 layer_factory.hpp:77] Creating layer inception_4d/relu_5x5
I0403 15:55:31.487869 11802 net.cpp:91] Creating Layer inception_4d/relu_5x5
I0403 15:55:31.487887 11802 net.cpp:425] inception_4d/relu_5x5 <- inception_4d/5x5
I0403 15:55:31.487905 11802 net.cpp:386] inception_4d/relu_5x5 -> inception_4d/5x5 (in-place)
I0403 15:55:31.488221 11802 net.cpp:141] Setting up inception_4d/relu_5x5
I0403 15:55:31.488248 11802 net.cpp:148] Top shape: 24 64 14 14 (301056)
I0403 15:55:31.488263 11802 net.cpp:156] Memory required for data: 1135267104
I0403 15:55:31.488279 11802 layer_factory.hpp:77] Creating layer inception_4d/pool
I0403 15:55:31.488301 11802 net.cpp:91] Creating Layer inception_4d/pool
I0403 15:55:31.488318 11802 net.cpp:425] inception_4d/pool <- inception_4c/output_inception_4c/output_0_split_3
I0403 15:55:31.488337 11802 net.cpp:399] inception_4d/pool -> inception_4d/pool
I0403 15:55:31.488404 11802 net.cpp:141] Setting up inception_4d/pool
I0403 15:55:31.488430 11802 net.cpp:148] Top shape: 24 512 14 14 (2408448)
I0403 15:55:31.488445 11802 net.cpp:156] Memory required for data: 1144900896
I0403 15:55:31.488461 11802 layer_factory.hpp:77] Creating layer inception_4d/pool_proj
I0403 15:55:31.488482 11802 net.cpp:91] Creating Layer inception_4d/pool_proj
I0403 15:55:31.488500 11802 net.cpp:425] inception_4d/pool_proj <- inception_4d/pool
I0403 15:55:31.488523 11802 net.cpp:399] inception_4d/pool_proj -> inception_4d/pool_proj
I0403 15:55:31.490350 11802 net.cpp:141] Setting up inception_4d/pool_proj
I0403 15:55:31.490382 11802 net.cpp:148] Top shape: 24 64 14 14 (301056)
I0403 15:55:31.490401 11802 net.cpp:156] Memory required for data: 1146105120
I0403 15:55:31.490420 11802 layer_factory.hpp:77] Creating layer inception_4d/relu_pool_proj
I0403 15:55:31.490439 11802 net.cpp:91] Creating Layer inception_4d/relu_pool_proj
I0403 15:55:31.490456 11802 net.cpp:425] inception_4d/relu_pool_proj <- inception_4d/pool_proj
I0403 15:55:31.490480 11802 net.cpp:386] inception_4d/relu_pool_proj -> inception_4d/pool_proj (in-place)
I0403 15:55:31.490669 11802 net.cpp:141] Setting up inception_4d/relu_pool_proj
I0403 15:55:31.490694 11802 net.cpp:148] Top shape: 24 64 14 14 (301056)
I0403 15:55:31.490710 11802 net.cpp:156] Memory required for data: 1147309344
I0403 15:55:31.490725 11802 layer_factory.hpp:77] Creating layer inception_4d/output
I0403 15:55:31.490743 11802 net.cpp:91] Creating Layer inception_4d/output
I0403 15:55:31.490758 11802 net.cpp:425] inception_4d/output <- inception_4d/1x1
I0403 15:55:31.490777 11802 net.cpp:425] inception_4d/output <- inception_4d/3x3
I0403 15:55:31.490793 11802 net.cpp:425] inception_4d/output <- inception_4d/5x5
I0403 15:55:31.490810 11802 net.cpp:425] inception_4d/output <- inception_4d/pool_proj
I0403 15:55:31.490829 11802 net.cpp:399] inception_4d/output -> inception_4d/output
I0403 15:55:31.490877 11802 net.cpp:141] Setting up inception_4d/output
I0403 15:55:31.490905 11802 net.cpp:148] Top shape: 24 528 14 14 (2483712)
I0403 15:55:31.490921 11802 net.cpp:156] Memory required for data: 1157244192
I0403 15:55:31.490942 11802 layer_factory.hpp:77] Creating layer inception_4d/output_inception_4d/output_0_split
I0403 15:55:31.490965 11802 net.cpp:91] Creating Layer inception_4d/output_inception_4d/output_0_split
I0403 15:55:31.490983 11802 net.cpp:425] inception_4d/output_inception_4d/output_0_split <- inception_4d/output
I0403 15:55:31.491003 11802 net.cpp:399] inception_4d/output_inception_4d/output_0_split -> inception_4d/output_inception_4d/output_0_split_0
I0403 15:55:31.491026 11802 net.cpp:399] inception_4d/output_inception_4d/output_0_split -> inception_4d/output_inception_4d/output_0_split_1
I0403 15:55:31.491047 11802 net.cpp:399] inception_4d/output_inception_4d/output_0_split -> inception_4d/output_inception_4d/output_0_split_2
I0403 15:55:31.491068 11802 net.cpp:399] inception_4d/output_inception_4d/output_0_split -> inception_4d/output_inception_4d/output_0_split_3
I0403 15:55:31.491089 11802 net.cpp:399] inception_4d/output_inception_4d/output_0_split -> inception_4d/output_inception_4d/output_0_split_4
I0403 15:55:31.491196 11802 net.cpp:141] Setting up inception_4d/output_inception_4d/output_0_split
I0403 15:55:31.491242 11802 net.cpp:148] Top shape: 24 528 14 14 (2483712)
I0403 15:55:31.491261 11802 net.cpp:148] Top shape: 24 528 14 14 (2483712)
I0403 15:55:31.491277 11802 net.cpp:148] Top shape: 24 528 14 14 (2483712)
I0403 15:55:31.491293 11802 net.cpp:148] Top shape: 24 528 14 14 (2483712)
I0403 15:55:31.491310 11802 net.cpp:148] Top shape: 24 528 14 14 (2483712)
I0403 15:55:31.491324 11802 net.cpp:156] Memory required for data: 1206918432
I0403 15:55:31.491339 11802 layer_factory.hpp:77] Creating layer loss2/ave_pool
I0403 15:55:31.491358 11802 net.cpp:91] Creating Layer loss2/ave_pool
I0403 15:55:31.491374 11802 net.cpp:425] loss2/ave_pool <- inception_4d/output_inception_4d/output_0_split_0
I0403 15:55:31.491394 11802 net.cpp:399] loss2/ave_pool -> loss2/ave_pool
I0403 15:55:31.491714 11802 net.cpp:141] Setting up loss2/ave_pool
I0403 15:55:31.491744 11802 net.cpp:148] Top shape: 24 528 4 4 (202752)
I0403 15:55:31.491760 11802 net.cpp:156] Memory required for data: 1207729440
I0403 15:55:31.491776 11802 layer_factory.hpp:77] Creating layer loss2/conv
I0403 15:55:31.491798 11802 net.cpp:91] Creating Layer loss2/conv
I0403 15:55:31.491817 11802 net.cpp:425] loss2/conv <- loss2/ave_pool
I0403 15:55:31.491837 11802 net.cpp:399] loss2/conv -> loss2/conv
I0403 15:55:31.493804 11802 net.cpp:141] Setting up loss2/conv
I0403 15:55:31.493834 11802 net.cpp:148] Top shape: 24 128 4 4 (49152)
I0403 15:55:31.493850 11802 net.cpp:156] Memory required for data: 1207926048
I0403 15:55:31.493870 11802 layer_factory.hpp:77] Creating layer loss2/relu_conv
I0403 15:55:31.493891 11802 net.cpp:91] Creating Layer loss2/relu_conv
I0403 15:55:31.493909 11802 net.cpp:425] loss2/relu_conv <- loss2/conv
I0403 15:55:31.493927 11802 net.cpp:386] loss2/relu_conv -> loss2/conv (in-place)
I0403 15:55:31.494227 11802 net.cpp:141] Setting up loss2/relu_conv
I0403 15:55:31.494254 11802 net.cpp:148] Top shape: 24 128 4 4 (49152)
I0403 15:55:31.494271 11802 net.cpp:156] Memory required for data: 1208122656
I0403 15:55:31.494287 11802 layer_factory.hpp:77] Creating layer loss2/fc
I0403 15:55:31.494307 11802 net.cpp:91] Creating Layer loss2/fc
I0403 15:55:31.494325 11802 net.cpp:425] loss2/fc <- loss2/conv
I0403 15:55:31.494345 11802 net.cpp:399] loss2/fc -> loss2/fc
I0403 15:55:31.512395 11802 net.cpp:141] Setting up loss2/fc
I0403 15:55:31.512433 11802 net.cpp:148] Top shape: 24 1024 (24576)
I0403 15:55:31.512447 11802 net.cpp:156] Memory required for data: 1208220960
I0403 15:55:31.512466 11802 layer_factory.hpp:77] Creating layer loss2/relu_fc
I0403 15:55:31.512485 11802 net.cpp:91] Creating Layer loss2/relu_fc
I0403 15:55:31.512502 11802 net.cpp:425] loss2/relu_fc <- loss2/fc
I0403 15:55:31.512522 11802 net.cpp:386] loss2/relu_fc -> loss2/fc (in-place)
I0403 15:55:31.512825 11802 net.cpp:141] Setting up loss2/relu_fc
I0403 15:55:31.512851 11802 net.cpp:148] Top shape: 24 1024 (24576)
I0403 15:55:31.512866 11802 net.cpp:156] Memory required for data: 1208319264
I0403 15:55:31.512882 11802 layer_factory.hpp:77] Creating layer loss2/drop_fc
I0403 15:55:31.512900 11802 net.cpp:91] Creating Layer loss2/drop_fc
I0403 15:55:31.512917 11802 net.cpp:425] loss2/drop_fc <- loss2/fc
I0403 15:55:31.512936 11802 net.cpp:386] loss2/drop_fc -> loss2/fc (in-place)
I0403 15:55:31.512990 11802 net.cpp:141] Setting up loss2/drop_fc
I0403 15:55:31.513013 11802 net.cpp:148] Top shape: 24 1024 (24576)
I0403 15:55:31.513031 11802 net.cpp:156] Memory required for data: 1208417568
I0403 15:55:31.513046 11802 layer_factory.hpp:77] Creating layer loss2/classifier_plantvillage
I0403 15:55:31.513064 11802 net.cpp:91] Creating Layer loss2/classifier_plantvillage
I0403 15:55:31.513082 11802 net.cpp:425] loss2/classifier_plantvillage <- loss2/fc
I0403 15:55:31.513106 11802 net.cpp:399] loss2/classifier_plantvillage -> loss2/classifier_plantvillage
I0403 15:55:31.513511 11802 net.cpp:141] Setting up loss2/classifier_plantvillage
I0403 15:55:31.513535 11802 net.cpp:148] Top shape: 24 38 (912)
I0403 15:55:31.513566 11802 net.cpp:156] Memory required for data: 1208421216
I0403 15:55:31.513586 11802 layer_factory.hpp:77] Creating layer loss2/classifier_plantvillage_loss2/classifier_plantvillage_0_split
I0403 15:55:31.513607 11802 net.cpp:91] Creating Layer loss2/classifier_plantvillage_loss2/classifier_plantvillage_0_split
I0403 15:55:31.513624 11802 net.cpp:425] loss2/classifier_plantvillage_loss2/classifier_plantvillage_0_split <- loss2/classifier_plantvillage
I0403 15:55:31.513643 11802 net.cpp:399] loss2/classifier_plantvillage_loss2/classifier_plantvillage_0_split -> loss2/classifier_plantvillage_loss2/classifier_plantvillage_0_split_0
I0403 15:55:31.513664 11802 net.cpp:399] loss2/classifier_plantvillage_loss2/classifier_plantvillage_0_split -> loss2/classifier_plantvillage_loss2/classifier_plantvillage_0_split_1
I0403 15:55:31.513684 11802 net.cpp:399] loss2/classifier_plantvillage_loss2/classifier_plantvillage_0_split -> loss2/classifier_plantvillage_loss2/classifier_plantvillage_0_split_2
I0403 15:55:31.513762 11802 net.cpp:141] Setting up loss2/classifier_plantvillage_loss2/classifier_plantvillage_0_split
I0403 15:55:31.513787 11802 net.cpp:148] Top shape: 24 38 (912)
I0403 15:55:31.513803 11802 net.cpp:148] Top shape: 24 38 (912)
I0403 15:55:31.513818 11802 net.cpp:148] Top shape: 24 38 (912)
I0403 15:55:31.513833 11802 net.cpp:156] Memory required for data: 1208432160
I0403 15:55:31.513847 11802 layer_factory.hpp:77] Creating layer inception_4e/1x1
I0403 15:55:31.513870 11802 net.cpp:91] Creating Layer inception_4e/1x1
I0403 15:55:31.513887 11802 net.cpp:425] inception_4e/1x1 <- inception_4d/output_inception_4d/output_0_split_1
I0403 15:55:31.513906 11802 net.cpp:399] inception_4e/1x1 -> inception_4e/1x1
I0403 15:55:31.515741 11802 net.cpp:141] Setting up inception_4e/1x1
I0403 15:55:31.515769 11802 net.cpp:148] Top shape: 24 256 14 14 (1204224)
I0403 15:55:31.515785 11802 net.cpp:156] Memory required for data: 1213249056
I0403 15:55:31.515805 11802 layer_factory.hpp:77] Creating layer inception_4e/relu_1x1
I0403 15:55:31.515825 11802 net.cpp:91] Creating Layer inception_4e/relu_1x1
I0403 15:55:31.515842 11802 net.cpp:425] inception_4e/relu_1x1 <- inception_4e/1x1
I0403 15:55:31.515861 11802 net.cpp:386] inception_4e/relu_1x1 -> inception_4e/1x1 (in-place)
I0403 15:55:31.516161 11802 net.cpp:141] Setting up inception_4e/relu_1x1
I0403 15:55:31.516187 11802 net.cpp:148] Top shape: 24 256 14 14 (1204224)
I0403 15:55:31.516204 11802 net.cpp:156] Memory required for data: 1218065952
I0403 15:55:31.516221 11802 layer_factory.hpp:77] Creating layer inception_4e/3x3_reduce
I0403 15:55:31.516243 11802 net.cpp:91] Creating Layer inception_4e/3x3_reduce
I0403 15:55:31.516260 11802 net.cpp:425] inception_4e/3x3_reduce <- inception_4d/output_inception_4d/output_0_split_2
I0403 15:55:31.516283 11802 net.cpp:399] inception_4e/3x3_reduce -> inception_4e/3x3_reduce
I0403 15:55:31.518421 11802 net.cpp:141] Setting up inception_4e/3x3_reduce
I0403 15:55:31.518450 11802 net.cpp:148] Top shape: 24 160 14 14 (752640)
I0403 15:55:31.518465 11802 net.cpp:156] Memory required for data: 1221076512
I0403 15:55:31.518484 11802 layer_factory.hpp:77] Creating layer inception_4e/relu_3x3_reduce
I0403 15:55:31.518503 11802 net.cpp:91] Creating Layer inception_4e/relu_3x3_reduce
I0403 15:55:31.518519 11802 net.cpp:425] inception_4e/relu_3x3_reduce <- inception_4e/3x3_reduce
I0403 15:55:31.518539 11802 net.cpp:386] inception_4e/relu_3x3_reduce -> inception_4e/3x3_reduce (in-place)
I0403 15:55:31.518724 11802 net.cpp:141] Setting up inception_4e/relu_3x3_reduce
I0403 15:55:31.518749 11802 net.cpp:148] Top shape: 24 160 14 14 (752640)
I0403 15:55:31.518765 11802 net.cpp:156] Memory required for data: 1224087072
I0403 15:55:31.518781 11802 layer_factory.hpp:77] Creating layer inception_4e/3x3
I0403 15:55:31.518803 11802 net.cpp:91] Creating Layer inception_4e/3x3
I0403 15:55:31.518821 11802 net.cpp:425] inception_4e/3x3 <- inception_4e/3x3_reduce
I0403 15:55:31.518841 11802 net.cpp:399] inception_4e/3x3 -> inception_4e/3x3
I0403 15:55:31.523875 11802 net.cpp:141] Setting up inception_4e/3x3
I0403 15:55:31.523919 11802 net.cpp:148] Top shape: 24 320 14 14 (1505280)
I0403 15:55:31.523936 11802 net.cpp:156] Memory required for data: 1230108192
I0403 15:55:31.523958 11802 layer_factory.hpp:77] Creating layer inception_4e/relu_3x3
I0403 15:55:31.523980 11802 net.cpp:91] Creating Layer inception_4e/relu_3x3
I0403 15:55:31.523998 11802 net.cpp:425] inception_4e/relu_3x3 <- inception_4e/3x3
I0403 15:55:31.524015 11802 net.cpp:386] inception_4e/relu_3x3 -> inception_4e/3x3 (in-place)
I0403 15:55:31.524317 11802 net.cpp:141] Setting up inception_4e/relu_3x3
I0403 15:55:31.524345 11802 net.cpp:148] Top shape: 24 320 14 14 (1505280)
I0403 15:55:31.524361 11802 net.cpp:156] Memory required for data: 1236129312
I0403 15:55:31.524376 11802 layer_factory.hpp:77] Creating layer inception_4e/5x5_reduce
I0403 15:55:31.524400 11802 net.cpp:91] Creating Layer inception_4e/5x5_reduce
I0403 15:55:31.524417 11802 net.cpp:425] inception_4e/5x5_reduce <- inception_4d/output_inception_4d/output_0_split_3
I0403 15:55:31.524437 11802 net.cpp:399] inception_4e/5x5_reduce -> inception_4e/5x5_reduce
I0403 15:55:31.525512 11802 net.cpp:141] Setting up inception_4e/5x5_reduce
I0403 15:55:31.525540 11802 net.cpp:148] Top shape: 24 32 14 14 (150528)
I0403 15:55:31.525557 11802 net.cpp:156] Memory required for data: 1236731424
I0403 15:55:31.525574 11802 layer_factory.hpp:77] Creating layer inception_4e/relu_5x5_reduce
I0403 15:55:31.525595 11802 net.cpp:91] Creating Layer inception_4e/relu_5x5_reduce
I0403 15:55:31.525612 11802 net.cpp:425] inception_4e/relu_5x5_reduce <- inception_4e/5x5_reduce
I0403 15:55:31.525630 11802 net.cpp:386] inception_4e/relu_5x5_reduce -> inception_4e/5x5_reduce (in-place)
I0403 15:55:31.525928 11802 net.cpp:141] Setting up inception_4e/relu_5x5_reduce
I0403 15:55:31.525959 11802 net.cpp:148] Top shape: 24 32 14 14 (150528)
I0403 15:55:31.525974 11802 net.cpp:156] Memory required for data: 1237333536
I0403 15:55:31.525990 11802 layer_factory.hpp:77] Creating layer inception_4e/5x5
I0403 15:55:31.526029 11802 net.cpp:91] Creating Layer inception_4e/5x5
I0403 15:55:31.526048 11802 net.cpp:425] inception_4e/5x5 <- inception_4e/5x5_reduce
I0403 15:55:31.526068 11802 net.cpp:399] inception_4e/5x5 -> inception_4e/5x5
I0403 15:55:31.527925 11802 net.cpp:141] Setting up inception_4e/5x5
I0403 15:55:31.527962 11802 net.cpp:148] Top shape: 24 128 14 14 (602112)
I0403 15:55:31.527981 11802 net.cpp:156] Memory required for data: 1239741984
I0403 15:55:31.527999 11802 layer_factory.hpp:77] Creating layer inception_4e/relu_5x5
I0403 15:55:31.528018 11802 net.cpp:91] Creating Layer inception_4e/relu_5x5
I0403 15:55:31.528034 11802 net.cpp:425] inception_4e/relu_5x5 <- inception_4e/5x5
I0403 15:55:31.528054 11802 net.cpp:386] inception_4e/relu_5x5 -> inception_4e/5x5 (in-place)
I0403 15:55:31.528250 11802 net.cpp:141] Setting up inception_4e/relu_5x5
I0403 15:55:31.528275 11802 net.cpp:148] Top shape: 24 128 14 14 (602112)
I0403 15:55:31.528290 11802 net.cpp:156] Memory required for data: 1242150432
I0403 15:55:31.528306 11802 layer_factory.hpp:77] Creating layer inception_4e/pool
I0403 15:55:31.528323 11802 net.cpp:91] Creating Layer inception_4e/pool
I0403 15:55:31.528339 11802 net.cpp:425] inception_4e/pool <- inception_4d/output_inception_4d/output_0_split_4
I0403 15:55:31.528359 11802 net.cpp:399] inception_4e/pool -> inception_4e/pool
I0403 15:55:31.528432 11802 net.cpp:141] Setting up inception_4e/pool
I0403 15:55:31.528455 11802 net.cpp:148] Top shape: 24 528 14 14 (2483712)
I0403 15:55:31.528470 11802 net.cpp:156] Memory required for data: 1252085280
I0403 15:55:31.528486 11802 layer_factory.hpp:77] Creating layer inception_4e/pool_proj
I0403 15:55:31.528507 11802 net.cpp:91] Creating Layer inception_4e/pool_proj
I0403 15:55:31.528525 11802 net.cpp:425] inception_4e/pool_proj <- inception_4e/pool
I0403 15:55:31.528547 11802 net.cpp:399] inception_4e/pool_proj -> inception_4e/pool_proj
I0403 15:55:31.530068 11802 net.cpp:141] Setting up inception_4e/pool_proj
I0403 15:55:31.530110 11802 net.cpp:148] Top shape: 24 128 14 14 (602112)
I0403 15:55:31.530128 11802 net.cpp:156] Memory required for data: 1254493728
I0403 15:55:31.530145 11802 layer_factory.hpp:77] Creating layer inception_4e/relu_pool_proj
I0403 15:55:31.530164 11802 net.cpp:91] Creating Layer inception_4e/relu_pool_proj
I0403 15:55:31.530179 11802 net.cpp:425] inception_4e/relu_pool_proj <- inception_4e/pool_proj
I0403 15:55:31.530200 11802 net.cpp:386] inception_4e/relu_pool_proj -> inception_4e/pool_proj (in-place)
I0403 15:55:31.530490 11802 net.cpp:141] Setting up inception_4e/relu_pool_proj
I0403 15:55:31.530519 11802 net.cpp:148] Top shape: 24 128 14 14 (602112)
I0403 15:55:31.530535 11802 net.cpp:156] Memory required for data: 1256902176
I0403 15:55:31.530550 11802 layer_factory.hpp:77] Creating layer inception_4e/output
I0403 15:55:31.530568 11802 net.cpp:91] Creating Layer inception_4e/output
I0403 15:55:31.530586 11802 net.cpp:425] inception_4e/output <- inception_4e/1x1
I0403 15:55:31.530602 11802 net.cpp:425] inception_4e/output <- inception_4e/3x3
I0403 15:55:31.530619 11802 net.cpp:425] inception_4e/output <- inception_4e/5x5
I0403 15:55:31.530635 11802 net.cpp:425] inception_4e/output <- inception_4e/pool_proj
I0403 15:55:31.530655 11802 net.cpp:399] inception_4e/output -> inception_4e/output
I0403 15:55:31.530704 11802 net.cpp:141] Setting up inception_4e/output
I0403 15:55:31.530727 11802 net.cpp:148] Top shape: 24 832 14 14 (3913728)
I0403 15:55:31.530742 11802 net.cpp:156] Memory required for data: 1272557088
I0403 15:55:31.530757 11802 layer_factory.hpp:77] Creating layer pool4/3x3_s2
I0403 15:55:31.530776 11802 net.cpp:91] Creating Layer pool4/3x3_s2
I0403 15:55:31.530793 11802 net.cpp:425] pool4/3x3_s2 <- inception_4e/output
I0403 15:55:31.530812 11802 net.cpp:399] pool4/3x3_s2 -> pool4/3x3_s2
I0403 15:55:31.530880 11802 net.cpp:141] Setting up pool4/3x3_s2
I0403 15:55:31.530905 11802 net.cpp:148] Top shape: 24 832 7 7 (978432)
I0403 15:55:31.530920 11802 net.cpp:156] Memory required for data: 1276470816
I0403 15:55:31.530933 11802 layer_factory.hpp:77] Creating layer pool4/3x3_s2_pool4/3x3_s2_0_split
I0403 15:55:31.530954 11802 net.cpp:91] Creating Layer pool4/3x3_s2_pool4/3x3_s2_0_split
I0403 15:55:31.530972 11802 net.cpp:425] pool4/3x3_s2_pool4/3x3_s2_0_split <- pool4/3x3_s2
I0403 15:55:31.530992 11802 net.cpp:399] pool4/3x3_s2_pool4/3x3_s2_0_split -> pool4/3x3_s2_pool4/3x3_s2_0_split_0
I0403 15:55:31.531013 11802 net.cpp:399] pool4/3x3_s2_pool4/3x3_s2_0_split -> pool4/3x3_s2_pool4/3x3_s2_0_split_1
I0403 15:55:31.531033 11802 net.cpp:399] pool4/3x3_s2_pool4/3x3_s2_0_split -> pool4/3x3_s2_pool4/3x3_s2_0_split_2
I0403 15:55:31.531054 11802 net.cpp:399] pool4/3x3_s2_pool4/3x3_s2_0_split -> pool4/3x3_s2_pool4/3x3_s2_0_split_3
I0403 15:55:31.531148 11802 net.cpp:141] Setting up pool4/3x3_s2_pool4/3x3_s2_0_split
I0403 15:55:31.531172 11802 net.cpp:148] Top shape: 24 832 7 7 (978432)
I0403 15:55:31.531188 11802 net.cpp:148] Top shape: 24 832 7 7 (978432)
I0403 15:55:31.531205 11802 net.cpp:148] Top shape: 24 832 7 7 (978432)
I0403 15:55:31.531220 11802 net.cpp:148] Top shape: 24 832 7 7 (978432)
I0403 15:55:31.531234 11802 net.cpp:156] Memory required for data: 1292125728
I0403 15:55:31.531250 11802 layer_factory.hpp:77] Creating layer inception_5a/1x1
I0403 15:55:31.531271 11802 net.cpp:91] Creating Layer inception_5a/1x1
I0403 15:55:31.531288 11802 net.cpp:425] inception_5a/1x1 <- pool4/3x3_s2_pool4/3x3_s2_0_split_0
I0403 15:55:31.531311 11802 net.cpp:399] inception_5a/1x1 -> inception_5a/1x1
I0403 15:55:31.534188 11802 net.cpp:141] Setting up inception_5a/1x1
I0403 15:55:31.534217 11802 net.cpp:148] Top shape: 24 256 7 7 (301056)
I0403 15:55:31.534234 11802 net.cpp:156] Memory required for data: 1293329952
I0403 15:55:31.534252 11802 layer_factory.hpp:77] Creating layer inception_5a/relu_1x1
I0403 15:55:31.534271 11802 net.cpp:91] Creating Layer inception_5a/relu_1x1
I0403 15:55:31.534286 11802 net.cpp:425] inception_5a/relu_1x1 <- inception_5a/1x1
I0403 15:55:31.534307 11802 net.cpp:386] inception_5a/relu_1x1 -> inception_5a/1x1 (in-place)
I0403 15:55:31.534620 11802 net.cpp:141] Setting up inception_5a/relu_1x1
I0403 15:55:31.534646 11802 net.cpp:148] Top shape: 24 256 7 7 (301056)
I0403 15:55:31.534662 11802 net.cpp:156] Memory required for data: 1294534176
I0403 15:55:31.534677 11802 layer_factory.hpp:77] Creating layer inception_5a/3x3_reduce
I0403 15:55:31.534699 11802 net.cpp:91] Creating Layer inception_5a/3x3_reduce
I0403 15:55:31.534718 11802 net.cpp:425] inception_5a/3x3_reduce <- pool4/3x3_s2_pool4/3x3_s2_0_split_1
I0403 15:55:31.534739 11802 net.cpp:399] inception_5a/3x3_reduce -> inception_5a/3x3_reduce
I0403 15:55:31.537250 11802 net.cpp:141] Setting up inception_5a/3x3_reduce
I0403 15:55:31.537279 11802 net.cpp:148] Top shape: 24 160 7 7 (188160)
I0403 15:55:31.537295 11802 net.cpp:156] Memory required for data: 1295286816
I0403 15:55:31.537313 11802 layer_factory.hpp:77] Creating layer inception_5a/relu_3x3_reduce
I0403 15:55:31.537334 11802 net.cpp:91] Creating Layer inception_5a/relu_3x3_reduce
I0403 15:55:31.537351 11802 net.cpp:425] inception_5a/relu_3x3_reduce <- inception_5a/3x3_reduce
I0403 15:55:31.537370 11802 net.cpp:386] inception_5a/relu_3x3_reduce -> inception_5a/3x3_reduce (in-place)
I0403 15:55:31.537559 11802 net.cpp:141] Setting up inception_5a/relu_3x3_reduce
I0403 15:55:31.537585 11802 net.cpp:148] Top shape: 24 160 7 7 (188160)
I0403 15:55:31.537600 11802 net.cpp:156] Memory required for data: 1296039456
I0403 15:55:31.537613 11802 layer_factory.hpp:77] Creating layer inception_5a/3x3
I0403 15:55:31.537636 11802 net.cpp:91] Creating Layer inception_5a/3x3
I0403 15:55:31.537654 11802 net.cpp:425] inception_5a/3x3 <- inception_5a/3x3_reduce
I0403 15:55:31.537677 11802 net.cpp:399] inception_5a/3x3 -> inception_5a/3x3
I0403 15:55:31.542762 11802 net.cpp:141] Setting up inception_5a/3x3
I0403 15:55:31.542791 11802 net.cpp:148] Top shape: 24 320 7 7 (376320)
I0403 15:55:31.542807 11802 net.cpp:156] Memory required for data: 1297544736
I0403 15:55:31.542826 11802 layer_factory.hpp:77] Creating layer inception_5a/relu_3x3
I0403 15:55:31.542845 11802 net.cpp:91] Creating Layer inception_5a/relu_3x3
I0403 15:55:31.542861 11802 net.cpp:425] inception_5a/relu_3x3 <- inception_5a/3x3
I0403 15:55:31.542881 11802 net.cpp:386] inception_5a/relu_3x3 -> inception_5a/3x3 (in-place)
I0403 15:55:31.543185 11802 net.cpp:141] Setting up inception_5a/relu_3x3
I0403 15:55:31.543212 11802 net.cpp:148] Top shape: 24 320 7 7 (376320)
I0403 15:55:31.543228 11802 net.cpp:156] Memory required for data: 1299050016
I0403 15:55:31.543246 11802 layer_factory.hpp:77] Creating layer inception_5a/5x5_reduce
I0403 15:55:31.543269 11802 net.cpp:91] Creating Layer inception_5a/5x5_reduce
I0403 15:55:31.543288 11802 net.cpp:425] inception_5a/5x5_reduce <- pool4/3x3_s2_pool4/3x3_s2_0_split_2
I0403 15:55:31.543309 11802 net.cpp:399] inception_5a/5x5_reduce -> inception_5a/5x5_reduce
I0403 15:55:31.544489 11802 net.cpp:141] Setting up inception_5a/5x5_reduce
I0403 15:55:31.544518 11802 net.cpp:148] Top shape: 24 32 7 7 (37632)
I0403 15:55:31.544533 11802 net.cpp:156] Memory required for data: 1299200544
I0403 15:55:31.544553 11802 layer_factory.hpp:77] Creating layer inception_5a/relu_5x5_reduce
I0403 15:55:31.544574 11802 net.cpp:91] Creating Layer inception_5a/relu_5x5_reduce
I0403 15:55:31.544590 11802 net.cpp:425] inception_5a/relu_5x5_reduce <- inception_5a/5x5_reduce
I0403 15:55:31.544608 11802 net.cpp:386] inception_5a/relu_5x5_reduce -> inception_5a/5x5_reduce (in-place)
I0403 15:55:31.544912 11802 net.cpp:141] Setting up inception_5a/relu_5x5_reduce
I0403 15:55:31.544939 11802 net.cpp:148] Top shape: 24 32 7 7 (37632)
I0403 15:55:31.544972 11802 net.cpp:156] Memory required for data: 1299351072
I0403 15:55:31.544991 11802 layer_factory.hpp:77] Creating layer inception_5a/5x5
I0403 15:55:31.545016 11802 net.cpp:91] Creating Layer inception_5a/5x5
I0403 15:55:31.545033 11802 net.cpp:425] inception_5a/5x5 <- inception_5a/5x5_reduce
I0403 15:55:31.545056 11802 net.cpp:399] inception_5a/5x5 -> inception_5a/5x5
I0403 15:55:31.546846 11802 net.cpp:141] Setting up inception_5a/5x5
I0403 15:55:31.546890 11802 net.cpp:148] Top shape: 24 128 7 7 (150528)
I0403 15:55:31.546907 11802 net.cpp:156] Memory required for data: 1299953184
I0403 15:55:31.546926 11802 layer_factory.hpp:77] Creating layer inception_5a/relu_5x5
I0403 15:55:31.546949 11802 net.cpp:91] Creating Layer inception_5a/relu_5x5
I0403 15:55:31.546967 11802 net.cpp:425] inception_5a/relu_5x5 <- inception_5a/5x5
I0403 15:55:31.546988 11802 net.cpp:386] inception_5a/relu_5x5 -> inception_5a/5x5 (in-place)
I0403 15:55:31.547186 11802 net.cpp:141] Setting up inception_5a/relu_5x5
I0403 15:55:31.547214 11802 net.cpp:148] Top shape: 24 128 7 7 (150528)
I0403 15:55:31.547229 11802 net.cpp:156] Memory required for data: 1300555296
I0403 15:55:31.547243 11802 layer_factory.hpp:77] Creating layer inception_5a/pool
I0403 15:55:31.547263 11802 net.cpp:91] Creating Layer inception_5a/pool
I0403 15:55:31.547282 11802 net.cpp:425] inception_5a/pool <- pool4/3x3_s2_pool4/3x3_s2_0_split_3
I0403 15:55:31.547300 11802 net.cpp:399] inception_5a/pool -> inception_5a/pool
I0403 15:55:31.547375 11802 net.cpp:141] Setting up inception_5a/pool
I0403 15:55:31.547400 11802 net.cpp:148] Top shape: 24 832 7 7 (978432)
I0403 15:55:31.547416 11802 net.cpp:156] Memory required for data: 1304469024
I0403 15:55:31.547431 11802 layer_factory.hpp:77] Creating layer inception_5a/pool_proj
I0403 15:55:31.547454 11802 net.cpp:91] Creating Layer inception_5a/pool_proj
I0403 15:55:31.547472 11802 net.cpp:425] inception_5a/pool_proj <- inception_5a/pool
I0403 15:55:31.547494 11802 net.cpp:399] inception_5a/pool_proj -> inception_5a/pool_proj
I0403 15:55:31.549899 11802 net.cpp:141] Setting up inception_5a/pool_proj
I0403 15:55:31.549937 11802 net.cpp:148] Top shape: 24 128 7 7 (150528)
I0403 15:55:31.549962 11802 net.cpp:156] Memory required for data: 1305071136
I0403 15:55:31.549981 11802 layer_factory.hpp:77] Creating layer inception_5a/relu_pool_proj
I0403 15:55:31.550001 11802 net.cpp:91] Creating Layer inception_5a/relu_pool_proj
I0403 15:55:31.550019 11802 net.cpp:425] inception_5a/relu_pool_proj <- inception_5a/pool_proj
I0403 15:55:31.550040 11802 net.cpp:386] inception_5a/relu_pool_proj -> inception_5a/pool_proj (in-place)
I0403 15:55:31.550357 11802 net.cpp:141] Setting up inception_5a/relu_pool_proj
I0403 15:55:31.550387 11802 net.cpp:148] Top shape: 24 128 7 7 (150528)
I0403 15:55:31.550403 11802 net.cpp:156] Memory required for data: 1305673248
I0403 15:55:31.550420 11802 layer_factory.hpp:77] Creating layer inception_5a/output
I0403 15:55:31.550437 11802 net.cpp:91] Creating Layer inception_5a/output
I0403 15:55:31.550454 11802 net.cpp:425] inception_5a/output <- inception_5a/1x1
I0403 15:55:31.550472 11802 net.cpp:425] inception_5a/output <- inception_5a/3x3
I0403 15:55:31.550490 11802 net.cpp:425] inception_5a/output <- inception_5a/5x5
I0403 15:55:31.550506 11802 net.cpp:425] inception_5a/output <- inception_5a/pool_proj
I0403 15:55:31.550524 11802 net.cpp:399] inception_5a/output -> inception_5a/output
I0403 15:55:31.550580 11802 net.cpp:141] Setting up inception_5a/output
I0403 15:55:31.550603 11802 net.cpp:148] Top shape: 24 832 7 7 (978432)
I0403 15:55:31.550619 11802 net.cpp:156] Memory required for data: 1309586976
I0403 15:55:31.550636 11802 layer_factory.hpp:77] Creating layer inception_5a/output_inception_5a/output_0_split
I0403 15:55:31.550654 11802 net.cpp:91] Creating Layer inception_5a/output_inception_5a/output_0_split
I0403 15:55:31.550671 11802 net.cpp:425] inception_5a/output_inception_5a/output_0_split <- inception_5a/output
I0403 15:55:31.550689 11802 net.cpp:399] inception_5a/output_inception_5a/output_0_split -> inception_5a/output_inception_5a/output_0_split_0
I0403 15:55:31.550711 11802 net.cpp:399] inception_5a/output_inception_5a/output_0_split -> inception_5a/output_inception_5a/output_0_split_1
I0403 15:55:31.550732 11802 net.cpp:399] inception_5a/output_inception_5a/output_0_split -> inception_5a/output_inception_5a/output_0_split_2
I0403 15:55:31.550756 11802 net.cpp:399] inception_5a/output_inception_5a/output_0_split -> inception_5a/output_inception_5a/output_0_split_3
I0403 15:55:31.550873 11802 net.cpp:141] Setting up inception_5a/output_inception_5a/output_0_split
I0403 15:55:31.550897 11802 net.cpp:148] Top shape: 24 832 7 7 (978432)
I0403 15:55:31.550915 11802 net.cpp:148] Top shape: 24 832 7 7 (978432)
I0403 15:55:31.550930 11802 net.cpp:148] Top shape: 24 832 7 7 (978432)
I0403 15:55:31.550951 11802 net.cpp:148] Top shape: 24 832 7 7 (978432)
I0403 15:55:31.550968 11802 net.cpp:156] Memory required for data: 1325241888
I0403 15:55:31.550983 11802 layer_factory.hpp:77] Creating layer inception_5b/1x1
I0403 15:55:31.551007 11802 net.cpp:91] Creating Layer inception_5b/1x1
I0403 15:55:31.551025 11802 net.cpp:425] inception_5b/1x1 <- inception_5a/output_inception_5a/output_0_split_0
I0403 15:55:31.551048 11802 net.cpp:399] inception_5b/1x1 -> inception_5b/1x1
I0403 15:55:31.554955 11802 net.cpp:141] Setting up inception_5b/1x1
I0403 15:55:31.554986 11802 net.cpp:148] Top shape: 24 384 7 7 (451584)
I0403 15:55:31.555003 11802 net.cpp:156] Memory required for data: 1327048224
I0403 15:55:31.555025 11802 layer_factory.hpp:77] Creating layer inception_5b/relu_1x1
I0403 15:55:31.555045 11802 net.cpp:91] Creating Layer inception_5b/relu_1x1
I0403 15:55:31.555063 11802 net.cpp:425] inception_5b/relu_1x1 <- inception_5b/1x1
I0403 15:55:31.555080 11802 net.cpp:386] inception_5b/relu_1x1 -> inception_5b/1x1 (in-place)
I0403 15:55:31.555393 11802 net.cpp:141] Setting up inception_5b/relu_1x1
I0403 15:55:31.555420 11802 net.cpp:148] Top shape: 24 384 7 7 (451584)
I0403 15:55:31.555436 11802 net.cpp:156] Memory required for data: 1328854560
I0403 15:55:31.555452 11802 layer_factory.hpp:77] Creating layer inception_5b/3x3_reduce
I0403 15:55:31.555476 11802 net.cpp:91] Creating Layer inception_5b/3x3_reduce
I0403 15:55:31.555496 11802 net.cpp:425] inception_5b/3x3_reduce <- inception_5a/output_inception_5a/output_0_split_1
I0403 15:55:31.555516 11802 net.cpp:399] inception_5b/3x3_reduce -> inception_5b/3x3_reduce
I0403 15:55:31.558303 11802 net.cpp:141] Setting up inception_5b/3x3_reduce
I0403 15:55:31.558336 11802 net.cpp:148] Top shape: 24 192 7 7 (225792)
I0403 15:55:31.558353 11802 net.cpp:156] Memory required for data: 1329757728
I0403 15:55:31.558372 11802 layer_factory.hpp:77] Creating layer inception_5b/relu_3x3_reduce
I0403 15:55:31.558393 11802 net.cpp:91] Creating Layer inception_5b/relu_3x3_reduce
I0403 15:55:31.558409 11802 net.cpp:425] inception_5b/relu_3x3_reduce <- inception_5b/3x3_reduce
I0403 15:55:31.558429 11802 net.cpp:386] inception_5b/relu_3x3_reduce -> inception_5b/3x3_reduce (in-place)
I0403 15:55:31.558627 11802 net.cpp:141] Setting up inception_5b/relu_3x3_reduce
I0403 15:55:31.558653 11802 net.cpp:148] Top shape: 24 192 7 7 (225792)
I0403 15:55:31.558668 11802 net.cpp:156] Memory required for data: 1330660896
I0403 15:55:31.558684 11802 layer_factory.hpp:77] Creating layer inception_5b/3x3
I0403 15:55:31.558706 11802 net.cpp:91] Creating Layer inception_5b/3x3
I0403 15:55:31.558725 11802 net.cpp:425] inception_5b/3x3 <- inception_5b/3x3_reduce
I0403 15:55:31.558748 11802 net.cpp:399] inception_5b/3x3 -> inception_5b/3x3
I0403 15:55:31.565661 11802 net.cpp:141] Setting up inception_5b/3x3
I0403 15:55:31.565693 11802 net.cpp:148] Top shape: 24 384 7 7 (451584)
I0403 15:55:31.565711 11802 net.cpp:156] Memory required for data: 1332467232
I0403 15:55:31.565729 11802 layer_factory.hpp:77] Creating layer inception_5b/relu_3x3
I0403 15:55:31.565748 11802 net.cpp:91] Creating Layer inception_5b/relu_3x3
I0403 15:55:31.565764 11802 net.cpp:425] inception_5b/relu_3x3 <- inception_5b/3x3
I0403 15:55:31.565784 11802 net.cpp:386] inception_5b/relu_3x3 -> inception_5b/3x3 (in-place)
I0403 15:55:31.566087 11802 net.cpp:141] Setting up inception_5b/relu_3x3
I0403 15:55:31.566115 11802 net.cpp:148] Top shape: 24 384 7 7 (451584)
I0403 15:55:31.566131 11802 net.cpp:156] Memory required for data: 1334273568
I0403 15:55:31.566148 11802 layer_factory.hpp:77] Creating layer inception_5b/5x5_reduce
I0403 15:55:31.566184 11802 net.cpp:91] Creating Layer inception_5b/5x5_reduce
I0403 15:55:31.566205 11802 net.cpp:425] inception_5b/5x5_reduce <- inception_5a/output_inception_5a/output_0_split_2
I0403 15:55:31.566231 11802 net.cpp:399] inception_5b/5x5_reduce -> inception_5b/5x5_reduce
I0403 15:55:31.567509 11802 net.cpp:141] Setting up inception_5b/5x5_reduce
I0403 15:55:31.567538 11802 net.cpp:148] Top shape: 24 48 7 7 (56448)
I0403 15:55:31.567555 11802 net.cpp:156] Memory required for data: 1334499360
I0403 15:55:31.567574 11802 layer_factory.hpp:77] Creating layer inception_5b/relu_5x5_reduce
I0403 15:55:31.567594 11802 net.cpp:91] Creating Layer inception_5b/relu_5x5_reduce
I0403 15:55:31.567610 11802 net.cpp:425] inception_5b/relu_5x5_reduce <- inception_5b/5x5_reduce
I0403 15:55:31.567630 11802 net.cpp:386] inception_5b/relu_5x5_reduce -> inception_5b/5x5_reduce (in-place)
I0403 15:55:31.568012 11802 net.cpp:141] Setting up inception_5b/relu_5x5_reduce
I0403 15:55:31.568039 11802 net.cpp:148] Top shape: 24 48 7 7 (56448)
I0403 15:55:31.568054 11802 net.cpp:156] Memory required for data: 1334725152
I0403 15:55:31.568070 11802 layer_factory.hpp:77] Creating layer inception_5b/5x5
I0403 15:55:31.568090 11802 net.cpp:91] Creating Layer inception_5b/5x5
I0403 15:55:31.568109 11802 net.cpp:425] inception_5b/5x5 <- inception_5b/5x5_reduce
I0403 15:55:31.568127 11802 net.cpp:399] inception_5b/5x5 -> inception_5b/5x5
I0403 15:55:31.570267 11802 net.cpp:141] Setting up inception_5b/5x5
I0403 15:55:31.570294 11802 net.cpp:148] Top shape: 24 128 7 7 (150528)
I0403 15:55:31.570310 11802 net.cpp:156] Memory required for data: 1335327264
I0403 15:55:31.570328 11802 layer_factory.hpp:77] Creating layer inception_5b/relu_5x5
I0403 15:55:31.570346 11802 net.cpp:91] Creating Layer inception_5b/relu_5x5
I0403 15:55:31.570363 11802 net.cpp:425] inception_5b/relu_5x5 <- inception_5b/5x5
I0403 15:55:31.570381 11802 net.cpp:386] inception_5b/relu_5x5 -> inception_5b/5x5 (in-place)
I0403 15:55:31.570571 11802 net.cpp:141] Setting up inception_5b/relu_5x5
I0403 15:55:31.570595 11802 net.cpp:148] Top shape: 24 128 7 7 (150528)
I0403 15:55:31.570610 11802 net.cpp:156] Memory required for data: 1335929376
I0403 15:55:31.570624 11802 layer_factory.hpp:77] Creating layer inception_5b/pool
I0403 15:55:31.570644 11802 net.cpp:91] Creating Layer inception_5b/pool
I0403 15:55:31.570662 11802 net.cpp:425] inception_5b/pool <- inception_5a/output_inception_5a/output_0_split_3
I0403 15:55:31.570679 11802 net.cpp:399] inception_5b/pool -> inception_5b/pool
I0403 15:55:31.570750 11802 net.cpp:141] Setting up inception_5b/pool
I0403 15:55:31.570775 11802 net.cpp:148] Top shape: 24 832 7 7 (978432)
I0403 15:55:31.570788 11802 net.cpp:156] Memory required for data: 1339843104
I0403 15:55:31.570802 11802 layer_factory.hpp:77] Creating layer inception_5b/pool_proj
I0403 15:55:31.570824 11802 net.cpp:91] Creating Layer inception_5b/pool_proj
I0403 15:55:31.570842 11802 net.cpp:425] inception_5b/pool_proj <- inception_5b/pool
I0403 15:55:31.570863 11802 net.cpp:399] inception_5b/pool_proj -> inception_5b/pool_proj
I0403 15:55:31.573156 11802 net.cpp:141] Setting up inception_5b/pool_proj
I0403 15:55:31.573187 11802 net.cpp:148] Top shape: 24 128 7 7 (150528)
I0403 15:55:31.573205 11802 net.cpp:156] Memory required for data: 1340445216
I0403 15:55:31.573225 11802 layer_factory.hpp:77] Creating layer inception_5b/relu_pool_proj
I0403 15:55:31.573242 11802 net.cpp:91] Creating Layer inception_5b/relu_pool_proj
I0403 15:55:31.573258 11802 net.cpp:425] inception_5b/relu_pool_proj <- inception_5b/pool_proj
I0403 15:55:31.573278 11802 net.cpp:386] inception_5b/relu_pool_proj -> inception_5b/pool_proj (in-place)
I0403 15:55:31.573580 11802 net.cpp:141] Setting up inception_5b/relu_pool_proj
I0403 15:55:31.573607 11802 net.cpp:148] Top shape: 24 128 7 7 (150528)
I0403 15:55:31.573623 11802 net.cpp:156] Memory required for data: 1341047328
I0403 15:55:31.573637 11802 layer_factory.hpp:77] Creating layer inception_5b/output
I0403 15:55:31.573655 11802 net.cpp:91] Creating Layer inception_5b/output
I0403 15:55:31.573685 11802 net.cpp:425] inception_5b/output <- inception_5b/1x1
I0403 15:55:31.573703 11802 net.cpp:425] inception_5b/output <- inception_5b/3x3
I0403 15:55:31.573719 11802 net.cpp:425] inception_5b/output <- inception_5b/5x5
I0403 15:55:31.573734 11802 net.cpp:425] inception_5b/output <- inception_5b/pool_proj
I0403 15:55:31.573755 11802 net.cpp:399] inception_5b/output -> inception_5b/output
I0403 15:55:31.573806 11802 net.cpp:141] Setting up inception_5b/output
I0403 15:55:31.573828 11802 net.cpp:148] Top shape: 24 1024 7 7 (1204224)
I0403 15:55:31.573843 11802 net.cpp:156] Memory required for data: 1345864224
I0403 15:55:31.573856 11802 layer_factory.hpp:77] Creating layer pool5/7x7_s1
I0403 15:55:31.573878 11802 net.cpp:91] Creating Layer pool5/7x7_s1
I0403 15:55:31.573894 11802 net.cpp:425] pool5/7x7_s1 <- inception_5b/output
I0403 15:55:31.573912 11802 net.cpp:399] pool5/7x7_s1 -> pool5/7x7_s1
I0403 15:55:31.574128 11802 net.cpp:141] Setting up pool5/7x7_s1
I0403 15:55:31.574153 11802 net.cpp:148] Top shape: 24 1024 1 1 (24576)
I0403 15:55:31.574167 11802 net.cpp:156] Memory required for data: 1345962528
I0403 15:55:31.574182 11802 layer_factory.hpp:77] Creating layer pool5/drop_7x7_s1
I0403 15:55:31.574199 11802 net.cpp:91] Creating Layer pool5/drop_7x7_s1
I0403 15:55:31.574216 11802 net.cpp:425] pool5/drop_7x7_s1 <- pool5/7x7_s1
I0403 15:55:31.574235 11802 net.cpp:386] pool5/drop_7x7_s1 -> pool5/7x7_s1 (in-place)
I0403 15:55:31.574285 11802 net.cpp:141] Setting up pool5/drop_7x7_s1
I0403 15:55:31.574307 11802 net.cpp:148] Top shape: 24 1024 1 1 (24576)
I0403 15:55:31.574321 11802 net.cpp:156] Memory required for data: 1346060832
I0403 15:55:31.574337 11802 layer_factory.hpp:77] Creating layer loss3/classifier_plantvillage
I0403 15:55:31.574357 11802 net.cpp:91] Creating Layer loss3/classifier_plantvillage
I0403 15:55:31.574375 11802 net.cpp:425] loss3/classifier_plantvillage <- pool5/7x7_s1
I0403 15:55:31.574395 11802 net.cpp:399] loss3/classifier_plantvillage -> loss3/classifier_plantvillage
I0403 15:55:31.574810 11802 net.cpp:141] Setting up loss3/classifier_plantvillage
I0403 15:55:31.574836 11802 net.cpp:148] Top shape: 24 38 (912)
I0403 15:55:31.574851 11802 net.cpp:156] Memory required for data: 1346064480
I0403 15:55:31.574869 11802 layer_factory.hpp:77] Creating layer loss3/classifier_plantvillage_loss3/classifier_plantvillage_0_split
I0403 15:55:31.574887 11802 net.cpp:91] Creating Layer loss3/classifier_plantvillage_loss3/classifier_plantvillage_0_split
I0403 15:55:31.574903 11802 net.cpp:425] loss3/classifier_plantvillage_loss3/classifier_plantvillage_0_split <- loss3/classifier_plantvillage
I0403 15:55:31.574920 11802 net.cpp:399] loss3/classifier_plantvillage_loss3/classifier_plantvillage_0_split -> loss3/classifier_plantvillage_loss3/classifier_plantvillage_0_split_0
I0403 15:55:31.574940 11802 net.cpp:399] loss3/classifier_plantvillage_loss3/classifier_plantvillage_0_split -> loss3/classifier_plantvillage_loss3/classifier_plantvillage_0_split_1
I0403 15:55:31.574965 11802 net.cpp:399] loss3/classifier_plantvillage_loss3/classifier_plantvillage_0_split -> loss3/classifier_plantvillage_loss3/classifier_plantvillage_0_split_2
I0403 15:55:31.574987 11802 net.cpp:399] loss3/classifier_plantvillage_loss3/classifier_plantvillage_0_split -> loss3/classifier_plantvillage_loss3/classifier_plantvillage_0_split_3
I0403 15:55:31.575086 11802 net.cpp:141] Setting up loss3/classifier_plantvillage_loss3/classifier_plantvillage_0_split
I0403 15:55:31.575109 11802 net.cpp:148] Top shape: 24 38 (912)
I0403 15:55:31.575125 11802 net.cpp:148] Top shape: 24 38 (912)
I0403 15:55:31.575140 11802 net.cpp:148] Top shape: 24 38 (912)
I0403 15:55:31.575155 11802 net.cpp:148] Top shape: 24 38 (912)
I0403 15:55:31.575168 11802 net.cpp:156] Memory required for data: 1346079072
I0403 15:55:31.575182 11802 layer_factory.hpp:77] Creating layer loss1/loss
I0403 15:55:31.575203 11802 net.cpp:91] Creating Layer loss1/loss
I0403 15:55:31.575219 11802 net.cpp:425] loss1/loss <- loss1/classifier_plantvillage_loss1/classifier_plantvillage_0_split_0
I0403 15:55:31.575249 11802 net.cpp:425] loss1/loss <- label_data_1_split_0
…
