…
I0403 15:43:12.947429 11083 net.cpp:313] The NetState phase (1) differed from the phase (0) specified by a rule in layer data
I0403 15:43:12.948537 11083 net.cpp:49] Initializing net from parameters: 
state {
  phase: TEST
}
layer {
  name: "data"
  type: "Data"
  top: "data"
  top: "label"
  include {
    phase: TEST
  }
  transform_param {
    mirror: false
    crop_size: 224
    mean_file: "/home/mohanty/data/final_dataset/lmdb/segmented-80-20/mean.binaryproto"
  }
  data_param {
    source: "/home/mohanty/data/final_dataset/lmdb/segmented-80-20/test_db"
    batch_size: 24
    backend: LMDB
  }
}
layer {
  name: "conv1/7x7_s2"
  type: "Convolution"
  bottom: "data"
  top: "conv1/7x7_s2"
  param {
    lr_mult: 1
    decay_mult: 1
  }
  param {
    lr_mult: 2
    decay_mult: 0
  }
  convolution_param {
    num_output: 64
    pad: 3
    kernel_size: 7
    stride: 2
    weight_filler {
      type: "xavier"
      std: 0.1
    }
    bias_filler {
      type: "constant"
      value: 0.2
    }
  }
}
layer {
  name: "conv1/relu_7x7"
  type: "ReLU"
  bottom: "conv1/7x7_s2"
  top: "conv1/7x7_s2"
}
layer {
  name: "pool1/3x3_s2"
  type: "Pooling"
  bottom: "conv1/7x7_s2"
  top: "pool1/3x3_s2"
  pooling_param {
    pool: MAX
    kernel_size: 3
    stride: 2
  }
}
layer {
  name: "pool1/norm1"
  type: "LRN"
  bottom: "pool1/3x3_s2"
  top: "pool1/norm1"
  lrn_param {
    local_size: 5
    alpha: 0.0001
    beta: 0.75
  }
}
layer {
  name: "conv2/3x3_reduce"
  type: "Convolution"
  bottom: "pool1/norm1"
  top: "conv2/3x3_reduce"
  param {
    lr_mult: 1
    decay_mult: 1
  }
  param {
    lr_mult: 2
    decay_mult: 0
  }
  convolution_param {
    num_output: 64
    kernel_size: 1
    weight_filler {
      type: "xavier"
      std: 0.1
    }
    bias_filler {
      type: "constant"
      value: 0.2
    }
  }
}
layer {
  name: "conv2/relu_3x3_reduce"
  type: "ReLU"
  bottom: "conv2/3x3_reduce"
  top: "conv2/3x3_reduce"
}
layer {
  name: "conv2/3x3"
  type: "Convolution"
  bottom: "conv2/3x3_reduce"
  top: "conv2/3x3"
  param {
    lr_mult: 1
    decay_mult: 1
  }
  param {
    lr_mult: 2
    decay_mult: 0
  }
  convolution_param {
    num_output: 192
    pad: 1
    kernel_size: 3
    weight_filler {
      type: "xavier"
      std: 0.03
    }
    bias_filler {
      type: "constant"
      value: 0.2
    }
  }
}
layer {
  name: "conv2/relu_3x3"
  type: "ReLU"
  bottom: "conv2/3x3"
  top: "conv2/3x3"
}
layer {
  name: "conv2/norm2"
  type: "LRN"
  bottom: "conv2/3x3"
  top: "conv2/norm2"
  lrn_param {
    local_size: 5
    alpha: 0.0001
    beta: 0.75
  }
}
layer {
  name: "pool2/3x3_s2"
  type: "Pooling"
  bottom: "conv2/norm2"
  top: "pool2/3x3_s2"
  pooling_param {
    pool: MAX
    kernel_size: 3
    stride: 2
  }
}
layer {
  name: "inception_3a/1x1"
  type: "Convolution"
  bottom: "pool2/3x3_s2"
  top: "inception_3a/1x1"
  param {
    lr_mult: 1
    decay_mult: 1
  }
  param {
    lr_mult: 2
    decay_mult: 0
  }
  convolution_param {
    num_output: 64
    kernel_size: 1
    weight_filler {
      type: "xavier"
      std: 0.03
    }
    bias_filler {
      type: "constant"
      value: 0.2
    }
  }
}
layer {
  name: "inception_3a/relu_1x1"
  type: "ReLU"
  bottom: "inception_3a/1x1"
  top: "inception_3a/1x1"
}
layer {
  name: "inception_3a/3x3_reduce"
  type: "Convolution"
  bottom: "pool2/3x3_s2"
  top: "inception_3a/3x3_reduce"
  param {
    lr_mult: 1
    decay_mult: 1
  }
  param {
    lr_mult: 2
    decay_mult: 0
  }
  convolution_param {
    num_output: 96
    kernel_size: 1
    weight_filler {
      type: "xavier"
      std: 0.09
    }
    bias_filler {
      type: "constant"
      value: 0.2
    }
  }
}
layer {
  name: "inception_3a/relu_3x3_reduce"
  type: "ReLU"
  bottom: "inception_3a/3x3_reduce"
  top: "inception_3a/3x3_reduce"
}
layer {
  name: "inception_3a/3x3"
  type: "Convolution"
  bottom: "inception_3a/3x3_reduce"
  top: "inception_3a/3x3"
  param {
    lr_mult: 1
    decay_mult: 1
  }
  param {
    lr_mult: 2
    decay_mult: 0
  }
  convolution_param {
    num_output: 128
    pad: 1
    kernel_size: 3
    weight_filler {
      type: "xavier"
      std: 0.03
    }
    bias_filler {
      type: "constant"
      value: 0.2
    }
  }
}
layer {
  name: "inception_3a/relu_3x3"
  type: "ReLU"
  bottom: "inception_3a/3x3"
  top: "inception_3a/3x3"
}
layer {
  name: "inception_3a/5x5_reduce"
  type: "Convolution"
  bottom: "pool2/3x3_s2"
  top: "inception_3a/5x5_reduce"
  param {
    lr_mult: 1
    decay_mult: 1
  }
  param {
    lr_mult: 2
    decay_mult: 0
  }
  convolution_param {
    num_output: 16
    kernel_size: 1
    weight_filler {
      type: "xavier"
      std: 0.2
    }
    bias_filler {
      type: "constant"
      value: 0.2
    }
  }
}
layer {
  name: "inception_3a/relu_5x5_reduce"
  type: "ReLU"
  bottom: "inception_3a/5x5_reduce"
  top: "inception_3a/5x5_reduce"
}
layer {
  name: "inception_3a/5x5"
  type: "Convolution"
  bottom: "inception_3a/5x5_reduce"
  top: "inception_3a/5x5"
  param {
    lr_mult: 1
    decay_mult: 1
  }
  param {
    lr_mult: 2
    decay_mult: 0
  }
  convolution_param {
    num_output: 32
    pad: 2
    kernel_size: 5
    weight_filler {
      type: "xavier"
      std: 0.03
    }
    bias_filler {
      type: "constant"
      value: 0.2
    }
  }
}
layer {
  name: "inception_3a/relu_5x5"
  type: "ReLU"
  bottom: "inception_3a/5x5"
  top: "inception_3a/5x5"
}
layer {
  name: "inception_3a/pool"
  type: "Pooling"
  bottom: "pool2/3x3_s2"
  top: "inception_3a/pool"
  pooling_param {
    pool: MAX
    kernel_size: 3
    stride: 1
    pad: 1
  }
}
layer {
  name: "inception_3a/pool_proj"
  type: "Convolution"
  bottom: "inception_3a/pool"
  top: "inception_3a/pool_proj"
  param {
    lr_mult: 1
    decay_mult: 1
  }
  param {
    lr_mult: 2
    decay_mult: 0
  }
  convolution_param {
    num_output: 32
    kernel_size: 1
    weight_filler {
      type: "xavier"
      std: 0.1
    }
    bias_filler {
      type: "constant"
      value: 0.2
    }
  }
}
layer {
  name: "inception_3a/relu_pool_proj"
  type: "ReLU"
  bottom: "inception_3a/pool_proj"
  top: "inception_3a/pool_proj"
}
layer {
  name: "inception_3a/output"
  type: "Concat"
  bottom: "inception_3a/1x1"
  bottom: "inception_3a/3x3"
  bottom: "inception_3a/5x5"
  bottom: "inception_3a/pool_proj"
  top: "inception_3a/output"
}
layer {
  name: "inception_3b/1x1"
  type: "Convolution"
  bottom: "inception_3a/output"
  top: "inception_3b/1x1"
  param {
    lr_mult: 1
    decay_mult: 1
  }
  param {
    lr_mult: 2
    decay_mult: 0
  }
  convolution_param {
    num_output: 128
    kernel_size: 1
    weight_filler {
      type: "xavier"
      std: 0.03
    }
    bias_filler {
      type: "constant"
      value: 0.2
    }
  }
}
layer {
  name: "inception_3b/relu_1x1"
  type: "ReLU"
  bottom: "inception_3b/1x1"
  top: "inception_3b/1x1"
}
layer {
  name: "inception_3b/3x3_reduce"
  type: "Convolution"
  bottom: "inception_3a/output"
  top: "inception_3b/3x3_reduce"
  param {
    lr_mult: 1
    decay_mult: 1
  }
  param {
    lr_mult: 2
    decay_mult: 0
  }
  convolution_param {
    num_output: 128
    kernel_size: 1
    weight_filler {
      type: "xavier"
      std: 0.09
    }
    bias_filler {
      type: "constant"
      value: 0.2
    }
  }
}
layer {
  name: "inception_3b/relu_3x3_reduce"
  type: "ReLU"
  bottom: "inception_3b/3x3_reduce"
  top: "inception_3b/3x3_reduce"
}
layer {
  name: "inception_3b/3x3"
  type: "Convolution"
  bottom: "inception_3b/3x3_reduce"
  top: "inception_3b/3x3"
  param {
    lr_mult: 1
    decay_mult: 1
  }
  param {
    lr_mult: 2
    decay_mult: 0
  }
  convolution_param {
    num_output: 192
    pad: 1
    kernel_size: 3
    weight_filler {
      type: "xavier"
      std: 0.03
    }
    bias_filler {
      type: "constant"
      value: 0.2
    }
  }
}
layer {
  name: "inception_3b/relu_3x3"
  type: "ReLU"
  bottom: "inception_3b/3x3"
  top: "inception_3b/3x3"
}
layer {
  name: "inception_3b/5x5_reduce"
  type: "Convolution"
  bottom: "inception_3a/output"
  top: "inception_3b/5x5_reduce"
  param {
    lr_mult: 1
    decay_mult: 1
  }
  param {
    lr_mult: 2
    decay_mult: 0
  }
  convolution_param {
    num_output: 32
    kernel_size: 1
    weight_filler {
      type: "xavier"
      std: 0.2
    }
    bias_filler {
      type: "constant"
      value: 0.2
    }
  }
}
layer {
  name: "inception_3b/relu_5x5_reduce"
  type: "ReLU"
  bottom: "inception_3b/5x5_reduce"
  top: "inception_3b/5x5_reduce"
}
layer {
  name: "inception_3b/5x5"
  type: "Convolution"
  bottom: "inception_3b/5x5_reduce"
  top: "inception_3b/5x5"
  param {
    lr_mult: 1
    decay_mult: 1
  }
  param {
    lr_mult: 2
    decay_mult: 0
  }
  convolution_param {
    num_output: 96
    pad: 2
    kernel_size: 5
    weight_filler {
      type: "xavier"
      std: 0.03
    }
    bias_filler {
      type: "constant"
      value: 0.2
    }
  }
}
layer {
  name: "inception_3b/relu_5x5"
  type: "ReLU"
  bottom: "inception_3b/5x5"
  top: "inception_3b/5x5"
}
layer {
  name: "inception_3b/pool"
  type: "Pooling"
  bottom: "inception_3a/output"
  top: "inception_3b/pool"
  pooling_param {
    pool: MAX
    kernel_size: 3
    stride: 1
    pad: 1
  }
}
layer {
  name: "inception_3b/pool_proj"
  type: "Convolution"
  bottom: "inception_3b/pool"
  top: "inception_3b/pool_proj"
  param {
    lr_mult: 1
    decay_mult: 1
  }
  param {
    lr_mult: 2
    decay_mult: 0
  }
  convolution_param {
    num_output: 64
    kernel_size: 1
    weight_filler {
      type: "xavier"
      std: 0.1
    }
    bias_filler {
      type: "constant"
      value: 0.2
    }
  }
}
layer {
  name: "inception_3b/relu_pool_proj"
  type: "ReLU"
  bottom: "inception_3b/pool_proj"
  top: "inception_3b/pool_proj"
}
layer {
  name: "inception_3b/output"
  type: "Concat"
  bottom: "inception_3b/1x1"
  bottom: "inception_3b/3x3"
  bottom: "inception_3b/5x5"
  bottom: "inception_3b/pool_proj"
  top: "inception_3b/output"
}
layer {
  name: "pool3/3x3_s2"
  type: "Pooling"
  bottom: "inception_3b/output"
  top: "pool3/3x3_s2"
  pooling_param {
    pool: MAX
    kernel_size: 3
    stride: 2
  }
}
layer {
  name: "inception_4a/1x1"
  type: "Convolution"
  bottom: "pool3/3x3_s2"
  top: "inception_4a/1x1"
  param {
    lr_mult: 1
    decay_mult: 1
  }
  param {
    lr_mult: 2
    decay_mult: 0
  }
  convolution_param {
    num_output: 192
    kernel_size: 1
    weight_filler {
      type: "xavier"
      std: 0.03
    }
    bias_filler {
      type: "constant"
      value: 0.2
    }
  }
}
layer {
  name: "inception_4a/relu_1x1"
  type: "ReLU"
  bottom: "inception_4a/1x1"
  top: "inception_4a/1x1"
}
layer {
  name: "inception_4a/3x3_reduce"
  type: "Convolution"
  bottom: "pool3/3x3_s2"
  top: "inception_4a/3x3_reduce"
  param {
    lr_mult: 1
    decay_mult: 1
  }
  param {
    lr_mult: 2
    decay_mult: 0
  }
  convolution_param {
    num_output: 96
    kernel_size: 1
    weight_filler {
      type: "xavier"
      std: 0.09
    }
    bias_filler {
      type: "constant"
      value: 0.2
    }
  }
}
layer {
  name: "inception_4a/relu_3x3_reduce"
  type: "ReLU"
  bottom: "inception_4a/3x3_reduce"
  top: "inception_4a/3x3_reduce"
}
layer {
  name: "inception_4a/3x3"
  type: "Convolution"
  bottom: "inception_4a/3x3_reduce"
  top: "inception_4a/3x3"
  param {
    lr_mult: 1
    decay_mult: 1
  }
  param {
    lr_mult: 2
    decay_mult: 0
  }
  convolution_param {
    num_output: 208
    pad: 1
    kernel_size: 3
    weight_filler {
      type: "xavier"
      std: 0.03
    }
    bias_filler {
      type: "constant"
      value: 0.2
    }
  }
}
layer {
  name: "inception_4a/relu_3x3"
  type: "ReLU"
  bottom: "inception_4a/3x3"
  top: "inception_4a/3x3"
}
layer {
  name: "inception_4a/5x5_reduce"
  type: "Convolution"
  bottom: "pool3/3x3_s2"
  top: "inception_4a/5x5_reduce"
  param {
    lr_mult: 1
    decay_mult: 1
  }
  param {
    lr_mult: 2
    decay_mult: 0
  }
  convolution_param {
    num_output: 16
    kernel_size: 1
    weight_filler {
      type: "xavier"
      std: 0.2
    }
    bias_filler {
      type: "constant"
      value: 0.2
    }
  }
}
layer {
  name: "inception_4a/relu_5x5_reduce"
  type: "ReLU"
  bottom: "inception_4a/5x5_reduce"
  top: "inception_4a/5x5_reduce"
}
layer {
  name: "inception_4a/5x5"
  type: "Convolution"
  bottom: "inception_4a/5x5_reduce"
  top: "inception_4a/5x5"
  param {
    lr_mult: 1
    decay_mult: 1
  }
  param {
    lr_mult: 2
    decay_mult: 0
  }
  convolution_param {
    num_output: 48
    pad: 2
    kernel_size: 5
    weight_filler {
      type: "xavier"
      std: 0.03
    }
    bias_filler {
      type: "constant"
      value: 0.2
    }
  }
}
layer {
  name: "inception_4a/relu_5x5"
  type: "ReLU"
  bottom: "inception_4a/5x5"
  top: "inception_4a/5x5"
}
layer {
  name: "inception_4a/pool"
  type: "Pooling"
  bottom: "pool3/3x3_s2"
  top: "inception_4a/pool"
  pooling_param {
    pool: MAX
    kernel_size: 3
    stride: 1
    pad: 1
  }
}
layer {
  name: "inception_4a/pool_proj"
  type: "Convolution"
  bottom: "inception_4a/pool"
  top: "inception_4a/pool_proj"
  param {
    lr_mult: 1
    decay_mult: 1
  }
  param {
    lr_mult: 2
    decay_mult: 0
  }
  convolution_param {
    num_output: 64
    kernel_size: 1
    weight_filler {
      type: "xavier"
      std: 0.1
    }
    bias_filler {
      type: "constant"
      value: 0.2
    }
  }
}
layer {
  name: "inception_4a/relu_pool_proj"
  type: "ReLU"
  bottom: "inception_4a/pool_proj"
  top: "inception_4a/pool_proj"
}
layer {
  name: "inception_4a/output"
  type: "Concat"
  bottom: "inception_4a/1x1"
  bottom: "inception_4a/3x3"
  bottom: "inception_4a/5x5"
  bottom: "inception_4a/pool_proj"
  top: "inception_4a/output"
}
layer {
  name: "loss1/ave_pool"
  type: "Pooling"
  bottom: "inception_4a/output"
  top: "loss1/ave_pool"
  pooling_param {
    pool: AVE
    kernel_size: 5
    stride: 3
  }
}
layer {
  name: "loss1/conv"
  type: "Convolution"
  bottom: "loss1/ave_pool"
  top: "loss1/conv"
  param {
    lr_mult: 1
    decay_mult: 1
  }
  param {
    lr_mult: 2
    decay_mult: 0
  }
  convolution_param {
    num_output: 128
    kernel_size: 1
    weight_filler {
      type: "xavier"
      std: 0.08
    }
    bias_filler {
      type: "constant"
      value: 0.2
    }
  }
}
layer {
  name: "loss1/relu_conv"
  type: "ReLU"
  bottom: "loss1/conv"
  top: "loss1/conv"
}
layer {
  name: "loss1/fc"
  type: "InnerProduct"
  bottom: "loss1/conv"
  top: "loss1/fc"
  param {
    lr_mult: 1
    decay_mult: 1
  }
  param {
    lr_mult: 2
    decay_mult: 0
  }
  inner_product_param {
    num_output: 1024
    weight_filler {
      type: "xavier"
      std: 0.02
    }
    bias_filler {
      type: "constant"
      value: 0.2
    }
  }
}
layer {
  name: "loss1/relu_fc"
  type: "ReLU"
  bottom: "loss1/fc"
  top: "loss1/fc"
}
layer {
  name: "loss1/drop_fc"
  type: "Dropout"
  bottom: "loss1/fc"
  top: "loss1/fc"
  dropout_param {
    dropout_ratio: 0.7
  }
}
layer {
  name: "loss1/classifier_plantvillage"
  type: "InnerProduct"
  bottom: "loss1/fc"
  top: "loss1/classifier_plantvillage"
  param {
    lr_mult: 1
    decay_mult: 1
  }
  param {
    lr_mult: 2
    decay_mult: 0
  }
  inner_product_param {
    num_output: 38
    weight_filler {
      type: "xavier"
      std: 0.0009765625
    }
    bias_filler {
      type: "constant"
      value: 0
    }
  }
}
layer {
  name: "inception_4b/1x1"
  type: "Convolution"
  bottom: "inception_4a/output"
  top: "inception_4b/1x1"
  param {
    lr_mult: 1
    decay_mult: 1
  }
  param {
    lr_mult: 2
    decay_mult: 0
  }
  convolution_param {
    num_output: 160
    kernel_size: 1
    weight_filler {
      type: "xavier"
      std: 0.03
    }
    bias_filler {
      type: "constant"
      value: 0.2
    }
  }
}
layer {
  name: "inception_4b/relu_1x1"
  type: "ReLU"
  bottom: "inception_4b/1x1"
  top: "inception_4b/1x1"
}
layer {
  name: "inception_4b/3x3_reduce"
  type: "Convolution"
  bottom: "inception_4a/output"
  top: "inception_4b/3x3_reduce"
  param {
    lr_mult: 1
    decay_mult: 1
  }
  param {
    lr_mult: 2
    decay_mult: 0
  }
  convolution_param {
    num_output: 112
    kernel_size: 1
    weight_filler {
      type: "xavier"
      std: 0.09
    }
    bias_filler {
      type: "constant"
      value: 0.2
    }
  }
}
layer {
  name: "inception_4b/relu_3x3_reduce"
  type: "ReLU"
  bottom: "inception_4b/3x3_reduce"
  top: "inception_4b/3x3_reduce"
}
layer {
  name: "inception_4b/3x3"
  type: "Convolution"
  bottom: "inception_4b/3x3_reduce"
  top: "inception_4b/3x3"
  param {
    lr_mult: 1
    decay_mult: 1
  }
  param {
    lr_mult: 2
    decay_mult: 0
  }
  convolution_param {
    num_output: 224
    pad: 1
    kernel_size: 3
    weight_filler {
      type: "xavier"
      std: 0.03
    }
    bias_filler {
      type: "constant"
      value: 0.2
    }
  }
}
layer {
  name: "inception_4b/relu_3x3"
  type: "ReLU"
  bottom: "inception_4b/3x3"
  top: "inception_4b/3x3"
}
layer {
  name: "inception_4b/5x5_reduce"
  type: "Convolution"
  bottom: "inception_4a/output"
  top: "inception_4b/5x5_reduce"
  param {
    lr_mult: 1
    decay_mult: 1
  }
  param {
    lr_mult: 2
    decay_mult: 0
  }
  convolution_param {
    num_output: 24
    kernel_size: 1
    weight_filler {
      type: "xavier"
      std: 0.2
    }
    bias_filler {
      type: "constant"
      value: 0.2
    }
  }
}
layer {
  name: "inception_4b/relu_5x5_reduce"
  type: "ReLU"
  bottom: "inception_4b/5x5_reduce"
  top: "inception_4b/5x5_reduce"
}
layer {
  name: "inception_4b/5x5"
  type: "Convolution"
  bottom: "inception_4b/5x5_reduce"
  top: "inception_4b/5x5"
  param {
    lr_mult: 1
    decay_mult: 1
  }
  param {
    lr_mult: 2
    decay_mult: 0
  }
  convolution_param {
    num_output: 64
    pad: 2
    kernel_size: 5
    weight_filler {
      type: "xavier"
      std: 0.03
    }
    bias_filler {
      type: "constant"
      value: 0.2
    }
  }
}
layer {
  name: "inception_4b/relu_5x5"
  type: "ReLU"
  bottom: "inception_4b/5x5"
  top: "inception_4b/5x5"
}
layer {
  name: "inception_4b/pool"
  type: "Pooling"
  bottom: "inception_4a/output"
  top: "inception_4b/pool"
  pooling_param {
    pool: MAX
    kernel_size: 3
    stride: 1
    pad: 1
  }
}
layer {
  name: "inception_4b/pool_proj"
  type: "Convolution"
  bottom: "inception_4b/pool"
  top: "inception_4b/pool_proj"
  param {
    lr_mult: 1
    decay_mult: 1
  }
  param {
    lr_mult: 2
    decay_mult: 0
  }
  convolution_param {
    num_output: 64
    kernel_size: 1
    weight_filler {
      type: "xavier"
      std: 0.1
    }
    bias_filler {
      type: "constant"
      value: 0.2
    }
  }
}
layer {
  name: "inception_4b/relu_pool_proj"
  type: "ReLU"
  bottom: "inception_4b/pool_proj"
  top: "inception_4b/pool_proj"
}
layer {
  name: "inception_4b/output"
  type: "Concat"
  bottom: "inception_4b/1x1"
  bottom: "inception_4b/3x3"
  bottom: "inception_4b/5x5"
  bottom: "inception_4b/pool_proj"
  top: "inception_4b/output"
}
layer {
  name: "inception_4c/1x1"
  type: "Convolution"
  bottom: "inception_4b/output"
  top: "inception_4c/1x1"
  param {
    lr_mult: 1
    decay_mult: 1
  }
  param {
    lr_mult: 2
    decay_mult: 0
  }
  convolution_param {
    num_output: 128
    kernel_size: 1
    weight_filler {
      type: "xavier"
      std: 0.03
    }
    bias_filler {
      type: "constant"
      value: 0.2
    }
  }
}
layer {
  name: "inception_4c/relu_1x1"
  type: "ReLU"
  bottom: "inception_4c/1x1"
  top: "inception_4c/1x1"
}
layer {
  name: "inception_4c/3x3_reduce"
  type: "Convolution"
  bottom: "inception_4b/output"
  top: "inception_4c/3x3_reduce"
  param {
    lr_mult: 1
    decay_mult: 1
  }
  param {
    lr_mult: 2
    decay_mult: 0
  }
  convolution_param {
    num_output: 128
    kernel_size: 1
    weight_filler {
      type: "xavier"
      std: 0.09
    }
    bias_filler {
      type: "constant"
      value: 0.2
    }
  }
}
layer {
  name: "inception_4c/relu_3x3_reduce"
  type: "ReLU"
  bottom: "inception_4c/3x3_reduce"
  top: "inception_4c/3x3_reduce"
}
layer {
  name: "inception_4c/3x3"
  type: "Convolution"
  bottom: "inception_4c/3x3_reduce"
  top: "inception_4c/3x3"
  param {
    lr_mult: 1
    decay_mult: 1
  }
  param {
    lr_mult: 2
    decay_mult: 0
  }
  convolution_param {
    num_output: 256
    pad: 1
    kernel_size: 3
    weight_filler {
      type: "xavier"
      std: 0.03
    }
    bias_filler {
      type: "constant"
      value: 0.2
    }
  }
}
layer {
  name: "inception_4c/relu_3x3"
  type: "ReLU"
  bottom: "inception_4c/3x3"
  top: "inception_4c/3x3"
}
layer {
  name: "inception_4c/5x5_reduce"
  type: "Convolution"
  bottom: "inception_4b/output"
  top: "inception_4c/5x5_reduce"
  param {
    lr_mult: 1
    decay_mult: 1
  }
  param {
    lr_mult: 2
    decay_mult: 0
  }
  convolution_param {
    num_output: 24
    kernel_size: 1
    weight_filler {
      type: "xavier"
      std: 0.2
    }
    bias_filler {
      type: "constant"
      value: 0.2
    }
  }
}
layer {
  name: "inception_4c/relu_5x5_reduce"
  type: "ReLU"
  bottom: "inception_4c/5x5_reduce"
  top: "inception_4c/5x5_reduce"
}
layer {
  name: "inception_4c/5x5"
  type: "Convolution"
  bottom: "inception_4c/5x5_reduce"
  top: "inception_4c/5x5"
  param {
    lr_mult: 1
    decay_mult: 1
  }
  param {
    lr_mult: 2
    decay_mult: 0
  }
  convolution_param {
    num_output: 64
    pad: 2
    kernel_size: 5
    weight_filler {
      type: "xavier"
      std: 0.03
    }
    bias_filler {
      type: "constant"
      value: 0.2
    }
  }
}
layer {
  name: "inception_4c/relu_5x5"
  type: "ReLU"
  bottom: "inception_4c/5x5"
  top: "inception_4c/5x5"
}
layer {
  name: "inception_4c/pool"
  type: "Pooling"
  bottom: "inception_4b/output"
  top: "inception_4c/pool"
  pooling_param {
    pool: MAX
    kernel_size: 3
    stride: 1
    pad: 1
  }
}
layer {
  name: "inception_4c/pool_proj"
  type: "Convolution"
  bottom: "inception_4c/pool"
  top: "inception_4c/pool_proj"
  param {
    lr_mult: 1
    decay_mult: 1
  }
  param {
    lr_mult: 2
    decay_mult: 0
  }
  convolution_param {
    num_output: 64
    kernel_size: 1
    weight_filler {
      type: "xavier"
      std: 0.1
    }
    bias_filler {
      type: "constant"
      value: 0.2
    }
  }
}
layer {
  name: "inception_4c/relu_pool_proj"
  type: "ReLU"
  bottom: "inception_4c/pool_proj"
  top: "inception_4c/pool_proj"
}
layer {
  name: "inception_4c/output"
  type: "Concat"
  bottom: "inception_4c/1x1"
  bottom: "inception_4c/3x3"
  bottom: "inception_4c/5x5"
  bottom: "inception_4c/pool_proj"
  top: "inception_4c/output"
}
layer {
  name: "inception_4d/1x1"
  type: "Convolution"
  bottom: "inception_4c/output"
  top: "inception_4d/1x1"
  param {
    lr_mult: 1
    decay_mult: 1
  }
  param {
    lr_mult: 2
    decay_mult: 0
  }
  convolution_param {
    num_output: 112
    kernel_size: 1
    weight_filler {
      type: "xavier"
      std: 0.03
    }
    bias_filler {
      type: "constant"
      value: 0.2
    }
  }
}
layer {
  name: "inception_4d/relu_1x1"
  type: "ReLU"
  bottom: "inception_4d/1x1"
  top: "inception_4d/1x1"
}
layer {
  name: "inception_4d/3x3_reduce"
  type: "Convolution"
  bottom: "inception_4c/output"
  top: "inception_4d/3x3_reduce"
  param {
    lr_mult: 1
    decay_mult: 1
  }
  param {
    lr_mult: 2
    decay_mult: 0
  }
  convolution_param {
    num_output: 144
    kernel_size: 1
    weight_filler {
      type: "xavier"
      std: 0.09
    }
    bias_filler {
      type: "constant"
      value: 0.2
    }
  }
}
layer {
  name: "inception_4d/relu_3x3_reduce"
  type: "ReLU"
  bottom: "inception_4d/3x3_reduce"
  top: "inception_4d/3x3_reduce"
}
layer {
  name: "inception_4d/3x3"
  type: "Convolution"
  bottom: "inception_4d/3x3_reduce"
  top: "inception_4d/3x3"
  param {
    lr_mult: 1
    decay_mult: 1
  }
  param {
    lr_mult: 2
    decay_mult: 0
  }
  convolution_param {
    num_output: 288
    pad: 1
    kernel_size: 3
    weight_filler {
      type: "xavier"
      std: 0.03
    }
    bias_filler {
      type: "constant"
      value: 0.2
    }
  }
}
layer {
  name: "inception_4d/relu_3x3"
  type: "ReLU"
  bottom: "inception_4d/3x3"
  top: "inception_4d/3x3"
}
layer {
  name: "inception_4d/5x5_reduce"
  type: "Convolution"
  bottom: "inception_4c/output"
  top: "inception_4d/5x5_reduce"
  param {
    lr_mult: 1
    decay_mult: 1
  }
  param {
    lr_mult: 2
    decay_mult: 0
  }
  convolution_param {
    num_output: 32
    kernel_size: 1
    weight_filler {
      type: "xavier"
      std: 0.2
    }
    bias_filler {
      type: "constant"
      value: 0.2
    }
  }
}
layer {
  name: "inception_4d/relu_5x5_reduce"
  type: "ReLU"
  bottom: "inception_4d/5x5_reduce"
  top: "inception_4d/5x5_reduce"
}
layer {
  name: "inception_4d/5x5"
  type: "Convolution"
  bottom: "inception_4d/5x5_reduce"
  top: "inception_4d/5x5"
  param {
    lr_mult: 1
    decay_mult: 1
  }
  param {
    lr_mult: 2
    decay_mult: 0
  }
  convolution_param {
    num_output: 64
    pad: 2
    kernel_size: 5
    weight_filler {
      type: "xavier"
      std: 0.03
    }
    bias_filler {
      type: "constant"
      value: 0.2
    }
  }
}
layer {
  name: "inception_4d/relu_5x5"
  type: "ReLU"
  bottom: "inception_4d/5x5"
  top: "inception_4d/5x5"
}
layer {
  name: "inception_4d/pool"
  type: "Pooling"
  bottom: "inception_4c/output"
  top: "inception_4d/pool"
  pooling_param {
    pool: MAX
    kernel_size: 3
    stride: 1
    pad: 1
  }
}
layer {
  name: "inception_4d/pool_proj"
  type: "Convolution"
  bottom: "inception_4d/pool"
  top: "inception_4d/pool_proj"
  param {
    lr_mult: 1
    decay_mult: 1
  }
  param {
    lr_mult: 2
    decay_mult: 0
  }
  convolution_param {
    num_output: 64
    kernel_size: 1
    weight_filler {
      type: "xavier"
      std: 0.1
    }
    bias_filler {
      type: "constant"
      value: 0.2
    }
  }
}
layer {
  name: "inception_4d/relu_pool_proj"
  type: "ReLU"
  bottom: "inception_4d/pool_proj"
  top: "inception_4d/pool_proj"
}
layer {
  name: "inception_4d/output"
  type: "Concat"
  bottom: "inception_4d/1x1"
  bottom: "inception_4d/3x3"
  bottom: "inception_4d/5x5"
  bottom: "inception_4d/pool_proj"
  top: "inception_4d/output"
}
layer {
  name: "loss2/ave_pool"
  type: "Pooling"
  bottom: "inception_4d/output"
  top: "loss2/ave_pool"
  pooling_param {
    pool: AVE
    kernel_size: 5
    stride: 3
  }
}
layer {
  name: "loss2/conv"
  type: "Convolution"
  bottom: "loss2/ave_pool"
  top: "loss2/conv"
  param {
    lr_mult: 1
    decay_mult: 1
  }
  param {
    lr_mult: 2
    decay_mult: 0
  }
  convolution_param {
    num_output: 128
    kernel_size: 1
    weight_filler {
      type: "xavier"
      std: 0.08
    }
    bias_filler {
      type: "constant"
      value: 0.2
    }
  }
}
layer {
  name: "loss2/relu_conv"
  type: "ReLU"
  bottom: "loss2/conv"
  top: "loss2/conv"
}
layer {
  name: "loss2/fc"
  type: "InnerProduct"
  bottom: "loss2/conv"
  top: "loss2/fc"
  param {
    lr_mult: 1
    decay_mult: 1
  }
  param {
    lr_mult: 2
    decay_mult: 0
  }
  inner_product_param {
    num_output: 1024
    weight_filler {
      type: "xavier"
      std: 0.02
    }
    bias_filler {
      type: "constant"
      value: 0.2
    }
  }
}
layer {
  name: "loss2/relu_fc"
  type: "ReLU"
  bottom: "loss2/fc"
  top: "loss2/fc"
}
layer {
  name: "loss2/drop_fc"
  type: "Dropout"
  bottom: "loss2/fc"
  top: "loss2/fc"
  dropout_param {
    dropout_ratio: 0.7
  }
}
layer {
  name: "loss2/classifier_plantvillage"
  type: "InnerProduct"
  bottom: "loss2/fc"
  top: "loss2/classifier_plantvillage"
  param {
    lr_mult: 1
    decay_mult: 1
  }
  param {
    lr_mult: 2
    decay_mult: 0
  }
  inner_product_param {
    num_output: 38
    weight_filler {
      type: "xavier"
      std: 0.0009765625
    }
    bias_filler {
      type: "constant"
      value: 0
    }
  }
}
layer {
  name: "inception_4e/1x1"
  type: "Convolution"
  bottom: "inception_4d/output"
  top: "inception_4e/1x1"
  param {
    lr_mult: 1
    decay_mult: 1
  }
  param {
    lr_mult: 2
    decay_mult: 0
  }
  convolution_param {
    num_output: 256
    kernel_size: 1
    weight_filler {
      type: "xavier"
      std: 0.03
    }
    bias_filler {
      type: "constant"
      value: 0.2
    }
  }
}
layer {
  name: "inception_4e/relu_1x1"
  type: "ReLU"
  bottom: "inception_4e/1x1"
  top: "inception_4e/1x1"
}
layer {
  name: "inception_4e/3x3_reduce"
  type: "Convolution"
  bottom: "inception_4d/output"
  top: "inception_4e/3x3_reduce"
  param {
    lr_mult: 1
    decay_mult: 1
  }
  param {
    lr_mult: 2
    decay_mult: 0
  }
  convolution_param {
    num_output: 160
    kernel_size: 1
    weight_filler {
      type: "xavier"
      std: 0.09
    }
    bias_filler {
      type: "constant"
      value: 0.2
    }
  }
}
layer {
  name: "inception_4e/relu_3x3_reduce"
  type: "ReLU"
  bottom: "inception_4e/3x3_reduce"
  top: "inception_4e/3x3_reduce"
}
layer {
  name: "inception_4e/3x3"
  type: "Convolution"
  bottom: "inception_4e/3x3_reduce"
  top: "inception_4e/3x3"
  param {
    lr_mult: 1
    decay_mult: 1
  }
  param {
    lr_mult: 2
    decay_mult: 0
  }
  convolution_param {
    num_output: 320
    pad: 1
    kernel_size: 3
    weight_filler {
      type: "xavier"
      std: 0.03
    }
    bias_filler {
      type: "constant"
      value: 0.2
    }
  }
}
layer {
  name: "inception_4e/relu_3x3"
  type: "ReLU"
  bottom: "inception_4e/3x3"
  top: "inception_4e/3x3"
}
layer {
  name: "inception_4e/5x5_reduce"
  type: "Convolution"
  bottom: "inception_4d/output"
  top: "inception_4e/5x5_reduce"
  param {
    lr_mult: 1
    decay_mult: 1
  }
  param {
    lr_mult: 2
    decay_mult: 0
  }
  convolution_param {
    num_output: 32
    kernel_size: 1
    weight_filler {
      type: "xavier"
      std: 0.2
    }
    bias_filler {
      type: "constant"
      value: 0.2
    }
  }
}
layer {
  name: "inception_4e/relu_5x5_reduce"
  type: "ReLU"
  bottom: "inception_4e/5x5_reduce"
  top: "inception_4e/5x5_reduce"
}
layer {
  name: "inception_4e/5x5"
  type: "Convolution"
  bottom: "inception_4e/5x5_reduce"
  top: "inception_4e/
I0403 15:43:12.949744 11083 layer_factory.hpp:77] Creating layer data
I0403 15:43:12.950336 11083 net.cpp:91] Creating Layer data
I0403 15:43:12.950367 11083 net.cpp:399] data -> data
I0403 15:43:12.950417 11083 net.cpp:399] data -> label
I0403 15:43:12.950453 11083 data_transformer.cpp:25] Loading mean file from: /home/mohanty/data/final_dataset/lmdb/segmented-80-20/mean.binaryproto
I0403 15:43:12.964246 11087 db_lmdb.cpp:38] Opened lmdb /home/mohanty/data/final_dataset/lmdb/segmented-80-20/test_db
I0403 15:43:12.967501 11083 data_layer.cpp:41] output data size: 24,3,224,224
I0403 15:43:12.994395 11083 net.cpp:141] Setting up data
I0403 15:43:12.994479 11083 net.cpp:148] Top shape: 24 3 224 224 (3612672)
I0403 15:43:12.994501 11083 net.cpp:148] Top shape: 24 (24)
I0403 15:43:12.994516 11083 net.cpp:156] Memory required for data: 14450784
I0403 15:43:12.994544 11083 layer_factory.hpp:77] Creating layer label_data_1_split
I0403 15:43:12.994568 11083 net.cpp:91] Creating Layer label_data_1_split
I0403 15:43:12.994586 11083 net.cpp:425] label_data_1_split <- label
I0403 15:43:12.994616 11083 net.cpp:399] label_data_1_split -> label_data_1_split_0
I0403 15:43:12.994644 11083 net.cpp:399] label_data_1_split -> label_data_1_split_1
I0403 15:43:12.994664 11083 net.cpp:399] label_data_1_split -> label_data_1_split_2
I0403 15:43:12.994684 11083 net.cpp:399] label_data_1_split -> label_data_1_split_3
I0403 15:43:12.994704 11083 net.cpp:399] label_data_1_split -> label_data_1_split_4
I0403 15:43:12.994722 11083 net.cpp:399] label_data_1_split -> label_data_1_split_5
I0403 15:43:12.994740 11083 net.cpp:399] label_data_1_split -> label_data_1_split_6
I0403 15:43:12.994760 11083 net.cpp:399] label_data_1_split -> label_data_1_split_7
I0403 15:43:12.994779 11083 net.cpp:399] label_data_1_split -> label_data_1_split_8
I0403 15:43:12.994798 11083 net.cpp:399] label_data_1_split -> label_data_1_split_9
I0403 15:43:12.994910 11083 net.cpp:141] Setting up label_data_1_split
I0403 15:43:12.994933 11083 net.cpp:148] Top shape: 24 (24)
I0403 15:43:12.994949 11083 net.cpp:148] Top shape: 24 (24)
I0403 15:43:12.994966 11083 net.cpp:148] Top shape: 24 (24)
I0403 15:43:12.994984 11083 net.cpp:148] Top shape: 24 (24)
I0403 15:43:12.995002 11083 net.cpp:148] Top shape: 24 (24)
I0403 15:43:12.995018 11083 net.cpp:148] Top shape: 24 (24)
I0403 15:43:12.995033 11083 net.cpp:148] Top shape: 24 (24)
I0403 15:43:12.995048 11083 net.cpp:148] Top shape: 24 (24)
I0403 15:43:12.995062 11083 net.cpp:148] Top shape: 24 (24)
I0403 15:43:12.995079 11083 net.cpp:148] Top shape: 24 (24)
I0403 15:43:12.995121 11083 net.cpp:156] Memory required for data: 14451744
I0403 15:43:12.995136 11083 layer_factory.hpp:77] Creating layer conv1/7x7_s2
I0403 15:43:12.995167 11083 net.cpp:91] Creating Layer conv1/7x7_s2
I0403 15:43:12.995187 11083 net.cpp:425] conv1/7x7_s2 <- data
I0403 15:43:12.995206 11083 net.cpp:399] conv1/7x7_s2 -> conv1/7x7_s2
I0403 15:43:13.134403 11083 net.cpp:141] Setting up conv1/7x7_s2
I0403 15:43:13.134487 11083 net.cpp:148] Top shape: 24 64 112 112 (19267584)
I0403 15:43:13.134505 11083 net.cpp:156] Memory required for data: 91522080
I0403 15:43:13.134534 11083 layer_factory.hpp:77] Creating layer conv1/relu_7x7
I0403 15:43:13.134560 11083 net.cpp:91] Creating Layer conv1/relu_7x7
I0403 15:43:13.134579 11083 net.cpp:425] conv1/relu_7x7 <- conv1/7x7_s2
I0403 15:43:13.134598 11083 net.cpp:386] conv1/relu_7x7 -> conv1/7x7_s2 (in-place)
I0403 15:43:13.134840 11083 net.cpp:141] Setting up conv1/relu_7x7
I0403 15:43:13.134866 11083 net.cpp:148] Top shape: 24 64 112 112 (19267584)
I0403 15:43:13.134881 11083 net.cpp:156] Memory required for data: 168592416
I0403 15:43:13.134896 11083 layer_factory.hpp:77] Creating layer pool1/3x3_s2
I0403 15:43:13.134919 11083 net.cpp:91] Creating Layer pool1/3x3_s2
I0403 15:43:13.134938 11083 net.cpp:425] pool1/3x3_s2 <- conv1/7x7_s2
I0403 15:43:13.134955 11083 net.cpp:399] pool1/3x3_s2 -> pool1/3x3_s2
I0403 15:43:13.135030 11083 net.cpp:141] Setting up pool1/3x3_s2
I0403 15:43:13.135053 11083 net.cpp:148] Top shape: 24 64 56 56 (4816896)
I0403 15:43:13.135068 11083 net.cpp:156] Memory required for data: 187860000
I0403 15:43:13.135082 11083 layer_factory.hpp:77] Creating layer pool1/norm1
I0403 15:43:13.135107 11083 net.cpp:91] Creating Layer pool1/norm1
I0403 15:43:13.135123 11083 net.cpp:425] pool1/norm1 <- pool1/3x3_s2
I0403 15:43:13.135141 11083 net.cpp:399] pool1/norm1 -> pool1/norm1
I0403 15:43:13.135412 11083 net.cpp:141] Setting up pool1/norm1
I0403 15:43:13.135438 11083 net.cpp:148] Top shape: 24 64 56 56 (4816896)
I0403 15:43:13.135454 11083 net.cpp:156] Memory required for data: 207127584
I0403 15:43:13.135469 11083 layer_factory.hpp:77] Creating layer conv2/3x3_reduce
I0403 15:43:13.135493 11083 net.cpp:91] Creating Layer conv2/3x3_reduce
I0403 15:43:13.135509 11083 net.cpp:425] conv2/3x3_reduce <- pool1/norm1
I0403 15:43:13.135527 11083 net.cpp:399] conv2/3x3_reduce -> conv2/3x3_reduce
I0403 15:43:13.136797 11083 net.cpp:141] Setting up conv2/3x3_reduce
I0403 15:43:13.136826 11083 net.cpp:148] Top shape: 24 64 56 56 (4816896)
I0403 15:43:13.136842 11083 net.cpp:156] Memory required for data: 226395168
I0403 15:43:13.136862 11083 layer_factory.hpp:77] Creating layer conv2/relu_3x3_reduce
I0403 15:43:13.136881 11083 net.cpp:91] Creating Layer conv2/relu_3x3_reduce
I0403 15:43:13.136896 11083 net.cpp:425] conv2/relu_3x3_reduce <- conv2/3x3_reduce
I0403 15:43:13.136912 11083 net.cpp:386] conv2/relu_3x3_reduce -> conv2/3x3_reduce (in-place)
I0403 15:43:13.137156 11083 net.cpp:141] Setting up conv2/relu_3x3_reduce
I0403 15:43:13.137182 11083 net.cpp:148] Top shape: 24 64 56 56 (4816896)
I0403 15:43:13.137197 11083 net.cpp:156] Memory required for data: 245662752
I0403 15:43:13.137212 11083 layer_factory.hpp:77] Creating layer conv2/3x3
I0403 15:43:13.137233 11083 net.cpp:91] Creating Layer conv2/3x3
I0403 15:43:13.137250 11083 net.cpp:425] conv2/3x3 <- conv2/3x3_reduce
I0403 15:43:13.137269 11083 net.cpp:399] conv2/3x3 -> conv2/3x3
I0403 15:43:13.139516 11083 net.cpp:141] Setting up conv2/3x3
I0403 15:43:13.139546 11083 net.cpp:148] Top shape: 24 192 56 56 (14450688)
I0403 15:43:13.139562 11083 net.cpp:156] Memory required for data: 303465504
I0403 15:43:13.139583 11083 layer_factory.hpp:77] Creating layer conv2/relu_3x3
I0403 15:43:13.139605 11083 net.cpp:91] Creating Layer conv2/relu_3x3
I0403 15:43:13.139621 11083 net.cpp:425] conv2/relu_3x3 <- conv2/3x3
I0403 15:43:13.139638 11083 net.cpp:386] conv2/relu_3x3 -> conv2/3x3 (in-place)
I0403 15:43:13.139814 11083 net.cpp:141] Setting up conv2/relu_3x3
I0403 15:43:13.139839 11083 net.cpp:148] Top shape: 24 192 56 56 (14450688)
I0403 15:43:13.139883 11083 net.cpp:156] Memory required for data: 361268256
I0403 15:43:13.139899 11083 layer_factory.hpp:77] Creating layer conv2/norm2
I0403 15:43:13.139921 11083 net.cpp:91] Creating Layer conv2/norm2
I0403 15:43:13.139938 11083 net.cpp:425] conv2/norm2 <- conv2/3x3
I0403 15:43:13.139956 11083 net.cpp:399] conv2/norm2 -> conv2/norm2
I0403 15:43:13.140261 11083 net.cpp:141] Setting up conv2/norm2
I0403 15:43:13.140287 11083 net.cpp:148] Top shape: 24 192 56 56 (14450688)
I0403 15:43:13.140303 11083 net.cpp:156] Memory required for data: 419071008
I0403 15:43:13.140318 11083 layer_factory.hpp:77] Creating layer pool2/3x3_s2
I0403 15:43:13.140338 11083 net.cpp:91] Creating Layer pool2/3x3_s2
I0403 15:43:13.140355 11083 net.cpp:425] pool2/3x3_s2 <- conv2/norm2
I0403 15:43:13.140373 11083 net.cpp:399] pool2/3x3_s2 -> pool2/3x3_s2
I0403 15:43:13.140426 11083 net.cpp:141] Setting up pool2/3x3_s2
I0403 15:43:13.140450 11083 net.cpp:148] Top shape: 24 192 28 28 (3612672)
I0403 15:43:13.140465 11083 net.cpp:156] Memory required for data: 433521696
I0403 15:43:13.140478 11083 layer_factory.hpp:77] Creating layer pool2/3x3_s2_pool2/3x3_s2_0_split
I0403 15:43:13.140496 11083 net.cpp:91] Creating Layer pool2/3x3_s2_pool2/3x3_s2_0_split
I0403 15:43:13.140511 11083 net.cpp:425] pool2/3x3_s2_pool2/3x3_s2_0_split <- pool2/3x3_s2
I0403 15:43:13.140532 11083 net.cpp:399] pool2/3x3_s2_pool2/3x3_s2_0_split -> pool2/3x3_s2_pool2/3x3_s2_0_split_0
I0403 15:43:13.140552 11083 net.cpp:399] pool2/3x3_s2_pool2/3x3_s2_0_split -> pool2/3x3_s2_pool2/3x3_s2_0_split_1
I0403 15:43:13.140571 11083 net.cpp:399] pool2/3x3_s2_pool2/3x3_s2_0_split -> pool2/3x3_s2_pool2/3x3_s2_0_split_2
I0403 15:43:13.140591 11083 net.cpp:399] pool2/3x3_s2_pool2/3x3_s2_0_split -> pool2/3x3_s2_pool2/3x3_s2_0_split_3
I0403 15:43:13.140661 11083 net.cpp:141] Setting up pool2/3x3_s2_pool2/3x3_s2_0_split
I0403 15:43:13.140684 11083 net.cpp:148] Top shape: 24 192 28 28 (3612672)
I0403 15:43:13.140702 11083 net.cpp:148] Top shape: 24 192 28 28 (3612672)
I0403 15:43:13.140717 11083 net.cpp:148] Top shape: 24 192 28 28 (3612672)
I0403 15:43:13.140733 11083 net.cpp:148] Top shape: 24 192 28 28 (3612672)
I0403 15:43:13.140746 11083 net.cpp:156] Memory required for data: 491324448
I0403 15:43:13.140761 11083 layer_factory.hpp:77] Creating layer inception_3a/1x1
I0403 15:43:13.140784 11083 net.cpp:91] Creating Layer inception_3a/1x1
I0403 15:43:13.140801 11083 net.cpp:425] inception_3a/1x1 <- pool2/3x3_s2_pool2/3x3_s2_0_split_0
I0403 15:43:13.140820 11083 net.cpp:399] inception_3a/1x1 -> inception_3a/1x1
I0403 15:43:13.142357 11083 net.cpp:141] Setting up inception_3a/1x1
I0403 15:43:13.142386 11083 net.cpp:148] Top shape: 24 64 28 28 (1204224)
I0403 15:43:13.142402 11083 net.cpp:156] Memory required for data: 496141344
I0403 15:43:13.142421 11083 layer_factory.hpp:77] Creating layer inception_3a/relu_1x1
I0403 15:43:13.142441 11083 net.cpp:91] Creating Layer inception_3a/relu_1x1
I0403 15:43:13.142458 11083 net.cpp:425] inception_3a/relu_1x1 <- inception_3a/1x1
I0403 15:43:13.142475 11083 net.cpp:386] inception_3a/relu_1x1 -> inception_3a/1x1 (in-place)
I0403 15:43:13.142647 11083 net.cpp:141] Setting up inception_3a/relu_1x1
I0403 15:43:13.142673 11083 net.cpp:148] Top shape: 24 64 28 28 (1204224)
I0403 15:43:13.142689 11083 net.cpp:156] Memory required for data: 500958240
I0403 15:43:13.142704 11083 layer_factory.hpp:77] Creating layer inception_3a/3x3_reduce
I0403 15:43:13.142726 11083 net.cpp:91] Creating Layer inception_3a/3x3_reduce
I0403 15:43:13.142745 11083 net.cpp:425] inception_3a/3x3_reduce <- pool2/3x3_s2_pool2/3x3_s2_0_split_1
I0403 15:43:13.142762 11083 net.cpp:399] inception_3a/3x3_reduce -> inception_3a/3x3_reduce
I0403 15:43:13.144439 11083 net.cpp:141] Setting up inception_3a/3x3_reduce
I0403 15:43:13.144469 11083 net.cpp:148] Top shape: 24 96 28 28 (1806336)
I0403 15:43:13.144484 11083 net.cpp:156] Memory required for data: 508183584
I0403 15:43:13.144506 11083 layer_factory.hpp:77] Creating layer inception_3a/relu_3x3_reduce
I0403 15:43:13.144543 11083 net.cpp:91] Creating Layer inception_3a/relu_3x3_reduce
I0403 15:43:13.144562 11083 net.cpp:425] inception_3a/relu_3x3_reduce <- inception_3a/3x3_reduce
I0403 15:43:13.144582 11083 net.cpp:386] inception_3a/relu_3x3_reduce -> inception_3a/3x3_reduce (in-place)
I0403 15:43:13.144762 11083 net.cpp:141] Setting up inception_3a/relu_3x3_reduce
I0403 15:43:13.144788 11083 net.cpp:148] Top shape: 24 96 28 28 (1806336)
I0403 15:43:13.144803 11083 net.cpp:156] Memory required for data: 515408928
I0403 15:43:13.144816 11083 layer_factory.hpp:77] Creating layer inception_3a/3x3
I0403 15:43:13.144840 11083 net.cpp:91] Creating Layer inception_3a/3x3
I0403 15:43:13.144856 11083 net.cpp:425] inception_3a/3x3 <- inception_3a/3x3_reduce
I0403 15:43:13.144878 11083 net.cpp:399] inception_3a/3x3 -> inception_3a/3x3
I0403 15:43:13.146500 11083 net.cpp:141] Setting up inception_3a/3x3
I0403 15:43:13.146530 11083 net.cpp:148] Top shape: 24 128 28 28 (2408448)
I0403 15:43:13.146546 11083 net.cpp:156] Memory required for data: 525042720
I0403 15:43:13.146565 11083 layer_factory.hpp:77] Creating layer inception_3a/relu_3x3
I0403 15:43:13.146584 11083 net.cpp:91] Creating Layer inception_3a/relu_3x3
I0403 15:43:13.146600 11083 net.cpp:425] inception_3a/relu_3x3 <- inception_3a/3x3
I0403 15:43:13.146617 11083 net.cpp:386] inception_3a/relu_3x3 -> inception_3a/3x3 (in-place)
I0403 15:43:13.146889 11083 net.cpp:141] Setting up inception_3a/relu_3x3
I0403 15:43:13.146919 11083 net.cpp:148] Top shape: 24 128 28 28 (2408448)
I0403 15:43:13.146934 11083 net.cpp:156] Memory required for data: 534676512
I0403 15:43:13.146949 11083 layer_factory.hpp:77] Creating layer inception_3a/5x5_reduce
I0403 15:43:13.146971 11083 net.cpp:91] Creating Layer inception_3a/5x5_reduce
I0403 15:43:13.146993 11083 net.cpp:425] inception_3a/5x5_reduce <- pool2/3x3_s2_pool2/3x3_s2_0_split_2
I0403 15:43:13.147013 11083 net.cpp:399] inception_3a/5x5_reduce -> inception_3a/5x5_reduce
I0403 15:43:13.147959 11083 net.cpp:141] Setting up inception_3a/5x5_reduce
I0403 15:43:13.147991 11083 net.cpp:148] Top shape: 24 16 28 28 (301056)
I0403 15:43:13.148007 11083 net.cpp:156] Memory required for data: 535880736
I0403 15:43:13.148026 11083 layer_factory.hpp:77] Creating layer inception_3a/relu_5x5_reduce
I0403 15:43:13.148044 11083 net.cpp:91] Creating Layer inception_3a/relu_5x5_reduce
I0403 15:43:13.148061 11083 net.cpp:425] inception_3a/relu_5x5_reduce <- inception_3a/5x5_reduce
I0403 15:43:13.148082 11083 net.cpp:386] inception_3a/relu_5x5_reduce -> inception_3a/5x5_reduce (in-place)
I0403 15:43:13.148380 11083 net.cpp:141] Setting up inception_3a/relu_5x5_reduce
I0403 15:43:13.148406 11083 net.cpp:148] Top shape: 24 16 28 28 (301056)
I0403 15:43:13.148422 11083 net.cpp:156] Memory required for data: 537084960
I0403 15:43:13.148437 11083 layer_factory.hpp:77] Creating layer inception_3a/5x5
I0403 15:43:13.148458 11083 net.cpp:91] Creating Layer inception_3a/5x5
I0403 15:43:13.148476 11083 net.cpp:425] inception_3a/5x5 <- inception_3a/5x5_reduce
I0403 15:43:13.148497 11083 net.cpp:399] inception_3a/5x5 -> inception_3a/5x5
I0403 15:43:13.149498 11083 net.cpp:141] Setting up inception_3a/5x5
I0403 15:43:13.149528 11083 net.cpp:148] Top shape: 24 32 28 28 (602112)
I0403 15:43:13.149544 11083 net.cpp:156] Memory required for data: 539493408
I0403 15:43:13.149564 11083 layer_factory.hpp:77] Creating layer inception_3a/relu_5x5
I0403 15:43:13.149581 11083 net.cpp:91] Creating Layer inception_3a/relu_5x5
I0403 15:43:13.149597 11083 net.cpp:425] inception_3a/relu_5x5 <- inception_3a/5x5
I0403 15:43:13.149615 11083 net.cpp:386] inception_3a/relu_5x5 -> inception_3a/5x5 (in-place)
I0403 15:43:13.149785 11083 net.cpp:141] Setting up inception_3a/relu_5x5
I0403 15:43:13.149812 11083 net.cpp:148] Top shape: 24 32 28 28 (602112)
I0403 15:43:13.149827 11083 net.cpp:156] Memory required for data: 541901856
I0403 15:43:13.149842 11083 layer_factory.hpp:77] Creating layer inception_3a/pool
I0403 15:43:13.149860 11083 net.cpp:91] Creating Layer inception_3a/pool
I0403 15:43:13.149889 11083 net.cpp:425] inception_3a/pool <- pool2/3x3_s2_pool2/3x3_s2_0_split_3
I0403 15:43:13.149911 11083 net.cpp:399] inception_3a/pool -> inception_3a/pool
I0403 15:43:13.149967 11083 net.cpp:141] Setting up inception_3a/pool
I0403 15:43:13.149997 11083 net.cpp:148] Top shape: 24 192 28 28 (3612672)
I0403 15:43:13.150013 11083 net.cpp:156] Memory required for data: 556352544
I0403 15:43:13.150029 11083 layer_factory.hpp:77] Creating layer inception_3a/pool_proj
I0403 15:43:13.150053 11083 net.cpp:91] Creating Layer inception_3a/pool_proj
I0403 15:43:13.150070 11083 net.cpp:425] inception_3a/pool_proj <- inception_3a/pool
I0403 15:43:13.150089 11083 net.cpp:399] inception_3a/pool_proj -> inception_3a/pool_proj
I0403 15:43:13.151038 11083 net.cpp:141] Setting up inception_3a/pool_proj
I0403 15:43:13.151067 11083 net.cpp:148] Top shape: 24 32 28 28 (602112)
I0403 15:43:13.151082 11083 net.cpp:156] Memory required for data: 558760992
I0403 15:43:13.151105 11083 layer_factory.hpp:77] Creating layer inception_3a/relu_pool_proj
I0403 15:43:13.151125 11083 net.cpp:91] Creating Layer inception_3a/relu_pool_proj
I0403 15:43:13.151141 11083 net.cpp:425] inception_3a/relu_pool_proj <- inception_3a/pool_proj
I0403 15:43:13.151160 11083 net.cpp:386] inception_3a/relu_pool_proj -> inception_3a/pool_proj (in-place)
I0403 15:43:13.151432 11083 net.cpp:141] Setting up inception_3a/relu_pool_proj
I0403 15:43:13.151459 11083 net.cpp:148] Top shape: 24 32 28 28 (602112)
I0403 15:43:13.151475 11083 net.cpp:156] Memory required for data: 561169440
I0403 15:43:13.151490 11083 layer_factory.hpp:77] Creating layer inception_3a/output
I0403 15:43:13.151509 11083 net.cpp:91] Creating Layer inception_3a/output
I0403 15:43:13.151523 11083 net.cpp:425] inception_3a/output <- inception_3a/1x1
I0403 15:43:13.151540 11083 net.cpp:425] inception_3a/output <- inception_3a/3x3
I0403 15:43:13.151556 11083 net.cpp:425] inception_3a/output <- inception_3a/5x5
I0403 15:43:13.151572 11083 net.cpp:425] inception_3a/output <- inception_3a/pool_proj
I0403 15:43:13.151589 11083 net.cpp:399] inception_3a/output -> inception_3a/output
I0403 15:43:13.151636 11083 net.cpp:141] Setting up inception_3a/output
I0403 15:43:13.151659 11083 net.cpp:148] Top shape: 24 256 28 28 (4816896)
I0403 15:43:13.151674 11083 net.cpp:156] Memory required for data: 580437024
I0403 15:43:13.151689 11083 layer_factory.hpp:77] Creating layer inception_3a/output_inception_3a/output_0_split
I0403 15:43:13.151708 11083 net.cpp:91] Creating Layer inception_3a/output_inception_3a/output_0_split
I0403 15:43:13.151724 11083 net.cpp:425] inception_3a/output_inception_3a/output_0_split <- inception_3a/output
I0403 15:43:13.151741 11083 net.cpp:399] inception_3a/output_inception_3a/output_0_split -> inception_3a/output_inception_3a/output_0_split_0
I0403 15:43:13.151762 11083 net.cpp:399] inception_3a/output_inception_3a/output_0_split -> inception_3a/output_inception_3a/output_0_split_1
I0403 15:43:13.151785 11083 net.cpp:399] inception_3a/output_inception_3a/output_0_split -> inception_3a/output_inception_3a/output_0_split_2
I0403 15:43:13.151806 11083 net.cpp:399] inception_3a/output_inception_3a/output_0_split -> inception_3a/output_inception_3a/output_0_split_3
I0403 15:43:13.151880 11083 net.cpp:141] Setting up inception_3a/output_inception_3a/output_0_split
I0403 15:43:13.151903 11083 net.cpp:148] Top shape: 24 256 28 28 (4816896)
I0403 15:43:13.151919 11083 net.cpp:148] Top shape: 24 256 28 28 (4816896)
I0403 15:43:13.151935 11083 net.cpp:148] Top shape: 24 256 28 28 (4816896)
I0403 15:43:13.151950 11083 net.cpp:148] Top shape: 24 256 28 28 (4816896)
I0403 15:43:13.151963 11083 net.cpp:156] Memory required for data: 657507360
I0403 15:43:13.151981 11083 layer_factory.hpp:77] Creating layer inception_3b/1x1
I0403 15:43:13.152007 11083 net.cpp:91] Creating Layer inception_3b/1x1
I0403 15:43:13.152024 11083 net.cpp:425] inception_3b/1x1 <- inception_3a/output_inception_3a/output_0_split_0
I0403 15:43:13.152043 11083 net.cpp:399] inception_3b/1x1 -> inception_3b/1x1
I0403 15:43:13.153159 11083 net.cpp:141] Setting up inception_3b/1x1
I0403 15:43:13.153198 11083 net.cpp:148] Top shape: 24 128 28 28 (2408448)
I0403 15:43:13.153214 11083 net.cpp:156] Memory required for data: 667141152
I0403 15:43:13.153234 11083 layer_factory.hpp:77] Creating layer inception_3b/relu_1x1
I0403 15:43:13.153254 11083 net.cpp:91] Creating Layer inception_3b/relu_1x1
I0403 15:43:13.153271 11083 net.cpp:425] inception_3b/relu_1x1 <- inception_3b/1x1
I0403 15:43:13.153288 11083 net.cpp:386] inception_3b/relu_1x1 -> inception_3b/1x1 (in-place)
I0403 15:43:13.153460 11083 net.cpp:141] Setting up inception_3b/relu_1x1
I0403 15:43:13.153488 11083 net.cpp:148] Top shape: 24 128 28 28 (2408448)
I0403 15:43:13.153503 11083 net.cpp:156] Memory required for data: 676774944
I0403 15:43:13.153518 11083 layer_factory.hpp:77] Creating layer inception_3b/3x3_reduce
I0403 15:43:13.153540 11083 net.cpp:91] Creating Layer inception_3b/3x3_reduce
I0403 15:43:13.153558 11083 net.cpp:425] inception_3b/3x3_reduce <- inception_3a/output_inception_3a/output_0_split_1
I0403 15:43:13.153576 11083 net.cpp:399] inception_3b/3x3_reduce -> inception_3b/3x3_reduce
I0403 15:43:13.154695 11083 net.cpp:141] Setting up inception_3b/3x3_reduce
I0403 15:43:13.154721 11083 net.cpp:148] Top shape: 24 128 28 28 (2408448)
I0403 15:43:13.154736 11083 net.cpp:156] Memory required for data: 686408736
I0403 15:43:13.154755 11083 layer_factory.hpp:77] Creating layer inception_3b/relu_3x3_reduce
I0403 15:43:13.154775 11083 net.cpp:91] Creating Layer inception_3b/relu_3x3_reduce
I0403 15:43:13.154793 11083 net.cpp:425] inception_3b/relu_3x3_reduce <- inception_3b/3x3_reduce
I0403 15:43:13.154810 11083 net.cpp:386] inception_3b/relu_3x3_reduce -> inception_3b/3x3_reduce (in-place)
I0403 15:43:13.154983 11083 net.cpp:141] Setting up inception_3b/relu_3x3_reduce
I0403 15:43:13.155011 11083 net.cpp:148] Top shape: 24 128 28 28 (2408448)
I0403 15:43:13.155026 11083 net.cpp:156] Memory required for data: 696042528
I0403 15:43:13.155041 11083 layer_factory.hpp:77] Creating layer inception_3b/3x3
I0403 15:43:13.155066 11083 net.cpp:91] Creating Layer inception_3b/3x3
I0403 15:43:13.155083 11083 net.cpp:425] inception_3b/3x3 <- inception_3b/3x3_reduce
I0403 15:43:13.155104 11083 net.cpp:399] inception_3b/3x3 -> inception_3b/3x3
I0403 15:43:13.157973 11083 net.cpp:141] Setting up inception_3b/3x3
I0403 15:43:13.158006 11083 net.cpp:148] Top shape: 24 192 28 28 (3612672)
I0403 15:43:13.158022 11083 net.cpp:156] Memory required for data: 710493216
I0403 15:43:13.158041 11083 layer_factory.hpp:77] Creating layer inception_3b/relu_3x3
I0403 15:43:13.158057 11083 net.cpp:91] Creating Layer inception_3b/relu_3x3
I0403 15:43:13.158073 11083 net.cpp:425] inception_3b/relu_3x3 <- inception_3b/3x3
I0403 15:43:13.158090 11083 net.cpp:386] inception_3b/relu_3x3 -> inception_3b/3x3 (in-place)
I0403 15:43:13.158366 11083 net.cpp:141] Setting up inception_3b/relu_3x3
I0403 15:43:13.158393 11083 net.cpp:148] Top shape: 24 192 28 28 (3612672)
I0403 15:43:13.158409 11083 net.cpp:156] Memory required for data: 724943904
I0403 15:43:13.158423 11083 layer_factory.hpp:77] Creating layer inception_3b/5x5_reduce
I0403 15:43:13.158444 11083 net.cpp:91] Creating Layer inception_3b/5x5_reduce
I0403 15:43:13.158463 11083 net.cpp:425] inception_3b/5x5_reduce <- inception_3a/output_inception_3a/output_0_split_2
I0403 15:43:13.158480 11083 net.cpp:399] inception_3b/5x5_reduce -> inception_3b/5x5_reduce
I0403 15:43:13.159440 11083 net.cpp:141] Setting up inception_3b/5x5_reduce
I0403 15:43:13.159468 11083 net.cpp:148] Top shape: 24 32 28 28 (602112)
I0403 15:43:13.159484 11083 net.cpp:156] Memory required for data: 727352352
I0403 15:43:13.159502 11083 layer_factory.hpp:77] Creating layer inception_3b/relu_5x5_reduce
I0403 15:43:13.159520 11083 net.cpp:91] Creating Layer inception_3b/relu_5x5_reduce
I0403 15:43:13.159535 11083 net.cpp:425] inception_3b/relu_5x5_reduce <- inception_3b/5x5_reduce
I0403 15:43:13.159551 11083 net.cpp:386] inception_3b/relu_5x5_reduce -> inception_3b/5x5_reduce (in-place)
I0403 15:43:13.159737 11083 net.cpp:141] Setting up inception_3b/relu_5x5_reduce
I0403 15:43:13.159761 11083 net.cpp:148] Top shape: 24 32 28 28 (602112)
I0403 15:43:13.159776 11083 net.cpp:156] Memory required for data: 729760800
I0403 15:43:13.159790 11083 layer_factory.hpp:77] Creating layer inception_3b/5x5
I0403 15:43:13.159812 11083 net.cpp:91] Creating Layer inception_3b/5x5
I0403 15:43:13.159829 11083 net.cpp:425] inception_3b/5x5 <- inception_3b/5x5_reduce
I0403 15:43:13.159849 11083 net.cpp:399] inception_3b/5x5 -> inception_3b/5x5
I0403 15:43:13.161753 11083 net.cpp:141] Setting up inception_3b/5x5
I0403 15:43:13.161782 11083 net.cpp:148] Top shape: 24 96 28 28 (1806336)
I0403 15:43:13.161797 11083 net.cpp:156] Memory required for data: 736986144
I0403 15:43:13.161814 11083 layer_factory.hpp:77] Creating layer inception_3b/relu_5x5
I0403 15:43:13.161834 11083 net.cpp:91] Creating Layer inception_3b/relu_5x5
I0403 15:43:13.161850 11083 net.cpp:425] inception_3b/relu_5x5 <- inception_3b/5x5
I0403 15:43:13.161867 11083 net.cpp:386] inception_3b/relu_5x5 -> inception_3b/5x5 (in-place)
I0403 15:43:13.162055 11083 net.cpp:141] Setting up inception_3b/relu_5x5
I0403 15:43:13.162081 11083 net.cpp:148] Top shape: 24 96 28 28 (1806336)
I0403 15:43:13.162096 11083 net.cpp:156] Memory required for data: 744211488
I0403 15:43:13.162109 11083 layer_factory.hpp:77] Creating layer inception_3b/pool
I0403 15:43:13.162127 11083 net.cpp:91] Creating Layer inception_3b/pool
I0403 15:43:13.162142 11083 net.cpp:425] inception_3b/pool <- inception_3a/output_inception_3a/output_0_split_3
I0403 15:43:13.162159 11083 net.cpp:399] inception_3b/pool -> inception_3b/pool
I0403 15:43:13.162214 11083 net.cpp:141] Setting up inception_3b/pool
I0403 15:43:13.162235 11083 net.cpp:148] Top shape: 24 256 28 28 (4816896)
I0403 15:43:13.162250 11083 net.cpp:156] Memory required for data: 763479072
I0403 15:43:13.162263 11083 layer_factory.hpp:77] Creating layer inception_3b/pool_proj
I0403 15:43:13.162286 11083 net.cpp:91] Creating Layer inception_3b/pool_proj
I0403 15:43:13.162302 11083 net.cpp:425] inception_3b/pool_proj <- inception_3b/pool
I0403 15:43:13.162322 11083 net.cpp:399] inception_3b/pool_proj -> inception_3b/pool_proj
I0403 15:43:13.163337 11083 net.cpp:141] Setting up inception_3b/pool_proj
I0403 15:43:13.163364 11083 net.cpp:148] Top shape: 24 64 28 28 (1204224)
I0403 15:43:13.163379 11083 net.cpp:156] Memory required for data: 768295968
I0403 15:43:13.163396 11083 layer_factory.hpp:77] Creating layer inception_3b/relu_pool_proj
I0403 15:43:13.163414 11083 net.cpp:91] Creating Layer inception_3b/relu_pool_proj
I0403 15:43:13.163432 11083 net.cpp:425] inception_3b/relu_pool_proj <- inception_3b/pool_proj
I0403 15:43:13.163450 11083 net.cpp:386] inception_3b/relu_pool_proj -> inception_3b/pool_proj (in-place)
I0403 15:43:13.163832 11083 net.cpp:141] Setting up inception_3b/relu_pool_proj
I0403 15:43:13.163857 11083 net.cpp:148] Top shape: 24 64 28 28 (1204224)
I0403 15:43:13.163873 11083 net.cpp:156] Memory required for data: 773112864
I0403 15:43:13.163887 11083 layer_factory.hpp:77] Creating layer inception_3b/output
I0403 15:43:13.163904 11083 net.cpp:91] Creating Layer inception_3b/output
I0403 15:43:13.163919 11083 net.cpp:425] inception_3b/output <- inception_3b/1x1
I0403 15:43:13.163936 11083 net.cpp:425] inception_3b/output <- inception_3b/3x3
I0403 15:43:13.163951 11083 net.cpp:425] inception_3b/output <- inception_3b/5x5
I0403 15:43:13.163966 11083 net.cpp:425] inception_3b/output <- inception_3b/pool_proj
I0403 15:43:13.163993 11083 net.cpp:399] inception_3b/output -> inception_3b/output
I0403 15:43:13.164037 11083 net.cpp:141] Setting up inception_3b/output
I0403 15:43:13.164062 11083 net.cpp:148] Top shape: 24 480 28 28 (9031680)
I0403 15:43:13.164077 11083 net.cpp:156] Memory required for data: 809239584
I0403 15:43:13.164090 11083 layer_factory.hpp:77] Creating layer pool3/3x3_s2
I0403 15:43:13.164108 11083 net.cpp:91] Creating Layer pool3/3x3_s2
I0403 15:43:13.164122 11083 net.cpp:425] pool3/3x3_s2 <- inception_3b/output
I0403 15:43:13.164155 11083 net.cpp:399] pool3/3x3_s2 -> pool3/3x3_s2
I0403 15:43:13.164212 11083 net.cpp:141] Setting up pool3/3x3_s2
I0403 15:43:13.164234 11083 net.cpp:148] Top shape: 24 480 14 14 (2257920)
I0403 15:43:13.164248 11083 net.cpp:156] Memory required for data: 818271264
I0403 15:43:13.164263 11083 layer_factory.hpp:77] Creating layer pool3/3x3_s2_pool3/3x3_s2_0_split
I0403 15:43:13.164278 11083 net.cpp:91] Creating Layer pool3/3x3_s2_pool3/3x3_s2_0_split
I0403 15:43:13.164294 11083 net.cpp:425] pool3/3x3_s2_pool3/3x3_s2_0_split <- pool3/3x3_s2
I0403 15:43:13.164312 11083 net.cpp:399] pool3/3x3_s2_pool3/3x3_s2_0_split -> pool3/3x3_s2_pool3/3x3_s2_0_split_0
I0403 15:43:13.164331 11083 net.cpp:399] pool3/3x3_s2_pool3/3x3_s2_0_split -> pool3/3x3_s2_pool3/3x3_s2_0_split_1
I0403 15:43:13.164351 11083 net.cpp:399] pool3/3x3_s2_pool3/3x3_s2_0_split -> pool3/3x3_s2_pool3/3x3_s2_0_split_2
I0403 15:43:13.164371 11083 net.cpp:399] pool3/3x3_s2_pool3/3x3_s2_0_split -> pool3/3x3_s2_pool3/3x3_s2_0_split_3
I0403 15:43:13.164448 11083 net.cpp:141] Setting up pool3/3x3_s2_pool3/3x3_s2_0_split
I0403 15:43:13.164469 11083 net.cpp:148] Top shape: 24 480 14 14 (2257920)
I0403 15:43:13.164484 11083 net.cpp:148] Top shape: 24 480 14 14 (2257920)
I0403 15:43:13.164499 11083 net.cpp:148] Top shape: 24 480 14 14 (2257920)
I0403 15:43:13.164515 11083 net.cpp:148] Top shape: 24 480 14 14 (2257920)
I0403 15:43:13.164527 11083 net.cpp:156] Memory required for data: 854397984
I0403 15:43:13.164541 11083 layer_factory.hpp:77] Creating layer inception_4a/1x1
I0403 15:43:13.164561 11083 net.cpp:91] Creating Layer inception_4a/1x1
I0403 15:43:13.164578 11083 net.cpp:425] inception_4a/1x1 <- pool3/3x3_s2_pool3/3x3_s2_0_split_0
I0403 15:43:13.164598 11083 net.cpp:399] inception_4a/1x1 -> inception_4a/1x1
I0403 15:43:13.166113 11083 net.cpp:141] Setting up inception_4a/1x1
I0403 15:43:13.166141 11083 net.cpp:148] Top shape: 24 192 14 14 (903168)
I0403 15:43:13.166157 11083 net.cpp:156] Memory required for data: 858010656
I0403 15:43:13.166174 11083 layer_factory.hpp:77] Creating layer inception_4a/relu_1x1
I0403 15:43:13.166194 11083 net.cpp:91] Creating Layer inception_4a/relu_1x1
I0403 15:43:13.166211 11083 net.cpp:425] inception_4a/relu_1x1 <- inception_4a/1x1
I0403 15:43:13.166229 11083 net.cpp:386] inception_4a/relu_1x1 -> inception_4a/1x1 (in-place)
I0403 15:43:13.166395 11083 net.cpp:141] Setting up inception_4a/relu_1x1
I0403 15:43:13.166419 11083 net.cpp:148] Top shape: 24 192 14 14 (903168)
I0403 15:43:13.166435 11083 net.cpp:156] Memory required for data: 861623328
I0403 15:43:13.166448 11083 layer_factory.hpp:77] Creating layer inception_4a/3x3_reduce
I0403 15:43:13.166471 11083 net.cpp:91] Creating Layer inception_4a/3x3_reduce
I0403 15:43:13.166488 11083 net.cpp:425] inception_4a/3x3_reduce <- pool3/3x3_s2_pool3/3x3_s2_0_split_1
I0403 15:43:13.166507 11083 net.cpp:399] inception_4a/3x3_reduce -> inception_4a/3x3_reduce
I0403 15:43:13.167728 11083 net.cpp:141] Setting up inception_4a/3x3_reduce
I0403 15:43:13.167755 11083 net.cpp:148] Top shape: 24 96 14 14 (451584)
I0403 15:43:13.167771 11083 net.cpp:156] Memory required for data: 863429664
I0403 15:43:13.167796 11083 layer_factory.hpp:77] Creating layer inception_4a/relu_3x3_reduce
I0403 15:43:13.167815 11083 net.cpp:91] Creating Layer inception_4a/relu_3x3_reduce
I0403 15:43:13.167831 11083 net.cpp:425] inception_4a/relu_3x3_reduce <- inception_4a/3x3_reduce
I0403 15:43:13.167850 11083 net.cpp:386] inception_4a/relu_3x3_reduce -> inception_4a/3x3_reduce (in-place)
I0403 15:43:13.168026 11083 net.cpp:141] Setting up inception_4a/relu_3x3_reduce
I0403 15:43:13.168051 11083 net.cpp:148] Top shape: 24 96 14 14 (451584)
I0403 15:43:13.168066 11083 net.cpp:156] Memory required for data: 865236000
I0403 15:43:13.168079 11083 layer_factory.hpp:77] Creating layer inception_4a/3x3
I0403 15:43:13.168100 11083 net.cpp:91] Creating Layer inception_4a/3x3
I0403 15:43:13.168118 11083 net.cpp:425] inception_4a/3x3 <- inception_4a/3x3_reduce
I0403 15:43:13.168138 11083 net.cpp:399] inception_4a/3x3 -> inception_4a/3x3
I0403 15:43:13.170807 11083 net.cpp:141] Setting up inception_4a/3x3
I0403 15:43:13.170836 11083 net.cpp:148] Top shape: 24 208 14 14 (978432)
I0403 15:43:13.170851 11083 net.cpp:156] Memory required for data: 869149728
I0403 15:43:13.170871 11083 layer_factory.hpp:77] Creating layer inception_4a/relu_3x3
I0403 15:43:13.170891 11083 net.cpp:91] Creating Layer inception_4a/relu_3x3
I0403 15:43:13.170907 11083 net.cpp:425] inception_4a/relu_3x3 <- inception_4a/3x3
I0403 15:43:13.170925 11083 net.cpp:386] inception_4a/relu_3x3 -> inception_4a/3x3 (in-place)
I0403 15:43:13.171210 11083 net.cpp:141] Setting up inception_4a/relu_3x3
I0403 15:43:13.171236 11083 net.cpp:148] Top shape: 24 208 14 14 (978432)
I0403 15:43:13.171250 11083 net.cpp:156] Memory required for data: 873063456
I0403 15:43:13.171265 11083 layer_factory.hpp:77] Creating layer inception_4a/5x5_reduce
I0403 15:43:13.171288 11083 net.cpp:91] Creating Layer inception_4a/5x5_reduce
I0403 15:43:13.171305 11083 net.cpp:425] inception_4a/5x5_reduce <- pool3/3x3_s2_pool3/3x3_s2_0_split_2
I0403 15:43:13.171326 11083 net.cpp:399] inception_4a/5x5_reduce -> inception_4a/5x5_reduce
I0403 15:43:13.172350 11083 net.cpp:141] Setting up inception_4a/5x5_reduce
I0403 15:43:13.172384 11083 net.cpp:148] Top shape: 24 16 14 14 (75264)
I0403 15:43:13.172400 11083 net.cpp:156] Memory required for data: 873364512
I0403 15:43:13.172418 11083 layer_factory.hpp:77] Creating layer inception_4a/relu_5x5_reduce
I0403 15:43:13.172437 11083 net.cpp:91] Creating Layer inception_4a/relu_5x5_reduce
I0403 15:43:13.172453 11083 net.cpp:425] inception_4a/relu_5x5_reduce <- inception_4a/5x5_reduce
I0403 15:43:13.172472 11083 net.cpp:386] inception_4a/relu_5x5_reduce -> inception_4a/5x5_reduce (in-place)
I0403 15:43:13.172649 11083 net.cpp:141] Setting up inception_4a/relu_5x5_reduce
I0403 15:43:13.172677 11083 net.cpp:148] Top shape: 24 16 14 14 (75264)
I0403 15:43:13.172691 11083 net.cpp:156] Memory required for data: 873665568
I0403 15:43:13.172706 11083 layer_factory.hpp:77] Creating layer inception_4a/5x5
I0403 15:43:13.172729 11083 net.cpp:91] Creating Layer inception_4a/5x5
I0403 15:43:13.172746 11083 net.cpp:425] inception_4a/5x5 <- inception_4a/5x5_reduce
I0403 15:43:13.172767 11083 net.cpp:399] inception_4a/5x5 -> inception_4a/5x5
I0403 15:43:13.173851 11083 net.cpp:141] Setting up inception_4a/5x5
I0403 15:43:13.173878 11083 net.cpp:148] Top shape: 24 48 14 14 (225792)
I0403 15:43:13.173893 11083 net.cpp:156] Memory required for data: 874568736
I0403 15:43:13.173913 11083 layer_factory.hpp:77] Creating layer inception_4a/relu_5x5
I0403 15:43:13.173930 11083 net.cpp:91] Creating Layer inception_4a/relu_5x5
I0403 15:43:13.173945 11083 net.cpp:425] inception_4a/relu_5x5 <- inception_4a/5x5
I0403 15:43:13.173964 11083 net.cpp:386] inception_4a/relu_5x5 -> inception_4a/5x5 (in-place)
I0403 15:43:13.174144 11083 net.cpp:141] Setting up inception_4a/relu_5x5
I0403 15:43:13.174170 11083 net.cpp:148] Top shape: 24 48 14 14 (225792)
I0403 15:43:13.174185 11083 net.cpp:156] Memory required for data: 875471904
I0403 15:43:13.174199 11083 layer_factory.hpp:77] Creating layer inception_4a/pool
I0403 15:43:13.174219 11083 net.cpp:91] Creating Layer inception_4a/pool
I0403 15:43:13.174235 11083 net.cpp:425] inception_4a/pool <- pool3/3x3_s2_pool3/3x3_s2_0_split_3
I0403 15:43:13.174253 11083 net.cpp:399] inception_4a/pool -> inception_4a/pool
I0403 15:43:13.174315 11083 net.cpp:141] Setting up inception_4a/pool
I0403 15:43:13.174338 11083 net.cpp:148] Top shape: 24 480 14 14 (2257920)
I0403 15:43:13.174353 11083 net.cpp:156] Memory required for data: 884503584
I0403 15:43:13.174367 11083 layer_factory.hpp:77] Creating layer inception_4a/pool_proj
I0403 15:43:13.174391 11083 net.cpp:91] Creating Layer inception_4a/pool_proj
I0403 15:43:13.174407 11083 net.cpp:425] inception_4a/pool_proj <- inception_4a/pool
I0403 15:43:13.174428 11083 net.cpp:399] inception_4a/pool_proj -> inception_4a/pool_proj
I0403 15:43:13.175582 11083 net.cpp:141] Setting up inception_4a/pool_proj
I0403 15:43:13.175611 11083 net.cpp:148] Top shape: 24 64 14 14 (301056)
I0403 15:43:13.175642 11083 net.cpp:156] Memory required for data: 885707808
I0403 15:43:13.175662 11083 layer_factory.hpp:77] Creating layer inception_4a/relu_pool_proj
I0403 15:43:13.175680 11083 net.cpp:91] Creating Layer inception_4a/relu_pool_proj
I0403 15:43:13.175696 11083 net.cpp:425] inception_4a/relu_pool_proj <- inception_4a/pool_proj
I0403 15:43:13.175721 11083 net.cpp:386] inception_4a/relu_pool_proj -> inception_4a/pool_proj (in-place)
I0403 15:43:13.176009 11083 net.cpp:141] Setting up inception_4a/relu_pool_proj
I0403 15:43:13.176035 11083 net.cpp:148] Top shape: 24 64 14 14 (301056)
I0403 15:43:13.176051 11083 net.cpp:156] Memory required for data: 886912032
I0403 15:43:13.176065 11083 layer_factory.hpp:77] Creating layer inception_4a/output
I0403 15:43:13.176084 11083 net.cpp:91] Creating Layer inception_4a/output
I0403 15:43:13.176098 11083 net.cpp:425] inception_4a/output <- inception_4a/1x1
I0403 15:43:13.176115 11083 net.cpp:425] inception_4a/output <- inception_4a/3x3
I0403 15:43:13.176131 11083 net.cpp:425] inception_4a/output <- inception_4a/5x5
I0403 15:43:13.176147 11083 net.cpp:425] inception_4a/output <- inception_4a/pool_proj
I0403 15:43:13.176167 11083 net.cpp:399] inception_4a/output -> inception_4a/output
I0403 15:43:13.176213 11083 net.cpp:141] Setting up inception_4a/output
I0403 15:43:13.176239 11083 net.cpp:148] Top shape: 24 512 14 14 (2408448)
I0403 15:43:13.176254 11083 net.cpp:156] Memory required for data: 896545824
I0403 15:43:13.176268 11083 layer_factory.hpp:77] Creating layer inception_4a/output_inception_4a/output_0_split
I0403 15:43:13.176286 11083 net.cpp:91] Creating Layer inception_4a/output_inception_4a/output_0_split
I0403 15:43:13.176301 11083 net.cpp:425] inception_4a/output_inception_4a/output_0_split <- inception_4a/output
I0403 15:43:13.176321 11083 net.cpp:399] inception_4a/output_inception_4a/output_0_split -> inception_4a/output_inception_4a/output_0_split_0
I0403 15:43:13.176343 11083 net.cpp:399] inception_4a/output_inception_4a/output_0_split -> inception_4a/output_inception_4a/output_0_split_1
I0403 15:43:13.176364 11083 net.cpp:399] inception_4a/output_inception_4a/output_0_split -> inception_4a/output_inception_4a/output_0_split_2
I0403 15:43:13.176384 11083 net.cpp:399] inception_4a/output_inception_4a/output_0_split -> inception_4a/output_inception_4a/output_0_split_3
I0403 15:43:13.176404 11083 net.cpp:399] inception_4a/output_inception_4a/output_0_split -> inception_4a/output_inception_4a/output_0_split_4
I0403 15:43:13.176496 11083 net.cpp:141] Setting up inception_4a/output_inception_4a/output_0_split
I0403 15:43:13.176522 11083 net.cpp:148] Top shape: 24 512 14 14 (2408448)
I0403 15:43:13.176538 11083 net.cpp:148] Top shape: 24 512 14 14 (2408448)
I0403 15:43:13.176554 11083 net.cpp:148] Top shape: 24 512 14 14 (2408448)
I0403 15:43:13.176569 11083 net.cpp:148] Top shape: 24 512 14 14 (2408448)
I0403 15:43:13.176584 11083 net.cpp:148] Top shape: 24 512 14 14 (2408448)
I0403 15:43:13.176597 11083 net.cpp:156] Memory required for data: 944714784
I0403 15:43:13.176611 11083 layer_factory.hpp:77] Creating layer loss1/ave_pool
I0403 15:43:13.176630 11083 net.cpp:91] Creating Layer loss1/ave_pool
I0403 15:43:13.176645 11083 net.cpp:425] loss1/ave_pool <- inception_4a/output_inception_4a/output_0_split_0
I0403 15:43:13.176663 11083 net.cpp:399] loss1/ave_pool -> loss1/ave_pool
I0403 15:43:13.176865 11083 net.cpp:141] Setting up loss1/ave_pool
I0403 15:43:13.176890 11083 net.cpp:148] Top shape: 24 512 4 4 (196608)
I0403 15:43:13.176905 11083 net.cpp:156] Memory required for data: 945501216
I0403 15:43:13.176919 11083 layer_factory.hpp:77] Creating layer loss1/conv
I0403 15:43:13.176942 11083 net.cpp:91] Creating Layer loss1/conv
I0403 15:43:13.176960 11083 net.cpp:425] loss1/conv <- loss1/ave_pool
I0403 15:43:13.176986 11083 net.cpp:399] loss1/conv -> loss1/conv
I0403 15:43:13.178375 11083 net.cpp:141] Setting up loss1/conv
I0403 15:43:13.178403 11083 net.cpp:148] Top shape: 24 128 4 4 (49152)
I0403 15:43:13.178432 11083 net.cpp:156] Memory required for data: 945697824
I0403 15:43:13.178452 11083 layer_factory.hpp:77] Creating layer loss1/relu_conv
I0403 15:43:13.178472 11083 net.cpp:91] Creating Layer loss1/relu_conv
I0403 15:43:13.178488 11083 net.cpp:425] loss1/relu_conv <- loss1/conv
I0403 15:43:13.178506 11083 net.cpp:386] loss1/relu_conv -> loss1/conv (in-place)
I0403 15:43:13.178784 11083 net.cpp:141] Setting up loss1/relu_conv
I0403 15:43:13.178810 11083 net.cpp:148] Top shape: 24 128 4 4 (49152)
I0403 15:43:13.178827 11083 net.cpp:156] Memory required for data: 945894432
I0403 15:43:13.178841 11083 layer_factory.hpp:77] Creating layer loss1/fc
I0403 15:43:13.178867 11083 net.cpp:91] Creating Layer loss1/fc
I0403 15:43:13.178886 11083 net.cpp:425] loss1/fc <- loss1/conv
I0403 15:43:13.178907 11083 net.cpp:399] loss1/fc -> loss1/fc
I0403 15:43:13.196522 11083 net.cpp:141] Setting up loss1/fc
I0403 15:43:13.196557 11083 net.cpp:148] Top shape: 24 1024 (24576)
I0403 15:43:13.196573 11083 net.cpp:156] Memory required for data: 945992736
I0403 15:43:13.196589 11083 layer_factory.hpp:77] Creating layer loss1/relu_fc
I0403 15:43:13.196607 11083 net.cpp:91] Creating Layer loss1/relu_fc
I0403 15:43:13.196626 11083 net.cpp:425] loss1/relu_fc <- loss1/fc
I0403 15:43:13.196643 11083 net.cpp:386] loss1/relu_fc -> loss1/fc (in-place)
I0403 15:43:13.196826 11083 net.cpp:141] Setting up loss1/relu_fc
I0403 15:43:13.196849 11083 net.cpp:148] Top shape: 24 1024 (24576)
I0403 15:43:13.196863 11083 net.cpp:156] Memory required for data: 946091040
I0403 15:43:13.196878 11083 layer_factory.hpp:77] Creating layer loss1/drop_fc
I0403 15:43:13.196905 11083 net.cpp:91] Creating Layer loss1/drop_fc
I0403 15:43:13.196923 11083 net.cpp:425] loss1/drop_fc <- loss1/fc
I0403 15:43:13.196940 11083 net.cpp:386] loss1/drop_fc -> loss1/fc (in-place)
I0403 15:43:13.196993 11083 net.cpp:141] Setting up loss1/drop_fc
I0403 15:43:13.197018 11083 net.cpp:148] Top shape: 24 1024 (24576)
I0403 15:43:13.197033 11083 net.cpp:156] Memory required for data: 946189344
I0403 15:43:13.197048 11083 layer_factory.hpp:77] Creating layer loss1/classifier_plantvillage
I0403 15:43:13.197065 11083 net.cpp:91] Creating Layer loss1/classifier_plantvillage
I0403 15:43:13.197082 11083 net.cpp:425] loss1/classifier_plantvillage <- loss1/fc
I0403 15:43:13.197103 11083 net.cpp:399] loss1/classifier_plantvillage -> loss1/classifier_plantvillage
I0403 15:43:13.197999 11083 net.cpp:141] Setting up loss1/classifier_plantvillage
I0403 15:43:13.198026 11083 net.cpp:148] Top shape: 24 38 (912)
I0403 15:43:13.198041 11083 net.cpp:156] Memory required for data: 946192992
I0403 15:43:13.198060 11083 layer_factory.hpp:77] Creating layer loss1/classifier_plantvillage_loss1/classifier_plantvillage_0_split
I0403 15:43:13.198079 11083 net.cpp:91] Creating Layer loss1/classifier_plantvillage_loss1/classifier_plantvillage_0_split
I0403 15:43:13.198096 11083 net.cpp:425] loss1/classifier_plantvillage_loss1/classifier_plantvillage_0_split <- loss1/classifier_plantvillage
I0403 15:43:13.198112 11083 net.cpp:399] loss1/classifier_plantvillage_loss1/classifier_plantvillage_0_split -> loss1/classifier_plantvillage_loss1/classifier_plantvillage_0_split_0
I0403 15:43:13.198132 11083 net.cpp:399] loss1/classifier_plantvillage_loss1/classifier_plantvillage_0_split -> loss1/classifier_plantvillage_loss1/classifier_plantvillage_0_split_1
I0403 15:43:13.198153 11083 net.cpp:399] loss1/classifier_plantvillage_loss1/classifier_plantvillage_0_split -> loss1/classifier_plantvillage_loss1/classifier_plantvillage_0_split_2
I0403 15:43:13.198217 11083 net.cpp:141] Setting up loss1/classifier_plantvillage_loss1/classifier_plantvillage_0_split
I0403 15:43:13.198240 11083 net.cpp:148] Top shape: 24 38 (912)
I0403 15:43:13.198256 11083 net.cpp:148] Top shape: 24 38 (912)
I0403 15:43:13.198269 11083 net.cpp:148] Top shape: 24 38 (912)
I0403 15:43:13.198283 11083 net.cpp:156] Memory required for data: 946203936
I0403 15:43:13.198297 11083 layer_factory.hpp:77] Creating layer inception_4b/1x1
I0403 15:43:13.198318 11083 net.cpp:91] Creating Layer inception_4b/1x1
I0403 15:43:13.198350 11083 net.cpp:425] inception_4b/1x1 <- inception_4a/output_inception_4a/output_0_split_1
I0403 15:43:13.198372 11083 net.cpp:399] inception_4b/1x1 -> inception_4b/1x1
I0403 15:43:13.199965 11083 net.cpp:141] Setting up inception_4b/1x1
I0403 15:43:13.200000 11083 net.cpp:148] Top shape: 24 160 14 14 (752640)
I0403 15:43:13.200016 11083 net.cpp:156] Memory required for data: 949214496
I0403 15:43:13.200034 11083 layer_factory.hpp:77] Creating layer inception_4b/relu_1x1
I0403 15:43:13.200052 11083 net.cpp:91] Creating Layer inception_4b/relu_1x1
I0403 15:43:13.200068 11083 net.cpp:425] inception_4b/relu_1x1 <- inception_4b/1x1
I0403 15:43:13.200085 11083 net.cpp:386] inception_4b/relu_1x1 -> inception_4b/1x1 (in-place)
I0403 15:43:13.200259 11083 net.cpp:141] Setting up inception_4b/relu_1x1
I0403 15:43:13.200285 11083 net.cpp:148] Top shape: 24 160 14 14 (752640)
I0403 15:43:13.200301 11083 net.cpp:156] Memory required for data: 952225056
I0403 15:43:13.200315 11083 layer_factory.hpp:77] Creating layer inception_4b/3x3_reduce
I0403 15:43:13.200336 11083 net.cpp:91] Creating Layer inception_4b/3x3_reduce
I0403 15:43:13.200355 11083 net.cpp:425] inception_4b/3x3_reduce <- inception_4a/output_inception_4a/output_0_split_2
I0403 15:43:13.200372 11083 net.cpp:399] inception_4b/3x3_reduce -> inception_4b/3x3_reduce
I0403 15:43:13.201683 11083 net.cpp:141] Setting up inception_4b/3x3_reduce
I0403 15:43:13.201712 11083 net.cpp:148] Top shape: 24 112 14 14 (526848)
I0403 15:43:13.201730 11083 net.cpp:156] Memory required for data: 954332448
I0403 15:43:13.201746 11083 layer_factory.hpp:77] Creating layer inception_4b/relu_3x3_reduce
I0403 15:43:13.201764 11083 net.cpp:91] Creating Layer inception_4b/relu_3x3_reduce
I0403 15:43:13.201779 11083 net.cpp:425] inception_4b/relu_3x3_reduce <- inception_4b/3x3_reduce
I0403 15:43:13.201799 11083 net.cpp:386] inception_4b/relu_3x3_reduce -> inception_4b/3x3_reduce (in-place)
I0403 15:43:13.202085 11083 net.cpp:141] Setting up inception_4b/relu_3x3_reduce
I0403 15:43:13.202111 11083 net.cpp:148] Top shape: 24 112 14 14 (526848)
I0403 15:43:13.202127 11083 net.cpp:156] Memory required for data: 956439840
I0403 15:43:13.202142 11083 layer_factory.hpp:77] Creating layer inception_4b/3x3
I0403 15:43:13.202163 11083 net.cpp:91] Creating Layer inception_4b/3x3
I0403 15:43:13.202180 11083 net.cpp:425] inception_4b/3x3 <- inception_4b/3x3_reduce
I0403 15:43:13.202198 11083 net.cpp:399] inception_4b/3x3 -> inception_4b/3x3
I0403 15:43:13.205101 11083 net.cpp:141] Setting up inception_4b/3x3
I0403 15:43:13.205129 11083 net.cpp:148] Top shape: 24 224 14 14 (1053696)
I0403 15:43:13.205145 11083 net.cpp:156] Memory required for data: 960654624
I0403 15:43:13.205163 11083 layer_factory.hpp:77] Creating layer inception_4b/relu_3x3
I0403 15:43:13.205183 11083 net.cpp:91] Creating Layer inception_4b/relu_3x3
I0403 15:43:13.205202 11083 net.cpp:425] inception_4b/relu_3x3 <- inception_4b/3x3
I0403 15:43:13.205219 11083 net.cpp:386] inception_4b/relu_3x3 -> inception_4b/3x3 (in-place)
I0403 15:43:13.205394 11083 net.cpp:141] Setting up inception_4b/relu_3x3
I0403 15:43:13.205418 11083 net.cpp:148] Top shape: 24 224 14 14 (1053696)
I0403 15:43:13.205432 11083 net.cpp:156] Memory required for data: 964869408
I0403 15:43:13.205447 11083 layer_factory.hpp:77] Creating layer inception_4b/5x5_reduce
I0403 15:43:13.205471 11083 net.cpp:91] Creating Layer inception_4b/5x5_reduce
I0403 15:43:13.205488 11083 net.cpp:425] inception_4b/5x5_reduce <- inception_4a/output_inception_4a/output_0_split_3
I0403 15:43:13.205507 11083 net.cpp:399] inception_4b/5x5_reduce -> inception_4b/5x5_reduce
I0403 15:43:13.206593 11083 net.cpp:141] Setting up inception_4b/5x5_reduce
I0403 15:43:13.206625 11083 net.cpp:148] Top shape: 24 24 14 14 (112896)
I0403 15:43:13.206641 11083 net.cpp:156] Memory required for data: 965320992
I0403 15:43:13.206660 11083 layer_factory.hpp:77] Creating layer inception_4b/relu_5x5_reduce
I0403 15:43:13.206676 11083 net.cpp:91] Creating Layer inception_4b/relu_5x5_reduce
I0403 15:43:13.206707 11083 net.cpp:425] inception_4b/relu_5x5_reduce <- inception_4b/5x5_reduce
I0403 15:43:13.206727 11083 net.cpp:386] inception_4b/relu_5x5_reduce -> inception_4b/5x5_reduce (in-place)
I0403 15:43:13.206905 11083 net.cpp:141] Setting up inception_4b/relu_5x5_reduce
I0403 15:43:13.206929 11083 net.cpp:148] Top shape: 24 24 14 14 (112896)
I0403 15:43:13.206943 11083 net.cpp:156] Memory required for data: 965772576
I0403 15:43:13.206957 11083 layer_factory.hpp:77] Creating layer inception_4b/5x5
I0403 15:43:13.206984 11083 net.cpp:91] Creating Layer inception_4b/5x5
I0403 15:43:13.207001 11083 net.cpp:425] inception_4b/5x5 <- inception_4b/5x5_reduce
I0403 15:43:13.207022 11083 net.cpp:399] inception_4b/5x5 -> inception_4b/5x5
I0403 15:43:13.208204 11083 net.cpp:141] Setting up inception_4b/5x5
I0403 15:43:13.208233 11083 net.cpp:148] Top shape: 24 64 14 14 (301056)
I0403 15:43:13.208250 11083 net.cpp:156] Memory required for data: 966976800
I0403 15:43:13.208266 11083 layer_factory.hpp:77] Creating layer inception_4b/relu_5x5
I0403 15:43:13.208284 11083 net.cpp:91] Creating Layer inception_4b/relu_5x5
I0403 15:43:13.208300 11083 net.cpp:425] inception_4b/relu_5x5 <- inception_4b/5x5
I0403 15:43:13.208317 11083 net.cpp:386] inception_4b/relu_5x5 -> inception_4b/5x5 (in-place)
I0403 15:43:13.208591 11083 net.cpp:141] Setting up inception_4b/relu_5x5
I0403 15:43:13.208619 11083 net.cpp:148] Top shape: 24 64 14 14 (301056)
I0403 15:43:13.208634 11083 net.cpp:156] Memory required for data: 968181024
I0403 15:43:13.208649 11083 layer_factory.hpp:77] Creating layer inception_4b/pool
I0403 15:43:13.208667 11083 net.cpp:91] Creating Layer inception_4b/pool
I0403 15:43:13.208683 11083 net.cpp:425] inception_4b/pool <- inception_4a/output_inception_4a/output_0_split_4
I0403 15:43:13.208699 11083 net.cpp:399] inception_4b/pool -> inception_4b/pool
I0403 15:43:13.208763 11083 net.cpp:141] Setting up inception_4b/pool
I0403 15:43:13.208786 11083 net.cpp:148] Top shape: 24 512 14 14 (2408448)
I0403 15:43:13.208801 11083 net.cpp:156] Memory required for data: 977814816
I0403 15:43:13.208816 11083 layer_factory.hpp:77] Creating layer inception_4b/pool_proj
I0403 15:43:13.208837 11083 net.cpp:91] Creating Layer inception_4b/pool_proj
I0403 15:43:13.208853 11083 net.cpp:425] inception_4b/pool_proj <- inception_4b/pool
I0403 15:43:13.208873 11083 net.cpp:399] inception_4b/pool_proj -> inception_4b/pool_proj
I0403 15:43:13.210052 11083 net.cpp:141] Setting up inception_4b/pool_proj
I0403 15:43:13.210083 11083 net.cpp:148] Top shape: 24 64 14 14 (301056)
I0403 15:43:13.210099 11083 net.cpp:156] Memory required for data: 979019040
I0403 15:43:13.210116 11083 layer_factory.hpp:77] Creating layer inception_4b/relu_pool_proj
I0403 15:43:13.210134 11083 net.cpp:91] Creating Layer inception_4b/relu_pool_proj
I0403 15:43:13.210150 11083 net.cpp:425] inception_4b/relu_pool_proj <- inception_4b/pool_proj
I0403 15:43:13.210166 11083 net.cpp:386] inception_4b/relu_pool_proj -> inception_4b/pool_proj (in-place)
I0403 15:43:13.210347 11083 net.cpp:141] Setting up inception_4b/relu_pool_proj
I0403 15:43:13.210371 11083 net.cpp:148] Top shape: 24 64 14 14 (301056)
I0403 15:43:13.210386 11083 net.cpp:156] Memory required for data: 980223264
I0403 15:43:13.210399 11083 layer_factory.hpp:77] Creating layer inception_4b/output
I0403 15:43:13.210417 11083 net.cpp:91] Creating Layer inception_4b/output
I0403 15:43:13.210432 11083 net.cpp:425] inception_4b/output <- inception_4b/1x1
I0403 15:43:13.210448 11083 net.cpp:425] inception_4b/output <- inception_4b/3x3
I0403 15:43:13.210464 11083 net.cpp:425] inception_4b/output <- inception_4b/5x5
I0403 15:43:13.210479 11083 net.cpp:425] inception_4b/output <- inception_4b/pool_proj
I0403 15:43:13.210499 11083 net.cpp:399] inception_4b/output -> inception_4b/output
I0403 15:43:13.210541 11083 net.cpp:141] Setting up inception_4b/output
I0403 15:43:13.210566 11083 net.cpp:148] Top shape: 24 512 14 14 (2408448)
I0403 15:43:13.210582 11083 net.cpp:156] Memory required for data: 989857056
I0403 15:43:13.210608 11083 layer_factory.hpp:77] Creating layer inception_4b/output_inception_4b/output_0_split
I0403 15:43:13.210626 11083 net.cpp:91] Creating Layer inception_4b/output_inception_4b/output_0_split
I0403 15:43:13.210641 11083 net.cpp:425] inception_4b/output_inception_4b/output_0_split <- inception_4b/output
I0403 15:43:13.210659 11083 net.cpp:399] inception_4b/output_inception_4b/output_0_split -> inception_4b/output_inception_4b/output_0_split_0
I0403 15:43:13.210680 11083 net.cpp:399] inception_4b/output_inception_4b/output_0_split -> inception_4b/output_inception_4b/output_0_split_1
I0403 15:43:13.210700 11083 net.cpp:399] inception_4b/output_inception_4b/output_0_split -> inception_4b/output_inception_4b/output_0_split_2
I0403 15:43:13.210719 11083 net.cpp:399] inception_4b/output_inception_4b/output_0_split -> inception_4b/output_inception_4b/output_0_split_3
I0403 15:43:13.210798 11083 net.cpp:141] Setting up inception_4b/output_inception_4b/output_0_split
I0403 15:43:13.210820 11083 net.cpp:148] Top shape: 24 512 14 14 (2408448)
I0403 15:43:13.210836 11083 net.cpp:148] Top shape: 24 512 14 14 (2408448)
I0403 15:43:13.210851 11083 net.cpp:148] Top shape: 24 512 14 14 (2408448)
I0403 15:43:13.210866 11083 net.cpp:148] Top shape: 24 512 14 14 (2408448)
I0403 15:43:13.210880 11083 net.cpp:156] Memory required for data: 1028392224
I0403 15:43:13.210893 11083 layer_factory.hpp:77] Creating layer inception_4c/1x1
I0403 15:43:13.210916 11083 net.cpp:91] Creating Layer inception_4c/1x1
I0403 15:43:13.210932 11083 net.cpp:425] inception_4c/1x1 <- inception_4b/output_inception_4b/output_0_split_0
I0403 15:43:13.210952 11083 net.cpp:399] inception_4c/1x1 -> inception_4c/1x1
I0403 15:43:13.212344 11083 net.cpp:141] Setting up inception_4c/1x1
I0403 15:43:13.212371 11083 net.cpp:148] Top shape: 24 128 14 14 (602112)
I0403 15:43:13.212386 11083 net.cpp:156] Memory required for data: 1030800672
I0403 15:43:13.212404 11083 layer_factory.hpp:77] Creating layer inception_4c/relu_1x1
I0403 15:43:13.212424 11083 net.cpp:91] Creating Layer inception_4c/relu_1x1
I0403 15:43:13.212440 11083 net.cpp:425] inception_4c/relu_1x1 <- inception_4c/1x1
I0403 15:43:13.212457 11083 net.cpp:386] inception_4c/relu_1x1 -> inception_4c/1x1 (in-place)
I0403 15:43:13.212633 11083 net.cpp:141] Setting up inception_4c/relu_1x1
I0403 15:43:13.212657 11083 net.cpp:148] Top shape: 24 128 14 14 (602112)
I0403 15:43:13.212671 11083 net.cpp:156] Memory required for data: 1033209120
I0403 15:43:13.212685 11083 layer_factory.hpp:77] Creating layer inception_4c/3x3_reduce
I0403 15:43:13.212707 11083 net.cpp:91] Creating Layer inception_4c/3x3_reduce
I0403 15:43:13.212725 11083 net.cpp:425] inception_4c/3x3_reduce <- inception_4b/output_inception_4b/output_0_split_1
I0403 15:43:13.212746 11083 net.cpp:399] inception_4c/3x3_reduce -> inception_4c/3x3_reduce
I0403 15:43:13.214642 11083 net.cpp:141] Setting up inception_4c/3x3_reduce
I0403 15:43:13.214669 11083 net.cpp:148] Top shape: 24 128 14 14 (602112)
I0403 15:43:13.214684 11083 net.cpp:156] Memory required for data: 1035617568
I0403 15:43:13.214701 11083 layer_factory.hpp:77] Creating layer inception_4c/relu_3x3_reduce
I0403 15:43:13.214721 11083 net.cpp:91] Creating Layer inception_4c/relu_3x3_reduce
I0403 15:43:13.214738 11083 net.cpp:425] inception_4c/relu_3x3_reduce <- inception_4c/3x3_reduce
I0403 15:43:13.214756 11083 net.cpp:386] inception_4c/relu_3x3_reduce -> inception_4c/3x3_reduce (in-place)
I0403 15:43:13.215039 11083 net.cpp:141] Setting up inception_4c/relu_3x3_reduce
I0403 15:43:13.215065 11083 net.cpp:148] Top shape: 24 128 14 14 (602112)
I0403 15:43:13.215080 11083 net.cpp:156] Memory required for data: 1038026016
I0403 15:43:13.215095 11083 layer_factory.hpp:77] Creating layer inception_4c/3x3
I0403 15:43:13.215118 11083 net.cpp:91] Creating Layer inception_4c/3x3
I0403 15:43:13.215137 11083 net.cpp:425] inception_4c/3x3 <- inception_4c/3x3_reduce
I0403 15:43:13.215155 11083 net.cpp:399] inception_4c/3x3 -> inception_4c/3x3
I0403 15:43:13.218669 11083 net.cpp:141] Setting up inception_4c/3x3
I0403 15:43:13.218710 11083 net.cpp:148] Top shape: 24 256 14 14 (1204224)
I0403 15:43:13.218727 11083 net.cpp:156] Memory required for data: 1042842912
I0403 15:43:13.218758 11083 layer_factory.hpp:77] Creating layer inception_4c/relu_3x3
I0403 15:43:13.218778 11083 net.cpp:91] Creating Layer inception_4c/relu_3x3
I0403 15:43:13.218796 11083 net.cpp:425] inception_4c/relu_3x3 <- inception_4c/3x3
I0403 15:43:13.218811 11083 net.cpp:386] inception_4c/relu_3x3 -> inception_4c/3x3 (in-place)
I0403 15:43:13.218997 11083 net.cpp:141] Setting up inception_4c/relu_3x3
I0403 15:43:13.219024 11083 net.cpp:148] Top shape: 24 256 14 14 (1204224)
I0403 15:43:13.219040 11083 net.cpp:156] Memory required for data: 1047659808
I0403 15:43:13.219054 11083 layer_factory.hpp:77] Creating layer inception_4c/5x5_reduce
I0403 15:43:13.219076 11083 net.cpp:91] Creating Layer inception_4c/5x5_reduce
I0403 15:43:13.219094 11083 net.cpp:425] inception_4c/5x5_reduce <- inception_4b/output_inception_4b/output_0_split_2
I0403 15:43:13.219112 11083 net.cpp:399] inception_4c/5x5_reduce -> inception_4c/5x5_reduce
I0403 15:43:13.220196 11083 net.cpp:141] Setting up inception_4c/5x5_reduce
I0403 15:43:13.220227 11083 net.cpp:148] Top shape: 24 24 14 14 (112896)
I0403 15:43:13.220243 11083 net.cpp:156] Memory required for data: 1048111392
I0403 15:43:13.220263 11083 layer_factory.hpp:77] Creating layer inception_4c/relu_5x5_reduce
I0403 15:43:13.220281 11083 net.cpp:91] Creating Layer inception_4c/relu_5x5_reduce
I0403 15:43:13.220299 11083 net.cpp:425] inception_4c/relu_5x5_reduce <- inception_4c/5x5_reduce
I0403 15:43:13.220326 11083 net.cpp:386] inception_4c/relu_5x5_reduce -> inception_4c/5x5_reduce (in-place)
I0403 15:43:13.220528 11083 net.cpp:141] Setting up inception_4c/relu_5x5_reduce
I0403 15:43:13.220553 11083 net.cpp:148] Top shape: 24 24 14 14 (112896)
I0403 15:43:13.220568 11083 net.cpp:156] Memory required for data: 1048562976
I0403 15:43:13.220583 11083 layer_factory.hpp:77] Creating layer inception_4c/5x5
I0403 15:43:13.220605 11083 net.cpp:91] Creating Layer inception_4c/5x5
I0403 15:43:13.220623 11083 net.cpp:425] inception_4c/5x5 <- inception_4c/5x5_reduce
I0403 15:43:13.220643 11083 net.cpp:399] inception_4c/5x5 -> inception_4c/5x5
I0403 15:43:13.221880 11083 net.cpp:141] Setting up inception_4c/5x5
I0403 15:43:13.221909 11083 net.cpp:148] Top shape: 24 64 14 14 (301056)
I0403 15:43:13.221923 11083 net.cpp:156] Memory required for data: 1049767200
I0403 15:43:13.221942 11083 layer_factory.hpp:77] Creating layer inception_4c/relu_5x5
I0403 15:43:13.221961 11083 net.cpp:91] Creating Layer inception_4c/relu_5x5
I0403 15:43:13.221985 11083 net.cpp:425] inception_4c/relu_5x5 <- inception_4c/5x5
I0403 15:43:13.222004 11083 net.cpp:386] inception_4c/relu_5x5 -> inception_4c/5x5 (in-place)
I0403 15:43:13.222293 11083 net.cpp:141] Setting up inception_4c/relu_5x5
I0403 15:43:13.222321 11083 net.cpp:148] Top shape: 24 64 14 14 (301056)
I0403 15:43:13.222334 11083 net.cpp:156] Memory required for data: 1050971424
I0403 15:43:13.222350 11083 layer_factory.hpp:77] Creating layer inception_4c/pool
I0403 15:43:13.222368 11083 net.cpp:91] Creating Layer inception_4c/pool
I0403 15:43:13.222384 11083 net.cpp:425] inception_4c/pool <- inception_4b/output_inception_4b/output_0_split_3
I0403 15:43:13.222404 11083 net.cpp:399] inception_4c/pool -> inception_4c/pool
I0403 15:43:13.222470 11083 net.cpp:141] Setting up inception_4c/pool
I0403 15:43:13.222496 11083 net.cpp:148] Top shape: 24 512 14 14 (2408448)
I0403 15:43:13.222512 11083 net.cpp:156] Memory required for data: 1060605216
I0403 15:43:13.222527 11083 layer_factory.hpp:77] Creating layer inception_4c/pool_proj
I0403 15:43:13.222548 11083 net.cpp:91] Creating Layer inception_4c/pool_proj
I0403 15:43:13.222565 11083 net.cpp:425] inception_4c/pool_proj <- inception_4c/pool
I0403 15:43:13.222584 11083 net.cpp:399] inception_4c/pool_proj -> inception_4c/pool_proj
I0403 15:43:13.223804 11083 net.cpp:141] Setting up inception_4c/pool_proj
I0403 15:43:13.223835 11083 net.cpp:148] Top shape: 24 64 14 14 (301056)
I0403 15:43:13.223865 11083 net.cpp:156] Memory required for data: 1061809440
I0403 15:43:13.223883 11083 layer_factory.hpp:77] Creating layer inception_4c/relu_pool_proj
I0403 15:43:13.223902 11083 net.cpp:91] Creating Layer inception_4c/relu_pool_proj
I0403 15:43:13.223918 11083 net.cpp:425] inception_4c/relu_pool_proj <- inception_4c/pool_proj
I0403 15:43:13.223935 11083 net.cpp:386] inception_4c/relu_pool_proj -> inception_4c/pool_proj (in-place)
I0403 15:43:13.224129 11083 net.cpp:141] Setting up inception_4c/relu_pool_proj
I0403 15:43:13.224154 11083 net.cpp:148] Top shape: 24 64 14 14 (301056)
I0403 15:43:13.224169 11083 net.cpp:156] Memory required for data: 1063013664
I0403 15:43:13.224184 11083 layer_factory.hpp:77] Creating layer inception_4c/output
I0403 15:43:13.224201 11083 net.cpp:91] Creating Layer inception_4c/output
I0403 15:43:13.224217 11083 net.cpp:425] inception_4c/output <- inception_4c/1x1
I0403 15:43:13.224234 11083 net.cpp:425] inception_4c/output <- inception_4c/3x3
I0403 15:43:13.224251 11083 net.cpp:425] inception_4c/output <- inception_4c/5x5
I0403 15:43:13.224266 11083 net.cpp:425] inception_4c/output <- inception_4c/pool_proj
I0403 15:43:13.224284 11083 net.cpp:399] inception_4c/output -> inception_4c/output
I0403 15:43:13.224331 11083 net.cpp:141] Setting up inception_4c/output
I0403 15:43:13.224354 11083 net.cpp:148] Top shape: 24 512 14 14 (2408448)
I0403 15:43:13.224369 11083 net.cpp:156] Memory required for data: 1072647456
I0403 15:43:13.224383 11083 layer_factory.hpp:77] Creating layer inception_4c/output_inception_4c/output_0_split
I0403 15:43:13.224401 11083 net.cpp:91] Creating Layer inception_4c/output_inception_4c/output_0_split
I0403 15:43:13.224418 11083 net.cpp:425] inception_4c/output_inception_4c/output_0_split <- inception_4c/output
I0403 15:43:13.224436 11083 net.cpp:399] inception_4c/output_inception_4c/output_0_split -> inception_4c/output_inception_4c/output_0_split_0
I0403 15:43:13.224458 11083 net.cpp:399] inception_4c/output_inception_4c/output_0_split -> inception_4c/output_inception_4c/output_0_split_1
I0403 15:43:13.224479 11083 net.cpp:399] inception_4c/output_inception_4c/output_0_split -> inception_4c/output_inception_4c/output_0_split_2
I0403 15:43:13.224499 11083 net.cpp:399] inception_4c/output_inception_4c/output_0_split -> inception_4c/output_inception_4c/output_0_split_3
I0403 15:43:13.224583 11083 net.cpp:141] Setting up inception_4c/output_inception_4c/output_0_split
I0403 15:43:13.224606 11083 net.cpp:148] Top shape: 24 512 14 14 (2408448)
I0403 15:43:13.224622 11083 net.cpp:148] Top shape: 24 512 14 14 (2408448)
I0403 15:43:13.224638 11083 net.cpp:148] Top shape: 24 512 14 14 (2408448)
I0403 15:43:13.224653 11083 net.cpp:148] Top shape: 24 512 14 14 (2408448)
I0403 15:43:13.224668 11083 net.cpp:156] Memory required for data: 1111182624
I0403 15:43:13.224681 11083 layer_factory.hpp:77] Creating layer inception_4d/1x1
I0403 15:43:13.224702 11083 net.cpp:91] Creating Layer inception_4d/1x1
I0403 15:43:13.224720 11083 net.cpp:425] inception_4d/1x1 <- inception_4c/output_inception_4c/output_0_split_0
I0403 15:43:13.224741 11083 net.cpp:399] inception_4d/1x1 -> inception_4d/1x1
I0403 15:43:13.226125 11083 net.cpp:141] Setting up inception_4d/1x1
I0403 15:43:13.226153 11083 net.cpp:148] Top shape: 24 112 14 14 (526848)
I0403 15:43:13.226168 11083 net.cpp:156] Memory required for data: 1113290016
I0403 15:43:13.226187 11083 layer_factory.hpp:77] Creating layer inception_4d/relu_1x1
I0403 15:43:13.226209 11083 net.cpp:91] Creating Layer inception_4d/relu_1x1
I0403 15:43:13.226227 11083 net.cpp:425] inception_4d/relu_1x1 <- inception_4d/1x1
I0403 15:43:13.226244 11083 net.cpp:386] inception_4d/relu_1x1 -> inception_4d/1x1 (in-place)
I0403 15:43:13.226429 11083 net.cpp:141] Setting up inception_4d/relu_1x1
I0403 15:43:13.226454 11083 net.cpp:148] Top shape: 24 112 14 14 (526848)
I0403 15:43:13.226470 11083 net.cpp:156] Memory required for data: 1115397408
I0403 15:43:13.226485 11083 layer_factory.hpp:77] Creating layer inception_4d/3x3_reduce
I0403 15:43:13.226522 11083 net.cpp:91] Creating Layer inception_4d/3x3_reduce
I0403 15:43:13.226541 11083 net.cpp:425] inception_4d/3x3_reduce <- inception_4c/output_inception_4c/output_0_split_1
I0403 15:43:13.226560 11083 net.cpp:399] inception_4d/3x3_reduce -> inception_4d/3x3_reduce
I0403 15:43:13.228072 11083 net.cpp:141] Setting up inception_4d/3x3_reduce
I0403 15:43:13.228099 11083 net.cpp:148] Top shape: 24 144 14 14 (677376)
I0403 15:43:13.228116 11083 net.cpp:156] Memory required for data: 1118106912
I0403 15:43:13.228132 11083 layer_factory.hpp:77] Creating layer inception_4d/relu_3x3_reduce
I0403 15:43:13.228150 11083 net.cpp:91] Creating Layer inception_4d/relu_3x3_reduce
I0403 15:43:13.228168 11083 net.cpp:425] inception_4d/relu_3x3_reduce <- inception_4d/3x3_reduce
I0403 15:43:13.228186 11083 net.cpp:386] inception_4d/relu_3x3_reduce -> inception_4d/3x3_reduce (in-place)
I0403 15:43:13.228480 11083 net.cpp:141] Setting up inception_4d/relu_3x3_reduce
I0403 15:43:13.228507 11083 net.cpp:148] Top shape: 24 144 14 14 (677376)
I0403 15:43:13.228523 11083 net.cpp:156] Memory required for data: 1120816416
I0403 15:43:13.228538 11083 layer_factory.hpp:77] Creating layer inception_4d/3x3
I0403 15:43:13.228561 11083 net.cpp:91] Creating Layer inception_4d/3x3
I0403 15:43:13.228579 11083 net.cpp:425] inception_4d/3x3 <- inception_4d/3x3_reduce
I0403 15:43:13.228600 11083 net.cpp:399] inception_4d/3x3 -> inception_4d/3x3
I0403 15:43:13.232884 11083 net.cpp:141] Setting up inception_4d/3x3
I0403 15:43:13.232914 11083 net.cpp:148] Top shape: 24 288 14 14 (1354752)
I0403 15:43:13.232930 11083 net.cpp:156] Memory required for data: 1126235424
I0403 15:43:13.232949 11083 layer_factory.hpp:77] Creating layer inception_4d/relu_3x3
I0403 15:43:13.232969 11083 net.cpp:91] Creating Layer inception_4d/relu_3x3
I0403 15:43:13.232991 11083 net.cpp:425] inception_4d/relu_3x3 <- inception_4d/3x3
I0403 15:43:13.233011 11083 net.cpp:386] inception_4d/relu_3x3 -> inception_4d/3x3 (in-place)
I0403 15:43:13.233192 11083 net.cpp:141] Setting up inception_4d/relu_3x3
I0403 15:43:13.233220 11083 net.cpp:148] Top shape: 24 288 14 14 (1354752)
I0403 15:43:13.233235 11083 net.cpp:156] Memory required for data: 1131654432
I0403 15:43:13.233250 11083 layer_factory.hpp:77] Creating layer inception_4d/5x5_reduce
I0403 15:43:13.233273 11083 net.cpp:91] Creating Layer inception_4d/5x5_reduce
I0403 15:43:13.233289 11083 net.cpp:425] inception_4d/5x5_reduce <- inception_4c/output_inception_4c/output_0_split_2
I0403 15:43:13.233309 11083 net.cpp:399] inception_4d/5x5_reduce -> inception_4d/5x5_reduce
I0403 15:43:13.234462 11083 net.cpp:141] Setting up inception_4d/5x5_reduce
I0403 15:43:13.234490 11083 net.cpp:148] Top shape: 24 32 14 14 (150528)
I0403 15:43:13.234506 11083 net.cpp:156] Memory required for data: 1132256544
I0403 15:43:13.234525 11083 layer_factory.hpp:77] Creating layer inception_4d/relu_5x5_reduce
I0403 15:43:13.234545 11083 net.cpp:91] Creating Layer inception_4d/relu_5x5_reduce
I0403 15:43:13.234563 11083 net.cpp:425] inception_4d/relu_5x5_reduce <- inception_4d/5x5_reduce
I0403 15:43:13.234580 11083 net.cpp:386] inception_4d/relu_5x5_reduce -> inception_4d/5x5_reduce (in-place)
I0403 15:43:13.234769 11083 net.cpp:141] Setting up inception_4d/relu_5x5_reduce
I0403 15:43:13.234797 11083 net.cpp:148] Top shape: 24 32 14 14 (150528)
I0403 15:43:13.234812 11083 net.cpp:156] Memory required for data: 1132858656
I0403 15:43:13.234827 11083 layer_factory.hpp:77] Creating layer inception_4d/5x5
I0403 15:43:13.234849 11083 net.cpp:91] Creating Layer inception_4d/5x5
I0403 15:43:13.234868 11083 net.cpp:425] inception_4d/5x5 <- inception_4d/5x5_reduce
I0403 15:43:13.234886 11083 net.cpp:399] inception_4d/5x5 -> inception_4d/5x5
I0403 15:43:13.236366 11083 net.cpp:141] Setting up inception_4d/5x5
I0403 15:43:13.236397 11083 net.cpp:148] Top shape: 24 64 14 14 (301056)
I0403 15:43:13.236413 11083 net.cpp:156] Memory required for data: 1134062880
I0403 15:43:13.236430 11083 layer_factory.hpp:77] Creating layer inception_4d/relu_5x5
I0403 15:43:13.236466 11083 net.cpp:91] Creating Layer inception_4d/relu_5x5
I0403 15:43:13.236484 11083 net.cpp:425] inception_4d/relu_5x5 <- inception_4d/5x5
I0403 15:43:13.236503 11083 net.cpp:386] inception_4d/relu_5x5 -> inception_4d/5x5 (in-place)
I0403 15:43:13.236804 11083 net.cpp:141] Setting up inception_4d/relu_5x5
I0403 15:43:13.236832 11083 net.cpp:148] Top shape: 24 64 14 14 (301056)
I0403 15:43:13.236847 11083 net.cpp:156] Memory required for data: 1135267104
I0403 15:43:13.236862 11083 layer_factory.hpp:77] Creating layer inception_4d/pool
I0403 15:43:13.236881 11083 net.cpp:91] Creating Layer inception_4d/pool
I0403 15:43:13.236897 11083 net.cpp:425] inception_4d/pool <- inception_4c/output_inception_4c/output_0_split_3
I0403 15:43:13.236919 11083 net.cpp:399] inception_4d/pool -> inception_4d/pool
I0403 15:43:13.236991 11083 net.cpp:141] Setting up inception_4d/pool
I0403 15:43:13.237015 11083 net.cpp:148] Top shape: 24 512 14 14 (2408448)
I0403 15:43:13.237030 11083 net.cpp:156] Memory required for data: 1144900896
I0403 15:43:13.237046 11083 layer_factory.hpp:77] Creating layer inception_4d/pool_proj
I0403 15:43:13.237067 11083 net.cpp:91] Creating Layer inception_4d/pool_proj
I0403 15:43:13.237085 11083 net.cpp:425] inception_4d/pool_proj <- inception_4d/pool
I0403 15:43:13.237107 11083 net.cpp:399] inception_4d/pool_proj -> inception_4d/pool_proj
I0403 15:43:13.238879 11083 net.cpp:141] Setting up inception_4d/pool_proj
I0403 15:43:13.238920 11083 net.cpp:148] Top shape: 24 64 14 14 (301056)
I0403 15:43:13.238936 11083 net.cpp:156] Memory required for data: 1146105120
I0403 15:43:13.238955 11083 layer_factory.hpp:77] Creating layer inception_4d/relu_pool_proj
I0403 15:43:13.238976 11083 net.cpp:91] Creating Layer inception_4d/relu_pool_proj
I0403 15:43:13.239004 11083 net.cpp:425] inception_4d/relu_pool_proj <- inception_4d/pool_proj
I0403 15:43:13.239022 11083 net.cpp:386] inception_4d/relu_pool_proj -> inception_4d/pool_proj (in-place)
I0403 15:43:13.239223 11083 net.cpp:141] Setting up inception_4d/relu_pool_proj
I0403 15:43:13.239249 11083 net.cpp:148] Top shape: 24 64 14 14 (301056)
I0403 15:43:13.239264 11083 net.cpp:156] Memory required for data: 1147309344
I0403 15:43:13.239279 11083 layer_factory.hpp:77] Creating layer inception_4d/output
I0403 15:43:13.239296 11083 net.cpp:91] Creating Layer inception_4d/output
I0403 15:43:13.239311 11083 net.cpp:425] inception_4d/output <- inception_4d/1x1
I0403 15:43:13.239326 11083 net.cpp:425] inception_4d/output <- inception_4d/3x3
I0403 15:43:13.239342 11083 net.cpp:425] inception_4d/output <- inception_4d/5x5
I0403 15:43:13.239358 11083 net.cpp:425] inception_4d/output <- inception_4d/pool_proj
I0403 15:43:13.239374 11083 net.cpp:399] inception_4d/output -> inception_4d/output
I0403 15:43:13.239421 11083 net.cpp:141] Setting up inception_4d/output
I0403 15:43:13.239444 11083 net.cpp:148] Top shape: 24 528 14 14 (2483712)
I0403 15:43:13.239459 11083 net.cpp:156] Memory required for data: 1157244192
I0403 15:43:13.239471 11083 layer_factory.hpp:77] Creating layer inception_4d/output_inception_4d/output_0_split
I0403 15:43:13.239491 11083 net.cpp:91] Creating Layer inception_4d/output_inception_4d/output_0_split
I0403 15:43:13.239507 11083 net.cpp:425] inception_4d/output_inception_4d/output_0_split <- inception_4d/output
I0403 15:43:13.239526 11083 net.cpp:399] inception_4d/output_inception_4d/output_0_split -> inception_4d/output_inception_4d/output_0_split_0
I0403 15:43:13.239545 11083 net.cpp:399] inception_4d/output_inception_4d/output_0_split -> inception_4d/output_inception_4d/output_0_split_1
I0403 15:43:13.239564 11083 net.cpp:399] inception_4d/output_inception_4d/output_0_split -> inception_4d/output_inception_4d/output_0_split_2
I0403 15:43:13.239586 11083 net.cpp:399] inception_4d/output_inception_4d/output_0_split -> inception_4d/output_inception_4d/output_0_split_3
I0403 15:43:13.239606 11083 net.cpp:399] inception_4d/output_inception_4d/output_0_split -> inception_4d/output_inception_4d/output_0_split_4
I0403 15:43:13.239707 11083 net.cpp:141] Setting up inception_4d/output_inception_4d/output_0_split
I0403 15:43:13.239742 11083 net.cpp:148] Top shape: 24 528 14 14 (2483712)
I0403 15:43:13.239758 11083 net.cpp:148] Top shape: 24 528 14 14 (2483712)
I0403 15:43:13.239773 11083 net.cpp:148] Top shape: 24 528 14 14 (2483712)
I0403 15:43:13.239789 11083 net.cpp:148] Top shape: 24 528 14 14 (2483712)
I0403 15:43:13.239804 11083 net.cpp:148] Top shape: 24 528 14 14 (2483712)
I0403 15:43:13.239816 11083 net.cpp:156] Memory required for data: 1206918432
I0403 15:43:13.239830 11083 layer_factory.hpp:77] Creating layer loss2/ave_pool
I0403 15:43:13.239850 11083 net.cpp:91] Creating Layer loss2/ave_pool
I0403 15:43:13.239864 11083 net.cpp:425] loss2/ave_pool <- inception_4d/output_inception_4d/output_0_split_0
I0403 15:43:13.239882 11083 net.cpp:399] loss2/ave_pool -> loss2/ave_pool
I0403 15:43:13.240190 11083 net.cpp:141] Setting up loss2/ave_pool
I0403 15:43:13.240216 11083 net.cpp:148] Top shape: 24 528 4 4 (202752)
I0403 15:43:13.240231 11083 net.cpp:156] Memory required for data: 1207729440
I0403 15:43:13.240245 11083 layer_factory.hpp:77] Creating layer loss2/conv
I0403 15:43:13.240267 11083 net.cpp:91] Creating Layer loss2/conv
I0403 15:43:13.240285 11083 net.cpp:425] loss2/conv <- loss2/ave_pool
I0403 15:43:13.240305 11083 net.cpp:399] loss2/conv -> loss2/conv
I0403 15:43:13.242164 11083 net.cpp:141] Setting up loss2/conv
I0403 15:43:13.242192 11083 net.cpp:148] Top shape: 24 128 4 4 (49152)
I0403 15:43:13.242208 11083 net.cpp:156] Memory required for data: 1207926048
I0403 15:43:13.242226 11083 layer_factory.hpp:77] Creating layer loss2/relu_conv
I0403 15:43:13.242244 11083 net.cpp:91] Creating Layer loss2/relu_conv
I0403 15:43:13.242259 11083 net.cpp:425] loss2/relu_conv <- loss2/conv
I0403 15:43:13.242279 11083 net.cpp:386] loss2/relu_conv -> loss2/conv (in-place)
I0403 15:43:13.242560 11083 net.cpp:141] Setting up loss2/relu_conv
I0403 15:43:13.242585 11083 net.cpp:148] Top shape: 24 128 4 4 (49152)
I0403 15:43:13.242600 11083 net.cpp:156] Memory required for data: 1208122656
I0403 15:43:13.242615 11083 layer_factory.hpp:77] Creating layer loss2/fc
I0403 15:43:13.242633 11083 net.cpp:91] Creating Layer loss2/fc
I0403 15:43:13.242650 11083 net.cpp:425] loss2/fc <- loss2/conv
I0403 15:43:13.242671 11083 net.cpp:399] loss2/fc -> loss2/fc
I0403 15:43:13.259950 11083 net.cpp:141] Setting up loss2/fc
I0403 15:43:13.259990 11083 net.cpp:148] Top shape: 24 1024 (24576)
I0403 15:43:13.260007 11083 net.cpp:156] Memory required for data: 1208220960
I0403 15:43:13.260025 11083 layer_factory.hpp:77] Creating layer loss2/relu_fc
I0403 15:43:13.260043 11083 net.cpp:91] Creating Layer loss2/relu_fc
I0403 15:43:13.260059 11083 net.cpp:425] loss2/relu_fc <- loss2/fc
I0403 15:43:13.260076 11083 net.cpp:386] loss2/relu_fc -> loss2/fc (in-place)
I0403 15:43:13.260365 11083 net.cpp:141] Setting up loss2/relu_fc
I0403 15:43:13.260392 11083 net.cpp:148] Top shape: 24 1024 (24576)
I0403 15:43:13.260408 11083 net.cpp:156] Memory required for data: 1208319264
I0403 15:43:13.260422 11083 layer_factory.hpp:77] Creating layer loss2/drop_fc
I0403 15:43:13.260440 11083 net.cpp:91] Creating Layer loss2/drop_fc
I0403 15:43:13.260457 11083 net.cpp:425] loss2/drop_fc <- loss2/fc
I0403 15:43:13.260473 11083 net.cpp:386] loss2/drop_fc -> loss2/fc (in-place)
I0403 15:43:13.260522 11083 net.cpp:141] Setting up loss2/drop_fc
I0403 15:43:13.260545 11083 net.cpp:148] Top shape: 24 1024 (24576)
I0403 15:43:13.260558 11083 net.cpp:156] Memory required for data: 1208417568
I0403 15:43:13.260572 11083 layer_factory.hpp:77] Creating layer loss2/classifier_plantvillage
I0403 15:43:13.260591 11083 net.cpp:91] Creating Layer loss2/classifier_plantvillage
I0403 15:43:13.260608 11083 net.cpp:425] loss2/classifier_plantvillage <- loss2/fc
I0403 15:43:13.260627 11083 net.cpp:399] loss2/classifier_plantvillage -> loss2/classifier_plantvillage
I0403 15:43:13.261021 11083 net.cpp:141] Setting up loss2/classifier_plantvillage
I0403 15:43:13.261045 11083 net.cpp:148] Top shape: 24 38 (912)
I0403 15:43:13.261076 11083 net.cpp:156] Memory required for data: 1208421216
I0403 15:43:13.261096 11083 layer_factory.hpp:77] Creating layer loss2/classifier_plantvillage_loss2/classifier_plantvillage_0_split
I0403 15:43:13.261112 11083 net.cpp:91] Creating Layer loss2/classifier_plantvillage_loss2/classifier_plantvillage_0_split
I0403 15:43:13.261128 11083 net.cpp:425] loss2/classifier_plantvillage_loss2/classifier_plantvillage_0_split <- loss2/classifier_plantvillage
I0403 15:43:13.261149 11083 net.cpp:399] loss2/classifier_plantvillage_loss2/classifier_plantvillage_0_split -> loss2/classifier_plantvillage_loss2/classifier_plantvillage_0_split_0
I0403 15:43:13.261170 11083 net.cpp:399] loss2/classifier_plantvillage_loss2/classifier_plantvillage_0_split -> loss2/classifier_plantvillage_loss2/classifier_plantvillage_0_split_1
I0403 15:43:13.261190 11083 net.cpp:399] loss2/classifier_plantvillage_loss2/classifier_plantvillage_0_split -> loss2/classifier_plantvillage_loss2/classifier_plantvillage_0_split_2
I0403 15:43:13.261270 11083 net.cpp:141] Setting up loss2/classifier_plantvillage_loss2/classifier_plantvillage_0_split
I0403 15:43:13.261296 11083 net.cpp:148] Top shape: 24 38 (912)
I0403 15:43:13.261312 11083 net.cpp:148] Top shape: 24 38 (912)
I0403 15:43:13.261327 11083 net.cpp:148] Top shape: 24 38 (912)
I0403 15:43:13.261339 11083 net.cpp:156] Memory required for data: 1208432160
I0403 15:43:13.261353 11083 layer_factory.hpp:77] Creating layer inception_4e/1x1
I0403 15:43:13.261375 11083 net.cpp:91] Creating Layer inception_4e/1x1
I0403 15:43:13.261394 11083 net.cpp:425] inception_4e/1x1 <- inception_4d/output_inception_4d/output_0_split_1
I0403 15:43:13.261412 11083 net.cpp:399] inception_4e/1x1 -> inception_4e/1x1
I0403 15:43:13.263218 11083 net.cpp:141] Setting up inception_4e/1x1
I0403 15:43:13.263248 11083 net.cpp:148] Top shape: 24 256 14 14 (1204224)
I0403 15:43:13.263264 11083 net.cpp:156] Memory required for data: 1213249056
I0403 15:43:13.263283 11083 layer_factory.hpp:77] Creating layer inception_4e/relu_1x1
I0403 15:43:13.263300 11083 net.cpp:91] Creating Layer inception_4e/relu_1x1
I0403 15:43:13.263315 11083 net.cpp:425] inception_4e/relu_1x1 <- inception_4e/1x1
I0403 15:43:13.263334 11083 net.cpp:386] inception_4e/relu_1x1 -> inception_4e/1x1 (in-place)
I0403 15:43:13.263624 11083 net.cpp:141] Setting up inception_4e/relu_1x1
I0403 15:43:13.263651 11083 net.cpp:148] Top shape: 24 256 14 14 (1204224)
I0403 15:43:13.263667 11083 net.cpp:156] Memory required for data: 1218065952
I0403 15:43:13.263681 11083 layer_factory.hpp:77] Creating layer inception_4e/3x3_reduce
I0403 15:43:13.263703 11083 net.cpp:91] Creating Layer inception_4e/3x3_reduce
I0403 15:43:13.263720 11083 net.cpp:425] inception_4e/3x3_reduce <- inception_4d/output_inception_4d/output_0_split_2
I0403 15:43:13.263741 11083 net.cpp:399] inception_4e/3x3_reduce -> inception_4e/3x3_reduce
I0403 15:43:13.265816 11083 net.cpp:141] Setting up inception_4e/3x3_reduce
I0403 15:43:13.265846 11083 net.cpp:148] Top shape: 24 160 14 14 (752640)
I0403 15:43:13.265863 11083 net.cpp:156] Memory required for data: 1221076512
I0403 15:43:13.265882 11083 layer_factory.hpp:77] Creating layer inception_4e/relu_3x3_reduce
I0403 15:43:13.265899 11083 net.cpp:91] Creating Layer inception_4e/relu_3x3_reduce
I0403 15:43:13.265916 11083 net.cpp:425] inception_4e/relu_3x3_reduce <- inception_4e/3x3_reduce
I0403 15:43:13.265933 11083 net.cpp:386] inception_4e/relu_3x3_reduce -> inception_4e/3x3_reduce (in-place)
I0403 15:43:13.266125 11083 net.cpp:141] Setting up inception_4e/relu_3x3_reduce
I0403 15:43:13.266150 11083 net.cpp:148] Top shape: 24 160 14 14 (752640)
I0403 15:43:13.266165 11083 net.cpp:156] Memory required for data: 1224087072
I0403 15:43:13.266180 11083 layer_factory.hpp:77] Creating layer inception_4e/3x3
I0403 15:43:13.266201 11083 net.cpp:91] Creating Layer inception_4e/3x3
I0403 15:43:13.266218 11083 net.cpp:425] inception_4e/3x3 <- inception_4e/3x3_reduce
I0403 15:43:13.266238 11083 net.cpp:399] inception_4e/3x3 -> inception_4e/3x3
I0403 15:43:13.271215 11083 net.cpp:141] Setting up inception_4e/3x3
I0403 15:43:13.271256 11083 net.cpp:148] Top shape: 24 320 14 14 (1505280)
I0403 15:43:13.271272 11083 net.cpp:156] Memory required for data: 1230108192
I0403 15:43:13.271291 11083 layer_factory.hpp:77] Creating layer inception_4e/relu_3x3
I0403 15:43:13.271311 11083 net.cpp:91] Creating Layer inception_4e/relu_3x3
I0403 15:43:13.271327 11083 net.cpp:425] inception_4e/relu_3x3 <- inception_4e/3x3
I0403 15:43:13.271343 11083 net.cpp:386] inception_4e/relu_3x3 -> inception_4e/3x3 (in-place)
I0403 15:43:13.271636 11083 net.cpp:141] Setting up inception_4e/relu_3x3
I0403 15:43:13.271662 11083 net.cpp:148] Top shape: 24 320 14 14 (1505280)
I0403 15:43:13.271678 11083 net.cpp:156] Memory required for data: 1236129312
I0403 15:43:13.271693 11083 layer_factory.hpp:77] Creating layer inception_4e/5x5_reduce
I0403 15:43:13.271715 11083 net.cpp:91] Creating Layer inception_4e/5x5_reduce
I0403 15:43:13.271733 11083 net.cpp:425] inception_4e/5x5_reduce <- inception_4d/output_inception_4d/output_0_split_3
I0403 15:43:13.271754 11083 net.cpp:399] inception_4e/5x5_reduce -> inception_4e/5x5_reduce
I0403 15:43:13.272802 11083 net.cpp:141] Setting up inception_4e/5x5_reduce
I0403 15:43:13.272831 11083 net.cpp:148] Top shape: 24 32 14 14 (150528)
I0403 15:43:13.272847 11083 net.cpp:156] Memory required for data: 1236731424
I0403 15:43:13.272867 11083 layer_factory.hpp:77] Creating layer inception_4e/relu_5x5_reduce
I0403 15:43:13.272886 11083 net.cpp:91] Creating Layer inception_4e/relu_5x5_reduce
I0403 15:43:13.272902 11083 net.cpp:425] inception_4e/relu_5x5_reduce <- inception_4e/5x5_reduce
I0403 15:43:13.272919 11083 net.cpp:386] inception_4e/relu_5x5_reduce -> inception_4e/5x5_reduce (in-place)
I0403 15:43:13.273213 11083 net.cpp:141] Setting up inception_4e/relu_5x5_reduce
I0403 15:43:13.273241 11083 net.cpp:148] Top shape: 24 32 14 14 (150528)
I0403 15:43:13.273257 11083 net.cpp:156] Memory required for data: 1237333536
I0403 15:43:13.273270 11083 layer_factory.hpp:77] Creating layer inception_4e/5x5
I0403 15:43:13.273315 11083 net.cpp:91] Creating Layer inception_4e/5x5
I0403 15:43:13.273334 11083 net.cpp:425] inception_4e/5x5 <- inception_4e/5x5_reduce
I0403 15:43:13.273353 11083 net.cpp:399] inception_4e/5x5 -> inception_4e/5x5
I0403 15:43:13.275239 11083 net.cpp:141] Setting up inception_4e/5x5
I0403 15:43:13.275267 11083 net.cpp:148] Top shape: 24 128 14 14 (602112)
I0403 15:43:13.275284 11083 net.cpp:156] Memory required for data: 1239741984
I0403 15:43:13.275302 11083 layer_factory.hpp:77] Creating layer inception_4e/relu_5x5
I0403 15:43:13.275322 11083 net.cpp:91] Creating Layer inception_4e/relu_5x5
I0403 15:43:13.275341 11083 net.cpp:425] inception_4e/relu_5x5 <- inception_4e/5x5
I0403 15:43:13.275358 11083 net.cpp:386] inception_4e/relu_5x5 -> inception_4e/5x5 (in-place)
I0403 15:43:13.275562 11083 net.cpp:141] Setting up inception_4e/relu_5x5
I0403 15:43:13.275588 11083 net.cpp:148] Top shape: 24 128 14 14 (602112)
I0403 15:43:13.275602 11083 net.cpp:156] Memory required for data: 1242150432
I0403 15:43:13.275617 11083 layer_factory.hpp:77] Creating layer inception_4e/pool
I0403 15:43:13.275635 11083 net.cpp:91] Creating Layer inception_4e/pool
I0403 15:43:13.275651 11083 net.cpp:425] inception_4e/pool <- inception_4d/output_inception_4d/output_0_split_4
I0403 15:43:13.275672 11083 net.cpp:399] inception_4e/pool -> inception_4e/pool
I0403 15:43:13.275743 11083 net.cpp:141] Setting up inception_4e/pool
I0403 15:43:13.275768 11083 net.cpp:148] Top shape: 24 528 14 14 (2483712)
I0403 15:43:13.275781 11083 net.cpp:156] Memory required for data: 1252085280
I0403 15:43:13.275796 11083 layer_factory.hpp:77] Creating layer inception_4e/pool_proj
I0403 15:43:13.275820 11083 net.cpp:91] Creating Layer inception_4e/pool_proj
I0403 15:43:13.275838 11083 net.cpp:425] inception_4e/pool_proj <- inception_4e/pool
I0403 15:43:13.275856 11083 net.cpp:399] inception_4e/pool_proj -> inception_4e/pool_proj
I0403 15:43:13.277380 11083 net.cpp:141] Setting up inception_4e/pool_proj
I0403 15:43:13.277420 11083 net.cpp:148] Top shape: 24 128 14 14 (602112)
I0403 15:43:13.277436 11083 net.cpp:156] Memory required for data: 1254493728
I0403 15:43:13.277454 11083 layer_factory.hpp:77] Creating layer inception_4e/relu_pool_proj
I0403 15:43:13.277475 11083 net.cpp:91] Creating Layer inception_4e/relu_pool_proj
I0403 15:43:13.277493 11083 net.cpp:425] inception_4e/relu_pool_proj <- inception_4e/pool_proj
I0403 15:43:13.277510 11083 net.cpp:386] inception_4e/relu_pool_proj -> inception_4e/pool_proj (in-place)
I0403 15:43:13.277806 11083 net.cpp:141] Setting up inception_4e/relu_pool_proj
I0403 15:43:13.277832 11083 net.cpp:148] Top shape: 24 128 14 14 (602112)
I0403 15:43:13.277847 11083 net.cpp:156] Memory required for data: 1256902176
I0403 15:43:13.277861 11083 layer_factory.hpp:77] Creating layer inception_4e/output
I0403 15:43:13.277881 11083 net.cpp:91] Creating Layer inception_4e/output
I0403 15:43:13.277897 11083 net.cpp:425] inception_4e/output <- inception_4e/1x1
I0403 15:43:13.277915 11083 net.cpp:425] inception_4e/output <- inception_4e/3x3
I0403 15:43:13.277930 11083 net.cpp:425] inception_4e/output <- inception_4e/5x5
I0403 15:43:13.277945 11083 net.cpp:425] inception_4e/output <- inception_4e/pool_proj
I0403 15:43:13.277963 11083 net.cpp:399] inception_4e/output -> inception_4e/output
I0403 15:43:13.278018 11083 net.cpp:141] Setting up inception_4e/output
I0403 15:43:13.278043 11083 net.cpp:148] Top shape: 24 832 14 14 (3913728)
I0403 15:43:13.278058 11083 net.cpp:156] Memory required for data: 1272557088
I0403 15:43:13.278071 11083 layer_factory.hpp:77] Creating layer pool4/3x3_s2
I0403 15:43:13.278089 11083 net.cpp:91] Creating Layer pool4/3x3_s2
I0403 15:43:13.278105 11083 net.cpp:425] pool4/3x3_s2 <- inception_4e/output
I0403 15:43:13.278126 11083 net.cpp:399] pool4/3x3_s2 -> pool4/3x3_s2
I0403 15:43:13.278194 11083 net.cpp:141] Setting up pool4/3x3_s2
I0403 15:43:13.278218 11083 net.cpp:148] Top shape: 24 832 7 7 (978432)
I0403 15:43:13.278233 11083 net.cpp:156] Memory required for data: 1276470816
I0403 15:43:13.278247 11083 layer_factory.hpp:77] Creating layer pool4/3x3_s2_pool4/3x3_s2_0_split
I0403 15:43:13.278269 11083 net.cpp:91] Creating Layer pool4/3x3_s2_pool4/3x3_s2_0_split
I0403 15:43:13.278285 11083 net.cpp:425] pool4/3x3_s2_pool4/3x3_s2_0_split <- pool4/3x3_s2
I0403 15:43:13.278306 11083 net.cpp:399] pool4/3x3_s2_pool4/3x3_s2_0_split -> pool4/3x3_s2_pool4/3x3_s2_0_split_0
I0403 15:43:13.278327 11083 net.cpp:399] pool4/3x3_s2_pool4/3x3_s2_0_split -> pool4/3x3_s2_pool4/3x3_s2_0_split_1
I0403 15:43:13.278348 11083 net.cpp:399] pool4/3x3_s2_pool4/3x3_s2_0_split -> pool4/3x3_s2_pool4/3x3_s2_0_split_2
I0403 15:43:13.278369 11083 net.cpp:399] pool4/3x3_s2_pool4/3x3_s2_0_split -> pool4/3x3_s2_pool4/3x3_s2_0_split_3
I0403 15:43:13.278460 11083 net.cpp:141] Setting up pool4/3x3_s2_pool4/3x3_s2_0_split
I0403 15:43:13.278484 11083 net.cpp:148] Top shape: 24 832 7 7 (978432)
I0403 15:43:13.278502 11083 net.cpp:148] Top shape: 24 832 7 7 (978432)
I0403 15:43:13.278518 11083 net.cpp:148] Top shape: 24 832 7 7 (978432)
I0403 15:43:13.278533 11083 net.cpp:148] Top shape: 24 832 7 7 (978432)
I0403 15:43:13.278547 11083 net.cpp:156] Memory required for data: 1292125728
I0403 15:43:13.278561 11083 layer_factory.hpp:77] Creating layer inception_5a/1x1
I0403 15:43:13.278580 11083 net.cpp:91] Creating Layer inception_5a/1x1
I0403 15:43:13.278597 11083 net.cpp:425] inception_5a/1x1 <- pool4/3x3_s2_pool4/3x3_s2_0_split_0
I0403 15:43:13.278620 11083 net.cpp:399] inception_5a/1x1 -> inception_5a/1x1
I0403 15:43:13.281513 11083 net.cpp:141] Setting up inception_5a/1x1
I0403 15:43:13.281545 11083 net.cpp:148] Top shape: 24 256 7 7 (301056)
I0403 15:43:13.281563 11083 net.cpp:156] Memory required for data: 1293329952
I0403 15:43:13.281580 11083 layer_factory.hpp:77] Creating layer inception_5a/relu_1x1
I0403 15:43:13.281599 11083 net.cpp:91] Creating Layer inception_5a/relu_1x1
I0403 15:43:13.281615 11083 net.cpp:425] inception_5a/relu_1x1 <- inception_5a/1x1
I0403 15:43:13.281632 11083 net.cpp:386] inception_5a/relu_1x1 -> inception_5a/1x1 (in-place)
I0403 15:43:13.281946 11083 net.cpp:141] Setting up inception_5a/relu_1x1
I0403 15:43:13.281975 11083 net.cpp:148] Top shape: 24 256 7 7 (301056)
I0403 15:43:13.281994 11083 net.cpp:156] Memory required for data: 1294534176
I0403 15:43:13.282011 11083 layer_factory.hpp:77] Creating layer inception_5a/3x3_reduce
I0403 15:43:13.282032 11083 net.cpp:91] Creating Layer inception_5a/3x3_reduce
I0403 15:43:13.282050 11083 net.cpp:425] inception_5a/3x3_reduce <- pool4/3x3_s2_pool4/3x3_s2_0_split_1
I0403 15:43:13.282069 11083 net.cpp:399] inception_5a/3x3_reduce -> inception_5a/3x3_reduce
I0403 15:43:13.284544 11083 net.cpp:141] Setting up inception_5a/3x3_reduce
I0403 15:43:13.284574 11083 net.cpp:148] Top shape: 24 160 7 7 (188160)
I0403 15:43:13.284590 11083 net.cpp:156] Memory required for data: 1295286816
I0403 15:43:13.284608 11083 layer_factory.hpp:77] Creating layer inception_5a/relu_3x3_reduce
I0403 15:43:13.284628 11083 net.cpp:91] Creating Layer inception_5a/relu_3x3_reduce
I0403 15:43:13.284646 11083 net.cpp:425] inception_5a/relu_3x3_reduce <- inception_5a/3x3_reduce
I0403 15:43:13.284663 11083 net.cpp:386] inception_5a/relu_3x3_reduce -> inception_5a/3x3_reduce (in-place)
I0403 15:43:13.284854 11083 net.cpp:141] Setting up inception_5a/relu_3x3_reduce
I0403 15:43:13.284881 11083 net.cpp:148] Top shape: 24 160 7 7 (188160)
I0403 15:43:13.284896 11083 net.cpp:156] Memory required for data: 1296039456
I0403 15:43:13.284911 11083 layer_factory.hpp:77] Creating layer inception_5a/3x3
I0403 15:43:13.284934 11083 net.cpp:91] Creating Layer inception_5a/3x3
I0403 15:43:13.284952 11083 net.cpp:425] inception_5a/3x3 <- inception_5a/3x3_reduce
I0403 15:43:13.284971 11083 net.cpp:399] inception_5a/3x3 -> inception_5a/3x3
I0403 15:43:13.290113 11083 net.cpp:141] Setting up inception_5a/3x3
I0403 15:43:13.290145 11083 net.cpp:148] Top shape: 24 320 7 7 (376320)
I0403 15:43:13.290163 11083 net.cpp:156] Memory required for data: 1297544736
I0403 15:43:13.290182 11083 layer_factory.hpp:77] Creating layer inception_5a/relu_3x3
I0403 15:43:13.290205 11083 net.cpp:91] Creating Layer inception_5a/relu_3x3
I0403 15:43:13.290223 11083 net.cpp:425] inception_5a/relu_3x3 <- inception_5a/3x3
I0403 15:43:13.290242 11083 net.cpp:386] inception_5a/relu_3x3 -> inception_5a/3x3 (in-place)
I0403 15:43:13.290577 11083 net.cpp:141] Setting up inception_5a/relu_3x3
I0403 15:43:13.290603 11083 net.cpp:148] Top shape: 24 320 7 7 (376320)
I0403 15:43:13.290618 11083 net.cpp:156] Memory required for data: 1299050016
I0403 15:43:13.290633 11083 layer_factory.hpp:77] Creating layer inception_5a/5x5_reduce
I0403 15:43:13.290658 11083 net.cpp:91] Creating Layer inception_5a/5x5_reduce
I0403 15:43:13.290676 11083 net.cpp:425] inception_5a/5x5_reduce <- pool4/3x3_s2_pool4/3x3_s2_0_split_2
I0403 15:43:13.290696 11083 net.cpp:399] inception_5a/5x5_reduce -> inception_5a/5x5_reduce
I0403 15:43:13.291884 11083 net.cpp:141] Setting up inception_5a/5x5_reduce
I0403 15:43:13.291913 11083 net.cpp:148] Top shape: 24 32 7 7 (37632)
I0403 15:43:13.291929 11083 net.cpp:156] Memory required for data: 1299200544
I0403 15:43:13.291952 11083 layer_factory.hpp:77] Creating layer inception_5a/relu_5x5_reduce
I0403 15:43:13.291970 11083 net.cpp:91] Creating Layer inception_5a/relu_5x5_reduce
I0403 15:43:13.291990 11083 net.cpp:425] inception_5a/relu_5x5_reduce <- inception_5a/5x5_reduce
I0403 15:43:13.292011 11083 net.cpp:386] inception_5a/relu_5x5_reduce -> inception_5a/5x5_reduce (in-place)
I0403 15:43:13.292312 11083 net.cpp:141] Setting up inception_5a/relu_5x5_reduce
I0403 15:43:13.292337 11083 net.cpp:148] Top shape: 24 32 7 7 (37632)
I0403 15:43:13.292352 11083 net.cpp:156] Memory required for data: 1299351072
I0403 15:43:13.292366 11083 layer_factory.hpp:77] Creating layer inception_5a/5x5
I0403 15:43:13.292388 11083 net.cpp:91] Creating Layer inception_5a/5x5
I0403 15:43:13.292405 11083 net.cpp:425] inception_5a/5x5 <- inception_5a/5x5_reduce
I0403 15:43:13.292426 11083 net.cpp:399] inception_5a/5x5 -> inception_5a/5x5
I0403 15:43:13.294116 11083 net.cpp:141] Setting up inception_5a/5x5
I0403 15:43:13.294153 11083 net.cpp:148] Top shape: 24 128 7 7 (150528)
I0403 15:43:13.294169 11083 net.cpp:156] Memory required for data: 1299953184
I0403 15:43:13.294188 11083 layer_factory.hpp:77] Creating layer inception_5a/relu_5x5
I0403 15:43:13.294209 11083 net.cpp:91] Creating Layer inception_5a/relu_5x5
I0403 15:43:13.294226 11083 net.cpp:425] inception_5a/relu_5x5 <- inception_5a/5x5
I0403 15:43:13.294244 11083 net.cpp:386] inception_5a/relu_5x5 -> inception_5a/5x5 (in-place)
I0403 15:43:13.294436 11083 net.cpp:141] Setting up inception_5a/relu_5x5
I0403 15:43:13.294461 11083 net.cpp:148] Top shape: 24 128 7 7 (150528)
I0403 15:43:13.294476 11083 net.cpp:156] Memory required for data: 1300555296
I0403 15:43:13.294489 11083 layer_factory.hpp:77] Creating layer inception_5a/pool
I0403 15:43:13.294507 11083 net.cpp:91] Creating Layer inception_5a/pool
I0403 15:43:13.294523 11083 net.cpp:425] inception_5a/pool <- pool4/3x3_s2_pool4/3x3_s2_0_split_3
I0403 15:43:13.294543 11083 net.cpp:399] inception_5a/pool -> inception_5a/pool
I0403 15:43:13.294612 11083 net.cpp:141] Setting up inception_5a/pool
I0403 15:43:13.294636 11083 net.cpp:148] Top shape: 24 832 7 7 (978432)
I0403 15:43:13.294648 11083 net.cpp:156] Memory required for data: 1304469024
I0403 15:43:13.294662 11083 layer_factory.hpp:77] Creating layer inception_5a/pool_proj
I0403 15:43:13.294685 11083 net.cpp:91] Creating Layer inception_5a/pool_proj
I0403 15:43:13.294703 11083 net.cpp:425] inception_5a/pool_proj <- inception_5a/pool
I0403 15:43:13.294721 11083 net.cpp:399] inception_5a/pool_proj -> inception_5a/pool_proj
I0403 15:43:13.296963 11083 net.cpp:141] Setting up inception_5a/pool_proj
I0403 15:43:13.296996 11083 net.cpp:148] Top shape: 24 128 7 7 (150528)
I0403 15:43:13.297013 11083 net.cpp:156] Memory required for data: 1305071136
I0403 15:43:13.297030 11083 layer_factory.hpp:77] Creating layer inception_5a/relu_pool_proj
I0403 15:43:13.297050 11083 net.cpp:91] Creating Layer inception_5a/relu_pool_proj
I0403 15:43:13.297067 11083 net.cpp:425] inception_5a/relu_pool_proj <- inception_5a/pool_proj
I0403 15:43:13.297085 11083 net.cpp:386] inception_5a/relu_pool_proj -> inception_5a/pool_proj (in-place)
I0403 15:43:13.297370 11083 net.cpp:141] Setting up inception_5a/relu_pool_proj
I0403 15:43:13.297396 11083 net.cpp:148] Top shape: 24 128 7 7 (150528)
I0403 15:43:13.297410 11083 net.cpp:156] Memory required for data: 1305673248
I0403 15:43:13.297425 11083 layer_factory.hpp:77] Creating layer inception_5a/output
I0403 15:43:13.297444 11083 net.cpp:91] Creating Layer inception_5a/output
I0403 15:43:13.297461 11083 net.cpp:425] inception_5a/output <- inception_5a/1x1
I0403 15:43:13.297477 11083 net.cpp:425] inception_5a/output <- inception_5a/3x3
I0403 15:43:13.297493 11083 net.cpp:425] inception_5a/output <- inception_5a/5x5
I0403 15:43:13.297509 11083 net.cpp:425] inception_5a/output <- inception_5a/pool_proj
I0403 15:43:13.297525 11083 net.cpp:399] inception_5a/output -> inception_5a/output
I0403 15:43:13.297576 11083 net.cpp:141] Setting up inception_5a/output
I0403 15:43:13.297600 11083 net.cpp:148] Top shape: 24 832 7 7 (978432)
I0403 15:43:13.297613 11083 net.cpp:156] Memory required for data: 1309586976
I0403 15:43:13.297628 11083 layer_factory.hpp:77] Creating layer inception_5a/output_inception_5a/output_0_split
I0403 15:43:13.297644 11083 net.cpp:91] Creating Layer inception_5a/output_inception_5a/output_0_split
I0403 15:43:13.297660 11083 net.cpp:425] inception_5a/output_inception_5a/output_0_split <- inception_5a/output
I0403 15:43:13.297683 11083 net.cpp:399] inception_5a/output_inception_5a/output_0_split -> inception_5a/output_inception_5a/output_0_split_0
I0403 15:43:13.297704 11083 net.cpp:399] inception_5a/output_inception_5a/output_0_split -> inception_5a/output_inception_5a/output_0_split_1
I0403 15:43:13.297724 11083 net.cpp:399] inception_5a/output_inception_5a/output_0_split -> inception_5a/output_inception_5a/output_0_split_2
I0403 15:43:13.297744 11083 net.cpp:399] inception_5a/output_inception_5a/output_0_split -> inception_5a/output_inception_5a/output_0_split_3
I0403 15:43:13.297853 11083 net.cpp:141] Setting up inception_5a/output_inception_5a/output_0_split
I0403 15:43:13.297876 11083 net.cpp:148] Top shape: 24 832 7 7 (978432)
I0403 15:43:13.297891 11083 net.cpp:148] Top shape: 24 832 7 7 (978432)
I0403 15:43:13.297906 11083 net.cpp:148] Top shape: 24 832 7 7 (978432)
I0403 15:43:13.297921 11083 net.cpp:148] Top shape: 24 832 7 7 (978432)
I0403 15:43:13.297935 11083 net.cpp:156] Memory required for data: 1325241888
I0403 15:43:13.297948 11083 layer_factory.hpp:77] Creating layer inception_5b/1x1
I0403 15:43:13.297971 11083 net.cpp:91] Creating Layer inception_5b/1x1
I0403 15:43:13.297991 11083 net.cpp:425] inception_5b/1x1 <- inception_5a/output_inception_5a/output_0_split_0
I0403 15:43:13.298013 11083 net.cpp:399] inception_5b/1x1 -> inception_5b/1x1
I0403 15:43:13.301708 11083 net.cpp:141] Setting up inception_5b/1x1
I0403 15:43:13.301738 11083 net.cpp:148] Top shape: 24 384 7 7 (451584)
I0403 15:43:13.301753 11083 net.cpp:156] Memory required for data: 1327048224
I0403 15:43:13.301771 11083 layer_factory.hpp:77] Creating layer inception_5b/relu_1x1
I0403 15:43:13.301791 11083 net.cpp:91] Creating Layer inception_5b/relu_1x1
I0403 15:43:13.301807 11083 net.cpp:425] inception_5b/relu_1x1 <- inception_5b/1x1
I0403 15:43:13.301825 11083 net.cpp:386] inception_5b/relu_1x1 -> inception_5b/1x1 (in-place)
I0403 15:43:13.302126 11083 net.cpp:141] Setting up inception_5b/relu_1x1
I0403 15:43:13.302152 11083 net.cpp:148] Top shape: 24 384 7 7 (451584)
I0403 15:43:13.302166 11083 net.cpp:156] Memory required for data: 1328854560
I0403 15:43:13.302181 11083 layer_factory.hpp:77] Creating layer inception_5b/3x3_reduce
I0403 15:43:13.302202 11083 net.cpp:91] Creating Layer inception_5b/3x3_reduce
I0403 15:43:13.302220 11083 net.cpp:425] inception_5b/3x3_reduce <- inception_5a/output_inception_5a/output_0_split_1
I0403 15:43:13.302243 11083 net.cpp:399] inception_5b/3x3_reduce -> inception_5b/3x3_reduce
I0403 15:43:13.304883 11083 net.cpp:141] Setting up inception_5b/3x3_reduce
I0403 15:43:13.304924 11083 net.cpp:148] Top shape: 24 192 7 7 (225792)
I0403 15:43:13.304939 11083 net.cpp:156] Memory required for data: 1329757728
I0403 15:43:13.304970 11083 layer_factory.hpp:77] Creating layer inception_5b/relu_3x3_reduce
I0403 15:43:13.304996 11083 net.cpp:91] Creating Layer inception_5b/relu_3x3_reduce
I0403 15:43:13.305014 11083 net.cpp:425] inception_5b/relu_3x3_reduce <- inception_5b/3x3_reduce
I0403 15:43:13.305032 11083 net.cpp:386] inception_5b/relu_3x3_reduce -> inception_5b/3x3_reduce (in-place)
I0403 15:43:13.305258 11083 net.cpp:141] Setting up inception_5b/relu_3x3_reduce
I0403 15:43:13.305296 11083 net.cpp:148] Top shape: 24 192 7 7 (225792)
I0403 15:43:13.305312 11083 net.cpp:156] Memory required for data: 1330660896
I0403 15:43:13.305327 11083 layer_factory.hpp:77] Creating layer inception_5b/3x3
I0403 15:43:13.305349 11083 net.cpp:91] Creating Layer inception_5b/3x3
I0403 15:43:13.305379 11083 net.cpp:425] inception_5b/3x3 <- inception_5b/3x3_reduce
I0403 15:43:13.305397 11083 net.cpp:399] inception_5b/3x3 -> inception_5b/3x3
I0403 15:43:13.312011 11083 net.cpp:141] Setting up inception_5b/3x3
I0403 15:43:13.312039 11083 net.cpp:148] Top shape: 24 384 7 7 (451584)
I0403 15:43:13.312054 11083 net.cpp:156] Memory required for data: 1332467232
I0403 15:43:13.312073 11083 layer_factory.hpp:77] Creating layer inception_5b/relu_3x3
I0403 15:43:13.312093 11083 net.cpp:91] Creating Layer inception_5b/relu_3x3
I0403 15:43:13.312109 11083 net.cpp:425] inception_5b/relu_3x3 <- inception_5b/3x3
I0403 15:43:13.312126 11083 net.cpp:386] inception_5b/relu_3x3 -> inception_5b/3x3 (in-place)
I0403 15:43:13.312417 11083 net.cpp:141] Setting up inception_5b/relu_3x3
I0403 15:43:13.312443 11083 net.cpp:148] Top shape: 24 384 7 7 (451584)
I0403 15:43:13.312458 11083 net.cpp:156] Memory required for data: 1334273568
I0403 15:43:13.312471 11083 layer_factory.hpp:77] Creating layer inception_5b/5x5_reduce
I0403 15:43:13.312507 11083 net.cpp:91] Creating Layer inception_5b/5x5_reduce
I0403 15:43:13.312526 11083 net.cpp:425] inception_5b/5x5_reduce <- inception_5a/output_inception_5a/output_0_split_2
I0403 15:43:13.312547 11083 net.cpp:399] inception_5b/5x5_reduce -> inception_5b/5x5_reduce
I0403 15:43:13.313792 11083 net.cpp:141] Setting up inception_5b/5x5_reduce
I0403 15:43:13.313819 11083 net.cpp:148] Top shape: 24 48 7 7 (56448)
I0403 15:43:13.313834 11083 net.cpp:156] Memory required for data: 1334499360
I0403 15:43:13.313853 11083 layer_factory.hpp:77] Creating layer inception_5b/relu_5x5_reduce
I0403 15:43:13.313874 11083 net.cpp:91] Creating Layer inception_5b/relu_5x5_reduce
I0403 15:43:13.313890 11083 net.cpp:425] inception_5b/relu_5x5_reduce <- inception_5b/5x5_reduce
I0403 15:43:13.313907 11083 net.cpp:386] inception_5b/relu_5x5_reduce -> inception_5b/5x5_reduce (in-place)
I0403 15:43:13.314281 11083 net.cpp:141] Setting up inception_5b/relu_5x5_reduce
I0403 15:43:13.314307 11083 net.cpp:148] Top shape: 24 48 7 7 (56448)
I0403 15:43:13.314322 11083 net.cpp:156] Memory required for data: 1334725152
I0403 15:43:13.314337 11083 layer_factory.hpp:77] Creating layer inception_5b/5x5
I0403 15:43:13.314357 11083 net.cpp:91] Creating Layer inception_5b/5x5
I0403 15:43:13.314373 11083 net.cpp:425] inception_5b/5x5 <- inception_5b/5x5_reduce
I0403 15:43:13.314393 11083 net.cpp:399] inception_5b/5x5 -> inception_5b/5x5
I0403 15:43:13.316422 11083 net.cpp:141] Setting up inception_5b/5x5
I0403 15:43:13.316452 11083 net.cpp:148] Top shape: 24 128 7 7 (150528)
I0403 15:43:13.316468 11083 net.cpp:156] Memory required for data: 1335327264
I0403 15:43:13.316486 11083 layer_factory.hpp:77] Creating layer inception_5b/relu_5x5
I0403 15:43:13.316504 11083 net.cpp:91] Creating Layer inception_5b/relu_5x5
I0403 15:43:13.316520 11083 net.cpp:425] inception_5b/relu_5x5 <- inception_5b/5x5
I0403 15:43:13.316537 11083 net.cpp:386] inception_5b/relu_5x5 -> inception_5b/5x5 (in-place)
I0403 15:43:13.316732 11083 net.cpp:141] Setting up inception_5b/relu_5x5
I0403 15:43:13.316756 11083 net.cpp:148] Top shape: 24 128 7 7 (150528)
I0403 15:43:13.316771 11083 net.cpp:156] Memory required for data: 1335929376
I0403 15:43:13.316786 11083 layer_factory.hpp:77] Creating layer inception_5b/pool
I0403 15:43:13.316802 11083 net.cpp:91] Creating Layer inception_5b/pool
I0403 15:43:13.316819 11083 net.cpp:425] inception_5b/pool <- inception_5a/output_inception_5a/output_0_split_3
I0403 15:43:13.316839 11083 net.cpp:399] inception_5b/pool -> inception_5b/pool
I0403 15:43:13.316910 11083 net.cpp:141] Setting up inception_5b/pool
I0403 15:43:13.316936 11083 net.cpp:148] Top shape: 24 832 7 7 (978432)
I0403 15:43:13.316951 11083 net.cpp:156] Memory required for data: 1339843104
I0403 15:43:13.316965 11083 layer_factory.hpp:77] Creating layer inception_5b/pool_proj
I0403 15:43:13.316990 11083 net.cpp:91] Creating Layer inception_5b/pool_proj
I0403 15:43:13.317009 11083 net.cpp:425] inception_5b/pool_proj <- inception_5b/pool
I0403 15:43:13.317028 11083 net.cpp:399] inception_5b/pool_proj -> inception_5b/pool_proj
I0403 15:43:13.319334 11083 net.cpp:141] Setting up inception_5b/pool_proj
I0403 15:43:13.319361 11083 net.cpp:148] Top shape: 24 128 7 7 (150528)
I0403 15:43:13.319377 11083 net.cpp:156] Memory required for data: 1340445216
I0403 15:43:13.319396 11083 layer_factory.hpp:77] Creating layer inception_5b/relu_pool_proj
I0403 15:43:13.319416 11083 net.cpp:91] Creating Layer inception_5b/relu_pool_proj
I0403 15:43:13.319432 11083 net.cpp:425] inception_5b/relu_pool_proj <- inception_5b/pool_proj
I0403 15:43:13.319450 11083 net.cpp:386] inception_5b/relu_pool_proj -> inception_5b/pool_proj (in-place)
I0403 15:43:13.319747 11083 net.cpp:141] Setting up inception_5b/relu_pool_proj
I0403 15:43:13.319773 11083 net.cpp:148] Top shape: 24 128 7 7 (150528)
I0403 15:43:13.319788 11083 net.cpp:156] Memory required for data: 1341047328
I0403 15:43:13.319803 11083 layer_factory.hpp:77] Creating layer inception_5b/output
I0403 15:43:13.319823 11083 net.cpp:91] Creating Layer inception_5b/output
I0403 15:43:13.319852 11083 net.cpp:425] inception_5b/output <- inception_5b/1x1
I0403 15:43:13.319870 11083 net.cpp:425] inception_5b/output <- inception_5b/3x3
I0403 15:43:13.319886 11083 net.cpp:425] inception_5b/output <- inception_5b/5x5
I0403 15:43:13.319902 11083 net.cpp:425] inception_5b/output <- inception_5b/pool_proj
I0403 15:43:13.319919 11083 net.cpp:399] inception_5b/output -> inception_5b/output
I0403 15:43:13.319975 11083 net.cpp:141] Setting up inception_5b/output
I0403 15:43:13.320003 11083 net.cpp:148] Top shape: 24 1024 7 7 (1204224)
I0403 15:43:13.320018 11083 net.cpp:156] Memory required for data: 1345864224
I0403 15:43:13.320031 11083 layer_factory.hpp:77] Creating layer pool5/7x7_s1
I0403 15:43:13.320049 11083 net.cpp:91] Creating Layer pool5/7x7_s1
I0403 15:43:13.320065 11083 net.cpp:425] pool5/7x7_s1 <- inception_5b/output
I0403 15:43:13.320085 11083 net.cpp:399] pool5/7x7_s1 -> pool5/7x7_s1
I0403 15:43:13.320297 11083 net.cpp:141] Setting up pool5/7x7_s1
I0403 15:43:13.320322 11083 net.cpp:148] Top shape: 24 1024 1 1 (24576)
I0403 15:43:13.320338 11083 net.cpp:156] Memory required for data: 1345962528
I0403 15:43:13.320353 11083 layer_factory.hpp:77] Creating layer pool5/drop_7x7_s1
I0403 15:43:13.320370 11083 net.cpp:91] Creating Layer pool5/drop_7x7_s1
I0403 15:43:13.320386 11083 net.cpp:425] pool5/drop_7x7_s1 <- pool5/7x7_s1
I0403 15:43:13.320405 11083 net.cpp:386] pool5/drop_7x7_s1 -> pool5/7x7_s1 (in-place)
I0403 15:43:13.320454 11083 net.cpp:141] Setting up pool5/drop_7x7_s1
I0403 15:43:13.320477 11083 net.cpp:148] Top shape: 24 1024 1 1 (24576)
I0403 15:43:13.320492 11083 net.cpp:156] Memory required for data: 1346060832
I0403 15:43:13.320505 11083 layer_factory.hpp:77] Creating layer loss3/classifier_plantvillage
I0403 15:43:13.320525 11083 net.cpp:91] Creating Layer loss3/classifier_plantvillage
I0403 15:43:13.320543 11083 net.cpp:425] loss3/classifier_plantvillage <- pool5/7x7_s1
I0403 15:43:13.320562 11083 net.cpp:399] loss3/classifier_plantvillage -> loss3/classifier_plantvillage
I0403 15:43:13.320976 11083 net.cpp:141] Setting up loss3/classifier_plantvillage
I0403 15:43:13.321003 11083 net.cpp:148] Top shape: 24 38 (912)
I0403 15:43:13.321017 11083 net.cpp:156] Memory required for data: 1346064480
I0403 15:43:13.321035 11083 layer_factory.hpp:77] Creating layer loss3/classifier_plantvillage_loss3/classifier_plantvillage_0_split
I0403 15:43:13.321053 11083 net.cpp:91] Creating Layer loss3/classifier_plantvillage_loss3/classifier_plantvillage_0_split
I0403 15:43:13.321069 11083 net.cpp:425] loss3/classifier_plantvillage_loss3/classifier_plantvillage_0_split <- loss3/classifier_plantvillage
I0403 15:43:13.321089 11083 net.cpp:399] loss3/classifier_plantvillage_loss3/classifier_plantvillage_0_split -> loss3/classifier_plantvillage_loss3/classifier_plantvillage_0_split_0
I0403 15:43:13.321110 11083 net.cpp:399] loss3/classifier_plantvillage_loss3/classifier_plantvillage_0_split -> loss3/classifier_plantvillage_loss3/classifier_plantvillage_0_split_1
I0403 15:43:13.321130 11083 net.cpp:399] loss3/classifier_plantvillage_loss3/classifier_plantvillage_0_split -> loss3/classifier_plantvillage_loss3/classifier_plantvillage_0_split_2
I0403 15:43:13.321149 11083 net.cpp:399] loss3/classifier_plantvillage_loss3/classifier_plantvillage_0_split -> loss3/classifier_plantvillage_loss3/classifier_plantvillage_0_split_3
I0403 15:43:13.321246 11083 net.cpp:141] Setting up loss3/classifier_plantvillage_loss3/classifier_plantvillage_0_split
I0403 15:43:13.321269 11083 net.cpp:148] Top shape: 24 38 (912)
I0403 15:43:13.321285 11083 net.cpp:148] Top shape: 24 38 (912)
I0403 15:43:13.321298 11083 net.cpp:148] Top shape: 24 38 (912)
I0403 15:43:13.321313 11083 net.cpp:148] Top shape: 24 38 (912)
I0403 15:43:13.321326 11083 net.cpp:156] Memory required for data: 1346079072
I0403 15:43:13.321341 11083 layer_factory.hpp:77] Creating layer loss1/loss
I0403 15:43:13.321362 11083 net.cpp:91] Creating Layer loss1/loss
I0403 15:43:13.321377 11083 net.cpp:425] loss1/loss <- loss1/classifier_plantvillage_loss1/classifier_plantvillage_0_split_0
I0403 15:43:13.321408 11083 net.cpp:425] loss1/loss <- label_data_1_split_0
…
