…
I0403 15:37:26.973186 10741 net.cpp:313] The NetState phase (1) differed from the phase (0) specified by a rule in layer data
I0403 15:37:26.974309 10741 net.cpp:49] Initializing net from parameters: 
state {
  phase: TEST
}
layer {
  name: "data"
  type: "Data"
  top: "data"
  top: "label"
  include {
    phase: TEST
  }
  transform_param {
    mirror: false
    crop_size: 224
    mean_file: "/home/mohanty/data/final_dataset/lmdb/segmented-80-20/mean.binaryproto"
  }
  data_param {
    source: "/home/mohanty/data/final_dataset/lmdb/segmented-80-20/test_db"
    batch_size: 24
    backend: LMDB
  }
}
layer {
  name: "conv1/7x7_s2"
  type: "Convolution"
  bottom: "data"
  top: "conv1/7x7_s2"
  param {
    lr_mult: 1
    decay_mult: 1
  }
  param {
    lr_mult: 2
    decay_mult: 0
  }
  convolution_param {
    num_output: 64
    pad: 3
    kernel_size: 7
    stride: 2
    weight_filler {
      type: "xavier"
      std: 0.1
    }
    bias_filler {
      type: "constant"
      value: 0.2
    }
  }
}
layer {
  name: "conv1/relu_7x7"
  type: "ReLU"
  bottom: "conv1/7x7_s2"
  top: "conv1/7x7_s2"
}
layer {
  name: "pool1/3x3_s2"
  type: "Pooling"
  bottom: "conv1/7x7_s2"
  top: "pool1/3x3_s2"
  pooling_param {
    pool: MAX
    kernel_size: 3
    stride: 2
  }
}
layer {
  name: "pool1/norm1"
  type: "LRN"
  bottom: "pool1/3x3_s2"
  top: "pool1/norm1"
  lrn_param {
    local_size: 5
    alpha: 0.0001
    beta: 0.75
  }
}
layer {
  name: "conv2/3x3_reduce"
  type: "Convolution"
  bottom: "pool1/norm1"
  top: "conv2/3x3_reduce"
  param {
    lr_mult: 1
    decay_mult: 1
  }
  param {
    lr_mult: 2
    decay_mult: 0
  }
  convolution_param {
    num_output: 64
    kernel_size: 1
    weight_filler {
      type: "xavier"
      std: 0.1
    }
    bias_filler {
      type: "constant"
      value: 0.2
    }
  }
}
layer {
  name: "conv2/relu_3x3_reduce"
  type: "ReLU"
  bottom: "conv2/3x3_reduce"
  top: "conv2/3x3_reduce"
}
layer {
  name: "conv2/3x3"
  type: "Convolution"
  bottom: "conv2/3x3_reduce"
  top: "conv2/3x3"
  param {
    lr_mult: 1
    decay_mult: 1
  }
  param {
    lr_mult: 2
    decay_mult: 0
  }
  convolution_param {
    num_output: 192
    pad: 1
    kernel_size: 3
    weight_filler {
      type: "xavier"
      std: 0.03
    }
    bias_filler {
      type: "constant"
      value: 0.2
    }
  }
}
layer {
  name: "conv2/relu_3x3"
  type: "ReLU"
  bottom: "conv2/3x3"
  top: "conv2/3x3"
}
layer {
  name: "conv2/norm2"
  type: "LRN"
  bottom: "conv2/3x3"
  top: "conv2/norm2"
  lrn_param {
    local_size: 5
    alpha: 0.0001
    beta: 0.75
  }
}
layer {
  name: "pool2/3x3_s2"
  type: "Pooling"
  bottom: "conv2/norm2"
  top: "pool2/3x3_s2"
  pooling_param {
    pool: MAX
    kernel_size: 3
    stride: 2
  }
}
layer {
  name: "inception_3a/1x1"
  type: "Convolution"
  bottom: "pool2/3x3_s2"
  top: "inception_3a/1x1"
  param {
    lr_mult: 1
    decay_mult: 1
  }
  param {
    lr_mult: 2
    decay_mult: 0
  }
  convolution_param {
    num_output: 64
    kernel_size: 1
    weight_filler {
      type: "xavier"
      std: 0.03
    }
    bias_filler {
      type: "constant"
      value: 0.2
    }
  }
}
layer {
  name: "inception_3a/relu_1x1"
  type: "ReLU"
  bottom: "inception_3a/1x1"
  top: "inception_3a/1x1"
}
layer {
  name: "inception_3a/3x3_reduce"
  type: "Convolution"
  bottom: "pool2/3x3_s2"
  top: "inception_3a/3x3_reduce"
  param {
    lr_mult: 1
    decay_mult: 1
  }
  param {
    lr_mult: 2
    decay_mult: 0
  }
  convolution_param {
    num_output: 96
    kernel_size: 1
    weight_filler {
      type: "xavier"
      std: 0.09
    }
    bias_filler {
      type: "constant"
      value: 0.2
    }
  }
}
layer {
  name: "inception_3a/relu_3x3_reduce"
  type: "ReLU"
  bottom: "inception_3a/3x3_reduce"
  top: "inception_3a/3x3_reduce"
}
layer {
  name: "inception_3a/3x3"
  type: "Convolution"
  bottom: "inception_3a/3x3_reduce"
  top: "inception_3a/3x3"
  param {
    lr_mult: 1
    decay_mult: 1
  }
  param {
    lr_mult: 2
    decay_mult: 0
  }
  convolution_param {
    num_output: 128
    pad: 1
    kernel_size: 3
    weight_filler {
      type: "xavier"
      std: 0.03
    }
    bias_filler {
      type: "constant"
      value: 0.2
    }
  }
}
layer {
  name: "inception_3a/relu_3x3"
  type: "ReLU"
  bottom: "inception_3a/3x3"
  top: "inception_3a/3x3"
}
layer {
  name: "inception_3a/5x5_reduce"
  type: "Convolution"
  bottom: "pool2/3x3_s2"
  top: "inception_3a/5x5_reduce"
  param {
    lr_mult: 1
    decay_mult: 1
  }
  param {
    lr_mult: 2
    decay_mult: 0
  }
  convolution_param {
    num_output: 16
    kernel_size: 1
    weight_filler {
      type: "xavier"
      std: 0.2
    }
    bias_filler {
      type: "constant"
      value: 0.2
    }
  }
}
layer {
  name: "inception_3a/relu_5x5_reduce"
  type: "ReLU"
  bottom: "inception_3a/5x5_reduce"
  top: "inception_3a/5x5_reduce"
}
layer {
  name: "inception_3a/5x5"
  type: "Convolution"
  bottom: "inception_3a/5x5_reduce"
  top: "inception_3a/5x5"
  param {
    lr_mult: 1
    decay_mult: 1
  }
  param {
    lr_mult: 2
    decay_mult: 0
  }
  convolution_param {
    num_output: 32
    pad: 2
    kernel_size: 5
    weight_filler {
      type: "xavier"
      std: 0.03
    }
    bias_filler {
      type: "constant"
      value: 0.2
    }
  }
}
layer {
  name: "inception_3a/relu_5x5"
  type: "ReLU"
  bottom: "inception_3a/5x5"
  top: "inception_3a/5x5"
}
layer {
  name: "inception_3a/pool"
  type: "Pooling"
  bottom: "pool2/3x3_s2"
  top: "inception_3a/pool"
  pooling_param {
    pool: MAX
    kernel_size: 3
    stride: 1
    pad: 1
  }
}
layer {
  name: "inception_3a/pool_proj"
  type: "Convolution"
  bottom: "inception_3a/pool"
  top: "inception_3a/pool_proj"
  param {
    lr_mult: 1
    decay_mult: 1
  }
  param {
    lr_mult: 2
    decay_mult: 0
  }
  convolution_param {
    num_output: 32
    kernel_size: 1
    weight_filler {
      type: "xavier"
      std: 0.1
    }
    bias_filler {
      type: "constant"
      value: 0.2
    }
  }
}
layer {
  name: "inception_3a/relu_pool_proj"
  type: "ReLU"
  bottom: "inception_3a/pool_proj"
  top: "inception_3a/pool_proj"
}
layer {
  name: "inception_3a/output"
  type: "Concat"
  bottom: "inception_3a/1x1"
  bottom: "inception_3a/3x3"
  bottom: "inception_3a/5x5"
  bottom: "inception_3a/pool_proj"
  top: "inception_3a/output"
}
layer {
  name: "inception_3b/1x1"
  type: "Convolution"
  bottom: "inception_3a/output"
  top: "inception_3b/1x1"
  param {
    lr_mult: 1
    decay_mult: 1
  }
  param {
    lr_mult: 2
    decay_mult: 0
  }
  convolution_param {
    num_output: 128
    kernel_size: 1
    weight_filler {
      type: "xavier"
      std: 0.03
    }
    bias_filler {
      type: "constant"
      value: 0.2
    }
  }
}
layer {
  name: "inception_3b/relu_1x1"
  type: "ReLU"
  bottom: "inception_3b/1x1"
  top: "inception_3b/1x1"
}
layer {
  name: "inception_3b/3x3_reduce"
  type: "Convolution"
  bottom: "inception_3a/output"
  top: "inception_3b/3x3_reduce"
  param {
    lr_mult: 1
    decay_mult: 1
  }
  param {
    lr_mult: 2
    decay_mult: 0
  }
  convolution_param {
    num_output: 128
    kernel_size: 1
    weight_filler {
      type: "xavier"
      std: 0.09
    }
    bias_filler {
      type: "constant"
      value: 0.2
    }
  }
}
layer {
  name: "inception_3b/relu_3x3_reduce"
  type: "ReLU"
  bottom: "inception_3b/3x3_reduce"
  top: "inception_3b/3x3_reduce"
}
layer {
  name: "inception_3b/3x3"
  type: "Convolution"
  bottom: "inception_3b/3x3_reduce"
  top: "inception_3b/3x3"
  param {
    lr_mult: 1
    decay_mult: 1
  }
  param {
    lr_mult: 2
    decay_mult: 0
  }
  convolution_param {
    num_output: 192
    pad: 1
    kernel_size: 3
    weight_filler {
      type: "xavier"
      std: 0.03
    }
    bias_filler {
      type: "constant"
      value: 0.2
    }
  }
}
layer {
  name: "inception_3b/relu_3x3"
  type: "ReLU"
  bottom: "inception_3b/3x3"
  top: "inception_3b/3x3"
}
layer {
  name: "inception_3b/5x5_reduce"
  type: "Convolution"
  bottom: "inception_3a/output"
  top: "inception_3b/5x5_reduce"
  param {
    lr_mult: 1
    decay_mult: 1
  }
  param {
    lr_mult: 2
    decay_mult: 0
  }
  convolution_param {
    num_output: 32
    kernel_size: 1
    weight_filler {
      type: "xavier"
      std: 0.2
    }
    bias_filler {
      type: "constant"
      value: 0.2
    }
  }
}
layer {
  name: "inception_3b/relu_5x5_reduce"
  type: "ReLU"
  bottom: "inception_3b/5x5_reduce"
  top: "inception_3b/5x5_reduce"
}
layer {
  name: "inception_3b/5x5"
  type: "Convolution"
  bottom: "inception_3b/5x5_reduce"
  top: "inception_3b/5x5"
  param {
    lr_mult: 1
    decay_mult: 1
  }
  param {
    lr_mult: 2
    decay_mult: 0
  }
  convolution_param {
    num_output: 96
    pad: 2
    kernel_size: 5
    weight_filler {
      type: "xavier"
      std: 0.03
    }
    bias_filler {
      type: "constant"
      value: 0.2
    }
  }
}
layer {
  name: "inception_3b/relu_5x5"
  type: "ReLU"
  bottom: "inception_3b/5x5"
  top: "inception_3b/5x5"
}
layer {
  name: "inception_3b/pool"
  type: "Pooling"
  bottom: "inception_3a/output"
  top: "inception_3b/pool"
  pooling_param {
    pool: MAX
    kernel_size: 3
    stride: 1
    pad: 1
  }
}
layer {
  name: "inception_3b/pool_proj"
  type: "Convolution"
  bottom: "inception_3b/pool"
  top: "inception_3b/pool_proj"
  param {
    lr_mult: 1
    decay_mult: 1
  }
  param {
    lr_mult: 2
    decay_mult: 0
  }
  convolution_param {
    num_output: 64
    kernel_size: 1
    weight_filler {
      type: "xavier"
      std: 0.1
    }
    bias_filler {
      type: "constant"
      value: 0.2
    }
  }
}
layer {
  name: "inception_3b/relu_pool_proj"
  type: "ReLU"
  bottom: "inception_3b/pool_proj"
  top: "inception_3b/pool_proj"
}
layer {
  name: "inception_3b/output"
  type: "Concat"
  bottom: "inception_3b/1x1"
  bottom: "inception_3b/3x3"
  bottom: "inception_3b/5x5"
  bottom: "inception_3b/pool_proj"
  top: "inception_3b/output"
}
layer {
  name: "pool3/3x3_s2"
  type: "Pooling"
  bottom: "inception_3b/output"
  top: "pool3/3x3_s2"
  pooling_param {
    pool: MAX
    kernel_size: 3
    stride: 2
  }
}
layer {
  name: "inception_4a/1x1"
  type: "Convolution"
  bottom: "pool3/3x3_s2"
  top: "inception_4a/1x1"
  param {
    lr_mult: 1
    decay_mult: 1
  }
  param {
    lr_mult: 2
    decay_mult: 0
  }
  convolution_param {
    num_output: 192
    kernel_size: 1
    weight_filler {
      type: "xavier"
      std: 0.03
    }
    bias_filler {
      type: "constant"
      value: 0.2
    }
  }
}
layer {
  name: "inception_4a/relu_1x1"
  type: "ReLU"
  bottom: "inception_4a/1x1"
  top: "inception_4a/1x1"
}
layer {
  name: "inception_4a/3x3_reduce"
  type: "Convolution"
  bottom: "pool3/3x3_s2"
  top: "inception_4a/3x3_reduce"
  param {
    lr_mult: 1
    decay_mult: 1
  }
  param {
    lr_mult: 2
    decay_mult: 0
  }
  convolution_param {
    num_output: 96
    kernel_size: 1
    weight_filler {
      type: "xavier"
      std: 0.09
    }
    bias_filler {
      type: "constant"
      value: 0.2
    }
  }
}
layer {
  name: "inception_4a/relu_3x3_reduce"
  type: "ReLU"
  bottom: "inception_4a/3x3_reduce"
  top: "inception_4a/3x3_reduce"
}
layer {
  name: "inception_4a/3x3"
  type: "Convolution"
  bottom: "inception_4a/3x3_reduce"
  top: "inception_4a/3x3"
  param {
    lr_mult: 1
    decay_mult: 1
  }
  param {
    lr_mult: 2
    decay_mult: 0
  }
  convolution_param {
    num_output: 208
    pad: 1
    kernel_size: 3
    weight_filler {
      type: "xavier"
      std: 0.03
    }
    bias_filler {
      type: "constant"
      value: 0.2
    }
  }
}
layer {
  name: "inception_4a/relu_3x3"
  type: "ReLU"
  bottom: "inception_4a/3x3"
  top: "inception_4a/3x3"
}
layer {
  name: "inception_4a/5x5_reduce"
  type: "Convolution"
  bottom: "pool3/3x3_s2"
  top: "inception_4a/5x5_reduce"
  param {
    lr_mult: 1
    decay_mult: 1
  }
  param {
    lr_mult: 2
    decay_mult: 0
  }
  convolution_param {
    num_output: 16
    kernel_size: 1
    weight_filler {
      type: "xavier"
      std: 0.2
    }
    bias_filler {
      type: "constant"
      value: 0.2
    }
  }
}
layer {
  name: "inception_4a/relu_5x5_reduce"
  type: "ReLU"
  bottom: "inception_4a/5x5_reduce"
  top: "inception_4a/5x5_reduce"
}
layer {
  name: "inception_4a/5x5"
  type: "Convolution"
  bottom: "inception_4a/5x5_reduce"
  top: "inception_4a/5x5"
  param {
    lr_mult: 1
    decay_mult: 1
  }
  param {
    lr_mult: 2
    decay_mult: 0
  }
  convolution_param {
    num_output: 48
    pad: 2
    kernel_size: 5
    weight_filler {
      type: "xavier"
      std: 0.03
    }
    bias_filler {
      type: "constant"
      value: 0.2
    }
  }
}
layer {
  name: "inception_4a/relu_5x5"
  type: "ReLU"
  bottom: "inception_4a/5x5"
  top: "inception_4a/5x5"
}
layer {
  name: "inception_4a/pool"
  type: "Pooling"
  bottom: "pool3/3x3_s2"
  top: "inception_4a/pool"
  pooling_param {
    pool: MAX
    kernel_size: 3
    stride: 1
    pad: 1
  }
}
layer {
  name: "inception_4a/pool_proj"
  type: "Convolution"
  bottom: "inception_4a/pool"
  top: "inception_4a/pool_proj"
  param {
    lr_mult: 1
    decay_mult: 1
  }
  param {
    lr_mult: 2
    decay_mult: 0
  }
  convolution_param {
    num_output: 64
    kernel_size: 1
    weight_filler {
      type: "xavier"
      std: 0.1
    }
    bias_filler {
      type: "constant"
      value: 0.2
    }
  }
}
layer {
  name: "inception_4a/relu_pool_proj"
  type: "ReLU"
  bottom: "inception_4a/pool_proj"
  top: "inception_4a/pool_proj"
}
layer {
  name: "inception_4a/output"
  type: "Concat"
  bottom: "inception_4a/1x1"
  bottom: "inception_4a/3x3"
  bottom: "inception_4a/5x5"
  bottom: "inception_4a/pool_proj"
  top: "inception_4a/output"
}
layer {
  name: "loss1/ave_pool"
  type: "Pooling"
  bottom: "inception_4a/output"
  top: "loss1/ave_pool"
  pooling_param {
    pool: AVE
    kernel_size: 5
    stride: 3
  }
}
layer {
  name: "loss1/conv"
  type: "Convolution"
  bottom: "loss1/ave_pool"
  top: "loss1/conv"
  param {
    lr_mult: 1
    decay_mult: 1
  }
  param {
    lr_mult: 2
    decay_mult: 0
  }
  convolution_param {
    num_output: 128
    kernel_size: 1
    weight_filler {
      type: "xavier"
      std: 0.08
    }
    bias_filler {
      type: "constant"
      value: 0.2
    }
  }
}
layer {
  name: "loss1/relu_conv"
  type: "ReLU"
  bottom: "loss1/conv"
  top: "loss1/conv"
}
layer {
  name: "loss1/fc"
  type: "InnerProduct"
  bottom: "loss1/conv"
  top: "loss1/fc"
  param {
    lr_mult: 1
    decay_mult: 1
  }
  param {
    lr_mult: 2
    decay_mult: 0
  }
  inner_product_param {
    num_output: 1024
    weight_filler {
      type: "xavier"
      std: 0.02
    }
    bias_filler {
      type: "constant"
      value: 0.2
    }
  }
}
layer {
  name: "loss1/relu_fc"
  type: "ReLU"
  bottom: "loss1/fc"
  top: "loss1/fc"
}
layer {
  name: "loss1/drop_fc"
  type: "Dropout"
  bottom: "loss1/fc"
  top: "loss1/fc"
  dropout_param {
    dropout_ratio: 0.7
  }
}
layer {
  name: "loss1/classifier_plantvillage"
  type: "InnerProduct"
  bottom: "loss1/fc"
  top: "loss1/classifier_plantvillage"
  param {
    lr_mult: 1
    decay_mult: 1
  }
  param {
    lr_mult: 2
    decay_mult: 0
  }
  inner_product_param {
    num_output: 38
    weight_filler {
      type: "xavier"
      std: 0.0009765625
    }
    bias_filler {
      type: "constant"
      value: 0
    }
  }
}
layer {
  name: "inception_4b/1x1"
  type: "Convolution"
  bottom: "inception_4a/output"
  top: "inception_4b/1x1"
  param {
    lr_mult: 1
    decay_mult: 1
  }
  param {
    lr_mult: 2
    decay_mult: 0
  }
  convolution_param {
    num_output: 160
    kernel_size: 1
    weight_filler {
      type: "xavier"
      std: 0.03
    }
    bias_filler {
      type: "constant"
      value: 0.2
    }
  }
}
layer {
  name: "inception_4b/relu_1x1"
  type: "ReLU"
  bottom: "inception_4b/1x1"
  top: "inception_4b/1x1"
}
layer {
  name: "inception_4b/3x3_reduce"
  type: "Convolution"
  bottom: "inception_4a/output"
  top: "inception_4b/3x3_reduce"
  param {
    lr_mult: 1
    decay_mult: 1
  }
  param {
    lr_mult: 2
    decay_mult: 0
  }
  convolution_param {
    num_output: 112
    kernel_size: 1
    weight_filler {
      type: "xavier"
      std: 0.09
    }
    bias_filler {
      type: "constant"
      value: 0.2
    }
  }
}
layer {
  name: "inception_4b/relu_3x3_reduce"
  type: "ReLU"
  bottom: "inception_4b/3x3_reduce"
  top: "inception_4b/3x3_reduce"
}
layer {
  name: "inception_4b/3x3"
  type: "Convolution"
  bottom: "inception_4b/3x3_reduce"
  top: "inception_4b/3x3"
  param {
    lr_mult: 1
    decay_mult: 1
  }
  param {
    lr_mult: 2
    decay_mult: 0
  }
  convolution_param {
    num_output: 224
    pad: 1
    kernel_size: 3
    weight_filler {
      type: "xavier"
      std: 0.03
    }
    bias_filler {
      type: "constant"
      value: 0.2
    }
  }
}
layer {
  name: "inception_4b/relu_3x3"
  type: "ReLU"
  bottom: "inception_4b/3x3"
  top: "inception_4b/3x3"
}
layer {
  name: "inception_4b/5x5_reduce"
  type: "Convolution"
  bottom: "inception_4a/output"
  top: "inception_4b/5x5_reduce"
  param {
    lr_mult: 1
    decay_mult: 1
  }
  param {
    lr_mult: 2
    decay_mult: 0
  }
  convolution_param {
    num_output: 24
    kernel_size: 1
    weight_filler {
      type: "xavier"
      std: 0.2
    }
    bias_filler {
      type: "constant"
      value: 0.2
    }
  }
}
layer {
  name: "inception_4b/relu_5x5_reduce"
  type: "ReLU"
  bottom: "inception_4b/5x5_reduce"
  top: "inception_4b/5x5_reduce"
}
layer {
  name: "inception_4b/5x5"
  type: "Convolution"
  bottom: "inception_4b/5x5_reduce"
  top: "inception_4b/5x5"
  param {
    lr_mult: 1
    decay_mult: 1
  }
  param {
    lr_mult: 2
    decay_mult: 0
  }
  convolution_param {
    num_output: 64
    pad: 2
    kernel_size: 5
    weight_filler {
      type: "xavier"
      std: 0.03
    }
    bias_filler {
      type: "constant"
      value: 0.2
    }
  }
}
layer {
  name: "inception_4b/relu_5x5"
  type: "ReLU"
  bottom: "inception_4b/5x5"
  top: "inception_4b/5x5"
}
layer {
  name: "inception_4b/pool"
  type: "Pooling"
  bottom: "inception_4a/output"
  top: "inception_4b/pool"
  pooling_param {
    pool: MAX
    kernel_size: 3
    stride: 1
    pad: 1
  }
}
layer {
  name: "inception_4b/pool_proj"
  type: "Convolution"
  bottom: "inception_4b/pool"
  top: "inception_4b/pool_proj"
  param {
    lr_mult: 1
    decay_mult: 1
  }
  param {
    lr_mult: 2
    decay_mult: 0
  }
  convolution_param {
    num_output: 64
    kernel_size: 1
    weight_filler {
      type: "xavier"
      std: 0.1
    }
    bias_filler {
      type: "constant"
      value: 0.2
    }
  }
}
layer {
  name: "inception_4b/relu_pool_proj"
  type: "ReLU"
  bottom: "inception_4b/pool_proj"
  top: "inception_4b/pool_proj"
}
layer {
  name: "inception_4b/output"
  type: "Concat"
  bottom: "inception_4b/1x1"
  bottom: "inception_4b/3x3"
  bottom: "inception_4b/5x5"
  bottom: "inception_4b/pool_proj"
  top: "inception_4b/output"
}
layer {
  name: "inception_4c/1x1"
  type: "Convolution"
  bottom: "inception_4b/output"
  top: "inception_4c/1x1"
  param {
    lr_mult: 1
    decay_mult: 1
  }
  param {
    lr_mult: 2
    decay_mult: 0
  }
  convolution_param {
    num_output: 128
    kernel_size: 1
    weight_filler {
      type: "xavier"
      std: 0.03
    }
    bias_filler {
      type: "constant"
      value: 0.2
    }
  }
}
layer {
  name: "inception_4c/relu_1x1"
  type: "ReLU"
  bottom: "inception_4c/1x1"
  top: "inception_4c/1x1"
}
layer {
  name: "inception_4c/3x3_reduce"
  type: "Convolution"
  bottom: "inception_4b/output"
  top: "inception_4c/3x3_reduce"
  param {
    lr_mult: 1
    decay_mult: 1
  }
  param {
    lr_mult: 2
    decay_mult: 0
  }
  convolution_param {
    num_output: 128
    kernel_size: 1
    weight_filler {
      type: "xavier"
      std: 0.09
    }
    bias_filler {
      type: "constant"
      value: 0.2
    }
  }
}
layer {
  name: "inception_4c/relu_3x3_reduce"
  type: "ReLU"
  bottom: "inception_4c/3x3_reduce"
  top: "inception_4c/3x3_reduce"
}
layer {
  name: "inception_4c/3x3"
  type: "Convolution"
  bottom: "inception_4c/3x3_reduce"
  top: "inception_4c/3x3"
  param {
    lr_mult: 1
    decay_mult: 1
  }
  param {
    lr_mult: 2
    decay_mult: 0
  }
  convolution_param {
    num_output: 256
    pad: 1
    kernel_size: 3
    weight_filler {
      type: "xavier"
      std: 0.03
    }
    bias_filler {
      type: "constant"
      value: 0.2
    }
  }
}
layer {
  name: "inception_4c/relu_3x3"
  type: "ReLU"
  bottom: "inception_4c/3x3"
  top: "inception_4c/3x3"
}
layer {
  name: "inception_4c/5x5_reduce"
  type: "Convolution"
  bottom: "inception_4b/output"
  top: "inception_4c/5x5_reduce"
  param {
    lr_mult: 1
    decay_mult: 1
  }
  param {
    lr_mult: 2
    decay_mult: 0
  }
  convolution_param {
    num_output: 24
    kernel_size: 1
    weight_filler {
      type: "xavier"
      std: 0.2
    }
    bias_filler {
      type: "constant"
      value: 0.2
    }
  }
}
layer {
  name: "inception_4c/relu_5x5_reduce"
  type: "ReLU"
  bottom: "inception_4c/5x5_reduce"
  top: "inception_4c/5x5_reduce"
}
layer {
  name: "inception_4c/5x5"
  type: "Convolution"
  bottom: "inception_4c/5x5_reduce"
  top: "inception_4c/5x5"
  param {
    lr_mult: 1
    decay_mult: 1
  }
  param {
    lr_mult: 2
    decay_mult: 0
  }
  convolution_param {
    num_output: 64
    pad: 2
    kernel_size: 5
    weight_filler {
      type: "xavier"
      std: 0.03
    }
    bias_filler {
      type: "constant"
      value: 0.2
    }
  }
}
layer {
  name: "inception_4c/relu_5x5"
  type: "ReLU"
  bottom: "inception_4c/5x5"
  top: "inception_4c/5x5"
}
layer {
  name: "inception_4c/pool"
  type: "Pooling"
  bottom: "inception_4b/output"
  top: "inception_4c/pool"
  pooling_param {
    pool: MAX
    kernel_size: 3
    stride: 1
    pad: 1
  }
}
layer {
  name: "inception_4c/pool_proj"
  type: "Convolution"
  bottom: "inception_4c/pool"
  top: "inception_4c/pool_proj"
  param {
    lr_mult: 1
    decay_mult: 1
  }
  param {
    lr_mult: 2
    decay_mult: 0
  }
  convolution_param {
    num_output: 64
    kernel_size: 1
    weight_filler {
      type: "xavier"
      std: 0.1
    }
    bias_filler {
      type: "constant"
      value: 0.2
    }
  }
}
layer {
  name: "inception_4c/relu_pool_proj"
  type: "ReLU"
  bottom: "inception_4c/pool_proj"
  top: "inception_4c/pool_proj"
}
layer {
  name: "inception_4c/output"
  type: "Concat"
  bottom: "inception_4c/1x1"
  bottom: "inception_4c/3x3"
  bottom: "inception_4c/5x5"
  bottom: "inception_4c/pool_proj"
  top: "inception_4c/output"
}
layer {
  name: "inception_4d/1x1"
  type: "Convolution"
  bottom: "inception_4c/output"
  top: "inception_4d/1x1"
  param {
    lr_mult: 1
    decay_mult: 1
  }
  param {
    lr_mult: 2
    decay_mult: 0
  }
  convolution_param {
    num_output: 112
    kernel_size: 1
    weight_filler {
      type: "xavier"
      std: 0.03
    }
    bias_filler {
      type: "constant"
      value: 0.2
    }
  }
}
layer {
  name: "inception_4d/relu_1x1"
  type: "ReLU"
  bottom: "inception_4d/1x1"
  top: "inception_4d/1x1"
}
layer {
  name: "inception_4d/3x3_reduce"
  type: "Convolution"
  bottom: "inception_4c/output"
  top: "inception_4d/3x3_reduce"
  param {
    lr_mult: 1
    decay_mult: 1
  }
  param {
    lr_mult: 2
    decay_mult: 0
  }
  convolution_param {
    num_output: 144
    kernel_size: 1
    weight_filler {
      type: "xavier"
      std: 0.09
    }
    bias_filler {
      type: "constant"
      value: 0.2
    }
  }
}
layer {
  name: "inception_4d/relu_3x3_reduce"
  type: "ReLU"
  bottom: "inception_4d/3x3_reduce"
  top: "inception_4d/3x3_reduce"
}
layer {
  name: "inception_4d/3x3"
  type: "Convolution"
  bottom: "inception_4d/3x3_reduce"
  top: "inception_4d/3x3"
  param {
    lr_mult: 1
    decay_mult: 1
  }
  param {
    lr_mult: 2
    decay_mult: 0
  }
  convolution_param {
    num_output: 288
    pad: 1
    kernel_size: 3
    weight_filler {
      type: "xavier"
      std: 0.03
    }
    bias_filler {
      type: "constant"
      value: 0.2
    }
  }
}
layer {
  name: "inception_4d/relu_3x3"
  type: "ReLU"
  bottom: "inception_4d/3x3"
  top: "inception_4d/3x3"
}
layer {
  name: "inception_4d/5x5_reduce"
  type: "Convolution"
  bottom: "inception_4c/output"
  top: "inception_4d/5x5_reduce"
  param {
    lr_mult: 1
    decay_mult: 1
  }
  param {
    lr_mult: 2
    decay_mult: 0
  }
  convolution_param {
    num_output: 32
    kernel_size: 1
    weight_filler {
      type: "xavier"
      std: 0.2
    }
    bias_filler {
      type: "constant"
      value: 0.2
    }
  }
}
layer {
  name: "inception_4d/relu_5x5_reduce"
  type: "ReLU"
  bottom: "inception_4d/5x5_reduce"
  top: "inception_4d/5x5_reduce"
}
layer {
  name: "inception_4d/5x5"
  type: "Convolution"
  bottom: "inception_4d/5x5_reduce"
  top: "inception_4d/5x5"
  param {
    lr_mult: 1
    decay_mult: 1
  }
  param {
    lr_mult: 2
    decay_mult: 0
  }
  convolution_param {
    num_output: 64
    pad: 2
    kernel_size: 5
    weight_filler {
      type: "xavier"
      std: 0.03
    }
    bias_filler {
      type: "constant"
      value: 0.2
    }
  }
}
layer {
  name: "inception_4d/relu_5x5"
  type: "ReLU"
  bottom: "inception_4d/5x5"
  top: "inception_4d/5x5"
}
layer {
  name: "inception_4d/pool"
  type: "Pooling"
  bottom: "inception_4c/output"
  top: "inception_4d/pool"
  pooling_param {
    pool: MAX
    kernel_size: 3
    stride: 1
    pad: 1
  }
}
layer {
  name: "inception_4d/pool_proj"
  type: "Convolution"
  bottom: "inception_4d/pool"
  top: "inception_4d/pool_proj"
  param {
    lr_mult: 1
    decay_mult: 1
  }
  param {
    lr_mult: 2
    decay_mult: 0
  }
  convolution_param {
    num_output: 64
    kernel_size: 1
    weight_filler {
      type: "xavier"
      std: 0.1
    }
    bias_filler {
      type: "constant"
      value: 0.2
    }
  }
}
layer {
  name: "inception_4d/relu_pool_proj"
  type: "ReLU"
  bottom: "inception_4d/pool_proj"
  top: "inception_4d/pool_proj"
}
layer {
  name: "inception_4d/output"
  type: "Concat"
  bottom: "inception_4d/1x1"
  bottom: "inception_4d/3x3"
  bottom: "inception_4d/5x5"
  bottom: "inception_4d/pool_proj"
  top: "inception_4d/output"
}
layer {
  name: "loss2/ave_pool"
  type: "Pooling"
  bottom: "inception_4d/output"
  top: "loss2/ave_pool"
  pooling_param {
    pool: AVE
    kernel_size: 5
    stride: 3
  }
}
layer {
  name: "loss2/conv"
  type: "Convolution"
  bottom: "loss2/ave_pool"
  top: "loss2/conv"
  param {
    lr_mult: 1
    decay_mult: 1
  }
  param {
    lr_mult: 2
    decay_mult: 0
  }
  convolution_param {
    num_output: 128
    kernel_size: 1
    weight_filler {
      type: "xavier"
      std: 0.08
    }
    bias_filler {
      type: "constant"
      value: 0.2
    }
  }
}
layer {
  name: "loss2/relu_conv"
  type: "ReLU"
  bottom: "loss2/conv"
  top: "loss2/conv"
}
layer {
  name: "loss2/fc"
  type: "InnerProduct"
  bottom: "loss2/conv"
  top: "loss2/fc"
  param {
    lr_mult: 1
    decay_mult: 1
  }
  param {
    lr_mult: 2
    decay_mult: 0
  }
  inner_product_param {
    num_output: 1024
    weight_filler {
      type: "xavier"
      std: 0.02
    }
    bias_filler {
      type: "constant"
      value: 0.2
    }
  }
}
layer {
  name: "loss2/relu_fc"
  type: "ReLU"
  bottom: "loss2/fc"
  top: "loss2/fc"
}
layer {
  name: "loss2/drop_fc"
  type: "Dropout"
  bottom: "loss2/fc"
  top: "loss2/fc"
  dropout_param {
    dropout_ratio: 0.7
  }
}
layer {
  name: "loss2/classifier_plantvillage"
  type: "InnerProduct"
  bottom: "loss2/fc"
  top: "loss2/classifier_plantvillage"
  param {
    lr_mult: 1
    decay_mult: 1
  }
  param {
    lr_mult: 2
    decay_mult: 0
  }
  inner_product_param {
    num_output: 38
    weight_filler {
      type: "xavier"
      std: 0.0009765625
    }
    bias_filler {
      type: "constant"
      value: 0
    }
  }
}
layer {
  name: "inception_4e/1x1"
  type: "Convolution"
  bottom: "inception_4d/output"
  top: "inception_4e/1x1"
  param {
    lr_mult: 1
    decay_mult: 1
  }
  param {
    lr_mult: 2
    decay_mult: 0
  }
  convolution_param {
    num_output: 256
    kernel_size: 1
    weight_filler {
      type: "xavier"
      std: 0.03
    }
    bias_filler {
      type: "constant"
      value: 0.2
    }
  }
}
layer {
  name: "inception_4e/relu_1x1"
  type: "ReLU"
  bottom: "inception_4e/1x1"
  top: "inception_4e/1x1"
}
layer {
  name: "inception_4e/3x3_reduce"
  type: "Convolution"
  bottom: "inception_4d/output"
  top: "inception_4e/3x3_reduce"
  param {
    lr_mult: 1
    decay_mult: 1
  }
  param {
    lr_mult: 2
    decay_mult: 0
  }
  convolution_param {
    num_output: 160
    kernel_size: 1
    weight_filler {
      type: "xavier"
      std: 0.09
    }
    bias_filler {
      type: "constant"
      value: 0.2
    }
  }
}
layer {
  name: "inception_4e/relu_3x3_reduce"
  type: "ReLU"
  bottom: "inception_4e/3x3_reduce"
  top: "inception_4e/3x3_reduce"
}
layer {
  name: "inception_4e/3x3"
  type: "Convolution"
  bottom: "inception_4e/3x3_reduce"
  top: "inception_4e/3x3"
  param {
    lr_mult: 1
    decay_mult: 1
  }
  param {
    lr_mult: 2
    decay_mult: 0
  }
  convolution_param {
    num_output: 320
    pad: 1
    kernel_size: 3
    weight_filler {
      type: "xavier"
      std: 0.03
    }
    bias_filler {
      type: "constant"
      value: 0.2
    }
  }
}
layer {
  name: "inception_4e/relu_3x3"
  type: "ReLU"
  bottom: "inception_4e/3x3"
  top: "inception_4e/3x3"
}
layer {
  name: "inception_4e/5x5_reduce"
  type: "Convolution"
  bottom: "inception_4d/output"
  top: "inception_4e/5x5_reduce"
  param {
    lr_mult: 1
    decay_mult: 1
  }
  param {
    lr_mult: 2
    decay_mult: 0
  }
  convolution_param {
    num_output: 32
    kernel_size: 1
    weight_filler {
      type: "xavier"
      std: 0.2
    }
    bias_filler {
      type: "constant"
      value: 0.2
    }
  }
}
layer {
  name: "inception_4e/relu_5x5_reduce"
  type: "ReLU"
  bottom: "inception_4e/5x5_reduce"
  top: "inception_4e/5x5_reduce"
}
layer {
  name: "inception_4e/5x5"
  type: "Convolution"
  bottom: "inception_4e/5x5_reduce"
  top: "inception_4e/
I0403 15:37:26.975525 10741 layer_factory.hpp:77] Creating layer data
I0403 15:37:26.976109 10741 net.cpp:91] Creating Layer data
I0403 15:37:26.976138 10741 net.cpp:399] data -> data
I0403 15:37:26.976191 10741 net.cpp:399] data -> label
I0403 15:37:26.976227 10741 data_transformer.cpp:25] Loading mean file from: /home/mohanty/data/final_dataset/lmdb/segmented-80-20/mean.binaryproto
I0403 15:37:26.979075 10746 db_lmdb.cpp:38] Opened lmdb /home/mohanty/data/final_dataset/lmdb/segmented-80-20/test_db
I0403 15:37:26.989110 10741 data_layer.cpp:41] output data size: 24,3,224,224
I0403 15:37:27.016692 10741 net.cpp:141] Setting up data
I0403 15:37:27.016789 10741 net.cpp:148] Top shape: 24 3 224 224 (3612672)
I0403 15:37:27.016813 10741 net.cpp:148] Top shape: 24 (24)
I0403 15:37:27.016827 10741 net.cpp:156] Memory required for data: 14450784
I0403 15:37:27.016855 10741 layer_factory.hpp:77] Creating layer label_data_1_split
I0403 15:37:27.016881 10741 net.cpp:91] Creating Layer label_data_1_split
I0403 15:37:27.016901 10741 net.cpp:425] label_data_1_split <- label
I0403 15:37:27.016932 10741 net.cpp:399] label_data_1_split -> label_data_1_split_0
I0403 15:37:27.016962 10741 net.cpp:399] label_data_1_split -> label_data_1_split_1
I0403 15:37:27.016986 10741 net.cpp:399] label_data_1_split -> label_data_1_split_2
I0403 15:37:27.017009 10741 net.cpp:399] label_data_1_split -> label_data_1_split_3
I0403 15:37:27.017029 10741 net.cpp:399] label_data_1_split -> label_data_1_split_4
I0403 15:37:27.017048 10741 net.cpp:399] label_data_1_split -> label_data_1_split_5
I0403 15:37:27.017068 10741 net.cpp:399] label_data_1_split -> label_data_1_split_6
I0403 15:37:27.017089 10741 net.cpp:399] label_data_1_split -> label_data_1_split_7
I0403 15:37:27.017108 10741 net.cpp:399] label_data_1_split -> label_data_1_split_8
I0403 15:37:27.017127 10741 net.cpp:399] label_data_1_split -> label_data_1_split_9
I0403 15:37:27.017241 10741 net.cpp:141] Setting up label_data_1_split
I0403 15:37:27.017263 10741 net.cpp:148] Top shape: 24 (24)
I0403 15:37:27.017279 10741 net.cpp:148] Top shape: 24 (24)
I0403 15:37:27.017295 10741 net.cpp:148] Top shape: 24 (24)
I0403 15:37:27.017310 10741 net.cpp:148] Top shape: 24 (24)
I0403 15:37:27.017325 10741 net.cpp:148] Top shape: 24 (24)
I0403 15:37:27.017339 10741 net.cpp:148] Top shape: 24 (24)
I0403 15:37:27.017354 10741 net.cpp:148] Top shape: 24 (24)
I0403 15:37:27.017369 10741 net.cpp:148] Top shape: 24 (24)
I0403 15:37:27.017385 10741 net.cpp:148] Top shape: 24 (24)
I0403 15:37:27.017398 10741 net.cpp:148] Top shape: 24 (24)
I0403 15:37:27.017441 10741 net.cpp:156] Memory required for data: 14451744
I0403 15:37:27.017457 10741 layer_factory.hpp:77] Creating layer conv1/7x7_s2
I0403 15:37:27.017487 10741 net.cpp:91] Creating Layer conv1/7x7_s2
I0403 15:37:27.017505 10741 net.cpp:425] conv1/7x7_s2 <- data
I0403 15:37:27.017524 10741 net.cpp:399] conv1/7x7_s2 -> conv1/7x7_s2
I0403 15:37:27.162024 10741 net.cpp:141] Setting up conv1/7x7_s2
I0403 15:37:27.162108 10741 net.cpp:148] Top shape: 24 64 112 112 (19267584)
I0403 15:37:27.162127 10741 net.cpp:156] Memory required for data: 91522080
I0403 15:37:27.162156 10741 layer_factory.hpp:77] Creating layer conv1/relu_7x7
I0403 15:37:27.162184 10741 net.cpp:91] Creating Layer conv1/relu_7x7
I0403 15:37:27.162202 10741 net.cpp:425] conv1/relu_7x7 <- conv1/7x7_s2
I0403 15:37:27.162221 10741 net.cpp:386] conv1/relu_7x7 -> conv1/7x7_s2 (in-place)
I0403 15:37:27.162470 10741 net.cpp:141] Setting up conv1/relu_7x7
I0403 15:37:27.162497 10741 net.cpp:148] Top shape: 24 64 112 112 (19267584)
I0403 15:37:27.162513 10741 net.cpp:156] Memory required for data: 168592416
I0403 15:37:27.162526 10741 layer_factory.hpp:77] Creating layer pool1/3x3_s2
I0403 15:37:27.162550 10741 net.cpp:91] Creating Layer pool1/3x3_s2
I0403 15:37:27.162569 10741 net.cpp:425] pool1/3x3_s2 <- conv1/7x7_s2
I0403 15:37:27.162586 10741 net.cpp:399] pool1/3x3_s2 -> pool1/3x3_s2
I0403 15:37:27.162658 10741 net.cpp:141] Setting up pool1/3x3_s2
I0403 15:37:27.162683 10741 net.cpp:148] Top shape: 24 64 56 56 (4816896)
I0403 15:37:27.162698 10741 net.cpp:156] Memory required for data: 187860000
I0403 15:37:27.162711 10741 layer_factory.hpp:77] Creating layer pool1/norm1
I0403 15:37:27.162735 10741 net.cpp:91] Creating Layer pool1/norm1
I0403 15:37:27.162752 10741 net.cpp:425] pool1/norm1 <- pool1/3x3_s2
I0403 15:37:27.162770 10741 net.cpp:399] pool1/norm1 -> pool1/norm1
I0403 15:37:27.163050 10741 net.cpp:141] Setting up pool1/norm1
I0403 15:37:27.163077 10741 net.cpp:148] Top shape: 24 64 56 56 (4816896)
I0403 15:37:27.163092 10741 net.cpp:156] Memory required for data: 207127584
I0403 15:37:27.163106 10741 layer_factory.hpp:77] Creating layer conv2/3x3_reduce
I0403 15:37:27.163130 10741 net.cpp:91] Creating Layer conv2/3x3_reduce
I0403 15:37:27.163147 10741 net.cpp:425] conv2/3x3_reduce <- pool1/norm1
I0403 15:37:27.163166 10741 net.cpp:399] conv2/3x3_reduce -> conv2/3x3_reduce
I0403 15:37:27.164469 10741 net.cpp:141] Setting up conv2/3x3_reduce
I0403 15:37:27.164499 10741 net.cpp:148] Top shape: 24 64 56 56 (4816896)
I0403 15:37:27.164515 10741 net.cpp:156] Memory required for data: 226395168
I0403 15:37:27.164535 10741 layer_factory.hpp:77] Creating layer conv2/relu_3x3_reduce
I0403 15:37:27.164552 10741 net.cpp:91] Creating Layer conv2/relu_3x3_reduce
I0403 15:37:27.164568 10741 net.cpp:425] conv2/relu_3x3_reduce <- conv2/3x3_reduce
I0403 15:37:27.164584 10741 net.cpp:386] conv2/relu_3x3_reduce -> conv2/3x3_reduce (in-place)
I0403 15:37:27.164826 10741 net.cpp:141] Setting up conv2/relu_3x3_reduce
I0403 15:37:27.164852 10741 net.cpp:148] Top shape: 24 64 56 56 (4816896)
I0403 15:37:27.164867 10741 net.cpp:156] Memory required for data: 245662752
I0403 15:37:27.164882 10741 layer_factory.hpp:77] Creating layer conv2/3x3
I0403 15:37:27.164904 10741 net.cpp:91] Creating Layer conv2/3x3
I0403 15:37:27.164922 10741 net.cpp:425] conv2/3x3 <- conv2/3x3_reduce
I0403 15:37:27.164939 10741 net.cpp:399] conv2/3x3 -> conv2/3x3
I0403 15:37:27.167163 10741 net.cpp:141] Setting up conv2/3x3
I0403 15:37:27.167192 10741 net.cpp:148] Top shape: 24 192 56 56 (14450688)
I0403 15:37:27.167208 10741 net.cpp:156] Memory required for data: 303465504
I0403 15:37:27.167229 10741 layer_factory.hpp:77] Creating layer conv2/relu_3x3
I0403 15:37:27.167248 10741 net.cpp:91] Creating Layer conv2/relu_3x3
I0403 15:37:27.167264 10741 net.cpp:425] conv2/relu_3x3 <- conv2/3x3
I0403 15:37:27.167281 10741 net.cpp:386] conv2/relu_3x3 -> conv2/3x3 (in-place)
I0403 15:37:27.167438 10741 net.cpp:141] Setting up conv2/relu_3x3
I0403 15:37:27.167461 10741 net.cpp:148] Top shape: 24 192 56 56 (14450688)
I0403 15:37:27.167506 10741 net.cpp:156] Memory required for data: 361268256
I0403 15:37:27.167522 10741 layer_factory.hpp:77] Creating layer conv2/norm2
I0403 15:37:27.167541 10741 net.cpp:91] Creating Layer conv2/norm2
I0403 15:37:27.167557 10741 net.cpp:425] conv2/norm2 <- conv2/3x3
I0403 15:37:27.167575 10741 net.cpp:399] conv2/norm2 -> conv2/norm2
I0403 15:37:27.167850 10741 net.cpp:141] Setting up conv2/norm2
I0403 15:37:27.167876 10741 net.cpp:148] Top shape: 24 192 56 56 (14450688)
I0403 15:37:27.167891 10741 net.cpp:156] Memory required for data: 419071008
I0403 15:37:27.167906 10741 layer_factory.hpp:77] Creating layer pool2/3x3_s2
I0403 15:37:27.167924 10741 net.cpp:91] Creating Layer pool2/3x3_s2
I0403 15:37:27.167940 10741 net.cpp:425] pool2/3x3_s2 <- conv2/norm2
I0403 15:37:27.167958 10741 net.cpp:399] pool2/3x3_s2 -> pool2/3x3_s2
I0403 15:37:27.168015 10741 net.cpp:141] Setting up pool2/3x3_s2
I0403 15:37:27.168040 10741 net.cpp:148] Top shape: 24 192 28 28 (3612672)
I0403 15:37:27.168054 10741 net.cpp:156] Memory required for data: 433521696
I0403 15:37:27.168069 10741 layer_factory.hpp:77] Creating layer pool2/3x3_s2_pool2/3x3_s2_0_split
I0403 15:37:27.168087 10741 net.cpp:91] Creating Layer pool2/3x3_s2_pool2/3x3_s2_0_split
I0403 15:37:27.168102 10741 net.cpp:425] pool2/3x3_s2_pool2/3x3_s2_0_split <- pool2/3x3_s2
I0403 15:37:27.168119 10741 net.cpp:399] pool2/3x3_s2_pool2/3x3_s2_0_split -> pool2/3x3_s2_pool2/3x3_s2_0_split_0
I0403 15:37:27.168138 10741 net.cpp:399] pool2/3x3_s2_pool2/3x3_s2_0_split -> pool2/3x3_s2_pool2/3x3_s2_0_split_1
I0403 15:37:27.168159 10741 net.cpp:399] pool2/3x3_s2_pool2/3x3_s2_0_split -> pool2/3x3_s2_pool2/3x3_s2_0_split_2
I0403 15:37:27.168179 10741 net.cpp:399] pool2/3x3_s2_pool2/3x3_s2_0_split -> pool2/3x3_s2_pool2/3x3_s2_0_split_3
I0403 15:37:27.168241 10741 net.cpp:141] Setting up pool2/3x3_s2_pool2/3x3_s2_0_split
I0403 15:37:27.168264 10741 net.cpp:148] Top shape: 24 192 28 28 (3612672)
I0403 15:37:27.168279 10741 net.cpp:148] Top shape: 24 192 28 28 (3612672)
I0403 15:37:27.168295 10741 net.cpp:148] Top shape: 24 192 28 28 (3612672)
I0403 15:37:27.168310 10741 net.cpp:148] Top shape: 24 192 28 28 (3612672)
I0403 15:37:27.168323 10741 net.cpp:156] Memory required for data: 491324448
I0403 15:37:27.168337 10741 layer_factory.hpp:77] Creating layer inception_3a/1x1
I0403 15:37:27.168357 10741 net.cpp:91] Creating Layer inception_3a/1x1
I0403 15:37:27.168375 10741 net.cpp:425] inception_3a/1x1 <- pool2/3x3_s2_pool2/3x3_s2_0_split_0
I0403 15:37:27.168392 10741 net.cpp:399] inception_3a/1x1 -> inception_3a/1x1
I0403 15:37:27.169944 10741 net.cpp:141] Setting up inception_3a/1x1
I0403 15:37:27.169972 10741 net.cpp:148] Top shape: 24 64 28 28 (1204224)
I0403 15:37:27.169992 10741 net.cpp:156] Memory required for data: 496141344
I0403 15:37:27.170011 10741 layer_factory.hpp:77] Creating layer inception_3a/relu_1x1
I0403 15:37:27.170032 10741 net.cpp:91] Creating Layer inception_3a/relu_1x1
I0403 15:37:27.170048 10741 net.cpp:425] inception_3a/relu_1x1 <- inception_3a/1x1
I0403 15:37:27.170065 10741 net.cpp:386] inception_3a/relu_1x1 -> inception_3a/1x1 (in-place)
I0403 15:37:27.170238 10741 net.cpp:141] Setting up inception_3a/relu_1x1
I0403 15:37:27.170261 10741 net.cpp:148] Top shape: 24 64 28 28 (1204224)
I0403 15:37:27.170276 10741 net.cpp:156] Memory required for data: 500958240
I0403 15:37:27.170290 10741 layer_factory.hpp:77] Creating layer inception_3a/3x3_reduce
I0403 15:37:27.170315 10741 net.cpp:91] Creating Layer inception_3a/3x3_reduce
I0403 15:37:27.170333 10741 net.cpp:425] inception_3a/3x3_reduce <- pool2/3x3_s2_pool2/3x3_s2_0_split_1
I0403 15:37:27.170354 10741 net.cpp:399] inception_3a/3x3_reduce -> inception_3a/3x3_reduce
I0403 15:37:27.172042 10741 net.cpp:141] Setting up inception_3a/3x3_reduce
I0403 15:37:27.172075 10741 net.cpp:148] Top shape: 24 96 28 28 (1806336)
I0403 15:37:27.172091 10741 net.cpp:156] Memory required for data: 508183584
I0403 15:37:27.172111 10741 layer_factory.hpp:77] Creating layer inception_3a/relu_3x3_reduce
I0403 15:37:27.172145 10741 net.cpp:91] Creating Layer inception_3a/relu_3x3_reduce
I0403 15:37:27.172163 10741 net.cpp:425] inception_3a/relu_3x3_reduce <- inception_3a/3x3_reduce
I0403 15:37:27.172183 10741 net.cpp:386] inception_3a/relu_3x3_reduce -> inception_3a/3x3_reduce (in-place)
I0403 15:37:27.172363 10741 net.cpp:141] Setting up inception_3a/relu_3x3_reduce
I0403 15:37:27.172389 10741 net.cpp:148] Top shape: 24 96 28 28 (1806336)
I0403 15:37:27.172402 10741 net.cpp:156] Memory required for data: 515408928
I0403 15:37:27.172416 10741 layer_factory.hpp:77] Creating layer inception_3a/3x3
I0403 15:37:27.172437 10741 net.cpp:91] Creating Layer inception_3a/3x3
I0403 15:37:27.172454 10741 net.cpp:425] inception_3a/3x3 <- inception_3a/3x3_reduce
I0403 15:37:27.172477 10741 net.cpp:399] inception_3a/3x3 -> inception_3a/3x3
I0403 15:37:27.174113 10741 net.cpp:141] Setting up inception_3a/3x3
I0403 15:37:27.174142 10741 net.cpp:148] Top shape: 24 128 28 28 (2408448)
I0403 15:37:27.174160 10741 net.cpp:156] Memory required for data: 525042720
I0403 15:37:27.174177 10741 layer_factory.hpp:77] Creating layer inception_3a/relu_3x3
I0403 15:37:27.174196 10741 net.cpp:91] Creating Layer inception_3a/relu_3x3
I0403 15:37:27.174211 10741 net.cpp:425] inception_3a/relu_3x3 <- inception_3a/3x3
I0403 15:37:27.174232 10741 net.cpp:386] inception_3a/relu_3x3 -> inception_3a/3x3 (in-place)
I0403 15:37:27.174504 10741 net.cpp:141] Setting up inception_3a/relu_3x3
I0403 15:37:27.174531 10741 net.cpp:148] Top shape: 24 128 28 28 (2408448)
I0403 15:37:27.174547 10741 net.cpp:156] Memory required for data: 534676512
I0403 15:37:27.174562 10741 layer_factory.hpp:77] Creating layer inception_3a/5x5_reduce
I0403 15:37:27.174584 10741 net.cpp:91] Creating Layer inception_3a/5x5_reduce
I0403 15:37:27.174602 10741 net.cpp:425] inception_3a/5x5_reduce <- pool2/3x3_s2_pool2/3x3_s2_0_split_2
I0403 15:37:27.174620 10741 net.cpp:399] inception_3a/5x5_reduce -> inception_3a/5x5_reduce
I0403 15:37:27.175575 10741 net.cpp:141] Setting up inception_3a/5x5_reduce
I0403 15:37:27.175613 10741 net.cpp:148] Top shape: 24 16 28 28 (301056)
I0403 15:37:27.175629 10741 net.cpp:156] Memory required for data: 535880736
I0403 15:37:27.175647 10741 layer_factory.hpp:77] Creating layer inception_3a/relu_5x5_reduce
I0403 15:37:27.175665 10741 net.cpp:91] Creating Layer inception_3a/relu_5x5_reduce
I0403 15:37:27.175681 10741 net.cpp:425] inception_3a/relu_5x5_reduce <- inception_3a/5x5_reduce
I0403 15:37:27.175703 10741 net.cpp:386] inception_3a/relu_5x5_reduce -> inception_3a/5x5_reduce (in-place)
I0403 15:37:27.176044 10741 net.cpp:141] Setting up inception_3a/relu_5x5_reduce
I0403 15:37:27.176072 10741 net.cpp:148] Top shape: 24 16 28 28 (301056)
I0403 15:37:27.176087 10741 net.cpp:156] Memory required for data: 537084960
I0403 15:37:27.176102 10741 layer_factory.hpp:77] Creating layer inception_3a/5x5
I0403 15:37:27.176126 10741 net.cpp:91] Creating Layer inception_3a/5x5
I0403 15:37:27.176146 10741 net.cpp:425] inception_3a/5x5 <- inception_3a/5x5_reduce
I0403 15:37:27.176167 10741 net.cpp:399] inception_3a/5x5 -> inception_3a/5x5
I0403 15:37:27.177263 10741 net.cpp:141] Setting up inception_3a/5x5
I0403 15:37:27.177291 10741 net.cpp:148] Top shape: 24 32 28 28 (602112)
I0403 15:37:27.177307 10741 net.cpp:156] Memory required for data: 539493408
I0403 15:37:27.177325 10741 layer_factory.hpp:77] Creating layer inception_3a/relu_5x5
I0403 15:37:27.177343 10741 net.cpp:91] Creating Layer inception_3a/relu_5x5
I0403 15:37:27.177359 10741 net.cpp:425] inception_3a/relu_5x5 <- inception_3a/5x5
I0403 15:37:27.177378 10741 net.cpp:386] inception_3a/relu_5x5 -> inception_3a/5x5 (in-place)
I0403 15:37:27.177551 10741 net.cpp:141] Setting up inception_3a/relu_5x5
I0403 15:37:27.177575 10741 net.cpp:148] Top shape: 24 32 28 28 (602112)
I0403 15:37:27.177590 10741 net.cpp:156] Memory required for data: 541901856
I0403 15:37:27.177605 10741 layer_factory.hpp:77] Creating layer inception_3a/pool
I0403 15:37:27.177623 10741 net.cpp:91] Creating Layer inception_3a/pool
I0403 15:37:27.177652 10741 net.cpp:425] inception_3a/pool <- pool2/3x3_s2_pool2/3x3_s2_0_split_3
I0403 15:37:27.177673 10741 net.cpp:399] inception_3a/pool -> inception_3a/pool
I0403 15:37:27.177731 10741 net.cpp:141] Setting up inception_3a/pool
I0403 15:37:27.177753 10741 net.cpp:148] Top shape: 24 192 28 28 (3612672)
I0403 15:37:27.177768 10741 net.cpp:156] Memory required for data: 556352544
I0403 15:37:27.177783 10741 layer_factory.hpp:77] Creating layer inception_3a/pool_proj
I0403 15:37:27.177808 10741 net.cpp:91] Creating Layer inception_3a/pool_proj
I0403 15:37:27.177824 10741 net.cpp:425] inception_3a/pool_proj <- inception_3a/pool
I0403 15:37:27.177844 10741 net.cpp:399] inception_3a/pool_proj -> inception_3a/pool_proj
I0403 15:37:27.178850 10741 net.cpp:141] Setting up inception_3a/pool_proj
I0403 15:37:27.178879 10741 net.cpp:148] Top shape: 24 32 28 28 (602112)
I0403 15:37:27.178895 10741 net.cpp:156] Memory required for data: 558760992
I0403 15:37:27.178920 10741 layer_factory.hpp:77] Creating layer inception_3a/relu_pool_proj
I0403 15:37:27.178939 10741 net.cpp:91] Creating Layer inception_3a/relu_pool_proj
I0403 15:37:27.178956 10741 net.cpp:425] inception_3a/relu_pool_proj <- inception_3a/pool_proj
I0403 15:37:27.178975 10741 net.cpp:386] inception_3a/relu_pool_proj -> inception_3a/pool_proj (in-place)
I0403 15:37:27.179267 10741 net.cpp:141] Setting up inception_3a/relu_pool_proj
I0403 15:37:27.179296 10741 net.cpp:148] Top shape: 24 32 28 28 (602112)
I0403 15:37:27.179311 10741 net.cpp:156] Memory required for data: 561169440
I0403 15:37:27.179325 10741 layer_factory.hpp:77] Creating layer inception_3a/output
I0403 15:37:27.179343 10741 net.cpp:91] Creating Layer inception_3a/output
I0403 15:37:27.179358 10741 net.cpp:425] inception_3a/output <- inception_3a/1x1
I0403 15:37:27.179375 10741 net.cpp:425] inception_3a/output <- inception_3a/3x3
I0403 15:37:27.179390 10741 net.cpp:425] inception_3a/output <- inception_3a/5x5
I0403 15:37:27.179406 10741 net.cpp:425] inception_3a/output <- inception_3a/pool_proj
I0403 15:37:27.179425 10741 net.cpp:399] inception_3a/output -> inception_3a/output
I0403 15:37:27.179471 10741 net.cpp:141] Setting up inception_3a/output
I0403 15:37:27.179492 10741 net.cpp:148] Top shape: 24 256 28 28 (4816896)
I0403 15:37:27.179507 10741 net.cpp:156] Memory required for data: 580437024
I0403 15:37:27.179534 10741 layer_factory.hpp:77] Creating layer inception_3a/output_inception_3a/output_0_split
I0403 15:37:27.179555 10741 net.cpp:91] Creating Layer inception_3a/output_inception_3a/output_0_split
I0403 15:37:27.179572 10741 net.cpp:425] inception_3a/output_inception_3a/output_0_split <- inception_3a/output
I0403 15:37:27.179589 10741 net.cpp:399] inception_3a/output_inception_3a/output_0_split -> inception_3a/output_inception_3a/output_0_split_0
I0403 15:37:27.179610 10741 net.cpp:399] inception_3a/output_inception_3a/output_0_split -> inception_3a/output_inception_3a/output_0_split_1
I0403 15:37:27.179635 10741 net.cpp:399] inception_3a/output_inception_3a/output_0_split -> inception_3a/output_inception_3a/output_0_split_2
I0403 15:37:27.179656 10741 net.cpp:399] inception_3a/output_inception_3a/output_0_split -> inception_3a/output_inception_3a/output_0_split_3
I0403 15:37:27.179731 10741 net.cpp:141] Setting up inception_3a/output_inception_3a/output_0_split
I0403 15:37:27.179756 10741 net.cpp:148] Top shape: 24 256 28 28 (4816896)
I0403 15:37:27.179774 10741 net.cpp:148] Top shape: 24 256 28 28 (4816896)
I0403 15:37:27.179790 10741 net.cpp:148] Top shape: 24 256 28 28 (4816896)
I0403 15:37:27.179805 10741 net.cpp:148] Top shape: 24 256 28 28 (4816896)
I0403 15:37:27.179831 10741 net.cpp:156] Memory required for data: 657507360
I0403 15:37:27.179844 10741 layer_factory.hpp:77] Creating layer inception_3b/1x1
I0403 15:37:27.179867 10741 net.cpp:91] Creating Layer inception_3b/1x1
I0403 15:37:27.179884 10741 net.cpp:425] inception_3b/1x1 <- inception_3a/output_inception_3a/output_0_split_0
I0403 15:37:27.179903 10741 net.cpp:399] inception_3b/1x1 -> inception_3b/1x1
I0403 15:37:27.181092 10741 net.cpp:141] Setting up inception_3b/1x1
I0403 15:37:27.181134 10741 net.cpp:148] Top shape: 24 128 28 28 (2408448)
I0403 15:37:27.181154 10741 net.cpp:156] Memory required for data: 667141152
I0403 15:37:27.181174 10741 layer_factory.hpp:77] Creating layer inception_3b/relu_1x1
I0403 15:37:27.181191 10741 net.cpp:91] Creating Layer inception_3b/relu_1x1
I0403 15:37:27.181206 10741 net.cpp:425] inception_3b/relu_1x1 <- inception_3b/1x1
I0403 15:37:27.181223 10741 net.cpp:386] inception_3b/relu_1x1 -> inception_3b/1x1 (in-place)
I0403 15:37:27.181396 10741 net.cpp:141] Setting up inception_3b/relu_1x1
I0403 15:37:27.181422 10741 net.cpp:148] Top shape: 24 128 28 28 (2408448)
I0403 15:37:27.181437 10741 net.cpp:156] Memory required for data: 676774944
I0403 15:37:27.181452 10741 layer_factory.hpp:77] Creating layer inception_3b/3x3_reduce
I0403 15:37:27.181473 10741 net.cpp:91] Creating Layer inception_3b/3x3_reduce
I0403 15:37:27.181491 10741 net.cpp:425] inception_3b/3x3_reduce <- inception_3a/output_inception_3a/output_0_split_1
I0403 15:37:27.181509 10741 net.cpp:399] inception_3b/3x3_reduce -> inception_3b/3x3_reduce
I0403 15:37:27.182628 10741 net.cpp:141] Setting up inception_3b/3x3_reduce
I0403 15:37:27.182657 10741 net.cpp:148] Top shape: 24 128 28 28 (2408448)
I0403 15:37:27.182672 10741 net.cpp:156] Memory required for data: 686408736
I0403 15:37:27.182688 10741 layer_factory.hpp:77] Creating layer inception_3b/relu_3x3_reduce
I0403 15:37:27.182708 10741 net.cpp:91] Creating Layer inception_3b/relu_3x3_reduce
I0403 15:37:27.182725 10741 net.cpp:425] inception_3b/relu_3x3_reduce <- inception_3b/3x3_reduce
I0403 15:37:27.182744 10741 net.cpp:386] inception_3b/relu_3x3_reduce -> inception_3b/3x3_reduce (in-place)
I0403 15:37:27.182912 10741 net.cpp:141] Setting up inception_3b/relu_3x3_reduce
I0403 15:37:27.182937 10741 net.cpp:148] Top shape: 24 128 28 28 (2408448)
I0403 15:37:27.182951 10741 net.cpp:156] Memory required for data: 696042528
I0403 15:37:27.182966 10741 layer_factory.hpp:77] Creating layer inception_3b/3x3
I0403 15:37:27.182994 10741 net.cpp:91] Creating Layer inception_3b/3x3
I0403 15:37:27.183013 10741 net.cpp:425] inception_3b/3x3 <- inception_3b/3x3_reduce
I0403 15:37:27.183034 10741 net.cpp:399] inception_3b/3x3 -> inception_3b/3x3
I0403 15:37:27.185951 10741 net.cpp:141] Setting up inception_3b/3x3
I0403 15:37:27.185986 10741 net.cpp:148] Top shape: 24 192 28 28 (3612672)
I0403 15:37:27.186004 10741 net.cpp:156] Memory required for data: 710493216
I0403 15:37:27.186023 10741 layer_factory.hpp:77] Creating layer inception_3b/relu_3x3
I0403 15:37:27.186043 10741 net.cpp:91] Creating Layer inception_3b/relu_3x3
I0403 15:37:27.186070 10741 net.cpp:425] inception_3b/relu_3x3 <- inception_3b/3x3
I0403 15:37:27.186089 10741 net.cpp:386] inception_3b/relu_3x3 -> inception_3b/3x3 (in-place)
I0403 15:37:27.186363 10741 net.cpp:141] Setting up inception_3b/relu_3x3
I0403 15:37:27.186391 10741 net.cpp:148] Top shape: 24 192 28 28 (3612672)
I0403 15:37:27.186406 10741 net.cpp:156] Memory required for data: 724943904
I0403 15:37:27.186420 10741 layer_factory.hpp:77] Creating layer inception_3b/5x5_reduce
I0403 15:37:27.186444 10741 net.cpp:91] Creating Layer inception_3b/5x5_reduce
I0403 15:37:27.186461 10741 net.cpp:425] inception_3b/5x5_reduce <- inception_3a/output_inception_3a/output_0_split_2
I0403 15:37:27.186480 10741 net.cpp:399] inception_3b/5x5_reduce -> inception_3b/5x5_reduce
I0403 15:37:27.187500 10741 net.cpp:141] Setting up inception_3b/5x5_reduce
I0403 15:37:27.187530 10741 net.cpp:148] Top shape: 24 32 28 28 (602112)
I0403 15:37:27.187546 10741 net.cpp:156] Memory required for data: 727352352
I0403 15:37:27.187563 10741 layer_factory.hpp:77] Creating layer inception_3b/relu_5x5_reduce
I0403 15:37:27.187582 10741 net.cpp:91] Creating Layer inception_3b/relu_5x5_reduce
I0403 15:37:27.187597 10741 net.cpp:425] inception_3b/relu_5x5_reduce <- inception_3b/5x5_reduce
I0403 15:37:27.187615 10741 net.cpp:386] inception_3b/relu_5x5_reduce -> inception_3b/5x5_reduce (in-place)
I0403 15:37:27.187801 10741 net.cpp:141] Setting up inception_3b/relu_5x5_reduce
I0403 15:37:27.187826 10741 net.cpp:148] Top shape: 24 32 28 28 (602112)
I0403 15:37:27.187840 10741 net.cpp:156] Memory required for data: 729760800
I0403 15:37:27.187855 10741 layer_factory.hpp:77] Creating layer inception_3b/5x5
I0403 15:37:27.187880 10741 net.cpp:91] Creating Layer inception_3b/5x5
I0403 15:37:27.187898 10741 net.cpp:425] inception_3b/5x5 <- inception_3b/5x5_reduce
I0403 15:37:27.187919 10741 net.cpp:399] inception_3b/5x5 -> inception_3b/5x5
I0403 15:37:27.189905 10741 net.cpp:141] Setting up inception_3b/5x5
I0403 15:37:27.189937 10741 net.cpp:148] Top shape: 24 96 28 28 (1806336)
I0403 15:37:27.189954 10741 net.cpp:156] Memory required for data: 736986144
I0403 15:37:27.189972 10741 layer_factory.hpp:77] Creating layer inception_3b/relu_5x5
I0403 15:37:27.189998 10741 net.cpp:91] Creating Layer inception_3b/relu_5x5
I0403 15:37:27.190016 10741 net.cpp:425] inception_3b/relu_5x5 <- inception_3b/5x5
I0403 15:37:27.190033 10741 net.cpp:386] inception_3b/relu_5x5 -> inception_3b/5x5 (in-place)
I0403 15:37:27.190239 10741 net.cpp:141] Setting up inception_3b/relu_5x5
I0403 15:37:27.190264 10741 net.cpp:148] Top shape: 24 96 28 28 (1806336)
I0403 15:37:27.190279 10741 net.cpp:156] Memory required for data: 744211488
I0403 15:37:27.190292 10741 layer_factory.hpp:77] Creating layer inception_3b/pool
I0403 15:37:27.190310 10741 net.cpp:91] Creating Layer inception_3b/pool
I0403 15:37:27.190326 10741 net.cpp:425] inception_3b/pool <- inception_3a/output_inception_3a/output_0_split_3
I0403 15:37:27.190343 10741 net.cpp:399] inception_3b/pool -> inception_3b/pool
I0403 15:37:27.190399 10741 net.cpp:141] Setting up inception_3b/pool
I0403 15:37:27.190423 10741 net.cpp:148] Top shape: 24 256 28 28 (4816896)
I0403 15:37:27.190436 10741 net.cpp:156] Memory required for data: 763479072
I0403 15:37:27.190450 10741 layer_factory.hpp:77] Creating layer inception_3b/pool_proj
I0403 15:37:27.190474 10741 net.cpp:91] Creating Layer inception_3b/pool_proj
I0403 15:37:27.190490 10741 net.cpp:425] inception_3b/pool_proj <- inception_3b/pool
I0403 15:37:27.190510 10741 net.cpp:399] inception_3b/pool_proj -> inception_3b/pool_proj
I0403 15:37:27.191557 10741 net.cpp:141] Setting up inception_3b/pool_proj
I0403 15:37:27.191586 10741 net.cpp:148] Top shape: 24 64 28 28 (1204224)
I0403 15:37:27.191599 10741 net.cpp:156] Memory required for data: 768295968
I0403 15:37:27.191617 10741 layer_factory.hpp:77] Creating layer inception_3b/relu_pool_proj
I0403 15:37:27.191637 10741 net.cpp:91] Creating Layer inception_3b/relu_pool_proj
I0403 15:37:27.191654 10741 net.cpp:425] inception_3b/relu_pool_proj <- inception_3b/pool_proj
I0403 15:37:27.191671 10741 net.cpp:386] inception_3b/relu_pool_proj -> inception_3b/pool_proj (in-place)
I0403 15:37:27.192097 10741 net.cpp:141] Setting up inception_3b/relu_pool_proj
I0403 15:37:27.192137 10741 net.cpp:148] Top shape: 24 64 28 28 (1204224)
I0403 15:37:27.192152 10741 net.cpp:156] Memory required for data: 773112864
I0403 15:37:27.192165 10741 layer_factory.hpp:77] Creating layer inception_3b/output
I0403 15:37:27.192183 10741 net.cpp:91] Creating Layer inception_3b/output
I0403 15:37:27.192198 10741 net.cpp:425] inception_3b/output <- inception_3b/1x1
I0403 15:37:27.192214 10741 net.cpp:425] inception_3b/output <- inception_3b/3x3
I0403 15:37:27.192230 10741 net.cpp:425] inception_3b/output <- inception_3b/5x5
I0403 15:37:27.192245 10741 net.cpp:425] inception_3b/output <- inception_3b/pool_proj
I0403 15:37:27.192265 10741 net.cpp:399] inception_3b/output -> inception_3b/output
I0403 15:37:27.192308 10741 net.cpp:141] Setting up inception_3b/output
I0403 15:37:27.192333 10741 net.cpp:148] Top shape: 24 480 28 28 (9031680)
I0403 15:37:27.192349 10741 net.cpp:156] Memory required for data: 809239584
I0403 15:37:27.192363 10741 layer_factory.hpp:77] Creating layer pool3/3x3_s2
I0403 15:37:27.192389 10741 net.cpp:91] Creating Layer pool3/3x3_s2
I0403 15:37:27.192407 10741 net.cpp:425] pool3/3x3_s2 <- inception_3b/output
I0403 15:37:27.192442 10741 net.cpp:399] pool3/3x3_s2 -> pool3/3x3_s2
I0403 15:37:27.192500 10741 net.cpp:141] Setting up pool3/3x3_s2
I0403 15:37:27.192524 10741 net.cpp:148] Top shape: 24 480 14 14 (2257920)
I0403 15:37:27.192538 10741 net.cpp:156] Memory required for data: 818271264
I0403 15:37:27.192553 10741 layer_factory.hpp:77] Creating layer pool3/3x3_s2_pool3/3x3_s2_0_split
I0403 15:37:27.192572 10741 net.cpp:91] Creating Layer pool3/3x3_s2_pool3/3x3_s2_0_split
I0403 15:37:27.192589 10741 net.cpp:425] pool3/3x3_s2_pool3/3x3_s2_0_split <- pool3/3x3_s2
I0403 15:37:27.192606 10741 net.cpp:399] pool3/3x3_s2_pool3/3x3_s2_0_split -> pool3/3x3_s2_pool3/3x3_s2_0_split_0
I0403 15:37:27.192625 10741 net.cpp:399] pool3/3x3_s2_pool3/3x3_s2_0_split -> pool3/3x3_s2_pool3/3x3_s2_0_split_1
I0403 15:37:27.192644 10741 net.cpp:399] pool3/3x3_s2_pool3/3x3_s2_0_split -> pool3/3x3_s2_pool3/3x3_s2_0_split_2
I0403 15:37:27.192664 10741 net.cpp:399] pool3/3x3_s2_pool3/3x3_s2_0_split -> pool3/3x3_s2_pool3/3x3_s2_0_split_3
I0403 15:37:27.192739 10741 net.cpp:141] Setting up pool3/3x3_s2_pool3/3x3_s2_0_split
I0403 15:37:27.192762 10741 net.cpp:148] Top shape: 24 480 14 14 (2257920)
I0403 15:37:27.192778 10741 net.cpp:148] Top shape: 24 480 14 14 (2257920)
I0403 15:37:27.192793 10741 net.cpp:148] Top shape: 24 480 14 14 (2257920)
I0403 15:37:27.192808 10741 net.cpp:148] Top shape: 24 480 14 14 (2257920)
I0403 15:37:27.192823 10741 net.cpp:156] Memory required for data: 854397984
I0403 15:37:27.192837 10741 layer_factory.hpp:77] Creating layer inception_4a/1x1
I0403 15:37:27.192859 10741 net.cpp:91] Creating Layer inception_4a/1x1
I0403 15:37:27.192878 10741 net.cpp:425] inception_4a/1x1 <- pool3/3x3_s2_pool3/3x3_s2_0_split_0
I0403 15:37:27.192898 10741 net.cpp:399] inception_4a/1x1 -> inception_4a/1x1
I0403 15:37:27.194532 10741 net.cpp:141] Setting up inception_4a/1x1
I0403 15:37:27.194561 10741 net.cpp:148] Top shape: 24 192 14 14 (903168)
I0403 15:37:27.194576 10741 net.cpp:156] Memory required for data: 858010656
I0403 15:37:27.194593 10741 layer_factory.hpp:77] Creating layer inception_4a/relu_1x1
I0403 15:37:27.194613 10741 net.cpp:91] Creating Layer inception_4a/relu_1x1
I0403 15:37:27.194630 10741 net.cpp:425] inception_4a/relu_1x1 <- inception_4a/1x1
I0403 15:37:27.194648 10741 net.cpp:386] inception_4a/relu_1x1 -> inception_4a/1x1 (in-place)
I0403 15:37:27.194818 10741 net.cpp:141] Setting up inception_4a/relu_1x1
I0403 15:37:27.194846 10741 net.cpp:148] Top shape: 24 192 14 14 (903168)
I0403 15:37:27.194862 10741 net.cpp:156] Memory required for data: 861623328
I0403 15:37:27.194877 10741 layer_factory.hpp:77] Creating layer inception_4a/3x3_reduce
I0403 15:37:27.194903 10741 net.cpp:91] Creating Layer inception_4a/3x3_reduce
I0403 15:37:27.194922 10741 net.cpp:425] inception_4a/3x3_reduce <- pool3/3x3_s2_pool3/3x3_s2_0_split_1
I0403 15:37:27.194941 10741 net.cpp:399] inception_4a/3x3_reduce -> inception_4a/3x3_reduce
I0403 15:37:27.196199 10741 net.cpp:141] Setting up inception_4a/3x3_reduce
I0403 15:37:27.196228 10741 net.cpp:148] Top shape: 24 96 14 14 (451584)
I0403 15:37:27.196243 10741 net.cpp:156] Memory required for data: 863429664
I0403 15:37:27.196266 10741 layer_factory.hpp:77] Creating layer inception_4a/relu_3x3_reduce
I0403 15:37:27.196286 10741 net.cpp:91] Creating Layer inception_4a/relu_3x3_reduce
I0403 15:37:27.196301 10741 net.cpp:425] inception_4a/relu_3x3_reduce <- inception_4a/3x3_reduce
I0403 15:37:27.196321 10741 net.cpp:386] inception_4a/relu_3x3_reduce -> inception_4a/3x3_reduce (in-place)
I0403 15:37:27.196509 10741 net.cpp:141] Setting up inception_4a/relu_3x3_reduce
I0403 15:37:27.196534 10741 net.cpp:148] Top shape: 24 96 14 14 (451584)
I0403 15:37:27.196549 10741 net.cpp:156] Memory required for data: 865236000
I0403 15:37:27.196563 10741 layer_factory.hpp:77] Creating layer inception_4a/3x3
I0403 15:37:27.196588 10741 net.cpp:91] Creating Layer inception_4a/3x3
I0403 15:37:27.196605 10741 net.cpp:425] inception_4a/3x3 <- inception_4a/3x3_reduce
I0403 15:37:27.196626 10741 net.cpp:399] inception_4a/3x3 -> inception_4a/3x3
I0403 15:37:27.199360 10741 net.cpp:141] Setting up inception_4a/3x3
I0403 15:37:27.199388 10741 net.cpp:148] Top shape: 24 208 14 14 (978432)
I0403 15:37:27.199404 10741 net.cpp:156] Memory required for data: 869149728
I0403 15:37:27.199421 10741 layer_factory.hpp:77] Creating layer inception_4a/relu_3x3
I0403 15:37:27.199445 10741 net.cpp:91] Creating Layer inception_4a/relu_3x3
I0403 15:37:27.199462 10741 net.cpp:425] inception_4a/relu_3x3 <- inception_4a/3x3
I0403 15:37:27.199479 10741 net.cpp:386] inception_4a/relu_3x3 -> inception_4a/3x3 (in-place)
I0403 15:37:27.199759 10741 net.cpp:141] Setting up inception_4a/relu_3x3
I0403 15:37:27.199785 10741 net.cpp:148] Top shape: 24 208 14 14 (978432)
I0403 15:37:27.199800 10741 net.cpp:156] Memory required for data: 873063456
I0403 15:37:27.199815 10741 layer_factory.hpp:77] Creating layer inception_4a/5x5_reduce
I0403 15:37:27.199839 10741 net.cpp:91] Creating Layer inception_4a/5x5_reduce
I0403 15:37:27.199857 10741 net.cpp:425] inception_4a/5x5_reduce <- pool3/3x3_s2_pool3/3x3_s2_0_split_2
I0403 15:37:27.199877 10741 net.cpp:399] inception_4a/5x5_reduce -> inception_4a/5x5_reduce
I0403 15:37:27.200911 10741 net.cpp:141] Setting up inception_4a/5x5_reduce
I0403 15:37:27.200940 10741 net.cpp:148] Top shape: 24 16 14 14 (75264)
I0403 15:37:27.200955 10741 net.cpp:156] Memory required for data: 873364512
I0403 15:37:27.200974 10741 layer_factory.hpp:77] Creating layer inception_4a/relu_5x5_reduce
I0403 15:37:27.200997 10741 net.cpp:91] Creating Layer inception_4a/relu_5x5_reduce
I0403 15:37:27.201014 10741 net.cpp:425] inception_4a/relu_5x5_reduce <- inception_4a/5x5_reduce
I0403 15:37:27.201032 10741 net.cpp:386] inception_4a/relu_5x5_reduce -> inception_4a/5x5_reduce (in-place)
I0403 15:37:27.201210 10741 net.cpp:141] Setting up inception_4a/relu_5x5_reduce
I0403 15:37:27.201234 10741 net.cpp:148] Top shape: 24 16 14 14 (75264)
I0403 15:37:27.201248 10741 net.cpp:156] Memory required for data: 873665568
I0403 15:37:27.201263 10741 layer_factory.hpp:77] Creating layer inception_4a/5x5
I0403 15:37:27.201285 10741 net.cpp:91] Creating Layer inception_4a/5x5
I0403 15:37:27.201303 10741 net.cpp:425] inception_4a/5x5 <- inception_4a/5x5_reduce
I0403 15:37:27.201323 10741 net.cpp:399] inception_4a/5x5 -> inception_4a/5x5
I0403 15:37:27.202414 10741 net.cpp:141] Setting up inception_4a/5x5
I0403 15:37:27.202442 10741 net.cpp:148] Top shape: 24 48 14 14 (225792)
I0403 15:37:27.202457 10741 net.cpp:156] Memory required for data: 874568736
I0403 15:37:27.202476 10741 layer_factory.hpp:77] Creating layer inception_4a/relu_5x5
I0403 15:37:27.202496 10741 net.cpp:91] Creating Layer inception_4a/relu_5x5
I0403 15:37:27.202512 10741 net.cpp:425] inception_4a/relu_5x5 <- inception_4a/5x5
I0403 15:37:27.202529 10741 net.cpp:386] inception_4a/relu_5x5 -> inception_4a/5x5 (in-place)
I0403 15:37:27.202704 10741 net.cpp:141] Setting up inception_4a/relu_5x5
I0403 15:37:27.202729 10741 net.cpp:148] Top shape: 24 48 14 14 (225792)
I0403 15:37:27.202744 10741 net.cpp:156] Memory required for data: 875471904
I0403 15:37:27.202757 10741 layer_factory.hpp:77] Creating layer inception_4a/pool
I0403 15:37:27.202780 10741 net.cpp:91] Creating Layer inception_4a/pool
I0403 15:37:27.202797 10741 net.cpp:425] inception_4a/pool <- pool3/3x3_s2_pool3/3x3_s2_0_split_3
I0403 15:37:27.202816 10741 net.cpp:399] inception_4a/pool -> inception_4a/pool
I0403 15:37:27.202877 10741 net.cpp:141] Setting up inception_4a/pool
I0403 15:37:27.202899 10741 net.cpp:148] Top shape: 24 480 14 14 (2257920)
I0403 15:37:27.202913 10741 net.cpp:156] Memory required for data: 884503584
I0403 15:37:27.202927 10741 layer_factory.hpp:77] Creating layer inception_4a/pool_proj
I0403 15:37:27.202950 10741 net.cpp:91] Creating Layer inception_4a/pool_proj
I0403 15:37:27.202967 10741 net.cpp:425] inception_4a/pool_proj <- inception_4a/pool
I0403 15:37:27.202992 10741 net.cpp:399] inception_4a/pool_proj -> inception_4a/pool_proj
I0403 15:37:27.204143 10741 net.cpp:141] Setting up inception_4a/pool_proj
I0403 15:37:27.204170 10741 net.cpp:148] Top shape: 24 64 14 14 (301056)
I0403 15:37:27.204200 10741 net.cpp:156] Memory required for data: 885707808
I0403 15:37:27.204218 10741 layer_factory.hpp:77] Creating layer inception_4a/relu_pool_proj
I0403 15:37:27.204241 10741 net.cpp:91] Creating Layer inception_4a/relu_pool_proj
I0403 15:37:27.204257 10741 net.cpp:425] inception_4a/relu_pool_proj <- inception_4a/pool_proj
I0403 15:37:27.204274 10741 net.cpp:386] inception_4a/relu_pool_proj -> inception_4a/pool_proj (in-place)
I0403 15:37:27.204550 10741 net.cpp:141] Setting up inception_4a/relu_pool_proj
I0403 15:37:27.204576 10741 net.cpp:148] Top shape: 24 64 14 14 (301056)
I0403 15:37:27.204591 10741 net.cpp:156] Memory required for data: 886912032
I0403 15:37:27.204607 10741 layer_factory.hpp:77] Creating layer inception_4a/output
I0403 15:37:27.204623 10741 net.cpp:91] Creating Layer inception_4a/output
I0403 15:37:27.204643 10741 net.cpp:425] inception_4a/output <- inception_4a/1x1
I0403 15:37:27.204659 10741 net.cpp:425] inception_4a/output <- inception_4a/3x3
I0403 15:37:27.204674 10741 net.cpp:425] inception_4a/output <- inception_4a/5x5
I0403 15:37:27.204690 10741 net.cpp:425] inception_4a/output <- inception_4a/pool_proj
I0403 15:37:27.204706 10741 net.cpp:399] inception_4a/output -> inception_4a/output
I0403 15:37:27.204749 10741 net.cpp:141] Setting up inception_4a/output
I0403 15:37:27.204776 10741 net.cpp:148] Top shape: 24 512 14 14 (2408448)
I0403 15:37:27.204790 10741 net.cpp:156] Memory required for data: 896545824
I0403 15:37:27.204804 10741 layer_factory.hpp:77] Creating layer inception_4a/output_inception_4a/output_0_split
I0403 15:37:27.204821 10741 net.cpp:91] Creating Layer inception_4a/output_inception_4a/output_0_split
I0403 15:37:27.204838 10741 net.cpp:425] inception_4a/output_inception_4a/output_0_split <- inception_4a/output
I0403 15:37:27.204856 10741 net.cpp:399] inception_4a/output_inception_4a/output_0_split -> inception_4a/output_inception_4a/output_0_split_0
I0403 15:37:27.204876 10741 net.cpp:399] inception_4a/output_inception_4a/output_0_split -> inception_4a/output_inception_4a/output_0_split_1
I0403 15:37:27.204896 10741 net.cpp:399] inception_4a/output_inception_4a/output_0_split -> inception_4a/output_inception_4a/output_0_split_2
I0403 15:37:27.204916 10741 net.cpp:399] inception_4a/output_inception_4a/output_0_split -> inception_4a/output_inception_4a/output_0_split_3
I0403 15:37:27.204934 10741 net.cpp:399] inception_4a/output_inception_4a/output_0_split -> inception_4a/output_inception_4a/output_0_split_4
I0403 15:37:27.205030 10741 net.cpp:141] Setting up inception_4a/output_inception_4a/output_0_split
I0403 15:37:27.205054 10741 net.cpp:148] Top shape: 24 512 14 14 (2408448)
I0403 15:37:27.205071 10741 net.cpp:148] Top shape: 24 512 14 14 (2408448)
I0403 15:37:27.205087 10741 net.cpp:148] Top shape: 24 512 14 14 (2408448)
I0403 15:37:27.205101 10741 net.cpp:148] Top shape: 24 512 14 14 (2408448)
I0403 15:37:27.205116 10741 net.cpp:148] Top shape: 24 512 14 14 (2408448)
I0403 15:37:27.205129 10741 net.cpp:156] Memory required for data: 944714784
I0403 15:37:27.205143 10741 layer_factory.hpp:77] Creating layer loss1/ave_pool
I0403 15:37:27.205162 10741 net.cpp:91] Creating Layer loss1/ave_pool
I0403 15:37:27.205176 10741 net.cpp:425] loss1/ave_pool <- inception_4a/output_inception_4a/output_0_split_0
I0403 15:37:27.205196 10741 net.cpp:399] loss1/ave_pool -> loss1/ave_pool
I0403 15:37:27.205401 10741 net.cpp:141] Setting up loss1/ave_pool
I0403 15:37:27.205427 10741 net.cpp:148] Top shape: 24 512 4 4 (196608)
I0403 15:37:27.205441 10741 net.cpp:156] Memory required for data: 945501216
I0403 15:37:27.205456 10741 layer_factory.hpp:77] Creating layer loss1/conv
I0403 15:37:27.205478 10741 net.cpp:91] Creating Layer loss1/conv
I0403 15:37:27.205497 10741 net.cpp:425] loss1/conv <- loss1/ave_pool
I0403 15:37:27.205516 10741 net.cpp:399] loss1/conv -> loss1/conv
I0403 15:37:27.206912 10741 net.cpp:141] Setting up loss1/conv
I0403 15:37:27.206938 10741 net.cpp:148] Top shape: 24 128 4 4 (49152)
I0403 15:37:27.206967 10741 net.cpp:156] Memory required for data: 945697824
I0403 15:37:27.206992 10741 layer_factory.hpp:77] Creating layer loss1/relu_conv
I0403 15:37:27.207013 10741 net.cpp:91] Creating Layer loss1/relu_conv
I0403 15:37:27.207031 10741 net.cpp:425] loss1/relu_conv <- loss1/conv
I0403 15:37:27.207047 10741 net.cpp:386] loss1/relu_conv -> loss1/conv (in-place)
I0403 15:37:27.207325 10741 net.cpp:141] Setting up loss1/relu_conv
I0403 15:37:27.207350 10741 net.cpp:148] Top shape: 24 128 4 4 (49152)
I0403 15:37:27.207365 10741 net.cpp:156] Memory required for data: 945894432
I0403 15:37:27.207379 10741 layer_factory.hpp:77] Creating layer loss1/fc
I0403 15:37:27.207404 10741 net.cpp:91] Creating Layer loss1/fc
I0403 15:37:27.207422 10741 net.cpp:425] loss1/fc <- loss1/conv
I0403 15:37:27.207443 10741 net.cpp:399] loss1/fc -> loss1/fc
I0403 15:37:27.225327 10741 net.cpp:141] Setting up loss1/fc
I0403 15:37:27.225361 10741 net.cpp:148] Top shape: 24 1024 (24576)
I0403 15:37:27.225378 10741 net.cpp:156] Memory required for data: 945992736
I0403 15:37:27.225396 10741 layer_factory.hpp:77] Creating layer loss1/relu_fc
I0403 15:37:27.225414 10741 net.cpp:91] Creating Layer loss1/relu_fc
I0403 15:37:27.225430 10741 net.cpp:425] loss1/relu_fc <- loss1/fc
I0403 15:37:27.225448 10741 net.cpp:386] loss1/relu_fc -> loss1/fc (in-place)
I0403 15:37:27.225633 10741 net.cpp:141] Setting up loss1/relu_fc
I0403 15:37:27.225661 10741 net.cpp:148] Top shape: 24 1024 (24576)
I0403 15:37:27.225677 10741 net.cpp:156] Memory required for data: 946091040
I0403 15:37:27.225690 10741 layer_factory.hpp:77] Creating layer loss1/drop_fc
I0403 15:37:27.225715 10741 net.cpp:91] Creating Layer loss1/drop_fc
I0403 15:37:27.225733 10741 net.cpp:425] loss1/drop_fc <- loss1/fc
I0403 15:37:27.225749 10741 net.cpp:386] loss1/drop_fc -> loss1/fc (in-place)
I0403 15:37:27.225802 10741 net.cpp:141] Setting up loss1/drop_fc
I0403 15:37:27.225826 10741 net.cpp:148] Top shape: 24 1024 (24576)
I0403 15:37:27.225841 10741 net.cpp:156] Memory required for data: 946189344
I0403 15:37:27.225855 10741 layer_factory.hpp:77] Creating layer loss1/classifier_plantvillage
I0403 15:37:27.225872 10741 net.cpp:91] Creating Layer loss1/classifier_plantvillage
I0403 15:37:27.225888 10741 net.cpp:425] loss1/classifier_plantvillage <- loss1/fc
I0403 15:37:27.225909 10741 net.cpp:399] loss1/classifier_plantvillage -> loss1/classifier_plantvillage
I0403 15:37:27.226831 10741 net.cpp:141] Setting up loss1/classifier_plantvillage
I0403 15:37:27.226861 10741 net.cpp:148] Top shape: 24 38 (912)
I0403 15:37:27.226876 10741 net.cpp:156] Memory required for data: 946192992
I0403 15:37:27.226892 10741 layer_factory.hpp:77] Creating layer loss1/classifier_plantvillage_loss1/classifier_plantvillage_0_split
I0403 15:37:27.226912 10741 net.cpp:91] Creating Layer loss1/classifier_plantvillage_loss1/classifier_plantvillage_0_split
I0403 15:37:27.226929 10741 net.cpp:425] loss1/classifier_plantvillage_loss1/classifier_plantvillage_0_split <- loss1/classifier_plantvillage
I0403 15:37:27.226946 10741 net.cpp:399] loss1/classifier_plantvillage_loss1/classifier_plantvillage_0_split -> loss1/classifier_plantvillage_loss1/classifier_plantvillage_0_split_0
I0403 15:37:27.226966 10741 net.cpp:399] loss1/classifier_plantvillage_loss1/classifier_plantvillage_0_split -> loss1/classifier_plantvillage_loss1/classifier_plantvillage_0_split_1
I0403 15:37:27.226991 10741 net.cpp:399] loss1/classifier_plantvillage_loss1/classifier_plantvillage_0_split -> loss1/classifier_plantvillage_loss1/classifier_plantvillage_0_split_2
I0403 15:37:27.227062 10741 net.cpp:141] Setting up loss1/classifier_plantvillage_loss1/classifier_plantvillage_0_split
I0403 15:37:27.227085 10741 net.cpp:148] Top shape: 24 38 (912)
I0403 15:37:27.227100 10741 net.cpp:148] Top shape: 24 38 (912)
I0403 15:37:27.227115 10741 net.cpp:148] Top shape: 24 38 (912)
I0403 15:37:27.227128 10741 net.cpp:156] Memory required for data: 946203936
I0403 15:37:27.227143 10741 layer_factory.hpp:77] Creating layer inception_4b/1x1
I0403 15:37:27.227164 10741 net.cpp:91] Creating Layer inception_4b/1x1
I0403 15:37:27.227196 10741 net.cpp:425] inception_4b/1x1 <- inception_4a/output_inception_4a/output_0_split_1
I0403 15:37:27.227216 10741 net.cpp:399] inception_4b/1x1 -> inception_4b/1x1
I0403 15:37:27.228857 10741 net.cpp:141] Setting up inception_4b/1x1
I0403 15:37:27.228888 10741 net.cpp:148] Top shape: 24 160 14 14 (752640)
I0403 15:37:27.228904 10741 net.cpp:156] Memory required for data: 949214496
I0403 15:37:27.228924 10741 layer_factory.hpp:77] Creating layer inception_4b/relu_1x1
I0403 15:37:27.228941 10741 net.cpp:91] Creating Layer inception_4b/relu_1x1
I0403 15:37:27.228958 10741 net.cpp:425] inception_4b/relu_1x1 <- inception_4b/1x1
I0403 15:37:27.228981 10741 net.cpp:386] inception_4b/relu_1x1 -> inception_4b/1x1 (in-place)
I0403 15:37:27.229164 10741 net.cpp:141] Setting up inception_4b/relu_1x1
I0403 15:37:27.229190 10741 net.cpp:148] Top shape: 24 160 14 14 (752640)
I0403 15:37:27.229204 10741 net.cpp:156] Memory required for data: 952225056
I0403 15:37:27.229219 10741 layer_factory.hpp:77] Creating layer inception_4b/3x3_reduce
I0403 15:37:27.229243 10741 net.cpp:91] Creating Layer inception_4b/3x3_reduce
I0403 15:37:27.229260 10741 net.cpp:425] inception_4b/3x3_reduce <- inception_4a/output_inception_4a/output_0_split_2
I0403 15:37:27.229281 10741 net.cpp:399] inception_4b/3x3_reduce -> inception_4b/3x3_reduce
I0403 15:37:27.230633 10741 net.cpp:141] Setting up inception_4b/3x3_reduce
I0403 15:37:27.230659 10741 net.cpp:148] Top shape: 24 112 14 14 (526848)
I0403 15:37:27.230674 10741 net.cpp:156] Memory required for data: 954332448
I0403 15:37:27.230692 10741 layer_factory.hpp:77] Creating layer inception_4b/relu_3x3_reduce
I0403 15:37:27.230710 10741 net.cpp:91] Creating Layer inception_4b/relu_3x3_reduce
I0403 15:37:27.230726 10741 net.cpp:425] inception_4b/relu_3x3_reduce <- inception_4b/3x3_reduce
I0403 15:37:27.230746 10741 net.cpp:386] inception_4b/relu_3x3_reduce -> inception_4b/3x3_reduce (in-place)
I0403 15:37:27.231035 10741 net.cpp:141] Setting up inception_4b/relu_3x3_reduce
I0403 15:37:27.231061 10741 net.cpp:148] Top shape: 24 112 14 14 (526848)
I0403 15:37:27.231076 10741 net.cpp:156] Memory required for data: 956439840
I0403 15:37:27.231091 10741 layer_factory.hpp:77] Creating layer inception_4b/3x3
I0403 15:37:27.231112 10741 net.cpp:91] Creating Layer inception_4b/3x3
I0403 15:37:27.231130 10741 net.cpp:425] inception_4b/3x3 <- inception_4b/3x3_reduce
I0403 15:37:27.231153 10741 net.cpp:399] inception_4b/3x3 -> inception_4b/3x3
I0403 15:37:27.234130 10741 net.cpp:141] Setting up inception_4b/3x3
I0403 15:37:27.234160 10741 net.cpp:148] Top shape: 24 224 14 14 (1053696)
I0403 15:37:27.234176 10741 net.cpp:156] Memory required for data: 960654624
I0403 15:37:27.234194 10741 layer_factory.hpp:77] Creating layer inception_4b/relu_3x3
I0403 15:37:27.234213 10741 net.cpp:91] Creating Layer inception_4b/relu_3x3
I0403 15:37:27.234231 10741 net.cpp:425] inception_4b/relu_3x3 <- inception_4b/3x3
I0403 15:37:27.234248 10741 net.cpp:386] inception_4b/relu_3x3 -> inception_4b/3x3 (in-place)
I0403 15:37:27.234432 10741 net.cpp:141] Setting up inception_4b/relu_3x3
I0403 15:37:27.234459 10741 net.cpp:148] Top shape: 24 224 14 14 (1053696)
I0403 15:37:27.234475 10741 net.cpp:156] Memory required for data: 964869408
I0403 15:37:27.234490 10741 layer_factory.hpp:77] Creating layer inception_4b/5x5_reduce
I0403 15:37:27.234513 10741 net.cpp:91] Creating Layer inception_4b/5x5_reduce
I0403 15:37:27.234530 10741 net.cpp:425] inception_4b/5x5_reduce <- inception_4a/output_inception_4a/output_0_split_3
I0403 15:37:27.234549 10741 net.cpp:399] inception_4b/5x5_reduce -> inception_4b/5x5_reduce
I0403 15:37:27.235633 10741 net.cpp:141] Setting up inception_4b/5x5_reduce
I0403 15:37:27.235662 10741 net.cpp:148] Top shape: 24 24 14 14 (112896)
I0403 15:37:27.235678 10741 net.cpp:156] Memory required for data: 965320992
I0403 15:37:27.235697 10741 layer_factory.hpp:77] Creating layer inception_4b/relu_5x5_reduce
I0403 15:37:27.235714 10741 net.cpp:91] Creating Layer inception_4b/relu_5x5_reduce
I0403 15:37:27.235744 10741 net.cpp:425] inception_4b/relu_5x5_reduce <- inception_4b/5x5_reduce
I0403 15:37:27.235765 10741 net.cpp:386] inception_4b/relu_5x5_reduce -> inception_4b/5x5_reduce (in-place)
I0403 15:37:27.235951 10741 net.cpp:141] Setting up inception_4b/relu_5x5_reduce
I0403 15:37:27.235975 10741 net.cpp:148] Top shape: 24 24 14 14 (112896)
I0403 15:37:27.235996 10741 net.cpp:156] Memory required for data: 965772576
I0403 15:37:27.236009 10741 layer_factory.hpp:77] Creating layer inception_4b/5x5
I0403 15:37:27.236032 10741 net.cpp:91] Creating Layer inception_4b/5x5
I0403 15:37:27.236049 10741 net.cpp:425] inception_4b/5x5 <- inception_4b/5x5_reduce
I0403 15:37:27.236070 10741 net.cpp:399] inception_4b/5x5 -> inception_4b/5x5
I0403 15:37:27.237288 10741 net.cpp:141] Setting up inception_4b/5x5
I0403 15:37:27.237316 10741 net.cpp:148] Top shape: 24 64 14 14 (301056)
I0403 15:37:27.237334 10741 net.cpp:156] Memory required for data: 966976800
I0403 15:37:27.237351 10741 layer_factory.hpp:77] Creating layer inception_4b/relu_5x5
I0403 15:37:27.237368 10741 net.cpp:91] Creating Layer inception_4b/relu_5x5
I0403 15:37:27.237385 10741 net.cpp:425] inception_4b/relu_5x5 <- inception_4b/5x5
I0403 15:37:27.237403 10741 net.cpp:386] inception_4b/relu_5x5 -> inception_4b/5x5 (in-place)
I0403 15:37:27.237689 10741 net.cpp:141] Setting up inception_4b/relu_5x5
I0403 15:37:27.237716 10741 net.cpp:148] Top shape: 24 64 14 14 (301056)
I0403 15:37:27.237732 10741 net.cpp:156] Memory required for data: 968181024
I0403 15:37:27.237746 10741 layer_factory.hpp:77] Creating layer inception_4b/pool
I0403 15:37:27.237766 10741 net.cpp:91] Creating Layer inception_4b/pool
I0403 15:37:27.237782 10741 net.cpp:425] inception_4b/pool <- inception_4a/output_inception_4a/output_0_split_4
I0403 15:37:27.237802 10741 net.cpp:399] inception_4b/pool -> inception_4b/pool
I0403 15:37:27.237864 10741 net.cpp:141] Setting up inception_4b/pool
I0403 15:37:27.237889 10741 net.cpp:148] Top shape: 24 512 14 14 (2408448)
I0403 15:37:27.237902 10741 net.cpp:156] Memory required for data: 977814816
I0403 15:37:27.237917 10741 layer_factory.hpp:77] Creating layer inception_4b/pool_proj
I0403 15:37:27.237939 10741 net.cpp:91] Creating Layer inception_4b/pool_proj
I0403 15:37:27.237957 10741 net.cpp:425] inception_4b/pool_proj <- inception_4b/pool
I0403 15:37:27.237985 10741 net.cpp:399] inception_4b/pool_proj -> inception_4b/pool_proj
I0403 15:37:27.239186 10741 net.cpp:141] Setting up inception_4b/pool_proj
I0403 15:37:27.239214 10741 net.cpp:148] Top shape: 24 64 14 14 (301056)
I0403 15:37:27.239230 10741 net.cpp:156] Memory required for data: 979019040
I0403 15:37:27.239248 10741 layer_factory.hpp:77] Creating layer inception_4b/relu_pool_proj
I0403 15:37:27.239266 10741 net.cpp:91] Creating Layer inception_4b/relu_pool_proj
I0403 15:37:27.239284 10741 net.cpp:425] inception_4b/relu_pool_proj <- inception_4b/pool_proj
I0403 15:37:27.239302 10741 net.cpp:386] inception_4b/relu_pool_proj -> inception_4b/pool_proj (in-place)
I0403 15:37:27.239481 10741 net.cpp:141] Setting up inception_4b/relu_pool_proj
I0403 15:37:27.239506 10741 net.cpp:148] Top shape: 24 64 14 14 (301056)
I0403 15:37:27.239521 10741 net.cpp:156] Memory required for data: 980223264
I0403 15:37:27.239536 10741 layer_factory.hpp:77] Creating layer inception_4b/output
I0403 15:37:27.239552 10741 net.cpp:91] Creating Layer inception_4b/output
I0403 15:37:27.239567 10741 net.cpp:425] inception_4b/output <- inception_4b/1x1
I0403 15:37:27.239583 10741 net.cpp:425] inception_4b/output <- inception_4b/3x3
I0403 15:37:27.239598 10741 net.cpp:425] inception_4b/output <- inception_4b/5x5
I0403 15:37:27.239614 10741 net.cpp:425] inception_4b/output <- inception_4b/pool_proj
I0403 15:37:27.239634 10741 net.cpp:399] inception_4b/output -> inception_4b/output
I0403 15:37:27.239680 10741 net.cpp:141] Setting up inception_4b/output
I0403 15:37:27.239704 10741 net.cpp:148] Top shape: 24 512 14 14 (2408448)
I0403 15:37:27.239719 10741 net.cpp:156] Memory required for data: 989857056
I0403 15:37:27.239748 10741 layer_factory.hpp:77] Creating layer inception_4b/output_inception_4b/output_0_split
I0403 15:37:27.239764 10741 net.cpp:91] Creating Layer inception_4b/output_inception_4b/output_0_split
I0403 15:37:27.239780 10741 net.cpp:425] inception_4b/output_inception_4b/output_0_split <- inception_4b/output
I0403 15:37:27.239797 10741 net.cpp:399] inception_4b/output_inception_4b/output_0_split -> inception_4b/output_inception_4b/output_0_split_0
I0403 15:37:27.239820 10741 net.cpp:399] inception_4b/output_inception_4b/output_0_split -> inception_4b/output_inception_4b/output_0_split_1
I0403 15:37:27.239841 10741 net.cpp:399] inception_4b/output_inception_4b/output_0_split -> inception_4b/output_inception_4b/output_0_split_2
I0403 15:37:27.239861 10741 net.cpp:399] inception_4b/output_inception_4b/output_0_split -> inception_4b/output_inception_4b/output_0_split_3
I0403 15:37:27.239948 10741 net.cpp:141] Setting up inception_4b/output_inception_4b/output_0_split
I0403 15:37:27.239970 10741 net.cpp:148] Top shape: 24 512 14 14 (2408448)
I0403 15:37:27.239990 10741 net.cpp:148] Top shape: 24 512 14 14 (2408448)
I0403 15:37:27.240006 10741 net.cpp:148] Top shape: 24 512 14 14 (2408448)
I0403 15:37:27.240021 10741 net.cpp:148] Top shape: 24 512 14 14 (2408448)
I0403 15:37:27.240034 10741 net.cpp:156] Memory required for data: 1028392224
I0403 15:37:27.240048 10741 layer_factory.hpp:77] Creating layer inception_4c/1x1
I0403 15:37:27.240073 10741 net.cpp:91] Creating Layer inception_4c/1x1
I0403 15:37:27.240090 10741 net.cpp:425] inception_4c/1x1 <- inception_4b/output_inception_4b/output_0_split_0
I0403 15:37:27.240109 10741 net.cpp:399] inception_4c/1x1 -> inception_4c/1x1
I0403 15:37:27.241549 10741 net.cpp:141] Setting up inception_4c/1x1
I0403 15:37:27.241576 10741 net.cpp:148] Top shape: 24 128 14 14 (602112)
I0403 15:37:27.241591 10741 net.cpp:156] Memory required for data: 1030800672
I0403 15:37:27.241610 10741 layer_factory.hpp:77] Creating layer inception_4c/relu_1x1
I0403 15:37:27.241629 10741 net.cpp:91] Creating Layer inception_4c/relu_1x1
I0403 15:37:27.241647 10741 net.cpp:425] inception_4c/relu_1x1 <- inception_4c/1x1
I0403 15:37:27.241664 10741 net.cpp:386] inception_4c/relu_1x1 -> inception_4c/1x1 (in-place)
I0403 15:37:27.241844 10741 net.cpp:141] Setting up inception_4c/relu_1x1
I0403 15:37:27.241868 10741 net.cpp:148] Top shape: 24 128 14 14 (602112)
I0403 15:37:27.241885 10741 net.cpp:156] Memory required for data: 1033209120
I0403 15:37:27.241900 10741 layer_factory.hpp:77] Creating layer inception_4c/3x3_reduce
I0403 15:37:27.241920 10741 net.cpp:91] Creating Layer inception_4c/3x3_reduce
I0403 15:37:27.241937 10741 net.cpp:425] inception_4c/3x3_reduce <- inception_4b/output_inception_4b/output_0_split_1
I0403 15:37:27.241957 10741 net.cpp:399] inception_4c/3x3_reduce -> inception_4c/3x3_reduce
I0403 15:37:27.243903 10741 net.cpp:141] Setting up inception_4c/3x3_reduce
I0403 15:37:27.243938 10741 net.cpp:148] Top shape: 24 128 14 14 (602112)
I0403 15:37:27.243955 10741 net.cpp:156] Memory required for data: 1035617568
I0403 15:37:27.243973 10741 layer_factory.hpp:77] Creating layer inception_4c/relu_3x3_reduce
I0403 15:37:27.243996 10741 net.cpp:91] Creating Layer inception_4c/relu_3x3_reduce
I0403 15:37:27.244014 10741 net.cpp:425] inception_4c/relu_3x3_reduce <- inception_4c/3x3_reduce
I0403 15:37:27.244030 10741 net.cpp:386] inception_4c/relu_3x3_reduce -> inception_4c/3x3_reduce (in-place)
I0403 15:37:27.244319 10741 net.cpp:141] Setting up inception_4c/relu_3x3_reduce
I0403 15:37:27.244348 10741 net.cpp:148] Top shape: 24 128 14 14 (602112)
I0403 15:37:27.244364 10741 net.cpp:156] Memory required for data: 1038026016
I0403 15:37:27.244379 10741 layer_factory.hpp:77] Creating layer inception_4c/3x3
I0403 15:37:27.244401 10741 net.cpp:91] Creating Layer inception_4c/3x3
I0403 15:37:27.244420 10741 net.cpp:425] inception_4c/3x3 <- inception_4c/3x3_reduce
I0403 15:37:27.244437 10741 net.cpp:399] inception_4c/3x3 -> inception_4c/3x3
I0403 15:37:27.248081 10741 net.cpp:141] Setting up inception_4c/3x3
I0403 15:37:27.248126 10741 net.cpp:148] Top shape: 24 256 14 14 (1204224)
I0403 15:37:27.248142 10741 net.cpp:156] Memory required for data: 1042842912
I0403 15:37:27.248173 10741 layer_factory.hpp:77] Creating layer inception_4c/relu_3x3
I0403 15:37:27.248193 10741 net.cpp:91] Creating Layer inception_4c/relu_3x3
I0403 15:37:27.248210 10741 net.cpp:425] inception_4c/relu_3x3 <- inception_4c/3x3
I0403 15:37:27.248229 10741 net.cpp:386] inception_4c/relu_3x3 -> inception_4c/3x3 (in-place)
I0403 15:37:27.248407 10741 net.cpp:141] Setting up inception_4c/relu_3x3
I0403 15:37:27.248438 10741 net.cpp:148] Top shape: 24 256 14 14 (1204224)
I0403 15:37:27.248452 10741 net.cpp:156] Memory required for data: 1047659808
I0403 15:37:27.248467 10741 layer_factory.hpp:77] Creating layer inception_4c/5x5_reduce
I0403 15:37:27.248492 10741 net.cpp:91] Creating Layer inception_4c/5x5_reduce
I0403 15:37:27.248509 10741 net.cpp:425] inception_4c/5x5_reduce <- inception_4b/output_inception_4b/output_0_split_2
I0403 15:37:27.248530 10741 net.cpp:399] inception_4c/5x5_reduce -> inception_4c/5x5_reduce
I0403 15:37:27.249621 10741 net.cpp:141] Setting up inception_4c/5x5_reduce
I0403 15:37:27.249652 10741 net.cpp:148] Top shape: 24 24 14 14 (112896)
I0403 15:37:27.249668 10741 net.cpp:156] Memory required for data: 1048111392
I0403 15:37:27.249687 10741 layer_factory.hpp:77] Creating layer inception_4c/relu_5x5_reduce
I0403 15:37:27.249706 10741 net.cpp:91] Creating Layer inception_4c/relu_5x5_reduce
I0403 15:37:27.249722 10741 net.cpp:425] inception_4c/relu_5x5_reduce <- inception_4c/5x5_reduce
I0403 15:37:27.249742 10741 net.cpp:386] inception_4c/relu_5x5_reduce -> inception_4c/5x5_reduce (in-place)
I0403 15:37:27.249928 10741 net.cpp:141] Setting up inception_4c/relu_5x5_reduce
I0403 15:37:27.249953 10741 net.cpp:148] Top shape: 24 24 14 14 (112896)
I0403 15:37:27.249968 10741 net.cpp:156] Memory required for data: 1048562976
I0403 15:37:27.249985 10741 layer_factory.hpp:77] Creating layer inception_4c/5x5
I0403 15:37:27.250010 10741 net.cpp:91] Creating Layer inception_4c/5x5
I0403 15:37:27.250027 10741 net.cpp:425] inception_4c/5x5 <- inception_4c/5x5_reduce
I0403 15:37:27.250048 10741 net.cpp:399] inception_4c/5x5 -> inception_4c/5x5
I0403 15:37:27.251325 10741 net.cpp:141] Setting up inception_4c/5x5
I0403 15:37:27.251353 10741 net.cpp:148] Top shape: 24 64 14 14 (301056)
I0403 15:37:27.251368 10741 net.cpp:156] Memory required for data: 1049767200
I0403 15:37:27.251385 10741 layer_factory.hpp:77] Creating layer inception_4c/relu_5x5
I0403 15:37:27.251404 10741 net.cpp:91] Creating Layer inception_4c/relu_5x5
I0403 15:37:27.251420 10741 net.cpp:425] inception_4c/relu_5x5 <- inception_4c/5x5
I0403 15:37:27.251440 10741 net.cpp:386] inception_4c/relu_5x5 -> inception_4c/5x5 (in-place)
I0403 15:37:27.251727 10741 net.cpp:141] Setting up inception_4c/relu_5x5
I0403 15:37:27.251754 10741 net.cpp:148] Top shape: 24 64 14 14 (301056)
I0403 15:37:27.251767 10741 net.cpp:156] Memory required for data: 1050971424
I0403 15:37:27.251782 10741 layer_factory.hpp:77] Creating layer inception_4c/pool
I0403 15:37:27.251801 10741 net.cpp:91] Creating Layer inception_4c/pool
I0403 15:37:27.251816 10741 net.cpp:425] inception_4c/pool <- inception_4b/output_inception_4b/output_0_split_3
I0403 15:37:27.251837 10741 net.cpp:399] inception_4c/pool -> inception_4c/pool
I0403 15:37:27.251904 10741 net.cpp:141] Setting up inception_4c/pool
I0403 15:37:27.251929 10741 net.cpp:148] Top shape: 24 512 14 14 (2408448)
I0403 15:37:27.251943 10741 net.cpp:156] Memory required for data: 1060605216
I0403 15:37:27.251958 10741 layer_factory.hpp:77] Creating layer inception_4c/pool_proj
I0403 15:37:27.251989 10741 net.cpp:91] Creating Layer inception_4c/pool_proj
I0403 15:37:27.252008 10741 net.cpp:425] inception_4c/pool_proj <- inception_4c/pool
I0403 15:37:27.252027 10741 net.cpp:399] inception_4c/pool_proj -> inception_4c/pool_proj
I0403 15:37:27.253257 10741 net.cpp:141] Setting up inception_4c/pool_proj
I0403 15:37:27.253288 10741 net.cpp:148] Top shape: 24 64 14 14 (301056)
I0403 15:37:27.253316 10741 net.cpp:156] Memory required for data: 1061809440
I0403 15:37:27.253335 10741 layer_factory.hpp:77] Creating layer inception_4c/relu_pool_proj
I0403 15:37:27.253353 10741 net.cpp:91] Creating Layer inception_4c/relu_pool_proj
I0403 15:37:27.253371 10741 net.cpp:425] inception_4c/relu_pool_proj <- inception_4c/pool_proj
I0403 15:37:27.253388 10741 net.cpp:386] inception_4c/relu_pool_proj -> inception_4c/pool_proj (in-place)
I0403 15:37:27.253572 10741 net.cpp:141] Setting up inception_4c/relu_pool_proj
I0403 15:37:27.253597 10741 net.cpp:148] Top shape: 24 64 14 14 (301056)
I0403 15:37:27.253612 10741 net.cpp:156] Memory required for data: 1063013664
I0403 15:37:27.253625 10741 layer_factory.hpp:77] Creating layer inception_4c/output
I0403 15:37:27.253643 10741 net.cpp:91] Creating Layer inception_4c/output
I0403 15:37:27.253659 10741 net.cpp:425] inception_4c/output <- inception_4c/1x1
I0403 15:37:27.253674 10741 net.cpp:425] inception_4c/output <- inception_4c/3x3
I0403 15:37:27.253690 10741 net.cpp:425] inception_4c/output <- inception_4c/5x5
I0403 15:37:27.253705 10741 net.cpp:425] inception_4c/output <- inception_4c/pool_proj
I0403 15:37:27.253723 10741 net.cpp:399] inception_4c/output -> inception_4c/output
I0403 15:37:27.253770 10741 net.cpp:141] Setting up inception_4c/output
I0403 15:37:27.253796 10741 net.cpp:148] Top shape: 24 512 14 14 (2408448)
I0403 15:37:27.253811 10741 net.cpp:156] Memory required for data: 1072647456
I0403 15:37:27.253826 10741 layer_factory.hpp:77] Creating layer inception_4c/output_inception_4c/output_0_split
I0403 15:37:27.253841 10741 net.cpp:91] Creating Layer inception_4c/output_inception_4c/output_0_split
I0403 15:37:27.253857 10741 net.cpp:425] inception_4c/output_inception_4c/output_0_split <- inception_4c/output
I0403 15:37:27.253875 10741 net.cpp:399] inception_4c/output_inception_4c/output_0_split -> inception_4c/output_inception_4c/output_0_split_0
I0403 15:37:27.253896 10741 net.cpp:399] inception_4c/output_inception_4c/output_0_split -> inception_4c/output_inception_4c/output_0_split_1
I0403 15:37:27.253917 10741 net.cpp:399] inception_4c/output_inception_4c/output_0_split -> inception_4c/output_inception_4c/output_0_split_2
I0403 15:37:27.253938 10741 net.cpp:399] inception_4c/output_inception_4c/output_0_split -> inception_4c/output_inception_4c/output_0_split_3
I0403 15:37:27.254042 10741 net.cpp:141] Setting up inception_4c/output_inception_4c/output_0_split
I0403 15:37:27.254067 10741 net.cpp:148] Top shape: 24 512 14 14 (2408448)
I0403 15:37:27.254084 10741 net.cpp:148] Top shape: 24 512 14 14 (2408448)
I0403 15:37:27.254101 10741 net.cpp:148] Top shape: 24 512 14 14 (2408448)
I0403 15:37:27.254115 10741 net.cpp:148] Top shape: 24 512 14 14 (2408448)
I0403 15:37:27.254129 10741 net.cpp:156] Memory required for data: 1111182624
I0403 15:37:27.254143 10741 layer_factory.hpp:77] Creating layer inception_4d/1x1
I0403 15:37:27.254168 10741 net.cpp:91] Creating Layer inception_4d/1x1
I0403 15:37:27.254186 10741 net.cpp:425] inception_4d/1x1 <- inception_4c/output_inception_4c/output_0_split_0
I0403 15:37:27.254206 10741 net.cpp:399] inception_4d/1x1 -> inception_4d/1x1
I0403 15:37:27.255601 10741 net.cpp:141] Setting up inception_4d/1x1
I0403 15:37:27.255630 10741 net.cpp:148] Top shape: 24 112 14 14 (526848)
I0403 15:37:27.255645 10741 net.cpp:156] Memory required for data: 1113290016
I0403 15:37:27.255662 10741 layer_factory.hpp:77] Creating layer inception_4d/relu_1x1
I0403 15:37:27.255682 10741 net.cpp:91] Creating Layer inception_4d/relu_1x1
I0403 15:37:27.255700 10741 net.cpp:425] inception_4d/relu_1x1 <- inception_4d/1x1
I0403 15:37:27.255717 10741 net.cpp:386] inception_4d/relu_1x1 -> inception_4d/1x1 (in-place)
I0403 15:37:27.255899 10741 net.cpp:141] Setting up inception_4d/relu_1x1
I0403 15:37:27.255928 10741 net.cpp:148] Top shape: 24 112 14 14 (526848)
I0403 15:37:27.255944 10741 net.cpp:156] Memory required for data: 1115397408
I0403 15:37:27.255959 10741 layer_factory.hpp:77] Creating layer inception_4d/3x3_reduce
I0403 15:37:27.256001 10741 net.cpp:91] Creating Layer inception_4d/3x3_reduce
I0403 15:37:27.256021 10741 net.cpp:425] inception_4d/3x3_reduce <- inception_4c/output_inception_4c/output_0_split_1
I0403 15:37:27.256041 10741 net.cpp:399] inception_4d/3x3_reduce -> inception_4d/3x3_reduce
I0403 15:37:27.257575 10741 net.cpp:141] Setting up inception_4d/3x3_reduce
I0403 15:37:27.257602 10741 net.cpp:148] Top shape: 24 144 14 14 (677376)
I0403 15:37:27.257617 10741 net.cpp:156] Memory required for data: 1118106912
I0403 15:37:27.257637 10741 layer_factory.hpp:77] Creating layer inception_4d/relu_3x3_reduce
I0403 15:37:27.257658 10741 net.cpp:91] Creating Layer inception_4d/relu_3x3_reduce
I0403 15:37:27.257675 10741 net.cpp:425] inception_4d/relu_3x3_reduce <- inception_4d/3x3_reduce
I0403 15:37:27.257693 10741 net.cpp:386] inception_4d/relu_3x3_reduce -> inception_4d/3x3_reduce (in-place)
I0403 15:37:27.258028 10741 net.cpp:141] Setting up inception_4d/relu_3x3_reduce
I0403 15:37:27.258055 10741 net.cpp:148] Top shape: 24 144 14 14 (677376)
I0403 15:37:27.258070 10741 net.cpp:156] Memory required for data: 1120816416
I0403 15:37:27.258086 10741 layer_factory.hpp:77] Creating layer inception_4d/3x3
I0403 15:37:27.258110 10741 net.cpp:91] Creating Layer inception_4d/3x3
I0403 15:37:27.258127 10741 net.cpp:425] inception_4d/3x3 <- inception_4d/3x3_reduce
I0403 15:37:27.258149 10741 net.cpp:399] inception_4d/3x3 -> inception_4d/3x3
I0403 15:37:27.262527 10741 net.cpp:141] Setting up inception_4d/3x3
I0403 15:37:27.262557 10741 net.cpp:148] Top shape: 24 288 14 14 (1354752)
I0403 15:37:27.262572 10741 net.cpp:156] Memory required for data: 1126235424
I0403 15:37:27.262588 10741 layer_factory.hpp:77] Creating layer inception_4d/relu_3x3
I0403 15:37:27.262609 10741 net.cpp:91] Creating Layer inception_4d/relu_3x3
I0403 15:37:27.262624 10741 net.cpp:425] inception_4d/relu_3x3 <- inception_4d/3x3
I0403 15:37:27.262641 10741 net.cpp:386] inception_4d/relu_3x3 -> inception_4d/3x3 (in-place)
I0403 15:37:27.262828 10741 net.cpp:141] Setting up inception_4d/relu_3x3
I0403 15:37:27.262855 10741 net.cpp:148] Top shape: 24 288 14 14 (1354752)
I0403 15:37:27.262869 10741 net.cpp:156] Memory required for data: 1131654432
I0403 15:37:27.262884 10741 layer_factory.hpp:77] Creating layer inception_4d/5x5_reduce
I0403 15:37:27.262905 10741 net.cpp:91] Creating Layer inception_4d/5x5_reduce
I0403 15:37:27.262925 10741 net.cpp:425] inception_4d/5x5_reduce <- inception_4c/output_inception_4c/output_0_split_2
I0403 15:37:27.262943 10741 net.cpp:399] inception_4d/5x5_reduce -> inception_4d/5x5_reduce
I0403 15:37:27.264103 10741 net.cpp:141] Setting up inception_4d/5x5_reduce
I0403 15:37:27.264132 10741 net.cpp:148] Top shape: 24 32 14 14 (150528)
I0403 15:37:27.264147 10741 net.cpp:156] Memory required for data: 1132256544
I0403 15:37:27.264164 10741 layer_factory.hpp:77] Creating layer inception_4d/relu_5x5_reduce
I0403 15:37:27.264184 10741 net.cpp:91] Creating Layer inception_4d/relu_5x5_reduce
I0403 15:37:27.264201 10741 net.cpp:425] inception_4d/relu_5x5_reduce <- inception_4d/5x5_reduce
I0403 15:37:27.264219 10741 net.cpp:386] inception_4d/relu_5x5_reduce -> inception_4d/5x5_reduce (in-place)
I0403 15:37:27.264408 10741 net.cpp:141] Setting up inception_4d/relu_5x5_reduce
I0403 15:37:27.264436 10741 net.cpp:148] Top shape: 24 32 14 14 (150528)
I0403 15:37:27.264451 10741 net.cpp:156] Memory required for data: 1132858656
I0403 15:37:27.264464 10741 layer_factory.hpp:77] Creating layer inception_4d/5x5
I0403 15:37:27.264487 10741 net.cpp:91] Creating Layer inception_4d/5x5
I0403 15:37:27.264503 10741 net.cpp:425] inception_4d/5x5 <- inception_4d/5x5_reduce
I0403 15:37:27.264524 10741 net.cpp:399] inception_4d/5x5 -> inception_4d/5x5
I0403 15:37:27.266043 10741 net.cpp:141] Setting up inception_4d/5x5
I0403 15:37:27.266070 10741 net.cpp:148] Top shape: 24 64 14 14 (301056)
I0403 15:37:27.266085 10741 net.cpp:156] Memory required for data: 1134062880
I0403 15:37:27.266103 10741 layer_factory.hpp:77] Creating layer inception_4d/relu_5x5
I0403 15:37:27.266135 10741 net.cpp:91] Creating Layer inception_4d/relu_5x5
I0403 15:37:27.266154 10741 net.cpp:425] inception_4d/relu_5x5 <- inception_4d/5x5
I0403 15:37:27.266173 10741 net.cpp:386] inception_4d/relu_5x5 -> inception_4d/5x5 (in-place)
I0403 15:37:27.266479 10741 net.cpp:141] Setting up inception_4d/relu_5x5
I0403 15:37:27.266505 10741 net.cpp:148] Top shape: 24 64 14 14 (301056)
I0403 15:37:27.266520 10741 net.cpp:156] Memory required for data: 1135267104
I0403 15:37:27.266535 10741 layer_factory.hpp:77] Creating layer inception_4d/pool
I0403 15:37:27.266552 10741 net.cpp:91] Creating Layer inception_4d/pool
I0403 15:37:27.266568 10741 net.cpp:425] inception_4d/pool <- inception_4c/output_inception_4c/output_0_split_3
I0403 15:37:27.266589 10741 net.cpp:399] inception_4d/pool -> inception_4d/pool
I0403 15:37:27.266656 10741 net.cpp:141] Setting up inception_4d/pool
I0403 15:37:27.266680 10741 net.cpp:148] Top shape: 24 512 14 14 (2408448)
I0403 15:37:27.266693 10741 net.cpp:156] Memory required for data: 1144900896
I0403 15:37:27.266708 10741 layer_factory.hpp:77] Creating layer inception_4d/pool_proj
I0403 15:37:27.266731 10741 net.cpp:91] Creating Layer inception_4d/pool_proj
I0403 15:37:27.266749 10741 net.cpp:425] inception_4d/pool_proj <- inception_4d/pool
I0403 15:37:27.266767 10741 net.cpp:399] inception_4d/pool_proj -> inception_4d/pool_proj
I0403 15:37:27.268568 10741 net.cpp:141] Setting up inception_4d/pool_proj
I0403 15:37:27.268596 10741 net.cpp:148] Top shape: 24 64 14 14 (301056)
I0403 15:37:27.268611 10741 net.cpp:156] Memory required for data: 1146105120
I0403 15:37:27.268630 10741 layer_factory.hpp:77] Creating layer inception_4d/relu_pool_proj
I0403 15:37:27.268651 10741 net.cpp:91] Creating Layer inception_4d/relu_pool_proj
I0403 15:37:27.268666 10741 net.cpp:425] inception_4d/relu_pool_proj <- inception_4d/pool_proj
I0403 15:37:27.268683 10741 net.cpp:386] inception_4d/relu_pool_proj -> inception_4d/pool_proj (in-place)
I0403 15:37:27.268869 10741 net.cpp:141] Setting up inception_4d/relu_pool_proj
I0403 15:37:27.268896 10741 net.cpp:148] Top shape: 24 64 14 14 (301056)
I0403 15:37:27.268911 10741 net.cpp:156] Memory required for data: 1147309344
I0403 15:37:27.268928 10741 layer_factory.hpp:77] Creating layer inception_4d/output
I0403 15:37:27.268944 10741 net.cpp:91] Creating Layer inception_4d/output
I0403 15:37:27.268959 10741 net.cpp:425] inception_4d/output <- inception_4d/1x1
I0403 15:37:27.268975 10741 net.cpp:425] inception_4d/output <- inception_4d/3x3
I0403 15:37:27.268996 10741 net.cpp:425] inception_4d/output <- inception_4d/5x5
I0403 15:37:27.269012 10741 net.cpp:425] inception_4d/output <- inception_4d/pool_proj
I0403 15:37:27.269032 10741 net.cpp:399] inception_4d/output -> inception_4d/output
I0403 15:37:27.269079 10741 net.cpp:141] Setting up inception_4d/output
I0403 15:37:27.269103 10741 net.cpp:148] Top shape: 24 528 14 14 (2483712)
I0403 15:37:27.269116 10741 net.cpp:156] Memory required for data: 1157244192
I0403 15:37:27.269130 10741 layer_factory.hpp:77] Creating layer inception_4d/output_inception_4d/output_0_split
I0403 15:37:27.269150 10741 net.cpp:91] Creating Layer inception_4d/output_inception_4d/output_0_split
I0403 15:37:27.269166 10741 net.cpp:425] inception_4d/output_inception_4d/output_0_split <- inception_4d/output
I0403 15:37:27.269184 10741 net.cpp:399] inception_4d/output_inception_4d/output_0_split -> inception_4d/output_inception_4d/output_0_split_0
I0403 15:37:27.269207 10741 net.cpp:399] inception_4d/output_inception_4d/output_0_split -> inception_4d/output_inception_4d/output_0_split_1
I0403 15:37:27.269229 10741 net.cpp:399] inception_4d/output_inception_4d/output_0_split -> inception_4d/output_inception_4d/output_0_split_2
I0403 15:37:27.269249 10741 net.cpp:399] inception_4d/output_inception_4d/output_0_split -> inception_4d/output_inception_4d/output_0_split_3
I0403 15:37:27.269268 10741 net.cpp:399] inception_4d/output_inception_4d/output_0_split -> inception_4d/output_inception_4d/output_0_split_4
I0403 15:37:27.269371 10741 net.cpp:141] Setting up inception_4d/output_inception_4d/output_0_split
I0403 15:37:27.269407 10741 net.cpp:148] Top shape: 24 528 14 14 (2483712)
I0403 15:37:27.269423 10741 net.cpp:148] Top shape: 24 528 14 14 (2483712)
I0403 15:37:27.269438 10741 net.cpp:148] Top shape: 24 528 14 14 (2483712)
I0403 15:37:27.269454 10741 net.cpp:148] Top shape: 24 528 14 14 (2483712)
I0403 15:37:27.269467 10741 net.cpp:148] Top shape: 24 528 14 14 (2483712)
I0403 15:37:27.269481 10741 net.cpp:156] Memory required for data: 1206918432
I0403 15:37:27.269495 10741 layer_factory.hpp:77] Creating layer loss2/ave_pool
I0403 15:37:27.269515 10741 net.cpp:91] Creating Layer loss2/ave_pool
I0403 15:37:27.269532 10741 net.cpp:425] loss2/ave_pool <- inception_4d/output_inception_4d/output_0_split_0
I0403 15:37:27.269551 10741 net.cpp:399] loss2/ave_pool -> loss2/ave_pool
I0403 15:37:27.269858 10741 net.cpp:141] Setting up loss2/ave_pool
I0403 15:37:27.269886 10741 net.cpp:148] Top shape: 24 528 4 4 (202752)
I0403 15:37:27.269901 10741 net.cpp:156] Memory required for data: 1207729440
I0403 15:37:27.269917 10741 layer_factory.hpp:77] Creating layer loss2/conv
I0403 15:37:27.269937 10741 net.cpp:91] Creating Layer loss2/conv
I0403 15:37:27.269953 10741 net.cpp:425] loss2/conv <- loss2/ave_pool
I0403 15:37:27.269973 10741 net.cpp:399] loss2/conv -> loss2/conv
I0403 15:37:27.271900 10741 net.cpp:141] Setting up loss2/conv
I0403 15:37:27.271931 10741 net.cpp:148] Top shape: 24 128 4 4 (49152)
I0403 15:37:27.271946 10741 net.cpp:156] Memory required for data: 1207926048
I0403 15:37:27.271965 10741 layer_factory.hpp:77] Creating layer loss2/relu_conv
I0403 15:37:27.271987 10741 net.cpp:91] Creating Layer loss2/relu_conv
I0403 15:37:27.272004 10741 net.cpp:425] loss2/relu_conv <- loss2/conv
I0403 15:37:27.272024 10741 net.cpp:386] loss2/relu_conv -> loss2/conv (in-place)
I0403 15:37:27.272310 10741 net.cpp:141] Setting up loss2/relu_conv
I0403 15:37:27.272337 10741 net.cpp:148] Top shape: 24 128 4 4 (49152)
I0403 15:37:27.272351 10741 net.cpp:156] Memory required for data: 1208122656
I0403 15:37:27.272367 10741 layer_factory.hpp:77] Creating layer loss2/fc
I0403 15:37:27.272385 10741 net.cpp:91] Creating Layer loss2/fc
I0403 15:37:27.272402 10741 net.cpp:425] loss2/fc <- loss2/conv
I0403 15:37:27.272423 10741 net.cpp:399] loss2/fc -> loss2/fc
I0403 15:37:27.290217 10741 net.cpp:141] Setting up loss2/fc
I0403 15:37:27.290251 10741 net.cpp:148] Top shape: 24 1024 (24576)
I0403 15:37:27.290268 10741 net.cpp:156] Memory required for data: 1208220960
I0403 15:37:27.290287 10741 layer_factory.hpp:77] Creating layer loss2/relu_fc
I0403 15:37:27.290307 10741 net.cpp:91] Creating Layer loss2/relu_fc
I0403 15:37:27.290326 10741 net.cpp:425] loss2/relu_fc <- loss2/fc
I0403 15:37:27.290343 10741 net.cpp:386] loss2/relu_fc -> loss2/fc (in-place)
I0403 15:37:27.290652 10741 net.cpp:141] Setting up loss2/relu_fc
I0403 15:37:27.290680 10741 net.cpp:148] Top shape: 24 1024 (24576)
I0403 15:37:27.290695 10741 net.cpp:156] Memory required for data: 1208319264
I0403 15:37:27.290710 10741 layer_factory.hpp:77] Creating layer loss2/drop_fc
I0403 15:37:27.290727 10741 net.cpp:91] Creating Layer loss2/drop_fc
I0403 15:37:27.290745 10741 net.cpp:425] loss2/drop_fc <- loss2/fc
I0403 15:37:27.290761 10741 net.cpp:386] loss2/drop_fc -> loss2/fc (in-place)
I0403 15:37:27.290812 10741 net.cpp:141] Setting up loss2/drop_fc
I0403 15:37:27.290835 10741 net.cpp:148] Top shape: 24 1024 (24576)
I0403 15:37:27.290849 10741 net.cpp:156] Memory required for data: 1208417568
I0403 15:37:27.290864 10741 layer_factory.hpp:77] Creating layer loss2/classifier_plantvillage
I0403 15:37:27.290885 10741 net.cpp:91] Creating Layer loss2/classifier_plantvillage
I0403 15:37:27.290904 10741 net.cpp:425] loss2/classifier_plantvillage <- loss2/fc
I0403 15:37:27.290921 10741 net.cpp:399] loss2/classifier_plantvillage -> loss2/classifier_plantvillage
I0403 15:37:27.291328 10741 net.cpp:141] Setting up loss2/classifier_plantvillage
I0403 15:37:27.291352 10741 net.cpp:148] Top shape: 24 38 (912)
I0403 15:37:27.291383 10741 net.cpp:156] Memory required for data: 1208421216
I0403 15:37:27.291401 10741 layer_factory.hpp:77] Creating layer loss2/classifier_plantvillage_loss2/classifier_plantvillage_0_split
I0403 15:37:27.291419 10741 net.cpp:91] Creating Layer loss2/classifier_plantvillage_loss2/classifier_plantvillage_0_split
I0403 15:37:27.291435 10741 net.cpp:425] loss2/classifier_plantvillage_loss2/classifier_plantvillage_0_split <- loss2/classifier_plantvillage
I0403 15:37:27.291455 10741 net.cpp:399] loss2/classifier_plantvillage_loss2/classifier_plantvillage_0_split -> loss2/classifier_plantvillage_loss2/classifier_plantvillage_0_split_0
I0403 15:37:27.291476 10741 net.cpp:399] loss2/classifier_plantvillage_loss2/classifier_plantvillage_0_split -> loss2/classifier_plantvillage_loss2/classifier_plantvillage_0_split_1
I0403 15:37:27.291496 10741 net.cpp:399] loss2/classifier_plantvillage_loss2/classifier_plantvillage_0_split -> loss2/classifier_plantvillage_loss2/classifier_plantvillage_0_split_2
I0403 15:37:27.291573 10741 net.cpp:141] Setting up loss2/classifier_plantvillage_loss2/classifier_plantvillage_0_split
I0403 15:37:27.291597 10741 net.cpp:148] Top shape: 24 38 (912)
I0403 15:37:27.291615 10741 net.cpp:148] Top shape: 24 38 (912)
I0403 15:37:27.291630 10741 net.cpp:148] Top shape: 24 38 (912)
I0403 15:37:27.291642 10741 net.cpp:156] Memory required for data: 1208432160
I0403 15:37:27.291656 10741 layer_factory.hpp:77] Creating layer inception_4e/1x1
I0403 15:37:27.291676 10741 net.cpp:91] Creating Layer inception_4e/1x1
I0403 15:37:27.291692 10741 net.cpp:425] inception_4e/1x1 <- inception_4d/output_inception_4d/output_0_split_1
I0403 15:37:27.291712 10741 net.cpp:399] inception_4e/1x1 -> inception_4e/1x1
I0403 15:37:27.293542 10741 net.cpp:141] Setting up inception_4e/1x1
I0403 15:37:27.293570 10741 net.cpp:148] Top shape: 24 256 14 14 (1204224)
I0403 15:37:27.293584 10741 net.cpp:156] Memory required for data: 1213249056
I0403 15:37:27.293602 10741 layer_factory.hpp:77] Creating layer inception_4e/relu_1x1
I0403 15:37:27.293620 10741 net.cpp:91] Creating Layer inception_4e/relu_1x1
I0403 15:37:27.293637 10741 net.cpp:425] inception_4e/relu_1x1 <- inception_4e/1x1
I0403 15:37:27.293656 10741 net.cpp:386] inception_4e/relu_1x1 -> inception_4e/1x1 (in-place)
I0403 15:37:27.293956 10741 net.cpp:141] Setting up inception_4e/relu_1x1
I0403 15:37:27.293985 10741 net.cpp:148] Top shape: 24 256 14 14 (1204224)
I0403 15:37:27.294001 10741 net.cpp:156] Memory required for data: 1218065952
I0403 15:37:27.294016 10741 layer_factory.hpp:77] Creating layer inception_4e/3x3_reduce
I0403 15:37:27.294039 10741 net.cpp:91] Creating Layer inception_4e/3x3_reduce
I0403 15:37:27.294057 10741 net.cpp:425] inception_4e/3x3_reduce <- inception_4d/output_inception_4d/output_0_split_2
I0403 15:37:27.294078 10741 net.cpp:399] inception_4e/3x3_reduce -> inception_4e/3x3_reduce
I0403 15:37:27.296264 10741 net.cpp:141] Setting up inception_4e/3x3_reduce
I0403 15:37:27.296295 10741 net.cpp:148] Top shape: 24 160 14 14 (752640)
I0403 15:37:27.296311 10741 net.cpp:156] Memory required for data: 1221076512
I0403 15:37:27.296329 10741 layer_factory.hpp:77] Creating layer inception_4e/relu_3x3_reduce
I0403 15:37:27.296347 10741 net.cpp:91] Creating Layer inception_4e/relu_3x3_reduce
I0403 15:37:27.296365 10741 net.cpp:425] inception_4e/relu_3x3_reduce <- inception_4e/3x3_reduce
I0403 15:37:27.296383 10741 net.cpp:386] inception_4e/relu_3x3_reduce -> inception_4e/3x3_reduce (in-place)
I0403 15:37:27.296571 10741 net.cpp:141] Setting up inception_4e/relu_3x3_reduce
I0403 15:37:27.296597 10741 net.cpp:148] Top shape: 24 160 14 14 (752640)
I0403 15:37:27.296612 10741 net.cpp:156] Memory required for data: 1224087072
I0403 15:37:27.296625 10741 layer_factory.hpp:77] Creating layer inception_4e/3x3
I0403 15:37:27.296648 10741 net.cpp:91] Creating Layer inception_4e/3x3
I0403 15:37:27.296664 10741 net.cpp:425] inception_4e/3x3 <- inception_4e/3x3_reduce
I0403 15:37:27.296686 10741 net.cpp:399] inception_4e/3x3 -> inception_4e/3x3
I0403 15:37:27.301794 10741 net.cpp:141] Setting up inception_4e/3x3
I0403 15:37:27.301836 10741 net.cpp:148] Top shape: 24 320 14 14 (1505280)
I0403 15:37:27.301851 10741 net.cpp:156] Memory required for data: 1230108192
I0403 15:37:27.301870 10741 layer_factory.hpp:77] Creating layer inception_4e/relu_3x3
I0403 15:37:27.301890 10741 net.cpp:91] Creating Layer inception_4e/relu_3x3
I0403 15:37:27.301906 10741 net.cpp:425] inception_4e/relu_3x3 <- inception_4e/3x3
I0403 15:37:27.301926 10741 net.cpp:386] inception_4e/relu_3x3 -> inception_4e/3x3 (in-place)
I0403 15:37:27.302230 10741 net.cpp:141] Setting up inception_4e/relu_3x3
I0403 15:37:27.302258 10741 net.cpp:148] Top shape: 24 320 14 14 (1505280)
I0403 15:37:27.302273 10741 net.cpp:156] Memory required for data: 1236129312
I0403 15:37:27.302287 10741 layer_factory.hpp:77] Creating layer inception_4e/5x5_reduce
I0403 15:37:27.302309 10741 net.cpp:91] Creating Layer inception_4e/5x5_reduce
I0403 15:37:27.302330 10741 net.cpp:425] inception_4e/5x5_reduce <- inception_4d/output_inception_4d/output_0_split_3
I0403 15:37:27.302350 10741 net.cpp:399] inception_4e/5x5_reduce -> inception_4e/5x5_reduce
I0403 15:37:27.303434 10741 net.cpp:141] Setting up inception_4e/5x5_reduce
I0403 15:37:27.303462 10741 net.cpp:148] Top shape: 24 32 14 14 (150528)
I0403 15:37:27.303478 10741 net.cpp:156] Memory required for data: 1236731424
I0403 15:37:27.303494 10741 layer_factory.hpp:77] Creating layer inception_4e/relu_5x5_reduce
I0403 15:37:27.303514 10741 net.cpp:91] Creating Layer inception_4e/relu_5x5_reduce
I0403 15:37:27.303529 10741 net.cpp:425] inception_4e/relu_5x5_reduce <- inception_4e/5x5_reduce
I0403 15:37:27.303550 10741 net.cpp:386] inception_4e/relu_5x5_reduce -> inception_4e/5x5_reduce (in-place)
I0403 15:37:27.303848 10741 net.cpp:141] Setting up inception_4e/relu_5x5_reduce
I0403 15:37:27.303874 10741 net.cpp:148] Top shape: 24 32 14 14 (150528)
I0403 15:37:27.303889 10741 net.cpp:156] Memory required for data: 1237333536
I0403 15:37:27.303902 10741 layer_factory.hpp:77] Creating layer inception_4e/5x5
I0403 15:37:27.303943 10741 net.cpp:91] Creating Layer inception_4e/5x5
I0403 15:37:27.303963 10741 net.cpp:425] inception_4e/5x5 <- inception_4e/5x5_reduce
I0403 15:37:27.303987 10741 net.cpp:399] inception_4e/5x5 -> inception_4e/5x5
I0403 15:37:27.305858 10741 net.cpp:141] Setting up inception_4e/5x5
I0403 15:37:27.305887 10741 net.cpp:148] Top shape: 24 128 14 14 (602112)
I0403 15:37:27.305904 10741 net.cpp:156] Memory required for data: 1239741984
I0403 15:37:27.305924 10741 layer_factory.hpp:77] Creating layer inception_4e/relu_5x5
I0403 15:37:27.305943 10741 net.cpp:91] Creating Layer inception_4e/relu_5x5
I0403 15:37:27.305959 10741 net.cpp:425] inception_4e/relu_5x5 <- inception_4e/5x5
I0403 15:37:27.305976 10741 net.cpp:386] inception_4e/relu_5x5 -> inception_4e/5x5 (in-place)
I0403 15:37:27.306183 10741 net.cpp:141] Setting up inception_4e/relu_5x5
I0403 15:37:27.306207 10741 net.cpp:148] Top shape: 24 128 14 14 (602112)
I0403 15:37:27.306222 10741 net.cpp:156] Memory required for data: 1242150432
I0403 15:37:27.306236 10741 layer_factory.hpp:77] Creating layer inception_4e/pool
I0403 15:37:27.306254 10741 net.cpp:91] Creating Layer inception_4e/pool
I0403 15:37:27.306270 10741 net.cpp:425] inception_4e/pool <- inception_4d/output_inception_4d/output_0_split_4
I0403 15:37:27.306290 10741 net.cpp:399] inception_4e/pool -> inception_4e/pool
I0403 15:37:27.306361 10741 net.cpp:141] Setting up inception_4e/pool
I0403 15:37:27.306386 10741 net.cpp:148] Top shape: 24 528 14 14 (2483712)
I0403 15:37:27.306402 10741 net.cpp:156] Memory required for data: 1252085280
I0403 15:37:27.306416 10741 layer_factory.hpp:77] Creating layer inception_4e/pool_proj
I0403 15:37:27.306438 10741 net.cpp:91] Creating Layer inception_4e/pool_proj
I0403 15:37:27.306457 10741 net.cpp:425] inception_4e/pool_proj <- inception_4e/pool
I0403 15:37:27.306475 10741 net.cpp:399] inception_4e/pool_proj -> inception_4e/pool_proj
I0403 15:37:27.308007 10741 net.cpp:141] Setting up inception_4e/pool_proj
I0403 15:37:27.308049 10741 net.cpp:148] Top shape: 24 128 14 14 (602112)
I0403 15:37:27.308066 10741 net.cpp:156] Memory required for data: 1254493728
I0403 15:37:27.308084 10741 layer_factory.hpp:77] Creating layer inception_4e/relu_pool_proj
I0403 15:37:27.308102 10741 net.cpp:91] Creating Layer inception_4e/relu_pool_proj
I0403 15:37:27.308120 10741 net.cpp:425] inception_4e/relu_pool_proj <- inception_4e/pool_proj
I0403 15:37:27.308136 10741 net.cpp:386] inception_4e/relu_pool_proj -> inception_4e/pool_proj (in-place)
I0403 15:37:27.308434 10741 net.cpp:141] Setting up inception_4e/relu_pool_proj
I0403 15:37:27.308461 10741 net.cpp:148] Top shape: 24 128 14 14 (602112)
I0403 15:37:27.308477 10741 net.cpp:156] Memory required for data: 1256902176
I0403 15:37:27.308492 10741 layer_factory.hpp:77] Creating layer inception_4e/output
I0403 15:37:27.308509 10741 net.cpp:91] Creating Layer inception_4e/output
I0403 15:37:27.308524 10741 net.cpp:425] inception_4e/output <- inception_4e/1x1
I0403 15:37:27.308542 10741 net.cpp:425] inception_4e/output <- inception_4e/3x3
I0403 15:37:27.308557 10741 net.cpp:425] inception_4e/output <- inception_4e/5x5
I0403 15:37:27.308573 10741 net.cpp:425] inception_4e/output <- inception_4e/pool_proj
I0403 15:37:27.308589 10741 net.cpp:399] inception_4e/output -> inception_4e/output
I0403 15:37:27.308643 10741 net.cpp:141] Setting up inception_4e/output
I0403 15:37:27.308666 10741 net.cpp:148] Top shape: 24 832 14 14 (3913728)
I0403 15:37:27.308681 10741 net.cpp:156] Memory required for data: 1272557088
I0403 15:37:27.308696 10741 layer_factory.hpp:77] Creating layer pool4/3x3_s2
I0403 15:37:27.308715 10741 net.cpp:91] Creating Layer pool4/3x3_s2
I0403 15:37:27.308732 10741 net.cpp:425] pool4/3x3_s2 <- inception_4e/output
I0403 15:37:27.308750 10741 net.cpp:399] pool4/3x3_s2 -> pool4/3x3_s2
I0403 15:37:27.308820 10741 net.cpp:141] Setting up pool4/3x3_s2
I0403 15:37:27.308842 10741 net.cpp:148] Top shape: 24 832 7 7 (978432)
I0403 15:37:27.308857 10741 net.cpp:156] Memory required for data: 1276470816
I0403 15:37:27.308871 10741 layer_factory.hpp:77] Creating layer pool4/3x3_s2_pool4/3x3_s2_0_split
I0403 15:37:27.308888 10741 net.cpp:91] Creating Layer pool4/3x3_s2_pool4/3x3_s2_0_split
I0403 15:37:27.308904 10741 net.cpp:425] pool4/3x3_s2_pool4/3x3_s2_0_split <- pool4/3x3_s2
I0403 15:37:27.308926 10741 net.cpp:399] pool4/3x3_s2_pool4/3x3_s2_0_split -> pool4/3x3_s2_pool4/3x3_s2_0_split_0
I0403 15:37:27.308946 10741 net.cpp:399] pool4/3x3_s2_pool4/3x3_s2_0_split -> pool4/3x3_s2_pool4/3x3_s2_0_split_1
I0403 15:37:27.308967 10741 net.cpp:399] pool4/3x3_s2_pool4/3x3_s2_0_split -> pool4/3x3_s2_pool4/3x3_s2_0_split_2
I0403 15:37:27.308992 10741 net.cpp:399] pool4/3x3_s2_pool4/3x3_s2_0_split -> pool4/3x3_s2_pool4/3x3_s2_0_split_3
I0403 15:37:27.309085 10741 net.cpp:141] Setting up pool4/3x3_s2_pool4/3x3_s2_0_split
I0403 15:37:27.309108 10741 net.cpp:148] Top shape: 24 832 7 7 (978432)
I0403 15:37:27.309124 10741 net.cpp:148] Top shape: 24 832 7 7 (978432)
I0403 15:37:27.309139 10741 net.cpp:148] Top shape: 24 832 7 7 (978432)
I0403 15:37:27.309154 10741 net.cpp:148] Top shape: 24 832 7 7 (978432)
I0403 15:37:27.309167 10741 net.cpp:156] Memory required for data: 1292125728
I0403 15:37:27.309182 10741 layer_factory.hpp:77] Creating layer inception_5a/1x1
I0403 15:37:27.309206 10741 net.cpp:91] Creating Layer inception_5a/1x1
I0403 15:37:27.309223 10741 net.cpp:425] inception_5a/1x1 <- pool4/3x3_s2_pool4/3x3_s2_0_split_0
I0403 15:37:27.309242 10741 net.cpp:399] inception_5a/1x1 -> inception_5a/1x1
I0403 15:37:27.312129 10741 net.cpp:141] Setting up inception_5a/1x1
I0403 15:37:27.312160 10741 net.cpp:148] Top shape: 24 256 7 7 (301056)
I0403 15:37:27.312175 10741 net.cpp:156] Memory required for data: 1293329952
I0403 15:37:27.312194 10741 layer_factory.hpp:77] Creating layer inception_5a/relu_1x1
I0403 15:37:27.312213 10741 net.cpp:91] Creating Layer inception_5a/relu_1x1
I0403 15:37:27.312243 10741 net.cpp:425] inception_5a/relu_1x1 <- inception_5a/1x1
I0403 15:37:27.312263 10741 net.cpp:386] inception_5a/relu_1x1 -> inception_5a/1x1 (in-place)
I0403 15:37:27.312584 10741 net.cpp:141] Setting up inception_5a/relu_1x1
I0403 15:37:27.312613 10741 net.cpp:148] Top shape: 24 256 7 7 (301056)
I0403 15:37:27.312628 10741 net.cpp:156] Memory required for data: 1294534176
I0403 15:37:27.312644 10741 layer_factory.hpp:77] Creating layer inception_5a/3x3_reduce
I0403 15:37:27.312667 10741 net.cpp:91] Creating Layer inception_5a/3x3_reduce
I0403 15:37:27.312685 10741 net.cpp:425] inception_5a/3x3_reduce <- pool4/3x3_s2_pool4/3x3_s2_0_split_1
I0403 15:37:27.312705 10741 net.cpp:399] inception_5a/3x3_reduce -> inception_5a/3x3_reduce
I0403 15:37:27.315232 10741 net.cpp:141] Setting up inception_5a/3x3_reduce
I0403 15:37:27.315261 10741 net.cpp:148] Top shape: 24 160 7 7 (188160)
I0403 15:37:27.315279 10741 net.cpp:156] Memory required for data: 1295286816
I0403 15:37:27.315296 10741 layer_factory.hpp:77] Creating layer inception_5a/relu_3x3_reduce
I0403 15:37:27.315316 10741 net.cpp:91] Creating Layer inception_5a/relu_3x3_reduce
I0403 15:37:27.315335 10741 net.cpp:425] inception_5a/relu_3x3_reduce <- inception_5a/3x3_reduce
I0403 15:37:27.315352 10741 net.cpp:386] inception_5a/relu_3x3_reduce -> inception_5a/3x3_reduce (in-place)
I0403 15:37:27.315557 10741 net.cpp:141] Setting up inception_5a/relu_3x3_reduce
I0403 15:37:27.315584 10741 net.cpp:148] Top shape: 24 160 7 7 (188160)
I0403 15:37:27.315599 10741 net.cpp:156] Memory required for data: 1296039456
I0403 15:37:27.315614 10741 layer_factory.hpp:77] Creating layer inception_5a/3x3
I0403 15:37:27.315637 10741 net.cpp:91] Creating Layer inception_5a/3x3
I0403 15:37:27.315654 10741 net.cpp:425] inception_5a/3x3 <- inception_5a/3x3_reduce
I0403 15:37:27.315673 10741 net.cpp:399] inception_5a/3x3 -> inception_5a/3x3
I0403 15:37:27.320799 10741 net.cpp:141] Setting up inception_5a/3x3
I0403 15:37:27.320832 10741 net.cpp:148] Top shape: 24 320 7 7 (376320)
I0403 15:37:27.320847 10741 net.cpp:156] Memory required for data: 1297544736
I0403 15:37:27.320865 10741 layer_factory.hpp:77] Creating layer inception_5a/relu_3x3
I0403 15:37:27.320883 10741 net.cpp:91] Creating Layer inception_5a/relu_3x3
I0403 15:37:27.320899 10741 net.cpp:425] inception_5a/relu_3x3 <- inception_5a/3x3
I0403 15:37:27.320916 10741 net.cpp:386] inception_5a/relu_3x3 -> inception_5a/3x3 (in-place)
I0403 15:37:27.321223 10741 net.cpp:141] Setting up inception_5a/relu_3x3
I0403 15:37:27.321250 10741 net.cpp:148] Top shape: 24 320 7 7 (376320)
I0403 15:37:27.321265 10741 net.cpp:156] Memory required for data: 1299050016
I0403 15:37:27.321281 10741 layer_factory.hpp:77] Creating layer inception_5a/5x5_reduce
I0403 15:37:27.321303 10741 net.cpp:91] Creating Layer inception_5a/5x5_reduce
I0403 15:37:27.321321 10741 net.cpp:425] inception_5a/5x5_reduce <- pool4/3x3_s2_pool4/3x3_s2_0_split_2
I0403 15:37:27.321341 10741 net.cpp:399] inception_5a/5x5_reduce -> inception_5a/5x5_reduce
I0403 15:37:27.322533 10741 net.cpp:141] Setting up inception_5a/5x5_reduce
I0403 15:37:27.322563 10741 net.cpp:148] Top shape: 24 32 7 7 (37632)
I0403 15:37:27.322581 10741 net.cpp:156] Memory required for data: 1299200544
I0403 15:37:27.322598 10741 layer_factory.hpp:77] Creating layer inception_5a/relu_5x5_reduce
I0403 15:37:27.322616 10741 net.cpp:91] Creating Layer inception_5a/relu_5x5_reduce
I0403 15:37:27.322633 10741 net.cpp:425] inception_5a/relu_5x5_reduce <- inception_5a/5x5_reduce
I0403 15:37:27.322652 10741 net.cpp:386] inception_5a/relu_5x5_reduce -> inception_5a/5x5_reduce (in-place)
I0403 15:37:27.322962 10741 net.cpp:141] Setting up inception_5a/relu_5x5_reduce
I0403 15:37:27.322993 10741 net.cpp:148] Top shape: 24 32 7 7 (37632)
I0403 15:37:27.323009 10741 net.cpp:156] Memory required for data: 1299351072
I0403 15:37:27.323024 10741 layer_factory.hpp:77] Creating layer inception_5a/5x5
I0403 15:37:27.323045 10741 net.cpp:91] Creating Layer inception_5a/5x5
I0403 15:37:27.323063 10741 net.cpp:425] inception_5a/5x5 <- inception_5a/5x5_reduce
I0403 15:37:27.323084 10741 net.cpp:399] inception_5a/5x5 -> inception_5a/5x5
I0403 15:37:27.324829 10741 net.cpp:141] Setting up inception_5a/5x5
I0403 15:37:27.324869 10741 net.cpp:148] Top shape: 24 128 7 7 (150528)
I0403 15:37:27.324887 10741 net.cpp:156] Memory required for data: 1299953184
I0403 15:37:27.324904 10741 layer_factory.hpp:77] Creating layer inception_5a/relu_5x5
I0403 15:37:27.324924 10741 net.cpp:91] Creating Layer inception_5a/relu_5x5
I0403 15:37:27.324940 10741 net.cpp:425] inception_5a/relu_5x5 <- inception_5a/5x5
I0403 15:37:27.324957 10741 net.cpp:386] inception_5a/relu_5x5 -> inception_5a/5x5 (in-place)
I0403 15:37:27.325157 10741 net.cpp:141] Setting up inception_5a/relu_5x5
I0403 15:37:27.325182 10741 net.cpp:148] Top shape: 24 128 7 7 (150528)
I0403 15:37:27.325197 10741 net.cpp:156] Memory required for data: 1300555296
I0403 15:37:27.325212 10741 layer_factory.hpp:77] Creating layer inception_5a/pool
I0403 15:37:27.325229 10741 net.cpp:91] Creating Layer inception_5a/pool
I0403 15:37:27.325245 10741 net.cpp:425] inception_5a/pool <- pool4/3x3_s2_pool4/3x3_s2_0_split_3
I0403 15:37:27.325266 10741 net.cpp:399] inception_5a/pool -> inception_5a/pool
I0403 15:37:27.325337 10741 net.cpp:141] Setting up inception_5a/pool
I0403 15:37:27.325363 10741 net.cpp:148] Top shape: 24 832 7 7 (978432)
I0403 15:37:27.325378 10741 net.cpp:156] Memory required for data: 1304469024
I0403 15:37:27.325392 10741 layer_factory.hpp:77] Creating layer inception_5a/pool_proj
I0403 15:37:27.325414 10741 net.cpp:91] Creating Layer inception_5a/pool_proj
I0403 15:37:27.325431 10741 net.cpp:425] inception_5a/pool_proj <- inception_5a/pool
I0403 15:37:27.325449 10741 net.cpp:399] inception_5a/pool_proj -> inception_5a/pool_proj
I0403 15:37:27.327767 10741 net.cpp:141] Setting up inception_5a/pool_proj
I0403 15:37:27.327796 10741 net.cpp:148] Top shape: 24 128 7 7 (150528)
I0403 15:37:27.327812 10741 net.cpp:156] Memory required for data: 1305071136
I0403 15:37:27.327831 10741 layer_factory.hpp:77] Creating layer inception_5a/relu_pool_proj
I0403 15:37:27.327850 10741 net.cpp:91] Creating Layer inception_5a/relu_pool_proj
I0403 15:37:27.327867 10741 net.cpp:425] inception_5a/relu_pool_proj <- inception_5a/pool_proj
I0403 15:37:27.327885 10741 net.cpp:386] inception_5a/relu_pool_proj -> inception_5a/pool_proj (in-place)
I0403 15:37:27.328192 10741 net.cpp:141] Setting up inception_5a/relu_pool_proj
I0403 15:37:27.328219 10741 net.cpp:148] Top shape: 24 128 7 7 (150528)
I0403 15:37:27.328233 10741 net.cpp:156] Memory required for data: 1305673248
I0403 15:37:27.328248 10741 layer_factory.hpp:77] Creating layer inception_5a/output
I0403 15:37:27.328268 10741 net.cpp:91] Creating Layer inception_5a/output
I0403 15:37:27.328284 10741 net.cpp:425] inception_5a/output <- inception_5a/1x1
I0403 15:37:27.328301 10741 net.cpp:425] inception_5a/output <- inception_5a/3x3
I0403 15:37:27.328317 10741 net.cpp:425] inception_5a/output <- inception_5a/5x5
I0403 15:37:27.328333 10741 net.cpp:425] inception_5a/output <- inception_5a/pool_proj
I0403 15:37:27.328349 10741 net.cpp:399] inception_5a/output -> inception_5a/output
I0403 15:37:27.328400 10741 net.cpp:141] Setting up inception_5a/output
I0403 15:37:27.328423 10741 net.cpp:148] Top shape: 24 832 7 7 (978432)
I0403 15:37:27.328438 10741 net.cpp:156] Memory required for data: 1309586976
I0403 15:37:27.328452 10741 layer_factory.hpp:77] Creating layer inception_5a/output_inception_5a/output_0_split
I0403 15:37:27.328469 10741 net.cpp:91] Creating Layer inception_5a/output_inception_5a/output_0_split
I0403 15:37:27.328496 10741 net.cpp:425] inception_5a/output_inception_5a/output_0_split <- inception_5a/output
I0403 15:37:27.328516 10741 net.cpp:399] inception_5a/output_inception_5a/output_0_split -> inception_5a/output_inception_5a/output_0_split_0
I0403 15:37:27.328538 10741 net.cpp:399] inception_5a/output_inception_5a/output_0_split -> inception_5a/output_inception_5a/output_0_split_1
I0403 15:37:27.328559 10741 net.cpp:399] inception_5a/output_inception_5a/output_0_split -> inception_5a/output_inception_5a/output_0_split_2
I0403 15:37:27.328579 10741 net.cpp:399] inception_5a/output_inception_5a/output_0_split -> inception_5a/output_inception_5a/output_0_split_3
I0403 15:37:27.328698 10741 net.cpp:141] Setting up inception_5a/output_inception_5a/output_0_split
I0403 15:37:27.328725 10741 net.cpp:148] Top shape: 24 832 7 7 (978432)
I0403 15:37:27.328742 10741 net.cpp:148] Top shape: 24 832 7 7 (978432)
I0403 15:37:27.328758 10741 net.cpp:148] Top shape: 24 832 7 7 (978432)
I0403 15:37:27.328785 10741 net.cpp:148] Top shape: 24 832 7 7 (978432)
I0403 15:37:27.328799 10741 net.cpp:156] Memory required for data: 1325241888
I0403 15:37:27.328814 10741 layer_factory.hpp:77] Creating layer inception_5b/1x1
I0403 15:37:27.328835 10741 net.cpp:91] Creating Layer inception_5b/1x1
I0403 15:37:27.328853 10741 net.cpp:425] inception_5b/1x1 <- inception_5a/output_inception_5a/output_0_split_0
I0403 15:37:27.328874 10741 net.cpp:399] inception_5b/1x1 -> inception_5b/1x1
I0403 15:37:27.332747 10741 net.cpp:141] Setting up inception_5b/1x1
I0403 15:37:27.332777 10741 net.cpp:148] Top shape: 24 384 7 7 (451584)
I0403 15:37:27.332793 10741 net.cpp:156] Memory required for data: 1327048224
I0403 15:37:27.332811 10741 layer_factory.hpp:77] Creating layer inception_5b/relu_1x1
I0403 15:37:27.332831 10741 net.cpp:91] Creating Layer inception_5b/relu_1x1
I0403 15:37:27.332849 10741 net.cpp:425] inception_5b/relu_1x1 <- inception_5b/1x1
I0403 15:37:27.332865 10741 net.cpp:386] inception_5b/relu_1x1 -> inception_5b/1x1 (in-place)
I0403 15:37:27.333178 10741 net.cpp:141] Setting up inception_5b/relu_1x1
I0403 15:37:27.333204 10741 net.cpp:148] Top shape: 24 384 7 7 (451584)
I0403 15:37:27.333219 10741 net.cpp:156] Memory required for data: 1328854560
I0403 15:37:27.333232 10741 layer_factory.hpp:77] Creating layer inception_5b/3x3_reduce
I0403 15:37:27.333257 10741 net.cpp:91] Creating Layer inception_5b/3x3_reduce
I0403 15:37:27.333276 10741 net.cpp:425] inception_5b/3x3_reduce <- inception_5a/output_inception_5a/output_0_split_1
I0403 15:37:27.333297 10741 net.cpp:399] inception_5b/3x3_reduce -> inception_5b/3x3_reduce
I0403 15:37:27.336006 10741 net.cpp:141] Setting up inception_5b/3x3_reduce
I0403 15:37:27.336035 10741 net.cpp:148] Top shape: 24 192 7 7 (225792)
I0403 15:37:27.336051 10741 net.cpp:156] Memory required for data: 1329757728
I0403 15:37:27.336069 10741 layer_factory.hpp:77] Creating layer inception_5b/relu_3x3_reduce
I0403 15:37:27.336089 10741 net.cpp:91] Creating Layer inception_5b/relu_3x3_reduce
I0403 15:37:27.336107 10741 net.cpp:425] inception_5b/relu_3x3_reduce <- inception_5b/3x3_reduce
I0403 15:37:27.336123 10741 net.cpp:386] inception_5b/relu_3x3_reduce -> inception_5b/3x3_reduce (in-place)
I0403 15:37:27.336315 10741 net.cpp:141] Setting up inception_5b/relu_3x3_reduce
I0403 15:37:27.336341 10741 net.cpp:148] Top shape: 24 192 7 7 (225792)
I0403 15:37:27.336356 10741 net.cpp:156] Memory required for data: 1330660896
I0403 15:37:27.336370 10741 layer_factory.hpp:77] Creating layer inception_5b/3x3
I0403 15:37:27.336392 10741 net.cpp:91] Creating Layer inception_5b/3x3
I0403 15:37:27.336410 10741 net.cpp:425] inception_5b/3x3 <- inception_5b/3x3_reduce
I0403 15:37:27.336431 10741 net.cpp:399] inception_5b/3x3 -> inception_5b/3x3
I0403 15:37:27.343209 10741 net.cpp:141] Setting up inception_5b/3x3
I0403 15:37:27.343240 10741 net.cpp:148] Top shape: 24 384 7 7 (451584)
I0403 15:37:27.343255 10741 net.cpp:156] Memory required for data: 1332467232
I0403 15:37:27.343273 10741 layer_factory.hpp:77] Creating layer inception_5b/relu_3x3
I0403 15:37:27.343294 10741 net.cpp:91] Creating Layer inception_5b/relu_3x3
I0403 15:37:27.343313 10741 net.cpp:425] inception_5b/relu_3x3 <- inception_5b/3x3
I0403 15:37:27.343333 10741 net.cpp:386] inception_5b/relu_3x3 -> inception_5b/3x3 (in-place)
I0403 15:37:27.343641 10741 net.cpp:141] Setting up inception_5b/relu_3x3
I0403 15:37:27.343667 10741 net.cpp:148] Top shape: 24 384 7 7 (451584)
I0403 15:37:27.343682 10741 net.cpp:156] Memory required for data: 1334273568
I0403 15:37:27.343695 10741 layer_factory.hpp:77] Creating layer inception_5b/5x5_reduce
I0403 15:37:27.343735 10741 net.cpp:91] Creating Layer inception_5b/5x5_reduce
I0403 15:37:27.343755 10741 net.cpp:425] inception_5b/5x5_reduce <- inception_5a/output_inception_5a/output_0_split_2
I0403 15:37:27.343775 10741 net.cpp:399] inception_5b/5x5_reduce -> inception_5b/5x5_reduce
I0403 15:37:27.345072 10741 net.cpp:141] Setting up inception_5b/5x5_reduce
I0403 15:37:27.345101 10741 net.cpp:148] Top shape: 24 48 7 7 (56448)
I0403 15:37:27.345116 10741 net.cpp:156] Memory required for data: 1334499360
I0403 15:37:27.345134 10741 layer_factory.hpp:77] Creating layer inception_5b/relu_5x5_reduce
I0403 15:37:27.345154 10741 net.cpp:91] Creating Layer inception_5b/relu_5x5_reduce
I0403 15:37:27.345170 10741 net.cpp:425] inception_5b/relu_5x5_reduce <- inception_5b/5x5_reduce
I0403 15:37:27.345186 10741 net.cpp:386] inception_5b/relu_5x5_reduce -> inception_5b/5x5_reduce (in-place)
I0403 15:37:27.345566 10741 net.cpp:141] Setting up inception_5b/relu_5x5_reduce
I0403 15:37:27.345592 10741 net.cpp:148] Top shape: 24 48 7 7 (56448)
I0403 15:37:27.345607 10741 net.cpp:156] Memory required for data: 1334725152
I0403 15:37:27.345620 10741 layer_factory.hpp:77] Creating layer inception_5b/5x5
I0403 15:37:27.345641 10741 net.cpp:91] Creating Layer inception_5b/5x5
I0403 15:37:27.345659 10741 net.cpp:425] inception_5b/5x5 <- inception_5b/5x5_reduce
I0403 15:37:27.345676 10741 net.cpp:399] inception_5b/5x5 -> inception_5b/5x5
I0403 15:37:27.347743 10741 net.cpp:141] Setting up inception_5b/5x5
I0403 15:37:27.347772 10741 net.cpp:148] Top shape: 24 128 7 7 (150528)
I0403 15:37:27.347789 10741 net.cpp:156] Memory required for data: 1335327264
I0403 15:37:27.347806 10741 layer_factory.hpp:77] Creating layer inception_5b/relu_5x5
I0403 15:37:27.347825 10741 net.cpp:91] Creating Layer inception_5b/relu_5x5
I0403 15:37:27.347841 10741 net.cpp:425] inception_5b/relu_5x5 <- inception_5b/5x5
I0403 15:37:27.347861 10741 net.cpp:386] inception_5b/relu_5x5 -> inception_5b/5x5 (in-place)
I0403 15:37:27.348067 10741 net.cpp:141] Setting up inception_5b/relu_5x5
I0403 15:37:27.348091 10741 net.cpp:148] Top shape: 24 128 7 7 (150528)
I0403 15:37:27.348106 10741 net.cpp:156] Memory required for data: 1335929376
I0403 15:37:27.348121 10741 layer_factory.hpp:77] Creating layer inception_5b/pool
I0403 15:37:27.348139 10741 net.cpp:91] Creating Layer inception_5b/pool
I0403 15:37:27.348155 10741 net.cpp:425] inception_5b/pool <- inception_5a/output_inception_5a/output_0_split_3
I0403 15:37:27.348175 10741 net.cpp:399] inception_5b/pool -> inception_5b/pool
I0403 15:37:27.348249 10741 net.cpp:141] Setting up inception_5b/pool
I0403 15:37:27.348273 10741 net.cpp:148] Top shape: 24 832 7 7 (978432)
I0403 15:37:27.348286 10741 net.cpp:156] Memory required for data: 1339843104
I0403 15:37:27.348300 10741 layer_factory.hpp:77] Creating layer inception_5b/pool_proj
I0403 15:37:27.348323 10741 net.cpp:91] Creating Layer inception_5b/pool_proj
I0403 15:37:27.348341 10741 net.cpp:425] inception_5b/pool_proj <- inception_5b/pool
I0403 15:37:27.348361 10741 net.cpp:399] inception_5b/pool_proj -> inception_5b/pool_proj
I0403 15:37:27.350706 10741 net.cpp:141] Setting up inception_5b/pool_proj
I0403 15:37:27.350741 10741 net.cpp:148] Top shape: 24 128 7 7 (150528)
I0403 15:37:27.350759 10741 net.cpp:156] Memory required for data: 1340445216
I0403 15:37:27.350776 10741 layer_factory.hpp:77] Creating layer inception_5b/relu_pool_proj
I0403 15:37:27.350795 10741 net.cpp:91] Creating Layer inception_5b/relu_pool_proj
I0403 15:37:27.350812 10741 net.cpp:425] inception_5b/relu_pool_proj <- inception_5b/pool_proj
I0403 15:37:27.350829 10741 net.cpp:386] inception_5b/relu_pool_proj -> inception_5b/pool_proj (in-place)
I0403 15:37:27.351143 10741 net.cpp:141] Setting up inception_5b/relu_pool_proj
I0403 15:37:27.351171 10741 net.cpp:148] Top shape: 24 128 7 7 (150528)
I0403 15:37:27.351187 10741 net.cpp:156] Memory required for data: 1341047328
I0403 15:37:27.351202 10741 layer_factory.hpp:77] Creating layer inception_5b/output
I0403 15:37:27.351219 10741 net.cpp:91] Creating Layer inception_5b/output
I0403 15:37:27.351251 10741 net.cpp:425] inception_5b/output <- inception_5b/1x1
I0403 15:37:27.351269 10741 net.cpp:425] inception_5b/output <- inception_5b/3x3
I0403 15:37:27.351285 10741 net.cpp:425] inception_5b/output <- inception_5b/5x5
I0403 15:37:27.351301 10741 net.cpp:425] inception_5b/output <- inception_5b/pool_proj
I0403 15:37:27.351317 10741 net.cpp:399] inception_5b/output -> inception_5b/output
I0403 15:37:27.351371 10741 net.cpp:141] Setting up inception_5b/output
I0403 15:37:27.351394 10741 net.cpp:148] Top shape: 24 1024 7 7 (1204224)
I0403 15:37:27.351409 10741 net.cpp:156] Memory required for data: 1345864224
I0403 15:37:27.351423 10741 layer_factory.hpp:77] Creating layer pool5/7x7_s1
I0403 15:37:27.351443 10741 net.cpp:91] Creating Layer pool5/7x7_s1
I0403 15:37:27.351459 10741 net.cpp:425] pool5/7x7_s1 <- inception_5b/output
I0403 15:37:27.351477 10741 net.cpp:399] pool5/7x7_s1 -> pool5/7x7_s1
I0403 15:37:27.351696 10741 net.cpp:141] Setting up pool5/7x7_s1
I0403 15:37:27.351723 10741 net.cpp:148] Top shape: 24 1024 1 1 (24576)
I0403 15:37:27.351738 10741 net.cpp:156] Memory required for data: 1345962528
I0403 15:37:27.351753 10741 layer_factory.hpp:77] Creating layer pool5/drop_7x7_s1
I0403 15:37:27.351771 10741 net.cpp:91] Creating Layer pool5/drop_7x7_s1
I0403 15:37:27.351788 10741 net.cpp:425] pool5/drop_7x7_s1 <- pool5/7x7_s1
I0403 15:37:27.351804 10741 net.cpp:386] pool5/drop_7x7_s1 -> pool5/7x7_s1 (in-place)
I0403 15:37:27.351856 10741 net.cpp:141] Setting up pool5/drop_7x7_s1
I0403 15:37:27.351881 10741 net.cpp:148] Top shape: 24 1024 1 1 (24576)
I0403 15:37:27.351894 10741 net.cpp:156] Memory required for data: 1346060832
I0403 15:37:27.351909 10741 layer_factory.hpp:77] Creating layer loss3/classifier_plantvillage
I0403 15:37:27.351933 10741 net.cpp:91] Creating Layer loss3/classifier_plantvillage
I0403 15:37:27.351949 10741 net.cpp:425] loss3/classifier_plantvillage <- pool5/7x7_s1
I0403 15:37:27.351969 10741 net.cpp:399] loss3/classifier_plantvillage -> loss3/classifier_plantvillage
I0403 15:37:27.352401 10741 net.cpp:141] Setting up loss3/classifier_plantvillage
I0403 15:37:27.352426 10741 net.cpp:148] Top shape: 24 38 (912)
I0403 15:37:27.352439 10741 net.cpp:156] Memory required for data: 1346064480
I0403 15:37:27.352458 10741 layer_factory.hpp:77] Creating layer loss3/classifier_plantvillage_loss3/classifier_plantvillage_0_split
I0403 15:37:27.352474 10741 net.cpp:91] Creating Layer loss3/classifier_plantvillage_loss3/classifier_plantvillage_0_split
I0403 15:37:27.352491 10741 net.cpp:425] loss3/classifier_plantvillage_loss3/classifier_plantvillage_0_split <- loss3/classifier_plantvillage
I0403 15:37:27.352512 10741 net.cpp:399] loss3/classifier_plantvillage_loss3/classifier_plantvillage_0_split -> loss3/classifier_plantvillage_loss3/classifier_plantvillage_0_split_0
I0403 15:37:27.352533 10741 net.cpp:399] loss3/classifier_plantvillage_loss3/classifier_plantvillage_0_split -> loss3/classifier_plantvillage_loss3/classifier_plantvillage_0_split_1
I0403 15:37:27.352553 10741 net.cpp:399] loss3/classifier_plantvillage_loss3/classifier_plantvillage_0_split -> loss3/classifier_plantvillage_loss3/classifier_plantvillage_0_split_2
I0403 15:37:27.352572 10741 net.cpp:399] loss3/classifier_plantvillage_loss3/classifier_plantvillage_0_split -> loss3/classifier_plantvillage_loss3/classifier_plantvillage_0_split_3
I0403 15:37:27.352682 10741 net.cpp:141] Setting up loss3/classifier_plantvillage_loss3/classifier_plantvillage_0_split
I0403 15:37:27.352705 10741 net.cpp:148] Top shape: 24 38 (912)
I0403 15:37:27.352721 10741 net.cpp:148] Top shape: 24 38 (912)
I0403 15:37:27.352736 10741 net.cpp:148] Top shape: 24 38 (912)
I0403 15:37:27.352751 10741 net.cpp:148] Top shape: 24 38 (912)
I0403 15:37:27.352764 10741 net.cpp:156] Memory required for data: 1346079072
I0403 15:37:27.352778 10741 layer_factory.hpp:77] Creating layer loss1/loss
I0403 15:37:27.352800 10741 net.cpp:91] Creating Layer loss1/loss
I0403 15:37:27.352818 10741 net.cpp:425] loss1/loss <- loss1/classifier_plantvillage_loss1/classifier_plantvillage_0_split_0
I0403 15:37:27.352849 10741 net.cpp:425] loss1/loss <- label_data_1_split_0
…
