…
I0403 15:50:26.710567 11508 net.cpp:313] The NetState phase (1) differed from the phase (0) specified by a rule in layer data
I0403 15:50:26.711684 11508 net.cpp:49] Initializing net from parameters: 
state {
  phase: TEST
}
layer {
  name: "data"
  type: "Data"
  top: "data"
  top: "label"
  include {
    phase: TEST
  }
  transform_param {
    mirror: false
    crop_size: 224
    mean_file: "/home/mohanty/data/final_dataset/lmdb/segmented-80-20/mean.binaryproto"
  }
  data_param {
    source: "/home/mohanty/data/final_dataset/lmdb/segmented-80-20/test_db"
    batch_size: 24
    backend: LMDB
  }
}
layer {
  name: "conv1/7x7_s2"
  type: "Convolution"
  bottom: "data"
  top: "conv1/7x7_s2"
  param {
    lr_mult: 1
    decay_mult: 1
  }
  param {
    lr_mult: 2
    decay_mult: 0
  }
  convolution_param {
    num_output: 64
    pad: 3
    kernel_size: 7
    stride: 2
    weight_filler {
      type: "xavier"
      std: 0.1
    }
    bias_filler {
      type: "constant"
      value: 0.2
    }
  }
}
layer {
  name: "conv1/relu_7x7"
  type: "ReLU"
  bottom: "conv1/7x7_s2"
  top: "conv1/7x7_s2"
}
layer {
  name: "pool1/3x3_s2"
  type: "Pooling"
  bottom: "conv1/7x7_s2"
  top: "pool1/3x3_s2"
  pooling_param {
    pool: MAX
    kernel_size: 3
    stride: 2
  }
}
layer {
  name: "pool1/norm1"
  type: "LRN"
  bottom: "pool1/3x3_s2"
  top: "pool1/norm1"
  lrn_param {
    local_size: 5
    alpha: 0.0001
    beta: 0.75
  }
}
layer {
  name: "conv2/3x3_reduce"
  type: "Convolution"
  bottom: "pool1/norm1"
  top: "conv2/3x3_reduce"
  param {
    lr_mult: 1
    decay_mult: 1
  }
  param {
    lr_mult: 2
    decay_mult: 0
  }
  convolution_param {
    num_output: 64
    kernel_size: 1
    weight_filler {
      type: "xavier"
      std: 0.1
    }
    bias_filler {
      type: "constant"
      value: 0.2
    }
  }
}
layer {
  name: "conv2/relu_3x3_reduce"
  type: "ReLU"
  bottom: "conv2/3x3_reduce"
  top: "conv2/3x3_reduce"
}
layer {
  name: "conv2/3x3"
  type: "Convolution"
  bottom: "conv2/3x3_reduce"
  top: "conv2/3x3"
  param {
    lr_mult: 1
    decay_mult: 1
  }
  param {
    lr_mult: 2
    decay_mult: 0
  }
  convolution_param {
    num_output: 192
    pad: 1
    kernel_size: 3
    weight_filler {
      type: "xavier"
      std: 0.03
    }
    bias_filler {
      type: "constant"
      value: 0.2
    }
  }
}
layer {
  name: "conv2/relu_3x3"
  type: "ReLU"
  bottom: "conv2/3x3"
  top: "conv2/3x3"
}
layer {
  name: "conv2/norm2"
  type: "LRN"
  bottom: "conv2/3x3"
  top: "conv2/norm2"
  lrn_param {
    local_size: 5
    alpha: 0.0001
    beta: 0.75
  }
}
layer {
  name: "pool2/3x3_s2"
  type: "Pooling"
  bottom: "conv2/norm2"
  top: "pool2/3x3_s2"
  pooling_param {
    pool: MAX
    kernel_size: 3
    stride: 2
  }
}
layer {
  name: "inception_3a/1x1"
  type: "Convolution"
  bottom: "pool2/3x3_s2"
  top: "inception_3a/1x1"
  param {
    lr_mult: 1
    decay_mult: 1
  }
  param {
    lr_mult: 2
    decay_mult: 0
  }
  convolution_param {
    num_output: 64
    kernel_size: 1
    weight_filler {
      type: "xavier"
      std: 0.03
    }
    bias_filler {
      type: "constant"
      value: 0.2
    }
  }
}
layer {
  name: "inception_3a/relu_1x1"
  type: "ReLU"
  bottom: "inception_3a/1x1"
  top: "inception_3a/1x1"
}
layer {
  name: "inception_3a/3x3_reduce"
  type: "Convolution"
  bottom: "pool2/3x3_s2"
  top: "inception_3a/3x3_reduce"
  param {
    lr_mult: 1
    decay_mult: 1
  }
  param {
    lr_mult: 2
    decay_mult: 0
  }
  convolution_param {
    num_output: 96
    kernel_size: 1
    weight_filler {
      type: "xavier"
      std: 0.09
    }
    bias_filler {
      type: "constant"
      value: 0.2
    }
  }
}
layer {
  name: "inception_3a/relu_3x3_reduce"
  type: "ReLU"
  bottom: "inception_3a/3x3_reduce"
  top: "inception_3a/3x3_reduce"
}
layer {
  name: "inception_3a/3x3"
  type: "Convolution"
  bottom: "inception_3a/3x3_reduce"
  top: "inception_3a/3x3"
  param {
    lr_mult: 1
    decay_mult: 1
  }
  param {
    lr_mult: 2
    decay_mult: 0
  }
  convolution_param {
    num_output: 128
    pad: 1
    kernel_size: 3
    weight_filler {
      type: "xavier"
      std: 0.03
    }
    bias_filler {
      type: "constant"
      value: 0.2
    }
  }
}
layer {
  name: "inception_3a/relu_3x3"
  type: "ReLU"
  bottom: "inception_3a/3x3"
  top: "inception_3a/3x3"
}
layer {
  name: "inception_3a/5x5_reduce"
  type: "Convolution"
  bottom: "pool2/3x3_s2"
  top: "inception_3a/5x5_reduce"
  param {
    lr_mult: 1
    decay_mult: 1
  }
  param {
    lr_mult: 2
    decay_mult: 0
  }
  convolution_param {
    num_output: 16
    kernel_size: 1
    weight_filler {
      type: "xavier"
      std: 0.2
    }
    bias_filler {
      type: "constant"
      value: 0.2
    }
  }
}
layer {
  name: "inception_3a/relu_5x5_reduce"
  type: "ReLU"
  bottom: "inception_3a/5x5_reduce"
  top: "inception_3a/5x5_reduce"
}
layer {
  name: "inception_3a/5x5"
  type: "Convolution"
  bottom: "inception_3a/5x5_reduce"
  top: "inception_3a/5x5"
  param {
    lr_mult: 1
    decay_mult: 1
  }
  param {
    lr_mult: 2
    decay_mult: 0
  }
  convolution_param {
    num_output: 32
    pad: 2
    kernel_size: 5
    weight_filler {
      type: "xavier"
      std: 0.03
    }
    bias_filler {
      type: "constant"
      value: 0.2
    }
  }
}
layer {
  name: "inception_3a/relu_5x5"
  type: "ReLU"
  bottom: "inception_3a/5x5"
  top: "inception_3a/5x5"
}
layer {
  name: "inception_3a/pool"
  type: "Pooling"
  bottom: "pool2/3x3_s2"
  top: "inception_3a/pool"
  pooling_param {
    pool: MAX
    kernel_size: 3
    stride: 1
    pad: 1
  }
}
layer {
  name: "inception_3a/pool_proj"
  type: "Convolution"
  bottom: "inception_3a/pool"
  top: "inception_3a/pool_proj"
  param {
    lr_mult: 1
    decay_mult: 1
  }
  param {
    lr_mult: 2
    decay_mult: 0
  }
  convolution_param {
    num_output: 32
    kernel_size: 1
    weight_filler {
      type: "xavier"
      std: 0.1
    }
    bias_filler {
      type: "constant"
      value: 0.2
    }
  }
}
layer {
  name: "inception_3a/relu_pool_proj"
  type: "ReLU"
  bottom: "inception_3a/pool_proj"
  top: "inception_3a/pool_proj"
}
layer {
  name: "inception_3a/output"
  type: "Concat"
  bottom: "inception_3a/1x1"
  bottom: "inception_3a/3x3"
  bottom: "inception_3a/5x5"
  bottom: "inception_3a/pool_proj"
  top: "inception_3a/output"
}
layer {
  name: "inception_3b/1x1"
  type: "Convolution"
  bottom: "inception_3a/output"
  top: "inception_3b/1x1"
  param {
    lr_mult: 1
    decay_mult: 1
  }
  param {
    lr_mult: 2
    decay_mult: 0
  }
  convolution_param {
    num_output: 128
    kernel_size: 1
    weight_filler {
      type: "xavier"
      std: 0.03
    }
    bias_filler {
      type: "constant"
      value: 0.2
    }
  }
}
layer {
  name: "inception_3b/relu_1x1"
  type: "ReLU"
  bottom: "inception_3b/1x1"
  top: "inception_3b/1x1"
}
layer {
  name: "inception_3b/3x3_reduce"
  type: "Convolution"
  bottom: "inception_3a/output"
  top: "inception_3b/3x3_reduce"
  param {
    lr_mult: 1
    decay_mult: 1
  }
  param {
    lr_mult: 2
    decay_mult: 0
  }
  convolution_param {
    num_output: 128
    kernel_size: 1
    weight_filler {
      type: "xavier"
      std: 0.09
    }
    bias_filler {
      type: "constant"
      value: 0.2
    }
  }
}
layer {
  name: "inception_3b/relu_3x3_reduce"
  type: "ReLU"
  bottom: "inception_3b/3x3_reduce"
  top: "inception_3b/3x3_reduce"
}
layer {
  name: "inception_3b/3x3"
  type: "Convolution"
  bottom: "inception_3b/3x3_reduce"
  top: "inception_3b/3x3"
  param {
    lr_mult: 1
    decay_mult: 1
  }
  param {
    lr_mult: 2
    decay_mult: 0
  }
  convolution_param {
    num_output: 192
    pad: 1
    kernel_size: 3
    weight_filler {
      type: "xavier"
      std: 0.03
    }
    bias_filler {
      type: "constant"
      value: 0.2
    }
  }
}
layer {
  name: "inception_3b/relu_3x3"
  type: "ReLU"
  bottom: "inception_3b/3x3"
  top: "inception_3b/3x3"
}
layer {
  name: "inception_3b/5x5_reduce"
  type: "Convolution"
  bottom: "inception_3a/output"
  top: "inception_3b/5x5_reduce"
  param {
    lr_mult: 1
    decay_mult: 1
  }
  param {
    lr_mult: 2
    decay_mult: 0
  }
  convolution_param {
    num_output: 32
    kernel_size: 1
    weight_filler {
      type: "xavier"
      std: 0.2
    }
    bias_filler {
      type: "constant"
      value: 0.2
    }
  }
}
layer {
  name: "inception_3b/relu_5x5_reduce"
  type: "ReLU"
  bottom: "inception_3b/5x5_reduce"
  top: "inception_3b/5x5_reduce"
}
layer {
  name: "inception_3b/5x5"
  type: "Convolution"
  bottom: "inception_3b/5x5_reduce"
  top: "inception_3b/5x5"
  param {
    lr_mult: 1
    decay_mult: 1
  }
  param {
    lr_mult: 2
    decay_mult: 0
  }
  convolution_param {
    num_output: 96
    pad: 2
    kernel_size: 5
    weight_filler {
      type: "xavier"
      std: 0.03
    }
    bias_filler {
      type: "constant"
      value: 0.2
    }
  }
}
layer {
  name: "inception_3b/relu_5x5"
  type: "ReLU"
  bottom: "inception_3b/5x5"
  top: "inception_3b/5x5"
}
layer {
  name: "inception_3b/pool"
  type: "Pooling"
  bottom: "inception_3a/output"
  top: "inception_3b/pool"
  pooling_param {
    pool: MAX
    kernel_size: 3
    stride: 1
    pad: 1
  }
}
layer {
  name: "inception_3b/pool_proj"
  type: "Convolution"
  bottom: "inception_3b/pool"
  top: "inception_3b/pool_proj"
  param {
    lr_mult: 1
    decay_mult: 1
  }
  param {
    lr_mult: 2
    decay_mult: 0
  }
  convolution_param {
    num_output: 64
    kernel_size: 1
    weight_filler {
      type: "xavier"
      std: 0.1
    }
    bias_filler {
      type: "constant"
      value: 0.2
    }
  }
}
layer {
  name: "inception_3b/relu_pool_proj"
  type: "ReLU"
  bottom: "inception_3b/pool_proj"
  top: "inception_3b/pool_proj"
}
layer {
  name: "inception_3b/output"
  type: "Concat"
  bottom: "inception_3b/1x1"
  bottom: "inception_3b/3x3"
  bottom: "inception_3b/5x5"
  bottom: "inception_3b/pool_proj"
  top: "inception_3b/output"
}
layer {
  name: "pool3/3x3_s2"
  type: "Pooling"
  bottom: "inception_3b/output"
  top: "pool3/3x3_s2"
  pooling_param {
    pool: MAX
    kernel_size: 3
    stride: 2
  }
}
layer {
  name: "inception_4a/1x1"
  type: "Convolution"
  bottom: "pool3/3x3_s2"
  top: "inception_4a/1x1"
  param {
    lr_mult: 1
    decay_mult: 1
  }
  param {
    lr_mult: 2
    decay_mult: 0
  }
  convolution_param {
    num_output: 192
    kernel_size: 1
    weight_filler {
      type: "xavier"
      std: 0.03
    }
    bias_filler {
      type: "constant"
      value: 0.2
    }
  }
}
layer {
  name: "inception_4a/relu_1x1"
  type: "ReLU"
  bottom: "inception_4a/1x1"
  top: "inception_4a/1x1"
}
layer {
  name: "inception_4a/3x3_reduce"
  type: "Convolution"
  bottom: "pool3/3x3_s2"
  top: "inception_4a/3x3_reduce"
  param {
    lr_mult: 1
    decay_mult: 1
  }
  param {
    lr_mult: 2
    decay_mult: 0
  }
  convolution_param {
    num_output: 96
    kernel_size: 1
    weight_filler {
      type: "xavier"
      std: 0.09
    }
    bias_filler {
      type: "constant"
      value: 0.2
    }
  }
}
layer {
  name: "inception_4a/relu_3x3_reduce"
  type: "ReLU"
  bottom: "inception_4a/3x3_reduce"
  top: "inception_4a/3x3_reduce"
}
layer {
  name: "inception_4a/3x3"
  type: "Convolution"
  bottom: "inception_4a/3x3_reduce"
  top: "inception_4a/3x3"
  param {
    lr_mult: 1
    decay_mult: 1
  }
  param {
    lr_mult: 2
    decay_mult: 0
  }
  convolution_param {
    num_output: 208
    pad: 1
    kernel_size: 3
    weight_filler {
      type: "xavier"
      std: 0.03
    }
    bias_filler {
      type: "constant"
      value: 0.2
    }
  }
}
layer {
  name: "inception_4a/relu_3x3"
  type: "ReLU"
  bottom: "inception_4a/3x3"
  top: "inception_4a/3x3"
}
layer {
  name: "inception_4a/5x5_reduce"
  type: "Convolution"
  bottom: "pool3/3x3_s2"
  top: "inception_4a/5x5_reduce"
  param {
    lr_mult: 1
    decay_mult: 1
  }
  param {
    lr_mult: 2
    decay_mult: 0
  }
  convolution_param {
    num_output: 16
    kernel_size: 1
    weight_filler {
      type: "xavier"
      std: 0.2
    }
    bias_filler {
      type: "constant"
      value: 0.2
    }
  }
}
layer {
  name: "inception_4a/relu_5x5_reduce"
  type: "ReLU"
  bottom: "inception_4a/5x5_reduce"
  top: "inception_4a/5x5_reduce"
}
layer {
  name: "inception_4a/5x5"
  type: "Convolution"
  bottom: "inception_4a/5x5_reduce"
  top: "inception_4a/5x5"
  param {
    lr_mult: 1
    decay_mult: 1
  }
  param {
    lr_mult: 2
    decay_mult: 0
  }
  convolution_param {
    num_output: 48
    pad: 2
    kernel_size: 5
    weight_filler {
      type: "xavier"
      std: 0.03
    }
    bias_filler {
      type: "constant"
      value: 0.2
    }
  }
}
layer {
  name: "inception_4a/relu_5x5"
  type: "ReLU"
  bottom: "inception_4a/5x5"
  top: "inception_4a/5x5"
}
layer {
  name: "inception_4a/pool"
  type: "Pooling"
  bottom: "pool3/3x3_s2"
  top: "inception_4a/pool"
  pooling_param {
    pool: MAX
    kernel_size: 3
    stride: 1
    pad: 1
  }
}
layer {
  name: "inception_4a/pool_proj"
  type: "Convolution"
  bottom: "inception_4a/pool"
  top: "inception_4a/pool_proj"
  param {
    lr_mult: 1
    decay_mult: 1
  }
  param {
    lr_mult: 2
    decay_mult: 0
  }
  convolution_param {
    num_output: 64
    kernel_size: 1
    weight_filler {
      type: "xavier"
      std: 0.1
    }
    bias_filler {
      type: "constant"
      value: 0.2
    }
  }
}
layer {
  name: "inception_4a/relu_pool_proj"
  type: "ReLU"
  bottom: "inception_4a/pool_proj"
  top: "inception_4a/pool_proj"
}
layer {
  name: "inception_4a/output"
  type: "Concat"
  bottom: "inception_4a/1x1"
  bottom: "inception_4a/3x3"
  bottom: "inception_4a/5x5"
  bottom: "inception_4a/pool_proj"
  top: "inception_4a/output"
}
layer {
  name: "loss1/ave_pool"
  type: "Pooling"
  bottom: "inception_4a/output"
  top: "loss1/ave_pool"
  pooling_param {
    pool: AVE
    kernel_size: 5
    stride: 3
  }
}
layer {
  name: "loss1/conv"
  type: "Convolution"
  bottom: "loss1/ave_pool"
  top: "loss1/conv"
  param {
    lr_mult: 1
    decay_mult: 1
  }
  param {
    lr_mult: 2
    decay_mult: 0
  }
  convolution_param {
    num_output: 128
    kernel_size: 1
    weight_filler {
      type: "xavier"
      std: 0.08
    }
    bias_filler {
      type: "constant"
      value: 0.2
    }
  }
}
layer {
  name: "loss1/relu_conv"
  type: "ReLU"
  bottom: "loss1/conv"
  top: "loss1/conv"
}
layer {
  name: "loss1/fc"
  type: "InnerProduct"
  bottom: "loss1/conv"
  top: "loss1/fc"
  param {
    lr_mult: 1
    decay_mult: 1
  }
  param {
    lr_mult: 2
    decay_mult: 0
  }
  inner_product_param {
    num_output: 1024
    weight_filler {
      type: "xavier"
      std: 0.02
    }
    bias_filler {
      type: "constant"
      value: 0.2
    }
  }
}
layer {
  name: "loss1/relu_fc"
  type: "ReLU"
  bottom: "loss1/fc"
  top: "loss1/fc"
}
layer {
  name: "loss1/drop_fc"
  type: "Dropout"
  bottom: "loss1/fc"
  top: "loss1/fc"
  dropout_param {
    dropout_ratio: 0.7
  }
}
layer {
  name: "loss1/classifier_plantvillage"
  type: "InnerProduct"
  bottom: "loss1/fc"
  top: "loss1/classifier_plantvillage"
  param {
    lr_mult: 1
    decay_mult: 1
  }
  param {
    lr_mult: 2
    decay_mult: 0
  }
  inner_product_param {
    num_output: 38
    weight_filler {
      type: "xavier"
      std: 0.0009765625
    }
    bias_filler {
      type: "constant"
      value: 0
    }
  }
}
layer {
  name: "inception_4b/1x1"
  type: "Convolution"
  bottom: "inception_4a/output"
  top: "inception_4b/1x1"
  param {
    lr_mult: 1
    decay_mult: 1
  }
  param {
    lr_mult: 2
    decay_mult: 0
  }
  convolution_param {
    num_output: 160
    kernel_size: 1
    weight_filler {
      type: "xavier"
      std: 0.03
    }
    bias_filler {
      type: "constant"
      value: 0.2
    }
  }
}
layer {
  name: "inception_4b/relu_1x1"
  type: "ReLU"
  bottom: "inception_4b/1x1"
  top: "inception_4b/1x1"
}
layer {
  name: "inception_4b/3x3_reduce"
  type: "Convolution"
  bottom: "inception_4a/output"
  top: "inception_4b/3x3_reduce"
  param {
    lr_mult: 1
    decay_mult: 1
  }
  param {
    lr_mult: 2
    decay_mult: 0
  }
  convolution_param {
    num_output: 112
    kernel_size: 1
    weight_filler {
      type: "xavier"
      std: 0.09
    }
    bias_filler {
      type: "constant"
      value: 0.2
    }
  }
}
layer {
  name: "inception_4b/relu_3x3_reduce"
  type: "ReLU"
  bottom: "inception_4b/3x3_reduce"
  top: "inception_4b/3x3_reduce"
}
layer {
  name: "inception_4b/3x3"
  type: "Convolution"
  bottom: "inception_4b/3x3_reduce"
  top: "inception_4b/3x3"
  param {
    lr_mult: 1
    decay_mult: 1
  }
  param {
    lr_mult: 2
    decay_mult: 0
  }
  convolution_param {
    num_output: 224
    pad: 1
    kernel_size: 3
    weight_filler {
      type: "xavier"
      std: 0.03
    }
    bias_filler {
      type: "constant"
      value: 0.2
    }
  }
}
layer {
  name: "inception_4b/relu_3x3"
  type: "ReLU"
  bottom: "inception_4b/3x3"
  top: "inception_4b/3x3"
}
layer {
  name: "inception_4b/5x5_reduce"
  type: "Convolution"
  bottom: "inception_4a/output"
  top: "inception_4b/5x5_reduce"
  param {
    lr_mult: 1
    decay_mult: 1
  }
  param {
    lr_mult: 2
    decay_mult: 0
  }
  convolution_param {
    num_output: 24
    kernel_size: 1
    weight_filler {
      type: "xavier"
      std: 0.2
    }
    bias_filler {
      type: "constant"
      value: 0.2
    }
  }
}
layer {
  name: "inception_4b/relu_5x5_reduce"
  type: "ReLU"
  bottom: "inception_4b/5x5_reduce"
  top: "inception_4b/5x5_reduce"
}
layer {
  name: "inception_4b/5x5"
  type: "Convolution"
  bottom: "inception_4b/5x5_reduce"
  top: "inception_4b/5x5"
  param {
    lr_mult: 1
    decay_mult: 1
  }
  param {
    lr_mult: 2
    decay_mult: 0
  }
  convolution_param {
    num_output: 64
    pad: 2
    kernel_size: 5
    weight_filler {
      type: "xavier"
      std: 0.03
    }
    bias_filler {
      type: "constant"
      value: 0.2
    }
  }
}
layer {
  name: "inception_4b/relu_5x5"
  type: "ReLU"
  bottom: "inception_4b/5x5"
  top: "inception_4b/5x5"
}
layer {
  name: "inception_4b/pool"
  type: "Pooling"
  bottom: "inception_4a/output"
  top: "inception_4b/pool"
  pooling_param {
    pool: MAX
    kernel_size: 3
    stride: 1
    pad: 1
  }
}
layer {
  name: "inception_4b/pool_proj"
  type: "Convolution"
  bottom: "inception_4b/pool"
  top: "inception_4b/pool_proj"
  param {
    lr_mult: 1
    decay_mult: 1
  }
  param {
    lr_mult: 2
    decay_mult: 0
  }
  convolution_param {
    num_output: 64
    kernel_size: 1
    weight_filler {
      type: "xavier"
      std: 0.1
    }
    bias_filler {
      type: "constant"
      value: 0.2
    }
  }
}
layer {
  name: "inception_4b/relu_pool_proj"
  type: "ReLU"
  bottom: "inception_4b/pool_proj"
  top: "inception_4b/pool_proj"
}
layer {
  name: "inception_4b/output"
  type: "Concat"
  bottom: "inception_4b/1x1"
  bottom: "inception_4b/3x3"
  bottom: "inception_4b/5x5"
  bottom: "inception_4b/pool_proj"
  top: "inception_4b/output"
}
layer {
  name: "inception_4c/1x1"
  type: "Convolution"
  bottom: "inception_4b/output"
  top: "inception_4c/1x1"
  param {
    lr_mult: 1
    decay_mult: 1
  }
  param {
    lr_mult: 2
    decay_mult: 0
  }
  convolution_param {
    num_output: 128
    kernel_size: 1
    weight_filler {
      type: "xavier"
      std: 0.03
    }
    bias_filler {
      type: "constant"
      value: 0.2
    }
  }
}
layer {
  name: "inception_4c/relu_1x1"
  type: "ReLU"
  bottom: "inception_4c/1x1"
  top: "inception_4c/1x1"
}
layer {
  name: "inception_4c/3x3_reduce"
  type: "Convolution"
  bottom: "inception_4b/output"
  top: "inception_4c/3x3_reduce"
  param {
    lr_mult: 1
    decay_mult: 1
  }
  param {
    lr_mult: 2
    decay_mult: 0
  }
  convolution_param {
    num_output: 128
    kernel_size: 1
    weight_filler {
      type: "xavier"
      std: 0.09
    }
    bias_filler {
      type: "constant"
      value: 0.2
    }
  }
}
layer {
  name: "inception_4c/relu_3x3_reduce"
  type: "ReLU"
  bottom: "inception_4c/3x3_reduce"
  top: "inception_4c/3x3_reduce"
}
layer {
  name: "inception_4c/3x3"
  type: "Convolution"
  bottom: "inception_4c/3x3_reduce"
  top: "inception_4c/3x3"
  param {
    lr_mult: 1
    decay_mult: 1
  }
  param {
    lr_mult: 2
    decay_mult: 0
  }
  convolution_param {
    num_output: 256
    pad: 1
    kernel_size: 3
    weight_filler {
      type: "xavier"
      std: 0.03
    }
    bias_filler {
      type: "constant"
      value: 0.2
    }
  }
}
layer {
  name: "inception_4c/relu_3x3"
  type: "ReLU"
  bottom: "inception_4c/3x3"
  top: "inception_4c/3x3"
}
layer {
  name: "inception_4c/5x5_reduce"
  type: "Convolution"
  bottom: "inception_4b/output"
  top: "inception_4c/5x5_reduce"
  param {
    lr_mult: 1
    decay_mult: 1
  }
  param {
    lr_mult: 2
    decay_mult: 0
  }
  convolution_param {
    num_output: 24
    kernel_size: 1
    weight_filler {
      type: "xavier"
      std: 0.2
    }
    bias_filler {
      type: "constant"
      value: 0.2
    }
  }
}
layer {
  name: "inception_4c/relu_5x5_reduce"
  type: "ReLU"
  bottom: "inception_4c/5x5_reduce"
  top: "inception_4c/5x5_reduce"
}
layer {
  name: "inception_4c/5x5"
  type: "Convolution"
  bottom: "inception_4c/5x5_reduce"
  top: "inception_4c/5x5"
  param {
    lr_mult: 1
    decay_mult: 1
  }
  param {
    lr_mult: 2
    decay_mult: 0
  }
  convolution_param {
    num_output: 64
    pad: 2
    kernel_size: 5
    weight_filler {
      type: "xavier"
      std: 0.03
    }
    bias_filler {
      type: "constant"
      value: 0.2
    }
  }
}
layer {
  name: "inception_4c/relu_5x5"
  type: "ReLU"
  bottom: "inception_4c/5x5"
  top: "inception_4c/5x5"
}
layer {
  name: "inception_4c/pool"
  type: "Pooling"
  bottom: "inception_4b/output"
  top: "inception_4c/pool"
  pooling_param {
    pool: MAX
    kernel_size: 3
    stride: 1
    pad: 1
  }
}
layer {
  name: "inception_4c/pool_proj"
  type: "Convolution"
  bottom: "inception_4c/pool"
  top: "inception_4c/pool_proj"
  param {
    lr_mult: 1
    decay_mult: 1
  }
  param {
    lr_mult: 2
    decay_mult: 0
  }
  convolution_param {
    num_output: 64
    kernel_size: 1
    weight_filler {
      type: "xavier"
      std: 0.1
    }
    bias_filler {
      type: "constant"
      value: 0.2
    }
  }
}
layer {
  name: "inception_4c/relu_pool_proj"
  type: "ReLU"
  bottom: "inception_4c/pool_proj"
  top: "inception_4c/pool_proj"
}
layer {
  name: "inception_4c/output"
  type: "Concat"
  bottom: "inception_4c/1x1"
  bottom: "inception_4c/3x3"
  bottom: "inception_4c/5x5"
  bottom: "inception_4c/pool_proj"
  top: "inception_4c/output"
}
layer {
  name: "inception_4d/1x1"
  type: "Convolution"
  bottom: "inception_4c/output"
  top: "inception_4d/1x1"
  param {
    lr_mult: 1
    decay_mult: 1
  }
  param {
    lr_mult: 2
    decay_mult: 0
  }
  convolution_param {
    num_output: 112
    kernel_size: 1
    weight_filler {
      type: "xavier"
      std: 0.03
    }
    bias_filler {
      type: "constant"
      value: 0.2
    }
  }
}
layer {
  name: "inception_4d/relu_1x1"
  type: "ReLU"
  bottom: "inception_4d/1x1"
  top: "inception_4d/1x1"
}
layer {
  name: "inception_4d/3x3_reduce"
  type: "Convolution"
  bottom: "inception_4c/output"
  top: "inception_4d/3x3_reduce"
  param {
    lr_mult: 1
    decay_mult: 1
  }
  param {
    lr_mult: 2
    decay_mult: 0
  }
  convolution_param {
    num_output: 144
    kernel_size: 1
    weight_filler {
      type: "xavier"
      std: 0.09
    }
    bias_filler {
      type: "constant"
      value: 0.2
    }
  }
}
layer {
  name: "inception_4d/relu_3x3_reduce"
  type: "ReLU"
  bottom: "inception_4d/3x3_reduce"
  top: "inception_4d/3x3_reduce"
}
layer {
  name: "inception_4d/3x3"
  type: "Convolution"
  bottom: "inception_4d/3x3_reduce"
  top: "inception_4d/3x3"
  param {
    lr_mult: 1
    decay_mult: 1
  }
  param {
    lr_mult: 2
    decay_mult: 0
  }
  convolution_param {
    num_output: 288
    pad: 1
    kernel_size: 3
    weight_filler {
      type: "xavier"
      std: 0.03
    }
    bias_filler {
      type: "constant"
      value: 0.2
    }
  }
}
layer {
  name: "inception_4d/relu_3x3"
  type: "ReLU"
  bottom: "inception_4d/3x3"
  top: "inception_4d/3x3"
}
layer {
  name: "inception_4d/5x5_reduce"
  type: "Convolution"
  bottom: "inception_4c/output"
  top: "inception_4d/5x5_reduce"
  param {
    lr_mult: 1
    decay_mult: 1
  }
  param {
    lr_mult: 2
    decay_mult: 0
  }
  convolution_param {
    num_output: 32
    kernel_size: 1
    weight_filler {
      type: "xavier"
      std: 0.2
    }
    bias_filler {
      type: "constant"
      value: 0.2
    }
  }
}
layer {
  name: "inception_4d/relu_5x5_reduce"
  type: "ReLU"
  bottom: "inception_4d/5x5_reduce"
  top: "inception_4d/5x5_reduce"
}
layer {
  name: "inception_4d/5x5"
  type: "Convolution"
  bottom: "inception_4d/5x5_reduce"
  top: "inception_4d/5x5"
  param {
    lr_mult: 1
    decay_mult: 1
  }
  param {
    lr_mult: 2
    decay_mult: 0
  }
  convolution_param {
    num_output: 64
    pad: 2
    kernel_size: 5
    weight_filler {
      type: "xavier"
      std: 0.03
    }
    bias_filler {
      type: "constant"
      value: 0.2
    }
  }
}
layer {
  name: "inception_4d/relu_5x5"
  type: "ReLU"
  bottom: "inception_4d/5x5"
  top: "inception_4d/5x5"
}
layer {
  name: "inception_4d/pool"
  type: "Pooling"
  bottom: "inception_4c/output"
  top: "inception_4d/pool"
  pooling_param {
    pool: MAX
    kernel_size: 3
    stride: 1
    pad: 1
  }
}
layer {
  name: "inception_4d/pool_proj"
  type: "Convolution"
  bottom: "inception_4d/pool"
  top: "inception_4d/pool_proj"
  param {
    lr_mult: 1
    decay_mult: 1
  }
  param {
    lr_mult: 2
    decay_mult: 0
  }
  convolution_param {
    num_output: 64
    kernel_size: 1
    weight_filler {
      type: "xavier"
      std: 0.1
    }
    bias_filler {
      type: "constant"
      value: 0.2
    }
  }
}
layer {
  name: "inception_4d/relu_pool_proj"
  type: "ReLU"
  bottom: "inception_4d/pool_proj"
  top: "inception_4d/pool_proj"
}
layer {
  name: "inception_4d/output"
  type: "Concat"
  bottom: "inception_4d/1x1"
  bottom: "inception_4d/3x3"
  bottom: "inception_4d/5x5"
  bottom: "inception_4d/pool_proj"
  top: "inception_4d/output"
}
layer {
  name: "loss2/ave_pool"
  type: "Pooling"
  bottom: "inception_4d/output"
  top: "loss2/ave_pool"
  pooling_param {
    pool: AVE
    kernel_size: 5
    stride: 3
  }
}
layer {
  name: "loss2/conv"
  type: "Convolution"
  bottom: "loss2/ave_pool"
  top: "loss2/conv"
  param {
    lr_mult: 1
    decay_mult: 1
  }
  param {
    lr_mult: 2
    decay_mult: 0
  }
  convolution_param {
    num_output: 128
    kernel_size: 1
    weight_filler {
      type: "xavier"
      std: 0.08
    }
    bias_filler {
      type: "constant"
      value: 0.2
    }
  }
}
layer {
  name: "loss2/relu_conv"
  type: "ReLU"
  bottom: "loss2/conv"
  top: "loss2/conv"
}
layer {
  name: "loss2/fc"
  type: "InnerProduct"
  bottom: "loss2/conv"
  top: "loss2/fc"
  param {
    lr_mult: 1
    decay_mult: 1
  }
  param {
    lr_mult: 2
    decay_mult: 0
  }
  inner_product_param {
    num_output: 1024
    weight_filler {
      type: "xavier"
      std: 0.02
    }
    bias_filler {
      type: "constant"
      value: 0.2
    }
  }
}
layer {
  name: "loss2/relu_fc"
  type: "ReLU"
  bottom: "loss2/fc"
  top: "loss2/fc"
}
layer {
  name: "loss2/drop_fc"
  type: "Dropout"
  bottom: "loss2/fc"
  top: "loss2/fc"
  dropout_param {
    dropout_ratio: 0.7
  }
}
layer {
  name: "loss2/classifier_plantvillage"
  type: "InnerProduct"
  bottom: "loss2/fc"
  top: "loss2/classifier_plantvillage"
  param {
    lr_mult: 1
    decay_mult: 1
  }
  param {
    lr_mult: 2
    decay_mult: 0
  }
  inner_product_param {
    num_output: 38
    weight_filler {
      type: "xavier"
      std: 0.0009765625
    }
    bias_filler {
      type: "constant"
      value: 0
    }
  }
}
layer {
  name: "inception_4e/1x1"
  type: "Convolution"
  bottom: "inception_4d/output"
  top: "inception_4e/1x1"
  param {
    lr_mult: 1
    decay_mult: 1
  }
  param {
    lr_mult: 2
    decay_mult: 0
  }
  convolution_param {
    num_output: 256
    kernel_size: 1
    weight_filler {
      type: "xavier"
      std: 0.03
    }
    bias_filler {
      type: "constant"
      value: 0.2
    }
  }
}
layer {
  name: "inception_4e/relu_1x1"
  type: "ReLU"
  bottom: "inception_4e/1x1"
  top: "inception_4e/1x1"
}
layer {
  name: "inception_4e/3x3_reduce"
  type: "Convolution"
  bottom: "inception_4d/output"
  top: "inception_4e/3x3_reduce"
  param {
    lr_mult: 1
    decay_mult: 1
  }
  param {
    lr_mult: 2
    decay_mult: 0
  }
  convolution_param {
    num_output: 160
    kernel_size: 1
    weight_filler {
      type: "xavier"
      std: 0.09
    }
    bias_filler {
      type: "constant"
      value: 0.2
    }
  }
}
layer {
  name: "inception_4e/relu_3x3_reduce"
  type: "ReLU"
  bottom: "inception_4e/3x3_reduce"
  top: "inception_4e/3x3_reduce"
}
layer {
  name: "inception_4e/3x3"
  type: "Convolution"
  bottom: "inception_4e/3x3_reduce"
  top: "inception_4e/3x3"
  param {
    lr_mult: 1
    decay_mult: 1
  }
  param {
    lr_mult: 2
    decay_mult: 0
  }
  convolution_param {
    num_output: 320
    pad: 1
    kernel_size: 3
    weight_filler {
      type: "xavier"
      std: 0.03
    }
    bias_filler {
      type: "constant"
      value: 0.2
    }
  }
}
layer {
  name: "inception_4e/relu_3x3"
  type: "ReLU"
  bottom: "inception_4e/3x3"
  top: "inception_4e/3x3"
}
layer {
  name: "inception_4e/5x5_reduce"
  type: "Convolution"
  bottom: "inception_4d/output"
  top: "inception_4e/5x5_reduce"
  param {
    lr_mult: 1
    decay_mult: 1
  }
  param {
    lr_mult: 2
    decay_mult: 0
  }
  convolution_param {
    num_output: 32
    kernel_size: 1
    weight_filler {
      type: "xavier"
      std: 0.2
    }
    bias_filler {
      type: "constant"
      value: 0.2
    }
  }
}
layer {
  name: "inception_4e/relu_5x5_reduce"
  type: "ReLU"
  bottom: "inception_4e/5x5_reduce"
  top: "inception_4e/5x5_reduce"
}
layer {
  name: "inception_4e/5x5"
  type: "Convolution"
  bottom: "inception_4e/5x5_reduce"
  top: "inception_4e/
I0403 15:50:26.712898 11508 layer_factory.hpp:77] Creating layer data
I0403 15:50:26.713511 11508 net.cpp:91] Creating Layer data
I0403 15:50:26.713541 11508 net.cpp:399] data -> data
I0403 15:50:26.713589 11508 net.cpp:399] data -> label
I0403 15:50:26.713626 11508 data_transformer.cpp:25] Loading mean file from: /home/mohanty/data/final_dataset/lmdb/segmented-80-20/mean.binaryproto
I0403 15:50:26.716255 11512 db_lmdb.cpp:38] Opened lmdb /home/mohanty/data/final_dataset/lmdb/segmented-80-20/test_db
I0403 15:50:26.726155 11508 data_layer.cpp:41] output data size: 24,3,224,224
I0403 15:50:26.753171 11508 net.cpp:141] Setting up data
I0403 15:50:26.753257 11508 net.cpp:148] Top shape: 24 3 224 224 (3612672)
I0403 15:50:26.753279 11508 net.cpp:148] Top shape: 24 (24)
I0403 15:50:26.753294 11508 net.cpp:156] Memory required for data: 14450784
I0403 15:50:26.753321 11508 layer_factory.hpp:77] Creating layer label_data_1_split
I0403 15:50:26.753350 11508 net.cpp:91] Creating Layer label_data_1_split
I0403 15:50:26.753370 11508 net.cpp:425] label_data_1_split <- label
I0403 15:50:26.753401 11508 net.cpp:399] label_data_1_split -> label_data_1_split_0
I0403 15:50:26.753429 11508 net.cpp:399] label_data_1_split -> label_data_1_split_1
I0403 15:50:26.753451 11508 net.cpp:399] label_data_1_split -> label_data_1_split_2
I0403 15:50:26.753473 11508 net.cpp:399] label_data_1_split -> label_data_1_split_3
I0403 15:50:26.753494 11508 net.cpp:399] label_data_1_split -> label_data_1_split_4
I0403 15:50:26.753514 11508 net.cpp:399] label_data_1_split -> label_data_1_split_5
I0403 15:50:26.753535 11508 net.cpp:399] label_data_1_split -> label_data_1_split_6
I0403 15:50:26.753556 11508 net.cpp:399] label_data_1_split -> label_data_1_split_7
I0403 15:50:26.753576 11508 net.cpp:399] label_data_1_split -> label_data_1_split_8
I0403 15:50:26.753597 11508 net.cpp:399] label_data_1_split -> label_data_1_split_9
I0403 15:50:26.753712 11508 net.cpp:141] Setting up label_data_1_split
I0403 15:50:26.753736 11508 net.cpp:148] Top shape: 24 (24)
I0403 15:50:26.753754 11508 net.cpp:148] Top shape: 24 (24)
I0403 15:50:26.753772 11508 net.cpp:148] Top shape: 24 (24)
I0403 15:50:26.753788 11508 net.cpp:148] Top shape: 24 (24)
I0403 15:50:26.753805 11508 net.cpp:148] Top shape: 24 (24)
I0403 15:50:26.753823 11508 net.cpp:148] Top shape: 24 (24)
I0403 15:50:26.753839 11508 net.cpp:148] Top shape: 24 (24)
I0403 15:50:26.753857 11508 net.cpp:148] Top shape: 24 (24)
I0403 15:50:26.753875 11508 net.cpp:148] Top shape: 24 (24)
I0403 15:50:26.753891 11508 net.cpp:148] Top shape: 24 (24)
I0403 15:50:26.753936 11508 net.cpp:156] Memory required for data: 14451744
I0403 15:50:26.753952 11508 layer_factory.hpp:77] Creating layer conv1/7x7_s2
I0403 15:50:26.753988 11508 net.cpp:91] Creating Layer conv1/7x7_s2
I0403 15:50:26.754009 11508 net.cpp:425] conv1/7x7_s2 <- data
I0403 15:50:26.754029 11508 net.cpp:399] conv1/7x7_s2 -> conv1/7x7_s2
I0403 15:50:26.893292 11508 net.cpp:141] Setting up conv1/7x7_s2
I0403 15:50:26.893376 11508 net.cpp:148] Top shape: 24 64 112 112 (19267584)
I0403 15:50:26.893393 11508 net.cpp:156] Memory required for data: 91522080
I0403 15:50:26.893424 11508 layer_factory.hpp:77] Creating layer conv1/relu_7x7
I0403 15:50:26.893451 11508 net.cpp:91] Creating Layer conv1/relu_7x7
I0403 15:50:26.893471 11508 net.cpp:425] conv1/relu_7x7 <- conv1/7x7_s2
I0403 15:50:26.893489 11508 net.cpp:386] conv1/relu_7x7 -> conv1/7x7_s2 (in-place)
I0403 15:50:26.893774 11508 net.cpp:141] Setting up conv1/relu_7x7
I0403 15:50:26.893812 11508 net.cpp:148] Top shape: 24 64 112 112 (19267584)
I0403 15:50:26.893828 11508 net.cpp:156] Memory required for data: 168592416
I0403 15:50:26.893843 11508 layer_factory.hpp:77] Creating layer pool1/3x3_s2
I0403 15:50:26.893867 11508 net.cpp:91] Creating Layer pool1/3x3_s2
I0403 15:50:26.893885 11508 net.cpp:425] pool1/3x3_s2 <- conv1/7x7_s2
I0403 15:50:26.893904 11508 net.cpp:399] pool1/3x3_s2 -> pool1/3x3_s2
I0403 15:50:26.893980 11508 net.cpp:141] Setting up pool1/3x3_s2
I0403 15:50:26.894004 11508 net.cpp:148] Top shape: 24 64 56 56 (4816896)
I0403 15:50:26.894021 11508 net.cpp:156] Memory required for data: 187860000
I0403 15:50:26.894034 11508 layer_factory.hpp:77] Creating layer pool1/norm1
I0403 15:50:26.894059 11508 net.cpp:91] Creating Layer pool1/norm1
I0403 15:50:26.894078 11508 net.cpp:425] pool1/norm1 <- pool1/3x3_s2
I0403 15:50:26.894095 11508 net.cpp:399] pool1/norm1 -> pool1/norm1
I0403 15:50:26.894392 11508 net.cpp:141] Setting up pool1/norm1
I0403 15:50:26.894418 11508 net.cpp:148] Top shape: 24 64 56 56 (4816896)
I0403 15:50:26.894433 11508 net.cpp:156] Memory required for data: 207127584
I0403 15:50:26.894449 11508 layer_factory.hpp:77] Creating layer conv2/3x3_reduce
I0403 15:50:26.894475 11508 net.cpp:91] Creating Layer conv2/3x3_reduce
I0403 15:50:26.894492 11508 net.cpp:425] conv2/3x3_reduce <- pool1/norm1
I0403 15:50:26.894511 11508 net.cpp:399] conv2/3x3_reduce -> conv2/3x3_reduce
I0403 15:50:26.896028 11508 net.cpp:141] Setting up conv2/3x3_reduce
I0403 15:50:26.896056 11508 net.cpp:148] Top shape: 24 64 56 56 (4816896)
I0403 15:50:26.896072 11508 net.cpp:156] Memory required for data: 226395168
I0403 15:50:26.896095 11508 layer_factory.hpp:77] Creating layer conv2/relu_3x3_reduce
I0403 15:50:26.896114 11508 net.cpp:91] Creating Layer conv2/relu_3x3_reduce
I0403 15:50:26.896131 11508 net.cpp:425] conv2/relu_3x3_reduce <- conv2/3x3_reduce
I0403 15:50:26.896149 11508 net.cpp:386] conv2/relu_3x3_reduce -> conv2/3x3_reduce (in-place)
I0403 15:50:26.896445 11508 net.cpp:141] Setting up conv2/relu_3x3_reduce
I0403 15:50:26.896473 11508 net.cpp:148] Top shape: 24 64 56 56 (4816896)
I0403 15:50:26.896489 11508 net.cpp:156] Memory required for data: 245662752
I0403 15:50:26.896507 11508 layer_factory.hpp:77] Creating layer conv2/3x3
I0403 15:50:26.896533 11508 net.cpp:91] Creating Layer conv2/3x3
I0403 15:50:26.896564 11508 net.cpp:425] conv2/3x3 <- conv2/3x3_reduce
I0403 15:50:26.896582 11508 net.cpp:399] conv2/3x3 -> conv2/3x3
I0403 15:50:26.899097 11508 net.cpp:141] Setting up conv2/3x3
I0403 15:50:26.899128 11508 net.cpp:148] Top shape: 24 192 56 56 (14450688)
I0403 15:50:26.899145 11508 net.cpp:156] Memory required for data: 303465504
I0403 15:50:26.899166 11508 layer_factory.hpp:77] Creating layer conv2/relu_3x3
I0403 15:50:26.899185 11508 net.cpp:91] Creating Layer conv2/relu_3x3
I0403 15:50:26.899204 11508 net.cpp:425] conv2/relu_3x3 <- conv2/3x3
I0403 15:50:26.899222 11508 net.cpp:386] conv2/relu_3x3 -> conv2/3x3 (in-place)
I0403 15:50:26.899410 11508 net.cpp:141] Setting up conv2/relu_3x3
I0403 15:50:26.899435 11508 net.cpp:148] Top shape: 24 192 56 56 (14450688)
I0403 15:50:26.899480 11508 net.cpp:156] Memory required for data: 361268256
I0403 15:50:26.899497 11508 layer_factory.hpp:77] Creating layer conv2/norm2
I0403 15:50:26.899518 11508 net.cpp:91] Creating Layer conv2/norm2
I0403 15:50:26.899535 11508 net.cpp:425] conv2/norm2 <- conv2/3x3
I0403 15:50:26.899564 11508 net.cpp:399] conv2/norm2 -> conv2/norm2
I0403 15:50:26.899860 11508 net.cpp:141] Setting up conv2/norm2
I0403 15:50:26.899886 11508 net.cpp:148] Top shape: 24 192 56 56 (14450688)
I0403 15:50:26.899902 11508 net.cpp:156] Memory required for data: 419071008
I0403 15:50:26.899917 11508 layer_factory.hpp:77] Creating layer pool2/3x3_s2
I0403 15:50:26.899937 11508 net.cpp:91] Creating Layer pool2/3x3_s2
I0403 15:50:26.899955 11508 net.cpp:425] pool2/3x3_s2 <- conv2/norm2
I0403 15:50:26.899972 11508 net.cpp:399] pool2/3x3_s2 -> pool2/3x3_s2
I0403 15:50:26.900030 11508 net.cpp:141] Setting up pool2/3x3_s2
I0403 15:50:26.900053 11508 net.cpp:148] Top shape: 24 192 28 28 (3612672)
I0403 15:50:26.900068 11508 net.cpp:156] Memory required for data: 433521696
I0403 15:50:26.900082 11508 layer_factory.hpp:77] Creating layer pool2/3x3_s2_pool2/3x3_s2_0_split
I0403 15:50:26.900099 11508 net.cpp:91] Creating Layer pool2/3x3_s2_pool2/3x3_s2_0_split
I0403 15:50:26.900115 11508 net.cpp:425] pool2/3x3_s2_pool2/3x3_s2_0_split <- pool2/3x3_s2
I0403 15:50:26.900135 11508 net.cpp:399] pool2/3x3_s2_pool2/3x3_s2_0_split -> pool2/3x3_s2_pool2/3x3_s2_0_split_0
I0403 15:50:26.900162 11508 net.cpp:399] pool2/3x3_s2_pool2/3x3_s2_0_split -> pool2/3x3_s2_pool2/3x3_s2_0_split_1
I0403 15:50:26.900187 11508 net.cpp:399] pool2/3x3_s2_pool2/3x3_s2_0_split -> pool2/3x3_s2_pool2/3x3_s2_0_split_2
I0403 15:50:26.900207 11508 net.cpp:399] pool2/3x3_s2_pool2/3x3_s2_0_split -> pool2/3x3_s2_pool2/3x3_s2_0_split_3
I0403 15:50:26.900286 11508 net.cpp:141] Setting up pool2/3x3_s2_pool2/3x3_s2_0_split
I0403 15:50:26.900311 11508 net.cpp:148] Top shape: 24 192 28 28 (3612672)
I0403 15:50:26.900329 11508 net.cpp:148] Top shape: 24 192 28 28 (3612672)
I0403 15:50:26.900346 11508 net.cpp:148] Top shape: 24 192 28 28 (3612672)
I0403 15:50:26.900362 11508 net.cpp:148] Top shape: 24 192 28 28 (3612672)
I0403 15:50:26.900375 11508 net.cpp:156] Memory required for data: 491324448
I0403 15:50:26.900390 11508 layer_factory.hpp:77] Creating layer inception_3a/1x1
I0403 15:50:26.900413 11508 net.cpp:91] Creating Layer inception_3a/1x1
I0403 15:50:26.900431 11508 net.cpp:425] inception_3a/1x1 <- pool2/3x3_s2_pool2/3x3_s2_0_split_0
I0403 15:50:26.900454 11508 net.cpp:399] inception_3a/1x1 -> inception_3a/1x1
I0403 15:50:26.902020 11508 net.cpp:141] Setting up inception_3a/1x1
I0403 15:50:26.902048 11508 net.cpp:148] Top shape: 24 64 28 28 (1204224)
I0403 15:50:26.902068 11508 net.cpp:156] Memory required for data: 496141344
I0403 15:50:26.902086 11508 layer_factory.hpp:77] Creating layer inception_3a/relu_1x1
I0403 15:50:26.902106 11508 net.cpp:91] Creating Layer inception_3a/relu_1x1
I0403 15:50:26.902122 11508 net.cpp:425] inception_3a/relu_1x1 <- inception_3a/1x1
I0403 15:50:26.902151 11508 net.cpp:386] inception_3a/relu_1x1 -> inception_3a/1x1 (in-place)
I0403 15:50:26.902343 11508 net.cpp:141] Setting up inception_3a/relu_1x1
I0403 15:50:26.902379 11508 net.cpp:148] Top shape: 24 64 28 28 (1204224)
I0403 15:50:26.902398 11508 net.cpp:156] Memory required for data: 500958240
I0403 15:50:26.902415 11508 layer_factory.hpp:77] Creating layer inception_3a/3x3_reduce
I0403 15:50:26.902451 11508 net.cpp:91] Creating Layer inception_3a/3x3_reduce
I0403 15:50:26.902468 11508 net.cpp:425] inception_3a/3x3_reduce <- pool2/3x3_s2_pool2/3x3_s2_0_split_1
I0403 15:50:26.902487 11508 net.cpp:399] inception_3a/3x3_reduce -> inception_3a/3x3_reduce
I0403 15:50:26.904278 11508 net.cpp:141] Setting up inception_3a/3x3_reduce
I0403 15:50:26.904306 11508 net.cpp:148] Top shape: 24 96 28 28 (1806336)
I0403 15:50:26.904322 11508 net.cpp:156] Memory required for data: 508183584
I0403 15:50:26.904343 11508 layer_factory.hpp:77] Creating layer inception_3a/relu_3x3_reduce
I0403 15:50:26.904379 11508 net.cpp:91] Creating Layer inception_3a/relu_3x3_reduce
I0403 15:50:26.904397 11508 net.cpp:425] inception_3a/relu_3x3_reduce <- inception_3a/3x3_reduce
I0403 15:50:26.904418 11508 net.cpp:386] inception_3a/relu_3x3_reduce -> inception_3a/3x3_reduce (in-place)
I0403 15:50:26.904605 11508 net.cpp:141] Setting up inception_3a/relu_3x3_reduce
I0403 15:50:26.904631 11508 net.cpp:148] Top shape: 24 96 28 28 (1806336)
I0403 15:50:26.904646 11508 net.cpp:156] Memory required for data: 515408928
I0403 15:50:26.904662 11508 layer_factory.hpp:77] Creating layer inception_3a/3x3
I0403 15:50:26.904685 11508 net.cpp:91] Creating Layer inception_3a/3x3
I0403 15:50:26.904703 11508 net.cpp:425] inception_3a/3x3 <- inception_3a/3x3_reduce
I0403 15:50:26.904726 11508 net.cpp:399] inception_3a/3x3 -> inception_3a/3x3
I0403 15:50:26.906430 11508 net.cpp:141] Setting up inception_3a/3x3
I0403 15:50:26.906473 11508 net.cpp:148] Top shape: 24 128 28 28 (2408448)
I0403 15:50:26.906491 11508 net.cpp:156] Memory required for data: 525042720
I0403 15:50:26.906509 11508 layer_factory.hpp:77] Creating layer inception_3a/relu_3x3
I0403 15:50:26.906529 11508 net.cpp:91] Creating Layer inception_3a/relu_3x3
I0403 15:50:26.906558 11508 net.cpp:425] inception_3a/relu_3x3 <- inception_3a/3x3
I0403 15:50:26.906577 11508 net.cpp:386] inception_3a/relu_3x3 -> inception_3a/3x3 (in-place)
I0403 15:50:26.906880 11508 net.cpp:141] Setting up inception_3a/relu_3x3
I0403 15:50:26.906909 11508 net.cpp:148] Top shape: 24 128 28 28 (2408448)
I0403 15:50:26.906925 11508 net.cpp:156] Memory required for data: 534676512
I0403 15:50:26.906940 11508 layer_factory.hpp:77] Creating layer inception_3a/5x5_reduce
I0403 15:50:26.906962 11508 net.cpp:91] Creating Layer inception_3a/5x5_reduce
I0403 15:50:26.906983 11508 net.cpp:425] inception_3a/5x5_reduce <- pool2/3x3_s2_pool2/3x3_s2_0_split_2
I0403 15:50:26.907003 11508 net.cpp:399] inception_3a/5x5_reduce -> inception_3a/5x5_reduce
I0403 15:50:26.908025 11508 net.cpp:141] Setting up inception_3a/5x5_reduce
I0403 15:50:26.908051 11508 net.cpp:148] Top shape: 24 16 28 28 (301056)
I0403 15:50:26.908066 11508 net.cpp:156] Memory required for data: 535880736
I0403 15:50:26.908085 11508 layer_factory.hpp:77] Creating layer inception_3a/relu_5x5_reduce
I0403 15:50:26.908103 11508 net.cpp:91] Creating Layer inception_3a/relu_5x5_reduce
I0403 15:50:26.908119 11508 net.cpp:425] inception_3a/relu_5x5_reduce <- inception_3a/5x5_reduce
I0403 15:50:26.908139 11508 net.cpp:386] inception_3a/relu_5x5_reduce -> inception_3a/5x5_reduce (in-place)
I0403 15:50:26.908428 11508 net.cpp:141] Setting up inception_3a/relu_5x5_reduce
I0403 15:50:26.908454 11508 net.cpp:148] Top shape: 24 16 28 28 (301056)
I0403 15:50:26.908469 11508 net.cpp:156] Memory required for data: 537084960
I0403 15:50:26.908484 11508 layer_factory.hpp:77] Creating layer inception_3a/5x5
I0403 15:50:26.908507 11508 net.cpp:91] Creating Layer inception_3a/5x5
I0403 15:50:26.908524 11508 net.cpp:425] inception_3a/5x5 <- inception_3a/5x5_reduce
I0403 15:50:26.908546 11508 net.cpp:399] inception_3a/5x5 -> inception_3a/5x5
I0403 15:50:26.909585 11508 net.cpp:141] Setting up inception_3a/5x5
I0403 15:50:26.909613 11508 net.cpp:148] Top shape: 24 32 28 28 (602112)
I0403 15:50:26.909631 11508 net.cpp:156] Memory required for data: 539493408
I0403 15:50:26.909649 11508 layer_factory.hpp:77] Creating layer inception_3a/relu_5x5
I0403 15:50:26.909669 11508 net.cpp:91] Creating Layer inception_3a/relu_5x5
I0403 15:50:26.909687 11508 net.cpp:425] inception_3a/relu_5x5 <- inception_3a/5x5
I0403 15:50:26.909703 11508 net.cpp:386] inception_3a/relu_5x5 -> inception_3a/5x5 (in-place)
I0403 15:50:26.909878 11508 net.cpp:141] Setting up inception_3a/relu_5x5
I0403 15:50:26.909901 11508 net.cpp:148] Top shape: 24 32 28 28 (602112)
I0403 15:50:26.909916 11508 net.cpp:156] Memory required for data: 541901856
I0403 15:50:26.909931 11508 layer_factory.hpp:77] Creating layer inception_3a/pool
I0403 15:50:26.909950 11508 net.cpp:91] Creating Layer inception_3a/pool
I0403 15:50:26.909982 11508 net.cpp:425] inception_3a/pool <- pool2/3x3_s2_pool2/3x3_s2_0_split_3
I0403 15:50:26.910004 11508 net.cpp:399] inception_3a/pool -> inception_3a/pool
I0403 15:50:26.910060 11508 net.cpp:141] Setting up inception_3a/pool
I0403 15:50:26.910086 11508 net.cpp:148] Top shape: 24 192 28 28 (3612672)
I0403 15:50:26.910102 11508 net.cpp:156] Memory required for data: 556352544
I0403 15:50:26.910118 11508 layer_factory.hpp:77] Creating layer inception_3a/pool_proj
I0403 15:50:26.910140 11508 net.cpp:91] Creating Layer inception_3a/pool_proj
I0403 15:50:26.910158 11508 net.cpp:425] inception_3a/pool_proj <- inception_3a/pool
I0403 15:50:26.910176 11508 net.cpp:399] inception_3a/pool_proj -> inception_3a/pool_proj
I0403 15:50:26.911160 11508 net.cpp:141] Setting up inception_3a/pool_proj
I0403 15:50:26.911201 11508 net.cpp:148] Top shape: 24 32 28 28 (602112)
I0403 15:50:26.911217 11508 net.cpp:156] Memory required for data: 558760992
I0403 15:50:26.911242 11508 layer_factory.hpp:77] Creating layer inception_3a/relu_pool_proj
I0403 15:50:26.911262 11508 net.cpp:91] Creating Layer inception_3a/relu_pool_proj
I0403 15:50:26.911278 11508 net.cpp:425] inception_3a/relu_pool_proj <- inception_3a/pool_proj
I0403 15:50:26.911298 11508 net.cpp:386] inception_3a/relu_pool_proj -> inception_3a/pool_proj (in-place)
I0403 15:50:26.911584 11508 net.cpp:141] Setting up inception_3a/relu_pool_proj
I0403 15:50:26.911613 11508 net.cpp:148] Top shape: 24 32 28 28 (602112)
I0403 15:50:26.911629 11508 net.cpp:156] Memory required for data: 561169440
I0403 15:50:26.911644 11508 layer_factory.hpp:77] Creating layer inception_3a/output
I0403 15:50:26.911662 11508 net.cpp:91] Creating Layer inception_3a/output
I0403 15:50:26.911679 11508 net.cpp:425] inception_3a/output <- inception_3a/1x1
I0403 15:50:26.911695 11508 net.cpp:425] inception_3a/output <- inception_3a/3x3
I0403 15:50:26.911711 11508 net.cpp:425] inception_3a/output <- inception_3a/5x5
I0403 15:50:26.911727 11508 net.cpp:425] inception_3a/output <- inception_3a/pool_proj
I0403 15:50:26.911744 11508 net.cpp:399] inception_3a/output -> inception_3a/output
I0403 15:50:26.911792 11508 net.cpp:141] Setting up inception_3a/output
I0403 15:50:26.911814 11508 net.cpp:148] Top shape: 24 256 28 28 (4816896)
I0403 15:50:26.911829 11508 net.cpp:156] Memory required for data: 580437024
I0403 15:50:26.911844 11508 layer_factory.hpp:77] Creating layer inception_3a/output_inception_3a/output_0_split
I0403 15:50:26.911864 11508 net.cpp:91] Creating Layer inception_3a/output_inception_3a/output_0_split
I0403 15:50:26.911880 11508 net.cpp:425] inception_3a/output_inception_3a/output_0_split <- inception_3a/output
I0403 15:50:26.911909 11508 net.cpp:399] inception_3a/output_inception_3a/output_0_split -> inception_3a/output_inception_3a/output_0_split_0
I0403 15:50:26.911931 11508 net.cpp:399] inception_3a/output_inception_3a/output_0_split -> inception_3a/output_inception_3a/output_0_split_1
I0403 15:50:26.911957 11508 net.cpp:399] inception_3a/output_inception_3a/output_0_split -> inception_3a/output_inception_3a/output_0_split_2
I0403 15:50:26.911983 11508 net.cpp:399] inception_3a/output_inception_3a/output_0_split -> inception_3a/output_inception_3a/output_0_split_3
I0403 15:50:26.912060 11508 net.cpp:141] Setting up inception_3a/output_inception_3a/output_0_split
I0403 15:50:26.912083 11508 net.cpp:148] Top shape: 24 256 28 28 (4816896)
I0403 15:50:26.912101 11508 net.cpp:148] Top shape: 24 256 28 28 (4816896)
I0403 15:50:26.912129 11508 net.cpp:148] Top shape: 24 256 28 28 (4816896)
I0403 15:50:26.912147 11508 net.cpp:148] Top shape: 24 256 28 28 (4816896)
I0403 15:50:26.912161 11508 net.cpp:156] Memory required for data: 657507360
I0403 15:50:26.912178 11508 layer_factory.hpp:77] Creating layer inception_3b/1x1
I0403 15:50:26.912214 11508 net.cpp:91] Creating Layer inception_3b/1x1
I0403 15:50:26.912232 11508 net.cpp:425] inception_3b/1x1 <- inception_3a/output_inception_3a/output_0_split_0
I0403 15:50:26.912251 11508 net.cpp:399] inception_3b/1x1 -> inception_3b/1x1
I0403 15:50:26.913394 11508 net.cpp:141] Setting up inception_3b/1x1
I0403 15:50:26.913431 11508 net.cpp:148] Top shape: 24 128 28 28 (2408448)
I0403 15:50:26.913449 11508 net.cpp:156] Memory required for data: 667141152
I0403 15:50:26.913466 11508 layer_factory.hpp:77] Creating layer inception_3b/relu_1x1
I0403 15:50:26.913486 11508 net.cpp:91] Creating Layer inception_3b/relu_1x1
I0403 15:50:26.913503 11508 net.cpp:425] inception_3b/relu_1x1 <- inception_3b/1x1
I0403 15:50:26.913522 11508 net.cpp:386] inception_3b/relu_1x1 -> inception_3b/1x1 (in-place)
I0403 15:50:26.913697 11508 net.cpp:141] Setting up inception_3b/relu_1x1
I0403 15:50:26.913722 11508 net.cpp:148] Top shape: 24 128 28 28 (2408448)
I0403 15:50:26.913739 11508 net.cpp:156] Memory required for data: 676774944
I0403 15:50:26.913754 11508 layer_factory.hpp:77] Creating layer inception_3b/3x3_reduce
I0403 15:50:26.913776 11508 net.cpp:91] Creating Layer inception_3b/3x3_reduce
I0403 15:50:26.913794 11508 net.cpp:425] inception_3b/3x3_reduce <- inception_3a/output_inception_3a/output_0_split_1
I0403 15:50:26.913813 11508 net.cpp:399] inception_3b/3x3_reduce -> inception_3b/3x3_reduce
I0403 15:50:26.914927 11508 net.cpp:141] Setting up inception_3b/3x3_reduce
I0403 15:50:26.914953 11508 net.cpp:148] Top shape: 24 128 28 28 (2408448)
I0403 15:50:26.914969 11508 net.cpp:156] Memory required for data: 686408736
I0403 15:50:26.914993 11508 layer_factory.hpp:77] Creating layer inception_3b/relu_3x3_reduce
I0403 15:50:26.915014 11508 net.cpp:91] Creating Layer inception_3b/relu_3x3_reduce
I0403 15:50:26.915030 11508 net.cpp:425] inception_3b/relu_3x3_reduce <- inception_3b/3x3_reduce
I0403 15:50:26.915048 11508 net.cpp:386] inception_3b/relu_3x3_reduce -> inception_3b/3x3_reduce (in-place)
I0403 15:50:26.915216 11508 net.cpp:141] Setting up inception_3b/relu_3x3_reduce
I0403 15:50:26.915242 11508 net.cpp:148] Top shape: 24 128 28 28 (2408448)
I0403 15:50:26.915258 11508 net.cpp:156] Memory required for data: 696042528
I0403 15:50:26.915273 11508 layer_factory.hpp:77] Creating layer inception_3b/3x3
I0403 15:50:26.915297 11508 net.cpp:91] Creating Layer inception_3b/3x3
I0403 15:50:26.915315 11508 net.cpp:425] inception_3b/3x3 <- inception_3b/3x3_reduce
I0403 15:50:26.915336 11508 net.cpp:399] inception_3b/3x3 -> inception_3b/3x3
I0403 15:50:26.918195 11508 net.cpp:141] Setting up inception_3b/3x3
I0403 15:50:26.918226 11508 net.cpp:148] Top shape: 24 192 28 28 (3612672)
I0403 15:50:26.918242 11508 net.cpp:156] Memory required for data: 710493216
I0403 15:50:26.918262 11508 layer_factory.hpp:77] Creating layer inception_3b/relu_3x3
I0403 15:50:26.918280 11508 net.cpp:91] Creating Layer inception_3b/relu_3x3
I0403 15:50:26.918298 11508 net.cpp:425] inception_3b/relu_3x3 <- inception_3b/3x3
I0403 15:50:26.918315 11508 net.cpp:386] inception_3b/relu_3x3 -> inception_3b/3x3 (in-place)
I0403 15:50:26.918583 11508 net.cpp:141] Setting up inception_3b/relu_3x3
I0403 15:50:26.918612 11508 net.cpp:148] Top shape: 24 192 28 28 (3612672)
I0403 15:50:26.918627 11508 net.cpp:156] Memory required for data: 724943904
I0403 15:50:26.918642 11508 layer_factory.hpp:77] Creating layer inception_3b/5x5_reduce
I0403 15:50:26.918664 11508 net.cpp:91] Creating Layer inception_3b/5x5_reduce
I0403 15:50:26.918681 11508 net.cpp:425] inception_3b/5x5_reduce <- inception_3a/output_inception_3a/output_0_split_2
I0403 15:50:26.918699 11508 net.cpp:399] inception_3b/5x5_reduce -> inception_3b/5x5_reduce
I0403 15:50:26.919786 11508 net.cpp:141] Setting up inception_3b/5x5_reduce
I0403 15:50:26.919816 11508 net.cpp:148] Top shape: 24 32 28 28 (602112)
I0403 15:50:26.919833 11508 net.cpp:156] Memory required for data: 727352352
I0403 15:50:26.919853 11508 layer_factory.hpp:77] Creating layer inception_3b/relu_5x5_reduce
I0403 15:50:26.919872 11508 net.cpp:91] Creating Layer inception_3b/relu_5x5_reduce
I0403 15:50:26.919888 11508 net.cpp:425] inception_3b/relu_5x5_reduce <- inception_3b/5x5_reduce
I0403 15:50:26.919919 11508 net.cpp:386] inception_3b/relu_5x5_reduce -> inception_3b/5x5_reduce (in-place)
I0403 15:50:26.920114 11508 net.cpp:141] Setting up inception_3b/relu_5x5_reduce
I0403 15:50:26.920137 11508 net.cpp:148] Top shape: 24 32 28 28 (602112)
I0403 15:50:26.920152 11508 net.cpp:156] Memory required for data: 729760800
I0403 15:50:26.920168 11508 layer_factory.hpp:77] Creating layer inception_3b/5x5
I0403 15:50:26.920191 11508 net.cpp:91] Creating Layer inception_3b/5x5
I0403 15:50:26.920209 11508 net.cpp:425] inception_3b/5x5 <- inception_3b/5x5_reduce
I0403 15:50:26.920230 11508 net.cpp:399] inception_3b/5x5 -> inception_3b/5x5
I0403 15:50:26.922178 11508 net.cpp:141] Setting up inception_3b/5x5
I0403 15:50:26.922207 11508 net.cpp:148] Top shape: 24 96 28 28 (1806336)
I0403 15:50:26.922224 11508 net.cpp:156] Memory required for data: 736986144
I0403 15:50:26.922241 11508 layer_factory.hpp:77] Creating layer inception_3b/relu_5x5
I0403 15:50:26.922262 11508 net.cpp:91] Creating Layer inception_3b/relu_5x5
I0403 15:50:26.922279 11508 net.cpp:425] inception_3b/relu_5x5 <- inception_3b/5x5
I0403 15:50:26.922297 11508 net.cpp:386] inception_3b/relu_5x5 -> inception_3b/5x5 (in-place)
I0403 15:50:26.922483 11508 net.cpp:141] Setting up inception_3b/relu_5x5
I0403 15:50:26.922508 11508 net.cpp:148] Top shape: 24 96 28 28 (1806336)
I0403 15:50:26.922523 11508 net.cpp:156] Memory required for data: 744211488
I0403 15:50:26.922538 11508 layer_factory.hpp:77] Creating layer inception_3b/pool
I0403 15:50:26.922555 11508 net.cpp:91] Creating Layer inception_3b/pool
I0403 15:50:26.922572 11508 net.cpp:425] inception_3b/pool <- inception_3a/output_inception_3a/output_0_split_3
I0403 15:50:26.922590 11508 net.cpp:399] inception_3b/pool -> inception_3b/pool
I0403 15:50:26.922644 11508 net.cpp:141] Setting up inception_3b/pool
I0403 15:50:26.922667 11508 net.cpp:148] Top shape: 24 256 28 28 (4816896)
I0403 15:50:26.922682 11508 net.cpp:156] Memory required for data: 763479072
I0403 15:50:26.922696 11508 layer_factory.hpp:77] Creating layer inception_3b/pool_proj
I0403 15:50:26.922718 11508 net.cpp:91] Creating Layer inception_3b/pool_proj
I0403 15:50:26.922735 11508 net.cpp:425] inception_3b/pool_proj <- inception_3b/pool
I0403 15:50:26.922756 11508 net.cpp:399] inception_3b/pool_proj -> inception_3b/pool_proj
I0403 15:50:26.923856 11508 net.cpp:141] Setting up inception_3b/pool_proj
I0403 15:50:26.923883 11508 net.cpp:148] Top shape: 24 64 28 28 (1204224)
I0403 15:50:26.923899 11508 net.cpp:156] Memory required for data: 768295968
I0403 15:50:26.923918 11508 layer_factory.hpp:77] Creating layer inception_3b/relu_pool_proj
I0403 15:50:26.923943 11508 net.cpp:91] Creating Layer inception_3b/relu_pool_proj
I0403 15:50:26.923959 11508 net.cpp:425] inception_3b/relu_pool_proj <- inception_3b/pool_proj
I0403 15:50:26.923981 11508 net.cpp:386] inception_3b/relu_pool_proj -> inception_3b/pool_proj (in-place)
I0403 15:50:26.924376 11508 net.cpp:141] Setting up inception_3b/relu_pool_proj
I0403 15:50:26.924402 11508 net.cpp:148] Top shape: 24 64 28 28 (1204224)
I0403 15:50:26.924417 11508 net.cpp:156] Memory required for data: 773112864
I0403 15:50:26.924432 11508 layer_factory.hpp:77] Creating layer inception_3b/output
I0403 15:50:26.924450 11508 net.cpp:91] Creating Layer inception_3b/output
I0403 15:50:26.924465 11508 net.cpp:425] inception_3b/output <- inception_3b/1x1
I0403 15:50:26.924482 11508 net.cpp:425] inception_3b/output <- inception_3b/3x3
I0403 15:50:26.924499 11508 net.cpp:425] inception_3b/output <- inception_3b/5x5
I0403 15:50:26.924515 11508 net.cpp:425] inception_3b/output <- inception_3b/pool_proj
I0403 15:50:26.924535 11508 net.cpp:399] inception_3b/output -> inception_3b/output
I0403 15:50:26.924577 11508 net.cpp:141] Setting up inception_3b/output
I0403 15:50:26.924602 11508 net.cpp:148] Top shape: 24 480 28 28 (9031680)
I0403 15:50:26.924618 11508 net.cpp:156] Memory required for data: 809239584
I0403 15:50:26.924633 11508 layer_factory.hpp:77] Creating layer pool3/3x3_s2
I0403 15:50:26.924651 11508 net.cpp:91] Creating Layer pool3/3x3_s2
I0403 15:50:26.924666 11508 net.cpp:425] pool3/3x3_s2 <- inception_3b/output
I0403 15:50:26.924710 11508 net.cpp:399] pool3/3x3_s2 -> pool3/3x3_s2
I0403 15:50:26.924770 11508 net.cpp:141] Setting up pool3/3x3_s2
I0403 15:50:26.924794 11508 net.cpp:148] Top shape: 24 480 14 14 (2257920)
I0403 15:50:26.924809 11508 net.cpp:156] Memory required for data: 818271264
I0403 15:50:26.924824 11508 layer_factory.hpp:77] Creating layer pool3/3x3_s2_pool3/3x3_s2_0_split
I0403 15:50:26.924842 11508 net.cpp:91] Creating Layer pool3/3x3_s2_pool3/3x3_s2_0_split
I0403 15:50:26.924870 11508 net.cpp:425] pool3/3x3_s2_pool3/3x3_s2_0_split <- pool3/3x3_s2
I0403 15:50:26.924890 11508 net.cpp:399] pool3/3x3_s2_pool3/3x3_s2_0_split -> pool3/3x3_s2_pool3/3x3_s2_0_split_0
I0403 15:50:26.924911 11508 net.cpp:399] pool3/3x3_s2_pool3/3x3_s2_0_split -> pool3/3x3_s2_pool3/3x3_s2_0_split_1
I0403 15:50:26.924932 11508 net.cpp:399] pool3/3x3_s2_pool3/3x3_s2_0_split -> pool3/3x3_s2_pool3/3x3_s2_0_split_2
I0403 15:50:26.924952 11508 net.cpp:399] pool3/3x3_s2_pool3/3x3_s2_0_split -> pool3/3x3_s2_pool3/3x3_s2_0_split_3
I0403 15:50:26.925050 11508 net.cpp:141] Setting up pool3/3x3_s2_pool3/3x3_s2_0_split
I0403 15:50:26.925073 11508 net.cpp:148] Top shape: 24 480 14 14 (2257920)
I0403 15:50:26.925091 11508 net.cpp:148] Top shape: 24 480 14 14 (2257920)
I0403 15:50:26.925107 11508 net.cpp:148] Top shape: 24 480 14 14 (2257920)
I0403 15:50:26.925122 11508 net.cpp:148] Top shape: 24 480 14 14 (2257920)
I0403 15:50:26.925137 11508 net.cpp:156] Memory required for data: 854397984
I0403 15:50:26.925163 11508 layer_factory.hpp:77] Creating layer inception_4a/1x1
I0403 15:50:26.925186 11508 net.cpp:91] Creating Layer inception_4a/1x1
I0403 15:50:26.925204 11508 net.cpp:425] inception_4a/1x1 <- pool3/3x3_s2_pool3/3x3_s2_0_split_0
I0403 15:50:26.925225 11508 net.cpp:399] inception_4a/1x1 -> inception_4a/1x1
I0403 15:50:26.926813 11508 net.cpp:141] Setting up inception_4a/1x1
I0403 15:50:26.926841 11508 net.cpp:148] Top shape: 24 192 14 14 (903168)
I0403 15:50:26.926856 11508 net.cpp:156] Memory required for data: 858010656
I0403 15:50:26.926873 11508 layer_factory.hpp:77] Creating layer inception_4a/relu_1x1
I0403 15:50:26.926894 11508 net.cpp:91] Creating Layer inception_4a/relu_1x1
I0403 15:50:26.926911 11508 net.cpp:425] inception_4a/relu_1x1 <- inception_4a/1x1
I0403 15:50:26.926928 11508 net.cpp:386] inception_4a/relu_1x1 -> inception_4a/1x1 (in-place)
I0403 15:50:26.927103 11508 net.cpp:141] Setting up inception_4a/relu_1x1
I0403 15:50:26.927129 11508 net.cpp:148] Top shape: 24 192 14 14 (903168)
I0403 15:50:26.927144 11508 net.cpp:156] Memory required for data: 861623328
I0403 15:50:26.927157 11508 layer_factory.hpp:77] Creating layer inception_4a/3x3_reduce
I0403 15:50:26.927182 11508 net.cpp:91] Creating Layer inception_4a/3x3_reduce
I0403 15:50:26.927211 11508 net.cpp:425] inception_4a/3x3_reduce <- pool3/3x3_s2_pool3/3x3_s2_0_split_1
I0403 15:50:26.927232 11508 net.cpp:399] inception_4a/3x3_reduce -> inception_4a/3x3_reduce
I0403 15:50:26.928566 11508 net.cpp:141] Setting up inception_4a/3x3_reduce
I0403 15:50:26.928594 11508 net.cpp:148] Top shape: 24 96 14 14 (451584)
I0403 15:50:26.928609 11508 net.cpp:156] Memory required for data: 863429664
I0403 15:50:26.928634 11508 layer_factory.hpp:77] Creating layer inception_4a/relu_3x3_reduce
I0403 15:50:26.928655 11508 net.cpp:91] Creating Layer inception_4a/relu_3x3_reduce
I0403 15:50:26.928673 11508 net.cpp:425] inception_4a/relu_3x3_reduce <- inception_4a/3x3_reduce
I0403 15:50:26.928692 11508 net.cpp:386] inception_4a/relu_3x3_reduce -> inception_4a/3x3_reduce (in-place)
I0403 15:50:26.928871 11508 net.cpp:141] Setting up inception_4a/relu_3x3_reduce
I0403 15:50:26.928910 11508 net.cpp:148] Top shape: 24 96 14 14 (451584)
I0403 15:50:26.928927 11508 net.cpp:156] Memory required for data: 865236000
I0403 15:50:26.928943 11508 layer_factory.hpp:77] Creating layer inception_4a/3x3
I0403 15:50:26.928967 11508 net.cpp:91] Creating Layer inception_4a/3x3
I0403 15:50:26.928997 11508 net.cpp:425] inception_4a/3x3 <- inception_4a/3x3_reduce
I0403 15:50:26.929023 11508 net.cpp:399] inception_4a/3x3 -> inception_4a/3x3
I0403 15:50:26.931805 11508 net.cpp:141] Setting up inception_4a/3x3
I0403 15:50:26.931834 11508 net.cpp:148] Top shape: 24 208 14 14 (978432)
I0403 15:50:26.931850 11508 net.cpp:156] Memory required for data: 869149728
I0403 15:50:26.931869 11508 layer_factory.hpp:77] Creating layer inception_4a/relu_3x3
I0403 15:50:26.931890 11508 net.cpp:91] Creating Layer inception_4a/relu_3x3
I0403 15:50:26.931908 11508 net.cpp:425] inception_4a/relu_3x3 <- inception_4a/3x3
I0403 15:50:26.931926 11508 net.cpp:386] inception_4a/relu_3x3 -> inception_4a/3x3 (in-place)
I0403 15:50:26.932220 11508 net.cpp:141] Setting up inception_4a/relu_3x3
I0403 15:50:26.932246 11508 net.cpp:148] Top shape: 24 208 14 14 (978432)
I0403 15:50:26.932262 11508 net.cpp:156] Memory required for data: 873063456
I0403 15:50:26.932277 11508 layer_factory.hpp:77] Creating layer inception_4a/5x5_reduce
I0403 15:50:26.932301 11508 net.cpp:91] Creating Layer inception_4a/5x5_reduce
I0403 15:50:26.932318 11508 net.cpp:425] inception_4a/5x5_reduce <- pool3/3x3_s2_pool3/3x3_s2_0_split_2
I0403 15:50:26.932339 11508 net.cpp:399] inception_4a/5x5_reduce -> inception_4a/5x5_reduce
I0403 15:50:26.933333 11508 net.cpp:141] Setting up inception_4a/5x5_reduce
I0403 15:50:26.933362 11508 net.cpp:148] Top shape: 24 16 14 14 (75264)
I0403 15:50:26.933379 11508 net.cpp:156] Memory required for data: 873364512
I0403 15:50:26.933398 11508 layer_factory.hpp:77] Creating layer inception_4a/relu_5x5_reduce
I0403 15:50:26.933415 11508 net.cpp:91] Creating Layer inception_4a/relu_5x5_reduce
I0403 15:50:26.933432 11508 net.cpp:425] inception_4a/relu_5x5_reduce <- inception_4a/5x5_reduce
I0403 15:50:26.933449 11508 net.cpp:386] inception_4a/relu_5x5_reduce -> inception_4a/5x5_reduce (in-place)
I0403 15:50:26.933624 11508 net.cpp:141] Setting up inception_4a/relu_5x5_reduce
I0403 15:50:26.933650 11508 net.cpp:148] Top shape: 24 16 14 14 (75264)
I0403 15:50:26.933665 11508 net.cpp:156] Memory required for data: 873665568
I0403 15:50:26.933679 11508 layer_factory.hpp:77] Creating layer inception_4a/5x5
I0403 15:50:26.933701 11508 net.cpp:91] Creating Layer inception_4a/5x5
I0403 15:50:26.933718 11508 net.cpp:425] inception_4a/5x5 <- inception_4a/5x5_reduce
I0403 15:50:26.933739 11508 net.cpp:399] inception_4a/5x5 -> inception_4a/5x5
I0403 15:50:26.934905 11508 net.cpp:141] Setting up inception_4a/5x5
I0403 15:50:26.934932 11508 net.cpp:148] Top shape: 24 48 14 14 (225792)
I0403 15:50:26.934948 11508 net.cpp:156] Memory required for data: 874568736
I0403 15:50:26.934967 11508 layer_factory.hpp:77] Creating layer inception_4a/relu_5x5
I0403 15:50:26.935003 11508 net.cpp:91] Creating Layer inception_4a/relu_5x5
I0403 15:50:26.935019 11508 net.cpp:425] inception_4a/relu_5x5 <- inception_4a/5x5
I0403 15:50:26.935039 11508 net.cpp:386] inception_4a/relu_5x5 -> inception_4a/5x5 (in-place)
I0403 15:50:26.935217 11508 net.cpp:141] Setting up inception_4a/relu_5x5
I0403 15:50:26.935242 11508 net.cpp:148] Top shape: 24 48 14 14 (225792)
I0403 15:50:26.935258 11508 net.cpp:156] Memory required for data: 875471904
I0403 15:50:26.935286 11508 layer_factory.hpp:77] Creating layer inception_4a/pool
I0403 15:50:26.935307 11508 net.cpp:91] Creating Layer inception_4a/pool
I0403 15:50:26.935323 11508 net.cpp:425] inception_4a/pool <- pool3/3x3_s2_pool3/3x3_s2_0_split_3
I0403 15:50:26.935341 11508 net.cpp:399] inception_4a/pool -> inception_4a/pool
I0403 15:50:26.935403 11508 net.cpp:141] Setting up inception_4a/pool
I0403 15:50:26.935427 11508 net.cpp:148] Top shape: 24 480 14 14 (2257920)
I0403 15:50:26.935442 11508 net.cpp:156] Memory required for data: 884503584
I0403 15:50:26.935458 11508 layer_factory.hpp:77] Creating layer inception_4a/pool_proj
I0403 15:50:26.935482 11508 net.cpp:91] Creating Layer inception_4a/pool_proj
I0403 15:50:26.935498 11508 net.cpp:425] inception_4a/pool_proj <- inception_4a/pool
I0403 15:50:26.935520 11508 net.cpp:399] inception_4a/pool_proj -> inception_4a/pool_proj
I0403 15:50:26.936739 11508 net.cpp:141] Setting up inception_4a/pool_proj
I0403 15:50:26.936769 11508 net.cpp:148] Top shape: 24 64 14 14 (301056)
I0403 15:50:26.936799 11508 net.cpp:156] Memory required for data: 885707808
I0403 15:50:26.936820 11508 layer_factory.hpp:77] Creating layer inception_4a/relu_pool_proj
I0403 15:50:26.936838 11508 net.cpp:91] Creating Layer inception_4a/relu_pool_proj
I0403 15:50:26.936856 11508 net.cpp:425] inception_4a/relu_pool_proj <- inception_4a/pool_proj
I0403 15:50:26.936877 11508 net.cpp:386] inception_4a/relu_pool_proj -> inception_4a/pool_proj (in-place)
I0403 15:50:26.937170 11508 net.cpp:141] Setting up inception_4a/relu_pool_proj
I0403 15:50:26.937196 11508 net.cpp:148] Top shape: 24 64 14 14 (301056)
I0403 15:50:26.937212 11508 net.cpp:156] Memory required for data: 886912032
I0403 15:50:26.937227 11508 layer_factory.hpp:77] Creating layer inception_4a/output
I0403 15:50:26.937245 11508 net.cpp:91] Creating Layer inception_4a/output
I0403 15:50:26.937261 11508 net.cpp:425] inception_4a/output <- inception_4a/1x1
I0403 15:50:26.937278 11508 net.cpp:425] inception_4a/output <- inception_4a/3x3
I0403 15:50:26.937294 11508 net.cpp:425] inception_4a/output <- inception_4a/5x5
I0403 15:50:26.937310 11508 net.cpp:425] inception_4a/output <- inception_4a/pool_proj
I0403 15:50:26.937330 11508 net.cpp:399] inception_4a/output -> inception_4a/output
I0403 15:50:26.937372 11508 net.cpp:141] Setting up inception_4a/output
I0403 15:50:26.937399 11508 net.cpp:148] Top shape: 24 512 14 14 (2408448)
I0403 15:50:26.937415 11508 net.cpp:156] Memory required for data: 896545824
I0403 15:50:26.937429 11508 layer_factory.hpp:77] Creating layer inception_4a/output_inception_4a/output_0_split
I0403 15:50:26.937448 11508 net.cpp:91] Creating Layer inception_4a/output_inception_4a/output_0_split
I0403 15:50:26.937463 11508 net.cpp:425] inception_4a/output_inception_4a/output_0_split <- inception_4a/output
I0403 15:50:26.937482 11508 net.cpp:399] inception_4a/output_inception_4a/output_0_split -> inception_4a/output_inception_4a/output_0_split_0
I0403 15:50:26.937504 11508 net.cpp:399] inception_4a/output_inception_4a/output_0_split -> inception_4a/output_inception_4a/output_0_split_1
I0403 15:50:26.937525 11508 net.cpp:399] inception_4a/output_inception_4a/output_0_split -> inception_4a/output_inception_4a/output_0_split_2
I0403 15:50:26.937546 11508 net.cpp:399] inception_4a/output_inception_4a/output_0_split -> inception_4a/output_inception_4a/output_0_split_3
I0403 15:50:26.937566 11508 net.cpp:399] inception_4a/output_inception_4a/output_0_split -> inception_4a/output_inception_4a/output_0_split_4
I0403 15:50:26.937669 11508 net.cpp:141] Setting up inception_4a/output_inception_4a/output_0_split
I0403 15:50:26.937695 11508 net.cpp:148] Top shape: 24 512 14 14 (2408448)
I0403 15:50:26.937713 11508 net.cpp:148] Top shape: 24 512 14 14 (2408448)
I0403 15:50:26.937729 11508 net.cpp:148] Top shape: 24 512 14 14 (2408448)
I0403 15:50:26.937746 11508 net.cpp:148] Top shape: 24 512 14 14 (2408448)
I0403 15:50:26.937762 11508 net.cpp:148] Top shape: 24 512 14 14 (2408448)
I0403 15:50:26.937775 11508 net.cpp:156] Memory required for data: 944714784
I0403 15:50:26.937791 11508 layer_factory.hpp:77] Creating layer loss1/ave_pool
I0403 15:50:26.937809 11508 net.cpp:91] Creating Layer loss1/ave_pool
I0403 15:50:26.937826 11508 net.cpp:425] loss1/ave_pool <- inception_4a/output_inception_4a/output_0_split_0
I0403 15:50:26.937844 11508 net.cpp:399] loss1/ave_pool -> loss1/ave_pool
I0403 15:50:26.938062 11508 net.cpp:141] Setting up loss1/ave_pool
I0403 15:50:26.938087 11508 net.cpp:148] Top shape: 24 512 4 4 (196608)
I0403 15:50:26.938102 11508 net.cpp:156] Memory required for data: 945501216
I0403 15:50:26.938117 11508 layer_factory.hpp:77] Creating layer loss1/conv
I0403 15:50:26.938143 11508 net.cpp:91] Creating Layer loss1/conv
I0403 15:50:26.938160 11508 net.cpp:425] loss1/conv <- loss1/ave_pool
I0403 15:50:26.938181 11508 net.cpp:399] loss1/conv -> loss1/conv
I0403 15:50:26.939559 11508 net.cpp:141] Setting up loss1/conv
I0403 15:50:26.939586 11508 net.cpp:148] Top shape: 24 128 4 4 (49152)
I0403 15:50:26.939618 11508 net.cpp:156] Memory required for data: 945697824
I0403 15:50:26.939638 11508 layer_factory.hpp:77] Creating layer loss1/relu_conv
I0403 15:50:26.939656 11508 net.cpp:91] Creating Layer loss1/relu_conv
I0403 15:50:26.939672 11508 net.cpp:425] loss1/relu_conv <- loss1/conv
I0403 15:50:26.939689 11508 net.cpp:386] loss1/relu_conv -> loss1/conv (in-place)
I0403 15:50:26.939968 11508 net.cpp:141] Setting up loss1/relu_conv
I0403 15:50:26.939998 11508 net.cpp:148] Top shape: 24 128 4 4 (49152)
I0403 15:50:26.940017 11508 net.cpp:156] Memory required for data: 945894432
I0403 15:50:26.940032 11508 layer_factory.hpp:77] Creating layer loss1/fc
I0403 15:50:26.940057 11508 net.cpp:91] Creating Layer loss1/fc
I0403 15:50:26.940073 11508 net.cpp:425] loss1/fc <- loss1/conv
I0403 15:50:26.940094 11508 net.cpp:399] loss1/fc -> loss1/fc
I0403 15:50:26.958364 11508 net.cpp:141] Setting up loss1/fc
I0403 15:50:26.958396 11508 net.cpp:148] Top shape: 24 1024 (24576)
I0403 15:50:26.958415 11508 net.cpp:156] Memory required for data: 945992736
I0403 15:50:26.958434 11508 layer_factory.hpp:77] Creating layer loss1/relu_fc
I0403 15:50:26.958456 11508 net.cpp:91] Creating Layer loss1/relu_fc
I0403 15:50:26.958472 11508 net.cpp:425] loss1/relu_fc <- loss1/fc
I0403 15:50:26.958489 11508 net.cpp:386] loss1/relu_fc -> loss1/fc (in-place)
I0403 15:50:26.958678 11508 net.cpp:141] Setting up loss1/relu_fc
I0403 15:50:26.958703 11508 net.cpp:148] Top shape: 24 1024 (24576)
I0403 15:50:26.958717 11508 net.cpp:156] Memory required for data: 946091040
I0403 15:50:26.958734 11508 layer_factory.hpp:77] Creating layer loss1/drop_fc
I0403 15:50:26.958763 11508 net.cpp:91] Creating Layer loss1/drop_fc
I0403 15:50:26.958781 11508 net.cpp:425] loss1/drop_fc <- loss1/fc
I0403 15:50:26.958798 11508 net.cpp:386] loss1/drop_fc -> loss1/fc (in-place)
I0403 15:50:26.958848 11508 net.cpp:141] Setting up loss1/drop_fc
I0403 15:50:26.958874 11508 net.cpp:148] Top shape: 24 1024 (24576)
I0403 15:50:26.958891 11508 net.cpp:156] Memory required for data: 946189344
I0403 15:50:26.958906 11508 layer_factory.hpp:77] Creating layer loss1/classifier_plantvillage
I0403 15:50:26.958933 11508 net.cpp:91] Creating Layer loss1/classifier_plantvillage
I0403 15:50:26.958950 11508 net.cpp:425] loss1/classifier_plantvillage <- loss1/fc
I0403 15:50:26.958971 11508 net.cpp:399] loss1/classifier_plantvillage -> loss1/classifier_plantvillage
I0403 15:50:26.959879 11508 net.cpp:141] Setting up loss1/classifier_plantvillage
I0403 15:50:26.959921 11508 net.cpp:148] Top shape: 24 38 (912)
I0403 15:50:26.959939 11508 net.cpp:156] Memory required for data: 946192992
I0403 15:50:26.959957 11508 layer_factory.hpp:77] Creating layer loss1/classifier_plantvillage_loss1/classifier_plantvillage_0_split
I0403 15:50:26.959975 11508 net.cpp:91] Creating Layer loss1/classifier_plantvillage_loss1/classifier_plantvillage_0_split
I0403 15:50:26.959997 11508 net.cpp:425] loss1/classifier_plantvillage_loss1/classifier_plantvillage_0_split <- loss1/classifier_plantvillage
I0403 15:50:26.960016 11508 net.cpp:399] loss1/classifier_plantvillage_loss1/classifier_plantvillage_0_split -> loss1/classifier_plantvillage_loss1/classifier_plantvillage_0_split_0
I0403 15:50:26.960036 11508 net.cpp:399] loss1/classifier_plantvillage_loss1/classifier_plantvillage_0_split -> loss1/classifier_plantvillage_loss1/classifier_plantvillage_0_split_1
I0403 15:50:26.960057 11508 net.cpp:399] loss1/classifier_plantvillage_loss1/classifier_plantvillage_0_split -> loss1/classifier_plantvillage_loss1/classifier_plantvillage_0_split_2
I0403 15:50:26.960125 11508 net.cpp:141] Setting up loss1/classifier_plantvillage_loss1/classifier_plantvillage_0_split
I0403 15:50:26.960149 11508 net.cpp:148] Top shape: 24 38 (912)
I0403 15:50:26.960165 11508 net.cpp:148] Top shape: 24 38 (912)
I0403 15:50:26.960181 11508 net.cpp:148] Top shape: 24 38 (912)
I0403 15:50:26.960196 11508 net.cpp:156] Memory required for data: 946203936
I0403 15:50:26.960223 11508 layer_factory.hpp:77] Creating layer inception_4b/1x1
I0403 15:50:26.960243 11508 net.cpp:91] Creating Layer inception_4b/1x1
I0403 15:50:26.960289 11508 net.cpp:425] inception_4b/1x1 <- inception_4a/output_inception_4a/output_0_split_1
I0403 15:50:26.960310 11508 net.cpp:399] inception_4b/1x1 -> inception_4b/1x1
I0403 15:50:26.961984 11508 net.cpp:141] Setting up inception_4b/1x1
I0403 15:50:26.962014 11508 net.cpp:148] Top shape: 24 160 14 14 (752640)
I0403 15:50:26.962033 11508 net.cpp:156] Memory required for data: 949214496
I0403 15:50:26.962050 11508 layer_factory.hpp:77] Creating layer inception_4b/relu_1x1
I0403 15:50:26.962069 11508 net.cpp:91] Creating Layer inception_4b/relu_1x1
I0403 15:50:26.962085 11508 net.cpp:425] inception_4b/relu_1x1 <- inception_4b/1x1
I0403 15:50:26.962103 11508 net.cpp:386] inception_4b/relu_1x1 -> inception_4b/1x1 (in-place)
I0403 15:50:26.962294 11508 net.cpp:141] Setting up inception_4b/relu_1x1
I0403 15:50:26.962322 11508 net.cpp:148] Top shape: 24 160 14 14 (752640)
I0403 15:50:26.962338 11508 net.cpp:156] Memory required for data: 952225056
I0403 15:50:26.962353 11508 layer_factory.hpp:77] Creating layer inception_4b/3x3_reduce
I0403 15:50:26.962375 11508 net.cpp:91] Creating Layer inception_4b/3x3_reduce
I0403 15:50:26.962394 11508 net.cpp:425] inception_4b/3x3_reduce <- inception_4a/output_inception_4a/output_0_split_2
I0403 15:50:26.962419 11508 net.cpp:399] inception_4b/3x3_reduce -> inception_4b/3x3_reduce
I0403 15:50:26.963809 11508 net.cpp:141] Setting up inception_4b/3x3_reduce
I0403 15:50:26.963841 11508 net.cpp:148] Top shape: 24 112 14 14 (526848)
I0403 15:50:26.963857 11508 net.cpp:156] Memory required for data: 954332448
I0403 15:50:26.963876 11508 layer_factory.hpp:77] Creating layer inception_4b/relu_3x3_reduce
I0403 15:50:26.963896 11508 net.cpp:91] Creating Layer inception_4b/relu_3x3_reduce
I0403 15:50:26.963912 11508 net.cpp:425] inception_4b/relu_3x3_reduce <- inception_4b/3x3_reduce
I0403 15:50:26.963932 11508 net.cpp:386] inception_4b/relu_3x3_reduce -> inception_4b/3x3_reduce (in-place)
I0403 15:50:26.964207 11508 net.cpp:141] Setting up inception_4b/relu_3x3_reduce
I0403 15:50:26.964236 11508 net.cpp:148] Top shape: 24 112 14 14 (526848)
I0403 15:50:26.964252 11508 net.cpp:156] Memory required for data: 956439840
I0403 15:50:26.964268 11508 layer_factory.hpp:77] Creating layer inception_4b/3x3
I0403 15:50:26.964290 11508 net.cpp:91] Creating Layer inception_4b/3x3
I0403 15:50:26.964308 11508 net.cpp:425] inception_4b/3x3 <- inception_4b/3x3_reduce
I0403 15:50:26.964328 11508 net.cpp:399] inception_4b/3x3 -> inception_4b/3x3
I0403 15:50:26.967320 11508 net.cpp:141] Setting up inception_4b/3x3
I0403 15:50:26.967349 11508 net.cpp:148] Top shape: 24 224 14 14 (1053696)
I0403 15:50:26.967365 11508 net.cpp:156] Memory required for data: 960654624
I0403 15:50:26.967383 11508 layer_factory.hpp:77] Creating layer inception_4b/relu_3x3
I0403 15:50:26.967403 11508 net.cpp:91] Creating Layer inception_4b/relu_3x3
I0403 15:50:26.967422 11508 net.cpp:425] inception_4b/relu_3x3 <- inception_4b/3x3
I0403 15:50:26.967439 11508 net.cpp:386] inception_4b/relu_3x3 -> inception_4b/3x3 (in-place)
I0403 15:50:26.967617 11508 net.cpp:141] Setting up inception_4b/relu_3x3
I0403 15:50:26.967643 11508 net.cpp:148] Top shape: 24 224 14 14 (1053696)
I0403 15:50:26.967669 11508 net.cpp:156] Memory required for data: 964869408
I0403 15:50:26.967684 11508 layer_factory.hpp:77] Creating layer inception_4b/5x5_reduce
I0403 15:50:26.967710 11508 net.cpp:91] Creating Layer inception_4b/5x5_reduce
I0403 15:50:26.967727 11508 net.cpp:425] inception_4b/5x5_reduce <- inception_4a/output_inception_4a/output_0_split_3
I0403 15:50:26.967747 11508 net.cpp:399] inception_4b/5x5_reduce -> inception_4b/5x5_reduce
I0403 15:50:26.968873 11508 net.cpp:141] Setting up inception_4b/5x5_reduce
I0403 15:50:26.968902 11508 net.cpp:148] Top shape: 24 24 14 14 (112896)
I0403 15:50:26.968926 11508 net.cpp:156] Memory required for data: 965320992
I0403 15:50:26.968948 11508 layer_factory.hpp:77] Creating layer inception_4b/relu_5x5_reduce
I0403 15:50:26.968993 11508 net.cpp:91] Creating Layer inception_4b/relu_5x5_reduce
I0403 15:50:26.969027 11508 net.cpp:425] inception_4b/relu_5x5_reduce <- inception_4b/5x5_reduce
I0403 15:50:26.969049 11508 net.cpp:386] inception_4b/relu_5x5_reduce -> inception_4b/5x5_reduce (in-place)
I0403 15:50:26.969241 11508 net.cpp:141] Setting up inception_4b/relu_5x5_reduce
I0403 15:50:26.969279 11508 net.cpp:148] Top shape: 24 24 14 14 (112896)
I0403 15:50:26.969295 11508 net.cpp:156] Memory required for data: 965772576
I0403 15:50:26.969310 11508 layer_factory.hpp:77] Creating layer inception_4b/5x5
I0403 15:50:26.969333 11508 net.cpp:91] Creating Layer inception_4b/5x5
I0403 15:50:26.969352 11508 net.cpp:425] inception_4b/5x5 <- inception_4b/5x5_reduce
I0403 15:50:26.969373 11508 net.cpp:399] inception_4b/5x5 -> inception_4b/5x5
I0403 15:50:26.970585 11508 net.cpp:141] Setting up inception_4b/5x5
I0403 15:50:26.970614 11508 net.cpp:148] Top shape: 24 64 14 14 (301056)
I0403 15:50:26.970630 11508 net.cpp:156] Memory required for data: 966976800
I0403 15:50:26.970649 11508 layer_factory.hpp:77] Creating layer inception_4b/relu_5x5
I0403 15:50:26.970667 11508 net.cpp:91] Creating Layer inception_4b/relu_5x5
I0403 15:50:26.970684 11508 net.cpp:425] inception_4b/relu_5x5 <- inception_4b/5x5
I0403 15:50:26.970701 11508 net.cpp:386] inception_4b/relu_5x5 -> inception_4b/5x5 (in-place)
I0403 15:50:26.970991 11508 net.cpp:141] Setting up inception_4b/relu_5x5
I0403 15:50:26.971020 11508 net.cpp:148] Top shape: 24 64 14 14 (301056)
I0403 15:50:26.971036 11508 net.cpp:156] Memory required for data: 968181024
I0403 15:50:26.971051 11508 layer_factory.hpp:77] Creating layer inception_4b/pool
I0403 15:50:26.971070 11508 net.cpp:91] Creating Layer inception_4b/pool
I0403 15:50:26.971086 11508 net.cpp:425] inception_4b/pool <- inception_4a/output_inception_4a/output_0_split_4
I0403 15:50:26.971104 11508 net.cpp:399] inception_4b/pool -> inception_4b/pool
I0403 15:50:26.971182 11508 net.cpp:141] Setting up inception_4b/pool
I0403 15:50:26.971206 11508 net.cpp:148] Top shape: 24 512 14 14 (2408448)
I0403 15:50:26.971221 11508 net.cpp:156] Memory required for data: 977814816
I0403 15:50:26.971236 11508 layer_factory.hpp:77] Creating layer inception_4b/pool_proj
I0403 15:50:26.971259 11508 net.cpp:91] Creating Layer inception_4b/pool_proj
I0403 15:50:26.971278 11508 net.cpp:425] inception_4b/pool_proj <- inception_4b/pool
I0403 15:50:26.971299 11508 net.cpp:399] inception_4b/pool_proj -> inception_4b/pool_proj
I0403 15:50:26.972488 11508 net.cpp:141] Setting up inception_4b/pool_proj
I0403 15:50:26.972519 11508 net.cpp:148] Top shape: 24 64 14 14 (301056)
I0403 15:50:26.972535 11508 net.cpp:156] Memory required for data: 979019040
I0403 15:50:26.972554 11508 layer_factory.hpp:77] Creating layer inception_4b/relu_pool_proj
I0403 15:50:26.972573 11508 net.cpp:91] Creating Layer inception_4b/relu_pool_proj
I0403 15:50:26.972589 11508 net.cpp:425] inception_4b/relu_pool_proj <- inception_4b/pool_proj
I0403 15:50:26.972606 11508 net.cpp:386] inception_4b/relu_pool_proj -> inception_4b/pool_proj (in-place)
I0403 15:50:26.972800 11508 net.cpp:141] Setting up inception_4b/relu_pool_proj
I0403 15:50:26.972826 11508 net.cpp:148] Top shape: 24 64 14 14 (301056)
I0403 15:50:26.972841 11508 net.cpp:156] Memory required for data: 980223264
I0403 15:50:26.972856 11508 layer_factory.hpp:77] Creating layer inception_4b/output
I0403 15:50:26.972874 11508 net.cpp:91] Creating Layer inception_4b/output
I0403 15:50:26.972890 11508 net.cpp:425] inception_4b/output <- inception_4b/1x1
I0403 15:50:26.972908 11508 net.cpp:425] inception_4b/output <- inception_4b/3x3
I0403 15:50:26.972925 11508 net.cpp:425] inception_4b/output <- inception_4b/5x5
I0403 15:50:26.972941 11508 net.cpp:425] inception_4b/output <- inception_4b/pool_proj
I0403 15:50:26.972961 11508 net.cpp:399] inception_4b/output -> inception_4b/output
I0403 15:50:26.973022 11508 net.cpp:141] Setting up inception_4b/output
I0403 15:50:26.973047 11508 net.cpp:148] Top shape: 24 512 14 14 (2408448)
I0403 15:50:26.973063 11508 net.cpp:156] Memory required for data: 989857056
I0403 15:50:26.973091 11508 layer_factory.hpp:77] Creating layer inception_4b/output_inception_4b/output_0_split
I0403 15:50:26.973110 11508 net.cpp:91] Creating Layer inception_4b/output_inception_4b/output_0_split
I0403 15:50:26.973126 11508 net.cpp:425] inception_4b/output_inception_4b/output_0_split <- inception_4b/output
I0403 15:50:26.973146 11508 net.cpp:399] inception_4b/output_inception_4b/output_0_split -> inception_4b/output_inception_4b/output_0_split_0
I0403 15:50:26.973167 11508 net.cpp:399] inception_4b/output_inception_4b/output_0_split -> inception_4b/output_inception_4b/output_0_split_1
I0403 15:50:26.973187 11508 net.cpp:399] inception_4b/output_inception_4b/output_0_split -> inception_4b/output_inception_4b/output_0_split_2
I0403 15:50:26.973209 11508 net.cpp:399] inception_4b/output_inception_4b/output_0_split -> inception_4b/output_inception_4b/output_0_split_3
I0403 15:50:26.973289 11508 net.cpp:141] Setting up inception_4b/output_inception_4b/output_0_split
I0403 15:50:26.973312 11508 net.cpp:148] Top shape: 24 512 14 14 (2408448)
I0403 15:50:26.973328 11508 net.cpp:148] Top shape: 24 512 14 14 (2408448)
I0403 15:50:26.973345 11508 net.cpp:148] Top shape: 24 512 14 14 (2408448)
I0403 15:50:26.973361 11508 net.cpp:148] Top shape: 24 512 14 14 (2408448)
I0403 15:50:26.973374 11508 net.cpp:156] Memory required for data: 1028392224
I0403 15:50:26.973389 11508 layer_factory.hpp:77] Creating layer inception_4c/1x1
I0403 15:50:26.973412 11508 net.cpp:91] Creating Layer inception_4c/1x1
I0403 15:50:26.973429 11508 net.cpp:425] inception_4c/1x1 <- inception_4b/output_inception_4b/output_0_split_0
I0403 15:50:26.973450 11508 net.cpp:399] inception_4c/1x1 -> inception_4c/1x1
I0403 15:50:26.974911 11508 net.cpp:141] Setting up inception_4c/1x1
I0403 15:50:26.974938 11508 net.cpp:148] Top shape: 24 128 14 14 (602112)
I0403 15:50:26.974954 11508 net.cpp:156] Memory required for data: 1030800672
I0403 15:50:26.974972 11508 layer_factory.hpp:77] Creating layer inception_4c/relu_1x1
I0403 15:50:26.974997 11508 net.cpp:91] Creating Layer inception_4c/relu_1x1
I0403 15:50:26.975014 11508 net.cpp:425] inception_4c/relu_1x1 <- inception_4c/1x1
I0403 15:50:26.975033 11508 net.cpp:386] inception_4c/relu_1x1 -> inception_4c/1x1 (in-place)
I0403 15:50:26.975206 11508 net.cpp:141] Setting up inception_4c/relu_1x1
I0403 15:50:26.975231 11508 net.cpp:148] Top shape: 24 128 14 14 (602112)
I0403 15:50:26.975247 11508 net.cpp:156] Memory required for data: 1033209120
I0403 15:50:26.975261 11508 layer_factory.hpp:77] Creating layer inception_4c/3x3_reduce
I0403 15:50:26.975283 11508 net.cpp:91] Creating Layer inception_4c/3x3_reduce
I0403 15:50:26.975303 11508 net.cpp:425] inception_4c/3x3_reduce <- inception_4b/output_inception_4b/output_0_split_1
I0403 15:50:26.975323 11508 net.cpp:399] inception_4c/3x3_reduce -> inception_4c/3x3_reduce
I0403 15:50:26.977329 11508 net.cpp:141] Setting up inception_4c/3x3_reduce
I0403 15:50:26.977357 11508 net.cpp:148] Top shape: 24 128 14 14 (602112)
I0403 15:50:26.977373 11508 net.cpp:156] Memory required for data: 1035617568
I0403 15:50:26.977393 11508 layer_factory.hpp:77] Creating layer inception_4c/relu_3x3_reduce
I0403 15:50:26.977416 11508 net.cpp:91] Creating Layer inception_4c/relu_3x3_reduce
I0403 15:50:26.977447 11508 net.cpp:425] inception_4c/relu_3x3_reduce <- inception_4c/3x3_reduce
I0403 15:50:26.977465 11508 net.cpp:386] inception_4c/relu_3x3_reduce -> inception_4c/3x3_reduce (in-place)
I0403 15:50:26.977761 11508 net.cpp:141] Setting up inception_4c/relu_3x3_reduce
I0403 15:50:26.977787 11508 net.cpp:148] Top shape: 24 128 14 14 (602112)
I0403 15:50:26.977802 11508 net.cpp:156] Memory required for data: 1038026016
I0403 15:50:26.977818 11508 layer_factory.hpp:77] Creating layer inception_4c/3x3
I0403 15:50:26.977843 11508 net.cpp:91] Creating Layer inception_4c/3x3
I0403 15:50:26.977860 11508 net.cpp:425] inception_4c/3x3 <- inception_4c/3x3_reduce
I0403 15:50:26.977880 11508 net.cpp:399] inception_4c/3x3 -> inception_4c/3x3
I0403 15:50:26.981446 11508 net.cpp:141] Setting up inception_4c/3x3
I0403 15:50:26.981488 11508 net.cpp:148] Top shape: 24 256 14 14 (1204224)
I0403 15:50:26.981505 11508 net.cpp:156] Memory required for data: 1042842912
I0403 15:50:26.981537 11508 layer_factory.hpp:77] Creating layer inception_4c/relu_3x3
I0403 15:50:26.981557 11508 net.cpp:91] Creating Layer inception_4c/relu_3x3
I0403 15:50:26.981575 11508 net.cpp:425] inception_4c/relu_3x3 <- inception_4c/3x3
I0403 15:50:26.981591 11508 net.cpp:386] inception_4c/relu_3x3 -> inception_4c/3x3 (in-place)
I0403 15:50:26.981770 11508 net.cpp:141] Setting up inception_4c/relu_3x3
I0403 15:50:26.981796 11508 net.cpp:148] Top shape: 24 256 14 14 (1204224)
I0403 15:50:26.981812 11508 net.cpp:156] Memory required for data: 1047659808
I0403 15:50:26.981828 11508 layer_factory.hpp:77] Creating layer inception_4c/5x5_reduce
I0403 15:50:26.981850 11508 net.cpp:91] Creating Layer inception_4c/5x5_reduce
I0403 15:50:26.981868 11508 net.cpp:425] inception_4c/5x5_reduce <- inception_4b/output_inception_4b/output_0_split_2
I0403 15:50:26.981887 11508 net.cpp:399] inception_4c/5x5_reduce -> inception_4c/5x5_reduce
I0403 15:50:26.982996 11508 net.cpp:141] Setting up inception_4c/5x5_reduce
I0403 15:50:26.983026 11508 net.cpp:148] Top shape: 24 24 14 14 (112896)
I0403 15:50:26.983042 11508 net.cpp:156] Memory required for data: 1048111392
I0403 15:50:26.983062 11508 layer_factory.hpp:77] Creating layer inception_4c/relu_5x5_reduce
I0403 15:50:26.983079 11508 net.cpp:91] Creating Layer inception_4c/relu_5x5_reduce
I0403 15:50:26.983095 11508 net.cpp:425] inception_4c/relu_5x5_reduce <- inception_4c/5x5_reduce
I0403 15:50:26.983115 11508 net.cpp:386] inception_4c/relu_5x5_reduce -> inception_4c/5x5_reduce (in-place)
I0403 15:50:26.983296 11508 net.cpp:141] Setting up inception_4c/relu_5x5_reduce
I0403 15:50:26.983320 11508 net.cpp:148] Top shape: 24 24 14 14 (112896)
I0403 15:50:26.983335 11508 net.cpp:156] Memory required for data: 1048562976
I0403 15:50:26.983350 11508 layer_factory.hpp:77] Creating layer inception_4c/5x5
I0403 15:50:26.983371 11508 net.cpp:91] Creating Layer inception_4c/5x5
I0403 15:50:26.983389 11508 net.cpp:425] inception_4c/5x5 <- inception_4c/5x5_reduce
I0403 15:50:26.983410 11508 net.cpp:399] inception_4c/5x5 -> inception_4c/5x5
I0403 15:50:26.984652 11508 net.cpp:141] Setting up inception_4c/5x5
I0403 15:50:26.984679 11508 net.cpp:148] Top shape: 24 64 14 14 (301056)
I0403 15:50:26.984694 11508 net.cpp:156] Memory required for data: 1049767200
I0403 15:50:26.984714 11508 layer_factory.hpp:77] Creating layer inception_4c/relu_5x5
I0403 15:50:26.984733 11508 net.cpp:91] Creating Layer inception_4c/relu_5x5
I0403 15:50:26.984750 11508 net.cpp:425] inception_4c/relu_5x5 <- inception_4c/5x5
I0403 15:50:26.984768 11508 net.cpp:386] inception_4c/relu_5x5 -> inception_4c/5x5 (in-place)
I0403 15:50:26.985069 11508 net.cpp:141] Setting up inception_4c/relu_5x5
I0403 15:50:26.985095 11508 net.cpp:148] Top shape: 24 64 14 14 (301056)
I0403 15:50:26.985111 11508 net.cpp:156] Memory required for data: 1050971424
I0403 15:50:26.985126 11508 layer_factory.hpp:77] Creating layer inception_4c/pool
I0403 15:50:26.985144 11508 net.cpp:91] Creating Layer inception_4c/pool
I0403 15:50:26.985162 11508 net.cpp:425] inception_4c/pool <- inception_4b/output_inception_4b/output_0_split_3
I0403 15:50:26.985184 11508 net.cpp:399] inception_4c/pool -> inception_4c/pool
I0403 15:50:26.985249 11508 net.cpp:141] Setting up inception_4c/pool
I0403 15:50:26.985276 11508 net.cpp:148] Top shape: 24 512 14 14 (2408448)
I0403 15:50:26.985292 11508 net.cpp:156] Memory required for data: 1060605216
I0403 15:50:26.985319 11508 layer_factory.hpp:77] Creating layer inception_4c/pool_proj
I0403 15:50:26.985342 11508 net.cpp:91] Creating Layer inception_4c/pool_proj
I0403 15:50:26.985359 11508 net.cpp:425] inception_4c/pool_proj <- inception_4c/pool
I0403 15:50:26.985378 11508 net.cpp:399] inception_4c/pool_proj -> inception_4c/pool_proj
I0403 15:50:26.986605 11508 net.cpp:141] Setting up inception_4c/pool_proj
I0403 15:50:26.986637 11508 net.cpp:148] Top shape: 24 64 14 14 (301056)
I0403 15:50:26.986666 11508 net.cpp:156] Memory required for data: 1061809440
I0403 15:50:26.986698 11508 layer_factory.hpp:77] Creating layer inception_4c/relu_pool_proj
I0403 15:50:26.986717 11508 net.cpp:91] Creating Layer inception_4c/relu_pool_proj
I0403 15:50:26.986734 11508 net.cpp:425] inception_4c/relu_pool_proj <- inception_4c/pool_proj
I0403 15:50:26.986752 11508 net.cpp:386] inception_4c/relu_pool_proj -> inception_4c/pool_proj (in-place)
I0403 15:50:26.986945 11508 net.cpp:141] Setting up inception_4c/relu_pool_proj
I0403 15:50:26.986971 11508 net.cpp:148] Top shape: 24 64 14 14 (301056)
I0403 15:50:26.986991 11508 net.cpp:156] Memory required for data: 1063013664
I0403 15:50:26.987007 11508 layer_factory.hpp:77] Creating layer inception_4c/output
I0403 15:50:26.987026 11508 net.cpp:91] Creating Layer inception_4c/output
I0403 15:50:26.987042 11508 net.cpp:425] inception_4c/output <- inception_4c/1x1
I0403 15:50:26.987059 11508 net.cpp:425] inception_4c/output <- inception_4c/3x3
I0403 15:50:26.987076 11508 net.cpp:425] inception_4c/output <- inception_4c/5x5
I0403 15:50:26.987092 11508 net.cpp:425] inception_4c/output <- inception_4c/pool_proj
I0403 15:50:26.987113 11508 net.cpp:399] inception_4c/output -> inception_4c/output
I0403 15:50:26.987171 11508 net.cpp:141] Setting up inception_4c/output
I0403 15:50:26.987196 11508 net.cpp:148] Top shape: 24 512 14 14 (2408448)
I0403 15:50:26.987212 11508 net.cpp:156] Memory required for data: 1072647456
I0403 15:50:26.987227 11508 layer_factory.hpp:77] Creating layer inception_4c/output_inception_4c/output_0_split
I0403 15:50:26.987244 11508 net.cpp:91] Creating Layer inception_4c/output_inception_4c/output_0_split
I0403 15:50:26.987260 11508 net.cpp:425] inception_4c/output_inception_4c/output_0_split <- inception_4c/output
I0403 15:50:26.987278 11508 net.cpp:399] inception_4c/output_inception_4c/output_0_split -> inception_4c/output_inception_4c/output_0_split_0
I0403 15:50:26.987301 11508 net.cpp:399] inception_4c/output_inception_4c/output_0_split -> inception_4c/output_inception_4c/output_0_split_1
I0403 15:50:26.987323 11508 net.cpp:399] inception_4c/output_inception_4c/output_0_split -> inception_4c/output_inception_4c/output_0_split_2
I0403 15:50:26.987341 11508 net.cpp:399] inception_4c/output_inception_4c/output_0_split -> inception_4c/output_inception_4c/output_0_split_3
I0403 15:50:26.987423 11508 net.cpp:141] Setting up inception_4c/output_inception_4c/output_0_split
I0403 15:50:26.987447 11508 net.cpp:148] Top shape: 24 512 14 14 (2408448)
I0403 15:50:26.987464 11508 net.cpp:148] Top shape: 24 512 14 14 (2408448)
I0403 15:50:26.987480 11508 net.cpp:148] Top shape: 24 512 14 14 (2408448)
I0403 15:50:26.987495 11508 net.cpp:148] Top shape: 24 512 14 14 (2408448)
I0403 15:50:26.987509 11508 net.cpp:156] Memory required for data: 1111182624
I0403 15:50:26.987524 11508 layer_factory.hpp:77] Creating layer inception_4d/1x1
I0403 15:50:26.987546 11508 net.cpp:91] Creating Layer inception_4d/1x1
I0403 15:50:26.987565 11508 net.cpp:425] inception_4d/1x1 <- inception_4c/output_inception_4c/output_0_split_0
I0403 15:50:26.987586 11508 net.cpp:399] inception_4d/1x1 -> inception_4d/1x1
I0403 15:50:26.988960 11508 net.cpp:141] Setting up inception_4d/1x1
I0403 15:50:26.988998 11508 net.cpp:148] Top shape: 24 112 14 14 (526848)
I0403 15:50:26.989015 11508 net.cpp:156] Memory required for data: 1113290016
I0403 15:50:26.989033 11508 layer_factory.hpp:77] Creating layer inception_4d/relu_1x1
I0403 15:50:26.989054 11508 net.cpp:91] Creating Layer inception_4d/relu_1x1
I0403 15:50:26.989071 11508 net.cpp:425] inception_4d/relu_1x1 <- inception_4d/1x1
I0403 15:50:26.989089 11508 net.cpp:386] inception_4d/relu_1x1 -> inception_4d/1x1 (in-place)
I0403 15:50:26.989285 11508 net.cpp:141] Setting up inception_4d/relu_1x1
I0403 15:50:26.989313 11508 net.cpp:148] Top shape: 24 112 14 14 (526848)
I0403 15:50:26.989329 11508 net.cpp:156] Memory required for data: 1115397408
I0403 15:50:26.989346 11508 layer_factory.hpp:77] Creating layer inception_4d/3x3_reduce
I0403 15:50:26.989382 11508 net.cpp:91] Creating Layer inception_4d/3x3_reduce
I0403 15:50:26.989400 11508 net.cpp:425] inception_4d/3x3_reduce <- inception_4c/output_inception_4c/output_0_split_1
I0403 15:50:26.989431 11508 net.cpp:399] inception_4d/3x3_reduce -> inception_4d/3x3_reduce
I0403 15:50:26.990911 11508 net.cpp:141] Setting up inception_4d/3x3_reduce
I0403 15:50:26.990938 11508 net.cpp:148] Top shape: 24 144 14 14 (677376)
I0403 15:50:26.990953 11508 net.cpp:156] Memory required for data: 1118106912
I0403 15:50:26.990972 11508 layer_factory.hpp:77] Creating layer inception_4d/relu_3x3_reduce
I0403 15:50:26.990996 11508 net.cpp:91] Creating Layer inception_4d/relu_3x3_reduce
I0403 15:50:26.991014 11508 net.cpp:425] inception_4d/relu_3x3_reduce <- inception_4d/3x3_reduce
I0403 15:50:26.991034 11508 net.cpp:386] inception_4d/relu_3x3_reduce -> inception_4d/3x3_reduce (in-place)
I0403 15:50:26.991329 11508 net.cpp:141] Setting up inception_4d/relu_3x3_reduce
I0403 15:50:26.991355 11508 net.cpp:148] Top shape: 24 144 14 14 (677376)
I0403 15:50:26.991371 11508 net.cpp:156] Memory required for data: 1120816416
I0403 15:50:26.991386 11508 layer_factory.hpp:77] Creating layer inception_4d/3x3
I0403 15:50:26.991408 11508 net.cpp:91] Creating Layer inception_4d/3x3
I0403 15:50:26.991425 11508 net.cpp:425] inception_4d/3x3 <- inception_4d/3x3_reduce
I0403 15:50:26.991447 11508 net.cpp:399] inception_4d/3x3 -> inception_4d/3x3
I0403 15:50:26.995823 11508 net.cpp:141] Setting up inception_4d/3x3
I0403 15:50:26.995853 11508 net.cpp:148] Top shape: 24 288 14 14 (1354752)
I0403 15:50:26.995870 11508 net.cpp:156] Memory required for data: 1126235424
I0403 15:50:26.995889 11508 layer_factory.hpp:77] Creating layer inception_4d/relu_3x3
I0403 15:50:26.995909 11508 net.cpp:91] Creating Layer inception_4d/relu_3x3
I0403 15:50:26.995926 11508 net.cpp:425] inception_4d/relu_3x3 <- inception_4d/3x3
I0403 15:50:26.995944 11508 net.cpp:386] inception_4d/relu_3x3 -> inception_4d/3x3 (in-place)
I0403 15:50:26.996125 11508 net.cpp:141] Setting up inception_4d/relu_3x3
I0403 15:50:26.996152 11508 net.cpp:148] Top shape: 24 288 14 14 (1354752)
I0403 15:50:26.996168 11508 net.cpp:156] Memory required for data: 1131654432
I0403 15:50:26.996183 11508 layer_factory.hpp:77] Creating layer inception_4d/5x5_reduce
I0403 15:50:26.996206 11508 net.cpp:91] Creating Layer inception_4d/5x5_reduce
I0403 15:50:26.996223 11508 net.cpp:425] inception_4d/5x5_reduce <- inception_4c/output_inception_4c/output_0_split_2
I0403 15:50:26.996243 11508 net.cpp:399] inception_4d/5x5_reduce -> inception_4d/5x5_reduce
I0403 15:50:26.997414 11508 net.cpp:141] Setting up inception_4d/5x5_reduce
I0403 15:50:26.997443 11508 net.cpp:148] Top shape: 24 32 14 14 (150528)
I0403 15:50:26.997459 11508 net.cpp:156] Memory required for data: 1132256544
I0403 15:50:26.997478 11508 layer_factory.hpp:77] Creating layer inception_4d/relu_5x5_reduce
I0403 15:50:26.997512 11508 net.cpp:91] Creating Layer inception_4d/relu_5x5_reduce
I0403 15:50:26.997530 11508 net.cpp:425] inception_4d/relu_5x5_reduce <- inception_4d/5x5_reduce
I0403 15:50:26.997560 11508 net.cpp:386] inception_4d/relu_5x5_reduce -> inception_4d/5x5_reduce (in-place)
I0403 15:50:26.997771 11508 net.cpp:141] Setting up inception_4d/relu_5x5_reduce
I0403 15:50:26.997810 11508 net.cpp:148] Top shape: 24 32 14 14 (150528)
I0403 15:50:26.997827 11508 net.cpp:156] Memory required for data: 1132858656
I0403 15:50:26.997843 11508 layer_factory.hpp:77] Creating layer inception_4d/5x5
I0403 15:50:26.997865 11508 net.cpp:91] Creating Layer inception_4d/5x5
I0403 15:50:26.997884 11508 net.cpp:425] inception_4d/5x5 <- inception_4d/5x5_reduce
I0403 15:50:26.997903 11508 net.cpp:399] inception_4d/5x5 -> inception_4d/5x5
I0403 15:50:26.999368 11508 net.cpp:141] Setting up inception_4d/5x5
I0403 15:50:26.999405 11508 net.cpp:148] Top shape: 24 64 14 14 (301056)
I0403 15:50:26.999424 11508 net.cpp:156] Memory required for data: 1134062880
I0403 15:50:26.999444 11508 layer_factory.hpp:77] Creating layer inception_4d/relu_5x5
I0403 15:50:26.999475 11508 net.cpp:91] Creating Layer inception_4d/relu_5x5
I0403 15:50:26.999493 11508 net.cpp:425] inception_4d/relu_5x5 <- inception_4d/5x5
I0403 15:50:26.999513 11508 net.cpp:386] inception_4d/relu_5x5 -> inception_4d/5x5 (in-place)
I0403 15:50:26.999811 11508 net.cpp:141] Setting up inception_4d/relu_5x5
I0403 15:50:26.999840 11508 net.cpp:148] Top shape: 24 64 14 14 (301056)
I0403 15:50:26.999855 11508 net.cpp:156] Memory required for data: 1135267104
I0403 15:50:26.999871 11508 layer_factory.hpp:77] Creating layer inception_4d/pool
I0403 15:50:26.999888 11508 net.cpp:91] Creating Layer inception_4d/pool
I0403 15:50:26.999905 11508 net.cpp:425] inception_4d/pool <- inception_4c/output_inception_4c/output_0_split_3
I0403 15:50:26.999927 11508 net.cpp:399] inception_4d/pool -> inception_4d/pool
I0403 15:50:26.999994 11508 net.cpp:141] Setting up inception_4d/pool
I0403 15:50:27.000020 11508 net.cpp:148] Top shape: 24 512 14 14 (2408448)
I0403 15:50:27.000036 11508 net.cpp:156] Memory required for data: 1144900896
I0403 15:50:27.000052 11508 layer_factory.hpp:77] Creating layer inception_4d/pool_proj
I0403 15:50:27.000072 11508 net.cpp:91] Creating Layer inception_4d/pool_proj
I0403 15:50:27.000088 11508 net.cpp:425] inception_4d/pool_proj <- inception_4d/pool
I0403 15:50:27.000110 11508 net.cpp:399] inception_4d/pool_proj -> inception_4d/pool_proj
I0403 15:50:27.001919 11508 net.cpp:141] Setting up inception_4d/pool_proj
I0403 15:50:27.001947 11508 net.cpp:148] Top shape: 24 64 14 14 (301056)
I0403 15:50:27.001963 11508 net.cpp:156] Memory required for data: 1146105120
I0403 15:50:27.001986 11508 layer_factory.hpp:77] Creating layer inception_4d/relu_pool_proj
I0403 15:50:27.002008 11508 net.cpp:91] Creating Layer inception_4d/relu_pool_proj
I0403 15:50:27.002027 11508 net.cpp:425] inception_4d/relu_pool_proj <- inception_4d/pool_proj
I0403 15:50:27.002044 11508 net.cpp:386] inception_4d/relu_pool_proj -> inception_4d/pool_proj (in-place)
I0403 15:50:27.002224 11508 net.cpp:141] Setting up inception_4d/relu_pool_proj
I0403 15:50:27.002251 11508 net.cpp:148] Top shape: 24 64 14 14 (301056)
I0403 15:50:27.002267 11508 net.cpp:156] Memory required for data: 1147309344
I0403 15:50:27.002284 11508 layer_factory.hpp:77] Creating layer inception_4d/output
I0403 15:50:27.002300 11508 net.cpp:91] Creating Layer inception_4d/output
I0403 15:50:27.002316 11508 net.cpp:425] inception_4d/output <- inception_4d/1x1
I0403 15:50:27.002333 11508 net.cpp:425] inception_4d/output <- inception_4d/3x3
I0403 15:50:27.002351 11508 net.cpp:425] inception_4d/output <- inception_4d/5x5
I0403 15:50:27.002367 11508 net.cpp:425] inception_4d/output <- inception_4d/pool_proj
I0403 15:50:27.002384 11508 net.cpp:399] inception_4d/output -> inception_4d/output
I0403 15:50:27.002445 11508 net.cpp:141] Setting up inception_4d/output
I0403 15:50:27.002470 11508 net.cpp:148] Top shape: 24 528 14 14 (2483712)
I0403 15:50:27.002485 11508 net.cpp:156] Memory required for data: 1157244192
I0403 15:50:27.002501 11508 layer_factory.hpp:77] Creating layer inception_4d/output_inception_4d/output_0_split
I0403 15:50:27.002521 11508 net.cpp:91] Creating Layer inception_4d/output_inception_4d/output_0_split
I0403 15:50:27.002538 11508 net.cpp:425] inception_4d/output_inception_4d/output_0_split <- inception_4d/output
I0403 15:50:27.002557 11508 net.cpp:399] inception_4d/output_inception_4d/output_0_split -> inception_4d/output_inception_4d/output_0_split_0
I0403 15:50:27.002578 11508 net.cpp:399] inception_4d/output_inception_4d/output_0_split -> inception_4d/output_inception_4d/output_0_split_1
I0403 15:50:27.002599 11508 net.cpp:399] inception_4d/output_inception_4d/output_0_split -> inception_4d/output_inception_4d/output_0_split_2
I0403 15:50:27.002621 11508 net.cpp:399] inception_4d/output_inception_4d/output_0_split -> inception_4d/output_inception_4d/output_0_split_3
I0403 15:50:27.002656 11508 net.cpp:399] inception_4d/output_inception_4d/output_0_split -> inception_4d/output_inception_4d/output_0_split_4
I0403 15:50:27.002774 11508 net.cpp:141] Setting up inception_4d/output_inception_4d/output_0_split
I0403 15:50:27.002810 11508 net.cpp:148] Top shape: 24 528 14 14 (2483712)
I0403 15:50:27.002827 11508 net.cpp:148] Top shape: 24 528 14 14 (2483712)
I0403 15:50:27.002845 11508 net.cpp:148] Top shape: 24 528 14 14 (2483712)
I0403 15:50:27.002861 11508 net.cpp:148] Top shape: 24 528 14 14 (2483712)
I0403 15:50:27.002876 11508 net.cpp:148] Top shape: 24 528 14 14 (2483712)
I0403 15:50:27.002892 11508 net.cpp:156] Memory required for data: 1206918432
I0403 15:50:27.002907 11508 layer_factory.hpp:77] Creating layer loss2/ave_pool
I0403 15:50:27.002938 11508 net.cpp:91] Creating Layer loss2/ave_pool
I0403 15:50:27.002956 11508 net.cpp:425] loss2/ave_pool <- inception_4d/output_inception_4d/output_0_split_0
I0403 15:50:27.002974 11508 net.cpp:399] loss2/ave_pool -> loss2/ave_pool
I0403 15:50:27.003316 11508 net.cpp:141] Setting up loss2/ave_pool
I0403 15:50:27.003342 11508 net.cpp:148] Top shape: 24 528 4 4 (202752)
I0403 15:50:27.003358 11508 net.cpp:156] Memory required for data: 1207729440
I0403 15:50:27.003374 11508 layer_factory.hpp:77] Creating layer loss2/conv
I0403 15:50:27.003396 11508 net.cpp:91] Creating Layer loss2/conv
I0403 15:50:27.003417 11508 net.cpp:425] loss2/conv <- loss2/ave_pool
I0403 15:50:27.003435 11508 net.cpp:399] loss2/conv -> loss2/conv
I0403 15:50:27.005450 11508 net.cpp:141] Setting up loss2/conv
I0403 15:50:27.005478 11508 net.cpp:148] Top shape: 24 128 4 4 (49152)
I0403 15:50:27.005496 11508 net.cpp:156] Memory required for data: 1207926048
I0403 15:50:27.005514 11508 layer_factory.hpp:77] Creating layer loss2/relu_conv
I0403 15:50:27.005532 11508 net.cpp:91] Creating Layer loss2/relu_conv
I0403 15:50:27.005549 11508 net.cpp:425] loss2/relu_conv <- loss2/conv
I0403 15:50:27.005570 11508 net.cpp:386] loss2/relu_conv -> loss2/conv (in-place)
I0403 15:50:27.005867 11508 net.cpp:141] Setting up loss2/relu_conv
I0403 15:50:27.005892 11508 net.cpp:148] Top shape: 24 128 4 4 (49152)
I0403 15:50:27.005908 11508 net.cpp:156] Memory required for data: 1208122656
I0403 15:50:27.005923 11508 layer_factory.hpp:77] Creating layer loss2/fc
I0403 15:50:27.005941 11508 net.cpp:91] Creating Layer loss2/fc
I0403 15:50:27.005957 11508 net.cpp:425] loss2/fc <- loss2/conv
I0403 15:50:27.005981 11508 net.cpp:399] loss2/fc -> loss2/fc
I0403 15:50:27.023906 11508 net.cpp:141] Setting up loss2/fc
I0403 15:50:27.023942 11508 net.cpp:148] Top shape: 24 1024 (24576)
I0403 15:50:27.023960 11508 net.cpp:156] Memory required for data: 1208220960
I0403 15:50:27.023983 11508 layer_factory.hpp:77] Creating layer loss2/relu_fc
I0403 15:50:27.024003 11508 net.cpp:91] Creating Layer loss2/relu_fc
I0403 15:50:27.024021 11508 net.cpp:425] loss2/relu_fc <- loss2/fc
I0403 15:50:27.024040 11508 net.cpp:386] loss2/relu_fc -> loss2/fc (in-place)
I0403 15:50:27.024333 11508 net.cpp:141] Setting up loss2/relu_fc
I0403 15:50:27.024363 11508 net.cpp:148] Top shape: 24 1024 (24576)
I0403 15:50:27.024380 11508 net.cpp:156] Memory required for data: 1208319264
I0403 15:50:27.024395 11508 layer_factory.hpp:77] Creating layer loss2/drop_fc
I0403 15:50:27.024413 11508 net.cpp:91] Creating Layer loss2/drop_fc
I0403 15:50:27.024430 11508 net.cpp:425] loss2/drop_fc <- loss2/fc
I0403 15:50:27.024447 11508 net.cpp:386] loss2/drop_fc -> loss2/fc (in-place)
I0403 15:50:27.024497 11508 net.cpp:141] Setting up loss2/drop_fc
I0403 15:50:27.024519 11508 net.cpp:148] Top shape: 24 1024 (24576)
I0403 15:50:27.024534 11508 net.cpp:156] Memory required for data: 1208417568
I0403 15:50:27.024549 11508 layer_factory.hpp:77] Creating layer loss2/classifier_plantvillage
I0403 15:50:27.024569 11508 net.cpp:91] Creating Layer loss2/classifier_plantvillage
I0403 15:50:27.024586 11508 net.cpp:425] loss2/classifier_plantvillage <- loss2/fc
I0403 15:50:27.024605 11508 net.cpp:399] loss2/classifier_plantvillage -> loss2/classifier_plantvillage
I0403 15:50:27.024999 11508 net.cpp:141] Setting up loss2/classifier_plantvillage
I0403 15:50:27.025023 11508 net.cpp:148] Top shape: 24 38 (912)
I0403 15:50:27.025053 11508 net.cpp:156] Memory required for data: 1208421216
I0403 15:50:27.025087 11508 layer_factory.hpp:77] Creating layer loss2/classifier_plantvillage_loss2/classifier_plantvillage_0_split
I0403 15:50:27.025106 11508 net.cpp:91] Creating Layer loss2/classifier_plantvillage_loss2/classifier_plantvillage_0_split
I0403 15:50:27.025123 11508 net.cpp:425] loss2/classifier_plantvillage_loss2/classifier_plantvillage_0_split <- loss2/classifier_plantvillage
I0403 15:50:27.025143 11508 net.cpp:399] loss2/classifier_plantvillage_loss2/classifier_plantvillage_0_split -> loss2/classifier_plantvillage_loss2/classifier_plantvillage_0_split_0
I0403 15:50:27.025166 11508 net.cpp:399] loss2/classifier_plantvillage_loss2/classifier_plantvillage_0_split -> loss2/classifier_plantvillage_loss2/classifier_plantvillage_0_split_1
I0403 15:50:27.025187 11508 net.cpp:399] loss2/classifier_plantvillage_loss2/classifier_plantvillage_0_split -> loss2/classifier_plantvillage_loss2/classifier_plantvillage_0_split_2
I0403 15:50:27.025264 11508 net.cpp:141] Setting up loss2/classifier_plantvillage_loss2/classifier_plantvillage_0_split
I0403 15:50:27.025288 11508 net.cpp:148] Top shape: 24 38 (912)
I0403 15:50:27.025305 11508 net.cpp:148] Top shape: 24 38 (912)
I0403 15:50:27.025321 11508 net.cpp:148] Top shape: 24 38 (912)
I0403 15:50:27.025336 11508 net.cpp:156] Memory required for data: 1208432160
I0403 15:50:27.025352 11508 layer_factory.hpp:77] Creating layer inception_4e/1x1
I0403 15:50:27.025374 11508 net.cpp:91] Creating Layer inception_4e/1x1
I0403 15:50:27.025393 11508 net.cpp:425] inception_4e/1x1 <- inception_4d/output_inception_4d/output_0_split_1
I0403 15:50:27.025413 11508 net.cpp:399] inception_4e/1x1 -> inception_4e/1x1
I0403 15:50:27.027307 11508 net.cpp:141] Setting up inception_4e/1x1
I0403 15:50:27.027334 11508 net.cpp:148] Top shape: 24 256 14 14 (1204224)
I0403 15:50:27.027350 11508 net.cpp:156] Memory required for data: 1213249056
I0403 15:50:27.027369 11508 layer_factory.hpp:77] Creating layer inception_4e/relu_1x1
I0403 15:50:27.027386 11508 net.cpp:91] Creating Layer inception_4e/relu_1x1
I0403 15:50:27.027403 11508 net.cpp:425] inception_4e/relu_1x1 <- inception_4e/1x1
I0403 15:50:27.027422 11508 net.cpp:386] inception_4e/relu_1x1 -> inception_4e/1x1 (in-place)
I0403 15:50:27.027729 11508 net.cpp:141] Setting up inception_4e/relu_1x1
I0403 15:50:27.027755 11508 net.cpp:148] Top shape: 24 256 14 14 (1204224)
I0403 15:50:27.027770 11508 net.cpp:156] Memory required for data: 1218065952
I0403 15:50:27.027786 11508 layer_factory.hpp:77] Creating layer inception_4e/3x3_reduce
I0403 15:50:27.027809 11508 net.cpp:91] Creating Layer inception_4e/3x3_reduce
I0403 15:50:27.027827 11508 net.cpp:425] inception_4e/3x3_reduce <- inception_4d/output_inception_4d/output_0_split_2
I0403 15:50:27.027850 11508 net.cpp:399] inception_4e/3x3_reduce -> inception_4e/3x3_reduce
I0403 15:50:27.030016 11508 net.cpp:141] Setting up inception_4e/3x3_reduce
I0403 15:50:27.030046 11508 net.cpp:148] Top shape: 24 160 14 14 (752640)
I0403 15:50:27.030062 11508 net.cpp:156] Memory required for data: 1221076512
I0403 15:50:27.030081 11508 layer_factory.hpp:77] Creating layer inception_4e/relu_3x3_reduce
I0403 15:50:27.030099 11508 net.cpp:91] Creating Layer inception_4e/relu_3x3_reduce
I0403 15:50:27.030117 11508 net.cpp:425] inception_4e/relu_3x3_reduce <- inception_4e/3x3_reduce
I0403 15:50:27.030135 11508 net.cpp:386] inception_4e/relu_3x3_reduce -> inception_4e/3x3_reduce (in-place)
I0403 15:50:27.030318 11508 net.cpp:141] Setting up inception_4e/relu_3x3_reduce
I0403 15:50:27.030344 11508 net.cpp:148] Top shape: 24 160 14 14 (752640)
I0403 15:50:27.030359 11508 net.cpp:156] Memory required for data: 1224087072
I0403 15:50:27.030374 11508 layer_factory.hpp:77] Creating layer inception_4e/3x3
I0403 15:50:27.030395 11508 net.cpp:91] Creating Layer inception_4e/3x3
I0403 15:50:27.030412 11508 net.cpp:425] inception_4e/3x3 <- inception_4e/3x3_reduce
I0403 15:50:27.030433 11508 net.cpp:399] inception_4e/3x3 -> inception_4e/3x3
I0403 15:50:27.035476 11508 net.cpp:141] Setting up inception_4e/3x3
I0403 15:50:27.035516 11508 net.cpp:148] Top shape: 24 320 14 14 (1505280)
I0403 15:50:27.035532 11508 net.cpp:156] Memory required for data: 1230108192
I0403 15:50:27.035550 11508 layer_factory.hpp:77] Creating layer inception_4e/relu_3x3
I0403 15:50:27.035572 11508 net.cpp:91] Creating Layer inception_4e/relu_3x3
I0403 15:50:27.035588 11508 net.cpp:425] inception_4e/relu_3x3 <- inception_4e/3x3
I0403 15:50:27.035605 11508 net.cpp:386] inception_4e/relu_3x3 -> inception_4e/3x3 (in-place)
I0403 15:50:27.035897 11508 net.cpp:141] Setting up inception_4e/relu_3x3
I0403 15:50:27.035923 11508 net.cpp:148] Top shape: 24 320 14 14 (1505280)
I0403 15:50:27.035938 11508 net.cpp:156] Memory required for data: 1236129312
I0403 15:50:27.035953 11508 layer_factory.hpp:77] Creating layer inception_4e/5x5_reduce
I0403 15:50:27.035974 11508 net.cpp:91] Creating Layer inception_4e/5x5_reduce
I0403 15:50:27.035996 11508 net.cpp:425] inception_4e/5x5_reduce <- inception_4d/output_inception_4d/output_0_split_3
I0403 15:50:27.036018 11508 net.cpp:399] inception_4e/5x5_reduce -> inception_4e/5x5_reduce
I0403 15:50:27.037058 11508 net.cpp:141] Setting up inception_4e/5x5_reduce
I0403 15:50:27.037087 11508 net.cpp:148] Top shape: 24 32 14 14 (150528)
I0403 15:50:27.037103 11508 net.cpp:156] Memory required for data: 1236731424
I0403 15:50:27.037122 11508 layer_factory.hpp:77] Creating layer inception_4e/relu_5x5_reduce
I0403 15:50:27.037140 11508 net.cpp:91] Creating Layer inception_4e/relu_5x5_reduce
I0403 15:50:27.037156 11508 net.cpp:425] inception_4e/relu_5x5_reduce <- inception_4e/5x5_reduce
I0403 15:50:27.037176 11508 net.cpp:386] inception_4e/relu_5x5_reduce -> inception_4e/5x5_reduce (in-place)
I0403 15:50:27.037466 11508 net.cpp:141] Setting up inception_4e/relu_5x5_reduce
I0403 15:50:27.037493 11508 net.cpp:148] Top shape: 24 32 14 14 (150528)
I0403 15:50:27.037509 11508 net.cpp:156] Memory required for data: 1237333536
I0403 15:50:27.037525 11508 layer_factory.hpp:77] Creating layer inception_4e/5x5
I0403 15:50:27.037564 11508 net.cpp:91] Creating Layer inception_4e/5x5
I0403 15:50:27.037582 11508 net.cpp:425] inception_4e/5x5 <- inception_4e/5x5_reduce
I0403 15:50:27.037601 11508 net.cpp:399] inception_4e/5x5 -> inception_4e/5x5
I0403 15:50:27.039528 11508 net.cpp:141] Setting up inception_4e/5x5
I0403 15:50:27.039569 11508 net.cpp:148] Top shape: 24 128 14 14 (602112)
I0403 15:50:27.039587 11508 net.cpp:156] Memory required for data: 1239741984
I0403 15:50:27.039607 11508 layer_factory.hpp:77] Creating layer inception_4e/relu_5x5
I0403 15:50:27.039628 11508 net.cpp:91] Creating Layer inception_4e/relu_5x5
I0403 15:50:27.039646 11508 net.cpp:425] inception_4e/relu_5x5 <- inception_4e/5x5
I0403 15:50:27.039677 11508 net.cpp:386] inception_4e/relu_5x5 -> inception_4e/5x5 (in-place)
I0403 15:50:27.039885 11508 net.cpp:141] Setting up inception_4e/relu_5x5
I0403 15:50:27.039911 11508 net.cpp:148] Top shape: 24 128 14 14 (602112)
I0403 15:50:27.039926 11508 net.cpp:156] Memory required for data: 1242150432
I0403 15:50:27.039942 11508 layer_factory.hpp:77] Creating layer inception_4e/pool
I0403 15:50:27.039959 11508 net.cpp:91] Creating Layer inception_4e/pool
I0403 15:50:27.039975 11508 net.cpp:425] inception_4e/pool <- inception_4d/output_inception_4d/output_0_split_4
I0403 15:50:27.040000 11508 net.cpp:399] inception_4e/pool -> inception_4e/pool
I0403 15:50:27.040069 11508 net.cpp:141] Setting up inception_4e/pool
I0403 15:50:27.040093 11508 net.cpp:148] Top shape: 24 528 14 14 (2483712)
I0403 15:50:27.040107 11508 net.cpp:156] Memory required for data: 1252085280
I0403 15:50:27.040122 11508 layer_factory.hpp:77] Creating layer inception_4e/pool_proj
I0403 15:50:27.040146 11508 net.cpp:91] Creating Layer inception_4e/pool_proj
I0403 15:50:27.040163 11508 net.cpp:425] inception_4e/pool_proj <- inception_4e/pool
I0403 15:50:27.040182 11508 net.cpp:399] inception_4e/pool_proj -> inception_4e/pool_proj
I0403 15:50:27.041667 11508 net.cpp:141] Setting up inception_4e/pool_proj
I0403 15:50:27.041707 11508 net.cpp:148] Top shape: 24 128 14 14 (602112)
I0403 15:50:27.041723 11508 net.cpp:156] Memory required for data: 1254493728
I0403 15:50:27.041743 11508 layer_factory.hpp:77] Creating layer inception_4e/relu_pool_proj
I0403 15:50:27.041764 11508 net.cpp:91] Creating Layer inception_4e/relu_pool_proj
I0403 15:50:27.041781 11508 net.cpp:425] inception_4e/relu_pool_proj <- inception_4e/pool_proj
I0403 15:50:27.041800 11508 net.cpp:386] inception_4e/relu_pool_proj -> inception_4e/pool_proj (in-place)
I0403 15:50:27.042106 11508 net.cpp:141] Setting up inception_4e/relu_pool_proj
I0403 15:50:27.042132 11508 net.cpp:148] Top shape: 24 128 14 14 (602112)
I0403 15:50:27.042148 11508 net.cpp:156] Memory required for data: 1256902176
I0403 15:50:27.042163 11508 layer_factory.hpp:77] Creating layer inception_4e/output
I0403 15:50:27.042183 11508 net.cpp:91] Creating Layer inception_4e/output
I0403 15:50:27.042201 11508 net.cpp:425] inception_4e/output <- inception_4e/1x1
I0403 15:50:27.042217 11508 net.cpp:425] inception_4e/output <- inception_4e/3x3
I0403 15:50:27.042233 11508 net.cpp:425] inception_4e/output <- inception_4e/5x5
I0403 15:50:27.042249 11508 net.cpp:425] inception_4e/output <- inception_4e/pool_proj
I0403 15:50:27.042268 11508 net.cpp:399] inception_4e/output -> inception_4e/output
I0403 15:50:27.042317 11508 net.cpp:141] Setting up inception_4e/output
I0403 15:50:27.042340 11508 net.cpp:148] Top shape: 24 832 14 14 (3913728)
I0403 15:50:27.042354 11508 net.cpp:156] Memory required for data: 1272557088
I0403 15:50:27.042369 11508 layer_factory.hpp:77] Creating layer pool4/3x3_s2
I0403 15:50:27.042387 11508 net.cpp:91] Creating Layer pool4/3x3_s2
I0403 15:50:27.042403 11508 net.cpp:425] pool4/3x3_s2 <- inception_4e/output
I0403 15:50:27.042424 11508 net.cpp:399] pool4/3x3_s2 -> pool4/3x3_s2
I0403 15:50:27.042493 11508 net.cpp:141] Setting up pool4/3x3_s2
I0403 15:50:27.042516 11508 net.cpp:148] Top shape: 24 832 7 7 (978432)
I0403 15:50:27.042532 11508 net.cpp:156] Memory required for data: 1276470816
I0403 15:50:27.042546 11508 layer_factory.hpp:77] Creating layer pool4/3x3_s2_pool4/3x3_s2_0_split
I0403 15:50:27.042567 11508 net.cpp:91] Creating Layer pool4/3x3_s2_pool4/3x3_s2_0_split
I0403 15:50:27.042584 11508 net.cpp:425] pool4/3x3_s2_pool4/3x3_s2_0_split <- pool4/3x3_s2
I0403 15:50:27.042604 11508 net.cpp:399] pool4/3x3_s2_pool4/3x3_s2_0_split -> pool4/3x3_s2_pool4/3x3_s2_0_split_0
I0403 15:50:27.042624 11508 net.cpp:399] pool4/3x3_s2_pool4/3x3_s2_0_split -> pool4/3x3_s2_pool4/3x3_s2_0_split_1
I0403 15:50:27.042644 11508 net.cpp:399] pool4/3x3_s2_pool4/3x3_s2_0_split -> pool4/3x3_s2_pool4/3x3_s2_0_split_2
I0403 15:50:27.042665 11508 net.cpp:399] pool4/3x3_s2_pool4/3x3_s2_0_split -> pool4/3x3_s2_pool4/3x3_s2_0_split_3
I0403 15:50:27.042752 11508 net.cpp:141] Setting up pool4/3x3_s2_pool4/3x3_s2_0_split
I0403 15:50:27.042778 11508 net.cpp:148] Top shape: 24 832 7 7 (978432)
I0403 15:50:27.042794 11508 net.cpp:148] Top shape: 24 832 7 7 (978432)
I0403 15:50:27.042810 11508 net.cpp:148] Top shape: 24 832 7 7 (978432)
I0403 15:50:27.042826 11508 net.cpp:148] Top shape: 24 832 7 7 (978432)
I0403 15:50:27.042840 11508 net.cpp:156] Memory required for data: 1292125728
I0403 15:50:27.042855 11508 layer_factory.hpp:77] Creating layer inception_5a/1x1
I0403 15:50:27.042877 11508 net.cpp:91] Creating Layer inception_5a/1x1
I0403 15:50:27.042896 11508 net.cpp:425] inception_5a/1x1 <- pool4/3x3_s2_pool4/3x3_s2_0_split_0
I0403 15:50:27.042914 11508 net.cpp:399] inception_5a/1x1 -> inception_5a/1x1
I0403 15:50:27.045809 11508 net.cpp:141] Setting up inception_5a/1x1
I0403 15:50:27.045840 11508 net.cpp:148] Top shape: 24 256 7 7 (301056)
I0403 15:50:27.045855 11508 net.cpp:156] Memory required for data: 1293329952
I0403 15:50:27.045874 11508 layer_factory.hpp:77] Creating layer inception_5a/relu_1x1
I0403 15:50:27.045892 11508 net.cpp:91] Creating Layer inception_5a/relu_1x1
I0403 15:50:27.045908 11508 net.cpp:425] inception_5a/relu_1x1 <- inception_5a/1x1
I0403 15:50:27.045927 11508 net.cpp:386] inception_5a/relu_1x1 -> inception_5a/1x1 (in-place)
I0403 15:50:27.046250 11508 net.cpp:141] Setting up inception_5a/relu_1x1
I0403 15:50:27.046279 11508 net.cpp:148] Top shape: 24 256 7 7 (301056)
I0403 15:50:27.046296 11508 net.cpp:156] Memory required for data: 1294534176
I0403 15:50:27.046313 11508 layer_factory.hpp:77] Creating layer inception_5a/3x3_reduce
I0403 15:50:27.046334 11508 net.cpp:91] Creating Layer inception_5a/3x3_reduce
I0403 15:50:27.046352 11508 net.cpp:425] inception_5a/3x3_reduce <- pool4/3x3_s2_pool4/3x3_s2_0_split_1
I0403 15:50:27.046372 11508 net.cpp:399] inception_5a/3x3_reduce -> inception_5a/3x3_reduce
I0403 15:50:27.048933 11508 net.cpp:141] Setting up inception_5a/3x3_reduce
I0403 15:50:27.048974 11508 net.cpp:148] Top shape: 24 160 7 7 (188160)
I0403 15:50:27.049002 11508 net.cpp:156] Memory required for data: 1295286816
I0403 15:50:27.049022 11508 layer_factory.hpp:77] Creating layer inception_5a/relu_3x3_reduce
I0403 15:50:27.049046 11508 net.cpp:91] Creating Layer inception_5a/relu_3x3_reduce
I0403 15:50:27.049064 11508 net.cpp:425] inception_5a/relu_3x3_reduce <- inception_5a/3x3_reduce
I0403 15:50:27.049082 11508 net.cpp:386] inception_5a/relu_3x3_reduce -> inception_5a/3x3_reduce (in-place)
I0403 15:50:27.049271 11508 net.cpp:141] Setting up inception_5a/relu_3x3_reduce
I0403 15:50:27.049311 11508 net.cpp:148] Top shape: 24 160 7 7 (188160)
I0403 15:50:27.049327 11508 net.cpp:156] Memory required for data: 1296039456
I0403 15:50:27.049342 11508 layer_factory.hpp:77] Creating layer inception_5a/3x3
I0403 15:50:27.049365 11508 net.cpp:91] Creating Layer inception_5a/3x3
I0403 15:50:27.049382 11508 net.cpp:425] inception_5a/3x3 <- inception_5a/3x3_reduce
I0403 15:50:27.049401 11508 net.cpp:399] inception_5a/3x3 -> inception_5a/3x3
I0403 15:50:27.054574 11508 net.cpp:141] Setting up inception_5a/3x3
I0403 15:50:27.054605 11508 net.cpp:148] Top shape: 24 320 7 7 (376320)
I0403 15:50:27.054620 11508 net.cpp:156] Memory required for data: 1297544736
I0403 15:50:27.054639 11508 layer_factory.hpp:77] Creating layer inception_5a/relu_3x3
I0403 15:50:27.054658 11508 net.cpp:91] Creating Layer inception_5a/relu_3x3
I0403 15:50:27.054674 11508 net.cpp:425] inception_5a/relu_3x3 <- inception_5a/3x3
I0403 15:50:27.054694 11508 net.cpp:386] inception_5a/relu_3x3 -> inception_5a/3x3 (in-place)
I0403 15:50:27.055001 11508 net.cpp:141] Setting up inception_5a/relu_3x3
I0403 15:50:27.055028 11508 net.cpp:148] Top shape: 24 320 7 7 (376320)
I0403 15:50:27.055047 11508 net.cpp:156] Memory required for data: 1299050016
I0403 15:50:27.055061 11508 layer_factory.hpp:77] Creating layer inception_5a/5x5_reduce
I0403 15:50:27.055085 11508 net.cpp:91] Creating Layer inception_5a/5x5_reduce
I0403 15:50:27.055104 11508 net.cpp:425] inception_5a/5x5_reduce <- pool4/3x3_s2_pool4/3x3_s2_0_split_2
I0403 15:50:27.055124 11508 net.cpp:399] inception_5a/5x5_reduce -> inception_5a/5x5_reduce
I0403 15:50:27.056272 11508 net.cpp:141] Setting up inception_5a/5x5_reduce
I0403 15:50:27.056303 11508 net.cpp:148] Top shape: 24 32 7 7 (37632)
I0403 15:50:27.056319 11508 net.cpp:156] Memory required for data: 1299200544
I0403 15:50:27.056347 11508 layer_factory.hpp:77] Creating layer inception_5a/relu_5x5_reduce
I0403 15:50:27.056366 11508 net.cpp:91] Creating Layer inception_5a/relu_5x5_reduce
I0403 15:50:27.056382 11508 net.cpp:425] inception_5a/relu_5x5_reduce <- inception_5a/5x5_reduce
I0403 15:50:27.056402 11508 net.cpp:386] inception_5a/relu_5x5_reduce -> inception_5a/5x5_reduce (in-place)
I0403 15:50:27.056704 11508 net.cpp:141] Setting up inception_5a/relu_5x5_reduce
I0403 15:50:27.056730 11508 net.cpp:148] Top shape: 24 32 7 7 (37632)
I0403 15:50:27.056746 11508 net.cpp:156] Memory required for data: 1299351072
I0403 15:50:27.056761 11508 layer_factory.hpp:77] Creating layer inception_5a/5x5
I0403 15:50:27.056787 11508 net.cpp:91] Creating Layer inception_5a/5x5
I0403 15:50:27.056805 11508 net.cpp:425] inception_5a/5x5 <- inception_5a/5x5_reduce
I0403 15:50:27.056826 11508 net.cpp:399] inception_5a/5x5 -> inception_5a/5x5
I0403 15:50:27.058585 11508 net.cpp:141] Setting up inception_5a/5x5
I0403 15:50:27.058627 11508 net.cpp:148] Top shape: 24 128 7 7 (150528)
I0403 15:50:27.058645 11508 net.cpp:156] Memory required for data: 1299953184
I0403 15:50:27.058665 11508 layer_factory.hpp:77] Creating layer inception_5a/relu_5x5
I0403 15:50:27.058683 11508 net.cpp:91] Creating Layer inception_5a/relu_5x5
I0403 15:50:27.058701 11508 net.cpp:425] inception_5a/relu_5x5 <- inception_5a/5x5
I0403 15:50:27.058732 11508 net.cpp:386] inception_5a/relu_5x5 -> inception_5a/5x5 (in-place)
I0403 15:50:27.058931 11508 net.cpp:141] Setting up inception_5a/relu_5x5
I0403 15:50:27.058957 11508 net.cpp:148] Top shape: 24 128 7 7 (150528)
I0403 15:50:27.058972 11508 net.cpp:156] Memory required for data: 1300555296
I0403 15:50:27.059000 11508 layer_factory.hpp:77] Creating layer inception_5a/pool
I0403 15:50:27.059020 11508 net.cpp:91] Creating Layer inception_5a/pool
I0403 15:50:27.059037 11508 net.cpp:425] inception_5a/pool <- pool4/3x3_s2_pool4/3x3_s2_0_split_3
I0403 15:50:27.059059 11508 net.cpp:399] inception_5a/pool -> inception_5a/pool
I0403 15:50:27.059133 11508 net.cpp:141] Setting up inception_5a/pool
I0403 15:50:27.059168 11508 net.cpp:148] Top shape: 24 832 7 7 (978432)
I0403 15:50:27.059185 11508 net.cpp:156] Memory required for data: 1304469024
I0403 15:50:27.059201 11508 layer_factory.hpp:77] Creating layer inception_5a/pool_proj
I0403 15:50:27.059226 11508 net.cpp:91] Creating Layer inception_5a/pool_proj
I0403 15:50:27.059244 11508 net.cpp:425] inception_5a/pool_proj <- inception_5a/pool
I0403 15:50:27.059264 11508 net.cpp:399] inception_5a/pool_proj -> inception_5a/pool_proj
I0403 15:50:27.061712 11508 net.cpp:141] Setting up inception_5a/pool_proj
I0403 15:50:27.061741 11508 net.cpp:148] Top shape: 24 128 7 7 (150528)
I0403 15:50:27.061758 11508 net.cpp:156] Memory required for data: 1305071136
I0403 15:50:27.061775 11508 layer_factory.hpp:77] Creating layer inception_5a/relu_pool_proj
I0403 15:50:27.061796 11508 net.cpp:91] Creating Layer inception_5a/relu_pool_proj
I0403 15:50:27.061812 11508 net.cpp:425] inception_5a/relu_pool_proj <- inception_5a/pool_proj
I0403 15:50:27.061830 11508 net.cpp:386] inception_5a/relu_pool_proj -> inception_5a/pool_proj (in-place)
I0403 15:50:27.062147 11508 net.cpp:141] Setting up inception_5a/relu_pool_proj
I0403 15:50:27.062175 11508 net.cpp:148] Top shape: 24 128 7 7 (150528)
I0403 15:50:27.062189 11508 net.cpp:156] Memory required for data: 1305673248
I0403 15:50:27.062206 11508 layer_factory.hpp:77] Creating layer inception_5a/output
I0403 15:50:27.062225 11508 net.cpp:91] Creating Layer inception_5a/output
I0403 15:50:27.062242 11508 net.cpp:425] inception_5a/output <- inception_5a/1x1
I0403 15:50:27.062260 11508 net.cpp:425] inception_5a/output <- inception_5a/3x3
I0403 15:50:27.062278 11508 net.cpp:425] inception_5a/output <- inception_5a/5x5
I0403 15:50:27.062294 11508 net.cpp:425] inception_5a/output <- inception_5a/pool_proj
I0403 15:50:27.062311 11508 net.cpp:399] inception_5a/output -> inception_5a/output
I0403 15:50:27.062376 11508 net.cpp:141] Setting up inception_5a/output
I0403 15:50:27.062398 11508 net.cpp:148] Top shape: 24 832 7 7 (978432)
I0403 15:50:27.062413 11508 net.cpp:156] Memory required for data: 1309586976
I0403 15:50:27.062428 11508 layer_factory.hpp:77] Creating layer inception_5a/output_inception_5a/output_0_split
I0403 15:50:27.062446 11508 net.cpp:91] Creating Layer inception_5a/output_inception_5a/output_0_split
I0403 15:50:27.062463 11508 net.cpp:425] inception_5a/output_inception_5a/output_0_split <- inception_5a/output
I0403 15:50:27.062482 11508 net.cpp:399] inception_5a/output_inception_5a/output_0_split -> inception_5a/output_inception_5a/output_0_split_0
I0403 15:50:27.062515 11508 net.cpp:399] inception_5a/output_inception_5a/output_0_split -> inception_5a/output_inception_5a/output_0_split_1
I0403 15:50:27.062536 11508 net.cpp:399] inception_5a/output_inception_5a/output_0_split -> inception_5a/output_inception_5a/output_0_split_2
I0403 15:50:27.062557 11508 net.cpp:399] inception_5a/output_inception_5a/output_0_split -> inception_5a/output_inception_5a/output_0_split_3
I0403 15:50:27.062669 11508 net.cpp:141] Setting up inception_5a/output_inception_5a/output_0_split
I0403 15:50:27.062695 11508 net.cpp:148] Top shape: 24 832 7 7 (978432)
I0403 15:50:27.062711 11508 net.cpp:148] Top shape: 24 832 7 7 (978432)
I0403 15:50:27.062728 11508 net.cpp:148] Top shape: 24 832 7 7 (978432)
I0403 15:50:27.062744 11508 net.cpp:148] Top shape: 24 832 7 7 (978432)
I0403 15:50:27.062759 11508 net.cpp:156] Memory required for data: 1325241888
I0403 15:50:27.062774 11508 layer_factory.hpp:77] Creating layer inception_5b/1x1
I0403 15:50:27.062798 11508 net.cpp:91] Creating Layer inception_5b/1x1
I0403 15:50:27.062815 11508 net.cpp:425] inception_5b/1x1 <- inception_5a/output_inception_5a/output_0_split_0
I0403 15:50:27.062836 11508 net.cpp:399] inception_5b/1x1 -> inception_5b/1x1
I0403 15:50:27.066759 11508 net.cpp:141] Setting up inception_5b/1x1
I0403 15:50:27.066790 11508 net.cpp:148] Top shape: 24 384 7 7 (451584)
I0403 15:50:27.066819 11508 net.cpp:156] Memory required for data: 1327048224
I0403 15:50:27.066839 11508 layer_factory.hpp:77] Creating layer inception_5b/relu_1x1
I0403 15:50:27.066874 11508 net.cpp:91] Creating Layer inception_5b/relu_1x1
I0403 15:50:27.066891 11508 net.cpp:425] inception_5b/relu_1x1 <- inception_5b/1x1
I0403 15:50:27.066910 11508 net.cpp:386] inception_5b/relu_1x1 -> inception_5b/1x1 (in-place)
I0403 15:50:27.067263 11508 net.cpp:141] Setting up inception_5b/relu_1x1
I0403 15:50:27.067289 11508 net.cpp:148] Top shape: 24 384 7 7 (451584)
I0403 15:50:27.067306 11508 net.cpp:156] Memory required for data: 1328854560
I0403 15:50:27.067320 11508 layer_factory.hpp:77] Creating layer inception_5b/3x3_reduce
I0403 15:50:27.067343 11508 net.cpp:91] Creating Layer inception_5b/3x3_reduce
I0403 15:50:27.067363 11508 net.cpp:425] inception_5b/3x3_reduce <- inception_5a/output_inception_5a/output_0_split_1
I0403 15:50:27.067385 11508 net.cpp:399] inception_5b/3x3_reduce -> inception_5b/3x3_reduce
I0403 15:50:27.070050 11508 net.cpp:141] Setting up inception_5b/3x3_reduce
I0403 15:50:27.070078 11508 net.cpp:148] Top shape: 24 192 7 7 (225792)
I0403 15:50:27.070093 11508 net.cpp:156] Memory required for data: 1329757728
I0403 15:50:27.070112 11508 layer_factory.hpp:77] Creating layer inception_5b/relu_3x3_reduce
I0403 15:50:27.070133 11508 net.cpp:91] Creating Layer inception_5b/relu_3x3_reduce
I0403 15:50:27.070152 11508 net.cpp:425] inception_5b/relu_3x3_reduce <- inception_5b/3x3_reduce
I0403 15:50:27.070169 11508 net.cpp:386] inception_5b/relu_3x3_reduce -> inception_5b/3x3_reduce (in-place)
I0403 15:50:27.070358 11508 net.cpp:141] Setting up inception_5b/relu_3x3_reduce
I0403 15:50:27.070384 11508 net.cpp:148] Top shape: 24 192 7 7 (225792)
I0403 15:50:27.070400 11508 net.cpp:156] Memory required for data: 1330660896
I0403 15:50:27.070415 11508 layer_factory.hpp:77] Creating layer inception_5b/3x3
I0403 15:50:27.070437 11508 net.cpp:91] Creating Layer inception_5b/3x3
I0403 15:50:27.070456 11508 net.cpp:425] inception_5b/3x3 <- inception_5b/3x3_reduce
I0403 15:50:27.070475 11508 net.cpp:399] inception_5b/3x3 -> inception_5b/3x3
I0403 15:50:27.077333 11508 net.cpp:141] Setting up inception_5b/3x3
I0403 15:50:27.077361 11508 net.cpp:148] Top shape: 24 384 7 7 (451584)
I0403 15:50:27.077378 11508 net.cpp:156] Memory required for data: 1332467232
I0403 15:50:27.077395 11508 layer_factory.hpp:77] Creating layer inception_5b/relu_3x3
I0403 15:50:27.077416 11508 net.cpp:91] Creating Layer inception_5b/relu_3x3
I0403 15:50:27.077433 11508 net.cpp:425] inception_5b/relu_3x3 <- inception_5b/3x3
I0403 15:50:27.077451 11508 net.cpp:386] inception_5b/relu_3x3 -> inception_5b/3x3 (in-place)
I0403 15:50:27.077747 11508 net.cpp:141] Setting up inception_5b/relu_3x3
I0403 15:50:27.077774 11508 net.cpp:148] Top shape: 24 384 7 7 (451584)
I0403 15:50:27.077795 11508 net.cpp:156] Memory required for data: 1334273568
I0403 15:50:27.077811 11508 layer_factory.hpp:77] Creating layer inception_5b/5x5_reduce
I0403 15:50:27.077846 11508 net.cpp:91] Creating Layer inception_5b/5x5_reduce
I0403 15:50:27.077863 11508 net.cpp:425] inception_5b/5x5_reduce <- inception_5a/output_inception_5a/output_0_split_2
I0403 15:50:27.077884 11508 net.cpp:399] inception_5b/5x5_reduce -> inception_5b/5x5_reduce
I0403 15:50:27.079242 11508 net.cpp:141] Setting up inception_5b/5x5_reduce
I0403 15:50:27.079282 11508 net.cpp:148] Top shape: 24 48 7 7 (56448)
I0403 15:50:27.079298 11508 net.cpp:156] Memory required for data: 1334499360
I0403 15:50:27.079318 11508 layer_factory.hpp:77] Creating layer inception_5b/relu_5x5_reduce
I0403 15:50:27.079339 11508 net.cpp:91] Creating Layer inception_5b/relu_5x5_reduce
I0403 15:50:27.079356 11508 net.cpp:425] inception_5b/relu_5x5_reduce <- inception_5b/5x5_reduce
I0403 15:50:27.079375 11508 net.cpp:386] inception_5b/relu_5x5_reduce -> inception_5b/5x5_reduce (in-place)
I0403 15:50:27.079787 11508 net.cpp:141] Setting up inception_5b/relu_5x5_reduce
I0403 15:50:27.079813 11508 net.cpp:148] Top shape: 24 48 7 7 (56448)
I0403 15:50:27.079829 11508 net.cpp:156] Memory required for data: 1334725152
I0403 15:50:27.079844 11508 layer_factory.hpp:77] Creating layer inception_5b/5x5
I0403 15:50:27.079865 11508 net.cpp:91] Creating Layer inception_5b/5x5
I0403 15:50:27.079882 11508 net.cpp:425] inception_5b/5x5 <- inception_5b/5x5_reduce
I0403 15:50:27.079901 11508 net.cpp:399] inception_5b/5x5 -> inception_5b/5x5
I0403 15:50:27.081976 11508 net.cpp:141] Setting up inception_5b/5x5
I0403 15:50:27.082010 11508 net.cpp:148] Top shape: 24 128 7 7 (150528)
I0403 15:50:27.082026 11508 net.cpp:156] Memory required for data: 1335327264
I0403 15:50:27.082044 11508 layer_factory.hpp:77] Creating layer inception_5b/relu_5x5
I0403 15:50:27.082062 11508 net.cpp:91] Creating Layer inception_5b/relu_5x5
I0403 15:50:27.082078 11508 net.cpp:425] inception_5b/relu_5x5 <- inception_5b/5x5
I0403 15:50:27.082095 11508 net.cpp:386] inception_5b/relu_5x5 -> inception_5b/5x5 (in-place)
I0403 15:50:27.082288 11508 net.cpp:141] Setting up inception_5b/relu_5x5
I0403 15:50:27.082314 11508 net.cpp:148] Top shape: 24 128 7 7 (150528)
I0403 15:50:27.082329 11508 net.cpp:156] Memory required for data: 1335929376
I0403 15:50:27.082343 11508 layer_factory.hpp:77] Creating layer inception_5b/pool
I0403 15:50:27.082361 11508 net.cpp:91] Creating Layer inception_5b/pool
I0403 15:50:27.082377 11508 net.cpp:425] inception_5b/pool <- inception_5a/output_inception_5a/output_0_split_3
I0403 15:50:27.082398 11508 net.cpp:399] inception_5b/pool -> inception_5b/pool
I0403 15:50:27.082468 11508 net.cpp:141] Setting up inception_5b/pool
I0403 15:50:27.082494 11508 net.cpp:148] Top shape: 24 832 7 7 (978432)
I0403 15:50:27.082509 11508 net.cpp:156] Memory required for data: 1339843104
I0403 15:50:27.082525 11508 layer_factory.hpp:77] Creating layer inception_5b/pool_proj
I0403 15:50:27.082558 11508 net.cpp:91] Creating Layer inception_5b/pool_proj
I0403 15:50:27.082576 11508 net.cpp:425] inception_5b/pool_proj <- inception_5b/pool
I0403 15:50:27.082597 11508 net.cpp:399] inception_5b/pool_proj -> inception_5b/pool_proj
I0403 15:50:27.084992 11508 net.cpp:141] Setting up inception_5b/pool_proj
I0403 15:50:27.085022 11508 net.cpp:148] Top shape: 24 128 7 7 (150528)
I0403 15:50:27.085038 11508 net.cpp:156] Memory required for data: 1340445216
I0403 15:50:27.085058 11508 layer_factory.hpp:77] Creating layer inception_5b/relu_pool_proj
I0403 15:50:27.085078 11508 net.cpp:91] Creating Layer inception_5b/relu_pool_proj
I0403 15:50:27.085096 11508 net.cpp:425] inception_5b/relu_pool_proj <- inception_5b/pool_proj
I0403 15:50:27.085127 11508 net.cpp:386] inception_5b/relu_pool_proj -> inception_5b/pool_proj (in-place)
I0403 15:50:27.085423 11508 net.cpp:141] Setting up inception_5b/relu_pool_proj
I0403 15:50:27.085449 11508 net.cpp:148] Top shape: 24 128 7 7 (150528)
I0403 15:50:27.085464 11508 net.cpp:156] Memory required for data: 1341047328
I0403 15:50:27.085479 11508 layer_factory.hpp:77] Creating layer inception_5b/output
I0403 15:50:27.085500 11508 net.cpp:91] Creating Layer inception_5b/output
I0403 15:50:27.085530 11508 net.cpp:425] inception_5b/output <- inception_5b/1x1
I0403 15:50:27.085547 11508 net.cpp:425] inception_5b/output <- inception_5b/3x3
I0403 15:50:27.085563 11508 net.cpp:425] inception_5b/output <- inception_5b/5x5
I0403 15:50:27.085580 11508 net.cpp:425] inception_5b/output <- inception_5b/pool_proj
I0403 15:50:27.085598 11508 net.cpp:399] inception_5b/output -> inception_5b/output
I0403 15:50:27.085650 11508 net.cpp:141] Setting up inception_5b/output
I0403 15:50:27.085674 11508 net.cpp:148] Top shape: 24 1024 7 7 (1204224)
I0403 15:50:27.085688 11508 net.cpp:156] Memory required for data: 1345864224
I0403 15:50:27.085703 11508 layer_factory.hpp:77] Creating layer pool5/7x7_s1
I0403 15:50:27.085721 11508 net.cpp:91] Creating Layer pool5/7x7_s1
I0403 15:50:27.085736 11508 net.cpp:425] pool5/7x7_s1 <- inception_5b/output
I0403 15:50:27.085757 11508 net.cpp:399] pool5/7x7_s1 -> pool5/7x7_s1
I0403 15:50:27.085969 11508 net.cpp:141] Setting up pool5/7x7_s1
I0403 15:50:27.086000 11508 net.cpp:148] Top shape: 24 1024 1 1 (24576)
I0403 15:50:27.086016 11508 net.cpp:156] Memory required for data: 1345962528
I0403 15:50:27.086031 11508 layer_factory.hpp:77] Creating layer pool5/drop_7x7_s1
I0403 15:50:27.086050 11508 net.cpp:91] Creating Layer pool5/drop_7x7_s1
I0403 15:50:27.086066 11508 net.cpp:425] pool5/drop_7x7_s1 <- pool5/7x7_s1
I0403 15:50:27.086082 11508 net.cpp:386] pool5/drop_7x7_s1 -> pool5/7x7_s1 (in-place)
I0403 15:50:27.086134 11508 net.cpp:141] Setting up pool5/drop_7x7_s1
I0403 15:50:27.086158 11508 net.cpp:148] Top shape: 24 1024 1 1 (24576)
I0403 15:50:27.086171 11508 net.cpp:156] Memory required for data: 1346060832
I0403 15:50:27.086185 11508 layer_factory.hpp:77] Creating layer loss3/classifier_plantvillage
I0403 15:50:27.086207 11508 net.cpp:91] Creating Layer loss3/classifier_plantvillage
I0403 15:50:27.086225 11508 net.cpp:425] loss3/classifier_plantvillage <- pool5/7x7_s1
I0403 15:50:27.086242 11508 net.cpp:399] loss3/classifier_plantvillage -> loss3/classifier_plantvillage
I0403 15:50:27.086658 11508 net.cpp:141] Setting up loss3/classifier_plantvillage
I0403 15:50:27.086681 11508 net.cpp:148] Top shape: 24 38 (912)
I0403 15:50:27.086696 11508 net.cpp:156] Memory required for data: 1346064480
I0403 15:50:27.086715 11508 layer_factory.hpp:77] Creating layer loss3/classifier_plantvillage_loss3/classifier_plantvillage_0_split
I0403 15:50:27.086733 11508 net.cpp:91] Creating Layer loss3/classifier_plantvillage_loss3/classifier_plantvillage_0_split
I0403 15:50:27.086750 11508 net.cpp:425] loss3/classifier_plantvillage_loss3/classifier_plantvillage_0_split <- loss3/classifier_plantvillage
I0403 15:50:27.086771 11508 net.cpp:399] loss3/classifier_plantvillage_loss3/classifier_plantvillage_0_split -> loss3/classifier_plantvillage_loss3/classifier_plantvillage_0_split_0
I0403 15:50:27.086791 11508 net.cpp:399] loss3/classifier_plantvillage_loss3/classifier_plantvillage_0_split -> loss3/classifier_plantvillage_loss3/classifier_plantvillage_0_split_1
I0403 15:50:27.086810 11508 net.cpp:399] loss3/classifier_plantvillage_loss3/classifier_plantvillage_0_split -> loss3/classifier_plantvillage_loss3/classifier_plantvillage_0_split_2
I0403 15:50:27.086830 11508 net.cpp:399] loss3/classifier_plantvillage_loss3/classifier_plantvillage_0_split -> loss3/classifier_plantvillage_loss3/classifier_plantvillage_0_split_3
I0403 15:50:27.086927 11508 net.cpp:141] Setting up loss3/classifier_plantvillage_loss3/classifier_plantvillage_0_split
I0403 15:50:27.086951 11508 net.cpp:148] Top shape: 24 38 (912)
I0403 15:50:27.086966 11508 net.cpp:148] Top shape: 24 38 (912)
I0403 15:50:27.086985 11508 net.cpp:148] Top shape: 24 38 (912)
I0403 15:50:27.087002 11508 net.cpp:148] Top shape: 24 38 (912)
I0403 15:50:27.087016 11508 net.cpp:156] Memory required for data: 1346079072
I0403 15:50:27.087031 11508 layer_factory.hpp:77] Creating layer loss1/loss
I0403 15:50:27.087052 11508 net.cpp:91] Creating Layer loss1/loss
I0403 15:50:27.087069 11508 net.cpp:425] loss1/loss <- loss1/classifier_plantvillage_loss1/classifier_plantvillage_0_split_0
I0403 15:50:27.087100 11508 net.cpp:425] loss1/loss <- label_data_1_split_0
…
