…
I0403 15:53:21.487360 11663 net.cpp:313] The NetState phase (1) differed from the phase (0) specified by a rule in layer data
I0403 15:53:21.488502 11663 net.cpp:49] Initializing net from parameters: 
state {
  phase: TEST
}
layer {
  name: "data"
  type: "Data"
  top: "data"
  top: "label"
  include {
    phase: TEST
  }
  transform_param {
    mirror: false
    crop_size: 224
    mean_file: "/home/mohanty/data/final_dataset/lmdb/segmented-80-20/mean.binaryproto"
  }
  data_param {
    source: "/home/mohanty/data/final_dataset/lmdb/segmented-80-20/test_db"
    batch_size: 24
    backend: LMDB
  }
}
layer {
  name: "conv1/7x7_s2"
  type: "Convolution"
  bottom: "data"
  top: "conv1/7x7_s2"
  param {
    lr_mult: 1
    decay_mult: 1
  }
  param {
    lr_mult: 2
    decay_mult: 0
  }
  convolution_param {
    num_output: 64
    pad: 3
    kernel_size: 7
    stride: 2
    weight_filler {
      type: "xavier"
      std: 0.1
    }
    bias_filler {
      type: "constant"
      value: 0.2
    }
  }
}
layer {
  name: "conv1/relu_7x7"
  type: "ReLU"
  bottom: "conv1/7x7_s2"
  top: "conv1/7x7_s2"
}
layer {
  name: "pool1/3x3_s2"
  type: "Pooling"
  bottom: "conv1/7x7_s2"
  top: "pool1/3x3_s2"
  pooling_param {
    pool: MAX
    kernel_size: 3
    stride: 2
  }
}
layer {
  name: "pool1/norm1"
  type: "LRN"
  bottom: "pool1/3x3_s2"
  top: "pool1/norm1"
  lrn_param {
    local_size: 5
    alpha: 0.0001
    beta: 0.75
  }
}
layer {
  name: "conv2/3x3_reduce"
  type: "Convolution"
  bottom: "pool1/norm1"
  top: "conv2/3x3_reduce"
  param {
    lr_mult: 1
    decay_mult: 1
  }
  param {
    lr_mult: 2
    decay_mult: 0
  }
  convolution_param {
    num_output: 64
    kernel_size: 1
    weight_filler {
      type: "xavier"
      std: 0.1
    }
    bias_filler {
      type: "constant"
      value: 0.2
    }
  }
}
layer {
  name: "conv2/relu_3x3_reduce"
  type: "ReLU"
  bottom: "conv2/3x3_reduce"
  top: "conv2/3x3_reduce"
}
layer {
  name: "conv2/3x3"
  type: "Convolution"
  bottom: "conv2/3x3_reduce"
  top: "conv2/3x3"
  param {
    lr_mult: 1
    decay_mult: 1
  }
  param {
    lr_mult: 2
    decay_mult: 0
  }
  convolution_param {
    num_output: 192
    pad: 1
    kernel_size: 3
    weight_filler {
      type: "xavier"
      std: 0.03
    }
    bias_filler {
      type: "constant"
      value: 0.2
    }
  }
}
layer {
  name: "conv2/relu_3x3"
  type: "ReLU"
  bottom: "conv2/3x3"
  top: "conv2/3x3"
}
layer {
  name: "conv2/norm2"
  type: "LRN"
  bottom: "conv2/3x3"
  top: "conv2/norm2"
  lrn_param {
    local_size: 5
    alpha: 0.0001
    beta: 0.75
  }
}
layer {
  name: "pool2/3x3_s2"
  type: "Pooling"
  bottom: "conv2/norm2"
  top: "pool2/3x3_s2"
  pooling_param {
    pool: MAX
    kernel_size: 3
    stride: 2
  }
}
layer {
  name: "inception_3a/1x1"
  type: "Convolution"
  bottom: "pool2/3x3_s2"
  top: "inception_3a/1x1"
  param {
    lr_mult: 1
    decay_mult: 1
  }
  param {
    lr_mult: 2
    decay_mult: 0
  }
  convolution_param {
    num_output: 64
    kernel_size: 1
    weight_filler {
      type: "xavier"
      std: 0.03
    }
    bias_filler {
      type: "constant"
      value: 0.2
    }
  }
}
layer {
  name: "inception_3a/relu_1x1"
  type: "ReLU"
  bottom: "inception_3a/1x1"
  top: "inception_3a/1x1"
}
layer {
  name: "inception_3a/3x3_reduce"
  type: "Convolution"
  bottom: "pool2/3x3_s2"
  top: "inception_3a/3x3_reduce"
  param {
    lr_mult: 1
    decay_mult: 1
  }
  param {
    lr_mult: 2
    decay_mult: 0
  }
  convolution_param {
    num_output: 96
    kernel_size: 1
    weight_filler {
      type: "xavier"
      std: 0.09
    }
    bias_filler {
      type: "constant"
      value: 0.2
    }
  }
}
layer {
  name: "inception_3a/relu_3x3_reduce"
  type: "ReLU"
  bottom: "inception_3a/3x3_reduce"
  top: "inception_3a/3x3_reduce"
}
layer {
  name: "inception_3a/3x3"
  type: "Convolution"
  bottom: "inception_3a/3x3_reduce"
  top: "inception_3a/3x3"
  param {
    lr_mult: 1
    decay_mult: 1
  }
  param {
    lr_mult: 2
    decay_mult: 0
  }
  convolution_param {
    num_output: 128
    pad: 1
    kernel_size: 3
    weight_filler {
      type: "xavier"
      std: 0.03
    }
    bias_filler {
      type: "constant"
      value: 0.2
    }
  }
}
layer {
  name: "inception_3a/relu_3x3"
  type: "ReLU"
  bottom: "inception_3a/3x3"
  top: "inception_3a/3x3"
}
layer {
  name: "inception_3a/5x5_reduce"
  type: "Convolution"
  bottom: "pool2/3x3_s2"
  top: "inception_3a/5x5_reduce"
  param {
    lr_mult: 1
    decay_mult: 1
  }
  param {
    lr_mult: 2
    decay_mult: 0
  }
  convolution_param {
    num_output: 16
    kernel_size: 1
    weight_filler {
      type: "xavier"
      std: 0.2
    }
    bias_filler {
      type: "constant"
      value: 0.2
    }
  }
}
layer {
  name: "inception_3a/relu_5x5_reduce"
  type: "ReLU"
  bottom: "inception_3a/5x5_reduce"
  top: "inception_3a/5x5_reduce"
}
layer {
  name: "inception_3a/5x5"
  type: "Convolution"
  bottom: "inception_3a/5x5_reduce"
  top: "inception_3a/5x5"
  param {
    lr_mult: 1
    decay_mult: 1
  }
  param {
    lr_mult: 2
    decay_mult: 0
  }
  convolution_param {
    num_output: 32
    pad: 2
    kernel_size: 5
    weight_filler {
      type: "xavier"
      std: 0.03
    }
    bias_filler {
      type: "constant"
      value: 0.2
    }
  }
}
layer {
  name: "inception_3a/relu_5x5"
  type: "ReLU"
  bottom: "inception_3a/5x5"
  top: "inception_3a/5x5"
}
layer {
  name: "inception_3a/pool"
  type: "Pooling"
  bottom: "pool2/3x3_s2"
  top: "inception_3a/pool"
  pooling_param {
    pool: MAX
    kernel_size: 3
    stride: 1
    pad: 1
  }
}
layer {
  name: "inception_3a/pool_proj"
  type: "Convolution"
  bottom: "inception_3a/pool"
  top: "inception_3a/pool_proj"
  param {
    lr_mult: 1
    decay_mult: 1
  }
  param {
    lr_mult: 2
    decay_mult: 0
  }
  convolution_param {
    num_output: 32
    kernel_size: 1
    weight_filler {
      type: "xavier"
      std: 0.1
    }
    bias_filler {
      type: "constant"
      value: 0.2
    }
  }
}
layer {
  name: "inception_3a/relu_pool_proj"
  type: "ReLU"
  bottom: "inception_3a/pool_proj"
  top: "inception_3a/pool_proj"
}
layer {
  name: "inception_3a/output"
  type: "Concat"
  bottom: "inception_3a/1x1"
  bottom: "inception_3a/3x3"
  bottom: "inception_3a/5x5"
  bottom: "inception_3a/pool_proj"
  top: "inception_3a/output"
}
layer {
  name: "inception_3b/1x1"
  type: "Convolution"
  bottom: "inception_3a/output"
  top: "inception_3b/1x1"
  param {
    lr_mult: 1
    decay_mult: 1
  }
  param {
    lr_mult: 2
    decay_mult: 0
  }
  convolution_param {
    num_output: 128
    kernel_size: 1
    weight_filler {
      type: "xavier"
      std: 0.03
    }
    bias_filler {
      type: "constant"
      value: 0.2
    }
  }
}
layer {
  name: "inception_3b/relu_1x1"
  type: "ReLU"
  bottom: "inception_3b/1x1"
  top: "inception_3b/1x1"
}
layer {
  name: "inception_3b/3x3_reduce"
  type: "Convolution"
  bottom: "inception_3a/output"
  top: "inception_3b/3x3_reduce"
  param {
    lr_mult: 1
    decay_mult: 1
  }
  param {
    lr_mult: 2
    decay_mult: 0
  }
  convolution_param {
    num_output: 128
    kernel_size: 1
    weight_filler {
      type: "xavier"
      std: 0.09
    }
    bias_filler {
      type: "constant"
      value: 0.2
    }
  }
}
layer {
  name: "inception_3b/relu_3x3_reduce"
  type: "ReLU"
  bottom: "inception_3b/3x3_reduce"
  top: "inception_3b/3x3_reduce"
}
layer {
  name: "inception_3b/3x3"
  type: "Convolution"
  bottom: "inception_3b/3x3_reduce"
  top: "inception_3b/3x3"
  param {
    lr_mult: 1
    decay_mult: 1
  }
  param {
    lr_mult: 2
    decay_mult: 0
  }
  convolution_param {
    num_output: 192
    pad: 1
    kernel_size: 3
    weight_filler {
      type: "xavier"
      std: 0.03
    }
    bias_filler {
      type: "constant"
      value: 0.2
    }
  }
}
layer {
  name: "inception_3b/relu_3x3"
  type: "ReLU"
  bottom: "inception_3b/3x3"
  top: "inception_3b/3x3"
}
layer {
  name: "inception_3b/5x5_reduce"
  type: "Convolution"
  bottom: "inception_3a/output"
  top: "inception_3b/5x5_reduce"
  param {
    lr_mult: 1
    decay_mult: 1
  }
  param {
    lr_mult: 2
    decay_mult: 0
  }
  convolution_param {
    num_output: 32
    kernel_size: 1
    weight_filler {
      type: "xavier"
      std: 0.2
    }
    bias_filler {
      type: "constant"
      value: 0.2
    }
  }
}
layer {
  name: "inception_3b/relu_5x5_reduce"
  type: "ReLU"
  bottom: "inception_3b/5x5_reduce"
  top: "inception_3b/5x5_reduce"
}
layer {
  name: "inception_3b/5x5"
  type: "Convolution"
  bottom: "inception_3b/5x5_reduce"
  top: "inception_3b/5x5"
  param {
    lr_mult: 1
    decay_mult: 1
  }
  param {
    lr_mult: 2
    decay_mult: 0
  }
  convolution_param {
    num_output: 96
    pad: 2
    kernel_size: 5
    weight_filler {
      type: "xavier"
      std: 0.03
    }
    bias_filler {
      type: "constant"
      value: 0.2
    }
  }
}
layer {
  name: "inception_3b/relu_5x5"
  type: "ReLU"
  bottom: "inception_3b/5x5"
  top: "inception_3b/5x5"
}
layer {
  name: "inception_3b/pool"
  type: "Pooling"
  bottom: "inception_3a/output"
  top: "inception_3b/pool"
  pooling_param {
    pool: MAX
    kernel_size: 3
    stride: 1
    pad: 1
  }
}
layer {
  name: "inception_3b/pool_proj"
  type: "Convolution"
  bottom: "inception_3b/pool"
  top: "inception_3b/pool_proj"
  param {
    lr_mult: 1
    decay_mult: 1
  }
  param {
    lr_mult: 2
    decay_mult: 0
  }
  convolution_param {
    num_output: 64
    kernel_size: 1
    weight_filler {
      type: "xavier"
      std: 0.1
    }
    bias_filler {
      type: "constant"
      value: 0.2
    }
  }
}
layer {
  name: "inception_3b/relu_pool_proj"
  type: "ReLU"
  bottom: "inception_3b/pool_proj"
  top: "inception_3b/pool_proj"
}
layer {
  name: "inception_3b/output"
  type: "Concat"
  bottom: "inception_3b/1x1"
  bottom: "inception_3b/3x3"
  bottom: "inception_3b/5x5"
  bottom: "inception_3b/pool_proj"
  top: "inception_3b/output"
}
layer {
  name: "pool3/3x3_s2"
  type: "Pooling"
  bottom: "inception_3b/output"
  top: "pool3/3x3_s2"
  pooling_param {
    pool: MAX
    kernel_size: 3
    stride: 2
  }
}
layer {
  name: "inception_4a/1x1"
  type: "Convolution"
  bottom: "pool3/3x3_s2"
  top: "inception_4a/1x1"
  param {
    lr_mult: 1
    decay_mult: 1
  }
  param {
    lr_mult: 2
    decay_mult: 0
  }
  convolution_param {
    num_output: 192
    kernel_size: 1
    weight_filler {
      type: "xavier"
      std: 0.03
    }
    bias_filler {
      type: "constant"
      value: 0.2
    }
  }
}
layer {
  name: "inception_4a/relu_1x1"
  type: "ReLU"
  bottom: "inception_4a/1x1"
  top: "inception_4a/1x1"
}
layer {
  name: "inception_4a/3x3_reduce"
  type: "Convolution"
  bottom: "pool3/3x3_s2"
  top: "inception_4a/3x3_reduce"
  param {
    lr_mult: 1
    decay_mult: 1
  }
  param {
    lr_mult: 2
    decay_mult: 0
  }
  convolution_param {
    num_output: 96
    kernel_size: 1
    weight_filler {
      type: "xavier"
      std: 0.09
    }
    bias_filler {
      type: "constant"
      value: 0.2
    }
  }
}
layer {
  name: "inception_4a/relu_3x3_reduce"
  type: "ReLU"
  bottom: "inception_4a/3x3_reduce"
  top: "inception_4a/3x3_reduce"
}
layer {
  name: "inception_4a/3x3"
  type: "Convolution"
  bottom: "inception_4a/3x3_reduce"
  top: "inception_4a/3x3"
  param {
    lr_mult: 1
    decay_mult: 1
  }
  param {
    lr_mult: 2
    decay_mult: 0
  }
  convolution_param {
    num_output: 208
    pad: 1
    kernel_size: 3
    weight_filler {
      type: "xavier"
      std: 0.03
    }
    bias_filler {
      type: "constant"
      value: 0.2
    }
  }
}
layer {
  name: "inception_4a/relu_3x3"
  type: "ReLU"
  bottom: "inception_4a/3x3"
  top: "inception_4a/3x3"
}
layer {
  name: "inception_4a/5x5_reduce"
  type: "Convolution"
  bottom: "pool3/3x3_s2"
  top: "inception_4a/5x5_reduce"
  param {
    lr_mult: 1
    decay_mult: 1
  }
  param {
    lr_mult: 2
    decay_mult: 0
  }
  convolution_param {
    num_output: 16
    kernel_size: 1
    weight_filler {
      type: "xavier"
      std: 0.2
    }
    bias_filler {
      type: "constant"
      value: 0.2
    }
  }
}
layer {
  name: "inception_4a/relu_5x5_reduce"
  type: "ReLU"
  bottom: "inception_4a/5x5_reduce"
  top: "inception_4a/5x5_reduce"
}
layer {
  name: "inception_4a/5x5"
  type: "Convolution"
  bottom: "inception_4a/5x5_reduce"
  top: "inception_4a/5x5"
  param {
    lr_mult: 1
    decay_mult: 1
  }
  param {
    lr_mult: 2
    decay_mult: 0
  }
  convolution_param {
    num_output: 48
    pad: 2
    kernel_size: 5
    weight_filler {
      type: "xavier"
      std: 0.03
    }
    bias_filler {
      type: "constant"
      value: 0.2
    }
  }
}
layer {
  name: "inception_4a/relu_5x5"
  type: "ReLU"
  bottom: "inception_4a/5x5"
  top: "inception_4a/5x5"
}
layer {
  name: "inception_4a/pool"
  type: "Pooling"
  bottom: "pool3/3x3_s2"
  top: "inception_4a/pool"
  pooling_param {
    pool: MAX
    kernel_size: 3
    stride: 1
    pad: 1
  }
}
layer {
  name: "inception_4a/pool_proj"
  type: "Convolution"
  bottom: "inception_4a/pool"
  top: "inception_4a/pool_proj"
  param {
    lr_mult: 1
    decay_mult: 1
  }
  param {
    lr_mult: 2
    decay_mult: 0
  }
  convolution_param {
    num_output: 64
    kernel_size: 1
    weight_filler {
      type: "xavier"
      std: 0.1
    }
    bias_filler {
      type: "constant"
      value: 0.2
    }
  }
}
layer {
  name: "inception_4a/relu_pool_proj"
  type: "ReLU"
  bottom: "inception_4a/pool_proj"
  top: "inception_4a/pool_proj"
}
layer {
  name: "inception_4a/output"
  type: "Concat"
  bottom: "inception_4a/1x1"
  bottom: "inception_4a/3x3"
  bottom: "inception_4a/5x5"
  bottom: "inception_4a/pool_proj"
  top: "inception_4a/output"
}
layer {
  name: "loss1/ave_pool"
  type: "Pooling"
  bottom: "inception_4a/output"
  top: "loss1/ave_pool"
  pooling_param {
    pool: AVE
    kernel_size: 5
    stride: 3
  }
}
layer {
  name: "loss1/conv"
  type: "Convolution"
  bottom: "loss1/ave_pool"
  top: "loss1/conv"
  param {
    lr_mult: 1
    decay_mult: 1
  }
  param {
    lr_mult: 2
    decay_mult: 0
  }
  convolution_param {
    num_output: 128
    kernel_size: 1
    weight_filler {
      type: "xavier"
      std: 0.08
    }
    bias_filler {
      type: "constant"
      value: 0.2
    }
  }
}
layer {
  name: "loss1/relu_conv"
  type: "ReLU"
  bottom: "loss1/conv"
  top: "loss1/conv"
}
layer {
  name: "loss1/fc"
  type: "InnerProduct"
  bottom: "loss1/conv"
  top: "loss1/fc"
  param {
    lr_mult: 1
    decay_mult: 1
  }
  param {
    lr_mult: 2
    decay_mult: 0
  }
  inner_product_param {
    num_output: 1024
    weight_filler {
      type: "xavier"
      std: 0.02
    }
    bias_filler {
      type: "constant"
      value: 0.2
    }
  }
}
layer {
  name: "loss1/relu_fc"
  type: "ReLU"
  bottom: "loss1/fc"
  top: "loss1/fc"
}
layer {
  name: "loss1/drop_fc"
  type: "Dropout"
  bottom: "loss1/fc"
  top: "loss1/fc"
  dropout_param {
    dropout_ratio: 0.7
  }
}
layer {
  name: "loss1/classifier_plantvillage"
  type: "InnerProduct"
  bottom: "loss1/fc"
  top: "loss1/classifier_plantvillage"
  param {
    lr_mult: 1
    decay_mult: 1
  }
  param {
    lr_mult: 2
    decay_mult: 0
  }
  inner_product_param {
    num_output: 38
    weight_filler {
      type: "xavier"
      std: 0.0009765625
    }
    bias_filler {
      type: "constant"
      value: 0
    }
  }
}
layer {
  name: "inception_4b/1x1"
  type: "Convolution"
  bottom: "inception_4a/output"
  top: "inception_4b/1x1"
  param {
    lr_mult: 1
    decay_mult: 1
  }
  param {
    lr_mult: 2
    decay_mult: 0
  }
  convolution_param {
    num_output: 160
    kernel_size: 1
    weight_filler {
      type: "xavier"
      std: 0.03
    }
    bias_filler {
      type: "constant"
      value: 0.2
    }
  }
}
layer {
  name: "inception_4b/relu_1x1"
  type: "ReLU"
  bottom: "inception_4b/1x1"
  top: "inception_4b/1x1"
}
layer {
  name: "inception_4b/3x3_reduce"
  type: "Convolution"
  bottom: "inception_4a/output"
  top: "inception_4b/3x3_reduce"
  param {
    lr_mult: 1
    decay_mult: 1
  }
  param {
    lr_mult: 2
    decay_mult: 0
  }
  convolution_param {
    num_output: 112
    kernel_size: 1
    weight_filler {
      type: "xavier"
      std: 0.09
    }
    bias_filler {
      type: "constant"
      value: 0.2
    }
  }
}
layer {
  name: "inception_4b/relu_3x3_reduce"
  type: "ReLU"
  bottom: "inception_4b/3x3_reduce"
  top: "inception_4b/3x3_reduce"
}
layer {
  name: "inception_4b/3x3"
  type: "Convolution"
  bottom: "inception_4b/3x3_reduce"
  top: "inception_4b/3x3"
  param {
    lr_mult: 1
    decay_mult: 1
  }
  param {
    lr_mult: 2
    decay_mult: 0
  }
  convolution_param {
    num_output: 224
    pad: 1
    kernel_size: 3
    weight_filler {
      type: "xavier"
      std: 0.03
    }
    bias_filler {
      type: "constant"
      value: 0.2
    }
  }
}
layer {
  name: "inception_4b/relu_3x3"
  type: "ReLU"
  bottom: "inception_4b/3x3"
  top: "inception_4b/3x3"
}
layer {
  name: "inception_4b/5x5_reduce"
  type: "Convolution"
  bottom: "inception_4a/output"
  top: "inception_4b/5x5_reduce"
  param {
    lr_mult: 1
    decay_mult: 1
  }
  param {
    lr_mult: 2
    decay_mult: 0
  }
  convolution_param {
    num_output: 24
    kernel_size: 1
    weight_filler {
      type: "xavier"
      std: 0.2
    }
    bias_filler {
      type: "constant"
      value: 0.2
    }
  }
}
layer {
  name: "inception_4b/relu_5x5_reduce"
  type: "ReLU"
  bottom: "inception_4b/5x5_reduce"
  top: "inception_4b/5x5_reduce"
}
layer {
  name: "inception_4b/5x5"
  type: "Convolution"
  bottom: "inception_4b/5x5_reduce"
  top: "inception_4b/5x5"
  param {
    lr_mult: 1
    decay_mult: 1
  }
  param {
    lr_mult: 2
    decay_mult: 0
  }
  convolution_param {
    num_output: 64
    pad: 2
    kernel_size: 5
    weight_filler {
      type: "xavier"
      std: 0.03
    }
    bias_filler {
      type: "constant"
      value: 0.2
    }
  }
}
layer {
  name: "inception_4b/relu_5x5"
  type: "ReLU"
  bottom: "inception_4b/5x5"
  top: "inception_4b/5x5"
}
layer {
  name: "inception_4b/pool"
  type: "Pooling"
  bottom: "inception_4a/output"
  top: "inception_4b/pool"
  pooling_param {
    pool: MAX
    kernel_size: 3
    stride: 1
    pad: 1
  }
}
layer {
  name: "inception_4b/pool_proj"
  type: "Convolution"
  bottom: "inception_4b/pool"
  top: "inception_4b/pool_proj"
  param {
    lr_mult: 1
    decay_mult: 1
  }
  param {
    lr_mult: 2
    decay_mult: 0
  }
  convolution_param {
    num_output: 64
    kernel_size: 1
    weight_filler {
      type: "xavier"
      std: 0.1
    }
    bias_filler {
      type: "constant"
      value: 0.2
    }
  }
}
layer {
  name: "inception_4b/relu_pool_proj"
  type: "ReLU"
  bottom: "inception_4b/pool_proj"
  top: "inception_4b/pool_proj"
}
layer {
  name: "inception_4b/output"
  type: "Concat"
  bottom: "inception_4b/1x1"
  bottom: "inception_4b/3x3"
  bottom: "inception_4b/5x5"
  bottom: "inception_4b/pool_proj"
  top: "inception_4b/output"
}
layer {
  name: "inception_4c/1x1"
  type: "Convolution"
  bottom: "inception_4b/output"
  top: "inception_4c/1x1"
  param {
    lr_mult: 1
    decay_mult: 1
  }
  param {
    lr_mult: 2
    decay_mult: 0
  }
  convolution_param {
    num_output: 128
    kernel_size: 1
    weight_filler {
      type: "xavier"
      std: 0.03
    }
    bias_filler {
      type: "constant"
      value: 0.2
    }
  }
}
layer {
  name: "inception_4c/relu_1x1"
  type: "ReLU"
  bottom: "inception_4c/1x1"
  top: "inception_4c/1x1"
}
layer {
  name: "inception_4c/3x3_reduce"
  type: "Convolution"
  bottom: "inception_4b/output"
  top: "inception_4c/3x3_reduce"
  param {
    lr_mult: 1
    decay_mult: 1
  }
  param {
    lr_mult: 2
    decay_mult: 0
  }
  convolution_param {
    num_output: 128
    kernel_size: 1
    weight_filler {
      type: "xavier"
      std: 0.09
    }
    bias_filler {
      type: "constant"
      value: 0.2
    }
  }
}
layer {
  name: "inception_4c/relu_3x3_reduce"
  type: "ReLU"
  bottom: "inception_4c/3x3_reduce"
  top: "inception_4c/3x3_reduce"
}
layer {
  name: "inception_4c/3x3"
  type: "Convolution"
  bottom: "inception_4c/3x3_reduce"
  top: "inception_4c/3x3"
  param {
    lr_mult: 1
    decay_mult: 1
  }
  param {
    lr_mult: 2
    decay_mult: 0
  }
  convolution_param {
    num_output: 256
    pad: 1
    kernel_size: 3
    weight_filler {
      type: "xavier"
      std: 0.03
    }
    bias_filler {
      type: "constant"
      value: 0.2
    }
  }
}
layer {
  name: "inception_4c/relu_3x3"
  type: "ReLU"
  bottom: "inception_4c/3x3"
  top: "inception_4c/3x3"
}
layer {
  name: "inception_4c/5x5_reduce"
  type: "Convolution"
  bottom: "inception_4b/output"
  top: "inception_4c/5x5_reduce"
  param {
    lr_mult: 1
    decay_mult: 1
  }
  param {
    lr_mult: 2
    decay_mult: 0
  }
  convolution_param {
    num_output: 24
    kernel_size: 1
    weight_filler {
      type: "xavier"
      std: 0.2
    }
    bias_filler {
      type: "constant"
      value: 0.2
    }
  }
}
layer {
  name: "inception_4c/relu_5x5_reduce"
  type: "ReLU"
  bottom: "inception_4c/5x5_reduce"
  top: "inception_4c/5x5_reduce"
}
layer {
  name: "inception_4c/5x5"
  type: "Convolution"
  bottom: "inception_4c/5x5_reduce"
  top: "inception_4c/5x5"
  param {
    lr_mult: 1
    decay_mult: 1
  }
  param {
    lr_mult: 2
    decay_mult: 0
  }
  convolution_param {
    num_output: 64
    pad: 2
    kernel_size: 5
    weight_filler {
      type: "xavier"
      std: 0.03
    }
    bias_filler {
      type: "constant"
      value: 0.2
    }
  }
}
layer {
  name: "inception_4c/relu_5x5"
  type: "ReLU"
  bottom: "inception_4c/5x5"
  top: "inception_4c/5x5"
}
layer {
  name: "inception_4c/pool"
  type: "Pooling"
  bottom: "inception_4b/output"
  top: "inception_4c/pool"
  pooling_param {
    pool: MAX
    kernel_size: 3
    stride: 1
    pad: 1
  }
}
layer {
  name: "inception_4c/pool_proj"
  type: "Convolution"
  bottom: "inception_4c/pool"
  top: "inception_4c/pool_proj"
  param {
    lr_mult: 1
    decay_mult: 1
  }
  param {
    lr_mult: 2
    decay_mult: 0
  }
  convolution_param {
    num_output: 64
    kernel_size: 1
    weight_filler {
      type: "xavier"
      std: 0.1
    }
    bias_filler {
      type: "constant"
      value: 0.2
    }
  }
}
layer {
  name: "inception_4c/relu_pool_proj"
  type: "ReLU"
  bottom: "inception_4c/pool_proj"
  top: "inception_4c/pool_proj"
}
layer {
  name: "inception_4c/output"
  type: "Concat"
  bottom: "inception_4c/1x1"
  bottom: "inception_4c/3x3"
  bottom: "inception_4c/5x5"
  bottom: "inception_4c/pool_proj"
  top: "inception_4c/output"
}
layer {
  name: "inception_4d/1x1"
  type: "Convolution"
  bottom: "inception_4c/output"
  top: "inception_4d/1x1"
  param {
    lr_mult: 1
    decay_mult: 1
  }
  param {
    lr_mult: 2
    decay_mult: 0
  }
  convolution_param {
    num_output: 112
    kernel_size: 1
    weight_filler {
      type: "xavier"
      std: 0.03
    }
    bias_filler {
      type: "constant"
      value: 0.2
    }
  }
}
layer {
  name: "inception_4d/relu_1x1"
  type: "ReLU"
  bottom: "inception_4d/1x1"
  top: "inception_4d/1x1"
}
layer {
  name: "inception_4d/3x3_reduce"
  type: "Convolution"
  bottom: "inception_4c/output"
  top: "inception_4d/3x3_reduce"
  param {
    lr_mult: 1
    decay_mult: 1
  }
  param {
    lr_mult: 2
    decay_mult: 0
  }
  convolution_param {
    num_output: 144
    kernel_size: 1
    weight_filler {
      type: "xavier"
      std: 0.09
    }
    bias_filler {
      type: "constant"
      value: 0.2
    }
  }
}
layer {
  name: "inception_4d/relu_3x3_reduce"
  type: "ReLU"
  bottom: "inception_4d/3x3_reduce"
  top: "inception_4d/3x3_reduce"
}
layer {
  name: "inception_4d/3x3"
  type: "Convolution"
  bottom: "inception_4d/3x3_reduce"
  top: "inception_4d/3x3"
  param {
    lr_mult: 1
    decay_mult: 1
  }
  param {
    lr_mult: 2
    decay_mult: 0
  }
  convolution_param {
    num_output: 288
    pad: 1
    kernel_size: 3
    weight_filler {
      type: "xavier"
      std: 0.03
    }
    bias_filler {
      type: "constant"
      value: 0.2
    }
  }
}
layer {
  name: "inception_4d/relu_3x3"
  type: "ReLU"
  bottom: "inception_4d/3x3"
  top: "inception_4d/3x3"
}
layer {
  name: "inception_4d/5x5_reduce"
  type: "Convolution"
  bottom: "inception_4c/output"
  top: "inception_4d/5x5_reduce"
  param {
    lr_mult: 1
    decay_mult: 1
  }
  param {
    lr_mult: 2
    decay_mult: 0
  }
  convolution_param {
    num_output: 32
    kernel_size: 1
    weight_filler {
      type: "xavier"
      std: 0.2
    }
    bias_filler {
      type: "constant"
      value: 0.2
    }
  }
}
layer {
  name: "inception_4d/relu_5x5_reduce"
  type: "ReLU"
  bottom: "inception_4d/5x5_reduce"
  top: "inception_4d/5x5_reduce"
}
layer {
  name: "inception_4d/5x5"
  type: "Convolution"
  bottom: "inception_4d/5x5_reduce"
  top: "inception_4d/5x5"
  param {
    lr_mult: 1
    decay_mult: 1
  }
  param {
    lr_mult: 2
    decay_mult: 0
  }
  convolution_param {
    num_output: 64
    pad: 2
    kernel_size: 5
    weight_filler {
      type: "xavier"
      std: 0.03
    }
    bias_filler {
      type: "constant"
      value: 0.2
    }
  }
}
layer {
  name: "inception_4d/relu_5x5"
  type: "ReLU"
  bottom: "inception_4d/5x5"
  top: "inception_4d/5x5"
}
layer {
  name: "inception_4d/pool"
  type: "Pooling"
  bottom: "inception_4c/output"
  top: "inception_4d/pool"
  pooling_param {
    pool: MAX
    kernel_size: 3
    stride: 1
    pad: 1
  }
}
layer {
  name: "inception_4d/pool_proj"
  type: "Convolution"
  bottom: "inception_4d/pool"
  top: "inception_4d/pool_proj"
  param {
    lr_mult: 1
    decay_mult: 1
  }
  param {
    lr_mult: 2
    decay_mult: 0
  }
  convolution_param {
    num_output: 64
    kernel_size: 1
    weight_filler {
      type: "xavier"
      std: 0.1
    }
    bias_filler {
      type: "constant"
      value: 0.2
    }
  }
}
layer {
  name: "inception_4d/relu_pool_proj"
  type: "ReLU"
  bottom: "inception_4d/pool_proj"
  top: "inception_4d/pool_proj"
}
layer {
  name: "inception_4d/output"
  type: "Concat"
  bottom: "inception_4d/1x1"
  bottom: "inception_4d/3x3"
  bottom: "inception_4d/5x5"
  bottom: "inception_4d/pool_proj"
  top: "inception_4d/output"
}
layer {
  name: "loss2/ave_pool"
  type: "Pooling"
  bottom: "inception_4d/output"
  top: "loss2/ave_pool"
  pooling_param {
    pool: AVE
    kernel_size: 5
    stride: 3
  }
}
layer {
  name: "loss2/conv"
  type: "Convolution"
  bottom: "loss2/ave_pool"
  top: "loss2/conv"
  param {
    lr_mult: 1
    decay_mult: 1
  }
  param {
    lr_mult: 2
    decay_mult: 0
  }
  convolution_param {
    num_output: 128
    kernel_size: 1
    weight_filler {
      type: "xavier"
      std: 0.08
    }
    bias_filler {
      type: "constant"
      value: 0.2
    }
  }
}
layer {
  name: "loss2/relu_conv"
  type: "ReLU"
  bottom: "loss2/conv"
  top: "loss2/conv"
}
layer {
  name: "loss2/fc"
  type: "InnerProduct"
  bottom: "loss2/conv"
  top: "loss2/fc"
  param {
    lr_mult: 1
    decay_mult: 1
  }
  param {
    lr_mult: 2
    decay_mult: 0
  }
  inner_product_param {
    num_output: 1024
    weight_filler {
      type: "xavier"
      std: 0.02
    }
    bias_filler {
      type: "constant"
      value: 0.2
    }
  }
}
layer {
  name: "loss2/relu_fc"
  type: "ReLU"
  bottom: "loss2/fc"
  top: "loss2/fc"
}
layer {
  name: "loss2/drop_fc"
  type: "Dropout"
  bottom: "loss2/fc"
  top: "loss2/fc"
  dropout_param {
    dropout_ratio: 0.7
  }
}
layer {
  name: "loss2/classifier_plantvillage"
  type: "InnerProduct"
  bottom: "loss2/fc"
  top: "loss2/classifier_plantvillage"
  param {
    lr_mult: 1
    decay_mult: 1
  }
  param {
    lr_mult: 2
    decay_mult: 0
  }
  inner_product_param {
    num_output: 38
    weight_filler {
      type: "xavier"
      std: 0.0009765625
    }
    bias_filler {
      type: "constant"
      value: 0
    }
  }
}
layer {
  name: "inception_4e/1x1"
  type: "Convolution"
  bottom: "inception_4d/output"
  top: "inception_4e/1x1"
  param {
    lr_mult: 1
    decay_mult: 1
  }
  param {
    lr_mult: 2
    decay_mult: 0
  }
  convolution_param {
    num_output: 256
    kernel_size: 1
    weight_filler {
      type: "xavier"
      std: 0.03
    }
    bias_filler {
      type: "constant"
      value: 0.2
    }
  }
}
layer {
  name: "inception_4e/relu_1x1"
  type: "ReLU"
  bottom: "inception_4e/1x1"
  top: "inception_4e/1x1"
}
layer {
  name: "inception_4e/3x3_reduce"
  type: "Convolution"
  bottom: "inception_4d/output"
  top: "inception_4e/3x3_reduce"
  param {
    lr_mult: 1
    decay_mult: 1
  }
  param {
    lr_mult: 2
    decay_mult: 0
  }
  convolution_param {
    num_output: 160
    kernel_size: 1
    weight_filler {
      type: "xavier"
      std: 0.09
    }
    bias_filler {
      type: "constant"
      value: 0.2
    }
  }
}
layer {
  name: "inception_4e/relu_3x3_reduce"
  type: "ReLU"
  bottom: "inception_4e/3x3_reduce"
  top: "inception_4e/3x3_reduce"
}
layer {
  name: "inception_4e/3x3"
  type: "Convolution"
  bottom: "inception_4e/3x3_reduce"
  top: "inception_4e/3x3"
  param {
    lr_mult: 1
    decay_mult: 1
  }
  param {
    lr_mult: 2
    decay_mult: 0
  }
  convolution_param {
    num_output: 320
    pad: 1
    kernel_size: 3
    weight_filler {
      type: "xavier"
      std: 0.03
    }
    bias_filler {
      type: "constant"
      value: 0.2
    }
  }
}
layer {
  name: "inception_4e/relu_3x3"
  type: "ReLU"
  bottom: "inception_4e/3x3"
  top: "inception_4e/3x3"
}
layer {
  name: "inception_4e/5x5_reduce"
  type: "Convolution"
  bottom: "inception_4d/output"
  top: "inception_4e/5x5_reduce"
  param {
    lr_mult: 1
    decay_mult: 1
  }
  param {
    lr_mult: 2
    decay_mult: 0
  }
  convolution_param {
    num_output: 32
    kernel_size: 1
    weight_filler {
      type: "xavier"
      std: 0.2
    }
    bias_filler {
      type: "constant"
      value: 0.2
    }
  }
}
layer {
  name: "inception_4e/relu_5x5_reduce"
  type: "ReLU"
  bottom: "inception_4e/5x5_reduce"
  top: "inception_4e/5x5_reduce"
}
layer {
  name: "inception_4e/5x5"
  type: "Convolution"
  bottom: "inception_4e/5x5_reduce"
  top: "inception_4e/
I0403 15:53:21.489698 11663 layer_factory.hpp:77] Creating layer data
I0403 15:53:21.490275 11663 net.cpp:91] Creating Layer data
I0403 15:53:21.490304 11663 net.cpp:399] data -> data
I0403 15:53:21.490352 11663 net.cpp:399] data -> label
I0403 15:53:21.490391 11663 data_transformer.cpp:25] Loading mean file from: /home/mohanty/data/final_dataset/lmdb/segmented-80-20/mean.binaryproto
I0403 15:53:21.493448 11666 db_lmdb.cpp:38] Opened lmdb /home/mohanty/data/final_dataset/lmdb/segmented-80-20/test_db
I0403 15:53:21.503053 11663 data_layer.cpp:41] output data size: 24,3,224,224
I0403 15:53:21.529639 11663 net.cpp:141] Setting up data
I0403 15:53:21.529719 11663 net.cpp:148] Top shape: 24 3 224 224 (3612672)
I0403 15:53:21.529742 11663 net.cpp:148] Top shape: 24 (24)
I0403 15:53:21.529759 11663 net.cpp:156] Memory required for data: 14450784
I0403 15:53:21.529785 11663 layer_factory.hpp:77] Creating layer label_data_1_split
I0403 15:53:21.529813 11663 net.cpp:91] Creating Layer label_data_1_split
I0403 15:53:21.529830 11663 net.cpp:425] label_data_1_split <- label
I0403 15:53:21.529863 11663 net.cpp:399] label_data_1_split -> label_data_1_split_0
I0403 15:53:21.529891 11663 net.cpp:399] label_data_1_split -> label_data_1_split_1
I0403 15:53:21.529912 11663 net.cpp:399] label_data_1_split -> label_data_1_split_2
I0403 15:53:21.529934 11663 net.cpp:399] label_data_1_split -> label_data_1_split_3
I0403 15:53:21.529953 11663 net.cpp:399] label_data_1_split -> label_data_1_split_4
I0403 15:53:21.529974 11663 net.cpp:399] label_data_1_split -> label_data_1_split_5
I0403 15:53:21.529999 11663 net.cpp:399] label_data_1_split -> label_data_1_split_6
I0403 15:53:21.530020 11663 net.cpp:399] label_data_1_split -> label_data_1_split_7
I0403 15:53:21.530040 11663 net.cpp:399] label_data_1_split -> label_data_1_split_8
I0403 15:53:21.530060 11663 net.cpp:399] label_data_1_split -> label_data_1_split_9
I0403 15:53:21.530171 11663 net.cpp:141] Setting up label_data_1_split
I0403 15:53:21.530194 11663 net.cpp:148] Top shape: 24 (24)
I0403 15:53:21.530211 11663 net.cpp:148] Top shape: 24 (24)
I0403 15:53:21.530227 11663 net.cpp:148] Top shape: 24 (24)
I0403 15:53:21.530242 11663 net.cpp:148] Top shape: 24 (24)
I0403 15:53:21.530257 11663 net.cpp:148] Top shape: 24 (24)
I0403 15:53:21.530272 11663 net.cpp:148] Top shape: 24 (24)
I0403 15:53:21.530287 11663 net.cpp:148] Top shape: 24 (24)
I0403 15:53:21.530303 11663 net.cpp:148] Top shape: 24 (24)
I0403 15:53:21.530318 11663 net.cpp:148] Top shape: 24 (24)
I0403 15:53:21.530333 11663 net.cpp:148] Top shape: 24 (24)
I0403 15:53:21.530375 11663 net.cpp:156] Memory required for data: 14451744
I0403 15:53:21.530391 11663 layer_factory.hpp:77] Creating layer conv1/7x7_s2
I0403 15:53:21.530421 11663 net.cpp:91] Creating Layer conv1/7x7_s2
I0403 15:53:21.530441 11663 net.cpp:425] conv1/7x7_s2 <- data
I0403 15:53:21.530459 11663 net.cpp:399] conv1/7x7_s2 -> conv1/7x7_s2
I0403 15:53:21.669113 11663 net.cpp:141] Setting up conv1/7x7_s2
I0403 15:53:21.669198 11663 net.cpp:148] Top shape: 24 64 112 112 (19267584)
I0403 15:53:21.669216 11663 net.cpp:156] Memory required for data: 91522080
I0403 15:53:21.669246 11663 layer_factory.hpp:77] Creating layer conv1/relu_7x7
I0403 15:53:21.669272 11663 net.cpp:91] Creating Layer conv1/relu_7x7
I0403 15:53:21.669291 11663 net.cpp:425] conv1/relu_7x7 <- conv1/7x7_s2
I0403 15:53:21.669308 11663 net.cpp:386] conv1/relu_7x7 -> conv1/7x7_s2 (in-place)
I0403 15:53:21.669559 11663 net.cpp:141] Setting up conv1/relu_7x7
I0403 15:53:21.669584 11663 net.cpp:148] Top shape: 24 64 112 112 (19267584)
I0403 15:53:21.669600 11663 net.cpp:156] Memory required for data: 168592416
I0403 15:53:21.669615 11663 layer_factory.hpp:77] Creating layer pool1/3x3_s2
I0403 15:53:21.669637 11663 net.cpp:91] Creating Layer pool1/3x3_s2
I0403 15:53:21.669654 11663 net.cpp:425] pool1/3x3_s2 <- conv1/7x7_s2
I0403 15:53:21.669672 11663 net.cpp:399] pool1/3x3_s2 -> pool1/3x3_s2
I0403 15:53:21.669744 11663 net.cpp:141] Setting up pool1/3x3_s2
I0403 15:53:21.669767 11663 net.cpp:148] Top shape: 24 64 56 56 (4816896)
I0403 15:53:21.669781 11663 net.cpp:156] Memory required for data: 187860000
I0403 15:53:21.669795 11663 layer_factory.hpp:77] Creating layer pool1/norm1
I0403 15:53:21.669818 11663 net.cpp:91] Creating Layer pool1/norm1
I0403 15:53:21.669836 11663 net.cpp:425] pool1/norm1 <- pool1/3x3_s2
I0403 15:53:21.669852 11663 net.cpp:399] pool1/norm1 -> pool1/norm1
I0403 15:53:21.670130 11663 net.cpp:141] Setting up pool1/norm1
I0403 15:53:21.670156 11663 net.cpp:148] Top shape: 24 64 56 56 (4816896)
I0403 15:53:21.670169 11663 net.cpp:156] Memory required for data: 207127584
I0403 15:53:21.670184 11663 layer_factory.hpp:77] Creating layer conv2/3x3_reduce
I0403 15:53:21.670209 11663 net.cpp:91] Creating Layer conv2/3x3_reduce
I0403 15:53:21.670225 11663 net.cpp:425] conv2/3x3_reduce <- pool1/norm1
I0403 15:53:21.670243 11663 net.cpp:399] conv2/3x3_reduce -> conv2/3x3_reduce
I0403 15:53:21.671514 11663 net.cpp:141] Setting up conv2/3x3_reduce
I0403 15:53:21.671541 11663 net.cpp:148] Top shape: 24 64 56 56 (4816896)
I0403 15:53:21.671556 11663 net.cpp:156] Memory required for data: 226395168
I0403 15:53:21.671577 11663 layer_factory.hpp:77] Creating layer conv2/relu_3x3_reduce
I0403 15:53:21.671597 11663 net.cpp:91] Creating Layer conv2/relu_3x3_reduce
I0403 15:53:21.671612 11663 net.cpp:425] conv2/relu_3x3_reduce <- conv2/3x3_reduce
I0403 15:53:21.671628 11663 net.cpp:386] conv2/relu_3x3_reduce -> conv2/3x3_reduce (in-place)
I0403 15:53:21.671872 11663 net.cpp:141] Setting up conv2/relu_3x3_reduce
I0403 15:53:21.671911 11663 net.cpp:148] Top shape: 24 64 56 56 (4816896)
I0403 15:53:21.671929 11663 net.cpp:156] Memory required for data: 245662752
I0403 15:53:21.671944 11663 layer_factory.hpp:77] Creating layer conv2/3x3
I0403 15:53:21.671967 11663 net.cpp:91] Creating Layer conv2/3x3
I0403 15:53:21.671989 11663 net.cpp:425] conv2/3x3 <- conv2/3x3_reduce
I0403 15:53:21.672011 11663 net.cpp:399] conv2/3x3 -> conv2/3x3
I0403 15:53:21.674233 11663 net.cpp:141] Setting up conv2/3x3
I0403 15:53:21.674265 11663 net.cpp:148] Top shape: 24 192 56 56 (14450688)
I0403 15:53:21.674281 11663 net.cpp:156] Memory required for data: 303465504
I0403 15:53:21.674302 11663 layer_factory.hpp:77] Creating layer conv2/relu_3x3
I0403 15:53:21.674320 11663 net.cpp:91] Creating Layer conv2/relu_3x3
I0403 15:53:21.674335 11663 net.cpp:425] conv2/relu_3x3 <- conv2/3x3
I0403 15:53:21.674353 11663 net.cpp:386] conv2/relu_3x3 -> conv2/3x3 (in-place)
I0403 15:53:21.674518 11663 net.cpp:141] Setting up conv2/relu_3x3
I0403 15:53:21.674543 11663 net.cpp:148] Top shape: 24 192 56 56 (14450688)
I0403 15:53:21.674587 11663 net.cpp:156] Memory required for data: 361268256
I0403 15:53:21.674602 11663 layer_factory.hpp:77] Creating layer conv2/norm2
I0403 15:53:21.674621 11663 net.cpp:91] Creating Layer conv2/norm2
I0403 15:53:21.674638 11663 net.cpp:425] conv2/norm2 <- conv2/3x3
I0403 15:53:21.674656 11663 net.cpp:399] conv2/norm2 -> conv2/norm2
I0403 15:53:21.674952 11663 net.cpp:141] Setting up conv2/norm2
I0403 15:53:21.674984 11663 net.cpp:148] Top shape: 24 192 56 56 (14450688)
I0403 15:53:21.675001 11663 net.cpp:156] Memory required for data: 419071008
I0403 15:53:21.675015 11663 layer_factory.hpp:77] Creating layer pool2/3x3_s2
I0403 15:53:21.675032 11663 net.cpp:91] Creating Layer pool2/3x3_s2
I0403 15:53:21.675047 11663 net.cpp:425] pool2/3x3_s2 <- conv2/norm2
I0403 15:53:21.675066 11663 net.cpp:399] pool2/3x3_s2 -> pool2/3x3_s2
I0403 15:53:21.675117 11663 net.cpp:141] Setting up pool2/3x3_s2
I0403 15:53:21.675139 11663 net.cpp:148] Top shape: 24 192 28 28 (3612672)
I0403 15:53:21.675153 11663 net.cpp:156] Memory required for data: 433521696
I0403 15:53:21.675168 11663 layer_factory.hpp:77] Creating layer pool2/3x3_s2_pool2/3x3_s2_0_split
I0403 15:53:21.675186 11663 net.cpp:91] Creating Layer pool2/3x3_s2_pool2/3x3_s2_0_split
I0403 15:53:21.675202 11663 net.cpp:425] pool2/3x3_s2_pool2/3x3_s2_0_split <- pool2/3x3_s2
I0403 15:53:21.675218 11663 net.cpp:399] pool2/3x3_s2_pool2/3x3_s2_0_split -> pool2/3x3_s2_pool2/3x3_s2_0_split_0
I0403 15:53:21.675246 11663 net.cpp:399] pool2/3x3_s2_pool2/3x3_s2_0_split -> pool2/3x3_s2_pool2/3x3_s2_0_split_1
I0403 15:53:21.675266 11663 net.cpp:399] pool2/3x3_s2_pool2/3x3_s2_0_split -> pool2/3x3_s2_pool2/3x3_s2_0_split_2
I0403 15:53:21.675287 11663 net.cpp:399] pool2/3x3_s2_pool2/3x3_s2_0_split -> pool2/3x3_s2_pool2/3x3_s2_0_split_3
I0403 15:53:21.675355 11663 net.cpp:141] Setting up pool2/3x3_s2_pool2/3x3_s2_0_split
I0403 15:53:21.675377 11663 net.cpp:148] Top shape: 24 192 28 28 (3612672)
I0403 15:53:21.675392 11663 net.cpp:148] Top shape: 24 192 28 28 (3612672)
I0403 15:53:21.675408 11663 net.cpp:148] Top shape: 24 192 28 28 (3612672)
I0403 15:53:21.675423 11663 net.cpp:148] Top shape: 24 192 28 28 (3612672)
I0403 15:53:21.675436 11663 net.cpp:156] Memory required for data: 491324448
I0403 15:53:21.675449 11663 layer_factory.hpp:77] Creating layer inception_3a/1x1
I0403 15:53:21.675472 11663 net.cpp:91] Creating Layer inception_3a/1x1
I0403 15:53:21.675488 11663 net.cpp:425] inception_3a/1x1 <- pool2/3x3_s2_pool2/3x3_s2_0_split_0
I0403 15:53:21.675508 11663 net.cpp:399] inception_3a/1x1 -> inception_3a/1x1
I0403 15:53:21.676980 11663 net.cpp:141] Setting up inception_3a/1x1
I0403 15:53:21.677008 11663 net.cpp:148] Top shape: 24 64 28 28 (1204224)
I0403 15:53:21.677023 11663 net.cpp:156] Memory required for data: 496141344
I0403 15:53:21.677040 11663 layer_factory.hpp:77] Creating layer inception_3a/relu_1x1
I0403 15:53:21.677057 11663 net.cpp:91] Creating Layer inception_3a/relu_1x1
I0403 15:53:21.677073 11663 net.cpp:425] inception_3a/relu_1x1 <- inception_3a/1x1
I0403 15:53:21.677091 11663 net.cpp:386] inception_3a/relu_1x1 -> inception_3a/1x1 (in-place)
I0403 15:53:21.677258 11663 net.cpp:141] Setting up inception_3a/relu_1x1
I0403 15:53:21.677283 11663 net.cpp:148] Top shape: 24 64 28 28 (1204224)
I0403 15:53:21.677296 11663 net.cpp:156] Memory required for data: 500958240
I0403 15:53:21.677310 11663 layer_factory.hpp:77] Creating layer inception_3a/3x3_reduce
I0403 15:53:21.677332 11663 net.cpp:91] Creating Layer inception_3a/3x3_reduce
I0403 15:53:21.677348 11663 net.cpp:425] inception_3a/3x3_reduce <- pool2/3x3_s2_pool2/3x3_s2_0_split_1
I0403 15:53:21.677368 11663 net.cpp:399] inception_3a/3x3_reduce -> inception_3a/3x3_reduce
I0403 15:53:21.679004 11663 net.cpp:141] Setting up inception_3a/3x3_reduce
I0403 15:53:21.679034 11663 net.cpp:148] Top shape: 24 96 28 28 (1806336)
I0403 15:53:21.679050 11663 net.cpp:156] Memory required for data: 508183584
I0403 15:53:21.679071 11663 layer_factory.hpp:77] Creating layer inception_3a/relu_3x3_reduce
I0403 15:53:21.679108 11663 net.cpp:91] Creating Layer inception_3a/relu_3x3_reduce
I0403 15:53:21.679126 11663 net.cpp:425] inception_3a/relu_3x3_reduce <- inception_3a/3x3_reduce
I0403 15:53:21.679143 11663 net.cpp:386] inception_3a/relu_3x3_reduce -> inception_3a/3x3_reduce (in-place)
I0403 15:53:21.679316 11663 net.cpp:141] Setting up inception_3a/relu_3x3_reduce
I0403 15:53:21.679342 11663 net.cpp:148] Top shape: 24 96 28 28 (1806336)
I0403 15:53:21.679355 11663 net.cpp:156] Memory required for data: 515408928
I0403 15:53:21.679369 11663 layer_factory.hpp:77] Creating layer inception_3a/3x3
I0403 15:53:21.679391 11663 net.cpp:91] Creating Layer inception_3a/3x3
I0403 15:53:21.679409 11663 net.cpp:425] inception_3a/3x3 <- inception_3a/3x3_reduce
I0403 15:53:21.679426 11663 net.cpp:399] inception_3a/3x3 -> inception_3a/3x3
I0403 15:53:21.681006 11663 net.cpp:141] Setting up inception_3a/3x3
I0403 15:53:21.681033 11663 net.cpp:148] Top shape: 24 128 28 28 (2408448)
I0403 15:53:21.681048 11663 net.cpp:156] Memory required for data: 525042720
I0403 15:53:21.681066 11663 layer_factory.hpp:77] Creating layer inception_3a/relu_3x3
I0403 15:53:21.681083 11663 net.cpp:91] Creating Layer inception_3a/relu_3x3
I0403 15:53:21.681098 11663 net.cpp:425] inception_3a/relu_3x3 <- inception_3a/3x3
I0403 15:53:21.681118 11663 net.cpp:386] inception_3a/relu_3x3 -> inception_3a/3x3 (in-place)
I0403 15:53:21.681380 11663 net.cpp:141] Setting up inception_3a/relu_3x3
I0403 15:53:21.681404 11663 net.cpp:148] Top shape: 24 128 28 28 (2408448)
I0403 15:53:21.681418 11663 net.cpp:156] Memory required for data: 534676512
I0403 15:53:21.681433 11663 layer_factory.hpp:77] Creating layer inception_3a/5x5_reduce
I0403 15:53:21.681454 11663 net.cpp:91] Creating Layer inception_3a/5x5_reduce
I0403 15:53:21.681471 11663 net.cpp:425] inception_3a/5x5_reduce <- pool2/3x3_s2_pool2/3x3_s2_0_split_2
I0403 15:53:21.681491 11663 net.cpp:399] inception_3a/5x5_reduce -> inception_3a/5x5_reduce
I0403 15:53:21.682431 11663 net.cpp:141] Setting up inception_3a/5x5_reduce
I0403 15:53:21.682471 11663 net.cpp:148] Top shape: 24 16 28 28 (301056)
I0403 15:53:21.682487 11663 net.cpp:156] Memory required for data: 535880736
I0403 15:53:21.682504 11663 layer_factory.hpp:77] Creating layer inception_3a/relu_5x5_reduce
I0403 15:53:21.682524 11663 net.cpp:91] Creating Layer inception_3a/relu_5x5_reduce
I0403 15:53:21.682541 11663 net.cpp:425] inception_3a/relu_5x5_reduce <- inception_3a/5x5_reduce
I0403 15:53:21.682557 11663 net.cpp:386] inception_3a/relu_5x5_reduce -> inception_3a/5x5_reduce (in-place)
I0403 15:53:21.682847 11663 net.cpp:141] Setting up inception_3a/relu_5x5_reduce
I0403 15:53:21.682873 11663 net.cpp:148] Top shape: 24 16 28 28 (301056)
I0403 15:53:21.682886 11663 net.cpp:156] Memory required for data: 537084960
I0403 15:53:21.682901 11663 layer_factory.hpp:77] Creating layer inception_3a/5x5
I0403 15:53:21.682924 11663 net.cpp:91] Creating Layer inception_3a/5x5
I0403 15:53:21.682940 11663 net.cpp:425] inception_3a/5x5 <- inception_3a/5x5_reduce
I0403 15:53:21.682961 11663 net.cpp:399] inception_3a/5x5 -> inception_3a/5x5
I0403 15:53:21.683931 11663 net.cpp:141] Setting up inception_3a/5x5
I0403 15:53:21.683957 11663 net.cpp:148] Top shape: 24 32 28 28 (602112)
I0403 15:53:21.683974 11663 net.cpp:156] Memory required for data: 539493408
I0403 15:53:21.683995 11663 layer_factory.hpp:77] Creating layer inception_3a/relu_5x5
I0403 15:53:21.684013 11663 net.cpp:91] Creating Layer inception_3a/relu_5x5
I0403 15:53:21.684028 11663 net.cpp:425] inception_3a/relu_5x5 <- inception_3a/5x5
I0403 15:53:21.684046 11663 net.cpp:386] inception_3a/relu_5x5 -> inception_3a/5x5 (in-place)
I0403 15:53:21.684212 11663 net.cpp:141] Setting up inception_3a/relu_5x5
I0403 15:53:21.684236 11663 net.cpp:148] Top shape: 24 32 28 28 (602112)
I0403 15:53:21.684249 11663 net.cpp:156] Memory required for data: 541901856
I0403 15:53:21.684263 11663 layer_factory.hpp:77] Creating layer inception_3a/pool
I0403 15:53:21.684283 11663 net.cpp:91] Creating Layer inception_3a/pool
I0403 15:53:21.684312 11663 net.cpp:425] inception_3a/pool <- pool2/3x3_s2_pool2/3x3_s2_0_split_3
I0403 15:53:21.684330 11663 net.cpp:399] inception_3a/pool -> inception_3a/pool
I0403 15:53:21.684386 11663 net.cpp:141] Setting up inception_3a/pool
I0403 15:53:21.684408 11663 net.cpp:148] Top shape: 24 192 28 28 (3612672)
I0403 15:53:21.684422 11663 net.cpp:156] Memory required for data: 556352544
I0403 15:53:21.684437 11663 layer_factory.hpp:77] Creating layer inception_3a/pool_proj
I0403 15:53:21.684458 11663 net.cpp:91] Creating Layer inception_3a/pool_proj
I0403 15:53:21.684474 11663 net.cpp:425] inception_3a/pool_proj <- inception_3a/pool
I0403 15:53:21.684496 11663 net.cpp:399] inception_3a/pool_proj -> inception_3a/pool_proj
I0403 15:53:21.685431 11663 net.cpp:141] Setting up inception_3a/pool_proj
I0403 15:53:21.685461 11663 net.cpp:148] Top shape: 24 32 28 28 (602112)
I0403 15:53:21.685477 11663 net.cpp:156] Memory required for data: 558760992
I0403 15:53:21.685497 11663 layer_factory.hpp:77] Creating layer inception_3a/relu_pool_proj
I0403 15:53:21.685518 11663 net.cpp:91] Creating Layer inception_3a/relu_pool_proj
I0403 15:53:21.685534 11663 net.cpp:425] inception_3a/relu_pool_proj <- inception_3a/pool_proj
I0403 15:53:21.685550 11663 net.cpp:386] inception_3a/relu_pool_proj -> inception_3a/pool_proj (in-place)
I0403 15:53:21.685813 11663 net.cpp:141] Setting up inception_3a/relu_pool_proj
I0403 15:53:21.685838 11663 net.cpp:148] Top shape: 24 32 28 28 (602112)
I0403 15:53:21.685853 11663 net.cpp:156] Memory required for data: 561169440
I0403 15:53:21.685868 11663 layer_factory.hpp:77] Creating layer inception_3a/output
I0403 15:53:21.685883 11663 net.cpp:91] Creating Layer inception_3a/output
I0403 15:53:21.685899 11663 net.cpp:425] inception_3a/output <- inception_3a/1x1
I0403 15:53:21.685914 11663 net.cpp:425] inception_3a/output <- inception_3a/3x3
I0403 15:53:21.685930 11663 net.cpp:425] inception_3a/output <- inception_3a/5x5
I0403 15:53:21.685945 11663 net.cpp:425] inception_3a/output <- inception_3a/pool_proj
I0403 15:53:21.685963 11663 net.cpp:399] inception_3a/output -> inception_3a/output
I0403 15:53:21.686012 11663 net.cpp:141] Setting up inception_3a/output
I0403 15:53:21.686038 11663 net.cpp:148] Top shape: 24 256 28 28 (4816896)
I0403 15:53:21.686053 11663 net.cpp:156] Memory required for data: 580437024
I0403 15:53:21.686067 11663 layer_factory.hpp:77] Creating layer inception_3a/output_inception_3a/output_0_split
I0403 15:53:21.686084 11663 net.cpp:91] Creating Layer inception_3a/output_inception_3a/output_0_split
I0403 15:53:21.686099 11663 net.cpp:425] inception_3a/output_inception_3a/output_0_split <- inception_3a/output
I0403 15:53:21.686115 11663 net.cpp:399] inception_3a/output_inception_3a/output_0_split -> inception_3a/output_inception_3a/output_0_split_0
I0403 15:53:21.686136 11663 net.cpp:399] inception_3a/output_inception_3a/output_0_split -> inception_3a/output_inception_3a/output_0_split_1
I0403 15:53:21.686157 11663 net.cpp:399] inception_3a/output_inception_3a/output_0_split -> inception_3a/output_inception_3a/output_0_split_2
I0403 15:53:21.686177 11663 net.cpp:399] inception_3a/output_inception_3a/output_0_split -> inception_3a/output_inception_3a/output_0_split_3
I0403 15:53:21.686252 11663 net.cpp:141] Setting up inception_3a/output_inception_3a/output_0_split
I0403 15:53:21.686276 11663 net.cpp:148] Top shape: 24 256 28 28 (4816896)
I0403 15:53:21.686293 11663 net.cpp:148] Top shape: 24 256 28 28 (4816896)
I0403 15:53:21.686308 11663 net.cpp:148] Top shape: 24 256 28 28 (4816896)
I0403 15:53:21.686322 11663 net.cpp:148] Top shape: 24 256 28 28 (4816896)
I0403 15:53:21.686336 11663 net.cpp:156] Memory required for data: 657507360
I0403 15:53:21.686350 11663 layer_factory.hpp:77] Creating layer inception_3b/1x1
I0403 15:53:21.686372 11663 net.cpp:91] Creating Layer inception_3b/1x1
I0403 15:53:21.686388 11663 net.cpp:425] inception_3b/1x1 <- inception_3a/output_inception_3a/output_0_split_0
I0403 15:53:21.686408 11663 net.cpp:399] inception_3b/1x1 -> inception_3b/1x1
I0403 15:53:21.687525 11663 net.cpp:141] Setting up inception_3b/1x1
I0403 15:53:21.687567 11663 net.cpp:148] Top shape: 24 128 28 28 (2408448)
I0403 15:53:21.687585 11663 net.cpp:156] Memory required for data: 667141152
I0403 15:53:21.687603 11663 layer_factory.hpp:77] Creating layer inception_3b/relu_1x1
I0403 15:53:21.687621 11663 net.cpp:91] Creating Layer inception_3b/relu_1x1
I0403 15:53:21.687638 11663 net.cpp:425] inception_3b/relu_1x1 <- inception_3b/1x1
I0403 15:53:21.687659 11663 net.cpp:386] inception_3b/relu_1x1 -> inception_3b/1x1 (in-place)
I0403 15:53:21.687830 11663 net.cpp:141] Setting up inception_3b/relu_1x1
I0403 15:53:21.687855 11663 net.cpp:148] Top shape: 24 128 28 28 (2408448)
I0403 15:53:21.687868 11663 net.cpp:156] Memory required for data: 676774944
I0403 15:53:21.687883 11663 layer_factory.hpp:77] Creating layer inception_3b/3x3_reduce
I0403 15:53:21.687906 11663 net.cpp:91] Creating Layer inception_3b/3x3_reduce
I0403 15:53:21.687922 11663 net.cpp:425] inception_3b/3x3_reduce <- inception_3a/output_inception_3a/output_0_split_1
I0403 15:53:21.687944 11663 net.cpp:399] inception_3b/3x3_reduce -> inception_3b/3x3_reduce
I0403 15:53:21.689090 11663 net.cpp:141] Setting up inception_3b/3x3_reduce
I0403 15:53:21.689121 11663 net.cpp:148] Top shape: 24 128 28 28 (2408448)
I0403 15:53:21.689138 11663 net.cpp:156] Memory required for data: 686408736
I0403 15:53:21.689157 11663 layer_factory.hpp:77] Creating layer inception_3b/relu_3x3_reduce
I0403 15:53:21.689189 11663 net.cpp:91] Creating Layer inception_3b/relu_3x3_reduce
I0403 15:53:21.689206 11663 net.cpp:425] inception_3b/relu_3x3_reduce <- inception_3b/3x3_reduce
I0403 15:53:21.689227 11663 net.cpp:386] inception_3b/relu_3x3_reduce -> inception_3b/3x3_reduce (in-place)
I0403 15:53:21.689415 11663 net.cpp:141] Setting up inception_3b/relu_3x3_reduce
I0403 15:53:21.689441 11663 net.cpp:148] Top shape: 24 128 28 28 (2408448)
I0403 15:53:21.689456 11663 net.cpp:156] Memory required for data: 696042528
I0403 15:53:21.689482 11663 layer_factory.hpp:77] Creating layer inception_3b/3x3
I0403 15:53:21.689508 11663 net.cpp:91] Creating Layer inception_3b/3x3
I0403 15:53:21.689527 11663 net.cpp:425] inception_3b/3x3 <- inception_3b/3x3_reduce
I0403 15:53:21.689545 11663 net.cpp:399] inception_3b/3x3 -> inception_3b/3x3
I0403 15:53:21.692430 11663 net.cpp:141] Setting up inception_3b/3x3
I0403 15:53:21.692459 11663 net.cpp:148] Top shape: 24 192 28 28 (3612672)
I0403 15:53:21.692474 11663 net.cpp:156] Memory required for data: 710493216
I0403 15:53:21.692492 11663 layer_factory.hpp:77] Creating layer inception_3b/relu_3x3
I0403 15:53:21.692510 11663 net.cpp:91] Creating Layer inception_3b/relu_3x3
I0403 15:53:21.692526 11663 net.cpp:425] inception_3b/relu_3x3 <- inception_3b/3x3
I0403 15:53:21.692546 11663 net.cpp:386] inception_3b/relu_3x3 -> inception_3b/3x3 (in-place)
I0403 15:53:21.692817 11663 net.cpp:141] Setting up inception_3b/relu_3x3
I0403 15:53:21.692844 11663 net.cpp:148] Top shape: 24 192 28 28 (3612672)
I0403 15:53:21.692859 11663 net.cpp:156] Memory required for data: 724943904
I0403 15:53:21.692874 11663 layer_factory.hpp:77] Creating layer inception_3b/5x5_reduce
I0403 15:53:21.692898 11663 net.cpp:91] Creating Layer inception_3b/5x5_reduce
I0403 15:53:21.692914 11663 net.cpp:425] inception_3b/5x5_reduce <- inception_3a/output_inception_3a/output_0_split_2
I0403 15:53:21.692936 11663 net.cpp:399] inception_3b/5x5_reduce -> inception_3b/5x5_reduce
I0403 15:53:21.693912 11663 net.cpp:141] Setting up inception_3b/5x5_reduce
I0403 15:53:21.693940 11663 net.cpp:148] Top shape: 24 32 28 28 (602112)
I0403 15:53:21.693955 11663 net.cpp:156] Memory required for data: 727352352
I0403 15:53:21.693974 11663 layer_factory.hpp:77] Creating layer inception_3b/relu_5x5_reduce
I0403 15:53:21.693997 11663 net.cpp:91] Creating Layer inception_3b/relu_5x5_reduce
I0403 15:53:21.694013 11663 net.cpp:425] inception_3b/relu_5x5_reduce <- inception_3b/5x5_reduce
I0403 15:53:21.694032 11663 net.cpp:386] inception_3b/relu_5x5_reduce -> inception_3b/5x5_reduce (in-place)
I0403 15:53:21.694222 11663 net.cpp:141] Setting up inception_3b/relu_5x5_reduce
I0403 15:53:21.694247 11663 net.cpp:148] Top shape: 24 32 28 28 (602112)
I0403 15:53:21.694262 11663 net.cpp:156] Memory required for data: 729760800
I0403 15:53:21.694278 11663 layer_factory.hpp:77] Creating layer inception_3b/5x5
I0403 15:53:21.694299 11663 net.cpp:91] Creating Layer inception_3b/5x5
I0403 15:53:21.694316 11663 net.cpp:425] inception_3b/5x5 <- inception_3b/5x5_reduce
I0403 15:53:21.694337 11663 net.cpp:399] inception_3b/5x5 -> inception_3b/5x5
I0403 15:53:21.696291 11663 net.cpp:141] Setting up inception_3b/5x5
I0403 15:53:21.696322 11663 net.cpp:148] Top shape: 24 96 28 28 (1806336)
I0403 15:53:21.696339 11663 net.cpp:156] Memory required for data: 736986144
I0403 15:53:21.696357 11663 layer_factory.hpp:77] Creating layer inception_3b/relu_5x5
I0403 15:53:21.696375 11663 net.cpp:91] Creating Layer inception_3b/relu_5x5
I0403 15:53:21.696391 11663 net.cpp:425] inception_3b/relu_5x5 <- inception_3b/5x5
I0403 15:53:21.696408 11663 net.cpp:386] inception_3b/relu_5x5 -> inception_3b/5x5 (in-place)
I0403 15:53:21.696595 11663 net.cpp:141] Setting up inception_3b/relu_5x5
I0403 15:53:21.696620 11663 net.cpp:148] Top shape: 24 96 28 28 (1806336)
I0403 15:53:21.696636 11663 net.cpp:156] Memory required for data: 744211488
I0403 15:53:21.696650 11663 layer_factory.hpp:77] Creating layer inception_3b/pool
I0403 15:53:21.696667 11663 net.cpp:91] Creating Layer inception_3b/pool
I0403 15:53:21.696684 11663 net.cpp:425] inception_3b/pool <- inception_3a/output_inception_3a/output_0_split_3
I0403 15:53:21.696702 11663 net.cpp:399] inception_3b/pool -> inception_3b/pool
I0403 15:53:21.696756 11663 net.cpp:141] Setting up inception_3b/pool
I0403 15:53:21.696785 11663 net.cpp:148] Top shape: 24 256 28 28 (4816896)
I0403 15:53:21.696801 11663 net.cpp:156] Memory required for data: 763479072
I0403 15:53:21.696816 11663 layer_factory.hpp:77] Creating layer inception_3b/pool_proj
I0403 15:53:21.696838 11663 net.cpp:91] Creating Layer inception_3b/pool_proj
I0403 15:53:21.696856 11663 net.cpp:425] inception_3b/pool_proj <- inception_3b/pool
I0403 15:53:21.696874 11663 net.cpp:399] inception_3b/pool_proj -> inception_3b/pool_proj
I0403 15:53:21.697924 11663 net.cpp:141] Setting up inception_3b/pool_proj
I0403 15:53:21.697952 11663 net.cpp:148] Top shape: 24 64 28 28 (1204224)
I0403 15:53:21.697967 11663 net.cpp:156] Memory required for data: 768295968
I0403 15:53:21.697989 11663 layer_factory.hpp:77] Creating layer inception_3b/relu_pool_proj
I0403 15:53:21.698011 11663 net.cpp:91] Creating Layer inception_3b/relu_pool_proj
I0403 15:53:21.698029 11663 net.cpp:425] inception_3b/relu_pool_proj <- inception_3b/pool_proj
I0403 15:53:21.698045 11663 net.cpp:386] inception_3b/relu_pool_proj -> inception_3b/pool_proj (in-place)
I0403 15:53:21.698460 11663 net.cpp:141] Setting up inception_3b/relu_pool_proj
I0403 15:53:21.698498 11663 net.cpp:148] Top shape: 24 64 28 28 (1204224)
I0403 15:53:21.698513 11663 net.cpp:156] Memory required for data: 773112864
I0403 15:53:21.698529 11663 layer_factory.hpp:77] Creating layer inception_3b/output
I0403 15:53:21.698545 11663 net.cpp:91] Creating Layer inception_3b/output
I0403 15:53:21.698561 11663 net.cpp:425] inception_3b/output <- inception_3b/1x1
I0403 15:53:21.698577 11663 net.cpp:425] inception_3b/output <- inception_3b/3x3
I0403 15:53:21.698592 11663 net.cpp:425] inception_3b/output <- inception_3b/5x5
I0403 15:53:21.698607 11663 net.cpp:425] inception_3b/output <- inception_3b/pool_proj
I0403 15:53:21.698626 11663 net.cpp:399] inception_3b/output -> inception_3b/output
I0403 15:53:21.698671 11663 net.cpp:141] Setting up inception_3b/output
I0403 15:53:21.698694 11663 net.cpp:148] Top shape: 24 480 28 28 (9031680)
I0403 15:53:21.698709 11663 net.cpp:156] Memory required for data: 809239584
I0403 15:53:21.698724 11663 layer_factory.hpp:77] Creating layer pool3/3x3_s2
I0403 15:53:21.698740 11663 net.cpp:91] Creating Layer pool3/3x3_s2
I0403 15:53:21.698755 11663 net.cpp:425] pool3/3x3_s2 <- inception_3b/output
I0403 15:53:21.698791 11663 net.cpp:399] pool3/3x3_s2 -> pool3/3x3_s2
I0403 15:53:21.698849 11663 net.cpp:141] Setting up pool3/3x3_s2
I0403 15:53:21.698873 11663 net.cpp:148] Top shape: 24 480 14 14 (2257920)
I0403 15:53:21.698887 11663 net.cpp:156] Memory required for data: 818271264
I0403 15:53:21.698901 11663 layer_factory.hpp:77] Creating layer pool3/3x3_s2_pool3/3x3_s2_0_split
I0403 15:53:21.698920 11663 net.cpp:91] Creating Layer pool3/3x3_s2_pool3/3x3_s2_0_split
I0403 15:53:21.698936 11663 net.cpp:425] pool3/3x3_s2_pool3/3x3_s2_0_split <- pool3/3x3_s2
I0403 15:53:21.698953 11663 net.cpp:399] pool3/3x3_s2_pool3/3x3_s2_0_split -> pool3/3x3_s2_pool3/3x3_s2_0_split_0
I0403 15:53:21.698974 11663 net.cpp:399] pool3/3x3_s2_pool3/3x3_s2_0_split -> pool3/3x3_s2_pool3/3x3_s2_0_split_1
I0403 15:53:21.699007 11663 net.cpp:399] pool3/3x3_s2_pool3/3x3_s2_0_split -> pool3/3x3_s2_pool3/3x3_s2_0_split_2
I0403 15:53:21.699028 11663 net.cpp:399] pool3/3x3_s2_pool3/3x3_s2_0_split -> pool3/3x3_s2_pool3/3x3_s2_0_split_3
I0403 15:53:21.699101 11663 net.cpp:141] Setting up pool3/3x3_s2_pool3/3x3_s2_0_split
I0403 15:53:21.699125 11663 net.cpp:148] Top shape: 24 480 14 14 (2257920)
I0403 15:53:21.699141 11663 net.cpp:148] Top shape: 24 480 14 14 (2257920)
I0403 15:53:21.699156 11663 net.cpp:148] Top shape: 24 480 14 14 (2257920)
I0403 15:53:21.699172 11663 net.cpp:148] Top shape: 24 480 14 14 (2257920)
I0403 15:53:21.699187 11663 net.cpp:156] Memory required for data: 854397984
I0403 15:53:21.699201 11663 layer_factory.hpp:77] Creating layer inception_4a/1x1
I0403 15:53:21.699223 11663 net.cpp:91] Creating Layer inception_4a/1x1
I0403 15:53:21.699240 11663 net.cpp:425] inception_4a/1x1 <- pool3/3x3_s2_pool3/3x3_s2_0_split_0
I0403 15:53:21.699261 11663 net.cpp:399] inception_4a/1x1 -> inception_4a/1x1
I0403 15:53:21.700830 11663 net.cpp:141] Setting up inception_4a/1x1
I0403 15:53:21.700858 11663 net.cpp:148] Top shape: 24 192 14 14 (903168)
I0403 15:53:21.700876 11663 net.cpp:156] Memory required for data: 858010656
I0403 15:53:21.700896 11663 layer_factory.hpp:77] Creating layer inception_4a/relu_1x1
I0403 15:53:21.700912 11663 net.cpp:91] Creating Layer inception_4a/relu_1x1
I0403 15:53:21.700928 11663 net.cpp:425] inception_4a/relu_1x1 <- inception_4a/1x1
I0403 15:53:21.700947 11663 net.cpp:386] inception_4a/relu_1x1 -> inception_4a/1x1 (in-place)
I0403 15:53:21.701128 11663 net.cpp:141] Setting up inception_4a/relu_1x1
I0403 15:53:21.701154 11663 net.cpp:148] Top shape: 24 192 14 14 (903168)
I0403 15:53:21.701170 11663 net.cpp:156] Memory required for data: 861623328
I0403 15:53:21.701185 11663 layer_factory.hpp:77] Creating layer inception_4a/3x3_reduce
I0403 15:53:21.701210 11663 net.cpp:91] Creating Layer inception_4a/3x3_reduce
I0403 15:53:21.701226 11663 net.cpp:425] inception_4a/3x3_reduce <- pool3/3x3_s2_pool3/3x3_s2_0_split_1
I0403 15:53:21.701246 11663 net.cpp:399] inception_4a/3x3_reduce -> inception_4a/3x3_reduce
I0403 15:53:21.702488 11663 net.cpp:141] Setting up inception_4a/3x3_reduce
I0403 15:53:21.702515 11663 net.cpp:148] Top shape: 24 96 14 14 (451584)
I0403 15:53:21.702532 11663 net.cpp:156] Memory required for data: 863429664
I0403 15:53:21.702555 11663 layer_factory.hpp:77] Creating layer inception_4a/relu_3x3_reduce
I0403 15:53:21.702577 11663 net.cpp:91] Creating Layer inception_4a/relu_3x3_reduce
I0403 15:53:21.702594 11663 net.cpp:425] inception_4a/relu_3x3_reduce <- inception_4a/3x3_reduce
I0403 15:53:21.702611 11663 net.cpp:386] inception_4a/relu_3x3_reduce -> inception_4a/3x3_reduce (in-place)
I0403 15:53:21.702778 11663 net.cpp:141] Setting up inception_4a/relu_3x3_reduce
I0403 15:53:21.702805 11663 net.cpp:148] Top shape: 24 96 14 14 (451584)
I0403 15:53:21.702821 11663 net.cpp:156] Memory required for data: 865236000
I0403 15:53:21.702836 11663 layer_factory.hpp:77] Creating layer inception_4a/3x3
I0403 15:53:21.702857 11663 net.cpp:91] Creating Layer inception_4a/3x3
I0403 15:53:21.702874 11663 net.cpp:425] inception_4a/3x3 <- inception_4a/3x3_reduce
I0403 15:53:21.702893 11663 net.cpp:399] inception_4a/3x3 -> inception_4a/3x3
I0403 15:53:21.705616 11663 net.cpp:141] Setting up inception_4a/3x3
I0403 15:53:21.705647 11663 net.cpp:148] Top shape: 24 208 14 14 (978432)
I0403 15:53:21.705663 11663 net.cpp:156] Memory required for data: 869149728
I0403 15:53:21.705682 11663 layer_factory.hpp:77] Creating layer inception_4a/relu_3x3
I0403 15:53:21.705698 11663 net.cpp:91] Creating Layer inception_4a/relu_3x3
I0403 15:53:21.705714 11663 net.cpp:425] inception_4a/relu_3x3 <- inception_4a/3x3
I0403 15:53:21.705732 11663 net.cpp:386] inception_4a/relu_3x3 -> inception_4a/3x3 (in-place)
I0403 15:53:21.706019 11663 net.cpp:141] Setting up inception_4a/relu_3x3
I0403 15:53:21.706048 11663 net.cpp:148] Top shape: 24 208 14 14 (978432)
I0403 15:53:21.706063 11663 net.cpp:156] Memory required for data: 873063456
I0403 15:53:21.706079 11663 layer_factory.hpp:77] Creating layer inception_4a/5x5_reduce
I0403 15:53:21.706100 11663 net.cpp:91] Creating Layer inception_4a/5x5_reduce
I0403 15:53:21.706117 11663 net.cpp:425] inception_4a/5x5_reduce <- pool3/3x3_s2_pool3/3x3_s2_0_split_2
I0403 15:53:21.706140 11663 net.cpp:399] inception_4a/5x5_reduce -> inception_4a/5x5_reduce
I0403 15:53:21.707128 11663 net.cpp:141] Setting up inception_4a/5x5_reduce
I0403 15:53:21.707154 11663 net.cpp:148] Top shape: 24 16 14 14 (75264)
I0403 15:53:21.707170 11663 net.cpp:156] Memory required for data: 873364512
I0403 15:53:21.707188 11663 layer_factory.hpp:77] Creating layer inception_4a/relu_5x5_reduce
I0403 15:53:21.707207 11663 net.cpp:91] Creating Layer inception_4a/relu_5x5_reduce
I0403 15:53:21.707222 11663 net.cpp:425] inception_4a/relu_5x5_reduce <- inception_4a/5x5_reduce
I0403 15:53:21.707242 11663 net.cpp:386] inception_4a/relu_5x5_reduce -> inception_4a/5x5_reduce (in-place)
I0403 15:53:21.707414 11663 net.cpp:141] Setting up inception_4a/relu_5x5_reduce
I0403 15:53:21.707438 11663 net.cpp:148] Top shape: 24 16 14 14 (75264)
I0403 15:53:21.707453 11663 net.cpp:156] Memory required for data: 873665568
I0403 15:53:21.707466 11663 layer_factory.hpp:77] Creating layer inception_4a/5x5
I0403 15:53:21.707487 11663 net.cpp:91] Creating Layer inception_4a/5x5
I0403 15:53:21.707504 11663 net.cpp:425] inception_4a/5x5 <- inception_4a/5x5_reduce
I0403 15:53:21.707525 11663 net.cpp:399] inception_4a/5x5 -> inception_4a/5x5
I0403 15:53:21.708565 11663 net.cpp:141] Setting up inception_4a/5x5
I0403 15:53:21.708591 11663 net.cpp:148] Top shape: 24 48 14 14 (225792)
I0403 15:53:21.708607 11663 net.cpp:156] Memory required for data: 874568736
I0403 15:53:21.708624 11663 layer_factory.hpp:77] Creating layer inception_4a/relu_5x5
I0403 15:53:21.708644 11663 net.cpp:91] Creating Layer inception_4a/relu_5x5
I0403 15:53:21.708660 11663 net.cpp:425] inception_4a/relu_5x5 <- inception_4a/5x5
I0403 15:53:21.708678 11663 net.cpp:386] inception_4a/relu_5x5 -> inception_4a/5x5 (in-place)
I0403 15:53:21.708848 11663 net.cpp:141] Setting up inception_4a/relu_5x5
I0403 15:53:21.708874 11663 net.cpp:148] Top shape: 24 48 14 14 (225792)
I0403 15:53:21.708889 11663 net.cpp:156] Memory required for data: 875471904
I0403 15:53:21.708904 11663 layer_factory.hpp:77] Creating layer inception_4a/pool
I0403 15:53:21.708921 11663 net.cpp:91] Creating Layer inception_4a/pool
I0403 15:53:21.708936 11663 net.cpp:425] inception_4a/pool <- pool3/3x3_s2_pool3/3x3_s2_0_split_3
I0403 15:53:21.708955 11663 net.cpp:399] inception_4a/pool -> inception_4a/pool
I0403 15:53:21.709024 11663 net.cpp:141] Setting up inception_4a/pool
I0403 15:53:21.709048 11663 net.cpp:148] Top shape: 24 480 14 14 (2257920)
I0403 15:53:21.709061 11663 net.cpp:156] Memory required for data: 884503584
I0403 15:53:21.709075 11663 layer_factory.hpp:77] Creating layer inception_4a/pool_proj
I0403 15:53:21.709097 11663 net.cpp:91] Creating Layer inception_4a/pool_proj
I0403 15:53:21.709115 11663 net.cpp:425] inception_4a/pool_proj <- inception_4a/pool
I0403 15:53:21.709134 11663 net.cpp:399] inception_4a/pool_proj -> inception_4a/pool_proj
I0403 15:53:21.710279 11663 net.cpp:141] Setting up inception_4a/pool_proj
I0403 15:53:21.710307 11663 net.cpp:148] Top shape: 24 64 14 14 (301056)
I0403 15:53:21.710338 11663 net.cpp:156] Memory required for data: 885707808
I0403 15:53:21.710357 11663 layer_factory.hpp:77] Creating layer inception_4a/relu_pool_proj
I0403 15:53:21.710378 11663 net.cpp:91] Creating Layer inception_4a/relu_pool_proj
I0403 15:53:21.710397 11663 net.cpp:425] inception_4a/relu_pool_proj <- inception_4a/pool_proj
I0403 15:53:21.710414 11663 net.cpp:386] inception_4a/relu_pool_proj -> inception_4a/pool_proj (in-place)
I0403 15:53:21.710691 11663 net.cpp:141] Setting up inception_4a/relu_pool_proj
I0403 15:53:21.710717 11663 net.cpp:148] Top shape: 24 64 14 14 (301056)
I0403 15:53:21.710732 11663 net.cpp:156] Memory required for data: 886912032
I0403 15:53:21.710747 11663 layer_factory.hpp:77] Creating layer inception_4a/output
I0403 15:53:21.710767 11663 net.cpp:91] Creating Layer inception_4a/output
I0403 15:53:21.710783 11663 net.cpp:425] inception_4a/output <- inception_4a/1x1
I0403 15:53:21.710801 11663 net.cpp:425] inception_4a/output <- inception_4a/3x3
I0403 15:53:21.710816 11663 net.cpp:425] inception_4a/output <- inception_4a/5x5
I0403 15:53:21.710832 11663 net.cpp:425] inception_4a/output <- inception_4a/pool_proj
I0403 15:53:21.710850 11663 net.cpp:399] inception_4a/output -> inception_4a/output
I0403 15:53:21.710894 11663 net.cpp:141] Setting up inception_4a/output
I0403 15:53:21.710917 11663 net.cpp:148] Top shape: 24 512 14 14 (2408448)
I0403 15:53:21.710932 11663 net.cpp:156] Memory required for data: 896545824
I0403 15:53:21.710947 11663 layer_factory.hpp:77] Creating layer inception_4a/output_inception_4a/output_0_split
I0403 15:53:21.710964 11663 net.cpp:91] Creating Layer inception_4a/output_inception_4a/output_0_split
I0403 15:53:21.710983 11663 net.cpp:425] inception_4a/output_inception_4a/output_0_split <- inception_4a/output
I0403 15:53:21.711004 11663 net.cpp:399] inception_4a/output_inception_4a/output_0_split -> inception_4a/output_inception_4a/output_0_split_0
I0403 15:53:21.711027 11663 net.cpp:399] inception_4a/output_inception_4a/output_0_split -> inception_4a/output_inception_4a/output_0_split_1
I0403 15:53:21.711048 11663 net.cpp:399] inception_4a/output_inception_4a/output_0_split -> inception_4a/output_inception_4a/output_0_split_2
I0403 15:53:21.711067 11663 net.cpp:399] inception_4a/output_inception_4a/output_0_split -> inception_4a/output_inception_4a/output_0_split_3
I0403 15:53:21.711091 11663 net.cpp:399] inception_4a/output_inception_4a/output_0_split -> inception_4a/output_inception_4a/output_0_split_4
I0403 15:53:21.711180 11663 net.cpp:141] Setting up inception_4a/output_inception_4a/output_0_split
I0403 15:53:21.711205 11663 net.cpp:148] Top shape: 24 512 14 14 (2408448)
I0403 15:53:21.711221 11663 net.cpp:148] Top shape: 24 512 14 14 (2408448)
I0403 15:53:21.711237 11663 net.cpp:148] Top shape: 24 512 14 14 (2408448)
I0403 15:53:21.711253 11663 net.cpp:148] Top shape: 24 512 14 14 (2408448)
I0403 15:53:21.711268 11663 net.cpp:148] Top shape: 24 512 14 14 (2408448)
I0403 15:53:21.711282 11663 net.cpp:156] Memory required for data: 944714784
I0403 15:53:21.711295 11663 layer_factory.hpp:77] Creating layer loss1/ave_pool
I0403 15:53:21.711313 11663 net.cpp:91] Creating Layer loss1/ave_pool
I0403 15:53:21.711328 11663 net.cpp:425] loss1/ave_pool <- inception_4a/output_inception_4a/output_0_split_0
I0403 15:53:21.711352 11663 net.cpp:399] loss1/ave_pool -> loss1/ave_pool
I0403 15:53:21.711551 11663 net.cpp:141] Setting up loss1/ave_pool
I0403 15:53:21.711576 11663 net.cpp:148] Top shape: 24 512 4 4 (196608)
I0403 15:53:21.711592 11663 net.cpp:156] Memory required for data: 945501216
I0403 15:53:21.711607 11663 layer_factory.hpp:77] Creating layer loss1/conv
I0403 15:53:21.711632 11663 net.cpp:91] Creating Layer loss1/conv
I0403 15:53:21.711649 11663 net.cpp:425] loss1/conv <- loss1/ave_pool
I0403 15:53:21.711668 11663 net.cpp:399] loss1/conv -> loss1/conv
I0403 15:53:21.713068 11663 net.cpp:141] Setting up loss1/conv
I0403 15:53:21.713095 11663 net.cpp:148] Top shape: 24 128 4 4 (49152)
I0403 15:53:21.713124 11663 net.cpp:156] Memory required for data: 945697824
I0403 15:53:21.713145 11663 layer_factory.hpp:77] Creating layer loss1/relu_conv
I0403 15:53:21.713163 11663 net.cpp:91] Creating Layer loss1/relu_conv
I0403 15:53:21.713178 11663 net.cpp:425] loss1/relu_conv <- loss1/conv
I0403 15:53:21.713197 11663 net.cpp:386] loss1/relu_conv -> loss1/conv (in-place)
I0403 15:53:21.713475 11663 net.cpp:141] Setting up loss1/relu_conv
I0403 15:53:21.713501 11663 net.cpp:148] Top shape: 24 128 4 4 (49152)
I0403 15:53:21.713516 11663 net.cpp:156] Memory required for data: 945894432
I0403 15:53:21.713532 11663 layer_factory.hpp:77] Creating layer loss1/fc
I0403 15:53:21.713556 11663 net.cpp:91] Creating Layer loss1/fc
I0403 15:53:21.713573 11663 net.cpp:425] loss1/fc <- loss1/conv
I0403 15:53:21.713593 11663 net.cpp:399] loss1/fc -> loss1/fc
I0403 15:53:21.731194 11663 net.cpp:141] Setting up loss1/fc
I0403 15:53:21.731230 11663 net.cpp:148] Top shape: 24 1024 (24576)
I0403 15:53:21.731246 11663 net.cpp:156] Memory required for data: 945992736
I0403 15:53:21.731266 11663 layer_factory.hpp:77] Creating layer loss1/relu_fc
I0403 15:53:21.731283 11663 net.cpp:91] Creating Layer loss1/relu_fc
I0403 15:53:21.731299 11663 net.cpp:425] loss1/relu_fc <- loss1/fc
I0403 15:53:21.731317 11663 net.cpp:386] loss1/relu_fc -> loss1/fc (in-place)
I0403 15:53:21.731515 11663 net.cpp:141] Setting up loss1/relu_fc
I0403 15:53:21.731541 11663 net.cpp:148] Top shape: 24 1024 (24576)
I0403 15:53:21.731556 11663 net.cpp:156] Memory required for data: 946091040
I0403 15:53:21.731571 11663 layer_factory.hpp:77] Creating layer loss1/drop_fc
I0403 15:53:21.731595 11663 net.cpp:91] Creating Layer loss1/drop_fc
I0403 15:53:21.731613 11663 net.cpp:425] loss1/drop_fc <- loss1/fc
I0403 15:53:21.731629 11663 net.cpp:386] loss1/drop_fc -> loss1/fc (in-place)
I0403 15:53:21.731680 11663 net.cpp:141] Setting up loss1/drop_fc
I0403 15:53:21.731703 11663 net.cpp:148] Top shape: 24 1024 (24576)
I0403 15:53:21.731717 11663 net.cpp:156] Memory required for data: 946189344
I0403 15:53:21.731732 11663 layer_factory.hpp:77] Creating layer loss1/classifier_plantvillage
I0403 15:53:21.731753 11663 net.cpp:91] Creating Layer loss1/classifier_plantvillage
I0403 15:53:21.731770 11663 net.cpp:425] loss1/classifier_plantvillage <- loss1/fc
I0403 15:53:21.731787 11663 net.cpp:399] loss1/classifier_plantvillage -> loss1/classifier_plantvillage
I0403 15:53:21.732681 11663 net.cpp:141] Setting up loss1/classifier_plantvillage
I0403 15:53:21.732709 11663 net.cpp:148] Top shape: 24 38 (912)
I0403 15:53:21.732725 11663 net.cpp:156] Memory required for data: 946192992
I0403 15:53:21.732743 11663 layer_factory.hpp:77] Creating layer loss1/classifier_plantvillage_loss1/classifier_plantvillage_0_split
I0403 15:53:21.732761 11663 net.cpp:91] Creating Layer loss1/classifier_plantvillage_loss1/classifier_plantvillage_0_split
I0403 15:53:21.732777 11663 net.cpp:425] loss1/classifier_plantvillage_loss1/classifier_plantvillage_0_split <- loss1/classifier_plantvillage
I0403 15:53:21.732795 11663 net.cpp:399] loss1/classifier_plantvillage_loss1/classifier_plantvillage_0_split -> loss1/classifier_plantvillage_loss1/classifier_plantvillage_0_split_0
I0403 15:53:21.732815 11663 net.cpp:399] loss1/classifier_plantvillage_loss1/classifier_plantvillage_0_split -> loss1/classifier_plantvillage_loss1/classifier_plantvillage_0_split_1
I0403 15:53:21.732836 11663 net.cpp:399] loss1/classifier_plantvillage_loss1/classifier_plantvillage_0_split -> loss1/classifier_plantvillage_loss1/classifier_plantvillage_0_split_2
I0403 15:53:21.732899 11663 net.cpp:141] Setting up loss1/classifier_plantvillage_loss1/classifier_plantvillage_0_split
I0403 15:53:21.732921 11663 net.cpp:148] Top shape: 24 38 (912)
I0403 15:53:21.732936 11663 net.cpp:148] Top shape: 24 38 (912)
I0403 15:53:21.732951 11663 net.cpp:148] Top shape: 24 38 (912)
I0403 15:53:21.732965 11663 net.cpp:156] Memory required for data: 946203936
I0403 15:53:21.732982 11663 layer_factory.hpp:77] Creating layer inception_4b/1x1
I0403 15:53:21.733003 11663 net.cpp:91] Creating Layer inception_4b/1x1
I0403 15:53:21.733034 11663 net.cpp:425] inception_4b/1x1 <- inception_4a/output_inception_4a/output_0_split_1
I0403 15:53:21.733057 11663 net.cpp:399] inception_4b/1x1 -> inception_4b/1x1
I0403 15:53:21.734694 11663 net.cpp:141] Setting up inception_4b/1x1
I0403 15:53:21.734721 11663 net.cpp:148] Top shape: 24 160 14 14 (752640)
I0403 15:53:21.734736 11663 net.cpp:156] Memory required for data: 949214496
I0403 15:53:21.734755 11663 layer_factory.hpp:77] Creating layer inception_4b/relu_1x1
I0403 15:53:21.734772 11663 net.cpp:91] Creating Layer inception_4b/relu_1x1
I0403 15:53:21.734789 11663 net.cpp:425] inception_4b/relu_1x1 <- inception_4b/1x1
I0403 15:53:21.734808 11663 net.cpp:386] inception_4b/relu_1x1 -> inception_4b/1x1 (in-place)
I0403 15:53:21.734995 11663 net.cpp:141] Setting up inception_4b/relu_1x1
I0403 15:53:21.735020 11663 net.cpp:148] Top shape: 24 160 14 14 (752640)
I0403 15:53:21.735034 11663 net.cpp:156] Memory required for data: 952225056
I0403 15:53:21.735049 11663 layer_factory.hpp:77] Creating layer inception_4b/3x3_reduce
I0403 15:53:21.735071 11663 net.cpp:91] Creating Layer inception_4b/3x3_reduce
I0403 15:53:21.735090 11663 net.cpp:425] inception_4b/3x3_reduce <- inception_4a/output_inception_4a/output_0_split_2
I0403 15:53:21.735110 11663 net.cpp:399] inception_4b/3x3_reduce -> inception_4b/3x3_reduce
I0403 15:53:21.736448 11663 net.cpp:141] Setting up inception_4b/3x3_reduce
I0403 15:53:21.736475 11663 net.cpp:148] Top shape: 24 112 14 14 (526848)
I0403 15:53:21.736490 11663 net.cpp:156] Memory required for data: 954332448
I0403 15:53:21.736508 11663 layer_factory.hpp:77] Creating layer inception_4b/relu_3x3_reduce
I0403 15:53:21.736531 11663 net.cpp:91] Creating Layer inception_4b/relu_3x3_reduce
I0403 15:53:21.736547 11663 net.cpp:425] inception_4b/relu_3x3_reduce <- inception_4b/3x3_reduce
I0403 15:53:21.736564 11663 net.cpp:386] inception_4b/relu_3x3_reduce -> inception_4b/3x3_reduce (in-place)
I0403 15:53:21.736845 11663 net.cpp:141] Setting up inception_4b/relu_3x3_reduce
I0403 15:53:21.736871 11663 net.cpp:148] Top shape: 24 112 14 14 (526848)
I0403 15:53:21.736886 11663 net.cpp:156] Memory required for data: 956439840
I0403 15:53:21.736901 11663 layer_factory.hpp:77] Creating layer inception_4b/3x3
I0403 15:53:21.736922 11663 net.cpp:91] Creating Layer inception_4b/3x3
I0403 15:53:21.736940 11663 net.cpp:425] inception_4b/3x3 <- inception_4b/3x3_reduce
I0403 15:53:21.736963 11663 net.cpp:399] inception_4b/3x3 -> inception_4b/3x3
I0403 15:53:21.739950 11663 net.cpp:141] Setting up inception_4b/3x3
I0403 15:53:21.739984 11663 net.cpp:148] Top shape: 24 224 14 14 (1053696)
I0403 15:53:21.740002 11663 net.cpp:156] Memory required for data: 960654624
I0403 15:53:21.740021 11663 layer_factory.hpp:77] Creating layer inception_4b/relu_3x3
I0403 15:53:21.740039 11663 net.cpp:91] Creating Layer inception_4b/relu_3x3
I0403 15:53:21.740056 11663 net.cpp:425] inception_4b/relu_3x3 <- inception_4b/3x3
I0403 15:53:21.740072 11663 net.cpp:386] inception_4b/relu_3x3 -> inception_4b/3x3 (in-place)
I0403 15:53:21.740252 11663 net.cpp:141] Setting up inception_4b/relu_3x3
I0403 15:53:21.740279 11663 net.cpp:148] Top shape: 24 224 14 14 (1053696)
I0403 15:53:21.740295 11663 net.cpp:156] Memory required for data: 964869408
I0403 15:53:21.740310 11663 layer_factory.hpp:77] Creating layer inception_4b/5x5_reduce
I0403 15:53:21.740332 11663 net.cpp:91] Creating Layer inception_4b/5x5_reduce
I0403 15:53:21.740350 11663 net.cpp:425] inception_4b/5x5_reduce <- inception_4a/output_inception_4a/output_0_split_3
I0403 15:53:21.740371 11663 net.cpp:399] inception_4b/5x5_reduce -> inception_4b/5x5_reduce
I0403 15:53:21.741444 11663 net.cpp:141] Setting up inception_4b/5x5_reduce
I0403 15:53:21.741472 11663 net.cpp:148] Top shape: 24 24 14 14 (112896)
I0403 15:53:21.741488 11663 net.cpp:156] Memory required for data: 965320992
I0403 15:53:21.741506 11663 layer_factory.hpp:77] Creating layer inception_4b/relu_5x5_reduce
I0403 15:53:21.741528 11663 net.cpp:91] Creating Layer inception_4b/relu_5x5_reduce
I0403 15:53:21.741557 11663 net.cpp:425] inception_4b/relu_5x5_reduce <- inception_4b/5x5_reduce
I0403 15:53:21.741576 11663 net.cpp:386] inception_4b/relu_5x5_reduce -> inception_4b/5x5_reduce (in-place)
I0403 15:53:21.741756 11663 net.cpp:141] Setting up inception_4b/relu_5x5_reduce
I0403 15:53:21.741780 11663 net.cpp:148] Top shape: 24 24 14 14 (112896)
I0403 15:53:21.741796 11663 net.cpp:156] Memory required for data: 965772576
I0403 15:53:21.741809 11663 layer_factory.hpp:77] Creating layer inception_4b/5x5
I0403 15:53:21.741832 11663 net.cpp:91] Creating Layer inception_4b/5x5
I0403 15:53:21.741850 11663 net.cpp:425] inception_4b/5x5 <- inception_4b/5x5_reduce
I0403 15:53:21.741870 11663 net.cpp:399] inception_4b/5x5 -> inception_4b/5x5
I0403 15:53:21.743093 11663 net.cpp:141] Setting up inception_4b/5x5
I0403 15:53:21.743120 11663 net.cpp:148] Top shape: 24 64 14 14 (301056)
I0403 15:53:21.743135 11663 net.cpp:156] Memory required for data: 966976800
I0403 15:53:21.743155 11663 layer_factory.hpp:77] Creating layer inception_4b/relu_5x5
I0403 15:53:21.743171 11663 net.cpp:91] Creating Layer inception_4b/relu_5x5
I0403 15:53:21.743187 11663 net.cpp:425] inception_4b/relu_5x5 <- inception_4b/5x5
I0403 15:53:21.743208 11663 net.cpp:386] inception_4b/relu_5x5 -> inception_4b/5x5 (in-place)
I0403 15:53:21.743497 11663 net.cpp:141] Setting up inception_4b/relu_5x5
I0403 15:53:21.743523 11663 net.cpp:148] Top shape: 24 64 14 14 (301056)
I0403 15:53:21.743538 11663 net.cpp:156] Memory required for data: 968181024
I0403 15:53:21.743553 11663 layer_factory.hpp:77] Creating layer inception_4b/pool
I0403 15:53:21.743571 11663 net.cpp:91] Creating Layer inception_4b/pool
I0403 15:53:21.743587 11663 net.cpp:425] inception_4b/pool <- inception_4a/output_inception_4a/output_0_split_4
I0403 15:53:21.743609 11663 net.cpp:399] inception_4b/pool -> inception_4b/pool
I0403 15:53:21.743674 11663 net.cpp:141] Setting up inception_4b/pool
I0403 15:53:21.743697 11663 net.cpp:148] Top shape: 24 512 14 14 (2408448)
I0403 15:53:21.743712 11663 net.cpp:156] Memory required for data: 977814816
I0403 15:53:21.743726 11663 layer_factory.hpp:77] Creating layer inception_4b/pool_proj
I0403 15:53:21.743751 11663 net.cpp:91] Creating Layer inception_4b/pool_proj
I0403 15:53:21.743768 11663 net.cpp:425] inception_4b/pool_proj <- inception_4b/pool
I0403 15:53:21.743787 11663 net.cpp:399] inception_4b/pool_proj -> inception_4b/pool_proj
I0403 15:53:21.744984 11663 net.cpp:141] Setting up inception_4b/pool_proj
I0403 15:53:21.745012 11663 net.cpp:148] Top shape: 24 64 14 14 (301056)
I0403 15:53:21.745028 11663 net.cpp:156] Memory required for data: 979019040
I0403 15:53:21.745048 11663 layer_factory.hpp:77] Creating layer inception_4b/relu_pool_proj
I0403 15:53:21.745064 11663 net.cpp:91] Creating Layer inception_4b/relu_pool_proj
I0403 15:53:21.745081 11663 net.cpp:425] inception_4b/relu_pool_proj <- inception_4b/pool_proj
I0403 15:53:21.745100 11663 net.cpp:386] inception_4b/relu_pool_proj -> inception_4b/pool_proj (in-place)
I0403 15:53:21.745280 11663 net.cpp:141] Setting up inception_4b/relu_pool_proj
I0403 15:53:21.745304 11663 net.cpp:148] Top shape: 24 64 14 14 (301056)
I0403 15:53:21.745319 11663 net.cpp:156] Memory required for data: 980223264
I0403 15:53:21.745333 11663 layer_factory.hpp:77] Creating layer inception_4b/output
I0403 15:53:21.745353 11663 net.cpp:91] Creating Layer inception_4b/output
I0403 15:53:21.745370 11663 net.cpp:425] inception_4b/output <- inception_4b/1x1
I0403 15:53:21.745388 11663 net.cpp:425] inception_4b/output <- inception_4b/3x3
I0403 15:53:21.745404 11663 net.cpp:425] inception_4b/output <- inception_4b/5x5
I0403 15:53:21.745419 11663 net.cpp:425] inception_4b/output <- inception_4b/pool_proj
I0403 15:53:21.745435 11663 net.cpp:399] inception_4b/output -> inception_4b/output
I0403 15:53:21.745481 11663 net.cpp:141] Setting up inception_4b/output
I0403 15:53:21.745503 11663 net.cpp:148] Top shape: 24 512 14 14 (2408448)
I0403 15:53:21.745518 11663 net.cpp:156] Memory required for data: 989857056
I0403 15:53:21.745546 11663 layer_factory.hpp:77] Creating layer inception_4b/output_inception_4b/output_0_split
I0403 15:53:21.745564 11663 net.cpp:91] Creating Layer inception_4b/output_inception_4b/output_0_split
I0403 15:53:21.745580 11663 net.cpp:425] inception_4b/output_inception_4b/output_0_split <- inception_4b/output
I0403 15:53:21.745600 11663 net.cpp:399] inception_4b/output_inception_4b/output_0_split -> inception_4b/output_inception_4b/output_0_split_0
I0403 15:53:21.745620 11663 net.cpp:399] inception_4b/output_inception_4b/output_0_split -> inception_4b/output_inception_4b/output_0_split_1
I0403 15:53:21.745640 11663 net.cpp:399] inception_4b/output_inception_4b/output_0_split -> inception_4b/output_inception_4b/output_0_split_2
I0403 15:53:21.745661 11663 net.cpp:399] inception_4b/output_inception_4b/output_0_split -> inception_4b/output_inception_4b/output_0_split_3
I0403 15:53:21.745740 11663 net.cpp:141] Setting up inception_4b/output_inception_4b/output_0_split
I0403 15:53:21.745767 11663 net.cpp:148] Top shape: 24 512 14 14 (2408448)
I0403 15:53:21.745784 11663 net.cpp:148] Top shape: 24 512 14 14 (2408448)
I0403 15:53:21.745800 11663 net.cpp:148] Top shape: 24 512 14 14 (2408448)
I0403 15:53:21.745815 11663 net.cpp:148] Top shape: 24 512 14 14 (2408448)
I0403 15:53:21.745829 11663 net.cpp:156] Memory required for data: 1028392224
I0403 15:53:21.745844 11663 layer_factory.hpp:77] Creating layer inception_4c/1x1
I0403 15:53:21.745865 11663 net.cpp:91] Creating Layer inception_4c/1x1
I0403 15:53:21.745883 11663 net.cpp:425] inception_4c/1x1 <- inception_4b/output_inception_4b/output_0_split_0
I0403 15:53:21.745901 11663 net.cpp:399] inception_4c/1x1 -> inception_4c/1x1
I0403 15:53:21.747354 11663 net.cpp:141] Setting up inception_4c/1x1
I0403 15:53:21.747382 11663 net.cpp:148] Top shape: 24 128 14 14 (602112)
I0403 15:53:21.747397 11663 net.cpp:156] Memory required for data: 1030800672
I0403 15:53:21.747416 11663 layer_factory.hpp:77] Creating layer inception_4c/relu_1x1
I0403 15:53:21.747438 11663 net.cpp:91] Creating Layer inception_4c/relu_1x1
I0403 15:53:21.747457 11663 net.cpp:425] inception_4c/relu_1x1 <- inception_4c/1x1
I0403 15:53:21.747485 11663 net.cpp:386] inception_4c/relu_1x1 -> inception_4c/1x1 (in-place)
I0403 15:53:21.747663 11663 net.cpp:141] Setting up inception_4c/relu_1x1
I0403 15:53:21.747690 11663 net.cpp:148] Top shape: 24 128 14 14 (602112)
I0403 15:53:21.747705 11663 net.cpp:156] Memory required for data: 1033209120
I0403 15:53:21.747720 11663 layer_factory.hpp:77] Creating layer inception_4c/3x3_reduce
I0403 15:53:21.747742 11663 net.cpp:91] Creating Layer inception_4c/3x3_reduce
I0403 15:53:21.747759 11663 net.cpp:425] inception_4c/3x3_reduce <- inception_4b/output_inception_4b/output_0_split_1
I0403 15:53:21.747778 11663 net.cpp:399] inception_4c/3x3_reduce -> inception_4c/3x3_reduce
I0403 15:53:21.749742 11663 net.cpp:141] Setting up inception_4c/3x3_reduce
I0403 15:53:21.749773 11663 net.cpp:148] Top shape: 24 128 14 14 (602112)
I0403 15:53:21.749788 11663 net.cpp:156] Memory required for data: 1035617568
I0403 15:53:21.749807 11663 layer_factory.hpp:77] Creating layer inception_4c/relu_3x3_reduce
I0403 15:53:21.749825 11663 net.cpp:91] Creating Layer inception_4c/relu_3x3_reduce
I0403 15:53:21.749841 11663 net.cpp:425] inception_4c/relu_3x3_reduce <- inception_4c/3x3_reduce
I0403 15:53:21.749861 11663 net.cpp:386] inception_4c/relu_3x3_reduce -> inception_4c/3x3_reduce (in-place)
I0403 15:53:21.750147 11663 net.cpp:141] Setting up inception_4c/relu_3x3_reduce
I0403 15:53:21.750176 11663 net.cpp:148] Top shape: 24 128 14 14 (602112)
I0403 15:53:21.750192 11663 net.cpp:156] Memory required for data: 1038026016
I0403 15:53:21.750210 11663 layer_factory.hpp:77] Creating layer inception_4c/3x3
I0403 15:53:21.750232 11663 net.cpp:91] Creating Layer inception_4c/3x3
I0403 15:53:21.750250 11663 net.cpp:425] inception_4c/3x3 <- inception_4c/3x3_reduce
I0403 15:53:21.750269 11663 net.cpp:399] inception_4c/3x3 -> inception_4c/3x3
I0403 15:53:21.753835 11663 net.cpp:141] Setting up inception_4c/3x3
I0403 15:53:21.753875 11663 net.cpp:148] Top shape: 24 256 14 14 (1204224)
I0403 15:53:21.753891 11663 net.cpp:156] Memory required for data: 1042842912
I0403 15:53:21.753921 11663 layer_factory.hpp:77] Creating layer inception_4c/relu_3x3
I0403 15:53:21.753942 11663 net.cpp:91] Creating Layer inception_4c/relu_3x3
I0403 15:53:21.753958 11663 net.cpp:425] inception_4c/relu_3x3 <- inception_4c/3x3
I0403 15:53:21.753976 11663 net.cpp:386] inception_4c/relu_3x3 -> inception_4c/3x3 (in-place)
I0403 15:53:21.754163 11663 net.cpp:141] Setting up inception_4c/relu_3x3
I0403 15:53:21.754186 11663 net.cpp:148] Top shape: 24 256 14 14 (1204224)
I0403 15:53:21.754202 11663 net.cpp:156] Memory required for data: 1047659808
I0403 15:53:21.754217 11663 layer_factory.hpp:77] Creating layer inception_4c/5x5_reduce
I0403 15:53:21.754240 11663 net.cpp:91] Creating Layer inception_4c/5x5_reduce
I0403 15:53:21.754256 11663 net.cpp:425] inception_4c/5x5_reduce <- inception_4b/output_inception_4b/output_0_split_2
I0403 15:53:21.754276 11663 net.cpp:399] inception_4c/5x5_reduce -> inception_4c/5x5_reduce
I0403 15:53:21.755349 11663 net.cpp:141] Setting up inception_4c/5x5_reduce
I0403 15:53:21.755376 11663 net.cpp:148] Top shape: 24 24 14 14 (112896)
I0403 15:53:21.755393 11663 net.cpp:156] Memory required for data: 1048111392
I0403 15:53:21.755411 11663 layer_factory.hpp:77] Creating layer inception_4c/relu_5x5_reduce
I0403 15:53:21.755429 11663 net.cpp:91] Creating Layer inception_4c/relu_5x5_reduce
I0403 15:53:21.755460 11663 net.cpp:425] inception_4c/relu_5x5_reduce <- inception_4c/5x5_reduce
I0403 15:53:21.755477 11663 net.cpp:386] inception_4c/relu_5x5_reduce -> inception_4c/5x5_reduce (in-place)
I0403 15:53:21.755676 11663 net.cpp:141] Setting up inception_4c/relu_5x5_reduce
I0403 15:53:21.755700 11663 net.cpp:148] Top shape: 24 24 14 14 (112896)
I0403 15:53:21.755714 11663 net.cpp:156] Memory required for data: 1048562976
I0403 15:53:21.755730 11663 layer_factory.hpp:77] Creating layer inception_4c/5x5
I0403 15:53:21.755764 11663 net.cpp:91] Creating Layer inception_4c/5x5
I0403 15:53:21.755780 11663 net.cpp:425] inception_4c/5x5 <- inception_4c/5x5_reduce
I0403 15:53:21.755800 11663 net.cpp:399] inception_4c/5x5 -> inception_4c/5x5
I0403 15:53:21.757015 11663 net.cpp:141] Setting up inception_4c/5x5
I0403 15:53:21.757042 11663 net.cpp:148] Top shape: 24 64 14 14 (301056)
I0403 15:53:21.757056 11663 net.cpp:156] Memory required for data: 1049767200
I0403 15:53:21.757074 11663 layer_factory.hpp:77] Creating layer inception_4c/relu_5x5
I0403 15:53:21.757093 11663 net.cpp:91] Creating Layer inception_4c/relu_5x5
I0403 15:53:21.757109 11663 net.cpp:425] inception_4c/relu_5x5 <- inception_4c/5x5
I0403 15:53:21.757127 11663 net.cpp:386] inception_4c/relu_5x5 -> inception_4c/5x5 (in-place)
I0403 15:53:21.757434 11663 net.cpp:141] Setting up inception_4c/relu_5x5
I0403 15:53:21.757472 11663 net.cpp:148] Top shape: 24 64 14 14 (301056)
I0403 15:53:21.757488 11663 net.cpp:156] Memory required for data: 1050971424
I0403 15:53:21.757501 11663 layer_factory.hpp:77] Creating layer inception_4c/pool
I0403 15:53:21.757520 11663 net.cpp:91] Creating Layer inception_4c/pool
I0403 15:53:21.757536 11663 net.cpp:425] inception_4c/pool <- inception_4b/output_inception_4b/output_0_split_3
I0403 15:53:21.757555 11663 net.cpp:399] inception_4c/pool -> inception_4c/pool
I0403 15:53:21.757619 11663 net.cpp:141] Setting up inception_4c/pool
I0403 15:53:21.757642 11663 net.cpp:148] Top shape: 24 512 14 14 (2408448)
I0403 15:53:21.757657 11663 net.cpp:156] Memory required for data: 1060605216
I0403 15:53:21.757670 11663 layer_factory.hpp:77] Creating layer inception_4c/pool_proj
I0403 15:53:21.757693 11663 net.cpp:91] Creating Layer inception_4c/pool_proj
I0403 15:53:21.757709 11663 net.cpp:425] inception_4c/pool_proj <- inception_4c/pool
I0403 15:53:21.757730 11663 net.cpp:399] inception_4c/pool_proj -> inception_4c/pool_proj
I0403 15:53:21.758929 11663 net.cpp:141] Setting up inception_4c/pool_proj
I0403 15:53:21.758955 11663 net.cpp:148] Top shape: 24 64 14 14 (301056)
I0403 15:53:21.758993 11663 net.cpp:156] Memory required for data: 1061809440
I0403 15:53:21.759014 11663 layer_factory.hpp:77] Creating layer inception_4c/relu_pool_proj
I0403 15:53:21.759032 11663 net.cpp:91] Creating Layer inception_4c/relu_pool_proj
I0403 15:53:21.759048 11663 net.cpp:425] inception_4c/relu_pool_proj <- inception_4c/pool_proj
I0403 15:53:21.759068 11663 net.cpp:386] inception_4c/relu_pool_proj -> inception_4c/pool_proj (in-place)
I0403 15:53:21.759246 11663 net.cpp:141] Setting up inception_4c/relu_pool_proj
I0403 15:53:21.759271 11663 net.cpp:148] Top shape: 24 64 14 14 (301056)
I0403 15:53:21.759285 11663 net.cpp:156] Memory required for data: 1063013664
I0403 15:53:21.759299 11663 layer_factory.hpp:77] Creating layer inception_4c/output
I0403 15:53:21.759318 11663 net.cpp:91] Creating Layer inception_4c/output
I0403 15:53:21.759335 11663 net.cpp:425] inception_4c/output <- inception_4c/1x1
I0403 15:53:21.759351 11663 net.cpp:425] inception_4c/output <- inception_4c/3x3
I0403 15:53:21.759366 11663 net.cpp:425] inception_4c/output <- inception_4c/5x5
I0403 15:53:21.759382 11663 net.cpp:425] inception_4c/output <- inception_4c/pool_proj
I0403 15:53:21.759398 11663 net.cpp:399] inception_4c/output -> inception_4c/output
I0403 15:53:21.759444 11663 net.cpp:141] Setting up inception_4c/output
I0403 15:53:21.759467 11663 net.cpp:148] Top shape: 24 512 14 14 (2408448)
I0403 15:53:21.759480 11663 net.cpp:156] Memory required for data: 1072647456
I0403 15:53:21.759495 11663 layer_factory.hpp:77] Creating layer inception_4c/output_inception_4c/output_0_split
I0403 15:53:21.759510 11663 net.cpp:91] Creating Layer inception_4c/output_inception_4c/output_0_split
I0403 15:53:21.759526 11663 net.cpp:425] inception_4c/output_inception_4c/output_0_split <- inception_4c/output
I0403 15:53:21.759544 11663 net.cpp:399] inception_4c/output_inception_4c/output_0_split -> inception_4c/output_inception_4c/output_0_split_0
I0403 15:53:21.759565 11663 net.cpp:399] inception_4c/output_inception_4c/output_0_split -> inception_4c/output_inception_4c/output_0_split_1
I0403 15:53:21.759584 11663 net.cpp:399] inception_4c/output_inception_4c/output_0_split -> inception_4c/output_inception_4c/output_0_split_2
I0403 15:53:21.759603 11663 net.cpp:399] inception_4c/output_inception_4c/output_0_split -> inception_4c/output_inception_4c/output_0_split_3
I0403 15:53:21.759683 11663 net.cpp:141] Setting up inception_4c/output_inception_4c/output_0_split
I0403 15:53:21.759709 11663 net.cpp:148] Top shape: 24 512 14 14 (2408448)
I0403 15:53:21.759726 11663 net.cpp:148] Top shape: 24 512 14 14 (2408448)
I0403 15:53:21.759742 11663 net.cpp:148] Top shape: 24 512 14 14 (2408448)
I0403 15:53:21.759757 11663 net.cpp:148] Top shape: 24 512 14 14 (2408448)
I0403 15:53:21.759769 11663 net.cpp:156] Memory required for data: 1111182624
I0403 15:53:21.759783 11663 layer_factory.hpp:77] Creating layer inception_4d/1x1
I0403 15:53:21.759804 11663 net.cpp:91] Creating Layer inception_4d/1x1
I0403 15:53:21.759820 11663 net.cpp:425] inception_4d/1x1 <- inception_4c/output_inception_4c/output_0_split_0
I0403 15:53:21.759838 11663 net.cpp:399] inception_4d/1x1 -> inception_4d/1x1
I0403 15:53:21.761189 11663 net.cpp:141] Setting up inception_4d/1x1
I0403 15:53:21.761219 11663 net.cpp:148] Top shape: 24 112 14 14 (526848)
I0403 15:53:21.761234 11663 net.cpp:156] Memory required for data: 1113290016
I0403 15:53:21.761252 11663 layer_factory.hpp:77] Creating layer inception_4d/relu_1x1
I0403 15:53:21.761270 11663 net.cpp:91] Creating Layer inception_4d/relu_1x1
I0403 15:53:21.761286 11663 net.cpp:425] inception_4d/relu_1x1 <- inception_4d/1x1
I0403 15:53:21.761303 11663 net.cpp:386] inception_4d/relu_1x1 -> inception_4d/1x1 (in-place)
I0403 15:53:21.761487 11663 net.cpp:141] Setting up inception_4d/relu_1x1
I0403 15:53:21.761509 11663 net.cpp:148] Top shape: 24 112 14 14 (526848)
I0403 15:53:21.761524 11663 net.cpp:156] Memory required for data: 1115397408
I0403 15:53:21.761538 11663 layer_factory.hpp:77] Creating layer inception_4d/3x3_reduce
I0403 15:53:21.761572 11663 net.cpp:91] Creating Layer inception_4d/3x3_reduce
I0403 15:53:21.761590 11663 net.cpp:425] inception_4d/3x3_reduce <- inception_4c/output_inception_4c/output_0_split_1
I0403 15:53:21.761611 11663 net.cpp:399] inception_4d/3x3_reduce -> inception_4d/3x3_reduce
I0403 15:53:21.763077 11663 net.cpp:141] Setting up inception_4d/3x3_reduce
I0403 15:53:21.763103 11663 net.cpp:148] Top shape: 24 144 14 14 (677376)
I0403 15:53:21.763118 11663 net.cpp:156] Memory required for data: 1118106912
I0403 15:53:21.763135 11663 layer_factory.hpp:77] Creating layer inception_4d/relu_3x3_reduce
I0403 15:53:21.763155 11663 net.cpp:91] Creating Layer inception_4d/relu_3x3_reduce
I0403 15:53:21.763171 11663 net.cpp:425] inception_4d/relu_3x3_reduce <- inception_4d/3x3_reduce
I0403 15:53:21.763188 11663 net.cpp:386] inception_4d/relu_3x3_reduce -> inception_4d/3x3_reduce (in-place)
I0403 15:53:21.763468 11663 net.cpp:141] Setting up inception_4d/relu_3x3_reduce
I0403 15:53:21.763494 11663 net.cpp:148] Top shape: 24 144 14 14 (677376)
I0403 15:53:21.763507 11663 net.cpp:156] Memory required for data: 1120816416
I0403 15:53:21.763522 11663 layer_factory.hpp:77] Creating layer inception_4d/3x3
I0403 15:53:21.763545 11663 net.cpp:91] Creating Layer inception_4d/3x3
I0403 15:53:21.763562 11663 net.cpp:425] inception_4d/3x3 <- inception_4d/3x3_reduce
I0403 15:53:21.763581 11663 net.cpp:399] inception_4d/3x3 -> inception_4d/3x3
I0403 15:53:21.767788 11663 net.cpp:141] Setting up inception_4d/3x3
I0403 15:53:21.767818 11663 net.cpp:148] Top shape: 24 288 14 14 (1354752)
I0403 15:53:21.767834 11663 net.cpp:156] Memory required for data: 1126235424
I0403 15:53:21.767853 11663 layer_factory.hpp:77] Creating layer inception_4d/relu_3x3
I0403 15:53:21.767869 11663 net.cpp:91] Creating Layer inception_4d/relu_3x3
I0403 15:53:21.767884 11663 net.cpp:425] inception_4d/relu_3x3 <- inception_4d/3x3
I0403 15:53:21.767915 11663 net.cpp:386] inception_4d/relu_3x3 -> inception_4d/3x3 (in-place)
I0403 15:53:21.768110 11663 net.cpp:141] Setting up inception_4d/relu_3x3
I0403 15:53:21.768136 11663 net.cpp:148] Top shape: 24 288 14 14 (1354752)
I0403 15:53:21.768151 11663 net.cpp:156] Memory required for data: 1131654432
I0403 15:53:21.768165 11663 layer_factory.hpp:77] Creating layer inception_4d/5x5_reduce
I0403 15:53:21.768187 11663 net.cpp:91] Creating Layer inception_4d/5x5_reduce
I0403 15:53:21.768215 11663 net.cpp:425] inception_4d/5x5_reduce <- inception_4c/output_inception_4c/output_0_split_2
I0403 15:53:21.768236 11663 net.cpp:399] inception_4d/5x5_reduce -> inception_4d/5x5_reduce
I0403 15:53:21.769352 11663 net.cpp:141] Setting up inception_4d/5x5_reduce
I0403 15:53:21.769386 11663 net.cpp:148] Top shape: 24 32 14 14 (150528)
I0403 15:53:21.769402 11663 net.cpp:156] Memory required for data: 1132256544
I0403 15:53:21.769419 11663 layer_factory.hpp:77] Creating layer inception_4d/relu_5x5_reduce
I0403 15:53:21.769436 11663 net.cpp:91] Creating Layer inception_4d/relu_5x5_reduce
I0403 15:53:21.769453 11663 net.cpp:425] inception_4d/relu_5x5_reduce <- inception_4d/5x5_reduce
I0403 15:53:21.769469 11663 net.cpp:386] inception_4d/relu_5x5_reduce -> inception_4d/5x5_reduce (in-place)
I0403 15:53:21.769652 11663 net.cpp:141] Setting up inception_4d/relu_5x5_reduce
I0403 15:53:21.769676 11663 net.cpp:148] Top shape: 24 32 14 14 (150528)
I0403 15:53:21.769690 11663 net.cpp:156] Memory required for data: 1132858656
I0403 15:53:21.769704 11663 layer_factory.hpp:77] Creating layer inception_4d/5x5
I0403 15:53:21.769726 11663 net.cpp:91] Creating Layer inception_4d/5x5
I0403 15:53:21.769743 11663 net.cpp:425] inception_4d/5x5 <- inception_4d/5x5_reduce
I0403 15:53:21.769763 11663 net.cpp:399] inception_4d/5x5 -> inception_4d/5x5
I0403 15:53:21.771195 11663 net.cpp:141] Setting up inception_4d/5x5
I0403 15:53:21.771222 11663 net.cpp:148] Top shape: 24 64 14 14 (301056)
I0403 15:53:21.771237 11663 net.cpp:156] Memory required for data: 1134062880
I0403 15:53:21.771256 11663 layer_factory.hpp:77] Creating layer inception_4d/relu_5x5
I0403 15:53:21.771289 11663 net.cpp:91] Creating Layer inception_4d/relu_5x5
I0403 15:53:21.771307 11663 net.cpp:425] inception_4d/relu_5x5 <- inception_4d/5x5
I0403 15:53:21.771325 11663 net.cpp:386] inception_4d/relu_5x5 -> inception_4d/5x5 (in-place)
I0403 15:53:21.771620 11663 net.cpp:141] Setting up inception_4d/relu_5x5
I0403 15:53:21.771644 11663 net.cpp:148] Top shape: 24 64 14 14 (301056)
I0403 15:53:21.771659 11663 net.cpp:156] Memory required for data: 1135267104
I0403 15:53:21.771673 11663 layer_factory.hpp:77] Creating layer inception_4d/pool
I0403 15:53:21.771693 11663 net.cpp:91] Creating Layer inception_4d/pool
I0403 15:53:21.771710 11663 net.cpp:425] inception_4d/pool <- inception_4c/output_inception_4c/output_0_split_3
I0403 15:53:21.771728 11663 net.cpp:399] inception_4d/pool -> inception_4d/pool
I0403 15:53:21.771792 11663 net.cpp:141] Setting up inception_4d/pool
I0403 15:53:21.771816 11663 net.cpp:148] Top shape: 24 512 14 14 (2408448)
I0403 15:53:21.771829 11663 net.cpp:156] Memory required for data: 1144900896
I0403 15:53:21.771843 11663 layer_factory.hpp:77] Creating layer inception_4d/pool_proj
I0403 15:53:21.771864 11663 net.cpp:91] Creating Layer inception_4d/pool_proj
I0403 15:53:21.771883 11663 net.cpp:425] inception_4d/pool_proj <- inception_4d/pool
I0403 15:53:21.771903 11663 net.cpp:399] inception_4d/pool_proj -> inception_4d/pool_proj
I0403 15:53:21.773686 11663 net.cpp:141] Setting up inception_4d/pool_proj
I0403 15:53:21.773717 11663 net.cpp:148] Top shape: 24 64 14 14 (301056)
I0403 15:53:21.773733 11663 net.cpp:156] Memory required for data: 1146105120
I0403 15:53:21.773752 11663 layer_factory.hpp:77] Creating layer inception_4d/relu_pool_proj
I0403 15:53:21.773771 11663 net.cpp:91] Creating Layer inception_4d/relu_pool_proj
I0403 15:53:21.773787 11663 net.cpp:425] inception_4d/relu_pool_proj <- inception_4d/pool_proj
I0403 15:53:21.773805 11663 net.cpp:386] inception_4d/relu_pool_proj -> inception_4d/pool_proj (in-place)
I0403 15:53:21.773996 11663 net.cpp:141] Setting up inception_4d/relu_pool_proj
I0403 15:53:21.774021 11663 net.cpp:148] Top shape: 24 64 14 14 (301056)
I0403 15:53:21.774035 11663 net.cpp:156] Memory required for data: 1147309344
I0403 15:53:21.774050 11663 layer_factory.hpp:77] Creating layer inception_4d/output
I0403 15:53:21.774067 11663 net.cpp:91] Creating Layer inception_4d/output
I0403 15:53:21.774083 11663 net.cpp:425] inception_4d/output <- inception_4d/1x1
I0403 15:53:21.774099 11663 net.cpp:425] inception_4d/output <- inception_4d/3x3
I0403 15:53:21.774116 11663 net.cpp:425] inception_4d/output <- inception_4d/5x5
I0403 15:53:21.774132 11663 net.cpp:425] inception_4d/output <- inception_4d/pool_proj
I0403 15:53:21.774152 11663 net.cpp:399] inception_4d/output -> inception_4d/output
I0403 15:53:21.774199 11663 net.cpp:141] Setting up inception_4d/output
I0403 15:53:21.774224 11663 net.cpp:148] Top shape: 24 528 14 14 (2483712)
I0403 15:53:21.774240 11663 net.cpp:156] Memory required for data: 1157244192
I0403 15:53:21.774255 11663 layer_factory.hpp:77] Creating layer inception_4d/output_inception_4d/output_0_split
I0403 15:53:21.774272 11663 net.cpp:91] Creating Layer inception_4d/output_inception_4d/output_0_split
I0403 15:53:21.774288 11663 net.cpp:425] inception_4d/output_inception_4d/output_0_split <- inception_4d/output
I0403 15:53:21.774309 11663 net.cpp:399] inception_4d/output_inception_4d/output_0_split -> inception_4d/output_inception_4d/output_0_split_0
I0403 15:53:21.774332 11663 net.cpp:399] inception_4d/output_inception_4d/output_0_split -> inception_4d/output_inception_4d/output_0_split_1
I0403 15:53:21.774353 11663 net.cpp:399] inception_4d/output_inception_4d/output_0_split -> inception_4d/output_inception_4d/output_0_split_2
I0403 15:53:21.774372 11663 net.cpp:399] inception_4d/output_inception_4d/output_0_split -> inception_4d/output_inception_4d/output_0_split_3
I0403 15:53:21.774391 11663 net.cpp:399] inception_4d/output_inception_4d/output_0_split -> inception_4d/output_inception_4d/output_0_split_4
I0403 15:53:21.774492 11663 net.cpp:141] Setting up inception_4d/output_inception_4d/output_0_split
I0403 15:53:21.774530 11663 net.cpp:148] Top shape: 24 528 14 14 (2483712)
I0403 15:53:21.774549 11663 net.cpp:148] Top shape: 24 528 14 14 (2483712)
I0403 15:53:21.774564 11663 net.cpp:148] Top shape: 24 528 14 14 (2483712)
I0403 15:53:21.774579 11663 net.cpp:148] Top shape: 24 528 14 14 (2483712)
I0403 15:53:21.774593 11663 net.cpp:148] Top shape: 24 528 14 14 (2483712)
I0403 15:53:21.774607 11663 net.cpp:156] Memory required for data: 1206918432
I0403 15:53:21.774622 11663 layer_factory.hpp:77] Creating layer loss2/ave_pool
I0403 15:53:21.774639 11663 net.cpp:91] Creating Layer loss2/ave_pool
I0403 15:53:21.774655 11663 net.cpp:425] loss2/ave_pool <- inception_4d/output_inception_4d/output_0_split_0
I0403 15:53:21.774673 11663 net.cpp:399] loss2/ave_pool -> loss2/ave_pool
I0403 15:53:21.774996 11663 net.cpp:141] Setting up loss2/ave_pool
I0403 15:53:21.775027 11663 net.cpp:148] Top shape: 24 528 4 4 (202752)
I0403 15:53:21.775043 11663 net.cpp:156] Memory required for data: 1207729440
I0403 15:53:21.775058 11663 layer_factory.hpp:77] Creating layer loss2/conv
I0403 15:53:21.775080 11663 net.cpp:91] Creating Layer loss2/conv
I0403 15:53:21.775099 11663 net.cpp:425] loss2/conv <- loss2/ave_pool
I0403 15:53:21.775117 11663 net.cpp:399] loss2/conv -> loss2/conv
I0403 15:53:21.777034 11663 net.cpp:141] Setting up loss2/conv
I0403 15:53:21.777063 11663 net.cpp:148] Top shape: 24 128 4 4 (49152)
I0403 15:53:21.777079 11663 net.cpp:156] Memory required for data: 1207926048
I0403 15:53:21.777097 11663 layer_factory.hpp:77] Creating layer loss2/relu_conv
I0403 15:53:21.777118 11663 net.cpp:91] Creating Layer loss2/relu_conv
I0403 15:53:21.777137 11663 net.cpp:425] loss2/relu_conv <- loss2/conv
I0403 15:53:21.777153 11663 net.cpp:386] loss2/relu_conv -> loss2/conv (in-place)
I0403 15:53:21.777439 11663 net.cpp:141] Setting up loss2/relu_conv
I0403 15:53:21.777467 11663 net.cpp:148] Top shape: 24 128 4 4 (49152)
I0403 15:53:21.777482 11663 net.cpp:156] Memory required for data: 1208122656
I0403 15:53:21.777497 11663 layer_factory.hpp:77] Creating layer loss2/fc
I0403 15:53:21.777516 11663 net.cpp:91] Creating Layer loss2/fc
I0403 15:53:21.777534 11663 net.cpp:425] loss2/fc <- loss2/conv
I0403 15:53:21.777554 11663 net.cpp:399] loss2/fc -> loss2/fc
I0403 15:53:21.795186 11663 net.cpp:141] Setting up loss2/fc
I0403 15:53:21.795218 11663 net.cpp:148] Top shape: 24 1024 (24576)
I0403 15:53:21.795233 11663 net.cpp:156] Memory required for data: 1208220960
I0403 15:53:21.795251 11663 layer_factory.hpp:77] Creating layer loss2/relu_fc
I0403 15:53:21.795269 11663 net.cpp:91] Creating Layer loss2/relu_fc
I0403 15:53:21.795284 11663 net.cpp:425] loss2/relu_fc <- loss2/fc
I0403 15:53:21.795306 11663 net.cpp:386] loss2/relu_fc -> loss2/fc (in-place)
I0403 15:53:21.795598 11663 net.cpp:141] Setting up loss2/relu_fc
I0403 15:53:21.795624 11663 net.cpp:148] Top shape: 24 1024 (24576)
I0403 15:53:21.795637 11663 net.cpp:156] Memory required for data: 1208319264
I0403 15:53:21.795651 11663 layer_factory.hpp:77] Creating layer loss2/drop_fc
I0403 15:53:21.795668 11663 net.cpp:91] Creating Layer loss2/drop_fc
I0403 15:53:21.795683 11663 net.cpp:425] loss2/drop_fc <- loss2/fc
I0403 15:53:21.795702 11663 net.cpp:386] loss2/drop_fc -> loss2/fc (in-place)
I0403 15:53:21.795750 11663 net.cpp:141] Setting up loss2/drop_fc
I0403 15:53:21.795775 11663 net.cpp:148] Top shape: 24 1024 (24576)
I0403 15:53:21.795791 11663 net.cpp:156] Memory required for data: 1208417568
I0403 15:53:21.795805 11663 layer_factory.hpp:77] Creating layer loss2/classifier_plantvillage
I0403 15:53:21.795824 11663 net.cpp:91] Creating Layer loss2/classifier_plantvillage
I0403 15:53:21.795838 11663 net.cpp:425] loss2/classifier_plantvillage <- loss2/fc
I0403 15:53:21.795860 11663 net.cpp:399] loss2/classifier_plantvillage -> loss2/classifier_plantvillage
I0403 15:53:21.796255 11663 net.cpp:141] Setting up loss2/classifier_plantvillage
I0403 15:53:21.796279 11663 net.cpp:148] Top shape: 24 38 (912)
I0403 15:53:21.796311 11663 net.cpp:156] Memory required for data: 1208421216
I0403 15:53:21.796329 11663 layer_factory.hpp:77] Creating layer loss2/classifier_plantvillage_loss2/classifier_plantvillage_0_split
I0403 15:53:21.796350 11663 net.cpp:91] Creating Layer loss2/classifier_plantvillage_loss2/classifier_plantvillage_0_split
I0403 15:53:21.796366 11663 net.cpp:425] loss2/classifier_plantvillage_loss2/classifier_plantvillage_0_split <- loss2/classifier_plantvillage
I0403 15:53:21.796383 11663 net.cpp:399] loss2/classifier_plantvillage_loss2/classifier_plantvillage_0_split -> loss2/classifier_plantvillage_loss2/classifier_plantvillage_0_split_0
I0403 15:53:21.796403 11663 net.cpp:399] loss2/classifier_plantvillage_loss2/classifier_plantvillage_0_split -> loss2/classifier_plantvillage_loss2/classifier_plantvillage_0_split_1
I0403 15:53:21.796422 11663 net.cpp:399] loss2/classifier_plantvillage_loss2/classifier_plantvillage_0_split -> loss2/classifier_plantvillage_loss2/classifier_plantvillage_0_split_2
I0403 15:53:21.796499 11663 net.cpp:141] Setting up loss2/classifier_plantvillage_loss2/classifier_plantvillage_0_split
I0403 15:53:21.796521 11663 net.cpp:148] Top shape: 24 38 (912)
I0403 15:53:21.796537 11663 net.cpp:148] Top shape: 24 38 (912)
I0403 15:53:21.796552 11663 net.cpp:148] Top shape: 24 38 (912)
I0403 15:53:21.796566 11663 net.cpp:156] Memory required for data: 1208432160
I0403 15:53:21.796579 11663 layer_factory.hpp:77] Creating layer inception_4e/1x1
I0403 15:53:21.796600 11663 net.cpp:91] Creating Layer inception_4e/1x1
I0403 15:53:21.796617 11663 net.cpp:425] inception_4e/1x1 <- inception_4d/output_inception_4d/output_0_split_1
I0403 15:53:21.796635 11663 net.cpp:399] inception_4e/1x1 -> inception_4e/1x1
I0403 15:53:21.798434 11663 net.cpp:141] Setting up inception_4e/1x1
I0403 15:53:21.798460 11663 net.cpp:148] Top shape: 24 256 14 14 (1204224)
I0403 15:53:21.798475 11663 net.cpp:156] Memory required for data: 1213249056
I0403 15:53:21.798492 11663 layer_factory.hpp:77] Creating layer inception_4e/relu_1x1
I0403 15:53:21.798512 11663 net.cpp:91] Creating Layer inception_4e/relu_1x1
I0403 15:53:21.798528 11663 net.cpp:425] inception_4e/relu_1x1 <- inception_4e/1x1
I0403 15:53:21.798545 11663 net.cpp:386] inception_4e/relu_1x1 -> inception_4e/1x1 (in-place)
I0403 15:53:21.798831 11663 net.cpp:141] Setting up inception_4e/relu_1x1
I0403 15:53:21.798857 11663 net.cpp:148] Top shape: 24 256 14 14 (1204224)
I0403 15:53:21.798871 11663 net.cpp:156] Memory required for data: 1218065952
I0403 15:53:21.798887 11663 layer_factory.hpp:77] Creating layer inception_4e/3x3_reduce
I0403 15:53:21.798908 11663 net.cpp:91] Creating Layer inception_4e/3x3_reduce
I0403 15:53:21.798925 11663 net.cpp:425] inception_4e/3x3_reduce <- inception_4d/output_inception_4d/output_0_split_2
I0403 15:53:21.798945 11663 net.cpp:399] inception_4e/3x3_reduce -> inception_4e/3x3_reduce
I0403 15:53:21.801039 11663 net.cpp:141] Setting up inception_4e/3x3_reduce
I0403 15:53:21.801066 11663 net.cpp:148] Top shape: 24 160 14 14 (752640)
I0403 15:53:21.801081 11663 net.cpp:156] Memory required for data: 1221076512
I0403 15:53:21.801100 11663 layer_factory.hpp:77] Creating layer inception_4e/relu_3x3_reduce
I0403 15:53:21.801116 11663 net.cpp:91] Creating Layer inception_4e/relu_3x3_reduce
I0403 15:53:21.801132 11663 net.cpp:425] inception_4e/relu_3x3_reduce <- inception_4e/3x3_reduce
I0403 15:53:21.801151 11663 net.cpp:386] inception_4e/relu_3x3_reduce -> inception_4e/3x3_reduce (in-place)
I0403 15:53:21.801332 11663 net.cpp:141] Setting up inception_4e/relu_3x3_reduce
I0403 15:53:21.801357 11663 net.cpp:148] Top shape: 24 160 14 14 (752640)
I0403 15:53:21.801372 11663 net.cpp:156] Memory required for data: 1224087072
I0403 15:53:21.801385 11663 layer_factory.hpp:77] Creating layer inception_4e/3x3
I0403 15:53:21.801408 11663 net.cpp:91] Creating Layer inception_4e/3x3
I0403 15:53:21.801424 11663 net.cpp:425] inception_4e/3x3 <- inception_4e/3x3_reduce
I0403 15:53:21.801445 11663 net.cpp:399] inception_4e/3x3 -> inception_4e/3x3
I0403 15:53:21.806368 11663 net.cpp:141] Setting up inception_4e/3x3
I0403 15:53:21.806408 11663 net.cpp:148] Top shape: 24 320 14 14 (1505280)
I0403 15:53:21.806424 11663 net.cpp:156] Memory required for data: 1230108192
I0403 15:53:21.806443 11663 layer_factory.hpp:77] Creating layer inception_4e/relu_3x3
I0403 15:53:21.806476 11663 net.cpp:91] Creating Layer inception_4e/relu_3x3
I0403 15:53:21.806493 11663 net.cpp:425] inception_4e/relu_3x3 <- inception_4e/3x3
I0403 15:53:21.806509 11663 net.cpp:386] inception_4e/relu_3x3 -> inception_4e/3x3 (in-place)
I0403 15:53:21.806800 11663 net.cpp:141] Setting up inception_4e/relu_3x3
I0403 15:53:21.806828 11663 net.cpp:148] Top shape: 24 320 14 14 (1505280)
I0403 15:53:21.806844 11663 net.cpp:156] Memory required for data: 1236129312
I0403 15:53:21.806859 11663 layer_factory.hpp:77] Creating layer inception_4e/5x5_reduce
I0403 15:53:21.806881 11663 net.cpp:91] Creating Layer inception_4e/5x5_reduce
I0403 15:53:21.806898 11663 net.cpp:425] inception_4e/5x5_reduce <- inception_4d/output_inception_4d/output_0_split_3
I0403 15:53:21.806916 11663 net.cpp:399] inception_4e/5x5_reduce -> inception_4e/5x5_reduce
I0403 15:53:21.807965 11663 net.cpp:141] Setting up inception_4e/5x5_reduce
I0403 15:53:21.807994 11663 net.cpp:148] Top shape: 24 32 14 14 (150528)
I0403 15:53:21.808012 11663 net.cpp:156] Memory required for data: 1236731424
I0403 15:53:21.808029 11663 layer_factory.hpp:77] Creating layer inception_4e/relu_5x5_reduce
I0403 15:53:21.808048 11663 net.cpp:91] Creating Layer inception_4e/relu_5x5_reduce
I0403 15:53:21.808064 11663 net.cpp:425] inception_4e/relu_5x5_reduce <- inception_4e/5x5_reduce
I0403 15:53:21.808081 11663 net.cpp:386] inception_4e/relu_5x5_reduce -> inception_4e/5x5_reduce (in-place)
I0403 15:53:21.808373 11663 net.cpp:141] Setting up inception_4e/relu_5x5_reduce
I0403 15:53:21.808398 11663 net.cpp:148] Top shape: 24 32 14 14 (150528)
I0403 15:53:21.808413 11663 net.cpp:156] Memory required for data: 1237333536
I0403 15:53:21.808428 11663 layer_factory.hpp:77] Creating layer inception_4e/5x5
I0403 15:53:21.808465 11663 net.cpp:91] Creating Layer inception_4e/5x5
I0403 15:53:21.808485 11663 net.cpp:425] inception_4e/5x5 <- inception_4e/5x5_reduce
I0403 15:53:21.808502 11663 net.cpp:399] inception_4e/5x5 -> inception_4e/5x5
I0403 15:53:21.810302 11663 net.cpp:141] Setting up inception_4e/5x5
I0403 15:53:21.810331 11663 net.cpp:148] Top shape: 24 128 14 14 (602112)
I0403 15:53:21.810346 11663 net.cpp:156] Memory required for data: 1239741984
I0403 15:53:21.810365 11663 layer_factory.hpp:77] Creating layer inception_4e/relu_5x5
I0403 15:53:21.810382 11663 net.cpp:91] Creating Layer inception_4e/relu_5x5
I0403 15:53:21.810398 11663 net.cpp:425] inception_4e/relu_5x5 <- inception_4e/5x5
I0403 15:53:21.810417 11663 net.cpp:386] inception_4e/relu_5x5 -> inception_4e/5x5 (in-place)
I0403 15:53:21.810608 11663 net.cpp:141] Setting up inception_4e/relu_5x5
I0403 15:53:21.810632 11663 net.cpp:148] Top shape: 24 128 14 14 (602112)
I0403 15:53:21.810647 11663 net.cpp:156] Memory required for data: 1242150432
I0403 15:53:21.810660 11663 layer_factory.hpp:77] Creating layer inception_4e/pool
I0403 15:53:21.810678 11663 net.cpp:91] Creating Layer inception_4e/pool
I0403 15:53:21.810693 11663 net.cpp:425] inception_4e/pool <- inception_4d/output_inception_4d/output_0_split_4
I0403 15:53:21.810714 11663 net.cpp:399] inception_4e/pool -> inception_4e/pool
I0403 15:53:21.810783 11663 net.cpp:141] Setting up inception_4e/pool
I0403 15:53:21.810806 11663 net.cpp:148] Top shape: 24 528 14 14 (2483712)
I0403 15:53:21.810820 11663 net.cpp:156] Memory required for data: 1252085280
I0403 15:53:21.810833 11663 layer_factory.hpp:77] Creating layer inception_4e/pool_proj
I0403 15:53:21.810854 11663 net.cpp:91] Creating Layer inception_4e/pool_proj
I0403 15:53:21.810871 11663 net.cpp:425] inception_4e/pool_proj <- inception_4e/pool
I0403 15:53:21.810891 11663 net.cpp:399] inception_4e/pool_proj -> inception_4e/pool_proj
I0403 15:53:21.812372 11663 net.cpp:141] Setting up inception_4e/pool_proj
I0403 15:53:21.812413 11663 net.cpp:148] Top shape: 24 128 14 14 (602112)
I0403 15:53:21.812430 11663 net.cpp:156] Memory required for data: 1254493728
I0403 15:53:21.812448 11663 layer_factory.hpp:77] Creating layer inception_4e/relu_pool_proj
I0403 15:53:21.812479 11663 net.cpp:91] Creating Layer inception_4e/relu_pool_proj
I0403 15:53:21.812494 11663 net.cpp:425] inception_4e/relu_pool_proj <- inception_4e/pool_proj
I0403 15:53:21.812511 11663 net.cpp:386] inception_4e/relu_pool_proj -> inception_4e/pool_proj (in-place)
I0403 15:53:21.812799 11663 net.cpp:141] Setting up inception_4e/relu_pool_proj
I0403 15:53:21.812826 11663 net.cpp:148] Top shape: 24 128 14 14 (602112)
I0403 15:53:21.812842 11663 net.cpp:156] Memory required for data: 1256902176
I0403 15:53:21.812857 11663 layer_factory.hpp:77] Creating layer inception_4e/output
I0403 15:53:21.812873 11663 net.cpp:91] Creating Layer inception_4e/output
I0403 15:53:21.812888 11663 net.cpp:425] inception_4e/output <- inception_4e/1x1
I0403 15:53:21.812903 11663 net.cpp:425] inception_4e/output <- inception_4e/3x3
I0403 15:53:21.812919 11663 net.cpp:425] inception_4e/output <- inception_4e/5x5
I0403 15:53:21.812935 11663 net.cpp:425] inception_4e/output <- inception_4e/pool_proj
I0403 15:53:21.812953 11663 net.cpp:399] inception_4e/output -> inception_4e/output
I0403 15:53:21.813004 11663 net.cpp:141] Setting up inception_4e/output
I0403 15:53:21.813027 11663 net.cpp:148] Top shape: 24 832 14 14 (3913728)
I0403 15:53:21.813042 11663 net.cpp:156] Memory required for data: 1272557088
I0403 15:53:21.813056 11663 layer_factory.hpp:77] Creating layer pool4/3x3_s2
I0403 15:53:21.813076 11663 net.cpp:91] Creating Layer pool4/3x3_s2
I0403 15:53:21.813091 11663 net.cpp:425] pool4/3x3_s2 <- inception_4e/output
I0403 15:53:21.813109 11663 net.cpp:399] pool4/3x3_s2 -> pool4/3x3_s2
I0403 15:53:21.813175 11663 net.cpp:141] Setting up pool4/3x3_s2
I0403 15:53:21.813199 11663 net.cpp:148] Top shape: 24 832 7 7 (978432)
I0403 15:53:21.813212 11663 net.cpp:156] Memory required for data: 1276470816
I0403 15:53:21.813226 11663 layer_factory.hpp:77] Creating layer pool4/3x3_s2_pool4/3x3_s2_0_split
I0403 15:53:21.813242 11663 net.cpp:91] Creating Layer pool4/3x3_s2_pool4/3x3_s2_0_split
I0403 15:53:21.813257 11663 net.cpp:425] pool4/3x3_s2_pool4/3x3_s2_0_split <- pool4/3x3_s2
I0403 15:53:21.813277 11663 net.cpp:399] pool4/3x3_s2_pool4/3x3_s2_0_split -> pool4/3x3_s2_pool4/3x3_s2_0_split_0
I0403 15:53:21.813297 11663 net.cpp:399] pool4/3x3_s2_pool4/3x3_s2_0_split -> pool4/3x3_s2_pool4/3x3_s2_0_split_1
I0403 15:53:21.813316 11663 net.cpp:399] pool4/3x3_s2_pool4/3x3_s2_0_split -> pool4/3x3_s2_pool4/3x3_s2_0_split_2
I0403 15:53:21.813335 11663 net.cpp:399] pool4/3x3_s2_pool4/3x3_s2_0_split -> pool4/3x3_s2_pool4/3x3_s2_0_split_3
I0403 15:53:21.813423 11663 net.cpp:141] Setting up pool4/3x3_s2_pool4/3x3_s2_0_split
I0403 15:53:21.813446 11663 net.cpp:148] Top shape: 24 832 7 7 (978432)
I0403 15:53:21.813462 11663 net.cpp:148] Top shape: 24 832 7 7 (978432)
I0403 15:53:21.813477 11663 net.cpp:148] Top shape: 24 832 7 7 (978432)
I0403 15:53:21.813491 11663 net.cpp:148] Top shape: 24 832 7 7 (978432)
I0403 15:53:21.813504 11663 net.cpp:156] Memory required for data: 1292125728
I0403 15:53:21.813519 11663 layer_factory.hpp:77] Creating layer inception_5a/1x1
I0403 15:53:21.813540 11663 net.cpp:91] Creating Layer inception_5a/1x1
I0403 15:53:21.813557 11663 net.cpp:425] inception_5a/1x1 <- pool4/3x3_s2_pool4/3x3_s2_0_split_0
I0403 15:53:21.813578 11663 net.cpp:399] inception_5a/1x1 -> inception_5a/1x1
I0403 15:53:21.816414 11663 net.cpp:141] Setting up inception_5a/1x1
I0403 15:53:21.816443 11663 net.cpp:148] Top shape: 24 256 7 7 (301056)
I0403 15:53:21.816457 11663 net.cpp:156] Memory required for data: 1293329952
I0403 15:53:21.816475 11663 layer_factory.hpp:77] Creating layer inception_5a/relu_1x1
I0403 15:53:21.816493 11663 net.cpp:91] Creating Layer inception_5a/relu_1x1
I0403 15:53:21.816509 11663 net.cpp:425] inception_5a/relu_1x1 <- inception_5a/1x1
I0403 15:53:21.816527 11663 net.cpp:386] inception_5a/relu_1x1 -> inception_5a/1x1 (in-place)
I0403 15:53:21.816831 11663 net.cpp:141] Setting up inception_5a/relu_1x1
I0403 15:53:21.816857 11663 net.cpp:148] Top shape: 24 256 7 7 (301056)
I0403 15:53:21.816871 11663 net.cpp:156] Memory required for data: 1294534176
I0403 15:53:21.816886 11663 layer_factory.hpp:77] Creating layer inception_5a/3x3_reduce
I0403 15:53:21.816911 11663 net.cpp:91] Creating Layer inception_5a/3x3_reduce
I0403 15:53:21.816928 11663 net.cpp:425] inception_5a/3x3_reduce <- pool4/3x3_s2_pool4/3x3_s2_0_split_1
I0403 15:53:21.816948 11663 net.cpp:399] inception_5a/3x3_reduce -> inception_5a/3x3_reduce
I0403 15:53:21.819389 11663 net.cpp:141] Setting up inception_5a/3x3_reduce
I0403 15:53:21.819417 11663 net.cpp:148] Top shape: 24 160 7 7 (188160)
I0403 15:53:21.819432 11663 net.cpp:156] Memory required for data: 1295286816
I0403 15:53:21.819453 11663 layer_factory.hpp:77] Creating layer inception_5a/relu_3x3_reduce
I0403 15:53:21.819471 11663 net.cpp:91] Creating Layer inception_5a/relu_3x3_reduce
I0403 15:53:21.819488 11663 net.cpp:425] inception_5a/relu_3x3_reduce <- inception_5a/3x3_reduce
I0403 15:53:21.819504 11663 net.cpp:386] inception_5a/relu_3x3_reduce -> inception_5a/3x3_reduce (in-place)
I0403 15:53:21.819689 11663 net.cpp:141] Setting up inception_5a/relu_3x3_reduce
I0403 15:53:21.819713 11663 net.cpp:148] Top shape: 24 160 7 7 (188160)
I0403 15:53:21.819727 11663 net.cpp:156] Memory required for data: 1296039456
I0403 15:53:21.819742 11663 layer_factory.hpp:77] Creating layer inception_5a/3x3
I0403 15:53:21.819764 11663 net.cpp:91] Creating Layer inception_5a/3x3
I0403 15:53:21.819782 11663 net.cpp:425] inception_5a/3x3 <- inception_5a/3x3_reduce
I0403 15:53:21.819802 11663 net.cpp:399] inception_5a/3x3 -> inception_5a/3x3
I0403 15:53:21.824759 11663 net.cpp:141] Setting up inception_5a/3x3
I0403 15:53:21.824786 11663 net.cpp:148] Top shape: 24 320 7 7 (376320)
I0403 15:53:21.824801 11663 net.cpp:156] Memory required for data: 1297544736
I0403 15:53:21.824820 11663 layer_factory.hpp:77] Creating layer inception_5a/relu_3x3
I0403 15:53:21.824836 11663 net.cpp:91] Creating Layer inception_5a/relu_3x3
I0403 15:53:21.824852 11663 net.cpp:425] inception_5a/relu_3x3 <- inception_5a/3x3
I0403 15:53:21.824872 11663 net.cpp:386] inception_5a/relu_3x3 -> inception_5a/3x3 (in-place)
I0403 15:53:21.825161 11663 net.cpp:141] Setting up inception_5a/relu_3x3
I0403 15:53:21.825186 11663 net.cpp:148] Top shape: 24 320 7 7 (376320)
I0403 15:53:21.825201 11663 net.cpp:156] Memory required for data: 1299050016
I0403 15:53:21.825215 11663 layer_factory.hpp:77] Creating layer inception_5a/5x5_reduce
I0403 15:53:21.825238 11663 net.cpp:91] Creating Layer inception_5a/5x5_reduce
I0403 15:53:21.825255 11663 net.cpp:425] inception_5a/5x5_reduce <- pool4/3x3_s2_pool4/3x3_s2_0_split_2
I0403 15:53:21.825276 11663 net.cpp:399] inception_5a/5x5_reduce -> inception_5a/5x5_reduce
I0403 15:53:21.826421 11663 net.cpp:141] Setting up inception_5a/5x5_reduce
I0403 15:53:21.826448 11663 net.cpp:148] Top shape: 24 32 7 7 (37632)
I0403 15:53:21.826463 11663 net.cpp:156] Memory required for data: 1299200544
I0403 15:53:21.826481 11663 layer_factory.hpp:77] Creating layer inception_5a/relu_5x5_reduce
I0403 15:53:21.826500 11663 net.cpp:91] Creating Layer inception_5a/relu_5x5_reduce
I0403 15:53:21.826517 11663 net.cpp:425] inception_5a/relu_5x5_reduce <- inception_5a/5x5_reduce
I0403 15:53:21.826534 11663 net.cpp:386] inception_5a/relu_5x5_reduce -> inception_5a/5x5_reduce (in-place)
I0403 15:53:21.826982 11663 net.cpp:141] Setting up inception_5a/relu_5x5_reduce
I0403 15:53:21.827008 11663 net.cpp:148] Top shape: 24 32 7 7 (37632)
I0403 15:53:21.827023 11663 net.cpp:156] Memory required for data: 1299351072
I0403 15:53:21.827038 11663 layer_factory.hpp:77] Creating layer inception_5a/5x5
I0403 15:53:21.827059 11663 net.cpp:91] Creating Layer inception_5a/5x5
I0403 15:53:21.827077 11663 net.cpp:425] inception_5a/5x5 <- inception_5a/5x5_reduce
I0403 15:53:21.827098 11663 net.cpp:399] inception_5a/5x5 -> inception_5a/5x5
I0403 15:53:21.828783 11663 net.cpp:141] Setting up inception_5a/5x5
I0403 15:53:21.828821 11663 net.cpp:148] Top shape: 24 128 7 7 (150528)
I0403 15:53:21.828837 11663 net.cpp:156] Memory required for data: 1299953184
I0403 15:53:21.828855 11663 layer_factory.hpp:77] Creating layer inception_5a/relu_5x5
I0403 15:53:21.828872 11663 net.cpp:91] Creating Layer inception_5a/relu_5x5
I0403 15:53:21.828888 11663 net.cpp:425] inception_5a/relu_5x5 <- inception_5a/5x5
I0403 15:53:21.828907 11663 net.cpp:386] inception_5a/relu_5x5 -> inception_5a/5x5 (in-place)
I0403 15:53:21.829104 11663 net.cpp:141] Setting up inception_5a/relu_5x5
I0403 15:53:21.829128 11663 net.cpp:148] Top shape: 24 128 7 7 (150528)
I0403 15:53:21.829143 11663 net.cpp:156] Memory required for data: 1300555296
I0403 15:53:21.829156 11663 layer_factory.hpp:77] Creating layer inception_5a/pool
I0403 15:53:21.829175 11663 net.cpp:91] Creating Layer inception_5a/pool
I0403 15:53:21.829192 11663 net.cpp:425] inception_5a/pool <- pool4/3x3_s2_pool4/3x3_s2_0_split_3
I0403 15:53:21.829211 11663 net.cpp:399] inception_5a/pool -> inception_5a/pool
I0403 15:53:21.829283 11663 net.cpp:141] Setting up inception_5a/pool
I0403 15:53:21.829308 11663 net.cpp:148] Top shape: 24 832 7 7 (978432)
I0403 15:53:21.829321 11663 net.cpp:156] Memory required for data: 1304469024
I0403 15:53:21.829336 11663 layer_factory.hpp:77] Creating layer inception_5a/pool_proj
I0403 15:53:21.829357 11663 net.cpp:91] Creating Layer inception_5a/pool_proj
I0403 15:53:21.829375 11663 net.cpp:425] inception_5a/pool_proj <- inception_5a/pool
I0403 15:53:21.829394 11663 net.cpp:399] inception_5a/pool_proj -> inception_5a/pool_proj
I0403 15:53:21.831722 11663 net.cpp:141] Setting up inception_5a/pool_proj
I0403 15:53:21.831753 11663 net.cpp:148] Top shape: 24 128 7 7 (150528)
I0403 15:53:21.831769 11663 net.cpp:156] Memory required for data: 1305071136
I0403 15:53:21.831789 11663 layer_factory.hpp:77] Creating layer inception_5a/relu_pool_proj
I0403 15:53:21.831805 11663 net.cpp:91] Creating Layer inception_5a/relu_pool_proj
I0403 15:53:21.831822 11663 net.cpp:425] inception_5a/relu_pool_proj <- inception_5a/pool_proj
I0403 15:53:21.831842 11663 net.cpp:386] inception_5a/relu_pool_proj -> inception_5a/pool_proj (in-place)
I0403 15:53:21.832141 11663 net.cpp:141] Setting up inception_5a/relu_pool_proj
I0403 15:53:21.832170 11663 net.cpp:148] Top shape: 24 128 7 7 (150528)
I0403 15:53:21.832185 11663 net.cpp:156] Memory required for data: 1305673248
I0403 15:53:21.832201 11663 layer_factory.hpp:77] Creating layer inception_5a/output
I0403 15:53:21.832218 11663 net.cpp:91] Creating Layer inception_5a/output
I0403 15:53:21.832234 11663 net.cpp:425] inception_5a/output <- inception_5a/1x1
I0403 15:53:21.832252 11663 net.cpp:425] inception_5a/output <- inception_5a/3x3
I0403 15:53:21.832267 11663 net.cpp:425] inception_5a/output <- inception_5a/5x5
I0403 15:53:21.832284 11663 net.cpp:425] inception_5a/output <- inception_5a/pool_proj
I0403 15:53:21.832301 11663 net.cpp:399] inception_5a/output -> inception_5a/output
I0403 15:53:21.832352 11663 net.cpp:141] Setting up inception_5a/output
I0403 15:53:21.832376 11663 net.cpp:148] Top shape: 24 832 7 7 (978432)
I0403 15:53:21.832391 11663 net.cpp:156] Memory required for data: 1309586976
I0403 15:53:21.832406 11663 layer_factory.hpp:77] Creating layer inception_5a/output_inception_5a/output_0_split
I0403 15:53:21.832424 11663 net.cpp:91] Creating Layer inception_5a/output_inception_5a/output_0_split
I0403 15:53:21.832442 11663 net.cpp:425] inception_5a/output_inception_5a/output_0_split <- inception_5a/output
I0403 15:53:21.832459 11663 net.cpp:399] inception_5a/output_inception_5a/output_0_split -> inception_5a/output_inception_5a/output_0_split_0
I0403 15:53:21.832479 11663 net.cpp:399] inception_5a/output_inception_5a/output_0_split -> inception_5a/output_inception_5a/output_0_split_1
I0403 15:53:21.832499 11663 net.cpp:399] inception_5a/output_inception_5a/output_0_split -> inception_5a/output_inception_5a/output_0_split_2
I0403 15:53:21.832521 11663 net.cpp:399] inception_5a/output_inception_5a/output_0_split -> inception_5a/output_inception_5a/output_0_split_3
I0403 15:53:21.832636 11663 net.cpp:141] Setting up inception_5a/output_inception_5a/output_0_split
I0403 15:53:21.832660 11663 net.cpp:148] Top shape: 24 832 7 7 (978432)
I0403 15:53:21.832676 11663 net.cpp:148] Top shape: 24 832 7 7 (978432)
I0403 15:53:21.832691 11663 net.cpp:148] Top shape: 24 832 7 7 (978432)
I0403 15:53:21.832707 11663 net.cpp:148] Top shape: 24 832 7 7 (978432)
I0403 15:53:21.832720 11663 net.cpp:156] Memory required for data: 1325241888
I0403 15:53:21.832736 11663 layer_factory.hpp:77] Creating layer inception_5b/1x1
I0403 15:53:21.832757 11663 net.cpp:91] Creating Layer inception_5b/1x1
I0403 15:53:21.832774 11663 net.cpp:425] inception_5b/1x1 <- inception_5a/output_inception_5a/output_0_split_0
I0403 15:53:21.832795 11663 net.cpp:399] inception_5b/1x1 -> inception_5b/1x1
I0403 15:53:21.836628 11663 net.cpp:141] Setting up inception_5b/1x1
I0403 15:53:21.836659 11663 net.cpp:148] Top shape: 24 384 7 7 (451584)
I0403 15:53:21.836676 11663 net.cpp:156] Memory required for data: 1327048224
I0403 15:53:21.836695 11663 layer_factory.hpp:77] Creating layer inception_5b/relu_1x1
I0403 15:53:21.836714 11663 net.cpp:91] Creating Layer inception_5b/relu_1x1
I0403 15:53:21.836730 11663 net.cpp:425] inception_5b/relu_1x1 <- inception_5b/1x1
I0403 15:53:21.836750 11663 net.cpp:386] inception_5b/relu_1x1 -> inception_5b/1x1 (in-place)
I0403 15:53:21.837061 11663 net.cpp:141] Setting up inception_5b/relu_1x1
I0403 15:53:21.837090 11663 net.cpp:148] Top shape: 24 384 7 7 (451584)
I0403 15:53:21.837106 11663 net.cpp:156] Memory required for data: 1328854560
I0403 15:53:21.837121 11663 layer_factory.hpp:77] Creating layer inception_5b/3x3_reduce
I0403 15:53:21.837144 11663 net.cpp:91] Creating Layer inception_5b/3x3_reduce
I0403 15:53:21.837162 11663 net.cpp:425] inception_5b/3x3_reduce <- inception_5a/output_inception_5a/output_0_split_1
I0403 15:53:21.837180 11663 net.cpp:399] inception_5b/3x3_reduce -> inception_5b/3x3_reduce
I0403 15:53:21.839872 11663 net.cpp:141] Setting up inception_5b/3x3_reduce
I0403 15:53:21.839903 11663 net.cpp:148] Top shape: 24 192 7 7 (225792)
I0403 15:53:21.839920 11663 net.cpp:156] Memory required for data: 1329757728
I0403 15:53:21.839939 11663 layer_factory.hpp:77] Creating layer inception_5b/relu_3x3_reduce
I0403 15:53:21.839956 11663 net.cpp:91] Creating Layer inception_5b/relu_3x3_reduce
I0403 15:53:21.839973 11663 net.cpp:425] inception_5b/relu_3x3_reduce <- inception_5b/3x3_reduce
I0403 15:53:21.839995 11663 net.cpp:386] inception_5b/relu_3x3_reduce -> inception_5b/3x3_reduce (in-place)
I0403 15:53:21.840189 11663 net.cpp:141] Setting up inception_5b/relu_3x3_reduce
I0403 15:53:21.840214 11663 net.cpp:148] Top shape: 24 192 7 7 (225792)
I0403 15:53:21.840229 11663 net.cpp:156] Memory required for data: 1330660896
I0403 15:53:21.840245 11663 layer_factory.hpp:77] Creating layer inception_5b/3x3
I0403 15:53:21.840266 11663 net.cpp:91] Creating Layer inception_5b/3x3
I0403 15:53:21.840283 11663 net.cpp:425] inception_5b/3x3 <- inception_5b/3x3_reduce
I0403 15:53:21.840306 11663 net.cpp:399] inception_5b/3x3 -> inception_5b/3x3
I0403 15:53:21.847074 11663 net.cpp:141] Setting up inception_5b/3x3
I0403 15:53:21.847105 11663 net.cpp:148] Top shape: 24 384 7 7 (451584)
I0403 15:53:21.847121 11663 net.cpp:156] Memory required for data: 1332467232
I0403 15:53:21.847139 11663 layer_factory.hpp:77] Creating layer inception_5b/relu_3x3
I0403 15:53:21.847157 11663 net.cpp:91] Creating Layer inception_5b/relu_3x3
I0403 15:53:21.847185 11663 net.cpp:425] inception_5b/relu_3x3 <- inception_5b/3x3
I0403 15:53:21.847208 11663 net.cpp:386] inception_5b/relu_3x3 -> inception_5b/3x3 (in-place)
I0403 15:53:21.847527 11663 net.cpp:141] Setting up inception_5b/relu_3x3
I0403 15:53:21.847555 11663 net.cpp:148] Top shape: 24 384 7 7 (451584)
I0403 15:53:21.847570 11663 net.cpp:156] Memory required for data: 1334273568
I0403 15:53:21.847585 11663 layer_factory.hpp:77] Creating layer inception_5b/5x5_reduce
I0403 15:53:21.847622 11663 net.cpp:91] Creating Layer inception_5b/5x5_reduce
I0403 15:53:21.847641 11663 net.cpp:425] inception_5b/5x5_reduce <- inception_5a/output_inception_5a/output_0_split_2
I0403 15:53:21.847663 11663 net.cpp:399] inception_5b/5x5_reduce -> inception_5b/5x5_reduce
I0403 15:53:21.848954 11663 net.cpp:141] Setting up inception_5b/5x5_reduce
I0403 15:53:21.848992 11663 net.cpp:148] Top shape: 24 48 7 7 (56448)
I0403 15:53:21.849010 11663 net.cpp:156] Memory required for data: 1334499360
I0403 15:53:21.849028 11663 layer_factory.hpp:77] Creating layer inception_5b/relu_5x5_reduce
I0403 15:53:21.849046 11663 net.cpp:91] Creating Layer inception_5b/relu_5x5_reduce
I0403 15:53:21.849062 11663 net.cpp:425] inception_5b/relu_5x5_reduce <- inception_5b/5x5_reduce
I0403 15:53:21.849081 11663 net.cpp:386] inception_5b/relu_5x5_reduce -> inception_5b/5x5_reduce (in-place)
I0403 15:53:21.849455 11663 net.cpp:141] Setting up inception_5b/relu_5x5_reduce
I0403 15:53:21.849481 11663 net.cpp:148] Top shape: 24 48 7 7 (56448)
I0403 15:53:21.849496 11663 net.cpp:156] Memory required for data: 1334725152
I0403 15:53:21.849510 11663 layer_factory.hpp:77] Creating layer inception_5b/5x5
I0403 15:53:21.849531 11663 net.cpp:91] Creating Layer inception_5b/5x5
I0403 15:53:21.849547 11663 net.cpp:425] inception_5b/5x5 <- inception_5b/5x5_reduce
I0403 15:53:21.849565 11663 net.cpp:399] inception_5b/5x5 -> inception_5b/5x5
I0403 15:53:21.851580 11663 net.cpp:141] Setting up inception_5b/5x5
I0403 15:53:21.851608 11663 net.cpp:148] Top shape: 24 128 7 7 (150528)
I0403 15:53:21.851622 11663 net.cpp:156] Memory required for data: 1335327264
I0403 15:53:21.851640 11663 layer_factory.hpp:77] Creating layer inception_5b/relu_5x5
I0403 15:53:21.851658 11663 net.cpp:91] Creating Layer inception_5b/relu_5x5
I0403 15:53:21.851673 11663 net.cpp:425] inception_5b/relu_5x5 <- inception_5b/5x5
I0403 15:53:21.851692 11663 net.cpp:386] inception_5b/relu_5x5 -> inception_5b/5x5 (in-place)
I0403 15:53:21.851882 11663 net.cpp:141] Setting up inception_5b/relu_5x5
I0403 15:53:21.851907 11663 net.cpp:148] Top shape: 24 128 7 7 (150528)
I0403 15:53:21.851922 11663 net.cpp:156] Memory required for data: 1335929376
I0403 15:53:21.851935 11663 layer_factory.hpp:77] Creating layer inception_5b/pool
I0403 15:53:21.851954 11663 net.cpp:91] Creating Layer inception_5b/pool
I0403 15:53:21.851971 11663 net.cpp:425] inception_5b/pool <- inception_5a/output_inception_5a/output_0_split_3
I0403 15:53:21.851994 11663 net.cpp:399] inception_5b/pool -> inception_5b/pool
I0403 15:53:21.852067 11663 net.cpp:141] Setting up inception_5b/pool
I0403 15:53:21.852090 11663 net.cpp:148] Top shape: 24 832 7 7 (978432)
I0403 15:53:21.852104 11663 net.cpp:156] Memory required for data: 1339843104
I0403 15:53:21.852118 11663 layer_factory.hpp:77] Creating layer inception_5b/pool_proj
I0403 15:53:21.852139 11663 net.cpp:91] Creating Layer inception_5b/pool_proj
I0403 15:53:21.852156 11663 net.cpp:425] inception_5b/pool_proj <- inception_5b/pool
I0403 15:53:21.852177 11663 net.cpp:399] inception_5b/pool_proj -> inception_5b/pool_proj
I0403 15:53:21.854457 11663 net.cpp:141] Setting up inception_5b/pool_proj
I0403 15:53:21.854487 11663 net.cpp:148] Top shape: 24 128 7 7 (150528)
I0403 15:53:21.854504 11663 net.cpp:156] Memory required for data: 1340445216
I0403 15:53:21.854522 11663 layer_factory.hpp:77] Creating layer inception_5b/relu_pool_proj
I0403 15:53:21.854540 11663 net.cpp:91] Creating Layer inception_5b/relu_pool_proj
I0403 15:53:21.854557 11663 net.cpp:425] inception_5b/relu_pool_proj <- inception_5b/pool_proj
I0403 15:53:21.854575 11663 net.cpp:386] inception_5b/relu_pool_proj -> inception_5b/pool_proj (in-place)
I0403 15:53:21.854866 11663 net.cpp:141] Setting up inception_5b/relu_pool_proj
I0403 15:53:21.854894 11663 net.cpp:148] Top shape: 24 128 7 7 (150528)
I0403 15:53:21.854909 11663 net.cpp:156] Memory required for data: 1341047328
I0403 15:53:21.854924 11663 layer_factory.hpp:77] Creating layer inception_5b/output
I0403 15:53:21.854941 11663 net.cpp:91] Creating Layer inception_5b/output
I0403 15:53:21.854970 11663 net.cpp:425] inception_5b/output <- inception_5b/1x1
I0403 15:53:21.854993 11663 net.cpp:425] inception_5b/output <- inception_5b/3x3
I0403 15:53:21.855010 11663 net.cpp:425] inception_5b/output <- inception_5b/5x5
I0403 15:53:21.855026 11663 net.cpp:425] inception_5b/output <- inception_5b/pool_proj
I0403 15:53:21.855044 11663 net.cpp:399] inception_5b/output -> inception_5b/output
I0403 15:53:21.855095 11663 net.cpp:141] Setting up inception_5b/output
I0403 15:53:21.855118 11663 net.cpp:148] Top shape: 24 1024 7 7 (1204224)
I0403 15:53:21.855131 11663 net.cpp:156] Memory required for data: 1345864224
I0403 15:53:21.855146 11663 layer_factory.hpp:77] Creating layer pool5/7x7_s1
I0403 15:53:21.855166 11663 net.cpp:91] Creating Layer pool5/7x7_s1
I0403 15:53:21.855183 11663 net.cpp:425] pool5/7x7_s1 <- inception_5b/output
I0403 15:53:21.855201 11663 net.cpp:399] pool5/7x7_s1 -> pool5/7x7_s1
I0403 15:53:21.855412 11663 net.cpp:141] Setting up pool5/7x7_s1
I0403 15:53:21.855437 11663 net.cpp:148] Top shape: 24 1024 1 1 (24576)
I0403 15:53:21.855451 11663 net.cpp:156] Memory required for data: 1345962528
I0403 15:53:21.855465 11663 layer_factory.hpp:77] Creating layer pool5/drop_7x7_s1
I0403 15:53:21.855482 11663 net.cpp:91] Creating Layer pool5/drop_7x7_s1
I0403 15:53:21.855499 11663 net.cpp:425] pool5/drop_7x7_s1 <- pool5/7x7_s1
I0403 15:53:21.855517 11663 net.cpp:386] pool5/drop_7x7_s1 -> pool5/7x7_s1 (in-place)
I0403 15:53:21.855579 11663 net.cpp:141] Setting up pool5/drop_7x7_s1
I0403 15:53:21.855604 11663 net.cpp:148] Top shape: 24 1024 1 1 (24576)
I0403 15:53:21.855620 11663 net.cpp:156] Memory required for data: 1346060832
I0403 15:53:21.855635 11663 layer_factory.hpp:77] Creating layer loss3/classifier_plantvillage
I0403 15:53:21.855654 11663 net.cpp:91] Creating Layer loss3/classifier_plantvillage
I0403 15:53:21.855669 11663 net.cpp:425] loss3/classifier_plantvillage <- pool5/7x7_s1
I0403 15:53:21.855690 11663 net.cpp:399] loss3/classifier_plantvillage -> loss3/classifier_plantvillage
I0403 15:53:21.856129 11663 net.cpp:141] Setting up loss3/classifier_plantvillage
I0403 15:53:21.856158 11663 net.cpp:148] Top shape: 24 38 (912)
I0403 15:53:21.856173 11663 net.cpp:156] Memory required for data: 1346064480
I0403 15:53:21.856191 11663 layer_factory.hpp:77] Creating layer loss3/classifier_plantvillage_loss3/classifier_plantvillage_0_split
I0403 15:53:21.856210 11663 net.cpp:91] Creating Layer loss3/classifier_plantvillage_loss3/classifier_plantvillage_0_split
I0403 15:53:21.856225 11663 net.cpp:425] loss3/classifier_plantvillage_loss3/classifier_plantvillage_0_split <- loss3/classifier_plantvillage
I0403 15:53:21.856242 11663 net.cpp:399] loss3/classifier_plantvillage_loss3/classifier_plantvillage_0_split -> loss3/classifier_plantvillage_loss3/classifier_plantvillage_0_split_0
I0403 15:53:21.856262 11663 net.cpp:399] loss3/classifier_plantvillage_loss3/classifier_plantvillage_0_split -> loss3/classifier_plantvillage_loss3/classifier_plantvillage_0_split_1
I0403 15:53:21.856281 11663 net.cpp:399] loss3/classifier_plantvillage_loss3/classifier_plantvillage_0_split -> loss3/classifier_plantvillage_loss3/classifier_plantvillage_0_split_2
I0403 15:53:21.856302 11663 net.cpp:399] loss3/classifier_plantvillage_loss3/classifier_plantvillage_0_split -> loss3/classifier_plantvillage_loss3/classifier_plantvillage_0_split_3
I0403 15:53:21.856400 11663 net.cpp:141] Setting up loss3/classifier_plantvillage_loss3/classifier_plantvillage_0_split
I0403 15:53:21.856423 11663 net.cpp:148] Top shape: 24 38 (912)
I0403 15:53:21.856439 11663 net.cpp:148] Top shape: 24 38 (912)
I0403 15:53:21.856454 11663 net.cpp:148] Top shape: 24 38 (912)
I0403 15:53:21.856468 11663 net.cpp:148] Top shape: 24 38 (912)
I0403 15:53:21.856482 11663 net.cpp:156] Memory required for data: 1346079072
I0403 15:53:21.856497 11663 layer_factory.hpp:77] Creating layer loss1/loss
I0403 15:53:21.856516 11663 net.cpp:91] Creating Layer loss1/loss
I0403 15:53:21.856534 11663 net.cpp:425] loss1/loss <- loss1/classifier_plantvillage_loss1/classifier_plantvillage_0_split_0
I0403 15:53:21.856564 11663 net.cpp:425] loss1/loss <- label_data_1_split_0
…
