…
I0403 15:48:59.612449 11408 net.cpp:313] The NetState phase (1) differed from the phase (0) specified by a rule in layer data
I0403 15:48:59.613613 11408 net.cpp:49] Initializing net from parameters: 
state {
  phase: TEST
}
layer {
  name: "data"
  type: "Data"
  top: "data"
  top: "label"
  include {
    phase: TEST
  }
  transform_param {
    mirror: false
    crop_size: 224
    mean_file: "/home/mohanty/data/final_dataset/lmdb/segmented-80-20/mean.binaryproto"
  }
  data_param {
    source: "/home/mohanty/data/final_dataset/lmdb/segmented-80-20/test_db"
    batch_size: 24
    backend: LMDB
  }
}
layer {
  name: "conv1/7x7_s2"
  type: "Convolution"
  bottom: "data"
  top: "conv1/7x7_s2"
  param {
    lr_mult: 1
    decay_mult: 1
  }
  param {
    lr_mult: 2
    decay_mult: 0
  }
  convolution_param {
    num_output: 64
    pad: 3
    kernel_size: 7
    stride: 2
    weight_filler {
      type: "xavier"
      std: 0.1
    }
    bias_filler {
      type: "constant"
      value: 0.2
    }
  }
}
layer {
  name: "conv1/relu_7x7"
  type: "ReLU"
  bottom: "conv1/7x7_s2"
  top: "conv1/7x7_s2"
}
layer {
  name: "pool1/3x3_s2"
  type: "Pooling"
  bottom: "conv1/7x7_s2"
  top: "pool1/3x3_s2"
  pooling_param {
    pool: MAX
    kernel_size: 3
    stride: 2
  }
}
layer {
  name: "pool1/norm1"
  type: "LRN"
  bottom: "pool1/3x3_s2"
  top: "pool1/norm1"
  lrn_param {
    local_size: 5
    alpha: 0.0001
    beta: 0.75
  }
}
layer {
  name: "conv2/3x3_reduce"
  type: "Convolution"
  bottom: "pool1/norm1"
  top: "conv2/3x3_reduce"
  param {
    lr_mult: 1
    decay_mult: 1
  }
  param {
    lr_mult: 2
    decay_mult: 0
  }
  convolution_param {
    num_output: 64
    kernel_size: 1
    weight_filler {
      type: "xavier"
      std: 0.1
    }
    bias_filler {
      type: "constant"
      value: 0.2
    }
  }
}
layer {
  name: "conv2/relu_3x3_reduce"
  type: "ReLU"
  bottom: "conv2/3x3_reduce"
  top: "conv2/3x3_reduce"
}
layer {
  name: "conv2/3x3"
  type: "Convolution"
  bottom: "conv2/3x3_reduce"
  top: "conv2/3x3"
  param {
    lr_mult: 1
    decay_mult: 1
  }
  param {
    lr_mult: 2
    decay_mult: 0
  }
  convolution_param {
    num_output: 192
    pad: 1
    kernel_size: 3
    weight_filler {
      type: "xavier"
      std: 0.03
    }
    bias_filler {
      type: "constant"
      value: 0.2
    }
  }
}
layer {
  name: "conv2/relu_3x3"
  type: "ReLU"
  bottom: "conv2/3x3"
  top: "conv2/3x3"
}
layer {
  name: "conv2/norm2"
  type: "LRN"
  bottom: "conv2/3x3"
  top: "conv2/norm2"
  lrn_param {
    local_size: 5
    alpha: 0.0001
    beta: 0.75
  }
}
layer {
  name: "pool2/3x3_s2"
  type: "Pooling"
  bottom: "conv2/norm2"
  top: "pool2/3x3_s2"
  pooling_param {
    pool: MAX
    kernel_size: 3
    stride: 2
  }
}
layer {
  name: "inception_3a/1x1"
  type: "Convolution"
  bottom: "pool2/3x3_s2"
  top: "inception_3a/1x1"
  param {
    lr_mult: 1
    decay_mult: 1
  }
  param {
    lr_mult: 2
    decay_mult: 0
  }
  convolution_param {
    num_output: 64
    kernel_size: 1
    weight_filler {
      type: "xavier"
      std: 0.03
    }
    bias_filler {
      type: "constant"
      value: 0.2
    }
  }
}
layer {
  name: "inception_3a/relu_1x1"
  type: "ReLU"
  bottom: "inception_3a/1x1"
  top: "inception_3a/1x1"
}
layer {
  name: "inception_3a/3x3_reduce"
  type: "Convolution"
  bottom: "pool2/3x3_s2"
  top: "inception_3a/3x3_reduce"
  param {
    lr_mult: 1
    decay_mult: 1
  }
  param {
    lr_mult: 2
    decay_mult: 0
  }
  convolution_param {
    num_output: 96
    kernel_size: 1
    weight_filler {
      type: "xavier"
      std: 0.09
    }
    bias_filler {
      type: "constant"
      value: 0.2
    }
  }
}
layer {
  name: "inception_3a/relu_3x3_reduce"
  type: "ReLU"
  bottom: "inception_3a/3x3_reduce"
  top: "inception_3a/3x3_reduce"
}
layer {
  name: "inception_3a/3x3"
  type: "Convolution"
  bottom: "inception_3a/3x3_reduce"
  top: "inception_3a/3x3"
  param {
    lr_mult: 1
    decay_mult: 1
  }
  param {
    lr_mult: 2
    decay_mult: 0
  }
  convolution_param {
    num_output: 128
    pad: 1
    kernel_size: 3
    weight_filler {
      type: "xavier"
      std: 0.03
    }
    bias_filler {
      type: "constant"
      value: 0.2
    }
  }
}
layer {
  name: "inception_3a/relu_3x3"
  type: "ReLU"
  bottom: "inception_3a/3x3"
  top: "inception_3a/3x3"
}
layer {
  name: "inception_3a/5x5_reduce"
  type: "Convolution"
  bottom: "pool2/3x3_s2"
  top: "inception_3a/5x5_reduce"
  param {
    lr_mult: 1
    decay_mult: 1
  }
  param {
    lr_mult: 2
    decay_mult: 0
  }
  convolution_param {
    num_output: 16
    kernel_size: 1
    weight_filler {
      type: "xavier"
      std: 0.2
    }
    bias_filler {
      type: "constant"
      value: 0.2
    }
  }
}
layer {
  name: "inception_3a/relu_5x5_reduce"
  type: "ReLU"
  bottom: "inception_3a/5x5_reduce"
  top: "inception_3a/5x5_reduce"
}
layer {
  name: "inception_3a/5x5"
  type: "Convolution"
  bottom: "inception_3a/5x5_reduce"
  top: "inception_3a/5x5"
  param {
    lr_mult: 1
    decay_mult: 1
  }
  param {
    lr_mult: 2
    decay_mult: 0
  }
  convolution_param {
    num_output: 32
    pad: 2
    kernel_size: 5
    weight_filler {
      type: "xavier"
      std: 0.03
    }
    bias_filler {
      type: "constant"
      value: 0.2
    }
  }
}
layer {
  name: "inception_3a/relu_5x5"
  type: "ReLU"
  bottom: "inception_3a/5x5"
  top: "inception_3a/5x5"
}
layer {
  name: "inception_3a/pool"
  type: "Pooling"
  bottom: "pool2/3x3_s2"
  top: "inception_3a/pool"
  pooling_param {
    pool: MAX
    kernel_size: 3
    stride: 1
    pad: 1
  }
}
layer {
  name: "inception_3a/pool_proj"
  type: "Convolution"
  bottom: "inception_3a/pool"
  top: "inception_3a/pool_proj"
  param {
    lr_mult: 1
    decay_mult: 1
  }
  param {
    lr_mult: 2
    decay_mult: 0
  }
  convolution_param {
    num_output: 32
    kernel_size: 1
    weight_filler {
      type: "xavier"
      std: 0.1
    }
    bias_filler {
      type: "constant"
      value: 0.2
    }
  }
}
layer {
  name: "inception_3a/relu_pool_proj"
  type: "ReLU"
  bottom: "inception_3a/pool_proj"
  top: "inception_3a/pool_proj"
}
layer {
  name: "inception_3a/output"
  type: "Concat"
  bottom: "inception_3a/1x1"
  bottom: "inception_3a/3x3"
  bottom: "inception_3a/5x5"
  bottom: "inception_3a/pool_proj"
  top: "inception_3a/output"
}
layer {
  name: "inception_3b/1x1"
  type: "Convolution"
  bottom: "inception_3a/output"
  top: "inception_3b/1x1"
  param {
    lr_mult: 1
    decay_mult: 1
  }
  param {
    lr_mult: 2
    decay_mult: 0
  }
  convolution_param {
    num_output: 128
    kernel_size: 1
    weight_filler {
      type: "xavier"
      std: 0.03
    }
    bias_filler {
      type: "constant"
      value: 0.2
    }
  }
}
layer {
  name: "inception_3b/relu_1x1"
  type: "ReLU"
  bottom: "inception_3b/1x1"
  top: "inception_3b/1x1"
}
layer {
  name: "inception_3b/3x3_reduce"
  type: "Convolution"
  bottom: "inception_3a/output"
  top: "inception_3b/3x3_reduce"
  param {
    lr_mult: 1
    decay_mult: 1
  }
  param {
    lr_mult: 2
    decay_mult: 0
  }
  convolution_param {
    num_output: 128
    kernel_size: 1
    weight_filler {
      type: "xavier"
      std: 0.09
    }
    bias_filler {
      type: "constant"
      value: 0.2
    }
  }
}
layer {
  name: "inception_3b/relu_3x3_reduce"
  type: "ReLU"
  bottom: "inception_3b/3x3_reduce"
  top: "inception_3b/3x3_reduce"
}
layer {
  name: "inception_3b/3x3"
  type: "Convolution"
  bottom: "inception_3b/3x3_reduce"
  top: "inception_3b/3x3"
  param {
    lr_mult: 1
    decay_mult: 1
  }
  param {
    lr_mult: 2
    decay_mult: 0
  }
  convolution_param {
    num_output: 192
    pad: 1
    kernel_size: 3
    weight_filler {
      type: "xavier"
      std: 0.03
    }
    bias_filler {
      type: "constant"
      value: 0.2
    }
  }
}
layer {
  name: "inception_3b/relu_3x3"
  type: "ReLU"
  bottom: "inception_3b/3x3"
  top: "inception_3b/3x3"
}
layer {
  name: "inception_3b/5x5_reduce"
  type: "Convolution"
  bottom: "inception_3a/output"
  top: "inception_3b/5x5_reduce"
  param {
    lr_mult: 1
    decay_mult: 1
  }
  param {
    lr_mult: 2
    decay_mult: 0
  }
  convolution_param {
    num_output: 32
    kernel_size: 1
    weight_filler {
      type: "xavier"
      std: 0.2
    }
    bias_filler {
      type: "constant"
      value: 0.2
    }
  }
}
layer {
  name: "inception_3b/relu_5x5_reduce"
  type: "ReLU"
  bottom: "inception_3b/5x5_reduce"
  top: "inception_3b/5x5_reduce"
}
layer {
  name: "inception_3b/5x5"
  type: "Convolution"
  bottom: "inception_3b/5x5_reduce"
  top: "inception_3b/5x5"
  param {
    lr_mult: 1
    decay_mult: 1
  }
  param {
    lr_mult: 2
    decay_mult: 0
  }
  convolution_param {
    num_output: 96
    pad: 2
    kernel_size: 5
    weight_filler {
      type: "xavier"
      std: 0.03
    }
    bias_filler {
      type: "constant"
      value: 0.2
    }
  }
}
layer {
  name: "inception_3b/relu_5x5"
  type: "ReLU"
  bottom: "inception_3b/5x5"
  top: "inception_3b/5x5"
}
layer {
  name: "inception_3b/pool"
  type: "Pooling"
  bottom: "inception_3a/output"
  top: "inception_3b/pool"
  pooling_param {
    pool: MAX
    kernel_size: 3
    stride: 1
    pad: 1
  }
}
layer {
  name: "inception_3b/pool_proj"
  type: "Convolution"
  bottom: "inception_3b/pool"
  top: "inception_3b/pool_proj"
  param {
    lr_mult: 1
    decay_mult: 1
  }
  param {
    lr_mult: 2
    decay_mult: 0
  }
  convolution_param {
    num_output: 64
    kernel_size: 1
    weight_filler {
      type: "xavier"
      std: 0.1
    }
    bias_filler {
      type: "constant"
      value: 0.2
    }
  }
}
layer {
  name: "inception_3b/relu_pool_proj"
  type: "ReLU"
  bottom: "inception_3b/pool_proj"
  top: "inception_3b/pool_proj"
}
layer {
  name: "inception_3b/output"
  type: "Concat"
  bottom: "inception_3b/1x1"
  bottom: "inception_3b/3x3"
  bottom: "inception_3b/5x5"
  bottom: "inception_3b/pool_proj"
  top: "inception_3b/output"
}
layer {
  name: "pool3/3x3_s2"
  type: "Pooling"
  bottom: "inception_3b/output"
  top: "pool3/3x3_s2"
  pooling_param {
    pool: MAX
    kernel_size: 3
    stride: 2
  }
}
layer {
  name: "inception_4a/1x1"
  type: "Convolution"
  bottom: "pool3/3x3_s2"
  top: "inception_4a/1x1"
  param {
    lr_mult: 1
    decay_mult: 1
  }
  param {
    lr_mult: 2
    decay_mult: 0
  }
  convolution_param {
    num_output: 192
    kernel_size: 1
    weight_filler {
      type: "xavier"
      std: 0.03
    }
    bias_filler {
      type: "constant"
      value: 0.2
    }
  }
}
layer {
  name: "inception_4a/relu_1x1"
  type: "ReLU"
  bottom: "inception_4a/1x1"
  top: "inception_4a/1x1"
}
layer {
  name: "inception_4a/3x3_reduce"
  type: "Convolution"
  bottom: "pool3/3x3_s2"
  top: "inception_4a/3x3_reduce"
  param {
    lr_mult: 1
    decay_mult: 1
  }
  param {
    lr_mult: 2
    decay_mult: 0
  }
  convolution_param {
    num_output: 96
    kernel_size: 1
    weight_filler {
      type: "xavier"
      std: 0.09
    }
    bias_filler {
      type: "constant"
      value: 0.2
    }
  }
}
layer {
  name: "inception_4a/relu_3x3_reduce"
  type: "ReLU"
  bottom: "inception_4a/3x3_reduce"
  top: "inception_4a/3x3_reduce"
}
layer {
  name: "inception_4a/3x3"
  type: "Convolution"
  bottom: "inception_4a/3x3_reduce"
  top: "inception_4a/3x3"
  param {
    lr_mult: 1
    decay_mult: 1
  }
  param {
    lr_mult: 2
    decay_mult: 0
  }
  convolution_param {
    num_output: 208
    pad: 1
    kernel_size: 3
    weight_filler {
      type: "xavier"
      std: 0.03
    }
    bias_filler {
      type: "constant"
      value: 0.2
    }
  }
}
layer {
  name: "inception_4a/relu_3x3"
  type: "ReLU"
  bottom: "inception_4a/3x3"
  top: "inception_4a/3x3"
}
layer {
  name: "inception_4a/5x5_reduce"
  type: "Convolution"
  bottom: "pool3/3x3_s2"
  top: "inception_4a/5x5_reduce"
  param {
    lr_mult: 1
    decay_mult: 1
  }
  param {
    lr_mult: 2
    decay_mult: 0
  }
  convolution_param {
    num_output: 16
    kernel_size: 1
    weight_filler {
      type: "xavier"
      std: 0.2
    }
    bias_filler {
      type: "constant"
      value: 0.2
    }
  }
}
layer {
  name: "inception_4a/relu_5x5_reduce"
  type: "ReLU"
  bottom: "inception_4a/5x5_reduce"
  top: "inception_4a/5x5_reduce"
}
layer {
  name: "inception_4a/5x5"
  type: "Convolution"
  bottom: "inception_4a/5x5_reduce"
  top: "inception_4a/5x5"
  param {
    lr_mult: 1
    decay_mult: 1
  }
  param {
    lr_mult: 2
    decay_mult: 0
  }
  convolution_param {
    num_output: 48
    pad: 2
    kernel_size: 5
    weight_filler {
      type: "xavier"
      std: 0.03
    }
    bias_filler {
      type: "constant"
      value: 0.2
    }
  }
}
layer {
  name: "inception_4a/relu_5x5"
  type: "ReLU"
  bottom: "inception_4a/5x5"
  top: "inception_4a/5x5"
}
layer {
  name: "inception_4a/pool"
  type: "Pooling"
  bottom: "pool3/3x3_s2"
  top: "inception_4a/pool"
  pooling_param {
    pool: MAX
    kernel_size: 3
    stride: 1
    pad: 1
  }
}
layer {
  name: "inception_4a/pool_proj"
  type: "Convolution"
  bottom: "inception_4a/pool"
  top: "inception_4a/pool_proj"
  param {
    lr_mult: 1
    decay_mult: 1
  }
  param {
    lr_mult: 2
    decay_mult: 0
  }
  convolution_param {
    num_output: 64
    kernel_size: 1
    weight_filler {
      type: "xavier"
      std: 0.1
    }
    bias_filler {
      type: "constant"
      value: 0.2
    }
  }
}
layer {
  name: "inception_4a/relu_pool_proj"
  type: "ReLU"
  bottom: "inception_4a/pool_proj"
  top: "inception_4a/pool_proj"
}
layer {
  name: "inception_4a/output"
  type: "Concat"
  bottom: "inception_4a/1x1"
  bottom: "inception_4a/3x3"
  bottom: "inception_4a/5x5"
  bottom: "inception_4a/pool_proj"
  top: "inception_4a/output"
}
layer {
  name: "loss1/ave_pool"
  type: "Pooling"
  bottom: "inception_4a/output"
  top: "loss1/ave_pool"
  pooling_param {
    pool: AVE
    kernel_size: 5
    stride: 3
  }
}
layer {
  name: "loss1/conv"
  type: "Convolution"
  bottom: "loss1/ave_pool"
  top: "loss1/conv"
  param {
    lr_mult: 1
    decay_mult: 1
  }
  param {
    lr_mult: 2
    decay_mult: 0
  }
  convolution_param {
    num_output: 128
    kernel_size: 1
    weight_filler {
      type: "xavier"
      std: 0.08
    }
    bias_filler {
      type: "constant"
      value: 0.2
    }
  }
}
layer {
  name: "loss1/relu_conv"
  type: "ReLU"
  bottom: "loss1/conv"
  top: "loss1/conv"
}
layer {
  name: "loss1/fc"
  type: "InnerProduct"
  bottom: "loss1/conv"
  top: "loss1/fc"
  param {
    lr_mult: 1
    decay_mult: 1
  }
  param {
    lr_mult: 2
    decay_mult: 0
  }
  inner_product_param {
    num_output: 1024
    weight_filler {
      type: "xavier"
      std: 0.02
    }
    bias_filler {
      type: "constant"
      value: 0.2
    }
  }
}
layer {
  name: "loss1/relu_fc"
  type: "ReLU"
  bottom: "loss1/fc"
  top: "loss1/fc"
}
layer {
  name: "loss1/drop_fc"
  type: "Dropout"
  bottom: "loss1/fc"
  top: "loss1/fc"
  dropout_param {
    dropout_ratio: 0.7
  }
}
layer {
  name: "loss1/classifier_plantvillage"
  type: "InnerProduct"
  bottom: "loss1/fc"
  top: "loss1/classifier_plantvillage"
  param {
    lr_mult: 1
    decay_mult: 1
  }
  param {
    lr_mult: 2
    decay_mult: 0
  }
  inner_product_param {
    num_output: 38
    weight_filler {
      type: "xavier"
      std: 0.0009765625
    }
    bias_filler {
      type: "constant"
      value: 0
    }
  }
}
layer {
  name: "inception_4b/1x1"
  type: "Convolution"
  bottom: "inception_4a/output"
  top: "inception_4b/1x1"
  param {
    lr_mult: 1
    decay_mult: 1
  }
  param {
    lr_mult: 2
    decay_mult: 0
  }
  convolution_param {
    num_output: 160
    kernel_size: 1
    weight_filler {
      type: "xavier"
      std: 0.03
    }
    bias_filler {
      type: "constant"
      value: 0.2
    }
  }
}
layer {
  name: "inception_4b/relu_1x1"
  type: "ReLU"
  bottom: "inception_4b/1x1"
  top: "inception_4b/1x1"
}
layer {
  name: "inception_4b/3x3_reduce"
  type: "Convolution"
  bottom: "inception_4a/output"
  top: "inception_4b/3x3_reduce"
  param {
    lr_mult: 1
    decay_mult: 1
  }
  param {
    lr_mult: 2
    decay_mult: 0
  }
  convolution_param {
    num_output: 112
    kernel_size: 1
    weight_filler {
      type: "xavier"
      std: 0.09
    }
    bias_filler {
      type: "constant"
      value: 0.2
    }
  }
}
layer {
  name: "inception_4b/relu_3x3_reduce"
  type: "ReLU"
  bottom: "inception_4b/3x3_reduce"
  top: "inception_4b/3x3_reduce"
}
layer {
  name: "inception_4b/3x3"
  type: "Convolution"
  bottom: "inception_4b/3x3_reduce"
  top: "inception_4b/3x3"
  param {
    lr_mult: 1
    decay_mult: 1
  }
  param {
    lr_mult: 2
    decay_mult: 0
  }
  convolution_param {
    num_output: 224
    pad: 1
    kernel_size: 3
    weight_filler {
      type: "xavier"
      std: 0.03
    }
    bias_filler {
      type: "constant"
      value: 0.2
    }
  }
}
layer {
  name: "inception_4b/relu_3x3"
  type: "ReLU"
  bottom: "inception_4b/3x3"
  top: "inception_4b/3x3"
}
layer {
  name: "inception_4b/5x5_reduce"
  type: "Convolution"
  bottom: "inception_4a/output"
  top: "inception_4b/5x5_reduce"
  param {
    lr_mult: 1
    decay_mult: 1
  }
  param {
    lr_mult: 2
    decay_mult: 0
  }
  convolution_param {
    num_output: 24
    kernel_size: 1
    weight_filler {
      type: "xavier"
      std: 0.2
    }
    bias_filler {
      type: "constant"
      value: 0.2
    }
  }
}
layer {
  name: "inception_4b/relu_5x5_reduce"
  type: "ReLU"
  bottom: "inception_4b/5x5_reduce"
  top: "inception_4b/5x5_reduce"
}
layer {
  name: "inception_4b/5x5"
  type: "Convolution"
  bottom: "inception_4b/5x5_reduce"
  top: "inception_4b/5x5"
  param {
    lr_mult: 1
    decay_mult: 1
  }
  param {
    lr_mult: 2
    decay_mult: 0
  }
  convolution_param {
    num_output: 64
    pad: 2
    kernel_size: 5
    weight_filler {
      type: "xavier"
      std: 0.03
    }
    bias_filler {
      type: "constant"
      value: 0.2
    }
  }
}
layer {
  name: "inception_4b/relu_5x5"
  type: "ReLU"
  bottom: "inception_4b/5x5"
  top: "inception_4b/5x5"
}
layer {
  name: "inception_4b/pool"
  type: "Pooling"
  bottom: "inception_4a/output"
  top: "inception_4b/pool"
  pooling_param {
    pool: MAX
    kernel_size: 3
    stride: 1
    pad: 1
  }
}
layer {
  name: "inception_4b/pool_proj"
  type: "Convolution"
  bottom: "inception_4b/pool"
  top: "inception_4b/pool_proj"
  param {
    lr_mult: 1
    decay_mult: 1
  }
  param {
    lr_mult: 2
    decay_mult: 0
  }
  convolution_param {
    num_output: 64
    kernel_size: 1
    weight_filler {
      type: "xavier"
      std: 0.1
    }
    bias_filler {
      type: "constant"
      value: 0.2
    }
  }
}
layer {
  name: "inception_4b/relu_pool_proj"
  type: "ReLU"
  bottom: "inception_4b/pool_proj"
  top: "inception_4b/pool_proj"
}
layer {
  name: "inception_4b/output"
  type: "Concat"
  bottom: "inception_4b/1x1"
  bottom: "inception_4b/3x3"
  bottom: "inception_4b/5x5"
  bottom: "inception_4b/pool_proj"
  top: "inception_4b/output"
}
layer {
  name: "inception_4c/1x1"
  type: "Convolution"
  bottom: "inception_4b/output"
  top: "inception_4c/1x1"
  param {
    lr_mult: 1
    decay_mult: 1
  }
  param {
    lr_mult: 2
    decay_mult: 0
  }
  convolution_param {
    num_output: 128
    kernel_size: 1
    weight_filler {
      type: "xavier"
      std: 0.03
    }
    bias_filler {
      type: "constant"
      value: 0.2
    }
  }
}
layer {
  name: "inception_4c/relu_1x1"
  type: "ReLU"
  bottom: "inception_4c/1x1"
  top: "inception_4c/1x1"
}
layer {
  name: "inception_4c/3x3_reduce"
  type: "Convolution"
  bottom: "inception_4b/output"
  top: "inception_4c/3x3_reduce"
  param {
    lr_mult: 1
    decay_mult: 1
  }
  param {
    lr_mult: 2
    decay_mult: 0
  }
  convolution_param {
    num_output: 128
    kernel_size: 1
    weight_filler {
      type: "xavier"
      std: 0.09
    }
    bias_filler {
      type: "constant"
      value: 0.2
    }
  }
}
layer {
  name: "inception_4c/relu_3x3_reduce"
  type: "ReLU"
  bottom: "inception_4c/3x3_reduce"
  top: "inception_4c/3x3_reduce"
}
layer {
  name: "inception_4c/3x3"
  type: "Convolution"
  bottom: "inception_4c/3x3_reduce"
  top: "inception_4c/3x3"
  param {
    lr_mult: 1
    decay_mult: 1
  }
  param {
    lr_mult: 2
    decay_mult: 0
  }
  convolution_param {
    num_output: 256
    pad: 1
    kernel_size: 3
    weight_filler {
      type: "xavier"
      std: 0.03
    }
    bias_filler {
      type: "constant"
      value: 0.2
    }
  }
}
layer {
  name: "inception_4c/relu_3x3"
  type: "ReLU"
  bottom: "inception_4c/3x3"
  top: "inception_4c/3x3"
}
layer {
  name: "inception_4c/5x5_reduce"
  type: "Convolution"
  bottom: "inception_4b/output"
  top: "inception_4c/5x5_reduce"
  param {
    lr_mult: 1
    decay_mult: 1
  }
  param {
    lr_mult: 2
    decay_mult: 0
  }
  convolution_param {
    num_output: 24
    kernel_size: 1
    weight_filler {
      type: "xavier"
      std: 0.2
    }
    bias_filler {
      type: "constant"
      value: 0.2
    }
  }
}
layer {
  name: "inception_4c/relu_5x5_reduce"
  type: "ReLU"
  bottom: "inception_4c/5x5_reduce"
  top: "inception_4c/5x5_reduce"
}
layer {
  name: "inception_4c/5x5"
  type: "Convolution"
  bottom: "inception_4c/5x5_reduce"
  top: "inception_4c/5x5"
  param {
    lr_mult: 1
    decay_mult: 1
  }
  param {
    lr_mult: 2
    decay_mult: 0
  }
  convolution_param {
    num_output: 64
    pad: 2
    kernel_size: 5
    weight_filler {
      type: "xavier"
      std: 0.03
    }
    bias_filler {
      type: "constant"
      value: 0.2
    }
  }
}
layer {
  name: "inception_4c/relu_5x5"
  type: "ReLU"
  bottom: "inception_4c/5x5"
  top: "inception_4c/5x5"
}
layer {
  name: "inception_4c/pool"
  type: "Pooling"
  bottom: "inception_4b/output"
  top: "inception_4c/pool"
  pooling_param {
    pool: MAX
    kernel_size: 3
    stride: 1
    pad: 1
  }
}
layer {
  name: "inception_4c/pool_proj"
  type: "Convolution"
  bottom: "inception_4c/pool"
  top: "inception_4c/pool_proj"
  param {
    lr_mult: 1
    decay_mult: 1
  }
  param {
    lr_mult: 2
    decay_mult: 0
  }
  convolution_param {
    num_output: 64
    kernel_size: 1
    weight_filler {
      type: "xavier"
      std: 0.1
    }
    bias_filler {
      type: "constant"
      value: 0.2
    }
  }
}
layer {
  name: "inception_4c/relu_pool_proj"
  type: "ReLU"
  bottom: "inception_4c/pool_proj"
  top: "inception_4c/pool_proj"
}
layer {
  name: "inception_4c/output"
  type: "Concat"
  bottom: "inception_4c/1x1"
  bottom: "inception_4c/3x3"
  bottom: "inception_4c/5x5"
  bottom: "inception_4c/pool_proj"
  top: "inception_4c/output"
}
layer {
  name: "inception_4d/1x1"
  type: "Convolution"
  bottom: "inception_4c/output"
  top: "inception_4d/1x1"
  param {
    lr_mult: 1
    decay_mult: 1
  }
  param {
    lr_mult: 2
    decay_mult: 0
  }
  convolution_param {
    num_output: 112
    kernel_size: 1
    weight_filler {
      type: "xavier"
      std: 0.03
    }
    bias_filler {
      type: "constant"
      value: 0.2
    }
  }
}
layer {
  name: "inception_4d/relu_1x1"
  type: "ReLU"
  bottom: "inception_4d/1x1"
  top: "inception_4d/1x1"
}
layer {
  name: "inception_4d/3x3_reduce"
  type: "Convolution"
  bottom: "inception_4c/output"
  top: "inception_4d/3x3_reduce"
  param {
    lr_mult: 1
    decay_mult: 1
  }
  param {
    lr_mult: 2
    decay_mult: 0
  }
  convolution_param {
    num_output: 144
    kernel_size: 1
    weight_filler {
      type: "xavier"
      std: 0.09
    }
    bias_filler {
      type: "constant"
      value: 0.2
    }
  }
}
layer {
  name: "inception_4d/relu_3x3_reduce"
  type: "ReLU"
  bottom: "inception_4d/3x3_reduce"
  top: "inception_4d/3x3_reduce"
}
layer {
  name: "inception_4d/3x3"
  type: "Convolution"
  bottom: "inception_4d/3x3_reduce"
  top: "inception_4d/3x3"
  param {
    lr_mult: 1
    decay_mult: 1
  }
  param {
    lr_mult: 2
    decay_mult: 0
  }
  convolution_param {
    num_output: 288
    pad: 1
    kernel_size: 3
    weight_filler {
      type: "xavier"
      std: 0.03
    }
    bias_filler {
      type: "constant"
      value: 0.2
    }
  }
}
layer {
  name: "inception_4d/relu_3x3"
  type: "ReLU"
  bottom: "inception_4d/3x3"
  top: "inception_4d/3x3"
}
layer {
  name: "inception_4d/5x5_reduce"
  type: "Convolution"
  bottom: "inception_4c/output"
  top: "inception_4d/5x5_reduce"
  param {
    lr_mult: 1
    decay_mult: 1
  }
  param {
    lr_mult: 2
    decay_mult: 0
  }
  convolution_param {
    num_output: 32
    kernel_size: 1
    weight_filler {
      type: "xavier"
      std: 0.2
    }
    bias_filler {
      type: "constant"
      value: 0.2
    }
  }
}
layer {
  name: "inception_4d/relu_5x5_reduce"
  type: "ReLU"
  bottom: "inception_4d/5x5_reduce"
  top: "inception_4d/5x5_reduce"
}
layer {
  name: "inception_4d/5x5"
  type: "Convolution"
  bottom: "inception_4d/5x5_reduce"
  top: "inception_4d/5x5"
  param {
    lr_mult: 1
    decay_mult: 1
  }
  param {
    lr_mult: 2
    decay_mult: 0
  }
  convolution_param {
    num_output: 64
    pad: 2
    kernel_size: 5
    weight_filler {
      type: "xavier"
      std: 0.03
    }
    bias_filler {
      type: "constant"
      value: 0.2
    }
  }
}
layer {
  name: "inception_4d/relu_5x5"
  type: "ReLU"
  bottom: "inception_4d/5x5"
  top: "inception_4d/5x5"
}
layer {
  name: "inception_4d/pool"
  type: "Pooling"
  bottom: "inception_4c/output"
  top: "inception_4d/pool"
  pooling_param {
    pool: MAX
    kernel_size: 3
    stride: 1
    pad: 1
  }
}
layer {
  name: "inception_4d/pool_proj"
  type: "Convolution"
  bottom: "inception_4d/pool"
  top: "inception_4d/pool_proj"
  param {
    lr_mult: 1
    decay_mult: 1
  }
  param {
    lr_mult: 2
    decay_mult: 0
  }
  convolution_param {
    num_output: 64
    kernel_size: 1
    weight_filler {
      type: "xavier"
      std: 0.1
    }
    bias_filler {
      type: "constant"
      value: 0.2
    }
  }
}
layer {
  name: "inception_4d/relu_pool_proj"
  type: "ReLU"
  bottom: "inception_4d/pool_proj"
  top: "inception_4d/pool_proj"
}
layer {
  name: "inception_4d/output"
  type: "Concat"
  bottom: "inception_4d/1x1"
  bottom: "inception_4d/3x3"
  bottom: "inception_4d/5x5"
  bottom: "inception_4d/pool_proj"
  top: "inception_4d/output"
}
layer {
  name: "loss2/ave_pool"
  type: "Pooling"
  bottom: "inception_4d/output"
  top: "loss2/ave_pool"
  pooling_param {
    pool: AVE
    kernel_size: 5
    stride: 3
  }
}
layer {
  name: "loss2/conv"
  type: "Convolution"
  bottom: "loss2/ave_pool"
  top: "loss2/conv"
  param {
    lr_mult: 1
    decay_mult: 1
  }
  param {
    lr_mult: 2
    decay_mult: 0
  }
  convolution_param {
    num_output: 128
    kernel_size: 1
    weight_filler {
      type: "xavier"
      std: 0.08
    }
    bias_filler {
      type: "constant"
      value: 0.2
    }
  }
}
layer {
  name: "loss2/relu_conv"
  type: "ReLU"
  bottom: "loss2/conv"
  top: "loss2/conv"
}
layer {
  name: "loss2/fc"
  type: "InnerProduct"
  bottom: "loss2/conv"
  top: "loss2/fc"
  param {
    lr_mult: 1
    decay_mult: 1
  }
  param {
    lr_mult: 2
    decay_mult: 0
  }
  inner_product_param {
    num_output: 1024
    weight_filler {
      type: "xavier"
      std: 0.02
    }
    bias_filler {
      type: "constant"
      value: 0.2
    }
  }
}
layer {
  name: "loss2/relu_fc"
  type: "ReLU"
  bottom: "loss2/fc"
  top: "loss2/fc"
}
layer {
  name: "loss2/drop_fc"
  type: "Dropout"
  bottom: "loss2/fc"
  top: "loss2/fc"
  dropout_param {
    dropout_ratio: 0.7
  }
}
layer {
  name: "loss2/classifier_plantvillage"
  type: "InnerProduct"
  bottom: "loss2/fc"
  top: "loss2/classifier_plantvillage"
  param {
    lr_mult: 1
    decay_mult: 1
  }
  param {
    lr_mult: 2
    decay_mult: 0
  }
  inner_product_param {
    num_output: 38
    weight_filler {
      type: "xavier"
      std: 0.0009765625
    }
    bias_filler {
      type: "constant"
      value: 0
    }
  }
}
layer {
  name: "inception_4e/1x1"
  type: "Convolution"
  bottom: "inception_4d/output"
  top: "inception_4e/1x1"
  param {
    lr_mult: 1
    decay_mult: 1
  }
  param {
    lr_mult: 2
    decay_mult: 0
  }
  convolution_param {
    num_output: 256
    kernel_size: 1
    weight_filler {
      type: "xavier"
      std: 0.03
    }
    bias_filler {
      type: "constant"
      value: 0.2
    }
  }
}
layer {
  name: "inception_4e/relu_1x1"
  type: "ReLU"
  bottom: "inception_4e/1x1"
  top: "inception_4e/1x1"
}
layer {
  name: "inception_4e/3x3_reduce"
  type: "Convolution"
  bottom: "inception_4d/output"
  top: "inception_4e/3x3_reduce"
  param {
    lr_mult: 1
    decay_mult: 1
  }
  param {
    lr_mult: 2
    decay_mult: 0
  }
  convolution_param {
    num_output: 160
    kernel_size: 1
    weight_filler {
      type: "xavier"
      std: 0.09
    }
    bias_filler {
      type: "constant"
      value: 0.2
    }
  }
}
layer {
  name: "inception_4e/relu_3x3_reduce"
  type: "ReLU"
  bottom: "inception_4e/3x3_reduce"
  top: "inception_4e/3x3_reduce"
}
layer {
  name: "inception_4e/3x3"
  type: "Convolution"
  bottom: "inception_4e/3x3_reduce"
  top: "inception_4e/3x3"
  param {
    lr_mult: 1
    decay_mult: 1
  }
  param {
    lr_mult: 2
    decay_mult: 0
  }
  convolution_param {
    num_output: 320
    pad: 1
    kernel_size: 3
    weight_filler {
      type: "xavier"
      std: 0.03
    }
    bias_filler {
      type: "constant"
      value: 0.2
    }
  }
}
layer {
  name: "inception_4e/relu_3x3"
  type: "ReLU"
  bottom: "inception_4e/3x3"
  top: "inception_4e/3x3"
}
layer {
  name: "inception_4e/5x5_reduce"
  type: "Convolution"
  bottom: "inception_4d/output"
  top: "inception_4e/5x5_reduce"
  param {
    lr_mult: 1
    decay_mult: 1
  }
  param {
    lr_mult: 2
    decay_mult: 0
  }
  convolution_param {
    num_output: 32
    kernel_size: 1
    weight_filler {
      type: "xavier"
      std: 0.2
    }
    bias_filler {
      type: "constant"
      value: 0.2
    }
  }
}
layer {
  name: "inception_4e/relu_5x5_reduce"
  type: "ReLU"
  bottom: "inception_4e/5x5_reduce"
  top: "inception_4e/5x5_reduce"
}
layer {
  name: "inception_4e/5x5"
  type: "Convolution"
  bottom: "inception_4e/5x5_reduce"
  top: "inception_4e/
I0403 15:48:59.614976 11408 layer_factory.hpp:77] Creating layer data
I0403 15:48:59.615571 11408 net.cpp:91] Creating Layer data
I0403 15:48:59.615604 11408 net.cpp:399] data -> data
I0403 15:48:59.615656 11408 net.cpp:399] data -> label
I0403 15:48:59.615691 11408 data_transformer.cpp:25] Loading mean file from: /home/mohanty/data/final_dataset/lmdb/segmented-80-20/mean.binaryproto
I0403 15:48:59.627390 11410 db_lmdb.cpp:38] Opened lmdb /home/mohanty/data/final_dataset/lmdb/segmented-80-20/test_db
I0403 15:48:59.630192 11408 data_layer.cpp:41] output data size: 24,3,224,224
I0403 15:48:59.658269 11408 net.cpp:141] Setting up data
I0403 15:48:59.658363 11408 net.cpp:148] Top shape: 24 3 224 224 (3612672)
I0403 15:48:59.658387 11408 net.cpp:148] Top shape: 24 (24)
I0403 15:48:59.658403 11408 net.cpp:156] Memory required for data: 14450784
I0403 15:48:59.658432 11408 layer_factory.hpp:77] Creating layer label_data_1_split
I0403 15:48:59.658458 11408 net.cpp:91] Creating Layer label_data_1_split
I0403 15:48:59.658479 11408 net.cpp:425] label_data_1_split <- label
I0403 15:48:59.658511 11408 net.cpp:399] label_data_1_split -> label_data_1_split_0
I0403 15:48:59.658552 11408 net.cpp:399] label_data_1_split -> label_data_1_split_1
I0403 15:48:59.658576 11408 net.cpp:399] label_data_1_split -> label_data_1_split_2
I0403 15:48:59.658601 11408 net.cpp:399] label_data_1_split -> label_data_1_split_3
I0403 15:48:59.658622 11408 net.cpp:399] label_data_1_split -> label_data_1_split_4
I0403 15:48:59.658643 11408 net.cpp:399] label_data_1_split -> label_data_1_split_5
I0403 15:48:59.658664 11408 net.cpp:399] label_data_1_split -> label_data_1_split_6
I0403 15:48:59.658686 11408 net.cpp:399] label_data_1_split -> label_data_1_split_7
I0403 15:48:59.658707 11408 net.cpp:399] label_data_1_split -> label_data_1_split_8
I0403 15:48:59.658728 11408 net.cpp:399] label_data_1_split -> label_data_1_split_9
I0403 15:48:59.658860 11408 net.cpp:141] Setting up label_data_1_split
I0403 15:48:59.658885 11408 net.cpp:148] Top shape: 24 (24)
I0403 15:48:59.658902 11408 net.cpp:148] Top shape: 24 (24)
I0403 15:48:59.658918 11408 net.cpp:148] Top shape: 24 (24)
I0403 15:48:59.658934 11408 net.cpp:148] Top shape: 24 (24)
I0403 15:48:59.658949 11408 net.cpp:148] Top shape: 24 (24)
I0403 15:48:59.658964 11408 net.cpp:148] Top shape: 24 (24)
I0403 15:48:59.658989 11408 net.cpp:148] Top shape: 24 (24)
I0403 15:48:59.659009 11408 net.cpp:148] Top shape: 24 (24)
I0403 15:48:59.659025 11408 net.cpp:148] Top shape: 24 (24)
I0403 15:48:59.659041 11408 net.cpp:148] Top shape: 24 (24)
I0403 15:48:59.659085 11408 net.cpp:156] Memory required for data: 14451744
I0403 15:48:59.659102 11408 layer_factory.hpp:77] Creating layer conv1/7x7_s2
I0403 15:48:59.659135 11408 net.cpp:91] Creating Layer conv1/7x7_s2
I0403 15:48:59.659153 11408 net.cpp:425] conv1/7x7_s2 <- data
I0403 15:48:59.659173 11408 net.cpp:399] conv1/7x7_s2 -> conv1/7x7_s2
I0403 15:48:59.801472 11408 net.cpp:141] Setting up conv1/7x7_s2
I0403 15:48:59.801559 11408 net.cpp:148] Top shape: 24 64 112 112 (19267584)
I0403 15:48:59.801578 11408 net.cpp:156] Memory required for data: 91522080
I0403 15:48:59.801614 11408 layer_factory.hpp:77] Creating layer conv1/relu_7x7
I0403 15:48:59.801641 11408 net.cpp:91] Creating Layer conv1/relu_7x7
I0403 15:48:59.801661 11408 net.cpp:425] conv1/relu_7x7 <- conv1/7x7_s2
I0403 15:48:59.801681 11408 net.cpp:386] conv1/relu_7x7 -> conv1/7x7_s2 (in-place)
I0403 15:48:59.801967 11408 net.cpp:141] Setting up conv1/relu_7x7
I0403 15:48:59.802002 11408 net.cpp:148] Top shape: 24 64 112 112 (19267584)
I0403 15:48:59.802023 11408 net.cpp:156] Memory required for data: 168592416
I0403 15:48:59.802039 11408 layer_factory.hpp:77] Creating layer pool1/3x3_s2
I0403 15:48:59.802070 11408 net.cpp:91] Creating Layer pool1/3x3_s2
I0403 15:48:59.802090 11408 net.cpp:425] pool1/3x3_s2 <- conv1/7x7_s2
I0403 15:48:59.802109 11408 net.cpp:399] pool1/3x3_s2 -> pool1/3x3_s2
I0403 15:48:59.802191 11408 net.cpp:141] Setting up pool1/3x3_s2
I0403 15:48:59.802217 11408 net.cpp:148] Top shape: 24 64 56 56 (4816896)
I0403 15:48:59.802232 11408 net.cpp:156] Memory required for data: 187860000
I0403 15:48:59.802248 11408 layer_factory.hpp:77] Creating layer pool1/norm1
I0403 15:48:59.802274 11408 net.cpp:91] Creating Layer pool1/norm1
I0403 15:48:59.802299 11408 net.cpp:425] pool1/norm1 <- pool1/3x3_s2
I0403 15:48:59.802319 11408 net.cpp:399] pool1/norm1 -> pool1/norm1
I0403 15:48:59.802633 11408 net.cpp:141] Setting up pool1/norm1
I0403 15:48:59.802661 11408 net.cpp:148] Top shape: 24 64 56 56 (4816896)
I0403 15:48:59.802677 11408 net.cpp:156] Memory required for data: 207127584
I0403 15:48:59.802693 11408 layer_factory.hpp:77] Creating layer conv2/3x3_reduce
I0403 15:48:59.802722 11408 net.cpp:91] Creating Layer conv2/3x3_reduce
I0403 15:48:59.802741 11408 net.cpp:425] conv2/3x3_reduce <- pool1/norm1
I0403 15:48:59.802760 11408 net.cpp:399] conv2/3x3_reduce -> conv2/3x3_reduce
I0403 15:48:59.804226 11408 net.cpp:141] Setting up conv2/3x3_reduce
I0403 15:48:59.804256 11408 net.cpp:148] Top shape: 24 64 56 56 (4816896)
I0403 15:48:59.804273 11408 net.cpp:156] Memory required for data: 226395168
I0403 15:48:59.804296 11408 layer_factory.hpp:77] Creating layer conv2/relu_3x3_reduce
I0403 15:48:59.804319 11408 net.cpp:91] Creating Layer conv2/relu_3x3_reduce
I0403 15:48:59.804337 11408 net.cpp:425] conv2/relu_3x3_reduce <- conv2/3x3_reduce
I0403 15:48:59.804355 11408 net.cpp:386] conv2/relu_3x3_reduce -> conv2/3x3_reduce (in-place)
I0403 15:48:59.804630 11408 net.cpp:141] Setting up conv2/relu_3x3_reduce
I0403 15:48:59.804657 11408 net.cpp:148] Top shape: 24 64 56 56 (4816896)
I0403 15:48:59.804673 11408 net.cpp:156] Memory required for data: 245662752
I0403 15:48:59.804689 11408 layer_factory.hpp:77] Creating layer conv2/3x3
I0403 15:48:59.804714 11408 net.cpp:91] Creating Layer conv2/3x3
I0403 15:48:59.804733 11408 net.cpp:425] conv2/3x3 <- conv2/3x3_reduce
I0403 15:48:59.804755 11408 net.cpp:399] conv2/3x3 -> conv2/3x3
I0403 15:48:59.807180 11408 net.cpp:141] Setting up conv2/3x3
I0403 15:48:59.807214 11408 net.cpp:148] Top shape: 24 192 56 56 (14450688)
I0403 15:48:59.807230 11408 net.cpp:156] Memory required for data: 303465504
I0403 15:48:59.807253 11408 layer_factory.hpp:77] Creating layer conv2/relu_3x3
I0403 15:48:59.807276 11408 net.cpp:91] Creating Layer conv2/relu_3x3
I0403 15:48:59.807293 11408 net.cpp:425] conv2/relu_3x3 <- conv2/3x3
I0403 15:48:59.807312 11408 net.cpp:386] conv2/relu_3x3 -> conv2/3x3 (in-place)
I0403 15:48:59.807495 11408 net.cpp:141] Setting up conv2/relu_3x3
I0403 15:48:59.807523 11408 net.cpp:148] Top shape: 24 192 56 56 (14450688)
I0403 15:48:59.807569 11408 net.cpp:156] Memory required for data: 361268256
I0403 15:48:59.807585 11408 layer_factory.hpp:77] Creating layer conv2/norm2
I0403 15:48:59.807606 11408 net.cpp:91] Creating Layer conv2/norm2
I0403 15:48:59.807624 11408 net.cpp:425] conv2/norm2 <- conv2/3x3
I0403 15:48:59.807644 11408 net.cpp:399] conv2/norm2 -> conv2/norm2
I0403 15:48:59.807971 11408 net.cpp:141] Setting up conv2/norm2
I0403 15:48:59.808002 11408 net.cpp:148] Top shape: 24 192 56 56 (14450688)
I0403 15:48:59.808019 11408 net.cpp:156] Memory required for data: 419071008
I0403 15:48:59.808035 11408 layer_factory.hpp:77] Creating layer pool2/3x3_s2
I0403 15:48:59.808053 11408 net.cpp:91] Creating Layer pool2/3x3_s2
I0403 15:48:59.808069 11408 net.cpp:425] pool2/3x3_s2 <- conv2/norm2
I0403 15:48:59.808090 11408 net.cpp:399] pool2/3x3_s2 -> pool2/3x3_s2
I0403 15:48:59.808148 11408 net.cpp:141] Setting up pool2/3x3_s2
I0403 15:48:59.808174 11408 net.cpp:148] Top shape: 24 192 28 28 (3612672)
I0403 15:48:59.808192 11408 net.cpp:156] Memory required for data: 433521696
I0403 15:48:59.808208 11408 layer_factory.hpp:77] Creating layer pool2/3x3_s2_pool2/3x3_s2_0_split
I0403 15:48:59.808228 11408 net.cpp:91] Creating Layer pool2/3x3_s2_pool2/3x3_s2_0_split
I0403 15:48:59.808243 11408 net.cpp:425] pool2/3x3_s2_pool2/3x3_s2_0_split <- pool2/3x3_s2
I0403 15:48:59.808260 11408 net.cpp:399] pool2/3x3_s2_pool2/3x3_s2_0_split -> pool2/3x3_s2_pool2/3x3_s2_0_split_0
I0403 15:48:59.808280 11408 net.cpp:399] pool2/3x3_s2_pool2/3x3_s2_0_split -> pool2/3x3_s2_pool2/3x3_s2_0_split_1
I0403 15:48:59.808303 11408 net.cpp:399] pool2/3x3_s2_pool2/3x3_s2_0_split -> pool2/3x3_s2_pool2/3x3_s2_0_split_2
I0403 15:48:59.808326 11408 net.cpp:399] pool2/3x3_s2_pool2/3x3_s2_0_split -> pool2/3x3_s2_pool2/3x3_s2_0_split_3
I0403 15:48:59.808400 11408 net.cpp:141] Setting up pool2/3x3_s2_pool2/3x3_s2_0_split
I0403 15:48:59.808423 11408 net.cpp:148] Top shape: 24 192 28 28 (3612672)
I0403 15:48:59.808440 11408 net.cpp:148] Top shape: 24 192 28 28 (3612672)
I0403 15:48:59.808456 11408 net.cpp:148] Top shape: 24 192 28 28 (3612672)
I0403 15:48:59.808473 11408 net.cpp:148] Top shape: 24 192 28 28 (3612672)
I0403 15:48:59.808487 11408 net.cpp:156] Memory required for data: 491324448
I0403 15:48:59.808503 11408 layer_factory.hpp:77] Creating layer inception_3a/1x1
I0403 15:48:59.808526 11408 net.cpp:91] Creating Layer inception_3a/1x1
I0403 15:48:59.808543 11408 net.cpp:425] inception_3a/1x1 <- pool2/3x3_s2_pool2/3x3_s2_0_split_0
I0403 15:48:59.808565 11408 net.cpp:399] inception_3a/1x1 -> inception_3a/1x1
I0403 15:48:59.810183 11408 net.cpp:141] Setting up inception_3a/1x1
I0403 15:48:59.810214 11408 net.cpp:148] Top shape: 24 64 28 28 (1204224)
I0403 15:48:59.810231 11408 net.cpp:156] Memory required for data: 496141344
I0403 15:48:59.810251 11408 layer_factory.hpp:77] Creating layer inception_3a/relu_1x1
I0403 15:48:59.810271 11408 net.cpp:91] Creating Layer inception_3a/relu_1x1
I0403 15:48:59.810287 11408 net.cpp:425] inception_3a/relu_1x1 <- inception_3a/1x1
I0403 15:48:59.810312 11408 net.cpp:386] inception_3a/relu_1x1 -> inception_3a/1x1 (in-place)
I0403 15:48:59.810492 11408 net.cpp:141] Setting up inception_3a/relu_1x1
I0403 15:48:59.810518 11408 net.cpp:148] Top shape: 24 64 28 28 (1204224)
I0403 15:48:59.810534 11408 net.cpp:156] Memory required for data: 500958240
I0403 15:48:59.810549 11408 layer_factory.hpp:77] Creating layer inception_3a/3x3_reduce
I0403 15:48:59.810571 11408 net.cpp:91] Creating Layer inception_3a/3x3_reduce
I0403 15:48:59.810590 11408 net.cpp:425] inception_3a/3x3_reduce <- pool2/3x3_s2_pool2/3x3_s2_0_split_1
I0403 15:48:59.810611 11408 net.cpp:399] inception_3a/3x3_reduce -> inception_3a/3x3_reduce
I0403 15:48:59.812384 11408 net.cpp:141] Setting up inception_3a/3x3_reduce
I0403 15:48:59.812414 11408 net.cpp:148] Top shape: 24 96 28 28 (1806336)
I0403 15:48:59.812432 11408 net.cpp:156] Memory required for data: 508183584
I0403 15:48:59.812453 11408 layer_factory.hpp:77] Creating layer inception_3a/relu_3x3_reduce
I0403 15:48:59.812492 11408 net.cpp:91] Creating Layer inception_3a/relu_3x3_reduce
I0403 15:48:59.812511 11408 net.cpp:425] inception_3a/relu_3x3_reduce <- inception_3a/3x3_reduce
I0403 15:48:59.812530 11408 net.cpp:386] inception_3a/relu_3x3_reduce -> inception_3a/3x3_reduce (in-place)
I0403 15:48:59.812721 11408 net.cpp:141] Setting up inception_3a/relu_3x3_reduce
I0403 15:48:59.812749 11408 net.cpp:148] Top shape: 24 96 28 28 (1806336)
I0403 15:48:59.812765 11408 net.cpp:156] Memory required for data: 515408928
I0403 15:48:59.812782 11408 layer_factory.hpp:77] Creating layer inception_3a/3x3
I0403 15:48:59.812805 11408 net.cpp:91] Creating Layer inception_3a/3x3
I0403 15:48:59.812824 11408 net.cpp:425] inception_3a/3x3 <- inception_3a/3x3_reduce
I0403 15:48:59.812845 11408 net.cpp:399] inception_3a/3x3 -> inception_3a/3x3
I0403 15:48:59.814570 11408 net.cpp:141] Setting up inception_3a/3x3
I0403 15:48:59.814599 11408 net.cpp:148] Top shape: 24 128 28 28 (2408448)
I0403 15:48:59.814615 11408 net.cpp:156] Memory required for data: 525042720
I0403 15:48:59.814635 11408 layer_factory.hpp:77] Creating layer inception_3a/relu_3x3
I0403 15:48:59.814659 11408 net.cpp:91] Creating Layer inception_3a/relu_3x3
I0403 15:48:59.814677 11408 net.cpp:425] inception_3a/relu_3x3 <- inception_3a/3x3
I0403 15:48:59.814697 11408 net.cpp:386] inception_3a/relu_3x3 -> inception_3a/3x3 (in-place)
I0403 15:48:59.814985 11408 net.cpp:141] Setting up inception_3a/relu_3x3
I0403 15:48:59.815012 11408 net.cpp:148] Top shape: 24 128 28 28 (2408448)
I0403 15:48:59.815028 11408 net.cpp:156] Memory required for data: 534676512
I0403 15:48:59.815043 11408 layer_factory.hpp:77] Creating layer inception_3a/5x5_reduce
I0403 15:48:59.815068 11408 net.cpp:91] Creating Layer inception_3a/5x5_reduce
I0403 15:48:59.815085 11408 net.cpp:425] inception_3a/5x5_reduce <- pool2/3x3_s2_pool2/3x3_s2_0_split_2
I0403 15:48:59.815109 11408 net.cpp:399] inception_3a/5x5_reduce -> inception_3a/5x5_reduce
I0403 15:48:59.816112 11408 net.cpp:141] Setting up inception_3a/5x5_reduce
I0403 15:48:59.816140 11408 net.cpp:148] Top shape: 24 16 28 28 (301056)
I0403 15:48:59.816156 11408 net.cpp:156] Memory required for data: 535880736
I0403 15:48:59.816176 11408 layer_factory.hpp:77] Creating layer inception_3a/relu_5x5_reduce
I0403 15:48:59.816198 11408 net.cpp:91] Creating Layer inception_3a/relu_5x5_reduce
I0403 15:48:59.816216 11408 net.cpp:425] inception_3a/relu_5x5_reduce <- inception_3a/5x5_reduce
I0403 15:48:59.816234 11408 net.cpp:386] inception_3a/relu_5x5_reduce -> inception_3a/5x5_reduce (in-place)
I0403 15:48:59.816545 11408 net.cpp:141] Setting up inception_3a/relu_5x5_reduce
I0403 15:48:59.816575 11408 net.cpp:148] Top shape: 24 16 28 28 (301056)
I0403 15:48:59.816591 11408 net.cpp:156] Memory required for data: 537084960
I0403 15:48:59.816607 11408 layer_factory.hpp:77] Creating layer inception_3a/5x5
I0403 15:48:59.816632 11408 net.cpp:91] Creating Layer inception_3a/5x5
I0403 15:48:59.816649 11408 net.cpp:425] inception_3a/5x5 <- inception_3a/5x5_reduce
I0403 15:48:59.816669 11408 net.cpp:399] inception_3a/5x5 -> inception_3a/5x5
I0403 15:48:59.817733 11408 net.cpp:141] Setting up inception_3a/5x5
I0403 15:48:59.817761 11408 net.cpp:148] Top shape: 24 32 28 28 (602112)
I0403 15:48:59.817778 11408 net.cpp:156] Memory required for data: 539493408
I0403 15:48:59.817797 11408 layer_factory.hpp:77] Creating layer inception_3a/relu_5x5
I0403 15:48:59.817819 11408 net.cpp:91] Creating Layer inception_3a/relu_5x5
I0403 15:48:59.817837 11408 net.cpp:425] inception_3a/relu_5x5 <- inception_3a/5x5
I0403 15:48:59.817855 11408 net.cpp:386] inception_3a/relu_5x5 -> inception_3a/5x5 (in-place)
I0403 15:48:59.818040 11408 net.cpp:141] Setting up inception_3a/relu_5x5
I0403 15:48:59.818066 11408 net.cpp:148] Top shape: 24 32 28 28 (602112)
I0403 15:48:59.818084 11408 net.cpp:156] Memory required for data: 541901856
I0403 15:48:59.818100 11408 layer_factory.hpp:77] Creating layer inception_3a/pool
I0403 15:48:59.818120 11408 net.cpp:91] Creating Layer inception_3a/pool
I0403 15:48:59.818150 11408 net.cpp:425] inception_3a/pool <- pool2/3x3_s2_pool2/3x3_s2_0_split_3
I0403 15:48:59.818171 11408 net.cpp:399] inception_3a/pool -> inception_3a/pool
I0403 15:48:59.818233 11408 net.cpp:141] Setting up inception_3a/pool
I0403 15:48:59.818258 11408 net.cpp:148] Top shape: 24 192 28 28 (3612672)
I0403 15:48:59.818274 11408 net.cpp:156] Memory required for data: 556352544
I0403 15:48:59.818289 11408 layer_factory.hpp:77] Creating layer inception_3a/pool_proj
I0403 15:48:59.818311 11408 net.cpp:91] Creating Layer inception_3a/pool_proj
I0403 15:48:59.818328 11408 net.cpp:425] inception_3a/pool_proj <- inception_3a/pool
I0403 15:48:59.818351 11408 net.cpp:399] inception_3a/pool_proj -> inception_3a/pool_proj
I0403 15:48:59.819368 11408 net.cpp:141] Setting up inception_3a/pool_proj
I0403 15:48:59.819397 11408 net.cpp:148] Top shape: 24 32 28 28 (602112)
I0403 15:48:59.819414 11408 net.cpp:156] Memory required for data: 558760992
I0403 15:48:59.819437 11408 layer_factory.hpp:77] Creating layer inception_3a/relu_pool_proj
I0403 15:48:59.819459 11408 net.cpp:91] Creating Layer inception_3a/relu_pool_proj
I0403 15:48:59.819478 11408 net.cpp:425] inception_3a/relu_pool_proj <- inception_3a/pool_proj
I0403 15:48:59.819495 11408 net.cpp:386] inception_3a/relu_pool_proj -> inception_3a/pool_proj (in-place)
I0403 15:48:59.819783 11408 net.cpp:141] Setting up inception_3a/relu_pool_proj
I0403 15:48:59.819811 11408 net.cpp:148] Top shape: 24 32 28 28 (602112)
I0403 15:48:59.819828 11408 net.cpp:156] Memory required for data: 561169440
I0403 15:48:59.819844 11408 layer_factory.hpp:77] Creating layer inception_3a/output
I0403 15:48:59.819861 11408 net.cpp:91] Creating Layer inception_3a/output
I0403 15:48:59.819878 11408 net.cpp:425] inception_3a/output <- inception_3a/1x1
I0403 15:48:59.819896 11408 net.cpp:425] inception_3a/output <- inception_3a/3x3
I0403 15:48:59.819912 11408 net.cpp:425] inception_3a/output <- inception_3a/5x5
I0403 15:48:59.819929 11408 net.cpp:425] inception_3a/output <- inception_3a/pool_proj
I0403 15:48:59.819949 11408 net.cpp:399] inception_3a/output -> inception_3a/output
I0403 15:48:59.820004 11408 net.cpp:141] Setting up inception_3a/output
I0403 15:48:59.820029 11408 net.cpp:148] Top shape: 24 256 28 28 (4816896)
I0403 15:48:59.820045 11408 net.cpp:156] Memory required for data: 580437024
I0403 15:48:59.820061 11408 layer_factory.hpp:77] Creating layer inception_3a/output_inception_3a/output_0_split
I0403 15:48:59.820080 11408 net.cpp:91] Creating Layer inception_3a/output_inception_3a/output_0_split
I0403 15:48:59.820094 11408 net.cpp:425] inception_3a/output_inception_3a/output_0_split <- inception_3a/output
I0403 15:48:59.820116 11408 net.cpp:399] inception_3a/output_inception_3a/output_0_split -> inception_3a/output_inception_3a/output_0_split_0
I0403 15:48:59.820137 11408 net.cpp:399] inception_3a/output_inception_3a/output_0_split -> inception_3a/output_inception_3a/output_0_split_1
I0403 15:48:59.820159 11408 net.cpp:399] inception_3a/output_inception_3a/output_0_split -> inception_3a/output_inception_3a/output_0_split_2
I0403 15:48:59.820184 11408 net.cpp:399] inception_3a/output_inception_3a/output_0_split -> inception_3a/output_inception_3a/output_0_split_3
I0403 15:48:59.820266 11408 net.cpp:141] Setting up inception_3a/output_inception_3a/output_0_split
I0403 15:48:59.820291 11408 net.cpp:148] Top shape: 24 256 28 28 (4816896)
I0403 15:48:59.820308 11408 net.cpp:148] Top shape: 24 256 28 28 (4816896)
I0403 15:48:59.820324 11408 net.cpp:148] Top shape: 24 256 28 28 (4816896)
I0403 15:48:59.820341 11408 net.cpp:148] Top shape: 24 256 28 28 (4816896)
I0403 15:48:59.820355 11408 net.cpp:156] Memory required for data: 657507360
I0403 15:48:59.820370 11408 layer_factory.hpp:77] Creating layer inception_3b/1x1
I0403 15:48:59.820394 11408 net.cpp:91] Creating Layer inception_3b/1x1
I0403 15:48:59.820412 11408 net.cpp:425] inception_3b/1x1 <- inception_3a/output_inception_3a/output_0_split_0
I0403 15:48:59.820433 11408 net.cpp:399] inception_3b/1x1 -> inception_3b/1x1
I0403 15:48:59.821633 11408 net.cpp:141] Setting up inception_3b/1x1
I0403 15:48:59.821674 11408 net.cpp:148] Top shape: 24 128 28 28 (2408448)
I0403 15:48:59.821692 11408 net.cpp:156] Memory required for data: 667141152
I0403 15:48:59.821712 11408 layer_factory.hpp:77] Creating layer inception_3b/relu_1x1
I0403 15:48:59.821732 11408 net.cpp:91] Creating Layer inception_3b/relu_1x1
I0403 15:48:59.821748 11408 net.cpp:425] inception_3b/relu_1x1 <- inception_3b/1x1
I0403 15:48:59.821769 11408 net.cpp:386] inception_3b/relu_1x1 -> inception_3b/1x1 (in-place)
I0403 15:48:59.821957 11408 net.cpp:141] Setting up inception_3b/relu_1x1
I0403 15:48:59.821987 11408 net.cpp:148] Top shape: 24 128 28 28 (2408448)
I0403 15:48:59.822005 11408 net.cpp:156] Memory required for data: 676774944
I0403 15:48:59.822021 11408 layer_factory.hpp:77] Creating layer inception_3b/3x3_reduce
I0403 15:48:59.822043 11408 net.cpp:91] Creating Layer inception_3b/3x3_reduce
I0403 15:48:59.822062 11408 net.cpp:425] inception_3b/3x3_reduce <- inception_3a/output_inception_3a/output_0_split_1
I0403 15:48:59.822084 11408 net.cpp:399] inception_3b/3x3_reduce -> inception_3b/3x3_reduce
I0403 15:48:59.823284 11408 net.cpp:141] Setting up inception_3b/3x3_reduce
I0403 15:48:59.823314 11408 net.cpp:148] Top shape: 24 128 28 28 (2408448)
I0403 15:48:59.823330 11408 net.cpp:156] Memory required for data: 686408736
I0403 15:48:59.823349 11408 layer_factory.hpp:77] Creating layer inception_3b/relu_3x3_reduce
I0403 15:48:59.823369 11408 net.cpp:91] Creating Layer inception_3b/relu_3x3_reduce
I0403 15:48:59.823385 11408 net.cpp:425] inception_3b/relu_3x3_reduce <- inception_3b/3x3_reduce
I0403 15:48:59.823405 11408 net.cpp:386] inception_3b/relu_3x3_reduce -> inception_3b/3x3_reduce (in-place)
I0403 15:48:59.823590 11408 net.cpp:141] Setting up inception_3b/relu_3x3_reduce
I0403 15:48:59.823616 11408 net.cpp:148] Top shape: 24 128 28 28 (2408448)
I0403 15:48:59.823632 11408 net.cpp:156] Memory required for data: 696042528
I0403 15:48:59.823647 11408 layer_factory.hpp:77] Creating layer inception_3b/3x3
I0403 15:48:59.823675 11408 net.cpp:91] Creating Layer inception_3b/3x3
I0403 15:48:59.823694 11408 net.cpp:425] inception_3b/3x3 <- inception_3b/3x3_reduce
I0403 15:48:59.823714 11408 net.cpp:399] inception_3b/3x3 -> inception_3b/3x3
I0403 15:48:59.826781 11408 net.cpp:141] Setting up inception_3b/3x3
I0403 15:48:59.826810 11408 net.cpp:148] Top shape: 24 192 28 28 (3612672)
I0403 15:48:59.826827 11408 net.cpp:156] Memory required for data: 710493216
I0403 15:48:59.826846 11408 layer_factory.hpp:77] Creating layer inception_3b/relu_3x3
I0403 15:48:59.826867 11408 net.cpp:91] Creating Layer inception_3b/relu_3x3
I0403 15:48:59.826885 11408 net.cpp:425] inception_3b/relu_3x3 <- inception_3b/3x3
I0403 15:48:59.826903 11408 net.cpp:386] inception_3b/relu_3x3 -> inception_3b/3x3 (in-place)
I0403 15:48:59.827195 11408 net.cpp:141] Setting up inception_3b/relu_3x3
I0403 15:48:59.827224 11408 net.cpp:148] Top shape: 24 192 28 28 (3612672)
I0403 15:48:59.827239 11408 net.cpp:156] Memory required for data: 724943904
I0403 15:48:59.827255 11408 layer_factory.hpp:77] Creating layer inception_3b/5x5_reduce
I0403 15:48:59.827280 11408 net.cpp:91] Creating Layer inception_3b/5x5_reduce
I0403 15:48:59.827298 11408 net.cpp:425] inception_3b/5x5_reduce <- inception_3a/output_inception_3a/output_0_split_2
I0403 15:48:59.827321 11408 net.cpp:399] inception_3b/5x5_reduce -> inception_3b/5x5_reduce
I0403 15:48:59.828358 11408 net.cpp:141] Setting up inception_3b/5x5_reduce
I0403 15:48:59.828387 11408 net.cpp:148] Top shape: 24 32 28 28 (602112)
I0403 15:48:59.828404 11408 net.cpp:156] Memory required for data: 727352352
I0403 15:48:59.828423 11408 layer_factory.hpp:77] Creating layer inception_3b/relu_5x5_reduce
I0403 15:48:59.828445 11408 net.cpp:91] Creating Layer inception_3b/relu_5x5_reduce
I0403 15:48:59.828464 11408 net.cpp:425] inception_3b/relu_5x5_reduce <- inception_3b/5x5_reduce
I0403 15:48:59.828482 11408 net.cpp:386] inception_3b/relu_5x5_reduce -> inception_3b/5x5_reduce (in-place)
I0403 15:48:59.828683 11408 net.cpp:141] Setting up inception_3b/relu_5x5_reduce
I0403 15:48:59.828711 11408 net.cpp:148] Top shape: 24 32 28 28 (602112)
I0403 15:48:59.828728 11408 net.cpp:156] Memory required for data: 729760800
I0403 15:48:59.828744 11408 layer_factory.hpp:77] Creating layer inception_3b/5x5
I0403 15:48:59.828766 11408 net.cpp:91] Creating Layer inception_3b/5x5
I0403 15:48:59.828784 11408 net.cpp:425] inception_3b/5x5 <- inception_3b/5x5_reduce
I0403 15:48:59.828806 11408 net.cpp:399] inception_3b/5x5 -> inception_3b/5x5
I0403 15:48:59.830885 11408 net.cpp:141] Setting up inception_3b/5x5
I0403 15:48:59.830915 11408 net.cpp:148] Top shape: 24 96 28 28 (1806336)
I0403 15:48:59.830932 11408 net.cpp:156] Memory required for data: 736986144
I0403 15:48:59.830952 11408 layer_factory.hpp:77] Creating layer inception_3b/relu_5x5
I0403 15:48:59.830971 11408 net.cpp:91] Creating Layer inception_3b/relu_5x5
I0403 15:48:59.830993 11408 net.cpp:425] inception_3b/relu_5x5 <- inception_3b/5x5
I0403 15:48:59.831014 11408 net.cpp:386] inception_3b/relu_5x5 -> inception_3b/5x5 (in-place)
I0403 15:48:59.831218 11408 net.cpp:141] Setting up inception_3b/relu_5x5
I0403 15:48:59.831244 11408 net.cpp:148] Top shape: 24 96 28 28 (1806336)
I0403 15:48:59.831259 11408 net.cpp:156] Memory required for data: 744211488
I0403 15:48:59.831280 11408 layer_factory.hpp:77] Creating layer inception_3b/pool
I0403 15:48:59.831300 11408 net.cpp:91] Creating Layer inception_3b/pool
I0403 15:48:59.831316 11408 net.cpp:425] inception_3b/pool <- inception_3a/output_inception_3a/output_0_split_3
I0403 15:48:59.831336 11408 net.cpp:399] inception_3b/pool -> inception_3b/pool
I0403 15:48:59.831395 11408 net.cpp:141] Setting up inception_3b/pool
I0403 15:48:59.831419 11408 net.cpp:148] Top shape: 24 256 28 28 (4816896)
I0403 15:48:59.831435 11408 net.cpp:156] Memory required for data: 763479072
I0403 15:48:59.831450 11408 layer_factory.hpp:77] Creating layer inception_3b/pool_proj
I0403 15:48:59.831473 11408 net.cpp:91] Creating Layer inception_3b/pool_proj
I0403 15:48:59.831492 11408 net.cpp:425] inception_3b/pool_proj <- inception_3b/pool
I0403 15:48:59.831514 11408 net.cpp:399] inception_3b/pool_proj -> inception_3b/pool_proj
I0403 15:48:59.832618 11408 net.cpp:141] Setting up inception_3b/pool_proj
I0403 15:48:59.832649 11408 net.cpp:148] Top shape: 24 64 28 28 (1204224)
I0403 15:48:59.832667 11408 net.cpp:156] Memory required for data: 768295968
I0403 15:48:59.832687 11408 layer_factory.hpp:77] Creating layer inception_3b/relu_pool_proj
I0403 15:48:59.832706 11408 net.cpp:91] Creating Layer inception_3b/relu_pool_proj
I0403 15:48:59.832725 11408 net.cpp:425] inception_3b/relu_pool_proj <- inception_3b/pool_proj
I0403 15:48:59.832742 11408 net.cpp:386] inception_3b/relu_pool_proj -> inception_3b/pool_proj (in-place)
I0403 15:48:59.833156 11408 net.cpp:141] Setting up inception_3b/relu_pool_proj
I0403 15:48:59.833184 11408 net.cpp:148] Top shape: 24 64 28 28 (1204224)
I0403 15:48:59.833202 11408 net.cpp:156] Memory required for data: 773112864
I0403 15:48:59.833219 11408 layer_factory.hpp:77] Creating layer inception_3b/output
I0403 15:48:59.833240 11408 net.cpp:91] Creating Layer inception_3b/output
I0403 15:48:59.833258 11408 net.cpp:425] inception_3b/output <- inception_3b/1x1
I0403 15:48:59.833276 11408 net.cpp:425] inception_3b/output <- inception_3b/3x3
I0403 15:48:59.833293 11408 net.cpp:425] inception_3b/output <- inception_3b/5x5
I0403 15:48:59.833310 11408 net.cpp:425] inception_3b/output <- inception_3b/pool_proj
I0403 15:48:59.833328 11408 net.cpp:399] inception_3b/output -> inception_3b/output
I0403 15:48:59.833375 11408 net.cpp:141] Setting up inception_3b/output
I0403 15:48:59.833400 11408 net.cpp:148] Top shape: 24 480 28 28 (9031680)
I0403 15:48:59.833416 11408 net.cpp:156] Memory required for data: 809239584
I0403 15:48:59.833432 11408 layer_factory.hpp:77] Creating layer pool3/3x3_s2
I0403 15:48:59.833451 11408 net.cpp:91] Creating Layer pool3/3x3_s2
I0403 15:48:59.833467 11408 net.cpp:425] pool3/3x3_s2 <- inception_3b/output
I0403 15:48:59.833504 11408 net.cpp:399] pool3/3x3_s2 -> pool3/3x3_s2
I0403 15:48:59.833567 11408 net.cpp:141] Setting up pool3/3x3_s2
I0403 15:48:59.833591 11408 net.cpp:148] Top shape: 24 480 14 14 (2257920)
I0403 15:48:59.833607 11408 net.cpp:156] Memory required for data: 818271264
I0403 15:48:59.833622 11408 layer_factory.hpp:77] Creating layer pool3/3x3_s2_pool3/3x3_s2_0_split
I0403 15:48:59.833642 11408 net.cpp:91] Creating Layer pool3/3x3_s2_pool3/3x3_s2_0_split
I0403 15:48:59.833659 11408 net.cpp:425] pool3/3x3_s2_pool3/3x3_s2_0_split <- pool3/3x3_s2
I0403 15:48:59.833679 11408 net.cpp:399] pool3/3x3_s2_pool3/3x3_s2_0_split -> pool3/3x3_s2_pool3/3x3_s2_0_split_0
I0403 15:48:59.833701 11408 net.cpp:399] pool3/3x3_s2_pool3/3x3_s2_0_split -> pool3/3x3_s2_pool3/3x3_s2_0_split_1
I0403 15:48:59.833722 11408 net.cpp:399] pool3/3x3_s2_pool3/3x3_s2_0_split -> pool3/3x3_s2_pool3/3x3_s2_0_split_2
I0403 15:48:59.833742 11408 net.cpp:399] pool3/3x3_s2_pool3/3x3_s2_0_split -> pool3/3x3_s2_pool3/3x3_s2_0_split_3
I0403 15:48:59.833822 11408 net.cpp:141] Setting up pool3/3x3_s2_pool3/3x3_s2_0_split
I0403 15:48:59.833848 11408 net.cpp:148] Top shape: 24 480 14 14 (2257920)
I0403 15:48:59.833866 11408 net.cpp:148] Top shape: 24 480 14 14 (2257920)
I0403 15:48:59.833884 11408 net.cpp:148] Top shape: 24 480 14 14 (2257920)
I0403 15:48:59.833899 11408 net.cpp:148] Top shape: 24 480 14 14 (2257920)
I0403 15:48:59.833914 11408 net.cpp:156] Memory required for data: 854397984
I0403 15:48:59.833930 11408 layer_factory.hpp:77] Creating layer inception_4a/1x1
I0403 15:48:59.833953 11408 net.cpp:91] Creating Layer inception_4a/1x1
I0403 15:48:59.833971 11408 net.cpp:425] inception_4a/1x1 <- pool3/3x3_s2_pool3/3x3_s2_0_split_0
I0403 15:48:59.833997 11408 net.cpp:399] inception_4a/1x1 -> inception_4a/1x1
I0403 15:48:59.835655 11408 net.cpp:141] Setting up inception_4a/1x1
I0403 15:48:59.835687 11408 net.cpp:148] Top shape: 24 192 14 14 (903168)
I0403 15:48:59.835705 11408 net.cpp:156] Memory required for data: 858010656
I0403 15:48:59.835726 11408 layer_factory.hpp:77] Creating layer inception_4a/relu_1x1
I0403 15:48:59.835744 11408 net.cpp:91] Creating Layer inception_4a/relu_1x1
I0403 15:48:59.835762 11408 net.cpp:425] inception_4a/relu_1x1 <- inception_4a/1x1
I0403 15:48:59.835780 11408 net.cpp:386] inception_4a/relu_1x1 -> inception_4a/1x1 (in-place)
I0403 15:48:59.835970 11408 net.cpp:141] Setting up inception_4a/relu_1x1
I0403 15:48:59.836000 11408 net.cpp:148] Top shape: 24 192 14 14 (903168)
I0403 15:48:59.836016 11408 net.cpp:156] Memory required for data: 861623328
I0403 15:48:59.836032 11408 layer_factory.hpp:77] Creating layer inception_4a/3x3_reduce
I0403 15:48:59.836055 11408 net.cpp:91] Creating Layer inception_4a/3x3_reduce
I0403 15:48:59.836073 11408 net.cpp:425] inception_4a/3x3_reduce <- pool3/3x3_s2_pool3/3x3_s2_0_split_1
I0403 15:48:59.836096 11408 net.cpp:399] inception_4a/3x3_reduce -> inception_4a/3x3_reduce
I0403 15:48:59.837437 11408 net.cpp:141] Setting up inception_4a/3x3_reduce
I0403 15:48:59.837468 11408 net.cpp:148] Top shape: 24 96 14 14 (451584)
I0403 15:48:59.837486 11408 net.cpp:156] Memory required for data: 863429664
I0403 15:48:59.837512 11408 layer_factory.hpp:77] Creating layer inception_4a/relu_3x3_reduce
I0403 15:48:59.837533 11408 net.cpp:91] Creating Layer inception_4a/relu_3x3_reduce
I0403 15:48:59.837549 11408 net.cpp:425] inception_4a/relu_3x3_reduce <- inception_4a/3x3_reduce
I0403 15:48:59.837568 11408 net.cpp:386] inception_4a/relu_3x3_reduce -> inception_4a/3x3_reduce (in-place)
I0403 15:48:59.837752 11408 net.cpp:141] Setting up inception_4a/relu_3x3_reduce
I0403 15:48:59.837780 11408 net.cpp:148] Top shape: 24 96 14 14 (451584)
I0403 15:48:59.837796 11408 net.cpp:156] Memory required for data: 865236000
I0403 15:48:59.837812 11408 layer_factory.hpp:77] Creating layer inception_4a/3x3
I0403 15:48:59.837834 11408 net.cpp:91] Creating Layer inception_4a/3x3
I0403 15:48:59.837852 11408 net.cpp:425] inception_4a/3x3 <- inception_4a/3x3_reduce
I0403 15:48:59.837875 11408 net.cpp:399] inception_4a/3x3 -> inception_4a/3x3
I0403 15:48:59.840715 11408 net.cpp:141] Setting up inception_4a/3x3
I0403 15:48:59.840745 11408 net.cpp:148] Top shape: 24 208 14 14 (978432)
I0403 15:48:59.840764 11408 net.cpp:156] Memory required for data: 869149728
I0403 15:48:59.840782 11408 layer_factory.hpp:77] Creating layer inception_4a/relu_3x3
I0403 15:48:59.840801 11408 net.cpp:91] Creating Layer inception_4a/relu_3x3
I0403 15:48:59.840818 11408 net.cpp:425] inception_4a/relu_3x3 <- inception_4a/3x3
I0403 15:48:59.840840 11408 net.cpp:386] inception_4a/relu_3x3 -> inception_4a/3x3 (in-place)
I0403 15:48:59.841136 11408 net.cpp:141] Setting up inception_4a/relu_3x3
I0403 15:48:59.841164 11408 net.cpp:148] Top shape: 24 208 14 14 (978432)
I0403 15:48:59.841181 11408 net.cpp:156] Memory required for data: 873063456
I0403 15:48:59.841197 11408 layer_factory.hpp:77] Creating layer inception_4a/5x5_reduce
I0403 15:48:59.841219 11408 net.cpp:91] Creating Layer inception_4a/5x5_reduce
I0403 15:48:59.841238 11408 net.cpp:425] inception_4a/5x5_reduce <- pool3/3x3_s2_pool3/3x3_s2_0_split_2
I0403 15:48:59.841260 11408 net.cpp:399] inception_4a/5x5_reduce -> inception_4a/5x5_reduce
I0403 15:48:59.842329 11408 net.cpp:141] Setting up inception_4a/5x5_reduce
I0403 15:48:59.842360 11408 net.cpp:148] Top shape: 24 16 14 14 (75264)
I0403 15:48:59.842375 11408 net.cpp:156] Memory required for data: 873364512
I0403 15:48:59.842394 11408 layer_factory.hpp:77] Creating layer inception_4a/relu_5x5_reduce
I0403 15:48:59.842417 11408 net.cpp:91] Creating Layer inception_4a/relu_5x5_reduce
I0403 15:48:59.842434 11408 net.cpp:425] inception_4a/relu_5x5_reduce <- inception_4a/5x5_reduce
I0403 15:48:59.842453 11408 net.cpp:386] inception_4a/relu_5x5_reduce -> inception_4a/5x5_reduce (in-place)
I0403 15:48:59.842633 11408 net.cpp:141] Setting up inception_4a/relu_5x5_reduce
I0403 15:48:59.842659 11408 net.cpp:148] Top shape: 24 16 14 14 (75264)
I0403 15:48:59.842679 11408 net.cpp:156] Memory required for data: 873665568
I0403 15:48:59.842695 11408 layer_factory.hpp:77] Creating layer inception_4a/5x5
I0403 15:48:59.842716 11408 net.cpp:91] Creating Layer inception_4a/5x5
I0403 15:48:59.842733 11408 net.cpp:425] inception_4a/5x5 <- inception_4a/5x5_reduce
I0403 15:48:59.842756 11408 net.cpp:399] inception_4a/5x5 -> inception_4a/5x5
I0403 15:48:59.843895 11408 net.cpp:141] Setting up inception_4a/5x5
I0403 15:48:59.843925 11408 net.cpp:148] Top shape: 24 48 14 14 (225792)
I0403 15:48:59.843941 11408 net.cpp:156] Memory required for data: 874568736
I0403 15:48:59.843961 11408 layer_factory.hpp:77] Creating layer inception_4a/relu_5x5
I0403 15:48:59.843987 11408 net.cpp:91] Creating Layer inception_4a/relu_5x5
I0403 15:48:59.844007 11408 net.cpp:425] inception_4a/relu_5x5 <- inception_4a/5x5
I0403 15:48:59.844024 11408 net.cpp:386] inception_4a/relu_5x5 -> inception_4a/5x5 (in-place)
I0403 15:48:59.844213 11408 net.cpp:141] Setting up inception_4a/relu_5x5
I0403 15:48:59.844238 11408 net.cpp:148] Top shape: 24 48 14 14 (225792)
I0403 15:48:59.844254 11408 net.cpp:156] Memory required for data: 875471904
I0403 15:48:59.844269 11408 layer_factory.hpp:77] Creating layer inception_4a/pool
I0403 15:48:59.844288 11408 net.cpp:91] Creating Layer inception_4a/pool
I0403 15:48:59.844305 11408 net.cpp:425] inception_4a/pool <- pool3/3x3_s2_pool3/3x3_s2_0_split_3
I0403 15:48:59.844326 11408 net.cpp:399] inception_4a/pool -> inception_4a/pool
I0403 15:48:59.844390 11408 net.cpp:141] Setting up inception_4a/pool
I0403 15:48:59.844415 11408 net.cpp:148] Top shape: 24 480 14 14 (2257920)
I0403 15:48:59.844430 11408 net.cpp:156] Memory required for data: 884503584
I0403 15:48:59.844446 11408 layer_factory.hpp:77] Creating layer inception_4a/pool_proj
I0403 15:48:59.844470 11408 net.cpp:91] Creating Layer inception_4a/pool_proj
I0403 15:48:59.844488 11408 net.cpp:425] inception_4a/pool_proj <- inception_4a/pool
I0403 15:48:59.844508 11408 net.cpp:399] inception_4a/pool_proj -> inception_4a/pool_proj
I0403 15:48:59.845721 11408 net.cpp:141] Setting up inception_4a/pool_proj
I0403 15:48:59.845753 11408 net.cpp:148] Top shape: 24 64 14 14 (301056)
I0403 15:48:59.845785 11408 net.cpp:156] Memory required for data: 885707808
I0403 15:48:59.845805 11408 layer_factory.hpp:77] Creating layer inception_4a/relu_pool_proj
I0403 15:48:59.845824 11408 net.cpp:91] Creating Layer inception_4a/relu_pool_proj
I0403 15:48:59.845841 11408 net.cpp:425] inception_4a/relu_pool_proj <- inception_4a/pool_proj
I0403 15:48:59.845863 11408 net.cpp:386] inception_4a/relu_pool_proj -> inception_4a/pool_proj (in-place)
I0403 15:48:59.846163 11408 net.cpp:141] Setting up inception_4a/relu_pool_proj
I0403 15:48:59.846194 11408 net.cpp:148] Top shape: 24 64 14 14 (301056)
I0403 15:48:59.846211 11408 net.cpp:156] Memory required for data: 886912032
I0403 15:48:59.846227 11408 layer_factory.hpp:77] Creating layer inception_4a/output
I0403 15:48:59.846245 11408 net.cpp:91] Creating Layer inception_4a/output
I0403 15:48:59.846261 11408 net.cpp:425] inception_4a/output <- inception_4a/1x1
I0403 15:48:59.846279 11408 net.cpp:425] inception_4a/output <- inception_4a/3x3
I0403 15:48:59.846297 11408 net.cpp:425] inception_4a/output <- inception_4a/5x5
I0403 15:48:59.846312 11408 net.cpp:425] inception_4a/output <- inception_4a/pool_proj
I0403 15:48:59.846330 11408 net.cpp:399] inception_4a/output -> inception_4a/output
I0403 15:48:59.846379 11408 net.cpp:141] Setting up inception_4a/output
I0403 15:48:59.846403 11408 net.cpp:148] Top shape: 24 512 14 14 (2408448)
I0403 15:48:59.846418 11408 net.cpp:156] Memory required for data: 896545824
I0403 15:48:59.846433 11408 layer_factory.hpp:77] Creating layer inception_4a/output_inception_4a/output_0_split
I0403 15:48:59.846458 11408 net.cpp:91] Creating Layer inception_4a/output_inception_4a/output_0_split
I0403 15:48:59.846475 11408 net.cpp:425] inception_4a/output_inception_4a/output_0_split <- inception_4a/output
I0403 15:48:59.846494 11408 net.cpp:399] inception_4a/output_inception_4a/output_0_split -> inception_4a/output_inception_4a/output_0_split_0
I0403 15:48:59.846516 11408 net.cpp:399] inception_4a/output_inception_4a/output_0_split -> inception_4a/output_inception_4a/output_0_split_1
I0403 15:48:59.846540 11408 net.cpp:399] inception_4a/output_inception_4a/output_0_split -> inception_4a/output_inception_4a/output_0_split_2
I0403 15:48:59.846565 11408 net.cpp:399] inception_4a/output_inception_4a/output_0_split -> inception_4a/output_inception_4a/output_0_split_3
I0403 15:48:59.846585 11408 net.cpp:399] inception_4a/output_inception_4a/output_0_split -> inception_4a/output_inception_4a/output_0_split_4
I0403 15:48:59.846683 11408 net.cpp:141] Setting up inception_4a/output_inception_4a/output_0_split
I0403 15:48:59.846707 11408 net.cpp:148] Top shape: 24 512 14 14 (2408448)
I0403 15:48:59.846724 11408 net.cpp:148] Top shape: 24 512 14 14 (2408448)
I0403 15:48:59.846740 11408 net.cpp:148] Top shape: 24 512 14 14 (2408448)
I0403 15:48:59.846756 11408 net.cpp:148] Top shape: 24 512 14 14 (2408448)
I0403 15:48:59.846771 11408 net.cpp:148] Top shape: 24 512 14 14 (2408448)
I0403 15:48:59.846786 11408 net.cpp:156] Memory required for data: 944714784
I0403 15:48:59.846801 11408 layer_factory.hpp:77] Creating layer loss1/ave_pool
I0403 15:48:59.846820 11408 net.cpp:91] Creating Layer loss1/ave_pool
I0403 15:48:59.846837 11408 net.cpp:425] loss1/ave_pool <- inception_4a/output_inception_4a/output_0_split_0
I0403 15:48:59.846858 11408 net.cpp:399] loss1/ave_pool -> loss1/ave_pool
I0403 15:48:59.847072 11408 net.cpp:141] Setting up loss1/ave_pool
I0403 15:48:59.847101 11408 net.cpp:148] Top shape: 24 512 4 4 (196608)
I0403 15:48:59.847117 11408 net.cpp:156] Memory required for data: 945501216
I0403 15:48:59.847132 11408 layer_factory.hpp:77] Creating layer loss1/conv
I0403 15:48:59.847157 11408 net.cpp:91] Creating Layer loss1/conv
I0403 15:48:59.847174 11408 net.cpp:425] loss1/conv <- loss1/ave_pool
I0403 15:48:59.847193 11408 net.cpp:399] loss1/conv -> loss1/conv
I0403 15:48:59.848664 11408 net.cpp:141] Setting up loss1/conv
I0403 15:48:59.848693 11408 net.cpp:148] Top shape: 24 128 4 4 (49152)
I0403 15:48:59.848724 11408 net.cpp:156] Memory required for data: 945697824
I0403 15:48:59.848745 11408 layer_factory.hpp:77] Creating layer loss1/relu_conv
I0403 15:48:59.848765 11408 net.cpp:91] Creating Layer loss1/relu_conv
I0403 15:48:59.848783 11408 net.cpp:425] loss1/relu_conv <- loss1/conv
I0403 15:48:59.848803 11408 net.cpp:386] loss1/relu_conv -> loss1/conv (in-place)
I0403 15:48:59.849109 11408 net.cpp:141] Setting up loss1/relu_conv
I0403 15:48:59.849138 11408 net.cpp:148] Top shape: 24 128 4 4 (49152)
I0403 15:48:59.849153 11408 net.cpp:156] Memory required for data: 945894432
I0403 15:48:59.849169 11408 layer_factory.hpp:77] Creating layer loss1/fc
I0403 15:48:59.849194 11408 net.cpp:91] Creating Layer loss1/fc
I0403 15:48:59.849212 11408 net.cpp:425] loss1/fc <- loss1/conv
I0403 15:48:59.849234 11408 net.cpp:399] loss1/fc -> loss1/fc
I0403 15:48:59.868108 11408 net.cpp:141] Setting up loss1/fc
I0403 15:48:59.868145 11408 net.cpp:148] Top shape: 24 1024 (24576)
I0403 15:48:59.868160 11408 net.cpp:156] Memory required for data: 945992736
I0403 15:48:59.868178 11408 layer_factory.hpp:77] Creating layer loss1/relu_fc
I0403 15:48:59.868197 11408 net.cpp:91] Creating Layer loss1/relu_fc
I0403 15:48:59.868213 11408 net.cpp:425] loss1/relu_fc <- loss1/fc
I0403 15:48:59.868229 11408 net.cpp:386] loss1/relu_fc -> loss1/fc (in-place)
I0403 15:48:59.868412 11408 net.cpp:141] Setting up loss1/relu_fc
I0403 15:48:59.868437 11408 net.cpp:148] Top shape: 24 1024 (24576)
I0403 15:48:59.868450 11408 net.cpp:156] Memory required for data: 946091040
I0403 15:48:59.868465 11408 layer_factory.hpp:77] Creating layer loss1/drop_fc
I0403 15:48:59.868490 11408 net.cpp:91] Creating Layer loss1/drop_fc
I0403 15:48:59.868507 11408 net.cpp:425] loss1/drop_fc <- loss1/fc
I0403 15:48:59.868526 11408 net.cpp:386] loss1/drop_fc -> loss1/fc (in-place)
I0403 15:48:59.868577 11408 net.cpp:141] Setting up loss1/drop_fc
I0403 15:48:59.868599 11408 net.cpp:148] Top shape: 24 1024 (24576)
I0403 15:48:59.868613 11408 net.cpp:156] Memory required for data: 946189344
I0403 15:48:59.868628 11408 layer_factory.hpp:77] Creating layer loss1/classifier_plantvillage
I0403 15:48:59.868650 11408 net.cpp:91] Creating Layer loss1/classifier_plantvillage
I0403 15:48:59.868666 11408 net.cpp:425] loss1/classifier_plantvillage <- loss1/fc
I0403 15:48:59.868686 11408 net.cpp:399] loss1/classifier_plantvillage -> loss1/classifier_plantvillage
I0403 15:48:59.869616 11408 net.cpp:141] Setting up loss1/classifier_plantvillage
I0403 15:48:59.869644 11408 net.cpp:148] Top shape: 24 38 (912)
I0403 15:48:59.869660 11408 net.cpp:156] Memory required for data: 946192992
I0403 15:48:59.869678 11408 layer_factory.hpp:77] Creating layer loss1/classifier_plantvillage_loss1/classifier_plantvillage_0_split
I0403 15:48:59.869695 11408 net.cpp:91] Creating Layer loss1/classifier_plantvillage_loss1/classifier_plantvillage_0_split
I0403 15:48:59.869711 11408 net.cpp:425] loss1/classifier_plantvillage_loss1/classifier_plantvillage_0_split <- loss1/classifier_plantvillage
I0403 15:48:59.869731 11408 net.cpp:399] loss1/classifier_plantvillage_loss1/classifier_plantvillage_0_split -> loss1/classifier_plantvillage_loss1/classifier_plantvillage_0_split_0
I0403 15:48:59.869752 11408 net.cpp:399] loss1/classifier_plantvillage_loss1/classifier_plantvillage_0_split -> loss1/classifier_plantvillage_loss1/classifier_plantvillage_0_split_1
I0403 15:48:59.869772 11408 net.cpp:399] loss1/classifier_plantvillage_loss1/classifier_plantvillage_0_split -> loss1/classifier_plantvillage_loss1/classifier_plantvillage_0_split_2
I0403 15:48:59.869838 11408 net.cpp:141] Setting up loss1/classifier_plantvillage_loss1/classifier_plantvillage_0_split
I0403 15:48:59.869861 11408 net.cpp:148] Top shape: 24 38 (912)
I0403 15:48:59.869877 11408 net.cpp:148] Top shape: 24 38 (912)
I0403 15:48:59.869892 11408 net.cpp:148] Top shape: 24 38 (912)
I0403 15:48:59.869906 11408 net.cpp:156] Memory required for data: 946203936
I0403 15:48:59.869920 11408 layer_factory.hpp:77] Creating layer inception_4b/1x1
I0403 15:48:59.869942 11408 net.cpp:91] Creating Layer inception_4b/1x1
I0403 15:48:59.869982 11408 net.cpp:425] inception_4b/1x1 <- inception_4a/output_inception_4a/output_0_split_1
I0403 15:48:59.870003 11408 net.cpp:399] inception_4b/1x1 -> inception_4b/1x1
I0403 15:48:59.871639 11408 net.cpp:141] Setting up inception_4b/1x1
I0403 15:48:59.871666 11408 net.cpp:148] Top shape: 24 160 14 14 (752640)
I0403 15:48:59.871682 11408 net.cpp:156] Memory required for data: 949214496
I0403 15:48:59.871701 11408 layer_factory.hpp:77] Creating layer inception_4b/relu_1x1
I0403 15:48:59.871719 11408 net.cpp:91] Creating Layer inception_4b/relu_1x1
I0403 15:48:59.871736 11408 net.cpp:425] inception_4b/relu_1x1 <- inception_4b/1x1
I0403 15:48:59.871755 11408 net.cpp:386] inception_4b/relu_1x1 -> inception_4b/1x1 (in-place)
I0403 15:48:59.871932 11408 net.cpp:141] Setting up inception_4b/relu_1x1
I0403 15:48:59.871956 11408 net.cpp:148] Top shape: 24 160 14 14 (752640)
I0403 15:48:59.871971 11408 net.cpp:156] Memory required for data: 952225056
I0403 15:48:59.871990 11408 layer_factory.hpp:77] Creating layer inception_4b/3x3_reduce
I0403 15:48:59.872014 11408 net.cpp:91] Creating Layer inception_4b/3x3_reduce
I0403 15:48:59.872030 11408 net.cpp:425] inception_4b/3x3_reduce <- inception_4a/output_inception_4a/output_0_split_2
I0403 15:48:59.872053 11408 net.cpp:399] inception_4b/3x3_reduce -> inception_4b/3x3_reduce
I0403 15:48:59.873385 11408 net.cpp:141] Setting up inception_4b/3x3_reduce
I0403 15:48:59.873414 11408 net.cpp:148] Top shape: 24 112 14 14 (526848)
I0403 15:48:59.873430 11408 net.cpp:156] Memory required for data: 954332448
I0403 15:48:59.873447 11408 layer_factory.hpp:77] Creating layer inception_4b/relu_3x3_reduce
I0403 15:48:59.873467 11408 net.cpp:91] Creating Layer inception_4b/relu_3x3_reduce
I0403 15:48:59.873484 11408 net.cpp:425] inception_4b/relu_3x3_reduce <- inception_4b/3x3_reduce
I0403 15:48:59.873502 11408 net.cpp:386] inception_4b/relu_3x3_reduce -> inception_4b/3x3_reduce (in-place)
I0403 15:48:59.873780 11408 net.cpp:141] Setting up inception_4b/relu_3x3_reduce
I0403 15:48:59.873805 11408 net.cpp:148] Top shape: 24 112 14 14 (526848)
I0403 15:48:59.873821 11408 net.cpp:156] Memory required for data: 956439840
I0403 15:48:59.873836 11408 layer_factory.hpp:77] Creating layer inception_4b/3x3
I0403 15:48:59.873857 11408 net.cpp:91] Creating Layer inception_4b/3x3
I0403 15:48:59.873875 11408 net.cpp:425] inception_4b/3x3 <- inception_4b/3x3_reduce
I0403 15:48:59.873896 11408 net.cpp:399] inception_4b/3x3 -> inception_4b/3x3
I0403 15:48:59.876858 11408 net.cpp:141] Setting up inception_4b/3x3
I0403 15:48:59.876889 11408 net.cpp:148] Top shape: 24 224 14 14 (1053696)
I0403 15:48:59.876906 11408 net.cpp:156] Memory required for data: 960654624
I0403 15:48:59.876924 11408 layer_factory.hpp:77] Creating layer inception_4b/relu_3x3
I0403 15:48:59.876942 11408 net.cpp:91] Creating Layer inception_4b/relu_3x3
I0403 15:48:59.876958 11408 net.cpp:425] inception_4b/relu_3x3 <- inception_4b/3x3
I0403 15:48:59.876982 11408 net.cpp:386] inception_4b/relu_3x3 -> inception_4b/3x3 (in-place)
I0403 15:48:59.877161 11408 net.cpp:141] Setting up inception_4b/relu_3x3
I0403 15:48:59.877187 11408 net.cpp:148] Top shape: 24 224 14 14 (1053696)
I0403 15:48:59.877202 11408 net.cpp:156] Memory required for data: 964869408
I0403 15:48:59.877218 11408 layer_factory.hpp:77] Creating layer inception_4b/5x5_reduce
I0403 15:48:59.877240 11408 net.cpp:91] Creating Layer inception_4b/5x5_reduce
I0403 15:48:59.877257 11408 net.cpp:425] inception_4b/5x5_reduce <- inception_4a/output_inception_4a/output_0_split_3
I0403 15:48:59.877279 11408 net.cpp:399] inception_4b/5x5_reduce -> inception_4b/5x5_reduce
I0403 15:48:59.878381 11408 net.cpp:141] Setting up inception_4b/5x5_reduce
I0403 15:48:59.878407 11408 net.cpp:148] Top shape: 24 24 14 14 (112896)
I0403 15:48:59.878422 11408 net.cpp:156] Memory required for data: 965320992
I0403 15:48:59.878440 11408 layer_factory.hpp:77] Creating layer inception_4b/relu_5x5_reduce
I0403 15:48:59.878461 11408 net.cpp:91] Creating Layer inception_4b/relu_5x5_reduce
I0403 15:48:59.878491 11408 net.cpp:425] inception_4b/relu_5x5_reduce <- inception_4b/5x5_reduce
I0403 15:48:59.878510 11408 net.cpp:386] inception_4b/relu_5x5_reduce -> inception_4b/5x5_reduce (in-place)
I0403 15:48:59.878690 11408 net.cpp:141] Setting up inception_4b/relu_5x5_reduce
I0403 15:48:59.878713 11408 net.cpp:148] Top shape: 24 24 14 14 (112896)
I0403 15:48:59.878728 11408 net.cpp:156] Memory required for data: 965772576
I0403 15:48:59.878742 11408 layer_factory.hpp:77] Creating layer inception_4b/5x5
I0403 15:48:59.878769 11408 net.cpp:91] Creating Layer inception_4b/5x5
I0403 15:48:59.878787 11408 net.cpp:425] inception_4b/5x5 <- inception_4b/5x5_reduce
I0403 15:48:59.878805 11408 net.cpp:399] inception_4b/5x5 -> inception_4b/5x5
I0403 15:48:59.880033 11408 net.cpp:141] Setting up inception_4b/5x5
I0403 15:48:59.880061 11408 net.cpp:148] Top shape: 24 64 14 14 (301056)
I0403 15:48:59.880076 11408 net.cpp:156] Memory required for data: 966976800
I0403 15:48:59.880095 11408 layer_factory.hpp:77] Creating layer inception_4b/relu_5x5
I0403 15:48:59.880112 11408 net.cpp:91] Creating Layer inception_4b/relu_5x5
I0403 15:48:59.880128 11408 net.cpp:425] inception_4b/relu_5x5 <- inception_4b/5x5
I0403 15:48:59.880147 11408 net.cpp:386] inception_4b/relu_5x5 -> inception_4b/5x5 (in-place)
I0403 15:48:59.880429 11408 net.cpp:141] Setting up inception_4b/relu_5x5
I0403 15:48:59.880455 11408 net.cpp:148] Top shape: 24 64 14 14 (301056)
I0403 15:48:59.880470 11408 net.cpp:156] Memory required for data: 968181024
I0403 15:48:59.880486 11408 layer_factory.hpp:77] Creating layer inception_4b/pool
I0403 15:48:59.880503 11408 net.cpp:91] Creating Layer inception_4b/pool
I0403 15:48:59.880519 11408 net.cpp:425] inception_4b/pool <- inception_4a/output_inception_4a/output_0_split_4
I0403 15:48:59.880540 11408 net.cpp:399] inception_4b/pool -> inception_4b/pool
I0403 15:48:59.880605 11408 net.cpp:141] Setting up inception_4b/pool
I0403 15:48:59.880628 11408 net.cpp:148] Top shape: 24 512 14 14 (2408448)
I0403 15:48:59.880643 11408 net.cpp:156] Memory required for data: 977814816
I0403 15:48:59.880657 11408 layer_factory.hpp:77] Creating layer inception_4b/pool_proj
I0403 15:48:59.880681 11408 net.cpp:91] Creating Layer inception_4b/pool_proj
I0403 15:48:59.880698 11408 net.cpp:425] inception_4b/pool_proj <- inception_4b/pool
I0403 15:48:59.880717 11408 net.cpp:399] inception_4b/pool_proj -> inception_4b/pool_proj
I0403 15:48:59.881918 11408 net.cpp:141] Setting up inception_4b/pool_proj
I0403 15:48:59.881947 11408 net.cpp:148] Top shape: 24 64 14 14 (301056)
I0403 15:48:59.881963 11408 net.cpp:156] Memory required for data: 979019040
I0403 15:48:59.881984 11408 layer_factory.hpp:77] Creating layer inception_4b/relu_pool_proj
I0403 15:48:59.882006 11408 net.cpp:91] Creating Layer inception_4b/relu_pool_proj
I0403 15:48:59.882024 11408 net.cpp:425] inception_4b/relu_pool_proj <- inception_4b/pool_proj
I0403 15:48:59.882041 11408 net.cpp:386] inception_4b/relu_pool_proj -> inception_4b/pool_proj (in-place)
I0403 15:48:59.882217 11408 net.cpp:141] Setting up inception_4b/relu_pool_proj
I0403 15:48:59.882244 11408 net.cpp:148] Top shape: 24 64 14 14 (301056)
I0403 15:48:59.882261 11408 net.cpp:156] Memory required for data: 980223264
I0403 15:48:59.882275 11408 layer_factory.hpp:77] Creating layer inception_4b/output
I0403 15:48:59.882292 11408 net.cpp:91] Creating Layer inception_4b/output
I0403 15:48:59.882308 11408 net.cpp:425] inception_4b/output <- inception_4b/1x1
I0403 15:48:59.882324 11408 net.cpp:425] inception_4b/output <- inception_4b/3x3
I0403 15:48:59.882340 11408 net.cpp:425] inception_4b/output <- inception_4b/5x5
I0403 15:48:59.882356 11408 net.cpp:425] inception_4b/output <- inception_4b/pool_proj
I0403 15:48:59.882374 11408 net.cpp:399] inception_4b/output -> inception_4b/output
I0403 15:48:59.882419 11408 net.cpp:141] Setting up inception_4b/output
I0403 15:48:59.882443 11408 net.cpp:148] Top shape: 24 512 14 14 (2408448)
I0403 15:48:59.882458 11408 net.cpp:156] Memory required for data: 989857056
I0403 15:48:59.882488 11408 layer_factory.hpp:77] Creating layer inception_4b/output_inception_4b/output_0_split
I0403 15:48:59.882505 11408 net.cpp:91] Creating Layer inception_4b/output_inception_4b/output_0_split
I0403 15:48:59.882527 11408 net.cpp:425] inception_4b/output_inception_4b/output_0_split <- inception_4b/output
I0403 15:48:59.882545 11408 net.cpp:399] inception_4b/output_inception_4b/output_0_split -> inception_4b/output_inception_4b/output_0_split_0
I0403 15:48:59.882565 11408 net.cpp:399] inception_4b/output_inception_4b/output_0_split -> inception_4b/output_inception_4b/output_0_split_1
I0403 15:48:59.882585 11408 net.cpp:399] inception_4b/output_inception_4b/output_0_split -> inception_4b/output_inception_4b/output_0_split_2
I0403 15:48:59.882606 11408 net.cpp:399] inception_4b/output_inception_4b/output_0_split -> inception_4b/output_inception_4b/output_0_split_3
I0403 15:48:59.882689 11408 net.cpp:141] Setting up inception_4b/output_inception_4b/output_0_split
I0403 15:48:59.882711 11408 net.cpp:148] Top shape: 24 512 14 14 (2408448)
I0403 15:48:59.882727 11408 net.cpp:148] Top shape: 24 512 14 14 (2408448)
I0403 15:48:59.882743 11408 net.cpp:148] Top shape: 24 512 14 14 (2408448)
I0403 15:48:59.882758 11408 net.cpp:148] Top shape: 24 512 14 14 (2408448)
I0403 15:48:59.882772 11408 net.cpp:156] Memory required for data: 1028392224
I0403 15:48:59.882786 11408 layer_factory.hpp:77] Creating layer inception_4c/1x1
I0403 15:48:59.882822 11408 net.cpp:91] Creating Layer inception_4c/1x1
I0403 15:48:59.882838 11408 net.cpp:425] inception_4c/1x1 <- inception_4b/output_inception_4b/output_0_split_0
I0403 15:48:59.882860 11408 net.cpp:399] inception_4c/1x1 -> inception_4c/1x1
I0403 15:48:59.884344 11408 net.cpp:141] Setting up inception_4c/1x1
I0403 15:48:59.884377 11408 net.cpp:148] Top shape: 24 128 14 14 (602112)
I0403 15:48:59.884393 11408 net.cpp:156] Memory required for data: 1030800672
I0403 15:48:59.884413 11408 layer_factory.hpp:77] Creating layer inception_4c/relu_1x1
I0403 15:48:59.884430 11408 net.cpp:91] Creating Layer inception_4c/relu_1x1
I0403 15:48:59.884446 11408 net.cpp:425] inception_4c/relu_1x1 <- inception_4c/1x1
I0403 15:48:59.884464 11408 net.cpp:386] inception_4c/relu_1x1 -> inception_4c/1x1 (in-place)
I0403 15:48:59.884651 11408 net.cpp:141] Setting up inception_4c/relu_1x1
I0403 15:48:59.884677 11408 net.cpp:148] Top shape: 24 128 14 14 (602112)
I0403 15:48:59.884691 11408 net.cpp:156] Memory required for data: 1033209120
I0403 15:48:59.884707 11408 layer_factory.hpp:77] Creating layer inception_4c/3x3_reduce
I0403 15:48:59.884729 11408 net.cpp:91] Creating Layer inception_4c/3x3_reduce
I0403 15:48:59.884747 11408 net.cpp:425] inception_4c/3x3_reduce <- inception_4b/output_inception_4b/output_0_split_1
I0403 15:48:59.884768 11408 net.cpp:399] inception_4c/3x3_reduce -> inception_4c/3x3_reduce
I0403 15:48:59.886778 11408 net.cpp:141] Setting up inception_4c/3x3_reduce
I0403 15:48:59.886807 11408 net.cpp:148] Top shape: 24 128 14 14 (602112)
I0403 15:48:59.886823 11408 net.cpp:156] Memory required for data: 1035617568
I0403 15:48:59.886842 11408 layer_factory.hpp:77] Creating layer inception_4c/relu_3x3_reduce
I0403 15:48:59.886863 11408 net.cpp:91] Creating Layer inception_4c/relu_3x3_reduce
I0403 15:48:59.886880 11408 net.cpp:425] inception_4c/relu_3x3_reduce <- inception_4c/3x3_reduce
I0403 15:48:59.886898 11408 net.cpp:386] inception_4c/relu_3x3_reduce -> inception_4c/3x3_reduce (in-place)
I0403 15:48:59.887194 11408 net.cpp:141] Setting up inception_4c/relu_3x3_reduce
I0403 15:48:59.887223 11408 net.cpp:148] Top shape: 24 128 14 14 (602112)
I0403 15:48:59.887238 11408 net.cpp:156] Memory required for data: 1038026016
I0403 15:48:59.887253 11408 layer_factory.hpp:77] Creating layer inception_4c/3x3
I0403 15:48:59.887275 11408 net.cpp:91] Creating Layer inception_4c/3x3
I0403 15:48:59.887293 11408 net.cpp:425] inception_4c/3x3 <- inception_4c/3x3_reduce
I0403 15:48:59.887315 11408 net.cpp:399] inception_4c/3x3 -> inception_4c/3x3
I0403 15:48:59.891041 11408 net.cpp:141] Setting up inception_4c/3x3
I0403 15:48:59.891083 11408 net.cpp:148] Top shape: 24 256 14 14 (1204224)
I0403 15:48:59.891099 11408 net.cpp:156] Memory required for data: 1042842912
I0403 15:48:59.891134 11408 layer_factory.hpp:77] Creating layer inception_4c/relu_3x3
I0403 15:48:59.891157 11408 net.cpp:91] Creating Layer inception_4c/relu_3x3
I0403 15:48:59.891175 11408 net.cpp:425] inception_4c/relu_3x3 <- inception_4c/3x3
I0403 15:48:59.891192 11408 net.cpp:386] inception_4c/relu_3x3 -> inception_4c/3x3 (in-place)
I0403 15:48:59.891381 11408 net.cpp:141] Setting up inception_4c/relu_3x3
I0403 15:48:59.891407 11408 net.cpp:148] Top shape: 24 256 14 14 (1204224)
I0403 15:48:59.891422 11408 net.cpp:156] Memory required for data: 1047659808
I0403 15:48:59.891436 11408 layer_factory.hpp:77] Creating layer inception_4c/5x5_reduce
I0403 15:48:59.891458 11408 net.cpp:91] Creating Layer inception_4c/5x5_reduce
I0403 15:48:59.891476 11408 net.cpp:425] inception_4c/5x5_reduce <- inception_4b/output_inception_4b/output_0_split_2
I0403 15:48:59.891499 11408 net.cpp:399] inception_4c/5x5_reduce -> inception_4c/5x5_reduce
I0403 15:48:59.892624 11408 net.cpp:141] Setting up inception_4c/5x5_reduce
I0403 15:48:59.892653 11408 net.cpp:148] Top shape: 24 24 14 14 (112896)
I0403 15:48:59.892668 11408 net.cpp:156] Memory required for data: 1048111392
I0403 15:48:59.892688 11408 layer_factory.hpp:77] Creating layer inception_4c/relu_5x5_reduce
I0403 15:48:59.892709 11408 net.cpp:91] Creating Layer inception_4c/relu_5x5_reduce
I0403 15:48:59.892726 11408 net.cpp:425] inception_4c/relu_5x5_reduce <- inception_4c/5x5_reduce
I0403 15:48:59.892745 11408 net.cpp:386] inception_4c/relu_5x5_reduce -> inception_4c/5x5_reduce (in-place)
I0403 15:48:59.892933 11408 net.cpp:141] Setting up inception_4c/relu_5x5_reduce
I0403 15:48:59.892958 11408 net.cpp:148] Top shape: 24 24 14 14 (112896)
I0403 15:48:59.892973 11408 net.cpp:156] Memory required for data: 1048562976
I0403 15:48:59.892993 11408 layer_factory.hpp:77] Creating layer inception_4c/5x5
I0403 15:48:59.893018 11408 net.cpp:91] Creating Layer inception_4c/5x5
I0403 15:48:59.893035 11408 net.cpp:425] inception_4c/5x5 <- inception_4c/5x5_reduce
I0403 15:48:59.893055 11408 net.cpp:399] inception_4c/5x5 -> inception_4c/5x5
I0403 15:48:59.894325 11408 net.cpp:141] Setting up inception_4c/5x5
I0403 15:48:59.894356 11408 net.cpp:148] Top shape: 24 64 14 14 (301056)
I0403 15:48:59.894373 11408 net.cpp:156] Memory required for data: 1049767200
I0403 15:48:59.894392 11408 layer_factory.hpp:77] Creating layer inception_4c/relu_5x5
I0403 15:48:59.894410 11408 net.cpp:91] Creating Layer inception_4c/relu_5x5
I0403 15:48:59.894428 11408 net.cpp:425] inception_4c/relu_5x5 <- inception_4c/5x5
I0403 15:48:59.894444 11408 net.cpp:386] inception_4c/relu_5x5 -> inception_4c/5x5 (in-place)
I0403 15:48:59.894742 11408 net.cpp:141] Setting up inception_4c/relu_5x5
I0403 15:48:59.894772 11408 net.cpp:148] Top shape: 24 64 14 14 (301056)
I0403 15:48:59.894788 11408 net.cpp:156] Memory required for data: 1050971424
I0403 15:48:59.894804 11408 layer_factory.hpp:77] Creating layer inception_4c/pool
I0403 15:48:59.894821 11408 net.cpp:91] Creating Layer inception_4c/pool
I0403 15:48:59.894840 11408 net.cpp:425] inception_4c/pool <- inception_4b/output_inception_4b/output_0_split_3
I0403 15:48:59.894857 11408 net.cpp:399] inception_4c/pool -> inception_4c/pool
I0403 15:48:59.894927 11408 net.cpp:141] Setting up inception_4c/pool
I0403 15:48:59.894950 11408 net.cpp:148] Top shape: 24 512 14 14 (2408448)
I0403 15:48:59.894965 11408 net.cpp:156] Memory required for data: 1060605216
I0403 15:48:59.894984 11408 layer_factory.hpp:77] Creating layer inception_4c/pool_proj
I0403 15:48:59.895009 11408 net.cpp:91] Creating Layer inception_4c/pool_proj
I0403 15:48:59.895027 11408 net.cpp:425] inception_4c/pool_proj <- inception_4c/pool
I0403 15:48:59.895050 11408 net.cpp:399] inception_4c/pool_proj -> inception_4c/pool_proj
I0403 15:48:59.896304 11408 net.cpp:141] Setting up inception_4c/pool_proj
I0403 15:48:59.896332 11408 net.cpp:148] Top shape: 24 64 14 14 (301056)
I0403 15:48:59.896363 11408 net.cpp:156] Memory required for data: 1061809440
I0403 15:48:59.896383 11408 layer_factory.hpp:77] Creating layer inception_4c/relu_pool_proj
I0403 15:48:59.896405 11408 net.cpp:91] Creating Layer inception_4c/relu_pool_proj
I0403 15:48:59.896422 11408 net.cpp:425] inception_4c/relu_pool_proj <- inception_4c/pool_proj
I0403 15:48:59.896440 11408 net.cpp:386] inception_4c/relu_pool_proj -> inception_4c/pool_proj (in-place)
I0403 15:48:59.896628 11408 net.cpp:141] Setting up inception_4c/relu_pool_proj
I0403 15:48:59.896656 11408 net.cpp:148] Top shape: 24 64 14 14 (301056)
I0403 15:48:59.896672 11408 net.cpp:156] Memory required for data: 1063013664
I0403 15:48:59.896687 11408 layer_factory.hpp:77] Creating layer inception_4c/output
I0403 15:48:59.896704 11408 net.cpp:91] Creating Layer inception_4c/output
I0403 15:48:59.896720 11408 net.cpp:425] inception_4c/output <- inception_4c/1x1
I0403 15:48:59.896738 11408 net.cpp:425] inception_4c/output <- inception_4c/3x3
I0403 15:48:59.896754 11408 net.cpp:425] inception_4c/output <- inception_4c/5x5
I0403 15:48:59.896770 11408 net.cpp:425] inception_4c/output <- inception_4c/pool_proj
I0403 15:48:59.896787 11408 net.cpp:399] inception_4c/output -> inception_4c/output
I0403 15:48:59.896836 11408 net.cpp:141] Setting up inception_4c/output
I0403 15:48:59.896859 11408 net.cpp:148] Top shape: 24 512 14 14 (2408448)
I0403 15:48:59.896874 11408 net.cpp:156] Memory required for data: 1072647456
I0403 15:48:59.896889 11408 layer_factory.hpp:77] Creating layer inception_4c/output_inception_4c/output_0_split
I0403 15:48:59.896906 11408 net.cpp:91] Creating Layer inception_4c/output_inception_4c/output_0_split
I0403 15:48:59.896922 11408 net.cpp:425] inception_4c/output_inception_4c/output_0_split <- inception_4c/output
I0403 15:48:59.896942 11408 net.cpp:399] inception_4c/output_inception_4c/output_0_split -> inception_4c/output_inception_4c/output_0_split_0
I0403 15:48:59.896962 11408 net.cpp:399] inception_4c/output_inception_4c/output_0_split -> inception_4c/output_inception_4c/output_0_split_1
I0403 15:48:59.896987 11408 net.cpp:399] inception_4c/output_inception_4c/output_0_split -> inception_4c/output_inception_4c/output_0_split_2
I0403 15:48:59.897009 11408 net.cpp:399] inception_4c/output_inception_4c/output_0_split -> inception_4c/output_inception_4c/output_0_split_3
I0403 15:48:59.897099 11408 net.cpp:141] Setting up inception_4c/output_inception_4c/output_0_split
I0403 15:48:59.897121 11408 net.cpp:148] Top shape: 24 512 14 14 (2408448)
I0403 15:48:59.897138 11408 net.cpp:148] Top shape: 24 512 14 14 (2408448)
I0403 15:48:59.897155 11408 net.cpp:148] Top shape: 24 512 14 14 (2408448)
I0403 15:48:59.897171 11408 net.cpp:148] Top shape: 24 512 14 14 (2408448)
I0403 15:48:59.897184 11408 net.cpp:156] Memory required for data: 1111182624
I0403 15:48:59.897198 11408 layer_factory.hpp:77] Creating layer inception_4d/1x1
I0403 15:48:59.897222 11408 net.cpp:91] Creating Layer inception_4d/1x1
I0403 15:48:59.897240 11408 net.cpp:425] inception_4d/1x1 <- inception_4c/output_inception_4c/output_0_split_0
I0403 15:48:59.897261 11408 net.cpp:399] inception_4d/1x1 -> inception_4d/1x1
I0403 15:48:59.898687 11408 net.cpp:141] Setting up inception_4d/1x1
I0403 15:48:59.898715 11408 net.cpp:148] Top shape: 24 112 14 14 (526848)
I0403 15:48:59.898731 11408 net.cpp:156] Memory required for data: 1113290016
I0403 15:48:59.898751 11408 layer_factory.hpp:77] Creating layer inception_4d/relu_1x1
I0403 15:48:59.898771 11408 net.cpp:91] Creating Layer inception_4d/relu_1x1
I0403 15:48:59.898787 11408 net.cpp:425] inception_4d/relu_1x1 <- inception_4d/1x1
I0403 15:48:59.898810 11408 net.cpp:386] inception_4d/relu_1x1 -> inception_4d/1x1 (in-place)
I0403 15:48:59.899009 11408 net.cpp:141] Setting up inception_4d/relu_1x1
I0403 15:48:59.899035 11408 net.cpp:148] Top shape: 24 112 14 14 (526848)
I0403 15:48:59.899051 11408 net.cpp:156] Memory required for data: 1115397408
I0403 15:48:59.899066 11408 layer_factory.hpp:77] Creating layer inception_4d/3x3_reduce
I0403 15:48:59.899104 11408 net.cpp:91] Creating Layer inception_4d/3x3_reduce
I0403 15:48:59.899123 11408 net.cpp:425] inception_4d/3x3_reduce <- inception_4c/output_inception_4c/output_0_split_1
I0403 15:48:59.899147 11408 net.cpp:399] inception_4d/3x3_reduce -> inception_4d/3x3_reduce
I0403 15:48:59.900696 11408 net.cpp:141] Setting up inception_4d/3x3_reduce
I0403 15:48:59.900723 11408 net.cpp:148] Top shape: 24 144 14 14 (677376)
I0403 15:48:59.900739 11408 net.cpp:156] Memory required for data: 1118106912
I0403 15:48:59.900773 11408 layer_factory.hpp:77] Creating layer inception_4d/relu_3x3_reduce
I0403 15:48:59.900791 11408 net.cpp:91] Creating Layer inception_4d/relu_3x3_reduce
I0403 15:48:59.900807 11408 net.cpp:425] inception_4d/relu_3x3_reduce <- inception_4d/3x3_reduce
I0403 15:48:59.900825 11408 net.cpp:386] inception_4d/relu_3x3_reduce -> inception_4d/3x3_reduce (in-place)
I0403 15:48:59.901116 11408 net.cpp:141] Setting up inception_4d/relu_3x3_reduce
I0403 15:48:59.901144 11408 net.cpp:148] Top shape: 24 144 14 14 (677376)
I0403 15:48:59.901160 11408 net.cpp:156] Memory required for data: 1120816416
I0403 15:48:59.901175 11408 layer_factory.hpp:77] Creating layer inception_4d/3x3
I0403 15:48:59.901196 11408 net.cpp:91] Creating Layer inception_4d/3x3
I0403 15:48:59.901214 11408 net.cpp:425] inception_4d/3x3 <- inception_4d/3x3_reduce
I0403 15:48:59.901233 11408 net.cpp:399] inception_4d/3x3 -> inception_4d/3x3
I0403 15:48:59.905416 11408 net.cpp:141] Setting up inception_4d/3x3
I0403 15:48:59.905443 11408 net.cpp:148] Top shape: 24 288 14 14 (1354752)
I0403 15:48:59.905458 11408 net.cpp:156] Memory required for data: 1126235424
I0403 15:48:59.905475 11408 layer_factory.hpp:77] Creating layer inception_4d/relu_3x3
I0403 15:48:59.905493 11408 net.cpp:91] Creating Layer inception_4d/relu_3x3
I0403 15:48:59.905508 11408 net.cpp:425] inception_4d/relu_3x3 <- inception_4d/3x3
I0403 15:48:59.905526 11408 net.cpp:386] inception_4d/relu_3x3 -> inception_4d/3x3 (in-place)
I0403 15:48:59.905704 11408 net.cpp:141] Setting up inception_4d/relu_3x3
I0403 15:48:59.905727 11408 net.cpp:148] Top shape: 24 288 14 14 (1354752)
I0403 15:48:59.905741 11408 net.cpp:156] Memory required for data: 1131654432
I0403 15:48:59.905756 11408 layer_factory.hpp:77] Creating layer inception_4d/5x5_reduce
I0403 15:48:59.905781 11408 net.cpp:91] Creating Layer inception_4d/5x5_reduce
I0403 15:48:59.905797 11408 net.cpp:425] inception_4d/5x5_reduce <- inception_4c/output_inception_4c/output_0_split_2
I0403 15:48:59.905817 11408 net.cpp:399] inception_4d/5x5_reduce -> inception_4d/5x5_reduce
I0403 15:48:59.906925 11408 net.cpp:141] Setting up inception_4d/5x5_reduce
I0403 15:48:59.906951 11408 net.cpp:148] Top shape: 24 32 14 14 (150528)
I0403 15:48:59.906966 11408 net.cpp:156] Memory required for data: 1132256544
I0403 15:48:59.906988 11408 layer_factory.hpp:77] Creating layer inception_4d/relu_5x5_reduce
I0403 15:48:59.907007 11408 net.cpp:91] Creating Layer inception_4d/relu_5x5_reduce
I0403 15:48:59.907023 11408 net.cpp:425] inception_4d/relu_5x5_reduce <- inception_4d/5x5_reduce
I0403 15:48:59.907042 11408 net.cpp:386] inception_4d/relu_5x5_reduce -> inception_4d/5x5_reduce (in-place)
I0403 15:48:59.907224 11408 net.cpp:141] Setting up inception_4d/relu_5x5_reduce
I0403 15:48:59.907248 11408 net.cpp:148] Top shape: 24 32 14 14 (150528)
I0403 15:48:59.907263 11408 net.cpp:156] Memory required for data: 1132858656
I0403 15:48:59.907276 11408 layer_factory.hpp:77] Creating layer inception_4d/5x5
I0403 15:48:59.907297 11408 net.cpp:91] Creating Layer inception_4d/5x5
I0403 15:48:59.907315 11408 net.cpp:425] inception_4d/5x5 <- inception_4d/5x5_reduce
I0403 15:48:59.907335 11408 net.cpp:399] inception_4d/5x5 -> inception_4d/5x5
I0403 15:48:59.908762 11408 net.cpp:141] Setting up inception_4d/5x5
I0403 15:48:59.908788 11408 net.cpp:148] Top shape: 24 64 14 14 (301056)
I0403 15:48:59.908803 11408 net.cpp:156] Memory required for data: 1134062880
I0403 15:48:59.908821 11408 layer_factory.hpp:77] Creating layer inception_4d/relu_5x5
I0403 15:48:59.908855 11408 net.cpp:91] Creating Layer inception_4d/relu_5x5
I0403 15:48:59.908872 11408 net.cpp:425] inception_4d/relu_5x5 <- inception_4d/5x5
I0403 15:48:59.908890 11408 net.cpp:386] inception_4d/relu_5x5 -> inception_4d/5x5 (in-place)
I0403 15:48:59.909193 11408 net.cpp:141] Setting up inception_4d/relu_5x5
I0403 15:48:59.909219 11408 net.cpp:148] Top shape: 24 64 14 14 (301056)
I0403 15:48:59.909234 11408 net.cpp:156] Memory required for data: 1135267104
I0403 15:48:59.909248 11408 layer_factory.hpp:77] Creating layer inception_4d/pool
I0403 15:48:59.909267 11408 net.cpp:91] Creating Layer inception_4d/pool
I0403 15:48:59.909283 11408 net.cpp:425] inception_4d/pool <- inception_4c/output_inception_4c/output_0_split_3
I0403 15:48:59.909301 11408 net.cpp:399] inception_4d/pool -> inception_4d/pool
I0403 15:48:59.909370 11408 net.cpp:141] Setting up inception_4d/pool
I0403 15:48:59.909394 11408 net.cpp:148] Top shape: 24 512 14 14 (2408448)
I0403 15:48:59.909407 11408 net.cpp:156] Memory required for data: 1144900896
I0403 15:48:59.909421 11408 layer_factory.hpp:77] Creating layer inception_4d/pool_proj
I0403 15:48:59.909442 11408 net.cpp:91] Creating Layer inception_4d/pool_proj
I0403 15:48:59.909459 11408 net.cpp:425] inception_4d/pool_proj <- inception_4d/pool
I0403 15:48:59.909481 11408 net.cpp:399] inception_4d/pool_proj -> inception_4d/pool_proj
I0403 15:48:59.911213 11408 net.cpp:141] Setting up inception_4d/pool_proj
I0403 15:48:59.911242 11408 net.cpp:148] Top shape: 24 64 14 14 (301056)
I0403 15:48:59.911257 11408 net.cpp:156] Memory required for data: 1146105120
I0403 15:48:59.911274 11408 layer_factory.hpp:77] Creating layer inception_4d/relu_pool_proj
I0403 15:48:59.911293 11408 net.cpp:91] Creating Layer inception_4d/relu_pool_proj
I0403 15:48:59.911309 11408 net.cpp:425] inception_4d/relu_pool_proj <- inception_4d/pool_proj
I0403 15:48:59.911327 11408 net.cpp:386] inception_4d/relu_pool_proj -> inception_4d/pool_proj (in-place)
I0403 15:48:59.911505 11408 net.cpp:141] Setting up inception_4d/relu_pool_proj
I0403 15:48:59.911530 11408 net.cpp:148] Top shape: 24 64 14 14 (301056)
I0403 15:48:59.911543 11408 net.cpp:156] Memory required for data: 1147309344
I0403 15:48:59.911558 11408 layer_factory.hpp:77] Creating layer inception_4d/output
I0403 15:48:59.911574 11408 net.cpp:91] Creating Layer inception_4d/output
I0403 15:48:59.911589 11408 net.cpp:425] inception_4d/output <- inception_4d/1x1
I0403 15:48:59.911607 11408 net.cpp:425] inception_4d/output <- inception_4d/3x3
I0403 15:48:59.911623 11408 net.cpp:425] inception_4d/output <- inception_4d/5x5
I0403 15:48:59.911638 11408 net.cpp:425] inception_4d/output <- inception_4d/pool_proj
I0403 15:48:59.911654 11408 net.cpp:399] inception_4d/output -> inception_4d/output
I0403 15:48:59.911701 11408 net.cpp:141] Setting up inception_4d/output
I0403 15:48:59.911725 11408 net.cpp:148] Top shape: 24 528 14 14 (2483712)
I0403 15:48:59.911738 11408 net.cpp:156] Memory required for data: 1157244192
I0403 15:48:59.911752 11408 layer_factory.hpp:77] Creating layer inception_4d/output_inception_4d/output_0_split
I0403 15:48:59.911769 11408 net.cpp:91] Creating Layer inception_4d/output_inception_4d/output_0_split
I0403 15:48:59.911784 11408 net.cpp:425] inception_4d/output_inception_4d/output_0_split <- inception_4d/output
I0403 15:48:59.911804 11408 net.cpp:399] inception_4d/output_inception_4d/output_0_split -> inception_4d/output_inception_4d/output_0_split_0
I0403 15:48:59.911825 11408 net.cpp:399] inception_4d/output_inception_4d/output_0_split -> inception_4d/output_inception_4d/output_0_split_1
I0403 15:48:59.911845 11408 net.cpp:399] inception_4d/output_inception_4d/output_0_split -> inception_4d/output_inception_4d/output_0_split_2
I0403 15:48:59.911864 11408 net.cpp:399] inception_4d/output_inception_4d/output_0_split -> inception_4d/output_inception_4d/output_0_split_3
I0403 15:48:59.911883 11408 net.cpp:399] inception_4d/output_inception_4d/output_0_split -> inception_4d/output_inception_4d/output_0_split_4
I0403 15:48:59.911986 11408 net.cpp:141] Setting up inception_4d/output_inception_4d/output_0_split
I0403 15:48:59.912024 11408 net.cpp:148] Top shape: 24 528 14 14 (2483712)
I0403 15:48:59.912040 11408 net.cpp:148] Top shape: 24 528 14 14 (2483712)
I0403 15:48:59.912055 11408 net.cpp:148] Top shape: 24 528 14 14 (2483712)
I0403 15:48:59.912070 11408 net.cpp:148] Top shape: 24 528 14 14 (2483712)
I0403 15:48:59.912084 11408 net.cpp:148] Top shape: 24 528 14 14 (2483712)
I0403 15:48:59.912097 11408 net.cpp:156] Memory required for data: 1206918432
I0403 15:48:59.912111 11408 layer_factory.hpp:77] Creating layer loss2/ave_pool
I0403 15:48:59.912128 11408 net.cpp:91] Creating Layer loss2/ave_pool
I0403 15:48:59.912143 11408 net.cpp:425] loss2/ave_pool <- inception_4d/output_inception_4d/output_0_split_0
I0403 15:48:59.912163 11408 net.cpp:399] loss2/ave_pool -> loss2/ave_pool
I0403 15:48:59.912470 11408 net.cpp:141] Setting up loss2/ave_pool
I0403 15:48:59.912497 11408 net.cpp:148] Top shape: 24 528 4 4 (202752)
I0403 15:48:59.912510 11408 net.cpp:156] Memory required for data: 1207729440
I0403 15:48:59.912525 11408 layer_factory.hpp:77] Creating layer loss2/conv
I0403 15:48:59.912546 11408 net.cpp:91] Creating Layer loss2/conv
I0403 15:48:59.912564 11408 net.cpp:425] loss2/conv <- loss2/ave_pool
I0403 15:48:59.912585 11408 net.cpp:399] loss2/conv -> loss2/conv
I0403 15:48:59.914439 11408 net.cpp:141] Setting up loss2/conv
I0403 15:48:59.914468 11408 net.cpp:148] Top shape: 24 128 4 4 (49152)
I0403 15:48:59.914484 11408 net.cpp:156] Memory required for data: 1207926048
I0403 15:48:59.914501 11408 layer_factory.hpp:77] Creating layer loss2/relu_conv
I0403 15:48:59.914520 11408 net.cpp:91] Creating Layer loss2/relu_conv
I0403 15:48:59.914537 11408 net.cpp:425] loss2/relu_conv <- loss2/conv
I0403 15:48:59.914554 11408 net.cpp:386] loss2/relu_conv -> loss2/conv (in-place)
I0403 15:48:59.914832 11408 net.cpp:141] Setting up loss2/relu_conv
I0403 15:48:59.914857 11408 net.cpp:148] Top shape: 24 128 4 4 (49152)
I0403 15:48:59.914872 11408 net.cpp:156] Memory required for data: 1208122656
I0403 15:48:59.914886 11408 layer_factory.hpp:77] Creating layer loss2/fc
I0403 15:48:59.914907 11408 net.cpp:91] Creating Layer loss2/fc
I0403 15:48:59.914924 11408 net.cpp:425] loss2/fc <- loss2/conv
I0403 15:48:59.914943 11408 net.cpp:399] loss2/fc -> loss2/fc
I0403 15:48:59.932349 11408 net.cpp:141] Setting up loss2/fc
I0403 15:48:59.932380 11408 net.cpp:148] Top shape: 24 1024 (24576)
I0403 15:48:59.932396 11408 net.cpp:156] Memory required for data: 1208220960
I0403 15:48:59.932415 11408 layer_factory.hpp:77] Creating layer loss2/relu_fc
I0403 15:48:59.932432 11408 net.cpp:91] Creating Layer loss2/relu_fc
I0403 15:48:59.932447 11408 net.cpp:425] loss2/relu_fc <- loss2/fc
I0403 15:48:59.932467 11408 net.cpp:386] loss2/relu_fc -> loss2/fc (in-place)
I0403 15:48:59.932888 11408 net.cpp:141] Setting up loss2/relu_fc
I0403 15:48:59.932912 11408 net.cpp:148] Top shape: 24 1024 (24576)
I0403 15:48:59.932927 11408 net.cpp:156] Memory required for data: 1208319264
I0403 15:48:59.932942 11408 layer_factory.hpp:77] Creating layer loss2/drop_fc
I0403 15:48:59.932960 11408 net.cpp:91] Creating Layer loss2/drop_fc
I0403 15:48:59.932976 11408 net.cpp:425] loss2/drop_fc <- loss2/fc
I0403 15:48:59.932999 11408 net.cpp:386] loss2/drop_fc -> loss2/fc (in-place)
I0403 15:48:59.933048 11408 net.cpp:141] Setting up loss2/drop_fc
I0403 15:48:59.933073 11408 net.cpp:148] Top shape: 24 1024 (24576)
I0403 15:48:59.933089 11408 net.cpp:156] Memory required for data: 1208417568
I0403 15:48:59.933102 11408 layer_factory.hpp:77] Creating layer loss2/classifier_plantvillage
I0403 15:48:59.933120 11408 net.cpp:91] Creating Layer loss2/classifier_plantvillage
I0403 15:48:59.933135 11408 net.cpp:425] loss2/classifier_plantvillage <- loss2/fc
I0403 15:48:59.933156 11408 net.cpp:399] loss2/classifier_plantvillage -> loss2/classifier_plantvillage
I0403 15:48:59.933549 11408 net.cpp:141] Setting up loss2/classifier_plantvillage
I0403 15:48:59.933573 11408 net.cpp:148] Top shape: 24 38 (912)
I0403 15:48:59.933604 11408 net.cpp:156] Memory required for data: 1208421216
I0403 15:48:59.933621 11408 layer_factory.hpp:77] Creating layer loss2/classifier_plantvillage_loss2/classifier_plantvillage_0_split
I0403 15:48:59.933641 11408 net.cpp:91] Creating Layer loss2/classifier_plantvillage_loss2/classifier_plantvillage_0_split
I0403 15:48:59.933657 11408 net.cpp:425] loss2/classifier_plantvillage_loss2/classifier_plantvillage_0_split <- loss2/classifier_plantvillage
I0403 15:48:59.933676 11408 net.cpp:399] loss2/classifier_plantvillage_loss2/classifier_plantvillage_0_split -> loss2/classifier_plantvillage_loss2/classifier_plantvillage_0_split_0
I0403 15:48:59.933697 11408 net.cpp:399] loss2/classifier_plantvillage_loss2/classifier_plantvillage_0_split -> loss2/classifier_plantvillage_loss2/classifier_plantvillage_0_split_1
I0403 15:48:59.933717 11408 net.cpp:399] loss2/classifier_plantvillage_loss2/classifier_plantvillage_0_split -> loss2/classifier_plantvillage_loss2/classifier_plantvillage_0_split_2
I0403 15:48:59.933792 11408 net.cpp:141] Setting up loss2/classifier_plantvillage_loss2/classifier_plantvillage_0_split
I0403 15:48:59.933815 11408 net.cpp:148] Top shape: 24 38 (912)
I0403 15:48:59.933830 11408 net.cpp:148] Top shape: 24 38 (912)
I0403 15:48:59.933845 11408 net.cpp:148] Top shape: 24 38 (912)
I0403 15:48:59.933859 11408 net.cpp:156] Memory required for data: 1208432160
I0403 15:48:59.933873 11408 layer_factory.hpp:77] Creating layer inception_4e/1x1
I0403 15:48:59.933894 11408 net.cpp:91] Creating Layer inception_4e/1x1
I0403 15:48:59.933912 11408 net.cpp:425] inception_4e/1x1 <- inception_4d/output_inception_4d/output_0_split_1
I0403 15:48:59.933929 11408 net.cpp:399] inception_4e/1x1 -> inception_4e/1x1
I0403 15:48:59.935725 11408 net.cpp:141] Setting up inception_4e/1x1
I0403 15:48:59.935753 11408 net.cpp:148] Top shape: 24 256 14 14 (1204224)
I0403 15:48:59.935772 11408 net.cpp:156] Memory required for data: 1213249056
I0403 15:48:59.935791 11408 layer_factory.hpp:77] Creating layer inception_4e/relu_1x1
I0403 15:48:59.935808 11408 net.cpp:91] Creating Layer inception_4e/relu_1x1
I0403 15:48:59.935825 11408 net.cpp:425] inception_4e/relu_1x1 <- inception_4e/1x1
I0403 15:48:59.935842 11408 net.cpp:386] inception_4e/relu_1x1 -> inception_4e/1x1 (in-place)
I0403 15:48:59.936144 11408 net.cpp:141] Setting up inception_4e/relu_1x1
I0403 15:48:59.936169 11408 net.cpp:148] Top shape: 24 256 14 14 (1204224)
I0403 15:48:59.936188 11408 net.cpp:156] Memory required for data: 1218065952
I0403 15:48:59.936205 11408 layer_factory.hpp:77] Creating layer inception_4e/3x3_reduce
I0403 15:48:59.936224 11408 net.cpp:91] Creating Layer inception_4e/3x3_reduce
I0403 15:48:59.936241 11408 net.cpp:425] inception_4e/3x3_reduce <- inception_4d/output_inception_4d/output_0_split_2
I0403 15:48:59.936262 11408 net.cpp:399] inception_4e/3x3_reduce -> inception_4e/3x3_reduce
I0403 15:48:59.938390 11408 net.cpp:141] Setting up inception_4e/3x3_reduce
I0403 15:48:59.938418 11408 net.cpp:148] Top shape: 24 160 14 14 (752640)
I0403 15:48:59.938434 11408 net.cpp:156] Memory required for data: 1221076512
I0403 15:48:59.938452 11408 layer_factory.hpp:77] Creating layer inception_4e/relu_3x3_reduce
I0403 15:48:59.938473 11408 net.cpp:91] Creating Layer inception_4e/relu_3x3_reduce
I0403 15:48:59.938490 11408 net.cpp:425] inception_4e/relu_3x3_reduce <- inception_4e/3x3_reduce
I0403 15:48:59.938508 11408 net.cpp:386] inception_4e/relu_3x3_reduce -> inception_4e/3x3_reduce (in-place)
I0403 15:48:59.938693 11408 net.cpp:141] Setting up inception_4e/relu_3x3_reduce
I0403 15:48:59.938719 11408 net.cpp:148] Top shape: 24 160 14 14 (752640)
I0403 15:48:59.938735 11408 net.cpp:156] Memory required for data: 1224087072
I0403 15:48:59.938750 11408 layer_factory.hpp:77] Creating layer inception_4e/3x3
I0403 15:48:59.938771 11408 net.cpp:91] Creating Layer inception_4e/3x3
I0403 15:48:59.938788 11408 net.cpp:425] inception_4e/3x3 <- inception_4e/3x3_reduce
I0403 15:48:59.938807 11408 net.cpp:399] inception_4e/3x3 -> inception_4e/3x3
I0403 15:48:59.943842 11408 net.cpp:141] Setting up inception_4e/3x3
I0403 15:48:59.943886 11408 net.cpp:148] Top shape: 24 320 14 14 (1505280)
I0403 15:48:59.943903 11408 net.cpp:156] Memory required for data: 1230108192
I0403 15:48:59.943922 11408 layer_factory.hpp:77] Creating layer inception_4e/relu_3x3
I0403 15:48:59.943940 11408 net.cpp:91] Creating Layer inception_4e/relu_3x3
I0403 15:48:59.943956 11408 net.cpp:425] inception_4e/relu_3x3 <- inception_4e/3x3
I0403 15:48:59.943974 11408 net.cpp:386] inception_4e/relu_3x3 -> inception_4e/3x3 (in-place)
I0403 15:48:59.944284 11408 net.cpp:141] Setting up inception_4e/relu_3x3
I0403 15:48:59.944310 11408 net.cpp:148] Top shape: 24 320 14 14 (1505280)
I0403 15:48:59.944325 11408 net.cpp:156] Memory required for data: 1236129312
I0403 15:48:59.944340 11408 layer_factory.hpp:77] Creating layer inception_4e/5x5_reduce
I0403 15:48:59.944365 11408 net.cpp:91] Creating Layer inception_4e/5x5_reduce
I0403 15:48:59.944382 11408 net.cpp:425] inception_4e/5x5_reduce <- inception_4d/output_inception_4d/output_0_split_3
I0403 15:48:59.944404 11408 net.cpp:399] inception_4e/5x5_reduce -> inception_4e/5x5_reduce
I0403 15:48:59.945530 11408 net.cpp:141] Setting up inception_4e/5x5_reduce
I0403 15:48:59.945559 11408 net.cpp:148] Top shape: 24 32 14 14 (150528)
I0403 15:48:59.945575 11408 net.cpp:156] Memory required for data: 1236731424
I0403 15:48:59.945593 11408 layer_factory.hpp:77] Creating layer inception_4e/relu_5x5_reduce
I0403 15:48:59.945613 11408 net.cpp:91] Creating Layer inception_4e/relu_5x5_reduce
I0403 15:48:59.945631 11408 net.cpp:425] inception_4e/relu_5x5_reduce <- inception_4e/5x5_reduce
I0403 15:48:59.945647 11408 net.cpp:386] inception_4e/relu_5x5_reduce -> inception_4e/5x5_reduce (in-place)
I0403 15:48:59.945953 11408 net.cpp:141] Setting up inception_4e/relu_5x5_reduce
I0403 15:48:59.945983 11408 net.cpp:148] Top shape: 24 32 14 14 (150528)
I0403 15:48:59.945999 11408 net.cpp:156] Memory required for data: 1237333536
I0403 15:48:59.946014 11408 layer_factory.hpp:77] Creating layer inception_4e/5x5
I0403 15:48:59.946053 11408 net.cpp:91] Creating Layer inception_4e/5x5
I0403 15:48:59.946072 11408 net.cpp:425] inception_4e/5x5 <- inception_4e/5x5_reduce
I0403 15:48:59.946092 11408 net.cpp:399] inception_4e/5x5 -> inception_4e/5x5
I0403 15:48:59.947942 11408 net.cpp:141] Setting up inception_4e/5x5
I0403 15:48:59.947969 11408 net.cpp:148] Top shape: 24 128 14 14 (602112)
I0403 15:48:59.947989 11408 net.cpp:156] Memory required for data: 1239741984
I0403 15:48:59.948009 11408 layer_factory.hpp:77] Creating layer inception_4e/relu_5x5
I0403 15:48:59.948030 11408 net.cpp:91] Creating Layer inception_4e/relu_5x5
I0403 15:48:59.948047 11408 net.cpp:425] inception_4e/relu_5x5 <- inception_4e/5x5
I0403 15:48:59.948065 11408 net.cpp:386] inception_4e/relu_5x5 -> inception_4e/5x5 (in-place)
I0403 15:48:59.948262 11408 net.cpp:141] Setting up inception_4e/relu_5x5
I0403 15:48:59.948287 11408 net.cpp:148] Top shape: 24 128 14 14 (602112)
I0403 15:48:59.948302 11408 net.cpp:156] Memory required for data: 1242150432
I0403 15:48:59.948317 11408 layer_factory.hpp:77] Creating layer inception_4e/pool
I0403 15:48:59.948335 11408 net.cpp:91] Creating Layer inception_4e/pool
I0403 15:48:59.948353 11408 net.cpp:425] inception_4e/pool <- inception_4d/output_inception_4d/output_0_split_4
I0403 15:48:59.948371 11408 net.cpp:399] inception_4e/pool -> inception_4e/pool
I0403 15:48:59.948443 11408 net.cpp:141] Setting up inception_4e/pool
I0403 15:48:59.948467 11408 net.cpp:148] Top shape: 24 528 14 14 (2483712)
I0403 15:48:59.948482 11408 net.cpp:156] Memory required for data: 1252085280
I0403 15:48:59.948496 11408 layer_factory.hpp:77] Creating layer inception_4e/pool_proj
I0403 15:48:59.948518 11408 net.cpp:91] Creating Layer inception_4e/pool_proj
I0403 15:48:59.948535 11408 net.cpp:425] inception_4e/pool_proj <- inception_4e/pool
I0403 15:48:59.948555 11408 net.cpp:399] inception_4e/pool_proj -> inception_4e/pool_proj
I0403 15:48:59.950176 11408 net.cpp:141] Setting up inception_4e/pool_proj
I0403 15:48:59.950217 11408 net.cpp:148] Top shape: 24 128 14 14 (602112)
I0403 15:48:59.950232 11408 net.cpp:156] Memory required for data: 1254493728
I0403 15:48:59.950250 11408 layer_factory.hpp:77] Creating layer inception_4e/relu_pool_proj
I0403 15:48:59.950268 11408 net.cpp:91] Creating Layer inception_4e/relu_pool_proj
I0403 15:48:59.950292 11408 net.cpp:425] inception_4e/relu_pool_proj <- inception_4e/pool_proj
I0403 15:48:59.950309 11408 net.cpp:386] inception_4e/relu_pool_proj -> inception_4e/pool_proj (in-place)
I0403 15:48:59.950600 11408 net.cpp:141] Setting up inception_4e/relu_pool_proj
I0403 15:48:59.950625 11408 net.cpp:148] Top shape: 24 128 14 14 (602112)
I0403 15:48:59.950640 11408 net.cpp:156] Memory required for data: 1256902176
I0403 15:48:59.950655 11408 layer_factory.hpp:77] Creating layer inception_4e/output
I0403 15:48:59.950672 11408 net.cpp:91] Creating Layer inception_4e/output
I0403 15:48:59.950687 11408 net.cpp:425] inception_4e/output <- inception_4e/1x1
I0403 15:48:59.950703 11408 net.cpp:425] inception_4e/output <- inception_4e/3x3
I0403 15:48:59.950719 11408 net.cpp:425] inception_4e/output <- inception_4e/5x5
I0403 15:48:59.950734 11408 net.cpp:425] inception_4e/output <- inception_4e/pool_proj
I0403 15:48:59.950754 11408 net.cpp:399] inception_4e/output -> inception_4e/output
I0403 15:48:59.950803 11408 net.cpp:141] Setting up inception_4e/output
I0403 15:48:59.950829 11408 net.cpp:148] Top shape: 24 832 14 14 (3913728)
I0403 15:48:59.950845 11408 net.cpp:156] Memory required for data: 1272557088
I0403 15:48:59.950860 11408 layer_factory.hpp:77] Creating layer pool4/3x3_s2
I0403 15:48:59.950876 11408 net.cpp:91] Creating Layer pool4/3x3_s2
I0403 15:48:59.950892 11408 net.cpp:425] pool4/3x3_s2 <- inception_4e/output
I0403 15:48:59.950913 11408 net.cpp:399] pool4/3x3_s2 -> pool4/3x3_s2
I0403 15:48:59.950984 11408 net.cpp:141] Setting up pool4/3x3_s2
I0403 15:48:59.951007 11408 net.cpp:148] Top shape: 24 832 7 7 (978432)
I0403 15:48:59.951021 11408 net.cpp:156] Memory required for data: 1276470816
I0403 15:48:59.951036 11408 layer_factory.hpp:77] Creating layer pool4/3x3_s2_pool4/3x3_s2_0_split
I0403 15:48:59.951056 11408 net.cpp:91] Creating Layer pool4/3x3_s2_pool4/3x3_s2_0_split
I0403 15:48:59.951072 11408 net.cpp:425] pool4/3x3_s2_pool4/3x3_s2_0_split <- pool4/3x3_s2
I0403 15:48:59.951089 11408 net.cpp:399] pool4/3x3_s2_pool4/3x3_s2_0_split -> pool4/3x3_s2_pool4/3x3_s2_0_split_0
I0403 15:48:59.951109 11408 net.cpp:399] pool4/3x3_s2_pool4/3x3_s2_0_split -> pool4/3x3_s2_pool4/3x3_s2_0_split_1
I0403 15:48:59.951130 11408 net.cpp:399] pool4/3x3_s2_pool4/3x3_s2_0_split -> pool4/3x3_s2_pool4/3x3_s2_0_split_2
I0403 15:48:59.951150 11408 net.cpp:399] pool4/3x3_s2_pool4/3x3_s2_0_split -> pool4/3x3_s2_pool4/3x3_s2_0_split_3
I0403 15:48:59.951241 11408 net.cpp:141] Setting up pool4/3x3_s2_pool4/3x3_s2_0_split
I0403 15:48:59.951264 11408 net.cpp:148] Top shape: 24 832 7 7 (978432)
I0403 15:48:59.951282 11408 net.cpp:148] Top shape: 24 832 7 7 (978432)
I0403 15:48:59.951297 11408 net.cpp:148] Top shape: 24 832 7 7 (978432)
I0403 15:48:59.951311 11408 net.cpp:148] Top shape: 24 832 7 7 (978432)
I0403 15:48:59.951324 11408 net.cpp:156] Memory required for data: 1292125728
I0403 15:48:59.951339 11408 layer_factory.hpp:77] Creating layer inception_5a/1x1
I0403 15:48:59.951360 11408 net.cpp:91] Creating Layer inception_5a/1x1
I0403 15:48:59.951378 11408 net.cpp:425] inception_5a/1x1 <- pool4/3x3_s2_pool4/3x3_s2_0_split_0
I0403 15:48:59.951400 11408 net.cpp:399] inception_5a/1x1 -> inception_5a/1x1
I0403 15:48:59.954226 11408 net.cpp:141] Setting up inception_5a/1x1
I0403 15:48:59.954253 11408 net.cpp:148] Top shape: 24 256 7 7 (301056)
I0403 15:48:59.954269 11408 net.cpp:156] Memory required for data: 1293329952
I0403 15:48:59.954287 11408 layer_factory.hpp:77] Creating layer inception_5a/relu_1x1
I0403 15:48:59.954306 11408 net.cpp:91] Creating Layer inception_5a/relu_1x1
I0403 15:48:59.954324 11408 net.cpp:425] inception_5a/relu_1x1 <- inception_5a/1x1
I0403 15:48:59.954340 11408 net.cpp:386] inception_5a/relu_1x1 -> inception_5a/1x1 (in-place)
I0403 15:48:59.954650 11408 net.cpp:141] Setting up inception_5a/relu_1x1
I0403 15:48:59.954675 11408 net.cpp:148] Top shape: 24 256 7 7 (301056)
I0403 15:48:59.954689 11408 net.cpp:156] Memory required for data: 1294534176
I0403 15:48:59.954704 11408 layer_factory.hpp:77] Creating layer inception_5a/3x3_reduce
I0403 15:48:59.954726 11408 net.cpp:91] Creating Layer inception_5a/3x3_reduce
I0403 15:48:59.954743 11408 net.cpp:425] inception_5a/3x3_reduce <- pool4/3x3_s2_pool4/3x3_s2_0_split_1
I0403 15:48:59.954763 11408 net.cpp:399] inception_5a/3x3_reduce -> inception_5a/3x3_reduce
I0403 15:48:59.957173 11408 net.cpp:141] Setting up inception_5a/3x3_reduce
I0403 15:48:59.957203 11408 net.cpp:148] Top shape: 24 160 7 7 (188160)
I0403 15:48:59.957219 11408 net.cpp:156] Memory required for data: 1295286816
I0403 15:48:59.957237 11408 layer_factory.hpp:77] Creating layer inception_5a/relu_3x3_reduce
I0403 15:48:59.957255 11408 net.cpp:91] Creating Layer inception_5a/relu_3x3_reduce
I0403 15:48:59.957270 11408 net.cpp:425] inception_5a/relu_3x3_reduce <- inception_5a/3x3_reduce
I0403 15:48:59.957289 11408 net.cpp:386] inception_5a/relu_3x3_reduce -> inception_5a/3x3_reduce (in-place)
I0403 15:48:59.957471 11408 net.cpp:141] Setting up inception_5a/relu_3x3_reduce
I0403 15:48:59.957495 11408 net.cpp:148] Top shape: 24 160 7 7 (188160)
I0403 15:48:59.957510 11408 net.cpp:156] Memory required for data: 1296039456
I0403 15:48:59.957525 11408 layer_factory.hpp:77] Creating layer inception_5a/3x3
I0403 15:48:59.957545 11408 net.cpp:91] Creating Layer inception_5a/3x3
I0403 15:48:59.957562 11408 net.cpp:425] inception_5a/3x3 <- inception_5a/3x3_reduce
I0403 15:48:59.957583 11408 net.cpp:399] inception_5a/3x3 -> inception_5a/3x3
I0403 15:48:59.962551 11408 net.cpp:141] Setting up inception_5a/3x3
I0403 15:48:59.962579 11408 net.cpp:148] Top shape: 24 320 7 7 (376320)
I0403 15:48:59.962595 11408 net.cpp:156] Memory required for data: 1297544736
I0403 15:48:59.962613 11408 layer_factory.hpp:77] Creating layer inception_5a/relu_3x3
I0403 15:48:59.962633 11408 net.cpp:91] Creating Layer inception_5a/relu_3x3
I0403 15:48:59.962649 11408 net.cpp:425] inception_5a/relu_3x3 <- inception_5a/3x3
I0403 15:48:59.962666 11408 net.cpp:386] inception_5a/relu_3x3 -> inception_5a/3x3 (in-place)
I0403 15:48:59.962951 11408 net.cpp:141] Setting up inception_5a/relu_3x3
I0403 15:48:59.962980 11408 net.cpp:148] Top shape: 24 320 7 7 (376320)
I0403 15:48:59.962996 11408 net.cpp:156] Memory required for data: 1299050016
I0403 15:48:59.963011 11408 layer_factory.hpp:77] Creating layer inception_5a/5x5_reduce
I0403 15:48:59.963032 11408 net.cpp:91] Creating Layer inception_5a/5x5_reduce
I0403 15:48:59.963050 11408 net.cpp:425] inception_5a/5x5_reduce <- pool4/3x3_s2_pool4/3x3_s2_0_split_2
I0403 15:48:59.963070 11408 net.cpp:399] inception_5a/5x5_reduce -> inception_5a/5x5_reduce
I0403 15:48:59.964231 11408 net.cpp:141] Setting up inception_5a/5x5_reduce
I0403 15:48:59.964258 11408 net.cpp:148] Top shape: 24 32 7 7 (37632)
I0403 15:48:59.964274 11408 net.cpp:156] Memory required for data: 1299200544
I0403 15:48:59.964293 11408 layer_factory.hpp:77] Creating layer inception_5a/relu_5x5_reduce
I0403 15:48:59.964313 11408 net.cpp:91] Creating Layer inception_5a/relu_5x5_reduce
I0403 15:48:59.964330 11408 net.cpp:425] inception_5a/relu_5x5_reduce <- inception_5a/5x5_reduce
I0403 15:48:59.964347 11408 net.cpp:386] inception_5a/relu_5x5_reduce -> inception_5a/5x5_reduce (in-place)
I0403 15:48:59.964650 11408 net.cpp:141] Setting up inception_5a/relu_5x5_reduce
I0403 15:48:59.964675 11408 net.cpp:148] Top shape: 24 32 7 7 (37632)
I0403 15:48:59.964689 11408 net.cpp:156] Memory required for data: 1299351072
I0403 15:48:59.964704 11408 layer_factory.hpp:77] Creating layer inception_5a/5x5
I0403 15:48:59.964725 11408 net.cpp:91] Creating Layer inception_5a/5x5
I0403 15:48:59.964742 11408 net.cpp:425] inception_5a/5x5 <- inception_5a/5x5_reduce
I0403 15:48:59.964764 11408 net.cpp:399] inception_5a/5x5 -> inception_5a/5x5
I0403 15:48:59.966437 11408 net.cpp:141] Setting up inception_5a/5x5
I0403 15:48:59.966475 11408 net.cpp:148] Top shape: 24 128 7 7 (150528)
I0403 15:48:59.966490 11408 net.cpp:156] Memory required for data: 1299953184
I0403 15:48:59.966507 11408 layer_factory.hpp:77] Creating layer inception_5a/relu_5x5
I0403 15:48:59.966527 11408 net.cpp:91] Creating Layer inception_5a/relu_5x5
I0403 15:48:59.966544 11408 net.cpp:425] inception_5a/relu_5x5 <- inception_5a/5x5
I0403 15:48:59.966562 11408 net.cpp:386] inception_5a/relu_5x5 -> inception_5a/5x5 (in-place)
I0403 15:48:59.966744 11408 net.cpp:141] Setting up inception_5a/relu_5x5
I0403 15:48:59.966768 11408 net.cpp:148] Top shape: 24 128 7 7 (150528)
I0403 15:48:59.966783 11408 net.cpp:156] Memory required for data: 1300555296
I0403 15:48:59.966797 11408 layer_factory.hpp:77] Creating layer inception_5a/pool
I0403 15:48:59.966815 11408 net.cpp:91] Creating Layer inception_5a/pool
I0403 15:48:59.966832 11408 net.cpp:425] inception_5a/pool <- pool4/3x3_s2_pool4/3x3_s2_0_split_3
I0403 15:48:59.966850 11408 net.cpp:399] inception_5a/pool -> inception_5a/pool
I0403 15:48:59.966919 11408 net.cpp:141] Setting up inception_5a/pool
I0403 15:48:59.966943 11408 net.cpp:148] Top shape: 24 832 7 7 (978432)
I0403 15:48:59.966956 11408 net.cpp:156] Memory required for data: 1304469024
I0403 15:48:59.966970 11408 layer_factory.hpp:77] Creating layer inception_5a/pool_proj
I0403 15:48:59.966995 11408 net.cpp:91] Creating Layer inception_5a/pool_proj
I0403 15:48:59.967013 11408 net.cpp:425] inception_5a/pool_proj <- inception_5a/pool
I0403 15:48:59.967034 11408 net.cpp:399] inception_5a/pool_proj -> inception_5a/pool_proj
I0403 15:48:59.969277 11408 net.cpp:141] Setting up inception_5a/pool_proj
I0403 15:48:59.969305 11408 net.cpp:148] Top shape: 24 128 7 7 (150528)
I0403 15:48:59.969321 11408 net.cpp:156] Memory required for data: 1305071136
I0403 15:48:59.969338 11408 layer_factory.hpp:77] Creating layer inception_5a/relu_pool_proj
I0403 15:48:59.969357 11408 net.cpp:91] Creating Layer inception_5a/relu_pool_proj
I0403 15:48:59.969372 11408 net.cpp:425] inception_5a/relu_pool_proj <- inception_5a/pool_proj
I0403 15:48:59.969391 11408 net.cpp:386] inception_5a/relu_pool_proj -> inception_5a/pool_proj (in-place)
I0403 15:48:59.969677 11408 net.cpp:141] Setting up inception_5a/relu_pool_proj
I0403 15:48:59.969702 11408 net.cpp:148] Top shape: 24 128 7 7 (150528)
I0403 15:48:59.969717 11408 net.cpp:156] Memory required for data: 1305673248
I0403 15:48:59.969732 11408 layer_factory.hpp:77] Creating layer inception_5a/output
I0403 15:48:59.969749 11408 net.cpp:91] Creating Layer inception_5a/output
I0403 15:48:59.969764 11408 net.cpp:425] inception_5a/output <- inception_5a/1x1
I0403 15:48:59.969780 11408 net.cpp:425] inception_5a/output <- inception_5a/3x3
I0403 15:48:59.969796 11408 net.cpp:425] inception_5a/output <- inception_5a/5x5
I0403 15:48:59.969812 11408 net.cpp:425] inception_5a/output <- inception_5a/pool_proj
I0403 15:48:59.969830 11408 net.cpp:399] inception_5a/output -> inception_5a/output
I0403 15:48:59.969879 11408 net.cpp:141] Setting up inception_5a/output
I0403 15:48:59.969905 11408 net.cpp:148] Top shape: 24 832 7 7 (978432)
I0403 15:48:59.969919 11408 net.cpp:156] Memory required for data: 1309586976
I0403 15:48:59.969934 11408 layer_factory.hpp:77] Creating layer inception_5a/output_inception_5a/output_0_split
I0403 15:48:59.969950 11408 net.cpp:91] Creating Layer inception_5a/output_inception_5a/output_0_split
I0403 15:48:59.969965 11408 net.cpp:425] inception_5a/output_inception_5a/output_0_split <- inception_5a/output
I0403 15:48:59.969986 11408 net.cpp:399] inception_5a/output_inception_5a/output_0_split -> inception_5a/output_inception_5a/output_0_split_0
I0403 15:48:59.970007 11408 net.cpp:399] inception_5a/output_inception_5a/output_0_split -> inception_5a/output_inception_5a/output_0_split_1
I0403 15:48:59.970031 11408 net.cpp:399] inception_5a/output_inception_5a/output_0_split -> inception_5a/output_inception_5a/output_0_split_2
I0403 15:48:59.970052 11408 net.cpp:399] inception_5a/output_inception_5a/output_0_split -> inception_5a/output_inception_5a/output_0_split_3
I0403 15:48:59.970161 11408 net.cpp:141] Setting up inception_5a/output_inception_5a/output_0_split
I0403 15:48:59.970185 11408 net.cpp:148] Top shape: 24 832 7 7 (978432)
I0403 15:48:59.970202 11408 net.cpp:148] Top shape: 24 832 7 7 (978432)
I0403 15:48:59.970217 11408 net.cpp:148] Top shape: 24 832 7 7 (978432)
I0403 15:48:59.970232 11408 net.cpp:148] Top shape: 24 832 7 7 (978432)
I0403 15:48:59.970244 11408 net.cpp:156] Memory required for data: 1325241888
I0403 15:48:59.970259 11408 layer_factory.hpp:77] Creating layer inception_5b/1x1
I0403 15:48:59.970280 11408 net.cpp:91] Creating Layer inception_5b/1x1
I0403 15:48:59.970298 11408 net.cpp:425] inception_5b/1x1 <- inception_5a/output_inception_5a/output_0_split_0
I0403 15:48:59.970317 11408 net.cpp:399] inception_5b/1x1 -> inception_5b/1x1
I0403 15:48:59.974028 11408 net.cpp:141] Setting up inception_5b/1x1
I0403 15:48:59.974062 11408 net.cpp:148] Top shape: 24 384 7 7 (451584)
I0403 15:48:59.974079 11408 net.cpp:156] Memory required for data: 1327048224
I0403 15:48:59.974097 11408 layer_factory.hpp:77] Creating layer inception_5b/relu_1x1
I0403 15:48:59.974114 11408 net.cpp:91] Creating Layer inception_5b/relu_1x1
I0403 15:48:59.974130 11408 net.cpp:425] inception_5b/relu_1x1 <- inception_5b/1x1
I0403 15:48:59.974148 11408 net.cpp:386] inception_5b/relu_1x1 -> inception_5b/1x1 (in-place)
I0403 15:48:59.974447 11408 net.cpp:141] Setting up inception_5b/relu_1x1
I0403 15:48:59.974473 11408 net.cpp:148] Top shape: 24 384 7 7 (451584)
I0403 15:48:59.974489 11408 net.cpp:156] Memory required for data: 1328854560
I0403 15:48:59.974504 11408 layer_factory.hpp:77] Creating layer inception_5b/3x3_reduce
I0403 15:48:59.974525 11408 net.cpp:91] Creating Layer inception_5b/3x3_reduce
I0403 15:48:59.974542 11408 net.cpp:425] inception_5b/3x3_reduce <- inception_5a/output_inception_5a/output_0_split_1
I0403 15:48:59.974561 11408 net.cpp:399] inception_5b/3x3_reduce -> inception_5b/3x3_reduce
I0403 15:48:59.977180 11408 net.cpp:141] Setting up inception_5b/3x3_reduce
I0403 15:48:59.977210 11408 net.cpp:148] Top shape: 24 192 7 7 (225792)
I0403 15:48:59.977226 11408 net.cpp:156] Memory required for data: 1329757728
I0403 15:48:59.977243 11408 layer_factory.hpp:77] Creating layer inception_5b/relu_3x3_reduce
I0403 15:48:59.977262 11408 net.cpp:91] Creating Layer inception_5b/relu_3x3_reduce
I0403 15:48:59.977277 11408 net.cpp:425] inception_5b/relu_3x3_reduce <- inception_5b/3x3_reduce
I0403 15:48:59.977296 11408 net.cpp:386] inception_5b/relu_3x3_reduce -> inception_5b/3x3_reduce (in-place)
I0403 15:48:59.977481 11408 net.cpp:141] Setting up inception_5b/relu_3x3_reduce
I0403 15:48:59.977505 11408 net.cpp:148] Top shape: 24 192 7 7 (225792)
I0403 15:48:59.977519 11408 net.cpp:156] Memory required for data: 1330660896
I0403 15:48:59.977535 11408 layer_factory.hpp:77] Creating layer inception_5b/3x3
I0403 15:48:59.977558 11408 net.cpp:91] Creating Layer inception_5b/3x3
I0403 15:48:59.977576 11408 net.cpp:425] inception_5b/3x3 <- inception_5b/3x3_reduce
I0403 15:48:59.977596 11408 net.cpp:399] inception_5b/3x3 -> inception_5b/3x3
I0403 15:48:59.984205 11408 net.cpp:141] Setting up inception_5b/3x3
I0403 15:48:59.984232 11408 net.cpp:148] Top shape: 24 384 7 7 (451584)
I0403 15:48:59.984248 11408 net.cpp:156] Memory required for data: 1332467232
I0403 15:48:59.984266 11408 layer_factory.hpp:77] Creating layer inception_5b/relu_3x3
I0403 15:48:59.984283 11408 net.cpp:91] Creating Layer inception_5b/relu_3x3
I0403 15:48:59.984299 11408 net.cpp:425] inception_5b/relu_3x3 <- inception_5b/3x3
I0403 15:48:59.984318 11408 net.cpp:386] inception_5b/relu_3x3 -> inception_5b/3x3 (in-place)
I0403 15:48:59.984607 11408 net.cpp:141] Setting up inception_5b/relu_3x3
I0403 15:48:59.984633 11408 net.cpp:148] Top shape: 24 384 7 7 (451584)
I0403 15:48:59.984648 11408 net.cpp:156] Memory required for data: 1334273568
I0403 15:48:59.984663 11408 layer_factory.hpp:77] Creating layer inception_5b/5x5_reduce
I0403 15:48:59.984699 11408 net.cpp:91] Creating Layer inception_5b/5x5_reduce
I0403 15:48:59.984717 11408 net.cpp:425] inception_5b/5x5_reduce <- inception_5a/output_inception_5a/output_0_split_2
I0403 15:48:59.984740 11408 net.cpp:399] inception_5b/5x5_reduce -> inception_5b/5x5_reduce
I0403 15:48:59.985981 11408 net.cpp:141] Setting up inception_5b/5x5_reduce
I0403 15:48:59.986008 11408 net.cpp:148] Top shape: 24 48 7 7 (56448)
I0403 15:48:59.986023 11408 net.cpp:156] Memory required for data: 1334499360
I0403 15:48:59.986042 11408 layer_factory.hpp:77] Creating layer inception_5b/relu_5x5_reduce
I0403 15:48:59.986059 11408 net.cpp:91] Creating Layer inception_5b/relu_5x5_reduce
I0403 15:48:59.986078 11408 net.cpp:425] inception_5b/relu_5x5_reduce <- inception_5b/5x5_reduce
I0403 15:48:59.986096 11408 net.cpp:386] inception_5b/relu_5x5_reduce -> inception_5b/5x5_reduce (in-place)
I0403 15:48:59.986462 11408 net.cpp:141] Setting up inception_5b/relu_5x5_reduce
I0403 15:48:59.986487 11408 net.cpp:148] Top shape: 24 48 7 7 (56448)
I0403 15:48:59.986501 11408 net.cpp:156] Memory required for data: 1334725152
I0403 15:48:59.986516 11408 layer_factory.hpp:77] Creating layer inception_5b/5x5
I0403 15:48:59.986536 11408 net.cpp:91] Creating Layer inception_5b/5x5
I0403 15:48:59.986553 11408 net.cpp:425] inception_5b/5x5 <- inception_5b/5x5_reduce
I0403 15:48:59.986570 11408 net.cpp:399] inception_5b/5x5 -> inception_5b/5x5
I0403 15:48:59.988579 11408 net.cpp:141] Setting up inception_5b/5x5
I0403 15:48:59.988606 11408 net.cpp:148] Top shape: 24 128 7 7 (150528)
I0403 15:48:59.988621 11408 net.cpp:156] Memory required for data: 1335327264
I0403 15:48:59.988639 11408 layer_factory.hpp:77] Creating layer inception_5b/relu_5x5
I0403 15:48:59.988659 11408 net.cpp:91] Creating Layer inception_5b/relu_5x5
I0403 15:48:59.988677 11408 net.cpp:425] inception_5b/relu_5x5 <- inception_5b/5x5
I0403 15:48:59.988693 11408 net.cpp:386] inception_5b/relu_5x5 -> inception_5b/5x5 (in-place)
I0403 15:48:59.988881 11408 net.cpp:141] Setting up inception_5b/relu_5x5
I0403 15:48:59.988908 11408 net.cpp:148] Top shape: 24 128 7 7 (150528)
I0403 15:48:59.988924 11408 net.cpp:156] Memory required for data: 1335929376
I0403 15:48:59.988939 11408 layer_factory.hpp:77] Creating layer inception_5b/pool
I0403 15:48:59.988955 11408 net.cpp:91] Creating Layer inception_5b/pool
I0403 15:48:59.988971 11408 net.cpp:425] inception_5b/pool <- inception_5a/output_inception_5a/output_0_split_3
I0403 15:48:59.989001 11408 net.cpp:399] inception_5b/pool -> inception_5b/pool
I0403 15:48:59.989074 11408 net.cpp:141] Setting up inception_5b/pool
I0403 15:48:59.989097 11408 net.cpp:148] Top shape: 24 832 7 7 (978432)
I0403 15:48:59.989111 11408 net.cpp:156] Memory required for data: 1339843104
I0403 15:48:59.989126 11408 layer_factory.hpp:77] Creating layer inception_5b/pool_proj
I0403 15:48:59.989146 11408 net.cpp:91] Creating Layer inception_5b/pool_proj
I0403 15:48:59.989164 11408 net.cpp:425] inception_5b/pool_proj <- inception_5b/pool
I0403 15:48:59.989184 11408 net.cpp:399] inception_5b/pool_proj -> inception_5b/pool_proj
I0403 15:48:59.991564 11408 net.cpp:141] Setting up inception_5b/pool_proj
I0403 15:48:59.991593 11408 net.cpp:148] Top shape: 24 128 7 7 (150528)
I0403 15:48:59.991608 11408 net.cpp:156] Memory required for data: 1340445216
I0403 15:48:59.991627 11408 layer_factory.hpp:77] Creating layer inception_5b/relu_pool_proj
I0403 15:48:59.991647 11408 net.cpp:91] Creating Layer inception_5b/relu_pool_proj
I0403 15:48:59.991664 11408 net.cpp:425] inception_5b/relu_pool_proj <- inception_5b/pool_proj
I0403 15:48:59.991683 11408 net.cpp:386] inception_5b/relu_pool_proj -> inception_5b/pool_proj (in-place)
I0403 15:48:59.991982 11408 net.cpp:141] Setting up inception_5b/relu_pool_proj
I0403 15:48:59.992008 11408 net.cpp:148] Top shape: 24 128 7 7 (150528)
I0403 15:48:59.992024 11408 net.cpp:156] Memory required for data: 1341047328
I0403 15:48:59.992039 11408 layer_factory.hpp:77] Creating layer inception_5b/output
I0403 15:48:59.992058 11408 net.cpp:91] Creating Layer inception_5b/output
I0403 15:48:59.992087 11408 net.cpp:425] inception_5b/output <- inception_5b/1x1
I0403 15:48:59.992105 11408 net.cpp:425] inception_5b/output <- inception_5b/3x3
I0403 15:48:59.992121 11408 net.cpp:425] inception_5b/output <- inception_5b/5x5
I0403 15:48:59.992137 11408 net.cpp:425] inception_5b/output <- inception_5b/pool_proj
I0403 15:48:59.992157 11408 net.cpp:399] inception_5b/output -> inception_5b/output
I0403 15:48:59.992221 11408 net.cpp:141] Setting up inception_5b/output
I0403 15:48:59.992249 11408 net.cpp:148] Top shape: 24 1024 7 7 (1204224)
I0403 15:48:59.992264 11408 net.cpp:156] Memory required for data: 1345864224
I0403 15:48:59.992280 11408 layer_factory.hpp:77] Creating layer pool5/7x7_s1
I0403 15:48:59.992297 11408 net.cpp:91] Creating Layer pool5/7x7_s1
I0403 15:48:59.992313 11408 net.cpp:425] pool5/7x7_s1 <- inception_5b/output
I0403 15:48:59.992336 11408 net.cpp:399] pool5/7x7_s1 -> pool5/7x7_s1
I0403 15:48:59.992565 11408 net.cpp:141] Setting up pool5/7x7_s1
I0403 15:48:59.992590 11408 net.cpp:148] Top shape: 24 1024 1 1 (24576)
I0403 15:48:59.992605 11408 net.cpp:156] Memory required for data: 1345962528
I0403 15:48:59.992620 11408 layer_factory.hpp:77] Creating layer pool5/drop_7x7_s1
I0403 15:48:59.992640 11408 net.cpp:91] Creating Layer pool5/drop_7x7_s1
I0403 15:48:59.992656 11408 net.cpp:425] pool5/drop_7x7_s1 <- pool5/7x7_s1
I0403 15:48:59.992674 11408 net.cpp:386] pool5/drop_7x7_s1 -> pool5/7x7_s1 (in-place)
I0403 15:48:59.992723 11408 net.cpp:141] Setting up pool5/drop_7x7_s1
I0403 15:48:59.992749 11408 net.cpp:148] Top shape: 24 1024 1 1 (24576)
I0403 15:48:59.992764 11408 net.cpp:156] Memory required for data: 1346060832
I0403 15:48:59.992779 11408 layer_factory.hpp:77] Creating layer loss3/classifier_plantvillage
I0403 15:48:59.992799 11408 net.cpp:91] Creating Layer loss3/classifier_plantvillage
I0403 15:48:59.992815 11408 net.cpp:425] loss3/classifier_plantvillage <- pool5/7x7_s1
I0403 15:48:59.992840 11408 net.cpp:399] loss3/classifier_plantvillage -> loss3/classifier_plantvillage
I0403 15:48:59.993268 11408 net.cpp:141] Setting up loss3/classifier_plantvillage
I0403 15:48:59.993294 11408 net.cpp:148] Top shape: 24 38 (912)
I0403 15:48:59.993309 11408 net.cpp:156] Memory required for data: 1346064480
I0403 15:48:59.993326 11408 layer_factory.hpp:77] Creating layer loss3/classifier_plantvillage_loss3/classifier_plantvillage_0_split
I0403 15:48:59.993345 11408 net.cpp:91] Creating Layer loss3/classifier_plantvillage_loss3/classifier_plantvillage_0_split
I0403 15:48:59.993360 11408 net.cpp:425] loss3/classifier_plantvillage_loss3/classifier_plantvillage_0_split <- loss3/classifier_plantvillage
I0403 15:48:59.993377 11408 net.cpp:399] loss3/classifier_plantvillage_loss3/classifier_plantvillage_0_split -> loss3/classifier_plantvillage_loss3/classifier_plantvillage_0_split_0
I0403 15:48:59.993401 11408 net.cpp:399] loss3/classifier_plantvillage_loss3/classifier_plantvillage_0_split -> loss3/classifier_plantvillage_loss3/classifier_plantvillage_0_split_1
I0403 15:48:59.993422 11408 net.cpp:399] loss3/classifier_plantvillage_loss3/classifier_plantvillage_0_split -> loss3/classifier_plantvillage_loss3/classifier_plantvillage_0_split_2
I0403 15:48:59.993443 11408 net.cpp:399] loss3/classifier_plantvillage_loss3/classifier_plantvillage_0_split -> loss3/classifier_plantvillage_loss3/classifier_plantvillage_0_split_3
I0403 15:48:59.993546 11408 net.cpp:141] Setting up loss3/classifier_plantvillage_loss3/classifier_plantvillage_0_split
I0403 15:48:59.993569 11408 net.cpp:148] Top shape: 24 38 (912)
I0403 15:48:59.993587 11408 net.cpp:148] Top shape: 24 38 (912)
I0403 15:48:59.993602 11408 net.cpp:148] Top shape: 24 38 (912)
I0403 15:48:59.993616 11408 net.cpp:148] Top shape: 24 38 (912)
I0403 15:48:59.993630 11408 net.cpp:156] Memory required for data: 1346079072
I0403 15:48:59.993644 11408 layer_factory.hpp:77] Creating layer loss1/loss
I0403 15:48:59.993667 11408 net.cpp:91] Creating Layer loss1/loss
I0403 15:48:59.993686 11408 net.cpp:425] loss1/loss <- loss1/classifier_plantvillage_loss1/classifier_plantvillage_0_split_0
I0403 15:48:59.993716 11408 net.cpp:425] loss1/loss <- label_data_1_split_0
…
