…
I0403 15:52:38.317601 11622 net.cpp:313] The NetState phase (1) differed from the phase (0) specified by a rule in layer data
I0403 15:52:38.318717 11622 net.cpp:49] Initializing net from parameters: 
state {
  phase: TEST
}
layer {
  name: "data"
  type: "Data"
  top: "data"
  top: "label"
  include {
    phase: TEST
  }
  transform_param {
    mirror: false
    crop_size: 224
    mean_file: "/home/mohanty/data/final_dataset/lmdb/segmented-80-20/mean.binaryproto"
  }
  data_param {
    source: "/home/mohanty/data/final_dataset/lmdb/segmented-80-20/test_db"
    batch_size: 24
    backend: LMDB
  }
}
layer {
  name: "conv1/7x7_s2"
  type: "Convolution"
  bottom: "data"
  top: "conv1/7x7_s2"
  param {
    lr_mult: 1
    decay_mult: 1
  }
  param {
    lr_mult: 2
    decay_mult: 0
  }
  convolution_param {
    num_output: 64
    pad: 3
    kernel_size: 7
    stride: 2
    weight_filler {
      type: "xavier"
      std: 0.1
    }
    bias_filler {
      type: "constant"
      value: 0.2
    }
  }
}
layer {
  name: "conv1/relu_7x7"
  type: "ReLU"
  bottom: "conv1/7x7_s2"
  top: "conv1/7x7_s2"
}
layer {
  name: "pool1/3x3_s2"
  type: "Pooling"
  bottom: "conv1/7x7_s2"
  top: "pool1/3x3_s2"
  pooling_param {
    pool: MAX
    kernel_size: 3
    stride: 2
  }
}
layer {
  name: "pool1/norm1"
  type: "LRN"
  bottom: "pool1/3x3_s2"
  top: "pool1/norm1"
  lrn_param {
    local_size: 5
    alpha: 0.0001
    beta: 0.75
  }
}
layer {
  name: "conv2/3x3_reduce"
  type: "Convolution"
  bottom: "pool1/norm1"
  top: "conv2/3x3_reduce"
  param {
    lr_mult: 1
    decay_mult: 1
  }
  param {
    lr_mult: 2
    decay_mult: 0
  }
  convolution_param {
    num_output: 64
    kernel_size: 1
    weight_filler {
      type: "xavier"
      std: 0.1
    }
    bias_filler {
      type: "constant"
      value: 0.2
    }
  }
}
layer {
  name: "conv2/relu_3x3_reduce"
  type: "ReLU"
  bottom: "conv2/3x3_reduce"
  top: "conv2/3x3_reduce"
}
layer {
  name: "conv2/3x3"
  type: "Convolution"
  bottom: "conv2/3x3_reduce"
  top: "conv2/3x3"
  param {
    lr_mult: 1
    decay_mult: 1
  }
  param {
    lr_mult: 2
    decay_mult: 0
  }
  convolution_param {
    num_output: 192
    pad: 1
    kernel_size: 3
    weight_filler {
      type: "xavier"
      std: 0.03
    }
    bias_filler {
      type: "constant"
      value: 0.2
    }
  }
}
layer {
  name: "conv2/relu_3x3"
  type: "ReLU"
  bottom: "conv2/3x3"
  top: "conv2/3x3"
}
layer {
  name: "conv2/norm2"
  type: "LRN"
  bottom: "conv2/3x3"
  top: "conv2/norm2"
  lrn_param {
    local_size: 5
    alpha: 0.0001
    beta: 0.75
  }
}
layer {
  name: "pool2/3x3_s2"
  type: "Pooling"
  bottom: "conv2/norm2"
  top: "pool2/3x3_s2"
  pooling_param {
    pool: MAX
    kernel_size: 3
    stride: 2
  }
}
layer {
  name: "inception_3a/1x1"
  type: "Convolution"
  bottom: "pool2/3x3_s2"
  top: "inception_3a/1x1"
  param {
    lr_mult: 1
    decay_mult: 1
  }
  param {
    lr_mult: 2
    decay_mult: 0
  }
  convolution_param {
    num_output: 64
    kernel_size: 1
    weight_filler {
      type: "xavier"
      std: 0.03
    }
    bias_filler {
      type: "constant"
      value: 0.2
    }
  }
}
layer {
  name: "inception_3a/relu_1x1"
  type: "ReLU"
  bottom: "inception_3a/1x1"
  top: "inception_3a/1x1"
}
layer {
  name: "inception_3a/3x3_reduce"
  type: "Convolution"
  bottom: "pool2/3x3_s2"
  top: "inception_3a/3x3_reduce"
  param {
    lr_mult: 1
    decay_mult: 1
  }
  param {
    lr_mult: 2
    decay_mult: 0
  }
  convolution_param {
    num_output: 96
    kernel_size: 1
    weight_filler {
      type: "xavier"
      std: 0.09
    }
    bias_filler {
      type: "constant"
      value: 0.2
    }
  }
}
layer {
  name: "inception_3a/relu_3x3_reduce"
  type: "ReLU"
  bottom: "inception_3a/3x3_reduce"
  top: "inception_3a/3x3_reduce"
}
layer {
  name: "inception_3a/3x3"
  type: "Convolution"
  bottom: "inception_3a/3x3_reduce"
  top: "inception_3a/3x3"
  param {
    lr_mult: 1
    decay_mult: 1
  }
  param {
    lr_mult: 2
    decay_mult: 0
  }
  convolution_param {
    num_output: 128
    pad: 1
    kernel_size: 3
    weight_filler {
      type: "xavier"
      std: 0.03
    }
    bias_filler {
      type: "constant"
      value: 0.2
    }
  }
}
layer {
  name: "inception_3a/relu_3x3"
  type: "ReLU"
  bottom: "inception_3a/3x3"
  top: "inception_3a/3x3"
}
layer {
  name: "inception_3a/5x5_reduce"
  type: "Convolution"
  bottom: "pool2/3x3_s2"
  top: "inception_3a/5x5_reduce"
  param {
    lr_mult: 1
    decay_mult: 1
  }
  param {
    lr_mult: 2
    decay_mult: 0
  }
  convolution_param {
    num_output: 16
    kernel_size: 1
    weight_filler {
      type: "xavier"
      std: 0.2
    }
    bias_filler {
      type: "constant"
      value: 0.2
    }
  }
}
layer {
  name: "inception_3a/relu_5x5_reduce"
  type: "ReLU"
  bottom: "inception_3a/5x5_reduce"
  top: "inception_3a/5x5_reduce"
}
layer {
  name: "inception_3a/5x5"
  type: "Convolution"
  bottom: "inception_3a/5x5_reduce"
  top: "inception_3a/5x5"
  param {
    lr_mult: 1
    decay_mult: 1
  }
  param {
    lr_mult: 2
    decay_mult: 0
  }
  convolution_param {
    num_output: 32
    pad: 2
    kernel_size: 5
    weight_filler {
      type: "xavier"
      std: 0.03
    }
    bias_filler {
      type: "constant"
      value: 0.2
    }
  }
}
layer {
  name: "inception_3a/relu_5x5"
  type: "ReLU"
  bottom: "inception_3a/5x5"
  top: "inception_3a/5x5"
}
layer {
  name: "inception_3a/pool"
  type: "Pooling"
  bottom: "pool2/3x3_s2"
  top: "inception_3a/pool"
  pooling_param {
    pool: MAX
    kernel_size: 3
    stride: 1
    pad: 1
  }
}
layer {
  name: "inception_3a/pool_proj"
  type: "Convolution"
  bottom: "inception_3a/pool"
  top: "inception_3a/pool_proj"
  param {
    lr_mult: 1
    decay_mult: 1
  }
  param {
    lr_mult: 2
    decay_mult: 0
  }
  convolution_param {
    num_output: 32
    kernel_size: 1
    weight_filler {
      type: "xavier"
      std: 0.1
    }
    bias_filler {
      type: "constant"
      value: 0.2
    }
  }
}
layer {
  name: "inception_3a/relu_pool_proj"
  type: "ReLU"
  bottom: "inception_3a/pool_proj"
  top: "inception_3a/pool_proj"
}
layer {
  name: "inception_3a/output"
  type: "Concat"
  bottom: "inception_3a/1x1"
  bottom: "inception_3a/3x3"
  bottom: "inception_3a/5x5"
  bottom: "inception_3a/pool_proj"
  top: "inception_3a/output"
}
layer {
  name: "inception_3b/1x1"
  type: "Convolution"
  bottom: "inception_3a/output"
  top: "inception_3b/1x1"
  param {
    lr_mult: 1
    decay_mult: 1
  }
  param {
    lr_mult: 2
    decay_mult: 0
  }
  convolution_param {
    num_output: 128
    kernel_size: 1
    weight_filler {
      type: "xavier"
      std: 0.03
    }
    bias_filler {
      type: "constant"
      value: 0.2
    }
  }
}
layer {
  name: "inception_3b/relu_1x1"
  type: "ReLU"
  bottom: "inception_3b/1x1"
  top: "inception_3b/1x1"
}
layer {
  name: "inception_3b/3x3_reduce"
  type: "Convolution"
  bottom: "inception_3a/output"
  top: "inception_3b/3x3_reduce"
  param {
    lr_mult: 1
    decay_mult: 1
  }
  param {
    lr_mult: 2
    decay_mult: 0
  }
  convolution_param {
    num_output: 128
    kernel_size: 1
    weight_filler {
      type: "xavier"
      std: 0.09
    }
    bias_filler {
      type: "constant"
      value: 0.2
    }
  }
}
layer {
  name: "inception_3b/relu_3x3_reduce"
  type: "ReLU"
  bottom: "inception_3b/3x3_reduce"
  top: "inception_3b/3x3_reduce"
}
layer {
  name: "inception_3b/3x3"
  type: "Convolution"
  bottom: "inception_3b/3x3_reduce"
  top: "inception_3b/3x3"
  param {
    lr_mult: 1
    decay_mult: 1
  }
  param {
    lr_mult: 2
    decay_mult: 0
  }
  convolution_param {
    num_output: 192
    pad: 1
    kernel_size: 3
    weight_filler {
      type: "xavier"
      std: 0.03
    }
    bias_filler {
      type: "constant"
      value: 0.2
    }
  }
}
layer {
  name: "inception_3b/relu_3x3"
  type: "ReLU"
  bottom: "inception_3b/3x3"
  top: "inception_3b/3x3"
}
layer {
  name: "inception_3b/5x5_reduce"
  type: "Convolution"
  bottom: "inception_3a/output"
  top: "inception_3b/5x5_reduce"
  param {
    lr_mult: 1
    decay_mult: 1
  }
  param {
    lr_mult: 2
    decay_mult: 0
  }
  convolution_param {
    num_output: 32
    kernel_size: 1
    weight_filler {
      type: "xavier"
      std: 0.2
    }
    bias_filler {
      type: "constant"
      value: 0.2
    }
  }
}
layer {
  name: "inception_3b/relu_5x5_reduce"
  type: "ReLU"
  bottom: "inception_3b/5x5_reduce"
  top: "inception_3b/5x5_reduce"
}
layer {
  name: "inception_3b/5x5"
  type: "Convolution"
  bottom: "inception_3b/5x5_reduce"
  top: "inception_3b/5x5"
  param {
    lr_mult: 1
    decay_mult: 1
  }
  param {
    lr_mult: 2
    decay_mult: 0
  }
  convolution_param {
    num_output: 96
    pad: 2
    kernel_size: 5
    weight_filler {
      type: "xavier"
      std: 0.03
    }
    bias_filler {
      type: "constant"
      value: 0.2
    }
  }
}
layer {
  name: "inception_3b/relu_5x5"
  type: "ReLU"
  bottom: "inception_3b/5x5"
  top: "inception_3b/5x5"
}
layer {
  name: "inception_3b/pool"
  type: "Pooling"
  bottom: "inception_3a/output"
  top: "inception_3b/pool"
  pooling_param {
    pool: MAX
    kernel_size: 3
    stride: 1
    pad: 1
  }
}
layer {
  name: "inception_3b/pool_proj"
  type: "Convolution"
  bottom: "inception_3b/pool"
  top: "inception_3b/pool_proj"
  param {
    lr_mult: 1
    decay_mult: 1
  }
  param {
    lr_mult: 2
    decay_mult: 0
  }
  convolution_param {
    num_output: 64
    kernel_size: 1
    weight_filler {
      type: "xavier"
      std: 0.1
    }
    bias_filler {
      type: "constant"
      value: 0.2
    }
  }
}
layer {
  name: "inception_3b/relu_pool_proj"
  type: "ReLU"
  bottom: "inception_3b/pool_proj"
  top: "inception_3b/pool_proj"
}
layer {
  name: "inception_3b/output"
  type: "Concat"
  bottom: "inception_3b/1x1"
  bottom: "inception_3b/3x3"
  bottom: "inception_3b/5x5"
  bottom: "inception_3b/pool_proj"
  top: "inception_3b/output"
}
layer {
  name: "pool3/3x3_s2"
  type: "Pooling"
  bottom: "inception_3b/output"
  top: "pool3/3x3_s2"
  pooling_param {
    pool: MAX
    kernel_size: 3
    stride: 2
  }
}
layer {
  name: "inception_4a/1x1"
  type: "Convolution"
  bottom: "pool3/3x3_s2"
  top: "inception_4a/1x1"
  param {
    lr_mult: 1
    decay_mult: 1
  }
  param {
    lr_mult: 2
    decay_mult: 0
  }
  convolution_param {
    num_output: 192
    kernel_size: 1
    weight_filler {
      type: "xavier"
      std: 0.03
    }
    bias_filler {
      type: "constant"
      value: 0.2
    }
  }
}
layer {
  name: "inception_4a/relu_1x1"
  type: "ReLU"
  bottom: "inception_4a/1x1"
  top: "inception_4a/1x1"
}
layer {
  name: "inception_4a/3x3_reduce"
  type: "Convolution"
  bottom: "pool3/3x3_s2"
  top: "inception_4a/3x3_reduce"
  param {
    lr_mult: 1
    decay_mult: 1
  }
  param {
    lr_mult: 2
    decay_mult: 0
  }
  convolution_param {
    num_output: 96
    kernel_size: 1
    weight_filler {
      type: "xavier"
      std: 0.09
    }
    bias_filler {
      type: "constant"
      value: 0.2
    }
  }
}
layer {
  name: "inception_4a/relu_3x3_reduce"
  type: "ReLU"
  bottom: "inception_4a/3x3_reduce"
  top: "inception_4a/3x3_reduce"
}
layer {
  name: "inception_4a/3x3"
  type: "Convolution"
  bottom: "inception_4a/3x3_reduce"
  top: "inception_4a/3x3"
  param {
    lr_mult: 1
    decay_mult: 1
  }
  param {
    lr_mult: 2
    decay_mult: 0
  }
  convolution_param {
    num_output: 208
    pad: 1
    kernel_size: 3
    weight_filler {
      type: "xavier"
      std: 0.03
    }
    bias_filler {
      type: "constant"
      value: 0.2
    }
  }
}
layer {
  name: "inception_4a/relu_3x3"
  type: "ReLU"
  bottom: "inception_4a/3x3"
  top: "inception_4a/3x3"
}
layer {
  name: "inception_4a/5x5_reduce"
  type: "Convolution"
  bottom: "pool3/3x3_s2"
  top: "inception_4a/5x5_reduce"
  param {
    lr_mult: 1
    decay_mult: 1
  }
  param {
    lr_mult: 2
    decay_mult: 0
  }
  convolution_param {
    num_output: 16
    kernel_size: 1
    weight_filler {
      type: "xavier"
      std: 0.2
    }
    bias_filler {
      type: "constant"
      value: 0.2
    }
  }
}
layer {
  name: "inception_4a/relu_5x5_reduce"
  type: "ReLU"
  bottom: "inception_4a/5x5_reduce"
  top: "inception_4a/5x5_reduce"
}
layer {
  name: "inception_4a/5x5"
  type: "Convolution"
  bottom: "inception_4a/5x5_reduce"
  top: "inception_4a/5x5"
  param {
    lr_mult: 1
    decay_mult: 1
  }
  param {
    lr_mult: 2
    decay_mult: 0
  }
  convolution_param {
    num_output: 48
    pad: 2
    kernel_size: 5
    weight_filler {
      type: "xavier"
      std: 0.03
    }
    bias_filler {
      type: "constant"
      value: 0.2
    }
  }
}
layer {
  name: "inception_4a/relu_5x5"
  type: "ReLU"
  bottom: "inception_4a/5x5"
  top: "inception_4a/5x5"
}
layer {
  name: "inception_4a/pool"
  type: "Pooling"
  bottom: "pool3/3x3_s2"
  top: "inception_4a/pool"
  pooling_param {
    pool: MAX
    kernel_size: 3
    stride: 1
    pad: 1
  }
}
layer {
  name: "inception_4a/pool_proj"
  type: "Convolution"
  bottom: "inception_4a/pool"
  top: "inception_4a/pool_proj"
  param {
    lr_mult: 1
    decay_mult: 1
  }
  param {
    lr_mult: 2
    decay_mult: 0
  }
  convolution_param {
    num_output: 64
    kernel_size: 1
    weight_filler {
      type: "xavier"
      std: 0.1
    }
    bias_filler {
      type: "constant"
      value: 0.2
    }
  }
}
layer {
  name: "inception_4a/relu_pool_proj"
  type: "ReLU"
  bottom: "inception_4a/pool_proj"
  top: "inception_4a/pool_proj"
}
layer {
  name: "inception_4a/output"
  type: "Concat"
  bottom: "inception_4a/1x1"
  bottom: "inception_4a/3x3"
  bottom: "inception_4a/5x5"
  bottom: "inception_4a/pool_proj"
  top: "inception_4a/output"
}
layer {
  name: "loss1/ave_pool"
  type: "Pooling"
  bottom: "inception_4a/output"
  top: "loss1/ave_pool"
  pooling_param {
    pool: AVE
    kernel_size: 5
    stride: 3
  }
}
layer {
  name: "loss1/conv"
  type: "Convolution"
  bottom: "loss1/ave_pool"
  top: "loss1/conv"
  param {
    lr_mult: 1
    decay_mult: 1
  }
  param {
    lr_mult: 2
    decay_mult: 0
  }
  convolution_param {
    num_output: 128
    kernel_size: 1
    weight_filler {
      type: "xavier"
      std: 0.08
    }
    bias_filler {
      type: "constant"
      value: 0.2
    }
  }
}
layer {
  name: "loss1/relu_conv"
  type: "ReLU"
  bottom: "loss1/conv"
  top: "loss1/conv"
}
layer {
  name: "loss1/fc"
  type: "InnerProduct"
  bottom: "loss1/conv"
  top: "loss1/fc"
  param {
    lr_mult: 1
    decay_mult: 1
  }
  param {
    lr_mult: 2
    decay_mult: 0
  }
  inner_product_param {
    num_output: 1024
    weight_filler {
      type: "xavier"
      std: 0.02
    }
    bias_filler {
      type: "constant"
      value: 0.2
    }
  }
}
layer {
  name: "loss1/relu_fc"
  type: "ReLU"
  bottom: "loss1/fc"
  top: "loss1/fc"
}
layer {
  name: "loss1/drop_fc"
  type: "Dropout"
  bottom: "loss1/fc"
  top: "loss1/fc"
  dropout_param {
    dropout_ratio: 0.7
  }
}
layer {
  name: "loss1/classifier_plantvillage"
  type: "InnerProduct"
  bottom: "loss1/fc"
  top: "loss1/classifier_plantvillage"
  param {
    lr_mult: 1
    decay_mult: 1
  }
  param {
    lr_mult: 2
    decay_mult: 0
  }
  inner_product_param {
    num_output: 38
    weight_filler {
      type: "xavier"
      std: 0.0009765625
    }
    bias_filler {
      type: "constant"
      value: 0
    }
  }
}
layer {
  name: "inception_4b/1x1"
  type: "Convolution"
  bottom: "inception_4a/output"
  top: "inception_4b/1x1"
  param {
    lr_mult: 1
    decay_mult: 1
  }
  param {
    lr_mult: 2
    decay_mult: 0
  }
  convolution_param {
    num_output: 160
    kernel_size: 1
    weight_filler {
      type: "xavier"
      std: 0.03
    }
    bias_filler {
      type: "constant"
      value: 0.2
    }
  }
}
layer {
  name: "inception_4b/relu_1x1"
  type: "ReLU"
  bottom: "inception_4b/1x1"
  top: "inception_4b/1x1"
}
layer {
  name: "inception_4b/3x3_reduce"
  type: "Convolution"
  bottom: "inception_4a/output"
  top: "inception_4b/3x3_reduce"
  param {
    lr_mult: 1
    decay_mult: 1
  }
  param {
    lr_mult: 2
    decay_mult: 0
  }
  convolution_param {
    num_output: 112
    kernel_size: 1
    weight_filler {
      type: "xavier"
      std: 0.09
    }
    bias_filler {
      type: "constant"
      value: 0.2
    }
  }
}
layer {
  name: "inception_4b/relu_3x3_reduce"
  type: "ReLU"
  bottom: "inception_4b/3x3_reduce"
  top: "inception_4b/3x3_reduce"
}
layer {
  name: "inception_4b/3x3"
  type: "Convolution"
  bottom: "inception_4b/3x3_reduce"
  top: "inception_4b/3x3"
  param {
    lr_mult: 1
    decay_mult: 1
  }
  param {
    lr_mult: 2
    decay_mult: 0
  }
  convolution_param {
    num_output: 224
    pad: 1
    kernel_size: 3
    weight_filler {
      type: "xavier"
      std: 0.03
    }
    bias_filler {
      type: "constant"
      value: 0.2
    }
  }
}
layer {
  name: "inception_4b/relu_3x3"
  type: "ReLU"
  bottom: "inception_4b/3x3"
  top: "inception_4b/3x3"
}
layer {
  name: "inception_4b/5x5_reduce"
  type: "Convolution"
  bottom: "inception_4a/output"
  top: "inception_4b/5x5_reduce"
  param {
    lr_mult: 1
    decay_mult: 1
  }
  param {
    lr_mult: 2
    decay_mult: 0
  }
  convolution_param {
    num_output: 24
    kernel_size: 1
    weight_filler {
      type: "xavier"
      std: 0.2
    }
    bias_filler {
      type: "constant"
      value: 0.2
    }
  }
}
layer {
  name: "inception_4b/relu_5x5_reduce"
  type: "ReLU"
  bottom: "inception_4b/5x5_reduce"
  top: "inception_4b/5x5_reduce"
}
layer {
  name: "inception_4b/5x5"
  type: "Convolution"
  bottom: "inception_4b/5x5_reduce"
  top: "inception_4b/5x5"
  param {
    lr_mult: 1
    decay_mult: 1
  }
  param {
    lr_mult: 2
    decay_mult: 0
  }
  convolution_param {
    num_output: 64
    pad: 2
    kernel_size: 5
    weight_filler {
      type: "xavier"
      std: 0.03
    }
    bias_filler {
      type: "constant"
      value: 0.2
    }
  }
}
layer {
  name: "inception_4b/relu_5x5"
  type: "ReLU"
  bottom: "inception_4b/5x5"
  top: "inception_4b/5x5"
}
layer {
  name: "inception_4b/pool"
  type: "Pooling"
  bottom: "inception_4a/output"
  top: "inception_4b/pool"
  pooling_param {
    pool: MAX
    kernel_size: 3
    stride: 1
    pad: 1
  }
}
layer {
  name: "inception_4b/pool_proj"
  type: "Convolution"
  bottom: "inception_4b/pool"
  top: "inception_4b/pool_proj"
  param {
    lr_mult: 1
    decay_mult: 1
  }
  param {
    lr_mult: 2
    decay_mult: 0
  }
  convolution_param {
    num_output: 64
    kernel_size: 1
    weight_filler {
      type: "xavier"
      std: 0.1
    }
    bias_filler {
      type: "constant"
      value: 0.2
    }
  }
}
layer {
  name: "inception_4b/relu_pool_proj"
  type: "ReLU"
  bottom: "inception_4b/pool_proj"
  top: "inception_4b/pool_proj"
}
layer {
  name: "inception_4b/output"
  type: "Concat"
  bottom: "inception_4b/1x1"
  bottom: "inception_4b/3x3"
  bottom: "inception_4b/5x5"
  bottom: "inception_4b/pool_proj"
  top: "inception_4b/output"
}
layer {
  name: "inception_4c/1x1"
  type: "Convolution"
  bottom: "inception_4b/output"
  top: "inception_4c/1x1"
  param {
    lr_mult: 1
    decay_mult: 1
  }
  param {
    lr_mult: 2
    decay_mult: 0
  }
  convolution_param {
    num_output: 128
    kernel_size: 1
    weight_filler {
      type: "xavier"
      std: 0.03
    }
    bias_filler {
      type: "constant"
      value: 0.2
    }
  }
}
layer {
  name: "inception_4c/relu_1x1"
  type: "ReLU"
  bottom: "inception_4c/1x1"
  top: "inception_4c/1x1"
}
layer {
  name: "inception_4c/3x3_reduce"
  type: "Convolution"
  bottom: "inception_4b/output"
  top: "inception_4c/3x3_reduce"
  param {
    lr_mult: 1
    decay_mult: 1
  }
  param {
    lr_mult: 2
    decay_mult: 0
  }
  convolution_param {
    num_output: 128
    kernel_size: 1
    weight_filler {
      type: "xavier"
      std: 0.09
    }
    bias_filler {
      type: "constant"
      value: 0.2
    }
  }
}
layer {
  name: "inception_4c/relu_3x3_reduce"
  type: "ReLU"
  bottom: "inception_4c/3x3_reduce"
  top: "inception_4c/3x3_reduce"
}
layer {
  name: "inception_4c/3x3"
  type: "Convolution"
  bottom: "inception_4c/3x3_reduce"
  top: "inception_4c/3x3"
  param {
    lr_mult: 1
    decay_mult: 1
  }
  param {
    lr_mult: 2
    decay_mult: 0
  }
  convolution_param {
    num_output: 256
    pad: 1
    kernel_size: 3
    weight_filler {
      type: "xavier"
      std: 0.03
    }
    bias_filler {
      type: "constant"
      value: 0.2
    }
  }
}
layer {
  name: "inception_4c/relu_3x3"
  type: "ReLU"
  bottom: "inception_4c/3x3"
  top: "inception_4c/3x3"
}
layer {
  name: "inception_4c/5x5_reduce"
  type: "Convolution"
  bottom: "inception_4b/output"
  top: "inception_4c/5x5_reduce"
  param {
    lr_mult: 1
    decay_mult: 1
  }
  param {
    lr_mult: 2
    decay_mult: 0
  }
  convolution_param {
    num_output: 24
    kernel_size: 1
    weight_filler {
      type: "xavier"
      std: 0.2
    }
    bias_filler {
      type: "constant"
      value: 0.2
    }
  }
}
layer {
  name: "inception_4c/relu_5x5_reduce"
  type: "ReLU"
  bottom: "inception_4c/5x5_reduce"
  top: "inception_4c/5x5_reduce"
}
layer {
  name: "inception_4c/5x5"
  type: "Convolution"
  bottom: "inception_4c/5x5_reduce"
  top: "inception_4c/5x5"
  param {
    lr_mult: 1
    decay_mult: 1
  }
  param {
    lr_mult: 2
    decay_mult: 0
  }
  convolution_param {
    num_output: 64
    pad: 2
    kernel_size: 5
    weight_filler {
      type: "xavier"
      std: 0.03
    }
    bias_filler {
      type: "constant"
      value: 0.2
    }
  }
}
layer {
  name: "inception_4c/relu_5x5"
  type: "ReLU"
  bottom: "inception_4c/5x5"
  top: "inception_4c/5x5"
}
layer {
  name: "inception_4c/pool"
  type: "Pooling"
  bottom: "inception_4b/output"
  top: "inception_4c/pool"
  pooling_param {
    pool: MAX
    kernel_size: 3
    stride: 1
    pad: 1
  }
}
layer {
  name: "inception_4c/pool_proj"
  type: "Convolution"
  bottom: "inception_4c/pool"
  top: "inception_4c/pool_proj"
  param {
    lr_mult: 1
    decay_mult: 1
  }
  param {
    lr_mult: 2
    decay_mult: 0
  }
  convolution_param {
    num_output: 64
    kernel_size: 1
    weight_filler {
      type: "xavier"
      std: 0.1
    }
    bias_filler {
      type: "constant"
      value: 0.2
    }
  }
}
layer {
  name: "inception_4c/relu_pool_proj"
  type: "ReLU"
  bottom: "inception_4c/pool_proj"
  top: "inception_4c/pool_proj"
}
layer {
  name: "inception_4c/output"
  type: "Concat"
  bottom: "inception_4c/1x1"
  bottom: "inception_4c/3x3"
  bottom: "inception_4c/5x5"
  bottom: "inception_4c/pool_proj"
  top: "inception_4c/output"
}
layer {
  name: "inception_4d/1x1"
  type: "Convolution"
  bottom: "inception_4c/output"
  top: "inception_4d/1x1"
  param {
    lr_mult: 1
    decay_mult: 1
  }
  param {
    lr_mult: 2
    decay_mult: 0
  }
  convolution_param {
    num_output: 112
    kernel_size: 1
    weight_filler {
      type: "xavier"
      std: 0.03
    }
    bias_filler {
      type: "constant"
      value: 0.2
    }
  }
}
layer {
  name: "inception_4d/relu_1x1"
  type: "ReLU"
  bottom: "inception_4d/1x1"
  top: "inception_4d/1x1"
}
layer {
  name: "inception_4d/3x3_reduce"
  type: "Convolution"
  bottom: "inception_4c/output"
  top: "inception_4d/3x3_reduce"
  param {
    lr_mult: 1
    decay_mult: 1
  }
  param {
    lr_mult: 2
    decay_mult: 0
  }
  convolution_param {
    num_output: 144
    kernel_size: 1
    weight_filler {
      type: "xavier"
      std: 0.09
    }
    bias_filler {
      type: "constant"
      value: 0.2
    }
  }
}
layer {
  name: "inception_4d/relu_3x3_reduce"
  type: "ReLU"
  bottom: "inception_4d/3x3_reduce"
  top: "inception_4d/3x3_reduce"
}
layer {
  name: "inception_4d/3x3"
  type: "Convolution"
  bottom: "inception_4d/3x3_reduce"
  top: "inception_4d/3x3"
  param {
    lr_mult: 1
    decay_mult: 1
  }
  param {
    lr_mult: 2
    decay_mult: 0
  }
  convolution_param {
    num_output: 288
    pad: 1
    kernel_size: 3
    weight_filler {
      type: "xavier"
      std: 0.03
    }
    bias_filler {
      type: "constant"
      value: 0.2
    }
  }
}
layer {
  name: "inception_4d/relu_3x3"
  type: "ReLU"
  bottom: "inception_4d/3x3"
  top: "inception_4d/3x3"
}
layer {
  name: "inception_4d/5x5_reduce"
  type: "Convolution"
  bottom: "inception_4c/output"
  top: "inception_4d/5x5_reduce"
  param {
    lr_mult: 1
    decay_mult: 1
  }
  param {
    lr_mult: 2
    decay_mult: 0
  }
  convolution_param {
    num_output: 32
    kernel_size: 1
    weight_filler {
      type: "xavier"
      std: 0.2
    }
    bias_filler {
      type: "constant"
      value: 0.2
    }
  }
}
layer {
  name: "inception_4d/relu_5x5_reduce"
  type: "ReLU"
  bottom: "inception_4d/5x5_reduce"
  top: "inception_4d/5x5_reduce"
}
layer {
  name: "inception_4d/5x5"
  type: "Convolution"
  bottom: "inception_4d/5x5_reduce"
  top: "inception_4d/5x5"
  param {
    lr_mult: 1
    decay_mult: 1
  }
  param {
    lr_mult: 2
    decay_mult: 0
  }
  convolution_param {
    num_output: 64
    pad: 2
    kernel_size: 5
    weight_filler {
      type: "xavier"
      std: 0.03
    }
    bias_filler {
      type: "constant"
      value: 0.2
    }
  }
}
layer {
  name: "inception_4d/relu_5x5"
  type: "ReLU"
  bottom: "inception_4d/5x5"
  top: "inception_4d/5x5"
}
layer {
  name: "inception_4d/pool"
  type: "Pooling"
  bottom: "inception_4c/output"
  top: "inception_4d/pool"
  pooling_param {
    pool: MAX
    kernel_size: 3
    stride: 1
    pad: 1
  }
}
layer {
  name: "inception_4d/pool_proj"
  type: "Convolution"
  bottom: "inception_4d/pool"
  top: "inception_4d/pool_proj"
  param {
    lr_mult: 1
    decay_mult: 1
  }
  param {
    lr_mult: 2
    decay_mult: 0
  }
  convolution_param {
    num_output: 64
    kernel_size: 1
    weight_filler {
      type: "xavier"
      std: 0.1
    }
    bias_filler {
      type: "constant"
      value: 0.2
    }
  }
}
layer {
  name: "inception_4d/relu_pool_proj"
  type: "ReLU"
  bottom: "inception_4d/pool_proj"
  top: "inception_4d/pool_proj"
}
layer {
  name: "inception_4d/output"
  type: "Concat"
  bottom: "inception_4d/1x1"
  bottom: "inception_4d/3x3"
  bottom: "inception_4d/5x5"
  bottom: "inception_4d/pool_proj"
  top: "inception_4d/output"
}
layer {
  name: "loss2/ave_pool"
  type: "Pooling"
  bottom: "inception_4d/output"
  top: "loss2/ave_pool"
  pooling_param {
    pool: AVE
    kernel_size: 5
    stride: 3
  }
}
layer {
  name: "loss2/conv"
  type: "Convolution"
  bottom: "loss2/ave_pool"
  top: "loss2/conv"
  param {
    lr_mult: 1
    decay_mult: 1
  }
  param {
    lr_mult: 2
    decay_mult: 0
  }
  convolution_param {
    num_output: 128
    kernel_size: 1
    weight_filler {
      type: "xavier"
      std: 0.08
    }
    bias_filler {
      type: "constant"
      value: 0.2
    }
  }
}
layer {
  name: "loss2/relu_conv"
  type: "ReLU"
  bottom: "loss2/conv"
  top: "loss2/conv"
}
layer {
  name: "loss2/fc"
  type: "InnerProduct"
  bottom: "loss2/conv"
  top: "loss2/fc"
  param {
    lr_mult: 1
    decay_mult: 1
  }
  param {
    lr_mult: 2
    decay_mult: 0
  }
  inner_product_param {
    num_output: 1024
    weight_filler {
      type: "xavier"
      std: 0.02
    }
    bias_filler {
      type: "constant"
      value: 0.2
    }
  }
}
layer {
  name: "loss2/relu_fc"
  type: "ReLU"
  bottom: "loss2/fc"
  top: "loss2/fc"
}
layer {
  name: "loss2/drop_fc"
  type: "Dropout"
  bottom: "loss2/fc"
  top: "loss2/fc"
  dropout_param {
    dropout_ratio: 0.7
  }
}
layer {
  name: "loss2/classifier_plantvillage"
  type: "InnerProduct"
  bottom: "loss2/fc"
  top: "loss2/classifier_plantvillage"
  param {
    lr_mult: 1
    decay_mult: 1
  }
  param {
    lr_mult: 2
    decay_mult: 0
  }
  inner_product_param {
    num_output: 38
    weight_filler {
      type: "xavier"
      std: 0.0009765625
    }
    bias_filler {
      type: "constant"
      value: 0
    }
  }
}
layer {
  name: "inception_4e/1x1"
  type: "Convolution"
  bottom: "inception_4d/output"
  top: "inception_4e/1x1"
  param {
    lr_mult: 1
    decay_mult: 1
  }
  param {
    lr_mult: 2
    decay_mult: 0
  }
  convolution_param {
    num_output: 256
    kernel_size: 1
    weight_filler {
      type: "xavier"
      std: 0.03
    }
    bias_filler {
      type: "constant"
      value: 0.2
    }
  }
}
layer {
  name: "inception_4e/relu_1x1"
  type: "ReLU"
  bottom: "inception_4e/1x1"
  top: "inception_4e/1x1"
}
layer {
  name: "inception_4e/3x3_reduce"
  type: "Convolution"
  bottom: "inception_4d/output"
  top: "inception_4e/3x3_reduce"
  param {
    lr_mult: 1
    decay_mult: 1
  }
  param {
    lr_mult: 2
    decay_mult: 0
  }
  convolution_param {
    num_output: 160
    kernel_size: 1
    weight_filler {
      type: "xavier"
      std: 0.09
    }
    bias_filler {
      type: "constant"
      value: 0.2
    }
  }
}
layer {
  name: "inception_4e/relu_3x3_reduce"
  type: "ReLU"
  bottom: "inception_4e/3x3_reduce"
  top: "inception_4e/3x3_reduce"
}
layer {
  name: "inception_4e/3x3"
  type: "Convolution"
  bottom: "inception_4e/3x3_reduce"
  top: "inception_4e/3x3"
  param {
    lr_mult: 1
    decay_mult: 1
  }
  param {
    lr_mult: 2
    decay_mult: 0
  }
  convolution_param {
    num_output: 320
    pad: 1
    kernel_size: 3
    weight_filler {
      type: "xavier"
      std: 0.03
    }
    bias_filler {
      type: "constant"
      value: 0.2
    }
  }
}
layer {
  name: "inception_4e/relu_3x3"
  type: "ReLU"
  bottom: "inception_4e/3x3"
  top: "inception_4e/3x3"
}
layer {
  name: "inception_4e/5x5_reduce"
  type: "Convolution"
  bottom: "inception_4d/output"
  top: "inception_4e/5x5_reduce"
  param {
    lr_mult: 1
    decay_mult: 1
  }
  param {
    lr_mult: 2
    decay_mult: 0
  }
  convolution_param {
    num_output: 32
    kernel_size: 1
    weight_filler {
      type: "xavier"
      std: 0.2
    }
    bias_filler {
      type: "constant"
      value: 0.2
    }
  }
}
layer {
  name: "inception_4e/relu_5x5_reduce"
  type: "ReLU"
  bottom: "inception_4e/5x5_reduce"
  top: "inception_4e/5x5_reduce"
}
layer {
  name: "inception_4e/5x5"
  type: "Convolution"
  bottom: "inception_4e/5x5_reduce"
  top: "inception_4e/
I0403 15:52:38.319937 11622 layer_factory.hpp:77] Creating layer data
I0403 15:52:38.320552 11622 net.cpp:91] Creating Layer data
I0403 15:52:38.320583 11622 net.cpp:399] data -> data
I0403 15:52:38.320633 11622 net.cpp:399] data -> label
I0403 15:52:38.320669 11622 data_transformer.cpp:25] Loading mean file from: /home/mohanty/data/final_dataset/lmdb/segmented-80-20/mean.binaryproto
I0403 15:52:38.323870 11624 db_lmdb.cpp:38] Opened lmdb /home/mohanty/data/final_dataset/lmdb/segmented-80-20/test_db
I0403 15:52:38.333470 11622 data_layer.cpp:41] output data size: 24,3,224,224
I0403 15:52:38.360031 11622 net.cpp:141] Setting up data
I0403 15:52:38.360117 11622 net.cpp:148] Top shape: 24 3 224 224 (3612672)
I0403 15:52:38.360138 11622 net.cpp:148] Top shape: 24 (24)
I0403 15:52:38.360154 11622 net.cpp:156] Memory required for data: 14450784
I0403 15:52:38.360180 11622 layer_factory.hpp:77] Creating layer label_data_1_split
I0403 15:52:38.360206 11622 net.cpp:91] Creating Layer label_data_1_split
I0403 15:52:38.360224 11622 net.cpp:425] label_data_1_split <- label
I0403 15:52:38.360255 11622 net.cpp:399] label_data_1_split -> label_data_1_split_0
I0403 15:52:38.360282 11622 net.cpp:399] label_data_1_split -> label_data_1_split_1
I0403 15:52:38.360302 11622 net.cpp:399] label_data_1_split -> label_data_1_split_2
I0403 15:52:38.360323 11622 net.cpp:399] label_data_1_split -> label_data_1_split_3
I0403 15:52:38.360342 11622 net.cpp:399] label_data_1_split -> label_data_1_split_4
I0403 15:52:38.360363 11622 net.cpp:399] label_data_1_split -> label_data_1_split_5
I0403 15:52:38.360381 11622 net.cpp:399] label_data_1_split -> label_data_1_split_6
I0403 15:52:38.360401 11622 net.cpp:399] label_data_1_split -> label_data_1_split_7
I0403 15:52:38.360420 11622 net.cpp:399] label_data_1_split -> label_data_1_split_8
I0403 15:52:38.360440 11622 net.cpp:399] label_data_1_split -> label_data_1_split_9
I0403 15:52:38.360554 11622 net.cpp:141] Setting up label_data_1_split
I0403 15:52:38.360579 11622 net.cpp:148] Top shape: 24 (24)
I0403 15:52:38.360595 11622 net.cpp:148] Top shape: 24 (24)
I0403 15:52:38.360611 11622 net.cpp:148] Top shape: 24 (24)
I0403 15:52:38.360626 11622 net.cpp:148] Top shape: 24 (24)
I0403 15:52:38.360643 11622 net.cpp:148] Top shape: 24 (24)
I0403 15:52:38.360659 11622 net.cpp:148] Top shape: 24 (24)
I0403 15:52:38.360676 11622 net.cpp:148] Top shape: 24 (24)
I0403 15:52:38.360692 11622 net.cpp:148] Top shape: 24 (24)
I0403 15:52:38.360707 11622 net.cpp:148] Top shape: 24 (24)
I0403 15:52:38.360723 11622 net.cpp:148] Top shape: 24 (24)
I0403 15:52:38.360769 11622 net.cpp:156] Memory required for data: 14451744
I0403 15:52:38.360785 11622 layer_factory.hpp:77] Creating layer conv1/7x7_s2
I0403 15:52:38.360816 11622 net.cpp:91] Creating Layer conv1/7x7_s2
I0403 15:52:38.360834 11622 net.cpp:425] conv1/7x7_s2 <- data
I0403 15:52:38.360853 11622 net.cpp:399] conv1/7x7_s2 -> conv1/7x7_s2
I0403 15:52:38.502207 11622 net.cpp:141] Setting up conv1/7x7_s2
I0403 15:52:38.502306 11622 net.cpp:148] Top shape: 24 64 112 112 (19267584)
I0403 15:52:38.502323 11622 net.cpp:156] Memory required for data: 91522080
I0403 15:52:38.502353 11622 layer_factory.hpp:77] Creating layer conv1/relu_7x7
I0403 15:52:38.502379 11622 net.cpp:91] Creating Layer conv1/relu_7x7
I0403 15:52:38.502398 11622 net.cpp:425] conv1/relu_7x7 <- conv1/7x7_s2
I0403 15:52:38.502416 11622 net.cpp:386] conv1/relu_7x7 -> conv1/7x7_s2 (in-place)
I0403 15:52:38.502665 11622 net.cpp:141] Setting up conv1/relu_7x7
I0403 15:52:38.502691 11622 net.cpp:148] Top shape: 24 64 112 112 (19267584)
I0403 15:52:38.502707 11622 net.cpp:156] Memory required for data: 168592416
I0403 15:52:38.502720 11622 layer_factory.hpp:77] Creating layer pool1/3x3_s2
I0403 15:52:38.502744 11622 net.cpp:91] Creating Layer pool1/3x3_s2
I0403 15:52:38.502761 11622 net.cpp:425] pool1/3x3_s2 <- conv1/7x7_s2
I0403 15:52:38.502779 11622 net.cpp:399] pool1/3x3_s2 -> pool1/3x3_s2
I0403 15:52:38.502851 11622 net.cpp:141] Setting up pool1/3x3_s2
I0403 15:52:38.502874 11622 net.cpp:148] Top shape: 24 64 56 56 (4816896)
I0403 15:52:38.502889 11622 net.cpp:156] Memory required for data: 187860000
I0403 15:52:38.502917 11622 layer_factory.hpp:77] Creating layer pool1/norm1
I0403 15:52:38.502943 11622 net.cpp:91] Creating Layer pool1/norm1
I0403 15:52:38.502959 11622 net.cpp:425] pool1/norm1 <- pool1/3x3_s2
I0403 15:52:38.502981 11622 net.cpp:399] pool1/norm1 -> pool1/norm1
I0403 15:52:38.503278 11622 net.cpp:141] Setting up pool1/norm1
I0403 15:52:38.503304 11622 net.cpp:148] Top shape: 24 64 56 56 (4816896)
I0403 15:52:38.503319 11622 net.cpp:156] Memory required for data: 207127584
I0403 15:52:38.503334 11622 layer_factory.hpp:77] Creating layer conv2/3x3_reduce
I0403 15:52:38.503357 11622 net.cpp:91] Creating Layer conv2/3x3_reduce
I0403 15:52:38.503374 11622 net.cpp:425] conv2/3x3_reduce <- pool1/norm1
I0403 15:52:38.503391 11622 net.cpp:399] conv2/3x3_reduce -> conv2/3x3_reduce
I0403 15:52:38.504679 11622 net.cpp:141] Setting up conv2/3x3_reduce
I0403 15:52:38.504709 11622 net.cpp:148] Top shape: 24 64 56 56 (4816896)
I0403 15:52:38.504724 11622 net.cpp:156] Memory required for data: 226395168
I0403 15:52:38.504745 11622 layer_factory.hpp:77] Creating layer conv2/relu_3x3_reduce
I0403 15:52:38.504763 11622 net.cpp:91] Creating Layer conv2/relu_3x3_reduce
I0403 15:52:38.504778 11622 net.cpp:425] conv2/relu_3x3_reduce <- conv2/3x3_reduce
I0403 15:52:38.504794 11622 net.cpp:386] conv2/relu_3x3_reduce -> conv2/3x3_reduce (in-place)
I0403 15:52:38.505041 11622 net.cpp:141] Setting up conv2/relu_3x3_reduce
I0403 15:52:38.505067 11622 net.cpp:148] Top shape: 24 64 56 56 (4816896)
I0403 15:52:38.505082 11622 net.cpp:156] Memory required for data: 245662752
I0403 15:52:38.505096 11622 layer_factory.hpp:77] Creating layer conv2/3x3
I0403 15:52:38.505118 11622 net.cpp:91] Creating Layer conv2/3x3
I0403 15:52:38.505136 11622 net.cpp:425] conv2/3x3 <- conv2/3x3_reduce
I0403 15:52:38.505153 11622 net.cpp:399] conv2/3x3 -> conv2/3x3
I0403 15:52:38.507304 11622 net.cpp:141] Setting up conv2/3x3
I0403 15:52:38.507334 11622 net.cpp:148] Top shape: 24 192 56 56 (14450688)
I0403 15:52:38.507350 11622 net.cpp:156] Memory required for data: 303465504
I0403 15:52:38.507369 11622 layer_factory.hpp:77] Creating layer conv2/relu_3x3
I0403 15:52:38.507388 11622 net.cpp:91] Creating Layer conv2/relu_3x3
I0403 15:52:38.507405 11622 net.cpp:425] conv2/relu_3x3 <- conv2/3x3
I0403 15:52:38.507421 11622 net.cpp:386] conv2/relu_3x3 -> conv2/3x3 (in-place)
I0403 15:52:38.507593 11622 net.cpp:141] Setting up conv2/relu_3x3
I0403 15:52:38.507618 11622 net.cpp:148] Top shape: 24 192 56 56 (14450688)
I0403 15:52:38.507663 11622 net.cpp:156] Memory required for data: 361268256
I0403 15:52:38.507678 11622 layer_factory.hpp:77] Creating layer conv2/norm2
I0403 15:52:38.507699 11622 net.cpp:91] Creating Layer conv2/norm2
I0403 15:52:38.507714 11622 net.cpp:425] conv2/norm2 <- conv2/3x3
I0403 15:52:38.507731 11622 net.cpp:399] conv2/norm2 -> conv2/norm2
I0403 15:52:38.508035 11622 net.cpp:141] Setting up conv2/norm2
I0403 15:52:38.508064 11622 net.cpp:148] Top shape: 24 192 56 56 (14450688)
I0403 15:52:38.508080 11622 net.cpp:156] Memory required for data: 419071008
I0403 15:52:38.508095 11622 layer_factory.hpp:77] Creating layer pool2/3x3_s2
I0403 15:52:38.508111 11622 net.cpp:91] Creating Layer pool2/3x3_s2
I0403 15:52:38.508126 11622 net.cpp:425] pool2/3x3_s2 <- conv2/norm2
I0403 15:52:38.508143 11622 net.cpp:399] pool2/3x3_s2 -> pool2/3x3_s2
I0403 15:52:38.508198 11622 net.cpp:141] Setting up pool2/3x3_s2
I0403 15:52:38.508219 11622 net.cpp:148] Top shape: 24 192 28 28 (3612672)
I0403 15:52:38.508234 11622 net.cpp:156] Memory required for data: 433521696
I0403 15:52:38.508247 11622 layer_factory.hpp:77] Creating layer pool2/3x3_s2_pool2/3x3_s2_0_split
I0403 15:52:38.508265 11622 net.cpp:91] Creating Layer pool2/3x3_s2_pool2/3x3_s2_0_split
I0403 15:52:38.508280 11622 net.cpp:425] pool2/3x3_s2_pool2/3x3_s2_0_split <- pool2/3x3_s2
I0403 15:52:38.508298 11622 net.cpp:399] pool2/3x3_s2_pool2/3x3_s2_0_split -> pool2/3x3_s2_pool2/3x3_s2_0_split_0
I0403 15:52:38.508319 11622 net.cpp:399] pool2/3x3_s2_pool2/3x3_s2_0_split -> pool2/3x3_s2_pool2/3x3_s2_0_split_1
I0403 15:52:38.508338 11622 net.cpp:399] pool2/3x3_s2_pool2/3x3_s2_0_split -> pool2/3x3_s2_pool2/3x3_s2_0_split_2
I0403 15:52:38.508359 11622 net.cpp:399] pool2/3x3_s2_pool2/3x3_s2_0_split -> pool2/3x3_s2_pool2/3x3_s2_0_split_3
I0403 15:52:38.508429 11622 net.cpp:141] Setting up pool2/3x3_s2_pool2/3x3_s2_0_split
I0403 15:52:38.508450 11622 net.cpp:148] Top shape: 24 192 28 28 (3612672)
I0403 15:52:38.508466 11622 net.cpp:148] Top shape: 24 192 28 28 (3612672)
I0403 15:52:38.508481 11622 net.cpp:148] Top shape: 24 192 28 28 (3612672)
I0403 15:52:38.508496 11622 net.cpp:148] Top shape: 24 192 28 28 (3612672)
I0403 15:52:38.508508 11622 net.cpp:156] Memory required for data: 491324448
I0403 15:52:38.508522 11622 layer_factory.hpp:77] Creating layer inception_3a/1x1
I0403 15:52:38.508543 11622 net.cpp:91] Creating Layer inception_3a/1x1
I0403 15:52:38.508560 11622 net.cpp:425] inception_3a/1x1 <- pool2/3x3_s2_pool2/3x3_s2_0_split_0
I0403 15:52:38.508580 11622 net.cpp:399] inception_3a/1x1 -> inception_3a/1x1
I0403 15:52:38.510083 11622 net.cpp:141] Setting up inception_3a/1x1
I0403 15:52:38.510114 11622 net.cpp:148] Top shape: 24 64 28 28 (1204224)
I0403 15:52:38.510130 11622 net.cpp:156] Memory required for data: 496141344
I0403 15:52:38.510149 11622 layer_factory.hpp:77] Creating layer inception_3a/relu_1x1
I0403 15:52:38.510167 11622 net.cpp:91] Creating Layer inception_3a/relu_1x1
I0403 15:52:38.510182 11622 net.cpp:425] inception_3a/relu_1x1 <- inception_3a/1x1
I0403 15:52:38.510201 11622 net.cpp:386] inception_3a/relu_1x1 -> inception_3a/1x1 (in-place)
I0403 15:52:38.510373 11622 net.cpp:141] Setting up inception_3a/relu_1x1
I0403 15:52:38.510398 11622 net.cpp:148] Top shape: 24 64 28 28 (1204224)
I0403 15:52:38.510412 11622 net.cpp:156] Memory required for data: 500958240
I0403 15:52:38.510426 11622 layer_factory.hpp:77] Creating layer inception_3a/3x3_reduce
I0403 15:52:38.510447 11622 net.cpp:91] Creating Layer inception_3a/3x3_reduce
I0403 15:52:38.510465 11622 net.cpp:425] inception_3a/3x3_reduce <- pool2/3x3_s2_pool2/3x3_s2_0_split_1
I0403 15:52:38.510485 11622 net.cpp:399] inception_3a/3x3_reduce -> inception_3a/3x3_reduce
I0403 15:52:38.512143 11622 net.cpp:141] Setting up inception_3a/3x3_reduce
I0403 15:52:38.512174 11622 net.cpp:148] Top shape: 24 96 28 28 (1806336)
I0403 15:52:38.512190 11622 net.cpp:156] Memory required for data: 508183584
I0403 15:52:38.512213 11622 layer_factory.hpp:77] Creating layer inception_3a/relu_3x3_reduce
I0403 15:52:38.512248 11622 net.cpp:91] Creating Layer inception_3a/relu_3x3_reduce
I0403 15:52:38.512265 11622 net.cpp:425] inception_3a/relu_3x3_reduce <- inception_3a/3x3_reduce
I0403 15:52:38.512284 11622 net.cpp:386] inception_3a/relu_3x3_reduce -> inception_3a/3x3_reduce (in-place)
I0403 15:52:38.512462 11622 net.cpp:141] Setting up inception_3a/relu_3x3_reduce
I0403 15:52:38.512490 11622 net.cpp:148] Top shape: 24 96 28 28 (1806336)
I0403 15:52:38.512504 11622 net.cpp:156] Memory required for data: 515408928
I0403 15:52:38.512518 11622 layer_factory.hpp:77] Creating layer inception_3a/3x3
I0403 15:52:38.512540 11622 net.cpp:91] Creating Layer inception_3a/3x3
I0403 15:52:38.512557 11622 net.cpp:425] inception_3a/3x3 <- inception_3a/3x3_reduce
I0403 15:52:38.512575 11622 net.cpp:399] inception_3a/3x3 -> inception_3a/3x3
I0403 15:52:38.514184 11622 net.cpp:141] Setting up inception_3a/3x3
I0403 15:52:38.514214 11622 net.cpp:148] Top shape: 24 128 28 28 (2408448)
I0403 15:52:38.514228 11622 net.cpp:156] Memory required for data: 525042720
I0403 15:52:38.514246 11622 layer_factory.hpp:77] Creating layer inception_3a/relu_3x3
I0403 15:52:38.514264 11622 net.cpp:91] Creating Layer inception_3a/relu_3x3
I0403 15:52:38.514279 11622 net.cpp:425] inception_3a/relu_3x3 <- inception_3a/3x3
I0403 15:52:38.514297 11622 net.cpp:386] inception_3a/relu_3x3 -> inception_3a/3x3 (in-place)
I0403 15:52:38.514565 11622 net.cpp:141] Setting up inception_3a/relu_3x3
I0403 15:52:38.514591 11622 net.cpp:148] Top shape: 24 128 28 28 (2408448)
I0403 15:52:38.514606 11622 net.cpp:156] Memory required for data: 534676512
I0403 15:52:38.514621 11622 layer_factory.hpp:77] Creating layer inception_3a/5x5_reduce
I0403 15:52:38.514642 11622 net.cpp:91] Creating Layer inception_3a/5x5_reduce
I0403 15:52:38.514659 11622 net.cpp:425] inception_3a/5x5_reduce <- pool2/3x3_s2_pool2/3x3_s2_0_split_2
I0403 15:52:38.514679 11622 net.cpp:399] inception_3a/5x5_reduce -> inception_3a/5x5_reduce
I0403 15:52:38.515652 11622 net.cpp:141] Setting up inception_3a/5x5_reduce
I0403 15:52:38.515679 11622 net.cpp:148] Top shape: 24 16 28 28 (301056)
I0403 15:52:38.515694 11622 net.cpp:156] Memory required for data: 535880736
I0403 15:52:38.515712 11622 layer_factory.hpp:77] Creating layer inception_3a/relu_5x5_reduce
I0403 15:52:38.515733 11622 net.cpp:91] Creating Layer inception_3a/relu_5x5_reduce
I0403 15:52:38.515750 11622 net.cpp:425] inception_3a/relu_5x5_reduce <- inception_3a/5x5_reduce
I0403 15:52:38.515768 11622 net.cpp:386] inception_3a/relu_5x5_reduce -> inception_3a/5x5_reduce (in-place)
I0403 15:52:38.516064 11622 net.cpp:141] Setting up inception_3a/relu_5x5_reduce
I0403 15:52:38.516090 11622 net.cpp:148] Top shape: 24 16 28 28 (301056)
I0403 15:52:38.516105 11622 net.cpp:156] Memory required for data: 537084960
I0403 15:52:38.516119 11622 layer_factory.hpp:77] Creating layer inception_3a/5x5
I0403 15:52:38.516141 11622 net.cpp:91] Creating Layer inception_3a/5x5
I0403 15:52:38.516158 11622 net.cpp:425] inception_3a/5x5 <- inception_3a/5x5_reduce
I0403 15:52:38.516180 11622 net.cpp:399] inception_3a/5x5 -> inception_3a/5x5
I0403 15:52:38.517177 11622 net.cpp:141] Setting up inception_3a/5x5
I0403 15:52:38.517212 11622 net.cpp:148] Top shape: 24 32 28 28 (602112)
I0403 15:52:38.517230 11622 net.cpp:156] Memory required for data: 539493408
I0403 15:52:38.517247 11622 layer_factory.hpp:77] Creating layer inception_3a/relu_5x5
I0403 15:52:38.517266 11622 net.cpp:91] Creating Layer inception_3a/relu_5x5
I0403 15:52:38.517280 11622 net.cpp:425] inception_3a/relu_5x5 <- inception_3a/5x5
I0403 15:52:38.517299 11622 net.cpp:386] inception_3a/relu_5x5 -> inception_3a/5x5 (in-place)
I0403 15:52:38.517472 11622 net.cpp:141] Setting up inception_3a/relu_5x5
I0403 15:52:38.517495 11622 net.cpp:148] Top shape: 24 32 28 28 (602112)
I0403 15:52:38.517509 11622 net.cpp:156] Memory required for data: 541901856
I0403 15:52:38.517524 11622 layer_factory.hpp:77] Creating layer inception_3a/pool
I0403 15:52:38.517540 11622 net.cpp:91] Creating Layer inception_3a/pool
I0403 15:52:38.517570 11622 net.cpp:425] inception_3a/pool <- pool2/3x3_s2_pool2/3x3_s2_0_split_3
I0403 15:52:38.517590 11622 net.cpp:399] inception_3a/pool -> inception_3a/pool
I0403 15:52:38.517647 11622 net.cpp:141] Setting up inception_3a/pool
I0403 15:52:38.517668 11622 net.cpp:148] Top shape: 24 192 28 28 (3612672)
I0403 15:52:38.517683 11622 net.cpp:156] Memory required for data: 556352544
I0403 15:52:38.517696 11622 layer_factory.hpp:77] Creating layer inception_3a/pool_proj
I0403 15:52:38.517719 11622 net.cpp:91] Creating Layer inception_3a/pool_proj
I0403 15:52:38.517736 11622 net.cpp:425] inception_3a/pool_proj <- inception_3a/pool
I0403 15:52:38.517755 11622 net.cpp:399] inception_3a/pool_proj -> inception_3a/pool_proj
I0403 15:52:38.518770 11622 net.cpp:141] Setting up inception_3a/pool_proj
I0403 15:52:38.518798 11622 net.cpp:148] Top shape: 24 32 28 28 (602112)
I0403 15:52:38.518815 11622 net.cpp:156] Memory required for data: 558760992
I0403 15:52:38.518837 11622 layer_factory.hpp:77] Creating layer inception_3a/relu_pool_proj
I0403 15:52:38.518860 11622 net.cpp:91] Creating Layer inception_3a/relu_pool_proj
I0403 15:52:38.518877 11622 net.cpp:425] inception_3a/relu_pool_proj <- inception_3a/pool_proj
I0403 15:52:38.518894 11622 net.cpp:386] inception_3a/relu_pool_proj -> inception_3a/pool_proj (in-place)
I0403 15:52:38.519172 11622 net.cpp:141] Setting up inception_3a/relu_pool_proj
I0403 15:52:38.519198 11622 net.cpp:148] Top shape: 24 32 28 28 (602112)
I0403 15:52:38.519213 11622 net.cpp:156] Memory required for data: 561169440
I0403 15:52:38.519228 11622 layer_factory.hpp:77] Creating layer inception_3a/output
I0403 15:52:38.519245 11622 net.cpp:91] Creating Layer inception_3a/output
I0403 15:52:38.519261 11622 net.cpp:425] inception_3a/output <- inception_3a/1x1
I0403 15:52:38.519278 11622 net.cpp:425] inception_3a/output <- inception_3a/3x3
I0403 15:52:38.519292 11622 net.cpp:425] inception_3a/output <- inception_3a/5x5
I0403 15:52:38.519309 11622 net.cpp:425] inception_3a/output <- inception_3a/pool_proj
I0403 15:52:38.519328 11622 net.cpp:399] inception_3a/output -> inception_3a/output
I0403 15:52:38.519374 11622 net.cpp:141] Setting up inception_3a/output
I0403 15:52:38.519398 11622 net.cpp:148] Top shape: 24 256 28 28 (4816896)
I0403 15:52:38.519413 11622 net.cpp:156] Memory required for data: 580437024
I0403 15:52:38.519428 11622 layer_factory.hpp:77] Creating layer inception_3a/output_inception_3a/output_0_split
I0403 15:52:38.519446 11622 net.cpp:91] Creating Layer inception_3a/output_inception_3a/output_0_split
I0403 15:52:38.519464 11622 net.cpp:425] inception_3a/output_inception_3a/output_0_split <- inception_3a/output
I0403 15:52:38.519480 11622 net.cpp:399] inception_3a/output_inception_3a/output_0_split -> inception_3a/output_inception_3a/output_0_split_0
I0403 15:52:38.519501 11622 net.cpp:399] inception_3a/output_inception_3a/output_0_split -> inception_3a/output_inception_3a/output_0_split_1
I0403 15:52:38.519525 11622 net.cpp:399] inception_3a/output_inception_3a/output_0_split -> inception_3a/output_inception_3a/output_0_split_2
I0403 15:52:38.519546 11622 net.cpp:399] inception_3a/output_inception_3a/output_0_split -> inception_3a/output_inception_3a/output_0_split_3
I0403 15:52:38.519621 11622 net.cpp:141] Setting up inception_3a/output_inception_3a/output_0_split
I0403 15:52:38.519645 11622 net.cpp:148] Top shape: 24 256 28 28 (4816896)
I0403 15:52:38.519664 11622 net.cpp:148] Top shape: 24 256 28 28 (4816896)
I0403 15:52:38.519680 11622 net.cpp:148] Top shape: 24 256 28 28 (4816896)
I0403 15:52:38.519695 11622 net.cpp:148] Top shape: 24 256 28 28 (4816896)
I0403 15:52:38.519708 11622 net.cpp:156] Memory required for data: 657507360
I0403 15:52:38.519722 11622 layer_factory.hpp:77] Creating layer inception_3b/1x1
I0403 15:52:38.519744 11622 net.cpp:91] Creating Layer inception_3b/1x1
I0403 15:52:38.519762 11622 net.cpp:425] inception_3b/1x1 <- inception_3a/output_inception_3a/output_0_split_0
I0403 15:52:38.519783 11622 net.cpp:399] inception_3b/1x1 -> inception_3b/1x1
I0403 15:52:38.520915 11622 net.cpp:141] Setting up inception_3b/1x1
I0403 15:52:38.520958 11622 net.cpp:148] Top shape: 24 128 28 28 (2408448)
I0403 15:52:38.520975 11622 net.cpp:156] Memory required for data: 667141152
I0403 15:52:38.520999 11622 layer_factory.hpp:77] Creating layer inception_3b/relu_1x1
I0403 15:52:38.521018 11622 net.cpp:91] Creating Layer inception_3b/relu_1x1
I0403 15:52:38.521034 11622 net.cpp:425] inception_3b/relu_1x1 <- inception_3b/1x1
I0403 15:52:38.521050 11622 net.cpp:386] inception_3b/relu_1x1 -> inception_3b/1x1 (in-place)
I0403 15:52:38.521258 11622 net.cpp:141] Setting up inception_3b/relu_1x1
I0403 15:52:38.521286 11622 net.cpp:148] Top shape: 24 128 28 28 (2408448)
I0403 15:52:38.521301 11622 net.cpp:156] Memory required for data: 676774944
I0403 15:52:38.521317 11622 layer_factory.hpp:77] Creating layer inception_3b/3x3_reduce
I0403 15:52:38.521342 11622 net.cpp:91] Creating Layer inception_3b/3x3_reduce
I0403 15:52:38.521359 11622 net.cpp:425] inception_3b/3x3_reduce <- inception_3a/output_inception_3a/output_0_split_1
I0403 15:52:38.521381 11622 net.cpp:399] inception_3b/3x3_reduce -> inception_3b/3x3_reduce
I0403 15:52:38.522541 11622 net.cpp:141] Setting up inception_3b/3x3_reduce
I0403 15:52:38.522572 11622 net.cpp:148] Top shape: 24 128 28 28 (2408448)
I0403 15:52:38.522588 11622 net.cpp:156] Memory required for data: 686408736
I0403 15:52:38.522605 11622 layer_factory.hpp:77] Creating layer inception_3b/relu_3x3_reduce
I0403 15:52:38.522624 11622 net.cpp:91] Creating Layer inception_3b/relu_3x3_reduce
I0403 15:52:38.522641 11622 net.cpp:425] inception_3b/relu_3x3_reduce <- inception_3b/3x3_reduce
I0403 15:52:38.522660 11622 net.cpp:386] inception_3b/relu_3x3_reduce -> inception_3b/3x3_reduce (in-place)
I0403 15:52:38.522835 11622 net.cpp:141] Setting up inception_3b/relu_3x3_reduce
I0403 15:52:38.522861 11622 net.cpp:148] Top shape: 24 128 28 28 (2408448)
I0403 15:52:38.522876 11622 net.cpp:156] Memory required for data: 696042528
I0403 15:52:38.522891 11622 layer_factory.hpp:77] Creating layer inception_3b/3x3
I0403 15:52:38.522915 11622 net.cpp:91] Creating Layer inception_3b/3x3
I0403 15:52:38.522933 11622 net.cpp:425] inception_3b/3x3 <- inception_3b/3x3_reduce
I0403 15:52:38.522953 11622 net.cpp:399] inception_3b/3x3 -> inception_3b/3x3
I0403 15:52:38.525863 11622 net.cpp:141] Setting up inception_3b/3x3
I0403 15:52:38.525892 11622 net.cpp:148] Top shape: 24 192 28 28 (3612672)
I0403 15:52:38.525908 11622 net.cpp:156] Memory required for data: 710493216
I0403 15:52:38.525926 11622 layer_factory.hpp:77] Creating layer inception_3b/relu_3x3
I0403 15:52:38.525945 11622 net.cpp:91] Creating Layer inception_3b/relu_3x3
I0403 15:52:38.525961 11622 net.cpp:425] inception_3b/relu_3x3 <- inception_3b/3x3
I0403 15:52:38.525985 11622 net.cpp:386] inception_3b/relu_3x3 -> inception_3b/3x3 (in-place)
I0403 15:52:38.526263 11622 net.cpp:141] Setting up inception_3b/relu_3x3
I0403 15:52:38.526289 11622 net.cpp:148] Top shape: 24 192 28 28 (3612672)
I0403 15:52:38.526305 11622 net.cpp:156] Memory required for data: 724943904
I0403 15:52:38.526320 11622 layer_factory.hpp:77] Creating layer inception_3b/5x5_reduce
I0403 15:52:38.526343 11622 net.cpp:91] Creating Layer inception_3b/5x5_reduce
I0403 15:52:38.526361 11622 net.cpp:425] inception_3b/5x5_reduce <- inception_3a/output_inception_3a/output_0_split_2
I0403 15:52:38.526382 11622 net.cpp:399] inception_3b/5x5_reduce -> inception_3b/5x5_reduce
I0403 15:52:38.527380 11622 net.cpp:141] Setting up inception_3b/5x5_reduce
I0403 15:52:38.527410 11622 net.cpp:148] Top shape: 24 32 28 28 (602112)
I0403 15:52:38.527427 11622 net.cpp:156] Memory required for data: 727352352
I0403 15:52:38.527446 11622 layer_factory.hpp:77] Creating layer inception_3b/relu_5x5_reduce
I0403 15:52:38.527463 11622 net.cpp:91] Creating Layer inception_3b/relu_5x5_reduce
I0403 15:52:38.527479 11622 net.cpp:425] inception_3b/relu_5x5_reduce <- inception_3b/5x5_reduce
I0403 15:52:38.527499 11622 net.cpp:386] inception_3b/relu_5x5_reduce -> inception_3b/5x5_reduce (in-place)
I0403 15:52:38.527693 11622 net.cpp:141] Setting up inception_3b/relu_5x5_reduce
I0403 15:52:38.527719 11622 net.cpp:148] Top shape: 24 32 28 28 (602112)
I0403 15:52:38.527732 11622 net.cpp:156] Memory required for data: 729760800
I0403 15:52:38.527747 11622 layer_factory.hpp:77] Creating layer inception_3b/5x5
I0403 15:52:38.527770 11622 net.cpp:91] Creating Layer inception_3b/5x5
I0403 15:52:38.527787 11622 net.cpp:425] inception_3b/5x5 <- inception_3b/5x5_reduce
I0403 15:52:38.527808 11622 net.cpp:399] inception_3b/5x5 -> inception_3b/5x5
I0403 15:52:38.529804 11622 net.cpp:141] Setting up inception_3b/5x5
I0403 15:52:38.529834 11622 net.cpp:148] Top shape: 24 96 28 28 (1806336)
I0403 15:52:38.529850 11622 net.cpp:156] Memory required for data: 736986144
I0403 15:52:38.529868 11622 layer_factory.hpp:77] Creating layer inception_3b/relu_5x5
I0403 15:52:38.529889 11622 net.cpp:91] Creating Layer inception_3b/relu_5x5
I0403 15:52:38.529906 11622 net.cpp:425] inception_3b/relu_5x5 <- inception_3b/5x5
I0403 15:52:38.529924 11622 net.cpp:386] inception_3b/relu_5x5 -> inception_3b/5x5 (in-place)
I0403 15:52:38.530125 11622 net.cpp:141] Setting up inception_3b/relu_5x5
I0403 15:52:38.530150 11622 net.cpp:148] Top shape: 24 96 28 28 (1806336)
I0403 15:52:38.530165 11622 net.cpp:156] Memory required for data: 744211488
I0403 15:52:38.530179 11622 layer_factory.hpp:77] Creating layer inception_3b/pool
I0403 15:52:38.530197 11622 net.cpp:91] Creating Layer inception_3b/pool
I0403 15:52:38.530213 11622 net.cpp:425] inception_3b/pool <- inception_3a/output_inception_3a/output_0_split_3
I0403 15:52:38.530231 11622 net.cpp:399] inception_3b/pool -> inception_3b/pool
I0403 15:52:38.530288 11622 net.cpp:141] Setting up inception_3b/pool
I0403 15:52:38.530311 11622 net.cpp:148] Top shape: 24 256 28 28 (4816896)
I0403 15:52:38.530325 11622 net.cpp:156] Memory required for data: 763479072
I0403 15:52:38.530340 11622 layer_factory.hpp:77] Creating layer inception_3b/pool_proj
I0403 15:52:38.530367 11622 net.cpp:91] Creating Layer inception_3b/pool_proj
I0403 15:52:38.530385 11622 net.cpp:425] inception_3b/pool_proj <- inception_3b/pool
I0403 15:52:38.530405 11622 net.cpp:399] inception_3b/pool_proj -> inception_3b/pool_proj
I0403 15:52:38.531476 11622 net.cpp:141] Setting up inception_3b/pool_proj
I0403 15:52:38.531503 11622 net.cpp:148] Top shape: 24 64 28 28 (1204224)
I0403 15:52:38.531519 11622 net.cpp:156] Memory required for data: 768295968
I0403 15:52:38.531538 11622 layer_factory.hpp:77] Creating layer inception_3b/relu_pool_proj
I0403 15:52:38.531559 11622 net.cpp:91] Creating Layer inception_3b/relu_pool_proj
I0403 15:52:38.531576 11622 net.cpp:425] inception_3b/relu_pool_proj <- inception_3b/pool_proj
I0403 15:52:38.531594 11622 net.cpp:386] inception_3b/relu_pool_proj -> inception_3b/pool_proj (in-place)
I0403 15:52:38.532003 11622 net.cpp:141] Setting up inception_3b/relu_pool_proj
I0403 15:52:38.532030 11622 net.cpp:148] Top shape: 24 64 28 28 (1204224)
I0403 15:52:38.532045 11622 net.cpp:156] Memory required for data: 773112864
I0403 15:52:38.532060 11622 layer_factory.hpp:77] Creating layer inception_3b/output
I0403 15:52:38.532078 11622 net.cpp:91] Creating Layer inception_3b/output
I0403 15:52:38.532093 11622 net.cpp:425] inception_3b/output <- inception_3b/1x1
I0403 15:52:38.532109 11622 net.cpp:425] inception_3b/output <- inception_3b/3x3
I0403 15:52:38.532127 11622 net.cpp:425] inception_3b/output <- inception_3b/5x5
I0403 15:52:38.532143 11622 net.cpp:425] inception_3b/output <- inception_3b/pool_proj
I0403 15:52:38.532161 11622 net.cpp:399] inception_3b/output -> inception_3b/output
I0403 15:52:38.532204 11622 net.cpp:141] Setting up inception_3b/output
I0403 15:52:38.532230 11622 net.cpp:148] Top shape: 24 480 28 28 (9031680)
I0403 15:52:38.532246 11622 net.cpp:156] Memory required for data: 809239584
I0403 15:52:38.532261 11622 layer_factory.hpp:77] Creating layer pool3/3x3_s2
I0403 15:52:38.532277 11622 net.cpp:91] Creating Layer pool3/3x3_s2
I0403 15:52:38.532294 11622 net.cpp:425] pool3/3x3_s2 <- inception_3b/output
I0403 15:52:38.532328 11622 net.cpp:399] pool3/3x3_s2 -> pool3/3x3_s2
I0403 15:52:38.532387 11622 net.cpp:141] Setting up pool3/3x3_s2
I0403 15:52:38.532410 11622 net.cpp:148] Top shape: 24 480 14 14 (2257920)
I0403 15:52:38.532424 11622 net.cpp:156] Memory required for data: 818271264
I0403 15:52:38.532439 11622 layer_factory.hpp:77] Creating layer pool3/3x3_s2_pool3/3x3_s2_0_split
I0403 15:52:38.532459 11622 net.cpp:91] Creating Layer pool3/3x3_s2_pool3/3x3_s2_0_split
I0403 15:52:38.532474 11622 net.cpp:425] pool3/3x3_s2_pool3/3x3_s2_0_split <- pool3/3x3_s2
I0403 15:52:38.532491 11622 net.cpp:399] pool3/3x3_s2_pool3/3x3_s2_0_split -> pool3/3x3_s2_pool3/3x3_s2_0_split_0
I0403 15:52:38.532511 11622 net.cpp:399] pool3/3x3_s2_pool3/3x3_s2_0_split -> pool3/3x3_s2_pool3/3x3_s2_0_split_1
I0403 15:52:38.532531 11622 net.cpp:399] pool3/3x3_s2_pool3/3x3_s2_0_split -> pool3/3x3_s2_pool3/3x3_s2_0_split_2
I0403 15:52:38.532552 11622 net.cpp:399] pool3/3x3_s2_pool3/3x3_s2_0_split -> pool3/3x3_s2_pool3/3x3_s2_0_split_3
I0403 15:52:38.532630 11622 net.cpp:141] Setting up pool3/3x3_s2_pool3/3x3_s2_0_split
I0403 15:52:38.532655 11622 net.cpp:148] Top shape: 24 480 14 14 (2257920)
I0403 15:52:38.532670 11622 net.cpp:148] Top shape: 24 480 14 14 (2257920)
I0403 15:52:38.532686 11622 net.cpp:148] Top shape: 24 480 14 14 (2257920)
I0403 15:52:38.532701 11622 net.cpp:148] Top shape: 24 480 14 14 (2257920)
I0403 15:52:38.532716 11622 net.cpp:156] Memory required for data: 854397984
I0403 15:52:38.532729 11622 layer_factory.hpp:77] Creating layer inception_4a/1x1
I0403 15:52:38.532752 11622 net.cpp:91] Creating Layer inception_4a/1x1
I0403 15:52:38.532768 11622 net.cpp:425] inception_4a/1x1 <- pool3/3x3_s2_pool3/3x3_s2_0_split_0
I0403 15:52:38.532789 11622 net.cpp:399] inception_4a/1x1 -> inception_4a/1x1
I0403 15:52:38.534401 11622 net.cpp:141] Setting up inception_4a/1x1
I0403 15:52:38.534430 11622 net.cpp:148] Top shape: 24 192 14 14 (903168)
I0403 15:52:38.534446 11622 net.cpp:156] Memory required for data: 858010656
I0403 15:52:38.534463 11622 layer_factory.hpp:77] Creating layer inception_4a/relu_1x1
I0403 15:52:38.534484 11622 net.cpp:91] Creating Layer inception_4a/relu_1x1
I0403 15:52:38.534502 11622 net.cpp:425] inception_4a/relu_1x1 <- inception_4a/1x1
I0403 15:52:38.534518 11622 net.cpp:386] inception_4a/relu_1x1 -> inception_4a/1x1 (in-place)
I0403 15:52:38.534695 11622 net.cpp:141] Setting up inception_4a/relu_1x1
I0403 15:52:38.534724 11622 net.cpp:148] Top shape: 24 192 14 14 (903168)
I0403 15:52:38.534740 11622 net.cpp:156] Memory required for data: 861623328
I0403 15:52:38.534754 11622 layer_factory.hpp:77] Creating layer inception_4a/3x3_reduce
I0403 15:52:38.534776 11622 net.cpp:91] Creating Layer inception_4a/3x3_reduce
I0403 15:52:38.534793 11622 net.cpp:425] inception_4a/3x3_reduce <- pool3/3x3_s2_pool3/3x3_s2_0_split_1
I0403 15:52:38.534811 11622 net.cpp:399] inception_4a/3x3_reduce -> inception_4a/3x3_reduce
I0403 15:52:38.536104 11622 net.cpp:141] Setting up inception_4a/3x3_reduce
I0403 15:52:38.536133 11622 net.cpp:148] Top shape: 24 96 14 14 (451584)
I0403 15:52:38.536147 11622 net.cpp:156] Memory required for data: 863429664
I0403 15:52:38.536172 11622 layer_factory.hpp:77] Creating layer inception_4a/relu_3x3_reduce
I0403 15:52:38.536192 11622 net.cpp:91] Creating Layer inception_4a/relu_3x3_reduce
I0403 15:52:38.536221 11622 net.cpp:425] inception_4a/relu_3x3_reduce <- inception_4a/3x3_reduce
I0403 15:52:38.536239 11622 net.cpp:386] inception_4a/relu_3x3_reduce -> inception_4a/3x3_reduce (in-place)
I0403 15:52:38.536414 11622 net.cpp:141] Setting up inception_4a/relu_3x3_reduce
I0403 15:52:38.536442 11622 net.cpp:148] Top shape: 24 96 14 14 (451584)
I0403 15:52:38.536456 11622 net.cpp:156] Memory required for data: 865236000
I0403 15:52:38.536471 11622 layer_factory.hpp:77] Creating layer inception_4a/3x3
I0403 15:52:38.536492 11622 net.cpp:91] Creating Layer inception_4a/3x3
I0403 15:52:38.536517 11622 net.cpp:425] inception_4a/3x3 <- inception_4a/3x3_reduce
I0403 15:52:38.536535 11622 net.cpp:399] inception_4a/3x3 -> inception_4a/3x3
I0403 15:52:38.539160 11622 net.cpp:141] Setting up inception_4a/3x3
I0403 15:52:38.539191 11622 net.cpp:148] Top shape: 24 208 14 14 (978432)
I0403 15:52:38.539208 11622 net.cpp:156] Memory required for data: 869149728
I0403 15:52:38.539227 11622 layer_factory.hpp:77] Creating layer inception_4a/relu_3x3
I0403 15:52:38.539244 11622 net.cpp:91] Creating Layer inception_4a/relu_3x3
I0403 15:52:38.539260 11622 net.cpp:425] inception_4a/relu_3x3 <- inception_4a/3x3
I0403 15:52:38.539279 11622 net.cpp:386] inception_4a/relu_3x3 -> inception_4a/3x3 (in-place)
I0403 15:52:38.539553 11622 net.cpp:141] Setting up inception_4a/relu_3x3
I0403 15:52:38.539582 11622 net.cpp:148] Top shape: 24 208 14 14 (978432)
I0403 15:52:38.539597 11622 net.cpp:156] Memory required for data: 873063456
I0403 15:52:38.539610 11622 layer_factory.hpp:77] Creating layer inception_4a/5x5_reduce
I0403 15:52:38.539633 11622 net.cpp:91] Creating Layer inception_4a/5x5_reduce
I0403 15:52:38.539650 11622 net.cpp:425] inception_4a/5x5_reduce <- pool3/3x3_s2_pool3/3x3_s2_0_split_2
I0403 15:52:38.539669 11622 net.cpp:399] inception_4a/5x5_reduce -> inception_4a/5x5_reduce
I0403 15:52:38.540673 11622 net.cpp:141] Setting up inception_4a/5x5_reduce
I0403 15:52:38.540702 11622 net.cpp:148] Top shape: 24 16 14 14 (75264)
I0403 15:52:38.540719 11622 net.cpp:156] Memory required for data: 873364512
I0403 15:52:38.540736 11622 layer_factory.hpp:77] Creating layer inception_4a/relu_5x5_reduce
I0403 15:52:38.540753 11622 net.cpp:91] Creating Layer inception_4a/relu_5x5_reduce
I0403 15:52:38.540768 11622 net.cpp:425] inception_4a/relu_5x5_reduce <- inception_4a/5x5_reduce
I0403 15:52:38.540787 11622 net.cpp:386] inception_4a/relu_5x5_reduce -> inception_4a/5x5_reduce (in-place)
I0403 15:52:38.540962 11622 net.cpp:141] Setting up inception_4a/relu_5x5_reduce
I0403 15:52:38.540990 11622 net.cpp:148] Top shape: 24 16 14 14 (75264)
I0403 15:52:38.541007 11622 net.cpp:156] Memory required for data: 873665568
I0403 15:52:38.541020 11622 layer_factory.hpp:77] Creating layer inception_4a/5x5
I0403 15:52:38.541041 11622 net.cpp:91] Creating Layer inception_4a/5x5
I0403 15:52:38.541059 11622 net.cpp:425] inception_4a/5x5 <- inception_4a/5x5_reduce
I0403 15:52:38.541079 11622 net.cpp:399] inception_4a/5x5 -> inception_4a/5x5
I0403 15:52:38.542137 11622 net.cpp:141] Setting up inception_4a/5x5
I0403 15:52:38.542165 11622 net.cpp:148] Top shape: 24 48 14 14 (225792)
I0403 15:52:38.542179 11622 net.cpp:156] Memory required for data: 874568736
I0403 15:52:38.542197 11622 layer_factory.hpp:77] Creating layer inception_4a/relu_5x5
I0403 15:52:38.542217 11622 net.cpp:91] Creating Layer inception_4a/relu_5x5
I0403 15:52:38.542234 11622 net.cpp:425] inception_4a/relu_5x5 <- inception_4a/5x5
I0403 15:52:38.542251 11622 net.cpp:386] inception_4a/relu_5x5 -> inception_4a/5x5 (in-place)
I0403 15:52:38.542433 11622 net.cpp:141] Setting up inception_4a/relu_5x5
I0403 15:52:38.542456 11622 net.cpp:148] Top shape: 24 48 14 14 (225792)
I0403 15:52:38.542471 11622 net.cpp:156] Memory required for data: 875471904
I0403 15:52:38.542485 11622 layer_factory.hpp:77] Creating layer inception_4a/pool
I0403 15:52:38.542505 11622 net.cpp:91] Creating Layer inception_4a/pool
I0403 15:52:38.542520 11622 net.cpp:425] inception_4a/pool <- pool3/3x3_s2_pool3/3x3_s2_0_split_3
I0403 15:52:38.542537 11622 net.cpp:399] inception_4a/pool -> inception_4a/pool
I0403 15:52:38.542598 11622 net.cpp:141] Setting up inception_4a/pool
I0403 15:52:38.542619 11622 net.cpp:148] Top shape: 24 480 14 14 (2257920)
I0403 15:52:38.542634 11622 net.cpp:156] Memory required for data: 884503584
I0403 15:52:38.542649 11622 layer_factory.hpp:77] Creating layer inception_4a/pool_proj
I0403 15:52:38.542670 11622 net.cpp:91] Creating Layer inception_4a/pool_proj
I0403 15:52:38.542686 11622 net.cpp:425] inception_4a/pool_proj <- inception_4a/pool
I0403 15:52:38.542706 11622 net.cpp:399] inception_4a/pool_proj -> inception_4a/pool_proj
I0403 15:52:38.543838 11622 net.cpp:141] Setting up inception_4a/pool_proj
I0403 15:52:38.543865 11622 net.cpp:148] Top shape: 24 64 14 14 (301056)
I0403 15:52:38.543895 11622 net.cpp:156] Memory required for data: 885707808
I0403 15:52:38.543912 11622 layer_factory.hpp:77] Creating layer inception_4a/relu_pool_proj
I0403 15:52:38.543934 11622 net.cpp:91] Creating Layer inception_4a/relu_pool_proj
I0403 15:52:38.543951 11622 net.cpp:425] inception_4a/relu_pool_proj <- inception_4a/pool_proj
I0403 15:52:38.543967 11622 net.cpp:386] inception_4a/relu_pool_proj -> inception_4a/pool_proj (in-place)
I0403 15:52:38.544251 11622 net.cpp:141] Setting up inception_4a/relu_pool_proj
I0403 15:52:38.544276 11622 net.cpp:148] Top shape: 24 64 14 14 (301056)
I0403 15:52:38.544291 11622 net.cpp:156] Memory required for data: 886912032
I0403 15:52:38.544306 11622 layer_factory.hpp:77] Creating layer inception_4a/output
I0403 15:52:38.544324 11622 net.cpp:91] Creating Layer inception_4a/output
I0403 15:52:38.544340 11622 net.cpp:425] inception_4a/output <- inception_4a/1x1
I0403 15:52:38.544358 11622 net.cpp:425] inception_4a/output <- inception_4a/3x3
I0403 15:52:38.544373 11622 net.cpp:425] inception_4a/output <- inception_4a/5x5
I0403 15:52:38.544389 11622 net.cpp:425] inception_4a/output <- inception_4a/pool_proj
I0403 15:52:38.544404 11622 net.cpp:399] inception_4a/output -> inception_4a/output
I0403 15:52:38.544448 11622 net.cpp:141] Setting up inception_4a/output
I0403 15:52:38.544471 11622 net.cpp:148] Top shape: 24 512 14 14 (2408448)
I0403 15:52:38.544486 11622 net.cpp:156] Memory required for data: 896545824
I0403 15:52:38.544499 11622 layer_factory.hpp:77] Creating layer inception_4a/output_inception_4a/output_0_split
I0403 15:52:38.544517 11622 net.cpp:91] Creating Layer inception_4a/output_inception_4a/output_0_split
I0403 15:52:38.544533 11622 net.cpp:425] inception_4a/output_inception_4a/output_0_split <- inception_4a/output
I0403 15:52:38.544553 11622 net.cpp:399] inception_4a/output_inception_4a/output_0_split -> inception_4a/output_inception_4a/output_0_split_0
I0403 15:52:38.544572 11622 net.cpp:399] inception_4a/output_inception_4a/output_0_split -> inception_4a/output_inception_4a/output_0_split_1
I0403 15:52:38.544594 11622 net.cpp:399] inception_4a/output_inception_4a/output_0_split -> inception_4a/output_inception_4a/output_0_split_2
I0403 15:52:38.544612 11622 net.cpp:399] inception_4a/output_inception_4a/output_0_split -> inception_4a/output_inception_4a/output_0_split_3
I0403 15:52:38.544631 11622 net.cpp:399] inception_4a/output_inception_4a/output_0_split -> inception_4a/output_inception_4a/output_0_split_4
I0403 15:52:38.544721 11622 net.cpp:141] Setting up inception_4a/output_inception_4a/output_0_split
I0403 15:52:38.544744 11622 net.cpp:148] Top shape: 24 512 14 14 (2408448)
I0403 15:52:38.544761 11622 net.cpp:148] Top shape: 24 512 14 14 (2408448)
I0403 15:52:38.544777 11622 net.cpp:148] Top shape: 24 512 14 14 (2408448)
I0403 15:52:38.544792 11622 net.cpp:148] Top shape: 24 512 14 14 (2408448)
I0403 15:52:38.544807 11622 net.cpp:148] Top shape: 24 512 14 14 (2408448)
I0403 15:52:38.544821 11622 net.cpp:156] Memory required for data: 944714784
I0403 15:52:38.544836 11622 layer_factory.hpp:77] Creating layer loss1/ave_pool
I0403 15:52:38.544852 11622 net.cpp:91] Creating Layer loss1/ave_pool
I0403 15:52:38.544867 11622 net.cpp:425] loss1/ave_pool <- inception_4a/output_inception_4a/output_0_split_0
I0403 15:52:38.544886 11622 net.cpp:399] loss1/ave_pool -> loss1/ave_pool
I0403 15:52:38.545094 11622 net.cpp:141] Setting up loss1/ave_pool
I0403 15:52:38.545120 11622 net.cpp:148] Top shape: 24 512 4 4 (196608)
I0403 15:52:38.545135 11622 net.cpp:156] Memory required for data: 945501216
I0403 15:52:38.545148 11622 layer_factory.hpp:77] Creating layer loss1/conv
I0403 15:52:38.545171 11622 net.cpp:91] Creating Layer loss1/conv
I0403 15:52:38.545186 11622 net.cpp:425] loss1/conv <- loss1/ave_pool
I0403 15:52:38.545208 11622 net.cpp:399] loss1/conv -> loss1/conv
I0403 15:52:38.546584 11622 net.cpp:141] Setting up loss1/conv
I0403 15:52:38.546614 11622 net.cpp:148] Top shape: 24 128 4 4 (49152)
I0403 15:52:38.546643 11622 net.cpp:156] Memory required for data: 945697824
I0403 15:52:38.546663 11622 layer_factory.hpp:77] Creating layer loss1/relu_conv
I0403 15:52:38.546681 11622 net.cpp:91] Creating Layer loss1/relu_conv
I0403 15:52:38.546696 11622 net.cpp:425] loss1/relu_conv <- loss1/conv
I0403 15:52:38.546715 11622 net.cpp:386] loss1/relu_conv -> loss1/conv (in-place)
I0403 15:52:38.546998 11622 net.cpp:141] Setting up loss1/relu_conv
I0403 15:52:38.547026 11622 net.cpp:148] Top shape: 24 128 4 4 (49152)
I0403 15:52:38.547041 11622 net.cpp:156] Memory required for data: 945894432
I0403 15:52:38.547055 11622 layer_factory.hpp:77] Creating layer loss1/fc
I0403 15:52:38.547078 11622 net.cpp:91] Creating Layer loss1/fc
I0403 15:52:38.547096 11622 net.cpp:425] loss1/fc <- loss1/conv
I0403 15:52:38.547116 11622 net.cpp:399] loss1/fc -> loss1/fc
I0403 15:52:38.565002 11622 net.cpp:141] Setting up loss1/fc
I0403 15:52:38.565039 11622 net.cpp:148] Top shape: 24 1024 (24576)
I0403 15:52:38.565055 11622 net.cpp:156] Memory required for data: 945992736
I0403 15:52:38.565073 11622 layer_factory.hpp:77] Creating layer loss1/relu_fc
I0403 15:52:38.565094 11622 net.cpp:91] Creating Layer loss1/relu_fc
I0403 15:52:38.565111 11622 net.cpp:425] loss1/relu_fc <- loss1/fc
I0403 15:52:38.565129 11622 net.cpp:386] loss1/relu_fc -> loss1/fc (in-place)
I0403 15:52:38.565318 11622 net.cpp:141] Setting up loss1/relu_fc
I0403 15:52:38.565346 11622 net.cpp:148] Top shape: 24 1024 (24576)
I0403 15:52:38.565361 11622 net.cpp:156] Memory required for data: 946091040
I0403 15:52:38.565376 11622 layer_factory.hpp:77] Creating layer loss1/drop_fc
I0403 15:52:38.565402 11622 net.cpp:91] Creating Layer loss1/drop_fc
I0403 15:52:38.565419 11622 net.cpp:425] loss1/drop_fc <- loss1/fc
I0403 15:52:38.565438 11622 net.cpp:386] loss1/drop_fc -> loss1/fc (in-place)
I0403 15:52:38.565491 11622 net.cpp:141] Setting up loss1/drop_fc
I0403 15:52:38.565515 11622 net.cpp:148] Top shape: 24 1024 (24576)
I0403 15:52:38.565528 11622 net.cpp:156] Memory required for data: 946189344
I0403 15:52:38.565543 11622 layer_factory.hpp:77] Creating layer loss1/classifier_plantvillage
I0403 15:52:38.565562 11622 net.cpp:91] Creating Layer loss1/classifier_plantvillage
I0403 15:52:38.565578 11622 net.cpp:425] loss1/classifier_plantvillage <- loss1/fc
I0403 15:52:38.565600 11622 net.cpp:399] loss1/classifier_plantvillage -> loss1/classifier_plantvillage
I0403 15:52:38.566542 11622 net.cpp:141] Setting up loss1/classifier_plantvillage
I0403 15:52:38.566570 11622 net.cpp:148] Top shape: 24 38 (912)
I0403 15:52:38.566586 11622 net.cpp:156] Memory required for data: 946192992
I0403 15:52:38.566602 11622 layer_factory.hpp:77] Creating layer loss1/classifier_plantvillage_loss1/classifier_plantvillage_0_split
I0403 15:52:38.566623 11622 net.cpp:91] Creating Layer loss1/classifier_plantvillage_loss1/classifier_plantvillage_0_split
I0403 15:52:38.566639 11622 net.cpp:425] loss1/classifier_plantvillage_loss1/classifier_plantvillage_0_split <- loss1/classifier_plantvillage
I0403 15:52:38.566656 11622 net.cpp:399] loss1/classifier_plantvillage_loss1/classifier_plantvillage_0_split -> loss1/classifier_plantvillage_loss1/classifier_plantvillage_0_split_0
I0403 15:52:38.566676 11622 net.cpp:399] loss1/classifier_plantvillage_loss1/classifier_plantvillage_0_split -> loss1/classifier_plantvillage_loss1/classifier_plantvillage_0_split_1
I0403 15:52:38.566699 11622 net.cpp:399] loss1/classifier_plantvillage_loss1/classifier_plantvillage_0_split -> loss1/classifier_plantvillage_loss1/classifier_plantvillage_0_split_2
I0403 15:52:38.566763 11622 net.cpp:141] Setting up loss1/classifier_plantvillage_loss1/classifier_plantvillage_0_split
I0403 15:52:38.566787 11622 net.cpp:148] Top shape: 24 38 (912)
I0403 15:52:38.566802 11622 net.cpp:148] Top shape: 24 38 (912)
I0403 15:52:38.566817 11622 net.cpp:148] Top shape: 24 38 (912)
I0403 15:52:38.566829 11622 net.cpp:156] Memory required for data: 946203936
I0403 15:52:38.566843 11622 layer_factory.hpp:77] Creating layer inception_4b/1x1
I0403 15:52:38.566865 11622 net.cpp:91] Creating Layer inception_4b/1x1
I0403 15:52:38.566898 11622 net.cpp:425] inception_4b/1x1 <- inception_4a/output_inception_4a/output_0_split_1
I0403 15:52:38.566918 11622 net.cpp:399] inception_4b/1x1 -> inception_4b/1x1
I0403 15:52:38.568531 11622 net.cpp:141] Setting up inception_4b/1x1
I0403 15:52:38.568559 11622 net.cpp:148] Top shape: 24 160 14 14 (752640)
I0403 15:52:38.568577 11622 net.cpp:156] Memory required for data: 949214496
I0403 15:52:38.568594 11622 layer_factory.hpp:77] Creating layer inception_4b/relu_1x1
I0403 15:52:38.568614 11622 net.cpp:91] Creating Layer inception_4b/relu_1x1
I0403 15:52:38.568629 11622 net.cpp:425] inception_4b/relu_1x1 <- inception_4b/1x1
I0403 15:52:38.568648 11622 net.cpp:386] inception_4b/relu_1x1 -> inception_4b/1x1 (in-place)
I0403 15:52:38.568827 11622 net.cpp:141] Setting up inception_4b/relu_1x1
I0403 15:52:38.568851 11622 net.cpp:148] Top shape: 24 160 14 14 (752640)
I0403 15:52:38.568866 11622 net.cpp:156] Memory required for data: 952225056
I0403 15:52:38.568881 11622 layer_factory.hpp:77] Creating layer inception_4b/3x3_reduce
I0403 15:52:38.568903 11622 net.cpp:91] Creating Layer inception_4b/3x3_reduce
I0403 15:52:38.568922 11622 net.cpp:425] inception_4b/3x3_reduce <- inception_4a/output_inception_4a/output_0_split_2
I0403 15:52:38.568943 11622 net.cpp:399] inception_4b/3x3_reduce -> inception_4b/3x3_reduce
I0403 15:52:38.570302 11622 net.cpp:141] Setting up inception_4b/3x3_reduce
I0403 15:52:38.570328 11622 net.cpp:148] Top shape: 24 112 14 14 (526848)
I0403 15:52:38.570344 11622 net.cpp:156] Memory required for data: 954332448
I0403 15:52:38.570363 11622 layer_factory.hpp:77] Creating layer inception_4b/relu_3x3_reduce
I0403 15:52:38.570380 11622 net.cpp:91] Creating Layer inception_4b/relu_3x3_reduce
I0403 15:52:38.570396 11622 net.cpp:425] inception_4b/relu_3x3_reduce <- inception_4b/3x3_reduce
I0403 15:52:38.570415 11622 net.cpp:386] inception_4b/relu_3x3_reduce -> inception_4b/3x3_reduce (in-place)
I0403 15:52:38.570693 11622 net.cpp:141] Setting up inception_4b/relu_3x3_reduce
I0403 15:52:38.570718 11622 net.cpp:148] Top shape: 24 112 14 14 (526848)
I0403 15:52:38.570731 11622 net.cpp:156] Memory required for data: 956439840
I0403 15:52:38.570745 11622 layer_factory.hpp:77] Creating layer inception_4b/3x3
I0403 15:52:38.570767 11622 net.cpp:91] Creating Layer inception_4b/3x3
I0403 15:52:38.570785 11622 net.cpp:425] inception_4b/3x3 <- inception_4b/3x3_reduce
I0403 15:52:38.570804 11622 net.cpp:399] inception_4b/3x3 -> inception_4b/3x3
I0403 15:52:38.573714 11622 net.cpp:141] Setting up inception_4b/3x3
I0403 15:52:38.573741 11622 net.cpp:148] Top shape: 24 224 14 14 (1053696)
I0403 15:52:38.573757 11622 net.cpp:156] Memory required for data: 960654624
I0403 15:52:38.573776 11622 layer_factory.hpp:77] Creating layer inception_4b/relu_3x3
I0403 15:52:38.573796 11622 net.cpp:91] Creating Layer inception_4b/relu_3x3
I0403 15:52:38.573812 11622 net.cpp:425] inception_4b/relu_3x3 <- inception_4b/3x3
I0403 15:52:38.573829 11622 net.cpp:386] inception_4b/relu_3x3 -> inception_4b/3x3 (in-place)
I0403 15:52:38.574012 11622 net.cpp:141] Setting up inception_4b/relu_3x3
I0403 15:52:38.574038 11622 net.cpp:148] Top shape: 24 224 14 14 (1053696)
I0403 15:52:38.574054 11622 net.cpp:156] Memory required for data: 964869408
I0403 15:52:38.574069 11622 layer_factory.hpp:77] Creating layer inception_4b/5x5_reduce
I0403 15:52:38.574090 11622 net.cpp:91] Creating Layer inception_4b/5x5_reduce
I0403 15:52:38.574106 11622 net.cpp:425] inception_4b/5x5_reduce <- inception_4a/output_inception_4a/output_0_split_3
I0403 15:52:38.574125 11622 net.cpp:399] inception_4b/5x5_reduce -> inception_4b/5x5_reduce
I0403 15:52:38.575213 11622 net.cpp:141] Setting up inception_4b/5x5_reduce
I0403 15:52:38.575242 11622 net.cpp:148] Top shape: 24 24 14 14 (112896)
I0403 15:52:38.575258 11622 net.cpp:156] Memory required for data: 965320992
I0403 15:52:38.575276 11622 layer_factory.hpp:77] Creating layer inception_4b/relu_5x5_reduce
I0403 15:52:38.575294 11622 net.cpp:91] Creating Layer inception_4b/relu_5x5_reduce
I0403 15:52:38.575325 11622 net.cpp:425] inception_4b/relu_5x5_reduce <- inception_4b/5x5_reduce
I0403 15:52:38.575346 11622 net.cpp:386] inception_4b/relu_5x5_reduce -> inception_4b/5x5_reduce (in-place)
I0403 15:52:38.575541 11622 net.cpp:141] Setting up inception_4b/relu_5x5_reduce
I0403 15:52:38.575567 11622 net.cpp:148] Top shape: 24 24 14 14 (112896)
I0403 15:52:38.575580 11622 net.cpp:156] Memory required for data: 965772576
I0403 15:52:38.575595 11622 layer_factory.hpp:77] Creating layer inception_4b/5x5
I0403 15:52:38.575618 11622 net.cpp:91] Creating Layer inception_4b/5x5
I0403 15:52:38.575634 11622 net.cpp:425] inception_4b/5x5 <- inception_4b/5x5_reduce
I0403 15:52:38.575654 11622 net.cpp:399] inception_4b/5x5 -> inception_4b/5x5
I0403 15:52:38.576858 11622 net.cpp:141] Setting up inception_4b/5x5
I0403 15:52:38.576887 11622 net.cpp:148] Top shape: 24 64 14 14 (301056)
I0403 15:52:38.576903 11622 net.cpp:156] Memory required for data: 966976800
I0403 15:52:38.576921 11622 layer_factory.hpp:77] Creating layer inception_4b/relu_5x5
I0403 15:52:38.576939 11622 net.cpp:91] Creating Layer inception_4b/relu_5x5
I0403 15:52:38.576956 11622 net.cpp:425] inception_4b/relu_5x5 <- inception_4b/5x5
I0403 15:52:38.576975 11622 net.cpp:386] inception_4b/relu_5x5 -> inception_4b/5x5 (in-place)
I0403 15:52:38.577265 11622 net.cpp:141] Setting up inception_4b/relu_5x5
I0403 15:52:38.577292 11622 net.cpp:148] Top shape: 24 64 14 14 (301056)
I0403 15:52:38.577307 11622 net.cpp:156] Memory required for data: 968181024
I0403 15:52:38.577322 11622 layer_factory.hpp:77] Creating layer inception_4b/pool
I0403 15:52:38.577339 11622 net.cpp:91] Creating Layer inception_4b/pool
I0403 15:52:38.577355 11622 net.cpp:425] inception_4b/pool <- inception_4a/output_inception_4a/output_0_split_4
I0403 15:52:38.577376 11622 net.cpp:399] inception_4b/pool -> inception_4b/pool
I0403 15:52:38.577437 11622 net.cpp:141] Setting up inception_4b/pool
I0403 15:52:38.577461 11622 net.cpp:148] Top shape: 24 512 14 14 (2408448)
I0403 15:52:38.577474 11622 net.cpp:156] Memory required for data: 977814816
I0403 15:52:38.577488 11622 layer_factory.hpp:77] Creating layer inception_4b/pool_proj
I0403 15:52:38.577509 11622 net.cpp:91] Creating Layer inception_4b/pool_proj
I0403 15:52:38.577527 11622 net.cpp:425] inception_4b/pool_proj <- inception_4b/pool
I0403 15:52:38.577546 11622 net.cpp:399] inception_4b/pool_proj -> inception_4b/pool_proj
I0403 15:52:38.578732 11622 net.cpp:141] Setting up inception_4b/pool_proj
I0403 15:52:38.578761 11622 net.cpp:148] Top shape: 24 64 14 14 (301056)
I0403 15:52:38.578778 11622 net.cpp:156] Memory required for data: 979019040
I0403 15:52:38.578796 11622 layer_factory.hpp:77] Creating layer inception_4b/relu_pool_proj
I0403 15:52:38.578814 11622 net.cpp:91] Creating Layer inception_4b/relu_pool_proj
I0403 15:52:38.578830 11622 net.cpp:425] inception_4b/relu_pool_proj <- inception_4b/pool_proj
I0403 15:52:38.578848 11622 net.cpp:386] inception_4b/relu_pool_proj -> inception_4b/pool_proj (in-place)
I0403 15:52:38.579035 11622 net.cpp:141] Setting up inception_4b/relu_pool_proj
I0403 15:52:38.579061 11622 net.cpp:148] Top shape: 24 64 14 14 (301056)
I0403 15:52:38.579076 11622 net.cpp:156] Memory required for data: 980223264
I0403 15:52:38.579089 11622 layer_factory.hpp:77] Creating layer inception_4b/output
I0403 15:52:38.579107 11622 net.cpp:91] Creating Layer inception_4b/output
I0403 15:52:38.579120 11622 net.cpp:425] inception_4b/output <- inception_4b/1x1
I0403 15:52:38.579136 11622 net.cpp:425] inception_4b/output <- inception_4b/3x3
I0403 15:52:38.579151 11622 net.cpp:425] inception_4b/output <- inception_4b/5x5
I0403 15:52:38.579166 11622 net.cpp:425] inception_4b/output <- inception_4b/pool_proj
I0403 15:52:38.579185 11622 net.cpp:399] inception_4b/output -> inception_4b/output
I0403 15:52:38.579234 11622 net.cpp:141] Setting up inception_4b/output
I0403 15:52:38.579257 11622 net.cpp:148] Top shape: 24 512 14 14 (2408448)
I0403 15:52:38.579272 11622 net.cpp:156] Memory required for data: 989857056
I0403 15:52:38.579298 11622 layer_factory.hpp:77] Creating layer inception_4b/output_inception_4b/output_0_split
I0403 15:52:38.579315 11622 net.cpp:91] Creating Layer inception_4b/output_inception_4b/output_0_split
I0403 15:52:38.579331 11622 net.cpp:425] inception_4b/output_inception_4b/output_0_split <- inception_4b/output
I0403 15:52:38.579350 11622 net.cpp:399] inception_4b/output_inception_4b/output_0_split -> inception_4b/output_inception_4b/output_0_split_0
I0403 15:52:38.579370 11622 net.cpp:399] inception_4b/output_inception_4b/output_0_split -> inception_4b/output_inception_4b/output_0_split_1
I0403 15:52:38.579391 11622 net.cpp:399] inception_4b/output_inception_4b/output_0_split -> inception_4b/output_inception_4b/output_0_split_2
I0403 15:52:38.579411 11622 net.cpp:399] inception_4b/output_inception_4b/output_0_split -> inception_4b/output_inception_4b/output_0_split_3
I0403 15:52:38.579493 11622 net.cpp:141] Setting up inception_4b/output_inception_4b/output_0_split
I0403 15:52:38.579519 11622 net.cpp:148] Top shape: 24 512 14 14 (2408448)
I0403 15:52:38.579535 11622 net.cpp:148] Top shape: 24 512 14 14 (2408448)
I0403 15:52:38.579551 11622 net.cpp:148] Top shape: 24 512 14 14 (2408448)
I0403 15:52:38.579566 11622 net.cpp:148] Top shape: 24 512 14 14 (2408448)
I0403 15:52:38.579578 11622 net.cpp:156] Memory required for data: 1028392224
I0403 15:52:38.579593 11622 layer_factory.hpp:77] Creating layer inception_4c/1x1
I0403 15:52:38.579618 11622 net.cpp:91] Creating Layer inception_4c/1x1
I0403 15:52:38.579635 11622 net.cpp:425] inception_4c/1x1 <- inception_4b/output_inception_4b/output_0_split_0
I0403 15:52:38.579654 11622 net.cpp:399] inception_4c/1x1 -> inception_4c/1x1
I0403 15:52:38.581087 11622 net.cpp:141] Setting up inception_4c/1x1
I0403 15:52:38.581115 11622 net.cpp:148] Top shape: 24 128 14 14 (602112)
I0403 15:52:38.581130 11622 net.cpp:156] Memory required for data: 1030800672
I0403 15:52:38.581147 11622 layer_factory.hpp:77] Creating layer inception_4c/relu_1x1
I0403 15:52:38.581168 11622 net.cpp:91] Creating Layer inception_4c/relu_1x1
I0403 15:52:38.581185 11622 net.cpp:425] inception_4c/relu_1x1 <- inception_4c/1x1
I0403 15:52:38.581202 11622 net.cpp:386] inception_4c/relu_1x1 -> inception_4c/1x1 (in-place)
I0403 15:52:38.581378 11622 net.cpp:141] Setting up inception_4c/relu_1x1
I0403 15:52:38.581404 11622 net.cpp:148] Top shape: 24 128 14 14 (602112)
I0403 15:52:38.581420 11622 net.cpp:156] Memory required for data: 1033209120
I0403 15:52:38.581434 11622 layer_factory.hpp:77] Creating layer inception_4c/3x3_reduce
I0403 15:52:38.581455 11622 net.cpp:91] Creating Layer inception_4c/3x3_reduce
I0403 15:52:38.581472 11622 net.cpp:425] inception_4c/3x3_reduce <- inception_4b/output_inception_4b/output_0_split_1
I0403 15:52:38.581490 11622 net.cpp:399] inception_4c/3x3_reduce -> inception_4c/3x3_reduce
I0403 15:52:38.583395 11622 net.cpp:141] Setting up inception_4c/3x3_reduce
I0403 15:52:38.583428 11622 net.cpp:148] Top shape: 24 128 14 14 (602112)
I0403 15:52:38.583446 11622 net.cpp:156] Memory required for data: 1035617568
I0403 15:52:38.583463 11622 layer_factory.hpp:77] Creating layer inception_4c/relu_3x3_reduce
I0403 15:52:38.583482 11622 net.cpp:91] Creating Layer inception_4c/relu_3x3_reduce
I0403 15:52:38.583497 11622 net.cpp:425] inception_4c/relu_3x3_reduce <- inception_4c/3x3_reduce
I0403 15:52:38.583513 11622 net.cpp:386] inception_4c/relu_3x3_reduce -> inception_4c/3x3_reduce (in-place)
I0403 15:52:38.583793 11622 net.cpp:141] Setting up inception_4c/relu_3x3_reduce
I0403 15:52:38.583822 11622 net.cpp:148] Top shape: 24 128 14 14 (602112)
I0403 15:52:38.583837 11622 net.cpp:156] Memory required for data: 1038026016
I0403 15:52:38.583853 11622 layer_factory.hpp:77] Creating layer inception_4c/3x3
I0403 15:52:38.583874 11622 net.cpp:91] Creating Layer inception_4c/3x3
I0403 15:52:38.583891 11622 net.cpp:425] inception_4c/3x3 <- inception_4c/3x3_reduce
I0403 15:52:38.583909 11622 net.cpp:399] inception_4c/3x3 -> inception_4c/3x3
I0403 15:52:38.587510 11622 net.cpp:141] Setting up inception_4c/3x3
I0403 15:52:38.587553 11622 net.cpp:148] Top shape: 24 256 14 14 (1204224)
I0403 15:52:38.587569 11622 net.cpp:156] Memory required for data: 1042842912
I0403 15:52:38.587600 11622 layer_factory.hpp:77] Creating layer inception_4c/relu_3x3
I0403 15:52:38.587620 11622 net.cpp:91] Creating Layer inception_4c/relu_3x3
I0403 15:52:38.587636 11622 net.cpp:425] inception_4c/relu_3x3 <- inception_4c/3x3
I0403 15:52:38.587656 11622 net.cpp:386] inception_4c/relu_3x3 -> inception_4c/3x3 (in-place)
I0403 15:52:38.587838 11622 net.cpp:141] Setting up inception_4c/relu_3x3
I0403 15:52:38.587864 11622 net.cpp:148] Top shape: 24 256 14 14 (1204224)
I0403 15:52:38.587878 11622 net.cpp:156] Memory required for data: 1047659808
I0403 15:52:38.587893 11622 layer_factory.hpp:77] Creating layer inception_4c/5x5_reduce
I0403 15:52:38.587915 11622 net.cpp:91] Creating Layer inception_4c/5x5_reduce
I0403 15:52:38.587932 11622 net.cpp:425] inception_4c/5x5_reduce <- inception_4b/output_inception_4b/output_0_split_2
I0403 15:52:38.587954 11622 net.cpp:399] inception_4c/5x5_reduce -> inception_4c/5x5_reduce
I0403 15:52:38.589035 11622 net.cpp:141] Setting up inception_4c/5x5_reduce
I0403 15:52:38.589062 11622 net.cpp:148] Top shape: 24 24 14 14 (112896)
I0403 15:52:38.589078 11622 net.cpp:156] Memory required for data: 1048111392
I0403 15:52:38.589095 11622 layer_factory.hpp:77] Creating layer inception_4c/relu_5x5_reduce
I0403 15:52:38.589114 11622 net.cpp:91] Creating Layer inception_4c/relu_5x5_reduce
I0403 15:52:38.589130 11622 net.cpp:425] inception_4c/relu_5x5_reduce <- inception_4c/5x5_reduce
I0403 15:52:38.589150 11622 net.cpp:386] inception_4c/relu_5x5_reduce -> inception_4c/5x5_reduce (in-place)
I0403 15:52:38.589334 11622 net.cpp:141] Setting up inception_4c/relu_5x5_reduce
I0403 15:52:38.589357 11622 net.cpp:148] Top shape: 24 24 14 14 (112896)
I0403 15:52:38.589371 11622 net.cpp:156] Memory required for data: 1048562976
I0403 15:52:38.589385 11622 layer_factory.hpp:77] Creating layer inception_4c/5x5
I0403 15:52:38.589407 11622 net.cpp:91] Creating Layer inception_4c/5x5
I0403 15:52:38.589424 11622 net.cpp:425] inception_4c/5x5 <- inception_4c/5x5_reduce
I0403 15:52:38.589445 11622 net.cpp:399] inception_4c/5x5 -> inception_4c/5x5
I0403 15:52:38.590677 11622 net.cpp:141] Setting up inception_4c/5x5
I0403 15:52:38.590703 11622 net.cpp:148] Top shape: 24 64 14 14 (301056)
I0403 15:52:38.590718 11622 net.cpp:156] Memory required for data: 1049767200
I0403 15:52:38.590736 11622 layer_factory.hpp:77] Creating layer inception_4c/relu_5x5
I0403 15:52:38.590756 11622 net.cpp:91] Creating Layer inception_4c/relu_5x5
I0403 15:52:38.590773 11622 net.cpp:425] inception_4c/relu_5x5 <- inception_4c/5x5
I0403 15:52:38.590790 11622 net.cpp:386] inception_4c/relu_5x5 -> inception_4c/5x5 (in-place)
I0403 15:52:38.591085 11622 net.cpp:141] Setting up inception_4c/relu_5x5
I0403 15:52:38.591111 11622 net.cpp:148] Top shape: 24 64 14 14 (301056)
I0403 15:52:38.591125 11622 net.cpp:156] Memory required for data: 1050971424
I0403 15:52:38.591140 11622 layer_factory.hpp:77] Creating layer inception_4c/pool
I0403 15:52:38.591157 11622 net.cpp:91] Creating Layer inception_4c/pool
I0403 15:52:38.591173 11622 net.cpp:425] inception_4c/pool <- inception_4b/output_inception_4b/output_0_split_3
I0403 15:52:38.591193 11622 net.cpp:399] inception_4c/pool -> inception_4c/pool
I0403 15:52:38.591259 11622 net.cpp:141] Setting up inception_4c/pool
I0403 15:52:38.591284 11622 net.cpp:148] Top shape: 24 512 14 14 (2408448)
I0403 15:52:38.591297 11622 net.cpp:156] Memory required for data: 1060605216
I0403 15:52:38.591311 11622 layer_factory.hpp:77] Creating layer inception_4c/pool_proj
I0403 15:52:38.591332 11622 net.cpp:91] Creating Layer inception_4c/pool_proj
I0403 15:52:38.591349 11622 net.cpp:425] inception_4c/pool_proj <- inception_4c/pool
I0403 15:52:38.591369 11622 net.cpp:399] inception_4c/pool_proj -> inception_4c/pool_proj
I0403 15:52:38.592584 11622 net.cpp:141] Setting up inception_4c/pool_proj
I0403 15:52:38.592613 11622 net.cpp:148] Top shape: 24 64 14 14 (301056)
I0403 15:52:38.592643 11622 net.cpp:156] Memory required for data: 1061809440
I0403 15:52:38.592661 11622 layer_factory.hpp:77] Creating layer inception_4c/relu_pool_proj
I0403 15:52:38.592679 11622 net.cpp:91] Creating Layer inception_4c/relu_pool_proj
I0403 15:52:38.592694 11622 net.cpp:425] inception_4c/relu_pool_proj <- inception_4c/pool_proj
I0403 15:52:38.592713 11622 net.cpp:386] inception_4c/relu_pool_proj -> inception_4c/pool_proj (in-place)
I0403 15:52:38.592895 11622 net.cpp:141] Setting up inception_4c/relu_pool_proj
I0403 15:52:38.592919 11622 net.cpp:148] Top shape: 24 64 14 14 (301056)
I0403 15:52:38.592933 11622 net.cpp:156] Memory required for data: 1063013664
I0403 15:52:38.592948 11622 layer_factory.hpp:77] Creating layer inception_4c/output
I0403 15:52:38.592964 11622 net.cpp:91] Creating Layer inception_4c/output
I0403 15:52:38.592983 11622 net.cpp:425] inception_4c/output <- inception_4c/1x1
I0403 15:52:38.592999 11622 net.cpp:425] inception_4c/output <- inception_4c/3x3
I0403 15:52:38.593015 11622 net.cpp:425] inception_4c/output <- inception_4c/5x5
I0403 15:52:38.593031 11622 net.cpp:425] inception_4c/output <- inception_4c/pool_proj
I0403 15:52:38.593050 11622 net.cpp:399] inception_4c/output -> inception_4c/output
I0403 15:52:38.593098 11622 net.cpp:141] Setting up inception_4c/output
I0403 15:52:38.593122 11622 net.cpp:148] Top shape: 24 512 14 14 (2408448)
I0403 15:52:38.593135 11622 net.cpp:156] Memory required for data: 1072647456
I0403 15:52:38.593149 11622 layer_factory.hpp:77] Creating layer inception_4c/output_inception_4c/output_0_split
I0403 15:52:38.593165 11622 net.cpp:91] Creating Layer inception_4c/output_inception_4c/output_0_split
I0403 15:52:38.593180 11622 net.cpp:425] inception_4c/output_inception_4c/output_0_split <- inception_4c/output
I0403 15:52:38.593199 11622 net.cpp:399] inception_4c/output_inception_4c/output_0_split -> inception_4c/output_inception_4c/output_0_split_0
I0403 15:52:38.593219 11622 net.cpp:399] inception_4c/output_inception_4c/output_0_split -> inception_4c/output_inception_4c/output_0_split_1
I0403 15:52:38.593240 11622 net.cpp:399] inception_4c/output_inception_4c/output_0_split -> inception_4c/output_inception_4c/output_0_split_2
I0403 15:52:38.593260 11622 net.cpp:399] inception_4c/output_inception_4c/output_0_split -> inception_4c/output_inception_4c/output_0_split_3
I0403 15:52:38.593344 11622 net.cpp:141] Setting up inception_4c/output_inception_4c/output_0_split
I0403 15:52:38.593367 11622 net.cpp:148] Top shape: 24 512 14 14 (2408448)
I0403 15:52:38.593384 11622 net.cpp:148] Top shape: 24 512 14 14 (2408448)
I0403 15:52:38.593397 11622 net.cpp:148] Top shape: 24 512 14 14 (2408448)
I0403 15:52:38.593412 11622 net.cpp:148] Top shape: 24 512 14 14 (2408448)
I0403 15:52:38.593426 11622 net.cpp:156] Memory required for data: 1111182624
I0403 15:52:38.593441 11622 layer_factory.hpp:77] Creating layer inception_4d/1x1
I0403 15:52:38.593464 11622 net.cpp:91] Creating Layer inception_4d/1x1
I0403 15:52:38.593480 11622 net.cpp:425] inception_4d/1x1 <- inception_4c/output_inception_4c/output_0_split_0
I0403 15:52:38.593498 11622 net.cpp:399] inception_4d/1x1 -> inception_4d/1x1
I0403 15:52:38.594853 11622 net.cpp:141] Setting up inception_4d/1x1
I0403 15:52:38.594880 11622 net.cpp:148] Top shape: 24 112 14 14 (526848)
I0403 15:52:38.594897 11622 net.cpp:156] Memory required for data: 1113290016
I0403 15:52:38.594913 11622 layer_factory.hpp:77] Creating layer inception_4d/relu_1x1
I0403 15:52:38.594933 11622 net.cpp:91] Creating Layer inception_4d/relu_1x1
I0403 15:52:38.594950 11622 net.cpp:425] inception_4d/relu_1x1 <- inception_4d/1x1
I0403 15:52:38.594967 11622 net.cpp:386] inception_4d/relu_1x1 -> inception_4d/1x1 (in-place)
I0403 15:52:38.595157 11622 net.cpp:141] Setting up inception_4d/relu_1x1
I0403 15:52:38.595181 11622 net.cpp:148] Top shape: 24 112 14 14 (526848)
I0403 15:52:38.595196 11622 net.cpp:156] Memory required for data: 1115397408
I0403 15:52:38.595211 11622 layer_factory.hpp:77] Creating layer inception_4d/3x3_reduce
I0403 15:52:38.595245 11622 net.cpp:91] Creating Layer inception_4d/3x3_reduce
I0403 15:52:38.595263 11622 net.cpp:425] inception_4d/3x3_reduce <- inception_4c/output_inception_4c/output_0_split_1
I0403 15:52:38.595284 11622 net.cpp:399] inception_4d/3x3_reduce -> inception_4d/3x3_reduce
I0403 15:52:38.596801 11622 net.cpp:141] Setting up inception_4d/3x3_reduce
I0403 15:52:38.596828 11622 net.cpp:148] Top shape: 24 144 14 14 (677376)
I0403 15:52:38.596844 11622 net.cpp:156] Memory required for data: 1118106912
I0403 15:52:38.596863 11622 layer_factory.hpp:77] Creating layer inception_4d/relu_3x3_reduce
I0403 15:52:38.596884 11622 net.cpp:91] Creating Layer inception_4d/relu_3x3_reduce
I0403 15:52:38.596899 11622 net.cpp:425] inception_4d/relu_3x3_reduce <- inception_4d/3x3_reduce
I0403 15:52:38.596916 11622 net.cpp:386] inception_4d/relu_3x3_reduce -> inception_4d/3x3_reduce (in-place)
I0403 15:52:38.597204 11622 net.cpp:141] Setting up inception_4d/relu_3x3_reduce
I0403 15:52:38.597230 11622 net.cpp:148] Top shape: 24 144 14 14 (677376)
I0403 15:52:38.597245 11622 net.cpp:156] Memory required for data: 1120816416
I0403 15:52:38.597259 11622 layer_factory.hpp:77] Creating layer inception_4d/3x3
I0403 15:52:38.597280 11622 net.cpp:91] Creating Layer inception_4d/3x3
I0403 15:52:38.597297 11622 net.cpp:425] inception_4d/3x3 <- inception_4d/3x3_reduce
I0403 15:52:38.597319 11622 net.cpp:399] inception_4d/3x3 -> inception_4d/3x3
I0403 15:52:38.601647 11622 net.cpp:141] Setting up inception_4d/3x3
I0403 15:52:38.601678 11622 net.cpp:148] Top shape: 24 288 14 14 (1354752)
I0403 15:52:38.601694 11622 net.cpp:156] Memory required for data: 1126235424
I0403 15:52:38.601713 11622 layer_factory.hpp:77] Creating layer inception_4d/relu_3x3
I0403 15:52:38.601732 11622 net.cpp:91] Creating Layer inception_4d/relu_3x3
I0403 15:52:38.601748 11622 net.cpp:425] inception_4d/relu_3x3 <- inception_4d/3x3
I0403 15:52:38.601765 11622 net.cpp:386] inception_4d/relu_3x3 -> inception_4d/3x3 (in-place)
I0403 15:52:38.601953 11622 net.cpp:141] Setting up inception_4d/relu_3x3
I0403 15:52:38.601982 11622 net.cpp:148] Top shape: 24 288 14 14 (1354752)
I0403 15:52:38.601999 11622 net.cpp:156] Memory required for data: 1131654432
I0403 15:52:38.602013 11622 layer_factory.hpp:77] Creating layer inception_4d/5x5_reduce
I0403 15:52:38.602035 11622 net.cpp:91] Creating Layer inception_4d/5x5_reduce
I0403 15:52:38.602052 11622 net.cpp:425] inception_4d/5x5_reduce <- inception_4c/output_inception_4c/output_0_split_2
I0403 15:52:38.602075 11622 net.cpp:399] inception_4d/5x5_reduce -> inception_4d/5x5_reduce
I0403 15:52:38.603240 11622 net.cpp:141] Setting up inception_4d/5x5_reduce
I0403 15:52:38.603268 11622 net.cpp:148] Top shape: 24 32 14 14 (150528)
I0403 15:52:38.603284 11622 net.cpp:156] Memory required for data: 1132256544
I0403 15:52:38.603303 11622 layer_factory.hpp:77] Creating layer inception_4d/relu_5x5_reduce
I0403 15:52:38.603327 11622 net.cpp:91] Creating Layer inception_4d/relu_5x5_reduce
I0403 15:52:38.603345 11622 net.cpp:425] inception_4d/relu_5x5_reduce <- inception_4d/5x5_reduce
I0403 15:52:38.603363 11622 net.cpp:386] inception_4d/relu_5x5_reduce -> inception_4d/5x5_reduce (in-place)
I0403 15:52:38.603556 11622 net.cpp:141] Setting up inception_4d/relu_5x5_reduce
I0403 15:52:38.603581 11622 net.cpp:148] Top shape: 24 32 14 14 (150528)
I0403 15:52:38.603595 11622 net.cpp:156] Memory required for data: 1132858656
I0403 15:52:38.603610 11622 layer_factory.hpp:77] Creating layer inception_4d/5x5
I0403 15:52:38.603632 11622 net.cpp:91] Creating Layer inception_4d/5x5
I0403 15:52:38.603651 11622 net.cpp:425] inception_4d/5x5 <- inception_4d/5x5_reduce
I0403 15:52:38.603672 11622 net.cpp:399] inception_4d/5x5 -> inception_4d/5x5
I0403 15:52:38.605180 11622 net.cpp:141] Setting up inception_4d/5x5
I0403 15:52:38.605211 11622 net.cpp:148] Top shape: 24 64 14 14 (301056)
I0403 15:52:38.605226 11622 net.cpp:156] Memory required for data: 1134062880
I0403 15:52:38.605244 11622 layer_factory.hpp:77] Creating layer inception_4d/relu_5x5
I0403 15:52:38.605278 11622 net.cpp:91] Creating Layer inception_4d/relu_5x5
I0403 15:52:38.605294 11622 net.cpp:425] inception_4d/relu_5x5 <- inception_4d/5x5
I0403 15:52:38.605314 11622 net.cpp:386] inception_4d/relu_5x5 -> inception_4d/5x5 (in-place)
I0403 15:52:38.605623 11622 net.cpp:141] Setting up inception_4d/relu_5x5
I0403 15:52:38.605648 11622 net.cpp:148] Top shape: 24 64 14 14 (301056)
I0403 15:52:38.605664 11622 net.cpp:156] Memory required for data: 1135267104
I0403 15:52:38.605679 11622 layer_factory.hpp:77] Creating layer inception_4d/pool
I0403 15:52:38.605696 11622 net.cpp:91] Creating Layer inception_4d/pool
I0403 15:52:38.605711 11622 net.cpp:425] inception_4d/pool <- inception_4c/output_inception_4c/output_0_split_3
I0403 15:52:38.605731 11622 net.cpp:399] inception_4d/pool -> inception_4d/pool
I0403 15:52:38.605798 11622 net.cpp:141] Setting up inception_4d/pool
I0403 15:52:38.605821 11622 net.cpp:148] Top shape: 24 512 14 14 (2408448)
I0403 15:52:38.605836 11622 net.cpp:156] Memory required for data: 1144900896
I0403 15:52:38.605850 11622 layer_factory.hpp:77] Creating layer inception_4d/pool_proj
I0403 15:52:38.605875 11622 net.cpp:91] Creating Layer inception_4d/pool_proj
I0403 15:52:38.605892 11622 net.cpp:425] inception_4d/pool_proj <- inception_4d/pool
I0403 15:52:38.605911 11622 net.cpp:399] inception_4d/pool_proj -> inception_4d/pool_proj
I0403 15:52:38.607731 11622 net.cpp:141] Setting up inception_4d/pool_proj
I0403 15:52:38.607764 11622 net.cpp:148] Top shape: 24 64 14 14 (301056)
I0403 15:52:38.607781 11622 net.cpp:156] Memory required for data: 1146105120
I0403 15:52:38.607800 11622 layer_factory.hpp:77] Creating layer inception_4d/relu_pool_proj
I0403 15:52:38.607820 11622 net.cpp:91] Creating Layer inception_4d/relu_pool_proj
I0403 15:52:38.607836 11622 net.cpp:425] inception_4d/relu_pool_proj <- inception_4d/pool_proj
I0403 15:52:38.607852 11622 net.cpp:386] inception_4d/relu_pool_proj -> inception_4d/pool_proj (in-place)
I0403 15:52:38.608047 11622 net.cpp:141] Setting up inception_4d/relu_pool_proj
I0403 15:52:38.608073 11622 net.cpp:148] Top shape: 24 64 14 14 (301056)
I0403 15:52:38.608088 11622 net.cpp:156] Memory required for data: 1147309344
I0403 15:52:38.608103 11622 layer_factory.hpp:77] Creating layer inception_4d/output
I0403 15:52:38.608119 11622 net.cpp:91] Creating Layer inception_4d/output
I0403 15:52:38.608135 11622 net.cpp:425] inception_4d/output <- inception_4d/1x1
I0403 15:52:38.608152 11622 net.cpp:425] inception_4d/output <- inception_4d/3x3
I0403 15:52:38.608168 11622 net.cpp:425] inception_4d/output <- inception_4d/5x5
I0403 15:52:38.608199 11622 net.cpp:425] inception_4d/output <- inception_4d/pool_proj
I0403 15:52:38.608219 11622 net.cpp:399] inception_4d/output -> inception_4d/output
I0403 15:52:38.608268 11622 net.cpp:141] Setting up inception_4d/output
I0403 15:52:38.608292 11622 net.cpp:148] Top shape: 24 528 14 14 (2483712)
I0403 15:52:38.608306 11622 net.cpp:156] Memory required for data: 1157244192
I0403 15:52:38.608322 11622 layer_factory.hpp:77] Creating layer inception_4d/output_inception_4d/output_0_split
I0403 15:52:38.608342 11622 net.cpp:91] Creating Layer inception_4d/output_inception_4d/output_0_split
I0403 15:52:38.608360 11622 net.cpp:425] inception_4d/output_inception_4d/output_0_split <- inception_4d/output
I0403 15:52:38.608381 11622 net.cpp:399] inception_4d/output_inception_4d/output_0_split -> inception_4d/output_inception_4d/output_0_split_0
I0403 15:52:38.608404 11622 net.cpp:399] inception_4d/output_inception_4d/output_0_split -> inception_4d/output_inception_4d/output_0_split_1
I0403 15:52:38.608425 11622 net.cpp:399] inception_4d/output_inception_4d/output_0_split -> inception_4d/output_inception_4d/output_0_split_2
I0403 15:52:38.608448 11622 net.cpp:399] inception_4d/output_inception_4d/output_0_split -> inception_4d/output_inception_4d/output_0_split_3
I0403 15:52:38.608480 11622 net.cpp:399] inception_4d/output_inception_4d/output_0_split -> inception_4d/output_inception_4d/output_0_split_4
I0403 15:52:38.608582 11622 net.cpp:141] Setting up inception_4d/output_inception_4d/output_0_split
I0403 15:52:38.608618 11622 net.cpp:148] Top shape: 24 528 14 14 (2483712)
I0403 15:52:38.608633 11622 net.cpp:148] Top shape: 24 528 14 14 (2483712)
I0403 15:52:38.608649 11622 net.cpp:148] Top shape: 24 528 14 14 (2483712)
I0403 15:52:38.608665 11622 net.cpp:148] Top shape: 24 528 14 14 (2483712)
I0403 15:52:38.608680 11622 net.cpp:148] Top shape: 24 528 14 14 (2483712)
I0403 15:52:38.608695 11622 net.cpp:156] Memory required for data: 1206918432
I0403 15:52:38.608708 11622 layer_factory.hpp:77] Creating layer loss2/ave_pool
I0403 15:52:38.608728 11622 net.cpp:91] Creating Layer loss2/ave_pool
I0403 15:52:38.608746 11622 net.cpp:425] loss2/ave_pool <- inception_4d/output_inception_4d/output_0_split_0
I0403 15:52:38.608763 11622 net.cpp:399] loss2/ave_pool -> loss2/ave_pool
I0403 15:52:38.609088 11622 net.cpp:141] Setting up loss2/ave_pool
I0403 15:52:38.609117 11622 net.cpp:148] Top shape: 24 528 4 4 (202752)
I0403 15:52:38.609133 11622 net.cpp:156] Memory required for data: 1207729440
I0403 15:52:38.609148 11622 layer_factory.hpp:77] Creating layer loss2/conv
I0403 15:52:38.609174 11622 net.cpp:91] Creating Layer loss2/conv
I0403 15:52:38.609192 11622 net.cpp:425] loss2/conv <- loss2/ave_pool
I0403 15:52:38.609213 11622 net.cpp:399] loss2/conv -> loss2/conv
I0403 15:52:38.611142 11622 net.cpp:141] Setting up loss2/conv
I0403 15:52:38.611172 11622 net.cpp:148] Top shape: 24 128 4 4 (49152)
I0403 15:52:38.611188 11622 net.cpp:156] Memory required for data: 1207926048
I0403 15:52:38.611209 11622 layer_factory.hpp:77] Creating layer loss2/relu_conv
I0403 15:52:38.611230 11622 net.cpp:91] Creating Layer loss2/relu_conv
I0403 15:52:38.611248 11622 net.cpp:425] loss2/relu_conv <- loss2/conv
I0403 15:52:38.611265 11622 net.cpp:386] loss2/relu_conv -> loss2/conv (in-place)
I0403 15:52:38.611553 11622 net.cpp:141] Setting up loss2/relu_conv
I0403 15:52:38.611579 11622 net.cpp:148] Top shape: 24 128 4 4 (49152)
I0403 15:52:38.611594 11622 net.cpp:156] Memory required for data: 1208122656
I0403 15:52:38.611609 11622 layer_factory.hpp:77] Creating layer loss2/fc
I0403 15:52:38.611632 11622 net.cpp:91] Creating Layer loss2/fc
I0403 15:52:38.611650 11622 net.cpp:425] loss2/fc <- loss2/conv
I0403 15:52:38.611670 11622 net.cpp:399] loss2/fc -> loss2/fc
I0403 15:52:38.629048 11622 net.cpp:141] Setting up loss2/fc
I0403 15:52:38.629082 11622 net.cpp:148] Top shape: 24 1024 (24576)
I0403 15:52:38.629096 11622 net.cpp:156] Memory required for data: 1208220960
I0403 15:52:38.629114 11622 layer_factory.hpp:77] Creating layer loss2/relu_fc
I0403 15:52:38.629134 11622 net.cpp:91] Creating Layer loss2/relu_fc
I0403 15:52:38.629151 11622 net.cpp:425] loss2/relu_fc <- loss2/fc
I0403 15:52:38.629174 11622 net.cpp:386] loss2/relu_fc -> loss2/fc (in-place)
I0403 15:52:38.629467 11622 net.cpp:141] Setting up loss2/relu_fc
I0403 15:52:38.629494 11622 net.cpp:148] Top shape: 24 1024 (24576)
I0403 15:52:38.629510 11622 net.cpp:156] Memory required for data: 1208319264
I0403 15:52:38.629524 11622 layer_factory.hpp:77] Creating layer loss2/drop_fc
I0403 15:52:38.629541 11622 net.cpp:91] Creating Layer loss2/drop_fc
I0403 15:52:38.629557 11622 net.cpp:425] loss2/drop_fc <- loss2/fc
I0403 15:52:38.629575 11622 net.cpp:386] loss2/drop_fc -> loss2/fc (in-place)
I0403 15:52:38.629624 11622 net.cpp:141] Setting up loss2/drop_fc
I0403 15:52:38.629647 11622 net.cpp:148] Top shape: 24 1024 (24576)
I0403 15:52:38.629662 11622 net.cpp:156] Memory required for data: 1208417568
I0403 15:52:38.629675 11622 layer_factory.hpp:77] Creating layer loss2/classifier_plantvillage
I0403 15:52:38.629696 11622 net.cpp:91] Creating Layer loss2/classifier_plantvillage
I0403 15:52:38.629712 11622 net.cpp:425] loss2/classifier_plantvillage <- loss2/fc
I0403 15:52:38.629734 11622 net.cpp:399] loss2/classifier_plantvillage -> loss2/classifier_plantvillage
I0403 15:52:38.630131 11622 net.cpp:141] Setting up loss2/classifier_plantvillage
I0403 15:52:38.630154 11622 net.cpp:148] Top shape: 24 38 (912)
I0403 15:52:38.630184 11622 net.cpp:156] Memory required for data: 1208421216
I0403 15:52:38.630204 11622 layer_factory.hpp:77] Creating layer loss2/classifier_plantvillage_loss2/classifier_plantvillage_0_split
I0403 15:52:38.630221 11622 net.cpp:91] Creating Layer loss2/classifier_plantvillage_loss2/classifier_plantvillage_0_split
I0403 15:52:38.630241 11622 net.cpp:425] loss2/classifier_plantvillage_loss2/classifier_plantvillage_0_split <- loss2/classifier_plantvillage
I0403 15:52:38.630259 11622 net.cpp:399] loss2/classifier_plantvillage_loss2/classifier_plantvillage_0_split -> loss2/classifier_plantvillage_loss2/classifier_plantvillage_0_split_0
I0403 15:52:38.630277 11622 net.cpp:399] loss2/classifier_plantvillage_loss2/classifier_plantvillage_0_split -> loss2/classifier_plantvillage_loss2/classifier_plantvillage_0_split_1
I0403 15:52:38.630297 11622 net.cpp:399] loss2/classifier_plantvillage_loss2/classifier_plantvillage_0_split -> loss2/classifier_plantvillage_loss2/classifier_plantvillage_0_split_2
I0403 15:52:38.630375 11622 net.cpp:141] Setting up loss2/classifier_plantvillage_loss2/classifier_plantvillage_0_split
I0403 15:52:38.630398 11622 net.cpp:148] Top shape: 24 38 (912)
I0403 15:52:38.630414 11622 net.cpp:148] Top shape: 24 38 (912)
I0403 15:52:38.630429 11622 net.cpp:148] Top shape: 24 38 (912)
I0403 15:52:38.630442 11622 net.cpp:156] Memory required for data: 1208432160
I0403 15:52:38.630456 11622 layer_factory.hpp:77] Creating layer inception_4e/1x1
I0403 15:52:38.630475 11622 net.cpp:91] Creating Layer inception_4e/1x1
I0403 15:52:38.630492 11622 net.cpp:425] inception_4e/1x1 <- inception_4d/output_inception_4d/output_0_split_1
I0403 15:52:38.630512 11622 net.cpp:399] inception_4e/1x1 -> inception_4e/1x1
I0403 15:52:38.632308 11622 net.cpp:141] Setting up inception_4e/1x1
I0403 15:52:38.632335 11622 net.cpp:148] Top shape: 24 256 14 14 (1204224)
I0403 15:52:38.632351 11622 net.cpp:156] Memory required for data: 1213249056
I0403 15:52:38.632369 11622 layer_factory.hpp:77] Creating layer inception_4e/relu_1x1
I0403 15:52:38.632390 11622 net.cpp:91] Creating Layer inception_4e/relu_1x1
I0403 15:52:38.632405 11622 net.cpp:425] inception_4e/relu_1x1 <- inception_4e/1x1
I0403 15:52:38.632422 11622 net.cpp:386] inception_4e/relu_1x1 -> inception_4e/1x1 (in-place)
I0403 15:52:38.632716 11622 net.cpp:141] Setting up inception_4e/relu_1x1
I0403 15:52:38.632742 11622 net.cpp:148] Top shape: 24 256 14 14 (1204224)
I0403 15:52:38.632756 11622 net.cpp:156] Memory required for data: 1218065952
I0403 15:52:38.632771 11622 layer_factory.hpp:77] Creating layer inception_4e/3x3_reduce
I0403 15:52:38.632792 11622 net.cpp:91] Creating Layer inception_4e/3x3_reduce
I0403 15:52:38.632809 11622 net.cpp:425] inception_4e/3x3_reduce <- inception_4d/output_inception_4d/output_0_split_2
I0403 15:52:38.632829 11622 net.cpp:399] inception_4e/3x3_reduce -> inception_4e/3x3_reduce
I0403 15:52:38.634933 11622 net.cpp:141] Setting up inception_4e/3x3_reduce
I0403 15:52:38.634961 11622 net.cpp:148] Top shape: 24 160 14 14 (752640)
I0403 15:52:38.634980 11622 net.cpp:156] Memory required for data: 1221076512
I0403 15:52:38.634999 11622 layer_factory.hpp:77] Creating layer inception_4e/relu_3x3_reduce
I0403 15:52:38.635017 11622 net.cpp:91] Creating Layer inception_4e/relu_3x3_reduce
I0403 15:52:38.635033 11622 net.cpp:425] inception_4e/relu_3x3_reduce <- inception_4e/3x3_reduce
I0403 15:52:38.635052 11622 net.cpp:386] inception_4e/relu_3x3_reduce -> inception_4e/3x3_reduce (in-place)
I0403 15:52:38.635237 11622 net.cpp:141] Setting up inception_4e/relu_3x3_reduce
I0403 15:52:38.635262 11622 net.cpp:148] Top shape: 24 160 14 14 (752640)
I0403 15:52:38.635277 11622 net.cpp:156] Memory required for data: 1224087072
I0403 15:52:38.635291 11622 layer_factory.hpp:77] Creating layer inception_4e/3x3
I0403 15:52:38.635313 11622 net.cpp:91] Creating Layer inception_4e/3x3
I0403 15:52:38.635329 11622 net.cpp:425] inception_4e/3x3 <- inception_4e/3x3_reduce
I0403 15:52:38.635350 11622 net.cpp:399] inception_4e/3x3 -> inception_4e/3x3
I0403 15:52:38.640285 11622 net.cpp:141] Setting up inception_4e/3x3
I0403 15:52:38.640326 11622 net.cpp:148] Top shape: 24 320 14 14 (1505280)
I0403 15:52:38.640341 11622 net.cpp:156] Memory required for data: 1230108192
I0403 15:52:38.640359 11622 layer_factory.hpp:77] Creating layer inception_4e/relu_3x3
I0403 15:52:38.640380 11622 net.cpp:91] Creating Layer inception_4e/relu_3x3
I0403 15:52:38.640398 11622 net.cpp:425] inception_4e/relu_3x3 <- inception_4e/3x3
I0403 15:52:38.640414 11622 net.cpp:386] inception_4e/relu_3x3 -> inception_4e/3x3 (in-place)
I0403 15:52:38.640712 11622 net.cpp:141] Setting up inception_4e/relu_3x3
I0403 15:52:38.640738 11622 net.cpp:148] Top shape: 24 320 14 14 (1505280)
I0403 15:52:38.640753 11622 net.cpp:156] Memory required for data: 1236129312
I0403 15:52:38.640769 11622 layer_factory.hpp:77] Creating layer inception_4e/5x5_reduce
I0403 15:52:38.640792 11622 net.cpp:91] Creating Layer inception_4e/5x5_reduce
I0403 15:52:38.640810 11622 net.cpp:425] inception_4e/5x5_reduce <- inception_4d/output_inception_4d/output_0_split_3
I0403 15:52:38.640830 11622 net.cpp:399] inception_4e/5x5_reduce -> inception_4e/5x5_reduce
I0403 15:52:38.641897 11622 net.cpp:141] Setting up inception_4e/5x5_reduce
I0403 15:52:38.641924 11622 net.cpp:148] Top shape: 24 32 14 14 (150528)
I0403 15:52:38.641939 11622 net.cpp:156] Memory required for data: 1236731424
I0403 15:52:38.641957 11622 layer_factory.hpp:77] Creating layer inception_4e/relu_5x5_reduce
I0403 15:52:38.641975 11622 net.cpp:91] Creating Layer inception_4e/relu_5x5_reduce
I0403 15:52:38.641996 11622 net.cpp:425] inception_4e/relu_5x5_reduce <- inception_4e/5x5_reduce
I0403 15:52:38.642016 11622 net.cpp:386] inception_4e/relu_5x5_reduce -> inception_4e/5x5_reduce (in-place)
I0403 15:52:38.642316 11622 net.cpp:141] Setting up inception_4e/relu_5x5_reduce
I0403 15:52:38.642341 11622 net.cpp:148] Top shape: 24 32 14 14 (150528)
I0403 15:52:38.642356 11622 net.cpp:156] Memory required for data: 1237333536
I0403 15:52:38.642371 11622 layer_factory.hpp:77] Creating layer inception_4e/5x5
I0403 15:52:38.642407 11622 net.cpp:91] Creating Layer inception_4e/5x5
I0403 15:52:38.642426 11622 net.cpp:425] inception_4e/5x5 <- inception_4e/5x5_reduce
I0403 15:52:38.642446 11622 net.cpp:399] inception_4e/5x5 -> inception_4e/5x5
I0403 15:52:38.644274 11622 net.cpp:141] Setting up inception_4e/5x5
I0403 15:52:38.644304 11622 net.cpp:148] Top shape: 24 128 14 14 (602112)
I0403 15:52:38.644320 11622 net.cpp:156] Memory required for data: 1239741984
I0403 15:52:38.644340 11622 layer_factory.hpp:77] Creating layer inception_4e/relu_5x5
I0403 15:52:38.644357 11622 net.cpp:91] Creating Layer inception_4e/relu_5x5
I0403 15:52:38.644373 11622 net.cpp:425] inception_4e/relu_5x5 <- inception_4e/5x5
I0403 15:52:38.644392 11622 net.cpp:386] inception_4e/relu_5x5 -> inception_4e/5x5 (in-place)
I0403 15:52:38.644593 11622 net.cpp:141] Setting up inception_4e/relu_5x5
I0403 15:52:38.644616 11622 net.cpp:148] Top shape: 24 128 14 14 (602112)
I0403 15:52:38.644631 11622 net.cpp:156] Memory required for data: 1242150432
I0403 15:52:38.644645 11622 layer_factory.hpp:77] Creating layer inception_4e/pool
I0403 15:52:38.644662 11622 net.cpp:91] Creating Layer inception_4e/pool
I0403 15:52:38.644678 11622 net.cpp:425] inception_4e/pool <- inception_4d/output_inception_4d/output_0_split_4
I0403 15:52:38.644698 11622 net.cpp:399] inception_4e/pool -> inception_4e/pool
I0403 15:52:38.644767 11622 net.cpp:141] Setting up inception_4e/pool
I0403 15:52:38.644790 11622 net.cpp:148] Top shape: 24 528 14 14 (2483712)
I0403 15:52:38.644804 11622 net.cpp:156] Memory required for data: 1252085280
I0403 15:52:38.644819 11622 layer_factory.hpp:77] Creating layer inception_4e/pool_proj
I0403 15:52:38.644840 11622 net.cpp:91] Creating Layer inception_4e/pool_proj
I0403 15:52:38.644857 11622 net.cpp:425] inception_4e/pool_proj <- inception_4e/pool
I0403 15:52:38.644878 11622 net.cpp:399] inception_4e/pool_proj -> inception_4e/pool_proj
I0403 15:52:38.646395 11622 net.cpp:141] Setting up inception_4e/pool_proj
I0403 15:52:38.646436 11622 net.cpp:148] Top shape: 24 128 14 14 (602112)
I0403 15:52:38.646453 11622 net.cpp:156] Memory required for data: 1254493728
I0403 15:52:38.646471 11622 layer_factory.hpp:77] Creating layer inception_4e/relu_pool_proj
I0403 15:52:38.646488 11622 net.cpp:91] Creating Layer inception_4e/relu_pool_proj
I0403 15:52:38.646503 11622 net.cpp:425] inception_4e/relu_pool_proj <- inception_4e/pool_proj
I0403 15:52:38.646520 11622 net.cpp:386] inception_4e/relu_pool_proj -> inception_4e/pool_proj (in-place)
I0403 15:52:38.646818 11622 net.cpp:141] Setting up inception_4e/relu_pool_proj
I0403 15:52:38.646847 11622 net.cpp:148] Top shape: 24 128 14 14 (602112)
I0403 15:52:38.646862 11622 net.cpp:156] Memory required for data: 1256902176
I0403 15:52:38.646877 11622 layer_factory.hpp:77] Creating layer inception_4e/output
I0403 15:52:38.646893 11622 net.cpp:91] Creating Layer inception_4e/output
I0403 15:52:38.646908 11622 net.cpp:425] inception_4e/output <- inception_4e/1x1
I0403 15:52:38.646925 11622 net.cpp:425] inception_4e/output <- inception_4e/3x3
I0403 15:52:38.646941 11622 net.cpp:425] inception_4e/output <- inception_4e/5x5
I0403 15:52:38.646957 11622 net.cpp:425] inception_4e/output <- inception_4e/pool_proj
I0403 15:52:38.646973 11622 net.cpp:399] inception_4e/output -> inception_4e/output
I0403 15:52:38.647028 11622 net.cpp:141] Setting up inception_4e/output
I0403 15:52:38.647052 11622 net.cpp:148] Top shape: 24 832 14 14 (3913728)
I0403 15:52:38.647065 11622 net.cpp:156] Memory required for data: 1272557088
I0403 15:52:38.647080 11622 layer_factory.hpp:77] Creating layer pool4/3x3_s2
I0403 15:52:38.647099 11622 net.cpp:91] Creating Layer pool4/3x3_s2
I0403 15:52:38.647115 11622 net.cpp:425] pool4/3x3_s2 <- inception_4e/output
I0403 15:52:38.647132 11622 net.cpp:399] pool4/3x3_s2 -> pool4/3x3_s2
I0403 15:52:38.647199 11622 net.cpp:141] Setting up pool4/3x3_s2
I0403 15:52:38.647222 11622 net.cpp:148] Top shape: 24 832 7 7 (978432)
I0403 15:52:38.647236 11622 net.cpp:156] Memory required for data: 1276470816
I0403 15:52:38.647250 11622 layer_factory.hpp:77] Creating layer pool4/3x3_s2_pool4/3x3_s2_0_split
I0403 15:52:38.647267 11622 net.cpp:91] Creating Layer pool4/3x3_s2_pool4/3x3_s2_0_split
I0403 15:52:38.647282 11622 net.cpp:425] pool4/3x3_s2_pool4/3x3_s2_0_split <- pool4/3x3_s2
I0403 15:52:38.647301 11622 net.cpp:399] pool4/3x3_s2_pool4/3x3_s2_0_split -> pool4/3x3_s2_pool4/3x3_s2_0_split_0
I0403 15:52:38.647321 11622 net.cpp:399] pool4/3x3_s2_pool4/3x3_s2_0_split -> pool4/3x3_s2_pool4/3x3_s2_0_split_1
I0403 15:52:38.647341 11622 net.cpp:399] pool4/3x3_s2_pool4/3x3_s2_0_split -> pool4/3x3_s2_pool4/3x3_s2_0_split_2
I0403 15:52:38.647361 11622 net.cpp:399] pool4/3x3_s2_pool4/3x3_s2_0_split -> pool4/3x3_s2_pool4/3x3_s2_0_split_3
I0403 15:52:38.647452 11622 net.cpp:141] Setting up pool4/3x3_s2_pool4/3x3_s2_0_split
I0403 15:52:38.647477 11622 net.cpp:148] Top shape: 24 832 7 7 (978432)
I0403 15:52:38.647495 11622 net.cpp:148] Top shape: 24 832 7 7 (978432)
I0403 15:52:38.647510 11622 net.cpp:148] Top shape: 24 832 7 7 (978432)
I0403 15:52:38.647524 11622 net.cpp:148] Top shape: 24 832 7 7 (978432)
I0403 15:52:38.647538 11622 net.cpp:156] Memory required for data: 1292125728
I0403 15:52:38.647552 11622 layer_factory.hpp:77] Creating layer inception_5a/1x1
I0403 15:52:38.647573 11622 net.cpp:91] Creating Layer inception_5a/1x1
I0403 15:52:38.647591 11622 net.cpp:425] inception_5a/1x1 <- pool4/3x3_s2_pool4/3x3_s2_0_split_0
I0403 15:52:38.647609 11622 net.cpp:399] inception_5a/1x1 -> inception_5a/1x1
I0403 15:52:38.650435 11622 net.cpp:141] Setting up inception_5a/1x1
I0403 15:52:38.650465 11622 net.cpp:148] Top shape: 24 256 7 7 (301056)
I0403 15:52:38.650482 11622 net.cpp:156] Memory required for data: 1293329952
I0403 15:52:38.650501 11622 layer_factory.hpp:77] Creating layer inception_5a/relu_1x1
I0403 15:52:38.650518 11622 net.cpp:91] Creating Layer inception_5a/relu_1x1
I0403 15:52:38.650533 11622 net.cpp:425] inception_5a/relu_1x1 <- inception_5a/1x1
I0403 15:52:38.650553 11622 net.cpp:386] inception_5a/relu_1x1 -> inception_5a/1x1 (in-place)
I0403 15:52:38.650862 11622 net.cpp:141] Setting up inception_5a/relu_1x1
I0403 15:52:38.650890 11622 net.cpp:148] Top shape: 24 256 7 7 (301056)
I0403 15:52:38.650907 11622 net.cpp:156] Memory required for data: 1294534176
I0403 15:52:38.650920 11622 layer_factory.hpp:77] Creating layer inception_5a/3x3_reduce
I0403 15:52:38.650945 11622 net.cpp:91] Creating Layer inception_5a/3x3_reduce
I0403 15:52:38.650962 11622 net.cpp:425] inception_5a/3x3_reduce <- pool4/3x3_s2_pool4/3x3_s2_0_split_1
I0403 15:52:38.650985 11622 net.cpp:399] inception_5a/3x3_reduce -> inception_5a/3x3_reduce
I0403 15:52:38.653468 11622 net.cpp:141] Setting up inception_5a/3x3_reduce
I0403 15:52:38.653497 11622 net.cpp:148] Top shape: 24 160 7 7 (188160)
I0403 15:52:38.653512 11622 net.cpp:156] Memory required for data: 1295286816
I0403 15:52:38.653532 11622 layer_factory.hpp:77] Creating layer inception_5a/relu_3x3_reduce
I0403 15:52:38.653553 11622 net.cpp:91] Creating Layer inception_5a/relu_3x3_reduce
I0403 15:52:38.653568 11622 net.cpp:425] inception_5a/relu_3x3_reduce <- inception_5a/3x3_reduce
I0403 15:52:38.653585 11622 net.cpp:386] inception_5a/relu_3x3_reduce -> inception_5a/3x3_reduce (in-place)
I0403 15:52:38.653775 11622 net.cpp:141] Setting up inception_5a/relu_3x3_reduce
I0403 15:52:38.653803 11622 net.cpp:148] Top shape: 24 160 7 7 (188160)
I0403 15:52:38.653818 11622 net.cpp:156] Memory required for data: 1296039456
I0403 15:52:38.653833 11622 layer_factory.hpp:77] Creating layer inception_5a/3x3
I0403 15:52:38.653856 11622 net.cpp:91] Creating Layer inception_5a/3x3
I0403 15:52:38.653873 11622 net.cpp:425] inception_5a/3x3 <- inception_5a/3x3_reduce
I0403 15:52:38.653892 11622 net.cpp:399] inception_5a/3x3 -> inception_5a/3x3
I0403 15:52:38.658874 11622 net.cpp:141] Setting up inception_5a/3x3
I0403 15:52:38.658903 11622 net.cpp:148] Top shape: 24 320 7 7 (376320)
I0403 15:52:38.658918 11622 net.cpp:156] Memory required for data: 1297544736
I0403 15:52:38.658936 11622 layer_factory.hpp:77] Creating layer inception_5a/relu_3x3
I0403 15:52:38.658956 11622 net.cpp:91] Creating Layer inception_5a/relu_3x3
I0403 15:52:38.658972 11622 net.cpp:425] inception_5a/relu_3x3 <- inception_5a/3x3
I0403 15:52:38.659003 11622 net.cpp:386] inception_5a/relu_3x3 -> inception_5a/3x3 (in-place)
I0403 15:52:38.659301 11622 net.cpp:141] Setting up inception_5a/relu_3x3
I0403 15:52:38.659327 11622 net.cpp:148] Top shape: 24 320 7 7 (376320)
I0403 15:52:38.659342 11622 net.cpp:156] Memory required for data: 1299050016
I0403 15:52:38.659355 11622 layer_factory.hpp:77] Creating layer inception_5a/5x5_reduce
I0403 15:52:38.659379 11622 net.cpp:91] Creating Layer inception_5a/5x5_reduce
I0403 15:52:38.659395 11622 net.cpp:425] inception_5a/5x5_reduce <- pool4/3x3_s2_pool4/3x3_s2_0_split_2
I0403 15:52:38.659417 11622 net.cpp:399] inception_5a/5x5_reduce -> inception_5a/5x5_reduce
I0403 15:52:38.660624 11622 net.cpp:141] Setting up inception_5a/5x5_reduce
I0403 15:52:38.660655 11622 net.cpp:148] Top shape: 24 32 7 7 (37632)
I0403 15:52:38.660671 11622 net.cpp:156] Memory required for data: 1299200544
I0403 15:52:38.660691 11622 layer_factory.hpp:77] Creating layer inception_5a/relu_5x5_reduce
I0403 15:52:38.660708 11622 net.cpp:91] Creating Layer inception_5a/relu_5x5_reduce
I0403 15:52:38.660728 11622 net.cpp:425] inception_5a/relu_5x5_reduce <- inception_5a/5x5_reduce
I0403 15:52:38.660747 11622 net.cpp:386] inception_5a/relu_5x5_reduce -> inception_5a/5x5_reduce (in-place)
I0403 15:52:38.661062 11622 net.cpp:141] Setting up inception_5a/relu_5x5_reduce
I0403 15:52:38.661088 11622 net.cpp:148] Top shape: 24 32 7 7 (37632)
I0403 15:52:38.661104 11622 net.cpp:156] Memory required for data: 1299351072
I0403 15:52:38.661119 11622 layer_factory.hpp:77] Creating layer inception_5a/5x5
I0403 15:52:38.661141 11622 net.cpp:91] Creating Layer inception_5a/5x5
I0403 15:52:38.661159 11622 net.cpp:425] inception_5a/5x5 <- inception_5a/5x5_reduce
I0403 15:52:38.661180 11622 net.cpp:399] inception_5a/5x5 -> inception_5a/5x5
I0403 15:52:38.662930 11622 net.cpp:141] Setting up inception_5a/5x5
I0403 15:52:38.662971 11622 net.cpp:148] Top shape: 24 128 7 7 (150528)
I0403 15:52:38.662992 11622 net.cpp:156] Memory required for data: 1299953184
I0403 15:52:38.663012 11622 layer_factory.hpp:77] Creating layer inception_5a/relu_5x5
I0403 15:52:38.663028 11622 net.cpp:91] Creating Layer inception_5a/relu_5x5
I0403 15:52:38.663044 11622 net.cpp:425] inception_5a/relu_5x5 <- inception_5a/5x5
I0403 15:52:38.663064 11622 net.cpp:386] inception_5a/relu_5x5 -> inception_5a/5x5 (in-place)
I0403 15:52:38.663264 11622 net.cpp:141] Setting up inception_5a/relu_5x5
I0403 15:52:38.663288 11622 net.cpp:148] Top shape: 24 128 7 7 (150528)
I0403 15:52:38.663303 11622 net.cpp:156] Memory required for data: 1300555296
I0403 15:52:38.663318 11622 layer_factory.hpp:77] Creating layer inception_5a/pool
I0403 15:52:38.663338 11622 net.cpp:91] Creating Layer inception_5a/pool
I0403 15:52:38.663355 11622 net.cpp:425] inception_5a/pool <- pool4/3x3_s2_pool4/3x3_s2_0_split_3
I0403 15:52:38.663373 11622 net.cpp:399] inception_5a/pool -> inception_5a/pool
I0403 15:52:38.663446 11622 net.cpp:141] Setting up inception_5a/pool
I0403 15:52:38.663470 11622 net.cpp:148] Top shape: 24 832 7 7 (978432)
I0403 15:52:38.663486 11622 net.cpp:156] Memory required for data: 1304469024
I0403 15:52:38.663499 11622 layer_factory.hpp:77] Creating layer inception_5a/pool_proj
I0403 15:52:38.663522 11622 net.cpp:91] Creating Layer inception_5a/pool_proj
I0403 15:52:38.663539 11622 net.cpp:425] inception_5a/pool_proj <- inception_5a/pool
I0403 15:52:38.663560 11622 net.cpp:399] inception_5a/pool_proj -> inception_5a/pool_proj
I0403 15:52:38.665900 11622 net.cpp:141] Setting up inception_5a/pool_proj
I0403 15:52:38.665931 11622 net.cpp:148] Top shape: 24 128 7 7 (150528)
I0403 15:52:38.665948 11622 net.cpp:156] Memory required for data: 1305071136
I0403 15:52:38.665967 11622 layer_factory.hpp:77] Creating layer inception_5a/relu_pool_proj
I0403 15:52:38.665990 11622 net.cpp:91] Creating Layer inception_5a/relu_pool_proj
I0403 15:52:38.666007 11622 net.cpp:425] inception_5a/relu_pool_proj <- inception_5a/pool_proj
I0403 15:52:38.666028 11622 net.cpp:386] inception_5a/relu_pool_proj -> inception_5a/pool_proj (in-place)
I0403 15:52:38.666332 11622 net.cpp:141] Setting up inception_5a/relu_pool_proj
I0403 15:52:38.666362 11622 net.cpp:148] Top shape: 24 128 7 7 (150528)
I0403 15:52:38.666378 11622 net.cpp:156] Memory required for data: 1305673248
I0403 15:52:38.666393 11622 layer_factory.hpp:77] Creating layer inception_5a/output
I0403 15:52:38.666410 11622 net.cpp:91] Creating Layer inception_5a/output
I0403 15:52:38.666426 11622 net.cpp:425] inception_5a/output <- inception_5a/1x1
I0403 15:52:38.666442 11622 net.cpp:425] inception_5a/output <- inception_5a/3x3
I0403 15:52:38.666458 11622 net.cpp:425] inception_5a/output <- inception_5a/5x5
I0403 15:52:38.666474 11622 net.cpp:425] inception_5a/output <- inception_5a/pool_proj
I0403 15:52:38.666491 11622 net.cpp:399] inception_5a/output -> inception_5a/output
I0403 15:52:38.666544 11622 net.cpp:141] Setting up inception_5a/output
I0403 15:52:38.666568 11622 net.cpp:148] Top shape: 24 832 7 7 (978432)
I0403 15:52:38.666584 11622 net.cpp:156] Memory required for data: 1309586976
I0403 15:52:38.666597 11622 layer_factory.hpp:77] Creating layer inception_5a/output_inception_5a/output_0_split
I0403 15:52:38.666613 11622 net.cpp:91] Creating Layer inception_5a/output_inception_5a/output_0_split
I0403 15:52:38.666630 11622 net.cpp:425] inception_5a/output_inception_5a/output_0_split <- inception_5a/output
I0403 15:52:38.666649 11622 net.cpp:399] inception_5a/output_inception_5a/output_0_split -> inception_5a/output_inception_5a/output_0_split_0
I0403 15:52:38.666671 11622 net.cpp:399] inception_5a/output_inception_5a/output_0_split -> inception_5a/output_inception_5a/output_0_split_1
I0403 15:52:38.666692 11622 net.cpp:399] inception_5a/output_inception_5a/output_0_split -> inception_5a/output_inception_5a/output_0_split_2
I0403 15:52:38.666717 11622 net.cpp:399] inception_5a/output_inception_5a/output_0_split -> inception_5a/output_inception_5a/output_0_split_3
I0403 15:52:38.666831 11622 net.cpp:141] Setting up inception_5a/output_inception_5a/output_0_split
I0403 15:52:38.666854 11622 net.cpp:148] Top shape: 24 832 7 7 (978432)
I0403 15:52:38.666870 11622 net.cpp:148] Top shape: 24 832 7 7 (978432)
I0403 15:52:38.666887 11622 net.cpp:148] Top shape: 24 832 7 7 (978432)
I0403 15:52:38.666903 11622 net.cpp:148] Top shape: 24 832 7 7 (978432)
I0403 15:52:38.666916 11622 net.cpp:156] Memory required for data: 1325241888
I0403 15:52:38.666930 11622 layer_factory.hpp:77] Creating layer inception_5b/1x1
I0403 15:52:38.666952 11622 net.cpp:91] Creating Layer inception_5b/1x1
I0403 15:52:38.666970 11622 net.cpp:425] inception_5b/1x1 <- inception_5a/output_inception_5a/output_0_split_0
I0403 15:52:38.666996 11622 net.cpp:399] inception_5b/1x1 -> inception_5b/1x1
I0403 15:52:38.670868 11622 net.cpp:141] Setting up inception_5b/1x1
I0403 15:52:38.670898 11622 net.cpp:148] Top shape: 24 384 7 7 (451584)
I0403 15:52:38.670918 11622 net.cpp:156] Memory required for data: 1327048224
I0403 15:52:38.670938 11622 layer_factory.hpp:77] Creating layer inception_5b/relu_1x1
I0403 15:52:38.670958 11622 net.cpp:91] Creating Layer inception_5b/relu_1x1
I0403 15:52:38.670974 11622 net.cpp:425] inception_5b/relu_1x1 <- inception_5b/1x1
I0403 15:52:38.670997 11622 net.cpp:386] inception_5b/relu_1x1 -> inception_5b/1x1 (in-place)
I0403 15:52:38.671324 11622 net.cpp:141] Setting up inception_5b/relu_1x1
I0403 15:52:38.671351 11622 net.cpp:148] Top shape: 24 384 7 7 (451584)
I0403 15:52:38.671370 11622 net.cpp:156] Memory required for data: 1328854560
I0403 15:52:38.671386 11622 layer_factory.hpp:77] Creating layer inception_5b/3x3_reduce
I0403 15:52:38.671407 11622 net.cpp:91] Creating Layer inception_5b/3x3_reduce
I0403 15:52:38.671425 11622 net.cpp:425] inception_5b/3x3_reduce <- inception_5a/output_inception_5a/output_0_split_1
I0403 15:52:38.671448 11622 net.cpp:399] inception_5b/3x3_reduce -> inception_5b/3x3_reduce
I0403 15:52:38.674257 11622 net.cpp:141] Setting up inception_5b/3x3_reduce
I0403 15:52:38.674286 11622 net.cpp:148] Top shape: 24 192 7 7 (225792)
I0403 15:52:38.674302 11622 net.cpp:156] Memory required for data: 1329757728
I0403 15:52:38.674321 11622 layer_factory.hpp:77] Creating layer inception_5b/relu_3x3_reduce
I0403 15:52:38.674343 11622 net.cpp:91] Creating Layer inception_5b/relu_3x3_reduce
I0403 15:52:38.674362 11622 net.cpp:425] inception_5b/relu_3x3_reduce <- inception_5b/3x3_reduce
I0403 15:52:38.674381 11622 net.cpp:386] inception_5b/relu_3x3_reduce -> inception_5b/3x3_reduce (in-place)
I0403 15:52:38.674584 11622 net.cpp:141] Setting up inception_5b/relu_3x3_reduce
I0403 15:52:38.674610 11622 net.cpp:148] Top shape: 24 192 7 7 (225792)
I0403 15:52:38.674625 11622 net.cpp:156] Memory required for data: 1330660896
I0403 15:52:38.674641 11622 layer_factory.hpp:77] Creating layer inception_5b/3x3
I0403 15:52:38.674664 11622 net.cpp:91] Creating Layer inception_5b/3x3
I0403 15:52:38.674682 11622 net.cpp:425] inception_5b/3x3 <- inception_5b/3x3_reduce
I0403 15:52:38.674705 11622 net.cpp:399] inception_5b/3x3 -> inception_5b/3x3
I0403 15:52:38.681632 11622 net.cpp:141] Setting up inception_5b/3x3
I0403 15:52:38.681663 11622 net.cpp:148] Top shape: 24 384 7 7 (451584)
I0403 15:52:38.681679 11622 net.cpp:156] Memory required for data: 1332467232
I0403 15:52:38.681697 11622 layer_factory.hpp:77] Creating layer inception_5b/relu_3x3
I0403 15:52:38.681715 11622 net.cpp:91] Creating Layer inception_5b/relu_3x3
I0403 15:52:38.681731 11622 net.cpp:425] inception_5b/relu_3x3 <- inception_5b/3x3
I0403 15:52:38.681751 11622 net.cpp:386] inception_5b/relu_3x3 -> inception_5b/3x3 (in-place)
I0403 15:52:38.682055 11622 net.cpp:141] Setting up inception_5b/relu_3x3
I0403 15:52:38.682085 11622 net.cpp:148] Top shape: 24 384 7 7 (451584)
I0403 15:52:38.682099 11622 net.cpp:156] Memory required for data: 1334273568
I0403 15:52:38.682114 11622 layer_factory.hpp:77] Creating layer inception_5b/5x5_reduce
I0403 15:52:38.682152 11622 net.cpp:91] Creating Layer inception_5b/5x5_reduce
I0403 15:52:38.682170 11622 net.cpp:425] inception_5b/5x5_reduce <- inception_5a/output_inception_5a/output_0_split_2
I0403 15:52:38.682189 11622 net.cpp:399] inception_5b/5x5_reduce -> inception_5b/5x5_reduce
I0403 15:52:38.683466 11622 net.cpp:141] Setting up inception_5b/5x5_reduce
I0403 15:52:38.683496 11622 net.cpp:148] Top shape: 24 48 7 7 (56448)
I0403 15:52:38.683513 11622 net.cpp:156] Memory required for data: 1334499360
I0403 15:52:38.683531 11622 layer_factory.hpp:77] Creating layer inception_5b/relu_5x5_reduce
I0403 15:52:38.683549 11622 net.cpp:91] Creating Layer inception_5b/relu_5x5_reduce
I0403 15:52:38.683564 11622 net.cpp:425] inception_5b/relu_5x5_reduce <- inception_5b/5x5_reduce
I0403 15:52:38.683581 11622 net.cpp:386] inception_5b/relu_5x5_reduce -> inception_5b/5x5_reduce (in-place)
I0403 15:52:38.683956 11622 net.cpp:141] Setting up inception_5b/relu_5x5_reduce
I0403 15:52:38.683986 11622 net.cpp:148] Top shape: 24 48 7 7 (56448)
I0403 15:52:38.684002 11622 net.cpp:156] Memory required for data: 1334725152
I0403 15:52:38.684016 11622 layer_factory.hpp:77] Creating layer inception_5b/5x5
I0403 15:52:38.684036 11622 net.cpp:91] Creating Layer inception_5b/5x5
I0403 15:52:38.684052 11622 net.cpp:425] inception_5b/5x5 <- inception_5b/5x5_reduce
I0403 15:52:38.684072 11622 net.cpp:399] inception_5b/5x5 -> inception_5b/5x5
I0403 15:52:38.686137 11622 net.cpp:141] Setting up inception_5b/5x5
I0403 15:52:38.686167 11622 net.cpp:148] Top shape: 24 128 7 7 (150528)
I0403 15:52:38.686183 11622 net.cpp:156] Memory required for data: 1335327264
I0403 15:52:38.686202 11622 layer_factory.hpp:77] Creating layer inception_5b/relu_5x5
I0403 15:52:38.686219 11622 net.cpp:91] Creating Layer inception_5b/relu_5x5
I0403 15:52:38.686235 11622 net.cpp:425] inception_5b/relu_5x5 <- inception_5b/5x5
I0403 15:52:38.686255 11622 net.cpp:386] inception_5b/relu_5x5 -> inception_5b/5x5 (in-place)
I0403 15:52:38.686451 11622 net.cpp:141] Setting up inception_5b/relu_5x5
I0403 15:52:38.686476 11622 net.cpp:148] Top shape: 24 128 7 7 (150528)
I0403 15:52:38.686491 11622 net.cpp:156] Memory required for data: 1335929376
I0403 15:52:38.686506 11622 layer_factory.hpp:77] Creating layer inception_5b/pool
I0403 15:52:38.686522 11622 net.cpp:91] Creating Layer inception_5b/pool
I0403 15:52:38.686538 11622 net.cpp:425] inception_5b/pool <- inception_5a/output_inception_5a/output_0_split_3
I0403 15:52:38.686559 11622 net.cpp:399] inception_5b/pool -> inception_5b/pool
I0403 15:52:38.686633 11622 net.cpp:141] Setting up inception_5b/pool
I0403 15:52:38.686656 11622 net.cpp:148] Top shape: 24 832 7 7 (978432)
I0403 15:52:38.686671 11622 net.cpp:156] Memory required for data: 1339843104
I0403 15:52:38.686686 11622 layer_factory.hpp:77] Creating layer inception_5b/pool_proj
I0403 15:52:38.686707 11622 net.cpp:91] Creating Layer inception_5b/pool_proj
I0403 15:52:38.686724 11622 net.cpp:425] inception_5b/pool_proj <- inception_5b/pool
I0403 15:52:38.686744 11622 net.cpp:399] inception_5b/pool_proj -> inception_5b/pool_proj
I0403 15:52:38.689085 11622 net.cpp:141] Setting up inception_5b/pool_proj
I0403 15:52:38.689116 11622 net.cpp:148] Top shape: 24 128 7 7 (150528)
I0403 15:52:38.689132 11622 net.cpp:156] Memory required for data: 1340445216
I0403 15:52:38.689151 11622 layer_factory.hpp:77] Creating layer inception_5b/relu_pool_proj
I0403 15:52:38.689169 11622 net.cpp:91] Creating Layer inception_5b/relu_pool_proj
I0403 15:52:38.689187 11622 net.cpp:425] inception_5b/relu_pool_proj <- inception_5b/pool_proj
I0403 15:52:38.689205 11622 net.cpp:386] inception_5b/relu_pool_proj -> inception_5b/pool_proj (in-place)
I0403 15:52:38.689503 11622 net.cpp:141] Setting up inception_5b/relu_pool_proj
I0403 15:52:38.689532 11622 net.cpp:148] Top shape: 24 128 7 7 (150528)
I0403 15:52:38.689546 11622 net.cpp:156] Memory required for data: 1341047328
I0403 15:52:38.689560 11622 layer_factory.hpp:77] Creating layer inception_5b/output
I0403 15:52:38.689577 11622 net.cpp:91] Creating Layer inception_5b/output
I0403 15:52:38.689607 11622 net.cpp:425] inception_5b/output <- inception_5b/1x1
I0403 15:52:38.689625 11622 net.cpp:425] inception_5b/output <- inception_5b/3x3
I0403 15:52:38.689641 11622 net.cpp:425] inception_5b/output <- inception_5b/5x5
I0403 15:52:38.689657 11622 net.cpp:425] inception_5b/output <- inception_5b/pool_proj
I0403 15:52:38.689674 11622 net.cpp:399] inception_5b/output -> inception_5b/output
I0403 15:52:38.689728 11622 net.cpp:141] Setting up inception_5b/output
I0403 15:52:38.689751 11622 net.cpp:148] Top shape: 24 1024 7 7 (1204224)
I0403 15:52:38.689765 11622 net.cpp:156] Memory required for data: 1345864224
I0403 15:52:38.689780 11622 layer_factory.hpp:77] Creating layer pool5/7x7_s1
I0403 15:52:38.689800 11622 net.cpp:91] Creating Layer pool5/7x7_s1
I0403 15:52:38.689815 11622 net.cpp:425] pool5/7x7_s1 <- inception_5b/output
I0403 15:52:38.689834 11622 net.cpp:399] pool5/7x7_s1 -> pool5/7x7_s1
I0403 15:52:38.690071 11622 net.cpp:141] Setting up pool5/7x7_s1
I0403 15:52:38.690098 11622 net.cpp:148] Top shape: 24 1024 1 1 (24576)
I0403 15:52:38.690114 11622 net.cpp:156] Memory required for data: 1345962528
I0403 15:52:38.690127 11622 layer_factory.hpp:77] Creating layer pool5/drop_7x7_s1
I0403 15:52:38.690146 11622 net.cpp:91] Creating Layer pool5/drop_7x7_s1
I0403 15:52:38.690162 11622 net.cpp:425] pool5/drop_7x7_s1 <- pool5/7x7_s1
I0403 15:52:38.690182 11622 net.cpp:386] pool5/drop_7x7_s1 -> pool5/7x7_s1 (in-place)
I0403 15:52:38.690245 11622 net.cpp:141] Setting up pool5/drop_7x7_s1
I0403 15:52:38.690268 11622 net.cpp:148] Top shape: 24 1024 1 1 (24576)
I0403 15:52:38.690285 11622 net.cpp:156] Memory required for data: 1346060832
I0403 15:52:38.690300 11622 layer_factory.hpp:77] Creating layer loss3/classifier_plantvillage
I0403 15:52:38.690320 11622 net.cpp:91] Creating Layer loss3/classifier_plantvillage
I0403 15:52:38.690335 11622 net.cpp:425] loss3/classifier_plantvillage <- pool5/7x7_s1
I0403 15:52:38.690356 11622 net.cpp:399] loss3/classifier_plantvillage -> loss3/classifier_plantvillage
I0403 15:52:38.690776 11622 net.cpp:141] Setting up loss3/classifier_plantvillage
I0403 15:52:38.690800 11622 net.cpp:148] Top shape: 24 38 (912)
I0403 15:52:38.690814 11622 net.cpp:156] Memory required for data: 1346064480
I0403 15:52:38.690831 11622 layer_factory.hpp:77] Creating layer loss3/classifier_plantvillage_loss3/classifier_plantvillage_0_split
I0403 15:52:38.690850 11622 net.cpp:91] Creating Layer loss3/classifier_plantvillage_loss3/classifier_plantvillage_0_split
I0403 15:52:38.690865 11622 net.cpp:425] loss3/classifier_plantvillage_loss3/classifier_plantvillage_0_split <- loss3/classifier_plantvillage
I0403 15:52:38.690889 11622 net.cpp:399] loss3/classifier_plantvillage_loss3/classifier_plantvillage_0_split -> loss3/classifier_plantvillage_loss3/classifier_plantvillage_0_split_0
I0403 15:52:38.690910 11622 net.cpp:399] loss3/classifier_plantvillage_loss3/classifier_plantvillage_0_split -> loss3/classifier_plantvillage_loss3/classifier_plantvillage_0_split_1
I0403 15:52:38.690932 11622 net.cpp:399] loss3/classifier_plantvillage_loss3/classifier_plantvillage_0_split -> loss3/classifier_plantvillage_loss3/classifier_plantvillage_0_split_2
I0403 15:52:38.690954 11622 net.cpp:399] loss3/classifier_plantvillage_loss3/classifier_plantvillage_0_split -> loss3/classifier_plantvillage_loss3/classifier_plantvillage_0_split_3
I0403 15:52:38.691059 11622 net.cpp:141] Setting up loss3/classifier_plantvillage_loss3/classifier_plantvillage_0_split
I0403 15:52:38.691082 11622 net.cpp:148] Top shape: 24 38 (912)
I0403 15:52:38.691098 11622 net.cpp:148] Top shape: 24 38 (912)
I0403 15:52:38.691113 11622 net.cpp:148] Top shape: 24 38 (912)
I0403 15:52:38.691128 11622 net.cpp:148] Top shape: 24 38 (912)
I0403 15:52:38.691141 11622 net.cpp:156] Memory required for data: 1346079072
I0403 15:52:38.691156 11622 layer_factory.hpp:77] Creating layer loss1/loss
I0403 15:52:38.691177 11622 net.cpp:91] Creating Layer loss1/loss
I0403 15:52:38.691195 11622 net.cpp:425] loss1/loss <- loss1/classifier_plantvillage_loss1/classifier_plantvillage_0_split_0
I0403 15:52:38.691225 11622 net.cpp:425] loss1/loss <- label_data_1_split_0
…
