…
I0403 15:38:53.917145 10823 net.cpp:313] The NetState phase (1) differed from the phase (0) specified by a rule in layer data
I0403 15:38:53.918323 10823 net.cpp:49] Initializing net from parameters: 
state {
  phase: TEST
}
layer {
  name: "data"
  type: "Data"
  top: "data"
  top: "label"
  include {
    phase: TEST
  }
  transform_param {
    mirror: false
    crop_size: 224
    mean_file: "/home/mohanty/data/final_dataset/lmdb/segmented-80-20/mean.binaryproto"
  }
  data_param {
    source: "/home/mohanty/data/final_dataset/lmdb/segmented-80-20/test_db"
    batch_size: 24
    backend: LMDB
  }
}
layer {
  name: "conv1/7x7_s2"
  type: "Convolution"
  bottom: "data"
  top: "conv1/7x7_s2"
  param {
    lr_mult: 1
    decay_mult: 1
  }
  param {
    lr_mult: 2
    decay_mult: 0
  }
  convolution_param {
    num_output: 64
    pad: 3
    kernel_size: 7
    stride: 2
    weight_filler {
      type: "xavier"
      std: 0.1
    }
    bias_filler {
      type: "constant"
      value: 0.2
    }
  }
}
layer {
  name: "conv1/relu_7x7"
  type: "ReLU"
  bottom: "conv1/7x7_s2"
  top: "conv1/7x7_s2"
}
layer {
  name: "pool1/3x3_s2"
  type: "Pooling"
  bottom: "conv1/7x7_s2"
  top: "pool1/3x3_s2"
  pooling_param {
    pool: MAX
    kernel_size: 3
    stride: 2
  }
}
layer {
  name: "pool1/norm1"
  type: "LRN"
  bottom: "pool1/3x3_s2"
  top: "pool1/norm1"
  lrn_param {
    local_size: 5
    alpha: 0.0001
    beta: 0.75
  }
}
layer {
  name: "conv2/3x3_reduce"
  type: "Convolution"
  bottom: "pool1/norm1"
  top: "conv2/3x3_reduce"
  param {
    lr_mult: 1
    decay_mult: 1
  }
  param {
    lr_mult: 2
    decay_mult: 0
  }
  convolution_param {
    num_output: 64
    kernel_size: 1
    weight_filler {
      type: "xavier"
      std: 0.1
    }
    bias_filler {
      type: "constant"
      value: 0.2
    }
  }
}
layer {
  name: "conv2/relu_3x3_reduce"
  type: "ReLU"
  bottom: "conv2/3x3_reduce"
  top: "conv2/3x3_reduce"
}
layer {
  name: "conv2/3x3"
  type: "Convolution"
  bottom: "conv2/3x3_reduce"
  top: "conv2/3x3"
  param {
    lr_mult: 1
    decay_mult: 1
  }
  param {
    lr_mult: 2
    decay_mult: 0
  }
  convolution_param {
    num_output: 192
    pad: 1
    kernel_size: 3
    weight_filler {
      type: "xavier"
      std: 0.03
    }
    bias_filler {
      type: "constant"
      value: 0.2
    }
  }
}
layer {
  name: "conv2/relu_3x3"
  type: "ReLU"
  bottom: "conv2/3x3"
  top: "conv2/3x3"
}
layer {
  name: "conv2/norm2"
  type: "LRN"
  bottom: "conv2/3x3"
  top: "conv2/norm2"
  lrn_param {
    local_size: 5
    alpha: 0.0001
    beta: 0.75
  }
}
layer {
  name: "pool2/3x3_s2"
  type: "Pooling"
  bottom: "conv2/norm2"
  top: "pool2/3x3_s2"
  pooling_param {
    pool: MAX
    kernel_size: 3
    stride: 2
  }
}
layer {
  name: "inception_3a/1x1"
  type: "Convolution"
  bottom: "pool2/3x3_s2"
  top: "inception_3a/1x1"
  param {
    lr_mult: 1
    decay_mult: 1
  }
  param {
    lr_mult: 2
    decay_mult: 0
  }
  convolution_param {
    num_output: 64
    kernel_size: 1
    weight_filler {
      type: "xavier"
      std: 0.03
    }
    bias_filler {
      type: "constant"
      value: 0.2
    }
  }
}
layer {
  name: "inception_3a/relu_1x1"
  type: "ReLU"
  bottom: "inception_3a/1x1"
  top: "inception_3a/1x1"
}
layer {
  name: "inception_3a/3x3_reduce"
  type: "Convolution"
  bottom: "pool2/3x3_s2"
  top: "inception_3a/3x3_reduce"
  param {
    lr_mult: 1
    decay_mult: 1
  }
  param {
    lr_mult: 2
    decay_mult: 0
  }
  convolution_param {
    num_output: 96
    kernel_size: 1
    weight_filler {
      type: "xavier"
      std: 0.09
    }
    bias_filler {
      type: "constant"
      value: 0.2
    }
  }
}
layer {
  name: "inception_3a/relu_3x3_reduce"
  type: "ReLU"
  bottom: "inception_3a/3x3_reduce"
  top: "inception_3a/3x3_reduce"
}
layer {
  name: "inception_3a/3x3"
  type: "Convolution"
  bottom: "inception_3a/3x3_reduce"
  top: "inception_3a/3x3"
  param {
    lr_mult: 1
    decay_mult: 1
  }
  param {
    lr_mult: 2
    decay_mult: 0
  }
  convolution_param {
    num_output: 128
    pad: 1
    kernel_size: 3
    weight_filler {
      type: "xavier"
      std: 0.03
    }
    bias_filler {
      type: "constant"
      value: 0.2
    }
  }
}
layer {
  name: "inception_3a/relu_3x3"
  type: "ReLU"
  bottom: "inception_3a/3x3"
  top: "inception_3a/3x3"
}
layer {
  name: "inception_3a/5x5_reduce"
  type: "Convolution"
  bottom: "pool2/3x3_s2"
  top: "inception_3a/5x5_reduce"
  param {
    lr_mult: 1
    decay_mult: 1
  }
  param {
    lr_mult: 2
    decay_mult: 0
  }
  convolution_param {
    num_output: 16
    kernel_size: 1
    weight_filler {
      type: "xavier"
      std: 0.2
    }
    bias_filler {
      type: "constant"
      value: 0.2
    }
  }
}
layer {
  name: "inception_3a/relu_5x5_reduce"
  type: "ReLU"
  bottom: "inception_3a/5x5_reduce"
  top: "inception_3a/5x5_reduce"
}
layer {
  name: "inception_3a/5x5"
  type: "Convolution"
  bottom: "inception_3a/5x5_reduce"
  top: "inception_3a/5x5"
  param {
    lr_mult: 1
    decay_mult: 1
  }
  param {
    lr_mult: 2
    decay_mult: 0
  }
  convolution_param {
    num_output: 32
    pad: 2
    kernel_size: 5
    weight_filler {
      type: "xavier"
      std: 0.03
    }
    bias_filler {
      type: "constant"
      value: 0.2
    }
  }
}
layer {
  name: "inception_3a/relu_5x5"
  type: "ReLU"
  bottom: "inception_3a/5x5"
  top: "inception_3a/5x5"
}
layer {
  name: "inception_3a/pool"
  type: "Pooling"
  bottom: "pool2/3x3_s2"
  top: "inception_3a/pool"
  pooling_param {
    pool: MAX
    kernel_size: 3
    stride: 1
    pad: 1
  }
}
layer {
  name: "inception_3a/pool_proj"
  type: "Convolution"
  bottom: "inception_3a/pool"
  top: "inception_3a/pool_proj"
  param {
    lr_mult: 1
    decay_mult: 1
  }
  param {
    lr_mult: 2
    decay_mult: 0
  }
  convolution_param {
    num_output: 32
    kernel_size: 1
    weight_filler {
      type: "xavier"
      std: 0.1
    }
    bias_filler {
      type: "constant"
      value: 0.2
    }
  }
}
layer {
  name: "inception_3a/relu_pool_proj"
  type: "ReLU"
  bottom: "inception_3a/pool_proj"
  top: "inception_3a/pool_proj"
}
layer {
  name: "inception_3a/output"
  type: "Concat"
  bottom: "inception_3a/1x1"
  bottom: "inception_3a/3x3"
  bottom: "inception_3a/5x5"
  bottom: "inception_3a/pool_proj"
  top: "inception_3a/output"
}
layer {
  name: "inception_3b/1x1"
  type: "Convolution"
  bottom: "inception_3a/output"
  top: "inception_3b/1x1"
  param {
    lr_mult: 1
    decay_mult: 1
  }
  param {
    lr_mult: 2
    decay_mult: 0
  }
  convolution_param {
    num_output: 128
    kernel_size: 1
    weight_filler {
      type: "xavier"
      std: 0.03
    }
    bias_filler {
      type: "constant"
      value: 0.2
    }
  }
}
layer {
  name: "inception_3b/relu_1x1"
  type: "ReLU"
  bottom: "inception_3b/1x1"
  top: "inception_3b/1x1"
}
layer {
  name: "inception_3b/3x3_reduce"
  type: "Convolution"
  bottom: "inception_3a/output"
  top: "inception_3b/3x3_reduce"
  param {
    lr_mult: 1
    decay_mult: 1
  }
  param {
    lr_mult: 2
    decay_mult: 0
  }
  convolution_param {
    num_output: 128
    kernel_size: 1
    weight_filler {
      type: "xavier"
      std: 0.09
    }
    bias_filler {
      type: "constant"
      value: 0.2
    }
  }
}
layer {
  name: "inception_3b/relu_3x3_reduce"
  type: "ReLU"
  bottom: "inception_3b/3x3_reduce"
  top: "inception_3b/3x3_reduce"
}
layer {
  name: "inception_3b/3x3"
  type: "Convolution"
  bottom: "inception_3b/3x3_reduce"
  top: "inception_3b/3x3"
  param {
    lr_mult: 1
    decay_mult: 1
  }
  param {
    lr_mult: 2
    decay_mult: 0
  }
  convolution_param {
    num_output: 192
    pad: 1
    kernel_size: 3
    weight_filler {
      type: "xavier"
      std: 0.03
    }
    bias_filler {
      type: "constant"
      value: 0.2
    }
  }
}
layer {
  name: "inception_3b/relu_3x3"
  type: "ReLU"
  bottom: "inception_3b/3x3"
  top: "inception_3b/3x3"
}
layer {
  name: "inception_3b/5x5_reduce"
  type: "Convolution"
  bottom: "inception_3a/output"
  top: "inception_3b/5x5_reduce"
  param {
    lr_mult: 1
    decay_mult: 1
  }
  param {
    lr_mult: 2
    decay_mult: 0
  }
  convolution_param {
    num_output: 32
    kernel_size: 1
    weight_filler {
      type: "xavier"
      std: 0.2
    }
    bias_filler {
      type: "constant"
      value: 0.2
    }
  }
}
layer {
  name: "inception_3b/relu_5x5_reduce"
  type: "ReLU"
  bottom: "inception_3b/5x5_reduce"
  top: "inception_3b/5x5_reduce"
}
layer {
  name: "inception_3b/5x5"
  type: "Convolution"
  bottom: "inception_3b/5x5_reduce"
  top: "inception_3b/5x5"
  param {
    lr_mult: 1
    decay_mult: 1
  }
  param {
    lr_mult: 2
    decay_mult: 0
  }
  convolution_param {
    num_output: 96
    pad: 2
    kernel_size: 5
    weight_filler {
      type: "xavier"
      std: 0.03
    }
    bias_filler {
      type: "constant"
      value: 0.2
    }
  }
}
layer {
  name: "inception_3b/relu_5x5"
  type: "ReLU"
  bottom: "inception_3b/5x5"
  top: "inception_3b/5x5"
}
layer {
  name: "inception_3b/pool"
  type: "Pooling"
  bottom: "inception_3a/output"
  top: "inception_3b/pool"
  pooling_param {
    pool: MAX
    kernel_size: 3
    stride: 1
    pad: 1
  }
}
layer {
  name: "inception_3b/pool_proj"
  type: "Convolution"
  bottom: "inception_3b/pool"
  top: "inception_3b/pool_proj"
  param {
    lr_mult: 1
    decay_mult: 1
  }
  param {
    lr_mult: 2
    decay_mult: 0
  }
  convolution_param {
    num_output: 64
    kernel_size: 1
    weight_filler {
      type: "xavier"
      std: 0.1
    }
    bias_filler {
      type: "constant"
      value: 0.2
    }
  }
}
layer {
  name: "inception_3b/relu_pool_proj"
  type: "ReLU"
  bottom: "inception_3b/pool_proj"
  top: "inception_3b/pool_proj"
}
layer {
  name: "inception_3b/output"
  type: "Concat"
  bottom: "inception_3b/1x1"
  bottom: "inception_3b/3x3"
  bottom: "inception_3b/5x5"
  bottom: "inception_3b/pool_proj"
  top: "inception_3b/output"
}
layer {
  name: "pool3/3x3_s2"
  type: "Pooling"
  bottom: "inception_3b/output"
  top: "pool3/3x3_s2"
  pooling_param {
    pool: MAX
    kernel_size: 3
    stride: 2
  }
}
layer {
  name: "inception_4a/1x1"
  type: "Convolution"
  bottom: "pool3/3x3_s2"
  top: "inception_4a/1x1"
  param {
    lr_mult: 1
    decay_mult: 1
  }
  param {
    lr_mult: 2
    decay_mult: 0
  }
  convolution_param {
    num_output: 192
    kernel_size: 1
    weight_filler {
      type: "xavier"
      std: 0.03
    }
    bias_filler {
      type: "constant"
      value: 0.2
    }
  }
}
layer {
  name: "inception_4a/relu_1x1"
  type: "ReLU"
  bottom: "inception_4a/1x1"
  top: "inception_4a/1x1"
}
layer {
  name: "inception_4a/3x3_reduce"
  type: "Convolution"
  bottom: "pool3/3x3_s2"
  top: "inception_4a/3x3_reduce"
  param {
    lr_mult: 1
    decay_mult: 1
  }
  param {
    lr_mult: 2
    decay_mult: 0
  }
  convolution_param {
    num_output: 96
    kernel_size: 1
    weight_filler {
      type: "xavier"
      std: 0.09
    }
    bias_filler {
      type: "constant"
      value: 0.2
    }
  }
}
layer {
  name: "inception_4a/relu_3x3_reduce"
  type: "ReLU"
  bottom: "inception_4a/3x3_reduce"
  top: "inception_4a/3x3_reduce"
}
layer {
  name: "inception_4a/3x3"
  type: "Convolution"
  bottom: "inception_4a/3x3_reduce"
  top: "inception_4a/3x3"
  param {
    lr_mult: 1
    decay_mult: 1
  }
  param {
    lr_mult: 2
    decay_mult: 0
  }
  convolution_param {
    num_output: 208
    pad: 1
    kernel_size: 3
    weight_filler {
      type: "xavier"
      std: 0.03
    }
    bias_filler {
      type: "constant"
      value: 0.2
    }
  }
}
layer {
  name: "inception_4a/relu_3x3"
  type: "ReLU"
  bottom: "inception_4a/3x3"
  top: "inception_4a/3x3"
}
layer {
  name: "inception_4a/5x5_reduce"
  type: "Convolution"
  bottom: "pool3/3x3_s2"
  top: "inception_4a/5x5_reduce"
  param {
    lr_mult: 1
    decay_mult: 1
  }
  param {
    lr_mult: 2
    decay_mult: 0
  }
  convolution_param {
    num_output: 16
    kernel_size: 1
    weight_filler {
      type: "xavier"
      std: 0.2
    }
    bias_filler {
      type: "constant"
      value: 0.2
    }
  }
}
layer {
  name: "inception_4a/relu_5x5_reduce"
  type: "ReLU"
  bottom: "inception_4a/5x5_reduce"
  top: "inception_4a/5x5_reduce"
}
layer {
  name: "inception_4a/5x5"
  type: "Convolution"
  bottom: "inception_4a/5x5_reduce"
  top: "inception_4a/5x5"
  param {
    lr_mult: 1
    decay_mult: 1
  }
  param {
    lr_mult: 2
    decay_mult: 0
  }
  convolution_param {
    num_output: 48
    pad: 2
    kernel_size: 5
    weight_filler {
      type: "xavier"
      std: 0.03
    }
    bias_filler {
      type: "constant"
      value: 0.2
    }
  }
}
layer {
  name: "inception_4a/relu_5x5"
  type: "ReLU"
  bottom: "inception_4a/5x5"
  top: "inception_4a/5x5"
}
layer {
  name: "inception_4a/pool"
  type: "Pooling"
  bottom: "pool3/3x3_s2"
  top: "inception_4a/pool"
  pooling_param {
    pool: MAX
    kernel_size: 3
    stride: 1
    pad: 1
  }
}
layer {
  name: "inception_4a/pool_proj"
  type: "Convolution"
  bottom: "inception_4a/pool"
  top: "inception_4a/pool_proj"
  param {
    lr_mult: 1
    decay_mult: 1
  }
  param {
    lr_mult: 2
    decay_mult: 0
  }
  convolution_param {
    num_output: 64
    kernel_size: 1
    weight_filler {
      type: "xavier"
      std: 0.1
    }
    bias_filler {
      type: "constant"
      value: 0.2
    }
  }
}
layer {
  name: "inception_4a/relu_pool_proj"
  type: "ReLU"
  bottom: "inception_4a/pool_proj"
  top: "inception_4a/pool_proj"
}
layer {
  name: "inception_4a/output"
  type: "Concat"
  bottom: "inception_4a/1x1"
  bottom: "inception_4a/3x3"
  bottom: "inception_4a/5x5"
  bottom: "inception_4a/pool_proj"
  top: "inception_4a/output"
}
layer {
  name: "loss1/ave_pool"
  type: "Pooling"
  bottom: "inception_4a/output"
  top: "loss1/ave_pool"
  pooling_param {
    pool: AVE
    kernel_size: 5
    stride: 3
  }
}
layer {
  name: "loss1/conv"
  type: "Convolution"
  bottom: "loss1/ave_pool"
  top: "loss1/conv"
  param {
    lr_mult: 1
    decay_mult: 1
  }
  param {
    lr_mult: 2
    decay_mult: 0
  }
  convolution_param {
    num_output: 128
    kernel_size: 1
    weight_filler {
      type: "xavier"
      std: 0.08
    }
    bias_filler {
      type: "constant"
      value: 0.2
    }
  }
}
layer {
  name: "loss1/relu_conv"
  type: "ReLU"
  bottom: "loss1/conv"
  top: "loss1/conv"
}
layer {
  name: "loss1/fc"
  type: "InnerProduct"
  bottom: "loss1/conv"
  top: "loss1/fc"
  param {
    lr_mult: 1
    decay_mult: 1
  }
  param {
    lr_mult: 2
    decay_mult: 0
  }
  inner_product_param {
    num_output: 1024
    weight_filler {
      type: "xavier"
      std: 0.02
    }
    bias_filler {
      type: "constant"
      value: 0.2
    }
  }
}
layer {
  name: "loss1/relu_fc"
  type: "ReLU"
  bottom: "loss1/fc"
  top: "loss1/fc"
}
layer {
  name: "loss1/drop_fc"
  type: "Dropout"
  bottom: "loss1/fc"
  top: "loss1/fc"
  dropout_param {
    dropout_ratio: 0.7
  }
}
layer {
  name: "loss1/classifier_plantvillage"
  type: "InnerProduct"
  bottom: "loss1/fc"
  top: "loss1/classifier_plantvillage"
  param {
    lr_mult: 1
    decay_mult: 1
  }
  param {
    lr_mult: 2
    decay_mult: 0
  }
  inner_product_param {
    num_output: 38
    weight_filler {
      type: "xavier"
      std: 0.0009765625
    }
    bias_filler {
      type: "constant"
      value: 0
    }
  }
}
layer {
  name: "inception_4b/1x1"
  type: "Convolution"
  bottom: "inception_4a/output"
  top: "inception_4b/1x1"
  param {
    lr_mult: 1
    decay_mult: 1
  }
  param {
    lr_mult: 2
    decay_mult: 0
  }
  convolution_param {
    num_output: 160
    kernel_size: 1
    weight_filler {
      type: "xavier"
      std: 0.03
    }
    bias_filler {
      type: "constant"
      value: 0.2
    }
  }
}
layer {
  name: "inception_4b/relu_1x1"
  type: "ReLU"
  bottom: "inception_4b/1x1"
  top: "inception_4b/1x1"
}
layer {
  name: "inception_4b/3x3_reduce"
  type: "Convolution"
  bottom: "inception_4a/output"
  top: "inception_4b/3x3_reduce"
  param {
    lr_mult: 1
    decay_mult: 1
  }
  param {
    lr_mult: 2
    decay_mult: 0
  }
  convolution_param {
    num_output: 112
    kernel_size: 1
    weight_filler {
      type: "xavier"
      std: 0.09
    }
    bias_filler {
      type: "constant"
      value: 0.2
    }
  }
}
layer {
  name: "inception_4b/relu_3x3_reduce"
  type: "ReLU"
  bottom: "inception_4b/3x3_reduce"
  top: "inception_4b/3x3_reduce"
}
layer {
  name: "inception_4b/3x3"
  type: "Convolution"
  bottom: "inception_4b/3x3_reduce"
  top: "inception_4b/3x3"
  param {
    lr_mult: 1
    decay_mult: 1
  }
  param {
    lr_mult: 2
    decay_mult: 0
  }
  convolution_param {
    num_output: 224
    pad: 1
    kernel_size: 3
    weight_filler {
      type: "xavier"
      std: 0.03
    }
    bias_filler {
      type: "constant"
      value: 0.2
    }
  }
}
layer {
  name: "inception_4b/relu_3x3"
  type: "ReLU"
  bottom: "inception_4b/3x3"
  top: "inception_4b/3x3"
}
layer {
  name: "inception_4b/5x5_reduce"
  type: "Convolution"
  bottom: "inception_4a/output"
  top: "inception_4b/5x5_reduce"
  param {
    lr_mult: 1
    decay_mult: 1
  }
  param {
    lr_mult: 2
    decay_mult: 0
  }
  convolution_param {
    num_output: 24
    kernel_size: 1
    weight_filler {
      type: "xavier"
      std: 0.2
    }
    bias_filler {
      type: "constant"
      value: 0.2
    }
  }
}
layer {
  name: "inception_4b/relu_5x5_reduce"
  type: "ReLU"
  bottom: "inception_4b/5x5_reduce"
  top: "inception_4b/5x5_reduce"
}
layer {
  name: "inception_4b/5x5"
  type: "Convolution"
  bottom: "inception_4b/5x5_reduce"
  top: "inception_4b/5x5"
  param {
    lr_mult: 1
    decay_mult: 1
  }
  param {
    lr_mult: 2
    decay_mult: 0
  }
  convolution_param {
    num_output: 64
    pad: 2
    kernel_size: 5
    weight_filler {
      type: "xavier"
      std: 0.03
    }
    bias_filler {
      type: "constant"
      value: 0.2
    }
  }
}
layer {
  name: "inception_4b/relu_5x5"
  type: "ReLU"
  bottom: "inception_4b/5x5"
  top: "inception_4b/5x5"
}
layer {
  name: "inception_4b/pool"
  type: "Pooling"
  bottom: "inception_4a/output"
  top: "inception_4b/pool"
  pooling_param {
    pool: MAX
    kernel_size: 3
    stride: 1
    pad: 1
  }
}
layer {
  name: "inception_4b/pool_proj"
  type: "Convolution"
  bottom: "inception_4b/pool"
  top: "inception_4b/pool_proj"
  param {
    lr_mult: 1
    decay_mult: 1
  }
  param {
    lr_mult: 2
    decay_mult: 0
  }
  convolution_param {
    num_output: 64
    kernel_size: 1
    weight_filler {
      type: "xavier"
      std: 0.1
    }
    bias_filler {
      type: "constant"
      value: 0.2
    }
  }
}
layer {
  name: "inception_4b/relu_pool_proj"
  type: "ReLU"
  bottom: "inception_4b/pool_proj"
  top: "inception_4b/pool_proj"
}
layer {
  name: "inception_4b/output"
  type: "Concat"
  bottom: "inception_4b/1x1"
  bottom: "inception_4b/3x3"
  bottom: "inception_4b/5x5"
  bottom: "inception_4b/pool_proj"
  top: "inception_4b/output"
}
layer {
  name: "inception_4c/1x1"
  type: "Convolution"
  bottom: "inception_4b/output"
  top: "inception_4c/1x1"
  param {
    lr_mult: 1
    decay_mult: 1
  }
  param {
    lr_mult: 2
    decay_mult: 0
  }
  convolution_param {
    num_output: 128
    kernel_size: 1
    weight_filler {
      type: "xavier"
      std: 0.03
    }
    bias_filler {
      type: "constant"
      value: 0.2
    }
  }
}
layer {
  name: "inception_4c/relu_1x1"
  type: "ReLU"
  bottom: "inception_4c/1x1"
  top: "inception_4c/1x1"
}
layer {
  name: "inception_4c/3x3_reduce"
  type: "Convolution"
  bottom: "inception_4b/output"
  top: "inception_4c/3x3_reduce"
  param {
    lr_mult: 1
    decay_mult: 1
  }
  param {
    lr_mult: 2
    decay_mult: 0
  }
  convolution_param {
    num_output: 128
    kernel_size: 1
    weight_filler {
      type: "xavier"
      std: 0.09
    }
    bias_filler {
      type: "constant"
      value: 0.2
    }
  }
}
layer {
  name: "inception_4c/relu_3x3_reduce"
  type: "ReLU"
  bottom: "inception_4c/3x3_reduce"
  top: "inception_4c/3x3_reduce"
}
layer {
  name: "inception_4c/3x3"
  type: "Convolution"
  bottom: "inception_4c/3x3_reduce"
  top: "inception_4c/3x3"
  param {
    lr_mult: 1
    decay_mult: 1
  }
  param {
    lr_mult: 2
    decay_mult: 0
  }
  convolution_param {
    num_output: 256
    pad: 1
    kernel_size: 3
    weight_filler {
      type: "xavier"
      std: 0.03
    }
    bias_filler {
      type: "constant"
      value: 0.2
    }
  }
}
layer {
  name: "inception_4c/relu_3x3"
  type: "ReLU"
  bottom: "inception_4c/3x3"
  top: "inception_4c/3x3"
}
layer {
  name: "inception_4c/5x5_reduce"
  type: "Convolution"
  bottom: "inception_4b/output"
  top: "inception_4c/5x5_reduce"
  param {
    lr_mult: 1
    decay_mult: 1
  }
  param {
    lr_mult: 2
    decay_mult: 0
  }
  convolution_param {
    num_output: 24
    kernel_size: 1
    weight_filler {
      type: "xavier"
      std: 0.2
    }
    bias_filler {
      type: "constant"
      value: 0.2
    }
  }
}
layer {
  name: "inception_4c/relu_5x5_reduce"
  type: "ReLU"
  bottom: "inception_4c/5x5_reduce"
  top: "inception_4c/5x5_reduce"
}
layer {
  name: "inception_4c/5x5"
  type: "Convolution"
  bottom: "inception_4c/5x5_reduce"
  top: "inception_4c/5x5"
  param {
    lr_mult: 1
    decay_mult: 1
  }
  param {
    lr_mult: 2
    decay_mult: 0
  }
  convolution_param {
    num_output: 64
    pad: 2
    kernel_size: 5
    weight_filler {
      type: "xavier"
      std: 0.03
    }
    bias_filler {
      type: "constant"
      value: 0.2
    }
  }
}
layer {
  name: "inception_4c/relu_5x5"
  type: "ReLU"
  bottom: "inception_4c/5x5"
  top: "inception_4c/5x5"
}
layer {
  name: "inception_4c/pool"
  type: "Pooling"
  bottom: "inception_4b/output"
  top: "inception_4c/pool"
  pooling_param {
    pool: MAX
    kernel_size: 3
    stride: 1
    pad: 1
  }
}
layer {
  name: "inception_4c/pool_proj"
  type: "Convolution"
  bottom: "inception_4c/pool"
  top: "inception_4c/pool_proj"
  param {
    lr_mult: 1
    decay_mult: 1
  }
  param {
    lr_mult: 2
    decay_mult: 0
  }
  convolution_param {
    num_output: 64
    kernel_size: 1
    weight_filler {
      type: "xavier"
      std: 0.1
    }
    bias_filler {
      type: "constant"
      value: 0.2
    }
  }
}
layer {
  name: "inception_4c/relu_pool_proj"
  type: "ReLU"
  bottom: "inception_4c/pool_proj"
  top: "inception_4c/pool_proj"
}
layer {
  name: "inception_4c/output"
  type: "Concat"
  bottom: "inception_4c/1x1"
  bottom: "inception_4c/3x3"
  bottom: "inception_4c/5x5"
  bottom: "inception_4c/pool_proj"
  top: "inception_4c/output"
}
layer {
  name: "inception_4d/1x1"
  type: "Convolution"
  bottom: "inception_4c/output"
  top: "inception_4d/1x1"
  param {
    lr_mult: 1
    decay_mult: 1
  }
  param {
    lr_mult: 2
    decay_mult: 0
  }
  convolution_param {
    num_output: 112
    kernel_size: 1
    weight_filler {
      type: "xavier"
      std: 0.03
    }
    bias_filler {
      type: "constant"
      value: 0.2
    }
  }
}
layer {
  name: "inception_4d/relu_1x1"
  type: "ReLU"
  bottom: "inception_4d/1x1"
  top: "inception_4d/1x1"
}
layer {
  name: "inception_4d/3x3_reduce"
  type: "Convolution"
  bottom: "inception_4c/output"
  top: "inception_4d/3x3_reduce"
  param {
    lr_mult: 1
    decay_mult: 1
  }
  param {
    lr_mult: 2
    decay_mult: 0
  }
  convolution_param {
    num_output: 144
    kernel_size: 1
    weight_filler {
      type: "xavier"
      std: 0.09
    }
    bias_filler {
      type: "constant"
      value: 0.2
    }
  }
}
layer {
  name: "inception_4d/relu_3x3_reduce"
  type: "ReLU"
  bottom: "inception_4d/3x3_reduce"
  top: "inception_4d/3x3_reduce"
}
layer {
  name: "inception_4d/3x3"
  type: "Convolution"
  bottom: "inception_4d/3x3_reduce"
  top: "inception_4d/3x3"
  param {
    lr_mult: 1
    decay_mult: 1
  }
  param {
    lr_mult: 2
    decay_mult: 0
  }
  convolution_param {
    num_output: 288
    pad: 1
    kernel_size: 3
    weight_filler {
      type: "xavier"
      std: 0.03
    }
    bias_filler {
      type: "constant"
      value: 0.2
    }
  }
}
layer {
  name: "inception_4d/relu_3x3"
  type: "ReLU"
  bottom: "inception_4d/3x3"
  top: "inception_4d/3x3"
}
layer {
  name: "inception_4d/5x5_reduce"
  type: "Convolution"
  bottom: "inception_4c/output"
  top: "inception_4d/5x5_reduce"
  param {
    lr_mult: 1
    decay_mult: 1
  }
  param {
    lr_mult: 2
    decay_mult: 0
  }
  convolution_param {
    num_output: 32
    kernel_size: 1
    weight_filler {
      type: "xavier"
      std: 0.2
    }
    bias_filler {
      type: "constant"
      value: 0.2
    }
  }
}
layer {
  name: "inception_4d/relu_5x5_reduce"
  type: "ReLU"
  bottom: "inception_4d/5x5_reduce"
  top: "inception_4d/5x5_reduce"
}
layer {
  name: "inception_4d/5x5"
  type: "Convolution"
  bottom: "inception_4d/5x5_reduce"
  top: "inception_4d/5x5"
  param {
    lr_mult: 1
    decay_mult: 1
  }
  param {
    lr_mult: 2
    decay_mult: 0
  }
  convolution_param {
    num_output: 64
    pad: 2
    kernel_size: 5
    weight_filler {
      type: "xavier"
      std: 0.03
    }
    bias_filler {
      type: "constant"
      value: 0.2
    }
  }
}
layer {
  name: "inception_4d/relu_5x5"
  type: "ReLU"
  bottom: "inception_4d/5x5"
  top: "inception_4d/5x5"
}
layer {
  name: "inception_4d/pool"
  type: "Pooling"
  bottom: "inception_4c/output"
  top: "inception_4d/pool"
  pooling_param {
    pool: MAX
    kernel_size: 3
    stride: 1
    pad: 1
  }
}
layer {
  name: "inception_4d/pool_proj"
  type: "Convolution"
  bottom: "inception_4d/pool"
  top: "inception_4d/pool_proj"
  param {
    lr_mult: 1
    decay_mult: 1
  }
  param {
    lr_mult: 2
    decay_mult: 0
  }
  convolution_param {
    num_output: 64
    kernel_size: 1
    weight_filler {
      type: "xavier"
      std: 0.1
    }
    bias_filler {
      type: "constant"
      value: 0.2
    }
  }
}
layer {
  name: "inception_4d/relu_pool_proj"
  type: "ReLU"
  bottom: "inception_4d/pool_proj"
  top: "inception_4d/pool_proj"
}
layer {
  name: "inception_4d/output"
  type: "Concat"
  bottom: "inception_4d/1x1"
  bottom: "inception_4d/3x3"
  bottom: "inception_4d/5x5"
  bottom: "inception_4d/pool_proj"
  top: "inception_4d/output"
}
layer {
  name: "loss2/ave_pool"
  type: "Pooling"
  bottom: "inception_4d/output"
  top: "loss2/ave_pool"
  pooling_param {
    pool: AVE
    kernel_size: 5
    stride: 3
  }
}
layer {
  name: "loss2/conv"
  type: "Convolution"
  bottom: "loss2/ave_pool"
  top: "loss2/conv"
  param {
    lr_mult: 1
    decay_mult: 1
  }
  param {
    lr_mult: 2
    decay_mult: 0
  }
  convolution_param {
    num_output: 128
    kernel_size: 1
    weight_filler {
      type: "xavier"
      std: 0.08
    }
    bias_filler {
      type: "constant"
      value: 0.2
    }
  }
}
layer {
  name: "loss2/relu_conv"
  type: "ReLU"
  bottom: "loss2/conv"
  top: "loss2/conv"
}
layer {
  name: "loss2/fc"
  type: "InnerProduct"
  bottom: "loss2/conv"
  top: "loss2/fc"
  param {
    lr_mult: 1
    decay_mult: 1
  }
  param {
    lr_mult: 2
    decay_mult: 0
  }
  inner_product_param {
    num_output: 1024
    weight_filler {
      type: "xavier"
      std: 0.02
    }
    bias_filler {
      type: "constant"
      value: 0.2
    }
  }
}
layer {
  name: "loss2/relu_fc"
  type: "ReLU"
  bottom: "loss2/fc"
  top: "loss2/fc"
}
layer {
  name: "loss2/drop_fc"
  type: "Dropout"
  bottom: "loss2/fc"
  top: "loss2/fc"
  dropout_param {
    dropout_ratio: 0.7
  }
}
layer {
  name: "loss2/classifier_plantvillage"
  type: "InnerProduct"
  bottom: "loss2/fc"
  top: "loss2/classifier_plantvillage"
  param {
    lr_mult: 1
    decay_mult: 1
  }
  param {
    lr_mult: 2
    decay_mult: 0
  }
  inner_product_param {
    num_output: 38
    weight_filler {
      type: "xavier"
      std: 0.0009765625
    }
    bias_filler {
      type: "constant"
      value: 0
    }
  }
}
layer {
  name: "inception_4e/1x1"
  type: "Convolution"
  bottom: "inception_4d/output"
  top: "inception_4e/1x1"
  param {
    lr_mult: 1
    decay_mult: 1
  }
  param {
    lr_mult: 2
    decay_mult: 0
  }
  convolution_param {
    num_output: 256
    kernel_size: 1
    weight_filler {
      type: "xavier"
      std: 0.03
    }
    bias_filler {
      type: "constant"
      value: 0.2
    }
  }
}
layer {
  name: "inception_4e/relu_1x1"
  type: "ReLU"
  bottom: "inception_4e/1x1"
  top: "inception_4e/1x1"
}
layer {
  name: "inception_4e/3x3_reduce"
  type: "Convolution"
  bottom: "inception_4d/output"
  top: "inception_4e/3x3_reduce"
  param {
    lr_mult: 1
    decay_mult: 1
  }
  param {
    lr_mult: 2
    decay_mult: 0
  }
  convolution_param {
    num_output: 160
    kernel_size: 1
    weight_filler {
      type: "xavier"
      std: 0.09
    }
    bias_filler {
      type: "constant"
      value: 0.2
    }
  }
}
layer {
  name: "inception_4e/relu_3x3_reduce"
  type: "ReLU"
  bottom: "inception_4e/3x3_reduce"
  top: "inception_4e/3x3_reduce"
}
layer {
  name: "inception_4e/3x3"
  type: "Convolution"
  bottom: "inception_4e/3x3_reduce"
  top: "inception_4e/3x3"
  param {
    lr_mult: 1
    decay_mult: 1
  }
  param {
    lr_mult: 2
    decay_mult: 0
  }
  convolution_param {
    num_output: 320
    pad: 1
    kernel_size: 3
    weight_filler {
      type: "xavier"
      std: 0.03
    }
    bias_filler {
      type: "constant"
      value: 0.2
    }
  }
}
layer {
  name: "inception_4e/relu_3x3"
  type: "ReLU"
  bottom: "inception_4e/3x3"
  top: "inception_4e/3x3"
}
layer {
  name: "inception_4e/5x5_reduce"
  type: "Convolution"
  bottom: "inception_4d/output"
  top: "inception_4e/5x5_reduce"
  param {
    lr_mult: 1
    decay_mult: 1
  }
  param {
    lr_mult: 2
    decay_mult: 0
  }
  convolution_param {
    num_output: 32
    kernel_size: 1
    weight_filler {
      type: "xavier"
      std: 0.2
    }
    bias_filler {
      type: "constant"
      value: 0.2
    }
  }
}
layer {
  name: "inception_4e/relu_5x5_reduce"
  type: "ReLU"
  bottom: "inception_4e/5x5_reduce"
  top: "inception_4e/5x5_reduce"
}
layer {
  name: "inception_4e/5x5"
  type: "Convolution"
  bottom: "inception_4e/5x5_reduce"
  top: "inception_4e/
I0403 15:38:53.919541 10823 layer_factory.hpp:77] Creating layer data
I0403 15:38:53.920138 10823 net.cpp:91] Creating Layer data
I0403 15:38:53.920171 10823 net.cpp:399] data -> data
I0403 15:38:53.920222 10823 net.cpp:399] data -> label
I0403 15:38:53.920258 10823 data_transformer.cpp:25] Loading mean file from: /home/mohanty/data/final_dataset/lmdb/segmented-80-20/mean.binaryproto
I0403 15:38:53.922986 10826 db_lmdb.cpp:38] Opened lmdb /home/mohanty/data/final_dataset/lmdb/segmented-80-20/test_db
I0403 15:38:53.933320 10823 data_layer.cpp:41] output data size: 24,3,224,224
I0403 15:38:53.961048 10823 net.cpp:141] Setting up data
I0403 15:38:53.961130 10823 net.cpp:148] Top shape: 24 3 224 224 (3612672)
I0403 15:38:53.961153 10823 net.cpp:148] Top shape: 24 (24)
I0403 15:38:53.961169 10823 net.cpp:156] Memory required for data: 14450784
I0403 15:38:53.961196 10823 layer_factory.hpp:77] Creating layer label_data_1_split
I0403 15:38:53.961223 10823 net.cpp:91] Creating Layer label_data_1_split
I0403 15:38:53.961241 10823 net.cpp:425] label_data_1_split <- label
I0403 15:38:53.961273 10823 net.cpp:399] label_data_1_split -> label_data_1_split_0
I0403 15:38:53.961302 10823 net.cpp:399] label_data_1_split -> label_data_1_split_1
I0403 15:38:53.961323 10823 net.cpp:399] label_data_1_split -> label_data_1_split_2
I0403 15:38:53.961345 10823 net.cpp:399] label_data_1_split -> label_data_1_split_3
I0403 15:38:53.961365 10823 net.cpp:399] label_data_1_split -> label_data_1_split_4
I0403 15:38:53.961386 10823 net.cpp:399] label_data_1_split -> label_data_1_split_5
I0403 15:38:53.961406 10823 net.cpp:399] label_data_1_split -> label_data_1_split_6
I0403 15:38:53.961427 10823 net.cpp:399] label_data_1_split -> label_data_1_split_7
I0403 15:38:53.961447 10823 net.cpp:399] label_data_1_split -> label_data_1_split_8
I0403 15:38:53.961467 10823 net.cpp:399] label_data_1_split -> label_data_1_split_9
I0403 15:38:53.961587 10823 net.cpp:141] Setting up label_data_1_split
I0403 15:38:53.961611 10823 net.cpp:148] Top shape: 24 (24)
I0403 15:38:53.961628 10823 net.cpp:148] Top shape: 24 (24)
I0403 15:38:53.961644 10823 net.cpp:148] Top shape: 24 (24)
I0403 15:38:53.961660 10823 net.cpp:148] Top shape: 24 (24)
I0403 15:38:53.961676 10823 net.cpp:148] Top shape: 24 (24)
I0403 15:38:53.961691 10823 net.cpp:148] Top shape: 24 (24)
I0403 15:38:53.961707 10823 net.cpp:148] Top shape: 24 (24)
I0403 15:38:53.961724 10823 net.cpp:148] Top shape: 24 (24)
I0403 15:38:53.961738 10823 net.cpp:148] Top shape: 24 (24)
I0403 15:38:53.961755 10823 net.cpp:148] Top shape: 24 (24)
I0403 15:38:53.961797 10823 net.cpp:156] Memory required for data: 14451744
I0403 15:38:53.961813 10823 layer_factory.hpp:77] Creating layer conv1/7x7_s2
I0403 15:38:53.961846 10823 net.cpp:91] Creating Layer conv1/7x7_s2
I0403 15:38:53.961864 10823 net.cpp:425] conv1/7x7_s2 <- data
I0403 15:38:53.961885 10823 net.cpp:399] conv1/7x7_s2 -> conv1/7x7_s2
I0403 15:38:54.104357 10823 net.cpp:141] Setting up conv1/7x7_s2
I0403 15:38:54.104440 10823 net.cpp:148] Top shape: 24 64 112 112 (19267584)
I0403 15:38:54.104459 10823 net.cpp:156] Memory required for data: 91522080
I0403 15:38:54.104487 10823 layer_factory.hpp:77] Creating layer conv1/relu_7x7
I0403 15:38:54.104514 10823 net.cpp:91] Creating Layer conv1/relu_7x7
I0403 15:38:54.104532 10823 net.cpp:425] conv1/relu_7x7 <- conv1/7x7_s2
I0403 15:38:54.104552 10823 net.cpp:386] conv1/relu_7x7 -> conv1/7x7_s2 (in-place)
I0403 15:38:54.104802 10823 net.cpp:141] Setting up conv1/relu_7x7
I0403 15:38:54.104828 10823 net.cpp:148] Top shape: 24 64 112 112 (19267584)
I0403 15:38:54.104843 10823 net.cpp:156] Memory required for data: 168592416
I0403 15:38:54.104858 10823 layer_factory.hpp:77] Creating layer pool1/3x3_s2
I0403 15:38:54.104882 10823 net.cpp:91] Creating Layer pool1/3x3_s2
I0403 15:38:54.104899 10823 net.cpp:425] pool1/3x3_s2 <- conv1/7x7_s2
I0403 15:38:54.104918 10823 net.cpp:399] pool1/3x3_s2 -> pool1/3x3_s2
I0403 15:38:54.104995 10823 net.cpp:141] Setting up pool1/3x3_s2
I0403 15:38:54.105018 10823 net.cpp:148] Top shape: 24 64 56 56 (4816896)
I0403 15:38:54.105033 10823 net.cpp:156] Memory required for data: 187860000
I0403 15:38:54.105048 10823 layer_factory.hpp:77] Creating layer pool1/norm1
I0403 15:38:54.105072 10823 net.cpp:91] Creating Layer pool1/norm1
I0403 15:38:54.105089 10823 net.cpp:425] pool1/norm1 <- pool1/3x3_s2
I0403 15:38:54.105106 10823 net.cpp:399] pool1/norm1 -> pool1/norm1
I0403 15:38:54.105387 10823 net.cpp:141] Setting up pool1/norm1
I0403 15:38:54.105414 10823 net.cpp:148] Top shape: 24 64 56 56 (4816896)
I0403 15:38:54.105429 10823 net.cpp:156] Memory required for data: 207127584
I0403 15:38:54.105444 10823 layer_factory.hpp:77] Creating layer conv2/3x3_reduce
I0403 15:38:54.105468 10823 net.cpp:91] Creating Layer conv2/3x3_reduce
I0403 15:38:54.105484 10823 net.cpp:425] conv2/3x3_reduce <- pool1/norm1
I0403 15:38:54.105504 10823 net.cpp:399] conv2/3x3_reduce -> conv2/3x3_reduce
I0403 15:38:54.106806 10823 net.cpp:141] Setting up conv2/3x3_reduce
I0403 15:38:54.106834 10823 net.cpp:148] Top shape: 24 64 56 56 (4816896)
I0403 15:38:54.106851 10823 net.cpp:156] Memory required for data: 226395168
I0403 15:38:54.106871 10823 layer_factory.hpp:77] Creating layer conv2/relu_3x3_reduce
I0403 15:38:54.106889 10823 net.cpp:91] Creating Layer conv2/relu_3x3_reduce
I0403 15:38:54.106904 10823 net.cpp:425] conv2/relu_3x3_reduce <- conv2/3x3_reduce
I0403 15:38:54.106923 10823 net.cpp:386] conv2/relu_3x3_reduce -> conv2/3x3_reduce (in-place)
I0403 15:38:54.107177 10823 net.cpp:141] Setting up conv2/relu_3x3_reduce
I0403 15:38:54.107203 10823 net.cpp:148] Top shape: 24 64 56 56 (4816896)
I0403 15:38:54.107218 10823 net.cpp:156] Memory required for data: 245662752
I0403 15:38:54.107231 10823 layer_factory.hpp:77] Creating layer conv2/3x3
I0403 15:38:54.107252 10823 net.cpp:91] Creating Layer conv2/3x3
I0403 15:38:54.107270 10823 net.cpp:425] conv2/3x3 <- conv2/3x3_reduce
I0403 15:38:54.107288 10823 net.cpp:399] conv2/3x3 -> conv2/3x3
I0403 15:38:54.109503 10823 net.cpp:141] Setting up conv2/3x3
I0403 15:38:54.109534 10823 net.cpp:148] Top shape: 24 192 56 56 (14450688)
I0403 15:38:54.109550 10823 net.cpp:156] Memory required for data: 303465504
I0403 15:38:54.109571 10823 layer_factory.hpp:77] Creating layer conv2/relu_3x3
I0403 15:38:54.109591 10823 net.cpp:91] Creating Layer conv2/relu_3x3
I0403 15:38:54.109606 10823 net.cpp:425] conv2/relu_3x3 <- conv2/3x3
I0403 15:38:54.109623 10823 net.cpp:386] conv2/relu_3x3 -> conv2/3x3 (in-place)
I0403 15:38:54.109797 10823 net.cpp:141] Setting up conv2/relu_3x3
I0403 15:38:54.109822 10823 net.cpp:148] Top shape: 24 192 56 56 (14450688)
I0403 15:38:54.109869 10823 net.cpp:156] Memory required for data: 361268256
I0403 15:38:54.109885 10823 layer_factory.hpp:77] Creating layer conv2/norm2
I0403 15:38:54.109905 10823 net.cpp:91] Creating Layer conv2/norm2
I0403 15:38:54.109923 10823 net.cpp:425] conv2/norm2 <- conv2/3x3
I0403 15:38:54.109941 10823 net.cpp:399] conv2/norm2 -> conv2/norm2
I0403 15:38:54.110247 10823 net.cpp:141] Setting up conv2/norm2
I0403 15:38:54.110273 10823 net.cpp:148] Top shape: 24 192 56 56 (14450688)
I0403 15:38:54.110288 10823 net.cpp:156] Memory required for data: 419071008
I0403 15:38:54.110302 10823 layer_factory.hpp:77] Creating layer pool2/3x3_s2
I0403 15:38:54.110322 10823 net.cpp:91] Creating Layer pool2/3x3_s2
I0403 15:38:54.110338 10823 net.cpp:425] pool2/3x3_s2 <- conv2/norm2
I0403 15:38:54.110355 10823 net.cpp:399] pool2/3x3_s2 -> pool2/3x3_s2
I0403 15:38:54.110410 10823 net.cpp:141] Setting up pool2/3x3_s2
I0403 15:38:54.110432 10823 net.cpp:148] Top shape: 24 192 28 28 (3612672)
I0403 15:38:54.110446 10823 net.cpp:156] Memory required for data: 433521696
I0403 15:38:54.110460 10823 layer_factory.hpp:77] Creating layer pool2/3x3_s2_pool2/3x3_s2_0_split
I0403 15:38:54.110478 10823 net.cpp:91] Creating Layer pool2/3x3_s2_pool2/3x3_s2_0_split
I0403 15:38:54.110492 10823 net.cpp:425] pool2/3x3_s2_pool2/3x3_s2_0_split <- pool2/3x3_s2
I0403 15:38:54.110512 10823 net.cpp:399] pool2/3x3_s2_pool2/3x3_s2_0_split -> pool2/3x3_s2_pool2/3x3_s2_0_split_0
I0403 15:38:54.110532 10823 net.cpp:399] pool2/3x3_s2_pool2/3x3_s2_0_split -> pool2/3x3_s2_pool2/3x3_s2_0_split_1
I0403 15:38:54.110553 10823 net.cpp:399] pool2/3x3_s2_pool2/3x3_s2_0_split -> pool2/3x3_s2_pool2/3x3_s2_0_split_2
I0403 15:38:54.110571 10823 net.cpp:399] pool2/3x3_s2_pool2/3x3_s2_0_split -> pool2/3x3_s2_pool2/3x3_s2_0_split_3
I0403 15:38:54.110640 10823 net.cpp:141] Setting up pool2/3x3_s2_pool2/3x3_s2_0_split
I0403 15:38:54.110662 10823 net.cpp:148] Top shape: 24 192 28 28 (3612672)
I0403 15:38:54.110678 10823 net.cpp:148] Top shape: 24 192 28 28 (3612672)
I0403 15:38:54.110693 10823 net.cpp:148] Top shape: 24 192 28 28 (3612672)
I0403 15:38:54.110708 10823 net.cpp:148] Top shape: 24 192 28 28 (3612672)
I0403 15:38:54.110723 10823 net.cpp:156] Memory required for data: 491324448
I0403 15:38:54.110736 10823 layer_factory.hpp:77] Creating layer inception_3a/1x1
I0403 15:38:54.110757 10823 net.cpp:91] Creating Layer inception_3a/1x1
I0403 15:38:54.110774 10823 net.cpp:425] inception_3a/1x1 <- pool2/3x3_s2_pool2/3x3_s2_0_split_0
I0403 15:38:54.110796 10823 net.cpp:399] inception_3a/1x1 -> inception_3a/1x1
I0403 15:38:54.112308 10823 net.cpp:141] Setting up inception_3a/1x1
I0403 15:38:54.112336 10823 net.cpp:148] Top shape: 24 64 28 28 (1204224)
I0403 15:38:54.112356 10823 net.cpp:156] Memory required for data: 496141344
I0403 15:38:54.112375 10823 layer_factory.hpp:77] Creating layer inception_3a/relu_1x1
I0403 15:38:54.112392 10823 net.cpp:91] Creating Layer inception_3a/relu_1x1
I0403 15:38:54.112408 10823 net.cpp:425] inception_3a/relu_1x1 <- inception_3a/1x1
I0403 15:38:54.112426 10823 net.cpp:386] inception_3a/relu_1x1 -> inception_3a/1x1 (in-place)
I0403 15:38:54.112598 10823 net.cpp:141] Setting up inception_3a/relu_1x1
I0403 15:38:54.112625 10823 net.cpp:148] Top shape: 24 64 28 28 (1204224)
I0403 15:38:54.112640 10823 net.cpp:156] Memory required for data: 500958240
I0403 15:38:54.112654 10823 layer_factory.hpp:77] Creating layer inception_3a/3x3_reduce
I0403 15:38:54.112676 10823 net.cpp:91] Creating Layer inception_3a/3x3_reduce
I0403 15:38:54.112694 10823 net.cpp:425] inception_3a/3x3_reduce <- pool2/3x3_s2_pool2/3x3_s2_0_split_1
I0403 15:38:54.112711 10823 net.cpp:399] inception_3a/3x3_reduce -> inception_3a/3x3_reduce
I0403 15:38:54.114387 10823 net.cpp:141] Setting up inception_3a/3x3_reduce
I0403 15:38:54.114416 10823 net.cpp:148] Top shape: 24 96 28 28 (1806336)
I0403 15:38:54.114433 10823 net.cpp:156] Memory required for data: 508183584
I0403 15:38:54.114454 10823 layer_factory.hpp:77] Creating layer inception_3a/relu_3x3_reduce
I0403 15:38:54.114490 10823 net.cpp:91] Creating Layer inception_3a/relu_3x3_reduce
I0403 15:38:54.114508 10823 net.cpp:425] inception_3a/relu_3x3_reduce <- inception_3a/3x3_reduce
I0403 15:38:54.114528 10823 net.cpp:386] inception_3a/relu_3x3_reduce -> inception_3a/3x3_reduce (in-place)
I0403 15:38:54.114703 10823 net.cpp:141] Setting up inception_3a/relu_3x3_reduce
I0403 15:38:54.114728 10823 net.cpp:148] Top shape: 24 96 28 28 (1806336)
I0403 15:38:54.114742 10823 net.cpp:156] Memory required for data: 515408928
I0403 15:38:54.114756 10823 layer_factory.hpp:77] Creating layer inception_3a/3x3
I0403 15:38:54.114783 10823 net.cpp:91] Creating Layer inception_3a/3x3
I0403 15:38:54.114800 10823 net.cpp:425] inception_3a/3x3 <- inception_3a/3x3_reduce
I0403 15:38:54.114821 10823 net.cpp:399] inception_3a/3x3 -> inception_3a/3x3
I0403 15:38:54.116436 10823 net.cpp:141] Setting up inception_3a/3x3
I0403 15:38:54.116466 10823 net.cpp:148] Top shape: 24 128 28 28 (2408448)
I0403 15:38:54.116482 10823 net.cpp:156] Memory required for data: 525042720
I0403 15:38:54.116500 10823 layer_factory.hpp:77] Creating layer inception_3a/relu_3x3
I0403 15:38:54.116519 10823 net.cpp:91] Creating Layer inception_3a/relu_3x3
I0403 15:38:54.116535 10823 net.cpp:425] inception_3a/relu_3x3 <- inception_3a/3x3
I0403 15:38:54.116552 10823 net.cpp:386] inception_3a/relu_3x3 -> inception_3a/3x3 (in-place)
I0403 15:38:54.116822 10823 net.cpp:141] Setting up inception_3a/relu_3x3
I0403 15:38:54.116849 10823 net.cpp:148] Top shape: 24 128 28 28 (2408448)
I0403 15:38:54.116864 10823 net.cpp:156] Memory required for data: 534676512
I0403 15:38:54.116879 10823 layer_factory.hpp:77] Creating layer inception_3a/5x5_reduce
I0403 15:38:54.116901 10823 net.cpp:91] Creating Layer inception_3a/5x5_reduce
I0403 15:38:54.116917 10823 net.cpp:425] inception_3a/5x5_reduce <- pool2/3x3_s2_pool2/3x3_s2_0_split_2
I0403 15:38:54.116935 10823 net.cpp:399] inception_3a/5x5_reduce -> inception_3a/5x5_reduce
I0403 15:38:54.117877 10823 net.cpp:141] Setting up inception_3a/5x5_reduce
I0403 15:38:54.117903 10823 net.cpp:148] Top shape: 24 16 28 28 (301056)
I0403 15:38:54.117920 10823 net.cpp:156] Memory required for data: 535880736
I0403 15:38:54.117938 10823 layer_factory.hpp:77] Creating layer inception_3a/relu_5x5_reduce
I0403 15:38:54.117955 10823 net.cpp:91] Creating Layer inception_3a/relu_5x5_reduce
I0403 15:38:54.117972 10823 net.cpp:425] inception_3a/relu_5x5_reduce <- inception_3a/5x5_reduce
I0403 15:38:54.118005 10823 net.cpp:386] inception_3a/relu_5x5_reduce -> inception_3a/5x5_reduce (in-place)
I0403 15:38:54.118299 10823 net.cpp:141] Setting up inception_3a/relu_5x5_reduce
I0403 15:38:54.118324 10823 net.cpp:148] Top shape: 24 16 28 28 (301056)
I0403 15:38:54.118340 10823 net.cpp:156] Memory required for data: 537084960
I0403 15:38:54.118355 10823 layer_factory.hpp:77] Creating layer inception_3a/5x5
I0403 15:38:54.118379 10823 net.cpp:91] Creating Layer inception_3a/5x5
I0403 15:38:54.118396 10823 net.cpp:425] inception_3a/5x5 <- inception_3a/5x5_reduce
I0403 15:38:54.118417 10823 net.cpp:399] inception_3a/5x5 -> inception_3a/5x5
I0403 15:38:54.119405 10823 net.cpp:141] Setting up inception_3a/5x5
I0403 15:38:54.119434 10823 net.cpp:148] Top shape: 24 32 28 28 (602112)
I0403 15:38:54.119451 10823 net.cpp:156] Memory required for data: 539493408
I0403 15:38:54.119468 10823 layer_factory.hpp:77] Creating layer inception_3a/relu_5x5
I0403 15:38:54.119487 10823 net.cpp:91] Creating Layer inception_3a/relu_5x5
I0403 15:38:54.119501 10823 net.cpp:425] inception_3a/relu_5x5 <- inception_3a/5x5
I0403 15:38:54.119518 10823 net.cpp:386] inception_3a/relu_5x5 -> inception_3a/5x5 (in-place)
I0403 15:38:54.119688 10823 net.cpp:141] Setting up inception_3a/relu_5x5
I0403 15:38:54.119712 10823 net.cpp:148] Top shape: 24 32 28 28 (602112)
I0403 15:38:54.119726 10823 net.cpp:156] Memory required for data: 541901856
I0403 15:38:54.119741 10823 layer_factory.hpp:77] Creating layer inception_3a/pool
I0403 15:38:54.119758 10823 net.cpp:91] Creating Layer inception_3a/pool
I0403 15:38:54.119787 10823 net.cpp:425] inception_3a/pool <- pool2/3x3_s2_pool2/3x3_s2_0_split_3
I0403 15:38:54.119808 10823 net.cpp:399] inception_3a/pool -> inception_3a/pool
I0403 15:38:54.119863 10823 net.cpp:141] Setting up inception_3a/pool
I0403 15:38:54.119889 10823 net.cpp:148] Top shape: 24 192 28 28 (3612672)
I0403 15:38:54.119904 10823 net.cpp:156] Memory required for data: 556352544
I0403 15:38:54.119920 10823 layer_factory.hpp:77] Creating layer inception_3a/pool_proj
I0403 15:38:54.119942 10823 net.cpp:91] Creating Layer inception_3a/pool_proj
I0403 15:38:54.119961 10823 net.cpp:425] inception_3a/pool_proj <- inception_3a/pool
I0403 15:38:54.119982 10823 net.cpp:399] inception_3a/pool_proj -> inception_3a/pool_proj
I0403 15:38:54.120921 10823 net.cpp:141] Setting up inception_3a/pool_proj
I0403 15:38:54.120949 10823 net.cpp:148] Top shape: 24 32 28 28 (602112)
I0403 15:38:54.120965 10823 net.cpp:156] Memory required for data: 558760992
I0403 15:38:54.120993 10823 layer_factory.hpp:77] Creating layer inception_3a/relu_pool_proj
I0403 15:38:54.121014 10823 net.cpp:91] Creating Layer inception_3a/relu_pool_proj
I0403 15:38:54.121031 10823 net.cpp:425] inception_3a/relu_pool_proj <- inception_3a/pool_proj
I0403 15:38:54.121049 10823 net.cpp:386] inception_3a/relu_pool_proj -> inception_3a/pool_proj (in-place)
I0403 15:38:54.121320 10823 net.cpp:141] Setting up inception_3a/relu_pool_proj
I0403 15:38:54.121347 10823 net.cpp:148] Top shape: 24 32 28 28 (602112)
I0403 15:38:54.121363 10823 net.cpp:156] Memory required for data: 561169440
I0403 15:38:54.121378 10823 layer_factory.hpp:77] Creating layer inception_3a/output
I0403 15:38:54.121395 10823 net.cpp:91] Creating Layer inception_3a/output
I0403 15:38:54.121412 10823 net.cpp:425] inception_3a/output <- inception_3a/1x1
I0403 15:38:54.121428 10823 net.cpp:425] inception_3a/output <- inception_3a/3x3
I0403 15:38:54.121443 10823 net.cpp:425] inception_3a/output <- inception_3a/5x5
I0403 15:38:54.121457 10823 net.cpp:425] inception_3a/output <- inception_3a/pool_proj
I0403 15:38:54.121474 10823 net.cpp:399] inception_3a/output -> inception_3a/output
I0403 15:38:54.121523 10823 net.cpp:141] Setting up inception_3a/output
I0403 15:38:54.121547 10823 net.cpp:148] Top shape: 24 256 28 28 (4816896)
I0403 15:38:54.121562 10823 net.cpp:156] Memory required for data: 580437024
I0403 15:38:54.121577 10823 layer_factory.hpp:77] Creating layer inception_3a/output_inception_3a/output_0_split
I0403 15:38:54.121594 10823 net.cpp:91] Creating Layer inception_3a/output_inception_3a/output_0_split
I0403 15:38:54.121610 10823 net.cpp:425] inception_3a/output_inception_3a/output_0_split <- inception_3a/output
I0403 15:38:54.121626 10823 net.cpp:399] inception_3a/output_inception_3a/output_0_split -> inception_3a/output_inception_3a/output_0_split_0
I0403 15:38:54.121645 10823 net.cpp:399] inception_3a/output_inception_3a/output_0_split -> inception_3a/output_inception_3a/output_0_split_1
I0403 15:38:54.121671 10823 net.cpp:399] inception_3a/output_inception_3a/output_0_split -> inception_3a/output_inception_3a/output_0_split_2
I0403 15:38:54.121693 10823 net.cpp:399] inception_3a/output_inception_3a/output_0_split -> inception_3a/output_inception_3a/output_0_split_3
I0403 15:38:54.121767 10823 net.cpp:141] Setting up inception_3a/output_inception_3a/output_0_split
I0403 15:38:54.121788 10823 net.cpp:148] Top shape: 24 256 28 28 (4816896)
I0403 15:38:54.121804 10823 net.cpp:148] Top shape: 24 256 28 28 (4816896)
I0403 15:38:54.121820 10823 net.cpp:148] Top shape: 24 256 28 28 (4816896)
I0403 15:38:54.121835 10823 net.cpp:148] Top shape: 24 256 28 28 (4816896)
I0403 15:38:54.121850 10823 net.cpp:156] Memory required for data: 657507360
I0403 15:38:54.121863 10823 layer_factory.hpp:77] Creating layer inception_3b/1x1
I0403 15:38:54.121886 10823 net.cpp:91] Creating Layer inception_3b/1x1
I0403 15:38:54.121903 10823 net.cpp:425] inception_3b/1x1 <- inception_3a/output_inception_3a/output_0_split_0
I0403 15:38:54.121922 10823 net.cpp:399] inception_3b/1x1 -> inception_3b/1x1
I0403 15:38:54.123100 10823 net.cpp:141] Setting up inception_3b/1x1
I0403 15:38:54.123141 10823 net.cpp:148] Top shape: 24 128 28 28 (2408448)
I0403 15:38:54.123157 10823 net.cpp:156] Memory required for data: 667141152
I0403 15:38:54.123175 10823 layer_factory.hpp:77] Creating layer inception_3b/relu_1x1
I0403 15:38:54.123196 10823 net.cpp:91] Creating Layer inception_3b/relu_1x1
I0403 15:38:54.123214 10823 net.cpp:425] inception_3b/relu_1x1 <- inception_3b/1x1
I0403 15:38:54.123231 10823 net.cpp:386] inception_3b/relu_1x1 -> inception_3b/1x1 (in-place)
I0403 15:38:54.123409 10823 net.cpp:141] Setting up inception_3b/relu_1x1
I0403 15:38:54.123436 10823 net.cpp:148] Top shape: 24 128 28 28 (2408448)
I0403 15:38:54.123451 10823 net.cpp:156] Memory required for data: 676774944
I0403 15:38:54.123467 10823 layer_factory.hpp:77] Creating layer inception_3b/3x3_reduce
I0403 15:38:54.123491 10823 net.cpp:91] Creating Layer inception_3b/3x3_reduce
I0403 15:38:54.123507 10823 net.cpp:425] inception_3b/3x3_reduce <- inception_3a/output_inception_3a/output_0_split_1
I0403 15:38:54.123528 10823 net.cpp:399] inception_3b/3x3_reduce -> inception_3b/3x3_reduce
I0403 15:38:54.124691 10823 net.cpp:141] Setting up inception_3b/3x3_reduce
I0403 15:38:54.124721 10823 net.cpp:148] Top shape: 24 128 28 28 (2408448)
I0403 15:38:54.124737 10823 net.cpp:156] Memory required for data: 686408736
I0403 15:38:54.124754 10823 layer_factory.hpp:77] Creating layer inception_3b/relu_3x3_reduce
I0403 15:38:54.124775 10823 net.cpp:91] Creating Layer inception_3b/relu_3x3_reduce
I0403 15:38:54.124794 10823 net.cpp:425] inception_3b/relu_3x3_reduce <- inception_3b/3x3_reduce
I0403 15:38:54.124810 10823 net.cpp:386] inception_3b/relu_3x3_reduce -> inception_3b/3x3_reduce (in-place)
I0403 15:38:54.124989 10823 net.cpp:141] Setting up inception_3b/relu_3x3_reduce
I0403 15:38:54.125021 10823 net.cpp:148] Top shape: 24 128 28 28 (2408448)
I0403 15:38:54.125037 10823 net.cpp:156] Memory required for data: 696042528
I0403 15:38:54.125053 10823 layer_factory.hpp:77] Creating layer inception_3b/3x3
I0403 15:38:54.125078 10823 net.cpp:91] Creating Layer inception_3b/3x3
I0403 15:38:54.125097 10823 net.cpp:425] inception_3b/3x3 <- inception_3b/3x3_reduce
I0403 15:38:54.125118 10823 net.cpp:399] inception_3b/3x3 -> inception_3b/3x3
I0403 15:38:54.128094 10823 net.cpp:141] Setting up inception_3b/3x3
I0403 15:38:54.128126 10823 net.cpp:148] Top shape: 24 192 28 28 (3612672)
I0403 15:38:54.128144 10823 net.cpp:156] Memory required for data: 710493216
I0403 15:38:54.128162 10823 layer_factory.hpp:77] Creating layer inception_3b/relu_3x3
I0403 15:38:54.128180 10823 net.cpp:91] Creating Layer inception_3b/relu_3x3
I0403 15:38:54.128196 10823 net.cpp:425] inception_3b/relu_3x3 <- inception_3b/3x3
I0403 15:38:54.128213 10823 net.cpp:386] inception_3b/relu_3x3 -> inception_3b/3x3 (in-place)
I0403 15:38:54.128494 10823 net.cpp:141] Setting up inception_3b/relu_3x3
I0403 15:38:54.128522 10823 net.cpp:148] Top shape: 24 192 28 28 (3612672)
I0403 15:38:54.128538 10823 net.cpp:156] Memory required for data: 724943904
I0403 15:38:54.128554 10823 layer_factory.hpp:77] Creating layer inception_3b/5x5_reduce
I0403 15:38:54.128576 10823 net.cpp:91] Creating Layer inception_3b/5x5_reduce
I0403 15:38:54.128594 10823 net.cpp:425] inception_3b/5x5_reduce <- inception_3a/output_inception_3a/output_0_split_2
I0403 15:38:54.128614 10823 net.cpp:399] inception_3b/5x5_reduce -> inception_3b/5x5_reduce
I0403 15:38:54.129617 10823 net.cpp:141] Setting up inception_3b/5x5_reduce
I0403 15:38:54.129647 10823 net.cpp:148] Top shape: 24 32 28 28 (602112)
I0403 15:38:54.129664 10823 net.cpp:156] Memory required for data: 727352352
I0403 15:38:54.129683 10823 layer_factory.hpp:77] Creating layer inception_3b/relu_5x5_reduce
I0403 15:38:54.129701 10823 net.cpp:91] Creating Layer inception_3b/relu_5x5_reduce
I0403 15:38:54.129716 10823 net.cpp:425] inception_3b/relu_5x5_reduce <- inception_3b/5x5_reduce
I0403 15:38:54.129734 10823 net.cpp:386] inception_3b/relu_5x5_reduce -> inception_3b/5x5_reduce (in-place)
I0403 15:38:54.129935 10823 net.cpp:141] Setting up inception_3b/relu_5x5_reduce
I0403 15:38:54.129961 10823 net.cpp:148] Top shape: 24 32 28 28 (602112)
I0403 15:38:54.129976 10823 net.cpp:156] Memory required for data: 729760800
I0403 15:38:54.129995 10823 layer_factory.hpp:77] Creating layer inception_3b/5x5
I0403 15:38:54.130018 10823 net.cpp:91] Creating Layer inception_3b/5x5
I0403 15:38:54.130036 10823 net.cpp:425] inception_3b/5x5 <- inception_3b/5x5_reduce
I0403 15:38:54.130058 10823 net.cpp:399] inception_3b/5x5 -> inception_3b/5x5
I0403 15:38:54.132074 10823 net.cpp:141] Setting up inception_3b/5x5
I0403 15:38:54.132104 10823 net.cpp:148] Top shape: 24 96 28 28 (1806336)
I0403 15:38:54.132120 10823 net.cpp:156] Memory required for data: 736986144
I0403 15:38:54.132138 10823 layer_factory.hpp:77] Creating layer inception_3b/relu_5x5
I0403 15:38:54.132158 10823 net.cpp:91] Creating Layer inception_3b/relu_5x5
I0403 15:38:54.132175 10823 net.cpp:425] inception_3b/relu_5x5 <- inception_3b/5x5
I0403 15:38:54.132192 10823 net.cpp:386] inception_3b/relu_5x5 -> inception_3b/5x5 (in-place)
I0403 15:38:54.132390 10823 net.cpp:141] Setting up inception_3b/relu_5x5
I0403 15:38:54.132416 10823 net.cpp:148] Top shape: 24 96 28 28 (1806336)
I0403 15:38:54.132431 10823 net.cpp:156] Memory required for data: 744211488
I0403 15:38:54.132447 10823 layer_factory.hpp:77] Creating layer inception_3b/pool
I0403 15:38:54.132464 10823 net.cpp:91] Creating Layer inception_3b/pool
I0403 15:38:54.132480 10823 net.cpp:425] inception_3b/pool <- inception_3a/output_inception_3a/output_0_split_3
I0403 15:38:54.132498 10823 net.cpp:399] inception_3b/pool -> inception_3b/pool
I0403 15:38:54.132555 10823 net.cpp:141] Setting up inception_3b/pool
I0403 15:38:54.132577 10823 net.cpp:148] Top shape: 24 256 28 28 (4816896)
I0403 15:38:54.132592 10823 net.cpp:156] Memory required for data: 763479072
I0403 15:38:54.132607 10823 layer_factory.hpp:77] Creating layer inception_3b/pool_proj
I0403 15:38:54.132629 10823 net.cpp:91] Creating Layer inception_3b/pool_proj
I0403 15:38:54.132647 10823 net.cpp:425] inception_3b/pool_proj <- inception_3b/pool
I0403 15:38:54.132668 10823 net.cpp:399] inception_3b/pool_proj -> inception_3b/pool_proj
I0403 15:38:54.133744 10823 net.cpp:141] Setting up inception_3b/pool_proj
I0403 15:38:54.133771 10823 net.cpp:148] Top shape: 24 64 28 28 (1204224)
I0403 15:38:54.133787 10823 net.cpp:156] Memory required for data: 768295968
I0403 15:38:54.133805 10823 layer_factory.hpp:77] Creating layer inception_3b/relu_pool_proj
I0403 15:38:54.133826 10823 net.cpp:91] Creating Layer inception_3b/relu_pool_proj
I0403 15:38:54.133844 10823 net.cpp:425] inception_3b/relu_pool_proj <- inception_3b/pool_proj
I0403 15:38:54.133862 10823 net.cpp:386] inception_3b/relu_pool_proj -> inception_3b/pool_proj (in-place)
I0403 15:38:54.134268 10823 net.cpp:141] Setting up inception_3b/relu_pool_proj
I0403 15:38:54.134295 10823 net.cpp:148] Top shape: 24 64 28 28 (1204224)
I0403 15:38:54.134311 10823 net.cpp:156] Memory required for data: 773112864
I0403 15:38:54.134325 10823 layer_factory.hpp:77] Creating layer inception_3b/output
I0403 15:38:54.134343 10823 net.cpp:91] Creating Layer inception_3b/output
I0403 15:38:54.134361 10823 net.cpp:425] inception_3b/output <- inception_3b/1x1
I0403 15:38:54.134377 10823 net.cpp:425] inception_3b/output <- inception_3b/3x3
I0403 15:38:54.134392 10823 net.cpp:425] inception_3b/output <- inception_3b/5x5
I0403 15:38:54.134408 10823 net.cpp:425] inception_3b/output <- inception_3b/pool_proj
I0403 15:38:54.134428 10823 net.cpp:399] inception_3b/output -> inception_3b/output
I0403 15:38:54.134471 10823 net.cpp:141] Setting up inception_3b/output
I0403 15:38:54.134497 10823 net.cpp:148] Top shape: 24 480 28 28 (9031680)
I0403 15:38:54.134513 10823 net.cpp:156] Memory required for data: 809239584
I0403 15:38:54.134528 10823 layer_factory.hpp:77] Creating layer pool3/3x3_s2
I0403 15:38:54.134546 10823 net.cpp:91] Creating Layer pool3/3x3_s2
I0403 15:38:54.134562 10823 net.cpp:425] pool3/3x3_s2 <- inception_3b/output
I0403 15:38:54.134595 10823 net.cpp:399] pool3/3x3_s2 -> pool3/3x3_s2
I0403 15:38:54.134655 10823 net.cpp:141] Setting up pool3/3x3_s2
I0403 15:38:54.134680 10823 net.cpp:148] Top shape: 24 480 14 14 (2257920)
I0403 15:38:54.134693 10823 net.cpp:156] Memory required for data: 818271264
I0403 15:38:54.134708 10823 layer_factory.hpp:77] Creating layer pool3/3x3_s2_pool3/3x3_s2_0_split
I0403 15:38:54.134726 10823 net.cpp:91] Creating Layer pool3/3x3_s2_pool3/3x3_s2_0_split
I0403 15:38:54.134740 10823 net.cpp:425] pool3/3x3_s2_pool3/3x3_s2_0_split <- pool3/3x3_s2
I0403 15:38:54.134760 10823 net.cpp:399] pool3/3x3_s2_pool3/3x3_s2_0_split -> pool3/3x3_s2_pool3/3x3_s2_0_split_0
I0403 15:38:54.134780 10823 net.cpp:399] pool3/3x3_s2_pool3/3x3_s2_0_split -> pool3/3x3_s2_pool3/3x3_s2_0_split_1
I0403 15:38:54.134800 10823 net.cpp:399] pool3/3x3_s2_pool3/3x3_s2_0_split -> pool3/3x3_s2_pool3/3x3_s2_0_split_2
I0403 15:38:54.134820 10823 net.cpp:399] pool3/3x3_s2_pool3/3x3_s2_0_split -> pool3/3x3_s2_pool3/3x3_s2_0_split_3
I0403 15:38:54.134912 10823 net.cpp:141] Setting up pool3/3x3_s2_pool3/3x3_s2_0_split
I0403 15:38:54.134938 10823 net.cpp:148] Top shape: 24 480 14 14 (2257920)
I0403 15:38:54.134953 10823 net.cpp:148] Top shape: 24 480 14 14 (2257920)
I0403 15:38:54.134970 10823 net.cpp:148] Top shape: 24 480 14 14 (2257920)
I0403 15:38:54.134992 10823 net.cpp:148] Top shape: 24 480 14 14 (2257920)
I0403 15:38:54.135007 10823 net.cpp:156] Memory required for data: 854397984
I0403 15:38:54.135022 10823 layer_factory.hpp:77] Creating layer inception_4a/1x1
I0403 15:38:54.135046 10823 net.cpp:91] Creating Layer inception_4a/1x1
I0403 15:38:54.135064 10823 net.cpp:425] inception_4a/1x1 <- pool3/3x3_s2_pool3/3x3_s2_0_split_0
I0403 15:38:54.135087 10823 net.cpp:399] inception_4a/1x1 -> inception_4a/1x1
I0403 15:38:54.136695 10823 net.cpp:141] Setting up inception_4a/1x1
I0403 15:38:54.136723 10823 net.cpp:148] Top shape: 24 192 14 14 (903168)
I0403 15:38:54.136739 10823 net.cpp:156] Memory required for data: 858010656
I0403 15:38:54.136759 10823 layer_factory.hpp:77] Creating layer inception_4a/relu_1x1
I0403 15:38:54.136780 10823 net.cpp:91] Creating Layer inception_4a/relu_1x1
I0403 15:38:54.136795 10823 net.cpp:425] inception_4a/relu_1x1 <- inception_4a/1x1
I0403 15:38:54.136813 10823 net.cpp:386] inception_4a/relu_1x1 -> inception_4a/1x1 (in-place)
I0403 15:38:54.136997 10823 net.cpp:141] Setting up inception_4a/relu_1x1
I0403 15:38:54.137023 10823 net.cpp:148] Top shape: 24 192 14 14 (903168)
I0403 15:38:54.137038 10823 net.cpp:156] Memory required for data: 861623328
I0403 15:38:54.137053 10823 layer_factory.hpp:77] Creating layer inception_4a/3x3_reduce
I0403 15:38:54.137079 10823 net.cpp:91] Creating Layer inception_4a/3x3_reduce
I0403 15:38:54.137097 10823 net.cpp:425] inception_4a/3x3_reduce <- pool3/3x3_s2_pool3/3x3_s2_0_split_1
I0403 15:38:54.137116 10823 net.cpp:399] inception_4a/3x3_reduce -> inception_4a/3x3_reduce
I0403 15:38:54.138459 10823 net.cpp:141] Setting up inception_4a/3x3_reduce
I0403 15:38:54.138489 10823 net.cpp:148] Top shape: 24 96 14 14 (451584)
I0403 15:38:54.138504 10823 net.cpp:156] Memory required for data: 863429664
I0403 15:38:54.138530 10823 layer_factory.hpp:77] Creating layer inception_4a/relu_3x3_reduce
I0403 15:38:54.138550 10823 net.cpp:91] Creating Layer inception_4a/relu_3x3_reduce
I0403 15:38:54.138567 10823 net.cpp:425] inception_4a/relu_3x3_reduce <- inception_4a/3x3_reduce
I0403 15:38:54.138587 10823 net.cpp:386] inception_4a/relu_3x3_reduce -> inception_4a/3x3_reduce (in-place)
I0403 15:38:54.138766 10823 net.cpp:141] Setting up inception_4a/relu_3x3_reduce
I0403 15:38:54.138790 10823 net.cpp:148] Top shape: 24 96 14 14 (451584)
I0403 15:38:54.138805 10823 net.cpp:156] Memory required for data: 865236000
I0403 15:38:54.138819 10823 layer_factory.hpp:77] Creating layer inception_4a/3x3
I0403 15:38:54.138842 10823 net.cpp:91] Creating Layer inception_4a/3x3
I0403 15:38:54.138859 10823 net.cpp:425] inception_4a/3x3 <- inception_4a/3x3_reduce
I0403 15:38:54.138880 10823 net.cpp:399] inception_4a/3x3 -> inception_4a/3x3
I0403 15:38:54.141607 10823 net.cpp:141] Setting up inception_4a/3x3
I0403 15:38:54.141636 10823 net.cpp:148] Top shape: 24 208 14 14 (978432)
I0403 15:38:54.141651 10823 net.cpp:156] Memory required for data: 869149728
I0403 15:38:54.141669 10823 layer_factory.hpp:77] Creating layer inception_4a/relu_3x3
I0403 15:38:54.141690 10823 net.cpp:91] Creating Layer inception_4a/relu_3x3
I0403 15:38:54.141707 10823 net.cpp:425] inception_4a/relu_3x3 <- inception_4a/3x3
I0403 15:38:54.141723 10823 net.cpp:386] inception_4a/relu_3x3 -> inception_4a/3x3 (in-place)
I0403 15:38:54.141999 10823 net.cpp:141] Setting up inception_4a/relu_3x3
I0403 15:38:54.142025 10823 net.cpp:148] Top shape: 24 208 14 14 (978432)
I0403 15:38:54.142041 10823 net.cpp:156] Memory required for data: 873063456
I0403 15:38:54.142056 10823 layer_factory.hpp:77] Creating layer inception_4a/5x5_reduce
I0403 15:38:54.142078 10823 net.cpp:91] Creating Layer inception_4a/5x5_reduce
I0403 15:38:54.142096 10823 net.cpp:425] inception_4a/5x5_reduce <- pool3/3x3_s2_pool3/3x3_s2_0_split_2
I0403 15:38:54.142117 10823 net.cpp:399] inception_4a/5x5_reduce -> inception_4a/5x5_reduce
I0403 15:38:54.143126 10823 net.cpp:141] Setting up inception_4a/5x5_reduce
I0403 15:38:54.143156 10823 net.cpp:148] Top shape: 24 16 14 14 (75264)
I0403 15:38:54.143170 10823 net.cpp:156] Memory required for data: 873364512
I0403 15:38:54.143189 10823 layer_factory.hpp:77] Creating layer inception_4a/relu_5x5_reduce
I0403 15:38:54.143208 10823 net.cpp:91] Creating Layer inception_4a/relu_5x5_reduce
I0403 15:38:54.143224 10823 net.cpp:425] inception_4a/relu_5x5_reduce <- inception_4a/5x5_reduce
I0403 15:38:54.143240 10823 net.cpp:386] inception_4a/relu_5x5_reduce -> inception_4a/5x5_reduce (in-place)
I0403 15:38:54.143417 10823 net.cpp:141] Setting up inception_4a/relu_5x5_reduce
I0403 15:38:54.143442 10823 net.cpp:148] Top shape: 24 16 14 14 (75264)
I0403 15:38:54.143456 10823 net.cpp:156] Memory required for data: 873665568
I0403 15:38:54.143471 10823 layer_factory.hpp:77] Creating layer inception_4a/5x5
I0403 15:38:54.143493 10823 net.cpp:91] Creating Layer inception_4a/5x5
I0403 15:38:54.143510 10823 net.cpp:425] inception_4a/5x5 <- inception_4a/5x5_reduce
I0403 15:38:54.143530 10823 net.cpp:399] inception_4a/5x5 -> inception_4a/5x5
I0403 15:38:54.144608 10823 net.cpp:141] Setting up inception_4a/5x5
I0403 15:38:54.144634 10823 net.cpp:148] Top shape: 24 48 14 14 (225792)
I0403 15:38:54.144650 10823 net.cpp:156] Memory required for data: 874568736
I0403 15:38:54.144667 10823 layer_factory.hpp:77] Creating layer inception_4a/relu_5x5
I0403 15:38:54.144685 10823 net.cpp:91] Creating Layer inception_4a/relu_5x5
I0403 15:38:54.144701 10823 net.cpp:425] inception_4a/relu_5x5 <- inception_4a/5x5
I0403 15:38:54.144721 10823 net.cpp:386] inception_4a/relu_5x5 -> inception_4a/5x5 (in-place)
I0403 15:38:54.144897 10823 net.cpp:141] Setting up inception_4a/relu_5x5
I0403 15:38:54.144923 10823 net.cpp:148] Top shape: 24 48 14 14 (225792)
I0403 15:38:54.144938 10823 net.cpp:156] Memory required for data: 875471904
I0403 15:38:54.144953 10823 layer_factory.hpp:77] Creating layer inception_4a/pool
I0403 15:38:54.144973 10823 net.cpp:91] Creating Layer inception_4a/pool
I0403 15:38:54.144994 10823 net.cpp:425] inception_4a/pool <- pool3/3x3_s2_pool3/3x3_s2_0_split_3
I0403 15:38:54.145014 10823 net.cpp:399] inception_4a/pool -> inception_4a/pool
I0403 15:38:54.145073 10823 net.cpp:141] Setting up inception_4a/pool
I0403 15:38:54.145097 10823 net.cpp:148] Top shape: 24 480 14 14 (2257920)
I0403 15:38:54.145112 10823 net.cpp:156] Memory required for data: 884503584
I0403 15:38:54.145126 10823 layer_factory.hpp:77] Creating layer inception_4a/pool_proj
I0403 15:38:54.145148 10823 net.cpp:91] Creating Layer inception_4a/pool_proj
I0403 15:38:54.145164 10823 net.cpp:425] inception_4a/pool_proj <- inception_4a/pool
I0403 15:38:54.145184 10823 net.cpp:399] inception_4a/pool_proj -> inception_4a/pool_proj
I0403 15:38:54.146333 10823 net.cpp:141] Setting up inception_4a/pool_proj
I0403 15:38:54.146360 10823 net.cpp:148] Top shape: 24 64 14 14 (301056)
I0403 15:38:54.146391 10823 net.cpp:156] Memory required for data: 885707808
I0403 15:38:54.146411 10823 layer_factory.hpp:77] Creating layer inception_4a/relu_pool_proj
I0403 15:38:54.146430 10823 net.cpp:91] Creating Layer inception_4a/relu_pool_proj
I0403 15:38:54.146445 10823 net.cpp:425] inception_4a/relu_pool_proj <- inception_4a/pool_proj
I0403 15:38:54.146466 10823 net.cpp:386] inception_4a/relu_pool_proj -> inception_4a/pool_proj (in-place)
I0403 15:38:54.146744 10823 net.cpp:141] Setting up inception_4a/relu_pool_proj
I0403 15:38:54.146770 10823 net.cpp:148] Top shape: 24 64 14 14 (301056)
I0403 15:38:54.146785 10823 net.cpp:156] Memory required for data: 886912032
I0403 15:38:54.146798 10823 layer_factory.hpp:77] Creating layer inception_4a/output
I0403 15:38:54.146816 10823 net.cpp:91] Creating Layer inception_4a/output
I0403 15:38:54.146832 10823 net.cpp:425] inception_4a/output <- inception_4a/1x1
I0403 15:38:54.146847 10823 net.cpp:425] inception_4a/output <- inception_4a/3x3
I0403 15:38:54.146863 10823 net.cpp:425] inception_4a/output <- inception_4a/5x5
I0403 15:38:54.146878 10823 net.cpp:425] inception_4a/output <- inception_4a/pool_proj
I0403 15:38:54.146898 10823 net.cpp:399] inception_4a/output -> inception_4a/output
I0403 15:38:54.146941 10823 net.cpp:141] Setting up inception_4a/output
I0403 15:38:54.146966 10823 net.cpp:148] Top shape: 24 512 14 14 (2408448)
I0403 15:38:54.146986 10823 net.cpp:156] Memory required for data: 896545824
I0403 15:38:54.147002 10823 layer_factory.hpp:77] Creating layer inception_4a/output_inception_4a/output_0_split
I0403 15:38:54.147019 10823 net.cpp:91] Creating Layer inception_4a/output_inception_4a/output_0_split
I0403 15:38:54.147035 10823 net.cpp:425] inception_4a/output_inception_4a/output_0_split <- inception_4a/output
I0403 15:38:54.147054 10823 net.cpp:399] inception_4a/output_inception_4a/output_0_split -> inception_4a/output_inception_4a/output_0_split_0
I0403 15:38:54.147075 10823 net.cpp:399] inception_4a/output_inception_4a/output_0_split -> inception_4a/output_inception_4a/output_0_split_1
I0403 15:38:54.147095 10823 net.cpp:399] inception_4a/output_inception_4a/output_0_split -> inception_4a/output_inception_4a/output_0_split_2
I0403 15:38:54.147115 10823 net.cpp:399] inception_4a/output_inception_4a/output_0_split -> inception_4a/output_inception_4a/output_0_split_3
I0403 15:38:54.147135 10823 net.cpp:399] inception_4a/output_inception_4a/output_0_split -> inception_4a/output_inception_4a/output_0_split_4
I0403 15:38:54.147228 10823 net.cpp:141] Setting up inception_4a/output_inception_4a/output_0_split
I0403 15:38:54.147254 10823 net.cpp:148] Top shape: 24 512 14 14 (2408448)
I0403 15:38:54.147271 10823 net.cpp:148] Top shape: 24 512 14 14 (2408448)
I0403 15:38:54.147287 10823 net.cpp:148] Top shape: 24 512 14 14 (2408448)
I0403 15:38:54.147302 10823 net.cpp:148] Top shape: 24 512 14 14 (2408448)
I0403 15:38:54.147317 10823 net.cpp:148] Top shape: 24 512 14 14 (2408448)
I0403 15:38:54.147331 10823 net.cpp:156] Memory required for data: 944714784
I0403 15:38:54.147346 10823 layer_factory.hpp:77] Creating layer loss1/ave_pool
I0403 15:38:54.147362 10823 net.cpp:91] Creating Layer loss1/ave_pool
I0403 15:38:54.147378 10823 net.cpp:425] loss1/ave_pool <- inception_4a/output_inception_4a/output_0_split_0
I0403 15:38:54.147395 10823 net.cpp:399] loss1/ave_pool -> loss1/ave_pool
I0403 15:38:54.147595 10823 net.cpp:141] Setting up loss1/ave_pool
I0403 15:38:54.147620 10823 net.cpp:148] Top shape: 24 512 4 4 (196608)
I0403 15:38:54.147635 10823 net.cpp:156] Memory required for data: 945501216
I0403 15:38:54.147650 10823 layer_factory.hpp:77] Creating layer loss1/conv
I0403 15:38:54.147671 10823 net.cpp:91] Creating Layer loss1/conv
I0403 15:38:54.147688 10823 net.cpp:425] loss1/conv <- loss1/ave_pool
I0403 15:38:54.147708 10823 net.cpp:399] loss1/conv -> loss1/conv
I0403 15:38:54.149108 10823 net.cpp:141] Setting up loss1/conv
I0403 15:38:54.149135 10823 net.cpp:148] Top shape: 24 128 4 4 (49152)
I0403 15:38:54.149166 10823 net.cpp:156] Memory required for data: 945697824
I0403 15:38:54.149185 10823 layer_factory.hpp:77] Creating layer loss1/relu_conv
I0403 15:38:54.149204 10823 net.cpp:91] Creating Layer loss1/relu_conv
I0403 15:38:54.149219 10823 net.cpp:425] loss1/relu_conv <- loss1/conv
I0403 15:38:54.149235 10823 net.cpp:386] loss1/relu_conv -> loss1/conv (in-place)
I0403 15:38:54.149514 10823 net.cpp:141] Setting up loss1/relu_conv
I0403 15:38:54.149539 10823 net.cpp:148] Top shape: 24 128 4 4 (49152)
I0403 15:38:54.149557 10823 net.cpp:156] Memory required for data: 945894432
I0403 15:38:54.149572 10823 layer_factory.hpp:77] Creating layer loss1/fc
I0403 15:38:54.149595 10823 net.cpp:91] Creating Layer loss1/fc
I0403 15:38:54.149613 10823 net.cpp:425] loss1/fc <- loss1/conv
I0403 15:38:54.149633 10823 net.cpp:399] loss1/fc -> loss1/fc
I0403 15:38:54.167459 10823 net.cpp:141] Setting up loss1/fc
I0403 15:38:54.167492 10823 net.cpp:148] Top shape: 24 1024 (24576)
I0403 15:38:54.167508 10823 net.cpp:156] Memory required for data: 945992736
I0403 15:38:54.167526 10823 layer_factory.hpp:77] Creating layer loss1/relu_fc
I0403 15:38:54.167544 10823 net.cpp:91] Creating Layer loss1/relu_fc
I0403 15:38:54.167563 10823 net.cpp:425] loss1/relu_fc <- loss1/fc
I0403 15:38:54.167580 10823 net.cpp:386] loss1/relu_fc -> loss1/fc (in-place)
I0403 15:38:54.167763 10823 net.cpp:141] Setting up loss1/relu_fc
I0403 15:38:54.167788 10823 net.cpp:148] Top shape: 24 1024 (24576)
I0403 15:38:54.167803 10823 net.cpp:156] Memory required for data: 946091040
I0403 15:38:54.167816 10823 layer_factory.hpp:77] Creating layer loss1/drop_fc
I0403 15:38:54.167843 10823 net.cpp:91] Creating Layer loss1/drop_fc
I0403 15:38:54.167861 10823 net.cpp:425] loss1/drop_fc <- loss1/fc
I0403 15:38:54.167878 10823 net.cpp:386] loss1/drop_fc -> loss1/fc (in-place)
I0403 15:38:54.167928 10823 net.cpp:141] Setting up loss1/drop_fc
I0403 15:38:54.167953 10823 net.cpp:148] Top shape: 24 1024 (24576)
I0403 15:38:54.167968 10823 net.cpp:156] Memory required for data: 946189344
I0403 15:38:54.167994 10823 layer_factory.hpp:77] Creating layer loss1/classifier_plantvillage
I0403 15:38:54.168015 10823 net.cpp:91] Creating Layer loss1/classifier_plantvillage
I0403 15:38:54.168032 10823 net.cpp:425] loss1/classifier_plantvillage <- loss1/fc
I0403 15:38:54.168053 10823 net.cpp:399] loss1/classifier_plantvillage -> loss1/classifier_plantvillage
I0403 15:38:54.168972 10823 net.cpp:141] Setting up loss1/classifier_plantvillage
I0403 15:38:54.169004 10823 net.cpp:148] Top shape: 24 38 (912)
I0403 15:38:54.169019 10823 net.cpp:156] Memory required for data: 946192992
I0403 15:38:54.169037 10823 layer_factory.hpp:77] Creating layer loss1/classifier_plantvillage_loss1/classifier_plantvillage_0_split
I0403 15:38:54.169059 10823 net.cpp:91] Creating Layer loss1/classifier_plantvillage_loss1/classifier_plantvillage_0_split
I0403 15:38:54.169073 10823 net.cpp:425] loss1/classifier_plantvillage_loss1/classifier_plantvillage_0_split <- loss1/classifier_plantvillage
I0403 15:38:54.169091 10823 net.cpp:399] loss1/classifier_plantvillage_loss1/classifier_plantvillage_0_split -> loss1/classifier_plantvillage_loss1/classifier_plantvillage_0_split_0
I0403 15:38:54.169111 10823 net.cpp:399] loss1/classifier_plantvillage_loss1/classifier_plantvillage_0_split -> loss1/classifier_plantvillage_loss1/classifier_plantvillage_0_split_1
I0403 15:38:54.169131 10823 net.cpp:399] loss1/classifier_plantvillage_loss1/classifier_plantvillage_0_split -> loss1/classifier_plantvillage_loss1/classifier_plantvillage_0_split_2
I0403 15:38:54.169198 10823 net.cpp:141] Setting up loss1/classifier_plantvillage_loss1/classifier_plantvillage_0_split
I0403 15:38:54.169220 10823 net.cpp:148] Top shape: 24 38 (912)
I0403 15:38:54.169236 10823 net.cpp:148] Top shape: 24 38 (912)
I0403 15:38:54.169251 10823 net.cpp:148] Top shape: 24 38 (912)
I0403 15:38:54.169266 10823 net.cpp:156] Memory required for data: 946203936
I0403 15:38:54.169280 10823 layer_factory.hpp:77] Creating layer inception_4b/1x1
I0403 15:38:54.169299 10823 net.cpp:91] Creating Layer inception_4b/1x1
I0403 15:38:54.169330 10823 net.cpp:425] inception_4b/1x1 <- inception_4a/output_inception_4a/output_0_split_1
I0403 15:38:54.169353 10823 net.cpp:399] inception_4b/1x1 -> inception_4b/1x1
I0403 15:38:54.171061 10823 net.cpp:141] Setting up inception_4b/1x1
I0403 15:38:54.171092 10823 net.cpp:148] Top shape: 24 160 14 14 (752640)
I0403 15:38:54.171108 10823 net.cpp:156] Memory required for data: 949214496
I0403 15:38:54.171128 10823 layer_factory.hpp:77] Creating layer inception_4b/relu_1x1
I0403 15:38:54.171145 10823 net.cpp:91] Creating Layer inception_4b/relu_1x1
I0403 15:38:54.171161 10823 net.cpp:425] inception_4b/relu_1x1 <- inception_4b/1x1
I0403 15:38:54.171180 10823 net.cpp:386] inception_4b/relu_1x1 -> inception_4b/1x1 (in-place)
I0403 15:38:54.171368 10823 net.cpp:141] Setting up inception_4b/relu_1x1
I0403 15:38:54.171396 10823 net.cpp:148] Top shape: 24 160 14 14 (752640)
I0403 15:38:54.171411 10823 net.cpp:156] Memory required for data: 952225056
I0403 15:38:54.171427 10823 layer_factory.hpp:77] Creating layer inception_4b/3x3_reduce
I0403 15:38:54.171448 10823 net.cpp:91] Creating Layer inception_4b/3x3_reduce
I0403 15:38:54.171466 10823 net.cpp:425] inception_4b/3x3_reduce <- inception_4a/output_inception_4a/output_0_split_2
I0403 15:38:54.171490 10823 net.cpp:399] inception_4b/3x3_reduce -> inception_4b/3x3_reduce
I0403 15:38:54.172865 10823 net.cpp:141] Setting up inception_4b/3x3_reduce
I0403 15:38:54.172897 10823 net.cpp:148] Top shape: 24 112 14 14 (526848)
I0403 15:38:54.172914 10823 net.cpp:156] Memory required for data: 954332448
I0403 15:38:54.172935 10823 layer_factory.hpp:77] Creating layer inception_4b/relu_3x3_reduce
I0403 15:38:54.172953 10823 net.cpp:91] Creating Layer inception_4b/relu_3x3_reduce
I0403 15:38:54.172969 10823 net.cpp:425] inception_4b/relu_3x3_reduce <- inception_4b/3x3_reduce
I0403 15:38:54.172994 10823 net.cpp:386] inception_4b/relu_3x3_reduce -> inception_4b/3x3_reduce (in-place)
I0403 15:38:54.173280 10823 net.cpp:141] Setting up inception_4b/relu_3x3_reduce
I0403 15:38:54.173308 10823 net.cpp:148] Top shape: 24 112 14 14 (526848)
I0403 15:38:54.173324 10823 net.cpp:156] Memory required for data: 956439840
I0403 15:38:54.173341 10823 layer_factory.hpp:77] Creating layer inception_4b/3x3
I0403 15:38:54.173363 10823 net.cpp:91] Creating Layer inception_4b/3x3
I0403 15:38:54.173382 10823 net.cpp:425] inception_4b/3x3 <- inception_4b/3x3_reduce
I0403 15:38:54.173400 10823 net.cpp:399] inception_4b/3x3 -> inception_4b/3x3
I0403 15:38:54.176465 10823 net.cpp:141] Setting up inception_4b/3x3
I0403 15:38:54.176493 10823 net.cpp:148] Top shape: 24 224 14 14 (1053696)
I0403 15:38:54.176509 10823 net.cpp:156] Memory required for data: 960654624
I0403 15:38:54.176528 10823 layer_factory.hpp:77] Creating layer inception_4b/relu_3x3
I0403 15:38:54.176548 10823 net.cpp:91] Creating Layer inception_4b/relu_3x3
I0403 15:38:54.176566 10823 net.cpp:425] inception_4b/relu_3x3 <- inception_4b/3x3
I0403 15:38:54.176584 10823 net.cpp:386] inception_4b/relu_3x3 -> inception_4b/3x3 (in-place)
I0403 15:38:54.176766 10823 net.cpp:141] Setting up inception_4b/relu_3x3
I0403 15:38:54.176791 10823 net.cpp:148] Top shape: 24 224 14 14 (1053696)
I0403 15:38:54.176805 10823 net.cpp:156] Memory required for data: 964869408
I0403 15:38:54.176820 10823 layer_factory.hpp:77] Creating layer inception_4b/5x5_reduce
I0403 15:38:54.176846 10823 net.cpp:91] Creating Layer inception_4b/5x5_reduce
I0403 15:38:54.176863 10823 net.cpp:425] inception_4b/5x5_reduce <- inception_4a/output_inception_4a/output_0_split_3
I0403 15:38:54.176882 10823 net.cpp:399] inception_4b/5x5_reduce -> inception_4b/5x5_reduce
I0403 15:38:54.177990 10823 net.cpp:141] Setting up inception_4b/5x5_reduce
I0403 15:38:54.178021 10823 net.cpp:148] Top shape: 24 24 14 14 (112896)
I0403 15:38:54.178037 10823 net.cpp:156] Memory required for data: 965320992
I0403 15:38:54.178056 10823 layer_factory.hpp:77] Creating layer inception_4b/relu_5x5_reduce
I0403 15:38:54.178074 10823 net.cpp:91] Creating Layer inception_4b/relu_5x5_reduce
I0403 15:38:54.178105 10823 net.cpp:425] inception_4b/relu_5x5_reduce <- inception_4b/5x5_reduce
I0403 15:38:54.178127 10823 net.cpp:386] inception_4b/relu_5x5_reduce -> inception_4b/5x5_reduce (in-place)
I0403 15:38:54.178315 10823 net.cpp:141] Setting up inception_4b/relu_5x5_reduce
I0403 15:38:54.178340 10823 net.cpp:148] Top shape: 24 24 14 14 (112896)
I0403 15:38:54.178355 10823 net.cpp:156] Memory required for data: 965772576
I0403 15:38:54.178370 10823 layer_factory.hpp:77] Creating layer inception_4b/5x5
I0403 15:38:54.178392 10823 net.cpp:91] Creating Layer inception_4b/5x5
I0403 15:38:54.178411 10823 net.cpp:425] inception_4b/5x5 <- inception_4b/5x5_reduce
I0403 15:38:54.178431 10823 net.cpp:399] inception_4b/5x5 -> inception_4b/5x5
I0403 15:38:54.179684 10823 net.cpp:141] Setting up inception_4b/5x5
I0403 15:38:54.179715 10823 net.cpp:148] Top shape: 24 64 14 14 (301056)
I0403 15:38:54.179731 10823 net.cpp:156] Memory required for data: 966976800
I0403 15:38:54.179750 10823 layer_factory.hpp:77] Creating layer inception_4b/relu_5x5
I0403 15:38:54.179769 10823 net.cpp:91] Creating Layer inception_4b/relu_5x5
I0403 15:38:54.179785 10823 net.cpp:425] inception_4b/relu_5x5 <- inception_4b/5x5
I0403 15:38:54.179802 10823 net.cpp:386] inception_4b/relu_5x5 -> inception_4b/5x5 (in-place)
I0403 15:38:54.180096 10823 net.cpp:141] Setting up inception_4b/relu_5x5
I0403 15:38:54.180125 10823 net.cpp:148] Top shape: 24 64 14 14 (301056)
I0403 15:38:54.180141 10823 net.cpp:156] Memory required for data: 968181024
I0403 15:38:54.180156 10823 layer_factory.hpp:77] Creating layer inception_4b/pool
I0403 15:38:54.180174 10823 net.cpp:91] Creating Layer inception_4b/pool
I0403 15:38:54.180191 10823 net.cpp:425] inception_4b/pool <- inception_4a/output_inception_4a/output_0_split_4
I0403 15:38:54.180209 10823 net.cpp:399] inception_4b/pool -> inception_4b/pool
I0403 15:38:54.180274 10823 net.cpp:141] Setting up inception_4b/pool
I0403 15:38:54.180299 10823 net.cpp:148] Top shape: 24 512 14 14 (2408448)
I0403 15:38:54.180313 10823 net.cpp:156] Memory required for data: 977814816
I0403 15:38:54.180327 10823 layer_factory.hpp:77] Creating layer inception_4b/pool_proj
I0403 15:38:54.180351 10823 net.cpp:91] Creating Layer inception_4b/pool_proj
I0403 15:38:54.180367 10823 net.cpp:425] inception_4b/pool_proj <- inception_4b/pool
I0403 15:38:54.180388 10823 net.cpp:399] inception_4b/pool_proj -> inception_4b/pool_proj
I0403 15:38:54.181617 10823 net.cpp:141] Setting up inception_4b/pool_proj
I0403 15:38:54.181649 10823 net.cpp:148] Top shape: 24 64 14 14 (301056)
I0403 15:38:54.181666 10823 net.cpp:156] Memory required for data: 979019040
I0403 15:38:54.181685 10823 layer_factory.hpp:77] Creating layer inception_4b/relu_pool_proj
I0403 15:38:54.181704 10823 net.cpp:91] Creating Layer inception_4b/relu_pool_proj
I0403 15:38:54.181720 10823 net.cpp:425] inception_4b/relu_pool_proj <- inception_4b/pool_proj
I0403 15:38:54.181737 10823 net.cpp:386] inception_4b/relu_pool_proj -> inception_4b/pool_proj (in-place)
I0403 15:38:54.181926 10823 net.cpp:141] Setting up inception_4b/relu_pool_proj
I0403 15:38:54.181951 10823 net.cpp:148] Top shape: 24 64 14 14 (301056)
I0403 15:38:54.181965 10823 net.cpp:156] Memory required for data: 980223264
I0403 15:38:54.181985 10823 layer_factory.hpp:77] Creating layer inception_4b/output
I0403 15:38:54.182004 10823 net.cpp:91] Creating Layer inception_4b/output
I0403 15:38:54.182021 10823 net.cpp:425] inception_4b/output <- inception_4b/1x1
I0403 15:38:54.182036 10823 net.cpp:425] inception_4b/output <- inception_4b/3x3
I0403 15:38:54.182052 10823 net.cpp:425] inception_4b/output <- inception_4b/5x5
I0403 15:38:54.182068 10823 net.cpp:425] inception_4b/output <- inception_4b/pool_proj
I0403 15:38:54.182088 10823 net.cpp:399] inception_4b/output -> inception_4b/output
I0403 15:38:54.182134 10823 net.cpp:141] Setting up inception_4b/output
I0403 15:38:54.182160 10823 net.cpp:148] Top shape: 24 512 14 14 (2408448)
I0403 15:38:54.182176 10823 net.cpp:156] Memory required for data: 989857056
I0403 15:38:54.182205 10823 layer_factory.hpp:77] Creating layer inception_4b/output_inception_4b/output_0_split
I0403 15:38:54.182224 10823 net.cpp:91] Creating Layer inception_4b/output_inception_4b/output_0_split
I0403 15:38:54.182240 10823 net.cpp:425] inception_4b/output_inception_4b/output_0_split <- inception_4b/output
I0403 15:38:54.182258 10823 net.cpp:399] inception_4b/output_inception_4b/output_0_split -> inception_4b/output_inception_4b/output_0_split_0
I0403 15:38:54.182286 10823 net.cpp:399] inception_4b/output_inception_4b/output_0_split -> inception_4b/output_inception_4b/output_0_split_1
I0403 15:38:54.182307 10823 net.cpp:399] inception_4b/output_inception_4b/output_0_split -> inception_4b/output_inception_4b/output_0_split_2
I0403 15:38:54.182327 10823 net.cpp:399] inception_4b/output_inception_4b/output_0_split -> inception_4b/output_inception_4b/output_0_split_3
I0403 15:38:54.182411 10823 net.cpp:141] Setting up inception_4b/output_inception_4b/output_0_split
I0403 15:38:54.182435 10823 net.cpp:148] Top shape: 24 512 14 14 (2408448)
I0403 15:38:54.182451 10823 net.cpp:148] Top shape: 24 512 14 14 (2408448)
I0403 15:38:54.182467 10823 net.cpp:148] Top shape: 24 512 14 14 (2408448)
I0403 15:38:54.182482 10823 net.cpp:148] Top shape: 24 512 14 14 (2408448)
I0403 15:38:54.182497 10823 net.cpp:156] Memory required for data: 1028392224
I0403 15:38:54.182512 10823 layer_factory.hpp:77] Creating layer inception_4c/1x1
I0403 15:38:54.182533 10823 net.cpp:91] Creating Layer inception_4c/1x1
I0403 15:38:54.182551 10823 net.cpp:425] inception_4c/1x1 <- inception_4b/output_inception_4b/output_0_split_0
I0403 15:38:54.182572 10823 net.cpp:399] inception_4c/1x1 -> inception_4c/1x1
I0403 15:38:54.184054 10823 net.cpp:141] Setting up inception_4c/1x1
I0403 15:38:54.184083 10823 net.cpp:148] Top shape: 24 128 14 14 (602112)
I0403 15:38:54.184098 10823 net.cpp:156] Memory required for data: 1030800672
I0403 15:38:54.184118 10823 layer_factory.hpp:77] Creating layer inception_4c/relu_1x1
I0403 15:38:54.184139 10823 net.cpp:91] Creating Layer inception_4c/relu_1x1
I0403 15:38:54.184155 10823 net.cpp:425] inception_4c/relu_1x1 <- inception_4c/1x1
I0403 15:38:54.184173 10823 net.cpp:386] inception_4c/relu_1x1 -> inception_4c/1x1 (in-place)
I0403 15:38:54.184360 10823 net.cpp:141] Setting up inception_4c/relu_1x1
I0403 15:38:54.184384 10823 net.cpp:148] Top shape: 24 128 14 14 (602112)
I0403 15:38:54.184399 10823 net.cpp:156] Memory required for data: 1033209120
I0403 15:38:54.184414 10823 layer_factory.hpp:77] Creating layer inception_4c/3x3_reduce
I0403 15:38:54.184437 10823 net.cpp:91] Creating Layer inception_4c/3x3_reduce
I0403 15:38:54.184455 10823 net.cpp:425] inception_4c/3x3_reduce <- inception_4b/output_inception_4b/output_0_split_1
I0403 15:38:54.184476 10823 net.cpp:399] inception_4c/3x3_reduce -> inception_4c/3x3_reduce
I0403 15:38:54.186502 10823 net.cpp:141] Setting up inception_4c/3x3_reduce
I0403 15:38:54.186532 10823 net.cpp:148] Top shape: 24 128 14 14 (602112)
I0403 15:38:54.186547 10823 net.cpp:156] Memory required for data: 1035617568
I0403 15:38:54.186565 10823 layer_factory.hpp:77] Creating layer inception_4c/relu_3x3_reduce
I0403 15:38:54.186588 10823 net.cpp:91] Creating Layer inception_4c/relu_3x3_reduce
I0403 15:38:54.186604 10823 net.cpp:425] inception_4c/relu_3x3_reduce <- inception_4c/3x3_reduce
I0403 15:38:54.186622 10823 net.cpp:386] inception_4c/relu_3x3_reduce -> inception_4c/3x3_reduce (in-place)
I0403 15:38:54.186913 10823 net.cpp:141] Setting up inception_4c/relu_3x3_reduce
I0403 15:38:54.186939 10823 net.cpp:148] Top shape: 24 128 14 14 (602112)
I0403 15:38:54.186954 10823 net.cpp:156] Memory required for data: 1038026016
I0403 15:38:54.186970 10823 layer_factory.hpp:77] Creating layer inception_4c/3x3
I0403 15:38:54.187000 10823 net.cpp:91] Creating Layer inception_4c/3x3
I0403 15:38:54.187021 10823 net.cpp:425] inception_4c/3x3 <- inception_4c/3x3_reduce
I0403 15:38:54.187039 10823 net.cpp:399] inception_4c/3x3 -> inception_4c/3x3
I0403 15:38:54.190708 10823 net.cpp:141] Setting up inception_4c/3x3
I0403 15:38:54.190752 10823 net.cpp:148] Top shape: 24 256 14 14 (1204224)
I0403 15:38:54.190768 10823 net.cpp:156] Memory required for data: 1042842912
I0403 15:38:54.190803 10823 layer_factory.hpp:77] Creating layer inception_4c/relu_3x3
I0403 15:38:54.190824 10823 net.cpp:91] Creating Layer inception_4c/relu_3x3
I0403 15:38:54.190840 10823 net.cpp:425] inception_4c/relu_3x3 <- inception_4c/3x3
I0403 15:38:54.190856 10823 net.cpp:386] inception_4c/relu_3x3 -> inception_4c/3x3 (in-place)
I0403 15:38:54.191043 10823 net.cpp:141] Setting up inception_4c/relu_3x3
I0403 15:38:54.191071 10823 net.cpp:148] Top shape: 24 256 14 14 (1204224)
I0403 15:38:54.191085 10823 net.cpp:156] Memory required for data: 1047659808
I0403 15:38:54.191099 10823 layer_factory.hpp:77] Creating layer inception_4c/5x5_reduce
I0403 15:38:54.191123 10823 net.cpp:91] Creating Layer inception_4c/5x5_reduce
I0403 15:38:54.191139 10823 net.cpp:425] inception_4c/5x5_reduce <- inception_4b/output_inception_4b/output_0_split_2
I0403 15:38:54.191159 10823 net.cpp:399] inception_4c/5x5_reduce -> inception_4c/5x5_reduce
I0403 15:38:54.192242 10823 net.cpp:141] Setting up inception_4c/5x5_reduce
I0403 15:38:54.192275 10823 net.cpp:148] Top shape: 24 24 14 14 (112896)
I0403 15:38:54.192291 10823 net.cpp:156] Memory required for data: 1048111392
I0403 15:38:54.192309 10823 layer_factory.hpp:77] Creating layer inception_4c/relu_5x5_reduce
I0403 15:38:54.192327 10823 net.cpp:91] Creating Layer inception_4c/relu_5x5_reduce
I0403 15:38:54.192343 10823 net.cpp:425] inception_4c/relu_5x5_reduce <- inception_4c/5x5_reduce
I0403 15:38:54.192361 10823 net.cpp:386] inception_4c/relu_5x5_reduce -> inception_4c/5x5_reduce (in-place)
I0403 15:38:54.192545 10823 net.cpp:141] Setting up inception_4c/relu_5x5_reduce
I0403 15:38:54.192570 10823 net.cpp:148] Top shape: 24 24 14 14 (112896)
I0403 15:38:54.192584 10823 net.cpp:156] Memory required for data: 1048562976
I0403 15:38:54.192600 10823 layer_factory.hpp:77] Creating layer inception_4c/5x5
I0403 15:38:54.192620 10823 net.cpp:91] Creating Layer inception_4c/5x5
I0403 15:38:54.192638 10823 net.cpp:425] inception_4c/5x5 <- inception_4c/5x5_reduce
I0403 15:38:54.192658 10823 net.cpp:399] inception_4c/5x5 -> inception_4c/5x5
I0403 15:38:54.193910 10823 net.cpp:141] Setting up inception_4c/5x5
I0403 15:38:54.193938 10823 net.cpp:148] Top shape: 24 64 14 14 (301056)
I0403 15:38:54.193954 10823 net.cpp:156] Memory required for data: 1049767200
I0403 15:38:54.193974 10823 layer_factory.hpp:77] Creating layer inception_4c/relu_5x5
I0403 15:38:54.193997 10823 net.cpp:91] Creating Layer inception_4c/relu_5x5
I0403 15:38:54.194015 10823 net.cpp:425] inception_4c/relu_5x5 <- inception_4c/5x5
I0403 15:38:54.194036 10823 net.cpp:386] inception_4c/relu_5x5 -> inception_4c/5x5 (in-place)
I0403 15:38:54.194340 10823 net.cpp:141] Setting up inception_4c/relu_5x5
I0403 15:38:54.194366 10823 net.cpp:148] Top shape: 24 64 14 14 (301056)
I0403 15:38:54.194381 10823 net.cpp:156] Memory required for data: 1050971424
I0403 15:38:54.194396 10823 layer_factory.hpp:77] Creating layer inception_4c/pool
I0403 15:38:54.194413 10823 net.cpp:91] Creating Layer inception_4c/pool
I0403 15:38:54.194429 10823 net.cpp:425] inception_4c/pool <- inception_4b/output_inception_4b/output_0_split_3
I0403 15:38:54.194450 10823 net.cpp:399] inception_4c/pool -> inception_4c/pool
I0403 15:38:54.194514 10823 net.cpp:141] Setting up inception_4c/pool
I0403 15:38:54.194540 10823 net.cpp:148] Top shape: 24 512 14 14 (2408448)
I0403 15:38:54.194555 10823 net.cpp:156] Memory required for data: 1060605216
I0403 15:38:54.194569 10823 layer_factory.hpp:77] Creating layer inception_4c/pool_proj
I0403 15:38:54.194591 10823 net.cpp:91] Creating Layer inception_4c/pool_proj
I0403 15:38:54.194608 10823 net.cpp:425] inception_4c/pool_proj <- inception_4c/pool
I0403 15:38:54.194627 10823 net.cpp:399] inception_4c/pool_proj -> inception_4c/pool_proj
I0403 15:38:54.195853 10823 net.cpp:141] Setting up inception_4c/pool_proj
I0403 15:38:54.195885 10823 net.cpp:148] Top shape: 24 64 14 14 (301056)
I0403 15:38:54.195930 10823 net.cpp:156] Memory required for data: 1061809440
I0403 15:38:54.195951 10823 layer_factory.hpp:77] Creating layer inception_4c/relu_pool_proj
I0403 15:38:54.195971 10823 net.cpp:91] Creating Layer inception_4c/relu_pool_proj
I0403 15:38:54.195993 10823 net.cpp:425] inception_4c/relu_pool_proj <- inception_4c/pool_proj
I0403 15:38:54.196024 10823 net.cpp:386] inception_4c/relu_pool_proj -> inception_4c/pool_proj (in-place)
I0403 15:38:54.196224 10823 net.cpp:141] Setting up inception_4c/relu_pool_proj
I0403 15:38:54.196249 10823 net.cpp:148] Top shape: 24 64 14 14 (301056)
I0403 15:38:54.196264 10823 net.cpp:156] Memory required for data: 1063013664
I0403 15:38:54.196279 10823 layer_factory.hpp:77] Creating layer inception_4c/output
I0403 15:38:54.196295 10823 net.cpp:91] Creating Layer inception_4c/output
I0403 15:38:54.196311 10823 net.cpp:425] inception_4c/output <- inception_4c/1x1
I0403 15:38:54.196326 10823 net.cpp:425] inception_4c/output <- inception_4c/3x3
I0403 15:38:54.196342 10823 net.cpp:425] inception_4c/output <- inception_4c/5x5
I0403 15:38:54.196357 10823 net.cpp:425] inception_4c/output <- inception_4c/pool_proj
I0403 15:38:54.196377 10823 net.cpp:399] inception_4c/output -> inception_4c/output
I0403 15:38:54.196422 10823 net.cpp:141] Setting up inception_4c/output
I0403 15:38:54.196445 10823 net.cpp:148] Top shape: 24 512 14 14 (2408448)
I0403 15:38:54.196460 10823 net.cpp:156] Memory required for data: 1072647456
I0403 15:38:54.196473 10823 layer_factory.hpp:77] Creating layer inception_4c/output_inception_4c/output_0_split
I0403 15:38:54.196492 10823 net.cpp:91] Creating Layer inception_4c/output_inception_4c/output_0_split
I0403 15:38:54.196509 10823 net.cpp:425] inception_4c/output_inception_4c/output_0_split <- inception_4c/output
I0403 15:38:54.196527 10823 net.cpp:399] inception_4c/output_inception_4c/output_0_split -> inception_4c/output_inception_4c/output_0_split_0
I0403 15:38:54.196548 10823 net.cpp:399] inception_4c/output_inception_4c/output_0_split -> inception_4c/output_inception_4c/output_0_split_1
I0403 15:38:54.196568 10823 net.cpp:399] inception_4c/output_inception_4c/output_0_split -> inception_4c/output_inception_4c/output_0_split_2
I0403 15:38:54.196588 10823 net.cpp:399] inception_4c/output_inception_4c/output_0_split -> inception_4c/output_inception_4c/output_0_split_3
I0403 15:38:54.196671 10823 net.cpp:141] Setting up inception_4c/output_inception_4c/output_0_split
I0403 15:38:54.196694 10823 net.cpp:148] Top shape: 24 512 14 14 (2408448)
I0403 15:38:54.196710 10823 net.cpp:148] Top shape: 24 512 14 14 (2408448)
I0403 15:38:54.196725 10823 net.cpp:148] Top shape: 24 512 14 14 (2408448)
I0403 15:38:54.196740 10823 net.cpp:148] Top shape: 24 512 14 14 (2408448)
I0403 15:38:54.196753 10823 net.cpp:156] Memory required for data: 1111182624
I0403 15:38:54.196768 10823 layer_factory.hpp:77] Creating layer inception_4d/1x1
I0403 15:38:54.196790 10823 net.cpp:91] Creating Layer inception_4d/1x1
I0403 15:38:54.196807 10823 net.cpp:425] inception_4d/1x1 <- inception_4c/output_inception_4c/output_0_split_0
I0403 15:38:54.196828 10823 net.cpp:399] inception_4d/1x1 -> inception_4d/1x1
I0403 15:38:54.198223 10823 net.cpp:141] Setting up inception_4d/1x1
I0403 15:38:54.198251 10823 net.cpp:148] Top shape: 24 112 14 14 (526848)
I0403 15:38:54.198266 10823 net.cpp:156] Memory required for data: 1113290016
I0403 15:38:54.198284 10823 layer_factory.hpp:77] Creating layer inception_4d/relu_1x1
I0403 15:38:54.198304 10823 net.cpp:91] Creating Layer inception_4d/relu_1x1
I0403 15:38:54.198321 10823 net.cpp:425] inception_4d/relu_1x1 <- inception_4d/1x1
I0403 15:38:54.198338 10823 net.cpp:386] inception_4d/relu_1x1 -> inception_4d/1x1 (in-place)
I0403 15:38:54.198524 10823 net.cpp:141] Setting up inception_4d/relu_1x1
I0403 15:38:54.198549 10823 net.cpp:148] Top shape: 24 112 14 14 (526848)
I0403 15:38:54.198562 10823 net.cpp:156] Memory required for data: 1115397408
I0403 15:38:54.198577 10823 layer_factory.hpp:77] Creating layer inception_4d/3x3_reduce
I0403 15:38:54.198614 10823 net.cpp:91] Creating Layer inception_4d/3x3_reduce
I0403 15:38:54.198632 10823 net.cpp:425] inception_4d/3x3_reduce <- inception_4c/output_inception_4c/output_0_split_1
I0403 15:38:54.198650 10823 net.cpp:399] inception_4d/3x3_reduce -> inception_4d/3x3_reduce
I0403 15:38:54.200170 10823 net.cpp:141] Setting up inception_4d/3x3_reduce
I0403 15:38:54.200198 10823 net.cpp:148] Top shape: 24 144 14 14 (677376)
I0403 15:38:54.200212 10823 net.cpp:156] Memory required for data: 1118106912
I0403 15:38:54.200230 10823 layer_factory.hpp:77] Creating layer inception_4d/relu_3x3_reduce
I0403 15:38:54.200249 10823 net.cpp:91] Creating Layer inception_4d/relu_3x3_reduce
I0403 15:38:54.200265 10823 net.cpp:425] inception_4d/relu_3x3_reduce <- inception_4d/3x3_reduce
I0403 15:38:54.200284 10823 net.cpp:386] inception_4d/relu_3x3_reduce -> inception_4d/3x3_reduce (in-place)
I0403 15:38:54.200579 10823 net.cpp:141] Setting up inception_4d/relu_3x3_reduce
I0403 15:38:54.200604 10823 net.cpp:148] Top shape: 24 144 14 14 (677376)
I0403 15:38:54.200619 10823 net.cpp:156] Memory required for data: 1120816416
I0403 15:38:54.200634 10823 layer_factory.hpp:77] Creating layer inception_4d/3x3
I0403 15:38:54.200656 10823 net.cpp:91] Creating Layer inception_4d/3x3
I0403 15:38:54.200675 10823 net.cpp:425] inception_4d/3x3 <- inception_4d/3x3_reduce
I0403 15:38:54.200695 10823 net.cpp:399] inception_4d/3x3 -> inception_4d/3x3
I0403 15:38:54.204967 10823 net.cpp:141] Setting up inception_4d/3x3
I0403 15:38:54.204998 10823 net.cpp:148] Top shape: 24 288 14 14 (1354752)
I0403 15:38:54.205014 10823 net.cpp:156] Memory required for data: 1126235424
I0403 15:38:54.205032 10823 layer_factory.hpp:77] Creating layer inception_4d/relu_3x3
I0403 15:38:54.205052 10823 net.cpp:91] Creating Layer inception_4d/relu_3x3
I0403 15:38:54.205070 10823 net.cpp:425] inception_4d/relu_3x3 <- inception_4d/3x3
I0403 15:38:54.205086 10823 net.cpp:386] inception_4d/relu_3x3 -> inception_4d/3x3 (in-place)
I0403 15:38:54.205267 10823 net.cpp:141] Setting up inception_4d/relu_3x3
I0403 15:38:54.205294 10823 net.cpp:148] Top shape: 24 288 14 14 (1354752)
I0403 15:38:54.205309 10823 net.cpp:156] Memory required for data: 1131654432
I0403 15:38:54.205323 10823 layer_factory.hpp:77] Creating layer inception_4d/5x5_reduce
I0403 15:38:54.205344 10823 net.cpp:91] Creating Layer inception_4d/5x5_reduce
I0403 15:38:54.205363 10823 net.cpp:425] inception_4d/5x5_reduce <- inception_4c/output_inception_4c/output_0_split_2
I0403 15:38:54.205380 10823 net.cpp:399] inception_4d/5x5_reduce -> inception_4d/5x5_reduce
I0403 15:38:54.206528 10823 net.cpp:141] Setting up inception_4d/5x5_reduce
I0403 15:38:54.206555 10823 net.cpp:148] Top shape: 24 32 14 14 (150528)
I0403 15:38:54.206571 10823 net.cpp:156] Memory required for data: 1132256544
I0403 15:38:54.206588 10823 layer_factory.hpp:77] Creating layer inception_4d/relu_5x5_reduce
I0403 15:38:54.206609 10823 net.cpp:91] Creating Layer inception_4d/relu_5x5_reduce
I0403 15:38:54.206625 10823 net.cpp:425] inception_4d/relu_5x5_reduce <- inception_4d/5x5_reduce
I0403 15:38:54.206642 10823 net.cpp:386] inception_4d/relu_5x5_reduce -> inception_4d/5x5_reduce (in-place)
I0403 15:38:54.206830 10823 net.cpp:141] Setting up inception_4d/relu_5x5_reduce
I0403 15:38:54.206856 10823 net.cpp:148] Top shape: 24 32 14 14 (150528)
I0403 15:38:54.206871 10823 net.cpp:156] Memory required for data: 1132858656
I0403 15:38:54.206887 10823 layer_factory.hpp:77] Creating layer inception_4d/5x5
I0403 15:38:54.206908 10823 net.cpp:91] Creating Layer inception_4d/5x5
I0403 15:38:54.206928 10823 net.cpp:425] inception_4d/5x5 <- inception_4d/5x5_reduce
I0403 15:38:54.206946 10823 net.cpp:399] inception_4d/5x5 -> inception_4d/5x5
I0403 15:38:54.208425 10823 net.cpp:141] Setting up inception_4d/5x5
I0403 15:38:54.208454 10823 net.cpp:148] Top shape: 24 64 14 14 (301056)
I0403 15:38:54.208470 10823 net.cpp:156] Memory required for data: 1134062880
I0403 15:38:54.208488 10823 layer_factory.hpp:77] Creating layer inception_4d/relu_5x5
I0403 15:38:54.208520 10823 net.cpp:91] Creating Layer inception_4d/relu_5x5
I0403 15:38:54.208537 10823 net.cpp:425] inception_4d/relu_5x5 <- inception_4d/5x5
I0403 15:38:54.208557 10823 net.cpp:386] inception_4d/relu_5x5 -> inception_4d/5x5 (in-place)
I0403 15:38:54.208855 10823 net.cpp:141] Setting up inception_4d/relu_5x5
I0403 15:38:54.208884 10823 net.cpp:148] Top shape: 24 64 14 14 (301056)
I0403 15:38:54.208899 10823 net.cpp:156] Memory required for data: 1135267104
I0403 15:38:54.208914 10823 layer_factory.hpp:77] Creating layer inception_4d/pool
I0403 15:38:54.208931 10823 net.cpp:91] Creating Layer inception_4d/pool
I0403 15:38:54.208946 10823 net.cpp:425] inception_4d/pool <- inception_4c/output_inception_4c/output_0_split_3
I0403 15:38:54.208966 10823 net.cpp:399] inception_4d/pool -> inception_4d/pool
I0403 15:38:54.209036 10823 net.cpp:141] Setting up inception_4d/pool
I0403 15:38:54.209060 10823 net.cpp:148] Top shape: 24 512 14 14 (2408448)
I0403 15:38:54.209075 10823 net.cpp:156] Memory required for data: 1144900896
I0403 15:38:54.209090 10823 layer_factory.hpp:77] Creating layer inception_4d/pool_proj
I0403 15:38:54.209115 10823 net.cpp:91] Creating Layer inception_4d/pool_proj
I0403 15:38:54.209133 10823 net.cpp:425] inception_4d/pool_proj <- inception_4d/pool
I0403 15:38:54.209152 10823 net.cpp:399] inception_4d/pool_proj -> inception_4d/pool_proj
I0403 15:38:54.210961 10823 net.cpp:141] Setting up inception_4d/pool_proj
I0403 15:38:54.210995 10823 net.cpp:148] Top shape: 24 64 14 14 (301056)
I0403 15:38:54.211014 10823 net.cpp:156] Memory required for data: 1146105120
I0403 15:38:54.211032 10823 layer_factory.hpp:77] Creating layer inception_4d/relu_pool_proj
I0403 15:38:54.211052 10823 net.cpp:91] Creating Layer inception_4d/relu_pool_proj
I0403 15:38:54.211071 10823 net.cpp:425] inception_4d/relu_pool_proj <- inception_4d/pool_proj
I0403 15:38:54.211087 10823 net.cpp:386] inception_4d/relu_pool_proj -> inception_4d/pool_proj (in-place)
I0403 15:38:54.211278 10823 net.cpp:141] Setting up inception_4d/relu_pool_proj
I0403 15:38:54.211307 10823 net.cpp:148] Top shape: 24 64 14 14 (301056)
I0403 15:38:54.211323 10823 net.cpp:156] Memory required for data: 1147309344
I0403 15:38:54.211338 10823 layer_factory.hpp:77] Creating layer inception_4d/output
I0403 15:38:54.211355 10823 net.cpp:91] Creating Layer inception_4d/output
I0403 15:38:54.211370 10823 net.cpp:425] inception_4d/output <- inception_4d/1x1
I0403 15:38:54.211387 10823 net.cpp:425] inception_4d/output <- inception_4d/3x3
I0403 15:38:54.211403 10823 net.cpp:425] inception_4d/output <- inception_4d/5x5
I0403 15:38:54.211419 10823 net.cpp:425] inception_4d/output <- inception_4d/pool_proj
I0403 15:38:54.211436 10823 net.cpp:399] inception_4d/output -> inception_4d/output
I0403 15:38:54.211485 10823 net.cpp:141] Setting up inception_4d/output
I0403 15:38:54.211509 10823 net.cpp:148] Top shape: 24 528 14 14 (2483712)
I0403 15:38:54.211524 10823 net.cpp:156] Memory required for data: 1157244192
I0403 15:38:54.211539 10823 layer_factory.hpp:77] Creating layer inception_4d/output_inception_4d/output_0_split
I0403 15:38:54.211560 10823 net.cpp:91] Creating Layer inception_4d/output_inception_4d/output_0_split
I0403 15:38:54.211577 10823 net.cpp:425] inception_4d/output_inception_4d/output_0_split <- inception_4d/output
I0403 15:38:54.211596 10823 net.cpp:399] inception_4d/output_inception_4d/output_0_split -> inception_4d/output_inception_4d/output_0_split_0
I0403 15:38:54.211616 10823 net.cpp:399] inception_4d/output_inception_4d/output_0_split -> inception_4d/output_inception_4d/output_0_split_1
I0403 15:38:54.211635 10823 net.cpp:399] inception_4d/output_inception_4d/output_0_split -> inception_4d/output_inception_4d/output_0_split_2
I0403 15:38:54.211658 10823 net.cpp:399] inception_4d/output_inception_4d/output_0_split -> inception_4d/output_inception_4d/output_0_split_3
I0403 15:38:54.211680 10823 net.cpp:399] inception_4d/output_inception_4d/output_0_split -> inception_4d/output_inception_4d/output_0_split_4
I0403 15:38:54.211784 10823 net.cpp:141] Setting up inception_4d/output_inception_4d/output_0_split
I0403 15:38:54.211822 10823 net.cpp:148] Top shape: 24 528 14 14 (2483712)
I0403 15:38:54.211838 10823 net.cpp:148] Top shape: 24 528 14 14 (2483712)
I0403 15:38:54.211853 10823 net.cpp:148] Top shape: 24 528 14 14 (2483712)
I0403 15:38:54.211869 10823 net.cpp:148] Top shape: 24 528 14 14 (2483712)
I0403 15:38:54.211884 10823 net.cpp:148] Top shape: 24 528 14 14 (2483712)
I0403 15:38:54.211899 10823 net.cpp:156] Memory required for data: 1206918432
I0403 15:38:54.211913 10823 layer_factory.hpp:77] Creating layer loss2/ave_pool
I0403 15:38:54.211935 10823 net.cpp:91] Creating Layer loss2/ave_pool
I0403 15:38:54.211951 10823 net.cpp:425] loss2/ave_pool <- inception_4d/output_inception_4d/output_0_split_0
I0403 15:38:54.211969 10823 net.cpp:399] loss2/ave_pool -> loss2/ave_pool
I0403 15:38:54.212301 10823 net.cpp:141] Setting up loss2/ave_pool
I0403 15:38:54.212327 10823 net.cpp:148] Top shape: 24 528 4 4 (202752)
I0403 15:38:54.212343 10823 net.cpp:156] Memory required for data: 1207729440
I0403 15:38:54.212358 10823 layer_factory.hpp:77] Creating layer loss2/conv
I0403 15:38:54.212381 10823 net.cpp:91] Creating Layer loss2/conv
I0403 15:38:54.212399 10823 net.cpp:425] loss2/conv <- loss2/ave_pool
I0403 15:38:54.212420 10823 net.cpp:399] loss2/conv -> loss2/conv
I0403 15:38:54.214385 10823 net.cpp:141] Setting up loss2/conv
I0403 15:38:54.214414 10823 net.cpp:148] Top shape: 24 128 4 4 (49152)
I0403 15:38:54.214429 10823 net.cpp:156] Memory required for data: 1207926048
I0403 15:38:54.214448 10823 layer_factory.hpp:77] Creating layer loss2/relu_conv
I0403 15:38:54.214467 10823 net.cpp:91] Creating Layer loss2/relu_conv
I0403 15:38:54.214483 10823 net.cpp:425] loss2/relu_conv <- loss2/conv
I0403 15:38:54.214504 10823 net.cpp:386] loss2/relu_conv -> loss2/conv (in-place)
I0403 15:38:54.214802 10823 net.cpp:141] Setting up loss2/relu_conv
I0403 15:38:54.214829 10823 net.cpp:148] Top shape: 24 128 4 4 (49152)
I0403 15:38:54.214845 10823 net.cpp:156] Memory required for data: 1208122656
I0403 15:38:54.214860 10823 layer_factory.hpp:77] Creating layer loss2/fc
I0403 15:38:54.214879 10823 net.cpp:91] Creating Layer loss2/fc
I0403 15:38:54.214895 10823 net.cpp:425] loss2/fc <- loss2/conv
I0403 15:38:54.214917 10823 net.cpp:399] loss2/fc -> loss2/fc
I0403 15:38:54.233105 10823 net.cpp:141] Setting up loss2/fc
I0403 15:38:54.233140 10823 net.cpp:148] Top shape: 24 1024 (24576)
I0403 15:38:54.233156 10823 net.cpp:156] Memory required for data: 1208220960
I0403 15:38:54.233175 10823 layer_factory.hpp:77] Creating layer loss2/relu_fc
I0403 15:38:54.233192 10823 net.cpp:91] Creating Layer loss2/relu_fc
I0403 15:38:54.233209 10823 net.cpp:425] loss2/relu_fc <- loss2/fc
I0403 15:38:54.233227 10823 net.cpp:386] loss2/relu_fc -> loss2/fc (in-place)
I0403 15:38:54.233527 10823 net.cpp:141] Setting up loss2/relu_fc
I0403 15:38:54.233556 10823 net.cpp:148] Top shape: 24 1024 (24576)
I0403 15:38:54.233572 10823 net.cpp:156] Memory required for data: 1208319264
I0403 15:38:54.233587 10823 layer_factory.hpp:77] Creating layer loss2/drop_fc
I0403 15:38:54.233604 10823 net.cpp:91] Creating Layer loss2/drop_fc
I0403 15:38:54.233620 10823 net.cpp:425] loss2/drop_fc <- loss2/fc
I0403 15:38:54.233638 10823 net.cpp:386] loss2/drop_fc -> loss2/fc (in-place)
I0403 15:38:54.233687 10823 net.cpp:141] Setting up loss2/drop_fc
I0403 15:38:54.233710 10823 net.cpp:148] Top shape: 24 1024 (24576)
I0403 15:38:54.233723 10823 net.cpp:156] Memory required for data: 1208417568
I0403 15:38:54.233738 10823 layer_factory.hpp:77] Creating layer loss2/classifier_plantvillage
I0403 15:38:54.233758 10823 net.cpp:91] Creating Layer loss2/classifier_plantvillage
I0403 15:38:54.233774 10823 net.cpp:425] loss2/classifier_plantvillage <- loss2/fc
I0403 15:38:54.233793 10823 net.cpp:399] loss2/classifier_plantvillage -> loss2/classifier_plantvillage
I0403 15:38:54.234197 10823 net.cpp:141] Setting up loss2/classifier_plantvillage
I0403 15:38:54.234222 10823 net.cpp:148] Top shape: 24 38 (912)
I0403 15:38:54.234253 10823 net.cpp:156] Memory required for data: 1208421216
I0403 15:38:54.234272 10823 layer_factory.hpp:77] Creating layer loss2/classifier_plantvillage_loss2/classifier_plantvillage_0_split
I0403 15:38:54.234290 10823 net.cpp:91] Creating Layer loss2/classifier_plantvillage_loss2/classifier_plantvillage_0_split
I0403 15:38:54.234307 10823 net.cpp:425] loss2/classifier_plantvillage_loss2/classifier_plantvillage_0_split <- loss2/classifier_plantvillage
I0403 15:38:54.234325 10823 net.cpp:399] loss2/classifier_plantvillage_loss2/classifier_plantvillage_0_split -> loss2/classifier_plantvillage_loss2/classifier_plantvillage_0_split_0
I0403 15:38:54.234346 10823 net.cpp:399] loss2/classifier_plantvillage_loss2/classifier_plantvillage_0_split -> loss2/classifier_plantvillage_loss2/classifier_plantvillage_0_split_1
I0403 15:38:54.234367 10823 net.cpp:399] loss2/classifier_plantvillage_loss2/classifier_plantvillage_0_split -> loss2/classifier_plantvillage_loss2/classifier_plantvillage_0_split_2
I0403 15:38:54.234443 10823 net.cpp:141] Setting up loss2/classifier_plantvillage_loss2/classifier_plantvillage_0_split
I0403 15:38:54.234468 10823 net.cpp:148] Top shape: 24 38 (912)
I0403 15:38:54.234485 10823 net.cpp:148] Top shape: 24 38 (912)
I0403 15:38:54.234501 10823 net.cpp:148] Top shape: 24 38 (912)
I0403 15:38:54.234514 10823 net.cpp:156] Memory required for data: 1208432160
I0403 15:38:54.234529 10823 layer_factory.hpp:77] Creating layer inception_4e/1x1
I0403 15:38:54.234550 10823 net.cpp:91] Creating Layer inception_4e/1x1
I0403 15:38:54.234567 10823 net.cpp:425] inception_4e/1x1 <- inception_4d/output_inception_4d/output_0_split_1
I0403 15:38:54.234586 10823 net.cpp:399] inception_4e/1x1 -> inception_4e/1x1
I0403 15:38:54.236404 10823 net.cpp:141] Setting up inception_4e/1x1
I0403 15:38:54.236434 10823 net.cpp:148] Top shape: 24 256 14 14 (1204224)
I0403 15:38:54.236451 10823 net.cpp:156] Memory required for data: 1213249056
I0403 15:38:54.236469 10823 layer_factory.hpp:77] Creating layer inception_4e/relu_1x1
I0403 15:38:54.236487 10823 net.cpp:91] Creating Layer inception_4e/relu_1x1
I0403 15:38:54.236503 10823 net.cpp:425] inception_4e/relu_1x1 <- inception_4e/1x1
I0403 15:38:54.236521 10823 net.cpp:386] inception_4e/relu_1x1 -> inception_4e/1x1 (in-place)
I0403 15:38:54.236814 10823 net.cpp:141] Setting up inception_4e/relu_1x1
I0403 15:38:54.236846 10823 net.cpp:148] Top shape: 24 256 14 14 (1204224)
I0403 15:38:54.236862 10823 net.cpp:156] Memory required for data: 1218065952
I0403 15:38:54.236877 10823 layer_factory.hpp:77] Creating layer inception_4e/3x3_reduce
I0403 15:38:54.236899 10823 net.cpp:91] Creating Layer inception_4e/3x3_reduce
I0403 15:38:54.236917 10823 net.cpp:425] inception_4e/3x3_reduce <- inception_4d/output_inception_4d/output_0_split_2
I0403 15:38:54.236938 10823 net.cpp:399] inception_4e/3x3_reduce -> inception_4e/3x3_reduce
I0403 15:38:54.239123 10823 net.cpp:141] Setting up inception_4e/3x3_reduce
I0403 15:38:54.239156 10823 net.cpp:148] Top shape: 24 160 14 14 (752640)
I0403 15:38:54.239172 10823 net.cpp:156] Memory required for data: 1221076512
I0403 15:38:54.239192 10823 layer_factory.hpp:77] Creating layer inception_4e/relu_3x3_reduce
I0403 15:38:54.239210 10823 net.cpp:91] Creating Layer inception_4e/relu_3x3_reduce
I0403 15:38:54.239226 10823 net.cpp:425] inception_4e/relu_3x3_reduce <- inception_4e/3x3_reduce
I0403 15:38:54.239243 10823 net.cpp:386] inception_4e/relu_3x3_reduce -> inception_4e/3x3_reduce (in-place)
I0403 15:38:54.239441 10823 net.cpp:141] Setting up inception_4e/relu_3x3_reduce
I0403 15:38:54.239467 10823 net.cpp:148] Top shape: 24 160 14 14 (752640)
I0403 15:38:54.239481 10823 net.cpp:156] Memory required for data: 1224087072
I0403 15:38:54.239497 10823 layer_factory.hpp:77] Creating layer inception_4e/3x3
I0403 15:38:54.239519 10823 net.cpp:91] Creating Layer inception_4e/3x3
I0403 15:38:54.239537 10823 net.cpp:425] inception_4e/3x3 <- inception_4e/3x3_reduce
I0403 15:38:54.239569 10823 net.cpp:399] inception_4e/3x3 -> inception_4e/3x3
I0403 15:38:54.244647 10823 net.cpp:141] Setting up inception_4e/3x3
I0403 15:38:54.244688 10823 net.cpp:148] Top shape: 24 320 14 14 (1505280)
I0403 15:38:54.244704 10823 net.cpp:156] Memory required for data: 1230108192
I0403 15:38:54.244721 10823 layer_factory.hpp:77] Creating layer inception_4e/relu_3x3
I0403 15:38:54.244742 10823 net.cpp:91] Creating Layer inception_4e/relu_3x3
I0403 15:38:54.244760 10823 net.cpp:425] inception_4e/relu_3x3 <- inception_4e/3x3
I0403 15:38:54.244776 10823 net.cpp:386] inception_4e/relu_3x3 -> inception_4e/3x3 (in-place)
I0403 15:38:54.245081 10823 net.cpp:141] Setting up inception_4e/relu_3x3
I0403 15:38:54.245108 10823 net.cpp:148] Top shape: 24 320 14 14 (1505280)
I0403 15:38:54.245123 10823 net.cpp:156] Memory required for data: 1236129312
I0403 15:38:54.245138 10823 layer_factory.hpp:77] Creating layer inception_4e/5x5_reduce
I0403 15:38:54.245160 10823 net.cpp:91] Creating Layer inception_4e/5x5_reduce
I0403 15:38:54.245177 10823 net.cpp:425] inception_4e/5x5_reduce <- inception_4d/output_inception_4d/output_0_split_3
I0403 15:38:54.245198 10823 net.cpp:399] inception_4e/5x5_reduce -> inception_4e/5x5_reduce
I0403 15:38:54.246271 10823 net.cpp:141] Setting up inception_4e/5x5_reduce
I0403 15:38:54.246301 10823 net.cpp:148] Top shape: 24 32 14 14 (150528)
I0403 15:38:54.246317 10823 net.cpp:156] Memory required for data: 1236731424
I0403 15:38:54.246335 10823 layer_factory.hpp:77] Creating layer inception_4e/relu_5x5_reduce
I0403 15:38:54.246353 10823 net.cpp:91] Creating Layer inception_4e/relu_5x5_reduce
I0403 15:38:54.246369 10823 net.cpp:425] inception_4e/relu_5x5_reduce <- inception_4e/5x5_reduce
I0403 15:38:54.246388 10823 net.cpp:386] inception_4e/relu_5x5_reduce -> inception_4e/5x5_reduce (in-place)
I0403 15:38:54.246692 10823 net.cpp:141] Setting up inception_4e/relu_5x5_reduce
I0403 15:38:54.246719 10823 net.cpp:148] Top shape: 24 32 14 14 (150528)
I0403 15:38:54.246736 10823 net.cpp:156] Memory required for data: 1237333536
I0403 15:38:54.246750 10823 layer_factory.hpp:77] Creating layer inception_4e/5x5
I0403 15:38:54.246788 10823 net.cpp:91] Creating Layer inception_4e/5x5
I0403 15:38:54.246808 10823 net.cpp:425] inception_4e/5x5 <- inception_4e/5x5_reduce
I0403 15:38:54.246827 10823 net.cpp:399] inception_4e/5x5 -> inception_4e/5x5
I0403 15:38:54.248677 10823 net.cpp:141] Setting up inception_4e/5x5
I0403 15:38:54.248705 10823 net.cpp:148] Top shape: 24 128 14 14 (602112)
I0403 15:38:54.248720 10823 net.cpp:156] Memory required for data: 1239741984
I0403 15:38:54.248739 10823 layer_factory.hpp:77] Creating layer inception_4e/relu_5x5
I0403 15:38:54.248759 10823 net.cpp:91] Creating Layer inception_4e/relu_5x5
I0403 15:38:54.248776 10823 net.cpp:425] inception_4e/relu_5x5 <- inception_4e/5x5
I0403 15:38:54.248793 10823 net.cpp:386] inception_4e/relu_5x5 -> inception_4e/5x5 (in-place)
I0403 15:38:54.248994 10823 net.cpp:141] Setting up inception_4e/relu_5x5
I0403 15:38:54.249019 10823 net.cpp:148] Top shape: 24 128 14 14 (602112)
I0403 15:38:54.249033 10823 net.cpp:156] Memory required for data: 1242150432
I0403 15:38:54.249048 10823 layer_factory.hpp:77] Creating layer inception_4e/pool
I0403 15:38:54.249066 10823 net.cpp:91] Creating Layer inception_4e/pool
I0403 15:38:54.249083 10823 net.cpp:425] inception_4e/pool <- inception_4d/output_inception_4d/output_0_split_4
I0403 15:38:54.249101 10823 net.cpp:399] inception_4e/pool -> inception_4e/pool
I0403 15:38:54.249169 10823 net.cpp:141] Setting up inception_4e/pool
I0403 15:38:54.249192 10823 net.cpp:148] Top shape: 24 528 14 14 (2483712)
I0403 15:38:54.249207 10823 net.cpp:156] Memory required for data: 1252085280
I0403 15:38:54.249220 10823 layer_factory.hpp:77] Creating layer inception_4e/pool_proj
I0403 15:38:54.249244 10823 net.cpp:91] Creating Layer inception_4e/pool_proj
I0403 15:38:54.249261 10823 net.cpp:425] inception_4e/pool_proj <- inception_4e/pool
I0403 15:38:54.249279 10823 net.cpp:399] inception_4e/pool_proj -> inception_4e/pool_proj
I0403 15:38:54.250773 10823 net.cpp:141] Setting up inception_4e/pool_proj
I0403 15:38:54.250813 10823 net.cpp:148] Top shape: 24 128 14 14 (602112)
I0403 15:38:54.250828 10823 net.cpp:156] Memory required for data: 1254493728
I0403 15:38:54.250845 10823 layer_factory.hpp:77] Creating layer inception_4e/relu_pool_proj
I0403 15:38:54.250866 10823 net.cpp:91] Creating Layer inception_4e/relu_pool_proj
I0403 15:38:54.250882 10823 net.cpp:425] inception_4e/relu_pool_proj <- inception_4e/pool_proj
I0403 15:38:54.250900 10823 net.cpp:386] inception_4e/relu_pool_proj -> inception_4e/pool_proj (in-place)
I0403 15:38:54.251200 10823 net.cpp:141] Setting up inception_4e/relu_pool_proj
I0403 15:38:54.251226 10823 net.cpp:148] Top shape: 24 128 14 14 (602112)
I0403 15:38:54.251241 10823 net.cpp:156] Memory required for data: 1256902176
I0403 15:38:54.251255 10823 layer_factory.hpp:77] Creating layer inception_4e/output
I0403 15:38:54.251274 10823 net.cpp:91] Creating Layer inception_4e/output
I0403 15:38:54.251291 10823 net.cpp:425] inception_4e/output <- inception_4e/1x1
I0403 15:38:54.251307 10823 net.cpp:425] inception_4e/output <- inception_4e/3x3
I0403 15:38:54.251322 10823 net.cpp:425] inception_4e/output <- inception_4e/5x5
I0403 15:38:54.251338 10823 net.cpp:425] inception_4e/output <- inception_4e/pool_proj
I0403 15:38:54.251354 10823 net.cpp:399] inception_4e/output -> inception_4e/output
I0403 15:38:54.251405 10823 net.cpp:141] Setting up inception_4e/output
I0403 15:38:54.251427 10823 net.cpp:148] Top shape: 24 832 14 14 (3913728)
I0403 15:38:54.251441 10823 net.cpp:156] Memory required for data: 1272557088
I0403 15:38:54.251456 10823 layer_factory.hpp:77] Creating layer pool4/3x3_s2
I0403 15:38:54.251473 10823 net.cpp:91] Creating Layer pool4/3x3_s2
I0403 15:38:54.251489 10823 net.cpp:425] pool4/3x3_s2 <- inception_4e/output
I0403 15:38:54.251510 10823 net.cpp:399] pool4/3x3_s2 -> pool4/3x3_s2
I0403 15:38:54.251575 10823 net.cpp:141] Setting up pool4/3x3_s2
I0403 15:38:54.251600 10823 net.cpp:148] Top shape: 24 832 7 7 (978432)
I0403 15:38:54.251613 10823 net.cpp:156] Memory required for data: 1276470816
I0403 15:38:54.251627 10823 layer_factory.hpp:77] Creating layer pool4/3x3_s2_pool4/3x3_s2_0_split
I0403 15:38:54.251647 10823 net.cpp:91] Creating Layer pool4/3x3_s2_pool4/3x3_s2_0_split
I0403 15:38:54.251663 10823 net.cpp:425] pool4/3x3_s2_pool4/3x3_s2_0_split <- pool4/3x3_s2
I0403 15:38:54.251683 10823 net.cpp:399] pool4/3x3_s2_pool4/3x3_s2_0_split -> pool4/3x3_s2_pool4/3x3_s2_0_split_0
I0403 15:38:54.251703 10823 net.cpp:399] pool4/3x3_s2_pool4/3x3_s2_0_split -> pool4/3x3_s2_pool4/3x3_s2_0_split_1
I0403 15:38:54.251724 10823 net.cpp:399] pool4/3x3_s2_pool4/3x3_s2_0_split -> pool4/3x3_s2_pool4/3x3_s2_0_split_2
I0403 15:38:54.251744 10823 net.cpp:399] pool4/3x3_s2_pool4/3x3_s2_0_split -> pool4/3x3_s2_pool4/3x3_s2_0_split_3
I0403 15:38:54.251832 10823 net.cpp:141] Setting up pool4/3x3_s2_pool4/3x3_s2_0_split
I0403 15:38:54.251855 10823 net.cpp:148] Top shape: 24 832 7 7 (978432)
I0403 15:38:54.251873 10823 net.cpp:148] Top shape: 24 832 7 7 (978432)
I0403 15:38:54.251889 10823 net.cpp:148] Top shape: 24 832 7 7 (978432)
I0403 15:38:54.251904 10823 net.cpp:148] Top shape: 24 832 7 7 (978432)
I0403 15:38:54.251920 10823 net.cpp:156] Memory required for data: 1292125728
I0403 15:38:54.251935 10823 layer_factory.hpp:77] Creating layer inception_5a/1x1
I0403 15:38:54.251955 10823 net.cpp:91] Creating Layer inception_5a/1x1
I0403 15:38:54.251971 10823 net.cpp:425] inception_5a/1x1 <- pool4/3x3_s2_pool4/3x3_s2_0_split_0
I0403 15:38:54.251996 10823 net.cpp:399] inception_5a/1x1 -> inception_5a/1x1
I0403 15:38:54.254865 10823 net.cpp:141] Setting up inception_5a/1x1
I0403 15:38:54.254897 10823 net.cpp:148] Top shape: 24 256 7 7 (301056)
I0403 15:38:54.254914 10823 net.cpp:156] Memory required for data: 1293329952
I0403 15:38:54.254932 10823 layer_factory.hpp:77] Creating layer inception_5a/relu_1x1
I0403 15:38:54.254950 10823 net.cpp:91] Creating Layer inception_5a/relu_1x1
I0403 15:38:54.254966 10823 net.cpp:425] inception_5a/relu_1x1 <- inception_5a/1x1
I0403 15:38:54.254986 10823 net.cpp:386] inception_5a/relu_1x1 -> inception_5a/1x1 (in-place)
I0403 15:38:54.255301 10823 net.cpp:141] Setting up inception_5a/relu_1x1
I0403 15:38:54.255329 10823 net.cpp:148] Top shape: 24 256 7 7 (301056)
I0403 15:38:54.255347 10823 net.cpp:156] Memory required for data: 1294534176
I0403 15:38:54.255362 10823 layer_factory.hpp:77] Creating layer inception_5a/3x3_reduce
I0403 15:38:54.255383 10823 net.cpp:91] Creating Layer inception_5a/3x3_reduce
I0403 15:38:54.255400 10823 net.cpp:425] inception_5a/3x3_reduce <- pool4/3x3_s2_pool4/3x3_s2_0_split_1
I0403 15:38:54.255419 10823 net.cpp:399] inception_5a/3x3_reduce -> inception_5a/3x3_reduce
I0403 15:38:54.257894 10823 net.cpp:141] Setting up inception_5a/3x3_reduce
I0403 15:38:54.257925 10823 net.cpp:148] Top shape: 24 160 7 7 (188160)
I0403 15:38:54.257941 10823 net.cpp:156] Memory required for data: 1295286816
I0403 15:38:54.257959 10823 layer_factory.hpp:77] Creating layer inception_5a/relu_3x3_reduce
I0403 15:38:54.257989 10823 net.cpp:91] Creating Layer inception_5a/relu_3x3_reduce
I0403 15:38:54.258009 10823 net.cpp:425] inception_5a/relu_3x3_reduce <- inception_5a/3x3_reduce
I0403 15:38:54.258028 10823 net.cpp:386] inception_5a/relu_3x3_reduce -> inception_5a/3x3_reduce (in-place)
I0403 15:38:54.258215 10823 net.cpp:141] Setting up inception_5a/relu_3x3_reduce
I0403 15:38:54.258242 10823 net.cpp:148] Top shape: 24 160 7 7 (188160)
I0403 15:38:54.258257 10823 net.cpp:156] Memory required for data: 1296039456
I0403 15:38:54.258271 10823 layer_factory.hpp:77] Creating layer inception_5a/3x3
I0403 15:38:54.258294 10823 net.cpp:91] Creating Layer inception_5a/3x3
I0403 15:38:54.258311 10823 net.cpp:425] inception_5a/3x3 <- inception_5a/3x3_reduce
I0403 15:38:54.258330 10823 net.cpp:399] inception_5a/3x3 -> inception_5a/3x3
I0403 15:38:54.263442 10823 net.cpp:141] Setting up inception_5a/3x3
I0403 15:38:54.263473 10823 net.cpp:148] Top shape: 24 320 7 7 (376320)
I0403 15:38:54.263487 10823 net.cpp:156] Memory required for data: 1297544736
I0403 15:38:54.263506 10823 layer_factory.hpp:77] Creating layer inception_5a/relu_3x3
I0403 15:38:54.263526 10823 net.cpp:91] Creating Layer inception_5a/relu_3x3
I0403 15:38:54.263543 10823 net.cpp:425] inception_5a/relu_3x3 <- inception_5a/3x3
I0403 15:38:54.263561 10823 net.cpp:386] inception_5a/relu_3x3 -> inception_5a/3x3 (in-place)
I0403 15:38:54.263856 10823 net.cpp:141] Setting up inception_5a/relu_3x3
I0403 15:38:54.263883 10823 net.cpp:148] Top shape: 24 320 7 7 (376320)
I0403 15:38:54.263898 10823 net.cpp:156] Memory required for data: 1299050016
I0403 15:38:54.263912 10823 layer_factory.hpp:77] Creating layer inception_5a/5x5_reduce
I0403 15:38:54.263938 10823 net.cpp:91] Creating Layer inception_5a/5x5_reduce
I0403 15:38:54.263957 10823 net.cpp:425] inception_5a/5x5_reduce <- pool4/3x3_s2_pool4/3x3_s2_0_split_2
I0403 15:38:54.263977 10823 net.cpp:399] inception_5a/5x5_reduce -> inception_5a/5x5_reduce
I0403 15:38:54.265151 10823 net.cpp:141] Setting up inception_5a/5x5_reduce
I0403 15:38:54.265184 10823 net.cpp:148] Top shape: 24 32 7 7 (37632)
I0403 15:38:54.265202 10823 net.cpp:156] Memory required for data: 1299200544
I0403 15:38:54.265219 10823 layer_factory.hpp:77] Creating layer inception_5a/relu_5x5_reduce
I0403 15:38:54.265238 10823 net.cpp:91] Creating Layer inception_5a/relu_5x5_reduce
I0403 15:38:54.265254 10823 net.cpp:425] inception_5a/relu_5x5_reduce <- inception_5a/5x5_reduce
I0403 15:38:54.265274 10823 net.cpp:386] inception_5a/relu_5x5_reduce -> inception_5a/5x5_reduce (in-place)
I0403 15:38:54.265573 10823 net.cpp:141] Setting up inception_5a/relu_5x5_reduce
I0403 15:38:54.265599 10823 net.cpp:148] Top shape: 24 32 7 7 (37632)
I0403 15:38:54.265614 10823 net.cpp:156] Memory required for data: 1299351072
I0403 15:38:54.265630 10823 layer_factory.hpp:77] Creating layer inception_5a/5x5
I0403 15:38:54.265651 10823 net.cpp:91] Creating Layer inception_5a/5x5
I0403 15:38:54.265669 10823 net.cpp:425] inception_5a/5x5 <- inception_5a/5x5_reduce
I0403 15:38:54.265689 10823 net.cpp:399] inception_5a/5x5 -> inception_5a/5x5
I0403 15:38:54.267411 10823 net.cpp:141] Setting up inception_5a/5x5
I0403 15:38:54.267449 10823 net.cpp:148] Top shape: 24 128 7 7 (150528)
I0403 15:38:54.267465 10823 net.cpp:156] Memory required for data: 1299953184
I0403 15:38:54.267484 10823 layer_factory.hpp:77] Creating layer inception_5a/relu_5x5
I0403 15:38:54.267503 10823 net.cpp:91] Creating Layer inception_5a/relu_5x5
I0403 15:38:54.267521 10823 net.cpp:425] inception_5a/relu_5x5 <- inception_5a/5x5
I0403 15:38:54.267539 10823 net.cpp:386] inception_5a/relu_5x5 -> inception_5a/5x5 (in-place)
I0403 15:38:54.267729 10823 net.cpp:141] Setting up inception_5a/relu_5x5
I0403 15:38:54.267753 10823 net.cpp:148] Top shape: 24 128 7 7 (150528)
I0403 15:38:54.267767 10823 net.cpp:156] Memory required for data: 1300555296
I0403 15:38:54.267782 10823 layer_factory.hpp:77] Creating layer inception_5a/pool
I0403 15:38:54.267799 10823 net.cpp:91] Creating Layer inception_5a/pool
I0403 15:38:54.267815 10823 net.cpp:425] inception_5a/pool <- pool4/3x3_s2_pool4/3x3_s2_0_split_3
I0403 15:38:54.267835 10823 net.cpp:399] inception_5a/pool -> inception_5a/pool
I0403 15:38:54.267905 10823 net.cpp:141] Setting up inception_5a/pool
I0403 15:38:54.267930 10823 net.cpp:148] Top shape: 24 832 7 7 (978432)
I0403 15:38:54.267945 10823 net.cpp:156] Memory required for data: 1304469024
I0403 15:38:54.267958 10823 layer_factory.hpp:77] Creating layer inception_5a/pool_proj
I0403 15:38:54.267992 10823 net.cpp:91] Creating Layer inception_5a/pool_proj
I0403 15:38:54.268012 10823 net.cpp:425] inception_5a/pool_proj <- inception_5a/pool
I0403 15:38:54.268030 10823 net.cpp:399] inception_5a/pool_proj -> inception_5a/pool_proj
I0403 15:38:54.270335 10823 net.cpp:141] Setting up inception_5a/pool_proj
I0403 15:38:54.270365 10823 net.cpp:148] Top shape: 24 128 7 7 (150528)
I0403 15:38:54.270381 10823 net.cpp:156] Memory required for data: 1305071136
I0403 15:38:54.270400 10823 layer_factory.hpp:77] Creating layer inception_5a/relu_pool_proj
I0403 15:38:54.270419 10823 net.cpp:91] Creating Layer inception_5a/relu_pool_proj
I0403 15:38:54.270437 10823 net.cpp:425] inception_5a/relu_pool_proj <- inception_5a/pool_proj
I0403 15:38:54.270453 10823 net.cpp:386] inception_5a/relu_pool_proj -> inception_5a/pool_proj (in-place)
I0403 15:38:54.270750 10823 net.cpp:141] Setting up inception_5a/relu_pool_proj
I0403 15:38:54.270776 10823 net.cpp:148] Top shape: 24 128 7 7 (150528)
I0403 15:38:54.270790 10823 net.cpp:156] Memory required for data: 1305673248
I0403 15:38:54.270805 10823 layer_factory.hpp:77] Creating layer inception_5a/output
I0403 15:38:54.270825 10823 net.cpp:91] Creating Layer inception_5a/output
I0403 15:38:54.270841 10823 net.cpp:425] inception_5a/output <- inception_5a/1x1
I0403 15:38:54.270859 10823 net.cpp:425] inception_5a/output <- inception_5a/3x3
I0403 15:38:54.270874 10823 net.cpp:425] inception_5a/output <- inception_5a/5x5
I0403 15:38:54.270889 10823 net.cpp:425] inception_5a/output <- inception_5a/pool_proj
I0403 15:38:54.270906 10823 net.cpp:399] inception_5a/output -> inception_5a/output
I0403 15:38:54.270958 10823 net.cpp:141] Setting up inception_5a/output
I0403 15:38:54.270999 10823 net.cpp:148] Top shape: 24 832 7 7 (978432)
I0403 15:38:54.271016 10823 net.cpp:156] Memory required for data: 1309586976
I0403 15:38:54.271033 10823 layer_factory.hpp:77] Creating layer inception_5a/output_inception_5a/output_0_split
I0403 15:38:54.271054 10823 net.cpp:91] Creating Layer inception_5a/output_inception_5a/output_0_split
I0403 15:38:54.271070 10823 net.cpp:425] inception_5a/output_inception_5a/output_0_split <- inception_5a/output
I0403 15:38:54.271090 10823 net.cpp:399] inception_5a/output_inception_5a/output_0_split -> inception_5a/output_inception_5a/output_0_split_0
I0403 15:38:54.271111 10823 net.cpp:399] inception_5a/output_inception_5a/output_0_split -> inception_5a/output_inception_5a/output_0_split_1
I0403 15:38:54.271132 10823 net.cpp:399] inception_5a/output_inception_5a/output_0_split -> inception_5a/output_inception_5a/output_0_split_2
I0403 15:38:54.271153 10823 net.cpp:399] inception_5a/output_inception_5a/output_0_split -> inception_5a/output_inception_5a/output_0_split_3
I0403 15:38:54.271266 10823 net.cpp:141] Setting up inception_5a/output_inception_5a/output_0_split
I0403 15:38:54.271292 10823 net.cpp:148] Top shape: 24 832 7 7 (978432)
I0403 15:38:54.271308 10823 net.cpp:148] Top shape: 24 832 7 7 (978432)
I0403 15:38:54.271334 10823 net.cpp:148] Top shape: 24 832 7 7 (978432)
I0403 15:38:54.271350 10823 net.cpp:148] Top shape: 24 832 7 7 (978432)
I0403 15:38:54.271364 10823 net.cpp:156] Memory required for data: 1325241888
I0403 15:38:54.271379 10823 layer_factory.hpp:77] Creating layer inception_5b/1x1
I0403 15:38:54.271401 10823 net.cpp:91] Creating Layer inception_5b/1x1
I0403 15:38:54.271420 10823 net.cpp:425] inception_5b/1x1 <- inception_5a/output_inception_5a/output_0_split_0
I0403 15:38:54.271440 10823 net.cpp:399] inception_5b/1x1 -> inception_5b/1x1
I0403 15:38:54.275364 10823 net.cpp:141] Setting up inception_5b/1x1
I0403 15:38:54.275395 10823 net.cpp:148] Top shape: 24 384 7 7 (451584)
I0403 15:38:54.275410 10823 net.cpp:156] Memory required for data: 1327048224
I0403 15:38:54.275429 10823 layer_factory.hpp:77] Creating layer inception_5b/relu_1x1
I0403 15:38:54.275449 10823 net.cpp:91] Creating Layer inception_5b/relu_1x1
I0403 15:38:54.275467 10823 net.cpp:425] inception_5b/relu_1x1 <- inception_5b/1x1
I0403 15:38:54.275485 10823 net.cpp:386] inception_5b/relu_1x1 -> inception_5b/1x1 (in-place)
I0403 15:38:54.275804 10823 net.cpp:141] Setting up inception_5b/relu_1x1
I0403 15:38:54.275831 10823 net.cpp:148] Top shape: 24 384 7 7 (451584)
I0403 15:38:54.275846 10823 net.cpp:156] Memory required for data: 1328854560
I0403 15:38:54.275861 10823 layer_factory.hpp:77] Creating layer inception_5b/3x3_reduce
I0403 15:38:54.275883 10823 net.cpp:91] Creating Layer inception_5b/3x3_reduce
I0403 15:38:54.275902 10823 net.cpp:425] inception_5b/3x3_reduce <- inception_5a/output_inception_5a/output_0_split_1
I0403 15:38:54.275925 10823 net.cpp:399] inception_5b/3x3_reduce -> inception_5b/3x3_reduce
I0403 15:38:54.278695 10823 net.cpp:141] Setting up inception_5b/3x3_reduce
I0403 15:38:54.278726 10823 net.cpp:148] Top shape: 24 192 7 7 (225792)
I0403 15:38:54.278743 10823 net.cpp:156] Memory required for data: 1329757728
I0403 15:38:54.278761 10823 layer_factory.hpp:77] Creating layer inception_5b/relu_3x3_reduce
I0403 15:38:54.278782 10823 net.cpp:91] Creating Layer inception_5b/relu_3x3_reduce
I0403 15:38:54.278800 10823 net.cpp:425] inception_5b/relu_3x3_reduce <- inception_5b/3x3_reduce
I0403 15:38:54.278817 10823 net.cpp:386] inception_5b/relu_3x3_reduce -> inception_5b/3x3_reduce (in-place)
I0403 15:38:54.279021 10823 net.cpp:141] Setting up inception_5b/relu_3x3_reduce
I0403 15:38:54.279048 10823 net.cpp:148] Top shape: 24 192 7 7 (225792)
I0403 15:38:54.279064 10823 net.cpp:156] Memory required for data: 1330660896
I0403 15:38:54.279079 10823 layer_factory.hpp:77] Creating layer inception_5b/3x3
I0403 15:38:54.279105 10823 net.cpp:91] Creating Layer inception_5b/3x3
I0403 15:38:54.279124 10823 net.cpp:425] inception_5b/3x3 <- inception_5b/3x3_reduce
I0403 15:38:54.279144 10823 net.cpp:399] inception_5b/3x3 -> inception_5b/3x3
I0403 15:38:54.286103 10823 net.cpp:141] Setting up inception_5b/3x3
I0403 15:38:54.286133 10823 net.cpp:148] Top shape: 24 384 7 7 (451584)
I0403 15:38:54.286149 10823 net.cpp:156] Memory required for data: 1332467232
I0403 15:38:54.286167 10823 layer_factory.hpp:77] Creating layer inception_5b/relu_3x3
I0403 15:38:54.286188 10823 net.cpp:91] Creating Layer inception_5b/relu_3x3
I0403 15:38:54.286206 10823 net.cpp:425] inception_5b/relu_3x3 <- inception_5b/3x3
I0403 15:38:54.286223 10823 net.cpp:386] inception_5b/relu_3x3 -> inception_5b/3x3 (in-place)
I0403 15:38:54.286531 10823 net.cpp:141] Setting up inception_5b/relu_3x3
I0403 15:38:54.286558 10823 net.cpp:148] Top shape: 24 384 7 7 (451584)
I0403 15:38:54.286572 10823 net.cpp:156] Memory required for data: 1334273568
I0403 15:38:54.286588 10823 layer_factory.hpp:77] Creating layer inception_5b/5x5_reduce
I0403 15:38:54.286628 10823 net.cpp:91] Creating Layer inception_5b/5x5_reduce
I0403 15:38:54.286648 10823 net.cpp:425] inception_5b/5x5_reduce <- inception_5a/output_inception_5a/output_0_split_2
I0403 15:38:54.286669 10823 net.cpp:399] inception_5b/5x5_reduce -> inception_5b/5x5_reduce
I0403 15:38:54.287992 10823 net.cpp:141] Setting up inception_5b/5x5_reduce
I0403 15:38:54.288022 10823 net.cpp:148] Top shape: 24 48 7 7 (56448)
I0403 15:38:54.288038 10823 net.cpp:156] Memory required for data: 1334499360
I0403 15:38:54.288055 10823 layer_factory.hpp:77] Creating layer inception_5b/relu_5x5_reduce
I0403 15:38:54.288076 10823 net.cpp:91] Creating Layer inception_5b/relu_5x5_reduce
I0403 15:38:54.288094 10823 net.cpp:425] inception_5b/relu_5x5_reduce <- inception_5b/5x5_reduce
I0403 15:38:54.288111 10823 net.cpp:386] inception_5b/relu_5x5_reduce -> inception_5b/5x5_reduce (in-place)
I0403 15:38:54.288504 10823 net.cpp:141] Setting up inception_5b/relu_5x5_reduce
I0403 15:38:54.288532 10823 net.cpp:148] Top shape: 24 48 7 7 (56448)
I0403 15:38:54.288547 10823 net.cpp:156] Memory required for data: 1334725152
I0403 15:38:54.288563 10823 layer_factory.hpp:77] Creating layer inception_5b/5x5
I0403 15:38:54.288584 10823 net.cpp:91] Creating Layer inception_5b/5x5
I0403 15:38:54.288601 10823 net.cpp:425] inception_5b/5x5 <- inception_5b/5x5_reduce
I0403 15:38:54.288620 10823 net.cpp:399] inception_5b/5x5 -> inception_5b/5x5
I0403 15:38:54.290719 10823 net.cpp:141] Setting up inception_5b/5x5
I0403 15:38:54.290748 10823 net.cpp:148] Top shape: 24 128 7 7 (150528)
I0403 15:38:54.290766 10823 net.cpp:156] Memory required for data: 1335327264
I0403 15:38:54.290783 10823 layer_factory.hpp:77] Creating layer inception_5b/relu_5x5
I0403 15:38:54.290801 10823 net.cpp:91] Creating Layer inception_5b/relu_5x5
I0403 15:38:54.290817 10823 net.cpp:425] inception_5b/relu_5x5 <- inception_5b/5x5
I0403 15:38:54.290833 10823 net.cpp:386] inception_5b/relu_5x5 -> inception_5b/5x5 (in-place)
I0403 15:38:54.291036 10823 net.cpp:141] Setting up inception_5b/relu_5x5
I0403 15:38:54.291060 10823 net.cpp:148] Top shape: 24 128 7 7 (150528)
I0403 15:38:54.291075 10823 net.cpp:156] Memory required for data: 1335929376
I0403 15:38:54.291090 10823 layer_factory.hpp:77] Creating layer inception_5b/pool
I0403 15:38:54.291106 10823 net.cpp:91] Creating Layer inception_5b/pool
I0403 15:38:54.291122 10823 net.cpp:425] inception_5b/pool <- inception_5a/output_inception_5a/output_0_split_3
I0403 15:38:54.291143 10823 net.cpp:399] inception_5b/pool -> inception_5b/pool
I0403 15:38:54.291214 10823 net.cpp:141] Setting up inception_5b/pool
I0403 15:38:54.291240 10823 net.cpp:148] Top shape: 24 832 7 7 (978432)
I0403 15:38:54.291255 10823 net.cpp:156] Memory required for data: 1339843104
I0403 15:38:54.291270 10823 layer_factory.hpp:77] Creating layer inception_5b/pool_proj
I0403 15:38:54.291290 10823 net.cpp:91] Creating Layer inception_5b/pool_proj
I0403 15:38:54.291308 10823 net.cpp:425] inception_5b/pool_proj <- inception_5b/pool
I0403 15:38:54.291326 10823 net.cpp:399] inception_5b/pool_proj -> inception_5b/pool_proj
I0403 15:38:54.293660 10823 net.cpp:141] Setting up inception_5b/pool_proj
I0403 15:38:54.293689 10823 net.cpp:148] Top shape: 24 128 7 7 (150528)
I0403 15:38:54.293705 10823 net.cpp:156] Memory required for data: 1340445216
I0403 15:38:54.293723 10823 layer_factory.hpp:77] Creating layer inception_5b/relu_pool_proj
I0403 15:38:54.293743 10823 net.cpp:91] Creating Layer inception_5b/relu_pool_proj
I0403 15:38:54.293761 10823 net.cpp:425] inception_5b/relu_pool_proj <- inception_5b/pool_proj
I0403 15:38:54.293779 10823 net.cpp:386] inception_5b/relu_pool_proj -> inception_5b/pool_proj (in-place)
I0403 15:38:54.294082 10823 net.cpp:141] Setting up inception_5b/relu_pool_proj
I0403 15:38:54.294108 10823 net.cpp:148] Top shape: 24 128 7 7 (150528)
I0403 15:38:54.294123 10823 net.cpp:156] Memory required for data: 1341047328
I0403 15:38:54.294137 10823 layer_factory.hpp:77] Creating layer inception_5b/output
I0403 15:38:54.294157 10823 net.cpp:91] Creating Layer inception_5b/output
I0403 15:38:54.294188 10823 net.cpp:425] inception_5b/output <- inception_5b/1x1
I0403 15:38:54.294206 10823 net.cpp:425] inception_5b/output <- inception_5b/3x3
I0403 15:38:54.294222 10823 net.cpp:425] inception_5b/output <- inception_5b/5x5
I0403 15:38:54.294239 10823 net.cpp:425] inception_5b/output <- inception_5b/pool_proj
I0403 15:38:54.294256 10823 net.cpp:399] inception_5b/output -> inception_5b/output
I0403 15:38:54.294308 10823 net.cpp:141] Setting up inception_5b/output
I0403 15:38:54.294332 10823 net.cpp:148] Top shape: 24 1024 7 7 (1204224)
I0403 15:38:54.294348 10823 net.cpp:156] Memory required for data: 1345864224
I0403 15:38:54.294361 10823 layer_factory.hpp:77] Creating layer pool5/7x7_s1
I0403 15:38:54.294378 10823 net.cpp:91] Creating Layer pool5/7x7_s1
I0403 15:38:54.294394 10823 net.cpp:425] pool5/7x7_s1 <- inception_5b/output
I0403 15:38:54.294415 10823 net.cpp:399] pool5/7x7_s1 -> pool5/7x7_s1
I0403 15:38:54.294631 10823 net.cpp:141] Setting up pool5/7x7_s1
I0403 15:38:54.294657 10823 net.cpp:148] Top shape: 24 1024 1 1 (24576)
I0403 15:38:54.294673 10823 net.cpp:156] Memory required for data: 1345962528
I0403 15:38:54.294687 10823 layer_factory.hpp:77] Creating layer pool5/drop_7x7_s1
I0403 15:38:54.294705 10823 net.cpp:91] Creating Layer pool5/drop_7x7_s1
I0403 15:38:54.294721 10823 net.cpp:425] pool5/drop_7x7_s1 <- pool5/7x7_s1
I0403 15:38:54.294739 10823 net.cpp:386] pool5/drop_7x7_s1 -> pool5/7x7_s1 (in-place)
I0403 15:38:54.294790 10823 net.cpp:141] Setting up pool5/drop_7x7_s1
I0403 15:38:54.294813 10823 net.cpp:148] Top shape: 24 1024 1 1 (24576)
I0403 15:38:54.294827 10823 net.cpp:156] Memory required for data: 1346060832
I0403 15:38:54.294842 10823 layer_factory.hpp:77] Creating layer loss3/classifier_plantvillage
I0403 15:38:54.294863 10823 net.cpp:91] Creating Layer loss3/classifier_plantvillage
I0403 15:38:54.294880 10823 net.cpp:425] loss3/classifier_plantvillage <- pool5/7x7_s1
I0403 15:38:54.294899 10823 net.cpp:399] loss3/classifier_plantvillage -> loss3/classifier_plantvillage
I0403 15:38:54.295331 10823 net.cpp:141] Setting up loss3/classifier_plantvillage
I0403 15:38:54.295356 10823 net.cpp:148] Top shape: 24 38 (912)
I0403 15:38:54.295370 10823 net.cpp:156] Memory required for data: 1346064480
I0403 15:38:54.295387 10823 layer_factory.hpp:77] Creating layer loss3/classifier_plantvillage_loss3/classifier_plantvillage_0_split
I0403 15:38:54.295406 10823 net.cpp:91] Creating Layer loss3/classifier_plantvillage_loss3/classifier_plantvillage_0_split
I0403 15:38:54.295423 10823 net.cpp:425] loss3/classifier_plantvillage_loss3/classifier_plantvillage_0_split <- loss3/classifier_plantvillage
I0403 15:38:54.295442 10823 net.cpp:399] loss3/classifier_plantvillage_loss3/classifier_plantvillage_0_split -> loss3/classifier_plantvillage_loss3/classifier_plantvillage_0_split_0
I0403 15:38:54.295462 10823 net.cpp:399] loss3/classifier_plantvillage_loss3/classifier_plantvillage_0_split -> loss3/classifier_plantvillage_loss3/classifier_plantvillage_0_split_1
I0403 15:38:54.295482 10823 net.cpp:399] loss3/classifier_plantvillage_loss3/classifier_plantvillage_0_split -> loss3/classifier_plantvillage_loss3/classifier_plantvillage_0_split_2
I0403 15:38:54.295503 10823 net.cpp:399] loss3/classifier_plantvillage_loss3/classifier_plantvillage_0_split -> loss3/classifier_plantvillage_loss3/classifier_plantvillage_0_split_3
I0403 15:38:54.295603 10823 net.cpp:141] Setting up loss3/classifier_plantvillage_loss3/classifier_plantvillage_0_split
I0403 15:38:54.295625 10823 net.cpp:148] Top shape: 24 38 (912)
I0403 15:38:54.295642 10823 net.cpp:148] Top shape: 24 38 (912)
I0403 15:38:54.295656 10823 net.cpp:148] Top shape: 24 38 (912)
I0403 15:38:54.295671 10823 net.cpp:148] Top shape: 24 38 (912)
I0403 15:38:54.295686 10823 net.cpp:156] Memory required for data: 1346079072
I0403 15:38:54.295699 10823 layer_factory.hpp:77] Creating layer loss1/loss
I0403 15:38:54.295720 10823 net.cpp:91] Creating Layer loss1/loss
I0403 15:38:54.295738 10823 net.cpp:425] loss1/loss <- loss1/classifier_plantvillage_loss1/classifier_plantvillage_0_split_0
I0403 15:38:54.295768 10823 net.cpp:425] loss1/loss <- label_data_1_split_0
…
