…
I0403 15:51:10.170747 11547 net.cpp:313] The NetState phase (1) differed from the phase (0) specified by a rule in layer data
I0403 15:51:10.171905 11547 net.cpp:49] Initializing net from parameters: 
state {
  phase: TEST
}
layer {
  name: "data"
  type: "Data"
  top: "data"
  top: "label"
  include {
    phase: TEST
  }
  transform_param {
    mirror: false
    crop_size: 224
    mean_file: "/home/mohanty/data/final_dataset/lmdb/segmented-80-20/mean.binaryproto"
  }
  data_param {
    source: "/home/mohanty/data/final_dataset/lmdb/segmented-80-20/test_db"
    batch_size: 24
    backend: LMDB
  }
}
layer {
  name: "conv1/7x7_s2"
  type: "Convolution"
  bottom: "data"
  top: "conv1/7x7_s2"
  param {
    lr_mult: 1
    decay_mult: 1
  }
  param {
    lr_mult: 2
    decay_mult: 0
  }
  convolution_param {
    num_output: 64
    pad: 3
    kernel_size: 7
    stride: 2
    weight_filler {
      type: "xavier"
      std: 0.1
    }
    bias_filler {
      type: "constant"
      value: 0.2
    }
  }
}
layer {
  name: "conv1/relu_7x7"
  type: "ReLU"
  bottom: "conv1/7x7_s2"
  top: "conv1/7x7_s2"
}
layer {
  name: "pool1/3x3_s2"
  type: "Pooling"
  bottom: "conv1/7x7_s2"
  top: "pool1/3x3_s2"
  pooling_param {
    pool: MAX
    kernel_size: 3
    stride: 2
  }
}
layer {
  name: "pool1/norm1"
  type: "LRN"
  bottom: "pool1/3x3_s2"
  top: "pool1/norm1"
  lrn_param {
    local_size: 5
    alpha: 0.0001
    beta: 0.75
  }
}
layer {
  name: "conv2/3x3_reduce"
  type: "Convolution"
  bottom: "pool1/norm1"
  top: "conv2/3x3_reduce"
  param {
    lr_mult: 1
    decay_mult: 1
  }
  param {
    lr_mult: 2
    decay_mult: 0
  }
  convolution_param {
    num_output: 64
    kernel_size: 1
    weight_filler {
      type: "xavier"
      std: 0.1
    }
    bias_filler {
      type: "constant"
      value: 0.2
    }
  }
}
layer {
  name: "conv2/relu_3x3_reduce"
  type: "ReLU"
  bottom: "conv2/3x3_reduce"
  top: "conv2/3x3_reduce"
}
layer {
  name: "conv2/3x3"
  type: "Convolution"
  bottom: "conv2/3x3_reduce"
  top: "conv2/3x3"
  param {
    lr_mult: 1
    decay_mult: 1
  }
  param {
    lr_mult: 2
    decay_mult: 0
  }
  convolution_param {
    num_output: 192
    pad: 1
    kernel_size: 3
    weight_filler {
      type: "xavier"
      std: 0.03
    }
    bias_filler {
      type: "constant"
      value: 0.2
    }
  }
}
layer {
  name: "conv2/relu_3x3"
  type: "ReLU"
  bottom: "conv2/3x3"
  top: "conv2/3x3"
}
layer {
  name: "conv2/norm2"
  type: "LRN"
  bottom: "conv2/3x3"
  top: "conv2/norm2"
  lrn_param {
    local_size: 5
    alpha: 0.0001
    beta: 0.75
  }
}
layer {
  name: "pool2/3x3_s2"
  type: "Pooling"
  bottom: "conv2/norm2"
  top: "pool2/3x3_s2"
  pooling_param {
    pool: MAX
    kernel_size: 3
    stride: 2
  }
}
layer {
  name: "inception_3a/1x1"
  type: "Convolution"
  bottom: "pool2/3x3_s2"
  top: "inception_3a/1x1"
  param {
    lr_mult: 1
    decay_mult: 1
  }
  param {
    lr_mult: 2
    decay_mult: 0
  }
  convolution_param {
    num_output: 64
    kernel_size: 1
    weight_filler {
      type: "xavier"
      std: 0.03
    }
    bias_filler {
      type: "constant"
      value: 0.2
    }
  }
}
layer {
  name: "inception_3a/relu_1x1"
  type: "ReLU"
  bottom: "inception_3a/1x1"
  top: "inception_3a/1x1"
}
layer {
  name: "inception_3a/3x3_reduce"
  type: "Convolution"
  bottom: "pool2/3x3_s2"
  top: "inception_3a/3x3_reduce"
  param {
    lr_mult: 1
    decay_mult: 1
  }
  param {
    lr_mult: 2
    decay_mult: 0
  }
  convolution_param {
    num_output: 96
    kernel_size: 1
    weight_filler {
      type: "xavier"
      std: 0.09
    }
    bias_filler {
      type: "constant"
      value: 0.2
    }
  }
}
layer {
  name: "inception_3a/relu_3x3_reduce"
  type: "ReLU"
  bottom: "inception_3a/3x3_reduce"
  top: "inception_3a/3x3_reduce"
}
layer {
  name: "inception_3a/3x3"
  type: "Convolution"
  bottom: "inception_3a/3x3_reduce"
  top: "inception_3a/3x3"
  param {
    lr_mult: 1
    decay_mult: 1
  }
  param {
    lr_mult: 2
    decay_mult: 0
  }
  convolution_param {
    num_output: 128
    pad: 1
    kernel_size: 3
    weight_filler {
      type: "xavier"
      std: 0.03
    }
    bias_filler {
      type: "constant"
      value: 0.2
    }
  }
}
layer {
  name: "inception_3a/relu_3x3"
  type: "ReLU"
  bottom: "inception_3a/3x3"
  top: "inception_3a/3x3"
}
layer {
  name: "inception_3a/5x5_reduce"
  type: "Convolution"
  bottom: "pool2/3x3_s2"
  top: "inception_3a/5x5_reduce"
  param {
    lr_mult: 1
    decay_mult: 1
  }
  param {
    lr_mult: 2
    decay_mult: 0
  }
  convolution_param {
    num_output: 16
    kernel_size: 1
    weight_filler {
      type: "xavier"
      std: 0.2
    }
    bias_filler {
      type: "constant"
      value: 0.2
    }
  }
}
layer {
  name: "inception_3a/relu_5x5_reduce"
  type: "ReLU"
  bottom: "inception_3a/5x5_reduce"
  top: "inception_3a/5x5_reduce"
}
layer {
  name: "inception_3a/5x5"
  type: "Convolution"
  bottom: "inception_3a/5x5_reduce"
  top: "inception_3a/5x5"
  param {
    lr_mult: 1
    decay_mult: 1
  }
  param {
    lr_mult: 2
    decay_mult: 0
  }
  convolution_param {
    num_output: 32
    pad: 2
    kernel_size: 5
    weight_filler {
      type: "xavier"
      std: 0.03
    }
    bias_filler {
      type: "constant"
      value: 0.2
    }
  }
}
layer {
  name: "inception_3a/relu_5x5"
  type: "ReLU"
  bottom: "inception_3a/5x5"
  top: "inception_3a/5x5"
}
layer {
  name: "inception_3a/pool"
  type: "Pooling"
  bottom: "pool2/3x3_s2"
  top: "inception_3a/pool"
  pooling_param {
    pool: MAX
    kernel_size: 3
    stride: 1
    pad: 1
  }
}
layer {
  name: "inception_3a/pool_proj"
  type: "Convolution"
  bottom: "inception_3a/pool"
  top: "inception_3a/pool_proj"
  param {
    lr_mult: 1
    decay_mult: 1
  }
  param {
    lr_mult: 2
    decay_mult: 0
  }
  convolution_param {
    num_output: 32
    kernel_size: 1
    weight_filler {
      type: "xavier"
      std: 0.1
    }
    bias_filler {
      type: "constant"
      value: 0.2
    }
  }
}
layer {
  name: "inception_3a/relu_pool_proj"
  type: "ReLU"
  bottom: "inception_3a/pool_proj"
  top: "inception_3a/pool_proj"
}
layer {
  name: "inception_3a/output"
  type: "Concat"
  bottom: "inception_3a/1x1"
  bottom: "inception_3a/3x3"
  bottom: "inception_3a/5x5"
  bottom: "inception_3a/pool_proj"
  top: "inception_3a/output"
}
layer {
  name: "inception_3b/1x1"
  type: "Convolution"
  bottom: "inception_3a/output"
  top: "inception_3b/1x1"
  param {
    lr_mult: 1
    decay_mult: 1
  }
  param {
    lr_mult: 2
    decay_mult: 0
  }
  convolution_param {
    num_output: 128
    kernel_size: 1
    weight_filler {
      type: "xavier"
      std: 0.03
    }
    bias_filler {
      type: "constant"
      value: 0.2
    }
  }
}
layer {
  name: "inception_3b/relu_1x1"
  type: "ReLU"
  bottom: "inception_3b/1x1"
  top: "inception_3b/1x1"
}
layer {
  name: "inception_3b/3x3_reduce"
  type: "Convolution"
  bottom: "inception_3a/output"
  top: "inception_3b/3x3_reduce"
  param {
    lr_mult: 1
    decay_mult: 1
  }
  param {
    lr_mult: 2
    decay_mult: 0
  }
  convolution_param {
    num_output: 128
    kernel_size: 1
    weight_filler {
      type: "xavier"
      std: 0.09
    }
    bias_filler {
      type: "constant"
      value: 0.2
    }
  }
}
layer {
  name: "inception_3b/relu_3x3_reduce"
  type: "ReLU"
  bottom: "inception_3b/3x3_reduce"
  top: "inception_3b/3x3_reduce"
}
layer {
  name: "inception_3b/3x3"
  type: "Convolution"
  bottom: "inception_3b/3x3_reduce"
  top: "inception_3b/3x3"
  param {
    lr_mult: 1
    decay_mult: 1
  }
  param {
    lr_mult: 2
    decay_mult: 0
  }
  convolution_param {
    num_output: 192
    pad: 1
    kernel_size: 3
    weight_filler {
      type: "xavier"
      std: 0.03
    }
    bias_filler {
      type: "constant"
      value: 0.2
    }
  }
}
layer {
  name: "inception_3b/relu_3x3"
  type: "ReLU"
  bottom: "inception_3b/3x3"
  top: "inception_3b/3x3"
}
layer {
  name: "inception_3b/5x5_reduce"
  type: "Convolution"
  bottom: "inception_3a/output"
  top: "inception_3b/5x5_reduce"
  param {
    lr_mult: 1
    decay_mult: 1
  }
  param {
    lr_mult: 2
    decay_mult: 0
  }
  convolution_param {
    num_output: 32
    kernel_size: 1
    weight_filler {
      type: "xavier"
      std: 0.2
    }
    bias_filler {
      type: "constant"
      value: 0.2
    }
  }
}
layer {
  name: "inception_3b/relu_5x5_reduce"
  type: "ReLU"
  bottom: "inception_3b/5x5_reduce"
  top: "inception_3b/5x5_reduce"
}
layer {
  name: "inception_3b/5x5"
  type: "Convolution"
  bottom: "inception_3b/5x5_reduce"
  top: "inception_3b/5x5"
  param {
    lr_mult: 1
    decay_mult: 1
  }
  param {
    lr_mult: 2
    decay_mult: 0
  }
  convolution_param {
    num_output: 96
    pad: 2
    kernel_size: 5
    weight_filler {
      type: "xavier"
      std: 0.03
    }
    bias_filler {
      type: "constant"
      value: 0.2
    }
  }
}
layer {
  name: "inception_3b/relu_5x5"
  type: "ReLU"
  bottom: "inception_3b/5x5"
  top: "inception_3b/5x5"
}
layer {
  name: "inception_3b/pool"
  type: "Pooling"
  bottom: "inception_3a/output"
  top: "inception_3b/pool"
  pooling_param {
    pool: MAX
    kernel_size: 3
    stride: 1
    pad: 1
  }
}
layer {
  name: "inception_3b/pool_proj"
  type: "Convolution"
  bottom: "inception_3b/pool"
  top: "inception_3b/pool_proj"
  param {
    lr_mult: 1
    decay_mult: 1
  }
  param {
    lr_mult: 2
    decay_mult: 0
  }
  convolution_param {
    num_output: 64
    kernel_size: 1
    weight_filler {
      type: "xavier"
      std: 0.1
    }
    bias_filler {
      type: "constant"
      value: 0.2
    }
  }
}
layer {
  name: "inception_3b/relu_pool_proj"
  type: "ReLU"
  bottom: "inception_3b/pool_proj"
  top: "inception_3b/pool_proj"
}
layer {
  name: "inception_3b/output"
  type: "Concat"
  bottom: "inception_3b/1x1"
  bottom: "inception_3b/3x3"
  bottom: "inception_3b/5x5"
  bottom: "inception_3b/pool_proj"
  top: "inception_3b/output"
}
layer {
  name: "pool3/3x3_s2"
  type: "Pooling"
  bottom: "inception_3b/output"
  top: "pool3/3x3_s2"
  pooling_param {
    pool: MAX
    kernel_size: 3
    stride: 2
  }
}
layer {
  name: "inception_4a/1x1"
  type: "Convolution"
  bottom: "pool3/3x3_s2"
  top: "inception_4a/1x1"
  param {
    lr_mult: 1
    decay_mult: 1
  }
  param {
    lr_mult: 2
    decay_mult: 0
  }
  convolution_param {
    num_output: 192
    kernel_size: 1
    weight_filler {
      type: "xavier"
      std: 0.03
    }
    bias_filler {
      type: "constant"
      value: 0.2
    }
  }
}
layer {
  name: "inception_4a/relu_1x1"
  type: "ReLU"
  bottom: "inception_4a/1x1"
  top: "inception_4a/1x1"
}
layer {
  name: "inception_4a/3x3_reduce"
  type: "Convolution"
  bottom: "pool3/3x3_s2"
  top: "inception_4a/3x3_reduce"
  param {
    lr_mult: 1
    decay_mult: 1
  }
  param {
    lr_mult: 2
    decay_mult: 0
  }
  convolution_param {
    num_output: 96
    kernel_size: 1
    weight_filler {
      type: "xavier"
      std: 0.09
    }
    bias_filler {
      type: "constant"
      value: 0.2
    }
  }
}
layer {
  name: "inception_4a/relu_3x3_reduce"
  type: "ReLU"
  bottom: "inception_4a/3x3_reduce"
  top: "inception_4a/3x3_reduce"
}
layer {
  name: "inception_4a/3x3"
  type: "Convolution"
  bottom: "inception_4a/3x3_reduce"
  top: "inception_4a/3x3"
  param {
    lr_mult: 1
    decay_mult: 1
  }
  param {
    lr_mult: 2
    decay_mult: 0
  }
  convolution_param {
    num_output: 208
    pad: 1
    kernel_size: 3
    weight_filler {
      type: "xavier"
      std: 0.03
    }
    bias_filler {
      type: "constant"
      value: 0.2
    }
  }
}
layer {
  name: "inception_4a/relu_3x3"
  type: "ReLU"
  bottom: "inception_4a/3x3"
  top: "inception_4a/3x3"
}
layer {
  name: "inception_4a/5x5_reduce"
  type: "Convolution"
  bottom: "pool3/3x3_s2"
  top: "inception_4a/5x5_reduce"
  param {
    lr_mult: 1
    decay_mult: 1
  }
  param {
    lr_mult: 2
    decay_mult: 0
  }
  convolution_param {
    num_output: 16
    kernel_size: 1
    weight_filler {
      type: "xavier"
      std: 0.2
    }
    bias_filler {
      type: "constant"
      value: 0.2
    }
  }
}
layer {
  name: "inception_4a/relu_5x5_reduce"
  type: "ReLU"
  bottom: "inception_4a/5x5_reduce"
  top: "inception_4a/5x5_reduce"
}
layer {
  name: "inception_4a/5x5"
  type: "Convolution"
  bottom: "inception_4a/5x5_reduce"
  top: "inception_4a/5x5"
  param {
    lr_mult: 1
    decay_mult: 1
  }
  param {
    lr_mult: 2
    decay_mult: 0
  }
  convolution_param {
    num_output: 48
    pad: 2
    kernel_size: 5
    weight_filler {
      type: "xavier"
      std: 0.03
    }
    bias_filler {
      type: "constant"
      value: 0.2
    }
  }
}
layer {
  name: "inception_4a/relu_5x5"
  type: "ReLU"
  bottom: "inception_4a/5x5"
  top: "inception_4a/5x5"
}
layer {
  name: "inception_4a/pool"
  type: "Pooling"
  bottom: "pool3/3x3_s2"
  top: "inception_4a/pool"
  pooling_param {
    pool: MAX
    kernel_size: 3
    stride: 1
    pad: 1
  }
}
layer {
  name: "inception_4a/pool_proj"
  type: "Convolution"
  bottom: "inception_4a/pool"
  top: "inception_4a/pool_proj"
  param {
    lr_mult: 1
    decay_mult: 1
  }
  param {
    lr_mult: 2
    decay_mult: 0
  }
  convolution_param {
    num_output: 64
    kernel_size: 1
    weight_filler {
      type: "xavier"
      std: 0.1
    }
    bias_filler {
      type: "constant"
      value: 0.2
    }
  }
}
layer {
  name: "inception_4a/relu_pool_proj"
  type: "ReLU"
  bottom: "inception_4a/pool_proj"
  top: "inception_4a/pool_proj"
}
layer {
  name: "inception_4a/output"
  type: "Concat"
  bottom: "inception_4a/1x1"
  bottom: "inception_4a/3x3"
  bottom: "inception_4a/5x5"
  bottom: "inception_4a/pool_proj"
  top: "inception_4a/output"
}
layer {
  name: "loss1/ave_pool"
  type: "Pooling"
  bottom: "inception_4a/output"
  top: "loss1/ave_pool"
  pooling_param {
    pool: AVE
    kernel_size: 5
    stride: 3
  }
}
layer {
  name: "loss1/conv"
  type: "Convolution"
  bottom: "loss1/ave_pool"
  top: "loss1/conv"
  param {
    lr_mult: 1
    decay_mult: 1
  }
  param {
    lr_mult: 2
    decay_mult: 0
  }
  convolution_param {
    num_output: 128
    kernel_size: 1
    weight_filler {
      type: "xavier"
      std: 0.08
    }
    bias_filler {
      type: "constant"
      value: 0.2
    }
  }
}
layer {
  name: "loss1/relu_conv"
  type: "ReLU"
  bottom: "loss1/conv"
  top: "loss1/conv"
}
layer {
  name: "loss1/fc"
  type: "InnerProduct"
  bottom: "loss1/conv"
  top: "loss1/fc"
  param {
    lr_mult: 1
    decay_mult: 1
  }
  param {
    lr_mult: 2
    decay_mult: 0
  }
  inner_product_param {
    num_output: 1024
    weight_filler {
      type: "xavier"
      std: 0.02
    }
    bias_filler {
      type: "constant"
      value: 0.2
    }
  }
}
layer {
  name: "loss1/relu_fc"
  type: "ReLU"
  bottom: "loss1/fc"
  top: "loss1/fc"
}
layer {
  name: "loss1/drop_fc"
  type: "Dropout"
  bottom: "loss1/fc"
  top: "loss1/fc"
  dropout_param {
    dropout_ratio: 0.7
  }
}
layer {
  name: "loss1/classifier_plantvillage"
  type: "InnerProduct"
  bottom: "loss1/fc"
  top: "loss1/classifier_plantvillage"
  param {
    lr_mult: 1
    decay_mult: 1
  }
  param {
    lr_mult: 2
    decay_mult: 0
  }
  inner_product_param {
    num_output: 38
    weight_filler {
      type: "xavier"
      std: 0.0009765625
    }
    bias_filler {
      type: "constant"
      value: 0
    }
  }
}
layer {
  name: "inception_4b/1x1"
  type: "Convolution"
  bottom: "inception_4a/output"
  top: "inception_4b/1x1"
  param {
    lr_mult: 1
    decay_mult: 1
  }
  param {
    lr_mult: 2
    decay_mult: 0
  }
  convolution_param {
    num_output: 160
    kernel_size: 1
    weight_filler {
      type: "xavier"
      std: 0.03
    }
    bias_filler {
      type: "constant"
      value: 0.2
    }
  }
}
layer {
  name: "inception_4b/relu_1x1"
  type: "ReLU"
  bottom: "inception_4b/1x1"
  top: "inception_4b/1x1"
}
layer {
  name: "inception_4b/3x3_reduce"
  type: "Convolution"
  bottom: "inception_4a/output"
  top: "inception_4b/3x3_reduce"
  param {
    lr_mult: 1
    decay_mult: 1
  }
  param {
    lr_mult: 2
    decay_mult: 0
  }
  convolution_param {
    num_output: 112
    kernel_size: 1
    weight_filler {
      type: "xavier"
      std: 0.09
    }
    bias_filler {
      type: "constant"
      value: 0.2
    }
  }
}
layer {
  name: "inception_4b/relu_3x3_reduce"
  type: "ReLU"
  bottom: "inception_4b/3x3_reduce"
  top: "inception_4b/3x3_reduce"
}
layer {
  name: "inception_4b/3x3"
  type: "Convolution"
  bottom: "inception_4b/3x3_reduce"
  top: "inception_4b/3x3"
  param {
    lr_mult: 1
    decay_mult: 1
  }
  param {
    lr_mult: 2
    decay_mult: 0
  }
  convolution_param {
    num_output: 224
    pad: 1
    kernel_size: 3
    weight_filler {
      type: "xavier"
      std: 0.03
    }
    bias_filler {
      type: "constant"
      value: 0.2
    }
  }
}
layer {
  name: "inception_4b/relu_3x3"
  type: "ReLU"
  bottom: "inception_4b/3x3"
  top: "inception_4b/3x3"
}
layer {
  name: "inception_4b/5x5_reduce"
  type: "Convolution"
  bottom: "inception_4a/output"
  top: "inception_4b/5x5_reduce"
  param {
    lr_mult: 1
    decay_mult: 1
  }
  param {
    lr_mult: 2
    decay_mult: 0
  }
  convolution_param {
    num_output: 24
    kernel_size: 1
    weight_filler {
      type: "xavier"
      std: 0.2
    }
    bias_filler {
      type: "constant"
      value: 0.2
    }
  }
}
layer {
  name: "inception_4b/relu_5x5_reduce"
  type: "ReLU"
  bottom: "inception_4b/5x5_reduce"
  top: "inception_4b/5x5_reduce"
}
layer {
  name: "inception_4b/5x5"
  type: "Convolution"
  bottom: "inception_4b/5x5_reduce"
  top: "inception_4b/5x5"
  param {
    lr_mult: 1
    decay_mult: 1
  }
  param {
    lr_mult: 2
    decay_mult: 0
  }
  convolution_param {
    num_output: 64
    pad: 2
    kernel_size: 5
    weight_filler {
      type: "xavier"
      std: 0.03
    }
    bias_filler {
      type: "constant"
      value: 0.2
    }
  }
}
layer {
  name: "inception_4b/relu_5x5"
  type: "ReLU"
  bottom: "inception_4b/5x5"
  top: "inception_4b/5x5"
}
layer {
  name: "inception_4b/pool"
  type: "Pooling"
  bottom: "inception_4a/output"
  top: "inception_4b/pool"
  pooling_param {
    pool: MAX
    kernel_size: 3
    stride: 1
    pad: 1
  }
}
layer {
  name: "inception_4b/pool_proj"
  type: "Convolution"
  bottom: "inception_4b/pool"
  top: "inception_4b/pool_proj"
  param {
    lr_mult: 1
    decay_mult: 1
  }
  param {
    lr_mult: 2
    decay_mult: 0
  }
  convolution_param {
    num_output: 64
    kernel_size: 1
    weight_filler {
      type: "xavier"
      std: 0.1
    }
    bias_filler {
      type: "constant"
      value: 0.2
    }
  }
}
layer {
  name: "inception_4b/relu_pool_proj"
  type: "ReLU"
  bottom: "inception_4b/pool_proj"
  top: "inception_4b/pool_proj"
}
layer {
  name: "inception_4b/output"
  type: "Concat"
  bottom: "inception_4b/1x1"
  bottom: "inception_4b/3x3"
  bottom: "inception_4b/5x5"
  bottom: "inception_4b/pool_proj"
  top: "inception_4b/output"
}
layer {
  name: "inception_4c/1x1"
  type: "Convolution"
  bottom: "inception_4b/output"
  top: "inception_4c/1x1"
  param {
    lr_mult: 1
    decay_mult: 1
  }
  param {
    lr_mult: 2
    decay_mult: 0
  }
  convolution_param {
    num_output: 128
    kernel_size: 1
    weight_filler {
      type: "xavier"
      std: 0.03
    }
    bias_filler {
      type: "constant"
      value: 0.2
    }
  }
}
layer {
  name: "inception_4c/relu_1x1"
  type: "ReLU"
  bottom: "inception_4c/1x1"
  top: "inception_4c/1x1"
}
layer {
  name: "inception_4c/3x3_reduce"
  type: "Convolution"
  bottom: "inception_4b/output"
  top: "inception_4c/3x3_reduce"
  param {
    lr_mult: 1
    decay_mult: 1
  }
  param {
    lr_mult: 2
    decay_mult: 0
  }
  convolution_param {
    num_output: 128
    kernel_size: 1
    weight_filler {
      type: "xavier"
      std: 0.09
    }
    bias_filler {
      type: "constant"
      value: 0.2
    }
  }
}
layer {
  name: "inception_4c/relu_3x3_reduce"
  type: "ReLU"
  bottom: "inception_4c/3x3_reduce"
  top: "inception_4c/3x3_reduce"
}
layer {
  name: "inception_4c/3x3"
  type: "Convolution"
  bottom: "inception_4c/3x3_reduce"
  top: "inception_4c/3x3"
  param {
    lr_mult: 1
    decay_mult: 1
  }
  param {
    lr_mult: 2
    decay_mult: 0
  }
  convolution_param {
    num_output: 256
    pad: 1
    kernel_size: 3
    weight_filler {
      type: "xavier"
      std: 0.03
    }
    bias_filler {
      type: "constant"
      value: 0.2
    }
  }
}
layer {
  name: "inception_4c/relu_3x3"
  type: "ReLU"
  bottom: "inception_4c/3x3"
  top: "inception_4c/3x3"
}
layer {
  name: "inception_4c/5x5_reduce"
  type: "Convolution"
  bottom: "inception_4b/output"
  top: "inception_4c/5x5_reduce"
  param {
    lr_mult: 1
    decay_mult: 1
  }
  param {
    lr_mult: 2
    decay_mult: 0
  }
  convolution_param {
    num_output: 24
    kernel_size: 1
    weight_filler {
      type: "xavier"
      std: 0.2
    }
    bias_filler {
      type: "constant"
      value: 0.2
    }
  }
}
layer {
  name: "inception_4c/relu_5x5_reduce"
  type: "ReLU"
  bottom: "inception_4c/5x5_reduce"
  top: "inception_4c/5x5_reduce"
}
layer {
  name: "inception_4c/5x5"
  type: "Convolution"
  bottom: "inception_4c/5x5_reduce"
  top: "inception_4c/5x5"
  param {
    lr_mult: 1
    decay_mult: 1
  }
  param {
    lr_mult: 2
    decay_mult: 0
  }
  convolution_param {
    num_output: 64
    pad: 2
    kernel_size: 5
    weight_filler {
      type: "xavier"
      std: 0.03
    }
    bias_filler {
      type: "constant"
      value: 0.2
    }
  }
}
layer {
  name: "inception_4c/relu_5x5"
  type: "ReLU"
  bottom: "inception_4c/5x5"
  top: "inception_4c/5x5"
}
layer {
  name: "inception_4c/pool"
  type: "Pooling"
  bottom: "inception_4b/output"
  top: "inception_4c/pool"
  pooling_param {
    pool: MAX
    kernel_size: 3
    stride: 1
    pad: 1
  }
}
layer {
  name: "inception_4c/pool_proj"
  type: "Convolution"
  bottom: "inception_4c/pool"
  top: "inception_4c/pool_proj"
  param {
    lr_mult: 1
    decay_mult: 1
  }
  param {
    lr_mult: 2
    decay_mult: 0
  }
  convolution_param {
    num_output: 64
    kernel_size: 1
    weight_filler {
      type: "xavier"
      std: 0.1
    }
    bias_filler {
      type: "constant"
      value: 0.2
    }
  }
}
layer {
  name: "inception_4c/relu_pool_proj"
  type: "ReLU"
  bottom: "inception_4c/pool_proj"
  top: "inception_4c/pool_proj"
}
layer {
  name: "inception_4c/output"
  type: "Concat"
  bottom: "inception_4c/1x1"
  bottom: "inception_4c/3x3"
  bottom: "inception_4c/5x5"
  bottom: "inception_4c/pool_proj"
  top: "inception_4c/output"
}
layer {
  name: "inception_4d/1x1"
  type: "Convolution"
  bottom: "inception_4c/output"
  top: "inception_4d/1x1"
  param {
    lr_mult: 1
    decay_mult: 1
  }
  param {
    lr_mult: 2
    decay_mult: 0
  }
  convolution_param {
    num_output: 112
    kernel_size: 1
    weight_filler {
      type: "xavier"
      std: 0.03
    }
    bias_filler {
      type: "constant"
      value: 0.2
    }
  }
}
layer {
  name: "inception_4d/relu_1x1"
  type: "ReLU"
  bottom: "inception_4d/1x1"
  top: "inception_4d/1x1"
}
layer {
  name: "inception_4d/3x3_reduce"
  type: "Convolution"
  bottom: "inception_4c/output"
  top: "inception_4d/3x3_reduce"
  param {
    lr_mult: 1
    decay_mult: 1
  }
  param {
    lr_mult: 2
    decay_mult: 0
  }
  convolution_param {
    num_output: 144
    kernel_size: 1
    weight_filler {
      type: "xavier"
      std: 0.09
    }
    bias_filler {
      type: "constant"
      value: 0.2
    }
  }
}
layer {
  name: "inception_4d/relu_3x3_reduce"
  type: "ReLU"
  bottom: "inception_4d/3x3_reduce"
  top: "inception_4d/3x3_reduce"
}
layer {
  name: "inception_4d/3x3"
  type: "Convolution"
  bottom: "inception_4d/3x3_reduce"
  top: "inception_4d/3x3"
  param {
    lr_mult: 1
    decay_mult: 1
  }
  param {
    lr_mult: 2
    decay_mult: 0
  }
  convolution_param {
    num_output: 288
    pad: 1
    kernel_size: 3
    weight_filler {
      type: "xavier"
      std: 0.03
    }
    bias_filler {
      type: "constant"
      value: 0.2
    }
  }
}
layer {
  name: "inception_4d/relu_3x3"
  type: "ReLU"
  bottom: "inception_4d/3x3"
  top: "inception_4d/3x3"
}
layer {
  name: "inception_4d/5x5_reduce"
  type: "Convolution"
  bottom: "inception_4c/output"
  top: "inception_4d/5x5_reduce"
  param {
    lr_mult: 1
    decay_mult: 1
  }
  param {
    lr_mult: 2
    decay_mult: 0
  }
  convolution_param {
    num_output: 32
    kernel_size: 1
    weight_filler {
      type: "xavier"
      std: 0.2
    }
    bias_filler {
      type: "constant"
      value: 0.2
    }
  }
}
layer {
  name: "inception_4d/relu_5x5_reduce"
  type: "ReLU"
  bottom: "inception_4d/5x5_reduce"
  top: "inception_4d/5x5_reduce"
}
layer {
  name: "inception_4d/5x5"
  type: "Convolution"
  bottom: "inception_4d/5x5_reduce"
  top: "inception_4d/5x5"
  param {
    lr_mult: 1
    decay_mult: 1
  }
  param {
    lr_mult: 2
    decay_mult: 0
  }
  convolution_param {
    num_output: 64
    pad: 2
    kernel_size: 5
    weight_filler {
      type: "xavier"
      std: 0.03
    }
    bias_filler {
      type: "constant"
      value: 0.2
    }
  }
}
layer {
  name: "inception_4d/relu_5x5"
  type: "ReLU"
  bottom: "inception_4d/5x5"
  top: "inception_4d/5x5"
}
layer {
  name: "inception_4d/pool"
  type: "Pooling"
  bottom: "inception_4c/output"
  top: "inception_4d/pool"
  pooling_param {
    pool: MAX
    kernel_size: 3
    stride: 1
    pad: 1
  }
}
layer {
  name: "inception_4d/pool_proj"
  type: "Convolution"
  bottom: "inception_4d/pool"
  top: "inception_4d/pool_proj"
  param {
    lr_mult: 1
    decay_mult: 1
  }
  param {
    lr_mult: 2
    decay_mult: 0
  }
  convolution_param {
    num_output: 64
    kernel_size: 1
    weight_filler {
      type: "xavier"
      std: 0.1
    }
    bias_filler {
      type: "constant"
      value: 0.2
    }
  }
}
layer {
  name: "inception_4d/relu_pool_proj"
  type: "ReLU"
  bottom: "inception_4d/pool_proj"
  top: "inception_4d/pool_proj"
}
layer {
  name: "inception_4d/output"
  type: "Concat"
  bottom: "inception_4d/1x1"
  bottom: "inception_4d/3x3"
  bottom: "inception_4d/5x5"
  bottom: "inception_4d/pool_proj"
  top: "inception_4d/output"
}
layer {
  name: "loss2/ave_pool"
  type: "Pooling"
  bottom: "inception_4d/output"
  top: "loss2/ave_pool"
  pooling_param {
    pool: AVE
    kernel_size: 5
    stride: 3
  }
}
layer {
  name: "loss2/conv"
  type: "Convolution"
  bottom: "loss2/ave_pool"
  top: "loss2/conv"
  param {
    lr_mult: 1
    decay_mult: 1
  }
  param {
    lr_mult: 2
    decay_mult: 0
  }
  convolution_param {
    num_output: 128
    kernel_size: 1
    weight_filler {
      type: "xavier"
      std: 0.08
    }
    bias_filler {
      type: "constant"
      value: 0.2
    }
  }
}
layer {
  name: "loss2/relu_conv"
  type: "ReLU"
  bottom: "loss2/conv"
  top: "loss2/conv"
}
layer {
  name: "loss2/fc"
  type: "InnerProduct"
  bottom: "loss2/conv"
  top: "loss2/fc"
  param {
    lr_mult: 1
    decay_mult: 1
  }
  param {
    lr_mult: 2
    decay_mult: 0
  }
  inner_product_param {
    num_output: 1024
    weight_filler {
      type: "xavier"
      std: 0.02
    }
    bias_filler {
      type: "constant"
      value: 0.2
    }
  }
}
layer {
  name: "loss2/relu_fc"
  type: "ReLU"
  bottom: "loss2/fc"
  top: "loss2/fc"
}
layer {
  name: "loss2/drop_fc"
  type: "Dropout"
  bottom: "loss2/fc"
  top: "loss2/fc"
  dropout_param {
    dropout_ratio: 0.7
  }
}
layer {
  name: "loss2/classifier_plantvillage"
  type: "InnerProduct"
  bottom: "loss2/fc"
  top: "loss2/classifier_plantvillage"
  param {
    lr_mult: 1
    decay_mult: 1
  }
  param {
    lr_mult: 2
    decay_mult: 0
  }
  inner_product_param {
    num_output: 38
    weight_filler {
      type: "xavier"
      std: 0.0009765625
    }
    bias_filler {
      type: "constant"
      value: 0
    }
  }
}
layer {
  name: "inception_4e/1x1"
  type: "Convolution"
  bottom: "inception_4d/output"
  top: "inception_4e/1x1"
  param {
    lr_mult: 1
    decay_mult: 1
  }
  param {
    lr_mult: 2
    decay_mult: 0
  }
  convolution_param {
    num_output: 256
    kernel_size: 1
    weight_filler {
      type: "xavier"
      std: 0.03
    }
    bias_filler {
      type: "constant"
      value: 0.2
    }
  }
}
layer {
  name: "inception_4e/relu_1x1"
  type: "ReLU"
  bottom: "inception_4e/1x1"
  top: "inception_4e/1x1"
}
layer {
  name: "inception_4e/3x3_reduce"
  type: "Convolution"
  bottom: "inception_4d/output"
  top: "inception_4e/3x3_reduce"
  param {
    lr_mult: 1
    decay_mult: 1
  }
  param {
    lr_mult: 2
    decay_mult: 0
  }
  convolution_param {
    num_output: 160
    kernel_size: 1
    weight_filler {
      type: "xavier"
      std: 0.09
    }
    bias_filler {
      type: "constant"
      value: 0.2
    }
  }
}
layer {
  name: "inception_4e/relu_3x3_reduce"
  type: "ReLU"
  bottom: "inception_4e/3x3_reduce"
  top: "inception_4e/3x3_reduce"
}
layer {
  name: "inception_4e/3x3"
  type: "Convolution"
  bottom: "inception_4e/3x3_reduce"
  top: "inception_4e/3x3"
  param {
    lr_mult: 1
    decay_mult: 1
  }
  param {
    lr_mult: 2
    decay_mult: 0
  }
  convolution_param {
    num_output: 320
    pad: 1
    kernel_size: 3
    weight_filler {
      type: "xavier"
      std: 0.03
    }
    bias_filler {
      type: "constant"
      value: 0.2
    }
  }
}
layer {
  name: "inception_4e/relu_3x3"
  type: "ReLU"
  bottom: "inception_4e/3x3"
  top: "inception_4e/3x3"
}
layer {
  name: "inception_4e/5x5_reduce"
  type: "Convolution"
  bottom: "inception_4d/output"
  top: "inception_4e/5x5_reduce"
  param {
    lr_mult: 1
    decay_mult: 1
  }
  param {
    lr_mult: 2
    decay_mult: 0
  }
  convolution_param {
    num_output: 32
    kernel_size: 1
    weight_filler {
      type: "xavier"
      std: 0.2
    }
    bias_filler {
      type: "constant"
      value: 0.2
    }
  }
}
layer {
  name: "inception_4e/relu_5x5_reduce"
  type: "ReLU"
  bottom: "inception_4e/5x5_reduce"
  top: "inception_4e/5x5_reduce"
}
layer {
  name: "inception_4e/5x5"
  type: "Convolution"
  bottom: "inception_4e/5x5_reduce"
  top: "inception_4e/
I0403 15:51:10.173177 11547 layer_factory.hpp:77] Creating layer data
I0403 15:51:10.173765 11547 net.cpp:91] Creating Layer data
I0403 15:51:10.173796 11547 net.cpp:399] data -> data
I0403 15:51:10.173846 11547 net.cpp:399] data -> label
I0403 15:51:10.173882 11547 data_transformer.cpp:25] Loading mean file from: /home/mohanty/data/final_dataset/lmdb/segmented-80-20/mean.binaryproto
I0403 15:51:10.177007 11550 db_lmdb.cpp:38] Opened lmdb /home/mohanty/data/final_dataset/lmdb/segmented-80-20/test_db
I0403 15:51:10.186872 11547 data_layer.cpp:41] output data size: 24,3,224,224
I0403 15:51:10.214506 11547 net.cpp:141] Setting up data
I0403 15:51:10.214598 11547 net.cpp:148] Top shape: 24 3 224 224 (3612672)
I0403 15:51:10.214622 11547 net.cpp:148] Top shape: 24 (24)
I0403 15:51:10.214637 11547 net.cpp:156] Memory required for data: 14450784
I0403 15:51:10.214665 11547 layer_factory.hpp:77] Creating layer label_data_1_split
I0403 15:51:10.214694 11547 net.cpp:91] Creating Layer label_data_1_split
I0403 15:51:10.214711 11547 net.cpp:425] label_data_1_split <- label
I0403 15:51:10.214743 11547 net.cpp:399] label_data_1_split -> label_data_1_split_0
I0403 15:51:10.214771 11547 net.cpp:399] label_data_1_split -> label_data_1_split_1
I0403 15:51:10.214792 11547 net.cpp:399] label_data_1_split -> label_data_1_split_2
I0403 15:51:10.214812 11547 net.cpp:399] label_data_1_split -> label_data_1_split_3
I0403 15:51:10.214833 11547 net.cpp:399] label_data_1_split -> label_data_1_split_4
I0403 15:51:10.214853 11547 net.cpp:399] label_data_1_split -> label_data_1_split_5
I0403 15:51:10.214872 11547 net.cpp:399] label_data_1_split -> label_data_1_split_6
I0403 15:51:10.214892 11547 net.cpp:399] label_data_1_split -> label_data_1_split_7
I0403 15:51:10.214912 11547 net.cpp:399] label_data_1_split -> label_data_1_split_8
I0403 15:51:10.214932 11547 net.cpp:399] label_data_1_split -> label_data_1_split_9
I0403 15:51:10.215054 11547 net.cpp:141] Setting up label_data_1_split
I0403 15:51:10.215078 11547 net.cpp:148] Top shape: 24 (24)
I0403 15:51:10.215095 11547 net.cpp:148] Top shape: 24 (24)
I0403 15:51:10.215111 11547 net.cpp:148] Top shape: 24 (24)
I0403 15:51:10.215127 11547 net.cpp:148] Top shape: 24 (24)
I0403 15:51:10.215142 11547 net.cpp:148] Top shape: 24 (24)
I0403 15:51:10.215158 11547 net.cpp:148] Top shape: 24 (24)
I0403 15:51:10.215174 11547 net.cpp:148] Top shape: 24 (24)
I0403 15:51:10.215190 11547 net.cpp:148] Top shape: 24 (24)
I0403 15:51:10.215207 11547 net.cpp:148] Top shape: 24 (24)
I0403 15:51:10.215224 11547 net.cpp:148] Top shape: 24 (24)
I0403 15:51:10.215266 11547 net.cpp:156] Memory required for data: 14451744
I0403 15:51:10.215283 11547 layer_factory.hpp:77] Creating layer conv1/7x7_s2
I0403 15:51:10.215314 11547 net.cpp:91] Creating Layer conv1/7x7_s2
I0403 15:51:10.215332 11547 net.cpp:425] conv1/7x7_s2 <- data
I0403 15:51:10.215353 11547 net.cpp:399] conv1/7x7_s2 -> conv1/7x7_s2
I0403 15:51:10.360214 11547 net.cpp:141] Setting up conv1/7x7_s2
I0403 15:51:10.360304 11547 net.cpp:148] Top shape: 24 64 112 112 (19267584)
I0403 15:51:10.360321 11547 net.cpp:156] Memory required for data: 91522080
I0403 15:51:10.360353 11547 layer_factory.hpp:77] Creating layer conv1/relu_7x7
I0403 15:51:10.360381 11547 net.cpp:91] Creating Layer conv1/relu_7x7
I0403 15:51:10.360400 11547 net.cpp:425] conv1/relu_7x7 <- conv1/7x7_s2
I0403 15:51:10.360419 11547 net.cpp:386] conv1/relu_7x7 -> conv1/7x7_s2 (in-place)
I0403 15:51:10.360672 11547 net.cpp:141] Setting up conv1/relu_7x7
I0403 15:51:10.360699 11547 net.cpp:148] Top shape: 24 64 112 112 (19267584)
I0403 15:51:10.360715 11547 net.cpp:156] Memory required for data: 168592416
I0403 15:51:10.360730 11547 layer_factory.hpp:77] Creating layer pool1/3x3_s2
I0403 15:51:10.360755 11547 net.cpp:91] Creating Layer pool1/3x3_s2
I0403 15:51:10.360774 11547 net.cpp:425] pool1/3x3_s2 <- conv1/7x7_s2
I0403 15:51:10.360791 11547 net.cpp:399] pool1/3x3_s2 -> pool1/3x3_s2
I0403 15:51:10.360865 11547 net.cpp:141] Setting up pool1/3x3_s2
I0403 15:51:10.360889 11547 net.cpp:148] Top shape: 24 64 56 56 (4816896)
I0403 15:51:10.360904 11547 net.cpp:156] Memory required for data: 187860000
I0403 15:51:10.360930 11547 layer_factory.hpp:77] Creating layer pool1/norm1
I0403 15:51:10.360956 11547 net.cpp:91] Creating Layer pool1/norm1
I0403 15:51:10.360991 11547 net.cpp:425] pool1/norm1 <- pool1/3x3_s2
I0403 15:51:10.361011 11547 net.cpp:399] pool1/norm1 -> pool1/norm1
I0403 15:51:10.361331 11547 net.cpp:141] Setting up pool1/norm1
I0403 15:51:10.361358 11547 net.cpp:148] Top shape: 24 64 56 56 (4816896)
I0403 15:51:10.361373 11547 net.cpp:156] Memory required for data: 207127584
I0403 15:51:10.361388 11547 layer_factory.hpp:77] Creating layer conv2/3x3_reduce
I0403 15:51:10.361413 11547 net.cpp:91] Creating Layer conv2/3x3_reduce
I0403 15:51:10.361429 11547 net.cpp:425] conv2/3x3_reduce <- pool1/norm1
I0403 15:51:10.361449 11547 net.cpp:399] conv2/3x3_reduce -> conv2/3x3_reduce
I0403 15:51:10.362751 11547 net.cpp:141] Setting up conv2/3x3_reduce
I0403 15:51:10.362779 11547 net.cpp:148] Top shape: 24 64 56 56 (4816896)
I0403 15:51:10.362795 11547 net.cpp:156] Memory required for data: 226395168
I0403 15:51:10.362818 11547 layer_factory.hpp:77] Creating layer conv2/relu_3x3_reduce
I0403 15:51:10.362836 11547 net.cpp:91] Creating Layer conv2/relu_3x3_reduce
I0403 15:51:10.362853 11547 net.cpp:425] conv2/relu_3x3_reduce <- conv2/3x3_reduce
I0403 15:51:10.362869 11547 net.cpp:386] conv2/relu_3x3_reduce -> conv2/3x3_reduce (in-place)
I0403 15:51:10.363121 11547 net.cpp:141] Setting up conv2/relu_3x3_reduce
I0403 15:51:10.363147 11547 net.cpp:148] Top shape: 24 64 56 56 (4816896)
I0403 15:51:10.363162 11547 net.cpp:156] Memory required for data: 245662752
I0403 15:51:10.363178 11547 layer_factory.hpp:77] Creating layer conv2/3x3
I0403 15:51:10.363198 11547 net.cpp:91] Creating Layer conv2/3x3
I0403 15:51:10.363215 11547 net.cpp:425] conv2/3x3 <- conv2/3x3_reduce
I0403 15:51:10.363234 11547 net.cpp:399] conv2/3x3 -> conv2/3x3
I0403 15:51:10.365434 11547 net.cpp:141] Setting up conv2/3x3
I0403 15:51:10.365465 11547 net.cpp:148] Top shape: 24 192 56 56 (14450688)
I0403 15:51:10.365481 11547 net.cpp:156] Memory required for data: 303465504
I0403 15:51:10.365504 11547 layer_factory.hpp:77] Creating layer conv2/relu_3x3
I0403 15:51:10.365525 11547 net.cpp:91] Creating Layer conv2/relu_3x3
I0403 15:51:10.365542 11547 net.cpp:425] conv2/relu_3x3 <- conv2/3x3
I0403 15:51:10.365559 11547 net.cpp:386] conv2/relu_3x3 -> conv2/3x3 (in-place)
I0403 15:51:10.365725 11547 net.cpp:141] Setting up conv2/relu_3x3
I0403 15:51:10.365749 11547 net.cpp:148] Top shape: 24 192 56 56 (14450688)
I0403 15:51:10.365792 11547 net.cpp:156] Memory required for data: 361268256
I0403 15:51:10.365808 11547 layer_factory.hpp:77] Creating layer conv2/norm2
I0403 15:51:10.365829 11547 net.cpp:91] Creating Layer conv2/norm2
I0403 15:51:10.365846 11547 net.cpp:425] conv2/norm2 <- conv2/3x3
I0403 15:51:10.365864 11547 net.cpp:399] conv2/norm2 -> conv2/norm2
I0403 15:51:10.366170 11547 net.cpp:141] Setting up conv2/norm2
I0403 15:51:10.366199 11547 net.cpp:148] Top shape: 24 192 56 56 (14450688)
I0403 15:51:10.366215 11547 net.cpp:156] Memory required for data: 419071008
I0403 15:51:10.366230 11547 layer_factory.hpp:77] Creating layer pool2/3x3_s2
I0403 15:51:10.366247 11547 net.cpp:91] Creating Layer pool2/3x3_s2
I0403 15:51:10.366263 11547 net.cpp:425] pool2/3x3_s2 <- conv2/norm2
I0403 15:51:10.366281 11547 net.cpp:399] pool2/3x3_s2 -> pool2/3x3_s2
I0403 15:51:10.366335 11547 net.cpp:141] Setting up pool2/3x3_s2
I0403 15:51:10.366359 11547 net.cpp:148] Top shape: 24 192 28 28 (3612672)
I0403 15:51:10.366374 11547 net.cpp:156] Memory required for data: 433521696
I0403 15:51:10.366389 11547 layer_factory.hpp:77] Creating layer pool2/3x3_s2_pool2/3x3_s2_0_split
I0403 15:51:10.366405 11547 net.cpp:91] Creating Layer pool2/3x3_s2_pool2/3x3_s2_0_split
I0403 15:51:10.366420 11547 net.cpp:425] pool2/3x3_s2_pool2/3x3_s2_0_split <- pool2/3x3_s2
I0403 15:51:10.366441 11547 net.cpp:399] pool2/3x3_s2_pool2/3x3_s2_0_split -> pool2/3x3_s2_pool2/3x3_s2_0_split_0
I0403 15:51:10.366461 11547 net.cpp:399] pool2/3x3_s2_pool2/3x3_s2_0_split -> pool2/3x3_s2_pool2/3x3_s2_0_split_1
I0403 15:51:10.366480 11547 net.cpp:399] pool2/3x3_s2_pool2/3x3_s2_0_split -> pool2/3x3_s2_pool2/3x3_s2_0_split_2
I0403 15:51:10.366499 11547 net.cpp:399] pool2/3x3_s2_pool2/3x3_s2_0_split -> pool2/3x3_s2_pool2/3x3_s2_0_split_3
I0403 15:51:10.366574 11547 net.cpp:141] Setting up pool2/3x3_s2_pool2/3x3_s2_0_split
I0403 15:51:10.366595 11547 net.cpp:148] Top shape: 24 192 28 28 (3612672)
I0403 15:51:10.366611 11547 net.cpp:148] Top shape: 24 192 28 28 (3612672)
I0403 15:51:10.366627 11547 net.cpp:148] Top shape: 24 192 28 28 (3612672)
I0403 15:51:10.366643 11547 net.cpp:148] Top shape: 24 192 28 28 (3612672)
I0403 15:51:10.366657 11547 net.cpp:156] Memory required for data: 491324448
I0403 15:51:10.366672 11547 layer_factory.hpp:77] Creating layer inception_3a/1x1
I0403 15:51:10.366693 11547 net.cpp:91] Creating Layer inception_3a/1x1
I0403 15:51:10.366710 11547 net.cpp:425] inception_3a/1x1 <- pool2/3x3_s2_pool2/3x3_s2_0_split_0
I0403 15:51:10.366731 11547 net.cpp:399] inception_3a/1x1 -> inception_3a/1x1
I0403 15:51:10.368264 11547 net.cpp:141] Setting up inception_3a/1x1
I0403 15:51:10.368295 11547 net.cpp:148] Top shape: 24 64 28 28 (1204224)
I0403 15:51:10.368312 11547 net.cpp:156] Memory required for data: 496141344
I0403 15:51:10.368331 11547 layer_factory.hpp:77] Creating layer inception_3a/relu_1x1
I0403 15:51:10.368350 11547 net.cpp:91] Creating Layer inception_3a/relu_1x1
I0403 15:51:10.368366 11547 net.cpp:425] inception_3a/relu_1x1 <- inception_3a/1x1
I0403 15:51:10.368386 11547 net.cpp:386] inception_3a/relu_1x1 -> inception_3a/1x1 (in-place)
I0403 15:51:10.368556 11547 net.cpp:141] Setting up inception_3a/relu_1x1
I0403 15:51:10.368580 11547 net.cpp:148] Top shape: 24 64 28 28 (1204224)
I0403 15:51:10.368595 11547 net.cpp:156] Memory required for data: 500958240
I0403 15:51:10.368609 11547 layer_factory.hpp:77] Creating layer inception_3a/3x3_reduce
I0403 15:51:10.368633 11547 net.cpp:91] Creating Layer inception_3a/3x3_reduce
I0403 15:51:10.368650 11547 net.cpp:425] inception_3a/3x3_reduce <- pool2/3x3_s2_pool2/3x3_s2_0_split_1
I0403 15:51:10.368674 11547 net.cpp:399] inception_3a/3x3_reduce -> inception_3a/3x3_reduce
I0403 15:51:10.370384 11547 net.cpp:141] Setting up inception_3a/3x3_reduce
I0403 15:51:10.370416 11547 net.cpp:148] Top shape: 24 96 28 28 (1806336)
I0403 15:51:10.370432 11547 net.cpp:156] Memory required for data: 508183584
I0403 15:51:10.370455 11547 layer_factory.hpp:77] Creating layer inception_3a/relu_3x3_reduce
I0403 15:51:10.370491 11547 net.cpp:91] Creating Layer inception_3a/relu_3x3_reduce
I0403 15:51:10.370507 11547 net.cpp:425] inception_3a/relu_3x3_reduce <- inception_3a/3x3_reduce
I0403 15:51:10.370527 11547 net.cpp:386] inception_3a/relu_3x3_reduce -> inception_3a/3x3_reduce (in-place)
I0403 15:51:10.370707 11547 net.cpp:141] Setting up inception_3a/relu_3x3_reduce
I0403 15:51:10.370733 11547 net.cpp:148] Top shape: 24 96 28 28 (1806336)
I0403 15:51:10.370750 11547 net.cpp:156] Memory required for data: 515408928
I0403 15:51:10.370765 11547 layer_factory.hpp:77] Creating layer inception_3a/3x3
I0403 15:51:10.370785 11547 net.cpp:91] Creating Layer inception_3a/3x3
I0403 15:51:10.370801 11547 net.cpp:425] inception_3a/3x3 <- inception_3a/3x3_reduce
I0403 15:51:10.370825 11547 net.cpp:399] inception_3a/3x3 -> inception_3a/3x3
I0403 15:51:10.372493 11547 net.cpp:141] Setting up inception_3a/3x3
I0403 15:51:10.372524 11547 net.cpp:148] Top shape: 24 128 28 28 (2408448)
I0403 15:51:10.372540 11547 net.cpp:156] Memory required for data: 525042720
I0403 15:51:10.372558 11547 layer_factory.hpp:77] Creating layer inception_3a/relu_3x3
I0403 15:51:10.372577 11547 net.cpp:91] Creating Layer inception_3a/relu_3x3
I0403 15:51:10.372593 11547 net.cpp:425] inception_3a/relu_3x3 <- inception_3a/3x3
I0403 15:51:10.372613 11547 net.cpp:386] inception_3a/relu_3x3 -> inception_3a/3x3 (in-place)
I0403 15:51:10.372889 11547 net.cpp:141] Setting up inception_3a/relu_3x3
I0403 15:51:10.372918 11547 net.cpp:148] Top shape: 24 128 28 28 (2408448)
I0403 15:51:10.372934 11547 net.cpp:156] Memory required for data: 534676512
I0403 15:51:10.372948 11547 layer_factory.hpp:77] Creating layer inception_3a/5x5_reduce
I0403 15:51:10.372972 11547 net.cpp:91] Creating Layer inception_3a/5x5_reduce
I0403 15:51:10.372992 11547 net.cpp:425] inception_3a/5x5_reduce <- pool2/3x3_s2_pool2/3x3_s2_0_split_2
I0403 15:51:10.373011 11547 net.cpp:399] inception_3a/5x5_reduce -> inception_3a/5x5_reduce
I0403 15:51:10.373960 11547 net.cpp:141] Setting up inception_3a/5x5_reduce
I0403 15:51:10.373991 11547 net.cpp:148] Top shape: 24 16 28 28 (301056)
I0403 15:51:10.374007 11547 net.cpp:156] Memory required for data: 535880736
I0403 15:51:10.374025 11547 layer_factory.hpp:77] Creating layer inception_3a/relu_5x5_reduce
I0403 15:51:10.374043 11547 net.cpp:91] Creating Layer inception_3a/relu_5x5_reduce
I0403 15:51:10.374064 11547 net.cpp:425] inception_3a/relu_5x5_reduce <- inception_3a/5x5_reduce
I0403 15:51:10.374081 11547 net.cpp:386] inception_3a/relu_5x5_reduce -> inception_3a/5x5_reduce (in-place)
I0403 15:51:10.374375 11547 net.cpp:141] Setting up inception_3a/relu_5x5_reduce
I0403 15:51:10.374402 11547 net.cpp:148] Top shape: 24 16 28 28 (301056)
I0403 15:51:10.374416 11547 net.cpp:156] Memory required for data: 537084960
I0403 15:51:10.374431 11547 layer_factory.hpp:77] Creating layer inception_3a/5x5
I0403 15:51:10.374454 11547 net.cpp:91] Creating Layer inception_3a/5x5
I0403 15:51:10.374470 11547 net.cpp:425] inception_3a/5x5 <- inception_3a/5x5_reduce
I0403 15:51:10.374490 11547 net.cpp:399] inception_3a/5x5 -> inception_3a/5x5
I0403 15:51:10.375494 11547 net.cpp:141] Setting up inception_3a/5x5
I0403 15:51:10.375524 11547 net.cpp:148] Top shape: 24 32 28 28 (602112)
I0403 15:51:10.375540 11547 net.cpp:156] Memory required for data: 539493408
I0403 15:51:10.375560 11547 layer_factory.hpp:77] Creating layer inception_3a/relu_5x5
I0403 15:51:10.375577 11547 net.cpp:91] Creating Layer inception_3a/relu_5x5
I0403 15:51:10.375593 11547 net.cpp:425] inception_3a/relu_5x5 <- inception_3a/5x5
I0403 15:51:10.375613 11547 net.cpp:386] inception_3a/relu_5x5 -> inception_3a/5x5 (in-place)
I0403 15:51:10.375788 11547 net.cpp:141] Setting up inception_3a/relu_5x5
I0403 15:51:10.375813 11547 net.cpp:148] Top shape: 24 32 28 28 (602112)
I0403 15:51:10.375828 11547 net.cpp:156] Memory required for data: 541901856
I0403 15:51:10.375843 11547 layer_factory.hpp:77] Creating layer inception_3a/pool
I0403 15:51:10.375859 11547 net.cpp:91] Creating Layer inception_3a/pool
I0403 15:51:10.375890 11547 net.cpp:425] inception_3a/pool <- pool2/3x3_s2_pool2/3x3_s2_0_split_3
I0403 15:51:10.375910 11547 net.cpp:399] inception_3a/pool -> inception_3a/pool
I0403 15:51:10.375967 11547 net.cpp:141] Setting up inception_3a/pool
I0403 15:51:10.375995 11547 net.cpp:148] Top shape: 24 192 28 28 (3612672)
I0403 15:51:10.376010 11547 net.cpp:156] Memory required for data: 556352544
I0403 15:51:10.376024 11547 layer_factory.hpp:77] Creating layer inception_3a/pool_proj
I0403 15:51:10.376049 11547 net.cpp:91] Creating Layer inception_3a/pool_proj
I0403 15:51:10.376068 11547 net.cpp:425] inception_3a/pool_proj <- inception_3a/pool
I0403 15:51:10.376087 11547 net.cpp:399] inception_3a/pool_proj -> inception_3a/pool_proj
I0403 15:51:10.377040 11547 net.cpp:141] Setting up inception_3a/pool_proj
I0403 15:51:10.377068 11547 net.cpp:148] Top shape: 24 32 28 28 (602112)
I0403 15:51:10.377084 11547 net.cpp:156] Memory required for data: 558760992
I0403 15:51:10.377109 11547 layer_factory.hpp:77] Creating layer inception_3a/relu_pool_proj
I0403 15:51:10.377130 11547 net.cpp:91] Creating Layer inception_3a/relu_pool_proj
I0403 15:51:10.377146 11547 net.cpp:425] inception_3a/relu_pool_proj <- inception_3a/pool_proj
I0403 15:51:10.377164 11547 net.cpp:386] inception_3a/relu_pool_proj -> inception_3a/pool_proj (in-place)
I0403 15:51:10.377437 11547 net.cpp:141] Setting up inception_3a/relu_pool_proj
I0403 15:51:10.377465 11547 net.cpp:148] Top shape: 24 32 28 28 (602112)
I0403 15:51:10.377480 11547 net.cpp:156] Memory required for data: 561169440
I0403 15:51:10.377496 11547 layer_factory.hpp:77] Creating layer inception_3a/output
I0403 15:51:10.377513 11547 net.cpp:91] Creating Layer inception_3a/output
I0403 15:51:10.377529 11547 net.cpp:425] inception_3a/output <- inception_3a/1x1
I0403 15:51:10.377547 11547 net.cpp:425] inception_3a/output <- inception_3a/3x3
I0403 15:51:10.377562 11547 net.cpp:425] inception_3a/output <- inception_3a/5x5
I0403 15:51:10.377578 11547 net.cpp:425] inception_3a/output <- inception_3a/pool_proj
I0403 15:51:10.377596 11547 net.cpp:399] inception_3a/output -> inception_3a/output
I0403 15:51:10.377642 11547 net.cpp:141] Setting up inception_3a/output
I0403 15:51:10.377665 11547 net.cpp:148] Top shape: 24 256 28 28 (4816896)
I0403 15:51:10.377679 11547 net.cpp:156] Memory required for data: 580437024
I0403 15:51:10.377693 11547 layer_factory.hpp:77] Creating layer inception_3a/output_inception_3a/output_0_split
I0403 15:51:10.377713 11547 net.cpp:91] Creating Layer inception_3a/output_inception_3a/output_0_split
I0403 15:51:10.377729 11547 net.cpp:425] inception_3a/output_inception_3a/output_0_split <- inception_3a/output
I0403 15:51:10.377746 11547 net.cpp:399] inception_3a/output_inception_3a/output_0_split -> inception_3a/output_inception_3a/output_0_split_0
I0403 15:51:10.377766 11547 net.cpp:399] inception_3a/output_inception_3a/output_0_split -> inception_3a/output_inception_3a/output_0_split_1
I0403 15:51:10.377792 11547 net.cpp:399] inception_3a/output_inception_3a/output_0_split -> inception_3a/output_inception_3a/output_0_split_2
I0403 15:51:10.377813 11547 net.cpp:399] inception_3a/output_inception_3a/output_0_split -> inception_3a/output_inception_3a/output_0_split_3
I0403 15:51:10.377885 11547 net.cpp:141] Setting up inception_3a/output_inception_3a/output_0_split
I0403 15:51:10.377909 11547 net.cpp:148] Top shape: 24 256 28 28 (4816896)
I0403 15:51:10.377928 11547 net.cpp:148] Top shape: 24 256 28 28 (4816896)
I0403 15:51:10.377943 11547 net.cpp:148] Top shape: 24 256 28 28 (4816896)
I0403 15:51:10.377959 11547 net.cpp:148] Top shape: 24 256 28 28 (4816896)
I0403 15:51:10.377972 11547 net.cpp:156] Memory required for data: 657507360
I0403 15:51:10.377991 11547 layer_factory.hpp:77] Creating layer inception_3b/1x1
I0403 15:51:10.378015 11547 net.cpp:91] Creating Layer inception_3b/1x1
I0403 15:51:10.378031 11547 net.cpp:425] inception_3b/1x1 <- inception_3a/output_inception_3a/output_0_split_0
I0403 15:51:10.378051 11547 net.cpp:399] inception_3b/1x1 -> inception_3b/1x1
I0403 15:51:10.379194 11547 net.cpp:141] Setting up inception_3b/1x1
I0403 15:51:10.379240 11547 net.cpp:148] Top shape: 24 128 28 28 (2408448)
I0403 15:51:10.379258 11547 net.cpp:156] Memory required for data: 667141152
I0403 15:51:10.379277 11547 layer_factory.hpp:77] Creating layer inception_3b/relu_1x1
I0403 15:51:10.379297 11547 net.cpp:91] Creating Layer inception_3b/relu_1x1
I0403 15:51:10.379313 11547 net.cpp:425] inception_3b/relu_1x1 <- inception_3b/1x1
I0403 15:51:10.379330 11547 net.cpp:386] inception_3b/relu_1x1 -> inception_3b/1x1 (in-place)
I0403 15:51:10.379520 11547 net.cpp:141] Setting up inception_3b/relu_1x1
I0403 15:51:10.379549 11547 net.cpp:148] Top shape: 24 128 28 28 (2408448)
I0403 15:51:10.379564 11547 net.cpp:156] Memory required for data: 676774944
I0403 15:51:10.379578 11547 layer_factory.hpp:77] Creating layer inception_3b/3x3_reduce
I0403 15:51:10.379601 11547 net.cpp:91] Creating Layer inception_3b/3x3_reduce
I0403 15:51:10.379618 11547 net.cpp:425] inception_3b/3x3_reduce <- inception_3a/output_inception_3a/output_0_split_1
I0403 15:51:10.379639 11547 net.cpp:399] inception_3b/3x3_reduce -> inception_3b/3x3_reduce
I0403 15:51:10.380765 11547 net.cpp:141] Setting up inception_3b/3x3_reduce
I0403 15:51:10.380794 11547 net.cpp:148] Top shape: 24 128 28 28 (2408448)
I0403 15:51:10.380808 11547 net.cpp:156] Memory required for data: 686408736
I0403 15:51:10.380827 11547 layer_factory.hpp:77] Creating layer inception_3b/relu_3x3_reduce
I0403 15:51:10.380847 11547 net.cpp:91] Creating Layer inception_3b/relu_3x3_reduce
I0403 15:51:10.380864 11547 net.cpp:425] inception_3b/relu_3x3_reduce <- inception_3b/3x3_reduce
I0403 15:51:10.380882 11547 net.cpp:386] inception_3b/relu_3x3_reduce -> inception_3b/3x3_reduce (in-place)
I0403 15:51:10.381059 11547 net.cpp:141] Setting up inception_3b/relu_3x3_reduce
I0403 15:51:10.381084 11547 net.cpp:148] Top shape: 24 128 28 28 (2408448)
I0403 15:51:10.381098 11547 net.cpp:156] Memory required for data: 696042528
I0403 15:51:10.381114 11547 layer_factory.hpp:77] Creating layer inception_3b/3x3
I0403 15:51:10.381139 11547 net.cpp:91] Creating Layer inception_3b/3x3
I0403 15:51:10.381156 11547 net.cpp:425] inception_3b/3x3 <- inception_3b/3x3_reduce
I0403 15:51:10.381177 11547 net.cpp:399] inception_3b/3x3 -> inception_3b/3x3
I0403 15:51:10.384148 11547 net.cpp:141] Setting up inception_3b/3x3
I0403 15:51:10.384179 11547 net.cpp:148] Top shape: 24 192 28 28 (3612672)
I0403 15:51:10.384196 11547 net.cpp:156] Memory required for data: 710493216
I0403 15:51:10.384215 11547 layer_factory.hpp:77] Creating layer inception_3b/relu_3x3
I0403 15:51:10.384233 11547 net.cpp:91] Creating Layer inception_3b/relu_3x3
I0403 15:51:10.384249 11547 net.cpp:425] inception_3b/relu_3x3 <- inception_3b/3x3
I0403 15:51:10.384268 11547 net.cpp:386] inception_3b/relu_3x3 -> inception_3b/3x3 (in-place)
I0403 15:51:10.384546 11547 net.cpp:141] Setting up inception_3b/relu_3x3
I0403 15:51:10.384573 11547 net.cpp:148] Top shape: 24 192 28 28 (3612672)
I0403 15:51:10.384589 11547 net.cpp:156] Memory required for data: 724943904
I0403 15:51:10.384604 11547 layer_factory.hpp:77] Creating layer inception_3b/5x5_reduce
I0403 15:51:10.384627 11547 net.cpp:91] Creating Layer inception_3b/5x5_reduce
I0403 15:51:10.384644 11547 net.cpp:425] inception_3b/5x5_reduce <- inception_3a/output_inception_3a/output_0_split_2
I0403 15:51:10.384663 11547 net.cpp:399] inception_3b/5x5_reduce -> inception_3b/5x5_reduce
I0403 15:51:10.385644 11547 net.cpp:141] Setting up inception_3b/5x5_reduce
I0403 15:51:10.385673 11547 net.cpp:148] Top shape: 24 32 28 28 (602112)
I0403 15:51:10.385690 11547 net.cpp:156] Memory required for data: 727352352
I0403 15:51:10.385710 11547 layer_factory.hpp:77] Creating layer inception_3b/relu_5x5_reduce
I0403 15:51:10.385727 11547 net.cpp:91] Creating Layer inception_3b/relu_5x5_reduce
I0403 15:51:10.385745 11547 net.cpp:425] inception_3b/relu_5x5_reduce <- inception_3b/5x5_reduce
I0403 15:51:10.385764 11547 net.cpp:386] inception_3b/relu_5x5_reduce -> inception_3b/5x5_reduce (in-place)
I0403 15:51:10.385954 11547 net.cpp:141] Setting up inception_3b/relu_5x5_reduce
I0403 15:51:10.385983 11547 net.cpp:148] Top shape: 24 32 28 28 (602112)
I0403 15:51:10.386000 11547 net.cpp:156] Memory required for data: 729760800
I0403 15:51:10.386014 11547 layer_factory.hpp:77] Creating layer inception_3b/5x5
I0403 15:51:10.386036 11547 net.cpp:91] Creating Layer inception_3b/5x5
I0403 15:51:10.386054 11547 net.cpp:425] inception_3b/5x5 <- inception_3b/5x5_reduce
I0403 15:51:10.386080 11547 net.cpp:399] inception_3b/5x5 -> inception_3b/5x5
I0403 15:51:10.388111 11547 net.cpp:141] Setting up inception_3b/5x5
I0403 15:51:10.388142 11547 net.cpp:148] Top shape: 24 96 28 28 (1806336)
I0403 15:51:10.388160 11547 net.cpp:156] Memory required for data: 736986144
I0403 15:51:10.388180 11547 layer_factory.hpp:77] Creating layer inception_3b/relu_5x5
I0403 15:51:10.388201 11547 net.cpp:91] Creating Layer inception_3b/relu_5x5
I0403 15:51:10.388231 11547 net.cpp:425] inception_3b/relu_5x5 <- inception_3b/5x5
I0403 15:51:10.388248 11547 net.cpp:386] inception_3b/relu_5x5 -> inception_3b/5x5 (in-place)
I0403 15:51:10.388443 11547 net.cpp:141] Setting up inception_3b/relu_5x5
I0403 15:51:10.388470 11547 net.cpp:148] Top shape: 24 96 28 28 (1806336)
I0403 15:51:10.388485 11547 net.cpp:156] Memory required for data: 744211488
I0403 15:51:10.388500 11547 layer_factory.hpp:77] Creating layer inception_3b/pool
I0403 15:51:10.388517 11547 net.cpp:91] Creating Layer inception_3b/pool
I0403 15:51:10.388535 11547 net.cpp:425] inception_3b/pool <- inception_3a/output_inception_3a/output_0_split_3
I0403 15:51:10.388553 11547 net.cpp:399] inception_3b/pool -> inception_3b/pool
I0403 15:51:10.388609 11547 net.cpp:141] Setting up inception_3b/pool
I0403 15:51:10.388633 11547 net.cpp:148] Top shape: 24 256 28 28 (4816896)
I0403 15:51:10.388648 11547 net.cpp:156] Memory required for data: 763479072
I0403 15:51:10.388662 11547 layer_factory.hpp:77] Creating layer inception_3b/pool_proj
I0403 15:51:10.388687 11547 net.cpp:91] Creating Layer inception_3b/pool_proj
I0403 15:51:10.388705 11547 net.cpp:425] inception_3b/pool_proj <- inception_3b/pool
I0403 15:51:10.388725 11547 net.cpp:399] inception_3b/pool_proj -> inception_3b/pool_proj
I0403 15:51:10.389801 11547 net.cpp:141] Setting up inception_3b/pool_proj
I0403 15:51:10.389828 11547 net.cpp:148] Top shape: 24 64 28 28 (1204224)
I0403 15:51:10.389844 11547 net.cpp:156] Memory required for data: 768295968
I0403 15:51:10.389863 11547 layer_factory.hpp:77] Creating layer inception_3b/relu_pool_proj
I0403 15:51:10.389884 11547 net.cpp:91] Creating Layer inception_3b/relu_pool_proj
I0403 15:51:10.389901 11547 net.cpp:425] inception_3b/relu_pool_proj <- inception_3b/pool_proj
I0403 15:51:10.389935 11547 net.cpp:386] inception_3b/relu_pool_proj -> inception_3b/pool_proj (in-place)
I0403 15:51:10.390362 11547 net.cpp:141] Setting up inception_3b/relu_pool_proj
I0403 15:51:10.390388 11547 net.cpp:148] Top shape: 24 64 28 28 (1204224)
I0403 15:51:10.390403 11547 net.cpp:156] Memory required for data: 773112864
I0403 15:51:10.390419 11547 layer_factory.hpp:77] Creating layer inception_3b/output
I0403 15:51:10.390436 11547 net.cpp:91] Creating Layer inception_3b/output
I0403 15:51:10.390452 11547 net.cpp:425] inception_3b/output <- inception_3b/1x1
I0403 15:51:10.390470 11547 net.cpp:425] inception_3b/output <- inception_3b/3x3
I0403 15:51:10.390486 11547 net.cpp:425] inception_3b/output <- inception_3b/5x5
I0403 15:51:10.390502 11547 net.cpp:425] inception_3b/output <- inception_3b/pool_proj
I0403 15:51:10.390522 11547 net.cpp:399] inception_3b/output -> inception_3b/output
I0403 15:51:10.390566 11547 net.cpp:141] Setting up inception_3b/output
I0403 15:51:10.390593 11547 net.cpp:148] Top shape: 24 480 28 28 (9031680)
I0403 15:51:10.390609 11547 net.cpp:156] Memory required for data: 809239584
I0403 15:51:10.390624 11547 layer_factory.hpp:77] Creating layer pool3/3x3_s2
I0403 15:51:10.390641 11547 net.cpp:91] Creating Layer pool3/3x3_s2
I0403 15:51:10.390657 11547 net.cpp:425] pool3/3x3_s2 <- inception_3b/output
I0403 15:51:10.390693 11547 net.cpp:399] pool3/3x3_s2 -> pool3/3x3_s2
I0403 15:51:10.390753 11547 net.cpp:141] Setting up pool3/3x3_s2
I0403 15:51:10.390776 11547 net.cpp:148] Top shape: 24 480 14 14 (2257920)
I0403 15:51:10.390791 11547 net.cpp:156] Memory required for data: 818271264
I0403 15:51:10.390805 11547 layer_factory.hpp:77] Creating layer pool3/3x3_s2_pool3/3x3_s2_0_split
I0403 15:51:10.390826 11547 net.cpp:91] Creating Layer pool3/3x3_s2_pool3/3x3_s2_0_split
I0403 15:51:10.390843 11547 net.cpp:425] pool3/3x3_s2_pool3/3x3_s2_0_split <- pool3/3x3_s2
I0403 15:51:10.390861 11547 net.cpp:399] pool3/3x3_s2_pool3/3x3_s2_0_split -> pool3/3x3_s2_pool3/3x3_s2_0_split_0
I0403 15:51:10.390880 11547 net.cpp:399] pool3/3x3_s2_pool3/3x3_s2_0_split -> pool3/3x3_s2_pool3/3x3_s2_0_split_1
I0403 15:51:10.390900 11547 net.cpp:399] pool3/3x3_s2_pool3/3x3_s2_0_split -> pool3/3x3_s2_pool3/3x3_s2_0_split_2
I0403 15:51:10.390923 11547 net.cpp:399] pool3/3x3_s2_pool3/3x3_s2_0_split -> pool3/3x3_s2_pool3/3x3_s2_0_split_3
I0403 15:51:10.391006 11547 net.cpp:141] Setting up pool3/3x3_s2_pool3/3x3_s2_0_split
I0403 15:51:10.391029 11547 net.cpp:148] Top shape: 24 480 14 14 (2257920)
I0403 15:51:10.391047 11547 net.cpp:148] Top shape: 24 480 14 14 (2257920)
I0403 15:51:10.391062 11547 net.cpp:148] Top shape: 24 480 14 14 (2257920)
I0403 15:51:10.391077 11547 net.cpp:148] Top shape: 24 480 14 14 (2257920)
I0403 15:51:10.391091 11547 net.cpp:156] Memory required for data: 854397984
I0403 15:51:10.391106 11547 layer_factory.hpp:77] Creating layer inception_4a/1x1
I0403 15:51:10.391129 11547 net.cpp:91] Creating Layer inception_4a/1x1
I0403 15:51:10.391146 11547 net.cpp:425] inception_4a/1x1 <- pool3/3x3_s2_pool3/3x3_s2_0_split_0
I0403 15:51:10.391167 11547 net.cpp:399] inception_4a/1x1 -> inception_4a/1x1
I0403 15:51:10.392760 11547 net.cpp:141] Setting up inception_4a/1x1
I0403 15:51:10.392787 11547 net.cpp:148] Top shape: 24 192 14 14 (903168)
I0403 15:51:10.392804 11547 net.cpp:156] Memory required for data: 858010656
I0403 15:51:10.392823 11547 layer_factory.hpp:77] Creating layer inception_4a/relu_1x1
I0403 15:51:10.392844 11547 net.cpp:91] Creating Layer inception_4a/relu_1x1
I0403 15:51:10.392861 11547 net.cpp:425] inception_4a/relu_1x1 <- inception_4a/1x1
I0403 15:51:10.392879 11547 net.cpp:386] inception_4a/relu_1x1 -> inception_4a/1x1 (in-place)
I0403 15:51:10.393064 11547 net.cpp:141] Setting up inception_4a/relu_1x1
I0403 15:51:10.393092 11547 net.cpp:148] Top shape: 24 192 14 14 (903168)
I0403 15:51:10.393110 11547 net.cpp:156] Memory required for data: 861623328
I0403 15:51:10.393124 11547 layer_factory.hpp:77] Creating layer inception_4a/3x3_reduce
I0403 15:51:10.393146 11547 net.cpp:91] Creating Layer inception_4a/3x3_reduce
I0403 15:51:10.393164 11547 net.cpp:425] inception_4a/3x3_reduce <- pool3/3x3_s2_pool3/3x3_s2_0_split_1
I0403 15:51:10.393184 11547 net.cpp:399] inception_4a/3x3_reduce -> inception_4a/3x3_reduce
I0403 15:51:10.394541 11547 net.cpp:141] Setting up inception_4a/3x3_reduce
I0403 15:51:10.394572 11547 net.cpp:148] Top shape: 24 96 14 14 (451584)
I0403 15:51:10.394587 11547 net.cpp:156] Memory required for data: 863429664
I0403 15:51:10.394613 11547 layer_factory.hpp:77] Creating layer inception_4a/relu_3x3_reduce
I0403 15:51:10.394634 11547 net.cpp:91] Creating Layer inception_4a/relu_3x3_reduce
I0403 15:51:10.394651 11547 net.cpp:425] inception_4a/relu_3x3_reduce <- inception_4a/3x3_reduce
I0403 15:51:10.394672 11547 net.cpp:386] inception_4a/relu_3x3_reduce -> inception_4a/3x3_reduce (in-place)
I0403 15:51:10.394856 11547 net.cpp:141] Setting up inception_4a/relu_3x3_reduce
I0403 15:51:10.394883 11547 net.cpp:148] Top shape: 24 96 14 14 (451584)
I0403 15:51:10.394901 11547 net.cpp:156] Memory required for data: 865236000
I0403 15:51:10.394917 11547 layer_factory.hpp:77] Creating layer inception_4a/3x3
I0403 15:51:10.394938 11547 net.cpp:91] Creating Layer inception_4a/3x3
I0403 15:51:10.394956 11547 net.cpp:425] inception_4a/3x3 <- inception_4a/3x3_reduce
I0403 15:51:10.394982 11547 net.cpp:399] inception_4a/3x3 -> inception_4a/3x3
I0403 15:51:10.397732 11547 net.cpp:141] Setting up inception_4a/3x3
I0403 15:51:10.397761 11547 net.cpp:148] Top shape: 24 208 14 14 (978432)
I0403 15:51:10.397778 11547 net.cpp:156] Memory required for data: 869149728
I0403 15:51:10.397797 11547 layer_factory.hpp:77] Creating layer inception_4a/relu_3x3
I0403 15:51:10.397819 11547 net.cpp:91] Creating Layer inception_4a/relu_3x3
I0403 15:51:10.397837 11547 net.cpp:425] inception_4a/relu_3x3 <- inception_4a/3x3
I0403 15:51:10.397855 11547 net.cpp:386] inception_4a/relu_3x3 -> inception_4a/3x3 (in-place)
I0403 15:51:10.398146 11547 net.cpp:141] Setting up inception_4a/relu_3x3
I0403 15:51:10.398174 11547 net.cpp:148] Top shape: 24 208 14 14 (978432)
I0403 15:51:10.398190 11547 net.cpp:156] Memory required for data: 873063456
I0403 15:51:10.398206 11547 layer_factory.hpp:77] Creating layer inception_4a/5x5_reduce
I0403 15:51:10.398231 11547 net.cpp:91] Creating Layer inception_4a/5x5_reduce
I0403 15:51:10.398249 11547 net.cpp:425] inception_4a/5x5_reduce <- pool3/3x3_s2_pool3/3x3_s2_0_split_2
I0403 15:51:10.398269 11547 net.cpp:399] inception_4a/5x5_reduce -> inception_4a/5x5_reduce
I0403 15:51:10.399322 11547 net.cpp:141] Setting up inception_4a/5x5_reduce
I0403 15:51:10.399353 11547 net.cpp:148] Top shape: 24 16 14 14 (75264)
I0403 15:51:10.399370 11547 net.cpp:156] Memory required for data: 873364512
I0403 15:51:10.399389 11547 layer_factory.hpp:77] Creating layer inception_4a/relu_5x5_reduce
I0403 15:51:10.399408 11547 net.cpp:91] Creating Layer inception_4a/relu_5x5_reduce
I0403 15:51:10.399425 11547 net.cpp:425] inception_4a/relu_5x5_reduce <- inception_4a/5x5_reduce
I0403 15:51:10.399444 11547 net.cpp:386] inception_4a/relu_5x5_reduce -> inception_4a/5x5_reduce (in-place)
I0403 15:51:10.399626 11547 net.cpp:141] Setting up inception_4a/relu_5x5_reduce
I0403 15:51:10.399652 11547 net.cpp:148] Top shape: 24 16 14 14 (75264)
I0403 15:51:10.399667 11547 net.cpp:156] Memory required for data: 873665568
I0403 15:51:10.399682 11547 layer_factory.hpp:77] Creating layer inception_4a/5x5
I0403 15:51:10.399704 11547 net.cpp:91] Creating Layer inception_4a/5x5
I0403 15:51:10.399723 11547 net.cpp:425] inception_4a/5x5 <- inception_4a/5x5_reduce
I0403 15:51:10.399744 11547 net.cpp:399] inception_4a/5x5 -> inception_4a/5x5
I0403 15:51:10.400856 11547 net.cpp:141] Setting up inception_4a/5x5
I0403 15:51:10.400884 11547 net.cpp:148] Top shape: 24 48 14 14 (225792)
I0403 15:51:10.400900 11547 net.cpp:156] Memory required for data: 874568736
I0403 15:51:10.400919 11547 layer_factory.hpp:77] Creating layer inception_4a/relu_5x5
I0403 15:51:10.400940 11547 net.cpp:91] Creating Layer inception_4a/relu_5x5
I0403 15:51:10.400957 11547 net.cpp:425] inception_4a/relu_5x5 <- inception_4a/5x5
I0403 15:51:10.400975 11547 net.cpp:386] inception_4a/relu_5x5 -> inception_4a/5x5 (in-place)
I0403 15:51:10.401165 11547 net.cpp:141] Setting up inception_4a/relu_5x5
I0403 15:51:10.401190 11547 net.cpp:148] Top shape: 24 48 14 14 (225792)
I0403 15:51:10.401206 11547 net.cpp:156] Memory required for data: 875471904
I0403 15:51:10.401221 11547 layer_factory.hpp:77] Creating layer inception_4a/pool
I0403 15:51:10.401243 11547 net.cpp:91] Creating Layer inception_4a/pool
I0403 15:51:10.401262 11547 net.cpp:425] inception_4a/pool <- pool3/3x3_s2_pool3/3x3_s2_0_split_3
I0403 15:51:10.401280 11547 net.cpp:399] inception_4a/pool -> inception_4a/pool
I0403 15:51:10.401345 11547 net.cpp:141] Setting up inception_4a/pool
I0403 15:51:10.401370 11547 net.cpp:148] Top shape: 24 480 14 14 (2257920)
I0403 15:51:10.401384 11547 net.cpp:156] Memory required for data: 884503584
I0403 15:51:10.401399 11547 layer_factory.hpp:77] Creating layer inception_4a/pool_proj
I0403 15:51:10.401422 11547 net.cpp:91] Creating Layer inception_4a/pool_proj
I0403 15:51:10.401439 11547 net.cpp:425] inception_4a/pool_proj <- inception_4a/pool
I0403 15:51:10.401461 11547 net.cpp:399] inception_4a/pool_proj -> inception_4a/pool_proj
I0403 15:51:10.402655 11547 net.cpp:141] Setting up inception_4a/pool_proj
I0403 15:51:10.402686 11547 net.cpp:148] Top shape: 24 64 14 14 (301056)
I0403 15:51:10.402717 11547 net.cpp:156] Memory required for data: 885707808
I0403 15:51:10.402739 11547 layer_factory.hpp:77] Creating layer inception_4a/relu_pool_proj
I0403 15:51:10.402760 11547 net.cpp:91] Creating Layer inception_4a/relu_pool_proj
I0403 15:51:10.402778 11547 net.cpp:425] inception_4a/relu_pool_proj <- inception_4a/pool_proj
I0403 15:51:10.402796 11547 net.cpp:386] inception_4a/relu_pool_proj -> inception_4a/pool_proj (in-place)
I0403 15:51:10.403089 11547 net.cpp:141] Setting up inception_4a/relu_pool_proj
I0403 15:51:10.403115 11547 net.cpp:148] Top shape: 24 64 14 14 (301056)
I0403 15:51:10.403131 11547 net.cpp:156] Memory required for data: 886912032
I0403 15:51:10.403146 11547 layer_factory.hpp:77] Creating layer inception_4a/output
I0403 15:51:10.403167 11547 net.cpp:91] Creating Layer inception_4a/output
I0403 15:51:10.403184 11547 net.cpp:425] inception_4a/output <- inception_4a/1x1
I0403 15:51:10.403203 11547 net.cpp:425] inception_4a/output <- inception_4a/3x3
I0403 15:51:10.403220 11547 net.cpp:425] inception_4a/output <- inception_4a/5x5
I0403 15:51:10.403236 11547 net.cpp:425] inception_4a/output <- inception_4a/pool_proj
I0403 15:51:10.403254 11547 net.cpp:399] inception_4a/output -> inception_4a/output
I0403 15:51:10.403301 11547 net.cpp:141] Setting up inception_4a/output
I0403 15:51:10.403324 11547 net.cpp:148] Top shape: 24 512 14 14 (2408448)
I0403 15:51:10.403339 11547 net.cpp:156] Memory required for data: 896545824
I0403 15:51:10.403354 11547 layer_factory.hpp:77] Creating layer inception_4a/output_inception_4a/output_0_split
I0403 15:51:10.403372 11547 net.cpp:91] Creating Layer inception_4a/output_inception_4a/output_0_split
I0403 15:51:10.403388 11547 net.cpp:425] inception_4a/output_inception_4a/output_0_split <- inception_4a/output
I0403 15:51:10.403409 11547 net.cpp:399] inception_4a/output_inception_4a/output_0_split -> inception_4a/output_inception_4a/output_0_split_0
I0403 15:51:10.403431 11547 net.cpp:399] inception_4a/output_inception_4a/output_0_split -> inception_4a/output_inception_4a/output_0_split_1
I0403 15:51:10.403452 11547 net.cpp:399] inception_4a/output_inception_4a/output_0_split -> inception_4a/output_inception_4a/output_0_split_2
I0403 15:51:10.403473 11547 net.cpp:399] inception_4a/output_inception_4a/output_0_split -> inception_4a/output_inception_4a/output_0_split_3
I0403 15:51:10.403493 11547 net.cpp:399] inception_4a/output_inception_4a/output_0_split -> inception_4a/output_inception_4a/output_0_split_4
I0403 15:51:10.403589 11547 net.cpp:141] Setting up inception_4a/output_inception_4a/output_0_split
I0403 15:51:10.403611 11547 net.cpp:148] Top shape: 24 512 14 14 (2408448)
I0403 15:51:10.403630 11547 net.cpp:148] Top shape: 24 512 14 14 (2408448)
I0403 15:51:10.403648 11547 net.cpp:148] Top shape: 24 512 14 14 (2408448)
I0403 15:51:10.403666 11547 net.cpp:148] Top shape: 24 512 14 14 (2408448)
I0403 15:51:10.403681 11547 net.cpp:148] Top shape: 24 512 14 14 (2408448)
I0403 15:51:10.403695 11547 net.cpp:156] Memory required for data: 944714784
I0403 15:51:10.403709 11547 layer_factory.hpp:77] Creating layer loss1/ave_pool
I0403 15:51:10.403728 11547 net.cpp:91] Creating Layer loss1/ave_pool
I0403 15:51:10.403744 11547 net.cpp:425] loss1/ave_pool <- inception_4a/output_inception_4a/output_0_split_0
I0403 15:51:10.403764 11547 net.cpp:399] loss1/ave_pool -> loss1/ave_pool
I0403 15:51:10.403975 11547 net.cpp:141] Setting up loss1/ave_pool
I0403 15:51:10.404006 11547 net.cpp:148] Top shape: 24 512 4 4 (196608)
I0403 15:51:10.404021 11547 net.cpp:156] Memory required for data: 945501216
I0403 15:51:10.404036 11547 layer_factory.hpp:77] Creating layer loss1/conv
I0403 15:51:10.404059 11547 net.cpp:91] Creating Layer loss1/conv
I0403 15:51:10.404078 11547 net.cpp:425] loss1/conv <- loss1/ave_pool
I0403 15:51:10.404098 11547 net.cpp:399] loss1/conv -> loss1/conv
I0403 15:51:10.405531 11547 net.cpp:141] Setting up loss1/conv
I0403 15:51:10.405562 11547 net.cpp:148] Top shape: 24 128 4 4 (49152)
I0403 15:51:10.405592 11547 net.cpp:156] Memory required for data: 945697824
I0403 15:51:10.405612 11547 layer_factory.hpp:77] Creating layer loss1/relu_conv
I0403 15:51:10.405632 11547 net.cpp:91] Creating Layer loss1/relu_conv
I0403 15:51:10.405647 11547 net.cpp:425] loss1/relu_conv <- loss1/conv
I0403 15:51:10.405668 11547 net.cpp:386] loss1/relu_conv -> loss1/conv (in-place)
I0403 15:51:10.405966 11547 net.cpp:141] Setting up loss1/relu_conv
I0403 15:51:10.405998 11547 net.cpp:148] Top shape: 24 128 4 4 (49152)
I0403 15:51:10.406015 11547 net.cpp:156] Memory required for data: 945894432
I0403 15:51:10.406030 11547 layer_factory.hpp:77] Creating layer loss1/fc
I0403 15:51:10.406054 11547 net.cpp:91] Creating Layer loss1/fc
I0403 15:51:10.406071 11547 net.cpp:425] loss1/fc <- loss1/conv
I0403 15:51:10.406092 11547 net.cpp:399] loss1/fc -> loss1/fc
I0403 15:51:10.423954 11547 net.cpp:141] Setting up loss1/fc
I0403 15:51:10.423990 11547 net.cpp:148] Top shape: 24 1024 (24576)
I0403 15:51:10.424006 11547 net.cpp:156] Memory required for data: 945992736
I0403 15:51:10.424026 11547 layer_factory.hpp:77] Creating layer loss1/relu_fc
I0403 15:51:10.424046 11547 net.cpp:91] Creating Layer loss1/relu_fc
I0403 15:51:10.424062 11547 net.cpp:425] loss1/relu_fc <- loss1/fc
I0403 15:51:10.424078 11547 net.cpp:386] loss1/relu_fc -> loss1/fc (in-place)
I0403 15:51:10.424260 11547 net.cpp:141] Setting up loss1/relu_fc
I0403 15:51:10.424291 11547 net.cpp:148] Top shape: 24 1024 (24576)
I0403 15:51:10.424307 11547 net.cpp:156] Memory required for data: 946091040
I0403 15:51:10.424321 11547 layer_factory.hpp:77] Creating layer loss1/drop_fc
I0403 15:51:10.424346 11547 net.cpp:91] Creating Layer loss1/drop_fc
I0403 15:51:10.424365 11547 net.cpp:425] loss1/drop_fc <- loss1/fc
I0403 15:51:10.424381 11547 net.cpp:386] loss1/drop_fc -> loss1/fc (in-place)
I0403 15:51:10.424434 11547 net.cpp:141] Setting up loss1/drop_fc
I0403 15:51:10.424458 11547 net.cpp:148] Top shape: 24 1024 (24576)
I0403 15:51:10.424471 11547 net.cpp:156] Memory required for data: 946189344
I0403 15:51:10.424485 11547 layer_factory.hpp:77] Creating layer loss1/classifier_plantvillage
I0403 15:51:10.424504 11547 net.cpp:91] Creating Layer loss1/classifier_plantvillage
I0403 15:51:10.424520 11547 net.cpp:425] loss1/classifier_plantvillage <- loss1/fc
I0403 15:51:10.424541 11547 net.cpp:399] loss1/classifier_plantvillage -> loss1/classifier_plantvillage
I0403 15:51:10.425454 11547 net.cpp:141] Setting up loss1/classifier_plantvillage
I0403 15:51:10.425482 11547 net.cpp:148] Top shape: 24 38 (912)
I0403 15:51:10.425498 11547 net.cpp:156] Memory required for data: 946192992
I0403 15:51:10.425514 11547 layer_factory.hpp:77] Creating layer loss1/classifier_plantvillage_loss1/classifier_plantvillage_0_split
I0403 15:51:10.425535 11547 net.cpp:91] Creating Layer loss1/classifier_plantvillage_loss1/classifier_plantvillage_0_split
I0403 15:51:10.425552 11547 net.cpp:425] loss1/classifier_plantvillage_loss1/classifier_plantvillage_0_split <- loss1/classifier_plantvillage
I0403 15:51:10.425570 11547 net.cpp:399] loss1/classifier_plantvillage_loss1/classifier_plantvillage_0_split -> loss1/classifier_plantvillage_loss1/classifier_plantvillage_0_split_0
I0403 15:51:10.425591 11547 net.cpp:399] loss1/classifier_plantvillage_loss1/classifier_plantvillage_0_split -> loss1/classifier_plantvillage_loss1/classifier_plantvillage_0_split_1
I0403 15:51:10.425614 11547 net.cpp:399] loss1/classifier_plantvillage_loss1/classifier_plantvillage_0_split -> loss1/classifier_plantvillage_loss1/classifier_plantvillage_0_split_2
I0403 15:51:10.425679 11547 net.cpp:141] Setting up loss1/classifier_plantvillage_loss1/classifier_plantvillage_0_split
I0403 15:51:10.425703 11547 net.cpp:148] Top shape: 24 38 (912)
I0403 15:51:10.425719 11547 net.cpp:148] Top shape: 24 38 (912)
I0403 15:51:10.425734 11547 net.cpp:148] Top shape: 24 38 (912)
I0403 15:51:10.425747 11547 net.cpp:156] Memory required for data: 946203936
I0403 15:51:10.425762 11547 layer_factory.hpp:77] Creating layer inception_4b/1x1
I0403 15:51:10.425784 11547 net.cpp:91] Creating Layer inception_4b/1x1
I0403 15:51:10.425817 11547 net.cpp:425] inception_4b/1x1 <- inception_4a/output_inception_4a/output_0_split_1
I0403 15:51:10.425837 11547 net.cpp:399] inception_4b/1x1 -> inception_4b/1x1
I0403 15:51:10.427466 11547 net.cpp:141] Setting up inception_4b/1x1
I0403 15:51:10.427497 11547 net.cpp:148] Top shape: 24 160 14 14 (752640)
I0403 15:51:10.427513 11547 net.cpp:156] Memory required for data: 949214496
I0403 15:51:10.427532 11547 layer_factory.hpp:77] Creating layer inception_4b/relu_1x1
I0403 15:51:10.427549 11547 net.cpp:91] Creating Layer inception_4b/relu_1x1
I0403 15:51:10.427566 11547 net.cpp:425] inception_4b/relu_1x1 <- inception_4b/1x1
I0403 15:51:10.427585 11547 net.cpp:386] inception_4b/relu_1x1 -> inception_4b/1x1 (in-place)
I0403 15:51:10.427762 11547 net.cpp:141] Setting up inception_4b/relu_1x1
I0403 15:51:10.427786 11547 net.cpp:148] Top shape: 24 160 14 14 (752640)
I0403 15:51:10.427801 11547 net.cpp:156] Memory required for data: 952225056
I0403 15:51:10.427815 11547 layer_factory.hpp:77] Creating layer inception_4b/3x3_reduce
I0403 15:51:10.427842 11547 net.cpp:91] Creating Layer inception_4b/3x3_reduce
I0403 15:51:10.427861 11547 net.cpp:425] inception_4b/3x3_reduce <- inception_4a/output_inception_4a/output_0_split_2
I0403 15:51:10.427882 11547 net.cpp:399] inception_4b/3x3_reduce -> inception_4b/3x3_reduce
I0403 15:51:10.429244 11547 net.cpp:141] Setting up inception_4b/3x3_reduce
I0403 15:51:10.429272 11547 net.cpp:148] Top shape: 24 112 14 14 (526848)
I0403 15:51:10.429287 11547 net.cpp:156] Memory required for data: 954332448
I0403 15:51:10.429306 11547 layer_factory.hpp:77] Creating layer inception_4b/relu_3x3_reduce
I0403 15:51:10.429324 11547 net.cpp:91] Creating Layer inception_4b/relu_3x3_reduce
I0403 15:51:10.429342 11547 net.cpp:425] inception_4b/relu_3x3_reduce <- inception_4b/3x3_reduce
I0403 15:51:10.429360 11547 net.cpp:386] inception_4b/relu_3x3_reduce -> inception_4b/3x3_reduce (in-place)
I0403 15:51:10.429644 11547 net.cpp:141] Setting up inception_4b/relu_3x3_reduce
I0403 15:51:10.429672 11547 net.cpp:148] Top shape: 24 112 14 14 (526848)
I0403 15:51:10.429687 11547 net.cpp:156] Memory required for data: 956439840
I0403 15:51:10.429702 11547 layer_factory.hpp:77] Creating layer inception_4b/3x3
I0403 15:51:10.429723 11547 net.cpp:91] Creating Layer inception_4b/3x3
I0403 15:51:10.429741 11547 net.cpp:425] inception_4b/3x3 <- inception_4b/3x3_reduce
I0403 15:51:10.429764 11547 net.cpp:399] inception_4b/3x3 -> inception_4b/3x3
I0403 15:51:10.432749 11547 net.cpp:141] Setting up inception_4b/3x3
I0403 15:51:10.432778 11547 net.cpp:148] Top shape: 24 224 14 14 (1053696)
I0403 15:51:10.432795 11547 net.cpp:156] Memory required for data: 960654624
I0403 15:51:10.432813 11547 layer_factory.hpp:77] Creating layer inception_4b/relu_3x3
I0403 15:51:10.432833 11547 net.cpp:91] Creating Layer inception_4b/relu_3x3
I0403 15:51:10.432852 11547 net.cpp:425] inception_4b/relu_3x3 <- inception_4b/3x3
I0403 15:51:10.432868 11547 net.cpp:386] inception_4b/relu_3x3 -> inception_4b/3x3 (in-place)
I0403 15:51:10.433074 11547 net.cpp:141] Setting up inception_4b/relu_3x3
I0403 15:51:10.433102 11547 net.cpp:148] Top shape: 24 224 14 14 (1053696)
I0403 15:51:10.433118 11547 net.cpp:156] Memory required for data: 964869408
I0403 15:51:10.433135 11547 layer_factory.hpp:77] Creating layer inception_4b/5x5_reduce
I0403 15:51:10.433158 11547 net.cpp:91] Creating Layer inception_4b/5x5_reduce
I0403 15:51:10.433188 11547 net.cpp:425] inception_4b/5x5_reduce <- inception_4a/output_inception_4a/output_0_split_3
I0403 15:51:10.433208 11547 net.cpp:399] inception_4b/5x5_reduce -> inception_4b/5x5_reduce
I0403 15:51:10.434316 11547 net.cpp:141] Setting up inception_4b/5x5_reduce
I0403 15:51:10.434345 11547 net.cpp:148] Top shape: 24 24 14 14 (112896)
I0403 15:51:10.434360 11547 net.cpp:156] Memory required for data: 965320992
I0403 15:51:10.434378 11547 layer_factory.hpp:77] Creating layer inception_4b/relu_5x5_reduce
I0403 15:51:10.434396 11547 net.cpp:91] Creating Layer inception_4b/relu_5x5_reduce
I0403 15:51:10.434427 11547 net.cpp:425] inception_4b/relu_5x5_reduce <- inception_4b/5x5_reduce
I0403 15:51:10.434448 11547 net.cpp:386] inception_4b/relu_5x5_reduce -> inception_4b/5x5_reduce (in-place)
I0403 15:51:10.434628 11547 net.cpp:141] Setting up inception_4b/relu_5x5_reduce
I0403 15:51:10.434653 11547 net.cpp:148] Top shape: 24 24 14 14 (112896)
I0403 15:51:10.434667 11547 net.cpp:156] Memory required for data: 965772576
I0403 15:51:10.434682 11547 layer_factory.hpp:77] Creating layer inception_4b/5x5
I0403 15:51:10.434703 11547 net.cpp:91] Creating Layer inception_4b/5x5
I0403 15:51:10.434722 11547 net.cpp:425] inception_4b/5x5 <- inception_4b/5x5_reduce
I0403 15:51:10.434743 11547 net.cpp:399] inception_4b/5x5 -> inception_4b/5x5
I0403 15:51:10.435956 11547 net.cpp:141] Setting up inception_4b/5x5
I0403 15:51:10.436003 11547 net.cpp:148] Top shape: 24 64 14 14 (301056)
I0403 15:51:10.436023 11547 net.cpp:156] Memory required for data: 966976800
I0403 15:51:10.436048 11547 layer_factory.hpp:77] Creating layer inception_4b/relu_5x5
I0403 15:51:10.436066 11547 net.cpp:91] Creating Layer inception_4b/relu_5x5
I0403 15:51:10.436084 11547 net.cpp:425] inception_4b/relu_5x5 <- inception_4b/5x5
I0403 15:51:10.436103 11547 net.cpp:386] inception_4b/relu_5x5 -> inception_4b/5x5 (in-place)
I0403 15:51:10.436403 11547 net.cpp:141] Setting up inception_4b/relu_5x5
I0403 15:51:10.436432 11547 net.cpp:148] Top shape: 24 64 14 14 (301056)
I0403 15:51:10.436450 11547 net.cpp:156] Memory required for data: 968181024
I0403 15:51:10.436465 11547 layer_factory.hpp:77] Creating layer inception_4b/pool
I0403 15:51:10.436483 11547 net.cpp:91] Creating Layer inception_4b/pool
I0403 15:51:10.436499 11547 net.cpp:425] inception_4b/pool <- inception_4a/output_inception_4a/output_0_split_4
I0403 15:51:10.436520 11547 net.cpp:399] inception_4b/pool -> inception_4b/pool
I0403 15:51:10.436585 11547 net.cpp:141] Setting up inception_4b/pool
I0403 15:51:10.436610 11547 net.cpp:148] Top shape: 24 512 14 14 (2408448)
I0403 15:51:10.436625 11547 net.cpp:156] Memory required for data: 977814816
I0403 15:51:10.436640 11547 layer_factory.hpp:77] Creating layer inception_4b/pool_proj
I0403 15:51:10.436662 11547 net.cpp:91] Creating Layer inception_4b/pool_proj
I0403 15:51:10.436681 11547 net.cpp:425] inception_4b/pool_proj <- inception_4b/pool
I0403 15:51:10.436702 11547 net.cpp:399] inception_4b/pool_proj -> inception_4b/pool_proj
I0403 15:51:10.437935 11547 net.cpp:141] Setting up inception_4b/pool_proj
I0403 15:51:10.437966 11547 net.cpp:148] Top shape: 24 64 14 14 (301056)
I0403 15:51:10.437988 11547 net.cpp:156] Memory required for data: 979019040
I0403 15:51:10.438007 11547 layer_factory.hpp:77] Creating layer inception_4b/relu_pool_proj
I0403 15:51:10.438026 11547 net.cpp:91] Creating Layer inception_4b/relu_pool_proj
I0403 15:51:10.438043 11547 net.cpp:425] inception_4b/relu_pool_proj <- inception_4b/pool_proj
I0403 15:51:10.438063 11547 net.cpp:386] inception_4b/relu_pool_proj -> inception_4b/pool_proj (in-place)
I0403 15:51:10.438263 11547 net.cpp:141] Setting up inception_4b/relu_pool_proj
I0403 15:51:10.438290 11547 net.cpp:148] Top shape: 24 64 14 14 (301056)
I0403 15:51:10.438307 11547 net.cpp:156] Memory required for data: 980223264
I0403 15:51:10.438321 11547 layer_factory.hpp:77] Creating layer inception_4b/output
I0403 15:51:10.438339 11547 net.cpp:91] Creating Layer inception_4b/output
I0403 15:51:10.438356 11547 net.cpp:425] inception_4b/output <- inception_4b/1x1
I0403 15:51:10.438374 11547 net.cpp:425] inception_4b/output <- inception_4b/3x3
I0403 15:51:10.438390 11547 net.cpp:425] inception_4b/output <- inception_4b/5x5
I0403 15:51:10.438407 11547 net.cpp:425] inception_4b/output <- inception_4b/pool_proj
I0403 15:51:10.438427 11547 net.cpp:399] inception_4b/output -> inception_4b/output
I0403 15:51:10.438489 11547 net.cpp:141] Setting up inception_4b/output
I0403 15:51:10.438513 11547 net.cpp:148] Top shape: 24 512 14 14 (2408448)
I0403 15:51:10.438527 11547 net.cpp:156] Memory required for data: 989857056
I0403 15:51:10.438556 11547 layer_factory.hpp:77] Creating layer inception_4b/output_inception_4b/output_0_split
I0403 15:51:10.438575 11547 net.cpp:91] Creating Layer inception_4b/output_inception_4b/output_0_split
I0403 15:51:10.438591 11547 net.cpp:425] inception_4b/output_inception_4b/output_0_split <- inception_4b/output
I0403 15:51:10.438611 11547 net.cpp:399] inception_4b/output_inception_4b/output_0_split -> inception_4b/output_inception_4b/output_0_split_0
I0403 15:51:10.438632 11547 net.cpp:399] inception_4b/output_inception_4b/output_0_split -> inception_4b/output_inception_4b/output_0_split_1
I0403 15:51:10.438654 11547 net.cpp:399] inception_4b/output_inception_4b/output_0_split -> inception_4b/output_inception_4b/output_0_split_2
I0403 15:51:10.438674 11547 net.cpp:399] inception_4b/output_inception_4b/output_0_split -> inception_4b/output_inception_4b/output_0_split_3
I0403 15:51:10.438760 11547 net.cpp:141] Setting up inception_4b/output_inception_4b/output_0_split
I0403 15:51:10.438783 11547 net.cpp:148] Top shape: 24 512 14 14 (2408448)
I0403 15:51:10.438801 11547 net.cpp:148] Top shape: 24 512 14 14 (2408448)
I0403 15:51:10.438815 11547 net.cpp:148] Top shape: 24 512 14 14 (2408448)
I0403 15:51:10.438832 11547 net.cpp:148] Top shape: 24 512 14 14 (2408448)
I0403 15:51:10.438846 11547 net.cpp:156] Memory required for data: 1028392224
I0403 15:51:10.438860 11547 layer_factory.hpp:77] Creating layer inception_4c/1x1
I0403 15:51:10.438884 11547 net.cpp:91] Creating Layer inception_4c/1x1
I0403 15:51:10.438902 11547 net.cpp:425] inception_4c/1x1 <- inception_4b/output_inception_4b/output_0_split_0
I0403 15:51:10.438922 11547 net.cpp:399] inception_4c/1x1 -> inception_4c/1x1
I0403 15:51:10.440408 11547 net.cpp:141] Setting up inception_4c/1x1
I0403 15:51:10.440438 11547 net.cpp:148] Top shape: 24 128 14 14 (602112)
I0403 15:51:10.440454 11547 net.cpp:156] Memory required for data: 1030800672
I0403 15:51:10.440471 11547 layer_factory.hpp:77] Creating layer inception_4c/relu_1x1
I0403 15:51:10.440493 11547 net.cpp:91] Creating Layer inception_4c/relu_1x1
I0403 15:51:10.440510 11547 net.cpp:425] inception_4c/relu_1x1 <- inception_4c/1x1
I0403 15:51:10.440528 11547 net.cpp:386] inception_4c/relu_1x1 -> inception_4c/1x1 (in-place)
I0403 15:51:10.440717 11547 net.cpp:141] Setting up inception_4c/relu_1x1
I0403 15:51:10.440745 11547 net.cpp:148] Top shape: 24 128 14 14 (602112)
I0403 15:51:10.440762 11547 net.cpp:156] Memory required for data: 1033209120
I0403 15:51:10.440776 11547 layer_factory.hpp:77] Creating layer inception_4c/3x3_reduce
I0403 15:51:10.440796 11547 net.cpp:91] Creating Layer inception_4c/3x3_reduce
I0403 15:51:10.440814 11547 net.cpp:425] inception_4c/3x3_reduce <- inception_4b/output_inception_4b/output_0_split_1
I0403 15:51:10.440836 11547 net.cpp:399] inception_4c/3x3_reduce -> inception_4c/3x3_reduce
I0403 15:51:10.442841 11547 net.cpp:141] Setting up inception_4c/3x3_reduce
I0403 15:51:10.442873 11547 net.cpp:148] Top shape: 24 128 14 14 (602112)
I0403 15:51:10.442890 11547 net.cpp:156] Memory required for data: 1035617568
I0403 15:51:10.442909 11547 layer_factory.hpp:77] Creating layer inception_4c/relu_3x3_reduce
I0403 15:51:10.442929 11547 net.cpp:91] Creating Layer inception_4c/relu_3x3_reduce
I0403 15:51:10.442945 11547 net.cpp:425] inception_4c/relu_3x3_reduce <- inception_4c/3x3_reduce
I0403 15:51:10.442963 11547 net.cpp:386] inception_4c/relu_3x3_reduce -> inception_4c/3x3_reduce (in-place)
I0403 15:51:10.443265 11547 net.cpp:141] Setting up inception_4c/relu_3x3_reduce
I0403 15:51:10.443295 11547 net.cpp:148] Top shape: 24 128 14 14 (602112)
I0403 15:51:10.443311 11547 net.cpp:156] Memory required for data: 1038026016
I0403 15:51:10.443326 11547 layer_factory.hpp:77] Creating layer inception_4c/3x3
I0403 15:51:10.443351 11547 net.cpp:91] Creating Layer inception_4c/3x3
I0403 15:51:10.443368 11547 net.cpp:425] inception_4c/3x3 <- inception_4c/3x3_reduce
I0403 15:51:10.443388 11547 net.cpp:399] inception_4c/3x3 -> inception_4c/3x3
I0403 15:51:10.447156 11547 net.cpp:141] Setting up inception_4c/3x3
I0403 15:51:10.447201 11547 net.cpp:148] Top shape: 24 256 14 14 (1204224)
I0403 15:51:10.447218 11547 net.cpp:156] Memory required for data: 1042842912
I0403 15:51:10.447250 11547 layer_factory.hpp:77] Creating layer inception_4c/relu_3x3
I0403 15:51:10.447271 11547 net.cpp:91] Creating Layer inception_4c/relu_3x3
I0403 15:51:10.447289 11547 net.cpp:425] inception_4c/relu_3x3 <- inception_4c/3x3
I0403 15:51:10.447309 11547 net.cpp:386] inception_4c/relu_3x3 -> inception_4c/3x3 (in-place)
I0403 15:51:10.447499 11547 net.cpp:141] Setting up inception_4c/relu_3x3
I0403 15:51:10.447525 11547 net.cpp:148] Top shape: 24 256 14 14 (1204224)
I0403 15:51:10.447540 11547 net.cpp:156] Memory required for data: 1047659808
I0403 15:51:10.447554 11547 layer_factory.hpp:77] Creating layer inception_4c/5x5_reduce
I0403 15:51:10.447582 11547 net.cpp:91] Creating Layer inception_4c/5x5_reduce
I0403 15:51:10.447600 11547 net.cpp:425] inception_4c/5x5_reduce <- inception_4b/output_inception_4b/output_0_split_2
I0403 15:51:10.447623 11547 net.cpp:399] inception_4c/5x5_reduce -> inception_4c/5x5_reduce
I0403 15:51:10.448768 11547 net.cpp:141] Setting up inception_4c/5x5_reduce
I0403 15:51:10.448799 11547 net.cpp:148] Top shape: 24 24 14 14 (112896)
I0403 15:51:10.448817 11547 net.cpp:156] Memory required for data: 1048111392
I0403 15:51:10.448835 11547 layer_factory.hpp:77] Creating layer inception_4c/relu_5x5_reduce
I0403 15:51:10.448853 11547 net.cpp:91] Creating Layer inception_4c/relu_5x5_reduce
I0403 15:51:10.448870 11547 net.cpp:425] inception_4c/relu_5x5_reduce <- inception_4c/5x5_reduce
I0403 15:51:10.448890 11547 net.cpp:386] inception_4c/relu_5x5_reduce -> inception_4c/5x5_reduce (in-place)
I0403 15:51:10.449095 11547 net.cpp:141] Setting up inception_4c/relu_5x5_reduce
I0403 15:51:10.449122 11547 net.cpp:148] Top shape: 24 24 14 14 (112896)
I0403 15:51:10.449137 11547 net.cpp:156] Memory required for data: 1048562976
I0403 15:51:10.449152 11547 layer_factory.hpp:77] Creating layer inception_4c/5x5
I0403 15:51:10.449175 11547 net.cpp:91] Creating Layer inception_4c/5x5
I0403 15:51:10.449193 11547 net.cpp:425] inception_4c/5x5 <- inception_4c/5x5_reduce
I0403 15:51:10.449216 11547 net.cpp:399] inception_4c/5x5 -> inception_4c/5x5
I0403 15:51:10.450489 11547 net.cpp:141] Setting up inception_4c/5x5
I0403 15:51:10.450517 11547 net.cpp:148] Top shape: 24 64 14 14 (301056)
I0403 15:51:10.450533 11547 net.cpp:156] Memory required for data: 1049767200
I0403 15:51:10.450552 11547 layer_factory.hpp:77] Creating layer inception_4c/relu_5x5
I0403 15:51:10.450573 11547 net.cpp:91] Creating Layer inception_4c/relu_5x5
I0403 15:51:10.450590 11547 net.cpp:425] inception_4c/relu_5x5 <- inception_4c/5x5
I0403 15:51:10.450608 11547 net.cpp:386] inception_4c/relu_5x5 -> inception_4c/5x5 (in-place)
I0403 15:51:10.450904 11547 net.cpp:141] Setting up inception_4c/relu_5x5
I0403 15:51:10.450932 11547 net.cpp:148] Top shape: 24 64 14 14 (301056)
I0403 15:51:10.450947 11547 net.cpp:156] Memory required for data: 1050971424
I0403 15:51:10.450963 11547 layer_factory.hpp:77] Creating layer inception_4c/pool
I0403 15:51:10.450984 11547 net.cpp:91] Creating Layer inception_4c/pool
I0403 15:51:10.451002 11547 net.cpp:425] inception_4c/pool <- inception_4b/output_inception_4b/output_0_split_3
I0403 15:51:10.451025 11547 net.cpp:399] inception_4c/pool -> inception_4c/pool
I0403 15:51:10.451092 11547 net.cpp:141] Setting up inception_4c/pool
I0403 15:51:10.451115 11547 net.cpp:148] Top shape: 24 512 14 14 (2408448)
I0403 15:51:10.451130 11547 net.cpp:156] Memory required for data: 1060605216
I0403 15:51:10.451145 11547 layer_factory.hpp:77] Creating layer inception_4c/pool_proj
I0403 15:51:10.451174 11547 net.cpp:91] Creating Layer inception_4c/pool_proj
I0403 15:51:10.451194 11547 net.cpp:425] inception_4c/pool_proj <- inception_4c/pool
I0403 15:51:10.451215 11547 net.cpp:399] inception_4c/pool_proj -> inception_4c/pool_proj
I0403 15:51:10.452477 11547 net.cpp:141] Setting up inception_4c/pool_proj
I0403 15:51:10.452508 11547 net.cpp:148] Top shape: 24 64 14 14 (301056)
I0403 15:51:10.452538 11547 net.cpp:156] Memory required for data: 1061809440
I0403 15:51:10.452558 11547 layer_factory.hpp:77] Creating layer inception_4c/relu_pool_proj
I0403 15:51:10.452577 11547 net.cpp:91] Creating Layer inception_4c/relu_pool_proj
I0403 15:51:10.452595 11547 net.cpp:425] inception_4c/relu_pool_proj <- inception_4c/pool_proj
I0403 15:51:10.452615 11547 net.cpp:386] inception_4c/relu_pool_proj -> inception_4c/pool_proj (in-place)
I0403 15:51:10.452805 11547 net.cpp:141] Setting up inception_4c/relu_pool_proj
I0403 15:51:10.452831 11547 net.cpp:148] Top shape: 24 64 14 14 (301056)
I0403 15:51:10.452847 11547 net.cpp:156] Memory required for data: 1063013664
I0403 15:51:10.452862 11547 layer_factory.hpp:77] Creating layer inception_4c/output
I0403 15:51:10.452879 11547 net.cpp:91] Creating Layer inception_4c/output
I0403 15:51:10.452896 11547 net.cpp:425] inception_4c/output <- inception_4c/1x1
I0403 15:51:10.452913 11547 net.cpp:425] inception_4c/output <- inception_4c/3x3
I0403 15:51:10.452929 11547 net.cpp:425] inception_4c/output <- inception_4c/5x5
I0403 15:51:10.452945 11547 net.cpp:425] inception_4c/output <- inception_4c/pool_proj
I0403 15:51:10.452965 11547 net.cpp:399] inception_4c/output -> inception_4c/output
I0403 15:51:10.453016 11547 net.cpp:141] Setting up inception_4c/output
I0403 15:51:10.453043 11547 net.cpp:148] Top shape: 24 512 14 14 (2408448)
I0403 15:51:10.453059 11547 net.cpp:156] Memory required for data: 1072647456
I0403 15:51:10.453074 11547 layer_factory.hpp:77] Creating layer inception_4c/output_inception_4c/output_0_split
I0403 15:51:10.453091 11547 net.cpp:91] Creating Layer inception_4c/output_inception_4c/output_0_split
I0403 15:51:10.453107 11547 net.cpp:425] inception_4c/output_inception_4c/output_0_split <- inception_4c/output
I0403 15:51:10.453126 11547 net.cpp:399] inception_4c/output_inception_4c/output_0_split -> inception_4c/output_inception_4c/output_0_split_0
I0403 15:51:10.453148 11547 net.cpp:399] inception_4c/output_inception_4c/output_0_split -> inception_4c/output_inception_4c/output_0_split_1
I0403 15:51:10.453171 11547 net.cpp:399] inception_4c/output_inception_4c/output_0_split -> inception_4c/output_inception_4c/output_0_split_2
I0403 15:51:10.453191 11547 net.cpp:399] inception_4c/output_inception_4c/output_0_split -> inception_4c/output_inception_4c/output_0_split_3
I0403 15:51:10.453282 11547 net.cpp:141] Setting up inception_4c/output_inception_4c/output_0_split
I0403 15:51:10.453306 11547 net.cpp:148] Top shape: 24 512 14 14 (2408448)
I0403 15:51:10.453322 11547 net.cpp:148] Top shape: 24 512 14 14 (2408448)
I0403 15:51:10.453338 11547 net.cpp:148] Top shape: 24 512 14 14 (2408448)
I0403 15:51:10.453354 11547 net.cpp:148] Top shape: 24 512 14 14 (2408448)
I0403 15:51:10.453368 11547 net.cpp:156] Memory required for data: 1111182624
I0403 15:51:10.453382 11547 layer_factory.hpp:77] Creating layer inception_4d/1x1
I0403 15:51:10.453408 11547 net.cpp:91] Creating Layer inception_4d/1x1
I0403 15:51:10.453425 11547 net.cpp:425] inception_4d/1x1 <- inception_4c/output_inception_4c/output_0_split_0
I0403 15:51:10.453444 11547 net.cpp:399] inception_4d/1x1 -> inception_4d/1x1
I0403 15:51:10.454870 11547 net.cpp:141] Setting up inception_4d/1x1
I0403 15:51:10.454898 11547 net.cpp:148] Top shape: 24 112 14 14 (526848)
I0403 15:51:10.454913 11547 net.cpp:156] Memory required for data: 1113290016
I0403 15:51:10.454931 11547 layer_factory.hpp:77] Creating layer inception_4d/relu_1x1
I0403 15:51:10.454952 11547 net.cpp:91] Creating Layer inception_4d/relu_1x1
I0403 15:51:10.454969 11547 net.cpp:425] inception_4d/relu_1x1 <- inception_4d/1x1
I0403 15:51:10.454991 11547 net.cpp:386] inception_4d/relu_1x1 -> inception_4d/1x1 (in-place)
I0403 15:51:10.455176 11547 net.cpp:141] Setting up inception_4d/relu_1x1
I0403 15:51:10.455204 11547 net.cpp:148] Top shape: 24 112 14 14 (526848)
I0403 15:51:10.455219 11547 net.cpp:156] Memory required for data: 1115397408
I0403 15:51:10.455235 11547 layer_factory.hpp:77] Creating layer inception_4d/3x3_reduce
I0403 15:51:10.455276 11547 net.cpp:91] Creating Layer inception_4d/3x3_reduce
I0403 15:51:10.455294 11547 net.cpp:425] inception_4d/3x3_reduce <- inception_4c/output_inception_4c/output_0_split_1
I0403 15:51:10.455317 11547 net.cpp:399] inception_4d/3x3_reduce -> inception_4d/3x3_reduce
I0403 15:51:10.456830 11547 net.cpp:141] Setting up inception_4d/3x3_reduce
I0403 15:51:10.456856 11547 net.cpp:148] Top shape: 24 144 14 14 (677376)
I0403 15:51:10.456872 11547 net.cpp:156] Memory required for data: 1118106912
I0403 15:51:10.456890 11547 layer_factory.hpp:77] Creating layer inception_4d/relu_3x3_reduce
I0403 15:51:10.456923 11547 net.cpp:91] Creating Layer inception_4d/relu_3x3_reduce
I0403 15:51:10.456941 11547 net.cpp:425] inception_4d/relu_3x3_reduce <- inception_4d/3x3_reduce
I0403 15:51:10.456959 11547 net.cpp:386] inception_4d/relu_3x3_reduce -> inception_4d/3x3_reduce (in-place)
I0403 15:51:10.457273 11547 net.cpp:141] Setting up inception_4d/relu_3x3_reduce
I0403 15:51:10.457298 11547 net.cpp:148] Top shape: 24 144 14 14 (677376)
I0403 15:51:10.457314 11547 net.cpp:156] Memory required for data: 1120816416
I0403 15:51:10.457329 11547 layer_factory.hpp:77] Creating layer inception_4d/3x3
I0403 15:51:10.457350 11547 net.cpp:91] Creating Layer inception_4d/3x3
I0403 15:51:10.457368 11547 net.cpp:425] inception_4d/3x3 <- inception_4d/3x3_reduce
I0403 15:51:10.457389 11547 net.cpp:399] inception_4d/3x3 -> inception_4d/3x3
I0403 15:51:10.461675 11547 net.cpp:141] Setting up inception_4d/3x3
I0403 15:51:10.461706 11547 net.cpp:148] Top shape: 24 288 14 14 (1354752)
I0403 15:51:10.461724 11547 net.cpp:156] Memory required for data: 1126235424
I0403 15:51:10.461742 11547 layer_factory.hpp:77] Creating layer inception_4d/relu_3x3
I0403 15:51:10.461760 11547 net.cpp:91] Creating Layer inception_4d/relu_3x3
I0403 15:51:10.461776 11547 net.cpp:425] inception_4d/relu_3x3 <- inception_4d/3x3
I0403 15:51:10.461792 11547 net.cpp:386] inception_4d/relu_3x3 -> inception_4d/3x3 (in-place)
I0403 15:51:10.461982 11547 net.cpp:141] Setting up inception_4d/relu_3x3
I0403 15:51:10.462009 11547 net.cpp:148] Top shape: 24 288 14 14 (1354752)
I0403 15:51:10.462025 11547 net.cpp:156] Memory required for data: 1131654432
I0403 15:51:10.462040 11547 layer_factory.hpp:77] Creating layer inception_4d/5x5_reduce
I0403 15:51:10.462062 11547 net.cpp:91] Creating Layer inception_4d/5x5_reduce
I0403 15:51:10.462080 11547 net.cpp:425] inception_4d/5x5_reduce <- inception_4c/output_inception_4c/output_0_split_2
I0403 15:51:10.462097 11547 net.cpp:399] inception_4d/5x5_reduce -> inception_4d/5x5_reduce
I0403 15:51:10.463253 11547 net.cpp:141] Setting up inception_4d/5x5_reduce
I0403 15:51:10.463280 11547 net.cpp:148] Top shape: 24 32 14 14 (150528)
I0403 15:51:10.463296 11547 net.cpp:156] Memory required for data: 1132256544
I0403 15:51:10.463315 11547 layer_factory.hpp:77] Creating layer inception_4d/relu_5x5_reduce
I0403 15:51:10.463335 11547 net.cpp:91] Creating Layer inception_4d/relu_5x5_reduce
I0403 15:51:10.463351 11547 net.cpp:425] inception_4d/relu_5x5_reduce <- inception_4d/5x5_reduce
I0403 15:51:10.463369 11547 net.cpp:386] inception_4d/relu_5x5_reduce -> inception_4d/5x5_reduce (in-place)
I0403 15:51:10.463560 11547 net.cpp:141] Setting up inception_4d/relu_5x5_reduce
I0403 15:51:10.463587 11547 net.cpp:148] Top shape: 24 32 14 14 (150528)
I0403 15:51:10.463600 11547 net.cpp:156] Memory required for data: 1132858656
I0403 15:51:10.463615 11547 layer_factory.hpp:77] Creating layer inception_4d/5x5
I0403 15:51:10.463637 11547 net.cpp:91] Creating Layer inception_4d/5x5
I0403 15:51:10.463655 11547 net.cpp:425] inception_4d/5x5 <- inception_4d/5x5_reduce
I0403 15:51:10.463677 11547 net.cpp:399] inception_4d/5x5 -> inception_4d/5x5
I0403 15:51:10.465155 11547 net.cpp:141] Setting up inception_4d/5x5
I0403 15:51:10.465183 11547 net.cpp:148] Top shape: 24 64 14 14 (301056)
I0403 15:51:10.465200 11547 net.cpp:156] Memory required for data: 1134062880
I0403 15:51:10.465219 11547 layer_factory.hpp:77] Creating layer inception_4d/relu_5x5
I0403 15:51:10.465251 11547 net.cpp:91] Creating Layer inception_4d/relu_5x5
I0403 15:51:10.465270 11547 net.cpp:425] inception_4d/relu_5x5 <- inception_4d/5x5
I0403 15:51:10.465289 11547 net.cpp:386] inception_4d/relu_5x5 -> inception_4d/5x5 (in-place)
I0403 15:51:10.465590 11547 net.cpp:141] Setting up inception_4d/relu_5x5
I0403 15:51:10.465616 11547 net.cpp:148] Top shape: 24 64 14 14 (301056)
I0403 15:51:10.465631 11547 net.cpp:156] Memory required for data: 1135267104
I0403 15:51:10.465646 11547 layer_factory.hpp:77] Creating layer inception_4d/pool
I0403 15:51:10.465664 11547 net.cpp:91] Creating Layer inception_4d/pool
I0403 15:51:10.465682 11547 net.cpp:425] inception_4d/pool <- inception_4c/output_inception_4c/output_0_split_3
I0403 15:51:10.465701 11547 net.cpp:399] inception_4d/pool -> inception_4d/pool
I0403 15:51:10.465769 11547 net.cpp:141] Setting up inception_4d/pool
I0403 15:51:10.465792 11547 net.cpp:148] Top shape: 24 512 14 14 (2408448)
I0403 15:51:10.465808 11547 net.cpp:156] Memory required for data: 1144900896
I0403 15:51:10.465822 11547 layer_factory.hpp:77] Creating layer inception_4d/pool_proj
I0403 15:51:10.465845 11547 net.cpp:91] Creating Layer inception_4d/pool_proj
I0403 15:51:10.465863 11547 net.cpp:425] inception_4d/pool_proj <- inception_4d/pool
I0403 15:51:10.465881 11547 net.cpp:399] inception_4d/pool_proj -> inception_4d/pool_proj
I0403 15:51:10.467665 11547 net.cpp:141] Setting up inception_4d/pool_proj
I0403 15:51:10.467696 11547 net.cpp:148] Top shape: 24 64 14 14 (301056)
I0403 15:51:10.467713 11547 net.cpp:156] Memory required for data: 1146105120
I0403 15:51:10.467731 11547 layer_factory.hpp:77] Creating layer inception_4d/relu_pool_proj
I0403 15:51:10.467749 11547 net.cpp:91] Creating Layer inception_4d/relu_pool_proj
I0403 15:51:10.467766 11547 net.cpp:425] inception_4d/relu_pool_proj <- inception_4d/pool_proj
I0403 15:51:10.467782 11547 net.cpp:386] inception_4d/relu_pool_proj -> inception_4d/pool_proj (in-place)
I0403 15:51:10.467969 11547 net.cpp:141] Setting up inception_4d/relu_pool_proj
I0403 15:51:10.468001 11547 net.cpp:148] Top shape: 24 64 14 14 (301056)
I0403 15:51:10.468017 11547 net.cpp:156] Memory required for data: 1147309344
I0403 15:51:10.468032 11547 layer_factory.hpp:77] Creating layer inception_4d/output
I0403 15:51:10.468050 11547 net.cpp:91] Creating Layer inception_4d/output
I0403 15:51:10.468066 11547 net.cpp:425] inception_4d/output <- inception_4d/1x1
I0403 15:51:10.468082 11547 net.cpp:425] inception_4d/output <- inception_4d/3x3
I0403 15:51:10.468098 11547 net.cpp:425] inception_4d/output <- inception_4d/5x5
I0403 15:51:10.468114 11547 net.cpp:425] inception_4d/output <- inception_4d/pool_proj
I0403 15:51:10.468133 11547 net.cpp:399] inception_4d/output -> inception_4d/output
I0403 15:51:10.468180 11547 net.cpp:141] Setting up inception_4d/output
I0403 15:51:10.468205 11547 net.cpp:148] Top shape: 24 528 14 14 (2483712)
I0403 15:51:10.468219 11547 net.cpp:156] Memory required for data: 1157244192
I0403 15:51:10.468233 11547 layer_factory.hpp:77] Creating layer inception_4d/output_inception_4d/output_0_split
I0403 15:51:10.468255 11547 net.cpp:91] Creating Layer inception_4d/output_inception_4d/output_0_split
I0403 15:51:10.468271 11547 net.cpp:425] inception_4d/output_inception_4d/output_0_split <- inception_4d/output
I0403 15:51:10.468289 11547 net.cpp:399] inception_4d/output_inception_4d/output_0_split -> inception_4d/output_inception_4d/output_0_split_0
I0403 15:51:10.468314 11547 net.cpp:399] inception_4d/output_inception_4d/output_0_split -> inception_4d/output_inception_4d/output_0_split_1
I0403 15:51:10.468335 11547 net.cpp:399] inception_4d/output_inception_4d/output_0_split -> inception_4d/output_inception_4d/output_0_split_2
I0403 15:51:10.468356 11547 net.cpp:399] inception_4d/output_inception_4d/output_0_split -> inception_4d/output_inception_4d/output_0_split_3
I0403 15:51:10.468376 11547 net.cpp:399] inception_4d/output_inception_4d/output_0_split -> inception_4d/output_inception_4d/output_0_split_4
I0403 15:51:10.468478 11547 net.cpp:141] Setting up inception_4d/output_inception_4d/output_0_split
I0403 15:51:10.468514 11547 net.cpp:148] Top shape: 24 528 14 14 (2483712)
I0403 15:51:10.468531 11547 net.cpp:148] Top shape: 24 528 14 14 (2483712)
I0403 15:51:10.468546 11547 net.cpp:148] Top shape: 24 528 14 14 (2483712)
I0403 15:51:10.468562 11547 net.cpp:148] Top shape: 24 528 14 14 (2483712)
I0403 15:51:10.468577 11547 net.cpp:148] Top shape: 24 528 14 14 (2483712)
I0403 15:51:10.468591 11547 net.cpp:156] Memory required for data: 1206918432
I0403 15:51:10.468606 11547 layer_factory.hpp:77] Creating layer loss2/ave_pool
I0403 15:51:10.468626 11547 net.cpp:91] Creating Layer loss2/ave_pool
I0403 15:51:10.468642 11547 net.cpp:425] loss2/ave_pool <- inception_4d/output_inception_4d/output_0_split_0
I0403 15:51:10.468662 11547 net.cpp:399] loss2/ave_pool -> loss2/ave_pool
I0403 15:51:10.468971 11547 net.cpp:141] Setting up loss2/ave_pool
I0403 15:51:10.469009 11547 net.cpp:148] Top shape: 24 528 4 4 (202752)
I0403 15:51:10.469027 11547 net.cpp:156] Memory required for data: 1207729440
I0403 15:51:10.469041 11547 layer_factory.hpp:77] Creating layer loss2/conv
I0403 15:51:10.469061 11547 net.cpp:91] Creating Layer loss2/conv
I0403 15:51:10.469079 11547 net.cpp:425] loss2/conv <- loss2/ave_pool
I0403 15:51:10.469099 11547 net.cpp:399] loss2/conv -> loss2/conv
I0403 15:51:10.471014 11547 net.cpp:141] Setting up loss2/conv
I0403 15:51:10.471043 11547 net.cpp:148] Top shape: 24 128 4 4 (49152)
I0403 15:51:10.471060 11547 net.cpp:156] Memory required for data: 1207926048
I0403 15:51:10.471077 11547 layer_factory.hpp:77] Creating layer loss2/relu_conv
I0403 15:51:10.471096 11547 net.cpp:91] Creating Layer loss2/relu_conv
I0403 15:51:10.471112 11547 net.cpp:425] loss2/relu_conv <- loss2/conv
I0403 15:51:10.471130 11547 net.cpp:386] loss2/relu_conv -> loss2/conv (in-place)
I0403 15:51:10.471421 11547 net.cpp:141] Setting up loss2/relu_conv
I0403 15:51:10.471448 11547 net.cpp:148] Top shape: 24 128 4 4 (49152)
I0403 15:51:10.471463 11547 net.cpp:156] Memory required for data: 1208122656
I0403 15:51:10.471478 11547 layer_factory.hpp:77] Creating layer loss2/fc
I0403 15:51:10.471498 11547 net.cpp:91] Creating Layer loss2/fc
I0403 15:51:10.471513 11547 net.cpp:425] loss2/fc <- loss2/conv
I0403 15:51:10.471535 11547 net.cpp:399] loss2/fc -> loss2/fc
I0403 15:51:10.489924 11547 net.cpp:141] Setting up loss2/fc
I0403 15:51:10.489961 11547 net.cpp:148] Top shape: 24 1024 (24576)
I0403 15:51:10.489981 11547 net.cpp:156] Memory required for data: 1208220960
I0403 15:51:10.490003 11547 layer_factory.hpp:77] Creating layer loss2/relu_fc
I0403 15:51:10.490025 11547 net.cpp:91] Creating Layer loss2/relu_fc
I0403 15:51:10.490043 11547 net.cpp:425] loss2/relu_fc <- loss2/fc
I0403 15:51:10.490062 11547 net.cpp:386] loss2/relu_fc -> loss2/fc (in-place)
I0403 15:51:10.490396 11547 net.cpp:141] Setting up loss2/relu_fc
I0403 15:51:10.490424 11547 net.cpp:148] Top shape: 24 1024 (24576)
I0403 15:51:10.490440 11547 net.cpp:156] Memory required for data: 1208319264
I0403 15:51:10.490455 11547 layer_factory.hpp:77] Creating layer loss2/drop_fc
I0403 15:51:10.490474 11547 net.cpp:91] Creating Layer loss2/drop_fc
I0403 15:51:10.490491 11547 net.cpp:425] loss2/drop_fc <- loss2/fc
I0403 15:51:10.490509 11547 net.cpp:386] loss2/drop_fc -> loss2/fc (in-place)
I0403 15:51:10.490562 11547 net.cpp:141] Setting up loss2/drop_fc
I0403 15:51:10.490586 11547 net.cpp:148] Top shape: 24 1024 (24576)
I0403 15:51:10.490600 11547 net.cpp:156] Memory required for data: 1208417568
I0403 15:51:10.490615 11547 layer_factory.hpp:77] Creating layer loss2/classifier_plantvillage
I0403 15:51:10.490638 11547 net.cpp:91] Creating Layer loss2/classifier_plantvillage
I0403 15:51:10.490655 11547 net.cpp:425] loss2/classifier_plantvillage <- loss2/fc
I0403 15:51:10.490674 11547 net.cpp:399] loss2/classifier_plantvillage -> loss2/classifier_plantvillage
I0403 15:51:10.491106 11547 net.cpp:141] Setting up loss2/classifier_plantvillage
I0403 15:51:10.491132 11547 net.cpp:148] Top shape: 24 38 (912)
I0403 15:51:10.491163 11547 net.cpp:156] Memory required for data: 1208421216
I0403 15:51:10.491183 11547 layer_factory.hpp:77] Creating layer loss2/classifier_plantvillage_loss2/classifier_plantvillage_0_split
I0403 15:51:10.491200 11547 net.cpp:91] Creating Layer loss2/classifier_plantvillage_loss2/classifier_plantvillage_0_split
I0403 15:51:10.491216 11547 net.cpp:425] loss2/classifier_plantvillage_loss2/classifier_plantvillage_0_split <- loss2/classifier_plantvillage
I0403 15:51:10.491237 11547 net.cpp:399] loss2/classifier_plantvillage_loss2/classifier_plantvillage_0_split -> loss2/classifier_plantvillage_loss2/classifier_plantvillage_0_split_0
I0403 15:51:10.491257 11547 net.cpp:399] loss2/classifier_plantvillage_loss2/classifier_plantvillage_0_split -> loss2/classifier_plantvillage_loss2/classifier_plantvillage_0_split_1
I0403 15:51:10.491277 11547 net.cpp:399] loss2/classifier_plantvillage_loss2/classifier_plantvillage_0_split -> loss2/classifier_plantvillage_loss2/classifier_plantvillage_0_split_2
I0403 15:51:10.491361 11547 net.cpp:141] Setting up loss2/classifier_plantvillage_loss2/classifier_plantvillage_0_split
I0403 15:51:10.491386 11547 net.cpp:148] Top shape: 24 38 (912)
I0403 15:51:10.491405 11547 net.cpp:148] Top shape: 24 38 (912)
I0403 15:51:10.491420 11547 net.cpp:148] Top shape: 24 38 (912)
I0403 15:51:10.491433 11547 net.cpp:156] Memory required for data: 1208432160
I0403 15:51:10.491448 11547 layer_factory.hpp:77] Creating layer inception_4e/1x1
I0403 15:51:10.491468 11547 net.cpp:91] Creating Layer inception_4e/1x1
I0403 15:51:10.491484 11547 net.cpp:425] inception_4e/1x1 <- inception_4d/output_inception_4d/output_0_split_1
I0403 15:51:10.491505 11547 net.cpp:399] inception_4e/1x1 -> inception_4e/1x1
I0403 15:51:10.493335 11547 net.cpp:141] Setting up inception_4e/1x1
I0403 15:51:10.493362 11547 net.cpp:148] Top shape: 24 256 14 14 (1204224)
I0403 15:51:10.493378 11547 net.cpp:156] Memory required for data: 1213249056
I0403 15:51:10.493397 11547 layer_factory.hpp:77] Creating layer inception_4e/relu_1x1
I0403 15:51:10.493415 11547 net.cpp:91] Creating Layer inception_4e/relu_1x1
I0403 15:51:10.493432 11547 net.cpp:425] inception_4e/relu_1x1 <- inception_4e/1x1
I0403 15:51:10.493451 11547 net.cpp:386] inception_4e/relu_1x1 -> inception_4e/1x1 (in-place)
I0403 15:51:10.493755 11547 net.cpp:141] Setting up inception_4e/relu_1x1
I0403 15:51:10.493782 11547 net.cpp:148] Top shape: 24 256 14 14 (1204224)
I0403 15:51:10.493796 11547 net.cpp:156] Memory required for data: 1218065952
I0403 15:51:10.493810 11547 layer_factory.hpp:77] Creating layer inception_4e/3x3_reduce
I0403 15:51:10.493834 11547 net.cpp:91] Creating Layer inception_4e/3x3_reduce
I0403 15:51:10.493851 11547 net.cpp:425] inception_4e/3x3_reduce <- inception_4d/output_inception_4d/output_0_split_2
I0403 15:51:10.493872 11547 net.cpp:399] inception_4e/3x3_reduce -> inception_4e/3x3_reduce
I0403 15:51:10.496016 11547 net.cpp:141] Setting up inception_4e/3x3_reduce
I0403 15:51:10.496047 11547 net.cpp:148] Top shape: 24 160 14 14 (752640)
I0403 15:51:10.496062 11547 net.cpp:156] Memory required for data: 1221076512
I0403 15:51:10.496081 11547 layer_factory.hpp:77] Creating layer inception_4e/relu_3x3_reduce
I0403 15:51:10.496099 11547 net.cpp:91] Creating Layer inception_4e/relu_3x3_reduce
I0403 15:51:10.496115 11547 net.cpp:425] inception_4e/relu_3x3_reduce <- inception_4e/3x3_reduce
I0403 15:51:10.496135 11547 net.cpp:386] inception_4e/relu_3x3_reduce -> inception_4e/3x3_reduce (in-place)
I0403 15:51:10.496322 11547 net.cpp:141] Setting up inception_4e/relu_3x3_reduce
I0403 15:51:10.496347 11547 net.cpp:148] Top shape: 24 160 14 14 (752640)
I0403 15:51:10.496362 11547 net.cpp:156] Memory required for data: 1224087072
I0403 15:51:10.496377 11547 layer_factory.hpp:77] Creating layer inception_4e/3x3
I0403 15:51:10.496399 11547 net.cpp:91] Creating Layer inception_4e/3x3
I0403 15:51:10.496417 11547 net.cpp:425] inception_4e/3x3 <- inception_4e/3x3_reduce
I0403 15:51:10.496438 11547 net.cpp:399] inception_4e/3x3 -> inception_4e/3x3
I0403 15:51:10.501524 11547 net.cpp:141] Setting up inception_4e/3x3
I0403 15:51:10.501565 11547 net.cpp:148] Top shape: 24 320 14 14 (1505280)
I0403 15:51:10.501582 11547 net.cpp:156] Memory required for data: 1230108192
I0403 15:51:10.501601 11547 layer_factory.hpp:77] Creating layer inception_4e/relu_3x3
I0403 15:51:10.501622 11547 net.cpp:91] Creating Layer inception_4e/relu_3x3
I0403 15:51:10.501639 11547 net.cpp:425] inception_4e/relu_3x3 <- inception_4e/3x3
I0403 15:51:10.501657 11547 net.cpp:386] inception_4e/relu_3x3 -> inception_4e/3x3 (in-place)
I0403 15:51:10.501960 11547 net.cpp:141] Setting up inception_4e/relu_3x3
I0403 15:51:10.501989 11547 net.cpp:148] Top shape: 24 320 14 14 (1505280)
I0403 15:51:10.502007 11547 net.cpp:156] Memory required for data: 1236129312
I0403 15:51:10.502020 11547 layer_factory.hpp:77] Creating layer inception_4e/5x5_reduce
I0403 15:51:10.502046 11547 net.cpp:91] Creating Layer inception_4e/5x5_reduce
I0403 15:51:10.502064 11547 net.cpp:425] inception_4e/5x5_reduce <- inception_4d/output_inception_4d/output_0_split_3
I0403 15:51:10.502084 11547 net.cpp:399] inception_4e/5x5_reduce -> inception_4e/5x5_reduce
I0403 15:51:10.503166 11547 net.cpp:141] Setting up inception_4e/5x5_reduce
I0403 15:51:10.503193 11547 net.cpp:148] Top shape: 24 32 14 14 (150528)
I0403 15:51:10.503211 11547 net.cpp:156] Memory required for data: 1236731424
I0403 15:51:10.503228 11547 layer_factory.hpp:77] Creating layer inception_4e/relu_5x5_reduce
I0403 15:51:10.503247 11547 net.cpp:91] Creating Layer inception_4e/relu_5x5_reduce
I0403 15:51:10.503262 11547 net.cpp:425] inception_4e/relu_5x5_reduce <- inception_4e/5x5_reduce
I0403 15:51:10.503281 11547 net.cpp:386] inception_4e/relu_5x5_reduce -> inception_4e/5x5_reduce (in-place)
I0403 15:51:10.503582 11547 net.cpp:141] Setting up inception_4e/relu_5x5_reduce
I0403 15:51:10.503609 11547 net.cpp:148] Top shape: 24 32 14 14 (150528)
I0403 15:51:10.503624 11547 net.cpp:156] Memory required for data: 1237333536
I0403 15:51:10.503640 11547 layer_factory.hpp:77] Creating layer inception_4e/5x5
I0403 15:51:10.503677 11547 net.cpp:91] Creating Layer inception_4e/5x5
I0403 15:51:10.503696 11547 net.cpp:425] inception_4e/5x5 <- inception_4e/5x5_reduce
I0403 15:51:10.503715 11547 net.cpp:399] inception_4e/5x5 -> inception_4e/5x5
I0403 15:51:10.505594 11547 net.cpp:141] Setting up inception_4e/5x5
I0403 15:51:10.505623 11547 net.cpp:148] Top shape: 24 128 14 14 (602112)
I0403 15:51:10.505640 11547 net.cpp:156] Memory required for data: 1239741984
I0403 15:51:10.505659 11547 layer_factory.hpp:77] Creating layer inception_4e/relu_5x5
I0403 15:51:10.505677 11547 net.cpp:91] Creating Layer inception_4e/relu_5x5
I0403 15:51:10.505694 11547 net.cpp:425] inception_4e/relu_5x5 <- inception_4e/5x5
I0403 15:51:10.505712 11547 net.cpp:386] inception_4e/relu_5x5 -> inception_4e/5x5 (in-place)
I0403 15:51:10.505913 11547 net.cpp:141] Setting up inception_4e/relu_5x5
I0403 15:51:10.505939 11547 net.cpp:148] Top shape: 24 128 14 14 (602112)
I0403 15:51:10.505954 11547 net.cpp:156] Memory required for data: 1242150432
I0403 15:51:10.505967 11547 layer_factory.hpp:77] Creating layer inception_4e/pool
I0403 15:51:10.505990 11547 net.cpp:91] Creating Layer inception_4e/pool
I0403 15:51:10.506007 11547 net.cpp:425] inception_4e/pool <- inception_4d/output_inception_4d/output_0_split_4
I0403 15:51:10.506028 11547 net.cpp:399] inception_4e/pool -> inception_4e/pool
I0403 15:51:10.506098 11547 net.cpp:141] Setting up inception_4e/pool
I0403 15:51:10.506124 11547 net.cpp:148] Top shape: 24 528 14 14 (2483712)
I0403 15:51:10.506139 11547 net.cpp:156] Memory required for data: 1252085280
I0403 15:51:10.506155 11547 layer_factory.hpp:77] Creating layer inception_4e/pool_proj
I0403 15:51:10.506175 11547 net.cpp:91] Creating Layer inception_4e/pool_proj
I0403 15:51:10.506192 11547 net.cpp:425] inception_4e/pool_proj <- inception_4e/pool
I0403 15:51:10.506212 11547 net.cpp:399] inception_4e/pool_proj -> inception_4e/pool_proj
I0403 15:51:10.507725 11547 net.cpp:141] Setting up inception_4e/pool_proj
I0403 15:51:10.507767 11547 net.cpp:148] Top shape: 24 128 14 14 (602112)
I0403 15:51:10.507784 11547 net.cpp:156] Memory required for data: 1254493728
I0403 15:51:10.507803 11547 layer_factory.hpp:77] Creating layer inception_4e/relu_pool_proj
I0403 15:51:10.507822 11547 net.cpp:91] Creating Layer inception_4e/relu_pool_proj
I0403 15:51:10.507838 11547 net.cpp:425] inception_4e/relu_pool_proj <- inception_4e/pool_proj
I0403 15:51:10.507854 11547 net.cpp:386] inception_4e/relu_pool_proj -> inception_4e/pool_proj (in-place)
I0403 15:51:10.508158 11547 net.cpp:141] Setting up inception_4e/relu_pool_proj
I0403 15:51:10.508186 11547 net.cpp:148] Top shape: 24 128 14 14 (602112)
I0403 15:51:10.508204 11547 net.cpp:156] Memory required for data: 1256902176
I0403 15:51:10.508219 11547 layer_factory.hpp:77] Creating layer inception_4e/output
I0403 15:51:10.508236 11547 net.cpp:91] Creating Layer inception_4e/output
I0403 15:51:10.508252 11547 net.cpp:425] inception_4e/output <- inception_4e/1x1
I0403 15:51:10.508268 11547 net.cpp:425] inception_4e/output <- inception_4e/3x3
I0403 15:51:10.508285 11547 net.cpp:425] inception_4e/output <- inception_4e/5x5
I0403 15:51:10.508301 11547 net.cpp:425] inception_4e/output <- inception_4e/pool_proj
I0403 15:51:10.508318 11547 net.cpp:399] inception_4e/output -> inception_4e/output
I0403 15:51:10.508370 11547 net.cpp:141] Setting up inception_4e/output
I0403 15:51:10.508394 11547 net.cpp:148] Top shape: 24 832 14 14 (3913728)
I0403 15:51:10.508409 11547 net.cpp:156] Memory required for data: 1272557088
I0403 15:51:10.508422 11547 layer_factory.hpp:77] Creating layer pool4/3x3_s2
I0403 15:51:10.508445 11547 net.cpp:91] Creating Layer pool4/3x3_s2
I0403 15:51:10.508463 11547 net.cpp:425] pool4/3x3_s2 <- inception_4e/output
I0403 15:51:10.508481 11547 net.cpp:399] pool4/3x3_s2 -> pool4/3x3_s2
I0403 15:51:10.508549 11547 net.cpp:141] Setting up pool4/3x3_s2
I0403 15:51:10.508574 11547 net.cpp:148] Top shape: 24 832 7 7 (978432)
I0403 15:51:10.508587 11547 net.cpp:156] Memory required for data: 1276470816
I0403 15:51:10.508602 11547 layer_factory.hpp:77] Creating layer pool4/3x3_s2_pool4/3x3_s2_0_split
I0403 15:51:10.508620 11547 net.cpp:91] Creating Layer pool4/3x3_s2_pool4/3x3_s2_0_split
I0403 15:51:10.508635 11547 net.cpp:425] pool4/3x3_s2_pool4/3x3_s2_0_split <- pool4/3x3_s2
I0403 15:51:10.508654 11547 net.cpp:399] pool4/3x3_s2_pool4/3x3_s2_0_split -> pool4/3x3_s2_pool4/3x3_s2_0_split_0
I0403 15:51:10.508677 11547 net.cpp:399] pool4/3x3_s2_pool4/3x3_s2_0_split -> pool4/3x3_s2_pool4/3x3_s2_0_split_1
I0403 15:51:10.508697 11547 net.cpp:399] pool4/3x3_s2_pool4/3x3_s2_0_split -> pool4/3x3_s2_pool4/3x3_s2_0_split_2
I0403 15:51:10.508716 11547 net.cpp:399] pool4/3x3_s2_pool4/3x3_s2_0_split -> pool4/3x3_s2_pool4/3x3_s2_0_split_3
I0403 15:51:10.508808 11547 net.cpp:141] Setting up pool4/3x3_s2_pool4/3x3_s2_0_split
I0403 15:51:10.508833 11547 net.cpp:148] Top shape: 24 832 7 7 (978432)
I0403 15:51:10.508851 11547 net.cpp:148] Top shape: 24 832 7 7 (978432)
I0403 15:51:10.508867 11547 net.cpp:148] Top shape: 24 832 7 7 (978432)
I0403 15:51:10.508882 11547 net.cpp:148] Top shape: 24 832 7 7 (978432)
I0403 15:51:10.508895 11547 net.cpp:156] Memory required for data: 1292125728
I0403 15:51:10.508910 11547 layer_factory.hpp:77] Creating layer inception_5a/1x1
I0403 15:51:10.508932 11547 net.cpp:91] Creating Layer inception_5a/1x1
I0403 15:51:10.508950 11547 net.cpp:425] inception_5a/1x1 <- pool4/3x3_s2_pool4/3x3_s2_0_split_0
I0403 15:51:10.508968 11547 net.cpp:399] inception_5a/1x1 -> inception_5a/1x1
I0403 15:51:10.511888 11547 net.cpp:141] Setting up inception_5a/1x1
I0403 15:51:10.511919 11547 net.cpp:148] Top shape: 24 256 7 7 (301056)
I0403 15:51:10.511934 11547 net.cpp:156] Memory required for data: 1293329952
I0403 15:51:10.511953 11547 layer_factory.hpp:77] Creating layer inception_5a/relu_1x1
I0403 15:51:10.511971 11547 net.cpp:91] Creating Layer inception_5a/relu_1x1
I0403 15:51:10.511992 11547 net.cpp:425] inception_5a/relu_1x1 <- inception_5a/1x1
I0403 15:51:10.512013 11547 net.cpp:386] inception_5a/relu_1x1 -> inception_5a/1x1 (in-place)
I0403 15:51:10.512328 11547 net.cpp:141] Setting up inception_5a/relu_1x1
I0403 15:51:10.512356 11547 net.cpp:148] Top shape: 24 256 7 7 (301056)
I0403 15:51:10.512373 11547 net.cpp:156] Memory required for data: 1294534176
I0403 15:51:10.512388 11547 layer_factory.hpp:77] Creating layer inception_5a/3x3_reduce
I0403 15:51:10.512410 11547 net.cpp:91] Creating Layer inception_5a/3x3_reduce
I0403 15:51:10.512428 11547 net.cpp:425] inception_5a/3x3_reduce <- pool4/3x3_s2_pool4/3x3_s2_0_split_1
I0403 15:51:10.512446 11547 net.cpp:399] inception_5a/3x3_reduce -> inception_5a/3x3_reduce
I0403 15:51:10.514960 11547 net.cpp:141] Setting up inception_5a/3x3_reduce
I0403 15:51:10.514992 11547 net.cpp:148] Top shape: 24 160 7 7 (188160)
I0403 15:51:10.515009 11547 net.cpp:156] Memory required for data: 1295286816
I0403 15:51:10.515028 11547 layer_factory.hpp:77] Creating layer inception_5a/relu_3x3_reduce
I0403 15:51:10.515049 11547 net.cpp:91] Creating Layer inception_5a/relu_3x3_reduce
I0403 15:51:10.515066 11547 net.cpp:425] inception_5a/relu_3x3_reduce <- inception_5a/3x3_reduce
I0403 15:51:10.515084 11547 net.cpp:386] inception_5a/relu_3x3_reduce -> inception_5a/3x3_reduce (in-place)
I0403 15:51:10.515275 11547 net.cpp:141] Setting up inception_5a/relu_3x3_reduce
I0403 15:51:10.515303 11547 net.cpp:148] Top shape: 24 160 7 7 (188160)
I0403 15:51:10.515318 11547 net.cpp:156] Memory required for data: 1296039456
I0403 15:51:10.515333 11547 layer_factory.hpp:77] Creating layer inception_5a/3x3
I0403 15:51:10.515357 11547 net.cpp:91] Creating Layer inception_5a/3x3
I0403 15:51:10.515374 11547 net.cpp:425] inception_5a/3x3 <- inception_5a/3x3_reduce
I0403 15:51:10.515393 11547 net.cpp:399] inception_5a/3x3 -> inception_5a/3x3
I0403 15:51:10.520493 11547 net.cpp:141] Setting up inception_5a/3x3
I0403 15:51:10.520524 11547 net.cpp:148] Top shape: 24 320 7 7 (376320)
I0403 15:51:10.520541 11547 net.cpp:156] Memory required for data: 1297544736
I0403 15:51:10.520560 11547 layer_factory.hpp:77] Creating layer inception_5a/relu_3x3
I0403 15:51:10.520577 11547 net.cpp:91] Creating Layer inception_5a/relu_3x3
I0403 15:51:10.520593 11547 net.cpp:425] inception_5a/relu_3x3 <- inception_5a/3x3
I0403 15:51:10.520613 11547 net.cpp:386] inception_5a/relu_3x3 -> inception_5a/3x3 (in-place)
I0403 15:51:10.520911 11547 net.cpp:141] Setting up inception_5a/relu_3x3
I0403 15:51:10.520941 11547 net.cpp:148] Top shape: 24 320 7 7 (376320)
I0403 15:51:10.520957 11547 net.cpp:156] Memory required for data: 1299050016
I0403 15:51:10.520972 11547 layer_factory.hpp:77] Creating layer inception_5a/5x5_reduce
I0403 15:51:10.520999 11547 net.cpp:91] Creating Layer inception_5a/5x5_reduce
I0403 15:51:10.521018 11547 net.cpp:425] inception_5a/5x5_reduce <- pool4/3x3_s2_pool4/3x3_s2_0_split_2
I0403 15:51:10.521039 11547 net.cpp:399] inception_5a/5x5_reduce -> inception_5a/5x5_reduce
I0403 15:51:10.522229 11547 net.cpp:141] Setting up inception_5a/5x5_reduce
I0403 15:51:10.522259 11547 net.cpp:148] Top shape: 24 32 7 7 (37632)
I0403 15:51:10.522276 11547 net.cpp:156] Memory required for data: 1299200544
I0403 15:51:10.522295 11547 layer_factory.hpp:77] Creating layer inception_5a/relu_5x5_reduce
I0403 15:51:10.522313 11547 net.cpp:91] Creating Layer inception_5a/relu_5x5_reduce
I0403 15:51:10.522330 11547 net.cpp:425] inception_5a/relu_5x5_reduce <- inception_5a/5x5_reduce
I0403 15:51:10.522349 11547 net.cpp:386] inception_5a/relu_5x5_reduce -> inception_5a/5x5_reduce (in-place)
I0403 15:51:10.522662 11547 net.cpp:141] Setting up inception_5a/relu_5x5_reduce
I0403 15:51:10.522689 11547 net.cpp:148] Top shape: 24 32 7 7 (37632)
I0403 15:51:10.522704 11547 net.cpp:156] Memory required for data: 1299351072
I0403 15:51:10.522719 11547 layer_factory.hpp:77] Creating layer inception_5a/5x5
I0403 15:51:10.522742 11547 net.cpp:91] Creating Layer inception_5a/5x5
I0403 15:51:10.522759 11547 net.cpp:425] inception_5a/5x5 <- inception_5a/5x5_reduce
I0403 15:51:10.522780 11547 net.cpp:399] inception_5a/5x5 -> inception_5a/5x5
I0403 15:51:10.524519 11547 net.cpp:141] Setting up inception_5a/5x5
I0403 15:51:10.524562 11547 net.cpp:148] Top shape: 24 128 7 7 (150528)
I0403 15:51:10.524580 11547 net.cpp:156] Memory required for data: 1299953184
I0403 15:51:10.524597 11547 layer_factory.hpp:77] Creating layer inception_5a/relu_5x5
I0403 15:51:10.524616 11547 net.cpp:91] Creating Layer inception_5a/relu_5x5
I0403 15:51:10.524633 11547 net.cpp:425] inception_5a/relu_5x5 <- inception_5a/5x5
I0403 15:51:10.524652 11547 net.cpp:386] inception_5a/relu_5x5 -> inception_5a/5x5 (in-place)
I0403 15:51:10.524848 11547 net.cpp:141] Setting up inception_5a/relu_5x5
I0403 15:51:10.524873 11547 net.cpp:148] Top shape: 24 128 7 7 (150528)
I0403 15:51:10.524888 11547 net.cpp:156] Memory required for data: 1300555296
I0403 15:51:10.524902 11547 layer_factory.hpp:77] Creating layer inception_5a/pool
I0403 15:51:10.524919 11547 net.cpp:91] Creating Layer inception_5a/pool
I0403 15:51:10.524935 11547 net.cpp:425] inception_5a/pool <- pool4/3x3_s2_pool4/3x3_s2_0_split_3
I0403 15:51:10.524956 11547 net.cpp:399] inception_5a/pool -> inception_5a/pool
I0403 15:51:10.525032 11547 net.cpp:141] Setting up inception_5a/pool
I0403 15:51:10.525055 11547 net.cpp:148] Top shape: 24 832 7 7 (978432)
I0403 15:51:10.525069 11547 net.cpp:156] Memory required for data: 1304469024
I0403 15:51:10.525084 11547 layer_factory.hpp:77] Creating layer inception_5a/pool_proj
I0403 15:51:10.525105 11547 net.cpp:91] Creating Layer inception_5a/pool_proj
I0403 15:51:10.525123 11547 net.cpp:425] inception_5a/pool_proj <- inception_5a/pool
I0403 15:51:10.525143 11547 net.cpp:399] inception_5a/pool_proj -> inception_5a/pool_proj
I0403 15:51:10.527456 11547 net.cpp:141] Setting up inception_5a/pool_proj
I0403 15:51:10.527485 11547 net.cpp:148] Top shape: 24 128 7 7 (150528)
I0403 15:51:10.527503 11547 net.cpp:156] Memory required for data: 1305071136
I0403 15:51:10.527520 11547 layer_factory.hpp:77] Creating layer inception_5a/relu_pool_proj
I0403 15:51:10.527544 11547 net.cpp:91] Creating Layer inception_5a/relu_pool_proj
I0403 15:51:10.527561 11547 net.cpp:425] inception_5a/relu_pool_proj <- inception_5a/pool_proj
I0403 15:51:10.527578 11547 net.cpp:386] inception_5a/relu_pool_proj -> inception_5a/pool_proj (in-place)
I0403 15:51:10.527881 11547 net.cpp:141] Setting up inception_5a/relu_pool_proj
I0403 15:51:10.527909 11547 net.cpp:148] Top shape: 24 128 7 7 (150528)
I0403 15:51:10.527922 11547 net.cpp:156] Memory required for data: 1305673248
I0403 15:51:10.527937 11547 layer_factory.hpp:77] Creating layer inception_5a/output
I0403 15:51:10.527956 11547 net.cpp:91] Creating Layer inception_5a/output
I0403 15:51:10.527974 11547 net.cpp:425] inception_5a/output <- inception_5a/1x1
I0403 15:51:10.527997 11547 net.cpp:425] inception_5a/output <- inception_5a/3x3
I0403 15:51:10.528013 11547 net.cpp:425] inception_5a/output <- inception_5a/5x5
I0403 15:51:10.528029 11547 net.cpp:425] inception_5a/output <- inception_5a/pool_proj
I0403 15:51:10.528046 11547 net.cpp:399] inception_5a/output -> inception_5a/output
I0403 15:51:10.528097 11547 net.cpp:141] Setting up inception_5a/output
I0403 15:51:10.528121 11547 net.cpp:148] Top shape: 24 832 7 7 (978432)
I0403 15:51:10.528136 11547 net.cpp:156] Memory required for data: 1309586976
I0403 15:51:10.528151 11547 layer_factory.hpp:77] Creating layer inception_5a/output_inception_5a/output_0_split
I0403 15:51:10.528167 11547 net.cpp:91] Creating Layer inception_5a/output_inception_5a/output_0_split
I0403 15:51:10.528182 11547 net.cpp:425] inception_5a/output_inception_5a/output_0_split <- inception_5a/output
I0403 15:51:10.528203 11547 net.cpp:399] inception_5a/output_inception_5a/output_0_split -> inception_5a/output_inception_5a/output_0_split_0
I0403 15:51:10.528223 11547 net.cpp:399] inception_5a/output_inception_5a/output_0_split -> inception_5a/output_inception_5a/output_0_split_1
I0403 15:51:10.528244 11547 net.cpp:399] inception_5a/output_inception_5a/output_0_split -> inception_5a/output_inception_5a/output_0_split_2
I0403 15:51:10.528265 11547 net.cpp:399] inception_5a/output_inception_5a/output_0_split -> inception_5a/output_inception_5a/output_0_split_3
I0403 15:51:10.528380 11547 net.cpp:141] Setting up inception_5a/output_inception_5a/output_0_split
I0403 15:51:10.528404 11547 net.cpp:148] Top shape: 24 832 7 7 (978432)
I0403 15:51:10.528420 11547 net.cpp:148] Top shape: 24 832 7 7 (978432)
I0403 15:51:10.528436 11547 net.cpp:148] Top shape: 24 832 7 7 (978432)
I0403 15:51:10.528452 11547 net.cpp:148] Top shape: 24 832 7 7 (978432)
I0403 15:51:10.528465 11547 net.cpp:156] Memory required for data: 1325241888
I0403 15:51:10.528481 11547 layer_factory.hpp:77] Creating layer inception_5b/1x1
I0403 15:51:10.528502 11547 net.cpp:91] Creating Layer inception_5b/1x1
I0403 15:51:10.528519 11547 net.cpp:425] inception_5b/1x1 <- inception_5a/output_inception_5a/output_0_split_0
I0403 15:51:10.528540 11547 net.cpp:399] inception_5b/1x1 -> inception_5b/1x1
I0403 15:51:10.532349 11547 net.cpp:141] Setting up inception_5b/1x1
I0403 15:51:10.532380 11547 net.cpp:148] Top shape: 24 384 7 7 (451584)
I0403 15:51:10.532397 11547 net.cpp:156] Memory required for data: 1327048224
I0403 15:51:10.532415 11547 layer_factory.hpp:77] Creating layer inception_5b/relu_1x1
I0403 15:51:10.532436 11547 net.cpp:91] Creating Layer inception_5b/relu_1x1
I0403 15:51:10.532454 11547 net.cpp:425] inception_5b/relu_1x1 <- inception_5b/1x1
I0403 15:51:10.532471 11547 net.cpp:386] inception_5b/relu_1x1 -> inception_5b/1x1 (in-place)
I0403 15:51:10.532778 11547 net.cpp:141] Setting up inception_5b/relu_1x1
I0403 15:51:10.532804 11547 net.cpp:148] Top shape: 24 384 7 7 (451584)
I0403 15:51:10.532819 11547 net.cpp:156] Memory required for data: 1328854560
I0403 15:51:10.532834 11547 layer_factory.hpp:77] Creating layer inception_5b/3x3_reduce
I0403 15:51:10.532856 11547 net.cpp:91] Creating Layer inception_5b/3x3_reduce
I0403 15:51:10.532874 11547 net.cpp:425] inception_5b/3x3_reduce <- inception_5a/output_inception_5a/output_0_split_1
I0403 15:51:10.532899 11547 net.cpp:399] inception_5b/3x3_reduce -> inception_5b/3x3_reduce
I0403 15:51:10.535639 11547 net.cpp:141] Setting up inception_5b/3x3_reduce
I0403 15:51:10.535667 11547 net.cpp:148] Top shape: 24 192 7 7 (225792)
I0403 15:51:10.535683 11547 net.cpp:156] Memory required for data: 1329757728
I0403 15:51:10.535702 11547 layer_factory.hpp:77] Creating layer inception_5b/relu_3x3_reduce
I0403 15:51:10.535723 11547 net.cpp:91] Creating Layer inception_5b/relu_3x3_reduce
I0403 15:51:10.535740 11547 net.cpp:425] inception_5b/relu_3x3_reduce <- inception_5b/3x3_reduce
I0403 15:51:10.535758 11547 net.cpp:386] inception_5b/relu_3x3_reduce -> inception_5b/3x3_reduce (in-place)
I0403 15:51:10.535951 11547 net.cpp:141] Setting up inception_5b/relu_3x3_reduce
I0403 15:51:10.535980 11547 net.cpp:148] Top shape: 24 192 7 7 (225792)
I0403 15:51:10.535996 11547 net.cpp:156] Memory required for data: 1330660896
I0403 15:51:10.536011 11547 layer_factory.hpp:77] Creating layer inception_5b/3x3
I0403 15:51:10.536036 11547 net.cpp:91] Creating Layer inception_5b/3x3
I0403 15:51:10.536053 11547 net.cpp:425] inception_5b/3x3 <- inception_5b/3x3_reduce
I0403 15:51:10.536077 11547 net.cpp:399] inception_5b/3x3 -> inception_5b/3x3
I0403 15:51:10.543069 11547 net.cpp:141] Setting up inception_5b/3x3
I0403 15:51:10.543099 11547 net.cpp:148] Top shape: 24 384 7 7 (451584)
I0403 15:51:10.543115 11547 net.cpp:156] Memory required for data: 1332467232
I0403 15:51:10.543133 11547 layer_factory.hpp:77] Creating layer inception_5b/relu_3x3
I0403 15:51:10.543154 11547 net.cpp:91] Creating Layer inception_5b/relu_3x3
I0403 15:51:10.543172 11547 net.cpp:425] inception_5b/relu_3x3 <- inception_5b/3x3
I0403 15:51:10.543190 11547 net.cpp:386] inception_5b/relu_3x3 -> inception_5b/3x3 (in-place)
I0403 15:51:10.543505 11547 net.cpp:141] Setting up inception_5b/relu_3x3
I0403 15:51:10.543532 11547 net.cpp:148] Top shape: 24 384 7 7 (451584)
I0403 15:51:10.543548 11547 net.cpp:156] Memory required for data: 1334273568
I0403 15:51:10.543565 11547 layer_factory.hpp:77] Creating layer inception_5b/5x5_reduce
I0403 15:51:10.543606 11547 net.cpp:91] Creating Layer inception_5b/5x5_reduce
I0403 15:51:10.543625 11547 net.cpp:425] inception_5b/5x5_reduce <- inception_5a/output_inception_5a/output_0_split_2
I0403 15:51:10.543645 11547 net.cpp:399] inception_5b/5x5_reduce -> inception_5b/5x5_reduce
I0403 15:51:10.545004 11547 net.cpp:141] Setting up inception_5b/5x5_reduce
I0403 15:51:10.545037 11547 net.cpp:148] Top shape: 24 48 7 7 (56448)
I0403 15:51:10.545053 11547 net.cpp:156] Memory required for data: 1334499360
I0403 15:51:10.545073 11547 layer_factory.hpp:77] Creating layer inception_5b/relu_5x5_reduce
I0403 15:51:10.545091 11547 net.cpp:91] Creating Layer inception_5b/relu_5x5_reduce
I0403 15:51:10.545107 11547 net.cpp:425] inception_5b/relu_5x5_reduce <- inception_5b/5x5_reduce
I0403 15:51:10.545125 11547 net.cpp:386] inception_5b/relu_5x5_reduce -> inception_5b/5x5_reduce (in-place)
I0403 15:51:10.545516 11547 net.cpp:141] Setting up inception_5b/relu_5x5_reduce
I0403 15:51:10.545543 11547 net.cpp:148] Top shape: 24 48 7 7 (56448)
I0403 15:51:10.545559 11547 net.cpp:156] Memory required for data: 1334725152
I0403 15:51:10.545574 11547 layer_factory.hpp:77] Creating layer inception_5b/5x5
I0403 15:51:10.545595 11547 net.cpp:91] Creating Layer inception_5b/5x5
I0403 15:51:10.545613 11547 net.cpp:425] inception_5b/5x5 <- inception_5b/5x5_reduce
I0403 15:51:10.545632 11547 net.cpp:399] inception_5b/5x5 -> inception_5b/5x5
I0403 15:51:10.547797 11547 net.cpp:141] Setting up inception_5b/5x5
I0403 15:51:10.547828 11547 net.cpp:148] Top shape: 24 128 7 7 (150528)
I0403 15:51:10.547845 11547 net.cpp:156] Memory required for data: 1335327264
I0403 15:51:10.547864 11547 layer_factory.hpp:77] Creating layer inception_5b/relu_5x5
I0403 15:51:10.547883 11547 net.cpp:91] Creating Layer inception_5b/relu_5x5
I0403 15:51:10.547899 11547 net.cpp:425] inception_5b/relu_5x5 <- inception_5b/5x5
I0403 15:51:10.547919 11547 net.cpp:386] inception_5b/relu_5x5 -> inception_5b/5x5 (in-place)
I0403 15:51:10.548130 11547 net.cpp:141] Setting up inception_5b/relu_5x5
I0403 15:51:10.548156 11547 net.cpp:148] Top shape: 24 128 7 7 (150528)
I0403 15:51:10.548171 11547 net.cpp:156] Memory required for data: 1335929376
I0403 15:51:10.548185 11547 layer_factory.hpp:77] Creating layer inception_5b/pool
I0403 15:51:10.548204 11547 net.cpp:91] Creating Layer inception_5b/pool
I0403 15:51:10.548221 11547 net.cpp:425] inception_5b/pool <- inception_5a/output_inception_5a/output_0_split_3
I0403 15:51:10.548243 11547 net.cpp:399] inception_5b/pool -> inception_5b/pool
I0403 15:51:10.548319 11547 net.cpp:141] Setting up inception_5b/pool
I0403 15:51:10.548343 11547 net.cpp:148] Top shape: 24 832 7 7 (978432)
I0403 15:51:10.548358 11547 net.cpp:156] Memory required for data: 1339843104
I0403 15:51:10.548373 11547 layer_factory.hpp:77] Creating layer inception_5b/pool_proj
I0403 15:51:10.548398 11547 net.cpp:91] Creating Layer inception_5b/pool_proj
I0403 15:51:10.548416 11547 net.cpp:425] inception_5b/pool_proj <- inception_5b/pool
I0403 15:51:10.548435 11547 net.cpp:399] inception_5b/pool_proj -> inception_5b/pool_proj
I0403 15:51:10.550891 11547 net.cpp:141] Setting up inception_5b/pool_proj
I0403 15:51:10.550923 11547 net.cpp:148] Top shape: 24 128 7 7 (150528)
I0403 15:51:10.550940 11547 net.cpp:156] Memory required for data: 1340445216
I0403 15:51:10.550961 11547 layer_factory.hpp:77] Creating layer inception_5b/relu_pool_proj
I0403 15:51:10.550982 11547 net.cpp:91] Creating Layer inception_5b/relu_pool_proj
I0403 15:51:10.551000 11547 net.cpp:425] inception_5b/relu_pool_proj <- inception_5b/pool_proj
I0403 15:51:10.551019 11547 net.cpp:386] inception_5b/relu_pool_proj -> inception_5b/pool_proj (in-place)
I0403 15:51:10.551337 11547 net.cpp:141] Setting up inception_5b/relu_pool_proj
I0403 15:51:10.551367 11547 net.cpp:148] Top shape: 24 128 7 7 (150528)
I0403 15:51:10.551384 11547 net.cpp:156] Memory required for data: 1341047328
I0403 15:51:10.551399 11547 layer_factory.hpp:77] Creating layer inception_5b/output
I0403 15:51:10.551417 11547 net.cpp:91] Creating Layer inception_5b/output
I0403 15:51:10.551450 11547 net.cpp:425] inception_5b/output <- inception_5b/1x1
I0403 15:51:10.551468 11547 net.cpp:425] inception_5b/output <- inception_5b/3x3
I0403 15:51:10.551484 11547 net.cpp:425] inception_5b/output <- inception_5b/5x5
I0403 15:51:10.551501 11547 net.cpp:425] inception_5b/output <- inception_5b/pool_proj
I0403 15:51:10.551518 11547 net.cpp:399] inception_5b/output -> inception_5b/output
I0403 15:51:10.551573 11547 net.cpp:141] Setting up inception_5b/output
I0403 15:51:10.551597 11547 net.cpp:148] Top shape: 24 1024 7 7 (1204224)
I0403 15:51:10.551612 11547 net.cpp:156] Memory required for data: 1345864224
I0403 15:51:10.551627 11547 layer_factory.hpp:77] Creating layer pool5/7x7_s1
I0403 15:51:10.551647 11547 net.cpp:91] Creating Layer pool5/7x7_s1
I0403 15:51:10.551666 11547 net.cpp:425] pool5/7x7_s1 <- inception_5b/output
I0403 15:51:10.551683 11547 net.cpp:399] pool5/7x7_s1 -> pool5/7x7_s1
I0403 15:51:10.551913 11547 net.cpp:141] Setting up pool5/7x7_s1
I0403 15:51:10.551939 11547 net.cpp:148] Top shape: 24 1024 1 1 (24576)
I0403 15:51:10.551954 11547 net.cpp:156] Memory required for data: 1345962528
I0403 15:51:10.551970 11547 layer_factory.hpp:77] Creating layer pool5/drop_7x7_s1
I0403 15:51:10.551992 11547 net.cpp:91] Creating Layer pool5/drop_7x7_s1
I0403 15:51:10.552011 11547 net.cpp:425] pool5/drop_7x7_s1 <- pool5/7x7_s1
I0403 15:51:10.552028 11547 net.cpp:386] pool5/drop_7x7_s1 -> pool5/7x7_s1 (in-place)
I0403 15:51:10.552083 11547 net.cpp:141] Setting up pool5/drop_7x7_s1
I0403 15:51:10.552105 11547 net.cpp:148] Top shape: 24 1024 1 1 (24576)
I0403 15:51:10.552120 11547 net.cpp:156] Memory required for data: 1346060832
I0403 15:51:10.552135 11547 layer_factory.hpp:77] Creating layer loss3/classifier_plantvillage
I0403 15:51:10.552157 11547 net.cpp:91] Creating Layer loss3/classifier_plantvillage
I0403 15:51:10.552175 11547 net.cpp:425] loss3/classifier_plantvillage <- pool5/7x7_s1
I0403 15:51:10.552193 11547 net.cpp:399] loss3/classifier_plantvillage -> loss3/classifier_plantvillage
I0403 15:51:10.552634 11547 net.cpp:141] Setting up loss3/classifier_plantvillage
I0403 15:51:10.552659 11547 net.cpp:148] Top shape: 24 38 (912)
I0403 15:51:10.552675 11547 net.cpp:156] Memory required for data: 1346064480
I0403 15:51:10.552693 11547 layer_factory.hpp:77] Creating layer loss3/classifier_plantvillage_loss3/classifier_plantvillage_0_split
I0403 15:51:10.552711 11547 net.cpp:91] Creating Layer loss3/classifier_plantvillage_loss3/classifier_plantvillage_0_split
I0403 15:51:10.552728 11547 net.cpp:425] loss3/classifier_plantvillage_loss3/classifier_plantvillage_0_split <- loss3/classifier_plantvillage
I0403 15:51:10.552749 11547 net.cpp:399] loss3/classifier_plantvillage_loss3/classifier_plantvillage_0_split -> loss3/classifier_plantvillage_loss3/classifier_plantvillage_0_split_0
I0403 15:51:10.552772 11547 net.cpp:399] loss3/classifier_plantvillage_loss3/classifier_plantvillage_0_split -> loss3/classifier_plantvillage_loss3/classifier_plantvillage_0_split_1
I0403 15:51:10.552791 11547 net.cpp:399] loss3/classifier_plantvillage_loss3/classifier_plantvillage_0_split -> loss3/classifier_plantvillage_loss3/classifier_plantvillage_0_split_2
I0403 15:51:10.552814 11547 net.cpp:399] loss3/classifier_plantvillage_loss3/classifier_plantvillage_0_split -> loss3/classifier_plantvillage_loss3/classifier_plantvillage_0_split_3
I0403 15:51:10.552920 11547 net.cpp:141] Setting up loss3/classifier_plantvillage_loss3/classifier_plantvillage_0_split
I0403 15:51:10.552944 11547 net.cpp:148] Top shape: 24 38 (912)
I0403 15:51:10.552961 11547 net.cpp:148] Top shape: 24 38 (912)
I0403 15:51:10.552976 11547 net.cpp:148] Top shape: 24 38 (912)
I0403 15:51:10.552997 11547 net.cpp:148] Top shape: 24 38 (912)
I0403 15:51:10.553011 11547 net.cpp:156] Memory required for data: 1346079072
I0403 15:51:10.553026 11547 layer_factory.hpp:77] Creating layer loss1/loss
I0403 15:51:10.553050 11547 net.cpp:91] Creating Layer loss1/loss
I0403 15:51:10.553067 11547 net.cpp:425] loss1/loss <- loss1/classifier_plantvillage_loss1/classifier_plantvillage_0_split_0
I0403 15:51:10.553103 11547 net.cpp:425] loss1/loss <- label_data_1_split_0
…
