…
I0403 15:54:04.538831 11703 net.cpp:313] The NetState phase (1) differed from the phase (0) specified by a rule in layer data
I0403 15:54:04.539965 11703 net.cpp:49] Initializing net from parameters: 
state {
  phase: TEST
}
layer {
  name: "data"
  type: "Data"
  top: "data"
  top: "label"
  include {
    phase: TEST
  }
  transform_param {
    mirror: false
    crop_size: 224
    mean_file: "/home/mohanty/data/final_dataset/lmdb/segmented-80-20/mean.binaryproto"
  }
  data_param {
    source: "/home/mohanty/data/final_dataset/lmdb/segmented-80-20/test_db"
    batch_size: 24
    backend: LMDB
  }
}
layer {
  name: "conv1/7x7_s2"
  type: "Convolution"
  bottom: "data"
  top: "conv1/7x7_s2"
  param {
    lr_mult: 1
    decay_mult: 1
  }
  param {
    lr_mult: 2
    decay_mult: 0
  }
  convolution_param {
    num_output: 64
    pad: 3
    kernel_size: 7
    stride: 2
    weight_filler {
      type: "xavier"
      std: 0.1
    }
    bias_filler {
      type: "constant"
      value: 0.2
    }
  }
}
layer {
  name: "conv1/relu_7x7"
  type: "ReLU"
  bottom: "conv1/7x7_s2"
  top: "conv1/7x7_s2"
}
layer {
  name: "pool1/3x3_s2"
  type: "Pooling"
  bottom: "conv1/7x7_s2"
  top: "pool1/3x3_s2"
  pooling_param {
    pool: MAX
    kernel_size: 3
    stride: 2
  }
}
layer {
  name: "pool1/norm1"
  type: "LRN"
  bottom: "pool1/3x3_s2"
  top: "pool1/norm1"
  lrn_param {
    local_size: 5
    alpha: 0.0001
    beta: 0.75
  }
}
layer {
  name: "conv2/3x3_reduce"
  type: "Convolution"
  bottom: "pool1/norm1"
  top: "conv2/3x3_reduce"
  param {
    lr_mult: 1
    decay_mult: 1
  }
  param {
    lr_mult: 2
    decay_mult: 0
  }
  convolution_param {
    num_output: 64
    kernel_size: 1
    weight_filler {
      type: "xavier"
      std: 0.1
    }
    bias_filler {
      type: "constant"
      value: 0.2
    }
  }
}
layer {
  name: "conv2/relu_3x3_reduce"
  type: "ReLU"
  bottom: "conv2/3x3_reduce"
  top: "conv2/3x3_reduce"
}
layer {
  name: "conv2/3x3"
  type: "Convolution"
  bottom: "conv2/3x3_reduce"
  top: "conv2/3x3"
  param {
    lr_mult: 1
    decay_mult: 1
  }
  param {
    lr_mult: 2
    decay_mult: 0
  }
  convolution_param {
    num_output: 192
    pad: 1
    kernel_size: 3
    weight_filler {
      type: "xavier"
      std: 0.03
    }
    bias_filler {
      type: "constant"
      value: 0.2
    }
  }
}
layer {
  name: "conv2/relu_3x3"
  type: "ReLU"
  bottom: "conv2/3x3"
  top: "conv2/3x3"
}
layer {
  name: "conv2/norm2"
  type: "LRN"
  bottom: "conv2/3x3"
  top: "conv2/norm2"
  lrn_param {
    local_size: 5
    alpha: 0.0001
    beta: 0.75
  }
}
layer {
  name: "pool2/3x3_s2"
  type: "Pooling"
  bottom: "conv2/norm2"
  top: "pool2/3x3_s2"
  pooling_param {
    pool: MAX
    kernel_size: 3
    stride: 2
  }
}
layer {
  name: "inception_3a/1x1"
  type: "Convolution"
  bottom: "pool2/3x3_s2"
  top: "inception_3a/1x1"
  param {
    lr_mult: 1
    decay_mult: 1
  }
  param {
    lr_mult: 2
    decay_mult: 0
  }
  convolution_param {
    num_output: 64
    kernel_size: 1
    weight_filler {
      type: "xavier"
      std: 0.03
    }
    bias_filler {
      type: "constant"
      value: 0.2
    }
  }
}
layer {
  name: "inception_3a/relu_1x1"
  type: "ReLU"
  bottom: "inception_3a/1x1"
  top: "inception_3a/1x1"
}
layer {
  name: "inception_3a/3x3_reduce"
  type: "Convolution"
  bottom: "pool2/3x3_s2"
  top: "inception_3a/3x3_reduce"
  param {
    lr_mult: 1
    decay_mult: 1
  }
  param {
    lr_mult: 2
    decay_mult: 0
  }
  convolution_param {
    num_output: 96
    kernel_size: 1
    weight_filler {
      type: "xavier"
      std: 0.09
    }
    bias_filler {
      type: "constant"
      value: 0.2
    }
  }
}
layer {
  name: "inception_3a/relu_3x3_reduce"
  type: "ReLU"
  bottom: "inception_3a/3x3_reduce"
  top: "inception_3a/3x3_reduce"
}
layer {
  name: "inception_3a/3x3"
  type: "Convolution"
  bottom: "inception_3a/3x3_reduce"
  top: "inception_3a/3x3"
  param {
    lr_mult: 1
    decay_mult: 1
  }
  param {
    lr_mult: 2
    decay_mult: 0
  }
  convolution_param {
    num_output: 128
    pad: 1
    kernel_size: 3
    weight_filler {
      type: "xavier"
      std: 0.03
    }
    bias_filler {
      type: "constant"
      value: 0.2
    }
  }
}
layer {
  name: "inception_3a/relu_3x3"
  type: "ReLU"
  bottom: "inception_3a/3x3"
  top: "inception_3a/3x3"
}
layer {
  name: "inception_3a/5x5_reduce"
  type: "Convolution"
  bottom: "pool2/3x3_s2"
  top: "inception_3a/5x5_reduce"
  param {
    lr_mult: 1
    decay_mult: 1
  }
  param {
    lr_mult: 2
    decay_mult: 0
  }
  convolution_param {
    num_output: 16
    kernel_size: 1
    weight_filler {
      type: "xavier"
      std: 0.2
    }
    bias_filler {
      type: "constant"
      value: 0.2
    }
  }
}
layer {
  name: "inception_3a/relu_5x5_reduce"
  type: "ReLU"
  bottom: "inception_3a/5x5_reduce"
  top: "inception_3a/5x5_reduce"
}
layer {
  name: "inception_3a/5x5"
  type: "Convolution"
  bottom: "inception_3a/5x5_reduce"
  top: "inception_3a/5x5"
  param {
    lr_mult: 1
    decay_mult: 1
  }
  param {
    lr_mult: 2
    decay_mult: 0
  }
  convolution_param {
    num_output: 32
    pad: 2
    kernel_size: 5
    weight_filler {
      type: "xavier"
      std: 0.03
    }
    bias_filler {
      type: "constant"
      value: 0.2
    }
  }
}
layer {
  name: "inception_3a/relu_5x5"
  type: "ReLU"
  bottom: "inception_3a/5x5"
  top: "inception_3a/5x5"
}
layer {
  name: "inception_3a/pool"
  type: "Pooling"
  bottom: "pool2/3x3_s2"
  top: "inception_3a/pool"
  pooling_param {
    pool: MAX
    kernel_size: 3
    stride: 1
    pad: 1
  }
}
layer {
  name: "inception_3a/pool_proj"
  type: "Convolution"
  bottom: "inception_3a/pool"
  top: "inception_3a/pool_proj"
  param {
    lr_mult: 1
    decay_mult: 1
  }
  param {
    lr_mult: 2
    decay_mult: 0
  }
  convolution_param {
    num_output: 32
    kernel_size: 1
    weight_filler {
      type: "xavier"
      std: 0.1
    }
    bias_filler {
      type: "constant"
      value: 0.2
    }
  }
}
layer {
  name: "inception_3a/relu_pool_proj"
  type: "ReLU"
  bottom: "inception_3a/pool_proj"
  top: "inception_3a/pool_proj"
}
layer {
  name: "inception_3a/output"
  type: "Concat"
  bottom: "inception_3a/1x1"
  bottom: "inception_3a/3x3"
  bottom: "inception_3a/5x5"
  bottom: "inception_3a/pool_proj"
  top: "inception_3a/output"
}
layer {
  name: "inception_3b/1x1"
  type: "Convolution"
  bottom: "inception_3a/output"
  top: "inception_3b/1x1"
  param {
    lr_mult: 1
    decay_mult: 1
  }
  param {
    lr_mult: 2
    decay_mult: 0
  }
  convolution_param {
    num_output: 128
    kernel_size: 1
    weight_filler {
      type: "xavier"
      std: 0.03
    }
    bias_filler {
      type: "constant"
      value: 0.2
    }
  }
}
layer {
  name: "inception_3b/relu_1x1"
  type: "ReLU"
  bottom: "inception_3b/1x1"
  top: "inception_3b/1x1"
}
layer {
  name: "inception_3b/3x3_reduce"
  type: "Convolution"
  bottom: "inception_3a/output"
  top: "inception_3b/3x3_reduce"
  param {
    lr_mult: 1
    decay_mult: 1
  }
  param {
    lr_mult: 2
    decay_mult: 0
  }
  convolution_param {
    num_output: 128
    kernel_size: 1
    weight_filler {
      type: "xavier"
      std: 0.09
    }
    bias_filler {
      type: "constant"
      value: 0.2
    }
  }
}
layer {
  name: "inception_3b/relu_3x3_reduce"
  type: "ReLU"
  bottom: "inception_3b/3x3_reduce"
  top: "inception_3b/3x3_reduce"
}
layer {
  name: "inception_3b/3x3"
  type: "Convolution"
  bottom: "inception_3b/3x3_reduce"
  top: "inception_3b/3x3"
  param {
    lr_mult: 1
    decay_mult: 1
  }
  param {
    lr_mult: 2
    decay_mult: 0
  }
  convolution_param {
    num_output: 192
    pad: 1
    kernel_size: 3
    weight_filler {
      type: "xavier"
      std: 0.03
    }
    bias_filler {
      type: "constant"
      value: 0.2
    }
  }
}
layer {
  name: "inception_3b/relu_3x3"
  type: "ReLU"
  bottom: "inception_3b/3x3"
  top: "inception_3b/3x3"
}
layer {
  name: "inception_3b/5x5_reduce"
  type: "Convolution"
  bottom: "inception_3a/output"
  top: "inception_3b/5x5_reduce"
  param {
    lr_mult: 1
    decay_mult: 1
  }
  param {
    lr_mult: 2
    decay_mult: 0
  }
  convolution_param {
    num_output: 32
    kernel_size: 1
    weight_filler {
      type: "xavier"
      std: 0.2
    }
    bias_filler {
      type: "constant"
      value: 0.2
    }
  }
}
layer {
  name: "inception_3b/relu_5x5_reduce"
  type: "ReLU"
  bottom: "inception_3b/5x5_reduce"
  top: "inception_3b/5x5_reduce"
}
layer {
  name: "inception_3b/5x5"
  type: "Convolution"
  bottom: "inception_3b/5x5_reduce"
  top: "inception_3b/5x5"
  param {
    lr_mult: 1
    decay_mult: 1
  }
  param {
    lr_mult: 2
    decay_mult: 0
  }
  convolution_param {
    num_output: 96
    pad: 2
    kernel_size: 5
    weight_filler {
      type: "xavier"
      std: 0.03
    }
    bias_filler {
      type: "constant"
      value: 0.2
    }
  }
}
layer {
  name: "inception_3b/relu_5x5"
  type: "ReLU"
  bottom: "inception_3b/5x5"
  top: "inception_3b/5x5"
}
layer {
  name: "inception_3b/pool"
  type: "Pooling"
  bottom: "inception_3a/output"
  top: "inception_3b/pool"
  pooling_param {
    pool: MAX
    kernel_size: 3
    stride: 1
    pad: 1
  }
}
layer {
  name: "inception_3b/pool_proj"
  type: "Convolution"
  bottom: "inception_3b/pool"
  top: "inception_3b/pool_proj"
  param {
    lr_mult: 1
    decay_mult: 1
  }
  param {
    lr_mult: 2
    decay_mult: 0
  }
  convolution_param {
    num_output: 64
    kernel_size: 1
    weight_filler {
      type: "xavier"
      std: 0.1
    }
    bias_filler {
      type: "constant"
      value: 0.2
    }
  }
}
layer {
  name: "inception_3b/relu_pool_proj"
  type: "ReLU"
  bottom: "inception_3b/pool_proj"
  top: "inception_3b/pool_proj"
}
layer {
  name: "inception_3b/output"
  type: "Concat"
  bottom: "inception_3b/1x1"
  bottom: "inception_3b/3x3"
  bottom: "inception_3b/5x5"
  bottom: "inception_3b/pool_proj"
  top: "inception_3b/output"
}
layer {
  name: "pool3/3x3_s2"
  type: "Pooling"
  bottom: "inception_3b/output"
  top: "pool3/3x3_s2"
  pooling_param {
    pool: MAX
    kernel_size: 3
    stride: 2
  }
}
layer {
  name: "inception_4a/1x1"
  type: "Convolution"
  bottom: "pool3/3x3_s2"
  top: "inception_4a/1x1"
  param {
    lr_mult: 1
    decay_mult: 1
  }
  param {
    lr_mult: 2
    decay_mult: 0
  }
  convolution_param {
    num_output: 192
    kernel_size: 1
    weight_filler {
      type: "xavier"
      std: 0.03
    }
    bias_filler {
      type: "constant"
      value: 0.2
    }
  }
}
layer {
  name: "inception_4a/relu_1x1"
  type: "ReLU"
  bottom: "inception_4a/1x1"
  top: "inception_4a/1x1"
}
layer {
  name: "inception_4a/3x3_reduce"
  type: "Convolution"
  bottom: "pool3/3x3_s2"
  top: "inception_4a/3x3_reduce"
  param {
    lr_mult: 1
    decay_mult: 1
  }
  param {
    lr_mult: 2
    decay_mult: 0
  }
  convolution_param {
    num_output: 96
    kernel_size: 1
    weight_filler {
      type: "xavier"
      std: 0.09
    }
    bias_filler {
      type: "constant"
      value: 0.2
    }
  }
}
layer {
  name: "inception_4a/relu_3x3_reduce"
  type: "ReLU"
  bottom: "inception_4a/3x3_reduce"
  top: "inception_4a/3x3_reduce"
}
layer {
  name: "inception_4a/3x3"
  type: "Convolution"
  bottom: "inception_4a/3x3_reduce"
  top: "inception_4a/3x3"
  param {
    lr_mult: 1
    decay_mult: 1
  }
  param {
    lr_mult: 2
    decay_mult: 0
  }
  convolution_param {
    num_output: 208
    pad: 1
    kernel_size: 3
    weight_filler {
      type: "xavier"
      std: 0.03
    }
    bias_filler {
      type: "constant"
      value: 0.2
    }
  }
}
layer {
  name: "inception_4a/relu_3x3"
  type: "ReLU"
  bottom: "inception_4a/3x3"
  top: "inception_4a/3x3"
}
layer {
  name: "inception_4a/5x5_reduce"
  type: "Convolution"
  bottom: "pool3/3x3_s2"
  top: "inception_4a/5x5_reduce"
  param {
    lr_mult: 1
    decay_mult: 1
  }
  param {
    lr_mult: 2
    decay_mult: 0
  }
  convolution_param {
    num_output: 16
    kernel_size: 1
    weight_filler {
      type: "xavier"
      std: 0.2
    }
    bias_filler {
      type: "constant"
      value: 0.2
    }
  }
}
layer {
  name: "inception_4a/relu_5x5_reduce"
  type: "ReLU"
  bottom: "inception_4a/5x5_reduce"
  top: "inception_4a/5x5_reduce"
}
layer {
  name: "inception_4a/5x5"
  type: "Convolution"
  bottom: "inception_4a/5x5_reduce"
  top: "inception_4a/5x5"
  param {
    lr_mult: 1
    decay_mult: 1
  }
  param {
    lr_mult: 2
    decay_mult: 0
  }
  convolution_param {
    num_output: 48
    pad: 2
    kernel_size: 5
    weight_filler {
      type: "xavier"
      std: 0.03
    }
    bias_filler {
      type: "constant"
      value: 0.2
    }
  }
}
layer {
  name: "inception_4a/relu_5x5"
  type: "ReLU"
  bottom: "inception_4a/5x5"
  top: "inception_4a/5x5"
}
layer {
  name: "inception_4a/pool"
  type: "Pooling"
  bottom: "pool3/3x3_s2"
  top: "inception_4a/pool"
  pooling_param {
    pool: MAX
    kernel_size: 3
    stride: 1
    pad: 1
  }
}
layer {
  name: "inception_4a/pool_proj"
  type: "Convolution"
  bottom: "inception_4a/pool"
  top: "inception_4a/pool_proj"
  param {
    lr_mult: 1
    decay_mult: 1
  }
  param {
    lr_mult: 2
    decay_mult: 0
  }
  convolution_param {
    num_output: 64
    kernel_size: 1
    weight_filler {
      type: "xavier"
      std: 0.1
    }
    bias_filler {
      type: "constant"
      value: 0.2
    }
  }
}
layer {
  name: "inception_4a/relu_pool_proj"
  type: "ReLU"
  bottom: "inception_4a/pool_proj"
  top: "inception_4a/pool_proj"
}
layer {
  name: "inception_4a/output"
  type: "Concat"
  bottom: "inception_4a/1x1"
  bottom: "inception_4a/3x3"
  bottom: "inception_4a/5x5"
  bottom: "inception_4a/pool_proj"
  top: "inception_4a/output"
}
layer {
  name: "loss1/ave_pool"
  type: "Pooling"
  bottom: "inception_4a/output"
  top: "loss1/ave_pool"
  pooling_param {
    pool: AVE
    kernel_size: 5
    stride: 3
  }
}
layer {
  name: "loss1/conv"
  type: "Convolution"
  bottom: "loss1/ave_pool"
  top: "loss1/conv"
  param {
    lr_mult: 1
    decay_mult: 1
  }
  param {
    lr_mult: 2
    decay_mult: 0
  }
  convolution_param {
    num_output: 128
    kernel_size: 1
    weight_filler {
      type: "xavier"
      std: 0.08
    }
    bias_filler {
      type: "constant"
      value: 0.2
    }
  }
}
layer {
  name: "loss1/relu_conv"
  type: "ReLU"
  bottom: "loss1/conv"
  top: "loss1/conv"
}
layer {
  name: "loss1/fc"
  type: "InnerProduct"
  bottom: "loss1/conv"
  top: "loss1/fc"
  param {
    lr_mult: 1
    decay_mult: 1
  }
  param {
    lr_mult: 2
    decay_mult: 0
  }
  inner_product_param {
    num_output: 1024
    weight_filler {
      type: "xavier"
      std: 0.02
    }
    bias_filler {
      type: "constant"
      value: 0.2
    }
  }
}
layer {
  name: "loss1/relu_fc"
  type: "ReLU"
  bottom: "loss1/fc"
  top: "loss1/fc"
}
layer {
  name: "loss1/drop_fc"
  type: "Dropout"
  bottom: "loss1/fc"
  top: "loss1/fc"
  dropout_param {
    dropout_ratio: 0.7
  }
}
layer {
  name: "loss1/classifier_plantvillage"
  type: "InnerProduct"
  bottom: "loss1/fc"
  top: "loss1/classifier_plantvillage"
  param {
    lr_mult: 1
    decay_mult: 1
  }
  param {
    lr_mult: 2
    decay_mult: 0
  }
  inner_product_param {
    num_output: 38
    weight_filler {
      type: "xavier"
      std: 0.0009765625
    }
    bias_filler {
      type: "constant"
      value: 0
    }
  }
}
layer {
  name: "inception_4b/1x1"
  type: "Convolution"
  bottom: "inception_4a/output"
  top: "inception_4b/1x1"
  param {
    lr_mult: 1
    decay_mult: 1
  }
  param {
    lr_mult: 2
    decay_mult: 0
  }
  convolution_param {
    num_output: 160
    kernel_size: 1
    weight_filler {
      type: "xavier"
      std: 0.03
    }
    bias_filler {
      type: "constant"
      value: 0.2
    }
  }
}
layer {
  name: "inception_4b/relu_1x1"
  type: "ReLU"
  bottom: "inception_4b/1x1"
  top: "inception_4b/1x1"
}
layer {
  name: "inception_4b/3x3_reduce"
  type: "Convolution"
  bottom: "inception_4a/output"
  top: "inception_4b/3x3_reduce"
  param {
    lr_mult: 1
    decay_mult: 1
  }
  param {
    lr_mult: 2
    decay_mult: 0
  }
  convolution_param {
    num_output: 112
    kernel_size: 1
    weight_filler {
      type: "xavier"
      std: 0.09
    }
    bias_filler {
      type: "constant"
      value: 0.2
    }
  }
}
layer {
  name: "inception_4b/relu_3x3_reduce"
  type: "ReLU"
  bottom: "inception_4b/3x3_reduce"
  top: "inception_4b/3x3_reduce"
}
layer {
  name: "inception_4b/3x3"
  type: "Convolution"
  bottom: "inception_4b/3x3_reduce"
  top: "inception_4b/3x3"
  param {
    lr_mult: 1
    decay_mult: 1
  }
  param {
    lr_mult: 2
    decay_mult: 0
  }
  convolution_param {
    num_output: 224
    pad: 1
    kernel_size: 3
    weight_filler {
      type: "xavier"
      std: 0.03
    }
    bias_filler {
      type: "constant"
      value: 0.2
    }
  }
}
layer {
  name: "inception_4b/relu_3x3"
  type: "ReLU"
  bottom: "inception_4b/3x3"
  top: "inception_4b/3x3"
}
layer {
  name: "inception_4b/5x5_reduce"
  type: "Convolution"
  bottom: "inception_4a/output"
  top: "inception_4b/5x5_reduce"
  param {
    lr_mult: 1
    decay_mult: 1
  }
  param {
    lr_mult: 2
    decay_mult: 0
  }
  convolution_param {
    num_output: 24
    kernel_size: 1
    weight_filler {
      type: "xavier"
      std: 0.2
    }
    bias_filler {
      type: "constant"
      value: 0.2
    }
  }
}
layer {
  name: "inception_4b/relu_5x5_reduce"
  type: "ReLU"
  bottom: "inception_4b/5x5_reduce"
  top: "inception_4b/5x5_reduce"
}
layer {
  name: "inception_4b/5x5"
  type: "Convolution"
  bottom: "inception_4b/5x5_reduce"
  top: "inception_4b/5x5"
  param {
    lr_mult: 1
    decay_mult: 1
  }
  param {
    lr_mult: 2
    decay_mult: 0
  }
  convolution_param {
    num_output: 64
    pad: 2
    kernel_size: 5
    weight_filler {
      type: "xavier"
      std: 0.03
    }
    bias_filler {
      type: "constant"
      value: 0.2
    }
  }
}
layer {
  name: "inception_4b/relu_5x5"
  type: "ReLU"
  bottom: "inception_4b/5x5"
  top: "inception_4b/5x5"
}
layer {
  name: "inception_4b/pool"
  type: "Pooling"
  bottom: "inception_4a/output"
  top: "inception_4b/pool"
  pooling_param {
    pool: MAX
    kernel_size: 3
    stride: 1
    pad: 1
  }
}
layer {
  name: "inception_4b/pool_proj"
  type: "Convolution"
  bottom: "inception_4b/pool"
  top: "inception_4b/pool_proj"
  param {
    lr_mult: 1
    decay_mult: 1
  }
  param {
    lr_mult: 2
    decay_mult: 0
  }
  convolution_param {
    num_output: 64
    kernel_size: 1
    weight_filler {
      type: "xavier"
      std: 0.1
    }
    bias_filler {
      type: "constant"
      value: 0.2
    }
  }
}
layer {
  name: "inception_4b/relu_pool_proj"
  type: "ReLU"
  bottom: "inception_4b/pool_proj"
  top: "inception_4b/pool_proj"
}
layer {
  name: "inception_4b/output"
  type: "Concat"
  bottom: "inception_4b/1x1"
  bottom: "inception_4b/3x3"
  bottom: "inception_4b/5x5"
  bottom: "inception_4b/pool_proj"
  top: "inception_4b/output"
}
layer {
  name: "inception_4c/1x1"
  type: "Convolution"
  bottom: "inception_4b/output"
  top: "inception_4c/1x1"
  param {
    lr_mult: 1
    decay_mult: 1
  }
  param {
    lr_mult: 2
    decay_mult: 0
  }
  convolution_param {
    num_output: 128
    kernel_size: 1
    weight_filler {
      type: "xavier"
      std: 0.03
    }
    bias_filler {
      type: "constant"
      value: 0.2
    }
  }
}
layer {
  name: "inception_4c/relu_1x1"
  type: "ReLU"
  bottom: "inception_4c/1x1"
  top: "inception_4c/1x1"
}
layer {
  name: "inception_4c/3x3_reduce"
  type: "Convolution"
  bottom: "inception_4b/output"
  top: "inception_4c/3x3_reduce"
  param {
    lr_mult: 1
    decay_mult: 1
  }
  param {
    lr_mult: 2
    decay_mult: 0
  }
  convolution_param {
    num_output: 128
    kernel_size: 1
    weight_filler {
      type: "xavier"
      std: 0.09
    }
    bias_filler {
      type: "constant"
      value: 0.2
    }
  }
}
layer {
  name: "inception_4c/relu_3x3_reduce"
  type: "ReLU"
  bottom: "inception_4c/3x3_reduce"
  top: "inception_4c/3x3_reduce"
}
layer {
  name: "inception_4c/3x3"
  type: "Convolution"
  bottom: "inception_4c/3x3_reduce"
  top: "inception_4c/3x3"
  param {
    lr_mult: 1
    decay_mult: 1
  }
  param {
    lr_mult: 2
    decay_mult: 0
  }
  convolution_param {
    num_output: 256
    pad: 1
    kernel_size: 3
    weight_filler {
      type: "xavier"
      std: 0.03
    }
    bias_filler {
      type: "constant"
      value: 0.2
    }
  }
}
layer {
  name: "inception_4c/relu_3x3"
  type: "ReLU"
  bottom: "inception_4c/3x3"
  top: "inception_4c/3x3"
}
layer {
  name: "inception_4c/5x5_reduce"
  type: "Convolution"
  bottom: "inception_4b/output"
  top: "inception_4c/5x5_reduce"
  param {
    lr_mult: 1
    decay_mult: 1
  }
  param {
    lr_mult: 2
    decay_mult: 0
  }
  convolution_param {
    num_output: 24
    kernel_size: 1
    weight_filler {
      type: "xavier"
      std: 0.2
    }
    bias_filler {
      type: "constant"
      value: 0.2
    }
  }
}
layer {
  name: "inception_4c/relu_5x5_reduce"
  type: "ReLU"
  bottom: "inception_4c/5x5_reduce"
  top: "inception_4c/5x5_reduce"
}
layer {
  name: "inception_4c/5x5"
  type: "Convolution"
  bottom: "inception_4c/5x5_reduce"
  top: "inception_4c/5x5"
  param {
    lr_mult: 1
    decay_mult: 1
  }
  param {
    lr_mult: 2
    decay_mult: 0
  }
  convolution_param {
    num_output: 64
    pad: 2
    kernel_size: 5
    weight_filler {
      type: "xavier"
      std: 0.03
    }
    bias_filler {
      type: "constant"
      value: 0.2
    }
  }
}
layer {
  name: "inception_4c/relu_5x5"
  type: "ReLU"
  bottom: "inception_4c/5x5"
  top: "inception_4c/5x5"
}
layer {
  name: "inception_4c/pool"
  type: "Pooling"
  bottom: "inception_4b/output"
  top: "inception_4c/pool"
  pooling_param {
    pool: MAX
    kernel_size: 3
    stride: 1
    pad: 1
  }
}
layer {
  name: "inception_4c/pool_proj"
  type: "Convolution"
  bottom: "inception_4c/pool"
  top: "inception_4c/pool_proj"
  param {
    lr_mult: 1
    decay_mult: 1
  }
  param {
    lr_mult: 2
    decay_mult: 0
  }
  convolution_param {
    num_output: 64
    kernel_size: 1
    weight_filler {
      type: "xavier"
      std: 0.1
    }
    bias_filler {
      type: "constant"
      value: 0.2
    }
  }
}
layer {
  name: "inception_4c/relu_pool_proj"
  type: "ReLU"
  bottom: "inception_4c/pool_proj"
  top: "inception_4c/pool_proj"
}
layer {
  name: "inception_4c/output"
  type: "Concat"
  bottom: "inception_4c/1x1"
  bottom: "inception_4c/3x3"
  bottom: "inception_4c/5x5"
  bottom: "inception_4c/pool_proj"
  top: "inception_4c/output"
}
layer {
  name: "inception_4d/1x1"
  type: "Convolution"
  bottom: "inception_4c/output"
  top: "inception_4d/1x1"
  param {
    lr_mult: 1
    decay_mult: 1
  }
  param {
    lr_mult: 2
    decay_mult: 0
  }
  convolution_param {
    num_output: 112
    kernel_size: 1
    weight_filler {
      type: "xavier"
      std: 0.03
    }
    bias_filler {
      type: "constant"
      value: 0.2
    }
  }
}
layer {
  name: "inception_4d/relu_1x1"
  type: "ReLU"
  bottom: "inception_4d/1x1"
  top: "inception_4d/1x1"
}
layer {
  name: "inception_4d/3x3_reduce"
  type: "Convolution"
  bottom: "inception_4c/output"
  top: "inception_4d/3x3_reduce"
  param {
    lr_mult: 1
    decay_mult: 1
  }
  param {
    lr_mult: 2
    decay_mult: 0
  }
  convolution_param {
    num_output: 144
    kernel_size: 1
    weight_filler {
      type: "xavier"
      std: 0.09
    }
    bias_filler {
      type: "constant"
      value: 0.2
    }
  }
}
layer {
  name: "inception_4d/relu_3x3_reduce"
  type: "ReLU"
  bottom: "inception_4d/3x3_reduce"
  top: "inception_4d/3x3_reduce"
}
layer {
  name: "inception_4d/3x3"
  type: "Convolution"
  bottom: "inception_4d/3x3_reduce"
  top: "inception_4d/3x3"
  param {
    lr_mult: 1
    decay_mult: 1
  }
  param {
    lr_mult: 2
    decay_mult: 0
  }
  convolution_param {
    num_output: 288
    pad: 1
    kernel_size: 3
    weight_filler {
      type: "xavier"
      std: 0.03
    }
    bias_filler {
      type: "constant"
      value: 0.2
    }
  }
}
layer {
  name: "inception_4d/relu_3x3"
  type: "ReLU"
  bottom: "inception_4d/3x3"
  top: "inception_4d/3x3"
}
layer {
  name: "inception_4d/5x5_reduce"
  type: "Convolution"
  bottom: "inception_4c/output"
  top: "inception_4d/5x5_reduce"
  param {
    lr_mult: 1
    decay_mult: 1
  }
  param {
    lr_mult: 2
    decay_mult: 0
  }
  convolution_param {
    num_output: 32
    kernel_size: 1
    weight_filler {
      type: "xavier"
      std: 0.2
    }
    bias_filler {
      type: "constant"
      value: 0.2
    }
  }
}
layer {
  name: "inception_4d/relu_5x5_reduce"
  type: "ReLU"
  bottom: "inception_4d/5x5_reduce"
  top: "inception_4d/5x5_reduce"
}
layer {
  name: "inception_4d/5x5"
  type: "Convolution"
  bottom: "inception_4d/5x5_reduce"
  top: "inception_4d/5x5"
  param {
    lr_mult: 1
    decay_mult: 1
  }
  param {
    lr_mult: 2
    decay_mult: 0
  }
  convolution_param {
    num_output: 64
    pad: 2
    kernel_size: 5
    weight_filler {
      type: "xavier"
      std: 0.03
    }
    bias_filler {
      type: "constant"
      value: 0.2
    }
  }
}
layer {
  name: "inception_4d/relu_5x5"
  type: "ReLU"
  bottom: "inception_4d/5x5"
  top: "inception_4d/5x5"
}
layer {
  name: "inception_4d/pool"
  type: "Pooling"
  bottom: "inception_4c/output"
  top: "inception_4d/pool"
  pooling_param {
    pool: MAX
    kernel_size: 3
    stride: 1
    pad: 1
  }
}
layer {
  name: "inception_4d/pool_proj"
  type: "Convolution"
  bottom: "inception_4d/pool"
  top: "inception_4d/pool_proj"
  param {
    lr_mult: 1
    decay_mult: 1
  }
  param {
    lr_mult: 2
    decay_mult: 0
  }
  convolution_param {
    num_output: 64
    kernel_size: 1
    weight_filler {
      type: "xavier"
      std: 0.1
    }
    bias_filler {
      type: "constant"
      value: 0.2
    }
  }
}
layer {
  name: "inception_4d/relu_pool_proj"
  type: "ReLU"
  bottom: "inception_4d/pool_proj"
  top: "inception_4d/pool_proj"
}
layer {
  name: "inception_4d/output"
  type: "Concat"
  bottom: "inception_4d/1x1"
  bottom: "inception_4d/3x3"
  bottom: "inception_4d/5x5"
  bottom: "inception_4d/pool_proj"
  top: "inception_4d/output"
}
layer {
  name: "loss2/ave_pool"
  type: "Pooling"
  bottom: "inception_4d/output"
  top: "loss2/ave_pool"
  pooling_param {
    pool: AVE
    kernel_size: 5
    stride: 3
  }
}
layer {
  name: "loss2/conv"
  type: "Convolution"
  bottom: "loss2/ave_pool"
  top: "loss2/conv"
  param {
    lr_mult: 1
    decay_mult: 1
  }
  param {
    lr_mult: 2
    decay_mult: 0
  }
  convolution_param {
    num_output: 128
    kernel_size: 1
    weight_filler {
      type: "xavier"
      std: 0.08
    }
    bias_filler {
      type: "constant"
      value: 0.2
    }
  }
}
layer {
  name: "loss2/relu_conv"
  type: "ReLU"
  bottom: "loss2/conv"
  top: "loss2/conv"
}
layer {
  name: "loss2/fc"
  type: "InnerProduct"
  bottom: "loss2/conv"
  top: "loss2/fc"
  param {
    lr_mult: 1
    decay_mult: 1
  }
  param {
    lr_mult: 2
    decay_mult: 0
  }
  inner_product_param {
    num_output: 1024
    weight_filler {
      type: "xavier"
      std: 0.02
    }
    bias_filler {
      type: "constant"
      value: 0.2
    }
  }
}
layer {
  name: "loss2/relu_fc"
  type: "ReLU"
  bottom: "loss2/fc"
  top: "loss2/fc"
}
layer {
  name: "loss2/drop_fc"
  type: "Dropout"
  bottom: "loss2/fc"
  top: "loss2/fc"
  dropout_param {
    dropout_ratio: 0.7
  }
}
layer {
  name: "loss2/classifier_plantvillage"
  type: "InnerProduct"
  bottom: "loss2/fc"
  top: "loss2/classifier_plantvillage"
  param {
    lr_mult: 1
    decay_mult: 1
  }
  param {
    lr_mult: 2
    decay_mult: 0
  }
  inner_product_param {
    num_output: 38
    weight_filler {
      type: "xavier"
      std: 0.0009765625
    }
    bias_filler {
      type: "constant"
      value: 0
    }
  }
}
layer {
  name: "inception_4e/1x1"
  type: "Convolution"
  bottom: "inception_4d/output"
  top: "inception_4e/1x1"
  param {
    lr_mult: 1
    decay_mult: 1
  }
  param {
    lr_mult: 2
    decay_mult: 0
  }
  convolution_param {
    num_output: 256
    kernel_size: 1
    weight_filler {
      type: "xavier"
      std: 0.03
    }
    bias_filler {
      type: "constant"
      value: 0.2
    }
  }
}
layer {
  name: "inception_4e/relu_1x1"
  type: "ReLU"
  bottom: "inception_4e/1x1"
  top: "inception_4e/1x1"
}
layer {
  name: "inception_4e/3x3_reduce"
  type: "Convolution"
  bottom: "inception_4d/output"
  top: "inception_4e/3x3_reduce"
  param {
    lr_mult: 1
    decay_mult: 1
  }
  param {
    lr_mult: 2
    decay_mult: 0
  }
  convolution_param {
    num_output: 160
    kernel_size: 1
    weight_filler {
      type: "xavier"
      std: 0.09
    }
    bias_filler {
      type: "constant"
      value: 0.2
    }
  }
}
layer {
  name: "inception_4e/relu_3x3_reduce"
  type: "ReLU"
  bottom: "inception_4e/3x3_reduce"
  top: "inception_4e/3x3_reduce"
}
layer {
  name: "inception_4e/3x3"
  type: "Convolution"
  bottom: "inception_4e/3x3_reduce"
  top: "inception_4e/3x3"
  param {
    lr_mult: 1
    decay_mult: 1
  }
  param {
    lr_mult: 2
    decay_mult: 0
  }
  convolution_param {
    num_output: 320
    pad: 1
    kernel_size: 3
    weight_filler {
      type: "xavier"
      std: 0.03
    }
    bias_filler {
      type: "constant"
      value: 0.2
    }
  }
}
layer {
  name: "inception_4e/relu_3x3"
  type: "ReLU"
  bottom: "inception_4e/3x3"
  top: "inception_4e/3x3"
}
layer {
  name: "inception_4e/5x5_reduce"
  type: "Convolution"
  bottom: "inception_4d/output"
  top: "inception_4e/5x5_reduce"
  param {
    lr_mult: 1
    decay_mult: 1
  }
  param {
    lr_mult: 2
    decay_mult: 0
  }
  convolution_param {
    num_output: 32
    kernel_size: 1
    weight_filler {
      type: "xavier"
      std: 0.2
    }
    bias_filler {
      type: "constant"
      value: 0.2
    }
  }
}
layer {
  name: "inception_4e/relu_5x5_reduce"
  type: "ReLU"
  bottom: "inception_4e/5x5_reduce"
  top: "inception_4e/5x5_reduce"
}
layer {
  name: "inception_4e/5x5"
  type: "Convolution"
  bottom: "inception_4e/5x5_reduce"
  top: "inception_4e/
I0403 15:54:04.541270 11703 layer_factory.hpp:77] Creating layer data
I0403 15:54:04.541858 11703 net.cpp:91] Creating Layer data
I0403 15:54:04.541890 11703 net.cpp:399] data -> data
I0403 15:54:04.541942 11703 net.cpp:399] data -> label
I0403 15:54:04.541982 11703 data_transformer.cpp:25] Loading mean file from: /home/mohanty/data/final_dataset/lmdb/segmented-80-20/mean.binaryproto
I0403 15:54:04.545356 11706 db_lmdb.cpp:38] Opened lmdb /home/mohanty/data/final_dataset/lmdb/segmented-80-20/test_db
I0403 15:54:04.555184 11703 data_layer.cpp:41] output data size: 24,3,224,224
I0403 15:54:04.582968 11703 net.cpp:141] Setting up data
I0403 15:54:04.583060 11703 net.cpp:148] Top shape: 24 3 224 224 (3612672)
I0403 15:54:04.583084 11703 net.cpp:148] Top shape: 24 (24)
I0403 15:54:04.583101 11703 net.cpp:156] Memory required for data: 14450784
I0403 15:54:04.583129 11703 layer_factory.hpp:77] Creating layer label_data_1_split
I0403 15:54:04.583158 11703 net.cpp:91] Creating Layer label_data_1_split
I0403 15:54:04.583178 11703 net.cpp:425] label_data_1_split <- label
I0403 15:54:04.583210 11703 net.cpp:399] label_data_1_split -> label_data_1_split_0
I0403 15:54:04.583240 11703 net.cpp:399] label_data_1_split -> label_data_1_split_1
I0403 15:54:04.583263 11703 net.cpp:399] label_data_1_split -> label_data_1_split_2
I0403 15:54:04.583287 11703 net.cpp:399] label_data_1_split -> label_data_1_split_3
I0403 15:54:04.583307 11703 net.cpp:399] label_data_1_split -> label_data_1_split_4
I0403 15:54:04.583326 11703 net.cpp:399] label_data_1_split -> label_data_1_split_5
I0403 15:54:04.583348 11703 net.cpp:399] label_data_1_split -> label_data_1_split_6
I0403 15:54:04.583367 11703 net.cpp:399] label_data_1_split -> label_data_1_split_7
I0403 15:54:04.583386 11703 net.cpp:399] label_data_1_split -> label_data_1_split_8
I0403 15:54:04.583407 11703 net.cpp:399] label_data_1_split -> label_data_1_split_9
I0403 15:54:04.583529 11703 net.cpp:141] Setting up label_data_1_split
I0403 15:54:04.583554 11703 net.cpp:148] Top shape: 24 (24)
I0403 15:54:04.583571 11703 net.cpp:148] Top shape: 24 (24)
I0403 15:54:04.583588 11703 net.cpp:148] Top shape: 24 (24)
I0403 15:54:04.583603 11703 net.cpp:148] Top shape: 24 (24)
I0403 15:54:04.583619 11703 net.cpp:148] Top shape: 24 (24)
I0403 15:54:04.583636 11703 net.cpp:148] Top shape: 24 (24)
I0403 15:54:04.583652 11703 net.cpp:148] Top shape: 24 (24)
I0403 15:54:04.583667 11703 net.cpp:148] Top shape: 24 (24)
I0403 15:54:04.583683 11703 net.cpp:148] Top shape: 24 (24)
I0403 15:54:04.583699 11703 net.cpp:148] Top shape: 24 (24)
I0403 15:54:04.583745 11703 net.cpp:156] Memory required for data: 14451744
I0403 15:54:04.583761 11703 layer_factory.hpp:77] Creating layer conv1/7x7_s2
I0403 15:54:04.583794 11703 net.cpp:91] Creating Layer conv1/7x7_s2
I0403 15:54:04.583813 11703 net.cpp:425] conv1/7x7_s2 <- data
I0403 15:54:04.583834 11703 net.cpp:399] conv1/7x7_s2 -> conv1/7x7_s2
I0403 15:54:04.727350 11703 net.cpp:141] Setting up conv1/7x7_s2
I0403 15:54:04.727437 11703 net.cpp:148] Top shape: 24 64 112 112 (19267584)
I0403 15:54:04.727454 11703 net.cpp:156] Memory required for data: 91522080
I0403 15:54:04.727484 11703 layer_factory.hpp:77] Creating layer conv1/relu_7x7
I0403 15:54:04.727511 11703 net.cpp:91] Creating Layer conv1/relu_7x7
I0403 15:54:04.727530 11703 net.cpp:425] conv1/relu_7x7 <- conv1/7x7_s2
I0403 15:54:04.727550 11703 net.cpp:386] conv1/relu_7x7 -> conv1/7x7_s2 (in-place)
I0403 15:54:04.727812 11703 net.cpp:141] Setting up conv1/relu_7x7
I0403 15:54:04.727839 11703 net.cpp:148] Top shape: 24 64 112 112 (19267584)
I0403 15:54:04.727855 11703 net.cpp:156] Memory required for data: 168592416
I0403 15:54:04.727871 11703 layer_factory.hpp:77] Creating layer pool1/3x3_s2
I0403 15:54:04.727896 11703 net.cpp:91] Creating Layer pool1/3x3_s2
I0403 15:54:04.727915 11703 net.cpp:425] pool1/3x3_s2 <- conv1/7x7_s2
I0403 15:54:04.727933 11703 net.cpp:399] pool1/3x3_s2 -> pool1/3x3_s2
I0403 15:54:04.728013 11703 net.cpp:141] Setting up pool1/3x3_s2
I0403 15:54:04.728037 11703 net.cpp:148] Top shape: 24 64 56 56 (4816896)
I0403 15:54:04.728054 11703 net.cpp:156] Memory required for data: 187860000
I0403 15:54:04.728068 11703 layer_factory.hpp:77] Creating layer pool1/norm1
I0403 15:54:04.728092 11703 net.cpp:91] Creating Layer pool1/norm1
I0403 15:54:04.728109 11703 net.cpp:425] pool1/norm1 <- pool1/3x3_s2
I0403 15:54:04.728128 11703 net.cpp:399] pool1/norm1 -> pool1/norm1
I0403 15:54:04.728421 11703 net.cpp:141] Setting up pool1/norm1
I0403 15:54:04.728449 11703 net.cpp:148] Top shape: 24 64 56 56 (4816896)
I0403 15:54:04.728466 11703 net.cpp:156] Memory required for data: 207127584
I0403 15:54:04.728489 11703 layer_factory.hpp:77] Creating layer conv2/3x3_reduce
I0403 15:54:04.728514 11703 net.cpp:91] Creating Layer conv2/3x3_reduce
I0403 15:54:04.728533 11703 net.cpp:425] conv2/3x3_reduce <- pool1/norm1
I0403 15:54:04.728550 11703 net.cpp:399] conv2/3x3_reduce -> conv2/3x3_reduce
I0403 15:54:04.729924 11703 net.cpp:141] Setting up conv2/3x3_reduce
I0403 15:54:04.729954 11703 net.cpp:148] Top shape: 24 64 56 56 (4816896)
I0403 15:54:04.729971 11703 net.cpp:156] Memory required for data: 226395168
I0403 15:54:04.729998 11703 layer_factory.hpp:77] Creating layer conv2/relu_3x3_reduce
I0403 15:54:04.730018 11703 net.cpp:91] Creating Layer conv2/relu_3x3_reduce
I0403 15:54:04.730034 11703 net.cpp:425] conv2/relu_3x3_reduce <- conv2/3x3_reduce
I0403 15:54:04.730052 11703 net.cpp:386] conv2/relu_3x3_reduce -> conv2/3x3_reduce (in-place)
I0403 15:54:04.730329 11703 net.cpp:141] Setting up conv2/relu_3x3_reduce
I0403 15:54:04.730358 11703 net.cpp:148] Top shape: 24 64 56 56 (4816896)
I0403 15:54:04.730375 11703 net.cpp:156] Memory required for data: 245662752
I0403 15:54:04.730389 11703 layer_factory.hpp:77] Creating layer conv2/3x3
I0403 15:54:04.730412 11703 net.cpp:91] Creating Layer conv2/3x3
I0403 15:54:04.730428 11703 net.cpp:425] conv2/3x3 <- conv2/3x3_reduce
I0403 15:54:04.730448 11703 net.cpp:399] conv2/3x3 -> conv2/3x3
I0403 15:54:04.732831 11703 net.cpp:141] Setting up conv2/3x3
I0403 15:54:04.732863 11703 net.cpp:148] Top shape: 24 192 56 56 (14450688)
I0403 15:54:04.732880 11703 net.cpp:156] Memory required for data: 303465504
I0403 15:54:04.732903 11703 layer_factory.hpp:77] Creating layer conv2/relu_3x3
I0403 15:54:04.732921 11703 net.cpp:91] Creating Layer conv2/relu_3x3
I0403 15:54:04.732939 11703 net.cpp:425] conv2/relu_3x3 <- conv2/3x3
I0403 15:54:04.732957 11703 net.cpp:386] conv2/relu_3x3 -> conv2/3x3 (in-place)
I0403 15:54:04.733141 11703 net.cpp:141] Setting up conv2/relu_3x3
I0403 15:54:04.733168 11703 net.cpp:148] Top shape: 24 192 56 56 (14450688)
I0403 15:54:04.733214 11703 net.cpp:156] Memory required for data: 361268256
I0403 15:54:04.733230 11703 layer_factory.hpp:77] Creating layer conv2/norm2
I0403 15:54:04.733252 11703 net.cpp:91] Creating Layer conv2/norm2
I0403 15:54:04.733268 11703 net.cpp:425] conv2/norm2 <- conv2/3x3
I0403 15:54:04.733286 11703 net.cpp:399] conv2/norm2 -> conv2/norm2
I0403 15:54:04.733597 11703 net.cpp:141] Setting up conv2/norm2
I0403 15:54:04.733625 11703 net.cpp:148] Top shape: 24 192 56 56 (14450688)
I0403 15:54:04.733641 11703 net.cpp:156] Memory required for data: 419071008
I0403 15:54:04.733656 11703 layer_factory.hpp:77] Creating layer pool2/3x3_s2
I0403 15:54:04.733677 11703 net.cpp:91] Creating Layer pool2/3x3_s2
I0403 15:54:04.733695 11703 net.cpp:425] pool2/3x3_s2 <- conv2/norm2
I0403 15:54:04.733713 11703 net.cpp:399] pool2/3x3_s2 -> pool2/3x3_s2
I0403 15:54:04.733768 11703 net.cpp:141] Setting up pool2/3x3_s2
I0403 15:54:04.733791 11703 net.cpp:148] Top shape: 24 192 28 28 (3612672)
I0403 15:54:04.733806 11703 net.cpp:156] Memory required for data: 433521696
I0403 15:54:04.733821 11703 layer_factory.hpp:77] Creating layer pool2/3x3_s2_pool2/3x3_s2_0_split
I0403 15:54:04.733841 11703 net.cpp:91] Creating Layer pool2/3x3_s2_pool2/3x3_s2_0_split
I0403 15:54:04.733857 11703 net.cpp:425] pool2/3x3_s2_pool2/3x3_s2_0_split <- pool2/3x3_s2
I0403 15:54:04.733875 11703 net.cpp:399] pool2/3x3_s2_pool2/3x3_s2_0_split -> pool2/3x3_s2_pool2/3x3_s2_0_split_0
I0403 15:54:04.733894 11703 net.cpp:399] pool2/3x3_s2_pool2/3x3_s2_0_split -> pool2/3x3_s2_pool2/3x3_s2_0_split_1
I0403 15:54:04.733913 11703 net.cpp:399] pool2/3x3_s2_pool2/3x3_s2_0_split -> pool2/3x3_s2_pool2/3x3_s2_0_split_2
I0403 15:54:04.733933 11703 net.cpp:399] pool2/3x3_s2_pool2/3x3_s2_0_split -> pool2/3x3_s2_pool2/3x3_s2_0_split_3
I0403 15:54:04.734014 11703 net.cpp:141] Setting up pool2/3x3_s2_pool2/3x3_s2_0_split
I0403 15:54:04.734038 11703 net.cpp:148] Top shape: 24 192 28 28 (3612672)
I0403 15:54:04.734055 11703 net.cpp:148] Top shape: 24 192 28 28 (3612672)
I0403 15:54:04.734071 11703 net.cpp:148] Top shape: 24 192 28 28 (3612672)
I0403 15:54:04.734087 11703 net.cpp:148] Top shape: 24 192 28 28 (3612672)
I0403 15:54:04.734102 11703 net.cpp:156] Memory required for data: 491324448
I0403 15:54:04.734117 11703 layer_factory.hpp:77] Creating layer inception_3a/1x1
I0403 15:54:04.734138 11703 net.cpp:91] Creating Layer inception_3a/1x1
I0403 15:54:04.734156 11703 net.cpp:425] inception_3a/1x1 <- pool2/3x3_s2_pool2/3x3_s2_0_split_0
I0403 15:54:04.734177 11703 net.cpp:399] inception_3a/1x1 -> inception_3a/1x1
I0403 15:54:04.735759 11703 net.cpp:141] Setting up inception_3a/1x1
I0403 15:54:04.735792 11703 net.cpp:148] Top shape: 24 64 28 28 (1204224)
I0403 15:54:04.735810 11703 net.cpp:156] Memory required for data: 496141344
I0403 15:54:04.735827 11703 layer_factory.hpp:77] Creating layer inception_3a/relu_1x1
I0403 15:54:04.735846 11703 net.cpp:91] Creating Layer inception_3a/relu_1x1
I0403 15:54:04.735863 11703 net.cpp:425] inception_3a/relu_1x1 <- inception_3a/1x1
I0403 15:54:04.735882 11703 net.cpp:386] inception_3a/relu_1x1 -> inception_3a/1x1 (in-place)
I0403 15:54:04.736070 11703 net.cpp:141] Setting up inception_3a/relu_1x1
I0403 15:54:04.736095 11703 net.cpp:148] Top shape: 24 64 28 28 (1204224)
I0403 15:54:04.736110 11703 net.cpp:156] Memory required for data: 500958240
I0403 15:54:04.736125 11703 layer_factory.hpp:77] Creating layer inception_3a/3x3_reduce
I0403 15:54:04.736148 11703 net.cpp:91] Creating Layer inception_3a/3x3_reduce
I0403 15:54:04.736166 11703 net.cpp:425] inception_3a/3x3_reduce <- pool2/3x3_s2_pool2/3x3_s2_0_split_1
I0403 15:54:04.736186 11703 net.cpp:399] inception_3a/3x3_reduce -> inception_3a/3x3_reduce
I0403 15:54:04.737938 11703 net.cpp:141] Setting up inception_3a/3x3_reduce
I0403 15:54:04.737969 11703 net.cpp:148] Top shape: 24 96 28 28 (1806336)
I0403 15:54:04.737992 11703 net.cpp:156] Memory required for data: 508183584
I0403 15:54:04.738014 11703 layer_factory.hpp:77] Creating layer inception_3a/relu_3x3_reduce
I0403 15:54:04.738052 11703 net.cpp:91] Creating Layer inception_3a/relu_3x3_reduce
I0403 15:54:04.738071 11703 net.cpp:425] inception_3a/relu_3x3_reduce <- inception_3a/3x3_reduce
I0403 15:54:04.738090 11703 net.cpp:386] inception_3a/relu_3x3_reduce -> inception_3a/3x3_reduce (in-place)
I0403 15:54:04.738276 11703 net.cpp:141] Setting up inception_3a/relu_3x3_reduce
I0403 15:54:04.738301 11703 net.cpp:148] Top shape: 24 96 28 28 (1806336)
I0403 15:54:04.738317 11703 net.cpp:156] Memory required for data: 515408928
I0403 15:54:04.738332 11703 layer_factory.hpp:77] Creating layer inception_3a/3x3
I0403 15:54:04.738355 11703 net.cpp:91] Creating Layer inception_3a/3x3
I0403 15:54:04.738373 11703 net.cpp:425] inception_3a/3x3 <- inception_3a/3x3_reduce
I0403 15:54:04.738392 11703 net.cpp:399] inception_3a/3x3 -> inception_3a/3x3
I0403 15:54:04.740089 11703 net.cpp:141] Setting up inception_3a/3x3
I0403 15:54:04.740118 11703 net.cpp:148] Top shape: 24 128 28 28 (2408448)
I0403 15:54:04.740134 11703 net.cpp:156] Memory required for data: 525042720
I0403 15:54:04.740152 11703 layer_factory.hpp:77] Creating layer inception_3a/relu_3x3
I0403 15:54:04.740171 11703 net.cpp:91] Creating Layer inception_3a/relu_3x3
I0403 15:54:04.740195 11703 net.cpp:425] inception_3a/relu_3x3 <- inception_3a/3x3
I0403 15:54:04.740227 11703 net.cpp:386] inception_3a/relu_3x3 -> inception_3a/3x3 (in-place)
I0403 15:54:04.740504 11703 net.cpp:141] Setting up inception_3a/relu_3x3
I0403 15:54:04.740530 11703 net.cpp:148] Top shape: 24 128 28 28 (2408448)
I0403 15:54:04.740545 11703 net.cpp:156] Memory required for data: 534676512
I0403 15:54:04.740561 11703 layer_factory.hpp:77] Creating layer inception_3a/5x5_reduce
I0403 15:54:04.740582 11703 net.cpp:91] Creating Layer inception_3a/5x5_reduce
I0403 15:54:04.740599 11703 net.cpp:425] inception_3a/5x5_reduce <- pool2/3x3_s2_pool2/3x3_s2_0_split_2
I0403 15:54:04.740623 11703 net.cpp:399] inception_3a/5x5_reduce -> inception_3a/5x5_reduce
I0403 15:54:04.741613 11703 net.cpp:141] Setting up inception_3a/5x5_reduce
I0403 15:54:04.741641 11703 net.cpp:148] Top shape: 24 16 28 28 (301056)
I0403 15:54:04.741657 11703 net.cpp:156] Memory required for data: 535880736
I0403 15:54:04.741677 11703 layer_factory.hpp:77] Creating layer inception_3a/relu_5x5_reduce
I0403 15:54:04.741695 11703 net.cpp:91] Creating Layer inception_3a/relu_5x5_reduce
I0403 15:54:04.741711 11703 net.cpp:425] inception_3a/relu_5x5_reduce <- inception_3a/5x5_reduce
I0403 15:54:04.741731 11703 net.cpp:386] inception_3a/relu_5x5_reduce -> inception_3a/5x5_reduce (in-place)
I0403 15:54:04.742044 11703 net.cpp:141] Setting up inception_3a/relu_5x5_reduce
I0403 15:54:04.742071 11703 net.cpp:148] Top shape: 24 16 28 28 (301056)
I0403 15:54:04.742086 11703 net.cpp:156] Memory required for data: 537084960
I0403 15:54:04.742102 11703 layer_factory.hpp:77] Creating layer inception_3a/5x5
I0403 15:54:04.742125 11703 net.cpp:91] Creating Layer inception_3a/5x5
I0403 15:54:04.742142 11703 net.cpp:425] inception_3a/5x5 <- inception_3a/5x5_reduce
I0403 15:54:04.742163 11703 net.cpp:399] inception_3a/5x5 -> inception_3a/5x5
I0403 15:54:04.743202 11703 net.cpp:141] Setting up inception_3a/5x5
I0403 15:54:04.743233 11703 net.cpp:148] Top shape: 24 32 28 28 (602112)
I0403 15:54:04.743250 11703 net.cpp:156] Memory required for data: 539493408
I0403 15:54:04.743269 11703 layer_factory.hpp:77] Creating layer inception_3a/relu_5x5
I0403 15:54:04.743288 11703 net.cpp:91] Creating Layer inception_3a/relu_5x5
I0403 15:54:04.743304 11703 net.cpp:425] inception_3a/relu_5x5 <- inception_3a/5x5
I0403 15:54:04.743324 11703 net.cpp:386] inception_3a/relu_5x5 -> inception_3a/5x5 (in-place)
I0403 15:54:04.743504 11703 net.cpp:141] Setting up inception_3a/relu_5x5
I0403 15:54:04.743530 11703 net.cpp:148] Top shape: 24 32 28 28 (602112)
I0403 15:54:04.743544 11703 net.cpp:156] Memory required for data: 541901856
I0403 15:54:04.743559 11703 layer_factory.hpp:77] Creating layer inception_3a/pool
I0403 15:54:04.743577 11703 net.cpp:91] Creating Layer inception_3a/pool
I0403 15:54:04.743609 11703 net.cpp:425] inception_3a/pool <- pool2/3x3_s2_pool2/3x3_s2_0_split_3
I0403 15:54:04.743628 11703 net.cpp:399] inception_3a/pool -> inception_3a/pool
I0403 15:54:04.743691 11703 net.cpp:141] Setting up inception_3a/pool
I0403 15:54:04.743715 11703 net.cpp:148] Top shape: 24 192 28 28 (3612672)
I0403 15:54:04.743729 11703 net.cpp:156] Memory required for data: 556352544
I0403 15:54:04.743744 11703 layer_factory.hpp:77] Creating layer inception_3a/pool_proj
I0403 15:54:04.743767 11703 net.cpp:91] Creating Layer inception_3a/pool_proj
I0403 15:54:04.743783 11703 net.cpp:425] inception_3a/pool_proj <- inception_3a/pool
I0403 15:54:04.743805 11703 net.cpp:399] inception_3a/pool_proj -> inception_3a/pool_proj
I0403 15:54:04.744845 11703 net.cpp:141] Setting up inception_3a/pool_proj
I0403 15:54:04.744874 11703 net.cpp:148] Top shape: 24 32 28 28 (602112)
I0403 15:54:04.744889 11703 net.cpp:156] Memory required for data: 558760992
I0403 15:54:04.744911 11703 layer_factory.hpp:77] Creating layer inception_3a/relu_pool_proj
I0403 15:54:04.744931 11703 net.cpp:91] Creating Layer inception_3a/relu_pool_proj
I0403 15:54:04.744947 11703 net.cpp:425] inception_3a/relu_pool_proj <- inception_3a/pool_proj
I0403 15:54:04.744967 11703 net.cpp:386] inception_3a/relu_pool_proj -> inception_3a/pool_proj (in-place)
I0403 15:54:04.745249 11703 net.cpp:141] Setting up inception_3a/relu_pool_proj
I0403 15:54:04.745275 11703 net.cpp:148] Top shape: 24 32 28 28 (602112)
I0403 15:54:04.745290 11703 net.cpp:156] Memory required for data: 561169440
I0403 15:54:04.745304 11703 layer_factory.hpp:77] Creating layer inception_3a/output
I0403 15:54:04.745322 11703 net.cpp:91] Creating Layer inception_3a/output
I0403 15:54:04.745338 11703 net.cpp:425] inception_3a/output <- inception_3a/1x1
I0403 15:54:04.745354 11703 net.cpp:425] inception_3a/output <- inception_3a/3x3
I0403 15:54:04.745370 11703 net.cpp:425] inception_3a/output <- inception_3a/5x5
I0403 15:54:04.745385 11703 net.cpp:425] inception_3a/output <- inception_3a/pool_proj
I0403 15:54:04.745404 11703 net.cpp:399] inception_3a/output -> inception_3a/output
I0403 15:54:04.745450 11703 net.cpp:141] Setting up inception_3a/output
I0403 15:54:04.745476 11703 net.cpp:148] Top shape: 24 256 28 28 (4816896)
I0403 15:54:04.745491 11703 net.cpp:156] Memory required for data: 580437024
I0403 15:54:04.745506 11703 layer_factory.hpp:77] Creating layer inception_3a/output_inception_3a/output_0_split
I0403 15:54:04.745522 11703 net.cpp:91] Creating Layer inception_3a/output_inception_3a/output_0_split
I0403 15:54:04.745538 11703 net.cpp:425] inception_3a/output_inception_3a/output_0_split <- inception_3a/output
I0403 15:54:04.745555 11703 net.cpp:399] inception_3a/output_inception_3a/output_0_split -> inception_3a/output_inception_3a/output_0_split_0
I0403 15:54:04.745574 11703 net.cpp:399] inception_3a/output_inception_3a/output_0_split -> inception_3a/output_inception_3a/output_0_split_1
I0403 15:54:04.745599 11703 net.cpp:399] inception_3a/output_inception_3a/output_0_split -> inception_3a/output_inception_3a/output_0_split_2
I0403 15:54:04.745620 11703 net.cpp:399] inception_3a/output_inception_3a/output_0_split -> inception_3a/output_inception_3a/output_0_split_3
I0403 15:54:04.745693 11703 net.cpp:141] Setting up inception_3a/output_inception_3a/output_0_split
I0403 15:54:04.745718 11703 net.cpp:148] Top shape: 24 256 28 28 (4816896)
I0403 15:54:04.745734 11703 net.cpp:148] Top shape: 24 256 28 28 (4816896)
I0403 15:54:04.745750 11703 net.cpp:148] Top shape: 24 256 28 28 (4816896)
I0403 15:54:04.745765 11703 net.cpp:148] Top shape: 24 256 28 28 (4816896)
I0403 15:54:04.745779 11703 net.cpp:156] Memory required for data: 657507360
I0403 15:54:04.745792 11703 layer_factory.hpp:77] Creating layer inception_3b/1x1
I0403 15:54:04.745815 11703 net.cpp:91] Creating Layer inception_3b/1x1
I0403 15:54:04.745831 11703 net.cpp:425] inception_3b/1x1 <- inception_3a/output_inception_3a/output_0_split_0
I0403 15:54:04.745851 11703 net.cpp:399] inception_3b/1x1 -> inception_3b/1x1
I0403 15:54:04.747001 11703 net.cpp:141] Setting up inception_3b/1x1
I0403 15:54:04.747040 11703 net.cpp:148] Top shape: 24 128 28 28 (2408448)
I0403 15:54:04.747056 11703 net.cpp:156] Memory required for data: 667141152
I0403 15:54:04.747073 11703 layer_factory.hpp:77] Creating layer inception_3b/relu_1x1
I0403 15:54:04.747093 11703 net.cpp:91] Creating Layer inception_3b/relu_1x1
I0403 15:54:04.747110 11703 net.cpp:425] inception_3b/relu_1x1 <- inception_3b/1x1
I0403 15:54:04.747128 11703 net.cpp:386] inception_3b/relu_1x1 -> inception_3b/1x1 (in-place)
I0403 15:54:04.747309 11703 net.cpp:141] Setting up inception_3b/relu_1x1
I0403 15:54:04.747334 11703 net.cpp:148] Top shape: 24 128 28 28 (2408448)
I0403 15:54:04.747349 11703 net.cpp:156] Memory required for data: 676774944
I0403 15:54:04.747364 11703 layer_factory.hpp:77] Creating layer inception_3b/3x3_reduce
I0403 15:54:04.747385 11703 net.cpp:91] Creating Layer inception_3b/3x3_reduce
I0403 15:54:04.747402 11703 net.cpp:425] inception_3b/3x3_reduce <- inception_3a/output_inception_3a/output_0_split_1
I0403 15:54:04.747424 11703 net.cpp:399] inception_3b/3x3_reduce -> inception_3b/3x3_reduce
I0403 15:54:04.748553 11703 net.cpp:141] Setting up inception_3b/3x3_reduce
I0403 15:54:04.748584 11703 net.cpp:148] Top shape: 24 128 28 28 (2408448)
I0403 15:54:04.748600 11703 net.cpp:156] Memory required for data: 686408736
I0403 15:54:04.748617 11703 layer_factory.hpp:77] Creating layer inception_3b/relu_3x3_reduce
I0403 15:54:04.748636 11703 net.cpp:91] Creating Layer inception_3b/relu_3x3_reduce
I0403 15:54:04.748651 11703 net.cpp:425] inception_3b/relu_3x3_reduce <- inception_3b/3x3_reduce
I0403 15:54:04.748668 11703 net.cpp:386] inception_3b/relu_3x3_reduce -> inception_3b/3x3_reduce (in-place)
I0403 15:54:04.748841 11703 net.cpp:141] Setting up inception_3b/relu_3x3_reduce
I0403 15:54:04.748865 11703 net.cpp:148] Top shape: 24 128 28 28 (2408448)
I0403 15:54:04.748879 11703 net.cpp:156] Memory required for data: 696042528
I0403 15:54:04.748894 11703 layer_factory.hpp:77] Creating layer inception_3b/3x3
I0403 15:54:04.748919 11703 net.cpp:91] Creating Layer inception_3b/3x3
I0403 15:54:04.748936 11703 net.cpp:425] inception_3b/3x3 <- inception_3b/3x3_reduce
I0403 15:54:04.748957 11703 net.cpp:399] inception_3b/3x3 -> inception_3b/3x3
I0403 15:54:04.751958 11703 net.cpp:141] Setting up inception_3b/3x3
I0403 15:54:04.751991 11703 net.cpp:148] Top shape: 24 192 28 28 (3612672)
I0403 15:54:04.752007 11703 net.cpp:156] Memory required for data: 710493216
I0403 15:54:04.752025 11703 layer_factory.hpp:77] Creating layer inception_3b/relu_3x3
I0403 15:54:04.752043 11703 net.cpp:91] Creating Layer inception_3b/relu_3x3
I0403 15:54:04.752058 11703 net.cpp:425] inception_3b/relu_3x3 <- inception_3b/3x3
I0403 15:54:04.752089 11703 net.cpp:386] inception_3b/relu_3x3 -> inception_3b/3x3 (in-place)
I0403 15:54:04.752359 11703 net.cpp:141] Setting up inception_3b/relu_3x3
I0403 15:54:04.752385 11703 net.cpp:148] Top shape: 24 192 28 28 (3612672)
I0403 15:54:04.752400 11703 net.cpp:156] Memory required for data: 724943904
I0403 15:54:04.752414 11703 layer_factory.hpp:77] Creating layer inception_3b/5x5_reduce
I0403 15:54:04.752436 11703 net.cpp:91] Creating Layer inception_3b/5x5_reduce
I0403 15:54:04.752454 11703 net.cpp:425] inception_3b/5x5_reduce <- inception_3a/output_inception_3a/output_0_split_2
I0403 15:54:04.752475 11703 net.cpp:399] inception_3b/5x5_reduce -> inception_3b/5x5_reduce
I0403 15:54:04.753437 11703 net.cpp:141] Setting up inception_3b/5x5_reduce
I0403 15:54:04.753463 11703 net.cpp:148] Top shape: 24 32 28 28 (602112)
I0403 15:54:04.753479 11703 net.cpp:156] Memory required for data: 727352352
I0403 15:54:04.753495 11703 layer_factory.hpp:77] Creating layer inception_3b/relu_5x5_reduce
I0403 15:54:04.753512 11703 net.cpp:91] Creating Layer inception_3b/relu_5x5_reduce
I0403 15:54:04.753528 11703 net.cpp:425] inception_3b/relu_5x5_reduce <- inception_3b/5x5_reduce
I0403 15:54:04.753547 11703 net.cpp:386] inception_3b/relu_5x5_reduce -> inception_3b/5x5_reduce (in-place)
I0403 15:54:04.753731 11703 net.cpp:141] Setting up inception_3b/relu_5x5_reduce
I0403 15:54:04.753756 11703 net.cpp:148] Top shape: 24 32 28 28 (602112)
I0403 15:54:04.753770 11703 net.cpp:156] Memory required for data: 729760800
I0403 15:54:04.753784 11703 layer_factory.hpp:77] Creating layer inception_3b/5x5
I0403 15:54:04.753805 11703 net.cpp:91] Creating Layer inception_3b/5x5
I0403 15:54:04.753823 11703 net.cpp:425] inception_3b/5x5 <- inception_3b/5x5_reduce
I0403 15:54:04.753844 11703 net.cpp:399] inception_3b/5x5 -> inception_3b/5x5
I0403 15:54:04.755769 11703 net.cpp:141] Setting up inception_3b/5x5
I0403 15:54:04.755798 11703 net.cpp:148] Top shape: 24 96 28 28 (1806336)
I0403 15:54:04.755815 11703 net.cpp:156] Memory required for data: 736986144
I0403 15:54:04.755832 11703 layer_factory.hpp:77] Creating layer inception_3b/relu_5x5
I0403 15:54:04.755849 11703 net.cpp:91] Creating Layer inception_3b/relu_5x5
I0403 15:54:04.755866 11703 net.cpp:425] inception_3b/relu_5x5 <- inception_3b/5x5
I0403 15:54:04.755882 11703 net.cpp:386] inception_3b/relu_5x5 -> inception_3b/5x5 (in-place)
I0403 15:54:04.756083 11703 net.cpp:141] Setting up inception_3b/relu_5x5
I0403 15:54:04.756108 11703 net.cpp:148] Top shape: 24 96 28 28 (1806336)
I0403 15:54:04.756122 11703 net.cpp:156] Memory required for data: 744211488
I0403 15:54:04.756137 11703 layer_factory.hpp:77] Creating layer inception_3b/pool
I0403 15:54:04.756155 11703 net.cpp:91] Creating Layer inception_3b/pool
I0403 15:54:04.756170 11703 net.cpp:425] inception_3b/pool <- inception_3a/output_inception_3a/output_0_split_3
I0403 15:54:04.756187 11703 net.cpp:399] inception_3b/pool -> inception_3b/pool
I0403 15:54:04.756240 11703 net.cpp:141] Setting up inception_3b/pool
I0403 15:54:04.756265 11703 net.cpp:148] Top shape: 24 256 28 28 (4816896)
I0403 15:54:04.756280 11703 net.cpp:156] Memory required for data: 763479072
I0403 15:54:04.756294 11703 layer_factory.hpp:77] Creating layer inception_3b/pool_proj
I0403 15:54:04.756316 11703 net.cpp:91] Creating Layer inception_3b/pool_proj
I0403 15:54:04.756332 11703 net.cpp:425] inception_3b/pool_proj <- inception_3b/pool
I0403 15:54:04.756350 11703 net.cpp:399] inception_3b/pool_proj -> inception_3b/pool_proj
I0403 15:54:04.757378 11703 net.cpp:141] Setting up inception_3b/pool_proj
I0403 15:54:04.757405 11703 net.cpp:148] Top shape: 24 64 28 28 (1204224)
I0403 15:54:04.757421 11703 net.cpp:156] Memory required for data: 768295968
I0403 15:54:04.757438 11703 layer_factory.hpp:77] Creating layer inception_3b/relu_pool_proj
I0403 15:54:04.757457 11703 net.cpp:91] Creating Layer inception_3b/relu_pool_proj
I0403 15:54:04.757474 11703 net.cpp:425] inception_3b/relu_pool_proj <- inception_3b/pool_proj
I0403 15:54:04.757491 11703 net.cpp:386] inception_3b/relu_pool_proj -> inception_3b/pool_proj (in-place)
I0403 15:54:04.757879 11703 net.cpp:141] Setting up inception_3b/relu_pool_proj
I0403 15:54:04.757904 11703 net.cpp:148] Top shape: 24 64 28 28 (1204224)
I0403 15:54:04.757918 11703 net.cpp:156] Memory required for data: 773112864
I0403 15:54:04.757932 11703 layer_factory.hpp:77] Creating layer inception_3b/output
I0403 15:54:04.757949 11703 net.cpp:91] Creating Layer inception_3b/output
I0403 15:54:04.757966 11703 net.cpp:425] inception_3b/output <- inception_3b/1x1
I0403 15:54:04.757984 11703 net.cpp:425] inception_3b/output <- inception_3b/3x3
I0403 15:54:04.758002 11703 net.cpp:425] inception_3b/output <- inception_3b/5x5
I0403 15:54:04.758016 11703 net.cpp:425] inception_3b/output <- inception_3b/pool_proj
I0403 15:54:04.758035 11703 net.cpp:399] inception_3b/output -> inception_3b/output
I0403 15:54:04.758076 11703 net.cpp:141] Setting up inception_3b/output
I0403 15:54:04.758101 11703 net.cpp:148] Top shape: 24 480 28 28 (9031680)
I0403 15:54:04.758116 11703 net.cpp:156] Memory required for data: 809239584
I0403 15:54:04.758131 11703 layer_factory.hpp:77] Creating layer pool3/3x3_s2
I0403 15:54:04.758147 11703 net.cpp:91] Creating Layer pool3/3x3_s2
I0403 15:54:04.758162 11703 net.cpp:425] pool3/3x3_s2 <- inception_3b/output
I0403 15:54:04.758208 11703 net.cpp:399] pool3/3x3_s2 -> pool3/3x3_s2
I0403 15:54:04.758265 11703 net.cpp:141] Setting up pool3/3x3_s2
I0403 15:54:04.758287 11703 net.cpp:148] Top shape: 24 480 14 14 (2257920)
I0403 15:54:04.758301 11703 net.cpp:156] Memory required for data: 818271264
I0403 15:54:04.758316 11703 layer_factory.hpp:77] Creating layer pool3/3x3_s2_pool3/3x3_s2_0_split
I0403 15:54:04.758333 11703 net.cpp:91] Creating Layer pool3/3x3_s2_pool3/3x3_s2_0_split
I0403 15:54:04.758348 11703 net.cpp:425] pool3/3x3_s2_pool3/3x3_s2_0_split <- pool3/3x3_s2
I0403 15:54:04.758366 11703 net.cpp:399] pool3/3x3_s2_pool3/3x3_s2_0_split -> pool3/3x3_s2_pool3/3x3_s2_0_split_0
I0403 15:54:04.758384 11703 net.cpp:399] pool3/3x3_s2_pool3/3x3_s2_0_split -> pool3/3x3_s2_pool3/3x3_s2_0_split_1
I0403 15:54:04.758404 11703 net.cpp:399] pool3/3x3_s2_pool3/3x3_s2_0_split -> pool3/3x3_s2_pool3/3x3_s2_0_split_2
I0403 15:54:04.758424 11703 net.cpp:399] pool3/3x3_s2_pool3/3x3_s2_0_split -> pool3/3x3_s2_pool3/3x3_s2_0_split_3
I0403 15:54:04.758505 11703 net.cpp:141] Setting up pool3/3x3_s2_pool3/3x3_s2_0_split
I0403 15:54:04.758527 11703 net.cpp:148] Top shape: 24 480 14 14 (2257920)
I0403 15:54:04.758543 11703 net.cpp:148] Top shape: 24 480 14 14 (2257920)
I0403 15:54:04.758558 11703 net.cpp:148] Top shape: 24 480 14 14 (2257920)
I0403 15:54:04.758571 11703 net.cpp:148] Top shape: 24 480 14 14 (2257920)
I0403 15:54:04.758584 11703 net.cpp:156] Memory required for data: 854397984
I0403 15:54:04.758599 11703 layer_factory.hpp:77] Creating layer inception_4a/1x1
I0403 15:54:04.758620 11703 net.cpp:91] Creating Layer inception_4a/1x1
I0403 15:54:04.758636 11703 net.cpp:425] inception_4a/1x1 <- pool3/3x3_s2_pool3/3x3_s2_0_split_0
I0403 15:54:04.758656 11703 net.cpp:399] inception_4a/1x1 -> inception_4a/1x1
I0403 15:54:04.760269 11703 net.cpp:141] Setting up inception_4a/1x1
I0403 15:54:04.760296 11703 net.cpp:148] Top shape: 24 192 14 14 (903168)
I0403 15:54:04.760311 11703 net.cpp:156] Memory required for data: 858010656
I0403 15:54:04.760329 11703 layer_factory.hpp:77] Creating layer inception_4a/relu_1x1
I0403 15:54:04.760349 11703 net.cpp:91] Creating Layer inception_4a/relu_1x1
I0403 15:54:04.760366 11703 net.cpp:425] inception_4a/relu_1x1 <- inception_4a/1x1
I0403 15:54:04.760385 11703 net.cpp:386] inception_4a/relu_1x1 -> inception_4a/1x1 (in-place)
I0403 15:54:04.760560 11703 net.cpp:141] Setting up inception_4a/relu_1x1
I0403 15:54:04.760587 11703 net.cpp:148] Top shape: 24 192 14 14 (903168)
I0403 15:54:04.760602 11703 net.cpp:156] Memory required for data: 861623328
I0403 15:54:04.760617 11703 layer_factory.hpp:77] Creating layer inception_4a/3x3_reduce
I0403 15:54:04.760638 11703 net.cpp:91] Creating Layer inception_4a/3x3_reduce
I0403 15:54:04.760654 11703 net.cpp:425] inception_4a/3x3_reduce <- pool3/3x3_s2_pool3/3x3_s2_0_split_1
I0403 15:54:04.760673 11703 net.cpp:399] inception_4a/3x3_reduce -> inception_4a/3x3_reduce
I0403 15:54:04.761945 11703 net.cpp:141] Setting up inception_4a/3x3_reduce
I0403 15:54:04.761972 11703 net.cpp:148] Top shape: 24 96 14 14 (451584)
I0403 15:54:04.761992 11703 net.cpp:156] Memory required for data: 863429664
I0403 15:54:04.762017 11703 layer_factory.hpp:77] Creating layer inception_4a/relu_3x3_reduce
I0403 15:54:04.762040 11703 net.cpp:91] Creating Layer inception_4a/relu_3x3_reduce
I0403 15:54:04.762058 11703 net.cpp:425] inception_4a/relu_3x3_reduce <- inception_4a/3x3_reduce
I0403 15:54:04.762074 11703 net.cpp:386] inception_4a/relu_3x3_reduce -> inception_4a/3x3_reduce (in-place)
I0403 15:54:04.762250 11703 net.cpp:141] Setting up inception_4a/relu_3x3_reduce
I0403 15:54:04.762275 11703 net.cpp:148] Top shape: 24 96 14 14 (451584)
I0403 15:54:04.762290 11703 net.cpp:156] Memory required for data: 865236000
I0403 15:54:04.762305 11703 layer_factory.hpp:77] Creating layer inception_4a/3x3
I0403 15:54:04.762328 11703 net.cpp:91] Creating Layer inception_4a/3x3
I0403 15:54:04.762346 11703 net.cpp:425] inception_4a/3x3 <- inception_4a/3x3_reduce
I0403 15:54:04.762364 11703 net.cpp:399] inception_4a/3x3 -> inception_4a/3x3
I0403 15:54:04.765050 11703 net.cpp:141] Setting up inception_4a/3x3
I0403 15:54:04.765080 11703 net.cpp:148] Top shape: 24 208 14 14 (978432)
I0403 15:54:04.765096 11703 net.cpp:156] Memory required for data: 869149728
I0403 15:54:04.765115 11703 layer_factory.hpp:77] Creating layer inception_4a/relu_3x3
I0403 15:54:04.765132 11703 net.cpp:91] Creating Layer inception_4a/relu_3x3
I0403 15:54:04.765148 11703 net.cpp:425] inception_4a/relu_3x3 <- inception_4a/3x3
I0403 15:54:04.765164 11703 net.cpp:386] inception_4a/relu_3x3 -> inception_4a/3x3 (in-place)
I0403 15:54:04.765441 11703 net.cpp:141] Setting up inception_4a/relu_3x3
I0403 15:54:04.765470 11703 net.cpp:148] Top shape: 24 208 14 14 (978432)
I0403 15:54:04.765486 11703 net.cpp:156] Memory required for data: 873063456
I0403 15:54:04.765501 11703 layer_factory.hpp:77] Creating layer inception_4a/5x5_reduce
I0403 15:54:04.765522 11703 net.cpp:91] Creating Layer inception_4a/5x5_reduce
I0403 15:54:04.765539 11703 net.cpp:425] inception_4a/5x5_reduce <- pool3/3x3_s2_pool3/3x3_s2_0_split_2
I0403 15:54:04.765558 11703 net.cpp:399] inception_4a/5x5_reduce -> inception_4a/5x5_reduce
I0403 15:54:04.766578 11703 net.cpp:141] Setting up inception_4a/5x5_reduce
I0403 15:54:04.766607 11703 net.cpp:148] Top shape: 24 16 14 14 (75264)
I0403 15:54:04.766623 11703 net.cpp:156] Memory required for data: 873364512
I0403 15:54:04.766643 11703 layer_factory.hpp:77] Creating layer inception_4a/relu_5x5_reduce
I0403 15:54:04.766660 11703 net.cpp:91] Creating Layer inception_4a/relu_5x5_reduce
I0403 15:54:04.766676 11703 net.cpp:425] inception_4a/relu_5x5_reduce <- inception_4a/5x5_reduce
I0403 15:54:04.766695 11703 net.cpp:386] inception_4a/relu_5x5_reduce -> inception_4a/5x5_reduce (in-place)
I0403 15:54:04.766873 11703 net.cpp:141] Setting up inception_4a/relu_5x5_reduce
I0403 15:54:04.766898 11703 net.cpp:148] Top shape: 24 16 14 14 (75264)
I0403 15:54:04.766913 11703 net.cpp:156] Memory required for data: 873665568
I0403 15:54:04.766927 11703 layer_factory.hpp:77] Creating layer inception_4a/5x5
I0403 15:54:04.766949 11703 net.cpp:91] Creating Layer inception_4a/5x5
I0403 15:54:04.766966 11703 net.cpp:425] inception_4a/5x5 <- inception_4a/5x5_reduce
I0403 15:54:04.766993 11703 net.cpp:399] inception_4a/5x5 -> inception_4a/5x5
I0403 15:54:04.768069 11703 net.cpp:141] Setting up inception_4a/5x5
I0403 15:54:04.768095 11703 net.cpp:148] Top shape: 24 48 14 14 (225792)
I0403 15:54:04.768111 11703 net.cpp:156] Memory required for data: 874568736
I0403 15:54:04.768129 11703 layer_factory.hpp:77] Creating layer inception_4a/relu_5x5
I0403 15:54:04.768151 11703 net.cpp:91] Creating Layer inception_4a/relu_5x5
I0403 15:54:04.768167 11703 net.cpp:425] inception_4a/relu_5x5 <- inception_4a/5x5
I0403 15:54:04.768183 11703 net.cpp:386] inception_4a/relu_5x5 -> inception_4a/5x5 (in-place)
I0403 15:54:04.768359 11703 net.cpp:141] Setting up inception_4a/relu_5x5
I0403 15:54:04.768384 11703 net.cpp:148] Top shape: 24 48 14 14 (225792)
I0403 15:54:04.768399 11703 net.cpp:156] Memory required for data: 875471904
I0403 15:54:04.768414 11703 layer_factory.hpp:77] Creating layer inception_4a/pool
I0403 15:54:04.768434 11703 net.cpp:91] Creating Layer inception_4a/pool
I0403 15:54:04.768450 11703 net.cpp:425] inception_4a/pool <- pool3/3x3_s2_pool3/3x3_s2_0_split_3
I0403 15:54:04.768467 11703 net.cpp:399] inception_4a/pool -> inception_4a/pool
I0403 15:54:04.768528 11703 net.cpp:141] Setting up inception_4a/pool
I0403 15:54:04.768551 11703 net.cpp:148] Top shape: 24 480 14 14 (2257920)
I0403 15:54:04.768565 11703 net.cpp:156] Memory required for data: 884503584
I0403 15:54:04.768579 11703 layer_factory.hpp:77] Creating layer inception_4a/pool_proj
I0403 15:54:04.768601 11703 net.cpp:91] Creating Layer inception_4a/pool_proj
I0403 15:54:04.768618 11703 net.cpp:425] inception_4a/pool_proj <- inception_4a/pool
I0403 15:54:04.768640 11703 net.cpp:399] inception_4a/pool_proj -> inception_4a/pool_proj
I0403 15:54:04.769811 11703 net.cpp:141] Setting up inception_4a/pool_proj
I0403 15:54:04.769840 11703 net.cpp:148] Top shape: 24 64 14 14 (301056)
I0403 15:54:04.769868 11703 net.cpp:156] Memory required for data: 885707808
I0403 15:54:04.769888 11703 layer_factory.hpp:77] Creating layer inception_4a/relu_pool_proj
I0403 15:54:04.769911 11703 net.cpp:91] Creating Layer inception_4a/relu_pool_proj
I0403 15:54:04.769927 11703 net.cpp:425] inception_4a/relu_pool_proj <- inception_4a/pool_proj
I0403 15:54:04.769944 11703 net.cpp:386] inception_4a/relu_pool_proj -> inception_4a/pool_proj (in-place)
I0403 15:54:04.770229 11703 net.cpp:141] Setting up inception_4a/relu_pool_proj
I0403 15:54:04.770256 11703 net.cpp:148] Top shape: 24 64 14 14 (301056)
I0403 15:54:04.770270 11703 net.cpp:156] Memory required for data: 886912032
I0403 15:54:04.770285 11703 layer_factory.hpp:77] Creating layer inception_4a/output
I0403 15:54:04.770303 11703 net.cpp:91] Creating Layer inception_4a/output
I0403 15:54:04.770318 11703 net.cpp:425] inception_4a/output <- inception_4a/1x1
I0403 15:54:04.770336 11703 net.cpp:425] inception_4a/output <- inception_4a/3x3
I0403 15:54:04.770352 11703 net.cpp:425] inception_4a/output <- inception_4a/5x5
I0403 15:54:04.770369 11703 net.cpp:425] inception_4a/output <- inception_4a/pool_proj
I0403 15:54:04.770385 11703 net.cpp:399] inception_4a/output -> inception_4a/output
I0403 15:54:04.770431 11703 net.cpp:141] Setting up inception_4a/output
I0403 15:54:04.770454 11703 net.cpp:148] Top shape: 24 512 14 14 (2408448)
I0403 15:54:04.770469 11703 net.cpp:156] Memory required for data: 896545824
I0403 15:54:04.770483 11703 layer_factory.hpp:77] Creating layer inception_4a/output_inception_4a/output_0_split
I0403 15:54:04.770500 11703 net.cpp:91] Creating Layer inception_4a/output_inception_4a/output_0_split
I0403 15:54:04.770515 11703 net.cpp:425] inception_4a/output_inception_4a/output_0_split <- inception_4a/output
I0403 15:54:04.770535 11703 net.cpp:399] inception_4a/output_inception_4a/output_0_split -> inception_4a/output_inception_4a/output_0_split_0
I0403 15:54:04.770557 11703 net.cpp:399] inception_4a/output_inception_4a/output_0_split -> inception_4a/output_inception_4a/output_0_split_1
I0403 15:54:04.770576 11703 net.cpp:399] inception_4a/output_inception_4a/output_0_split -> inception_4a/output_inception_4a/output_0_split_2
I0403 15:54:04.770596 11703 net.cpp:399] inception_4a/output_inception_4a/output_0_split -> inception_4a/output_inception_4a/output_0_split_3
I0403 15:54:04.770617 11703 net.cpp:399] inception_4a/output_inception_4a/output_0_split -> inception_4a/output_inception_4a/output_0_split_4
I0403 15:54:04.770710 11703 net.cpp:141] Setting up inception_4a/output_inception_4a/output_0_split
I0403 15:54:04.770732 11703 net.cpp:148] Top shape: 24 512 14 14 (2408448)
I0403 15:54:04.770750 11703 net.cpp:148] Top shape: 24 512 14 14 (2408448)
I0403 15:54:04.770764 11703 net.cpp:148] Top shape: 24 512 14 14 (2408448)
I0403 15:54:04.770779 11703 net.cpp:148] Top shape: 24 512 14 14 (2408448)
I0403 15:54:04.770793 11703 net.cpp:148] Top shape: 24 512 14 14 (2408448)
I0403 15:54:04.770807 11703 net.cpp:156] Memory required for data: 944714784
I0403 15:54:04.770822 11703 layer_factory.hpp:77] Creating layer loss1/ave_pool
I0403 15:54:04.770839 11703 net.cpp:91] Creating Layer loss1/ave_pool
I0403 15:54:04.770854 11703 net.cpp:425] loss1/ave_pool <- inception_4a/output_inception_4a/output_0_split_0
I0403 15:54:04.770874 11703 net.cpp:399] loss1/ave_pool -> loss1/ave_pool
I0403 15:54:04.771082 11703 net.cpp:141] Setting up loss1/ave_pool
I0403 15:54:04.771108 11703 net.cpp:148] Top shape: 24 512 4 4 (196608)
I0403 15:54:04.771122 11703 net.cpp:156] Memory required for data: 945501216
I0403 15:54:04.771136 11703 layer_factory.hpp:77] Creating layer loss1/conv
I0403 15:54:04.771158 11703 net.cpp:91] Creating Layer loss1/conv
I0403 15:54:04.771175 11703 net.cpp:425] loss1/conv <- loss1/ave_pool
I0403 15:54:04.771196 11703 net.cpp:399] loss1/conv -> loss1/conv
I0403 15:54:04.772593 11703 net.cpp:141] Setting up loss1/conv
I0403 15:54:04.772624 11703 net.cpp:148] Top shape: 24 128 4 4 (49152)
I0403 15:54:04.772655 11703 net.cpp:156] Memory required for data: 945697824
I0403 15:54:04.772675 11703 layer_factory.hpp:77] Creating layer loss1/relu_conv
I0403 15:54:04.772692 11703 net.cpp:91] Creating Layer loss1/relu_conv
I0403 15:54:04.772708 11703 net.cpp:425] loss1/relu_conv <- loss1/conv
I0403 15:54:04.772725 11703 net.cpp:386] loss1/relu_conv -> loss1/conv (in-place)
I0403 15:54:04.773010 11703 net.cpp:141] Setting up loss1/relu_conv
I0403 15:54:04.773038 11703 net.cpp:148] Top shape: 24 128 4 4 (49152)
I0403 15:54:04.773054 11703 net.cpp:156] Memory required for data: 945894432
I0403 15:54:04.773071 11703 layer_factory.hpp:77] Creating layer loss1/fc
I0403 15:54:04.773093 11703 net.cpp:91] Creating Layer loss1/fc
I0403 15:54:04.773111 11703 net.cpp:425] loss1/fc <- loss1/conv
I0403 15:54:04.773133 11703 net.cpp:399] loss1/fc -> loss1/fc
I0403 15:54:04.790591 11703 net.cpp:141] Setting up loss1/fc
I0403 15:54:04.790624 11703 net.cpp:148] Top shape: 24 1024 (24576)
I0403 15:54:04.790639 11703 net.cpp:156] Memory required for data: 945992736
I0403 15:54:04.790657 11703 layer_factory.hpp:77] Creating layer loss1/relu_fc
I0403 15:54:04.790678 11703 net.cpp:91] Creating Layer loss1/relu_fc
I0403 15:54:04.790693 11703 net.cpp:425] loss1/relu_fc <- loss1/fc
I0403 15:54:04.790709 11703 net.cpp:386] loss1/relu_fc -> loss1/fc (in-place)
I0403 15:54:04.790891 11703 net.cpp:141] Setting up loss1/relu_fc
I0403 15:54:04.790917 11703 net.cpp:148] Top shape: 24 1024 (24576)
I0403 15:54:04.790931 11703 net.cpp:156] Memory required for data: 946091040
I0403 15:54:04.790946 11703 layer_factory.hpp:77] Creating layer loss1/drop_fc
I0403 15:54:04.790971 11703 net.cpp:91] Creating Layer loss1/drop_fc
I0403 15:54:04.790992 11703 net.cpp:425] loss1/drop_fc <- loss1/fc
I0403 15:54:04.791009 11703 net.cpp:386] loss1/drop_fc -> loss1/fc (in-place)
I0403 15:54:04.791060 11703 net.cpp:141] Setting up loss1/drop_fc
I0403 15:54:04.791084 11703 net.cpp:148] Top shape: 24 1024 (24576)
I0403 15:54:04.791097 11703 net.cpp:156] Memory required for data: 946189344
I0403 15:54:04.791111 11703 layer_factory.hpp:77] Creating layer loss1/classifier_plantvillage
I0403 15:54:04.791132 11703 net.cpp:91] Creating Layer loss1/classifier_plantvillage
I0403 15:54:04.791149 11703 net.cpp:425] loss1/classifier_plantvillage <- loss1/fc
I0403 15:54:04.791167 11703 net.cpp:399] loss1/classifier_plantvillage -> loss1/classifier_plantvillage
I0403 15:54:04.792101 11703 net.cpp:141] Setting up loss1/classifier_plantvillage
I0403 15:54:04.792131 11703 net.cpp:148] Top shape: 24 38 (912)
I0403 15:54:04.792147 11703 net.cpp:156] Memory required for data: 946192992
I0403 15:54:04.792165 11703 layer_factory.hpp:77] Creating layer loss1/classifier_plantvillage_loss1/classifier_plantvillage_0_split
I0403 15:54:04.792183 11703 net.cpp:91] Creating Layer loss1/classifier_plantvillage_loss1/classifier_plantvillage_0_split
I0403 15:54:04.792199 11703 net.cpp:425] loss1/classifier_plantvillage_loss1/classifier_plantvillage_0_split <- loss1/classifier_plantvillage
I0403 15:54:04.792217 11703 net.cpp:399] loss1/classifier_plantvillage_loss1/classifier_plantvillage_0_split -> loss1/classifier_plantvillage_loss1/classifier_plantvillage_0_split_0
I0403 15:54:04.792237 11703 net.cpp:399] loss1/classifier_plantvillage_loss1/classifier_plantvillage_0_split -> loss1/classifier_plantvillage_loss1/classifier_plantvillage_0_split_1
I0403 15:54:04.792268 11703 net.cpp:399] loss1/classifier_plantvillage_loss1/classifier_plantvillage_0_split -> loss1/classifier_plantvillage_loss1/classifier_plantvillage_0_split_2
I0403 15:54:04.792330 11703 net.cpp:141] Setting up loss1/classifier_plantvillage_loss1/classifier_plantvillage_0_split
I0403 15:54:04.792352 11703 net.cpp:148] Top shape: 24 38 (912)
I0403 15:54:04.792367 11703 net.cpp:148] Top shape: 24 38 (912)
I0403 15:54:04.792382 11703 net.cpp:148] Top shape: 24 38 (912)
I0403 15:54:04.792395 11703 net.cpp:156] Memory required for data: 946203936
I0403 15:54:04.792409 11703 layer_factory.hpp:77] Creating layer inception_4b/1x1
I0403 15:54:04.792429 11703 net.cpp:91] Creating Layer inception_4b/1x1
I0403 15:54:04.792460 11703 net.cpp:425] inception_4b/1x1 <- inception_4a/output_inception_4a/output_0_split_1
I0403 15:54:04.792482 11703 net.cpp:399] inception_4b/1x1 -> inception_4b/1x1
I0403 15:54:04.794090 11703 net.cpp:141] Setting up inception_4b/1x1
I0403 15:54:04.794119 11703 net.cpp:148] Top shape: 24 160 14 14 (752640)
I0403 15:54:04.794134 11703 net.cpp:156] Memory required for data: 949214496
I0403 15:54:04.794152 11703 layer_factory.hpp:77] Creating layer inception_4b/relu_1x1
I0403 15:54:04.794169 11703 net.cpp:91] Creating Layer inception_4b/relu_1x1
I0403 15:54:04.794190 11703 net.cpp:425] inception_4b/relu_1x1 <- inception_4b/1x1
I0403 15:54:04.794209 11703 net.cpp:386] inception_4b/relu_1x1 -> inception_4b/1x1 (in-place)
I0403 15:54:04.794385 11703 net.cpp:141] Setting up inception_4b/relu_1x1
I0403 15:54:04.794410 11703 net.cpp:148] Top shape: 24 160 14 14 (752640)
I0403 15:54:04.794425 11703 net.cpp:156] Memory required for data: 952225056
I0403 15:54:04.794438 11703 layer_factory.hpp:77] Creating layer inception_4b/3x3_reduce
I0403 15:54:04.794459 11703 net.cpp:91] Creating Layer inception_4b/3x3_reduce
I0403 15:54:04.794483 11703 net.cpp:425] inception_4b/3x3_reduce <- inception_4a/output_inception_4a/output_0_split_2
I0403 15:54:04.794504 11703 net.cpp:399] inception_4b/3x3_reduce -> inception_4b/3x3_reduce
I0403 15:54:04.795814 11703 net.cpp:141] Setting up inception_4b/3x3_reduce
I0403 15:54:04.795841 11703 net.cpp:148] Top shape: 24 112 14 14 (526848)
I0403 15:54:04.795856 11703 net.cpp:156] Memory required for data: 954332448
I0403 15:54:04.795873 11703 layer_factory.hpp:77] Creating layer inception_4b/relu_3x3_reduce
I0403 15:54:04.795893 11703 net.cpp:91] Creating Layer inception_4b/relu_3x3_reduce
I0403 15:54:04.795909 11703 net.cpp:425] inception_4b/relu_3x3_reduce <- inception_4b/3x3_reduce
I0403 15:54:04.795928 11703 net.cpp:386] inception_4b/relu_3x3_reduce -> inception_4b/3x3_reduce (in-place)
I0403 15:54:04.796208 11703 net.cpp:141] Setting up inception_4b/relu_3x3_reduce
I0403 15:54:04.796234 11703 net.cpp:148] Top shape: 24 112 14 14 (526848)
I0403 15:54:04.796248 11703 net.cpp:156] Memory required for data: 956439840
I0403 15:54:04.796263 11703 layer_factory.hpp:77] Creating layer inception_4b/3x3
I0403 15:54:04.796284 11703 net.cpp:91] Creating Layer inception_4b/3x3
I0403 15:54:04.796301 11703 net.cpp:425] inception_4b/3x3 <- inception_4b/3x3_reduce
I0403 15:54:04.796324 11703 net.cpp:399] inception_4b/3x3 -> inception_4b/3x3
I0403 15:54:04.799228 11703 net.cpp:141] Setting up inception_4b/3x3
I0403 15:54:04.799257 11703 net.cpp:148] Top shape: 24 224 14 14 (1053696)
I0403 15:54:04.799270 11703 net.cpp:156] Memory required for data: 960654624
I0403 15:54:04.799288 11703 layer_factory.hpp:77] Creating layer inception_4b/relu_3x3
I0403 15:54:04.799309 11703 net.cpp:91] Creating Layer inception_4b/relu_3x3
I0403 15:54:04.799325 11703 net.cpp:425] inception_4b/relu_3x3 <- inception_4b/3x3
I0403 15:54:04.799341 11703 net.cpp:386] inception_4b/relu_3x3 -> inception_4b/3x3 (in-place)
I0403 15:54:04.799516 11703 net.cpp:141] Setting up inception_4b/relu_3x3
I0403 15:54:04.799542 11703 net.cpp:148] Top shape: 24 224 14 14 (1053696)
I0403 15:54:04.799557 11703 net.cpp:156] Memory required for data: 964869408
I0403 15:54:04.799571 11703 layer_factory.hpp:77] Creating layer inception_4b/5x5_reduce
I0403 15:54:04.799593 11703 net.cpp:91] Creating Layer inception_4b/5x5_reduce
I0403 15:54:04.799609 11703 net.cpp:425] inception_4b/5x5_reduce <- inception_4a/output_inception_4a/output_0_split_3
I0403 15:54:04.799628 11703 net.cpp:399] inception_4b/5x5_reduce -> inception_4b/5x5_reduce
I0403 15:54:04.800688 11703 net.cpp:141] Setting up inception_4b/5x5_reduce
I0403 15:54:04.800716 11703 net.cpp:148] Top shape: 24 24 14 14 (112896)
I0403 15:54:04.800732 11703 net.cpp:156] Memory required for data: 965320992
I0403 15:54:04.800750 11703 layer_factory.hpp:77] Creating layer inception_4b/relu_5x5_reduce
I0403 15:54:04.800767 11703 net.cpp:91] Creating Layer inception_4b/relu_5x5_reduce
I0403 15:54:04.800796 11703 net.cpp:425] inception_4b/relu_5x5_reduce <- inception_4b/5x5_reduce
I0403 15:54:04.800817 11703 net.cpp:386] inception_4b/relu_5x5_reduce -> inception_4b/5x5_reduce (in-place)
I0403 15:54:04.800998 11703 net.cpp:141] Setting up inception_4b/relu_5x5_reduce
I0403 15:54:04.801023 11703 net.cpp:148] Top shape: 24 24 14 14 (112896)
I0403 15:54:04.801038 11703 net.cpp:156] Memory required for data: 965772576
I0403 15:54:04.801051 11703 layer_factory.hpp:77] Creating layer inception_4b/5x5
I0403 15:54:04.801072 11703 net.cpp:91] Creating Layer inception_4b/5x5
I0403 15:54:04.801090 11703 net.cpp:425] inception_4b/5x5 <- inception_4b/5x5_reduce
I0403 15:54:04.801110 11703 net.cpp:399] inception_4b/5x5 -> inception_4b/5x5
I0403 15:54:04.802302 11703 net.cpp:141] Setting up inception_4b/5x5
I0403 15:54:04.802331 11703 net.cpp:148] Top shape: 24 64 14 14 (301056)
I0403 15:54:04.802346 11703 net.cpp:156] Memory required for data: 966976800
I0403 15:54:04.802364 11703 layer_factory.hpp:77] Creating layer inception_4b/relu_5x5
I0403 15:54:04.802382 11703 net.cpp:91] Creating Layer inception_4b/relu_5x5
I0403 15:54:04.802398 11703 net.cpp:425] inception_4b/relu_5x5 <- inception_4b/5x5
I0403 15:54:04.802417 11703 net.cpp:386] inception_4b/relu_5x5 -> inception_4b/5x5 (in-place)
I0403 15:54:04.802701 11703 net.cpp:141] Setting up inception_4b/relu_5x5
I0403 15:54:04.802729 11703 net.cpp:148] Top shape: 24 64 14 14 (301056)
I0403 15:54:04.802744 11703 net.cpp:156] Memory required for data: 968181024
I0403 15:54:04.802758 11703 layer_factory.hpp:77] Creating layer inception_4b/pool
I0403 15:54:04.802775 11703 net.cpp:91] Creating Layer inception_4b/pool
I0403 15:54:04.802791 11703 net.cpp:425] inception_4b/pool <- inception_4a/output_inception_4a/output_0_split_4
I0403 15:54:04.802813 11703 net.cpp:399] inception_4b/pool -> inception_4b/pool
I0403 15:54:04.802875 11703 net.cpp:141] Setting up inception_4b/pool
I0403 15:54:04.802897 11703 net.cpp:148] Top shape: 24 512 14 14 (2408448)
I0403 15:54:04.802911 11703 net.cpp:156] Memory required for data: 977814816
I0403 15:54:04.802925 11703 layer_factory.hpp:77] Creating layer inception_4b/pool_proj
I0403 15:54:04.802948 11703 net.cpp:91] Creating Layer inception_4b/pool_proj
I0403 15:54:04.802966 11703 net.cpp:425] inception_4b/pool_proj <- inception_4b/pool
I0403 15:54:04.802989 11703 net.cpp:399] inception_4b/pool_proj -> inception_4b/pool_proj
I0403 15:54:04.804168 11703 net.cpp:141] Setting up inception_4b/pool_proj
I0403 15:54:04.804194 11703 net.cpp:148] Top shape: 24 64 14 14 (301056)
I0403 15:54:04.804209 11703 net.cpp:156] Memory required for data: 979019040
I0403 15:54:04.804227 11703 layer_factory.hpp:77] Creating layer inception_4b/relu_pool_proj
I0403 15:54:04.804244 11703 net.cpp:91] Creating Layer inception_4b/relu_pool_proj
I0403 15:54:04.804260 11703 net.cpp:425] inception_4b/relu_pool_proj <- inception_4b/pool_proj
I0403 15:54:04.804280 11703 net.cpp:386] inception_4b/relu_pool_proj -> inception_4b/pool_proj (in-place)
I0403 15:54:04.804456 11703 net.cpp:141] Setting up inception_4b/relu_pool_proj
I0403 15:54:04.804481 11703 net.cpp:148] Top shape: 24 64 14 14 (301056)
I0403 15:54:04.804494 11703 net.cpp:156] Memory required for data: 980223264
I0403 15:54:04.804509 11703 layer_factory.hpp:77] Creating layer inception_4b/output
I0403 15:54:04.804528 11703 net.cpp:91] Creating Layer inception_4b/output
I0403 15:54:04.804544 11703 net.cpp:425] inception_4b/output <- inception_4b/1x1
I0403 15:54:04.804559 11703 net.cpp:425] inception_4b/output <- inception_4b/3x3
I0403 15:54:04.804574 11703 net.cpp:425] inception_4b/output <- inception_4b/5x5
I0403 15:54:04.804589 11703 net.cpp:425] inception_4b/output <- inception_4b/pool_proj
I0403 15:54:04.804605 11703 net.cpp:399] inception_4b/output -> inception_4b/output
I0403 15:54:04.804648 11703 net.cpp:141] Setting up inception_4b/output
I0403 15:54:04.804673 11703 net.cpp:148] Top shape: 24 512 14 14 (2408448)
I0403 15:54:04.804688 11703 net.cpp:156] Memory required for data: 989857056
I0403 15:54:04.804716 11703 layer_factory.hpp:77] Creating layer inception_4b/output_inception_4b/output_0_split
I0403 15:54:04.804734 11703 net.cpp:91] Creating Layer inception_4b/output_inception_4b/output_0_split
I0403 15:54:04.804749 11703 net.cpp:425] inception_4b/output_inception_4b/output_0_split <- inception_4b/output
I0403 15:54:04.804769 11703 net.cpp:399] inception_4b/output_inception_4b/output_0_split -> inception_4b/output_inception_4b/output_0_split_0
I0403 15:54:04.804788 11703 net.cpp:399] inception_4b/output_inception_4b/output_0_split -> inception_4b/output_inception_4b/output_0_split_1
I0403 15:54:04.804808 11703 net.cpp:399] inception_4b/output_inception_4b/output_0_split -> inception_4b/output_inception_4b/output_0_split_2
I0403 15:54:04.804826 11703 net.cpp:399] inception_4b/output_inception_4b/output_0_split -> inception_4b/output_inception_4b/output_0_split_3
I0403 15:54:04.804906 11703 net.cpp:141] Setting up inception_4b/output_inception_4b/output_0_split
I0403 15:54:04.804930 11703 net.cpp:148] Top shape: 24 512 14 14 (2408448)
I0403 15:54:04.804947 11703 net.cpp:148] Top shape: 24 512 14 14 (2408448)
I0403 15:54:04.804963 11703 net.cpp:148] Top shape: 24 512 14 14 (2408448)
I0403 15:54:04.804982 11703 net.cpp:148] Top shape: 24 512 14 14 (2408448)
I0403 15:54:04.804997 11703 net.cpp:156] Memory required for data: 1028392224
I0403 15:54:04.805011 11703 layer_factory.hpp:77] Creating layer inception_4c/1x1
I0403 15:54:04.805033 11703 net.cpp:91] Creating Layer inception_4c/1x1
I0403 15:54:04.805050 11703 net.cpp:425] inception_4c/1x1 <- inception_4b/output_inception_4b/output_0_split_0
I0403 15:54:04.805068 11703 net.cpp:399] inception_4c/1x1 -> inception_4c/1x1
I0403 15:54:04.806540 11703 net.cpp:141] Setting up inception_4c/1x1
I0403 15:54:04.806567 11703 net.cpp:148] Top shape: 24 128 14 14 (602112)
I0403 15:54:04.806581 11703 net.cpp:156] Memory required for data: 1030800672
I0403 15:54:04.806599 11703 layer_factory.hpp:77] Creating layer inception_4c/relu_1x1
I0403 15:54:04.806620 11703 net.cpp:91] Creating Layer inception_4c/relu_1x1
I0403 15:54:04.806638 11703 net.cpp:425] inception_4c/relu_1x1 <- inception_4c/1x1
I0403 15:54:04.806654 11703 net.cpp:386] inception_4c/relu_1x1 -> inception_4c/1x1 (in-place)
I0403 15:54:04.806839 11703 net.cpp:141] Setting up inception_4c/relu_1x1
I0403 15:54:04.806864 11703 net.cpp:148] Top shape: 24 128 14 14 (602112)
I0403 15:54:04.806879 11703 net.cpp:156] Memory required for data: 1033209120
I0403 15:54:04.806893 11703 layer_factory.hpp:77] Creating layer inception_4c/3x3_reduce
I0403 15:54:04.806917 11703 net.cpp:91] Creating Layer inception_4c/3x3_reduce
I0403 15:54:04.806934 11703 net.cpp:425] inception_4c/3x3_reduce <- inception_4b/output_inception_4b/output_0_split_1
I0403 15:54:04.806954 11703 net.cpp:399] inception_4c/3x3_reduce -> inception_4c/3x3_reduce
I0403 15:54:04.808933 11703 net.cpp:141] Setting up inception_4c/3x3_reduce
I0403 15:54:04.808964 11703 net.cpp:148] Top shape: 24 128 14 14 (602112)
I0403 15:54:04.808989 11703 net.cpp:156] Memory required for data: 1035617568
I0403 15:54:04.809010 11703 layer_factory.hpp:77] Creating layer inception_4c/relu_3x3_reduce
I0403 15:54:04.809029 11703 net.cpp:91] Creating Layer inception_4c/relu_3x3_reduce
I0403 15:54:04.809046 11703 net.cpp:425] inception_4c/relu_3x3_reduce <- inception_4c/3x3_reduce
I0403 15:54:04.809065 11703 net.cpp:386] inception_4c/relu_3x3_reduce -> inception_4c/3x3_reduce (in-place)
I0403 15:54:04.809361 11703 net.cpp:141] Setting up inception_4c/relu_3x3_reduce
I0403 15:54:04.809389 11703 net.cpp:148] Top shape: 24 128 14 14 (602112)
I0403 15:54:04.809406 11703 net.cpp:156] Memory required for data: 1038026016
I0403 15:54:04.809420 11703 layer_factory.hpp:77] Creating layer inception_4c/3x3
I0403 15:54:04.809444 11703 net.cpp:91] Creating Layer inception_4c/3x3
I0403 15:54:04.809461 11703 net.cpp:425] inception_4c/3x3 <- inception_4c/3x3_reduce
I0403 15:54:04.809484 11703 net.cpp:399] inception_4c/3x3 -> inception_4c/3x3
I0403 15:54:04.813114 11703 net.cpp:141] Setting up inception_4c/3x3
I0403 15:54:04.813155 11703 net.cpp:148] Top shape: 24 256 14 14 (1204224)
I0403 15:54:04.813171 11703 net.cpp:156] Memory required for data: 1042842912
I0403 15:54:04.813204 11703 layer_factory.hpp:77] Creating layer inception_4c/relu_3x3
I0403 15:54:04.813225 11703 net.cpp:91] Creating Layer inception_4c/relu_3x3
I0403 15:54:04.813241 11703 net.cpp:425] inception_4c/relu_3x3 <- inception_4c/3x3
I0403 15:54:04.813259 11703 net.cpp:386] inception_4c/relu_3x3 -> inception_4c/3x3 (in-place)
I0403 15:54:04.813446 11703 net.cpp:141] Setting up inception_4c/relu_3x3
I0403 15:54:04.813472 11703 net.cpp:148] Top shape: 24 256 14 14 (1204224)
I0403 15:54:04.813487 11703 net.cpp:156] Memory required for data: 1047659808
I0403 15:54:04.813501 11703 layer_factory.hpp:77] Creating layer inception_4c/5x5_reduce
I0403 15:54:04.813524 11703 net.cpp:91] Creating Layer inception_4c/5x5_reduce
I0403 15:54:04.813541 11703 net.cpp:425] inception_4c/5x5_reduce <- inception_4b/output_inception_4b/output_0_split_2
I0403 15:54:04.813562 11703 net.cpp:399] inception_4c/5x5_reduce -> inception_4c/5x5_reduce
I0403 15:54:04.814661 11703 net.cpp:141] Setting up inception_4c/5x5_reduce
I0403 15:54:04.814692 11703 net.cpp:148] Top shape: 24 24 14 14 (112896)
I0403 15:54:04.814707 11703 net.cpp:156] Memory required for data: 1048111392
I0403 15:54:04.814725 11703 layer_factory.hpp:77] Creating layer inception_4c/relu_5x5_reduce
I0403 15:54:04.814743 11703 net.cpp:91] Creating Layer inception_4c/relu_5x5_reduce
I0403 15:54:04.814760 11703 net.cpp:425] inception_4c/relu_5x5_reduce <- inception_4c/5x5_reduce
I0403 15:54:04.814779 11703 net.cpp:386] inception_4c/relu_5x5_reduce -> inception_4c/5x5_reduce (in-place)
I0403 15:54:04.814970 11703 net.cpp:141] Setting up inception_4c/relu_5x5_reduce
I0403 15:54:04.814999 11703 net.cpp:148] Top shape: 24 24 14 14 (112896)
I0403 15:54:04.815014 11703 net.cpp:156] Memory required for data: 1048562976
I0403 15:54:04.815029 11703 layer_factory.hpp:77] Creating layer inception_4c/5x5
I0403 15:54:04.815052 11703 net.cpp:91] Creating Layer inception_4c/5x5
I0403 15:54:04.815068 11703 net.cpp:425] inception_4c/5x5 <- inception_4c/5x5_reduce
I0403 15:54:04.815088 11703 net.cpp:399] inception_4c/5x5 -> inception_4c/5x5
I0403 15:54:04.816345 11703 net.cpp:141] Setting up inception_4c/5x5
I0403 15:54:04.816372 11703 net.cpp:148] Top shape: 24 64 14 14 (301056)
I0403 15:54:04.816387 11703 net.cpp:156] Memory required for data: 1049767200
I0403 15:54:04.816406 11703 layer_factory.hpp:77] Creating layer inception_4c/relu_5x5
I0403 15:54:04.816426 11703 net.cpp:91] Creating Layer inception_4c/relu_5x5
I0403 15:54:04.816442 11703 net.cpp:425] inception_4c/relu_5x5 <- inception_4c/5x5
I0403 15:54:04.816460 11703 net.cpp:386] inception_4c/relu_5x5 -> inception_4c/5x5 (in-place)
I0403 15:54:04.816751 11703 net.cpp:141] Setting up inception_4c/relu_5x5
I0403 15:54:04.816777 11703 net.cpp:148] Top shape: 24 64 14 14 (301056)
I0403 15:54:04.816792 11703 net.cpp:156] Memory required for data: 1050971424
I0403 15:54:04.816807 11703 layer_factory.hpp:77] Creating layer inception_4c/pool
I0403 15:54:04.816826 11703 net.cpp:91] Creating Layer inception_4c/pool
I0403 15:54:04.816843 11703 net.cpp:425] inception_4c/pool <- inception_4b/output_inception_4b/output_0_split_3
I0403 15:54:04.816861 11703 net.cpp:399] inception_4c/pool -> inception_4c/pool
I0403 15:54:04.816926 11703 net.cpp:141] Setting up inception_4c/pool
I0403 15:54:04.816951 11703 net.cpp:148] Top shape: 24 512 14 14 (2408448)
I0403 15:54:04.816964 11703 net.cpp:156] Memory required for data: 1060605216
I0403 15:54:04.816983 11703 layer_factory.hpp:77] Creating layer inception_4c/pool_proj
I0403 15:54:04.817008 11703 net.cpp:91] Creating Layer inception_4c/pool_proj
I0403 15:54:04.817025 11703 net.cpp:425] inception_4c/pool_proj <- inception_4c/pool
I0403 15:54:04.817046 11703 net.cpp:399] inception_4c/pool_proj -> inception_4c/pool_proj
I0403 15:54:04.818285 11703 net.cpp:141] Setting up inception_4c/pool_proj
I0403 15:54:04.818313 11703 net.cpp:148] Top shape: 24 64 14 14 (301056)
I0403 15:54:04.818342 11703 net.cpp:156] Memory required for data: 1061809440
I0403 15:54:04.818361 11703 layer_factory.hpp:77] Creating layer inception_4c/relu_pool_proj
I0403 15:54:04.818379 11703 net.cpp:91] Creating Layer inception_4c/relu_pool_proj
I0403 15:54:04.818395 11703 net.cpp:425] inception_4c/relu_pool_proj <- inception_4c/pool_proj
I0403 15:54:04.818414 11703 net.cpp:386] inception_4c/relu_pool_proj -> inception_4c/pool_proj (in-place)
I0403 15:54:04.818603 11703 net.cpp:141] Setting up inception_4c/relu_pool_proj
I0403 15:54:04.818627 11703 net.cpp:148] Top shape: 24 64 14 14 (301056)
I0403 15:54:04.818642 11703 net.cpp:156] Memory required for data: 1063013664
I0403 15:54:04.818657 11703 layer_factory.hpp:77] Creating layer inception_4c/output
I0403 15:54:04.818675 11703 net.cpp:91] Creating Layer inception_4c/output
I0403 15:54:04.818691 11703 net.cpp:425] inception_4c/output <- inception_4c/1x1
I0403 15:54:04.818711 11703 net.cpp:425] inception_4c/output <- inception_4c/3x3
I0403 15:54:04.818727 11703 net.cpp:425] inception_4c/output <- inception_4c/5x5
I0403 15:54:04.818742 11703 net.cpp:425] inception_4c/output <- inception_4c/pool_proj
I0403 15:54:04.818758 11703 net.cpp:399] inception_4c/output -> inception_4c/output
I0403 15:54:04.818804 11703 net.cpp:141] Setting up inception_4c/output
I0403 15:54:04.818830 11703 net.cpp:148] Top shape: 24 512 14 14 (2408448)
I0403 15:54:04.818845 11703 net.cpp:156] Memory required for data: 1072647456
I0403 15:54:04.818861 11703 layer_factory.hpp:77] Creating layer inception_4c/output_inception_4c/output_0_split
I0403 15:54:04.818877 11703 net.cpp:91] Creating Layer inception_4c/output_inception_4c/output_0_split
I0403 15:54:04.818893 11703 net.cpp:425] inception_4c/output_inception_4c/output_0_split <- inception_4c/output
I0403 15:54:04.818913 11703 net.cpp:399] inception_4c/output_inception_4c/output_0_split -> inception_4c/output_inception_4c/output_0_split_0
I0403 15:54:04.818933 11703 net.cpp:399] inception_4c/output_inception_4c/output_0_split -> inception_4c/output_inception_4c/output_0_split_1
I0403 15:54:04.818953 11703 net.cpp:399] inception_4c/output_inception_4c/output_0_split -> inception_4c/output_inception_4c/output_0_split_2
I0403 15:54:04.818972 11703 net.cpp:399] inception_4c/output_inception_4c/output_0_split -> inception_4c/output_inception_4c/output_0_split_3
I0403 15:54:04.819068 11703 net.cpp:141] Setting up inception_4c/output_inception_4c/output_0_split
I0403 15:54:04.819095 11703 net.cpp:148] Top shape: 24 512 14 14 (2408448)
I0403 15:54:04.819113 11703 net.cpp:148] Top shape: 24 512 14 14 (2408448)
I0403 15:54:04.819128 11703 net.cpp:148] Top shape: 24 512 14 14 (2408448)
I0403 15:54:04.819144 11703 net.cpp:148] Top shape: 24 512 14 14 (2408448)
I0403 15:54:04.819157 11703 net.cpp:156] Memory required for data: 1111182624
I0403 15:54:04.819171 11703 layer_factory.hpp:77] Creating layer inception_4d/1x1
I0403 15:54:04.819195 11703 net.cpp:91] Creating Layer inception_4d/1x1
I0403 15:54:04.819211 11703 net.cpp:425] inception_4d/1x1 <- inception_4c/output_inception_4c/output_0_split_0
I0403 15:54:04.819231 11703 net.cpp:399] inception_4d/1x1 -> inception_4d/1x1
I0403 15:54:04.820636 11703 net.cpp:141] Setting up inception_4d/1x1
I0403 15:54:04.820664 11703 net.cpp:148] Top shape: 24 112 14 14 (526848)
I0403 15:54:04.820683 11703 net.cpp:156] Memory required for data: 1113290016
I0403 15:54:04.820701 11703 layer_factory.hpp:77] Creating layer inception_4d/relu_1x1
I0403 15:54:04.820719 11703 net.cpp:91] Creating Layer inception_4d/relu_1x1
I0403 15:54:04.820735 11703 net.cpp:425] inception_4d/relu_1x1 <- inception_4d/1x1
I0403 15:54:04.820752 11703 net.cpp:386] inception_4d/relu_1x1 -> inception_4d/1x1 (in-place)
I0403 15:54:04.820940 11703 net.cpp:141] Setting up inception_4d/relu_1x1
I0403 15:54:04.820966 11703 net.cpp:148] Top shape: 24 112 14 14 (526848)
I0403 15:54:04.820986 11703 net.cpp:156] Memory required for data: 1115397408
I0403 15:54:04.821002 11703 layer_factory.hpp:77] Creating layer inception_4d/3x3_reduce
I0403 15:54:04.821038 11703 net.cpp:91] Creating Layer inception_4d/3x3_reduce
I0403 15:54:04.821056 11703 net.cpp:425] inception_4d/3x3_reduce <- inception_4c/output_inception_4c/output_0_split_1
I0403 15:54:04.821075 11703 net.cpp:399] inception_4d/3x3_reduce -> inception_4d/3x3_reduce
I0403 15:54:04.822607 11703 net.cpp:141] Setting up inception_4d/3x3_reduce
I0403 15:54:04.822634 11703 net.cpp:148] Top shape: 24 144 14 14 (677376)
I0403 15:54:04.822649 11703 net.cpp:156] Memory required for data: 1118106912
I0403 15:54:04.822667 11703 layer_factory.hpp:77] Creating layer inception_4d/relu_3x3_reduce
I0403 15:54:04.822687 11703 net.cpp:91] Creating Layer inception_4d/relu_3x3_reduce
I0403 15:54:04.822705 11703 net.cpp:425] inception_4d/relu_3x3_reduce <- inception_4d/3x3_reduce
I0403 15:54:04.822721 11703 net.cpp:386] inception_4d/relu_3x3_reduce -> inception_4d/3x3_reduce (in-place)
I0403 15:54:04.823029 11703 net.cpp:141] Setting up inception_4d/relu_3x3_reduce
I0403 15:54:04.823055 11703 net.cpp:148] Top shape: 24 144 14 14 (677376)
I0403 15:54:04.823071 11703 net.cpp:156] Memory required for data: 1120816416
I0403 15:54:04.823086 11703 layer_factory.hpp:77] Creating layer inception_4d/3x3
I0403 15:54:04.823107 11703 net.cpp:91] Creating Layer inception_4d/3x3
I0403 15:54:04.823124 11703 net.cpp:425] inception_4d/3x3 <- inception_4d/3x3_reduce
I0403 15:54:04.823145 11703 net.cpp:399] inception_4d/3x3 -> inception_4d/3x3
I0403 15:54:04.827383 11703 net.cpp:141] Setting up inception_4d/3x3
I0403 15:54:04.827411 11703 net.cpp:148] Top shape: 24 288 14 14 (1354752)
I0403 15:54:04.827425 11703 net.cpp:156] Memory required for data: 1126235424
I0403 15:54:04.827443 11703 layer_factory.hpp:77] Creating layer inception_4d/relu_3x3
I0403 15:54:04.827473 11703 net.cpp:91] Creating Layer inception_4d/relu_3x3
I0403 15:54:04.827489 11703 net.cpp:425] inception_4d/relu_3x3 <- inception_4d/3x3
I0403 15:54:04.827507 11703 net.cpp:386] inception_4d/relu_3x3 -> inception_4d/3x3 (in-place)
I0403 15:54:04.827688 11703 net.cpp:141] Setting up inception_4d/relu_3x3
I0403 15:54:04.827713 11703 net.cpp:148] Top shape: 24 288 14 14 (1354752)
I0403 15:54:04.827728 11703 net.cpp:156] Memory required for data: 1131654432
I0403 15:54:04.827741 11703 layer_factory.hpp:77] Creating layer inception_4d/5x5_reduce
I0403 15:54:04.827762 11703 net.cpp:91] Creating Layer inception_4d/5x5_reduce
I0403 15:54:04.827780 11703 net.cpp:425] inception_4d/5x5_reduce <- inception_4c/output_inception_4c/output_0_split_2
I0403 15:54:04.827800 11703 net.cpp:399] inception_4d/5x5_reduce -> inception_4d/5x5_reduce
I0403 15:54:04.828929 11703 net.cpp:141] Setting up inception_4d/5x5_reduce
I0403 15:54:04.828958 11703 net.cpp:148] Top shape: 24 32 14 14 (150528)
I0403 15:54:04.828974 11703 net.cpp:156] Memory required for data: 1132256544
I0403 15:54:04.829004 11703 layer_factory.hpp:77] Creating layer inception_4d/relu_5x5_reduce
I0403 15:54:04.829021 11703 net.cpp:91] Creating Layer inception_4d/relu_5x5_reduce
I0403 15:54:04.829038 11703 net.cpp:425] inception_4d/relu_5x5_reduce <- inception_4d/5x5_reduce
I0403 15:54:04.829056 11703 net.cpp:386] inception_4d/relu_5x5_reduce -> inception_4d/5x5_reduce (in-place)
I0403 15:54:04.829246 11703 net.cpp:141] Setting up inception_4d/relu_5x5_reduce
I0403 15:54:04.829273 11703 net.cpp:148] Top shape: 24 32 14 14 (150528)
I0403 15:54:04.829288 11703 net.cpp:156] Memory required for data: 1132858656
I0403 15:54:04.829303 11703 layer_factory.hpp:77] Creating layer inception_4d/5x5
I0403 15:54:04.829324 11703 net.cpp:91] Creating Layer inception_4d/5x5
I0403 15:54:04.829341 11703 net.cpp:425] inception_4d/5x5 <- inception_4d/5x5_reduce
I0403 15:54:04.829362 11703 net.cpp:399] inception_4d/5x5 -> inception_4d/5x5
I0403 15:54:04.830816 11703 net.cpp:141] Setting up inception_4d/5x5
I0403 15:54:04.830842 11703 net.cpp:148] Top shape: 24 64 14 14 (301056)
I0403 15:54:04.830857 11703 net.cpp:156] Memory required for data: 1134062880
I0403 15:54:04.830874 11703 layer_factory.hpp:77] Creating layer inception_4d/relu_5x5
I0403 15:54:04.830909 11703 net.cpp:91] Creating Layer inception_4d/relu_5x5
I0403 15:54:04.830926 11703 net.cpp:425] inception_4d/relu_5x5 <- inception_4d/5x5
I0403 15:54:04.830945 11703 net.cpp:386] inception_4d/relu_5x5 -> inception_4d/5x5 (in-place)
I0403 15:54:04.831239 11703 net.cpp:141] Setting up inception_4d/relu_5x5
I0403 15:54:04.831264 11703 net.cpp:148] Top shape: 24 64 14 14 (301056)
I0403 15:54:04.831279 11703 net.cpp:156] Memory required for data: 1135267104
I0403 15:54:04.831293 11703 layer_factory.hpp:77] Creating layer inception_4d/pool
I0403 15:54:04.831311 11703 net.cpp:91] Creating Layer inception_4d/pool
I0403 15:54:04.831327 11703 net.cpp:425] inception_4d/pool <- inception_4c/output_inception_4c/output_0_split_3
I0403 15:54:04.831347 11703 net.cpp:399] inception_4d/pool -> inception_4d/pool
I0403 15:54:04.831413 11703 net.cpp:141] Setting up inception_4d/pool
I0403 15:54:04.831437 11703 net.cpp:148] Top shape: 24 512 14 14 (2408448)
I0403 15:54:04.831451 11703 net.cpp:156] Memory required for data: 1144900896
I0403 15:54:04.831466 11703 layer_factory.hpp:77] Creating layer inception_4d/pool_proj
I0403 15:54:04.831487 11703 net.cpp:91] Creating Layer inception_4d/pool_proj
I0403 15:54:04.831504 11703 net.cpp:425] inception_4d/pool_proj <- inception_4d/pool
I0403 15:54:04.831522 11703 net.cpp:399] inception_4d/pool_proj -> inception_4d/pool_proj
I0403 15:54:04.833267 11703 net.cpp:141] Setting up inception_4d/pool_proj
I0403 15:54:04.833294 11703 net.cpp:148] Top shape: 24 64 14 14 (301056)
I0403 15:54:04.833309 11703 net.cpp:156] Memory required for data: 1146105120
I0403 15:54:04.833328 11703 layer_factory.hpp:77] Creating layer inception_4d/relu_pool_proj
I0403 15:54:04.833348 11703 net.cpp:91] Creating Layer inception_4d/relu_pool_proj
I0403 15:54:04.833364 11703 net.cpp:425] inception_4d/relu_pool_proj <- inception_4d/pool_proj
I0403 15:54:04.833380 11703 net.cpp:386] inception_4d/relu_pool_proj -> inception_4d/pool_proj (in-place)
I0403 15:54:04.833569 11703 net.cpp:141] Setting up inception_4d/relu_pool_proj
I0403 15:54:04.833592 11703 net.cpp:148] Top shape: 24 64 14 14 (301056)
I0403 15:54:04.833606 11703 net.cpp:156] Memory required for data: 1147309344
I0403 15:54:04.833621 11703 layer_factory.hpp:77] Creating layer inception_4d/output
I0403 15:54:04.833637 11703 net.cpp:91] Creating Layer inception_4d/output
I0403 15:54:04.833652 11703 net.cpp:425] inception_4d/output <- inception_4d/1x1
I0403 15:54:04.833668 11703 net.cpp:425] inception_4d/output <- inception_4d/3x3
I0403 15:54:04.833684 11703 net.cpp:425] inception_4d/output <- inception_4d/5x5
I0403 15:54:04.833699 11703 net.cpp:425] inception_4d/output <- inception_4d/pool_proj
I0403 15:54:04.833717 11703 net.cpp:399] inception_4d/output -> inception_4d/output
I0403 15:54:04.833763 11703 net.cpp:141] Setting up inception_4d/output
I0403 15:54:04.833789 11703 net.cpp:148] Top shape: 24 528 14 14 (2483712)
I0403 15:54:04.833803 11703 net.cpp:156] Memory required for data: 1157244192
I0403 15:54:04.833818 11703 layer_factory.hpp:77] Creating layer inception_4d/output_inception_4d/output_0_split
I0403 15:54:04.833835 11703 net.cpp:91] Creating Layer inception_4d/output_inception_4d/output_0_split
I0403 15:54:04.833850 11703 net.cpp:425] inception_4d/output_inception_4d/output_0_split <- inception_4d/output
I0403 15:54:04.833868 11703 net.cpp:399] inception_4d/output_inception_4d/output_0_split -> inception_4d/output_inception_4d/output_0_split_0
I0403 15:54:04.833889 11703 net.cpp:399] inception_4d/output_inception_4d/output_0_split -> inception_4d/output_inception_4d/output_0_split_1
I0403 15:54:04.833909 11703 net.cpp:399] inception_4d/output_inception_4d/output_0_split -> inception_4d/output_inception_4d/output_0_split_2
I0403 15:54:04.833928 11703 net.cpp:399] inception_4d/output_inception_4d/output_0_split -> inception_4d/output_inception_4d/output_0_split_3
I0403 15:54:04.833948 11703 net.cpp:399] inception_4d/output_inception_4d/output_0_split -> inception_4d/output_inception_4d/output_0_split_4
I0403 15:54:04.834054 11703 net.cpp:141] Setting up inception_4d/output_inception_4d/output_0_split
I0403 15:54:04.834089 11703 net.cpp:148] Top shape: 24 528 14 14 (2483712)
I0403 15:54:04.834105 11703 net.cpp:148] Top shape: 24 528 14 14 (2483712)
I0403 15:54:04.834120 11703 net.cpp:148] Top shape: 24 528 14 14 (2483712)
I0403 15:54:04.834134 11703 net.cpp:148] Top shape: 24 528 14 14 (2483712)
I0403 15:54:04.834149 11703 net.cpp:148] Top shape: 24 528 14 14 (2483712)
I0403 15:54:04.834162 11703 net.cpp:156] Memory required for data: 1206918432
I0403 15:54:04.834177 11703 layer_factory.hpp:77] Creating layer loss2/ave_pool
I0403 15:54:04.834197 11703 net.cpp:91] Creating Layer loss2/ave_pool
I0403 15:54:04.834211 11703 net.cpp:425] loss2/ave_pool <- inception_4d/output_inception_4d/output_0_split_0
I0403 15:54:04.834229 11703 net.cpp:399] loss2/ave_pool -> loss2/ave_pool
I0403 15:54:04.834537 11703 net.cpp:141] Setting up loss2/ave_pool
I0403 15:54:04.834564 11703 net.cpp:148] Top shape: 24 528 4 4 (202752)
I0403 15:54:04.834579 11703 net.cpp:156] Memory required for data: 1207729440
I0403 15:54:04.834594 11703 layer_factory.hpp:77] Creating layer loss2/conv
I0403 15:54:04.834615 11703 net.cpp:91] Creating Layer loss2/conv
I0403 15:54:04.834632 11703 net.cpp:425] loss2/conv <- loss2/ave_pool
I0403 15:54:04.834651 11703 net.cpp:399] loss2/conv -> loss2/conv
I0403 15:54:04.836560 11703 net.cpp:141] Setting up loss2/conv
I0403 15:54:04.836588 11703 net.cpp:148] Top shape: 24 128 4 4 (49152)
I0403 15:54:04.836603 11703 net.cpp:156] Memory required for data: 1207926048
I0403 15:54:04.836621 11703 layer_factory.hpp:77] Creating layer loss2/relu_conv
I0403 15:54:04.836638 11703 net.cpp:91] Creating Layer loss2/relu_conv
I0403 15:54:04.836654 11703 net.cpp:425] loss2/relu_conv <- loss2/conv
I0403 15:54:04.836673 11703 net.cpp:386] loss2/relu_conv -> loss2/conv (in-place)
I0403 15:54:04.836956 11703 net.cpp:141] Setting up loss2/relu_conv
I0403 15:54:04.836985 11703 net.cpp:148] Top shape: 24 128 4 4 (49152)
I0403 15:54:04.837002 11703 net.cpp:156] Memory required for data: 1208122656
I0403 15:54:04.837015 11703 layer_factory.hpp:77] Creating layer loss2/fc
I0403 15:54:04.837033 11703 net.cpp:91] Creating Layer loss2/fc
I0403 15:54:04.837050 11703 net.cpp:425] loss2/fc <- loss2/conv
I0403 15:54:04.837070 11703 net.cpp:399] loss2/fc -> loss2/fc
I0403 15:54:04.854400 11703 net.cpp:141] Setting up loss2/fc
I0403 15:54:04.854432 11703 net.cpp:148] Top shape: 24 1024 (24576)
I0403 15:54:04.854447 11703 net.cpp:156] Memory required for data: 1208220960
I0403 15:54:04.854465 11703 layer_factory.hpp:77] Creating layer loss2/relu_fc
I0403 15:54:04.854490 11703 net.cpp:91] Creating Layer loss2/relu_fc
I0403 15:54:04.854506 11703 net.cpp:425] loss2/relu_fc <- loss2/fc
I0403 15:54:04.854522 11703 net.cpp:386] loss2/relu_fc -> loss2/fc (in-place)
I0403 15:54:04.854815 11703 net.cpp:141] Setting up loss2/relu_fc
I0403 15:54:04.854841 11703 net.cpp:148] Top shape: 24 1024 (24576)
I0403 15:54:04.854856 11703 net.cpp:156] Memory required for data: 1208319264
I0403 15:54:04.854871 11703 layer_factory.hpp:77] Creating layer loss2/drop_fc
I0403 15:54:04.854889 11703 net.cpp:91] Creating Layer loss2/drop_fc
I0403 15:54:04.854904 11703 net.cpp:425] loss2/drop_fc <- loss2/fc
I0403 15:54:04.854921 11703 net.cpp:386] loss2/drop_fc -> loss2/fc (in-place)
I0403 15:54:04.854970 11703 net.cpp:141] Setting up loss2/drop_fc
I0403 15:54:04.854996 11703 net.cpp:148] Top shape: 24 1024 (24576)
I0403 15:54:04.855011 11703 net.cpp:156] Memory required for data: 1208417568
I0403 15:54:04.855026 11703 layer_factory.hpp:77] Creating layer loss2/classifier_plantvillage
I0403 15:54:04.855046 11703 net.cpp:91] Creating Layer loss2/classifier_plantvillage
I0403 15:54:04.855062 11703 net.cpp:425] loss2/classifier_plantvillage <- loss2/fc
I0403 15:54:04.855078 11703 net.cpp:399] loss2/classifier_plantvillage -> loss2/classifier_plantvillage
I0403 15:54:04.855474 11703 net.cpp:141] Setting up loss2/classifier_plantvillage
I0403 15:54:04.855497 11703 net.cpp:148] Top shape: 24 38 (912)
I0403 15:54:04.855527 11703 net.cpp:156] Memory required for data: 1208421216
I0403 15:54:04.855546 11703 layer_factory.hpp:77] Creating layer loss2/classifier_plantvillage_loss2/classifier_plantvillage_0_split
I0403 15:54:04.855564 11703 net.cpp:91] Creating Layer loss2/classifier_plantvillage_loss2/classifier_plantvillage_0_split
I0403 15:54:04.855579 11703 net.cpp:425] loss2/classifier_plantvillage_loss2/classifier_plantvillage_0_split <- loss2/classifier_plantvillage
I0403 15:54:04.855598 11703 net.cpp:399] loss2/classifier_plantvillage_loss2/classifier_plantvillage_0_split -> loss2/classifier_plantvillage_loss2/classifier_plantvillage_0_split_0
I0403 15:54:04.855618 11703 net.cpp:399] loss2/classifier_plantvillage_loss2/classifier_plantvillage_0_split -> loss2/classifier_plantvillage_loss2/classifier_plantvillage_0_split_1
I0403 15:54:04.855638 11703 net.cpp:399] loss2/classifier_plantvillage_loss2/classifier_plantvillage_0_split -> loss2/classifier_plantvillage_loss2/classifier_plantvillage_0_split_2
I0403 15:54:04.855715 11703 net.cpp:141] Setting up loss2/classifier_plantvillage_loss2/classifier_plantvillage_0_split
I0403 15:54:04.855738 11703 net.cpp:148] Top shape: 24 38 (912)
I0403 15:54:04.855753 11703 net.cpp:148] Top shape: 24 38 (912)
I0403 15:54:04.855767 11703 net.cpp:148] Top shape: 24 38 (912)
I0403 15:54:04.855782 11703 net.cpp:156] Memory required for data: 1208432160
I0403 15:54:04.855795 11703 layer_factory.hpp:77] Creating layer inception_4e/1x1
I0403 15:54:04.855816 11703 net.cpp:91] Creating Layer inception_4e/1x1
I0403 15:54:04.855834 11703 net.cpp:425] inception_4e/1x1 <- inception_4d/output_inception_4d/output_0_split_1
I0403 15:54:04.855851 11703 net.cpp:399] inception_4e/1x1 -> inception_4e/1x1
I0403 15:54:04.857640 11703 net.cpp:141] Setting up inception_4e/1x1
I0403 15:54:04.857666 11703 net.cpp:148] Top shape: 24 256 14 14 (1204224)
I0403 15:54:04.857681 11703 net.cpp:156] Memory required for data: 1213249056
I0403 15:54:04.857699 11703 layer_factory.hpp:77] Creating layer inception_4e/relu_1x1
I0403 15:54:04.857718 11703 net.cpp:91] Creating Layer inception_4e/relu_1x1
I0403 15:54:04.857734 11703 net.cpp:425] inception_4e/relu_1x1 <- inception_4e/1x1
I0403 15:54:04.857750 11703 net.cpp:386] inception_4e/relu_1x1 -> inception_4e/1x1 (in-place)
I0403 15:54:04.858044 11703 net.cpp:141] Setting up inception_4e/relu_1x1
I0403 15:54:04.858072 11703 net.cpp:148] Top shape: 24 256 14 14 (1204224)
I0403 15:54:04.858086 11703 net.cpp:156] Memory required for data: 1218065952
I0403 15:54:04.858101 11703 layer_factory.hpp:77] Creating layer inception_4e/3x3_reduce
I0403 15:54:04.858122 11703 net.cpp:91] Creating Layer inception_4e/3x3_reduce
I0403 15:54:04.858140 11703 net.cpp:425] inception_4e/3x3_reduce <- inception_4d/output_inception_4d/output_0_split_2
I0403 15:54:04.858160 11703 net.cpp:399] inception_4e/3x3_reduce -> inception_4e/3x3_reduce
I0403 15:54:04.860340 11703 net.cpp:141] Setting up inception_4e/3x3_reduce
I0403 15:54:04.860369 11703 net.cpp:148] Top shape: 24 160 14 14 (752640)
I0403 15:54:04.860385 11703 net.cpp:156] Memory required for data: 1221076512
I0403 15:54:04.860404 11703 layer_factory.hpp:77] Creating layer inception_4e/relu_3x3_reduce
I0403 15:54:04.860421 11703 net.cpp:91] Creating Layer inception_4e/relu_3x3_reduce
I0403 15:54:04.860436 11703 net.cpp:425] inception_4e/relu_3x3_reduce <- inception_4e/3x3_reduce
I0403 15:54:04.860456 11703 net.cpp:386] inception_4e/relu_3x3_reduce -> inception_4e/3x3_reduce (in-place)
I0403 15:54:04.860649 11703 net.cpp:141] Setting up inception_4e/relu_3x3_reduce
I0403 15:54:04.860674 11703 net.cpp:148] Top shape: 24 160 14 14 (752640)
I0403 15:54:04.860689 11703 net.cpp:156] Memory required for data: 1224087072
I0403 15:54:04.860704 11703 layer_factory.hpp:77] Creating layer inception_4e/3x3
I0403 15:54:04.860728 11703 net.cpp:91] Creating Layer inception_4e/3x3
I0403 15:54:04.860744 11703 net.cpp:425] inception_4e/3x3 <- inception_4e/3x3_reduce
I0403 15:54:04.860766 11703 net.cpp:399] inception_4e/3x3 -> inception_4e/3x3
I0403 15:54:04.865885 11703 net.cpp:141] Setting up inception_4e/3x3
I0403 15:54:04.865926 11703 net.cpp:148] Top shape: 24 320 14 14 (1505280)
I0403 15:54:04.865942 11703 net.cpp:156] Memory required for data: 1230108192
I0403 15:54:04.865962 11703 layer_factory.hpp:77] Creating layer inception_4e/relu_3x3
I0403 15:54:04.865985 11703 net.cpp:91] Creating Layer inception_4e/relu_3x3
I0403 15:54:04.866003 11703 net.cpp:425] inception_4e/relu_3x3 <- inception_4e/3x3
I0403 15:54:04.866020 11703 net.cpp:386] inception_4e/relu_3x3 -> inception_4e/3x3 (in-place)
I0403 15:54:04.866335 11703 net.cpp:141] Setting up inception_4e/relu_3x3
I0403 15:54:04.866364 11703 net.cpp:148] Top shape: 24 320 14 14 (1505280)
I0403 15:54:04.866380 11703 net.cpp:156] Memory required for data: 1236129312
I0403 15:54:04.866394 11703 layer_factory.hpp:77] Creating layer inception_4e/5x5_reduce
I0403 15:54:04.866415 11703 net.cpp:91] Creating Layer inception_4e/5x5_reduce
I0403 15:54:04.866432 11703 net.cpp:425] inception_4e/5x5_reduce <- inception_4d/output_inception_4d/output_0_split_3
I0403 15:54:04.866454 11703 net.cpp:399] inception_4e/5x5_reduce -> inception_4e/5x5_reduce
I0403 15:54:04.867554 11703 net.cpp:141] Setting up inception_4e/5x5_reduce
I0403 15:54:04.867581 11703 net.cpp:148] Top shape: 24 32 14 14 (150528)
I0403 15:54:04.867597 11703 net.cpp:156] Memory required for data: 1236731424
I0403 15:54:04.867614 11703 layer_factory.hpp:77] Creating layer inception_4e/relu_5x5_reduce
I0403 15:54:04.867632 11703 net.cpp:91] Creating Layer inception_4e/relu_5x5_reduce
I0403 15:54:04.867651 11703 net.cpp:425] inception_4e/relu_5x5_reduce <- inception_4e/5x5_reduce
I0403 15:54:04.867669 11703 net.cpp:386] inception_4e/relu_5x5_reduce -> inception_4e/5x5_reduce (in-place)
I0403 15:54:04.867970 11703 net.cpp:141] Setting up inception_4e/relu_5x5_reduce
I0403 15:54:04.868015 11703 net.cpp:148] Top shape: 24 32 14 14 (150528)
I0403 15:54:04.868031 11703 net.cpp:156] Memory required for data: 1237333536
I0403 15:54:04.868046 11703 layer_factory.hpp:77] Creating layer inception_4e/5x5
I0403 15:54:04.868088 11703 net.cpp:91] Creating Layer inception_4e/5x5
I0403 15:54:04.868106 11703 net.cpp:425] inception_4e/5x5 <- inception_4e/5x5_reduce
I0403 15:54:04.868126 11703 net.cpp:399] inception_4e/5x5 -> inception_4e/5x5
I0403 15:54:04.870023 11703 net.cpp:141] Setting up inception_4e/5x5
I0403 15:54:04.870051 11703 net.cpp:148] Top shape: 24 128 14 14 (602112)
I0403 15:54:04.870069 11703 net.cpp:156] Memory required for data: 1239741984
I0403 15:54:04.870087 11703 layer_factory.hpp:77] Creating layer inception_4e/relu_5x5
I0403 15:54:04.870105 11703 net.cpp:91] Creating Layer inception_4e/relu_5x5
I0403 15:54:04.870122 11703 net.cpp:425] inception_4e/relu_5x5 <- inception_4e/5x5
I0403 15:54:04.870141 11703 net.cpp:386] inception_4e/relu_5x5 -> inception_4e/5x5 (in-place)
I0403 15:54:04.870343 11703 net.cpp:141] Setting up inception_4e/relu_5x5
I0403 15:54:04.870368 11703 net.cpp:148] Top shape: 24 128 14 14 (602112)
I0403 15:54:04.870383 11703 net.cpp:156] Memory required for data: 1242150432
I0403 15:54:04.870398 11703 layer_factory.hpp:77] Creating layer inception_4e/pool
I0403 15:54:04.870415 11703 net.cpp:91] Creating Layer inception_4e/pool
I0403 15:54:04.870431 11703 net.cpp:425] inception_4e/pool <- inception_4d/output_inception_4d/output_0_split_4
I0403 15:54:04.870451 11703 net.cpp:399] inception_4e/pool -> inception_4e/pool
I0403 15:54:04.870523 11703 net.cpp:141] Setting up inception_4e/pool
I0403 15:54:04.870548 11703 net.cpp:148] Top shape: 24 528 14 14 (2483712)
I0403 15:54:04.870561 11703 net.cpp:156] Memory required for data: 1252085280
I0403 15:54:04.870576 11703 layer_factory.hpp:77] Creating layer inception_4e/pool_proj
I0403 15:54:04.870599 11703 net.cpp:91] Creating Layer inception_4e/pool_proj
I0403 15:54:04.870617 11703 net.cpp:425] inception_4e/pool_proj <- inception_4e/pool
I0403 15:54:04.870636 11703 net.cpp:399] inception_4e/pool_proj -> inception_4e/pool_proj
I0403 15:54:04.872161 11703 net.cpp:141] Setting up inception_4e/pool_proj
I0403 15:54:04.872211 11703 net.cpp:148] Top shape: 24 128 14 14 (602112)
I0403 15:54:04.872230 11703 net.cpp:156] Memory required for data: 1254493728
I0403 15:54:04.872247 11703 layer_factory.hpp:77] Creating layer inception_4e/relu_pool_proj
I0403 15:54:04.872265 11703 net.cpp:91] Creating Layer inception_4e/relu_pool_proj
I0403 15:54:04.872282 11703 net.cpp:425] inception_4e/relu_pool_proj <- inception_4e/pool_proj
I0403 15:54:04.872301 11703 net.cpp:386] inception_4e/relu_pool_proj -> inception_4e/pool_proj (in-place)
I0403 15:54:04.872604 11703 net.cpp:141] Setting up inception_4e/relu_pool_proj
I0403 15:54:04.872633 11703 net.cpp:148] Top shape: 24 128 14 14 (602112)
I0403 15:54:04.872649 11703 net.cpp:156] Memory required for data: 1256902176
I0403 15:54:04.872664 11703 layer_factory.hpp:77] Creating layer inception_4e/output
I0403 15:54:04.872681 11703 net.cpp:91] Creating Layer inception_4e/output
I0403 15:54:04.872697 11703 net.cpp:425] inception_4e/output <- inception_4e/1x1
I0403 15:54:04.872714 11703 net.cpp:425] inception_4e/output <- inception_4e/3x3
I0403 15:54:04.872730 11703 net.cpp:425] inception_4e/output <- inception_4e/5x5
I0403 15:54:04.872745 11703 net.cpp:425] inception_4e/output <- inception_4e/pool_proj
I0403 15:54:04.872762 11703 net.cpp:399] inception_4e/output -> inception_4e/output
I0403 15:54:04.872813 11703 net.cpp:141] Setting up inception_4e/output
I0403 15:54:04.872836 11703 net.cpp:148] Top shape: 24 832 14 14 (3913728)
I0403 15:54:04.872851 11703 net.cpp:156] Memory required for data: 1272557088
I0403 15:54:04.872866 11703 layer_factory.hpp:77] Creating layer pool4/3x3_s2
I0403 15:54:04.872885 11703 net.cpp:91] Creating Layer pool4/3x3_s2
I0403 15:54:04.872902 11703 net.cpp:425] pool4/3x3_s2 <- inception_4e/output
I0403 15:54:04.872920 11703 net.cpp:399] pool4/3x3_s2 -> pool4/3x3_s2
I0403 15:54:04.872994 11703 net.cpp:141] Setting up pool4/3x3_s2
I0403 15:54:04.873018 11703 net.cpp:148] Top shape: 24 832 7 7 (978432)
I0403 15:54:04.873034 11703 net.cpp:156] Memory required for data: 1276470816
I0403 15:54:04.873047 11703 layer_factory.hpp:77] Creating layer pool4/3x3_s2_pool4/3x3_s2_0_split
I0403 15:54:04.873064 11703 net.cpp:91] Creating Layer pool4/3x3_s2_pool4/3x3_s2_0_split
I0403 15:54:04.873080 11703 net.cpp:425] pool4/3x3_s2_pool4/3x3_s2_0_split <- pool4/3x3_s2
I0403 15:54:04.873100 11703 net.cpp:399] pool4/3x3_s2_pool4/3x3_s2_0_split -> pool4/3x3_s2_pool4/3x3_s2_0_split_0
I0403 15:54:04.873121 11703 net.cpp:399] pool4/3x3_s2_pool4/3x3_s2_0_split -> pool4/3x3_s2_pool4/3x3_s2_0_split_1
I0403 15:54:04.873141 11703 net.cpp:399] pool4/3x3_s2_pool4/3x3_s2_0_split -> pool4/3x3_s2_pool4/3x3_s2_0_split_2
I0403 15:54:04.873159 11703 net.cpp:399] pool4/3x3_s2_pool4/3x3_s2_0_split -> pool4/3x3_s2_pool4/3x3_s2_0_split_3
I0403 15:54:04.873248 11703 net.cpp:141] Setting up pool4/3x3_s2_pool4/3x3_s2_0_split
I0403 15:54:04.873275 11703 net.cpp:148] Top shape: 24 832 7 7 (978432)
I0403 15:54:04.873291 11703 net.cpp:148] Top shape: 24 832 7 7 (978432)
I0403 15:54:04.873307 11703 net.cpp:148] Top shape: 24 832 7 7 (978432)
I0403 15:54:04.873322 11703 net.cpp:148] Top shape: 24 832 7 7 (978432)
I0403 15:54:04.873337 11703 net.cpp:156] Memory required for data: 1292125728
I0403 15:54:04.873352 11703 layer_factory.hpp:77] Creating layer inception_5a/1x1
I0403 15:54:04.873376 11703 net.cpp:91] Creating Layer inception_5a/1x1
I0403 15:54:04.873394 11703 net.cpp:425] inception_5a/1x1 <- pool4/3x3_s2_pool4/3x3_s2_0_split_0
I0403 15:54:04.873414 11703 net.cpp:399] inception_5a/1x1 -> inception_5a/1x1
I0403 15:54:04.876302 11703 net.cpp:141] Setting up inception_5a/1x1
I0403 15:54:04.876343 11703 net.cpp:148] Top shape: 24 256 7 7 (301056)
I0403 15:54:04.876359 11703 net.cpp:156] Memory required for data: 1293329952
I0403 15:54:04.876379 11703 layer_factory.hpp:77] Creating layer inception_5a/relu_1x1
I0403 15:54:04.876396 11703 net.cpp:91] Creating Layer inception_5a/relu_1x1
I0403 15:54:04.876412 11703 net.cpp:425] inception_5a/relu_1x1 <- inception_5a/1x1
I0403 15:54:04.876433 11703 net.cpp:386] inception_5a/relu_1x1 -> inception_5a/1x1 (in-place)
I0403 15:54:04.876765 11703 net.cpp:141] Setting up inception_5a/relu_1x1
I0403 15:54:04.876792 11703 net.cpp:148] Top shape: 24 256 7 7 (301056)
I0403 15:54:04.876807 11703 net.cpp:156] Memory required for data: 1294534176
I0403 15:54:04.876822 11703 layer_factory.hpp:77] Creating layer inception_5a/3x3_reduce
I0403 15:54:04.876844 11703 net.cpp:91] Creating Layer inception_5a/3x3_reduce
I0403 15:54:04.876863 11703 net.cpp:425] inception_5a/3x3_reduce <- pool4/3x3_s2_pool4/3x3_s2_0_split_1
I0403 15:54:04.876883 11703 net.cpp:399] inception_5a/3x3_reduce -> inception_5a/3x3_reduce
I0403 15:54:04.879329 11703 net.cpp:141] Setting up inception_5a/3x3_reduce
I0403 15:54:04.879356 11703 net.cpp:148] Top shape: 24 160 7 7 (188160)
I0403 15:54:04.879371 11703 net.cpp:156] Memory required for data: 1295286816
I0403 15:54:04.879390 11703 layer_factory.hpp:77] Creating layer inception_5a/relu_3x3_reduce
I0403 15:54:04.879408 11703 net.cpp:91] Creating Layer inception_5a/relu_3x3_reduce
I0403 15:54:04.879425 11703 net.cpp:425] inception_5a/relu_3x3_reduce <- inception_5a/3x3_reduce
I0403 15:54:04.879441 11703 net.cpp:386] inception_5a/relu_3x3_reduce -> inception_5a/3x3_reduce (in-place)
I0403 15:54:04.879626 11703 net.cpp:141] Setting up inception_5a/relu_3x3_reduce
I0403 15:54:04.879652 11703 net.cpp:148] Top shape: 24 160 7 7 (188160)
I0403 15:54:04.879667 11703 net.cpp:156] Memory required for data: 1296039456
I0403 15:54:04.879681 11703 layer_factory.hpp:77] Creating layer inception_5a/3x3
I0403 15:54:04.879704 11703 net.cpp:91] Creating Layer inception_5a/3x3
I0403 15:54:04.879721 11703 net.cpp:425] inception_5a/3x3 <- inception_5a/3x3_reduce
I0403 15:54:04.879742 11703 net.cpp:399] inception_5a/3x3 -> inception_5a/3x3
I0403 15:54:04.884695 11703 net.cpp:141] Setting up inception_5a/3x3
I0403 15:54:04.884726 11703 net.cpp:148] Top shape: 24 320 7 7 (376320)
I0403 15:54:04.884740 11703 net.cpp:156] Memory required for data: 1297544736
I0403 15:54:04.884758 11703 layer_factory.hpp:77] Creating layer inception_5a/relu_3x3
I0403 15:54:04.884775 11703 net.cpp:91] Creating Layer inception_5a/relu_3x3
I0403 15:54:04.884793 11703 net.cpp:425] inception_5a/relu_3x3 <- inception_5a/3x3
I0403 15:54:04.884811 11703 net.cpp:386] inception_5a/relu_3x3 -> inception_5a/3x3 (in-place)
I0403 15:54:04.885105 11703 net.cpp:141] Setting up inception_5a/relu_3x3
I0403 15:54:04.885133 11703 net.cpp:148] Top shape: 24 320 7 7 (376320)
I0403 15:54:04.885148 11703 net.cpp:156] Memory required for data: 1299050016
I0403 15:54:04.885162 11703 layer_factory.hpp:77] Creating layer inception_5a/5x5_reduce
I0403 15:54:04.885191 11703 net.cpp:91] Creating Layer inception_5a/5x5_reduce
I0403 15:54:04.885211 11703 net.cpp:425] inception_5a/5x5_reduce <- pool4/3x3_s2_pool4/3x3_s2_0_split_2
I0403 15:54:04.885229 11703 net.cpp:399] inception_5a/5x5_reduce -> inception_5a/5x5_reduce
I0403 15:54:04.886415 11703 net.cpp:141] Setting up inception_5a/5x5_reduce
I0403 15:54:04.886441 11703 net.cpp:148] Top shape: 24 32 7 7 (37632)
I0403 15:54:04.886456 11703 net.cpp:156] Memory required for data: 1299200544
I0403 15:54:04.886474 11703 layer_factory.hpp:77] Creating layer inception_5a/relu_5x5_reduce
I0403 15:54:04.886492 11703 net.cpp:91] Creating Layer inception_5a/relu_5x5_reduce
I0403 15:54:04.886508 11703 net.cpp:425] inception_5a/relu_5x5_reduce <- inception_5a/5x5_reduce
I0403 15:54:04.886528 11703 net.cpp:386] inception_5a/relu_5x5_reduce -> inception_5a/5x5_reduce (in-place)
I0403 15:54:04.886823 11703 net.cpp:141] Setting up inception_5a/relu_5x5_reduce
I0403 15:54:04.886848 11703 net.cpp:148] Top shape: 24 32 7 7 (37632)
I0403 15:54:04.886863 11703 net.cpp:156] Memory required for data: 1299351072
I0403 15:54:04.886878 11703 layer_factory.hpp:77] Creating layer inception_5a/5x5
I0403 15:54:04.886899 11703 net.cpp:91] Creating Layer inception_5a/5x5
I0403 15:54:04.886917 11703 net.cpp:425] inception_5a/5x5 <- inception_5a/5x5_reduce
I0403 15:54:04.886937 11703 net.cpp:399] inception_5a/5x5 -> inception_5a/5x5
I0403 15:54:04.888623 11703 net.cpp:141] Setting up inception_5a/5x5
I0403 15:54:04.888667 11703 net.cpp:148] Top shape: 24 128 7 7 (150528)
I0403 15:54:04.888684 11703 net.cpp:156] Memory required for data: 1299953184
I0403 15:54:04.888702 11703 layer_factory.hpp:77] Creating layer inception_5a/relu_5x5
I0403 15:54:04.888720 11703 net.cpp:91] Creating Layer inception_5a/relu_5x5
I0403 15:54:04.888736 11703 net.cpp:425] inception_5a/relu_5x5 <- inception_5a/5x5
I0403 15:54:04.888756 11703 net.cpp:386] inception_5a/relu_5x5 -> inception_5a/5x5 (in-place)
I0403 15:54:04.888943 11703 net.cpp:141] Setting up inception_5a/relu_5x5
I0403 15:54:04.888968 11703 net.cpp:148] Top shape: 24 128 7 7 (150528)
I0403 15:54:04.888993 11703 net.cpp:156] Memory required for data: 1300555296
I0403 15:54:04.889008 11703 layer_factory.hpp:77] Creating layer inception_5a/pool
I0403 15:54:04.889025 11703 net.cpp:91] Creating Layer inception_5a/pool
I0403 15:54:04.889041 11703 net.cpp:425] inception_5a/pool <- pool4/3x3_s2_pool4/3x3_s2_0_split_3
I0403 15:54:04.889060 11703 net.cpp:399] inception_5a/pool -> inception_5a/pool
I0403 15:54:04.889130 11703 net.cpp:141] Setting up inception_5a/pool
I0403 15:54:04.889153 11703 net.cpp:148] Top shape: 24 832 7 7 (978432)
I0403 15:54:04.889168 11703 net.cpp:156] Memory required for data: 1304469024
I0403 15:54:04.889181 11703 layer_factory.hpp:77] Creating layer inception_5a/pool_proj
I0403 15:54:04.889204 11703 net.cpp:91] Creating Layer inception_5a/pool_proj
I0403 15:54:04.889221 11703 net.cpp:425] inception_5a/pool_proj <- inception_5a/pool
I0403 15:54:04.889240 11703 net.cpp:399] inception_5a/pool_proj -> inception_5a/pool_proj
I0403 15:54:04.891490 11703 net.cpp:141] Setting up inception_5a/pool_proj
I0403 15:54:04.891521 11703 net.cpp:148] Top shape: 24 128 7 7 (150528)
I0403 15:54:04.891537 11703 net.cpp:156] Memory required for data: 1305071136
I0403 15:54:04.891556 11703 layer_factory.hpp:77] Creating layer inception_5a/relu_pool_proj
I0403 15:54:04.891572 11703 net.cpp:91] Creating Layer inception_5a/relu_pool_proj
I0403 15:54:04.891588 11703 net.cpp:425] inception_5a/relu_pool_proj <- inception_5a/pool_proj
I0403 15:54:04.891604 11703 net.cpp:386] inception_5a/relu_pool_proj -> inception_5a/pool_proj (in-place)
I0403 15:54:04.891901 11703 net.cpp:141] Setting up inception_5a/relu_pool_proj
I0403 15:54:04.891929 11703 net.cpp:148] Top shape: 24 128 7 7 (150528)
I0403 15:54:04.891944 11703 net.cpp:156] Memory required for data: 1305673248
I0403 15:54:04.891958 11703 layer_factory.hpp:77] Creating layer inception_5a/output
I0403 15:54:04.891975 11703 net.cpp:91] Creating Layer inception_5a/output
I0403 15:54:04.891995 11703 net.cpp:425] inception_5a/output <- inception_5a/1x1
I0403 15:54:04.892012 11703 net.cpp:425] inception_5a/output <- inception_5a/3x3
I0403 15:54:04.892029 11703 net.cpp:425] inception_5a/output <- inception_5a/5x5
I0403 15:54:04.892043 11703 net.cpp:425] inception_5a/output <- inception_5a/pool_proj
I0403 15:54:04.892060 11703 net.cpp:399] inception_5a/output -> inception_5a/output
I0403 15:54:04.892122 11703 net.cpp:141] Setting up inception_5a/output
I0403 15:54:04.892145 11703 net.cpp:148] Top shape: 24 832 7 7 (978432)
I0403 15:54:04.892160 11703 net.cpp:156] Memory required for data: 1309586976
I0403 15:54:04.892184 11703 layer_factory.hpp:77] Creating layer inception_5a/output_inception_5a/output_0_split
I0403 15:54:04.892202 11703 net.cpp:91] Creating Layer inception_5a/output_inception_5a/output_0_split
I0403 15:54:04.892217 11703 net.cpp:425] inception_5a/output_inception_5a/output_0_split <- inception_5a/output
I0403 15:54:04.892235 11703 net.cpp:399] inception_5a/output_inception_5a/output_0_split -> inception_5a/output_inception_5a/output_0_split_0
I0403 15:54:04.892254 11703 net.cpp:399] inception_5a/output_inception_5a/output_0_split -> inception_5a/output_inception_5a/output_0_split_1
I0403 15:54:04.892276 11703 net.cpp:399] inception_5a/output_inception_5a/output_0_split -> inception_5a/output_inception_5a/output_0_split_2
I0403 15:54:04.892295 11703 net.cpp:399] inception_5a/output_inception_5a/output_0_split -> inception_5a/output_inception_5a/output_0_split_3
I0403 15:54:04.892418 11703 net.cpp:141] Setting up inception_5a/output_inception_5a/output_0_split
I0403 15:54:04.892442 11703 net.cpp:148] Top shape: 24 832 7 7 (978432)
I0403 15:54:04.892457 11703 net.cpp:148] Top shape: 24 832 7 7 (978432)
I0403 15:54:04.892482 11703 net.cpp:148] Top shape: 24 832 7 7 (978432)
I0403 15:54:04.892498 11703 net.cpp:148] Top shape: 24 832 7 7 (978432)
I0403 15:54:04.892510 11703 net.cpp:156] Memory required for data: 1325241888
I0403 15:54:04.892524 11703 layer_factory.hpp:77] Creating layer inception_5b/1x1
I0403 15:54:04.892545 11703 net.cpp:91] Creating Layer inception_5b/1x1
I0403 15:54:04.892562 11703 net.cpp:425] inception_5b/1x1 <- inception_5a/output_inception_5a/output_0_split_0
I0403 15:54:04.892582 11703 net.cpp:399] inception_5b/1x1 -> inception_5b/1x1
I0403 15:54:04.896301 11703 net.cpp:141] Setting up inception_5b/1x1
I0403 15:54:04.896332 11703 net.cpp:148] Top shape: 24 384 7 7 (451584)
I0403 15:54:04.896348 11703 net.cpp:156] Memory required for data: 1327048224
I0403 15:54:04.896365 11703 layer_factory.hpp:77] Creating layer inception_5b/relu_1x1
I0403 15:54:04.896385 11703 net.cpp:91] Creating Layer inception_5b/relu_1x1
I0403 15:54:04.896401 11703 net.cpp:425] inception_5b/relu_1x1 <- inception_5b/1x1
I0403 15:54:04.896417 11703 net.cpp:386] inception_5b/relu_1x1 -> inception_5b/1x1 (in-place)
I0403 15:54:04.896715 11703 net.cpp:141] Setting up inception_5b/relu_1x1
I0403 15:54:04.896740 11703 net.cpp:148] Top shape: 24 384 7 7 (451584)
I0403 15:54:04.896755 11703 net.cpp:156] Memory required for data: 1328854560
I0403 15:54:04.896770 11703 layer_factory.hpp:77] Creating layer inception_5b/3x3_reduce
I0403 15:54:04.896795 11703 net.cpp:91] Creating Layer inception_5b/3x3_reduce
I0403 15:54:04.896812 11703 net.cpp:425] inception_5b/3x3_reduce <- inception_5a/output_inception_5a/output_0_split_1
I0403 15:54:04.896831 11703 net.cpp:399] inception_5b/3x3_reduce -> inception_5b/3x3_reduce
I0403 15:54:04.899490 11703 net.cpp:141] Setting up inception_5b/3x3_reduce
I0403 15:54:04.899520 11703 net.cpp:148] Top shape: 24 192 7 7 (225792)
I0403 15:54:04.899536 11703 net.cpp:156] Memory required for data: 1329757728
I0403 15:54:04.899554 11703 layer_factory.hpp:77] Creating layer inception_5b/relu_3x3_reduce
I0403 15:54:04.899572 11703 net.cpp:91] Creating Layer inception_5b/relu_3x3_reduce
I0403 15:54:04.899590 11703 net.cpp:425] inception_5b/relu_3x3_reduce <- inception_5b/3x3_reduce
I0403 15:54:04.899605 11703 net.cpp:386] inception_5b/relu_3x3_reduce -> inception_5b/3x3_reduce (in-place)
I0403 15:54:04.899794 11703 net.cpp:141] Setting up inception_5b/relu_3x3_reduce
I0403 15:54:04.899822 11703 net.cpp:148] Top shape: 24 192 7 7 (225792)
I0403 15:54:04.899837 11703 net.cpp:156] Memory required for data: 1330660896
I0403 15:54:04.899850 11703 layer_factory.hpp:77] Creating layer inception_5b/3x3
I0403 15:54:04.899873 11703 net.cpp:91] Creating Layer inception_5b/3x3
I0403 15:54:04.899888 11703 net.cpp:425] inception_5b/3x3 <- inception_5b/3x3_reduce
I0403 15:54:04.899910 11703 net.cpp:399] inception_5b/3x3 -> inception_5b/3x3
I0403 15:54:04.906507 11703 net.cpp:141] Setting up inception_5b/3x3
I0403 15:54:04.906536 11703 net.cpp:148] Top shape: 24 384 7 7 (451584)
I0403 15:54:04.906553 11703 net.cpp:156] Memory required for data: 1332467232
I0403 15:54:04.906570 11703 layer_factory.hpp:77] Creating layer inception_5b/relu_3x3
I0403 15:54:04.906589 11703 net.cpp:91] Creating Layer inception_5b/relu_3x3
I0403 15:54:04.906605 11703 net.cpp:425] inception_5b/relu_3x3 <- inception_5b/3x3
I0403 15:54:04.906620 11703 net.cpp:386] inception_5b/relu_3x3 -> inception_5b/3x3 (in-place)
I0403 15:54:04.906916 11703 net.cpp:141] Setting up inception_5b/relu_3x3
I0403 15:54:04.906944 11703 net.cpp:148] Top shape: 24 384 7 7 (451584)
I0403 15:54:04.906960 11703 net.cpp:156] Memory required for data: 1334273568
I0403 15:54:04.906975 11703 layer_factory.hpp:77] Creating layer inception_5b/5x5_reduce
I0403 15:54:04.907016 11703 net.cpp:91] Creating Layer inception_5b/5x5_reduce
I0403 15:54:04.907034 11703 net.cpp:425] inception_5b/5x5_reduce <- inception_5a/output_inception_5a/output_0_split_2
I0403 15:54:04.907053 11703 net.cpp:399] inception_5b/5x5_reduce -> inception_5b/5x5_reduce
I0403 15:54:04.908313 11703 net.cpp:141] Setting up inception_5b/5x5_reduce
I0403 15:54:04.908341 11703 net.cpp:148] Top shape: 24 48 7 7 (56448)
I0403 15:54:04.908356 11703 net.cpp:156] Memory required for data: 1334499360
I0403 15:54:04.908375 11703 layer_factory.hpp:77] Creating layer inception_5b/relu_5x5_reduce
I0403 15:54:04.908391 11703 net.cpp:91] Creating Layer inception_5b/relu_5x5_reduce
I0403 15:54:04.908407 11703 net.cpp:425] inception_5b/relu_5x5_reduce <- inception_5b/5x5_reduce
I0403 15:54:04.908427 11703 net.cpp:386] inception_5b/relu_5x5_reduce -> inception_5b/5x5_reduce (in-place)
I0403 15:54:04.908807 11703 net.cpp:141] Setting up inception_5b/relu_5x5_reduce
I0403 15:54:04.908833 11703 net.cpp:148] Top shape: 24 48 7 7 (56448)
I0403 15:54:04.908848 11703 net.cpp:156] Memory required for data: 1334725152
I0403 15:54:04.908861 11703 layer_factory.hpp:77] Creating layer inception_5b/5x5
I0403 15:54:04.908880 11703 net.cpp:91] Creating Layer inception_5b/5x5
I0403 15:54:04.908896 11703 net.cpp:425] inception_5b/5x5 <- inception_5b/5x5_reduce
I0403 15:54:04.908915 11703 net.cpp:399] inception_5b/5x5 -> inception_5b/5x5
I0403 15:54:04.910933 11703 net.cpp:141] Setting up inception_5b/5x5
I0403 15:54:04.910960 11703 net.cpp:148] Top shape: 24 128 7 7 (150528)
I0403 15:54:04.910975 11703 net.cpp:156] Memory required for data: 1335327264
I0403 15:54:04.910997 11703 layer_factory.hpp:77] Creating layer inception_5b/relu_5x5
I0403 15:54:04.911015 11703 net.cpp:91] Creating Layer inception_5b/relu_5x5
I0403 15:54:04.911031 11703 net.cpp:425] inception_5b/relu_5x5 <- inception_5b/5x5
I0403 15:54:04.911053 11703 net.cpp:386] inception_5b/relu_5x5 -> inception_5b/5x5 (in-place)
I0403 15:54:04.911247 11703 net.cpp:141] Setting up inception_5b/relu_5x5
I0403 15:54:04.911272 11703 net.cpp:148] Top shape: 24 128 7 7 (150528)
I0403 15:54:04.911285 11703 net.cpp:156] Memory required for data: 1335929376
I0403 15:54:04.911299 11703 layer_factory.hpp:77] Creating layer inception_5b/pool
I0403 15:54:04.911319 11703 net.cpp:91] Creating Layer inception_5b/pool
I0403 15:54:04.911335 11703 net.cpp:425] inception_5b/pool <- inception_5a/output_inception_5a/output_0_split_3
I0403 15:54:04.911353 11703 net.cpp:399] inception_5b/pool -> inception_5b/pool
I0403 15:54:04.911424 11703 net.cpp:141] Setting up inception_5b/pool
I0403 15:54:04.911448 11703 net.cpp:148] Top shape: 24 832 7 7 (978432)
I0403 15:54:04.911460 11703 net.cpp:156] Memory required for data: 1339843104
I0403 15:54:04.911474 11703 layer_factory.hpp:77] Creating layer inception_5b/pool_proj
I0403 15:54:04.911496 11703 net.cpp:91] Creating Layer inception_5b/pool_proj
I0403 15:54:04.911514 11703 net.cpp:425] inception_5b/pool_proj <- inception_5b/pool
I0403 15:54:04.911533 11703 net.cpp:399] inception_5b/pool_proj -> inception_5b/pool_proj
I0403 15:54:04.913890 11703 net.cpp:141] Setting up inception_5b/pool_proj
I0403 15:54:04.913923 11703 net.cpp:148] Top shape: 24 128 7 7 (150528)
I0403 15:54:04.913938 11703 net.cpp:156] Memory required for data: 1340445216
I0403 15:54:04.913957 11703 layer_factory.hpp:77] Creating layer inception_5b/relu_pool_proj
I0403 15:54:04.913975 11703 net.cpp:91] Creating Layer inception_5b/relu_pool_proj
I0403 15:54:04.913997 11703 net.cpp:425] inception_5b/relu_pool_proj <- inception_5b/pool_proj
I0403 15:54:04.914017 11703 net.cpp:386] inception_5b/relu_pool_proj -> inception_5b/pool_proj (in-place)
I0403 15:54:04.914325 11703 net.cpp:141] Setting up inception_5b/relu_pool_proj
I0403 15:54:04.914353 11703 net.cpp:148] Top shape: 24 128 7 7 (150528)
I0403 15:54:04.914371 11703 net.cpp:156] Memory required for data: 1341047328
I0403 15:54:04.914386 11703 layer_factory.hpp:77] Creating layer inception_5b/output
I0403 15:54:04.914402 11703 net.cpp:91] Creating Layer inception_5b/output
I0403 15:54:04.914433 11703 net.cpp:425] inception_5b/output <- inception_5b/1x1
I0403 15:54:04.914450 11703 net.cpp:425] inception_5b/output <- inception_5b/3x3
I0403 15:54:04.914466 11703 net.cpp:425] inception_5b/output <- inception_5b/5x5
I0403 15:54:04.914482 11703 net.cpp:425] inception_5b/output <- inception_5b/pool_proj
I0403 15:54:04.914501 11703 net.cpp:399] inception_5b/output -> inception_5b/output
I0403 15:54:04.914553 11703 net.cpp:141] Setting up inception_5b/output
I0403 15:54:04.914577 11703 net.cpp:148] Top shape: 24 1024 7 7 (1204224)
I0403 15:54:04.914592 11703 net.cpp:156] Memory required for data: 1345864224
I0403 15:54:04.914605 11703 layer_factory.hpp:77] Creating layer pool5/7x7_s1
I0403 15:54:04.914628 11703 net.cpp:91] Creating Layer pool5/7x7_s1
I0403 15:54:04.914644 11703 net.cpp:425] pool5/7x7_s1 <- inception_5b/output
I0403 15:54:04.914662 11703 net.cpp:399] pool5/7x7_s1 -> pool5/7x7_s1
I0403 15:54:04.914883 11703 net.cpp:141] Setting up pool5/7x7_s1
I0403 15:54:04.914911 11703 net.cpp:148] Top shape: 24 1024 1 1 (24576)
I0403 15:54:04.914926 11703 net.cpp:156] Memory required for data: 1345962528
I0403 15:54:04.914940 11703 layer_factory.hpp:77] Creating layer pool5/drop_7x7_s1
I0403 15:54:04.914958 11703 net.cpp:91] Creating Layer pool5/drop_7x7_s1
I0403 15:54:04.914974 11703 net.cpp:425] pool5/drop_7x7_s1 <- pool5/7x7_s1
I0403 15:54:04.914999 11703 net.cpp:386] pool5/drop_7x7_s1 -> pool5/7x7_s1 (in-place)
I0403 15:54:04.915050 11703 net.cpp:141] Setting up pool5/drop_7x7_s1
I0403 15:54:04.915073 11703 net.cpp:148] Top shape: 24 1024 1 1 (24576)
I0403 15:54:04.915087 11703 net.cpp:156] Memory required for data: 1346060832
I0403 15:54:04.915102 11703 layer_factory.hpp:77] Creating layer loss3/classifier_plantvillage
I0403 15:54:04.915123 11703 net.cpp:91] Creating Layer loss3/classifier_plantvillage
I0403 15:54:04.915140 11703 net.cpp:425] loss3/classifier_plantvillage <- pool5/7x7_s1
I0403 15:54:04.915161 11703 net.cpp:399] loss3/classifier_plantvillage -> loss3/classifier_plantvillage
I0403 15:54:04.915586 11703 net.cpp:141] Setting up loss3/classifier_plantvillage
I0403 15:54:04.915611 11703 net.cpp:148] Top shape: 24 38 (912)
I0403 15:54:04.915626 11703 net.cpp:156] Memory required for data: 1346064480
I0403 15:54:04.915643 11703 layer_factory.hpp:77] Creating layer loss3/classifier_plantvillage_loss3/classifier_plantvillage_0_split
I0403 15:54:04.915663 11703 net.cpp:91] Creating Layer loss3/classifier_plantvillage_loss3/classifier_plantvillage_0_split
I0403 15:54:04.915680 11703 net.cpp:425] loss3/classifier_plantvillage_loss3/classifier_plantvillage_0_split <- loss3/classifier_plantvillage
I0403 15:54:04.915698 11703 net.cpp:399] loss3/classifier_plantvillage_loss3/classifier_plantvillage_0_split -> loss3/classifier_plantvillage_loss3/classifier_plantvillage_0_split_0
I0403 15:54:04.915716 11703 net.cpp:399] loss3/classifier_plantvillage_loss3/classifier_plantvillage_0_split -> loss3/classifier_plantvillage_loss3/classifier_plantvillage_0_split_1
I0403 15:54:04.915735 11703 net.cpp:399] loss3/classifier_plantvillage_loss3/classifier_plantvillage_0_split -> loss3/classifier_plantvillage_loss3/classifier_plantvillage_0_split_2
I0403 15:54:04.915755 11703 net.cpp:399] loss3/classifier_plantvillage_loss3/classifier_plantvillage_0_split -> loss3/classifier_plantvillage_loss3/classifier_plantvillage_0_split_3
I0403 15:54:04.915854 11703 net.cpp:141] Setting up loss3/classifier_plantvillage_loss3/classifier_plantvillage_0_split
I0403 15:54:04.915877 11703 net.cpp:148] Top shape: 24 38 (912)
I0403 15:54:04.915894 11703 net.cpp:148] Top shape: 24 38 (912)
I0403 15:54:04.915909 11703 net.cpp:148] Top shape: 24 38 (912)
I0403 15:54:04.915922 11703 net.cpp:148] Top shape: 24 38 (912)
I0403 15:54:04.915935 11703 net.cpp:156] Memory required for data: 1346079072
I0403 15:54:04.915951 11703 layer_factory.hpp:77] Creating layer loss1/loss
I0403 15:54:04.915971 11703 net.cpp:91] Creating Layer loss1/loss
I0403 15:54:04.915992 11703 net.cpp:425] loss1/loss <- loss1/classifier_plantvillage_loss1/classifier_plantvillage_0_split_0
I0403 15:54:04.916023 11703 net.cpp:425] loss1/loss <- label_data_1_split_0
…
