…
I0403 15:47:32.867743 11326 net.cpp:313] The NetState phase (1) differed from the phase (0) specified by a rule in layer data
I0403 15:47:32.868871 11326 net.cpp:49] Initializing net from parameters: 
state {
  phase: TEST
}
layer {
  name: "data"
  type: "Data"
  top: "data"
  top: "label"
  include {
    phase: TEST
  }
  transform_param {
    mirror: false
    crop_size: 224
    mean_file: "/home/mohanty/data/final_dataset/lmdb/segmented-80-20/mean.binaryproto"
  }
  data_param {
    source: "/home/mohanty/data/final_dataset/lmdb/segmented-80-20/test_db"
    batch_size: 24
    backend: LMDB
  }
}
layer {
  name: "conv1/7x7_s2"
  type: "Convolution"
  bottom: "data"
  top: "conv1/7x7_s2"
  param {
    lr_mult: 1
    decay_mult: 1
  }
  param {
    lr_mult: 2
    decay_mult: 0
  }
  convolution_param {
    num_output: 64
    pad: 3
    kernel_size: 7
    stride: 2
    weight_filler {
      type: "xavier"
      std: 0.1
    }
    bias_filler {
      type: "constant"
      value: 0.2
    }
  }
}
layer {
  name: "conv1/relu_7x7"
  type: "ReLU"
  bottom: "conv1/7x7_s2"
  top: "conv1/7x7_s2"
}
layer {
  name: "pool1/3x3_s2"
  type: "Pooling"
  bottom: "conv1/7x7_s2"
  top: "pool1/3x3_s2"
  pooling_param {
    pool: MAX
    kernel_size: 3
    stride: 2
  }
}
layer {
  name: "pool1/norm1"
  type: "LRN"
  bottom: "pool1/3x3_s2"
  top: "pool1/norm1"
  lrn_param {
    local_size: 5
    alpha: 0.0001
    beta: 0.75
  }
}
layer {
  name: "conv2/3x3_reduce"
  type: "Convolution"
  bottom: "pool1/norm1"
  top: "conv2/3x3_reduce"
  param {
    lr_mult: 1
    decay_mult: 1
  }
  param {
    lr_mult: 2
    decay_mult: 0
  }
  convolution_param {
    num_output: 64
    kernel_size: 1
    weight_filler {
      type: "xavier"
      std: 0.1
    }
    bias_filler {
      type: "constant"
      value: 0.2
    }
  }
}
layer {
  name: "conv2/relu_3x3_reduce"
  type: "ReLU"
  bottom: "conv2/3x3_reduce"
  top: "conv2/3x3_reduce"
}
layer {
  name: "conv2/3x3"
  type: "Convolution"
  bottom: "conv2/3x3_reduce"
  top: "conv2/3x3"
  param {
    lr_mult: 1
    decay_mult: 1
  }
  param {
    lr_mult: 2
    decay_mult: 0
  }
  convolution_param {
    num_output: 192
    pad: 1
    kernel_size: 3
    weight_filler {
      type: "xavier"
      std: 0.03
    }
    bias_filler {
      type: "constant"
      value: 0.2
    }
  }
}
layer {
  name: "conv2/relu_3x3"
  type: "ReLU"
  bottom: "conv2/3x3"
  top: "conv2/3x3"
}
layer {
  name: "conv2/norm2"
  type: "LRN"
  bottom: "conv2/3x3"
  top: "conv2/norm2"
  lrn_param {
    local_size: 5
    alpha: 0.0001
    beta: 0.75
  }
}
layer {
  name: "pool2/3x3_s2"
  type: "Pooling"
  bottom: "conv2/norm2"
  top: "pool2/3x3_s2"
  pooling_param {
    pool: MAX
    kernel_size: 3
    stride: 2
  }
}
layer {
  name: "inception_3a/1x1"
  type: "Convolution"
  bottom: "pool2/3x3_s2"
  top: "inception_3a/1x1"
  param {
    lr_mult: 1
    decay_mult: 1
  }
  param {
    lr_mult: 2
    decay_mult: 0
  }
  convolution_param {
    num_output: 64
    kernel_size: 1
    weight_filler {
      type: "xavier"
      std: 0.03
    }
    bias_filler {
      type: "constant"
      value: 0.2
    }
  }
}
layer {
  name: "inception_3a/relu_1x1"
  type: "ReLU"
  bottom: "inception_3a/1x1"
  top: "inception_3a/1x1"
}
layer {
  name: "inception_3a/3x3_reduce"
  type: "Convolution"
  bottom: "pool2/3x3_s2"
  top: "inception_3a/3x3_reduce"
  param {
    lr_mult: 1
    decay_mult: 1
  }
  param {
    lr_mult: 2
    decay_mult: 0
  }
  convolution_param {
    num_output: 96
    kernel_size: 1
    weight_filler {
      type: "xavier"
      std: 0.09
    }
    bias_filler {
      type: "constant"
      value: 0.2
    }
  }
}
layer {
  name: "inception_3a/relu_3x3_reduce"
  type: "ReLU"
  bottom: "inception_3a/3x3_reduce"
  top: "inception_3a/3x3_reduce"
}
layer {
  name: "inception_3a/3x3"
  type: "Convolution"
  bottom: "inception_3a/3x3_reduce"
  top: "inception_3a/3x3"
  param {
    lr_mult: 1
    decay_mult: 1
  }
  param {
    lr_mult: 2
    decay_mult: 0
  }
  convolution_param {
    num_output: 128
    pad: 1
    kernel_size: 3
    weight_filler {
      type: "xavier"
      std: 0.03
    }
    bias_filler {
      type: "constant"
      value: 0.2
    }
  }
}
layer {
  name: "inception_3a/relu_3x3"
  type: "ReLU"
  bottom: "inception_3a/3x3"
  top: "inception_3a/3x3"
}
layer {
  name: "inception_3a/5x5_reduce"
  type: "Convolution"
  bottom: "pool2/3x3_s2"
  top: "inception_3a/5x5_reduce"
  param {
    lr_mult: 1
    decay_mult: 1
  }
  param {
    lr_mult: 2
    decay_mult: 0
  }
  convolution_param {
    num_output: 16
    kernel_size: 1
    weight_filler {
      type: "xavier"
      std: 0.2
    }
    bias_filler {
      type: "constant"
      value: 0.2
    }
  }
}
layer {
  name: "inception_3a/relu_5x5_reduce"
  type: "ReLU"
  bottom: "inception_3a/5x5_reduce"
  top: "inception_3a/5x5_reduce"
}
layer {
  name: "inception_3a/5x5"
  type: "Convolution"
  bottom: "inception_3a/5x5_reduce"
  top: "inception_3a/5x5"
  param {
    lr_mult: 1
    decay_mult: 1
  }
  param {
    lr_mult: 2
    decay_mult: 0
  }
  convolution_param {
    num_output: 32
    pad: 2
    kernel_size: 5
    weight_filler {
      type: "xavier"
      std: 0.03
    }
    bias_filler {
      type: "constant"
      value: 0.2
    }
  }
}
layer {
  name: "inception_3a/relu_5x5"
  type: "ReLU"
  bottom: "inception_3a/5x5"
  top: "inception_3a/5x5"
}
layer {
  name: "inception_3a/pool"
  type: "Pooling"
  bottom: "pool2/3x3_s2"
  top: "inception_3a/pool"
  pooling_param {
    pool: MAX
    kernel_size: 3
    stride: 1
    pad: 1
  }
}
layer {
  name: "inception_3a/pool_proj"
  type: "Convolution"
  bottom: "inception_3a/pool"
  top: "inception_3a/pool_proj"
  param {
    lr_mult: 1
    decay_mult: 1
  }
  param {
    lr_mult: 2
    decay_mult: 0
  }
  convolution_param {
    num_output: 32
    kernel_size: 1
    weight_filler {
      type: "xavier"
      std: 0.1
    }
    bias_filler {
      type: "constant"
      value: 0.2
    }
  }
}
layer {
  name: "inception_3a/relu_pool_proj"
  type: "ReLU"
  bottom: "inception_3a/pool_proj"
  top: "inception_3a/pool_proj"
}
layer {
  name: "inception_3a/output"
  type: "Concat"
  bottom: "inception_3a/1x1"
  bottom: "inception_3a/3x3"
  bottom: "inception_3a/5x5"
  bottom: "inception_3a/pool_proj"
  top: "inception_3a/output"
}
layer {
  name: "inception_3b/1x1"
  type: "Convolution"
  bottom: "inception_3a/output"
  top: "inception_3b/1x1"
  param {
    lr_mult: 1
    decay_mult: 1
  }
  param {
    lr_mult: 2
    decay_mult: 0
  }
  convolution_param {
    num_output: 128
    kernel_size: 1
    weight_filler {
      type: "xavier"
      std: 0.03
    }
    bias_filler {
      type: "constant"
      value: 0.2
    }
  }
}
layer {
  name: "inception_3b/relu_1x1"
  type: "ReLU"
  bottom: "inception_3b/1x1"
  top: "inception_3b/1x1"
}
layer {
  name: "inception_3b/3x3_reduce"
  type: "Convolution"
  bottom: "inception_3a/output"
  top: "inception_3b/3x3_reduce"
  param {
    lr_mult: 1
    decay_mult: 1
  }
  param {
    lr_mult: 2
    decay_mult: 0
  }
  convolution_param {
    num_output: 128
    kernel_size: 1
    weight_filler {
      type: "xavier"
      std: 0.09
    }
    bias_filler {
      type: "constant"
      value: 0.2
    }
  }
}
layer {
  name: "inception_3b/relu_3x3_reduce"
  type: "ReLU"
  bottom: "inception_3b/3x3_reduce"
  top: "inception_3b/3x3_reduce"
}
layer {
  name: "inception_3b/3x3"
  type: "Convolution"
  bottom: "inception_3b/3x3_reduce"
  top: "inception_3b/3x3"
  param {
    lr_mult: 1
    decay_mult: 1
  }
  param {
    lr_mult: 2
    decay_mult: 0
  }
  convolution_param {
    num_output: 192
    pad: 1
    kernel_size: 3
    weight_filler {
      type: "xavier"
      std: 0.03
    }
    bias_filler {
      type: "constant"
      value: 0.2
    }
  }
}
layer {
  name: "inception_3b/relu_3x3"
  type: "ReLU"
  bottom: "inception_3b/3x3"
  top: "inception_3b/3x3"
}
layer {
  name: "inception_3b/5x5_reduce"
  type: "Convolution"
  bottom: "inception_3a/output"
  top: "inception_3b/5x5_reduce"
  param {
    lr_mult: 1
    decay_mult: 1
  }
  param {
    lr_mult: 2
    decay_mult: 0
  }
  convolution_param {
    num_output: 32
    kernel_size: 1
    weight_filler {
      type: "xavier"
      std: 0.2
    }
    bias_filler {
      type: "constant"
      value: 0.2
    }
  }
}
layer {
  name: "inception_3b/relu_5x5_reduce"
  type: "ReLU"
  bottom: "inception_3b/5x5_reduce"
  top: "inception_3b/5x5_reduce"
}
layer {
  name: "inception_3b/5x5"
  type: "Convolution"
  bottom: "inception_3b/5x5_reduce"
  top: "inception_3b/5x5"
  param {
    lr_mult: 1
    decay_mult: 1
  }
  param {
    lr_mult: 2
    decay_mult: 0
  }
  convolution_param {
    num_output: 96
    pad: 2
    kernel_size: 5
    weight_filler {
      type: "xavier"
      std: 0.03
    }
    bias_filler {
      type: "constant"
      value: 0.2
    }
  }
}
layer {
  name: "inception_3b/relu_5x5"
  type: "ReLU"
  bottom: "inception_3b/5x5"
  top: "inception_3b/5x5"
}
layer {
  name: "inception_3b/pool"
  type: "Pooling"
  bottom: "inception_3a/output"
  top: "inception_3b/pool"
  pooling_param {
    pool: MAX
    kernel_size: 3
    stride: 1
    pad: 1
  }
}
layer {
  name: "inception_3b/pool_proj"
  type: "Convolution"
  bottom: "inception_3b/pool"
  top: "inception_3b/pool_proj"
  param {
    lr_mult: 1
    decay_mult: 1
  }
  param {
    lr_mult: 2
    decay_mult: 0
  }
  convolution_param {
    num_output: 64
    kernel_size: 1
    weight_filler {
      type: "xavier"
      std: 0.1
    }
    bias_filler {
      type: "constant"
      value: 0.2
    }
  }
}
layer {
  name: "inception_3b/relu_pool_proj"
  type: "ReLU"
  bottom: "inception_3b/pool_proj"
  top: "inception_3b/pool_proj"
}
layer {
  name: "inception_3b/output"
  type: "Concat"
  bottom: "inception_3b/1x1"
  bottom: "inception_3b/3x3"
  bottom: "inception_3b/5x5"
  bottom: "inception_3b/pool_proj"
  top: "inception_3b/output"
}
layer {
  name: "pool3/3x3_s2"
  type: "Pooling"
  bottom: "inception_3b/output"
  top: "pool3/3x3_s2"
  pooling_param {
    pool: MAX
    kernel_size: 3
    stride: 2
  }
}
layer {
  name: "inception_4a/1x1"
  type: "Convolution"
  bottom: "pool3/3x3_s2"
  top: "inception_4a/1x1"
  param {
    lr_mult: 1
    decay_mult: 1
  }
  param {
    lr_mult: 2
    decay_mult: 0
  }
  convolution_param {
    num_output: 192
    kernel_size: 1
    weight_filler {
      type: "xavier"
      std: 0.03
    }
    bias_filler {
      type: "constant"
      value: 0.2
    }
  }
}
layer {
  name: "inception_4a/relu_1x1"
  type: "ReLU"
  bottom: "inception_4a/1x1"
  top: "inception_4a/1x1"
}
layer {
  name: "inception_4a/3x3_reduce"
  type: "Convolution"
  bottom: "pool3/3x3_s2"
  top: "inception_4a/3x3_reduce"
  param {
    lr_mult: 1
    decay_mult: 1
  }
  param {
    lr_mult: 2
    decay_mult: 0
  }
  convolution_param {
    num_output: 96
    kernel_size: 1
    weight_filler {
      type: "xavier"
      std: 0.09
    }
    bias_filler {
      type: "constant"
      value: 0.2
    }
  }
}
layer {
  name: "inception_4a/relu_3x3_reduce"
  type: "ReLU"
  bottom: "inception_4a/3x3_reduce"
  top: "inception_4a/3x3_reduce"
}
layer {
  name: "inception_4a/3x3"
  type: "Convolution"
  bottom: "inception_4a/3x3_reduce"
  top: "inception_4a/3x3"
  param {
    lr_mult: 1
    decay_mult: 1
  }
  param {
    lr_mult: 2
    decay_mult: 0
  }
  convolution_param {
    num_output: 208
    pad: 1
    kernel_size: 3
    weight_filler {
      type: "xavier"
      std: 0.03
    }
    bias_filler {
      type: "constant"
      value: 0.2
    }
  }
}
layer {
  name: "inception_4a/relu_3x3"
  type: "ReLU"
  bottom: "inception_4a/3x3"
  top: "inception_4a/3x3"
}
layer {
  name: "inception_4a/5x5_reduce"
  type: "Convolution"
  bottom: "pool3/3x3_s2"
  top: "inception_4a/5x5_reduce"
  param {
    lr_mult: 1
    decay_mult: 1
  }
  param {
    lr_mult: 2
    decay_mult: 0
  }
  convolution_param {
    num_output: 16
    kernel_size: 1
    weight_filler {
      type: "xavier"
      std: 0.2
    }
    bias_filler {
      type: "constant"
      value: 0.2
    }
  }
}
layer {
  name: "inception_4a/relu_5x5_reduce"
  type: "ReLU"
  bottom: "inception_4a/5x5_reduce"
  top: "inception_4a/5x5_reduce"
}
layer {
  name: "inception_4a/5x5"
  type: "Convolution"
  bottom: "inception_4a/5x5_reduce"
  top: "inception_4a/5x5"
  param {
    lr_mult: 1
    decay_mult: 1
  }
  param {
    lr_mult: 2
    decay_mult: 0
  }
  convolution_param {
    num_output: 48
    pad: 2
    kernel_size: 5
    weight_filler {
      type: "xavier"
      std: 0.03
    }
    bias_filler {
      type: "constant"
      value: 0.2
    }
  }
}
layer {
  name: "inception_4a/relu_5x5"
  type: "ReLU"
  bottom: "inception_4a/5x5"
  top: "inception_4a/5x5"
}
layer {
  name: "inception_4a/pool"
  type: "Pooling"
  bottom: "pool3/3x3_s2"
  top: "inception_4a/pool"
  pooling_param {
    pool: MAX
    kernel_size: 3
    stride: 1
    pad: 1
  }
}
layer {
  name: "inception_4a/pool_proj"
  type: "Convolution"
  bottom: "inception_4a/pool"
  top: "inception_4a/pool_proj"
  param {
    lr_mult: 1
    decay_mult: 1
  }
  param {
    lr_mult: 2
    decay_mult: 0
  }
  convolution_param {
    num_output: 64
    kernel_size: 1
    weight_filler {
      type: "xavier"
      std: 0.1
    }
    bias_filler {
      type: "constant"
      value: 0.2
    }
  }
}
layer {
  name: "inception_4a/relu_pool_proj"
  type: "ReLU"
  bottom: "inception_4a/pool_proj"
  top: "inception_4a/pool_proj"
}
layer {
  name: "inception_4a/output"
  type: "Concat"
  bottom: "inception_4a/1x1"
  bottom: "inception_4a/3x3"
  bottom: "inception_4a/5x5"
  bottom: "inception_4a/pool_proj"
  top: "inception_4a/output"
}
layer {
  name: "loss1/ave_pool"
  type: "Pooling"
  bottom: "inception_4a/output"
  top: "loss1/ave_pool"
  pooling_param {
    pool: AVE
    kernel_size: 5
    stride: 3
  }
}
layer {
  name: "loss1/conv"
  type: "Convolution"
  bottom: "loss1/ave_pool"
  top: "loss1/conv"
  param {
    lr_mult: 1
    decay_mult: 1
  }
  param {
    lr_mult: 2
    decay_mult: 0
  }
  convolution_param {
    num_output: 128
    kernel_size: 1
    weight_filler {
      type: "xavier"
      std: 0.08
    }
    bias_filler {
      type: "constant"
      value: 0.2
    }
  }
}
layer {
  name: "loss1/relu_conv"
  type: "ReLU"
  bottom: "loss1/conv"
  top: "loss1/conv"
}
layer {
  name: "loss1/fc"
  type: "InnerProduct"
  bottom: "loss1/conv"
  top: "loss1/fc"
  param {
    lr_mult: 1
    decay_mult: 1
  }
  param {
    lr_mult: 2
    decay_mult: 0
  }
  inner_product_param {
    num_output: 1024
    weight_filler {
      type: "xavier"
      std: 0.02
    }
    bias_filler {
      type: "constant"
      value: 0.2
    }
  }
}
layer {
  name: "loss1/relu_fc"
  type: "ReLU"
  bottom: "loss1/fc"
  top: "loss1/fc"
}
layer {
  name: "loss1/drop_fc"
  type: "Dropout"
  bottom: "loss1/fc"
  top: "loss1/fc"
  dropout_param {
    dropout_ratio: 0.7
  }
}
layer {
  name: "loss1/classifier_plantvillage"
  type: "InnerProduct"
  bottom: "loss1/fc"
  top: "loss1/classifier_plantvillage"
  param {
    lr_mult: 1
    decay_mult: 1
  }
  param {
    lr_mult: 2
    decay_mult: 0
  }
  inner_product_param {
    num_output: 38
    weight_filler {
      type: "xavier"
      std: 0.0009765625
    }
    bias_filler {
      type: "constant"
      value: 0
    }
  }
}
layer {
  name: "inception_4b/1x1"
  type: "Convolution"
  bottom: "inception_4a/output"
  top: "inception_4b/1x1"
  param {
    lr_mult: 1
    decay_mult: 1
  }
  param {
    lr_mult: 2
    decay_mult: 0
  }
  convolution_param {
    num_output: 160
    kernel_size: 1
    weight_filler {
      type: "xavier"
      std: 0.03
    }
    bias_filler {
      type: "constant"
      value: 0.2
    }
  }
}
layer {
  name: "inception_4b/relu_1x1"
  type: "ReLU"
  bottom: "inception_4b/1x1"
  top: "inception_4b/1x1"
}
layer {
  name: "inception_4b/3x3_reduce"
  type: "Convolution"
  bottom: "inception_4a/output"
  top: "inception_4b/3x3_reduce"
  param {
    lr_mult: 1
    decay_mult: 1
  }
  param {
    lr_mult: 2
    decay_mult: 0
  }
  convolution_param {
    num_output: 112
    kernel_size: 1
    weight_filler {
      type: "xavier"
      std: 0.09
    }
    bias_filler {
      type: "constant"
      value: 0.2
    }
  }
}
layer {
  name: "inception_4b/relu_3x3_reduce"
  type: "ReLU"
  bottom: "inception_4b/3x3_reduce"
  top: "inception_4b/3x3_reduce"
}
layer {
  name: "inception_4b/3x3"
  type: "Convolution"
  bottom: "inception_4b/3x3_reduce"
  top: "inception_4b/3x3"
  param {
    lr_mult: 1
    decay_mult: 1
  }
  param {
    lr_mult: 2
    decay_mult: 0
  }
  convolution_param {
    num_output: 224
    pad: 1
    kernel_size: 3
    weight_filler {
      type: "xavier"
      std: 0.03
    }
    bias_filler {
      type: "constant"
      value: 0.2
    }
  }
}
layer {
  name: "inception_4b/relu_3x3"
  type: "ReLU"
  bottom: "inception_4b/3x3"
  top: "inception_4b/3x3"
}
layer {
  name: "inception_4b/5x5_reduce"
  type: "Convolution"
  bottom: "inception_4a/output"
  top: "inception_4b/5x5_reduce"
  param {
    lr_mult: 1
    decay_mult: 1
  }
  param {
    lr_mult: 2
    decay_mult: 0
  }
  convolution_param {
    num_output: 24
    kernel_size: 1
    weight_filler {
      type: "xavier"
      std: 0.2
    }
    bias_filler {
      type: "constant"
      value: 0.2
    }
  }
}
layer {
  name: "inception_4b/relu_5x5_reduce"
  type: "ReLU"
  bottom: "inception_4b/5x5_reduce"
  top: "inception_4b/5x5_reduce"
}
layer {
  name: "inception_4b/5x5"
  type: "Convolution"
  bottom: "inception_4b/5x5_reduce"
  top: "inception_4b/5x5"
  param {
    lr_mult: 1
    decay_mult: 1
  }
  param {
    lr_mult: 2
    decay_mult: 0
  }
  convolution_param {
    num_output: 64
    pad: 2
    kernel_size: 5
    weight_filler {
      type: "xavier"
      std: 0.03
    }
    bias_filler {
      type: "constant"
      value: 0.2
    }
  }
}
layer {
  name: "inception_4b/relu_5x5"
  type: "ReLU"
  bottom: "inception_4b/5x5"
  top: "inception_4b/5x5"
}
layer {
  name: "inception_4b/pool"
  type: "Pooling"
  bottom: "inception_4a/output"
  top: "inception_4b/pool"
  pooling_param {
    pool: MAX
    kernel_size: 3
    stride: 1
    pad: 1
  }
}
layer {
  name: "inception_4b/pool_proj"
  type: "Convolution"
  bottom: "inception_4b/pool"
  top: "inception_4b/pool_proj"
  param {
    lr_mult: 1
    decay_mult: 1
  }
  param {
    lr_mult: 2
    decay_mult: 0
  }
  convolution_param {
    num_output: 64
    kernel_size: 1
    weight_filler {
      type: "xavier"
      std: 0.1
    }
    bias_filler {
      type: "constant"
      value: 0.2
    }
  }
}
layer {
  name: "inception_4b/relu_pool_proj"
  type: "ReLU"
  bottom: "inception_4b/pool_proj"
  top: "inception_4b/pool_proj"
}
layer {
  name: "inception_4b/output"
  type: "Concat"
  bottom: "inception_4b/1x1"
  bottom: "inception_4b/3x3"
  bottom: "inception_4b/5x5"
  bottom: "inception_4b/pool_proj"
  top: "inception_4b/output"
}
layer {
  name: "inception_4c/1x1"
  type: "Convolution"
  bottom: "inception_4b/output"
  top: "inception_4c/1x1"
  param {
    lr_mult: 1
    decay_mult: 1
  }
  param {
    lr_mult: 2
    decay_mult: 0
  }
  convolution_param {
    num_output: 128
    kernel_size: 1
    weight_filler {
      type: "xavier"
      std: 0.03
    }
    bias_filler {
      type: "constant"
      value: 0.2
    }
  }
}
layer {
  name: "inception_4c/relu_1x1"
  type: "ReLU"
  bottom: "inception_4c/1x1"
  top: "inception_4c/1x1"
}
layer {
  name: "inception_4c/3x3_reduce"
  type: "Convolution"
  bottom: "inception_4b/output"
  top: "inception_4c/3x3_reduce"
  param {
    lr_mult: 1
    decay_mult: 1
  }
  param {
    lr_mult: 2
    decay_mult: 0
  }
  convolution_param {
    num_output: 128
    kernel_size: 1
    weight_filler {
      type: "xavier"
      std: 0.09
    }
    bias_filler {
      type: "constant"
      value: 0.2
    }
  }
}
layer {
  name: "inception_4c/relu_3x3_reduce"
  type: "ReLU"
  bottom: "inception_4c/3x3_reduce"
  top: "inception_4c/3x3_reduce"
}
layer {
  name: "inception_4c/3x3"
  type: "Convolution"
  bottom: "inception_4c/3x3_reduce"
  top: "inception_4c/3x3"
  param {
    lr_mult: 1
    decay_mult: 1
  }
  param {
    lr_mult: 2
    decay_mult: 0
  }
  convolution_param {
    num_output: 256
    pad: 1
    kernel_size: 3
    weight_filler {
      type: "xavier"
      std: 0.03
    }
    bias_filler {
      type: "constant"
      value: 0.2
    }
  }
}
layer {
  name: "inception_4c/relu_3x3"
  type: "ReLU"
  bottom: "inception_4c/3x3"
  top: "inception_4c/3x3"
}
layer {
  name: "inception_4c/5x5_reduce"
  type: "Convolution"
  bottom: "inception_4b/output"
  top: "inception_4c/5x5_reduce"
  param {
    lr_mult: 1
    decay_mult: 1
  }
  param {
    lr_mult: 2
    decay_mult: 0
  }
  convolution_param {
    num_output: 24
    kernel_size: 1
    weight_filler {
      type: "xavier"
      std: 0.2
    }
    bias_filler {
      type: "constant"
      value: 0.2
    }
  }
}
layer {
  name: "inception_4c/relu_5x5_reduce"
  type: "ReLU"
  bottom: "inception_4c/5x5_reduce"
  top: "inception_4c/5x5_reduce"
}
layer {
  name: "inception_4c/5x5"
  type: "Convolution"
  bottom: "inception_4c/5x5_reduce"
  top: "inception_4c/5x5"
  param {
    lr_mult: 1
    decay_mult: 1
  }
  param {
    lr_mult: 2
    decay_mult: 0
  }
  convolution_param {
    num_output: 64
    pad: 2
    kernel_size: 5
    weight_filler {
      type: "xavier"
      std: 0.03
    }
    bias_filler {
      type: "constant"
      value: 0.2
    }
  }
}
layer {
  name: "inception_4c/relu_5x5"
  type: "ReLU"
  bottom: "inception_4c/5x5"
  top: "inception_4c/5x5"
}
layer {
  name: "inception_4c/pool"
  type: "Pooling"
  bottom: "inception_4b/output"
  top: "inception_4c/pool"
  pooling_param {
    pool: MAX
    kernel_size: 3
    stride: 1
    pad: 1
  }
}
layer {
  name: "inception_4c/pool_proj"
  type: "Convolution"
  bottom: "inception_4c/pool"
  top: "inception_4c/pool_proj"
  param {
    lr_mult: 1
    decay_mult: 1
  }
  param {
    lr_mult: 2
    decay_mult: 0
  }
  convolution_param {
    num_output: 64
    kernel_size: 1
    weight_filler {
      type: "xavier"
      std: 0.1
    }
    bias_filler {
      type: "constant"
      value: 0.2
    }
  }
}
layer {
  name: "inception_4c/relu_pool_proj"
  type: "ReLU"
  bottom: "inception_4c/pool_proj"
  top: "inception_4c/pool_proj"
}
layer {
  name: "inception_4c/output"
  type: "Concat"
  bottom: "inception_4c/1x1"
  bottom: "inception_4c/3x3"
  bottom: "inception_4c/5x5"
  bottom: "inception_4c/pool_proj"
  top: "inception_4c/output"
}
layer {
  name: "inception_4d/1x1"
  type: "Convolution"
  bottom: "inception_4c/output"
  top: "inception_4d/1x1"
  param {
    lr_mult: 1
    decay_mult: 1
  }
  param {
    lr_mult: 2
    decay_mult: 0
  }
  convolution_param {
    num_output: 112
    kernel_size: 1
    weight_filler {
      type: "xavier"
      std: 0.03
    }
    bias_filler {
      type: "constant"
      value: 0.2
    }
  }
}
layer {
  name: "inception_4d/relu_1x1"
  type: "ReLU"
  bottom: "inception_4d/1x1"
  top: "inception_4d/1x1"
}
layer {
  name: "inception_4d/3x3_reduce"
  type: "Convolution"
  bottom: "inception_4c/output"
  top: "inception_4d/3x3_reduce"
  param {
    lr_mult: 1
    decay_mult: 1
  }
  param {
    lr_mult: 2
    decay_mult: 0
  }
  convolution_param {
    num_output: 144
    kernel_size: 1
    weight_filler {
      type: "xavier"
      std: 0.09
    }
    bias_filler {
      type: "constant"
      value: 0.2
    }
  }
}
layer {
  name: "inception_4d/relu_3x3_reduce"
  type: "ReLU"
  bottom: "inception_4d/3x3_reduce"
  top: "inception_4d/3x3_reduce"
}
layer {
  name: "inception_4d/3x3"
  type: "Convolution"
  bottom: "inception_4d/3x3_reduce"
  top: "inception_4d/3x3"
  param {
    lr_mult: 1
    decay_mult: 1
  }
  param {
    lr_mult: 2
    decay_mult: 0
  }
  convolution_param {
    num_output: 288
    pad: 1
    kernel_size: 3
    weight_filler {
      type: "xavier"
      std: 0.03
    }
    bias_filler {
      type: "constant"
      value: 0.2
    }
  }
}
layer {
  name: "inception_4d/relu_3x3"
  type: "ReLU"
  bottom: "inception_4d/3x3"
  top: "inception_4d/3x3"
}
layer {
  name: "inception_4d/5x5_reduce"
  type: "Convolution"
  bottom: "inception_4c/output"
  top: "inception_4d/5x5_reduce"
  param {
    lr_mult: 1
    decay_mult: 1
  }
  param {
    lr_mult: 2
    decay_mult: 0
  }
  convolution_param {
    num_output: 32
    kernel_size: 1
    weight_filler {
      type: "xavier"
      std: 0.2
    }
    bias_filler {
      type: "constant"
      value: 0.2
    }
  }
}
layer {
  name: "inception_4d/relu_5x5_reduce"
  type: "ReLU"
  bottom: "inception_4d/5x5_reduce"
  top: "inception_4d/5x5_reduce"
}
layer {
  name: "inception_4d/5x5"
  type: "Convolution"
  bottom: "inception_4d/5x5_reduce"
  top: "inception_4d/5x5"
  param {
    lr_mult: 1
    decay_mult: 1
  }
  param {
    lr_mult: 2
    decay_mult: 0
  }
  convolution_param {
    num_output: 64
    pad: 2
    kernel_size: 5
    weight_filler {
      type: "xavier"
      std: 0.03
    }
    bias_filler {
      type: "constant"
      value: 0.2
    }
  }
}
layer {
  name: "inception_4d/relu_5x5"
  type: "ReLU"
  bottom: "inception_4d/5x5"
  top: "inception_4d/5x5"
}
layer {
  name: "inception_4d/pool"
  type: "Pooling"
  bottom: "inception_4c/output"
  top: "inception_4d/pool"
  pooling_param {
    pool: MAX
    kernel_size: 3
    stride: 1
    pad: 1
  }
}
layer {
  name: "inception_4d/pool_proj"
  type: "Convolution"
  bottom: "inception_4d/pool"
  top: "inception_4d/pool_proj"
  param {
    lr_mult: 1
    decay_mult: 1
  }
  param {
    lr_mult: 2
    decay_mult: 0
  }
  convolution_param {
    num_output: 64
    kernel_size: 1
    weight_filler {
      type: "xavier"
      std: 0.1
    }
    bias_filler {
      type: "constant"
      value: 0.2
    }
  }
}
layer {
  name: "inception_4d/relu_pool_proj"
  type: "ReLU"
  bottom: "inception_4d/pool_proj"
  top: "inception_4d/pool_proj"
}
layer {
  name: "inception_4d/output"
  type: "Concat"
  bottom: "inception_4d/1x1"
  bottom: "inception_4d/3x3"
  bottom: "inception_4d/5x5"
  bottom: "inception_4d/pool_proj"
  top: "inception_4d/output"
}
layer {
  name: "loss2/ave_pool"
  type: "Pooling"
  bottom: "inception_4d/output"
  top: "loss2/ave_pool"
  pooling_param {
    pool: AVE
    kernel_size: 5
    stride: 3
  }
}
layer {
  name: "loss2/conv"
  type: "Convolution"
  bottom: "loss2/ave_pool"
  top: "loss2/conv"
  param {
    lr_mult: 1
    decay_mult: 1
  }
  param {
    lr_mult: 2
    decay_mult: 0
  }
  convolution_param {
    num_output: 128
    kernel_size: 1
    weight_filler {
      type: "xavier"
      std: 0.08
    }
    bias_filler {
      type: "constant"
      value: 0.2
    }
  }
}
layer {
  name: "loss2/relu_conv"
  type: "ReLU"
  bottom: "loss2/conv"
  top: "loss2/conv"
}
layer {
  name: "loss2/fc"
  type: "InnerProduct"
  bottom: "loss2/conv"
  top: "loss2/fc"
  param {
    lr_mult: 1
    decay_mult: 1
  }
  param {
    lr_mult: 2
    decay_mult: 0
  }
  inner_product_param {
    num_output: 1024
    weight_filler {
      type: "xavier"
      std: 0.02
    }
    bias_filler {
      type: "constant"
      value: 0.2
    }
  }
}
layer {
  name: "loss2/relu_fc"
  type: "ReLU"
  bottom: "loss2/fc"
  top: "loss2/fc"
}
layer {
  name: "loss2/drop_fc"
  type: "Dropout"
  bottom: "loss2/fc"
  top: "loss2/fc"
  dropout_param {
    dropout_ratio: 0.7
  }
}
layer {
  name: "loss2/classifier_plantvillage"
  type: "InnerProduct"
  bottom: "loss2/fc"
  top: "loss2/classifier_plantvillage"
  param {
    lr_mult: 1
    decay_mult: 1
  }
  param {
    lr_mult: 2
    decay_mult: 0
  }
  inner_product_param {
    num_output: 38
    weight_filler {
      type: "xavier"
      std: 0.0009765625
    }
    bias_filler {
      type: "constant"
      value: 0
    }
  }
}
layer {
  name: "inception_4e/1x1"
  type: "Convolution"
  bottom: "inception_4d/output"
  top: "inception_4e/1x1"
  param {
    lr_mult: 1
    decay_mult: 1
  }
  param {
    lr_mult: 2
    decay_mult: 0
  }
  convolution_param {
    num_output: 256
    kernel_size: 1
    weight_filler {
      type: "xavier"
      std: 0.03
    }
    bias_filler {
      type: "constant"
      value: 0.2
    }
  }
}
layer {
  name: "inception_4e/relu_1x1"
  type: "ReLU"
  bottom: "inception_4e/1x1"
  top: "inception_4e/1x1"
}
layer {
  name: "inception_4e/3x3_reduce"
  type: "Convolution"
  bottom: "inception_4d/output"
  top: "inception_4e/3x3_reduce"
  param {
    lr_mult: 1
    decay_mult: 1
  }
  param {
    lr_mult: 2
    decay_mult: 0
  }
  convolution_param {
    num_output: 160
    kernel_size: 1
    weight_filler {
      type: "xavier"
      std: 0.09
    }
    bias_filler {
      type: "constant"
      value: 0.2
    }
  }
}
layer {
  name: "inception_4e/relu_3x3_reduce"
  type: "ReLU"
  bottom: "inception_4e/3x3_reduce"
  top: "inception_4e/3x3_reduce"
}
layer {
  name: "inception_4e/3x3"
  type: "Convolution"
  bottom: "inception_4e/3x3_reduce"
  top: "inception_4e/3x3"
  param {
    lr_mult: 1
    decay_mult: 1
  }
  param {
    lr_mult: 2
    decay_mult: 0
  }
  convolution_param {
    num_output: 320
    pad: 1
    kernel_size: 3
    weight_filler {
      type: "xavier"
      std: 0.03
    }
    bias_filler {
      type: "constant"
      value: 0.2
    }
  }
}
layer {
  name: "inception_4e/relu_3x3"
  type: "ReLU"
  bottom: "inception_4e/3x3"
  top: "inception_4e/3x3"
}
layer {
  name: "inception_4e/5x5_reduce"
  type: "Convolution"
  bottom: "inception_4d/output"
  top: "inception_4e/5x5_reduce"
  param {
    lr_mult: 1
    decay_mult: 1
  }
  param {
    lr_mult: 2
    decay_mult: 0
  }
  convolution_param {
    num_output: 32
    kernel_size: 1
    weight_filler {
      type: "xavier"
      std: 0.2
    }
    bias_filler {
      type: "constant"
      value: 0.2
    }
  }
}
layer {
  name: "inception_4e/relu_5x5_reduce"
  type: "ReLU"
  bottom: "inception_4e/5x5_reduce"
  top: "inception_4e/5x5_reduce"
}
layer {
  name: "inception_4e/5x5"
  type: "Convolution"
  bottom: "inception_4e/5x5_reduce"
  top: "inception_4e/
I0403 15:47:32.870164 11326 layer_factory.hpp:77] Creating layer data
I0403 15:47:32.870754 11326 net.cpp:91] Creating Layer data
I0403 15:47:32.870785 11326 net.cpp:399] data -> data
I0403 15:47:32.870834 11326 net.cpp:399] data -> label
I0403 15:47:32.870870 11326 data_transformer.cpp:25] Loading mean file from: /home/mohanty/data/final_dataset/lmdb/segmented-80-20/mean.binaryproto
I0403 15:47:32.873967 11328 db_lmdb.cpp:38] Opened lmdb /home/mohanty/data/final_dataset/lmdb/segmented-80-20/test_db
I0403 15:47:32.883769 11326 data_layer.cpp:41] output data size: 24,3,224,224
I0403 15:47:32.914211 11326 net.cpp:141] Setting up data
I0403 15:47:32.914310 11326 net.cpp:148] Top shape: 24 3 224 224 (3612672)
I0403 15:47:32.914335 11326 net.cpp:148] Top shape: 24 (24)
I0403 15:47:32.914351 11326 net.cpp:156] Memory required for data: 14450784
I0403 15:47:32.914379 11326 layer_factory.hpp:77] Creating layer label_data_1_split
I0403 15:47:32.914408 11326 net.cpp:91] Creating Layer label_data_1_split
I0403 15:47:32.914428 11326 net.cpp:425] label_data_1_split <- label
I0403 15:47:32.914459 11326 net.cpp:399] label_data_1_split -> label_data_1_split_0
I0403 15:47:32.914487 11326 net.cpp:399] label_data_1_split -> label_data_1_split_1
I0403 15:47:32.914508 11326 net.cpp:399] label_data_1_split -> label_data_1_split_2
I0403 15:47:32.914530 11326 net.cpp:399] label_data_1_split -> label_data_1_split_3
I0403 15:47:32.914551 11326 net.cpp:399] label_data_1_split -> label_data_1_split_4
I0403 15:47:32.914572 11326 net.cpp:399] label_data_1_split -> label_data_1_split_5
I0403 15:47:32.914590 11326 net.cpp:399] label_data_1_split -> label_data_1_split_6
I0403 15:47:32.914609 11326 net.cpp:399] label_data_1_split -> label_data_1_split_7
I0403 15:47:32.914629 11326 net.cpp:399] label_data_1_split -> label_data_1_split_8
I0403 15:47:32.914650 11326 net.cpp:399] label_data_1_split -> label_data_1_split_9
I0403 15:47:32.914765 11326 net.cpp:141] Setting up label_data_1_split
I0403 15:47:32.914788 11326 net.cpp:148] Top shape: 24 (24)
I0403 15:47:32.914804 11326 net.cpp:148] Top shape: 24 (24)
I0403 15:47:32.914820 11326 net.cpp:148] Top shape: 24 (24)
I0403 15:47:32.914836 11326 net.cpp:148] Top shape: 24 (24)
I0403 15:47:32.914851 11326 net.cpp:148] Top shape: 24 (24)
I0403 15:47:32.914866 11326 net.cpp:148] Top shape: 24 (24)
I0403 15:47:32.914882 11326 net.cpp:148] Top shape: 24 (24)
I0403 15:47:32.914897 11326 net.cpp:148] Top shape: 24 (24)
I0403 15:47:32.914911 11326 net.cpp:148] Top shape: 24 (24)
I0403 15:47:32.914927 11326 net.cpp:148] Top shape: 24 (24)
I0403 15:47:32.914989 11326 net.cpp:156] Memory required for data: 14451744
I0403 15:47:32.915012 11326 layer_factory.hpp:77] Creating layer conv1/7x7_s2
I0403 15:47:32.915045 11326 net.cpp:91] Creating Layer conv1/7x7_s2
I0403 15:47:32.915073 11326 net.cpp:425] conv1/7x7_s2 <- data
I0403 15:47:32.915093 11326 net.cpp:399] conv1/7x7_s2 -> conv1/7x7_s2
I0403 15:47:33.051717 11326 net.cpp:141] Setting up conv1/7x7_s2
I0403 15:47:33.051779 11326 net.cpp:148] Top shape: 24 64 112 112 (19267584)
I0403 15:47:33.051795 11326 net.cpp:156] Memory required for data: 91522080
I0403 15:47:33.051825 11326 layer_factory.hpp:77] Creating layer conv1/relu_7x7
I0403 15:47:33.051851 11326 net.cpp:91] Creating Layer conv1/relu_7x7
I0403 15:47:33.051869 11326 net.cpp:425] conv1/relu_7x7 <- conv1/7x7_s2
I0403 15:47:33.051888 11326 net.cpp:386] conv1/relu_7x7 -> conv1/7x7_s2 (in-place)
I0403 15:47:33.052139 11326 net.cpp:141] Setting up conv1/relu_7x7
I0403 15:47:33.052163 11326 net.cpp:148] Top shape: 24 64 112 112 (19267584)
I0403 15:47:33.052178 11326 net.cpp:156] Memory required for data: 168592416
I0403 15:47:33.052192 11326 layer_factory.hpp:77] Creating layer pool1/3x3_s2
I0403 15:47:33.052218 11326 net.cpp:91] Creating Layer pool1/3x3_s2
I0403 15:47:33.052237 11326 net.cpp:425] pool1/3x3_s2 <- conv1/7x7_s2
I0403 15:47:33.052254 11326 net.cpp:399] pool1/3x3_s2 -> pool1/3x3_s2
I0403 15:47:33.052325 11326 net.cpp:141] Setting up pool1/3x3_s2
I0403 15:47:33.052348 11326 net.cpp:148] Top shape: 24 64 56 56 (4816896)
I0403 15:47:33.052362 11326 net.cpp:156] Memory required for data: 187860000
I0403 15:47:33.052376 11326 layer_factory.hpp:77] Creating layer pool1/norm1
I0403 15:47:33.052400 11326 net.cpp:91] Creating Layer pool1/norm1
I0403 15:47:33.052417 11326 net.cpp:425] pool1/norm1 <- pool1/3x3_s2
I0403 15:47:33.052434 11326 net.cpp:399] pool1/norm1 -> pool1/norm1
I0403 15:47:33.052707 11326 net.cpp:141] Setting up pool1/norm1
I0403 15:47:33.052732 11326 net.cpp:148] Top shape: 24 64 56 56 (4816896)
I0403 15:47:33.052747 11326 net.cpp:156] Memory required for data: 207127584
I0403 15:47:33.052762 11326 layer_factory.hpp:77] Creating layer conv2/3x3_reduce
I0403 15:47:33.052786 11326 net.cpp:91] Creating Layer conv2/3x3_reduce
I0403 15:47:33.052803 11326 net.cpp:425] conv2/3x3_reduce <- pool1/norm1
I0403 15:47:33.052820 11326 net.cpp:399] conv2/3x3_reduce -> conv2/3x3_reduce
I0403 15:47:33.054093 11326 net.cpp:141] Setting up conv2/3x3_reduce
I0403 15:47:33.054121 11326 net.cpp:148] Top shape: 24 64 56 56 (4816896)
I0403 15:47:33.054137 11326 net.cpp:156] Memory required for data: 226395168
I0403 15:47:33.054157 11326 layer_factory.hpp:77] Creating layer conv2/relu_3x3_reduce
I0403 15:47:33.054174 11326 net.cpp:91] Creating Layer conv2/relu_3x3_reduce
I0403 15:47:33.054190 11326 net.cpp:425] conv2/relu_3x3_reduce <- conv2/3x3_reduce
I0403 15:47:33.054208 11326 net.cpp:386] conv2/relu_3x3_reduce -> conv2/3x3_reduce (in-place)
I0403 15:47:33.054446 11326 net.cpp:141] Setting up conv2/relu_3x3_reduce
I0403 15:47:33.054471 11326 net.cpp:148] Top shape: 24 64 56 56 (4816896)
I0403 15:47:33.054486 11326 net.cpp:156] Memory required for data: 245662752
I0403 15:47:33.054502 11326 layer_factory.hpp:77] Creating layer conv2/3x3
I0403 15:47:33.054523 11326 net.cpp:91] Creating Layer conv2/3x3
I0403 15:47:33.054539 11326 net.cpp:425] conv2/3x3 <- conv2/3x3_reduce
I0403 15:47:33.054561 11326 net.cpp:399] conv2/3x3 -> conv2/3x3
I0403 15:47:33.056788 11326 net.cpp:141] Setting up conv2/3x3
I0403 15:47:33.056818 11326 net.cpp:148] Top shape: 24 192 56 56 (14450688)
I0403 15:47:33.056833 11326 net.cpp:156] Memory required for data: 303465504
I0403 15:47:33.056852 11326 layer_factory.hpp:77] Creating layer conv2/relu_3x3
I0403 15:47:33.056872 11326 net.cpp:91] Creating Layer conv2/relu_3x3
I0403 15:47:33.056890 11326 net.cpp:425] conv2/relu_3x3 <- conv2/3x3
I0403 15:47:33.056906 11326 net.cpp:386] conv2/relu_3x3 -> conv2/3x3 (in-place)
I0403 15:47:33.057085 11326 net.cpp:141] Setting up conv2/relu_3x3
I0403 15:47:33.057108 11326 net.cpp:148] Top shape: 24 192 56 56 (14450688)
I0403 15:47:33.057152 11326 net.cpp:156] Memory required for data: 361268256
I0403 15:47:33.057168 11326 layer_factory.hpp:77] Creating layer conv2/norm2
I0403 15:47:33.057185 11326 net.cpp:91] Creating Layer conv2/norm2
I0403 15:47:33.057202 11326 net.cpp:425] conv2/norm2 <- conv2/3x3
I0403 15:47:33.057221 11326 net.cpp:399] conv2/norm2 -> conv2/norm2
I0403 15:47:33.057517 11326 net.cpp:141] Setting up conv2/norm2
I0403 15:47:33.057543 11326 net.cpp:148] Top shape: 24 192 56 56 (14450688)
I0403 15:47:33.057556 11326 net.cpp:156] Memory required for data: 419071008
I0403 15:47:33.057571 11326 layer_factory.hpp:77] Creating layer pool2/3x3_s2
I0403 15:47:33.057588 11326 net.cpp:91] Creating Layer pool2/3x3_s2
I0403 15:47:33.057605 11326 net.cpp:425] pool2/3x3_s2 <- conv2/norm2
I0403 15:47:33.057624 11326 net.cpp:399] pool2/3x3_s2 -> pool2/3x3_s2
I0403 15:47:33.057674 11326 net.cpp:141] Setting up pool2/3x3_s2
I0403 15:47:33.057695 11326 net.cpp:148] Top shape: 24 192 28 28 (3612672)
I0403 15:47:33.057710 11326 net.cpp:156] Memory required for data: 433521696
I0403 15:47:33.057724 11326 layer_factory.hpp:77] Creating layer pool2/3x3_s2_pool2/3x3_s2_0_split
I0403 15:47:33.057744 11326 net.cpp:91] Creating Layer pool2/3x3_s2_pool2/3x3_s2_0_split
I0403 15:47:33.057760 11326 net.cpp:425] pool2/3x3_s2_pool2/3x3_s2_0_split <- pool2/3x3_s2
I0403 15:47:33.057780 11326 net.cpp:399] pool2/3x3_s2_pool2/3x3_s2_0_split -> pool2/3x3_s2_pool2/3x3_s2_0_split_0
I0403 15:47:33.057798 11326 net.cpp:399] pool2/3x3_s2_pool2/3x3_s2_0_split -> pool2/3x3_s2_pool2/3x3_s2_0_split_1
I0403 15:47:33.057818 11326 net.cpp:399] pool2/3x3_s2_pool2/3x3_s2_0_split -> pool2/3x3_s2_pool2/3x3_s2_0_split_2
I0403 15:47:33.057837 11326 net.cpp:399] pool2/3x3_s2_pool2/3x3_s2_0_split -> pool2/3x3_s2_pool2/3x3_s2_0_split_3
I0403 15:47:33.057904 11326 net.cpp:141] Setting up pool2/3x3_s2_pool2/3x3_s2_0_split
I0403 15:47:33.057927 11326 net.cpp:148] Top shape: 24 192 28 28 (3612672)
I0403 15:47:33.057943 11326 net.cpp:148] Top shape: 24 192 28 28 (3612672)
I0403 15:47:33.057958 11326 net.cpp:148] Top shape: 24 192 28 28 (3612672)
I0403 15:47:33.057973 11326 net.cpp:148] Top shape: 24 192 28 28 (3612672)
I0403 15:47:33.057991 11326 net.cpp:156] Memory required for data: 491324448
I0403 15:47:33.058006 11326 layer_factory.hpp:77] Creating layer inception_3a/1x1
I0403 15:47:33.058028 11326 net.cpp:91] Creating Layer inception_3a/1x1
I0403 15:47:33.058045 11326 net.cpp:425] inception_3a/1x1 <- pool2/3x3_s2_pool2/3x3_s2_0_split_0
I0403 15:47:33.058063 11326 net.cpp:399] inception_3a/1x1 -> inception_3a/1x1
I0403 15:47:33.059567 11326 net.cpp:141] Setting up inception_3a/1x1
I0403 15:47:33.059597 11326 net.cpp:148] Top shape: 24 64 28 28 (1204224)
I0403 15:47:33.059612 11326 net.cpp:156] Memory required for data: 496141344
I0403 15:47:33.059630 11326 layer_factory.hpp:77] Creating layer inception_3a/relu_1x1
I0403 15:47:33.059650 11326 net.cpp:91] Creating Layer inception_3a/relu_1x1
I0403 15:47:33.059666 11326 net.cpp:425] inception_3a/relu_1x1 <- inception_3a/1x1
I0403 15:47:33.059684 11326 net.cpp:386] inception_3a/relu_1x1 -> inception_3a/1x1 (in-place)
I0403 15:47:33.059854 11326 net.cpp:141] Setting up inception_3a/relu_1x1
I0403 15:47:33.059880 11326 net.cpp:148] Top shape: 24 64 28 28 (1204224)
I0403 15:47:33.059893 11326 net.cpp:156] Memory required for data: 500958240
I0403 15:47:33.059908 11326 layer_factory.hpp:77] Creating layer inception_3a/3x3_reduce
I0403 15:47:33.059931 11326 net.cpp:91] Creating Layer inception_3a/3x3_reduce
I0403 15:47:33.059947 11326 net.cpp:425] inception_3a/3x3_reduce <- pool2/3x3_s2_pool2/3x3_s2_0_split_1
I0403 15:47:33.059964 11326 net.cpp:399] inception_3a/3x3_reduce -> inception_3a/3x3_reduce
I0403 15:47:33.061604 11326 net.cpp:141] Setting up inception_3a/3x3_reduce
I0403 15:47:33.061632 11326 net.cpp:148] Top shape: 24 96 28 28 (1806336)
I0403 15:47:33.061648 11326 net.cpp:156] Memory required for data: 508183584
I0403 15:47:33.061669 11326 layer_factory.hpp:77] Creating layer inception_3a/relu_3x3_reduce
I0403 15:47:33.061704 11326 net.cpp:91] Creating Layer inception_3a/relu_3x3_reduce
I0403 15:47:33.061722 11326 net.cpp:425] inception_3a/relu_3x3_reduce <- inception_3a/3x3_reduce
I0403 15:47:33.061741 11326 net.cpp:386] inception_3a/relu_3x3_reduce -> inception_3a/3x3_reduce (in-place)
I0403 15:47:33.061918 11326 net.cpp:141] Setting up inception_3a/relu_3x3_reduce
I0403 15:47:33.061942 11326 net.cpp:148] Top shape: 24 96 28 28 (1806336)
I0403 15:47:33.061956 11326 net.cpp:156] Memory required for data: 515408928
I0403 15:47:33.061970 11326 layer_factory.hpp:77] Creating layer inception_3a/3x3
I0403 15:47:33.061997 11326 net.cpp:91] Creating Layer inception_3a/3x3
I0403 15:47:33.062014 11326 net.cpp:425] inception_3a/3x3 <- inception_3a/3x3_reduce
I0403 15:47:33.062036 11326 net.cpp:399] inception_3a/3x3 -> inception_3a/3x3
I0403 15:47:33.063626 11326 net.cpp:141] Setting up inception_3a/3x3
I0403 15:47:33.063654 11326 net.cpp:148] Top shape: 24 128 28 28 (2408448)
I0403 15:47:33.063670 11326 net.cpp:156] Memory required for data: 525042720
I0403 15:47:33.063688 11326 layer_factory.hpp:77] Creating layer inception_3a/relu_3x3
I0403 15:47:33.063706 11326 net.cpp:91] Creating Layer inception_3a/relu_3x3
I0403 15:47:33.063721 11326 net.cpp:425] inception_3a/relu_3x3 <- inception_3a/3x3
I0403 15:47:33.063737 11326 net.cpp:386] inception_3a/relu_3x3 -> inception_3a/3x3 (in-place)
I0403 15:47:33.064005 11326 net.cpp:141] Setting up inception_3a/relu_3x3
I0403 15:47:33.064033 11326 net.cpp:148] Top shape: 24 128 28 28 (2408448)
I0403 15:47:33.064049 11326 net.cpp:156] Memory required for data: 534676512
I0403 15:47:33.064062 11326 layer_factory.hpp:77] Creating layer inception_3a/5x5_reduce
I0403 15:47:33.064082 11326 net.cpp:91] Creating Layer inception_3a/5x5_reduce
I0403 15:47:33.064097 11326 net.cpp:425] inception_3a/5x5_reduce <- pool2/3x3_s2_pool2/3x3_s2_0_split_2
I0403 15:47:33.064118 11326 net.cpp:399] inception_3a/5x5_reduce -> inception_3a/5x5_reduce
I0403 15:47:33.065040 11326 net.cpp:141] Setting up inception_3a/5x5_reduce
I0403 15:47:33.065070 11326 net.cpp:148] Top shape: 24 16 28 28 (301056)
I0403 15:47:33.065086 11326 net.cpp:156] Memory required for data: 535880736
I0403 15:47:33.065104 11326 layer_factory.hpp:77] Creating layer inception_3a/relu_5x5_reduce
I0403 15:47:33.065121 11326 net.cpp:91] Creating Layer inception_3a/relu_5x5_reduce
I0403 15:47:33.065136 11326 net.cpp:425] inception_3a/relu_5x5_reduce <- inception_3a/5x5_reduce
I0403 15:47:33.065153 11326 net.cpp:386] inception_3a/relu_5x5_reduce -> inception_3a/5x5_reduce (in-place)
I0403 15:47:33.065444 11326 net.cpp:141] Setting up inception_3a/relu_5x5_reduce
I0403 15:47:33.065469 11326 net.cpp:148] Top shape: 24 16 28 28 (301056)
I0403 15:47:33.065484 11326 net.cpp:156] Memory required for data: 537084960
I0403 15:47:33.065497 11326 layer_factory.hpp:77] Creating layer inception_3a/5x5
I0403 15:47:33.065520 11326 net.cpp:91] Creating Layer inception_3a/5x5
I0403 15:47:33.065536 11326 net.cpp:425] inception_3a/5x5 <- inception_3a/5x5_reduce
I0403 15:47:33.065557 11326 net.cpp:399] inception_3a/5x5 -> inception_3a/5x5
I0403 15:47:33.066529 11326 net.cpp:141] Setting up inception_3a/5x5
I0403 15:47:33.066555 11326 net.cpp:148] Top shape: 24 32 28 28 (602112)
I0403 15:47:33.066571 11326 net.cpp:156] Memory required for data: 539493408
I0403 15:47:33.066588 11326 layer_factory.hpp:77] Creating layer inception_3a/relu_5x5
I0403 15:47:33.066608 11326 net.cpp:91] Creating Layer inception_3a/relu_5x5
I0403 15:47:33.066624 11326 net.cpp:425] inception_3a/relu_5x5 <- inception_3a/5x5
I0403 15:47:33.066642 11326 net.cpp:386] inception_3a/relu_5x5 -> inception_3a/5x5 (in-place)
I0403 15:47:33.066807 11326 net.cpp:141] Setting up inception_3a/relu_5x5
I0403 15:47:33.066831 11326 net.cpp:148] Top shape: 24 32 28 28 (602112)
I0403 15:47:33.066846 11326 net.cpp:156] Memory required for data: 541901856
I0403 15:47:33.066860 11326 layer_factory.hpp:77] Creating layer inception_3a/pool
I0403 15:47:33.066879 11326 net.cpp:91] Creating Layer inception_3a/pool
I0403 15:47:33.066907 11326 net.cpp:425] inception_3a/pool <- pool2/3x3_s2_pool2/3x3_s2_0_split_3
I0403 15:47:33.066928 11326 net.cpp:399] inception_3a/pool -> inception_3a/pool
I0403 15:47:33.066998 11326 net.cpp:141] Setting up inception_3a/pool
I0403 15:47:33.067023 11326 net.cpp:148] Top shape: 24 192 28 28 (3612672)
I0403 15:47:33.067039 11326 net.cpp:156] Memory required for data: 556352544
I0403 15:47:33.067061 11326 layer_factory.hpp:77] Creating layer inception_3a/pool_proj
I0403 15:47:33.067082 11326 net.cpp:91] Creating Layer inception_3a/pool_proj
I0403 15:47:33.067100 11326 net.cpp:425] inception_3a/pool_proj <- inception_3a/pool
I0403 15:47:33.067121 11326 net.cpp:399] inception_3a/pool_proj -> inception_3a/pool_proj
I0403 15:47:33.068048 11326 net.cpp:141] Setting up inception_3a/pool_proj
I0403 15:47:33.068075 11326 net.cpp:148] Top shape: 24 32 28 28 (602112)
I0403 15:47:33.068090 11326 net.cpp:156] Memory required for data: 558760992
I0403 15:47:33.068114 11326 layer_factory.hpp:77] Creating layer inception_3a/relu_pool_proj
I0403 15:47:33.068132 11326 net.cpp:91] Creating Layer inception_3a/relu_pool_proj
I0403 15:47:33.068148 11326 net.cpp:425] inception_3a/relu_pool_proj <- inception_3a/pool_proj
I0403 15:47:33.068166 11326 net.cpp:386] inception_3a/relu_pool_proj -> inception_3a/pool_proj (in-place)
I0403 15:47:33.068429 11326 net.cpp:141] Setting up inception_3a/relu_pool_proj
I0403 15:47:33.068460 11326 net.cpp:148] Top shape: 24 32 28 28 (602112)
I0403 15:47:33.068476 11326 net.cpp:156] Memory required for data: 561169440
I0403 15:47:33.068490 11326 layer_factory.hpp:77] Creating layer inception_3a/output
I0403 15:47:33.068508 11326 net.cpp:91] Creating Layer inception_3a/output
I0403 15:47:33.068523 11326 net.cpp:425] inception_3a/output <- inception_3a/1x1
I0403 15:47:33.068538 11326 net.cpp:425] inception_3a/output <- inception_3a/3x3
I0403 15:47:33.068553 11326 net.cpp:425] inception_3a/output <- inception_3a/5x5
I0403 15:47:33.068568 11326 net.cpp:425] inception_3a/output <- inception_3a/pool_proj
I0403 15:47:33.068584 11326 net.cpp:399] inception_3a/output -> inception_3a/output
I0403 15:47:33.068630 11326 net.cpp:141] Setting up inception_3a/output
I0403 15:47:33.068652 11326 net.cpp:148] Top shape: 24 256 28 28 (4816896)
I0403 15:47:33.068665 11326 net.cpp:156] Memory required for data: 580437024
I0403 15:47:33.068680 11326 layer_factory.hpp:77] Creating layer inception_3a/output_inception_3a/output_0_split
I0403 15:47:33.068696 11326 net.cpp:91] Creating Layer inception_3a/output_inception_3a/output_0_split
I0403 15:47:33.068709 11326 net.cpp:425] inception_3a/output_inception_3a/output_0_split <- inception_3a/output
I0403 15:47:33.068729 11326 net.cpp:399] inception_3a/output_inception_3a/output_0_split -> inception_3a/output_inception_3a/output_0_split_0
I0403 15:47:33.068748 11326 net.cpp:399] inception_3a/output_inception_3a/output_0_split -> inception_3a/output_inception_3a/output_0_split_1
I0403 15:47:33.068771 11326 net.cpp:399] inception_3a/output_inception_3a/output_0_split -> inception_3a/output_inception_3a/output_0_split_2
I0403 15:47:33.068791 11326 net.cpp:399] inception_3a/output_inception_3a/output_0_split -> inception_3a/output_inception_3a/output_0_split_3
I0403 15:47:33.068863 11326 net.cpp:141] Setting up inception_3a/output_inception_3a/output_0_split
I0403 15:47:33.068884 11326 net.cpp:148] Top shape: 24 256 28 28 (4816896)
I0403 15:47:33.068900 11326 net.cpp:148] Top shape: 24 256 28 28 (4816896)
I0403 15:47:33.068915 11326 net.cpp:148] Top shape: 24 256 28 28 (4816896)
I0403 15:47:33.068930 11326 net.cpp:148] Top shape: 24 256 28 28 (4816896)
I0403 15:47:33.068943 11326 net.cpp:156] Memory required for data: 657507360
I0403 15:47:33.068956 11326 layer_factory.hpp:77] Creating layer inception_3b/1x1
I0403 15:47:33.068989 11326 net.cpp:91] Creating Layer inception_3b/1x1
I0403 15:47:33.069007 11326 net.cpp:425] inception_3b/1x1 <- inception_3a/output_inception_3a/output_0_split_0
I0403 15:47:33.069028 11326 net.cpp:399] inception_3b/1x1 -> inception_3b/1x1
I0403 15:47:33.070142 11326 net.cpp:141] Setting up inception_3b/1x1
I0403 15:47:33.070180 11326 net.cpp:148] Top shape: 24 128 28 28 (2408448)
I0403 15:47:33.070196 11326 net.cpp:156] Memory required for data: 667141152
I0403 15:47:33.070226 11326 layer_factory.hpp:77] Creating layer inception_3b/relu_1x1
I0403 15:47:33.070246 11326 net.cpp:91] Creating Layer inception_3b/relu_1x1
I0403 15:47:33.070262 11326 net.cpp:425] inception_3b/relu_1x1 <- inception_3b/1x1
I0403 15:47:33.070279 11326 net.cpp:386] inception_3b/relu_1x1 -> inception_3b/1x1 (in-place)
I0403 15:47:33.070447 11326 net.cpp:141] Setting up inception_3b/relu_1x1
I0403 15:47:33.070473 11326 net.cpp:148] Top shape: 24 128 28 28 (2408448)
I0403 15:47:33.070488 11326 net.cpp:156] Memory required for data: 676774944
I0403 15:47:33.070502 11326 layer_factory.hpp:77] Creating layer inception_3b/3x3_reduce
I0403 15:47:33.070524 11326 net.cpp:91] Creating Layer inception_3b/3x3_reduce
I0403 15:47:33.070541 11326 net.cpp:425] inception_3b/3x3_reduce <- inception_3a/output_inception_3a/output_0_split_1
I0403 15:47:33.070559 11326 net.cpp:399] inception_3b/3x3_reduce -> inception_3b/3x3_reduce
I0403 15:47:33.071655 11326 net.cpp:141] Setting up inception_3b/3x3_reduce
I0403 15:47:33.071681 11326 net.cpp:148] Top shape: 24 128 28 28 (2408448)
I0403 15:47:33.071696 11326 net.cpp:156] Memory required for data: 686408736
I0403 15:47:33.071713 11326 layer_factory.hpp:77] Creating layer inception_3b/relu_3x3_reduce
I0403 15:47:33.071733 11326 net.cpp:91] Creating Layer inception_3b/relu_3x3_reduce
I0403 15:47:33.071750 11326 net.cpp:425] inception_3b/relu_3x3_reduce <- inception_3b/3x3_reduce
I0403 15:47:33.071766 11326 net.cpp:386] inception_3b/relu_3x3_reduce -> inception_3b/3x3_reduce (in-place)
I0403 15:47:33.071936 11326 net.cpp:141] Setting up inception_3b/relu_3x3_reduce
I0403 15:47:33.071960 11326 net.cpp:148] Top shape: 24 128 28 28 (2408448)
I0403 15:47:33.071974 11326 net.cpp:156] Memory required for data: 696042528
I0403 15:47:33.071993 11326 layer_factory.hpp:77] Creating layer inception_3b/3x3
I0403 15:47:33.072019 11326 net.cpp:91] Creating Layer inception_3b/3x3
I0403 15:47:33.072037 11326 net.cpp:425] inception_3b/3x3 <- inception_3b/3x3_reduce
I0403 15:47:33.072057 11326 net.cpp:399] inception_3b/3x3 -> inception_3b/3x3
I0403 15:47:33.074882 11326 net.cpp:141] Setting up inception_3b/3x3
I0403 15:47:33.074911 11326 net.cpp:148] Top shape: 24 192 28 28 (3612672)
I0403 15:47:33.074928 11326 net.cpp:156] Memory required for data: 710493216
I0403 15:47:33.074945 11326 layer_factory.hpp:77] Creating layer inception_3b/relu_3x3
I0403 15:47:33.074962 11326 net.cpp:91] Creating Layer inception_3b/relu_3x3
I0403 15:47:33.074981 11326 net.cpp:425] inception_3b/relu_3x3 <- inception_3b/3x3
I0403 15:47:33.075000 11326 net.cpp:386] inception_3b/relu_3x3 -> inception_3b/3x3 (in-place)
I0403 15:47:33.075269 11326 net.cpp:141] Setting up inception_3b/relu_3x3
I0403 15:47:33.075297 11326 net.cpp:148] Top shape: 24 192 28 28 (3612672)
I0403 15:47:33.075314 11326 net.cpp:156] Memory required for data: 724943904
I0403 15:47:33.075328 11326 layer_factory.hpp:77] Creating layer inception_3b/5x5_reduce
I0403 15:47:33.075347 11326 net.cpp:91] Creating Layer inception_3b/5x5_reduce
I0403 15:47:33.075363 11326 net.cpp:425] inception_3b/5x5_reduce <- inception_3a/output_inception_3a/output_0_split_2
I0403 15:47:33.075383 11326 net.cpp:399] inception_3b/5x5_reduce -> inception_3b/5x5_reduce
I0403 15:47:33.076339 11326 net.cpp:141] Setting up inception_3b/5x5_reduce
I0403 15:47:33.076365 11326 net.cpp:148] Top shape: 24 32 28 28 (602112)
I0403 15:47:33.076381 11326 net.cpp:156] Memory required for data: 727352352
I0403 15:47:33.076398 11326 layer_factory.hpp:77] Creating layer inception_3b/relu_5x5_reduce
I0403 15:47:33.076418 11326 net.cpp:91] Creating Layer inception_3b/relu_5x5_reduce
I0403 15:47:33.076434 11326 net.cpp:425] inception_3b/relu_5x5_reduce <- inception_3b/5x5_reduce
I0403 15:47:33.076452 11326 net.cpp:386] inception_3b/relu_5x5_reduce -> inception_3b/5x5_reduce (in-place)
I0403 15:47:33.076642 11326 net.cpp:141] Setting up inception_3b/relu_5x5_reduce
I0403 15:47:33.076668 11326 net.cpp:148] Top shape: 24 32 28 28 (602112)
I0403 15:47:33.076683 11326 net.cpp:156] Memory required for data: 729760800
I0403 15:47:33.076697 11326 layer_factory.hpp:77] Creating layer inception_3b/5x5
I0403 15:47:33.076719 11326 net.cpp:91] Creating Layer inception_3b/5x5
I0403 15:47:33.076735 11326 net.cpp:425] inception_3b/5x5 <- inception_3b/5x5_reduce
I0403 15:47:33.076753 11326 net.cpp:399] inception_3b/5x5 -> inception_3b/5x5
I0403 15:47:33.078712 11326 net.cpp:141] Setting up inception_3b/5x5
I0403 15:47:33.078740 11326 net.cpp:148] Top shape: 24 96 28 28 (1806336)
I0403 15:47:33.078757 11326 net.cpp:156] Memory required for data: 736986144
I0403 15:47:33.078774 11326 layer_factory.hpp:77] Creating layer inception_3b/relu_5x5
I0403 15:47:33.078794 11326 net.cpp:91] Creating Layer inception_3b/relu_5x5
I0403 15:47:33.078811 11326 net.cpp:425] inception_3b/relu_5x5 <- inception_3b/5x5
I0403 15:47:33.078829 11326 net.cpp:386] inception_3b/relu_5x5 -> inception_3b/5x5 (in-place)
I0403 15:47:33.079020 11326 net.cpp:141] Setting up inception_3b/relu_5x5
I0403 15:47:33.079043 11326 net.cpp:148] Top shape: 24 96 28 28 (1806336)
I0403 15:47:33.079057 11326 net.cpp:156] Memory required for data: 744211488
I0403 15:47:33.079072 11326 layer_factory.hpp:77] Creating layer inception_3b/pool
I0403 15:47:33.079089 11326 net.cpp:91] Creating Layer inception_3b/pool
I0403 15:47:33.079104 11326 net.cpp:425] inception_3b/pool <- inception_3a/output_inception_3a/output_0_split_3
I0403 15:47:33.079123 11326 net.cpp:399] inception_3b/pool -> inception_3b/pool
I0403 15:47:33.079175 11326 net.cpp:141] Setting up inception_3b/pool
I0403 15:47:33.079198 11326 net.cpp:148] Top shape: 24 256 28 28 (4816896)
I0403 15:47:33.079211 11326 net.cpp:156] Memory required for data: 763479072
I0403 15:47:33.079226 11326 layer_factory.hpp:77] Creating layer inception_3b/pool_proj
I0403 15:47:33.079247 11326 net.cpp:91] Creating Layer inception_3b/pool_proj
I0403 15:47:33.079263 11326 net.cpp:425] inception_3b/pool_proj <- inception_3b/pool
I0403 15:47:33.079284 11326 net.cpp:399] inception_3b/pool_proj -> inception_3b/pool_proj
I0403 15:47:33.080334 11326 net.cpp:141] Setting up inception_3b/pool_proj
I0403 15:47:33.080363 11326 net.cpp:148] Top shape: 24 64 28 28 (1204224)
I0403 15:47:33.080379 11326 net.cpp:156] Memory required for data: 768295968
I0403 15:47:33.080396 11326 layer_factory.hpp:77] Creating layer inception_3b/relu_pool_proj
I0403 15:47:33.080415 11326 net.cpp:91] Creating Layer inception_3b/relu_pool_proj
I0403 15:47:33.080430 11326 net.cpp:425] inception_3b/relu_pool_proj <- inception_3b/pool_proj
I0403 15:47:33.080448 11326 net.cpp:386] inception_3b/relu_pool_proj -> inception_3b/pool_proj (in-place)
I0403 15:47:33.080826 11326 net.cpp:141] Setting up inception_3b/relu_pool_proj
I0403 15:47:33.080852 11326 net.cpp:148] Top shape: 24 64 28 28 (1204224)
I0403 15:47:33.080868 11326 net.cpp:156] Memory required for data: 773112864
I0403 15:47:33.080883 11326 layer_factory.hpp:77] Creating layer inception_3b/output
I0403 15:47:33.080900 11326 net.cpp:91] Creating Layer inception_3b/output
I0403 15:47:33.080915 11326 net.cpp:425] inception_3b/output <- inception_3b/1x1
I0403 15:47:33.080930 11326 net.cpp:425] inception_3b/output <- inception_3b/3x3
I0403 15:47:33.080945 11326 net.cpp:425] inception_3b/output <- inception_3b/5x5
I0403 15:47:33.080961 11326 net.cpp:425] inception_3b/output <- inception_3b/pool_proj
I0403 15:47:33.080981 11326 net.cpp:399] inception_3b/output -> inception_3b/output
I0403 15:47:33.081025 11326 net.cpp:141] Setting up inception_3b/output
I0403 15:47:33.081048 11326 net.cpp:148] Top shape: 24 480 28 28 (9031680)
I0403 15:47:33.081063 11326 net.cpp:156] Memory required for data: 809239584
I0403 15:47:33.081076 11326 layer_factory.hpp:77] Creating layer pool3/3x3_s2
I0403 15:47:33.081094 11326 net.cpp:91] Creating Layer pool3/3x3_s2
I0403 15:47:33.081111 11326 net.cpp:425] pool3/3x3_s2 <- inception_3b/output
I0403 15:47:33.081143 11326 net.cpp:399] pool3/3x3_s2 -> pool3/3x3_s2
I0403 15:47:33.081200 11326 net.cpp:141] Setting up pool3/3x3_s2
I0403 15:47:33.081223 11326 net.cpp:148] Top shape: 24 480 14 14 (2257920)
I0403 15:47:33.081238 11326 net.cpp:156] Memory required for data: 818271264
I0403 15:47:33.081251 11326 layer_factory.hpp:77] Creating layer pool3/3x3_s2_pool3/3x3_s2_0_split
I0403 15:47:33.081269 11326 net.cpp:91] Creating Layer pool3/3x3_s2_pool3/3x3_s2_0_split
I0403 15:47:33.081284 11326 net.cpp:425] pool3/3x3_s2_pool3/3x3_s2_0_split <- pool3/3x3_s2
I0403 15:47:33.081301 11326 net.cpp:399] pool3/3x3_s2_pool3/3x3_s2_0_split -> pool3/3x3_s2_pool3/3x3_s2_0_split_0
I0403 15:47:33.081321 11326 net.cpp:399] pool3/3x3_s2_pool3/3x3_s2_0_split -> pool3/3x3_s2_pool3/3x3_s2_0_split_1
I0403 15:47:33.081339 11326 net.cpp:399] pool3/3x3_s2_pool3/3x3_s2_0_split -> pool3/3x3_s2_pool3/3x3_s2_0_split_2
I0403 15:47:33.081358 11326 net.cpp:399] pool3/3x3_s2_pool3/3x3_s2_0_split -> pool3/3x3_s2_pool3/3x3_s2_0_split_3
I0403 15:47:33.081432 11326 net.cpp:141] Setting up pool3/3x3_s2_pool3/3x3_s2_0_split
I0403 15:47:33.081456 11326 net.cpp:148] Top shape: 24 480 14 14 (2257920)
I0403 15:47:33.081472 11326 net.cpp:148] Top shape: 24 480 14 14 (2257920)
I0403 15:47:33.081488 11326 net.cpp:148] Top shape: 24 480 14 14 (2257920)
I0403 15:47:33.081502 11326 net.cpp:148] Top shape: 24 480 14 14 (2257920)
I0403 15:47:33.081516 11326 net.cpp:156] Memory required for data: 854397984
I0403 15:47:33.081529 11326 layer_factory.hpp:77] Creating layer inception_4a/1x1
I0403 15:47:33.081550 11326 net.cpp:91] Creating Layer inception_4a/1x1
I0403 15:47:33.081568 11326 net.cpp:425] inception_4a/1x1 <- pool3/3x3_s2_pool3/3x3_s2_0_split_0
I0403 15:47:33.081585 11326 net.cpp:399] inception_4a/1x1 -> inception_4a/1x1
I0403 15:47:33.083101 11326 net.cpp:141] Setting up inception_4a/1x1
I0403 15:47:33.083127 11326 net.cpp:148] Top shape: 24 192 14 14 (903168)
I0403 15:47:33.083142 11326 net.cpp:156] Memory required for data: 858010656
I0403 15:47:33.083160 11326 layer_factory.hpp:77] Creating layer inception_4a/relu_1x1
I0403 15:47:33.083178 11326 net.cpp:91] Creating Layer inception_4a/relu_1x1
I0403 15:47:33.083194 11326 net.cpp:425] inception_4a/relu_1x1 <- inception_4a/1x1
I0403 15:47:33.083217 11326 net.cpp:386] inception_4a/relu_1x1 -> inception_4a/1x1 (in-place)
I0403 15:47:33.083386 11326 net.cpp:141] Setting up inception_4a/relu_1x1
I0403 15:47:33.083410 11326 net.cpp:148] Top shape: 24 192 14 14 (903168)
I0403 15:47:33.083423 11326 net.cpp:156] Memory required for data: 861623328
I0403 15:47:33.083438 11326 layer_factory.hpp:77] Creating layer inception_4a/3x3_reduce
I0403 15:47:33.083459 11326 net.cpp:91] Creating Layer inception_4a/3x3_reduce
I0403 15:47:33.083477 11326 net.cpp:425] inception_4a/3x3_reduce <- pool3/3x3_s2_pool3/3x3_s2_0_split_1
I0403 15:47:33.083497 11326 net.cpp:399] inception_4a/3x3_reduce -> inception_4a/3x3_reduce
I0403 15:47:33.084713 11326 net.cpp:141] Setting up inception_4a/3x3_reduce
I0403 15:47:33.084740 11326 net.cpp:148] Top shape: 24 96 14 14 (451584)
I0403 15:47:33.084754 11326 net.cpp:156] Memory required for data: 863429664
I0403 15:47:33.084779 11326 layer_factory.hpp:77] Creating layer inception_4a/relu_3x3_reduce
I0403 15:47:33.084797 11326 net.cpp:91] Creating Layer inception_4a/relu_3x3_reduce
I0403 15:47:33.084812 11326 net.cpp:425] inception_4a/relu_3x3_reduce <- inception_4a/3x3_reduce
I0403 15:47:33.084831 11326 net.cpp:386] inception_4a/relu_3x3_reduce -> inception_4a/3x3_reduce (in-place)
I0403 15:47:33.085002 11326 net.cpp:141] Setting up inception_4a/relu_3x3_reduce
I0403 15:47:33.085026 11326 net.cpp:148] Top shape: 24 96 14 14 (451584)
I0403 15:47:33.085039 11326 net.cpp:156] Memory required for data: 865236000
I0403 15:47:33.085054 11326 layer_factory.hpp:77] Creating layer inception_4a/3x3
I0403 15:47:33.085075 11326 net.cpp:91] Creating Layer inception_4a/3x3
I0403 15:47:33.085093 11326 net.cpp:425] inception_4a/3x3 <- inception_4a/3x3_reduce
I0403 15:47:33.085113 11326 net.cpp:399] inception_4a/3x3 -> inception_4a/3x3
I0403 15:47:33.087808 11326 net.cpp:141] Setting up inception_4a/3x3
I0403 15:47:33.087836 11326 net.cpp:148] Top shape: 24 208 14 14 (978432)
I0403 15:47:33.087852 11326 net.cpp:156] Memory required for data: 869149728
I0403 15:47:33.087870 11326 layer_factory.hpp:77] Creating layer inception_4a/relu_3x3
I0403 15:47:33.087889 11326 net.cpp:91] Creating Layer inception_4a/relu_3x3
I0403 15:47:33.087904 11326 net.cpp:425] inception_4a/relu_3x3 <- inception_4a/3x3
I0403 15:47:33.087921 11326 net.cpp:386] inception_4a/relu_3x3 -> inception_4a/3x3 (in-place)
I0403 15:47:33.088196 11326 net.cpp:141] Setting up inception_4a/relu_3x3
I0403 15:47:33.088222 11326 net.cpp:148] Top shape: 24 208 14 14 (978432)
I0403 15:47:33.088237 11326 net.cpp:156] Memory required for data: 873063456
I0403 15:47:33.088250 11326 layer_factory.hpp:77] Creating layer inception_4a/5x5_reduce
I0403 15:47:33.088273 11326 net.cpp:91] Creating Layer inception_4a/5x5_reduce
I0403 15:47:33.088289 11326 net.cpp:425] inception_4a/5x5_reduce <- pool3/3x3_s2_pool3/3x3_s2_0_split_2
I0403 15:47:33.088310 11326 net.cpp:399] inception_4a/5x5_reduce -> inception_4a/5x5_reduce
I0403 15:47:33.089316 11326 net.cpp:141] Setting up inception_4a/5x5_reduce
I0403 15:47:33.089344 11326 net.cpp:148] Top shape: 24 16 14 14 (75264)
I0403 15:47:33.089359 11326 net.cpp:156] Memory required for data: 873364512
I0403 15:47:33.089376 11326 layer_factory.hpp:77] Creating layer inception_4a/relu_5x5_reduce
I0403 15:47:33.089395 11326 net.cpp:91] Creating Layer inception_4a/relu_5x5_reduce
I0403 15:47:33.089412 11326 net.cpp:425] inception_4a/relu_5x5_reduce <- inception_4a/5x5_reduce
I0403 15:47:33.089429 11326 net.cpp:386] inception_4a/relu_5x5_reduce -> inception_4a/5x5_reduce (in-place)
I0403 15:47:33.089602 11326 net.cpp:141] Setting up inception_4a/relu_5x5_reduce
I0403 15:47:33.089628 11326 net.cpp:148] Top shape: 24 16 14 14 (75264)
I0403 15:47:33.089643 11326 net.cpp:156] Memory required for data: 873665568
I0403 15:47:33.089658 11326 layer_factory.hpp:77] Creating layer inception_4a/5x5
I0403 15:47:33.089680 11326 net.cpp:91] Creating Layer inception_4a/5x5
I0403 15:47:33.089696 11326 net.cpp:425] inception_4a/5x5 <- inception_4a/5x5_reduce
I0403 15:47:33.089715 11326 net.cpp:399] inception_4a/5x5 -> inception_4a/5x5
I0403 15:47:33.090776 11326 net.cpp:141] Setting up inception_4a/5x5
I0403 15:47:33.090806 11326 net.cpp:148] Top shape: 24 48 14 14 (225792)
I0403 15:47:33.090821 11326 net.cpp:156] Memory required for data: 874568736
I0403 15:47:33.090839 11326 layer_factory.hpp:77] Creating layer inception_4a/relu_5x5
I0403 15:47:33.090857 11326 net.cpp:91] Creating Layer inception_4a/relu_5x5
I0403 15:47:33.090873 11326 net.cpp:425] inception_4a/relu_5x5 <- inception_4a/5x5
I0403 15:47:33.090891 11326 net.cpp:386] inception_4a/relu_5x5 -> inception_4a/5x5 (in-place)
I0403 15:47:33.091084 11326 net.cpp:141] Setting up inception_4a/relu_5x5
I0403 15:47:33.091109 11326 net.cpp:148] Top shape: 24 48 14 14 (225792)
I0403 15:47:33.091123 11326 net.cpp:156] Memory required for data: 875471904
I0403 15:47:33.091137 11326 layer_factory.hpp:77] Creating layer inception_4a/pool
I0403 15:47:33.091156 11326 net.cpp:91] Creating Layer inception_4a/pool
I0403 15:47:33.091174 11326 net.cpp:425] inception_4a/pool <- pool3/3x3_s2_pool3/3x3_s2_0_split_3
I0403 15:47:33.091192 11326 net.cpp:399] inception_4a/pool -> inception_4a/pool
I0403 15:47:33.091265 11326 net.cpp:141] Setting up inception_4a/pool
I0403 15:47:33.091287 11326 net.cpp:148] Top shape: 24 480 14 14 (2257920)
I0403 15:47:33.091301 11326 net.cpp:156] Memory required for data: 884503584
I0403 15:47:33.091315 11326 layer_factory.hpp:77] Creating layer inception_4a/pool_proj
I0403 15:47:33.091336 11326 net.cpp:91] Creating Layer inception_4a/pool_proj
I0403 15:47:33.091353 11326 net.cpp:425] inception_4a/pool_proj <- inception_4a/pool
I0403 15:47:33.091373 11326 net.cpp:399] inception_4a/pool_proj -> inception_4a/pool_proj
I0403 15:47:33.092501 11326 net.cpp:141] Setting up inception_4a/pool_proj
I0403 15:47:33.092530 11326 net.cpp:148] Top shape: 24 64 14 14 (301056)
I0403 15:47:33.092560 11326 net.cpp:156] Memory required for data: 885707808
I0403 15:47:33.092578 11326 layer_factory.hpp:77] Creating layer inception_4a/relu_pool_proj
I0403 15:47:33.092597 11326 net.cpp:91] Creating Layer inception_4a/relu_pool_proj
I0403 15:47:33.092612 11326 net.cpp:425] inception_4a/relu_pool_proj <- inception_4a/pool_proj
I0403 15:47:33.092631 11326 net.cpp:386] inception_4a/relu_pool_proj -> inception_4a/pool_proj (in-place)
I0403 15:47:33.092907 11326 net.cpp:141] Setting up inception_4a/relu_pool_proj
I0403 15:47:33.092932 11326 net.cpp:148] Top shape: 24 64 14 14 (301056)
I0403 15:47:33.092947 11326 net.cpp:156] Memory required for data: 886912032
I0403 15:47:33.092962 11326 layer_factory.hpp:77] Creating layer inception_4a/output
I0403 15:47:33.092981 11326 net.cpp:91] Creating Layer inception_4a/output
I0403 15:47:33.092998 11326 net.cpp:425] inception_4a/output <- inception_4a/1x1
I0403 15:47:33.093014 11326 net.cpp:425] inception_4a/output <- inception_4a/3x3
I0403 15:47:33.093030 11326 net.cpp:425] inception_4a/output <- inception_4a/5x5
I0403 15:47:33.093045 11326 net.cpp:425] inception_4a/output <- inception_4a/pool_proj
I0403 15:47:33.093063 11326 net.cpp:399] inception_4a/output -> inception_4a/output
I0403 15:47:33.093106 11326 net.cpp:141] Setting up inception_4a/output
I0403 15:47:33.093132 11326 net.cpp:148] Top shape: 24 512 14 14 (2408448)
I0403 15:47:33.093145 11326 net.cpp:156] Memory required for data: 896545824
I0403 15:47:33.093160 11326 layer_factory.hpp:77] Creating layer inception_4a/output_inception_4a/output_0_split
I0403 15:47:33.093178 11326 net.cpp:91] Creating Layer inception_4a/output_inception_4a/output_0_split
I0403 15:47:33.093192 11326 net.cpp:425] inception_4a/output_inception_4a/output_0_split <- inception_4a/output
I0403 15:47:33.093211 11326 net.cpp:399] inception_4a/output_inception_4a/output_0_split -> inception_4a/output_inception_4a/output_0_split_0
I0403 15:47:33.093235 11326 net.cpp:399] inception_4a/output_inception_4a/output_0_split -> inception_4a/output_inception_4a/output_0_split_1
I0403 15:47:33.093256 11326 net.cpp:399] inception_4a/output_inception_4a/output_0_split -> inception_4a/output_inception_4a/output_0_split_2
I0403 15:47:33.093276 11326 net.cpp:399] inception_4a/output_inception_4a/output_0_split -> inception_4a/output_inception_4a/output_0_split_3
I0403 15:47:33.093294 11326 net.cpp:399] inception_4a/output_inception_4a/output_0_split -> inception_4a/output_inception_4a/output_0_split_4
I0403 15:47:33.093384 11326 net.cpp:141] Setting up inception_4a/output_inception_4a/output_0_split
I0403 15:47:33.093405 11326 net.cpp:148] Top shape: 24 512 14 14 (2408448)
I0403 15:47:33.093421 11326 net.cpp:148] Top shape: 24 512 14 14 (2408448)
I0403 15:47:33.093436 11326 net.cpp:148] Top shape: 24 512 14 14 (2408448)
I0403 15:47:33.093451 11326 net.cpp:148] Top shape: 24 512 14 14 (2408448)
I0403 15:47:33.093466 11326 net.cpp:148] Top shape: 24 512 14 14 (2408448)
I0403 15:47:33.093478 11326 net.cpp:156] Memory required for data: 944714784
I0403 15:47:33.093492 11326 layer_factory.hpp:77] Creating layer loss1/ave_pool
I0403 15:47:33.093511 11326 net.cpp:91] Creating Layer loss1/ave_pool
I0403 15:47:33.093528 11326 net.cpp:425] loss1/ave_pool <- inception_4a/output_inception_4a/output_0_split_0
I0403 15:47:33.093545 11326 net.cpp:399] loss1/ave_pool -> loss1/ave_pool
I0403 15:47:33.093745 11326 net.cpp:141] Setting up loss1/ave_pool
I0403 15:47:33.093770 11326 net.cpp:148] Top shape: 24 512 4 4 (196608)
I0403 15:47:33.093783 11326 net.cpp:156] Memory required for data: 945501216
I0403 15:47:33.093798 11326 layer_factory.hpp:77] Creating layer loss1/conv
I0403 15:47:33.093819 11326 net.cpp:91] Creating Layer loss1/conv
I0403 15:47:33.093835 11326 net.cpp:425] loss1/conv <- loss1/ave_pool
I0403 15:47:33.093855 11326 net.cpp:399] loss1/conv -> loss1/conv
I0403 15:47:33.095224 11326 net.cpp:141] Setting up loss1/conv
I0403 15:47:33.095252 11326 net.cpp:148] Top shape: 24 128 4 4 (49152)
I0403 15:47:33.095279 11326 net.cpp:156] Memory required for data: 945697824
I0403 15:47:33.095299 11326 layer_factory.hpp:77] Creating layer loss1/relu_conv
I0403 15:47:33.095319 11326 net.cpp:91] Creating Layer loss1/relu_conv
I0403 15:47:33.095335 11326 net.cpp:425] loss1/relu_conv <- loss1/conv
I0403 15:47:33.095351 11326 net.cpp:386] loss1/relu_conv -> loss1/conv (in-place)
I0403 15:47:33.095623 11326 net.cpp:141] Setting up loss1/relu_conv
I0403 15:47:33.095649 11326 net.cpp:148] Top shape: 24 128 4 4 (49152)
I0403 15:47:33.095664 11326 net.cpp:156] Memory required for data: 945894432
I0403 15:47:33.095677 11326 layer_factory.hpp:77] Creating layer loss1/fc
I0403 15:47:33.095702 11326 net.cpp:91] Creating Layer loss1/fc
I0403 15:47:33.095721 11326 net.cpp:425] loss1/fc <- loss1/conv
I0403 15:47:33.095738 11326 net.cpp:399] loss1/fc -> loss1/fc
I0403 15:47:33.113056 11326 net.cpp:141] Setting up loss1/fc
I0403 15:47:33.113090 11326 net.cpp:148] Top shape: 24 1024 (24576)
I0403 15:47:33.113106 11326 net.cpp:156] Memory required for data: 945992736
I0403 15:47:33.113124 11326 layer_factory.hpp:77] Creating layer loss1/relu_fc
I0403 15:47:33.113142 11326 net.cpp:91] Creating Layer loss1/relu_fc
I0403 15:47:33.113157 11326 net.cpp:425] loss1/relu_fc <- loss1/fc
I0403 15:47:33.113178 11326 net.cpp:386] loss1/relu_fc -> loss1/fc (in-place)
I0403 15:47:33.113363 11326 net.cpp:141] Setting up loss1/relu_fc
I0403 15:47:33.113386 11326 net.cpp:148] Top shape: 24 1024 (24576)
I0403 15:47:33.113400 11326 net.cpp:156] Memory required for data: 946091040
I0403 15:47:33.113415 11326 layer_factory.hpp:77] Creating layer loss1/drop_fc
I0403 15:47:33.113441 11326 net.cpp:91] Creating Layer loss1/drop_fc
I0403 15:47:33.113458 11326 net.cpp:425] loss1/drop_fc <- loss1/fc
I0403 15:47:33.113476 11326 net.cpp:386] loss1/drop_fc -> loss1/fc (in-place)
I0403 15:47:33.113524 11326 net.cpp:141] Setting up loss1/drop_fc
I0403 15:47:33.113550 11326 net.cpp:148] Top shape: 24 1024 (24576)
I0403 15:47:33.113565 11326 net.cpp:156] Memory required for data: 946189344
I0403 15:47:33.113580 11326 layer_factory.hpp:77] Creating layer loss1/classifier_plantvillage
I0403 15:47:33.113597 11326 net.cpp:91] Creating Layer loss1/classifier_plantvillage
I0403 15:47:33.113613 11326 net.cpp:425] loss1/classifier_plantvillage <- loss1/fc
I0403 15:47:33.113633 11326 net.cpp:399] loss1/classifier_plantvillage -> loss1/classifier_plantvillage
I0403 15:47:33.114529 11326 net.cpp:141] Setting up loss1/classifier_plantvillage
I0403 15:47:33.114557 11326 net.cpp:148] Top shape: 24 38 (912)
I0403 15:47:33.114572 11326 net.cpp:156] Memory required for data: 946192992
I0403 15:47:33.114588 11326 layer_factory.hpp:77] Creating layer loss1/classifier_plantvillage_loss1/classifier_plantvillage_0_split
I0403 15:47:33.114609 11326 net.cpp:91] Creating Layer loss1/classifier_plantvillage_loss1/classifier_plantvillage_0_split
I0403 15:47:33.114625 11326 net.cpp:425] loss1/classifier_plantvillage_loss1/classifier_plantvillage_0_split <- loss1/classifier_plantvillage
I0403 15:47:33.114644 11326 net.cpp:399] loss1/classifier_plantvillage_loss1/classifier_plantvillage_0_split -> loss1/classifier_plantvillage_loss1/classifier_plantvillage_0_split_0
I0403 15:47:33.114661 11326 net.cpp:399] loss1/classifier_plantvillage_loss1/classifier_plantvillage_0_split -> loss1/classifier_plantvillage_loss1/classifier_plantvillage_0_split_1
I0403 15:47:33.114681 11326 net.cpp:399] loss1/classifier_plantvillage_loss1/classifier_plantvillage_0_split -> loss1/classifier_plantvillage_loss1/classifier_plantvillage_0_split_2
I0403 15:47:33.114745 11326 net.cpp:141] Setting up loss1/classifier_plantvillage_loss1/classifier_plantvillage_0_split
I0403 15:47:33.114769 11326 net.cpp:148] Top shape: 24 38 (912)
I0403 15:47:33.114785 11326 net.cpp:148] Top shape: 24 38 (912)
I0403 15:47:33.114800 11326 net.cpp:148] Top shape: 24 38 (912)
I0403 15:47:33.114814 11326 net.cpp:156] Memory required for data: 946203936
I0403 15:47:33.114827 11326 layer_factory.hpp:77] Creating layer inception_4b/1x1
I0403 15:47:33.114846 11326 net.cpp:91] Creating Layer inception_4b/1x1
I0403 15:47:33.114877 11326 net.cpp:425] inception_4b/1x1 <- inception_4a/output_inception_4a/output_0_split_1
I0403 15:47:33.114897 11326 net.cpp:399] inception_4b/1x1 -> inception_4b/1x1
I0403 15:47:33.116504 11326 net.cpp:141] Setting up inception_4b/1x1
I0403 15:47:33.116533 11326 net.cpp:148] Top shape: 24 160 14 14 (752640)
I0403 15:47:33.116549 11326 net.cpp:156] Memory required for data: 949214496
I0403 15:47:33.116565 11326 layer_factory.hpp:77] Creating layer inception_4b/relu_1x1
I0403 15:47:33.116588 11326 net.cpp:91] Creating Layer inception_4b/relu_1x1
I0403 15:47:33.116605 11326 net.cpp:425] inception_4b/relu_1x1 <- inception_4b/1x1
I0403 15:47:33.116622 11326 net.cpp:386] inception_4b/relu_1x1 -> inception_4b/1x1 (in-place)
I0403 15:47:33.116799 11326 net.cpp:141] Setting up inception_4b/relu_1x1
I0403 15:47:33.116825 11326 net.cpp:148] Top shape: 24 160 14 14 (752640)
I0403 15:47:33.116840 11326 net.cpp:156] Memory required for data: 952225056
I0403 15:47:33.116855 11326 layer_factory.hpp:77] Creating layer inception_4b/3x3_reduce
I0403 15:47:33.116876 11326 net.cpp:91] Creating Layer inception_4b/3x3_reduce
I0403 15:47:33.116894 11326 net.cpp:425] inception_4b/3x3_reduce <- inception_4a/output_inception_4a/output_0_split_2
I0403 15:47:33.116911 11326 net.cpp:399] inception_4b/3x3_reduce -> inception_4b/3x3_reduce
I0403 15:47:33.118237 11326 net.cpp:141] Setting up inception_4b/3x3_reduce
I0403 15:47:33.118266 11326 net.cpp:148] Top shape: 24 112 14 14 (526848)
I0403 15:47:33.118281 11326 net.cpp:156] Memory required for data: 954332448
I0403 15:47:33.118299 11326 layer_factory.hpp:77] Creating layer inception_4b/relu_3x3_reduce
I0403 15:47:33.118317 11326 net.cpp:91] Creating Layer inception_4b/relu_3x3_reduce
I0403 15:47:33.118333 11326 net.cpp:425] inception_4b/relu_3x3_reduce <- inception_4b/3x3_reduce
I0403 15:47:33.118352 11326 net.cpp:386] inception_4b/relu_3x3_reduce -> inception_4b/3x3_reduce (in-place)
I0403 15:47:33.118630 11326 net.cpp:141] Setting up inception_4b/relu_3x3_reduce
I0403 15:47:33.118659 11326 net.cpp:148] Top shape: 24 112 14 14 (526848)
I0403 15:47:33.118674 11326 net.cpp:156] Memory required for data: 956439840
I0403 15:47:33.118688 11326 layer_factory.hpp:77] Creating layer inception_4b/3x3
I0403 15:47:33.118710 11326 net.cpp:91] Creating Layer inception_4b/3x3
I0403 15:47:33.118726 11326 net.cpp:425] inception_4b/3x3 <- inception_4b/3x3_reduce
I0403 15:47:33.118744 11326 net.cpp:399] inception_4b/3x3 -> inception_4b/3x3
I0403 15:47:33.121668 11326 net.cpp:141] Setting up inception_4b/3x3
I0403 15:47:33.121696 11326 net.cpp:148] Top shape: 24 224 14 14 (1053696)
I0403 15:47:33.121712 11326 net.cpp:156] Memory required for data: 960654624
I0403 15:47:33.121731 11326 layer_factory.hpp:77] Creating layer inception_4b/relu_3x3
I0403 15:47:33.121750 11326 net.cpp:91] Creating Layer inception_4b/relu_3x3
I0403 15:47:33.121767 11326 net.cpp:425] inception_4b/relu_3x3 <- inception_4b/3x3
I0403 15:47:33.121783 11326 net.cpp:386] inception_4b/relu_3x3 -> inception_4b/3x3 (in-place)
I0403 15:47:33.121959 11326 net.cpp:141] Setting up inception_4b/relu_3x3
I0403 15:47:33.121987 11326 net.cpp:148] Top shape: 24 224 14 14 (1053696)
I0403 15:47:33.122002 11326 net.cpp:156] Memory required for data: 964869408
I0403 15:47:33.122017 11326 layer_factory.hpp:77] Creating layer inception_4b/5x5_reduce
I0403 15:47:33.122040 11326 net.cpp:91] Creating Layer inception_4b/5x5_reduce
I0403 15:47:33.122056 11326 net.cpp:425] inception_4b/5x5_reduce <- inception_4a/output_inception_4a/output_0_split_3
I0403 15:47:33.122077 11326 net.cpp:399] inception_4b/5x5_reduce -> inception_4b/5x5_reduce
I0403 15:47:33.123131 11326 net.cpp:141] Setting up inception_4b/5x5_reduce
I0403 15:47:33.123158 11326 net.cpp:148] Top shape: 24 24 14 14 (112896)
I0403 15:47:33.123173 11326 net.cpp:156] Memory required for data: 965320992
I0403 15:47:33.123193 11326 layer_factory.hpp:77] Creating layer inception_4b/relu_5x5_reduce
I0403 15:47:33.123214 11326 net.cpp:91] Creating Layer inception_4b/relu_5x5_reduce
I0403 15:47:33.123244 11326 net.cpp:425] inception_4b/relu_5x5_reduce <- inception_4b/5x5_reduce
I0403 15:47:33.123261 11326 net.cpp:386] inception_4b/relu_5x5_reduce -> inception_4b/5x5_reduce (in-place)
I0403 15:47:33.123440 11326 net.cpp:141] Setting up inception_4b/relu_5x5_reduce
I0403 15:47:33.123463 11326 net.cpp:148] Top shape: 24 24 14 14 (112896)
I0403 15:47:33.123478 11326 net.cpp:156] Memory required for data: 965772576
I0403 15:47:33.123492 11326 layer_factory.hpp:77] Creating layer inception_4b/5x5
I0403 15:47:33.123514 11326 net.cpp:91] Creating Layer inception_4b/5x5
I0403 15:47:33.123531 11326 net.cpp:425] inception_4b/5x5 <- inception_4b/5x5_reduce
I0403 15:47:33.123555 11326 net.cpp:399] inception_4b/5x5 -> inception_4b/5x5
I0403 15:47:33.124754 11326 net.cpp:141] Setting up inception_4b/5x5
I0403 15:47:33.124781 11326 net.cpp:148] Top shape: 24 64 14 14 (301056)
I0403 15:47:33.124796 11326 net.cpp:156] Memory required for data: 966976800
I0403 15:47:33.124814 11326 layer_factory.hpp:77] Creating layer inception_4b/relu_5x5
I0403 15:47:33.124833 11326 net.cpp:91] Creating Layer inception_4b/relu_5x5
I0403 15:47:33.124850 11326 net.cpp:425] inception_4b/relu_5x5 <- inception_4b/5x5
I0403 15:47:33.124867 11326 net.cpp:386] inception_4b/relu_5x5 -> inception_4b/5x5 (in-place)
I0403 15:47:33.125170 11326 net.cpp:141] Setting up inception_4b/relu_5x5
I0403 15:47:33.125197 11326 net.cpp:148] Top shape: 24 64 14 14 (301056)
I0403 15:47:33.125212 11326 net.cpp:156] Memory required for data: 968181024
I0403 15:47:33.125227 11326 layer_factory.hpp:77] Creating layer inception_4b/pool
I0403 15:47:33.125259 11326 net.cpp:91] Creating Layer inception_4b/pool
I0403 15:47:33.125275 11326 net.cpp:425] inception_4b/pool <- inception_4a/output_inception_4a/output_0_split_4
I0403 15:47:33.125293 11326 net.cpp:399] inception_4b/pool -> inception_4b/pool
I0403 15:47:33.125358 11326 net.cpp:141] Setting up inception_4b/pool
I0403 15:47:33.125380 11326 net.cpp:148] Top shape: 24 512 14 14 (2408448)
I0403 15:47:33.125394 11326 net.cpp:156] Memory required for data: 977814816
I0403 15:47:33.125408 11326 layer_factory.hpp:77] Creating layer inception_4b/pool_proj
I0403 15:47:33.125430 11326 net.cpp:91] Creating Layer inception_4b/pool_proj
I0403 15:47:33.125448 11326 net.cpp:425] inception_4b/pool_proj <- inception_4b/pool
I0403 15:47:33.125468 11326 net.cpp:399] inception_4b/pool_proj -> inception_4b/pool_proj
I0403 15:47:33.126639 11326 net.cpp:141] Setting up inception_4b/pool_proj
I0403 15:47:33.126668 11326 net.cpp:148] Top shape: 24 64 14 14 (301056)
I0403 15:47:33.126684 11326 net.cpp:156] Memory required for data: 979019040
I0403 15:47:33.126703 11326 layer_factory.hpp:77] Creating layer inception_4b/relu_pool_proj
I0403 15:47:33.126719 11326 net.cpp:91] Creating Layer inception_4b/relu_pool_proj
I0403 15:47:33.126735 11326 net.cpp:425] inception_4b/relu_pool_proj <- inception_4b/pool_proj
I0403 15:47:33.126751 11326 net.cpp:386] inception_4b/relu_pool_proj -> inception_4b/pool_proj (in-place)
I0403 15:47:33.126929 11326 net.cpp:141] Setting up inception_4b/relu_pool_proj
I0403 15:47:33.126953 11326 net.cpp:148] Top shape: 24 64 14 14 (301056)
I0403 15:47:33.126970 11326 net.cpp:156] Memory required for data: 980223264
I0403 15:47:33.126988 11326 layer_factory.hpp:77] Creating layer inception_4b/output
I0403 15:47:33.127007 11326 net.cpp:91] Creating Layer inception_4b/output
I0403 15:47:33.127022 11326 net.cpp:425] inception_4b/output <- inception_4b/1x1
I0403 15:47:33.127037 11326 net.cpp:425] inception_4b/output <- inception_4b/3x3
I0403 15:47:33.127051 11326 net.cpp:425] inception_4b/output <- inception_4b/5x5
I0403 15:47:33.127068 11326 net.cpp:425] inception_4b/output <- inception_4b/pool_proj
I0403 15:47:33.127085 11326 net.cpp:399] inception_4b/output -> inception_4b/output
I0403 15:47:33.127130 11326 net.cpp:141] Setting up inception_4b/output
I0403 15:47:33.127151 11326 net.cpp:148] Top shape: 24 512 14 14 (2408448)
I0403 15:47:33.127166 11326 net.cpp:156] Memory required for data: 989857056
I0403 15:47:33.127192 11326 layer_factory.hpp:77] Creating layer inception_4b/output_inception_4b/output_0_split
I0403 15:47:33.127218 11326 net.cpp:91] Creating Layer inception_4b/output_inception_4b/output_0_split
I0403 15:47:33.127233 11326 net.cpp:425] inception_4b/output_inception_4b/output_0_split <- inception_4b/output
I0403 15:47:33.127250 11326 net.cpp:399] inception_4b/output_inception_4b/output_0_split -> inception_4b/output_inception_4b/output_0_split_0
I0403 15:47:33.127269 11326 net.cpp:399] inception_4b/output_inception_4b/output_0_split -> inception_4b/output_inception_4b/output_0_split_1
I0403 15:47:33.127292 11326 net.cpp:399] inception_4b/output_inception_4b/output_0_split -> inception_4b/output_inception_4b/output_0_split_2
I0403 15:47:33.127311 11326 net.cpp:399] inception_4b/output_inception_4b/output_0_split -> inception_4b/output_inception_4b/output_0_split_3
I0403 15:47:33.127393 11326 net.cpp:141] Setting up inception_4b/output_inception_4b/output_0_split
I0403 15:47:33.127415 11326 net.cpp:148] Top shape: 24 512 14 14 (2408448)
I0403 15:47:33.127430 11326 net.cpp:148] Top shape: 24 512 14 14 (2408448)
I0403 15:47:33.127445 11326 net.cpp:148] Top shape: 24 512 14 14 (2408448)
I0403 15:47:33.127460 11326 net.cpp:148] Top shape: 24 512 14 14 (2408448)
I0403 15:47:33.127473 11326 net.cpp:156] Memory required for data: 1028392224
I0403 15:47:33.127487 11326 layer_factory.hpp:77] Creating layer inception_4c/1x1
I0403 15:47:33.127508 11326 net.cpp:91] Creating Layer inception_4c/1x1
I0403 15:47:33.127526 11326 net.cpp:425] inception_4c/1x1 <- inception_4b/output_inception_4b/output_0_split_0
I0403 15:47:33.127545 11326 net.cpp:399] inception_4c/1x1 -> inception_4c/1x1
I0403 15:47:33.128943 11326 net.cpp:141] Setting up inception_4c/1x1
I0403 15:47:33.128973 11326 net.cpp:148] Top shape: 24 128 14 14 (602112)
I0403 15:47:33.128999 11326 net.cpp:156] Memory required for data: 1030800672
I0403 15:47:33.129019 11326 layer_factory.hpp:77] Creating layer inception_4c/relu_1x1
I0403 15:47:33.129036 11326 net.cpp:91] Creating Layer inception_4c/relu_1x1
I0403 15:47:33.129052 11326 net.cpp:425] inception_4c/relu_1x1 <- inception_4c/1x1
I0403 15:47:33.129072 11326 net.cpp:386] inception_4c/relu_1x1 -> inception_4c/1x1 (in-place)
I0403 15:47:33.129247 11326 net.cpp:141] Setting up inception_4c/relu_1x1
I0403 15:47:33.129271 11326 net.cpp:148] Top shape: 24 128 14 14 (602112)
I0403 15:47:33.129286 11326 net.cpp:156] Memory required for data: 1033209120
I0403 15:47:33.129300 11326 layer_factory.hpp:77] Creating layer inception_4c/3x3_reduce
I0403 15:47:33.129322 11326 net.cpp:91] Creating Layer inception_4c/3x3_reduce
I0403 15:47:33.129338 11326 net.cpp:425] inception_4c/3x3_reduce <- inception_4b/output_inception_4b/output_0_split_1
I0403 15:47:33.129359 11326 net.cpp:399] inception_4c/3x3_reduce -> inception_4c/3x3_reduce
I0403 15:47:33.131273 11326 net.cpp:141] Setting up inception_4c/3x3_reduce
I0403 15:47:33.131301 11326 net.cpp:148] Top shape: 24 128 14 14 (602112)
I0403 15:47:33.131316 11326 net.cpp:156] Memory required for data: 1035617568
I0403 15:47:33.131335 11326 layer_factory.hpp:77] Creating layer inception_4c/relu_3x3_reduce
I0403 15:47:33.131353 11326 net.cpp:91] Creating Layer inception_4c/relu_3x3_reduce
I0403 15:47:33.131371 11326 net.cpp:425] inception_4c/relu_3x3_reduce <- inception_4c/3x3_reduce
I0403 15:47:33.131386 11326 net.cpp:386] inception_4c/relu_3x3_reduce -> inception_4c/3x3_reduce (in-place)
I0403 15:47:33.131665 11326 net.cpp:141] Setting up inception_4c/relu_3x3_reduce
I0403 15:47:33.131690 11326 net.cpp:148] Top shape: 24 128 14 14 (602112)
I0403 15:47:33.131705 11326 net.cpp:156] Memory required for data: 1038026016
I0403 15:47:33.131719 11326 layer_factory.hpp:77] Creating layer inception_4c/3x3
I0403 15:47:33.131742 11326 net.cpp:91] Creating Layer inception_4c/3x3
I0403 15:47:33.131758 11326 net.cpp:425] inception_4c/3x3 <- inception_4c/3x3_reduce
I0403 15:47:33.131780 11326 net.cpp:399] inception_4c/3x3 -> inception_4c/3x3
I0403 15:47:33.135334 11326 net.cpp:141] Setting up inception_4c/3x3
I0403 15:47:33.135373 11326 net.cpp:148] Top shape: 24 256 14 14 (1204224)
I0403 15:47:33.135392 11326 net.cpp:156] Memory required for data: 1042842912
I0403 15:47:33.135423 11326 layer_factory.hpp:77] Creating layer inception_4c/relu_3x3
I0403 15:47:33.135444 11326 net.cpp:91] Creating Layer inception_4c/relu_3x3
I0403 15:47:33.135460 11326 net.cpp:425] inception_4c/relu_3x3 <- inception_4c/3x3
I0403 15:47:33.135478 11326 net.cpp:386] inception_4c/relu_3x3 -> inception_4c/3x3 (in-place)
I0403 15:47:33.135655 11326 net.cpp:141] Setting up inception_4c/relu_3x3
I0403 15:47:33.135679 11326 net.cpp:148] Top shape: 24 256 14 14 (1204224)
I0403 15:47:33.135694 11326 net.cpp:156] Memory required for data: 1047659808
I0403 15:47:33.135710 11326 layer_factory.hpp:77] Creating layer inception_4c/5x5_reduce
I0403 15:47:33.135733 11326 net.cpp:91] Creating Layer inception_4c/5x5_reduce
I0403 15:47:33.135751 11326 net.cpp:425] inception_4c/5x5_reduce <- inception_4b/output_inception_4b/output_0_split_2
I0403 15:47:33.135768 11326 net.cpp:399] inception_4c/5x5_reduce -> inception_4c/5x5_reduce
I0403 15:47:33.136833 11326 net.cpp:141] Setting up inception_4c/5x5_reduce
I0403 15:47:33.136860 11326 net.cpp:148] Top shape: 24 24 14 14 (112896)
I0403 15:47:33.136875 11326 net.cpp:156] Memory required for data: 1048111392
I0403 15:47:33.136893 11326 layer_factory.hpp:77] Creating layer inception_4c/relu_5x5_reduce
I0403 15:47:33.136912 11326 net.cpp:91] Creating Layer inception_4c/relu_5x5_reduce
I0403 15:47:33.136929 11326 net.cpp:425] inception_4c/relu_5x5_reduce <- inception_4c/5x5_reduce
I0403 15:47:33.136945 11326 net.cpp:386] inception_4c/relu_5x5_reduce -> inception_4c/5x5_reduce (in-place)
I0403 15:47:33.137128 11326 net.cpp:141] Setting up inception_4c/relu_5x5_reduce
I0403 15:47:33.137152 11326 net.cpp:148] Top shape: 24 24 14 14 (112896)
I0403 15:47:33.137166 11326 net.cpp:156] Memory required for data: 1048562976
I0403 15:47:33.137181 11326 layer_factory.hpp:77] Creating layer inception_4c/5x5
I0403 15:47:33.137202 11326 net.cpp:91] Creating Layer inception_4c/5x5
I0403 15:47:33.137219 11326 net.cpp:425] inception_4c/5x5 <- inception_4c/5x5_reduce
I0403 15:47:33.137240 11326 net.cpp:399] inception_4c/5x5 -> inception_4c/5x5
I0403 15:47:33.138449 11326 net.cpp:141] Setting up inception_4c/5x5
I0403 15:47:33.138478 11326 net.cpp:148] Top shape: 24 64 14 14 (301056)
I0403 15:47:33.138494 11326 net.cpp:156] Memory required for data: 1049767200
I0403 15:47:33.138511 11326 layer_factory.hpp:77] Creating layer inception_4c/relu_5x5
I0403 15:47:33.138530 11326 net.cpp:91] Creating Layer inception_4c/relu_5x5
I0403 15:47:33.138545 11326 net.cpp:425] inception_4c/relu_5x5 <- inception_4c/5x5
I0403 15:47:33.138566 11326 net.cpp:386] inception_4c/relu_5x5 -> inception_4c/5x5 (in-place)
I0403 15:47:33.138847 11326 net.cpp:141] Setting up inception_4c/relu_5x5
I0403 15:47:33.138875 11326 net.cpp:148] Top shape: 24 64 14 14 (301056)
I0403 15:47:33.138890 11326 net.cpp:156] Memory required for data: 1050971424
I0403 15:47:33.138905 11326 layer_factory.hpp:77] Creating layer inception_4c/pool
I0403 15:47:33.138922 11326 net.cpp:91] Creating Layer inception_4c/pool
I0403 15:47:33.138938 11326 net.cpp:425] inception_4c/pool <- inception_4b/output_inception_4b/output_0_split_3
I0403 15:47:33.138957 11326 net.cpp:399] inception_4c/pool -> inception_4c/pool
I0403 15:47:33.139030 11326 net.cpp:141] Setting up inception_4c/pool
I0403 15:47:33.139056 11326 net.cpp:148] Top shape: 24 512 14 14 (2408448)
I0403 15:47:33.139071 11326 net.cpp:156] Memory required for data: 1060605216
I0403 15:47:33.139086 11326 layer_factory.hpp:77] Creating layer inception_4c/pool_proj
I0403 15:47:33.139106 11326 net.cpp:91] Creating Layer inception_4c/pool_proj
I0403 15:47:33.139122 11326 net.cpp:425] inception_4c/pool_proj <- inception_4c/pool
I0403 15:47:33.139142 11326 net.cpp:399] inception_4c/pool_proj -> inception_4c/pool_proj
I0403 15:47:33.140326 11326 net.cpp:141] Setting up inception_4c/pool_proj
I0403 15:47:33.140353 11326 net.cpp:148] Top shape: 24 64 14 14 (301056)
I0403 15:47:33.140384 11326 net.cpp:156] Memory required for data: 1061809440
I0403 15:47:33.140403 11326 layer_factory.hpp:77] Creating layer inception_4c/relu_pool_proj
I0403 15:47:33.140422 11326 net.cpp:91] Creating Layer inception_4c/relu_pool_proj
I0403 15:47:33.140439 11326 net.cpp:425] inception_4c/relu_pool_proj <- inception_4c/pool_proj
I0403 15:47:33.140455 11326 net.cpp:386] inception_4c/relu_pool_proj -> inception_4c/pool_proj (in-place)
I0403 15:47:33.140631 11326 net.cpp:141] Setting up inception_4c/relu_pool_proj
I0403 15:47:33.140657 11326 net.cpp:148] Top shape: 24 64 14 14 (301056)
I0403 15:47:33.140671 11326 net.cpp:156] Memory required for data: 1063013664
I0403 15:47:33.140686 11326 layer_factory.hpp:77] Creating layer inception_4c/output
I0403 15:47:33.140702 11326 net.cpp:91] Creating Layer inception_4c/output
I0403 15:47:33.140717 11326 net.cpp:425] inception_4c/output <- inception_4c/1x1
I0403 15:47:33.140733 11326 net.cpp:425] inception_4c/output <- inception_4c/3x3
I0403 15:47:33.140748 11326 net.cpp:425] inception_4c/output <- inception_4c/5x5
I0403 15:47:33.140764 11326 net.cpp:425] inception_4c/output <- inception_4c/pool_proj
I0403 15:47:33.140782 11326 net.cpp:399] inception_4c/output -> inception_4c/output
I0403 15:47:33.140828 11326 net.cpp:141] Setting up inception_4c/output
I0403 15:47:33.140851 11326 net.cpp:148] Top shape: 24 512 14 14 (2408448)
I0403 15:47:33.140864 11326 net.cpp:156] Memory required for data: 1072647456
I0403 15:47:33.140878 11326 layer_factory.hpp:77] Creating layer inception_4c/output_inception_4c/output_0_split
I0403 15:47:33.140897 11326 net.cpp:91] Creating Layer inception_4c/output_inception_4c/output_0_split
I0403 15:47:33.140913 11326 net.cpp:425] inception_4c/output_inception_4c/output_0_split <- inception_4c/output
I0403 15:47:33.140930 11326 net.cpp:399] inception_4c/output_inception_4c/output_0_split -> inception_4c/output_inception_4c/output_0_split_0
I0403 15:47:33.140949 11326 net.cpp:399] inception_4c/output_inception_4c/output_0_split -> inception_4c/output_inception_4c/output_0_split_1
I0403 15:47:33.140971 11326 net.cpp:399] inception_4c/output_inception_4c/output_0_split -> inception_4c/output_inception_4c/output_0_split_2
I0403 15:47:33.140996 11326 net.cpp:399] inception_4c/output_inception_4c/output_0_split -> inception_4c/output_inception_4c/output_0_split_3
I0403 15:47:33.141080 11326 net.cpp:141] Setting up inception_4c/output_inception_4c/output_0_split
I0403 15:47:33.141103 11326 net.cpp:148] Top shape: 24 512 14 14 (2408448)
I0403 15:47:33.141118 11326 net.cpp:148] Top shape: 24 512 14 14 (2408448)
I0403 15:47:33.141131 11326 net.cpp:148] Top shape: 24 512 14 14 (2408448)
I0403 15:47:33.141146 11326 net.cpp:148] Top shape: 24 512 14 14 (2408448)
I0403 15:47:33.141160 11326 net.cpp:156] Memory required for data: 1111182624
I0403 15:47:33.141173 11326 layer_factory.hpp:77] Creating layer inception_4d/1x1
I0403 15:47:33.141194 11326 net.cpp:91] Creating Layer inception_4d/1x1
I0403 15:47:33.141211 11326 net.cpp:425] inception_4d/1x1 <- inception_4c/output_inception_4c/output_0_split_0
I0403 15:47:33.141232 11326 net.cpp:399] inception_4d/1x1 -> inception_4d/1x1
I0403 15:47:33.142572 11326 net.cpp:141] Setting up inception_4d/1x1
I0403 15:47:33.142599 11326 net.cpp:148] Top shape: 24 112 14 14 (526848)
I0403 15:47:33.142614 11326 net.cpp:156] Memory required for data: 1113290016
I0403 15:47:33.142632 11326 layer_factory.hpp:77] Creating layer inception_4d/relu_1x1
I0403 15:47:33.142654 11326 net.cpp:91] Creating Layer inception_4d/relu_1x1
I0403 15:47:33.142671 11326 net.cpp:425] inception_4d/relu_1x1 <- inception_4d/1x1
I0403 15:47:33.142688 11326 net.cpp:386] inception_4d/relu_1x1 -> inception_4d/1x1 (in-place)
I0403 15:47:33.142864 11326 net.cpp:141] Setting up inception_4d/relu_1x1
I0403 15:47:33.142889 11326 net.cpp:148] Top shape: 24 112 14 14 (526848)
I0403 15:47:33.142902 11326 net.cpp:156] Memory required for data: 1115397408
I0403 15:47:33.142917 11326 layer_factory.hpp:77] Creating layer inception_4d/3x3_reduce
I0403 15:47:33.142953 11326 net.cpp:91] Creating Layer inception_4d/3x3_reduce
I0403 15:47:33.142972 11326 net.cpp:425] inception_4d/3x3_reduce <- inception_4c/output_inception_4c/output_0_split_1
I0403 15:47:33.142995 11326 net.cpp:399] inception_4d/3x3_reduce -> inception_4d/3x3_reduce
I0403 15:47:33.144461 11326 net.cpp:141] Setting up inception_4d/3x3_reduce
I0403 15:47:33.144489 11326 net.cpp:148] Top shape: 24 144 14 14 (677376)
I0403 15:47:33.144503 11326 net.cpp:156] Memory required for data: 1118106912
I0403 15:47:33.144521 11326 layer_factory.hpp:77] Creating layer inception_4d/relu_3x3_reduce
I0403 15:47:33.144539 11326 net.cpp:91] Creating Layer inception_4d/relu_3x3_reduce
I0403 15:47:33.144556 11326 net.cpp:425] inception_4d/relu_3x3_reduce <- inception_4d/3x3_reduce
I0403 15:47:33.144574 11326 net.cpp:386] inception_4d/relu_3x3_reduce -> inception_4d/3x3_reduce (in-place)
I0403 15:47:33.144853 11326 net.cpp:141] Setting up inception_4d/relu_3x3_reduce
I0403 15:47:33.144878 11326 net.cpp:148] Top shape: 24 144 14 14 (677376)
I0403 15:47:33.144893 11326 net.cpp:156] Memory required for data: 1120816416
I0403 15:47:33.144907 11326 layer_factory.hpp:77] Creating layer inception_4d/3x3
I0403 15:47:33.144929 11326 net.cpp:91] Creating Layer inception_4d/3x3
I0403 15:47:33.144948 11326 net.cpp:425] inception_4d/3x3 <- inception_4d/3x3_reduce
I0403 15:47:33.144968 11326 net.cpp:399] inception_4d/3x3 -> inception_4d/3x3
I0403 15:47:33.149168 11326 net.cpp:141] Setting up inception_4d/3x3
I0403 15:47:33.149197 11326 net.cpp:148] Top shape: 24 288 14 14 (1354752)
I0403 15:47:33.149214 11326 net.cpp:156] Memory required for data: 1126235424
I0403 15:47:33.149231 11326 layer_factory.hpp:77] Creating layer inception_4d/relu_3x3
I0403 15:47:33.149251 11326 net.cpp:91] Creating Layer inception_4d/relu_3x3
I0403 15:47:33.149268 11326 net.cpp:425] inception_4d/relu_3x3 <- inception_4d/3x3
I0403 15:47:33.149286 11326 net.cpp:386] inception_4d/relu_3x3 -> inception_4d/3x3 (in-place)
I0403 15:47:33.149463 11326 net.cpp:141] Setting up inception_4d/relu_3x3
I0403 15:47:33.149489 11326 net.cpp:148] Top shape: 24 288 14 14 (1354752)
I0403 15:47:33.149504 11326 net.cpp:156] Memory required for data: 1131654432
I0403 15:47:33.149519 11326 layer_factory.hpp:77] Creating layer inception_4d/5x5_reduce
I0403 15:47:33.149544 11326 net.cpp:91] Creating Layer inception_4d/5x5_reduce
I0403 15:47:33.149561 11326 net.cpp:425] inception_4d/5x5_reduce <- inception_4c/output_inception_4c/output_0_split_2
I0403 15:47:33.149580 11326 net.cpp:399] inception_4d/5x5_reduce -> inception_4d/5x5_reduce
I0403 15:47:33.150710 11326 net.cpp:141] Setting up inception_4d/5x5_reduce
I0403 15:47:33.150738 11326 net.cpp:148] Top shape: 24 32 14 14 (150528)
I0403 15:47:33.150753 11326 net.cpp:156] Memory required for data: 1132256544
I0403 15:47:33.150770 11326 layer_factory.hpp:77] Creating layer inception_4d/relu_5x5_reduce
I0403 15:47:33.150789 11326 net.cpp:91] Creating Layer inception_4d/relu_5x5_reduce
I0403 15:47:33.150806 11326 net.cpp:425] inception_4d/relu_5x5_reduce <- inception_4d/5x5_reduce
I0403 15:47:33.150825 11326 net.cpp:386] inception_4d/relu_5x5_reduce -> inception_4d/5x5_reduce (in-place)
I0403 15:47:33.151012 11326 net.cpp:141] Setting up inception_4d/relu_5x5_reduce
I0403 15:47:33.151036 11326 net.cpp:148] Top shape: 24 32 14 14 (150528)
I0403 15:47:33.151049 11326 net.cpp:156] Memory required for data: 1132858656
I0403 15:47:33.151064 11326 layer_factory.hpp:77] Creating layer inception_4d/5x5
I0403 15:47:33.151087 11326 net.cpp:91] Creating Layer inception_4d/5x5
I0403 15:47:33.151104 11326 net.cpp:425] inception_4d/5x5 <- inception_4d/5x5_reduce
I0403 15:47:33.151124 11326 net.cpp:399] inception_4d/5x5 -> inception_4d/5x5
I0403 15:47:33.152555 11326 net.cpp:141] Setting up inception_4d/5x5
I0403 15:47:33.152585 11326 net.cpp:148] Top shape: 24 64 14 14 (301056)
I0403 15:47:33.152601 11326 net.cpp:156] Memory required for data: 1134062880
I0403 15:47:33.152619 11326 layer_factory.hpp:77] Creating layer inception_4d/relu_5x5
I0403 15:47:33.152652 11326 net.cpp:91] Creating Layer inception_4d/relu_5x5
I0403 15:47:33.152667 11326 net.cpp:425] inception_4d/relu_5x5 <- inception_4d/5x5
I0403 15:47:33.152688 11326 net.cpp:386] inception_4d/relu_5x5 -> inception_4d/5x5 (in-place)
I0403 15:47:33.152984 11326 net.cpp:141] Setting up inception_4d/relu_5x5
I0403 15:47:33.153012 11326 net.cpp:148] Top shape: 24 64 14 14 (301056)
I0403 15:47:33.153028 11326 net.cpp:156] Memory required for data: 1135267104
I0403 15:47:33.153043 11326 layer_factory.hpp:77] Creating layer inception_4d/pool
I0403 15:47:33.153060 11326 net.cpp:91] Creating Layer inception_4d/pool
I0403 15:47:33.153076 11326 net.cpp:425] inception_4d/pool <- inception_4c/output_inception_4c/output_0_split_3
I0403 15:47:33.153096 11326 net.cpp:399] inception_4d/pool -> inception_4d/pool
I0403 15:47:33.153164 11326 net.cpp:141] Setting up inception_4d/pool
I0403 15:47:33.153187 11326 net.cpp:148] Top shape: 24 512 14 14 (2408448)
I0403 15:47:33.153203 11326 net.cpp:156] Memory required for data: 1144900896
I0403 15:47:33.153216 11326 layer_factory.hpp:77] Creating layer inception_4d/pool_proj
I0403 15:47:33.153239 11326 net.cpp:91] Creating Layer inception_4d/pool_proj
I0403 15:47:33.153254 11326 net.cpp:425] inception_4d/pool_proj <- inception_4d/pool
I0403 15:47:33.153275 11326 net.cpp:399] inception_4d/pool_proj -> inception_4d/pool_proj
I0403 15:47:33.155005 11326 net.cpp:141] Setting up inception_4d/pool_proj
I0403 15:47:33.155032 11326 net.cpp:148] Top shape: 24 64 14 14 (301056)
I0403 15:47:33.155047 11326 net.cpp:156] Memory required for data: 1146105120
I0403 15:47:33.155066 11326 layer_factory.hpp:77] Creating layer inception_4d/relu_pool_proj
I0403 15:47:33.155087 11326 net.cpp:91] Creating Layer inception_4d/relu_pool_proj
I0403 15:47:33.155104 11326 net.cpp:425] inception_4d/relu_pool_proj <- inception_4d/pool_proj
I0403 15:47:33.155122 11326 net.cpp:386] inception_4d/relu_pool_proj -> inception_4d/pool_proj (in-place)
I0403 15:47:33.155302 11326 net.cpp:141] Setting up inception_4d/relu_pool_proj
I0403 15:47:33.155328 11326 net.cpp:148] Top shape: 24 64 14 14 (301056)
I0403 15:47:33.155342 11326 net.cpp:156] Memory required for data: 1147309344
I0403 15:47:33.155357 11326 layer_factory.hpp:77] Creating layer inception_4d/output
I0403 15:47:33.155374 11326 net.cpp:91] Creating Layer inception_4d/output
I0403 15:47:33.155388 11326 net.cpp:425] inception_4d/output <- inception_4d/1x1
I0403 15:47:33.155405 11326 net.cpp:425] inception_4d/output <- inception_4d/3x3
I0403 15:47:33.155421 11326 net.cpp:425] inception_4d/output <- inception_4d/5x5
I0403 15:47:33.155437 11326 net.cpp:425] inception_4d/output <- inception_4d/pool_proj
I0403 15:47:33.155453 11326 net.cpp:399] inception_4d/output -> inception_4d/output
I0403 15:47:33.155500 11326 net.cpp:141] Setting up inception_4d/output
I0403 15:47:33.155522 11326 net.cpp:148] Top shape: 24 528 14 14 (2483712)
I0403 15:47:33.155536 11326 net.cpp:156] Memory required for data: 1157244192
I0403 15:47:33.155550 11326 layer_factory.hpp:77] Creating layer inception_4d/output_inception_4d/output_0_split
I0403 15:47:33.155570 11326 net.cpp:91] Creating Layer inception_4d/output_inception_4d/output_0_split
I0403 15:47:33.155586 11326 net.cpp:425] inception_4d/output_inception_4d/output_0_split <- inception_4d/output
I0403 15:47:33.155603 11326 net.cpp:399] inception_4d/output_inception_4d/output_0_split -> inception_4d/output_inception_4d/output_0_split_0
I0403 15:47:33.155622 11326 net.cpp:399] inception_4d/output_inception_4d/output_0_split -> inception_4d/output_inception_4d/output_0_split_1
I0403 15:47:33.155642 11326 net.cpp:399] inception_4d/output_inception_4d/output_0_split -> inception_4d/output_inception_4d/output_0_split_2
I0403 15:47:33.155663 11326 net.cpp:399] inception_4d/output_inception_4d/output_0_split -> inception_4d/output_inception_4d/output_0_split_3
I0403 15:47:33.155684 11326 net.cpp:399] inception_4d/output_inception_4d/output_0_split -> inception_4d/output_inception_4d/output_0_split_4
I0403 15:47:33.155788 11326 net.cpp:141] Setting up inception_4d/output_inception_4d/output_0_split
I0403 15:47:33.155822 11326 net.cpp:148] Top shape: 24 528 14 14 (2483712)
I0403 15:47:33.155840 11326 net.cpp:148] Top shape: 24 528 14 14 (2483712)
I0403 15:47:33.155855 11326 net.cpp:148] Top shape: 24 528 14 14 (2483712)
I0403 15:47:33.155870 11326 net.cpp:148] Top shape: 24 528 14 14 (2483712)
I0403 15:47:33.155885 11326 net.cpp:148] Top shape: 24 528 14 14 (2483712)
I0403 15:47:33.155900 11326 net.cpp:156] Memory required for data: 1206918432
I0403 15:47:33.155913 11326 layer_factory.hpp:77] Creating layer loss2/ave_pool
I0403 15:47:33.155930 11326 net.cpp:91] Creating Layer loss2/ave_pool
I0403 15:47:33.155946 11326 net.cpp:425] loss2/ave_pool <- inception_4d/output_inception_4d/output_0_split_0
I0403 15:47:33.155967 11326 net.cpp:399] loss2/ave_pool -> loss2/ave_pool
I0403 15:47:33.156276 11326 net.cpp:141] Setting up loss2/ave_pool
I0403 15:47:33.156301 11326 net.cpp:148] Top shape: 24 528 4 4 (202752)
I0403 15:47:33.156316 11326 net.cpp:156] Memory required for data: 1207729440
I0403 15:47:33.156332 11326 layer_factory.hpp:77] Creating layer loss2/conv
I0403 15:47:33.156353 11326 net.cpp:91] Creating Layer loss2/conv
I0403 15:47:33.156370 11326 net.cpp:425] loss2/conv <- loss2/ave_pool
I0403 15:47:33.156391 11326 net.cpp:399] loss2/conv -> loss2/conv
I0403 15:47:33.158248 11326 net.cpp:141] Setting up loss2/conv
I0403 15:47:33.158278 11326 net.cpp:148] Top shape: 24 128 4 4 (49152)
I0403 15:47:33.158294 11326 net.cpp:156] Memory required for data: 1207926048
I0403 15:47:33.158313 11326 layer_factory.hpp:77] Creating layer loss2/relu_conv
I0403 15:47:33.158330 11326 net.cpp:91] Creating Layer loss2/relu_conv
I0403 15:47:33.158346 11326 net.cpp:425] loss2/relu_conv <- loss2/conv
I0403 15:47:33.158363 11326 net.cpp:386] loss2/relu_conv -> loss2/conv (in-place)
I0403 15:47:33.158641 11326 net.cpp:141] Setting up loss2/relu_conv
I0403 15:47:33.158668 11326 net.cpp:148] Top shape: 24 128 4 4 (49152)
I0403 15:47:33.158684 11326 net.cpp:156] Memory required for data: 1208122656
I0403 15:47:33.158699 11326 layer_factory.hpp:77] Creating layer loss2/fc
I0403 15:47:33.158717 11326 net.cpp:91] Creating Layer loss2/fc
I0403 15:47:33.158735 11326 net.cpp:425] loss2/fc <- loss2/conv
I0403 15:47:33.158754 11326 net.cpp:399] loss2/fc -> loss2/fc
I0403 15:47:33.176043 11326 net.cpp:141] Setting up loss2/fc
I0403 15:47:33.176079 11326 net.cpp:148] Top shape: 24 1024 (24576)
I0403 15:47:33.176096 11326 net.cpp:156] Memory required for data: 1208220960
I0403 15:47:33.176115 11326 layer_factory.hpp:77] Creating layer loss2/relu_fc
I0403 15:47:33.176134 11326 net.cpp:91] Creating Layer loss2/relu_fc
I0403 15:47:33.176151 11326 net.cpp:425] loss2/relu_fc <- loss2/fc
I0403 15:47:33.176168 11326 net.cpp:386] loss2/relu_fc -> loss2/fc (in-place)
I0403 15:47:33.176460 11326 net.cpp:141] Setting up loss2/relu_fc
I0403 15:47:33.176486 11326 net.cpp:148] Top shape: 24 1024 (24576)
I0403 15:47:33.176499 11326 net.cpp:156] Memory required for data: 1208319264
I0403 15:47:33.176514 11326 layer_factory.hpp:77] Creating layer loss2/drop_fc
I0403 15:47:33.176534 11326 net.cpp:91] Creating Layer loss2/drop_fc
I0403 15:47:33.176551 11326 net.cpp:425] loss2/drop_fc <- loss2/fc
I0403 15:47:33.176568 11326 net.cpp:386] loss2/drop_fc -> loss2/fc (in-place)
I0403 15:47:33.176617 11326 net.cpp:141] Setting up loss2/drop_fc
I0403 15:47:33.176638 11326 net.cpp:148] Top shape: 24 1024 (24576)
I0403 15:47:33.176652 11326 net.cpp:156] Memory required for data: 1208417568
I0403 15:47:33.176667 11326 layer_factory.hpp:77] Creating layer loss2/classifier_plantvillage
I0403 15:47:33.176684 11326 net.cpp:91] Creating Layer loss2/classifier_plantvillage
I0403 15:47:33.176702 11326 net.cpp:425] loss2/classifier_plantvillage <- loss2/fc
I0403 15:47:33.176720 11326 net.cpp:399] loss2/classifier_plantvillage -> loss2/classifier_plantvillage
I0403 15:47:33.177114 11326 net.cpp:141] Setting up loss2/classifier_plantvillage
I0403 15:47:33.177139 11326 net.cpp:148] Top shape: 24 38 (912)
I0403 15:47:33.177167 11326 net.cpp:156] Memory required for data: 1208421216
I0403 15:47:33.177186 11326 layer_factory.hpp:77] Creating layer loss2/classifier_plantvillage_loss2/classifier_plantvillage_0_split
I0403 15:47:33.177204 11326 net.cpp:91] Creating Layer loss2/classifier_plantvillage_loss2/classifier_plantvillage_0_split
I0403 15:47:33.177220 11326 net.cpp:425] loss2/classifier_plantvillage_loss2/classifier_plantvillage_0_split <- loss2/classifier_plantvillage
I0403 15:47:33.177239 11326 net.cpp:399] loss2/classifier_plantvillage_loss2/classifier_plantvillage_0_split -> loss2/classifier_plantvillage_loss2/classifier_plantvillage_0_split_0
I0403 15:47:33.177259 11326 net.cpp:399] loss2/classifier_plantvillage_loss2/classifier_plantvillage_0_split -> loss2/classifier_plantvillage_loss2/classifier_plantvillage_0_split_1
I0403 15:47:33.177278 11326 net.cpp:399] loss2/classifier_plantvillage_loss2/classifier_plantvillage_0_split -> loss2/classifier_plantvillage_loss2/classifier_plantvillage_0_split_2
I0403 15:47:33.177353 11326 net.cpp:141] Setting up loss2/classifier_plantvillage_loss2/classifier_plantvillage_0_split
I0403 15:47:33.177377 11326 net.cpp:148] Top shape: 24 38 (912)
I0403 15:47:33.177394 11326 net.cpp:148] Top shape: 24 38 (912)
I0403 15:47:33.177409 11326 net.cpp:148] Top shape: 24 38 (912)
I0403 15:47:33.177423 11326 net.cpp:156] Memory required for data: 1208432160
I0403 15:47:33.177436 11326 layer_factory.hpp:77] Creating layer inception_4e/1x1
I0403 15:47:33.177458 11326 net.cpp:91] Creating Layer inception_4e/1x1
I0403 15:47:33.177474 11326 net.cpp:425] inception_4e/1x1 <- inception_4d/output_inception_4d/output_0_split_1
I0403 15:47:33.177492 11326 net.cpp:399] inception_4e/1x1 -> inception_4e/1x1
I0403 15:47:33.179272 11326 net.cpp:141] Setting up inception_4e/1x1
I0403 15:47:33.179301 11326 net.cpp:148] Top shape: 24 256 14 14 (1204224)
I0403 15:47:33.179317 11326 net.cpp:156] Memory required for data: 1213249056
I0403 15:47:33.179335 11326 layer_factory.hpp:77] Creating layer inception_4e/relu_1x1
I0403 15:47:33.179353 11326 net.cpp:91] Creating Layer inception_4e/relu_1x1
I0403 15:47:33.179368 11326 net.cpp:425] inception_4e/relu_1x1 <- inception_4e/1x1
I0403 15:47:33.179388 11326 net.cpp:386] inception_4e/relu_1x1 -> inception_4e/1x1 (in-place)
I0403 15:47:33.179682 11326 net.cpp:141] Setting up inception_4e/relu_1x1
I0403 15:47:33.179708 11326 net.cpp:148] Top shape: 24 256 14 14 (1204224)
I0403 15:47:33.179724 11326 net.cpp:156] Memory required for data: 1218065952
I0403 15:47:33.179739 11326 layer_factory.hpp:77] Creating layer inception_4e/3x3_reduce
I0403 15:47:33.179760 11326 net.cpp:91] Creating Layer inception_4e/3x3_reduce
I0403 15:47:33.179777 11326 net.cpp:425] inception_4e/3x3_reduce <- inception_4d/output_inception_4d/output_0_split_2
I0403 15:47:33.179795 11326 net.cpp:399] inception_4e/3x3_reduce -> inception_4e/3x3_reduce
I0403 15:47:33.181910 11326 net.cpp:141] Setting up inception_4e/3x3_reduce
I0403 15:47:33.181939 11326 net.cpp:148] Top shape: 24 160 14 14 (752640)
I0403 15:47:33.181956 11326 net.cpp:156] Memory required for data: 1221076512
I0403 15:47:33.181974 11326 layer_factory.hpp:77] Creating layer inception_4e/relu_3x3_reduce
I0403 15:47:33.181996 11326 net.cpp:91] Creating Layer inception_4e/relu_3x3_reduce
I0403 15:47:33.182013 11326 net.cpp:425] inception_4e/relu_3x3_reduce <- inception_4e/3x3_reduce
I0403 15:47:33.182029 11326 net.cpp:386] inception_4e/relu_3x3_reduce -> inception_4e/3x3_reduce (in-place)
I0403 15:47:33.182214 11326 net.cpp:141] Setting up inception_4e/relu_3x3_reduce
I0403 15:47:33.182237 11326 net.cpp:148] Top shape: 24 160 14 14 (752640)
I0403 15:47:33.182251 11326 net.cpp:156] Memory required for data: 1224087072
I0403 15:47:33.182265 11326 layer_factory.hpp:77] Creating layer inception_4e/3x3
I0403 15:47:33.182286 11326 net.cpp:91] Creating Layer inception_4e/3x3
I0403 15:47:33.182303 11326 net.cpp:425] inception_4e/3x3 <- inception_4e/3x3_reduce
I0403 15:47:33.182324 11326 net.cpp:399] inception_4e/3x3 -> inception_4e/3x3
I0403 15:47:33.187253 11326 net.cpp:141] Setting up inception_4e/3x3
I0403 15:47:33.187291 11326 net.cpp:148] Top shape: 24 320 14 14 (1505280)
I0403 15:47:33.187307 11326 net.cpp:156] Memory required for data: 1230108192
I0403 15:47:33.187325 11326 layer_factory.hpp:77] Creating layer inception_4e/relu_3x3
I0403 15:47:33.187342 11326 net.cpp:91] Creating Layer inception_4e/relu_3x3
I0403 15:47:33.187358 11326 net.cpp:425] inception_4e/relu_3x3 <- inception_4e/3x3
I0403 15:47:33.187377 11326 net.cpp:386] inception_4e/relu_3x3 -> inception_4e/3x3 (in-place)
I0403 15:47:33.187669 11326 net.cpp:141] Setting up inception_4e/relu_3x3
I0403 15:47:33.187695 11326 net.cpp:148] Top shape: 24 320 14 14 (1505280)
I0403 15:47:33.187708 11326 net.cpp:156] Memory required for data: 1236129312
I0403 15:47:33.187723 11326 layer_factory.hpp:77] Creating layer inception_4e/5x5_reduce
I0403 15:47:33.187744 11326 net.cpp:91] Creating Layer inception_4e/5x5_reduce
I0403 15:47:33.187762 11326 net.cpp:425] inception_4e/5x5_reduce <- inception_4d/output_inception_4d/output_0_split_3
I0403 15:47:33.187783 11326 net.cpp:399] inception_4e/5x5_reduce -> inception_4e/5x5_reduce
I0403 15:47:33.188829 11326 net.cpp:141] Setting up inception_4e/5x5_reduce
I0403 15:47:33.188858 11326 net.cpp:148] Top shape: 24 32 14 14 (150528)
I0403 15:47:33.188874 11326 net.cpp:156] Memory required for data: 1236731424
I0403 15:47:33.188891 11326 layer_factory.hpp:77] Creating layer inception_4e/relu_5x5_reduce
I0403 15:47:33.188908 11326 net.cpp:91] Creating Layer inception_4e/relu_5x5_reduce
I0403 15:47:33.188923 11326 net.cpp:425] inception_4e/relu_5x5_reduce <- inception_4e/5x5_reduce
I0403 15:47:33.188942 11326 net.cpp:386] inception_4e/relu_5x5_reduce -> inception_4e/5x5_reduce (in-place)
I0403 15:47:33.189246 11326 net.cpp:141] Setting up inception_4e/relu_5x5_reduce
I0403 15:47:33.189275 11326 net.cpp:148] Top shape: 24 32 14 14 (150528)
I0403 15:47:33.189290 11326 net.cpp:156] Memory required for data: 1237333536
I0403 15:47:33.189304 11326 layer_factory.hpp:77] Creating layer inception_4e/5x5
I0403 15:47:33.189343 11326 net.cpp:91] Creating Layer inception_4e/5x5
I0403 15:47:33.189362 11326 net.cpp:425] inception_4e/5x5 <- inception_4e/5x5_reduce
I0403 15:47:33.189380 11326 net.cpp:399] inception_4e/5x5 -> inception_4e/5x5
I0403 15:47:33.191174 11326 net.cpp:141] Setting up inception_4e/5x5
I0403 15:47:33.191200 11326 net.cpp:148] Top shape: 24 128 14 14 (602112)
I0403 15:47:33.191215 11326 net.cpp:156] Memory required for data: 1239741984
I0403 15:47:33.191233 11326 layer_factory.hpp:77] Creating layer inception_4e/relu_5x5
I0403 15:47:33.191253 11326 net.cpp:91] Creating Layer inception_4e/relu_5x5
I0403 15:47:33.191269 11326 net.cpp:425] inception_4e/relu_5x5 <- inception_4e/5x5
I0403 15:47:33.191285 11326 net.cpp:386] inception_4e/relu_5x5 -> inception_4e/5x5 (in-place)
I0403 15:47:33.191476 11326 net.cpp:141] Setting up inception_4e/relu_5x5
I0403 15:47:33.191503 11326 net.cpp:148] Top shape: 24 128 14 14 (602112)
I0403 15:47:33.191517 11326 net.cpp:156] Memory required for data: 1242150432
I0403 15:47:33.191531 11326 layer_factory.hpp:77] Creating layer inception_4e/pool
I0403 15:47:33.191548 11326 net.cpp:91] Creating Layer inception_4e/pool
I0403 15:47:33.191563 11326 net.cpp:425] inception_4e/pool <- inception_4d/output_inception_4d/output_0_split_4
I0403 15:47:33.191582 11326 net.cpp:399] inception_4e/pool -> inception_4e/pool
I0403 15:47:33.191651 11326 net.cpp:141] Setting up inception_4e/pool
I0403 15:47:33.191673 11326 net.cpp:148] Top shape: 24 528 14 14 (2483712)
I0403 15:47:33.191687 11326 net.cpp:156] Memory required for data: 1252085280
I0403 15:47:33.191701 11326 layer_factory.hpp:77] Creating layer inception_4e/pool_proj
I0403 15:47:33.191722 11326 net.cpp:91] Creating Layer inception_4e/pool_proj
I0403 15:47:33.191740 11326 net.cpp:425] inception_4e/pool_proj <- inception_4e/pool
I0403 15:47:33.191758 11326 net.cpp:399] inception_4e/pool_proj -> inception_4e/pool_proj
I0403 15:47:33.193235 11326 net.cpp:141] Setting up inception_4e/pool_proj
I0403 15:47:33.193274 11326 net.cpp:148] Top shape: 24 128 14 14 (602112)
I0403 15:47:33.193289 11326 net.cpp:156] Memory required for data: 1254493728
I0403 15:47:33.193307 11326 layer_factory.hpp:77] Creating layer inception_4e/relu_pool_proj
I0403 15:47:33.193327 11326 net.cpp:91] Creating Layer inception_4e/relu_pool_proj
I0403 15:47:33.193343 11326 net.cpp:425] inception_4e/relu_pool_proj <- inception_4e/pool_proj
I0403 15:47:33.193361 11326 net.cpp:386] inception_4e/relu_pool_proj -> inception_4e/pool_proj (in-place)
I0403 15:47:33.193653 11326 net.cpp:141] Setting up inception_4e/relu_pool_proj
I0403 15:47:33.193678 11326 net.cpp:148] Top shape: 24 128 14 14 (602112)
I0403 15:47:33.193693 11326 net.cpp:156] Memory required for data: 1256902176
I0403 15:47:33.193707 11326 layer_factory.hpp:77] Creating layer inception_4e/output
I0403 15:47:33.193724 11326 net.cpp:91] Creating Layer inception_4e/output
I0403 15:47:33.193739 11326 net.cpp:425] inception_4e/output <- inception_4e/1x1
I0403 15:47:33.193758 11326 net.cpp:425] inception_4e/output <- inception_4e/3x3
I0403 15:47:33.193774 11326 net.cpp:425] inception_4e/output <- inception_4e/5x5
I0403 15:47:33.193789 11326 net.cpp:425] inception_4e/output <- inception_4e/pool_proj
I0403 15:47:33.193805 11326 net.cpp:399] inception_4e/output -> inception_4e/output
I0403 15:47:33.193856 11326 net.cpp:141] Setting up inception_4e/output
I0403 15:47:33.193877 11326 net.cpp:148] Top shape: 24 832 14 14 (3913728)
I0403 15:47:33.193892 11326 net.cpp:156] Memory required for data: 1272557088
I0403 15:47:33.193905 11326 layer_factory.hpp:77] Creating layer pool4/3x3_s2
I0403 15:47:33.193922 11326 net.cpp:91] Creating Layer pool4/3x3_s2
I0403 15:47:33.193938 11326 net.cpp:425] pool4/3x3_s2 <- inception_4e/output
I0403 15:47:33.193958 11326 net.cpp:399] pool4/3x3_s2 -> pool4/3x3_s2
I0403 15:47:33.194027 11326 net.cpp:141] Setting up pool4/3x3_s2
I0403 15:47:33.194051 11326 net.cpp:148] Top shape: 24 832 7 7 (978432)
I0403 15:47:33.194064 11326 net.cpp:156] Memory required for data: 1276470816
I0403 15:47:33.194078 11326 layer_factory.hpp:77] Creating layer pool4/3x3_s2_pool4/3x3_s2_0_split
I0403 15:47:33.194097 11326 net.cpp:91] Creating Layer pool4/3x3_s2_pool4/3x3_s2_0_split
I0403 15:47:33.194113 11326 net.cpp:425] pool4/3x3_s2_pool4/3x3_s2_0_split <- pool4/3x3_s2
I0403 15:47:33.194130 11326 net.cpp:399] pool4/3x3_s2_pool4/3x3_s2_0_split -> pool4/3x3_s2_pool4/3x3_s2_0_split_0
I0403 15:47:33.194152 11326 net.cpp:399] pool4/3x3_s2_pool4/3x3_s2_0_split -> pool4/3x3_s2_pool4/3x3_s2_0_split_1
I0403 15:47:33.194171 11326 net.cpp:399] pool4/3x3_s2_pool4/3x3_s2_0_split -> pool4/3x3_s2_pool4/3x3_s2_0_split_2
I0403 15:47:33.194190 11326 net.cpp:399] pool4/3x3_s2_pool4/3x3_s2_0_split -> pool4/3x3_s2_pool4/3x3_s2_0_split_3
I0403 15:47:33.194280 11326 net.cpp:141] Setting up pool4/3x3_s2_pool4/3x3_s2_0_split
I0403 15:47:33.194303 11326 net.cpp:148] Top shape: 24 832 7 7 (978432)
I0403 15:47:33.194319 11326 net.cpp:148] Top shape: 24 832 7 7 (978432)
I0403 15:47:33.194332 11326 net.cpp:148] Top shape: 24 832 7 7 (978432)
I0403 15:47:33.194347 11326 net.cpp:148] Top shape: 24 832 7 7 (978432)
I0403 15:47:33.194360 11326 net.cpp:156] Memory required for data: 1292125728
I0403 15:47:33.194375 11326 layer_factory.hpp:77] Creating layer inception_5a/1x1
I0403 15:47:33.194396 11326 net.cpp:91] Creating Layer inception_5a/1x1
I0403 15:47:33.194412 11326 net.cpp:425] inception_5a/1x1 <- pool4/3x3_s2_pool4/3x3_s2_0_split_0
I0403 15:47:33.194432 11326 net.cpp:399] inception_5a/1x1 -> inception_5a/1x1
I0403 15:47:33.197234 11326 net.cpp:141] Setting up inception_5a/1x1
I0403 15:47:33.197264 11326 net.cpp:148] Top shape: 24 256 7 7 (301056)
I0403 15:47:33.197279 11326 net.cpp:156] Memory required for data: 1293329952
I0403 15:47:33.197298 11326 layer_factory.hpp:77] Creating layer inception_5a/relu_1x1
I0403 15:47:33.197315 11326 net.cpp:91] Creating Layer inception_5a/relu_1x1
I0403 15:47:33.197330 11326 net.cpp:425] inception_5a/relu_1x1 <- inception_5a/1x1
I0403 15:47:33.197346 11326 net.cpp:386] inception_5a/relu_1x1 -> inception_5a/1x1 (in-place)
I0403 15:47:33.197656 11326 net.cpp:141] Setting up inception_5a/relu_1x1
I0403 15:47:33.197684 11326 net.cpp:148] Top shape: 24 256 7 7 (301056)
I0403 15:47:33.197698 11326 net.cpp:156] Memory required for data: 1294534176
I0403 15:47:33.197713 11326 layer_factory.hpp:77] Creating layer inception_5a/3x3_reduce
I0403 15:47:33.197732 11326 net.cpp:91] Creating Layer inception_5a/3x3_reduce
I0403 15:47:33.197749 11326 net.cpp:425] inception_5a/3x3_reduce <- pool4/3x3_s2_pool4/3x3_s2_0_split_1
I0403 15:47:33.197770 11326 net.cpp:399] inception_5a/3x3_reduce -> inception_5a/3x3_reduce
I0403 15:47:33.200191 11326 net.cpp:141] Setting up inception_5a/3x3_reduce
I0403 15:47:33.200220 11326 net.cpp:148] Top shape: 24 160 7 7 (188160)
I0403 15:47:33.200235 11326 net.cpp:156] Memory required for data: 1295286816
I0403 15:47:33.200253 11326 layer_factory.hpp:77] Creating layer inception_5a/relu_3x3_reduce
I0403 15:47:33.200271 11326 net.cpp:91] Creating Layer inception_5a/relu_3x3_reduce
I0403 15:47:33.200286 11326 net.cpp:425] inception_5a/relu_3x3_reduce <- inception_5a/3x3_reduce
I0403 15:47:33.200305 11326 net.cpp:386] inception_5a/relu_3x3_reduce -> inception_5a/3x3_reduce (in-place)
I0403 15:47:33.200489 11326 net.cpp:141] Setting up inception_5a/relu_3x3_reduce
I0403 15:47:33.200512 11326 net.cpp:148] Top shape: 24 160 7 7 (188160)
I0403 15:47:33.200526 11326 net.cpp:156] Memory required for data: 1296039456
I0403 15:47:33.200541 11326 layer_factory.hpp:77] Creating layer inception_5a/3x3
I0403 15:47:33.200562 11326 net.cpp:91] Creating Layer inception_5a/3x3
I0403 15:47:33.200578 11326 net.cpp:425] inception_5a/3x3 <- inception_5a/3x3_reduce
I0403 15:47:33.200599 11326 net.cpp:399] inception_5a/3x3 -> inception_5a/3x3
I0403 15:47:33.205524 11326 net.cpp:141] Setting up inception_5a/3x3
I0403 15:47:33.205552 11326 net.cpp:148] Top shape: 24 320 7 7 (376320)
I0403 15:47:33.205567 11326 net.cpp:156] Memory required for data: 1297544736
I0403 15:47:33.205585 11326 layer_factory.hpp:77] Creating layer inception_5a/relu_3x3
I0403 15:47:33.205605 11326 net.cpp:91] Creating Layer inception_5a/relu_3x3
I0403 15:47:33.205623 11326 net.cpp:425] inception_5a/relu_3x3 <- inception_5a/3x3
I0403 15:47:33.205641 11326 net.cpp:386] inception_5a/relu_3x3 -> inception_5a/3x3 (in-place)
I0403 15:47:33.205926 11326 net.cpp:141] Setting up inception_5a/relu_3x3
I0403 15:47:33.205952 11326 net.cpp:148] Top shape: 24 320 7 7 (376320)
I0403 15:47:33.205966 11326 net.cpp:156] Memory required for data: 1299050016
I0403 15:47:33.205984 11326 layer_factory.hpp:77] Creating layer inception_5a/5x5_reduce
I0403 15:47:33.206010 11326 net.cpp:91] Creating Layer inception_5a/5x5_reduce
I0403 15:47:33.206027 11326 net.cpp:425] inception_5a/5x5_reduce <- pool4/3x3_s2_pool4/3x3_s2_0_split_2
I0403 15:47:33.206046 11326 net.cpp:399] inception_5a/5x5_reduce -> inception_5a/5x5_reduce
I0403 15:47:33.207206 11326 net.cpp:141] Setting up inception_5a/5x5_reduce
I0403 15:47:33.207237 11326 net.cpp:148] Top shape: 24 32 7 7 (37632)
I0403 15:47:33.207252 11326 net.cpp:156] Memory required for data: 1299200544
I0403 15:47:33.207270 11326 layer_factory.hpp:77] Creating layer inception_5a/relu_5x5_reduce
I0403 15:47:33.207288 11326 net.cpp:91] Creating Layer inception_5a/relu_5x5_reduce
I0403 15:47:33.207304 11326 net.cpp:425] inception_5a/relu_5x5_reduce <- inception_5a/5x5_reduce
I0403 15:47:33.207319 11326 net.cpp:386] inception_5a/relu_5x5_reduce -> inception_5a/5x5_reduce (in-place)
I0403 15:47:33.207622 11326 net.cpp:141] Setting up inception_5a/relu_5x5_reduce
I0403 15:47:33.207648 11326 net.cpp:148] Top shape: 24 32 7 7 (37632)
I0403 15:47:33.207664 11326 net.cpp:156] Memory required for data: 1299351072
I0403 15:47:33.207679 11326 layer_factory.hpp:77] Creating layer inception_5a/5x5
I0403 15:47:33.207700 11326 net.cpp:91] Creating Layer inception_5a/5x5
I0403 15:47:33.207717 11326 net.cpp:425] inception_5a/5x5 <- inception_5a/5x5_reduce
I0403 15:47:33.207736 11326 net.cpp:399] inception_5a/5x5 -> inception_5a/5x5
I0403 15:47:33.209439 11326 net.cpp:141] Setting up inception_5a/5x5
I0403 15:47:33.209478 11326 net.cpp:148] Top shape: 24 128 7 7 (150528)
I0403 15:47:33.209493 11326 net.cpp:156] Memory required for data: 1299953184
I0403 15:47:33.209511 11326 layer_factory.hpp:77] Creating layer inception_5a/relu_5x5
I0403 15:47:33.209532 11326 net.cpp:91] Creating Layer inception_5a/relu_5x5
I0403 15:47:33.209549 11326 net.cpp:425] inception_5a/relu_5x5 <- inception_5a/5x5
I0403 15:47:33.209565 11326 net.cpp:386] inception_5a/relu_5x5 -> inception_5a/5x5 (in-place)
I0403 15:47:33.209753 11326 net.cpp:141] Setting up inception_5a/relu_5x5
I0403 15:47:33.209779 11326 net.cpp:148] Top shape: 24 128 7 7 (150528)
I0403 15:47:33.209792 11326 net.cpp:156] Memory required for data: 1300555296
I0403 15:47:33.209806 11326 layer_factory.hpp:77] Creating layer inception_5a/pool
I0403 15:47:33.209823 11326 net.cpp:91] Creating Layer inception_5a/pool
I0403 15:47:33.209839 11326 net.cpp:425] inception_5a/pool <- pool4/3x3_s2_pool4/3x3_s2_0_split_3
I0403 15:47:33.209859 11326 net.cpp:399] inception_5a/pool -> inception_5a/pool
I0403 15:47:33.209929 11326 net.cpp:141] Setting up inception_5a/pool
I0403 15:47:33.209952 11326 net.cpp:148] Top shape: 24 832 7 7 (978432)
I0403 15:47:33.209967 11326 net.cpp:156] Memory required for data: 1304469024
I0403 15:47:33.209985 11326 layer_factory.hpp:77] Creating layer inception_5a/pool_proj
I0403 15:47:33.210010 11326 net.cpp:91] Creating Layer inception_5a/pool_proj
I0403 15:47:33.210026 11326 net.cpp:425] inception_5a/pool_proj <- inception_5a/pool
I0403 15:47:33.210046 11326 net.cpp:399] inception_5a/pool_proj -> inception_5a/pool_proj
I0403 15:47:33.212306 11326 net.cpp:141] Setting up inception_5a/pool_proj
I0403 15:47:33.212335 11326 net.cpp:148] Top shape: 24 128 7 7 (150528)
I0403 15:47:33.212350 11326 net.cpp:156] Memory required for data: 1305071136
I0403 15:47:33.212368 11326 layer_factory.hpp:77] Creating layer inception_5a/relu_pool_proj
I0403 15:47:33.212388 11326 net.cpp:91] Creating Layer inception_5a/relu_pool_proj
I0403 15:47:33.212404 11326 net.cpp:425] inception_5a/relu_pool_proj <- inception_5a/pool_proj
I0403 15:47:33.212422 11326 net.cpp:386] inception_5a/relu_pool_proj -> inception_5a/pool_proj (in-place)
I0403 15:47:33.212710 11326 net.cpp:141] Setting up inception_5a/relu_pool_proj
I0403 15:47:33.212735 11326 net.cpp:148] Top shape: 24 128 7 7 (150528)
I0403 15:47:33.212750 11326 net.cpp:156] Memory required for data: 1305673248
I0403 15:47:33.212764 11326 layer_factory.hpp:77] Creating layer inception_5a/output
I0403 15:47:33.212785 11326 net.cpp:91] Creating Layer inception_5a/output
I0403 15:47:33.212800 11326 net.cpp:425] inception_5a/output <- inception_5a/1x1
I0403 15:47:33.212817 11326 net.cpp:425] inception_5a/output <- inception_5a/3x3
I0403 15:47:33.212833 11326 net.cpp:425] inception_5a/output <- inception_5a/5x5
I0403 15:47:33.212849 11326 net.cpp:425] inception_5a/output <- inception_5a/pool_proj
I0403 15:47:33.212865 11326 net.cpp:399] inception_5a/output -> inception_5a/output
I0403 15:47:33.212915 11326 net.cpp:141] Setting up inception_5a/output
I0403 15:47:33.212939 11326 net.cpp:148] Top shape: 24 832 7 7 (978432)
I0403 15:47:33.212954 11326 net.cpp:156] Memory required for data: 1309586976
I0403 15:47:33.212967 11326 layer_factory.hpp:77] Creating layer inception_5a/output_inception_5a/output_0_split
I0403 15:47:33.212987 11326 net.cpp:91] Creating Layer inception_5a/output_inception_5a/output_0_split
I0403 15:47:33.213006 11326 net.cpp:425] inception_5a/output_inception_5a/output_0_split <- inception_5a/output
I0403 15:47:33.213024 11326 net.cpp:399] inception_5a/output_inception_5a/output_0_split -> inception_5a/output_inception_5a/output_0_split_0
I0403 15:47:33.213045 11326 net.cpp:399] inception_5a/output_inception_5a/output_0_split -> inception_5a/output_inception_5a/output_0_split_1
I0403 15:47:33.213065 11326 net.cpp:399] inception_5a/output_inception_5a/output_0_split -> inception_5a/output_inception_5a/output_0_split_2
I0403 15:47:33.213086 11326 net.cpp:399] inception_5a/output_inception_5a/output_0_split -> inception_5a/output_inception_5a/output_0_split_3
I0403 15:47:33.213196 11326 net.cpp:141] Setting up inception_5a/output_inception_5a/output_0_split
I0403 15:47:33.213222 11326 net.cpp:148] Top shape: 24 832 7 7 (978432)
I0403 15:47:33.213238 11326 net.cpp:148] Top shape: 24 832 7 7 (978432)
I0403 15:47:33.213253 11326 net.cpp:148] Top shape: 24 832 7 7 (978432)
I0403 15:47:33.213268 11326 net.cpp:148] Top shape: 24 832 7 7 (978432)
I0403 15:47:33.213281 11326 net.cpp:156] Memory required for data: 1325241888
I0403 15:47:33.213295 11326 layer_factory.hpp:77] Creating layer inception_5b/1x1
I0403 15:47:33.213316 11326 net.cpp:91] Creating Layer inception_5b/1x1
I0403 15:47:33.213333 11326 net.cpp:425] inception_5b/1x1 <- inception_5a/output_inception_5a/output_0_split_0
I0403 15:47:33.213352 11326 net.cpp:399] inception_5b/1x1 -> inception_5b/1x1
I0403 15:47:33.217085 11326 net.cpp:141] Setting up inception_5b/1x1
I0403 15:47:33.217115 11326 net.cpp:148] Top shape: 24 384 7 7 (451584)
I0403 15:47:33.217130 11326 net.cpp:156] Memory required for data: 1327048224
I0403 15:47:33.217149 11326 layer_factory.hpp:77] Creating layer inception_5b/relu_1x1
I0403 15:47:33.217171 11326 net.cpp:91] Creating Layer inception_5b/relu_1x1
I0403 15:47:33.217190 11326 net.cpp:425] inception_5b/relu_1x1 <- inception_5b/1x1
I0403 15:47:33.217208 11326 net.cpp:386] inception_5b/relu_1x1 -> inception_5b/1x1 (in-place)
I0403 15:47:33.217507 11326 net.cpp:141] Setting up inception_5b/relu_1x1
I0403 15:47:33.217533 11326 net.cpp:148] Top shape: 24 384 7 7 (451584)
I0403 15:47:33.217547 11326 net.cpp:156] Memory required for data: 1328854560
I0403 15:47:33.217562 11326 layer_factory.hpp:77] Creating layer inception_5b/3x3_reduce
I0403 15:47:33.217583 11326 net.cpp:91] Creating Layer inception_5b/3x3_reduce
I0403 15:47:33.217602 11326 net.cpp:425] inception_5b/3x3_reduce <- inception_5a/output_inception_5a/output_0_split_1
I0403 15:47:33.217623 11326 net.cpp:399] inception_5b/3x3_reduce -> inception_5b/3x3_reduce
I0403 15:47:33.220335 11326 net.cpp:141] Setting up inception_5b/3x3_reduce
I0403 15:47:33.220365 11326 net.cpp:148] Top shape: 24 192 7 7 (225792)
I0403 15:47:33.220381 11326 net.cpp:156] Memory required for data: 1329757728
I0403 15:47:33.220398 11326 layer_factory.hpp:77] Creating layer inception_5b/relu_3x3_reduce
I0403 15:47:33.220419 11326 net.cpp:91] Creating Layer inception_5b/relu_3x3_reduce
I0403 15:47:33.220437 11326 net.cpp:425] inception_5b/relu_3x3_reduce <- inception_5b/3x3_reduce
I0403 15:47:33.220453 11326 net.cpp:386] inception_5b/relu_3x3_reduce -> inception_5b/3x3_reduce (in-place)
I0403 15:47:33.220638 11326 net.cpp:141] Setting up inception_5b/relu_3x3_reduce
I0403 15:47:33.220662 11326 net.cpp:148] Top shape: 24 192 7 7 (225792)
I0403 15:47:33.220676 11326 net.cpp:156] Memory required for data: 1330660896
I0403 15:47:33.220690 11326 layer_factory.hpp:77] Creating layer inception_5b/3x3
I0403 15:47:33.220717 11326 net.cpp:91] Creating Layer inception_5b/3x3
I0403 15:47:33.220736 11326 net.cpp:425] inception_5b/3x3 <- inception_5b/3x3_reduce
I0403 15:47:33.220753 11326 net.cpp:399] inception_5b/3x3 -> inception_5b/3x3
I0403 15:47:33.227406 11326 net.cpp:141] Setting up inception_5b/3x3
I0403 15:47:33.227435 11326 net.cpp:148] Top shape: 24 384 7 7 (451584)
I0403 15:47:33.227450 11326 net.cpp:156] Memory required for data: 1332467232
I0403 15:47:33.227468 11326 layer_factory.hpp:77] Creating layer inception_5b/relu_3x3
I0403 15:47:33.227493 11326 net.cpp:91] Creating Layer inception_5b/relu_3x3
I0403 15:47:33.227510 11326 net.cpp:425] inception_5b/relu_3x3 <- inception_5b/3x3
I0403 15:47:33.227526 11326 net.cpp:386] inception_5b/relu_3x3 -> inception_5b/3x3 (in-place)
I0403 15:47:33.227820 11326 net.cpp:141] Setting up inception_5b/relu_3x3
I0403 15:47:33.227845 11326 net.cpp:148] Top shape: 24 384 7 7 (451584)
I0403 15:47:33.227859 11326 net.cpp:156] Memory required for data: 1334273568
I0403 15:47:33.227874 11326 layer_factory.hpp:77] Creating layer inception_5b/5x5_reduce
I0403 15:47:33.227910 11326 net.cpp:91] Creating Layer inception_5b/5x5_reduce
I0403 15:47:33.227929 11326 net.cpp:425] inception_5b/5x5_reduce <- inception_5a/output_inception_5a/output_0_split_2
I0403 15:47:33.227951 11326 net.cpp:399] inception_5b/5x5_reduce -> inception_5b/5x5_reduce
I0403 15:47:33.229218 11326 net.cpp:141] Setting up inception_5b/5x5_reduce
I0403 15:47:33.229245 11326 net.cpp:148] Top shape: 24 48 7 7 (56448)
I0403 15:47:33.229260 11326 net.cpp:156] Memory required for data: 1334499360
I0403 15:47:33.229279 11326 layer_factory.hpp:77] Creating layer inception_5b/relu_5x5_reduce
I0403 15:47:33.229298 11326 net.cpp:91] Creating Layer inception_5b/relu_5x5_reduce
I0403 15:47:33.229315 11326 net.cpp:425] inception_5b/relu_5x5_reduce <- inception_5b/5x5_reduce
I0403 15:47:33.229331 11326 net.cpp:386] inception_5b/relu_5x5_reduce -> inception_5b/5x5_reduce (in-place)
I0403 15:47:33.229696 11326 net.cpp:141] Setting up inception_5b/relu_5x5_reduce
I0403 15:47:33.229722 11326 net.cpp:148] Top shape: 24 48 7 7 (56448)
I0403 15:47:33.229737 11326 net.cpp:156] Memory required for data: 1334725152
I0403 15:47:33.229751 11326 layer_factory.hpp:77] Creating layer inception_5b/5x5
I0403 15:47:33.229771 11326 net.cpp:91] Creating Layer inception_5b/5x5
I0403 15:47:33.229787 11326 net.cpp:425] inception_5b/5x5 <- inception_5b/5x5_reduce
I0403 15:47:33.229805 11326 net.cpp:399] inception_5b/5x5 -> inception_5b/5x5
I0403 15:47:33.231815 11326 net.cpp:141] Setting up inception_5b/5x5
I0403 15:47:33.231844 11326 net.cpp:148] Top shape: 24 128 7 7 (150528)
I0403 15:47:33.231860 11326 net.cpp:156] Memory required for data: 1335327264
I0403 15:47:33.231878 11326 layer_factory.hpp:77] Creating layer inception_5b/relu_5x5
I0403 15:47:33.231896 11326 net.cpp:91] Creating Layer inception_5b/relu_5x5
I0403 15:47:33.231912 11326 net.cpp:425] inception_5b/relu_5x5 <- inception_5b/5x5
I0403 15:47:33.231928 11326 net.cpp:386] inception_5b/relu_5x5 -> inception_5b/5x5 (in-place)
I0403 15:47:33.232122 11326 net.cpp:141] Setting up inception_5b/relu_5x5
I0403 15:47:33.232148 11326 net.cpp:148] Top shape: 24 128 7 7 (150528)
I0403 15:47:33.232163 11326 net.cpp:156] Memory required for data: 1335929376
I0403 15:47:33.232177 11326 layer_factory.hpp:77] Creating layer inception_5b/pool
I0403 15:47:33.232194 11326 net.cpp:91] Creating Layer inception_5b/pool
I0403 15:47:33.232210 11326 net.cpp:425] inception_5b/pool <- inception_5a/output_inception_5a/output_0_split_3
I0403 15:47:33.232230 11326 net.cpp:399] inception_5b/pool -> inception_5b/pool
I0403 15:47:33.232301 11326 net.cpp:141] Setting up inception_5b/pool
I0403 15:47:33.232326 11326 net.cpp:148] Top shape: 24 832 7 7 (978432)
I0403 15:47:33.232341 11326 net.cpp:156] Memory required for data: 1339843104
I0403 15:47:33.232355 11326 layer_factory.hpp:77] Creating layer inception_5b/pool_proj
I0403 15:47:33.232374 11326 net.cpp:91] Creating Layer inception_5b/pool_proj
I0403 15:47:33.232390 11326 net.cpp:425] inception_5b/pool_proj <- inception_5b/pool
I0403 15:47:33.232411 11326 net.cpp:399] inception_5b/pool_proj -> inception_5b/pool_proj
I0403 15:47:33.234694 11326 net.cpp:141] Setting up inception_5b/pool_proj
I0403 15:47:33.234722 11326 net.cpp:148] Top shape: 24 128 7 7 (150528)
I0403 15:47:33.234738 11326 net.cpp:156] Memory required for data: 1340445216
I0403 15:47:33.234756 11326 layer_factory.hpp:77] Creating layer inception_5b/relu_pool_proj
I0403 15:47:33.234776 11326 net.cpp:91] Creating Layer inception_5b/relu_pool_proj
I0403 15:47:33.234793 11326 net.cpp:425] inception_5b/relu_pool_proj <- inception_5b/pool_proj
I0403 15:47:33.234810 11326 net.cpp:386] inception_5b/relu_pool_proj -> inception_5b/pool_proj (in-place)
I0403 15:47:33.235103 11326 net.cpp:141] Setting up inception_5b/relu_pool_proj
I0403 15:47:33.235129 11326 net.cpp:148] Top shape: 24 128 7 7 (150528)
I0403 15:47:33.235143 11326 net.cpp:156] Memory required for data: 1341047328
I0403 15:47:33.235157 11326 layer_factory.hpp:77] Creating layer inception_5b/output
I0403 15:47:33.235177 11326 net.cpp:91] Creating Layer inception_5b/output
I0403 15:47:33.235208 11326 net.cpp:425] inception_5b/output <- inception_5b/1x1
I0403 15:47:33.235226 11326 net.cpp:425] inception_5b/output <- inception_5b/3x3
I0403 15:47:33.235242 11326 net.cpp:425] inception_5b/output <- inception_5b/5x5
I0403 15:47:33.235258 11326 net.cpp:425] inception_5b/output <- inception_5b/pool_proj
I0403 15:47:33.235275 11326 net.cpp:399] inception_5b/output -> inception_5b/output
I0403 15:47:33.235328 11326 net.cpp:141] Setting up inception_5b/output
I0403 15:47:33.235352 11326 net.cpp:148] Top shape: 24 1024 7 7 (1204224)
I0403 15:47:33.235364 11326 net.cpp:156] Memory required for data: 1345864224
I0403 15:47:33.235378 11326 layer_factory.hpp:77] Creating layer pool5/7x7_s1
I0403 15:47:33.235395 11326 net.cpp:91] Creating Layer pool5/7x7_s1
I0403 15:47:33.235411 11326 net.cpp:425] pool5/7x7_s1 <- inception_5b/output
I0403 15:47:33.235431 11326 net.cpp:399] pool5/7x7_s1 -> pool5/7x7_s1
I0403 15:47:33.235641 11326 net.cpp:141] Setting up pool5/7x7_s1
I0403 15:47:33.235666 11326 net.cpp:148] Top shape: 24 1024 1 1 (24576)
I0403 15:47:33.235679 11326 net.cpp:156] Memory required for data: 1345962528
I0403 15:47:33.235694 11326 layer_factory.hpp:77] Creating layer pool5/drop_7x7_s1
I0403 15:47:33.235714 11326 net.cpp:91] Creating Layer pool5/drop_7x7_s1
I0403 15:47:33.235730 11326 net.cpp:425] pool5/drop_7x7_s1 <- pool5/7x7_s1
I0403 15:47:33.235748 11326 net.cpp:386] pool5/drop_7x7_s1 -> pool5/7x7_s1 (in-place)
I0403 15:47:33.235797 11326 net.cpp:141] Setting up pool5/drop_7x7_s1
I0403 15:47:33.235819 11326 net.cpp:148] Top shape: 24 1024 1 1 (24576)
I0403 15:47:33.235833 11326 net.cpp:156] Memory required for data: 1346060832
I0403 15:47:33.235847 11326 layer_factory.hpp:77] Creating layer loss3/classifier_plantvillage
I0403 15:47:33.235865 11326 net.cpp:91] Creating Layer loss3/classifier_plantvillage
I0403 15:47:33.235882 11326 net.cpp:425] loss3/classifier_plantvillage <- pool5/7x7_s1
I0403 15:47:33.235904 11326 net.cpp:399] loss3/classifier_plantvillage -> loss3/classifier_plantvillage
I0403 15:47:33.236330 11326 net.cpp:141] Setting up loss3/classifier_plantvillage
I0403 15:47:33.236352 11326 net.cpp:148] Top shape: 24 38 (912)
I0403 15:47:33.236366 11326 net.cpp:156] Memory required for data: 1346064480
I0403 15:47:33.236384 11326 layer_factory.hpp:77] Creating layer loss3/classifier_plantvillage_loss3/classifier_plantvillage_0_split
I0403 15:47:33.236402 11326 net.cpp:91] Creating Layer loss3/classifier_plantvillage_loss3/classifier_plantvillage_0_split
I0403 15:47:33.236418 11326 net.cpp:425] loss3/classifier_plantvillage_loss3/classifier_plantvillage_0_split <- loss3/classifier_plantvillage
I0403 15:47:33.236436 11326 net.cpp:399] loss3/classifier_plantvillage_loss3/classifier_plantvillage_0_split -> loss3/classifier_plantvillage_loss3/classifier_plantvillage_0_split_0
I0403 15:47:33.236456 11326 net.cpp:399] loss3/classifier_plantvillage_loss3/classifier_plantvillage_0_split -> loss3/classifier_plantvillage_loss3/classifier_plantvillage_0_split_1
I0403 15:47:33.236476 11326 net.cpp:399] loss3/classifier_plantvillage_loss3/classifier_plantvillage_0_split -> loss3/classifier_plantvillage_loss3/classifier_plantvillage_0_split_2
I0403 15:47:33.236496 11326 net.cpp:399] loss3/classifier_plantvillage_loss3/classifier_plantvillage_0_split -> loss3/classifier_plantvillage_loss3/classifier_plantvillage_0_split_3
I0403 15:47:33.236595 11326 net.cpp:141] Setting up loss3/classifier_plantvillage_loss3/classifier_plantvillage_0_split
I0403 15:47:33.236618 11326 net.cpp:148] Top shape: 24 38 (912)
I0403 15:47:33.236634 11326 net.cpp:148] Top shape: 24 38 (912)
I0403 15:47:33.236649 11326 net.cpp:148] Top shape: 24 38 (912)
I0403 15:47:33.236662 11326 net.cpp:148] Top shape: 24 38 (912)
I0403 15:47:33.236675 11326 net.cpp:156] Memory required for data: 1346079072
I0403 15:47:33.236690 11326 layer_factory.hpp:77] Creating layer loss1/loss
I0403 15:47:33.236711 11326 net.cpp:91] Creating Layer loss1/loss
I0403 15:47:33.236726 11326 net.cpp:425] loss1/loss <- loss1/classifier_plantvillage_loss1/classifier_plantvillage_0_split_0
I0403 15:47:33.236755 11326 net.cpp:425] loss1/loss <- label_data_1_split_0
…
