…
I0403 09:07:03.203001  4203 net.cpp:313] The NetState phase (0) differed from the phase (1) specified by a rule in layer accuracy
I0403 09:07:03.204638  4203 net.cpp:49] Initializing net from parameters: 
state {
  phase: TRAIN
}
layer {
  name: "data"
  type: "Data"
  top: "data"
  top: "label"
  include {
    phase: TRAIN
  }
  transform_param {
    mirror: true
    crop_size: 227
    mean_file: "/home/mohanty/data/final_dataset/lmdb/color-80-20/mean.binaryproto"
  }
  data_param {
    source: "/home/mohanty/data/final_dataset/lmdb/color-80-20/train_db"
    batch_size: 100
    backend: LMDB
  }
}
layer {
  name: "conv1"
  type: "Convolution"
  bottom: "data"
  top: "conv1"
  param {
    lr_mult: 1
    decay_mult: 1
  }
  param {
    lr_mult: 2
    decay_mult: 0
  }
  convolution_param {
    num_output: 96
    kernel_size: 11
    stride: 4
    weight_filler {
      type: "gaussian"
      std: 0.01
    }
    bias_filler {
      type: "constant"
      value: 0
    }
  }
}
layer {
  name: "relu1"
  type: "ReLU"
  bottom: "conv1"
  top: "conv1"
}
layer {
  name: "norm1"
  type: "LRN"
  bottom: "conv1"
  top: "norm1"
  lrn_param {
    local_size: 5
    alpha: 0.0001
    beta: 0.75
  }
}
layer {
  name: "pool1"
  type: "Pooling"
  bottom: "norm1"
  top: "pool1"
  pooling_param {
    pool: MAX
    kernel_size: 3
    stride: 2
  }
}
layer {
  name: "conv2"
  type: "Convolution"
  bottom: "pool1"
  top: "conv2"
  param {
    lr_mult: 1
    decay_mult: 1
  }
  param {
    lr_mult: 2
    decay_mult: 0
  }
  convolution_param {
    num_output: 256
    pad: 2
    kernel_size: 5
    group: 2
    weight_filler {
      type: "gaussian"
      std: 0.01
    }
    bias_filler {
      type: "constant"
      value: 0.1
    }
  }
}
layer {
  name: "relu2"
  type: "ReLU"
  bottom: "conv2"
  top: "conv2"
}
layer {
  name: "norm2"
  type: "LRN"
  bottom: "conv2"
  top: "norm2"
  lrn_param {
    local_size: 5
    alpha: 0.0001
    beta: 0.75
  }
}
layer {
  name: "pool2"
  type: "Pooling"
  bottom: "norm2"
  top: "pool2"
  pooling_param {
    pool: MAX
    kernel_size: 3
    stride: 2
  }
}
layer {
  name: "conv3"
  type: "Convolution"
  bottom: "pool2"
  top: "conv3"
  param {
    lr_mult: 1
    decay_mult: 1
  }
  param {
    lr_mult: 2
    decay_mult: 0
  }
  convolution_param {
    num_output: 384
    pad: 1
    kernel_size: 3
    weight_filler {
      type: "gaussian"
      std: 0.01
    }
    bias_filler {
      type: "constant"
      value: 0
    }
  }
}
layer {
  name: "relu3"
  type: "ReLU"
  bottom: "conv3"
  top: "conv3"
}
layer {
  name: "conv4"
  type: "Convolution"
  bottom: "conv3"
  top: "conv4"
  param {
    lr_mult: 1
    decay_mult: 1
  }
  param {
    lr_mult: 2
    decay_mult: 0
  }
  convolution_param {
    num_output: 384
    pad: 1
    kernel_size: 3
    group: 2
    weight_filler {
      type: "gaussian"
      std: 0.01
    }
    bias_filler {
      type: "constant"
      value: 0.1
    }
  }
}
layer {
  name: "relu4"
  type: "ReLU"
  bottom: "conv4"
  top: "conv4"
}
layer {
  name: "conv5"
  type: "Convolution"
  bottom: "conv4"
  top: "conv5"
  param {
    lr_mult: 1
    decay_mult: 1
  }
  param {
    lr_mult: 2
    decay_mult: 0
  }
  convolution_param {
    num_output: 256
    pad: 1
    kernel_size: 3
    group: 2
    weight_filler {
      type: "gaussian"
      std: 0.01
    }
    bias_filler {
      type: "constant"
      value: 0.1
    }
  }
}
layer {
  name: "relu5"
  type: "ReLU"
  bottom: "conv5"
  top: "conv5"
}
layer {
  name: "pool5"
  type: "Pooling"
  bottom: "conv5"
  top: "pool5"
  pooling_param {
    pool: MAX
    kernel_size: 3
    stride: 2
  }
}
layer {
  name: "fc6"
  type: "InnerProduct"
  bottom: "pool5"
  top: "fc6"
  param {
    lr_mult: 1
    decay_mult: 1
  }
  param {
    lr_mult: 2
    decay_mult: 0
  }
  inner_product_param {
    num_output: 4096
    weight_filler {
      type: "gaussian"
      std: 0.005
    }
    bias_filler {
      type: "constant"
      value: 0.1
    }
  }
}
layer {
  name: "relu6"
  type: "ReLU"
  bottom: "fc6"
  top: "fc6"
}
layer {
  name: "drop6"
  type: "Dropout"
  bottom: "fc6"
  top: "fc6"
  dropout_param {
    dropout_ratio: 0.5
  }
}
layer {
  name: "fc7"
  type: "InnerProduct"
  bottom: "fc6"
  top: "fc7"
  param {
    lr_mult: 1
    decay_mult: 1
  }
  param {
    lr_mult: 2
    decay_mult: 0
  }
  inner_product_param {
    num_output: 4096
    weight_filler {
      type: "gaussian"
      std: 0.005
    }
    bias_filler {
      type: "constant"
      value: 0.1
    }
  }
}
layer {
  name: "relu7"
  type: "ReLU"
  bottom: "fc7"
  top: "fc7"
}
layer {
  name: "drop7"
  type: "Dropout"
  bottom: "fc7"
  top: "fc7"
  dropout_param {
    dropout_ratio: 0.5
  }
}
layer {
  name: "fc8_plantvillage"
  type: "InnerProduct"
  bottom: "fc7"
  top: "fc8_plantvillage"
  param {
    lr_mult: 1
    decay_mult: 1
  }
  param {
    lr_mult: 2
    decay_mult: 0
  }
  inner_product_param {
    num_output: 38
    weight_filler {
      type: "gaussian"
      std: 0.01
    }
    bias_filler {
      type: "constant"
      value: 0
    }
  }
}
layer {
  name: "loss"
  type: "SoftmaxWithLoss"
  bottom: "fc8_plantvillage"
  bottom: "label"
  top: "loss"
}
I0403 09:07:03.205221  4203 layer_factory.hpp:77] Creating layer data
I0403 09:07:03.205909  4203 net.cpp:91] Creating Layer data
I0403 09:07:03.205945  4203 net.cpp:399] data -> data
I0403 09:07:03.206002  4203 net.cpp:399] data -> label
I0403 09:07:03.206040  4203 data_transformer.cpp:25] Loading mean file from: /home/mohanty/data/final_dataset/lmdb/color-80-20/mean.binaryproto
I0403 09:07:03.281615  4209 db_lmdb.cpp:38] Opened lmdb /home/mohanty/data/final_dataset/lmdb/color-80-20/train_db
I0403 09:07:03.332468  4203 data_layer.cpp:41] output data size: 100,3,227,227
I0403 09:07:03.450150  4203 net.cpp:141] Setting up data
I0403 09:07:03.450244  4203 net.cpp:148] Top shape: 100 3 227 227 (15458700)
I0403 09:07:03.450264  4203 net.cpp:148] Top shape: 100 (100)
I0403 09:07:03.450279  4203 net.cpp:156] Memory required for data: 61835200
I0403 09:07:03.450312  4203 layer_factory.hpp:77] Creating layer conv1
I0403 09:07:03.450361  4203 net.cpp:91] Creating Layer conv1
I0403 09:07:03.450383  4203 net.cpp:425] conv1 <- data
I0403 09:07:03.450417  4203 net.cpp:399] conv1 -> conv1
I0403 09:07:03.452946  4203 net.cpp:141] Setting up conv1
I0403 09:07:03.452975  4203 net.cpp:148] Top shape: 100 96 55 55 (29040000)
I0403 09:07:03.452991  4203 net.cpp:156] Memory required for data: 177995200
I0403 09:07:03.453028  4203 layer_factory.hpp:77] Creating layer relu1
I0403 09:07:03.453054  4203 net.cpp:91] Creating Layer relu1
I0403 09:07:03.453070  4203 net.cpp:425] relu1 <- conv1
I0403 09:07:03.453088  4203 net.cpp:386] relu1 -> conv1 (in-place)
I0403 09:07:03.453111  4203 net.cpp:141] Setting up relu1
I0403 09:07:03.453130  4203 net.cpp:148] Top shape: 100 96 55 55 (29040000)
I0403 09:07:03.453145  4203 net.cpp:156] Memory required for data: 294155200
I0403 09:07:03.453158  4203 layer_factory.hpp:77] Creating layer norm1
I0403 09:07:03.453178  4203 net.cpp:91] Creating Layer norm1
I0403 09:07:03.453236  4203 net.cpp:425] norm1 <- conv1
I0403 09:07:03.453255  4203 net.cpp:399] norm1 -> norm1
I0403 09:07:03.458921  4203 net.cpp:141] Setting up norm1
I0403 09:07:03.458955  4203 net.cpp:148] Top shape: 100 96 55 55 (29040000)
I0403 09:07:03.458971  4203 net.cpp:156] Memory required for data: 410315200
I0403 09:07:03.458986  4203 layer_factory.hpp:77] Creating layer pool1
I0403 09:07:03.459007  4203 net.cpp:91] Creating Layer pool1
I0403 09:07:03.459023  4203 net.cpp:425] pool1 <- norm1
I0403 09:07:03.459040  4203 net.cpp:399] pool1 -> pool1
I0403 09:07:03.459103  4203 net.cpp:141] Setting up pool1
I0403 09:07:03.459127  4203 net.cpp:148] Top shape: 100 96 27 27 (6998400)
I0403 09:07:03.459142  4203 net.cpp:156] Memory required for data: 438308800
I0403 09:07:03.459156  4203 layer_factory.hpp:77] Creating layer conv2
I0403 09:07:03.459178  4203 net.cpp:91] Creating Layer conv2
I0403 09:07:03.459193  4203 net.cpp:425] conv2 <- pool1
I0403 09:07:03.459213  4203 net.cpp:399] conv2 -> conv2
I0403 09:07:03.460397  4210 blocking_queue.cpp:50] Waiting for data
I0403 09:07:03.472018  4203 net.cpp:141] Setting up conv2
I0403 09:07:03.472045  4203 net.cpp:148] Top shape: 100 256 27 27 (18662400)
I0403 09:07:03.472060  4203 net.cpp:156] Memory required for data: 512958400
I0403 09:07:03.472081  4203 layer_factory.hpp:77] Creating layer relu2
I0403 09:07:03.472100  4203 net.cpp:91] Creating Layer relu2
I0403 09:07:03.472115  4203 net.cpp:425] relu2 <- conv2
I0403 09:07:03.472132  4203 net.cpp:386] relu2 -> conv2 (in-place)
I0403 09:07:03.472151  4203 net.cpp:141] Setting up relu2
I0403 09:07:03.472167  4203 net.cpp:148] Top shape: 100 256 27 27 (18662400)
I0403 09:07:03.472180  4203 net.cpp:156] Memory required for data: 587608000
I0403 09:07:03.472193  4203 layer_factory.hpp:77] Creating layer norm2
I0403 09:07:03.472211  4203 net.cpp:91] Creating Layer norm2
I0403 09:07:03.472225  4203 net.cpp:425] norm2 <- conv2
I0403 09:07:03.472242  4203 net.cpp:399] norm2 -> norm2
I0403 09:07:03.472285  4203 net.cpp:141] Setting up norm2
I0403 09:07:03.472306  4203 net.cpp:148] Top shape: 100 256 27 27 (18662400)
I0403 09:07:03.472319  4203 net.cpp:156] Memory required for data: 662257600
I0403 09:07:03.472333  4203 layer_factory.hpp:77] Creating layer pool2
I0403 09:07:03.472352  4203 net.cpp:91] Creating Layer pool2
I0403 09:07:03.472368  4203 net.cpp:425] pool2 <- norm2
I0403 09:07:03.472384  4203 net.cpp:399] pool2 -> pool2
I0403 09:07:03.472425  4203 net.cpp:141] Setting up pool2
I0403 09:07:03.472446  4203 net.cpp:148] Top shape: 100 256 13 13 (4326400)
I0403 09:07:03.472460  4203 net.cpp:156] Memory required for data: 679563200
I0403 09:07:03.472473  4203 layer_factory.hpp:77] Creating layer conv3
I0403 09:07:03.472494  4203 net.cpp:91] Creating Layer conv3
I0403 09:07:03.472513  4203 net.cpp:425] conv3 <- pool2
I0403 09:07:03.472533  4203 net.cpp:399] conv3 -> conv3
I0403 09:07:03.504396  4203 net.cpp:141] Setting up conv3
I0403 09:07:03.504425  4203 net.cpp:148] Top shape: 100 384 13 13 (6489600)
I0403 09:07:03.504441  4203 net.cpp:156] Memory required for data: 705521600
I0403 09:07:03.504461  4203 layer_factory.hpp:77] Creating layer relu3
I0403 09:07:03.504478  4203 net.cpp:91] Creating Layer relu3
I0403 09:07:03.504494  4203 net.cpp:425] relu3 <- conv3
I0403 09:07:03.504523  4203 net.cpp:386] relu3 -> conv3 (in-place)
I0403 09:07:03.504544  4203 net.cpp:141] Setting up relu3
I0403 09:07:03.504560  4203 net.cpp:148] Top shape: 100 384 13 13 (6489600)
I0403 09:07:03.504575  4203 net.cpp:156] Memory required for data: 731480000
I0403 09:07:03.504588  4203 layer_factory.hpp:77] Creating layer conv4
I0403 09:07:03.504608  4203 net.cpp:91] Creating Layer conv4
I0403 09:07:03.504624  4203 net.cpp:425] conv4 <- conv3
I0403 09:07:03.504642  4203 net.cpp:399] conv4 -> conv4
I0403 09:07:03.528831  4203 net.cpp:141] Setting up conv4
I0403 09:07:03.528862  4203 net.cpp:148] Top shape: 100 384 13 13 (6489600)
I0403 09:07:03.528878  4203 net.cpp:156] Memory required for data: 757438400
I0403 09:07:03.528911  4203 layer_factory.hpp:77] Creating layer relu4
I0403 09:07:03.528930  4203 net.cpp:91] Creating Layer relu4
I0403 09:07:03.528945  4203 net.cpp:425] relu4 <- conv4
I0403 09:07:03.528962  4203 net.cpp:386] relu4 -> conv4 (in-place)
I0403 09:07:03.528980  4203 net.cpp:141] Setting up relu4
I0403 09:07:03.528997  4203 net.cpp:148] Top shape: 100 384 13 13 (6489600)
I0403 09:07:03.529011  4203 net.cpp:156] Memory required for data: 783396800
I0403 09:07:03.529023  4203 layer_factory.hpp:77] Creating layer conv5
I0403 09:07:03.529044  4203 net.cpp:91] Creating Layer conv5
I0403 09:07:03.529059  4203 net.cpp:425] conv5 <- conv4
I0403 09:07:03.529078  4203 net.cpp:399] conv5 -> conv5
I0403 09:07:03.545238  4203 net.cpp:141] Setting up conv5
I0403 09:07:03.545266  4203 net.cpp:148] Top shape: 100 256 13 13 (4326400)
I0403 09:07:03.545282  4203 net.cpp:156] Memory required for data: 800702400
I0403 09:07:03.545305  4203 layer_factory.hpp:77] Creating layer relu5
I0403 09:07:03.545325  4203 net.cpp:91] Creating Layer relu5
I0403 09:07:03.545339  4203 net.cpp:425] relu5 <- conv5
I0403 09:07:03.545357  4203 net.cpp:386] relu5 -> conv5 (in-place)
I0403 09:07:03.545375  4203 net.cpp:141] Setting up relu5
I0403 09:07:03.545392  4203 net.cpp:148] Top shape: 100 256 13 13 (4326400)
I0403 09:07:03.545405  4203 net.cpp:156] Memory required for data: 818008000
I0403 09:07:03.545418  4203 layer_factory.hpp:77] Creating layer pool5
I0403 09:07:03.545435  4203 net.cpp:91] Creating Layer pool5
I0403 09:07:03.545450  4203 net.cpp:425] pool5 <- conv5
I0403 09:07:03.545467  4203 net.cpp:399] pool5 -> pool5
I0403 09:07:03.545521  4203 net.cpp:141] Setting up pool5
I0403 09:07:03.545544  4203 net.cpp:148] Top shape: 100 256 6 6 (921600)
I0403 09:07:03.545558  4203 net.cpp:156] Memory required for data: 821694400
I0403 09:07:03.545572  4203 layer_factory.hpp:77] Creating layer fc6
I0403 09:07:03.545598  4203 net.cpp:91] Creating Layer fc6
I0403 09:07:03.545614  4203 net.cpp:425] fc6 <- pool5
I0403 09:07:03.545634  4203 net.cpp:399] fc6 -> fc6
I0403 09:07:04.900485  4203 net.cpp:141] Setting up fc6
I0403 09:07:04.900575  4203 net.cpp:148] Top shape: 100 4096 (409600)
I0403 09:07:04.900593  4203 net.cpp:156] Memory required for data: 823332800
I0403 09:07:04.900614  4203 layer_factory.hpp:77] Creating layer relu6
I0403 09:07:04.900640  4203 net.cpp:91] Creating Layer relu6
I0403 09:07:04.900656  4203 net.cpp:425] relu6 <- fc6
I0403 09:07:04.900676  4203 net.cpp:386] relu6 -> fc6 (in-place)
I0403 09:07:04.900699  4203 net.cpp:141] Setting up relu6
I0403 09:07:04.900715  4203 net.cpp:148] Top shape: 100 4096 (409600)
I0403 09:07:04.900728  4203 net.cpp:156] Memory required for data: 824971200
I0403 09:07:04.900743  4203 layer_factory.hpp:77] Creating layer drop6
I0403 09:07:04.900769  4203 net.cpp:91] Creating Layer drop6
I0403 09:07:04.900785  4203 net.cpp:425] drop6 <- fc6
I0403 09:07:04.900804  4203 net.cpp:386] drop6 -> fc6 (in-place)
I0403 09:07:04.900849  4203 net.cpp:141] Setting up drop6
I0403 09:07:04.900871  4203 net.cpp:148] Top shape: 100 4096 (409600)
I0403 09:07:04.900884  4203 net.cpp:156] Memory required for data: 826609600
I0403 09:07:04.900897  4203 layer_factory.hpp:77] Creating layer fc7
I0403 09:07:04.900918  4203 net.cpp:91] Creating Layer fc7
I0403 09:07:04.900934  4203 net.cpp:425] fc7 <- fc6
I0403 09:07:04.900954  4203 net.cpp:399] fc7 -> fc7
I0403 09:07:05.503221  4203 net.cpp:141] Setting up fc7
I0403 09:07:05.503305  4203 net.cpp:148] Top shape: 100 4096 (409600)
I0403 09:07:05.503321  4203 net.cpp:156] Memory required for data: 828248000
I0403 09:07:05.503343  4203 layer_factory.hpp:77] Creating layer relu7
I0403 09:07:05.503371  4203 net.cpp:91] Creating Layer relu7
I0403 09:07:05.503387  4203 net.cpp:425] relu7 <- fc7
I0403 09:07:05.503407  4203 net.cpp:386] relu7 -> fc7 (in-place)
I0403 09:07:05.503432  4203 net.cpp:141] Setting up relu7
I0403 09:07:05.503449  4203 net.cpp:148] Top shape: 100 4096 (409600)
I0403 09:07:05.503463  4203 net.cpp:156] Memory required for data: 829886400
I0403 09:07:05.503476  4203 layer_factory.hpp:77] Creating layer drop7
I0403 09:07:05.503573  4203 net.cpp:91] Creating Layer drop7
I0403 09:07:05.503592  4203 net.cpp:425] drop7 <- fc7
I0403 09:07:05.503608  4203 net.cpp:386] drop7 -> fc7 (in-place)
I0403 09:07:05.503649  4203 net.cpp:141] Setting up drop7
I0403 09:07:05.503671  4203 net.cpp:148] Top shape: 100 4096 (409600)
I0403 09:07:05.503685  4203 net.cpp:156] Memory required for data: 831524800
I0403 09:07:05.503700  4203 layer_factory.hpp:77] Creating layer fc8_plantvillage
I0403 09:07:05.503720  4203 net.cpp:91] Creating Layer fc8_plantvillage
I0403 09:07:05.503738  4203 net.cpp:425] fc8_plantvillage <- fc7
I0403 09:07:05.503757  4203 net.cpp:399] fc8_plantvillage -> fc8_plantvillage
I0403 09:07:05.509848  4203 net.cpp:141] Setting up fc8_plantvillage
I0403 09:07:05.509877  4203 net.cpp:148] Top shape: 100 38 (3800)
I0403 09:07:05.509893  4203 net.cpp:156] Memory required for data: 831540000
I0403 09:07:05.509923  4203 layer_factory.hpp:77] Creating layer loss
I0403 09:07:05.509950  4203 net.cpp:91] Creating Layer loss
I0403 09:07:05.509968  4203 net.cpp:425] loss <- fc8_plantvillage
I0403 09:07:05.509984  4203 net.cpp:425] loss <- label
I0403 09:07:05.510004  4203 net.cpp:399] loss -> loss
I0403 09:07:05.510031  4203 layer_factory.hpp:77] Creating layer loss
…
I0403 09:07:05.511685  4203 net.cpp:313] The NetState phase (1) differed from the phase (0) specified by a rule in layer data
I0403 09:07:05.512295  4203 net.cpp:49] Initializing net from parameters: 
state {
  phase: TEST
}
layer {
  name: "data"
  type: "Data"
  top: "data"
  top: "label"
  include {
    phase: TEST
  }
  transform_param {
    crop_size: 227
    mean_file: "/home/mohanty/data/final_dataset/lmdb/color-80-20/mean.binaryproto"
  }
  data_param {
    source: "/home/mohanty/data/final_dataset/lmdb/color-80-20/test_db"
    batch_size: 100
    backend: LMDB
  }
}
layer {
  name: "conv1"
  type: "Convolution"
  bottom: "data"
  top: "conv1"
  param {
    lr_mult: 1
    decay_mult: 1
  }
  param {
    lr_mult: 2
    decay_mult: 0
  }
  convolution_param {
    num_output: 96
    kernel_size: 11
    stride: 4
    weight_filler {
      type: "gaussian"
      std: 0.01
    }
    bias_filler {
      type: "constant"
      value: 0
    }
  }
}
layer {
  name: "relu1"
  type: "ReLU"
  bottom: "conv1"
  top: "conv1"
}
layer {
  name: "norm1"
  type: "LRN"
  bottom: "conv1"
  top: "norm1"
  lrn_param {
    local_size: 5
    alpha: 0.0001
    beta: 0.75
  }
}
layer {
  name: "pool1"
  type: "Pooling"
  bottom: "norm1"
  top: "pool1"
  pooling_param {
    pool: MAX
    kernel_size: 3
    stride: 2
  }
}
layer {
  name: "conv2"
  type: "Convolution"
  bottom: "pool1"
  top: "conv2"
  param {
    lr_mult: 1
    decay_mult: 1
  }
  param {
    lr_mult: 2
    decay_mult: 0
  }
  convolution_param {
    num_output: 256
    pad: 2
    kernel_size: 5
    group: 2
    weight_filler {
      type: "gaussian"
      std: 0.01
    }
    bias_filler {
      type: "constant"
      value: 0.1
    }
  }
}
layer {
  name: "relu2"
  type: "ReLU"
  bottom: "conv2"
  top: "conv2"
}
layer {
  name: "norm2"
  type: "LRN"
  bottom: "conv2"
  top: "norm2"
  lrn_param {
    local_size: 5
    alpha: 0.0001
    beta: 0.75
  }
}
layer {
  name: "pool2"
  type: "Pooling"
  bottom: "norm2"
  top: "pool2"
  pooling_param {
    pool: MAX
    kernel_size: 3
    stride: 2
  }
}
layer {
  name: "conv3"
  type: "Convolution"
  bottom: "pool2"
  top: "conv3"
  param {
    lr_mult: 1
    decay_mult: 1
  }
  param {
    lr_mult: 2
    decay_mult: 0
  }
  convolution_param {
    num_output: 384
    pad: 1
    kernel_size: 3
    weight_filler {
      type: "gaussian"
      std: 0.01
    }
    bias_filler {
      type: "constant"
      value: 0
    }
  }
}
layer {
  name: "relu3"
  type: "ReLU"
  bottom: "conv3"
  top: "conv3"
}
layer {
  name: "conv4"
  type: "Convolution"
  bottom: "conv3"
  top: "conv4"
  param {
    lr_mult: 1
    decay_mult: 1
  }
  param {
    lr_mult: 2
    decay_mult: 0
  }
  convolution_param {
    num_output: 384
    pad: 1
    kernel_size: 3
    group: 2
    weight_filler {
      type: "gaussian"
      std: 0.01
    }
    bias_filler {
      type: "constant"
      value: 0.1
    }
  }
}
layer {
  name: "relu4"
  type: "ReLU"
  bottom: "conv4"
  top: "conv4"
}
layer {
  name: "conv5"
  type: "Convolution"
  bottom: "conv4"
  top: "conv5"
  param {
    lr_mult: 1
    decay_mult: 1
  }
  param {
    lr_mult: 2
    decay_mult: 0
  }
  convolution_param {
    num_output: 256
    pad: 1
    kernel_size: 3
    group: 2
    weight_filler {
      type: "gaussian"
      std: 0.01
    }
    bias_filler {
      type: "constant"
      value: 0.1
    }
  }
}
layer {
  name: "relu5"
  type: "ReLU"
  bottom: "conv5"
  top: "conv5"
}
layer {
  name: "pool5"
  type: "Pooling"
  bottom: "conv5"
  top: "pool5"
  pooling_param {
    pool: MAX
    kernel_size: 3
    stride: 2
  }
}
layer {
  name: "fc6"
  type: "InnerProduct"
  bottom: "pool5"
  top: "fc6"
  param {
    lr_mult: 1
    decay_mult: 1
  }
  param {
    lr_mult: 2
    decay_mult: 0
  }
  inner_product_param {
    num_output: 4096
    weight_filler {
      type: "gaussian"
      std: 0.005
    }
    bias_filler {
      type: "constant"
      value: 0.1
    }
  }
}
layer {
  name: "relu6"
  type: "ReLU"
  bottom: "fc6"
  top: "fc6"
}
layer {
  name: "drop6"
  type: "Dropout"
  bottom: "fc6"
  top: "fc6"
  dropout_param {
    dropout_ratio: 0.5
  }
}
layer {
  name: "fc7"
  type: "InnerProduct"
  bottom: "fc6"
  top: "fc7"
  param {
    lr_mult: 1
    decay_mult: 1
  }
  param {
    lr_mult: 2
    decay_mult: 0
  }
  inner_product_param {
    num_output: 4096
    weight_filler {
      type: "gaussian"
      std: 0.005
    }
    bias_filler {
      type: "constant"
      value: 0.1
    }
  }
}
layer {
  name: "relu7"
  type: "ReLU"
  bottom: "fc7"
  top: "fc7"
}
layer {
  name: "drop7"
  type: "Dropout"
  bottom: "fc7"
  top: "fc7"
  dropout_param {
    dropout_ratio: 0.5
  }
}
layer {
  name: "fc8_plantvillage"
  type: "InnerProduct"
  bottom: "fc7"
  top: "fc8_plantvillage"
  param {
    lr_mult: 1
    decay_mult: 1
  }
  param {
    lr_mult: 2
    decay_mult: 0
  }
  inner_product_param {
    num_output: 38
    weight_filler {
      type: "gaussian"
      std: 0.01
    }
    bias_filler {
      type: "constant"
      value: 0
    }
  }
}
layer {
  name: "loss"
  type: "SoftmaxWithLoss"
  bottom: "fc8_plantvillage"
  bottom: "label"
  top: "loss"
}
layer {
  name: "accuracy"
  type: "Accuracy"
  bottom: "fc8_plantvillage"
  bottom: "label"
  top: "accuracy"
  include {
    phase: TEST
  }
}
I0403 09:07:05.512451  4203 layer_factory.hpp:77] Creating layer data
I0403 09:07:05.512625  4203 net.cpp:91] Creating Layer data
I0403 09:07:05.512653  4203 net.cpp:399] data -> data
I0403 09:07:05.512678  4203 net.cpp:399] data -> label
I0403 09:07:05.512701  4203 data_transformer.cpp:25] Loading mean file from: /home/mohanty/data/final_dataset/lmdb/color-80-20/mean.binaryproto
I0403 09:07:05.554126  4211 db_lmdb.cpp:38] Opened lmdb /home/mohanty/data/final_dataset/lmdb/color-80-20/test_db
I0403 09:07:05.579756  4203 data_layer.cpp:41] output data size: 100,3,227,227
I0403 09:07:05.744568  4203 net.cpp:141] Setting up data
I0403 09:07:05.744644  4203 net.cpp:148] Top shape: 100 3 227 227 (15458700)
I0403 09:07:05.744670  4203 net.cpp:148] Top shape: 100 (100)
I0403 09:07:05.744688  4203 net.cpp:156] Memory required for data: 61835200
I0403 09:07:05.744709  4203 layer_factory.hpp:77] Creating layer label_data_1_split
I0403 09:07:05.744743  4203 net.cpp:91] Creating Layer label_data_1_split
I0403 09:07:05.744767  4203 net.cpp:425] label_data_1_split <- label
I0403 09:07:05.744797  4203 net.cpp:399] label_data_1_split -> label_data_1_split_0
I0403 09:07:05.744827  4203 net.cpp:399] label_data_1_split -> label_data_1_split_1
I0403 09:07:05.744896  4203 net.cpp:141] Setting up label_data_1_split
I0403 09:07:05.744925  4203 net.cpp:148] Top shape: 100 (100)
I0403 09:07:05.744946  4203 net.cpp:148] Top shape: 100 (100)
I0403 09:07:05.744961  4203 net.cpp:156] Memory required for data: 61836000
I0403 09:07:05.744979  4203 layer_factory.hpp:77] Creating layer conv1
I0403 09:07:05.745014  4203 net.cpp:91] Creating Layer conv1
I0403 09:07:05.745038  4203 net.cpp:425] conv1 <- data
I0403 09:07:05.745061  4203 net.cpp:399] conv1 -> conv1
I0403 09:07:05.746672  4203 net.cpp:141] Setting up conv1
I0403 09:07:05.746706  4203 net.cpp:148] Top shape: 100 96 55 55 (29040000)
I0403 09:07:05.746727  4203 net.cpp:156] Memory required for data: 177996000
I0403 09:07:05.746753  4203 layer_factory.hpp:77] Creating layer relu1
I0403 09:07:05.746780  4203 net.cpp:91] Creating Layer relu1
I0403 09:07:05.746803  4203 net.cpp:425] relu1 <- conv1
I0403 09:07:05.746829  4203 net.cpp:386] relu1 -> conv1 (in-place)
I0403 09:07:05.746851  4203 net.cpp:141] Setting up relu1
I0403 09:07:05.746873  4203 net.cpp:148] Top shape: 100 96 55 55 (29040000)
I0403 09:07:05.746894  4203 net.cpp:156] Memory required for data: 294156000
I0403 09:07:05.746917  4203 layer_factory.hpp:77] Creating layer norm1
I0403 09:07:05.746938  4203 net.cpp:91] Creating Layer norm1
I0403 09:07:05.746959  4203 net.cpp:425] norm1 <- conv1
I0403 09:07:05.746983  4203 net.cpp:399] norm1 -> norm1
I0403 09:07:05.747045  4203 net.cpp:141] Setting up norm1
I0403 09:07:05.747073  4203 net.cpp:148] Top shape: 100 96 55 55 (29040000)
I0403 09:07:05.747097  4203 net.cpp:156] Memory required for data: 410316000
I0403 09:07:05.747119  4203 layer_factory.hpp:77] Creating layer pool1
I0403 09:07:05.747148  4203 net.cpp:91] Creating Layer pool1
I0403 09:07:05.747164  4203 net.cpp:425] pool1 <- norm1
I0403 09:07:05.747189  4203 net.cpp:399] pool1 -> pool1
I0403 09:07:05.747248  4203 net.cpp:141] Setting up pool1
I0403 09:07:05.747275  4203 net.cpp:148] Top shape: 100 96 27 27 (6998400)
I0403 09:07:05.747298  4203 net.cpp:156] Memory required for data: 438309600
I0403 09:07:05.747340  4203 layer_factory.hpp:77] Creating layer conv2
I0403 09:07:05.747371  4203 net.cpp:91] Creating Layer conv2
I0403 09:07:05.747396  4203 net.cpp:425] conv2 <- pool1
I0403 09:07:05.747424  4203 net.cpp:399] conv2 -> conv2
I0403 09:07:05.762548  4203 net.cpp:141] Setting up conv2
I0403 09:07:05.762593  4203 net.cpp:148] Top shape: 100 256 27 27 (18662400)
I0403 09:07:05.762610  4203 net.cpp:156] Memory required for data: 512959200
I0403 09:07:05.762634  4203 layer_factory.hpp:77] Creating layer relu2
I0403 09:07:05.762655  4203 net.cpp:91] Creating Layer relu2
I0403 09:07:05.762672  4203 net.cpp:425] relu2 <- conv2
I0403 09:07:05.762691  4203 net.cpp:386] relu2 -> conv2 (in-place)
I0403 09:07:05.762712  4203 net.cpp:141] Setting up relu2
I0403 09:07:05.762729  4203 net.cpp:148] Top shape: 100 256 27 27 (18662400)
I0403 09:07:05.762743  4203 net.cpp:156] Memory required for data: 587608800
I0403 09:07:05.762758  4203 layer_factory.hpp:77] Creating layer norm2
I0403 09:07:05.762778  4203 net.cpp:91] Creating Layer norm2
I0403 09:07:05.762794  4203 net.cpp:425] norm2 <- conv2
I0403 09:07:05.762812  4203 net.cpp:399] norm2 -> norm2
I0403 09:07:05.762862  4203 net.cpp:141] Setting up norm2
I0403 09:07:05.762884  4203 net.cpp:148] Top shape: 100 256 27 27 (18662400)
I0403 09:07:05.762899  4203 net.cpp:156] Memory required for data: 662258400
I0403 09:07:05.762914  4203 layer_factory.hpp:77] Creating layer pool2
I0403 09:07:05.762933  4203 net.cpp:91] Creating Layer pool2
I0403 09:07:05.762948  4203 net.cpp:425] pool2 <- norm2
I0403 09:07:05.762965  4203 net.cpp:399] pool2 -> pool2
I0403 09:07:05.763012  4203 net.cpp:141] Setting up pool2
I0403 09:07:05.763036  4203 net.cpp:148] Top shape: 100 256 13 13 (4326400)
I0403 09:07:05.763051  4203 net.cpp:156] Memory required for data: 679564000
I0403 09:07:05.763065  4203 layer_factory.hpp:77] Creating layer conv3
I0403 09:07:05.763087  4203 net.cpp:91] Creating Layer conv3
I0403 09:07:05.763104  4203 net.cpp:425] conv3 <- pool2
I0403 09:07:05.763123  4203 net.cpp:399] conv3 -> conv3
I0403 09:07:05.798589  4203 net.cpp:141] Setting up conv3
I0403 09:07:05.798629  4203 net.cpp:148] Top shape: 100 384 13 13 (6489600)
I0403 09:07:05.798646  4203 net.cpp:156] Memory required for data: 705522400
I0403 09:07:05.798671  4203 layer_factory.hpp:77] Creating layer relu3
I0403 09:07:05.798691  4203 net.cpp:91] Creating Layer relu3
I0403 09:07:05.798707  4203 net.cpp:425] relu3 <- conv3
I0403 09:07:05.798727  4203 net.cpp:386] relu3 -> conv3 (in-place)
I0403 09:07:05.798748  4203 net.cpp:141] Setting up relu3
I0403 09:07:05.798764  4203 net.cpp:148] Top shape: 100 384 13 13 (6489600)
I0403 09:07:05.798779  4203 net.cpp:156] Memory required for data: 731480800
I0403 09:07:05.798794  4203 layer_factory.hpp:77] Creating layer conv4
I0403 09:07:05.798815  4203 net.cpp:91] Creating Layer conv4
I0403 09:07:05.798832  4203 net.cpp:425] conv4 <- conv3
I0403 09:07:05.798852  4203 net.cpp:399] conv4 -> conv4
I0403 09:07:05.825709  4203 net.cpp:141] Setting up conv4
I0403 09:07:05.825747  4203 net.cpp:148] Top shape: 100 384 13 13 (6489600)
I0403 09:07:05.825770  4203 net.cpp:156] Memory required for data: 757439200
I0403 09:07:05.825796  4203 layer_factory.hpp:77] Creating layer relu4
I0403 09:07:05.825824  4203 net.cpp:91] Creating Layer relu4
I0403 09:07:05.825847  4203 net.cpp:425] relu4 <- conv4
I0403 09:07:05.825867  4203 net.cpp:386] relu4 -> conv4 (in-place)
I0403 09:07:05.825893  4203 net.cpp:141] Setting up relu4
I0403 09:07:05.825911  4203 net.cpp:148] Top shape: 100 384 13 13 (6489600)
I0403 09:07:05.825925  4203 net.cpp:156] Memory required for data: 783397600
I0403 09:07:05.825939  4203 layer_factory.hpp:77] Creating layer conv5
I0403 09:07:05.825960  4203 net.cpp:91] Creating Layer conv5
I0403 09:07:05.825978  4203 net.cpp:425] conv5 <- conv4
I0403 09:07:05.825996  4203 net.cpp:399] conv5 -> conv5
I0403 09:07:05.843509  4203 net.cpp:141] Setting up conv5
I0403 09:07:05.843540  4203 net.cpp:148] Top shape: 100 256 13 13 (4326400)
I0403 09:07:05.843556  4203 net.cpp:156] Memory required for data: 800703200
I0403 09:07:05.843611  4203 layer_factory.hpp:77] Creating layer relu5
I0403 09:07:05.843631  4203 net.cpp:91] Creating Layer relu5
I0403 09:07:05.843647  4203 net.cpp:425] relu5 <- conv5
I0403 09:07:05.843664  4203 net.cpp:386] relu5 -> conv5 (in-place)
I0403 09:07:05.843684  4203 net.cpp:141] Setting up relu5
I0403 09:07:05.843701  4203 net.cpp:148] Top shape: 100 256 13 13 (4326400)
I0403 09:07:05.843715  4203 net.cpp:156] Memory required for data: 818008800
I0403 09:07:05.843729  4203 layer_factory.hpp:77] Creating layer pool5
I0403 09:07:05.843750  4203 net.cpp:91] Creating Layer pool5
I0403 09:07:05.843767  4203 net.cpp:425] pool5 <- conv5
I0403 09:07:05.843787  4203 net.cpp:399] pool5 -> pool5
I0403 09:07:05.843844  4203 net.cpp:141] Setting up pool5
I0403 09:07:05.843874  4203 net.cpp:148] Top shape: 100 256 6 6 (921600)
I0403 09:07:05.843896  4203 net.cpp:156] Memory required for data: 821695200
I0403 09:07:05.843919  4203 layer_factory.hpp:77] Creating layer fc6
I0403 09:07:05.843948  4203 net.cpp:91] Creating Layer fc6
I0403 09:07:05.843967  4203 net.cpp:425] fc6 <- pool5
I0403 09:07:05.843986  4203 net.cpp:399] fc6 -> fc6
I0403 09:07:07.231175  4203 net.cpp:141] Setting up fc6
I0403 09:07:07.231258  4203 net.cpp:148] Top shape: 100 4096 (409600)
I0403 09:07:07.231273  4203 net.cpp:156] Memory required for data: 823333600
I0403 09:07:07.231295  4203 layer_factory.hpp:77] Creating layer relu6
I0403 09:07:07.231319  4203 net.cpp:91] Creating Layer relu6
I0403 09:07:07.231336  4203 net.cpp:425] relu6 <- fc6
I0403 09:07:07.231356  4203 net.cpp:386] relu6 -> fc6 (in-place)
I0403 09:07:07.231379  4203 net.cpp:141] Setting up relu6
I0403 09:07:07.231395  4203 net.cpp:148] Top shape: 100 4096 (409600)
I0403 09:07:07.231407  4203 net.cpp:156] Memory required for data: 824972000
I0403 09:07:07.231420  4203 layer_factory.hpp:77] Creating layer drop6
I0403 09:07:07.231443  4203 net.cpp:91] Creating Layer drop6
I0403 09:07:07.231461  4203 net.cpp:425] drop6 <- fc6
I0403 09:07:07.231477  4203 net.cpp:386] drop6 -> fc6 (in-place)
I0403 09:07:07.231518  4203 net.cpp:141] Setting up drop6
I0403 09:07:07.231539  4203 net.cpp:148] Top shape: 100 4096 (409600)
I0403 09:07:07.231554  4203 net.cpp:156] Memory required for data: 826610400
I0403 09:07:07.231567  4203 layer_factory.hpp:77] Creating layer fc7
I0403 09:07:07.231587  4203 net.cpp:91] Creating Layer fc7
I0403 09:07:07.231602  4203 net.cpp:425] fc7 <- fc6
I0403 09:07:07.231623  4203 net.cpp:399] fc7 -> fc7
I0403 09:07:07.833289  4203 net.cpp:141] Setting up fc7
I0403 09:07:07.833374  4203 net.cpp:148] Top shape: 100 4096 (409600)
I0403 09:07:07.833389  4203 net.cpp:156] Memory required for data: 828248800
I0403 09:07:07.833410  4203 layer_factory.hpp:77] Creating layer relu7
I0403 09:07:07.833436  4203 net.cpp:91] Creating Layer relu7
I0403 09:07:07.833452  4203 net.cpp:425] relu7 <- fc7
I0403 09:07:07.833475  4203 net.cpp:386] relu7 -> fc7 (in-place)
I0403 09:07:07.833499  4203 net.cpp:141] Setting up relu7
I0403 09:07:07.833519  4203 net.cpp:148] Top shape: 100 4096 (409600)
I0403 09:07:07.833534  4203 net.cpp:156] Memory required for data: 829887200
I0403 09:07:07.833549  4203 layer_factory.hpp:77] Creating layer drop7
I0403 09:07:07.833567  4203 net.cpp:91] Creating Layer drop7
I0403 09:07:07.833582  4203 net.cpp:425] drop7 <- fc7
I0403 09:07:07.833598  4203 net.cpp:386] drop7 -> fc7 (in-place)
I0403 09:07:07.833638  4203 net.cpp:141] Setting up drop7
I0403 09:07:07.833659  4203 net.cpp:148] Top shape: 100 4096 (409600)
I0403 09:07:07.833673  4203 net.cpp:156] Memory required for data: 831525600
I0403 09:07:07.833688  4203 layer_factory.hpp:77] Creating layer fc8_plantvillage
I0403 09:07:07.833708  4203 net.cpp:91] Creating Layer fc8_plantvillage
I0403 09:07:07.833725  4203 net.cpp:425] fc8_plantvillage <- fc7
I0403 09:07:07.833742  4203 net.cpp:399] fc8_plantvillage -> fc8_plantvillage
I0403 09:07:07.839710  4203 net.cpp:141] Setting up fc8_plantvillage
I0403 09:07:07.839738  4203 net.cpp:148] Top shape: 100 38 (3800)
I0403 09:07:07.839790  4203 net.cpp:156] Memory required for data: 831540800
I0403 09:07:07.839809  4203 layer_factory.hpp:77] Creating layer fc8_plantvillage_fc8_plantvillage_0_split
I0403 09:07:07.839830  4203 net.cpp:91] Creating Layer fc8_plantvillage_fc8_plantvillage_0_split
I0403 09:07:07.839846  4203 net.cpp:425] fc8_plantvillage_fc8_plantvillage_0_split <- fc8_plantvillage
I0403 09:07:07.839864  4203 net.cpp:399] fc8_plantvillage_fc8_plantvillage_0_split -> fc8_plantvillage_fc8_plantvillage_0_split_0
I0403 09:07:07.839882  4203 net.cpp:399] fc8_plantvillage_fc8_plantvillage_0_split -> fc8_plantvillage_fc8_plantvillage_0_split_1
I0403 09:07:07.839931  4203 net.cpp:141] Setting up fc8_plantvillage_fc8_plantvillage_0_split
I0403 09:07:07.839953  4203 net.cpp:148] Top shape: 100 38 (3800)
I0403 09:07:07.839967  4203 net.cpp:148] Top shape: 100 38 (3800)
I0403 09:07:07.839980  4203 net.cpp:156] Memory required for data: 831571200
I0403 09:07:07.839994  4203 layer_factory.hpp:77] Creating layer loss
I0403 09:07:07.840013  4203 net.cpp:91] Creating Layer loss
I0403 09:07:07.840026  4203 net.cpp:425] loss <- fc8_plantvillage_fc8_plantvillage_0_split_0
I0403 09:07:07.840041  4203 net.cpp:425] loss <- label_data_1_split_0
I0403 09:07:07.840059  4203 net.cpp:399] loss -> loss
…
