…
I0403 04:07:54.821553 18812 net.cpp:313] The NetState phase (0) differed from the phase (1) specified by a rule in layer loss3/top-5
I0403 04:07:54.826645 18812 net.cpp:49] Initializing net from parameters: 
state {
  phase: TRAIN
}
layer {
  name: "data"
  type: "Data"
  top: "data"
  top: "label"
  include {
    phase: TRAIN
  }
  transform_param {
    mirror: true
    crop_size: 224
    mean_file: "/home/mohanty/data/final_dataset/lmdb/segmented-60-40/mean.binaryproto"
  }
  data_param {
    source: "/home/mohanty/data/final_dataset/lmdb/segmented-60-40/train_db"
    batch_size: 24
    backend: LMDB
  }
}
layer {
  name: "conv1/7x7_s2"
  type: "Convolution"
  bottom: "data"
  top: "conv1/7x7_s2"
  param {
    lr_mult: 1
    decay_mult: 1
  }
  param {
    lr_mult: 2
    decay_mult: 0
  }
  convolution_param {
    num_output: 64
    pad: 3
    kernel_size: 7
    stride: 2
    weight_filler {
      type: "xavier"
      std: 0.1
    }
    bias_filler {
      type: "constant"
      value: 0.2
    }
  }
}
layer {
  name: "conv1/relu_7x7"
  type: "ReLU"
  bottom: "conv1/7x7_s2"
  top: "conv1/7x7_s2"
}
layer {
  name: "pool1/3x3_s2"
  type: "Pooling"
  bottom: "conv1/7x7_s2"
  top: "pool1/3x3_s2"
  pooling_param {
    pool: MAX
    kernel_size: 3
    stride: 2
  }
}
layer {
  name: "pool1/norm1"
  type: "LRN"
  bottom: "pool1/3x3_s2"
  top: "pool1/norm1"
  lrn_param {
    local_size: 5
    alpha: 0.0001
    beta: 0.75
  }
}
layer {
  name: "conv2/3x3_reduce"
  type: "Convolution"
  bottom: "pool1/norm1"
  top: "conv2/3x3_reduce"
  param {
    lr_mult: 1
    decay_mult: 1
  }
  param {
    lr_mult: 2
    decay_mult: 0
  }
  convolution_param {
    num_output: 64
    kernel_size: 1
    weight_filler {
      type: "xavier"
      std: 0.1
    }
    bias_filler {
      type: "constant"
      value: 0.2
    }
  }
}
layer {
  name: "conv2/relu_3x3_reduce"
  type: "ReLU"
  bottom: "conv2/3x3_reduce"
  top: "conv2/3x3_reduce"
}
layer {
  name: "conv2/3x3"
  type: "Convolution"
  bottom: "conv2/3x3_reduce"
  top: "conv2/3x3"
  param {
    lr_mult: 1
    decay_mult: 1
  }
  param {
    lr_mult: 2
    decay_mult: 0
  }
  convolution_param {
    num_output: 192
    pad: 1
    kernel_size: 3
    weight_filler {
      type: "xavier"
      std: 0.03
    }
    bias_filler {
      type: "constant"
      value: 0.2
    }
  }
}
layer {
  name: "conv2/relu_3x3"
  type: "ReLU"
  bottom: "conv2/3x3"
  top: "conv2/3x3"
}
layer {
  name: "conv2/norm2"
  type: "LRN"
  bottom: "conv2/3x3"
  top: "conv2/norm2"
  lrn_param {
    local_size: 5
    alpha: 0.0001
    beta: 0.75
  }
}
layer {
  name: "pool2/3x3_s2"
  type: "Pooling"
  bottom: "conv2/norm2"
  top: "pool2/3x3_s2"
  pooling_param {
    pool: MAX
    kernel_size: 3
    stride: 2
  }
}
layer {
  name: "inception_3a/1x1"
  type: "Convolution"
  bottom: "pool2/3x3_s2"
  top: "inception_3a/1x1"
  param {
    lr_mult: 1
    decay_mult: 1
  }
  param {
    lr_mult: 2
    decay_mult: 0
  }
  convolution_param {
    num_output: 64
    kernel_size: 1
    weight_filler {
      type: "xavier"
      std: 0.03
    }
    bias_filler {
      type: "constant"
      value: 0.2
    }
  }
}
layer {
  name: "inception_3a/relu_1x1"
  type: "ReLU"
  bottom: "inception_3a/1x1"
  top: "inception_3a/1x1"
}
layer {
  name: "inception_3a/3x3_reduce"
  type: "Convolution"
  bottom: "pool2/3x3_s2"
  top: "inception_3a/3x3_reduce"
  param {
    lr_mult: 1
    decay_mult: 1
  }
  param {
    lr_mult: 2
    decay_mult: 0
  }
  convolution_param {
    num_output: 96
    kernel_size: 1
    weight_filler {
      type: "xavier"
      std: 0.09
    }
    bias_filler {
      type: "constant"
      value: 0.2
    }
  }
}
layer {
  name: "inception_3a/relu_3x3_reduce"
  type: "ReLU"
  bottom: "inception_3a/3x3_reduce"
  top: "inception_3a/3x3_reduce"
}
layer {
  name: "inception_3a/3x3"
  type: "Convolution"
  bottom: "inception_3a/3x3_reduce"
  top: "inception_3a/3x3"
  param {
    lr_mult: 1
    decay_mult: 1
  }
  param {
    lr_mult: 2
    decay_mult: 0
  }
  convolution_param {
    num_output: 128
    pad: 1
    kernel_size: 3
    weight_filler {
      type: "xavier"
      std: 0.03
    }
    bias_filler {
      type: "constant"
      value: 0.2
    }
  }
}
layer {
  name: "inception_3a/relu_3x3"
  type: "ReLU"
  bottom: "inception_3a/3x3"
  top: "inception_3a/3x3"
}
layer {
  name: "inception_3a/5x5_reduce"
  type: "Convolution"
  bottom: "pool2/3x3_s2"
  top: "inception_3a/5x5_reduce"
  param {
    lr_mult: 1
    decay_mult: 1
  }
  param {
    lr_mult: 2
    decay_mult: 0
  }
  convolution_param {
    num_output: 16
    kernel_size: 1
    weight_filler {
      type: "xavier"
      std: 0.2
    }
    bias_filler {
      type: "constant"
      value: 0.2
    }
  }
}
layer {
  name: "inception_3a/relu_5x5_reduce"
  type: "ReLU"
  bottom: "inception_3a/5x5_reduce"
  top: "inception_3a/5x5_reduce"
}
layer {
  name: "inception_3a/5x5"
  type: "Convolution"
  bottom: "inception_3a/5x5_reduce"
  top: "inception_3a/5x5"
  param {
    lr_mult: 1
    decay_mult: 1
  }
  param {
    lr_mult: 2
    decay_mult: 0
  }
  convolution_param {
    num_output: 32
    pad: 2
    kernel_size: 5
    weight_filler {
      type: "xavier"
      std: 0.03
    }
    bias_filler {
      type: "constant"
      value: 0.2
    }
  }
}
layer {
  name: "inception_3a/relu_5x5"
  type: "ReLU"
  bottom: "inception_3a/5x5"
  top: "inception_3a/5x5"
}
layer {
  name: "inception_3a/pool"
  type: "Pooling"
  bottom: "pool2/3x3_s2"
  top: "inception_3a/pool"
  pooling_param {
    pool: MAX
    kernel_size: 3
    stride: 1
    pad: 1
  }
}
layer {
  name: "inception_3a/pool_proj"
  type: "Convolution"
  bottom: "inception_3a/pool"
  top: "inception_3a/pool_proj"
  param {
    lr_mult: 1
    decay_mult: 1
  }
  param {
    lr_mult: 2
    decay_mult: 0
  }
  convolution_param {
    num_output: 32
    kernel_size: 1
    weight_filler {
      type: "xavier"
      std: 0.1
    }
    bias_filler {
      type: "constant"
      value: 0.2
    }
  }
}
layer {
  name: "inception_3a/relu_pool_proj"
  type: "ReLU"
  bottom: "inception_3a/pool_proj"
  top: "inception_3a/pool_proj"
}
layer {
  name: "inception_3a/output"
  type: "Concat"
  bottom: "inception_3a/1x1"
  bottom: "inception_3a/3x3"
  bottom: "inception_3a/5x5"
  bottom: "inception_3a/pool_proj"
  top: "inception_3a/output"
}
layer {
  name: "inception_3b/1x1"
  type: "Convolution"
  bottom: "inception_3a/output"
  top: "inception_3b/1x1"
  param {
    lr_mult: 1
    decay_mult: 1
  }
  param {
    lr_mult: 2
    decay_mult: 0
  }
  convolution_param {
    num_output: 128
    kernel_size: 1
    weight_filler {
      type: "xavier"
      std: 0.03
    }
    bias_filler {
      type: "constant"
      value: 0.2
    }
  }
}
layer {
  name: "inception_3b/relu_1x1"
  type: "ReLU"
  bottom: "inception_3b/1x1"
  top: "inception_3b/1x1"
}
layer {
  name: "inception_3b/3x3_reduce"
  type: "Convolution"
  bottom: "inception_3a/output"
  top: "inception_3b/3x3_reduce"
  param {
    lr_mult: 1
    decay_mult: 1
  }
  param {
    lr_mult: 2
    decay_mult: 0
  }
  convolution_param {
    num_output: 128
    kernel_size: 1
    weight_filler {
      type: "xavier"
      std: 0.09
    }
    bias_filler {
      type: "constant"
      value: 0.2
    }
  }
}
layer {
  name: "inception_3b/relu_3x3_reduce"
  type: "ReLU"
  bottom: "inception_3b/3x3_reduce"
  top: "inception_3b/3x3_reduce"
}
layer {
  name: "inception_3b/3x3"
  type: "Convolution"
  bottom: "inception_3b/3x3_reduce"
  top: "inception_3b/3x3"
  param {
    lr_mult: 1
    decay_mult: 1
  }
  param {
    lr_mult: 2
    decay_mult: 0
  }
  convolution_param {
    num_output: 192
    pad: 1
    kernel_size: 3
    weight_filler {
      type: "xavier"
      std: 0.03
    }
    bias_filler {
      type: "constant"
      value: 0.2
    }
  }
}
layer {
  name: "inception_3b/relu_3x3"
  type: "ReLU"
  bottom: "inception_3b/3x3"
  top: "inception_3b/3x3"
}
layer {
  name: "inception_3b/5x5_reduce"
  type: "Convolution"
  bottom: "inception_3a/output"
  top: "inception_3b/5x5_reduce"
  param {
    lr_mult: 1
    decay_mult: 1
  }
  param {
    lr_mult: 2
    decay_mult: 0
  }
  convolution_param {
    num_output: 32
    kernel_size: 1
    weight_filler {
      type: "xavier"
      std: 0.2
    }
    bias_filler {
      type: "constant"
      value: 0.2
    }
  }
}
layer {
  name: "inception_3b/relu_5x5_reduce"
  type: "ReLU"
  bottom: "inception_3b/5x5_reduce"
  top: "inception_3b/5x5_reduce"
}
layer {
  name: "inception_3b/5x5"
  type: "Convolution"
  bottom: "inception_3b/5x5_reduce"
  top: "inception_3b/5x5"
  param {
    lr_mult: 1
    decay_mult: 1
  }
  param {
    lr_mult: 2
    decay_mult: 0
  }
  convolution_param {
    num_output: 96
    pad: 2
    kernel_size: 5
    weight_filler {
      type: "xavier"
      std: 0.03
    }
    bias_filler {
      type: "constant"
      value: 0.2
    }
  }
}
layer {
  name: "inception_3b/relu_5x5"
  type: "ReLU"
  bottom: "inception_3b/5x5"
  top: "inception_3b/5x5"
}
layer {
  name: "inception_3b/pool"
  type: "Pooling"
  bottom: "inception_3a/output"
  top: "inception_3b/pool"
  pooling_param {
    pool: MAX
    kernel_size: 3
    stride: 1
    pad: 1
  }
}
layer {
  name: "inception_3b/pool_proj"
  type: "Convolution"
  bottom: "inception_3b/pool"
  top: "inception_3b/pool_proj"
  param {
    lr_mult: 1
    decay_mult: 1
  }
  param {
    lr_mult: 2
    decay_mult: 0
  }
  convolution_param {
    num_output: 64
    kernel_size: 1
    weight_filler {
      type: "xavier"
      std: 0.1
    }
    bias_filler {
      type: "constant"
      value: 0.2
    }
  }
}
layer {
  name: "inception_3b/relu_pool_proj"
  type: "ReLU"
  bottom: "inception_3b/pool_proj"
  top: "inception_3b/pool_proj"
}
layer {
  name: "inception_3b/output"
  type: "Concat"
  bottom: "inception_3b/1x1"
  bottom: "inception_3b/3x3"
  bottom: "inception_3b/5x5"
  bottom: "inception_3b/pool_proj"
  top: "inception_3b/output"
}
layer {
  name: "pool3/3x3_s2"
  type: "Pooling"
  bottom: "inception_3b/output"
  top: "pool3/3x3_s2"
  pooling_param {
    pool: MAX
    kernel_size: 3
    stride: 2
  }
}
layer {
  name: "inception_4a/1x1"
  type: "Convolution"
  bottom: "pool3/3x3_s2"
  top: "inception_4a/1x1"
  param {
    lr_mult: 1
    decay_mult: 1
  }
  param {
    lr_mult: 2
    decay_mult: 0
  }
  convolution_param {
    num_output: 192
    kernel_size: 1
    weight_filler {
      type: "xavier"
      std: 0.03
    }
    bias_filler {
      type: "constant"
      value: 0.2
    }
  }
}
layer {
  name: "inception_4a/relu_1x1"
  type: "ReLU"
  bottom: "inception_4a/1x1"
  top: "inception_4a/1x1"
}
layer {
  name: "inception_4a/3x3_reduce"
  type: "Convolution"
  bottom: "pool3/3x3_s2"
  top: "inception_4a/3x3_reduce"
  param {
    lr_mult: 1
    decay_mult: 1
  }
  param {
    lr_mult: 2
    decay_mult: 0
  }
  convolution_param {
    num_output: 96
    kernel_size: 1
    weight_filler {
      type: "xavier"
      std: 0.09
    }
    bias_filler {
      type: "constant"
      value: 0.2
    }
  }
}
layer {
  name: "inception_4a/relu_3x3_reduce"
  type: "ReLU"
  bottom: "inception_4a/3x3_reduce"
  top: "inception_4a/3x3_reduce"
}
layer {
  name: "inception_4a/3x3"
  type: "Convolution"
  bottom: "inception_4a/3x3_reduce"
  top: "inception_4a/3x3"
  param {
    lr_mult: 1
    decay_mult: 1
  }
  param {
    lr_mult: 2
    decay_mult: 0
  }
  convolution_param {
    num_output: 208
    pad: 1
    kernel_size: 3
    weight_filler {
      type: "xavier"
      std: 0.03
    }
    bias_filler {
      type: "constant"
      value: 0.2
    }
  }
}
layer {
  name: "inception_4a/relu_3x3"
  type: "ReLU"
  bottom: "inception_4a/3x3"
  top: "inception_4a/3x3"
}
layer {
  name: "inception_4a/5x5_reduce"
  type: "Convolution"
  bottom: "pool3/3x3_s2"
  top: "inception_4a/5x5_reduce"
  param {
    lr_mult: 1
    decay_mult: 1
  }
  param {
    lr_mult: 2
    decay_mult: 0
  }
  convolution_param {
    num_output: 16
    kernel_size: 1
    weight_filler {
      type: "xavier"
      std: 0.2
    }
    bias_filler {
      type: "constant"
      value: 0.2
    }
  }
}
layer {
  name: "inception_4a/relu_5x5_reduce"
  type: "ReLU"
  bottom: "inception_4a/5x5_reduce"
  top: "inception_4a/5x5_reduce"
}
layer {
  name: "inception_4a/5x5"
  type: "Convolution"
  bottom: "inception_4a/5x5_reduce"
  top: "inception_4a/5x5"
  param {
    lr_mult: 1
    decay_mult: 1
  }
  param {
    lr_mult: 2
    decay_mult: 0
  }
  convolution_param {
    num_output: 48
    pad: 2
    kernel_size: 5
    weight_filler {
      type: "xavier"
      std: 0.03
    }
    bias_filler {
      type: "constant"
      value: 0.2
    }
  }
}
layer {
  name: "inception_4a/relu_5x5"
  type: "ReLU"
  bottom: "inception_4a/5x5"
  top: "inception_4a/5x5"
}
layer {
  name: "inception_4a/pool"
  type: "Pooling"
  bottom: "pool3/3x3_s2"
  top: "inception_4a/pool"
  pooling_param {
    pool: MAX
    kernel_size: 3
    stride: 1
    pad: 1
  }
}
layer {
  name: "inception_4a/pool_proj"
  type: "Convolution"
  bottom: "inception_4a/pool"
  top: "inception_4a/pool_proj"
  param {
    lr_mult: 1
    decay_mult: 1
  }
  param {
    lr_mult: 2
    decay_mult: 0
  }
  convolution_param {
    num_output: 64
    kernel_size: 1
    weight_filler {
      type: "xavier"
      std: 0.1
    }
    bias_filler {
      type: "constant"
      value: 0.2
    }
  }
}
layer {
  name: "inception_4a/relu_pool_proj"
  type: "ReLU"
  bottom: "inception_4a/pool_proj"
  top: "inception_4a/pool_proj"
}
layer {
  name: "inception_4a/output"
  type: "Concat"
  bottom: "inception_4a/1x1"
  bottom: "inception_4a/3x3"
  bottom: "inception_4a/5x5"
  bottom: "inception_4a/pool_proj"
  top: "inception_4a/output"
}
layer {
  name: "loss1/ave_pool"
  type: "Pooling"
  bottom: "inception_4a/output"
  top: "loss1/ave_pool"
  pooling_param {
    pool: AVE
    kernel_size: 5
    stride: 3
  }
}
layer {
  name: "loss1/conv"
  type: "Convolution"
  bottom: "loss1/ave_pool"
  top: "loss1/conv"
  param {
    lr_mult: 1
    decay_mult: 1
  }
  param {
    lr_mult: 2
    decay_mult: 0
  }
  convolution_param {
    num_output: 128
    kernel_size: 1
    weight_filler {
      type: "xavier"
      std: 0.08
    }
    bias_filler {
      type: "constant"
      value: 0.2
    }
  }
}
layer {
  name: "loss1/relu_conv"
  type: "ReLU"
  bottom: "loss1/conv"
  top: "loss1/conv"
}
layer {
  name: "loss1/fc"
  type: "InnerProduct"
  bottom: "loss1/conv"
  top: "loss1/fc"
  param {
    lr_mult: 1
    decay_mult: 1
  }
  param {
    lr_mult: 2
    decay_mult: 0
  }
  inner_product_param {
    num_output: 1024
    weight_filler {
      type: "xavier"
      std: 0.02
    }
    bias_filler {
      type: "constant"
      value: 0.2
    }
  }
}
layer {
  name: "loss1/relu_fc"
  type: "ReLU"
  bottom: "loss1/fc"
  top: "loss1/fc"
}
layer {
  name: "loss1/drop_fc"
  type: "Dropout"
  bottom: "loss1/fc"
  top: "loss1/fc"
  dropout_param {
    dropout_ratio: 0.7
  }
}
layer {
  name: "loss1/classifier_plantvillage"
  type: "InnerProduct"
  bottom: "loss1/fc"
  top: "loss1/classifier_plantvillage"
  param {
    lr_mult: 1
    decay_mult: 1
  }
  param {
    lr_mult: 2
    decay_mult: 0
  }
  inner_product_param {
    num_output: 38
    weight_filler {
      type: "xavier"
      std: 0.0009765625
    }
    bias_filler {
      type: "constant"
      value: 0
    }
  }
}
layer {
  name: "inception_4b/1x1"
  type: "Convolution"
  bottom: "inception_4a/output"
  top: "inception_4b/1x1"
  param {
    lr_mult: 1
    decay_mult: 1
  }
  param {
    lr_mult: 2
    decay_mult: 0
  }
  convolution_param {
    num_output: 160
    kernel_size: 1
    weight_filler {
      type: "xavier"
      std: 0.03
    }
    bias_filler {
      type: "constant"
      value: 0.2
    }
  }
}
layer {
  name: "inception_4b/relu_1x1"
  type: "ReLU"
  bottom: "inception_4b/1x1"
  top: "inception_4b/1x1"
}
layer {
  name: "inception_4b/3x3_reduce"
  type: "Convolution"
  bottom: "inception_4a/output"
  top: "inception_4b/3x3_reduce"
  param {
    lr_mult: 1
    decay_mult: 1
  }
  param {
    lr_mult: 2
    decay_mult: 0
  }
  convolution_param {
    num_output: 112
    kernel_size: 1
    weight_filler {
      type: "xavier"
      std: 0.09
    }
    bias_filler {
      type: "constant"
      value: 0.2
    }
  }
}
layer {
  name: "inception_4b/relu_3x3_reduce"
  type: "ReLU"
  bottom: "inception_4b/3x3_reduce"
  top: "inception_4b/3x3_reduce"
}
layer {
  name: "inception_4b/3x3"
  type: "Convolution"
  bottom: "inception_4b/3x3_reduce"
  top: "inception_4b/3x3"
  param {
    lr_mult: 1
    decay_mult: 1
  }
  param {
    lr_mult: 2
    decay_mult: 0
  }
  convolution_param {
    num_output: 224
    pad: 1
    kernel_size: 3
    weight_filler {
      type: "xavier"
      std: 0.03
    }
    bias_filler {
      type: "constant"
      value: 0.2
    }
  }
}
layer {
  name: "inception_4b/relu_3x3"
  type: "ReLU"
  bottom: "inception_4b/3x3"
  top: "inception_4b/3x3"
}
layer {
  name: "inception_4b/5x5_reduce"
  type: "Convolution"
  bottom: "inception_4a/output"
  top: "inception_4b/5x5_reduce"
  param {
    lr_mult: 1
    decay_mult: 1
  }
  param {
    lr_mult: 2
    decay_mult: 0
  }
  convolution_param {
    num_output: 24
    kernel_size: 1
    weight_filler {
      type: "xavier"
      std: 0.2
    }
    bias_filler {
      type: "constant"
      value: 0.2
    }
  }
}
layer {
  name: "inception_4b/relu_5x5_reduce"
  type: "ReLU"
  bottom: "inception_4b/5x5_reduce"
  top: "inception_4b/5x5_reduce"
}
layer {
  name: "inception_4b/5x5"
  type: "Convolution"
  bottom: "inception_4b/5x5_reduce"
  top: "inception_4b/5x5"
  param {
    lr_mult: 1
    decay_mult: 1
  }
  param {
    lr_mult: 2
    decay_mult: 0
  }
  convolution_param {
    num_output: 64
    pad: 2
    kernel_size: 5
    weight_filler {
      type: "xavier"
      std: 0.03
    }
    bias_filler {
      type: "constant"
      value: 0.2
    }
  }
}
layer {
  name: "inception_4b/relu_5x5"
  type: "ReLU"
  bottom: "inception_4b/5x5"
  top: "inception_4b/5x5"
}
layer {
  name: "inception_4b/pool"
  type: "Pooling"
  bottom: "inception_4a/output"
  top: "inception_4b/pool"
  pooling_param {
    pool: MAX
    kernel_size: 3
    stride: 1
    pad: 1
  }
}
layer {
  name: "inception_4b/pool_proj"
  type: "Convolution"
  bottom: "inception_4b/pool"
  top: "inception_4b/pool_proj"
  param {
    lr_mult: 1
    decay_mult: 1
  }
  param {
    lr_mult: 2
    decay_mult: 0
  }
  convolution_param {
    num_output: 64
    kernel_size: 1
    weight_filler {
      type: "xavier"
      std: 0.1
    }
    bias_filler {
      type: "constant"
      value: 0.2
    }
  }
}
layer {
  name: "inception_4b/relu_pool_proj"
  type: "ReLU"
  bottom: "inception_4b/pool_proj"
  top: "inception_4b/pool_proj"
}
layer {
  name: "inception_4b/output"
  type: "Concat"
  bottom: "inception_4b/1x1"
  bottom: "inception_4b/3x3"
  bottom: "inception_4b/5x5"
  bottom: "inception_4b/pool_proj"
  top: "inception_4b/output"
}
layer {
  name: "inception_4c/1x1"
  type: "Convolution"
  bottom: "inception_4b/output"
  top: "inception_4c/1x1"
  param {
    lr_mult: 1
    decay_mult: 1
  }
  param {
    lr_mult: 2
    decay_mult: 0
  }
  convolution_param {
    num_output: 128
    kernel_size: 1
    weight_filler {
      type: "xavier"
      std: 0.03
    }
    bias_filler {
      type: "constant"
      value: 0.2
    }
  }
}
layer {
  name: "inception_4c/relu_1x1"
  type: "ReLU"
  bottom: "inception_4c/1x1"
  top: "inception_4c/1x1"
}
layer {
  name: "inception_4c/3x3_reduce"
  type: "Convolution"
  bottom: "inception_4b/output"
  top: "inception_4c/3x3_reduce"
  param {
    lr_mult: 1
    decay_mult: 1
  }
  param {
    lr_mult: 2
    decay_mult: 0
  }
  convolution_param {
    num_output: 128
    kernel_size: 1
    weight_filler {
      type: "xavier"
      std: 0.09
    }
    bias_filler {
      type: "constant"
      value: 0.2
    }
  }
}
layer {
  name: "inception_4c/relu_3x3_reduce"
  type: "ReLU"
  bottom: "inception_4c/3x3_reduce"
  top: "inception_4c/3x3_reduce"
}
layer {
  name: "inception_4c/3x3"
  type: "Convolution"
  bottom: "inception_4c/3x3_reduce"
  top: "inception_4c/3x3"
  param {
    lr_mult: 1
    decay_mult: 1
  }
  param {
    lr_mult: 2
    decay_mult: 0
  }
  convolution_param {
    num_output: 256
    pad: 1
    kernel_size: 3
    weight_filler {
      type: "xavier"
      std: 0.03
    }
    bias_filler {
      type: "constant"
      value: 0.2
    }
  }
}
layer {
  name: "inception_4c/relu_3x3"
  type: "ReLU"
  bottom: "inception_4c/3x3"
  top: "inception_4c/3x3"
}
layer {
  name: "inception_4c/5x5_reduce"
  type: "Convolution"
  bottom: "inception_4b/output"
  top: "inception_4c/5x5_reduce"
  param {
    lr_mult: 1
    decay_mult: 1
  }
  param {
    lr_mult: 2
    decay_mult: 0
  }
  convolution_param {
    num_output: 24
    kernel_size: 1
    weight_filler {
      type: "xavier"
      std: 0.2
    }
    bias_filler {
      type: "constant"
      value: 0.2
    }
  }
}
layer {
  name: "inception_4c/relu_5x5_reduce"
  type: "ReLU"
  bottom: "inception_4c/5x5_reduce"
  top: "inception_4c/5x5_reduce"
}
layer {
  name: "inception_4c/5x5"
  type: "Convolution"
  bottom: "inception_4c/5x5_reduce"
  top: "inception_4c/5x5"
  param {
    lr_mult: 1
    decay_mult: 1
  }
  param {
    lr_mult: 2
    decay_mult: 0
  }
  convolution_param {
    num_output: 64
    pad: 2
    kernel_size: 5
    weight_filler {
      type: "xavier"
      std: 0.03
    }
    bias_filler {
      type: "constant"
      value: 0.2
    }
  }
}
layer {
  name: "inception_4c/relu_5x5"
  type: "ReLU"
  bottom: "inception_4c/5x5"
  top: "inception_4c/5x5"
}
layer {
  name: "inception_4c/pool"
  type: "Pooling"
  bottom: "inception_4b/output"
  top: "inception_4c/pool"
  pooling_param {
    pool: MAX
    kernel_size: 3
    stride: 1
    pad: 1
  }
}
layer {
  name: "inception_4c/pool_proj"
  type: "Convolution"
  bottom: "inception_4c/pool"
  top: "inception_4c/pool_proj"
  param {
    lr_mult: 1
    decay_mult: 1
  }
  param {
    lr_mult: 2
    decay_mult: 0
  }
  convolution_param {
    num_output: 64
    kernel_size: 1
    weight_filler {
      type: "xavier"
      std: 0.1
    }
    bias_filler {
      type: "constant"
      value: 0.2
    }
  }
}
layer {
  name: "inception_4c/relu_pool_proj"
  type: "ReLU"
  bottom: "inception_4c/pool_proj"
  top: "inception_4c/pool_proj"
}
layer {
  name: "inception_4c/output"
  type: "Concat"
  bottom: "inception_4c/1x1"
  bottom: "inception_4c/3x3"
  bottom: "inception_4c/5x5"
  bottom: "inception_4c/pool_proj"
  top: "inception_4c/output"
}
layer {
  name: "inception_4d/1x1"
  type: "Convolution"
  bottom: "inception_4c/output"
  top: "inception_4d/1x1"
  param {
    lr_mult: 1
    decay_mult: 1
  }
  param {
    lr_mult: 2
    decay_mult: 0
  }
  convolution_param {
    num_output: 112
    kernel_size: 1
    weight_filler {
      type: "xavier"
      std: 0.03
    }
    bias_filler {
      type: "constant"
      value: 0.2
    }
  }
}
layer {
  name: "inception_4d/relu_1x1"
  type: "ReLU"
  bottom: "inception_4d/1x1"
  top: "inception_4d/1x1"
}
layer {
  name: "inception_4d/3x3_reduce"
  type: "Convolution"
  bottom: "inception_4c/output"
  top: "inception_4d/3x3_reduce"
  param {
    lr_mult: 1
    decay_mult: 1
  }
  param {
    lr_mult: 2
    decay_mult: 0
  }
  convolution_param {
    num_output: 144
    kernel_size: 1
    weight_filler {
      type: "xavier"
      std: 0.09
    }
    bias_filler {
      type: "constant"
      value: 0.2
    }
  }
}
layer {
  name: "inception_4d/relu_3x3_reduce"
  type: "ReLU"
  bottom: "inception_4d/3x3_reduce"
  top: "inception_4d/3x3_reduce"
}
layer {
  name: "inception_4d/3x3"
  type: "Convolution"
  bottom: "inception_4d/3x3_reduce"
  top: "inception_4d/3x3"
  param {
    lr_mult: 1
    decay_mult: 1
  }
  param {
    lr_mult: 2
    decay_mult: 0
  }
  convolution_param {
    num_output: 288
    pad: 1
    kernel_size: 3
    weight_filler {
      type: "xavier"
      std: 0.03
    }
    bias_filler {
      type: "constant"
      value: 0.2
    }
  }
}
layer {
  name: "inception_4d/relu_3x3"
  type: "ReLU"
  bottom: "inception_4d/3x3"
  top: "inception_4d/3x3"
}
layer {
  name: "inception_4d/5x5_reduce"
  type: "Convolution"
  bottom: "inception_4c/output"
  top: "inception_4d/5x5_reduce"
  param {
    lr_mult: 1
    decay_mult: 1
  }
  param {
    lr_mult: 2
    decay_mult: 0
  }
  convolution_param {
    num_output: 32
    kernel_size: 1
    weight_filler {
      type: "xavier"
      std: 0.2
    }
    bias_filler {
      type: "constant"
      value: 0.2
    }
  }
}
layer {
  name: "inception_4d/relu_5x5_reduce"
  type: "ReLU"
  bottom: "inception_4d/5x5_reduce"
  top: "inception_4d/5x5_reduce"
}
layer {
  name: "inception_4d/5x5"
  type: "Convolution"
  bottom: "inception_4d/5x5_reduce"
  top: "inception_4d/5x5"
  param {
    lr_mult: 1
    decay_mult: 1
  }
  param {
    lr_mult: 2
    decay_mult: 0
  }
  convolution_param {
    num_output: 64
    pad: 2
    kernel_size: 5
    weight_filler {
      type: "xavier"
      std: 0.03
    }
    bias_filler {
      type: "constant"
      value: 0.2
    }
  }
}
layer {
  name: "inception_4d/relu_5x5"
  type: "ReLU"
  bottom: "inception_4d/5x5"
  top: "inception_4d/5x5"
}
layer {
  name: "inception_4d/pool"
  type: "Pooling"
  bottom: "inception_4c/output"
  top: "inception_4d/pool"
  pooling_param {
    pool: MAX
    kernel_size: 3
    stride: 1
    pad: 1
  }
}
layer {
  name: "inception_4d/pool_proj"
  type: "Convolution"
  bottom: "inception_4d/pool"
  top: "inception_4d/pool_proj"
  param {
    lr_mult: 1
    decay_mult: 1
  }
  param {
    lr_mult: 2
    decay_mult: 0
  }
  convolution_param {
    num_output: 64
    kernel_size: 1
    weight_filler {
      type: "xavier"
      std: 0.1
    }
    bias_filler {
      type: "constant"
      value: 0.2
    }
  }
}
layer {
  name: "inception_4d/relu_pool_proj"
  type: "ReLU"
  bottom: "inception_4d/pool_proj"
  top: "inception_4d/pool_proj"
}
layer {
  name: "inception_4d/output"
  type: "Concat"
  bottom: "inception_4d/1x1"
  bottom: "inception_4d/3x3"
  bottom: "inception_4d/5x5"
  bottom: "inception_4d/pool_proj"
  top: "inception_4d/output"
}
layer {
  name: "loss2/ave_pool"
  type: "Pooling"
  bottom: "inception_4d/output"
  top: "loss2/ave_pool"
  pooling_param {
    pool: AVE
    kernel_size: 5
    stride: 3
  }
}
layer {
  name: "loss2/conv"
  type: "Convolution"
  bottom: "loss2/ave_pool"
  top: "loss2/conv"
  param {
    lr_mult: 1
    decay_mult: 1
  }
  param {
    lr_mult: 2
    decay_mult: 0
  }
  convolution_param {
    num_output: 128
    kernel_size: 1
    weight_filler {
      type: "xavier"
      std: 0.08
    }
    bias_filler {
      type: "constant"
      value: 0.2
    }
  }
}
layer {
  name: "loss2/relu_conv"
  type: "ReLU"
  bottom: "loss2/conv"
  top: "loss2/conv"
}
layer {
  name: "loss2/fc"
  type: "InnerProduct"
  bottom: "loss2/conv"
  top: "loss2/fc"
  param {
    lr_mult: 1
    decay_mult: 1
  }
  param {
    lr_mult: 2
    decay_mult: 0
  }
  inner_product_param {
    num_output: 1024
    weight_filler {
      type: "xavier"
      std: 0.02
    }
    bias_filler {
      type: "constant"
      value: 0.2
    }
  }
}
layer {
  name: "loss2/relu_fc"
  type: "ReLU"
  bottom: "loss2/fc"
  top: "loss2/fc"
}
layer {
  name: "loss2/drop_fc"
  type: "Dropout"
  bottom: "loss2/fc"
  top: "loss2/fc"
  dropout_param {
    dropout_ratio: 0.7
  }
}
layer {
  name: "loss2/classifier_plantvillage"
  type: "InnerProduct"
  bottom: "loss2/fc"
  top: "loss2/classifier_plantvillage"
  param {
    lr_mult: 1
    decay_mult: 1
  }
  param {
    lr_mult: 2
    decay_mult: 0
  }
  inner_product_param {
    num_output: 38
    weight_filler {
      type: "xavier"
      std: 0.0009765625
    }
    bias_filler {
      type: "constant"
      value: 0
    }
  }
}
layer {
  name: "inception_4e/1x1"
  type: "Convolution"
  bottom: "inception_4d/output"
  top: "inception_4e/1x1"
  param {
    lr_mult: 1
    decay_mult: 1
  }
  param {
    lr_mult: 2
    decay_mult: 0
  }
  convolution_param {
    num_output: 256
    kernel_size: 1
    weight_filler {
      type: "xavier"
      std: 0.03
    }
    bias_filler {
      type: "constant"
      value: 0.2
    }
  }
}
layer {
  name: "inception_4e/relu_1x1"
  type: "ReLU"
  bottom: "inception_4e/1x1"
  top: "inception_4e/1x1"
}
layer {
  name: "inception_4e/3x3_reduce"
  type: "Convolution"
  bottom: "inception_4d/output"
  top: "inception_4e/3x3_reduce"
  param {
    lr_mult: 1
    decay_mult: 1
  }
  param {
    lr_mult: 2
    decay_mult: 0
  }
  convolution_param {
    num_output: 160
    kernel_size: 1
    weight_filler {
      type: "xavier"
      std: 0.09
    }
    bias_filler {
      type: "constant"
      value: 0.2
    }
  }
}
layer {
  name: "inception_4e/relu_3x3_reduce"
  type: "ReLU"
  bottom: "inception_4e/3x3_reduce"
  top: "inception_4e/3x3_reduce"
}
layer {
  name: "inception_4e/3x3"
  type: "Convolution"
  bottom: "inception_4e/3x3_reduce"
  top: "inception_4e/3x3"
  param {
    lr_mult: 1
    decay_mult: 1
  }
  param {
    lr_mult: 2
    decay_mult: 0
  }
  convolution_param {
    num_output: 320
    pad: 1
    kernel_size: 3
    weight_filler {
      type: "xavier"
      std: 0.03
    }
    bias_filler {
      type: "constant"
      value: 0.2
    }
  }
}
layer {
  name: "inception_4e/relu_3x3"
  type: "ReLU"
  bottom: "inception_4e/3x3"
  top: "inception_4e/3x3"
}
layer {
  name: "inception_4e/5x5_reduce"
  type: "Convolution"
  bottom: "inception_4d/output"
  top: "inception_4e/5x5_reduce"
  param {
    lr_mult: 1
    decay_mult: 1
  }
  param {
    lr_mult: 2
    decay_mult: 0
  }
  convolution_param {
    num_output: 32
    kernel_size: 1
    weight_filler {
      type: "xavier"
      std: 0.2
    }
    bias_filler {
      type: "constant"
      value: 0.2
    }
  }
}
layer {
  name: "inception_4e/relu_5x5_reduce"
  type: "ReLU"
  bottom: "inception_4e/5x5_reduce"
  top: "inception_4e/5x5_reduce"
}
layer {
  name: "inception_4e/5x5"
  type: "Convolution"
  bottom: "inception_4e/5x5_reduce"
  top: "inception_4
I0403 04:07:54.844596 18812 layer_factory.hpp:77] Creating layer data
I0403 04:07:54.846189 18812 net.cpp:91] Creating Layer data
I0403 04:07:54.846294 18812 net.cpp:399] data -> data
I0403 04:07:54.846423 18812 net.cpp:399] data -> label
I0403 04:07:54.846509 18812 data_transformer.cpp:25] Loading mean file from: /home/mohanty/data/final_dataset/lmdb/segmented-60-40/mean.binaryproto
I0403 04:07:54.874037 18816 db_lmdb.cpp:38] Opened lmdb /home/mohanty/data/final_dataset/lmdb/segmented-60-40/train_db
I0403 04:07:54.894650 18812 data_layer.cpp:41] output data size: 24,3,224,224
I0403 04:07:54.925304 18812 net.cpp:141] Setting up data
I0403 04:07:54.925377 18812 net.cpp:148] Top shape: 24 3 224 224 (3612672)
I0403 04:07:54.925401 18812 net.cpp:148] Top shape: 24 (24)
I0403 04:07:54.925417 18812 net.cpp:156] Memory required for data: 14450784
I0403 04:07:54.925478 18812 layer_factory.hpp:77] Creating layer label_data_1_split
I0403 04:07:54.925511 18812 net.cpp:91] Creating Layer label_data_1_split
I0403 04:07:54.925532 18812 net.cpp:425] label_data_1_split <- label
I0403 04:07:54.925564 18812 net.cpp:399] label_data_1_split -> label_data_1_split_0
I0403 04:07:54.925592 18812 net.cpp:399] label_data_1_split -> label_data_1_split_1
I0403 04:07:54.925613 18812 net.cpp:399] label_data_1_split -> label_data_1_split_2
I0403 04:07:54.925680 18812 net.cpp:141] Setting up label_data_1_split
I0403 04:07:54.925705 18812 net.cpp:148] Top shape: 24 (24)
I0403 04:07:54.925722 18812 net.cpp:148] Top shape: 24 (24)
I0403 04:07:54.925739 18812 net.cpp:148] Top shape: 24 (24)
I0403 04:07:54.925755 18812 net.cpp:156] Memory required for data: 14451072
I0403 04:07:54.925770 18812 layer_factory.hpp:77] Creating layer conv1/7x7_s2
I0403 04:07:54.925806 18812 net.cpp:91] Creating Layer conv1/7x7_s2
I0403 04:07:54.925825 18812 net.cpp:425] conv1/7x7_s2 <- data
I0403 04:07:54.925846 18812 net.cpp:399] conv1/7x7_s2 -> conv1/7x7_s2
I0403 04:07:54.926831 18812 net.cpp:141] Setting up conv1/7x7_s2
I0403 04:07:54.926859 18812 net.cpp:148] Top shape: 24 64 112 112 (19267584)
I0403 04:07:54.926877 18812 net.cpp:156] Memory required for data: 91521408
I0403 04:07:54.926913 18812 layer_factory.hpp:77] Creating layer conv1/relu_7x7
I0403 04:07:54.926939 18812 net.cpp:91] Creating Layer conv1/relu_7x7
I0403 04:07:54.926959 18812 net.cpp:425] conv1/relu_7x7 <- conv1/7x7_s2
I0403 04:07:54.926977 18812 net.cpp:386] conv1/relu_7x7 -> conv1/7x7_s2 (in-place)
I0403 04:07:54.927000 18812 net.cpp:141] Setting up conv1/relu_7x7
I0403 04:07:54.927021 18812 net.cpp:148] Top shape: 24 64 112 112 (19267584)
I0403 04:07:54.927037 18812 net.cpp:156] Memory required for data: 168591744
I0403 04:07:54.927052 18812 layer_factory.hpp:77] Creating layer pool1/3x3_s2
I0403 04:07:54.927073 18812 net.cpp:91] Creating Layer pool1/3x3_s2
I0403 04:07:54.927090 18812 net.cpp:425] pool1/3x3_s2 <- conv1/7x7_s2
I0403 04:07:54.927109 18812 net.cpp:399] pool1/3x3_s2 -> pool1/3x3_s2
I0403 04:07:54.927172 18812 net.cpp:141] Setting up pool1/3x3_s2
I0403 04:07:54.927196 18812 net.cpp:148] Top shape: 24 64 56 56 (4816896)
I0403 04:07:54.927213 18812 net.cpp:156] Memory required for data: 187859328
I0403 04:07:54.927229 18812 layer_factory.hpp:77] Creating layer pool1/norm1
I0403 04:07:54.927249 18812 net.cpp:91] Creating Layer pool1/norm1
I0403 04:07:54.927266 18812 net.cpp:425] pool1/norm1 <- pool1/3x3_s2
I0403 04:07:54.927289 18812 net.cpp:399] pool1/norm1 -> pool1/norm1
I0403 04:07:54.927345 18812 net.cpp:141] Setting up pool1/norm1
I0403 04:07:54.927371 18812 net.cpp:148] Top shape: 24 64 56 56 (4816896)
I0403 04:07:54.927386 18812 net.cpp:156] Memory required for data: 207126912
I0403 04:07:54.927402 18812 layer_factory.hpp:77] Creating layer conv2/3x3_reduce
I0403 04:07:54.927424 18812 net.cpp:91] Creating Layer conv2/3x3_reduce
I0403 04:07:54.927443 18812 net.cpp:425] conv2/3x3_reduce <- pool1/norm1
I0403 04:07:54.927464 18812 net.cpp:399] conv2/3x3_reduce -> conv2/3x3_reduce
I0403 04:07:54.930483 18812 net.cpp:141] Setting up conv2/3x3_reduce
I0403 04:07:54.930521 18812 net.cpp:148] Top shape: 24 64 56 56 (4816896)
I0403 04:07:54.930539 18812 net.cpp:156] Memory required for data: 226394496
I0403 04:07:54.930563 18812 layer_factory.hpp:77] Creating layer conv2/relu_3x3_reduce
I0403 04:07:54.930585 18812 net.cpp:91] Creating Layer conv2/relu_3x3_reduce
I0403 04:07:54.930604 18812 net.cpp:425] conv2/relu_3x3_reduce <- conv2/3x3_reduce
I0403 04:07:54.930624 18812 net.cpp:386] conv2/relu_3x3_reduce -> conv2/3x3_reduce (in-place)
I0403 04:07:54.930645 18812 net.cpp:141] Setting up conv2/relu_3x3_reduce
I0403 04:07:54.930663 18812 net.cpp:148] Top shape: 24 64 56 56 (4816896)
I0403 04:07:54.930680 18812 net.cpp:156] Memory required for data: 245662080
I0403 04:07:54.930696 18812 layer_factory.hpp:77] Creating layer conv2/3x3
I0403 04:07:54.930719 18812 net.cpp:91] Creating Layer conv2/3x3
I0403 04:07:54.930737 18812 net.cpp:425] conv2/3x3 <- conv2/3x3_reduce
I0403 04:07:54.930774 18812 net.cpp:399] conv2/3x3 -> conv2/3x3
I0403 04:07:54.931897 18817 blocking_queue.cpp:50] Waiting for data
I0403 04:07:54.932157 18812 net.cpp:141] Setting up conv2/3x3
I0403 04:07:54.932188 18812 net.cpp:148] Top shape: 24 192 56 56 (14450688)
I0403 04:07:54.932204 18812 net.cpp:156] Memory required for data: 303464832
I0403 04:07:54.932226 18812 layer_factory.hpp:77] Creating layer conv2/relu_3x3
I0403 04:07:54.932246 18812 net.cpp:91] Creating Layer conv2/relu_3x3
I0403 04:07:54.932263 18812 net.cpp:425] conv2/relu_3x3 <- conv2/3x3
I0403 04:07:54.932287 18812 net.cpp:386] conv2/relu_3x3 -> conv2/3x3 (in-place)
I0403 04:07:54.932309 18812 net.cpp:141] Setting up conv2/relu_3x3
I0403 04:07:54.932328 18812 net.cpp:148] Top shape: 24 192 56 56 (14450688)
I0403 04:07:54.932344 18812 net.cpp:156] Memory required for data: 361267584
I0403 04:07:54.932359 18812 layer_factory.hpp:77] Creating layer conv2/norm2
I0403 04:07:54.932379 18812 net.cpp:91] Creating Layer conv2/norm2
I0403 04:07:54.932396 18812 net.cpp:425] conv2/norm2 <- conv2/3x3
I0403 04:07:54.932415 18812 net.cpp:399] conv2/norm2 -> conv2/norm2
I0403 04:07:54.932463 18812 net.cpp:141] Setting up conv2/norm2
I0403 04:07:54.932487 18812 net.cpp:148] Top shape: 24 192 56 56 (14450688)
I0403 04:07:54.932503 18812 net.cpp:156] Memory required for data: 419070336
I0403 04:07:54.932530 18812 layer_factory.hpp:77] Creating layer pool2/3x3_s2
I0403 04:07:54.932551 18812 net.cpp:91] Creating Layer pool2/3x3_s2
I0403 04:07:54.932569 18812 net.cpp:425] pool2/3x3_s2 <- conv2/norm2
I0403 04:07:54.932587 18812 net.cpp:399] pool2/3x3_s2 -> pool2/3x3_s2
I0403 04:07:54.932632 18812 net.cpp:141] Setting up pool2/3x3_s2
I0403 04:07:54.932657 18812 net.cpp:148] Top shape: 24 192 28 28 (3612672)
I0403 04:07:54.932672 18812 net.cpp:156] Memory required for data: 433521024
I0403 04:07:54.932684 18812 layer_factory.hpp:77] Creating layer pool2/3x3_s2_pool2/3x3_s2_0_split
I0403 04:07:54.932703 18812 net.cpp:91] Creating Layer pool2/3x3_s2_pool2/3x3_s2_0_split
I0403 04:07:54.932719 18812 net.cpp:425] pool2/3x3_s2_pool2/3x3_s2_0_split <- pool2/3x3_s2
I0403 04:07:54.932737 18812 net.cpp:399] pool2/3x3_s2_pool2/3x3_s2_0_split -> pool2/3x3_s2_pool2/3x3_s2_0_split_0
I0403 04:07:54.932759 18812 net.cpp:399] pool2/3x3_s2_pool2/3x3_s2_0_split -> pool2/3x3_s2_pool2/3x3_s2_0_split_1
I0403 04:07:54.932780 18812 net.cpp:399] pool2/3x3_s2_pool2/3x3_s2_0_split -> pool2/3x3_s2_pool2/3x3_s2_0_split_2
I0403 04:07:54.932799 18812 net.cpp:399] pool2/3x3_s2_pool2/3x3_s2_0_split -> pool2/3x3_s2_pool2/3x3_s2_0_split_3
I0403 04:07:54.932857 18812 net.cpp:141] Setting up pool2/3x3_s2_pool2/3x3_s2_0_split
I0403 04:07:54.932881 18812 net.cpp:148] Top shape: 24 192 28 28 (3612672)
I0403 04:07:54.932898 18812 net.cpp:148] Top shape: 24 192 28 28 (3612672)
I0403 04:07:54.932914 18812 net.cpp:148] Top shape: 24 192 28 28 (3612672)
I0403 04:07:54.932929 18812 net.cpp:148] Top shape: 24 192 28 28 (3612672)
I0403 04:07:54.932945 18812 net.cpp:156] Memory required for data: 491323776
I0403 04:07:54.932960 18812 layer_factory.hpp:77] Creating layer inception_3a/1x1
I0403 04:07:54.932981 18812 net.cpp:91] Creating Layer inception_3a/1x1
I0403 04:07:54.932998 18812 net.cpp:425] inception_3a/1x1 <- pool2/3x3_s2_pool2/3x3_s2_0_split_0
I0403 04:07:54.933018 18812 net.cpp:399] inception_3a/1x1 -> inception_3a/1x1
I0403 04:07:54.933836 18812 net.cpp:141] Setting up inception_3a/1x1
I0403 04:07:54.933866 18812 net.cpp:148] Top shape: 24 64 28 28 (1204224)
I0403 04:07:54.933881 18812 net.cpp:156] Memory required for data: 496140672
I0403 04:07:54.933900 18812 layer_factory.hpp:77] Creating layer inception_3a/relu_1x1
I0403 04:07:54.933919 18812 net.cpp:91] Creating Layer inception_3a/relu_1x1
I0403 04:07:54.933936 18812 net.cpp:425] inception_3a/relu_1x1 <- inception_3a/1x1
I0403 04:07:54.933959 18812 net.cpp:386] inception_3a/relu_1x1 -> inception_3a/1x1 (in-place)
I0403 04:07:54.933979 18812 net.cpp:141] Setting up inception_3a/relu_1x1
I0403 04:07:54.933997 18812 net.cpp:148] Top shape: 24 64 28 28 (1204224)
I0403 04:07:54.934027 18812 net.cpp:156] Memory required for data: 500957568
I0403 04:07:54.934043 18812 layer_factory.hpp:77] Creating layer inception_3a/3x3_reduce
I0403 04:07:54.934065 18812 net.cpp:91] Creating Layer inception_3a/3x3_reduce
I0403 04:07:54.934083 18812 net.cpp:425] inception_3a/3x3_reduce <- pool2/3x3_s2_pool2/3x3_s2_0_split_1
I0403 04:07:54.934103 18812 net.cpp:399] inception_3a/3x3_reduce -> inception_3a/3x3_reduce
I0403 04:07:54.934974 18812 net.cpp:141] Setting up inception_3a/3x3_reduce
I0403 04:07:54.935004 18812 net.cpp:148] Top shape: 24 96 28 28 (1806336)
I0403 04:07:54.935020 18812 net.cpp:156] Memory required for data: 508182912
I0403 04:07:54.935041 18812 layer_factory.hpp:77] Creating layer inception_3a/relu_3x3_reduce
I0403 04:07:54.935066 18812 net.cpp:91] Creating Layer inception_3a/relu_3x3_reduce
I0403 04:07:54.935086 18812 net.cpp:425] inception_3a/relu_3x3_reduce <- inception_3a/3x3_reduce
I0403 04:07:54.935106 18812 net.cpp:386] inception_3a/relu_3x3_reduce -> inception_3a/3x3_reduce (in-place)
I0403 04:07:54.935127 18812 net.cpp:141] Setting up inception_3a/relu_3x3_reduce
I0403 04:07:54.935147 18812 net.cpp:148] Top shape: 24 96 28 28 (1806336)
I0403 04:07:54.935161 18812 net.cpp:156] Memory required for data: 515408256
I0403 04:07:54.935176 18812 layer_factory.hpp:77] Creating layer inception_3a/3x3
I0403 04:07:54.935201 18812 net.cpp:91] Creating Layer inception_3a/3x3
I0403 04:07:54.935220 18812 net.cpp:425] inception_3a/3x3 <- inception_3a/3x3_reduce
I0403 04:07:54.935241 18812 net.cpp:399] inception_3a/3x3 -> inception_3a/3x3
I0403 04:07:54.936076 18812 net.cpp:141] Setting up inception_3a/3x3
I0403 04:07:54.936102 18812 net.cpp:148] Top shape: 24 128 28 28 (2408448)
I0403 04:07:54.936118 18812 net.cpp:156] Memory required for data: 525042048
I0403 04:07:54.936137 18812 layer_factory.hpp:77] Creating layer inception_3a/relu_3x3
I0403 04:07:54.936157 18812 net.cpp:91] Creating Layer inception_3a/relu_3x3
I0403 04:07:54.936173 18812 net.cpp:425] inception_3a/relu_3x3 <- inception_3a/3x3
I0403 04:07:54.936192 18812 net.cpp:386] inception_3a/relu_3x3 -> inception_3a/3x3 (in-place)
I0403 04:07:54.936211 18812 net.cpp:141] Setting up inception_3a/relu_3x3
I0403 04:07:54.936230 18812 net.cpp:148] Top shape: 24 128 28 28 (2408448)
I0403 04:07:54.936246 18812 net.cpp:156] Memory required for data: 534675840
I0403 04:07:54.936262 18812 layer_factory.hpp:77] Creating layer inception_3a/5x5_reduce
I0403 04:07:54.936290 18812 net.cpp:91] Creating Layer inception_3a/5x5_reduce
I0403 04:07:54.936311 18812 net.cpp:425] inception_3a/5x5_reduce <- pool2/3x3_s2_pool2/3x3_s2_0_split_2
I0403 04:07:54.936331 18812 net.cpp:399] inception_3a/5x5_reduce -> inception_3a/5x5_reduce
I0403 04:07:54.936573 18812 net.cpp:141] Setting up inception_3a/5x5_reduce
I0403 04:07:54.936599 18812 net.cpp:148] Top shape: 24 16 28 28 (301056)
I0403 04:07:54.936615 18812 net.cpp:156] Memory required for data: 535880064
I0403 04:07:54.936635 18812 layer_factory.hpp:77] Creating layer inception_3a/relu_5x5_reduce
I0403 04:07:54.936656 18812 net.cpp:91] Creating Layer inception_3a/relu_5x5_reduce
I0403 04:07:54.936676 18812 net.cpp:425] inception_3a/relu_5x5_reduce <- inception_3a/5x5_reduce
I0403 04:07:54.936694 18812 net.cpp:386] inception_3a/relu_5x5_reduce -> inception_3a/5x5_reduce (in-place)
I0403 04:07:54.936715 18812 net.cpp:141] Setting up inception_3a/relu_5x5_reduce
I0403 04:07:54.936734 18812 net.cpp:148] Top shape: 24 16 28 28 (301056)
I0403 04:07:54.936749 18812 net.cpp:156] Memory required for data: 537084288
I0403 04:07:54.936764 18812 layer_factory.hpp:77] Creating layer inception_3a/5x5
I0403 04:07:54.936789 18812 net.cpp:91] Creating Layer inception_3a/5x5
I0403 04:07:54.936807 18812 net.cpp:425] inception_3a/5x5 <- inception_3a/5x5_reduce
I0403 04:07:54.936827 18812 net.cpp:399] inception_3a/5x5 -> inception_3a/5x5
I0403 04:07:54.937103 18812 net.cpp:141] Setting up inception_3a/5x5
I0403 04:07:54.937132 18812 net.cpp:148] Top shape: 24 32 28 28 (602112)
I0403 04:07:54.937163 18812 net.cpp:156] Memory required for data: 539492736
I0403 04:07:54.937183 18812 layer_factory.hpp:77] Creating layer inception_3a/relu_5x5
I0403 04:07:54.937203 18812 net.cpp:91] Creating Layer inception_3a/relu_5x5
I0403 04:07:54.937221 18812 net.cpp:425] inception_3a/relu_5x5 <- inception_3a/5x5
I0403 04:07:54.937239 18812 net.cpp:386] inception_3a/relu_5x5 -> inception_3a/5x5 (in-place)
I0403 04:07:54.937258 18812 net.cpp:141] Setting up inception_3a/relu_5x5
I0403 04:07:54.937275 18812 net.cpp:148] Top shape: 24 32 28 28 (602112)
I0403 04:07:54.937295 18812 net.cpp:156] Memory required for data: 541901184
I0403 04:07:54.937311 18812 layer_factory.hpp:77] Creating layer inception_3a/pool
I0403 04:07:54.937330 18812 net.cpp:91] Creating Layer inception_3a/pool
I0403 04:07:54.937346 18812 net.cpp:425] inception_3a/pool <- pool2/3x3_s2_pool2/3x3_s2_0_split_3
I0403 04:07:54.937367 18812 net.cpp:399] inception_3a/pool -> inception_3a/pool
I0403 04:07:54.937418 18812 net.cpp:141] Setting up inception_3a/pool
I0403 04:07:54.937443 18812 net.cpp:148] Top shape: 24 192 28 28 (3612672)
I0403 04:07:54.937458 18812 net.cpp:156] Memory required for data: 556351872
I0403 04:07:54.937474 18812 layer_factory.hpp:77] Creating layer inception_3a/pool_proj
I0403 04:07:54.937499 18812 net.cpp:91] Creating Layer inception_3a/pool_proj
I0403 04:07:54.937517 18812 net.cpp:425] inception_3a/pool_proj <- inception_3a/pool
I0403 04:07:54.937538 18812 net.cpp:399] inception_3a/pool_proj -> inception_3a/pool_proj
I0403 04:07:54.937775 18812 net.cpp:141] Setting up inception_3a/pool_proj
I0403 04:07:54.937801 18812 net.cpp:148] Top shape: 24 32 28 28 (602112)
I0403 04:07:54.937816 18812 net.cpp:156] Memory required for data: 558760320
I0403 04:07:54.937841 18812 layer_factory.hpp:77] Creating layer inception_3a/relu_pool_proj
I0403 04:07:54.937862 18812 net.cpp:91] Creating Layer inception_3a/relu_pool_proj
I0403 04:07:54.937880 18812 net.cpp:425] inception_3a/relu_pool_proj <- inception_3a/pool_proj
I0403 04:07:54.937897 18812 net.cpp:386] inception_3a/relu_pool_proj -> inception_3a/pool_proj (in-place)
I0403 04:07:54.937916 18812 net.cpp:141] Setting up inception_3a/relu_pool_proj
I0403 04:07:54.937935 18812 net.cpp:148] Top shape: 24 32 28 28 (602112)
I0403 04:07:54.937950 18812 net.cpp:156] Memory required for data: 561168768
I0403 04:07:54.937965 18812 layer_factory.hpp:77] Creating layer inception_3a/output
I0403 04:07:54.937984 18812 net.cpp:91] Creating Layer inception_3a/output
I0403 04:07:54.938000 18812 net.cpp:425] inception_3a/output <- inception_3a/1x1
I0403 04:07:54.938016 18812 net.cpp:425] inception_3a/output <- inception_3a/3x3
I0403 04:07:54.938033 18812 net.cpp:425] inception_3a/output <- inception_3a/5x5
I0403 04:07:54.938050 18812 net.cpp:425] inception_3a/output <- inception_3a/pool_proj
I0403 04:07:54.938072 18812 net.cpp:399] inception_3a/output -> inception_3a/output
I0403 04:07:54.938148 18812 net.cpp:141] Setting up inception_3a/output
I0403 04:07:54.938175 18812 net.cpp:148] Top shape: 24 256 28 28 (4816896)
I0403 04:07:54.938191 18812 net.cpp:156] Memory required for data: 580436352
I0403 04:07:54.938207 18812 layer_factory.hpp:77] Creating layer inception_3a/output_inception_3a/output_0_split
I0403 04:07:54.938226 18812 net.cpp:91] Creating Layer inception_3a/output_inception_3a/output_0_split
I0403 04:07:54.938243 18812 net.cpp:425] inception_3a/output_inception_3a/output_0_split <- inception_3a/output
I0403 04:07:54.938261 18812 net.cpp:399] inception_3a/output_inception_3a/output_0_split -> inception_3a/output_inception_3a/output_0_split_0
I0403 04:07:54.938287 18812 net.cpp:399] inception_3a/output_inception_3a/output_0_split -> inception_3a/output_inception_3a/output_0_split_1
I0403 04:07:54.938314 18812 net.cpp:399] inception_3a/output_inception_3a/output_0_split -> inception_3a/output_inception_3a/output_0_split_2
I0403 04:07:54.938338 18812 net.cpp:399] inception_3a/output_inception_3a/output_0_split -> inception_3a/output_inception_3a/output_0_split_3
I0403 04:07:54.938406 18812 net.cpp:141] Setting up inception_3a/output_inception_3a/output_0_split
I0403 04:07:54.938442 18812 net.cpp:148] Top shape: 24 256 28 28 (4816896)
I0403 04:07:54.938460 18812 net.cpp:148] Top shape: 24 256 28 28 (4816896)
I0403 04:07:54.938477 18812 net.cpp:148] Top shape: 24 256 28 28 (4816896)
I0403 04:07:54.938491 18812 net.cpp:148] Top shape: 24 256 28 28 (4816896)
I0403 04:07:54.938508 18812 net.cpp:156] Memory required for data: 657506688
I0403 04:07:54.938522 18812 layer_factory.hpp:77] Creating layer inception_3b/1x1
I0403 04:07:54.938547 18812 net.cpp:91] Creating Layer inception_3b/1x1
I0403 04:07:54.938565 18812 net.cpp:425] inception_3b/1x1 <- inception_3a/output_inception_3a/output_0_split_0
I0403 04:07:54.938588 18812 net.cpp:399] inception_3b/1x1 -> inception_3b/1x1
I0403 04:07:54.938973 18812 net.cpp:141] Setting up inception_3b/1x1
I0403 04:07:54.939000 18812 net.cpp:148] Top shape: 24 128 28 28 (2408448)
I0403 04:07:54.939016 18812 net.cpp:156] Memory required for data: 667140480
I0403 04:07:54.939035 18812 layer_factory.hpp:77] Creating layer inception_3b/relu_1x1
I0403 04:07:54.939056 18812 net.cpp:91] Creating Layer inception_3b/relu_1x1
I0403 04:07:54.939074 18812 net.cpp:425] inception_3b/relu_1x1 <- inception_3b/1x1
I0403 04:07:54.939092 18812 net.cpp:386] inception_3b/relu_1x1 -> inception_3b/1x1 (in-place)
I0403 04:07:54.939112 18812 net.cpp:141] Setting up inception_3b/relu_1x1
I0403 04:07:54.939132 18812 net.cpp:148] Top shape: 24 128 28 28 (2408448)
I0403 04:07:54.939147 18812 net.cpp:156] Memory required for data: 676774272
I0403 04:07:54.939162 18812 layer_factory.hpp:77] Creating layer inception_3b/3x3_reduce
I0403 04:07:54.939185 18812 net.cpp:91] Creating Layer inception_3b/3x3_reduce
I0403 04:07:54.939204 18812 net.cpp:425] inception_3b/3x3_reduce <- inception_3a/output_inception_3a/output_0_split_1
I0403 04:07:54.939226 18812 net.cpp:399] inception_3b/3x3_reduce -> inception_3b/3x3_reduce
I0403 04:07:54.939623 18812 net.cpp:141] Setting up inception_3b/3x3_reduce
I0403 04:07:54.939649 18812 net.cpp:148] Top shape: 24 128 28 28 (2408448)
I0403 04:07:54.939666 18812 net.cpp:156] Memory required for data: 686408064
I0403 04:07:54.939683 18812 layer_factory.hpp:77] Creating layer inception_3b/relu_3x3_reduce
I0403 04:07:54.939702 18812 net.cpp:91] Creating Layer inception_3b/relu_3x3_reduce
I0403 04:07:54.939719 18812 net.cpp:425] inception_3b/relu_3x3_reduce <- inception_3b/3x3_reduce
I0403 04:07:54.939738 18812 net.cpp:386] inception_3b/relu_3x3_reduce -> inception_3b/3x3_reduce (in-place)
I0403 04:07:54.939759 18812 net.cpp:141] Setting up inception_3b/relu_3x3_reduce
I0403 04:07:54.939776 18812 net.cpp:148] Top shape: 24 128 28 28 (2408448)
I0403 04:07:54.939791 18812 net.cpp:156] Memory required for data: 696041856
I0403 04:07:54.939805 18812 layer_factory.hpp:77] Creating layer inception_3b/3x3
I0403 04:07:54.939831 18812 net.cpp:91] Creating Layer inception_3b/3x3
I0403 04:07:54.939851 18812 net.cpp:425] inception_3b/3x3 <- inception_3b/3x3_reduce
I0403 04:07:54.939874 18812 net.cpp:399] inception_3b/3x3 -> inception_3b/3x3
I0403 04:07:54.941874 18812 net.cpp:141] Setting up inception_3b/3x3
I0403 04:07:54.941905 18812 net.cpp:148] Top shape: 24 192 28 28 (3612672)
I0403 04:07:54.941922 18812 net.cpp:156] Memory required for data: 710492544
I0403 04:07:54.941941 18812 layer_factory.hpp:77] Creating layer inception_3b/relu_3x3
I0403 04:07:54.941962 18812 net.cpp:91] Creating Layer inception_3b/relu_3x3
I0403 04:07:54.941980 18812 net.cpp:425] inception_3b/relu_3x3 <- inception_3b/3x3
I0403 04:07:54.942000 18812 net.cpp:386] inception_3b/relu_3x3 -> inception_3b/3x3 (in-place)
I0403 04:07:54.942021 18812 net.cpp:141] Setting up inception_3b/relu_3x3
I0403 04:07:54.942039 18812 net.cpp:148] Top shape: 24 192 28 28 (3612672)
I0403 04:07:54.942055 18812 net.cpp:156] Memory required for data: 724943232
I0403 04:07:54.942071 18812 layer_factory.hpp:77] Creating layer inception_3b/5x5_reduce
I0403 04:07:54.942096 18812 net.cpp:91] Creating Layer inception_3b/5x5_reduce
I0403 04:07:54.942114 18812 net.cpp:425] inception_3b/5x5_reduce <- inception_3a/output_inception_3a/output_0_split_2
I0403 04:07:54.942152 18812 net.cpp:399] inception_3b/5x5_reduce -> inception_3b/5x5_reduce
I0403 04:07:54.942420 18812 net.cpp:141] Setting up inception_3b/5x5_reduce
I0403 04:07:54.942445 18812 net.cpp:148] Top shape: 24 32 28 28 (602112)
I0403 04:07:54.942461 18812 net.cpp:156] Memory required for data: 727351680
I0403 04:07:54.942481 18812 layer_factory.hpp:77] Creating layer inception_3b/relu_5x5_reduce
I0403 04:07:54.942503 18812 net.cpp:91] Creating Layer inception_3b/relu_5x5_reduce
I0403 04:07:54.942522 18812 net.cpp:425] inception_3b/relu_5x5_reduce <- inception_3b/5x5_reduce
I0403 04:07:54.942541 18812 net.cpp:386] inception_3b/relu_5x5_reduce -> inception_3b/5x5_reduce (in-place)
I0403 04:07:54.942561 18812 net.cpp:141] Setting up inception_3b/relu_5x5_reduce
I0403 04:07:54.942579 18812 net.cpp:148] Top shape: 24 32 28 28 (602112)
I0403 04:07:54.942595 18812 net.cpp:156] Memory required for data: 729760128
I0403 04:07:54.942611 18812 layer_factory.hpp:77] Creating layer inception_3b/5x5
I0403 04:07:54.942634 18812 net.cpp:91] Creating Layer inception_3b/5x5
I0403 04:07:54.942651 18812 net.cpp:425] inception_3b/5x5 <- inception_3b/5x5_reduce
I0403 04:07:54.942675 18812 net.cpp:399] inception_3b/5x5 -> inception_3b/5x5
I0403 04:07:54.943866 18812 net.cpp:141] Setting up inception_3b/5x5
I0403 04:07:54.943897 18812 net.cpp:148] Top shape: 24 96 28 28 (1806336)
I0403 04:07:54.943914 18812 net.cpp:156] Memory required for data: 736985472
I0403 04:07:54.943933 18812 layer_factory.hpp:77] Creating layer inception_3b/relu_5x5
I0403 04:07:54.943953 18812 net.cpp:91] Creating Layer inception_3b/relu_5x5
I0403 04:07:54.943970 18812 net.cpp:425] inception_3b/relu_5x5 <- inception_3b/5x5
I0403 04:07:54.943991 18812 net.cpp:386] inception_3b/relu_5x5 -> inception_3b/5x5 (in-place)
I0403 04:07:54.944015 18812 net.cpp:141] Setting up inception_3b/relu_5x5
I0403 04:07:54.944033 18812 net.cpp:148] Top shape: 24 96 28 28 (1806336)
I0403 04:07:54.944048 18812 net.cpp:156] Memory required for data: 744210816
I0403 04:07:54.944063 18812 layer_factory.hpp:77] Creating layer inception_3b/pool
I0403 04:07:54.944083 18812 net.cpp:91] Creating Layer inception_3b/pool
I0403 04:07:54.944100 18812 net.cpp:425] inception_3b/pool <- inception_3a/output_inception_3a/output_0_split_3
I0403 04:07:54.944119 18812 net.cpp:399] inception_3b/pool -> inception_3b/pool
I0403 04:07:54.944172 18812 net.cpp:141] Setting up inception_3b/pool
I0403 04:07:54.944197 18812 net.cpp:148] Top shape: 24 256 28 28 (4816896)
I0403 04:07:54.944212 18812 net.cpp:156] Memory required for data: 763478400
I0403 04:07:54.944226 18812 layer_factory.hpp:77] Creating layer inception_3b/pool_proj
I0403 04:07:54.944250 18812 net.cpp:91] Creating Layer inception_3b/pool_proj
I0403 04:07:54.944270 18812 net.cpp:425] inception_3b/pool_proj <- inception_3b/pool
I0403 04:07:54.944304 18812 net.cpp:399] inception_3b/pool_proj -> inception_3b/pool_proj
I0403 04:07:54.944612 18812 net.cpp:141] Setting up inception_3b/pool_proj
I0403 04:07:54.944638 18812 net.cpp:148] Top shape: 24 64 28 28 (1204224)
I0403 04:07:54.944653 18812 net.cpp:156] Memory required for data: 768295296
I0403 04:07:54.944674 18812 layer_factory.hpp:77] Creating layer inception_3b/relu_pool_proj
I0403 04:07:54.944695 18812 net.cpp:91] Creating Layer inception_3b/relu_pool_proj
I0403 04:07:54.944713 18812 net.cpp:425] inception_3b/relu_pool_proj <- inception_3b/pool_proj
I0403 04:07:54.944733 18812 net.cpp:386] inception_3b/relu_pool_proj -> inception_3b/pool_proj (in-place)
I0403 04:07:54.944756 18812 net.cpp:141] Setting up inception_3b/relu_pool_proj
I0403 04:07:54.944774 18812 net.cpp:148] Top shape: 24 64 28 28 (1204224)
I0403 04:07:54.944789 18812 net.cpp:156] Memory required for data: 773112192
I0403 04:07:54.944805 18812 layer_factory.hpp:77] Creating layer inception_3b/output
I0403 04:07:54.944828 18812 net.cpp:91] Creating Layer inception_3b/output
I0403 04:07:54.944846 18812 net.cpp:425] inception_3b/output <- inception_3b/1x1
I0403 04:07:54.944880 18812 net.cpp:425] inception_3b/output <- inception_3b/3x3
I0403 04:07:54.944898 18812 net.cpp:425] inception_3b/output <- inception_3b/5x5
I0403 04:07:54.944916 18812 net.cpp:425] inception_3b/output <- inception_3b/pool_proj
I0403 04:07:54.944936 18812 net.cpp:399] inception_3b/output -> inception_3b/output
I0403 04:07:54.944973 18812 net.cpp:141] Setting up inception_3b/output
I0403 04:07:54.944999 18812 net.cpp:148] Top shape: 24 480 28 28 (9031680)
I0403 04:07:54.945018 18812 net.cpp:156] Memory required for data: 809238912
I0403 04:07:54.945034 18812 layer_factory.hpp:77] Creating layer pool3/3x3_s2
I0403 04:07:54.945051 18812 net.cpp:91] Creating Layer pool3/3x3_s2
I0403 04:07:54.945067 18812 net.cpp:425] pool3/3x3_s2 <- inception_3b/output
I0403 04:07:54.945086 18812 net.cpp:399] pool3/3x3_s2 -> pool3/3x3_s2
I0403 04:07:54.945138 18812 net.cpp:141] Setting up pool3/3x3_s2
I0403 04:07:54.945163 18812 net.cpp:148] Top shape: 24 480 14 14 (2257920)
I0403 04:07:54.945179 18812 net.cpp:156] Memory required for data: 818270592
I0403 04:07:54.945194 18812 layer_factory.hpp:77] Creating layer pool3/3x3_s2_pool3/3x3_s2_0_split
I0403 04:07:54.945215 18812 net.cpp:91] Creating Layer pool3/3x3_s2_pool3/3x3_s2_0_split
I0403 04:07:54.945233 18812 net.cpp:425] pool3/3x3_s2_pool3/3x3_s2_0_split <- pool3/3x3_s2
I0403 04:07:54.945252 18812 net.cpp:399] pool3/3x3_s2_pool3/3x3_s2_0_split -> pool3/3x3_s2_pool3/3x3_s2_0_split_0
I0403 04:07:54.945273 18812 net.cpp:399] pool3/3x3_s2_pool3/3x3_s2_0_split -> pool3/3x3_s2_pool3/3x3_s2_0_split_1
I0403 04:07:54.945302 18812 net.cpp:399] pool3/3x3_s2_pool3/3x3_s2_0_split -> pool3/3x3_s2_pool3/3x3_s2_0_split_2
I0403 04:07:54.945323 18812 net.cpp:399] pool3/3x3_s2_pool3/3x3_s2_0_split -> pool3/3x3_s2_pool3/3x3_s2_0_split_3
I0403 04:07:54.945390 18812 net.cpp:141] Setting up pool3/3x3_s2_pool3/3x3_s2_0_split
I0403 04:07:54.945415 18812 net.cpp:148] Top shape: 24 480 14 14 (2257920)
I0403 04:07:54.945430 18812 net.cpp:148] Top shape: 24 480 14 14 (2257920)
I0403 04:07:54.945447 18812 net.cpp:148] Top shape: 24 480 14 14 (2257920)
I0403 04:07:54.945463 18812 net.cpp:148] Top shape: 24 480 14 14 (2257920)
I0403 04:07:54.945478 18812 net.cpp:156] Memory required for data: 854397312
I0403 04:07:54.945492 18812 layer_factory.hpp:77] Creating layer inception_4a/1x1
I0403 04:07:54.945518 18812 net.cpp:91] Creating Layer inception_4a/1x1
I0403 04:07:54.945535 18812 net.cpp:425] inception_4a/1x1 <- pool3/3x3_s2_pool3/3x3_s2_0_split_0
I0403 04:07:54.945559 18812 net.cpp:399] inception_4a/1x1 -> inception_4a/1x1
I0403 04:07:54.946280 18812 net.cpp:141] Setting up inception_4a/1x1
I0403 04:07:54.946310 18812 net.cpp:148] Top shape: 24 192 14 14 (903168)
I0403 04:07:54.946326 18812 net.cpp:156] Memory required for data: 858009984
I0403 04:07:54.946344 18812 layer_factory.hpp:77] Creating layer inception_4a/relu_1x1
I0403 04:07:54.946367 18812 net.cpp:91] Creating Layer inception_4a/relu_1x1
I0403 04:07:54.946384 18812 net.cpp:425] inception_4a/relu_1x1 <- inception_4a/1x1
I0403 04:07:54.946404 18812 net.cpp:386] inception_4a/relu_1x1 -> inception_4a/1x1 (in-place)
I0403 04:07:54.946424 18812 net.cpp:141] Setting up inception_4a/relu_1x1
I0403 04:07:54.946441 18812 net.cpp:148] Top shape: 24 192 14 14 (903168)
I0403 04:07:54.946455 18812 net.cpp:156] Memory required for data: 861622656
I0403 04:07:54.946470 18812 layer_factory.hpp:77] Creating layer inception_4a/3x3_reduce
I0403 04:07:54.946498 18812 net.cpp:91] Creating Layer inception_4a/3x3_reduce
I0403 04:07:54.946517 18812 net.cpp:425] inception_4a/3x3_reduce <- pool3/3x3_s2_pool3/3x3_s2_0_split_1
I0403 04:07:54.946537 18812 net.cpp:399] inception_4a/3x3_reduce -> inception_4a/3x3_reduce
I0403 04:07:54.947011 18812 net.cpp:141] Setting up inception_4a/3x3_reduce
I0403 04:07:54.947041 18812 net.cpp:148] Top shape: 24 96 14 14 (451584)
I0403 04:07:54.947058 18812 net.cpp:156] Memory required for data: 863428992
I0403 04:07:54.947082 18812 layer_factory.hpp:77] Creating layer inception_4a/relu_3x3_reduce
I0403 04:07:54.947118 18812 net.cpp:91] Creating Layer inception_4a/relu_3x3_reduce
I0403 04:07:54.947137 18812 net.cpp:425] inception_4a/relu_3x3_reduce <- inception_4a/3x3_reduce
I0403 04:07:54.947157 18812 net.cpp:386] inception_4a/relu_3x3_reduce -> inception_4a/3x3_reduce (in-place)
I0403 04:07:54.947178 18812 net.cpp:141] Setting up inception_4a/relu_3x3_reduce
I0403 04:07:54.947196 18812 net.cpp:148] Top shape: 24 96 14 14 (451584)
I0403 04:07:54.947212 18812 net.cpp:156] Memory required for data: 865235328
I0403 04:07:54.947227 18812 layer_factory.hpp:77] Creating layer inception_4a/3x3
I0403 04:07:54.947252 18812 net.cpp:91] Creating Layer inception_4a/3x3
I0403 04:07:54.947270 18812 net.cpp:425] inception_4a/3x3 <- inception_4a/3x3_reduce
I0403 04:07:54.947293 18812 net.cpp:399] inception_4a/3x3 -> inception_4a/3x3
I0403 04:07:54.949057 18812 net.cpp:141] Setting up inception_4a/3x3
I0403 04:07:54.949086 18812 net.cpp:148] Top shape: 24 208 14 14 (978432)
I0403 04:07:54.949103 18812 net.cpp:156] Memory required for data: 869149056
I0403 04:07:54.949122 18812 layer_factory.hpp:77] Creating layer inception_4a/relu_3x3
I0403 04:07:54.949142 18812 net.cpp:91] Creating Layer inception_4a/relu_3x3
I0403 04:07:54.949157 18812 net.cpp:425] inception_4a/relu_3x3 <- inception_4a/3x3
I0403 04:07:54.949178 18812 net.cpp:386] inception_4a/relu_3x3 -> inception_4a/3x3 (in-place)
I0403 04:07:54.949200 18812 net.cpp:141] Setting up inception_4a/relu_3x3
I0403 04:07:54.949219 18812 net.cpp:148] Top shape: 24 208 14 14 (978432)
I0403 04:07:54.949234 18812 net.cpp:156] Memory required for data: 873062784
I0403 04:07:54.949250 18812 layer_factory.hpp:77] Creating layer inception_4a/5x5_reduce
I0403 04:07:54.949275 18812 net.cpp:91] Creating Layer inception_4a/5x5_reduce
I0403 04:07:54.949297 18812 net.cpp:425] inception_4a/5x5_reduce <- pool3/3x3_s2_pool3/3x3_s2_0_split_2
I0403 04:07:54.949318 18812 net.cpp:399] inception_4a/5x5_reduce -> inception_4a/5x5_reduce
I0403 04:07:54.949579 18812 net.cpp:141] Setting up inception_4a/5x5_reduce
I0403 04:07:54.949605 18812 net.cpp:148] Top shape: 24 16 14 14 (75264)
I0403 04:07:54.949621 18812 net.cpp:156] Memory required for data: 873363840
I0403 04:07:54.949640 18812 layer_factory.hpp:77] Creating layer inception_4a/relu_5x5_reduce
I0403 04:07:54.949659 18812 net.cpp:91] Creating Layer inception_4a/relu_5x5_reduce
I0403 04:07:54.949676 18812 net.cpp:425] inception_4a/relu_5x5_reduce <- inception_4a/5x5_reduce
I0403 04:07:54.949697 18812 net.cpp:386] inception_4a/relu_5x5_reduce -> inception_4a/5x5_reduce (in-place)
I0403 04:07:54.949719 18812 net.cpp:141] Setting up inception_4a/relu_5x5_reduce
I0403 04:07:54.949738 18812 net.cpp:148] Top shape: 24 16 14 14 (75264)
I0403 04:07:54.949754 18812 net.cpp:156] Memory required for data: 873664896
I0403 04:07:54.949769 18812 layer_factory.hpp:77] Creating layer inception_4a/5x5
I0403 04:07:54.949792 18812 net.cpp:91] Creating Layer inception_4a/5x5
I0403 04:07:54.949811 18812 net.cpp:425] inception_4a/5x5 <- inception_4a/5x5_reduce
I0403 04:07:54.949831 18812 net.cpp:399] inception_4a/5x5 -> inception_4a/5x5
I0403 04:07:54.950152 18812 net.cpp:141] Setting up inception_4a/5x5
I0403 04:07:54.950178 18812 net.cpp:148] Top shape: 24 48 14 14 (225792)
I0403 04:07:54.950193 18812 net.cpp:156] Memory required for data: 874568064
I0403 04:07:54.950212 18812 layer_factory.hpp:77] Creating layer inception_4a/relu_5x5
I0403 04:07:54.950230 18812 net.cpp:91] Creating Layer inception_4a/relu_5x5
I0403 04:07:54.950248 18812 net.cpp:425] inception_4a/relu_5x5 <- inception_4a/5x5
I0403 04:07:54.950269 18812 net.cpp:386] inception_4a/relu_5x5 -> inception_4a/5x5 (in-place)
I0403 04:07:54.950294 18812 net.cpp:141] Setting up inception_4a/relu_5x5
I0403 04:07:54.950315 18812 net.cpp:148] Top shape: 24 48 14 14 (225792)
I0403 04:07:54.950330 18812 net.cpp:156] Memory required for data: 875471232
I0403 04:07:54.950345 18812 layer_factory.hpp:77] Creating layer inception_4a/pool
I0403 04:07:54.950366 18812 net.cpp:91] Creating Layer inception_4a/pool
I0403 04:07:54.950383 18812 net.cpp:425] inception_4a/pool <- pool3/3x3_s2_pool3/3x3_s2_0_split_3
I0403 04:07:54.950422 18812 net.cpp:399] inception_4a/pool -> inception_4a/pool
I0403 04:07:54.950476 18812 net.cpp:141] Setting up inception_4a/pool
I0403 04:07:54.950501 18812 net.cpp:148] Top shape: 24 480 14 14 (2257920)
I0403 04:07:54.950517 18812 net.cpp:156] Memory required for data: 884502912
I0403 04:07:54.950533 18812 layer_factory.hpp:77] Creating layer inception_4a/pool_proj
I0403 04:07:54.950559 18812 net.cpp:91] Creating Layer inception_4a/pool_proj
I0403 04:07:54.950577 18812 net.cpp:425] inception_4a/pool_proj <- inception_4a/pool
I0403 04:07:54.950600 18812 net.cpp:399] inception_4a/pool_proj -> inception_4a/pool_proj
I0403 04:07:54.950983 18812 net.cpp:141] Setting up inception_4a/pool_proj
I0403 04:07:54.951009 18812 net.cpp:148] Top shape: 24 64 14 14 (301056)
I0403 04:07:54.951023 18812 net.cpp:156] Memory required for data: 885707136
I0403 04:07:54.951042 18812 layer_factory.hpp:77] Creating layer inception_4a/relu_pool_proj
I0403 04:07:54.951062 18812 net.cpp:91] Creating Layer inception_4a/relu_pool_proj
I0403 04:07:54.951079 18812 net.cpp:425] inception_4a/relu_pool_proj <- inception_4a/pool_proj
I0403 04:07:54.951097 18812 net.cpp:386] inception_4a/relu_pool_proj -> inception_4a/pool_proj (in-place)
I0403 04:07:54.951117 18812 net.cpp:141] Setting up inception_4a/relu_pool_proj
I0403 04:07:54.951135 18812 net.cpp:148] Top shape: 24 64 14 14 (301056)
I0403 04:07:54.951151 18812 net.cpp:156] Memory required for data: 886911360
I0403 04:07:54.951166 18812 layer_factory.hpp:77] Creating layer inception_4a/output
I0403 04:07:54.951187 18812 net.cpp:91] Creating Layer inception_4a/output
I0403 04:07:54.951205 18812 net.cpp:425] inception_4a/output <- inception_4a/1x1
I0403 04:07:54.951222 18812 net.cpp:425] inception_4a/output <- inception_4a/3x3
I0403 04:07:54.951241 18812 net.cpp:425] inception_4a/output <- inception_4a/5x5
I0403 04:07:54.951257 18812 net.cpp:425] inception_4a/output <- inception_4a/pool_proj
I0403 04:07:54.951277 18812 net.cpp:399] inception_4a/output -> inception_4a/output
I0403 04:07:54.951323 18812 net.cpp:141] Setting up inception_4a/output
I0403 04:07:54.951349 18812 net.cpp:148] Top shape: 24 512 14 14 (2408448)
I0403 04:07:54.951364 18812 net.cpp:156] Memory required for data: 896545152
I0403 04:07:54.951378 18812 layer_factory.hpp:77] Creating layer inception_4a/output_inception_4a/output_0_split
I0403 04:07:54.951397 18812 net.cpp:91] Creating Layer inception_4a/output_inception_4a/output_0_split
I0403 04:07:54.951414 18812 net.cpp:425] inception_4a/output_inception_4a/output_0_split <- inception_4a/output
I0403 04:07:54.951436 18812 net.cpp:399] inception_4a/output_inception_4a/output_0_split -> inception_4a/output_inception_4a/output_0_split_0
I0403 04:07:54.951459 18812 net.cpp:399] inception_4a/output_inception_4a/output_0_split -> inception_4a/output_inception_4a/output_0_split_1
I0403 04:07:54.951481 18812 net.cpp:399] inception_4a/output_inception_4a/output_0_split -> inception_4a/output_inception_4a/output_0_split_2
I0403 04:07:54.951503 18812 net.cpp:399] inception_4a/output_inception_4a/output_0_split -> inception_4a/output_inception_4a/output_0_split_3
I0403 04:07:54.951522 18812 net.cpp:399] inception_4a/output_inception_4a/output_0_split -> inception_4a/output_inception_4a/output_0_split_4
I0403 04:07:54.951602 18812 net.cpp:141] Setting up inception_4a/output_inception_4a/output_0_split
I0403 04:07:54.951629 18812 net.cpp:148] Top shape: 24 512 14 14 (2408448)
I0403 04:07:54.951647 18812 net.cpp:148] Top shape: 24 512 14 14 (2408448)
I0403 04:07:54.951663 18812 net.cpp:148] Top shape: 24 512 14 14 (2408448)
I0403 04:07:54.951678 18812 net.cpp:148] Top shape: 24 512 14 14 (2408448)
I0403 04:07:54.951694 18812 net.cpp:148] Top shape: 24 512 14 14 (2408448)
I0403 04:07:54.951709 18812 net.cpp:156] Memory required for data: 944714112
I0403 04:07:54.951724 18812 layer_factory.hpp:77] Creating layer loss1/ave_pool
I0403 04:07:54.951741 18812 net.cpp:91] Creating Layer loss1/ave_pool
I0403 04:07:54.951774 18812 net.cpp:425] loss1/ave_pool <- inception_4a/output_inception_4a/output_0_split_0
I0403 04:07:54.951794 18812 net.cpp:399] loss1/ave_pool -> loss1/ave_pool
I0403 04:07:54.951838 18812 net.cpp:141] Setting up loss1/ave_pool
I0403 04:07:54.951863 18812 net.cpp:148] Top shape: 24 512 4 4 (196608)
I0403 04:07:54.951879 18812 net.cpp:156] Memory required for data: 945500544
I0403 04:07:54.951894 18812 layer_factory.hpp:77] Creating layer loss1/conv
I0403 04:07:54.951916 18812 net.cpp:91] Creating Layer loss1/conv
I0403 04:07:54.951933 18812 net.cpp:425] loss1/conv <- loss1/ave_pool
I0403 04:07:54.951956 18812 net.cpp:399] loss1/conv -> loss1/conv
I0403 04:07:54.952533 18812 net.cpp:141] Setting up loss1/conv
I0403 04:07:54.952560 18812 net.cpp:148] Top shape: 24 128 4 4 (49152)
I0403 04:07:54.952576 18812 net.cpp:156] Memory required for data: 945697152
I0403 04:07:54.952594 18812 layer_factory.hpp:77] Creating layer loss1/relu_conv
I0403 04:07:54.952613 18812 net.cpp:91] Creating Layer loss1/relu_conv
I0403 04:07:54.952631 18812 net.cpp:425] loss1/relu_conv <- loss1/conv
I0403 04:07:54.952648 18812 net.cpp:386] loss1/relu_conv -> loss1/conv (in-place)
I0403 04:07:54.952669 18812 net.cpp:141] Setting up loss1/relu_conv
I0403 04:07:54.952688 18812 net.cpp:148] Top shape: 24 128 4 4 (49152)
I0403 04:07:54.952703 18812 net.cpp:156] Memory required for data: 945893760
I0403 04:07:54.952718 18812 layer_factory.hpp:77] Creating layer loss1/fc
I0403 04:07:54.952744 18812 net.cpp:91] Creating Layer loss1/fc
I0403 04:07:54.952764 18812 net.cpp:425] loss1/fc <- loss1/conv
I0403 04:07:54.952782 18812 net.cpp:399] loss1/fc -> loss1/fc
I0403 04:07:54.969015 18812 net.cpp:141] Setting up loss1/fc
I0403 04:07:54.969060 18812 net.cpp:148] Top shape: 24 1024 (24576)
I0403 04:07:54.969077 18812 net.cpp:156] Memory required for data: 945992064
I0403 04:07:54.969097 18812 layer_factory.hpp:77] Creating layer loss1/relu_fc
I0403 04:07:54.969118 18812 net.cpp:91] Creating Layer loss1/relu_fc
I0403 04:07:54.969137 18812 net.cpp:425] loss1/relu_fc <- loss1/fc
I0403 04:07:54.969156 18812 net.cpp:386] loss1/relu_fc -> loss1/fc (in-place)
I0403 04:07:54.969178 18812 net.cpp:141] Setting up loss1/relu_fc
I0403 04:07:54.969197 18812 net.cpp:148] Top shape: 24 1024 (24576)
I0403 04:07:54.969211 18812 net.cpp:156] Memory required for data: 946090368
I0403 04:07:54.969225 18812 layer_factory.hpp:77] Creating layer loss1/drop_fc
I0403 04:07:54.969259 18812 net.cpp:91] Creating Layer loss1/drop_fc
I0403 04:07:54.969279 18812 net.cpp:425] loss1/drop_fc <- loss1/fc
I0403 04:07:54.969301 18812 net.cpp:386] loss1/drop_fc -> loss1/fc (in-place)
I0403 04:07:54.969349 18812 net.cpp:141] Setting up loss1/drop_fc
I0403 04:07:54.969377 18812 net.cpp:148] Top shape: 24 1024 (24576)
I0403 04:07:54.969393 18812 net.cpp:156] Memory required for data: 946188672
I0403 04:07:54.969408 18812 layer_factory.hpp:77] Creating layer loss1/classifier_plantvillage
I0403 04:07:54.969429 18812 net.cpp:91] Creating Layer loss1/classifier_plantvillage
I0403 04:07:54.969446 18812 net.cpp:425] loss1/classifier_plantvillage <- loss1/fc
I0403 04:07:54.969470 18812 net.cpp:399] loss1/classifier_plantvillage -> loss1/classifier_plantvillage
I0403 04:07:54.970337 18812 net.cpp:141] Setting up loss1/classifier_plantvillage
I0403 04:07:54.970366 18812 net.cpp:148] Top shape: 24 38 (912)
I0403 04:07:54.970382 18812 net.cpp:156] Memory required for data: 946192320
I0403 04:07:54.970402 18812 layer_factory.hpp:77] Creating layer inception_4b/1x1
I0403 04:07:54.970428 18812 net.cpp:91] Creating Layer inception_4b/1x1
I0403 04:07:54.970448 18812 net.cpp:425] inception_4b/1x1 <- inception_4a/output_inception_4a/output_0_split_1
I0403 04:07:54.970473 18812 net.cpp:399] inception_4b/1x1 -> inception_4b/1x1
I0403 04:07:54.971153 18812 net.cpp:141] Setting up inception_4b/1x1
I0403 04:07:54.971179 18812 net.cpp:148] Top shape: 24 160 14 14 (752640)
I0403 04:07:54.971195 18812 net.cpp:156] Memory required for data: 949202880
I0403 04:07:54.971215 18812 layer_factory.hpp:77] Creating layer inception_4b/relu_1x1
I0403 04:07:54.971256 18812 net.cpp:91] Creating Layer inception_4b/relu_1x1
I0403 04:07:54.971276 18812 net.cpp:425] inception_4b/relu_1x1 <- inception_4b/1x1
I0403 04:07:54.971299 18812 net.cpp:386] inception_4b/relu_1x1 -> inception_4b/1x1 (in-place)
I0403 04:07:54.971321 18812 net.cpp:141] Setting up inception_4b/relu_1x1
I0403 04:07:54.971339 18812 net.cpp:148] Top shape: 24 160 14 14 (752640)
I0403 04:07:54.971354 18812 net.cpp:156] Memory required for data: 952213440
I0403 04:07:54.971370 18812 layer_factory.hpp:77] Creating layer inception_4b/3x3_reduce
I0403 04:07:54.971395 18812 net.cpp:91] Creating Layer inception_4b/3x3_reduce
I0403 04:07:54.971412 18812 net.cpp:425] inception_4b/3x3_reduce <- inception_4a/output_inception_4a/output_0_split_2
I0403 04:07:54.971434 18812 net.cpp:399] inception_4b/3x3_reduce -> inception_4b/3x3_reduce
I0403 04:07:54.971971 18812 net.cpp:141] Setting up inception_4b/3x3_reduce
I0403 04:07:54.971997 18812 net.cpp:148] Top shape: 24 112 14 14 (526848)
I0403 04:07:54.972013 18812 net.cpp:156] Memory required for data: 954320832
I0403 04:07:54.972033 18812 layer_factory.hpp:77] Creating layer inception_4b/relu_3x3_reduce
I0403 04:07:54.972051 18812 net.cpp:91] Creating Layer inception_4b/relu_3x3_reduce
I0403 04:07:54.972069 18812 net.cpp:425] inception_4b/relu_3x3_reduce <- inception_4b/3x3_reduce
I0403 04:07:54.972086 18812 net.cpp:386] inception_4b/relu_3x3_reduce -> inception_4b/3x3_reduce (in-place)
I0403 04:07:54.972106 18812 net.cpp:141] Setting up inception_4b/relu_3x3_reduce
I0403 04:07:54.972126 18812 net.cpp:148] Top shape: 24 112 14 14 (526848)
I0403 04:07:54.972141 18812 net.cpp:156] Memory required for data: 956428224
I0403 04:07:54.972157 18812 layer_factory.hpp:77] Creating layer inception_4b/3x3
I0403 04:07:54.972180 18812 net.cpp:91] Creating Layer inception_4b/3x3
I0403 04:07:54.972199 18812 net.cpp:425] inception_4b/3x3 <- inception_4b/3x3_reduce
I0403 04:07:54.972221 18812 net.cpp:399] inception_4b/3x3 -> inception_4b/3x3
I0403 04:07:54.974280 18812 net.cpp:141] Setting up inception_4b/3x3
I0403 04:07:54.974321 18812 net.cpp:148] Top shape: 24 224 14 14 (1053696)
I0403 04:07:54.974339 18812 net.cpp:156] Memory required for data: 960643008
I0403 04:07:54.974359 18812 layer_factory.hpp:77] Creating layer inception_4b/relu_3x3
I0403 04:07:54.974380 18812 net.cpp:91] Creating Layer inception_4b/relu_3x3
I0403 04:07:54.974397 18812 net.cpp:425] inception_4b/relu_3x3 <- inception_4b/3x3
I0403 04:07:54.974416 18812 net.cpp:386] inception_4b/relu_3x3 -> inception_4b/3x3 (in-place)
I0403 04:07:54.974437 18812 net.cpp:141] Setting up inception_4b/relu_3x3
I0403 04:07:54.974457 18812 net.cpp:148] Top shape: 24 224 14 14 (1053696)
I0403 04:07:54.974472 18812 net.cpp:156] Memory required for data: 964857792
I0403 04:07:54.974486 18812 layer_factory.hpp:77] Creating layer inception_4b/5x5_reduce
I0403 04:07:54.974510 18812 net.cpp:91] Creating Layer inception_4b/5x5_reduce
I0403 04:07:54.974529 18812 net.cpp:425] inception_4b/5x5_reduce <- inception_4a/output_inception_4a/output_0_split_3
I0403 04:07:54.974553 18812 net.cpp:399] inception_4b/5x5_reduce -> inception_4b/5x5_reduce
I0403 04:07:54.974853 18812 net.cpp:141] Setting up inception_4b/5x5_reduce
I0403 04:07:54.974879 18812 net.cpp:148] Top shape: 24 24 14 14 (112896)
I0403 04:07:54.974895 18812 net.cpp:156] Memory required for data: 965309376
I0403 04:07:54.974912 18812 layer_factory.hpp:77] Creating layer inception_4b/relu_5x5_reduce
I0403 04:07:54.974934 18812 net.cpp:91] Creating Layer inception_4b/relu_5x5_reduce
I0403 04:07:54.974952 18812 net.cpp:425] inception_4b/relu_5x5_reduce <- inception_4b/5x5_reduce
I0403 04:07:54.974972 18812 net.cpp:386] inception_4b/relu_5x5_reduce -> inception_4b/5x5_reduce (in-place)
I0403 04:07:54.974992 18812 net.cpp:141] Setting up inception_4b/relu_5x5_reduce
I0403 04:07:54.975011 18812 net.cpp:148] Top shape: 24 24 14 14 (112896)
I0403 04:07:54.975028 18812 net.cpp:156] Memory required for data: 965760960
I0403 04:07:54.975042 18812 layer_factory.hpp:77] Creating layer inception_4b/5x5
I0403 04:07:54.975083 18812 net.cpp:91] Creating Layer inception_4b/5x5
I0403 04:07:54.975103 18812 net.cpp:425] inception_4b/5x5 <- inception_4b/5x5_reduce
I0403 04:07:54.975126 18812 net.cpp:399] inception_4b/5x5 -> inception_4b/5x5
I0403 04:07:54.975564 18812 net.cpp:141] Setting up inception_4b/5x5
I0403 04:07:54.975592 18812 net.cpp:148] Top shape: 24 64 14 14 (301056)
I0403 04:07:54.975610 18812 net.cpp:156] Memory required for data: 966965184
I0403 04:07:54.975628 18812 layer_factory.hpp:77] Creating layer inception_4b/relu_5x5
I0403 04:07:54.975648 18812 net.cpp:91] Creating Layer inception_4b/relu_5x5
I0403 04:07:54.975666 18812 net.cpp:425] inception_4b/relu_5x5 <- inception_4b/5x5
I0403 04:07:54.975685 18812 net.cpp:386] inception_4b/relu_5x5 -> inception_4b/5x5 (in-place)
I0403 04:07:54.975704 18812 net.cpp:141] Setting up inception_4b/relu_5x5
I0403 04:07:54.975723 18812 net.cpp:148] Top shape: 24 64 14 14 (301056)
I0403 04:07:54.975738 18812 net.cpp:156] Memory required for data: 968169408
I0403 04:07:54.975752 18812 layer_factory.hpp:77] Creating layer inception_4b/pool
I0403 04:07:54.975771 18812 net.cpp:91] Creating Layer inception_4b/pool
I0403 04:07:54.975787 18812 net.cpp:425] inception_4b/pool <- inception_4a/output_inception_4a/output_0_split_4
I0403 04:07:54.975807 18812 net.cpp:399] inception_4b/pool -> inception_4b/pool
I0403 04:07:54.975862 18812 net.cpp:141] Setting up inception_4b/pool
I0403 04:07:54.975886 18812 net.cpp:148] Top shape: 24 512 14 14 (2408448)
I0403 04:07:54.975901 18812 net.cpp:156] Memory required for data: 977803200
I0403 04:07:54.975917 18812 layer_factory.hpp:77] Creating layer inception_4b/pool_proj
I0403 04:07:54.975944 18812 net.cpp:91] Creating Layer inception_4b/pool_proj
I0403 04:07:54.975962 18812 net.cpp:425] inception_4b/pool_proj <- inception_4b/pool
I0403 04:07:54.975983 18812 net.cpp:399] inception_4b/pool_proj -> inception_4b/pool_proj
I0403 04:07:54.976397 18812 net.cpp:141] Setting up inception_4b/pool_proj
I0403 04:07:54.976423 18812 net.cpp:148] Top shape: 24 64 14 14 (301056)
I0403 04:07:54.976439 18812 net.cpp:156] Memory required for data: 979007424
I0403 04:07:54.976459 18812 layer_factory.hpp:77] Creating layer inception_4b/relu_pool_proj
I0403 04:07:54.976477 18812 net.cpp:91] Creating Layer inception_4b/relu_pool_proj
I0403 04:07:54.976493 18812 net.cpp:425] inception_4b/relu_pool_proj <- inception_4b/pool_proj
I0403 04:07:54.976514 18812 net.cpp:386] inception_4b/relu_pool_proj -> inception_4b/pool_proj (in-place)
I0403 04:07:54.976536 18812 net.cpp:141] Setting up inception_4b/relu_pool_proj
I0403 04:07:54.976555 18812 net.cpp:148] Top shape: 24 64 14 14 (301056)
I0403 04:07:54.976572 18812 net.cpp:156] Memory required for data: 980211648
I0403 04:07:54.976585 18812 layer_factory.hpp:77] Creating layer inception_4b/output
I0403 04:07:54.976604 18812 net.cpp:91] Creating Layer inception_4b/output
I0403 04:07:54.976621 18812 net.cpp:425] inception_4b/output <- inception_4b/1x1
I0403 04:07:54.976639 18812 net.cpp:425] inception_4b/output <- inception_4b/3x3
I0403 04:07:54.976655 18812 net.cpp:425] inception_4b/output <- inception_4b/5x5
I0403 04:07:54.976675 18812 net.cpp:425] inception_4b/output <- inception_4b/pool_proj
I0403 04:07:54.976693 18812 net.cpp:399] inception_4b/output -> inception_4b/output
I0403 04:07:54.976735 18812 net.cpp:141] Setting up inception_4b/output
I0403 04:07:54.976759 18812 net.cpp:148] Top shape: 24 512 14 14 (2408448)
I0403 04:07:54.976775 18812 net.cpp:156] Memory required for data: 989845440
I0403 04:07:54.976790 18812 layer_factory.hpp:77] Creating layer inception_4b/output_inception_4b/output_0_split
I0403 04:07:54.976810 18812 net.cpp:91] Creating Layer inception_4b/output_inception_4b/output_0_split
I0403 04:07:54.976827 18812 net.cpp:425] inception_4b/output_inception_4b/output_0_split <- inception_4b/output
I0403 04:07:54.976848 18812 net.cpp:399] inception_4b/output_inception_4b/output_0_split -> inception_4b/output_inception_4b/output_0_split_0
I0403 04:07:54.976871 18812 net.cpp:399] inception_4b/output_inception_4b/output_0_split -> inception_4b/output_inception_4b/output_0_split_1
I0403 04:07:54.976907 18812 net.cpp:399] inception_4b/output_inception_4b/output_0_split -> inception_4b/output_inception_4b/output_0_split_2
I0403 04:07:54.976929 18812 net.cpp:399] inception_4b/output_inception_4b/output_0_split -> inception_4b/output_inception_4b/output_0_split_3
I0403 04:07:54.977005 18812 net.cpp:141] Setting up inception_4b/output_inception_4b/output_0_split
I0403 04:07:54.977032 18812 net.cpp:148] Top shape: 24 512 14 14 (2408448)
I0403 04:07:54.977049 18812 net.cpp:148] Top shape: 24 512 14 14 (2408448)
I0403 04:07:54.977064 18812 net.cpp:148] Top shape: 24 512 14 14 (2408448)
I0403 04:07:54.977080 18812 net.cpp:148] Top shape: 24 512 14 14 (2408448)
I0403 04:07:54.977094 18812 net.cpp:156] Memory required for data: 1028380608
I0403 04:07:54.977110 18812 layer_factory.hpp:77] Creating layer inception_4c/1x1
I0403 04:07:54.977134 18812 net.cpp:91] Creating Layer inception_4c/1x1
I0403 04:07:54.977152 18812 net.cpp:425] inception_4c/1x1 <- inception_4b/output_inception_4b/output_0_split_0
I0403 04:07:54.977172 18812 net.cpp:399] inception_4c/1x1 -> inception_4c/1x1
I0403 04:07:54.977754 18812 net.cpp:141] Setting up inception_4c/1x1
I0403 04:07:54.977782 18812 net.cpp:148] Top shape: 24 128 14 14 (602112)
I0403 04:07:54.977798 18812 net.cpp:156] Memory required for data: 1030789056
I0403 04:07:54.977818 18812 layer_factory.hpp:77] Creating layer inception_4c/relu_1x1
I0403 04:07:54.977835 18812 net.cpp:91] Creating Layer inception_4c/relu_1x1
I0403 04:07:54.977852 18812 net.cpp:425] inception_4c/relu_1x1 <- inception_4c/1x1
I0403 04:07:54.977872 18812 net.cpp:386] inception_4c/relu_1x1 -> inception_4c/1x1 (in-place)
I0403 04:07:54.977893 18812 net.cpp:141] Setting up inception_4c/relu_1x1
I0403 04:07:54.977911 18812 net.cpp:148] Top shape: 24 128 14 14 (602112)
I0403 04:07:54.977927 18812 net.cpp:156] Memory required for data: 1033197504
I0403 04:07:54.977942 18812 layer_factory.hpp:77] Creating layer inception_4c/3x3_reduce
I0403 04:07:54.977963 18812 net.cpp:91] Creating Layer inception_4c/3x3_reduce
I0403 04:07:54.977982 18812 net.cpp:425] inception_4c/3x3_reduce <- inception_4b/output_inception_4b/output_0_split_1
I0403 04:07:54.978004 18812 net.cpp:399] inception_4c/3x3_reduce -> inception_4c/3x3_reduce
I0403 04:07:54.979166 18812 net.cpp:141] Setting up inception_4c/3x3_reduce
I0403 04:07:54.979193 18812 net.cpp:148] Top shape: 24 128 14 14 (602112)
I0403 04:07:54.979209 18812 net.cpp:156] Memory required for data: 1035605952
I0403 04:07:54.979228 18812 layer_factory.hpp:77] Creating layer inception_4c/relu_3x3_reduce
I0403 04:07:54.979248 18812 net.cpp:91] Creating Layer inception_4c/relu_3x3_reduce
I0403 04:07:54.979266 18812 net.cpp:425] inception_4c/relu_3x3_reduce <- inception_4c/3x3_reduce
I0403 04:07:54.979288 18812 net.cpp:386] inception_4c/relu_3x3_reduce -> inception_4c/3x3_reduce (in-place)
I0403 04:07:54.979310 18812 net.cpp:141] Setting up inception_4c/relu_3x3_reduce
I0403 04:07:54.979329 18812 net.cpp:148] Top shape: 24 128 14 14 (602112)
I0403 04:07:54.979343 18812 net.cpp:156] Memory required for data: 1038014400
I0403 04:07:54.979357 18812 layer_factory.hpp:77] Creating layer inception_4c/3x3
I0403 04:07:54.979382 18812 net.cpp:91] Creating Layer inception_4c/3x3
I0403 04:07:54.979399 18812 net.cpp:425] inception_4c/3x3 <- inception_4c/3x3_reduce
I0403 04:07:54.979423 18812 net.cpp:399] inception_4c/3x3 -> inception_4c/3x3
I0403 04:07:54.981820 18812 net.cpp:141] Setting up inception_4c/3x3
I0403 04:07:54.981849 18812 net.cpp:148] Top shape: 24 256 14 14 (1204224)
I0403 04:07:54.981864 18812 net.cpp:156] Memory required for data: 1042831296
I0403 04:07:54.981895 18812 layer_factory.hpp:77] Creating layer inception_4c/relu_3x3
I0403 04:07:54.981920 18812 net.cpp:91] Creating Layer inception_4c/relu_3x3
I0403 04:07:54.981937 18812 net.cpp:425] inception_4c/relu_3x3 <- inception_4c/3x3
I0403 04:07:54.981957 18812 net.cpp:386] inception_4c/relu_3x3 -> inception_4c/3x3 (in-place)
I0403 04:07:54.981992 18812 net.cpp:141] Setting up inception_4c/relu_3x3
I0403 04:07:54.982012 18812 net.cpp:148] Top shape: 24 256 14 14 (1204224)
I0403 04:07:54.982028 18812 net.cpp:156] Memory required for data: 1047648192
I0403 04:07:54.982041 18812 layer_factory.hpp:77] Creating layer inception_4c/5x5_reduce
I0403 04:07:54.982065 18812 net.cpp:91] Creating Layer inception_4c/5x5_reduce
I0403 04:07:54.982084 18812 net.cpp:425] inception_4c/5x5_reduce <- inception_4b/output_inception_4b/output_0_split_2
I0403 04:07:54.982105 18812 net.cpp:399] inception_4c/5x5_reduce -> inception_4c/5x5_reduce
I0403 04:07:54.982391 18812 net.cpp:141] Setting up inception_4c/5x5_reduce
I0403 04:07:54.982417 18812 net.cpp:148] Top shape: 24 24 14 14 (112896)
I0403 04:07:54.982432 18812 net.cpp:156] Memory required for data: 1048099776
I0403 04:07:54.982450 18812 layer_factory.hpp:77] Creating layer inception_4c/relu_5x5_reduce
I0403 04:07:54.982470 18812 net.cpp:91] Creating Layer inception_4c/relu_5x5_reduce
I0403 04:07:54.982487 18812 net.cpp:425] inception_4c/relu_5x5_reduce <- inception_4c/5x5_reduce
I0403 04:07:54.982507 18812 net.cpp:386] inception_4c/relu_5x5_reduce -> inception_4c/5x5_reduce (in-place)
I0403 04:07:54.982527 18812 net.cpp:141] Setting up inception_4c/relu_5x5_reduce
I0403 04:07:54.982547 18812 net.cpp:148] Top shape: 24 24 14 14 (112896)
I0403 04:07:54.982561 18812 net.cpp:156] Memory required for data: 1048551360
I0403 04:07:54.982576 18812 layer_factory.hpp:77] Creating layer inception_4c/5x5
I0403 04:07:54.982596 18812 net.cpp:91] Creating Layer inception_4c/5x5
I0403 04:07:54.982614 18812 net.cpp:425] inception_4c/5x5 <- inception_4c/5x5_reduce
I0403 04:07:54.982635 18812 net.cpp:399] inception_4c/5x5 -> inception_4c/5x5
I0403 04:07:54.983063 18812 net.cpp:141] Setting up inception_4c/5x5
I0403 04:07:54.983089 18812 net.cpp:148] Top shape: 24 64 14 14 (301056)
I0403 04:07:54.983104 18812 net.cpp:156] Memory required for data: 1049755584
I0403 04:07:54.983122 18812 layer_factory.hpp:77] Creating layer inception_4c/relu_5x5
I0403 04:07:54.983140 18812 net.cpp:91] Creating Layer inception_4c/relu_5x5
I0403 04:07:54.983157 18812 net.cpp:425] inception_4c/relu_5x5 <- inception_4c/5x5
I0403 04:07:54.983175 18812 net.cpp:386] inception_4c/relu_5x5 -> inception_4c/5x5 (in-place)
I0403 04:07:54.983197 18812 net.cpp:141] Setting up inception_4c/relu_5x5
I0403 04:07:54.983217 18812 net.cpp:148] Top shape: 24 64 14 14 (301056)
I0403 04:07:54.983232 18812 net.cpp:156] Memory required for data: 1050959808
I0403 04:07:54.983247 18812 layer_factory.hpp:77] Creating layer inception_4c/pool
I0403 04:07:54.983264 18812 net.cpp:91] Creating Layer inception_4c/pool
I0403 04:07:54.983281 18812 net.cpp:425] inception_4c/pool <- inception_4b/output_inception_4b/output_0_split_3
I0403 04:07:54.983305 18812 net.cpp:399] inception_4c/pool -> inception_4c/pool
I0403 04:07:54.983362 18812 net.cpp:141] Setting up inception_4c/pool
I0403 04:07:54.983387 18812 net.cpp:148] Top shape: 24 512 14 14 (2408448)
I0403 04:07:54.983403 18812 net.cpp:156] Memory required for data: 1060593600
I0403 04:07:54.983418 18812 layer_factory.hpp:77] Creating layer inception_4c/pool_proj
I0403 04:07:54.983441 18812 net.cpp:91] Creating Layer inception_4c/pool_proj
I0403 04:07:54.983460 18812 net.cpp:425] inception_4c/pool_proj <- inception_4c/pool
I0403 04:07:54.983482 18812 net.cpp:399] inception_4c/pool_proj -> inception_4c/pool_proj
I0403 04:07:54.983875 18812 net.cpp:141] Setting up inception_4c/pool_proj
I0403 04:07:54.983901 18812 net.cpp:148] Top shape: 24 64 14 14 (301056)
I0403 04:07:54.983916 18812 net.cpp:156] Memory required for data: 1061797824
I0403 04:07:54.983933 18812 layer_factory.hpp:77] Creating layer inception_4c/relu_pool_proj
I0403 04:07:54.983952 18812 net.cpp:91] Creating Layer inception_4c/relu_pool_proj
I0403 04:07:54.983969 18812 net.cpp:425] inception_4c/relu_pool_proj <- inception_4c/pool_proj
I0403 04:07:54.983988 18812 net.cpp:386] inception_4c/relu_pool_proj -> inception_4c/pool_proj (in-place)
I0403 04:07:54.984007 18812 net.cpp:141] Setting up inception_4c/relu_pool_proj
I0403 04:07:54.984040 18812 net.cpp:148] Top shape: 24 64 14 14 (301056)
I0403 04:07:54.984056 18812 net.cpp:156] Memory required for data: 1063002048
I0403 04:07:54.984071 18812 layer_factory.hpp:77] Creating layer inception_4c/output
I0403 04:07:54.984091 18812 net.cpp:91] Creating Layer inception_4c/output
I0403 04:07:54.984108 18812 net.cpp:425] inception_4c/output <- inception_4c/1x1
I0403 04:07:54.984125 18812 net.cpp:425] inception_4c/output <- inception_4c/3x3
I0403 04:07:54.984141 18812 net.cpp:425] inception_4c/output <- inception_4c/5x5
I0403 04:07:54.984158 18812 net.cpp:425] inception_4c/output <- inception_4c/pool_proj
I0403 04:07:54.984176 18812 net.cpp:399] inception_4c/output -> inception_4c/output
I0403 04:07:54.984215 18812 net.cpp:141] Setting up inception_4c/output
I0403 04:07:54.984241 18812 net.cpp:148] Top shape: 24 512 14 14 (2408448)
I0403 04:07:54.984256 18812 net.cpp:156] Memory required for data: 1072635840
I0403 04:07:54.984272 18812 layer_factory.hpp:77] Creating layer inception_4c/output_inception_4c/output_0_split
I0403 04:07:54.984314 18812 net.cpp:91] Creating Layer inception_4c/output_inception_4c/output_0_split
I0403 04:07:54.984335 18812 net.cpp:425] inception_4c/output_inception_4c/output_0_split <- inception_4c/output
I0403 04:07:54.984359 18812 net.cpp:399] inception_4c/output_inception_4c/output_0_split -> inception_4c/output_inception_4c/output_0_split_0
I0403 04:07:54.984385 18812 net.cpp:399] inception_4c/output_inception_4c/output_0_split -> inception_4c/output_inception_4c/output_0_split_1
I0403 04:07:54.984408 18812 net.cpp:399] inception_4c/output_inception_4c/output_0_split -> inception_4c/output_inception_4c/output_0_split_2
I0403 04:07:54.984431 18812 net.cpp:399] inception_4c/output_inception_4c/output_0_split -> inception_4c/output_inception_4c/output_0_split_3
I0403 04:07:54.984501 18812 net.cpp:141] Setting up inception_4c/output_inception_4c/output_0_split
I0403 04:07:54.984525 18812 net.cpp:148] Top shape: 24 512 14 14 (2408448)
I0403 04:07:54.984542 18812 net.cpp:148] Top shape: 24 512 14 14 (2408448)
I0403 04:07:54.984558 18812 net.cpp:148] Top shape: 24 512 14 14 (2408448)
I0403 04:07:54.984575 18812 net.cpp:148] Top shape: 24 512 14 14 (2408448)
I0403 04:07:54.984589 18812 net.cpp:156] Memory required for data: 1111171008
I0403 04:07:54.984606 18812 layer_factory.hpp:77] Creating layer inception_4d/1x1
I0403 04:07:54.984638 18812 net.cpp:91] Creating Layer inception_4d/1x1
I0403 04:07:54.984657 18812 net.cpp:425] inception_4d/1x1 <- inception_4c/output_inception_4c/output_0_split_0
I0403 04:07:54.984680 18812 net.cpp:399] inception_4d/1x1 -> inception_4d/1x1
I0403 04:07:54.985220 18812 net.cpp:141] Setting up inception_4d/1x1
I0403 04:07:54.985246 18812 net.cpp:148] Top shape: 24 112 14 14 (526848)
I0403 04:07:54.985263 18812 net.cpp:156] Memory required for data: 1113278400
I0403 04:07:54.985281 18812 layer_factory.hpp:77] Creating layer inception_4d/relu_1x1
I0403 04:07:54.985306 18812 net.cpp:91] Creating Layer inception_4d/relu_1x1
I0403 04:07:54.985323 18812 net.cpp:425] inception_4d/relu_1x1 <- inception_4d/1x1
I0403 04:07:54.985342 18812 net.cpp:386] inception_4d/relu_1x1 -> inception_4d/1x1 (in-place)
I0403 04:07:54.985364 18812 net.cpp:141] Setting up inception_4d/relu_1x1
I0403 04:07:54.985384 18812 net.cpp:148] Top shape: 24 112 14 14 (526848)
I0403 04:07:54.985399 18812 net.cpp:156] Memory required for data: 1115385792
I0403 04:07:54.985414 18812 layer_factory.hpp:77] Creating layer inception_4d/3x3_reduce
I0403 04:07:54.985435 18812 net.cpp:91] Creating Layer inception_4d/3x3_reduce
I0403 04:07:54.985452 18812 net.cpp:425] inception_4d/3x3_reduce <- inception_4c/output_inception_4c/output_0_split_1
I0403 04:07:54.985476 18812 net.cpp:399] inception_4d/3x3_reduce -> inception_4d/3x3_reduce
I0403 04:07:54.986130 18812 net.cpp:141] Setting up inception_4d/3x3_reduce
I0403 04:07:54.986156 18812 net.cpp:148] Top shape: 24 144 14 14 (677376)
I0403 04:07:54.986171 18812 net.cpp:156] Memory required for data: 1118095296
I0403 04:07:54.986204 18812 layer_factory.hpp:77] Creating layer inception_4d/relu_3x3_reduce
I0403 04:07:54.986224 18812 net.cpp:91] Creating Layer inception_4d/relu_3x3_reduce
I0403 04:07:54.986243 18812 net.cpp:425] inception_4d/relu_3x3_reduce <- inception_4d/3x3_reduce
I0403 04:07:54.986261 18812 net.cpp:386] inception_4d/relu_3x3_reduce -> inception_4d/3x3_reduce (in-place)
I0403 04:07:54.986281 18812 net.cpp:141] Setting up inception_4d/relu_3x3_reduce
I0403 04:07:54.986304 18812 net.cpp:148] Top shape: 24 144 14 14 (677376)
I0403 04:07:54.986320 18812 net.cpp:156] Memory required for data: 1120804800
I0403 04:07:54.986335 18812 layer_factory.hpp:77] Creating layer inception_4d/3x3
I0403 04:07:54.986363 18812 net.cpp:91] Creating Layer inception_4d/3x3
I0403 04:07:54.986382 18812 net.cpp:425] inception_4d/3x3 <- inception_4d/3x3_reduce
I0403 04:07:54.986405 18812 net.cpp:399] inception_4d/3x3 -> inception_4d/3x3
I0403 04:07:54.989603 18812 net.cpp:141] Setting up inception_4d/3x3
I0403 04:07:54.989631 18812 net.cpp:148] Top shape: 24 288 14 14 (1354752)
I0403 04:07:54.989647 18812 net.cpp:156] Memory required for data: 1126223808
I0403 04:07:54.989666 18812 layer_factory.hpp:77] Creating layer inception_4d/relu_3x3
I0403 04:07:54.989688 18812 net.cpp:91] Creating Layer inception_4d/relu_3x3
I0403 04:07:54.989706 18812 net.cpp:425] inception_4d/relu_3x3 <- inception_4d/3x3
I0403 04:07:54.989728 18812 net.cpp:386] inception_4d/relu_3x3 -> inception_4d/3x3 (in-place)
I0403 04:07:54.989749 18812 net.cpp:141] Setting up inception_4d/relu_3x3
I0403 04:07:54.989768 18812 net.cpp:148] Top shape: 24 288 14 14 (1354752)
I0403 04:07:54.989784 18812 net.cpp:156] Memory required for data: 1131642816
I0403 04:07:54.989799 18812 layer_factory.hpp:77] Creating layer inception_4d/5x5_reduce
I0403 04:07:54.989822 18812 net.cpp:91] Creating Layer inception_4d/5x5_reduce
I0403 04:07:54.989840 18812 net.cpp:425] inception_4d/5x5_reduce <- inception_4c/output_inception_4c/output_0_split_2
I0403 04:07:54.989861 18812 net.cpp:399] inception_4d/5x5_reduce -> inception_4d/5x5_reduce
I0403 04:07:54.990182 18812 net.cpp:141] Setting up inception_4d/5x5_reduce
I0403 04:07:54.990208 18812 net.cpp:148] Top shape: 24 32 14 14 (150528)
I0403 04:07:54.990224 18812 net.cpp:156] Memory required for data: 1132244928
I0403 04:07:54.990243 18812 layer_factory.hpp:77] Creating layer inception_4d/relu_5x5_reduce
I0403 04:07:54.990263 18812 net.cpp:91] Creating Layer inception_4d/relu_5x5_reduce
I0403 04:07:54.990280 18812 net.cpp:425] inception_4d/relu_5x5_reduce <- inception_4d/5x5_reduce
I0403 04:07:54.990306 18812 net.cpp:386] inception_4d/relu_5x5_reduce -> inception_4d/5x5_reduce (in-place)
I0403 04:07:54.990329 18812 net.cpp:141] Setting up inception_4d/relu_5x5_reduce
I0403 04:07:54.990347 18812 net.cpp:148] Top shape: 24 32 14 14 (150528)
I0403 04:07:54.990363 18812 net.cpp:156] Memory required for data: 1132847040
I0403 04:07:54.990380 18812 layer_factory.hpp:77] Creating layer inception_4d/5x5
I0403 04:07:54.990404 18812 net.cpp:91] Creating Layer inception_4d/5x5
I0403 04:07:54.990422 18812 net.cpp:425] inception_4d/5x5 <- inception_4d/5x5_reduce
I0403 04:07:54.990443 18812 net.cpp:399] inception_4d/5x5 -> inception_4d/5x5
I0403 04:07:54.990952 18812 net.cpp:141] Setting up inception_4d/5x5
I0403 04:07:54.990978 18812 net.cpp:148] Top shape: 24 64 14 14 (301056)
I0403 04:07:54.990994 18812 net.cpp:156] Memory required for data: 1134051264
I0403 04:07:54.991013 18812 layer_factory.hpp:77] Creating layer inception_4d/relu_5x5
I0403 04:07:54.991030 18812 net.cpp:91] Creating Layer inception_4d/relu_5x5
I0403 04:07:54.991049 18812 net.cpp:425] inception_4d/relu_5x5 <- inception_4d/5x5
I0403 04:07:54.991070 18812 net.cpp:386] inception_4d/relu_5x5 -> inception_4d/5x5 (in-place)
I0403 04:07:54.991091 18812 net.cpp:141] Setting up inception_4d/relu_5x5
I0403 04:07:54.991111 18812 net.cpp:148] Top shape: 24 64 14 14 (301056)
I0403 04:07:54.991127 18812 net.cpp:156] Memory required for data: 1135255488
I0403 04:07:54.991142 18812 layer_factory.hpp:77] Creating layer inception_4d/pool
I0403 04:07:54.991176 18812 net.cpp:91] Creating Layer inception_4d/pool
I0403 04:07:54.991195 18812 net.cpp:425] inception_4d/pool <- inception_4c/output_inception_4c/output_0_split_3
I0403 04:07:54.991217 18812 net.cpp:399] inception_4d/pool -> inception_4d/pool
I0403 04:07:54.991272 18812 net.cpp:141] Setting up inception_4d/pool
I0403 04:07:54.991300 18812 net.cpp:148] Top shape: 24 512 14 14 (2408448)
I0403 04:07:54.991317 18812 net.cpp:156] Memory required for data: 1144889280
I0403 04:07:54.991333 18812 layer_factory.hpp:77] Creating layer inception_4d/pool_proj
I0403 04:07:54.991356 18812 net.cpp:91] Creating Layer inception_4d/pool_proj
I0403 04:07:54.991375 18812 net.cpp:425] inception_4d/pool_proj <- inception_4d/pool
I0403 04:07:54.991400 18812 net.cpp:399] inception_4d/pool_proj -> inception_4d/pool_proj
I0403 04:07:54.992367 18812 net.cpp:141] Setting up inception_4d/pool_proj
I0403 04:07:54.992399 18812 net.cpp:148] Top shape: 24 64 14 14 (301056)
I0403 04:07:54.992416 18812 net.cpp:156] Memory required for data: 1146093504
I0403 04:07:54.992436 18812 layer_factory.hpp:77] Creating layer inception_4d/relu_pool_proj
I0403 04:07:54.992456 18812 net.cpp:91] Creating Layer inception_4d/relu_pool_proj
I0403 04:07:54.992475 18812 net.cpp:425] inception_4d/relu_pool_proj <- inception_4d/pool_proj
I0403 04:07:54.992496 18812 net.cpp:386] inception_4d/relu_pool_proj -> inception_4d/pool_proj (in-place)
I0403 04:07:54.992517 18812 net.cpp:141] Setting up inception_4d/relu_pool_proj
I0403 04:07:54.992535 18812 net.cpp:148] Top shape: 24 64 14 14 (301056)
I0403 04:07:54.992550 18812 net.cpp:156] Memory required for data: 1147297728
I0403 04:07:54.992565 18812 layer_factory.hpp:77] Creating layer inception_4d/output
I0403 04:07:54.992588 18812 net.cpp:91] Creating Layer inception_4d/output
I0403 04:07:54.992606 18812 net.cpp:425] inception_4d/output <- inception_4d/1x1
I0403 04:07:54.992625 18812 net.cpp:425] inception_4d/output <- inception_4d/3x3
I0403 04:07:54.992642 18812 net.cpp:425] inception_4d/output <- inception_4d/5x5
I0403 04:07:54.992660 18812 net.cpp:425] inception_4d/output <- inception_4d/pool_proj
I0403 04:07:54.992679 18812 net.cpp:399] inception_4d/output -> inception_4d/output
I0403 04:07:54.992723 18812 net.cpp:141] Setting up inception_4d/output
I0403 04:07:54.992748 18812 net.cpp:148] Top shape: 24 528 14 14 (2483712)
I0403 04:07:54.992764 18812 net.cpp:156] Memory required for data: 1157232576
I0403 04:07:54.992780 18812 layer_factory.hpp:77] Creating layer inception_4d/output_inception_4d/output_0_split
I0403 04:07:54.992812 18812 net.cpp:91] Creating Layer inception_4d/output_inception_4d/output_0_split
I0403 04:07:54.992830 18812 net.cpp:425] inception_4d/output_inception_4d/output_0_split <- inception_4d/output
I0403 04:07:54.992852 18812 net.cpp:399] inception_4d/output_inception_4d/output_0_split -> inception_4d/output_inception_4d/output_0_split_0
I0403 04:07:54.992888 18812 net.cpp:399] inception_4d/output_inception_4d/output_0_split -> inception_4d/output_inception_4d/output_0_split_1
I0403 04:07:54.992913 18812 net.cpp:399] inception_4d/output_inception_4d/output_0_split -> inception_4d/output_inception_4d/output_0_split_2
I0403 04:07:54.992935 18812 net.cpp:399] inception_4d/output_inception_4d/output_0_split -> inception_4d/output_inception_4d/output_0_split_3
I0403 04:07:54.992956 18812 net.cpp:399] inception_4d/output_inception_4d/output_0_split -> inception_4d/output_inception_4d/output_0_split_4
I0403 04:07:54.993041 18812 net.cpp:141] Setting up inception_4d/output_inception_4d/output_0_split
I0403 04:07:54.993067 18812 net.cpp:148] Top shape: 24 528 14 14 (2483712)
I0403 04:07:54.993085 18812 net.cpp:148] Top shape: 24 528 14 14 (2483712)
I0403 04:07:54.993103 18812 net.cpp:148] Top shape: 24 528 14 14 (2483712)
I0403 04:07:54.993119 18812 net.cpp:148] Top shape: 24 528 14 14 (2483712)
I0403 04:07:54.993136 18812 net.cpp:148] Top shape: 24 528 14 14 (2483712)
I0403 04:07:54.993150 18812 net.cpp:156] Memory required for data: 1206906816
I0403 04:07:54.993181 18812 layer_factory.hpp:77] Creating layer loss2/ave_pool
I0403 04:07:54.993203 18812 net.cpp:91] Creating Layer loss2/ave_pool
I0403 04:07:54.993221 18812 net.cpp:425] loss2/ave_pool <- inception_4d/output_inception_4d/output_0_split_0
I0403 04:07:54.993242 18812 net.cpp:399] loss2/ave_pool -> loss2/ave_pool
I0403 04:07:54.993286 18812 net.cpp:141] Setting up loss2/ave_pool
I0403 04:07:54.993314 18812 net.cpp:148] Top shape: 24 528 4 4 (202752)
I0403 04:07:54.993331 18812 net.cpp:156] Memory required for data: 1207717824
I0403 04:07:54.993347 18812 layer_factory.hpp:77] Creating layer loss2/conv
I0403 04:07:54.993372 18812 net.cpp:91] Creating Layer loss2/conv
I0403 04:07:54.993391 18812 net.cpp:425] loss2/conv <- loss2/ave_pool
I0403 04:07:54.993414 18812 net.cpp:399] loss2/conv -> loss2/conv
I0403 04:07:54.994585 18812 net.cpp:141] Setting up loss2/conv
I0403 04:07:54.994614 18812 net.cpp:148] Top shape: 24 128 4 4 (49152)
I0403 04:07:54.994632 18812 net.cpp:156] Memory required for data: 1207914432
I0403 04:07:54.994650 18812 layer_factory.hpp:77] Creating layer loss2/relu_conv
I0403 04:07:54.994675 18812 net.cpp:91] Creating Layer loss2/relu_conv
I0403 04:07:54.994695 18812 net.cpp:425] loss2/relu_conv <- loss2/conv
I0403 04:07:54.994714 18812 net.cpp:386] loss2/relu_conv -> loss2/conv (in-place)
I0403 04:07:54.994735 18812 net.cpp:141] Setting up loss2/relu_conv
I0403 04:07:54.994755 18812 net.cpp:148] Top shape: 24 128 4 4 (49152)
I0403 04:07:54.994771 18812 net.cpp:156] Memory required for data: 1208111040
I0403 04:07:54.994786 18812 layer_factory.hpp:77] Creating layer loss2/fc
I0403 04:07:54.994808 18812 net.cpp:91] Creating Layer loss2/fc
I0403 04:07:54.994827 18812 net.cpp:425] loss2/fc <- loss2/conv
I0403 04:07:54.994848 18812 net.cpp:399] loss2/fc -> loss2/fc
I0403 04:07:55.010875 18812 net.cpp:141] Setting up loss2/fc
I0403 04:07:55.010911 18812 net.cpp:148] Top shape: 24 1024 (24576)
I0403 04:07:55.010928 18812 net.cpp:156] Memory required for data: 1208209344
I0403 04:07:55.010948 18812 layer_factory.hpp:77] Creating layer loss2/relu_fc
I0403 04:07:55.010972 18812 net.cpp:91] Creating Layer loss2/relu_fc
I0403 04:07:55.010990 18812 net.cpp:425] loss2/relu_fc <- loss2/fc
I0403 04:07:55.011008 18812 net.cpp:386] loss2/relu_fc -> loss2/fc (in-place)
I0403 04:07:55.011029 18812 net.cpp:141] Setting up loss2/relu_fc
I0403 04:07:55.011049 18812 net.cpp:148] Top shape: 24 1024 (24576)
I0403 04:07:55.011065 18812 net.cpp:156] Memory required for data: 1208307648
I0403 04:07:55.011080 18812 layer_factory.hpp:77] Creating layer loss2/drop_fc
I0403 04:07:55.011101 18812 net.cpp:91] Creating Layer loss2/drop_fc
I0403 04:07:55.011118 18812 net.cpp:425] loss2/drop_fc <- loss2/fc
I0403 04:07:55.011137 18812 net.cpp:386] loss2/drop_fc -> loss2/fc (in-place)
I0403 04:07:55.011175 18812 net.cpp:141] Setting up loss2/drop_fc
I0403 04:07:55.011201 18812 net.cpp:148] Top shape: 24 1024 (24576)
I0403 04:07:55.011217 18812 net.cpp:156] Memory required for data: 1208405952
I0403 04:07:55.011232 18812 layer_factory.hpp:77] Creating layer loss2/classifier_plantvillage
I0403 04:07:55.011252 18812 net.cpp:91] Creating Layer loss2/classifier_plantvillage
I0403 04:07:55.011270 18812 net.cpp:425] loss2/classifier_plantvillage <- loss2/fc
I0403 04:07:55.011296 18812 net.cpp:399] loss2/classifier_plantvillage -> loss2/classifier_plantvillage
I0403 04:07:55.011621 18812 net.cpp:141] Setting up loss2/classifier_plantvillage
I0403 04:07:55.011648 18812 net.cpp:148] Top shape: 24 38 (912)
I0403 04:07:55.011663 18812 net.cpp:156] Memory required for data: 1208409600
I0403 04:07:55.011682 18812 layer_factory.hpp:77] Creating layer inception_4e/1x1
I0403 04:07:55.011703 18812 net.cpp:91] Creating Layer inception_4e/1x1
I0403 04:07:55.011723 18812 net.cpp:425] inception_4e/1x1 <- inception_4d/output_inception_4d/output_0_split_1
I0403 04:07:55.011745 18812 net.cpp:399] inception_4e/1x1 -> inception_4e/1x1
I0403 04:07:55.012706 18812 net.cpp:141] Setting up inception_4e/1x1
I0403 04:07:55.012732 18812 net.cpp:148] Top shape: 24 256 14 14 (1204224)
I0403 04:07:55.012763 18812 net.cpp:156] Memory required for data: 1213226496
I0403 04:07:55.012783 18812 layer_factory.hpp:77] Creating layer inception_4e/relu_1x1
I0403 04:07:55.012804 18812 net.cpp:91] Creating Layer inception_4e/relu_1x1
I0403 04:07:55.012821 18812 net.cpp:425] inception_4e/relu_1x1 <- inception_4e/1x1
I0403 04:07:55.012840 18812 net.cpp:386] inception_4e/relu_1x1 -> inception_4e/1x1 (in-place)
I0403 04:07:55.012859 18812 net.cpp:141] Setting up inception_4e/relu_1x1
I0403 04:07:55.012876 18812 net.cpp:148] Top shape: 24 256 14 14 (1204224)
I0403 04:07:55.012892 18812 net.cpp:156] Memory required for data: 1218043392
I0403 04:07:55.012907 18812 layer_factory.hpp:77] Creating layer inception_4e/3x3_reduce
I0403 04:07:55.012929 18812 net.cpp:91] Creating Layer inception_4e/3x3_reduce
I0403 04:07:55.012948 18812 net.cpp:425] inception_4e/3x3_reduce <- inception_4d/output_inception_4d/output_0_split_2
I0403 04:07:55.012970 18812 net.cpp:399] inception_4e/3x3_reduce -> inception_4e/3x3_reduce
I0403 04:07:55.014184 18812 net.cpp:141] Setting up inception_4e/3x3_reduce
I0403 04:07:55.014215 18812 net.cpp:148] Top shape: 24 160 14 14 (752640)
I0403 04:07:55.014231 18812 net.cpp:156] Memory required for data: 1221053952
I0403 04:07:55.014250 18812 layer_factory.hpp:77] Creating layer inception_4e/relu_3x3_reduce
I0403 04:07:55.014269 18812 net.cpp:91] Creating Layer inception_4e/relu_3x3_reduce
I0403 04:07:55.014297 18812 net.cpp:425] inception_4e/relu_3x3_reduce <- inception_4e/3x3_reduce
I0403 04:07:55.014317 18812 net.cpp:386] inception_4e/relu_3x3_reduce -> inception_4e/3x3_reduce (in-place)
I0403 04:07:55.014338 18812 net.cpp:141] Setting up inception_4e/relu_3x3_reduce
I0403 04:07:55.014355 18812 net.cpp:148] Top shape: 24 160 14 14 (752640)
I0403 04:07:55.014370 18812 net.cpp:156] Memory required for data: 1224064512
I0403 04:07:55.014385 18812 layer_factory.hpp:77] Creating layer inception_4e/3x3
I0403 04:07:55.014408 18812 net.cpp:91] Creating Layer inception_4e/3x3
I0403 04:07:55.014427 18812 net.cpp:425] inception_4e/3x3 <- inception_4e/3x3_reduce
I0403 04:07:55.014449 18812 net.cpp:399] inception_4e/3x3 -> inception_4e/3x3
I0403 04:07:55.018196 18812 net.cpp:141] Setting up inception_4e/3x3
I0403 04:07:55.018225 18812 net.cpp:148] Top shape: 24 320 14 14 (1505280)
I0403 04:07:55.018241 18812 net.cpp:156] Memory required for data: 1230085632
I0403 04:07:55.018260 18812 layer_factory.hpp:77] Creating layer inception_4e/relu_3x3
I0403 04:07:55.018280 18812 net.cpp:91] Creating Layer inception_4e/relu_3x3
I0403 04:07:55.018301 18812 net.cpp:425] inception_4e/relu_3x3 <- inception_4e/3x3
I0403 04:07:55.018322 18812 net.cpp:386] inception_4e/relu_3x3 -> inception_4e/3x3 (in-place)
I0403 04:07:55.018344 18812 net.cpp:141] Setting up inception_4e/relu_3x3
I0403 04:07:55.018363 18812 net.cpp:148] Top shape: 24 320 14 14 (1505280)
I0403 04:07:55.018378 18812 net.cpp:156] Memory required for data: 1236106752
I0403 04:07:55.018393 18812 layer_factory.hpp:77] Creating layer inception_4e/5x5_reduce
I0403 04:07:55.018414 18812 net.cpp:91] Creating Layer inception_4e/5x5_reduce
I0403 04:07:55.018431 18812 net.cpp:425] inception_4e/5x5_reduce <- inception_4d/output_inception_4d/output_0_split_3
I0403 04:07:55.018453 18812 net.cpp:399] inception_4e/5x5_reduce -> inception_4e/5x5_reduce
I0403 04:07:55.018779 18812 net.cpp:141] Setting up inception_4e/5x5_reduce
I0403 04:07:55.018805 18812 net.cpp:148] Top shape: 24 32 14 14 (150528)
I0403 04:07:55.018820 18812 net.cpp:156] Memory required for data: 1236708864
I0403 04:07:55.018836 18812 layer_factory.hpp:77] Creating layer inception_4e/relu_5x5_reduce
I0403 04:07:55.018856 18812 net.cpp:91] Creating Layer inception_4e/relu_5x5_reduce
I0403 04:07:55.018872 18812 net.cpp:425] inception_4e/relu_5x5_reduce <- inception_4e/5x5_reduce
I0403 04:07:55.018893 18812 net.cpp:386] inception_4e/relu_5x5_reduce -> inception_4e/5x5_reduce (in-place)
I0403 04:07:55.018913 18812 net.cpp:141] Setting up inception_4e/relu_5x5_reduce
I0403 04:07:55.018931 18812 net.cpp:148] Top shape: 24 32 14 14 (150528)
I0403 04:07:55.018960 18812 net.cpp:156] Memory required for data: 1237310976
I0403 04:07:55.018976 18812 layer_factory.hpp:77] Creating layer inception_4e/5x5
I0403 04:07:55.019001 18812 net.cpp:91] Creating Layer inception_4e/5x5
I0403 04:07:55.019021 18812 net.cpp:425] inception_4e/5x5 <- inception_4e/5x5_reduce
I0403 04:07:55.019042 18812 net.cpp:399] inception_4e/5x5 -> inception_4e/5x5
I0403 04:07:55.019824 18812 net.cpp:141] Setting up inception_4e/5x5
I0403 04:07:55.019850 18812 net.cpp:148] Top shape: 24 128 14 14 (602112)
I0403 04:07:55.019866 18812 net.cpp:156] Memory required for data: 1239719424
I0403 04:07:55.019883 18812 layer_factory.hpp:77] Creating layer inception_4e/relu_5x5
I0403 04:07:55.019903 18812 net.cpp:91] Creating Layer inception_4e/relu_5x5
I0403 04:07:55.019922 18812 net.cpp:425] inception_4e/relu_5x5 <- inception_4e/5x5
I0403 04:07:55.019940 18812 net.cpp:386] inception_4e/relu_5x5 -> inception_4e/5x5 (in-place)
I0403 04:07:55.019960 18812 net.cpp:141] Setting up inception_4e/relu_5x5
I0403 04:07:55.019979 18812 net.cpp:148] Top shape: 24 128 14 14 (602112)
I0403 04:07:55.019994 18812 net.cpp:156] Memory required for data: 1242127872
I0403 04:07:55.020009 18812 layer_factory.hpp:77] Creating layer inception_4e/pool
I0403 04:07:55.020046 18812 net.cpp:91] Creating Layer inception_4e/pool
I0403 04:07:55.020064 18812 net.cpp:425] inception_4e/pool <- inception_4d/output_inception_4d/output_0_split_4
I0403 04:07:55.020083 18812 net.cpp:399] inception_4e/pool -> inception_4e/pool
I0403 04:07:55.020138 18812 net.cpp:141] Setting up inception_4e/pool
I0403 04:07:55.020161 18812 net.cpp:148] Top shape: 24 528 14 14 (2483712)
I0403 04:07:55.020176 18812 net.cpp:156] Memory required for data: 1252062720
I0403 04:07:55.020192 18812 layer_factory.hpp:77] Creating layer inception_4e/pool_proj
I0403 04:07:55.020216 18812 net.cpp:91] Creating Layer inception_4e/pool_proj
I0403 04:07:55.020234 18812 net.cpp:425] inception_4e/pool_proj <- inception_4e/pool
I0403 04:07:55.020256 18812 net.cpp:399] inception_4e/pool_proj -> inception_4e/pool_proj
I0403 04:07:55.020840 18812 net.cpp:141] Setting up inception_4e/pool_proj
I0403 04:07:55.020866 18812 net.cpp:148] Top shape: 24 128 14 14 (602112)
I0403 04:07:55.020882 18812 net.cpp:156] Memory required for data: 1254471168
I0403 04:07:55.020900 18812 layer_factory.hpp:77] Creating layer inception_4e/relu_pool_proj
I0403 04:07:55.020920 18812 net.cpp:91] Creating Layer inception_4e/relu_pool_proj
I0403 04:07:55.020936 18812 net.cpp:425] inception_4e/relu_pool_proj <- inception_4e/pool_proj
I0403 04:07:55.020954 18812 net.cpp:386] inception_4e/relu_pool_proj -> inception_4e/pool_proj (in-place)
I0403 04:07:55.020973 18812 net.cpp:141] Setting up inception_4e/relu_pool_proj
I0403 04:07:55.020992 18812 net.cpp:148] Top shape: 24 128 14 14 (602112)
I0403 04:07:55.021008 18812 net.cpp:156] Memory required for data: 1256879616
I0403 04:07:55.021023 18812 layer_factory.hpp:77] Creating layer inception_4e/output
I0403 04:07:55.021041 18812 net.cpp:91] Creating Layer inception_4e/output
I0403 04:07:55.021059 18812 net.cpp:425] inception_4e/output <- inception_4e/1x1
I0403 04:07:55.021075 18812 net.cpp:425] inception_4e/output <- inception_4e/3x3
I0403 04:07:55.021092 18812 net.cpp:425] inception_4e/output <- inception_4e/5x5
I0403 04:07:55.021109 18812 net.cpp:425] inception_4e/output <- inception_4e/pool_proj
I0403 04:07:55.021131 18812 net.cpp:399] inception_4e/output -> inception_4e/output
I0403 04:07:55.021170 18812 net.cpp:141] Setting up inception_4e/output
I0403 04:07:55.021196 18812 net.cpp:148] Top shape: 24 832 14 14 (3913728)
I0403 04:07:55.021212 18812 net.cpp:156] Memory required for data: 1272534528
I0403 04:07:55.021229 18812 layer_factory.hpp:77] Creating layer pool4/3x3_s2
I0403 04:07:55.021247 18812 net.cpp:91] Creating Layer pool4/3x3_s2
I0403 04:07:55.021265 18812 net.cpp:425] pool4/3x3_s2 <- inception_4e/output
I0403 04:07:55.021282 18812 net.cpp:399] pool4/3x3_s2 -> pool4/3x3_s2
I0403 04:07:55.021338 18812 net.cpp:141] Setting up pool4/3x3_s2
I0403 04:07:55.021373 18812 net.cpp:148] Top shape: 24 832 7 7 (978432)
I0403 04:07:55.021389 18812 net.cpp:156] Memory required for data: 1276448256
I0403 04:07:55.021404 18812 layer_factory.hpp:77] Creating layer pool4/3x3_s2_pool4/3x3_s2_0_split
I0403 04:07:55.021422 18812 net.cpp:91] Creating Layer pool4/3x3_s2_pool4/3x3_s2_0_split
I0403 04:07:55.021438 18812 net.cpp:425] pool4/3x3_s2_pool4/3x3_s2_0_split <- pool4/3x3_s2
I0403 04:07:55.021462 18812 net.cpp:399] pool4/3x3_s2_pool4/3x3_s2_0_split -> pool4/3x3_s2_pool4/3x3_s2_0_split_0
I0403 04:07:55.021483 18812 net.cpp:399] pool4/3x3_s2_pool4/3x3_s2_0_split -> pool4/3x3_s2_pool4/3x3_s2_0_split_1
I0403 04:07:55.021503 18812 net.cpp:399] pool4/3x3_s2_pool4/3x3_s2_0_split -> pool4/3x3_s2_pool4/3x3_s2_0_split_2
I0403 04:07:55.021524 18812 net.cpp:399] pool4/3x3_s2_pool4/3x3_s2_0_split -> pool4/3x3_s2_pool4/3x3_s2_0_split_3
I0403 04:07:55.021600 18812 net.cpp:141] Setting up pool4/3x3_s2_pool4/3x3_s2_0_split
I0403 04:07:55.021623 18812 net.cpp:148] Top shape: 24 832 7 7 (978432)
I0403 04:07:55.021639 18812 net.cpp:148] Top shape: 24 832 7 7 (978432)
I0403 04:07:55.021654 18812 net.cpp:148] Top shape: 24 832 7 7 (978432)
I0403 04:07:55.021670 18812 net.cpp:148] Top shape: 24 832 7 7 (978432)
I0403 04:07:55.021684 18812 net.cpp:156] Memory required for data: 1292103168
I0403 04:07:55.021699 18812 layer_factory.hpp:77] Creating layer inception_5a/1x1
I0403 04:07:55.021723 18812 net.cpp:91] Creating Layer inception_5a/1x1
I0403 04:07:55.021741 18812 net.cpp:425] inception_5a/1x1 <- pool4/3x3_s2_pool4/3x3_s2_0_split_0
I0403 04:07:55.021760 18812 net.cpp:399] inception_5a/1x1 -> inception_5a/1x1
I0403 04:07:55.023739 18812 net.cpp:141] Setting up inception_5a/1x1
I0403 04:07:55.023769 18812 net.cpp:148] Top shape: 24 256 7 7 (301056)
I0403 04:07:55.023787 18812 net.cpp:156] Memory required for data: 1293307392
I0403 04:07:55.023807 18812 layer_factory.hpp:77] Creating layer inception_5a/relu_1x1
I0403 04:07:55.023825 18812 net.cpp:91] Creating Layer inception_5a/relu_1x1
I0403 04:07:55.023843 18812 net.cpp:425] inception_5a/relu_1x1 <- inception_5a/1x1
I0403 04:07:55.023864 18812 net.cpp:386] inception_5a/relu_1x1 -> inception_5a/1x1 (in-place)
I0403 04:07:55.023885 18812 net.cpp:141] Setting up inception_5a/relu_1x1
I0403 04:07:55.023905 18812 net.cpp:148] Top shape: 24 256 7 7 (301056)
I0403 04:07:55.023919 18812 net.cpp:156] Memory required for data: 1294511616
I0403 04:07:55.023936 18812 layer_factory.hpp:77] Creating layer inception_5a/3x3_reduce
I0403 04:07:55.023959 18812 net.cpp:91] Creating Layer inception_5a/3x3_reduce
I0403 04:07:55.023978 18812 net.cpp:425] inception_5a/3x3_reduce <- pool4/3x3_s2_pool4/3x3_s2_0_split_1
I0403 04:07:55.023999 18812 net.cpp:399] inception_5a/3x3_reduce -> inception_5a/3x3_reduce
I0403 04:07:55.025533 18812 net.cpp:141] Setting up inception_5a/3x3_reduce
I0403 04:07:55.025563 18812 net.cpp:148] Top shape: 24 160 7 7 (188160)
I0403 04:07:55.025579 18812 net.cpp:156] Memory required for data: 1295264256
I0403 04:07:55.025599 18812 layer_factory.hpp:77] Creating layer inception_5a/relu_3x3_reduce
I0403 04:07:55.025619 18812 net.cpp:91] Creating Layer inception_5a/relu_3x3_reduce
I0403 04:07:55.025636 18812 net.cpp:425] inception_5a/relu_3x3_reduce <- inception_5a/3x3_reduce
I0403 04:07:55.025656 18812 net.cpp:386] inception_5a/relu_3x3_reduce -> inception_5a/3x3_reduce (in-place)
I0403 04:07:55.025679 18812 net.cpp:141] Setting up inception_5a/relu_3x3_reduce
I0403 04:07:55.025698 18812 net.cpp:148] Top shape: 24 160 7 7 (188160)
I0403 04:07:55.025713 18812 net.cpp:156] Memory required for data: 1296016896
I0403 04:07:55.025728 18812 layer_factory.hpp:77] Creating layer inception_5a/3x3
I0403 04:07:55.025753 18812 net.cpp:91] Creating Layer inception_5a/3x3
I0403 04:07:55.025771 18812 net.cpp:425] inception_5a/3x3 <- inception_5a/3x3_reduce
I0403 04:07:55.025792 18812 net.cpp:399] inception_5a/3x3 -> inception_5a/3x3
I0403 04:07:55.029678 18812 net.cpp:141] Setting up inception_5a/3x3
I0403 04:07:55.029721 18812 net.cpp:148] Top shape: 24 320 7 7 (376320)
I0403 04:07:55.029737 18812 net.cpp:156] Memory required for data: 1297522176
I0403 04:07:55.029757 18812 layer_factory.hpp:77] Creating layer inception_5a/relu_3x3
I0403 04:07:55.029778 18812 net.cpp:91] Creating Layer inception_5a/relu_3x3
I0403 04:07:55.029795 18812 net.cpp:425] inception_5a/relu_3x3 <- inception_5a/3x3
I0403 04:07:55.029815 18812 net.cpp:386] inception_5a/relu_3x3 -> inception_5a/3x3 (in-place)
I0403 04:07:55.029837 18812 net.cpp:141] Setting up inception_5a/relu_3x3
I0403 04:07:55.029857 18812 net.cpp:148] Top shape: 24 320 7 7 (376320)
I0403 04:07:55.029872 18812 net.cpp:156] Memory required for data: 1299027456
I0403 04:07:55.029888 18812 layer_factory.hpp:77] Creating layer inception_5a/5x5_reduce
I0403 04:07:55.029911 18812 net.cpp:91] Creating Layer inception_5a/5x5_reduce
I0403 04:07:55.029932 18812 net.cpp:425] inception_5a/5x5_reduce <- pool4/3x3_s2_pool4/3x3_s2_0_split_2
I0403 04:07:55.029954 18812 net.cpp:399] inception_5a/5x5_reduce -> inception_5a/5x5_reduce
I0403 04:07:55.030357 18812 net.cpp:141] Setting up inception_5a/5x5_reduce
I0403 04:07:55.030385 18812 net.cpp:148] Top shape: 24 32 7 7 (37632)
I0403 04:07:55.030400 18812 net.cpp:156] Memory required for data: 1299177984
I0403 04:07:55.030418 18812 layer_factory.hpp:77] Creating layer inception_5a/relu_5x5_reduce
I0403 04:07:55.030439 18812 net.cpp:91] Creating Layer inception_5a/relu_5x5_reduce
I0403 04:07:55.030457 18812 net.cpp:425] inception_5a/relu_5x5_reduce <- inception_5a/5x5_reduce
I0403 04:07:55.030477 18812 net.cpp:386] inception_5a/relu_5x5_reduce -> inception_5a/5x5_reduce (in-place)
I0403 04:07:55.030498 18812 net.cpp:141] Setting up inception_5a/relu_5x5_reduce
I0403 04:07:55.030517 18812 net.cpp:148] Top shape: 24 32 7 7 (37632)
I0403 04:07:55.030531 18812 net.cpp:156] Memory required for data: 1299328512
I0403 04:07:55.030547 18812 layer_factory.hpp:77] Creating layer inception_5a/5x5
I0403 04:07:55.030570 18812 net.cpp:91] Creating Layer inception_5a/5x5
I0403 04:07:55.030586 18812 net.cpp:425] inception_5a/5x5 <- inception_5a/5x5_reduce
I0403 04:07:55.030611 18812 net.cpp:399] inception_5a/5x5 -> inception_5a/5x5
I0403 04:07:55.031419 18812 net.cpp:141] Setting up inception_5a/5x5
I0403 04:07:55.031447 18812 net.cpp:148] Top shape: 24 128 7 7 (150528)
I0403 04:07:55.031463 18812 net.cpp:156] Memory required for data: 1299930624
I0403 04:07:55.031482 18812 layer_factory.hpp:77] Creating layer inception_5a/relu_5x5
I0403 04:07:55.031502 18812 net.cpp:91] Creating Layer inception_5a/relu_5x5
I0403 04:07:55.031520 18812 net.cpp:425] inception_5a/relu_5x5 <- inception_5a/5x5
I0403 04:07:55.031538 18812 net.cpp:386] inception_5a/relu_5x5 -> inception_5a/5x5 (in-place)
I0403 04:07:55.031558 18812 net.cpp:141] Setting up inception_5a/relu_5x5
I0403 04:07:55.031577 18812 net.cpp:148] Top shape: 24 128 7 7 (150528)
I0403 04:07:55.031592 18812 net.cpp:156] Memory required for data: 1300532736
I0403 04:07:55.031608 18812 layer_factory.hpp:77] Creating layer inception_5a/pool
I0403 04:07:55.031628 18812 net.cpp:91] Creating Layer inception_5a/pool
I0403 04:07:55.031646 18812 net.cpp:425] inception_5a/pool <- pool4/3x3_s2_pool4/3x3_s2_0_split_3
I0403 04:07:55.031666 18812 net.cpp:399] inception_5a/pool -> inception_5a/pool
I0403 04:07:55.031719 18812 net.cpp:141] Setting up inception_5a/pool
I0403 04:07:55.031744 18812 net.cpp:148] Top shape: 24 832 7 7 (978432)
I0403 04:07:55.031761 18812 net.cpp:156] Memory required for data: 1304446464
I0403 04:07:55.031776 18812 layer_factory.hpp:77] Creating layer inception_5a/pool_proj
I0403 04:07:55.031802 18812 net.cpp:91] Creating Layer inception_5a/pool_proj
I0403 04:07:55.031822 18812 net.cpp:425] inception_5a/pool_proj <- inception_5a/pool
I0403 04:07:55.031843 18812 net.cpp:399] inception_5a/pool_proj -> inception_5a/pool_proj
I0403 04:07:55.033217 18812 net.cpp:141] Setting up inception_5a/pool_proj
I0403 04:07:55.033248 18812 net.cpp:148] Top shape: 24 128 7 7 (150528)
I0403 04:07:55.033263 18812 net.cpp:156] Memory required for data: 1305048576
I0403 04:07:55.033301 18812 layer_factory.hpp:77] Creating layer inception_5a/relu_pool_proj
I0403 04:07:55.033324 18812 net.cpp:91] Creating Layer inception_5a/relu_pool_proj
I0403 04:07:55.033341 18812 net.cpp:425] inception_5a/relu_pool_proj <- inception_5a/pool_proj
I0403 04:07:55.033361 18812 net.cpp:386] inception_5a/relu_pool_proj -> inception_5a/pool_proj (in-place)
I0403 04:07:55.033383 18812 net.cpp:141] Setting up inception_5a/relu_pool_proj
I0403 04:07:55.033402 18812 net.cpp:148] Top shape: 24 128 7 7 (150528)
I0403 04:07:55.033418 18812 net.cpp:156] Memory required for data: 1305650688
I0403 04:07:55.033432 18812 layer_factory.hpp:77] Creating layer inception_5a/output
I0403 04:07:55.033453 18812 net.cpp:91] Creating Layer inception_5a/output
I0403 04:07:55.033471 18812 net.cpp:425] inception_5a/output <- inception_5a/1x1
I0403 04:07:55.033490 18812 net.cpp:425] inception_5a/output <- inception_5a/3x3
I0403 04:07:55.033509 18812 net.cpp:425] inception_5a/output <- inception_5a/5x5
I0403 04:07:55.033525 18812 net.cpp:425] inception_5a/output <- inception_5a/pool_proj
I0403 04:07:55.033545 18812 net.cpp:399] inception_5a/output -> inception_5a/output
I0403 04:07:55.033588 18812 net.cpp:141] Setting up inception_5a/output
I0403 04:07:55.033613 18812 net.cpp:148] Top shape: 24 832 7 7 (978432)
I0403 04:07:55.033628 18812 net.cpp:156] Memory required for data: 1309564416
I0403 04:07:55.033644 18812 layer_factory.hpp:77] Creating layer inception_5a/output_inception_5a/output_0_split
I0403 04:07:55.033663 18812 net.cpp:91] Creating Layer inception_5a/output_inception_5a/output_0_split
I0403 04:07:55.033679 18812 net.cpp:425] inception_5a/output_inception_5a/output_0_split <- inception_5a/output
I0403 04:07:55.033699 18812 net.cpp:399] inception_5a/output_inception_5a/output_0_split -> inception_5a/output_inception_5a/output_0_split_0
I0403 04:07:55.033722 18812 net.cpp:399] inception_5a/output_inception_5a/output_0_split -> inception_5a/output_inception_5a/output_0_split_1
I0403 04:07:55.033746 18812 net.cpp:399] inception_5a/output_inception_5a/output_0_split -> inception_5a/output_inception_5a/output_0_split_2
I0403 04:07:55.033769 18812 net.cpp:399] inception_5a/output_inception_5a/output_0_split -> inception_5a/output_inception_5a/output_0_split_3
I0403 04:07:55.033843 18812 net.cpp:141] Setting up inception_5a/output_inception_5a/output_0_split
I0403 04:07:55.033869 18812 net.cpp:148] Top shape: 24 832 7 7 (978432)
I0403 04:07:55.033887 18812 net.cpp:148] Top shape: 24 832 7 7 (978432)
I0403 04:07:55.033903 18812 net.cpp:148] Top shape: 24 832 7 7 (978432)
I0403 04:07:55.033920 18812 net.cpp:148] Top shape: 24 832 7 7 (978432)
I0403 04:07:55.033934 18812 net.cpp:156] Memory required for data: 1325219328
I0403 04:07:55.033949 18812 layer_factory.hpp:77] Creating layer inception_5b/1x1
I0403 04:07:55.033973 18812 net.cpp:91] Creating Layer inception_5b/1x1
I0403 04:07:55.033993 18812 net.cpp:425] inception_5b/1x1 <- inception_5a/output_inception_5a/output_0_split_0
I0403 04:07:55.034013 18812 net.cpp:399] inception_5b/1x1 -> inception_5b/1x1
I0403 04:07:55.036680 18812 net.cpp:141] Setting up inception_5b/1x1
I0403 04:07:55.036711 18812 net.cpp:148] Top shape: 24 384 7 7 (451584)
I0403 04:07:55.036728 18812 net.cpp:156] Memory required for data: 1327025664
I0403 04:07:55.036746 18812 layer_factory.hpp:77] Creating layer inception_5b/relu_1x1
I0403 04:07:55.036767 18812 net.cpp:91] Creating Layer inception_5b/relu_1x1
I0403 04:07:55.036784 18812 net.cpp:425] inception_5b/relu_1x1 <- inception_5b/1x1
I0403 04:07:55.036805 18812 net.cpp:386] inception_5b/relu_1x1 -> inception_5b/1x1 (in-place)
I0403 04:07:55.036828 18812 net.cpp:141] Setting up inception_5b/relu_1x1
I0403 04:07:55.036847 18812 net.cpp:148] Top shape: 24 384 7 7 (451584)
I0403 04:07:55.036862 18812 net.cpp:156] Memory required for data: 1328832000
I0403 04:07:55.036877 18812 layer_factory.hpp:77] Creating layer inception_5b/3x3_reduce
I0403 04:07:55.036901 18812 net.cpp:91] Creating Layer inception_5b/3x3_reduce
I0403 04:07:55.036934 18812 net.cpp:425] inception_5b/3x3_reduce <- inception_5a/output_inception_5a/output_0_split_1
I0403 04:07:55.036957 18812 net.cpp:399] inception_5b/3x3_reduce -> inception_5b/3x3_reduce
I0403 04:07:55.038642 18812 net.cpp:141] Setting up inception_5b/3x3_reduce
I0403 04:07:55.038672 18812 net.cpp:148] Top shape: 24 192 7 7 (225792)
I0403 04:07:55.038688 18812 net.cpp:156] Memory required for data: 1329735168
I0403 04:07:55.038707 18812 layer_factory.hpp:77] Creating layer inception_5b/relu_3x3_reduce
I0403 04:07:55.038728 18812 net.cpp:91] Creating Layer inception_5b/relu_3x3_reduce
I0403 04:07:55.038746 18812 net.cpp:425] inception_5b/relu_3x3_reduce <- inception_5b/3x3_reduce
I0403 04:07:55.038766 18812 net.cpp:386] inception_5b/relu_3x3_reduce -> inception_5b/3x3_reduce (in-place)
I0403 04:07:55.038787 18812 net.cpp:141] Setting up inception_5b/relu_3x3_reduce
I0403 04:07:55.038806 18812 net.cpp:148] Top shape: 24 192 7 7 (225792)
I0403 04:07:55.038821 18812 net.cpp:156] Memory required for data: 1330638336
I0403 04:07:55.038836 18812 layer_factory.hpp:77] Creating layer inception_5b/3x3
I0403 04:07:55.038861 18812 net.cpp:91] Creating Layer inception_5b/3x3
I0403 04:07:55.038882 18812 net.cpp:425] inception_5b/3x3 <- inception_5b/3x3_reduce
I0403 04:07:55.038902 18812 net.cpp:399] inception_5b/3x3 -> inception_5b/3x3
I0403 04:07:55.044261 18812 net.cpp:141] Setting up inception_5b/3x3
I0403 04:07:55.044302 18812 net.cpp:148] Top shape: 24 384 7 7 (451584)
I0403 04:07:55.044322 18812 net.cpp:156] Memory required for data: 1332444672
I0403 04:07:55.044342 18812 layer_factory.hpp:77] Creating layer inception_5b/relu_3x3
I0403 04:07:55.044363 18812 net.cpp:91] Creating Layer inception_5b/relu_3x3
I0403 04:07:55.044380 18812 net.cpp:425] inception_5b/relu_3x3 <- inception_5b/3x3
I0403 04:07:55.044400 18812 net.cpp:386] inception_5b/relu_3x3 -> inception_5b/3x3 (in-place)
I0403 04:07:55.044420 18812 net.cpp:141] Setting up inception_5b/relu_3x3
I0403 04:07:55.044438 18812 net.cpp:148] Top shape: 24 384 7 7 (451584)
I0403 04:07:55.044453 18812 net.cpp:156] Memory required for data: 1334251008
I0403 04:07:55.044469 18812 layer_factory.hpp:77] Creating layer inception_5b/5x5_reduce
I0403 04:07:55.044492 18812 net.cpp:91] Creating Layer inception_5b/5x5_reduce
I0403 04:07:55.044510 18812 net.cpp:425] inception_5b/5x5_reduce <- inception_5a/output_inception_5a/output_0_split_2
I0403 04:07:55.044533 18812 net.cpp:399] inception_5b/5x5_reduce -> inception_5b/5x5_reduce
I0403 04:07:55.044996 18812 net.cpp:141] Setting up inception_5b/5x5_reduce
I0403 04:07:55.045022 18812 net.cpp:148] Top shape: 24 48 7 7 (56448)
I0403 04:07:55.045037 18812 net.cpp:156] Memory required for data: 1334476800
I0403 04:07:55.045055 18812 layer_factory.hpp:77] Creating layer inception_5b/relu_5x5_reduce
I0403 04:07:55.045076 18812 net.cpp:91] Creating Layer inception_5b/relu_5x5_reduce
I0403 04:07:55.045095 18812 net.cpp:425] inception_5b/relu_5x5_reduce <- inception_5b/5x5_reduce
I0403 04:07:55.045114 18812 net.cpp:386] inception_5b/relu_5x5_reduce -> inception_5b/5x5_reduce (in-place)
I0403 04:07:55.045135 18812 net.cpp:141] Setting up inception_5b/relu_5x5_reduce
I0403 04:07:55.045155 18812 net.cpp:148] Top shape: 24 48 7 7 (56448)
I0403 04:07:55.045169 18812 net.cpp:156] Memory required for data: 1334702592
I0403 04:07:55.045183 18812 layer_factory.hpp:77] Creating layer inception_5b/5x5
I0403 04:07:55.045207 18812 net.cpp:91] Creating Layer inception_5b/5x5
I0403 04:07:55.045227 18812 net.cpp:425] inception_5b/5x5 <- inception_5b/5x5_reduce
I0403 04:07:55.045250 18812 net.cpp:399] inception_5b/5x5 -> inception_5b/5x5
I0403 04:07:55.046334 18812 net.cpp:141] Setting up inception_5b/5x5
I0403 04:07:55.046361 18812 net.cpp:148] Top shape: 24 128 7 7 (150528)
I0403 04:07:55.046378 18812 net.cpp:156] Memory required for data: 1335304704
I0403 04:07:55.046396 18812 layer_factory.hpp:77] Creating layer inception_5b/relu_5x5
I0403 04:07:55.046417 18812 net.cpp:91] Creating Layer inception_5b/relu_5x5
I0403 04:07:55.046435 18812 net.cpp:425] inception_5b/relu_5x5 <- inception_5b/5x5
I0403 04:07:55.046468 18812 net.cpp:386] inception_5b/relu_5x5 -> inception_5b/5x5 (in-place)
I0403 04:07:55.046490 18812 net.cpp:141] Setting up inception_5b/relu_5x5
I0403 04:07:55.046509 18812 net.cpp:148] Top shape: 24 128 7 7 (150528)
I0403 04:07:55.046525 18812 net.cpp:156] Memory required for data: 1335906816
I0403 04:07:55.046540 18812 layer_factory.hpp:77] Creating layer inception_5b/pool
I0403 04:07:55.046557 18812 net.cpp:91] Creating Layer inception_5b/pool
I0403 04:07:55.046573 18812 net.cpp:425] inception_5b/pool <- inception_5a/output_inception_5a/output_0_split_3
I0403 04:07:55.046593 18812 net.cpp:399] inception_5b/pool -> inception_5b/pool
I0403 04:07:55.046653 18812 net.cpp:141] Setting up inception_5b/pool
I0403 04:07:55.046676 18812 net.cpp:148] Top shape: 24 832 7 7 (978432)
I0403 04:07:55.046692 18812 net.cpp:156] Memory required for data: 1339820544
I0403 04:07:55.046707 18812 layer_factory.hpp:77] Creating layer inception_5b/pool_proj
I0403 04:07:55.046730 18812 net.cpp:91] Creating Layer inception_5b/pool_proj
I0403 04:07:55.046748 18812 net.cpp:425] inception_5b/pool_proj <- inception_5b/pool
I0403 04:07:55.046772 18812 net.cpp:399] inception_5b/pool_proj -> inception_5b/pool_proj
I0403 04:07:55.048108 18812 net.cpp:141] Setting up inception_5b/pool_proj
I0403 04:07:55.048141 18812 net.cpp:148] Top shape: 24 128 7 7 (150528)
I0403 04:07:55.048158 18812 net.cpp:156] Memory required for data: 1340422656
I0403 04:07:55.048177 18812 layer_factory.hpp:77] Creating layer inception_5b/relu_pool_proj
I0403 04:07:55.048197 18812 net.cpp:91] Creating Layer inception_5b/relu_pool_proj
I0403 04:07:55.048214 18812 net.cpp:425] inception_5b/relu_pool_proj <- inception_5b/pool_proj
I0403 04:07:55.048234 18812 net.cpp:386] inception_5b/relu_pool_proj -> inception_5b/pool_proj (in-place)
I0403 04:07:55.048255 18812 net.cpp:141] Setting up inception_5b/relu_pool_proj
I0403 04:07:55.048274 18812 net.cpp:148] Top shape: 24 128 7 7 (150528)
I0403 04:07:55.048293 18812 net.cpp:156] Memory required for data: 1341024768
I0403 04:07:55.048310 18812 layer_factory.hpp:77] Creating layer inception_5b/output
I0403 04:07:55.048329 18812 net.cpp:91] Creating Layer inception_5b/output
I0403 04:07:55.048347 18812 net.cpp:425] inception_5b/output <- inception_5b/1x1
I0403 04:07:55.048363 18812 net.cpp:425] inception_5b/output <- inception_5b/3x3
I0403 04:07:55.048380 18812 net.cpp:425] inception_5b/output <- inception_5b/5x5
I0403 04:07:55.048396 18812 net.cpp:425] inception_5b/output <- inception_5b/pool_proj
I0403 04:07:55.048418 18812 net.cpp:399] inception_5b/output -> inception_5b/output
I0403 04:07:55.048459 18812 net.cpp:141] Setting up inception_5b/output
I0403 04:07:55.048485 18812 net.cpp:148] Top shape: 24 1024 7 7 (1204224)
I0403 04:07:55.048501 18812 net.cpp:156] Memory required for data: 1345841664
I0403 04:07:55.048516 18812 layer_factory.hpp:77] Creating layer pool5/7x7_s1
I0403 04:07:55.048534 18812 net.cpp:91] Creating Layer pool5/7x7_s1
I0403 04:07:55.048563 18812 net.cpp:425] pool5/7x7_s1 <- inception_5b/output
I0403 04:07:55.048583 18812 net.cpp:399] pool5/7x7_s1 -> pool5/7x7_s1
I0403 04:07:55.048624 18812 net.cpp:141] Setting up pool5/7x7_s1
I0403 04:07:55.048647 18812 net.cpp:148] Top shape: 24 1024 1 1 (24576)
I0403 04:07:55.048662 18812 net.cpp:156] Memory required for data: 1345939968
I0403 04:07:55.048676 18812 layer_factory.hpp:77] Creating layer pool5/drop_7x7_s1
I0403 04:07:55.048696 18812 net.cpp:91] Creating Layer pool5/drop_7x7_s1
I0403 04:07:55.048712 18812 net.cpp:425] pool5/drop_7x7_s1 <- pool5/7x7_s1
I0403 04:07:55.048732 18812 net.cpp:386] pool5/drop_7x7_s1 -> pool5/7x7_s1 (in-place)
I0403 04:07:55.048771 18812 net.cpp:141] Setting up pool5/drop_7x7_s1
I0403 04:07:55.048795 18812 net.cpp:148] Top shape: 24 1024 1 1 (24576)
I0403 04:07:55.048811 18812 net.cpp:156] Memory required for data: 1346038272
I0403 04:07:55.048826 18812 layer_factory.hpp:77] Creating layer loss3/classifier_plantvillage
I0403 04:07:55.048846 18812 net.cpp:91] Creating Layer loss3/classifier_plantvillage
I0403 04:07:55.048876 18812 net.cpp:425] loss3/classifier_plantvillage <- pool5/7x7_s1
I0403 04:07:55.048899 18812 net.cpp:399] loss3/classifier_plantvillage -> loss3/classifier_plantvillage
I0403 04:07:55.049232 18812 net.cpp:141] Setting up loss3/classifier_plantvillage
I0403 04:07:55.049259 18812 net.cpp:148] Top shape: 24 38 (912)
I0403 04:07:55.049275 18812 net.cpp:156] Memory required for data: 1346041920
I0403 04:07:55.049299 18812 layer_factory.hpp:77] Creating layer loss1/loss
I0403 04:07:55.049324 18812 net.cpp:91] Creating Layer loss1/loss
I0403 04:07:55.049343 18812 net.cpp:425] loss1/loss <- loss1/classifier_plantvillage
I0403 04:07:55.049360 18812 net.cpp:425] loss1/loss <- label_data_1_split_0
I0403 04:07:55.049378 18812 net.cpp:399] loss1/loss -> loss1/loss
…
I0403 04:07:55.059492 18812 net.cpp:313] The NetState phase (1) differed from the phase (0) specified by a rule in layer data
I0403 04:07:55.063351 18812 net.cpp:49] Initializing net from parameters: 
state {
  phase: TEST
}
layer {
  name: "data"
  type: "Data"
  top: "data"
  top: "label"
  include {
    phase: TEST
  }
  transform_param {
    mirror: false
    crop_size: 224
    mean_file: "/home/mohanty/data/final_dataset/lmdb/segmented-60-40/mean.binaryproto"
  }
  data_param {
    source: "/home/mohanty/data/final_dataset/lmdb/segmented-60-40/test_db"
    batch_size: 24
    backend: LMDB
  }
}
layer {
  name: "conv1/7x7_s2"
  type: "Convolution"
  bottom: "data"
  top: "conv1/7x7_s2"
  param {
    lr_mult: 1
    decay_mult: 1
  }
  param {
    lr_mult: 2
    decay_mult: 0
  }
  convolution_param {
    num_output: 64
    pad: 3
    kernel_size: 7
    stride: 2
    weight_filler {
      type: "xavier"
      std: 0.1
    }
    bias_filler {
      type: "constant"
      value: 0.2
    }
  }
}
layer {
  name: "conv1/relu_7x7"
  type: "ReLU"
  bottom: "conv1/7x7_s2"
  top: "conv1/7x7_s2"
}
layer {
  name: "pool1/3x3_s2"
  type: "Pooling"
  bottom: "conv1/7x7_s2"
  top: "pool1/3x3_s2"
  pooling_param {
    pool: MAX
    kernel_size: 3
    stride: 2
  }
}
layer {
  name: "pool1/norm1"
  type: "LRN"
  bottom: "pool1/3x3_s2"
  top: "pool1/norm1"
  lrn_param {
    local_size: 5
    alpha: 0.0001
    beta: 0.75
  }
}
layer {
  name: "conv2/3x3_reduce"
  type: "Convolution"
  bottom: "pool1/norm1"
  top: "conv2/3x3_reduce"
  param {
    lr_mult: 1
    decay_mult: 1
  }
  param {
    lr_mult: 2
    decay_mult: 0
  }
  convolution_param {
    num_output: 64
    kernel_size: 1
    weight_filler {
      type: "xavier"
      std: 0.1
    }
    bias_filler {
      type: "constant"
      value: 0.2
    }
  }
}
layer {
  name: "conv2/relu_3x3_reduce"
  type: "ReLU"
  bottom: "conv2/3x3_reduce"
  top: "conv2/3x3_reduce"
}
layer {
  name: "conv2/3x3"
  type: "Convolution"
  bottom: "conv2/3x3_reduce"
  top: "conv2/3x3"
  param {
    lr_mult: 1
    decay_mult: 1
  }
  param {
    lr_mult: 2
    decay_mult: 0
  }
  convolution_param {
    num_output: 192
    pad: 1
    kernel_size: 3
    weight_filler {
      type: "xavier"
      std: 0.03
    }
    bias_filler {
      type: "constant"
      value: 0.2
    }
  }
}
layer {
  name: "conv2/relu_3x3"
  type: "ReLU"
  bottom: "conv2/3x3"
  top: "conv2/3x3"
}
layer {
  name: "conv2/norm2"
  type: "LRN"
  bottom: "conv2/3x3"
  top: "conv2/norm2"
  lrn_param {
    local_size: 5
    alpha: 0.0001
    beta: 0.75
  }
}
layer {
  name: "pool2/3x3_s2"
  type: "Pooling"
  bottom: "conv2/norm2"
  top: "pool2/3x3_s2"
  pooling_param {
    pool: MAX
    kernel_size: 3
    stride: 2
  }
}
layer {
  name: "inception_3a/1x1"
  type: "Convolution"
  bottom: "pool2/3x3_s2"
  top: "inception_3a/1x1"
  param {
    lr_mult: 1
    decay_mult: 1
  }
  param {
    lr_mult: 2
    decay_mult: 0
  }
  convolution_param {
    num_output: 64
    kernel_size: 1
    weight_filler {
      type: "xavier"
      std: 0.03
    }
    bias_filler {
      type: "constant"
      value: 0.2
    }
  }
}
layer {
  name: "inception_3a/relu_1x1"
  type: "ReLU"
  bottom: "inception_3a/1x1"
  top: "inception_3a/1x1"
}
layer {
  name: "inception_3a/3x3_reduce"
  type: "Convolution"
  bottom: "pool2/3x3_s2"
  top: "inception_3a/3x3_reduce"
  param {
    lr_mult: 1
    decay_mult: 1
  }
  param {
    lr_mult: 2
    decay_mult: 0
  }
  convolution_param {
    num_output: 96
    kernel_size: 1
    weight_filler {
      type: "xavier"
      std: 0.09
    }
    bias_filler {
      type: "constant"
      value: 0.2
    }
  }
}
layer {
  name: "inception_3a/relu_3x3_reduce"
  type: "ReLU"
  bottom: "inception_3a/3x3_reduce"
  top: "inception_3a/3x3_reduce"
}
layer {
  name: "inception_3a/3x3"
  type: "Convolution"
  bottom: "inception_3a/3x3_reduce"
  top: "inception_3a/3x3"
  param {
    lr_mult: 1
    decay_mult: 1
  }
  param {
    lr_mult: 2
    decay_mult: 0
  }
  convolution_param {
    num_output: 128
    pad: 1
    kernel_size: 3
    weight_filler {
      type: "xavier"
      std: 0.03
    }
    bias_filler {
      type: "constant"
      value: 0.2
    }
  }
}
layer {
  name: "inception_3a/relu_3x3"
  type: "ReLU"
  bottom: "inception_3a/3x3"
  top: "inception_3a/3x3"
}
layer {
  name: "inception_3a/5x5_reduce"
  type: "Convolution"
  bottom: "pool2/3x3_s2"
  top: "inception_3a/5x5_reduce"
  param {
    lr_mult: 1
    decay_mult: 1
  }
  param {
    lr_mult: 2
    decay_mult: 0
  }
  convolution_param {
    num_output: 16
    kernel_size: 1
    weight_filler {
      type: "xavier"
      std: 0.2
    }
    bias_filler {
      type: "constant"
      value: 0.2
    }
  }
}
layer {
  name: "inception_3a/relu_5x5_reduce"
  type: "ReLU"
  bottom: "inception_3a/5x5_reduce"
  top: "inception_3a/5x5_reduce"
}
layer {
  name: "inception_3a/5x5"
  type: "Convolution"
  bottom: "inception_3a/5x5_reduce"
  top: "inception_3a/5x5"
  param {
    lr_mult: 1
    decay_mult: 1
  }
  param {
    lr_mult: 2
    decay_mult: 0
  }
  convolution_param {
    num_output: 32
    pad: 2
    kernel_size: 5
    weight_filler {
      type: "xavier"
      std: 0.03
    }
    bias_filler {
      type: "constant"
      value: 0.2
    }
  }
}
layer {
  name: "inception_3a/relu_5x5"
  type: "ReLU"
  bottom: "inception_3a/5x5"
  top: "inception_3a/5x5"
}
layer {
  name: "inception_3a/pool"
  type: "Pooling"
  bottom: "pool2/3x3_s2"
  top: "inception_3a/pool"
  pooling_param {
    pool: MAX
    kernel_size: 3
    stride: 1
    pad: 1
  }
}
layer {
  name: "inception_3a/pool_proj"
  type: "Convolution"
  bottom: "inception_3a/pool"
  top: "inception_3a/pool_proj"
  param {
    lr_mult: 1
    decay_mult: 1
  }
  param {
    lr_mult: 2
    decay_mult: 0
  }
  convolution_param {
    num_output: 32
    kernel_size: 1
    weight_filler {
      type: "xavier"
      std: 0.1
    }
    bias_filler {
      type: "constant"
      value: 0.2
    }
  }
}
layer {
  name: "inception_3a/relu_pool_proj"
  type: "ReLU"
  bottom: "inception_3a/pool_proj"
  top: "inception_3a/pool_proj"
}
layer {
  name: "inception_3a/output"
  type: "Concat"
  bottom: "inception_3a/1x1"
  bottom: "inception_3a/3x3"
  bottom: "inception_3a/5x5"
  bottom: "inception_3a/pool_proj"
  top: "inception_3a/output"
}
layer {
  name: "inception_3b/1x1"
  type: "Convolution"
  bottom: "inception_3a/output"
  top: "inception_3b/1x1"
  param {
    lr_mult: 1
    decay_mult: 1
  }
  param {
    lr_mult: 2
    decay_mult: 0
  }
  convolution_param {
    num_output: 128
    kernel_size: 1
    weight_filler {
      type: "xavier"
      std: 0.03
    }
    bias_filler {
      type: "constant"
      value: 0.2
    }
  }
}
layer {
  name: "inception_3b/relu_1x1"
  type: "ReLU"
  bottom: "inception_3b/1x1"
  top: "inception_3b/1x1"
}
layer {
  name: "inception_3b/3x3_reduce"
  type: "Convolution"
  bottom: "inception_3a/output"
  top: "inception_3b/3x3_reduce"
  param {
    lr_mult: 1
    decay_mult: 1
  }
  param {
    lr_mult: 2
    decay_mult: 0
  }
  convolution_param {
    num_output: 128
    kernel_size: 1
    weight_filler {
      type: "xavier"
      std: 0.09
    }
    bias_filler {
      type: "constant"
      value: 0.2
    }
  }
}
layer {
  name: "inception_3b/relu_3x3_reduce"
  type: "ReLU"
  bottom: "inception_3b/3x3_reduce"
  top: "inception_3b/3x3_reduce"
}
layer {
  name: "inception_3b/3x3"
  type: "Convolution"
  bottom: "inception_3b/3x3_reduce"
  top: "inception_3b/3x3"
  param {
    lr_mult: 1
    decay_mult: 1
  }
  param {
    lr_mult: 2
    decay_mult: 0
  }
  convolution_param {
    num_output: 192
    pad: 1
    kernel_size: 3
    weight_filler {
      type: "xavier"
      std: 0.03
    }
    bias_filler {
      type: "constant"
      value: 0.2
    }
  }
}
layer {
  name: "inception_3b/relu_3x3"
  type: "ReLU"
  bottom: "inception_3b/3x3"
  top: "inception_3b/3x3"
}
layer {
  name: "inception_3b/5x5_reduce"
  type: "Convolution"
  bottom: "inception_3a/output"
  top: "inception_3b/5x5_reduce"
  param {
    lr_mult: 1
    decay_mult: 1
  }
  param {
    lr_mult: 2
    decay_mult: 0
  }
  convolution_param {
    num_output: 32
    kernel_size: 1
    weight_filler {
      type: "xavier"
      std: 0.2
    }
    bias_filler {
      type: "constant"
      value: 0.2
    }
  }
}
layer {
  name: "inception_3b/relu_5x5_reduce"
  type: "ReLU"
  bottom: "inception_3b/5x5_reduce"
  top: "inception_3b/5x5_reduce"
}
layer {
  name: "inception_3b/5x5"
  type: "Convolution"
  bottom: "inception_3b/5x5_reduce"
  top: "inception_3b/5x5"
  param {
    lr_mult: 1
    decay_mult: 1
  }
  param {
    lr_mult: 2
    decay_mult: 0
  }
  convolution_param {
    num_output: 96
    pad: 2
    kernel_size: 5
    weight_filler {
      type: "xavier"
      std: 0.03
    }
    bias_filler {
      type: "constant"
      value: 0.2
    }
  }
}
layer {
  name: "inception_3b/relu_5x5"
  type: "ReLU"
  bottom: "inception_3b/5x5"
  top: "inception_3b/5x5"
}
layer {
  name: "inception_3b/pool"
  type: "Pooling"
  bottom: "inception_3a/output"
  top: "inception_3b/pool"
  pooling_param {
    pool: MAX
    kernel_size: 3
    stride: 1
    pad: 1
  }
}
layer {
  name: "inception_3b/pool_proj"
  type: "Convolution"
  bottom: "inception_3b/pool"
  top: "inception_3b/pool_proj"
  param {
    lr_mult: 1
    decay_mult: 1
  }
  param {
    lr_mult: 2
    decay_mult: 0
  }
  convolution_param {
    num_output: 64
    kernel_size: 1
    weight_filler {
      type: "xavier"
      std: 0.1
    }
    bias_filler {
      type: "constant"
      value: 0.2
    }
  }
}
layer {
  name: "inception_3b/relu_pool_proj"
  type: "ReLU"
  bottom: "inception_3b/pool_proj"
  top: "inception_3b/pool_proj"
}
layer {
  name: "inception_3b/output"
  type: "Concat"
  bottom: "inception_3b/1x1"
  bottom: "inception_3b/3x3"
  bottom: "inception_3b/5x5"
  bottom: "inception_3b/pool_proj"
  top: "inception_3b/output"
}
layer {
  name: "pool3/3x3_s2"
  type: "Pooling"
  bottom: "inception_3b/output"
  top: "pool3/3x3_s2"
  pooling_param {
    pool: MAX
    kernel_size: 3
    stride: 2
  }
}
layer {
  name: "inception_4a/1x1"
  type: "Convolution"
  bottom: "pool3/3x3_s2"
  top: "inception_4a/1x1"
  param {
    lr_mult: 1
    decay_mult: 1
  }
  param {
    lr_mult: 2
    decay_mult: 0
  }
  convolution_param {
    num_output: 192
    kernel_size: 1
    weight_filler {
      type: "xavier"
      std: 0.03
    }
    bias_filler {
      type: "constant"
      value: 0.2
    }
  }
}
layer {
  name: "inception_4a/relu_1x1"
  type: "ReLU"
  bottom: "inception_4a/1x1"
  top: "inception_4a/1x1"
}
layer {
  name: "inception_4a/3x3_reduce"
  type: "Convolution"
  bottom: "pool3/3x3_s2"
  top: "inception_4a/3x3_reduce"
  param {
    lr_mult: 1
    decay_mult: 1
  }
  param {
    lr_mult: 2
    decay_mult: 0
  }
  convolution_param {
    num_output: 96
    kernel_size: 1
    weight_filler {
      type: "xavier"
      std: 0.09
    }
    bias_filler {
      type: "constant"
      value: 0.2
    }
  }
}
layer {
  name: "inception_4a/relu_3x3_reduce"
  type: "ReLU"
  bottom: "inception_4a/3x3_reduce"
  top: "inception_4a/3x3_reduce"
}
layer {
  name: "inception_4a/3x3"
  type: "Convolution"
  bottom: "inception_4a/3x3_reduce"
  top: "inception_4a/3x3"
  param {
    lr_mult: 1
    decay_mult: 1
  }
  param {
    lr_mult: 2
    decay_mult: 0
  }
  convolution_param {
    num_output: 208
    pad: 1
    kernel_size: 3
    weight_filler {
      type: "xavier"
      std: 0.03
    }
    bias_filler {
      type: "constant"
      value: 0.2
    }
  }
}
layer {
  name: "inception_4a/relu_3x3"
  type: "ReLU"
  bottom: "inception_4a/3x3"
  top: "inception_4a/3x3"
}
layer {
  name: "inception_4a/5x5_reduce"
  type: "Convolution"
  bottom: "pool3/3x3_s2"
  top: "inception_4a/5x5_reduce"
  param {
    lr_mult: 1
    decay_mult: 1
  }
  param {
    lr_mult: 2
    decay_mult: 0
  }
  convolution_param {
    num_output: 16
    kernel_size: 1
    weight_filler {
      type: "xavier"
      std: 0.2
    }
    bias_filler {
      type: "constant"
      value: 0.2
    }
  }
}
layer {
  name: "inception_4a/relu_5x5_reduce"
  type: "ReLU"
  bottom: "inception_4a/5x5_reduce"
  top: "inception_4a/5x5_reduce"
}
layer {
  name: "inception_4a/5x5"
  type: "Convolution"
  bottom: "inception_4a/5x5_reduce"
  top: "inception_4a/5x5"
  param {
    lr_mult: 1
    decay_mult: 1
  }
  param {
    lr_mult: 2
    decay_mult: 0
  }
  convolution_param {
    num_output: 48
    pad: 2
    kernel_size: 5
    weight_filler {
      type: "xavier"
      std: 0.03
    }
    bias_filler {
      type: "constant"
      value: 0.2
    }
  }
}
layer {
  name: "inception_4a/relu_5x5"
  type: "ReLU"
  bottom: "inception_4a/5x5"
  top: "inception_4a/5x5"
}
layer {
  name: "inception_4a/pool"
  type: "Pooling"
  bottom: "pool3/3x3_s2"
  top: "inception_4a/pool"
  pooling_param {
    pool: MAX
    kernel_size: 3
    stride: 1
    pad: 1
  }
}
layer {
  name: "inception_4a/pool_proj"
  type: "Convolution"
  bottom: "inception_4a/pool"
  top: "inception_4a/pool_proj"
  param {
    lr_mult: 1
    decay_mult: 1
  }
  param {
    lr_mult: 2
    decay_mult: 0
  }
  convolution_param {
    num_output: 64
    kernel_size: 1
    weight_filler {
      type: "xavier"
      std: 0.1
    }
    bias_filler {
      type: "constant"
      value: 0.2
    }
  }
}
layer {
  name: "inception_4a/relu_pool_proj"
  type: "ReLU"
  bottom: "inception_4a/pool_proj"
  top: "inception_4a/pool_proj"
}
layer {
  name: "inception_4a/output"
  type: "Concat"
  bottom: "inception_4a/1x1"
  bottom: "inception_4a/3x3"
  bottom: "inception_4a/5x5"
  bottom: "inception_4a/pool_proj"
  top: "inception_4a/output"
}
layer {
  name: "loss1/ave_pool"
  type: "Pooling"
  bottom: "inception_4a/output"
  top: "loss1/ave_pool"
  pooling_param {
    pool: AVE
    kernel_size: 5
    stride: 3
  }
}
layer {
  name: "loss1/conv"
  type: "Convolution"
  bottom: "loss1/ave_pool"
  top: "loss1/conv"
  param {
    lr_mult: 1
    decay_mult: 1
  }
  param {
    lr_mult: 2
    decay_mult: 0
  }
  convolution_param {
    num_output: 128
    kernel_size: 1
    weight_filler {
      type: "xavier"
      std: 0.08
    }
    bias_filler {
      type: "constant"
      value: 0.2
    }
  }
}
layer {
  name: "loss1/relu_conv"
  type: "ReLU"
  bottom: "loss1/conv"
  top: "loss1/conv"
}
layer {
  name: "loss1/fc"
  type: "InnerProduct"
  bottom: "loss1/conv"
  top: "loss1/fc"
  param {
    lr_mult: 1
    decay_mult: 1
  }
  param {
    lr_mult: 2
    decay_mult: 0
  }
  inner_product_param {
    num_output: 1024
    weight_filler {
      type: "xavier"
      std: 0.02
    }
    bias_filler {
      type: "constant"
      value: 0.2
    }
  }
}
layer {
  name: "loss1/relu_fc"
  type: "ReLU"
  bottom: "loss1/fc"
  top: "loss1/fc"
}
layer {
  name: "loss1/drop_fc"
  type: "Dropout"
  bottom: "loss1/fc"
  top: "loss1/fc"
  dropout_param {
    dropout_ratio: 0.7
  }
}
layer {
  name: "loss1/classifier_plantvillage"
  type: "InnerProduct"
  bottom: "loss1/fc"
  top: "loss1/classifier_plantvillage"
  param {
    lr_mult: 1
    decay_mult: 1
  }
  param {
    lr_mult: 2
    decay_mult: 0
  }
  inner_product_param {
    num_output: 38
    weight_filler {
      type: "xavier"
      std: 0.0009765625
    }
    bias_filler {
      type: "constant"
      value: 0
    }
  }
}
layer {
  name: "inception_4b/1x1"
  type: "Convolution"
  bottom: "inception_4a/output"
  top: "inception_4b/1x1"
  param {
    lr_mult: 1
    decay_mult: 1
  }
  param {
    lr_mult: 2
    decay_mult: 0
  }
  convolution_param {
    num_output: 160
    kernel_size: 1
    weight_filler {
      type: "xavier"
      std: 0.03
    }
    bias_filler {
      type: "constant"
      value: 0.2
    }
  }
}
layer {
…
I0403 04:07:55.213074 18812 layer_factory.hpp:77] Creating layer inception_4c/pool
I0403 04:07:55.213093 18812 net.cpp:91] Creating Layer inception_4c/pool
I0403 04:07:55.213109 18812 net.cpp:425] inception_4c/pool <- inception_4b/output_inception_4b/output_0_split_3
I0403 04:07:55.213130 18812 net.cpp:399] inception_4c/pool -> inception_4c/pool
I0403 04:07:55.213196 18812 net.cpp:141] Setting up inception_4c/pool
I0403 04:07:55.213220 18812 net.cpp:148] Top shape: 24 512 14 14 (2408448)
I0403 04:07:55.213238 18812 net.cpp:156] Memory required for data: 1060605120
I0403 04:07:55.213258 18812 layer_factory.hpp:77] Creating layer inception_4c/pool_proj
I0403 04:07:55.213282 18812 net.cpp:91] Creating Layer inception_4c/pool_proj
I0403 04:07:55.213302 18812 net.cpp:425] inception_4c/pool_proj <- inception_4c/pool
I0403 04:07:55.213325 18812 net.cpp:399] inception_4c/pool_proj -> inception_4c/pool_proj
I0403 04:07:55.213764 18812 net.cpp:141] Setting up inception_4c/pool_proj
I0403 04:07:55.213790 18812 net.cpp:148] Top shape: 24 64 14 14 (301056)
I0403 04:07:55.213807 18812 net.cpp:156] Memory required for data: 1061809344
I0403 04:07:55.213826 18812 layer_factory.hpp:77] Creating layer inception_4c/relu_pool_proj
I0403 04:07:55.213848 18812 net.cpp:91] Creating Layer inception_4c/relu_pool_proj
I0403 04:07:55.213866 18812 net.cpp:425] inception_4c/relu_pool_proj <- inception_4c/pool_proj
I0403 04:07:55.213886 18812 net.cpp:386] inception_4c/relu_pool_proj -> inception_4c/pool_proj (in-place)
I0403 04:07:55.213907 18812 net.cpp:141] Setting up inception_4c/relu_pool_proj
I0403 04:07:55.213925 18812 net.cpp:148] Top shape: 24 64 14 14 (301056)
I0403 04:07:55.213943 18812 net.cpp:156] Memory required for data: 1063013568
I0403 04:07:55.213958 18812 layer_factory.hpp:77] Creating layer inception_4c/output
I0403 04:07:55.213975 18812 net.cpp:91] Creating Layer inception_4c/output
I0403 04:07:55.213991 18812 net.cpp:425] inception_4c/output <- inception_4c/1x1
I0403 04:07:55.214010 18812 net.cpp:425] inception_4c/output <- inception_4c/3x3
I0403 04:07:55.214027 18812 net.cpp:425] inception_4c/output <- inception_4c/5x5
I0403 04:07:55.214046 18812 net.cpp:425] inception_4c/output <- inception_4c/pool_proj
I0403 04:07:55.214067 18812 net.cpp:399] inception_4c/output -> inception_4c/output
I0403 04:07:55.214110 18812 net.cpp:141] Setting up inception_4c/output
I0403 04:07:55.214138 18812 net.cpp:148] Top shape: 24 512 14 14 (2408448)
I0403 04:07:55.214154 18812 net.cpp:156] Memory required for data: 1072647360
I0403 04:07:55.214170 18812 layer_factory.hpp:77] Creating layer inception_4c/output_inception_4c/output_0_split
I0403 04:07:55.214190 18812 net.cpp:91] Creating Layer inception_4c/output_inception_4c/output_0_split
I0403 04:07:55.214207 18812 net.cpp:425] inception_4c/output_inception_4c/output_0_split <- inception_4c/output
I0403 04:07:55.214227 18812 net.cpp:399] inception_4c/output_inception_4c/output_0_split -> inception_4c/output_inception_4c/output_0_split_0
I0403 04:07:55.214249 18812 net.cpp:399] inception_4c/output_inception_4c/output_0_split -> inception_4c/output_inception_4c/output_0_split_1
I0403 04:07:55.214289 18812 net.cpp:399] inception_4c/output_inception_4c/output_0_split -> inception_4c/output_inception_4c/output_0_split_2
I0403 04:07:55.214313 18812 net.cpp:399] inception_4c/output_inception_4c/output_0_split -> inception_4c/output_inception_4c/output_0_split_3
I0403 04:07:55.214407 18812 net.cpp:141] Setting up inception_4c/output_inception_4c/output_0_split
I0403 04:07:55.214433 18812 net.cpp:148] Top shape: 24 512 14 14 (2408448)
I0403 04:07:55.214452 18812 net.cpp:148] Top shape: 24 512 14 14 (2408448)
I0403 04:07:55.214468 18812 net.cpp:148] Top shape: 24 512 14 14 (2408448)
I0403 04:07:55.214483 18812 net.cpp:148] Top shape: 24 512 14 14 (2408448)
I0403 04:07:55.214498 18812 net.cpp:156] Memory required for data: 1111182528
I0403 04:07:55.214514 18812 layer_factory.hpp:77] Creating layer inception_4d/1x1
I0403 04:07:55.214539 18812 net.cpp:91] Creating Layer inception_4d/1x1
I0403 04:07:55.214558 18812 net.cpp:425] inception_4d/1x1 <- inception_4c/output_inception_4c/output_0_split_0
I0403 04:07:55.214581 18812 net.cpp:399] inception_4d/1x1 -> inception_4d/1x1
I0403 04:07:55.215159 18812 net.cpp:141] Setting up inception_4d/1x1
I0403 04:07:55.215186 18812 net.cpp:148] Top shape: 24 112 14 14 (526848)
I0403 04:07:55.215201 18812 net.cpp:156] Memory required for data: 1113289920
I0403 04:07:55.215220 18812 layer_factory.hpp:77] Creating layer inception_4d/relu_1x1
I0403 04:07:55.215241 18812 net.cpp:91] Creating Layer inception_4d/relu_1x1
I0403 04:07:55.215263 18812 net.cpp:425] inception_4d/relu_1x1 <- inception_4d/1x1
I0403 04:07:55.215284 18812 net.cpp:386] inception_4d/relu_1x1 -> inception_4d/1x1 (in-place)
I0403 04:07:55.215304 18812 net.cpp:141] Setting up inception_4d/relu_1x1
I0403 04:07:55.215323 18812 net.cpp:148] Top shape: 24 112 14 14 (526848)
I0403 04:07:55.215338 18812 net.cpp:156] Memory required for data: 1115397312
I0403 04:07:55.215354 18812 layer_factory.hpp:77] Creating layer inception_4d/3x3_reduce
I0403 04:07:55.215378 18812 net.cpp:91] Creating Layer inception_4d/3x3_reduce
I0403 04:07:55.215396 18812 net.cpp:425] inception_4d/3x3_reduce <- inception_4c/output_inception_4c/output_0_split_1
I0403 04:07:55.215420 18812 net.cpp:399] inception_4d/3x3_reduce -> inception_4d/3x3_reduce
I0403 04:07:55.216110 18812 net.cpp:141] Setting up inception_4d/3x3_reduce
I0403 04:07:55.216136 18812 net.cpp:148] Top shape: 24 144 14 14 (677376)
I0403 04:07:55.216152 18812 net.cpp:156] Memory required for data: 1118106816
I0403 04:07:55.216171 18812 layer_factory.hpp:77] Creating layer inception_4d/relu_3x3_reduce
I0403 04:07:55.216193 18812 net.cpp:91] Creating Layer inception_4d/relu_3x3_reduce
I0403 04:07:55.216212 18812 net.cpp:425] inception_4d/relu_3x3_reduce <- inception_4d/3x3_reduce
I0403 04:07:55.216233 18812 net.cpp:386] inception_4d/relu_3x3_reduce -> inception_4d/3x3_reduce (in-place)
I0403 04:07:55.216256 18812 net.cpp:141] Setting up inception_4d/relu_3x3_reduce
I0403 04:07:55.216277 18812 net.cpp:148] Top shape: 24 144 14 14 (677376)
I0403 04:07:55.216294 18812 net.cpp:156] Memory required for data: 1120816320
I0403 04:07:55.216310 18812 layer_factory.hpp:77] Creating layer inception_4d/3x3
I0403 04:07:55.216334 18812 net.cpp:91] Creating Layer inception_4d/3x3
I0403 04:07:55.216353 18812 net.cpp:425] inception_4d/3x3 <- inception_4d/3x3_reduce
I0403 04:07:55.216379 18812 net.cpp:399] inception_4d/3x3 -> inception_4d/3x3
I0403 04:07:55.219632 18812 net.cpp:141] Setting up inception_4d/3x3
I0403 04:07:55.219663 18812 net.cpp:148] Top shape: 24 288 14 14 (1354752)
I0403 04:07:55.219679 18812 net.cpp:156] Memory required for data: 1126235328
I0403 04:07:55.219698 18812 layer_factory.hpp:77] Creating layer inception_4d/relu_3x3
I0403 04:07:55.219719 18812 net.cpp:91] Creating Layer inception_4d/relu_3x3
I0403 04:07:55.219738 18812 net.cpp:425] inception_4d/relu_3x3 <- inception_4d/3x3
I0403 04:07:55.219763 18812 net.cpp:386] inception_4d/relu_3x3 -> inception_4d/3x3 (in-place)
I0403 04:07:55.219784 18812 net.cpp:141] Setting up inception_4d/relu_3x3
I0403 04:07:55.219804 18812 net.cpp:148] Top shape: 24 288 14 14 (1354752)
I0403 04:07:55.219820 18812 net.cpp:156] Memory required for data: 1131654336
I0403 04:07:55.219835 18812 layer_factory.hpp:77] Creating layer inception_4d/5x5_reduce
I0403 04:07:55.219874 18812 net.cpp:91] Creating Layer inception_4d/5x5_reduce
I0403 04:07:55.219897 18812 net.cpp:425] inception_4d/5x5_reduce <- inception_4c/output_inception_4c/output_0_split_2
I0403 04:07:55.219918 18812 net.cpp:399] inception_4d/5x5_reduce -> inception_4d/5x5_reduce
I0403 04:07:55.220280 18812 net.cpp:141] Setting up inception_4d/5x5_reduce
I0403 04:07:55.220307 18812 net.cpp:148] Top shape: 24 32 14 14 (150528)
I0403 04:07:55.220324 18812 net.cpp:156] Memory required for data: 1132256448
I0403 04:07:55.220343 18812 layer_factory.hpp:77] Creating layer inception_4d/relu_5x5_reduce
I0403 04:07:55.220366 18812 net.cpp:91] Creating Layer inception_4d/relu_5x5_reduce
I0403 04:07:55.220384 18812 net.cpp:425] inception_4d/relu_5x5_reduce <- inception_4d/5x5_reduce
I0403 04:07:55.220403 18812 net.cpp:386] inception_4d/relu_5x5_reduce -> inception_4d/5x5_reduce (in-place)
I0403 04:07:55.220424 18812 net.cpp:141] Setting up inception_4d/relu_5x5_reduce
I0403 04:07:55.220444 18812 net.cpp:148] Top shape: 24 32 14 14 (150528)
I0403 04:07:55.220459 18812 net.cpp:156] Memory required for data: 1132858560
I0403 04:07:55.220474 18812 layer_factory.hpp:77] Creating layer inception_4d/5x5
I0403 04:07:55.220499 18812 net.cpp:91] Creating Layer inception_4d/5x5
I0403 04:07:55.220517 18812 net.cpp:425] inception_4d/5x5 <- inception_4d/5x5_reduce
I0403 04:07:55.220537 18812 net.cpp:399] inception_4d/5x5 -> inception_4d/5x5
I0403 04:07:55.221089 18812 net.cpp:141] Setting up inception_4d/5x5
I0403 04:07:55.221117 18812 net.cpp:148] Top shape: 24 64 14 14 (301056)
I0403 04:07:55.221132 18812 net.cpp:156] Memory required for data: 1134062784
I0403 04:07:55.221151 18812 layer_factory.hpp:77] Creating layer inception_4d/relu_5x5
I0403 04:07:55.221171 18812 net.cpp:91] Creating Layer inception_4d/relu_5x5
I0403 04:07:55.221189 18812 net.cpp:425] inception_4d/relu_5x5 <- inception_4d/5x5
I0403 04:07:55.221210 18812 net.cpp:386] inception_4d/relu_5x5 -> inception_4d/5x5 (in-place)
I0403 04:07:55.221230 18812 net.cpp:141] Setting up inception_4d/relu_5x5
I0403 04:07:55.221251 18812 net.cpp:148] Top shape: 24 64 14 14 (301056)
I0403 04:07:55.221269 18812 net.cpp:156] Memory required for data: 1135267008
I0403 04:07:55.221284 18812 layer_factory.hpp:77] Creating layer inception_4d/pool
I0403 04:07:55.221302 18812 net.cpp:91] Creating Layer inception_4d/pool
I0403 04:07:55.221320 18812 net.cpp:425] inception_4d/pool <- inception_4c/output_inception_4c/output_0_split_3
I0403 04:07:55.221343 18812 net.cpp:399] inception_4d/pool -> inception_4d/pool
I0403 04:07:55.221403 18812 net.cpp:141] Setting up inception_4d/pool
I0403 04:07:55.221431 18812 net.cpp:148] Top shape: 24 512 14 14 (2408448)
I0403 04:07:55.221447 18812 net.cpp:156] Memory required for data: 1144900800
I0403 04:07:55.221462 18812 layer_factory.hpp:77] Creating layer inception_4d/pool_proj
I0403 04:07:55.221484 18812 net.cpp:91] Creating Layer inception_4d/pool_proj
I0403 04:07:55.221503 18812 net.cpp:425] inception_4d/pool_proj <- inception_4d/pool
I0403 04:07:55.221525 18812 net.cpp:399] inception_4d/pool_proj -> inception_4d/pool_proj
I0403 04:07:55.221966 18812 net.cpp:141] Setting up inception_4d/pool_proj
I0403 04:07:55.221992 18812 net.cpp:148] Top shape: 24 64 14 14 (301056)
I0403 04:07:55.222007 18812 net.cpp:156] Memory required for data: 1146105024
I0403 04:07:55.222026 18812 layer_factory.hpp:77] Creating layer inception_4d/relu_pool_proj
I0403 04:07:55.222045 18812 net.cpp:91] Creating Layer inception_4d/relu_pool_proj
I0403 04:07:55.222064 18812 net.cpp:425] inception_4d/relu_pool_proj <- inception_4d/pool_proj
I0403 04:07:55.222084 18812 net.cpp:386] inception_4d/relu_pool_proj -> inception_4d/pool_proj (in-place)
I0403 04:07:55.222106 18812 net.cpp:141] Setting up inception_4d/relu_pool_proj
I0403 04:07:55.222126 18812 net.cpp:148] Top shape: 24 64 14 14 (301056)
I0403 04:07:55.222141 18812 net.cpp:156] Memory required for data: 1147309248
I0403 04:07:55.222156 18812 layer_factory.hpp:77] Creating layer inception_4d/output
I0403 04:07:55.222189 18812 net.cpp:91] Creating Layer inception_4d/output
I0403 04:07:55.222210 18812 net.cpp:425] inception_4d/output <- inception_4d/1x1
I0403 04:07:55.222229 18812 net.cpp:425] inception_4d/output <- inception_4d/3x3
I0403 04:07:55.222245 18812 net.cpp:425] inception_4d/output <- inception_4d/5x5
I0403 04:07:55.222267 18812 net.cpp:425] inception_4d/output <- inception_4d/pool_proj
I0403 04:07:55.222287 18812 net.cpp:399] inception_4d/output -> inception_4d/output
I0403 04:07:55.222332 18812 net.cpp:141] Setting up inception_4d/output
I0403 04:07:55.222357 18812 net.cpp:148] Top shape: 24 528 14 14 (2483712)
I0403 04:07:55.222374 18812 net.cpp:156] Memory required for data: 1157244096
I0403 04:07:55.222389 18812 layer_factory.hpp:77] Creating layer inception_4d/output_inception_4d/output_0_split
I0403 04:07:55.222409 18812 net.cpp:91] Creating Layer inception_4d/output_inception_4d/output_0_split
I0403 04:07:55.222426 18812 net.cpp:425] inception_4d/output_inception_4d/output_0_split <- inception_4d/output
I0403 04:07:55.222451 18812 net.cpp:399] inception_4d/output_inception_4d/output_0_split -> inception_4d/output_inception_4d/output_0_split_0
I0403 04:07:55.222475 18812 net.cpp:399] inception_4d/output_inception_4d/output_0_split -> inception_4d/output_inception_4d/output_0_split_1
I0403 04:07:55.222497 18812 net.cpp:399] inception_4d/output_inception_4d/output_0_split -> inception_4d/output_inception_4d/output_0_split_2
I0403 04:07:55.222519 18812 net.cpp:399] inception_4d/output_inception_4d/output_0_split -> inception_4d/output_inception_4d/output_0_split_3
I0403 04:07:55.222543 18812 net.cpp:399] inception_4d/output_inception_4d/output_0_split -> inception_4d/output_inception_4d/output_0_split_4
I0403 04:07:55.222635 18812 net.cpp:141] Setting up inception_4d/output_inception_4d/output_0_split
I0403 04:07:55.222659 18812 net.cpp:148] Top shape: 24 528 14 14 (2483712)
I0403 04:07:55.222676 18812 net.cpp:148] Top shape: 24 528 14 14 (2483712)
I0403 04:07:55.222692 18812 net.cpp:148] Top shape: 24 528 14 14 (2483712)
I0403 04:07:55.222708 18812 net.cpp:148] Top shape: 24 528 14 14 (2483712)
I0403 04:07:55.222724 18812 net.cpp:148] Top shape: 24 528 14 14 (2483712)
I0403 04:07:55.222738 18812 net.cpp:156] Memory required for data: 1206918336
I0403 04:07:55.222754 18812 layer_factory.hpp:77] Creating layer loss2/ave_pool
I0403 04:07:55.222772 18812 net.cpp:91] Creating Layer loss2/ave_pool
I0403 04:07:55.222790 18812 net.cpp:425] loss2/ave_pool <- inception_4d/output_inception_4d/output_0_split_0
I0403 04:07:55.222812 18812 net.cpp:399] loss2/ave_pool -> loss2/ave_pool
I0403 04:07:55.222856 18812 net.cpp:141] Setting up loss2/ave_pool
I0403 04:07:55.222882 18812 net.cpp:148] Top shape: 24 528 4 4 (202752)
I0403 04:07:55.222900 18812 net.cpp:156] Memory required for data: 1207729344
I0403 04:07:55.222916 18812 layer_factory.hpp:77] Creating layer loss2/conv
I0403 04:07:55.222939 18812 net.cpp:91] Creating Layer loss2/conv
I0403 04:07:55.222957 18812 net.cpp:425] loss2/conv <- loss2/ave_pool
I0403 04:07:55.222982 18812 net.cpp:399] loss2/conv -> loss2/conv
I0403 04:07:55.224167 18812 net.cpp:141] Setting up loss2/conv
I0403 04:07:55.224198 18812 net.cpp:148] Top shape: 24 128 4 4 (49152)
I0403 04:07:55.224215 18812 net.cpp:156] Memory required for data: 1207925952
I0403 04:07:55.224233 18812 layer_factory.hpp:77] Creating layer loss2/relu_conv
I0403 04:07:55.224267 18812 net.cpp:91] Creating Layer loss2/relu_conv
I0403 04:07:55.224289 18812 net.cpp:425] loss2/relu_conv <- loss2/conv
I0403 04:07:55.224308 18812 net.cpp:386] loss2/relu_conv -> loss2/conv (in-place)
I0403 04:07:55.224330 18812 net.cpp:141] Setting up loss2/relu_conv
I0403 04:07:55.224349 18812 net.cpp:148] Top shape: 24 128 4 4 (49152)
I0403 04:07:55.224365 18812 net.cpp:156] Memory required for data: 1208122560
I0403 04:07:55.224380 18812 layer_factory.hpp:77] Creating layer loss2/fc
I0403 04:07:55.224403 18812 net.cpp:91] Creating Layer loss2/fc
I0403 04:07:55.224421 18812 net.cpp:425] loss2/fc <- loss2/conv
I0403 04:07:55.224442 18812 net.cpp:399] loss2/fc -> loss2/fc
I0403 04:07:55.241158 18812 net.cpp:141] Setting up loss2/fc
I0403 04:07:55.241212 18812 net.cpp:148] Top shape: 24 1024 (24576)
I0403 04:07:55.241231 18812 net.cpp:156] Memory required for data: 1208220864
I0403 04:07:55.241257 18812 layer_factory.hpp:77] Creating layer loss2/relu_fc
I0403 04:07:55.241282 18812 net.cpp:91] Creating Layer loss2/relu_fc
I0403 04:07:55.241302 18812 net.cpp:425] loss2/relu_fc <- loss2/fc
I0403 04:07:55.241323 18812 net.cpp:386] loss2/relu_fc -> loss2/fc (in-place)
I0403 04:07:55.241345 18812 net.cpp:141] Setting up loss2/relu_fc
I0403 04:07:55.241364 18812 net.cpp:148] Top shape: 24 1024 (24576)
I0403 04:07:55.241379 18812 net.cpp:156] Memory required for data: 1208319168
I0403 04:07:55.241394 18812 layer_factory.hpp:77] Creating layer loss2/drop_fc
I0403 04:07:55.241413 18812 net.cpp:91] Creating Layer loss2/drop_fc
I0403 04:07:55.241430 18812 net.cpp:425] loss2/drop_fc <- loss2/fc
I0403 04:07:55.241446 18812 net.cpp:386] loss2/drop_fc -> loss2/fc (in-place)
I0403 04:07:55.241494 18812 net.cpp:141] Setting up loss2/drop_fc
I0403 04:07:55.241518 18812 net.cpp:148] Top shape: 24 1024 (24576)
I0403 04:07:55.241533 18812 net.cpp:156] Memory required for data: 1208417472
I0403 04:07:55.241549 18812 layer_factory.hpp:77] Creating layer loss2/classifier_plantvillage
I0403 04:07:55.241571 18812 net.cpp:91] Creating Layer loss2/classifier_plantvillage
I0403 04:07:55.241593 18812 net.cpp:425] loss2/classifier_plantvillage <- loss2/fc
I0403 04:07:55.241614 18812 net.cpp:399] loss2/classifier_plantvillage -> loss2/classifier_plantvillage
I0403 04:07:55.241972 18812 net.cpp:141] Setting up loss2/classifier_plantvillage
I0403 04:07:55.241998 18812 net.cpp:148] Top shape: 24 38 (912)
I0403 04:07:55.242014 18812 net.cpp:156] Memory required for data: 1208421120
I0403 04:07:55.242033 18812 layer_factory.hpp:77] Creating layer loss2/classifier_plantvillage_loss2/classifier_plantvillage_0_split
I0403 04:07:55.242054 18812 net.cpp:91] Creating Layer loss2/classifier_plantvillage_loss2/classifier_plantvillage_0_split
I0403 04:07:55.242071 18812 net.cpp:425] loss2/classifier_plantvillage_loss2/classifier_plantvillage_0_split <- loss2/classifier_plantvillage
I0403 04:07:55.242089 18812 net.cpp:399] loss2/classifier_plantvillage_loss2/classifier_plantvillage_0_split -> loss2/classifier_plantvillage_loss2/classifier_plantvillage_0_split_0
I0403 04:07:55.242113 18812 net.cpp:399] loss2/classifier_plantvillage_loss2/classifier_plantvillage_0_split -> loss2/classifier_plantvillage_loss2/classifier_plantvillage_0_split_1
I0403 04:07:55.242137 18812 net.cpp:399] loss2/classifier_plantvillage_loss2/classifier_plantvillage_0_split -> loss2/classifier_plantvillage_loss2/classifier_plantvillage_0_split_2
I0403 04:07:55.242208 18812 net.cpp:141] Setting up loss2/classifier_plantvillage_loss2/classifier_plantvillage_0_split
I0403 04:07:55.242233 18812 net.cpp:148] Top shape: 24 38 (912)
I0403 04:07:55.242249 18812 net.cpp:148] Top shape: 24 38 (912)
I0403 04:07:55.242270 18812 net.cpp:148] Top shape: 24 38 (912)
I0403 04:07:55.242285 18812 net.cpp:156] Memory required for data: 1208432064
I0403 04:07:55.242301 18812 layer_factory.hpp:77] Creating layer inception_4e/1x1
I0403 04:07:55.242324 18812 net.cpp:91] Creating Layer inception_4e/1x1
I0403 04:07:55.242342 18812 net.cpp:425] inception_4e/1x1 <- inception_4d/output_inception_4d/output_0_split_1
I0403 04:07:55.242367 18812 net.cpp:399] inception_4e/1x1 -> inception_4e/1x1
I0403 04:07:55.243404 18812 net.cpp:141] Setting up inception_4e/1x1
I0403 04:07:55.243432 18812 net.cpp:148] Top shape: 24 256 14 14 (1204224)
I0403 04:07:55.243448 18812 net.cpp:156] Memory required for data: 1213248960
I0403 04:07:55.243466 18812 layer_factory.hpp:77] Creating layer inception_4e/relu_1x1
I0403 04:07:55.243486 18812 net.cpp:91] Creating Layer inception_4e/relu_1x1
I0403 04:07:55.243504 18812 net.cpp:425] inception_4e/relu_1x1 <- inception_4e/1x1
I0403 04:07:55.243523 18812 net.cpp:386] inception_4e/relu_1x1 -> inception_4e/1x1 (in-place)
I0403 04:07:55.243567 18812 net.cpp:141] Setting up inception_4e/relu_1x1
I0403 04:07:55.243587 18812 net.cpp:148] Top shape: 24 256 14 14 (1204224)
I0403 04:07:55.243603 18812 net.cpp:156] Memory required for data: 1218065856
I0403 04:07:55.243618 18812 layer_factory.hpp:77] Creating layer inception_4e/3x3_reduce
I0403 04:07:55.243643 18812 net.cpp:91] Creating Layer inception_4e/3x3_reduce
I0403 04:07:55.243661 18812 net.cpp:425] inception_4e/3x3_reduce <- inception_4d/output_inception_4d/output_0_split_2
I0403 04:07:55.243685 18812 net.cpp:399] inception_4e/3x3_reduce -> inception_4e/3x3_reduce
I0403 04:07:55.245021 18812 net.cpp:141] Setting up inception_4e/3x3_reduce
I0403 04:07:55.245051 18812 net.cpp:148] Top shape: 24 160 14 14 (752640)
I0403 04:07:55.245067 18812 net.cpp:156] Memory required for data: 1221076416
I0403 04:07:55.245086 18812 layer_factory.hpp:77] Creating layer inception_4e/relu_3x3_reduce
I0403 04:07:55.245107 18812 net.cpp:91] Creating Layer inception_4e/relu_3x3_reduce
I0403 04:07:55.245129 18812 net.cpp:425] inception_4e/relu_3x3_reduce <- inception_4e/3x3_reduce
I0403 04:07:55.245147 18812 net.cpp:386] inception_4e/relu_3x3_reduce -> inception_4e/3x3_reduce (in-place)
I0403 04:07:55.245167 18812 net.cpp:141] Setting up inception_4e/relu_3x3_reduce
I0403 04:07:55.245185 18812 net.cpp:148] Top shape: 24 160 14 14 (752640)
I0403 04:07:55.245200 18812 net.cpp:156] Memory required for data: 1224086976
I0403 04:07:55.245216 18812 layer_factory.hpp:77] Creating layer inception_4e/3x3
I0403 04:07:55.245240 18812 net.cpp:91] Creating Layer inception_4e/3x3
I0403 04:07:55.245263 18812 net.cpp:425] inception_4e/3x3 <- inception_4e/3x3_reduce
I0403 04:07:55.245285 18812 net.cpp:399] inception_4e/3x3 -> inception_4e/3x3
I0403 04:07:55.249073 18812 net.cpp:141] Setting up inception_4e/3x3
I0403 04:07:55.249104 18812 net.cpp:148] Top shape: 24 320 14 14 (1505280)
I0403 04:07:55.249119 18812 net.cpp:156] Memory required for data: 1230108096
I0403 04:07:55.249137 18812 layer_factory.hpp:77] Creating layer inception_4e/relu_3x3
I0403 04:07:55.249157 18812 net.cpp:91] Creating Layer inception_4e/relu_3x3
I0403 04:07:55.249176 18812 net.cpp:425] inception_4e/relu_3x3 <- inception_4e/3x3
I0403 04:07:55.249194 18812 net.cpp:386] inception_4e/relu_3x3 -> inception_4e/3x3 (in-place)
I0403 04:07:55.249213 18812 net.cpp:141] Setting up inception_4e/relu_3x3
I0403 04:07:55.249233 18812 net.cpp:148] Top shape: 24 320 14 14 (1505280)
I0403 04:07:55.249248 18812 net.cpp:156] Memory required for data: 1236129216
I0403 04:07:55.249267 18812 layer_factory.hpp:77] Creating layer inception_4e/5x5_reduce
I0403 04:07:55.249294 18812 net.cpp:91] Creating Layer inception_4e/5x5_reduce
I0403 04:07:55.249313 18812 net.cpp:425] inception_4e/5x5_reduce <- inception_4d/output_inception_4d/output_0_split_3
I0403 04:07:55.249336 18812 net.cpp:399] inception_4e/5x5_reduce -> inception_4e/5x5_reduce
I0403 04:07:55.250179 18812 net.cpp:141] Setting up inception_4e/5x5_reduce
I0403 04:07:55.250208 18812 net.cpp:148] Top shape: 24 32 14 14 (150528)
I0403 04:07:55.250223 18812 net.cpp:156] Memory required for data: 1236731328
I0403 04:07:55.250242 18812 layer_factory.hpp:77] Creating layer inception_4e/relu_5x5_reduce
I0403 04:07:55.250284 18812 net.cpp:91] Creating Layer inception_4e/relu_5x5_reduce
I0403 04:07:55.250305 18812 net.cpp:425] inception_4e/relu_5x5_reduce <- inception_4e/5x5_reduce
I0403 04:07:55.250327 18812 net.cpp:386] inception_4e/relu_5x5_reduce -> inception_4e/5x5_reduce (in-place)
I0403 04:07:55.250349 18812 net.cpp:141] Setting up inception_4e/relu_5x5_reduce
I0403 04:07:55.250366 18812 net.cpp:148] Top shape: 24 32 14 14 (150528)
I0403 04:07:55.250381 18812 net.cpp:156] Memory required for data: 1237333440
I0403 04:07:55.250397 18812 layer_factory.hpp:77] Creating layer inception_4e/5x5
I0403 04:07:55.250439 18812 net.cpp:91] Creating Layer inception_4e/5x5
I0403 04:07:55.250459 18812 net.cpp:425] inception_4e/5x5 <- inception_4e/5x5_reduce
I0403 04:07:55.250480 18812 net.cpp:399] inception_4e/5x5 -> inception_4e/5x5
I0403 04:07:55.251279 18812 net.cpp:141] Setting up inception_4e/5x5
I0403 04:07:55.251320 18812 net.cpp:148] Top shape: 24 128 14 14 (602112)
I0403 04:07:55.251338 18812 net.cpp:156] Memory required for data: 1239741888
I0403 04:07:55.251358 18812 layer_factory.hpp:77] Creating layer inception_4e/relu_5x5
I0403 04:07:55.251380 18812 net.cpp:91] Creating Layer inception_4e/relu_5x5
I0403 04:07:55.251399 18812 net.cpp:425] inception_4e/relu_5x5 <- inception_4e/5x5
I0403 04:07:55.251420 18812 net.cpp:386] inception_4e/relu_5x5 -> inception_4e/5x5 (in-place)
I0403 04:07:55.251441 18812 net.cpp:141] Setting up inception_4e/relu_5x5
I0403 04:07:55.251459 18812 net.cpp:148] Top shape: 24 128 14 14 (602112)
I0403 04:07:55.251476 18812 net.cpp:156] Memory required for data: 1242150336
I0403 04:07:55.251492 18812 layer_factory.hpp:77] Creating layer inception_4e/pool
I0403 04:07:55.251514 18812 net.cpp:91] Creating Layer inception_4e/pool
I0403 04:07:55.251533 18812 net.cpp:425] inception_4e/pool <- inception_4d/output_inception_4d/output_0_split_4
I0403 04:07:55.251554 18812 net.cpp:399] inception_4e/pool -> inception_4e/pool
I0403 04:07:55.251611 18812 net.cpp:141] Setting up inception_4e/pool
I0403 04:07:55.251636 18812 net.cpp:148] Top shape: 24 528 14 14 (2483712)
I0403 04:07:55.251652 18812 net.cpp:156] Memory required for data: 1252085184
I0403 04:07:55.251667 18812 layer_factory.hpp:77] Creating layer inception_4e/pool_proj
I0403 04:07:55.251690 18812 net.cpp:91] Creating Layer inception_4e/pool_proj
I0403 04:07:55.251709 18812 net.cpp:425] inception_4e/pool_proj <- inception_4e/pool
I0403 04:07:55.251730 18812 net.cpp:399] inception_4e/pool_proj -> inception_4e/pool_proj
I0403 04:07:55.252336 18812 net.cpp:141] Setting up inception_4e/pool_proj
I0403 04:07:55.252362 18812 net.cpp:148] Top shape: 24 128 14 14 (602112)
I0403 04:07:55.252377 18812 net.cpp:156] Memory required for data: 1254493632
I0403 04:07:55.252396 18812 layer_factory.hpp:77] Creating layer inception_4e/relu_pool_proj
I0403 04:07:55.252416 18812 net.cpp:91] Creating Layer inception_4e/relu_pool_proj
I0403 04:07:55.252434 18812 net.cpp:425] inception_4e/relu_pool_proj <- inception_4e/pool_proj
I0403 04:07:55.252451 18812 net.cpp:386] inception_4e/relu_pool_proj -> inception_4e/pool_proj (in-place)
I0403 04:07:55.252475 18812 net.cpp:141] Setting up inception_4e/relu_pool_proj
I0403 04:07:55.252496 18812 net.cpp:148] Top shape: 24 128 14 14 (602112)
I0403 04:07:55.252511 18812 net.cpp:156] Memory required for data: 1256902080
I0403 04:07:55.252526 18812 layer_factory.hpp:77] Creating layer inception_4e/output
I0403 04:07:55.252547 18812 net.cpp:91] Creating Layer inception_4e/output
I0403 04:07:55.252564 18812 net.cpp:425] inception_4e/output <- inception_4e/1x1
I0403 04:07:55.252583 18812 net.cpp:425] inception_4e/output <- inception_4e/3x3
I0403 04:07:55.252601 18812 net.cpp:425] inception_4e/output <- inception_4e/5x5
I0403 04:07:55.252619 18812 net.cpp:425] inception_4e/output <- inception_4e/pool_proj
I0403 04:07:55.252637 18812 net.cpp:399] inception_4e/output -> inception_4e/output
I0403 04:07:55.252679 18812 net.cpp:141] Setting up inception_4e/output
I0403 04:07:55.252704 18812 net.cpp:148] Top shape: 24 832 14 14 (3913728)
I0403 04:07:55.252719 18812 net.cpp:156] Memory required for data: 1272556992
I0403 04:07:55.252735 18812 layer_factory.hpp:77] Creating layer pool4/3x3_s2
I0403 04:07:55.252754 18812 net.cpp:91] Creating Layer pool4/3x3_s2
I0403 04:07:55.252773 18812 net.cpp:425] pool4/3x3_s2 <- inception_4e/output
I0403 04:07:55.252794 18812 net.cpp:399] pool4/3x3_s2 -> pool4/3x3_s2
I0403 04:07:55.252848 18812 net.cpp:141] Setting up pool4/3x3_s2
I0403 04:07:55.252872 18812 net.cpp:148] Top shape: 24 832 7 7 (978432)
I0403 04:07:55.252888 18812 net.cpp:156] Memory required for data: 1276470720
I0403 04:07:55.252904 18812 layer_factory.hpp:77] Creating layer pool4/3x3_s2_pool4/3x3_s2_0_split
I0403 04:07:55.252929 18812 net.cpp:91] Creating Layer pool4/3x3_s2_pool4/3x3_s2_0_split
I0403 04:07:55.252946 18812 net.cpp:425] pool4/3x3_s2_pool4/3x3_s2_0_split <- pool4/3x3_s2
I0403 04:07:55.252980 18812 net.cpp:399] pool4/3x3_s2_pool4/3x3_s2_0_split -> pool4/3x3_s2_pool4/3x3_s2_0_split_0
I0403 04:07:55.253006 18812 net.cpp:399] pool4/3x3_s2_pool4/3x3_s2_0_split -> pool4/3x3_s2_pool4/3x3_s2_0_split_1
I0403 04:07:55.253031 18812 net.cpp:399] pool4/3x3_s2_pool4/3x3_s2_0_split -> pool4/3x3_s2_pool4/3x3_s2_0_split_2
I0403 04:07:55.253052 18812 net.cpp:399] pool4/3x3_s2_pool4/3x3_s2_0_split -> pool4/3x3_s2_pool4/3x3_s2_0_split_3
I0403 04:07:55.253123 18812 net.cpp:141] Setting up pool4/3x3_s2_pool4/3x3_s2_0_split
I0403 04:07:55.253147 18812 net.cpp:148] Top shape: 24 832 7 7 (978432)
I0403 04:07:55.253165 18812 net.cpp:148] Top shape: 24 832 7 7 (978432)
I0403 04:07:55.253180 18812 net.cpp:148] Top shape: 24 832 7 7 (978432)
I0403 04:07:55.253196 18812 net.cpp:148] Top shape: 24 832 7 7 (978432)
I0403 04:07:55.253211 18812 net.cpp:156] Memory required for data: 1292125632
I0403 04:07:55.253226 18812 layer_factory.hpp:77] Creating layer inception_5a/1x1
I0403 04:07:55.253250 18812 net.cpp:91] Creating Layer inception_5a/1x1
I0403 04:07:55.253273 18812 net.cpp:425] inception_5a/1x1 <- pool4/3x3_s2_pool4/3x3_s2_0_split_0
I0403 04:07:55.253298 18812 net.cpp:399] inception_5a/1x1 -> inception_5a/1x1
I0403 04:07:55.255283 18812 net.cpp:141] Setting up inception_5a/1x1
I0403 04:07:55.255314 18812 net.cpp:148] Top shape: 24 256 7 7 (301056)
I0403 04:07:55.255331 18812 net.cpp:156] Memory required for data: 1293329856
I0403 04:07:55.255350 18812 layer_factory.hpp:77] Creating layer inception_5a/relu_1x1
I0403 04:07:55.255373 18812 net.cpp:91] Creating Layer inception_5a/relu_1x1
I0403 04:07:55.255393 18812 net.cpp:425] inception_5a/relu_1x1 <- inception_5a/1x1
I0403 04:07:55.255412 18812 net.cpp:386] inception_5a/relu_1x1 -> inception_5a/1x1 (in-place)
I0403 04:07:55.255434 18812 net.cpp:141] Setting up inception_5a/relu_1x1
I0403 04:07:55.255452 18812 net.cpp:148] Top shape: 24 256 7 7 (301056)
I0403 04:07:55.255468 18812 net.cpp:156] Memory required for data: 1294534080
I0403 04:07:55.255483 18812 layer_factory.hpp:77] Creating layer inception_5a/3x3_reduce
I0403 04:07:55.255508 18812 net.cpp:91] Creating Layer inception_5a/3x3_reduce
I0403 04:07:55.255527 18812 net.cpp:425] inception_5a/3x3_reduce <- pool4/3x3_s2_pool4/3x3_s2_0_split_1
I0403 04:07:55.255549 18812 net.cpp:399] inception_5a/3x3_reduce -> inception_5a/3x3_reduce
I0403 04:07:55.257081 18812 net.cpp:141] Setting up inception_5a/3x3_reduce
I0403 04:07:55.257112 18812 net.cpp:148] Top shape: 24 160 7 7 (188160)
I0403 04:07:55.257128 18812 net.cpp:156] Memory required for data: 1295286720
I0403 04:07:55.257148 18812 layer_factory.hpp:77] Creating layer inception_5a/relu_3x3_reduce
I0403 04:07:55.257169 18812 net.cpp:91] Creating Layer inception_5a/relu_3x3_reduce
I0403 04:07:55.257189 18812 net.cpp:425] inception_5a/relu_3x3_reduce <- inception_5a/3x3_reduce
I0403 04:07:55.257207 18812 net.cpp:386] inception_5a/relu_3x3_reduce -> inception_5a/3x3_reduce (in-place)
I0403 04:07:55.257227 18812 net.cpp:141] Setting up inception_5a/relu_3x3_reduce
I0403 04:07:55.257246 18812 net.cpp:148] Top shape: 24 160 7 7 (188160)
I0403 04:07:55.257266 18812 net.cpp:156] Memory required for data: 1296039360
I0403 04:07:55.257283 18812 layer_factory.hpp:77] Creating layer inception_5a/3x3
I0403 04:07:55.257308 18812 net.cpp:91] Creating Layer inception_5a/3x3
I0403 04:07:55.257326 18812 net.cpp:425] inception_5a/3x3 <- inception_5a/3x3_reduce
I0403 04:07:55.257347 18812 net.cpp:399] inception_5a/3x3 -> inception_5a/3x3
I0403 04:07:55.261203 18812 net.cpp:141] Setting up inception_5a/3x3
I0403 04:07:55.261234 18812 net.cpp:148] Top shape: 24 320 7 7 (376320)
I0403 04:07:55.261250 18812 net.cpp:156] Memory required for data: 1297544640
I0403 04:07:55.261273 18812 layer_factory.hpp:77] Creating layer inception_5a/relu_3x3
I0403 04:07:55.261296 18812 net.cpp:91] Creating Layer inception_5a/relu_3x3
I0403 04:07:55.261314 18812 net.cpp:425] inception_5a/relu_3x3 <- inception_5a/3x3
I0403 04:07:55.261335 18812 net.cpp:386] inception_5a/relu_3x3 -> inception_5a/3x3 (in-place)
I0403 04:07:55.261373 18812 net.cpp:141] Setting up inception_5a/relu_3x3
I0403 04:07:55.261394 18812 net.cpp:148] Top shape: 24 320 7 7 (376320)
I0403 04:07:55.261409 18812 net.cpp:156] Memory required for data: 1299049920
I0403 04:07:55.261423 18812 layer_factory.hpp:77] Creating layer inception_5a/5x5_reduce
I0403 04:07:55.261452 18812 net.cpp:91] Creating Layer inception_5a/5x5_reduce
I0403 04:07:55.261472 18812 net.cpp:425] inception_5a/5x5_reduce <- pool4/3x3_s2_pool4/3x3_s2_0_split_2
I0403 04:07:55.261492 18812 net.cpp:399] inception_5a/5x5_reduce -> inception_5a/5x5_reduce
I0403 04:07:55.261883 18812 net.cpp:141] Setting up inception_5a/5x5_reduce
I0403 04:07:55.261911 18812 net.cpp:148] Top shape: 24 32 7 7 (37632)
I0403 04:07:55.261927 18812 net.cpp:156] Memory required for data: 1299200448
I0403 04:07:55.261947 18812 layer_factory.hpp:77] Creating layer inception_5a/relu_5x5_reduce
I0403 04:07:55.261968 18812 net.cpp:91] Creating Layer inception_5a/relu_5x5_reduce
I0403 04:07:55.261986 18812 net.cpp:425] inception_5a/relu_5x5_reduce <- inception_5a/5x5_reduce
I0403 04:07:55.262006 18812 net.cpp:386] inception_5a/relu_5x5_reduce -> inception_5a/5x5_reduce (in-place)
I0403 04:07:55.262027 18812 net.cpp:141] Setting up inception_5a/relu_5x5_reduce
I0403 04:07:55.262047 18812 net.cpp:148] Top shape: 24 32 7 7 (37632)
I0403 04:07:55.262063 18812 net.cpp:156] Memory required for data: 1299350976
I0403 04:07:55.262078 18812 layer_factory.hpp:77] Creating layer inception_5a/5x5
I0403 04:07:55.262102 18812 net.cpp:91] Creating Layer inception_5a/5x5
I0403 04:07:55.262121 18812 net.cpp:425] inception_5a/5x5 <- inception_5a/5x5_reduce
I0403 04:07:55.262142 18812 net.cpp:399] inception_5a/5x5 -> inception_5a/5x5
I0403 04:07:55.262960 18812 net.cpp:141] Setting up inception_5a/5x5
I0403 04:07:55.262990 18812 net.cpp:148] Top shape: 24 128 7 7 (150528)
I0403 04:07:55.263007 18812 net.cpp:156] Memory required for data: 1299953088
I0403 04:07:55.263026 18812 layer_factory.hpp:77] Creating layer inception_5a/relu_5x5
I0403 04:07:55.263046 18812 net.cpp:91] Creating Layer inception_5a/relu_5x5
I0403 04:07:55.263062 18812 net.cpp:425] inception_5a/relu_5x5 <- inception_5a/5x5
I0403 04:07:55.263082 18812 net.cpp:386] inception_5a/relu_5x5 -> inception_5a/5x5 (in-place)
I0403 04:07:55.263101 18812 net.cpp:141] Setting up inception_5a/relu_5x5
I0403 04:07:55.263121 18812 net.cpp:148] Top shape: 24 128 7 7 (150528)
I0403 04:07:55.263139 18812 net.cpp:156] Memory required for data: 1300555200
I0403 04:07:55.263154 18812 layer_factory.hpp:77] Creating layer inception_5a/pool
I0403 04:07:55.263175 18812 net.cpp:91] Creating Layer inception_5a/pool
I0403 04:07:55.263195 18812 net.cpp:425] inception_5a/pool <- pool4/3x3_s2_pool4/3x3_s2_0_split_3
I0403 04:07:55.263214 18812 net.cpp:399] inception_5a/pool -> inception_5a/pool
I0403 04:07:55.263274 18812 net.cpp:141] Setting up inception_5a/pool
I0403 04:07:55.263299 18812 net.cpp:148] Top shape: 24 832 7 7 (978432)
I0403 04:07:55.263315 18812 net.cpp:156] Memory required for data: 1304468928
I0403 04:07:55.263330 18812 layer_factory.hpp:77] Creating layer inception_5a/pool_proj
I0403 04:07:55.263355 18812 net.cpp:91] Creating Layer inception_5a/pool_proj
I0403 04:07:55.263375 18812 net.cpp:425] inception_5a/pool_proj <- inception_5a/pool
I0403 04:07:55.263396 18812 net.cpp:399] inception_5a/pool_proj -> inception_5a/pool_proj
I0403 04:07:55.264762 18812 net.cpp:141] Setting up inception_5a/pool_proj
I0403 04:07:55.264793 18812 net.cpp:148] Top shape: 24 128 7 7 (150528)
I0403 04:07:55.264811 18812 net.cpp:156] Memory required for data: 1305071040
I0403 04:07:55.264830 18812 layer_factory.hpp:77] Creating layer inception_5a/relu_pool_proj
I0403 04:07:55.264850 18812 net.cpp:91] Creating Layer inception_5a/relu_pool_proj
I0403 04:07:55.264868 18812 net.cpp:425] inception_5a/relu_pool_proj <- inception_5a/pool_proj
I0403 04:07:55.264889 18812 net.cpp:386] inception_5a/relu_pool_proj -> inception_5a/pool_proj (in-place)
I0403 04:07:55.264910 18812 net.cpp:141] Setting up inception_5a/relu_pool_proj
I0403 04:07:55.264945 18812 net.cpp:148] Top shape: 24 128 7 7 (150528)
I0403 04:07:55.264962 18812 net.cpp:156] Memory required for data: 1305673152
I0403 04:07:55.264978 18812 layer_factory.hpp:77] Creating layer inception_5a/output
I0403 04:07:55.264999 18812 net.cpp:91] Creating Layer inception_5a/output
I0403 04:07:55.265017 18812 net.cpp:425] inception_5a/output <- inception_5a/1x1
I0403 04:07:55.265035 18812 net.cpp:425] inception_5a/output <- inception_5a/3x3
I0403 04:07:55.265053 18812 net.cpp:425] inception_5a/output <- inception_5a/5x5
I0403 04:07:55.265071 18812 net.cpp:425] inception_5a/output <- inception_5a/pool_proj
I0403 04:07:55.265090 18812 net.cpp:399] inception_5a/output -> inception_5a/output
I0403 04:07:55.265132 18812 net.cpp:141] Setting up inception_5a/output
I0403 04:07:55.265156 18812 net.cpp:148] Top shape: 24 832 7 7 (978432)
I0403 04:07:55.265173 18812 net.cpp:156] Memory required for data: 1309586880
I0403 04:07:55.265188 18812 layer_factory.hpp:77] Creating layer inception_5a/output_inception_5a/output_0_split
I0403 04:07:55.265208 18812 net.cpp:91] Creating Layer inception_5a/output_inception_5a/output_0_split
I0403 04:07:55.265225 18812 net.cpp:425] inception_5a/output_inception_5a/output_0_split <- inception_5a/output
I0403 04:07:55.265246 18812 net.cpp:399] inception_5a/output_inception_5a/output_0_split -> inception_5a/output_inception_5a/output_0_split_0
I0403 04:07:55.265275 18812 net.cpp:399] inception_5a/output_inception_5a/output_0_split -> inception_5a/output_inception_5a/output_0_split_1
I0403 04:07:55.265298 18812 net.cpp:399] inception_5a/output_inception_5a/output_0_split -> inception_5a/output_inception_5a/output_0_split_2
I0403 04:07:55.265319 18812 net.cpp:399] inception_5a/output_inception_5a/output_0_split -> inception_5a/output_inception_5a/output_0_split_3
I0403 04:07:55.265394 18812 net.cpp:141] Setting up inception_5a/output_inception_5a/output_0_split
I0403 04:07:55.265420 18812 net.cpp:148] Top shape: 24 832 7 7 (978432)
I0403 04:07:55.265439 18812 net.cpp:148] Top shape: 24 832 7 7 (978432)
I0403 04:07:55.265455 18812 net.cpp:148] Top shape: 24 832 7 7 (978432)
I0403 04:07:55.265470 18812 net.cpp:148] Top shape: 24 832 7 7 (978432)
I0403 04:07:55.265486 18812 net.cpp:156] Memory required for data: 1325241792
I0403 04:07:55.265502 18812 layer_factory.hpp:77] Creating layer inception_5b/1x1
I0403 04:07:55.265527 18812 net.cpp:91] Creating Layer inception_5b/1x1
I0403 04:07:55.265547 18812 net.cpp:425] inception_5b/1x1 <- inception_5a/output_inception_5a/output_0_split_0
I0403 04:07:55.265568 18812 net.cpp:399] inception_5b/1x1 -> inception_5b/1x1
I0403 04:07:55.268220 18812 net.cpp:141] Setting up inception_5b/1x1
I0403 04:07:55.268251 18812 net.cpp:148] Top shape: 24 384 7 7 (451584)
I0403 04:07:55.268271 18812 net.cpp:156] Memory required for data: 1327048128
I0403 04:07:55.268291 18812 layer_factory.hpp:77] Creating layer inception_5b/relu_1x1
I0403 04:07:55.268312 18812 net.cpp:91] Creating Layer inception_5b/relu_1x1
I0403 04:07:55.268329 18812 net.cpp:425] inception_5b/relu_1x1 <- inception_5b/1x1
I0403 04:07:55.268347 18812 net.cpp:386] inception_5b/relu_1x1 -> inception_5b/1x1 (in-place)
I0403 04:07:55.268368 18812 net.cpp:141] Setting up inception_5b/relu_1x1
I0403 04:07:55.268388 18812 net.cpp:148] Top shape: 24 384 7 7 (451584)
I0403 04:07:55.268404 18812 net.cpp:156] Memory required for data: 1328854464
I0403 04:07:55.268419 18812 layer_factory.hpp:77] Creating layer inception_5b/3x3_reduce
I0403 04:07:55.268442 18812 net.cpp:91] Creating Layer inception_5b/3x3_reduce
I0403 04:07:55.268465 18812 net.cpp:425] inception_5b/3x3_reduce <- inception_5a/output_inception_5a/output_0_split_1
I0403 04:07:55.268488 18812 net.cpp:399] inception_5b/3x3_reduce -> inception_5b/3x3_reduce
I0403 04:07:55.270197 18812 net.cpp:141] Setting up inception_5b/3x3_reduce
I0403 04:07:55.270226 18812 net.cpp:148] Top shape: 24 192 7 7 (225792)
I0403 04:07:55.270242 18812 net.cpp:156] Memory required for data: 1329757632
I0403 04:07:55.270267 18812 layer_factory.hpp:77] Creating layer inception_5b/relu_3x3_reduce
I0403 04:07:55.270303 18812 net.cpp:91] Creating Layer inception_5b/relu_3x3_reduce
I0403 04:07:55.270321 18812 net.cpp:425] inception_5b/relu_3x3_reduce <- inception_5b/3x3_reduce
I0403 04:07:55.270340 18812 net.cpp:386] inception_5b/relu_3x3_reduce -> inception_5b/3x3_reduce (in-place)
I0403 04:07:55.270360 18812 net.cpp:141] Setting up inception_5b/relu_3x3_reduce
I0403 04:07:55.270380 18812 net.cpp:148] Top shape: 24 192 7 7 (225792)
I0403 04:07:55.270395 18812 net.cpp:156] Memory required for data: 1330660800
I0403 04:07:55.270411 18812 layer_factory.hpp:77] Creating layer inception_5b/3x3
I0403 04:07:55.270432 18812 net.cpp:91] Creating Layer inception_5b/3x3
I0403 04:07:55.270450 18812 net.cpp:425] inception_5b/3x3 <- inception_5b/3x3_reduce
I0403 04:07:55.270473 18812 net.cpp:399] inception_5b/3x3 -> inception_5b/3x3
I0403 04:07:55.275789 18812 net.cpp:141] Setting up inception_5b/3x3
I0403 04:07:55.275822 18812 net.cpp:148] Top shape: 24 384 7 7 (451584)
I0403 04:07:55.275840 18812 net.cpp:156] Memory required for data: 1332467136
I0403 04:07:55.275858 18812 layer_factory.hpp:77] Creating layer inception_5b/relu_3x3
I0403 04:07:55.275878 18812 net.cpp:91] Creating Layer inception_5b/relu_3x3
I0403 04:07:55.275897 18812 net.cpp:425] inception_5b/relu_3x3 <- inception_5b/3x3
I0403 04:07:55.275916 18812 net.cpp:386] inception_5b/relu_3x3 -> inception_5b/3x3 (in-place)
I0403 04:07:55.275936 18812 net.cpp:141] Setting up inception_5b/relu_3x3
I0403 04:07:55.275954 18812 net.cpp:148] Top shape: 24 384 7 7 (451584)
I0403 04:07:55.275969 18812 net.cpp:156] Memory required for data: 1334273472
I0403 04:07:55.275984 18812 layer_factory.hpp:77] Creating layer inception_5b/5x5_reduce
I0403 04:07:55.276007 18812 net.cpp:91] Creating Layer inception_5b/5x5_reduce
I0403 04:07:55.276026 18812 net.cpp:425] inception_5b/5x5_reduce <- inception_5a/output_inception_5a/output_0_split_2
I0403 04:07:55.276049 18812 net.cpp:399] inception_5b/5x5_reduce -> inception_5b/5x5_reduce
I0403 04:07:55.277025 18812 net.cpp:141] Setting up inception_5b/5x5_reduce
I0403 04:07:55.277057 18812 net.cpp:148] Top shape: 24 48 7 7 (56448)
I0403 04:07:55.277075 18812 net.cpp:156] Memory required for data: 1334499264
I0403 04:07:55.277093 18812 layer_factory.hpp:77] Creating layer inception_5b/relu_5x5_reduce
I0403 04:07:55.277114 18812 net.cpp:91] Creating Layer inception_5b/relu_5x5_reduce
I0403 04:07:55.277132 18812 net.cpp:425] inception_5b/relu_5x5_reduce <- inception_5b/5x5_reduce
I0403 04:07:55.277150 18812 net.cpp:386] inception_5b/relu_5x5_reduce -> inception_5b/5x5_reduce (in-place)
I0403 04:07:55.277170 18812 net.cpp:141] Setting up inception_5b/relu_5x5_reduce
I0403 04:07:55.277189 18812 net.cpp:148] Top shape: 24 48 7 7 (56448)
I0403 04:07:55.277204 18812 net.cpp:156] Memory required for data: 1334725056
I0403 04:07:55.277220 18812 layer_factory.hpp:77] Creating layer inception_5b/5x5
I0403 04:07:55.277242 18812 net.cpp:91] Creating Layer inception_5b/5x5
I0403 04:07:55.277266 18812 net.cpp:425] inception_5b/5x5 <- inception_5b/5x5_reduce
I0403 04:07:55.277290 18812 net.cpp:399] inception_5b/5x5 -> inception_5b/5x5
I0403 04:07:55.278411 18812 net.cpp:141] Setting up inception_5b/5x5
I0403 04:07:55.278439 18812 net.cpp:148] Top shape: 24 128 7 7 (150528)
I0403 04:07:55.278455 18812 net.cpp:156] Memory required for data: 1335327168
I0403 04:07:55.278473 18812 layer_factory.hpp:77] Creating layer inception_5b/relu_5x5
I0403 04:07:55.278493 18812 net.cpp:91] Creating Layer inception_5b/relu_5x5
I0403 04:07:55.278511 18812 net.cpp:425] inception_5b/relu_5x5 <- inception_5b/5x5
I0403 04:07:55.278544 18812 net.cpp:386] inception_5b/relu_5x5 -> inception_5b/5x5 (in-place)
I0403 04:07:55.278568 18812 net.cpp:141] Setting up inception_5b/relu_5x5
I0403 04:07:55.278585 18812 net.cpp:148] Top shape: 24 128 7 7 (150528)
I0403 04:07:55.278601 18812 net.cpp:156] Memory required for data: 1335929280
I0403 04:07:55.278617 18812 layer_factory.hpp:77] Creating layer inception_5b/pool
I0403 04:07:55.278636 18812 net.cpp:91] Creating Layer inception_5b/pool
I0403 04:07:55.278669 18812 net.cpp:425] inception_5b/pool <- inception_5a/output_inception_5a/output_0_split_3
I0403 04:07:55.278694 18812 net.cpp:399] inception_5b/pool -> inception_5b/pool
I0403 04:07:55.278753 18812 net.cpp:141] Setting up inception_5b/pool
I0403 04:07:55.278777 18812 net.cpp:148] Top shape: 24 832 7 7 (978432)
I0403 04:07:55.278794 18812 net.cpp:156] Memory required for data: 1339843008
I0403 04:07:55.278810 18812 layer_factory.hpp:77] Creating layer inception_5b/pool_proj
I0403 04:07:55.278846 18812 net.cpp:91] Creating Layer inception_5b/pool_proj
I0403 04:07:55.278864 18812 net.cpp:425] inception_5b/pool_proj <- inception_5b/pool
I0403 04:07:55.278887 18812 net.cpp:399] inception_5b/pool_proj -> inception_5b/pool_proj
I0403 04:07:55.280283 18812 net.cpp:141] Setting up inception_5b/pool_proj
I0403 04:07:55.280313 18812 net.cpp:148] Top shape: 24 128 7 7 (150528)
I0403 04:07:55.280328 18812 net.cpp:156] Memory required for data: 1340445120
I0403 04:07:55.280347 18812 layer_factory.hpp:77] Creating layer inception_5b/relu_pool_proj
I0403 04:07:55.280369 18812 net.cpp:91] Creating Layer inception_5b/relu_pool_proj
I0403 04:07:55.280386 18812 net.cpp:425] inception_5b/relu_pool_proj <- inception_5b/pool_proj
I0403 04:07:55.280405 18812 net.cpp:386] inception_5b/relu_pool_proj -> inception_5b/pool_proj (in-place)
I0403 04:07:55.280426 18812 net.cpp:141] Setting up inception_5b/relu_pool_proj
I0403 04:07:55.280446 18812 net.cpp:148] Top shape: 24 128 7 7 (150528)
I0403 04:07:55.280459 18812 net.cpp:156] Memory required for data: 1341047232
I0403 04:07:55.280473 18812 layer_factory.hpp:77] Creating layer inception_5b/output
I0403 04:07:55.280490 18812 net.cpp:91] Creating Layer inception_5b/output
I0403 04:07:55.280508 18812 net.cpp:425] inception_5b/output <- inception_5b/1x1
I0403 04:07:55.280524 18812 net.cpp:425] inception_5b/output <- inception_5b/3x3
I0403 04:07:55.280544 18812 net.cpp:425] inception_5b/output <- inception_5b/5x5
I0403 04:07:55.280560 18812 net.cpp:425] inception_5b/output <- inception_5b/pool_proj
I0403 04:07:55.280578 18812 net.cpp:399] inception_5b/output -> inception_5b/output
I0403 04:07:55.280618 18812 net.cpp:141] Setting up inception_5b/output
I0403 04:07:55.280640 18812 net.cpp:148] Top shape: 24 1024 7 7 (1204224)
I0403 04:07:55.280655 18812 net.cpp:156] Memory required for data: 1345864128
I0403 04:07:55.280670 18812 layer_factory.hpp:77] Creating layer pool5/7x7_s1
I0403 04:07:55.280691 18812 net.cpp:91] Creating Layer pool5/7x7_s1
I0403 04:07:55.280709 18812 net.cpp:425] pool5/7x7_s1 <- inception_5b/output
I0403 04:07:55.280727 18812 net.cpp:399] pool5/7x7_s1 -> pool5/7x7_s1
I0403 04:07:55.280768 18812 net.cpp:141] Setting up pool5/7x7_s1
I0403 04:07:55.280791 18812 net.cpp:148] Top shape: 24 1024 1 1 (24576)
I0403 04:07:55.280805 18812 net.cpp:156] Memory required for data: 1345962432
I0403 04:07:55.280820 18812 layer_factory.hpp:77] Creating layer pool5/drop_7x7_s1
I0403 04:07:55.280840 18812 net.cpp:91] Creating Layer pool5/drop_7x7_s1
I0403 04:07:55.280858 18812 net.cpp:425] pool5/drop_7x7_s1 <- pool5/7x7_s1
I0403 04:07:55.280879 18812 net.cpp:386] pool5/drop_7x7_s1 -> pool5/7x7_s1 (in-place)
I0403 04:07:55.280918 18812 net.cpp:141] Setting up pool5/drop_7x7_s1
I0403 04:07:55.280941 18812 net.cpp:148] Top shape: 24 1024 1 1 (24576)
I0403 04:07:55.280956 18812 net.cpp:156] Memory required for data: 1346060736
I0403 04:07:55.280971 18812 layer_factory.hpp:77] Creating layer loss3/classifier_plantvillage
I0403 04:07:55.280992 18812 net.cpp:91] Creating Layer loss3/classifier_plantvillage
I0403 04:07:55.281008 18812 net.cpp:425] loss3/classifier_plantvillage <- pool5/7x7_s1
I0403 04:07:55.281030 18812 net.cpp:399] loss3/classifier_plantvillage -> loss3/classifier_plantvillage
I0403 04:07:55.281360 18812 net.cpp:141] Setting up loss3/classifier_plantvillage
I0403 04:07:55.281386 18812 net.cpp:148] Top shape: 24 38 (912)
I0403 04:07:55.281401 18812 net.cpp:156] Memory required for data: 1346064384
I0403 04:07:55.281419 18812 layer_factory.hpp:77] Creating layer loss3/classifier_plantvillage_loss3/classifier_plantvillage_0_split
I0403 04:07:55.281455 18812 net.cpp:91] Creating Layer loss3/classifier_plantvillage_loss3/classifier_plantvillage_0_split
I0403 04:07:55.281473 18812 net.cpp:425] loss3/classifier_plantvillage_loss3/classifier_plantvillage_0_split <- loss3/classifier_plantvillage
I0403 04:07:55.281492 18812 net.cpp:399] loss3/classifier_plantvillage_loss3/classifier_plantvillage_0_split -> loss3/classifier_plantvillage_loss3/classifier_plantvillage_0_split_0
I0403 04:07:55.281514 18812 net.cpp:399] loss3/classifier_plantvillage_loss3/classifier_plantvillage_0_split -> loss3/classifier_plantvillage_loss3/classifier_plantvillage_0_split_1
I0403 04:07:55.281535 18812 net.cpp:399] loss3/classifier_plantvillage_loss3/classifier_plantvillage_0_split -> loss3/classifier_plantvillage_loss3/classifier_plantvillage_0_split_2
I0403 04:07:55.281600 18812 net.cpp:141] Setting up loss3/classifier_plantvillage_loss3/classifier_plantvillage_0_split
I0403 04:07:55.281623 18812 net.cpp:148] Top shape: 24 38 (912)
I0403 04:07:55.281640 18812 net.cpp:148] Top shape: 24 38 (912)
I0403 04:07:55.281656 18812 net.cpp:148] Top shape: 24 38 (912)
I0403 04:07:55.281671 18812 net.cpp:156] Memory required for data: 1346075328
I0403 04:07:55.281684 18812 layer_factory.hpp:77] Creating layer loss1/loss
I0403 04:07:55.281703 18812 net.cpp:91] Creating Layer loss1/loss
I0403 04:07:55.281720 18812 net.cpp:425] loss1/loss <- loss1/classifier_plantvillage_loss1/classifier_plantvillage_0_split_0
I0403 04:07:55.281738 18812 net.cpp:425] loss1/loss <- label_data_1_split_0
…
