…
I0403 13:05:49.400210 10183 net.cpp:313] The NetState phase (1) differed from the phase (0) specified by a rule in layer data
I0403 13:05:49.400507 10183 net.cpp:49] Initializing net from parameters: 
state {
  phase: TEST
}
layer {
  name: "data"
  type: "Data"
  top: "data"
  top: "label"
  include {
    phase: TEST
  }
  transform_param {
    crop_size: 227
    mean_file: "/home/mohanty/data/final_dataset/lmdb/segmented-50-50/mean.binaryproto"
  }
  data_param {
    source: "/home/mohanty/data/final_dataset/lmdb/segmented-50-50/test_db"
    batch_size: 100
    backend: LMDB
  }
}
layer {
  name: "conv1"
  type: "Convolution"
  bottom: "data"
  top: "conv1"
  param {
    lr_mult: 1
    decay_mult: 1
  }
  param {
    lr_mult: 2
    decay_mult: 0
  }
  convolution_param {
    num_output: 96
    kernel_size: 11
    stride: 4
    weight_filler {
      type: "gaussian"
      std: 0.01
    }
    bias_filler {
      type: "constant"
      value: 0
    }
  }
}
layer {
  name: "relu1"
  type: "ReLU"
  bottom: "conv1"
  top: "conv1"
}
layer {
  name: "norm1"
  type: "LRN"
  bottom: "conv1"
  top: "norm1"
  lrn_param {
    local_size: 5
    alpha: 0.0001
    beta: 0.75
  }
}
layer {
  name: "pool1"
  type: "Pooling"
  bottom: "norm1"
  top: "pool1"
  pooling_param {
    pool: MAX
    kernel_size: 3
    stride: 2
  }
}
layer {
  name: "conv2"
  type: "Convolution"
  bottom: "pool1"
  top: "conv2"
  param {
    lr_mult: 1
    decay_mult: 1
  }
  param {
    lr_mult: 2
    decay_mult: 0
  }
  convolution_param {
    num_output: 256
    pad: 2
    kernel_size: 5
    group: 2
    weight_filler {
      type: "gaussian"
      std: 0.01
    }
    bias_filler {
      type: "constant"
      value: 0.1
    }
  }
}
layer {
  name: "relu2"
  type: "ReLU"
  bottom: "conv2"
  top: "conv2"
}
layer {
  name: "norm2"
  type: "LRN"
  bottom: "conv2"
  top: "norm2"
  lrn_param {
    local_size: 5
    alpha: 0.0001
    beta: 0.75
  }
}
layer {
  name: "pool2"
  type: "Pooling"
  bottom: "norm2"
  top: "pool2"
  pooling_param {
    pool: MAX
    kernel_size: 3
    stride: 2
  }
}
layer {
  name: "conv3"
  type: "Convolution"
  bottom: "pool2"
  top: "conv3"
  param {
    lr_mult: 1
    decay_mult: 1
  }
  param {
    lr_mult: 2
    decay_mult: 0
  }
  convolution_param {
    num_output: 384
    pad: 1
    kernel_size: 3
    weight_filler {
      type: "gaussian"
      std: 0.01
    }
    bias_filler {
      type: "constant"
      value: 0
    }
  }
}
layer {
  name: "relu3"
  type: "ReLU"
  bottom: "conv3"
  top: "conv3"
}
layer {
  name: "conv4"
  type: "Convolution"
  bottom: "conv3"
  top: "conv4"
  param {
    lr_mult: 1
    decay_mult: 1
  }
  param {
    lr_mult: 2
    decay_mult: 0
  }
  convolution_param {
    num_output: 384
    pad: 1
    kernel_size: 3
    group: 2
    weight_filler {
      type: "gaussian"
      std: 0.01
    }
    bias_filler {
      type: "constant"
      value: 0.1
    }
  }
}
layer {
  name: "relu4"
  type: "ReLU"
  bottom: "conv4"
  top: "conv4"
}
layer {
  name: "conv5"
  type: "Convolution"
  bottom: "conv4"
  top: "conv5"
  param {
    lr_mult: 1
    decay_mult: 1
  }
  param {
    lr_mult: 2
    decay_mult: 0
  }
  convolution_param {
    num_output: 256
    pad: 1
    kernel_size: 3
    group: 2
    weight_filler {
      type: "gaussian"
      std: 0.01
    }
    bias_filler {
      type: "constant"
      value: 0.1
    }
  }
}
layer {
  name: "relu5"
  type: "ReLU"
  bottom: "conv5"
  top: "conv5"
}
layer {
  name: "pool5"
  type: "Pooling"
  bottom: "conv5"
  top: "pool5"
  pooling_param {
    pool: MAX
    kernel_size: 3
    stride: 2
  }
}
layer {
  name: "fc6"
  type: "InnerProduct"
  bottom: "pool5"
  top: "fc6"
  param {
    lr_mult: 1
    decay_mult: 1
  }
  param {
    lr_mult: 2
    decay_mult: 0
  }
  inner_product_param {
    num_output: 4096
    weight_filler {
      type: "gaussian"
      std: 0.005
    }
    bias_filler {
      type: "constant"
      value: 0.1
    }
  }
}
layer {
  name: "relu6"
  type: "ReLU"
  bottom: "fc6"
  top: "fc6"
}
layer {
  name: "drop6"
  type: "Dropout"
  bottom: "fc6"
  top: "fc6"
  dropout_param {
    dropout_ratio: 0.5
  }
}
layer {
  name: "fc7"
  type: "InnerProduct"
  bottom: "fc6"
  top: "fc7"
  param {
    lr_mult: 1
    decay_mult: 1
  }
  param {
    lr_mult: 2
    decay_mult: 0
  }
  inner_product_param {
    num_output: 4096
    weight_filler {
      type: "gaussian"
      std: 0.005
    }
    bias_filler {
      type: "constant"
      value: 0.1
    }
  }
}
layer {
  name: "relu7"
  type: "ReLU"
  bottom: "fc7"
  top: "fc7"
}
layer {
  name: "drop7"
  type: "Dropout"
  bottom: "fc7"
  top: "fc7"
  dropout_param {
    dropout_ratio: 0.5
  }
}
layer {
  name: "fc8_plantvillage"
  type: "InnerProduct"
  bottom: "fc7"
  top: "fc8_plantvillage"
  param {
    lr_mult: 1
    decay_mult: 1
  }
  param {
    lr_mult: 2
    decay_mult: 0
  }
  inner_product_param {
    num_output: 38
    weight_filler {
      type: "gaussian"
      std: 0.01
    }
    bias_filler {
      type: "constant"
      value: 0
    }
  }
}
layer {
  name: "prob"
  type: "Softmax"
  bottom: "fc8_plantvillage"
  top: "prob"
  include {
    phase: TEST
  }
}
layer {
  name: "hdf5out"
  type: "HDF5Output"
  bottom: "prob"
  bottom: "label"
  include {
    phase: TEST
  }
  hdf5_output_param {
    file_name: "hdf5_dumps/iter_7504.h5"
  }
}
layer {
  name: "loss"
  type: "SoftmaxWithLoss"
  bottom: "fc8_plantvillage"
  bottom: "label"
  top: "loss"
}
layer {
  name: "accuracy"
  type: "Accuracy"
  bottom: "fc8_plantvillage"
  bottom: "label"
  top: "accuracy"
  include {
    phase: TEST
  }
}
I0403 13:05:49.401124 10183 layer_factory.hpp:77] Creating layer data
I0403 13:05:49.401777 10183 net.cpp:91] Creating Layer data
I0403 13:05:49.401809 10183 net.cpp:399] data -> data
I0403 13:05:49.401860 10183 net.cpp:399] data -> label
I0403 13:05:49.401897 10183 data_transformer.cpp:25] Loading mean file from: /home/mohanty/data/final_dataset/lmdb/segmented-50-50/mean.binaryproto
I0403 13:05:49.404772 10189 db_lmdb.cpp:38] Opened lmdb /home/mohanty/data/final_dataset/lmdb/segmented-50-50/test_db
I0403 13:05:49.416127 10183 data_layer.cpp:41] output data size: 100,3,227,227
I0403 13:05:49.534773 10183 net.cpp:141] Setting up data
I0403 13:05:49.534844 10183 net.cpp:148] Top shape: 100 3 227 227 (15458700)
I0403 13:05:49.534868 10183 net.cpp:148] Top shape: 100 (100)
I0403 13:05:49.534883 10183 net.cpp:156] Memory required for data: 61835200
I0403 13:05:49.534911 10183 layer_factory.hpp:77] Creating layer label_data_1_split
I0403 13:05:49.534937 10183 net.cpp:91] Creating Layer label_data_1_split
I0403 13:05:49.534955 10183 net.cpp:425] label_data_1_split <- label
I0403 13:05:49.534987 10183 net.cpp:399] label_data_1_split -> label_data_1_split_0
I0403 13:05:49.535014 10183 net.cpp:399] label_data_1_split -> label_data_1_split_1
I0403 13:05:49.535035 10183 net.cpp:399] label_data_1_split -> label_data_1_split_2
I0403 13:05:49.535099 10183 net.cpp:141] Setting up label_data_1_split
I0403 13:05:49.535122 10183 net.cpp:148] Top shape: 100 (100)
I0403 13:05:49.535138 10183 net.cpp:148] Top shape: 100 (100)
I0403 13:05:49.535154 10183 net.cpp:148] Top shape: 100 (100)
I0403 13:05:49.535168 10183 net.cpp:156] Memory required for data: 61836400
I0403 13:05:49.535183 10183 layer_factory.hpp:77] Creating layer conv1
I0403 13:05:49.535214 10183 net.cpp:91] Creating Layer conv1
I0403 13:05:49.535233 10183 net.cpp:425] conv1 <- data
I0403 13:05:49.535253 10183 net.cpp:399] conv1 -> conv1
I0403 13:05:49.678299 10183 net.cpp:141] Setting up conv1
I0403 13:05:49.678376 10183 net.cpp:148] Top shape: 100 96 55 55 (29040000)
I0403 13:05:49.678395 10183 net.cpp:156] Memory required for data: 177996400
I0403 13:05:49.678426 10183 layer_factory.hpp:77] Creating layer relu1
I0403 13:05:49.678453 10183 net.cpp:91] Creating Layer relu1
I0403 13:05:49.678472 10183 net.cpp:425] relu1 <- conv1
I0403 13:05:49.678490 10183 net.cpp:386] relu1 -> conv1 (in-place)
I0403 13:05:49.678764 10183 net.cpp:141] Setting up relu1
I0403 13:05:49.678792 10183 net.cpp:148] Top shape: 100 96 55 55 (29040000)
I0403 13:05:49.678841 10183 net.cpp:156] Memory required for data: 294156400
I0403 13:05:49.678858 10183 layer_factory.hpp:77] Creating layer norm1
I0403 13:05:49.678885 10183 net.cpp:91] Creating Layer norm1
I0403 13:05:49.678905 10183 net.cpp:425] norm1 <- conv1
I0403 13:05:49.678922 10183 net.cpp:399] norm1 -> norm1
I0403 13:05:49.679237 10183 net.cpp:141] Setting up norm1
I0403 13:05:49.679266 10183 net.cpp:148] Top shape: 100 96 55 55 (29040000)
I0403 13:05:49.679282 10183 net.cpp:156] Memory required for data: 410316400
I0403 13:05:49.679298 10183 layer_factory.hpp:77] Creating layer pool1
I0403 13:05:49.679322 10183 net.cpp:91] Creating Layer pool1
I0403 13:05:49.679339 10183 net.cpp:425] pool1 <- norm1
I0403 13:05:49.679358 10183 net.cpp:399] pool1 -> pool1
I0403 13:05:49.679425 10183 net.cpp:141] Setting up pool1
I0403 13:05:49.679450 10183 net.cpp:148] Top shape: 100 96 27 27 (6998400)
I0403 13:05:49.679464 10183 net.cpp:156] Memory required for data: 438310000
I0403 13:05:49.679509 10183 layer_factory.hpp:77] Creating layer conv2
I0403 13:05:49.679535 10183 net.cpp:91] Creating Layer conv2
I0403 13:05:49.679551 10183 net.cpp:425] conv2 <- pool1
I0403 13:05:49.679574 10183 net.cpp:399] conv2 -> conv2
I0403 13:05:49.695068 10183 net.cpp:141] Setting up conv2
I0403 13:05:49.695104 10183 net.cpp:148] Top shape: 100 256 27 27 (18662400)
I0403 13:05:49.695121 10183 net.cpp:156] Memory required for data: 512959600
I0403 13:05:49.695142 10183 layer_factory.hpp:77] Creating layer relu2
I0403 13:05:49.695163 10183 net.cpp:91] Creating Layer relu2
I0403 13:05:49.695179 10183 net.cpp:425] relu2 <- conv2
I0403 13:05:49.695196 10183 net.cpp:386] relu2 -> conv2 (in-place)
I0403 13:05:49.695464 10183 net.cpp:141] Setting up relu2
I0403 13:05:49.695492 10183 net.cpp:148] Top shape: 100 256 27 27 (18662400)
I0403 13:05:49.695507 10183 net.cpp:156] Memory required for data: 587609200
I0403 13:05:49.695521 10183 layer_factory.hpp:77] Creating layer norm2
I0403 13:05:49.695543 10183 net.cpp:91] Creating Layer norm2
I0403 13:05:49.695559 10183 net.cpp:425] norm2 <- conv2
I0403 13:05:49.695582 10183 net.cpp:399] norm2 -> norm2
I0403 13:05:49.695766 10183 net.cpp:141] Setting up norm2
I0403 13:05:49.695792 10183 net.cpp:148] Top shape: 100 256 27 27 (18662400)
I0403 13:05:49.695807 10183 net.cpp:156] Memory required for data: 662258800
I0403 13:05:49.695822 10183 layer_factory.hpp:77] Creating layer pool2
I0403 13:05:49.695842 10183 net.cpp:91] Creating Layer pool2
I0403 13:05:49.695857 10183 net.cpp:425] pool2 <- norm2
I0403 13:05:49.695874 10183 net.cpp:399] pool2 -> pool2
I0403 13:05:49.695924 10183 net.cpp:141] Setting up pool2
I0403 13:05:49.695946 10183 net.cpp:148] Top shape: 100 256 13 13 (4326400)
I0403 13:05:49.695961 10183 net.cpp:156] Memory required for data: 679564400
I0403 13:05:49.695976 10183 layer_factory.hpp:77] Creating layer conv3
I0403 13:05:49.695996 10183 net.cpp:91] Creating Layer conv3
I0403 13:05:49.696012 10183 net.cpp:425] conv3 <- pool2
I0403 13:05:49.696030 10183 net.cpp:399] conv3 -> conv3
I0403 13:05:49.735872 10183 net.cpp:141] Setting up conv3
I0403 13:05:49.736007 10183 net.cpp:148] Top shape: 100 384 13 13 (6489600)
I0403 13:05:49.736026 10183 net.cpp:156] Memory required for data: 705522800
I0403 13:05:49.736052 10183 layer_factory.hpp:77] Creating layer relu3
I0403 13:05:49.736075 10183 net.cpp:91] Creating Layer relu3
I0403 13:05:49.736093 10183 net.cpp:425] relu3 <- conv3
I0403 13:05:49.736114 10183 net.cpp:386] relu3 -> conv3 (in-place)
I0403 13:05:49.736400 10183 net.cpp:141] Setting up relu3
I0403 13:05:49.736428 10183 net.cpp:148] Top shape: 100 384 13 13 (6489600)
I0403 13:05:49.736444 10183 net.cpp:156] Memory required for data: 731481200
I0403 13:05:49.736459 10183 layer_factory.hpp:77] Creating layer conv4
I0403 13:05:49.736485 10183 net.cpp:91] Creating Layer conv4
I0403 13:05:49.736501 10183 net.cpp:425] conv4 <- conv3
I0403 13:05:49.736521 10183 net.cpp:399] conv4 -> conv4
I0403 13:05:49.767551 10183 net.cpp:141] Setting up conv4
I0403 13:05:49.767627 10183 net.cpp:148] Top shape: 100 384 13 13 (6489600)
I0403 13:05:49.767679 10183 net.cpp:156] Memory required for data: 757439600
I0403 13:05:49.767704 10183 layer_factory.hpp:77] Creating layer relu4
I0403 13:05:49.767726 10183 net.cpp:91] Creating Layer relu4
I0403 13:05:49.767745 10183 net.cpp:425] relu4 <- conv4
I0403 13:05:49.767766 10183 net.cpp:386] relu4 -> conv4 (in-place)
I0403 13:05:49.768057 10183 net.cpp:141] Setting up relu4
I0403 13:05:49.768085 10183 net.cpp:148] Top shape: 100 384 13 13 (6489600)
I0403 13:05:49.768101 10183 net.cpp:156] Memory required for data: 783398000
I0403 13:05:49.768117 10183 layer_factory.hpp:77] Creating layer conv5
I0403 13:05:49.768144 10183 net.cpp:91] Creating Layer conv5
I0403 13:05:49.768163 10183 net.cpp:425] conv5 <- conv4
I0403 13:05:49.768184 10183 net.cpp:399] conv5 -> conv5
I0403 13:05:49.789801 10183 net.cpp:141] Setting up conv5
I0403 13:05:49.789858 10183 net.cpp:148] Top shape: 100 256 13 13 (4326400)
I0403 13:05:49.789875 10183 net.cpp:156] Memory required for data: 800703600
I0403 13:05:49.789901 10183 layer_factory.hpp:77] Creating layer relu5
I0403 13:05:49.789922 10183 net.cpp:91] Creating Layer relu5
I0403 13:05:49.789938 10183 net.cpp:425] relu5 <- conv5
I0403 13:05:49.789959 10183 net.cpp:386] relu5 -> conv5 (in-place)
I0403 13:05:49.790249 10183 net.cpp:141] Setting up relu5
I0403 13:05:49.790278 10183 net.cpp:148] Top shape: 100 256 13 13 (4326400)
I0403 13:05:49.790294 10183 net.cpp:156] Memory required for data: 818009200
I0403 13:05:49.790309 10183 layer_factory.hpp:77] Creating layer pool5
I0403 13:05:49.790334 10183 net.cpp:91] Creating Layer pool5
I0403 13:05:49.790352 10183 net.cpp:425] pool5 <- conv5
I0403 13:05:49.790370 10183 net.cpp:399] pool5 -> pool5
I0403 13:05:49.790432 10183 net.cpp:141] Setting up pool5
I0403 13:05:49.790457 10183 net.cpp:148] Top shape: 100 256 6 6 (921600)
I0403 13:05:49.790472 10183 net.cpp:156] Memory required for data: 821695600
I0403 13:05:49.790487 10183 layer_factory.hpp:77] Creating layer fc6
I0403 13:05:49.790516 10183 net.cpp:91] Creating Layer fc6
I0403 13:05:49.790535 10183 net.cpp:425] fc6 <- pool5
I0403 13:05:49.790555 10183 net.cpp:399] fc6 -> fc6
I0403 13:05:51.341389 10183 net.cpp:141] Setting up fc6
I0403 13:05:51.341439 10183 net.cpp:148] Top shape: 100 4096 (409600)
I0403 13:05:51.341455 10183 net.cpp:156] Memory required for data: 823334000
I0403 13:05:51.341475 10183 layer_factory.hpp:77] Creating layer relu6
I0403 13:05:51.341496 10183 net.cpp:91] Creating Layer relu6
I0403 13:05:51.341512 10183 net.cpp:425] relu6 <- fc6
I0403 13:05:51.341533 10183 net.cpp:386] relu6 -> fc6 (in-place)
I0403 13:05:51.341753 10183 net.cpp:141] Setting up relu6
I0403 13:05:51.341776 10183 net.cpp:148] Top shape: 100 4096 (409600)
I0403 13:05:51.341790 10183 net.cpp:156] Memory required for data: 824972400
I0403 13:05:51.341804 10183 layer_factory.hpp:77] Creating layer drop6
I0403 13:05:51.341821 10183 net.cpp:91] Creating Layer drop6
I0403 13:05:51.341835 10183 net.cpp:425] drop6 <- fc6
I0403 13:05:51.341853 10183 net.cpp:386] drop6 -> fc6 (in-place)
I0403 13:05:51.341903 10183 net.cpp:141] Setting up drop6
I0403 13:05:51.341928 10183 net.cpp:148] Top shape: 100 4096 (409600)
I0403 13:05:51.341941 10183 net.cpp:156] Memory required for data: 826610800
I0403 13:05:51.341955 10183 layer_factory.hpp:77] Creating layer fc7
I0403 13:05:51.341974 10183 net.cpp:91] Creating Layer fc7
I0403 13:05:51.341987 10183 net.cpp:425] fc7 <- fc6
I0403 13:05:51.342006 10183 net.cpp:399] fc7 -> fc7
I0403 13:05:52.023475 10183 net.cpp:141] Setting up fc7
I0403 13:05:52.023516 10183 net.cpp:148] Top shape: 100 4096 (409600)
I0403 13:05:52.023533 10183 net.cpp:156] Memory required for data: 828249200
I0403 13:05:52.023553 10183 layer_factory.hpp:77] Creating layer relu7
I0403 13:05:52.023578 10183 net.cpp:91] Creating Layer relu7
I0403 13:05:52.023599 10183 net.cpp:425] relu7 <- fc7
I0403 13:05:52.023617 10183 net.cpp:386] relu7 -> fc7 (in-place)
I0403 13:05:52.024022 10183 net.cpp:141] Setting up relu7
I0403 13:05:52.024049 10183 net.cpp:148] Top shape: 100 4096 (409600)
I0403 13:05:52.024116 10183 net.cpp:156] Memory required for data: 829887600
I0403 13:05:52.024132 10183 layer_factory.hpp:77] Creating layer drop7
I0403 13:05:52.024149 10183 net.cpp:91] Creating Layer drop7
I0403 13:05:52.024164 10183 net.cpp:425] drop7 <- fc7
I0403 13:05:52.024183 10183 net.cpp:386] drop7 -> fc7 (in-place)
I0403 13:05:52.024226 10183 net.cpp:141] Setting up drop7
I0403 13:05:52.024250 10183 net.cpp:148] Top shape: 100 4096 (409600)
I0403 13:05:52.024266 10183 net.cpp:156] Memory required for data: 831526000
I0403 13:05:52.024281 10183 layer_factory.hpp:77] Creating layer fc8_plantvillage
I0403 13:05:52.024299 10183 net.cpp:91] Creating Layer fc8_plantvillage
I0403 13:05:52.024313 10183 net.cpp:425] fc8_plantvillage <- fc7
I0403 13:05:52.024333 10183 net.cpp:399] fc8_plantvillage -> fc8_plantvillage
I0403 13:05:52.031014 10183 net.cpp:141] Setting up fc8_plantvillage
I0403 13:05:52.031044 10183 net.cpp:148] Top shape: 100 38 (3800)
I0403 13:05:52.031059 10183 net.cpp:156] Memory required for data: 831541200
I0403 13:05:52.031077 10183 layer_factory.hpp:77] Creating layer fc8_plantvillage_fc8_plantvillage_0_split
I0403 13:05:52.031095 10183 net.cpp:91] Creating Layer fc8_plantvillage_fc8_plantvillage_0_split
I0403 13:05:52.031111 10183 net.cpp:425] fc8_plantvillage_fc8_plantvillage_0_split <- fc8_plantvillage
I0403 13:05:52.031128 10183 net.cpp:399] fc8_plantvillage_fc8_plantvillage_0_split -> fc8_plantvillage_fc8_plantvillage_0_split_0
I0403 13:05:52.031148 10183 net.cpp:399] fc8_plantvillage_fc8_plantvillage_0_split -> fc8_plantvillage_fc8_plantvillage_0_split_1
I0403 13:05:52.031167 10183 net.cpp:399] fc8_plantvillage_fc8_plantvillage_0_split -> fc8_plantvillage_fc8_plantvillage_0_split_2
I0403 13:05:52.031255 10183 net.cpp:141] Setting up fc8_plantvillage_fc8_plantvillage_0_split
I0403 13:05:52.031278 10183 net.cpp:148] Top shape: 100 38 (3800)
I0403 13:05:52.031294 10183 net.cpp:148] Top shape: 100 38 (3800)
I0403 13:05:52.031308 10183 net.cpp:148] Top shape: 100 38 (3800)
I0403 13:05:52.031322 10183 net.cpp:156] Memory required for data: 831586800
I0403 13:05:52.031335 10183 layer_factory.hpp:77] Creating layer prob
I0403 13:05:52.031352 10183 net.cpp:91] Creating Layer prob
I0403 13:05:52.031368 10183 net.cpp:425] prob <- fc8_plantvillage_fc8_plantvillage_0_split_0
I0403 13:05:52.031385 10183 net.cpp:399] prob -> prob
I0403 13:05:52.031618 10183 net.cpp:141] Setting up prob
I0403 13:05:52.031642 10183 net.cpp:148] Top shape: 100 38 (3800)
I0403 13:05:52.031656 10183 net.cpp:156] Memory required for data: 831602000
I0403 13:05:52.031671 10183 layer_factory.hpp:77] Creating layer hdf5out
I0403 13:05:52.031688 10183 net.cpp:91] Creating Layer hdf5out
I0403 13:05:52.031708 10183 net.cpp:425] hdf5out <- prob
I0403 13:05:52.031723 10183 net.cpp:425] hdf5out <- label_data_1_split_0
I0403 13:05:52.034236 10183 net.cpp:141] Setting up hdf5out
…
