…
I0403 12:50:38.621978  9747 net.cpp:313] The NetState phase (1) differed from the phase (0) specified by a rule in layer data
I0403 12:50:38.622295  9747 net.cpp:49] Initializing net from parameters: 
state {
  phase: TEST
}
layer {
  name: "data"
  type: "Data"
  top: "data"
  top: "label"
  include {
    phase: TEST
  }
  transform_param {
    crop_size: 227
    mean_file: "/home/mohanty/data/final_dataset/lmdb/segmented-50-50/mean.binaryproto"
  }
  data_param {
    source: "/home/mohanty/data/final_dataset/lmdb/segmented-50-50/test_db"
    batch_size: 100
    backend: LMDB
  }
}
layer {
  name: "conv1"
  type: "Convolution"
  bottom: "data"
  top: "conv1"
  param {
    lr_mult: 1
    decay_mult: 1
  }
  param {
    lr_mult: 2
    decay_mult: 0
  }
  convolution_param {
    num_output: 96
    kernel_size: 11
    stride: 4
    weight_filler {
      type: "gaussian"
      std: 0.01
    }
    bias_filler {
      type: "constant"
      value: 0
    }
  }
}
layer {
  name: "relu1"
  type: "ReLU"
  bottom: "conv1"
  top: "conv1"
}
layer {
  name: "norm1"
  type: "LRN"
  bottom: "conv1"
  top: "norm1"
  lrn_param {
    local_size: 5
    alpha: 0.0001
    beta: 0.75
  }
}
layer {
  name: "pool1"
  type: "Pooling"
  bottom: "norm1"
  top: "pool1"
  pooling_param {
    pool: MAX
    kernel_size: 3
    stride: 2
  }
}
layer {
  name: "conv2"
  type: "Convolution"
  bottom: "pool1"
  top: "conv2"
  param {
    lr_mult: 1
    decay_mult: 1
  }
  param {
    lr_mult: 2
    decay_mult: 0
  }
  convolution_param {
    num_output: 256
    pad: 2
    kernel_size: 5
    group: 2
    weight_filler {
      type: "gaussian"
      std: 0.01
    }
    bias_filler {
      type: "constant"
      value: 0.1
    }
  }
}
layer {
  name: "relu2"
  type: "ReLU"
  bottom: "conv2"
  top: "conv2"
}
layer {
  name: "norm2"
  type: "LRN"
  bottom: "conv2"
  top: "norm2"
  lrn_param {
    local_size: 5
    alpha: 0.0001
    beta: 0.75
  }
}
layer {
  name: "pool2"
  type: "Pooling"
  bottom: "norm2"
  top: "pool2"
  pooling_param {
    pool: MAX
    kernel_size: 3
    stride: 2
  }
}
layer {
  name: "conv3"
  type: "Convolution"
  bottom: "pool2"
  top: "conv3"
  param {
    lr_mult: 1
    decay_mult: 1
  }
  param {
    lr_mult: 2
    decay_mult: 0
  }
  convolution_param {
    num_output: 384
    pad: 1
    kernel_size: 3
    weight_filler {
      type: "gaussian"
      std: 0.01
    }
    bias_filler {
      type: "constant"
      value: 0
    }
  }
}
layer {
  name: "relu3"
  type: "ReLU"
  bottom: "conv3"
  top: "conv3"
}
layer {
  name: "conv4"
  type: "Convolution"
  bottom: "conv3"
  top: "conv4"
  param {
    lr_mult: 1
    decay_mult: 1
  }
  param {
    lr_mult: 2
    decay_mult: 0
  }
  convolution_param {
    num_output: 384
    pad: 1
    kernel_size: 3
    group: 2
    weight_filler {
      type: "gaussian"
      std: 0.01
    }
    bias_filler {
      type: "constant"
      value: 0.1
    }
  }
}
layer {
  name: "relu4"
  type: "ReLU"
  bottom: "conv4"
  top: "conv4"
}
layer {
  name: "conv5"
  type: "Convolution"
  bottom: "conv4"
  top: "conv5"
  param {
    lr_mult: 1
    decay_mult: 1
  }
  param {
    lr_mult: 2
    decay_mult: 0
  }
  convolution_param {
    num_output: 256
    pad: 1
    kernel_size: 3
    group: 2
    weight_filler {
      type: "gaussian"
      std: 0.01
    }
    bias_filler {
      type: "constant"
      value: 0.1
    }
  }
}
layer {
  name: "relu5"
  type: "ReLU"
  bottom: "conv5"
  top: "conv5"
}
layer {
  name: "pool5"
  type: "Pooling"
  bottom: "conv5"
  top: "pool5"
  pooling_param {
    pool: MAX
    kernel_size: 3
    stride: 2
  }
}
layer {
  name: "fc6"
  type: "InnerProduct"
  bottom: "pool5"
  top: "fc6"
  param {
    lr_mult: 1
    decay_mult: 1
  }
  param {
    lr_mult: 2
    decay_mult: 0
  }
  inner_product_param {
    num_output: 4096
    weight_filler {
      type: "gaussian"
      std: 0.005
    }
    bias_filler {
      type: "constant"
      value: 0.1
    }
  }
}
layer {
  name: "relu6"
  type: "ReLU"
  bottom: "fc6"
  top: "fc6"
}
layer {
  name: "drop6"
  type: "Dropout"
  bottom: "fc6"
  top: "fc6"
  dropout_param {
    dropout_ratio: 0.5
  }
}
layer {
  name: "fc7"
  type: "InnerProduct"
  bottom: "fc6"
  top: "fc7"
  param {
    lr_mult: 1
    decay_mult: 1
  }
  param {
    lr_mult: 2
    decay_mult: 0
  }
  inner_product_param {
    num_output: 4096
    weight_filler {
      type: "gaussian"
      std: 0.005
    }
    bias_filler {
      type: "constant"
      value: 0.1
    }
  }
}
layer {
  name: "relu7"
  type: "ReLU"
  bottom: "fc7"
  top: "fc7"
}
layer {
  name: "drop7"
  type: "Dropout"
  bottom: "fc7"
  top: "fc7"
  dropout_param {
    dropout_ratio: 0.5
  }
}
layer {
  name: "fc8_plantvillage"
  type: "InnerProduct"
  bottom: "fc7"
  top: "fc8_plantvillage"
  param {
    lr_mult: 1
    decay_mult: 1
  }
  param {
    lr_mult: 2
    decay_mult: 0
  }
  inner_product_param {
    num_output: 38
    weight_filler {
      type: "gaussian"
      std: 0.01
    }
    bias_filler {
      type: "constant"
      value: 0
    }
  }
}
layer {
  name: "prob"
  type: "Softmax"
  bottom: "fc8_plantvillage"
  top: "prob"
  include {
    phase: TEST
  }
}
layer {
  name: "hdf5out"
  type: "HDF5Output"
  bottom: "prob"
  bottom: "label"
  include {
    phase: TEST
  }
  hdf5_output_param {
    file_name: "hdf5_dumps/iter_2680.h5"
  }
}
layer {
  name: "loss"
  type: "SoftmaxWithLoss"
  bottom: "fc8_plantvillage"
  bottom: "label"
  top: "loss"
}
layer {
  name: "accuracy"
  type: "Accuracy"
  bottom: "fc8_plantvillage"
  bottom: "label"
  top: "accuracy"
  include {
    phase: TEST
  }
}
I0403 12:50:38.622887  9747 layer_factory.hpp:77] Creating layer data
I0403 12:50:38.623548  9747 net.cpp:91] Creating Layer data
I0403 12:50:38.623585  9747 net.cpp:399] data -> data
I0403 12:50:38.623644  9747 net.cpp:399] data -> label
I0403 12:50:38.623685  9747 data_transformer.cpp:25] Loading mean file from: /home/mohanty/data/final_dataset/lmdb/segmented-50-50/mean.binaryproto
I0403 12:50:38.626390  9750 db_lmdb.cpp:38] Opened lmdb /home/mohanty/data/final_dataset/lmdb/segmented-50-50/test_db
I0403 12:50:38.638190  9747 data_layer.cpp:41] output data size: 100,3,227,227
I0403 12:50:38.758404  9747 net.cpp:141] Setting up data
I0403 12:50:38.758494  9747 net.cpp:148] Top shape: 100 3 227 227 (15458700)
I0403 12:50:38.758528  9747 net.cpp:148] Top shape: 100 (100)
I0403 12:50:38.758543  9747 net.cpp:156] Memory required for data: 61835200
I0403 12:50:38.758570  9747 layer_factory.hpp:77] Creating layer label_data_1_split
I0403 12:50:38.758594  9747 net.cpp:91] Creating Layer label_data_1_split
I0403 12:50:38.758617  9747 net.cpp:425] label_data_1_split <- label
I0403 12:50:38.758649  9747 net.cpp:399] label_data_1_split -> label_data_1_split_0
I0403 12:50:38.758676  9747 net.cpp:399] label_data_1_split -> label_data_1_split_1
I0403 12:50:38.758694  9747 net.cpp:399] label_data_1_split -> label_data_1_split_2
I0403 12:50:38.758756  9747 net.cpp:141] Setting up label_data_1_split
I0403 12:50:38.758780  9747 net.cpp:148] Top shape: 100 (100)
I0403 12:50:38.758795  9747 net.cpp:148] Top shape: 100 (100)
I0403 12:50:38.758810  9747 net.cpp:148] Top shape: 100 (100)
I0403 12:50:38.758823  9747 net.cpp:156] Memory required for data: 61836400
I0403 12:50:38.758836  9747 layer_factory.hpp:77] Creating layer conv1
I0403 12:50:38.758867  9747 net.cpp:91] Creating Layer conv1
I0403 12:50:38.758884  9747 net.cpp:425] conv1 <- data
I0403 12:50:38.758903  9747 net.cpp:399] conv1 -> conv1
I0403 12:50:38.899535  9747 net.cpp:141] Setting up conv1
I0403 12:50:38.899652  9747 net.cpp:148] Top shape: 100 96 55 55 (29040000)
I0403 12:50:38.899672  9747 net.cpp:156] Memory required for data: 177996400
I0403 12:50:38.899703  9747 layer_factory.hpp:77] Creating layer relu1
I0403 12:50:38.899730  9747 net.cpp:91] Creating Layer relu1
I0403 12:50:38.899749  9747 net.cpp:425] relu1 <- conv1
I0403 12:50:38.899766  9747 net.cpp:386] relu1 -> conv1 (in-place)
I0403 12:50:38.900027  9747 net.cpp:141] Setting up relu1
I0403 12:50:38.900060  9747 net.cpp:148] Top shape: 100 96 55 55 (29040000)
I0403 12:50:38.900110  9747 net.cpp:156] Memory required for data: 294156400
I0403 12:50:38.900127  9747 layer_factory.hpp:77] Creating layer norm1
I0403 12:50:38.900154  9747 net.cpp:91] Creating Layer norm1
I0403 12:50:38.900171  9747 net.cpp:425] norm1 <- conv1
I0403 12:50:38.900189  9747 net.cpp:399] norm1 -> norm1
I0403 12:50:38.900501  9747 net.cpp:141] Setting up norm1
I0403 12:50:38.900528  9747 net.cpp:148] Top shape: 100 96 55 55 (29040000)
I0403 12:50:38.900544  9747 net.cpp:156] Memory required for data: 410316400
I0403 12:50:38.900559  9747 layer_factory.hpp:77] Creating layer pool1
I0403 12:50:38.900583  9747 net.cpp:91] Creating Layer pool1
I0403 12:50:38.900604  9747 net.cpp:425] pool1 <- norm1
I0403 12:50:38.900624  9747 net.cpp:399] pool1 -> pool1
I0403 12:50:38.900702  9747 net.cpp:141] Setting up pool1
I0403 12:50:38.900727  9747 net.cpp:148] Top shape: 100 96 27 27 (6998400)
I0403 12:50:38.900740  9747 net.cpp:156] Memory required for data: 438310000
I0403 12:50:38.900754  9747 layer_factory.hpp:77] Creating layer conv2
I0403 12:50:38.900779  9747 net.cpp:91] Creating Layer conv2
I0403 12:50:38.900794  9747 net.cpp:425] conv2 <- pool1
I0403 12:50:38.900811  9747 net.cpp:399] conv2 -> conv2
I0403 12:50:38.916100  9747 net.cpp:141] Setting up conv2
I0403 12:50:38.916153  9747 net.cpp:148] Top shape: 100 256 27 27 (18662400)
I0403 12:50:38.916170  9747 net.cpp:156] Memory required for data: 512959600
I0403 12:50:38.916193  9747 layer_factory.hpp:77] Creating layer relu2
I0403 12:50:38.916218  9747 net.cpp:91] Creating Layer relu2
I0403 12:50:38.916236  9747 net.cpp:425] relu2 <- conv2
I0403 12:50:38.916255  9747 net.cpp:386] relu2 -> conv2 (in-place)
I0403 12:50:38.916538  9747 net.cpp:141] Setting up relu2
I0403 12:50:38.916566  9747 net.cpp:148] Top shape: 100 256 27 27 (18662400)
I0403 12:50:38.916581  9747 net.cpp:156] Memory required for data: 587609200
I0403 12:50:38.916596  9747 layer_factory.hpp:77] Creating layer norm2
I0403 12:50:38.916625  9747 net.cpp:91] Creating Layer norm2
I0403 12:50:38.916645  9747 net.cpp:425] norm2 <- conv2
I0403 12:50:38.916664  9747 net.cpp:399] norm2 -> norm2
I0403 12:50:38.916880  9747 net.cpp:141] Setting up norm2
I0403 12:50:38.916908  9747 net.cpp:148] Top shape: 100 256 27 27 (18662400)
I0403 12:50:38.916923  9747 net.cpp:156] Memory required for data: 662258800
I0403 12:50:38.916939  9747 layer_factory.hpp:77] Creating layer pool2
I0403 12:50:38.916960  9747 net.cpp:91] Creating Layer pool2
I0403 12:50:38.916976  9747 net.cpp:425] pool2 <- norm2
I0403 12:50:38.916995  9747 net.cpp:399] pool2 -> pool2
I0403 12:50:38.917050  9747 net.cpp:141] Setting up pool2
I0403 12:50:38.917074  9747 net.cpp:148] Top shape: 100 256 13 13 (4326400)
I0403 12:50:38.917089  9747 net.cpp:156] Memory required for data: 679564400
I0403 12:50:38.917104  9747 layer_factory.hpp:77] Creating layer conv3
I0403 12:50:38.917129  9747 net.cpp:91] Creating Layer conv3
I0403 12:50:38.917145  9747 net.cpp:425] conv3 <- pool2
I0403 12:50:38.917166  9747 net.cpp:399] conv3 -> conv3
I0403 12:50:38.956192  9747 net.cpp:141] Setting up conv3
I0403 12:50:38.956270  9747 net.cpp:148] Top shape: 100 384 13 13 (6489600)
I0403 12:50:38.956286  9747 net.cpp:156] Memory required for data: 705522800
I0403 12:50:38.956315  9747 layer_factory.hpp:77] Creating layer relu3
I0403 12:50:38.956338  9747 net.cpp:91] Creating Layer relu3
I0403 12:50:38.956357  9747 net.cpp:425] relu3 <- conv3
I0403 12:50:38.956375  9747 net.cpp:386] relu3 -> conv3 (in-place)
I0403 12:50:38.956717  9747 net.cpp:141] Setting up relu3
I0403 12:50:38.956744  9747 net.cpp:148] Top shape: 100 384 13 13 (6489600)
I0403 12:50:38.956760  9747 net.cpp:156] Memory required for data: 731481200
I0403 12:50:38.956775  9747 layer_factory.hpp:77] Creating layer conv4
I0403 12:50:38.956800  9747 net.cpp:91] Creating Layer conv4
I0403 12:50:38.956818  9747 net.cpp:425] conv4 <- conv3
I0403 12:50:38.956847  9747 net.cpp:399] conv4 -> conv4
I0403 12:50:38.986954  9747 net.cpp:141] Setting up conv4
I0403 12:50:38.987021  9747 net.cpp:148] Top shape: 100 384 13 13 (6489600)
I0403 12:50:38.987073  9747 net.cpp:156] Memory required for data: 757439600
I0403 12:50:38.987097  9747 layer_factory.hpp:77] Creating layer relu4
I0403 12:50:38.987123  9747 net.cpp:91] Creating Layer relu4
I0403 12:50:38.987140  9747 net.cpp:425] relu4 <- conv4
I0403 12:50:38.987159  9747 net.cpp:386] relu4 -> conv4 (in-place)
I0403 12:50:38.987447  9747 net.cpp:141] Setting up relu4
I0403 12:50:38.987473  9747 net.cpp:148] Top shape: 100 384 13 13 (6489600)
I0403 12:50:38.987488  9747 net.cpp:156] Memory required for data: 783398000
I0403 12:50:38.987504  9747 layer_factory.hpp:77] Creating layer conv5
I0403 12:50:38.987529  9747 net.cpp:91] Creating Layer conv5
I0403 12:50:38.987546  9747 net.cpp:425] conv5 <- conv4
I0403 12:50:38.987567  9747 net.cpp:399] conv5 -> conv5
I0403 12:50:39.008564  9747 net.cpp:141] Setting up conv5
I0403 12:50:39.008625  9747 net.cpp:148] Top shape: 100 256 13 13 (4326400)
I0403 12:50:39.008642  9747 net.cpp:156] Memory required for data: 800703600
I0403 12:50:39.008667  9747 layer_factory.hpp:77] Creating layer relu5
I0403 12:50:39.008693  9747 net.cpp:91] Creating Layer relu5
I0403 12:50:39.008713  9747 net.cpp:425] relu5 <- conv5
I0403 12:50:39.008731  9747 net.cpp:386] relu5 -> conv5 (in-place)
I0403 12:50:39.009019  9747 net.cpp:141] Setting up relu5
I0403 12:50:39.009047  9747 net.cpp:148] Top shape: 100 256 13 13 (4326400)
I0403 12:50:39.009063  9747 net.cpp:156] Memory required for data: 818009200
I0403 12:50:39.009076  9747 layer_factory.hpp:77] Creating layer pool5
I0403 12:50:39.009102  9747 net.cpp:91] Creating Layer pool5
I0403 12:50:39.009120  9747 net.cpp:425] pool5 <- conv5
I0403 12:50:39.009140  9747 net.cpp:399] pool5 -> pool5
I0403 12:50:39.009202  9747 net.cpp:141] Setting up pool5
I0403 12:50:39.009225  9747 net.cpp:148] Top shape: 100 256 6 6 (921600)
I0403 12:50:39.009240  9747 net.cpp:156] Memory required for data: 821695600
I0403 12:50:39.009255  9747 layer_factory.hpp:77] Creating layer fc6
I0403 12:50:39.009285  9747 net.cpp:91] Creating Layer fc6
I0403 12:50:39.009304  9747 net.cpp:425] fc6 <- pool5
I0403 12:50:39.009322  9747 net.cpp:399] fc6 -> fc6
I0403 12:50:40.563848  9747 net.cpp:141] Setting up fc6
I0403 12:50:40.563911  9747 net.cpp:148] Top shape: 100 4096 (409600)
I0403 12:50:40.563928  9747 net.cpp:156] Memory required for data: 823334000
I0403 12:50:40.563949  9747 layer_factory.hpp:77] Creating layer relu6
I0403 12:50:40.563971  9747 net.cpp:91] Creating Layer relu6
I0403 12:50:40.563988  9747 net.cpp:425] relu6 <- fc6
I0403 12:50:40.564009  9747 net.cpp:386] relu6 -> fc6 (in-place)
I0403 12:50:40.564235  9747 net.cpp:141] Setting up relu6
I0403 12:50:40.564260  9747 net.cpp:148] Top shape: 100 4096 (409600)
I0403 12:50:40.564275  9747 net.cpp:156] Memory required for data: 824972400
I0403 12:50:40.564290  9747 layer_factory.hpp:77] Creating layer drop6
I0403 12:50:40.564309  9747 net.cpp:91] Creating Layer drop6
I0403 12:50:40.564326  9747 net.cpp:425] drop6 <- fc6
I0403 12:50:40.564342  9747 net.cpp:386] drop6 -> fc6 (in-place)
I0403 12:50:40.564396  9747 net.cpp:141] Setting up drop6
I0403 12:50:40.564419  9747 net.cpp:148] Top shape: 100 4096 (409600)
I0403 12:50:40.564432  9747 net.cpp:156] Memory required for data: 826610800
I0403 12:50:40.564446  9747 layer_factory.hpp:77] Creating layer fc7
I0403 12:50:40.564466  9747 net.cpp:91] Creating Layer fc7
I0403 12:50:40.564481  9747 net.cpp:425] fc7 <- fc6
I0403 12:50:40.564501  9747 net.cpp:399] fc7 -> fc7
I0403 12:50:41.246635  9747 net.cpp:141] Setting up fc7
I0403 12:50:41.246675  9747 net.cpp:148] Top shape: 100 4096 (409600)
I0403 12:50:41.246690  9747 net.cpp:156] Memory required for data: 828249200
I0403 12:50:41.246711  9747 layer_factory.hpp:77] Creating layer relu7
I0403 12:50:41.246733  9747 net.cpp:91] Creating Layer relu7
I0403 12:50:41.246750  9747 net.cpp:425] relu7 <- fc7
I0403 12:50:41.246768  9747 net.cpp:386] relu7 -> fc7 (in-place)
I0403 12:50:41.247186  9747 net.cpp:141] Setting up relu7
I0403 12:50:41.247212  9747 net.cpp:148] Top shape: 100 4096 (409600)
I0403 12:50:41.247279  9747 net.cpp:156] Memory required for data: 829887600
I0403 12:50:41.247295  9747 layer_factory.hpp:77] Creating layer drop7
I0403 12:50:41.247315  9747 net.cpp:91] Creating Layer drop7
I0403 12:50:41.247331  9747 net.cpp:425] drop7 <- fc7
I0403 12:50:41.247347  9747 net.cpp:386] drop7 -> fc7 (in-place)
I0403 12:50:41.247391  9747 net.cpp:141] Setting up drop7
I0403 12:50:41.247412  9747 net.cpp:148] Top shape: 100 4096 (409600)
I0403 12:50:41.247426  9747 net.cpp:156] Memory required for data: 831526000
I0403 12:50:41.247439  9747 layer_factory.hpp:77] Creating layer fc8_plantvillage
I0403 12:50:41.247457  9747 net.cpp:91] Creating Layer fc8_plantvillage
I0403 12:50:41.247473  9747 net.cpp:425] fc8_plantvillage <- fc7
I0403 12:50:41.247493  9747 net.cpp:399] fc8_plantvillage -> fc8_plantvillage
I0403 12:50:41.254300  9747 net.cpp:141] Setting up fc8_plantvillage
I0403 12:50:41.254330  9747 net.cpp:148] Top shape: 100 38 (3800)
I0403 12:50:41.254346  9747 net.cpp:156] Memory required for data: 831541200
I0403 12:50:41.254364  9747 layer_factory.hpp:77] Creating layer fc8_plantvillage_fc8_plantvillage_0_split
I0403 12:50:41.254385  9747 net.cpp:91] Creating Layer fc8_plantvillage_fc8_plantvillage_0_split
I0403 12:50:41.254413  9747 net.cpp:425] fc8_plantvillage_fc8_plantvillage_0_split <- fc8_plantvillage
I0403 12:50:41.254431  9747 net.cpp:399] fc8_plantvillage_fc8_plantvillage_0_split -> fc8_plantvillage_fc8_plantvillage_0_split_0
I0403 12:50:41.254449  9747 net.cpp:399] fc8_plantvillage_fc8_plantvillage_0_split -> fc8_plantvillage_fc8_plantvillage_0_split_1
I0403 12:50:41.254472  9747 net.cpp:399] fc8_plantvillage_fc8_plantvillage_0_split -> fc8_plantvillage_fc8_plantvillage_0_split_2
I0403 12:50:41.254549  9747 net.cpp:141] Setting up fc8_plantvillage_fc8_plantvillage_0_split
I0403 12:50:41.254571  9747 net.cpp:148] Top shape: 100 38 (3800)
I0403 12:50:41.254587  9747 net.cpp:148] Top shape: 100 38 (3800)
I0403 12:50:41.254612  9747 net.cpp:148] Top shape: 100 38 (3800)
I0403 12:50:41.254628  9747 net.cpp:156] Memory required for data: 831586800
I0403 12:50:41.254643  9747 layer_factory.hpp:77] Creating layer prob
I0403 12:50:41.254662  9747 net.cpp:91] Creating Layer prob
I0403 12:50:41.254676  9747 net.cpp:425] prob <- fc8_plantvillage_fc8_plantvillage_0_split_0
I0403 12:50:41.254695  9747 net.cpp:399] prob -> prob
I0403 12:50:41.254921  9747 net.cpp:141] Setting up prob
I0403 12:50:41.254946  9747 net.cpp:148] Top shape: 100 38 (3800)
I0403 12:50:41.254961  9747 net.cpp:156] Memory required for data: 831602000
I0403 12:50:41.254976  9747 layer_factory.hpp:77] Creating layer hdf5out
I0403 12:50:41.254998  9747 net.cpp:91] Creating Layer hdf5out
I0403 12:50:41.255014  9747 net.cpp:425] hdf5out <- prob
I0403 12:50:41.255028  9747 net.cpp:425] hdf5out <- label_data_1_split_0
I0403 12:50:41.257292  9747 net.cpp:141] Setting up hdf5out
…
