…
I0403 12:54:51.184911  9871 net.cpp:313] The NetState phase (1) differed from the phase (0) specified by a rule in layer data
I0403 12:54:51.185212  9871 net.cpp:49] Initializing net from parameters: 
state {
  phase: TEST
}
layer {
  name: "data"
  type: "Data"
  top: "data"
  top: "label"
  include {
    phase: TEST
  }
  transform_param {
    crop_size: 227
    mean_file: "/home/mohanty/data/final_dataset/lmdb/segmented-50-50/mean.binaryproto"
  }
  data_param {
    source: "/home/mohanty/data/final_dataset/lmdb/segmented-50-50/test_db"
    batch_size: 100
    backend: LMDB
  }
}
layer {
  name: "conv1"
  type: "Convolution"
  bottom: "data"
  top: "conv1"
  param {
    lr_mult: 1
    decay_mult: 1
  }
  param {
    lr_mult: 2
    decay_mult: 0
  }
  convolution_param {
    num_output: 96
    kernel_size: 11
    stride: 4
    weight_filler {
      type: "gaussian"
      std: 0.01
    }
    bias_filler {
      type: "constant"
      value: 0
    }
  }
}
layer {
  name: "relu1"
  type: "ReLU"
  bottom: "conv1"
  top: "conv1"
}
layer {
  name: "norm1"
  type: "LRN"
  bottom: "conv1"
  top: "norm1"
  lrn_param {
    local_size: 5
    alpha: 0.0001
    beta: 0.75
  }
}
layer {
  name: "pool1"
  type: "Pooling"
  bottom: "norm1"
  top: "pool1"
  pooling_param {
    pool: MAX
    kernel_size: 3
    stride: 2
  }
}
layer {
  name: "conv2"
  type: "Convolution"
  bottom: "pool1"
  top: "conv2"
  param {
    lr_mult: 1
    decay_mult: 1
  }
  param {
    lr_mult: 2
    decay_mult: 0
  }
  convolution_param {
    num_output: 256
    pad: 2
    kernel_size: 5
    group: 2
    weight_filler {
      type: "gaussian"
      std: 0.01
    }
    bias_filler {
      type: "constant"
      value: 0.1
    }
  }
}
layer {
  name: "relu2"
  type: "ReLU"
  bottom: "conv2"
  top: "conv2"
}
layer {
  name: "norm2"
  type: "LRN"
  bottom: "conv2"
  top: "norm2"
  lrn_param {
    local_size: 5
    alpha: 0.0001
    beta: 0.75
  }
}
layer {
  name: "pool2"
  type: "Pooling"
  bottom: "norm2"
  top: "pool2"
  pooling_param {
    pool: MAX
    kernel_size: 3
    stride: 2
  }
}
layer {
  name: "conv3"
  type: "Convolution"
  bottom: "pool2"
  top: "conv3"
  param {
    lr_mult: 1
    decay_mult: 1
  }
  param {
    lr_mult: 2
    decay_mult: 0
  }
  convolution_param {
    num_output: 384
    pad: 1
    kernel_size: 3
    weight_filler {
      type: "gaussian"
      std: 0.01
    }
    bias_filler {
      type: "constant"
      value: 0
    }
  }
}
layer {
  name: "relu3"
  type: "ReLU"
  bottom: "conv3"
  top: "conv3"
}
layer {
  name: "conv4"
  type: "Convolution"
  bottom: "conv3"
  top: "conv4"
  param {
    lr_mult: 1
    decay_mult: 1
  }
  param {
    lr_mult: 2
    decay_mult: 0
  }
  convolution_param {
    num_output: 384
    pad: 1
    kernel_size: 3
    group: 2
    weight_filler {
      type: "gaussian"
      std: 0.01
    }
    bias_filler {
      type: "constant"
      value: 0.1
    }
  }
}
layer {
  name: "relu4"
  type: "ReLU"
  bottom: "conv4"
  top: "conv4"
}
layer {
  name: "conv5"
  type: "Convolution"
  bottom: "conv4"
  top: "conv5"
  param {
    lr_mult: 1
    decay_mult: 1
  }
  param {
    lr_mult: 2
    decay_mult: 0
  }
  convolution_param {
    num_output: 256
    pad: 1
    kernel_size: 3
    group: 2
    weight_filler {
      type: "gaussian"
      std: 0.01
    }
    bias_filler {
      type: "constant"
      value: 0.1
    }
  }
}
layer {
  name: "relu5"
  type: "ReLU"
  bottom: "conv5"
  top: "conv5"
}
layer {
  name: "pool5"
  type: "Pooling"
  bottom: "conv5"
  top: "pool5"
  pooling_param {
    pool: MAX
    kernel_size: 3
    stride: 2
  }
}
layer {
  name: "fc6"
  type: "InnerProduct"
  bottom: "pool5"
  top: "fc6"
  param {
    lr_mult: 1
    decay_mult: 1
  }
  param {
    lr_mult: 2
    decay_mult: 0
  }
  inner_product_param {
    num_output: 4096
    weight_filler {
      type: "gaussian"
      std: 0.005
    }
    bias_filler {
      type: "constant"
      value: 0.1
    }
  }
}
layer {
  name: "relu6"
  type: "ReLU"
  bottom: "fc6"
  top: "fc6"
}
layer {
  name: "drop6"
  type: "Dropout"
  bottom: "fc6"
  top: "fc6"
  dropout_param {
    dropout_ratio: 0.5
  }
}
layer {
  name: "fc7"
  type: "InnerProduct"
  bottom: "fc6"
  top: "fc7"
  param {
    lr_mult: 1
    decay_mult: 1
  }
  param {
    lr_mult: 2
    decay_mult: 0
  }
  inner_product_param {
    num_output: 4096
    weight_filler {
      type: "gaussian"
      std: 0.005
    }
    bias_filler {
      type: "constant"
      value: 0.1
    }
  }
}
layer {
  name: "relu7"
  type: "ReLU"
  bottom: "fc7"
  top: "fc7"
}
layer {
  name: "drop7"
  type: "Dropout"
  bottom: "fc7"
  top: "fc7"
  dropout_param {
    dropout_ratio: 0.5
  }
}
layer {
  name: "fc8_plantvillage"
  type: "InnerProduct"
  bottom: "fc7"
  top: "fc8_plantvillage"
  param {
    lr_mult: 1
    decay_mult: 1
  }
  param {
    lr_mult: 2
    decay_mult: 0
  }
  inner_product_param {
    num_output: 38
    weight_filler {
      type: "gaussian"
      std: 0.01
    }
    bias_filler {
      type: "constant"
      value: 0
    }
  }
}
layer {
  name: "prob"
  type: "Softmax"
  bottom: "fc8_plantvillage"
  top: "prob"
  include {
    phase: TEST
  }
}
layer {
  name: "hdf5out"
  type: "HDF5Output"
  bottom: "prob"
  bottom: "label"
  include {
    phase: TEST
  }
  hdf5_output_param {
    file_name: "hdf5_dumps/iter_4020.h5"
  }
}
layer {
  name: "loss"
  type: "SoftmaxWithLoss"
  bottom: "fc8_plantvillage"
  bottom: "label"
  top: "loss"
}
layer {
  name: "accuracy"
  type: "Accuracy"
  bottom: "fc8_plantvillage"
  bottom: "label"
  top: "accuracy"
  include {
    phase: TEST
  }
}
I0403 12:54:51.185819  9871 layer_factory.hpp:77] Creating layer data
I0403 12:54:51.186465  9871 net.cpp:91] Creating Layer data
I0403 12:54:51.186497  9871 net.cpp:399] data -> data
I0403 12:54:51.186547  9871 net.cpp:399] data -> label
I0403 12:54:51.186583  9871 data_transformer.cpp:25] Loading mean file from: /home/mohanty/data/final_dataset/lmdb/segmented-50-50/mean.binaryproto
I0403 12:54:51.189471  9874 db_lmdb.cpp:38] Opened lmdb /home/mohanty/data/final_dataset/lmdb/segmented-50-50/test_db
I0403 12:54:51.201171  9871 data_layer.cpp:41] output data size: 100,3,227,227
I0403 12:54:51.321319  9871 net.cpp:141] Setting up data
I0403 12:54:51.321377  9871 net.cpp:148] Top shape: 100 3 227 227 (15458700)
I0403 12:54:51.321400  9871 net.cpp:148] Top shape: 100 (100)
I0403 12:54:51.321414  9871 net.cpp:156] Memory required for data: 61835200
I0403 12:54:51.321444  9871 layer_factory.hpp:77] Creating layer label_data_1_split
I0403 12:54:51.321468  9871 net.cpp:91] Creating Layer label_data_1_split
I0403 12:54:51.321485  9871 net.cpp:425] label_data_1_split <- label
I0403 12:54:51.321517  9871 net.cpp:399] label_data_1_split -> label_data_1_split_0
I0403 12:54:51.321543  9871 net.cpp:399] label_data_1_split -> label_data_1_split_1
I0403 12:54:51.321564  9871 net.cpp:399] label_data_1_split -> label_data_1_split_2
I0403 12:54:51.321631  9871 net.cpp:141] Setting up label_data_1_split
I0403 12:54:51.321656  9871 net.cpp:148] Top shape: 100 (100)
I0403 12:54:51.321672  9871 net.cpp:148] Top shape: 100 (100)
I0403 12:54:51.321688  9871 net.cpp:148] Top shape: 100 (100)
I0403 12:54:51.321702  9871 net.cpp:156] Memory required for data: 61836400
I0403 12:54:51.321717  9871 layer_factory.hpp:77] Creating layer conv1
I0403 12:54:51.321750  9871 net.cpp:91] Creating Layer conv1
I0403 12:54:51.321768  9871 net.cpp:425] conv1 <- data
I0403 12:54:51.321787  9871 net.cpp:399] conv1 -> conv1
I0403 12:54:51.463654  9871 net.cpp:141] Setting up conv1
I0403 12:54:51.463733  9871 net.cpp:148] Top shape: 100 96 55 55 (29040000)
I0403 12:54:51.463752  9871 net.cpp:156] Memory required for data: 177996400
I0403 12:54:51.463783  9871 layer_factory.hpp:77] Creating layer relu1
I0403 12:54:51.463812  9871 net.cpp:91] Creating Layer relu1
I0403 12:54:51.463830  9871 net.cpp:425] relu1 <- conv1
I0403 12:54:51.463851  9871 net.cpp:386] relu1 -> conv1 (in-place)
I0403 12:54:51.464130  9871 net.cpp:141] Setting up relu1
I0403 12:54:51.464159  9871 net.cpp:148] Top shape: 100 96 55 55 (29040000)
I0403 12:54:51.464215  9871 net.cpp:156] Memory required for data: 294156400
I0403 12:54:51.464233  9871 layer_factory.hpp:77] Creating layer norm1
I0403 12:54:51.464263  9871 net.cpp:91] Creating Layer norm1
I0403 12:54:51.464283  9871 net.cpp:425] norm1 <- conv1
I0403 12:54:51.464301  9871 net.cpp:399] norm1 -> norm1
I0403 12:54:51.464684  9871 net.cpp:141] Setting up norm1
I0403 12:54:51.464712  9871 net.cpp:148] Top shape: 100 96 55 55 (29040000)
I0403 12:54:51.464728  9871 net.cpp:156] Memory required for data: 410316400
I0403 12:54:51.464745  9871 layer_factory.hpp:77] Creating layer pool1
I0403 12:54:51.464768  9871 net.cpp:91] Creating Layer pool1
I0403 12:54:51.464787  9871 net.cpp:425] pool1 <- norm1
I0403 12:54:51.464805  9871 net.cpp:399] pool1 -> pool1
I0403 12:54:51.464879  9871 net.cpp:141] Setting up pool1
I0403 12:54:51.464905  9871 net.cpp:148] Top shape: 100 96 27 27 (6998400)
I0403 12:54:51.464920  9871 net.cpp:156] Memory required for data: 438310000
I0403 12:54:51.464934  9871 layer_factory.hpp:77] Creating layer conv2
I0403 12:54:51.464962  9871 net.cpp:91] Creating Layer conv2
I0403 12:54:51.464979  9871 net.cpp:425] conv2 <- pool1
I0403 12:54:51.464999  9871 net.cpp:399] conv2 -> conv2
I0403 12:54:51.480422  9871 net.cpp:141] Setting up conv2
I0403 12:54:51.480474  9871 net.cpp:148] Top shape: 100 256 27 27 (18662400)
I0403 12:54:51.480491  9871 net.cpp:156] Memory required for data: 512959600
I0403 12:54:51.480517  9871 layer_factory.hpp:77] Creating layer relu2
I0403 12:54:51.480540  9871 net.cpp:91] Creating Layer relu2
I0403 12:54:51.480557  9871 net.cpp:425] relu2 <- conv2
I0403 12:54:51.480574  9871 net.cpp:386] relu2 -> conv2 (in-place)
I0403 12:54:51.480859  9871 net.cpp:141] Setting up relu2
I0403 12:54:51.480890  9871 net.cpp:148] Top shape: 100 256 27 27 (18662400)
I0403 12:54:51.480906  9871 net.cpp:156] Memory required for data: 587609200
I0403 12:54:51.480939  9871 layer_factory.hpp:77] Creating layer norm2
I0403 12:54:51.480965  9871 net.cpp:91] Creating Layer norm2
I0403 12:54:51.480983  9871 net.cpp:425] norm2 <- conv2
I0403 12:54:51.481005  9871 net.cpp:399] norm2 -> norm2
I0403 12:54:51.481211  9871 net.cpp:141] Setting up norm2
I0403 12:54:51.481237  9871 net.cpp:148] Top shape: 100 256 27 27 (18662400)
I0403 12:54:51.481252  9871 net.cpp:156] Memory required for data: 662258800
I0403 12:54:51.481267  9871 layer_factory.hpp:77] Creating layer pool2
I0403 12:54:51.481288  9871 net.cpp:91] Creating Layer pool2
I0403 12:54:51.481305  9871 net.cpp:425] pool2 <- norm2
I0403 12:54:51.481323  9871 net.cpp:399] pool2 -> pool2
I0403 12:54:51.481376  9871 net.cpp:141] Setting up pool2
I0403 12:54:51.481400  9871 net.cpp:148] Top shape: 100 256 13 13 (4326400)
I0403 12:54:51.481415  9871 net.cpp:156] Memory required for data: 679564400
I0403 12:54:51.481428  9871 layer_factory.hpp:77] Creating layer conv3
I0403 12:54:51.481452  9871 net.cpp:91] Creating Layer conv3
I0403 12:54:51.481470  9871 net.cpp:425] conv3 <- pool2
I0403 12:54:51.481492  9871 net.cpp:399] conv3 -> conv3
I0403 12:54:51.520288  9871 net.cpp:141] Setting up conv3
I0403 12:54:51.520352  9871 net.cpp:148] Top shape: 100 384 13 13 (6489600)
I0403 12:54:51.520370  9871 net.cpp:156] Memory required for data: 705522800
I0403 12:54:51.520395  9871 layer_factory.hpp:77] Creating layer relu3
I0403 12:54:51.520421  9871 net.cpp:91] Creating Layer relu3
I0403 12:54:51.520439  9871 net.cpp:425] relu3 <- conv3
I0403 12:54:51.520457  9871 net.cpp:386] relu3 -> conv3 (in-place)
I0403 12:54:51.520756  9871 net.cpp:141] Setting up relu3
I0403 12:54:51.520783  9871 net.cpp:148] Top shape: 100 384 13 13 (6489600)
I0403 12:54:51.520799  9871 net.cpp:156] Memory required for data: 731481200
I0403 12:54:51.520813  9871 layer_factory.hpp:77] Creating layer conv4
I0403 12:54:51.520841  9871 net.cpp:91] Creating Layer conv4
I0403 12:54:51.520860  9871 net.cpp:425] conv4 <- conv3
I0403 12:54:51.520879  9871 net.cpp:399] conv4 -> conv4
I0403 12:54:51.551014  9871 net.cpp:141] Setting up conv4
I0403 12:54:51.551097  9871 net.cpp:148] Top shape: 100 384 13 13 (6489600)
I0403 12:54:51.551151  9871 net.cpp:156] Memory required for data: 757439600
I0403 12:54:51.551172  9871 layer_factory.hpp:77] Creating layer relu4
I0403 12:54:51.551198  9871 net.cpp:91] Creating Layer relu4
I0403 12:54:51.551218  9871 net.cpp:425] relu4 <- conv4
I0403 12:54:51.551237  9871 net.cpp:386] relu4 -> conv4 (in-place)
I0403 12:54:51.551528  9871 net.cpp:141] Setting up relu4
I0403 12:54:51.551554  9871 net.cpp:148] Top shape: 100 384 13 13 (6489600)
I0403 12:54:51.551570  9871 net.cpp:156] Memory required for data: 783398000
I0403 12:54:51.551585  9871 layer_factory.hpp:77] Creating layer conv5
I0403 12:54:51.551614  9871 net.cpp:91] Creating Layer conv5
I0403 12:54:51.551633  9871 net.cpp:425] conv5 <- conv4
I0403 12:54:51.551654  9871 net.cpp:399] conv5 -> conv5
I0403 12:54:51.572500  9871 net.cpp:141] Setting up conv5
I0403 12:54:51.572559  9871 net.cpp:148] Top shape: 100 256 13 13 (4326400)
I0403 12:54:51.572576  9871 net.cpp:156] Memory required for data: 800703600
I0403 12:54:51.572608  9871 layer_factory.hpp:77] Creating layer relu5
I0403 12:54:51.572633  9871 net.cpp:91] Creating Layer relu5
I0403 12:54:51.572649  9871 net.cpp:425] relu5 <- conv5
I0403 12:54:51.572666  9871 net.cpp:386] relu5 -> conv5 (in-place)
I0403 12:54:51.572960  9871 net.cpp:141] Setting up relu5
I0403 12:54:51.572988  9871 net.cpp:148] Top shape: 100 256 13 13 (4326400)
I0403 12:54:51.573006  9871 net.cpp:156] Memory required for data: 818009200
I0403 12:54:51.573022  9871 layer_factory.hpp:77] Creating layer pool5
I0403 12:54:51.573045  9871 net.cpp:91] Creating Layer pool5
I0403 12:54:51.573061  9871 net.cpp:425] pool5 <- conv5
I0403 12:54:51.573079  9871 net.cpp:399] pool5 -> pool5
I0403 12:54:51.573142  9871 net.cpp:141] Setting up pool5
I0403 12:54:51.573164  9871 net.cpp:148] Top shape: 100 256 6 6 (921600)
I0403 12:54:51.573179  9871 net.cpp:156] Memory required for data: 821695600
I0403 12:54:51.573194  9871 layer_factory.hpp:77] Creating layer fc6
I0403 12:54:51.573279  9871 net.cpp:91] Creating Layer fc6
I0403 12:54:51.573302  9871 net.cpp:425] fc6 <- pool5
I0403 12:54:51.573323  9871 net.cpp:399] fc6 -> fc6
I0403 12:54:53.124485  9871 net.cpp:141] Setting up fc6
I0403 12:54:53.124527  9871 net.cpp:148] Top shape: 100 4096 (409600)
I0403 12:54:53.124544  9871 net.cpp:156] Memory required for data: 823334000
I0403 12:54:53.124565  9871 layer_factory.hpp:77] Creating layer relu6
I0403 12:54:53.124588  9871 net.cpp:91] Creating Layer relu6
I0403 12:54:53.124615  9871 net.cpp:425] relu6 <- fc6
I0403 12:54:53.124640  9871 net.cpp:386] relu6 -> fc6 (in-place)
I0403 12:54:53.124861  9871 net.cpp:141] Setting up relu6
I0403 12:54:53.124887  9871 net.cpp:148] Top shape: 100 4096 (409600)
I0403 12:54:53.124902  9871 net.cpp:156] Memory required for data: 824972400
I0403 12:54:53.124917  9871 layer_factory.hpp:77] Creating layer drop6
I0403 12:54:53.124938  9871 net.cpp:91] Creating Layer drop6
I0403 12:54:53.124953  9871 net.cpp:425] drop6 <- fc6
I0403 12:54:53.124969  9871 net.cpp:386] drop6 -> fc6 (in-place)
I0403 12:54:53.125023  9871 net.cpp:141] Setting up drop6
I0403 12:54:53.125046  9871 net.cpp:148] Top shape: 100 4096 (409600)
I0403 12:54:53.125061  9871 net.cpp:156] Memory required for data: 826610800
I0403 12:54:53.125074  9871 layer_factory.hpp:77] Creating layer fc7
I0403 12:54:53.125095  9871 net.cpp:91] Creating Layer fc7
I0403 12:54:53.125111  9871 net.cpp:425] fc7 <- fc6
I0403 12:54:53.125128  9871 net.cpp:399] fc7 -> fc7
I0403 12:54:53.808792  9871 net.cpp:141] Setting up fc7
I0403 12:54:53.808867  9871 net.cpp:148] Top shape: 100 4096 (409600)
I0403 12:54:53.808884  9871 net.cpp:156] Memory required for data: 828249200
I0403 12:54:53.808904  9871 layer_factory.hpp:77] Creating layer relu7
I0403 12:54:53.808929  9871 net.cpp:91] Creating Layer relu7
I0403 12:54:53.808948  9871 net.cpp:425] relu7 <- fc7
I0403 12:54:53.808966  9871 net.cpp:386] relu7 -> fc7 (in-place)
I0403 12:54:53.809381  9871 net.cpp:141] Setting up relu7
I0403 12:54:53.809407  9871 net.cpp:148] Top shape: 100 4096 (409600)
I0403 12:54:53.809456  9871 net.cpp:156] Memory required for data: 829887600
I0403 12:54:53.809473  9871 layer_factory.hpp:77] Creating layer drop7
I0403 12:54:53.809494  9871 net.cpp:91] Creating Layer drop7
I0403 12:54:53.809509  9871 net.cpp:425] drop7 <- fc7
I0403 12:54:53.809526  9871 net.cpp:386] drop7 -> fc7 (in-place)
I0403 12:54:53.809571  9871 net.cpp:141] Setting up drop7
I0403 12:54:53.809594  9871 net.cpp:148] Top shape: 100 4096 (409600)
I0403 12:54:53.809614  9871 net.cpp:156] Memory required for data: 831526000
I0403 12:54:53.809629  9871 layer_factory.hpp:77] Creating layer fc8_plantvillage
I0403 12:54:53.809648  9871 net.cpp:91] Creating Layer fc8_plantvillage
I0403 12:54:53.809664  9871 net.cpp:425] fc8_plantvillage <- fc7
I0403 12:54:53.809684  9871 net.cpp:399] fc8_plantvillage -> fc8_plantvillage
I0403 12:54:53.816400  9871 net.cpp:141] Setting up fc8_plantvillage
I0403 12:54:53.816431  9871 net.cpp:148] Top shape: 100 38 (3800)
I0403 12:54:53.816445  9871 net.cpp:156] Memory required for data: 831541200
I0403 12:54:53.816463  9871 layer_factory.hpp:77] Creating layer fc8_plantvillage_fc8_plantvillage_0_split
I0403 12:54:53.816481  9871 net.cpp:91] Creating Layer fc8_plantvillage_fc8_plantvillage_0_split
I0403 12:54:53.816498  9871 net.cpp:425] fc8_plantvillage_fc8_plantvillage_0_split <- fc8_plantvillage
I0403 12:54:53.816514  9871 net.cpp:399] fc8_plantvillage_fc8_plantvillage_0_split -> fc8_plantvillage_fc8_plantvillage_0_split_0
I0403 12:54:53.816532  9871 net.cpp:399] fc8_plantvillage_fc8_plantvillage_0_split -> fc8_plantvillage_fc8_plantvillage_0_split_1
I0403 12:54:53.816552  9871 net.cpp:399] fc8_plantvillage_fc8_plantvillage_0_split -> fc8_plantvillage_fc8_plantvillage_0_split_2
I0403 12:54:53.816638  9871 net.cpp:141] Setting up fc8_plantvillage_fc8_plantvillage_0_split
I0403 12:54:53.816663  9871 net.cpp:148] Top shape: 100 38 (3800)
I0403 12:54:53.816678  9871 net.cpp:148] Top shape: 100 38 (3800)
I0403 12:54:53.816694  9871 net.cpp:148] Top shape: 100 38 (3800)
I0403 12:54:53.816706  9871 net.cpp:156] Memory required for data: 831586800
I0403 12:54:53.816720  9871 layer_factory.hpp:77] Creating layer prob
I0403 12:54:53.816738  9871 net.cpp:91] Creating Layer prob
I0403 12:54:53.816754  9871 net.cpp:425] prob <- fc8_plantvillage_fc8_plantvillage_0_split_0
I0403 12:54:53.816772  9871 net.cpp:399] prob -> prob
I0403 12:54:53.817003  9871 net.cpp:141] Setting up prob
I0403 12:54:53.817028  9871 net.cpp:148] Top shape: 100 38 (3800)
I0403 12:54:53.817042  9871 net.cpp:156] Memory required for data: 831602000
I0403 12:54:53.817056  9871 layer_factory.hpp:77] Creating layer hdf5out
I0403 12:54:53.817077  9871 net.cpp:91] Creating Layer hdf5out
I0403 12:54:53.817095  9871 net.cpp:425] hdf5out <- prob
I0403 12:54:53.817111  9871 net.cpp:425] hdf5out <- label_data_1_split_0
I0403 12:54:53.819531  9871 net.cpp:141] Setting up hdf5out
…
