…
I0403 12:47:16.353696  9620 net.cpp:313] The NetState phase (1) differed from the phase (0) specified by a rule in layer data
I0403 12:47:16.354424  9620 net.cpp:49] Initializing net from parameters: 
state {
  phase: TEST
}
layer {
  name: "data"
  type: "Data"
  top: "data"
  top: "label"
  include {
    phase: TEST
  }
  transform_param {
    crop_size: 227
    mean_file: "/home/mohanty/data/final_dataset/lmdb/segmented-50-50/mean.binaryproto"
  }
  data_param {
    source: "/home/mohanty/data/final_dataset/lmdb/segmented-50-50/test_db"
    batch_size: 100
    backend: LMDB
  }
}
layer {
  name: "conv1"
  type: "Convolution"
  bottom: "data"
  top: "conv1"
  param {
    lr_mult: 1
    decay_mult: 1
  }
  param {
    lr_mult: 2
    decay_mult: 0
  }
  convolution_param {
    num_output: 96
    kernel_size: 11
    stride: 4
    weight_filler {
      type: "gaussian"
      std: 0.01
    }
    bias_filler {
      type: "constant"
      value: 0
    }
  }
}
layer {
  name: "relu1"
  type: "ReLU"
  bottom: "conv1"
  top: "conv1"
}
layer {
  name: "norm1"
  type: "LRN"
  bottom: "conv1"
  top: "norm1"
  lrn_param {
    local_size: 5
    alpha: 0.0001
    beta: 0.75
  }
}
layer {
  name: "pool1"
  type: "Pooling"
  bottom: "norm1"
  top: "pool1"
  pooling_param {
    pool: MAX
    kernel_size: 3
    stride: 2
  }
}
layer {
  name: "conv2"
  type: "Convolution"
  bottom: "pool1"
  top: "conv2"
  param {
    lr_mult: 1
    decay_mult: 1
  }
  param {
    lr_mult: 2
    decay_mult: 0
  }
  convolution_param {
    num_output: 256
    pad: 2
    kernel_size: 5
    group: 2
    weight_filler {
      type: "gaussian"
      std: 0.01
    }
    bias_filler {
      type: "constant"
      value: 0.1
    }
  }
}
layer {
  name: "relu2"
  type: "ReLU"
  bottom: "conv2"
  top: "conv2"
}
layer {
  name: "norm2"
  type: "LRN"
  bottom: "conv2"
  top: "norm2"
  lrn_param {
    local_size: 5
    alpha: 0.0001
    beta: 0.75
  }
}
layer {
  name: "pool2"
  type: "Pooling"
  bottom: "norm2"
  top: "pool2"
  pooling_param {
    pool: MAX
    kernel_size: 3
    stride: 2
  }
}
layer {
  name: "conv3"
  type: "Convolution"
  bottom: "pool2"
  top: "conv3"
  param {
    lr_mult: 1
    decay_mult: 1
  }
  param {
    lr_mult: 2
    decay_mult: 0
  }
  convolution_param {
    num_output: 384
    pad: 1
    kernel_size: 3
    weight_filler {
      type: "gaussian"
      std: 0.01
    }
    bias_filler {
      type: "constant"
      value: 0
    }
  }
}
layer {
  name: "relu3"
  type: "ReLU"
  bottom: "conv3"
  top: "conv3"
}
layer {
  name: "conv4"
  type: "Convolution"
  bottom: "conv3"
  top: "conv4"
  param {
    lr_mult: 1
    decay_mult: 1
  }
  param {
    lr_mult: 2
    decay_mult: 0
  }
  convolution_param {
    num_output: 384
    pad: 1
    kernel_size: 3
    group: 2
    weight_filler {
      type: "gaussian"
      std: 0.01
    }
    bias_filler {
      type: "constant"
      value: 0.1
    }
  }
}
layer {
  name: "relu4"
  type: "ReLU"
  bottom: "conv4"
  top: "conv4"
}
layer {
  name: "conv5"
  type: "Convolution"
  bottom: "conv4"
  top: "conv5"
  param {
    lr_mult: 1
    decay_mult: 1
  }
  param {
    lr_mult: 2
    decay_mult: 0
  }
  convolution_param {
    num_output: 256
    pad: 1
    kernel_size: 3
    group: 2
    weight_filler {
      type: "gaussian"
      std: 0.01
    }
    bias_filler {
      type: "constant"
      value: 0.1
    }
  }
}
layer {
  name: "relu5"
  type: "ReLU"
  bottom: "conv5"
  top: "conv5"
}
layer {
  name: "pool5"
  type: "Pooling"
  bottom: "conv5"
  top: "pool5"
  pooling_param {
    pool: MAX
    kernel_size: 3
    stride: 2
  }
}
layer {
  name: "fc6"
  type: "InnerProduct"
  bottom: "pool5"
  top: "fc6"
  param {
    lr_mult: 1
    decay_mult: 1
  }
  param {
    lr_mult: 2
    decay_mult: 0
  }
  inner_product_param {
    num_output: 4096
    weight_filler {
      type: "gaussian"
      std: 0.005
    }
    bias_filler {
      type: "constant"
      value: 0.1
    }
  }
}
layer {
  name: "relu6"
  type: "ReLU"
  bottom: "fc6"
  top: "fc6"
}
layer {
  name: "drop6"
  type: "Dropout"
  bottom: "fc6"
  top: "fc6"
  dropout_param {
    dropout_ratio: 0.5
  }
}
layer {
  name: "fc7"
  type: "InnerProduct"
  bottom: "fc6"
  top: "fc7"
  param {
    lr_mult: 1
    decay_mult: 1
  }
  param {
    lr_mult: 2
    decay_mult: 0
  }
  inner_product_param {
    num_output: 4096
    weight_filler {
      type: "gaussian"
      std: 0.005
    }
    bias_filler {
      type: "constant"
      value: 0.1
    }
  }
}
layer {
  name: "relu7"
  type: "ReLU"
  bottom: "fc7"
  top: "fc7"
}
layer {
  name: "drop7"
  type: "Dropout"
  bottom: "fc7"
  top: "fc7"
  dropout_param {
    dropout_ratio: 0.5
  }
}
layer {
  name: "fc8_plantvillage"
  type: "InnerProduct"
  bottom: "fc7"
  top: "fc8_plantvillage"
  param {
    lr_mult: 1
    decay_mult: 1
  }
  param {
    lr_mult: 2
    decay_mult: 0
  }
  inner_product_param {
    num_output: 38
    weight_filler {
      type: "gaussian"
      std: 0.01
    }
    bias_filler {
      type: "constant"
      value: 0
    }
  }
}
layer {
  name: "prob"
  type: "Softmax"
  bottom: "fc8_plantvillage"
  top: "prob"
  include {
    phase: TEST
  }
}
layer {
  name: "hdf5out"
  type: "HDF5Output"
  bottom: "prob"
  bottom: "label"
  include {
    phase: TEST
  }
  hdf5_output_param {
    file_name: "hdf5_dumps/iter_1608.h5"
  }
}
layer {
  name: "loss"
  type: "SoftmaxWithLoss"
  bottom: "fc8_plantvillage"
  bottom: "label"
  top: "loss"
}
layer {
  name: "accuracy"
  type: "Accuracy"
  bottom: "fc8_plantvillage"
  bottom: "label"
  top: "accuracy"
  include {
    phase: TEST
  }
}
I0403 12:47:16.355168  9620 layer_factory.hpp:77] Creating layer data
I0403 12:47:16.355937  9620 net.cpp:91] Creating Layer data
I0403 12:47:16.355976  9620 net.cpp:399] data -> data
I0403 12:47:16.356036  9620 net.cpp:399] data -> label
I0403 12:47:16.356081  9620 data_transformer.cpp:25] Loading mean file from: /home/mohanty/data/final_dataset/lmdb/segmented-50-50/mean.binaryproto
I0403 12:47:16.359313  9623 db_lmdb.cpp:38] Opened lmdb /home/mohanty/data/final_dataset/lmdb/segmented-50-50/test_db
I0403 12:47:16.372561  9620 data_layer.cpp:41] output data size: 100,3,227,227
I0403 12:47:16.508494  9620 net.cpp:141] Setting up data
I0403 12:47:16.508606  9620 net.cpp:148] Top shape: 100 3 227 227 (15458700)
I0403 12:47:16.508635  9620 net.cpp:148] Top shape: 100 (100)
I0403 12:47:16.508654  9620 net.cpp:156] Memory required for data: 61835200
I0403 12:47:16.508688  9620 layer_factory.hpp:77] Creating layer label_data_1_split
I0403 12:47:16.508719  9620 net.cpp:91] Creating Layer label_data_1_split
I0403 12:47:16.508741  9620 net.cpp:425] label_data_1_split <- label
I0403 12:47:16.508780  9620 net.cpp:399] label_data_1_split -> label_data_1_split_0
I0403 12:47:16.508811  9620 net.cpp:399] label_data_1_split -> label_data_1_split_1
I0403 12:47:16.508836  9620 net.cpp:399] label_data_1_split -> label_data_1_split_2
I0403 12:47:16.508913  9620 net.cpp:141] Setting up label_data_1_split
I0403 12:47:16.508942  9620 net.cpp:148] Top shape: 100 (100)
I0403 12:47:16.508962  9620 net.cpp:148] Top shape: 100 (100)
I0403 12:47:16.508981  9620 net.cpp:148] Top shape: 100 (100)
I0403 12:47:16.508998  9620 net.cpp:156] Memory required for data: 61836400
I0403 12:47:16.509016  9620 layer_factory.hpp:77] Creating layer conv1
I0403 12:47:16.509069  9620 net.cpp:91] Creating Layer conv1
I0403 12:47:16.509094  9620 net.cpp:425] conv1 <- data
I0403 12:47:16.509119  9620 net.cpp:399] conv1 -> conv1
I0403 12:47:16.672775  9620 net.cpp:141] Setting up conv1
I0403 12:47:16.672884  9620 net.cpp:148] Top shape: 100 96 55 55 (29040000)
I0403 12:47:16.672906  9620 net.cpp:156] Memory required for data: 177996400
I0403 12:47:16.672942  9620 layer_factory.hpp:77] Creating layer relu1
I0403 12:47:16.672976  9620 net.cpp:91] Creating Layer relu1
I0403 12:47:16.672997  9620 net.cpp:425] relu1 <- conv1
I0403 12:47:16.673020  9620 net.cpp:386] relu1 -> conv1 (in-place)
I0403 12:47:16.673344  9620 net.cpp:141] Setting up relu1
I0403 12:47:16.673377  9620 net.cpp:148] Top shape: 100 96 55 55 (29040000)
I0403 12:47:16.673434  9620 net.cpp:156] Memory required for data: 294156400
I0403 12:47:16.673454  9620 layer_factory.hpp:77] Creating layer norm1
I0403 12:47:16.673490  9620 net.cpp:91] Creating Layer norm1
I0403 12:47:16.673512  9620 net.cpp:425] norm1 <- conv1
I0403 12:47:16.673533  9620 net.cpp:399] norm1 -> norm1
I0403 12:47:16.673933  9620 net.cpp:141] Setting up norm1
I0403 12:47:16.673966  9620 net.cpp:148] Top shape: 100 96 55 55 (29040000)
I0403 12:47:16.673985  9620 net.cpp:156] Memory required for data: 410316400
I0403 12:47:16.674003  9620 layer_factory.hpp:77] Creating layer pool1
I0403 12:47:16.674032  9620 net.cpp:91] Creating Layer pool1
I0403 12:47:16.674054  9620 net.cpp:425] pool1 <- norm1
I0403 12:47:16.674075  9620 net.cpp:399] pool1 -> pool1
I0403 12:47:16.674160  9620 net.cpp:141] Setting up pool1
I0403 12:47:16.674190  9620 net.cpp:148] Top shape: 100 96 27 27 (6998400)
I0403 12:47:16.674207  9620 net.cpp:156] Memory required for data: 438310000
I0403 12:47:16.674226  9620 layer_factory.hpp:77] Creating layer conv2
I0403 12:47:16.674257  9620 net.cpp:91] Creating Layer conv2
I0403 12:47:16.674278  9620 net.cpp:425] conv2 <- pool1
I0403 12:47:16.674301  9620 net.cpp:399] conv2 -> conv2
I0403 12:47:16.692003  9620 net.cpp:141] Setting up conv2
I0403 12:47:16.692044  9620 net.cpp:148] Top shape: 100 256 27 27 (18662400)
I0403 12:47:16.692064  9620 net.cpp:156] Memory required for data: 512959600
I0403 12:47:16.692092  9620 layer_factory.hpp:77] Creating layer relu2
I0403 12:47:16.692116  9620 net.cpp:91] Creating Layer relu2
I0403 12:47:16.692137  9620 net.cpp:425] relu2 <- conv2
I0403 12:47:16.692157  9620 net.cpp:386] relu2 -> conv2 (in-place)
I0403 12:47:16.692486  9620 net.cpp:141] Setting up relu2
I0403 12:47:16.692522  9620 net.cpp:148] Top shape: 100 256 27 27 (18662400)
I0403 12:47:16.692541  9620 net.cpp:156] Memory required for data: 587609200
I0403 12:47:16.692559  9620 layer_factory.hpp:77] Creating layer norm2
I0403 12:47:16.692584  9620 net.cpp:91] Creating Layer norm2
I0403 12:47:16.692610  9620 net.cpp:425] norm2 <- conv2
I0403 12:47:16.692637  9620 net.cpp:399] norm2 -> norm2
I0403 12:47:16.692875  9620 net.cpp:141] Setting up norm2
I0403 12:47:16.692908  9620 net.cpp:148] Top shape: 100 256 27 27 (18662400)
I0403 12:47:16.692926  9620 net.cpp:156] Memory required for data: 662258800
I0403 12:47:16.692945  9620 layer_factory.hpp:77] Creating layer pool2
I0403 12:47:16.692970  9620 net.cpp:91] Creating Layer pool2
I0403 12:47:16.692991  9620 net.cpp:425] pool2 <- norm2
I0403 12:47:16.693012  9620 net.cpp:399] pool2 -> pool2
I0403 12:47:16.693078  9620 net.cpp:141] Setting up pool2
I0403 12:47:16.693106  9620 net.cpp:148] Top shape: 100 256 13 13 (4326400)
I0403 12:47:16.693125  9620 net.cpp:156] Memory required for data: 679564400
I0403 12:47:16.693145  9620 layer_factory.hpp:77] Creating layer conv3
I0403 12:47:16.693171  9620 net.cpp:91] Creating Layer conv3
I0403 12:47:16.693191  9620 net.cpp:425] conv3 <- pool2
I0403 12:47:16.693215  9620 net.cpp:399] conv3 -> conv3
I0403 12:47:16.738741  9620 net.cpp:141] Setting up conv3
I0403 12:47:16.738798  9620 net.cpp:148] Top shape: 100 384 13 13 (6489600)
I0403 12:47:16.738818  9620 net.cpp:156] Memory required for data: 705522800
I0403 12:47:16.738848  9620 layer_factory.hpp:77] Creating layer relu3
I0403 12:47:16.738878  9620 net.cpp:91] Creating Layer relu3
I0403 12:47:16.738903  9620 net.cpp:425] relu3 <- conv3
I0403 12:47:16.738925  9620 net.cpp:386] relu3 -> conv3 (in-place)
I0403 12:47:16.739249  9620 net.cpp:141] Setting up relu3
I0403 12:47:16.739282  9620 net.cpp:148] Top shape: 100 384 13 13 (6489600)
I0403 12:47:16.739302  9620 net.cpp:156] Memory required for data: 731481200
I0403 12:47:16.739320  9620 layer_factory.hpp:77] Creating layer conv4
I0403 12:47:16.739354  9620 net.cpp:91] Creating Layer conv4
I0403 12:47:16.739377  9620 net.cpp:425] conv4 <- conv3
I0403 12:47:16.739399  9620 net.cpp:399] conv4 -> conv4
I0403 12:47:16.774690  9620 net.cpp:141] Setting up conv4
I0403 12:47:16.774742  9620 net.cpp:148] Top shape: 100 384 13 13 (6489600)
I0403 12:47:16.774806  9620 net.cpp:156] Memory required for data: 757439600
I0403 12:47:16.774837  9620 layer_factory.hpp:77] Creating layer relu4
I0403 12:47:16.774870  9620 net.cpp:91] Creating Layer relu4
I0403 12:47:16.774894  9620 net.cpp:425] relu4 <- conv4
I0403 12:47:16.774915  9620 net.cpp:386] relu4 -> conv4 (in-place)
I0403 12:47:16.775250  9620 net.cpp:141] Setting up relu4
I0403 12:47:16.775284  9620 net.cpp:148] Top shape: 100 384 13 13 (6489600)
I0403 12:47:16.775302  9620 net.cpp:156] Memory required for data: 783398000
I0403 12:47:16.775321  9620 layer_factory.hpp:77] Creating layer conv5
I0403 12:47:16.775352  9620 net.cpp:91] Creating Layer conv5
I0403 12:47:16.775372  9620 net.cpp:425] conv5 <- conv4
I0403 12:47:16.775398  9620 net.cpp:399] conv5 -> conv5
I0403 12:47:16.799638  9620 net.cpp:141] Setting up conv5
I0403 12:47:16.799676  9620 net.cpp:148] Top shape: 100 256 13 13 (4326400)
I0403 12:47:16.799696  9620 net.cpp:156] Memory required for data: 800703600
I0403 12:47:16.799728  9620 layer_factory.hpp:77] Creating layer relu5
I0403 12:47:16.799752  9620 net.cpp:91] Creating Layer relu5
I0403 12:47:16.799772  9620 net.cpp:425] relu5 <- conv5
I0403 12:47:16.799793  9620 net.cpp:386] relu5 -> conv5 (in-place)
I0403 12:47:16.800119  9620 net.cpp:141] Setting up relu5
I0403 12:47:16.800154  9620 net.cpp:148] Top shape: 100 256 13 13 (4326400)
I0403 12:47:16.800175  9620 net.cpp:156] Memory required for data: 818009200
I0403 12:47:16.800195  9620 layer_factory.hpp:77] Creating layer pool5
I0403 12:47:16.800221  9620 net.cpp:91] Creating Layer pool5
I0403 12:47:16.800240  9620 net.cpp:425] pool5 <- conv5
I0403 12:47:16.800267  9620 net.cpp:399] pool5 -> pool5
I0403 12:47:16.800339  9620 net.cpp:141] Setting up pool5
I0403 12:47:16.800369  9620 net.cpp:148] Top shape: 100 256 6 6 (921600)
I0403 12:47:16.800386  9620 net.cpp:156] Memory required for data: 821695600
I0403 12:47:16.800403  9620 layer_factory.hpp:77] Creating layer fc6
I0403 12:47:16.800438  9620 net.cpp:91] Creating Layer fc6
I0403 12:47:16.800459  9620 net.cpp:425] fc6 <- pool5
I0403 12:47:16.800484  9620 net.cpp:399] fc6 -> fc6
I0403 12:47:18.290428  9620 net.cpp:141] Setting up fc6
I0403 12:47:18.290506  9620 net.cpp:148] Top shape: 100 4096 (409600)
I0403 12:47:18.290523  9620 net.cpp:156] Memory required for data: 823334000
I0403 12:47:18.290542  9620 layer_factory.hpp:77] Creating layer relu6
I0403 12:47:18.290565  9620 net.cpp:91] Creating Layer relu6
I0403 12:47:18.290580  9620 net.cpp:425] relu6 <- fc6
I0403 12:47:18.290606  9620 net.cpp:386] relu6 -> fc6 (in-place)
I0403 12:47:18.290823  9620 net.cpp:141] Setting up relu6
I0403 12:47:18.290848  9620 net.cpp:148] Top shape: 100 4096 (409600)
I0403 12:47:18.290863  9620 net.cpp:156] Memory required for data: 824972400
I0403 12:47:18.290877  9620 layer_factory.hpp:77] Creating layer drop6
I0403 12:47:18.290895  9620 net.cpp:91] Creating Layer drop6
I0403 12:47:18.290910  9620 net.cpp:425] drop6 <- fc6
I0403 12:47:18.290925  9620 net.cpp:386] drop6 -> fc6 (in-place)
I0403 12:47:18.290980  9620 net.cpp:141] Setting up drop6
I0403 12:47:18.291002  9620 net.cpp:148] Top shape: 100 4096 (409600)
I0403 12:47:18.291015  9620 net.cpp:156] Memory required for data: 826610800
I0403 12:47:18.291029  9620 layer_factory.hpp:77] Creating layer fc7
I0403 12:47:18.291051  9620 net.cpp:91] Creating Layer fc7
I0403 12:47:18.291066  9620 net.cpp:425] fc7 <- fc6
I0403 12:47:18.291084  9620 net.cpp:399] fc7 -> fc7
I0403 12:47:18.950414  9620 net.cpp:141] Setting up fc7
I0403 12:47:18.950485  9620 net.cpp:148] Top shape: 100 4096 (409600)
I0403 12:47:18.950501  9620 net.cpp:156] Memory required for data: 828249200
I0403 12:47:18.950521  9620 layer_factory.hpp:77] Creating layer relu7
I0403 12:47:18.950546  9620 net.cpp:91] Creating Layer relu7
I0403 12:47:18.950563  9620 net.cpp:425] relu7 <- fc7
I0403 12:47:18.950582  9620 net.cpp:386] relu7 -> fc7 (in-place)
I0403 12:47:18.950981  9620 net.cpp:141] Setting up relu7
I0403 12:47:18.951007  9620 net.cpp:148] Top shape: 100 4096 (409600)
I0403 12:47:18.951063  9620 net.cpp:156] Memory required for data: 829887600
I0403 12:47:18.951078  9620 layer_factory.hpp:77] Creating layer drop7
I0403 12:47:18.951099  9620 net.cpp:91] Creating Layer drop7
I0403 12:47:18.951115  9620 net.cpp:425] drop7 <- fc7
I0403 12:47:18.951133  9620 net.cpp:386] drop7 -> fc7 (in-place)
I0403 12:47:18.951180  9620 net.cpp:141] Setting up drop7
I0403 12:47:18.951202  9620 net.cpp:148] Top shape: 100 4096 (409600)
I0403 12:47:18.951216  9620 net.cpp:156] Memory required for data: 831526000
I0403 12:47:18.951230  9620 layer_factory.hpp:77] Creating layer fc8_plantvillage
I0403 12:47:18.951248  9620 net.cpp:91] Creating Layer fc8_plantvillage
I0403 12:47:18.951264  9620 net.cpp:425] fc8_plantvillage <- fc7
I0403 12:47:18.951284  9620 net.cpp:399] fc8_plantvillage -> fc8_plantvillage
I0403 12:47:18.957799  9620 net.cpp:141] Setting up fc8_plantvillage
I0403 12:47:18.957829  9620 net.cpp:148] Top shape: 100 38 (3800)
I0403 12:47:18.957845  9620 net.cpp:156] Memory required for data: 831541200
I0403 12:47:18.957862  9620 layer_factory.hpp:77] Creating layer fc8_plantvillage_fc8_plantvillage_0_split
I0403 12:47:18.957881  9620 net.cpp:91] Creating Layer fc8_plantvillage_fc8_plantvillage_0_split
I0403 12:47:18.957896  9620 net.cpp:425] fc8_plantvillage_fc8_plantvillage_0_split <- fc8_plantvillage
I0403 12:47:18.957913  9620 net.cpp:399] fc8_plantvillage_fc8_plantvillage_0_split -> fc8_plantvillage_fc8_plantvillage_0_split_0
I0403 12:47:18.957932  9620 net.cpp:399] fc8_plantvillage_fc8_plantvillage_0_split -> fc8_plantvillage_fc8_plantvillage_0_split_1
I0403 12:47:18.957953  9620 net.cpp:399] fc8_plantvillage_fc8_plantvillage_0_split -> fc8_plantvillage_fc8_plantvillage_0_split_2
I0403 12:47:18.958029  9620 net.cpp:141] Setting up fc8_plantvillage_fc8_plantvillage_0_split
I0403 12:47:18.958051  9620 net.cpp:148] Top shape: 100 38 (3800)
I0403 12:47:18.958067  9620 net.cpp:148] Top shape: 100 38 (3800)
I0403 12:47:18.958082  9620 net.cpp:148] Top shape: 100 38 (3800)
I0403 12:47:18.958096  9620 net.cpp:156] Memory required for data: 831586800
I0403 12:47:18.958109  9620 layer_factory.hpp:77] Creating layer prob
I0403 12:47:18.958127  9620 net.cpp:91] Creating Layer prob
I0403 12:47:18.958142  9620 net.cpp:425] prob <- fc8_plantvillage_fc8_plantvillage_0_split_0
I0403 12:47:18.958158  9620 net.cpp:399] prob -> prob
I0403 12:47:18.958374  9620 net.cpp:141] Setting up prob
I0403 12:47:18.958398  9620 net.cpp:148] Top shape: 100 38 (3800)
I0403 12:47:18.958413  9620 net.cpp:156] Memory required for data: 831602000
I0403 12:47:18.958427  9620 layer_factory.hpp:77] Creating layer hdf5out
I0403 12:47:18.958448  9620 net.cpp:91] Creating Layer hdf5out
I0403 12:47:18.958464  9620 net.cpp:425] hdf5out <- prob
I0403 12:47:18.958480  9620 net.cpp:425] hdf5out <- label_data_1_split_0
I0403 12:47:18.965927  9620 net.cpp:141] Setting up hdf5out
…
