…
I0403 13:01:36.736395 10069 net.cpp:313] The NetState phase (1) differed from the phase (0) specified by a rule in layer data
I0403 13:01:36.736731 10069 net.cpp:49] Initializing net from parameters: 
state {
  phase: TEST
}
layer {
  name: "data"
  type: "Data"
  top: "data"
  top: "label"
  include {
    phase: TEST
  }
  transform_param {
    crop_size: 227
    mean_file: "/home/mohanty/data/final_dataset/lmdb/segmented-50-50/mean.binaryproto"
  }
  data_param {
    source: "/home/mohanty/data/final_dataset/lmdb/segmented-50-50/test_db"
    batch_size: 100
    backend: LMDB
  }
}
layer {
  name: "conv1"
  type: "Convolution"
  bottom: "data"
  top: "conv1"
  param {
    lr_mult: 1
    decay_mult: 1
  }
  param {
    lr_mult: 2
    decay_mult: 0
  }
  convolution_param {
    num_output: 96
    kernel_size: 11
    stride: 4
    weight_filler {
      type: "gaussian"
      std: 0.01
    }
    bias_filler {
      type: "constant"
      value: 0
    }
  }
}
layer {
  name: "relu1"
  type: "ReLU"
  bottom: "conv1"
  top: "conv1"
}
layer {
  name: "norm1"
  type: "LRN"
  bottom: "conv1"
  top: "norm1"
  lrn_param {
    local_size: 5
    alpha: 0.0001
    beta: 0.75
  }
}
layer {
  name: "pool1"
  type: "Pooling"
  bottom: "norm1"
  top: "pool1"
  pooling_param {
    pool: MAX
    kernel_size: 3
    stride: 2
  }
}
layer {
  name: "conv2"
  type: "Convolution"
  bottom: "pool1"
  top: "conv2"
  param {
    lr_mult: 1
    decay_mult: 1
  }
  param {
    lr_mult: 2
    decay_mult: 0
  }
  convolution_param {
    num_output: 256
    pad: 2
    kernel_size: 5
    group: 2
    weight_filler {
      type: "gaussian"
      std: 0.01
    }
    bias_filler {
      type: "constant"
      value: 0.1
    }
  }
}
layer {
  name: "relu2"
  type: "ReLU"
  bottom: "conv2"
  top: "conv2"
}
layer {
  name: "norm2"
  type: "LRN"
  bottom: "conv2"
  top: "norm2"
  lrn_param {
    local_size: 5
    alpha: 0.0001
    beta: 0.75
  }
}
layer {
  name: "pool2"
  type: "Pooling"
  bottom: "norm2"
  top: "pool2"
  pooling_param {
    pool: MAX
    kernel_size: 3
    stride: 2
  }
}
layer {
  name: "conv3"
  type: "Convolution"
  bottom: "pool2"
  top: "conv3"
  param {
    lr_mult: 1
    decay_mult: 1
  }
  param {
    lr_mult: 2
    decay_mult: 0
  }
  convolution_param {
    num_output: 384
    pad: 1
    kernel_size: 3
    weight_filler {
      type: "gaussian"
      std: 0.01
    }
    bias_filler {
      type: "constant"
      value: 0
    }
  }
}
layer {
  name: "relu3"
  type: "ReLU"
  bottom: "conv3"
  top: "conv3"
}
layer {
  name: "conv4"
  type: "Convolution"
  bottom: "conv3"
  top: "conv4"
  param {
    lr_mult: 1
    decay_mult: 1
  }
  param {
    lr_mult: 2
    decay_mult: 0
  }
  convolution_param {
    num_output: 384
    pad: 1
    kernel_size: 3
    group: 2
    weight_filler {
      type: "gaussian"
      std: 0.01
    }
    bias_filler {
      type: "constant"
      value: 0.1
    }
  }
}
layer {
  name: "relu4"
  type: "ReLU"
  bottom: "conv4"
  top: "conv4"
}
layer {
  name: "conv5"
  type: "Convolution"
  bottom: "conv4"
  top: "conv5"
  param {
    lr_mult: 1
    decay_mult: 1
  }
  param {
    lr_mult: 2
    decay_mult: 0
  }
  convolution_param {
    num_output: 256
    pad: 1
    kernel_size: 3
    group: 2
    weight_filler {
      type: "gaussian"
      std: 0.01
    }
    bias_filler {
      type: "constant"
      value: 0.1
    }
  }
}
layer {
  name: "relu5"
  type: "ReLU"
  bottom: "conv5"
  top: "conv5"
}
layer {
  name: "pool5"
  type: "Pooling"
  bottom: "conv5"
  top: "pool5"
  pooling_param {
    pool: MAX
    kernel_size: 3
    stride: 2
  }
}
layer {
  name: "fc6"
  type: "InnerProduct"
  bottom: "pool5"
  top: "fc6"
  param {
    lr_mult: 1
    decay_mult: 1
  }
  param {
    lr_mult: 2
    decay_mult: 0
  }
  inner_product_param {
    num_output: 4096
    weight_filler {
      type: "gaussian"
      std: 0.005
    }
    bias_filler {
      type: "constant"
      value: 0.1
    }
  }
}
layer {
  name: "relu6"
  type: "ReLU"
  bottom: "fc6"
  top: "fc6"
}
layer {
  name: "drop6"
  type: "Dropout"
  bottom: "fc6"
  top: "fc6"
  dropout_param {
    dropout_ratio: 0.5
  }
}
layer {
  name: "fc7"
  type: "InnerProduct"
  bottom: "fc6"
  top: "fc7"
  param {
    lr_mult: 1
    decay_mult: 1
  }
  param {
    lr_mult: 2
    decay_mult: 0
  }
  inner_product_param {
    num_output: 4096
    weight_filler {
      type: "gaussian"
      std: 0.005
    }
    bias_filler {
      type: "constant"
      value: 0.1
    }
  }
}
layer {
  name: "relu7"
  type: "ReLU"
  bottom: "fc7"
  top: "fc7"
}
layer {
  name: "drop7"
  type: "Dropout"
  bottom: "fc7"
  top: "fc7"
  dropout_param {
    dropout_ratio: 0.5
  }
}
layer {
  name: "fc8_plantvillage"
  type: "InnerProduct"
  bottom: "fc7"
  top: "fc8_plantvillage"
  param {
    lr_mult: 1
    decay_mult: 1
  }
  param {
    lr_mult: 2
    decay_mult: 0
  }
  inner_product_param {
    num_output: 38
    weight_filler {
      type: "gaussian"
      std: 0.01
    }
    bias_filler {
      type: "constant"
      value: 0
    }
  }
}
layer {
  name: "prob"
  type: "Softmax"
  bottom: "fc8_plantvillage"
  top: "prob"
  include {
    phase: TEST
  }
}
layer {
  name: "hdf5out"
  type: "HDF5Output"
  bottom: "prob"
  bottom: "label"
  include {
    phase: TEST
  }
  hdf5_output_param {
    file_name: "hdf5_dumps/iter_6164.h5"
  }
}
layer {
  name: "loss"
  type: "SoftmaxWithLoss"
  bottom: "fc8_plantvillage"
  bottom: "label"
  top: "loss"
}
layer {
  name: "accuracy"
  type: "Accuracy"
  bottom: "fc8_plantvillage"
  bottom: "label"
  top: "accuracy"
  include {
    phase: TEST
  }
}
I0403 13:01:36.737349 10069 layer_factory.hpp:77] Creating layer data
I0403 13:01:36.738044 10069 net.cpp:91] Creating Layer data
I0403 13:01:36.738076 10069 net.cpp:399] data -> data
I0403 13:01:36.738133 10069 net.cpp:399] data -> label
I0403 13:01:36.738173 10069 data_transformer.cpp:25] Loading mean file from: /home/mohanty/data/final_dataset/lmdb/segmented-50-50/mean.binaryproto
I0403 13:01:36.740520 10072 db_lmdb.cpp:38] Opened lmdb /home/mohanty/data/final_dataset/lmdb/segmented-50-50/test_db
I0403 13:01:36.752756 10069 data_layer.cpp:41] output data size: 100,3,227,227
I0403 13:01:36.876116 10069 net.cpp:141] Setting up data
I0403 13:01:36.876211 10069 net.cpp:148] Top shape: 100 3 227 227 (15458700)
I0403 13:01:36.876235 10069 net.cpp:148] Top shape: 100 (100)
I0403 13:01:36.876251 10069 net.cpp:156] Memory required for data: 61835200
I0403 13:01:36.876279 10069 layer_factory.hpp:77] Creating layer label_data_1_split
I0403 13:01:36.876305 10069 net.cpp:91] Creating Layer label_data_1_split
I0403 13:01:36.876323 10069 net.cpp:425] label_data_1_split <- label
I0403 13:01:36.876358 10069 net.cpp:399] label_data_1_split -> label_data_1_split_0
I0403 13:01:36.876385 10069 net.cpp:399] label_data_1_split -> label_data_1_split_1
I0403 13:01:36.876406 10069 net.cpp:399] label_data_1_split -> label_data_1_split_2
I0403 13:01:36.876472 10069 net.cpp:141] Setting up label_data_1_split
I0403 13:01:36.876497 10069 net.cpp:148] Top shape: 100 (100)
I0403 13:01:36.876513 10069 net.cpp:148] Top shape: 100 (100)
I0403 13:01:36.876530 10069 net.cpp:148] Top shape: 100 (100)
I0403 13:01:36.876544 10069 net.cpp:156] Memory required for data: 61836400
I0403 13:01:36.876559 10069 layer_factory.hpp:77] Creating layer conv1
I0403 13:01:36.876592 10069 net.cpp:91] Creating Layer conv1
I0403 13:01:36.876616 10069 net.cpp:425] conv1 <- data
I0403 13:01:36.876637 10069 net.cpp:399] conv1 -> conv1
I0403 13:01:37.020683 10069 net.cpp:141] Setting up conv1
I0403 13:01:37.020759 10069 net.cpp:148] Top shape: 100 96 55 55 (29040000)
I0403 13:01:37.020777 10069 net.cpp:156] Memory required for data: 177996400
I0403 13:01:37.020808 10069 layer_factory.hpp:77] Creating layer relu1
I0403 13:01:37.020836 10069 net.cpp:91] Creating Layer relu1
I0403 13:01:37.020855 10069 net.cpp:425] relu1 <- conv1
I0403 13:01:37.020874 10069 net.cpp:386] relu1 -> conv1 (in-place)
I0403 13:01:37.021144 10069 net.cpp:141] Setting up relu1
I0403 13:01:37.021173 10069 net.cpp:148] Top shape: 100 96 55 55 (29040000)
I0403 13:01:37.021221 10069 net.cpp:156] Memory required for data: 294156400
I0403 13:01:37.021247 10069 layer_factory.hpp:77] Creating layer norm1
I0403 13:01:37.021275 10069 net.cpp:91] Creating Layer norm1
I0403 13:01:37.021294 10069 net.cpp:425] norm1 <- conv1
I0403 13:01:37.021311 10069 net.cpp:399] norm1 -> norm1
I0403 13:01:37.021631 10069 net.cpp:141] Setting up norm1
I0403 13:01:37.021658 10069 net.cpp:148] Top shape: 100 96 55 55 (29040000)
I0403 13:01:37.021674 10069 net.cpp:156] Memory required for data: 410316400
I0403 13:01:37.021689 10069 layer_factory.hpp:77] Creating layer pool1
I0403 13:01:37.021740 10069 net.cpp:91] Creating Layer pool1
I0403 13:01:37.021760 10069 net.cpp:425] pool1 <- norm1
I0403 13:01:37.021780 10069 net.cpp:399] pool1 -> pool1
I0403 13:01:37.021847 10069 net.cpp:141] Setting up pool1
I0403 13:01:37.021870 10069 net.cpp:148] Top shape: 100 96 27 27 (6998400)
I0403 13:01:37.021885 10069 net.cpp:156] Memory required for data: 438310000
I0403 13:01:37.021901 10069 layer_factory.hpp:77] Creating layer conv2
I0403 13:01:37.021927 10069 net.cpp:91] Creating Layer conv2
I0403 13:01:37.021944 10069 net.cpp:425] conv2 <- pool1
I0403 13:01:37.021968 10069 net.cpp:399] conv2 -> conv2
I0403 13:01:37.037072 10069 net.cpp:141] Setting up conv2
I0403 13:01:37.037125 10069 net.cpp:148] Top shape: 100 256 27 27 (18662400)
I0403 13:01:37.037142 10069 net.cpp:156] Memory required for data: 512959600
I0403 13:01:37.037165 10069 layer_factory.hpp:77] Creating layer relu2
I0403 13:01:37.037186 10069 net.cpp:91] Creating Layer relu2
I0403 13:01:37.037202 10069 net.cpp:425] relu2 <- conv2
I0403 13:01:37.037221 10069 net.cpp:386] relu2 -> conv2 (in-place)
I0403 13:01:37.037489 10069 net.cpp:141] Setting up relu2
I0403 13:01:37.037518 10069 net.cpp:148] Top shape: 100 256 27 27 (18662400)
I0403 13:01:37.037533 10069 net.cpp:156] Memory required for data: 587609200
I0403 13:01:37.037549 10069 layer_factory.hpp:77] Creating layer norm2
I0403 13:01:37.037570 10069 net.cpp:91] Creating Layer norm2
I0403 13:01:37.037586 10069 net.cpp:425] norm2 <- conv2
I0403 13:01:37.037611 10069 net.cpp:399] norm2 -> norm2
I0403 13:01:37.037811 10069 net.cpp:141] Setting up norm2
I0403 13:01:37.037839 10069 net.cpp:148] Top shape: 100 256 27 27 (18662400)
I0403 13:01:37.037856 10069 net.cpp:156] Memory required for data: 662258800
I0403 13:01:37.037871 10069 layer_factory.hpp:77] Creating layer pool2
I0403 13:01:37.037890 10069 net.cpp:91] Creating Layer pool2
I0403 13:01:37.037906 10069 net.cpp:425] pool2 <- norm2
I0403 13:01:37.037925 10069 net.cpp:399] pool2 -> pool2
I0403 13:01:37.038002 10069 net.cpp:141] Setting up pool2
I0403 13:01:37.038028 10069 net.cpp:148] Top shape: 100 256 13 13 (4326400)
I0403 13:01:37.038043 10069 net.cpp:156] Memory required for data: 679564400
I0403 13:01:37.038058 10069 layer_factory.hpp:77] Creating layer conv3
I0403 13:01:37.038080 10069 net.cpp:91] Creating Layer conv3
I0403 13:01:37.038097 10069 net.cpp:425] conv3 <- pool2
I0403 13:01:37.038120 10069 net.cpp:399] conv3 -> conv3
I0403 13:01:37.077040 10069 net.cpp:141] Setting up conv3
I0403 13:01:37.077114 10069 net.cpp:148] Top shape: 100 384 13 13 (6489600)
I0403 13:01:37.077131 10069 net.cpp:156] Memory required for data: 705522800
I0403 13:01:37.077157 10069 layer_factory.hpp:77] Creating layer relu3
I0403 13:01:37.077183 10069 net.cpp:91] Creating Layer relu3
I0403 13:01:37.077201 10069 net.cpp:425] relu3 <- conv3
I0403 13:01:37.077220 10069 net.cpp:386] relu3 -> conv3 (in-place)
I0403 13:01:37.077498 10069 net.cpp:141] Setting up relu3
I0403 13:01:37.077529 10069 net.cpp:148] Top shape: 100 384 13 13 (6489600)
I0403 13:01:37.077546 10069 net.cpp:156] Memory required for data: 731481200
I0403 13:01:37.077563 10069 layer_factory.hpp:77] Creating layer conv4
I0403 13:01:37.077589 10069 net.cpp:91] Creating Layer conv4
I0403 13:01:37.077611 10069 net.cpp:425] conv4 <- conv3
I0403 13:01:37.077631 10069 net.cpp:399] conv4 -> conv4
I0403 13:01:37.108119 10069 net.cpp:141] Setting up conv4
I0403 13:01:37.108191 10069 net.cpp:148] Top shape: 100 384 13 13 (6489600)
I0403 13:01:37.108244 10069 net.cpp:156] Memory required for data: 757439600
I0403 13:01:37.108268 10069 layer_factory.hpp:77] Creating layer relu4
I0403 13:01:37.108294 10069 net.cpp:91] Creating Layer relu4
I0403 13:01:37.108314 10069 net.cpp:425] relu4 <- conv4
I0403 13:01:37.108332 10069 net.cpp:386] relu4 -> conv4 (in-place)
I0403 13:01:37.108623 10069 net.cpp:141] Setting up relu4
I0403 13:01:37.108649 10069 net.cpp:148] Top shape: 100 384 13 13 (6489600)
I0403 13:01:37.108665 10069 net.cpp:156] Memory required for data: 783398000
I0403 13:01:37.108680 10069 layer_factory.hpp:77] Creating layer conv5
I0403 13:01:37.108705 10069 net.cpp:91] Creating Layer conv5
I0403 13:01:37.108723 10069 net.cpp:425] conv5 <- conv4
I0403 13:01:37.108744 10069 net.cpp:399] conv5 -> conv5
I0403 13:01:37.129655 10069 net.cpp:141] Setting up conv5
I0403 13:01:37.129704 10069 net.cpp:148] Top shape: 100 256 13 13 (4326400)
I0403 13:01:37.129721 10069 net.cpp:156] Memory required for data: 800703600
I0403 13:01:37.129750 10069 layer_factory.hpp:77] Creating layer relu5
I0403 13:01:37.129772 10069 net.cpp:91] Creating Layer relu5
I0403 13:01:37.129789 10069 net.cpp:425] relu5 <- conv5
I0403 13:01:37.129808 10069 net.cpp:386] relu5 -> conv5 (in-place)
I0403 13:01:37.130100 10069 net.cpp:141] Setting up relu5
I0403 13:01:37.130130 10069 net.cpp:148] Top shape: 100 256 13 13 (4326400)
I0403 13:01:37.130146 10069 net.cpp:156] Memory required for data: 818009200
I0403 13:01:37.130162 10069 layer_factory.hpp:77] Creating layer pool5
I0403 13:01:37.130183 10069 net.cpp:91] Creating Layer pool5
I0403 13:01:37.130200 10069 net.cpp:425] pool5 <- conv5
I0403 13:01:37.130221 10069 net.cpp:399] pool5 -> pool5
I0403 13:01:37.130285 10069 net.cpp:141] Setting up pool5
I0403 13:01:37.130308 10069 net.cpp:148] Top shape: 100 256 6 6 (921600)
I0403 13:01:37.130326 10069 net.cpp:156] Memory required for data: 821695600
I0403 13:01:37.130398 10069 layer_factory.hpp:77] Creating layer fc6
I0403 13:01:37.130429 10069 net.cpp:91] Creating Layer fc6
I0403 13:01:37.130450 10069 net.cpp:425] fc6 <- pool5
I0403 13:01:37.130470 10069 net.cpp:399] fc6 -> fc6
I0403 13:01:38.678639 10069 net.cpp:141] Setting up fc6
I0403 13:01:38.678717 10069 net.cpp:148] Top shape: 100 4096 (409600)
I0403 13:01:38.678733 10069 net.cpp:156] Memory required for data: 823334000
I0403 13:01:38.678755 10069 layer_factory.hpp:77] Creating layer relu6
I0403 13:01:38.678782 10069 net.cpp:91] Creating Layer relu6
I0403 13:01:38.678800 10069 net.cpp:425] relu6 <- fc6
I0403 13:01:38.678820 10069 net.cpp:386] relu6 -> fc6 (in-place)
I0403 13:01:38.679060 10069 net.cpp:141] Setting up relu6
I0403 13:01:38.679086 10069 net.cpp:148] Top shape: 100 4096 (409600)
I0403 13:01:38.679102 10069 net.cpp:156] Memory required for data: 824972400
I0403 13:01:38.679117 10069 layer_factory.hpp:77] Creating layer drop6
I0403 13:01:38.679136 10069 net.cpp:91] Creating Layer drop6
I0403 13:01:38.679152 10069 net.cpp:425] drop6 <- fc6
I0403 13:01:38.679168 10069 net.cpp:386] drop6 -> fc6 (in-place)
I0403 13:01:38.679221 10069 net.cpp:141] Setting up drop6
I0403 13:01:38.679244 10069 net.cpp:148] Top shape: 100 4096 (409600)
I0403 13:01:38.679260 10069 net.cpp:156] Memory required for data: 826610800
I0403 13:01:38.679273 10069 layer_factory.hpp:77] Creating layer fc7
I0403 13:01:38.679296 10069 net.cpp:91] Creating Layer fc7
I0403 13:01:38.679313 10069 net.cpp:425] fc7 <- fc6
I0403 13:01:38.679332 10069 net.cpp:399] fc7 -> fc7
I0403 13:01:39.362649 10069 net.cpp:141] Setting up fc7
I0403 13:01:39.362726 10069 net.cpp:148] Top shape: 100 4096 (409600)
I0403 13:01:39.362742 10069 net.cpp:156] Memory required for data: 828249200
I0403 13:01:39.362763 10069 layer_factory.hpp:77] Creating layer relu7
I0403 13:01:39.362787 10069 net.cpp:91] Creating Layer relu7
I0403 13:01:39.362804 10069 net.cpp:425] relu7 <- fc7
I0403 13:01:39.362823 10069 net.cpp:386] relu7 -> fc7 (in-place)
I0403 13:01:39.363229 10069 net.cpp:141] Setting up relu7
I0403 13:01:39.363256 10069 net.cpp:148] Top shape: 100 4096 (409600)
I0403 13:01:39.363306 10069 net.cpp:156] Memory required for data: 829887600
I0403 13:01:39.363322 10069 layer_factory.hpp:77] Creating layer drop7
I0403 13:01:39.363343 10069 net.cpp:91] Creating Layer drop7
I0403 13:01:39.363359 10069 net.cpp:425] drop7 <- fc7
I0403 13:01:39.363376 10069 net.cpp:386] drop7 -> fc7 (in-place)
I0403 13:01:39.363423 10069 net.cpp:141] Setting up drop7
I0403 13:01:39.363446 10069 net.cpp:148] Top shape: 100 4096 (409600)
I0403 13:01:39.363459 10069 net.cpp:156] Memory required for data: 831526000
I0403 13:01:39.363473 10069 layer_factory.hpp:77] Creating layer fc8_plantvillage
I0403 13:01:39.363495 10069 net.cpp:91] Creating Layer fc8_plantvillage
I0403 13:01:39.363512 10069 net.cpp:425] fc8_plantvillage <- fc7
I0403 13:01:39.363530 10069 net.cpp:399] fc8_plantvillage -> fc8_plantvillage
I0403 13:01:39.370256 10069 net.cpp:141] Setting up fc8_plantvillage
I0403 13:01:39.370286 10069 net.cpp:148] Top shape: 100 38 (3800)
I0403 13:01:39.370301 10069 net.cpp:156] Memory required for data: 831541200
I0403 13:01:39.370319 10069 layer_factory.hpp:77] Creating layer fc8_plantvillage_fc8_plantvillage_0_split
I0403 13:01:39.370338 10069 net.cpp:91] Creating Layer fc8_plantvillage_fc8_plantvillage_0_split
I0403 13:01:39.370354 10069 net.cpp:425] fc8_plantvillage_fc8_plantvillage_0_split <- fc8_plantvillage
I0403 13:01:39.370371 10069 net.cpp:399] fc8_plantvillage_fc8_plantvillage_0_split -> fc8_plantvillage_fc8_plantvillage_0_split_0
I0403 13:01:39.370398 10069 net.cpp:399] fc8_plantvillage_fc8_plantvillage_0_split -> fc8_plantvillage_fc8_plantvillage_0_split_1
I0403 13:01:39.370419 10069 net.cpp:399] fc8_plantvillage_fc8_plantvillage_0_split -> fc8_plantvillage_fc8_plantvillage_0_split_2
I0403 13:01:39.370497 10069 net.cpp:141] Setting up fc8_plantvillage_fc8_plantvillage_0_split
I0403 13:01:39.370522 10069 net.cpp:148] Top shape: 100 38 (3800)
I0403 13:01:39.370537 10069 net.cpp:148] Top shape: 100 38 (3800)
I0403 13:01:39.370553 10069 net.cpp:148] Top shape: 100 38 (3800)
I0403 13:01:39.370566 10069 net.cpp:156] Memory required for data: 831586800
I0403 13:01:39.370581 10069 layer_factory.hpp:77] Creating layer prob
I0403 13:01:39.370602 10069 net.cpp:91] Creating Layer prob
I0403 13:01:39.370620 10069 net.cpp:425] prob <- fc8_plantvillage_fc8_plantvillage_0_split_0
I0403 13:01:39.370638 10069 net.cpp:399] prob -> prob
I0403 13:01:39.370868 10069 net.cpp:141] Setting up prob
I0403 13:01:39.370894 10069 net.cpp:148] Top shape: 100 38 (3800)
I0403 13:01:39.370909 10069 net.cpp:156] Memory required for data: 831602000
I0403 13:01:39.370924 10069 layer_factory.hpp:77] Creating layer hdf5out
I0403 13:01:39.370945 10069 net.cpp:91] Creating Layer hdf5out
I0403 13:01:39.370962 10069 net.cpp:425] hdf5out <- prob
I0403 13:01:39.370978 10069 net.cpp:425] hdf5out <- label_data_1_split_0
I0403 13:01:39.373147 10069 net.cpp:141] Setting up hdf5out
…
