…
I0403 13:04:08.833803 10139 net.cpp:313] The NetState phase (1) differed from the phase (0) specified by a rule in layer data
I0403 13:04:08.834100 10139 net.cpp:49] Initializing net from parameters: 
state {
  phase: TEST
}
layer {
  name: "data"
  type: "Data"
  top: "data"
  top: "label"
  include {
    phase: TEST
  }
  transform_param {
    crop_size: 227
    mean_file: "/home/mohanty/data/final_dataset/lmdb/segmented-50-50/mean.binaryproto"
  }
  data_param {
    source: "/home/mohanty/data/final_dataset/lmdb/segmented-50-50/test_db"
    batch_size: 100
    backend: LMDB
  }
}
layer {
  name: "conv1"
  type: "Convolution"
  bottom: "data"
  top: "conv1"
  param {
    lr_mult: 1
    decay_mult: 1
  }
  param {
    lr_mult: 2
    decay_mult: 0
  }
  convolution_param {
    num_output: 96
    kernel_size: 11
    stride: 4
    weight_filler {
      type: "gaussian"
      std: 0.01
    }
    bias_filler {
      type: "constant"
      value: 0
    }
  }
}
layer {
  name: "relu1"
  type: "ReLU"
  bottom: "conv1"
  top: "conv1"
}
layer {
  name: "norm1"
  type: "LRN"
  bottom: "conv1"
  top: "norm1"
  lrn_param {
    local_size: 5
    alpha: 0.0001
    beta: 0.75
  }
}
layer {
  name: "pool1"
  type: "Pooling"
  bottom: "norm1"
  top: "pool1"
  pooling_param {
    pool: MAX
    kernel_size: 3
    stride: 2
  }
}
layer {
  name: "conv2"
  type: "Convolution"
  bottom: "pool1"
  top: "conv2"
  param {
    lr_mult: 1
    decay_mult: 1
  }
  param {
    lr_mult: 2
    decay_mult: 0
  }
  convolution_param {
    num_output: 256
    pad: 2
    kernel_size: 5
    group: 2
    weight_filler {
      type: "gaussian"
      std: 0.01
    }
    bias_filler {
      type: "constant"
      value: 0.1
    }
  }
}
layer {
  name: "relu2"
  type: "ReLU"
  bottom: "conv2"
  top: "conv2"
}
layer {
  name: "norm2"
  type: "LRN"
  bottom: "conv2"
  top: "norm2"
  lrn_param {
    local_size: 5
    alpha: 0.0001
    beta: 0.75
  }
}
layer {
  name: "pool2"
  type: "Pooling"
  bottom: "norm2"
  top: "pool2"
  pooling_param {
    pool: MAX
    kernel_size: 3
    stride: 2
  }
}
layer {
  name: "conv3"
  type: "Convolution"
  bottom: "pool2"
  top: "conv3"
  param {
    lr_mult: 1
    decay_mult: 1
  }
  param {
    lr_mult: 2
    decay_mult: 0
  }
  convolution_param {
    num_output: 384
    pad: 1
    kernel_size: 3
    weight_filler {
      type: "gaussian"
      std: 0.01
    }
    bias_filler {
      type: "constant"
      value: 0
    }
  }
}
layer {
  name: "relu3"
  type: "ReLU"
  bottom: "conv3"
  top: "conv3"
}
layer {
  name: "conv4"
  type: "Convolution"
  bottom: "conv3"
  top: "conv4"
  param {
    lr_mult: 1
    decay_mult: 1
  }
  param {
    lr_mult: 2
    decay_mult: 0
  }
  convolution_param {
    num_output: 384
    pad: 1
    kernel_size: 3
    group: 2
    weight_filler {
      type: "gaussian"
      std: 0.01
    }
    bias_filler {
      type: "constant"
      value: 0.1
    }
  }
}
layer {
  name: "relu4"
  type: "ReLU"
  bottom: "conv4"
  top: "conv4"
}
layer {
  name: "conv5"
  type: "Convolution"
  bottom: "conv4"
  top: "conv5"
  param {
    lr_mult: 1
    decay_mult: 1
  }
  param {
    lr_mult: 2
    decay_mult: 0
  }
  convolution_param {
    num_output: 256
    pad: 1
    kernel_size: 3
    group: 2
    weight_filler {
      type: "gaussian"
      std: 0.01
    }
    bias_filler {
      type: "constant"
      value: 0.1
    }
  }
}
layer {
  name: "relu5"
  type: "ReLU"
  bottom: "conv5"
  top: "conv5"
}
layer {
  name: "pool5"
  type: "Pooling"
  bottom: "conv5"
  top: "pool5"
  pooling_param {
    pool: MAX
    kernel_size: 3
    stride: 2
  }
}
layer {
  name: "fc6"
  type: "InnerProduct"
  bottom: "pool5"
  top: "fc6"
  param {
    lr_mult: 1
    decay_mult: 1
  }
  param {
    lr_mult: 2
    decay_mult: 0
  }
  inner_product_param {
    num_output: 4096
    weight_filler {
      type: "gaussian"
      std: 0.005
    }
    bias_filler {
      type: "constant"
      value: 0.1
    }
  }
}
layer {
  name: "relu6"
  type: "ReLU"
  bottom: "fc6"
  top: "fc6"
}
layer {
  name: "drop6"
  type: "Dropout"
  bottom: "fc6"
  top: "fc6"
  dropout_param {
    dropout_ratio: 0.5
  }
}
layer {
  name: "fc7"
  type: "InnerProduct"
  bottom: "fc6"
  top: "fc7"
  param {
    lr_mult: 1
    decay_mult: 1
  }
  param {
    lr_mult: 2
    decay_mult: 0
  }
  inner_product_param {
    num_output: 4096
    weight_filler {
      type: "gaussian"
      std: 0.005
    }
    bias_filler {
      type: "constant"
      value: 0.1
    }
  }
}
layer {
  name: "relu7"
  type: "ReLU"
  bottom: "fc7"
  top: "fc7"
}
layer {
  name: "drop7"
  type: "Dropout"
  bottom: "fc7"
  top: "fc7"
  dropout_param {
    dropout_ratio: 0.5
  }
}
layer {
  name: "fc8_plantvillage"
  type: "InnerProduct"
  bottom: "fc7"
  top: "fc8_plantvillage"
  param {
    lr_mult: 1
    decay_mult: 1
  }
  param {
    lr_mult: 2
    decay_mult: 0
  }
  inner_product_param {
    num_output: 38
    weight_filler {
      type: "gaussian"
      std: 0.01
    }
    bias_filler {
      type: "constant"
      value: 0
    }
  }
}
layer {
  name: "prob"
  type: "Softmax"
  bottom: "fc8_plantvillage"
  top: "prob"
  include {
    phase: TEST
  }
}
layer {
  name: "hdf5out"
  type: "HDF5Output"
  bottom: "prob"
  bottom: "label"
  include {
    phase: TEST
  }
  hdf5_output_param {
    file_name: "hdf5_dumps/iter_6968.h5"
  }
}
layer {
  name: "loss"
  type: "SoftmaxWithLoss"
  bottom: "fc8_plantvillage"
  bottom: "label"
  top: "loss"
}
layer {
  name: "accuracy"
  type: "Accuracy"
  bottom: "fc8_plantvillage"
  bottom: "label"
  top: "accuracy"
  include {
    phase: TEST
  }
}
I0403 13:04:08.834717 10139 layer_factory.hpp:77] Creating layer data
I0403 13:04:08.835372 10139 net.cpp:91] Creating Layer data
I0403 13:04:08.835402 10139 net.cpp:399] data -> data
I0403 13:04:08.835453 10139 net.cpp:399] data -> label
I0403 13:04:08.835491 10139 data_transformer.cpp:25] Loading mean file from: /home/mohanty/data/final_dataset/lmdb/segmented-50-50/mean.binaryproto
I0403 13:04:08.839367 10142 db_lmdb.cpp:38] Opened lmdb /home/mohanty/data/final_dataset/lmdb/segmented-50-50/test_db
I0403 13:04:08.866746 10139 data_layer.cpp:41] output data size: 100,3,227,227
I0403 13:04:08.983181 10139 net.cpp:141] Setting up data
I0403 13:04:08.983273 10139 net.cpp:148] Top shape: 100 3 227 227 (15458700)
I0403 13:04:08.983296 10139 net.cpp:148] Top shape: 100 (100)
I0403 13:04:08.983311 10139 net.cpp:156] Memory required for data: 61835200
I0403 13:04:08.983338 10139 layer_factory.hpp:77] Creating layer label_data_1_split
I0403 13:04:08.983364 10139 net.cpp:91] Creating Layer label_data_1_split
I0403 13:04:08.983381 10139 net.cpp:425] label_data_1_split <- label
I0403 13:04:08.983413 10139 net.cpp:399] label_data_1_split -> label_data_1_split_0
I0403 13:04:08.983440 10139 net.cpp:399] label_data_1_split -> label_data_1_split_1
I0403 13:04:08.983460 10139 net.cpp:399] label_data_1_split -> label_data_1_split_2
I0403 13:04:08.983522 10139 net.cpp:141] Setting up label_data_1_split
I0403 13:04:08.983546 10139 net.cpp:148] Top shape: 100 (100)
I0403 13:04:08.983562 10139 net.cpp:148] Top shape: 100 (100)
I0403 13:04:08.983582 10139 net.cpp:148] Top shape: 100 (100)
I0403 13:04:08.983597 10139 net.cpp:156] Memory required for data: 61836400
I0403 13:04:08.983613 10139 layer_factory.hpp:77] Creating layer conv1
I0403 13:04:08.983644 10139 net.cpp:91] Creating Layer conv1
I0403 13:04:08.983662 10139 net.cpp:425] conv1 <- data
I0403 13:04:08.983681 10139 net.cpp:399] conv1 -> conv1
I0403 13:04:09.122872 10139 net.cpp:141] Setting up conv1
I0403 13:04:09.122933 10139 net.cpp:148] Top shape: 100 96 55 55 (29040000)
I0403 13:04:09.122951 10139 net.cpp:156] Memory required for data: 177996400
I0403 13:04:09.122982 10139 layer_factory.hpp:77] Creating layer relu1
I0403 13:04:09.123010 10139 net.cpp:91] Creating Layer relu1
I0403 13:04:09.123028 10139 net.cpp:425] relu1 <- conv1
I0403 13:04:09.123051 10139 net.cpp:386] relu1 -> conv1 (in-place)
I0403 13:04:09.123335 10139 net.cpp:141] Setting up relu1
I0403 13:04:09.123363 10139 net.cpp:148] Top shape: 100 96 55 55 (29040000)
I0403 13:04:09.123419 10139 net.cpp:156] Memory required for data: 294156400
I0403 13:04:09.123435 10139 layer_factory.hpp:77] Creating layer norm1
I0403 13:04:09.123464 10139 net.cpp:91] Creating Layer norm1
I0403 13:04:09.123483 10139 net.cpp:425] norm1 <- conv1
I0403 13:04:09.123505 10139 net.cpp:399] norm1 -> norm1
I0403 13:04:09.123842 10139 net.cpp:141] Setting up norm1
I0403 13:04:09.123874 10139 net.cpp:148] Top shape: 100 96 55 55 (29040000)
I0403 13:04:09.123891 10139 net.cpp:156] Memory required for data: 410316400
I0403 13:04:09.123906 10139 layer_factory.hpp:77] Creating layer pool1
I0403 13:04:09.123929 10139 net.cpp:91] Creating Layer pool1
I0403 13:04:09.123946 10139 net.cpp:425] pool1 <- norm1
I0403 13:04:09.123967 10139 net.cpp:399] pool1 -> pool1
I0403 13:04:09.124042 10139 net.cpp:141] Setting up pool1
I0403 13:04:09.124065 10139 net.cpp:148] Top shape: 100 96 27 27 (6998400)
I0403 13:04:09.124081 10139 net.cpp:156] Memory required for data: 438310000
I0403 13:04:09.124096 10139 layer_factory.hpp:77] Creating layer conv2
I0403 13:04:09.124124 10139 net.cpp:91] Creating Layer conv2
I0403 13:04:09.124141 10139 net.cpp:425] conv2 <- pool1
I0403 13:04:09.124162 10139 net.cpp:399] conv2 -> conv2
I0403 13:04:09.139873 10139 net.cpp:141] Setting up conv2
I0403 13:04:09.139925 10139 net.cpp:148] Top shape: 100 256 27 27 (18662400)
I0403 13:04:09.139943 10139 net.cpp:156] Memory required for data: 512959600
I0403 13:04:09.139967 10139 layer_factory.hpp:77] Creating layer relu2
I0403 13:04:09.139987 10139 net.cpp:91] Creating Layer relu2
I0403 13:04:09.140003 10139 net.cpp:425] relu2 <- conv2
I0403 13:04:09.140022 10139 net.cpp:386] relu2 -> conv2 (in-place)
I0403 13:04:09.140311 10139 net.cpp:141] Setting up relu2
I0403 13:04:09.140339 10139 net.cpp:148] Top shape: 100 256 27 27 (18662400)
I0403 13:04:09.140355 10139 net.cpp:156] Memory required for data: 587609200
I0403 13:04:09.140372 10139 layer_factory.hpp:77] Creating layer norm2
I0403 13:04:09.140395 10139 net.cpp:91] Creating Layer norm2
I0403 13:04:09.140414 10139 net.cpp:425] norm2 <- conv2
I0403 13:04:09.140434 10139 net.cpp:399] norm2 -> norm2
I0403 13:04:09.140642 10139 net.cpp:141] Setting up norm2
I0403 13:04:09.140672 10139 net.cpp:148] Top shape: 100 256 27 27 (18662400)
I0403 13:04:09.140688 10139 net.cpp:156] Memory required for data: 662258800
I0403 13:04:09.140704 10139 layer_factory.hpp:77] Creating layer pool2
I0403 13:04:09.140723 10139 net.cpp:91] Creating Layer pool2
I0403 13:04:09.140739 10139 net.cpp:425] pool2 <- norm2
I0403 13:04:09.140756 10139 net.cpp:399] pool2 -> pool2
I0403 13:04:09.140812 10139 net.cpp:141] Setting up pool2
I0403 13:04:09.140836 10139 net.cpp:148] Top shape: 100 256 13 13 (4326400)
I0403 13:04:09.140853 10139 net.cpp:156] Memory required for data: 679564400
I0403 13:04:09.140868 10139 layer_factory.hpp:77] Creating layer conv3
I0403 13:04:09.140892 10139 net.cpp:91] Creating Layer conv3
I0403 13:04:09.140910 10139 net.cpp:425] conv3 <- pool2
I0403 13:04:09.140931 10139 net.cpp:399] conv3 -> conv3
I0403 13:04:09.181291 10139 net.cpp:141] Setting up conv3
I0403 13:04:09.181370 10139 net.cpp:148] Top shape: 100 384 13 13 (6489600)
I0403 13:04:09.181386 10139 net.cpp:156] Memory required for data: 705522800
I0403 13:04:09.181416 10139 layer_factory.hpp:77] Creating layer relu3
I0403 13:04:09.181440 10139 net.cpp:91] Creating Layer relu3
I0403 13:04:09.181457 10139 net.cpp:425] relu3 <- conv3
I0403 13:04:09.181480 10139 net.cpp:386] relu3 -> conv3 (in-place)
I0403 13:04:09.181774 10139 net.cpp:141] Setting up relu3
I0403 13:04:09.181804 10139 net.cpp:148] Top shape: 100 384 13 13 (6489600)
I0403 13:04:09.181821 10139 net.cpp:156] Memory required for data: 731481200
I0403 13:04:09.181838 10139 layer_factory.hpp:77] Creating layer conv4
I0403 13:04:09.181864 10139 net.cpp:91] Creating Layer conv4
I0403 13:04:09.181881 10139 net.cpp:425] conv4 <- conv3
I0403 13:04:09.181900 10139 net.cpp:399] conv4 -> conv4
I0403 13:04:09.213171 10139 net.cpp:141] Setting up conv4
I0403 13:04:09.213239 10139 net.cpp:148] Top shape: 100 384 13 13 (6489600)
I0403 13:04:09.213290 10139 net.cpp:156] Memory required for data: 757439600
I0403 13:04:09.213313 10139 layer_factory.hpp:77] Creating layer relu4
I0403 13:04:09.213337 10139 net.cpp:91] Creating Layer relu4
I0403 13:04:09.213356 10139 net.cpp:425] relu4 <- conv4
I0403 13:04:09.213376 10139 net.cpp:386] relu4 -> conv4 (in-place)
I0403 13:04:09.213696 10139 net.cpp:141] Setting up relu4
I0403 13:04:09.213723 10139 net.cpp:148] Top shape: 100 384 13 13 (6489600)
I0403 13:04:09.213738 10139 net.cpp:156] Memory required for data: 783398000
I0403 13:04:09.213753 10139 layer_factory.hpp:77] Creating layer conv5
I0403 13:04:09.213781 10139 net.cpp:91] Creating Layer conv5
I0403 13:04:09.213800 10139 net.cpp:425] conv5 <- conv4
I0403 13:04:09.213819 10139 net.cpp:399] conv5 -> conv5
I0403 13:04:09.235482 10139 net.cpp:141] Setting up conv5
I0403 13:04:09.235546 10139 net.cpp:148] Top shape: 100 256 13 13 (4326400)
I0403 13:04:09.235563 10139 net.cpp:156] Memory required for data: 800703600
I0403 13:04:09.235595 10139 layer_factory.hpp:77] Creating layer relu5
I0403 13:04:09.235617 10139 net.cpp:91] Creating Layer relu5
I0403 13:04:09.235635 10139 net.cpp:425] relu5 <- conv5
I0403 13:04:09.235653 10139 net.cpp:386] relu5 -> conv5 (in-place)
I0403 13:04:09.235941 10139 net.cpp:141] Setting up relu5
I0403 13:04:09.235971 10139 net.cpp:148] Top shape: 100 256 13 13 (4326400)
I0403 13:04:09.235987 10139 net.cpp:156] Memory required for data: 818009200
I0403 13:04:09.236002 10139 layer_factory.hpp:77] Creating layer pool5
I0403 13:04:09.236049 10139 net.cpp:91] Creating Layer pool5
I0403 13:04:09.236070 10139 net.cpp:425] pool5 <- conv5
I0403 13:04:09.236093 10139 net.cpp:399] pool5 -> pool5
I0403 13:04:09.236157 10139 net.cpp:141] Setting up pool5
I0403 13:04:09.236181 10139 net.cpp:148] Top shape: 100 256 6 6 (921600)
I0403 13:04:09.236196 10139 net.cpp:156] Memory required for data: 821695600
I0403 13:04:09.236212 10139 layer_factory.hpp:77] Creating layer fc6
I0403 13:04:09.236240 10139 net.cpp:91] Creating Layer fc6
I0403 13:04:09.236261 10139 net.cpp:425] fc6 <- pool5
I0403 13:04:09.236282 10139 net.cpp:399] fc6 -> fc6
I0403 13:04:10.827582 10139 net.cpp:141] Setting up fc6
I0403 13:04:10.827626 10139 net.cpp:148] Top shape: 100 4096 (409600)
I0403 13:04:10.827642 10139 net.cpp:156] Memory required for data: 823334000
I0403 13:04:10.827663 10139 layer_factory.hpp:77] Creating layer relu6
I0403 13:04:10.827688 10139 net.cpp:91] Creating Layer relu6
I0403 13:04:10.827707 10139 net.cpp:425] relu6 <- fc6
I0403 13:04:10.827724 10139 net.cpp:386] relu6 -> fc6 (in-place)
I0403 13:04:10.827940 10139 net.cpp:141] Setting up relu6
I0403 13:04:10.827967 10139 net.cpp:148] Top shape: 100 4096 (409600)
I0403 13:04:10.827982 10139 net.cpp:156] Memory required for data: 824972400
I0403 13:04:10.827996 10139 layer_factory.hpp:77] Creating layer drop6
I0403 13:04:10.828013 10139 net.cpp:91] Creating Layer drop6
I0403 13:04:10.828028 10139 net.cpp:425] drop6 <- fc6
I0403 13:04:10.828044 10139 net.cpp:386] drop6 -> fc6 (in-place)
I0403 13:04:10.828095 10139 net.cpp:141] Setting up drop6
I0403 13:04:10.828117 10139 net.cpp:148] Top shape: 100 4096 (409600)
I0403 13:04:10.828132 10139 net.cpp:156] Memory required for data: 826610800
I0403 13:04:10.828146 10139 layer_factory.hpp:77] Creating layer fc7
I0403 13:04:10.828169 10139 net.cpp:91] Creating Layer fc7
I0403 13:04:10.828186 10139 net.cpp:425] fc7 <- fc6
I0403 13:04:10.828202 10139 net.cpp:399] fc7 -> fc7
I0403 13:04:11.528002 10139 net.cpp:141] Setting up fc7
I0403 13:04:11.528040 10139 net.cpp:148] Top shape: 100 4096 (409600)
I0403 13:04:11.528056 10139 net.cpp:156] Memory required for data: 828249200
I0403 13:04:11.528075 10139 layer_factory.hpp:77] Creating layer relu7
I0403 13:04:11.528100 10139 net.cpp:91] Creating Layer relu7
I0403 13:04:11.528117 10139 net.cpp:425] relu7 <- fc7
I0403 13:04:11.528136 10139 net.cpp:386] relu7 -> fc7 (in-place)
I0403 13:04:11.528528 10139 net.cpp:141] Setting up relu7
I0403 13:04:11.528555 10139 net.cpp:148] Top shape: 100 4096 (409600)
I0403 13:04:11.528614 10139 net.cpp:156] Memory required for data: 829887600
I0403 13:04:11.528630 10139 layer_factory.hpp:77] Creating layer drop7
I0403 13:04:11.528648 10139 net.cpp:91] Creating Layer drop7
I0403 13:04:11.528663 10139 net.cpp:425] drop7 <- fc7
I0403 13:04:11.528679 10139 net.cpp:386] drop7 -> fc7 (in-place)
I0403 13:04:11.528723 10139 net.cpp:141] Setting up drop7
I0403 13:04:11.528744 10139 net.cpp:148] Top shape: 100 4096 (409600)
I0403 13:04:11.528758 10139 net.cpp:156] Memory required for data: 831526000
I0403 13:04:11.528771 10139 layer_factory.hpp:77] Creating layer fc8_plantvillage
I0403 13:04:11.528792 10139 net.cpp:91] Creating Layer fc8_plantvillage
I0403 13:04:11.528820 10139 net.cpp:425] fc8_plantvillage <- fc7
I0403 13:04:11.528837 10139 net.cpp:399] fc8_plantvillage -> fc8_plantvillage
I0403 13:04:11.535653 10139 net.cpp:141] Setting up fc8_plantvillage
I0403 13:04:11.535681 10139 net.cpp:148] Top shape: 100 38 (3800)
I0403 13:04:11.535696 10139 net.cpp:156] Memory required for data: 831541200
I0403 13:04:11.535713 10139 layer_factory.hpp:77] Creating layer fc8_plantvillage_fc8_plantvillage_0_split
I0403 13:04:11.535732 10139 net.cpp:91] Creating Layer fc8_plantvillage_fc8_plantvillage_0_split
I0403 13:04:11.535745 10139 net.cpp:425] fc8_plantvillage_fc8_plantvillage_0_split <- fc8_plantvillage
I0403 13:04:11.535763 10139 net.cpp:399] fc8_plantvillage_fc8_plantvillage_0_split -> fc8_plantvillage_fc8_plantvillage_0_split_0
I0403 13:04:11.535784 10139 net.cpp:399] fc8_plantvillage_fc8_plantvillage_0_split -> fc8_plantvillage_fc8_plantvillage_0_split_1
I0403 13:04:11.535804 10139 net.cpp:399] fc8_plantvillage_fc8_plantvillage_0_split -> fc8_plantvillage_fc8_plantvillage_0_split_2
I0403 13:04:11.535876 10139 net.cpp:141] Setting up fc8_plantvillage_fc8_plantvillage_0_split
I0403 13:04:11.535899 10139 net.cpp:148] Top shape: 100 38 (3800)
I0403 13:04:11.535914 10139 net.cpp:148] Top shape: 100 38 (3800)
I0403 13:04:11.535928 10139 net.cpp:148] Top shape: 100 38 (3800)
I0403 13:04:11.535941 10139 net.cpp:156] Memory required for data: 831586800
I0403 13:04:11.535956 10139 layer_factory.hpp:77] Creating layer prob
I0403 13:04:11.535974 10139 net.cpp:91] Creating Layer prob
I0403 13:04:11.535987 10139 net.cpp:425] prob <- fc8_plantvillage_fc8_plantvillage_0_split_0
I0403 13:04:11.536005 10139 net.cpp:399] prob -> prob
I0403 13:04:11.536218 10139 net.cpp:141] Setting up prob
I0403 13:04:11.536242 10139 net.cpp:148] Top shape: 100 38 (3800)
I0403 13:04:11.536257 10139 net.cpp:156] Memory required for data: 831602000
I0403 13:04:11.536272 10139 layer_factory.hpp:77] Creating layer hdf5out
I0403 13:04:11.536293 10139 net.cpp:91] Creating Layer hdf5out
I0403 13:04:11.536309 10139 net.cpp:425] hdf5out <- prob
I0403 13:04:11.536324 10139 net.cpp:425] hdf5out <- label_data_1_split_0
I0403 13:04:11.538924 10139 net.cpp:141] Setting up hdf5out
…
