…
I0403 12:49:48.153250  9721 net.cpp:313] The NetState phase (1) differed from the phase (0) specified by a rule in layer data
I0403 12:49:48.153563  9721 net.cpp:49] Initializing net from parameters: 
state {
  phase: TEST
}
layer {
  name: "data"
  type: "Data"
  top: "data"
  top: "label"
  include {
    phase: TEST
  }
  transform_param {
    crop_size: 227
    mean_file: "/home/mohanty/data/final_dataset/lmdb/segmented-50-50/mean.binaryproto"
  }
  data_param {
    source: "/home/mohanty/data/final_dataset/lmdb/segmented-50-50/test_db"
    batch_size: 100
    backend: LMDB
  }
}
layer {
  name: "conv1"
  type: "Convolution"
  bottom: "data"
  top: "conv1"
  param {
    lr_mult: 1
    decay_mult: 1
  }
  param {
    lr_mult: 2
    decay_mult: 0
  }
  convolution_param {
    num_output: 96
    kernel_size: 11
    stride: 4
    weight_filler {
      type: "gaussian"
      std: 0.01
    }
    bias_filler {
      type: "constant"
      value: 0
    }
  }
}
layer {
  name: "relu1"
  type: "ReLU"
  bottom: "conv1"
  top: "conv1"
}
layer {
  name: "norm1"
  type: "LRN"
  bottom: "conv1"
  top: "norm1"
  lrn_param {
    local_size: 5
    alpha: 0.0001
    beta: 0.75
  }
}
layer {
  name: "pool1"
  type: "Pooling"
  bottom: "norm1"
  top: "pool1"
  pooling_param {
    pool: MAX
    kernel_size: 3
    stride: 2
  }
}
layer {
  name: "conv2"
  type: "Convolution"
  bottom: "pool1"
  top: "conv2"
  param {
    lr_mult: 1
    decay_mult: 1
  }
  param {
    lr_mult: 2
    decay_mult: 0
  }
  convolution_param {
    num_output: 256
    pad: 2
    kernel_size: 5
    group: 2
    weight_filler {
      type: "gaussian"
      std: 0.01
    }
    bias_filler {
      type: "constant"
      value: 0.1
    }
  }
}
layer {
  name: "relu2"
  type: "ReLU"
  bottom: "conv2"
  top: "conv2"
}
layer {
  name: "norm2"
  type: "LRN"
  bottom: "conv2"
  top: "norm2"
  lrn_param {
    local_size: 5
    alpha: 0.0001
    beta: 0.75
  }
}
layer {
  name: "pool2"
  type: "Pooling"
  bottom: "norm2"
  top: "pool2"
  pooling_param {
    pool: MAX
    kernel_size: 3
    stride: 2
  }
}
layer {
  name: "conv3"
  type: "Convolution"
  bottom: "pool2"
  top: "conv3"
  param {
    lr_mult: 1
    decay_mult: 1
  }
  param {
    lr_mult: 2
    decay_mult: 0
  }
  convolution_param {
    num_output: 384
    pad: 1
    kernel_size: 3
    weight_filler {
      type: "gaussian"
      std: 0.01
    }
    bias_filler {
      type: "constant"
      value: 0
    }
  }
}
layer {
  name: "relu3"
  type: "ReLU"
  bottom: "conv3"
  top: "conv3"
}
layer {
  name: "conv4"
  type: "Convolution"
  bottom: "conv3"
  top: "conv4"
  param {
    lr_mult: 1
    decay_mult: 1
  }
  param {
    lr_mult: 2
    decay_mult: 0
  }
  convolution_param {
    num_output: 384
    pad: 1
    kernel_size: 3
    group: 2
    weight_filler {
      type: "gaussian"
      std: 0.01
    }
    bias_filler {
      type: "constant"
      value: 0.1
    }
  }
}
layer {
  name: "relu4"
  type: "ReLU"
  bottom: "conv4"
  top: "conv4"
}
layer {
  name: "conv5"
  type: "Convolution"
  bottom: "conv4"
  top: "conv5"
  param {
    lr_mult: 1
    decay_mult: 1
  }
  param {
    lr_mult: 2
    decay_mult: 0
  }
  convolution_param {
    num_output: 256
    pad: 1
    kernel_size: 3
    group: 2
    weight_filler {
      type: "gaussian"
      std: 0.01
    }
    bias_filler {
      type: "constant"
      value: 0.1
    }
  }
}
layer {
  name: "relu5"
  type: "ReLU"
  bottom: "conv5"
  top: "conv5"
}
layer {
  name: "pool5"
  type: "Pooling"
  bottom: "conv5"
  top: "pool5"
  pooling_param {
    pool: MAX
    kernel_size: 3
    stride: 2
  }
}
layer {
  name: "fc6"
  type: "InnerProduct"
  bottom: "pool5"
  top: "fc6"
  param {
    lr_mult: 1
    decay_mult: 1
  }
  param {
    lr_mult: 2
    decay_mult: 0
  }
  inner_product_param {
    num_output: 4096
    weight_filler {
      type: "gaussian"
      std: 0.005
    }
    bias_filler {
      type: "constant"
      value: 0.1
    }
  }
}
layer {
  name: "relu6"
  type: "ReLU"
  bottom: "fc6"
  top: "fc6"
}
layer {
  name: "drop6"
  type: "Dropout"
  bottom: "fc6"
  top: "fc6"
  dropout_param {
    dropout_ratio: 0.5
  }
}
layer {
  name: "fc7"
  type: "InnerProduct"
  bottom: "fc6"
  top: "fc7"
  param {
    lr_mult: 1
    decay_mult: 1
  }
  param {
    lr_mult: 2
    decay_mult: 0
  }
  inner_product_param {
    num_output: 4096
    weight_filler {
      type: "gaussian"
      std: 0.005
    }
    bias_filler {
      type: "constant"
      value: 0.1
    }
  }
}
layer {
  name: "relu7"
  type: "ReLU"
  bottom: "fc7"
  top: "fc7"
}
layer {
  name: "drop7"
  type: "Dropout"
  bottom: "fc7"
  top: "fc7"
  dropout_param {
    dropout_ratio: 0.5
  }
}
layer {
  name: "fc8_plantvillage"
  type: "InnerProduct"
  bottom: "fc7"
  top: "fc8_plantvillage"
  param {
    lr_mult: 1
    decay_mult: 1
  }
  param {
    lr_mult: 2
    decay_mult: 0
  }
  inner_product_param {
    num_output: 38
    weight_filler {
      type: "gaussian"
      std: 0.01
    }
    bias_filler {
      type: "constant"
      value: 0
    }
  }
}
layer {
  name: "prob"
  type: "Softmax"
  bottom: "fc8_plantvillage"
  top: "prob"
  include {
    phase: TEST
  }
}
layer {
  name: "hdf5out"
  type: "HDF5Output"
  bottom: "prob"
  bottom: "label"
  include {
    phase: TEST
  }
  hdf5_output_param {
    file_name: "hdf5_dumps/iter_2412.h5"
  }
}
layer {
  name: "loss"
  type: "SoftmaxWithLoss"
  bottom: "fc8_plantvillage"
  bottom: "label"
  top: "loss"
}
layer {
  name: "accuracy"
  type: "Accuracy"
  bottom: "fc8_plantvillage"
  bottom: "label"
  top: "accuracy"
  include {
    phase: TEST
  }
}
I0403 12:49:48.154146  9721 layer_factory.hpp:77] Creating layer data
I0403 12:49:48.154840  9721 net.cpp:91] Creating Layer data
I0403 12:49:48.154873  9721 net.cpp:399] data -> data
I0403 12:49:48.154924  9721 net.cpp:399] data -> label
I0403 12:49:48.154961  9721 data_transformer.cpp:25] Loading mean file from: /home/mohanty/data/final_dataset/lmdb/segmented-50-50/mean.binaryproto
I0403 12:49:48.157804  9725 db_lmdb.cpp:38] Opened lmdb /home/mohanty/data/final_dataset/lmdb/segmented-50-50/test_db
I0403 12:49:48.169385  9721 data_layer.cpp:41] output data size: 100,3,227,227
I0403 12:49:48.291165  9721 net.cpp:141] Setting up data
I0403 12:49:48.291263  9721 net.cpp:148] Top shape: 100 3 227 227 (15458700)
I0403 12:49:48.291286  9721 net.cpp:148] Top shape: 100 (100)
I0403 12:49:48.291303  9721 net.cpp:156] Memory required for data: 61835200
I0403 12:49:48.291334  9721 layer_factory.hpp:77] Creating layer label_data_1_split
I0403 12:49:48.291360  9721 net.cpp:91] Creating Layer label_data_1_split
I0403 12:49:48.291378  9721 net.cpp:425] label_data_1_split <- label
I0403 12:49:48.291414  9721 net.cpp:399] label_data_1_split -> label_data_1_split_0
I0403 12:49:48.291440  9721 net.cpp:399] label_data_1_split -> label_data_1_split_1
I0403 12:49:48.291460  9721 net.cpp:399] label_data_1_split -> label_data_1_split_2
I0403 12:49:48.291524  9721 net.cpp:141] Setting up label_data_1_split
I0403 12:49:48.291548  9721 net.cpp:148] Top shape: 100 (100)
I0403 12:49:48.291566  9721 net.cpp:148] Top shape: 100 (100)
I0403 12:49:48.291582  9721 net.cpp:148] Top shape: 100 (100)
I0403 12:49:48.291596  9721 net.cpp:156] Memory required for data: 61836400
I0403 12:49:48.291617  9721 layer_factory.hpp:77] Creating layer conv1
I0403 12:49:48.291651  9721 net.cpp:91] Creating Layer conv1
I0403 12:49:48.291669  9721 net.cpp:425] conv1 <- data
I0403 12:49:48.291689  9721 net.cpp:399] conv1 -> conv1
I0403 12:49:48.435945  9721 net.cpp:141] Setting up conv1
I0403 12:49:48.436049  9721 net.cpp:148] Top shape: 100 96 55 55 (29040000)
I0403 12:49:48.436069  9721 net.cpp:156] Memory required for data: 177996400
I0403 12:49:48.436101  9721 layer_factory.hpp:77] Creating layer relu1
I0403 12:49:48.436131  9721 net.cpp:91] Creating Layer relu1
I0403 12:49:48.436149  9721 net.cpp:425] relu1 <- conv1
I0403 12:49:48.436169  9721 net.cpp:386] relu1 -> conv1 (in-place)
I0403 12:49:48.436434  9721 net.cpp:141] Setting up relu1
I0403 12:49:48.436465  9721 net.cpp:148] Top shape: 100 96 55 55 (29040000)
I0403 12:49:48.436520  9721 net.cpp:156] Memory required for data: 294156400
I0403 12:49:48.436537  9721 layer_factory.hpp:77] Creating layer norm1
I0403 12:49:48.436565  9721 net.cpp:91] Creating Layer norm1
I0403 12:49:48.436583  9721 net.cpp:425] norm1 <- conv1
I0403 12:49:48.436605  9721 net.cpp:399] norm1 -> norm1
I0403 12:49:48.436925  9721 net.cpp:141] Setting up norm1
I0403 12:49:48.436954  9721 net.cpp:148] Top shape: 100 96 55 55 (29040000)
I0403 12:49:48.436970  9721 net.cpp:156] Memory required for data: 410316400
I0403 12:49:48.436986  9721 layer_factory.hpp:77] Creating layer pool1
I0403 12:49:48.437011  9721 net.cpp:91] Creating Layer pool1
I0403 12:49:48.437029  9721 net.cpp:425] pool1 <- norm1
I0403 12:49:48.437048  9721 net.cpp:399] pool1 -> pool1
I0403 12:49:48.437116  9721 net.cpp:141] Setting up pool1
I0403 12:49:48.437141  9721 net.cpp:148] Top shape: 100 96 27 27 (6998400)
I0403 12:49:48.437157  9721 net.cpp:156] Memory required for data: 438310000
I0403 12:49:48.437172  9721 layer_factory.hpp:77] Creating layer conv2
I0403 12:49:48.437197  9721 net.cpp:91] Creating Layer conv2
I0403 12:49:48.437214  9721 net.cpp:425] conv2 <- pool1
I0403 12:49:48.437232  9721 net.cpp:399] conv2 -> conv2
I0403 12:49:48.452915  9721 net.cpp:141] Setting up conv2
I0403 12:49:48.452972  9721 net.cpp:148] Top shape: 100 256 27 27 (18662400)
I0403 12:49:48.452991  9721 net.cpp:156] Memory required for data: 512959600
I0403 12:49:48.453017  9721 layer_factory.hpp:77] Creating layer relu2
I0403 12:49:48.453040  9721 net.cpp:91] Creating Layer relu2
I0403 12:49:48.453058  9721 net.cpp:425] relu2 <- conv2
I0403 12:49:48.453076  9721 net.cpp:386] relu2 -> conv2 (in-place)
I0403 12:49:48.453366  9721 net.cpp:141] Setting up relu2
I0403 12:49:48.453397  9721 net.cpp:148] Top shape: 100 256 27 27 (18662400)
I0403 12:49:48.453413  9721 net.cpp:156] Memory required for data: 587609200
I0403 12:49:48.453429  9721 layer_factory.hpp:77] Creating layer norm2
I0403 12:49:48.453451  9721 net.cpp:91] Creating Layer norm2
I0403 12:49:48.453469  9721 net.cpp:425] norm2 <- conv2
I0403 12:49:48.453488  9721 net.cpp:399] norm2 -> norm2
I0403 12:49:48.453701  9721 net.cpp:141] Setting up norm2
I0403 12:49:48.453729  9721 net.cpp:148] Top shape: 100 256 27 27 (18662400)
I0403 12:49:48.453745  9721 net.cpp:156] Memory required for data: 662258800
I0403 12:49:48.453760  9721 layer_factory.hpp:77] Creating layer pool2
I0403 12:49:48.453781  9721 net.cpp:91] Creating Layer pool2
I0403 12:49:48.453799  9721 net.cpp:425] pool2 <- norm2
I0403 12:49:48.453816  9721 net.cpp:399] pool2 -> pool2
I0403 12:49:48.453872  9721 net.cpp:141] Setting up pool2
I0403 12:49:48.453897  9721 net.cpp:148] Top shape: 100 256 13 13 (4326400)
I0403 12:49:48.453912  9721 net.cpp:156] Memory required for data: 679564400
I0403 12:49:48.453927  9721 layer_factory.hpp:77] Creating layer conv3
I0403 12:49:48.453951  9721 net.cpp:91] Creating Layer conv3
I0403 12:49:48.453969  9721 net.cpp:425] conv3 <- pool2
I0403 12:49:48.453994  9721 net.cpp:399] conv3 -> conv3
I0403 12:49:48.494040  9721 net.cpp:141] Setting up conv3
I0403 12:49:48.494082  9721 net.cpp:148] Top shape: 100 384 13 13 (6489600)
I0403 12:49:48.494101  9721 net.cpp:156] Memory required for data: 705522800
I0403 12:49:48.494124  9721 layer_factory.hpp:77] Creating layer relu3
I0403 12:49:48.494151  9721 net.cpp:91] Creating Layer relu3
I0403 12:49:48.494169  9721 net.cpp:425] relu3 <- conv3
I0403 12:49:48.494189  9721 net.cpp:386] relu3 -> conv3 (in-place)
I0403 12:49:48.494488  9721 net.cpp:141] Setting up relu3
I0403 12:49:48.494515  9721 net.cpp:148] Top shape: 100 384 13 13 (6489600)
I0403 12:49:48.494531  9721 net.cpp:156] Memory required for data: 731481200
I0403 12:49:48.494546  9721 layer_factory.hpp:77] Creating layer conv4
I0403 12:49:48.494572  9721 net.cpp:91] Creating Layer conv4
I0403 12:49:48.494592  9721 net.cpp:425] conv4 <- conv3
I0403 12:49:48.494624  9721 net.cpp:399] conv4 -> conv4
I0403 12:49:48.525084  9721 net.cpp:141] Setting up conv4
I0403 12:49:48.525154  9721 net.cpp:148] Top shape: 100 384 13 13 (6489600)
I0403 12:49:48.525212  9721 net.cpp:156] Memory required for data: 757439600
I0403 12:49:48.525233  9721 layer_factory.hpp:77] Creating layer relu4
I0403 12:49:48.525259  9721 net.cpp:91] Creating Layer relu4
I0403 12:49:48.525276  9721 net.cpp:425] relu4 <- conv4
I0403 12:49:48.525306  9721 net.cpp:386] relu4 -> conv4 (in-place)
I0403 12:49:48.525581  9721 net.cpp:141] Setting up relu4
I0403 12:49:48.525611  9721 net.cpp:148] Top shape: 100 384 13 13 (6489600)
I0403 12:49:48.525627  9721 net.cpp:156] Memory required for data: 783398000
I0403 12:49:48.525642  9721 layer_factory.hpp:77] Creating layer conv5
I0403 12:49:48.525668  9721 net.cpp:91] Creating Layer conv5
I0403 12:49:48.525686  9721 net.cpp:425] conv5 <- conv4
I0403 12:49:48.525706  9721 net.cpp:399] conv5 -> conv5
I0403 12:49:48.546694  9721 net.cpp:141] Setting up conv5
I0403 12:49:48.546751  9721 net.cpp:148] Top shape: 100 256 13 13 (4326400)
I0403 12:49:48.546767  9721 net.cpp:156] Memory required for data: 800703600
I0403 12:49:48.546795  9721 layer_factory.hpp:77] Creating layer relu5
I0403 12:49:48.546818  9721 net.cpp:91] Creating Layer relu5
I0403 12:49:48.546836  9721 net.cpp:425] relu5 <- conv5
I0403 12:49:48.546854  9721 net.cpp:386] relu5 -> conv5 (in-place)
I0403 12:49:48.547137  9721 net.cpp:141] Setting up relu5
I0403 12:49:48.547165  9721 net.cpp:148] Top shape: 100 256 13 13 (4326400)
I0403 12:49:48.547181  9721 net.cpp:156] Memory required for data: 818009200
I0403 12:49:48.547196  9721 layer_factory.hpp:77] Creating layer pool5
I0403 12:49:48.547221  9721 net.cpp:91] Creating Layer pool5
I0403 12:49:48.547238  9721 net.cpp:425] pool5 <- conv5
I0403 12:49:48.547257  9721 net.cpp:399] pool5 -> pool5
I0403 12:49:48.547322  9721 net.cpp:141] Setting up pool5
I0403 12:49:48.547344  9721 net.cpp:148] Top shape: 100 256 6 6 (921600)
I0403 12:49:48.547360  9721 net.cpp:156] Memory required for data: 821695600
I0403 12:49:48.547374  9721 layer_factory.hpp:77] Creating layer fc6
I0403 12:49:48.547404  9721 net.cpp:91] Creating Layer fc6
I0403 12:49:48.547421  9721 net.cpp:425] fc6 <- pool5
I0403 12:49:48.547442  9721 net.cpp:399] fc6 -> fc6
I0403 12:49:50.106362  9721 net.cpp:141] Setting up fc6
I0403 12:49:50.106438  9721 net.cpp:148] Top shape: 100 4096 (409600)
I0403 12:49:50.106456  9721 net.cpp:156] Memory required for data: 823334000
I0403 12:49:50.106477  9721 layer_factory.hpp:77] Creating layer relu6
I0403 12:49:50.106498  9721 net.cpp:91] Creating Layer relu6
I0403 12:49:50.106516  9721 net.cpp:425] relu6 <- fc6
I0403 12:49:50.106537  9721 net.cpp:386] relu6 -> fc6 (in-place)
I0403 12:49:50.106760  9721 net.cpp:141] Setting up relu6
I0403 12:49:50.106786  9721 net.cpp:148] Top shape: 100 4096 (409600)
I0403 12:49:50.106801  9721 net.cpp:156] Memory required for data: 824972400
I0403 12:49:50.106817  9721 layer_factory.hpp:77] Creating layer drop6
I0403 12:49:50.106837  9721 net.cpp:91] Creating Layer drop6
I0403 12:49:50.106853  9721 net.cpp:425] drop6 <- fc6
I0403 12:49:50.106869  9721 net.cpp:386] drop6 -> fc6 (in-place)
I0403 12:49:50.106922  9721 net.cpp:141] Setting up drop6
I0403 12:49:50.106946  9721 net.cpp:148] Top shape: 100 4096 (409600)
I0403 12:49:50.106961  9721 net.cpp:156] Memory required for data: 826610800
I0403 12:49:50.106974  9721 layer_factory.hpp:77] Creating layer fc7
I0403 12:49:50.106993  9721 net.cpp:91] Creating Layer fc7
I0403 12:49:50.107009  9721 net.cpp:425] fc7 <- fc6
I0403 12:49:50.107028  9721 net.cpp:399] fc7 -> fc7
I0403 12:49:50.789985  9721 net.cpp:141] Setting up fc7
I0403 12:49:50.790060  9721 net.cpp:148] Top shape: 100 4096 (409600)
I0403 12:49:50.790076  9721 net.cpp:156] Memory required for data: 828249200
I0403 12:49:50.790097  9721 layer_factory.hpp:77] Creating layer relu7
I0403 12:49:50.790122  9721 net.cpp:91] Creating Layer relu7
I0403 12:49:50.790140  9721 net.cpp:425] relu7 <- fc7
I0403 12:49:50.790159  9721 net.cpp:386] relu7 -> fc7 (in-place)
I0403 12:49:50.790577  9721 net.cpp:141] Setting up relu7
I0403 12:49:50.790607  9721 net.cpp:148] Top shape: 100 4096 (409600)
I0403 12:49:50.790662  9721 net.cpp:156] Memory required for data: 829887600
I0403 12:49:50.790678  9721 layer_factory.hpp:77] Creating layer drop7
I0403 12:49:50.790699  9721 net.cpp:91] Creating Layer drop7
I0403 12:49:50.790716  9721 net.cpp:425] drop7 <- fc7
I0403 12:49:50.790732  9721 net.cpp:386] drop7 -> fc7 (in-place)
I0403 12:49:50.790778  9721 net.cpp:141] Setting up drop7
I0403 12:49:50.790802  9721 net.cpp:148] Top shape: 100 4096 (409600)
I0403 12:49:50.790817  9721 net.cpp:156] Memory required for data: 831526000
I0403 12:49:50.790832  9721 layer_factory.hpp:77] Creating layer fc8_plantvillage
I0403 12:49:50.790850  9721 net.cpp:91] Creating Layer fc8_plantvillage
I0403 12:49:50.790865  9721 net.cpp:425] fc8_plantvillage <- fc7
I0403 12:49:50.790886  9721 net.cpp:399] fc8_plantvillage -> fc8_plantvillage
I0403 12:49:50.797608  9721 net.cpp:141] Setting up fc8_plantvillage
I0403 12:49:50.797638  9721 net.cpp:148] Top shape: 100 38 (3800)
I0403 12:49:50.797655  9721 net.cpp:156] Memory required for data: 831541200
I0403 12:49:50.797673  9721 layer_factory.hpp:77] Creating layer fc8_plantvillage_fc8_plantvillage_0_split
I0403 12:49:50.797693  9721 net.cpp:91] Creating Layer fc8_plantvillage_fc8_plantvillage_0_split
I0403 12:49:50.797706  9721 net.cpp:425] fc8_plantvillage_fc8_plantvillage_0_split <- fc8_plantvillage
I0403 12:49:50.797724  9721 net.cpp:399] fc8_plantvillage_fc8_plantvillage_0_split -> fc8_plantvillage_fc8_plantvillage_0_split_0
I0403 12:49:50.797742  9721 net.cpp:399] fc8_plantvillage_fc8_plantvillage_0_split -> fc8_plantvillage_fc8_plantvillage_0_split_1
I0403 12:49:50.797762  9721 net.cpp:399] fc8_plantvillage_fc8_plantvillage_0_split -> fc8_plantvillage_fc8_plantvillage_0_split_2
I0403 12:49:50.797838  9721 net.cpp:141] Setting up fc8_plantvillage_fc8_plantvillage_0_split
I0403 12:49:50.797862  9721 net.cpp:148] Top shape: 100 38 (3800)
I0403 12:49:50.797878  9721 net.cpp:148] Top shape: 100 38 (3800)
I0403 12:49:50.797894  9721 net.cpp:148] Top shape: 100 38 (3800)
I0403 12:49:50.797909  9721 net.cpp:156] Memory required for data: 831586800
I0403 12:49:50.797922  9721 layer_factory.hpp:77] Creating layer prob
I0403 12:49:50.797940  9721 net.cpp:91] Creating Layer prob
I0403 12:49:50.797955  9721 net.cpp:425] prob <- fc8_plantvillage_fc8_plantvillage_0_split_0
I0403 12:49:50.797972  9721 net.cpp:399] prob -> prob
I0403 12:49:50.798197  9721 net.cpp:141] Setting up prob
I0403 12:49:50.798221  9721 net.cpp:148] Top shape: 100 38 (3800)
I0403 12:49:50.798238  9721 net.cpp:156] Memory required for data: 831602000
I0403 12:49:50.798252  9721 layer_factory.hpp:77] Creating layer hdf5out
I0403 12:49:50.798274  9721 net.cpp:91] Creating Layer hdf5out
I0403 12:49:50.798291  9721 net.cpp:425] hdf5out <- prob
I0403 12:49:50.798307  9721 net.cpp:425] hdf5out <- label_data_1_split_0
I0403 12:49:50.800943  9721 net.cpp:141] Setting up hdf5out
…
