…
I0403 12:51:29.021164  9769 net.cpp:313] The NetState phase (1) differed from the phase (0) specified by a rule in layer data
I0403 12:51:29.021447  9769 net.cpp:49] Initializing net from parameters: 
state {
  phase: TEST
}
layer {
  name: "data"
  type: "Data"
  top: "data"
  top: "label"
  include {
    phase: TEST
  }
  transform_param {
    crop_size: 227
    mean_file: "/home/mohanty/data/final_dataset/lmdb/segmented-50-50/mean.binaryproto"
  }
  data_param {
    source: "/home/mohanty/data/final_dataset/lmdb/segmented-50-50/test_db"
    batch_size: 100
    backend: LMDB
  }
}
layer {
  name: "conv1"
  type: "Convolution"
  bottom: "data"
  top: "conv1"
  param {
    lr_mult: 1
    decay_mult: 1
  }
  param {
    lr_mult: 2
    decay_mult: 0
  }
  convolution_param {
    num_output: 96
    kernel_size: 11
    stride: 4
    weight_filler {
      type: "gaussian"
      std: 0.01
    }
    bias_filler {
      type: "constant"
      value: 0
    }
  }
}
layer {
  name: "relu1"
  type: "ReLU"
  bottom: "conv1"
  top: "conv1"
}
layer {
  name: "norm1"
  type: "LRN"
  bottom: "conv1"
  top: "norm1"
  lrn_param {
    local_size: 5
    alpha: 0.0001
    beta: 0.75
  }
}
layer {
  name: "pool1"
  type: "Pooling"
  bottom: "norm1"
  top: "pool1"
  pooling_param {
    pool: MAX
    kernel_size: 3
    stride: 2
  }
}
layer {
  name: "conv2"
  type: "Convolution"
  bottom: "pool1"
  top: "conv2"
  param {
    lr_mult: 1
    decay_mult: 1
  }
  param {
    lr_mult: 2
    decay_mult: 0
  }
  convolution_param {
    num_output: 256
    pad: 2
    kernel_size: 5
    group: 2
    weight_filler {
      type: "gaussian"
      std: 0.01
    }
    bias_filler {
      type: "constant"
      value: 0.1
    }
  }
}
layer {
  name: "relu2"
  type: "ReLU"
  bottom: "conv2"
  top: "conv2"
}
layer {
  name: "norm2"
  type: "LRN"
  bottom: "conv2"
  top: "norm2"
  lrn_param {
    local_size: 5
    alpha: 0.0001
    beta: 0.75
  }
}
layer {
  name: "pool2"
  type: "Pooling"
  bottom: "norm2"
  top: "pool2"
  pooling_param {
    pool: MAX
    kernel_size: 3
    stride: 2
  }
}
layer {
  name: "conv3"
  type: "Convolution"
  bottom: "pool2"
  top: "conv3"
  param {
    lr_mult: 1
    decay_mult: 1
  }
  param {
    lr_mult: 2
    decay_mult: 0
  }
  convolution_param {
    num_output: 384
    pad: 1
    kernel_size: 3
    weight_filler {
      type: "gaussian"
      std: 0.01
    }
    bias_filler {
      type: "constant"
      value: 0
    }
  }
}
layer {
  name: "relu3"
  type: "ReLU"
  bottom: "conv3"
  top: "conv3"
}
layer {
  name: "conv4"
  type: "Convolution"
  bottom: "conv3"
  top: "conv4"
  param {
    lr_mult: 1
    decay_mult: 1
  }
  param {
    lr_mult: 2
    decay_mult: 0
  }
  convolution_param {
    num_output: 384
    pad: 1
    kernel_size: 3
    group: 2
    weight_filler {
      type: "gaussian"
      std: 0.01
    }
    bias_filler {
      type: "constant"
      value: 0.1
    }
  }
}
layer {
  name: "relu4"
  type: "ReLU"
  bottom: "conv4"
  top: "conv4"
}
layer {
  name: "conv5"
  type: "Convolution"
  bottom: "conv4"
  top: "conv5"
  param {
    lr_mult: 1
    decay_mult: 1
  }
  param {
    lr_mult: 2
    decay_mult: 0
  }
  convolution_param {
    num_output: 256
    pad: 1
    kernel_size: 3
    group: 2
    weight_filler {
      type: "gaussian"
      std: 0.01
    }
    bias_filler {
      type: "constant"
      value: 0.1
    }
  }
}
layer {
  name: "relu5"
  type: "ReLU"
  bottom: "conv5"
  top: "conv5"
}
layer {
  name: "pool5"
  type: "Pooling"
  bottom: "conv5"
  top: "pool5"
  pooling_param {
    pool: MAX
    kernel_size: 3
    stride: 2
  }
}
layer {
  name: "fc6"
  type: "InnerProduct"
  bottom: "pool5"
  top: "fc6"
  param {
    lr_mult: 1
    decay_mult: 1
  }
  param {
    lr_mult: 2
    decay_mult: 0
  }
  inner_product_param {
    num_output: 4096
    weight_filler {
      type: "gaussian"
      std: 0.005
    }
    bias_filler {
      type: "constant"
      value: 0.1
    }
  }
}
layer {
  name: "relu6"
  type: "ReLU"
  bottom: "fc6"
  top: "fc6"
}
layer {
  name: "drop6"
  type: "Dropout"
  bottom: "fc6"
  top: "fc6"
  dropout_param {
    dropout_ratio: 0.5
  }
}
layer {
  name: "fc7"
  type: "InnerProduct"
  bottom: "fc6"
  top: "fc7"
  param {
    lr_mult: 1
    decay_mult: 1
  }
  param {
    lr_mult: 2
    decay_mult: 0
  }
  inner_product_param {
    num_output: 4096
    weight_filler {
      type: "gaussian"
      std: 0.005
    }
    bias_filler {
      type: "constant"
      value: 0.1
    }
  }
}
layer {
  name: "relu7"
  type: "ReLU"
  bottom: "fc7"
  top: "fc7"
}
layer {
  name: "drop7"
  type: "Dropout"
  bottom: "fc7"
  top: "fc7"
  dropout_param {
    dropout_ratio: 0.5
  }
}
layer {
  name: "fc8_plantvillage"
  type: "InnerProduct"
  bottom: "fc7"
  top: "fc8_plantvillage"
  param {
    lr_mult: 1
    decay_mult: 1
  }
  param {
    lr_mult: 2
    decay_mult: 0
  }
  inner_product_param {
    num_output: 38
    weight_filler {
      type: "gaussian"
      std: 0.01
    }
    bias_filler {
      type: "constant"
      value: 0
    }
  }
}
layer {
  name: "prob"
  type: "Softmax"
  bottom: "fc8_plantvillage"
  top: "prob"
  include {
    phase: TEST
  }
}
layer {
  name: "hdf5out"
  type: "HDF5Output"
  bottom: "prob"
  bottom: "label"
  include {
    phase: TEST
  }
  hdf5_output_param {
    file_name: "hdf5_dumps/iter_2948.h5"
  }
}
layer {
  name: "loss"
  type: "SoftmaxWithLoss"
  bottom: "fc8_plantvillage"
  bottom: "label"
  top: "loss"
}
layer {
  name: "accuracy"
  type: "Accuracy"
  bottom: "fc8_plantvillage"
  bottom: "label"
  top: "accuracy"
  include {
    phase: TEST
  }
}
I0403 12:51:29.022028  9769 layer_factory.hpp:77] Creating layer data
I0403 12:51:29.022686  9769 net.cpp:91] Creating Layer data
I0403 12:51:29.022718  9769 net.cpp:399] data -> data
I0403 12:51:29.022769  9769 net.cpp:399] data -> label
I0403 12:51:29.022805  9769 data_transformer.cpp:25] Loading mean file from: /home/mohanty/data/final_dataset/lmdb/segmented-50-50/mean.binaryproto
I0403 12:51:29.026203  9772 db_lmdb.cpp:38] Opened lmdb /home/mohanty/data/final_dataset/lmdb/segmented-50-50/test_db
I0403 12:51:29.037281  9769 data_layer.cpp:41] output data size: 100,3,227,227
I0403 12:51:29.159029  9769 net.cpp:141] Setting up data
I0403 12:51:29.159123  9769 net.cpp:148] Top shape: 100 3 227 227 (15458700)
I0403 12:51:29.159147  9769 net.cpp:148] Top shape: 100 (100)
I0403 12:51:29.159162  9769 net.cpp:156] Memory required for data: 61835200
I0403 12:51:29.159189  9769 layer_factory.hpp:77] Creating layer label_data_1_split
I0403 12:51:29.159215  9769 net.cpp:91] Creating Layer label_data_1_split
I0403 12:51:29.159234  9769 net.cpp:425] label_data_1_split <- label
I0403 12:51:29.159265  9769 net.cpp:399] label_data_1_split -> label_data_1_split_0
I0403 12:51:29.159292  9769 net.cpp:399] label_data_1_split -> label_data_1_split_1
I0403 12:51:29.159312  9769 net.cpp:399] label_data_1_split -> label_data_1_split_2
I0403 12:51:29.159379  9769 net.cpp:141] Setting up label_data_1_split
I0403 12:51:29.159402  9769 net.cpp:148] Top shape: 100 (100)
I0403 12:51:29.159418  9769 net.cpp:148] Top shape: 100 (100)
I0403 12:51:29.159435  9769 net.cpp:148] Top shape: 100 (100)
I0403 12:51:29.159449  9769 net.cpp:156] Memory required for data: 61836400
I0403 12:51:29.159464  9769 layer_factory.hpp:77] Creating layer conv1
I0403 12:51:29.159497  9769 net.cpp:91] Creating Layer conv1
I0403 12:51:29.159514  9769 net.cpp:425] conv1 <- data
I0403 12:51:29.159533  9769 net.cpp:399] conv1 -> conv1
I0403 12:51:29.301080  9769 net.cpp:141] Setting up conv1
I0403 12:51:29.301162  9769 net.cpp:148] Top shape: 100 96 55 55 (29040000)
I0403 12:51:29.301180  9769 net.cpp:156] Memory required for data: 177996400
I0403 12:51:29.301213  9769 layer_factory.hpp:77] Creating layer relu1
I0403 12:51:29.301239  9769 net.cpp:91] Creating Layer relu1
I0403 12:51:29.301257  9769 net.cpp:425] relu1 <- conv1
I0403 12:51:29.301280  9769 net.cpp:386] relu1 -> conv1 (in-place)
I0403 12:51:29.301560  9769 net.cpp:141] Setting up relu1
I0403 12:51:29.301587  9769 net.cpp:148] Top shape: 100 96 55 55 (29040000)
I0403 12:51:29.301641  9769 net.cpp:156] Memory required for data: 294156400
I0403 12:51:29.301658  9769 layer_factory.hpp:77] Creating layer norm1
I0403 12:51:29.301688  9769 net.cpp:91] Creating Layer norm1
I0403 12:51:29.301707  9769 net.cpp:425] norm1 <- conv1
I0403 12:51:29.301724  9769 net.cpp:399] norm1 -> norm1
I0403 12:51:29.302050  9769 net.cpp:141] Setting up norm1
I0403 12:51:29.302103  9769 net.cpp:148] Top shape: 100 96 55 55 (29040000)
I0403 12:51:29.302124  9769 net.cpp:156] Memory required for data: 410316400
I0403 12:51:29.302139  9769 layer_factory.hpp:77] Creating layer pool1
I0403 12:51:29.302163  9769 net.cpp:91] Creating Layer pool1
I0403 12:51:29.302181  9769 net.cpp:425] pool1 <- norm1
I0403 12:51:29.302199  9769 net.cpp:399] pool1 -> pool1
I0403 12:51:29.302271  9769 net.cpp:141] Setting up pool1
I0403 12:51:29.302297  9769 net.cpp:148] Top shape: 100 96 27 27 (6998400)
I0403 12:51:29.302311  9769 net.cpp:156] Memory required for data: 438310000
I0403 12:51:29.302326  9769 layer_factory.hpp:77] Creating layer conv2
I0403 12:51:29.302352  9769 net.cpp:91] Creating Layer conv2
I0403 12:51:29.302371  9769 net.cpp:425] conv2 <- pool1
I0403 12:51:29.302391  9769 net.cpp:399] conv2 -> conv2
I0403 12:51:29.317621  9769 net.cpp:141] Setting up conv2
I0403 12:51:29.317669  9769 net.cpp:148] Top shape: 100 256 27 27 (18662400)
I0403 12:51:29.317687  9769 net.cpp:156] Memory required for data: 512959600
I0403 12:51:29.317708  9769 layer_factory.hpp:77] Creating layer relu2
I0403 12:51:29.317733  9769 net.cpp:91] Creating Layer relu2
I0403 12:51:29.317749  9769 net.cpp:425] relu2 <- conv2
I0403 12:51:29.317769  9769 net.cpp:386] relu2 -> conv2 (in-place)
I0403 12:51:29.318051  9769 net.cpp:141] Setting up relu2
I0403 12:51:29.318078  9769 net.cpp:148] Top shape: 100 256 27 27 (18662400)
I0403 12:51:29.318094  9769 net.cpp:156] Memory required for data: 587609200
I0403 12:51:29.318109  9769 layer_factory.hpp:77] Creating layer norm2
I0403 12:51:29.318131  9769 net.cpp:91] Creating Layer norm2
I0403 12:51:29.318150  9769 net.cpp:425] norm2 <- conv2
I0403 12:51:29.318169  9769 net.cpp:399] norm2 -> norm2
I0403 12:51:29.318393  9769 net.cpp:141] Setting up norm2
I0403 12:51:29.318420  9769 net.cpp:148] Top shape: 100 256 27 27 (18662400)
I0403 12:51:29.318435  9769 net.cpp:156] Memory required for data: 662258800
I0403 12:51:29.318450  9769 layer_factory.hpp:77] Creating layer pool2
I0403 12:51:29.318471  9769 net.cpp:91] Creating Layer pool2
I0403 12:51:29.318487  9769 net.cpp:425] pool2 <- norm2
I0403 12:51:29.318506  9769 net.cpp:399] pool2 -> pool2
I0403 12:51:29.318559  9769 net.cpp:141] Setting up pool2
I0403 12:51:29.318583  9769 net.cpp:148] Top shape: 100 256 13 13 (4326400)
I0403 12:51:29.318598  9769 net.cpp:156] Memory required for data: 679564400
I0403 12:51:29.318619  9769 layer_factory.hpp:77] Creating layer conv3
I0403 12:51:29.318642  9769 net.cpp:91] Creating Layer conv3
I0403 12:51:29.318660  9769 net.cpp:425] conv3 <- pool2
I0403 12:51:29.318680  9769 net.cpp:399] conv3 -> conv3
I0403 12:51:29.357641  9769 net.cpp:141] Setting up conv3
I0403 12:51:29.357717  9769 net.cpp:148] Top shape: 100 384 13 13 (6489600)
I0403 12:51:29.357734  9769 net.cpp:156] Memory required for data: 705522800
I0403 12:51:29.357764  9769 layer_factory.hpp:77] Creating layer relu3
I0403 12:51:29.357787  9769 net.cpp:91] Creating Layer relu3
I0403 12:51:29.357805  9769 net.cpp:425] relu3 <- conv3
I0403 12:51:29.357823  9769 net.cpp:386] relu3 -> conv3 (in-place)
I0403 12:51:29.358108  9769 net.cpp:141] Setting up relu3
I0403 12:51:29.358135  9769 net.cpp:148] Top shape: 100 384 13 13 (6489600)
I0403 12:51:29.358151  9769 net.cpp:156] Memory required for data: 731481200
I0403 12:51:29.358166  9769 layer_factory.hpp:77] Creating layer conv4
I0403 12:51:29.358192  9769 net.cpp:91] Creating Layer conv4
I0403 12:51:29.358209  9769 net.cpp:425] conv4 <- conv3
I0403 12:51:29.358232  9769 net.cpp:399] conv4 -> conv4
I0403 12:51:29.388716  9769 net.cpp:141] Setting up conv4
I0403 12:51:29.388788  9769 net.cpp:148] Top shape: 100 384 13 13 (6489600)
I0403 12:51:29.388842  9769 net.cpp:156] Memory required for data: 757439600
I0403 12:51:29.388864  9769 layer_factory.hpp:77] Creating layer relu4
I0403 12:51:29.388891  9769 net.cpp:91] Creating Layer relu4
I0403 12:51:29.388909  9769 net.cpp:425] relu4 <- conv4
I0403 12:51:29.388928  9769 net.cpp:386] relu4 -> conv4 (in-place)
I0403 12:51:29.389209  9769 net.cpp:141] Setting up relu4
I0403 12:51:29.389237  9769 net.cpp:148] Top shape: 100 384 13 13 (6489600)
I0403 12:51:29.389261  9769 net.cpp:156] Memory required for data: 783398000
I0403 12:51:29.389278  9769 layer_factory.hpp:77] Creating layer conv5
I0403 12:51:29.389305  9769 net.cpp:91] Creating Layer conv5
I0403 12:51:29.389323  9769 net.cpp:425] conv5 <- conv4
I0403 12:51:29.389344  9769 net.cpp:399] conv5 -> conv5
I0403 12:51:29.410248  9769 net.cpp:141] Setting up conv5
I0403 12:51:29.410300  9769 net.cpp:148] Top shape: 100 256 13 13 (4326400)
I0403 12:51:29.410317  9769 net.cpp:156] Memory required for data: 800703600
I0403 12:51:29.410342  9769 layer_factory.hpp:77] Creating layer relu5
I0403 12:51:29.410374  9769 net.cpp:91] Creating Layer relu5
I0403 12:51:29.410394  9769 net.cpp:425] relu5 <- conv5
I0403 12:51:29.410413  9769 net.cpp:386] relu5 -> conv5 (in-place)
I0403 12:51:29.410703  9769 net.cpp:141] Setting up relu5
I0403 12:51:29.410730  9769 net.cpp:148] Top shape: 100 256 13 13 (4326400)
I0403 12:51:29.410745  9769 net.cpp:156] Memory required for data: 818009200
I0403 12:51:29.410761  9769 layer_factory.hpp:77] Creating layer pool5
I0403 12:51:29.410785  9769 net.cpp:91] Creating Layer pool5
I0403 12:51:29.410802  9769 net.cpp:425] pool5 <- conv5
I0403 12:51:29.410823  9769 net.cpp:399] pool5 -> pool5
I0403 12:51:29.410895  9769 net.cpp:141] Setting up pool5
I0403 12:51:29.410918  9769 net.cpp:148] Top shape: 100 256 6 6 (921600)
I0403 12:51:29.410933  9769 net.cpp:156] Memory required for data: 821695600
I0403 12:51:29.410948  9769 layer_factory.hpp:77] Creating layer fc6
I0403 12:51:29.411036  9769 net.cpp:91] Creating Layer fc6
I0403 12:51:29.411057  9769 net.cpp:425] fc6 <- pool5
I0403 12:51:29.411074  9769 net.cpp:399] fc6 -> fc6
I0403 12:51:30.969140  9769 net.cpp:141] Setting up fc6
I0403 12:51:30.969214  9769 net.cpp:148] Top shape: 100 4096 (409600)
I0403 12:51:30.969230  9769 net.cpp:156] Memory required for data: 823334000
I0403 12:51:30.969252  9769 layer_factory.hpp:77] Creating layer relu6
I0403 12:51:30.969275  9769 net.cpp:91] Creating Layer relu6
I0403 12:51:30.969292  9769 net.cpp:425] relu6 <- fc6
I0403 12:51:30.969313  9769 net.cpp:386] relu6 -> fc6 (in-place)
I0403 12:51:30.969543  9769 net.cpp:141] Setting up relu6
I0403 12:51:30.969568  9769 net.cpp:148] Top shape: 100 4096 (409600)
I0403 12:51:30.969583  9769 net.cpp:156] Memory required for data: 824972400
I0403 12:51:30.969597  9769 layer_factory.hpp:77] Creating layer drop6
I0403 12:51:30.969622  9769 net.cpp:91] Creating Layer drop6
I0403 12:51:30.969640  9769 net.cpp:425] drop6 <- fc6
I0403 12:51:30.969656  9769 net.cpp:386] drop6 -> fc6 (in-place)
I0403 12:51:30.969712  9769 net.cpp:141] Setting up drop6
I0403 12:51:30.969734  9769 net.cpp:148] Top shape: 100 4096 (409600)
I0403 12:51:30.969748  9769 net.cpp:156] Memory required for data: 826610800
I0403 12:51:30.969763  9769 layer_factory.hpp:77] Creating layer fc7
I0403 12:51:30.969781  9769 net.cpp:91] Creating Layer fc7
I0403 12:51:30.969797  9769 net.cpp:425] fc7 <- fc6
I0403 12:51:30.969816  9769 net.cpp:399] fc7 -> fc7
I0403 12:51:31.651203  9769 net.cpp:141] Setting up fc7
I0403 12:51:31.651284  9769 net.cpp:148] Top shape: 100 4096 (409600)
I0403 12:51:31.651300  9769 net.cpp:156] Memory required for data: 828249200
I0403 12:51:31.651321  9769 layer_factory.hpp:77] Creating layer relu7
I0403 12:51:31.651347  9769 net.cpp:91] Creating Layer relu7
I0403 12:51:31.651365  9769 net.cpp:425] relu7 <- fc7
I0403 12:51:31.651384  9769 net.cpp:386] relu7 -> fc7 (in-place)
I0403 12:51:31.651798  9769 net.cpp:141] Setting up relu7
I0403 12:51:31.651825  9769 net.cpp:148] Top shape: 100 4096 (409600)
I0403 12:51:31.651881  9769 net.cpp:156] Memory required for data: 829887600
I0403 12:51:31.651897  9769 layer_factory.hpp:77] Creating layer drop7
I0403 12:51:31.651918  9769 net.cpp:91] Creating Layer drop7
I0403 12:51:31.651934  9769 net.cpp:425] drop7 <- fc7
I0403 12:51:31.651952  9769 net.cpp:386] drop7 -> fc7 (in-place)
I0403 12:51:31.651996  9769 net.cpp:141] Setting up drop7
I0403 12:51:31.652019  9769 net.cpp:148] Top shape: 100 4096 (409600)
I0403 12:51:31.652032  9769 net.cpp:156] Memory required for data: 831526000
I0403 12:51:31.652046  9769 layer_factory.hpp:77] Creating layer fc8_plantvillage
I0403 12:51:31.652065  9769 net.cpp:91] Creating Layer fc8_plantvillage
I0403 12:51:31.652081  9769 net.cpp:425] fc8_plantvillage <- fc7
I0403 12:51:31.652099  9769 net.cpp:399] fc8_plantvillage -> fc8_plantvillage
I0403 12:51:31.659029  9769 net.cpp:141] Setting up fc8_plantvillage
I0403 12:51:31.659060  9769 net.cpp:148] Top shape: 100 38 (3800)
I0403 12:51:31.659075  9769 net.cpp:156] Memory required for data: 831541200
I0403 12:51:31.659092  9769 layer_factory.hpp:77] Creating layer fc8_plantvillage_fc8_plantvillage_0_split
I0403 12:51:31.659113  9769 net.cpp:91] Creating Layer fc8_plantvillage_fc8_plantvillage_0_split
I0403 12:51:31.659131  9769 net.cpp:425] fc8_plantvillage_fc8_plantvillage_0_split <- fc8_plantvillage
I0403 12:51:31.659148  9769 net.cpp:399] fc8_plantvillage_fc8_plantvillage_0_split -> fc8_plantvillage_fc8_plantvillage_0_split_0
I0403 12:51:31.659168  9769 net.cpp:399] fc8_plantvillage_fc8_plantvillage_0_split -> fc8_plantvillage_fc8_plantvillage_0_split_1
I0403 12:51:31.659190  9769 net.cpp:399] fc8_plantvillage_fc8_plantvillage_0_split -> fc8_plantvillage_fc8_plantvillage_0_split_2
I0403 12:51:31.659270  9769 net.cpp:141] Setting up fc8_plantvillage_fc8_plantvillage_0_split
I0403 12:51:31.659294  9769 net.cpp:148] Top shape: 100 38 (3800)
I0403 12:51:31.659310  9769 net.cpp:148] Top shape: 100 38 (3800)
I0403 12:51:31.659327  9769 net.cpp:148] Top shape: 100 38 (3800)
I0403 12:51:31.659340  9769 net.cpp:156] Memory required for data: 831586800
I0403 12:51:31.659355  9769 layer_factory.hpp:77] Creating layer prob
I0403 12:51:31.659373  9769 net.cpp:91] Creating Layer prob
I0403 12:51:31.659389  9769 net.cpp:425] prob <- fc8_plantvillage_fc8_plantvillage_0_split_0
I0403 12:51:31.659410  9769 net.cpp:399] prob -> prob
I0403 12:51:31.659647  9769 net.cpp:141] Setting up prob
I0403 12:51:31.659673  9769 net.cpp:148] Top shape: 100 38 (3800)
I0403 12:51:31.659689  9769 net.cpp:156] Memory required for data: 831602000
I0403 12:51:31.659705  9769 layer_factory.hpp:77] Creating layer hdf5out
I0403 12:51:31.659726  9769 net.cpp:91] Creating Layer hdf5out
I0403 12:51:31.659744  9769 net.cpp:425] hdf5out <- prob
I0403 12:51:31.659761  9769 net.cpp:425] hdf5out <- label_data_1_split_0
I0403 12:51:31.662210  9769 net.cpp:141] Setting up hdf5out
…
