…
I0403 12:53:09.958286  9814 net.cpp:313] The NetState phase (1) differed from the phase (0) specified by a rule in layer data
I0403 12:53:09.958601  9814 net.cpp:49] Initializing net from parameters: 
state {
  phase: TEST
}
layer {
  name: "data"
  type: "Data"
  top: "data"
  top: "label"
  include {
    phase: TEST
  }
  transform_param {
    crop_size: 227
    mean_file: "/home/mohanty/data/final_dataset/lmdb/segmented-50-50/mean.binaryproto"
  }
  data_param {
    source: "/home/mohanty/data/final_dataset/lmdb/segmented-50-50/test_db"
    batch_size: 100
    backend: LMDB
  }
}
layer {
  name: "conv1"
  type: "Convolution"
  bottom: "data"
  top: "conv1"
  param {
    lr_mult: 1
    decay_mult: 1
  }
  param {
    lr_mult: 2
    decay_mult: 0
  }
  convolution_param {
    num_output: 96
    kernel_size: 11
    stride: 4
    weight_filler {
      type: "gaussian"
      std: 0.01
    }
    bias_filler {
      type: "constant"
      value: 0
    }
  }
}
layer {
  name: "relu1"
  type: "ReLU"
  bottom: "conv1"
  top: "conv1"
}
layer {
  name: "norm1"
  type: "LRN"
  bottom: "conv1"
  top: "norm1"
  lrn_param {
    local_size: 5
    alpha: 0.0001
    beta: 0.75
  }
}
layer {
  name: "pool1"
  type: "Pooling"
  bottom: "norm1"
  top: "pool1"
  pooling_param {
    pool: MAX
    kernel_size: 3
    stride: 2
  }
}
layer {
  name: "conv2"
  type: "Convolution"
  bottom: "pool1"
  top: "conv2"
  param {
    lr_mult: 1
    decay_mult: 1
  }
  param {
    lr_mult: 2
    decay_mult: 0
  }
  convolution_param {
    num_output: 256
    pad: 2
    kernel_size: 5
    group: 2
    weight_filler {
      type: "gaussian"
      std: 0.01
    }
    bias_filler {
      type: "constant"
      value: 0.1
    }
  }
}
layer {
  name: "relu2"
  type: "ReLU"
  bottom: "conv2"
  top: "conv2"
}
layer {
  name: "norm2"
  type: "LRN"
  bottom: "conv2"
  top: "norm2"
  lrn_param {
    local_size: 5
    alpha: 0.0001
    beta: 0.75
  }
}
layer {
  name: "pool2"
  type: "Pooling"
  bottom: "norm2"
  top: "pool2"
  pooling_param {
    pool: MAX
    kernel_size: 3
    stride: 2
  }
}
layer {
  name: "conv3"
  type: "Convolution"
  bottom: "pool2"
  top: "conv3"
  param {
    lr_mult: 1
    decay_mult: 1
  }
  param {
    lr_mult: 2
    decay_mult: 0
  }
  convolution_param {
    num_output: 384
    pad: 1
    kernel_size: 3
    weight_filler {
      type: "gaussian"
      std: 0.01
    }
    bias_filler {
      type: "constant"
      value: 0
    }
  }
}
layer {
  name: "relu3"
  type: "ReLU"
  bottom: "conv3"
  top: "conv3"
}
layer {
  name: "conv4"
  type: "Convolution"
  bottom: "conv3"
  top: "conv4"
  param {
    lr_mult: 1
    decay_mult: 1
  }
  param {
    lr_mult: 2
    decay_mult: 0
  }
  convolution_param {
    num_output: 384
    pad: 1
    kernel_size: 3
    group: 2
    weight_filler {
      type: "gaussian"
      std: 0.01
    }
    bias_filler {
      type: "constant"
      value: 0.1
    }
  }
}
layer {
  name: "relu4"
  type: "ReLU"
  bottom: "conv4"
  top: "conv4"
}
layer {
  name: "conv5"
  type: "Convolution"
  bottom: "conv4"
  top: "conv5"
  param {
    lr_mult: 1
    decay_mult: 1
  }
  param {
    lr_mult: 2
    decay_mult: 0
  }
  convolution_param {
    num_output: 256
    pad: 1
    kernel_size: 3
    group: 2
    weight_filler {
      type: "gaussian"
      std: 0.01
    }
    bias_filler {
      type: "constant"
      value: 0.1
    }
  }
}
layer {
  name: "relu5"
  type: "ReLU"
  bottom: "conv5"
  top: "conv5"
}
layer {
  name: "pool5"
  type: "Pooling"
  bottom: "conv5"
  top: "pool5"
  pooling_param {
    pool: MAX
    kernel_size: 3
    stride: 2
  }
}
layer {
  name: "fc6"
  type: "InnerProduct"
  bottom: "pool5"
  top: "fc6"
  param {
    lr_mult: 1
    decay_mult: 1
  }
  param {
    lr_mult: 2
    decay_mult: 0
  }
  inner_product_param {
    num_output: 4096
    weight_filler {
      type: "gaussian"
      std: 0.005
    }
    bias_filler {
      type: "constant"
      value: 0.1
    }
  }
}
layer {
  name: "relu6"
  type: "ReLU"
  bottom: "fc6"
  top: "fc6"
}
layer {
  name: "drop6"
  type: "Dropout"
  bottom: "fc6"
  top: "fc6"
  dropout_param {
    dropout_ratio: 0.5
  }
}
layer {
  name: "fc7"
  type: "InnerProduct"
  bottom: "fc6"
  top: "fc7"
  param {
    lr_mult: 1
    decay_mult: 1
  }
  param {
    lr_mult: 2
    decay_mult: 0
  }
  inner_product_param {
    num_output: 4096
    weight_filler {
      type: "gaussian"
      std: 0.005
    }
    bias_filler {
      type: "constant"
      value: 0.1
    }
  }
}
layer {
  name: "relu7"
  type: "ReLU"
  bottom: "fc7"
  top: "fc7"
}
layer {
  name: "drop7"
  type: "Dropout"
  bottom: "fc7"
  top: "fc7"
  dropout_param {
    dropout_ratio: 0.5
  }
}
layer {
  name: "fc8_plantvillage"
  type: "InnerProduct"
  bottom: "fc7"
  top: "fc8_plantvillage"
  param {
    lr_mult: 1
    decay_mult: 1
  }
  param {
    lr_mult: 2
    decay_mult: 0
  }
  inner_product_param {
    num_output: 38
    weight_filler {
      type: "gaussian"
      std: 0.01
    }
    bias_filler {
      type: "constant"
      value: 0
    }
  }
}
layer {
  name: "prob"
  type: "Softmax"
  bottom: "fc8_plantvillage"
  top: "prob"
  include {
    phase: TEST
  }
}
layer {
  name: "hdf5out"
  type: "HDF5Output"
  bottom: "prob"
  bottom: "label"
  include {
    phase: TEST
  }
  hdf5_output_param {
    file_name: "hdf5_dumps/iter_3484.h5"
  }
}
layer {
  name: "loss"
  type: "SoftmaxWithLoss"
  bottom: "fc8_plantvillage"
  bottom: "label"
  top: "loss"
}
layer {
  name: "accuracy"
  type: "Accuracy"
  bottom: "fc8_plantvillage"
  bottom: "label"
  top: "accuracy"
  include {
    phase: TEST
  }
}
I0403 12:53:09.959159  9814 layer_factory.hpp:77] Creating layer data
I0403 12:53:09.959820  9814 net.cpp:91] Creating Layer data
I0403 12:53:09.959851  9814 net.cpp:399] data -> data
I0403 12:53:09.959903  9814 net.cpp:399] data -> label
I0403 12:53:09.959940  9814 data_transformer.cpp:25] Loading mean file from: /home/mohanty/data/final_dataset/lmdb/segmented-50-50/mean.binaryproto
I0403 12:53:09.962899  9817 db_lmdb.cpp:38] Opened lmdb /home/mohanty/data/final_dataset/lmdb/segmented-50-50/test_db
I0403 12:53:09.974283  9814 data_layer.cpp:41] output data size: 100,3,227,227
I0403 12:53:10.093996  9814 net.cpp:141] Setting up data
I0403 12:53:10.094064  9814 net.cpp:148] Top shape: 100 3 227 227 (15458700)
I0403 12:53:10.094087  9814 net.cpp:148] Top shape: 100 (100)
I0403 12:53:10.094102  9814 net.cpp:156] Memory required for data: 61835200
I0403 12:53:10.094131  9814 layer_factory.hpp:77] Creating layer label_data_1_split
I0403 12:53:10.094156  9814 net.cpp:91] Creating Layer label_data_1_split
I0403 12:53:10.094172  9814 net.cpp:425] label_data_1_split <- label
I0403 12:53:10.094203  9814 net.cpp:399] label_data_1_split -> label_data_1_split_0
I0403 12:53:10.094231  9814 net.cpp:399] label_data_1_split -> label_data_1_split_1
I0403 12:53:10.094250  9814 net.cpp:399] label_data_1_split -> label_data_1_split_2
I0403 12:53:10.094313  9814 net.cpp:141] Setting up label_data_1_split
I0403 12:53:10.094336  9814 net.cpp:148] Top shape: 100 (100)
I0403 12:53:10.094353  9814 net.cpp:148] Top shape: 100 (100)
I0403 12:53:10.094368  9814 net.cpp:148] Top shape: 100 (100)
I0403 12:53:10.094383  9814 net.cpp:156] Memory required for data: 61836400
I0403 12:53:10.094396  9814 layer_factory.hpp:77] Creating layer conv1
I0403 12:53:10.094426  9814 net.cpp:91] Creating Layer conv1
I0403 12:53:10.094444  9814 net.cpp:425] conv1 <- data
I0403 12:53:10.094462  9814 net.cpp:399] conv1 -> conv1
I0403 12:53:10.235460  9814 net.cpp:141] Setting up conv1
I0403 12:53:10.235548  9814 net.cpp:148] Top shape: 100 96 55 55 (29040000)
I0403 12:53:10.235565  9814 net.cpp:156] Memory required for data: 177996400
I0403 12:53:10.235602  9814 layer_factory.hpp:77] Creating layer relu1
I0403 12:53:10.235652  9814 net.cpp:91] Creating Layer relu1
I0403 12:53:10.235672  9814 net.cpp:425] relu1 <- conv1
I0403 12:53:10.235692  9814 net.cpp:386] relu1 -> conv1 (in-place)
I0403 12:53:10.235961  9814 net.cpp:141] Setting up relu1
I0403 12:53:10.235990  9814 net.cpp:148] Top shape: 100 96 55 55 (29040000)
I0403 12:53:10.236037  9814 net.cpp:156] Memory required for data: 294156400
I0403 12:53:10.236054  9814 layer_factory.hpp:77] Creating layer norm1
I0403 12:53:10.236080  9814 net.cpp:91] Creating Layer norm1
I0403 12:53:10.236098  9814 net.cpp:425] norm1 <- conv1
I0403 12:53:10.236115  9814 net.cpp:399] norm1 -> norm1
I0403 12:53:10.236428  9814 net.cpp:141] Setting up norm1
I0403 12:53:10.236455  9814 net.cpp:148] Top shape: 100 96 55 55 (29040000)
I0403 12:53:10.236471  9814 net.cpp:156] Memory required for data: 410316400
I0403 12:53:10.236485  9814 layer_factory.hpp:77] Creating layer pool1
I0403 12:53:10.236510  9814 net.cpp:91] Creating Layer pool1
I0403 12:53:10.236526  9814 net.cpp:425] pool1 <- norm1
I0403 12:53:10.236544  9814 net.cpp:399] pool1 -> pool1
I0403 12:53:10.236614  9814 net.cpp:141] Setting up pool1
I0403 12:53:10.236639  9814 net.cpp:148] Top shape: 100 96 27 27 (6998400)
I0403 12:53:10.236654  9814 net.cpp:156] Memory required for data: 438310000
I0403 12:53:10.236668  9814 layer_factory.hpp:77] Creating layer conv2
I0403 12:53:10.236693  9814 net.cpp:91] Creating Layer conv2
I0403 12:53:10.236709  9814 net.cpp:425] conv2 <- pool1
I0403 12:53:10.236726  9814 net.cpp:399] conv2 -> conv2
I0403 12:53:10.253242  9814 net.cpp:141] Setting up conv2
I0403 12:53:10.253301  9814 net.cpp:148] Top shape: 100 256 27 27 (18662400)
I0403 12:53:10.253319  9814 net.cpp:156] Memory required for data: 512959600
I0403 12:53:10.253343  9814 layer_factory.hpp:77] Creating layer relu2
I0403 12:53:10.253365  9814 net.cpp:91] Creating Layer relu2
I0403 12:53:10.253381  9814 net.cpp:425] relu2 <- conv2
I0403 12:53:10.253401  9814 net.cpp:386] relu2 -> conv2 (in-place)
I0403 12:53:10.253741  9814 net.cpp:141] Setting up relu2
I0403 12:53:10.253769  9814 net.cpp:148] Top shape: 100 256 27 27 (18662400)
I0403 12:53:10.253785  9814 net.cpp:156] Memory required for data: 587609200
I0403 12:53:10.253800  9814 layer_factory.hpp:77] Creating layer norm2
I0403 12:53:10.253823  9814 net.cpp:91] Creating Layer norm2
I0403 12:53:10.253839  9814 net.cpp:425] norm2 <- conv2
I0403 12:53:10.253859  9814 net.cpp:399] norm2 -> norm2
I0403 12:53:10.254055  9814 net.cpp:141] Setting up norm2
I0403 12:53:10.254082  9814 net.cpp:148] Top shape: 100 256 27 27 (18662400)
I0403 12:53:10.254099  9814 net.cpp:156] Memory required for data: 662258800
I0403 12:53:10.254115  9814 layer_factory.hpp:77] Creating layer pool2
I0403 12:53:10.254134  9814 net.cpp:91] Creating Layer pool2
I0403 12:53:10.254153  9814 net.cpp:425] pool2 <- norm2
I0403 12:53:10.254170  9814 net.cpp:399] pool2 -> pool2
I0403 12:53:10.254221  9814 net.cpp:141] Setting up pool2
I0403 12:53:10.254245  9814 net.cpp:148] Top shape: 100 256 13 13 (4326400)
I0403 12:53:10.254261  9814 net.cpp:156] Memory required for data: 679564400
I0403 12:53:10.254274  9814 layer_factory.hpp:77] Creating layer conv3
I0403 12:53:10.254297  9814 net.cpp:91] Creating Layer conv3
I0403 12:53:10.254313  9814 net.cpp:425] conv3 <- pool2
I0403 12:53:10.254333  9814 net.cpp:399] conv3 -> conv3
I0403 12:53:10.297123  9814 net.cpp:141] Setting up conv3
I0403 12:53:10.297196  9814 net.cpp:148] Top shape: 100 384 13 13 (6489600)
I0403 12:53:10.297212  9814 net.cpp:156] Memory required for data: 705522800
I0403 12:53:10.297238  9814 layer_factory.hpp:77] Creating layer relu3
I0403 12:53:10.297262  9814 net.cpp:91] Creating Layer relu3
I0403 12:53:10.297281  9814 net.cpp:425] relu3 <- conv3
I0403 12:53:10.297305  9814 net.cpp:386] relu3 -> conv3 (in-place)
I0403 12:53:10.297626  9814 net.cpp:141] Setting up relu3
I0403 12:53:10.297655  9814 net.cpp:148] Top shape: 100 384 13 13 (6489600)
I0403 12:53:10.297670  9814 net.cpp:156] Memory required for data: 731481200
I0403 12:53:10.297686  9814 layer_factory.hpp:77] Creating layer conv4
I0403 12:53:10.297710  9814 net.cpp:91] Creating Layer conv4
I0403 12:53:10.297729  9814 net.cpp:425] conv4 <- conv3
I0403 12:53:10.297749  9814 net.cpp:399] conv4 -> conv4
I0403 12:53:10.331122  9814 net.cpp:141] Setting up conv4
I0403 12:53:10.331195  9814 net.cpp:148] Top shape: 100 384 13 13 (6489600)
I0403 12:53:10.331244  9814 net.cpp:156] Memory required for data: 757439600
I0403 12:53:10.331279  9814 layer_factory.hpp:77] Creating layer relu4
I0403 12:53:10.331302  9814 net.cpp:91] Creating Layer relu4
I0403 12:53:10.331333  9814 net.cpp:425] relu4 <- conv4
I0403 12:53:10.331353  9814 net.cpp:386] relu4 -> conv4 (in-place)
I0403 12:53:10.331665  9814 net.cpp:141] Setting up relu4
I0403 12:53:10.331691  9814 net.cpp:148] Top shape: 100 384 13 13 (6489600)
I0403 12:53:10.331706  9814 net.cpp:156] Memory required for data: 783398000
I0403 12:53:10.331720  9814 layer_factory.hpp:77] Creating layer conv5
I0403 12:53:10.331746  9814 net.cpp:91] Creating Layer conv5
I0403 12:53:10.331763  9814 net.cpp:425] conv5 <- conv4
I0403 12:53:10.331784  9814 net.cpp:399] conv5 -> conv5
I0403 12:53:10.354485  9814 net.cpp:141] Setting up conv5
I0403 12:53:10.354540  9814 net.cpp:148] Top shape: 100 256 13 13 (4326400)
I0403 12:53:10.354557  9814 net.cpp:156] Memory required for data: 800703600
I0403 12:53:10.354593  9814 layer_factory.hpp:77] Creating layer relu5
I0403 12:53:10.354619  9814 net.cpp:91] Creating Layer relu5
I0403 12:53:10.354637  9814 net.cpp:425] relu5 <- conv5
I0403 12:53:10.354655  9814 net.cpp:386] relu5 -> conv5 (in-place)
I0403 12:53:10.354940  9814 net.cpp:141] Setting up relu5
I0403 12:53:10.354966  9814 net.cpp:148] Top shape: 100 256 13 13 (4326400)
I0403 12:53:10.354982  9814 net.cpp:156] Memory required for data: 818009200
I0403 12:53:10.354997  9814 layer_factory.hpp:77] Creating layer pool5
I0403 12:53:10.355021  9814 net.cpp:91] Creating Layer pool5
I0403 12:53:10.355038  9814 net.cpp:425] pool5 <- conv5
I0403 12:53:10.355059  9814 net.cpp:399] pool5 -> pool5
I0403 12:53:10.355120  9814 net.cpp:141] Setting up pool5
I0403 12:53:10.355144  9814 net.cpp:148] Top shape: 100 256 6 6 (921600)
I0403 12:53:10.355159  9814 net.cpp:156] Memory required for data: 821695600
I0403 12:53:10.355173  9814 layer_factory.hpp:77] Creating layer fc6
I0403 12:53:10.355202  9814 net.cpp:91] Creating Layer fc6
I0403 12:53:10.355221  9814 net.cpp:425] fc6 <- pool5
I0403 12:53:10.355239  9814 net.cpp:399] fc6 -> fc6
I0403 12:53:11.911584  9814 net.cpp:141] Setting up fc6
I0403 12:53:11.911626  9814 net.cpp:148] Top shape: 100 4096 (409600)
I0403 12:53:11.911641  9814 net.cpp:156] Memory required for data: 823334000
I0403 12:53:11.911662  9814 layer_factory.hpp:77] Creating layer relu6
I0403 12:53:11.911695  9814 net.cpp:91] Creating Layer relu6
I0403 12:53:11.911712  9814 net.cpp:425] relu6 <- fc6
I0403 12:53:11.911734  9814 net.cpp:386] relu6 -> fc6 (in-place)
I0403 12:53:11.911959  9814 net.cpp:141] Setting up relu6
I0403 12:53:11.911984  9814 net.cpp:148] Top shape: 100 4096 (409600)
I0403 12:53:11.911998  9814 net.cpp:156] Memory required for data: 824972400
I0403 12:53:11.912012  9814 layer_factory.hpp:77] Creating layer drop6
I0403 12:53:11.912045  9814 net.cpp:91] Creating Layer drop6
I0403 12:53:11.912060  9814 net.cpp:425] drop6 <- fc6
I0403 12:53:11.912075  9814 net.cpp:386] drop6 -> fc6 (in-place)
I0403 12:53:11.912124  9814 net.cpp:141] Setting up drop6
I0403 12:53:11.912145  9814 net.cpp:148] Top shape: 100 4096 (409600)
I0403 12:53:11.912159  9814 net.cpp:156] Memory required for data: 826610800
I0403 12:53:11.912173  9814 layer_factory.hpp:77] Creating layer fc7
I0403 12:53:11.912191  9814 net.cpp:91] Creating Layer fc7
I0403 12:53:11.912206  9814 net.cpp:425] fc7 <- fc6
I0403 12:53:11.912225  9814 net.cpp:399] fc7 -> fc7
I0403 12:53:12.595208  9814 net.cpp:141] Setting up fc7
I0403 12:53:12.595286  9814 net.cpp:148] Top shape: 100 4096 (409600)
I0403 12:53:12.595302  9814 net.cpp:156] Memory required for data: 828249200
I0403 12:53:12.595324  9814 layer_factory.hpp:77] Creating layer relu7
I0403 12:53:12.595347  9814 net.cpp:91] Creating Layer relu7
I0403 12:53:12.595366  9814 net.cpp:425] relu7 <- fc7
I0403 12:53:12.595383  9814 net.cpp:386] relu7 -> fc7 (in-place)
I0403 12:53:12.595799  9814 net.cpp:141] Setting up relu7
I0403 12:53:12.595825  9814 net.cpp:148] Top shape: 100 4096 (409600)
I0403 12:53:12.595882  9814 net.cpp:156] Memory required for data: 829887600
I0403 12:53:12.595898  9814 layer_factory.hpp:77] Creating layer drop7
I0403 12:53:12.595919  9814 net.cpp:91] Creating Layer drop7
I0403 12:53:12.595935  9814 net.cpp:425] drop7 <- fc7
I0403 12:53:12.595952  9814 net.cpp:386] drop7 -> fc7 (in-place)
I0403 12:53:12.595994  9814 net.cpp:141] Setting up drop7
I0403 12:53:12.596016  9814 net.cpp:148] Top shape: 100 4096 (409600)
I0403 12:53:12.596030  9814 net.cpp:156] Memory required for data: 831526000
I0403 12:53:12.596045  9814 layer_factory.hpp:77] Creating layer fc8_plantvillage
I0403 12:53:12.596065  9814 net.cpp:91] Creating Layer fc8_plantvillage
I0403 12:53:12.596079  9814 net.cpp:425] fc8_plantvillage <- fc7
I0403 12:53:12.596098  9814 net.cpp:399] fc8_plantvillage -> fc8_plantvillage
I0403 12:53:12.602809  9814 net.cpp:141] Setting up fc8_plantvillage
I0403 12:53:12.602838  9814 net.cpp:148] Top shape: 100 38 (3800)
I0403 12:53:12.602852  9814 net.cpp:156] Memory required for data: 831541200
I0403 12:53:12.602870  9814 layer_factory.hpp:77] Creating layer fc8_plantvillage_fc8_plantvillage_0_split
I0403 12:53:12.602895  9814 net.cpp:91] Creating Layer fc8_plantvillage_fc8_plantvillage_0_split
I0403 12:53:12.602910  9814 net.cpp:425] fc8_plantvillage_fc8_plantvillage_0_split <- fc8_plantvillage
I0403 12:53:12.602927  9814 net.cpp:399] fc8_plantvillage_fc8_plantvillage_0_split -> fc8_plantvillage_fc8_plantvillage_0_split_0
I0403 12:53:12.602947  9814 net.cpp:399] fc8_plantvillage_fc8_plantvillage_0_split -> fc8_plantvillage_fc8_plantvillage_0_split_1
I0403 12:53:12.602969  9814 net.cpp:399] fc8_plantvillage_fc8_plantvillage_0_split -> fc8_plantvillage_fc8_plantvillage_0_split_2
I0403 12:53:12.603047  9814 net.cpp:141] Setting up fc8_plantvillage_fc8_plantvillage_0_split
I0403 12:53:12.603070  9814 net.cpp:148] Top shape: 100 38 (3800)
I0403 12:53:12.603086  9814 net.cpp:148] Top shape: 100 38 (3800)
I0403 12:53:12.603101  9814 net.cpp:148] Top shape: 100 38 (3800)
I0403 12:53:12.603116  9814 net.cpp:156] Memory required for data: 831586800
I0403 12:53:12.603129  9814 layer_factory.hpp:77] Creating layer prob
I0403 12:53:12.603147  9814 net.cpp:91] Creating Layer prob
I0403 12:53:12.603163  9814 net.cpp:425] prob <- fc8_plantvillage_fc8_plantvillage_0_split_0
I0403 12:53:12.603181  9814 net.cpp:399] prob -> prob
I0403 12:53:12.603412  9814 net.cpp:141] Setting up prob
I0403 12:53:12.603438  9814 net.cpp:148] Top shape: 100 38 (3800)
I0403 12:53:12.603454  9814 net.cpp:156] Memory required for data: 831602000
I0403 12:53:12.603471  9814 layer_factory.hpp:77] Creating layer hdf5out
I0403 12:53:12.603492  9814 net.cpp:91] Creating Layer hdf5out
I0403 12:53:12.603508  9814 net.cpp:425] hdf5out <- prob
I0403 12:53:12.603531  9814 net.cpp:425] hdf5out <- label_data_1_split_0
I0403 12:53:12.606011  9814 net.cpp:141] Setting up hdf5out
…
