…
I0403 12:59:55.996865 10009 net.cpp:313] The NetState phase (1) differed from the phase (0) specified by a rule in layer data
I0403 12:59:55.997189 10009 net.cpp:49] Initializing net from parameters: 
state {
  phase: TEST
}
layer {
  name: "data"
  type: "Data"
  top: "data"
  top: "label"
  include {
    phase: TEST
  }
  transform_param {
    crop_size: 227
    mean_file: "/home/mohanty/data/final_dataset/lmdb/segmented-50-50/mean.binaryproto"
  }
  data_param {
    source: "/home/mohanty/data/final_dataset/lmdb/segmented-50-50/test_db"
    batch_size: 100
    backend: LMDB
  }
}
layer {
  name: "conv1"
  type: "Convolution"
  bottom: "data"
  top: "conv1"
  param {
    lr_mult: 1
    decay_mult: 1
  }
  param {
    lr_mult: 2
    decay_mult: 0
  }
  convolution_param {
    num_output: 96
    kernel_size: 11
    stride: 4
    weight_filler {
      type: "gaussian"
      std: 0.01
    }
    bias_filler {
      type: "constant"
      value: 0
    }
  }
}
layer {
  name: "relu1"
  type: "ReLU"
  bottom: "conv1"
  top: "conv1"
}
layer {
  name: "norm1"
  type: "LRN"
  bottom: "conv1"
  top: "norm1"
  lrn_param {
    local_size: 5
    alpha: 0.0001
    beta: 0.75
  }
}
layer {
  name: "pool1"
  type: "Pooling"
  bottom: "norm1"
  top: "pool1"
  pooling_param {
    pool: MAX
    kernel_size: 3
    stride: 2
  }
}
layer {
  name: "conv2"
  type: "Convolution"
  bottom: "pool1"
  top: "conv2"
  param {
    lr_mult: 1
    decay_mult: 1
  }
  param {
    lr_mult: 2
    decay_mult: 0
  }
  convolution_param {
    num_output: 256
    pad: 2
    kernel_size: 5
    group: 2
    weight_filler {
      type: "gaussian"
      std: 0.01
    }
    bias_filler {
      type: "constant"
      value: 0.1
    }
  }
}
layer {
  name: "relu2"
  type: "ReLU"
  bottom: "conv2"
  top: "conv2"
}
layer {
  name: "norm2"
  type: "LRN"
  bottom: "conv2"
  top: "norm2"
  lrn_param {
    local_size: 5
    alpha: 0.0001
    beta: 0.75
  }
}
layer {
  name: "pool2"
  type: "Pooling"
  bottom: "norm2"
  top: "pool2"
  pooling_param {
    pool: MAX
    kernel_size: 3
    stride: 2
  }
}
layer {
  name: "conv3"
  type: "Convolution"
  bottom: "pool2"
  top: "conv3"
  param {
    lr_mult: 1
    decay_mult: 1
  }
  param {
    lr_mult: 2
    decay_mult: 0
  }
  convolution_param {
    num_output: 384
    pad: 1
    kernel_size: 3
    weight_filler {
      type: "gaussian"
      std: 0.01
    }
    bias_filler {
      type: "constant"
      value: 0
    }
  }
}
layer {
  name: "relu3"
  type: "ReLU"
  bottom: "conv3"
  top: "conv3"
}
layer {
  name: "conv4"
  type: "Convolution"
  bottom: "conv3"
  top: "conv4"
  param {
    lr_mult: 1
    decay_mult: 1
  }
  param {
    lr_mult: 2
    decay_mult: 0
  }
  convolution_param {
    num_output: 384
    pad: 1
    kernel_size: 3
    group: 2
    weight_filler {
      type: "gaussian"
      std: 0.01
    }
    bias_filler {
      type: "constant"
      value: 0.1
    }
  }
}
layer {
  name: "relu4"
  type: "ReLU"
  bottom: "conv4"
  top: "conv4"
}
layer {
  name: "conv5"
  type: "Convolution"
  bottom: "conv4"
  top: "conv5"
  param {
    lr_mult: 1
    decay_mult: 1
  }
  param {
    lr_mult: 2
    decay_mult: 0
  }
  convolution_param {
    num_output: 256
    pad: 1
    kernel_size: 3
    group: 2
    weight_filler {
      type: "gaussian"
      std: 0.01
    }
    bias_filler {
      type: "constant"
      value: 0.1
    }
  }
}
layer {
  name: "relu5"
  type: "ReLU"
  bottom: "conv5"
  top: "conv5"
}
layer {
  name: "pool5"
  type: "Pooling"
  bottom: "conv5"
  top: "pool5"
  pooling_param {
    pool: MAX
    kernel_size: 3
    stride: 2
  }
}
layer {
  name: "fc6"
  type: "InnerProduct"
  bottom: "pool5"
  top: "fc6"
  param {
    lr_mult: 1
    decay_mult: 1
  }
  param {
    lr_mult: 2
    decay_mult: 0
  }
  inner_product_param {
    num_output: 4096
    weight_filler {
      type: "gaussian"
      std: 0.005
    }
    bias_filler {
      type: "constant"
      value: 0.1
    }
  }
}
layer {
  name: "relu6"
  type: "ReLU"
  bottom: "fc6"
  top: "fc6"
}
layer {
  name: "drop6"
  type: "Dropout"
  bottom: "fc6"
  top: "fc6"
  dropout_param {
    dropout_ratio: 0.5
  }
}
layer {
  name: "fc7"
  type: "InnerProduct"
  bottom: "fc6"
  top: "fc7"
  param {
    lr_mult: 1
    decay_mult: 1
  }
  param {
    lr_mult: 2
    decay_mult: 0
  }
  inner_product_param {
    num_output: 4096
    weight_filler {
      type: "gaussian"
      std: 0.005
    }
    bias_filler {
      type: "constant"
      value: 0.1
    }
  }
}
layer {
  name: "relu7"
  type: "ReLU"
  bottom: "fc7"
  top: "fc7"
}
layer {
  name: "drop7"
  type: "Dropout"
  bottom: "fc7"
  top: "fc7"
  dropout_param {
    dropout_ratio: 0.5
  }
}
layer {
  name: "fc8_plantvillage"
  type: "InnerProduct"
  bottom: "fc7"
  top: "fc8_plantvillage"
  param {
    lr_mult: 1
    decay_mult: 1
  }
  param {
    lr_mult: 2
    decay_mult: 0
  }
  inner_product_param {
    num_output: 38
    weight_filler {
      type: "gaussian"
      std: 0.01
    }
    bias_filler {
      type: "constant"
      value: 0
    }
  }
}
layer {
  name: "prob"
  type: "Softmax"
  bottom: "fc8_plantvillage"
  top: "prob"
  include {
    phase: TEST
  }
}
layer {
  name: "hdf5out"
  type: "HDF5Output"
  bottom: "prob"
  bottom: "label"
  include {
    phase: TEST
  }
  hdf5_output_param {
    file_name: "hdf5_dumps/iter_5628.h5"
  }
}
layer {
  name: "loss"
  type: "SoftmaxWithLoss"
  bottom: "fc8_plantvillage"
  bottom: "label"
  top: "loss"
}
layer {
  name: "accuracy"
  type: "Accuracy"
  bottom: "fc8_plantvillage"
  bottom: "label"
  top: "accuracy"
  include {
    phase: TEST
  }
}
I0403 12:59:55.997898 10009 layer_factory.hpp:77] Creating layer data
I0403 12:59:55.998564 10009 net.cpp:91] Creating Layer data
I0403 12:59:55.998607 10009 net.cpp:399] data -> data
I0403 12:59:55.998662 10009 net.cpp:399] data -> label
I0403 12:59:55.998700 10009 data_transformer.cpp:25] Loading mean file from: /home/mohanty/data/final_dataset/lmdb/segmented-50-50/mean.binaryproto
I0403 12:59:56.001704 10012 db_lmdb.cpp:38] Opened lmdb /home/mohanty/data/final_dataset/lmdb/segmented-50-50/test_db
I0403 12:59:56.013147 10009 data_layer.cpp:41] output data size: 100,3,227,227
I0403 12:59:56.133638 10009 net.cpp:141] Setting up data
I0403 12:59:56.133731 10009 net.cpp:148] Top shape: 100 3 227 227 (15458700)
I0403 12:59:56.133756 10009 net.cpp:148] Top shape: 100 (100)
I0403 12:59:56.133774 10009 net.cpp:156] Memory required for data: 61835200
I0403 12:59:56.133803 10009 layer_factory.hpp:77] Creating layer label_data_1_split
I0403 12:59:56.133829 10009 net.cpp:91] Creating Layer label_data_1_split
I0403 12:59:56.133848 10009 net.cpp:425] label_data_1_split <- label
I0403 12:59:56.133880 10009 net.cpp:399] label_data_1_split -> label_data_1_split_0
I0403 12:59:56.133909 10009 net.cpp:399] label_data_1_split -> label_data_1_split_1
I0403 12:59:56.133931 10009 net.cpp:399] label_data_1_split -> label_data_1_split_2
I0403 12:59:56.133997 10009 net.cpp:141] Setting up label_data_1_split
I0403 12:59:56.134023 10009 net.cpp:148] Top shape: 100 (100)
I0403 12:59:56.134042 10009 net.cpp:148] Top shape: 100 (100)
I0403 12:59:56.134058 10009 net.cpp:148] Top shape: 100 (100)
I0403 12:59:56.134073 10009 net.cpp:156] Memory required for data: 61836400
I0403 12:59:56.134088 10009 layer_factory.hpp:77] Creating layer conv1
I0403 12:59:56.134121 10009 net.cpp:91] Creating Layer conv1
I0403 12:59:56.134141 10009 net.cpp:425] conv1 <- data
I0403 12:59:56.134160 10009 net.cpp:399] conv1 -> conv1
I0403 12:59:56.276161 10009 net.cpp:141] Setting up conv1
I0403 12:59:56.276240 10009 net.cpp:148] Top shape: 100 96 55 55 (29040000)
I0403 12:59:56.276257 10009 net.cpp:156] Memory required for data: 177996400
I0403 12:59:56.276288 10009 layer_factory.hpp:77] Creating layer relu1
I0403 12:59:56.276315 10009 net.cpp:91] Creating Layer relu1
I0403 12:59:56.276355 10009 net.cpp:425] relu1 <- conv1
I0403 12:59:56.276377 10009 net.cpp:386] relu1 -> conv1 (in-place)
I0403 12:59:56.276666 10009 net.cpp:141] Setting up relu1
I0403 12:59:56.276693 10009 net.cpp:148] Top shape: 100 96 55 55 (29040000)
I0403 12:59:56.276743 10009 net.cpp:156] Memory required for data: 294156400
I0403 12:59:56.276759 10009 layer_factory.hpp:77] Creating layer norm1
I0403 12:59:56.276789 10009 net.cpp:91] Creating Layer norm1
I0403 12:59:56.276808 10009 net.cpp:425] norm1 <- conv1
I0403 12:59:56.276825 10009 net.cpp:399] norm1 -> norm1
I0403 12:59:56.277154 10009 net.cpp:141] Setting up norm1
I0403 12:59:56.277184 10009 net.cpp:148] Top shape: 100 96 55 55 (29040000)
I0403 12:59:56.277201 10009 net.cpp:156] Memory required for data: 410316400
I0403 12:59:56.277216 10009 layer_factory.hpp:77] Creating layer pool1
I0403 12:59:56.277240 10009 net.cpp:91] Creating Layer pool1
I0403 12:59:56.277256 10009 net.cpp:425] pool1 <- norm1
I0403 12:59:56.277274 10009 net.cpp:399] pool1 -> pool1
I0403 12:59:56.277346 10009 net.cpp:141] Setting up pool1
I0403 12:59:56.277370 10009 net.cpp:148] Top shape: 100 96 27 27 (6998400)
I0403 12:59:56.277385 10009 net.cpp:156] Memory required for data: 438310000
I0403 12:59:56.277400 10009 layer_factory.hpp:77] Creating layer conv2
I0403 12:59:56.277426 10009 net.cpp:91] Creating Layer conv2
I0403 12:59:56.277443 10009 net.cpp:425] conv2 <- pool1
I0403 12:59:56.277463 10009 net.cpp:399] conv2 -> conv2
I0403 12:59:56.292603 10009 net.cpp:141] Setting up conv2
I0403 12:59:56.292678 10009 net.cpp:148] Top shape: 100 256 27 27 (18662400)
I0403 12:59:56.292695 10009 net.cpp:156] Memory required for data: 512959600
I0403 12:59:56.292716 10009 layer_factory.hpp:77] Creating layer relu2
I0403 12:59:56.292739 10009 net.cpp:91] Creating Layer relu2
I0403 12:59:56.292757 10009 net.cpp:425] relu2 <- conv2
I0403 12:59:56.292774 10009 net.cpp:386] relu2 -> conv2 (in-place)
I0403 12:59:56.293058 10009 net.cpp:141] Setting up relu2
I0403 12:59:56.293087 10009 net.cpp:148] Top shape: 100 256 27 27 (18662400)
I0403 12:59:56.293102 10009 net.cpp:156] Memory required for data: 587609200
I0403 12:59:56.293118 10009 layer_factory.hpp:77] Creating layer norm2
I0403 12:59:56.293139 10009 net.cpp:91] Creating Layer norm2
I0403 12:59:56.293157 10009 net.cpp:425] norm2 <- conv2
I0403 12:59:56.293174 10009 net.cpp:399] norm2 -> norm2
I0403 12:59:56.293387 10009 net.cpp:141] Setting up norm2
I0403 12:59:56.293413 10009 net.cpp:148] Top shape: 100 256 27 27 (18662400)
I0403 12:59:56.293428 10009 net.cpp:156] Memory required for data: 662258800
I0403 12:59:56.293442 10009 layer_factory.hpp:77] Creating layer pool2
I0403 12:59:56.293463 10009 net.cpp:91] Creating Layer pool2
I0403 12:59:56.293479 10009 net.cpp:425] pool2 <- norm2
I0403 12:59:56.293509 10009 net.cpp:399] pool2 -> pool2
I0403 12:59:56.293561 10009 net.cpp:141] Setting up pool2
I0403 12:59:56.293583 10009 net.cpp:148] Top shape: 100 256 13 13 (4326400)
I0403 12:59:56.293601 10009 net.cpp:156] Memory required for data: 679564400
I0403 12:59:56.293619 10009 layer_factory.hpp:77] Creating layer conv3
I0403 12:59:56.293643 10009 net.cpp:91] Creating Layer conv3
I0403 12:59:56.293660 10009 net.cpp:425] conv3 <- pool2
I0403 12:59:56.293680 10009 net.cpp:399] conv3 -> conv3
I0403 12:59:56.332484 10009 net.cpp:141] Setting up conv3
I0403 12:59:56.332557 10009 net.cpp:148] Top shape: 100 384 13 13 (6489600)
I0403 12:59:56.332577 10009 net.cpp:156] Memory required for data: 705522800
I0403 12:59:56.332607 10009 layer_factory.hpp:77] Creating layer relu3
I0403 12:59:56.332633 10009 net.cpp:91] Creating Layer relu3
I0403 12:59:56.332650 10009 net.cpp:425] relu3 <- conv3
I0403 12:59:56.332669 10009 net.cpp:386] relu3 -> conv3 (in-place)
I0403 12:59:56.332993 10009 net.cpp:141] Setting up relu3
I0403 12:59:56.333024 10009 net.cpp:148] Top shape: 100 384 13 13 (6489600)
I0403 12:59:56.333039 10009 net.cpp:156] Memory required for data: 731481200
I0403 12:59:56.333055 10009 layer_factory.hpp:77] Creating layer conv4
I0403 12:59:56.333081 10009 net.cpp:91] Creating Layer conv4
I0403 12:59:56.333099 10009 net.cpp:425] conv4 <- conv3
I0403 12:59:56.333118 10009 net.cpp:399] conv4 -> conv4
I0403 12:59:56.363548 10009 net.cpp:141] Setting up conv4
I0403 12:59:56.363625 10009 net.cpp:148] Top shape: 100 384 13 13 (6489600)
I0403 12:59:56.363677 10009 net.cpp:156] Memory required for data: 757439600
I0403 12:59:56.363699 10009 layer_factory.hpp:77] Creating layer relu4
I0403 12:59:56.363725 10009 net.cpp:91] Creating Layer relu4
I0403 12:59:56.363744 10009 net.cpp:425] relu4 <- conv4
I0403 12:59:56.363764 10009 net.cpp:386] relu4 -> conv4 (in-place)
I0403 12:59:56.364051 10009 net.cpp:141] Setting up relu4
I0403 12:59:56.364078 10009 net.cpp:148] Top shape: 100 384 13 13 (6489600)
I0403 12:59:56.364094 10009 net.cpp:156] Memory required for data: 783398000
I0403 12:59:56.364109 10009 layer_factory.hpp:77] Creating layer conv5
I0403 12:59:56.364135 10009 net.cpp:91] Creating Layer conv5
I0403 12:59:56.364153 10009 net.cpp:425] conv5 <- conv4
I0403 12:59:56.364202 10009 net.cpp:399] conv5 -> conv5
I0403 12:59:56.385226 10009 net.cpp:141] Setting up conv5
I0403 12:59:56.385280 10009 net.cpp:148] Top shape: 100 256 13 13 (4326400)
I0403 12:59:56.385296 10009 net.cpp:156] Memory required for data: 800703600
I0403 12:59:56.385321 10009 layer_factory.hpp:77] Creating layer relu5
I0403 12:59:56.385349 10009 net.cpp:91] Creating Layer relu5
I0403 12:59:56.385366 10009 net.cpp:425] relu5 <- conv5
I0403 12:59:56.385385 10009 net.cpp:386] relu5 -> conv5 (in-place)
I0403 12:59:56.385674 10009 net.cpp:141] Setting up relu5
I0403 12:59:56.385704 10009 net.cpp:148] Top shape: 100 256 13 13 (4326400)
I0403 12:59:56.385720 10009 net.cpp:156] Memory required for data: 818009200
I0403 12:59:56.385735 10009 layer_factory.hpp:77] Creating layer pool5
I0403 12:59:56.385758 10009 net.cpp:91] Creating Layer pool5
I0403 12:59:56.385774 10009 net.cpp:425] pool5 <- conv5
I0403 12:59:56.385794 10009 net.cpp:399] pool5 -> pool5
I0403 12:59:56.385857 10009 net.cpp:141] Setting up pool5
I0403 12:59:56.385884 10009 net.cpp:148] Top shape: 100 256 6 6 (921600)
I0403 12:59:56.385900 10009 net.cpp:156] Memory required for data: 821695600
I0403 12:59:56.385915 10009 layer_factory.hpp:77] Creating layer fc6
I0403 12:59:56.385941 10009 net.cpp:91] Creating Layer fc6
I0403 12:59:56.385958 10009 net.cpp:425] fc6 <- pool5
I0403 12:59:56.385978 10009 net.cpp:399] fc6 -> fc6
I0403 12:59:57.957978 10009 net.cpp:141] Setting up fc6
I0403 12:59:57.958053 10009 net.cpp:148] Top shape: 100 4096 (409600)
I0403 12:59:57.958070 10009 net.cpp:156] Memory required for data: 823334000
I0403 12:59:57.958091 10009 layer_factory.hpp:77] Creating layer relu6
I0403 12:59:57.958115 10009 net.cpp:91] Creating Layer relu6
I0403 12:59:57.958134 10009 net.cpp:425] relu6 <- fc6
I0403 12:59:57.958153 10009 net.cpp:386] relu6 -> fc6 (in-place)
I0403 12:59:57.958374 10009 net.cpp:141] Setting up relu6
I0403 12:59:57.958398 10009 net.cpp:148] Top shape: 100 4096 (409600)
I0403 12:59:57.958413 10009 net.cpp:156] Memory required for data: 824972400
I0403 12:59:57.958427 10009 layer_factory.hpp:77] Creating layer drop6
I0403 12:59:57.958447 10009 net.cpp:91] Creating Layer drop6
I0403 12:59:57.958463 10009 net.cpp:425] drop6 <- fc6
I0403 12:59:57.958480 10009 net.cpp:386] drop6 -> fc6 (in-place)
I0403 12:59:57.958534 10009 net.cpp:141] Setting up drop6
I0403 12:59:57.958557 10009 net.cpp:148] Top shape: 100 4096 (409600)
I0403 12:59:57.958571 10009 net.cpp:156] Memory required for data: 826610800
I0403 12:59:57.958585 10009 layer_factory.hpp:77] Creating layer fc7
I0403 12:59:57.958611 10009 net.cpp:91] Creating Layer fc7
I0403 12:59:57.958629 10009 net.cpp:425] fc7 <- fc6
I0403 12:59:57.958647 10009 net.cpp:399] fc7 -> fc7
I0403 12:59:58.649802 10009 net.cpp:141] Setting up fc7
I0403 12:59:58.649881 10009 net.cpp:148] Top shape: 100 4096 (409600)
I0403 12:59:58.649899 10009 net.cpp:156] Memory required for data: 828249200
I0403 12:59:58.649921 10009 layer_factory.hpp:77] Creating layer relu7
I0403 12:59:58.649943 10009 net.cpp:91] Creating Layer relu7
I0403 12:59:58.649962 10009 net.cpp:425] relu7 <- fc7
I0403 12:59:58.649982 10009 net.cpp:386] relu7 -> fc7 (in-place)
I0403 12:59:58.650389 10009 net.cpp:141] Setting up relu7
I0403 12:59:58.650418 10009 net.cpp:148] Top shape: 100 4096 (409600)
I0403 12:59:58.650461 10009 net.cpp:156] Memory required for data: 829887600
I0403 12:59:58.650476 10009 layer_factory.hpp:77] Creating layer drop7
I0403 12:59:58.650495 10009 net.cpp:91] Creating Layer drop7
I0403 12:59:58.650511 10009 net.cpp:425] drop7 <- fc7
I0403 12:59:58.650527 10009 net.cpp:386] drop7 -> fc7 (in-place)
I0403 12:59:58.650581 10009 net.cpp:141] Setting up drop7
I0403 12:59:58.650607 10009 net.cpp:148] Top shape: 100 4096 (409600)
I0403 12:59:58.650622 10009 net.cpp:156] Memory required for data: 831526000
I0403 12:59:58.650637 10009 layer_factory.hpp:77] Creating layer fc8_plantvillage
I0403 12:59:58.650658 10009 net.cpp:91] Creating Layer fc8_plantvillage
I0403 12:59:58.650676 10009 net.cpp:425] fc8_plantvillage <- fc7
I0403 12:59:58.650692 10009 net.cpp:399] fc8_plantvillage -> fc8_plantvillage
I0403 12:59:58.657480 10009 net.cpp:141] Setting up fc8_plantvillage
I0403 12:59:58.657510 10009 net.cpp:148] Top shape: 100 38 (3800)
I0403 12:59:58.657526 10009 net.cpp:156] Memory required for data: 831541200
I0403 12:59:58.657543 10009 layer_factory.hpp:77] Creating layer fc8_plantvillage_fc8_plantvillage_0_split
I0403 12:59:58.657565 10009 net.cpp:91] Creating Layer fc8_plantvillage_fc8_plantvillage_0_split
I0403 12:59:58.657582 10009 net.cpp:425] fc8_plantvillage_fc8_plantvillage_0_split <- fc8_plantvillage
I0403 12:59:58.657601 10009 net.cpp:399] fc8_plantvillage_fc8_plantvillage_0_split -> fc8_plantvillage_fc8_plantvillage_0_split_0
I0403 12:59:58.657627 10009 net.cpp:399] fc8_plantvillage_fc8_plantvillage_0_split -> fc8_plantvillage_fc8_plantvillage_0_split_1
I0403 12:59:58.657649 10009 net.cpp:399] fc8_plantvillage_fc8_plantvillage_0_split -> fc8_plantvillage_fc8_plantvillage_0_split_2
I0403 12:59:58.657727 10009 net.cpp:141] Setting up fc8_plantvillage_fc8_plantvillage_0_split
I0403 12:59:58.657753 10009 net.cpp:148] Top shape: 100 38 (3800)
I0403 12:59:58.657770 10009 net.cpp:148] Top shape: 100 38 (3800)
I0403 12:59:58.657785 10009 net.cpp:148] Top shape: 100 38 (3800)
I0403 12:59:58.657799 10009 net.cpp:156] Memory required for data: 831586800
I0403 12:59:58.657814 10009 layer_factory.hpp:77] Creating layer prob
I0403 12:59:58.657836 10009 net.cpp:91] Creating Layer prob
I0403 12:59:58.657853 10009 net.cpp:425] prob <- fc8_plantvillage_fc8_plantvillage_0_split_0
I0403 12:59:58.657872 10009 net.cpp:399] prob -> prob
I0403 12:59:58.658100 10009 net.cpp:141] Setting up prob
I0403 12:59:58.658125 10009 net.cpp:148] Top shape: 100 38 (3800)
I0403 12:59:58.658140 10009 net.cpp:156] Memory required for data: 831602000
I0403 12:59:58.658154 10009 layer_factory.hpp:77] Creating layer hdf5out
I0403 12:59:58.658174 10009 net.cpp:91] Creating Layer hdf5out
I0403 12:59:58.658190 10009 net.cpp:425] hdf5out <- prob
I0403 12:59:58.658207 10009 net.cpp:425] hdf5out <- label_data_1_split_0
I0403 12:59:58.660516 10009 net.cpp:141] Setting up hdf5out
…
