…
I0403 13:02:27.380111 10091 net.cpp:313] The NetState phase (1) differed from the phase (0) specified by a rule in layer data
I0403 13:02:27.380420 10091 net.cpp:49] Initializing net from parameters: 
state {
  phase: TEST
}
layer {
  name: "data"
  type: "Data"
  top: "data"
  top: "label"
  include {
    phase: TEST
  }
  transform_param {
    crop_size: 227
    mean_file: "/home/mohanty/data/final_dataset/lmdb/segmented-50-50/mean.binaryproto"
  }
  data_param {
    source: "/home/mohanty/data/final_dataset/lmdb/segmented-50-50/test_db"
    batch_size: 100
    backend: LMDB
  }
}
layer {
  name: "conv1"
  type: "Convolution"
  bottom: "data"
  top: "conv1"
  param {
    lr_mult: 1
    decay_mult: 1
  }
  param {
    lr_mult: 2
    decay_mult: 0
  }
  convolution_param {
    num_output: 96
    kernel_size: 11
    stride: 4
    weight_filler {
      type: "gaussian"
      std: 0.01
    }
    bias_filler {
      type: "constant"
      value: 0
    }
  }
}
layer {
  name: "relu1"
  type: "ReLU"
  bottom: "conv1"
  top: "conv1"
}
layer {
  name: "norm1"
  type: "LRN"
  bottom: "conv1"
  top: "norm1"
  lrn_param {
    local_size: 5
    alpha: 0.0001
    beta: 0.75
  }
}
layer {
  name: "pool1"
  type: "Pooling"
  bottom: "norm1"
  top: "pool1"
  pooling_param {
    pool: MAX
    kernel_size: 3
    stride: 2
  }
}
layer {
  name: "conv2"
  type: "Convolution"
  bottom: "pool1"
  top: "conv2"
  param {
    lr_mult: 1
    decay_mult: 1
  }
  param {
    lr_mult: 2
    decay_mult: 0
  }
  convolution_param {
    num_output: 256
    pad: 2
    kernel_size: 5
    group: 2
    weight_filler {
      type: "gaussian"
      std: 0.01
    }
    bias_filler {
      type: "constant"
      value: 0.1
    }
  }
}
layer {
  name: "relu2"
  type: "ReLU"
  bottom: "conv2"
  top: "conv2"
}
layer {
  name: "norm2"
  type: "LRN"
  bottom: "conv2"
  top: "norm2"
  lrn_param {
    local_size: 5
    alpha: 0.0001
    beta: 0.75
  }
}
layer {
  name: "pool2"
  type: "Pooling"
  bottom: "norm2"
  top: "pool2"
  pooling_param {
    pool: MAX
    kernel_size: 3
    stride: 2
  }
}
layer {
  name: "conv3"
  type: "Convolution"
  bottom: "pool2"
  top: "conv3"
  param {
    lr_mult: 1
    decay_mult: 1
  }
  param {
    lr_mult: 2
    decay_mult: 0
  }
  convolution_param {
    num_output: 384
    pad: 1
    kernel_size: 3
    weight_filler {
      type: "gaussian"
      std: 0.01
    }
    bias_filler {
      type: "constant"
      value: 0
    }
  }
}
layer {
  name: "relu3"
  type: "ReLU"
  bottom: "conv3"
  top: "conv3"
}
layer {
  name: "conv4"
  type: "Convolution"
  bottom: "conv3"
  top: "conv4"
  param {
    lr_mult: 1
    decay_mult: 1
  }
  param {
    lr_mult: 2
    decay_mult: 0
  }
  convolution_param {
    num_output: 384
    pad: 1
    kernel_size: 3
    group: 2
    weight_filler {
      type: "gaussian"
      std: 0.01
    }
    bias_filler {
      type: "constant"
      value: 0.1
    }
  }
}
layer {
  name: "relu4"
  type: "ReLU"
  bottom: "conv4"
  top: "conv4"
}
layer {
  name: "conv5"
  type: "Convolution"
  bottom: "conv4"
  top: "conv5"
  param {
    lr_mult: 1
    decay_mult: 1
  }
  param {
    lr_mult: 2
    decay_mult: 0
  }
  convolution_param {
    num_output: 256
    pad: 1
    kernel_size: 3
    group: 2
    weight_filler {
      type: "gaussian"
      std: 0.01
    }
    bias_filler {
      type: "constant"
      value: 0.1
    }
  }
}
layer {
  name: "relu5"
  type: "ReLU"
  bottom: "conv5"
  top: "conv5"
}
layer {
  name: "pool5"
  type: "Pooling"
  bottom: "conv5"
  top: "pool5"
  pooling_param {
    pool: MAX
    kernel_size: 3
    stride: 2
  }
}
layer {
  name: "fc6"
  type: "InnerProduct"
  bottom: "pool5"
  top: "fc6"
  param {
    lr_mult: 1
    decay_mult: 1
  }
  param {
    lr_mult: 2
    decay_mult: 0
  }
  inner_product_param {
    num_output: 4096
    weight_filler {
      type: "gaussian"
      std: 0.005
    }
    bias_filler {
      type: "constant"
      value: 0.1
    }
  }
}
layer {
  name: "relu6"
  type: "ReLU"
  bottom: "fc6"
  top: "fc6"
}
layer {
  name: "drop6"
  type: "Dropout"
  bottom: "fc6"
  top: "fc6"
  dropout_param {
    dropout_ratio: 0.5
  }
}
layer {
  name: "fc7"
  type: "InnerProduct"
  bottom: "fc6"
  top: "fc7"
  param {
    lr_mult: 1
    decay_mult: 1
  }
  param {
    lr_mult: 2
    decay_mult: 0
  }
  inner_product_param {
    num_output: 4096
    weight_filler {
      type: "gaussian"
      std: 0.005
    }
    bias_filler {
      type: "constant"
      value: 0.1
    }
  }
}
layer {
  name: "relu7"
  type: "ReLU"
  bottom: "fc7"
  top: "fc7"
}
layer {
  name: "drop7"
  type: "Dropout"
  bottom: "fc7"
  top: "fc7"
  dropout_param {
    dropout_ratio: 0.5
  }
}
layer {
  name: "fc8_plantvillage"
  type: "InnerProduct"
  bottom: "fc7"
  top: "fc8_plantvillage"
  param {
    lr_mult: 1
    decay_mult: 1
  }
  param {
    lr_mult: 2
    decay_mult: 0
  }
  inner_product_param {
    num_output: 38
    weight_filler {
      type: "gaussian"
      std: 0.01
    }
    bias_filler {
      type: "constant"
      value: 0
    }
  }
}
layer {
  name: "prob"
  type: "Softmax"
  bottom: "fc8_plantvillage"
  top: "prob"
  include {
    phase: TEST
  }
}
layer {
  name: "hdf5out"
  type: "HDF5Output"
  bottom: "prob"
  bottom: "label"
  include {
    phase: TEST
  }
  hdf5_output_param {
    file_name: "hdf5_dumps/iter_6432.h5"
  }
}
layer {
  name: "loss"
  type: "SoftmaxWithLoss"
  bottom: "fc8_plantvillage"
  bottom: "label"
  top: "loss"
}
layer {
  name: "accuracy"
  type: "Accuracy"
  bottom: "fc8_plantvillage"
  bottom: "label"
  top: "accuracy"
  include {
    phase: TEST
  }
}
I0403 13:02:27.381108 10091 layer_factory.hpp:77] Creating layer data
I0403 13:02:27.381765 10091 net.cpp:91] Creating Layer data
I0403 13:02:27.381799 10091 net.cpp:399] data -> data
I0403 13:02:27.381850 10091 net.cpp:399] data -> label
I0403 13:02:27.381887 10091 data_transformer.cpp:25] Loading mean file from: /home/mohanty/data/final_dataset/lmdb/segmented-50-50/mean.binaryproto
I0403 13:02:27.384784 10094 db_lmdb.cpp:38] Opened lmdb /home/mohanty/data/final_dataset/lmdb/segmented-50-50/test_db
I0403 13:02:27.417562 10091 data_layer.cpp:41] output data size: 100,3,227,227
I0403 13:02:27.539166 10091 net.cpp:141] Setting up data
I0403 13:02:27.539260 10091 net.cpp:148] Top shape: 100 3 227 227 (15458700)
I0403 13:02:27.539294 10091 net.cpp:148] Top shape: 100 (100)
I0403 13:02:27.539311 10091 net.cpp:156] Memory required for data: 61835200
I0403 13:02:27.539340 10091 layer_factory.hpp:77] Creating layer label_data_1_split
I0403 13:02:27.539366 10091 net.cpp:91] Creating Layer label_data_1_split
I0403 13:02:27.539384 10091 net.cpp:425] label_data_1_split <- label
I0403 13:02:27.539417 10091 net.cpp:399] label_data_1_split -> label_data_1_split_0
I0403 13:02:27.539444 10091 net.cpp:399] label_data_1_split -> label_data_1_split_1
I0403 13:02:27.539465 10091 net.cpp:399] label_data_1_split -> label_data_1_split_2
I0403 13:02:27.539530 10091 net.cpp:141] Setting up label_data_1_split
I0403 13:02:27.539553 10091 net.cpp:148] Top shape: 100 (100)
I0403 13:02:27.539573 10091 net.cpp:148] Top shape: 100 (100)
I0403 13:02:27.539592 10091 net.cpp:148] Top shape: 100 (100)
I0403 13:02:27.539618 10091 net.cpp:156] Memory required for data: 61836400
I0403 13:02:27.539633 10091 layer_factory.hpp:77] Creating layer conv1
I0403 13:02:27.539664 10091 net.cpp:91] Creating Layer conv1
I0403 13:02:27.539680 10091 net.cpp:425] conv1 <- data
I0403 13:02:27.539700 10091 net.cpp:399] conv1 -> conv1
I0403 13:02:27.676496 10091 net.cpp:141] Setting up conv1
I0403 13:02:27.676563 10091 net.cpp:148] Top shape: 100 96 55 55 (29040000)
I0403 13:02:27.676585 10091 net.cpp:156] Memory required for data: 177996400
I0403 13:02:27.676616 10091 layer_factory.hpp:77] Creating layer relu1
I0403 13:02:27.676645 10091 net.cpp:91] Creating Layer relu1
I0403 13:02:27.676663 10091 net.cpp:425] relu1 <- conv1
I0403 13:02:27.676686 10091 net.cpp:386] relu1 -> conv1 (in-place)
I0403 13:02:27.676977 10091 net.cpp:141] Setting up relu1
I0403 13:02:27.677006 10091 net.cpp:148] Top shape: 100 96 55 55 (29040000)
I0403 13:02:27.677052 10091 net.cpp:156] Memory required for data: 294156400
I0403 13:02:27.677068 10091 layer_factory.hpp:77] Creating layer norm1
I0403 13:02:27.677099 10091 net.cpp:91] Creating Layer norm1
I0403 13:02:27.677119 10091 net.cpp:425] norm1 <- conv1
I0403 13:02:27.677136 10091 net.cpp:399] norm1 -> norm1
I0403 13:02:27.677461 10091 net.cpp:141] Setting up norm1
I0403 13:02:27.677489 10091 net.cpp:148] Top shape: 100 96 55 55 (29040000)
I0403 13:02:27.677503 10091 net.cpp:156] Memory required for data: 410316400
I0403 13:02:27.677528 10091 layer_factory.hpp:77] Creating layer pool1
I0403 13:02:27.677553 10091 net.cpp:91] Creating Layer pool1
I0403 13:02:27.677575 10091 net.cpp:425] pool1 <- norm1
I0403 13:02:27.677597 10091 net.cpp:399] pool1 -> pool1
I0403 13:02:27.677669 10091 net.cpp:141] Setting up pool1
I0403 13:02:27.677692 10091 net.cpp:148] Top shape: 100 96 27 27 (6998400)
I0403 13:02:27.677707 10091 net.cpp:156] Memory required for data: 438310000
I0403 13:02:27.677722 10091 layer_factory.hpp:77] Creating layer conv2
I0403 13:02:27.677748 10091 net.cpp:91] Creating Layer conv2
I0403 13:02:27.677764 10091 net.cpp:425] conv2 <- pool1
I0403 13:02:27.677785 10091 net.cpp:399] conv2 -> conv2
I0403 13:02:27.692821 10091 net.cpp:141] Setting up conv2
I0403 13:02:27.692873 10091 net.cpp:148] Top shape: 100 256 27 27 (18662400)
I0403 13:02:27.692890 10091 net.cpp:156] Memory required for data: 512959600
I0403 13:02:27.692916 10091 layer_factory.hpp:77] Creating layer relu2
I0403 13:02:27.692939 10091 net.cpp:91] Creating Layer relu2
I0403 13:02:27.692956 10091 net.cpp:425] relu2 <- conv2
I0403 13:02:27.692975 10091 net.cpp:386] relu2 -> conv2 (in-place)
I0403 13:02:27.693259 10091 net.cpp:141] Setting up relu2
I0403 13:02:27.693289 10091 net.cpp:148] Top shape: 100 256 27 27 (18662400)
I0403 13:02:27.693306 10091 net.cpp:156] Memory required for data: 587609200
I0403 13:02:27.693321 10091 layer_factory.hpp:77] Creating layer norm2
I0403 13:02:27.693343 10091 net.cpp:91] Creating Layer norm2
I0403 13:02:27.693361 10091 net.cpp:425] norm2 <- conv2
I0403 13:02:27.693380 10091 net.cpp:399] norm2 -> norm2
I0403 13:02:27.693589 10091 net.cpp:141] Setting up norm2
I0403 13:02:27.693616 10091 net.cpp:148] Top shape: 100 256 27 27 (18662400)
I0403 13:02:27.693632 10091 net.cpp:156] Memory required for data: 662258800
I0403 13:02:27.693647 10091 layer_factory.hpp:77] Creating layer pool2
I0403 13:02:27.693668 10091 net.cpp:91] Creating Layer pool2
I0403 13:02:27.693684 10091 net.cpp:425] pool2 <- norm2
I0403 13:02:27.693702 10091 net.cpp:399] pool2 -> pool2
I0403 13:02:27.693756 10091 net.cpp:141] Setting up pool2
I0403 13:02:27.693779 10091 net.cpp:148] Top shape: 100 256 13 13 (4326400)
I0403 13:02:27.693794 10091 net.cpp:156] Memory required for data: 679564400
I0403 13:02:27.693809 10091 layer_factory.hpp:77] Creating layer conv3
I0403 13:02:27.693833 10091 net.cpp:91] Creating Layer conv3
I0403 13:02:27.693850 10091 net.cpp:425] conv3 <- pool2
I0403 13:02:27.693871 10091 net.cpp:399] conv3 -> conv3
I0403 13:02:27.731992 10091 net.cpp:141] Setting up conv3
I0403 13:02:27.732069 10091 net.cpp:148] Top shape: 100 384 13 13 (6489600)
I0403 13:02:27.732085 10091 net.cpp:156] Memory required for data: 705522800
I0403 13:02:27.732111 10091 layer_factory.hpp:77] Creating layer relu3
I0403 13:02:27.732136 10091 net.cpp:91] Creating Layer relu3
I0403 13:02:27.732153 10091 net.cpp:425] relu3 <- conv3
I0403 13:02:27.732172 10091 net.cpp:386] relu3 -> conv3 (in-place)
I0403 13:02:27.732439 10091 net.cpp:141] Setting up relu3
I0403 13:02:27.732466 10091 net.cpp:148] Top shape: 100 384 13 13 (6489600)
I0403 13:02:27.732481 10091 net.cpp:156] Memory required for data: 731481200
I0403 13:02:27.732496 10091 layer_factory.hpp:77] Creating layer conv4
I0403 13:02:27.732523 10091 net.cpp:91] Creating Layer conv4
I0403 13:02:27.732542 10091 net.cpp:425] conv4 <- conv3
I0403 13:02:27.732559 10091 net.cpp:399] conv4 -> conv4
I0403 13:02:27.762320 10091 net.cpp:141] Setting up conv4
I0403 13:02:27.762388 10091 net.cpp:148] Top shape: 100 384 13 13 (6489600)
I0403 13:02:27.762441 10091 net.cpp:156] Memory required for data: 757439600
I0403 13:02:27.762465 10091 layer_factory.hpp:77] Creating layer relu4
I0403 13:02:27.762495 10091 net.cpp:91] Creating Layer relu4
I0403 13:02:27.762514 10091 net.cpp:425] relu4 <- conv4
I0403 13:02:27.762534 10091 net.cpp:386] relu4 -> conv4 (in-place)
I0403 13:02:27.762817 10091 net.cpp:141] Setting up relu4
I0403 13:02:27.762845 10091 net.cpp:148] Top shape: 100 384 13 13 (6489600)
I0403 13:02:27.762861 10091 net.cpp:156] Memory required for data: 783398000
I0403 13:02:27.762876 10091 layer_factory.hpp:77] Creating layer conv5
I0403 13:02:27.762903 10091 net.cpp:91] Creating Layer conv5
I0403 13:02:27.762922 10091 net.cpp:425] conv5 <- conv4
I0403 13:02:27.762943 10091 net.cpp:399] conv5 -> conv5
I0403 13:02:27.783484 10091 net.cpp:141] Setting up conv5
I0403 13:02:27.783543 10091 net.cpp:148] Top shape: 100 256 13 13 (4326400)
I0403 13:02:27.783560 10091 net.cpp:156] Memory required for data: 800703600
I0403 13:02:27.783593 10091 layer_factory.hpp:77] Creating layer relu5
I0403 13:02:27.783617 10091 net.cpp:91] Creating Layer relu5
I0403 13:02:27.783632 10091 net.cpp:425] relu5 <- conv5
I0403 13:02:27.783650 10091 net.cpp:386] relu5 -> conv5 (in-place)
I0403 13:02:27.783937 10091 net.cpp:141] Setting up relu5
I0403 13:02:27.783967 10091 net.cpp:148] Top shape: 100 256 13 13 (4326400)
I0403 13:02:27.783983 10091 net.cpp:156] Memory required for data: 818009200
I0403 13:02:27.783998 10091 layer_factory.hpp:77] Creating layer pool5
I0403 13:02:27.784020 10091 net.cpp:91] Creating Layer pool5
I0403 13:02:27.784036 10091 net.cpp:425] pool5 <- conv5
I0403 13:02:27.784059 10091 net.cpp:399] pool5 -> pool5
I0403 13:02:27.784121 10091 net.cpp:141] Setting up pool5
I0403 13:02:27.784143 10091 net.cpp:148] Top shape: 100 256 6 6 (921600)
I0403 13:02:27.784158 10091 net.cpp:156] Memory required for data: 821695600
I0403 13:02:27.784173 10091 layer_factory.hpp:77] Creating layer fc6
I0403 13:02:27.784201 10091 net.cpp:91] Creating Layer fc6
I0403 13:02:27.784219 10091 net.cpp:425] fc6 <- pool5
I0403 13:02:27.784240 10091 net.cpp:399] fc6 -> fc6
I0403 13:02:29.332061 10091 net.cpp:141] Setting up fc6
I0403 13:02:29.332121 10091 net.cpp:148] Top shape: 100 4096 (409600)
I0403 13:02:29.332137 10091 net.cpp:156] Memory required for data: 823334000
I0403 13:02:29.332159 10091 layer_factory.hpp:77] Creating layer relu6
I0403 13:02:29.332180 10091 net.cpp:91] Creating Layer relu6
I0403 13:02:29.332196 10091 net.cpp:425] relu6 <- fc6
I0403 13:02:29.332219 10091 net.cpp:386] relu6 -> fc6 (in-place)
I0403 13:02:29.332449 10091 net.cpp:141] Setting up relu6
I0403 13:02:29.332473 10091 net.cpp:148] Top shape: 100 4096 (409600)
I0403 13:02:29.332487 10091 net.cpp:156] Memory required for data: 824972400
I0403 13:02:29.332501 10091 layer_factory.hpp:77] Creating layer drop6
I0403 13:02:29.332521 10091 net.cpp:91] Creating Layer drop6
I0403 13:02:29.332537 10091 net.cpp:425] drop6 <- fc6
I0403 13:02:29.332554 10091 net.cpp:386] drop6 -> fc6 (in-place)
I0403 13:02:29.332608 10091 net.cpp:141] Setting up drop6
I0403 13:02:29.332630 10091 net.cpp:148] Top shape: 100 4096 (409600)
I0403 13:02:29.332644 10091 net.cpp:156] Memory required for data: 826610800
I0403 13:02:29.332659 10091 layer_factory.hpp:77] Creating layer fc7
I0403 13:02:29.332679 10091 net.cpp:91] Creating Layer fc7
I0403 13:02:29.332695 10091 net.cpp:425] fc7 <- fc6
I0403 13:02:29.332711 10091 net.cpp:399] fc7 -> fc7
I0403 13:02:30.016417 10091 net.cpp:141] Setting up fc7
I0403 13:02:30.016456 10091 net.cpp:148] Top shape: 100 4096 (409600)
I0403 13:02:30.016472 10091 net.cpp:156] Memory required for data: 828249200
I0403 13:02:30.016494 10091 layer_factory.hpp:77] Creating layer relu7
I0403 13:02:30.016516 10091 net.cpp:91] Creating Layer relu7
I0403 13:02:30.016535 10091 net.cpp:425] relu7 <- fc7
I0403 13:02:30.016552 10091 net.cpp:386] relu7 -> fc7 (in-place)
I0403 13:02:30.016957 10091 net.cpp:141] Setting up relu7
I0403 13:02:30.016981 10091 net.cpp:148] Top shape: 100 4096 (409600)
I0403 13:02:30.017035 10091 net.cpp:156] Memory required for data: 829887600
I0403 13:02:30.017050 10091 layer_factory.hpp:77] Creating layer drop7
I0403 13:02:30.017071 10091 net.cpp:91] Creating Layer drop7
I0403 13:02:30.017087 10091 net.cpp:425] drop7 <- fc7
I0403 13:02:30.017117 10091 net.cpp:386] drop7 -> fc7 (in-place)
I0403 13:02:30.017163 10091 net.cpp:141] Setting up drop7
I0403 13:02:30.017184 10091 net.cpp:148] Top shape: 100 4096 (409600)
I0403 13:02:30.017199 10091 net.cpp:156] Memory required for data: 831526000
I0403 13:02:30.017213 10091 layer_factory.hpp:77] Creating layer fc8_plantvillage
I0403 13:02:30.017232 10091 net.cpp:91] Creating Layer fc8_plantvillage
I0403 13:02:30.017247 10091 net.cpp:425] fc8_plantvillage <- fc7
I0403 13:02:30.017277 10091 net.cpp:399] fc8_plantvillage -> fc8_plantvillage
I0403 13:02:30.024193 10091 net.cpp:141] Setting up fc8_plantvillage
I0403 13:02:30.024224 10091 net.cpp:148] Top shape: 100 38 (3800)
I0403 13:02:30.024240 10091 net.cpp:156] Memory required for data: 831541200
I0403 13:02:30.024258 10091 layer_factory.hpp:77] Creating layer fc8_plantvillage_fc8_plantvillage_0_split
I0403 13:02:30.024277 10091 net.cpp:91] Creating Layer fc8_plantvillage_fc8_plantvillage_0_split
I0403 13:02:30.024292 10091 net.cpp:425] fc8_plantvillage_fc8_plantvillage_0_split <- fc8_plantvillage
I0403 13:02:30.024310 10091 net.cpp:399] fc8_plantvillage_fc8_plantvillage_0_split -> fc8_plantvillage_fc8_plantvillage_0_split_0
I0403 13:02:30.024330 10091 net.cpp:399] fc8_plantvillage_fc8_plantvillage_0_split -> fc8_plantvillage_fc8_plantvillage_0_split_1
I0403 13:02:30.024353 10091 net.cpp:399] fc8_plantvillage_fc8_plantvillage_0_split -> fc8_plantvillage_fc8_plantvillage_0_split_2
I0403 13:02:30.024435 10091 net.cpp:141] Setting up fc8_plantvillage_fc8_plantvillage_0_split
I0403 13:02:30.024458 10091 net.cpp:148] Top shape: 100 38 (3800)
I0403 13:02:30.024474 10091 net.cpp:148] Top shape: 100 38 (3800)
I0403 13:02:30.024490 10091 net.cpp:148] Top shape: 100 38 (3800)
I0403 13:02:30.024505 10091 net.cpp:156] Memory required for data: 831586800
I0403 13:02:30.024520 10091 layer_factory.hpp:77] Creating layer prob
I0403 13:02:30.024539 10091 net.cpp:91] Creating Layer prob
I0403 13:02:30.024554 10091 net.cpp:425] prob <- fc8_plantvillage_fc8_plantvillage_0_split_0
I0403 13:02:30.024583 10091 net.cpp:399] prob -> prob
I0403 13:02:30.024818 10091 net.cpp:141] Setting up prob
I0403 13:02:30.024844 10091 net.cpp:148] Top shape: 100 38 (3800)
I0403 13:02:30.024859 10091 net.cpp:156] Memory required for data: 831602000
I0403 13:02:30.024874 10091 layer_factory.hpp:77] Creating layer hdf5out
I0403 13:02:30.024896 10091 net.cpp:91] Creating Layer hdf5out
I0403 13:02:30.024914 10091 net.cpp:425] hdf5out <- prob
I0403 13:02:30.024930 10091 net.cpp:425] hdf5out <- label_data_1_split_0
I0403 13:02:30.027390 10091 net.cpp:141] Setting up hdf5out
…
