…
I0403 12:44:45.650503  9486 net.cpp:313] The NetState phase (1) differed from the phase (0) specified by a rule in layer data
I0403 12:44:45.650810  9486 net.cpp:49] Initializing net from parameters: 
state {
  phase: TEST
}
layer {
  name: "data"
  type: "Data"
  top: "data"
  top: "label"
  include {
    phase: TEST
  }
  transform_param {
    crop_size: 227
    mean_file: "/home/mohanty/data/final_dataset/lmdb/segmented-50-50/mean.binaryproto"
  }
  data_param {
    source: "/home/mohanty/data/final_dataset/lmdb/segmented-50-50/test_db"
    batch_size: 100
    backend: LMDB
  }
}
layer {
  name: "conv1"
  type: "Convolution"
  bottom: "data"
  top: "conv1"
  param {
    lr_mult: 1
    decay_mult: 1
  }
  param {
    lr_mult: 2
    decay_mult: 0
  }
  convolution_param {
    num_output: 96
    kernel_size: 11
    stride: 4
    weight_filler {
      type: "gaussian"
      std: 0.01
    }
    bias_filler {
      type: "constant"
      value: 0
    }
  }
}
layer {
  name: "relu1"
  type: "ReLU"
  bottom: "conv1"
  top: "conv1"
}
layer {
  name: "norm1"
  type: "LRN"
  bottom: "conv1"
  top: "norm1"
  lrn_param {
    local_size: 5
    alpha: 0.0001
    beta: 0.75
  }
}
layer {
  name: "pool1"
  type: "Pooling"
  bottom: "norm1"
  top: "pool1"
  pooling_param {
    pool: MAX
    kernel_size: 3
    stride: 2
  }
}
layer {
  name: "conv2"
  type: "Convolution"
  bottom: "pool1"
  top: "conv2"
  param {
    lr_mult: 1
    decay_mult: 1
  }
  param {
    lr_mult: 2
    decay_mult: 0
  }
  convolution_param {
    num_output: 256
    pad: 2
    kernel_size: 5
    group: 2
    weight_filler {
      type: "gaussian"
      std: 0.01
    }
    bias_filler {
      type: "constant"
      value: 0.1
    }
  }
}
layer {
  name: "relu2"
  type: "ReLU"
  bottom: "conv2"
  top: "conv2"
}
layer {
  name: "norm2"
  type: "LRN"
  bottom: "conv2"
  top: "norm2"
  lrn_param {
    local_size: 5
    alpha: 0.0001
    beta: 0.75
  }
}
layer {
  name: "pool2"
  type: "Pooling"
  bottom: "norm2"
  top: "pool2"
  pooling_param {
    pool: MAX
    kernel_size: 3
    stride: 2
  }
}
layer {
  name: "conv3"
  type: "Convolution"
  bottom: "pool2"
  top: "conv3"
  param {
    lr_mult: 1
    decay_mult: 1
  }
  param {
    lr_mult: 2
    decay_mult: 0
  }
  convolution_param {
    num_output: 384
    pad: 1
    kernel_size: 3
    weight_filler {
      type: "gaussian"
      std: 0.01
    }
    bias_filler {
      type: "constant"
      value: 0
    }
  }
}
layer {
  name: "relu3"
  type: "ReLU"
  bottom: "conv3"
  top: "conv3"
}
layer {
  name: "conv4"
  type: "Convolution"
  bottom: "conv3"
  top: "conv4"
  param {
    lr_mult: 1
    decay_mult: 1
  }
  param {
    lr_mult: 2
    decay_mult: 0
  }
  convolution_param {
    num_output: 384
    pad: 1
    kernel_size: 3
    group: 2
    weight_filler {
      type: "gaussian"
      std: 0.01
    }
    bias_filler {
      type: "constant"
      value: 0.1
    }
  }
}
layer {
  name: "relu4"
  type: "ReLU"
  bottom: "conv4"
  top: "conv4"
}
layer {
  name: "conv5"
  type: "Convolution"
  bottom: "conv4"
  top: "conv5"
  param {
    lr_mult: 1
    decay_mult: 1
  }
  param {
    lr_mult: 2
    decay_mult: 0
  }
  convolution_param {
    num_output: 256
    pad: 1
    kernel_size: 3
    group: 2
    weight_filler {
      type: "gaussian"
      std: 0.01
    }
    bias_filler {
      type: "constant"
      value: 0.1
    }
  }
}
layer {
  name: "relu5"
  type: "ReLU"
  bottom: "conv5"
  top: "conv5"
}
layer {
  name: "pool5"
  type: "Pooling"
  bottom: "conv5"
  top: "pool5"
  pooling_param {
    pool: MAX
    kernel_size: 3
    stride: 2
  }
}
layer {
  name: "fc6"
  type: "InnerProduct"
  bottom: "pool5"
  top: "fc6"
  param {
    lr_mult: 1
    decay_mult: 1
  }
  param {
    lr_mult: 2
    decay_mult: 0
  }
  inner_product_param {
    num_output: 4096
    weight_filler {
      type: "gaussian"
      std: 0.005
    }
    bias_filler {
      type: "constant"
      value: 0.1
    }
  }
}
layer {
  name: "relu6"
  type: "ReLU"
  bottom: "fc6"
  top: "fc6"
}
layer {
  name: "drop6"
  type: "Dropout"
  bottom: "fc6"
  top: "fc6"
  dropout_param {
    dropout_ratio: 0.5
  }
}
layer {
  name: "fc7"
  type: "InnerProduct"
  bottom: "fc6"
  top: "fc7"
  param {
    lr_mult: 1
    decay_mult: 1
  }
  param {
    lr_mult: 2
    decay_mult: 0
  }
  inner_product_param {
    num_output: 4096
    weight_filler {
      type: "gaussian"
      std: 0.005
    }
    bias_filler {
      type: "constant"
      value: 0.1
    }
  }
}
layer {
  name: "relu7"
  type: "ReLU"
  bottom: "fc7"
  top: "fc7"
}
layer {
  name: "drop7"
  type: "Dropout"
  bottom: "fc7"
  top: "fc7"
  dropout_param {
    dropout_ratio: 0.5
  }
}
layer {
  name: "fc8_plantvillage"
  type: "InnerProduct"
  bottom: "fc7"
  top: "fc8_plantvillage"
  param {
    lr_mult: 1
    decay_mult: 1
  }
  param {
    lr_mult: 2
    decay_mult: 0
  }
  inner_product_param {
    num_output: 38
    weight_filler {
      type: "gaussian"
      std: 0.01
    }
    bias_filler {
      type: "constant"
      value: 0
    }
  }
}
layer {
  name: "prob"
  type: "Softmax"
  bottom: "fc8_plantvillage"
  top: "prob"
  include {
    phase: TEST
  }
}
layer {
  name: "hdf5out"
  type: "HDF5Output"
  bottom: "prob"
  bottom: "label"
  include {
    phase: TEST
  }
  hdf5_output_param {
    file_name: "hdf5_dumps/iter_804.h5"
  }
}
layer {
  name: "loss"
  type: "SoftmaxWithLoss"
  bottom: "fc8_plantvillage"
  bottom: "label"
  top: "loss"
}
layer {
  name: "accuracy"
  type: "Accuracy"
  bottom: "fc8_plantvillage"
  bottom: "label"
  top: "accuracy"
  include {
    phase: TEST
  }
}
I0403 12:44:45.651407  9486 layer_factory.hpp:77] Creating layer data
I0403 12:44:45.652076  9486 net.cpp:91] Creating Layer data
I0403 12:44:45.652112  9486 net.cpp:399] data -> data
I0403 12:44:45.652163  9486 net.cpp:399] data -> label
I0403 12:44:45.652199  9486 data_transformer.cpp:25] Loading mean file from: /home/mohanty/data/final_dataset/lmdb/segmented-50-50/mean.binaryproto
I0403 12:44:45.655042  9489 db_lmdb.cpp:38] Opened lmdb /home/mohanty/data/final_dataset/lmdb/segmented-50-50/test_db
I0403 12:44:45.666393  9486 data_layer.cpp:41] output data size: 100,3,227,227
I0403 12:44:45.783447  9486 net.cpp:141] Setting up data
I0403 12:44:45.783540  9486 net.cpp:148] Top shape: 100 3 227 227 (15458700)
I0403 12:44:45.783565  9486 net.cpp:148] Top shape: 100 (100)
I0403 12:44:45.783582  9486 net.cpp:156] Memory required for data: 61835200
I0403 12:44:45.783617  9486 layer_factory.hpp:77] Creating layer label_data_1_split
I0403 12:44:45.783644  9486 net.cpp:91] Creating Layer label_data_1_split
I0403 12:44:45.783663  9486 net.cpp:425] label_data_1_split <- label
I0403 12:44:45.783696  9486 net.cpp:399] label_data_1_split -> label_data_1_split_0
I0403 12:44:45.783725  9486 net.cpp:399] label_data_1_split -> label_data_1_split_1
I0403 12:44:45.783746  9486 net.cpp:399] label_data_1_split -> label_data_1_split_2
I0403 12:44:45.783812  9486 net.cpp:141] Setting up label_data_1_split
I0403 12:44:45.783836  9486 net.cpp:148] Top shape: 100 (100)
I0403 12:44:45.783854  9486 net.cpp:148] Top shape: 100 (100)
I0403 12:44:45.783869  9486 net.cpp:148] Top shape: 100 (100)
I0403 12:44:45.783884  9486 net.cpp:156] Memory required for data: 61836400
I0403 12:44:45.783898  9486 layer_factory.hpp:77] Creating layer conv1
I0403 12:44:45.783928  9486 net.cpp:91] Creating Layer conv1
I0403 12:44:45.783947  9486 net.cpp:425] conv1 <- data
I0403 12:44:45.783967  9486 net.cpp:399] conv1 -> conv1
I0403 12:44:45.919431  9486 net.cpp:141] Setting up conv1
I0403 12:44:45.919508  9486 net.cpp:148] Top shape: 100 96 55 55 (29040000)
I0403 12:44:45.919526  9486 net.cpp:156] Memory required for data: 177996400
I0403 12:44:45.919558  9486 layer_factory.hpp:77] Creating layer relu1
I0403 12:44:45.919584  9486 net.cpp:91] Creating Layer relu1
I0403 12:44:45.919606  9486 net.cpp:425] relu1 <- conv1
I0403 12:44:45.919631  9486 net.cpp:386] relu1 -> conv1 (in-place)
I0403 12:44:45.919911  9486 net.cpp:141] Setting up relu1
I0403 12:44:45.919939  9486 net.cpp:148] Top shape: 100 96 55 55 (29040000)
I0403 12:44:45.919987  9486 net.cpp:156] Memory required for data: 294156400
I0403 12:44:45.920004  9486 layer_factory.hpp:77] Creating layer norm1
I0403 12:44:45.920033  9486 net.cpp:91] Creating Layer norm1
I0403 12:44:45.920053  9486 net.cpp:425] norm1 <- conv1
I0403 12:44:45.920070  9486 net.cpp:399] norm1 -> norm1
I0403 12:44:45.920404  9486 net.cpp:141] Setting up norm1
I0403 12:44:45.920435  9486 net.cpp:148] Top shape: 100 96 55 55 (29040000)
I0403 12:44:45.920454  9486 net.cpp:156] Memory required for data: 410316400
I0403 12:44:45.920471  9486 layer_factory.hpp:77] Creating layer pool1
I0403 12:44:45.920493  9486 net.cpp:91] Creating Layer pool1
I0403 12:44:45.920511  9486 net.cpp:425] pool1 <- norm1
I0403 12:44:45.920529  9486 net.cpp:399] pool1 -> pool1
I0403 12:44:45.920605  9486 net.cpp:141] Setting up pool1
I0403 12:44:45.920631  9486 net.cpp:148] Top shape: 100 96 27 27 (6998400)
I0403 12:44:45.920646  9486 net.cpp:156] Memory required for data: 438310000
I0403 12:44:45.920661  9486 layer_factory.hpp:77] Creating layer conv2
I0403 12:44:45.920688  9486 net.cpp:91] Creating Layer conv2
I0403 12:44:45.920706  9486 net.cpp:425] conv2 <- pool1
I0403 12:44:45.920727  9486 net.cpp:399] conv2 -> conv2
I0403 12:44:45.935693  9486 net.cpp:141] Setting up conv2
I0403 12:44:45.935744  9486 net.cpp:148] Top shape: 100 256 27 27 (18662400)
I0403 12:44:45.935760  9486 net.cpp:156] Memory required for data: 512959600
I0403 12:44:45.935783  9486 layer_factory.hpp:77] Creating layer relu2
I0403 12:44:45.935807  9486 net.cpp:91] Creating Layer relu2
I0403 12:44:45.935825  9486 net.cpp:425] relu2 <- conv2
I0403 12:44:45.935843  9486 net.cpp:386] relu2 -> conv2 (in-place)
I0403 12:44:45.936128  9486 net.cpp:141] Setting up relu2
I0403 12:44:45.936158  9486 net.cpp:148] Top shape: 100 256 27 27 (18662400)
I0403 12:44:45.936175  9486 net.cpp:156] Memory required for data: 587609200
I0403 12:44:45.936190  9486 layer_factory.hpp:77] Creating layer norm2
I0403 12:44:45.936214  9486 net.cpp:91] Creating Layer norm2
I0403 12:44:45.936233  9486 net.cpp:425] norm2 <- conv2
I0403 12:44:45.936250  9486 net.cpp:399] norm2 -> norm2
I0403 12:44:45.936450  9486 net.cpp:141] Setting up norm2
I0403 12:44:45.936475  9486 net.cpp:148] Top shape: 100 256 27 27 (18662400)
I0403 12:44:45.936491  9486 net.cpp:156] Memory required for data: 662258800
I0403 12:44:45.936506  9486 layer_factory.hpp:77] Creating layer pool2
I0403 12:44:45.936527  9486 net.cpp:91] Creating Layer pool2
I0403 12:44:45.936543  9486 net.cpp:425] pool2 <- norm2
I0403 12:44:45.936560  9486 net.cpp:399] pool2 -> pool2
I0403 12:44:45.936619  9486 net.cpp:141] Setting up pool2
I0403 12:44:45.936643  9486 net.cpp:148] Top shape: 100 256 13 13 (4326400)
I0403 12:44:45.936660  9486 net.cpp:156] Memory required for data: 679564400
I0403 12:44:45.936673  9486 layer_factory.hpp:77] Creating layer conv3
I0403 12:44:45.936697  9486 net.cpp:91] Creating Layer conv3
I0403 12:44:45.936714  9486 net.cpp:425] conv3 <- pool2
I0403 12:44:45.936735  9486 net.cpp:399] conv3 -> conv3
I0403 12:44:45.974913  9486 net.cpp:141] Setting up conv3
I0403 12:44:45.974979  9486 net.cpp:148] Top shape: 100 384 13 13 (6489600)
I0403 12:44:45.974997  9486 net.cpp:156] Memory required for data: 705522800
I0403 12:44:45.975024  9486 layer_factory.hpp:77] Creating layer relu3
I0403 12:44:45.975049  9486 net.cpp:91] Creating Layer relu3
I0403 12:44:45.975066  9486 net.cpp:425] relu3 <- conv3
I0403 12:44:45.975086  9486 net.cpp:386] relu3 -> conv3 (in-place)
I0403 12:44:45.975364  9486 net.cpp:141] Setting up relu3
I0403 12:44:45.975394  9486 net.cpp:148] Top shape: 100 384 13 13 (6489600)
I0403 12:44:45.975409  9486 net.cpp:156] Memory required for data: 731481200
I0403 12:44:45.975425  9486 layer_factory.hpp:77] Creating layer conv4
I0403 12:44:45.975450  9486 net.cpp:91] Creating Layer conv4
I0403 12:44:45.975468  9486 net.cpp:425] conv4 <- conv3
I0403 12:44:45.975486  9486 net.cpp:399] conv4 -> conv4
I0403 12:44:46.005094  9486 net.cpp:141] Setting up conv4
I0403 12:44:46.005162  9486 net.cpp:148] Top shape: 100 384 13 13 (6489600)
I0403 12:44:46.005211  9486 net.cpp:156] Memory required for data: 757439600
I0403 12:44:46.005234  9486 layer_factory.hpp:77] Creating layer relu4
I0403 12:44:46.005257  9486 net.cpp:91] Creating Layer relu4
I0403 12:44:46.005275  9486 net.cpp:425] relu4 <- conv4
I0403 12:44:46.005295  9486 net.cpp:386] relu4 -> conv4 (in-place)
I0403 12:44:46.005587  9486 net.cpp:141] Setting up relu4
I0403 12:44:46.005620  9486 net.cpp:148] Top shape: 100 384 13 13 (6489600)
I0403 12:44:46.005636  9486 net.cpp:156] Memory required for data: 783398000
I0403 12:44:46.005651  9486 layer_factory.hpp:77] Creating layer conv5
I0403 12:44:46.005677  9486 net.cpp:91] Creating Layer conv5
I0403 12:44:46.005694  9486 net.cpp:425] conv5 <- conv4
I0403 12:44:46.005715  9486 net.cpp:399] conv5 -> conv5
I0403 12:44:46.026031  9486 net.cpp:141] Setting up conv5
I0403 12:44:46.026080  9486 net.cpp:148] Top shape: 100 256 13 13 (4326400)
I0403 12:44:46.026098  9486 net.cpp:156] Memory required for data: 800703600
I0403 12:44:46.026120  9486 layer_factory.hpp:77] Creating layer relu5
I0403 12:44:46.026146  9486 net.cpp:91] Creating Layer relu5
I0403 12:44:46.026165  9486 net.cpp:425] relu5 <- conv5
I0403 12:44:46.026183  9486 net.cpp:386] relu5 -> conv5 (in-place)
I0403 12:44:46.026473  9486 net.cpp:141] Setting up relu5
I0403 12:44:46.026501  9486 net.cpp:148] Top shape: 100 256 13 13 (4326400)
I0403 12:44:46.026517  9486 net.cpp:156] Memory required for data: 818009200
I0403 12:44:46.026532  9486 layer_factory.hpp:77] Creating layer pool5
I0403 12:44:46.026558  9486 net.cpp:91] Creating Layer pool5
I0403 12:44:46.026576  9486 net.cpp:425] pool5 <- conv5
I0403 12:44:46.026597  9486 net.cpp:399] pool5 -> pool5
I0403 12:44:46.026664  9486 net.cpp:141] Setting up pool5
I0403 12:44:46.026689  9486 net.cpp:148] Top shape: 100 256 6 6 (921600)
I0403 12:44:46.026703  9486 net.cpp:156] Memory required for data: 821695600
I0403 12:44:46.026717  9486 layer_factory.hpp:77] Creating layer fc6
I0403 12:44:46.026746  9486 net.cpp:91] Creating Layer fc6
I0403 12:44:46.026764  9486 net.cpp:425] fc6 <- pool5
I0403 12:44:46.026785  9486 net.cpp:399] fc6 -> fc6
I0403 12:44:47.582597  9486 net.cpp:141] Setting up fc6
I0403 12:44:47.582644  9486 net.cpp:148] Top shape: 100 4096 (409600)
I0403 12:44:47.582662  9486 net.cpp:156] Memory required for data: 823334000
I0403 12:44:47.582685  9486 layer_factory.hpp:77] Creating layer relu6
I0403 12:44:47.582710  9486 net.cpp:91] Creating Layer relu6
I0403 12:44:47.582727  9486 net.cpp:425] relu6 <- fc6
I0403 12:44:47.582746  9486 net.cpp:386] relu6 -> fc6 (in-place)
I0403 12:44:47.582958  9486 net.cpp:141] Setting up relu6
I0403 12:44:47.582983  9486 net.cpp:148] Top shape: 100 4096 (409600)
I0403 12:44:47.582998  9486 net.cpp:156] Memory required for data: 824972400
I0403 12:44:47.583011  9486 layer_factory.hpp:77] Creating layer drop6
I0403 12:44:47.583031  9486 net.cpp:91] Creating Layer drop6
I0403 12:44:47.583047  9486 net.cpp:425] drop6 <- fc6
I0403 12:44:47.583063  9486 net.cpp:386] drop6 -> fc6 (in-place)
I0403 12:44:47.583113  9486 net.cpp:141] Setting up drop6
I0403 12:44:47.583135  9486 net.cpp:148] Top shape: 100 4096 (409600)
I0403 12:44:47.583150  9486 net.cpp:156] Memory required for data: 826610800
I0403 12:44:47.583164  9486 layer_factory.hpp:77] Creating layer fc7
I0403 12:44:47.583185  9486 net.cpp:91] Creating Layer fc7
I0403 12:44:47.583201  9486 net.cpp:425] fc7 <- fc6
I0403 12:44:47.583219  9486 net.cpp:399] fc7 -> fc7
I0403 12:44:48.265781  9486 net.cpp:141] Setting up fc7
I0403 12:44:48.265862  9486 net.cpp:148] Top shape: 100 4096 (409600)
I0403 12:44:48.265879  9486 net.cpp:156] Memory required for data: 828249200
I0403 12:44:48.265900  9486 layer_factory.hpp:77] Creating layer relu7
I0403 12:44:48.265923  9486 net.cpp:91] Creating Layer relu7
I0403 12:44:48.265940  9486 net.cpp:425] relu7 <- fc7
I0403 12:44:48.265959  9486 net.cpp:386] relu7 -> fc7 (in-place)
I0403 12:44:48.266367  9486 net.cpp:141] Setting up relu7
I0403 12:44:48.266393  9486 net.cpp:148] Top shape: 100 4096 (409600)
I0403 12:44:48.266451  9486 net.cpp:156] Memory required for data: 829887600
I0403 12:44:48.266466  9486 layer_factory.hpp:77] Creating layer drop7
I0403 12:44:48.266485  9486 net.cpp:91] Creating Layer drop7
I0403 12:44:48.266500  9486 net.cpp:425] drop7 <- fc7
I0403 12:44:48.266517  9486 net.cpp:386] drop7 -> fc7 (in-place)
I0403 12:44:48.266561  9486 net.cpp:141] Setting up drop7
I0403 12:44:48.266583  9486 net.cpp:148] Top shape: 100 4096 (409600)
I0403 12:44:48.266603  9486 net.cpp:156] Memory required for data: 831526000
I0403 12:44:48.266619  9486 layer_factory.hpp:77] Creating layer fc8_plantvillage
I0403 12:44:48.266641  9486 net.cpp:91] Creating Layer fc8_plantvillage
I0403 12:44:48.266657  9486 net.cpp:425] fc8_plantvillage <- fc7
I0403 12:44:48.266675  9486 net.cpp:399] fc8_plantvillage -> fc8_plantvillage
I0403 12:44:48.273398  9486 net.cpp:141] Setting up fc8_plantvillage
I0403 12:44:48.273425  9486 net.cpp:148] Top shape: 100 38 (3800)
I0403 12:44:48.273440  9486 net.cpp:156] Memory required for data: 831541200
I0403 12:44:48.273458  9486 layer_factory.hpp:77] Creating layer fc8_plantvillage_fc8_plantvillage_0_split
I0403 12:44:48.273478  9486 net.cpp:91] Creating Layer fc8_plantvillage_fc8_plantvillage_0_split
I0403 12:44:48.273494  9486 net.cpp:425] fc8_plantvillage_fc8_plantvillage_0_split <- fc8_plantvillage
I0403 12:44:48.273510  9486 net.cpp:399] fc8_plantvillage_fc8_plantvillage_0_split -> fc8_plantvillage_fc8_plantvillage_0_split_0
I0403 12:44:48.273531  9486 net.cpp:399] fc8_plantvillage_fc8_plantvillage_0_split -> fc8_plantvillage_fc8_plantvillage_0_split_1
I0403 12:44:48.273551  9486 net.cpp:399] fc8_plantvillage_fc8_plantvillage_0_split -> fc8_plantvillage_fc8_plantvillage_0_split_2
I0403 12:44:48.273632  9486 net.cpp:141] Setting up fc8_plantvillage_fc8_plantvillage_0_split
I0403 12:44:48.273654  9486 net.cpp:148] Top shape: 100 38 (3800)
I0403 12:44:48.273670  9486 net.cpp:148] Top shape: 100 38 (3800)
I0403 12:44:48.273685  9486 net.cpp:148] Top shape: 100 38 (3800)
I0403 12:44:48.273699  9486 net.cpp:156] Memory required for data: 831586800
I0403 12:44:48.273711  9486 layer_factory.hpp:77] Creating layer prob
I0403 12:44:48.273731  9486 net.cpp:91] Creating Layer prob
I0403 12:44:48.273747  9486 net.cpp:425] prob <- fc8_plantvillage_fc8_plantvillage_0_split_0
I0403 12:44:48.273764  9486 net.cpp:399] prob -> prob
I0403 12:44:48.273980  9486 net.cpp:141] Setting up prob
I0403 12:44:48.274005  9486 net.cpp:148] Top shape: 100 38 (3800)
I0403 12:44:48.274020  9486 net.cpp:156] Memory required for data: 831602000
I0403 12:44:48.274034  9486 layer_factory.hpp:77] Creating layer hdf5out
I0403 12:44:48.274054  9486 net.cpp:91] Creating Layer hdf5out
I0403 12:44:48.274070  9486 net.cpp:425] hdf5out <- prob
I0403 12:44:48.274085  9486 net.cpp:425] hdf5out <- label_data_1_split_0
I0403 12:44:48.276595  9486 net.cpp:141] Setting up hdf5out
…
