…
I0403 13:00:46.555657 10034 net.cpp:313] The NetState phase (1) differed from the phase (0) specified by a rule in layer data
I0403 13:00:46.555938 10034 net.cpp:49] Initializing net from parameters: 
state {
  phase: TEST
}
layer {
  name: "data"
  type: "Data"
  top: "data"
  top: "label"
  include {
    phase: TEST
  }
  transform_param {
    crop_size: 227
    mean_file: "/home/mohanty/data/final_dataset/lmdb/segmented-50-50/mean.binaryproto"
  }
  data_param {
    source: "/home/mohanty/data/final_dataset/lmdb/segmented-50-50/test_db"
    batch_size: 100
    backend: LMDB
  }
}
layer {
  name: "conv1"
  type: "Convolution"
  bottom: "data"
  top: "conv1"
  param {
    lr_mult: 1
    decay_mult: 1
  }
  param {
    lr_mult: 2
    decay_mult: 0
  }
  convolution_param {
    num_output: 96
    kernel_size: 11
    stride: 4
    weight_filler {
      type: "gaussian"
      std: 0.01
    }
    bias_filler {
      type: "constant"
      value: 0
    }
  }
}
layer {
  name: "relu1"
  type: "ReLU"
  bottom: "conv1"
  top: "conv1"
}
layer {
  name: "norm1"
  type: "LRN"
  bottom: "conv1"
  top: "norm1"
  lrn_param {
    local_size: 5
    alpha: 0.0001
    beta: 0.75
  }
}
layer {
  name: "pool1"
  type: "Pooling"
  bottom: "norm1"
  top: "pool1"
  pooling_param {
    pool: MAX
    kernel_size: 3
    stride: 2
  }
}
layer {
  name: "conv2"
  type: "Convolution"
  bottom: "pool1"
  top: "conv2"
  param {
    lr_mult: 1
    decay_mult: 1
  }
  param {
    lr_mult: 2
    decay_mult: 0
  }
  convolution_param {
    num_output: 256
    pad: 2
    kernel_size: 5
    group: 2
    weight_filler {
      type: "gaussian"
      std: 0.01
    }
    bias_filler {
      type: "constant"
      value: 0.1
    }
  }
}
layer {
  name: "relu2"
  type: "ReLU"
  bottom: "conv2"
  top: "conv2"
}
layer {
  name: "norm2"
  type: "LRN"
  bottom: "conv2"
  top: "norm2"
  lrn_param {
    local_size: 5
    alpha: 0.0001
    beta: 0.75
  }
}
layer {
  name: "pool2"
  type: "Pooling"
  bottom: "norm2"
  top: "pool2"
  pooling_param {
    pool: MAX
    kernel_size: 3
    stride: 2
  }
}
layer {
  name: "conv3"
  type: "Convolution"
  bottom: "pool2"
  top: "conv3"
  param {
    lr_mult: 1
    decay_mult: 1
  }
  param {
    lr_mult: 2
    decay_mult: 0
  }
  convolution_param {
    num_output: 384
    pad: 1
    kernel_size: 3
    weight_filler {
      type: "gaussian"
      std: 0.01
    }
    bias_filler {
      type: "constant"
      value: 0
    }
  }
}
layer {
  name: "relu3"
  type: "ReLU"
  bottom: "conv3"
  top: "conv3"
}
layer {
  name: "conv4"
  type: "Convolution"
  bottom: "conv3"
  top: "conv4"
  param {
    lr_mult: 1
    decay_mult: 1
  }
  param {
    lr_mult: 2
    decay_mult: 0
  }
  convolution_param {
    num_output: 384
    pad: 1
    kernel_size: 3
    group: 2
    weight_filler {
      type: "gaussian"
      std: 0.01
    }
    bias_filler {
      type: "constant"
      value: 0.1
    }
  }
}
layer {
  name: "relu4"
  type: "ReLU"
  bottom: "conv4"
  top: "conv4"
}
layer {
  name: "conv5"
  type: "Convolution"
  bottom: "conv4"
  top: "conv5"
  param {
    lr_mult: 1
    decay_mult: 1
  }
  param {
    lr_mult: 2
    decay_mult: 0
  }
  convolution_param {
    num_output: 256
    pad: 1
    kernel_size: 3
    group: 2
    weight_filler {
      type: "gaussian"
      std: 0.01
    }
    bias_filler {
      type: "constant"
      value: 0.1
    }
  }
}
layer {
  name: "relu5"
  type: "ReLU"
  bottom: "conv5"
  top: "conv5"
}
layer {
  name: "pool5"
  type: "Pooling"
  bottom: "conv5"
  top: "pool5"
  pooling_param {
    pool: MAX
    kernel_size: 3
    stride: 2
  }
}
layer {
  name: "fc6"
  type: "InnerProduct"
  bottom: "pool5"
  top: "fc6"
  param {
    lr_mult: 1
    decay_mult: 1
  }
  param {
    lr_mult: 2
    decay_mult: 0
  }
  inner_product_param {
    num_output: 4096
    weight_filler {
      type: "gaussian"
      std: 0.005
    }
    bias_filler {
      type: "constant"
      value: 0.1
    }
  }
}
layer {
  name: "relu6"
  type: "ReLU"
  bottom: "fc6"
  top: "fc6"
}
layer {
  name: "drop6"
  type: "Dropout"
  bottom: "fc6"
  top: "fc6"
  dropout_param {
    dropout_ratio: 0.5
  }
}
layer {
  name: "fc7"
  type: "InnerProduct"
  bottom: "fc6"
  top: "fc7"
  param {
    lr_mult: 1
    decay_mult: 1
  }
  param {
    lr_mult: 2
    decay_mult: 0
  }
  inner_product_param {
    num_output: 4096
    weight_filler {
      type: "gaussian"
      std: 0.005
    }
    bias_filler {
      type: "constant"
      value: 0.1
    }
  }
}
layer {
  name: "relu7"
  type: "ReLU"
  bottom: "fc7"
  top: "fc7"
}
layer {
  name: "drop7"
  type: "Dropout"
  bottom: "fc7"
  top: "fc7"
  dropout_param {
    dropout_ratio: 0.5
  }
}
layer {
  name: "fc8_plantvillage"
  type: "InnerProduct"
  bottom: "fc7"
  top: "fc8_plantvillage"
  param {
    lr_mult: 1
    decay_mult: 1
  }
  param {
    lr_mult: 2
    decay_mult: 0
  }
  inner_product_param {
    num_output: 38
    weight_filler {
      type: "gaussian"
      std: 0.01
    }
    bias_filler {
      type: "constant"
      value: 0
    }
  }
}
layer {
  name: "prob"
  type: "Softmax"
  bottom: "fc8_plantvillage"
  top: "prob"
  include {
    phase: TEST
  }
}
layer {
  name: "hdf5out"
  type: "HDF5Output"
  bottom: "prob"
  bottom: "label"
  include {
    phase: TEST
  }
  hdf5_output_param {
    file_name: "hdf5_dumps/iter_5896.h5"
  }
}
layer {
  name: "loss"
  type: "SoftmaxWithLoss"
  bottom: "fc8_plantvillage"
  bottom: "label"
  top: "loss"
}
layer {
  name: "accuracy"
  type: "Accuracy"
  bottom: "fc8_plantvillage"
  bottom: "label"
  top: "accuracy"
  include {
    phase: TEST
  }
}
I0403 13:00:46.556524 10034 layer_factory.hpp:77] Creating layer data
I0403 13:00:46.557181 10034 net.cpp:91] Creating Layer data
I0403 13:00:46.557214 10034 net.cpp:399] data -> data
I0403 13:00:46.557265 10034 net.cpp:399] data -> label
I0403 13:00:46.557302 10034 data_transformer.cpp:25] Loading mean file from: /home/mohanty/data/final_dataset/lmdb/segmented-50-50/mean.binaryproto
I0403 13:00:46.560433 10037 db_lmdb.cpp:38] Opened lmdb /home/mohanty/data/final_dataset/lmdb/segmented-50-50/test_db
I0403 13:00:46.571737 10034 data_layer.cpp:41] output data size: 100,3,227,227
I0403 13:00:46.696024 10034 net.cpp:141] Setting up data
I0403 13:00:46.696120 10034 net.cpp:148] Top shape: 100 3 227 227 (15458700)
I0403 13:00:46.696143 10034 net.cpp:148] Top shape: 100 (100)
I0403 13:00:46.696158 10034 net.cpp:156] Memory required for data: 61835200
I0403 13:00:46.696187 10034 layer_factory.hpp:77] Creating layer label_data_1_split
I0403 13:00:46.696211 10034 net.cpp:91] Creating Layer label_data_1_split
I0403 13:00:46.696229 10034 net.cpp:425] label_data_1_split <- label
I0403 13:00:46.696261 10034 net.cpp:399] label_data_1_split -> label_data_1_split_0
I0403 13:00:46.696288 10034 net.cpp:399] label_data_1_split -> label_data_1_split_1
I0403 13:00:46.696310 10034 net.cpp:399] label_data_1_split -> label_data_1_split_2
I0403 13:00:46.696373 10034 net.cpp:141] Setting up label_data_1_split
I0403 13:00:46.696396 10034 net.cpp:148] Top shape: 100 (100)
I0403 13:00:46.696413 10034 net.cpp:148] Top shape: 100 (100)
I0403 13:00:46.696430 10034 net.cpp:148] Top shape: 100 (100)
I0403 13:00:46.696444 10034 net.cpp:156] Memory required for data: 61836400
I0403 13:00:46.696460 10034 layer_factory.hpp:77] Creating layer conv1
I0403 13:00:46.696491 10034 net.cpp:91] Creating Layer conv1
I0403 13:00:46.696511 10034 net.cpp:425] conv1 <- data
I0403 13:00:46.696529 10034 net.cpp:399] conv1 -> conv1
I0403 13:00:46.836570 10034 net.cpp:141] Setting up conv1
I0403 13:00:46.836653 10034 net.cpp:148] Top shape: 100 96 55 55 (29040000)
I0403 13:00:46.836671 10034 net.cpp:156] Memory required for data: 177996400
I0403 13:00:46.836704 10034 layer_factory.hpp:77] Creating layer relu1
I0403 13:00:46.836732 10034 net.cpp:91] Creating Layer relu1
I0403 13:00:46.836751 10034 net.cpp:425] relu1 <- conv1
I0403 13:00:46.836771 10034 net.cpp:386] relu1 -> conv1 (in-place)
I0403 13:00:46.837035 10034 net.cpp:141] Setting up relu1
I0403 13:00:46.837062 10034 net.cpp:148] Top shape: 100 96 55 55 (29040000)
I0403 13:00:46.837117 10034 net.cpp:156] Memory required for data: 294156400
I0403 13:00:46.837134 10034 layer_factory.hpp:77] Creating layer norm1
I0403 13:00:46.837163 10034 net.cpp:91] Creating Layer norm1
I0403 13:00:46.837182 10034 net.cpp:425] norm1 <- conv1
I0403 13:00:46.837200 10034 net.cpp:399] norm1 -> norm1
I0403 13:00:46.837544 10034 net.cpp:141] Setting up norm1
I0403 13:00:46.837573 10034 net.cpp:148] Top shape: 100 96 55 55 (29040000)
I0403 13:00:46.837589 10034 net.cpp:156] Memory required for data: 410316400
I0403 13:00:46.837610 10034 layer_factory.hpp:77] Creating layer pool1
I0403 13:00:46.837635 10034 net.cpp:91] Creating Layer pool1
I0403 13:00:46.837652 10034 net.cpp:425] pool1 <- norm1
I0403 13:00:46.837671 10034 net.cpp:399] pool1 -> pool1
I0403 13:00:46.837738 10034 net.cpp:141] Setting up pool1
I0403 13:00:46.837764 10034 net.cpp:148] Top shape: 100 96 27 27 (6998400)
I0403 13:00:46.837779 10034 net.cpp:156] Memory required for data: 438310000
I0403 13:00:46.837793 10034 layer_factory.hpp:77] Creating layer conv2
I0403 13:00:46.837818 10034 net.cpp:91] Creating Layer conv2
I0403 13:00:46.837836 10034 net.cpp:425] conv2 <- pool1
I0403 13:00:46.837853 10034 net.cpp:399] conv2 -> conv2
I0403 13:00:46.853338 10034 net.cpp:141] Setting up conv2
I0403 13:00:46.853395 10034 net.cpp:148] Top shape: 100 256 27 27 (18662400)
I0403 13:00:46.853413 10034 net.cpp:156] Memory required for data: 512959600
I0403 13:00:46.853437 10034 layer_factory.hpp:77] Creating layer relu2
I0403 13:00:46.853461 10034 net.cpp:91] Creating Layer relu2
I0403 13:00:46.853479 10034 net.cpp:425] relu2 <- conv2
I0403 13:00:46.853498 10034 net.cpp:386] relu2 -> conv2 (in-place)
I0403 13:00:46.853785 10034 net.cpp:141] Setting up relu2
I0403 13:00:46.853814 10034 net.cpp:148] Top shape: 100 256 27 27 (18662400)
I0403 13:00:46.853832 10034 net.cpp:156] Memory required for data: 587609200
I0403 13:00:46.853847 10034 layer_factory.hpp:77] Creating layer norm2
I0403 13:00:46.853871 10034 net.cpp:91] Creating Layer norm2
I0403 13:00:46.853910 10034 net.cpp:425] norm2 <- conv2
I0403 13:00:46.853935 10034 net.cpp:399] norm2 -> norm2
I0403 13:00:46.854132 10034 net.cpp:141] Setting up norm2
I0403 13:00:46.854161 10034 net.cpp:148] Top shape: 100 256 27 27 (18662400)
I0403 13:00:46.854177 10034 net.cpp:156] Memory required for data: 662258800
I0403 13:00:46.854192 10034 layer_factory.hpp:77] Creating layer pool2
I0403 13:00:46.854212 10034 net.cpp:91] Creating Layer pool2
I0403 13:00:46.854229 10034 net.cpp:425] pool2 <- norm2
I0403 13:00:46.854249 10034 net.cpp:399] pool2 -> pool2
I0403 13:00:46.854301 10034 net.cpp:141] Setting up pool2
I0403 13:00:46.854326 10034 net.cpp:148] Top shape: 100 256 13 13 (4326400)
I0403 13:00:46.854342 10034 net.cpp:156] Memory required for data: 679564400
I0403 13:00:46.854357 10034 layer_factory.hpp:77] Creating layer conv3
I0403 13:00:46.854382 10034 net.cpp:91] Creating Layer conv3
I0403 13:00:46.854400 10034 net.cpp:425] conv3 <- pool2
I0403 13:00:46.854420 10034 net.cpp:399] conv3 -> conv3
I0403 13:00:46.893586 10034 net.cpp:141] Setting up conv3
I0403 13:00:46.893666 10034 net.cpp:148] Top shape: 100 384 13 13 (6489600)
I0403 13:00:46.893682 10034 net.cpp:156] Memory required for data: 705522800
I0403 13:00:46.893709 10034 layer_factory.hpp:77] Creating layer relu3
I0403 13:00:46.893733 10034 net.cpp:91] Creating Layer relu3
I0403 13:00:46.893751 10034 net.cpp:425] relu3 <- conv3
I0403 13:00:46.893774 10034 net.cpp:386] relu3 -> conv3 (in-place)
I0403 13:00:46.894057 10034 net.cpp:141] Setting up relu3
I0403 13:00:46.894084 10034 net.cpp:148] Top shape: 100 384 13 13 (6489600)
I0403 13:00:46.894100 10034 net.cpp:156] Memory required for data: 731481200
I0403 13:00:46.894115 10034 layer_factory.hpp:77] Creating layer conv4
I0403 13:00:46.894141 10034 net.cpp:91] Creating Layer conv4
I0403 13:00:46.894160 10034 net.cpp:425] conv4 <- conv3
I0403 13:00:46.894181 10034 net.cpp:399] conv4 -> conv4
I0403 13:00:46.924614 10034 net.cpp:141] Setting up conv4
I0403 13:00:46.924656 10034 net.cpp:148] Top shape: 100 384 13 13 (6489600)
I0403 13:00:46.924706 10034 net.cpp:156] Memory required for data: 757439600
I0403 13:00:46.924728 10034 layer_factory.hpp:77] Creating layer relu4
I0403 13:00:46.924751 10034 net.cpp:91] Creating Layer relu4
I0403 13:00:46.924767 10034 net.cpp:425] relu4 <- conv4
I0403 13:00:46.924790 10034 net.cpp:386] relu4 -> conv4 (in-place)
I0403 13:00:46.925066 10034 net.cpp:141] Setting up relu4
I0403 13:00:46.925093 10034 net.cpp:148] Top shape: 100 384 13 13 (6489600)
I0403 13:00:46.925108 10034 net.cpp:156] Memory required for data: 783398000
I0403 13:00:46.925124 10034 layer_factory.hpp:77] Creating layer conv5
I0403 13:00:46.925150 10034 net.cpp:91] Creating Layer conv5
I0403 13:00:46.925168 10034 net.cpp:425] conv5 <- conv4
I0403 13:00:46.925189 10034 net.cpp:399] conv5 -> conv5
I0403 13:00:46.945935 10034 net.cpp:141] Setting up conv5
I0403 13:00:46.945991 10034 net.cpp:148] Top shape: 100 256 13 13 (4326400)
I0403 13:00:46.946007 10034 net.cpp:156] Memory required for data: 800703600
I0403 13:00:46.946033 10034 layer_factory.hpp:77] Creating layer relu5
I0403 13:00:46.946055 10034 net.cpp:91] Creating Layer relu5
I0403 13:00:46.946079 10034 net.cpp:425] relu5 <- conv5
I0403 13:00:46.946099 10034 net.cpp:386] relu5 -> conv5 (in-place)
I0403 13:00:46.946388 10034 net.cpp:141] Setting up relu5
I0403 13:00:46.946415 10034 net.cpp:148] Top shape: 100 256 13 13 (4326400)
I0403 13:00:46.946430 10034 net.cpp:156] Memory required for data: 818009200
I0403 13:00:46.946446 10034 layer_factory.hpp:77] Creating layer pool5
I0403 13:00:46.946470 10034 net.cpp:91] Creating Layer pool5
I0403 13:00:46.946487 10034 net.cpp:425] pool5 <- conv5
I0403 13:00:46.946506 10034 net.cpp:399] pool5 -> pool5
I0403 13:00:46.946573 10034 net.cpp:141] Setting up pool5
I0403 13:00:46.946598 10034 net.cpp:148] Top shape: 100 256 6 6 (921600)
I0403 13:00:46.946617 10034 net.cpp:156] Memory required for data: 821695600
I0403 13:00:46.946632 10034 layer_factory.hpp:77] Creating layer fc6
I0403 13:00:46.946660 10034 net.cpp:91] Creating Layer fc6
I0403 13:00:46.946677 10034 net.cpp:425] fc6 <- pool5
I0403 13:00:46.946715 10034 net.cpp:399] fc6 -> fc6
I0403 13:00:48.499742 10034 net.cpp:141] Setting up fc6
I0403 13:00:48.499824 10034 net.cpp:148] Top shape: 100 4096 (409600)
I0403 13:00:48.499840 10034 net.cpp:156] Memory required for data: 823334000
I0403 13:00:48.499861 10034 layer_factory.hpp:77] Creating layer relu6
I0403 13:00:48.499884 10034 net.cpp:91] Creating Layer relu6
I0403 13:00:48.499902 10034 net.cpp:425] relu6 <- fc6
I0403 13:00:48.499920 10034 net.cpp:386] relu6 -> fc6 (in-place)
I0403 13:00:48.500149 10034 net.cpp:141] Setting up relu6
I0403 13:00:48.500174 10034 net.cpp:148] Top shape: 100 4096 (409600)
I0403 13:00:48.500190 10034 net.cpp:156] Memory required for data: 824972400
I0403 13:00:48.500205 10034 layer_factory.hpp:77] Creating layer drop6
I0403 13:00:48.500222 10034 net.cpp:91] Creating Layer drop6
I0403 13:00:48.500237 10034 net.cpp:425] drop6 <- fc6
I0403 13:00:48.500258 10034 net.cpp:386] drop6 -> fc6 (in-place)
I0403 13:00:48.500309 10034 net.cpp:141] Setting up drop6
I0403 13:00:48.500335 10034 net.cpp:148] Top shape: 100 4096 (409600)
I0403 13:00:48.500351 10034 net.cpp:156] Memory required for data: 826610800
I0403 13:00:48.500366 10034 layer_factory.hpp:77] Creating layer fc7
I0403 13:00:48.500386 10034 net.cpp:91] Creating Layer fc7
I0403 13:00:48.500401 10034 net.cpp:425] fc7 <- fc6
I0403 13:00:48.500422 10034 net.cpp:399] fc7 -> fc7
I0403 13:00:49.186941 10034 net.cpp:141] Setting up fc7
I0403 13:00:49.187022 10034 net.cpp:148] Top shape: 100 4096 (409600)
I0403 13:00:49.187039 10034 net.cpp:156] Memory required for data: 828249200
I0403 13:00:49.187060 10034 layer_factory.hpp:77] Creating layer relu7
I0403 13:00:49.187083 10034 net.cpp:91] Creating Layer relu7
I0403 13:00:49.187103 10034 net.cpp:425] relu7 <- fc7
I0403 13:00:49.187125 10034 net.cpp:386] relu7 -> fc7 (in-place)
I0403 13:00:49.187543 10034 net.cpp:141] Setting up relu7
I0403 13:00:49.187569 10034 net.cpp:148] Top shape: 100 4096 (409600)
I0403 13:00:49.187631 10034 net.cpp:156] Memory required for data: 829887600
I0403 13:00:49.187649 10034 layer_factory.hpp:77] Creating layer drop7
I0403 13:00:49.187667 10034 net.cpp:91] Creating Layer drop7
I0403 13:00:49.187682 10034 net.cpp:425] drop7 <- fc7
I0403 13:00:49.187702 10034 net.cpp:386] drop7 -> fc7 (in-place)
I0403 13:00:49.187746 10034 net.cpp:141] Setting up drop7
I0403 13:00:49.187770 10034 net.cpp:148] Top shape: 100 4096 (409600)
I0403 13:00:49.187786 10034 net.cpp:156] Memory required for data: 831526000
I0403 13:00:49.187800 10034 layer_factory.hpp:77] Creating layer fc8_plantvillage
I0403 13:00:49.187820 10034 net.cpp:91] Creating Layer fc8_plantvillage
I0403 13:00:49.187836 10034 net.cpp:425] fc8_plantvillage <- fc7
I0403 13:00:49.187856 10034 net.cpp:399] fc8_plantvillage -> fc8_plantvillage
I0403 13:00:49.194573 10034 net.cpp:141] Setting up fc8_plantvillage
I0403 13:00:49.194612 10034 net.cpp:148] Top shape: 100 38 (3800)
I0403 13:00:49.194630 10034 net.cpp:156] Memory required for data: 831541200
I0403 13:00:49.194649 10034 layer_factory.hpp:77] Creating layer fc8_plantvillage_fc8_plantvillage_0_split
I0403 13:00:49.194670 10034 net.cpp:91] Creating Layer fc8_plantvillage_fc8_plantvillage_0_split
I0403 13:00:49.194687 10034 net.cpp:425] fc8_plantvillage_fc8_plantvillage_0_split <- fc8_plantvillage
I0403 13:00:49.194705 10034 net.cpp:399] fc8_plantvillage_fc8_plantvillage_0_split -> fc8_plantvillage_fc8_plantvillage_0_split_0
I0403 13:00:49.194725 10034 net.cpp:399] fc8_plantvillage_fc8_plantvillage_0_split -> fc8_plantvillage_fc8_plantvillage_0_split_1
I0403 13:00:49.194744 10034 net.cpp:399] fc8_plantvillage_fc8_plantvillage_0_split -> fc8_plantvillage_fc8_plantvillage_0_split_2
I0403 13:00:49.194823 10034 net.cpp:141] Setting up fc8_plantvillage_fc8_plantvillage_0_split
I0403 13:00:49.194846 10034 net.cpp:148] Top shape: 100 38 (3800)
I0403 13:00:49.194864 10034 net.cpp:148] Top shape: 100 38 (3800)
I0403 13:00:49.194878 10034 net.cpp:148] Top shape: 100 38 (3800)
I0403 13:00:49.194892 10034 net.cpp:156] Memory required for data: 831586800
I0403 13:00:49.194907 10034 layer_factory.hpp:77] Creating layer prob
I0403 13:00:49.194926 10034 net.cpp:91] Creating Layer prob
I0403 13:00:49.194941 10034 net.cpp:425] prob <- fc8_plantvillage_fc8_plantvillage_0_split_0
I0403 13:00:49.194959 10034 net.cpp:399] prob -> prob
I0403 13:00:49.195183 10034 net.cpp:141] Setting up prob
I0403 13:00:49.195209 10034 net.cpp:148] Top shape: 100 38 (3800)
I0403 13:00:49.195224 10034 net.cpp:156] Memory required for data: 831602000
I0403 13:00:49.195238 10034 layer_factory.hpp:77] Creating layer hdf5out
I0403 13:00:49.195257 10034 net.cpp:91] Creating Layer hdf5out
I0403 13:00:49.195272 10034 net.cpp:425] hdf5out <- prob
I0403 13:00:49.195288 10034 net.cpp:425] hdf5out <- label_data_1_split_0
I0403 13:00:49.197532 10034 net.cpp:141] Setting up hdf5out
…
