…
I0403 13:04:59.140095 10160 net.cpp:313] The NetState phase (1) differed from the phase (0) specified by a rule in layer data
I0403 13:04:59.140386 10160 net.cpp:49] Initializing net from parameters: 
state {
  phase: TEST
}
layer {
  name: "data"
  type: "Data"
  top: "data"
  top: "label"
  include {
    phase: TEST
  }
  transform_param {
    crop_size: 227
    mean_file: "/home/mohanty/data/final_dataset/lmdb/segmented-50-50/mean.binaryproto"
  }
  data_param {
    source: "/home/mohanty/data/final_dataset/lmdb/segmented-50-50/test_db"
    batch_size: 100
    backend: LMDB
  }
}
layer {
  name: "conv1"
  type: "Convolution"
  bottom: "data"
  top: "conv1"
  param {
    lr_mult: 1
    decay_mult: 1
  }
  param {
    lr_mult: 2
    decay_mult: 0
  }
  convolution_param {
    num_output: 96
    kernel_size: 11
    stride: 4
    weight_filler {
      type: "gaussian"
      std: 0.01
    }
    bias_filler {
      type: "constant"
      value: 0
    }
  }
}
layer {
  name: "relu1"
  type: "ReLU"
  bottom: "conv1"
  top: "conv1"
}
layer {
  name: "norm1"
  type: "LRN"
  bottom: "conv1"
  top: "norm1"
  lrn_param {
    local_size: 5
    alpha: 0.0001
    beta: 0.75
  }
}
layer {
  name: "pool1"
  type: "Pooling"
  bottom: "norm1"
  top: "pool1"
  pooling_param {
    pool: MAX
    kernel_size: 3
    stride: 2
  }
}
layer {
  name: "conv2"
  type: "Convolution"
  bottom: "pool1"
  top: "conv2"
  param {
    lr_mult: 1
    decay_mult: 1
  }
  param {
    lr_mult: 2
    decay_mult: 0
  }
  convolution_param {
    num_output: 256
    pad: 2
    kernel_size: 5
    group: 2
    weight_filler {
      type: "gaussian"
      std: 0.01
    }
    bias_filler {
      type: "constant"
      value: 0.1
    }
  }
}
layer {
  name: "relu2"
  type: "ReLU"
  bottom: "conv2"
  top: "conv2"
}
layer {
  name: "norm2"
  type: "LRN"
  bottom: "conv2"
  top: "norm2"
  lrn_param {
    local_size: 5
    alpha: 0.0001
    beta: 0.75
  }
}
layer {
  name: "pool2"
  type: "Pooling"
  bottom: "norm2"
  top: "pool2"
  pooling_param {
    pool: MAX
    kernel_size: 3
    stride: 2
  }
}
layer {
  name: "conv3"
  type: "Convolution"
  bottom: "pool2"
  top: "conv3"
  param {
    lr_mult: 1
    decay_mult: 1
  }
  param {
    lr_mult: 2
    decay_mult: 0
  }
  convolution_param {
    num_output: 384
    pad: 1
    kernel_size: 3
    weight_filler {
      type: "gaussian"
      std: 0.01
    }
    bias_filler {
      type: "constant"
      value: 0
    }
  }
}
layer {
  name: "relu3"
  type: "ReLU"
  bottom: "conv3"
  top: "conv3"
}
layer {
  name: "conv4"
  type: "Convolution"
  bottom: "conv3"
  top: "conv4"
  param {
    lr_mult: 1
    decay_mult: 1
  }
  param {
    lr_mult: 2
    decay_mult: 0
  }
  convolution_param {
    num_output: 384
    pad: 1
    kernel_size: 3
    group: 2
    weight_filler {
      type: "gaussian"
      std: 0.01
    }
    bias_filler {
      type: "constant"
      value: 0.1
    }
  }
}
layer {
  name: "relu4"
  type: "ReLU"
  bottom: "conv4"
  top: "conv4"
}
layer {
  name: "conv5"
  type: "Convolution"
  bottom: "conv4"
  top: "conv5"
  param {
    lr_mult: 1
    decay_mult: 1
  }
  param {
    lr_mult: 2
    decay_mult: 0
  }
  convolution_param {
    num_output: 256
    pad: 1
    kernel_size: 3
    group: 2
    weight_filler {
      type: "gaussian"
      std: 0.01
    }
    bias_filler {
      type: "constant"
      value: 0.1
    }
  }
}
layer {
  name: "relu5"
  type: "ReLU"
  bottom: "conv5"
  top: "conv5"
}
layer {
  name: "pool5"
  type: "Pooling"
  bottom: "conv5"
  top: "pool5"
  pooling_param {
    pool: MAX
    kernel_size: 3
    stride: 2
  }
}
layer {
  name: "fc6"
  type: "InnerProduct"
  bottom: "pool5"
  top: "fc6"
  param {
    lr_mult: 1
    decay_mult: 1
  }
  param {
    lr_mult: 2
    decay_mult: 0
  }
  inner_product_param {
    num_output: 4096
    weight_filler {
      type: "gaussian"
      std: 0.005
    }
    bias_filler {
      type: "constant"
      value: 0.1
    }
  }
}
layer {
  name: "relu6"
  type: "ReLU"
  bottom: "fc6"
  top: "fc6"
}
layer {
  name: "drop6"
  type: "Dropout"
  bottom: "fc6"
  top: "fc6"
  dropout_param {
    dropout_ratio: 0.5
  }
}
layer {
  name: "fc7"
  type: "InnerProduct"
  bottom: "fc6"
  top: "fc7"
  param {
    lr_mult: 1
    decay_mult: 1
  }
  param {
    lr_mult: 2
    decay_mult: 0
  }
  inner_product_param {
    num_output: 4096
    weight_filler {
      type: "gaussian"
      std: 0.005
    }
    bias_filler {
      type: "constant"
      value: 0.1
    }
  }
}
layer {
  name: "relu7"
  type: "ReLU"
  bottom: "fc7"
  top: "fc7"
}
layer {
  name: "drop7"
  type: "Dropout"
  bottom: "fc7"
  top: "fc7"
  dropout_param {
    dropout_ratio: 0.5
  }
}
layer {
  name: "fc8_plantvillage"
  type: "InnerProduct"
  bottom: "fc7"
  top: "fc8_plantvillage"
  param {
    lr_mult: 1
    decay_mult: 1
  }
  param {
    lr_mult: 2
    decay_mult: 0
  }
  inner_product_param {
    num_output: 38
    weight_filler {
      type: "gaussian"
      std: 0.01
    }
    bias_filler {
      type: "constant"
      value: 0
    }
  }
}
layer {
  name: "prob"
  type: "Softmax"
  bottom: "fc8_plantvillage"
  top: "prob"
  include {
    phase: TEST
  }
}
layer {
  name: "hdf5out"
  type: "HDF5Output"
  bottom: "prob"
  bottom: "label"
  include {
    phase: TEST
  }
  hdf5_output_param {
    file_name: "hdf5_dumps/iter_7236.h5"
  }
}
layer {
  name: "loss"
  type: "SoftmaxWithLoss"
  bottom: "fc8_plantvillage"
  bottom: "label"
  top: "loss"
}
layer {
  name: "accuracy"
  type: "Accuracy"
  bottom: "fc8_plantvillage"
  bottom: "label"
  top: "accuracy"
  include {
    phase: TEST
  }
}
I0403 13:04:59.140964 10160 layer_factory.hpp:77] Creating layer data
I0403 13:04:59.141619 10160 net.cpp:91] Creating Layer data
I0403 13:04:59.141649 10160 net.cpp:399] data -> data
I0403 13:04:59.141702 10160 net.cpp:399] data -> label
I0403 13:04:59.141741 10160 data_transformer.cpp:25] Loading mean file from: /home/mohanty/data/final_dataset/lmdb/segmented-50-50/mean.binaryproto
I0403 13:04:59.149580 10164 db_lmdb.cpp:38] Opened lmdb /home/mohanty/data/final_dataset/lmdb/segmented-50-50/test_db
I0403 13:04:59.155475 10160 data_layer.cpp:41] output data size: 100,3,227,227
I0403 13:04:59.273954 10160 net.cpp:141] Setting up data
I0403 13:04:59.274049 10160 net.cpp:148] Top shape: 100 3 227 227 (15458700)
I0403 13:04:59.274070 10160 net.cpp:148] Top shape: 100 (100)
I0403 13:04:59.274085 10160 net.cpp:156] Memory required for data: 61835200
I0403 13:04:59.274112 10160 layer_factory.hpp:77] Creating layer label_data_1_split
I0403 13:04:59.274138 10160 net.cpp:91] Creating Layer label_data_1_split
I0403 13:04:59.274157 10160 net.cpp:425] label_data_1_split <- label
I0403 13:04:59.274188 10160 net.cpp:399] label_data_1_split -> label_data_1_split_0
I0403 13:04:59.274214 10160 net.cpp:399] label_data_1_split -> label_data_1_split_1
I0403 13:04:59.274233 10160 net.cpp:399] label_data_1_split -> label_data_1_split_2
I0403 13:04:59.274299 10160 net.cpp:141] Setting up label_data_1_split
I0403 13:04:59.274322 10160 net.cpp:148] Top shape: 100 (100)
I0403 13:04:59.274338 10160 net.cpp:148] Top shape: 100 (100)
I0403 13:04:59.274353 10160 net.cpp:148] Top shape: 100 (100)
I0403 13:04:59.274368 10160 net.cpp:156] Memory required for data: 61836400
I0403 13:04:59.274381 10160 layer_factory.hpp:77] Creating layer conv1
I0403 13:04:59.274411 10160 net.cpp:91] Creating Layer conv1
I0403 13:04:59.274428 10160 net.cpp:425] conv1 <- data
I0403 13:04:59.274447 10160 net.cpp:399] conv1 -> conv1
I0403 13:04:59.415474 10160 net.cpp:141] Setting up conv1
I0403 13:04:59.415551 10160 net.cpp:148] Top shape: 100 96 55 55 (29040000)
I0403 13:04:59.415570 10160 net.cpp:156] Memory required for data: 177996400
I0403 13:04:59.415604 10160 layer_factory.hpp:77] Creating layer relu1
I0403 13:04:59.415632 10160 net.cpp:91] Creating Layer relu1
I0403 13:04:59.415652 10160 net.cpp:425] relu1 <- conv1
I0403 13:04:59.415670 10160 net.cpp:386] relu1 -> conv1 (in-place)
I0403 13:04:59.415932 10160 net.cpp:141] Setting up relu1
I0403 13:04:59.415959 10160 net.cpp:148] Top shape: 100 96 55 55 (29040000)
I0403 13:04:59.416008 10160 net.cpp:156] Memory required for data: 294156400
I0403 13:04:59.416024 10160 layer_factory.hpp:77] Creating layer norm1
I0403 13:04:59.416050 10160 net.cpp:91] Creating Layer norm1
I0403 13:04:59.416069 10160 net.cpp:425] norm1 <- conv1
I0403 13:04:59.416086 10160 net.cpp:399] norm1 -> norm1
I0403 13:04:59.416393 10160 net.cpp:141] Setting up norm1
I0403 13:04:59.416420 10160 net.cpp:148] Top shape: 100 96 55 55 (29040000)
I0403 13:04:59.416435 10160 net.cpp:156] Memory required for data: 410316400
I0403 13:04:59.416450 10160 layer_factory.hpp:77] Creating layer pool1
I0403 13:04:59.416472 10160 net.cpp:91] Creating Layer pool1
I0403 13:04:59.416489 10160 net.cpp:425] pool1 <- norm1
I0403 13:04:59.416507 10160 net.cpp:399] pool1 -> pool1
I0403 13:04:59.416602 10160 net.cpp:141] Setting up pool1
I0403 13:04:59.416628 10160 net.cpp:148] Top shape: 100 96 27 27 (6998400)
I0403 13:04:59.416643 10160 net.cpp:156] Memory required for data: 438310000
I0403 13:04:59.416658 10160 layer_factory.hpp:77] Creating layer conv2
I0403 13:04:59.416682 10160 net.cpp:91] Creating Layer conv2
I0403 13:04:59.416698 10160 net.cpp:425] conv2 <- pool1
I0403 13:04:59.416717 10160 net.cpp:399] conv2 -> conv2
I0403 13:04:59.431838 10160 net.cpp:141] Setting up conv2
I0403 13:04:59.431891 10160 net.cpp:148] Top shape: 100 256 27 27 (18662400)
I0403 13:04:59.431908 10160 net.cpp:156] Memory required for data: 512959600
I0403 13:04:59.431931 10160 layer_factory.hpp:77] Creating layer relu2
I0403 13:04:59.431951 10160 net.cpp:91] Creating Layer relu2
I0403 13:04:59.431967 10160 net.cpp:425] relu2 <- conv2
I0403 13:04:59.431985 10160 net.cpp:386] relu2 -> conv2 (in-place)
I0403 13:04:59.432268 10160 net.cpp:141] Setting up relu2
I0403 13:04:59.432297 10160 net.cpp:148] Top shape: 100 256 27 27 (18662400)
I0403 13:04:59.432312 10160 net.cpp:156] Memory required for data: 587609200
I0403 13:04:59.432327 10160 layer_factory.hpp:77] Creating layer norm2
I0403 13:04:59.432348 10160 net.cpp:91] Creating Layer norm2
I0403 13:04:59.432364 10160 net.cpp:425] norm2 <- conv2
I0403 13:04:59.432382 10160 net.cpp:399] norm2 -> norm2
I0403 13:04:59.432571 10160 net.cpp:141] Setting up norm2
I0403 13:04:59.432597 10160 net.cpp:148] Top shape: 100 256 27 27 (18662400)
I0403 13:04:59.432618 10160 net.cpp:156] Memory required for data: 662258800
I0403 13:04:59.432632 10160 layer_factory.hpp:77] Creating layer pool2
I0403 13:04:59.432651 10160 net.cpp:91] Creating Layer pool2
I0403 13:04:59.432667 10160 net.cpp:425] pool2 <- norm2
I0403 13:04:59.432685 10160 net.cpp:399] pool2 -> pool2
I0403 13:04:59.432735 10160 net.cpp:141] Setting up pool2
I0403 13:04:59.432759 10160 net.cpp:148] Top shape: 100 256 13 13 (4326400)
I0403 13:04:59.432772 10160 net.cpp:156] Memory required for data: 679564400
I0403 13:04:59.432809 10160 layer_factory.hpp:77] Creating layer conv3
I0403 13:04:59.432837 10160 net.cpp:91] Creating Layer conv3
I0403 13:04:59.432852 10160 net.cpp:425] conv3 <- pool2
I0403 13:04:59.432871 10160 net.cpp:399] conv3 -> conv3
I0403 13:04:59.471849 10160 net.cpp:141] Setting up conv3
I0403 13:04:59.471977 10160 net.cpp:148] Top shape: 100 384 13 13 (6489600)
I0403 13:04:59.471994 10160 net.cpp:156] Memory required for data: 705522800
I0403 13:04:59.472019 10160 layer_factory.hpp:77] Creating layer relu3
I0403 13:04:59.472043 10160 net.cpp:91] Creating Layer relu3
I0403 13:04:59.472059 10160 net.cpp:425] relu3 <- conv3
I0403 13:04:59.472080 10160 net.cpp:386] relu3 -> conv3 (in-place)
I0403 13:04:59.472350 10160 net.cpp:141] Setting up relu3
I0403 13:04:59.472378 10160 net.cpp:148] Top shape: 100 384 13 13 (6489600)
I0403 13:04:59.472391 10160 net.cpp:156] Memory required for data: 731481200
I0403 13:04:59.472406 10160 layer_factory.hpp:77] Creating layer conv4
I0403 13:04:59.472429 10160 net.cpp:91] Creating Layer conv4
I0403 13:04:59.472446 10160 net.cpp:425] conv4 <- conv3
I0403 13:04:59.472465 10160 net.cpp:399] conv4 -> conv4
I0403 13:04:59.502851 10160 net.cpp:141] Setting up conv4
I0403 13:04:59.502892 10160 net.cpp:148] Top shape: 100 384 13 13 (6489600)
I0403 13:04:59.502959 10160 net.cpp:156] Memory required for data: 757439600
I0403 13:04:59.502981 10160 layer_factory.hpp:77] Creating layer relu4
I0403 13:04:59.503003 10160 net.cpp:91] Creating Layer relu4
I0403 13:04:59.503020 10160 net.cpp:425] relu4 <- conv4
I0403 13:04:59.503039 10160 net.cpp:386] relu4 -> conv4 (in-place)
I0403 13:04:59.503329 10160 net.cpp:141] Setting up relu4
I0403 13:04:59.503357 10160 net.cpp:148] Top shape: 100 384 13 13 (6489600)
I0403 13:04:59.503373 10160 net.cpp:156] Memory required for data: 783398000
I0403 13:04:59.503388 10160 layer_factory.hpp:77] Creating layer conv5
I0403 13:04:59.503413 10160 net.cpp:91] Creating Layer conv5
I0403 13:04:59.503429 10160 net.cpp:425] conv5 <- conv4
I0403 13:04:59.503448 10160 net.cpp:399] conv5 -> conv5
I0403 13:04:59.524199 10160 net.cpp:141] Setting up conv5
I0403 13:04:59.524283 10160 net.cpp:148] Top shape: 100 256 13 13 (4326400)
I0403 13:04:59.524302 10160 net.cpp:156] Memory required for data: 800703600
I0403 13:04:59.524327 10160 layer_factory.hpp:77] Creating layer relu5
I0403 13:04:59.524346 10160 net.cpp:91] Creating Layer relu5
I0403 13:04:59.524363 10160 net.cpp:425] relu5 <- conv5
I0403 13:04:59.524394 10160 net.cpp:386] relu5 -> conv5 (in-place)
I0403 13:04:59.524688 10160 net.cpp:141] Setting up relu5
I0403 13:04:59.524726 10160 net.cpp:148] Top shape: 100 256 13 13 (4326400)
I0403 13:04:59.524741 10160 net.cpp:156] Memory required for data: 818009200
I0403 13:04:59.524755 10160 layer_factory.hpp:77] Creating layer pool5
I0403 13:04:59.524778 10160 net.cpp:91] Creating Layer pool5
I0403 13:04:59.524796 10160 net.cpp:425] pool5 <- conv5
I0403 13:04:59.524813 10160 net.cpp:399] pool5 -> pool5
I0403 13:04:59.524874 10160 net.cpp:141] Setting up pool5
I0403 13:04:59.524899 10160 net.cpp:148] Top shape: 100 256 6 6 (921600)
I0403 13:04:59.524912 10160 net.cpp:156] Memory required for data: 821695600
I0403 13:04:59.524926 10160 layer_factory.hpp:77] Creating layer fc6
I0403 13:04:59.524955 10160 net.cpp:91] Creating Layer fc6
I0403 13:04:59.524973 10160 net.cpp:425] fc6 <- pool5
I0403 13:04:59.524991 10160 net.cpp:399] fc6 -> fc6
I0403 13:05:01.101277 10160 net.cpp:141] Setting up fc6
I0403 13:05:01.101353 10160 net.cpp:148] Top shape: 100 4096 (409600)
I0403 13:05:01.101369 10160 net.cpp:156] Memory required for data: 823334000
I0403 13:05:01.101390 10160 layer_factory.hpp:77] Creating layer relu6
I0403 13:05:01.101413 10160 net.cpp:91] Creating Layer relu6
I0403 13:05:01.101429 10160 net.cpp:425] relu6 <- fc6
I0403 13:05:01.101451 10160 net.cpp:386] relu6 -> fc6 (in-place)
I0403 13:05:01.101689 10160 net.cpp:141] Setting up relu6
I0403 13:05:01.101716 10160 net.cpp:148] Top shape: 100 4096 (409600)
I0403 13:05:01.101730 10160 net.cpp:156] Memory required for data: 824972400
I0403 13:05:01.101745 10160 layer_factory.hpp:77] Creating layer drop6
I0403 13:05:01.101763 10160 net.cpp:91] Creating Layer drop6
I0403 13:05:01.101778 10160 net.cpp:425] drop6 <- fc6
I0403 13:05:01.101797 10160 net.cpp:386] drop6 -> fc6 (in-place)
I0403 13:05:01.101850 10160 net.cpp:141] Setting up drop6
I0403 13:05:01.101876 10160 net.cpp:148] Top shape: 100 4096 (409600)
I0403 13:05:01.101891 10160 net.cpp:156] Memory required for data: 826610800
I0403 13:05:01.101907 10160 layer_factory.hpp:77] Creating layer fc7
I0403 13:05:01.101925 10160 net.cpp:91] Creating Layer fc7
I0403 13:05:01.101940 10160 net.cpp:425] fc7 <- fc6
I0403 13:05:01.101960 10160 net.cpp:399] fc7 -> fc7
I0403 13:05:01.790426 10160 net.cpp:141] Setting up fc7
I0403 13:05:01.790504 10160 net.cpp:148] Top shape: 100 4096 (409600)
I0403 13:05:01.790520 10160 net.cpp:156] Memory required for data: 828249200
I0403 13:05:01.790541 10160 layer_factory.hpp:77] Creating layer relu7
I0403 13:05:01.790562 10160 net.cpp:91] Creating Layer relu7
I0403 13:05:01.790580 10160 net.cpp:425] relu7 <- fc7
I0403 13:05:01.790606 10160 net.cpp:386] relu7 -> fc7 (in-place)
I0403 13:05:01.791018 10160 net.cpp:141] Setting up relu7
I0403 13:05:01.791045 10160 net.cpp:148] Top shape: 100 4096 (409600)
I0403 13:05:01.791097 10160 net.cpp:156] Memory required for data: 829887600
I0403 13:05:01.791113 10160 layer_factory.hpp:77] Creating layer drop7
I0403 13:05:01.791131 10160 net.cpp:91] Creating Layer drop7
I0403 13:05:01.791146 10160 net.cpp:425] drop7 <- fc7
I0403 13:05:01.791164 10160 net.cpp:386] drop7 -> fc7 (in-place)
I0403 13:05:01.791208 10160 net.cpp:141] Setting up drop7
I0403 13:05:01.791231 10160 net.cpp:148] Top shape: 100 4096 (409600)
I0403 13:05:01.791246 10160 net.cpp:156] Memory required for data: 831526000
I0403 13:05:01.791260 10160 layer_factory.hpp:77] Creating layer fc8_plantvillage
I0403 13:05:01.791278 10160 net.cpp:91] Creating Layer fc8_plantvillage
I0403 13:05:01.791293 10160 net.cpp:425] fc8_plantvillage <- fc7
I0403 13:05:01.791312 10160 net.cpp:399] fc8_plantvillage -> fc8_plantvillage
I0403 13:05:01.798244 10160 net.cpp:141] Setting up fc8_plantvillage
I0403 13:05:01.798274 10160 net.cpp:148] Top shape: 100 38 (3800)
I0403 13:05:01.798290 10160 net.cpp:156] Memory required for data: 831541200
I0403 13:05:01.798306 10160 layer_factory.hpp:77] Creating layer fc8_plantvillage_fc8_plantvillage_0_split
I0403 13:05:01.798324 10160 net.cpp:91] Creating Layer fc8_plantvillage_fc8_plantvillage_0_split
I0403 13:05:01.798339 10160 net.cpp:425] fc8_plantvillage_fc8_plantvillage_0_split <- fc8_plantvillage
I0403 13:05:01.798359 10160 net.cpp:399] fc8_plantvillage_fc8_plantvillage_0_split -> fc8_plantvillage_fc8_plantvillage_0_split_0
I0403 13:05:01.798380 10160 net.cpp:399] fc8_plantvillage_fc8_plantvillage_0_split -> fc8_plantvillage_fc8_plantvillage_0_split_1
I0403 13:05:01.798399 10160 net.cpp:399] fc8_plantvillage_fc8_plantvillage_0_split -> fc8_plantvillage_fc8_plantvillage_0_split_2
I0403 13:05:01.798476 10160 net.cpp:141] Setting up fc8_plantvillage_fc8_plantvillage_0_split
I0403 13:05:01.798501 10160 net.cpp:148] Top shape: 100 38 (3800)
I0403 13:05:01.798516 10160 net.cpp:148] Top shape: 100 38 (3800)
I0403 13:05:01.798530 10160 net.cpp:148] Top shape: 100 38 (3800)
I0403 13:05:01.798544 10160 net.cpp:156] Memory required for data: 831586800
I0403 13:05:01.798558 10160 layer_factory.hpp:77] Creating layer prob
I0403 13:05:01.798576 10160 net.cpp:91] Creating Layer prob
I0403 13:05:01.798593 10160 net.cpp:425] prob <- fc8_plantvillage_fc8_plantvillage_0_split_0
I0403 13:05:01.798619 10160 net.cpp:399] prob -> prob
I0403 13:05:01.798859 10160 net.cpp:141] Setting up prob
I0403 13:05:01.798885 10160 net.cpp:148] Top shape: 100 38 (3800)
I0403 13:05:01.798900 10160 net.cpp:156] Memory required for data: 831602000
I0403 13:05:01.798914 10160 layer_factory.hpp:77] Creating layer hdf5out
I0403 13:05:01.798933 10160 net.cpp:91] Creating Layer hdf5out
I0403 13:05:01.798949 10160 net.cpp:425] hdf5out <- prob
I0403 13:05:01.798964 10160 net.cpp:425] hdf5out <- label_data_1_split_0
I0403 13:05:01.801559 10160 net.cpp:141] Setting up hdf5out
…
