…
I0403 12:57:23.550539  9929 net.cpp:313] The NetState phase (1) differed from the phase (0) specified by a rule in layer data
I0403 12:57:23.550853  9929 net.cpp:49] Initializing net from parameters: 
state {
  phase: TEST
}
layer {
  name: "data"
  type: "Data"
  top: "data"
  top: "label"
  include {
    phase: TEST
  }
  transform_param {
    crop_size: 227
    mean_file: "/home/mohanty/data/final_dataset/lmdb/segmented-50-50/mean.binaryproto"
  }
  data_param {
    source: "/home/mohanty/data/final_dataset/lmdb/segmented-50-50/test_db"
    batch_size: 100
    backend: LMDB
  }
}
layer {
  name: "conv1"
  type: "Convolution"
  bottom: "data"
  top: "conv1"
  param {
    lr_mult: 1
    decay_mult: 1
  }
  param {
    lr_mult: 2
    decay_mult: 0
  }
  convolution_param {
    num_output: 96
    kernel_size: 11
    stride: 4
    weight_filler {
      type: "gaussian"
      std: 0.01
    }
    bias_filler {
      type: "constant"
      value: 0
    }
  }
}
layer {
  name: "relu1"
  type: "ReLU"
  bottom: "conv1"
  top: "conv1"
}
layer {
  name: "norm1"
  type: "LRN"
  bottom: "conv1"
  top: "norm1"
  lrn_param {
    local_size: 5
    alpha: 0.0001
    beta: 0.75
  }
}
layer {
  name: "pool1"
  type: "Pooling"
  bottom: "norm1"
  top: "pool1"
  pooling_param {
    pool: MAX
    kernel_size: 3
    stride: 2
  }
}
layer {
  name: "conv2"
  type: "Convolution"
  bottom: "pool1"
  top: "conv2"
  param {
    lr_mult: 1
    decay_mult: 1
  }
  param {
    lr_mult: 2
    decay_mult: 0
  }
  convolution_param {
    num_output: 256
    pad: 2
    kernel_size: 5
    group: 2
    weight_filler {
      type: "gaussian"
      std: 0.01
    }
    bias_filler {
      type: "constant"
      value: 0.1
    }
  }
}
layer {
  name: "relu2"
  type: "ReLU"
  bottom: "conv2"
  top: "conv2"
}
layer {
  name: "norm2"
  type: "LRN"
  bottom: "conv2"
  top: "norm2"
  lrn_param {
    local_size: 5
    alpha: 0.0001
    beta: 0.75
  }
}
layer {
  name: "pool2"
  type: "Pooling"
  bottom: "norm2"
  top: "pool2"
  pooling_param {
    pool: MAX
    kernel_size: 3
    stride: 2
  }
}
layer {
  name: "conv3"
  type: "Convolution"
  bottom: "pool2"
  top: "conv3"
  param {
    lr_mult: 1
    decay_mult: 1
  }
  param {
    lr_mult: 2
    decay_mult: 0
  }
  convolution_param {
    num_output: 384
    pad: 1
    kernel_size: 3
    weight_filler {
      type: "gaussian"
      std: 0.01
    }
    bias_filler {
      type: "constant"
      value: 0
    }
  }
}
layer {
  name: "relu3"
  type: "ReLU"
  bottom: "conv3"
  top: "conv3"
}
layer {
  name: "conv4"
  type: "Convolution"
  bottom: "conv3"
  top: "conv4"
  param {
    lr_mult: 1
    decay_mult: 1
  }
  param {
    lr_mult: 2
    decay_mult: 0
  }
  convolution_param {
    num_output: 384
    pad: 1
    kernel_size: 3
    group: 2
    weight_filler {
      type: "gaussian"
      std: 0.01
    }
    bias_filler {
      type: "constant"
      value: 0.1
    }
  }
}
layer {
  name: "relu4"
  type: "ReLU"
  bottom: "conv4"
  top: "conv4"
}
layer {
  name: "conv5"
  type: "Convolution"
  bottom: "conv4"
  top: "conv5"
  param {
    lr_mult: 1
    decay_mult: 1
  }
  param {
    lr_mult: 2
    decay_mult: 0
  }
  convolution_param {
    num_output: 256
    pad: 1
    kernel_size: 3
    group: 2
    weight_filler {
      type: "gaussian"
      std: 0.01
    }
    bias_filler {
      type: "constant"
      value: 0.1
    }
  }
}
layer {
  name: "relu5"
  type: "ReLU"
  bottom: "conv5"
  top: "conv5"
}
layer {
  name: "pool5"
  type: "Pooling"
  bottom: "conv5"
  top: "pool5"
  pooling_param {
    pool: MAX
    kernel_size: 3
    stride: 2
  }
}
layer {
  name: "fc6"
  type: "InnerProduct"
  bottom: "pool5"
  top: "fc6"
  param {
    lr_mult: 1
    decay_mult: 1
  }
  param {
    lr_mult: 2
    decay_mult: 0
  }
  inner_product_param {
    num_output: 4096
    weight_filler {
      type: "gaussian"
      std: 0.005
    }
    bias_filler {
      type: "constant"
      value: 0.1
    }
  }
}
layer {
  name: "relu6"
  type: "ReLU"
  bottom: "fc6"
  top: "fc6"
}
layer {
  name: "drop6"
  type: "Dropout"
  bottom: "fc6"
  top: "fc6"
  dropout_param {
    dropout_ratio: 0.5
  }
}
layer {
  name: "fc7"
  type: "InnerProduct"
  bottom: "fc6"
  top: "fc7"
  param {
    lr_mult: 1
    decay_mult: 1
  }
  param {
    lr_mult: 2
    decay_mult: 0
  }
  inner_product_param {
    num_output: 4096
    weight_filler {
      type: "gaussian"
      std: 0.005
    }
    bias_filler {
      type: "constant"
      value: 0.1
    }
  }
}
layer {
  name: "relu7"
  type: "ReLU"
  bottom: "fc7"
  top: "fc7"
}
layer {
  name: "drop7"
  type: "Dropout"
  bottom: "fc7"
  top: "fc7"
  dropout_param {
    dropout_ratio: 0.5
  }
}
layer {
  name: "fc8_plantvillage"
  type: "InnerProduct"
  bottom: "fc7"
  top: "fc8_plantvillage"
  param {
    lr_mult: 1
    decay_mult: 1
  }
  param {
    lr_mult: 2
    decay_mult: 0
  }
  inner_product_param {
    num_output: 38
    weight_filler {
      type: "gaussian"
      std: 0.01
    }
    bias_filler {
      type: "constant"
      value: 0
    }
  }
}
layer {
  name: "prob"
  type: "Softmax"
  bottom: "fc8_plantvillage"
  top: "prob"
  include {
    phase: TEST
  }
}
layer {
  name: "hdf5out"
  type: "HDF5Output"
  bottom: "prob"
  bottom: "label"
  include {
    phase: TEST
  }
  hdf5_output_param {
    file_name: "hdf5_dumps/iter_4824.h5"
  }
}
layer {
  name: "loss"
  type: "SoftmaxWithLoss"
  bottom: "fc8_plantvillage"
  bottom: "label"
  top: "loss"
}
layer {
  name: "accuracy"
  type: "Accuracy"
  bottom: "fc8_plantvillage"
  bottom: "label"
  top: "accuracy"
  include {
    phase: TEST
  }
}
I0403 12:57:23.551434  9929 layer_factory.hpp:77] Creating layer data
I0403 12:57:23.552078  9929 net.cpp:91] Creating Layer data
I0403 12:57:23.552111  9929 net.cpp:399] data -> data
I0403 12:57:23.552162  9929 net.cpp:399] data -> label
I0403 12:57:23.552199  9929 data_transformer.cpp:25] Loading mean file from: /home/mohanty/data/final_dataset/lmdb/segmented-50-50/mean.binaryproto
I0403 12:57:23.555681  9932 db_lmdb.cpp:38] Opened lmdb /home/mohanty/data/final_dataset/lmdb/segmented-50-50/test_db
I0403 12:57:23.566738  9929 data_layer.cpp:41] output data size: 100,3,227,227
I0403 12:57:23.686516  9929 net.cpp:141] Setting up data
I0403 12:57:23.686627  9929 net.cpp:148] Top shape: 100 3 227 227 (15458700)
I0403 12:57:23.686651  9929 net.cpp:148] Top shape: 100 (100)
I0403 12:57:23.686667  9929 net.cpp:156] Memory required for data: 61835200
I0403 12:57:23.686697  9929 layer_factory.hpp:77] Creating layer label_data_1_split
I0403 12:57:23.686723  9929 net.cpp:91] Creating Layer label_data_1_split
I0403 12:57:23.686743  9929 net.cpp:425] label_data_1_split <- label
I0403 12:57:23.686777  9929 net.cpp:399] label_data_1_split -> label_data_1_split_0
I0403 12:57:23.686806  9929 net.cpp:399] label_data_1_split -> label_data_1_split_1
I0403 12:57:23.686828  9929 net.cpp:399] label_data_1_split -> label_data_1_split_2
I0403 12:57:23.686905  9929 net.cpp:141] Setting up label_data_1_split
I0403 12:57:23.686929  9929 net.cpp:148] Top shape: 100 (100)
I0403 12:57:23.686947  9929 net.cpp:148] Top shape: 100 (100)
I0403 12:57:23.686964  9929 net.cpp:148] Top shape: 100 (100)
I0403 12:57:23.686978  9929 net.cpp:156] Memory required for data: 61836400
I0403 12:57:23.686995  9929 layer_factory.hpp:77] Creating layer conv1
I0403 12:57:23.687026  9929 net.cpp:91] Creating Layer conv1
I0403 12:57:23.687046  9929 net.cpp:425] conv1 <- data
I0403 12:57:23.687064  9929 net.cpp:399] conv1 -> conv1
I0403 12:57:23.828125  9929 net.cpp:141] Setting up conv1
I0403 12:57:23.828204  9929 net.cpp:148] Top shape: 100 96 55 55 (29040000)
I0403 12:57:23.828223  9929 net.cpp:156] Memory required for data: 177996400
I0403 12:57:23.828256  9929 layer_factory.hpp:77] Creating layer relu1
I0403 12:57:23.828286  9929 net.cpp:91] Creating Layer relu1
I0403 12:57:23.828305  9929 net.cpp:425] relu1 <- conv1
I0403 12:57:23.828325  9929 net.cpp:386] relu1 -> conv1 (in-place)
I0403 12:57:23.828595  9929 net.cpp:141] Setting up relu1
I0403 12:57:23.828624  9929 net.cpp:148] Top shape: 100 96 55 55 (29040000)
I0403 12:57:23.828675  9929 net.cpp:156] Memory required for data: 294156400
I0403 12:57:23.828692  9929 layer_factory.hpp:77] Creating layer norm1
I0403 12:57:23.828721  9929 net.cpp:91] Creating Layer norm1
I0403 12:57:23.828739  9929 net.cpp:425] norm1 <- conv1
I0403 12:57:23.828758  9929 net.cpp:399] norm1 -> norm1
I0403 12:57:23.829104  9929 net.cpp:141] Setting up norm1
I0403 12:57:23.829133  9929 net.cpp:148] Top shape: 100 96 55 55 (29040000)
I0403 12:57:23.829150  9929 net.cpp:156] Memory required for data: 410316400
I0403 12:57:23.829167  9929 layer_factory.hpp:77] Creating layer pool1
I0403 12:57:23.829191  9929 net.cpp:91] Creating Layer pool1
I0403 12:57:23.829210  9929 net.cpp:425] pool1 <- norm1
I0403 12:57:23.829229  9929 net.cpp:399] pool1 -> pool1
I0403 12:57:23.829308  9929 net.cpp:141] Setting up pool1
I0403 12:57:23.829334  9929 net.cpp:148] Top shape: 100 96 27 27 (6998400)
I0403 12:57:23.829349  9929 net.cpp:156] Memory required for data: 438310000
I0403 12:57:23.829366  9929 layer_factory.hpp:77] Creating layer conv2
I0403 12:57:23.829392  9929 net.cpp:91] Creating Layer conv2
I0403 12:57:23.829411  9929 net.cpp:425] conv2 <- pool1
I0403 12:57:23.829429  9929 net.cpp:399] conv2 -> conv2
I0403 12:57:23.845077  9929 net.cpp:141] Setting up conv2
I0403 12:57:23.845131  9929 net.cpp:148] Top shape: 100 256 27 27 (18662400)
I0403 12:57:23.845149  9929 net.cpp:156] Memory required for data: 512959600
I0403 12:57:23.845175  9929 layer_factory.hpp:77] Creating layer relu2
I0403 12:57:23.845198  9929 net.cpp:91] Creating Layer relu2
I0403 12:57:23.845216  9929 net.cpp:425] relu2 <- conv2
I0403 12:57:23.845235  9929 net.cpp:386] relu2 -> conv2 (in-place)
I0403 12:57:23.845522  9929 net.cpp:141] Setting up relu2
I0403 12:57:23.845551  9929 net.cpp:148] Top shape: 100 256 27 27 (18662400)
I0403 12:57:23.845572  9929 net.cpp:156] Memory required for data: 587609200
I0403 12:57:23.845590  9929 layer_factory.hpp:77] Creating layer norm2
I0403 12:57:23.845615  9929 net.cpp:91] Creating Layer norm2
I0403 12:57:23.845633  9929 net.cpp:425] norm2 <- conv2
I0403 12:57:23.845654  9929 net.cpp:399] norm2 -> norm2
I0403 12:57:23.845890  9929 net.cpp:141] Setting up norm2
I0403 12:57:23.845916  9929 net.cpp:148] Top shape: 100 256 27 27 (18662400)
I0403 12:57:23.845932  9929 net.cpp:156] Memory required for data: 662258800
I0403 12:57:23.845948  9929 layer_factory.hpp:77] Creating layer pool2
I0403 12:57:23.845970  9929 net.cpp:91] Creating Layer pool2
I0403 12:57:23.845988  9929 net.cpp:425] pool2 <- norm2
I0403 12:57:23.846007  9929 net.cpp:399] pool2 -> pool2
I0403 12:57:23.846066  9929 net.cpp:141] Setting up pool2
I0403 12:57:23.846091  9929 net.cpp:148] Top shape: 100 256 13 13 (4326400)
I0403 12:57:23.846107  9929 net.cpp:156] Memory required for data: 679564400
I0403 12:57:23.846122  9929 layer_factory.hpp:77] Creating layer conv3
I0403 12:57:23.846146  9929 net.cpp:91] Creating Layer conv3
I0403 12:57:23.846164  9929 net.cpp:425] conv3 <- pool2
I0403 12:57:23.846186  9929 net.cpp:399] conv3 -> conv3
I0403 12:57:23.886265  9929 net.cpp:141] Setting up conv3
I0403 12:57:23.886340  9929 net.cpp:148] Top shape: 100 384 13 13 (6489600)
I0403 12:57:23.886358  9929 net.cpp:156] Memory required for data: 705522800
I0403 12:57:23.886385  9929 layer_factory.hpp:77] Creating layer relu3
I0403 12:57:23.886412  9929 net.cpp:91] Creating Layer relu3
I0403 12:57:23.886432  9929 net.cpp:425] relu3 <- conv3
I0403 12:57:23.886453  9929 net.cpp:386] relu3 -> conv3 (in-place)
I0403 12:57:23.886749  9929 net.cpp:141] Setting up relu3
I0403 12:57:23.886777  9929 net.cpp:148] Top shape: 100 384 13 13 (6489600)
I0403 12:57:23.886795  9929 net.cpp:156] Memory required for data: 731481200
I0403 12:57:23.886811  9929 layer_factory.hpp:77] Creating layer conv4
I0403 12:57:23.886837  9929 net.cpp:91] Creating Layer conv4
I0403 12:57:23.886857  9929 net.cpp:425] conv4 <- conv3
I0403 12:57:23.886878  9929 net.cpp:399] conv4 -> conv4
I0403 12:57:23.918134  9929 net.cpp:141] Setting up conv4
I0403 12:57:23.918196  9929 net.cpp:148] Top shape: 100 384 13 13 (6489600)
I0403 12:57:23.918249  9929 net.cpp:156] Memory required for data: 757439600
I0403 12:57:23.918274  9929 layer_factory.hpp:77] Creating layer relu4
I0403 12:57:23.918298  9929 net.cpp:91] Creating Layer relu4
I0403 12:57:23.918315  9929 net.cpp:425] relu4 <- conv4
I0403 12:57:23.918339  9929 net.cpp:386] relu4 -> conv4 (in-place)
I0403 12:57:23.918639  9929 net.cpp:141] Setting up relu4
I0403 12:57:23.918668  9929 net.cpp:148] Top shape: 100 384 13 13 (6489600)
I0403 12:57:23.918684  9929 net.cpp:156] Memory required for data: 783398000
I0403 12:57:23.918701  9929 layer_factory.hpp:77] Creating layer conv5
I0403 12:57:23.918730  9929 net.cpp:91] Creating Layer conv5
I0403 12:57:23.918748  9929 net.cpp:425] conv5 <- conv4
I0403 12:57:23.918795  9929 net.cpp:399] conv5 -> conv5
I0403 12:57:23.940371  9929 net.cpp:141] Setting up conv5
I0403 12:57:23.940425  9929 net.cpp:148] Top shape: 100 256 13 13 (4326400)
I0403 12:57:23.940443  9929 net.cpp:156] Memory required for data: 800703600
I0403 12:57:23.940469  9929 layer_factory.hpp:77] Creating layer relu5
I0403 12:57:23.940495  9929 net.cpp:91] Creating Layer relu5
I0403 12:57:23.940513  9929 net.cpp:425] relu5 <- conv5
I0403 12:57:23.940532  9929 net.cpp:386] relu5 -> conv5 (in-place)
I0403 12:57:23.940836  9929 net.cpp:141] Setting up relu5
I0403 12:57:23.940865  9929 net.cpp:148] Top shape: 100 256 13 13 (4326400)
I0403 12:57:23.940881  9929 net.cpp:156] Memory required for data: 818009200
I0403 12:57:23.940898  9929 layer_factory.hpp:77] Creating layer pool5
I0403 12:57:23.940923  9929 net.cpp:91] Creating Layer pool5
I0403 12:57:23.940942  9929 net.cpp:425] pool5 <- conv5
I0403 12:57:23.940961  9929 net.cpp:399] pool5 -> pool5
I0403 12:57:23.941027  9929 net.cpp:141] Setting up pool5
I0403 12:57:23.941052  9929 net.cpp:148] Top shape: 100 256 6 6 (921600)
I0403 12:57:23.941068  9929 net.cpp:156] Memory required for data: 821695600
I0403 12:57:23.941083  9929 layer_factory.hpp:77] Creating layer fc6
I0403 12:57:23.941114  9929 net.cpp:91] Creating Layer fc6
I0403 12:57:23.941133  9929 net.cpp:425] fc6 <- pool5
I0403 12:57:23.941154  9929 net.cpp:399] fc6 -> fc6
I0403 12:57:25.513015  9929 net.cpp:141] Setting up fc6
I0403 12:57:25.513097  9929 net.cpp:148] Top shape: 100 4096 (409600)
I0403 12:57:25.513113  9929 net.cpp:156] Memory required for data: 823334000
I0403 12:57:25.513134  9929 layer_factory.hpp:77] Creating layer relu6
I0403 12:57:25.513157  9929 net.cpp:91] Creating Layer relu6
I0403 12:57:25.513175  9929 net.cpp:425] relu6 <- fc6
I0403 12:57:25.513196  9929 net.cpp:386] relu6 -> fc6 (in-place)
I0403 12:57:25.513433  9929 net.cpp:141] Setting up relu6
I0403 12:57:25.513458  9929 net.cpp:148] Top shape: 100 4096 (409600)
I0403 12:57:25.513473  9929 net.cpp:156] Memory required for data: 824972400
I0403 12:57:25.513489  9929 layer_factory.hpp:77] Creating layer drop6
I0403 12:57:25.513509  9929 net.cpp:91] Creating Layer drop6
I0403 12:57:25.513526  9929 net.cpp:425] drop6 <- fc6
I0403 12:57:25.513543  9929 net.cpp:386] drop6 -> fc6 (in-place)
I0403 12:57:25.513598  9929 net.cpp:141] Setting up drop6
I0403 12:57:25.513624  9929 net.cpp:148] Top shape: 100 4096 (409600)
I0403 12:57:25.513640  9929 net.cpp:156] Memory required for data: 826610800
I0403 12:57:25.513656  9929 layer_factory.hpp:77] Creating layer fc7
I0403 12:57:25.513676  9929 net.cpp:91] Creating Layer fc7
I0403 12:57:25.513692  9929 net.cpp:425] fc7 <- fc6
I0403 12:57:25.513712  9929 net.cpp:399] fc7 -> fc7
I0403 12:57:26.196908  9929 net.cpp:141] Setting up fc7
I0403 12:57:26.196986  9929 net.cpp:148] Top shape: 100 4096 (409600)
I0403 12:57:26.197003  9929 net.cpp:156] Memory required for data: 828249200
I0403 12:57:26.197026  9929 layer_factory.hpp:77] Creating layer relu7
I0403 12:57:26.197049  9929 net.cpp:91] Creating Layer relu7
I0403 12:57:26.197067  9929 net.cpp:425] relu7 <- fc7
I0403 12:57:26.197089  9929 net.cpp:386] relu7 -> fc7 (in-place)
I0403 12:57:26.197517  9929 net.cpp:141] Setting up relu7
I0403 12:57:26.197545  9929 net.cpp:148] Top shape: 100 4096 (409600)
I0403 12:57:26.197607  9929 net.cpp:156] Memory required for data: 829887600
I0403 12:57:26.197624  9929 layer_factory.hpp:77] Creating layer drop7
I0403 12:57:26.197644  9929 net.cpp:91] Creating Layer drop7
I0403 12:57:26.197661  9929 net.cpp:425] drop7 <- fc7
I0403 12:57:26.197681  9929 net.cpp:386] drop7 -> fc7 (in-place)
I0403 12:57:26.197726  9929 net.cpp:141] Setting up drop7
I0403 12:57:26.197752  9929 net.cpp:148] Top shape: 100 4096 (409600)
I0403 12:57:26.197768  9929 net.cpp:156] Memory required for data: 831526000
I0403 12:57:26.197784  9929 layer_factory.hpp:77] Creating layer fc8_plantvillage
I0403 12:57:26.197804  9929 net.cpp:91] Creating Layer fc8_plantvillage
I0403 12:57:26.197820  9929 net.cpp:425] fc8_plantvillage <- fc7
I0403 12:57:26.197842  9929 net.cpp:399] fc8_plantvillage -> fc8_plantvillage
I0403 12:57:26.204790  9929 net.cpp:141] Setting up fc8_plantvillage
I0403 12:57:26.204819  9929 net.cpp:148] Top shape: 100 38 (3800)
I0403 12:57:26.204836  9929 net.cpp:156] Memory required for data: 831541200
I0403 12:57:26.204855  9929 layer_factory.hpp:77] Creating layer fc8_plantvillage_fc8_plantvillage_0_split
I0403 12:57:26.204877  9929 net.cpp:91] Creating Layer fc8_plantvillage_fc8_plantvillage_0_split
I0403 12:57:26.204895  9929 net.cpp:425] fc8_plantvillage_fc8_plantvillage_0_split <- fc8_plantvillage
I0403 12:57:26.204913  9929 net.cpp:399] fc8_plantvillage_fc8_plantvillage_0_split -> fc8_plantvillage_fc8_plantvillage_0_split_0
I0403 12:57:26.204934  9929 net.cpp:399] fc8_plantvillage_fc8_plantvillage_0_split -> fc8_plantvillage_fc8_plantvillage_0_split_1
I0403 12:57:26.204954  9929 net.cpp:399] fc8_plantvillage_fc8_plantvillage_0_split -> fc8_plantvillage_fc8_plantvillage_0_split_2
I0403 12:57:26.205035  9929 net.cpp:141] Setting up fc8_plantvillage_fc8_plantvillage_0_split
I0403 12:57:26.205060  9929 net.cpp:148] Top shape: 100 38 (3800)
I0403 12:57:26.205076  9929 net.cpp:148] Top shape: 100 38 (3800)
I0403 12:57:26.205093  9929 net.cpp:148] Top shape: 100 38 (3800)
I0403 12:57:26.205107  9929 net.cpp:156] Memory required for data: 831586800
I0403 12:57:26.205122  9929 layer_factory.hpp:77] Creating layer prob
I0403 12:57:26.205140  9929 net.cpp:91] Creating Layer prob
I0403 12:57:26.205157  9929 net.cpp:425] prob <- fc8_plantvillage_fc8_plantvillage_0_split_0
I0403 12:57:26.205175  9929 net.cpp:399] prob -> prob
I0403 12:57:26.205405  9929 net.cpp:141] Setting up prob
I0403 12:57:26.205432  9929 net.cpp:148] Top shape: 100 38 (3800)
I0403 12:57:26.205447  9929 net.cpp:156] Memory required for data: 831602000
I0403 12:57:26.205462  9929 layer_factory.hpp:77] Creating layer hdf5out
I0403 12:57:26.205482  9929 net.cpp:91] Creating Layer hdf5out
I0403 12:57:26.205498  9929 net.cpp:425] hdf5out <- prob
I0403 12:57:26.205514  9929 net.cpp:425] hdf5out <- label_data_1_split_0
I0403 12:57:26.480026  9929 net.cpp:141] Setting up hdf5out
…
