…
I0403 12:48:55.600738  9702 net.cpp:313] The NetState phase (1) differed from the phase (0) specified by a rule in layer data
I0403 12:48:55.601035  9702 net.cpp:49] Initializing net from parameters: 
state {
  phase: TEST
}
layer {
  name: "data"
  type: "Data"
  top: "data"
  top: "label"
  include {
    phase: TEST
  }
  transform_param {
    crop_size: 227
    mean_file: "/home/mohanty/data/final_dataset/lmdb/segmented-50-50/mean.binaryproto"
  }
  data_param {
    source: "/home/mohanty/data/final_dataset/lmdb/segmented-50-50/test_db"
    batch_size: 100
    backend: LMDB
  }
}
layer {
  name: "conv1"
  type: "Convolution"
  bottom: "data"
  top: "conv1"
  param {
    lr_mult: 1
    decay_mult: 1
  }
  param {
    lr_mult: 2
    decay_mult: 0
  }
  convolution_param {
    num_output: 96
    kernel_size: 11
    stride: 4
    weight_filler {
      type: "gaussian"
      std: 0.01
    }
    bias_filler {
      type: "constant"
      value: 0
    }
  }
}
layer {
  name: "relu1"
  type: "ReLU"
  bottom: "conv1"
  top: "conv1"
}
layer {
  name: "norm1"
  type: "LRN"
  bottom: "conv1"
  top: "norm1"
  lrn_param {
    local_size: 5
    alpha: 0.0001
    beta: 0.75
  }
}
layer {
  name: "pool1"
  type: "Pooling"
  bottom: "norm1"
  top: "pool1"
  pooling_param {
    pool: MAX
    kernel_size: 3
    stride: 2
  }
}
layer {
  name: "conv2"
  type: "Convolution"
  bottom: "pool1"
  top: "conv2"
  param {
    lr_mult: 1
    decay_mult: 1
  }
  param {
    lr_mult: 2
    decay_mult: 0
  }
  convolution_param {
    num_output: 256
    pad: 2
    kernel_size: 5
    group: 2
    weight_filler {
      type: "gaussian"
      std: 0.01
    }
    bias_filler {
      type: "constant"
      value: 0.1
    }
  }
}
layer {
  name: "relu2"
  type: "ReLU"
  bottom: "conv2"
  top: "conv2"
}
layer {
  name: "norm2"
  type: "LRN"
  bottom: "conv2"
  top: "norm2"
  lrn_param {
    local_size: 5
    alpha: 0.0001
    beta: 0.75
  }
}
layer {
  name: "pool2"
  type: "Pooling"
  bottom: "norm2"
  top: "pool2"
  pooling_param {
    pool: MAX
    kernel_size: 3
    stride: 2
  }
}
layer {
  name: "conv3"
  type: "Convolution"
  bottom: "pool2"
  top: "conv3"
  param {
    lr_mult: 1
    decay_mult: 1
  }
  param {
    lr_mult: 2
    decay_mult: 0
  }
  convolution_param {
    num_output: 384
    pad: 1
    kernel_size: 3
    weight_filler {
      type: "gaussian"
      std: 0.01
    }
    bias_filler {
      type: "constant"
      value: 0
    }
  }
}
layer {
  name: "relu3"
  type: "ReLU"
  bottom: "conv3"
  top: "conv3"
}
layer {
  name: "conv4"
  type: "Convolution"
  bottom: "conv3"
  top: "conv4"
  param {
    lr_mult: 1
    decay_mult: 1
  }
  param {
    lr_mult: 2
    decay_mult: 0
  }
  convolution_param {
    num_output: 384
    pad: 1
    kernel_size: 3
    group: 2
    weight_filler {
      type: "gaussian"
      std: 0.01
    }
    bias_filler {
      type: "constant"
      value: 0.1
    }
  }
}
layer {
  name: "relu4"
  type: "ReLU"
  bottom: "conv4"
  top: "conv4"
}
layer {
  name: "conv5"
  type: "Convolution"
  bottom: "conv4"
  top: "conv5"
  param {
    lr_mult: 1
    decay_mult: 1
  }
  param {
    lr_mult: 2
    decay_mult: 0
  }
  convolution_param {
    num_output: 256
    pad: 1
    kernel_size: 3
    group: 2
    weight_filler {
      type: "gaussian"
      std: 0.01
    }
    bias_filler {
      type: "constant"
      value: 0.1
    }
  }
}
layer {
  name: "relu5"
  type: "ReLU"
  bottom: "conv5"
  top: "conv5"
}
layer {
  name: "pool5"
  type: "Pooling"
  bottom: "conv5"
  top: "pool5"
  pooling_param {
    pool: MAX
    kernel_size: 3
    stride: 2
  }
}
layer {
  name: "fc6"
  type: "InnerProduct"
  bottom: "pool5"
  top: "fc6"
  param {
    lr_mult: 1
    decay_mult: 1
  }
  param {
    lr_mult: 2
    decay_mult: 0
  }
  inner_product_param {
    num_output: 4096
    weight_filler {
      type: "gaussian"
      std: 0.005
    }
    bias_filler {
      type: "constant"
      value: 0.1
    }
  }
}
layer {
  name: "relu6"
  type: "ReLU"
  bottom: "fc6"
  top: "fc6"
}
layer {
  name: "drop6"
  type: "Dropout"
  bottom: "fc6"
  top: "fc6"
  dropout_param {
    dropout_ratio: 0.5
  }
}
layer {
  name: "fc7"
  type: "InnerProduct"
  bottom: "fc6"
  top: "fc7"
  param {
    lr_mult: 1
    decay_mult: 1
  }
  param {
    lr_mult: 2
    decay_mult: 0
  }
  inner_product_param {
    num_output: 4096
    weight_filler {
      type: "gaussian"
      std: 0.005
    }
    bias_filler {
      type: "constant"
      value: 0.1
    }
  }
}
layer {
  name: "relu7"
  type: "ReLU"
  bottom: "fc7"
  top: "fc7"
}
layer {
  name: "drop7"
  type: "Dropout"
  bottom: "fc7"
  top: "fc7"
  dropout_param {
    dropout_ratio: 0.5
  }
}
layer {
  name: "fc8_plantvillage"
  type: "InnerProduct"
  bottom: "fc7"
  top: "fc8_plantvillage"
  param {
    lr_mult: 1
    decay_mult: 1
  }
  param {
    lr_mult: 2
    decay_mult: 0
  }
  inner_product_param {
    num_output: 38
    weight_filler {
      type: "gaussian"
      std: 0.01
    }
    bias_filler {
      type: "constant"
      value: 0
    }
  }
}
layer {
  name: "prob"
  type: "Softmax"
  bottom: "fc8_plantvillage"
  top: "prob"
  include {
    phase: TEST
  }
}
layer {
  name: "hdf5out"
  type: "HDF5Output"
  bottom: "prob"
  bottom: "label"
  include {
    phase: TEST
  }
  hdf5_output_param {
    file_name: "hdf5_dumps/iter_2144.h5"
  }
}
layer {
  name: "loss"
  type: "SoftmaxWithLoss"
  bottom: "fc8_plantvillage"
  bottom: "label"
  top: "loss"
}
layer {
  name: "accuracy"
  type: "Accuracy"
  bottom: "fc8_plantvillage"
  bottom: "label"
  top: "accuracy"
  include {
    phase: TEST
  }
}
I0403 12:48:55.601640  9702 layer_factory.hpp:77] Creating layer data
I0403 12:48:55.602283  9702 net.cpp:91] Creating Layer data
I0403 12:48:55.602316  9702 net.cpp:399] data -> data
I0403 12:48:55.602366  9702 net.cpp:399] data -> label
I0403 12:48:55.602402  9702 data_transformer.cpp:25] Loading mean file from: /home/mohanty/data/final_dataset/lmdb/segmented-50-50/mean.binaryproto
I0403 12:48:55.605458  9705 db_lmdb.cpp:38] Opened lmdb /home/mohanty/data/final_dataset/lmdb/segmented-50-50/test_db
I0403 12:48:55.616899  9702 data_layer.cpp:41] output data size: 100,3,227,227
I0403 12:48:55.736922  9702 net.cpp:141] Setting up data
I0403 12:48:55.737004  9702 net.cpp:148] Top shape: 100 3 227 227 (15458700)
I0403 12:48:55.737025  9702 net.cpp:148] Top shape: 100 (100)
I0403 12:48:55.737040  9702 net.cpp:156] Memory required for data: 61835200
I0403 12:48:55.737066  9702 layer_factory.hpp:77] Creating layer label_data_1_split
I0403 12:48:55.737090  9702 net.cpp:91] Creating Layer label_data_1_split
I0403 12:48:55.737107  9702 net.cpp:425] label_data_1_split <- label
I0403 12:48:55.737135  9702 net.cpp:399] label_data_1_split -> label_data_1_split_0
I0403 12:48:55.737159  9702 net.cpp:399] label_data_1_split -> label_data_1_split_1
I0403 12:48:55.737179  9702 net.cpp:399] label_data_1_split -> label_data_1_split_2
I0403 12:48:55.737242  9702 net.cpp:141] Setting up label_data_1_split
I0403 12:48:55.737265  9702 net.cpp:148] Top shape: 100 (100)
I0403 12:48:55.737280  9702 net.cpp:148] Top shape: 100 (100)
I0403 12:48:55.737296  9702 net.cpp:148] Top shape: 100 (100)
I0403 12:48:55.737309  9702 net.cpp:156] Memory required for data: 61836400
I0403 12:48:55.737323  9702 layer_factory.hpp:77] Creating layer conv1
I0403 12:48:55.737354  9702 net.cpp:91] Creating Layer conv1
I0403 12:48:55.737371  9702 net.cpp:425] conv1 <- data
I0403 12:48:55.737390  9702 net.cpp:399] conv1 -> conv1
I0403 12:48:56.003114  9702 net.cpp:141] Setting up conv1
I0403 12:48:56.003192  9702 net.cpp:148] Top shape: 100 96 55 55 (29040000)
I0403 12:48:56.003211  9702 net.cpp:156] Memory required for data: 177996400
I0403 12:48:56.003243  9702 layer_factory.hpp:77] Creating layer relu1
I0403 12:48:56.003271  9702 net.cpp:91] Creating Layer relu1
I0403 12:48:56.003290  9702 net.cpp:425] relu1 <- conv1
I0403 12:48:56.003310  9702 net.cpp:386] relu1 -> conv1 (in-place)
I0403 12:48:56.003576  9702 net.cpp:141] Setting up relu1
I0403 12:48:56.003607  9702 net.cpp:148] Top shape: 100 96 55 55 (29040000)
I0403 12:48:56.003664  9702 net.cpp:156] Memory required for data: 294156400
I0403 12:48:56.003681  9702 layer_factory.hpp:77] Creating layer norm1
I0403 12:48:56.003710  9702 net.cpp:91] Creating Layer norm1
I0403 12:48:56.003727  9702 net.cpp:425] norm1 <- conv1
I0403 12:48:56.003746  9702 net.cpp:399] norm1 -> norm1
I0403 12:48:56.004102  9702 net.cpp:141] Setting up norm1
I0403 12:48:56.004132  9702 net.cpp:148] Top shape: 100 96 55 55 (29040000)
I0403 12:48:56.004148  9702 net.cpp:156] Memory required for data: 410316400
I0403 12:48:56.004163  9702 layer_factory.hpp:77] Creating layer pool1
I0403 12:48:56.004187  9702 net.cpp:91] Creating Layer pool1
I0403 12:48:56.004204  9702 net.cpp:425] pool1 <- norm1
I0403 12:48:56.004223  9702 net.cpp:399] pool1 -> pool1
I0403 12:48:56.004292  9702 net.cpp:141] Setting up pool1
I0403 12:48:56.004317  9702 net.cpp:148] Top shape: 100 96 27 27 (6998400)
I0403 12:48:56.004333  9702 net.cpp:156] Memory required for data: 438310000
I0403 12:48:56.004348  9702 layer_factory.hpp:77] Creating layer conv2
I0403 12:48:56.004372  9702 net.cpp:91] Creating Layer conv2
I0403 12:48:56.004389  9702 net.cpp:425] conv2 <- pool1
I0403 12:48:56.004407  9702 net.cpp:399] conv2 -> conv2
I0403 12:48:56.020076  9702 net.cpp:141] Setting up conv2
I0403 12:48:56.020114  9702 net.cpp:148] Top shape: 100 256 27 27 (18662400)
I0403 12:48:56.020131  9702 net.cpp:156] Memory required for data: 512959600
I0403 12:48:56.020154  9702 layer_factory.hpp:77] Creating layer relu2
I0403 12:48:56.020174  9702 net.cpp:91] Creating Layer relu2
I0403 12:48:56.020190  9702 net.cpp:425] relu2 <- conv2
I0403 12:48:56.020207  9702 net.cpp:386] relu2 -> conv2 (in-place)
I0403 12:48:56.020475  9702 net.cpp:141] Setting up relu2
I0403 12:48:56.020504  9702 net.cpp:148] Top shape: 100 256 27 27 (18662400)
I0403 12:48:56.020520  9702 net.cpp:156] Memory required for data: 587609200
I0403 12:48:56.020536  9702 layer_factory.hpp:77] Creating layer norm2
I0403 12:48:56.020557  9702 net.cpp:91] Creating Layer norm2
I0403 12:48:56.020573  9702 net.cpp:425] norm2 <- conv2
I0403 12:48:56.020592  9702 net.cpp:399] norm2 -> norm2
I0403 12:48:56.020784  9702 net.cpp:141] Setting up norm2
I0403 12:48:56.020812  9702 net.cpp:148] Top shape: 100 256 27 27 (18662400)
I0403 12:48:56.020828  9702 net.cpp:156] Memory required for data: 662258800
I0403 12:48:56.020843  9702 layer_factory.hpp:77] Creating layer pool2
I0403 12:48:56.020864  9702 net.cpp:91] Creating Layer pool2
I0403 12:48:56.020879  9702 net.cpp:425] pool2 <- norm2
I0403 12:48:56.020897  9702 net.cpp:399] pool2 -> pool2
I0403 12:48:56.020951  9702 net.cpp:141] Setting up pool2
I0403 12:48:56.020975  9702 net.cpp:148] Top shape: 100 256 13 13 (4326400)
I0403 12:48:56.020990  9702 net.cpp:156] Memory required for data: 679564400
I0403 12:48:56.021005  9702 layer_factory.hpp:77] Creating layer conv3
I0403 12:48:56.021028  9702 net.cpp:91] Creating Layer conv3
I0403 12:48:56.021045  9702 net.cpp:425] conv3 <- pool2
I0403 12:48:56.021064  9702 net.cpp:399] conv3 -> conv3
I0403 12:48:56.060325  9702 net.cpp:141] Setting up conv3
I0403 12:48:56.060384  9702 net.cpp:148] Top shape: 100 384 13 13 (6489600)
I0403 12:48:56.060401  9702 net.cpp:156] Memory required for data: 705522800
I0403 12:48:56.060425  9702 layer_factory.hpp:77] Creating layer relu3
I0403 12:48:56.060446  9702 net.cpp:91] Creating Layer relu3
I0403 12:48:56.060502  9702 net.cpp:425] relu3 <- conv3
I0403 12:48:56.060526  9702 net.cpp:386] relu3 -> conv3 (in-place)
I0403 12:48:56.060802  9702 net.cpp:141] Setting up relu3
I0403 12:48:56.060829  9702 net.cpp:148] Top shape: 100 384 13 13 (6489600)
I0403 12:48:56.060845  9702 net.cpp:156] Memory required for data: 731481200
I0403 12:48:56.060860  9702 layer_factory.hpp:77] Creating layer conv4
I0403 12:48:56.060884  9702 net.cpp:91] Creating Layer conv4
I0403 12:48:56.060900  9702 net.cpp:425] conv4 <- conv3
I0403 12:48:56.060920  9702 net.cpp:399] conv4 -> conv4
I0403 12:48:58.107970  9702 net.cpp:141] Setting up conv4
I0403 12:48:58.108052  9702 net.cpp:148] Top shape: 100 384 13 13 (6489600)
I0403 12:48:58.108108  9702 net.cpp:156] Memory required for data: 757439600
I0403 12:48:58.108132  9702 layer_factory.hpp:77] Creating layer relu4
I0403 12:48:58.108155  9702 net.cpp:91] Creating Layer relu4
I0403 12:48:58.108171  9702 net.cpp:425] relu4 <- conv4
I0403 12:48:58.108193  9702 net.cpp:386] relu4 -> conv4 (in-place)
I0403 12:48:58.108566  9702 net.cpp:141] Setting up relu4
I0403 12:48:58.108594  9702 net.cpp:148] Top shape: 100 384 13 13 (6489600)
I0403 12:48:58.108615  9702 net.cpp:156] Memory required for data: 783398000
I0403 12:48:58.108631  9702 layer_factory.hpp:77] Creating layer conv5
I0403 12:48:58.108657  9702 net.cpp:91] Creating Layer conv5
I0403 12:48:58.108675  9702 net.cpp:425] conv5 <- conv4
I0403 12:48:58.108692  9702 net.cpp:399] conv5 -> conv5
I0403 12:48:58.142551  9702 net.cpp:141] Setting up conv5
I0403 12:48:58.142637  9702 net.cpp:148] Top shape: 100 256 13 13 (4326400)
I0403 12:48:58.142657  9702 net.cpp:156] Memory required for data: 800703600
I0403 12:48:58.142685  9702 layer_factory.hpp:77] Creating layer relu5
I0403 12:48:58.142709  9702 net.cpp:91] Creating Layer relu5
I0403 12:48:58.142726  9702 net.cpp:425] relu5 <- conv5
I0403 12:48:58.142748  9702 net.cpp:386] relu5 -> conv5 (in-place)
I0403 12:48:58.148186  9702 net.cpp:141] Setting up relu5
I0403 12:48:58.148264  9702 net.cpp:148] Top shape: 100 256 13 13 (4326400)
I0403 12:48:58.148289  9702 net.cpp:156] Memory required for data: 818009200
I0403 12:48:58.148306  9702 layer_factory.hpp:77] Creating layer pool5
I0403 12:48:58.148339  9702 net.cpp:91] Creating Layer pool5
I0403 12:48:58.148357  9702 net.cpp:425] pool5 <- conv5
I0403 12:48:58.148378  9702 net.cpp:399] pool5 -> pool5
I0403 12:48:58.148463  9702 net.cpp:141] Setting up pool5
I0403 12:48:58.148486  9702 net.cpp:148] Top shape: 100 256 6 6 (921600)
I0403 12:48:58.148501  9702 net.cpp:156] Memory required for data: 821695600
I0403 12:48:58.148515  9702 layer_factory.hpp:77] Creating layer fc6
I0403 12:48:58.148545  9702 net.cpp:91] Creating Layer fc6
I0403 12:48:58.148562  9702 net.cpp:425] fc6 <- pool5
I0403 12:48:58.148582  9702 net.cpp:399] fc6 -> fc6
I0403 12:48:59.719311  9702 net.cpp:141] Setting up fc6
I0403 12:48:59.719393  9702 net.cpp:148] Top shape: 100 4096 (409600)
I0403 12:48:59.719408  9702 net.cpp:156] Memory required for data: 823334000
I0403 12:48:59.719429  9702 layer_factory.hpp:77] Creating layer relu6
I0403 12:48:59.719451  9702 net.cpp:91] Creating Layer relu6
I0403 12:48:59.719468  9702 net.cpp:425] relu6 <- fc6
I0403 12:48:59.719486  9702 net.cpp:386] relu6 -> fc6 (in-place)
I0403 12:48:59.719719  9702 net.cpp:141] Setting up relu6
I0403 12:48:59.719743  9702 net.cpp:148] Top shape: 100 4096 (409600)
I0403 12:48:59.719758  9702 net.cpp:156] Memory required for data: 824972400
I0403 12:48:59.719772  9702 layer_factory.hpp:77] Creating layer drop6
I0403 12:48:59.719790  9702 net.cpp:91] Creating Layer drop6
I0403 12:48:59.719805  9702 net.cpp:425] drop6 <- fc6
I0403 12:48:59.719822  9702 net.cpp:386] drop6 -> fc6 (in-place)
I0403 12:48:59.719874  9702 net.cpp:141] Setting up drop6
I0403 12:48:59.719912  9702 net.cpp:148] Top shape: 100 4096 (409600)
I0403 12:48:59.719926  9702 net.cpp:156] Memory required for data: 826610800
I0403 12:48:59.719940  9702 layer_factory.hpp:77] Creating layer fc7
I0403 12:48:59.719961  9702 net.cpp:91] Creating Layer fc7
I0403 12:48:59.719977  9702 net.cpp:425] fc7 <- fc6
I0403 12:48:59.719996  9702 net.cpp:399] fc7 -> fc7
I0403 12:49:00.384328  9702 net.cpp:141] Setting up fc7
I0403 12:49:00.384404  9702 net.cpp:148] Top shape: 100 4096 (409600)
I0403 12:49:00.384420  9702 net.cpp:156] Memory required for data: 828249200
I0403 12:49:00.384440  9702 layer_factory.hpp:77] Creating layer relu7
I0403 12:49:00.384462  9702 net.cpp:91] Creating Layer relu7
I0403 12:49:00.384479  9702 net.cpp:425] relu7 <- fc7
I0403 12:49:00.384498  9702 net.cpp:386] relu7 -> fc7 (in-place)
I0403 12:49:00.384883  9702 net.cpp:141] Setting up relu7
I0403 12:49:00.384918  9702 net.cpp:148] Top shape: 100 4096 (409600)
I0403 12:49:00.384969  9702 net.cpp:156] Memory required for data: 829887600
I0403 12:49:00.384984  9702 layer_factory.hpp:77] Creating layer drop7
I0403 12:49:00.385002  9702 net.cpp:91] Creating Layer drop7
I0403 12:49:00.385016  9702 net.cpp:425] drop7 <- fc7
I0403 12:49:00.385035  9702 net.cpp:386] drop7 -> fc7 (in-place)
I0403 12:49:00.385076  9702 net.cpp:141] Setting up drop7
I0403 12:49:00.385099  9702 net.cpp:148] Top shape: 100 4096 (409600)
I0403 12:49:00.385113  9702 net.cpp:156] Memory required for data: 831526000
I0403 12:49:00.385126  9702 layer_factory.hpp:77] Creating layer fc8_plantvillage
I0403 12:49:00.385145  9702 net.cpp:91] Creating Layer fc8_plantvillage
I0403 12:49:00.385160  9702 net.cpp:425] fc8_plantvillage <- fc7
I0403 12:49:00.385179  9702 net.cpp:399] fc8_plantvillage -> fc8_plantvillage
I0403 12:49:00.391676  9702 net.cpp:141] Setting up fc8_plantvillage
I0403 12:49:00.391703  9702 net.cpp:148] Top shape: 100 38 (3800)
I0403 12:49:00.391718  9702 net.cpp:156] Memory required for data: 831541200
I0403 12:49:00.391736  9702 layer_factory.hpp:77] Creating layer fc8_plantvillage_fc8_plantvillage_0_split
I0403 12:49:00.391753  9702 net.cpp:91] Creating Layer fc8_plantvillage_fc8_plantvillage_0_split
I0403 12:49:00.391767  9702 net.cpp:425] fc8_plantvillage_fc8_plantvillage_0_split <- fc8_plantvillage
I0403 12:49:00.391788  9702 net.cpp:399] fc8_plantvillage_fc8_plantvillage_0_split -> fc8_plantvillage_fc8_plantvillage_0_split_0
I0403 12:49:00.391806  9702 net.cpp:399] fc8_plantvillage_fc8_plantvillage_0_split -> fc8_plantvillage_fc8_plantvillage_0_split_1
I0403 12:49:00.391824  9702 net.cpp:399] fc8_plantvillage_fc8_plantvillage_0_split -> fc8_plantvillage_fc8_plantvillage_0_split_2
I0403 12:49:00.391898  9702 net.cpp:141] Setting up fc8_plantvillage_fc8_plantvillage_0_split
I0403 12:49:00.391922  9702 net.cpp:148] Top shape: 100 38 (3800)
I0403 12:49:00.391938  9702 net.cpp:148] Top shape: 100 38 (3800)
I0403 12:49:00.391952  9702 net.cpp:148] Top shape: 100 38 (3800)
I0403 12:49:00.391965  9702 net.cpp:156] Memory required for data: 831586800
I0403 12:49:00.391978  9702 layer_factory.hpp:77] Creating layer prob
I0403 12:49:00.391996  9702 net.cpp:91] Creating Layer prob
I0403 12:49:00.392010  9702 net.cpp:425] prob <- fc8_plantvillage_fc8_plantvillage_0_split_0
I0403 12:49:00.392026  9702 net.cpp:399] prob -> prob
I0403 12:49:00.392244  9702 net.cpp:141] Setting up prob
I0403 12:49:00.392268  9702 net.cpp:148] Top shape: 100 38 (3800)
I0403 12:49:00.392282  9702 net.cpp:156] Memory required for data: 831602000
I0403 12:49:00.392297  9702 layer_factory.hpp:77] Creating layer hdf5out
I0403 12:49:00.392315  9702 net.cpp:91] Creating Layer hdf5out
I0403 12:49:00.392330  9702 net.cpp:425] hdf5out <- prob
I0403 12:49:00.392345  9702 net.cpp:425] hdf5out <- label_data_1_split_0
I0403 12:49:00.394836  9702 net.cpp:141] Setting up hdf5out
…
