…
I0403 13:06:39.626934 10206 net.cpp:313] The NetState phase (1) differed from the phase (0) specified by a rule in layer data
I0403 13:06:39.627220 10206 net.cpp:49] Initializing net from parameters: 
state {
  phase: TEST
}
layer {
  name: "data"
  type: "Data"
  top: "data"
  top: "label"
  include {
    phase: TEST
  }
  transform_param {
    crop_size: 227
    mean_file: "/home/mohanty/data/final_dataset/lmdb/segmented-50-50/mean.binaryproto"
  }
  data_param {
    source: "/home/mohanty/data/final_dataset/lmdb/segmented-50-50/test_db"
    batch_size: 100
    backend: LMDB
  }
}
layer {
  name: "conv1"
  type: "Convolution"
  bottom: "data"
  top: "conv1"
  param {
    lr_mult: 1
    decay_mult: 1
  }
  param {
    lr_mult: 2
    decay_mult: 0
  }
  convolution_param {
    num_output: 96
    kernel_size: 11
    stride: 4
    weight_filler {
      type: "gaussian"
      std: 0.01
    }
    bias_filler {
      type: "constant"
      value: 0
    }
  }
}
layer {
  name: "relu1"
  type: "ReLU"
  bottom: "conv1"
  top: "conv1"
}
layer {
  name: "norm1"
  type: "LRN"
  bottom: "conv1"
  top: "norm1"
  lrn_param {
    local_size: 5
    alpha: 0.0001
    beta: 0.75
  }
}
layer {
  name: "pool1"
  type: "Pooling"
  bottom: "norm1"
  top: "pool1"
  pooling_param {
    pool: MAX
    kernel_size: 3
    stride: 2
  }
}
layer {
  name: "conv2"
  type: "Convolution"
  bottom: "pool1"
  top: "conv2"
  param {
    lr_mult: 1
    decay_mult: 1
  }
  param {
    lr_mult: 2
    decay_mult: 0
  }
  convolution_param {
    num_output: 256
    pad: 2
    kernel_size: 5
    group: 2
    weight_filler {
      type: "gaussian"
      std: 0.01
    }
    bias_filler {
      type: "constant"
      value: 0.1
    }
  }
}
layer {
  name: "relu2"
  type: "ReLU"
  bottom: "conv2"
  top: "conv2"
}
layer {
  name: "norm2"
  type: "LRN"
  bottom: "conv2"
  top: "norm2"
  lrn_param {
    local_size: 5
    alpha: 0.0001
    beta: 0.75
  }
}
layer {
  name: "pool2"
  type: "Pooling"
  bottom: "norm2"
  top: "pool2"
  pooling_param {
    pool: MAX
    kernel_size: 3
    stride: 2
  }
}
layer {
  name: "conv3"
  type: "Convolution"
  bottom: "pool2"
  top: "conv3"
  param {
    lr_mult: 1
    decay_mult: 1
  }
  param {
    lr_mult: 2
    decay_mult: 0
  }
  convolution_param {
    num_output: 384
    pad: 1
    kernel_size: 3
    weight_filler {
      type: "gaussian"
      std: 0.01
    }
    bias_filler {
      type: "constant"
      value: 0
    }
  }
}
layer {
  name: "relu3"
  type: "ReLU"
  bottom: "conv3"
  top: "conv3"
}
layer {
  name: "conv4"
  type: "Convolution"
  bottom: "conv3"
  top: "conv4"
  param {
    lr_mult: 1
    decay_mult: 1
  }
  param {
    lr_mult: 2
    decay_mult: 0
  }
  convolution_param {
    num_output: 384
    pad: 1
    kernel_size: 3
    group: 2
    weight_filler {
      type: "gaussian"
      std: 0.01
    }
    bias_filler {
      type: "constant"
      value: 0.1
    }
  }
}
layer {
  name: "relu4"
  type: "ReLU"
  bottom: "conv4"
  top: "conv4"
}
layer {
  name: "conv5"
  type: "Convolution"
  bottom: "conv4"
  top: "conv5"
  param {
    lr_mult: 1
    decay_mult: 1
  }
  param {
    lr_mult: 2
    decay_mult: 0
  }
  convolution_param {
    num_output: 256
    pad: 1
    kernel_size: 3
    group: 2
    weight_filler {
      type: "gaussian"
      std: 0.01
    }
    bias_filler {
      type: "constant"
      value: 0.1
    }
  }
}
layer {
  name: "relu5"
  type: "ReLU"
  bottom: "conv5"
  top: "conv5"
}
layer {
  name: "pool5"
  type: "Pooling"
  bottom: "conv5"
  top: "pool5"
  pooling_param {
    pool: MAX
    kernel_size: 3
    stride: 2
  }
}
layer {
  name: "fc6"
  type: "InnerProduct"
  bottom: "pool5"
  top: "fc6"
  param {
    lr_mult: 1
    decay_mult: 1
  }
  param {
    lr_mult: 2
    decay_mult: 0
  }
  inner_product_param {
    num_output: 4096
    weight_filler {
      type: "gaussian"
      std: 0.005
    }
    bias_filler {
      type: "constant"
      value: 0.1
    }
  }
}
layer {
  name: "relu6"
  type: "ReLU"
  bottom: "fc6"
  top: "fc6"
}
layer {
  name: "drop6"
  type: "Dropout"
  bottom: "fc6"
  top: "fc6"
  dropout_param {
    dropout_ratio: 0.5
  }
}
layer {
  name: "fc7"
  type: "InnerProduct"
  bottom: "fc6"
  top: "fc7"
  param {
    lr_mult: 1
    decay_mult: 1
  }
  param {
    lr_mult: 2
    decay_mult: 0
  }
  inner_product_param {
    num_output: 4096
    weight_filler {
      type: "gaussian"
      std: 0.005
    }
    bias_filler {
      type: "constant"
      value: 0.1
    }
  }
}
layer {
  name: "relu7"
  type: "ReLU"
  bottom: "fc7"
  top: "fc7"
}
layer {
  name: "drop7"
  type: "Dropout"
  bottom: "fc7"
  top: "fc7"
  dropout_param {
    dropout_ratio: 0.5
  }
}
layer {
  name: "fc8_plantvillage"
  type: "InnerProduct"
  bottom: "fc7"
  top: "fc8_plantvillage"
  param {
    lr_mult: 1
    decay_mult: 1
  }
  param {
    lr_mult: 2
    decay_mult: 0
  }
  inner_product_param {
    num_output: 38
    weight_filler {
      type: "gaussian"
      std: 0.01
    }
    bias_filler {
      type: "constant"
      value: 0
    }
  }
}
layer {
  name: "prob"
  type: "Softmax"
  bottom: "fc8_plantvillage"
  top: "prob"
  include {
    phase: TEST
  }
}
layer {
  name: "hdf5out"
  type: "HDF5Output"
  bottom: "prob"
  bottom: "label"
  include {
    phase: TEST
  }
  hdf5_output_param {
    file_name: "hdf5_dumps/iter_7772.h5"
  }
}
layer {
  name: "loss"
  type: "SoftmaxWithLoss"
  bottom: "fc8_plantvillage"
  bottom: "label"
  top: "loss"
}
layer {
  name: "accuracy"
  type: "Accuracy"
  bottom: "fc8_plantvillage"
  bottom: "label"
  top: "accuracy"
  include {
    phase: TEST
  }
}
I0403 13:06:39.627835 10206 layer_factory.hpp:77] Creating layer data
I0403 13:06:39.628479 10206 net.cpp:91] Creating Layer data
I0403 13:06:39.628509 10206 net.cpp:399] data -> data
I0403 13:06:39.628558 10206 net.cpp:399] data -> label
I0403 13:06:39.628602 10206 data_transformer.cpp:25] Loading mean file from: /home/mohanty/data/final_dataset/lmdb/segmented-50-50/mean.binaryproto
I0403 13:06:39.631394 10209 db_lmdb.cpp:38] Opened lmdb /home/mohanty/data/final_dataset/lmdb/segmented-50-50/test_db
I0403 13:06:39.642907 10206 data_layer.cpp:41] output data size: 100,3,227,227
I0403 13:06:39.759717 10206 net.cpp:141] Setting up data
I0403 13:06:39.759810 10206 net.cpp:148] Top shape: 100 3 227 227 (15458700)
I0403 13:06:39.759835 10206 net.cpp:148] Top shape: 100 (100)
I0403 13:06:39.759850 10206 net.cpp:156] Memory required for data: 61835200
I0403 13:06:39.759877 10206 layer_factory.hpp:77] Creating layer label_data_1_split
I0403 13:06:39.759903 10206 net.cpp:91] Creating Layer label_data_1_split
I0403 13:06:39.759922 10206 net.cpp:425] label_data_1_split <- label
I0403 13:06:39.759955 10206 net.cpp:399] label_data_1_split -> label_data_1_split_0
I0403 13:06:39.759984 10206 net.cpp:399] label_data_1_split -> label_data_1_split_1
I0403 13:06:39.760006 10206 net.cpp:399] label_data_1_split -> label_data_1_split_2
I0403 13:06:39.760069 10206 net.cpp:141] Setting up label_data_1_split
I0403 13:06:39.760093 10206 net.cpp:148] Top shape: 100 (100)
I0403 13:06:39.760110 10206 net.cpp:148] Top shape: 100 (100)
I0403 13:06:39.760126 10206 net.cpp:148] Top shape: 100 (100)
I0403 13:06:39.760140 10206 net.cpp:156] Memory required for data: 61836400
I0403 13:06:39.760155 10206 layer_factory.hpp:77] Creating layer conv1
I0403 13:06:39.760187 10206 net.cpp:91] Creating Layer conv1
I0403 13:06:39.760207 10206 net.cpp:425] conv1 <- data
I0403 13:06:39.760226 10206 net.cpp:399] conv1 -> conv1
I0403 13:06:39.900595 10206 net.cpp:141] Setting up conv1
I0403 13:06:39.900672 10206 net.cpp:148] Top shape: 100 96 55 55 (29040000)
I0403 13:06:39.900689 10206 net.cpp:156] Memory required for data: 177996400
I0403 13:06:39.900722 10206 layer_factory.hpp:77] Creating layer relu1
I0403 13:06:39.900749 10206 net.cpp:91] Creating Layer relu1
I0403 13:06:39.900766 10206 net.cpp:425] relu1 <- conv1
I0403 13:06:39.900784 10206 net.cpp:386] relu1 -> conv1 (in-place)
I0403 13:06:39.901039 10206 net.cpp:141] Setting up relu1
I0403 13:06:39.901067 10206 net.cpp:148] Top shape: 100 96 55 55 (29040000)
I0403 13:06:39.901121 10206 net.cpp:156] Memory required for data: 294156400
I0403 13:06:39.901139 10206 layer_factory.hpp:77] Creating layer norm1
I0403 13:06:39.901165 10206 net.cpp:91] Creating Layer norm1
I0403 13:06:39.901183 10206 net.cpp:425] norm1 <- conv1
I0403 13:06:39.901201 10206 net.cpp:399] norm1 -> norm1
I0403 13:06:39.901527 10206 net.cpp:141] Setting up norm1
I0403 13:06:39.901571 10206 net.cpp:148] Top shape: 100 96 55 55 (29040000)
I0403 13:06:39.901589 10206 net.cpp:156] Memory required for data: 410316400
I0403 13:06:39.901605 10206 layer_factory.hpp:77] Creating layer pool1
I0403 13:06:39.901628 10206 net.cpp:91] Creating Layer pool1
I0403 13:06:39.901645 10206 net.cpp:425] pool1 <- norm1
I0403 13:06:39.901662 10206 net.cpp:399] pool1 -> pool1
I0403 13:06:39.901729 10206 net.cpp:141] Setting up pool1
I0403 13:06:39.901753 10206 net.cpp:148] Top shape: 100 96 27 27 (6998400)
I0403 13:06:39.901768 10206 net.cpp:156] Memory required for data: 438310000
I0403 13:06:39.901783 10206 layer_factory.hpp:77] Creating layer conv2
I0403 13:06:39.901808 10206 net.cpp:91] Creating Layer conv2
I0403 13:06:39.901823 10206 net.cpp:425] conv2 <- pool1
I0403 13:06:39.901841 10206 net.cpp:399] conv2 -> conv2
I0403 13:06:39.916992 10206 net.cpp:141] Setting up conv2
I0403 13:06:39.917043 10206 net.cpp:148] Top shape: 100 256 27 27 (18662400)
I0403 13:06:39.917060 10206 net.cpp:156] Memory required for data: 512959600
I0403 13:06:39.917083 10206 layer_factory.hpp:77] Creating layer relu2
I0403 13:06:39.917105 10206 net.cpp:91] Creating Layer relu2
I0403 13:06:39.917124 10206 net.cpp:425] relu2 <- conv2
I0403 13:06:39.917140 10206 net.cpp:386] relu2 -> conv2 (in-place)
I0403 13:06:39.917423 10206 net.cpp:141] Setting up relu2
I0403 13:06:39.917451 10206 net.cpp:148] Top shape: 100 256 27 27 (18662400)
I0403 13:06:39.917466 10206 net.cpp:156] Memory required for data: 587609200
I0403 13:06:39.917481 10206 layer_factory.hpp:77] Creating layer norm2
I0403 13:06:39.917505 10206 net.cpp:91] Creating Layer norm2
I0403 13:06:39.917522 10206 net.cpp:425] norm2 <- conv2
I0403 13:06:39.917539 10206 net.cpp:399] norm2 -> norm2
I0403 13:06:39.917743 10206 net.cpp:141] Setting up norm2
I0403 13:06:39.917770 10206 net.cpp:148] Top shape: 100 256 27 27 (18662400)
I0403 13:06:39.917785 10206 net.cpp:156] Memory required for data: 662258800
I0403 13:06:39.917800 10206 layer_factory.hpp:77] Creating layer pool2
I0403 13:06:39.917819 10206 net.cpp:91] Creating Layer pool2
I0403 13:06:39.917834 10206 net.cpp:425] pool2 <- norm2
I0403 13:06:39.917853 10206 net.cpp:399] pool2 -> pool2
I0403 13:06:39.917906 10206 net.cpp:141] Setting up pool2
I0403 13:06:39.917932 10206 net.cpp:148] Top shape: 100 256 13 13 (4326400)
I0403 13:06:39.917946 10206 net.cpp:156] Memory required for data: 679564400
I0403 13:06:39.917961 10206 layer_factory.hpp:77] Creating layer conv3
I0403 13:06:39.917984 10206 net.cpp:91] Creating Layer conv3
I0403 13:06:39.918002 10206 net.cpp:425] conv3 <- pool2
I0403 13:06:39.918020 10206 net.cpp:399] conv3 -> conv3
I0403 13:06:39.956903 10206 net.cpp:141] Setting up conv3
I0403 13:06:39.956979 10206 net.cpp:148] Top shape: 100 384 13 13 (6489600)
I0403 13:06:39.956996 10206 net.cpp:156] Memory required for data: 705522800
I0403 13:06:39.957022 10206 layer_factory.hpp:77] Creating layer relu3
I0403 13:06:39.957046 10206 net.cpp:91] Creating Layer relu3
I0403 13:06:39.957063 10206 net.cpp:425] relu3 <- conv3
I0403 13:06:39.957087 10206 net.cpp:386] relu3 -> conv3 (in-place)
I0403 13:06:39.957427 10206 net.cpp:141] Setting up relu3
I0403 13:06:39.957454 10206 net.cpp:148] Top shape: 100 384 13 13 (6489600)
I0403 13:06:39.957470 10206 net.cpp:156] Memory required for data: 731481200
I0403 13:06:39.957485 10206 layer_factory.hpp:77] Creating layer conv4
I0403 13:06:39.957512 10206 net.cpp:91] Creating Layer conv4
I0403 13:06:39.957530 10206 net.cpp:425] conv4 <- conv3
I0403 13:06:39.957551 10206 net.cpp:399] conv4 -> conv4
I0403 13:06:39.988039 10206 net.cpp:141] Setting up conv4
I0403 13:06:39.988111 10206 net.cpp:148] Top shape: 100 384 13 13 (6489600)
I0403 13:06:39.988168 10206 net.cpp:156] Memory required for data: 757439600
I0403 13:06:39.988190 10206 layer_factory.hpp:77] Creating layer relu4
I0403 13:06:39.988212 10206 net.cpp:91] Creating Layer relu4
I0403 13:06:39.988229 10206 net.cpp:425] relu4 <- conv4
I0403 13:06:39.988251 10206 net.cpp:386] relu4 -> conv4 (in-place)
I0403 13:06:39.988538 10206 net.cpp:141] Setting up relu4
I0403 13:06:39.988565 10206 net.cpp:148] Top shape: 100 384 13 13 (6489600)
I0403 13:06:39.988586 10206 net.cpp:156] Memory required for data: 783398000
I0403 13:06:39.988601 10206 layer_factory.hpp:77] Creating layer conv5
I0403 13:06:39.988631 10206 net.cpp:91] Creating Layer conv5
I0403 13:06:39.988649 10206 net.cpp:425] conv5 <- conv4
I0403 13:06:39.988695 10206 net.cpp:399] conv5 -> conv5
I0403 13:06:40.009539 10206 net.cpp:141] Setting up conv5
I0403 13:06:40.009583 10206 net.cpp:148] Top shape: 100 256 13 13 (4326400)
I0403 13:06:40.009601 10206 net.cpp:156] Memory required for data: 800703600
I0403 13:06:40.009625 10206 layer_factory.hpp:77] Creating layer relu5
I0403 13:06:40.009646 10206 net.cpp:91] Creating Layer relu5
I0403 13:06:40.009667 10206 net.cpp:425] relu5 <- conv5
I0403 13:06:40.009685 10206 net.cpp:386] relu5 -> conv5 (in-place)
I0403 13:06:40.009964 10206 net.cpp:141] Setting up relu5
I0403 13:06:40.009991 10206 net.cpp:148] Top shape: 100 256 13 13 (4326400)
I0403 13:06:40.010006 10206 net.cpp:156] Memory required for data: 818009200
I0403 13:06:40.010021 10206 layer_factory.hpp:77] Creating layer pool5
I0403 13:06:40.010046 10206 net.cpp:91] Creating Layer pool5
I0403 13:06:40.010061 10206 net.cpp:425] pool5 <- conv5
I0403 13:06:40.010078 10206 net.cpp:399] pool5 -> pool5
I0403 13:06:40.010139 10206 net.cpp:141] Setting up pool5
I0403 13:06:40.010162 10206 net.cpp:148] Top shape: 100 256 6 6 (921600)
I0403 13:06:40.010188 10206 net.cpp:156] Memory required for data: 821695600
I0403 13:06:40.010247 10206 layer_factory.hpp:77] Creating layer fc6
I0403 13:06:40.010290 10206 net.cpp:91] Creating Layer fc6
I0403 13:06:40.010308 10206 net.cpp:425] fc6 <- pool5
I0403 13:06:40.010329 10206 net.cpp:399] fc6 -> fc6
I0403 13:06:41.565637 10206 net.cpp:141] Setting up fc6
I0403 13:06:41.565716 10206 net.cpp:148] Top shape: 100 4096 (409600)
I0403 13:06:41.565732 10206 net.cpp:156] Memory required for data: 823334000
I0403 13:06:41.565752 10206 layer_factory.hpp:77] Creating layer relu6
I0403 13:06:41.565775 10206 net.cpp:91] Creating Layer relu6
I0403 13:06:41.565793 10206 net.cpp:425] relu6 <- fc6
I0403 13:06:41.565812 10206 net.cpp:386] relu6 -> fc6 (in-place)
I0403 13:06:41.566052 10206 net.cpp:141] Setting up relu6
I0403 13:06:41.566077 10206 net.cpp:148] Top shape: 100 4096 (409600)
I0403 13:06:41.566092 10206 net.cpp:156] Memory required for data: 824972400
I0403 13:06:41.566107 10206 layer_factory.hpp:77] Creating layer drop6
I0403 13:06:41.566124 10206 net.cpp:91] Creating Layer drop6
I0403 13:06:41.566139 10206 net.cpp:425] drop6 <- fc6
I0403 13:06:41.566159 10206 net.cpp:386] drop6 -> fc6 (in-place)
I0403 13:06:41.566210 10206 net.cpp:141] Setting up drop6
I0403 13:06:41.566236 10206 net.cpp:148] Top shape: 100 4096 (409600)
I0403 13:06:41.566251 10206 net.cpp:156] Memory required for data: 826610800
I0403 13:06:41.566265 10206 layer_factory.hpp:77] Creating layer fc7
I0403 13:06:41.566284 10206 net.cpp:91] Creating Layer fc7
I0403 13:06:41.566311 10206 net.cpp:425] fc7 <- fc6
I0403 13:06:41.566331 10206 net.cpp:399] fc7 -> fc7
I0403 13:06:42.250777 10206 net.cpp:141] Setting up fc7
I0403 13:06:42.250854 10206 net.cpp:148] Top shape: 100 4096 (409600)
I0403 13:06:42.250870 10206 net.cpp:156] Memory required for data: 828249200
I0403 13:06:42.250890 10206 layer_factory.hpp:77] Creating layer relu7
I0403 13:06:42.250912 10206 net.cpp:91] Creating Layer relu7
I0403 13:06:42.250929 10206 net.cpp:425] relu7 <- fc7
I0403 13:06:42.250951 10206 net.cpp:386] relu7 -> fc7 (in-place)
I0403 13:06:42.251354 10206 net.cpp:141] Setting up relu7
I0403 13:06:42.251380 10206 net.cpp:148] Top shape: 100 4096 (409600)
I0403 13:06:42.251435 10206 net.cpp:156] Memory required for data: 829887600
I0403 13:06:42.251451 10206 layer_factory.hpp:77] Creating layer drop7
I0403 13:06:42.251468 10206 net.cpp:91] Creating Layer drop7
I0403 13:06:42.251483 10206 net.cpp:425] drop7 <- fc7
I0403 13:06:42.251502 10206 net.cpp:386] drop7 -> fc7 (in-place)
I0403 13:06:42.251545 10206 net.cpp:141] Setting up drop7
I0403 13:06:42.251574 10206 net.cpp:148] Top shape: 100 4096 (409600)
I0403 13:06:42.251590 10206 net.cpp:156] Memory required for data: 831526000
I0403 13:06:42.251605 10206 layer_factory.hpp:77] Creating layer fc8_plantvillage
I0403 13:06:42.251624 10206 net.cpp:91] Creating Layer fc8_plantvillage
I0403 13:06:42.251639 10206 net.cpp:425] fc8_plantvillage <- fc7
I0403 13:06:42.251658 10206 net.cpp:399] fc8_plantvillage -> fc8_plantvillage
I0403 13:06:42.258364 10206 net.cpp:141] Setting up fc8_plantvillage
I0403 13:06:42.258393 10206 net.cpp:148] Top shape: 100 38 (3800)
I0403 13:06:42.258409 10206 net.cpp:156] Memory required for data: 831541200
I0403 13:06:42.258429 10206 layer_factory.hpp:77] Creating layer fc8_plantvillage_fc8_plantvillage_0_split
I0403 13:06:42.258450 10206 net.cpp:91] Creating Layer fc8_plantvillage_fc8_plantvillage_0_split
I0403 13:06:42.258467 10206 net.cpp:425] fc8_plantvillage_fc8_plantvillage_0_split <- fc8_plantvillage
I0403 13:06:42.258486 10206 net.cpp:399] fc8_plantvillage_fc8_plantvillage_0_split -> fc8_plantvillage_fc8_plantvillage_0_split_0
I0403 13:06:42.258505 10206 net.cpp:399] fc8_plantvillage_fc8_plantvillage_0_split -> fc8_plantvillage_fc8_plantvillage_0_split_1
I0403 13:06:42.258525 10206 net.cpp:399] fc8_plantvillage_fc8_plantvillage_0_split -> fc8_plantvillage_fc8_plantvillage_0_split_2
I0403 13:06:42.258610 10206 net.cpp:141] Setting up fc8_plantvillage_fc8_plantvillage_0_split
I0403 13:06:42.258633 10206 net.cpp:148] Top shape: 100 38 (3800)
I0403 13:06:42.258648 10206 net.cpp:148] Top shape: 100 38 (3800)
I0403 13:06:42.258663 10206 net.cpp:148] Top shape: 100 38 (3800)
I0403 13:06:42.258677 10206 net.cpp:156] Memory required for data: 831586800
I0403 13:06:42.258692 10206 layer_factory.hpp:77] Creating layer prob
I0403 13:06:42.258708 10206 net.cpp:91] Creating Layer prob
I0403 13:06:42.258723 10206 net.cpp:425] prob <- fc8_plantvillage_fc8_plantvillage_0_split_0
I0403 13:06:42.258740 10206 net.cpp:399] prob -> prob
I0403 13:06:42.258967 10206 net.cpp:141] Setting up prob
I0403 13:06:42.258992 10206 net.cpp:148] Top shape: 100 38 (3800)
I0403 13:06:42.259007 10206 net.cpp:156] Memory required for data: 831602000
I0403 13:06:42.259021 10206 layer_factory.hpp:77] Creating layer hdf5out
I0403 13:06:42.259040 10206 net.cpp:91] Creating Layer hdf5out
I0403 13:06:42.259055 10206 net.cpp:425] hdf5out <- prob
I0403 13:06:42.259071 10206 net.cpp:425] hdf5out <- label_data_1_split_0
I0403 13:06:42.261459 10206 net.cpp:141] Setting up hdf5out
…
