…
I0403 12:43:55.287911  9465 net.cpp:313] The NetState phase (1) differed from the phase (0) specified by a rule in layer data
I0403 12:43:55.288239  9465 net.cpp:49] Initializing net from parameters: 
state {
  phase: TEST
}
layer {
  name: "data"
  type: "Data"
  top: "data"
  top: "label"
  include {
    phase: TEST
  }
  transform_param {
    crop_size: 227
    mean_file: "/home/mohanty/data/final_dataset/lmdb/segmented-50-50/mean.binaryproto"
  }
  data_param {
    source: "/home/mohanty/data/final_dataset/lmdb/segmented-50-50/test_db"
    batch_size: 100
    backend: LMDB
  }
}
layer {
  name: "conv1"
  type: "Convolution"
  bottom: "data"
  top: "conv1"
  param {
    lr_mult: 1
    decay_mult: 1
  }
  param {
    lr_mult: 2
    decay_mult: 0
  }
  convolution_param {
    num_output: 96
    kernel_size: 11
    stride: 4
    weight_filler {
      type: "gaussian"
      std: 0.01
    }
    bias_filler {
      type: "constant"
      value: 0
    }
  }
}
layer {
  name: "relu1"
  type: "ReLU"
  bottom: "conv1"
  top: "conv1"
}
layer {
  name: "norm1"
  type: "LRN"
  bottom: "conv1"
  top: "norm1"
  lrn_param {
    local_size: 5
    alpha: 0.0001
    beta: 0.75
  }
}
layer {
  name: "pool1"
  type: "Pooling"
  bottom: "norm1"
  top: "pool1"
  pooling_param {
    pool: MAX
    kernel_size: 3
    stride: 2
  }
}
layer {
  name: "conv2"
  type: "Convolution"
  bottom: "pool1"
  top: "conv2"
  param {
    lr_mult: 1
    decay_mult: 1
  }
  param {
    lr_mult: 2
    decay_mult: 0
  }
  convolution_param {
    num_output: 256
    pad: 2
    kernel_size: 5
    group: 2
    weight_filler {
      type: "gaussian"
      std: 0.01
    }
    bias_filler {
      type: "constant"
      value: 0.1
    }
  }
}
layer {
  name: "relu2"
  type: "ReLU"
  bottom: "conv2"
  top: "conv2"
}
layer {
  name: "norm2"
  type: "LRN"
  bottom: "conv2"
  top: "norm2"
  lrn_param {
    local_size: 5
    alpha: 0.0001
    beta: 0.75
  }
}
layer {
  name: "pool2"
  type: "Pooling"
  bottom: "norm2"
  top: "pool2"
  pooling_param {
    pool: MAX
    kernel_size: 3
    stride: 2
  }
}
layer {
  name: "conv3"
  type: "Convolution"
  bottom: "pool2"
  top: "conv3"
  param {
    lr_mult: 1
    decay_mult: 1
  }
  param {
    lr_mult: 2
    decay_mult: 0
  }
  convolution_param {
    num_output: 384
    pad: 1
    kernel_size: 3
    weight_filler {
      type: "gaussian"
      std: 0.01
    }
    bias_filler {
      type: "constant"
      value: 0
    }
  }
}
layer {
  name: "relu3"
  type: "ReLU"
  bottom: "conv3"
  top: "conv3"
}
layer {
  name: "conv4"
  type: "Convolution"
  bottom: "conv3"
  top: "conv4"
  param {
    lr_mult: 1
    decay_mult: 1
  }
  param {
    lr_mult: 2
    decay_mult: 0
  }
  convolution_param {
    num_output: 384
    pad: 1
    kernel_size: 3
    group: 2
    weight_filler {
      type: "gaussian"
      std: 0.01
    }
    bias_filler {
      type: "constant"
      value: 0.1
    }
  }
}
layer {
  name: "relu4"
  type: "ReLU"
  bottom: "conv4"
  top: "conv4"
}
layer {
  name: "conv5"
  type: "Convolution"
  bottom: "conv4"
  top: "conv5"
  param {
    lr_mult: 1
    decay_mult: 1
  }
  param {
    lr_mult: 2
    decay_mult: 0
  }
  convolution_param {
    num_output: 256
    pad: 1
    kernel_size: 3
    group: 2
    weight_filler {
      type: "gaussian"
      std: 0.01
    }
    bias_filler {
      type: "constant"
      value: 0.1
    }
  }
}
layer {
  name: "relu5"
  type: "ReLU"
  bottom: "conv5"
  top: "conv5"
}
layer {
  name: "pool5"
  type: "Pooling"
  bottom: "conv5"
  top: "pool5"
  pooling_param {
    pool: MAX
    kernel_size: 3
    stride: 2
  }
}
layer {
  name: "fc6"
  type: "InnerProduct"
  bottom: "pool5"
  top: "fc6"
  param {
    lr_mult: 1
    decay_mult: 1
  }
  param {
    lr_mult: 2
    decay_mult: 0
  }
  inner_product_param {
    num_output: 4096
    weight_filler {
      type: "gaussian"
      std: 0.005
    }
    bias_filler {
      type: "constant"
      value: 0.1
    }
  }
}
layer {
  name: "relu6"
  type: "ReLU"
  bottom: "fc6"
  top: "fc6"
}
layer {
  name: "drop6"
  type: "Dropout"
  bottom: "fc6"
  top: "fc6"
  dropout_param {
    dropout_ratio: 0.5
  }
}
layer {
  name: "fc7"
  type: "InnerProduct"
  bottom: "fc6"
  top: "fc7"
  param {
    lr_mult: 1
    decay_mult: 1
  }
  param {
    lr_mult: 2
    decay_mult: 0
  }
  inner_product_param {
    num_output: 4096
    weight_filler {
      type: "gaussian"
      std: 0.005
    }
    bias_filler {
      type: "constant"
      value: 0.1
    }
  }
}
layer {
  name: "relu7"
  type: "ReLU"
  bottom: "fc7"
  top: "fc7"
}
layer {
  name: "drop7"
  type: "Dropout"
  bottom: "fc7"
  top: "fc7"
  dropout_param {
    dropout_ratio: 0.5
  }
}
layer {
  name: "fc8_plantvillage"
  type: "InnerProduct"
  bottom: "fc7"
  top: "fc8_plantvillage"
  param {
    lr_mult: 1
    decay_mult: 1
  }
  param {
    lr_mult: 2
    decay_mult: 0
  }
  inner_product_param {
    num_output: 38
    weight_filler {
      type: "gaussian"
      std: 0.01
    }
    bias_filler {
      type: "constant"
      value: 0
    }
  }
}
layer {
  name: "prob"
  type: "Softmax"
  bottom: "fc8_plantvillage"
  top: "prob"
  include {
    phase: TEST
  }
}
layer {
  name: "hdf5out"
  type: "HDF5Output"
  bottom: "prob"
  bottom: "label"
  include {
    phase: TEST
  }
  hdf5_output_param {
    file_name: "hdf5_dumps/iter_536.h5"
  }
}
layer {
  name: "loss"
  type: "SoftmaxWithLoss"
  bottom: "fc8_plantvillage"
  bottom: "label"
  top: "loss"
}
layer {
  name: "accuracy"
  type: "Accuracy"
  bottom: "fc8_plantvillage"
  bottom: "label"
  top: "accuracy"
  include {
    phase: TEST
  }
}
I0403 12:43:55.288863  9465 layer_factory.hpp:77] Creating layer data
I0403 12:43:55.289528  9465 net.cpp:91] Creating Layer data
I0403 12:43:55.289562  9465 net.cpp:399] data -> data
I0403 12:43:55.289618  9465 net.cpp:399] data -> label
I0403 12:43:55.289657  9465 data_transformer.cpp:25] Loading mean file from: /home/mohanty/data/final_dataset/lmdb/segmented-50-50/mean.binaryproto
I0403 12:43:55.292470  9468 db_lmdb.cpp:38] Opened lmdb /home/mohanty/data/final_dataset/lmdb/segmented-50-50/test_db
I0403 12:43:55.303745  9465 data_layer.cpp:41] output data size: 100,3,227,227
I0403 12:43:55.420418  9465 net.cpp:141] Setting up data
I0403 12:43:55.420480  9465 net.cpp:148] Top shape: 100 3 227 227 (15458700)
I0403 12:43:55.420506  9465 net.cpp:148] Top shape: 100 (100)
I0403 12:43:55.420528  9465 net.cpp:156] Memory required for data: 61835200
I0403 12:43:55.420558  9465 layer_factory.hpp:77] Creating layer label_data_1_split
I0403 12:43:55.420584  9465 net.cpp:91] Creating Layer label_data_1_split
I0403 12:43:55.420619  9465 net.cpp:425] label_data_1_split <- label
I0403 12:43:55.420652  9465 net.cpp:399] label_data_1_split -> label_data_1_split_0
I0403 12:43:55.420681  9465 net.cpp:399] label_data_1_split -> label_data_1_split_1
I0403 12:43:55.420702  9465 net.cpp:399] label_data_1_split -> label_data_1_split_2
I0403 12:43:55.420766  9465 net.cpp:141] Setting up label_data_1_split
I0403 12:43:55.420789  9465 net.cpp:148] Top shape: 100 (100)
I0403 12:43:55.420807  9465 net.cpp:148] Top shape: 100 (100)
I0403 12:43:55.420824  9465 net.cpp:148] Top shape: 100 (100)
I0403 12:43:55.420838  9465 net.cpp:156] Memory required for data: 61836400
I0403 12:43:55.420853  9465 layer_factory.hpp:77] Creating layer conv1
I0403 12:43:55.420892  9465 net.cpp:91] Creating Layer conv1
I0403 12:43:55.420910  9465 net.cpp:425] conv1 <- data
I0403 12:43:55.420929  9465 net.cpp:399] conv1 -> conv1
I0403 12:43:55.559172  9465 net.cpp:141] Setting up conv1
I0403 12:43:55.559236  9465 net.cpp:148] Top shape: 100 96 55 55 (29040000)
I0403 12:43:55.559253  9465 net.cpp:156] Memory required for data: 177996400
I0403 12:43:55.559288  9465 layer_factory.hpp:77] Creating layer relu1
I0403 12:43:55.559316  9465 net.cpp:91] Creating Layer relu1
I0403 12:43:55.559363  9465 net.cpp:425] relu1 <- conv1
I0403 12:43:55.559384  9465 net.cpp:386] relu1 -> conv1 (in-place)
I0403 12:43:55.559661  9465 net.cpp:141] Setting up relu1
I0403 12:43:55.559690  9465 net.cpp:148] Top shape: 100 96 55 55 (29040000)
I0403 12:43:55.559739  9465 net.cpp:156] Memory required for data: 294156400
I0403 12:43:55.559757  9465 layer_factory.hpp:77] Creating layer norm1
I0403 12:43:55.559785  9465 net.cpp:91] Creating Layer norm1
I0403 12:43:55.559803  9465 net.cpp:425] norm1 <- conv1
I0403 12:43:55.559823  9465 net.cpp:399] norm1 -> norm1
I0403 12:43:55.560147  9465 net.cpp:141] Setting up norm1
I0403 12:43:55.560175  9465 net.cpp:148] Top shape: 100 96 55 55 (29040000)
I0403 12:43:55.560191  9465 net.cpp:156] Memory required for data: 410316400
I0403 12:43:55.560205  9465 layer_factory.hpp:77] Creating layer pool1
I0403 12:43:55.560230  9465 net.cpp:91] Creating Layer pool1
I0403 12:43:55.560248  9465 net.cpp:425] pool1 <- norm1
I0403 12:43:55.560266  9465 net.cpp:399] pool1 -> pool1
I0403 12:43:55.560335  9465 net.cpp:141] Setting up pool1
I0403 12:43:55.560359  9465 net.cpp:148] Top shape: 100 96 27 27 (6998400)
I0403 12:43:55.560375  9465 net.cpp:156] Memory required for data: 438310000
I0403 12:43:55.560390  9465 layer_factory.hpp:77] Creating layer conv2
I0403 12:43:55.560415  9465 net.cpp:91] Creating Layer conv2
I0403 12:43:55.560432  9465 net.cpp:425] conv2 <- pool1
I0403 12:43:55.560451  9465 net.cpp:399] conv2 -> conv2
I0403 12:43:55.576122  9465 net.cpp:141] Setting up conv2
I0403 12:43:55.576177  9465 net.cpp:148] Top shape: 100 256 27 27 (18662400)
I0403 12:43:55.576195  9465 net.cpp:156] Memory required for data: 512959600
I0403 12:43:55.576220  9465 layer_factory.hpp:77] Creating layer relu2
I0403 12:43:55.576241  9465 net.cpp:91] Creating Layer relu2
I0403 12:43:55.576257  9465 net.cpp:425] relu2 <- conv2
I0403 12:43:55.576278  9465 net.cpp:386] relu2 -> conv2 (in-place)
I0403 12:43:55.576573  9465 net.cpp:141] Setting up relu2
I0403 12:43:55.576606  9465 net.cpp:148] Top shape: 100 256 27 27 (18662400)
I0403 12:43:55.576623  9465 net.cpp:156] Memory required for data: 587609200
I0403 12:43:55.576638  9465 layer_factory.hpp:77] Creating layer norm2
I0403 12:43:55.576661  9465 net.cpp:91] Creating Layer norm2
I0403 12:43:55.576679  9465 net.cpp:425] norm2 <- conv2
I0403 12:43:55.576699  9465 net.cpp:399] norm2 -> norm2
I0403 12:43:55.576902  9465 net.cpp:141] Setting up norm2
I0403 12:43:55.576930  9465 net.cpp:148] Top shape: 100 256 27 27 (18662400)
I0403 12:43:55.576944  9465 net.cpp:156] Memory required for data: 662258800
I0403 12:43:55.576958  9465 layer_factory.hpp:77] Creating layer pool2
I0403 12:43:55.576977  9465 net.cpp:91] Creating Layer pool2
I0403 12:43:55.576993  9465 net.cpp:425] pool2 <- norm2
I0403 12:43:55.577013  9465 net.cpp:399] pool2 -> pool2
I0403 12:43:55.577069  9465 net.cpp:141] Setting up pool2
I0403 12:43:55.577091  9465 net.cpp:148] Top shape: 100 256 13 13 (4326400)
I0403 12:43:55.577106  9465 net.cpp:156] Memory required for data: 679564400
I0403 12:43:55.577121  9465 layer_factory.hpp:77] Creating layer conv3
I0403 12:43:55.577147  9465 net.cpp:91] Creating Layer conv3
I0403 12:43:55.577164  9465 net.cpp:425] conv3 <- pool2
I0403 12:43:55.577183  9465 net.cpp:399] conv3 -> conv3
I0403 12:43:55.617074  9465 net.cpp:141] Setting up conv3
I0403 12:43:55.617126  9465 net.cpp:148] Top shape: 100 384 13 13 (6489600)
I0403 12:43:55.617146  9465 net.cpp:156] Memory required for data: 705522800
I0403 12:43:55.617172  9465 layer_factory.hpp:77] Creating layer relu3
I0403 12:43:55.617226  9465 net.cpp:91] Creating Layer relu3
I0403 12:43:55.617250  9465 net.cpp:425] relu3 <- conv3
I0403 12:43:55.617275  9465 net.cpp:386] relu3 -> conv3 (in-place)
I0403 12:43:55.617566  9465 net.cpp:141] Setting up relu3
I0403 12:43:55.617594  9465 net.cpp:148] Top shape: 100 384 13 13 (6489600)
I0403 12:43:55.617615  9465 net.cpp:156] Memory required for data: 731481200
I0403 12:43:55.617631  9465 layer_factory.hpp:77] Creating layer conv4
I0403 12:43:55.617657  9465 net.cpp:91] Creating Layer conv4
I0403 12:43:55.617676  9465 net.cpp:425] conv4 <- conv3
I0403 12:43:55.617697  9465 net.cpp:399] conv4 -> conv4
I0403 12:43:55.648762  9465 net.cpp:141] Setting up conv4
I0403 12:43:55.648838  9465 net.cpp:148] Top shape: 100 384 13 13 (6489600)
I0403 12:43:55.648887  9465 net.cpp:156] Memory required for data: 757439600
I0403 12:43:55.648910  9465 layer_factory.hpp:77] Creating layer relu4
I0403 12:43:55.648932  9465 net.cpp:91] Creating Layer relu4
I0403 12:43:55.648950  9465 net.cpp:425] relu4 <- conv4
I0403 12:43:55.648972  9465 net.cpp:386] relu4 -> conv4 (in-place)
I0403 12:43:55.649291  9465 net.cpp:141] Setting up relu4
I0403 12:43:55.649324  9465 net.cpp:148] Top shape: 100 384 13 13 (6489600)
I0403 12:43:55.649341  9465 net.cpp:156] Memory required for data: 783398000
I0403 12:43:55.649356  9465 layer_factory.hpp:77] Creating layer conv5
I0403 12:43:55.649384  9465 net.cpp:91] Creating Layer conv5
I0403 12:43:55.649400  9465 net.cpp:425] conv5 <- conv4
I0403 12:43:55.649420  9465 net.cpp:399] conv5 -> conv5
I0403 12:43:55.670797  9465 net.cpp:141] Setting up conv5
I0403 12:43:55.670861  9465 net.cpp:148] Top shape: 100 256 13 13 (4326400)
I0403 12:43:55.670878  9465 net.cpp:156] Memory required for data: 800703600
I0403 12:43:55.670903  9465 layer_factory.hpp:77] Creating layer relu5
I0403 12:43:55.670925  9465 net.cpp:91] Creating Layer relu5
I0403 12:43:55.670941  9465 net.cpp:425] relu5 <- conv5
I0403 12:43:55.670963  9465 net.cpp:386] relu5 -> conv5 (in-place)
I0403 12:43:55.671253  9465 net.cpp:141] Setting up relu5
I0403 12:43:55.671280  9465 net.cpp:148] Top shape: 100 256 13 13 (4326400)
I0403 12:43:55.671298  9465 net.cpp:156] Memory required for data: 818009200
I0403 12:43:55.671314  9465 layer_factory.hpp:77] Creating layer pool5
I0403 12:43:55.671339  9465 net.cpp:91] Creating Layer pool5
I0403 12:43:55.671356  9465 net.cpp:425] pool5 <- conv5
I0403 12:43:55.671375  9465 net.cpp:399] pool5 -> pool5
I0403 12:43:55.671438  9465 net.cpp:141] Setting up pool5
I0403 12:43:55.671463  9465 net.cpp:148] Top shape: 100 256 6 6 (921600)
I0403 12:43:55.671480  9465 net.cpp:156] Memory required for data: 821695600
I0403 12:43:55.671526  9465 layer_factory.hpp:77] Creating layer fc6
I0403 12:43:55.671558  9465 net.cpp:91] Creating Layer fc6
I0403 12:43:55.671577  9465 net.cpp:425] fc6 <- pool5
I0403 12:43:55.671658  9465 net.cpp:399] fc6 -> fc6
I0403 12:43:57.230612  9465 net.cpp:141] Setting up fc6
I0403 12:43:57.230654  9465 net.cpp:148] Top shape: 100 4096 (409600)
I0403 12:43:57.230670  9465 net.cpp:156] Memory required for data: 823334000
I0403 12:43:57.230691  9465 layer_factory.hpp:77] Creating layer relu6
I0403 12:43:57.230715  9465 net.cpp:91] Creating Layer relu6
I0403 12:43:57.230732  9465 net.cpp:425] relu6 <- fc6
I0403 12:43:57.230751  9465 net.cpp:386] relu6 -> fc6 (in-place)
I0403 12:43:57.230980  9465 net.cpp:141] Setting up relu6
I0403 12:43:57.231004  9465 net.cpp:148] Top shape: 100 4096 (409600)
I0403 12:43:57.231019  9465 net.cpp:156] Memory required for data: 824972400
I0403 12:43:57.231032  9465 layer_factory.hpp:77] Creating layer drop6
I0403 12:43:57.231050  9465 net.cpp:91] Creating Layer drop6
I0403 12:43:57.231063  9465 net.cpp:425] drop6 <- fc6
I0403 12:43:57.231084  9465 net.cpp:386] drop6 -> fc6 (in-place)
I0403 12:43:57.231134  9465 net.cpp:141] Setting up drop6
I0403 12:43:57.231159  9465 net.cpp:148] Top shape: 100 4096 (409600)
I0403 12:43:57.231175  9465 net.cpp:156] Memory required for data: 826610800
I0403 12:43:57.231189  9465 layer_factory.hpp:77] Creating layer fc7
I0403 12:43:57.231207  9465 net.cpp:91] Creating Layer fc7
I0403 12:43:57.231222  9465 net.cpp:425] fc7 <- fc6
I0403 12:43:57.231241  9465 net.cpp:399] fc7 -> fc7
I0403 12:43:57.917167  9465 net.cpp:141] Setting up fc7
I0403 12:43:57.917244  9465 net.cpp:148] Top shape: 100 4096 (409600)
I0403 12:43:57.917261  9465 net.cpp:156] Memory required for data: 828249200
I0403 12:43:57.917282  9465 layer_factory.hpp:77] Creating layer relu7
I0403 12:43:57.917304  9465 net.cpp:91] Creating Layer relu7
I0403 12:43:57.917321  9465 net.cpp:425] relu7 <- fc7
I0403 12:43:57.917341  9465 net.cpp:386] relu7 -> fc7 (in-place)
I0403 12:43:57.917760  9465 net.cpp:141] Setting up relu7
I0403 12:43:57.917789  9465 net.cpp:148] Top shape: 100 4096 (409600)
I0403 12:43:57.917845  9465 net.cpp:156] Memory required for data: 829887600
I0403 12:43:57.917861  9465 layer_factory.hpp:77] Creating layer drop7
I0403 12:43:57.917879  9465 net.cpp:91] Creating Layer drop7
I0403 12:43:57.917896  9465 net.cpp:425] drop7 <- fc7
I0403 12:43:57.917917  9465 net.cpp:386] drop7 -> fc7 (in-place)
I0403 12:43:57.917960  9465 net.cpp:141] Setting up drop7
I0403 12:43:57.917982  9465 net.cpp:148] Top shape: 100 4096 (409600)
I0403 12:43:57.917996  9465 net.cpp:156] Memory required for data: 831526000
I0403 12:43:57.918010  9465 layer_factory.hpp:77] Creating layer fc8_plantvillage
I0403 12:43:57.918031  9465 net.cpp:91] Creating Layer fc8_plantvillage
I0403 12:43:57.918047  9465 net.cpp:425] fc8_plantvillage <- fc7
I0403 12:43:57.918067  9465 net.cpp:399] fc8_plantvillage -> fc8_plantvillage
I0403 12:43:57.924840  9465 net.cpp:141] Setting up fc8_plantvillage
I0403 12:43:57.924872  9465 net.cpp:148] Top shape: 100 38 (3800)
I0403 12:43:57.924890  9465 net.cpp:156] Memory required for data: 831541200
I0403 12:43:57.924907  9465 layer_factory.hpp:77] Creating layer fc8_plantvillage_fc8_plantvillage_0_split
I0403 12:43:57.924926  9465 net.cpp:91] Creating Layer fc8_plantvillage_fc8_plantvillage_0_split
I0403 12:43:57.924942  9465 net.cpp:425] fc8_plantvillage_fc8_plantvillage_0_split <- fc8_plantvillage
I0403 12:43:57.924962  9465 net.cpp:399] fc8_plantvillage_fc8_plantvillage_0_split -> fc8_plantvillage_fc8_plantvillage_0_split_0
I0403 12:43:57.924983  9465 net.cpp:399] fc8_plantvillage_fc8_plantvillage_0_split -> fc8_plantvillage_fc8_plantvillage_0_split_1
I0403 12:43:57.925005  9465 net.cpp:399] fc8_plantvillage_fc8_plantvillage_0_split -> fc8_plantvillage_fc8_plantvillage_0_split_2
I0403 12:43:57.925086  9465 net.cpp:141] Setting up fc8_plantvillage_fc8_plantvillage_0_split
I0403 12:43:57.925108  9465 net.cpp:148] Top shape: 100 38 (3800)
I0403 12:43:57.925124  9465 net.cpp:148] Top shape: 100 38 (3800)
I0403 12:43:57.925139  9465 net.cpp:148] Top shape: 100 38 (3800)
I0403 12:43:57.925153  9465 net.cpp:156] Memory required for data: 831586800
I0403 12:43:57.925166  9465 layer_factory.hpp:77] Creating layer prob
I0403 12:43:57.925184  9465 net.cpp:91] Creating Layer prob
I0403 12:43:57.925199  9465 net.cpp:425] prob <- fc8_plantvillage_fc8_plantvillage_0_split_0
I0403 12:43:57.925220  9465 net.cpp:399] prob -> prob
I0403 12:43:57.925442  9465 net.cpp:141] Setting up prob
I0403 12:43:57.925470  9465 net.cpp:148] Top shape: 100 38 (3800)
I0403 12:43:57.925485  9465 net.cpp:156] Memory required for data: 831602000
I0403 12:43:57.925499  9465 layer_factory.hpp:77] Creating layer hdf5out
I0403 12:43:57.925518  9465 net.cpp:91] Creating Layer hdf5out
I0403 12:43:57.925532  9465 net.cpp:425] hdf5out <- prob
I0403 12:43:57.925547  9465 net.cpp:425] hdf5out <- label_data_1_split_0
I0403 12:43:58.013294  9465 net.cpp:141] Setting up hdf5out
…
