…
I0403 12:46:26.451424  9523 net.cpp:313] The NetState phase (1) differed from the phase (0) specified by a rule in layer data
I0403 12:46:26.451740  9523 net.cpp:49] Initializing net from parameters: 
state {
  phase: TEST
}
layer {
  name: "data"
  type: "Data"
  top: "data"
  top: "label"
  include {
    phase: TEST
  }
  transform_param {
    crop_size: 227
    mean_file: "/home/mohanty/data/final_dataset/lmdb/segmented-50-50/mean.binaryproto"
  }
  data_param {
    source: "/home/mohanty/data/final_dataset/lmdb/segmented-50-50/test_db"
    batch_size: 100
    backend: LMDB
  }
}
layer {
  name: "conv1"
  type: "Convolution"
  bottom: "data"
  top: "conv1"
  param {
    lr_mult: 1
    decay_mult: 1
  }
  param {
    lr_mult: 2
    decay_mult: 0
  }
  convolution_param {
    num_output: 96
    kernel_size: 11
    stride: 4
    weight_filler {
      type: "gaussian"
      std: 0.01
    }
    bias_filler {
      type: "constant"
      value: 0
    }
  }
}
layer {
  name: "relu1"
  type: "ReLU"
  bottom: "conv1"
  top: "conv1"
}
layer {
  name: "norm1"
  type: "LRN"
  bottom: "conv1"
  top: "norm1"
  lrn_param {
    local_size: 5
    alpha: 0.0001
    beta: 0.75
  }
}
layer {
  name: "pool1"
  type: "Pooling"
  bottom: "norm1"
  top: "pool1"
  pooling_param {
    pool: MAX
    kernel_size: 3
    stride: 2
  }
}
layer {
  name: "conv2"
  type: "Convolution"
  bottom: "pool1"
  top: "conv2"
  param {
    lr_mult: 1
    decay_mult: 1
  }
  param {
    lr_mult: 2
    decay_mult: 0
  }
  convolution_param {
    num_output: 256
    pad: 2
    kernel_size: 5
    group: 2
    weight_filler {
      type: "gaussian"
      std: 0.01
    }
    bias_filler {
      type: "constant"
      value: 0.1
    }
  }
}
layer {
  name: "relu2"
  type: "ReLU"
  bottom: "conv2"
  top: "conv2"
}
layer {
  name: "norm2"
  type: "LRN"
  bottom: "conv2"
  top: "norm2"
  lrn_param {
    local_size: 5
    alpha: 0.0001
    beta: 0.75
  }
}
layer {
  name: "pool2"
  type: "Pooling"
  bottom: "norm2"
  top: "pool2"
  pooling_param {
    pool: MAX
    kernel_size: 3
    stride: 2
  }
}
layer {
  name: "conv3"
  type: "Convolution"
  bottom: "pool2"
  top: "conv3"
  param {
    lr_mult: 1
    decay_mult: 1
  }
  param {
    lr_mult: 2
    decay_mult: 0
  }
  convolution_param {
    num_output: 384
    pad: 1
    kernel_size: 3
    weight_filler {
      type: "gaussian"
      std: 0.01
    }
    bias_filler {
      type: "constant"
      value: 0
    }
  }
}
layer {
  name: "relu3"
  type: "ReLU"
  bottom: "conv3"
  top: "conv3"
}
layer {
  name: "conv4"
  type: "Convolution"
  bottom: "conv3"
  top: "conv4"
  param {
    lr_mult: 1
    decay_mult: 1
  }
  param {
    lr_mult: 2
    decay_mult: 0
  }
  convolution_param {
    num_output: 384
    pad: 1
    kernel_size: 3
    group: 2
    weight_filler {
      type: "gaussian"
      std: 0.01
    }
    bias_filler {
      type: "constant"
      value: 0.1
    }
  }
}
layer {
  name: "relu4"
  type: "ReLU"
  bottom: "conv4"
  top: "conv4"
}
layer {
  name: "conv5"
  type: "Convolution"
  bottom: "conv4"
  top: "conv5"
  param {
    lr_mult: 1
    decay_mult: 1
  }
  param {
    lr_mult: 2
    decay_mult: 0
  }
  convolution_param {
    num_output: 256
    pad: 1
    kernel_size: 3
    group: 2
    weight_filler {
      type: "gaussian"
      std: 0.01
    }
    bias_filler {
      type: "constant"
      value: 0.1
    }
  }
}
layer {
  name: "relu5"
  type: "ReLU"
  bottom: "conv5"
  top: "conv5"
}
layer {
  name: "pool5"
  type: "Pooling"
  bottom: "conv5"
  top: "pool5"
  pooling_param {
    pool: MAX
    kernel_size: 3
    stride: 2
  }
}
layer {
  name: "fc6"
  type: "InnerProduct"
  bottom: "pool5"
  top: "fc6"
  param {
    lr_mult: 1
    decay_mult: 1
  }
  param {
    lr_mult: 2
    decay_mult: 0
  }
  inner_product_param {
    num_output: 4096
    weight_filler {
      type: "gaussian"
      std: 0.005
    }
    bias_filler {
      type: "constant"
      value: 0.1
    }
  }
}
layer {
  name: "relu6"
  type: "ReLU"
  bottom: "fc6"
  top: "fc6"
}
layer {
  name: "drop6"
  type: "Dropout"
  bottom: "fc6"
  top: "fc6"
  dropout_param {
    dropout_ratio: 0.5
  }
}
layer {
  name: "fc7"
  type: "InnerProduct"
  bottom: "fc6"
  top: "fc7"
  param {
    lr_mult: 1
    decay_mult: 1
  }
  param {
    lr_mult: 2
    decay_mult: 0
  }
  inner_product_param {
    num_output: 4096
    weight_filler {
      type: "gaussian"
      std: 0.005
    }
    bias_filler {
      type: "constant"
      value: 0.1
    }
  }
}
layer {
  name: "relu7"
  type: "ReLU"
  bottom: "fc7"
  top: "fc7"
}
layer {
  name: "drop7"
  type: "Dropout"
  bottom: "fc7"
  top: "fc7"
  dropout_param {
    dropout_ratio: 0.5
  }
}
layer {
  name: "fc8_plantvillage"
  type: "InnerProduct"
  bottom: "fc7"
  top: "fc8_plantvillage"
  param {
    lr_mult: 1
    decay_mult: 1
  }
  param {
    lr_mult: 2
    decay_mult: 0
  }
  inner_product_param {
    num_output: 38
    weight_filler {
      type: "gaussian"
      std: 0.01
    }
    bias_filler {
      type: "constant"
      value: 0
    }
  }
}
layer {
  name: "prob"
  type: "Softmax"
  bottom: "fc8_plantvillage"
  top: "prob"
  include {
    phase: TEST
  }
}
layer {
  name: "hdf5out"
  type: "HDF5Output"
  bottom: "prob"
  bottom: "label"
  include {
    phase: TEST
  }
  hdf5_output_param {
    file_name: "hdf5_dumps/iter_1340.h5"
  }
}
layer {
  name: "loss"
  type: "SoftmaxWithLoss"
  bottom: "fc8_plantvillage"
  bottom: "label"
  top: "loss"
}
layer {
  name: "accuracy"
  type: "Accuracy"
  bottom: "fc8_plantvillage"
  bottom: "label"
  top: "accuracy"
  include {
    phase: TEST
  }
}
I0403 12:46:26.452312  9523 layer_factory.hpp:77] Creating layer data
I0403 12:46:26.452976  9523 net.cpp:91] Creating Layer data
I0403 12:46:26.453009  9523 net.cpp:399] data -> data
I0403 12:46:26.453059  9523 net.cpp:399] data -> label
I0403 12:46:26.453095  9523 data_transformer.cpp:25] Loading mean file from: /home/mohanty/data/final_dataset/lmdb/segmented-50-50/mean.binaryproto
I0403 12:46:26.456002  9526 db_lmdb.cpp:38] Opened lmdb /home/mohanty/data/final_dataset/lmdb/segmented-50-50/test_db
I0403 12:46:26.467442  9523 data_layer.cpp:41] output data size: 100,3,227,227
I0403 12:46:26.585757  9523 net.cpp:141] Setting up data
I0403 12:46:26.585852  9523 net.cpp:148] Top shape: 100 3 227 227 (15458700)
I0403 12:46:26.585875  9523 net.cpp:148] Top shape: 100 (100)
I0403 12:46:26.585891  9523 net.cpp:156] Memory required for data: 61835200
I0403 12:46:26.585918  9523 layer_factory.hpp:77] Creating layer label_data_1_split
I0403 12:46:26.585943  9523 net.cpp:91] Creating Layer label_data_1_split
I0403 12:46:26.585961  9523 net.cpp:425] label_data_1_split <- label
I0403 12:46:26.585994  9523 net.cpp:399] label_data_1_split -> label_data_1_split_0
I0403 12:46:26.586022  9523 net.cpp:399] label_data_1_split -> label_data_1_split_1
I0403 12:46:26.586043  9523 net.cpp:399] label_data_1_split -> label_data_1_split_2
I0403 12:46:26.586108  9523 net.cpp:141] Setting up label_data_1_split
I0403 12:46:26.586132  9523 net.cpp:148] Top shape: 100 (100)
I0403 12:46:26.586148  9523 net.cpp:148] Top shape: 100 (100)
I0403 12:46:26.586164  9523 net.cpp:148] Top shape: 100 (100)
I0403 12:46:26.586179  9523 net.cpp:156] Memory required for data: 61836400
I0403 12:46:26.586192  9523 layer_factory.hpp:77] Creating layer conv1
I0403 12:46:26.586226  9523 net.cpp:91] Creating Layer conv1
I0403 12:46:26.586246  9523 net.cpp:425] conv1 <- data
I0403 12:46:26.586264  9523 net.cpp:399] conv1 -> conv1
I0403 12:46:26.727674  9523 net.cpp:141] Setting up conv1
I0403 12:46:26.727752  9523 net.cpp:148] Top shape: 100 96 55 55 (29040000)
I0403 12:46:26.727769  9523 net.cpp:156] Memory required for data: 177996400
I0403 12:46:26.727802  9523 layer_factory.hpp:77] Creating layer relu1
I0403 12:46:26.727829  9523 net.cpp:91] Creating Layer relu1
I0403 12:46:26.727848  9523 net.cpp:425] relu1 <- conv1
I0403 12:46:26.727867  9523 net.cpp:386] relu1 -> conv1 (in-place)
I0403 12:46:26.728135  9523 net.cpp:141] Setting up relu1
I0403 12:46:26.728163  9523 net.cpp:148] Top shape: 100 96 55 55 (29040000)
I0403 12:46:26.728214  9523 net.cpp:156] Memory required for data: 294156400
I0403 12:46:26.728230  9523 layer_factory.hpp:77] Creating layer norm1
I0403 12:46:26.728258  9523 net.cpp:91] Creating Layer norm1
I0403 12:46:26.728286  9523 net.cpp:425] norm1 <- conv1
I0403 12:46:26.728304  9523 net.cpp:399] norm1 -> norm1
I0403 12:46:26.728667  9523 net.cpp:141] Setting up norm1
I0403 12:46:26.728695  9523 net.cpp:148] Top shape: 100 96 55 55 (29040000)
I0403 12:46:26.728710  9523 net.cpp:156] Memory required for data: 410316400
I0403 12:46:26.728726  9523 layer_factory.hpp:77] Creating layer pool1
I0403 12:46:26.728749  9523 net.cpp:91] Creating Layer pool1
I0403 12:46:26.728766  9523 net.cpp:425] pool1 <- norm1
I0403 12:46:26.728785  9523 net.cpp:399] pool1 -> pool1
I0403 12:46:26.728852  9523 net.cpp:141] Setting up pool1
I0403 12:46:26.728876  9523 net.cpp:148] Top shape: 100 96 27 27 (6998400)
I0403 12:46:26.728891  9523 net.cpp:156] Memory required for data: 438310000
I0403 12:46:26.728906  9523 layer_factory.hpp:77] Creating layer conv2
I0403 12:46:26.728931  9523 net.cpp:91] Creating Layer conv2
I0403 12:46:26.728947  9523 net.cpp:425] conv2 <- pool1
I0403 12:46:26.728966  9523 net.cpp:399] conv2 -> conv2
I0403 12:46:26.744554  9523 net.cpp:141] Setting up conv2
I0403 12:46:26.744619  9523 net.cpp:148] Top shape: 100 256 27 27 (18662400)
I0403 12:46:26.744637  9523 net.cpp:156] Memory required for data: 512959600
I0403 12:46:26.744660  9523 layer_factory.hpp:77] Creating layer relu2
I0403 12:46:26.744685  9523 net.cpp:91] Creating Layer relu2
I0403 12:46:26.744702  9523 net.cpp:425] relu2 <- conv2
I0403 12:46:26.744722  9523 net.cpp:386] relu2 -> conv2 (in-place)
I0403 12:46:26.745021  9523 net.cpp:141] Setting up relu2
I0403 12:46:26.745049  9523 net.cpp:148] Top shape: 100 256 27 27 (18662400)
I0403 12:46:26.745086  9523 net.cpp:156] Memory required for data: 587609200
I0403 12:46:26.745107  9523 layer_factory.hpp:77] Creating layer norm2
I0403 12:46:26.745131  9523 net.cpp:91] Creating Layer norm2
I0403 12:46:26.745149  9523 net.cpp:425] norm2 <- conv2
I0403 12:46:26.745167  9523 net.cpp:399] norm2 -> norm2
I0403 12:46:26.745378  9523 net.cpp:141] Setting up norm2
I0403 12:46:26.745404  9523 net.cpp:148] Top shape: 100 256 27 27 (18662400)
I0403 12:46:26.745419  9523 net.cpp:156] Memory required for data: 662258800
I0403 12:46:26.745434  9523 layer_factory.hpp:77] Creating layer pool2
I0403 12:46:26.745452  9523 net.cpp:91] Creating Layer pool2
I0403 12:46:26.745468  9523 net.cpp:425] pool2 <- norm2
I0403 12:46:26.745489  9523 net.cpp:399] pool2 -> pool2
I0403 12:46:26.745543  9523 net.cpp:141] Setting up pool2
I0403 12:46:26.745575  9523 net.cpp:148] Top shape: 100 256 13 13 (4326400)
I0403 12:46:26.745592  9523 net.cpp:156] Memory required for data: 679564400
I0403 12:46:26.745607  9523 layer_factory.hpp:77] Creating layer conv3
I0403 12:46:26.745642  9523 net.cpp:91] Creating Layer conv3
I0403 12:46:26.745661  9523 net.cpp:425] conv3 <- pool2
I0403 12:46:26.745678  9523 net.cpp:399] conv3 -> conv3
I0403 12:46:26.785787  9523 net.cpp:141] Setting up conv3
I0403 12:46:26.785866  9523 net.cpp:148] Top shape: 100 384 13 13 (6489600)
I0403 12:46:26.785883  9523 net.cpp:156] Memory required for data: 705522800
I0403 12:46:26.785909  9523 layer_factory.hpp:77] Creating layer relu3
I0403 12:46:26.785933  9523 net.cpp:91] Creating Layer relu3
I0403 12:46:26.785950  9523 net.cpp:425] relu3 <- conv3
I0403 12:46:26.785974  9523 net.cpp:386] relu3 -> conv3 (in-place)
I0403 12:46:26.786262  9523 net.cpp:141] Setting up relu3
I0403 12:46:26.786288  9523 net.cpp:148] Top shape: 100 384 13 13 (6489600)
I0403 12:46:26.786304  9523 net.cpp:156] Memory required for data: 731481200
I0403 12:46:26.786319  9523 layer_factory.hpp:77] Creating layer conv4
I0403 12:46:26.786345  9523 net.cpp:91] Creating Layer conv4
I0403 12:46:26.786362  9523 net.cpp:425] conv4 <- conv3
I0403 12:46:26.786384  9523 net.cpp:399] conv4 -> conv4
I0403 12:46:26.817627  9523 net.cpp:141] Setting up conv4
I0403 12:46:26.817689  9523 net.cpp:148] Top shape: 100 384 13 13 (6489600)
I0403 12:46:26.817739  9523 net.cpp:156] Memory required for data: 757439600
I0403 12:46:26.817761  9523 layer_factory.hpp:77] Creating layer relu4
I0403 12:46:26.817783  9523 net.cpp:91] Creating Layer relu4
I0403 12:46:26.817800  9523 net.cpp:425] relu4 <- conv4
I0403 12:46:26.817821  9523 net.cpp:386] relu4 -> conv4 (in-place)
I0403 12:46:26.818104  9523 net.cpp:141] Setting up relu4
I0403 12:46:26.818133  9523 net.cpp:148] Top shape: 100 384 13 13 (6489600)
I0403 12:46:26.818148  9523 net.cpp:156] Memory required for data: 783398000
I0403 12:46:26.818164  9523 layer_factory.hpp:77] Creating layer conv5
I0403 12:46:26.818189  9523 net.cpp:91] Creating Layer conv5
I0403 12:46:26.818205  9523 net.cpp:425] conv5 <- conv4
I0403 12:46:26.818223  9523 net.cpp:399] conv5 -> conv5
I0403 12:46:26.839601  9523 net.cpp:141] Setting up conv5
I0403 12:46:26.839663  9523 net.cpp:148] Top shape: 100 256 13 13 (4326400)
I0403 12:46:26.839700  9523 net.cpp:156] Memory required for data: 800703600
I0403 12:46:26.839733  9523 layer_factory.hpp:77] Creating layer relu5
I0403 12:46:26.839756  9523 net.cpp:91] Creating Layer relu5
I0403 12:46:26.839772  9523 net.cpp:425] relu5 <- conv5
I0403 12:46:26.839793  9523 net.cpp:386] relu5 -> conv5 (in-place)
I0403 12:46:26.840076  9523 net.cpp:141] Setting up relu5
I0403 12:46:26.840103  9523 net.cpp:148] Top shape: 100 256 13 13 (4326400)
I0403 12:46:26.840118  9523 net.cpp:156] Memory required for data: 818009200
I0403 12:46:26.840133  9523 layer_factory.hpp:77] Creating layer pool5
I0403 12:46:26.840154  9523 net.cpp:91] Creating Layer pool5
I0403 12:46:26.840169  9523 net.cpp:425] pool5 <- conv5
I0403 12:46:26.840193  9523 net.cpp:399] pool5 -> pool5
I0403 12:46:26.840255  9523 net.cpp:141] Setting up pool5
I0403 12:46:26.840289  9523 net.cpp:148] Top shape: 100 256 6 6 (921600)
I0403 12:46:26.840304  9523 net.cpp:156] Memory required for data: 821695600
I0403 12:46:26.840318  9523 layer_factory.hpp:77] Creating layer fc6
I0403 12:46:26.840347  9523 net.cpp:91] Creating Layer fc6
I0403 12:46:26.840364  9523 net.cpp:425] fc6 <- pool5
I0403 12:46:26.840386  9523 net.cpp:399] fc6 -> fc6
I0403 12:46:28.399832  9523 net.cpp:141] Setting up fc6
I0403 12:46:28.399910  9523 net.cpp:148] Top shape: 100 4096 (409600)
I0403 12:46:28.399926  9523 net.cpp:156] Memory required for data: 823334000
I0403 12:46:28.399946  9523 layer_factory.hpp:77] Creating layer relu6
I0403 12:46:28.399971  9523 net.cpp:91] Creating Layer relu6
I0403 12:46:28.399988  9523 net.cpp:425] relu6 <- fc6
I0403 12:46:28.400007  9523 net.cpp:386] relu6 -> fc6 (in-place)
I0403 12:46:28.400239  9523 net.cpp:141] Setting up relu6
I0403 12:46:28.400264  9523 net.cpp:148] Top shape: 100 4096 (409600)
I0403 12:46:28.400279  9523 net.cpp:156] Memory required for data: 824972400
I0403 12:46:28.400292  9523 layer_factory.hpp:77] Creating layer drop6
I0403 12:46:28.400311  9523 net.cpp:91] Creating Layer drop6
I0403 12:46:28.400326  9523 net.cpp:425] drop6 <- fc6
I0403 12:46:28.400344  9523 net.cpp:386] drop6 -> fc6 (in-place)
I0403 12:46:28.400395  9523 net.cpp:141] Setting up drop6
I0403 12:46:28.400420  9523 net.cpp:148] Top shape: 100 4096 (409600)
I0403 12:46:28.400435  9523 net.cpp:156] Memory required for data: 826610800
I0403 12:46:28.400450  9523 layer_factory.hpp:77] Creating layer fc7
I0403 12:46:28.400470  9523 net.cpp:91] Creating Layer fc7
I0403 12:46:28.400485  9523 net.cpp:425] fc7 <- fc6
I0403 12:46:28.400504  9523 net.cpp:399] fc7 -> fc7
I0403 12:46:29.084472  9523 net.cpp:141] Setting up fc7
I0403 12:46:29.084549  9523 net.cpp:148] Top shape: 100 4096 (409600)
I0403 12:46:29.084578  9523 net.cpp:156] Memory required for data: 828249200
I0403 12:46:29.084614  9523 layer_factory.hpp:77] Creating layer relu7
I0403 12:46:29.084636  9523 net.cpp:91] Creating Layer relu7
I0403 12:46:29.084652  9523 net.cpp:425] relu7 <- fc7
I0403 12:46:29.084674  9523 net.cpp:386] relu7 -> fc7 (in-place)
I0403 12:46:29.085086  9523 net.cpp:141] Setting up relu7
I0403 12:46:29.085114  9523 net.cpp:148] Top shape: 100 4096 (409600)
I0403 12:46:29.085186  9523 net.cpp:156] Memory required for data: 829887600
I0403 12:46:29.085201  9523 layer_factory.hpp:77] Creating layer drop7
I0403 12:46:29.085222  9523 net.cpp:91] Creating Layer drop7
I0403 12:46:29.085237  9523 net.cpp:425] drop7 <- fc7
I0403 12:46:29.085256  9523 net.cpp:386] drop7 -> fc7 (in-place)
I0403 12:46:29.085311  9523 net.cpp:141] Setting up drop7
I0403 12:46:29.085335  9523 net.cpp:148] Top shape: 100 4096 (409600)
I0403 12:46:29.085348  9523 net.cpp:156] Memory required for data: 831526000
I0403 12:46:29.085362  9523 layer_factory.hpp:77] Creating layer fc8_plantvillage
I0403 12:46:29.085384  9523 net.cpp:91] Creating Layer fc8_plantvillage
I0403 12:46:29.085402  9523 net.cpp:425] fc8_plantvillage <- fc7
I0403 12:46:29.085422  9523 net.cpp:399] fc8_plantvillage -> fc8_plantvillage
I0403 12:46:29.092216  9523 net.cpp:141] Setting up fc8_plantvillage
I0403 12:46:29.092245  9523 net.cpp:148] Top shape: 100 38 (3800)
I0403 12:46:29.092259  9523 net.cpp:156] Memory required for data: 831541200
I0403 12:46:29.092278  9523 layer_factory.hpp:77] Creating layer fc8_plantvillage_fc8_plantvillage_0_split
I0403 12:46:29.092296  9523 net.cpp:91] Creating Layer fc8_plantvillage_fc8_plantvillage_0_split
I0403 12:46:29.092311  9523 net.cpp:425] fc8_plantvillage_fc8_plantvillage_0_split <- fc8_plantvillage
I0403 12:46:29.092330  9523 net.cpp:399] fc8_plantvillage_fc8_plantvillage_0_split -> fc8_plantvillage_fc8_plantvillage_0_split_0
I0403 12:46:29.092350  9523 net.cpp:399] fc8_plantvillage_fc8_plantvillage_0_split -> fc8_plantvillage_fc8_plantvillage_0_split_1
I0403 12:46:29.092370  9523 net.cpp:399] fc8_plantvillage_fc8_plantvillage_0_split -> fc8_plantvillage_fc8_plantvillage_0_split_2
I0403 12:46:29.092445  9523 net.cpp:141] Setting up fc8_plantvillage_fc8_plantvillage_0_split
I0403 12:46:29.092468  9523 net.cpp:148] Top shape: 100 38 (3800)
I0403 12:46:29.092483  9523 net.cpp:148] Top shape: 100 38 (3800)
I0403 12:46:29.092497  9523 net.cpp:148] Top shape: 100 38 (3800)
I0403 12:46:29.092510  9523 net.cpp:156] Memory required for data: 831586800
I0403 12:46:29.092525  9523 layer_factory.hpp:77] Creating layer prob
I0403 12:46:29.092541  9523 net.cpp:91] Creating Layer prob
I0403 12:46:29.092556  9523 net.cpp:425] prob <- fc8_plantvillage_fc8_plantvillage_0_split_0
I0403 12:46:29.092581  9523 net.cpp:399] prob -> prob
I0403 12:46:29.092808  9523 net.cpp:141] Setting up prob
I0403 12:46:29.092836  9523 net.cpp:148] Top shape: 100 38 (3800)
I0403 12:46:29.092852  9523 net.cpp:156] Memory required for data: 831602000
I0403 12:46:29.092867  9523 layer_factory.hpp:77] Creating layer hdf5out
I0403 12:46:29.092886  9523 net.cpp:91] Creating Layer hdf5out
I0403 12:46:29.092901  9523 net.cpp:425] hdf5out <- prob
I0403 12:46:29.092916  9523 net.cpp:425] hdf5out <- label_data_1_split_0
I0403 12:46:29.095796  9523 net.cpp:141] Setting up hdf5out
…
