…
I0403 12:59:05.262828  9987 net.cpp:313] The NetState phase (1) differed from the phase (0) specified by a rule in layer data
I0403 12:59:05.263142  9987 net.cpp:49] Initializing net from parameters: 
state {
  phase: TEST
}
layer {
  name: "data"
  type: "Data"
  top: "data"
  top: "label"
  include {
    phase: TEST
  }
  transform_param {
    crop_size: 227
    mean_file: "/home/mohanty/data/final_dataset/lmdb/segmented-50-50/mean.binaryproto"
  }
  data_param {
    source: "/home/mohanty/data/final_dataset/lmdb/segmented-50-50/test_db"
    batch_size: 100
    backend: LMDB
  }
}
layer {
  name: "conv1"
  type: "Convolution"
  bottom: "data"
  top: "conv1"
  param {
    lr_mult: 1
    decay_mult: 1
  }
  param {
    lr_mult: 2
    decay_mult: 0
  }
  convolution_param {
    num_output: 96
    kernel_size: 11
    stride: 4
    weight_filler {
      type: "gaussian"
      std: 0.01
    }
    bias_filler {
      type: "constant"
      value: 0
    }
  }
}
layer {
  name: "relu1"
  type: "ReLU"
  bottom: "conv1"
  top: "conv1"
}
layer {
  name: "norm1"
  type: "LRN"
  bottom: "conv1"
  top: "norm1"
  lrn_param {
    local_size: 5
    alpha: 0.0001
    beta: 0.75
  }
}
layer {
  name: "pool1"
  type: "Pooling"
  bottom: "norm1"
  top: "pool1"
  pooling_param {
    pool: MAX
    kernel_size: 3
    stride: 2
  }
}
layer {
  name: "conv2"
  type: "Convolution"
  bottom: "pool1"
  top: "conv2"
  param {
    lr_mult: 1
    decay_mult: 1
  }
  param {
    lr_mult: 2
    decay_mult: 0
  }
  convolution_param {
    num_output: 256
    pad: 2
    kernel_size: 5
    group: 2
    weight_filler {
      type: "gaussian"
      std: 0.01
    }
    bias_filler {
      type: "constant"
      value: 0.1
    }
  }
}
layer {
  name: "relu2"
  type: "ReLU"
  bottom: "conv2"
  top: "conv2"
}
layer {
  name: "norm2"
  type: "LRN"
  bottom: "conv2"
  top: "norm2"
  lrn_param {
    local_size: 5
    alpha: 0.0001
    beta: 0.75
  }
}
layer {
  name: "pool2"
  type: "Pooling"
  bottom: "norm2"
  top: "pool2"
  pooling_param {
    pool: MAX
    kernel_size: 3
    stride: 2
  }
}
layer {
  name: "conv3"
  type: "Convolution"
  bottom: "pool2"
  top: "conv3"
  param {
    lr_mult: 1
    decay_mult: 1
  }
  param {
    lr_mult: 2
    decay_mult: 0
  }
  convolution_param {
    num_output: 384
    pad: 1
    kernel_size: 3
    weight_filler {
      type: "gaussian"
      std: 0.01
    }
    bias_filler {
      type: "constant"
      value: 0
    }
  }
}
layer {
  name: "relu3"
  type: "ReLU"
  bottom: "conv3"
  top: "conv3"
}
layer {
  name: "conv4"
  type: "Convolution"
  bottom: "conv3"
  top: "conv4"
  param {
    lr_mult: 1
    decay_mult: 1
  }
  param {
    lr_mult: 2
    decay_mult: 0
  }
  convolution_param {
    num_output: 384
    pad: 1
    kernel_size: 3
    group: 2
    weight_filler {
      type: "gaussian"
      std: 0.01
    }
    bias_filler {
      type: "constant"
      value: 0.1
    }
  }
}
layer {
  name: "relu4"
  type: "ReLU"
  bottom: "conv4"
  top: "conv4"
}
layer {
  name: "conv5"
  type: "Convolution"
  bottom: "conv4"
  top: "conv5"
  param {
    lr_mult: 1
    decay_mult: 1
  }
  param {
    lr_mult: 2
    decay_mult: 0
  }
  convolution_param {
    num_output: 256
    pad: 1
    kernel_size: 3
    group: 2
    weight_filler {
      type: "gaussian"
      std: 0.01
    }
    bias_filler {
      type: "constant"
      value: 0.1
    }
  }
}
layer {
  name: "relu5"
  type: "ReLU"
  bottom: "conv5"
  top: "conv5"
}
layer {
  name: "pool5"
  type: "Pooling"
  bottom: "conv5"
  top: "pool5"
  pooling_param {
    pool: MAX
    kernel_size: 3
    stride: 2
  }
}
layer {
  name: "fc6"
  type: "InnerProduct"
  bottom: "pool5"
  top: "fc6"
  param {
    lr_mult: 1
    decay_mult: 1
  }
  param {
    lr_mult: 2
    decay_mult: 0
  }
  inner_product_param {
    num_output: 4096
    weight_filler {
      type: "gaussian"
      std: 0.005
    }
    bias_filler {
      type: "constant"
      value: 0.1
    }
  }
}
layer {
  name: "relu6"
  type: "ReLU"
  bottom: "fc6"
  top: "fc6"
}
layer {
  name: "drop6"
  type: "Dropout"
  bottom: "fc6"
  top: "fc6"
  dropout_param {
    dropout_ratio: 0.5
  }
}
layer {
  name: "fc7"
  type: "InnerProduct"
  bottom: "fc6"
  top: "fc7"
  param {
    lr_mult: 1
    decay_mult: 1
  }
  param {
    lr_mult: 2
    decay_mult: 0
  }
  inner_product_param {
    num_output: 4096
    weight_filler {
      type: "gaussian"
      std: 0.005
    }
    bias_filler {
      type: "constant"
      value: 0.1
    }
  }
}
layer {
  name: "relu7"
  type: "ReLU"
  bottom: "fc7"
  top: "fc7"
}
layer {
  name: "drop7"
  type: "Dropout"
  bottom: "fc7"
  top: "fc7"
  dropout_param {
    dropout_ratio: 0.5
  }
}
layer {
  name: "fc8_plantvillage"
  type: "InnerProduct"
  bottom: "fc7"
  top: "fc8_plantvillage"
  param {
    lr_mult: 1
    decay_mult: 1
  }
  param {
    lr_mult: 2
    decay_mult: 0
  }
  inner_product_param {
    num_output: 38
    weight_filler {
      type: "gaussian"
      std: 0.01
    }
    bias_filler {
      type: "constant"
      value: 0
    }
  }
}
layer {
  name: "prob"
  type: "Softmax"
  bottom: "fc8_plantvillage"
  top: "prob"
  include {
    phase: TEST
  }
}
layer {
  name: "hdf5out"
  type: "HDF5Output"
  bottom: "prob"
  bottom: "label"
  include {
    phase: TEST
  }
  hdf5_output_param {
    file_name: "hdf5_dumps/iter_5360.h5"
  }
}
layer {
  name: "loss"
  type: "SoftmaxWithLoss"
  bottom: "fc8_plantvillage"
  bottom: "label"
  top: "loss"
}
layer {
  name: "accuracy"
  type: "Accuracy"
  bottom: "fc8_plantvillage"
  bottom: "label"
  top: "accuracy"
  include {
    phase: TEST
  }
}
I0403 12:59:05.263703  9987 layer_factory.hpp:77] Creating layer data
I0403 12:59:05.264349  9987 net.cpp:91] Creating Layer data
I0403 12:59:05.264382  9987 net.cpp:399] data -> data
I0403 12:59:05.264433  9987 net.cpp:399] data -> label
I0403 12:59:05.264482  9987 data_transformer.cpp:25] Loading mean file from: /home/mohanty/data/final_dataset/lmdb/segmented-50-50/mean.binaryproto
I0403 12:59:05.267204  9990 db_lmdb.cpp:38] Opened lmdb /home/mohanty/data/final_dataset/lmdb/segmented-50-50/test_db
I0403 12:59:05.279106  9987 data_layer.cpp:41] output data size: 100,3,227,227
I0403 12:59:05.399952  9987 net.cpp:141] Setting up data
I0403 12:59:05.400009  9987 net.cpp:148] Top shape: 100 3 227 227 (15458700)
I0403 12:59:05.400032  9987 net.cpp:148] Top shape: 100 (100)
I0403 12:59:05.400048  9987 net.cpp:156] Memory required for data: 61835200
I0403 12:59:05.400075  9987 layer_factory.hpp:77] Creating layer label_data_1_split
I0403 12:59:05.400100  9987 net.cpp:91] Creating Layer label_data_1_split
I0403 12:59:05.400117  9987 net.cpp:425] label_data_1_split <- label
I0403 12:59:05.400149  9987 net.cpp:399] label_data_1_split -> label_data_1_split_0
I0403 12:59:05.400177  9987 net.cpp:399] label_data_1_split -> label_data_1_split_1
I0403 12:59:05.400197  9987 net.cpp:399] label_data_1_split -> label_data_1_split_2
I0403 12:59:05.400259  9987 net.cpp:141] Setting up label_data_1_split
I0403 12:59:05.400284  9987 net.cpp:148] Top shape: 100 (100)
I0403 12:59:05.400300  9987 net.cpp:148] Top shape: 100 (100)
I0403 12:59:05.400315  9987 net.cpp:148] Top shape: 100 (100)
I0403 12:59:05.400331  9987 net.cpp:156] Memory required for data: 61836400
I0403 12:59:05.400346  9987 layer_factory.hpp:77] Creating layer conv1
I0403 12:59:05.400377  9987 net.cpp:91] Creating Layer conv1
I0403 12:59:05.400394  9987 net.cpp:425] conv1 <- data
I0403 12:59:05.400425  9987 net.cpp:399] conv1 -> conv1
I0403 12:59:05.543845  9987 net.cpp:141] Setting up conv1
I0403 12:59:05.543925  9987 net.cpp:148] Top shape: 100 96 55 55 (29040000)
I0403 12:59:05.543942  9987 net.cpp:156] Memory required for data: 177996400
I0403 12:59:05.543973  9987 layer_factory.hpp:77] Creating layer relu1
I0403 12:59:05.544001  9987 net.cpp:91] Creating Layer relu1
I0403 12:59:05.544019  9987 net.cpp:425] relu1 <- conv1
I0403 12:59:05.544037  9987 net.cpp:386] relu1 -> conv1 (in-place)
I0403 12:59:05.544294  9987 net.cpp:141] Setting up relu1
I0403 12:59:05.544322  9987 net.cpp:148] Top shape: 100 96 55 55 (29040000)
I0403 12:59:05.544373  9987 net.cpp:156] Memory required for data: 294156400
I0403 12:59:05.544389  9987 layer_factory.hpp:77] Creating layer norm1
I0403 12:59:05.544416  9987 net.cpp:91] Creating Layer norm1
I0403 12:59:05.544435  9987 net.cpp:425] norm1 <- conv1
I0403 12:59:05.544452  9987 net.cpp:399] norm1 -> norm1
I0403 12:59:05.544775  9987 net.cpp:141] Setting up norm1
I0403 12:59:05.544803  9987 net.cpp:148] Top shape: 100 96 55 55 (29040000)
I0403 12:59:05.544819  9987 net.cpp:156] Memory required for data: 410316400
I0403 12:59:05.544834  9987 layer_factory.hpp:77] Creating layer pool1
I0403 12:59:05.544857  9987 net.cpp:91] Creating Layer pool1
I0403 12:59:05.544875  9987 net.cpp:425] pool1 <- norm1
I0403 12:59:05.544893  9987 net.cpp:399] pool1 -> pool1
I0403 12:59:05.544960  9987 net.cpp:141] Setting up pool1
I0403 12:59:05.544984  9987 net.cpp:148] Top shape: 100 96 27 27 (6998400)
I0403 12:59:05.544999  9987 net.cpp:156] Memory required for data: 438310000
I0403 12:59:05.545014  9987 layer_factory.hpp:77] Creating layer conv2
I0403 12:59:05.545039  9987 net.cpp:91] Creating Layer conv2
I0403 12:59:05.545055  9987 net.cpp:425] conv2 <- pool1
I0403 12:59:05.545073  9987 net.cpp:399] conv2 -> conv2
I0403 12:59:05.560151  9987 net.cpp:141] Setting up conv2
I0403 12:59:05.560231  9987 net.cpp:148] Top shape: 100 256 27 27 (18662400)
I0403 12:59:05.560253  9987 net.cpp:156] Memory required for data: 512959600
I0403 12:59:05.560277  9987 layer_factory.hpp:77] Creating layer relu2
I0403 12:59:05.560298  9987 net.cpp:91] Creating Layer relu2
I0403 12:59:05.560314  9987 net.cpp:425] relu2 <- conv2
I0403 12:59:05.560333  9987 net.cpp:386] relu2 -> conv2 (in-place)
I0403 12:59:05.560606  9987 net.cpp:141] Setting up relu2
I0403 12:59:05.560634  9987 net.cpp:148] Top shape: 100 256 27 27 (18662400)
I0403 12:59:05.560649  9987 net.cpp:156] Memory required for data: 587609200
I0403 12:59:05.560665  9987 layer_factory.hpp:77] Creating layer norm2
I0403 12:59:05.560686  9987 net.cpp:91] Creating Layer norm2
I0403 12:59:05.560703  9987 net.cpp:425] norm2 <- conv2
I0403 12:59:05.560720  9987 net.cpp:399] norm2 -> norm2
I0403 12:59:05.560919  9987 net.cpp:141] Setting up norm2
I0403 12:59:05.560945  9987 net.cpp:148] Top shape: 100 256 27 27 (18662400)
I0403 12:59:05.560959  9987 net.cpp:156] Memory required for data: 662258800
I0403 12:59:05.560974  9987 layer_factory.hpp:77] Creating layer pool2
I0403 12:59:05.560993  9987 net.cpp:91] Creating Layer pool2
I0403 12:59:05.561009  9987 net.cpp:425] pool2 <- norm2
I0403 12:59:05.561029  9987 net.cpp:399] pool2 -> pool2
I0403 12:59:05.561082  9987 net.cpp:141] Setting up pool2
I0403 12:59:05.561106  9987 net.cpp:148] Top shape: 100 256 13 13 (4326400)
I0403 12:59:05.561121  9987 net.cpp:156] Memory required for data: 679564400
I0403 12:59:05.561136  9987 layer_factory.hpp:77] Creating layer conv3
I0403 12:59:05.561161  9987 net.cpp:91] Creating Layer conv3
I0403 12:59:05.561178  9987 net.cpp:425] conv3 <- pool2
I0403 12:59:05.561197  9987 net.cpp:399] conv3 -> conv3
I0403 12:59:05.599977  9987 net.cpp:141] Setting up conv3
I0403 12:59:05.600045  9987 net.cpp:148] Top shape: 100 384 13 13 (6489600)
I0403 12:59:05.600062  9987 net.cpp:156] Memory required for data: 705522800
I0403 12:59:05.600088  9987 layer_factory.hpp:77] Creating layer relu3
I0403 12:59:05.600113  9987 net.cpp:91] Creating Layer relu3
I0403 12:59:05.600132  9987 net.cpp:425] relu3 <- conv3
I0403 12:59:05.600153  9987 net.cpp:386] relu3 -> conv3 (in-place)
I0403 12:59:05.600477  9987 net.cpp:141] Setting up relu3
I0403 12:59:05.600505  9987 net.cpp:148] Top shape: 100 384 13 13 (6489600)
I0403 12:59:05.600522  9987 net.cpp:156] Memory required for data: 731481200
I0403 12:59:05.600538  9987 layer_factory.hpp:77] Creating layer conv4
I0403 12:59:05.600564  9987 net.cpp:91] Creating Layer conv4
I0403 12:59:05.600580  9987 net.cpp:425] conv4 <- conv3
I0403 12:59:05.600628  9987 net.cpp:399] conv4 -> conv4
I0403 12:59:05.632567  9987 net.cpp:141] Setting up conv4
I0403 12:59:05.632654  9987 net.cpp:148] Top shape: 100 384 13 13 (6489600)
I0403 12:59:05.632705  9987 net.cpp:156] Memory required for data: 757439600
I0403 12:59:05.632728  9987 layer_factory.hpp:77] Creating layer relu4
I0403 12:59:05.632750  9987 net.cpp:91] Creating Layer relu4
I0403 12:59:05.632768  9987 net.cpp:425] relu4 <- conv4
I0403 12:59:05.632789  9987 net.cpp:386] relu4 -> conv4 (in-place)
I0403 12:59:05.633124  9987 net.cpp:141] Setting up relu4
I0403 12:59:05.633153  9987 net.cpp:148] Top shape: 100 384 13 13 (6489600)
I0403 12:59:05.633169  9987 net.cpp:156] Memory required for data: 783398000
I0403 12:59:05.633184  9987 layer_factory.hpp:77] Creating layer conv5
I0403 12:59:05.633209  9987 net.cpp:91] Creating Layer conv5
I0403 12:59:05.633225  9987 net.cpp:425] conv5 <- conv4
I0403 12:59:05.633244  9987 net.cpp:399] conv5 -> conv5
I0403 12:59:05.654070  9987 net.cpp:141] Setting up conv5
I0403 12:59:05.654122  9987 net.cpp:148] Top shape: 100 256 13 13 (4326400)
I0403 12:59:05.654139  9987 net.cpp:156] Memory required for data: 800703600
I0403 12:59:05.654163  9987 layer_factory.hpp:77] Creating layer relu5
I0403 12:59:05.654184  9987 net.cpp:91] Creating Layer relu5
I0403 12:59:05.654201  9987 net.cpp:425] relu5 <- conv5
I0403 12:59:05.654222  9987 net.cpp:386] relu5 -> conv5 (in-place)
I0403 12:59:05.654505  9987 net.cpp:141] Setting up relu5
I0403 12:59:05.654532  9987 net.cpp:148] Top shape: 100 256 13 13 (4326400)
I0403 12:59:05.654548  9987 net.cpp:156] Memory required for data: 818009200
I0403 12:59:05.654563  9987 layer_factory.hpp:77] Creating layer pool5
I0403 12:59:05.654588  9987 net.cpp:91] Creating Layer pool5
I0403 12:59:05.654618  9987 net.cpp:425] pool5 <- conv5
I0403 12:59:05.654639  9987 net.cpp:399] pool5 -> pool5
I0403 12:59:05.654702  9987 net.cpp:141] Setting up pool5
I0403 12:59:05.654727  9987 net.cpp:148] Top shape: 100 256 6 6 (921600)
I0403 12:59:05.654742  9987 net.cpp:156] Memory required for data: 821695600
I0403 12:59:05.654757  9987 layer_factory.hpp:77] Creating layer fc6
I0403 12:59:05.654784  9987 net.cpp:91] Creating Layer fc6
I0403 12:59:05.654803  9987 net.cpp:425] fc6 <- pool5
I0403 12:59:05.654821  9987 net.cpp:399] fc6 -> fc6
I0403 12:59:07.208133  9987 net.cpp:141] Setting up fc6
I0403 12:59:07.208175  9987 net.cpp:148] Top shape: 100 4096 (409600)
I0403 12:59:07.208191  9987 net.cpp:156] Memory required for data: 823334000
I0403 12:59:07.208211  9987 layer_factory.hpp:77] Creating layer relu6
I0403 12:59:07.208232  9987 net.cpp:91] Creating Layer relu6
I0403 12:59:07.208248  9987 net.cpp:425] relu6 <- fc6
I0403 12:59:07.208271  9987 net.cpp:386] relu6 -> fc6 (in-place)
I0403 12:59:07.208505  9987 net.cpp:141] Setting up relu6
I0403 12:59:07.208530  9987 net.cpp:148] Top shape: 100 4096 (409600)
I0403 12:59:07.208544  9987 net.cpp:156] Memory required for data: 824972400
I0403 12:59:07.208559  9987 layer_factory.hpp:77] Creating layer drop6
I0403 12:59:07.208577  9987 net.cpp:91] Creating Layer drop6
I0403 12:59:07.208591  9987 net.cpp:425] drop6 <- fc6
I0403 12:59:07.208617  9987 net.cpp:386] drop6 -> fc6 (in-place)
I0403 12:59:07.208681  9987 net.cpp:141] Setting up drop6
I0403 12:59:07.208706  9987 net.cpp:148] Top shape: 100 4096 (409600)
I0403 12:59:07.208721  9987 net.cpp:156] Memory required for data: 826610800
I0403 12:59:07.208735  9987 layer_factory.hpp:77] Creating layer fc7
I0403 12:59:07.208755  9987 net.cpp:91] Creating Layer fc7
I0403 12:59:07.208770  9987 net.cpp:425] fc7 <- fc6
I0403 12:59:07.208789  9987 net.cpp:399] fc7 -> fc7
I0403 12:59:07.892287  9987 net.cpp:141] Setting up fc7
I0403 12:59:07.892365  9987 net.cpp:148] Top shape: 100 4096 (409600)
I0403 12:59:07.892381  9987 net.cpp:156] Memory required for data: 828249200
I0403 12:59:07.892402  9987 layer_factory.hpp:77] Creating layer relu7
I0403 12:59:07.892426  9987 net.cpp:91] Creating Layer relu7
I0403 12:59:07.892442  9987 net.cpp:425] relu7 <- fc7
I0403 12:59:07.892463  9987 net.cpp:386] relu7 -> fc7 (in-place)
I0403 12:59:07.892882  9987 net.cpp:141] Setting up relu7
I0403 12:59:07.892910  9987 net.cpp:148] Top shape: 100 4096 (409600)
I0403 12:59:07.892966  9987 net.cpp:156] Memory required for data: 829887600
I0403 12:59:07.892982  9987 layer_factory.hpp:77] Creating layer drop7
I0403 12:59:07.892999  9987 net.cpp:91] Creating Layer drop7
I0403 12:59:07.893015  9987 net.cpp:425] drop7 <- fc7
I0403 12:59:07.893034  9987 net.cpp:386] drop7 -> fc7 (in-place)
I0403 12:59:07.893079  9987 net.cpp:141] Setting up drop7
I0403 12:59:07.893102  9987 net.cpp:148] Top shape: 100 4096 (409600)
I0403 12:59:07.893118  9987 net.cpp:156] Memory required for data: 831526000
I0403 12:59:07.893132  9987 layer_factory.hpp:77] Creating layer fc8_plantvillage
I0403 12:59:07.893152  9987 net.cpp:91] Creating Layer fc8_plantvillage
I0403 12:59:07.893167  9987 net.cpp:425] fc8_plantvillage <- fc7
I0403 12:59:07.893187  9987 net.cpp:399] fc8_plantvillage -> fc8_plantvillage
I0403 12:59:07.899910  9987 net.cpp:141] Setting up fc8_plantvillage
I0403 12:59:07.899938  9987 net.cpp:148] Top shape: 100 38 (3800)
I0403 12:59:07.899953  9987 net.cpp:156] Memory required for data: 831541200
I0403 12:59:07.899971  9987 layer_factory.hpp:77] Creating layer fc8_plantvillage_fc8_plantvillage_0_split
I0403 12:59:07.899989  9987 net.cpp:91] Creating Layer fc8_plantvillage_fc8_plantvillage_0_split
I0403 12:59:07.900005  9987 net.cpp:425] fc8_plantvillage_fc8_plantvillage_0_split <- fc8_plantvillage
I0403 12:59:07.900024  9987 net.cpp:399] fc8_plantvillage_fc8_plantvillage_0_split -> fc8_plantvillage_fc8_plantvillage_0_split_0
I0403 12:59:07.900044  9987 net.cpp:399] fc8_plantvillage_fc8_plantvillage_0_split -> fc8_plantvillage_fc8_plantvillage_0_split_1
I0403 12:59:07.900063  9987 net.cpp:399] fc8_plantvillage_fc8_plantvillage_0_split -> fc8_plantvillage_fc8_plantvillage_0_split_2
I0403 12:59:07.900141  9987 net.cpp:141] Setting up fc8_plantvillage_fc8_plantvillage_0_split
I0403 12:59:07.900164  9987 net.cpp:148] Top shape: 100 38 (3800)
I0403 12:59:07.900182  9987 net.cpp:148] Top shape: 100 38 (3800)
I0403 12:59:07.900198  9987 net.cpp:148] Top shape: 100 38 (3800)
I0403 12:59:07.900212  9987 net.cpp:156] Memory required for data: 831586800
I0403 12:59:07.900226  9987 layer_factory.hpp:77] Creating layer prob
I0403 12:59:07.900244  9987 net.cpp:91] Creating Layer prob
I0403 12:59:07.900261  9987 net.cpp:425] prob <- fc8_plantvillage_fc8_plantvillage_0_split_0
I0403 12:59:07.900281  9987 net.cpp:399] prob -> prob
I0403 12:59:07.900507  9987 net.cpp:141] Setting up prob
I0403 12:59:07.900532  9987 net.cpp:148] Top shape: 100 38 (3800)
I0403 12:59:07.900548  9987 net.cpp:156] Memory required for data: 831602000
I0403 12:59:07.900563  9987 layer_factory.hpp:77] Creating layer hdf5out
I0403 12:59:07.900580  9987 net.cpp:91] Creating Layer hdf5out
I0403 12:59:07.900596  9987 net.cpp:425] hdf5out <- prob
I0403 12:59:07.900632  9987 net.cpp:425] hdf5out <- label_data_1_split_0
I0403 12:59:07.903229  9987 net.cpp:141] Setting up hdf5out
…
