…
I0403 13:08:20.354619 10250 net.cpp:313] The NetState phase (1) differed from the phase (0) specified by a rule in layer data
I0403 13:08:20.354919 10250 net.cpp:49] Initializing net from parameters: 
state {
  phase: TEST
}
layer {
  name: "data"
  type: "Data"
  top: "data"
  top: "label"
  include {
    phase: TEST
  }
  transform_param {
    crop_size: 227
    mean_file: "/home/mohanty/data/final_dataset/lmdb/segmented-50-50/mean.binaryproto"
  }
  data_param {
    source: "/home/mohanty/data/final_dataset/lmdb/segmented-50-50/test_db"
    batch_size: 100
    backend: LMDB
  }
}
layer {
  name: "conv1"
  type: "Convolution"
  bottom: "data"
  top: "conv1"
  param {
    lr_mult: 1
    decay_mult: 1
  }
  param {
    lr_mult: 2
    decay_mult: 0
  }
  convolution_param {
    num_output: 96
    kernel_size: 11
    stride: 4
    weight_filler {
      type: "gaussian"
      std: 0.01
    }
    bias_filler {
      type: "constant"
      value: 0
    }
  }
}
layer {
  name: "relu1"
  type: "ReLU"
  bottom: "conv1"
  top: "conv1"
}
layer {
  name: "norm1"
  type: "LRN"
  bottom: "conv1"
  top: "norm1"
  lrn_param {
    local_size: 5
    alpha: 0.0001
    beta: 0.75
  }
}
layer {
  name: "pool1"
  type: "Pooling"
  bottom: "norm1"
  top: "pool1"
  pooling_param {
    pool: MAX
    kernel_size: 3
    stride: 2
  }
}
layer {
  name: "conv2"
  type: "Convolution"
  bottom: "pool1"
  top: "conv2"
  param {
    lr_mult: 1
    decay_mult: 1
  }
  param {
    lr_mult: 2
    decay_mult: 0
  }
  convolution_param {
    num_output: 256
    pad: 2
    kernel_size: 5
    group: 2
    weight_filler {
      type: "gaussian"
      std: 0.01
    }
    bias_filler {
      type: "constant"
      value: 0.1
    }
  }
}
layer {
  name: "relu2"
  type: "ReLU"
  bottom: "conv2"
  top: "conv2"
}
layer {
  name: "norm2"
  type: "LRN"
  bottom: "conv2"
  top: "norm2"
  lrn_param {
    local_size: 5
    alpha: 0.0001
    beta: 0.75
  }
}
layer {
  name: "pool2"
  type: "Pooling"
  bottom: "norm2"
  top: "pool2"
  pooling_param {
    pool: MAX
    kernel_size: 3
    stride: 2
  }
}
layer {
  name: "conv3"
  type: "Convolution"
  bottom: "pool2"
  top: "conv3"
  param {
    lr_mult: 1
    decay_mult: 1
  }
  param {
    lr_mult: 2
    decay_mult: 0
  }
  convolution_param {
    num_output: 384
    pad: 1
    kernel_size: 3
    weight_filler {
      type: "gaussian"
      std: 0.01
    }
    bias_filler {
      type: "constant"
      value: 0
    }
  }
}
layer {
  name: "relu3"
  type: "ReLU"
  bottom: "conv3"
  top: "conv3"
}
layer {
  name: "conv4"
  type: "Convolution"
  bottom: "conv3"
  top: "conv4"
  param {
    lr_mult: 1
    decay_mult: 1
  }
  param {
    lr_mult: 2
    decay_mult: 0
  }
  convolution_param {
    num_output: 384
    pad: 1
    kernel_size: 3
    group: 2
    weight_filler {
      type: "gaussian"
      std: 0.01
    }
    bias_filler {
      type: "constant"
      value: 0.1
    }
  }
}
layer {
  name: "relu4"
  type: "ReLU"
  bottom: "conv4"
  top: "conv4"
}
layer {
  name: "conv5"
  type: "Convolution"
  bottom: "conv4"
  top: "conv5"
  param {
    lr_mult: 1
    decay_mult: 1
  }
  param {
    lr_mult: 2
    decay_mult: 0
  }
  convolution_param {
    num_output: 256
    pad: 1
    kernel_size: 3
    group: 2
    weight_filler {
      type: "gaussian"
      std: 0.01
    }
    bias_filler {
      type: "constant"
      value: 0.1
    }
  }
}
layer {
  name: "relu5"
  type: "ReLU"
  bottom: "conv5"
  top: "conv5"
}
layer {
  name: "pool5"
  type: "Pooling"
  bottom: "conv5"
  top: "pool5"
  pooling_param {
    pool: MAX
    kernel_size: 3
    stride: 2
  }
}
layer {
  name: "fc6"
  type: "InnerProduct"
  bottom: "pool5"
  top: "fc6"
  param {
    lr_mult: 1
    decay_mult: 1
  }
  param {
    lr_mult: 2
    decay_mult: 0
  }
  inner_product_param {
    num_output: 4096
    weight_filler {
      type: "gaussian"
      std: 0.005
    }
    bias_filler {
      type: "constant"
      value: 0.1
    }
  }
}
layer {
  name: "relu6"
  type: "ReLU"
  bottom: "fc6"
  top: "fc6"
}
layer {
  name: "drop6"
  type: "Dropout"
  bottom: "fc6"
  top: "fc6"
  dropout_param {
    dropout_ratio: 0.5
  }
}
layer {
  name: "fc7"
  type: "InnerProduct"
  bottom: "fc6"
  top: "fc7"
  param {
    lr_mult: 1
    decay_mult: 1
  }
  param {
    lr_mult: 2
    decay_mult: 0
  }
  inner_product_param {
    num_output: 4096
    weight_filler {
      type: "gaussian"
      std: 0.005
    }
    bias_filler {
      type: "constant"
      value: 0.1
    }
  }
}
layer {
  name: "relu7"
  type: "ReLU"
  bottom: "fc7"
  top: "fc7"
}
layer {
  name: "drop7"
  type: "Dropout"
  bottom: "fc7"
  top: "fc7"
  dropout_param {
    dropout_ratio: 0.5
  }
}
layer {
  name: "fc8_plantvillage"
  type: "InnerProduct"
  bottom: "fc7"
  top: "fc8_plantvillage"
  param {
    lr_mult: 1
    decay_mult: 1
  }
  param {
    lr_mult: 2
    decay_mult: 0
  }
  inner_product_param {
    num_output: 38
    weight_filler {
      type: "gaussian"
      std: 0.01
    }
    bias_filler {
      type: "constant"
      value: 0
    }
  }
}
layer {
  name: "prob"
  type: "Softmax"
  bottom: "fc8_plantvillage"
  top: "prob"
  include {
    phase: TEST
  }
}
layer {
  name: "hdf5out"
  type: "HDF5Output"
  bottom: "prob"
  bottom: "label"
  include {
    phase: TEST
  }
  hdf5_output_param {
    file_name: "hdf5_dumps/iter_8066.h5"
  }
}
layer {
  name: "loss"
  type: "SoftmaxWithLoss"
  bottom: "fc8_plantvillage"
  bottom: "label"
  top: "loss"
}
layer {
  name: "accuracy"
  type: "Accuracy"
  bottom: "fc8_plantvillage"
  bottom: "label"
  top: "accuracy"
  include {
    phase: TEST
  }
}
I0403 13:08:20.355518 10250 layer_factory.hpp:77] Creating layer data
I0403 13:08:20.356166 10250 net.cpp:91] Creating Layer data
I0403 13:08:20.356199 10250 net.cpp:399] data -> data
I0403 13:08:20.356246 10250 net.cpp:399] data -> label
I0403 13:08:20.356286 10250 data_transformer.cpp:25] Loading mean file from: /home/mohanty/data/final_dataset/lmdb/segmented-50-50/mean.binaryproto
I0403 13:08:20.359284 10255 db_lmdb.cpp:38] Opened lmdb /home/mohanty/data/final_dataset/lmdb/segmented-50-50/test_db
I0403 13:08:20.370193 10250 data_layer.cpp:41] output data size: 100,3,227,227
I0403 13:08:20.487695 10250 net.cpp:141] Setting up data
I0403 13:08:20.487788 10250 net.cpp:148] Top shape: 100 3 227 227 (15458700)
I0403 13:08:20.487810 10250 net.cpp:148] Top shape: 100 (100)
I0403 13:08:20.487825 10250 net.cpp:156] Memory required for data: 61835200
I0403 13:08:20.487854 10250 layer_factory.hpp:77] Creating layer label_data_1_split
I0403 13:08:20.487879 10250 net.cpp:91] Creating Layer label_data_1_split
I0403 13:08:20.487897 10250 net.cpp:425] label_data_1_split <- label
I0403 13:08:20.487931 10250 net.cpp:399] label_data_1_split -> label_data_1_split_0
I0403 13:08:20.487959 10250 net.cpp:399] label_data_1_split -> label_data_1_split_1
I0403 13:08:20.487979 10250 net.cpp:399] label_data_1_split -> label_data_1_split_2
I0403 13:08:20.488042 10250 net.cpp:141] Setting up label_data_1_split
I0403 13:08:20.488066 10250 net.cpp:148] Top shape: 100 (100)
I0403 13:08:20.488082 10250 net.cpp:148] Top shape: 100 (100)
I0403 13:08:20.488098 10250 net.cpp:148] Top shape: 100 (100)
I0403 13:08:20.488112 10250 net.cpp:156] Memory required for data: 61836400
I0403 13:08:20.488127 10250 layer_factory.hpp:77] Creating layer conv1
I0403 13:08:20.488158 10250 net.cpp:91] Creating Layer conv1
I0403 13:08:20.488175 10250 net.cpp:425] conv1 <- data
I0403 13:08:20.488194 10250 net.cpp:399] conv1 -> conv1
I0403 13:08:20.624282 10250 net.cpp:141] Setting up conv1
I0403 13:08:20.624358 10250 net.cpp:148] Top shape: 100 96 55 55 (29040000)
I0403 13:08:20.624375 10250 net.cpp:156] Memory required for data: 177996400
I0403 13:08:20.624407 10250 layer_factory.hpp:77] Creating layer relu1
I0403 13:08:20.624433 10250 net.cpp:91] Creating Layer relu1
I0403 13:08:20.624452 10250 net.cpp:425] relu1 <- conv1
I0403 13:08:20.624471 10250 net.cpp:386] relu1 -> conv1 (in-place)
I0403 13:08:20.624742 10250 net.cpp:141] Setting up relu1
I0403 13:08:20.624770 10250 net.cpp:148] Top shape: 100 96 55 55 (29040000)
I0403 13:08:20.624830 10250 net.cpp:156] Memory required for data: 294156400
I0403 13:08:20.624846 10250 layer_factory.hpp:77] Creating layer norm1
I0403 13:08:20.624878 10250 net.cpp:91] Creating Layer norm1
I0403 13:08:20.624896 10250 net.cpp:425] norm1 <- conv1
I0403 13:08:20.624913 10250 net.cpp:399] norm1 -> norm1
I0403 13:08:20.625224 10250 net.cpp:141] Setting up norm1
I0403 13:08:20.625252 10250 net.cpp:148] Top shape: 100 96 55 55 (29040000)
I0403 13:08:20.625268 10250 net.cpp:156] Memory required for data: 410316400
I0403 13:08:20.625283 10250 layer_factory.hpp:77] Creating layer pool1
I0403 13:08:20.625308 10250 net.cpp:91] Creating Layer pool1
I0403 13:08:20.625324 10250 net.cpp:425] pool1 <- norm1
I0403 13:08:20.625342 10250 net.cpp:399] pool1 -> pool1
I0403 13:08:20.625409 10250 net.cpp:141] Setting up pool1
I0403 13:08:20.625440 10250 net.cpp:148] Top shape: 100 96 27 27 (6998400)
I0403 13:08:20.625455 10250 net.cpp:156] Memory required for data: 438310000
I0403 13:08:20.625469 10250 layer_factory.hpp:77] Creating layer conv2
I0403 13:08:20.625495 10250 net.cpp:91] Creating Layer conv2
I0403 13:08:20.625512 10250 net.cpp:425] conv2 <- pool1
I0403 13:08:20.625530 10250 net.cpp:399] conv2 -> conv2
I0403 13:08:20.641629 10250 net.cpp:141] Setting up conv2
I0403 13:08:20.641683 10250 net.cpp:148] Top shape: 100 256 27 27 (18662400)
I0403 13:08:20.641701 10250 net.cpp:156] Memory required for data: 512959600
I0403 13:08:20.641726 10250 layer_factory.hpp:77] Creating layer relu2
I0403 13:08:20.641746 10250 net.cpp:91] Creating Layer relu2
I0403 13:08:20.641762 10250 net.cpp:425] relu2 <- conv2
I0403 13:08:20.641780 10250 net.cpp:386] relu2 -> conv2 (in-place)
I0403 13:08:20.642052 10250 net.cpp:141] Setting up relu2
I0403 13:08:20.642079 10250 net.cpp:148] Top shape: 100 256 27 27 (18662400)
I0403 13:08:20.642094 10250 net.cpp:156] Memory required for data: 587609200
I0403 13:08:20.642109 10250 layer_factory.hpp:77] Creating layer norm2
I0403 13:08:20.642132 10250 net.cpp:91] Creating Layer norm2
I0403 13:08:20.642148 10250 net.cpp:425] norm2 <- conv2
I0403 13:08:20.642165 10250 net.cpp:399] norm2 -> norm2
I0403 13:08:20.642356 10250 net.cpp:141] Setting up norm2
I0403 13:08:20.642381 10250 net.cpp:148] Top shape: 100 256 27 27 (18662400)
I0403 13:08:20.642397 10250 net.cpp:156] Memory required for data: 662258800
I0403 13:08:20.642412 10250 layer_factory.hpp:77] Creating layer pool2
I0403 13:08:20.642431 10250 net.cpp:91] Creating Layer pool2
I0403 13:08:20.642446 10250 net.cpp:425] pool2 <- norm2
I0403 13:08:20.642464 10250 net.cpp:399] pool2 -> pool2
I0403 13:08:20.642525 10250 net.cpp:141] Setting up pool2
I0403 13:08:20.642549 10250 net.cpp:148] Top shape: 100 256 13 13 (4326400)
I0403 13:08:20.642563 10250 net.cpp:156] Memory required for data: 679564400
I0403 13:08:20.642585 10250 layer_factory.hpp:77] Creating layer conv3
I0403 13:08:20.642608 10250 net.cpp:91] Creating Layer conv3
I0403 13:08:20.642624 10250 net.cpp:425] conv3 <- pool2
I0403 13:08:20.642643 10250 net.cpp:399] conv3 -> conv3
I0403 13:08:20.681474 10250 net.cpp:141] Setting up conv3
I0403 13:08:20.681515 10250 net.cpp:148] Top shape: 100 384 13 13 (6489600)
I0403 13:08:20.681532 10250 net.cpp:156] Memory required for data: 705522800
I0403 13:08:20.681558 10250 layer_factory.hpp:77] Creating layer relu3
I0403 13:08:20.681586 10250 net.cpp:91] Creating Layer relu3
I0403 13:08:20.681607 10250 net.cpp:425] relu3 <- conv3
I0403 13:08:20.681627 10250 net.cpp:386] relu3 -> conv3 (in-place)
I0403 13:08:20.681911 10250 net.cpp:141] Setting up relu3
I0403 13:08:20.681937 10250 net.cpp:148] Top shape: 100 384 13 13 (6489600)
I0403 13:08:20.681952 10250 net.cpp:156] Memory required for data: 731481200
I0403 13:08:20.681967 10250 layer_factory.hpp:77] Creating layer conv4
I0403 13:08:20.681993 10250 net.cpp:91] Creating Layer conv4
I0403 13:08:20.682009 10250 net.cpp:425] conv4 <- conv3
I0403 13:08:20.682030 10250 net.cpp:399] conv4 -> conv4
I0403 13:08:20.711958 10250 net.cpp:141] Setting up conv4
I0403 13:08:20.712030 10250 net.cpp:148] Top shape: 100 384 13 13 (6489600)
I0403 13:08:20.712082 10250 net.cpp:156] Memory required for data: 757439600
I0403 13:08:20.712105 10250 layer_factory.hpp:77] Creating layer relu4
I0403 13:08:20.712128 10250 net.cpp:91] Creating Layer relu4
I0403 13:08:20.712146 10250 net.cpp:425] relu4 <- conv4
I0403 13:08:20.712167 10250 net.cpp:386] relu4 -> conv4 (in-place)
I0403 13:08:20.712460 10250 net.cpp:141] Setting up relu4
I0403 13:08:20.712488 10250 net.cpp:148] Top shape: 100 384 13 13 (6489600)
I0403 13:08:20.712503 10250 net.cpp:156] Memory required for data: 783398000
I0403 13:08:20.712530 10250 layer_factory.hpp:77] Creating layer conv5
I0403 13:08:20.712555 10250 net.cpp:91] Creating Layer conv5
I0403 13:08:20.712579 10250 net.cpp:425] conv5 <- conv4
I0403 13:08:20.712599 10250 net.cpp:399] conv5 -> conv5
I0403 13:08:20.733108 10250 net.cpp:141] Setting up conv5
I0403 13:08:20.733160 10250 net.cpp:148] Top shape: 100 256 13 13 (4326400)
I0403 13:08:20.733176 10250 net.cpp:156] Memory required for data: 800703600
I0403 13:08:20.733199 10250 layer_factory.hpp:77] Creating layer relu5
I0403 13:08:20.733219 10250 net.cpp:91] Creating Layer relu5
I0403 13:08:20.733235 10250 net.cpp:425] relu5 <- conv5
I0403 13:08:20.733255 10250 net.cpp:386] relu5 -> conv5 (in-place)
I0403 13:08:20.733532 10250 net.cpp:141] Setting up relu5
I0403 13:08:20.733559 10250 net.cpp:148] Top shape: 100 256 13 13 (4326400)
I0403 13:08:20.733579 10250 net.cpp:156] Memory required for data: 818009200
I0403 13:08:20.733595 10250 layer_factory.hpp:77] Creating layer pool5
I0403 13:08:20.733620 10250 net.cpp:91] Creating Layer pool5
I0403 13:08:20.733638 10250 net.cpp:425] pool5 <- conv5
I0403 13:08:20.733655 10250 net.cpp:399] pool5 -> pool5
I0403 13:08:20.733716 10250 net.cpp:141] Setting up pool5
I0403 13:08:20.733739 10250 net.cpp:148] Top shape: 100 256 6 6 (921600)
I0403 13:08:20.733754 10250 net.cpp:156] Memory required for data: 821695600
I0403 13:08:20.733768 10250 layer_factory.hpp:77] Creating layer fc6
I0403 13:08:20.733798 10250 net.cpp:91] Creating Layer fc6
I0403 13:08:20.733829 10250 net.cpp:425] fc6 <- pool5
I0403 13:08:20.733846 10250 net.cpp:399] fc6 -> fc6
I0403 13:08:22.283799 10250 net.cpp:141] Setting up fc6
I0403 13:08:22.283879 10250 net.cpp:148] Top shape: 100 4096 (409600)
I0403 13:08:22.283896 10250 net.cpp:156] Memory required for data: 823334000
I0403 13:08:22.283917 10250 layer_factory.hpp:77] Creating layer relu6
I0403 13:08:22.283941 10250 net.cpp:91] Creating Layer relu6
I0403 13:08:22.283956 10250 net.cpp:425] relu6 <- fc6
I0403 13:08:22.283977 10250 net.cpp:386] relu6 -> fc6 (in-place)
I0403 13:08:22.284207 10250 net.cpp:141] Setting up relu6
I0403 13:08:22.284232 10250 net.cpp:148] Top shape: 100 4096 (409600)
I0403 13:08:22.284247 10250 net.cpp:156] Memory required for data: 824972400
I0403 13:08:22.284261 10250 layer_factory.hpp:77] Creating layer drop6
I0403 13:08:22.284281 10250 net.cpp:91] Creating Layer drop6
I0403 13:08:22.284296 10250 net.cpp:425] drop6 <- fc6
I0403 13:08:22.284314 10250 net.cpp:386] drop6 -> fc6 (in-place)
I0403 13:08:22.284365 10250 net.cpp:141] Setting up drop6
I0403 13:08:22.284391 10250 net.cpp:148] Top shape: 100 4096 (409600)
I0403 13:08:22.284407 10250 net.cpp:156] Memory required for data: 826610800
I0403 13:08:22.284421 10250 layer_factory.hpp:77] Creating layer fc7
I0403 13:08:22.284440 10250 net.cpp:91] Creating Layer fc7
I0403 13:08:22.284456 10250 net.cpp:425] fc7 <- fc6
I0403 13:08:22.284476 10250 net.cpp:399] fc7 -> fc7
I0403 13:08:22.967635 10250 net.cpp:141] Setting up fc7
I0403 13:08:22.967707 10250 net.cpp:148] Top shape: 100 4096 (409600)
I0403 13:08:22.967725 10250 net.cpp:156] Memory required for data: 828249200
I0403 13:08:22.967744 10250 layer_factory.hpp:77] Creating layer relu7
I0403 13:08:22.967767 10250 net.cpp:91] Creating Layer relu7
I0403 13:08:22.967783 10250 net.cpp:425] relu7 <- fc7
I0403 13:08:22.967804 10250 net.cpp:386] relu7 -> fc7 (in-place)
I0403 13:08:22.968219 10250 net.cpp:141] Setting up relu7
I0403 13:08:22.968245 10250 net.cpp:148] Top shape: 100 4096 (409600)
I0403 13:08:22.968302 10250 net.cpp:156] Memory required for data: 829887600
I0403 13:08:22.968317 10250 layer_factory.hpp:77] Creating layer drop7
I0403 13:08:22.968335 10250 net.cpp:91] Creating Layer drop7
I0403 13:08:22.968350 10250 net.cpp:425] drop7 <- fc7
I0403 13:08:22.968370 10250 net.cpp:386] drop7 -> fc7 (in-place)
I0403 13:08:22.968412 10250 net.cpp:141] Setting up drop7
I0403 13:08:22.968437 10250 net.cpp:148] Top shape: 100 4096 (409600)
I0403 13:08:22.968451 10250 net.cpp:156] Memory required for data: 831526000
I0403 13:08:22.968466 10250 layer_factory.hpp:77] Creating layer fc8_plantvillage
I0403 13:08:22.968483 10250 net.cpp:91] Creating Layer fc8_plantvillage
I0403 13:08:22.968499 10250 net.cpp:425] fc8_plantvillage <- fc7
I0403 13:08:22.968518 10250 net.cpp:399] fc8_plantvillage -> fc8_plantvillage
I0403 13:08:22.975235 10250 net.cpp:141] Setting up fc8_plantvillage
I0403 13:08:22.975263 10250 net.cpp:148] Top shape: 100 38 (3800)
I0403 13:08:22.975280 10250 net.cpp:156] Memory required for data: 831541200
I0403 13:08:22.975298 10250 layer_factory.hpp:77] Creating layer fc8_plantvillage_fc8_plantvillage_0_split
I0403 13:08:22.975317 10250 net.cpp:91] Creating Layer fc8_plantvillage_fc8_plantvillage_0_split
I0403 13:08:22.975332 10250 net.cpp:425] fc8_plantvillage_fc8_plantvillage_0_split <- fc8_plantvillage
I0403 13:08:22.975353 10250 net.cpp:399] fc8_plantvillage_fc8_plantvillage_0_split -> fc8_plantvillage_fc8_plantvillage_0_split_0
I0403 13:08:22.975374 10250 net.cpp:399] fc8_plantvillage_fc8_plantvillage_0_split -> fc8_plantvillage_fc8_plantvillage_0_split_1
I0403 13:08:22.975394 10250 net.cpp:399] fc8_plantvillage_fc8_plantvillage_0_split -> fc8_plantvillage_fc8_plantvillage_0_split_2
I0403 13:08:22.975471 10250 net.cpp:141] Setting up fc8_plantvillage_fc8_plantvillage_0_split
I0403 13:08:22.975493 10250 net.cpp:148] Top shape: 100 38 (3800)
I0403 13:08:22.975509 10250 net.cpp:148] Top shape: 100 38 (3800)
I0403 13:08:22.975524 10250 net.cpp:148] Top shape: 100 38 (3800)
I0403 13:08:22.975538 10250 net.cpp:156] Memory required for data: 831586800
I0403 13:08:22.975553 10250 layer_factory.hpp:77] Creating layer prob
I0403 13:08:22.975574 10250 net.cpp:91] Creating Layer prob
I0403 13:08:22.975590 10250 net.cpp:425] prob <- fc8_plantvillage_fc8_plantvillage_0_split_0
I0403 13:08:22.975610 10250 net.cpp:399] prob -> prob
I0403 13:08:22.975836 10250 net.cpp:141] Setting up prob
I0403 13:08:22.975862 10250 net.cpp:148] Top shape: 100 38 (3800)
I0403 13:08:22.975875 10250 net.cpp:156] Memory required for data: 831602000
I0403 13:08:22.975890 10250 layer_factory.hpp:77] Creating layer hdf5out
I0403 13:08:22.975908 10250 net.cpp:91] Creating Layer hdf5out
I0403 13:08:22.975922 10250 net.cpp:425] hdf5out <- prob
I0403 13:08:22.975939 10250 net.cpp:425] hdf5out <- label_data_1_split_0
I0403 13:08:22.978400 10250 net.cpp:141] Setting up hdf5out
…
