…
I0403 12:48:04.996223  9677 net.cpp:313] The NetState phase (1) differed from the phase (0) specified by a rule in layer data
I0403 12:48:04.996531  9677 net.cpp:49] Initializing net from parameters: 
state {
  phase: TEST
}
layer {
  name: "data"
  type: "Data"
  top: "data"
  top: "label"
  include {
    phase: TEST
  }
  transform_param {
    crop_size: 227
    mean_file: "/home/mohanty/data/final_dataset/lmdb/segmented-50-50/mean.binaryproto"
  }
  data_param {
    source: "/home/mohanty/data/final_dataset/lmdb/segmented-50-50/test_db"
    batch_size: 100
    backend: LMDB
  }
}
layer {
  name: "conv1"
  type: "Convolution"
  bottom: "data"
  top: "conv1"
  param {
    lr_mult: 1
    decay_mult: 1
  }
  param {
    lr_mult: 2
    decay_mult: 0
  }
  convolution_param {
    num_output: 96
    kernel_size: 11
    stride: 4
    weight_filler {
      type: "gaussian"
      std: 0.01
    }
    bias_filler {
      type: "constant"
      value: 0
    }
  }
}
layer {
  name: "relu1"
  type: "ReLU"
  bottom: "conv1"
  top: "conv1"
}
layer {
  name: "norm1"
  type: "LRN"
  bottom: "conv1"
  top: "norm1"
  lrn_param {
    local_size: 5
    alpha: 0.0001
    beta: 0.75
  }
}
layer {
  name: "pool1"
  type: "Pooling"
  bottom: "norm1"
  top: "pool1"
  pooling_param {
    pool: MAX
    kernel_size: 3
    stride: 2
  }
}
layer {
  name: "conv2"
  type: "Convolution"
  bottom: "pool1"
  top: "conv2"
  param {
    lr_mult: 1
    decay_mult: 1
  }
  param {
    lr_mult: 2
    decay_mult: 0
  }
  convolution_param {
    num_output: 256
    pad: 2
    kernel_size: 5
    group: 2
    weight_filler {
      type: "gaussian"
      std: 0.01
    }
    bias_filler {
      type: "constant"
      value: 0.1
    }
  }
}
layer {
  name: "relu2"
  type: "ReLU"
  bottom: "conv2"
  top: "conv2"
}
layer {
  name: "norm2"
  type: "LRN"
  bottom: "conv2"
  top: "norm2"
  lrn_param {
    local_size: 5
    alpha: 0.0001
    beta: 0.75
  }
}
layer {
  name: "pool2"
  type: "Pooling"
  bottom: "norm2"
  top: "pool2"
  pooling_param {
    pool: MAX
    kernel_size: 3
    stride: 2
  }
}
layer {
  name: "conv3"
  type: "Convolution"
  bottom: "pool2"
  top: "conv3"
  param {
    lr_mult: 1
    decay_mult: 1
  }
  param {
    lr_mult: 2
    decay_mult: 0
  }
  convolution_param {
    num_output: 384
    pad: 1
    kernel_size: 3
    weight_filler {
      type: "gaussian"
      std: 0.01
    }
    bias_filler {
      type: "constant"
      value: 0
    }
  }
}
layer {
  name: "relu3"
  type: "ReLU"
  bottom: "conv3"
  top: "conv3"
}
layer {
  name: "conv4"
  type: "Convolution"
  bottom: "conv3"
  top: "conv4"
  param {
    lr_mult: 1
    decay_mult: 1
  }
  param {
    lr_mult: 2
    decay_mult: 0
  }
  convolution_param {
    num_output: 384
    pad: 1
    kernel_size: 3
    group: 2
    weight_filler {
      type: "gaussian"
      std: 0.01
    }
    bias_filler {
      type: "constant"
      value: 0.1
    }
  }
}
layer {
  name: "relu4"
  type: "ReLU"
  bottom: "conv4"
  top: "conv4"
}
layer {
  name: "conv5"
  type: "Convolution"
  bottom: "conv4"
  top: "conv5"
  param {
    lr_mult: 1
    decay_mult: 1
  }
  param {
    lr_mult: 2
    decay_mult: 0
  }
  convolution_param {
    num_output: 256
    pad: 1
    kernel_size: 3
    group: 2
    weight_filler {
      type: "gaussian"
      std: 0.01
    }
    bias_filler {
      type: "constant"
      value: 0.1
    }
  }
}
layer {
  name: "relu5"
  type: "ReLU"
  bottom: "conv5"
  top: "conv5"
}
layer {
  name: "pool5"
  type: "Pooling"
  bottom: "conv5"
  top: "pool5"
  pooling_param {
    pool: MAX
    kernel_size: 3
    stride: 2
  }
}
layer {
  name: "fc6"
  type: "InnerProduct"
  bottom: "pool5"
  top: "fc6"
  param {
    lr_mult: 1
    decay_mult: 1
  }
  param {
    lr_mult: 2
    decay_mult: 0
  }
  inner_product_param {
    num_output: 4096
    weight_filler {
      type: "gaussian"
      std: 0.005
    }
    bias_filler {
      type: "constant"
      value: 0.1
    }
  }
}
layer {
  name: "relu6"
  type: "ReLU"
  bottom: "fc6"
  top: "fc6"
}
layer {
  name: "drop6"
  type: "Dropout"
  bottom: "fc6"
  top: "fc6"
  dropout_param {
    dropout_ratio: 0.5
  }
}
layer {
  name: "fc7"
  type: "InnerProduct"
  bottom: "fc6"
  top: "fc7"
  param {
    lr_mult: 1
    decay_mult: 1
  }
  param {
    lr_mult: 2
    decay_mult: 0
  }
  inner_product_param {
    num_output: 4096
    weight_filler {
      type: "gaussian"
      std: 0.005
    }
    bias_filler {
      type: "constant"
      value: 0.1
    }
  }
}
layer {
  name: "relu7"
  type: "ReLU"
  bottom: "fc7"
  top: "fc7"
}
layer {
  name: "drop7"
  type: "Dropout"
  bottom: "fc7"
  top: "fc7"
  dropout_param {
    dropout_ratio: 0.5
  }
}
layer {
  name: "fc8_plantvillage"
  type: "InnerProduct"
  bottom: "fc7"
  top: "fc8_plantvillage"
  param {
    lr_mult: 1
    decay_mult: 1
  }
  param {
    lr_mult: 2
    decay_mult: 0
  }
  inner_product_param {
    num_output: 38
    weight_filler {
      type: "gaussian"
      std: 0.01
    }
    bias_filler {
      type: "constant"
      value: 0
    }
  }
}
layer {
  name: "prob"
  type: "Softmax"
  bottom: "fc8_plantvillage"
  top: "prob"
  include {
    phase: TEST
  }
}
layer {
  name: "hdf5out"
  type: "HDF5Output"
  bottom: "prob"
  bottom: "label"
  include {
    phase: TEST
  }
  hdf5_output_param {
    file_name: "hdf5_dumps/iter_1876.h5"
  }
}
layer {
  name: "loss"
  type: "SoftmaxWithLoss"
  bottom: "fc8_plantvillage"
  bottom: "label"
  top: "loss"
}
layer {
  name: "accuracy"
  type: "Accuracy"
  bottom: "fc8_plantvillage"
  bottom: "label"
  top: "accuracy"
  include {
    phase: TEST
  }
}
I0403 12:48:04.997194  9677 layer_factory.hpp:77] Creating layer data
I0403 12:48:04.997889  9677 net.cpp:91] Creating Layer data
I0403 12:48:04.997923  9677 net.cpp:399] data -> data
I0403 12:48:04.997974  9677 net.cpp:399] data -> label
I0403 12:48:04.998011  9677 data_transformer.cpp:25] Loading mean file from: /home/mohanty/data/final_dataset/lmdb/segmented-50-50/mean.binaryproto
I0403 12:48:05.000545  9680 db_lmdb.cpp:38] Opened lmdb /home/mohanty/data/final_dataset/lmdb/segmented-50-50/test_db
I0403 12:48:05.012504  9677 data_layer.cpp:41] output data size: 100,3,227,227
I0403 12:48:05.135547  9677 net.cpp:141] Setting up data
I0403 12:48:05.135612  9677 net.cpp:148] Top shape: 100 3 227 227 (15458700)
I0403 12:48:05.135637  9677 net.cpp:148] Top shape: 100 (100)
I0403 12:48:05.135653  9677 net.cpp:156] Memory required for data: 61835200
I0403 12:48:05.135680  9677 layer_factory.hpp:77] Creating layer label_data_1_split
I0403 12:48:05.135705  9677 net.cpp:91] Creating Layer label_data_1_split
I0403 12:48:05.135723  9677 net.cpp:425] label_data_1_split <- label
I0403 12:48:05.135754  9677 net.cpp:399] label_data_1_split -> label_data_1_split_0
I0403 12:48:05.135782  9677 net.cpp:399] label_data_1_split -> label_data_1_split_1
I0403 12:48:05.135802  9677 net.cpp:399] label_data_1_split -> label_data_1_split_2
I0403 12:48:05.135866  9677 net.cpp:141] Setting up label_data_1_split
I0403 12:48:05.135890  9677 net.cpp:148] Top shape: 100 (100)
I0403 12:48:05.135908  9677 net.cpp:148] Top shape: 100 (100)
I0403 12:48:05.135926  9677 net.cpp:148] Top shape: 100 (100)
I0403 12:48:05.135941  9677 net.cpp:156] Memory required for data: 61836400
I0403 12:48:05.135956  9677 layer_factory.hpp:77] Creating layer conv1
I0403 12:48:05.135987  9677 net.cpp:91] Creating Layer conv1
I0403 12:48:05.136006  9677 net.cpp:425] conv1 <- data
I0403 12:48:05.136026  9677 net.cpp:399] conv1 -> conv1
I0403 12:48:05.279247  9677 net.cpp:141] Setting up conv1
I0403 12:48:05.279326  9677 net.cpp:148] Top shape: 100 96 55 55 (29040000)
I0403 12:48:05.279345  9677 net.cpp:156] Memory required for data: 177996400
I0403 12:48:05.279376  9677 layer_factory.hpp:77] Creating layer relu1
I0403 12:48:05.279405  9677 net.cpp:91] Creating Layer relu1
I0403 12:48:05.279423  9677 net.cpp:425] relu1 <- conv1
I0403 12:48:05.279443  9677 net.cpp:386] relu1 -> conv1 (in-place)
I0403 12:48:05.279707  9677 net.cpp:141] Setting up relu1
I0403 12:48:05.279736  9677 net.cpp:148] Top shape: 100 96 55 55 (29040000)
I0403 12:48:05.279796  9677 net.cpp:156] Memory required for data: 294156400
I0403 12:48:05.279814  9677 layer_factory.hpp:77] Creating layer norm1
I0403 12:48:05.279841  9677 net.cpp:91] Creating Layer norm1
I0403 12:48:05.279860  9677 net.cpp:425] norm1 <- conv1
I0403 12:48:05.279880  9677 net.cpp:399] norm1 -> norm1
I0403 12:48:05.280221  9677 net.cpp:141] Setting up norm1
I0403 12:48:05.280251  9677 net.cpp:148] Top shape: 100 96 55 55 (29040000)
I0403 12:48:05.280269  9677 net.cpp:156] Memory required for data: 410316400
I0403 12:48:05.280284  9677 layer_factory.hpp:77] Creating layer pool1
I0403 12:48:05.280308  9677 net.cpp:91] Creating Layer pool1
I0403 12:48:05.280325  9677 net.cpp:425] pool1 <- norm1
I0403 12:48:05.280344  9677 net.cpp:399] pool1 -> pool1
I0403 12:48:05.280413  9677 net.cpp:141] Setting up pool1
I0403 12:48:05.280438  9677 net.cpp:148] Top shape: 100 96 27 27 (6998400)
I0403 12:48:05.280453  9677 net.cpp:156] Memory required for data: 438310000
I0403 12:48:05.280468  9677 layer_factory.hpp:77] Creating layer conv2
I0403 12:48:05.280493  9677 net.cpp:91] Creating Layer conv2
I0403 12:48:05.280509  9677 net.cpp:425] conv2 <- pool1
I0403 12:48:05.280529  9677 net.cpp:399] conv2 -> conv2
I0403 12:48:05.296121  9677 net.cpp:141] Setting up conv2
I0403 12:48:05.296180  9677 net.cpp:148] Top shape: 100 256 27 27 (18662400)
I0403 12:48:05.296196  9677 net.cpp:156] Memory required for data: 512959600
I0403 12:48:05.296221  9677 layer_factory.hpp:77] Creating layer relu2
I0403 12:48:05.296243  9677 net.cpp:91] Creating Layer relu2
I0403 12:48:05.296263  9677 net.cpp:425] relu2 <- conv2
I0403 12:48:05.296283  9677 net.cpp:386] relu2 -> conv2 (in-place)
I0403 12:48:05.296571  9677 net.cpp:141] Setting up relu2
I0403 12:48:05.296603  9677 net.cpp:148] Top shape: 100 256 27 27 (18662400)
I0403 12:48:05.296622  9677 net.cpp:156] Memory required for data: 587609200
I0403 12:48:05.296638  9677 layer_factory.hpp:77] Creating layer norm2
I0403 12:48:05.296663  9677 net.cpp:91] Creating Layer norm2
I0403 12:48:05.296679  9677 net.cpp:425] norm2 <- conv2
I0403 12:48:05.296700  9677 net.cpp:399] norm2 -> norm2
I0403 12:48:05.296928  9677 net.cpp:141] Setting up norm2
I0403 12:48:05.296957  9677 net.cpp:148] Top shape: 100 256 27 27 (18662400)
I0403 12:48:05.296974  9677 net.cpp:156] Memory required for data: 662258800
I0403 12:48:05.296990  9677 layer_factory.hpp:77] Creating layer pool2
I0403 12:48:05.297010  9677 net.cpp:91] Creating Layer pool2
I0403 12:48:05.297029  9677 net.cpp:425] pool2 <- norm2
I0403 12:48:05.297046  9677 net.cpp:399] pool2 -> pool2
I0403 12:48:05.297103  9677 net.cpp:141] Setting up pool2
I0403 12:48:05.297127  9677 net.cpp:148] Top shape: 100 256 13 13 (4326400)
I0403 12:48:05.297142  9677 net.cpp:156] Memory required for data: 679564400
I0403 12:48:05.297158  9677 layer_factory.hpp:77] Creating layer conv3
I0403 12:48:05.297180  9677 net.cpp:91] Creating Layer conv3
I0403 12:48:05.297197  9677 net.cpp:425] conv3 <- pool2
I0403 12:48:05.297219  9677 net.cpp:399] conv3 -> conv3
I0403 12:48:05.337414  9677 net.cpp:141] Setting up conv3
I0403 12:48:05.337492  9677 net.cpp:148] Top shape: 100 384 13 13 (6489600)
I0403 12:48:05.337510  9677 net.cpp:156] Memory required for data: 705522800
I0403 12:48:05.337540  9677 layer_factory.hpp:77] Creating layer relu3
I0403 12:48:05.337565  9677 net.cpp:91] Creating Layer relu3
I0403 12:48:05.337584  9677 net.cpp:425] relu3 <- conv3
I0403 12:48:05.337609  9677 net.cpp:386] relu3 -> conv3 (in-place)
I0403 12:48:05.337896  9677 net.cpp:141] Setting up relu3
I0403 12:48:05.337924  9677 net.cpp:148] Top shape: 100 384 13 13 (6489600)
I0403 12:48:05.337941  9677 net.cpp:156] Memory required for data: 731481200
I0403 12:48:05.337957  9677 layer_factory.hpp:77] Creating layer conv4
I0403 12:48:05.337985  9677 net.cpp:91] Creating Layer conv4
I0403 12:48:05.338002  9677 net.cpp:425] conv4 <- conv3
I0403 12:48:05.338026  9677 net.cpp:399] conv4 -> conv4
I0403 12:48:05.369551  9677 net.cpp:141] Setting up conv4
I0403 12:48:05.369626  9677 net.cpp:148] Top shape: 100 384 13 13 (6489600)
I0403 12:48:05.369689  9677 net.cpp:156] Memory required for data: 757439600
I0403 12:48:05.369714  9677 layer_factory.hpp:77] Creating layer relu4
I0403 12:48:05.369740  9677 net.cpp:91] Creating Layer relu4
I0403 12:48:05.369760  9677 net.cpp:425] relu4 <- conv4
I0403 12:48:05.369781  9677 net.cpp:386] relu4 -> conv4 (in-place)
I0403 12:48:05.370071  9677 net.cpp:141] Setting up relu4
I0403 12:48:05.370098  9677 net.cpp:148] Top shape: 100 384 13 13 (6489600)
I0403 12:48:05.370115  9677 net.cpp:156] Memory required for data: 783398000
I0403 12:48:05.370131  9677 layer_factory.hpp:77] Creating layer conv5
I0403 12:48:05.370157  9677 net.cpp:91] Creating Layer conv5
I0403 12:48:05.370175  9677 net.cpp:425] conv5 <- conv4
I0403 12:48:05.370199  9677 net.cpp:399] conv5 -> conv5
I0403 12:48:05.393214  9677 net.cpp:141] Setting up conv5
I0403 12:48:05.393280  9677 net.cpp:148] Top shape: 100 256 13 13 (4326400)
I0403 12:48:05.393297  9677 net.cpp:156] Memory required for data: 800703600
I0403 12:48:05.393322  9677 layer_factory.hpp:77] Creating layer relu5
I0403 12:48:05.393399  9677 net.cpp:91] Creating Layer relu5
I0403 12:48:05.393435  9677 net.cpp:425] relu5 <- conv5
I0403 12:48:05.393460  9677 net.cpp:386] relu5 -> conv5 (in-place)
I0403 12:48:05.393789  9677 net.cpp:141] Setting up relu5
I0403 12:48:05.393815  9677 net.cpp:148] Top shape: 100 256 13 13 (4326400)
I0403 12:48:05.393831  9677 net.cpp:156] Memory required for data: 818009200
I0403 12:48:05.393846  9677 layer_factory.hpp:77] Creating layer pool5
I0403 12:48:05.393869  9677 net.cpp:91] Creating Layer pool5
I0403 12:48:05.393885  9677 net.cpp:425] pool5 <- conv5
I0403 12:48:05.393905  9677 net.cpp:399] pool5 -> pool5
I0403 12:48:05.393965  9677 net.cpp:141] Setting up pool5
I0403 12:48:05.393988  9677 net.cpp:148] Top shape: 100 256 6 6 (921600)
I0403 12:48:05.394003  9677 net.cpp:156] Memory required for data: 821695600
I0403 12:48:05.394017  9677 layer_factory.hpp:77] Creating layer fc6
I0403 12:48:05.394047  9677 net.cpp:91] Creating Layer fc6
I0403 12:48:05.394063  9677 net.cpp:425] fc6 <- pool5
I0403 12:48:05.394081  9677 net.cpp:399] fc6 -> fc6
I0403 12:48:06.960485  9677 net.cpp:141] Setting up fc6
I0403 12:48:06.960566  9677 net.cpp:148] Top shape: 100 4096 (409600)
I0403 12:48:06.960597  9677 net.cpp:156] Memory required for data: 823334000
I0403 12:48:06.960618  9677 layer_factory.hpp:77] Creating layer relu6
I0403 12:48:06.960641  9677 net.cpp:91] Creating Layer relu6
I0403 12:48:06.960657  9677 net.cpp:425] relu6 <- fc6
I0403 12:48:06.960680  9677 net.cpp:386] relu6 -> fc6 (in-place)
I0403 12:48:06.960906  9677 net.cpp:141] Setting up relu6
I0403 12:48:06.960932  9677 net.cpp:148] Top shape: 100 4096 (409600)
I0403 12:48:06.960947  9677 net.cpp:156] Memory required for data: 824972400
I0403 12:48:06.960961  9677 layer_factory.hpp:77] Creating layer drop6
I0403 12:48:06.960983  9677 net.cpp:91] Creating Layer drop6
I0403 12:48:06.960997  9677 net.cpp:425] drop6 <- fc6
I0403 12:48:06.961014  9677 net.cpp:386] drop6 -> fc6 (in-place)
I0403 12:48:06.961067  9677 net.cpp:141] Setting up drop6
I0403 12:48:06.961089  9677 net.cpp:148] Top shape: 100 4096 (409600)
I0403 12:48:06.961104  9677 net.cpp:156] Memory required for data: 826610800
I0403 12:48:06.961118  9677 layer_factory.hpp:77] Creating layer fc7
I0403 12:48:06.961138  9677 net.cpp:91] Creating Layer fc7
I0403 12:48:06.961153  9677 net.cpp:425] fc7 <- fc6
I0403 12:48:06.961171  9677 net.cpp:399] fc7 -> fc7
I0403 12:48:07.643944  9677 net.cpp:141] Setting up fc7
I0403 12:48:07.644023  9677 net.cpp:148] Top shape: 100 4096 (409600)
I0403 12:48:07.644039  9677 net.cpp:156] Memory required for data: 828249200
I0403 12:48:07.644060  9677 layer_factory.hpp:77] Creating layer relu7
I0403 12:48:07.644084  9677 net.cpp:91] Creating Layer relu7
I0403 12:48:07.644103  9677 net.cpp:425] relu7 <- fc7
I0403 12:48:07.644122  9677 net.cpp:386] relu7 -> fc7 (in-place)
I0403 12:48:07.644547  9677 net.cpp:141] Setting up relu7
I0403 12:48:07.644583  9677 net.cpp:148] Top shape: 100 4096 (409600)
I0403 12:48:07.644656  9677 net.cpp:156] Memory required for data: 829887600
I0403 12:48:07.644672  9677 layer_factory.hpp:77] Creating layer drop7
I0403 12:48:07.644692  9677 net.cpp:91] Creating Layer drop7
I0403 12:48:07.644709  9677 net.cpp:425] drop7 <- fc7
I0403 12:48:07.644726  9677 net.cpp:386] drop7 -> fc7 (in-place)
I0403 12:48:07.644772  9677 net.cpp:141] Setting up drop7
I0403 12:48:07.644793  9677 net.cpp:148] Top shape: 100 4096 (409600)
I0403 12:48:07.644814  9677 net.cpp:156] Memory required for data: 831526000
I0403 12:48:07.644829  9677 layer_factory.hpp:77] Creating layer fc8_plantvillage
I0403 12:48:07.644848  9677 net.cpp:91] Creating Layer fc8_plantvillage
I0403 12:48:07.644862  9677 net.cpp:425] fc8_plantvillage <- fc7
I0403 12:48:07.644882  9677 net.cpp:399] fc8_plantvillage -> fc8_plantvillage
I0403 12:48:07.651604  9677 net.cpp:141] Setting up fc8_plantvillage
I0403 12:48:07.651633  9677 net.cpp:148] Top shape: 100 38 (3800)
I0403 12:48:07.651648  9677 net.cpp:156] Memory required for data: 831541200
I0403 12:48:07.651666  9677 layer_factory.hpp:77] Creating layer fc8_plantvillage_fc8_plantvillage_0_split
I0403 12:48:07.651686  9677 net.cpp:91] Creating Layer fc8_plantvillage_fc8_plantvillage_0_split
I0403 12:48:07.651702  9677 net.cpp:425] fc8_plantvillage_fc8_plantvillage_0_split <- fc8_plantvillage
I0403 12:48:07.651720  9677 net.cpp:399] fc8_plantvillage_fc8_plantvillage_0_split -> fc8_plantvillage_fc8_plantvillage_0_split_0
I0403 12:48:07.651738  9677 net.cpp:399] fc8_plantvillage_fc8_plantvillage_0_split -> fc8_plantvillage_fc8_plantvillage_0_split_1
I0403 12:48:07.651759  9677 net.cpp:399] fc8_plantvillage_fc8_plantvillage_0_split -> fc8_plantvillage_fc8_plantvillage_0_split_2
I0403 12:48:07.651836  9677 net.cpp:141] Setting up fc8_plantvillage_fc8_plantvillage_0_split
I0403 12:48:07.651859  9677 net.cpp:148] Top shape: 100 38 (3800)
I0403 12:48:07.651875  9677 net.cpp:148] Top shape: 100 38 (3800)
I0403 12:48:07.651890  9677 net.cpp:148] Top shape: 100 38 (3800)
I0403 12:48:07.651903  9677 net.cpp:156] Memory required for data: 831586800
I0403 12:48:07.651918  9677 layer_factory.hpp:77] Creating layer prob
I0403 12:48:07.651938  9677 net.cpp:91] Creating Layer prob
I0403 12:48:07.651954  9677 net.cpp:425] prob <- fc8_plantvillage_fc8_plantvillage_0_split_0
I0403 12:48:07.651971  9677 net.cpp:399] prob -> prob
I0403 12:48:07.652194  9677 net.cpp:141] Setting up prob
I0403 12:48:07.652218  9677 net.cpp:148] Top shape: 100 38 (3800)
I0403 12:48:07.652233  9677 net.cpp:156] Memory required for data: 831602000
I0403 12:48:07.652247  9677 layer_factory.hpp:77] Creating layer hdf5out
I0403 12:48:07.652269  9677 net.cpp:91] Creating Layer hdf5out
I0403 12:48:07.652284  9677 net.cpp:425] hdf5out <- prob
I0403 12:48:07.652300  9677 net.cpp:425] hdf5out <- label_data_1_split_0
I0403 12:48:07.654577  9677 net.cpp:141] Setting up hdf5out
…
