…
I0403 13:07:29.736954 10228 net.cpp:313] The NetState phase (1) differed from the phase (0) specified by a rule in layer data
I0403 13:07:29.737247 10228 net.cpp:49] Initializing net from parameters: 
state {
  phase: TEST
}
layer {
  name: "data"
  type: "Data"
  top: "data"
  top: "label"
  include {
    phase: TEST
  }
  transform_param {
    crop_size: 227
    mean_file: "/home/mohanty/data/final_dataset/lmdb/segmented-50-50/mean.binaryproto"
  }
  data_param {
    source: "/home/mohanty/data/final_dataset/lmdb/segmented-50-50/test_db"
    batch_size: 100
    backend: LMDB
  }
}
layer {
  name: "conv1"
  type: "Convolution"
  bottom: "data"
  top: "conv1"
  param {
    lr_mult: 1
    decay_mult: 1
  }
  param {
    lr_mult: 2
    decay_mult: 0
  }
  convolution_param {
    num_output: 96
    kernel_size: 11
    stride: 4
    weight_filler {
      type: "gaussian"
      std: 0.01
    }
    bias_filler {
      type: "constant"
      value: 0
    }
  }
}
layer {
  name: "relu1"
  type: "ReLU"
  bottom: "conv1"
  top: "conv1"
}
layer {
  name: "norm1"
  type: "LRN"
  bottom: "conv1"
  top: "norm1"
  lrn_param {
    local_size: 5
    alpha: 0.0001
    beta: 0.75
  }
}
layer {
  name: "pool1"
  type: "Pooling"
  bottom: "norm1"
  top: "pool1"
  pooling_param {
    pool: MAX
    kernel_size: 3
    stride: 2
  }
}
layer {
  name: "conv2"
  type: "Convolution"
  bottom: "pool1"
  top: "conv2"
  param {
    lr_mult: 1
    decay_mult: 1
  }
  param {
    lr_mult: 2
    decay_mult: 0
  }
  convolution_param {
    num_output: 256
    pad: 2
    kernel_size: 5
    group: 2
    weight_filler {
      type: "gaussian"
      std: 0.01
    }
    bias_filler {
      type: "constant"
      value: 0.1
    }
  }
}
layer {
  name: "relu2"
  type: "ReLU"
  bottom: "conv2"
  top: "conv2"
}
layer {
  name: "norm2"
  type: "LRN"
  bottom: "conv2"
  top: "norm2"
  lrn_param {
    local_size: 5
    alpha: 0.0001
    beta: 0.75
  }
}
layer {
  name: "pool2"
  type: "Pooling"
  bottom: "norm2"
  top: "pool2"
  pooling_param {
    pool: MAX
    kernel_size: 3
    stride: 2
  }
}
layer {
  name: "conv3"
  type: "Convolution"
  bottom: "pool2"
  top: "conv3"
  param {
    lr_mult: 1
    decay_mult: 1
  }
  param {
    lr_mult: 2
    decay_mult: 0
  }
  convolution_param {
    num_output: 384
    pad: 1
    kernel_size: 3
    weight_filler {
      type: "gaussian"
      std: 0.01
    }
    bias_filler {
      type: "constant"
      value: 0
    }
  }
}
layer {
  name: "relu3"
  type: "ReLU"
  bottom: "conv3"
  top: "conv3"
}
layer {
  name: "conv4"
  type: "Convolution"
  bottom: "conv3"
  top: "conv4"
  param {
    lr_mult: 1
    decay_mult: 1
  }
  param {
    lr_mult: 2
    decay_mult: 0
  }
  convolution_param {
    num_output: 384
    pad: 1
    kernel_size: 3
    group: 2
    weight_filler {
      type: "gaussian"
      std: 0.01
    }
    bias_filler {
      type: "constant"
      value: 0.1
    }
  }
}
layer {
  name: "relu4"
  type: "ReLU"
  bottom: "conv4"
  top: "conv4"
}
layer {
  name: "conv5"
  type: "Convolution"
  bottom: "conv4"
  top: "conv5"
  param {
    lr_mult: 1
    decay_mult: 1
  }
  param {
    lr_mult: 2
    decay_mult: 0
  }
  convolution_param {
    num_output: 256
    pad: 1
    kernel_size: 3
    group: 2
    weight_filler {
      type: "gaussian"
      std: 0.01
    }
    bias_filler {
      type: "constant"
      value: 0.1
    }
  }
}
layer {
  name: "relu5"
  type: "ReLU"
  bottom: "conv5"
  top: "conv5"
}
layer {
  name: "pool5"
  type: "Pooling"
  bottom: "conv5"
  top: "pool5"
  pooling_param {
    pool: MAX
    kernel_size: 3
    stride: 2
  }
}
layer {
  name: "fc6"
  type: "InnerProduct"
  bottom: "pool5"
  top: "fc6"
  param {
    lr_mult: 1
    decay_mult: 1
  }
  param {
    lr_mult: 2
    decay_mult: 0
  }
  inner_product_param {
    num_output: 4096
    weight_filler {
      type: "gaussian"
      std: 0.005
    }
    bias_filler {
      type: "constant"
      value: 0.1
    }
  }
}
layer {
  name: "relu6"
  type: "ReLU"
  bottom: "fc6"
  top: "fc6"
}
layer {
  name: "drop6"
  type: "Dropout"
  bottom: "fc6"
  top: "fc6"
  dropout_param {
    dropout_ratio: 0.5
  }
}
layer {
  name: "fc7"
  type: "InnerProduct"
  bottom: "fc6"
  top: "fc7"
  param {
    lr_mult: 1
    decay_mult: 1
  }
  param {
    lr_mult: 2
    decay_mult: 0
  }
  inner_product_param {
    num_output: 4096
    weight_filler {
      type: "gaussian"
      std: 0.005
    }
    bias_filler {
      type: "constant"
      value: 0.1
    }
  }
}
layer {
  name: "relu7"
  type: "ReLU"
  bottom: "fc7"
  top: "fc7"
}
layer {
  name: "drop7"
  type: "Dropout"
  bottom: "fc7"
  top: "fc7"
  dropout_param {
    dropout_ratio: 0.5
  }
}
layer {
  name: "fc8_plantvillage"
  type: "InnerProduct"
  bottom: "fc7"
  top: "fc8_plantvillage"
  param {
    lr_mult: 1
    decay_mult: 1
  }
  param {
    lr_mult: 2
    decay_mult: 0
  }
  inner_product_param {
    num_output: 38
    weight_filler {
      type: "gaussian"
      std: 0.01
    }
    bias_filler {
      type: "constant"
      value: 0
    }
  }
}
layer {
  name: "prob"
  type: "Softmax"
  bottom: "fc8_plantvillage"
  top: "prob"
  include {
    phase: TEST
  }
}
layer {
  name: "hdf5out"
  type: "HDF5Output"
  bottom: "prob"
  bottom: "label"
  include {
    phase: TEST
  }
  hdf5_output_param {
    file_name: "hdf5_dumps/iter_8040.h5"
  }
}
layer {
  name: "loss"
  type: "SoftmaxWithLoss"
  bottom: "fc8_plantvillage"
  bottom: "label"
  top: "loss"
}
layer {
  name: "accuracy"
  type: "Accuracy"
  bottom: "fc8_plantvillage"
  bottom: "label"
  top: "accuracy"
  include {
    phase: TEST
  }
}
I0403 13:07:29.737808 10228 layer_factory.hpp:77] Creating layer data
I0403 13:07:29.738459 10228 net.cpp:91] Creating Layer data
I0403 13:07:29.738487 10228 net.cpp:399] data -> data
I0403 13:07:29.738535 10228 net.cpp:399] data -> label
I0403 13:07:29.738575 10228 data_transformer.cpp:25] Loading mean file from: /home/mohanty/data/final_dataset/lmdb/segmented-50-50/mean.binaryproto
I0403 13:07:29.741291 10232 db_lmdb.cpp:38] Opened lmdb /home/mohanty/data/final_dataset/lmdb/segmented-50-50/test_db
I0403 13:07:29.752306 10228 data_layer.cpp:41] output data size: 100,3,227,227
I0403 13:07:29.868496 10228 net.cpp:141] Setting up data
I0403 13:07:29.868592 10228 net.cpp:148] Top shape: 100 3 227 227 (15458700)
I0403 13:07:29.868614 10228 net.cpp:148] Top shape: 100 (100)
I0403 13:07:29.868629 10228 net.cpp:156] Memory required for data: 61835200
I0403 13:07:29.868657 10228 layer_factory.hpp:77] Creating layer label_data_1_split
I0403 13:07:29.868682 10228 net.cpp:91] Creating Layer label_data_1_split
I0403 13:07:29.868700 10228 net.cpp:425] label_data_1_split <- label
I0403 13:07:29.868732 10228 net.cpp:399] label_data_1_split -> label_data_1_split_0
I0403 13:07:29.868759 10228 net.cpp:399] label_data_1_split -> label_data_1_split_1
I0403 13:07:29.868778 10228 net.cpp:399] label_data_1_split -> label_data_1_split_2
I0403 13:07:29.868842 10228 net.cpp:141] Setting up label_data_1_split
I0403 13:07:29.868865 10228 net.cpp:148] Top shape: 100 (100)
I0403 13:07:29.868880 10228 net.cpp:148] Top shape: 100 (100)
I0403 13:07:29.868894 10228 net.cpp:148] Top shape: 100 (100)
I0403 13:07:29.868907 10228 net.cpp:156] Memory required for data: 61836400
I0403 13:07:29.868922 10228 layer_factory.hpp:77] Creating layer conv1
I0403 13:07:29.868953 10228 net.cpp:91] Creating Layer conv1
I0403 13:07:29.868971 10228 net.cpp:425] conv1 <- data
I0403 13:07:29.868989 10228 net.cpp:399] conv1 -> conv1
I0403 13:07:30.010491 10228 net.cpp:141] Setting up conv1
I0403 13:07:30.010593 10228 net.cpp:148] Top shape: 100 96 55 55 (29040000)
I0403 13:07:30.010614 10228 net.cpp:156] Memory required for data: 177996400
I0403 13:07:30.010645 10228 layer_factory.hpp:77] Creating layer relu1
I0403 13:07:30.010675 10228 net.cpp:91] Creating Layer relu1
I0403 13:07:30.010694 10228 net.cpp:425] relu1 <- conv1
I0403 13:07:30.010713 10228 net.cpp:386] relu1 -> conv1 (in-place)
I0403 13:07:30.010990 10228 net.cpp:141] Setting up relu1
I0403 13:07:30.011018 10228 net.cpp:148] Top shape: 100 96 55 55 (29040000)
I0403 13:07:30.011077 10228 net.cpp:156] Memory required for data: 294156400
I0403 13:07:30.011093 10228 layer_factory.hpp:77] Creating layer norm1
I0403 13:07:30.011122 10228 net.cpp:91] Creating Layer norm1
I0403 13:07:30.011142 10228 net.cpp:425] norm1 <- conv1
I0403 13:07:30.011162 10228 net.cpp:399] norm1 -> norm1
I0403 13:07:30.011487 10228 net.cpp:141] Setting up norm1
I0403 13:07:30.011517 10228 net.cpp:148] Top shape: 100 96 55 55 (29040000)
I0403 13:07:30.011533 10228 net.cpp:156] Memory required for data: 410316400
I0403 13:07:30.011548 10228 layer_factory.hpp:77] Creating layer pool1
I0403 13:07:30.011574 10228 net.cpp:91] Creating Layer pool1
I0403 13:07:30.011593 10228 net.cpp:425] pool1 <- norm1
I0403 13:07:30.011615 10228 net.cpp:399] pool1 -> pool1
I0403 13:07:30.011684 10228 net.cpp:141] Setting up pool1
I0403 13:07:30.011709 10228 net.cpp:148] Top shape: 100 96 27 27 (6998400)
I0403 13:07:30.011724 10228 net.cpp:156] Memory required for data: 438310000
I0403 13:07:30.011739 10228 layer_factory.hpp:77] Creating layer conv2
I0403 13:07:30.011765 10228 net.cpp:91] Creating Layer conv2
I0403 13:07:30.011781 10228 net.cpp:425] conv2 <- pool1
I0403 13:07:30.011801 10228 net.cpp:399] conv2 -> conv2
I0403 13:07:30.027009 10228 net.cpp:141] Setting up conv2
I0403 13:07:30.027061 10228 net.cpp:148] Top shape: 100 256 27 27 (18662400)
I0403 13:07:30.027081 10228 net.cpp:156] Memory required for data: 512959600
I0403 13:07:30.027102 10228 layer_factory.hpp:77] Creating layer relu2
I0403 13:07:30.027122 10228 net.cpp:91] Creating Layer relu2
I0403 13:07:30.027137 10228 net.cpp:425] relu2 <- conv2
I0403 13:07:30.027154 10228 net.cpp:386] relu2 -> conv2 (in-place)
I0403 13:07:30.027436 10228 net.cpp:141] Setting up relu2
I0403 13:07:30.027463 10228 net.cpp:148] Top shape: 100 256 27 27 (18662400)
I0403 13:07:30.027478 10228 net.cpp:156] Memory required for data: 587609200
I0403 13:07:30.027493 10228 layer_factory.hpp:77] Creating layer norm2
I0403 13:07:30.027516 10228 net.cpp:91] Creating Layer norm2
I0403 13:07:30.027534 10228 net.cpp:425] norm2 <- conv2
I0403 13:07:30.027551 10228 net.cpp:399] norm2 -> norm2
I0403 13:07:30.027756 10228 net.cpp:141] Setting up norm2
I0403 13:07:30.027784 10228 net.cpp:148] Top shape: 100 256 27 27 (18662400)
I0403 13:07:30.027801 10228 net.cpp:156] Memory required for data: 662258800
I0403 13:07:30.027815 10228 layer_factory.hpp:77] Creating layer pool2
I0403 13:07:30.027834 10228 net.cpp:91] Creating Layer pool2
I0403 13:07:30.027849 10228 net.cpp:425] pool2 <- norm2
I0403 13:07:30.027866 10228 net.cpp:399] pool2 -> pool2
I0403 13:07:30.027918 10228 net.cpp:141] Setting up pool2
I0403 13:07:30.027942 10228 net.cpp:148] Top shape: 100 256 13 13 (4326400)
I0403 13:07:30.027957 10228 net.cpp:156] Memory required for data: 679564400
I0403 13:07:30.027972 10228 layer_factory.hpp:77] Creating layer conv3
I0403 13:07:30.027997 10228 net.cpp:91] Creating Layer conv3
I0403 13:07:30.028013 10228 net.cpp:425] conv3 <- pool2
I0403 13:07:30.028034 10228 net.cpp:399] conv3 -> conv3
I0403 13:07:30.066825 10228 net.cpp:141] Setting up conv3
I0403 13:07:30.066900 10228 net.cpp:148] Top shape: 100 384 13 13 (6489600)
I0403 13:07:30.066917 10228 net.cpp:156] Memory required for data: 705522800
I0403 13:07:30.066943 10228 layer_factory.hpp:77] Creating layer relu3
I0403 13:07:30.066965 10228 net.cpp:91] Creating Layer relu3
I0403 13:07:30.066983 10228 net.cpp:425] relu3 <- conv3
I0403 13:07:30.067004 10228 net.cpp:386] relu3 -> conv3 (in-place)
I0403 13:07:30.067317 10228 net.cpp:141] Setting up relu3
I0403 13:07:30.067349 10228 net.cpp:148] Top shape: 100 384 13 13 (6489600)
I0403 13:07:30.067366 10228 net.cpp:156] Memory required for data: 731481200
I0403 13:07:30.067381 10228 layer_factory.hpp:77] Creating layer conv4
I0403 13:07:30.067407 10228 net.cpp:91] Creating Layer conv4
I0403 13:07:30.067425 10228 net.cpp:425] conv4 <- conv3
I0403 13:07:30.067443 10228 net.cpp:399] conv4 -> conv4
I0403 13:07:30.097471 10228 net.cpp:141] Setting up conv4
I0403 13:07:30.097535 10228 net.cpp:148] Top shape: 100 384 13 13 (6489600)
I0403 13:07:30.097594 10228 net.cpp:156] Memory required for data: 757439600
I0403 13:07:30.097616 10228 layer_factory.hpp:77] Creating layer relu4
I0403 13:07:30.097641 10228 net.cpp:91] Creating Layer relu4
I0403 13:07:30.097659 10228 net.cpp:425] relu4 <- conv4
I0403 13:07:30.097678 10228 net.cpp:386] relu4 -> conv4 (in-place)
I0403 13:07:30.097972 10228 net.cpp:141] Setting up relu4
I0403 13:07:30.098000 10228 net.cpp:148] Top shape: 100 384 13 13 (6489600)
I0403 13:07:30.098016 10228 net.cpp:156] Memory required for data: 783398000
I0403 13:07:30.098031 10228 layer_factory.hpp:77] Creating layer conv5
I0403 13:07:30.098058 10228 net.cpp:91] Creating Layer conv5
I0403 13:07:30.098086 10228 net.cpp:425] conv5 <- conv4
I0403 13:07:30.098104 10228 net.cpp:399] conv5 -> conv5
I0403 13:07:30.118734 10228 net.cpp:141] Setting up conv5
I0403 13:07:30.118804 10228 net.cpp:148] Top shape: 100 256 13 13 (4326400)
I0403 13:07:30.118821 10228 net.cpp:156] Memory required for data: 800703600
I0403 13:07:30.118845 10228 layer_factory.hpp:77] Creating layer relu5
I0403 13:07:30.118865 10228 net.cpp:91] Creating Layer relu5
I0403 13:07:30.118881 10228 net.cpp:425] relu5 <- conv5
I0403 13:07:30.118898 10228 net.cpp:386] relu5 -> conv5 (in-place)
I0403 13:07:30.119170 10228 net.cpp:141] Setting up relu5
I0403 13:07:30.119199 10228 net.cpp:148] Top shape: 100 256 13 13 (4326400)
I0403 13:07:30.119213 10228 net.cpp:156] Memory required for data: 818009200
I0403 13:07:30.119227 10228 layer_factory.hpp:77] Creating layer pool5
I0403 13:07:30.119248 10228 net.cpp:91] Creating Layer pool5
I0403 13:07:30.119266 10228 net.cpp:425] pool5 <- conv5
I0403 13:07:30.119285 10228 net.cpp:399] pool5 -> pool5
I0403 13:07:30.119346 10228 net.cpp:141] Setting up pool5
I0403 13:07:30.119369 10228 net.cpp:148] Top shape: 100 256 6 6 (921600)
I0403 13:07:30.119384 10228 net.cpp:156] Memory required for data: 821695600
I0403 13:07:30.119397 10228 layer_factory.hpp:77] Creating layer fc6
I0403 13:07:30.119426 10228 net.cpp:91] Creating Layer fc6
I0403 13:07:30.119442 10228 net.cpp:425] fc6 <- pool5
I0403 13:07:30.119462 10228 net.cpp:399] fc6 -> fc6
I0403 13:07:31.678637 10228 net.cpp:141] Setting up fc6
I0403 13:07:31.678714 10228 net.cpp:148] Top shape: 100 4096 (409600)
I0403 13:07:31.678730 10228 net.cpp:156] Memory required for data: 823334000
I0403 13:07:31.678751 10228 layer_factory.hpp:77] Creating layer relu6
I0403 13:07:31.678776 10228 net.cpp:91] Creating Layer relu6
I0403 13:07:31.678793 10228 net.cpp:425] relu6 <- fc6
I0403 13:07:31.678813 10228 net.cpp:386] relu6 -> fc6 (in-place)
I0403 13:07:31.679042 10228 net.cpp:141] Setting up relu6
I0403 13:07:31.679069 10228 net.cpp:148] Top shape: 100 4096 (409600)
I0403 13:07:31.679085 10228 net.cpp:156] Memory required for data: 824972400
I0403 13:07:31.679098 10228 layer_factory.hpp:77] Creating layer drop6
I0403 13:07:31.679116 10228 net.cpp:91] Creating Layer drop6
I0403 13:07:31.679131 10228 net.cpp:425] drop6 <- fc6
I0403 13:07:31.679148 10228 net.cpp:386] drop6 -> fc6 (in-place)
I0403 13:07:31.679203 10228 net.cpp:141] Setting up drop6
I0403 13:07:31.679226 10228 net.cpp:148] Top shape: 100 4096 (409600)
I0403 13:07:31.679240 10228 net.cpp:156] Memory required for data: 826610800
I0403 13:07:31.679255 10228 layer_factory.hpp:77] Creating layer fc7
I0403 13:07:31.679275 10228 net.cpp:91] Creating Layer fc7
I0403 13:07:31.679291 10228 net.cpp:425] fc7 <- fc6
I0403 13:07:31.679308 10228 net.cpp:399] fc7 -> fc7
I0403 13:07:32.362372 10228 net.cpp:141] Setting up fc7
I0403 13:07:32.362448 10228 net.cpp:148] Top shape: 100 4096 (409600)
I0403 13:07:32.362463 10228 net.cpp:156] Memory required for data: 828249200
I0403 13:07:32.362484 10228 layer_factory.hpp:77] Creating layer relu7
I0403 13:07:32.362509 10228 net.cpp:91] Creating Layer relu7
I0403 13:07:32.362527 10228 net.cpp:425] relu7 <- fc7
I0403 13:07:32.362546 10228 net.cpp:386] relu7 -> fc7 (in-place)
I0403 13:07:32.362968 10228 net.cpp:141] Setting up relu7
I0403 13:07:32.362998 10228 net.cpp:148] Top shape: 100 4096 (409600)
I0403 13:07:32.363052 10228 net.cpp:156] Memory required for data: 829887600
I0403 13:07:32.363067 10228 layer_factory.hpp:77] Creating layer drop7
I0403 13:07:32.363086 10228 net.cpp:91] Creating Layer drop7
I0403 13:07:32.363101 10228 net.cpp:425] drop7 <- fc7
I0403 13:07:32.363117 10228 net.cpp:386] drop7 -> fc7 (in-place)
I0403 13:07:32.363168 10228 net.cpp:141] Setting up drop7
I0403 13:07:32.363189 10228 net.cpp:148] Top shape: 100 4096 (409600)
I0403 13:07:32.363203 10228 net.cpp:156] Memory required for data: 831526000
I0403 13:07:32.363216 10228 layer_factory.hpp:77] Creating layer fc8_plantvillage
I0403 13:07:32.363239 10228 net.cpp:91] Creating Layer fc8_plantvillage
I0403 13:07:32.363255 10228 net.cpp:425] fc8_plantvillage <- fc7
I0403 13:07:32.363271 10228 net.cpp:399] fc8_plantvillage -> fc8_plantvillage
I0403 13:07:32.369988 10228 net.cpp:141] Setting up fc8_plantvillage
I0403 13:07:32.370017 10228 net.cpp:148] Top shape: 100 38 (3800)
I0403 13:07:32.370031 10228 net.cpp:156] Memory required for data: 831541200
I0403 13:07:32.370048 10228 layer_factory.hpp:77] Creating layer fc8_plantvillage_fc8_plantvillage_0_split
I0403 13:07:32.370066 10228 net.cpp:91] Creating Layer fc8_plantvillage_fc8_plantvillage_0_split
I0403 13:07:32.370081 10228 net.cpp:425] fc8_plantvillage_fc8_plantvillage_0_split <- fc8_plantvillage
I0403 13:07:32.370100 10228 net.cpp:399] fc8_plantvillage_fc8_plantvillage_0_split -> fc8_plantvillage_fc8_plantvillage_0_split_0
I0403 13:07:32.370121 10228 net.cpp:399] fc8_plantvillage_fc8_plantvillage_0_split -> fc8_plantvillage_fc8_plantvillage_0_split_1
I0403 13:07:32.370139 10228 net.cpp:399] fc8_plantvillage_fc8_plantvillage_0_split -> fc8_plantvillage_fc8_plantvillage_0_split_2
I0403 13:07:32.370215 10228 net.cpp:141] Setting up fc8_plantvillage_fc8_plantvillage_0_split
I0403 13:07:32.370239 10228 net.cpp:148] Top shape: 100 38 (3800)
I0403 13:07:32.370254 10228 net.cpp:148] Top shape: 100 38 (3800)
I0403 13:07:32.370270 10228 net.cpp:148] Top shape: 100 38 (3800)
I0403 13:07:32.370282 10228 net.cpp:156] Memory required for data: 831586800
I0403 13:07:32.370296 10228 layer_factory.hpp:77] Creating layer prob
I0403 13:07:32.370313 10228 net.cpp:91] Creating Layer prob
I0403 13:07:32.370327 10228 net.cpp:425] prob <- fc8_plantvillage_fc8_plantvillage_0_split_0
I0403 13:07:32.370344 10228 net.cpp:399] prob -> prob
I0403 13:07:32.370573 10228 net.cpp:141] Setting up prob
I0403 13:07:32.370599 10228 net.cpp:148] Top shape: 100 38 (3800)
I0403 13:07:32.370614 10228 net.cpp:156] Memory required for data: 831602000
I0403 13:07:32.370627 10228 layer_factory.hpp:77] Creating layer hdf5out
I0403 13:07:32.370650 10228 net.cpp:91] Creating Layer hdf5out
I0403 13:07:32.370666 10228 net.cpp:425] hdf5out <- prob
I0403 13:07:32.370682 10228 net.cpp:425] hdf5out <- label_data_1_split_0
I0403 13:07:32.373312 10228 net.cpp:141] Setting up hdf5out
…
