…
I0403 12:52:19.714800  9792 net.cpp:313] The NetState phase (1) differed from the phase (0) specified by a rule in layer data
I0403 12:52:19.715092  9792 net.cpp:49] Initializing net from parameters: 
state {
  phase: TEST
}
layer {
  name: "data"
  type: "Data"
  top: "data"
  top: "label"
  include {
    phase: TEST
  }
  transform_param {
    crop_size: 227
    mean_file: "/home/mohanty/data/final_dataset/lmdb/segmented-50-50/mean.binaryproto"
  }
  data_param {
    source: "/home/mohanty/data/final_dataset/lmdb/segmented-50-50/test_db"
    batch_size: 100
    backend: LMDB
  }
}
layer {
  name: "conv1"
  type: "Convolution"
  bottom: "data"
  top: "conv1"
  param {
    lr_mult: 1
    decay_mult: 1
  }
  param {
    lr_mult: 2
    decay_mult: 0
  }
  convolution_param {
    num_output: 96
    kernel_size: 11
    stride: 4
    weight_filler {
      type: "gaussian"
      std: 0.01
    }
    bias_filler {
      type: "constant"
      value: 0
    }
  }
}
layer {
  name: "relu1"
  type: "ReLU"
  bottom: "conv1"
  top: "conv1"
}
layer {
  name: "norm1"
  type: "LRN"
  bottom: "conv1"
  top: "norm1"
  lrn_param {
    local_size: 5
    alpha: 0.0001
    beta: 0.75
  }
}
layer {
  name: "pool1"
  type: "Pooling"
  bottom: "norm1"
  top: "pool1"
  pooling_param {
    pool: MAX
    kernel_size: 3
    stride: 2
  }
}
layer {
  name: "conv2"
  type: "Convolution"
  bottom: "pool1"
  top: "conv2"
  param {
    lr_mult: 1
    decay_mult: 1
  }
  param {
    lr_mult: 2
    decay_mult: 0
  }
  convolution_param {
    num_output: 256
    pad: 2
    kernel_size: 5
    group: 2
    weight_filler {
      type: "gaussian"
      std: 0.01
    }
    bias_filler {
      type: "constant"
      value: 0.1
    }
  }
}
layer {
  name: "relu2"
  type: "ReLU"
  bottom: "conv2"
  top: "conv2"
}
layer {
  name: "norm2"
  type: "LRN"
  bottom: "conv2"
  top: "norm2"
  lrn_param {
    local_size: 5
    alpha: 0.0001
    beta: 0.75
  }
}
layer {
  name: "pool2"
  type: "Pooling"
  bottom: "norm2"
  top: "pool2"
  pooling_param {
    pool: MAX
    kernel_size: 3
    stride: 2
  }
}
layer {
  name: "conv3"
  type: "Convolution"
  bottom: "pool2"
  top: "conv3"
  param {
    lr_mult: 1
    decay_mult: 1
  }
  param {
    lr_mult: 2
    decay_mult: 0
  }
  convolution_param {
    num_output: 384
    pad: 1
    kernel_size: 3
    weight_filler {
      type: "gaussian"
      std: 0.01
    }
    bias_filler {
      type: "constant"
      value: 0
    }
  }
}
layer {
  name: "relu3"
  type: "ReLU"
  bottom: "conv3"
  top: "conv3"
}
layer {
  name: "conv4"
  type: "Convolution"
  bottom: "conv3"
  top: "conv4"
  param {
    lr_mult: 1
    decay_mult: 1
  }
  param {
    lr_mult: 2
    decay_mult: 0
  }
  convolution_param {
    num_output: 384
    pad: 1
    kernel_size: 3
    group: 2
    weight_filler {
      type: "gaussian"
      std: 0.01
    }
    bias_filler {
      type: "constant"
      value: 0.1
    }
  }
}
layer {
  name: "relu4"
  type: "ReLU"
  bottom: "conv4"
  top: "conv4"
}
layer {
  name: "conv5"
  type: "Convolution"
  bottom: "conv4"
  top: "conv5"
  param {
    lr_mult: 1
    decay_mult: 1
  }
  param {
    lr_mult: 2
    decay_mult: 0
  }
  convolution_param {
    num_output: 256
    pad: 1
    kernel_size: 3
    group: 2
    weight_filler {
      type: "gaussian"
      std: 0.01
    }
    bias_filler {
      type: "constant"
      value: 0.1
    }
  }
}
layer {
  name: "relu5"
  type: "ReLU"
  bottom: "conv5"
  top: "conv5"
}
layer {
  name: "pool5"
  type: "Pooling"
  bottom: "conv5"
  top: "pool5"
  pooling_param {
    pool: MAX
    kernel_size: 3
    stride: 2
  }
}
layer {
  name: "fc6"
  type: "InnerProduct"
  bottom: "pool5"
  top: "fc6"
  param {
    lr_mult: 1
    decay_mult: 1
  }
  param {
    lr_mult: 2
    decay_mult: 0
  }
  inner_product_param {
    num_output: 4096
    weight_filler {
      type: "gaussian"
      std: 0.005
    }
    bias_filler {
      type: "constant"
      value: 0.1
    }
  }
}
layer {
  name: "relu6"
  type: "ReLU"
  bottom: "fc6"
  top: "fc6"
}
layer {
  name: "drop6"
  type: "Dropout"
  bottom: "fc6"
  top: "fc6"
  dropout_param {
    dropout_ratio: 0.5
  }
}
layer {
  name: "fc7"
  type: "InnerProduct"
  bottom: "fc6"
  top: "fc7"
  param {
    lr_mult: 1
    decay_mult: 1
  }
  param {
    lr_mult: 2
    decay_mult: 0
  }
  inner_product_param {
    num_output: 4096
    weight_filler {
      type: "gaussian"
      std: 0.005
    }
    bias_filler {
      type: "constant"
      value: 0.1
    }
  }
}
layer {
  name: "relu7"
  type: "ReLU"
  bottom: "fc7"
  top: "fc7"
}
layer {
  name: "drop7"
  type: "Dropout"
  bottom: "fc7"
  top: "fc7"
  dropout_param {
    dropout_ratio: 0.5
  }
}
layer {
  name: "fc8_plantvillage"
  type: "InnerProduct"
  bottom: "fc7"
  top: "fc8_plantvillage"
  param {
    lr_mult: 1
    decay_mult: 1
  }
  param {
    lr_mult: 2
    decay_mult: 0
  }
  inner_product_param {
    num_output: 38
    weight_filler {
      type: "gaussian"
      std: 0.01
    }
    bias_filler {
      type: "constant"
      value: 0
    }
  }
}
layer {
  name: "prob"
  type: "Softmax"
  bottom: "fc8_plantvillage"
  top: "prob"
  include {
    phase: TEST
  }
}
layer {
  name: "hdf5out"
  type: "HDF5Output"
  bottom: "prob"
  bottom: "label"
  include {
    phase: TEST
  }
  hdf5_output_param {
    file_name: "hdf5_dumps/iter_3216.h5"
  }
}
layer {
  name: "loss"
  type: "SoftmaxWithLoss"
  bottom: "fc8_plantvillage"
  bottom: "label"
  top: "loss"
}
layer {
  name: "accuracy"
  type: "Accuracy"
  bottom: "fc8_plantvillage"
  bottom: "label"
  top: "accuracy"
  include {
    phase: TEST
  }
}
I0403 12:52:19.715703  9792 layer_factory.hpp:77] Creating layer data
I0403 12:52:19.716341  9792 net.cpp:91] Creating Layer data
I0403 12:52:19.716372  9792 net.cpp:399] data -> data
I0403 12:52:19.716420  9792 net.cpp:399] data -> label
I0403 12:52:19.716455  9792 data_transformer.cpp:25] Loading mean file from: /home/mohanty/data/final_dataset/lmdb/segmented-50-50/mean.binaryproto
I0403 12:52:19.730803  9797 db_lmdb.cpp:38] Opened lmdb /home/mohanty/data/final_dataset/lmdb/segmented-50-50/test_db
I0403 12:52:19.735777  9792 data_layer.cpp:41] output data size: 100,3,227,227
I0403 12:52:19.854864  9792 net.cpp:141] Setting up data
I0403 12:52:19.854956  9792 net.cpp:148] Top shape: 100 3 227 227 (15458700)
I0403 12:52:19.854979  9792 net.cpp:148] Top shape: 100 (100)
I0403 12:52:19.854995  9792 net.cpp:156] Memory required for data: 61835200
I0403 12:52:19.855022  9792 layer_factory.hpp:77] Creating layer label_data_1_split
I0403 12:52:19.855047  9792 net.cpp:91] Creating Layer label_data_1_split
I0403 12:52:19.855065  9792 net.cpp:425] label_data_1_split <- label
I0403 12:52:19.855098  9792 net.cpp:399] label_data_1_split -> label_data_1_split_0
I0403 12:52:19.855124  9792 net.cpp:399] label_data_1_split -> label_data_1_split_1
I0403 12:52:19.855145  9792 net.cpp:399] label_data_1_split -> label_data_1_split_2
I0403 12:52:19.855209  9792 net.cpp:141] Setting up label_data_1_split
I0403 12:52:19.855232  9792 net.cpp:148] Top shape: 100 (100)
I0403 12:52:19.855249  9792 net.cpp:148] Top shape: 100 (100)
I0403 12:52:19.855265  9792 net.cpp:148] Top shape: 100 (100)
I0403 12:52:19.855279  9792 net.cpp:156] Memory required for data: 61836400
I0403 12:52:19.855296  9792 layer_factory.hpp:77] Creating layer conv1
I0403 12:52:19.855329  9792 net.cpp:91] Creating Layer conv1
I0403 12:52:19.855346  9792 net.cpp:425] conv1 <- data
I0403 12:52:19.855366  9792 net.cpp:399] conv1 -> conv1
I0403 12:52:19.992923  9792 net.cpp:141] Setting up conv1
I0403 12:52:19.993001  9792 net.cpp:148] Top shape: 100 96 55 55 (29040000)
I0403 12:52:19.993018  9792 net.cpp:156] Memory required for data: 177996400
I0403 12:52:19.993049  9792 layer_factory.hpp:77] Creating layer relu1
I0403 12:52:19.993077  9792 net.cpp:91] Creating Layer relu1
I0403 12:52:19.993095  9792 net.cpp:425] relu1 <- conv1
I0403 12:52:19.993114  9792 net.cpp:386] relu1 -> conv1 (in-place)
I0403 12:52:19.993381  9792 net.cpp:141] Setting up relu1
I0403 12:52:19.993409  9792 net.cpp:148] Top shape: 100 96 55 55 (29040000)
I0403 12:52:19.993458  9792 net.cpp:156] Memory required for data: 294156400
I0403 12:52:19.993475  9792 layer_factory.hpp:77] Creating layer norm1
I0403 12:52:19.993504  9792 net.cpp:91] Creating Layer norm1
I0403 12:52:19.993522  9792 net.cpp:425] norm1 <- conv1
I0403 12:52:19.993541  9792 net.cpp:399] norm1 -> norm1
I0403 12:52:19.993857  9792 net.cpp:141] Setting up norm1
I0403 12:52:19.993885  9792 net.cpp:148] Top shape: 100 96 55 55 (29040000)
I0403 12:52:19.993901  9792 net.cpp:156] Memory required for data: 410316400
I0403 12:52:19.993916  9792 layer_factory.hpp:77] Creating layer pool1
I0403 12:52:19.993939  9792 net.cpp:91] Creating Layer pool1
I0403 12:52:19.993957  9792 net.cpp:425] pool1 <- norm1
I0403 12:52:19.993978  9792 net.cpp:399] pool1 -> pool1
I0403 12:52:19.994048  9792 net.cpp:141] Setting up pool1
I0403 12:52:19.994073  9792 net.cpp:148] Top shape: 100 96 27 27 (6998400)
I0403 12:52:19.994087  9792 net.cpp:156] Memory required for data: 438310000
I0403 12:52:19.994103  9792 layer_factory.hpp:77] Creating layer conv2
I0403 12:52:19.994130  9792 net.cpp:91] Creating Layer conv2
I0403 12:52:19.994148  9792 net.cpp:425] conv2 <- pool1
I0403 12:52:19.994168  9792 net.cpp:399] conv2 -> conv2
I0403 12:52:20.009297  9792 net.cpp:141] Setting up conv2
I0403 12:52:20.009346  9792 net.cpp:148] Top shape: 100 256 27 27 (18662400)
I0403 12:52:20.009361  9792 net.cpp:156] Memory required for data: 512959600
I0403 12:52:20.009383  9792 layer_factory.hpp:77] Creating layer relu2
I0403 12:52:20.009403  9792 net.cpp:91] Creating Layer relu2
I0403 12:52:20.009423  9792 net.cpp:425] relu2 <- conv2
I0403 12:52:20.009441  9792 net.cpp:386] relu2 -> conv2 (in-place)
I0403 12:52:20.009727  9792 net.cpp:141] Setting up relu2
I0403 12:52:20.009753  9792 net.cpp:148] Top shape: 100 256 27 27 (18662400)
I0403 12:52:20.009769  9792 net.cpp:156] Memory required for data: 587609200
I0403 12:52:20.009784  9792 layer_factory.hpp:77] Creating layer norm2
I0403 12:52:20.009807  9792 net.cpp:91] Creating Layer norm2
I0403 12:52:20.009825  9792 net.cpp:425] norm2 <- conv2
I0403 12:52:20.009842  9792 net.cpp:399] norm2 -> norm2
I0403 12:52:20.010052  9792 net.cpp:141] Setting up norm2
I0403 12:52:20.010078  9792 net.cpp:148] Top shape: 100 256 27 27 (18662400)
I0403 12:52:20.010093  9792 net.cpp:156] Memory required for data: 662258800
I0403 12:52:20.010109  9792 layer_factory.hpp:77] Creating layer pool2
I0403 12:52:20.010128  9792 net.cpp:91] Creating Layer pool2
I0403 12:52:20.010143  9792 net.cpp:425] pool2 <- norm2
I0403 12:52:20.010164  9792 net.cpp:399] pool2 -> pool2
I0403 12:52:20.010215  9792 net.cpp:141] Setting up pool2
I0403 12:52:20.010241  9792 net.cpp:148] Top shape: 100 256 13 13 (4326400)
I0403 12:52:20.010257  9792 net.cpp:156] Memory required for data: 679564400
I0403 12:52:20.010272  9792 layer_factory.hpp:77] Creating layer conv3
I0403 12:52:20.010294  9792 net.cpp:91] Creating Layer conv3
I0403 12:52:20.010313  9792 net.cpp:425] conv3 <- pool2
I0403 12:52:20.010330  9792 net.cpp:399] conv3 -> conv3
I0403 12:52:20.048888  9792 net.cpp:141] Setting up conv3
I0403 12:52:20.048949  9792 net.cpp:148] Top shape: 100 384 13 13 (6489600)
I0403 12:52:20.048965  9792 net.cpp:156] Memory required for data: 705522800
I0403 12:52:20.048990  9792 layer_factory.hpp:77] Creating layer relu3
I0403 12:52:20.049013  9792 net.cpp:91] Creating Layer relu3
I0403 12:52:20.049031  9792 net.cpp:425] relu3 <- conv3
I0403 12:52:20.049052  9792 net.cpp:386] relu3 -> conv3 (in-place)
I0403 12:52:20.049324  9792 net.cpp:141] Setting up relu3
I0403 12:52:20.049350  9792 net.cpp:148] Top shape: 100 384 13 13 (6489600)
I0403 12:52:20.049365  9792 net.cpp:156] Memory required for data: 731481200
I0403 12:52:20.049379  9792 layer_factory.hpp:77] Creating layer conv4
I0403 12:52:20.049404  9792 net.cpp:91] Creating Layer conv4
I0403 12:52:20.049422  9792 net.cpp:425] conv4 <- conv3
I0403 12:52:20.049443  9792 net.cpp:399] conv4 -> conv4
I0403 12:52:20.079457  9792 net.cpp:141] Setting up conv4
I0403 12:52:20.079529  9792 net.cpp:148] Top shape: 100 384 13 13 (6489600)
I0403 12:52:20.079582  9792 net.cpp:156] Memory required for data: 757439600
I0403 12:52:20.079604  9792 layer_factory.hpp:77] Creating layer relu4
I0403 12:52:20.079627  9792 net.cpp:91] Creating Layer relu4
I0403 12:52:20.079644  9792 net.cpp:425] relu4 <- conv4
I0403 12:52:20.079666  9792 net.cpp:386] relu4 -> conv4 (in-place)
I0403 12:52:20.079954  9792 net.cpp:141] Setting up relu4
I0403 12:52:20.079982  9792 net.cpp:148] Top shape: 100 384 13 13 (6489600)
I0403 12:52:20.079998  9792 net.cpp:156] Memory required for data: 783398000
I0403 12:52:20.080014  9792 layer_factory.hpp:77] Creating layer conv5
I0403 12:52:20.080040  9792 net.cpp:91] Creating Layer conv5
I0403 12:52:20.080059  9792 net.cpp:425] conv5 <- conv4
I0403 12:52:20.080092  9792 net.cpp:399] conv5 -> conv5
I0403 12:52:20.100771  9792 net.cpp:141] Setting up conv5
I0403 12:52:20.100824  9792 net.cpp:148] Top shape: 100 256 13 13 (4326400)
I0403 12:52:20.100841  9792 net.cpp:156] Memory required for data: 800703600
I0403 12:52:20.100865  9792 layer_factory.hpp:77] Creating layer relu5
I0403 12:52:20.100888  9792 net.cpp:91] Creating Layer relu5
I0403 12:52:20.100904  9792 net.cpp:425] relu5 <- conv5
I0403 12:52:20.100925  9792 net.cpp:386] relu5 -> conv5 (in-place)
I0403 12:52:20.101210  9792 net.cpp:141] Setting up relu5
I0403 12:52:20.101238  9792 net.cpp:148] Top shape: 100 256 13 13 (4326400)
I0403 12:52:20.101253  9792 net.cpp:156] Memory required for data: 818009200
I0403 12:52:20.101269  9792 layer_factory.hpp:77] Creating layer pool5
I0403 12:52:20.101294  9792 net.cpp:91] Creating Layer pool5
I0403 12:52:20.101313  9792 net.cpp:425] pool5 <- conv5
I0403 12:52:20.101336  9792 net.cpp:399] pool5 -> pool5
I0403 12:52:20.101399  9792 net.cpp:141] Setting up pool5
I0403 12:52:20.101423  9792 net.cpp:148] Top shape: 100 256 6 6 (921600)
I0403 12:52:20.101438  9792 net.cpp:156] Memory required for data: 821695600
I0403 12:52:20.101454  9792 layer_factory.hpp:77] Creating layer fc6
I0403 12:52:20.101480  9792 net.cpp:91] Creating Layer fc6
I0403 12:52:20.101498  9792 net.cpp:425] fc6 <- pool5
I0403 12:52:20.101518  9792 net.cpp:399] fc6 -> fc6
I0403 12:52:21.650782  9792 net.cpp:141] Setting up fc6
I0403 12:52:21.650823  9792 net.cpp:148] Top shape: 100 4096 (409600)
I0403 12:52:21.650838  9792 net.cpp:156] Memory required for data: 823334000
I0403 12:52:21.650859  9792 layer_factory.hpp:77] Creating layer relu6
I0403 12:52:21.650882  9792 net.cpp:91] Creating Layer relu6
I0403 12:52:21.650899  9792 net.cpp:425] relu6 <- fc6
I0403 12:52:21.650918  9792 net.cpp:386] relu6 -> fc6 (in-place)
I0403 12:52:21.651136  9792 net.cpp:141] Setting up relu6
I0403 12:52:21.651160  9792 net.cpp:148] Top shape: 100 4096 (409600)
I0403 12:52:21.651175  9792 net.cpp:156] Memory required for data: 824972400
I0403 12:52:21.651190  9792 layer_factory.hpp:77] Creating layer drop6
I0403 12:52:21.651207  9792 net.cpp:91] Creating Layer drop6
I0403 12:52:21.651222  9792 net.cpp:425] drop6 <- fc6
I0403 12:52:21.651242  9792 net.cpp:386] drop6 -> fc6 (in-place)
I0403 12:52:21.651291  9792 net.cpp:141] Setting up drop6
I0403 12:52:21.651315  9792 net.cpp:148] Top shape: 100 4096 (409600)
I0403 12:52:21.651330  9792 net.cpp:156] Memory required for data: 826610800
I0403 12:52:21.651345  9792 layer_factory.hpp:77] Creating layer fc7
I0403 12:52:21.651365  9792 net.cpp:91] Creating Layer fc7
I0403 12:52:21.651381  9792 net.cpp:425] fc7 <- fc6
I0403 12:52:21.651399  9792 net.cpp:399] fc7 -> fc7
I0403 12:52:22.336071  9792 net.cpp:141] Setting up fc7
I0403 12:52:22.336146  9792 net.cpp:148] Top shape: 100 4096 (409600)
I0403 12:52:22.336163  9792 net.cpp:156] Memory required for data: 828249200
I0403 12:52:22.336184  9792 layer_factory.hpp:77] Creating layer relu7
I0403 12:52:22.336205  9792 net.cpp:91] Creating Layer relu7
I0403 12:52:22.336222  9792 net.cpp:425] relu7 <- fc7
I0403 12:52:22.336244  9792 net.cpp:386] relu7 -> fc7 (in-place)
I0403 12:52:22.336659  9792 net.cpp:141] Setting up relu7
I0403 12:52:22.336685  9792 net.cpp:148] Top shape: 100 4096 (409600)
I0403 12:52:22.336741  9792 net.cpp:156] Memory required for data: 829887600
I0403 12:52:22.336757  9792 layer_factory.hpp:77] Creating layer drop7
I0403 12:52:22.336776  9792 net.cpp:91] Creating Layer drop7
I0403 12:52:22.336791  9792 net.cpp:425] drop7 <- fc7
I0403 12:52:22.336812  9792 net.cpp:386] drop7 -> fc7 (in-place)
I0403 12:52:22.336854  9792 net.cpp:141] Setting up drop7
I0403 12:52:22.336879  9792 net.cpp:148] Top shape: 100 4096 (409600)
I0403 12:52:22.336894  9792 net.cpp:156] Memory required for data: 831526000
I0403 12:52:22.336910  9792 layer_factory.hpp:77] Creating layer fc8_plantvillage
I0403 12:52:22.336928  9792 net.cpp:91] Creating Layer fc8_plantvillage
I0403 12:52:22.336944  9792 net.cpp:425] fc8_plantvillage <- fc7
I0403 12:52:22.336964  9792 net.cpp:399] fc8_plantvillage -> fc8_plantvillage
I0403 12:52:22.343679  9792 net.cpp:141] Setting up fc8_plantvillage
I0403 12:52:22.343708  9792 net.cpp:148] Top shape: 100 38 (3800)
I0403 12:52:22.343724  9792 net.cpp:156] Memory required for data: 831541200
I0403 12:52:22.343741  9792 layer_factory.hpp:77] Creating layer fc8_plantvillage_fc8_plantvillage_0_split
I0403 12:52:22.343760  9792 net.cpp:91] Creating Layer fc8_plantvillage_fc8_plantvillage_0_split
I0403 12:52:22.343778  9792 net.cpp:425] fc8_plantvillage_fc8_plantvillage_0_split <- fc8_plantvillage
I0403 12:52:22.343796  9792 net.cpp:399] fc8_plantvillage_fc8_plantvillage_0_split -> fc8_plantvillage_fc8_plantvillage_0_split_0
I0403 12:52:22.343816  9792 net.cpp:399] fc8_plantvillage_fc8_plantvillage_0_split -> fc8_plantvillage_fc8_plantvillage_0_split_1
I0403 12:52:22.343834  9792 net.cpp:399] fc8_plantvillage_fc8_plantvillage_0_split -> fc8_plantvillage_fc8_plantvillage_0_split_2
I0403 12:52:22.343916  9792 net.cpp:141] Setting up fc8_plantvillage_fc8_plantvillage_0_split
I0403 12:52:22.343941  9792 net.cpp:148] Top shape: 100 38 (3800)
I0403 12:52:22.343958  9792 net.cpp:148] Top shape: 100 38 (3800)
I0403 12:52:22.343973  9792 net.cpp:148] Top shape: 100 38 (3800)
I0403 12:52:22.343987  9792 net.cpp:156] Memory required for data: 831586800
I0403 12:52:22.344002  9792 layer_factory.hpp:77] Creating layer prob
I0403 12:52:22.344020  9792 net.cpp:91] Creating Layer prob
I0403 12:52:22.344035  9792 net.cpp:425] prob <- fc8_plantvillage_fc8_plantvillage_0_split_0
I0403 12:52:22.344053  9792 net.cpp:399] prob -> prob
I0403 12:52:22.344276  9792 net.cpp:141] Setting up prob
I0403 12:52:22.344303  9792 net.cpp:148] Top shape: 100 38 (3800)
I0403 12:52:22.344317  9792 net.cpp:156] Memory required for data: 831602000
I0403 12:52:22.344331  9792 layer_factory.hpp:77] Creating layer hdf5out
I0403 12:52:22.344352  9792 net.cpp:91] Creating Layer hdf5out
I0403 12:52:22.344367  9792 net.cpp:425] hdf5out <- prob
I0403 12:52:22.344383  9792 net.cpp:425] hdf5out <- label_data_1_split_0
I0403 12:52:22.346858  9792 net.cpp:141] Setting up hdf5out
…
