…
I0403 12:45:35.743782  9502 net.cpp:313] The NetState phase (1) differed from the phase (0) specified by a rule in layer data
I0403 12:45:35.744107  9502 net.cpp:49] Initializing net from parameters: 
state {
  phase: TEST
}
layer {
  name: "data"
  type: "Data"
  top: "data"
  top: "label"
  include {
    phase: TEST
  }
  transform_param {
    crop_size: 227
    mean_file: "/home/mohanty/data/final_dataset/lmdb/segmented-50-50/mean.binaryproto"
  }
  data_param {
    source: "/home/mohanty/data/final_dataset/lmdb/segmented-50-50/test_db"
    batch_size: 100
    backend: LMDB
  }
}
layer {
  name: "conv1"
  type: "Convolution"
  bottom: "data"
  top: "conv1"
  param {
    lr_mult: 1
    decay_mult: 1
  }
  param {
    lr_mult: 2
    decay_mult: 0
  }
  convolution_param {
    num_output: 96
    kernel_size: 11
    stride: 4
    weight_filler {
      type: "gaussian"
      std: 0.01
    }
    bias_filler {
      type: "constant"
      value: 0
    }
  }
}
layer {
  name: "relu1"
  type: "ReLU"
  bottom: "conv1"
  top: "conv1"
}
layer {
  name: "norm1"
  type: "LRN"
  bottom: "conv1"
  top: "norm1"
  lrn_param {
    local_size: 5
    alpha: 0.0001
    beta: 0.75
  }
}
layer {
  name: "pool1"
  type: "Pooling"
  bottom: "norm1"
  top: "pool1"
  pooling_param {
    pool: MAX
    kernel_size: 3
    stride: 2
  }
}
layer {
  name: "conv2"
  type: "Convolution"
  bottom: "pool1"
  top: "conv2"
  param {
    lr_mult: 1
    decay_mult: 1
  }
  param {
    lr_mult: 2
    decay_mult: 0
  }
  convolution_param {
    num_output: 256
    pad: 2
    kernel_size: 5
    group: 2
    weight_filler {
      type: "gaussian"
      std: 0.01
    }
    bias_filler {
      type: "constant"
      value: 0.1
    }
  }
}
layer {
  name: "relu2"
  type: "ReLU"
  bottom: "conv2"
  top: "conv2"
}
layer {
  name: "norm2"
  type: "LRN"
  bottom: "conv2"
  top: "norm2"
  lrn_param {
    local_size: 5
    alpha: 0.0001
    beta: 0.75
  }
}
layer {
  name: "pool2"
  type: "Pooling"
  bottom: "norm2"
  top: "pool2"
  pooling_param {
    pool: MAX
    kernel_size: 3
    stride: 2
  }
}
layer {
  name: "conv3"
  type: "Convolution"
  bottom: "pool2"
  top: "conv3"
  param {
    lr_mult: 1
    decay_mult: 1
  }
  param {
    lr_mult: 2
    decay_mult: 0
  }
  convolution_param {
    num_output: 384
    pad: 1
    kernel_size: 3
    weight_filler {
      type: "gaussian"
      std: 0.01
    }
    bias_filler {
      type: "constant"
      value: 0
    }
  }
}
layer {
  name: "relu3"
  type: "ReLU"
  bottom: "conv3"
  top: "conv3"
}
layer {
  name: "conv4"
  type: "Convolution"
  bottom: "conv3"
  top: "conv4"
  param {
    lr_mult: 1
    decay_mult: 1
  }
  param {
    lr_mult: 2
    decay_mult: 0
  }
  convolution_param {
    num_output: 384
    pad: 1
    kernel_size: 3
    group: 2
    weight_filler {
      type: "gaussian"
      std: 0.01
    }
    bias_filler {
      type: "constant"
      value: 0.1
    }
  }
}
layer {
  name: "relu4"
  type: "ReLU"
  bottom: "conv4"
  top: "conv4"
}
layer {
  name: "conv5"
  type: "Convolution"
  bottom: "conv4"
  top: "conv5"
  param {
    lr_mult: 1
    decay_mult: 1
  }
  param {
    lr_mult: 2
    decay_mult: 0
  }
  convolution_param {
    num_output: 256
    pad: 1
    kernel_size: 3
    group: 2
    weight_filler {
      type: "gaussian"
      std: 0.01
    }
    bias_filler {
      type: "constant"
      value: 0.1
    }
  }
}
layer {
  name: "relu5"
  type: "ReLU"
  bottom: "conv5"
  top: "conv5"
}
layer {
  name: "pool5"
  type: "Pooling"
  bottom: "conv5"
  top: "pool5"
  pooling_param {
    pool: MAX
    kernel_size: 3
    stride: 2
  }
}
layer {
  name: "fc6"
  type: "InnerProduct"
  bottom: "pool5"
  top: "fc6"
  param {
    lr_mult: 1
    decay_mult: 1
  }
  param {
    lr_mult: 2
    decay_mult: 0
  }
  inner_product_param {
    num_output: 4096
    weight_filler {
      type: "gaussian"
      std: 0.005
    }
    bias_filler {
      type: "constant"
      value: 0.1
    }
  }
}
layer {
  name: "relu6"
  type: "ReLU"
  bottom: "fc6"
  top: "fc6"
}
layer {
  name: "drop6"
  type: "Dropout"
  bottom: "fc6"
  top: "fc6"
  dropout_param {
    dropout_ratio: 0.5
  }
}
layer {
  name: "fc7"
  type: "InnerProduct"
  bottom: "fc6"
  top: "fc7"
  param {
    lr_mult: 1
    decay_mult: 1
  }
  param {
    lr_mult: 2
    decay_mult: 0
  }
  inner_product_param {
    num_output: 4096
    weight_filler {
      type: "gaussian"
      std: 0.005
    }
    bias_filler {
      type: "constant"
      value: 0.1
    }
  }
}
layer {
  name: "relu7"
  type: "ReLU"
  bottom: "fc7"
  top: "fc7"
}
layer {
  name: "drop7"
  type: "Dropout"
  bottom: "fc7"
  top: "fc7"
  dropout_param {
    dropout_ratio: 0.5
  }
}
layer {
  name: "fc8_plantvillage"
  type: "InnerProduct"
  bottom: "fc7"
  top: "fc8_plantvillage"
  param {
    lr_mult: 1
    decay_mult: 1
  }
  param {
    lr_mult: 2
    decay_mult: 0
  }
  inner_product_param {
    num_output: 38
    weight_filler {
      type: "gaussian"
      std: 0.01
    }
    bias_filler {
      type: "constant"
      value: 0
    }
  }
}
layer {
  name: "prob"
  type: "Softmax"
  bottom: "fc8_plantvillage"
  top: "prob"
  include {
    phase: TEST
  }
}
layer {
  name: "hdf5out"
  type: "HDF5Output"
  bottom: "prob"
  bottom: "label"
  include {
    phase: TEST
  }
  hdf5_output_param {
    file_name: "hdf5_dumps/iter_1072.h5"
  }
}
layer {
  name: "loss"
  type: "SoftmaxWithLoss"
  bottom: "fc8_plantvillage"
  bottom: "label"
  top: "loss"
}
layer {
  name: "accuracy"
  type: "Accuracy"
  bottom: "fc8_plantvillage"
  bottom: "label"
  top: "accuracy"
  include {
    phase: TEST
  }
}
I0403 12:45:35.744688  9502 layer_factory.hpp:77] Creating layer data
I0403 12:45:35.745353  9502 net.cpp:91] Creating Layer data
I0403 12:45:35.745386  9502 net.cpp:399] data -> data
I0403 12:45:35.745439  9502 net.cpp:399] data -> label
I0403 12:45:35.745476  9502 data_transformer.cpp:25] Loading mean file from: /home/mohanty/data/final_dataset/lmdb/segmented-50-50/mean.binaryproto
I0403 12:45:35.748870  9505 db_lmdb.cpp:38] Opened lmdb /home/mohanty/data/final_dataset/lmdb/segmented-50-50/test_db
I0403 12:45:35.759886  9502 data_layer.cpp:41] output data size: 100,3,227,227
I0403 12:45:35.878729  9502 net.cpp:141] Setting up data
I0403 12:45:35.878824  9502 net.cpp:148] Top shape: 100 3 227 227 (15458700)
I0403 12:45:35.878847  9502 net.cpp:148] Top shape: 100 (100)
I0403 12:45:35.878862  9502 net.cpp:156] Memory required for data: 61835200
I0403 12:45:35.878890  9502 layer_factory.hpp:77] Creating layer label_data_1_split
I0403 12:45:35.878916  9502 net.cpp:91] Creating Layer label_data_1_split
I0403 12:45:35.878933  9502 net.cpp:425] label_data_1_split <- label
I0403 12:45:35.878967  9502 net.cpp:399] label_data_1_split -> label_data_1_split_0
I0403 12:45:35.878993  9502 net.cpp:399] label_data_1_split -> label_data_1_split_1
I0403 12:45:35.879014  9502 net.cpp:399] label_data_1_split -> label_data_1_split_2
I0403 12:45:35.879076  9502 net.cpp:141] Setting up label_data_1_split
I0403 12:45:35.879099  9502 net.cpp:148] Top shape: 100 (100)
I0403 12:45:35.879115  9502 net.cpp:148] Top shape: 100 (100)
I0403 12:45:35.879130  9502 net.cpp:148] Top shape: 100 (100)
I0403 12:45:35.879156  9502 net.cpp:156] Memory required for data: 61836400
I0403 12:45:35.879173  9502 layer_factory.hpp:77] Creating layer conv1
I0403 12:45:35.879205  9502 net.cpp:91] Creating Layer conv1
I0403 12:45:35.879225  9502 net.cpp:425] conv1 <- data
I0403 12:45:35.879243  9502 net.cpp:399] conv1 -> conv1
I0403 12:45:36.021659  9502 net.cpp:141] Setting up conv1
I0403 12:45:36.021723  9502 net.cpp:148] Top shape: 100 96 55 55 (29040000)
I0403 12:45:36.021739  9502 net.cpp:156] Memory required for data: 177996400
I0403 12:45:36.021770  9502 layer_factory.hpp:77] Creating layer relu1
I0403 12:45:36.021797  9502 net.cpp:91] Creating Layer relu1
I0403 12:45:36.021814  9502 net.cpp:425] relu1 <- conv1
I0403 12:45:36.021836  9502 net.cpp:386] relu1 -> conv1 (in-place)
I0403 12:45:36.022104  9502 net.cpp:141] Setting up relu1
I0403 12:45:36.022130  9502 net.cpp:148] Top shape: 100 96 55 55 (29040000)
I0403 12:45:36.022179  9502 net.cpp:156] Memory required for data: 294156400
I0403 12:45:36.022195  9502 layer_factory.hpp:77] Creating layer norm1
I0403 12:45:36.022223  9502 net.cpp:91] Creating Layer norm1
I0403 12:45:36.022241  9502 net.cpp:425] norm1 <- conv1
I0403 12:45:36.022258  9502 net.cpp:399] norm1 -> norm1
I0403 12:45:36.022574  9502 net.cpp:141] Setting up norm1
I0403 12:45:36.022605  9502 net.cpp:148] Top shape: 100 96 55 55 (29040000)
I0403 12:45:36.022622  9502 net.cpp:156] Memory required for data: 410316400
I0403 12:45:36.022636  9502 layer_factory.hpp:77] Creating layer pool1
I0403 12:45:36.022686  9502 net.cpp:91] Creating Layer pool1
I0403 12:45:36.022704  9502 net.cpp:425] pool1 <- norm1
I0403 12:45:36.022722  9502 net.cpp:399] pool1 -> pool1
I0403 12:45:36.022791  9502 net.cpp:141] Setting up pool1
I0403 12:45:36.022814  9502 net.cpp:148] Top shape: 100 96 27 27 (6998400)
I0403 12:45:36.022830  9502 net.cpp:156] Memory required for data: 438310000
I0403 12:45:36.022842  9502 layer_factory.hpp:77] Creating layer conv2
I0403 12:45:36.022867  9502 net.cpp:91] Creating Layer conv2
I0403 12:45:36.022883  9502 net.cpp:425] conv2 <- pool1
I0403 12:45:36.022903  9502 net.cpp:399] conv2 -> conv2
I0403 12:45:36.037950  9502 net.cpp:141] Setting up conv2
I0403 12:45:36.037995  9502 net.cpp:148] Top shape: 100 256 27 27 (18662400)
I0403 12:45:36.038012  9502 net.cpp:156] Memory required for data: 512959600
I0403 12:45:36.038033  9502 layer_factory.hpp:77] Creating layer relu2
I0403 12:45:36.038053  9502 net.cpp:91] Creating Layer relu2
I0403 12:45:36.038069  9502 net.cpp:425] relu2 <- conv2
I0403 12:45:36.038086  9502 net.cpp:386] relu2 -> conv2 (in-place)
I0403 12:45:36.038362  9502 net.cpp:141] Setting up relu2
I0403 12:45:36.038388  9502 net.cpp:148] Top shape: 100 256 27 27 (18662400)
I0403 12:45:36.038403  9502 net.cpp:156] Memory required for data: 587609200
I0403 12:45:36.038416  9502 layer_factory.hpp:77] Creating layer norm2
I0403 12:45:36.038439  9502 net.cpp:91] Creating Layer norm2
I0403 12:45:36.038455  9502 net.cpp:425] norm2 <- conv2
I0403 12:45:36.038475  9502 net.cpp:399] norm2 -> norm2
I0403 12:45:36.038669  9502 net.cpp:141] Setting up norm2
I0403 12:45:36.038707  9502 net.cpp:148] Top shape: 100 256 27 27 (18662400)
I0403 12:45:36.038722  9502 net.cpp:156] Memory required for data: 662258800
I0403 12:45:36.038738  9502 layer_factory.hpp:77] Creating layer pool2
I0403 12:45:36.038780  9502 net.cpp:91] Creating Layer pool2
I0403 12:45:36.038800  9502 net.cpp:425] pool2 <- norm2
I0403 12:45:36.038815  9502 net.cpp:399] pool2 -> pool2
I0403 12:45:36.038869  9502 net.cpp:141] Setting up pool2
I0403 12:45:36.038892  9502 net.cpp:148] Top shape: 100 256 13 13 (4326400)
I0403 12:45:36.038907  9502 net.cpp:156] Memory required for data: 679564400
I0403 12:45:36.038920  9502 layer_factory.hpp:77] Creating layer conv3
I0403 12:45:36.038944  9502 net.cpp:91] Creating Layer conv3
I0403 12:45:36.038960  9502 net.cpp:425] conv3 <- pool2
I0403 12:45:36.038980  9502 net.cpp:399] conv3 -> conv3
I0403 12:45:36.077810  9502 net.cpp:141] Setting up conv3
I0403 12:45:36.077884  9502 net.cpp:148] Top shape: 100 384 13 13 (6489600)
I0403 12:45:36.077900  9502 net.cpp:156] Memory required for data: 705522800
I0403 12:45:36.077929  9502 layer_factory.hpp:77] Creating layer relu3
I0403 12:45:36.077951  9502 net.cpp:91] Creating Layer relu3
I0403 12:45:36.077980  9502 net.cpp:425] relu3 <- conv3
I0403 12:45:36.077998  9502 net.cpp:386] relu3 -> conv3 (in-place)
I0403 12:45:36.078296  9502 net.cpp:141] Setting up relu3
I0403 12:45:36.078335  9502 net.cpp:148] Top shape: 100 384 13 13 (6489600)
I0403 12:45:36.078348  9502 net.cpp:156] Memory required for data: 731481200
I0403 12:45:36.078363  9502 layer_factory.hpp:77] Creating layer conv4
I0403 12:45:36.078388  9502 net.cpp:91] Creating Layer conv4
I0403 12:45:36.078404  9502 net.cpp:425] conv4 <- conv3
I0403 12:45:36.078423  9502 net.cpp:399] conv4 -> conv4
I0403 12:45:36.108639  9502 net.cpp:141] Setting up conv4
I0403 12:45:36.108705  9502 net.cpp:148] Top shape: 100 384 13 13 (6489600)
I0403 12:45:36.108754  9502 net.cpp:156] Memory required for data: 757439600
I0403 12:45:36.108777  9502 layer_factory.hpp:77] Creating layer relu4
I0403 12:45:36.108801  9502 net.cpp:91] Creating Layer relu4
I0403 12:45:36.108819  9502 net.cpp:425] relu4 <- conv4
I0403 12:45:36.108837  9502 net.cpp:386] relu4 -> conv4 (in-place)
I0403 12:45:36.109122  9502 net.cpp:141] Setting up relu4
I0403 12:45:36.109148  9502 net.cpp:148] Top shape: 100 384 13 13 (6489600)
I0403 12:45:36.109163  9502 net.cpp:156] Memory required for data: 783398000
I0403 12:45:36.109179  9502 layer_factory.hpp:77] Creating layer conv5
I0403 12:45:36.109205  9502 net.cpp:91] Creating Layer conv5
I0403 12:45:36.109221  9502 net.cpp:425] conv5 <- conv4
I0403 12:45:36.109241  9502 net.cpp:399] conv5 -> conv5
I0403 12:45:36.130162  9502 net.cpp:141] Setting up conv5
I0403 12:45:36.130244  9502 net.cpp:148] Top shape: 100 256 13 13 (4326400)
I0403 12:45:36.130266  9502 net.cpp:156] Memory required for data: 800703600
I0403 12:45:36.130291  9502 layer_factory.hpp:77] Creating layer relu5
I0403 12:45:36.130317  9502 net.cpp:91] Creating Layer relu5
I0403 12:45:36.130334  9502 net.cpp:425] relu5 <- conv5
I0403 12:45:36.130353  9502 net.cpp:386] relu5 -> conv5 (in-place)
I0403 12:45:36.130641  9502 net.cpp:141] Setting up relu5
I0403 12:45:36.130668  9502 net.cpp:148] Top shape: 100 256 13 13 (4326400)
I0403 12:45:36.130683  9502 net.cpp:156] Memory required for data: 818009200
I0403 12:45:36.130698  9502 layer_factory.hpp:77] Creating layer pool5
I0403 12:45:36.130722  9502 net.cpp:91] Creating Layer pool5
I0403 12:45:36.130739  9502 net.cpp:425] pool5 <- conv5
I0403 12:45:36.130759  9502 net.cpp:399] pool5 -> pool5
I0403 12:45:36.130820  9502 net.cpp:141] Setting up pool5
I0403 12:45:36.130843  9502 net.cpp:148] Top shape: 100 256 6 6 (921600)
I0403 12:45:36.130857  9502 net.cpp:156] Memory required for data: 821695600
I0403 12:45:36.130872  9502 layer_factory.hpp:77] Creating layer fc6
I0403 12:45:36.130900  9502 net.cpp:91] Creating Layer fc6
I0403 12:45:36.130918  9502 net.cpp:425] fc6 <- pool5
I0403 12:45:36.130935  9502 net.cpp:399] fc6 -> fc6
I0403 12:45:37.727109  9502 net.cpp:141] Setting up fc6
I0403 12:45:37.727181  9502 net.cpp:148] Top shape: 100 4096 (409600)
I0403 12:45:37.727210  9502 net.cpp:156] Memory required for data: 823334000
I0403 12:45:37.727229  9502 layer_factory.hpp:77] Creating layer relu6
I0403 12:45:37.727251  9502 net.cpp:91] Creating Layer relu6
I0403 12:45:37.727267  9502 net.cpp:425] relu6 <- fc6
I0403 12:45:37.727288  9502 net.cpp:386] relu6 -> fc6 (in-place)
I0403 12:45:37.727510  9502 net.cpp:141] Setting up relu6
I0403 12:45:37.727535  9502 net.cpp:148] Top shape: 100 4096 (409600)
I0403 12:45:37.727548  9502 net.cpp:156] Memory required for data: 824972400
I0403 12:45:37.727561  9502 layer_factory.hpp:77] Creating layer drop6
I0403 12:45:37.727582  9502 net.cpp:91] Creating Layer drop6
I0403 12:45:37.727604  9502 net.cpp:425] drop6 <- fc6
I0403 12:45:37.727622  9502 net.cpp:386] drop6 -> fc6 (in-place)
I0403 12:45:37.727671  9502 net.cpp:141] Setting up drop6
I0403 12:45:37.727694  9502 net.cpp:148] Top shape: 100 4096 (409600)
I0403 12:45:37.727706  9502 net.cpp:156] Memory required for data: 826610800
I0403 12:45:37.727720  9502 layer_factory.hpp:77] Creating layer fc7
I0403 12:45:37.727740  9502 net.cpp:91] Creating Layer fc7
I0403 12:45:37.727753  9502 net.cpp:425] fc7 <- fc6
I0403 12:45:37.727772  9502 net.cpp:399] fc7 -> fc7
I0403 12:45:38.409868  9502 net.cpp:141] Setting up fc7
I0403 12:45:38.409921  9502 net.cpp:148] Top shape: 100 4096 (409600)
I0403 12:45:38.409937  9502 net.cpp:156] Memory required for data: 828249200
I0403 12:45:38.409957  9502 layer_factory.hpp:77] Creating layer relu7
I0403 12:45:38.409979  9502 net.cpp:91] Creating Layer relu7
I0403 12:45:38.409996  9502 net.cpp:425] relu7 <- fc7
I0403 12:45:38.410013  9502 net.cpp:386] relu7 -> fc7 (in-place)
I0403 12:45:38.410409  9502 net.cpp:141] Setting up relu7
I0403 12:45:38.410434  9502 net.cpp:148] Top shape: 100 4096 (409600)
I0403 12:45:38.410488  9502 net.cpp:156] Memory required for data: 829887600
I0403 12:45:38.410504  9502 layer_factory.hpp:77] Creating layer drop7
I0403 12:45:38.410524  9502 net.cpp:91] Creating Layer drop7
I0403 12:45:38.410540  9502 net.cpp:425] drop7 <- fc7
I0403 12:45:38.410557  9502 net.cpp:386] drop7 -> fc7 (in-place)
I0403 12:45:38.410604  9502 net.cpp:141] Setting up drop7
I0403 12:45:38.410627  9502 net.cpp:148] Top shape: 100 4096 (409600)
I0403 12:45:38.410640  9502 net.cpp:156] Memory required for data: 831526000
I0403 12:45:38.410655  9502 layer_factory.hpp:77] Creating layer fc8_plantvillage
I0403 12:45:38.410672  9502 net.cpp:91] Creating Layer fc8_plantvillage
I0403 12:45:38.410686  9502 net.cpp:425] fc8_plantvillage <- fc7
I0403 12:45:38.410706  9502 net.cpp:399] fc8_plantvillage -> fc8_plantvillage
I0403 12:45:38.417342  9502 net.cpp:141] Setting up fc8_plantvillage
I0403 12:45:38.417369  9502 net.cpp:148] Top shape: 100 38 (3800)
I0403 12:45:38.417384  9502 net.cpp:156] Memory required for data: 831541200
I0403 12:45:38.417402  9502 layer_factory.hpp:77] Creating layer fc8_plantvillage_fc8_plantvillage_0_split
I0403 12:45:38.417421  9502 net.cpp:91] Creating Layer fc8_plantvillage_fc8_plantvillage_0_split
I0403 12:45:38.417436  9502 net.cpp:425] fc8_plantvillage_fc8_plantvillage_0_split <- fc8_plantvillage
I0403 12:45:38.417453  9502 net.cpp:399] fc8_plantvillage_fc8_plantvillage_0_split -> fc8_plantvillage_fc8_plantvillage_0_split_0
I0403 12:45:38.417470  9502 net.cpp:399] fc8_plantvillage_fc8_plantvillage_0_split -> fc8_plantvillage_fc8_plantvillage_0_split_1
I0403 12:45:38.417492  9502 net.cpp:399] fc8_plantvillage_fc8_plantvillage_0_split -> fc8_plantvillage_fc8_plantvillage_0_split_2
I0403 12:45:38.417565  9502 net.cpp:141] Setting up fc8_plantvillage_fc8_plantvillage_0_split
I0403 12:45:38.417587  9502 net.cpp:148] Top shape: 100 38 (3800)
I0403 12:45:38.417608  9502 net.cpp:148] Top shape: 100 38 (3800)
I0403 12:45:38.417623  9502 net.cpp:148] Top shape: 100 38 (3800)
I0403 12:45:38.417635  9502 net.cpp:156] Memory required for data: 831586800
I0403 12:45:38.417649  9502 layer_factory.hpp:77] Creating layer prob
I0403 12:45:38.417668  9502 net.cpp:91] Creating Layer prob
I0403 12:45:38.417683  9502 net.cpp:425] prob <- fc8_plantvillage_fc8_plantvillage_0_split_0
I0403 12:45:38.417701  9502 net.cpp:399] prob -> prob
I0403 12:45:38.417929  9502 net.cpp:141] Setting up prob
I0403 12:45:38.417954  9502 net.cpp:148] Top shape: 100 38 (3800)
I0403 12:45:38.417968  9502 net.cpp:156] Memory required for data: 831602000
I0403 12:45:38.417982  9502 layer_factory.hpp:77] Creating layer hdf5out
I0403 12:45:38.418002  9502 net.cpp:91] Creating Layer hdf5out
I0403 12:45:38.418018  9502 net.cpp:425] hdf5out <- prob
I0403 12:45:38.418033  9502 net.cpp:425] hdf5out <- label_data_1_split_0
I0403 12:45:38.420425  9502 net.cpp:141] Setting up hdf5out
…
