…
I0403 12:58:14.545442  9950 net.cpp:313] The NetState phase (1) differed from the phase (0) specified by a rule in layer data
I0403 12:58:14.545779  9950 net.cpp:49] Initializing net from parameters: 
state {
  phase: TEST
}
layer {
  name: "data"
  type: "Data"
  top: "data"
  top: "label"
  include {
    phase: TEST
  }
  transform_param {
    crop_size: 227
    mean_file: "/home/mohanty/data/final_dataset/lmdb/segmented-50-50/mean.binaryproto"
  }
  data_param {
    source: "/home/mohanty/data/final_dataset/lmdb/segmented-50-50/test_db"
    batch_size: 100
    backend: LMDB
  }
}
layer {
  name: "conv1"
  type: "Convolution"
  bottom: "data"
  top: "conv1"
  param {
    lr_mult: 1
    decay_mult: 1
  }
  param {
    lr_mult: 2
    decay_mult: 0
  }
  convolution_param {
    num_output: 96
    kernel_size: 11
    stride: 4
    weight_filler {
      type: "gaussian"
      std: 0.01
    }
    bias_filler {
      type: "constant"
      value: 0
    }
  }
}
layer {
  name: "relu1"
  type: "ReLU"
  bottom: "conv1"
  top: "conv1"
}
layer {
  name: "norm1"
  type: "LRN"
  bottom: "conv1"
  top: "norm1"
  lrn_param {
    local_size: 5
    alpha: 0.0001
    beta: 0.75
  }
}
layer {
  name: "pool1"
  type: "Pooling"
  bottom: "norm1"
  top: "pool1"
  pooling_param {
    pool: MAX
    kernel_size: 3
    stride: 2
  }
}
layer {
  name: "conv2"
  type: "Convolution"
  bottom: "pool1"
  top: "conv2"
  param {
    lr_mult: 1
    decay_mult: 1
  }
  param {
    lr_mult: 2
    decay_mult: 0
  }
  convolution_param {
    num_output: 256
    pad: 2
    kernel_size: 5
    group: 2
    weight_filler {
      type: "gaussian"
      std: 0.01
    }
    bias_filler {
      type: "constant"
      value: 0.1
    }
  }
}
layer {
  name: "relu2"
  type: "ReLU"
  bottom: "conv2"
  top: "conv2"
}
layer {
  name: "norm2"
  type: "LRN"
  bottom: "conv2"
  top: "norm2"
  lrn_param {
    local_size: 5
    alpha: 0.0001
    beta: 0.75
  }
}
layer {
  name: "pool2"
  type: "Pooling"
  bottom: "norm2"
  top: "pool2"
  pooling_param {
    pool: MAX
    kernel_size: 3
    stride: 2
  }
}
layer {
  name: "conv3"
  type: "Convolution"
  bottom: "pool2"
  top: "conv3"
  param {
    lr_mult: 1
    decay_mult: 1
  }
  param {
    lr_mult: 2
    decay_mult: 0
  }
  convolution_param {
    num_output: 384
    pad: 1
    kernel_size: 3
    weight_filler {
      type: "gaussian"
      std: 0.01
    }
    bias_filler {
      type: "constant"
      value: 0
    }
  }
}
layer {
  name: "relu3"
  type: "ReLU"
  bottom: "conv3"
  top: "conv3"
}
layer {
  name: "conv4"
  type: "Convolution"
  bottom: "conv3"
  top: "conv4"
  param {
    lr_mult: 1
    decay_mult: 1
  }
  param {
    lr_mult: 2
    decay_mult: 0
  }
  convolution_param {
    num_output: 384
    pad: 1
    kernel_size: 3
    group: 2
    weight_filler {
      type: "gaussian"
      std: 0.01
    }
    bias_filler {
      type: "constant"
      value: 0.1
    }
  }
}
layer {
  name: "relu4"
  type: "ReLU"
  bottom: "conv4"
  top: "conv4"
}
layer {
  name: "conv5"
  type: "Convolution"
  bottom: "conv4"
  top: "conv5"
  param {
    lr_mult: 1
    decay_mult: 1
  }
  param {
    lr_mult: 2
    decay_mult: 0
  }
  convolution_param {
    num_output: 256
    pad: 1
    kernel_size: 3
    group: 2
    weight_filler {
      type: "gaussian"
      std: 0.01
    }
    bias_filler {
      type: "constant"
      value: 0.1
    }
  }
}
layer {
  name: "relu5"
  type: "ReLU"
  bottom: "conv5"
  top: "conv5"
}
layer {
  name: "pool5"
  type: "Pooling"
  bottom: "conv5"
  top: "pool5"
  pooling_param {
    pool: MAX
    kernel_size: 3
    stride: 2
  }
}
layer {
  name: "fc6"
  type: "InnerProduct"
  bottom: "pool5"
  top: "fc6"
  param {
    lr_mult: 1
    decay_mult: 1
  }
  param {
    lr_mult: 2
    decay_mult: 0
  }
  inner_product_param {
    num_output: 4096
    weight_filler {
      type: "gaussian"
      std: 0.005
    }
    bias_filler {
      type: "constant"
      value: 0.1
    }
  }
}
layer {
  name: "relu6"
  type: "ReLU"
  bottom: "fc6"
  top: "fc6"
}
layer {
  name: "drop6"
  type: "Dropout"
  bottom: "fc6"
  top: "fc6"
  dropout_param {
    dropout_ratio: 0.5
  }
}
layer {
  name: "fc7"
  type: "InnerProduct"
  bottom: "fc6"
  top: "fc7"
  param {
    lr_mult: 1
    decay_mult: 1
  }
  param {
    lr_mult: 2
    decay_mult: 0
  }
  inner_product_param {
    num_output: 4096
    weight_filler {
      type: "gaussian"
      std: 0.005
    }
    bias_filler {
      type: "constant"
      value: 0.1
    }
  }
}
layer {
  name: "relu7"
  type: "ReLU"
  bottom: "fc7"
  top: "fc7"
}
layer {
  name: "drop7"
  type: "Dropout"
  bottom: "fc7"
  top: "fc7"
  dropout_param {
    dropout_ratio: 0.5
  }
}
layer {
  name: "fc8_plantvillage"
  type: "InnerProduct"
  bottom: "fc7"
  top: "fc8_plantvillage"
  param {
    lr_mult: 1
    decay_mult: 1
  }
  param {
    lr_mult: 2
    decay_mult: 0
  }
  inner_product_param {
    num_output: 38
    weight_filler {
      type: "gaussian"
      std: 0.01
    }
    bias_filler {
      type: "constant"
      value: 0
    }
  }
}
layer {
  name: "prob"
  type: "Softmax"
  bottom: "fc8_plantvillage"
  top: "prob"
  include {
    phase: TEST
  }
}
layer {
  name: "hdf5out"
  type: "HDF5Output"
  bottom: "prob"
  bottom: "label"
  include {
    phase: TEST
  }
  hdf5_output_param {
    file_name: "hdf5_dumps/iter_5092.h5"
  }
}
layer {
  name: "loss"
  type: "SoftmaxWithLoss"
  bottom: "fc8_plantvillage"
  bottom: "label"
  top: "loss"
}
layer {
  name: "accuracy"
  type: "Accuracy"
  bottom: "fc8_plantvillage"
  bottom: "label"
  top: "accuracy"
  include {
    phase: TEST
  }
}
I0403 12:58:14.546418  9950 layer_factory.hpp:77] Creating layer data
I0403 12:58:14.547096  9950 net.cpp:91] Creating Layer data
I0403 12:58:14.547129  9950 net.cpp:399] data -> data
I0403 12:58:14.547183  9950 net.cpp:399] data -> label
I0403 12:58:14.547221  9950 data_transformer.cpp:25] Loading mean file from: /home/mohanty/data/final_dataset/lmdb/segmented-50-50/mean.binaryproto
I0403 12:58:14.550279  9952 db_lmdb.cpp:38] Opened lmdb /home/mohanty/data/final_dataset/lmdb/segmented-50-50/test_db
I0403 12:58:14.561846  9950 data_layer.cpp:41] output data size: 100,3,227,227
I0403 12:58:14.682312  9950 net.cpp:141] Setting up data
I0403 12:58:14.682404  9950 net.cpp:148] Top shape: 100 3 227 227 (15458700)
I0403 12:58:14.682425  9950 net.cpp:148] Top shape: 100 (100)
I0403 12:58:14.682440  9950 net.cpp:156] Memory required for data: 61835200
I0403 12:58:14.682468  9950 layer_factory.hpp:77] Creating layer label_data_1_split
I0403 12:58:14.682493  9950 net.cpp:91] Creating Layer label_data_1_split
I0403 12:58:14.682510  9950 net.cpp:425] label_data_1_split <- label
I0403 12:58:14.682541  9950 net.cpp:399] label_data_1_split -> label_data_1_split_0
I0403 12:58:14.682572  9950 net.cpp:399] label_data_1_split -> label_data_1_split_1
I0403 12:58:14.682593  9950 net.cpp:399] label_data_1_split -> label_data_1_split_2
I0403 12:58:14.682657  9950 net.cpp:141] Setting up label_data_1_split
I0403 12:58:14.682679  9950 net.cpp:148] Top shape: 100 (100)
I0403 12:58:14.682695  9950 net.cpp:148] Top shape: 100 (100)
I0403 12:58:14.682710  9950 net.cpp:148] Top shape: 100 (100)
I0403 12:58:14.682724  9950 net.cpp:156] Memory required for data: 61836400
I0403 12:58:14.682739  9950 layer_factory.hpp:77] Creating layer conv1
I0403 12:58:14.682770  9950 net.cpp:91] Creating Layer conv1
I0403 12:58:14.682786  9950 net.cpp:425] conv1 <- data
I0403 12:58:14.682806  9950 net.cpp:399] conv1 -> conv1
I0403 12:58:14.824209  9950 net.cpp:141] Setting up conv1
I0403 12:58:14.824288  9950 net.cpp:148] Top shape: 100 96 55 55 (29040000)
I0403 12:58:14.824306  9950 net.cpp:156] Memory required for data: 177996400
I0403 12:58:14.824337  9950 layer_factory.hpp:77] Creating layer relu1
I0403 12:58:14.824367  9950 net.cpp:91] Creating Layer relu1
I0403 12:58:14.824384  9950 net.cpp:425] relu1 <- conv1
I0403 12:58:14.824404  9950 net.cpp:386] relu1 -> conv1 (in-place)
I0403 12:58:14.824682  9950 net.cpp:141] Setting up relu1
I0403 12:58:14.824710  9950 net.cpp:148] Top shape: 100 96 55 55 (29040000)
I0403 12:58:14.824784  9950 net.cpp:156] Memory required for data: 294156400
I0403 12:58:14.824802  9950 layer_factory.hpp:77] Creating layer norm1
I0403 12:58:14.824829  9950 net.cpp:91] Creating Layer norm1
I0403 12:58:14.824847  9950 net.cpp:425] norm1 <- conv1
I0403 12:58:14.824864  9950 net.cpp:399] norm1 -> norm1
I0403 12:58:14.825182  9950 net.cpp:141] Setting up norm1
I0403 12:58:14.825211  9950 net.cpp:148] Top shape: 100 96 55 55 (29040000)
I0403 12:58:14.825227  9950 net.cpp:156] Memory required for data: 410316400
I0403 12:58:14.825242  9950 layer_factory.hpp:77] Creating layer pool1
I0403 12:58:14.825264  9950 net.cpp:91] Creating Layer pool1
I0403 12:58:14.825283  9950 net.cpp:425] pool1 <- norm1
I0403 12:58:14.825304  9950 net.cpp:399] pool1 -> pool1
I0403 12:58:14.825372  9950 net.cpp:141] Setting up pool1
I0403 12:58:14.825397  9950 net.cpp:148] Top shape: 100 96 27 27 (6998400)
I0403 12:58:14.825412  9950 net.cpp:156] Memory required for data: 438310000
I0403 12:58:14.825428  9950 layer_factory.hpp:77] Creating layer conv2
I0403 12:58:14.825451  9950 net.cpp:91] Creating Layer conv2
I0403 12:58:14.825469  9950 net.cpp:425] conv2 <- pool1
I0403 12:58:14.825486  9950 net.cpp:399] conv2 -> conv2
I0403 12:58:14.840471  9950 net.cpp:141] Setting up conv2
I0403 12:58:14.840523  9950 net.cpp:148] Top shape: 100 256 27 27 (18662400)
I0403 12:58:14.840543  9950 net.cpp:156] Memory required for data: 512959600
I0403 12:58:14.840565  9950 layer_factory.hpp:77] Creating layer relu2
I0403 12:58:14.840592  9950 net.cpp:91] Creating Layer relu2
I0403 12:58:14.840608  9950 net.cpp:425] relu2 <- conv2
I0403 12:58:14.840626  9950 net.cpp:386] relu2 -> conv2 (in-place)
I0403 12:58:14.840921  9950 net.cpp:141] Setting up relu2
I0403 12:58:14.840948  9950 net.cpp:148] Top shape: 100 256 27 27 (18662400)
I0403 12:58:14.840963  9950 net.cpp:156] Memory required for data: 587609200
I0403 12:58:14.840977  9950 layer_factory.hpp:77] Creating layer norm2
I0403 12:58:14.841001  9950 net.cpp:91] Creating Layer norm2
I0403 12:58:14.841018  9950 net.cpp:425] norm2 <- conv2
I0403 12:58:14.841063  9950 net.cpp:399] norm2 -> norm2
I0403 12:58:14.841262  9950 net.cpp:141] Setting up norm2
I0403 12:58:14.841290  9950 net.cpp:148] Top shape: 100 256 27 27 (18662400)
I0403 12:58:14.841315  9950 net.cpp:156] Memory required for data: 662258800
I0403 12:58:14.841330  9950 layer_factory.hpp:77] Creating layer pool2
I0403 12:58:14.841347  9950 net.cpp:91] Creating Layer pool2
I0403 12:58:14.841362  9950 net.cpp:425] pool2 <- norm2
I0403 12:58:14.841382  9950 net.cpp:399] pool2 -> pool2
I0403 12:58:14.841434  9950 net.cpp:141] Setting up pool2
I0403 12:58:14.841455  9950 net.cpp:148] Top shape: 100 256 13 13 (4326400)
I0403 12:58:14.841470  9950 net.cpp:156] Memory required for data: 679564400
I0403 12:58:14.841485  9950 layer_factory.hpp:77] Creating layer conv3
I0403 12:58:14.841507  9950 net.cpp:91] Creating Layer conv3
I0403 12:58:14.841523  9950 net.cpp:425] conv3 <- pool2
I0403 12:58:14.841543  9950 net.cpp:399] conv3 -> conv3
I0403 12:58:14.880250  9950 net.cpp:141] Setting up conv3
I0403 12:58:14.880328  9950 net.cpp:148] Top shape: 100 384 13 13 (6489600)
I0403 12:58:14.880347  9950 net.cpp:156] Memory required for data: 705522800
I0403 12:58:14.880373  9950 layer_factory.hpp:77] Creating layer relu3
I0403 12:58:14.880396  9950 net.cpp:91] Creating Layer relu3
I0403 12:58:14.880412  9950 net.cpp:425] relu3 <- conv3
I0403 12:58:14.880434  9950 net.cpp:386] relu3 -> conv3 (in-place)
I0403 12:58:14.880736  9950 net.cpp:141] Setting up relu3
I0403 12:58:14.880767  9950 net.cpp:148] Top shape: 100 384 13 13 (6489600)
I0403 12:58:14.880784  9950 net.cpp:156] Memory required for data: 731481200
I0403 12:58:14.880798  9950 layer_factory.hpp:77] Creating layer conv4
I0403 12:58:14.880822  9950 net.cpp:91] Creating Layer conv4
I0403 12:58:14.880839  9950 net.cpp:425] conv4 <- conv3
I0403 12:58:14.880857  9950 net.cpp:399] conv4 -> conv4
I0403 12:58:14.911227  9950 net.cpp:141] Setting up conv4
I0403 12:58:14.911298  9950 net.cpp:148] Top shape: 100 384 13 13 (6489600)
I0403 12:58:14.911350  9950 net.cpp:156] Memory required for data: 757439600
I0403 12:58:14.911371  9950 layer_factory.hpp:77] Creating layer relu4
I0403 12:58:14.911397  9950 net.cpp:91] Creating Layer relu4
I0403 12:58:14.911417  9950 net.cpp:425] relu4 <- conv4
I0403 12:58:14.911437  9950 net.cpp:386] relu4 -> conv4 (in-place)
I0403 12:58:14.911720  9950 net.cpp:141] Setting up relu4
I0403 12:58:14.911748  9950 net.cpp:148] Top shape: 100 384 13 13 (6489600)
I0403 12:58:14.911764  9950 net.cpp:156] Memory required for data: 783398000
I0403 12:58:14.911779  9950 layer_factory.hpp:77] Creating layer conv5
I0403 12:58:14.911806  9950 net.cpp:91] Creating Layer conv5
I0403 12:58:14.911824  9950 net.cpp:425] conv5 <- conv4
I0403 12:58:14.911844  9950 net.cpp:399] conv5 -> conv5
I0403 12:58:14.932832  9950 net.cpp:141] Setting up conv5
I0403 12:58:14.932893  9950 net.cpp:148] Top shape: 100 256 13 13 (4326400)
I0403 12:58:14.932911  9950 net.cpp:156] Memory required for data: 800703600
I0403 12:58:14.932937  9950 layer_factory.hpp:77] Creating layer relu5
I0403 12:58:14.932960  9950 net.cpp:91] Creating Layer relu5
I0403 12:58:14.932976  9950 net.cpp:425] relu5 <- conv5
I0403 12:58:14.932998  9950 net.cpp:386] relu5 -> conv5 (in-place)
I0403 12:58:14.933284  9950 net.cpp:141] Setting up relu5
I0403 12:58:14.933312  9950 net.cpp:148] Top shape: 100 256 13 13 (4326400)
I0403 12:58:14.933327  9950 net.cpp:156] Memory required for data: 818009200
I0403 12:58:14.933342  9950 layer_factory.hpp:77] Creating layer pool5
I0403 12:58:14.933364  9950 net.cpp:91] Creating Layer pool5
I0403 12:58:14.933380  9950 net.cpp:425] pool5 <- conv5
I0403 12:58:14.933401  9950 net.cpp:399] pool5 -> pool5
I0403 12:58:14.933464  9950 net.cpp:141] Setting up pool5
I0403 12:58:14.933487  9950 net.cpp:148] Top shape: 100 256 6 6 (921600)
I0403 12:58:14.933503  9950 net.cpp:156] Memory required for data: 821695600
I0403 12:58:14.933518  9950 layer_factory.hpp:77] Creating layer fc6
I0403 12:58:14.933547  9950 net.cpp:91] Creating Layer fc6
I0403 12:58:14.933564  9950 net.cpp:425] fc6 <- pool5
I0403 12:58:14.933591  9950 net.cpp:399] fc6 -> fc6
I0403 12:58:16.479465  9950 net.cpp:141] Setting up fc6
I0403 12:58:16.479552  9950 net.cpp:148] Top shape: 100 4096 (409600)
I0403 12:58:16.479570  9950 net.cpp:156] Memory required for data: 823334000
I0403 12:58:16.479593  9950 layer_factory.hpp:77] Creating layer relu6
I0403 12:58:16.479624  9950 net.cpp:91] Creating Layer relu6
I0403 12:58:16.479642  9950 net.cpp:425] relu6 <- fc6
I0403 12:58:16.479662  9950 net.cpp:386] relu6 -> fc6 (in-place)
I0403 12:58:16.479902  9950 net.cpp:141] Setting up relu6
I0403 12:58:16.479928  9950 net.cpp:148] Top shape: 100 4096 (409600)
I0403 12:58:16.479943  9950 net.cpp:156] Memory required for data: 824972400
I0403 12:58:16.479959  9950 layer_factory.hpp:77] Creating layer drop6
I0403 12:58:16.479976  9950 net.cpp:91] Creating Layer drop6
I0403 12:58:16.479991  9950 net.cpp:425] drop6 <- fc6
I0403 12:58:16.480007  9950 net.cpp:386] drop6 -> fc6 (in-place)
I0403 12:58:16.480059  9950 net.cpp:141] Setting up drop6
I0403 12:58:16.480082  9950 net.cpp:148] Top shape: 100 4096 (409600)
I0403 12:58:16.480095  9950 net.cpp:156] Memory required for data: 826610800
I0403 12:58:16.480109  9950 layer_factory.hpp:77] Creating layer fc7
I0403 12:58:16.480132  9950 net.cpp:91] Creating Layer fc7
I0403 12:58:16.480149  9950 net.cpp:425] fc7 <- fc6
I0403 12:58:16.480165  9950 net.cpp:399] fc7 -> fc7
I0403 12:58:17.163631  9950 net.cpp:141] Setting up fc7
I0403 12:58:17.163678  9950 net.cpp:148] Top shape: 100 4096 (409600)
I0403 12:58:17.163694  9950 net.cpp:156] Memory required for data: 828249200
I0403 12:58:17.163715  9950 layer_factory.hpp:77] Creating layer relu7
I0403 12:58:17.163739  9950 net.cpp:91] Creating Layer relu7
I0403 12:58:17.163756  9950 net.cpp:425] relu7 <- fc7
I0403 12:58:17.163779  9950 net.cpp:386] relu7 -> fc7 (in-place)
I0403 12:58:17.164170  9950 net.cpp:141] Setting up relu7
I0403 12:58:17.164199  9950 net.cpp:148] Top shape: 100 4096 (409600)
I0403 12:58:17.164253  9950 net.cpp:156] Memory required for data: 829887600
I0403 12:58:17.164269  9950 layer_factory.hpp:77] Creating layer drop7
I0403 12:58:17.164286  9950 net.cpp:91] Creating Layer drop7
I0403 12:58:17.164301  9950 net.cpp:425] drop7 <- fc7
I0403 12:58:17.164320  9950 net.cpp:386] drop7 -> fc7 (in-place)
I0403 12:58:17.164363  9950 net.cpp:141] Setting up drop7
I0403 12:58:17.164386  9950 net.cpp:148] Top shape: 100 4096 (409600)
I0403 12:58:17.164400  9950 net.cpp:156] Memory required for data: 831526000
I0403 12:58:17.164413  9950 layer_factory.hpp:77] Creating layer fc8_plantvillage
I0403 12:58:17.164434  9950 net.cpp:91] Creating Layer fc8_plantvillage
I0403 12:58:17.164450  9950 net.cpp:425] fc8_plantvillage <- fc7
I0403 12:58:17.164471  9950 net.cpp:399] fc8_plantvillage -> fc8_plantvillage
I0403 12:58:17.171159  9950 net.cpp:141] Setting up fc8_plantvillage
I0403 12:58:17.171187  9950 net.cpp:148] Top shape: 100 38 (3800)
I0403 12:58:17.171202  9950 net.cpp:156] Memory required for data: 831541200
I0403 12:58:17.171221  9950 layer_factory.hpp:77] Creating layer fc8_plantvillage_fc8_plantvillage_0_split
I0403 12:58:17.171239  9950 net.cpp:91] Creating Layer fc8_plantvillage_fc8_plantvillage_0_split
I0403 12:58:17.171254  9950 net.cpp:425] fc8_plantvillage_fc8_plantvillage_0_split <- fc8_plantvillage
I0403 12:58:17.171274  9950 net.cpp:399] fc8_plantvillage_fc8_plantvillage_0_split -> fc8_plantvillage_fc8_plantvillage_0_split_0
I0403 12:58:17.171295  9950 net.cpp:399] fc8_plantvillage_fc8_plantvillage_0_split -> fc8_plantvillage_fc8_plantvillage_0_split_1
I0403 12:58:17.171315  9950 net.cpp:399] fc8_plantvillage_fc8_plantvillage_0_split -> fc8_plantvillage_fc8_plantvillage_0_split_2
I0403 12:58:17.171392  9950 net.cpp:141] Setting up fc8_plantvillage_fc8_plantvillage_0_split
I0403 12:58:17.171416  9950 net.cpp:148] Top shape: 100 38 (3800)
I0403 12:58:17.171432  9950 net.cpp:148] Top shape: 100 38 (3800)
I0403 12:58:17.171447  9950 net.cpp:148] Top shape: 100 38 (3800)
I0403 12:58:17.171460  9950 net.cpp:156] Memory required for data: 831586800
I0403 12:58:17.171474  9950 layer_factory.hpp:77] Creating layer prob
I0403 12:58:17.171492  9950 net.cpp:91] Creating Layer prob
I0403 12:58:17.171507  9950 net.cpp:425] prob <- fc8_plantvillage_fc8_plantvillage_0_split_0
I0403 12:58:17.171525  9950 net.cpp:399] prob -> prob
I0403 12:58:17.171751  9950 net.cpp:141] Setting up prob
I0403 12:58:17.171782  9950 net.cpp:148] Top shape: 100 38 (3800)
I0403 12:58:17.171797  9950 net.cpp:156] Memory required for data: 831602000
I0403 12:58:17.171811  9950 layer_factory.hpp:77] Creating layer hdf5out
I0403 12:58:17.171829  9950 net.cpp:91] Creating Layer hdf5out
I0403 12:58:17.171845  9950 net.cpp:425] hdf5out <- prob
I0403 12:58:17.171861  9950 net.cpp:425] hdf5out <- label_data_1_split_0
I0403 12:58:17.174175  9950 net.cpp:141] Setting up hdf5out
…
