…
I0403 12:55:41.379744  9891 net.cpp:313] The NetState phase (1) differed from the phase (0) specified by a rule in layer data
I0403 12:55:41.380033  9891 net.cpp:49] Initializing net from parameters: 
state {
  phase: TEST
}
layer {
  name: "data"
  type: "Data"
  top: "data"
  top: "label"
  include {
    phase: TEST
  }
  transform_param {
    crop_size: 227
    mean_file: "/home/mohanty/data/final_dataset/lmdb/segmented-50-50/mean.binaryproto"
  }
  data_param {
    source: "/home/mohanty/data/final_dataset/lmdb/segmented-50-50/test_db"
    batch_size: 100
    backend: LMDB
  }
}
layer {
  name: "conv1"
  type: "Convolution"
  bottom: "data"
  top: "conv1"
  param {
    lr_mult: 1
    decay_mult: 1
  }
  param {
    lr_mult: 2
    decay_mult: 0
  }
  convolution_param {
    num_output: 96
    kernel_size: 11
    stride: 4
    weight_filler {
      type: "gaussian"
      std: 0.01
    }
    bias_filler {
      type: "constant"
      value: 0
    }
  }
}
layer {
  name: "relu1"
  type: "ReLU"
  bottom: "conv1"
  top: "conv1"
}
layer {
  name: "norm1"
  type: "LRN"
  bottom: "conv1"
  top: "norm1"
  lrn_param {
    local_size: 5
    alpha: 0.0001
    beta: 0.75
  }
}
layer {
  name: "pool1"
  type: "Pooling"
  bottom: "norm1"
  top: "pool1"
  pooling_param {
    pool: MAX
    kernel_size: 3
    stride: 2
  }
}
layer {
  name: "conv2"
  type: "Convolution"
  bottom: "pool1"
  top: "conv2"
  param {
    lr_mult: 1
    decay_mult: 1
  }
  param {
    lr_mult: 2
    decay_mult: 0
  }
  convolution_param {
    num_output: 256
    pad: 2
    kernel_size: 5
    group: 2
    weight_filler {
      type: "gaussian"
      std: 0.01
    }
    bias_filler {
      type: "constant"
      value: 0.1
    }
  }
}
layer {
  name: "relu2"
  type: "ReLU"
  bottom: "conv2"
  top: "conv2"
}
layer {
  name: "norm2"
  type: "LRN"
  bottom: "conv2"
  top: "norm2"
  lrn_param {
    local_size: 5
    alpha: 0.0001
    beta: 0.75
  }
}
layer {
  name: "pool2"
  type: "Pooling"
  bottom: "norm2"
  top: "pool2"
  pooling_param {
    pool: MAX
    kernel_size: 3
    stride: 2
  }
}
layer {
  name: "conv3"
  type: "Convolution"
  bottom: "pool2"
  top: "conv3"
  param {
    lr_mult: 1
    decay_mult: 1
  }
  param {
    lr_mult: 2
    decay_mult: 0
  }
  convolution_param {
    num_output: 384
    pad: 1
    kernel_size: 3
    weight_filler {
      type: "gaussian"
      std: 0.01
    }
    bias_filler {
      type: "constant"
      value: 0
    }
  }
}
layer {
  name: "relu3"
  type: "ReLU"
  bottom: "conv3"
  top: "conv3"
}
layer {
  name: "conv4"
  type: "Convolution"
  bottom: "conv3"
  top: "conv4"
  param {
    lr_mult: 1
    decay_mult: 1
  }
  param {
    lr_mult: 2
    decay_mult: 0
  }
  convolution_param {
    num_output: 384
    pad: 1
    kernel_size: 3
    group: 2
    weight_filler {
      type: "gaussian"
      std: 0.01
    }
    bias_filler {
      type: "constant"
      value: 0.1
    }
  }
}
layer {
  name: "relu4"
  type: "ReLU"
  bottom: "conv4"
  top: "conv4"
}
layer {
  name: "conv5"
  type: "Convolution"
  bottom: "conv4"
  top: "conv5"
  param {
    lr_mult: 1
    decay_mult: 1
  }
  param {
    lr_mult: 2
    decay_mult: 0
  }
  convolution_param {
    num_output: 256
    pad: 1
    kernel_size: 3
    group: 2
    weight_filler {
      type: "gaussian"
      std: 0.01
    }
    bias_filler {
      type: "constant"
      value: 0.1
    }
  }
}
layer {
  name: "relu5"
  type: "ReLU"
  bottom: "conv5"
  top: "conv5"
}
layer {
  name: "pool5"
  type: "Pooling"
  bottom: "conv5"
  top: "pool5"
  pooling_param {
    pool: MAX
    kernel_size: 3
    stride: 2
  }
}
layer {
  name: "fc6"
  type: "InnerProduct"
  bottom: "pool5"
  top: "fc6"
  param {
    lr_mult: 1
    decay_mult: 1
  }
  param {
    lr_mult: 2
    decay_mult: 0
  }
  inner_product_param {
    num_output: 4096
    weight_filler {
      type: "gaussian"
      std: 0.005
    }
    bias_filler {
      type: "constant"
      value: 0.1
    }
  }
}
layer {
  name: "relu6"
  type: "ReLU"
  bottom: "fc6"
  top: "fc6"
}
layer {
  name: "drop6"
  type: "Dropout"
  bottom: "fc6"
  top: "fc6"
  dropout_param {
    dropout_ratio: 0.5
  }
}
layer {
  name: "fc7"
  type: "InnerProduct"
  bottom: "fc6"
  top: "fc7"
  param {
    lr_mult: 1
    decay_mult: 1
  }
  param {
    lr_mult: 2
    decay_mult: 0
  }
  inner_product_param {
    num_output: 4096
    weight_filler {
      type: "gaussian"
      std: 0.005
    }
    bias_filler {
      type: "constant"
      value: 0.1
    }
  }
}
layer {
  name: "relu7"
  type: "ReLU"
  bottom: "fc7"
  top: "fc7"
}
layer {
  name: "drop7"
  type: "Dropout"
  bottom: "fc7"
  top: "fc7"
  dropout_param {
    dropout_ratio: 0.5
  }
}
layer {
  name: "fc8_plantvillage"
  type: "InnerProduct"
  bottom: "fc7"
  top: "fc8_plantvillage"
  param {
    lr_mult: 1
    decay_mult: 1
  }
  param {
    lr_mult: 2
    decay_mult: 0
  }
  inner_product_param {
    num_output: 38
    weight_filler {
      type: "gaussian"
      std: 0.01
    }
    bias_filler {
      type: "constant"
      value: 0
    }
  }
}
layer {
  name: "prob"
  type: "Softmax"
  bottom: "fc8_plantvillage"
  top: "prob"
  include {
    phase: TEST
  }
}
layer {
  name: "hdf5out"
  type: "HDF5Output"
  bottom: "prob"
  bottom: "label"
  include {
    phase: TEST
  }
  hdf5_output_param {
    file_name: "hdf5_dumps/iter_4288.h5"
  }
}
layer {
  name: "loss"
  type: "SoftmaxWithLoss"
  bottom: "fc8_plantvillage"
  bottom: "label"
  top: "loss"
}
layer {
  name: "accuracy"
  type: "Accuracy"
  bottom: "fc8_plantvillage"
  bottom: "label"
  top: "accuracy"
  include {
    phase: TEST
  }
}
I0403 12:55:41.380551  9891 layer_factory.hpp:77] Creating layer data
I0403 12:55:41.381162  9891 net.cpp:91] Creating Layer data
I0403 12:55:41.381193  9891 net.cpp:399] data -> data
I0403 12:55:41.381242  9891 net.cpp:399] data -> label
I0403 12:55:41.381276  9891 data_transformer.cpp:25] Loading mean file from: /home/mohanty/data/final_dataset/lmdb/segmented-50-50/mean.binaryproto
I0403 12:55:41.384299  9893 db_lmdb.cpp:38] Opened lmdb /home/mohanty/data/final_dataset/lmdb/segmented-50-50/test_db
I0403 12:55:41.395243  9891 data_layer.cpp:41] output data size: 100,3,227,227
I0403 12:55:41.512589  9891 net.cpp:141] Setting up data
I0403 12:55:41.512682  9891 net.cpp:148] Top shape: 100 3 227 227 (15458700)
I0403 12:55:41.512704  9891 net.cpp:148] Top shape: 100 (100)
I0403 12:55:41.512719  9891 net.cpp:156] Memory required for data: 61835200
I0403 12:55:41.512747  9891 layer_factory.hpp:77] Creating layer label_data_1_split
I0403 12:55:41.512771  9891 net.cpp:91] Creating Layer label_data_1_split
I0403 12:55:41.512789  9891 net.cpp:425] label_data_1_split <- label
I0403 12:55:41.512820  9891 net.cpp:399] label_data_1_split -> label_data_1_split_0
I0403 12:55:41.512845  9891 net.cpp:399] label_data_1_split -> label_data_1_split_1
I0403 12:55:41.512866  9891 net.cpp:399] label_data_1_split -> label_data_1_split_2
I0403 12:55:41.512925  9891 net.cpp:141] Setting up label_data_1_split
I0403 12:55:41.512949  9891 net.cpp:148] Top shape: 100 (100)
I0403 12:55:41.512965  9891 net.cpp:148] Top shape: 100 (100)
I0403 12:55:41.512980  9891 net.cpp:148] Top shape: 100 (100)
I0403 12:55:41.512994  9891 net.cpp:156] Memory required for data: 61836400
I0403 12:55:41.513007  9891 layer_factory.hpp:77] Creating layer conv1
I0403 12:55:41.513037  9891 net.cpp:91] Creating Layer conv1
I0403 12:55:41.513054  9891 net.cpp:425] conv1 <- data
I0403 12:55:41.513073  9891 net.cpp:399] conv1 -> conv1
I0403 12:55:41.647303  9891 net.cpp:141] Setting up conv1
I0403 12:55:41.647379  9891 net.cpp:148] Top shape: 100 96 55 55 (29040000)
I0403 12:55:41.647395  9891 net.cpp:156] Memory required for data: 177996400
I0403 12:55:41.647426  9891 layer_factory.hpp:77] Creating layer relu1
I0403 12:55:41.647452  9891 net.cpp:91] Creating Layer relu1
I0403 12:55:41.647470  9891 net.cpp:425] relu1 <- conv1
I0403 12:55:41.647488  9891 net.cpp:386] relu1 -> conv1 (in-place)
I0403 12:55:41.647744  9891 net.cpp:141] Setting up relu1
I0403 12:55:41.647771  9891 net.cpp:148] Top shape: 100 96 55 55 (29040000)
I0403 12:55:41.647825  9891 net.cpp:156] Memory required for data: 294156400
I0403 12:55:41.647841  9891 layer_factory.hpp:77] Creating layer norm1
I0403 12:55:41.647868  9891 net.cpp:91] Creating Layer norm1
I0403 12:55:41.647886  9891 net.cpp:425] norm1 <- conv1
I0403 12:55:41.647902  9891 net.cpp:399] norm1 -> norm1
I0403 12:55:41.648200  9891 net.cpp:141] Setting up norm1
I0403 12:55:41.648227  9891 net.cpp:148] Top shape: 100 96 55 55 (29040000)
I0403 12:55:41.648242  9891 net.cpp:156] Memory required for data: 410316400
I0403 12:55:41.648257  9891 layer_factory.hpp:77] Creating layer pool1
I0403 12:55:41.648280  9891 net.cpp:91] Creating Layer pool1
I0403 12:55:41.648296  9891 net.cpp:425] pool1 <- norm1
I0403 12:55:41.648313  9891 net.cpp:399] pool1 -> pool1
I0403 12:55:41.648378  9891 net.cpp:141] Setting up pool1
I0403 12:55:41.648401  9891 net.cpp:148] Top shape: 100 96 27 27 (6998400)
I0403 12:55:41.648416  9891 net.cpp:156] Memory required for data: 438310000
I0403 12:55:41.648432  9891 layer_factory.hpp:77] Creating layer conv2
I0403 12:55:41.648455  9891 net.cpp:91] Creating Layer conv2
I0403 12:55:41.648473  9891 net.cpp:425] conv2 <- pool1
I0403 12:55:41.648490  9891 net.cpp:399] conv2 -> conv2
I0403 12:55:41.662987  9891 net.cpp:141] Setting up conv2
I0403 12:55:41.663024  9891 net.cpp:148] Top shape: 100 256 27 27 (18662400)
I0403 12:55:41.663040  9891 net.cpp:156] Memory required for data: 512959600
I0403 12:55:41.663061  9891 layer_factory.hpp:77] Creating layer relu2
I0403 12:55:41.663079  9891 net.cpp:91] Creating Layer relu2
I0403 12:55:41.663095  9891 net.cpp:425] relu2 <- conv2
I0403 12:55:41.663112  9891 net.cpp:386] relu2 -> conv2 (in-place)
I0403 12:55:41.663372  9891 net.cpp:141] Setting up relu2
I0403 12:55:41.663398  9891 net.cpp:148] Top shape: 100 256 27 27 (18662400)
I0403 12:55:41.663414  9891 net.cpp:156] Memory required for data: 587609200
I0403 12:55:41.663429  9891 layer_factory.hpp:77] Creating layer norm2
I0403 12:55:41.663449  9891 net.cpp:91] Creating Layer norm2
I0403 12:55:41.663463  9891 net.cpp:425] norm2 <- conv2
I0403 12:55:41.663480  9891 net.cpp:399] norm2 -> norm2
I0403 12:55:41.663662  9891 net.cpp:141] Setting up norm2
I0403 12:55:41.663688  9891 net.cpp:148] Top shape: 100 256 27 27 (18662400)
I0403 12:55:41.663703  9891 net.cpp:156] Memory required for data: 662258800
I0403 12:55:41.663717  9891 layer_factory.hpp:77] Creating layer pool2
I0403 12:55:41.663735  9891 net.cpp:91] Creating Layer pool2
I0403 12:55:41.663749  9891 net.cpp:425] pool2 <- norm2
I0403 12:55:41.663766  9891 net.cpp:399] pool2 -> pool2
I0403 12:55:41.663815  9891 net.cpp:141] Setting up pool2
I0403 12:55:41.663837  9891 net.cpp:148] Top shape: 100 256 13 13 (4326400)
I0403 12:55:41.663851  9891 net.cpp:156] Memory required for data: 679564400
I0403 12:55:41.663866  9891 layer_factory.hpp:77] Creating layer conv3
I0403 12:55:41.663887  9891 net.cpp:91] Creating Layer conv3
I0403 12:55:41.663902  9891 net.cpp:425] conv3 <- pool2
I0403 12:55:41.663919  9891 net.cpp:399] conv3 -> conv3
I0403 12:55:41.701359  9891 net.cpp:141] Setting up conv3
I0403 12:55:41.701417  9891 net.cpp:148] Top shape: 100 384 13 13 (6489600)
I0403 12:55:41.701433  9891 net.cpp:156] Memory required for data: 705522800
I0403 12:55:41.701457  9891 layer_factory.hpp:77] Creating layer relu3
I0403 12:55:41.701478  9891 net.cpp:91] Creating Layer relu3
I0403 12:55:41.701493  9891 net.cpp:425] relu3 <- conv3
I0403 12:55:41.701514  9891 net.cpp:386] relu3 -> conv3 (in-place)
I0403 12:55:41.701787  9891 net.cpp:141] Setting up relu3
I0403 12:55:41.701814  9891 net.cpp:148] Top shape: 100 384 13 13 (6489600)
I0403 12:55:41.701829  9891 net.cpp:156] Memory required for data: 731481200
I0403 12:55:41.701843  9891 layer_factory.hpp:77] Creating layer conv4
I0403 12:55:41.701867  9891 net.cpp:91] Creating Layer conv4
I0403 12:55:41.701884  9891 net.cpp:425] conv4 <- conv3
I0403 12:55:41.701905  9891 net.cpp:399] conv4 -> conv4
I0403 12:55:41.731122  9891 net.cpp:141] Setting up conv4
I0403 12:55:41.731175  9891 net.cpp:148] Top shape: 100 384 13 13 (6489600)
I0403 12:55:41.731228  9891 net.cpp:156] Memory required for data: 757439600
I0403 12:55:41.731250  9891 layer_factory.hpp:77] Creating layer relu4
I0403 12:55:41.731268  9891 net.cpp:91] Creating Layer relu4
I0403 12:55:41.731284  9891 net.cpp:425] relu4 <- conv4
I0403 12:55:41.731304  9891 net.cpp:386] relu4 -> conv4 (in-place)
I0403 12:55:41.731587  9891 net.cpp:141] Setting up relu4
I0403 12:55:41.731621  9891 net.cpp:148] Top shape: 100 384 13 13 (6489600)
I0403 12:55:41.731636  9891 net.cpp:156] Memory required for data: 783398000
I0403 12:55:41.731650  9891 layer_factory.hpp:77] Creating layer conv5
I0403 12:55:41.731675  9891 net.cpp:91] Creating Layer conv5
I0403 12:55:41.731693  9891 net.cpp:425] conv5 <- conv4
I0403 12:55:41.731714  9891 net.cpp:399] conv5 -> conv5
I0403 12:55:41.752341  9891 net.cpp:141] Setting up conv5
I0403 12:55:41.752379  9891 net.cpp:148] Top shape: 100 256 13 13 (4326400)
I0403 12:55:41.752396  9891 net.cpp:156] Memory required for data: 800703600
I0403 12:55:41.752420  9891 layer_factory.hpp:77] Creating layer relu5
I0403 12:55:41.752439  9891 net.cpp:91] Creating Layer relu5
I0403 12:55:41.752455  9891 net.cpp:425] relu5 <- conv5
I0403 12:55:41.752475  9891 net.cpp:386] relu5 -> conv5 (in-place)
I0403 12:55:41.752756  9891 net.cpp:141] Setting up relu5
I0403 12:55:41.752782  9891 net.cpp:148] Top shape: 100 256 13 13 (4326400)
I0403 12:55:41.752797  9891 net.cpp:156] Memory required for data: 818009200
I0403 12:55:41.752840  9891 layer_factory.hpp:77] Creating layer pool5
I0403 12:55:41.752869  9891 net.cpp:91] Creating Layer pool5
I0403 12:55:41.752887  9891 net.cpp:425] pool5 <- conv5
I0403 12:55:41.752904  9891 net.cpp:399] pool5 -> pool5
I0403 12:55:41.752966  9891 net.cpp:141] Setting up pool5
I0403 12:55:41.752990  9891 net.cpp:148] Top shape: 100 256 6 6 (921600)
I0403 12:55:41.753005  9891 net.cpp:156] Memory required for data: 821695600
I0403 12:55:41.753018  9891 layer_factory.hpp:77] Creating layer fc6
I0403 12:55:41.753044  9891 net.cpp:91] Creating Layer fc6
I0403 12:55:41.753062  9891 net.cpp:425] fc6 <- pool5
I0403 12:55:41.753082  9891 net.cpp:399] fc6 -> fc6
I0403 12:55:43.364647  9891 net.cpp:141] Setting up fc6
I0403 12:55:43.364717  9891 net.cpp:148] Top shape: 100 4096 (409600)
I0403 12:55:43.364734  9891 net.cpp:156] Memory required for data: 823334000
I0403 12:55:43.364756  9891 layer_factory.hpp:77] Creating layer relu6
I0403 12:55:43.364791  9891 net.cpp:91] Creating Layer relu6
I0403 12:55:43.364810  9891 net.cpp:425] relu6 <- fc6
I0403 12:55:43.364830  9891 net.cpp:386] relu6 -> fc6 (in-place)
I0403 12:55:43.365059  9891 net.cpp:141] Setting up relu6
I0403 12:55:43.365084  9891 net.cpp:148] Top shape: 100 4096 (409600)
I0403 12:55:43.365110  9891 net.cpp:156] Memory required for data: 824972400
I0403 12:55:43.365124  9891 layer_factory.hpp:77] Creating layer drop6
I0403 12:55:43.365142  9891 net.cpp:91] Creating Layer drop6
I0403 12:55:43.365156  9891 net.cpp:425] drop6 <- fc6
I0403 12:55:43.365175  9891 net.cpp:386] drop6 -> fc6 (in-place)
I0403 12:55:43.365224  9891 net.cpp:141] Setting up drop6
I0403 12:55:43.365252  9891 net.cpp:148] Top shape: 100 4096 (409600)
I0403 12:55:43.365268  9891 net.cpp:156] Memory required for data: 826610800
I0403 12:55:43.365283  9891 layer_factory.hpp:77] Creating layer fc7
I0403 12:55:43.365303  9891 net.cpp:91] Creating Layer fc7
I0403 12:55:43.365317  9891 net.cpp:425] fc7 <- fc6
I0403 12:55:43.365336  9891 net.cpp:399] fc7 -> fc7
I0403 12:55:44.046839  9891 net.cpp:141] Setting up fc7
I0403 12:55:44.046883  9891 net.cpp:148] Top shape: 100 4096 (409600)
I0403 12:55:44.046900  9891 net.cpp:156] Memory required for data: 828249200
I0403 12:55:44.046922  9891 layer_factory.hpp:77] Creating layer relu7
I0403 12:55:44.046946  9891 net.cpp:91] Creating Layer relu7
I0403 12:55:44.046962  9891 net.cpp:425] relu7 <- fc7
I0403 12:55:44.046984  9891 net.cpp:386] relu7 -> fc7 (in-place)
I0403 12:55:44.047391  9891 net.cpp:141] Setting up relu7
I0403 12:55:44.047418  9891 net.cpp:148] Top shape: 100 4096 (409600)
I0403 12:55:44.047475  9891 net.cpp:156] Memory required for data: 829887600
I0403 12:55:44.047492  9891 layer_factory.hpp:77] Creating layer drop7
I0403 12:55:44.047509  9891 net.cpp:91] Creating Layer drop7
I0403 12:55:44.047524  9891 net.cpp:425] drop7 <- fc7
I0403 12:55:44.047546  9891 net.cpp:386] drop7 -> fc7 (in-place)
I0403 12:55:44.047602  9891 net.cpp:141] Setting up drop7
I0403 12:55:44.047628  9891 net.cpp:148] Top shape: 100 4096 (409600)
I0403 12:55:44.047643  9891 net.cpp:156] Memory required for data: 831526000
I0403 12:55:44.047657  9891 layer_factory.hpp:77] Creating layer fc8_plantvillage
I0403 12:55:44.047677  9891 net.cpp:91] Creating Layer fc8_plantvillage
I0403 12:55:44.047691  9891 net.cpp:425] fc8_plantvillage <- fc7
I0403 12:55:44.047711  9891 net.cpp:399] fc8_plantvillage -> fc8_plantvillage
I0403 12:55:44.054453  9891 net.cpp:141] Setting up fc8_plantvillage
I0403 12:55:44.054482  9891 net.cpp:148] Top shape: 100 38 (3800)
I0403 12:55:44.054498  9891 net.cpp:156] Memory required for data: 831541200
I0403 12:55:44.054515  9891 layer_factory.hpp:77] Creating layer fc8_plantvillage_fc8_plantvillage_0_split
I0403 12:55:44.054534  9891 net.cpp:91] Creating Layer fc8_plantvillage_fc8_plantvillage_0_split
I0403 12:55:44.054553  9891 net.cpp:425] fc8_plantvillage_fc8_plantvillage_0_split <- fc8_plantvillage
I0403 12:55:44.054582  9891 net.cpp:399] fc8_plantvillage_fc8_plantvillage_0_split -> fc8_plantvillage_fc8_plantvillage_0_split_0
I0403 12:55:44.054611  9891 net.cpp:399] fc8_plantvillage_fc8_plantvillage_0_split -> fc8_plantvillage_fc8_plantvillage_0_split_1
I0403 12:55:44.054632  9891 net.cpp:399] fc8_plantvillage_fc8_plantvillage_0_split -> fc8_plantvillage_fc8_plantvillage_0_split_2
I0403 12:55:44.054709  9891 net.cpp:141] Setting up fc8_plantvillage_fc8_plantvillage_0_split
I0403 12:55:44.054734  9891 net.cpp:148] Top shape: 100 38 (3800)
I0403 12:55:44.054751  9891 net.cpp:148] Top shape: 100 38 (3800)
I0403 12:55:44.054766  9891 net.cpp:148] Top shape: 100 38 (3800)
I0403 12:55:44.054780  9891 net.cpp:156] Memory required for data: 831586800
I0403 12:55:44.054795  9891 layer_factory.hpp:77] Creating layer prob
I0403 12:55:44.054812  9891 net.cpp:91] Creating Layer prob
I0403 12:55:44.054828  9891 net.cpp:425] prob <- fc8_plantvillage_fc8_plantvillage_0_split_0
I0403 12:55:44.054846  9891 net.cpp:399] prob -> prob
I0403 12:55:44.055071  9891 net.cpp:141] Setting up prob
I0403 12:55:44.055096  9891 net.cpp:148] Top shape: 100 38 (3800)
I0403 12:55:44.055111  9891 net.cpp:156] Memory required for data: 831602000
I0403 12:55:44.055125  9891 layer_factory.hpp:77] Creating layer hdf5out
I0403 12:55:44.055145  9891 net.cpp:91] Creating Layer hdf5out
I0403 12:55:44.055160  9891 net.cpp:425] hdf5out <- prob
I0403 12:55:44.055176  9891 net.cpp:425] hdf5out <- label_data_1_split_0
I0403 12:55:44.057651  9891 net.cpp:141] Setting up hdf5out
…
