…
I0403 13:03:18.165454 10109 net.cpp:313] The NetState phase (1) differed from the phase (0) specified by a rule in layer data
I0403 13:03:18.165804 10109 net.cpp:49] Initializing net from parameters: 
state {
  phase: TEST
}
layer {
  name: "data"
  type: "Data"
  top: "data"
  top: "label"
  include {
    phase: TEST
  }
  transform_param {
    crop_size: 227
    mean_file: "/home/mohanty/data/final_dataset/lmdb/segmented-50-50/mean.binaryproto"
  }
  data_param {
    source: "/home/mohanty/data/final_dataset/lmdb/segmented-50-50/test_db"
    batch_size: 100
    backend: LMDB
  }
}
layer {
  name: "conv1"
  type: "Convolution"
  bottom: "data"
  top: "conv1"
  param {
    lr_mult: 1
    decay_mult: 1
  }
  param {
    lr_mult: 2
    decay_mult: 0
  }
  convolution_param {
    num_output: 96
    kernel_size: 11
    stride: 4
    weight_filler {
      type: "gaussian"
      std: 0.01
    }
    bias_filler {
      type: "constant"
      value: 0
    }
  }
}
layer {
  name: "relu1"
  type: "ReLU"
  bottom: "conv1"
  top: "conv1"
}
layer {
  name: "norm1"
  type: "LRN"
  bottom: "conv1"
  top: "norm1"
  lrn_param {
    local_size: 5
    alpha: 0.0001
    beta: 0.75
  }
}
layer {
  name: "pool1"
  type: "Pooling"
  bottom: "norm1"
  top: "pool1"
  pooling_param {
    pool: MAX
    kernel_size: 3
    stride: 2
  }
}
layer {
  name: "conv2"
  type: "Convolution"
  bottom: "pool1"
  top: "conv2"
  param {
    lr_mult: 1
    decay_mult: 1
  }
  param {
    lr_mult: 2
    decay_mult: 0
  }
  convolution_param {
    num_output: 256
    pad: 2
    kernel_size: 5
    group: 2
    weight_filler {
      type: "gaussian"
      std: 0.01
    }
    bias_filler {
      type: "constant"
      value: 0.1
    }
  }
}
layer {
  name: "relu2"
  type: "ReLU"
  bottom: "conv2"
  top: "conv2"
}
layer {
  name: "norm2"
  type: "LRN"
  bottom: "conv2"
  top: "norm2"
  lrn_param {
    local_size: 5
    alpha: 0.0001
    beta: 0.75
  }
}
layer {
  name: "pool2"
  type: "Pooling"
  bottom: "norm2"
  top: "pool2"
  pooling_param {
    pool: MAX
    kernel_size: 3
    stride: 2
  }
}
layer {
  name: "conv3"
  type: "Convolution"
  bottom: "pool2"
  top: "conv3"
  param {
    lr_mult: 1
    decay_mult: 1
  }
  param {
    lr_mult: 2
    decay_mult: 0
  }
  convolution_param {
    num_output: 384
    pad: 1
    kernel_size: 3
    weight_filler {
      type: "gaussian"
      std: 0.01
    }
    bias_filler {
      type: "constant"
      value: 0
    }
  }
}
layer {
  name: "relu3"
  type: "ReLU"
  bottom: "conv3"
  top: "conv3"
}
layer {
  name: "conv4"
  type: "Convolution"
  bottom: "conv3"
  top: "conv4"
  param {
    lr_mult: 1
    decay_mult: 1
  }
  param {
    lr_mult: 2
    decay_mult: 0
  }
  convolution_param {
    num_output: 384
    pad: 1
    kernel_size: 3
    group: 2
    weight_filler {
      type: "gaussian"
      std: 0.01
    }
    bias_filler {
      type: "constant"
      value: 0.1
    }
  }
}
layer {
  name: "relu4"
  type: "ReLU"
  bottom: "conv4"
  top: "conv4"
}
layer {
  name: "conv5"
  type: "Convolution"
  bottom: "conv4"
  top: "conv5"
  param {
    lr_mult: 1
    decay_mult: 1
  }
  param {
    lr_mult: 2
    decay_mult: 0
  }
  convolution_param {
    num_output: 256
    pad: 1
    kernel_size: 3
    group: 2
    weight_filler {
      type: "gaussian"
      std: 0.01
    }
    bias_filler {
      type: "constant"
      value: 0.1
    }
  }
}
layer {
  name: "relu5"
  type: "ReLU"
  bottom: "conv5"
  top: "conv5"
}
layer {
  name: "pool5"
  type: "Pooling"
  bottom: "conv5"
  top: "pool5"
  pooling_param {
    pool: MAX
    kernel_size: 3
    stride: 2
  }
}
layer {
  name: "fc6"
  type: "InnerProduct"
  bottom: "pool5"
  top: "fc6"
  param {
    lr_mult: 1
    decay_mult: 1
  }
  param {
    lr_mult: 2
    decay_mult: 0
  }
  inner_product_param {
    num_output: 4096
    weight_filler {
      type: "gaussian"
      std: 0.005
    }
    bias_filler {
      type: "constant"
      value: 0.1
    }
  }
}
layer {
  name: "relu6"
  type: "ReLU"
  bottom: "fc6"
  top: "fc6"
}
layer {
  name: "drop6"
  type: "Dropout"
  bottom: "fc6"
  top: "fc6"
  dropout_param {
    dropout_ratio: 0.5
  }
}
layer {
  name: "fc7"
  type: "InnerProduct"
  bottom: "fc6"
  top: "fc7"
  param {
    lr_mult: 1
    decay_mult: 1
  }
  param {
    lr_mult: 2
    decay_mult: 0
  }
  inner_product_param {
    num_output: 4096
    weight_filler {
      type: "gaussian"
      std: 0.005
    }
    bias_filler {
      type: "constant"
      value: 0.1
    }
  }
}
layer {
  name: "relu7"
  type: "ReLU"
  bottom: "fc7"
  top: "fc7"
}
layer {
  name: "drop7"
  type: "Dropout"
  bottom: "fc7"
  top: "fc7"
  dropout_param {
    dropout_ratio: 0.5
  }
}
layer {
  name: "fc8_plantvillage"
  type: "InnerProduct"
  bottom: "fc7"
  top: "fc8_plantvillage"
  param {
    lr_mult: 1
    decay_mult: 1
  }
  param {
    lr_mult: 2
    decay_mult: 0
  }
  inner_product_param {
    num_output: 38
    weight_filler {
      type: "gaussian"
      std: 0.01
    }
    bias_filler {
      type: "constant"
      value: 0
    }
  }
}
layer {
  name: "prob"
  type: "Softmax"
  bottom: "fc8_plantvillage"
  top: "prob"
  include {
    phase: TEST
  }
}
layer {
  name: "hdf5out"
  type: "HDF5Output"
  bottom: "prob"
  bottom: "label"
  include {
    phase: TEST
  }
  hdf5_output_param {
    file_name: "hdf5_dumps/iter_6700.h5"
  }
}
layer {
  name: "loss"
  type: "SoftmaxWithLoss"
  bottom: "fc8_plantvillage"
  bottom: "label"
  top: "loss"
}
layer {
  name: "accuracy"
  type: "Accuracy"
  bottom: "fc8_plantvillage"
  bottom: "label"
  top: "accuracy"
  include {
    phase: TEST
  }
}
I0403 13:03:18.166465 10109 layer_factory.hpp:77] Creating layer data
I0403 13:03:18.167161 10109 net.cpp:91] Creating Layer data
I0403 13:03:18.167194 10109 net.cpp:399] data -> data
I0403 13:03:18.167245 10109 net.cpp:399] data -> label
I0403 13:03:18.167284 10109 data_transformer.cpp:25] Loading mean file from: /home/mohanty/data/final_dataset/lmdb/segmented-50-50/mean.binaryproto
I0403 13:03:18.170227 10116 db_lmdb.cpp:38] Opened lmdb /home/mohanty/data/final_dataset/lmdb/segmented-50-50/test_db
I0403 13:03:18.182823 10109 data_layer.cpp:41] output data size: 100,3,227,227
I0403 13:03:18.301084 10109 net.cpp:141] Setting up data
I0403 13:03:18.301177 10109 net.cpp:148] Top shape: 100 3 227 227 (15458700)
I0403 13:03:18.301200 10109 net.cpp:148] Top shape: 100 (100)
I0403 13:03:18.301215 10109 net.cpp:156] Memory required for data: 61835200
I0403 13:03:18.301244 10109 layer_factory.hpp:77] Creating layer label_data_1_split
I0403 13:03:18.301268 10109 net.cpp:91] Creating Layer label_data_1_split
I0403 13:03:18.301286 10109 net.cpp:425] label_data_1_split <- label
I0403 13:03:18.301318 10109 net.cpp:399] label_data_1_split -> label_data_1_split_0
I0403 13:03:18.301345 10109 net.cpp:399] label_data_1_split -> label_data_1_split_1
I0403 13:03:18.301367 10109 net.cpp:399] label_data_1_split -> label_data_1_split_2
I0403 13:03:18.301431 10109 net.cpp:141] Setting up label_data_1_split
I0403 13:03:18.301455 10109 net.cpp:148] Top shape: 100 (100)
I0403 13:03:18.301471 10109 net.cpp:148] Top shape: 100 (100)
I0403 13:03:18.301487 10109 net.cpp:148] Top shape: 100 (100)
I0403 13:03:18.301501 10109 net.cpp:156] Memory required for data: 61836400
I0403 13:03:18.301515 10109 layer_factory.hpp:77] Creating layer conv1
I0403 13:03:18.301904 10109 net.cpp:91] Creating Layer conv1
I0403 13:03:18.301924 10109 net.cpp:425] conv1 <- data
I0403 13:03:18.301944 10109 net.cpp:399] conv1 -> conv1
I0403 13:03:18.441028 10109 net.cpp:141] Setting up conv1
I0403 13:03:18.441108 10109 net.cpp:148] Top shape: 100 96 55 55 (29040000)
I0403 13:03:18.441126 10109 net.cpp:156] Memory required for data: 177996400
I0403 13:03:18.441159 10109 layer_factory.hpp:77] Creating layer relu1
I0403 13:03:18.441186 10109 net.cpp:91] Creating Layer relu1
I0403 13:03:18.441205 10109 net.cpp:425] relu1 <- conv1
I0403 13:03:18.441223 10109 net.cpp:386] relu1 -> conv1 (in-place)
I0403 13:03:18.441483 10109 net.cpp:141] Setting up relu1
I0403 13:03:18.441510 10109 net.cpp:148] Top shape: 100 96 55 55 (29040000)
I0403 13:03:18.441565 10109 net.cpp:156] Memory required for data: 294156400
I0403 13:03:18.441581 10109 layer_factory.hpp:77] Creating layer norm1
I0403 13:03:18.441615 10109 net.cpp:91] Creating Layer norm1
I0403 13:03:18.441634 10109 net.cpp:425] norm1 <- conv1
I0403 13:03:18.441656 10109 net.cpp:399] norm1 -> norm1
I0403 13:03:18.441970 10109 net.cpp:141] Setting up norm1
I0403 13:03:18.441998 10109 net.cpp:148] Top shape: 100 96 55 55 (29040000)
I0403 13:03:18.442015 10109 net.cpp:156] Memory required for data: 410316400
I0403 13:03:18.442030 10109 layer_factory.hpp:77] Creating layer pool1
I0403 13:03:18.442052 10109 net.cpp:91] Creating Layer pool1
I0403 13:03:18.442070 10109 net.cpp:425] pool1 <- norm1
I0403 13:03:18.442087 10109 net.cpp:399] pool1 -> pool1
I0403 13:03:18.442157 10109 net.cpp:141] Setting up pool1
I0403 13:03:18.442180 10109 net.cpp:148] Top shape: 100 96 27 27 (6998400)
I0403 13:03:18.442195 10109 net.cpp:156] Memory required for data: 438310000
I0403 13:03:18.442211 10109 layer_factory.hpp:77] Creating layer conv2
I0403 13:03:18.442235 10109 net.cpp:91] Creating Layer conv2
I0403 13:03:18.442250 10109 net.cpp:425] conv2 <- pool1
I0403 13:03:18.442268 10109 net.cpp:399] conv2 -> conv2
I0403 13:03:18.457173 10109 net.cpp:141] Setting up conv2
I0403 13:03:18.457211 10109 net.cpp:148] Top shape: 100 256 27 27 (18662400)
I0403 13:03:18.457229 10109 net.cpp:156] Memory required for data: 512959600
I0403 13:03:18.457250 10109 layer_factory.hpp:77] Creating layer relu2
I0403 13:03:18.457270 10109 net.cpp:91] Creating Layer relu2
I0403 13:03:18.457285 10109 net.cpp:425] relu2 <- conv2
I0403 13:03:18.457309 10109 net.cpp:386] relu2 -> conv2 (in-place)
I0403 13:03:18.457590 10109 net.cpp:141] Setting up relu2
I0403 13:03:18.457622 10109 net.cpp:148] Top shape: 100 256 27 27 (18662400)
I0403 13:03:18.457638 10109 net.cpp:156] Memory required for data: 587609200
I0403 13:03:18.457653 10109 layer_factory.hpp:77] Creating layer norm2
I0403 13:03:18.457675 10109 net.cpp:91] Creating Layer norm2
I0403 13:03:18.457692 10109 net.cpp:425] norm2 <- conv2
I0403 13:03:18.457710 10109 net.cpp:399] norm2 -> norm2
I0403 13:03:18.457911 10109 net.cpp:141] Setting up norm2
I0403 13:03:18.457937 10109 net.cpp:148] Top shape: 100 256 27 27 (18662400)
I0403 13:03:18.457952 10109 net.cpp:156] Memory required for data: 662258800
I0403 13:03:18.457967 10109 layer_factory.hpp:77] Creating layer pool2
I0403 13:03:18.457984 10109 net.cpp:91] Creating Layer pool2
I0403 13:03:18.457999 10109 net.cpp:425] pool2 <- norm2
I0403 13:03:18.458019 10109 net.cpp:399] pool2 -> pool2
I0403 13:03:18.458071 10109 net.cpp:141] Setting up pool2
I0403 13:03:18.458094 10109 net.cpp:148] Top shape: 100 256 13 13 (4326400)
I0403 13:03:18.458109 10109 net.cpp:156] Memory required for data: 679564400
I0403 13:03:18.458123 10109 layer_factory.hpp:77] Creating layer conv3
I0403 13:03:18.458147 10109 net.cpp:91] Creating Layer conv3
I0403 13:03:18.458163 10109 net.cpp:425] conv3 <- pool2
I0403 13:03:18.458181 10109 net.cpp:399] conv3 -> conv3
I0403 13:03:18.495486 10109 net.cpp:141] Setting up conv3
I0403 13:03:18.495546 10109 net.cpp:148] Top shape: 100 384 13 13 (6489600)
I0403 13:03:18.495563 10109 net.cpp:156] Memory required for data: 705522800
I0403 13:03:18.495587 10109 layer_factory.hpp:77] Creating layer relu3
I0403 13:03:18.495612 10109 net.cpp:91] Creating Layer relu3
I0403 13:03:18.495630 10109 net.cpp:425] relu3 <- conv3
I0403 13:03:18.495651 10109 net.cpp:386] relu3 -> conv3 (in-place)
I0403 13:03:18.495923 10109 net.cpp:141] Setting up relu3
I0403 13:03:18.495949 10109 net.cpp:148] Top shape: 100 384 13 13 (6489600)
I0403 13:03:18.495964 10109 net.cpp:156] Memory required for data: 731481200
I0403 13:03:18.495977 10109 layer_factory.hpp:77] Creating layer conv4
I0403 13:03:18.496002 10109 net.cpp:91] Creating Layer conv4
I0403 13:03:18.496021 10109 net.cpp:425] conv4 <- conv3
I0403 13:03:18.496040 10109 net.cpp:399] conv4 -> conv4
I0403 13:03:18.524937 10109 net.cpp:141] Setting up conv4
I0403 13:03:18.524992 10109 net.cpp:148] Top shape: 100 384 13 13 (6489600)
I0403 13:03:18.525039 10109 net.cpp:156] Memory required for data: 757439600
I0403 13:03:18.525060 10109 layer_factory.hpp:77] Creating layer relu4
I0403 13:03:18.525079 10109 net.cpp:91] Creating Layer relu4
I0403 13:03:18.525094 10109 net.cpp:425] relu4 <- conv4
I0403 13:03:18.525115 10109 net.cpp:386] relu4 -> conv4 (in-place)
I0403 13:03:18.525393 10109 net.cpp:141] Setting up relu4
I0403 13:03:18.525421 10109 net.cpp:148] Top shape: 100 384 13 13 (6489600)
I0403 13:03:18.525437 10109 net.cpp:156] Memory required for data: 783398000
I0403 13:03:18.525452 10109 layer_factory.hpp:77] Creating layer conv5
I0403 13:03:18.525475 10109 net.cpp:91] Creating Layer conv5
I0403 13:03:18.525492 10109 net.cpp:425] conv5 <- conv4
I0403 13:03:18.525511 10109 net.cpp:399] conv5 -> conv5
I0403 13:03:18.545372 10109 net.cpp:141] Setting up conv5
I0403 13:03:18.545415 10109 net.cpp:148] Top shape: 100 256 13 13 (4326400)
I0403 13:03:18.545431 10109 net.cpp:156] Memory required for data: 800703600
I0403 13:03:18.545454 10109 layer_factory.hpp:77] Creating layer relu5
I0403 13:03:18.545474 10109 net.cpp:91] Creating Layer relu5
I0403 13:03:18.545488 10109 net.cpp:425] relu5 <- conv5
I0403 13:03:18.545507 10109 net.cpp:386] relu5 -> conv5 (in-place)
I0403 13:03:18.545786 10109 net.cpp:141] Setting up relu5
I0403 13:03:18.545812 10109 net.cpp:148] Top shape: 100 256 13 13 (4326400)
I0403 13:03:18.545827 10109 net.cpp:156] Memory required for data: 818009200
I0403 13:03:18.545841 10109 layer_factory.hpp:77] Creating layer pool5
I0403 13:03:18.545861 10109 net.cpp:91] Creating Layer pool5
I0403 13:03:18.545877 10109 net.cpp:425] pool5 <- conv5
I0403 13:03:18.545898 10109 net.cpp:399] pool5 -> pool5
I0403 13:03:18.545958 10109 net.cpp:141] Setting up pool5
I0403 13:03:18.545981 10109 net.cpp:148] Top shape: 100 256 6 6 (921600)
I0403 13:03:18.545996 10109 net.cpp:156] Memory required for data: 821695600
I0403 13:03:18.546010 10109 layer_factory.hpp:77] Creating layer fc6
I0403 13:03:18.546037 10109 net.cpp:91] Creating Layer fc6
I0403 13:03:18.546054 10109 net.cpp:425] fc6 <- pool5
I0403 13:03:18.546074 10109 net.cpp:399] fc6 -> fc6
I0403 13:03:20.089841 10109 net.cpp:141] Setting up fc6
I0403 13:03:20.089918 10109 net.cpp:148] Top shape: 100 4096 (409600)
I0403 13:03:20.089934 10109 net.cpp:156] Memory required for data: 823334000
I0403 13:03:20.089956 10109 layer_factory.hpp:77] Creating layer relu6
I0403 13:03:20.089980 10109 net.cpp:91] Creating Layer relu6
I0403 13:03:20.089998 10109 net.cpp:425] relu6 <- fc6
I0403 13:03:20.090016 10109 net.cpp:386] relu6 -> fc6 (in-place)
I0403 13:03:20.090263 10109 net.cpp:141] Setting up relu6
I0403 13:03:20.090288 10109 net.cpp:148] Top shape: 100 4096 (409600)
I0403 13:03:20.090302 10109 net.cpp:156] Memory required for data: 824972400
I0403 13:03:20.090317 10109 layer_factory.hpp:77] Creating layer drop6
I0403 13:03:20.090335 10109 net.cpp:91] Creating Layer drop6
I0403 13:03:20.090350 10109 net.cpp:425] drop6 <- fc6
I0403 13:03:20.090369 10109 net.cpp:386] drop6 -> fc6 (in-place)
I0403 13:03:20.090422 10109 net.cpp:141] Setting up drop6
I0403 13:03:20.090447 10109 net.cpp:148] Top shape: 100 4096 (409600)
I0403 13:03:20.090462 10109 net.cpp:156] Memory required for data: 826610800
I0403 13:03:20.090476 10109 layer_factory.hpp:77] Creating layer fc7
I0403 13:03:20.090497 10109 net.cpp:91] Creating Layer fc7
I0403 13:03:20.090512 10109 net.cpp:425] fc7 <- fc6
I0403 13:03:20.090530 10109 net.cpp:399] fc7 -> fc7
I0403 13:03:20.785415 10109 net.cpp:141] Setting up fc7
I0403 13:03:20.785502 10109 net.cpp:148] Top shape: 100 4096 (409600)
I0403 13:03:20.785519 10109 net.cpp:156] Memory required for data: 828249200
I0403 13:03:20.785542 10109 layer_factory.hpp:77] Creating layer relu7
I0403 13:03:20.785565 10109 net.cpp:91] Creating Layer relu7
I0403 13:03:20.785583 10109 net.cpp:425] relu7 <- fc7
I0403 13:03:20.785614 10109 net.cpp:386] relu7 -> fc7 (in-place)
I0403 13:03:20.786062 10109 net.cpp:141] Setting up relu7
I0403 13:03:20.786092 10109 net.cpp:148] Top shape: 100 4096 (409600)
I0403 13:03:20.786147 10109 net.cpp:156] Memory required for data: 829887600
I0403 13:03:20.786164 10109 layer_factory.hpp:77] Creating layer drop7
I0403 13:03:20.786185 10109 net.cpp:91] Creating Layer drop7
I0403 13:03:20.786201 10109 net.cpp:425] drop7 <- fc7
I0403 13:03:20.786221 10109 net.cpp:386] drop7 -> fc7 (in-place)
I0403 13:03:20.786267 10109 net.cpp:141] Setting up drop7
I0403 13:03:20.786290 10109 net.cpp:148] Top shape: 100 4096 (409600)
I0403 13:03:20.786305 10109 net.cpp:156] Memory required for data: 831526000
I0403 13:03:20.786320 10109 layer_factory.hpp:77] Creating layer fc8_plantvillage
I0403 13:03:20.786345 10109 net.cpp:91] Creating Layer fc8_plantvillage
I0403 13:03:20.786361 10109 net.cpp:425] fc8_plantvillage <- fc7
I0403 13:03:20.786382 10109 net.cpp:399] fc8_plantvillage -> fc8_plantvillage
I0403 13:03:20.793495 10109 net.cpp:141] Setting up fc8_plantvillage
I0403 13:03:20.793550 10109 net.cpp:148] Top shape: 100 38 (3800)
I0403 13:03:20.793565 10109 net.cpp:156] Memory required for data: 831541200
I0403 13:03:20.793584 10109 layer_factory.hpp:77] Creating layer fc8_plantvillage_fc8_plantvillage_0_split
I0403 13:03:20.793611 10109 net.cpp:91] Creating Layer fc8_plantvillage_fc8_plantvillage_0_split
I0403 13:03:20.793629 10109 net.cpp:425] fc8_plantvillage_fc8_plantvillage_0_split <- fc8_plantvillage
I0403 13:03:20.793649 10109 net.cpp:399] fc8_plantvillage_fc8_plantvillage_0_split -> fc8_plantvillage_fc8_plantvillage_0_split_0
I0403 13:03:20.793673 10109 net.cpp:399] fc8_plantvillage_fc8_plantvillage_0_split -> fc8_plantvillage_fc8_plantvillage_0_split_1
I0403 13:03:20.793694 10109 net.cpp:399] fc8_plantvillage_fc8_plantvillage_0_split -> fc8_plantvillage_fc8_plantvillage_0_split_2
I0403 13:03:20.793774 10109 net.cpp:141] Setting up fc8_plantvillage_fc8_plantvillage_0_split
I0403 13:03:20.793798 10109 net.cpp:148] Top shape: 100 38 (3800)
I0403 13:03:20.793815 10109 net.cpp:148] Top shape: 100 38 (3800)
I0403 13:03:20.793831 10109 net.cpp:148] Top shape: 100 38 (3800)
I0403 13:03:20.793844 10109 net.cpp:156] Memory required for data: 831586800
I0403 13:03:20.793859 10109 layer_factory.hpp:77] Creating layer prob
I0403 13:03:20.793879 10109 net.cpp:91] Creating Layer prob
I0403 13:03:20.793894 10109 net.cpp:425] prob <- fc8_plantvillage_fc8_plantvillage_0_split_0
I0403 13:03:20.793915 10109 net.cpp:399] prob -> prob
I0403 13:03:20.794188 10109 net.cpp:141] Setting up prob
I0403 13:03:20.794219 10109 net.cpp:148] Top shape: 100 38 (3800)
I0403 13:03:20.794234 10109 net.cpp:156] Memory required for data: 831602000
I0403 13:03:20.794250 10109 layer_factory.hpp:77] Creating layer hdf5out
I0403 13:03:20.794270 10109 net.cpp:91] Creating Layer hdf5out
I0403 13:03:20.794286 10109 net.cpp:425] hdf5out <- prob
I0403 13:03:20.794301 10109 net.cpp:425] hdf5out <- label_data_1_split_0
I0403 13:03:20.796816 10109 net.cpp:141] Setting up hdf5out
…
