…
I0403 12:43:04.617986  9440 net.cpp:313] The NetState phase (1) differed from the phase (0) specified by a rule in layer data
I0403 12:43:04.618283  9440 net.cpp:49] Initializing net from parameters: 
state {
  phase: TEST
}
layer {
  name: "data"
  type: "Data"
  top: "data"
  top: "label"
  include {
    phase: TEST
  }
  transform_param {
    crop_size: 227
    mean_file: "/home/mohanty/data/final_dataset/lmdb/segmented-50-50/mean.binaryproto"
  }
  data_param {
    source: "/home/mohanty/data/final_dataset/lmdb/segmented-50-50/test_db"
    batch_size: 100
    backend: LMDB
  }
}
layer {
  name: "conv1"
  type: "Convolution"
  bottom: "data"
  top: "conv1"
  param {
    lr_mult: 1
    decay_mult: 1
  }
  param {
    lr_mult: 2
    decay_mult: 0
  }
  convolution_param {
    num_output: 96
    kernel_size: 11
    stride: 4
    weight_filler {
      type: "gaussian"
      std: 0.01
    }
    bias_filler {
      type: "constant"
      value: 0
    }
  }
}
layer {
  name: "relu1"
  type: "ReLU"
  bottom: "conv1"
  top: "conv1"
}
layer {
  name: "norm1"
  type: "LRN"
  bottom: "conv1"
  top: "norm1"
  lrn_param {
    local_size: 5
    alpha: 0.0001
    beta: 0.75
  }
}
layer {
  name: "pool1"
  type: "Pooling"
  bottom: "norm1"
  top: "pool1"
  pooling_param {
    pool: MAX
    kernel_size: 3
    stride: 2
  }
}
layer {
  name: "conv2"
  type: "Convolution"
  bottom: "pool1"
  top: "conv2"
  param {
    lr_mult: 1
    decay_mult: 1
  }
  param {
    lr_mult: 2
    decay_mult: 0
  }
  convolution_param {
    num_output: 256
    pad: 2
    kernel_size: 5
    group: 2
    weight_filler {
      type: "gaussian"
      std: 0.01
    }
    bias_filler {
      type: "constant"
      value: 0.1
    }
  }
}
layer {
  name: "relu2"
  type: "ReLU"
  bottom: "conv2"
  top: "conv2"
}
layer {
  name: "norm2"
  type: "LRN"
  bottom: "conv2"
  top: "norm2"
  lrn_param {
    local_size: 5
    alpha: 0.0001
    beta: 0.75
  }
}
layer {
  name: "pool2"
  type: "Pooling"
  bottom: "norm2"
  top: "pool2"
  pooling_param {
    pool: MAX
    kernel_size: 3
    stride: 2
  }
}
layer {
  name: "conv3"
  type: "Convolution"
  bottom: "pool2"
  top: "conv3"
  param {
    lr_mult: 1
    decay_mult: 1
  }
  param {
    lr_mult: 2
    decay_mult: 0
  }
  convolution_param {
    num_output: 384
    pad: 1
    kernel_size: 3
    weight_filler {
      type: "gaussian"
      std: 0.01
    }
    bias_filler {
      type: "constant"
      value: 0
    }
  }
}
layer {
  name: "relu3"
  type: "ReLU"
  bottom: "conv3"
  top: "conv3"
}
layer {
  name: "conv4"
  type: "Convolution"
  bottom: "conv3"
  top: "conv4"
  param {
    lr_mult: 1
    decay_mult: 1
  }
  param {
    lr_mult: 2
    decay_mult: 0
  }
  convolution_param {
    num_output: 384
    pad: 1
    kernel_size: 3
    group: 2
    weight_filler {
      type: "gaussian"
      std: 0.01
    }
    bias_filler {
      type: "constant"
      value: 0.1
    }
  }
}
layer {
  name: "relu4"
  type: "ReLU"
  bottom: "conv4"
  top: "conv4"
}
layer {
  name: "conv5"
  type: "Convolution"
  bottom: "conv4"
  top: "conv5"
  param {
    lr_mult: 1
    decay_mult: 1
  }
  param {
    lr_mult: 2
    decay_mult: 0
  }
  convolution_param {
    num_output: 256
    pad: 1
    kernel_size: 3
    group: 2
    weight_filler {
      type: "gaussian"
      std: 0.01
    }
    bias_filler {
      type: "constant"
      value: 0.1
    }
  }
}
layer {
  name: "relu5"
  type: "ReLU"
  bottom: "conv5"
  top: "conv5"
}
layer {
  name: "pool5"
  type: "Pooling"
  bottom: "conv5"
  top: "pool5"
  pooling_param {
    pool: MAX
    kernel_size: 3
    stride: 2
  }
}
layer {
  name: "fc6"
  type: "InnerProduct"
  bottom: "pool5"
  top: "fc6"
  param {
    lr_mult: 1
    decay_mult: 1
  }
  param {
    lr_mult: 2
    decay_mult: 0
  }
  inner_product_param {
    num_output: 4096
    weight_filler {
      type: "gaussian"
      std: 0.005
    }
    bias_filler {
      type: "constant"
      value: 0.1
    }
  }
}
layer {
  name: "relu6"
  type: "ReLU"
  bottom: "fc6"
  top: "fc6"
}
layer {
  name: "drop6"
  type: "Dropout"
  bottom: "fc6"
  top: "fc6"
  dropout_param {
    dropout_ratio: 0.5
  }
}
layer {
  name: "fc7"
  type: "InnerProduct"
  bottom: "fc6"
  top: "fc7"
  param {
    lr_mult: 1
    decay_mult: 1
  }
  param {
    lr_mult: 2
    decay_mult: 0
  }
  inner_product_param {
    num_output: 4096
    weight_filler {
      type: "gaussian"
      std: 0.005
    }
    bias_filler {
      type: "constant"
      value: 0.1
    }
  }
}
layer {
  name: "relu7"
  type: "ReLU"
  bottom: "fc7"
  top: "fc7"
}
layer {
  name: "drop7"
  type: "Dropout"
  bottom: "fc7"
  top: "fc7"
  dropout_param {
    dropout_ratio: 0.5
  }
}
layer {
  name: "fc8_plantvillage"
  type: "InnerProduct"
  bottom: "fc7"
  top: "fc8_plantvillage"
  param {
    lr_mult: 1
    decay_mult: 1
  }
  param {
    lr_mult: 2
    decay_mult: 0
  }
  inner_product_param {
    num_output: 38
    weight_filler {
      type: "gaussian"
      std: 0.01
    }
    bias_filler {
      type: "constant"
      value: 0
    }
  }
}
layer {
  name: "prob"
  type: "Softmax"
  bottom: "fc8_plantvillage"
  top: "prob"
  include {
    phase: TEST
  }
}
layer {
  name: "hdf5out"
  type: "HDF5Output"
  bottom: "prob"
  bottom: "label"
  include {
    phase: TEST
  }
  hdf5_output_param {
    file_name: "hdf5_dumps/iter_268.h5"
  }
}
layer {
  name: "loss"
  type: "SoftmaxWithLoss"
  bottom: "fc8_plantvillage"
  bottom: "label"
  top: "loss"
}
layer {
  name: "accuracy"
  type: "Accuracy"
  bottom: "fc8_plantvillage"
  bottom: "label"
  top: "accuracy"
  include {
    phase: TEST
  }
}
I0403 12:43:04.618942  9440 layer_factory.hpp:77] Creating layer data
I0403 12:43:04.619580  9440 net.cpp:91] Creating Layer data
I0403 12:43:04.619614  9440 net.cpp:399] data -> data
I0403 12:43:04.619664  9440 net.cpp:399] data -> label
I0403 12:43:04.619702  9440 data_transformer.cpp:25] Loading mean file from: /home/mohanty/data/final_dataset/lmdb/segmented-50-50/mean.binaryproto
I0403 12:43:04.636081  9443 db_lmdb.cpp:38] Opened lmdb /home/mohanty/data/final_dataset/lmdb/segmented-50-50/test_db
I0403 12:43:04.672117  9440 data_layer.cpp:41] output data size: 100,3,227,227
I0403 12:43:04.788182  9440 net.cpp:141] Setting up data
I0403 12:43:04.788271  9440 net.cpp:148] Top shape: 100 3 227 227 (15458700)
I0403 12:43:04.788293  9440 net.cpp:148] Top shape: 100 (100)
I0403 12:43:04.788308  9440 net.cpp:156] Memory required for data: 61835200
I0403 12:43:04.788336  9440 layer_factory.hpp:77] Creating layer label_data_1_split
I0403 12:43:04.788360  9440 net.cpp:91] Creating Layer label_data_1_split
I0403 12:43:04.788378  9440 net.cpp:425] label_data_1_split <- label
I0403 12:43:04.788409  9440 net.cpp:399] label_data_1_split -> label_data_1_split_0
I0403 12:43:04.788436  9440 net.cpp:399] label_data_1_split -> label_data_1_split_1
I0403 12:43:04.788456  9440 net.cpp:399] label_data_1_split -> label_data_1_split_2
I0403 12:43:04.788516  9440 net.cpp:141] Setting up label_data_1_split
I0403 12:43:04.788540  9440 net.cpp:148] Top shape: 100 (100)
I0403 12:43:04.788558  9440 net.cpp:148] Top shape: 100 (100)
I0403 12:43:04.788573  9440 net.cpp:148] Top shape: 100 (100)
I0403 12:43:04.788588  9440 net.cpp:156] Memory required for data: 61836400
I0403 12:43:04.788606  9440 layer_factory.hpp:77] Creating layer conv1
I0403 12:43:04.788645  9440 net.cpp:91] Creating Layer conv1
I0403 12:43:04.788664  9440 net.cpp:425] conv1 <- data
I0403 12:43:04.788683  9440 net.cpp:399] conv1 -> conv1
I0403 12:43:04.927593  9440 net.cpp:141] Setting up conv1
I0403 12:43:04.927661  9440 net.cpp:148] Top shape: 100 96 55 55 (29040000)
I0403 12:43:04.927678  9440 net.cpp:156] Memory required for data: 177996400
I0403 12:43:04.927711  9440 layer_factory.hpp:77] Creating layer relu1
I0403 12:43:04.927737  9440 net.cpp:91] Creating Layer relu1
I0403 12:43:04.927754  9440 net.cpp:425] relu1 <- conv1
I0403 12:43:04.927775  9440 net.cpp:386] relu1 -> conv1 (in-place)
I0403 12:43:04.928050  9440 net.cpp:141] Setting up relu1
I0403 12:43:04.928076  9440 net.cpp:148] Top shape: 100 96 55 55 (29040000)
I0403 12:43:04.928130  9440 net.cpp:156] Memory required for data: 294156400
I0403 12:43:04.928146  9440 layer_factory.hpp:77] Creating layer norm1
I0403 12:43:04.928174  9440 net.cpp:91] Creating Layer norm1
I0403 12:43:04.928191  9440 net.cpp:425] norm1 <- conv1
I0403 12:43:04.928232  9440 net.cpp:399] norm1 -> norm1
I0403 12:43:04.928556  9440 net.cpp:141] Setting up norm1
I0403 12:43:04.928593  9440 net.cpp:148] Top shape: 100 96 55 55 (29040000)
I0403 12:43:04.928613  9440 net.cpp:156] Memory required for data: 410316400
I0403 12:43:04.928628  9440 layer_factory.hpp:77] Creating layer pool1
I0403 12:43:04.928650  9440 net.cpp:91] Creating Layer pool1
I0403 12:43:04.928668  9440 net.cpp:425] pool1 <- norm1
I0403 12:43:04.928699  9440 net.cpp:399] pool1 -> pool1
I0403 12:43:04.928772  9440 net.cpp:141] Setting up pool1
I0403 12:43:04.928797  9440 net.cpp:148] Top shape: 100 96 27 27 (6998400)
I0403 12:43:04.928812  9440 net.cpp:156] Memory required for data: 438310000
I0403 12:43:04.928828  9440 layer_factory.hpp:77] Creating layer conv2
I0403 12:43:04.928853  9440 net.cpp:91] Creating Layer conv2
I0403 12:43:04.928880  9440 net.cpp:425] conv2 <- pool1
I0403 12:43:04.928900  9440 net.cpp:399] conv2 -> conv2
I0403 12:43:04.943966  9440 net.cpp:141] Setting up conv2
I0403 12:43:04.944012  9440 net.cpp:148] Top shape: 100 256 27 27 (18662400)
I0403 12:43:04.944028  9440 net.cpp:156] Memory required for data: 512959600
I0403 12:43:04.944051  9440 layer_factory.hpp:77] Creating layer relu2
I0403 12:43:04.944073  9440 net.cpp:91] Creating Layer relu2
I0403 12:43:04.944090  9440 net.cpp:425] relu2 <- conv2
I0403 12:43:04.944108  9440 net.cpp:386] relu2 -> conv2 (in-place)
I0403 12:43:04.944378  9440 net.cpp:141] Setting up relu2
I0403 12:43:04.944406  9440 net.cpp:148] Top shape: 100 256 27 27 (18662400)
I0403 12:43:04.944421  9440 net.cpp:156] Memory required for data: 587609200
I0403 12:43:04.944435  9440 layer_factory.hpp:77] Creating layer norm2
I0403 12:43:04.944458  9440 net.cpp:91] Creating Layer norm2
I0403 12:43:04.944473  9440 net.cpp:425] norm2 <- conv2
I0403 12:43:04.944507  9440 net.cpp:399] norm2 -> norm2
I0403 12:43:04.944756  9440 net.cpp:141] Setting up norm2
I0403 12:43:04.944783  9440 net.cpp:148] Top shape: 100 256 27 27 (18662400)
I0403 12:43:04.944799  9440 net.cpp:156] Memory required for data: 662258800
I0403 12:43:04.944825  9440 layer_factory.hpp:77] Creating layer pool2
I0403 12:43:04.944845  9440 net.cpp:91] Creating Layer pool2
I0403 12:43:04.944860  9440 net.cpp:425] pool2 <- norm2
I0403 12:43:04.944886  9440 net.cpp:399] pool2 -> pool2
I0403 12:43:04.944937  9440 net.cpp:141] Setting up pool2
I0403 12:43:04.944960  9440 net.cpp:148] Top shape: 100 256 13 13 (4326400)
I0403 12:43:04.944974  9440 net.cpp:156] Memory required for data: 679564400
I0403 12:43:04.944988  9440 layer_factory.hpp:77] Creating layer conv3
I0403 12:43:04.945010  9440 net.cpp:91] Creating Layer conv3
I0403 12:43:04.945027  9440 net.cpp:425] conv3 <- pool2
I0403 12:43:04.945047  9440 net.cpp:399] conv3 -> conv3
I0403 12:43:04.983669  9440 net.cpp:141] Setting up conv3
I0403 12:43:04.983739  9440 net.cpp:148] Top shape: 100 384 13 13 (6489600)
I0403 12:43:04.983757  9440 net.cpp:156] Memory required for data: 705522800
I0403 12:43:04.983782  9440 layer_factory.hpp:77] Creating layer relu3
I0403 12:43:04.983806  9440 net.cpp:91] Creating Layer relu3
I0403 12:43:04.983824  9440 net.cpp:425] relu3 <- conv3
I0403 12:43:04.983844  9440 net.cpp:386] relu3 -> conv3 (in-place)
I0403 12:43:04.984117  9440 net.cpp:141] Setting up relu3
I0403 12:43:04.984143  9440 net.cpp:148] Top shape: 100 384 13 13 (6489600)
I0403 12:43:04.984159  9440 net.cpp:156] Memory required for data: 731481200
I0403 12:43:04.984175  9440 layer_factory.hpp:77] Creating layer conv4
I0403 12:43:04.984200  9440 net.cpp:91] Creating Layer conv4
I0403 12:43:04.984218  9440 net.cpp:425] conv4 <- conv3
I0403 12:43:04.984239  9440 net.cpp:399] conv4 -> conv4
I0403 12:43:05.014679  9440 net.cpp:141] Setting up conv4
I0403 12:43:05.014750  9440 net.cpp:148] Top shape: 100 384 13 13 (6489600)
I0403 12:43:05.014814  9440 net.cpp:156] Memory required for data: 757439600
I0403 12:43:05.014837  9440 layer_factory.hpp:77] Creating layer relu4
I0403 12:43:05.014859  9440 net.cpp:91] Creating Layer relu4
I0403 12:43:05.014876  9440 net.cpp:425] relu4 <- conv4
I0403 12:43:05.014899  9440 net.cpp:386] relu4 -> conv4 (in-place)
I0403 12:43:05.015182  9440 net.cpp:141] Setting up relu4
I0403 12:43:05.015209  9440 net.cpp:148] Top shape: 100 384 13 13 (6489600)
I0403 12:43:05.015224  9440 net.cpp:156] Memory required for data: 783398000
I0403 12:43:05.015239  9440 layer_factory.hpp:77] Creating layer conv5
I0403 12:43:05.015265  9440 net.cpp:91] Creating Layer conv5
I0403 12:43:05.015282  9440 net.cpp:425] conv5 <- conv4
I0403 12:43:05.015303  9440 net.cpp:399] conv5 -> conv5
I0403 12:43:05.047097  9440 net.cpp:141] Setting up conv5
I0403 12:43:05.047168  9440 net.cpp:148] Top shape: 100 256 13 13 (4326400)
I0403 12:43:05.047184  9440 net.cpp:156] Memory required for data: 800703600
I0403 12:43:05.047210  9440 layer_factory.hpp:77] Creating layer relu5
I0403 12:43:05.047236  9440 net.cpp:91] Creating Layer relu5
I0403 12:43:05.047255  9440 net.cpp:425] relu5 <- conv5
I0403 12:43:05.047274  9440 net.cpp:386] relu5 -> conv5 (in-place)
I0403 12:43:05.047595  9440 net.cpp:141] Setting up relu5
I0403 12:43:05.047623  9440 net.cpp:148] Top shape: 100 256 13 13 (4326400)
I0403 12:43:05.047638  9440 net.cpp:156] Memory required for data: 818009200
I0403 12:43:05.047652  9440 layer_factory.hpp:77] Creating layer pool5
I0403 12:43:05.047677  9440 net.cpp:91] Creating Layer pool5
I0403 12:43:05.047693  9440 net.cpp:425] pool5 <- conv5
I0403 12:43:05.047713  9440 net.cpp:399] pool5 -> pool5
I0403 12:43:05.047775  9440 net.cpp:141] Setting up pool5
I0403 12:43:05.047798  9440 net.cpp:148] Top shape: 100 256 6 6 (921600)
I0403 12:43:05.047812  9440 net.cpp:156] Memory required for data: 821695600
I0403 12:43:05.047827  9440 layer_factory.hpp:77] Creating layer fc6
I0403 12:43:05.047855  9440 net.cpp:91] Creating Layer fc6
I0403 12:43:05.047873  9440 net.cpp:425] fc6 <- pool5
I0403 12:43:05.047891  9440 net.cpp:399] fc6 -> fc6
I0403 12:43:06.601150  9440 net.cpp:141] Setting up fc6
I0403 12:43:06.601227  9440 net.cpp:148] Top shape: 100 4096 (409600)
I0403 12:43:06.601243  9440 net.cpp:156] Memory required for data: 823334000
I0403 12:43:06.601265  9440 layer_factory.hpp:77] Creating layer relu6
I0403 12:43:06.601286  9440 net.cpp:91] Creating Layer relu6
I0403 12:43:06.601303  9440 net.cpp:425] relu6 <- fc6
I0403 12:43:06.601326  9440 net.cpp:386] relu6 -> fc6 (in-place)
I0403 12:43:06.601541  9440 net.cpp:141] Setting up relu6
I0403 12:43:06.601564  9440 net.cpp:148] Top shape: 100 4096 (409600)
I0403 12:43:06.601584  9440 net.cpp:156] Memory required for data: 824972400
I0403 12:43:06.601600  9440 layer_factory.hpp:77] Creating layer drop6
I0403 12:43:06.601621  9440 net.cpp:91] Creating Layer drop6
I0403 12:43:06.601636  9440 net.cpp:425] drop6 <- fc6
I0403 12:43:06.601654  9440 net.cpp:386] drop6 -> fc6 (in-place)
I0403 12:43:06.601703  9440 net.cpp:141] Setting up drop6
I0403 12:43:06.601728  9440 net.cpp:148] Top shape: 100 4096 (409600)
I0403 12:43:06.601743  9440 net.cpp:156] Memory required for data: 826610800
I0403 12:43:06.601758  9440 layer_factory.hpp:77] Creating layer fc7
I0403 12:43:06.601776  9440 net.cpp:91] Creating Layer fc7
I0403 12:43:06.601791  9440 net.cpp:425] fc7 <- fc6
I0403 12:43:06.601810  9440 net.cpp:399] fc7 -> fc7
I0403 12:43:07.286660  9440 net.cpp:141] Setting up fc7
I0403 12:43:07.286732  9440 net.cpp:148] Top shape: 100 4096 (409600)
I0403 12:43:07.286748  9440 net.cpp:156] Memory required for data: 828249200
I0403 12:43:07.286769  9440 layer_factory.hpp:77] Creating layer relu7
I0403 12:43:07.286789  9440 net.cpp:91] Creating Layer relu7
I0403 12:43:07.286806  9440 net.cpp:425] relu7 <- fc7
I0403 12:43:07.286828  9440 net.cpp:386] relu7 -> fc7 (in-place)
I0403 12:43:07.287245  9440 net.cpp:141] Setting up relu7
I0403 12:43:07.287271  9440 net.cpp:148] Top shape: 100 4096 (409600)
I0403 12:43:07.287322  9440 net.cpp:156] Memory required for data: 829887600
I0403 12:43:07.287338  9440 layer_factory.hpp:77] Creating layer drop7
I0403 12:43:07.287356  9440 net.cpp:91] Creating Layer drop7
I0403 12:43:07.287371  9440 net.cpp:425] drop7 <- fc7
I0403 12:43:07.287389  9440 net.cpp:386] drop7 -> fc7 (in-place)
I0403 12:43:07.287446  9440 net.cpp:141] Setting up drop7
I0403 12:43:07.287467  9440 net.cpp:148] Top shape: 100 4096 (409600)
I0403 12:43:07.287480  9440 net.cpp:156] Memory required for data: 831526000
I0403 12:43:07.287494  9440 layer_factory.hpp:77] Creating layer fc8_plantvillage
I0403 12:43:07.287513  9440 net.cpp:91] Creating Layer fc8_plantvillage
I0403 12:43:07.287526  9440 net.cpp:425] fc8_plantvillage <- fc7
I0403 12:43:07.287546  9440 net.cpp:399] fc8_plantvillage -> fc8_plantvillage
I0403 12:43:07.294100  9440 net.cpp:141] Setting up fc8_plantvillage
I0403 12:43:07.294137  9440 net.cpp:148] Top shape: 100 38 (3800)
I0403 12:43:07.294152  9440 net.cpp:156] Memory required for data: 831541200
I0403 12:43:07.294170  9440 layer_factory.hpp:77] Creating layer fc8_plantvillage_fc8_plantvillage_0_split
I0403 12:43:07.294194  9440 net.cpp:91] Creating Layer fc8_plantvillage_fc8_plantvillage_0_split
I0403 12:43:07.294211  9440 net.cpp:425] fc8_plantvillage_fc8_plantvillage_0_split <- fc8_plantvillage
I0403 12:43:07.294227  9440 net.cpp:399] fc8_plantvillage_fc8_plantvillage_0_split -> fc8_plantvillage_fc8_plantvillage_0_split_0
I0403 12:43:07.294245  9440 net.cpp:399] fc8_plantvillage_fc8_plantvillage_0_split -> fc8_plantvillage_fc8_plantvillage_0_split_1
I0403 12:43:07.294265  9440 net.cpp:399] fc8_plantvillage_fc8_plantvillage_0_split -> fc8_plantvillage_fc8_plantvillage_0_split_2
I0403 12:43:07.294340  9440 net.cpp:141] Setting up fc8_plantvillage_fc8_plantvillage_0_split
I0403 12:43:07.294364  9440 net.cpp:148] Top shape: 100 38 (3800)
I0403 12:43:07.294380  9440 net.cpp:148] Top shape: 100 38 (3800)
I0403 12:43:07.294395  9440 net.cpp:148] Top shape: 100 38 (3800)
I0403 12:43:07.294409  9440 net.cpp:156] Memory required for data: 831586800
I0403 12:43:07.294422  9440 layer_factory.hpp:77] Creating layer prob
I0403 12:43:07.294441  9440 net.cpp:91] Creating Layer prob
I0403 12:43:07.294456  9440 net.cpp:425] prob <- fc8_plantvillage_fc8_plantvillage_0_split_0
I0403 12:43:07.294473  9440 net.cpp:399] prob -> prob
I0403 12:43:07.294703  9440 net.cpp:141] Setting up prob
I0403 12:43:07.294728  9440 net.cpp:148] Top shape: 100 38 (3800)
I0403 12:43:07.294742  9440 net.cpp:156] Memory required for data: 831602000
I0403 12:43:07.294756  9440 layer_factory.hpp:77] Creating layer hdf5out
I0403 12:43:07.294786  9440 net.cpp:91] Creating Layer hdf5out
I0403 12:43:07.294801  9440 net.cpp:425] hdf5out <- prob
I0403 12:43:07.294817  9440 net.cpp:425] hdf5out <- label_data_1_split_0
I0403 12:43:07.304076  9440 net.cpp:141] Setting up hdf5out
…
