…
I0403 12:56:31.524513  9906 net.cpp:313] The NetState phase (1) differed from the phase (0) specified by a rule in layer data
I0403 12:56:31.524827  9906 net.cpp:49] Initializing net from parameters: 
state {
  phase: TEST
}
layer {
  name: "data"
  type: "Data"
  top: "data"
  top: "label"
  include {
    phase: TEST
  }
  transform_param {
    crop_size: 227
    mean_file: "/home/mohanty/data/final_dataset/lmdb/segmented-50-50/mean.binaryproto"
  }
  data_param {
    source: "/home/mohanty/data/final_dataset/lmdb/segmented-50-50/test_db"
    batch_size: 100
    backend: LMDB
  }
}
layer {
  name: "conv1"
  type: "Convolution"
  bottom: "data"
  top: "conv1"
  param {
    lr_mult: 1
    decay_mult: 1
  }
  param {
    lr_mult: 2
    decay_mult: 0
  }
  convolution_param {
    num_output: 96
    kernel_size: 11
    stride: 4
    weight_filler {
      type: "gaussian"
      std: 0.01
    }
    bias_filler {
      type: "constant"
      value: 0
    }
  }
}
layer {
  name: "relu1"
  type: "ReLU"
  bottom: "conv1"
  top: "conv1"
}
layer {
  name: "norm1"
  type: "LRN"
  bottom: "conv1"
  top: "norm1"
  lrn_param {
    local_size: 5
    alpha: 0.0001
    beta: 0.75
  }
}
layer {
  name: "pool1"
  type: "Pooling"
  bottom: "norm1"
  top: "pool1"
  pooling_param {
    pool: MAX
    kernel_size: 3
    stride: 2
  }
}
layer {
  name: "conv2"
  type: "Convolution"
  bottom: "pool1"
  top: "conv2"
  param {
    lr_mult: 1
    decay_mult: 1
  }
  param {
    lr_mult: 2
    decay_mult: 0
  }
  convolution_param {
    num_output: 256
    pad: 2
    kernel_size: 5
    group: 2
    weight_filler {
      type: "gaussian"
      std: 0.01
    }
    bias_filler {
      type: "constant"
      value: 0.1
    }
  }
}
layer {
  name: "relu2"
  type: "ReLU"
  bottom: "conv2"
  top: "conv2"
}
layer {
  name: "norm2"
  type: "LRN"
  bottom: "conv2"
  top: "norm2"
  lrn_param {
    local_size: 5
    alpha: 0.0001
    beta: 0.75
  }
}
layer {
  name: "pool2"
  type: "Pooling"
  bottom: "norm2"
  top: "pool2"
  pooling_param {
    pool: MAX
    kernel_size: 3
    stride: 2
  }
}
layer {
  name: "conv3"
  type: "Convolution"
  bottom: "pool2"
  top: "conv3"
  param {
    lr_mult: 1
    decay_mult: 1
  }
  param {
    lr_mult: 2
    decay_mult: 0
  }
  convolution_param {
    num_output: 384
    pad: 1
    kernel_size: 3
    weight_filler {
      type: "gaussian"
      std: 0.01
    }
    bias_filler {
      type: "constant"
      value: 0
    }
  }
}
layer {
  name: "relu3"
  type: "ReLU"
  bottom: "conv3"
  top: "conv3"
}
layer {
  name: "conv4"
  type: "Convolution"
  bottom: "conv3"
  top: "conv4"
  param {
    lr_mult: 1
    decay_mult: 1
  }
  param {
    lr_mult: 2
    decay_mult: 0
  }
  convolution_param {
    num_output: 384
    pad: 1
    kernel_size: 3
    group: 2
    weight_filler {
      type: "gaussian"
      std: 0.01
    }
    bias_filler {
      type: "constant"
      value: 0.1
    }
  }
}
layer {
  name: "relu4"
  type: "ReLU"
  bottom: "conv4"
  top: "conv4"
}
layer {
  name: "conv5"
  type: "Convolution"
  bottom: "conv4"
  top: "conv5"
  param {
    lr_mult: 1
    decay_mult: 1
  }
  param {
    lr_mult: 2
    decay_mult: 0
  }
  convolution_param {
    num_output: 256
    pad: 1
    kernel_size: 3
    group: 2
    weight_filler {
      type: "gaussian"
      std: 0.01
    }
    bias_filler {
      type: "constant"
      value: 0.1
    }
  }
}
layer {
  name: "relu5"
  type: "ReLU"
  bottom: "conv5"
  top: "conv5"
}
layer {
  name: "pool5"
  type: "Pooling"
  bottom: "conv5"
  top: "pool5"
  pooling_param {
    pool: MAX
    kernel_size: 3
    stride: 2
  }
}
layer {
  name: "fc6"
  type: "InnerProduct"
  bottom: "pool5"
  top: "fc6"
  param {
    lr_mult: 1
    decay_mult: 1
  }
  param {
    lr_mult: 2
    decay_mult: 0
  }
  inner_product_param {
    num_output: 4096
    weight_filler {
      type: "gaussian"
      std: 0.005
    }
    bias_filler {
      type: "constant"
      value: 0.1
    }
  }
}
layer {
  name: "relu6"
  type: "ReLU"
  bottom: "fc6"
  top: "fc6"
}
layer {
  name: "drop6"
  type: "Dropout"
  bottom: "fc6"
  top: "fc6"
  dropout_param {
    dropout_ratio: 0.5
  }
}
layer {
  name: "fc7"
  type: "InnerProduct"
  bottom: "fc6"
  top: "fc7"
  param {
    lr_mult: 1
    decay_mult: 1
  }
  param {
    lr_mult: 2
    decay_mult: 0
  }
  inner_product_param {
    num_output: 4096
    weight_filler {
      type: "gaussian"
      std: 0.005
    }
    bias_filler {
      type: "constant"
      value: 0.1
    }
  }
}
layer {
  name: "relu7"
  type: "ReLU"
  bottom: "fc7"
  top: "fc7"
}
layer {
  name: "drop7"
  type: "Dropout"
  bottom: "fc7"
  top: "fc7"
  dropout_param {
    dropout_ratio: 0.5
  }
}
layer {
  name: "fc8_plantvillage"
  type: "InnerProduct"
  bottom: "fc7"
  top: "fc8_plantvillage"
  param {
    lr_mult: 1
    decay_mult: 1
  }
  param {
    lr_mult: 2
    decay_mult: 0
  }
  inner_product_param {
    num_output: 38
    weight_filler {
      type: "gaussian"
      std: 0.01
    }
    bias_filler {
      type: "constant"
      value: 0
    }
  }
}
layer {
  name: "prob"
  type: "Softmax"
  bottom: "fc8_plantvillage"
  top: "prob"
  include {
    phase: TEST
  }
}
layer {
  name: "hdf5out"
  type: "HDF5Output"
  bottom: "prob"
  bottom: "label"
  include {
    phase: TEST
  }
  hdf5_output_param {
    file_name: "hdf5_dumps/iter_4556.h5"
  }
}
layer {
  name: "loss"
  type: "SoftmaxWithLoss"
  bottom: "fc8_plantvillage"
  bottom: "label"
  top: "loss"
}
layer {
  name: "accuracy"
  type: "Accuracy"
  bottom: "fc8_plantvillage"
  bottom: "label"
  top: "accuracy"
  include {
    phase: TEST
  }
}
I0403 12:56:31.525554  9906 layer_factory.hpp:77] Creating layer data
I0403 12:56:31.526219  9906 net.cpp:91] Creating Layer data
I0403 12:56:31.526262  9906 net.cpp:399] data -> data
I0403 12:56:31.526314  9906 net.cpp:399] data -> label
I0403 12:56:31.526350  9906 data_transformer.cpp:25] Loading mean file from: /home/mohanty/data/final_dataset/lmdb/segmented-50-50/mean.binaryproto
I0403 12:56:31.529825  9909 db_lmdb.cpp:38] Opened lmdb /home/mohanty/data/final_dataset/lmdb/segmented-50-50/test_db
I0403 12:56:31.540920  9906 data_layer.cpp:41] output data size: 100,3,227,227
I0403 12:56:31.660503  9906 net.cpp:141] Setting up data
I0403 12:56:31.660573  9906 net.cpp:148] Top shape: 100 3 227 227 (15458700)
I0403 12:56:31.660601  9906 net.cpp:148] Top shape: 100 (100)
I0403 12:56:31.660619  9906 net.cpp:156] Memory required for data: 61835200
I0403 12:56:31.660650  9906 layer_factory.hpp:77] Creating layer label_data_1_split
I0403 12:56:31.660687  9906 net.cpp:91] Creating Layer label_data_1_split
I0403 12:56:31.660706  9906 net.cpp:425] label_data_1_split <- label
I0403 12:56:31.660737  9906 net.cpp:399] label_data_1_split -> label_data_1_split_0
I0403 12:56:31.660764  9906 net.cpp:399] label_data_1_split -> label_data_1_split_1
I0403 12:56:31.660785  9906 net.cpp:399] label_data_1_split -> label_data_1_split_2
I0403 12:56:31.660848  9906 net.cpp:141] Setting up label_data_1_split
I0403 12:56:31.660872  9906 net.cpp:148] Top shape: 100 (100)
I0403 12:56:31.660889  9906 net.cpp:148] Top shape: 100 (100)
I0403 12:56:31.660907  9906 net.cpp:148] Top shape: 100 (100)
I0403 12:56:31.660919  9906 net.cpp:156] Memory required for data: 61836400
I0403 12:56:31.660934  9906 layer_factory.hpp:77] Creating layer conv1
I0403 12:56:31.660965  9906 net.cpp:91] Creating Layer conv1
I0403 12:56:31.660984  9906 net.cpp:425] conv1 <- data
I0403 12:56:31.661003  9906 net.cpp:399] conv1 -> conv1
I0403 12:56:31.801164  9906 net.cpp:141] Setting up conv1
I0403 12:56:31.801242  9906 net.cpp:148] Top shape: 100 96 55 55 (29040000)
I0403 12:56:31.801261  9906 net.cpp:156] Memory required for data: 177996400
I0403 12:56:31.801293  9906 layer_factory.hpp:77] Creating layer relu1
I0403 12:56:31.801321  9906 net.cpp:91] Creating Layer relu1
I0403 12:56:31.801342  9906 net.cpp:425] relu1 <- conv1
I0403 12:56:31.801360  9906 net.cpp:386] relu1 -> conv1 (in-place)
I0403 12:56:31.801625  9906 net.cpp:141] Setting up relu1
I0403 12:56:31.801653  9906 net.cpp:148] Top shape: 100 96 55 55 (29040000)
I0403 12:56:31.801710  9906 net.cpp:156] Memory required for data: 294156400
I0403 12:56:31.801728  9906 layer_factory.hpp:77] Creating layer norm1
I0403 12:56:31.801755  9906 net.cpp:91] Creating Layer norm1
I0403 12:56:31.801774  9906 net.cpp:425] norm1 <- conv1
I0403 12:56:31.801791  9906 net.cpp:399] norm1 -> norm1
I0403 12:56:31.802136  9906 net.cpp:141] Setting up norm1
I0403 12:56:31.802165  9906 net.cpp:148] Top shape: 100 96 55 55 (29040000)
I0403 12:56:31.802181  9906 net.cpp:156] Memory required for data: 410316400
I0403 12:56:31.802196  9906 layer_factory.hpp:77] Creating layer pool1
I0403 12:56:31.802220  9906 net.cpp:91] Creating Layer pool1
I0403 12:56:31.802237  9906 net.cpp:425] pool1 <- norm1
I0403 12:56:31.802256  9906 net.cpp:399] pool1 -> pool1
I0403 12:56:31.802323  9906 net.cpp:141] Setting up pool1
I0403 12:56:31.802348  9906 net.cpp:148] Top shape: 100 96 27 27 (6998400)
I0403 12:56:31.802363  9906 net.cpp:156] Memory required for data: 438310000
I0403 12:56:31.802379  9906 layer_factory.hpp:77] Creating layer conv2
I0403 12:56:31.802403  9906 net.cpp:91] Creating Layer conv2
I0403 12:56:31.802420  9906 net.cpp:425] conv2 <- pool1
I0403 12:56:31.802438  9906 net.cpp:399] conv2 -> conv2
I0403 12:56:31.818080  9906 net.cpp:141] Setting up conv2
I0403 12:56:31.818137  9906 net.cpp:148] Top shape: 100 256 27 27 (18662400)
I0403 12:56:31.818156  9906 net.cpp:156] Memory required for data: 512959600
I0403 12:56:31.818179  9906 layer_factory.hpp:77] Creating layer relu2
I0403 12:56:31.818202  9906 net.cpp:91] Creating Layer relu2
I0403 12:56:31.818220  9906 net.cpp:425] relu2 <- conv2
I0403 12:56:31.818240  9906 net.cpp:386] relu2 -> conv2 (in-place)
I0403 12:56:31.818544  9906 net.cpp:141] Setting up relu2
I0403 12:56:31.818572  9906 net.cpp:148] Top shape: 100 256 27 27 (18662400)
I0403 12:56:31.818588  9906 net.cpp:156] Memory required for data: 587609200
I0403 12:56:31.818609  9906 layer_factory.hpp:77] Creating layer norm2
I0403 12:56:31.818635  9906 net.cpp:91] Creating Layer norm2
I0403 12:56:31.818655  9906 net.cpp:425] norm2 <- conv2
I0403 12:56:31.818696  9906 net.cpp:399] norm2 -> norm2
I0403 12:56:31.818913  9906 net.cpp:141] Setting up norm2
I0403 12:56:31.818940  9906 net.cpp:148] Top shape: 100 256 27 27 (18662400)
I0403 12:56:31.818956  9906 net.cpp:156] Memory required for data: 662258800
I0403 12:56:31.818972  9906 layer_factory.hpp:77] Creating layer pool2
I0403 12:56:31.818994  9906 net.cpp:91] Creating Layer pool2
I0403 12:56:31.819011  9906 net.cpp:425] pool2 <- norm2
I0403 12:56:31.819030  9906 net.cpp:399] pool2 -> pool2
I0403 12:56:31.819085  9906 net.cpp:141] Setting up pool2
I0403 12:56:31.819110  9906 net.cpp:148] Top shape: 100 256 13 13 (4326400)
I0403 12:56:31.819126  9906 net.cpp:156] Memory required for data: 679564400
I0403 12:56:31.819141  9906 layer_factory.hpp:77] Creating layer conv3
I0403 12:56:31.819167  9906 net.cpp:91] Creating Layer conv3
I0403 12:56:31.819185  9906 net.cpp:425] conv3 <- pool2
I0403 12:56:31.819206  9906 net.cpp:399] conv3 -> conv3
I0403 12:56:31.857872  9906 net.cpp:141] Setting up conv3
I0403 12:56:31.857940  9906 net.cpp:148] Top shape: 100 384 13 13 (6489600)
I0403 12:56:31.857957  9906 net.cpp:156] Memory required for data: 705522800
I0403 12:56:31.857985  9906 layer_factory.hpp:77] Creating layer relu3
I0403 12:56:31.858008  9906 net.cpp:91] Creating Layer relu3
I0403 12:56:31.858026  9906 net.cpp:425] relu3 <- conv3
I0403 12:56:31.858045  9906 net.cpp:386] relu3 -> conv3 (in-place)
I0403 12:56:31.858316  9906 net.cpp:141] Setting up relu3
I0403 12:56:31.858342  9906 net.cpp:148] Top shape: 100 384 13 13 (6489600)
I0403 12:56:31.858357  9906 net.cpp:156] Memory required for data: 731481200
I0403 12:56:31.858372  9906 layer_factory.hpp:77] Creating layer conv4
I0403 12:56:31.858398  9906 net.cpp:91] Creating Layer conv4
I0403 12:56:31.858415  9906 net.cpp:425] conv4 <- conv3
I0403 12:56:31.858438  9906 net.cpp:399] conv4 -> conv4
I0403 12:56:31.888511  9906 net.cpp:141] Setting up conv4
I0403 12:56:31.888577  9906 net.cpp:148] Top shape: 100 384 13 13 (6489600)
I0403 12:56:31.888631  9906 net.cpp:156] Memory required for data: 757439600
I0403 12:56:31.888654  9906 layer_factory.hpp:77] Creating layer relu4
I0403 12:56:31.888679  9906 net.cpp:91] Creating Layer relu4
I0403 12:56:31.888697  9906 net.cpp:425] relu4 <- conv4
I0403 12:56:31.888717  9906 net.cpp:386] relu4 -> conv4 (in-place)
I0403 12:56:31.888991  9906 net.cpp:141] Setting up relu4
I0403 12:56:31.889017  9906 net.cpp:148] Top shape: 100 384 13 13 (6489600)
I0403 12:56:31.889034  9906 net.cpp:156] Memory required for data: 783398000
I0403 12:56:31.889048  9906 layer_factory.hpp:77] Creating layer conv5
I0403 12:56:31.889075  9906 net.cpp:91] Creating Layer conv5
I0403 12:56:31.889091  9906 net.cpp:425] conv5 <- conv4
I0403 12:56:31.889112  9906 net.cpp:399] conv5 -> conv5
I0403 12:56:31.909870  9906 net.cpp:141] Setting up conv5
I0403 12:56:31.909920  9906 net.cpp:148] Top shape: 100 256 13 13 (4326400)
I0403 12:56:31.909936  9906 net.cpp:156] Memory required for data: 800703600
I0403 12:56:31.909962  9906 layer_factory.hpp:77] Creating layer relu5
I0403 12:56:31.909988  9906 net.cpp:91] Creating Layer relu5
I0403 12:56:31.910007  9906 net.cpp:425] relu5 <- conv5
I0403 12:56:31.910027  9906 net.cpp:386] relu5 -> conv5 (in-place)
I0403 12:56:31.910306  9906 net.cpp:141] Setting up relu5
I0403 12:56:31.910334  9906 net.cpp:148] Top shape: 100 256 13 13 (4326400)
I0403 12:56:31.910351  9906 net.cpp:156] Memory required for data: 818009200
I0403 12:56:31.910365  9906 layer_factory.hpp:77] Creating layer pool5
I0403 12:56:31.910392  9906 net.cpp:91] Creating Layer pool5
I0403 12:56:31.910411  9906 net.cpp:425] pool5 <- conv5
I0403 12:56:31.910434  9906 net.cpp:399] pool5 -> pool5
I0403 12:56:31.910495  9906 net.cpp:141] Setting up pool5
I0403 12:56:31.910518  9906 net.cpp:148] Top shape: 100 256 6 6 (921600)
I0403 12:56:31.910533  9906 net.cpp:156] Memory required for data: 821695600
I0403 12:56:31.910548  9906 layer_factory.hpp:77] Creating layer fc6
I0403 12:56:31.910578  9906 net.cpp:91] Creating Layer fc6
I0403 12:56:31.910596  9906 net.cpp:425] fc6 <- pool5
I0403 12:56:31.910620  9906 net.cpp:399] fc6 -> fc6
I0403 12:56:33.462927  9906 net.cpp:141] Setting up fc6
I0403 12:56:33.462970  9906 net.cpp:148] Top shape: 100 4096 (409600)
I0403 12:56:33.462986  9906 net.cpp:156] Memory required for data: 823334000
I0403 12:56:33.463007  9906 layer_factory.hpp:77] Creating layer relu6
I0403 12:56:33.463028  9906 net.cpp:91] Creating Layer relu6
I0403 12:56:33.463045  9906 net.cpp:425] relu6 <- fc6
I0403 12:56:33.463066  9906 net.cpp:386] relu6 -> fc6 (in-place)
I0403 12:56:33.463285  9906 net.cpp:141] Setting up relu6
I0403 12:56:33.463310  9906 net.cpp:148] Top shape: 100 4096 (409600)
I0403 12:56:33.463323  9906 net.cpp:156] Memory required for data: 824972400
I0403 12:56:33.463337  9906 layer_factory.hpp:77] Creating layer drop6
I0403 12:56:33.463357  9906 net.cpp:91] Creating Layer drop6
I0403 12:56:33.463373  9906 net.cpp:425] drop6 <- fc6
I0403 12:56:33.463389  9906 net.cpp:386] drop6 -> fc6 (in-place)
I0403 12:56:33.463443  9906 net.cpp:141] Setting up drop6
I0403 12:56:33.463465  9906 net.cpp:148] Top shape: 100 4096 (409600)
I0403 12:56:33.463480  9906 net.cpp:156] Memory required for data: 826610800
I0403 12:56:33.463495  9906 layer_factory.hpp:77] Creating layer fc7
I0403 12:56:33.463512  9906 net.cpp:91] Creating Layer fc7
I0403 12:56:33.463528  9906 net.cpp:425] fc7 <- fc6
I0403 12:56:33.463548  9906 net.cpp:399] fc7 -> fc7
I0403 12:56:34.185088  9906 net.cpp:141] Setting up fc7
I0403 12:56:34.185178  9906 net.cpp:148] Top shape: 100 4096 (409600)
I0403 12:56:34.185192  9906 net.cpp:156] Memory required for data: 828249200
I0403 12:56:34.185214  9906 layer_factory.hpp:77] Creating layer relu7
I0403 12:56:34.185237  9906 net.cpp:91] Creating Layer relu7
I0403 12:56:34.185256  9906 net.cpp:425] relu7 <- fc7
I0403 12:56:34.185274  9906 net.cpp:386] relu7 -> fc7 (in-place)
I0403 12:56:35.954227  9906 net.cpp:141] Setting up relu7
I0403 12:56:35.954336  9906 net.cpp:148] Top shape: 100 4096 (409600)
I0403 12:56:35.954457  9906 net.cpp:156] Memory required for data: 829887600
I0403 12:56:35.954517  9906 layer_factory.hpp:77] Creating layer drop7
I0403 12:56:35.954545  9906 net.cpp:91] Creating Layer drop7
I0403 12:56:35.954573  9906 net.cpp:425] drop7 <- fc7
I0403 12:56:35.954594  9906 net.cpp:386] drop7 -> fc7 (in-place)
I0403 12:56:35.954680  9906 net.cpp:141] Setting up drop7
I0403 12:56:35.954704  9906 net.cpp:148] Top shape: 100 4096 (409600)
I0403 12:56:35.954718  9906 net.cpp:156] Memory required for data: 831526000
I0403 12:56:35.954733  9906 layer_factory.hpp:77] Creating layer fc8_plantvillage
I0403 12:56:35.954753  9906 net.cpp:91] Creating Layer fc8_plantvillage
I0403 12:56:35.954768  9906 net.cpp:425] fc8_plantvillage <- fc7
I0403 12:56:35.954790  9906 net.cpp:399] fc8_plantvillage -> fc8_plantvillage
I0403 12:56:35.961966  9906 net.cpp:141] Setting up fc8_plantvillage
I0403 12:56:35.961994  9906 net.cpp:148] Top shape: 100 38 (3800)
I0403 12:56:35.962009  9906 net.cpp:156] Memory required for data: 831541200
I0403 12:56:35.962028  9906 layer_factory.hpp:77] Creating layer fc8_plantvillage_fc8_plantvillage_0_split
I0403 12:56:35.962050  9906 net.cpp:91] Creating Layer fc8_plantvillage_fc8_plantvillage_0_split
I0403 12:56:35.962066  9906 net.cpp:425] fc8_plantvillage_fc8_plantvillage_0_split <- fc8_plantvillage
I0403 12:56:35.962083  9906 net.cpp:399] fc8_plantvillage_fc8_plantvillage_0_split -> fc8_plantvillage_fc8_plantvillage_0_split_0
I0403 12:56:35.962103  9906 net.cpp:399] fc8_plantvillage_fc8_plantvillage_0_split -> fc8_plantvillage_fc8_plantvillage_0_split_1
I0403 12:56:35.962126  9906 net.cpp:399] fc8_plantvillage_fc8_plantvillage_0_split -> fc8_plantvillage_fc8_plantvillage_0_split_2
I0403 12:56:35.962198  9906 net.cpp:141] Setting up fc8_plantvillage_fc8_plantvillage_0_split
I0403 12:56:35.962221  9906 net.cpp:148] Top shape: 100 38 (3800)
I0403 12:56:35.962237  9906 net.cpp:148] Top shape: 100 38 (3800)
I0403 12:56:35.962252  9906 net.cpp:148] Top shape: 100 38 (3800)
I0403 12:56:35.962266  9906 net.cpp:156] Memory required for data: 831586800
I0403 12:56:35.962281  9906 layer_factory.hpp:77] Creating layer prob
I0403 12:56:35.962298  9906 net.cpp:91] Creating Layer prob
I0403 12:56:35.962313  9906 net.cpp:425] prob <- fc8_plantvillage_fc8_plantvillage_0_split_0
I0403 12:56:35.962333  9906 net.cpp:399] prob -> prob
I0403 12:56:35.962564  9906 net.cpp:141] Setting up prob
I0403 12:56:35.962589  9906 net.cpp:148] Top shape: 100 38 (3800)
I0403 12:56:35.962609  9906 net.cpp:156] Memory required for data: 831602000
I0403 12:56:35.962623  9906 layer_factory.hpp:77] Creating layer hdf5out
I0403 12:56:35.962644  9906 net.cpp:91] Creating Layer hdf5out
I0403 12:56:35.962661  9906 net.cpp:425] hdf5out <- prob
I0403 12:56:35.962677  9906 net.cpp:425] hdf5out <- label_data_1_split_0
I0403 12:56:35.968034  9906 net.cpp:141] Setting up hdf5out
…
