…
I0403 12:54:00.210562  9849 net.cpp:313] The NetState phase (1) differed from the phase (0) specified by a rule in layer data
I0403 12:54:00.210891  9849 net.cpp:49] Initializing net from parameters: 
state {
  phase: TEST
}
layer {
  name: "data"
  type: "Data"
  top: "data"
  top: "label"
  include {
    phase: TEST
  }
  transform_param {
    crop_size: 227
    mean_file: "/home/mohanty/data/final_dataset/lmdb/segmented-50-50/mean.binaryproto"
  }
  data_param {
    source: "/home/mohanty/data/final_dataset/lmdb/segmented-50-50/test_db"
    batch_size: 100
    backend: LMDB
  }
}
layer {
  name: "conv1"
  type: "Convolution"
  bottom: "data"
  top: "conv1"
  param {
    lr_mult: 1
    decay_mult: 1
  }
  param {
    lr_mult: 2
    decay_mult: 0
  }
  convolution_param {
    num_output: 96
    kernel_size: 11
    stride: 4
    weight_filler {
      type: "gaussian"
      std: 0.01
    }
    bias_filler {
      type: "constant"
      value: 0
    }
  }
}
layer {
  name: "relu1"
  type: "ReLU"
  bottom: "conv1"
  top: "conv1"
}
layer {
  name: "norm1"
  type: "LRN"
  bottom: "conv1"
  top: "norm1"
  lrn_param {
    local_size: 5
    alpha: 0.0001
    beta: 0.75
  }
}
layer {
  name: "pool1"
  type: "Pooling"
  bottom: "norm1"
  top: "pool1"
  pooling_param {
    pool: MAX
    kernel_size: 3
    stride: 2
  }
}
layer {
  name: "conv2"
  type: "Convolution"
  bottom: "pool1"
  top: "conv2"
  param {
    lr_mult: 1
    decay_mult: 1
  }
  param {
    lr_mult: 2
    decay_mult: 0
  }
  convolution_param {
    num_output: 256
    pad: 2
    kernel_size: 5
    group: 2
    weight_filler {
      type: "gaussian"
      std: 0.01
    }
    bias_filler {
      type: "constant"
      value: 0.1
    }
  }
}
layer {
  name: "relu2"
  type: "ReLU"
  bottom: "conv2"
  top: "conv2"
}
layer {
  name: "norm2"
  type: "LRN"
  bottom: "conv2"
  top: "norm2"
  lrn_param {
    local_size: 5
    alpha: 0.0001
    beta: 0.75
  }
}
layer {
  name: "pool2"
  type: "Pooling"
  bottom: "norm2"
  top: "pool2"
  pooling_param {
    pool: MAX
    kernel_size: 3
    stride: 2
  }
}
layer {
  name: "conv3"
  type: "Convolution"
  bottom: "pool2"
  top: "conv3"
  param {
    lr_mult: 1
    decay_mult: 1
  }
  param {
    lr_mult: 2
    decay_mult: 0
  }
  convolution_param {
    num_output: 384
    pad: 1
    kernel_size: 3
    weight_filler {
      type: "gaussian"
      std: 0.01
    }
    bias_filler {
      type: "constant"
      value: 0
    }
  }
}
layer {
  name: "relu3"
  type: "ReLU"
  bottom: "conv3"
  top: "conv3"
}
layer {
  name: "conv4"
  type: "Convolution"
  bottom: "conv3"
  top: "conv4"
  param {
    lr_mult: 1
    decay_mult: 1
  }
  param {
    lr_mult: 2
    decay_mult: 0
  }
  convolution_param {
    num_output: 384
    pad: 1
    kernel_size: 3
    group: 2
    weight_filler {
      type: "gaussian"
      std: 0.01
    }
    bias_filler {
      type: "constant"
      value: 0.1
    }
  }
}
layer {
  name: "relu4"
  type: "ReLU"
  bottom: "conv4"
  top: "conv4"
}
layer {
  name: "conv5"
  type: "Convolution"
  bottom: "conv4"
  top: "conv5"
  param {
    lr_mult: 1
    decay_mult: 1
  }
  param {
    lr_mult: 2
    decay_mult: 0
  }
  convolution_param {
    num_output: 256
    pad: 1
    kernel_size: 3
    group: 2
    weight_filler {
      type: "gaussian"
      std: 0.01
    }
    bias_filler {
      type: "constant"
      value: 0.1
    }
  }
}
layer {
  name: "relu5"
  type: "ReLU"
  bottom: "conv5"
  top: "conv5"
}
layer {
  name: "pool5"
  type: "Pooling"
  bottom: "conv5"
  top: "pool5"
  pooling_param {
    pool: MAX
    kernel_size: 3
    stride: 2
  }
}
layer {
  name: "fc6"
  type: "InnerProduct"
  bottom: "pool5"
  top: "fc6"
  param {
    lr_mult: 1
    decay_mult: 1
  }
  param {
    lr_mult: 2
    decay_mult: 0
  }
  inner_product_param {
    num_output: 4096
    weight_filler {
      type: "gaussian"
      std: 0.005
    }
    bias_filler {
      type: "constant"
      value: 0.1
    }
  }
}
layer {
  name: "relu6"
  type: "ReLU"
  bottom: "fc6"
  top: "fc6"
}
layer {
  name: "drop6"
  type: "Dropout"
  bottom: "fc6"
  top: "fc6"
  dropout_param {
    dropout_ratio: 0.5
  }
}
layer {
  name: "fc7"
  type: "InnerProduct"
  bottom: "fc6"
  top: "fc7"
  param {
    lr_mult: 1
    decay_mult: 1
  }
  param {
    lr_mult: 2
    decay_mult: 0
  }
  inner_product_param {
    num_output: 4096
    weight_filler {
      type: "gaussian"
      std: 0.005
    }
    bias_filler {
      type: "constant"
      value: 0.1
    }
  }
}
layer {
  name: "relu7"
  type: "ReLU"
  bottom: "fc7"
  top: "fc7"
}
layer {
  name: "drop7"
  type: "Dropout"
  bottom: "fc7"
  top: "fc7"
  dropout_param {
    dropout_ratio: 0.5
  }
}
layer {
  name: "fc8_plantvillage"
  type: "InnerProduct"
  bottom: "fc7"
  top: "fc8_plantvillage"
  param {
    lr_mult: 1
    decay_mult: 1
  }
  param {
    lr_mult: 2
    decay_mult: 0
  }
  inner_product_param {
    num_output: 38
    weight_filler {
      type: "gaussian"
      std: 0.01
    }
    bias_filler {
      type: "constant"
      value: 0
    }
  }
}
layer {
  name: "prob"
  type: "Softmax"
  bottom: "fc8_plantvillage"
  top: "prob"
  include {
    phase: TEST
  }
}
layer {
  name: "hdf5out"
  type: "HDF5Output"
  bottom: "prob"
  bottom: "label"
  include {
    phase: TEST
  }
  hdf5_output_param {
    file_name: "hdf5_dumps/iter_3752.h5"
  }
}
layer {
  name: "loss"
  type: "SoftmaxWithLoss"
  bottom: "fc8_plantvillage"
  bottom: "label"
  top: "loss"
}
layer {
  name: "accuracy"
  type: "Accuracy"
  bottom: "fc8_plantvillage"
  bottom: "label"
  top: "accuracy"
  include {
    phase: TEST
  }
}
I0403 12:54:00.211483  9849 layer_factory.hpp:77] Creating layer data
I0403 12:54:00.212146  9849 net.cpp:91] Creating Layer data
I0403 12:54:00.212179  9849 net.cpp:399] data -> data
I0403 12:54:00.212230  9849 net.cpp:399] data -> label
I0403 12:54:00.212267  9849 data_transformer.cpp:25] Loading mean file from: /home/mohanty/data/final_dataset/lmdb/segmented-50-50/mean.binaryproto
I0403 12:54:00.215553  9852 db_lmdb.cpp:38] Opened lmdb /home/mohanty/data/final_dataset/lmdb/segmented-50-50/test_db
I0403 12:54:00.226672  9849 data_layer.cpp:41] output data size: 100,3,227,227
I0403 12:54:00.349314  9849 net.cpp:141] Setting up data
I0403 12:54:00.349406  9849 net.cpp:148] Top shape: 100 3 227 227 (15458700)
I0403 12:54:00.349431  9849 net.cpp:148] Top shape: 100 (100)
I0403 12:54:00.349447  9849 net.cpp:156] Memory required for data: 61835200
I0403 12:54:00.349475  9849 layer_factory.hpp:77] Creating layer label_data_1_split
I0403 12:54:00.349501  9849 net.cpp:91] Creating Layer label_data_1_split
I0403 12:54:00.349519  9849 net.cpp:425] label_data_1_split <- label
I0403 12:54:00.349553  9849 net.cpp:399] label_data_1_split -> label_data_1_split_0
I0403 12:54:00.349581  9849 net.cpp:399] label_data_1_split -> label_data_1_split_1
I0403 12:54:00.349606  9849 net.cpp:399] label_data_1_split -> label_data_1_split_2
I0403 12:54:00.349673  9849 net.cpp:141] Setting up label_data_1_split
I0403 12:54:00.349699  9849 net.cpp:148] Top shape: 100 (100)
I0403 12:54:00.349715  9849 net.cpp:148] Top shape: 100 (100)
I0403 12:54:00.349732  9849 net.cpp:148] Top shape: 100 (100)
I0403 12:54:00.349746  9849 net.cpp:156] Memory required for data: 61836400
I0403 12:54:00.349762  9849 layer_factory.hpp:77] Creating layer conv1
I0403 12:54:00.349795  9849 net.cpp:91] Creating Layer conv1
I0403 12:54:00.349814  9849 net.cpp:425] conv1 <- data
I0403 12:54:00.349834  9849 net.cpp:399] conv1 -> conv1
I0403 12:54:00.493295  9849 net.cpp:141] Setting up conv1
I0403 12:54:00.493371  9849 net.cpp:148] Top shape: 100 96 55 55 (29040000)
I0403 12:54:00.493389  9849 net.cpp:156] Memory required for data: 177996400
I0403 12:54:00.493420  9849 layer_factory.hpp:77] Creating layer relu1
I0403 12:54:00.493448  9849 net.cpp:91] Creating Layer relu1
I0403 12:54:00.493466  9849 net.cpp:425] relu1 <- conv1
I0403 12:54:00.493485  9849 net.cpp:386] relu1 -> conv1 (in-place)
I0403 12:54:00.493752  9849 net.cpp:141] Setting up relu1
I0403 12:54:00.493779  9849 net.cpp:148] Top shape: 100 96 55 55 (29040000)
I0403 12:54:00.493829  9849 net.cpp:156] Memory required for data: 294156400
I0403 12:54:00.493846  9849 layer_factory.hpp:77] Creating layer norm1
I0403 12:54:00.493872  9849 net.cpp:91] Creating Layer norm1
I0403 12:54:00.493892  9849 net.cpp:425] norm1 <- conv1
I0403 12:54:00.493909  9849 net.cpp:399] norm1 -> norm1
I0403 12:54:00.494266  9849 net.cpp:141] Setting up norm1
I0403 12:54:00.494294  9849 net.cpp:148] Top shape: 100 96 55 55 (29040000)
I0403 12:54:00.494312  9849 net.cpp:156] Memory required for data: 410316400
I0403 12:54:00.494326  9849 layer_factory.hpp:77] Creating layer pool1
I0403 12:54:00.494350  9849 net.cpp:91] Creating Layer pool1
I0403 12:54:00.494369  9849 net.cpp:425] pool1 <- norm1
I0403 12:54:00.494386  9849 net.cpp:399] pool1 -> pool1
I0403 12:54:00.494451  9849 net.cpp:141] Setting up pool1
I0403 12:54:00.494477  9849 net.cpp:148] Top shape: 100 96 27 27 (6998400)
I0403 12:54:00.494491  9849 net.cpp:156] Memory required for data: 438310000
I0403 12:54:00.494506  9849 layer_factory.hpp:77] Creating layer conv2
I0403 12:54:00.494530  9849 net.cpp:91] Creating Layer conv2
I0403 12:54:00.494547  9849 net.cpp:425] conv2 <- pool1
I0403 12:54:00.494565  9849 net.cpp:399] conv2 -> conv2
I0403 12:54:00.509716  9849 net.cpp:141] Setting up conv2
I0403 12:54:00.509762  9849 net.cpp:148] Top shape: 100 256 27 27 (18662400)
I0403 12:54:00.509778  9849 net.cpp:156] Memory required for data: 512959600
I0403 12:54:00.509801  9849 layer_factory.hpp:77] Creating layer relu2
I0403 12:54:00.509821  9849 net.cpp:91] Creating Layer relu2
I0403 12:54:00.509837  9849 net.cpp:425] relu2 <- conv2
I0403 12:54:00.509857  9849 net.cpp:386] relu2 -> conv2 (in-place)
I0403 12:54:00.510130  9849 net.cpp:141] Setting up relu2
I0403 12:54:00.510157  9849 net.cpp:148] Top shape: 100 256 27 27 (18662400)
I0403 12:54:00.510172  9849 net.cpp:156] Memory required for data: 587609200
I0403 12:54:00.510187  9849 layer_factory.hpp:77] Creating layer norm2
I0403 12:54:00.510211  9849 net.cpp:91] Creating Layer norm2
I0403 12:54:00.510241  9849 net.cpp:425] norm2 <- conv2
I0403 12:54:00.510258  9849 net.cpp:399] norm2 -> norm2
I0403 12:54:00.510504  9849 net.cpp:141] Setting up norm2
I0403 12:54:00.510534  9849 net.cpp:148] Top shape: 100 256 27 27 (18662400)
I0403 12:54:00.510550  9849 net.cpp:156] Memory required for data: 662258800
I0403 12:54:00.510577  9849 layer_factory.hpp:77] Creating layer pool2
I0403 12:54:00.510594  9849 net.cpp:91] Creating Layer pool2
I0403 12:54:00.510615  9849 net.cpp:425] pool2 <- norm2
I0403 12:54:00.510635  9849 net.cpp:399] pool2 -> pool2
I0403 12:54:00.510689  9849 net.cpp:141] Setting up pool2
I0403 12:54:00.510710  9849 net.cpp:148] Top shape: 100 256 13 13 (4326400)
I0403 12:54:00.510725  9849 net.cpp:156] Memory required for data: 679564400
I0403 12:54:00.510740  9849 layer_factory.hpp:77] Creating layer conv3
I0403 12:54:00.510762  9849 net.cpp:91] Creating Layer conv3
I0403 12:54:00.510779  9849 net.cpp:425] conv3 <- pool2
I0403 12:54:00.510800  9849 net.cpp:399] conv3 -> conv3
I0403 12:54:00.549702  9849 net.cpp:141] Setting up conv3
I0403 12:54:00.549777  9849 net.cpp:148] Top shape: 100 384 13 13 (6489600)
I0403 12:54:00.549795  9849 net.cpp:156] Memory required for data: 705522800
I0403 12:54:00.549821  9849 layer_factory.hpp:77] Creating layer relu3
I0403 12:54:00.549845  9849 net.cpp:91] Creating Layer relu3
I0403 12:54:00.549862  9849 net.cpp:425] relu3 <- conv3
I0403 12:54:00.549881  9849 net.cpp:386] relu3 -> conv3 (in-place)
I0403 12:54:00.550163  9849 net.cpp:141] Setting up relu3
I0403 12:54:00.550191  9849 net.cpp:148] Top shape: 100 384 13 13 (6489600)
I0403 12:54:00.550209  9849 net.cpp:156] Memory required for data: 731481200
I0403 12:54:00.550225  9849 layer_factory.hpp:77] Creating layer conv4
I0403 12:54:00.550251  9849 net.cpp:91] Creating Layer conv4
I0403 12:54:00.550269  9849 net.cpp:425] conv4 <- conv3
I0403 12:54:00.550292  9849 net.cpp:399] conv4 -> conv4
I0403 12:54:00.580736  9849 net.cpp:141] Setting up conv4
I0403 12:54:00.580804  9849 net.cpp:148] Top shape: 100 384 13 13 (6489600)
I0403 12:54:00.580857  9849 net.cpp:156] Memory required for data: 757439600
I0403 12:54:00.580880  9849 layer_factory.hpp:77] Creating layer relu4
I0403 12:54:00.580904  9849 net.cpp:91] Creating Layer relu4
I0403 12:54:00.580921  9849 net.cpp:425] relu4 <- conv4
I0403 12:54:00.580940  9849 net.cpp:386] relu4 -> conv4 (in-place)
I0403 12:54:00.581285  9849 net.cpp:141] Setting up relu4
I0403 12:54:00.581315  9849 net.cpp:148] Top shape: 100 384 13 13 (6489600)
I0403 12:54:00.581336  9849 net.cpp:156] Memory required for data: 783398000
I0403 12:54:00.581352  9849 layer_factory.hpp:77] Creating layer conv5
I0403 12:54:00.581377  9849 net.cpp:91] Creating Layer conv5
I0403 12:54:00.581393  9849 net.cpp:425] conv5 <- conv4
I0403 12:54:00.581416  9849 net.cpp:399] conv5 -> conv5
I0403 12:54:00.602432  9849 net.cpp:141] Setting up conv5
I0403 12:54:00.602488  9849 net.cpp:148] Top shape: 100 256 13 13 (4326400)
I0403 12:54:00.602504  9849 net.cpp:156] Memory required for data: 800703600
I0403 12:54:00.602531  9849 layer_factory.hpp:77] Creating layer relu5
I0403 12:54:00.602555  9849 net.cpp:91] Creating Layer relu5
I0403 12:54:00.602571  9849 net.cpp:425] relu5 <- conv5
I0403 12:54:00.602592  9849 net.cpp:386] relu5 -> conv5 (in-place)
I0403 12:54:00.602879  9849 net.cpp:141] Setting up relu5
I0403 12:54:00.602907  9849 net.cpp:148] Top shape: 100 256 13 13 (4326400)
I0403 12:54:00.602923  9849 net.cpp:156] Memory required for data: 818009200
I0403 12:54:00.602939  9849 layer_factory.hpp:77] Creating layer pool5
I0403 12:54:00.602962  9849 net.cpp:91] Creating Layer pool5
I0403 12:54:00.602978  9849 net.cpp:425] pool5 <- conv5
I0403 12:54:00.602999  9849 net.cpp:399] pool5 -> pool5
I0403 12:54:00.603101  9849 net.cpp:141] Setting up pool5
I0403 12:54:00.603132  9849 net.cpp:148] Top shape: 100 256 6 6 (921600)
I0403 12:54:00.603148  9849 net.cpp:156] Memory required for data: 821695600
I0403 12:54:00.603163  9849 layer_factory.hpp:77] Creating layer fc6
I0403 12:54:00.603189  9849 net.cpp:91] Creating Layer fc6
I0403 12:54:00.603207  9849 net.cpp:425] fc6 <- pool5
I0403 12:54:00.603227  9849 net.cpp:399] fc6 -> fc6
I0403 12:54:02.197001  9849 net.cpp:141] Setting up fc6
I0403 12:54:02.197079  9849 net.cpp:148] Top shape: 100 4096 (409600)
I0403 12:54:02.197096  9849 net.cpp:156] Memory required for data: 823334000
I0403 12:54:02.197118  9849 layer_factory.hpp:77] Creating layer relu6
I0403 12:54:02.197139  9849 net.cpp:91] Creating Layer relu6
I0403 12:54:02.197156  9849 net.cpp:425] relu6 <- fc6
I0403 12:54:02.197175  9849 net.cpp:386] relu6 -> fc6 (in-place)
I0403 12:54:02.197388  9849 net.cpp:141] Setting up relu6
I0403 12:54:02.197415  9849 net.cpp:148] Top shape: 100 4096 (409600)
I0403 12:54:02.197430  9849 net.cpp:156] Memory required for data: 824972400
I0403 12:54:02.197445  9849 layer_factory.hpp:77] Creating layer drop6
I0403 12:54:02.197464  9849 net.cpp:91] Creating Layer drop6
I0403 12:54:02.197479  9849 net.cpp:425] drop6 <- fc6
I0403 12:54:02.197497  9849 net.cpp:386] drop6 -> fc6 (in-place)
I0403 12:54:02.197548  9849 net.cpp:141] Setting up drop6
I0403 12:54:02.197571  9849 net.cpp:148] Top shape: 100 4096 (409600)
I0403 12:54:02.197585  9849 net.cpp:156] Memory required for data: 826610800
I0403 12:54:02.197603  9849 layer_factory.hpp:77] Creating layer fc7
I0403 12:54:02.197628  9849 net.cpp:91] Creating Layer fc7
I0403 12:54:02.197644  9849 net.cpp:425] fc7 <- fc6
I0403 12:54:02.197664  9849 net.cpp:399] fc7 -> fc7
I0403 12:54:02.896862  9849 net.cpp:141] Setting up fc7
I0403 12:54:02.896934  9849 net.cpp:148] Top shape: 100 4096 (409600)
I0403 12:54:02.896950  9849 net.cpp:156] Memory required for data: 828249200
I0403 12:54:02.896970  9849 layer_factory.hpp:77] Creating layer relu7
I0403 12:54:02.896991  9849 net.cpp:91] Creating Layer relu7
I0403 12:54:02.897007  9849 net.cpp:425] relu7 <- fc7
I0403 12:54:02.897027  9849 net.cpp:386] relu7 -> fc7 (in-place)
I0403 12:54:02.897420  9849 net.cpp:141] Setting up relu7
I0403 12:54:02.897447  9849 net.cpp:148] Top shape: 100 4096 (409600)
I0403 12:54:02.897492  9849 net.cpp:156] Memory required for data: 829887600
I0403 12:54:02.897508  9849 layer_factory.hpp:77] Creating layer drop7
I0403 12:54:02.897527  9849 net.cpp:91] Creating Layer drop7
I0403 12:54:02.897542  9849 net.cpp:425] drop7 <- fc7
I0403 12:54:02.897558  9849 net.cpp:386] drop7 -> fc7 (in-place)
I0403 12:54:02.897605  9849 net.cpp:141] Setting up drop7
I0403 12:54:02.897627  9849 net.cpp:148] Top shape: 100 4096 (409600)
I0403 12:54:02.897641  9849 net.cpp:156] Memory required for data: 831526000
I0403 12:54:02.897655  9849 layer_factory.hpp:77] Creating layer fc8_plantvillage
I0403 12:54:02.897677  9849 net.cpp:91] Creating Layer fc8_plantvillage
I0403 12:54:02.897692  9849 net.cpp:425] fc8_plantvillage <- fc7
I0403 12:54:02.897709  9849 net.cpp:399] fc8_plantvillage -> fc8_plantvillage
I0403 12:54:02.904400  9849 net.cpp:141] Setting up fc8_plantvillage
I0403 12:54:02.904428  9849 net.cpp:148] Top shape: 100 38 (3800)
I0403 12:54:02.904443  9849 net.cpp:156] Memory required for data: 831541200
I0403 12:54:02.904461  9849 layer_factory.hpp:77] Creating layer fc8_plantvillage_fc8_plantvillage_0_split
I0403 12:54:02.904480  9849 net.cpp:91] Creating Layer fc8_plantvillage_fc8_plantvillage_0_split
I0403 12:54:02.904495  9849 net.cpp:425] fc8_plantvillage_fc8_plantvillage_0_split <- fc8_plantvillage
I0403 12:54:02.904515  9849 net.cpp:399] fc8_plantvillage_fc8_plantvillage_0_split -> fc8_plantvillage_fc8_plantvillage_0_split_0
I0403 12:54:02.904536  9849 net.cpp:399] fc8_plantvillage_fc8_plantvillage_0_split -> fc8_plantvillage_fc8_plantvillage_0_split_1
I0403 12:54:02.904554  9849 net.cpp:399] fc8_plantvillage_fc8_plantvillage_0_split -> fc8_plantvillage_fc8_plantvillage_0_split_2
I0403 12:54:02.904641  9849 net.cpp:141] Setting up fc8_plantvillage_fc8_plantvillage_0_split
I0403 12:54:02.904666  9849 net.cpp:148] Top shape: 100 38 (3800)
I0403 12:54:02.904683  9849 net.cpp:148] Top shape: 100 38 (3800)
I0403 12:54:02.904700  9849 net.cpp:148] Top shape: 100 38 (3800)
I0403 12:54:02.904712  9849 net.cpp:156] Memory required for data: 831586800
I0403 12:54:02.904727  9849 layer_factory.hpp:77] Creating layer prob
I0403 12:54:02.904749  9849 net.cpp:91] Creating Layer prob
I0403 12:54:02.904767  9849 net.cpp:425] prob <- fc8_plantvillage_fc8_plantvillage_0_split_0
I0403 12:54:02.904784  9849 net.cpp:399] prob -> prob
I0403 12:54:02.905005  9849 net.cpp:141] Setting up prob
I0403 12:54:02.905035  9849 net.cpp:148] Top shape: 100 38 (3800)
I0403 12:54:02.905050  9849 net.cpp:156] Memory required for data: 831602000
I0403 12:54:02.905066  9849 layer_factory.hpp:77] Creating layer hdf5out
I0403 12:54:02.905084  9849 net.cpp:91] Creating Layer hdf5out
I0403 12:54:02.905099  9849 net.cpp:425] hdf5out <- prob
I0403 12:54:02.905117  9849 net.cpp:425] hdf5out <- label_data_1_split_0
I0403 12:54:02.907609  9849 net.cpp:141] Setting up hdf5out
…
