…
I0403 13:07:28.213867 27434 net.cpp:313] The NetState phase (1) differed from the phase (0) specified by a rule in layer data
I0403 13:07:28.214161 27434 net.cpp:49] Initializing net from parameters: 
state {
  phase: TEST
}
layer {
  name: "data"
  type: "Data"
  top: "data"
  top: "label"
  include {
    phase: TEST
  }
  transform_param {
    crop_size: 227
    mean_file: "/home/mohanty/data/final_dataset/lmdb/color-50-50/mean.binaryproto"
  }
  data_param {
    source: "/home/mohanty/data/final_dataset/lmdb/color-50-50/test_db"
    batch_size: 100
    backend: LMDB
  }
}
layer {
  name: "conv1"
  type: "Convolution"
  bottom: "data"
  top: "conv1"
  param {
    lr_mult: 1
    decay_mult: 1
  }
  param {
    lr_mult: 2
    decay_mult: 0
  }
  convolution_param {
    num_output: 96
    kernel_size: 11
    stride: 4
    weight_filler {
      type: "gaussian"
      std: 0.01
    }
    bias_filler {
      type: "constant"
      value: 0
    }
  }
}
layer {
  name: "relu1"
  type: "ReLU"
  bottom: "conv1"
  top: "conv1"
}
layer {
  name: "norm1"
  type: "LRN"
  bottom: "conv1"
  top: "norm1"
  lrn_param {
    local_size: 5
    alpha: 0.0001
    beta: 0.75
  }
}
layer {
  name: "pool1"
  type: "Pooling"
  bottom: "norm1"
  top: "pool1"
  pooling_param {
    pool: MAX
    kernel_size: 3
    stride: 2
  }
}
layer {
  name: "conv2"
  type: "Convolution"
  bottom: "pool1"
  top: "conv2"
  param {
    lr_mult: 1
    decay_mult: 1
  }
  param {
    lr_mult: 2
    decay_mult: 0
  }
  convolution_param {
    num_output: 256
    pad: 2
    kernel_size: 5
    group: 2
    weight_filler {
      type: "gaussian"
      std: 0.01
    }
    bias_filler {
      type: "constant"
      value: 0.1
    }
  }
}
layer {
  name: "relu2"
  type: "ReLU"
  bottom: "conv2"
  top: "conv2"
}
layer {
  name: "norm2"
  type: "LRN"
  bottom: "conv2"
  top: "norm2"
  lrn_param {
    local_size: 5
    alpha: 0.0001
    beta: 0.75
  }
}
layer {
  name: "pool2"
  type: "Pooling"
  bottom: "norm2"
  top: "pool2"
  pooling_param {
    pool: MAX
    kernel_size: 3
    stride: 2
  }
}
layer {
  name: "conv3"
  type: "Convolution"
  bottom: "pool2"
  top: "conv3"
  param {
    lr_mult: 1
    decay_mult: 1
  }
  param {
    lr_mult: 2
    decay_mult: 0
  }
  convolution_param {
    num_output: 384
    pad: 1
    kernel_size: 3
    weight_filler {
      type: "gaussian"
      std: 0.01
    }
    bias_filler {
      type: "constant"
      value: 0
    }
  }
}
layer {
  name: "relu3"
  type: "ReLU"
  bottom: "conv3"
  top: "conv3"
}
layer {
  name: "conv4"
  type: "Convolution"
  bottom: "conv3"
  top: "conv4"
  param {
    lr_mult: 1
    decay_mult: 1
  }
  param {
    lr_mult: 2
    decay_mult: 0
  }
  convolution_param {
    num_output: 384
    pad: 1
    kernel_size: 3
    group: 2
    weight_filler {
      type: "gaussian"
      std: 0.01
    }
    bias_filler {
      type: "constant"
      value: 0.1
    }
  }
}
layer {
  name: "relu4"
  type: "ReLU"
  bottom: "conv4"
  top: "conv4"
}
layer {
  name: "conv5"
  type: "Convolution"
  bottom: "conv4"
  top: "conv5"
  param {
    lr_mult: 1
    decay_mult: 1
  }
  param {
    lr_mult: 2
    decay_mult: 0
  }
  convolution_param {
    num_output: 256
    pad: 1
    kernel_size: 3
    group: 2
    weight_filler {
      type: "gaussian"
      std: 0.01
    }
    bias_filler {
      type: "constant"
      value: 0.1
    }
  }
}
layer {
  name: "relu5"
  type: "ReLU"
  bottom: "conv5"
  top: "conv5"
}
layer {
  name: "pool5"
  type: "Pooling"
  bottom: "conv5"
  top: "pool5"
  pooling_param {
    pool: MAX
    kernel_size: 3
    stride: 2
  }
}
layer {
  name: "fc6"
  type: "InnerProduct"
  bottom: "pool5"
  top: "fc6"
  param {
    lr_mult: 1
    decay_mult: 1
  }
  param {
    lr_mult: 2
    decay_mult: 0
  }
  inner_product_param {
    num_output: 4096
    weight_filler {
      type: "gaussian"
      std: 0.005
    }
    bias_filler {
      type: "constant"
      value: 0.1
    }
  }
}
layer {
  name: "relu6"
  type: "ReLU"
  bottom: "fc6"
  top: "fc6"
}
layer {
  name: "drop6"
  type: "Dropout"
  bottom: "fc6"
  top: "fc6"
  dropout_param {
    dropout_ratio: 0.5
  }
}
layer {
  name: "fc7"
  type: "InnerProduct"
  bottom: "fc6"
  top: "fc7"
  param {
    lr_mult: 1
    decay_mult: 1
  }
  param {
    lr_mult: 2
    decay_mult: 0
  }
  inner_product_param {
    num_output: 4096
    weight_filler {
      type: "gaussian"
      std: 0.005
    }
    bias_filler {
      type: "constant"
      value: 0.1
    }
  }
}
layer {
  name: "relu7"
  type: "ReLU"
  bottom: "fc7"
  top: "fc7"
}
layer {
  name: "drop7"
  type: "Dropout"
  bottom: "fc7"
  top: "fc7"
  dropout_param {
    dropout_ratio: 0.5
  }
}
layer {
  name: "fc8_plantvillage"
  type: "InnerProduct"
  bottom: "fc7"
  top: "fc8_plantvillage"
  param {
    lr_mult: 1
    decay_mult: 1
  }
  param {
    lr_mult: 2
    decay_mult: 0
  }
  inner_product_param {
    num_output: 38
    weight_filler {
      type: "gaussian"
      std: 0.01
    }
    bias_filler {
      type: "constant"
      value: 0
    }
  }
}
layer {
  name: "prob"
  type: "Softmax"
  bottom: "fc8_plantvillage"
  top: "prob"
  include {
    phase: TEST
  }
}
layer {
  name: "hdf5out"
  type: "HDF5Output"
  bottom: "prob"
  bottom: "label"
  include {
    phase: TEST
  }
  hdf5_output_param {
    file_name: "hdf5_dumps/iter_4304.h5"
  }
}
layer {
  name: "loss"
  type: "SoftmaxWithLoss"
  bottom: "fc8_plantvillage"
  bottom: "label"
  top: "loss"
}
layer {
  name: "accuracy"
  type: "Accuracy"
  bottom: "fc8_plantvillage"
  bottom: "label"
  top: "accuracy"
  include {
    phase: TEST
  }
}
I0403 13:07:28.214676 27434 layer_factory.hpp:77] Creating layer data
I0403 13:07:28.215363 27434 net.cpp:91] Creating Layer data
I0403 13:07:28.215397 27434 net.cpp:399] data -> data
I0403 13:07:28.215450 27434 net.cpp:399] data -> label
I0403 13:07:28.215487 27434 data_transformer.cpp:25] Loading mean file from: /home/mohanty/data/final_dataset/lmdb/color-50-50/mean.binaryproto
I0403 13:07:28.217818 27437 db_lmdb.cpp:38] Opened lmdb /home/mohanty/data/final_dataset/lmdb/color-50-50/test_db
I0403 13:07:28.230057 27434 data_layer.cpp:41] output data size: 100,3,227,227
I0403 13:07:28.348841 27434 net.cpp:141] Setting up data
I0403 13:07:28.348932 27434 net.cpp:148] Top shape: 100 3 227 227 (15458700)
I0403 13:07:28.348955 27434 net.cpp:148] Top shape: 100 (100)
I0403 13:07:28.348973 27434 net.cpp:156] Memory required for data: 61835200
I0403 13:07:28.349000 27434 layer_factory.hpp:77] Creating layer label_data_1_split
I0403 13:07:28.349027 27434 net.cpp:91] Creating Layer label_data_1_split
I0403 13:07:28.349046 27434 net.cpp:425] label_data_1_split <- label
I0403 13:07:28.349077 27434 net.cpp:399] label_data_1_split -> label_data_1_split_0
I0403 13:07:28.349105 27434 net.cpp:399] label_data_1_split -> label_data_1_split_1
I0403 13:07:28.349126 27434 net.cpp:399] label_data_1_split -> label_data_1_split_2
I0403 13:07:28.349190 27434 net.cpp:141] Setting up label_data_1_split
I0403 13:07:28.349215 27434 net.cpp:148] Top shape: 100 (100)
I0403 13:07:28.349232 27434 net.cpp:148] Top shape: 100 (100)
I0403 13:07:28.349249 27434 net.cpp:148] Top shape: 100 (100)
I0403 13:07:28.349264 27434 net.cpp:156] Memory required for data: 61836400
I0403 13:07:28.349279 27434 layer_factory.hpp:77] Creating layer conv1
I0403 13:07:28.349310 27434 net.cpp:91] Creating Layer conv1
I0403 13:07:28.349330 27434 net.cpp:425] conv1 <- data
I0403 13:07:28.349355 27434 net.cpp:399] conv1 -> conv1
I0403 13:07:28.496103 27434 net.cpp:141] Setting up conv1
I0403 13:07:28.496179 27434 net.cpp:148] Top shape: 100 96 55 55 (29040000)
I0403 13:07:28.496196 27434 net.cpp:156] Memory required for data: 177996400
I0403 13:07:28.496229 27434 layer_factory.hpp:77] Creating layer relu1
I0403 13:07:28.496258 27434 net.cpp:91] Creating Layer relu1
I0403 13:07:28.496278 27434 net.cpp:425] relu1 <- conv1
I0403 13:07:28.496297 27434 net.cpp:386] relu1 -> conv1 (in-place)
I0403 13:07:28.496592 27434 net.cpp:141] Setting up relu1
I0403 13:07:28.496623 27434 net.cpp:148] Top shape: 100 96 55 55 (29040000)
I0403 13:07:28.496639 27434 net.cpp:156] Memory required for data: 294156400
I0403 13:07:28.496686 27434 layer_factory.hpp:77] Creating layer norm1
I0403 13:07:28.496716 27434 net.cpp:91] Creating Layer norm1
I0403 13:07:28.496736 27434 net.cpp:425] norm1 <- conv1
I0403 13:07:28.496755 27434 net.cpp:399] norm1 -> norm1
I0403 13:07:28.497061 27434 net.cpp:141] Setting up norm1
I0403 13:07:28.497089 27434 net.cpp:148] Top shape: 100 96 55 55 (29040000)
I0403 13:07:28.497107 27434 net.cpp:156] Memory required for data: 410316400
I0403 13:07:28.497122 27434 layer_factory.hpp:77] Creating layer pool1
I0403 13:07:28.497145 27434 net.cpp:91] Creating Layer pool1
I0403 13:07:28.497164 27434 net.cpp:425] pool1 <- norm1
I0403 13:07:28.497182 27434 net.cpp:399] pool1 -> pool1
I0403 13:07:28.497249 27434 net.cpp:141] Setting up pool1
I0403 13:07:28.497274 27434 net.cpp:148] Top shape: 100 96 27 27 (6998400)
I0403 13:07:28.497289 27434 net.cpp:156] Memory required for data: 438310000
I0403 13:07:28.497304 27434 layer_factory.hpp:77] Creating layer conv2
I0403 13:07:28.497329 27434 net.cpp:91] Creating Layer conv2
I0403 13:07:28.497350 27434 net.cpp:425] conv2 <- pool1
I0403 13:07:28.497371 27434 net.cpp:399] conv2 -> conv2
I0403 13:07:28.512576 27434 net.cpp:141] Setting up conv2
I0403 13:07:28.512625 27434 net.cpp:148] Top shape: 100 256 27 27 (18662400)
I0403 13:07:28.512645 27434 net.cpp:156] Memory required for data: 512959600
I0403 13:07:28.512668 27434 layer_factory.hpp:77] Creating layer relu2
I0403 13:07:28.512689 27434 net.cpp:91] Creating Layer relu2
I0403 13:07:28.512706 27434 net.cpp:425] relu2 <- conv2
I0403 13:07:28.512727 27434 net.cpp:386] relu2 -> conv2 (in-place)
I0403 13:07:28.512995 27434 net.cpp:141] Setting up relu2
I0403 13:07:28.513023 27434 net.cpp:148] Top shape: 100 256 27 27 (18662400)
I0403 13:07:28.513039 27434 net.cpp:156] Memory required for data: 587609200
I0403 13:07:28.513056 27434 layer_factory.hpp:77] Creating layer norm2
I0403 13:07:28.513078 27434 net.cpp:91] Creating Layer norm2
I0403 13:07:28.513097 27434 net.cpp:425] norm2 <- conv2
I0403 13:07:28.513115 27434 net.cpp:399] norm2 -> norm2
I0403 13:07:28.513303 27434 net.cpp:141] Setting up norm2
I0403 13:07:28.513331 27434 net.cpp:148] Top shape: 100 256 27 27 (18662400)
I0403 13:07:28.513350 27434 net.cpp:156] Memory required for data: 662258800
I0403 13:07:28.513367 27434 layer_factory.hpp:77] Creating layer pool2
I0403 13:07:28.513388 27434 net.cpp:91] Creating Layer pool2
I0403 13:07:28.513404 27434 net.cpp:425] pool2 <- norm2
I0403 13:07:28.513422 27434 net.cpp:399] pool2 -> pool2
I0403 13:07:28.513473 27434 net.cpp:141] Setting up pool2
I0403 13:07:28.513497 27434 net.cpp:148] Top shape: 100 256 13 13 (4326400)
I0403 13:07:28.513514 27434 net.cpp:156] Memory required for data: 679564400
I0403 13:07:28.513530 27434 layer_factory.hpp:77] Creating layer conv3
I0403 13:07:28.513556 27434 net.cpp:91] Creating Layer conv3
I0403 13:07:28.513571 27434 net.cpp:425] conv3 <- pool2
I0403 13:07:28.513591 27434 net.cpp:399] conv3 -> conv3
I0403 13:07:28.552585 27434 net.cpp:141] Setting up conv3
I0403 13:07:28.552664 27434 net.cpp:148] Top shape: 100 384 13 13 (6489600)
I0403 13:07:28.552682 27434 net.cpp:156] Memory required for data: 705522800
I0403 13:07:28.552711 27434 layer_factory.hpp:77] Creating layer relu3
I0403 13:07:28.552733 27434 net.cpp:91] Creating Layer relu3
I0403 13:07:28.552752 27434 net.cpp:425] relu3 <- conv3
I0403 13:07:28.552772 27434 net.cpp:386] relu3 -> conv3 (in-place)
I0403 13:07:28.553122 27434 net.cpp:141] Setting up relu3
I0403 13:07:28.553153 27434 net.cpp:148] Top shape: 100 384 13 13 (6489600)
I0403 13:07:28.553170 27434 net.cpp:156] Memory required for data: 731481200
I0403 13:07:28.553186 27434 layer_factory.hpp:77] Creating layer conv4
I0403 13:07:28.553213 27434 net.cpp:91] Creating Layer conv4
I0403 13:07:28.553232 27434 net.cpp:425] conv4 <- conv3
I0403 13:07:28.553253 27434 net.cpp:399] conv4 -> conv4
I0403 13:07:28.583729 27434 net.cpp:141] Setting up conv4
I0403 13:07:28.583796 27434 net.cpp:148] Top shape: 100 384 13 13 (6489600)
I0403 13:07:28.583848 27434 net.cpp:156] Memory required for data: 757439600
I0403 13:07:28.583873 27434 layer_factory.hpp:77] Creating layer relu4
I0403 13:07:28.583894 27434 net.cpp:91] Creating Layer relu4
I0403 13:07:28.583911 27434 net.cpp:425] relu4 <- conv4
I0403 13:07:28.583931 27434 net.cpp:386] relu4 -> conv4 (in-place)
I0403 13:07:28.584215 27434 net.cpp:141] Setting up relu4
I0403 13:07:28.584244 27434 net.cpp:148] Top shape: 100 384 13 13 (6489600)
I0403 13:07:28.584266 27434 net.cpp:156] Memory required for data: 783398000
I0403 13:07:28.584285 27434 layer_factory.hpp:77] Creating layer conv5
I0403 13:07:28.584307 27434 net.cpp:91] Creating Layer conv5
I0403 13:07:28.584326 27434 net.cpp:425] conv5 <- conv4
I0403 13:07:28.584352 27434 net.cpp:399] conv5 -> conv5
I0403 13:07:28.605180 27434 net.cpp:141] Setting up conv5
I0403 13:07:28.605228 27434 net.cpp:148] Top shape: 100 256 13 13 (4326400)
I0403 13:07:28.605245 27434 net.cpp:156] Memory required for data: 800703600
I0403 13:07:28.605276 27434 layer_factory.hpp:77] Creating layer relu5
I0403 13:07:28.605299 27434 net.cpp:91] Creating Layer relu5
I0403 13:07:28.605317 27434 net.cpp:425] relu5 <- conv5
I0403 13:07:28.605337 27434 net.cpp:386] relu5 -> conv5 (in-place)
I0403 13:07:28.605618 27434 net.cpp:141] Setting up relu5
I0403 13:07:28.605649 27434 net.cpp:148] Top shape: 100 256 13 13 (4326400)
I0403 13:07:28.605666 27434 net.cpp:156] Memory required for data: 818009200
I0403 13:07:28.605684 27434 layer_factory.hpp:77] Creating layer pool5
I0403 13:07:28.605705 27434 net.cpp:91] Creating Layer pool5
I0403 13:07:28.605720 27434 net.cpp:425] pool5 <- conv5
I0403 13:07:28.605741 27434 net.cpp:399] pool5 -> pool5
I0403 13:07:28.605803 27434 net.cpp:141] Setting up pool5
I0403 13:07:28.605830 27434 net.cpp:148] Top shape: 100 256 6 6 (921600)
I0403 13:07:28.605846 27434 net.cpp:156] Memory required for data: 821695600
I0403 13:07:28.605862 27434 layer_factory.hpp:77] Creating layer fc6
I0403 13:07:28.605890 27434 net.cpp:91] Creating Layer fc6
I0403 13:07:28.605907 27434 net.cpp:425] fc6 <- pool5
I0403 13:07:28.605942 27434 net.cpp:399] fc6 -> fc6
I0403 13:07:30.196760 27434 net.cpp:141] Setting up fc6
I0403 13:07:30.196844 27434 net.cpp:148] Top shape: 100 4096 (409600)
I0403 13:07:30.196862 27434 net.cpp:156] Memory required for data: 823334000
I0403 13:07:30.196884 27434 layer_factory.hpp:77] Creating layer relu6
I0403 13:07:30.196909 27434 net.cpp:91] Creating Layer relu6
I0403 13:07:30.196928 27434 net.cpp:425] relu6 <- fc6
I0403 13:07:30.196949 27434 net.cpp:386] relu6 -> fc6 (in-place)
I0403 13:07:30.197177 27434 net.cpp:141] Setting up relu6
I0403 13:07:30.197206 27434 net.cpp:148] Top shape: 100 4096 (409600)
I0403 13:07:30.197222 27434 net.cpp:156] Memory required for data: 824972400
I0403 13:07:30.197238 27434 layer_factory.hpp:77] Creating layer drop6
I0403 13:07:30.197258 27434 net.cpp:91] Creating Layer drop6
I0403 13:07:30.197275 27434 net.cpp:425] drop6 <- fc6
I0403 13:07:30.197298 27434 net.cpp:386] drop6 -> fc6 (in-place)
I0403 13:07:30.197356 27434 net.cpp:141] Setting up drop6
I0403 13:07:30.197382 27434 net.cpp:148] Top shape: 100 4096 (409600)
I0403 13:07:30.197398 27434 net.cpp:156] Memory required for data: 826610800
I0403 13:07:30.197414 27434 layer_factory.hpp:77] Creating layer fc7
I0403 13:07:30.197438 27434 net.cpp:91] Creating Layer fc7
I0403 13:07:30.197455 27434 net.cpp:425] fc7 <- fc6
I0403 13:07:30.197477 27434 net.cpp:399] fc7 -> fc7
I0403 13:07:30.882230 27434 net.cpp:141] Setting up fc7
I0403 13:07:30.882302 27434 net.cpp:148] Top shape: 100 4096 (409600)
I0403 13:07:30.882323 27434 net.cpp:156] Memory required for data: 828249200
I0403 13:07:30.882346 27434 layer_factory.hpp:77] Creating layer relu7
I0403 13:07:30.882369 27434 net.cpp:91] Creating Layer relu7
I0403 13:07:30.882385 27434 net.cpp:425] relu7 <- fc7
I0403 13:07:30.882406 27434 net.cpp:386] relu7 -> fc7 (in-place)
I0403 13:07:30.882841 27434 net.cpp:141] Setting up relu7
I0403 13:07:30.882882 27434 net.cpp:148] Top shape: 100 4096 (409600)
I0403 13:07:30.882931 27434 net.cpp:156] Memory required for data: 829887600
I0403 13:07:30.882947 27434 layer_factory.hpp:77] Creating layer drop7
I0403 13:07:30.882967 27434 net.cpp:91] Creating Layer drop7
I0403 13:07:30.882983 27434 net.cpp:425] drop7 <- fc7
I0403 13:07:30.883000 27434 net.cpp:386] drop7 -> fc7 (in-place)
I0403 13:07:30.883045 27434 net.cpp:141] Setting up drop7
I0403 13:07:30.883067 27434 net.cpp:148] Top shape: 100 4096 (409600)
I0403 13:07:30.883081 27434 net.cpp:156] Memory required for data: 831526000
I0403 13:07:30.883097 27434 layer_factory.hpp:77] Creating layer fc8_plantvillage
I0403 13:07:30.883118 27434 net.cpp:91] Creating Layer fc8_plantvillage
I0403 13:07:30.883134 27434 net.cpp:425] fc8_plantvillage <- fc7
I0403 13:07:30.883153 27434 net.cpp:399] fc8_plantvillage -> fc8_plantvillage
I0403 13:07:30.889770 27434 net.cpp:141] Setting up fc8_plantvillage
I0403 13:07:30.889799 27434 net.cpp:148] Top shape: 100 38 (3800)
I0403 13:07:30.889816 27434 net.cpp:156] Memory required for data: 831541200
I0403 13:07:30.889833 27434 layer_factory.hpp:77] Creating layer fc8_plantvillage_fc8_plantvillage_0_split
I0403 13:07:30.889852 27434 net.cpp:91] Creating Layer fc8_plantvillage_fc8_plantvillage_0_split
I0403 13:07:30.889866 27434 net.cpp:425] fc8_plantvillage_fc8_plantvillage_0_split <- fc8_plantvillage
I0403 13:07:30.889885 27434 net.cpp:399] fc8_plantvillage_fc8_plantvillage_0_split -> fc8_plantvillage_fc8_plantvillage_0_split_0
I0403 13:07:30.889906 27434 net.cpp:399] fc8_plantvillage_fc8_plantvillage_0_split -> fc8_plantvillage_fc8_plantvillage_0_split_1
I0403 13:07:30.889926 27434 net.cpp:399] fc8_plantvillage_fc8_plantvillage_0_split -> fc8_plantvillage_fc8_plantvillage_0_split_2
I0403 13:07:30.890002 27434 net.cpp:141] Setting up fc8_plantvillage_fc8_plantvillage_0_split
I0403 13:07:30.890027 27434 net.cpp:148] Top shape: 100 38 (3800)
I0403 13:07:30.890043 27434 net.cpp:148] Top shape: 100 38 (3800)
I0403 13:07:30.890058 27434 net.cpp:148] Top shape: 100 38 (3800)
I0403 13:07:30.890071 27434 net.cpp:156] Memory required for data: 831586800
I0403 13:07:30.890085 27434 layer_factory.hpp:77] Creating layer prob
I0403 13:07:30.890106 27434 net.cpp:91] Creating Layer prob
I0403 13:07:30.890122 27434 net.cpp:425] prob <- fc8_plantvillage_fc8_plantvillage_0_split_0
I0403 13:07:30.890141 27434 net.cpp:399] prob -> prob
I0403 13:07:30.890367 27434 net.cpp:141] Setting up prob
I0403 13:07:30.890395 27434 net.cpp:148] Top shape: 100 38 (3800)
I0403 13:07:30.890411 27434 net.cpp:156] Memory required for data: 831602000
I0403 13:07:30.890427 27434 layer_factory.hpp:77] Creating layer hdf5out
I0403 13:07:30.890445 27434 net.cpp:91] Creating Layer hdf5out
I0403 13:07:30.890460 27434 net.cpp:425] hdf5out <- prob
I0403 13:07:30.890477 27434 net.cpp:425] hdf5out <- label_data_1_split_0
I0403 13:07:30.893962 27434 net.cpp:141] Setting up hdf5out
…
