…
I0403 13:11:14.517817 27551 net.cpp:313] The NetState phase (1) differed from the phase (0) specified by a rule in layer data
I0403 13:11:14.518131 27551 net.cpp:49] Initializing net from parameters: 
state {
  phase: TEST
}
layer {
  name: "data"
  type: "Data"
  top: "data"
  top: "label"
  include {
    phase: TEST
  }
  transform_param {
    crop_size: 227
    mean_file: "/home/mohanty/data/final_dataset/lmdb/color-50-50/mean.binaryproto"
  }
  data_param {
    source: "/home/mohanty/data/final_dataset/lmdb/color-50-50/test_db"
    batch_size: 100
    backend: LMDB
  }
}
layer {
  name: "conv1"
  type: "Convolution"
  bottom: "data"
  top: "conv1"
  param {
    lr_mult: 1
    decay_mult: 1
  }
  param {
    lr_mult: 2
    decay_mult: 0
  }
  convolution_param {
    num_output: 96
    kernel_size: 11
    stride: 4
    weight_filler {
      type: "gaussian"
      std: 0.01
    }
    bias_filler {
      type: "constant"
      value: 0
    }
  }
}
layer {
  name: "relu1"
  type: "ReLU"
  bottom: "conv1"
  top: "conv1"
}
layer {
  name: "norm1"
  type: "LRN"
  bottom: "conv1"
  top: "norm1"
  lrn_param {
    local_size: 5
    alpha: 0.0001
    beta: 0.75
  }
}
layer {
  name: "pool1"
  type: "Pooling"
  bottom: "norm1"
  top: "pool1"
  pooling_param {
    pool: MAX
    kernel_size: 3
    stride: 2
  }
}
layer {
  name: "conv2"
  type: "Convolution"
  bottom: "pool1"
  top: "conv2"
  param {
    lr_mult: 1
    decay_mult: 1
  }
  param {
    lr_mult: 2
    decay_mult: 0
  }
  convolution_param {
    num_output: 256
    pad: 2
    kernel_size: 5
    group: 2
    weight_filler {
      type: "gaussian"
      std: 0.01
    }
    bias_filler {
      type: "constant"
      value: 0.1
    }
  }
}
layer {
  name: "relu2"
  type: "ReLU"
  bottom: "conv2"
  top: "conv2"
}
layer {
  name: "norm2"
  type: "LRN"
  bottom: "conv2"
  top: "norm2"
  lrn_param {
    local_size: 5
    alpha: 0.0001
    beta: 0.75
  }
}
layer {
  name: "pool2"
  type: "Pooling"
  bottom: "norm2"
  top: "pool2"
  pooling_param {
    pool: MAX
    kernel_size: 3
    stride: 2
  }
}
layer {
  name: "conv3"
  type: "Convolution"
  bottom: "pool2"
  top: "conv3"
  param {
    lr_mult: 1
    decay_mult: 1
  }
  param {
    lr_mult: 2
    decay_mult: 0
  }
  convolution_param {
    num_output: 384
    pad: 1
    kernel_size: 3
    weight_filler {
      type: "gaussian"
      std: 0.01
    }
    bias_filler {
      type: "constant"
      value: 0
    }
  }
}
layer {
  name: "relu3"
  type: "ReLU"
  bottom: "conv3"
  top: "conv3"
}
layer {
  name: "conv4"
  type: "Convolution"
  bottom: "conv3"
  top: "conv4"
  param {
    lr_mult: 1
    decay_mult: 1
  }
  param {
    lr_mult: 2
    decay_mult: 0
  }
  convolution_param {
    num_output: 384
    pad: 1
    kernel_size: 3
    group: 2
    weight_filler {
      type: "gaussian"
      std: 0.01
    }
    bias_filler {
      type: "constant"
      value: 0.1
    }
  }
}
layer {
  name: "relu4"
  type: "ReLU"
  bottom: "conv4"
  top: "conv4"
}
layer {
  name: "conv5"
  type: "Convolution"
  bottom: "conv4"
  top: "conv5"
  param {
    lr_mult: 1
    decay_mult: 1
  }
  param {
    lr_mult: 2
    decay_mult: 0
  }
  convolution_param {
    num_output: 256
    pad: 1
    kernel_size: 3
    group: 2
    weight_filler {
      type: "gaussian"
      std: 0.01
    }
    bias_filler {
      type: "constant"
      value: 0.1
    }
  }
}
layer {
  name: "relu5"
  type: "ReLU"
  bottom: "conv5"
  top: "conv5"
}
layer {
  name: "pool5"
  type: "Pooling"
  bottom: "conv5"
  top: "pool5"
  pooling_param {
    pool: MAX
    kernel_size: 3
    stride: 2
  }
}
layer {
  name: "fc6"
  type: "InnerProduct"
  bottom: "pool5"
  top: "fc6"
  param {
    lr_mult: 1
    decay_mult: 1
  }
  param {
    lr_mult: 2
    decay_mult: 0
  }
  inner_product_param {
    num_output: 4096
    weight_filler {
      type: "gaussian"
      std: 0.005
    }
    bias_filler {
      type: "constant"
      value: 0.1
    }
  }
}
layer {
  name: "relu6"
  type: "ReLU"
  bottom: "fc6"
  top: "fc6"
}
layer {
  name: "drop6"
  type: "Dropout"
  bottom: "fc6"
  top: "fc6"
  dropout_param {
    dropout_ratio: 0.5
  }
}
layer {
  name: "fc7"
  type: "InnerProduct"
  bottom: "fc6"
  top: "fc7"
  param {
    lr_mult: 1
    decay_mult: 1
  }
  param {
    lr_mult: 2
    decay_mult: 0
  }
  inner_product_param {
    num_output: 4096
    weight_filler {
      type: "gaussian"
      std: 0.005
    }
    bias_filler {
      type: "constant"
      value: 0.1
    }
  }
}
layer {
  name: "relu7"
  type: "ReLU"
  bottom: "fc7"
  top: "fc7"
}
layer {
  name: "drop7"
  type: "Dropout"
  bottom: "fc7"
  top: "fc7"
  dropout_param {
    dropout_ratio: 0.5
  }
}
layer {
  name: "fc8_plantvillage"
  type: "InnerProduct"
  bottom: "fc7"
  top: "fc8_plantvillage"
  param {
    lr_mult: 1
    decay_mult: 1
  }
  param {
    lr_mult: 2
    decay_mult: 0
  }
  inner_product_param {
    num_output: 38
    weight_filler {
      type: "gaussian"
      std: 0.01
    }
    bias_filler {
      type: "constant"
      value: 0
    }
  }
}
layer {
  name: "prob"
  type: "Softmax"
  bottom: "fc8_plantvillage"
  top: "prob"
  include {
    phase: TEST
  }
}
layer {
  name: "hdf5out"
  type: "HDF5Output"
  bottom: "prob"
  bottom: "label"
  include {
    phase: TEST
  }
  hdf5_output_param {
    file_name: "hdf5_dumps/iter_5380.h5"
  }
}
layer {
  name: "loss"
  type: "SoftmaxWithLoss"
  bottom: "fc8_plantvillage"
  bottom: "label"
  top: "loss"
}
layer {
  name: "accuracy"
  type: "Accuracy"
  bottom: "fc8_plantvillage"
  bottom: "label"
  top: "accuracy"
  include {
    phase: TEST
  }
}
I0403 13:11:14.518750 27551 layer_factory.hpp:77] Creating layer data
I0403 13:11:14.519421 27551 net.cpp:91] Creating Layer data
I0403 13:11:14.519455 27551 net.cpp:399] data -> data
I0403 13:11:14.519510 27551 net.cpp:399] data -> label
I0403 13:11:14.519548 27551 data_transformer.cpp:25] Loading mean file from: /home/mohanty/data/final_dataset/lmdb/color-50-50/mean.binaryproto
I0403 13:11:14.521864 27554 db_lmdb.cpp:38] Opened lmdb /home/mohanty/data/final_dataset/lmdb/color-50-50/test_db
I0403 13:11:14.534132 27551 data_layer.cpp:41] output data size: 100,3,227,227
I0403 13:11:14.656678 27551 net.cpp:141] Setting up data
I0403 13:11:14.656769 27551 net.cpp:148] Top shape: 100 3 227 227 (15458700)
I0403 13:11:14.656793 27551 net.cpp:148] Top shape: 100 (100)
I0403 13:11:14.656810 27551 net.cpp:156] Memory required for data: 61835200
I0403 13:11:14.656838 27551 layer_factory.hpp:77] Creating layer label_data_1_split
I0403 13:11:14.656865 27551 net.cpp:91] Creating Layer label_data_1_split
I0403 13:11:14.656884 27551 net.cpp:425] label_data_1_split <- label
I0403 13:11:14.656918 27551 net.cpp:399] label_data_1_split -> label_data_1_split_0
I0403 13:11:14.656945 27551 net.cpp:399] label_data_1_split -> label_data_1_split_1
I0403 13:11:14.656966 27551 net.cpp:399] label_data_1_split -> label_data_1_split_2
I0403 13:11:14.657032 27551 net.cpp:141] Setting up label_data_1_split
I0403 13:11:14.657058 27551 net.cpp:148] Top shape: 100 (100)
I0403 13:11:14.657075 27551 net.cpp:148] Top shape: 100 (100)
I0403 13:11:14.657093 27551 net.cpp:148] Top shape: 100 (100)
I0403 13:11:14.657109 27551 net.cpp:156] Memory required for data: 61836400
I0403 13:11:14.657124 27551 layer_factory.hpp:77] Creating layer conv1
I0403 13:11:14.657158 27551 net.cpp:91] Creating Layer conv1
I0403 13:11:14.657179 27551 net.cpp:425] conv1 <- data
I0403 13:11:14.657201 27551 net.cpp:399] conv1 -> conv1
I0403 13:11:14.803009 27551 net.cpp:141] Setting up conv1
I0403 13:11:14.803089 27551 net.cpp:148] Top shape: 100 96 55 55 (29040000)
I0403 13:11:14.803108 27551 net.cpp:156] Memory required for data: 177996400
I0403 13:11:14.803144 27551 layer_factory.hpp:77] Creating layer relu1
I0403 13:11:14.803174 27551 net.cpp:91] Creating Layer relu1
I0403 13:11:14.803195 27551 net.cpp:425] relu1 <- conv1
I0403 13:11:14.803216 27551 net.cpp:386] relu1 -> conv1 (in-place)
I0403 13:11:14.803514 27551 net.cpp:141] Setting up relu1
I0403 13:11:14.803545 27551 net.cpp:148] Top shape: 100 96 55 55 (29040000)
I0403 13:11:14.803563 27551 net.cpp:156] Memory required for data: 294156400
I0403 13:11:14.803613 27551 layer_factory.hpp:77] Creating layer norm1
I0403 13:11:14.803643 27551 net.cpp:91] Creating Layer norm1
I0403 13:11:14.803663 27551 net.cpp:425] norm1 <- conv1
I0403 13:11:14.803688 27551 net.cpp:399] norm1 -> norm1
I0403 13:11:14.804038 27551 net.cpp:141] Setting up norm1
I0403 13:11:14.804069 27551 net.cpp:148] Top shape: 100 96 55 55 (29040000)
I0403 13:11:14.804086 27551 net.cpp:156] Memory required for data: 410316400
I0403 13:11:14.804103 27551 layer_factory.hpp:77] Creating layer pool1
I0403 13:11:14.804128 27551 net.cpp:91] Creating Layer pool1
I0403 13:11:14.804147 27551 net.cpp:425] pool1 <- norm1
I0403 13:11:14.804169 27551 net.cpp:399] pool1 -> pool1
I0403 13:11:14.804244 27551 net.cpp:141] Setting up pool1
I0403 13:11:14.804271 27551 net.cpp:148] Top shape: 100 96 27 27 (6998400)
I0403 13:11:14.804287 27551 net.cpp:156] Memory required for data: 438310000
I0403 13:11:14.804303 27551 layer_factory.hpp:77] Creating layer conv2
I0403 13:11:14.804333 27551 net.cpp:91] Creating Layer conv2
I0403 13:11:14.804364 27551 net.cpp:425] conv2 <- pool1
I0403 13:11:14.804388 27551 net.cpp:399] conv2 -> conv2
I0403 13:11:14.820158 27551 net.cpp:141] Setting up conv2
I0403 13:11:14.820209 27551 net.cpp:148] Top shape: 100 256 27 27 (18662400)
I0403 13:11:14.820227 27551 net.cpp:156] Memory required for data: 512959600
I0403 13:11:14.820251 27551 layer_factory.hpp:77] Creating layer relu2
I0403 13:11:14.820273 27551 net.cpp:91] Creating Layer relu2
I0403 13:11:14.820291 27551 net.cpp:425] relu2 <- conv2
I0403 13:11:14.820312 27551 net.cpp:386] relu2 -> conv2 (in-place)
I0403 13:11:14.820606 27551 net.cpp:141] Setting up relu2
I0403 13:11:14.820636 27551 net.cpp:148] Top shape: 100 256 27 27 (18662400)
I0403 13:11:14.820653 27551 net.cpp:156] Memory required for data: 587609200
I0403 13:11:14.820669 27551 layer_factory.hpp:77] Creating layer norm2
I0403 13:11:14.820698 27551 net.cpp:91] Creating Layer norm2
I0403 13:11:14.820716 27551 net.cpp:425] norm2 <- conv2
I0403 13:11:14.820736 27551 net.cpp:399] norm2 -> norm2
I0403 13:11:14.820945 27551 net.cpp:141] Setting up norm2
I0403 13:11:14.820974 27551 net.cpp:148] Top shape: 100 256 27 27 (18662400)
I0403 13:11:14.820991 27551 net.cpp:156] Memory required for data: 662258800
I0403 13:11:14.821008 27551 layer_factory.hpp:77] Creating layer pool2
I0403 13:11:14.821027 27551 net.cpp:91] Creating Layer pool2
I0403 13:11:14.821044 27551 net.cpp:425] pool2 <- norm2
I0403 13:11:14.821066 27551 net.cpp:399] pool2 -> pool2
I0403 13:11:14.821121 27551 net.cpp:141] Setting up pool2
I0403 13:11:14.821149 27551 net.cpp:148] Top shape: 100 256 13 13 (4326400)
I0403 13:11:14.821168 27551 net.cpp:156] Memory required for data: 679564400
I0403 13:11:14.821228 27551 layer_factory.hpp:77] Creating layer conv3
I0403 13:11:14.821255 27551 net.cpp:91] Creating Layer conv3
I0403 13:11:14.821274 27551 net.cpp:425] conv3 <- pool2
I0403 13:11:14.821295 27551 net.cpp:399] conv3 -> conv3
I0403 13:11:14.864253 27551 net.cpp:141] Setting up conv3
I0403 13:11:14.864325 27551 net.cpp:148] Top shape: 100 384 13 13 (6489600)
I0403 13:11:14.864341 27551 net.cpp:156] Memory required for data: 705522800
I0403 13:11:14.864374 27551 layer_factory.hpp:77] Creating layer relu3
I0403 13:11:14.864399 27551 net.cpp:91] Creating Layer relu3
I0403 13:11:14.864418 27551 net.cpp:425] relu3 <- conv3
I0403 13:11:14.864440 27551 net.cpp:386] relu3 -> conv3 (in-place)
I0403 13:11:14.864720 27551 net.cpp:141] Setting up relu3
I0403 13:11:14.864748 27551 net.cpp:148] Top shape: 100 384 13 13 (6489600)
I0403 13:11:14.864765 27551 net.cpp:156] Memory required for data: 731481200
I0403 13:11:14.864783 27551 layer_factory.hpp:77] Creating layer conv4
I0403 13:11:14.864811 27551 net.cpp:91] Creating Layer conv4
I0403 13:11:14.864830 27551 net.cpp:425] conv4 <- conv3
I0403 13:11:14.864852 27551 net.cpp:399] conv4 -> conv4
I0403 13:11:14.895298 27551 net.cpp:141] Setting up conv4
I0403 13:11:14.895375 27551 net.cpp:148] Top shape: 100 384 13 13 (6489600)
I0403 13:11:14.895429 27551 net.cpp:156] Memory required for data: 757439600
I0403 13:11:14.895453 27551 layer_factory.hpp:77] Creating layer relu4
I0403 13:11:14.895478 27551 net.cpp:91] Creating Layer relu4
I0403 13:11:14.895496 27551 net.cpp:425] relu4 <- conv4
I0403 13:11:14.895519 27551 net.cpp:386] relu4 -> conv4 (in-place)
I0403 13:11:14.895838 27551 net.cpp:141] Setting up relu4
I0403 13:11:14.895869 27551 net.cpp:148] Top shape: 100 384 13 13 (6489600)
I0403 13:11:14.895886 27551 net.cpp:156] Memory required for data: 783398000
I0403 13:11:14.895902 27551 layer_factory.hpp:77] Creating layer conv5
I0403 13:11:14.895928 27551 net.cpp:91] Creating Layer conv5
I0403 13:11:14.895947 27551 net.cpp:425] conv5 <- conv4
I0403 13:11:14.895967 27551 net.cpp:399] conv5 -> conv5
I0403 13:11:14.916849 27551 net.cpp:141] Setting up conv5
I0403 13:11:14.916908 27551 net.cpp:148] Top shape: 100 256 13 13 (4326400)
I0403 13:11:14.916928 27551 net.cpp:156] Memory required for data: 800703600
I0403 13:11:14.916954 27551 layer_factory.hpp:77] Creating layer relu5
I0403 13:11:14.916976 27551 net.cpp:91] Creating Layer relu5
I0403 13:11:14.916995 27551 net.cpp:425] relu5 <- conv5
I0403 13:11:14.917017 27551 net.cpp:386] relu5 -> conv5 (in-place)
I0403 13:11:14.917302 27551 net.cpp:141] Setting up relu5
I0403 13:11:14.917335 27551 net.cpp:148] Top shape: 100 256 13 13 (4326400)
I0403 13:11:14.917352 27551 net.cpp:156] Memory required for data: 818009200
I0403 13:11:14.917369 27551 layer_factory.hpp:77] Creating layer pool5
I0403 13:11:14.917394 27551 net.cpp:91] Creating Layer pool5
I0403 13:11:14.917413 27551 net.cpp:425] pool5 <- conv5
I0403 13:11:14.917433 27551 net.cpp:399] pool5 -> pool5
I0403 13:11:14.917496 27551 net.cpp:141] Setting up pool5
I0403 13:11:14.917523 27551 net.cpp:148] Top shape: 100 256 6 6 (921600)
I0403 13:11:14.917539 27551 net.cpp:156] Memory required for data: 821695600
I0403 13:11:14.917554 27551 layer_factory.hpp:77] Creating layer fc6
I0403 13:11:14.917583 27551 net.cpp:91] Creating Layer fc6
I0403 13:11:14.917601 27551 net.cpp:425] fc6 <- pool5
I0403 13:11:14.917623 27551 net.cpp:399] fc6 -> fc6
I0403 13:11:16.475504 27551 net.cpp:141] Setting up fc6
I0403 13:11:16.475581 27551 net.cpp:148] Top shape: 100 4096 (409600)
I0403 13:11:16.475600 27551 net.cpp:156] Memory required for data: 823334000
I0403 13:11:16.475621 27551 layer_factory.hpp:77] Creating layer relu6
I0403 13:11:16.475646 27551 net.cpp:91] Creating Layer relu6
I0403 13:11:16.475662 27551 net.cpp:425] relu6 <- fc6
I0403 13:11:16.475682 27551 net.cpp:386] relu6 -> fc6 (in-place)
I0403 13:11:16.475917 27551 net.cpp:141] Setting up relu6
I0403 13:11:16.475944 27551 net.cpp:148] Top shape: 100 4096 (409600)
I0403 13:11:16.475960 27551 net.cpp:156] Memory required for data: 824972400
I0403 13:11:16.475975 27551 layer_factory.hpp:77] Creating layer drop6
I0403 13:11:16.475994 27551 net.cpp:91] Creating Layer drop6
I0403 13:11:16.476011 27551 net.cpp:425] drop6 <- fc6
I0403 13:11:16.476029 27551 net.cpp:386] drop6 -> fc6 (in-place)
I0403 13:11:16.476080 27551 net.cpp:141] Setting up drop6
I0403 13:11:16.476104 27551 net.cpp:148] Top shape: 100 4096 (409600)
I0403 13:11:16.476120 27551 net.cpp:156] Memory required for data: 826610800
I0403 13:11:16.476135 27551 layer_factory.hpp:77] Creating layer fc7
I0403 13:11:16.476158 27551 net.cpp:91] Creating Layer fc7
I0403 13:11:16.476176 27551 net.cpp:425] fc7 <- fc6
I0403 13:11:16.476197 27551 net.cpp:399] fc7 -> fc7
I0403 13:11:17.178344 27551 net.cpp:141] Setting up fc7
I0403 13:11:17.178388 27551 net.cpp:148] Top shape: 100 4096 (409600)
I0403 13:11:17.178406 27551 net.cpp:156] Memory required for data: 828249200
I0403 13:11:17.178428 27551 layer_factory.hpp:77] Creating layer relu7
I0403 13:11:17.178452 27551 net.cpp:91] Creating Layer relu7
I0403 13:11:17.178472 27551 net.cpp:425] relu7 <- fc7
I0403 13:11:17.178493 27551 net.cpp:386] relu7 -> fc7 (in-place)
I0403 13:11:17.178894 27551 net.cpp:141] Setting up relu7
I0403 13:11:17.178923 27551 net.cpp:148] Top shape: 100 4096 (409600)
I0403 13:11:17.178975 27551 net.cpp:156] Memory required for data: 829887600
I0403 13:11:17.178992 27551 layer_factory.hpp:77] Creating layer drop7
I0403 13:11:17.179013 27551 net.cpp:91] Creating Layer drop7
I0403 13:11:17.179029 27551 net.cpp:425] drop7 <- fc7
I0403 13:11:17.179049 27551 net.cpp:386] drop7 -> fc7 (in-place)
I0403 13:11:17.179095 27551 net.cpp:141] Setting up drop7
I0403 13:11:17.179121 27551 net.cpp:148] Top shape: 100 4096 (409600)
I0403 13:11:17.179138 27551 net.cpp:156] Memory required for data: 831526000
I0403 13:11:17.179155 27551 layer_factory.hpp:77] Creating layer fc8_plantvillage
I0403 13:11:17.179177 27551 net.cpp:91] Creating Layer fc8_plantvillage
I0403 13:11:17.179193 27551 net.cpp:425] fc8_plantvillage <- fc7
I0403 13:11:17.179214 27551 net.cpp:399] fc8_plantvillage -> fc8_plantvillage
I0403 13:11:17.186136 27551 net.cpp:141] Setting up fc8_plantvillage
I0403 13:11:17.186166 27551 net.cpp:148] Top shape: 100 38 (3800)
I0403 13:11:17.186182 27551 net.cpp:156] Memory required for data: 831541200
I0403 13:11:17.186202 27551 layer_factory.hpp:77] Creating layer fc8_plantvillage_fc8_plantvillage_0_split
I0403 13:11:17.186221 27551 net.cpp:91] Creating Layer fc8_plantvillage_fc8_plantvillage_0_split
I0403 13:11:17.186238 27551 net.cpp:425] fc8_plantvillage_fc8_plantvillage_0_split <- fc8_plantvillage
I0403 13:11:17.186259 27551 net.cpp:399] fc8_plantvillage_fc8_plantvillage_0_split -> fc8_plantvillage_fc8_plantvillage_0_split_0
I0403 13:11:17.186280 27551 net.cpp:399] fc8_plantvillage_fc8_plantvillage_0_split -> fc8_plantvillage_fc8_plantvillage_0_split_1
I0403 13:11:17.186300 27551 net.cpp:399] fc8_plantvillage_fc8_plantvillage_0_split -> fc8_plantvillage_fc8_plantvillage_0_split_2
I0403 13:11:17.186380 27551 net.cpp:141] Setting up fc8_plantvillage_fc8_plantvillage_0_split
I0403 13:11:17.186408 27551 net.cpp:148] Top shape: 100 38 (3800)
I0403 13:11:17.186426 27551 net.cpp:148] Top shape: 100 38 (3800)
I0403 13:11:17.186444 27551 net.cpp:148] Top shape: 100 38 (3800)
I0403 13:11:17.186457 27551 net.cpp:156] Memory required for data: 831586800
I0403 13:11:17.186473 27551 layer_factory.hpp:77] Creating layer prob
I0403 13:11:17.186492 27551 net.cpp:91] Creating Layer prob
I0403 13:11:17.186511 27551 net.cpp:425] prob <- fc8_plantvillage_fc8_plantvillage_0_split_0
I0403 13:11:17.186528 27551 net.cpp:399] prob -> prob
I0403 13:11:17.186765 27551 net.cpp:141] Setting up prob
I0403 13:11:17.186794 27551 net.cpp:148] Top shape: 100 38 (3800)
I0403 13:11:17.186810 27551 net.cpp:156] Memory required for data: 831602000
I0403 13:11:17.186826 27551 layer_factory.hpp:77] Creating layer hdf5out
I0403 13:11:17.186846 27551 net.cpp:91] Creating Layer hdf5out
I0403 13:11:17.186863 27551 net.cpp:425] hdf5out <- prob
I0403 13:11:17.186880 27551 net.cpp:425] hdf5out <- label_data_1_split_0
I0403 13:11:17.190867 27551 net.cpp:141] Setting up hdf5out
…
