…
I0403 13:20:43.573096 27813 net.cpp:313] The NetState phase (1) differed from the phase (0) specified by a rule in layer data
I0403 13:20:43.573418 27813 net.cpp:49] Initializing net from parameters: 
state {
  phase: TEST
}
layer {
  name: "data"
  type: "Data"
  top: "data"
  top: "label"
  include {
    phase: TEST
  }
  transform_param {
    crop_size: 227
    mean_file: "/home/mohanty/data/final_dataset/lmdb/color-50-50/mean.binaryproto"
  }
  data_param {
    source: "/home/mohanty/data/final_dataset/lmdb/color-50-50/test_db"
    batch_size: 100
    backend: LMDB
  }
}
layer {
  name: "conv1"
  type: "Convolution"
  bottom: "data"
  top: "conv1"
  param {
    lr_mult: 1
    decay_mult: 1
  }
  param {
    lr_mult: 2
    decay_mult: 0
  }
  convolution_param {
    num_output: 96
    kernel_size: 11
    stride: 4
    weight_filler {
      type: "gaussian"
      std: 0.01
    }
    bias_filler {
      type: "constant"
      value: 0
    }
  }
}
layer {
  name: "relu1"
  type: "ReLU"
  bottom: "conv1"
  top: "conv1"
}
layer {
  name: "norm1"
  type: "LRN"
  bottom: "conv1"
  top: "norm1"
  lrn_param {
    local_size: 5
    alpha: 0.0001
    beta: 0.75
  }
}
layer {
  name: "pool1"
  type: "Pooling"
  bottom: "norm1"
  top: "pool1"
  pooling_param {
    pool: MAX
    kernel_size: 3
    stride: 2
  }
}
layer {
  name: "conv2"
  type: "Convolution"
  bottom: "pool1"
  top: "conv2"
  param {
    lr_mult: 1
    decay_mult: 1
  }
  param {
    lr_mult: 2
    decay_mult: 0
  }
  convolution_param {
    num_output: 256
    pad: 2
    kernel_size: 5
    group: 2
    weight_filler {
      type: "gaussian"
      std: 0.01
    }
    bias_filler {
      type: "constant"
      value: 0.1
    }
  }
}
layer {
  name: "relu2"
  type: "ReLU"
  bottom: "conv2"
  top: "conv2"
}
layer {
  name: "norm2"
  type: "LRN"
  bottom: "conv2"
  top: "norm2"
  lrn_param {
    local_size: 5
    alpha: 0.0001
    beta: 0.75
  }
}
layer {
  name: "pool2"
  type: "Pooling"
  bottom: "norm2"
  top: "pool2"
  pooling_param {
    pool: MAX
    kernel_size: 3
    stride: 2
  }
}
layer {
  name: "conv3"
  type: "Convolution"
  bottom: "pool2"
  top: "conv3"
  param {
    lr_mult: 1
    decay_mult: 1
  }
  param {
    lr_mult: 2
    decay_mult: 0
  }
  convolution_param {
    num_output: 384
    pad: 1
    kernel_size: 3
    weight_filler {
      type: "gaussian"
      std: 0.01
    }
    bias_filler {
      type: "constant"
      value: 0
    }
  }
}
layer {
  name: "relu3"
  type: "ReLU"
  bottom: "conv3"
  top: "conv3"
}
layer {
  name: "conv4"
  type: "Convolution"
  bottom: "conv3"
  top: "conv4"
  param {
    lr_mult: 1
    decay_mult: 1
  }
  param {
    lr_mult: 2
    decay_mult: 0
  }
  convolution_param {
    num_output: 384
    pad: 1
    kernel_size: 3
    group: 2
    weight_filler {
      type: "gaussian"
      std: 0.01
    }
    bias_filler {
      type: "constant"
      value: 0.1
    }
  }
}
layer {
  name: "relu4"
  type: "ReLU"
  bottom: "conv4"
  top: "conv4"
}
layer {
  name: "conv5"
  type: "Convolution"
  bottom: "conv4"
  top: "conv5"
  param {
    lr_mult: 1
    decay_mult: 1
  }
  param {
    lr_mult: 2
    decay_mult: 0
  }
  convolution_param {
    num_output: 256
    pad: 1
    kernel_size: 3
    group: 2
    weight_filler {
      type: "gaussian"
      std: 0.01
    }
    bias_filler {
      type: "constant"
      value: 0.1
    }
  }
}
layer {
  name: "relu5"
  type: "ReLU"
  bottom: "conv5"
  top: "conv5"
}
layer {
  name: "pool5"
  type: "Pooling"
  bottom: "conv5"
  top: "pool5"
  pooling_param {
    pool: MAX
    kernel_size: 3
    stride: 2
  }
}
layer {
  name: "fc6"
  type: "InnerProduct"
  bottom: "pool5"
  top: "fc6"
  param {
    lr_mult: 1
    decay_mult: 1
  }
  param {
    lr_mult: 2
    decay_mult: 0
  }
  inner_product_param {
    num_output: 4096
    weight_filler {
      type: "gaussian"
      std: 0.005
    }
    bias_filler {
      type: "constant"
      value: 0.1
    }
  }
}
layer {
  name: "relu6"
  type: "ReLU"
  bottom: "fc6"
  top: "fc6"
}
layer {
  name: "drop6"
  type: "Dropout"
  bottom: "fc6"
  top: "fc6"
  dropout_param {
    dropout_ratio: 0.5
  }
}
layer {
  name: "fc7"
  type: "InnerProduct"
  bottom: "fc6"
  top: "fc7"
  param {
    lr_mult: 1
    decay_mult: 1
  }
  param {
    lr_mult: 2
    decay_mult: 0
  }
  inner_product_param {
    num_output: 4096
    weight_filler {
      type: "gaussian"
      std: 0.005
    }
    bias_filler {
      type: "constant"
      value: 0.1
    }
  }
}
layer {
  name: "relu7"
  type: "ReLU"
  bottom: "fc7"
  top: "fc7"
}
layer {
  name: "drop7"
  type: "Dropout"
  bottom: "fc7"
  top: "fc7"
  dropout_param {
    dropout_ratio: 0.5
  }
}
layer {
  name: "fc8_plantvillage"
  type: "InnerProduct"
  bottom: "fc7"
  top: "fc8_plantvillage"
  param {
    lr_mult: 1
    decay_mult: 1
  }
  param {
    lr_mult: 2
    decay_mult: 0
  }
  inner_product_param {
    num_output: 38
    weight_filler {
      type: "gaussian"
      std: 0.01
    }
    bias_filler {
      type: "constant"
      value: 0
    }
  }
}
layer {
  name: "prob"
  type: "Softmax"
  bottom: "fc8_plantvillage"
  top: "prob"
  include {
    phase: TEST
  }
}
layer {
  name: "hdf5out"
  type: "HDF5Output"
  bottom: "prob"
  bottom: "label"
  include {
    phase: TEST
  }
  hdf5_output_param {
    file_name: "hdf5_dumps/iter_8070.h5"
  }
}
layer {
  name: "loss"
  type: "SoftmaxWithLoss"
  bottom: "fc8_plantvillage"
  bottom: "label"
  top: "loss"
}
layer {
  name: "accuracy"
  type: "Accuracy"
  bottom: "fc8_plantvillage"
  bottom: "label"
  top: "accuracy"
  include {
    phase: TEST
  }
}
I0403 13:20:43.574031 27813 layer_factory.hpp:77] Creating layer data
I0403 13:20:43.574705 27813 net.cpp:91] Creating Layer data
I0403 13:20:43.574741 27813 net.cpp:399] data -> data
I0403 13:20:43.574795 27813 net.cpp:399] data -> label
I0403 13:20:43.574833 27813 data_transformer.cpp:25] Loading mean file from: /home/mohanty/data/final_dataset/lmdb/color-50-50/mean.binaryproto
I0403 13:20:43.577853 27816 db_lmdb.cpp:38] Opened lmdb /home/mohanty/data/final_dataset/lmdb/color-50-50/test_db
I0403 13:20:43.589478 27813 data_layer.cpp:41] output data size: 100,3,227,227
I0403 13:20:43.712215 27813 net.cpp:141] Setting up data
I0403 13:20:43.712309 27813 net.cpp:148] Top shape: 100 3 227 227 (15458700)
I0403 13:20:43.712338 27813 net.cpp:148] Top shape: 100 (100)
I0403 13:20:43.712355 27813 net.cpp:156] Memory required for data: 61835200
I0403 13:20:43.712385 27813 layer_factory.hpp:77] Creating layer label_data_1_split
I0403 13:20:43.712414 27813 net.cpp:91] Creating Layer label_data_1_split
I0403 13:20:43.712432 27813 net.cpp:425] label_data_1_split <- label
I0403 13:20:43.712466 27813 net.cpp:399] label_data_1_split -> label_data_1_split_0
I0403 13:20:43.712494 27813 net.cpp:399] label_data_1_split -> label_data_1_split_1
I0403 13:20:43.712519 27813 net.cpp:399] label_data_1_split -> label_data_1_split_2
I0403 13:20:43.712584 27813 net.cpp:141] Setting up label_data_1_split
I0403 13:20:43.712611 27813 net.cpp:148] Top shape: 100 (100)
I0403 13:20:43.712628 27813 net.cpp:148] Top shape: 100 (100)
I0403 13:20:43.712646 27813 net.cpp:148] Top shape: 100 (100)
I0403 13:20:43.712661 27813 net.cpp:156] Memory required for data: 61836400
I0403 13:20:43.712677 27813 layer_factory.hpp:77] Creating layer conv1
I0403 13:20:43.712710 27813 net.cpp:91] Creating Layer conv1
I0403 13:20:43.712730 27813 net.cpp:425] conv1 <- data
I0403 13:20:43.712751 27813 net.cpp:399] conv1 -> conv1
I0403 13:20:43.861328 27813 net.cpp:141] Setting up conv1
I0403 13:20:43.861378 27813 net.cpp:148] Top shape: 100 96 55 55 (29040000)
I0403 13:20:43.861398 27813 net.cpp:156] Memory required for data: 177996400
I0403 13:20:43.861470 27813 layer_factory.hpp:77] Creating layer relu1
I0403 13:20:43.861503 27813 net.cpp:91] Creating Layer relu1
I0403 13:20:43.861524 27813 net.cpp:425] relu1 <- conv1
I0403 13:20:43.861544 27813 net.cpp:386] relu1 -> conv1 (in-place)
I0403 13:20:43.861814 27813 net.cpp:141] Setting up relu1
I0403 13:20:43.861845 27813 net.cpp:148] Top shape: 100 96 55 55 (29040000)
I0403 13:20:43.861861 27813 net.cpp:156] Memory required for data: 294156400
I0403 13:20:43.861912 27813 layer_factory.hpp:77] Creating layer norm1
I0403 13:20:43.861942 27813 net.cpp:91] Creating Layer norm1
I0403 13:20:43.861960 27813 net.cpp:425] norm1 <- conv1
I0403 13:20:43.861980 27813 net.cpp:399] norm1 -> norm1
I0403 13:20:43.862299 27813 net.cpp:141] Setting up norm1
I0403 13:20:43.862335 27813 net.cpp:148] Top shape: 100 96 55 55 (29040000)
I0403 13:20:43.862354 27813 net.cpp:156] Memory required for data: 410316400
I0403 13:20:43.862371 27813 layer_factory.hpp:77] Creating layer pool1
I0403 13:20:43.862396 27813 net.cpp:91] Creating Layer pool1
I0403 13:20:43.862414 27813 net.cpp:425] pool1 <- norm1
I0403 13:20:43.862433 27813 net.cpp:399] pool1 -> pool1
I0403 13:20:43.862504 27813 net.cpp:141] Setting up pool1
I0403 13:20:43.862530 27813 net.cpp:148] Top shape: 100 96 27 27 (6998400)
I0403 13:20:43.862547 27813 net.cpp:156] Memory required for data: 438310000
I0403 13:20:43.862565 27813 layer_factory.hpp:77] Creating layer conv2
I0403 13:20:43.862591 27813 net.cpp:91] Creating Layer conv2
I0403 13:20:43.862608 27813 net.cpp:425] conv2 <- pool1
I0403 13:20:43.862628 27813 net.cpp:399] conv2 -> conv2
I0403 13:20:43.878656 27813 net.cpp:141] Setting up conv2
I0403 13:20:43.878710 27813 net.cpp:148] Top shape: 100 256 27 27 (18662400)
I0403 13:20:43.878731 27813 net.cpp:156] Memory required for data: 512959600
I0403 13:20:43.878757 27813 layer_factory.hpp:77] Creating layer relu2
I0403 13:20:43.878780 27813 net.cpp:91] Creating Layer relu2
I0403 13:20:43.878800 27813 net.cpp:425] relu2 <- conv2
I0403 13:20:43.878820 27813 net.cpp:386] relu2 -> conv2 (in-place)
I0403 13:20:43.879099 27813 net.cpp:141] Setting up relu2
I0403 13:20:43.879129 27813 net.cpp:148] Top shape: 100 256 27 27 (18662400)
I0403 13:20:43.879147 27813 net.cpp:156] Memory required for data: 587609200
I0403 13:20:43.879163 27813 layer_factory.hpp:77] Creating layer norm2
I0403 13:20:43.879187 27813 net.cpp:91] Creating Layer norm2
I0403 13:20:43.879205 27813 net.cpp:425] norm2 <- conv2
I0403 13:20:43.879226 27813 net.cpp:399] norm2 -> norm2
I0403 13:20:43.879427 27813 net.cpp:141] Setting up norm2
I0403 13:20:43.879456 27813 net.cpp:148] Top shape: 100 256 27 27 (18662400)
I0403 13:20:43.879472 27813 net.cpp:156] Memory required for data: 662258800
I0403 13:20:43.879488 27813 layer_factory.hpp:77] Creating layer pool2
I0403 13:20:43.879510 27813 net.cpp:91] Creating Layer pool2
I0403 13:20:43.879526 27813 net.cpp:425] pool2 <- norm2
I0403 13:20:43.879549 27813 net.cpp:399] pool2 -> pool2
I0403 13:20:43.879603 27813 net.cpp:141] Setting up pool2
I0403 13:20:43.879629 27813 net.cpp:148] Top shape: 100 256 13 13 (4326400)
I0403 13:20:43.879709 27813 net.cpp:156] Memory required for data: 679564400
I0403 13:20:43.879732 27813 layer_factory.hpp:77] Creating layer conv3
I0403 13:20:43.879758 27813 net.cpp:91] Creating Layer conv3
I0403 13:20:43.879776 27813 net.cpp:425] conv3 <- pool2
I0403 13:20:43.879797 27813 net.cpp:399] conv3 -> conv3
I0403 13:20:43.920847 27813 net.cpp:141] Setting up conv3
I0403 13:20:43.920924 27813 net.cpp:148] Top shape: 100 384 13 13 (6489600)
I0403 13:20:43.920944 27813 net.cpp:156] Memory required for data: 705522800
I0403 13:20:43.920971 27813 layer_factory.hpp:77] Creating layer relu3
I0403 13:20:43.921006 27813 net.cpp:91] Creating Layer relu3
I0403 13:20:43.921032 27813 net.cpp:425] relu3 <- conv3
I0403 13:20:43.921053 27813 net.cpp:386] relu3 -> conv3 (in-place)
I0403 13:20:43.921352 27813 net.cpp:141] Setting up relu3
I0403 13:20:43.921385 27813 net.cpp:148] Top shape: 100 384 13 13 (6489600)
I0403 13:20:43.921403 27813 net.cpp:156] Memory required for data: 731481200
I0403 13:20:43.921422 27813 layer_factory.hpp:77] Creating layer conv4
I0403 13:20:43.921449 27813 net.cpp:91] Creating Layer conv4
I0403 13:20:43.921470 27813 net.cpp:425] conv4 <- conv3
I0403 13:20:43.921494 27813 net.cpp:399] conv4 -> conv4
I0403 13:20:43.953483 27813 net.cpp:141] Setting up conv4
I0403 13:20:43.953552 27813 net.cpp:148] Top shape: 100 384 13 13 (6489600)
I0403 13:20:43.953610 27813 net.cpp:156] Memory required for data: 757439600
I0403 13:20:43.953634 27813 layer_factory.hpp:77] Creating layer relu4
I0403 13:20:43.953657 27813 net.cpp:91] Creating Layer relu4
I0403 13:20:43.953676 27813 net.cpp:425] relu4 <- conv4
I0403 13:20:43.953701 27813 net.cpp:386] relu4 -> conv4 (in-place)
I0403 13:20:43.953989 27813 net.cpp:141] Setting up relu4
I0403 13:20:43.954023 27813 net.cpp:148] Top shape: 100 384 13 13 (6489600)
I0403 13:20:43.954077 27813 net.cpp:156] Memory required for data: 783398000
I0403 13:20:43.954097 27813 layer_factory.hpp:77] Creating layer conv5
I0403 13:20:43.954126 27813 net.cpp:91] Creating Layer conv5
I0403 13:20:43.954145 27813 net.cpp:425] conv5 <- conv4
I0403 13:20:43.954165 27813 net.cpp:399] conv5 -> conv5
I0403 13:20:43.976238 27813 net.cpp:141] Setting up conv5
I0403 13:20:43.976295 27813 net.cpp:148] Top shape: 100 256 13 13 (4326400)
I0403 13:20:43.976318 27813 net.cpp:156] Memory required for data: 800703600
I0403 13:20:43.976347 27813 layer_factory.hpp:77] Creating layer relu5
I0403 13:20:43.976372 27813 net.cpp:91] Creating Layer relu5
I0403 13:20:43.976390 27813 net.cpp:425] relu5 <- conv5
I0403 13:20:43.976413 27813 net.cpp:386] relu5 -> conv5 (in-place)
I0403 13:20:43.976711 27813 net.cpp:141] Setting up relu5
I0403 13:20:43.976740 27813 net.cpp:148] Top shape: 100 256 13 13 (4326400)
I0403 13:20:43.976758 27813 net.cpp:156] Memory required for data: 818009200
I0403 13:20:43.976775 27813 layer_factory.hpp:77] Creating layer pool5
I0403 13:20:43.976805 27813 net.cpp:91] Creating Layer pool5
I0403 13:20:43.976826 27813 net.cpp:425] pool5 <- conv5
I0403 13:20:43.976846 27813 net.cpp:399] pool5 -> pool5
I0403 13:20:43.976912 27813 net.cpp:141] Setting up pool5
I0403 13:20:43.976939 27813 net.cpp:148] Top shape: 100 256 6 6 (921600)
I0403 13:20:43.976955 27813 net.cpp:156] Memory required for data: 821695600
I0403 13:20:43.976972 27813 layer_factory.hpp:77] Creating layer fc6
I0403 13:20:43.977001 27813 net.cpp:91] Creating Layer fc6
I0403 13:20:43.977025 27813 net.cpp:425] fc6 <- pool5
I0403 13:20:43.977043 27813 net.cpp:399] fc6 -> fc6
I0403 13:20:45.559490 27813 net.cpp:141] Setting up fc6
I0403 13:20:45.559535 27813 net.cpp:148] Top shape: 100 4096 (409600)
I0403 13:20:45.559551 27813 net.cpp:156] Memory required for data: 823334000
I0403 13:20:45.559583 27813 layer_factory.hpp:77] Creating layer relu6
I0403 13:20:45.559612 27813 net.cpp:91] Creating Layer relu6
I0403 13:20:45.559631 27813 net.cpp:425] relu6 <- fc6
I0403 13:20:45.559651 27813 net.cpp:386] relu6 -> fc6 (in-place)
I0403 13:20:45.559872 27813 net.cpp:141] Setting up relu6
I0403 13:20:45.559911 27813 net.cpp:148] Top shape: 100 4096 (409600)
I0403 13:20:45.559926 27813 net.cpp:156] Memory required for data: 824972400
I0403 13:20:45.559942 27813 layer_factory.hpp:77] Creating layer drop6
I0403 13:20:45.559959 27813 net.cpp:91] Creating Layer drop6
I0403 13:20:45.559974 27813 net.cpp:425] drop6 <- fc6
I0403 13:20:45.559994 27813 net.cpp:386] drop6 -> fc6 (in-place)
I0403 13:20:45.560045 27813 net.cpp:141] Setting up drop6
I0403 13:20:45.560071 27813 net.cpp:148] Top shape: 100 4096 (409600)
I0403 13:20:45.560086 27813 net.cpp:156] Memory required for data: 826610800
I0403 13:20:45.560101 27813 layer_factory.hpp:77] Creating layer fc7
I0403 13:20:45.560122 27813 net.cpp:91] Creating Layer fc7
I0403 13:20:45.560137 27813 net.cpp:425] fc7 <- fc6
I0403 13:20:45.560158 27813 net.cpp:399] fc7 -> fc7
I0403 13:20:46.248878 27813 net.cpp:141] Setting up fc7
I0403 13:20:46.248955 27813 net.cpp:148] Top shape: 100 4096 (409600)
I0403 13:20:46.248972 27813 net.cpp:156] Memory required for data: 828249200
I0403 13:20:46.248993 27813 layer_factory.hpp:77] Creating layer relu7
I0403 13:20:46.249016 27813 net.cpp:91] Creating Layer relu7
I0403 13:20:46.249033 27813 net.cpp:425] relu7 <- fc7
I0403 13:20:46.249055 27813 net.cpp:386] relu7 -> fc7 (in-place)
I0403 13:20:46.249469 27813 net.cpp:141] Setting up relu7
I0403 13:20:46.249496 27813 net.cpp:148] Top shape: 100 4096 (409600)
I0403 13:20:46.249555 27813 net.cpp:156] Memory required for data: 829887600
I0403 13:20:46.249572 27813 layer_factory.hpp:77] Creating layer drop7
I0403 13:20:46.249591 27813 net.cpp:91] Creating Layer drop7
I0403 13:20:46.249608 27813 net.cpp:425] drop7 <- fc7
I0403 13:20:46.249629 27813 net.cpp:386] drop7 -> fc7 (in-place)
I0403 13:20:46.249675 27813 net.cpp:141] Setting up drop7
I0403 13:20:46.249701 27813 net.cpp:148] Top shape: 100 4096 (409600)
I0403 13:20:46.249717 27813 net.cpp:156] Memory required for data: 831526000
I0403 13:20:46.249732 27813 layer_factory.hpp:77] Creating layer fc8_plantvillage
I0403 13:20:46.249752 27813 net.cpp:91] Creating Layer fc8_plantvillage
I0403 13:20:46.249769 27813 net.cpp:425] fc8_plantvillage <- fc7
I0403 13:20:46.249793 27813 net.cpp:399] fc8_plantvillage -> fc8_plantvillage
I0403 13:20:46.256594 27813 net.cpp:141] Setting up fc8_plantvillage
I0403 13:20:46.256623 27813 net.cpp:148] Top shape: 100 38 (3800)
I0403 13:20:46.256639 27813 net.cpp:156] Memory required for data: 831541200
I0403 13:20:46.256659 27813 layer_factory.hpp:77] Creating layer fc8_plantvillage_fc8_plantvillage_0_split
I0403 13:20:46.256677 27813 net.cpp:91] Creating Layer fc8_plantvillage_fc8_plantvillage_0_split
I0403 13:20:46.256693 27813 net.cpp:425] fc8_plantvillage_fc8_plantvillage_0_split <- fc8_plantvillage
I0403 13:20:46.256712 27813 net.cpp:399] fc8_plantvillage_fc8_plantvillage_0_split -> fc8_plantvillage_fc8_plantvillage_0_split_0
I0403 13:20:46.256733 27813 net.cpp:399] fc8_plantvillage_fc8_plantvillage_0_split -> fc8_plantvillage_fc8_plantvillage_0_split_1
I0403 13:20:46.256753 27813 net.cpp:399] fc8_plantvillage_fc8_plantvillage_0_split -> fc8_plantvillage_fc8_plantvillage_0_split_2
I0403 13:20:46.256834 27813 net.cpp:141] Setting up fc8_plantvillage_fc8_plantvillage_0_split
I0403 13:20:46.256857 27813 net.cpp:148] Top shape: 100 38 (3800)
I0403 13:20:46.256875 27813 net.cpp:148] Top shape: 100 38 (3800)
I0403 13:20:46.256889 27813 net.cpp:148] Top shape: 100 38 (3800)
I0403 13:20:46.256903 27813 net.cpp:156] Memory required for data: 831586800
I0403 13:20:46.256918 27813 layer_factory.hpp:77] Creating layer prob
I0403 13:20:46.256937 27813 net.cpp:91] Creating Layer prob
I0403 13:20:46.256953 27813 net.cpp:425] prob <- fc8_plantvillage_fc8_plantvillage_0_split_0
I0403 13:20:46.256973 27813 net.cpp:399] prob -> prob
I0403 13:20:46.257200 27813 net.cpp:141] Setting up prob
I0403 13:20:46.257227 27813 net.cpp:148] Top shape: 100 38 (3800)
I0403 13:20:46.257242 27813 net.cpp:156] Memory required for data: 831602000
I0403 13:20:46.257257 27813 layer_factory.hpp:77] Creating layer hdf5out
I0403 13:20:46.257278 27813 net.cpp:91] Creating Layer hdf5out
I0403 13:20:46.257294 27813 net.cpp:425] hdf5out <- prob
I0403 13:20:46.257310 27813 net.cpp:425] hdf5out <- label_data_1_split_0
I0403 13:20:46.270541 27813 net.cpp:141] Setting up hdf5out
…
