…
I0403 13:02:44.392376 27218 net.cpp:313] The NetState phase (1) differed from the phase (0) specified by a rule in layer data
I0403 13:02:44.392673 27218 net.cpp:49] Initializing net from parameters: 
state {
  phase: TEST
}
layer {
  name: "data"
  type: "Data"
  top: "data"
  top: "label"
  include {
    phase: TEST
  }
  transform_param {
    crop_size: 227
    mean_file: "/home/mohanty/data/final_dataset/lmdb/color-50-50/mean.binaryproto"
  }
  data_param {
    source: "/home/mohanty/data/final_dataset/lmdb/color-50-50/test_db"
    batch_size: 100
    backend: LMDB
  }
}
layer {
  name: "conv1"
  type: "Convolution"
  bottom: "data"
  top: "conv1"
  param {
    lr_mult: 1
    decay_mult: 1
  }
  param {
    lr_mult: 2
    decay_mult: 0
  }
  convolution_param {
    num_output: 96
    kernel_size: 11
    stride: 4
    weight_filler {
      type: "gaussian"
      std: 0.01
    }
    bias_filler {
      type: "constant"
      value: 0
    }
  }
}
layer {
  name: "relu1"
  type: "ReLU"
  bottom: "conv1"
  top: "conv1"
}
layer {
  name: "norm1"
  type: "LRN"
  bottom: "conv1"
  top: "norm1"
  lrn_param {
    local_size: 5
    alpha: 0.0001
    beta: 0.75
  }
}
layer {
  name: "pool1"
  type: "Pooling"
  bottom: "norm1"
  top: "pool1"
  pooling_param {
    pool: MAX
    kernel_size: 3
    stride: 2
  }
}
layer {
  name: "conv2"
  type: "Convolution"
  bottom: "pool1"
  top: "conv2"
  param {
    lr_mult: 1
    decay_mult: 1
  }
  param {
    lr_mult: 2
    decay_mult: 0
  }
  convolution_param {
    num_output: 256
    pad: 2
    kernel_size: 5
    group: 2
    weight_filler {
      type: "gaussian"
      std: 0.01
    }
    bias_filler {
      type: "constant"
      value: 0.1
    }
  }
}
layer {
  name: "relu2"
  type: "ReLU"
  bottom: "conv2"
  top: "conv2"
}
layer {
  name: "norm2"
  type: "LRN"
  bottom: "conv2"
  top: "norm2"
  lrn_param {
    local_size: 5
    alpha: 0.0001
    beta: 0.75
  }
}
layer {
  name: "pool2"
  type: "Pooling"
  bottom: "norm2"
  top: "pool2"
  pooling_param {
    pool: MAX
    kernel_size: 3
    stride: 2
  }
}
layer {
  name: "conv3"
  type: "Convolution"
  bottom: "pool2"
  top: "conv3"
  param {
    lr_mult: 1
    decay_mult: 1
  }
  param {
    lr_mult: 2
    decay_mult: 0
  }
  convolution_param {
    num_output: 384
    pad: 1
    kernel_size: 3
    weight_filler {
      type: "gaussian"
      std: 0.01
    }
    bias_filler {
      type: "constant"
      value: 0
    }
  }
}
layer {
  name: "relu3"
  type: "ReLU"
  bottom: "conv3"
  top: "conv3"
}
layer {
  name: "conv4"
  type: "Convolution"
  bottom: "conv3"
  top: "conv4"
  param {
    lr_mult: 1
    decay_mult: 1
  }
  param {
    lr_mult: 2
    decay_mult: 0
  }
  convolution_param {
    num_output: 384
    pad: 1
    kernel_size: 3
    group: 2
    weight_filler {
      type: "gaussian"
      std: 0.01
    }
    bias_filler {
      type: "constant"
      value: 0.1
    }
  }
}
layer {
  name: "relu4"
  type: "ReLU"
  bottom: "conv4"
  top: "conv4"
}
layer {
  name: "conv5"
  type: "Convolution"
  bottom: "conv4"
  top: "conv5"
  param {
    lr_mult: 1
    decay_mult: 1
  }
  param {
    lr_mult: 2
    decay_mult: 0
  }
  convolution_param {
    num_output: 256
    pad: 1
    kernel_size: 3
    group: 2
    weight_filler {
      type: "gaussian"
      std: 0.01
    }
    bias_filler {
      type: "constant"
      value: 0.1
    }
  }
}
layer {
  name: "relu5"
  type: "ReLU"
  bottom: "conv5"
  top: "conv5"
}
layer {
  name: "pool5"
  type: "Pooling"
  bottom: "conv5"
  top: "pool5"
  pooling_param {
    pool: MAX
    kernel_size: 3
    stride: 2
  }
}
layer {
  name: "fc6"
  type: "InnerProduct"
  bottom: "pool5"
  top: "fc6"
  param {
    lr_mult: 1
    decay_mult: 1
  }
  param {
    lr_mult: 2
    decay_mult: 0
  }
  inner_product_param {
    num_output: 4096
    weight_filler {
      type: "gaussian"
      std: 0.005
    }
    bias_filler {
      type: "constant"
      value: 0.1
    }
  }
}
layer {
  name: "relu6"
  type: "ReLU"
  bottom: "fc6"
  top: "fc6"
}
layer {
  name: "drop6"
  type: "Dropout"
  bottom: "fc6"
  top: "fc6"
  dropout_param {
    dropout_ratio: 0.5
  }
}
layer {
  name: "fc7"
  type: "InnerProduct"
  bottom: "fc6"
  top: "fc7"
  param {
    lr_mult: 1
    decay_mult: 1
  }
  param {
    lr_mult: 2
    decay_mult: 0
  }
  inner_product_param {
    num_output: 4096
    weight_filler {
      type: "gaussian"
      std: 0.005
    }
    bias_filler {
      type: "constant"
      value: 0.1
    }
  }
}
layer {
  name: "relu7"
  type: "ReLU"
  bottom: "fc7"
  top: "fc7"
}
layer {
  name: "drop7"
  type: "Dropout"
  bottom: "fc7"
  top: "fc7"
  dropout_param {
    dropout_ratio: 0.5
  }
}
layer {
  name: "fc8_plantvillage"
  type: "InnerProduct"
  bottom: "fc7"
  top: "fc8_plantvillage"
  param {
    lr_mult: 1
    decay_mult: 1
  }
  param {
    lr_mult: 2
    decay_mult: 0
  }
  inner_product_param {
    num_output: 38
    weight_filler {
      type: "gaussian"
      std: 0.01
    }
    bias_filler {
      type: "constant"
      value: 0
    }
  }
}
layer {
  name: "prob"
  type: "Softmax"
  bottom: "fc8_plantvillage"
  top: "prob"
  include {
    phase: TEST
  }
}
layer {
  name: "hdf5out"
  type: "HDF5Output"
  bottom: "prob"
  bottom: "label"
  include {
    phase: TEST
  }
  hdf5_output_param {
    file_name: "hdf5_dumps/iter_2959.h5"
  }
}
layer {
  name: "loss"
  type: "SoftmaxWithLoss"
  bottom: "fc8_plantvillage"
  bottom: "label"
  top: "loss"
}
layer {
  name: "accuracy"
  type: "Accuracy"
  bottom: "fc8_plantvillage"
  bottom: "label"
  top: "accuracy"
  include {
    phase: TEST
  }
}
I0403 13:02:44.393211 27218 layer_factory.hpp:77] Creating layer data
I0403 13:02:44.393867 27218 net.cpp:91] Creating Layer data
I0403 13:02:44.393900 27218 net.cpp:399] data -> data
I0403 13:02:44.393952 27218 net.cpp:399] data -> label
I0403 13:02:44.393990 27218 data_transformer.cpp:25] Loading mean file from: /home/mohanty/data/final_dataset/lmdb/color-50-50/mean.binaryproto
I0403 13:02:44.397089 27221 db_lmdb.cpp:38] Opened lmdb /home/mohanty/data/final_dataset/lmdb/color-50-50/test_db
I0403 13:02:44.408733 27218 data_layer.cpp:41] output data size: 100,3,227,227
I0403 13:02:44.529095 27218 net.cpp:141] Setting up data
I0403 13:02:44.529187 27218 net.cpp:148] Top shape: 100 3 227 227 (15458700)
I0403 13:02:44.529211 27218 net.cpp:148] Top shape: 100 (100)
I0403 13:02:44.529227 27218 net.cpp:156] Memory required for data: 61835200
I0403 13:02:44.529256 27218 layer_factory.hpp:77] Creating layer label_data_1_split
I0403 13:02:44.529297 27218 net.cpp:91] Creating Layer label_data_1_split
I0403 13:02:44.529316 27218 net.cpp:425] label_data_1_split <- label
I0403 13:02:44.529351 27218 net.cpp:399] label_data_1_split -> label_data_1_split_0
I0403 13:02:44.529382 27218 net.cpp:399] label_data_1_split -> label_data_1_split_1
I0403 13:02:44.529405 27218 net.cpp:399] label_data_1_split -> label_data_1_split_2
I0403 13:02:44.529470 27218 net.cpp:141] Setting up label_data_1_split
I0403 13:02:44.529495 27218 net.cpp:148] Top shape: 100 (100)
I0403 13:02:44.529512 27218 net.cpp:148] Top shape: 100 (100)
I0403 13:02:44.529530 27218 net.cpp:148] Top shape: 100 (100)
I0403 13:02:44.529546 27218 net.cpp:156] Memory required for data: 61836400
I0403 13:02:44.529572 27218 layer_factory.hpp:77] Creating layer conv1
I0403 13:02:44.529604 27218 net.cpp:91] Creating Layer conv1
I0403 13:02:44.529623 27218 net.cpp:425] conv1 <- data
I0403 13:02:44.529642 27218 net.cpp:399] conv1 -> conv1
I0403 13:02:44.673339 27218 net.cpp:141] Setting up conv1
I0403 13:02:44.673424 27218 net.cpp:148] Top shape: 100 96 55 55 (29040000)
I0403 13:02:44.673441 27218 net.cpp:156] Memory required for data: 177996400
I0403 13:02:44.673473 27218 layer_factory.hpp:77] Creating layer relu1
I0403 13:02:44.673502 27218 net.cpp:91] Creating Layer relu1
I0403 13:02:44.673522 27218 net.cpp:425] relu1 <- conv1
I0403 13:02:44.673545 27218 net.cpp:386] relu1 -> conv1 (in-place)
I0403 13:02:44.673873 27218 net.cpp:141] Setting up relu1
I0403 13:02:44.673902 27218 net.cpp:148] Top shape: 100 96 55 55 (29040000)
I0403 13:02:44.673919 27218 net.cpp:156] Memory required for data: 294156400
I0403 13:02:44.673967 27218 layer_factory.hpp:77] Creating layer norm1
I0403 13:02:44.673998 27218 net.cpp:91] Creating Layer norm1
I0403 13:02:44.674020 27218 net.cpp:425] norm1 <- conv1
I0403 13:02:44.674038 27218 net.cpp:399] norm1 -> norm1
I0403 13:02:44.674379 27218 net.cpp:141] Setting up norm1
I0403 13:02:44.674408 27218 net.cpp:148] Top shape: 100 96 55 55 (29040000)
I0403 13:02:44.674424 27218 net.cpp:156] Memory required for data: 410316400
I0403 13:02:44.674442 27218 layer_factory.hpp:77] Creating layer pool1
I0403 13:02:44.674468 27218 net.cpp:91] Creating Layer pool1
I0403 13:02:44.674487 27218 net.cpp:425] pool1 <- norm1
I0403 13:02:44.674505 27218 net.cpp:399] pool1 -> pool1
I0403 13:02:44.674579 27218 net.cpp:141] Setting up pool1
I0403 13:02:44.674605 27218 net.cpp:148] Top shape: 100 96 27 27 (6998400)
I0403 13:02:44.674620 27218 net.cpp:156] Memory required for data: 438310000
I0403 13:02:44.674636 27218 layer_factory.hpp:77] Creating layer conv2
I0403 13:02:44.674665 27218 net.cpp:91] Creating Layer conv2
I0403 13:02:44.674685 27218 net.cpp:425] conv2 <- pool1
I0403 13:02:44.674706 27218 net.cpp:399] conv2 -> conv2
I0403 13:02:44.690074 27218 net.cpp:141] Setting up conv2
I0403 13:02:44.690125 27218 net.cpp:148] Top shape: 100 256 27 27 (18662400)
I0403 13:02:44.690143 27218 net.cpp:156] Memory required for data: 512959600
I0403 13:02:44.690167 27218 layer_factory.hpp:77] Creating layer relu2
I0403 13:02:44.690191 27218 net.cpp:91] Creating Layer relu2
I0403 13:02:44.690209 27218 net.cpp:425] relu2 <- conv2
I0403 13:02:44.690228 27218 net.cpp:386] relu2 -> conv2 (in-place)
I0403 13:02:44.690513 27218 net.cpp:141] Setting up relu2
I0403 13:02:44.690543 27218 net.cpp:148] Top shape: 100 256 27 27 (18662400)
I0403 13:02:44.690560 27218 net.cpp:156] Memory required for data: 587609200
I0403 13:02:44.690578 27218 layer_factory.hpp:77] Creating layer norm2
I0403 13:02:44.690599 27218 net.cpp:91] Creating Layer norm2
I0403 13:02:44.690615 27218 net.cpp:425] norm2 <- conv2
I0403 13:02:44.690637 27218 net.cpp:399] norm2 -> norm2
I0403 13:02:44.690841 27218 net.cpp:141] Setting up norm2
I0403 13:02:44.690868 27218 net.cpp:148] Top shape: 100 256 27 27 (18662400)
I0403 13:02:44.690886 27218 net.cpp:156] Memory required for data: 662258800
I0403 13:02:44.690902 27218 layer_factory.hpp:77] Creating layer pool2
I0403 13:02:44.690924 27218 net.cpp:91] Creating Layer pool2
I0403 13:02:44.690942 27218 net.cpp:425] pool2 <- norm2
I0403 13:02:44.690960 27218 net.cpp:399] pool2 -> pool2
I0403 13:02:44.691015 27218 net.cpp:141] Setting up pool2
I0403 13:02:44.691040 27218 net.cpp:148] Top shape: 100 256 13 13 (4326400)
I0403 13:02:44.691056 27218 net.cpp:156] Memory required for data: 679564400
I0403 13:02:44.691071 27218 layer_factory.hpp:77] Creating layer conv3
I0403 13:02:44.691095 27218 net.cpp:91] Creating Layer conv3
I0403 13:02:44.691114 27218 net.cpp:425] conv3 <- pool2
I0403 13:02:44.691134 27218 net.cpp:399] conv3 -> conv3
I0403 13:02:44.733458 27218 net.cpp:141] Setting up conv3
I0403 13:02:44.733503 27218 net.cpp:148] Top shape: 100 384 13 13 (6489600)
I0403 13:02:44.733520 27218 net.cpp:156] Memory required for data: 705522800
I0403 13:02:44.733548 27218 layer_factory.hpp:77] Creating layer relu3
I0403 13:02:44.733572 27218 net.cpp:91] Creating Layer relu3
I0403 13:02:44.733590 27218 net.cpp:425] relu3 <- conv3
I0403 13:02:44.733608 27218 net.cpp:386] relu3 -> conv3 (in-place)
I0403 13:02:44.733886 27218 net.cpp:141] Setting up relu3
I0403 13:02:44.733916 27218 net.cpp:148] Top shape: 100 384 13 13 (6489600)
I0403 13:02:44.733932 27218 net.cpp:156] Memory required for data: 731481200
I0403 13:02:44.733947 27218 layer_factory.hpp:77] Creating layer conv4
I0403 13:02:44.733970 27218 net.cpp:91] Creating Layer conv4
I0403 13:02:44.733986 27218 net.cpp:425] conv4 <- conv3
I0403 13:02:44.734009 27218 net.cpp:399] conv4 -> conv4
I0403 13:02:44.764449 27218 net.cpp:141] Setting up conv4
I0403 13:02:44.764518 27218 net.cpp:148] Top shape: 100 384 13 13 (6489600)
I0403 13:02:44.764565 27218 net.cpp:156] Memory required for data: 757439600
I0403 13:02:44.764588 27218 layer_factory.hpp:77] Creating layer relu4
I0403 13:02:44.764614 27218 net.cpp:91] Creating Layer relu4
I0403 13:02:44.764632 27218 net.cpp:425] relu4 <- conv4
I0403 13:02:44.764652 27218 net.cpp:386] relu4 -> conv4 (in-place)
I0403 13:02:44.764930 27218 net.cpp:141] Setting up relu4
I0403 13:02:44.764957 27218 net.cpp:148] Top shape: 100 384 13 13 (6489600)
I0403 13:02:44.764973 27218 net.cpp:156] Memory required for data: 783398000
I0403 13:02:44.764988 27218 layer_factory.hpp:77] Creating layer conv5
I0403 13:02:44.765017 27218 net.cpp:91] Creating Layer conv5
I0403 13:02:44.765035 27218 net.cpp:425] conv5 <- conv4
I0403 13:02:44.765058 27218 net.cpp:399] conv5 -> conv5
I0403 13:02:44.785979 27218 net.cpp:141] Setting up conv5
I0403 13:02:44.786031 27218 net.cpp:148] Top shape: 100 256 13 13 (4326400)
I0403 13:02:44.786049 27218 net.cpp:156] Memory required for data: 800703600
I0403 13:02:44.786075 27218 layer_factory.hpp:77] Creating layer relu5
I0403 13:02:44.786100 27218 net.cpp:91] Creating Layer relu5
I0403 13:02:44.786118 27218 net.cpp:425] relu5 <- conv5
I0403 13:02:44.786139 27218 net.cpp:386] relu5 -> conv5 (in-place)
I0403 13:02:44.786424 27218 net.cpp:141] Setting up relu5
I0403 13:02:44.786453 27218 net.cpp:148] Top shape: 100 256 13 13 (4326400)
I0403 13:02:44.786468 27218 net.cpp:156] Memory required for data: 818009200
I0403 13:02:44.786484 27218 layer_factory.hpp:77] Creating layer pool5
I0403 13:02:44.786509 27218 net.cpp:91] Creating Layer pool5
I0403 13:02:44.786527 27218 net.cpp:425] pool5 <- conv5
I0403 13:02:44.786550 27218 net.cpp:399] pool5 -> pool5
I0403 13:02:44.786612 27218 net.cpp:141] Setting up pool5
I0403 13:02:44.786636 27218 net.cpp:148] Top shape: 100 256 6 6 (921600)
I0403 13:02:44.786653 27218 net.cpp:156] Memory required for data: 821695600
I0403 13:02:44.786669 27218 layer_factory.hpp:77] Creating layer fc6
I0403 13:02:44.786700 27218 net.cpp:91] Creating Layer fc6
I0403 13:02:44.786720 27218 net.cpp:425] fc6 <- pool5
I0403 13:02:44.786741 27218 net.cpp:399] fc6 -> fc6
I0403 13:02:46.438750 27218 net.cpp:141] Setting up fc6
I0403 13:02:46.438809 27218 net.cpp:148] Top shape: 100 4096 (409600)
I0403 13:02:46.438827 27218 net.cpp:156] Memory required for data: 823334000
I0403 13:02:46.438848 27218 layer_factory.hpp:77] Creating layer relu6
I0403 13:02:46.438870 27218 net.cpp:91] Creating Layer relu6
I0403 13:02:46.438890 27218 net.cpp:425] relu6 <- fc6
I0403 13:02:46.438911 27218 net.cpp:386] relu6 -> fc6 (in-place)
I0403 13:02:46.439129 27218 net.cpp:141] Setting up relu6
I0403 13:02:46.439154 27218 net.cpp:148] Top shape: 100 4096 (409600)
I0403 13:02:46.439169 27218 net.cpp:156] Memory required for data: 824972400
I0403 13:02:46.439184 27218 layer_factory.hpp:77] Creating layer drop6
I0403 13:02:46.439205 27218 net.cpp:91] Creating Layer drop6
I0403 13:02:46.439221 27218 net.cpp:425] drop6 <- fc6
I0403 13:02:46.439239 27218 net.cpp:386] drop6 -> fc6 (in-place)
I0403 13:02:46.439291 27218 net.cpp:141] Setting up drop6
I0403 13:02:46.439316 27218 net.cpp:148] Top shape: 100 4096 (409600)
I0403 13:02:46.439329 27218 net.cpp:156] Memory required for data: 826610800
I0403 13:02:46.439344 27218 layer_factory.hpp:77] Creating layer fc7
I0403 13:02:46.439370 27218 net.cpp:91] Creating Layer fc7
I0403 13:02:46.439386 27218 net.cpp:425] fc7 <- fc6
I0403 13:02:46.439409 27218 net.cpp:399] fc7 -> fc7
I0403 13:02:47.186847 27218 net.cpp:141] Setting up fc7
I0403 13:02:47.186926 27218 net.cpp:148] Top shape: 100 4096 (409600)
I0403 13:02:47.186944 27218 net.cpp:156] Memory required for data: 828249200
I0403 13:02:47.186978 27218 layer_factory.hpp:77] Creating layer relu7
I0403 13:02:47.187001 27218 net.cpp:91] Creating Layer relu7
I0403 13:02:47.187019 27218 net.cpp:425] relu7 <- fc7
I0403 13:02:47.187039 27218 net.cpp:386] relu7 -> fc7 (in-place)
I0403 13:02:47.187470 27218 net.cpp:141] Setting up relu7
I0403 13:02:47.187497 27218 net.cpp:148] Top shape: 100 4096 (409600)
I0403 13:02:47.187546 27218 net.cpp:156] Memory required for data: 829887600
I0403 13:02:47.187563 27218 layer_factory.hpp:77] Creating layer drop7
I0403 13:02:47.187584 27218 net.cpp:91] Creating Layer drop7
I0403 13:02:47.187602 27218 net.cpp:425] drop7 <- fc7
I0403 13:02:47.187618 27218 net.cpp:386] drop7 -> fc7 (in-place)
I0403 13:02:47.187662 27218 net.cpp:141] Setting up drop7
I0403 13:02:47.187685 27218 net.cpp:148] Top shape: 100 4096 (409600)
I0403 13:02:47.187701 27218 net.cpp:156] Memory required for data: 831526000
I0403 13:02:47.187716 27218 layer_factory.hpp:77] Creating layer fc8_plantvillage
I0403 13:02:47.187737 27218 net.cpp:91] Creating Layer fc8_plantvillage
I0403 13:02:47.187753 27218 net.cpp:425] fc8_plantvillage <- fc7
I0403 13:02:47.187772 27218 net.cpp:399] fc8_plantvillage -> fc8_plantvillage
I0403 13:02:47.194968 27218 net.cpp:141] Setting up fc8_plantvillage
I0403 13:02:47.194998 27218 net.cpp:148] Top shape: 100 38 (3800)
I0403 13:02:47.195014 27218 net.cpp:156] Memory required for data: 831541200
I0403 13:02:47.195031 27218 layer_factory.hpp:77] Creating layer fc8_plantvillage_fc8_plantvillage_0_split
I0403 13:02:47.195053 27218 net.cpp:91] Creating Layer fc8_plantvillage_fc8_plantvillage_0_split
I0403 13:02:47.195070 27218 net.cpp:425] fc8_plantvillage_fc8_plantvillage_0_split <- fc8_plantvillage
I0403 13:02:47.195088 27218 net.cpp:399] fc8_plantvillage_fc8_plantvillage_0_split -> fc8_plantvillage_fc8_plantvillage_0_split_0
I0403 13:02:47.195111 27218 net.cpp:399] fc8_plantvillage_fc8_plantvillage_0_split -> fc8_plantvillage_fc8_plantvillage_0_split_1
I0403 13:02:47.195130 27218 net.cpp:399] fc8_plantvillage_fc8_plantvillage_0_split -> fc8_plantvillage_fc8_plantvillage_0_split_2
I0403 13:02:47.195206 27218 net.cpp:141] Setting up fc8_plantvillage_fc8_plantvillage_0_split
I0403 13:02:47.195230 27218 net.cpp:148] Top shape: 100 38 (3800)
I0403 13:02:47.195247 27218 net.cpp:148] Top shape: 100 38 (3800)
I0403 13:02:47.195263 27218 net.cpp:148] Top shape: 100 38 (3800)
I0403 13:02:47.195277 27218 net.cpp:156] Memory required for data: 831586800
I0403 13:02:47.195292 27218 layer_factory.hpp:77] Creating layer prob
I0403 13:02:47.195313 27218 net.cpp:91] Creating Layer prob
I0403 13:02:47.195330 27218 net.cpp:425] prob <- fc8_plantvillage_fc8_plantvillage_0_split_0
I0403 13:02:47.195353 27218 net.cpp:399] prob -> prob
I0403 13:02:47.195575 27218 net.cpp:141] Setting up prob
I0403 13:02:47.195601 27218 net.cpp:148] Top shape: 100 38 (3800)
I0403 13:02:47.195616 27218 net.cpp:156] Memory required for data: 831602000
I0403 13:02:47.195631 27218 layer_factory.hpp:77] Creating layer hdf5out
I0403 13:02:47.195652 27218 net.cpp:91] Creating Layer hdf5out
I0403 13:02:47.195667 27218 net.cpp:425] hdf5out <- prob
I0403 13:02:47.195684 27218 net.cpp:425] hdf5out <- label_data_1_split_0
I0403 13:02:47.200466 27218 net.cpp:141] Setting up hdf5out
…
