…
I0403 13:15:03.507756 27661 net.cpp:313] The NetState phase (1) differed from the phase (0) specified by a rule in layer data
I0403 13:15:03.508066 27661 net.cpp:49] Initializing net from parameters: 
state {
  phase: TEST
}
layer {
  name: "data"
  type: "Data"
  top: "data"
  top: "label"
  include {
    phase: TEST
  }
  transform_param {
    crop_size: 227
    mean_file: "/home/mohanty/data/final_dataset/lmdb/color-50-50/mean.binaryproto"
  }
  data_param {
    source: "/home/mohanty/data/final_dataset/lmdb/color-50-50/test_db"
    batch_size: 100
    backend: LMDB
  }
}
layer {
  name: "conv1"
  type: "Convolution"
  bottom: "data"
  top: "conv1"
  param {
    lr_mult: 1
    decay_mult: 1
  }
  param {
    lr_mult: 2
    decay_mult: 0
  }
  convolution_param {
    num_output: 96
    kernel_size: 11
    stride: 4
    weight_filler {
      type: "gaussian"
      std: 0.01
    }
    bias_filler {
      type: "constant"
      value: 0
    }
  }
}
layer {
  name: "relu1"
  type: "ReLU"
  bottom: "conv1"
  top: "conv1"
}
layer {
  name: "norm1"
  type: "LRN"
  bottom: "conv1"
  top: "norm1"
  lrn_param {
    local_size: 5
    alpha: 0.0001
    beta: 0.75
  }
}
layer {
  name: "pool1"
  type: "Pooling"
  bottom: "norm1"
  top: "pool1"
  pooling_param {
    pool: MAX
    kernel_size: 3
    stride: 2
  }
}
layer {
  name: "conv2"
  type: "Convolution"
  bottom: "pool1"
  top: "conv2"
  param {
    lr_mult: 1
    decay_mult: 1
  }
  param {
    lr_mult: 2
    decay_mult: 0
  }
  convolution_param {
    num_output: 256
    pad: 2
    kernel_size: 5
    group: 2
    weight_filler {
      type: "gaussian"
      std: 0.01
    }
    bias_filler {
      type: "constant"
      value: 0.1
    }
  }
}
layer {
  name: "relu2"
  type: "ReLU"
  bottom: "conv2"
  top: "conv2"
}
layer {
  name: "norm2"
  type: "LRN"
  bottom: "conv2"
  top: "norm2"
  lrn_param {
    local_size: 5
    alpha: 0.0001
    beta: 0.75
  }
}
layer {
  name: "pool2"
  type: "Pooling"
  bottom: "norm2"
  top: "pool2"
  pooling_param {
    pool: MAX
    kernel_size: 3
    stride: 2
  }
}
layer {
  name: "conv3"
  type: "Convolution"
  bottom: "pool2"
  top: "conv3"
  param {
    lr_mult: 1
    decay_mult: 1
  }
  param {
    lr_mult: 2
    decay_mult: 0
  }
  convolution_param {
    num_output: 384
    pad: 1
    kernel_size: 3
    weight_filler {
      type: "gaussian"
      std: 0.01
    }
    bias_filler {
      type: "constant"
      value: 0
    }
  }
}
layer {
  name: "relu3"
  type: "ReLU"
  bottom: "conv3"
  top: "conv3"
}
layer {
  name: "conv4"
  type: "Convolution"
  bottom: "conv3"
  top: "conv4"
  param {
    lr_mult: 1
    decay_mult: 1
  }
  param {
    lr_mult: 2
    decay_mult: 0
  }
  convolution_param {
    num_output: 384
    pad: 1
    kernel_size: 3
    group: 2
    weight_filler {
      type: "gaussian"
      std: 0.01
    }
    bias_filler {
      type: "constant"
      value: 0.1
    }
  }
}
layer {
  name: "relu4"
  type: "ReLU"
  bottom: "conv4"
  top: "conv4"
}
layer {
  name: "conv5"
  type: "Convolution"
  bottom: "conv4"
  top: "conv5"
  param {
    lr_mult: 1
    decay_mult: 1
  }
  param {
    lr_mult: 2
    decay_mult: 0
  }
  convolution_param {
    num_output: 256
    pad: 1
    kernel_size: 3
    group: 2
    weight_filler {
      type: "gaussian"
      std: 0.01
    }
    bias_filler {
      type: "constant"
      value: 0.1
    }
  }
}
layer {
  name: "relu5"
  type: "ReLU"
  bottom: "conv5"
  top: "conv5"
}
layer {
  name: "pool5"
  type: "Pooling"
  bottom: "conv5"
  top: "pool5"
  pooling_param {
    pool: MAX
    kernel_size: 3
    stride: 2
  }
}
layer {
  name: "fc6"
  type: "InnerProduct"
  bottom: "pool5"
  top: "fc6"
  param {
    lr_mult: 1
    decay_mult: 1
  }
  param {
    lr_mult: 2
    decay_mult: 0
  }
  inner_product_param {
    num_output: 4096
    weight_filler {
      type: "gaussian"
      std: 0.005
    }
    bias_filler {
      type: "constant"
      value: 0.1
    }
  }
}
layer {
  name: "relu6"
  type: "ReLU"
  bottom: "fc6"
  top: "fc6"
}
layer {
  name: "drop6"
  type: "Dropout"
  bottom: "fc6"
  top: "fc6"
  dropout_param {
    dropout_ratio: 0.5
  }
}
layer {
  name: "fc7"
  type: "InnerProduct"
  bottom: "fc6"
  top: "fc7"
  param {
    lr_mult: 1
    decay_mult: 1
  }
  param {
    lr_mult: 2
    decay_mult: 0
  }
  inner_product_param {
    num_output: 4096
    weight_filler {
      type: "gaussian"
      std: 0.005
    }
    bias_filler {
      type: "constant"
      value: 0.1
    }
  }
}
layer {
  name: "relu7"
  type: "ReLU"
  bottom: "fc7"
  top: "fc7"
}
layer {
  name: "drop7"
  type: "Dropout"
  bottom: "fc7"
  top: "fc7"
  dropout_param {
    dropout_ratio: 0.5
  }
}
layer {
  name: "fc8_plantvillage"
  type: "InnerProduct"
  bottom: "fc7"
  top: "fc8_plantvillage"
  param {
    lr_mult: 1
    decay_mult: 1
  }
  param {
    lr_mult: 2
    decay_mult: 0
  }
  inner_product_param {
    num_output: 38
    weight_filler {
      type: "gaussian"
      std: 0.01
    }
    bias_filler {
      type: "constant"
      value: 0
    }
  }
}
layer {
  name: "prob"
  type: "Softmax"
  bottom: "fc8_plantvillage"
  top: "prob"
  include {
    phase: TEST
  }
}
layer {
  name: "hdf5out"
  type: "HDF5Output"
  bottom: "prob"
  bottom: "label"
  include {
    phase: TEST
  }
  hdf5_output_param {
    file_name: "hdf5_dumps/iter_6456.h5"
  }
}
layer {
  name: "loss"
  type: "SoftmaxWithLoss"
  bottom: "fc8_plantvillage"
  bottom: "label"
  top: "loss"
}
layer {
  name: "accuracy"
  type: "Accuracy"
  bottom: "fc8_plantvillage"
  bottom: "label"
  top: "accuracy"
  include {
    phase: TEST
  }
}
I0403 13:15:03.508705 27661 layer_factory.hpp:77] Creating layer data
I0403 13:15:03.509371 27661 net.cpp:91] Creating Layer data
I0403 13:15:03.509407 27661 net.cpp:399] data -> data
I0403 13:15:03.509459 27661 net.cpp:399] data -> label
I0403 13:15:03.509498 27661 data_transformer.cpp:25] Loading mean file from: /home/mohanty/data/final_dataset/lmdb/color-50-50/mean.binaryproto
I0403 13:15:03.512444 27665 db_lmdb.cpp:38] Opened lmdb /home/mohanty/data/final_dataset/lmdb/color-50-50/test_db
I0403 13:15:03.523813 27661 data_layer.cpp:41] output data size: 100,3,227,227
I0403 13:15:03.645457 27661 net.cpp:141] Setting up data
I0403 13:15:03.645553 27661 net.cpp:148] Top shape: 100 3 227 227 (15458700)
I0403 13:15:03.645577 27661 net.cpp:148] Top shape: 100 (100)
I0403 13:15:03.645594 27661 net.cpp:156] Memory required for data: 61835200
I0403 13:15:03.645623 27661 layer_factory.hpp:77] Creating layer label_data_1_split
I0403 13:15:03.645650 27661 net.cpp:91] Creating Layer label_data_1_split
I0403 13:15:03.645669 27661 net.cpp:425] label_data_1_split <- label
I0403 13:15:03.645704 27661 net.cpp:399] label_data_1_split -> label_data_1_split_0
I0403 13:15:03.645732 27661 net.cpp:399] label_data_1_split -> label_data_1_split_1
I0403 13:15:03.645753 27661 net.cpp:399] label_data_1_split -> label_data_1_split_2
I0403 13:15:03.645818 27661 net.cpp:141] Setting up label_data_1_split
I0403 13:15:03.645843 27661 net.cpp:148] Top shape: 100 (100)
I0403 13:15:03.645862 27661 net.cpp:148] Top shape: 100 (100)
I0403 13:15:03.645879 27661 net.cpp:148] Top shape: 100 (100)
I0403 13:15:03.645895 27661 net.cpp:156] Memory required for data: 61836400
I0403 13:15:03.645910 27661 layer_factory.hpp:77] Creating layer conv1
I0403 13:15:03.645943 27661 net.cpp:91] Creating Layer conv1
I0403 13:15:03.645964 27661 net.cpp:425] conv1 <- data
I0403 13:15:03.645985 27661 net.cpp:399] conv1 -> conv1
I0403 13:15:03.790108 27661 net.cpp:141] Setting up conv1
I0403 13:15:03.790185 27661 net.cpp:148] Top shape: 100 96 55 55 (29040000)
I0403 13:15:03.790204 27661 net.cpp:156] Memory required for data: 177996400
I0403 13:15:03.790235 27661 layer_factory.hpp:77] Creating layer relu1
I0403 13:15:03.790264 27661 net.cpp:91] Creating Layer relu1
I0403 13:15:03.790284 27661 net.cpp:425] relu1 <- conv1
I0403 13:15:03.790318 27661 net.cpp:386] relu1 -> conv1 (in-place)
I0403 13:15:03.790597 27661 net.cpp:141] Setting up relu1
I0403 13:15:03.790626 27661 net.cpp:148] Top shape: 100 96 55 55 (29040000)
I0403 13:15:03.790642 27661 net.cpp:156] Memory required for data: 294156400
I0403 13:15:03.790690 27661 layer_factory.hpp:77] Creating layer norm1
I0403 13:15:03.790720 27661 net.cpp:91] Creating Layer norm1
I0403 13:15:03.790740 27661 net.cpp:425] norm1 <- conv1
I0403 13:15:03.790757 27661 net.cpp:399] norm1 -> norm1
I0403 13:15:03.791064 27661 net.cpp:141] Setting up norm1
I0403 13:15:03.791092 27661 net.cpp:148] Top shape: 100 96 55 55 (29040000)
I0403 13:15:03.791110 27661 net.cpp:156] Memory required for data: 410316400
I0403 13:15:03.791126 27661 layer_factory.hpp:77] Creating layer pool1
I0403 13:15:03.791151 27661 net.cpp:91] Creating Layer pool1
I0403 13:15:03.791168 27661 net.cpp:425] pool1 <- norm1
I0403 13:15:03.791188 27661 net.cpp:399] pool1 -> pool1
I0403 13:15:03.791255 27661 net.cpp:141] Setting up pool1
I0403 13:15:03.791280 27661 net.cpp:148] Top shape: 100 96 27 27 (6998400)
I0403 13:15:03.791296 27661 net.cpp:156] Memory required for data: 438310000
I0403 13:15:03.791311 27661 layer_factory.hpp:77] Creating layer conv2
I0403 13:15:03.791354 27661 net.cpp:91] Creating Layer conv2
I0403 13:15:03.791373 27661 net.cpp:425] conv2 <- pool1
I0403 13:15:03.791393 27661 net.cpp:399] conv2 -> conv2
I0403 13:15:03.806890 27661 net.cpp:141] Setting up conv2
I0403 13:15:03.806941 27661 net.cpp:148] Top shape: 100 256 27 27 (18662400)
I0403 13:15:03.806957 27661 net.cpp:156] Memory required for data: 512959600
I0403 13:15:03.806982 27661 layer_factory.hpp:77] Creating layer relu2
I0403 13:15:03.807004 27661 net.cpp:91] Creating Layer relu2
I0403 13:15:03.807021 27661 net.cpp:425] relu2 <- conv2
I0403 13:15:03.807039 27661 net.cpp:386] relu2 -> conv2 (in-place)
I0403 13:15:03.807307 27661 net.cpp:141] Setting up relu2
I0403 13:15:03.807334 27661 net.cpp:148] Top shape: 100 256 27 27 (18662400)
I0403 13:15:03.807358 27661 net.cpp:156] Memory required for data: 587609200
I0403 13:15:03.807374 27661 layer_factory.hpp:77] Creating layer norm2
I0403 13:15:03.807397 27661 net.cpp:91] Creating Layer norm2
I0403 13:15:03.807415 27661 net.cpp:425] norm2 <- conv2
I0403 13:15:03.807433 27661 net.cpp:399] norm2 -> norm2
I0403 13:15:03.807620 27661 net.cpp:141] Setting up norm2
I0403 13:15:03.807646 27661 net.cpp:148] Top shape: 100 256 27 27 (18662400)
I0403 13:15:03.807662 27661 net.cpp:156] Memory required for data: 662258800
I0403 13:15:03.807678 27661 layer_factory.hpp:77] Creating layer pool2
I0403 13:15:03.807698 27661 net.cpp:91] Creating Layer pool2
I0403 13:15:03.807713 27661 net.cpp:425] pool2 <- norm2
I0403 13:15:03.807731 27661 net.cpp:399] pool2 -> pool2
I0403 13:15:03.807782 27661 net.cpp:141] Setting up pool2
I0403 13:15:03.807807 27661 net.cpp:148] Top shape: 100 256 13 13 (4326400)
I0403 13:15:03.807822 27661 net.cpp:156] Memory required for data: 679564400
I0403 13:15:03.807839 27661 layer_factory.hpp:77] Creating layer conv3
I0403 13:15:03.807862 27661 net.cpp:91] Creating Layer conv3
I0403 13:15:03.807878 27661 net.cpp:425] conv3 <- pool2
I0403 13:15:03.807934 27661 net.cpp:399] conv3 -> conv3
I0403 13:15:03.850791 27661 net.cpp:141] Setting up conv3
I0403 13:15:03.850864 27661 net.cpp:148] Top shape: 100 384 13 13 (6489600)
I0403 13:15:03.850883 27661 net.cpp:156] Memory required for data: 705522800
I0403 13:15:03.850909 27661 layer_factory.hpp:77] Creating layer relu3
I0403 13:15:03.850936 27661 net.cpp:91] Creating Layer relu3
I0403 13:15:03.850956 27661 net.cpp:425] relu3 <- conv3
I0403 13:15:03.850976 27661 net.cpp:386] relu3 -> conv3 (in-place)
I0403 13:15:03.851259 27661 net.cpp:141] Setting up relu3
I0403 13:15:03.851287 27661 net.cpp:148] Top shape: 100 384 13 13 (6489600)
I0403 13:15:03.851303 27661 net.cpp:156] Memory required for data: 731481200
I0403 13:15:03.851320 27661 layer_factory.hpp:77] Creating layer conv4
I0403 13:15:03.851349 27661 net.cpp:91] Creating Layer conv4
I0403 13:15:03.851369 27661 net.cpp:425] conv4 <- conv3
I0403 13:15:03.851392 27661 net.cpp:399] conv4 -> conv4
I0403 13:15:03.881968 27661 net.cpp:141] Setting up conv4
I0403 13:15:03.882014 27661 net.cpp:148] Top shape: 100 384 13 13 (6489600)
I0403 13:15:03.882062 27661 net.cpp:156] Memory required for data: 757439600
I0403 13:15:03.882084 27661 layer_factory.hpp:77] Creating layer relu4
I0403 13:15:03.882107 27661 net.cpp:91] Creating Layer relu4
I0403 13:15:03.882123 27661 net.cpp:425] relu4 <- conv4
I0403 13:15:03.882145 27661 net.cpp:386] relu4 -> conv4 (in-place)
I0403 13:15:03.882470 27661 net.cpp:141] Setting up relu4
I0403 13:15:03.882498 27661 net.cpp:148] Top shape: 100 384 13 13 (6489600)
I0403 13:15:03.882514 27661 net.cpp:156] Memory required for data: 783398000
I0403 13:15:03.882530 27661 layer_factory.hpp:77] Creating layer conv5
I0403 13:15:03.882570 27661 net.cpp:91] Creating Layer conv5
I0403 13:15:03.882588 27661 net.cpp:425] conv5 <- conv4
I0403 13:15:03.882609 27661 net.cpp:399] conv5 -> conv5
I0403 13:15:03.903689 27661 net.cpp:141] Setting up conv5
I0403 13:15:03.903741 27661 net.cpp:148] Top shape: 100 256 13 13 (4326400)
I0403 13:15:03.903759 27661 net.cpp:156] Memory required for data: 800703600
I0403 13:15:03.903782 27661 layer_factory.hpp:77] Creating layer relu5
I0403 13:15:03.903806 27661 net.cpp:91] Creating Layer relu5
I0403 13:15:03.903825 27661 net.cpp:425] relu5 <- conv5
I0403 13:15:03.903844 27661 net.cpp:386] relu5 -> conv5 (in-place)
I0403 13:15:03.904124 27661 net.cpp:141] Setting up relu5
I0403 13:15:03.904151 27661 net.cpp:148] Top shape: 100 256 13 13 (4326400)
I0403 13:15:03.904168 27661 net.cpp:156] Memory required for data: 818009200
I0403 13:15:03.904186 27661 layer_factory.hpp:77] Creating layer pool5
I0403 13:15:03.904211 27661 net.cpp:91] Creating Layer pool5
I0403 13:15:03.904229 27661 net.cpp:425] pool5 <- conv5
I0403 13:15:03.904248 27661 net.cpp:399] pool5 -> pool5
I0403 13:15:03.904314 27661 net.cpp:141] Setting up pool5
I0403 13:15:03.904338 27661 net.cpp:148] Top shape: 100 256 6 6 (921600)
I0403 13:15:03.904359 27661 net.cpp:156] Memory required for data: 821695600
I0403 13:15:03.904376 27661 layer_factory.hpp:77] Creating layer fc6
I0403 13:15:03.904415 27661 net.cpp:91] Creating Layer fc6
I0403 13:15:03.904436 27661 net.cpp:425] fc6 <- pool5
I0403 13:15:03.904455 27661 net.cpp:399] fc6 -> fc6
I0403 13:15:05.493650 27661 net.cpp:141] Setting up fc6
I0403 13:15:05.493729 27661 net.cpp:148] Top shape: 100 4096 (409600)
I0403 13:15:05.493748 27661 net.cpp:156] Memory required for data: 823334000
I0403 13:15:05.493772 27661 layer_factory.hpp:77] Creating layer relu6
I0403 13:15:05.493793 27661 net.cpp:91] Creating Layer relu6
I0403 13:15:05.493809 27661 net.cpp:425] relu6 <- fc6
I0403 13:15:05.493832 27661 net.cpp:386] relu6 -> fc6 (in-place)
I0403 13:15:05.494050 27661 net.cpp:141] Setting up relu6
I0403 13:15:05.494076 27661 net.cpp:148] Top shape: 100 4096 (409600)
I0403 13:15:05.494091 27661 net.cpp:156] Memory required for data: 824972400
I0403 13:15:05.494107 27661 layer_factory.hpp:77] Creating layer drop6
I0403 13:15:05.494127 27661 net.cpp:91] Creating Layer drop6
I0403 13:15:05.494144 27661 net.cpp:425] drop6 <- fc6
I0403 13:15:05.494163 27661 net.cpp:386] drop6 -> fc6 (in-place)
I0403 13:15:05.494215 27661 net.cpp:141] Setting up drop6
I0403 13:15:05.494241 27661 net.cpp:148] Top shape: 100 4096 (409600)
I0403 13:15:05.494257 27661 net.cpp:156] Memory required for data: 826610800
I0403 13:15:05.494273 27661 layer_factory.hpp:77] Creating layer fc7
I0403 13:15:05.494293 27661 net.cpp:91] Creating Layer fc7
I0403 13:15:05.494308 27661 net.cpp:425] fc7 <- fc6
I0403 13:15:05.494334 27661 net.cpp:399] fc7 -> fc7
I0403 13:15:06.180059 27661 net.cpp:141] Setting up fc7
I0403 13:15:06.180120 27661 net.cpp:148] Top shape: 100 4096 (409600)
I0403 13:15:06.180137 27661 net.cpp:156] Memory required for data: 828249200
I0403 13:15:06.180160 27661 layer_factory.hpp:77] Creating layer relu7
I0403 13:15:06.180181 27661 net.cpp:91] Creating Layer relu7
I0403 13:15:06.180199 27661 net.cpp:425] relu7 <- fc7
I0403 13:15:06.180220 27661 net.cpp:386] relu7 -> fc7 (in-place)
I0403 13:15:06.180630 27661 net.cpp:141] Setting up relu7
I0403 13:15:06.180656 27661 net.cpp:148] Top shape: 100 4096 (409600)
I0403 13:15:06.180706 27661 net.cpp:156] Memory required for data: 829887600
I0403 13:15:06.180722 27661 layer_factory.hpp:77] Creating layer drop7
I0403 13:15:06.180742 27661 net.cpp:91] Creating Layer drop7
I0403 13:15:06.180757 27661 net.cpp:425] drop7 <- fc7
I0403 13:15:06.180774 27661 net.cpp:386] drop7 -> fc7 (in-place)
I0403 13:15:06.180820 27661 net.cpp:141] Setting up drop7
I0403 13:15:06.180843 27661 net.cpp:148] Top shape: 100 4096 (409600)
I0403 13:15:06.180857 27661 net.cpp:156] Memory required for data: 831526000
I0403 13:15:06.180873 27661 layer_factory.hpp:77] Creating layer fc8_plantvillage
I0403 13:15:06.180892 27661 net.cpp:91] Creating Layer fc8_plantvillage
I0403 13:15:06.180907 27661 net.cpp:425] fc8_plantvillage <- fc7
I0403 13:15:06.180927 27661 net.cpp:399] fc8_plantvillage -> fc8_plantvillage
I0403 13:15:06.187605 27661 net.cpp:141] Setting up fc8_plantvillage
I0403 13:15:06.187636 27661 net.cpp:148] Top shape: 100 38 (3800)
I0403 13:15:06.187652 27661 net.cpp:156] Memory required for data: 831541200
I0403 13:15:06.187670 27661 layer_factory.hpp:77] Creating layer fc8_plantvillage_fc8_plantvillage_0_split
I0403 13:15:06.187690 27661 net.cpp:91] Creating Layer fc8_plantvillage_fc8_plantvillage_0_split
I0403 13:15:06.187705 27661 net.cpp:425] fc8_plantvillage_fc8_plantvillage_0_split <- fc8_plantvillage
I0403 13:15:06.187722 27661 net.cpp:399] fc8_plantvillage_fc8_plantvillage_0_split -> fc8_plantvillage_fc8_plantvillage_0_split_0
I0403 13:15:06.187742 27661 net.cpp:399] fc8_plantvillage_fc8_plantvillage_0_split -> fc8_plantvillage_fc8_plantvillage_0_split_1
I0403 13:15:06.187762 27661 net.cpp:399] fc8_plantvillage_fc8_plantvillage_0_split -> fc8_plantvillage_fc8_plantvillage_0_split_2
I0403 13:15:06.187841 27661 net.cpp:141] Setting up fc8_plantvillage_fc8_plantvillage_0_split
I0403 13:15:06.187865 27661 net.cpp:148] Top shape: 100 38 (3800)
I0403 13:15:06.187881 27661 net.cpp:148] Top shape: 100 38 (3800)
I0403 13:15:06.187896 27661 net.cpp:148] Top shape: 100 38 (3800)
I0403 13:15:06.187909 27661 net.cpp:156] Memory required for data: 831586800
I0403 13:15:06.187924 27661 layer_factory.hpp:77] Creating layer prob
I0403 13:15:06.187942 27661 net.cpp:91] Creating Layer prob
I0403 13:15:06.187958 27661 net.cpp:425] prob <- fc8_plantvillage_fc8_plantvillage_0_split_0
I0403 13:15:06.187975 27661 net.cpp:399] prob -> prob
I0403 13:15:06.188194 27661 net.cpp:141] Setting up prob
I0403 13:15:06.188218 27661 net.cpp:148] Top shape: 100 38 (3800)
I0403 13:15:06.188233 27661 net.cpp:156] Memory required for data: 831602000
I0403 13:15:06.188261 27661 layer_factory.hpp:77] Creating layer hdf5out
I0403 13:15:06.188282 27661 net.cpp:91] Creating Layer hdf5out
I0403 13:15:06.188298 27661 net.cpp:425] hdf5out <- prob
I0403 13:15:06.188321 27661 net.cpp:425] hdf5out <- label_data_1_split_0
I0403 13:15:06.192339 27661 net.cpp:141] Setting up hdf5out
…
