…
I0403 13:21:39.750207 27835 net.cpp:313] The NetState phase (1) differed from the phase (0) specified by a rule in layer data
I0403 13:21:39.750524 27835 net.cpp:49] Initializing net from parameters: 
state {
  phase: TEST
}
layer {
  name: "data"
  type: "Data"
  top: "data"
  top: "label"
  include {
    phase: TEST
  }
  transform_param {
    crop_size: 227
    mean_file: "/home/mohanty/data/final_dataset/lmdb/color-50-50/mean.binaryproto"
  }
  data_param {
    source: "/home/mohanty/data/final_dataset/lmdb/color-50-50/test_db"
    batch_size: 100
    backend: LMDB
  }
}
layer {
  name: "conv1"
  type: "Convolution"
  bottom: "data"
  top: "conv1"
  param {
    lr_mult: 1
    decay_mult: 1
  }
  param {
    lr_mult: 2
    decay_mult: 0
  }
  convolution_param {
    num_output: 96
    kernel_size: 11
    stride: 4
    weight_filler {
      type: "gaussian"
      std: 0.01
    }
    bias_filler {
      type: "constant"
      value: 0
    }
  }
}
layer {
  name: "relu1"
  type: "ReLU"
  bottom: "conv1"
  top: "conv1"
}
layer {
  name: "norm1"
  type: "LRN"
  bottom: "conv1"
  top: "norm1"
  lrn_param {
    local_size: 5
    alpha: 0.0001
    beta: 0.75
  }
}
layer {
  name: "pool1"
  type: "Pooling"
  bottom: "norm1"
  top: "pool1"
  pooling_param {
    pool: MAX
    kernel_size: 3
    stride: 2
  }
}
layer {
  name: "conv2"
  type: "Convolution"
  bottom: "pool1"
  top: "conv2"
  param {
    lr_mult: 1
    decay_mult: 1
  }
  param {
    lr_mult: 2
    decay_mult: 0
  }
  convolution_param {
    num_output: 256
    pad: 2
    kernel_size: 5
    group: 2
    weight_filler {
      type: "gaussian"
      std: 0.01
    }
    bias_filler {
      type: "constant"
      value: 0.1
    }
  }
}
layer {
  name: "relu2"
  type: "ReLU"
  bottom: "conv2"
  top: "conv2"
}
layer {
  name: "norm2"
  type: "LRN"
  bottom: "conv2"
  top: "norm2"
  lrn_param {
    local_size: 5
    alpha: 0.0001
    beta: 0.75
  }
}
layer {
  name: "pool2"
  type: "Pooling"
  bottom: "norm2"
  top: "pool2"
  pooling_param {
    pool: MAX
    kernel_size: 3
    stride: 2
  }
}
layer {
  name: "conv3"
  type: "Convolution"
  bottom: "pool2"
  top: "conv3"
  param {
    lr_mult: 1
    decay_mult: 1
  }
  param {
    lr_mult: 2
    decay_mult: 0
  }
  convolution_param {
    num_output: 384
    pad: 1
    kernel_size: 3
    weight_filler {
      type: "gaussian"
      std: 0.01
    }
    bias_filler {
      type: "constant"
      value: 0
    }
  }
}
layer {
  name: "relu3"
  type: "ReLU"
  bottom: "conv3"
  top: "conv3"
}
layer {
  name: "conv4"
  type: "Convolution"
  bottom: "conv3"
  top: "conv4"
  param {
    lr_mult: 1
    decay_mult: 1
  }
  param {
    lr_mult: 2
    decay_mult: 0
  }
  convolution_param {
    num_output: 384
    pad: 1
    kernel_size: 3
    group: 2
    weight_filler {
      type: "gaussian"
      std: 0.01
    }
    bias_filler {
      type: "constant"
      value: 0.1
    }
  }
}
layer {
  name: "relu4"
  type: "ReLU"
  bottom: "conv4"
  top: "conv4"
}
layer {
  name: "conv5"
  type: "Convolution"
  bottom: "conv4"
  top: "conv5"
  param {
    lr_mult: 1
    decay_mult: 1
  }
  param {
    lr_mult: 2
    decay_mult: 0
  }
  convolution_param {
    num_output: 256
    pad: 1
    kernel_size: 3
    group: 2
    weight_filler {
      type: "gaussian"
      std: 0.01
    }
    bias_filler {
      type: "constant"
      value: 0.1
    }
  }
}
layer {
  name: "relu5"
  type: "ReLU"
  bottom: "conv5"
  top: "conv5"
}
layer {
  name: "pool5"
  type: "Pooling"
  bottom: "conv5"
  top: "pool5"
  pooling_param {
    pool: MAX
    kernel_size: 3
    stride: 2
  }
}
layer {
  name: "fc6"
  type: "InnerProduct"
  bottom: "pool5"
  top: "fc6"
  param {
    lr_mult: 1
    decay_mult: 1
  }
  param {
    lr_mult: 2
    decay_mult: 0
  }
  inner_product_param {
    num_output: 4096
    weight_filler {
      type: "gaussian"
      std: 0.005
    }
    bias_filler {
      type: "constant"
      value: 0.1
    }
  }
}
layer {
  name: "relu6"
  type: "ReLU"
  bottom: "fc6"
  top: "fc6"
}
layer {
  name: "drop6"
  type: "Dropout"
  bottom: "fc6"
  top: "fc6"
  dropout_param {
    dropout_ratio: 0.5
  }
}
layer {
  name: "fc7"
  type: "InnerProduct"
  bottom: "fc6"
  top: "fc7"
  param {
    lr_mult: 1
    decay_mult: 1
  }
  param {
    lr_mult: 2
    decay_mult: 0
  }
  inner_product_param {
    num_output: 4096
    weight_filler {
      type: "gaussian"
      std: 0.005
    }
    bias_filler {
      type: "constant"
      value: 0.1
    }
  }
}
layer {
  name: "relu7"
  type: "ReLU"
  bottom: "fc7"
  top: "fc7"
}
layer {
  name: "drop7"
  type: "Dropout"
  bottom: "fc7"
  top: "fc7"
  dropout_param {
    dropout_ratio: 0.5
  }
}
layer {
  name: "fc8_plantvillage"
  type: "InnerProduct"
  bottom: "fc7"
  top: "fc8_plantvillage"
  param {
    lr_mult: 1
    decay_mult: 1
  }
  param {
    lr_mult: 2
    decay_mult: 0
  }
  inner_product_param {
    num_output: 38
    weight_filler {
      type: "gaussian"
      std: 0.01
    }
    bias_filler {
      type: "constant"
      value: 0
    }
  }
}
layer {
  name: "prob"
  type: "Softmax"
  bottom: "fc8_plantvillage"
  top: "prob"
  include {
    phase: TEST
  }
}
layer {
  name: "hdf5out"
  type: "HDF5Output"
  bottom: "prob"
  bottom: "label"
  include {
    phase: TEST
  }
  hdf5_output_param {
    file_name: "hdf5_dumps/iter_8075.h5"
  }
}
layer {
  name: "loss"
  type: "SoftmaxWithLoss"
  bottom: "fc8_plantvillage"
  bottom: "label"
  top: "loss"
}
layer {
  name: "accuracy"
  type: "Accuracy"
  bottom: "fc8_plantvillage"
  bottom: "label"
  top: "accuracy"
  include {
    phase: TEST
  }
}
I0403 13:21:39.751075 27835 layer_factory.hpp:77] Creating layer data
I0403 13:21:39.751740 27835 net.cpp:91] Creating Layer data
I0403 13:21:39.751775 27835 net.cpp:399] data -> data
I0403 13:21:39.751828 27835 net.cpp:399] data -> label
I0403 13:21:39.751868 27835 data_transformer.cpp:25] Loading mean file from: /home/mohanty/data/final_dataset/lmdb/color-50-50/mean.binaryproto
I0403 13:21:39.754189 27838 db_lmdb.cpp:38] Opened lmdb /home/mohanty/data/final_dataset/lmdb/color-50-50/test_db
I0403 13:21:39.766481 27835 data_layer.cpp:41] output data size: 100,3,227,227
I0403 13:21:39.889585 27835 net.cpp:141] Setting up data
I0403 13:21:39.889674 27835 net.cpp:148] Top shape: 100 3 227 227 (15458700)
I0403 13:21:39.889696 27835 net.cpp:148] Top shape: 100 (100)
I0403 13:21:39.889714 27835 net.cpp:156] Memory required for data: 61835200
I0403 13:21:39.889742 27835 layer_factory.hpp:77] Creating layer label_data_1_split
I0403 13:21:39.889770 27835 net.cpp:91] Creating Layer label_data_1_split
I0403 13:21:39.889789 27835 net.cpp:425] label_data_1_split <- label
I0403 13:21:39.889821 27835 net.cpp:399] label_data_1_split -> label_data_1_split_0
I0403 13:21:39.889849 27835 net.cpp:399] label_data_1_split -> label_data_1_split_1
I0403 13:21:39.889870 27835 net.cpp:399] label_data_1_split -> label_data_1_split_2
I0403 13:21:39.889935 27835 net.cpp:141] Setting up label_data_1_split
I0403 13:21:39.889960 27835 net.cpp:148] Top shape: 100 (100)
I0403 13:21:39.889976 27835 net.cpp:148] Top shape: 100 (100)
I0403 13:21:39.889993 27835 net.cpp:148] Top shape: 100 (100)
I0403 13:21:39.890007 27835 net.cpp:156] Memory required for data: 61836400
I0403 13:21:39.890024 27835 layer_factory.hpp:77] Creating layer conv1
I0403 13:21:39.890056 27835 net.cpp:91] Creating Layer conv1
I0403 13:21:39.890074 27835 net.cpp:425] conv1 <- data
I0403 13:21:39.890094 27835 net.cpp:399] conv1 -> conv1
I0403 13:21:40.031405 27835 net.cpp:141] Setting up conv1
I0403 13:21:40.031483 27835 net.cpp:148] Top shape: 100 96 55 55 (29040000)
I0403 13:21:40.031502 27835 net.cpp:156] Memory required for data: 177996400
I0403 13:21:40.031533 27835 layer_factory.hpp:77] Creating layer relu1
I0403 13:21:40.031563 27835 net.cpp:91] Creating Layer relu1
I0403 13:21:40.031581 27835 net.cpp:425] relu1 <- conv1
I0403 13:21:40.031601 27835 net.cpp:386] relu1 -> conv1 (in-place)
I0403 13:21:40.031860 27835 net.cpp:141] Setting up relu1
I0403 13:21:40.031888 27835 net.cpp:148] Top shape: 100 96 55 55 (29040000)
I0403 13:21:40.031904 27835 net.cpp:156] Memory required for data: 294156400
I0403 13:21:40.031952 27835 layer_factory.hpp:77] Creating layer norm1
I0403 13:21:40.031982 27835 net.cpp:91] Creating Layer norm1
I0403 13:21:40.032001 27835 net.cpp:425] norm1 <- conv1
I0403 13:21:40.032021 27835 net.cpp:399] norm1 -> norm1
I0403 13:21:40.032325 27835 net.cpp:141] Setting up norm1
I0403 13:21:40.032357 27835 net.cpp:148] Top shape: 100 96 55 55 (29040000)
I0403 13:21:40.032377 27835 net.cpp:156] Memory required for data: 410316400
I0403 13:21:40.032392 27835 layer_factory.hpp:77] Creating layer pool1
I0403 13:21:40.032416 27835 net.cpp:91] Creating Layer pool1
I0403 13:21:40.032435 27835 net.cpp:425] pool1 <- norm1
I0403 13:21:40.032454 27835 net.cpp:399] pool1 -> pool1
I0403 13:21:40.032522 27835 net.cpp:141] Setting up pool1
I0403 13:21:40.032549 27835 net.cpp:148] Top shape: 100 96 27 27 (6998400)
I0403 13:21:40.032565 27835 net.cpp:156] Memory required for data: 438310000
I0403 13:21:40.032580 27835 layer_factory.hpp:77] Creating layer conv2
I0403 13:21:40.032606 27835 net.cpp:91] Creating Layer conv2
I0403 13:21:40.032624 27835 net.cpp:425] conv2 <- pool1
I0403 13:21:40.032644 27835 net.cpp:399] conv2 -> conv2
I0403 13:21:40.048085 27835 net.cpp:141] Setting up conv2
I0403 13:21:40.048123 27835 net.cpp:148] Top shape: 100 256 27 27 (18662400)
I0403 13:21:40.048141 27835 net.cpp:156] Memory required for data: 512959600
I0403 13:21:40.048166 27835 layer_factory.hpp:77] Creating layer relu2
I0403 13:21:40.048187 27835 net.cpp:91] Creating Layer relu2
I0403 13:21:40.048205 27835 net.cpp:425] relu2 <- conv2
I0403 13:21:40.048228 27835 net.cpp:386] relu2 -> conv2 (in-place)
I0403 13:21:40.048532 27835 net.cpp:141] Setting up relu2
I0403 13:21:40.048560 27835 net.cpp:148] Top shape: 100 256 27 27 (18662400)
I0403 13:21:40.048576 27835 net.cpp:156] Memory required for data: 587609200
I0403 13:21:40.048593 27835 layer_factory.hpp:77] Creating layer norm2
I0403 13:21:40.048617 27835 net.cpp:91] Creating Layer norm2
I0403 13:21:40.048635 27835 net.cpp:425] norm2 <- conv2
I0403 13:21:40.048655 27835 net.cpp:399] norm2 -> norm2
I0403 13:21:40.048861 27835 net.cpp:141] Setting up norm2
I0403 13:21:40.048887 27835 net.cpp:148] Top shape: 100 256 27 27 (18662400)
I0403 13:21:40.048902 27835 net.cpp:156] Memory required for data: 662258800
I0403 13:21:40.048919 27835 layer_factory.hpp:77] Creating layer pool2
I0403 13:21:40.048938 27835 net.cpp:91] Creating Layer pool2
I0403 13:21:40.048954 27835 net.cpp:425] pool2 <- norm2
I0403 13:21:40.048974 27835 net.cpp:399] pool2 -> pool2
I0403 13:21:40.049031 27835 net.cpp:141] Setting up pool2
I0403 13:21:40.049057 27835 net.cpp:148] Top shape: 100 256 13 13 (4326400)
I0403 13:21:40.049072 27835 net.cpp:156] Memory required for data: 679564400
I0403 13:21:40.049088 27835 layer_factory.hpp:77] Creating layer conv3
I0403 13:21:40.049113 27835 net.cpp:91] Creating Layer conv3
I0403 13:21:40.049134 27835 net.cpp:425] conv3 <- pool2
I0403 13:21:40.049152 27835 net.cpp:399] conv3 -> conv3
I0403 13:21:40.087399 27835 net.cpp:141] Setting up conv3
I0403 13:21:40.087471 27835 net.cpp:148] Top shape: 100 384 13 13 (6489600)
I0403 13:21:40.087487 27835 net.cpp:156] Memory required for data: 705522800
I0403 13:21:40.087513 27835 layer_factory.hpp:77] Creating layer relu3
I0403 13:21:40.087537 27835 net.cpp:91] Creating Layer relu3
I0403 13:21:40.087553 27835 net.cpp:425] relu3 <- conv3
I0403 13:21:40.087573 27835 net.cpp:386] relu3 -> conv3 (in-place)
I0403 13:21:40.087841 27835 net.cpp:141] Setting up relu3
I0403 13:21:40.087867 27835 net.cpp:148] Top shape: 100 384 13 13 (6489600)
I0403 13:21:40.087883 27835 net.cpp:156] Memory required for data: 731481200
I0403 13:21:40.087899 27835 layer_factory.hpp:77] Creating layer conv4
I0403 13:21:40.087926 27835 net.cpp:91] Creating Layer conv4
I0403 13:21:40.087944 27835 net.cpp:425] conv4 <- conv3
I0403 13:21:40.087965 27835 net.cpp:399] conv4 -> conv4
I0403 13:21:40.117403 27835 net.cpp:141] Setting up conv4
I0403 13:21:40.117463 27835 net.cpp:148] Top shape: 100 384 13 13 (6489600)
I0403 13:21:40.117513 27835 net.cpp:156] Memory required for data: 757439600
I0403 13:21:40.117537 27835 layer_factory.hpp:77] Creating layer relu4
I0403 13:21:40.117558 27835 net.cpp:91] Creating Layer relu4
I0403 13:21:40.117574 27835 net.cpp:425] relu4 <- conv4
I0403 13:21:40.117594 27835 net.cpp:386] relu4 -> conv4 (in-place)
I0403 13:21:40.117866 27835 net.cpp:141] Setting up relu4
I0403 13:21:40.117895 27835 net.cpp:148] Top shape: 100 384 13 13 (6489600)
I0403 13:21:40.117913 27835 net.cpp:156] Memory required for data: 783398000
I0403 13:21:40.117928 27835 layer_factory.hpp:77] Creating layer conv5
I0403 13:21:40.117954 27835 net.cpp:91] Creating Layer conv5
I0403 13:21:40.117972 27835 net.cpp:425] conv5 <- conv4
I0403 13:21:40.117991 27835 net.cpp:399] conv5 -> conv5
I0403 13:21:40.138327 27835 net.cpp:141] Setting up conv5
I0403 13:21:40.138383 27835 net.cpp:148] Top shape: 100 256 13 13 (4326400)
I0403 13:21:40.138401 27835 net.cpp:156] Memory required for data: 800703600
I0403 13:21:40.138427 27835 layer_factory.hpp:77] Creating layer relu5
I0403 13:21:40.138448 27835 net.cpp:91] Creating Layer relu5
I0403 13:21:40.138464 27835 net.cpp:425] relu5 <- conv5
I0403 13:21:40.138487 27835 net.cpp:386] relu5 -> conv5 (in-place)
I0403 13:21:40.138783 27835 net.cpp:141] Setting up relu5
I0403 13:21:40.138813 27835 net.cpp:148] Top shape: 100 256 13 13 (4326400)
I0403 13:21:40.138828 27835 net.cpp:156] Memory required for data: 818009200
I0403 13:21:40.138844 27835 layer_factory.hpp:77] Creating layer pool5
I0403 13:21:40.138870 27835 net.cpp:91] Creating Layer pool5
I0403 13:21:40.138887 27835 net.cpp:425] pool5 <- conv5
I0403 13:21:40.138906 27835 net.cpp:399] pool5 -> pool5
I0403 13:21:40.138969 27835 net.cpp:141] Setting up pool5
I0403 13:21:40.138993 27835 net.cpp:148] Top shape: 100 256 6 6 (921600)
I0403 13:21:40.139009 27835 net.cpp:156] Memory required for data: 821695600
I0403 13:21:40.139024 27835 layer_factory.hpp:77] Creating layer fc6
I0403 13:21:40.139052 27835 net.cpp:91] Creating Layer fc6
I0403 13:21:40.139070 27835 net.cpp:425] fc6 <- pool5
I0403 13:21:40.139092 27835 net.cpp:399] fc6 -> fc6
I0403 13:21:41.727599 27835 net.cpp:141] Setting up fc6
I0403 13:21:41.727676 27835 net.cpp:148] Top shape: 100 4096 (409600)
I0403 13:21:41.727694 27835 net.cpp:156] Memory required for data: 823334000
I0403 13:21:41.727716 27835 layer_factory.hpp:77] Creating layer relu6
I0403 13:21:41.727741 27835 net.cpp:91] Creating Layer relu6
I0403 13:21:41.727761 27835 net.cpp:425] relu6 <- fc6
I0403 13:21:41.727782 27835 net.cpp:386] relu6 -> fc6 (in-place)
I0403 13:21:41.728008 27835 net.cpp:141] Setting up relu6
I0403 13:21:41.728034 27835 net.cpp:148] Top shape: 100 4096 (409600)
I0403 13:21:41.728049 27835 net.cpp:156] Memory required for data: 824972400
I0403 13:21:41.728065 27835 layer_factory.hpp:77] Creating layer drop6
I0403 13:21:41.728085 27835 net.cpp:91] Creating Layer drop6
I0403 13:21:41.728099 27835 net.cpp:425] drop6 <- fc6
I0403 13:21:41.728118 27835 net.cpp:386] drop6 -> fc6 (in-place)
I0403 13:21:41.728171 27835 net.cpp:141] Setting up drop6
I0403 13:21:41.728199 27835 net.cpp:148] Top shape: 100 4096 (409600)
I0403 13:21:41.728215 27835 net.cpp:156] Memory required for data: 826610800
I0403 13:21:41.728231 27835 layer_factory.hpp:77] Creating layer fc7
I0403 13:21:41.728250 27835 net.cpp:91] Creating Layer fc7
I0403 13:21:41.728266 27835 net.cpp:425] fc7 <- fc6
I0403 13:21:41.728286 27835 net.cpp:399] fc7 -> fc7
I0403 13:21:42.426414 27835 net.cpp:141] Setting up fc7
I0403 13:21:42.426491 27835 net.cpp:148] Top shape: 100 4096 (409600)
I0403 13:21:42.426509 27835 net.cpp:156] Memory required for data: 828249200
I0403 13:21:42.426532 27835 layer_factory.hpp:77] Creating layer relu7
I0403 13:21:42.426554 27835 net.cpp:91] Creating Layer relu7
I0403 13:21:42.426573 27835 net.cpp:425] relu7 <- fc7
I0403 13:21:42.426595 27835 net.cpp:386] relu7 -> fc7 (in-place)
I0403 13:21:42.427003 27835 net.cpp:141] Setting up relu7
I0403 13:21:42.427034 27835 net.cpp:148] Top shape: 100 4096 (409600)
I0403 13:21:42.427081 27835 net.cpp:156] Memory required for data: 829887600
I0403 13:21:42.427098 27835 layer_factory.hpp:77] Creating layer drop7
I0403 13:21:42.427117 27835 net.cpp:91] Creating Layer drop7
I0403 13:21:42.427134 27835 net.cpp:425] drop7 <- fc7
I0403 13:21:42.427153 27835 net.cpp:386] drop7 -> fc7 (in-place)
I0403 13:21:42.427198 27835 net.cpp:141] Setting up drop7
I0403 13:21:42.427222 27835 net.cpp:148] Top shape: 100 4096 (409600)
I0403 13:21:42.427238 27835 net.cpp:156] Memory required for data: 831526000
I0403 13:21:42.427253 27835 layer_factory.hpp:77] Creating layer fc8_plantvillage
I0403 13:21:42.427276 27835 net.cpp:91] Creating Layer fc8_plantvillage
I0403 13:21:42.427292 27835 net.cpp:425] fc8_plantvillage <- fc7
I0403 13:21:42.427314 27835 net.cpp:399] fc8_plantvillage -> fc8_plantvillage
I0403 13:21:42.434245 27835 net.cpp:141] Setting up fc8_plantvillage
I0403 13:21:42.434278 27835 net.cpp:148] Top shape: 100 38 (3800)
I0403 13:21:42.434295 27835 net.cpp:156] Memory required for data: 831541200
I0403 13:21:42.434315 27835 layer_factory.hpp:77] Creating layer fc8_plantvillage_fc8_plantvillage_0_split
I0403 13:21:42.434335 27835 net.cpp:91] Creating Layer fc8_plantvillage_fc8_plantvillage_0_split
I0403 13:21:42.434360 27835 net.cpp:425] fc8_plantvillage_fc8_plantvillage_0_split <- fc8_plantvillage
I0403 13:21:42.434383 27835 net.cpp:399] fc8_plantvillage_fc8_plantvillage_0_split -> fc8_plantvillage_fc8_plantvillage_0_split_0
I0403 13:21:42.434407 27835 net.cpp:399] fc8_plantvillage_fc8_plantvillage_0_split -> fc8_plantvillage_fc8_plantvillage_0_split_1
I0403 13:21:42.434429 27835 net.cpp:399] fc8_plantvillage_fc8_plantvillage_0_split -> fc8_plantvillage_fc8_plantvillage_0_split_2
I0403 13:21:42.434510 27835 net.cpp:141] Setting up fc8_plantvillage_fc8_plantvillage_0_split
I0403 13:21:42.434535 27835 net.cpp:148] Top shape: 100 38 (3800)
I0403 13:21:42.434553 27835 net.cpp:148] Top shape: 100 38 (3800)
I0403 13:21:42.434569 27835 net.cpp:148] Top shape: 100 38 (3800)
I0403 13:21:42.434584 27835 net.cpp:156] Memory required for data: 831586800
I0403 13:21:42.434599 27835 layer_factory.hpp:77] Creating layer prob
I0403 13:21:42.434618 27835 net.cpp:91] Creating Layer prob
I0403 13:21:42.434634 27835 net.cpp:425] prob <- fc8_plantvillage_fc8_plantvillage_0_split_0
I0403 13:21:42.434655 27835 net.cpp:399] prob -> prob
I0403 13:21:42.434888 27835 net.cpp:141] Setting up prob
I0403 13:21:42.434918 27835 net.cpp:148] Top shape: 100 38 (3800)
I0403 13:21:42.434936 27835 net.cpp:156] Memory required for data: 831602000
I0403 13:21:42.434952 27835 layer_factory.hpp:77] Creating layer hdf5out
I0403 13:21:42.434970 27835 net.cpp:91] Creating Layer hdf5out
I0403 13:21:42.434988 27835 net.cpp:425] hdf5out <- prob
I0403 13:21:42.435006 27835 net.cpp:425] hdf5out <- label_data_1_split_0
I0403 13:21:42.459007 27835 net.cpp:141] Setting up hdf5out
…
