…
I0403 13:06:31.675190 27410 net.cpp:313] The NetState phase (1) differed from the phase (0) specified by a rule in layer data
I0403 13:06:31.675514 27410 net.cpp:49] Initializing net from parameters: 
state {
  phase: TEST
}
layer {
  name: "data"
  type: "Data"
  top: "data"
  top: "label"
  include {
    phase: TEST
  }
  transform_param {
    crop_size: 227
    mean_file: "/home/mohanty/data/final_dataset/lmdb/color-50-50/mean.binaryproto"
  }
  data_param {
    source: "/home/mohanty/data/final_dataset/lmdb/color-50-50/test_db"
    batch_size: 100
    backend: LMDB
  }
}
layer {
  name: "conv1"
  type: "Convolution"
  bottom: "data"
  top: "conv1"
  param {
    lr_mult: 1
    decay_mult: 1
  }
  param {
    lr_mult: 2
    decay_mult: 0
  }
  convolution_param {
    num_output: 96
    kernel_size: 11
    stride: 4
    weight_filler {
      type: "gaussian"
      std: 0.01
    }
    bias_filler {
      type: "constant"
      value: 0
    }
  }
}
layer {
  name: "relu1"
  type: "ReLU"
  bottom: "conv1"
  top: "conv1"
}
layer {
  name: "norm1"
  type: "LRN"
  bottom: "conv1"
  top: "norm1"
  lrn_param {
    local_size: 5
    alpha: 0.0001
    beta: 0.75
  }
}
layer {
  name: "pool1"
  type: "Pooling"
  bottom: "norm1"
  top: "pool1"
  pooling_param {
    pool: MAX
    kernel_size: 3
    stride: 2
  }
}
layer {
  name: "conv2"
  type: "Convolution"
  bottom: "pool1"
  top: "conv2"
  param {
    lr_mult: 1
    decay_mult: 1
  }
  param {
    lr_mult: 2
    decay_mult: 0
  }
  convolution_param {
    num_output: 256
    pad: 2
    kernel_size: 5
    group: 2
    weight_filler {
      type: "gaussian"
      std: 0.01
    }
    bias_filler {
      type: "constant"
      value: 0.1
    }
  }
}
layer {
  name: "relu2"
  type: "ReLU"
  bottom: "conv2"
  top: "conv2"
}
layer {
  name: "norm2"
  type: "LRN"
  bottom: "conv2"
  top: "norm2"
  lrn_param {
    local_size: 5
    alpha: 0.0001
    beta: 0.75
  }
}
layer {
  name: "pool2"
  type: "Pooling"
  bottom: "norm2"
  top: "pool2"
  pooling_param {
    pool: MAX
    kernel_size: 3
    stride: 2
  }
}
layer {
  name: "conv3"
  type: "Convolution"
  bottom: "pool2"
  top: "conv3"
  param {
    lr_mult: 1
    decay_mult: 1
  }
  param {
    lr_mult: 2
    decay_mult: 0
  }
  convolution_param {
    num_output: 384
    pad: 1
    kernel_size: 3
    weight_filler {
      type: "gaussian"
      std: 0.01
    }
    bias_filler {
      type: "constant"
      value: 0
    }
  }
}
layer {
  name: "relu3"
  type: "ReLU"
  bottom: "conv3"
  top: "conv3"
}
layer {
  name: "conv4"
  type: "Convolution"
  bottom: "conv3"
  top: "conv4"
  param {
    lr_mult: 1
    decay_mult: 1
  }
  param {
    lr_mult: 2
    decay_mult: 0
  }
  convolution_param {
    num_output: 384
    pad: 1
    kernel_size: 3
    group: 2
    weight_filler {
      type: "gaussian"
      std: 0.01
    }
    bias_filler {
      type: "constant"
      value: 0.1
    }
  }
}
layer {
  name: "relu4"
  type: "ReLU"
  bottom: "conv4"
  top: "conv4"
}
layer {
  name: "conv5"
  type: "Convolution"
  bottom: "conv4"
  top: "conv5"
  param {
    lr_mult: 1
    decay_mult: 1
  }
  param {
    lr_mult: 2
    decay_mult: 0
  }
  convolution_param {
    num_output: 256
    pad: 1
    kernel_size: 3
    group: 2
    weight_filler {
      type: "gaussian"
      std: 0.01
    }
    bias_filler {
      type: "constant"
      value: 0.1
    }
  }
}
layer {
  name: "relu5"
  type: "ReLU"
  bottom: "conv5"
  top: "conv5"
}
layer {
  name: "pool5"
  type: "Pooling"
  bottom: "conv5"
  top: "pool5"
  pooling_param {
    pool: MAX
    kernel_size: 3
    stride: 2
  }
}
layer {
  name: "fc6"
  type: "InnerProduct"
  bottom: "pool5"
  top: "fc6"
  param {
    lr_mult: 1
    decay_mult: 1
  }
  param {
    lr_mult: 2
    decay_mult: 0
  }
  inner_product_param {
    num_output: 4096
    weight_filler {
      type: "gaussian"
      std: 0.005
    }
    bias_filler {
      type: "constant"
      value: 0.1
    }
  }
}
layer {
  name: "relu6"
  type: "ReLU"
  bottom: "fc6"
  top: "fc6"
}
layer {
  name: "drop6"
  type: "Dropout"
  bottom: "fc6"
  top: "fc6"
  dropout_param {
    dropout_ratio: 0.5
  }
}
layer {
  name: "fc7"
  type: "InnerProduct"
  bottom: "fc6"
  top: "fc7"
  param {
    lr_mult: 1
    decay_mult: 1
  }
  param {
    lr_mult: 2
    decay_mult: 0
  }
  inner_product_param {
    num_output: 4096
    weight_filler {
      type: "gaussian"
      std: 0.005
    }
    bias_filler {
      type: "constant"
      value: 0.1
    }
  }
}
layer {
  name: "relu7"
  type: "ReLU"
  bottom: "fc7"
  top: "fc7"
}
layer {
  name: "drop7"
  type: "Dropout"
  bottom: "fc7"
  top: "fc7"
  dropout_param {
    dropout_ratio: 0.5
  }
}
layer {
  name: "fc8_plantvillage"
  type: "InnerProduct"
  bottom: "fc7"
  top: "fc8_plantvillage"
  param {
    lr_mult: 1
    decay_mult: 1
  }
  param {
    lr_mult: 2
    decay_mult: 0
  }
  inner_product_param {
    num_output: 38
    weight_filler {
      type: "gaussian"
      std: 0.01
    }
    bias_filler {
      type: "constant"
      value: 0
    }
  }
}
layer {
  name: "prob"
  type: "Softmax"
  bottom: "fc8_plantvillage"
  top: "prob"
  include {
    phase: TEST
  }
}
layer {
  name: "hdf5out"
  type: "HDF5Output"
  bottom: "prob"
  bottom: "label"
  include {
    phase: TEST
  }
  hdf5_output_param {
    file_name: "hdf5_dumps/iter_4035.h5"
  }
}
layer {
  name: "loss"
  type: "SoftmaxWithLoss"
  bottom: "fc8_plantvillage"
  bottom: "label"
  top: "loss"
}
layer {
  name: "accuracy"
  type: "Accuracy"
  bottom: "fc8_plantvillage"
  bottom: "label"
  top: "accuracy"
  include {
    phase: TEST
  }
}
I0403 13:06:31.676057 27410 layer_factory.hpp:77] Creating layer data
I0403 13:06:31.676712 27410 net.cpp:91] Creating Layer data
I0403 13:06:31.676745 27410 net.cpp:399] data -> data
I0403 13:06:31.676795 27410 net.cpp:399] data -> label
I0403 13:06:31.676831 27410 data_transformer.cpp:25] Loading mean file from: /home/mohanty/data/final_dataset/lmdb/color-50-50/mean.binaryproto
I0403 13:06:31.679718 27413 db_lmdb.cpp:38] Opened lmdb /home/mohanty/data/final_dataset/lmdb/color-50-50/test_db
I0403 13:06:31.691395 27410 data_layer.cpp:41] output data size: 100,3,227,227
I0403 13:06:31.810132 27410 net.cpp:141] Setting up data
I0403 13:06:31.810204 27410 net.cpp:148] Top shape: 100 3 227 227 (15458700)
I0403 13:06:31.810226 27410 net.cpp:148] Top shape: 100 (100)
I0403 13:06:31.810242 27410 net.cpp:156] Memory required for data: 61835200
I0403 13:06:31.810272 27410 layer_factory.hpp:77] Creating layer label_data_1_split
I0403 13:06:31.810298 27410 net.cpp:91] Creating Layer label_data_1_split
I0403 13:06:31.810319 27410 net.cpp:425] label_data_1_split <- label
I0403 13:06:31.810351 27410 net.cpp:399] label_data_1_split -> label_data_1_split_0
I0403 13:06:31.810379 27410 net.cpp:399] label_data_1_split -> label_data_1_split_1
I0403 13:06:31.810400 27410 net.cpp:399] label_data_1_split -> label_data_1_split_2
I0403 13:06:31.810461 27410 net.cpp:141] Setting up label_data_1_split
I0403 13:06:31.810484 27410 net.cpp:148] Top shape: 100 (100)
I0403 13:06:31.810500 27410 net.cpp:148] Top shape: 100 (100)
I0403 13:06:31.810515 27410 net.cpp:148] Top shape: 100 (100)
I0403 13:06:31.810528 27410 net.cpp:156] Memory required for data: 61836400
I0403 13:06:31.810544 27410 layer_factory.hpp:77] Creating layer conv1
I0403 13:06:31.810575 27410 net.cpp:91] Creating Layer conv1
I0403 13:06:31.810593 27410 net.cpp:425] conv1 <- data
I0403 13:06:31.810613 27410 net.cpp:399] conv1 -> conv1
I0403 13:06:31.953925 27410 net.cpp:141] Setting up conv1
I0403 13:06:31.954006 27410 net.cpp:148] Top shape: 100 96 55 55 (29040000)
I0403 13:06:31.954023 27410 net.cpp:156] Memory required for data: 177996400
I0403 13:06:31.954056 27410 layer_factory.hpp:77] Creating layer relu1
I0403 13:06:31.954087 27410 net.cpp:91] Creating Layer relu1
I0403 13:06:31.954107 27410 net.cpp:425] relu1 <- conv1
I0403 13:06:31.954126 27410 net.cpp:386] relu1 -> conv1 (in-place)
I0403 13:06:31.954442 27410 net.cpp:141] Setting up relu1
I0403 13:06:31.954471 27410 net.cpp:148] Top shape: 100 96 55 55 (29040000)
I0403 13:06:31.954488 27410 net.cpp:156] Memory required for data: 294156400
I0403 13:06:31.954540 27410 layer_factory.hpp:77] Creating layer norm1
I0403 13:06:31.954571 27410 net.cpp:91] Creating Layer norm1
I0403 13:06:31.954588 27410 net.cpp:425] norm1 <- conv1
I0403 13:06:31.954608 27410 net.cpp:399] norm1 -> norm1
I0403 13:06:31.954926 27410 net.cpp:141] Setting up norm1
I0403 13:06:31.954955 27410 net.cpp:148] Top shape: 100 96 55 55 (29040000)
I0403 13:06:31.954972 27410 net.cpp:156] Memory required for data: 410316400
I0403 13:06:31.954988 27410 layer_factory.hpp:77] Creating layer pool1
I0403 13:06:31.955013 27410 net.cpp:91] Creating Layer pool1
I0403 13:06:31.955029 27410 net.cpp:425] pool1 <- norm1
I0403 13:06:31.955049 27410 net.cpp:399] pool1 -> pool1
I0403 13:06:31.955114 27410 net.cpp:141] Setting up pool1
I0403 13:06:31.955140 27410 net.cpp:148] Top shape: 100 96 27 27 (6998400)
I0403 13:06:31.955157 27410 net.cpp:156] Memory required for data: 438310000
I0403 13:06:31.955171 27410 layer_factory.hpp:77] Creating layer conv2
I0403 13:06:31.955196 27410 net.cpp:91] Creating Layer conv2
I0403 13:06:31.955214 27410 net.cpp:425] conv2 <- pool1
I0403 13:06:31.955231 27410 net.cpp:399] conv2 -> conv2
I0403 13:06:31.970605 27410 net.cpp:141] Setting up conv2
I0403 13:06:31.970657 27410 net.cpp:148] Top shape: 100 256 27 27 (18662400)
I0403 13:06:31.970676 27410 net.cpp:156] Memory required for data: 512959600
I0403 13:06:31.970700 27410 layer_factory.hpp:77] Creating layer relu2
I0403 13:06:31.970721 27410 net.cpp:91] Creating Layer relu2
I0403 13:06:31.970737 27410 net.cpp:425] relu2 <- conv2
I0403 13:06:31.970754 27410 net.cpp:386] relu2 -> conv2 (in-place)
I0403 13:06:31.971045 27410 net.cpp:141] Setting up relu2
I0403 13:06:31.971072 27410 net.cpp:148] Top shape: 100 256 27 27 (18662400)
I0403 13:06:31.971088 27410 net.cpp:156] Memory required for data: 587609200
I0403 13:06:31.971104 27410 layer_factory.hpp:77] Creating layer norm2
I0403 13:06:31.971129 27410 net.cpp:91] Creating Layer norm2
I0403 13:06:31.971148 27410 net.cpp:425] norm2 <- conv2
I0403 13:06:31.971168 27410 net.cpp:399] norm2 -> norm2
I0403 13:06:31.971388 27410 net.cpp:141] Setting up norm2
I0403 13:06:31.971423 27410 net.cpp:148] Top shape: 100 256 27 27 (18662400)
I0403 13:06:31.971442 27410 net.cpp:156] Memory required for data: 662258800
I0403 13:06:31.971458 27410 layer_factory.hpp:77] Creating layer pool2
I0403 13:06:31.971478 27410 net.cpp:91] Creating Layer pool2
I0403 13:06:31.971493 27410 net.cpp:425] pool2 <- norm2
I0403 13:06:31.971511 27410 net.cpp:399] pool2 -> pool2
I0403 13:06:31.971571 27410 net.cpp:141] Setting up pool2
I0403 13:06:31.971608 27410 net.cpp:148] Top shape: 100 256 13 13 (4326400)
I0403 13:06:31.971624 27410 net.cpp:156] Memory required for data: 679564400
I0403 13:06:31.971639 27410 layer_factory.hpp:77] Creating layer conv3
I0403 13:06:31.971663 27410 net.cpp:91] Creating Layer conv3
I0403 13:06:31.971683 27410 net.cpp:425] conv3 <- pool2
I0403 13:06:31.971704 27410 net.cpp:399] conv3 -> conv3
I0403 13:06:32.012186 27410 net.cpp:141] Setting up conv3
I0403 13:06:32.012246 27410 net.cpp:148] Top shape: 100 384 13 13 (6489600)
I0403 13:06:32.012264 27410 net.cpp:156] Memory required for data: 705522800
I0403 13:06:32.012292 27410 layer_factory.hpp:77] Creating layer relu3
I0403 13:06:32.012317 27410 net.cpp:91] Creating Layer relu3
I0403 13:06:32.012336 27410 net.cpp:425] relu3 <- conv3
I0403 13:06:32.012367 27410 net.cpp:386] relu3 -> conv3 (in-place)
I0403 13:06:32.012646 27410 net.cpp:141] Setting up relu3
I0403 13:06:32.012676 27410 net.cpp:148] Top shape: 100 384 13 13 (6489600)
I0403 13:06:32.012706 27410 net.cpp:156] Memory required for data: 731481200
I0403 13:06:32.012722 27410 layer_factory.hpp:77] Creating layer conv4
I0403 13:06:32.012748 27410 net.cpp:91] Creating Layer conv4
I0403 13:06:32.012765 27410 net.cpp:425] conv4 <- conv3
I0403 13:06:32.012784 27410 net.cpp:399] conv4 -> conv4
I0403 13:06:32.043211 27410 net.cpp:141] Setting up conv4
I0403 13:06:32.043277 27410 net.cpp:148] Top shape: 100 384 13 13 (6489600)
I0403 13:06:32.043325 27410 net.cpp:156] Memory required for data: 757439600
I0403 13:06:32.043352 27410 layer_factory.hpp:77] Creating layer relu4
I0403 13:06:32.043380 27410 net.cpp:91] Creating Layer relu4
I0403 13:06:32.043400 27410 net.cpp:425] relu4 <- conv4
I0403 13:06:32.043419 27410 net.cpp:386] relu4 -> conv4 (in-place)
I0403 13:06:32.043704 27410 net.cpp:141] Setting up relu4
I0403 13:06:32.043731 27410 net.cpp:148] Top shape: 100 384 13 13 (6489600)
I0403 13:06:32.043748 27410 net.cpp:156] Memory required for data: 783398000
I0403 13:06:32.043766 27410 layer_factory.hpp:77] Creating layer conv5
I0403 13:06:32.043792 27410 net.cpp:91] Creating Layer conv5
I0403 13:06:32.043810 27410 net.cpp:425] conv5 <- conv4
I0403 13:06:32.043830 27410 net.cpp:399] conv5 -> conv5
I0403 13:06:32.064302 27410 net.cpp:141] Setting up conv5
I0403 13:06:32.064352 27410 net.cpp:148] Top shape: 100 256 13 13 (4326400)
I0403 13:06:32.064373 27410 net.cpp:156] Memory required for data: 800703600
I0403 13:06:32.064399 27410 layer_factory.hpp:77] Creating layer relu5
I0403 13:06:32.064419 27410 net.cpp:91] Creating Layer relu5
I0403 13:06:32.064437 27410 net.cpp:425] relu5 <- conv5
I0403 13:06:32.064455 27410 net.cpp:386] relu5 -> conv5 (in-place)
I0403 13:06:32.064741 27410 net.cpp:141] Setting up relu5
I0403 13:06:32.064772 27410 net.cpp:148] Top shape: 100 256 13 13 (4326400)
I0403 13:06:32.064790 27410 net.cpp:156] Memory required for data: 818009200
I0403 13:06:32.064806 27410 layer_factory.hpp:77] Creating layer pool5
I0403 13:06:32.064829 27410 net.cpp:91] Creating Layer pool5
I0403 13:06:32.064846 27410 net.cpp:425] pool5 <- conv5
I0403 13:06:32.064867 27410 net.cpp:399] pool5 -> pool5
I0403 13:06:32.064929 27410 net.cpp:141] Setting up pool5
I0403 13:06:32.064954 27410 net.cpp:148] Top shape: 100 256 6 6 (921600)
I0403 13:06:32.064968 27410 net.cpp:156] Memory required for data: 821695600
I0403 13:06:32.064985 27410 layer_factory.hpp:77] Creating layer fc6
I0403 13:06:32.065013 27410 net.cpp:91] Creating Layer fc6
I0403 13:06:32.065032 27410 net.cpp:425] fc6 <- pool5
I0403 13:06:32.065054 27410 net.cpp:399] fc6 -> fc6
I0403 13:06:33.677429 27410 net.cpp:141] Setting up fc6
I0403 13:06:33.677471 27410 net.cpp:148] Top shape: 100 4096 (409600)
I0403 13:06:33.677489 27410 net.cpp:156] Memory required for data: 823334000
I0403 13:06:33.677510 27410 layer_factory.hpp:77] Creating layer relu6
I0403 13:06:33.677534 27410 net.cpp:91] Creating Layer relu6
I0403 13:06:33.677553 27410 net.cpp:425] relu6 <- fc6
I0403 13:06:33.677574 27410 net.cpp:386] relu6 -> fc6 (in-place)
I0403 13:06:33.677793 27410 net.cpp:141] Setting up relu6
I0403 13:06:33.677821 27410 net.cpp:148] Top shape: 100 4096 (409600)
I0403 13:06:33.677837 27410 net.cpp:156] Memory required for data: 824972400
I0403 13:06:33.677853 27410 layer_factory.hpp:77] Creating layer drop6
I0403 13:06:33.677872 27410 net.cpp:91] Creating Layer drop6
I0403 13:06:33.677888 27410 net.cpp:425] drop6 <- fc6
I0403 13:06:33.677906 27410 net.cpp:386] drop6 -> fc6 (in-place)
I0403 13:06:33.677959 27410 net.cpp:141] Setting up drop6
I0403 13:06:33.677984 27410 net.cpp:148] Top shape: 100 4096 (409600)
I0403 13:06:33.677999 27410 net.cpp:156] Memory required for data: 826610800
I0403 13:06:33.678014 27410 layer_factory.hpp:77] Creating layer fc7
I0403 13:06:33.678035 27410 net.cpp:91] Creating Layer fc7
I0403 13:06:33.678052 27410 net.cpp:425] fc7 <- fc6
I0403 13:06:33.678071 27410 net.cpp:399] fc7 -> fc7
I0403 13:06:34.384541 27410 net.cpp:141] Setting up fc7
I0403 13:06:34.384616 27410 net.cpp:148] Top shape: 100 4096 (409600)
I0403 13:06:34.384634 27410 net.cpp:156] Memory required for data: 828249200
I0403 13:06:34.384655 27410 layer_factory.hpp:77] Creating layer relu7
I0403 13:06:34.384680 27410 net.cpp:91] Creating Layer relu7
I0403 13:06:34.384701 27410 net.cpp:425] relu7 <- fc7
I0403 13:06:34.384721 27410 net.cpp:386] relu7 -> fc7 (in-place)
I0403 13:06:34.385119 27410 net.cpp:141] Setting up relu7
I0403 13:06:34.385149 27410 net.cpp:148] Top shape: 100 4096 (409600)
I0403 13:06:34.385196 27410 net.cpp:156] Memory required for data: 829887600
I0403 13:06:34.385213 27410 layer_factory.hpp:77] Creating layer drop7
I0403 13:06:34.385232 27410 net.cpp:91] Creating Layer drop7
I0403 13:06:34.385248 27410 net.cpp:425] drop7 <- fc7
I0403 13:06:34.385267 27410 net.cpp:386] drop7 -> fc7 (in-place)
I0403 13:06:34.385310 27410 net.cpp:141] Setting up drop7
I0403 13:06:34.385334 27410 net.cpp:148] Top shape: 100 4096 (409600)
I0403 13:06:34.385354 27410 net.cpp:156] Memory required for data: 831526000
I0403 13:06:34.385370 27410 layer_factory.hpp:77] Creating layer fc8_plantvillage
I0403 13:06:34.385396 27410 net.cpp:91] Creating Layer fc8_plantvillage
I0403 13:06:34.385411 27410 net.cpp:425] fc8_plantvillage <- fc7
I0403 13:06:34.385431 27410 net.cpp:399] fc8_plantvillage -> fc8_plantvillage
I0403 13:06:34.392324 27410 net.cpp:141] Setting up fc8_plantvillage
I0403 13:06:34.392369 27410 net.cpp:148] Top shape: 100 38 (3800)
I0403 13:06:34.392386 27410 net.cpp:156] Memory required for data: 831541200
I0403 13:06:34.392407 27410 layer_factory.hpp:77] Creating layer fc8_plantvillage_fc8_plantvillage_0_split
I0403 13:06:34.392427 27410 net.cpp:91] Creating Layer fc8_plantvillage_fc8_plantvillage_0_split
I0403 13:06:34.392443 27410 net.cpp:425] fc8_plantvillage_fc8_plantvillage_0_split <- fc8_plantvillage
I0403 13:06:34.392462 27410 net.cpp:399] fc8_plantvillage_fc8_plantvillage_0_split -> fc8_plantvillage_fc8_plantvillage_0_split_0
I0403 13:06:34.392484 27410 net.cpp:399] fc8_plantvillage_fc8_plantvillage_0_split -> fc8_plantvillage_fc8_plantvillage_0_split_1
I0403 13:06:34.392505 27410 net.cpp:399] fc8_plantvillage_fc8_plantvillage_0_split -> fc8_plantvillage_fc8_plantvillage_0_split_2
I0403 13:06:34.392581 27410 net.cpp:141] Setting up fc8_plantvillage_fc8_plantvillage_0_split
I0403 13:06:34.392606 27410 net.cpp:148] Top shape: 100 38 (3800)
I0403 13:06:34.392622 27410 net.cpp:148] Top shape: 100 38 (3800)
I0403 13:06:34.392638 27410 net.cpp:148] Top shape: 100 38 (3800)
I0403 13:06:34.392652 27410 net.cpp:156] Memory required for data: 831586800
I0403 13:06:34.392668 27410 layer_factory.hpp:77] Creating layer prob
I0403 13:06:34.392699 27410 net.cpp:91] Creating Layer prob
I0403 13:06:34.392714 27410 net.cpp:425] prob <- fc8_plantvillage_fc8_plantvillage_0_split_0
I0403 13:06:34.392731 27410 net.cpp:399] prob -> prob
I0403 13:06:34.392949 27410 net.cpp:141] Setting up prob
I0403 13:06:34.392976 27410 net.cpp:148] Top shape: 100 38 (3800)
I0403 13:06:34.392990 27410 net.cpp:156] Memory required for data: 831602000
I0403 13:06:34.393005 27410 layer_factory.hpp:77] Creating layer hdf5out
I0403 13:06:34.393028 27410 net.cpp:91] Creating Layer hdf5out
I0403 13:06:34.393043 27410 net.cpp:425] hdf5out <- prob
I0403 13:06:34.393059 27410 net.cpp:425] hdf5out <- label_data_1_split_0
I0403 13:06:34.397222 27410 net.cpp:141] Setting up hdf5out
…
