…
I0403 13:05:35.364866 27389 net.cpp:313] The NetState phase (1) differed from the phase (0) specified by a rule in layer data
I0403 13:05:35.365162 27389 net.cpp:49] Initializing net from parameters: 
state {
  phase: TEST
}
layer {
  name: "data"
  type: "Data"
  top: "data"
  top: "label"
  include {
    phase: TEST
  }
  transform_param {
    crop_size: 227
    mean_file: "/home/mohanty/data/final_dataset/lmdb/color-50-50/mean.binaryproto"
  }
  data_param {
    source: "/home/mohanty/data/final_dataset/lmdb/color-50-50/test_db"
    batch_size: 100
    backend: LMDB
  }
}
layer {
  name: "conv1"
  type: "Convolution"
  bottom: "data"
  top: "conv1"
  param {
    lr_mult: 1
    decay_mult: 1
  }
  param {
    lr_mult: 2
    decay_mult: 0
  }
  convolution_param {
    num_output: 96
    kernel_size: 11
    stride: 4
    weight_filler {
      type: "gaussian"
      std: 0.01
    }
    bias_filler {
      type: "constant"
      value: 0
    }
  }
}
layer {
  name: "relu1"
  type: "ReLU"
  bottom: "conv1"
  top: "conv1"
}
layer {
  name: "norm1"
  type: "LRN"
  bottom: "conv1"
  top: "norm1"
  lrn_param {
    local_size: 5
    alpha: 0.0001
    beta: 0.75
  }
}
layer {
  name: "pool1"
  type: "Pooling"
  bottom: "norm1"
  top: "pool1"
  pooling_param {
    pool: MAX
    kernel_size: 3
    stride: 2
  }
}
layer {
  name: "conv2"
  type: "Convolution"
  bottom: "pool1"
  top: "conv2"
  param {
    lr_mult: 1
    decay_mult: 1
  }
  param {
    lr_mult: 2
    decay_mult: 0
  }
  convolution_param {
    num_output: 256
    pad: 2
    kernel_size: 5
    group: 2
    weight_filler {
      type: "gaussian"
      std: 0.01
    }
    bias_filler {
      type: "constant"
      value: 0.1
    }
  }
}
layer {
  name: "relu2"
  type: "ReLU"
  bottom: "conv2"
  top: "conv2"
}
layer {
  name: "norm2"
  type: "LRN"
  bottom: "conv2"
  top: "norm2"
  lrn_param {
    local_size: 5
    alpha: 0.0001
    beta: 0.75
  }
}
layer {
  name: "pool2"
  type: "Pooling"
  bottom: "norm2"
  top: "pool2"
  pooling_param {
    pool: MAX
    kernel_size: 3
    stride: 2
  }
}
layer {
  name: "conv3"
  type: "Convolution"
  bottom: "pool2"
  top: "conv3"
  param {
    lr_mult: 1
    decay_mult: 1
  }
  param {
    lr_mult: 2
    decay_mult: 0
  }
  convolution_param {
    num_output: 384
    pad: 1
    kernel_size: 3
    weight_filler {
      type: "gaussian"
      std: 0.01
    }
    bias_filler {
      type: "constant"
      value: 0
    }
  }
}
layer {
  name: "relu3"
  type: "ReLU"
  bottom: "conv3"
  top: "conv3"
}
layer {
  name: "conv4"
  type: "Convolution"
  bottom: "conv3"
  top: "conv4"
  param {
    lr_mult: 1
    decay_mult: 1
  }
  param {
    lr_mult: 2
    decay_mult: 0
  }
  convolution_param {
    num_output: 384
    pad: 1
    kernel_size: 3
    group: 2
    weight_filler {
      type: "gaussian"
      std: 0.01
    }
    bias_filler {
      type: "constant"
      value: 0.1
    }
  }
}
layer {
  name: "relu4"
  type: "ReLU"
  bottom: "conv4"
  top: "conv4"
}
layer {
  name: "conv5"
  type: "Convolution"
  bottom: "conv4"
  top: "conv5"
  param {
    lr_mult: 1
    decay_mult: 1
  }
  param {
    lr_mult: 2
    decay_mult: 0
  }
  convolution_param {
    num_output: 256
    pad: 1
    kernel_size: 3
    group: 2
    weight_filler {
      type: "gaussian"
      std: 0.01
    }
    bias_filler {
      type: "constant"
      value: 0.1
    }
  }
}
layer {
  name: "relu5"
  type: "ReLU"
  bottom: "conv5"
  top: "conv5"
}
layer {
  name: "pool5"
  type: "Pooling"
  bottom: "conv5"
  top: "pool5"
  pooling_param {
    pool: MAX
    kernel_size: 3
    stride: 2
  }
}
layer {
  name: "fc6"
  type: "InnerProduct"
  bottom: "pool5"
  top: "fc6"
  param {
    lr_mult: 1
    decay_mult: 1
  }
  param {
    lr_mult: 2
    decay_mult: 0
  }
  inner_product_param {
    num_output: 4096
    weight_filler {
      type: "gaussian"
      std: 0.005
    }
    bias_filler {
      type: "constant"
      value: 0.1
    }
  }
}
layer {
  name: "relu6"
  type: "ReLU"
  bottom: "fc6"
  top: "fc6"
}
layer {
  name: "drop6"
  type: "Dropout"
  bottom: "fc6"
  top: "fc6"
  dropout_param {
    dropout_ratio: 0.5
  }
}
layer {
  name: "fc7"
  type: "InnerProduct"
  bottom: "fc6"
  top: "fc7"
  param {
    lr_mult: 1
    decay_mult: 1
  }
  param {
    lr_mult: 2
    decay_mult: 0
  }
  inner_product_param {
    num_output: 4096
    weight_filler {
      type: "gaussian"
      std: 0.005
    }
    bias_filler {
      type: "constant"
      value: 0.1
    }
  }
}
layer {
  name: "relu7"
  type: "ReLU"
  bottom: "fc7"
  top: "fc7"
}
layer {
  name: "drop7"
  type: "Dropout"
  bottom: "fc7"
  top: "fc7"
  dropout_param {
    dropout_ratio: 0.5
  }
}
layer {
  name: "fc8_plantvillage"
  type: "InnerProduct"
  bottom: "fc7"
  top: "fc8_plantvillage"
  param {
    lr_mult: 1
    decay_mult: 1
  }
  param {
    lr_mult: 2
    decay_mult: 0
  }
  inner_product_param {
    num_output: 38
    weight_filler {
      type: "gaussian"
      std: 0.01
    }
    bias_filler {
      type: "constant"
      value: 0
    }
  }
}
layer {
  name: "prob"
  type: "Softmax"
  bottom: "fc8_plantvillage"
  top: "prob"
  include {
    phase: TEST
  }
}
layer {
  name: "hdf5out"
  type: "HDF5Output"
  bottom: "prob"
  bottom: "label"
  include {
    phase: TEST
  }
  hdf5_output_param {
    file_name: "hdf5_dumps/iter_3766.h5"
  }
}
layer {
  name: "loss"
  type: "SoftmaxWithLoss"
  bottom: "fc8_plantvillage"
  bottom: "label"
  top: "loss"
}
layer {
  name: "accuracy"
  type: "Accuracy"
  bottom: "fc8_plantvillage"
  bottom: "label"
  top: "accuracy"
  include {
    phase: TEST
  }
}
I0403 13:05:35.365770 27389 layer_factory.hpp:77] Creating layer data
I0403 13:05:35.366472 27389 net.cpp:91] Creating Layer data
I0403 13:05:35.366506 27389 net.cpp:399] data -> data
I0403 13:05:35.366559 27389 net.cpp:399] data -> label
I0403 13:05:35.366596 27389 data_transformer.cpp:25] Loading mean file from: /home/mohanty/data/final_dataset/lmdb/color-50-50/mean.binaryproto
I0403 13:05:35.369431 27394 db_lmdb.cpp:38] Opened lmdb /home/mohanty/data/final_dataset/lmdb/color-50-50/test_db
I0403 13:05:35.381327 27389 data_layer.cpp:41] output data size: 100,3,227,227
I0403 13:05:35.502799 27389 net.cpp:141] Setting up data
I0403 13:05:35.502892 27389 net.cpp:148] Top shape: 100 3 227 227 (15458700)
I0403 13:05:35.502917 27389 net.cpp:148] Top shape: 100 (100)
I0403 13:05:35.502933 27389 net.cpp:156] Memory required for data: 61835200
I0403 13:05:35.502960 27389 layer_factory.hpp:77] Creating layer label_data_1_split
I0403 13:05:35.502987 27389 net.cpp:91] Creating Layer label_data_1_split
I0403 13:05:35.503008 27389 net.cpp:425] label_data_1_split <- label
I0403 13:05:35.503041 27389 net.cpp:399] label_data_1_split -> label_data_1_split_0
I0403 13:05:35.503070 27389 net.cpp:399] label_data_1_split -> label_data_1_split_1
I0403 13:05:35.503092 27389 net.cpp:399] label_data_1_split -> label_data_1_split_2
I0403 13:05:35.503157 27389 net.cpp:141] Setting up label_data_1_split
I0403 13:05:35.503182 27389 net.cpp:148] Top shape: 100 (100)
I0403 13:05:35.503199 27389 net.cpp:148] Top shape: 100 (100)
I0403 13:05:35.503216 27389 net.cpp:148] Top shape: 100 (100)
I0403 13:05:35.503231 27389 net.cpp:156] Memory required for data: 61836400
I0403 13:05:35.503247 27389 layer_factory.hpp:77] Creating layer conv1
I0403 13:05:35.503281 27389 net.cpp:91] Creating Layer conv1
I0403 13:05:35.503301 27389 net.cpp:425] conv1 <- data
I0403 13:05:35.503332 27389 net.cpp:399] conv1 -> conv1
I0403 13:05:35.647213 27389 net.cpp:141] Setting up conv1
I0403 13:05:35.647284 27389 net.cpp:148] Top shape: 100 96 55 55 (29040000)
I0403 13:05:35.647302 27389 net.cpp:156] Memory required for data: 177996400
I0403 13:05:35.647341 27389 layer_factory.hpp:77] Creating layer relu1
I0403 13:05:35.647372 27389 net.cpp:91] Creating Layer relu1
I0403 13:05:35.647392 27389 net.cpp:425] relu1 <- conv1
I0403 13:05:35.647413 27389 net.cpp:386] relu1 -> conv1 (in-place)
I0403 13:05:35.647681 27389 net.cpp:141] Setting up relu1
I0403 13:05:35.647709 27389 net.cpp:148] Top shape: 100 96 55 55 (29040000)
I0403 13:05:35.647727 27389 net.cpp:156] Memory required for data: 294156400
I0403 13:05:35.647776 27389 layer_factory.hpp:77] Creating layer norm1
I0403 13:05:35.647806 27389 net.cpp:91] Creating Layer norm1
I0403 13:05:35.647827 27389 net.cpp:425] norm1 <- conv1
I0403 13:05:35.647846 27389 net.cpp:399] norm1 -> norm1
I0403 13:05:35.648257 27389 net.cpp:141] Setting up norm1
I0403 13:05:35.648286 27389 net.cpp:148] Top shape: 100 96 55 55 (29040000)
I0403 13:05:35.648303 27389 net.cpp:156] Memory required for data: 410316400
I0403 13:05:35.648324 27389 layer_factory.hpp:77] Creating layer pool1
I0403 13:05:35.648350 27389 net.cpp:91] Creating Layer pool1
I0403 13:05:35.648370 27389 net.cpp:425] pool1 <- norm1
I0403 13:05:35.648392 27389 net.cpp:399] pool1 -> pool1
I0403 13:05:35.648466 27389 net.cpp:141] Setting up pool1
I0403 13:05:35.648495 27389 net.cpp:148] Top shape: 100 96 27 27 (6998400)
I0403 13:05:35.648512 27389 net.cpp:156] Memory required for data: 438310000
I0403 13:05:35.648529 27389 layer_factory.hpp:77] Creating layer conv2
I0403 13:05:35.648560 27389 net.cpp:91] Creating Layer conv2
I0403 13:05:35.648577 27389 net.cpp:425] conv2 <- pool1
I0403 13:05:35.648598 27389 net.cpp:399] conv2 -> conv2
I0403 13:05:35.664237 27389 net.cpp:141] Setting up conv2
I0403 13:05:35.664289 27389 net.cpp:148] Top shape: 100 256 27 27 (18662400)
I0403 13:05:35.664311 27389 net.cpp:156] Memory required for data: 512959600
I0403 13:05:35.664345 27389 layer_factory.hpp:77] Creating layer relu2
I0403 13:05:35.664371 27389 net.cpp:91] Creating Layer relu2
I0403 13:05:35.664389 27389 net.cpp:425] relu2 <- conv2
I0403 13:05:35.664412 27389 net.cpp:386] relu2 -> conv2 (in-place)
I0403 13:05:35.664705 27389 net.cpp:141] Setting up relu2
I0403 13:05:35.664733 27389 net.cpp:148] Top shape: 100 256 27 27 (18662400)
I0403 13:05:35.664749 27389 net.cpp:156] Memory required for data: 587609200
I0403 13:05:35.664767 27389 layer_factory.hpp:77] Creating layer norm2
I0403 13:05:35.664793 27389 net.cpp:91] Creating Layer norm2
I0403 13:05:35.664811 27389 net.cpp:425] norm2 <- conv2
I0403 13:05:35.664831 27389 net.cpp:399] norm2 -> norm2
I0403 13:05:35.665038 27389 net.cpp:141] Setting up norm2
I0403 13:05:35.665066 27389 net.cpp:148] Top shape: 100 256 27 27 (18662400)
I0403 13:05:35.665082 27389 net.cpp:156] Memory required for data: 662258800
I0403 13:05:35.665098 27389 layer_factory.hpp:77] Creating layer pool2
I0403 13:05:35.665117 27389 net.cpp:91] Creating Layer pool2
I0403 13:05:35.665133 27389 net.cpp:425] pool2 <- norm2
I0403 13:05:35.665155 27389 net.cpp:399] pool2 -> pool2
I0403 13:05:35.665210 27389 net.cpp:141] Setting up pool2
I0403 13:05:35.665235 27389 net.cpp:148] Top shape: 100 256 13 13 (4326400)
I0403 13:05:35.665251 27389 net.cpp:156] Memory required for data: 679564400
I0403 13:05:35.665266 27389 layer_factory.hpp:77] Creating layer conv3
I0403 13:05:35.665293 27389 net.cpp:91] Creating Layer conv3
I0403 13:05:35.665312 27389 net.cpp:425] conv3 <- pool2
I0403 13:05:35.665335 27389 net.cpp:399] conv3 -> conv3
I0403 13:05:35.708886 27389 net.cpp:141] Setting up conv3
I0403 13:05:35.708963 27389 net.cpp:148] Top shape: 100 384 13 13 (6489600)
I0403 13:05:35.708982 27389 net.cpp:156] Memory required for data: 705522800
I0403 13:05:35.709010 27389 layer_factory.hpp:77] Creating layer relu3
I0403 13:05:35.709033 27389 net.cpp:91] Creating Layer relu3
I0403 13:05:35.709053 27389 net.cpp:425] relu3 <- conv3
I0403 13:05:35.709077 27389 net.cpp:386] relu3 -> conv3 (in-place)
I0403 13:05:35.709379 27389 net.cpp:141] Setting up relu3
I0403 13:05:35.709408 27389 net.cpp:148] Top shape: 100 384 13 13 (6489600)
I0403 13:05:35.709424 27389 net.cpp:156] Memory required for data: 731481200
I0403 13:05:35.709441 27389 layer_factory.hpp:77] Creating layer conv4
I0403 13:05:35.709473 27389 net.cpp:91] Creating Layer conv4
I0403 13:05:35.709491 27389 net.cpp:425] conv4 <- conv3
I0403 13:05:35.709514 27389 net.cpp:399] conv4 -> conv4
I0403 13:05:35.740476 27389 net.cpp:141] Setting up conv4
I0403 13:05:35.740551 27389 net.cpp:148] Top shape: 100 384 13 13 (6489600)
I0403 13:05:35.740602 27389 net.cpp:156] Memory required for data: 757439600
I0403 13:05:35.740625 27389 layer_factory.hpp:77] Creating layer relu4
I0403 13:05:35.740648 27389 net.cpp:91] Creating Layer relu4
I0403 13:05:35.740666 27389 net.cpp:425] relu4 <- conv4
I0403 13:05:35.740691 27389 net.cpp:386] relu4 -> conv4 (in-place)
I0403 13:05:35.740990 27389 net.cpp:141] Setting up relu4
I0403 13:05:35.741021 27389 net.cpp:148] Top shape: 100 384 13 13 (6489600)
I0403 13:05:35.741039 27389 net.cpp:156] Memory required for data: 783398000
I0403 13:05:35.741055 27389 layer_factory.hpp:77] Creating layer conv5
I0403 13:05:35.741082 27389 net.cpp:91] Creating Layer conv5
I0403 13:05:35.741101 27389 net.cpp:425] conv5 <- conv4
I0403 13:05:35.741122 27389 net.cpp:399] conv5 -> conv5
I0403 13:05:35.762279 27389 net.cpp:141] Setting up conv5
I0403 13:05:35.762326 27389 net.cpp:148] Top shape: 100 256 13 13 (4326400)
I0403 13:05:35.762344 27389 net.cpp:156] Memory required for data: 800703600
I0403 13:05:35.762370 27389 layer_factory.hpp:77] Creating layer relu5
I0403 13:05:35.762392 27389 net.cpp:91] Creating Layer relu5
I0403 13:05:35.762410 27389 net.cpp:425] relu5 <- conv5
I0403 13:05:35.762433 27389 net.cpp:386] relu5 -> conv5 (in-place)
I0403 13:05:35.762730 27389 net.cpp:141] Setting up relu5
I0403 13:05:35.762758 27389 net.cpp:148] Top shape: 100 256 13 13 (4326400)
I0403 13:05:35.762775 27389 net.cpp:156] Memory required for data: 818009200
I0403 13:05:35.762791 27389 layer_factory.hpp:77] Creating layer pool5
I0403 13:05:35.762816 27389 net.cpp:91] Creating Layer pool5
I0403 13:05:35.762835 27389 net.cpp:425] pool5 <- conv5
I0403 13:05:35.762856 27389 net.cpp:399] pool5 -> pool5
I0403 13:05:35.762919 27389 net.cpp:141] Setting up pool5
I0403 13:05:35.762944 27389 net.cpp:148] Top shape: 100 256 6 6 (921600)
I0403 13:05:35.762960 27389 net.cpp:156] Memory required for data: 821695600
I0403 13:05:35.762975 27389 layer_factory.hpp:77] Creating layer fc6
I0403 13:05:35.763018 27389 net.cpp:91] Creating Layer fc6
I0403 13:05:35.763037 27389 net.cpp:425] fc6 <- pool5
I0403 13:05:35.763063 27389 net.cpp:399] fc6 -> fc6
I0403 13:05:37.323264 27389 net.cpp:141] Setting up fc6
I0403 13:05:37.323349 27389 net.cpp:148] Top shape: 100 4096 (409600)
I0403 13:05:37.323369 27389 net.cpp:156] Memory required for data: 823334000
I0403 13:05:37.323391 27389 layer_factory.hpp:77] Creating layer relu6
I0403 13:05:37.323416 27389 net.cpp:91] Creating Layer relu6
I0403 13:05:37.323437 27389 net.cpp:425] relu6 <- fc6
I0403 13:05:37.323458 27389 net.cpp:386] relu6 -> fc6 (in-place)
I0403 13:05:37.323686 27389 net.cpp:141] Setting up relu6
I0403 13:05:37.323712 27389 net.cpp:148] Top shape: 100 4096 (409600)
I0403 13:05:37.323727 27389 net.cpp:156] Memory required for data: 824972400
I0403 13:05:37.323743 27389 layer_factory.hpp:77] Creating layer drop6
I0403 13:05:37.323763 27389 net.cpp:91] Creating Layer drop6
I0403 13:05:37.323779 27389 net.cpp:425] drop6 <- fc6
I0403 13:05:37.323799 27389 net.cpp:386] drop6 -> fc6 (in-place)
I0403 13:05:37.323853 27389 net.cpp:141] Setting up drop6
I0403 13:05:37.323880 27389 net.cpp:148] Top shape: 100 4096 (409600)
I0403 13:05:37.323896 27389 net.cpp:156] Memory required for data: 826610800
I0403 13:05:37.323912 27389 layer_factory.hpp:77] Creating layer fc7
I0403 13:05:37.323932 27389 net.cpp:91] Creating Layer fc7
I0403 13:05:37.323948 27389 net.cpp:425] fc7 <- fc6
I0403 13:05:37.323969 27389 net.cpp:399] fc7 -> fc7
I0403 13:05:38.009922 27389 net.cpp:141] Setting up fc7
I0403 13:05:38.009977 27389 net.cpp:148] Top shape: 100 4096 (409600)
I0403 13:05:38.009994 27389 net.cpp:156] Memory required for data: 828249200
I0403 13:05:38.010016 27389 layer_factory.hpp:77] Creating layer relu7
I0403 13:05:38.010049 27389 net.cpp:91] Creating Layer relu7
I0403 13:05:38.010066 27389 net.cpp:425] relu7 <- fc7
I0403 13:05:38.010093 27389 net.cpp:386] relu7 -> fc7 (in-place)
I0403 13:05:38.010538 27389 net.cpp:141] Setting up relu7
I0403 13:05:38.010565 27389 net.cpp:148] Top shape: 100 4096 (409600)
I0403 13:05:38.010638 27389 net.cpp:156] Memory required for data: 829887600
I0403 13:05:38.010655 27389 layer_factory.hpp:77] Creating layer drop7
I0403 13:05:38.010674 27389 net.cpp:91] Creating Layer drop7
I0403 13:05:38.010697 27389 net.cpp:425] drop7 <- fc7
I0403 13:05:38.010718 27389 net.cpp:386] drop7 -> fc7 (in-place)
I0403 13:05:38.010762 27389 net.cpp:141] Setting up drop7
I0403 13:05:38.010785 27389 net.cpp:148] Top shape: 100 4096 (409600)
I0403 13:05:38.010802 27389 net.cpp:156] Memory required for data: 831526000
I0403 13:05:38.010817 27389 layer_factory.hpp:77] Creating layer fc8_plantvillage
I0403 13:05:38.010838 27389 net.cpp:91] Creating Layer fc8_plantvillage
I0403 13:05:38.010856 27389 net.cpp:425] fc8_plantvillage <- fc7
I0403 13:05:38.010876 27389 net.cpp:399] fc8_plantvillage -> fc8_plantvillage
I0403 13:05:38.017582 27389 net.cpp:141] Setting up fc8_plantvillage
I0403 13:05:38.017611 27389 net.cpp:148] Top shape: 100 38 (3800)
I0403 13:05:38.017626 27389 net.cpp:156] Memory required for data: 831541200
I0403 13:05:38.017644 27389 layer_factory.hpp:77] Creating layer fc8_plantvillage_fc8_plantvillage_0_split
I0403 13:05:38.017663 27389 net.cpp:91] Creating Layer fc8_plantvillage_fc8_plantvillage_0_split
I0403 13:05:38.017678 27389 net.cpp:425] fc8_plantvillage_fc8_plantvillage_0_split <- fc8_plantvillage
I0403 13:05:38.017699 27389 net.cpp:399] fc8_plantvillage_fc8_plantvillage_0_split -> fc8_plantvillage_fc8_plantvillage_0_split_0
I0403 13:05:38.017719 27389 net.cpp:399] fc8_plantvillage_fc8_plantvillage_0_split -> fc8_plantvillage_fc8_plantvillage_0_split_1
I0403 13:05:38.017738 27389 net.cpp:399] fc8_plantvillage_fc8_plantvillage_0_split -> fc8_plantvillage_fc8_plantvillage_0_split_2
I0403 13:05:38.017814 27389 net.cpp:141] Setting up fc8_plantvillage_fc8_plantvillage_0_split
I0403 13:05:38.017838 27389 net.cpp:148] Top shape: 100 38 (3800)
I0403 13:05:38.017854 27389 net.cpp:148] Top shape: 100 38 (3800)
I0403 13:05:38.017870 27389 net.cpp:148] Top shape: 100 38 (3800)
I0403 13:05:38.017884 27389 net.cpp:156] Memory required for data: 831586800
I0403 13:05:38.017897 27389 layer_factory.hpp:77] Creating layer prob
I0403 13:05:38.017915 27389 net.cpp:91] Creating Layer prob
I0403 13:05:38.017931 27389 net.cpp:425] prob <- fc8_plantvillage_fc8_plantvillage_0_split_0
I0403 13:05:38.017951 27389 net.cpp:399] prob -> prob
I0403 13:05:38.018167 27389 net.cpp:141] Setting up prob
I0403 13:05:38.018198 27389 net.cpp:148] Top shape: 100 38 (3800)
I0403 13:05:38.018214 27389 net.cpp:156] Memory required for data: 831602000
I0403 13:05:38.018229 27389 layer_factory.hpp:77] Creating layer hdf5out
I0403 13:05:38.018255 27389 net.cpp:91] Creating Layer hdf5out
I0403 13:05:38.018271 27389 net.cpp:425] hdf5out <- prob
I0403 13:05:38.018287 27389 net.cpp:425] hdf5out <- label_data_1_split_0
I0403 13:05:38.022510 27389 net.cpp:141] Setting up hdf5out
…
