…
I0403 12:58:02.352776 27091 net.cpp:313] The NetState phase (1) differed from the phase (0) specified by a rule in layer data
I0403 12:58:02.353070 27091 net.cpp:49] Initializing net from parameters: 
state {
  phase: TEST
}
layer {
  name: "data"
  type: "Data"
  top: "data"
  top: "label"
  include {
    phase: TEST
  }
  transform_param {
    crop_size: 227
    mean_file: "/home/mohanty/data/final_dataset/lmdb/color-50-50/mean.binaryproto"
  }
  data_param {
    source: "/home/mohanty/data/final_dataset/lmdb/color-50-50/test_db"
    batch_size: 100
    backend: LMDB
  }
}
layer {
  name: "conv1"
  type: "Convolution"
  bottom: "data"
  top: "conv1"
  param {
    lr_mult: 1
    decay_mult: 1
  }
  param {
    lr_mult: 2
    decay_mult: 0
  }
  convolution_param {
    num_output: 96
    kernel_size: 11
    stride: 4
    weight_filler {
      type: "gaussian"
      std: 0.01
    }
    bias_filler {
      type: "constant"
      value: 0
    }
  }
}
layer {
  name: "relu1"
  type: "ReLU"
  bottom: "conv1"
  top: "conv1"
}
layer {
  name: "norm1"
  type: "LRN"
  bottom: "conv1"
  top: "norm1"
  lrn_param {
    local_size: 5
    alpha: 0.0001
    beta: 0.75
  }
}
layer {
  name: "pool1"
  type: "Pooling"
  bottom: "norm1"
  top: "pool1"
  pooling_param {
    pool: MAX
    kernel_size: 3
    stride: 2
  }
}
layer {
  name: "conv2"
  type: "Convolution"
  bottom: "pool1"
  top: "conv2"
  param {
    lr_mult: 1
    decay_mult: 1
  }
  param {
    lr_mult: 2
    decay_mult: 0
  }
  convolution_param {
    num_output: 256
    pad: 2
    kernel_size: 5
    group: 2
    weight_filler {
      type: "gaussian"
      std: 0.01
    }
    bias_filler {
      type: "constant"
      value: 0.1
    }
  }
}
layer {
  name: "relu2"
  type: "ReLU"
  bottom: "conv2"
  top: "conv2"
}
layer {
  name: "norm2"
  type: "LRN"
  bottom: "conv2"
  top: "norm2"
  lrn_param {
    local_size: 5
    alpha: 0.0001
    beta: 0.75
  }
}
layer {
  name: "pool2"
  type: "Pooling"
  bottom: "norm2"
  top: "pool2"
  pooling_param {
    pool: MAX
    kernel_size: 3
    stride: 2
  }
}
layer {
  name: "conv3"
  type: "Convolution"
  bottom: "pool2"
  top: "conv3"
  param {
    lr_mult: 1
    decay_mult: 1
  }
  param {
    lr_mult: 2
    decay_mult: 0
  }
  convolution_param {
    num_output: 384
    pad: 1
    kernel_size: 3
    weight_filler {
      type: "gaussian"
      std: 0.01
    }
    bias_filler {
      type: "constant"
      value: 0
    }
  }
}
layer {
  name: "relu3"
  type: "ReLU"
  bottom: "conv3"
  top: "conv3"
}
layer {
  name: "conv4"
  type: "Convolution"
  bottom: "conv3"
  top: "conv4"
  param {
    lr_mult: 1
    decay_mult: 1
  }
  param {
    lr_mult: 2
    decay_mult: 0
  }
  convolution_param {
    num_output: 384
    pad: 1
    kernel_size: 3
    group: 2
    weight_filler {
      type: "gaussian"
      std: 0.01
    }
    bias_filler {
      type: "constant"
      value: 0.1
    }
  }
}
layer {
  name: "relu4"
  type: "ReLU"
  bottom: "conv4"
  top: "conv4"
}
layer {
  name: "conv5"
  type: "Convolution"
  bottom: "conv4"
  top: "conv5"
  param {
    lr_mult: 1
    decay_mult: 1
  }
  param {
    lr_mult: 2
    decay_mult: 0
  }
  convolution_param {
    num_output: 256
    pad: 1
    kernel_size: 3
    group: 2
    weight_filler {
      type: "gaussian"
      std: 0.01
    }
    bias_filler {
      type: "constant"
      value: 0.1
    }
  }
}
layer {
  name: "relu5"
  type: "ReLU"
  bottom: "conv5"
  top: "conv5"
}
layer {
  name: "pool5"
  type: "Pooling"
  bottom: "conv5"
  top: "pool5"
  pooling_param {
    pool: MAX
    kernel_size: 3
    stride: 2
  }
}
layer {
  name: "fc6"
  type: "InnerProduct"
  bottom: "pool5"
  top: "fc6"
  param {
    lr_mult: 1
    decay_mult: 1
  }
  param {
    lr_mult: 2
    decay_mult: 0
  }
  inner_product_param {
    num_output: 4096
    weight_filler {
      type: "gaussian"
      std: 0.005
    }
    bias_filler {
      type: "constant"
      value: 0.1
    }
  }
}
layer {
  name: "relu6"
  type: "ReLU"
  bottom: "fc6"
  top: "fc6"
}
layer {
  name: "drop6"
  type: "Dropout"
  bottom: "fc6"
  top: "fc6"
  dropout_param {
    dropout_ratio: 0.5
  }
}
layer {
  name: "fc7"
  type: "InnerProduct"
  bottom: "fc6"
  top: "fc7"
  param {
    lr_mult: 1
    decay_mult: 1
  }
  param {
    lr_mult: 2
    decay_mult: 0
  }
  inner_product_param {
    num_output: 4096
    weight_filler {
      type: "gaussian"
      std: 0.005
    }
    bias_filler {
      type: "constant"
      value: 0.1
    }
  }
}
layer {
  name: "relu7"
  type: "ReLU"
  bottom: "fc7"
  top: "fc7"
}
layer {
  name: "drop7"
  type: "Dropout"
  bottom: "fc7"
  top: "fc7"
  dropout_param {
    dropout_ratio: 0.5
  }
}
layer {
  name: "fc8_plantvillage"
  type: "InnerProduct"
  bottom: "fc7"
  top: "fc8_plantvillage"
  param {
    lr_mult: 1
    decay_mult: 1
  }
  param {
    lr_mult: 2
    decay_mult: 0
  }
  inner_product_param {
    num_output: 38
    weight_filler {
      type: "gaussian"
      std: 0.01
    }
    bias_filler {
      type: "constant"
      value: 0
    }
  }
}
layer {
  name: "prob"
  type: "Softmax"
  bottom: "fc8_plantvillage"
  top: "prob"
  include {
    phase: TEST
  }
}
layer {
  name: "hdf5out"
  type: "HDF5Output"
  bottom: "prob"
  bottom: "label"
  include {
    phase: TEST
  }
  hdf5_output_param {
    file_name: "hdf5_dumps/iter_1614.h5"
  }
}
layer {
  name: "loss"
  type: "SoftmaxWithLoss"
  bottom: "fc8_plantvillage"
  bottom: "label"
  top: "loss"
}
layer {
  name: "accuracy"
  type: "Accuracy"
  bottom: "fc8_plantvillage"
  bottom: "label"
  top: "accuracy"
  include {
    phase: TEST
  }
}
I0403 12:58:02.353672 27091 layer_factory.hpp:77] Creating layer data
I0403 12:58:02.354336 27091 net.cpp:91] Creating Layer data
I0403 12:58:02.354384 27091 net.cpp:399] data -> data
I0403 12:58:02.354441 27091 net.cpp:399] data -> label
I0403 12:58:02.354480 27091 data_transformer.cpp:25] Loading mean file from: /home/mohanty/data/final_dataset/lmdb/color-50-50/mean.binaryproto
I0403 12:58:02.357395 27094 db_lmdb.cpp:38] Opened lmdb /home/mohanty/data/final_dataset/lmdb/color-50-50/test_db
I0403 12:58:02.369124 27091 data_layer.cpp:41] output data size: 100,3,227,227
I0403 12:58:02.491098 27091 net.cpp:141] Setting up data
I0403 12:58:02.491188 27091 net.cpp:148] Top shape: 100 3 227 227 (15458700)
I0403 12:58:02.491211 27091 net.cpp:148] Top shape: 100 (100)
I0403 12:58:02.491227 27091 net.cpp:156] Memory required for data: 61835200
I0403 12:58:02.491257 27091 layer_factory.hpp:77] Creating layer label_data_1_split
I0403 12:58:02.491286 27091 net.cpp:91] Creating Layer label_data_1_split
I0403 12:58:02.491304 27091 net.cpp:425] label_data_1_split <- label
I0403 12:58:02.491335 27091 net.cpp:399] label_data_1_split -> label_data_1_split_0
I0403 12:58:02.491367 27091 net.cpp:399] label_data_1_split -> label_data_1_split_1
I0403 12:58:02.491389 27091 net.cpp:399] label_data_1_split -> label_data_1_split_2
I0403 12:58:02.491453 27091 net.cpp:141] Setting up label_data_1_split
I0403 12:58:02.491479 27091 net.cpp:148] Top shape: 100 (100)
I0403 12:58:02.491497 27091 net.cpp:148] Top shape: 100 (100)
I0403 12:58:02.491515 27091 net.cpp:148] Top shape: 100 (100)
I0403 12:58:02.491529 27091 net.cpp:156] Memory required for data: 61836400
I0403 12:58:02.491544 27091 layer_factory.hpp:77] Creating layer conv1
I0403 12:58:02.491577 27091 net.cpp:91] Creating Layer conv1
I0403 12:58:02.491596 27091 net.cpp:425] conv1 <- data
I0403 12:58:02.491617 27091 net.cpp:399] conv1 -> conv1
I0403 12:58:02.636229 27091 net.cpp:141] Setting up conv1
I0403 12:58:02.636301 27091 net.cpp:148] Top shape: 100 96 55 55 (29040000)
I0403 12:58:02.636322 27091 net.cpp:156] Memory required for data: 177996400
I0403 12:58:02.636355 27091 layer_factory.hpp:77] Creating layer relu1
I0403 12:58:02.636384 27091 net.cpp:91] Creating Layer relu1
I0403 12:58:02.636402 27091 net.cpp:425] relu1 <- conv1
I0403 12:58:02.636421 27091 net.cpp:386] relu1 -> conv1 (in-place)
I0403 12:58:02.636677 27091 net.cpp:141] Setting up relu1
I0403 12:58:02.636703 27091 net.cpp:148] Top shape: 100 96 55 55 (29040000)
I0403 12:58:02.636719 27091 net.cpp:156] Memory required for data: 294156400
I0403 12:58:02.636767 27091 layer_factory.hpp:77] Creating layer norm1
I0403 12:58:02.636796 27091 net.cpp:91] Creating Layer norm1
I0403 12:58:02.636813 27091 net.cpp:425] norm1 <- conv1
I0403 12:58:02.636831 27091 net.cpp:399] norm1 -> norm1
I0403 12:58:02.637131 27091 net.cpp:141] Setting up norm1
I0403 12:58:02.637161 27091 net.cpp:148] Top shape: 100 96 55 55 (29040000)
I0403 12:58:02.637176 27091 net.cpp:156] Memory required for data: 410316400
I0403 12:58:02.637192 27091 layer_factory.hpp:77] Creating layer pool1
I0403 12:58:02.637214 27091 net.cpp:91] Creating Layer pool1
I0403 12:58:02.637231 27091 net.cpp:425] pool1 <- norm1
I0403 12:58:02.637249 27091 net.cpp:399] pool1 -> pool1
I0403 12:58:02.637342 27091 net.cpp:141] Setting up pool1
I0403 12:58:02.637368 27091 net.cpp:148] Top shape: 100 96 27 27 (6998400)
I0403 12:58:02.637384 27091 net.cpp:156] Memory required for data: 438310000
I0403 12:58:02.637400 27091 layer_factory.hpp:77] Creating layer conv2
I0403 12:58:02.637426 27091 net.cpp:91] Creating Layer conv2
I0403 12:58:02.637442 27091 net.cpp:425] conv2 <- pool1
I0403 12:58:02.637461 27091 net.cpp:399] conv2 -> conv2
I0403 12:58:02.652380 27091 net.cpp:141] Setting up conv2
I0403 12:58:02.652426 27091 net.cpp:148] Top shape: 100 256 27 27 (18662400)
I0403 12:58:02.652443 27091 net.cpp:156] Memory required for data: 512959600
I0403 12:58:02.652467 27091 layer_factory.hpp:77] Creating layer relu2
I0403 12:58:02.652489 27091 net.cpp:91] Creating Layer relu2
I0403 12:58:02.652510 27091 net.cpp:425] relu2 <- conv2
I0403 12:58:02.652529 27091 net.cpp:386] relu2 -> conv2 (in-place)
I0403 12:58:02.652813 27091 net.cpp:141] Setting up relu2
I0403 12:58:02.652842 27091 net.cpp:148] Top shape: 100 256 27 27 (18662400)
I0403 12:58:02.652858 27091 net.cpp:156] Memory required for data: 587609200
I0403 12:58:02.652873 27091 layer_factory.hpp:77] Creating layer norm2
I0403 12:58:02.652895 27091 net.cpp:91] Creating Layer norm2
I0403 12:58:02.652914 27091 net.cpp:425] norm2 <- conv2
I0403 12:58:02.652933 27091 net.cpp:399] norm2 -> norm2
I0403 12:58:02.653134 27091 net.cpp:141] Setting up norm2
I0403 12:58:02.653161 27091 net.cpp:148] Top shape: 100 256 27 27 (18662400)
I0403 12:58:02.653175 27091 net.cpp:156] Memory required for data: 662258800
I0403 12:58:02.653192 27091 layer_factory.hpp:77] Creating layer pool2
I0403 12:58:02.653209 27091 net.cpp:91] Creating Layer pool2
I0403 12:58:02.653224 27091 net.cpp:425] pool2 <- norm2
I0403 12:58:02.653242 27091 net.cpp:399] pool2 -> pool2
I0403 12:58:02.653295 27091 net.cpp:141] Setting up pool2
I0403 12:58:02.653327 27091 net.cpp:148] Top shape: 100 256 13 13 (4326400)
I0403 12:58:02.653347 27091 net.cpp:156] Memory required for data: 679564400
I0403 12:58:02.653362 27091 layer_factory.hpp:77] Creating layer conv3
I0403 12:58:02.653383 27091 net.cpp:91] Creating Layer conv3
I0403 12:58:02.653400 27091 net.cpp:425] conv3 <- pool2
I0403 12:58:02.653419 27091 net.cpp:399] conv3 -> conv3
I0403 12:58:02.691644 27091 net.cpp:141] Setting up conv3
I0403 12:58:02.691727 27091 net.cpp:148] Top shape: 100 384 13 13 (6489600)
I0403 12:58:02.691745 27091 net.cpp:156] Memory required for data: 705522800
I0403 12:58:02.691771 27091 layer_factory.hpp:77] Creating layer relu3
I0403 12:58:02.691797 27091 net.cpp:91] Creating Layer relu3
I0403 12:58:02.691814 27091 net.cpp:425] relu3 <- conv3
I0403 12:58:02.691833 27091 net.cpp:386] relu3 -> conv3 (in-place)
I0403 12:58:02.692102 27091 net.cpp:141] Setting up relu3
I0403 12:58:02.692131 27091 net.cpp:148] Top shape: 100 384 13 13 (6489600)
I0403 12:58:02.692147 27091 net.cpp:156] Memory required for data: 731481200
I0403 12:58:02.692162 27091 layer_factory.hpp:77] Creating layer conv4
I0403 12:58:02.692186 27091 net.cpp:91] Creating Layer conv4
I0403 12:58:02.692203 27091 net.cpp:425] conv4 <- conv3
I0403 12:58:02.692222 27091 net.cpp:399] conv4 -> conv4
I0403 12:58:02.721914 27091 net.cpp:141] Setting up conv4
I0403 12:58:02.721978 27091 net.cpp:148] Top shape: 100 384 13 13 (6489600)
I0403 12:58:02.722030 27091 net.cpp:156] Memory required for data: 757439600
I0403 12:58:02.722054 27091 layer_factory.hpp:77] Creating layer relu4
I0403 12:58:02.722075 27091 net.cpp:91] Creating Layer relu4
I0403 12:58:02.722093 27091 net.cpp:425] relu4 <- conv4
I0403 12:58:02.722111 27091 net.cpp:386] relu4 -> conv4 (in-place)
I0403 12:58:02.722411 27091 net.cpp:141] Setting up relu4
I0403 12:58:02.722443 27091 net.cpp:148] Top shape: 100 384 13 13 (6489600)
I0403 12:58:02.722463 27091 net.cpp:156] Memory required for data: 783398000
I0403 12:58:02.722483 27091 layer_factory.hpp:77] Creating layer conv5
I0403 12:58:02.722513 27091 net.cpp:91] Creating Layer conv5
I0403 12:58:02.722535 27091 net.cpp:425] conv5 <- conv4
I0403 12:58:02.722556 27091 net.cpp:399] conv5 -> conv5
I0403 12:58:02.743513 27091 net.cpp:141] Setting up conv5
I0403 12:58:02.743571 27091 net.cpp:148] Top shape: 100 256 13 13 (4326400)
I0403 12:58:02.743592 27091 net.cpp:156] Memory required for data: 800703600
I0403 12:58:02.743618 27091 layer_factory.hpp:77] Creating layer relu5
I0403 12:58:02.743640 27091 net.cpp:91] Creating Layer relu5
I0403 12:58:02.743657 27091 net.cpp:425] relu5 <- conv5
I0403 12:58:02.743679 27091 net.cpp:386] relu5 -> conv5 (in-place)
I0403 12:58:02.743963 27091 net.cpp:141] Setting up relu5
I0403 12:58:02.743990 27091 net.cpp:148] Top shape: 100 256 13 13 (4326400)
I0403 12:58:02.744007 27091 net.cpp:156] Memory required for data: 818009200
I0403 12:58:02.744024 27091 layer_factory.hpp:77] Creating layer pool5
I0403 12:58:02.744050 27091 net.cpp:91] Creating Layer pool5
I0403 12:58:02.744070 27091 net.cpp:425] pool5 <- conv5
I0403 12:58:02.744089 27091 net.cpp:399] pool5 -> pool5
I0403 12:58:02.744153 27091 net.cpp:141] Setting up pool5
I0403 12:58:02.744177 27091 net.cpp:148] Top shape: 100 256 6 6 (921600)
I0403 12:58:02.744194 27091 net.cpp:156] Memory required for data: 821695600
I0403 12:58:02.744210 27091 layer_factory.hpp:77] Creating layer fc6
I0403 12:58:02.744238 27091 net.cpp:91] Creating Layer fc6
I0403 12:58:02.744258 27091 net.cpp:425] fc6 <- pool5
I0403 12:58:02.744280 27091 net.cpp:399] fc6 -> fc6
I0403 12:58:04.296175 27091 net.cpp:141] Setting up fc6
I0403 12:58:04.296214 27091 net.cpp:148] Top shape: 100 4096 (409600)
I0403 12:58:04.296231 27091 net.cpp:156] Memory required for data: 823334000
I0403 12:58:04.296252 27091 layer_factory.hpp:77] Creating layer relu6
I0403 12:58:04.296274 27091 net.cpp:91] Creating Layer relu6
I0403 12:58:04.296293 27091 net.cpp:425] relu6 <- fc6
I0403 12:58:04.296311 27091 net.cpp:386] relu6 -> fc6 (in-place)
I0403 12:58:04.296531 27091 net.cpp:141] Setting up relu6
I0403 12:58:04.296567 27091 net.cpp:148] Top shape: 100 4096 (409600)
I0403 12:58:04.296582 27091 net.cpp:156] Memory required for data: 824972400
I0403 12:58:04.296597 27091 layer_factory.hpp:77] Creating layer drop6
I0403 12:58:04.296615 27091 net.cpp:91] Creating Layer drop6
I0403 12:58:04.296630 27091 net.cpp:425] drop6 <- fc6
I0403 12:58:04.296650 27091 net.cpp:386] drop6 -> fc6 (in-place)
I0403 12:58:04.296700 27091 net.cpp:141] Setting up drop6
I0403 12:58:04.296723 27091 net.cpp:148] Top shape: 100 4096 (409600)
I0403 12:58:04.296737 27091 net.cpp:156] Memory required for data: 826610800
I0403 12:58:04.296752 27091 layer_factory.hpp:77] Creating layer fc7
I0403 12:58:04.296775 27091 net.cpp:91] Creating Layer fc7
I0403 12:58:04.296792 27091 net.cpp:425] fc7 <- fc6
I0403 12:58:04.296813 27091 net.cpp:399] fc7 -> fc7
I0403 12:58:04.989411 27091 net.cpp:141] Setting up fc7
I0403 12:58:04.989490 27091 net.cpp:148] Top shape: 100 4096 (409600)
I0403 12:58:04.989509 27091 net.cpp:156] Memory required for data: 828249200
I0403 12:58:04.989532 27091 layer_factory.hpp:77] Creating layer relu7
I0403 12:58:04.989557 27091 net.cpp:91] Creating Layer relu7
I0403 12:58:04.989576 27091 net.cpp:425] relu7 <- fc7
I0403 12:58:04.989599 27091 net.cpp:386] relu7 -> fc7 (in-place)
I0403 12:58:04.990036 27091 net.cpp:141] Setting up relu7
I0403 12:58:04.990064 27091 net.cpp:148] Top shape: 100 4096 (409600)
I0403 12:58:04.990115 27091 net.cpp:156] Memory required for data: 829887600
I0403 12:58:04.990134 27091 layer_factory.hpp:77] Creating layer drop7
I0403 12:58:04.990154 27091 net.cpp:91] Creating Layer drop7
I0403 12:58:04.990170 27091 net.cpp:425] drop7 <- fc7
I0403 12:58:04.990191 27091 net.cpp:386] drop7 -> fc7 (in-place)
I0403 12:58:04.990238 27091 net.cpp:141] Setting up drop7
I0403 12:58:04.990267 27091 net.cpp:148] Top shape: 100 4096 (409600)
I0403 12:58:04.990284 27091 net.cpp:156] Memory required for data: 831526000
I0403 12:58:04.990299 27091 layer_factory.hpp:77] Creating layer fc8_plantvillage
I0403 12:58:04.990327 27091 net.cpp:91] Creating Layer fc8_plantvillage
I0403 12:58:04.990345 27091 net.cpp:425] fc8_plantvillage <- fc7
I0403 12:58:04.990367 27091 net.cpp:399] fc8_plantvillage -> fc8_plantvillage
I0403 12:58:04.997526 27091 net.cpp:141] Setting up fc8_plantvillage
I0403 12:58:04.997556 27091 net.cpp:148] Top shape: 100 38 (3800)
I0403 12:58:04.997572 27091 net.cpp:156] Memory required for data: 831541200
I0403 12:58:04.997591 27091 layer_factory.hpp:77] Creating layer fc8_plantvillage_fc8_plantvillage_0_split
I0403 12:58:04.997613 27091 net.cpp:91] Creating Layer fc8_plantvillage_fc8_plantvillage_0_split
I0403 12:58:04.997630 27091 net.cpp:425] fc8_plantvillage_fc8_plantvillage_0_split <- fc8_plantvillage
I0403 12:58:04.997653 27091 net.cpp:399] fc8_plantvillage_fc8_plantvillage_0_split -> fc8_plantvillage_fc8_plantvillage_0_split_0
I0403 12:58:04.997674 27091 net.cpp:399] fc8_plantvillage_fc8_plantvillage_0_split -> fc8_plantvillage_fc8_plantvillage_0_split_1
I0403 12:58:04.997696 27091 net.cpp:399] fc8_plantvillage_fc8_plantvillage_0_split -> fc8_plantvillage_fc8_plantvillage_0_split_2
I0403 12:58:04.997777 27091 net.cpp:141] Setting up fc8_plantvillage_fc8_plantvillage_0_split
I0403 12:58:04.997805 27091 net.cpp:148] Top shape: 100 38 (3800)
I0403 12:58:04.997824 27091 net.cpp:148] Top shape: 100 38 (3800)
I0403 12:58:04.997843 27091 net.cpp:148] Top shape: 100 38 (3800)
I0403 12:58:04.997859 27091 net.cpp:156] Memory required for data: 831586800
I0403 12:58:04.997875 27091 layer_factory.hpp:77] Creating layer prob
I0403 12:58:04.997895 27091 net.cpp:91] Creating Layer prob
I0403 12:58:04.997911 27091 net.cpp:425] prob <- fc8_plantvillage_fc8_plantvillage_0_split_0
I0403 12:58:04.997931 27091 net.cpp:399] prob -> prob
I0403 12:58:04.998173 27091 net.cpp:141] Setting up prob
I0403 12:58:04.998201 27091 net.cpp:148] Top shape: 100 38 (3800)
I0403 12:58:04.998217 27091 net.cpp:156] Memory required for data: 831602000
I0403 12:58:04.998234 27091 layer_factory.hpp:77] Creating layer hdf5out
I0403 12:58:04.998255 27091 net.cpp:91] Creating Layer hdf5out
I0403 12:58:04.998271 27091 net.cpp:425] hdf5out <- prob
I0403 12:58:04.998288 27091 net.cpp:425] hdf5out <- label_data_1_split_0
I0403 12:58:05.001935 27091 net.cpp:141] Setting up hdf5out
…
