…
I0403 12:54:16.618971 27014 net.cpp:313] The NetState phase (1) differed from the phase (0) specified by a rule in layer data
I0403 12:54:16.619267 27014 net.cpp:49] Initializing net from parameters: 
state {
  phase: TEST
}
layer {
  name: "data"
  type: "Data"
  top: "data"
  top: "label"
  include {
    phase: TEST
  }
  transform_param {
    crop_size: 227
    mean_file: "/home/mohanty/data/final_dataset/lmdb/color-50-50/mean.binaryproto"
  }
  data_param {
    source: "/home/mohanty/data/final_dataset/lmdb/color-50-50/test_db"
    batch_size: 100
    backend: LMDB
  }
}
layer {
  name: "conv1"
  type: "Convolution"
  bottom: "data"
  top: "conv1"
  param {
    lr_mult: 1
    decay_mult: 1
  }
  param {
    lr_mult: 2
    decay_mult: 0
  }
  convolution_param {
    num_output: 96
    kernel_size: 11
    stride: 4
    weight_filler {
      type: "gaussian"
      std: 0.01
    }
    bias_filler {
      type: "constant"
      value: 0
    }
  }
}
layer {
  name: "relu1"
  type: "ReLU"
  bottom: "conv1"
  top: "conv1"
}
layer {
  name: "norm1"
  type: "LRN"
  bottom: "conv1"
  top: "norm1"
  lrn_param {
    local_size: 5
    alpha: 0.0001
    beta: 0.75
  }
}
layer {
  name: "pool1"
  type: "Pooling"
  bottom: "norm1"
  top: "pool1"
  pooling_param {
    pool: MAX
    kernel_size: 3
    stride: 2
  }
}
layer {
  name: "conv2"
  type: "Convolution"
  bottom: "pool1"
  top: "conv2"
  param {
    lr_mult: 1
    decay_mult: 1
  }
  param {
    lr_mult: 2
    decay_mult: 0
  }
  convolution_param {
    num_output: 256
    pad: 2
    kernel_size: 5
    group: 2
    weight_filler {
      type: "gaussian"
      std: 0.01
    }
    bias_filler {
      type: "constant"
      value: 0.1
    }
  }
}
layer {
  name: "relu2"
  type: "ReLU"
  bottom: "conv2"
  top: "conv2"
}
layer {
  name: "norm2"
  type: "LRN"
  bottom: "conv2"
  top: "norm2"
  lrn_param {
    local_size: 5
    alpha: 0.0001
    beta: 0.75
  }
}
layer {
  name: "pool2"
  type: "Pooling"
  bottom: "norm2"
  top: "pool2"
  pooling_param {
    pool: MAX
    kernel_size: 3
    stride: 2
  }
}
layer {
  name: "conv3"
  type: "Convolution"
  bottom: "pool2"
  top: "conv3"
  param {
    lr_mult: 1
    decay_mult: 1
  }
  param {
    lr_mult: 2
    decay_mult: 0
  }
  convolution_param {
    num_output: 384
    pad: 1
    kernel_size: 3
    weight_filler {
      type: "gaussian"
      std: 0.01
    }
    bias_filler {
      type: "constant"
      value: 0
    }
  }
}
layer {
  name: "relu3"
  type: "ReLU"
  bottom: "conv3"
  top: "conv3"
}
layer {
  name: "conv4"
  type: "Convolution"
  bottom: "conv3"
  top: "conv4"
  param {
    lr_mult: 1
    decay_mult: 1
  }
  param {
    lr_mult: 2
    decay_mult: 0
  }
  convolution_param {
    num_output: 384
    pad: 1
    kernel_size: 3
    group: 2
    weight_filler {
      type: "gaussian"
      std: 0.01
    }
    bias_filler {
      type: "constant"
      value: 0.1
    }
  }
}
layer {
  name: "relu4"
  type: "ReLU"
  bottom: "conv4"
  top: "conv4"
}
layer {
  name: "conv5"
  type: "Convolution"
  bottom: "conv4"
  top: "conv5"
  param {
    lr_mult: 1
    decay_mult: 1
  }
  param {
    lr_mult: 2
    decay_mult: 0
  }
  convolution_param {
    num_output: 256
    pad: 1
    kernel_size: 3
    group: 2
    weight_filler {
      type: "gaussian"
      std: 0.01
    }
    bias_filler {
      type: "constant"
      value: 0.1
    }
  }
}
layer {
  name: "relu5"
  type: "ReLU"
  bottom: "conv5"
  top: "conv5"
}
layer {
  name: "pool5"
  type: "Pooling"
  bottom: "conv5"
  top: "pool5"
  pooling_param {
    pool: MAX
    kernel_size: 3
    stride: 2
  }
}
layer {
  name: "fc6"
  type: "InnerProduct"
  bottom: "pool5"
  top: "fc6"
  param {
    lr_mult: 1
    decay_mult: 1
  }
  param {
    lr_mult: 2
    decay_mult: 0
  }
  inner_product_param {
    num_output: 4096
    weight_filler {
      type: "gaussian"
      std: 0.005
    }
    bias_filler {
      type: "constant"
      value: 0.1
    }
  }
}
layer {
  name: "relu6"
  type: "ReLU"
  bottom: "fc6"
  top: "fc6"
}
layer {
  name: "drop6"
  type: "Dropout"
  bottom: "fc6"
  top: "fc6"
  dropout_param {
    dropout_ratio: 0.5
  }
}
layer {
  name: "fc7"
  type: "InnerProduct"
  bottom: "fc6"
  top: "fc7"
  param {
    lr_mult: 1
    decay_mult: 1
  }
  param {
    lr_mult: 2
    decay_mult: 0
  }
  inner_product_param {
    num_output: 4096
    weight_filler {
      type: "gaussian"
      std: 0.005
    }
    bias_filler {
      type: "constant"
      value: 0.1
    }
  }
}
layer {
  name: "relu7"
  type: "ReLU"
  bottom: "fc7"
  top: "fc7"
}
layer {
  name: "drop7"
  type: "Dropout"
  bottom: "fc7"
  top: "fc7"
  dropout_param {
    dropout_ratio: 0.5
  }
}
layer {
  name: "fc8_plantvillage"
  type: "InnerProduct"
  bottom: "fc7"
  top: "fc8_plantvillage"
  param {
    lr_mult: 1
    decay_mult: 1
  }
  param {
    lr_mult: 2
    decay_mult: 0
  }
  inner_product_param {
    num_output: 38
    weight_filler {
      type: "gaussian"
      std: 0.01
    }
    bias_filler {
      type: "constant"
      value: 0
    }
  }
}
layer {
  name: "prob"
  type: "Softmax"
  bottom: "fc8_plantvillage"
  top: "prob"
  include {
    phase: TEST
  }
}
layer {
  name: "hdf5out"
  type: "HDF5Output"
  bottom: "prob"
  bottom: "label"
  include {
    phase: TEST
  }
  hdf5_output_param {
    file_name: "hdf5_dumps/iter_538.h5"
  }
}
layer {
  name: "loss"
  type: "SoftmaxWithLoss"
  bottom: "fc8_plantvillage"
  bottom: "label"
  top: "loss"
}
layer {
  name: "accuracy"
  type: "Accuracy"
  bottom: "fc8_plantvillage"
  bottom: "label"
  top: "accuracy"
  include {
    phase: TEST
  }
}
I0403 12:54:16.619925 27014 layer_factory.hpp:77] Creating layer data
I0403 12:54:16.620586 27014 net.cpp:91] Creating Layer data
I0403 12:54:16.620621 27014 net.cpp:399] data -> data
I0403 12:54:16.620674 27014 net.cpp:399] data -> label
I0403 12:54:16.620713 27014 data_transformer.cpp:25] Loading mean file from: /home/mohanty/data/final_dataset/lmdb/color-50-50/mean.binaryproto
I0403 12:54:16.627745 27017 db_lmdb.cpp:38] Opened lmdb /home/mohanty/data/final_dataset/lmdb/color-50-50/test_db
I0403 12:54:16.634554 27014 data_layer.cpp:41] output data size: 100,3,227,227
I0403 12:54:16.755144 27014 net.cpp:141] Setting up data
I0403 12:54:16.755234 27014 net.cpp:148] Top shape: 100 3 227 227 (15458700)
I0403 12:54:16.755259 27014 net.cpp:148] Top shape: 100 (100)
I0403 12:54:16.755276 27014 net.cpp:156] Memory required for data: 61835200
I0403 12:54:16.755306 27014 layer_factory.hpp:77] Creating layer label_data_1_split
I0403 12:54:16.755331 27014 net.cpp:91] Creating Layer label_data_1_split
I0403 12:54:16.755353 27014 net.cpp:425] label_data_1_split <- label
I0403 12:54:16.755388 27014 net.cpp:399] label_data_1_split -> label_data_1_split_0
I0403 12:54:16.755417 27014 net.cpp:399] label_data_1_split -> label_data_1_split_1
I0403 12:54:16.755439 27014 net.cpp:399] label_data_1_split -> label_data_1_split_2
I0403 12:54:16.755509 27014 net.cpp:141] Setting up label_data_1_split
I0403 12:54:16.755533 27014 net.cpp:148] Top shape: 100 (100)
I0403 12:54:16.755551 27014 net.cpp:148] Top shape: 100 (100)
I0403 12:54:16.755569 27014 net.cpp:148] Top shape: 100 (100)
I0403 12:54:16.755584 27014 net.cpp:156] Memory required for data: 61836400
I0403 12:54:16.755600 27014 layer_factory.hpp:77] Creating layer conv1
I0403 12:54:16.755633 27014 net.cpp:91] Creating Layer conv1
I0403 12:54:16.755653 27014 net.cpp:425] conv1 <- data
I0403 12:54:16.755674 27014 net.cpp:399] conv1 -> conv1
I0403 12:54:16.902225 27014 net.cpp:141] Setting up conv1
I0403 12:54:16.902299 27014 net.cpp:148] Top shape: 100 96 55 55 (29040000)
I0403 12:54:16.902318 27014 net.cpp:156] Memory required for data: 177996400
I0403 12:54:16.902356 27014 layer_factory.hpp:77] Creating layer relu1
I0403 12:54:16.902387 27014 net.cpp:91] Creating Layer relu1
I0403 12:54:16.902407 27014 net.cpp:425] relu1 <- conv1
I0403 12:54:16.902428 27014 net.cpp:386] relu1 -> conv1 (in-place)
I0403 12:54:16.902734 27014 net.cpp:141] Setting up relu1
I0403 12:54:16.902762 27014 net.cpp:148] Top shape: 100 96 55 55 (29040000)
I0403 12:54:16.902779 27014 net.cpp:156] Memory required for data: 294156400
I0403 12:54:16.902830 27014 layer_factory.hpp:77] Creating layer norm1
I0403 12:54:16.902861 27014 net.cpp:91] Creating Layer norm1
I0403 12:54:16.902881 27014 net.cpp:425] norm1 <- conv1
I0403 12:54:16.902900 27014 net.cpp:399] norm1 -> norm1
I0403 12:54:16.903216 27014 net.cpp:141] Setting up norm1
I0403 12:54:16.903245 27014 net.cpp:148] Top shape: 100 96 55 55 (29040000)
I0403 12:54:16.903264 27014 net.cpp:156] Memory required for data: 410316400
I0403 12:54:16.903280 27014 layer_factory.hpp:77] Creating layer pool1
I0403 12:54:16.903306 27014 net.cpp:91] Creating Layer pool1
I0403 12:54:16.903323 27014 net.cpp:425] pool1 <- norm1
I0403 12:54:16.903342 27014 net.cpp:399] pool1 -> pool1
I0403 12:54:16.903419 27014 net.cpp:141] Setting up pool1
I0403 12:54:16.903445 27014 net.cpp:148] Top shape: 100 96 27 27 (6998400)
I0403 12:54:16.903461 27014 net.cpp:156] Memory required for data: 438310000
I0403 12:54:16.903478 27014 layer_factory.hpp:77] Creating layer conv2
I0403 12:54:16.903504 27014 net.cpp:91] Creating Layer conv2
I0403 12:54:16.903522 27014 net.cpp:425] conv2 <- pool1
I0403 12:54:16.903542 27014 net.cpp:399] conv2 -> conv2
I0403 12:54:16.918927 27014 net.cpp:141] Setting up conv2
I0403 12:54:16.918978 27014 net.cpp:148] Top shape: 100 256 27 27 (18662400)
I0403 12:54:16.918995 27014 net.cpp:156] Memory required for data: 512959600
I0403 12:54:16.919021 27014 layer_factory.hpp:77] Creating layer relu2
I0403 12:54:16.919046 27014 net.cpp:91] Creating Layer relu2
I0403 12:54:16.919066 27014 net.cpp:425] relu2 <- conv2
I0403 12:54:16.919090 27014 net.cpp:386] relu2 -> conv2 (in-place)
I0403 12:54:16.919363 27014 net.cpp:141] Setting up relu2
I0403 12:54:16.919391 27014 net.cpp:148] Top shape: 100 256 27 27 (18662400)
I0403 12:54:16.919407 27014 net.cpp:156] Memory required for data: 587609200
I0403 12:54:16.919425 27014 layer_factory.hpp:77] Creating layer norm2
I0403 12:54:16.919447 27014 net.cpp:91] Creating Layer norm2
I0403 12:54:16.919466 27014 net.cpp:425] norm2 <- conv2
I0403 12:54:16.919484 27014 net.cpp:399] norm2 -> norm2
I0403 12:54:16.919682 27014 net.cpp:141] Setting up norm2
I0403 12:54:16.919710 27014 net.cpp:148] Top shape: 100 256 27 27 (18662400)
I0403 12:54:16.919726 27014 net.cpp:156] Memory required for data: 662258800
I0403 12:54:16.919745 27014 layer_factory.hpp:77] Creating layer pool2
I0403 12:54:16.919765 27014 net.cpp:91] Creating Layer pool2
I0403 12:54:16.919785 27014 net.cpp:425] pool2 <- norm2
I0403 12:54:16.919803 27014 net.cpp:399] pool2 -> pool2
I0403 12:54:16.919857 27014 net.cpp:141] Setting up pool2
I0403 12:54:16.919883 27014 net.cpp:148] Top shape: 100 256 13 13 (4326400)
I0403 12:54:16.919898 27014 net.cpp:156] Memory required for data: 679564400
I0403 12:54:16.919914 27014 layer_factory.hpp:77] Creating layer conv3
I0403 12:54:16.919937 27014 net.cpp:91] Creating Layer conv3
I0403 12:54:16.919955 27014 net.cpp:425] conv3 <- pool2
I0403 12:54:16.919975 27014 net.cpp:399] conv3 -> conv3
I0403 12:54:16.963742 27014 net.cpp:141] Setting up conv3
I0403 12:54:16.963812 27014 net.cpp:148] Top shape: 100 384 13 13 (6489600)
I0403 12:54:16.963831 27014 net.cpp:156] Memory required for data: 705522800
I0403 12:54:16.963861 27014 layer_factory.hpp:77] Creating layer relu3
I0403 12:54:16.963887 27014 net.cpp:91] Creating Layer relu3
I0403 12:54:16.963907 27014 net.cpp:425] relu3 <- conv3
I0403 12:54:16.963927 27014 net.cpp:386] relu3 -> conv3 (in-place)
I0403 12:54:16.964216 27014 net.cpp:141] Setting up relu3
I0403 12:54:16.964247 27014 net.cpp:148] Top shape: 100 384 13 13 (6489600)
I0403 12:54:16.964264 27014 net.cpp:156] Memory required for data: 731481200
I0403 12:54:16.964282 27014 layer_factory.hpp:77] Creating layer conv4
I0403 12:54:16.964306 27014 net.cpp:91] Creating Layer conv4
I0403 12:54:16.964325 27014 net.cpp:425] conv4 <- conv3
I0403 12:54:16.964362 27014 net.cpp:399] conv4 -> conv4
I0403 12:54:16.995265 27014 net.cpp:141] Setting up conv4
I0403 12:54:16.995371 27014 net.cpp:148] Top shape: 100 384 13 13 (6489600)
I0403 12:54:16.995429 27014 net.cpp:156] Memory required for data: 757439600
I0403 12:54:16.995460 27014 layer_factory.hpp:77] Creating layer relu4
I0403 12:54:16.995489 27014 net.cpp:91] Creating Layer relu4
I0403 12:54:16.995510 27014 net.cpp:425] relu4 <- conv4
I0403 12:54:16.995532 27014 net.cpp:386] relu4 -> conv4 (in-place)
I0403 12:54:16.995837 27014 net.cpp:141] Setting up relu4
I0403 12:54:16.995867 27014 net.cpp:148] Top shape: 100 384 13 13 (6489600)
I0403 12:54:16.995892 27014 net.cpp:156] Memory required for data: 783398000
I0403 12:54:16.995909 27014 layer_factory.hpp:77] Creating layer conv5
I0403 12:54:16.995951 27014 net.cpp:91] Creating Layer conv5
I0403 12:54:16.995972 27014 net.cpp:425] conv5 <- conv4
I0403 12:54:16.995995 27014 net.cpp:399] conv5 -> conv5
I0403 12:54:17.017263 27014 net.cpp:141] Setting up conv5
I0403 12:54:17.017318 27014 net.cpp:148] Top shape: 100 256 13 13 (4326400)
I0403 12:54:17.017336 27014 net.cpp:156] Memory required for data: 800703600
I0403 12:54:17.017369 27014 layer_factory.hpp:77] Creating layer relu5
I0403 12:54:17.017397 27014 net.cpp:91] Creating Layer relu5
I0403 12:54:17.017416 27014 net.cpp:425] relu5 <- conv5
I0403 12:54:17.017437 27014 net.cpp:386] relu5 -> conv5 (in-place)
I0403 12:54:17.017729 27014 net.cpp:141] Setting up relu5
I0403 12:54:17.017756 27014 net.cpp:148] Top shape: 100 256 13 13 (4326400)
I0403 12:54:17.017773 27014 net.cpp:156] Memory required for data: 818009200
I0403 12:54:17.017791 27014 layer_factory.hpp:77] Creating layer pool5
I0403 12:54:17.017817 27014 net.cpp:91] Creating Layer pool5
I0403 12:54:17.017837 27014 net.cpp:425] pool5 <- conv5
I0403 12:54:17.017858 27014 net.cpp:399] pool5 -> pool5
I0403 12:54:17.017925 27014 net.cpp:141] Setting up pool5
I0403 12:54:17.017951 27014 net.cpp:148] Top shape: 100 256 6 6 (921600)
I0403 12:54:17.017967 27014 net.cpp:156] Memory required for data: 821695600
I0403 12:54:17.017985 27014 layer_factory.hpp:77] Creating layer fc6
I0403 12:54:17.018015 27014 net.cpp:91] Creating Layer fc6
I0403 12:54:17.018035 27014 net.cpp:425] fc6 <- pool5
I0403 12:54:17.018057 27014 net.cpp:399] fc6 -> fc6
I0403 12:54:18.579360 27014 net.cpp:141] Setting up fc6
I0403 12:54:18.579406 27014 net.cpp:148] Top shape: 100 4096 (409600)
I0403 12:54:18.579422 27014 net.cpp:156] Memory required for data: 823334000
I0403 12:54:18.579444 27014 layer_factory.hpp:77] Creating layer relu6
I0403 12:54:18.579466 27014 net.cpp:91] Creating Layer relu6
I0403 12:54:18.579485 27014 net.cpp:425] relu6 <- fc6
I0403 12:54:18.579504 27014 net.cpp:386] relu6 -> fc6 (in-place)
I0403 12:54:18.579732 27014 net.cpp:141] Setting up relu6
I0403 12:54:18.579759 27014 net.cpp:148] Top shape: 100 4096 (409600)
I0403 12:54:18.579777 27014 net.cpp:156] Memory required for data: 824972400
I0403 12:54:18.579792 27014 layer_factory.hpp:77] Creating layer drop6
I0403 12:54:18.579813 27014 net.cpp:91] Creating Layer drop6
I0403 12:54:18.579829 27014 net.cpp:425] drop6 <- fc6
I0403 12:54:18.579849 27014 net.cpp:386] drop6 -> fc6 (in-place)
I0403 12:54:18.579903 27014 net.cpp:141] Setting up drop6
I0403 12:54:18.579928 27014 net.cpp:148] Top shape: 100 4096 (409600)
I0403 12:54:18.579943 27014 net.cpp:156] Memory required for data: 826610800
I0403 12:54:18.579958 27014 layer_factory.hpp:77] Creating layer fc7
I0403 12:54:18.579978 27014 net.cpp:91] Creating Layer fc7
I0403 12:54:18.579994 27014 net.cpp:425] fc7 <- fc6
I0403 12:54:18.580016 27014 net.cpp:399] fc7 -> fc7
I0403 12:54:19.272171 27014 net.cpp:141] Setting up fc7
I0403 12:54:19.272251 27014 net.cpp:148] Top shape: 100 4096 (409600)
I0403 12:54:19.272269 27014 net.cpp:156] Memory required for data: 828249200
I0403 12:54:19.272292 27014 layer_factory.hpp:77] Creating layer relu7
I0403 12:54:19.272315 27014 net.cpp:91] Creating Layer relu7
I0403 12:54:19.272333 27014 net.cpp:425] relu7 <- fc7
I0403 12:54:19.272359 27014 net.cpp:386] relu7 -> fc7 (in-place)
I0403 12:54:19.272778 27014 net.cpp:141] Setting up relu7
I0403 12:54:19.272805 27014 net.cpp:148] Top shape: 100 4096 (409600)
I0403 12:54:19.272856 27014 net.cpp:156] Memory required for data: 829887600
I0403 12:54:19.272873 27014 layer_factory.hpp:77] Creating layer drop7
I0403 12:54:19.272897 27014 net.cpp:91] Creating Layer drop7
I0403 12:54:19.272913 27014 net.cpp:425] drop7 <- fc7
I0403 12:54:19.272932 27014 net.cpp:386] drop7 -> fc7 (in-place)
I0403 12:54:19.272979 27014 net.cpp:141] Setting up drop7
I0403 12:54:19.273003 27014 net.cpp:148] Top shape: 100 4096 (409600)
I0403 12:54:19.273018 27014 net.cpp:156] Memory required for data: 831526000
I0403 12:54:19.273033 27014 layer_factory.hpp:77] Creating layer fc8_plantvillage
I0403 12:54:19.273059 27014 net.cpp:91] Creating Layer fc8_plantvillage
I0403 12:54:19.273077 27014 net.cpp:425] fc8_plantvillage <- fc7
I0403 12:54:19.273095 27014 net.cpp:399] fc8_plantvillage -> fc8_plantvillage
I0403 12:54:19.280087 27014 net.cpp:141] Setting up fc8_plantvillage
I0403 12:54:19.280119 27014 net.cpp:148] Top shape: 100 38 (3800)
I0403 12:54:19.280135 27014 net.cpp:156] Memory required for data: 831541200
I0403 12:54:19.280155 27014 layer_factory.hpp:77] Creating layer fc8_plantvillage_fc8_plantvillage_0_split
I0403 12:54:19.280177 27014 net.cpp:91] Creating Layer fc8_plantvillage_fc8_plantvillage_0_split
I0403 12:54:19.280196 27014 net.cpp:425] fc8_plantvillage_fc8_plantvillage_0_split <- fc8_plantvillage
I0403 12:54:19.280217 27014 net.cpp:399] fc8_plantvillage_fc8_plantvillage_0_split -> fc8_plantvillage_fc8_plantvillage_0_split_0
I0403 12:54:19.280241 27014 net.cpp:399] fc8_plantvillage_fc8_plantvillage_0_split -> fc8_plantvillage_fc8_plantvillage_0_split_1
I0403 12:54:19.280263 27014 net.cpp:399] fc8_plantvillage_fc8_plantvillage_0_split -> fc8_plantvillage_fc8_plantvillage_0_split_2
I0403 12:54:19.280342 27014 net.cpp:141] Setting up fc8_plantvillage_fc8_plantvillage_0_split
I0403 12:54:19.280372 27014 net.cpp:148] Top shape: 100 38 (3800)
I0403 12:54:19.280390 27014 net.cpp:148] Top shape: 100 38 (3800)
I0403 12:54:19.280407 27014 net.cpp:148] Top shape: 100 38 (3800)
I0403 12:54:19.280422 27014 net.cpp:156] Memory required for data: 831586800
I0403 12:54:19.280438 27014 layer_factory.hpp:77] Creating layer prob
I0403 12:54:19.280460 27014 net.cpp:91] Creating Layer prob
I0403 12:54:19.280478 27014 net.cpp:425] prob <- fc8_plantvillage_fc8_plantvillage_0_split_0
I0403 12:54:19.280496 27014 net.cpp:399] prob -> prob
I0403 12:54:19.280727 27014 net.cpp:141] Setting up prob
I0403 12:54:19.280753 27014 net.cpp:148] Top shape: 100 38 (3800)
I0403 12:54:19.280769 27014 net.cpp:156] Memory required for data: 831602000
I0403 12:54:19.280786 27014 layer_factory.hpp:77] Creating layer hdf5out
I0403 12:54:19.280808 27014 net.cpp:91] Creating Layer hdf5out
I0403 12:54:19.280827 27014 net.cpp:425] hdf5out <- prob
I0403 12:54:19.280844 27014 net.cpp:425] hdf5out <- label_data_1_split_0
I0403 12:54:19.305678 27014 net.cpp:141] Setting up hdf5out
…
