…
I0403 13:18:50.794255 27763 net.cpp:313] The NetState phase (1) differed from the phase (0) specified by a rule in layer data
I0403 13:18:50.794576 27763 net.cpp:49] Initializing net from parameters: 
state {
  phase: TEST
}
layer {
  name: "data"
  type: "Data"
  top: "data"
  top: "label"
  include {
    phase: TEST
  }
  transform_param {
    crop_size: 227
    mean_file: "/home/mohanty/data/final_dataset/lmdb/color-50-50/mean.binaryproto"
  }
  data_param {
    source: "/home/mohanty/data/final_dataset/lmdb/color-50-50/test_db"
    batch_size: 100
    backend: LMDB
  }
}
layer {
  name: "conv1"
  type: "Convolution"
  bottom: "data"
  top: "conv1"
  param {
    lr_mult: 1
    decay_mult: 1
  }
  param {
    lr_mult: 2
    decay_mult: 0
  }
  convolution_param {
    num_output: 96
    kernel_size: 11
    stride: 4
    weight_filler {
      type: "gaussian"
      std: 0.01
    }
    bias_filler {
      type: "constant"
      value: 0
    }
  }
}
layer {
  name: "relu1"
  type: "ReLU"
  bottom: "conv1"
  top: "conv1"
}
layer {
  name: "norm1"
  type: "LRN"
  bottom: "conv1"
  top: "norm1"
  lrn_param {
    local_size: 5
    alpha: 0.0001
    beta: 0.75
  }
}
layer {
  name: "pool1"
  type: "Pooling"
  bottom: "norm1"
  top: "pool1"
  pooling_param {
    pool: MAX
    kernel_size: 3
    stride: 2
  }
}
layer {
  name: "conv2"
  type: "Convolution"
  bottom: "pool1"
  top: "conv2"
  param {
    lr_mult: 1
    decay_mult: 1
  }
  param {
    lr_mult: 2
    decay_mult: 0
  }
  convolution_param {
    num_output: 256
    pad: 2
    kernel_size: 5
    group: 2
    weight_filler {
      type: "gaussian"
      std: 0.01
    }
    bias_filler {
      type: "constant"
      value: 0.1
    }
  }
}
layer {
  name: "relu2"
  type: "ReLU"
  bottom: "conv2"
  top: "conv2"
}
layer {
  name: "norm2"
  type: "LRN"
  bottom: "conv2"
  top: "norm2"
  lrn_param {
    local_size: 5
    alpha: 0.0001
    beta: 0.75
  }
}
layer {
  name: "pool2"
  type: "Pooling"
  bottom: "norm2"
  top: "pool2"
  pooling_param {
    pool: MAX
    kernel_size: 3
    stride: 2
  }
}
layer {
  name: "conv3"
  type: "Convolution"
  bottom: "pool2"
  top: "conv3"
  param {
    lr_mult: 1
    decay_mult: 1
  }
  param {
    lr_mult: 2
    decay_mult: 0
  }
  convolution_param {
    num_output: 384
    pad: 1
    kernel_size: 3
    weight_filler {
      type: "gaussian"
      std: 0.01
    }
    bias_filler {
      type: "constant"
      value: 0
    }
  }
}
layer {
  name: "relu3"
  type: "ReLU"
  bottom: "conv3"
  top: "conv3"
}
layer {
  name: "conv4"
  type: "Convolution"
  bottom: "conv3"
  top: "conv4"
  param {
    lr_mult: 1
    decay_mult: 1
  }
  param {
    lr_mult: 2
    decay_mult: 0
  }
  convolution_param {
    num_output: 384
    pad: 1
    kernel_size: 3
    group: 2
    weight_filler {
      type: "gaussian"
      std: 0.01
    }
    bias_filler {
      type: "constant"
      value: 0.1
    }
  }
}
layer {
  name: "relu4"
  type: "ReLU"
  bottom: "conv4"
  top: "conv4"
}
layer {
  name: "conv5"
  type: "Convolution"
  bottom: "conv4"
  top: "conv5"
  param {
    lr_mult: 1
    decay_mult: 1
  }
  param {
    lr_mult: 2
    decay_mult: 0
  }
  convolution_param {
    num_output: 256
    pad: 1
    kernel_size: 3
    group: 2
    weight_filler {
      type: "gaussian"
      std: 0.01
    }
    bias_filler {
      type: "constant"
      value: 0.1
    }
  }
}
layer {
  name: "relu5"
  type: "ReLU"
  bottom: "conv5"
  top: "conv5"
}
layer {
  name: "pool5"
  type: "Pooling"
  bottom: "conv5"
  top: "pool5"
  pooling_param {
    pool: MAX
    kernel_size: 3
    stride: 2
  }
}
layer {
  name: "fc6"
  type: "InnerProduct"
  bottom: "pool5"
  top: "fc6"
  param {
    lr_mult: 1
    decay_mult: 1
  }
  param {
    lr_mult: 2
    decay_mult: 0
  }
  inner_product_param {
    num_output: 4096
    weight_filler {
      type: "gaussian"
      std: 0.005
    }
    bias_filler {
      type: "constant"
      value: 0.1
    }
  }
}
layer {
  name: "relu6"
  type: "ReLU"
  bottom: "fc6"
  top: "fc6"
}
layer {
  name: "drop6"
  type: "Dropout"
  bottom: "fc6"
  top: "fc6"
  dropout_param {
    dropout_ratio: 0.5
  }
}
layer {
  name: "fc7"
  type: "InnerProduct"
  bottom: "fc6"
  top: "fc7"
  param {
    lr_mult: 1
    decay_mult: 1
  }
  param {
    lr_mult: 2
    decay_mult: 0
  }
  inner_product_param {
    num_output: 4096
    weight_filler {
      type: "gaussian"
      std: 0.005
    }
    bias_filler {
      type: "constant"
      value: 0.1
    }
  }
}
layer {
  name: "relu7"
  type: "ReLU"
  bottom: "fc7"
  top: "fc7"
}
layer {
  name: "drop7"
  type: "Dropout"
  bottom: "fc7"
  top: "fc7"
  dropout_param {
    dropout_ratio: 0.5
  }
}
layer {
  name: "fc8_plantvillage"
  type: "InnerProduct"
  bottom: "fc7"
  top: "fc8_plantvillage"
  param {
    lr_mult: 1
    decay_mult: 1
  }
  param {
    lr_mult: 2
    decay_mult: 0
  }
  inner_product_param {
    num_output: 38
    weight_filler {
      type: "gaussian"
      std: 0.01
    }
    bias_filler {
      type: "constant"
      value: 0
    }
  }
}
layer {
  name: "prob"
  type: "Softmax"
  bottom: "fc8_plantvillage"
  top: "prob"
  include {
    phase: TEST
  }
}
layer {
  name: "hdf5out"
  type: "HDF5Output"
  bottom: "prob"
  bottom: "label"
  include {
    phase: TEST
  }
  hdf5_output_param {
    file_name: "hdf5_dumps/iter_7532.h5"
  }
}
layer {
  name: "loss"
  type: "SoftmaxWithLoss"
  bottom: "fc8_plantvillage"
  bottom: "label"
  top: "loss"
}
layer {
  name: "accuracy"
  type: "Accuracy"
  bottom: "fc8_plantvillage"
  bottom: "label"
  top: "accuracy"
  include {
    phase: TEST
  }
}
I0403 13:18:50.795145 27763 layer_factory.hpp:77] Creating layer data
I0403 13:18:50.795814 27763 net.cpp:91] Creating Layer data
I0403 13:18:50.795848 27763 net.cpp:399] data -> data
I0403 13:18:50.795904 27763 net.cpp:399] data -> label
I0403 13:18:50.795944 27763 data_transformer.cpp:25] Loading mean file from: /home/mohanty/data/final_dataset/lmdb/color-50-50/mean.binaryproto
I0403 13:18:50.798655 27768 db_lmdb.cpp:38] Opened lmdb /home/mohanty/data/final_dataset/lmdb/color-50-50/test_db
I0403 13:18:50.810616 27763 data_layer.cpp:41] output data size: 100,3,227,227
I0403 13:18:50.931156 27763 net.cpp:141] Setting up data
I0403 13:18:50.931248 27763 net.cpp:148] Top shape: 100 3 227 227 (15458700)
I0403 13:18:50.931272 27763 net.cpp:148] Top shape: 100 (100)
I0403 13:18:50.931288 27763 net.cpp:156] Memory required for data: 61835200
I0403 13:18:50.931320 27763 layer_factory.hpp:77] Creating layer label_data_1_split
I0403 13:18:50.931349 27763 net.cpp:91] Creating Layer label_data_1_split
I0403 13:18:50.931367 27763 net.cpp:425] label_data_1_split <- label
I0403 13:18:50.931399 27763 net.cpp:399] label_data_1_split -> label_data_1_split_0
I0403 13:18:50.931427 27763 net.cpp:399] label_data_1_split -> label_data_1_split_1
I0403 13:18:50.931449 27763 net.cpp:399] label_data_1_split -> label_data_1_split_2
I0403 13:18:50.931510 27763 net.cpp:141] Setting up label_data_1_split
I0403 13:18:50.931535 27763 net.cpp:148] Top shape: 100 (100)
I0403 13:18:50.931552 27763 net.cpp:148] Top shape: 100 (100)
I0403 13:18:50.931571 27763 net.cpp:148] Top shape: 100 (100)
I0403 13:18:50.931586 27763 net.cpp:156] Memory required for data: 61836400
I0403 13:18:50.931602 27763 layer_factory.hpp:77] Creating layer conv1
I0403 13:18:50.931634 27763 net.cpp:91] Creating Layer conv1
I0403 13:18:50.931654 27763 net.cpp:425] conv1 <- data
I0403 13:18:50.931674 27763 net.cpp:399] conv1 -> conv1
I0403 13:18:51.085767 27763 net.cpp:141] Setting up conv1
I0403 13:18:51.085834 27763 net.cpp:148] Top shape: 100 96 55 55 (29040000)
I0403 13:18:51.085853 27763 net.cpp:156] Memory required for data: 177996400
I0403 13:18:51.085887 27763 layer_factory.hpp:77] Creating layer relu1
I0403 13:18:51.085916 27763 net.cpp:91] Creating Layer relu1
I0403 13:18:51.085937 27763 net.cpp:425] relu1 <- conv1
I0403 13:18:51.085957 27763 net.cpp:386] relu1 -> conv1 (in-place)
I0403 13:18:51.086230 27763 net.cpp:141] Setting up relu1
I0403 13:18:51.086257 27763 net.cpp:148] Top shape: 100 96 55 55 (29040000)
I0403 13:18:51.086274 27763 net.cpp:156] Memory required for data: 294156400
I0403 13:18:51.086323 27763 layer_factory.hpp:77] Creating layer norm1
I0403 13:18:51.086356 27763 net.cpp:91] Creating Layer norm1
I0403 13:18:51.086375 27763 net.cpp:425] norm1 <- conv1
I0403 13:18:51.086395 27763 net.cpp:399] norm1 -> norm1
I0403 13:18:51.086704 27763 net.cpp:141] Setting up norm1
I0403 13:18:51.086732 27763 net.cpp:148] Top shape: 100 96 55 55 (29040000)
I0403 13:18:51.086750 27763 net.cpp:156] Memory required for data: 410316400
I0403 13:18:51.086765 27763 layer_factory.hpp:77] Creating layer pool1
I0403 13:18:51.086827 27763 net.cpp:91] Creating Layer pool1
I0403 13:18:51.086850 27763 net.cpp:425] pool1 <- norm1
I0403 13:18:51.086869 27763 net.cpp:399] pool1 -> pool1
I0403 13:18:51.086937 27763 net.cpp:141] Setting up pool1
I0403 13:18:51.086963 27763 net.cpp:148] Top shape: 100 96 27 27 (6998400)
I0403 13:18:51.086978 27763 net.cpp:156] Memory required for data: 438310000
I0403 13:18:51.086995 27763 layer_factory.hpp:77] Creating layer conv2
I0403 13:18:51.087020 27763 net.cpp:91] Creating Layer conv2
I0403 13:18:51.087038 27763 net.cpp:425] conv2 <- pool1
I0403 13:18:51.087056 27763 net.cpp:399] conv2 -> conv2
I0403 13:18:51.102251 27763 net.cpp:141] Setting up conv2
I0403 13:18:51.102313 27763 net.cpp:148] Top shape: 100 256 27 27 (18662400)
I0403 13:18:51.102332 27763 net.cpp:156] Memory required for data: 512959600
I0403 13:18:51.102362 27763 layer_factory.hpp:77] Creating layer relu2
I0403 13:18:51.102386 27763 net.cpp:91] Creating Layer relu2
I0403 13:18:51.102404 27763 net.cpp:425] relu2 <- conv2
I0403 13:18:51.102427 27763 net.cpp:386] relu2 -> conv2 (in-place)
I0403 13:18:51.102771 27763 net.cpp:141] Setting up relu2
I0403 13:18:51.102798 27763 net.cpp:148] Top shape: 100 256 27 27 (18662400)
I0403 13:18:51.102814 27763 net.cpp:156] Memory required for data: 587609200
I0403 13:18:51.102830 27763 layer_factory.hpp:77] Creating layer norm2
I0403 13:18:51.102854 27763 net.cpp:91] Creating Layer norm2
I0403 13:18:51.102872 27763 net.cpp:425] norm2 <- conv2
I0403 13:18:51.102892 27763 net.cpp:399] norm2 -> norm2
I0403 13:18:51.103088 27763 net.cpp:141] Setting up norm2
I0403 13:18:51.103116 27763 net.cpp:148] Top shape: 100 256 27 27 (18662400)
I0403 13:18:51.103133 27763 net.cpp:156] Memory required for data: 662258800
I0403 13:18:51.103149 27763 layer_factory.hpp:77] Creating layer pool2
I0403 13:18:51.103168 27763 net.cpp:91] Creating Layer pool2
I0403 13:18:51.103185 27763 net.cpp:425] pool2 <- norm2
I0403 13:18:51.103206 27763 net.cpp:399] pool2 -> pool2
I0403 13:18:51.103260 27763 net.cpp:141] Setting up pool2
I0403 13:18:51.103283 27763 net.cpp:148] Top shape: 100 256 13 13 (4326400)
I0403 13:18:51.103299 27763 net.cpp:156] Memory required for data: 679564400
I0403 13:18:51.103315 27763 layer_factory.hpp:77] Creating layer conv3
I0403 13:18:51.103339 27763 net.cpp:91] Creating Layer conv3
I0403 13:18:51.103364 27763 net.cpp:425] conv3 <- pool2
I0403 13:18:51.103384 27763 net.cpp:399] conv3 -> conv3
I0403 13:18:51.147320 27763 net.cpp:141] Setting up conv3
I0403 13:18:51.147398 27763 net.cpp:148] Top shape: 100 384 13 13 (6489600)
I0403 13:18:51.147418 27763 net.cpp:156] Memory required for data: 705522800
I0403 13:18:51.147445 27763 layer_factory.hpp:77] Creating layer relu3
I0403 13:18:51.147469 27763 net.cpp:91] Creating Layer relu3
I0403 13:18:51.147487 27763 net.cpp:425] relu3 <- conv3
I0403 13:18:51.147511 27763 net.cpp:386] relu3 -> conv3 (in-place)
I0403 13:18:51.147802 27763 net.cpp:141] Setting up relu3
I0403 13:18:51.147832 27763 net.cpp:148] Top shape: 100 384 13 13 (6489600)
I0403 13:18:51.147850 27763 net.cpp:156] Memory required for data: 731481200
I0403 13:18:51.147869 27763 layer_factory.hpp:77] Creating layer conv4
I0403 13:18:51.147897 27763 net.cpp:91] Creating Layer conv4
I0403 13:18:51.147915 27763 net.cpp:425] conv4 <- conv3
I0403 13:18:51.147936 27763 net.cpp:399] conv4 -> conv4
I0403 13:18:51.178740 27763 net.cpp:141] Setting up conv4
I0403 13:18:51.178807 27763 net.cpp:148] Top shape: 100 384 13 13 (6489600)
I0403 13:18:51.178859 27763 net.cpp:156] Memory required for data: 757439600
I0403 13:18:51.178884 27763 layer_factory.hpp:77] Creating layer relu4
I0403 13:18:51.178910 27763 net.cpp:91] Creating Layer relu4
I0403 13:18:51.178930 27763 net.cpp:425] relu4 <- conv4
I0403 13:18:51.178979 27763 net.cpp:386] relu4 -> conv4 (in-place)
I0403 13:18:51.179270 27763 net.cpp:141] Setting up relu4
I0403 13:18:51.179299 27763 net.cpp:148] Top shape: 100 384 13 13 (6489600)
I0403 13:18:51.179316 27763 net.cpp:156] Memory required for data: 783398000
I0403 13:18:51.179332 27763 layer_factory.hpp:77] Creating layer conv5
I0403 13:18:51.179365 27763 net.cpp:91] Creating Layer conv5
I0403 13:18:51.179385 27763 net.cpp:425] conv5 <- conv4
I0403 13:18:51.179406 27763 net.cpp:399] conv5 -> conv5
I0403 13:18:51.200271 27763 net.cpp:141] Setting up conv5
I0403 13:18:51.200341 27763 net.cpp:148] Top shape: 100 256 13 13 (4326400)
I0403 13:18:51.200367 27763 net.cpp:156] Memory required for data: 800703600
I0403 13:18:51.200402 27763 layer_factory.hpp:77] Creating layer relu5
I0403 13:18:51.200428 27763 net.cpp:91] Creating Layer relu5
I0403 13:18:51.200446 27763 net.cpp:425] relu5 <- conv5
I0403 13:18:51.200470 27763 net.cpp:386] relu5 -> conv5 (in-place)
I0403 13:18:51.200769 27763 net.cpp:141] Setting up relu5
I0403 13:18:51.200798 27763 net.cpp:148] Top shape: 100 256 13 13 (4326400)
I0403 13:18:51.200815 27763 net.cpp:156] Memory required for data: 818009200
I0403 13:18:51.200831 27763 layer_factory.hpp:77] Creating layer pool5
I0403 13:18:51.200855 27763 net.cpp:91] Creating Layer pool5
I0403 13:18:51.200873 27763 net.cpp:425] pool5 <- conv5
I0403 13:18:51.200897 27763 net.cpp:399] pool5 -> pool5
I0403 13:18:51.200961 27763 net.cpp:141] Setting up pool5
I0403 13:18:51.200986 27763 net.cpp:148] Top shape: 100 256 6 6 (921600)
I0403 13:18:51.201004 27763 net.cpp:156] Memory required for data: 821695600
I0403 13:18:51.201020 27763 layer_factory.hpp:77] Creating layer fc6
I0403 13:18:51.201052 27763 net.cpp:91] Creating Layer fc6
I0403 13:18:51.201072 27763 net.cpp:425] fc6 <- pool5
I0403 13:18:51.201094 27763 net.cpp:399] fc6 -> fc6
I0403 13:18:52.782232 27763 net.cpp:141] Setting up fc6
I0403 13:18:52.782291 27763 net.cpp:148] Top shape: 100 4096 (409600)
I0403 13:18:52.782307 27763 net.cpp:156] Memory required for data: 823334000
I0403 13:18:52.782330 27763 layer_factory.hpp:77] Creating layer relu6
I0403 13:18:52.782361 27763 net.cpp:91] Creating Layer relu6
I0403 13:18:52.782382 27763 net.cpp:425] relu6 <- fc6
I0403 13:18:52.782402 27763 net.cpp:386] relu6 -> fc6 (in-place)
I0403 13:18:52.782620 27763 net.cpp:141] Setting up relu6
I0403 13:18:52.782647 27763 net.cpp:148] Top shape: 100 4096 (409600)
I0403 13:18:52.782663 27763 net.cpp:156] Memory required for data: 824972400
I0403 13:18:52.782680 27763 layer_factory.hpp:77] Creating layer drop6
I0403 13:18:52.782698 27763 net.cpp:91] Creating Layer drop6
I0403 13:18:52.782714 27763 net.cpp:425] drop6 <- fc6
I0403 13:18:52.782732 27763 net.cpp:386] drop6 -> fc6 (in-place)
I0403 13:18:52.782783 27763 net.cpp:141] Setting up drop6
I0403 13:18:52.782809 27763 net.cpp:148] Top shape: 100 4096 (409600)
I0403 13:18:52.782824 27763 net.cpp:156] Memory required for data: 826610800
I0403 13:18:52.782838 27763 layer_factory.hpp:77] Creating layer fc7
I0403 13:18:52.782860 27763 net.cpp:91] Creating Layer fc7
I0403 13:18:52.782876 27763 net.cpp:425] fc7 <- fc6
I0403 13:18:52.782896 27763 net.cpp:399] fc7 -> fc7
I0403 13:18:53.500331 27763 net.cpp:141] Setting up fc7
I0403 13:18:53.500382 27763 net.cpp:148] Top shape: 100 4096 (409600)
I0403 13:18:53.500401 27763 net.cpp:156] Memory required for data: 828249200
I0403 13:18:53.500424 27763 layer_factory.hpp:77] Creating layer relu7
I0403 13:18:53.500449 27763 net.cpp:91] Creating Layer relu7
I0403 13:18:53.500470 27763 net.cpp:425] relu7 <- fc7
I0403 13:18:53.500497 27763 net.cpp:386] relu7 -> fc7 (in-place)
I0403 13:18:53.500901 27763 net.cpp:141] Setting up relu7
I0403 13:18:53.500931 27763 net.cpp:148] Top shape: 100 4096 (409600)
I0403 13:18:53.500972 27763 net.cpp:156] Memory required for data: 829887600
I0403 13:18:53.500989 27763 layer_factory.hpp:77] Creating layer drop7
I0403 13:18:53.501013 27763 net.cpp:91] Creating Layer drop7
I0403 13:18:53.501031 27763 net.cpp:425] drop7 <- fc7
I0403 13:18:53.501054 27763 net.cpp:386] drop7 -> fc7 (in-place)
I0403 13:18:53.501099 27763 net.cpp:141] Setting up drop7
I0403 13:18:53.501123 27763 net.cpp:148] Top shape: 100 4096 (409600)
I0403 13:18:53.501139 27763 net.cpp:156] Memory required for data: 831526000
I0403 13:18:53.501155 27763 layer_factory.hpp:77] Creating layer fc8_plantvillage
I0403 13:18:53.501179 27763 net.cpp:91] Creating Layer fc8_plantvillage
I0403 13:18:53.501199 27763 net.cpp:425] fc8_plantvillage <- fc7
I0403 13:18:53.501221 27763 net.cpp:399] fc8_plantvillage -> fc8_plantvillage
I0403 13:18:53.508072 27763 net.cpp:141] Setting up fc8_plantvillage
I0403 13:18:53.508103 27763 net.cpp:148] Top shape: 100 38 (3800)
I0403 13:18:53.508121 27763 net.cpp:156] Memory required for data: 831541200
I0403 13:18:53.508141 27763 layer_factory.hpp:77] Creating layer fc8_plantvillage_fc8_plantvillage_0_split
I0403 13:18:53.508162 27763 net.cpp:91] Creating Layer fc8_plantvillage_fc8_plantvillage_0_split
I0403 13:18:53.508178 27763 net.cpp:425] fc8_plantvillage_fc8_plantvillage_0_split <- fc8_plantvillage
I0403 13:18:53.508199 27763 net.cpp:399] fc8_plantvillage_fc8_plantvillage_0_split -> fc8_plantvillage_fc8_plantvillage_0_split_0
I0403 13:18:53.508222 27763 net.cpp:399] fc8_plantvillage_fc8_plantvillage_0_split -> fc8_plantvillage_fc8_plantvillage_0_split_1
I0403 13:18:53.508244 27763 net.cpp:399] fc8_plantvillage_fc8_plantvillage_0_split -> fc8_plantvillage_fc8_plantvillage_0_split_2
I0403 13:18:53.508334 27763 net.cpp:141] Setting up fc8_plantvillage_fc8_plantvillage_0_split
I0403 13:18:53.508366 27763 net.cpp:148] Top shape: 100 38 (3800)
I0403 13:18:53.508385 27763 net.cpp:148] Top shape: 100 38 (3800)
I0403 13:18:53.508402 27763 net.cpp:148] Top shape: 100 38 (3800)
I0403 13:18:53.508417 27763 net.cpp:156] Memory required for data: 831586800
I0403 13:18:53.508433 27763 layer_factory.hpp:77] Creating layer prob
I0403 13:18:53.508452 27763 net.cpp:91] Creating Layer prob
I0403 13:18:53.508469 27763 net.cpp:425] prob <- fc8_plantvillage_fc8_plantvillage_0_split_0
I0403 13:18:53.508491 27763 net.cpp:399] prob -> prob
I0403 13:18:53.508716 27763 net.cpp:141] Setting up prob
I0403 13:18:53.508746 27763 net.cpp:148] Top shape: 100 38 (3800)
I0403 13:18:53.508764 27763 net.cpp:156] Memory required for data: 831602000
I0403 13:18:53.508780 27763 layer_factory.hpp:77] Creating layer hdf5out
I0403 13:18:53.508800 27763 net.cpp:91] Creating Layer hdf5out
I0403 13:18:53.508816 27763 net.cpp:425] hdf5out <- prob
I0403 13:18:53.508833 27763 net.cpp:425] hdf5out <- label_data_1_split_0
I0403 13:18:53.513314 27763 net.cpp:141] Setting up hdf5out
…
