…
I0403 13:13:09.989073 27601 net.cpp:313] The NetState phase (1) differed from the phase (0) specified by a rule in layer data
I0403 13:13:09.989403 27601 net.cpp:49] Initializing net from parameters: 
state {
  phase: TEST
}
layer {
  name: "data"
  type: "Data"
  top: "data"
  top: "label"
  include {
    phase: TEST
  }
  transform_param {
    crop_size: 227
    mean_file: "/home/mohanty/data/final_dataset/lmdb/color-50-50/mean.binaryproto"
  }
  data_param {
    source: "/home/mohanty/data/final_dataset/lmdb/color-50-50/test_db"
    batch_size: 100
    backend: LMDB
  }
}
layer {
  name: "conv1"
  type: "Convolution"
  bottom: "data"
  top: "conv1"
  param {
    lr_mult: 1
    decay_mult: 1
  }
  param {
    lr_mult: 2
    decay_mult: 0
  }
  convolution_param {
    num_output: 96
    kernel_size: 11
    stride: 4
    weight_filler {
      type: "gaussian"
      std: 0.01
    }
    bias_filler {
      type: "constant"
      value: 0
    }
  }
}
layer {
  name: "relu1"
  type: "ReLU"
  bottom: "conv1"
  top: "conv1"
}
layer {
  name: "norm1"
  type: "LRN"
  bottom: "conv1"
  top: "norm1"
  lrn_param {
    local_size: 5
    alpha: 0.0001
    beta: 0.75
  }
}
layer {
  name: "pool1"
  type: "Pooling"
  bottom: "norm1"
  top: "pool1"
  pooling_param {
    pool: MAX
    kernel_size: 3
    stride: 2
  }
}
layer {
  name: "conv2"
  type: "Convolution"
  bottom: "pool1"
  top: "conv2"
  param {
    lr_mult: 1
    decay_mult: 1
  }
  param {
    lr_mult: 2
    decay_mult: 0
  }
  convolution_param {
    num_output: 256
    pad: 2
    kernel_size: 5
    group: 2
    weight_filler {
      type: "gaussian"
      std: 0.01
    }
    bias_filler {
      type: "constant"
      value: 0.1
    }
  }
}
layer {
  name: "relu2"
  type: "ReLU"
  bottom: "conv2"
  top: "conv2"
}
layer {
  name: "norm2"
  type: "LRN"
  bottom: "conv2"
  top: "norm2"
  lrn_param {
    local_size: 5
    alpha: 0.0001
    beta: 0.75
  }
}
layer {
  name: "pool2"
  type: "Pooling"
  bottom: "norm2"
  top: "pool2"
  pooling_param {
    pool: MAX
    kernel_size: 3
    stride: 2
  }
}
layer {
  name: "conv3"
  type: "Convolution"
  bottom: "pool2"
  top: "conv3"
  param {
    lr_mult: 1
    decay_mult: 1
  }
  param {
    lr_mult: 2
    decay_mult: 0
  }
  convolution_param {
    num_output: 384
    pad: 1
    kernel_size: 3
    weight_filler {
      type: "gaussian"
      std: 0.01
    }
    bias_filler {
      type: "constant"
      value: 0
    }
  }
}
layer {
  name: "relu3"
  type: "ReLU"
  bottom: "conv3"
  top: "conv3"
}
layer {
  name: "conv4"
  type: "Convolution"
  bottom: "conv3"
  top: "conv4"
  param {
    lr_mult: 1
    decay_mult: 1
  }
  param {
    lr_mult: 2
    decay_mult: 0
  }
  convolution_param {
    num_output: 384
    pad: 1
    kernel_size: 3
    group: 2
    weight_filler {
      type: "gaussian"
      std: 0.01
    }
    bias_filler {
      type: "constant"
      value: 0.1
    }
  }
}
layer {
  name: "relu4"
  type: "ReLU"
  bottom: "conv4"
  top: "conv4"
}
layer {
  name: "conv5"
  type: "Convolution"
  bottom: "conv4"
  top: "conv5"
  param {
    lr_mult: 1
    decay_mult: 1
  }
  param {
    lr_mult: 2
    decay_mult: 0
  }
  convolution_param {
    num_output: 256
    pad: 1
    kernel_size: 3
    group: 2
    weight_filler {
      type: "gaussian"
      std: 0.01
    }
    bias_filler {
      type: "constant"
      value: 0.1
    }
  }
}
layer {
  name: "relu5"
  type: "ReLU"
  bottom: "conv5"
  top: "conv5"
}
layer {
  name: "pool5"
  type: "Pooling"
  bottom: "conv5"
  top: "pool5"
  pooling_param {
    pool: MAX
    kernel_size: 3
    stride: 2
  }
}
layer {
  name: "fc6"
  type: "InnerProduct"
  bottom: "pool5"
  top: "fc6"
  param {
    lr_mult: 1
    decay_mult: 1
  }
  param {
    lr_mult: 2
    decay_mult: 0
  }
  inner_product_param {
    num_output: 4096
    weight_filler {
      type: "gaussian"
      std: 0.005
    }
    bias_filler {
      type: "constant"
      value: 0.1
    }
  }
}
layer {
  name: "relu6"
  type: "ReLU"
  bottom: "fc6"
  top: "fc6"
}
layer {
  name: "drop6"
  type: "Dropout"
  bottom: "fc6"
  top: "fc6"
  dropout_param {
    dropout_ratio: 0.5
  }
}
layer {
  name: "fc7"
  type: "InnerProduct"
  bottom: "fc6"
  top: "fc7"
  param {
    lr_mult: 1
    decay_mult: 1
  }
  param {
    lr_mult: 2
    decay_mult: 0
  }
  inner_product_param {
    num_output: 4096
    weight_filler {
      type: "gaussian"
      std: 0.005
    }
    bias_filler {
      type: "constant"
      value: 0.1
    }
  }
}
layer {
  name: "relu7"
  type: "ReLU"
  bottom: "fc7"
  top: "fc7"
}
layer {
  name: "drop7"
  type: "Dropout"
  bottom: "fc7"
  top: "fc7"
  dropout_param {
    dropout_ratio: 0.5
  }
}
layer {
  name: "fc8_plantvillage"
  type: "InnerProduct"
  bottom: "fc7"
  top: "fc8_plantvillage"
  param {
    lr_mult: 1
    decay_mult: 1
  }
  param {
    lr_mult: 2
    decay_mult: 0
  }
  inner_product_param {
    num_output: 38
    weight_filler {
      type: "gaussian"
      std: 0.01
    }
    bias_filler {
      type: "constant"
      value: 0
    }
  }
}
layer {
  name: "prob"
  type: "Softmax"
  bottom: "fc8_plantvillage"
  top: "prob"
  include {
    phase: TEST
  }
}
layer {
  name: "hdf5out"
  type: "HDF5Output"
  bottom: "prob"
  bottom: "label"
  include {
    phase: TEST
  }
  hdf5_output_param {
    file_name: "hdf5_dumps/iter_5918.h5"
  }
}
layer {
  name: "loss"
  type: "SoftmaxWithLoss"
  bottom: "fc8_plantvillage"
  bottom: "label"
  top: "loss"
}
layer {
  name: "accuracy"
  type: "Accuracy"
  bottom: "fc8_plantvillage"
  bottom: "label"
  top: "accuracy"
  include {
    phase: TEST
  }
}
I0403 13:13:09.989933 27601 layer_factory.hpp:77] Creating layer data
I0403 13:13:09.990671 27601 net.cpp:91] Creating Layer data
I0403 13:13:09.990707 27601 net.cpp:399] data -> data
I0403 13:13:09.990761 27601 net.cpp:399] data -> label
I0403 13:13:09.990802 27601 data_transformer.cpp:25] Loading mean file from: /home/mohanty/data/final_dataset/lmdb/color-50-50/mean.binaryproto
I0403 13:13:09.993815 27605 db_lmdb.cpp:38] Opened lmdb /home/mohanty/data/final_dataset/lmdb/color-50-50/test_db
I0403 13:13:10.007557 27601 data_layer.cpp:41] output data size: 100,3,227,227
I0403 13:13:10.147657 27601 net.cpp:141] Setting up data
I0403 13:13:10.147763 27601 net.cpp:148] Top shape: 100 3 227 227 (15458700)
I0403 13:13:10.147791 27601 net.cpp:148] Top shape: 100 (100)
I0403 13:13:10.147810 27601 net.cpp:156] Memory required for data: 61835200
I0403 13:13:10.147842 27601 layer_factory.hpp:77] Creating layer label_data_1_split
I0403 13:13:10.147873 27601 net.cpp:91] Creating Layer label_data_1_split
I0403 13:13:10.147896 27601 net.cpp:425] label_data_1_split <- label
I0403 13:13:10.147933 27601 net.cpp:399] label_data_1_split -> label_data_1_split_0
I0403 13:13:10.147965 27601 net.cpp:399] label_data_1_split -> label_data_1_split_1
I0403 13:13:10.147990 27601 net.cpp:399] label_data_1_split -> label_data_1_split_2
I0403 13:13:10.148066 27601 net.cpp:141] Setting up label_data_1_split
I0403 13:13:10.148093 27601 net.cpp:148] Top shape: 100 (100)
I0403 13:13:10.148114 27601 net.cpp:148] Top shape: 100 (100)
I0403 13:13:10.148133 27601 net.cpp:148] Top shape: 100 (100)
I0403 13:13:10.148150 27601 net.cpp:156] Memory required for data: 61836400
I0403 13:13:10.148169 27601 layer_factory.hpp:77] Creating layer conv1
I0403 13:13:10.148207 27601 net.cpp:91] Creating Layer conv1
I0403 13:13:10.148231 27601 net.cpp:425] conv1 <- data
I0403 13:13:10.148254 27601 net.cpp:399] conv1 -> conv1
I0403 13:13:10.311717 27601 net.cpp:141] Setting up conv1
I0403 13:13:10.311802 27601 net.cpp:148] Top shape: 100 96 55 55 (29040000)
I0403 13:13:10.311823 27601 net.cpp:156] Memory required for data: 177996400
I0403 13:13:10.311861 27601 layer_factory.hpp:77] Creating layer relu1
I0403 13:13:10.311893 27601 net.cpp:91] Creating Layer relu1
I0403 13:13:10.311915 27601 net.cpp:425] relu1 <- conv1
I0403 13:13:10.311938 27601 net.cpp:386] relu1 -> conv1 (in-place)
I0403 13:13:10.312243 27601 net.cpp:141] Setting up relu1
I0403 13:13:10.312275 27601 net.cpp:148] Top shape: 100 96 55 55 (29040000)
I0403 13:13:10.312294 27601 net.cpp:156] Memory required for data: 294156400
I0403 13:13:10.312355 27601 layer_factory.hpp:77] Creating layer norm1
I0403 13:13:10.312391 27601 net.cpp:91] Creating Layer norm1
I0403 13:13:10.312412 27601 net.cpp:425] norm1 <- conv1
I0403 13:13:10.312434 27601 net.cpp:399] norm1 -> norm1
I0403 13:13:10.312805 27601 net.cpp:141] Setting up norm1
I0403 13:13:10.312839 27601 net.cpp:148] Top shape: 100 96 55 55 (29040000)
I0403 13:13:10.312858 27601 net.cpp:156] Memory required for data: 410316400
I0403 13:13:10.312877 27601 layer_factory.hpp:77] Creating layer pool1
I0403 13:13:10.312906 27601 net.cpp:91] Creating Layer pool1
I0403 13:13:10.312927 27601 net.cpp:425] pool1 <- norm1
I0403 13:13:10.312948 27601 net.cpp:399] pool1 -> pool1
I0403 13:13:10.313026 27601 net.cpp:141] Setting up pool1
I0403 13:13:10.313055 27601 net.cpp:148] Top shape: 100 96 27 27 (6998400)
I0403 13:13:10.313074 27601 net.cpp:156] Memory required for data: 438310000
I0403 13:13:10.313092 27601 layer_factory.hpp:77] Creating layer conv2
I0403 13:13:10.313122 27601 net.cpp:91] Creating Layer conv2
I0403 13:13:10.313143 27601 net.cpp:425] conv2 <- pool1
I0403 13:13:10.313163 27601 net.cpp:399] conv2 -> conv2
I0403 13:13:10.331465 27601 net.cpp:141] Setting up conv2
I0403 13:13:10.331548 27601 net.cpp:148] Top shape: 100 256 27 27 (18662400)
I0403 13:13:10.331569 27601 net.cpp:156] Memory required for data: 512959600
I0403 13:13:10.331601 27601 layer_factory.hpp:77] Creating layer relu2
I0403 13:13:10.331629 27601 net.cpp:91] Creating Layer relu2
I0403 13:13:10.331650 27601 net.cpp:425] relu2 <- conv2
I0403 13:13:10.331676 27601 net.cpp:386] relu2 -> conv2 (in-place)
I0403 13:13:10.332027 27601 net.cpp:141] Setting up relu2
I0403 13:13:10.332062 27601 net.cpp:148] Top shape: 100 256 27 27 (18662400)
I0403 13:13:10.332082 27601 net.cpp:156] Memory required for data: 587609200
I0403 13:13:10.332101 27601 layer_factory.hpp:77] Creating layer norm2
I0403 13:13:10.332132 27601 net.cpp:91] Creating Layer norm2
I0403 13:13:10.332154 27601 net.cpp:425] norm2 <- conv2
I0403 13:13:10.332180 27601 net.cpp:399] norm2 -> norm2
I0403 13:13:10.332423 27601 net.cpp:141] Setting up norm2
I0403 13:13:10.332455 27601 net.cpp:148] Top shape: 100 256 27 27 (18662400)
I0403 13:13:10.332474 27601 net.cpp:156] Memory required for data: 662258800
I0403 13:13:10.332492 27601 layer_factory.hpp:77] Creating layer pool2
I0403 13:13:10.332516 27601 net.cpp:91] Creating Layer pool2
I0403 13:13:10.332535 27601 net.cpp:425] pool2 <- norm2
I0403 13:13:10.332559 27601 net.cpp:399] pool2 -> pool2
I0403 13:13:10.332626 27601 net.cpp:141] Setting up pool2
I0403 13:13:10.332655 27601 net.cpp:148] Top shape: 100 256 13 13 (4326400)
I0403 13:13:10.332674 27601 net.cpp:156] Memory required for data: 679564400
I0403 13:13:10.332691 27601 layer_factory.hpp:77] Creating layer conv3
I0403 13:13:10.332727 27601 net.cpp:91] Creating Layer conv3
I0403 13:13:10.332752 27601 net.cpp:425] conv3 <- pool2
I0403 13:13:10.332774 27601 net.cpp:399] conv3 -> conv3
I0403 13:13:10.378538 27601 net.cpp:141] Setting up conv3
I0403 13:13:10.378598 27601 net.cpp:148] Top shape: 100 384 13 13 (6489600)
I0403 13:13:10.378619 27601 net.cpp:156] Memory required for data: 705522800
I0403 13:13:10.378650 27601 layer_factory.hpp:77] Creating layer relu3
I0403 13:13:10.378677 27601 net.cpp:91] Creating Layer relu3
I0403 13:13:10.378698 27601 net.cpp:425] relu3 <- conv3
I0403 13:13:10.378725 27601 net.cpp:386] relu3 -> conv3 (in-place)
I0403 13:13:10.379048 27601 net.cpp:141] Setting up relu3
I0403 13:13:10.379081 27601 net.cpp:148] Top shape: 100 384 13 13 (6489600)
I0403 13:13:10.379101 27601 net.cpp:156] Memory required for data: 731481200
I0403 13:13:10.379119 27601 layer_factory.hpp:77] Creating layer conv4
I0403 13:13:10.379151 27601 net.cpp:91] Creating Layer conv4
I0403 13:13:10.379173 27601 net.cpp:425] conv4 <- conv3
I0403 13:13:10.379199 27601 net.cpp:399] conv4 -> conv4
I0403 13:13:10.414654 27601 net.cpp:141] Setting up conv4
I0403 13:13:10.414698 27601 net.cpp:148] Top shape: 100 384 13 13 (6489600)
I0403 13:13:10.414752 27601 net.cpp:156] Memory required for data: 757439600
I0403 13:13:10.414778 27601 layer_factory.hpp:77] Creating layer relu4
I0403 13:13:10.414801 27601 net.cpp:91] Creating Layer relu4
I0403 13:13:10.414820 27601 net.cpp:425] relu4 <- conv4
I0403 13:13:10.414845 27601 net.cpp:386] relu4 -> conv4 (in-place)
I0403 13:13:10.415170 27601 net.cpp:141] Setting up relu4
I0403 13:13:10.415207 27601 net.cpp:148] Top shape: 100 384 13 13 (6489600)
I0403 13:13:10.415228 27601 net.cpp:156] Memory required for data: 783398000
I0403 13:13:10.415248 27601 layer_factory.hpp:77] Creating layer conv5
I0403 13:13:10.415277 27601 net.cpp:91] Creating Layer conv5
I0403 13:13:10.415299 27601 net.cpp:425] conv5 <- conv4
I0403 13:13:10.415323 27601 net.cpp:399] conv5 -> conv5
I0403 13:13:10.439656 27601 net.cpp:141] Setting up conv5
I0403 13:13:10.439720 27601 net.cpp:148] Top shape: 100 256 13 13 (4326400)
I0403 13:13:10.439740 27601 net.cpp:156] Memory required for data: 800703600
I0403 13:13:10.439770 27601 layer_factory.hpp:77] Creating layer relu5
I0403 13:13:10.439795 27601 net.cpp:91] Creating Layer relu5
I0403 13:13:10.439815 27601 net.cpp:425] relu5 <- conv5
I0403 13:13:10.439842 27601 net.cpp:386] relu5 -> conv5 (in-place)
I0403 13:13:10.440172 27601 net.cpp:141] Setting up relu5
I0403 13:13:10.440204 27601 net.cpp:148] Top shape: 100 256 13 13 (4326400)
I0403 13:13:10.440223 27601 net.cpp:156] Memory required for data: 818009200
I0403 13:13:10.440243 27601 layer_factory.hpp:77] Creating layer pool5
I0403 13:13:10.440276 27601 net.cpp:91] Creating Layer pool5
I0403 13:13:10.440299 27601 net.cpp:425] pool5 <- conv5
I0403 13:13:10.440321 27601 net.cpp:399] pool5 -> pool5
I0403 13:13:10.440399 27601 net.cpp:141] Setting up pool5
I0403 13:13:10.440429 27601 net.cpp:148] Top shape: 100 256 6 6 (921600)
I0403 13:13:10.440448 27601 net.cpp:156] Memory required for data: 821695600
I0403 13:13:10.440464 27601 layer_factory.hpp:77] Creating layer fc6
I0403 13:13:10.440497 27601 net.cpp:91] Creating Layer fc6
I0403 13:13:10.440518 27601 net.cpp:425] fc6 <- pool5
I0403 13:13:10.440544 27601 net.cpp:399] fc6 -> fc6
I0403 13:13:12.059087 27601 net.cpp:141] Setting up fc6
I0403 13:13:12.059166 27601 net.cpp:148] Top shape: 100 4096 (409600)
I0403 13:13:12.059183 27601 net.cpp:156] Memory required for data: 823334000
I0403 13:13:12.059206 27601 layer_factory.hpp:77] Creating layer relu6
I0403 13:13:12.059231 27601 net.cpp:91] Creating Layer relu6
I0403 13:13:12.059248 27601 net.cpp:425] relu6 <- fc6
I0403 13:13:12.059270 27601 net.cpp:386] relu6 -> fc6 (in-place)
I0403 13:13:12.059497 27601 net.cpp:141] Setting up relu6
I0403 13:13:12.059522 27601 net.cpp:148] Top shape: 100 4096 (409600)
I0403 13:13:12.059536 27601 net.cpp:156] Memory required for data: 824972400
I0403 13:13:12.059552 27601 layer_factory.hpp:77] Creating layer drop6
I0403 13:13:12.059571 27601 net.cpp:91] Creating Layer drop6
I0403 13:13:12.059587 27601 net.cpp:425] drop6 <- fc6
I0403 13:13:12.059605 27601 net.cpp:386] drop6 -> fc6 (in-place)
I0403 13:13:12.059656 27601 net.cpp:141] Setting up drop6
I0403 13:13:12.059684 27601 net.cpp:148] Top shape: 100 4096 (409600)
I0403 13:13:12.059700 27601 net.cpp:156] Memory required for data: 826610800
I0403 13:13:12.059715 27601 layer_factory.hpp:77] Creating layer fc7
I0403 13:13:12.059733 27601 net.cpp:91] Creating Layer fc7
I0403 13:13:12.059749 27601 net.cpp:425] fc7 <- fc6
I0403 13:13:12.059768 27601 net.cpp:399] fc7 -> fc7
I0403 13:13:12.726661 27601 net.cpp:141] Setting up fc7
I0403 13:13:12.726742 27601 net.cpp:148] Top shape: 100 4096 (409600)
I0403 13:13:12.726758 27601 net.cpp:156] Memory required for data: 828249200
I0403 13:13:12.726778 27601 layer_factory.hpp:77] Creating layer relu7
I0403 13:13:12.726801 27601 net.cpp:91] Creating Layer relu7
I0403 13:13:12.726819 27601 net.cpp:425] relu7 <- fc7
I0403 13:13:12.726840 27601 net.cpp:386] relu7 -> fc7 (in-place)
I0403 13:13:12.727234 27601 net.cpp:141] Setting up relu7
I0403 13:13:12.727262 27601 net.cpp:148] Top shape: 100 4096 (409600)
I0403 13:13:12.727310 27601 net.cpp:156] Memory required for data: 829887600
I0403 13:13:12.727326 27601 layer_factory.hpp:77] Creating layer drop7
I0403 13:13:12.727344 27601 net.cpp:91] Creating Layer drop7
I0403 13:13:12.727365 27601 net.cpp:425] drop7 <- fc7
I0403 13:13:12.727385 27601 net.cpp:386] drop7 -> fc7 (in-place)
I0403 13:13:12.727427 27601 net.cpp:141] Setting up drop7
I0403 13:13:12.727449 27601 net.cpp:148] Top shape: 100 4096 (409600)
I0403 13:13:12.727464 27601 net.cpp:156] Memory required for data: 831526000
I0403 13:13:12.727479 27601 layer_factory.hpp:77] Creating layer fc8_plantvillage
I0403 13:13:12.727504 27601 net.cpp:91] Creating Layer fc8_plantvillage
I0403 13:13:12.727521 27601 net.cpp:425] fc8_plantvillage <- fc7
I0403 13:13:12.727540 27601 net.cpp:399] fc8_plantvillage -> fc8_plantvillage
I0403 13:13:12.734057 27601 net.cpp:141] Setting up fc8_plantvillage
I0403 13:13:12.734086 27601 net.cpp:148] Top shape: 100 38 (3800)
I0403 13:13:12.734102 27601 net.cpp:156] Memory required for data: 831541200
I0403 13:13:12.734119 27601 layer_factory.hpp:77] Creating layer fc8_plantvillage_fc8_plantvillage_0_split
I0403 13:13:12.734139 27601 net.cpp:91] Creating Layer fc8_plantvillage_fc8_plantvillage_0_split
I0403 13:13:12.734155 27601 net.cpp:425] fc8_plantvillage_fc8_plantvillage_0_split <- fc8_plantvillage
I0403 13:13:12.734175 27601 net.cpp:399] fc8_plantvillage_fc8_plantvillage_0_split -> fc8_plantvillage_fc8_plantvillage_0_split_0
I0403 13:13:12.734197 27601 net.cpp:399] fc8_plantvillage_fc8_plantvillage_0_split -> fc8_plantvillage_fc8_plantvillage_0_split_1
I0403 13:13:12.734216 27601 net.cpp:399] fc8_plantvillage_fc8_plantvillage_0_split -> fc8_plantvillage_fc8_plantvillage_0_split_2
I0403 13:13:12.734292 27601 net.cpp:141] Setting up fc8_plantvillage_fc8_plantvillage_0_split
I0403 13:13:12.734316 27601 net.cpp:148] Top shape: 100 38 (3800)
I0403 13:13:12.734333 27601 net.cpp:148] Top shape: 100 38 (3800)
I0403 13:13:12.734351 27601 net.cpp:148] Top shape: 100 38 (3800)
I0403 13:13:12.734366 27601 net.cpp:156] Memory required for data: 831586800
I0403 13:13:12.734380 27601 layer_factory.hpp:77] Creating layer prob
I0403 13:13:12.734400 27601 net.cpp:91] Creating Layer prob
I0403 13:13:12.734414 27601 net.cpp:425] prob <- fc8_plantvillage_fc8_plantvillage_0_split_0
I0403 13:13:12.734436 27601 net.cpp:399] prob -> prob
I0403 13:13:12.734653 27601 net.cpp:141] Setting up prob
I0403 13:13:12.734683 27601 net.cpp:148] Top shape: 100 38 (3800)
I0403 13:13:12.734697 27601 net.cpp:156] Memory required for data: 831602000
I0403 13:13:12.734712 27601 layer_factory.hpp:77] Creating layer hdf5out
I0403 13:13:12.734730 27601 net.cpp:91] Creating Layer hdf5out
I0403 13:13:12.734746 27601 net.cpp:425] hdf5out <- prob
I0403 13:13:12.734763 27601 net.cpp:425] hdf5out <- label_data_1_split_0
I0403 13:13:12.739611 27601 net.cpp:141] Setting up hdf5out
…
