…
I0403 13:12:11.111788 27576 net.cpp:313] The NetState phase (1) differed from the phase (0) specified by a rule in layer data
I0403 13:12:11.112104 27576 net.cpp:49] Initializing net from parameters: 
state {
  phase: TEST
}
layer {
  name: "data"
  type: "Data"
  top: "data"
  top: "label"
  include {
    phase: TEST
  }
  transform_param {
    crop_size: 227
    mean_file: "/home/mohanty/data/final_dataset/lmdb/color-50-50/mean.binaryproto"
  }
  data_param {
    source: "/home/mohanty/data/final_dataset/lmdb/color-50-50/test_db"
    batch_size: 100
    backend: LMDB
  }
}
layer {
  name: "conv1"
  type: "Convolution"
  bottom: "data"
  top: "conv1"
  param {
    lr_mult: 1
    decay_mult: 1
  }
  param {
    lr_mult: 2
    decay_mult: 0
  }
  convolution_param {
    num_output: 96
    kernel_size: 11
    stride: 4
    weight_filler {
      type: "gaussian"
      std: 0.01
    }
    bias_filler {
      type: "constant"
      value: 0
    }
  }
}
layer {
  name: "relu1"
  type: "ReLU"
  bottom: "conv1"
  top: "conv1"
}
layer {
  name: "norm1"
  type: "LRN"
  bottom: "conv1"
  top: "norm1"
  lrn_param {
    local_size: 5
    alpha: 0.0001
    beta: 0.75
  }
}
layer {
  name: "pool1"
  type: "Pooling"
  bottom: "norm1"
  top: "pool1"
  pooling_param {
    pool: MAX
    kernel_size: 3
    stride: 2
  }
}
layer {
  name: "conv2"
  type: "Convolution"
  bottom: "pool1"
  top: "conv2"
  param {
    lr_mult: 1
    decay_mult: 1
  }
  param {
    lr_mult: 2
    decay_mult: 0
  }
  convolution_param {
    num_output: 256
    pad: 2
    kernel_size: 5
    group: 2
    weight_filler {
      type: "gaussian"
      std: 0.01
    }
    bias_filler {
      type: "constant"
      value: 0.1
    }
  }
}
layer {
  name: "relu2"
  type: "ReLU"
  bottom: "conv2"
  top: "conv2"
}
layer {
  name: "norm2"
  type: "LRN"
  bottom: "conv2"
  top: "norm2"
  lrn_param {
    local_size: 5
    alpha: 0.0001
    beta: 0.75
  }
}
layer {
  name: "pool2"
  type: "Pooling"
  bottom: "norm2"
  top: "pool2"
  pooling_param {
    pool: MAX
    kernel_size: 3
    stride: 2
  }
}
layer {
  name: "conv3"
  type: "Convolution"
  bottom: "pool2"
  top: "conv3"
  param {
    lr_mult: 1
    decay_mult: 1
  }
  param {
    lr_mult: 2
    decay_mult: 0
  }
  convolution_param {
    num_output: 384
    pad: 1
    kernel_size: 3
    weight_filler {
      type: "gaussian"
      std: 0.01
    }
    bias_filler {
      type: "constant"
      value: 0
    }
  }
}
layer {
  name: "relu3"
  type: "ReLU"
  bottom: "conv3"
  top: "conv3"
}
layer {
  name: "conv4"
  type: "Convolution"
  bottom: "conv3"
  top: "conv4"
  param {
    lr_mult: 1
    decay_mult: 1
  }
  param {
    lr_mult: 2
    decay_mult: 0
  }
  convolution_param {
    num_output: 384
    pad: 1
    kernel_size: 3
    group: 2
    weight_filler {
      type: "gaussian"
      std: 0.01
    }
    bias_filler {
      type: "constant"
      value: 0.1
    }
  }
}
layer {
  name: "relu4"
  type: "ReLU"
  bottom: "conv4"
  top: "conv4"
}
layer {
  name: "conv5"
  type: "Convolution"
  bottom: "conv4"
  top: "conv5"
  param {
    lr_mult: 1
    decay_mult: 1
  }
  param {
    lr_mult: 2
    decay_mult: 0
  }
  convolution_param {
    num_output: 256
    pad: 1
    kernel_size: 3
    group: 2
    weight_filler {
      type: "gaussian"
      std: 0.01
    }
    bias_filler {
      type: "constant"
      value: 0.1
    }
  }
}
layer {
  name: "relu5"
  type: "ReLU"
  bottom: "conv5"
  top: "conv5"
}
layer {
  name: "pool5"
  type: "Pooling"
  bottom: "conv5"
  top: "pool5"
  pooling_param {
    pool: MAX
    kernel_size: 3
    stride: 2
  }
}
layer {
  name: "fc6"
  type: "InnerProduct"
  bottom: "pool5"
  top: "fc6"
  param {
    lr_mult: 1
    decay_mult: 1
  }
  param {
    lr_mult: 2
    decay_mult: 0
  }
  inner_product_param {
    num_output: 4096
    weight_filler {
      type: "gaussian"
      std: 0.005
    }
    bias_filler {
      type: "constant"
      value: 0.1
    }
  }
}
layer {
  name: "relu6"
  type: "ReLU"
  bottom: "fc6"
  top: "fc6"
}
layer {
  name: "drop6"
  type: "Dropout"
  bottom: "fc6"
  top: "fc6"
  dropout_param {
    dropout_ratio: 0.5
  }
}
layer {
  name: "fc7"
  type: "InnerProduct"
  bottom: "fc6"
  top: "fc7"
  param {
    lr_mult: 1
    decay_mult: 1
  }
  param {
    lr_mult: 2
    decay_mult: 0
  }
  inner_product_param {
    num_output: 4096
    weight_filler {
      type: "gaussian"
      std: 0.005
    }
    bias_filler {
      type: "constant"
      value: 0.1
    }
  }
}
layer {
  name: "relu7"
  type: "ReLU"
  bottom: "fc7"
  top: "fc7"
}
layer {
  name: "drop7"
  type: "Dropout"
  bottom: "fc7"
  top: "fc7"
  dropout_param {
    dropout_ratio: 0.5
  }
}
layer {
  name: "fc8_plantvillage"
  type: "InnerProduct"
  bottom: "fc7"
  top: "fc8_plantvillage"
  param {
    lr_mult: 1
    decay_mult: 1
  }
  param {
    lr_mult: 2
    decay_mult: 0
  }
  inner_product_param {
    num_output: 38
    weight_filler {
      type: "gaussian"
      std: 0.01
    }
    bias_filler {
      type: "constant"
      value: 0
    }
  }
}
layer {
  name: "prob"
  type: "Softmax"
  bottom: "fc8_plantvillage"
  top: "prob"
  include {
    phase: TEST
  }
}
layer {
  name: "hdf5out"
  type: "HDF5Output"
  bottom: "prob"
  bottom: "label"
  include {
    phase: TEST
  }
  hdf5_output_param {
    file_name: "hdf5_dumps/iter_5649.h5"
  }
}
layer {
  name: "loss"
  type: "SoftmaxWithLoss"
  bottom: "fc8_plantvillage"
  bottom: "label"
  top: "loss"
}
layer {
  name: "accuracy"
  type: "Accuracy"
  bottom: "fc8_plantvillage"
  bottom: "label"
  top: "accuracy"
  include {
    phase: TEST
  }
}
I0403 13:12:11.112717 27576 layer_factory.hpp:77] Creating layer data
I0403 13:12:11.113392 27576 net.cpp:91] Creating Layer data
I0403 13:12:11.113425 27576 net.cpp:399] data -> data
I0403 13:12:11.113478 27576 net.cpp:399] data -> label
I0403 13:12:11.113517 27576 data_transformer.cpp:25] Loading mean file from: /home/mohanty/data/final_dataset/lmdb/color-50-50/mean.binaryproto
I0403 13:12:11.116164 27579 db_lmdb.cpp:38] Opened lmdb /home/mohanty/data/final_dataset/lmdb/color-50-50/test_db
I0403 13:12:11.128305 27576 data_layer.cpp:41] output data size: 100,3,227,227
I0403 13:12:11.248412 27576 net.cpp:141] Setting up data
I0403 13:12:11.248502 27576 net.cpp:148] Top shape: 100 3 227 227 (15458700)
I0403 13:12:11.248525 27576 net.cpp:148] Top shape: 100 (100)
I0403 13:12:11.248541 27576 net.cpp:156] Memory required for data: 61835200
I0403 13:12:11.248569 27576 layer_factory.hpp:77] Creating layer label_data_1_split
I0403 13:12:11.248594 27576 net.cpp:91] Creating Layer label_data_1_split
I0403 13:12:11.248613 27576 net.cpp:425] label_data_1_split <- label
I0403 13:12:11.248646 27576 net.cpp:399] label_data_1_split -> label_data_1_split_0
I0403 13:12:11.248672 27576 net.cpp:399] label_data_1_split -> label_data_1_split_1
I0403 13:12:11.248693 27576 net.cpp:399] label_data_1_split -> label_data_1_split_2
I0403 13:12:11.248756 27576 net.cpp:141] Setting up label_data_1_split
I0403 13:12:11.248781 27576 net.cpp:148] Top shape: 100 (100)
I0403 13:12:11.248798 27576 net.cpp:148] Top shape: 100 (100)
I0403 13:12:11.248814 27576 net.cpp:148] Top shape: 100 (100)
I0403 13:12:11.248828 27576 net.cpp:156] Memory required for data: 61836400
I0403 13:12:11.248843 27576 layer_factory.hpp:77] Creating layer conv1
I0403 13:12:11.248875 27576 net.cpp:91] Creating Layer conv1
I0403 13:12:11.248894 27576 net.cpp:425] conv1 <- data
I0403 13:12:11.248914 27576 net.cpp:399] conv1 -> conv1
I0403 13:12:11.392530 27576 net.cpp:141] Setting up conv1
I0403 13:12:11.392606 27576 net.cpp:148] Top shape: 100 96 55 55 (29040000)
I0403 13:12:11.392624 27576 net.cpp:156] Memory required for data: 177996400
I0403 13:12:11.392657 27576 layer_factory.hpp:77] Creating layer relu1
I0403 13:12:11.392684 27576 net.cpp:91] Creating Layer relu1
I0403 13:12:11.392704 27576 net.cpp:425] relu1 <- conv1
I0403 13:12:11.392725 27576 net.cpp:386] relu1 -> conv1 (in-place)
I0403 13:12:11.393004 27576 net.cpp:141] Setting up relu1
I0403 13:12:11.393033 27576 net.cpp:148] Top shape: 100 96 55 55 (29040000)
I0403 13:12:11.393049 27576 net.cpp:156] Memory required for data: 294156400
I0403 13:12:11.393095 27576 layer_factory.hpp:77] Creating layer norm1
I0403 13:12:11.393126 27576 net.cpp:91] Creating Layer norm1
I0403 13:12:11.393146 27576 net.cpp:425] norm1 <- conv1
I0403 13:12:11.393164 27576 net.cpp:399] norm1 -> norm1
I0403 13:12:11.393565 27576 net.cpp:141] Setting up norm1
I0403 13:12:11.393594 27576 net.cpp:148] Top shape: 100 96 55 55 (29040000)
I0403 13:12:11.393610 27576 net.cpp:156] Memory required for data: 410316400
I0403 13:12:11.393627 27576 layer_factory.hpp:77] Creating layer pool1
I0403 13:12:11.393652 27576 net.cpp:91] Creating Layer pool1
I0403 13:12:11.393671 27576 net.cpp:425] pool1 <- norm1
I0403 13:12:11.393690 27576 net.cpp:399] pool1 -> pool1
I0403 13:12:11.393774 27576 net.cpp:141] Setting up pool1
I0403 13:12:11.393798 27576 net.cpp:148] Top shape: 100 96 27 27 (6998400)
I0403 13:12:11.393815 27576 net.cpp:156] Memory required for data: 438310000
I0403 13:12:11.393829 27576 layer_factory.hpp:77] Creating layer conv2
I0403 13:12:11.393856 27576 net.cpp:91] Creating Layer conv2
I0403 13:12:11.393873 27576 net.cpp:425] conv2 <- pool1
I0403 13:12:11.393895 27576 net.cpp:399] conv2 -> conv2
I0403 13:12:11.409101 27576 net.cpp:141] Setting up conv2
I0403 13:12:11.409152 27576 net.cpp:148] Top shape: 100 256 27 27 (18662400)
I0403 13:12:11.409170 27576 net.cpp:156] Memory required for data: 512959600
I0403 13:12:11.409193 27576 layer_factory.hpp:77] Creating layer relu2
I0403 13:12:11.409214 27576 net.cpp:91] Creating Layer relu2
I0403 13:12:11.409229 27576 net.cpp:425] relu2 <- conv2
I0403 13:12:11.409247 27576 net.cpp:386] relu2 -> conv2 (in-place)
I0403 13:12:11.409528 27576 net.cpp:141] Setting up relu2
I0403 13:12:11.409559 27576 net.cpp:148] Top shape: 100 256 27 27 (18662400)
I0403 13:12:11.409576 27576 net.cpp:156] Memory required for data: 587609200
I0403 13:12:11.409591 27576 layer_factory.hpp:77] Creating layer norm2
I0403 13:12:11.409613 27576 net.cpp:91] Creating Layer norm2
I0403 13:12:11.409629 27576 net.cpp:425] norm2 <- conv2
I0403 13:12:11.409651 27576 net.cpp:399] norm2 -> norm2
I0403 13:12:11.409852 27576 net.cpp:141] Setting up norm2
I0403 13:12:11.409881 27576 net.cpp:148] Top shape: 100 256 27 27 (18662400)
I0403 13:12:11.409898 27576 net.cpp:156] Memory required for data: 662258800
I0403 13:12:11.409912 27576 layer_factory.hpp:77] Creating layer pool2
I0403 13:12:11.409931 27576 net.cpp:91] Creating Layer pool2
I0403 13:12:11.409947 27576 net.cpp:425] pool2 <- norm2
I0403 13:12:11.409965 27576 net.cpp:399] pool2 -> pool2
I0403 13:12:11.410019 27576 net.cpp:141] Setting up pool2
I0403 13:12:11.410043 27576 net.cpp:148] Top shape: 100 256 13 13 (4326400)
I0403 13:12:11.410058 27576 net.cpp:156] Memory required for data: 679564400
I0403 13:12:11.410073 27576 layer_factory.hpp:77] Creating layer conv3
I0403 13:12:11.410099 27576 net.cpp:91] Creating Layer conv3
I0403 13:12:11.410117 27576 net.cpp:425] conv3 <- pool2
I0403 13:12:11.410138 27576 net.cpp:399] conv3 -> conv3
I0403 13:12:11.452723 27576 net.cpp:141] Setting up conv3
I0403 13:12:11.452795 27576 net.cpp:148] Top shape: 100 384 13 13 (6489600)
I0403 13:12:11.452812 27576 net.cpp:156] Memory required for data: 705522800
I0403 13:12:11.452839 27576 layer_factory.hpp:77] Creating layer relu3
I0403 13:12:11.452865 27576 net.cpp:91] Creating Layer relu3
I0403 13:12:11.452885 27576 net.cpp:425] relu3 <- conv3
I0403 13:12:11.452906 27576 net.cpp:386] relu3 -> conv3 (in-place)
I0403 13:12:11.453186 27576 net.cpp:141] Setting up relu3
I0403 13:12:11.453214 27576 net.cpp:148] Top shape: 100 384 13 13 (6489600)
I0403 13:12:11.453232 27576 net.cpp:156] Memory required for data: 731481200
I0403 13:12:11.453248 27576 layer_factory.hpp:77] Creating layer conv4
I0403 13:12:11.453279 27576 net.cpp:91] Creating Layer conv4
I0403 13:12:11.453297 27576 net.cpp:425] conv4 <- conv3
I0403 13:12:11.453321 27576 net.cpp:399] conv4 -> conv4
I0403 13:12:11.483785 27576 net.cpp:141] Setting up conv4
I0403 13:12:11.483851 27576 net.cpp:148] Top shape: 100 384 13 13 (6489600)
I0403 13:12:11.483901 27576 net.cpp:156] Memory required for data: 757439600
I0403 13:12:11.483924 27576 layer_factory.hpp:77] Creating layer relu4
I0403 13:12:11.483950 27576 net.cpp:91] Creating Layer relu4
I0403 13:12:11.483969 27576 net.cpp:425] relu4 <- conv4
I0403 13:12:11.483990 27576 net.cpp:386] relu4 -> conv4 (in-place)
I0403 13:12:11.484275 27576 net.cpp:141] Setting up relu4
I0403 13:12:11.484303 27576 net.cpp:148] Top shape: 100 384 13 13 (6489600)
I0403 13:12:11.484331 27576 net.cpp:156] Memory required for data: 783398000
I0403 13:12:11.484350 27576 layer_factory.hpp:77] Creating layer conv5
I0403 13:12:11.484379 27576 net.cpp:91] Creating Layer conv5
I0403 13:12:11.484397 27576 net.cpp:425] conv5 <- conv4
I0403 13:12:11.484421 27576 net.cpp:399] conv5 -> conv5
I0403 13:12:11.505362 27576 net.cpp:141] Setting up conv5
I0403 13:12:11.505415 27576 net.cpp:148] Top shape: 100 256 13 13 (4326400)
I0403 13:12:11.505434 27576 net.cpp:156] Memory required for data: 800703600
I0403 13:12:11.505461 27576 layer_factory.hpp:77] Creating layer relu5
I0403 13:12:11.505484 27576 net.cpp:91] Creating Layer relu5
I0403 13:12:11.505502 27576 net.cpp:425] relu5 <- conv5
I0403 13:12:11.505522 27576 net.cpp:386] relu5 -> conv5 (in-place)
I0403 13:12:11.505811 27576 net.cpp:141] Setting up relu5
I0403 13:12:11.505841 27576 net.cpp:148] Top shape: 100 256 13 13 (4326400)
I0403 13:12:11.505857 27576 net.cpp:156] Memory required for data: 818009200
I0403 13:12:11.505874 27576 layer_factory.hpp:77] Creating layer pool5
I0403 13:12:11.505897 27576 net.cpp:91] Creating Layer pool5
I0403 13:12:11.505914 27576 net.cpp:425] pool5 <- conv5
I0403 13:12:11.505934 27576 net.cpp:399] pool5 -> pool5
I0403 13:12:11.505998 27576 net.cpp:141] Setting up pool5
I0403 13:12:11.506023 27576 net.cpp:148] Top shape: 100 256 6 6 (921600)
I0403 13:12:11.506039 27576 net.cpp:156] Memory required for data: 821695600
I0403 13:12:11.506055 27576 layer_factory.hpp:77] Creating layer fc6
I0403 13:12:11.506086 27576 net.cpp:91] Creating Layer fc6
I0403 13:12:11.506105 27576 net.cpp:425] fc6 <- pool5
I0403 13:12:11.506126 27576 net.cpp:399] fc6 -> fc6
I0403 13:12:13.070760 27576 net.cpp:141] Setting up fc6
I0403 13:12:13.070813 27576 net.cpp:148] Top shape: 100 4096 (409600)
I0403 13:12:13.070830 27576 net.cpp:156] Memory required for data: 823334000
I0403 13:12:13.070852 27576 layer_factory.hpp:77] Creating layer relu6
I0403 13:12:13.070874 27576 net.cpp:91] Creating Layer relu6
I0403 13:12:13.070893 27576 net.cpp:425] relu6 <- fc6
I0403 13:12:13.070914 27576 net.cpp:386] relu6 -> fc6 (in-place)
I0403 13:12:13.071141 27576 net.cpp:141] Setting up relu6
I0403 13:12:13.071168 27576 net.cpp:148] Top shape: 100 4096 (409600)
I0403 13:12:13.071184 27576 net.cpp:156] Memory required for data: 824972400
I0403 13:12:13.071211 27576 layer_factory.hpp:77] Creating layer drop6
I0403 13:12:13.071231 27576 net.cpp:91] Creating Layer drop6
I0403 13:12:13.071250 27576 net.cpp:425] drop6 <- fc6
I0403 13:12:13.071269 27576 net.cpp:386] drop6 -> fc6 (in-place)
I0403 13:12:13.071326 27576 net.cpp:141] Setting up drop6
I0403 13:12:13.071351 27576 net.cpp:148] Top shape: 100 4096 (409600)
I0403 13:12:13.071365 27576 net.cpp:156] Memory required for data: 826610800
I0403 13:12:13.071380 27576 layer_factory.hpp:77] Creating layer fc7
I0403 13:12:13.071403 27576 net.cpp:91] Creating Layer fc7
I0403 13:12:13.071419 27576 net.cpp:425] fc7 <- fc6
I0403 13:12:13.071437 27576 net.cpp:399] fc7 -> fc7
I0403 13:12:13.761909 27576 net.cpp:141] Setting up fc7
I0403 13:12:13.761984 27576 net.cpp:148] Top shape: 100 4096 (409600)
I0403 13:12:13.762001 27576 net.cpp:156] Memory required for data: 828249200
I0403 13:12:13.762022 27576 layer_factory.hpp:77] Creating layer relu7
I0403 13:12:13.762047 27576 net.cpp:91] Creating Layer relu7
I0403 13:12:13.762065 27576 net.cpp:425] relu7 <- fc7
I0403 13:12:13.762086 27576 net.cpp:386] relu7 -> fc7 (in-place)
I0403 13:12:13.762504 27576 net.cpp:141] Setting up relu7
I0403 13:12:13.762531 27576 net.cpp:148] Top shape: 100 4096 (409600)
I0403 13:12:13.762579 27576 net.cpp:156] Memory required for data: 829887600
I0403 13:12:13.762596 27576 layer_factory.hpp:77] Creating layer drop7
I0403 13:12:13.762617 27576 net.cpp:91] Creating Layer drop7
I0403 13:12:13.762635 27576 net.cpp:425] drop7 <- fc7
I0403 13:12:13.762653 27576 net.cpp:386] drop7 -> fc7 (in-place)
I0403 13:12:13.762698 27576 net.cpp:141] Setting up drop7
I0403 13:12:13.762723 27576 net.cpp:148] Top shape: 100 4096 (409600)
I0403 13:12:13.762738 27576 net.cpp:156] Memory required for data: 831526000
I0403 13:12:13.762753 27576 layer_factory.hpp:77] Creating layer fc8_plantvillage
I0403 13:12:13.762774 27576 net.cpp:91] Creating Layer fc8_plantvillage
I0403 13:12:13.762792 27576 net.cpp:425] fc8_plantvillage <- fc7
I0403 13:12:13.762811 27576 net.cpp:399] fc8_plantvillage -> fc8_plantvillage
I0403 13:12:13.769587 27576 net.cpp:141] Setting up fc8_plantvillage
I0403 13:12:13.769618 27576 net.cpp:148] Top shape: 100 38 (3800)
I0403 13:12:13.769634 27576 net.cpp:156] Memory required for data: 831541200
I0403 13:12:13.769652 27576 layer_factory.hpp:77] Creating layer fc8_plantvillage_fc8_plantvillage_0_split
I0403 13:12:13.769672 27576 net.cpp:91] Creating Layer fc8_plantvillage_fc8_plantvillage_0_split
I0403 13:12:13.769690 27576 net.cpp:425] fc8_plantvillage_fc8_plantvillage_0_split <- fc8_plantvillage
I0403 13:12:13.769706 27576 net.cpp:399] fc8_plantvillage_fc8_plantvillage_0_split -> fc8_plantvillage_fc8_plantvillage_0_split_0
I0403 13:12:13.769729 27576 net.cpp:399] fc8_plantvillage_fc8_plantvillage_0_split -> fc8_plantvillage_fc8_plantvillage_0_split_1
I0403 13:12:13.769752 27576 net.cpp:399] fc8_plantvillage_fc8_plantvillage_0_split -> fc8_plantvillage_fc8_plantvillage_0_split_2
I0403 13:12:13.769829 27576 net.cpp:141] Setting up fc8_plantvillage_fc8_plantvillage_0_split
I0403 13:12:13.769855 27576 net.cpp:148] Top shape: 100 38 (3800)
I0403 13:12:13.769871 27576 net.cpp:148] Top shape: 100 38 (3800)
I0403 13:12:13.769887 27576 net.cpp:148] Top shape: 100 38 (3800)
I0403 13:12:13.769901 27576 net.cpp:156] Memory required for data: 831586800
I0403 13:12:13.769917 27576 layer_factory.hpp:77] Creating layer prob
I0403 13:12:13.769935 27576 net.cpp:91] Creating Layer prob
I0403 13:12:13.769951 27576 net.cpp:425] prob <- fc8_plantvillage_fc8_plantvillage_0_split_0
I0403 13:12:13.769970 27576 net.cpp:399] prob -> prob
I0403 13:12:13.770200 27576 net.cpp:141] Setting up prob
I0403 13:12:13.770226 27576 net.cpp:148] Top shape: 100 38 (3800)
I0403 13:12:13.770241 27576 net.cpp:156] Memory required for data: 831602000
I0403 13:12:13.770259 27576 layer_factory.hpp:77] Creating layer hdf5out
I0403 13:12:13.770284 27576 net.cpp:91] Creating Layer hdf5out
I0403 13:12:13.770303 27576 net.cpp:425] hdf5out <- prob
I0403 13:12:13.770323 27576 net.cpp:425] hdf5out <- label_data_1_split_0
I0403 13:12:13.774332 27576 net.cpp:141] Setting up hdf5out
…
