…
I0403 13:01:48.031987 27202 net.cpp:313] The NetState phase (1) differed from the phase (0) specified by a rule in layer data
I0403 13:01:48.032295 27202 net.cpp:49] Initializing net from parameters: 
state {
  phase: TEST
}
layer {
  name: "data"
  type: "Data"
  top: "data"
  top: "label"
  include {
    phase: TEST
  }
  transform_param {
    crop_size: 227
    mean_file: "/home/mohanty/data/final_dataset/lmdb/color-50-50/mean.binaryproto"
  }
  data_param {
    source: "/home/mohanty/data/final_dataset/lmdb/color-50-50/test_db"
    batch_size: 100
    backend: LMDB
  }
}
layer {
  name: "conv1"
  type: "Convolution"
  bottom: "data"
  top: "conv1"
  param {
    lr_mult: 1
    decay_mult: 1
  }
  param {
    lr_mult: 2
    decay_mult: 0
  }
  convolution_param {
    num_output: 96
    kernel_size: 11
    stride: 4
    weight_filler {
      type: "gaussian"
      std: 0.01
    }
    bias_filler {
      type: "constant"
      value: 0
    }
  }
}
layer {
  name: "relu1"
  type: "ReLU"
  bottom: "conv1"
  top: "conv1"
}
layer {
  name: "norm1"
  type: "LRN"
  bottom: "conv1"
  top: "norm1"
  lrn_param {
    local_size: 5
    alpha: 0.0001
    beta: 0.75
  }
}
layer {
  name: "pool1"
  type: "Pooling"
  bottom: "norm1"
  top: "pool1"
  pooling_param {
    pool: MAX
    kernel_size: 3
    stride: 2
  }
}
layer {
  name: "conv2"
  type: "Convolution"
  bottom: "pool1"
  top: "conv2"
  param {
    lr_mult: 1
    decay_mult: 1
  }
  param {
    lr_mult: 2
    decay_mult: 0
  }
  convolution_param {
    num_output: 256
    pad: 2
    kernel_size: 5
    group: 2
    weight_filler {
      type: "gaussian"
      std: 0.01
    }
    bias_filler {
      type: "constant"
      value: 0.1
    }
  }
}
layer {
  name: "relu2"
  type: "ReLU"
  bottom: "conv2"
  top: "conv2"
}
layer {
  name: "norm2"
  type: "LRN"
  bottom: "conv2"
  top: "norm2"
  lrn_param {
    local_size: 5
    alpha: 0.0001
    beta: 0.75
  }
}
layer {
  name: "pool2"
  type: "Pooling"
  bottom: "norm2"
  top: "pool2"
  pooling_param {
    pool: MAX
    kernel_size: 3
    stride: 2
  }
}
layer {
  name: "conv3"
  type: "Convolution"
  bottom: "pool2"
  top: "conv3"
  param {
    lr_mult: 1
    decay_mult: 1
  }
  param {
    lr_mult: 2
    decay_mult: 0
  }
  convolution_param {
    num_output: 384
    pad: 1
    kernel_size: 3
    weight_filler {
      type: "gaussian"
      std: 0.01
    }
    bias_filler {
      type: "constant"
      value: 0
    }
  }
}
layer {
  name: "relu3"
  type: "ReLU"
  bottom: "conv3"
  top: "conv3"
}
layer {
  name: "conv4"
  type: "Convolution"
  bottom: "conv3"
  top: "conv4"
  param {
    lr_mult: 1
    decay_mult: 1
  }
  param {
    lr_mult: 2
    decay_mult: 0
  }
  convolution_param {
    num_output: 384
    pad: 1
    kernel_size: 3
    group: 2
    weight_filler {
      type: "gaussian"
      std: 0.01
    }
    bias_filler {
      type: "constant"
      value: 0.1
    }
  }
}
layer {
  name: "relu4"
  type: "ReLU"
  bottom: "conv4"
  top: "conv4"
}
layer {
  name: "conv5"
  type: "Convolution"
  bottom: "conv4"
  top: "conv5"
  param {
    lr_mult: 1
    decay_mult: 1
  }
  param {
    lr_mult: 2
    decay_mult: 0
  }
  convolution_param {
    num_output: 256
    pad: 1
    kernel_size: 3
    group: 2
    weight_filler {
      type: "gaussian"
      std: 0.01
    }
    bias_filler {
      type: "constant"
      value: 0.1
    }
  }
}
layer {
  name: "relu5"
  type: "ReLU"
  bottom: "conv5"
  top: "conv5"
}
layer {
  name: "pool5"
  type: "Pooling"
  bottom: "conv5"
  top: "pool5"
  pooling_param {
    pool: MAX
    kernel_size: 3
    stride: 2
  }
}
layer {
  name: "fc6"
  type: "InnerProduct"
  bottom: "pool5"
  top: "fc6"
  param {
    lr_mult: 1
    decay_mult: 1
  }
  param {
    lr_mult: 2
    decay_mult: 0
  }
  inner_product_param {
    num_output: 4096
    weight_filler {
      type: "gaussian"
      std: 0.005
    }
    bias_filler {
      type: "constant"
      value: 0.1
    }
  }
}
layer {
  name: "relu6"
  type: "ReLU"
  bottom: "fc6"
  top: "fc6"
}
layer {
  name: "drop6"
  type: "Dropout"
  bottom: "fc6"
  top: "fc6"
  dropout_param {
    dropout_ratio: 0.5
  }
}
layer {
  name: "fc7"
  type: "InnerProduct"
  bottom: "fc6"
  top: "fc7"
  param {
    lr_mult: 1
    decay_mult: 1
  }
  param {
    lr_mult: 2
    decay_mult: 0
  }
  inner_product_param {
    num_output: 4096
    weight_filler {
      type: "gaussian"
      std: 0.005
    }
    bias_filler {
      type: "constant"
      value: 0.1
    }
  }
}
layer {
  name: "relu7"
  type: "ReLU"
  bottom: "fc7"
  top: "fc7"
}
layer {
  name: "drop7"
  type: "Dropout"
  bottom: "fc7"
  top: "fc7"
  dropout_param {
    dropout_ratio: 0.5
  }
}
layer {
  name: "fc8_plantvillage"
  type: "InnerProduct"
  bottom: "fc7"
  top: "fc8_plantvillage"
  param {
    lr_mult: 1
    decay_mult: 1
  }
  param {
    lr_mult: 2
    decay_mult: 0
  }
  inner_product_param {
    num_output: 38
    weight_filler {
      type: "gaussian"
      std: 0.01
    }
    bias_filler {
      type: "constant"
      value: 0
    }
  }
}
layer {
  name: "prob"
  type: "Softmax"
  bottom: "fc8_plantvillage"
  top: "prob"
  include {
    phase: TEST
  }
}
layer {
  name: "hdf5out"
  type: "HDF5Output"
  bottom: "prob"
  bottom: "label"
  include {
    phase: TEST
  }
  hdf5_output_param {
    file_name: "hdf5_dumps/iter_2690.h5"
  }
}
layer {
  name: "loss"
  type: "SoftmaxWithLoss"
  bottom: "fc8_plantvillage"
  bottom: "label"
  top: "loss"
}
layer {
  name: "accuracy"
  type: "Accuracy"
  bottom: "fc8_plantvillage"
  bottom: "label"
  top: "accuracy"
  include {
    phase: TEST
  }
}
I0403 13:01:48.032925 27202 layer_factory.hpp:77] Creating layer data
I0403 13:01:48.033608 27202 net.cpp:91] Creating Layer data
I0403 13:01:48.033643 27202 net.cpp:399] data -> data
I0403 13:01:48.033695 27202 net.cpp:399] data -> label
I0403 13:01:48.033735 27202 data_transformer.cpp:25] Loading mean file from: /home/mohanty/data/final_dataset/lmdb/color-50-50/mean.binaryproto
I0403 13:01:48.036748 27204 db_lmdb.cpp:38] Opened lmdb /home/mohanty/data/final_dataset/lmdb/color-50-50/test_db
I0403 13:01:48.048339 27202 data_layer.cpp:41] output data size: 100,3,227,227
I0403 13:01:48.171926 27202 net.cpp:141] Setting up data
I0403 13:01:48.172003 27202 net.cpp:148] Top shape: 100 3 227 227 (15458700)
I0403 13:01:48.172027 27202 net.cpp:148] Top shape: 100 (100)
I0403 13:01:48.172044 27202 net.cpp:156] Memory required for data: 61835200
I0403 13:01:48.172073 27202 layer_factory.hpp:77] Creating layer label_data_1_split
I0403 13:01:48.172101 27202 net.cpp:91] Creating Layer label_data_1_split
I0403 13:01:48.172119 27202 net.cpp:425] label_data_1_split <- label
I0403 13:01:48.172152 27202 net.cpp:399] label_data_1_split -> label_data_1_split_0
I0403 13:01:48.172181 27202 net.cpp:399] label_data_1_split -> label_data_1_split_1
I0403 13:01:48.172202 27202 net.cpp:399] label_data_1_split -> label_data_1_split_2
I0403 13:01:48.172268 27202 net.cpp:141] Setting up label_data_1_split
I0403 13:01:48.172292 27202 net.cpp:148] Top shape: 100 (100)
I0403 13:01:48.172310 27202 net.cpp:148] Top shape: 100 (100)
I0403 13:01:48.172333 27202 net.cpp:148] Top shape: 100 (100)
I0403 13:01:48.172350 27202 net.cpp:156] Memory required for data: 61836400
I0403 13:01:48.172366 27202 layer_factory.hpp:77] Creating layer conv1
I0403 13:01:48.172399 27202 net.cpp:91] Creating Layer conv1
I0403 13:01:48.172420 27202 net.cpp:425] conv1 <- data
I0403 13:01:48.172441 27202 net.cpp:399] conv1 -> conv1
I0403 13:01:48.317771 27202 net.cpp:141] Setting up conv1
I0403 13:01:48.317852 27202 net.cpp:148] Top shape: 100 96 55 55 (29040000)
I0403 13:01:48.317870 27202 net.cpp:156] Memory required for data: 177996400
I0403 13:01:48.317903 27202 layer_factory.hpp:77] Creating layer relu1
I0403 13:01:48.317930 27202 net.cpp:91] Creating Layer relu1
I0403 13:01:48.317950 27202 net.cpp:425] relu1 <- conv1
I0403 13:01:48.317971 27202 net.cpp:386] relu1 -> conv1 (in-place)
I0403 13:01:48.318228 27202 net.cpp:141] Setting up relu1
I0403 13:01:48.318255 27202 net.cpp:148] Top shape: 100 96 55 55 (29040000)
I0403 13:01:48.318271 27202 net.cpp:156] Memory required for data: 294156400
I0403 13:01:48.318336 27202 layer_factory.hpp:77] Creating layer norm1
I0403 13:01:48.318375 27202 net.cpp:91] Creating Layer norm1
I0403 13:01:48.318400 27202 net.cpp:425] norm1 <- conv1
I0403 13:01:48.318420 27202 net.cpp:399] norm1 -> norm1
I0403 13:01:48.318748 27202 net.cpp:141] Setting up norm1
I0403 13:01:48.318778 27202 net.cpp:148] Top shape: 100 96 55 55 (29040000)
I0403 13:01:48.318794 27202 net.cpp:156] Memory required for data: 410316400
I0403 13:01:48.318810 27202 layer_factory.hpp:77] Creating layer pool1
I0403 13:01:48.318835 27202 net.cpp:91] Creating Layer pool1
I0403 13:01:48.318852 27202 net.cpp:425] pool1 <- norm1
I0403 13:01:48.318871 27202 net.cpp:399] pool1 -> pool1
I0403 13:01:48.318938 27202 net.cpp:141] Setting up pool1
I0403 13:01:48.318963 27202 net.cpp:148] Top shape: 100 96 27 27 (6998400)
I0403 13:01:48.318979 27202 net.cpp:156] Memory required for data: 438310000
I0403 13:01:48.318994 27202 layer_factory.hpp:77] Creating layer conv2
I0403 13:01:48.319020 27202 net.cpp:91] Creating Layer conv2
I0403 13:01:48.319036 27202 net.cpp:425] conv2 <- pool1
I0403 13:01:48.319054 27202 net.cpp:399] conv2 -> conv2
I0403 13:01:48.334239 27202 net.cpp:141] Setting up conv2
I0403 13:01:48.334278 27202 net.cpp:148] Top shape: 100 256 27 27 (18662400)
I0403 13:01:48.334298 27202 net.cpp:156] Memory required for data: 512959600
I0403 13:01:48.334336 27202 layer_factory.hpp:77] Creating layer relu2
I0403 13:01:48.334364 27202 net.cpp:91] Creating Layer relu2
I0403 13:01:48.334384 27202 net.cpp:425] relu2 <- conv2
I0403 13:01:48.334408 27202 net.cpp:386] relu2 -> conv2 (in-place)
I0403 13:01:48.334718 27202 net.cpp:141] Setting up relu2
I0403 13:01:48.334745 27202 net.cpp:148] Top shape: 100 256 27 27 (18662400)
I0403 13:01:48.334760 27202 net.cpp:156] Memory required for data: 587609200
I0403 13:01:48.334775 27202 layer_factory.hpp:77] Creating layer norm2
I0403 13:01:48.334799 27202 net.cpp:91] Creating Layer norm2
I0403 13:01:48.334816 27202 net.cpp:425] norm2 <- conv2
I0403 13:01:48.334836 27202 net.cpp:399] norm2 -> norm2
I0403 13:01:48.335026 27202 net.cpp:141] Setting up norm2
I0403 13:01:48.335053 27202 net.cpp:148] Top shape: 100 256 27 27 (18662400)
I0403 13:01:48.335069 27202 net.cpp:156] Memory required for data: 662258800
I0403 13:01:48.335085 27202 layer_factory.hpp:77] Creating layer pool2
I0403 13:01:48.335104 27202 net.cpp:91] Creating Layer pool2
I0403 13:01:48.335119 27202 net.cpp:425] pool2 <- norm2
I0403 13:01:48.335140 27202 net.cpp:399] pool2 -> pool2
I0403 13:01:48.335191 27202 net.cpp:141] Setting up pool2
I0403 13:01:48.335213 27202 net.cpp:148] Top shape: 100 256 13 13 (4326400)
I0403 13:01:48.335228 27202 net.cpp:156] Memory required for data: 679564400
I0403 13:01:48.335243 27202 layer_factory.hpp:77] Creating layer conv3
I0403 13:01:48.335266 27202 net.cpp:91] Creating Layer conv3
I0403 13:01:48.335284 27202 net.cpp:425] conv3 <- pool2
I0403 13:01:48.335309 27202 net.cpp:399] conv3 -> conv3
I0403 13:01:48.377836 27202 net.cpp:141] Setting up conv3
I0403 13:01:48.377913 27202 net.cpp:148] Top shape: 100 384 13 13 (6489600)
I0403 13:01:48.377933 27202 net.cpp:156] Memory required for data: 705522800
I0403 13:01:48.377959 27202 layer_factory.hpp:77] Creating layer relu3
I0403 13:01:48.377985 27202 net.cpp:91] Creating Layer relu3
I0403 13:01:48.378002 27202 net.cpp:425] relu3 <- conv3
I0403 13:01:48.378026 27202 net.cpp:386] relu3 -> conv3 (in-place)
I0403 13:01:48.378382 27202 net.cpp:141] Setting up relu3
I0403 13:01:48.378412 27202 net.cpp:148] Top shape: 100 384 13 13 (6489600)
I0403 13:01:48.378428 27202 net.cpp:156] Memory required for data: 731481200
I0403 13:01:48.378446 27202 layer_factory.hpp:77] Creating layer conv4
I0403 13:01:48.378473 27202 net.cpp:91] Creating Layer conv4
I0403 13:01:48.378491 27202 net.cpp:425] conv4 <- conv3
I0403 13:01:48.378515 27202 net.cpp:399] conv4 -> conv4
I0403 13:01:48.409109 27202 net.cpp:141] Setting up conv4
I0403 13:01:48.409178 27202 net.cpp:148] Top shape: 100 384 13 13 (6489600)
I0403 13:01:48.409226 27202 net.cpp:156] Memory required for data: 757439600
I0403 13:01:48.409248 27202 layer_factory.hpp:77] Creating layer relu4
I0403 13:01:48.409271 27202 net.cpp:91] Creating Layer relu4
I0403 13:01:48.409288 27202 net.cpp:425] relu4 <- conv4
I0403 13:01:48.409308 27202 net.cpp:386] relu4 -> conv4 (in-place)
I0403 13:01:48.409585 27202 net.cpp:141] Setting up relu4
I0403 13:01:48.409617 27202 net.cpp:148] Top shape: 100 384 13 13 (6489600)
I0403 13:01:48.409634 27202 net.cpp:156] Memory required for data: 783398000
I0403 13:01:48.409651 27202 layer_factory.hpp:77] Creating layer conv5
I0403 13:01:48.409677 27202 net.cpp:91] Creating Layer conv5
I0403 13:01:48.409695 27202 net.cpp:425] conv5 <- conv4
I0403 13:01:48.409714 27202 net.cpp:399] conv5 -> conv5
I0403 13:01:48.430788 27202 net.cpp:141] Setting up conv5
I0403 13:01:48.430842 27202 net.cpp:148] Top shape: 100 256 13 13 (4326400)
I0403 13:01:48.430860 27202 net.cpp:156] Memory required for data: 800703600
I0403 13:01:48.430886 27202 layer_factory.hpp:77] Creating layer relu5
I0403 13:01:48.430909 27202 net.cpp:91] Creating Layer relu5
I0403 13:01:48.430927 27202 net.cpp:425] relu5 <- conv5
I0403 13:01:48.430946 27202 net.cpp:386] relu5 -> conv5 (in-place)
I0403 13:01:48.431231 27202 net.cpp:141] Setting up relu5
I0403 13:01:48.431263 27202 net.cpp:148] Top shape: 100 256 13 13 (4326400)
I0403 13:01:48.431282 27202 net.cpp:156] Memory required for data: 818009200
I0403 13:01:48.431298 27202 layer_factory.hpp:77] Creating layer pool5
I0403 13:01:48.431323 27202 net.cpp:91] Creating Layer pool5
I0403 13:01:48.431339 27202 net.cpp:425] pool5 <- conv5
I0403 13:01:48.431365 27202 net.cpp:399] pool5 -> pool5
I0403 13:01:48.431429 27202 net.cpp:141] Setting up pool5
I0403 13:01:48.431454 27202 net.cpp:148] Top shape: 100 256 6 6 (921600)
I0403 13:01:48.431469 27202 net.cpp:156] Memory required for data: 821695600
I0403 13:01:48.431485 27202 layer_factory.hpp:77] Creating layer fc6
I0403 13:01:48.431512 27202 net.cpp:91] Creating Layer fc6
I0403 13:01:48.431531 27202 net.cpp:425] fc6 <- pool5
I0403 13:01:48.431553 27202 net.cpp:399] fc6 -> fc6
I0403 13:01:49.994472 27202 net.cpp:141] Setting up fc6
I0403 13:01:49.994551 27202 net.cpp:148] Top shape: 100 4096 (409600)
I0403 13:01:49.994570 27202 net.cpp:156] Memory required for data: 823334000
I0403 13:01:49.994593 27202 layer_factory.hpp:77] Creating layer relu6
I0403 13:01:49.994616 27202 net.cpp:91] Creating Layer relu6
I0403 13:01:49.994633 27202 net.cpp:425] relu6 <- fc6
I0403 13:01:49.994653 27202 net.cpp:386] relu6 -> fc6 (in-place)
I0403 13:01:49.994884 27202 net.cpp:141] Setting up relu6
I0403 13:01:49.994911 27202 net.cpp:148] Top shape: 100 4096 (409600)
I0403 13:01:49.994927 27202 net.cpp:156] Memory required for data: 824972400
I0403 13:01:49.994943 27202 layer_factory.hpp:77] Creating layer drop6
I0403 13:01:49.994962 27202 net.cpp:91] Creating Layer drop6
I0403 13:01:49.994978 27202 net.cpp:425] drop6 <- fc6
I0403 13:01:49.994997 27202 net.cpp:386] drop6 -> fc6 (in-place)
I0403 13:01:49.995048 27202 net.cpp:141] Setting up drop6
I0403 13:01:49.995071 27202 net.cpp:148] Top shape: 100 4096 (409600)
I0403 13:01:49.995087 27202 net.cpp:156] Memory required for data: 826610800
I0403 13:01:49.995102 27202 layer_factory.hpp:77] Creating layer fc7
I0403 13:01:49.995127 27202 net.cpp:91] Creating Layer fc7
I0403 13:01:49.995146 27202 net.cpp:425] fc7 <- fc6
I0403 13:01:49.995167 27202 net.cpp:399] fc7 -> fc7
I0403 13:01:50.681190 27202 net.cpp:141] Setting up fc7
I0403 13:01:50.681268 27202 net.cpp:148] Top shape: 100 4096 (409600)
I0403 13:01:50.681287 27202 net.cpp:156] Memory required for data: 828249200
I0403 13:01:50.681309 27202 layer_factory.hpp:77] Creating layer relu7
I0403 13:01:50.681331 27202 net.cpp:91] Creating Layer relu7
I0403 13:01:50.681354 27202 net.cpp:425] relu7 <- fc7
I0403 13:01:50.681375 27202 net.cpp:386] relu7 -> fc7 (in-place)
I0403 13:01:50.681768 27202 net.cpp:141] Setting up relu7
I0403 13:01:50.681798 27202 net.cpp:148] Top shape: 100 4096 (409600)
I0403 13:01:50.681846 27202 net.cpp:156] Memory required for data: 829887600
I0403 13:01:50.681864 27202 layer_factory.hpp:77] Creating layer drop7
I0403 13:01:50.681885 27202 net.cpp:91] Creating Layer drop7
I0403 13:01:50.681900 27202 net.cpp:425] drop7 <- fc7
I0403 13:01:50.681917 27202 net.cpp:386] drop7 -> fc7 (in-place)
I0403 13:01:50.681963 27202 net.cpp:141] Setting up drop7
I0403 13:01:50.681987 27202 net.cpp:148] Top shape: 100 4096 (409600)
I0403 13:01:50.682003 27202 net.cpp:156] Memory required for data: 831526000
I0403 13:01:50.682018 27202 layer_factory.hpp:77] Creating layer fc8_plantvillage
I0403 13:01:50.682040 27202 net.cpp:91] Creating Layer fc8_plantvillage
I0403 13:01:50.682057 27202 net.cpp:425] fc8_plantvillage <- fc7
I0403 13:01:50.682075 27202 net.cpp:399] fc8_plantvillage -> fc8_plantvillage
I0403 13:01:50.688868 27202 net.cpp:141] Setting up fc8_plantvillage
I0403 13:01:50.688896 27202 net.cpp:148] Top shape: 100 38 (3800)
I0403 13:01:50.688913 27202 net.cpp:156] Memory required for data: 831541200
I0403 13:01:50.688933 27202 layer_factory.hpp:77] Creating layer fc8_plantvillage_fc8_plantvillage_0_split
I0403 13:01:50.688952 27202 net.cpp:91] Creating Layer fc8_plantvillage_fc8_plantvillage_0_split
I0403 13:01:50.688968 27202 net.cpp:425] fc8_plantvillage_fc8_plantvillage_0_split <- fc8_plantvillage
I0403 13:01:50.688988 27202 net.cpp:399] fc8_plantvillage_fc8_plantvillage_0_split -> fc8_plantvillage_fc8_plantvillage_0_split_0
I0403 13:01:50.689010 27202 net.cpp:399] fc8_plantvillage_fc8_plantvillage_0_split -> fc8_plantvillage_fc8_plantvillage_0_split_1
I0403 13:01:50.689030 27202 net.cpp:399] fc8_plantvillage_fc8_plantvillage_0_split -> fc8_plantvillage_fc8_plantvillage_0_split_2
I0403 13:01:50.689107 27202 net.cpp:141] Setting up fc8_plantvillage_fc8_plantvillage_0_split
I0403 13:01:50.689134 27202 net.cpp:148] Top shape: 100 38 (3800)
I0403 13:01:50.689152 27202 net.cpp:148] Top shape: 100 38 (3800)
I0403 13:01:50.689169 27202 net.cpp:148] Top shape: 100 38 (3800)
I0403 13:01:50.689183 27202 net.cpp:156] Memory required for data: 831586800
I0403 13:01:50.689200 27202 layer_factory.hpp:77] Creating layer prob
I0403 13:01:50.689220 27202 net.cpp:91] Creating Layer prob
I0403 13:01:50.689237 27202 net.cpp:425] prob <- fc8_plantvillage_fc8_plantvillage_0_split_0
I0403 13:01:50.689255 27202 net.cpp:399] prob -> prob
I0403 13:01:50.689512 27202 net.cpp:141] Setting up prob
I0403 13:01:50.689543 27202 net.cpp:148] Top shape: 100 38 (3800)
I0403 13:01:50.689560 27202 net.cpp:156] Memory required for data: 831602000
I0403 13:01:50.689577 27202 layer_factory.hpp:77] Creating layer hdf5out
I0403 13:01:50.689597 27202 net.cpp:91] Creating Layer hdf5out
I0403 13:01:50.689612 27202 net.cpp:425] hdf5out <- prob
I0403 13:01:50.689630 27202 net.cpp:425] hdf5out <- label_data_1_split_0
I0403 13:01:50.718511 27202 net.cpp:141] Setting up hdf5out
…
