…
I0403 12:57:06.116691 27077 net.cpp:313] The NetState phase (1) differed from the phase (0) specified by a rule in layer data
I0403 12:57:06.116981 27077 net.cpp:49] Initializing net from parameters: 
state {
  phase: TEST
}
layer {
  name: "data"
  type: "Data"
  top: "data"
  top: "label"
  include {
    phase: TEST
  }
  transform_param {
    crop_size: 227
    mean_file: "/home/mohanty/data/final_dataset/lmdb/color-50-50/mean.binaryproto"
  }
  data_param {
    source: "/home/mohanty/data/final_dataset/lmdb/color-50-50/test_db"
    batch_size: 100
    backend: LMDB
  }
}
layer {
  name: "conv1"
  type: "Convolution"
  bottom: "data"
  top: "conv1"
  param {
    lr_mult: 1
    decay_mult: 1
  }
  param {
    lr_mult: 2
    decay_mult: 0
  }
  convolution_param {
    num_output: 96
    kernel_size: 11
    stride: 4
    weight_filler {
      type: "gaussian"
      std: 0.01
    }
    bias_filler {
      type: "constant"
      value: 0
    }
  }
}
layer {
  name: "relu1"
  type: "ReLU"
  bottom: "conv1"
  top: "conv1"
}
layer {
  name: "norm1"
  type: "LRN"
  bottom: "conv1"
  top: "norm1"
  lrn_param {
    local_size: 5
    alpha: 0.0001
    beta: 0.75
  }
}
layer {
  name: "pool1"
  type: "Pooling"
  bottom: "norm1"
  top: "pool1"
  pooling_param {
    pool: MAX
    kernel_size: 3
    stride: 2
  }
}
layer {
  name: "conv2"
  type: "Convolution"
  bottom: "pool1"
  top: "conv2"
  param {
    lr_mult: 1
    decay_mult: 1
  }
  param {
    lr_mult: 2
    decay_mult: 0
  }
  convolution_param {
    num_output: 256
    pad: 2
    kernel_size: 5
    group: 2
    weight_filler {
      type: "gaussian"
      std: 0.01
    }
    bias_filler {
      type: "constant"
      value: 0.1
    }
  }
}
layer {
  name: "relu2"
  type: "ReLU"
  bottom: "conv2"
  top: "conv2"
}
layer {
  name: "norm2"
  type: "LRN"
  bottom: "conv2"
  top: "norm2"
  lrn_param {
    local_size: 5
    alpha: 0.0001
    beta: 0.75
  }
}
layer {
  name: "pool2"
  type: "Pooling"
  bottom: "norm2"
  top: "pool2"
  pooling_param {
    pool: MAX
    kernel_size: 3
    stride: 2
  }
}
layer {
  name: "conv3"
  type: "Convolution"
  bottom: "pool2"
  top: "conv3"
  param {
    lr_mult: 1
    decay_mult: 1
  }
  param {
    lr_mult: 2
    decay_mult: 0
  }
  convolution_param {
    num_output: 384
    pad: 1
    kernel_size: 3
    weight_filler {
      type: "gaussian"
      std: 0.01
    }
    bias_filler {
      type: "constant"
      value: 0
    }
  }
}
layer {
  name: "relu3"
  type: "ReLU"
  bottom: "conv3"
  top: "conv3"
}
layer {
  name: "conv4"
  type: "Convolution"
  bottom: "conv3"
  top: "conv4"
  param {
    lr_mult: 1
    decay_mult: 1
  }
  param {
    lr_mult: 2
    decay_mult: 0
  }
  convolution_param {
    num_output: 384
    pad: 1
    kernel_size: 3
    group: 2
    weight_filler {
      type: "gaussian"
      std: 0.01
    }
    bias_filler {
      type: "constant"
      value: 0.1
    }
  }
}
layer {
  name: "relu4"
  type: "ReLU"
  bottom: "conv4"
  top: "conv4"
}
layer {
  name: "conv5"
  type: "Convolution"
  bottom: "conv4"
  top: "conv5"
  param {
    lr_mult: 1
    decay_mult: 1
  }
  param {
    lr_mult: 2
    decay_mult: 0
  }
  convolution_param {
    num_output: 256
    pad: 1
    kernel_size: 3
    group: 2
    weight_filler {
      type: "gaussian"
      std: 0.01
    }
    bias_filler {
      type: "constant"
      value: 0.1
    }
  }
}
layer {
  name: "relu5"
  type: "ReLU"
  bottom: "conv5"
  top: "conv5"
}
layer {
  name: "pool5"
  type: "Pooling"
  bottom: "conv5"
  top: "pool5"
  pooling_param {
    pool: MAX
    kernel_size: 3
    stride: 2
  }
}
layer {
  name: "fc6"
  type: "InnerProduct"
  bottom: "pool5"
  top: "fc6"
  param {
    lr_mult: 1
    decay_mult: 1
  }
  param {
    lr_mult: 2
    decay_mult: 0
  }
  inner_product_param {
    num_output: 4096
    weight_filler {
      type: "gaussian"
      std: 0.005
    }
    bias_filler {
      type: "constant"
      value: 0.1
    }
  }
}
layer {
  name: "relu6"
  type: "ReLU"
  bottom: "fc6"
  top: "fc6"
}
layer {
  name: "drop6"
  type: "Dropout"
  bottom: "fc6"
  top: "fc6"
  dropout_param {
    dropout_ratio: 0.5
  }
}
layer {
  name: "fc7"
  type: "InnerProduct"
  bottom: "fc6"
  top: "fc7"
  param {
    lr_mult: 1
    decay_mult: 1
  }
  param {
    lr_mult: 2
    decay_mult: 0
  }
  inner_product_param {
    num_output: 4096
    weight_filler {
      type: "gaussian"
      std: 0.005
    }
    bias_filler {
      type: "constant"
      value: 0.1
    }
  }
}
layer {
  name: "relu7"
  type: "ReLU"
  bottom: "fc7"
  top: "fc7"
}
layer {
  name: "drop7"
  type: "Dropout"
  bottom: "fc7"
  top: "fc7"
  dropout_param {
    dropout_ratio: 0.5
  }
}
layer {
  name: "fc8_plantvillage"
  type: "InnerProduct"
  bottom: "fc7"
  top: "fc8_plantvillage"
  param {
    lr_mult: 1
    decay_mult: 1
  }
  param {
    lr_mult: 2
    decay_mult: 0
  }
  inner_product_param {
    num_output: 38
    weight_filler {
      type: "gaussian"
      std: 0.01
    }
    bias_filler {
      type: "constant"
      value: 0
    }
  }
}
layer {
  name: "prob"
  type: "Softmax"
  bottom: "fc8_plantvillage"
  top: "prob"
  include {
    phase: TEST
  }
}
layer {
  name: "hdf5out"
  type: "HDF5Output"
  bottom: "prob"
  bottom: "label"
  include {
    phase: TEST
  }
  hdf5_output_param {
    file_name: "hdf5_dumps/iter_1345.h5"
  }
}
layer {
  name: "loss"
  type: "SoftmaxWithLoss"
  bottom: "fc8_plantvillage"
  bottom: "label"
  top: "loss"
}
layer {
  name: "accuracy"
  type: "Accuracy"
  bottom: "fc8_plantvillage"
  bottom: "label"
  top: "accuracy"
  include {
    phase: TEST
  }
}
I0403 12:57:06.117547 27077 layer_factory.hpp:77] Creating layer data
I0403 12:57:06.118227 27077 net.cpp:91] Creating Layer data
I0403 12:57:06.118262 27077 net.cpp:399] data -> data
I0403 12:57:06.118314 27077 net.cpp:399] data -> label
I0403 12:57:06.118355 27077 data_transformer.cpp:25] Loading mean file from: /home/mohanty/data/final_dataset/lmdb/color-50-50/mean.binaryproto
I0403 12:57:06.121292 27080 db_lmdb.cpp:38] Opened lmdb /home/mohanty/data/final_dataset/lmdb/color-50-50/test_db
I0403 12:57:06.133092 27077 data_layer.cpp:41] output data size: 100,3,227,227
I0403 12:57:06.253520 27077 net.cpp:141] Setting up data
I0403 12:57:06.253612 27077 net.cpp:148] Top shape: 100 3 227 227 (15458700)
I0403 12:57:06.253636 27077 net.cpp:148] Top shape: 100 (100)
I0403 12:57:06.253654 27077 net.cpp:156] Memory required for data: 61835200
I0403 12:57:06.253681 27077 layer_factory.hpp:77] Creating layer label_data_1_split
I0403 12:57:06.253708 27077 net.cpp:91] Creating Layer label_data_1_split
I0403 12:57:06.253727 27077 net.cpp:425] label_data_1_split <- label
I0403 12:57:06.253761 27077 net.cpp:399] label_data_1_split -> label_data_1_split_0
I0403 12:57:06.253788 27077 net.cpp:399] label_data_1_split -> label_data_1_split_1
I0403 12:57:06.253810 27077 net.cpp:399] label_data_1_split -> label_data_1_split_2
I0403 12:57:06.253877 27077 net.cpp:141] Setting up label_data_1_split
I0403 12:57:06.253902 27077 net.cpp:148] Top shape: 100 (100)
I0403 12:57:06.253921 27077 net.cpp:148] Top shape: 100 (100)
I0403 12:57:06.253937 27077 net.cpp:148] Top shape: 100 (100)
I0403 12:57:06.253952 27077 net.cpp:156] Memory required for data: 61836400
I0403 12:57:06.253968 27077 layer_factory.hpp:77] Creating layer conv1
I0403 12:57:06.254003 27077 net.cpp:91] Creating Layer conv1
I0403 12:57:06.254024 27077 net.cpp:425] conv1 <- data
I0403 12:57:06.254045 27077 net.cpp:399] conv1 -> conv1
I0403 12:57:06.395831 27077 net.cpp:141] Setting up conv1
I0403 12:57:06.395908 27077 net.cpp:148] Top shape: 100 96 55 55 (29040000)
I0403 12:57:06.395927 27077 net.cpp:156] Memory required for data: 177996400
I0403 12:57:06.395958 27077 layer_factory.hpp:77] Creating layer relu1
I0403 12:57:06.395987 27077 net.cpp:91] Creating Layer relu1
I0403 12:57:06.396006 27077 net.cpp:425] relu1 <- conv1
I0403 12:57:06.396026 27077 net.cpp:386] relu1 -> conv1 (in-place)
I0403 12:57:06.396284 27077 net.cpp:141] Setting up relu1
I0403 12:57:06.396312 27077 net.cpp:148] Top shape: 100 96 55 55 (29040000)
I0403 12:57:06.396328 27077 net.cpp:156] Memory required for data: 294156400
I0403 12:57:06.396381 27077 layer_factory.hpp:77] Creating layer norm1
I0403 12:57:06.396412 27077 net.cpp:91] Creating Layer norm1
I0403 12:57:06.396432 27077 net.cpp:425] norm1 <- conv1
I0403 12:57:06.396451 27077 net.cpp:399] norm1 -> norm1
I0403 12:57:06.396762 27077 net.cpp:141] Setting up norm1
I0403 12:57:06.396791 27077 net.cpp:148] Top shape: 100 96 55 55 (29040000)
I0403 12:57:06.396808 27077 net.cpp:156] Memory required for data: 410316400
I0403 12:57:06.396824 27077 layer_factory.hpp:77] Creating layer pool1
I0403 12:57:06.396848 27077 net.cpp:91] Creating Layer pool1
I0403 12:57:06.396867 27077 net.cpp:425] pool1 <- norm1
I0403 12:57:06.396886 27077 net.cpp:399] pool1 -> pool1
I0403 12:57:06.396955 27077 net.cpp:141] Setting up pool1
I0403 12:57:06.396980 27077 net.cpp:148] Top shape: 100 96 27 27 (6998400)
I0403 12:57:06.396996 27077 net.cpp:156] Memory required for data: 438310000
I0403 12:57:06.397011 27077 layer_factory.hpp:77] Creating layer conv2
I0403 12:57:06.397037 27077 net.cpp:91] Creating Layer conv2
I0403 12:57:06.397055 27077 net.cpp:425] conv2 <- pool1
I0403 12:57:06.397074 27077 net.cpp:399] conv2 -> conv2
I0403 12:57:06.411909 27077 net.cpp:141] Setting up conv2
I0403 12:57:06.411962 27077 net.cpp:148] Top shape: 100 256 27 27 (18662400)
I0403 12:57:06.411979 27077 net.cpp:156] Memory required for data: 512959600
I0403 12:57:06.412005 27077 layer_factory.hpp:77] Creating layer relu2
I0403 12:57:06.412029 27077 net.cpp:91] Creating Layer relu2
I0403 12:57:06.412047 27077 net.cpp:425] relu2 <- conv2
I0403 12:57:06.412070 27077 net.cpp:386] relu2 -> conv2 (in-place)
I0403 12:57:06.412343 27077 net.cpp:141] Setting up relu2
I0403 12:57:06.412375 27077 net.cpp:148] Top shape: 100 256 27 27 (18662400)
I0403 12:57:06.412391 27077 net.cpp:156] Memory required for data: 587609200
I0403 12:57:06.412416 27077 layer_factory.hpp:77] Creating layer norm2
I0403 12:57:06.412439 27077 net.cpp:91] Creating Layer norm2
I0403 12:57:06.412457 27077 net.cpp:425] norm2 <- conv2
I0403 12:57:06.412477 27077 net.cpp:399] norm2 -> norm2
I0403 12:57:06.412672 27077 net.cpp:141] Setting up norm2
I0403 12:57:06.412699 27077 net.cpp:148] Top shape: 100 256 27 27 (18662400)
I0403 12:57:06.412726 27077 net.cpp:156] Memory required for data: 662258800
I0403 12:57:06.412741 27077 layer_factory.hpp:77] Creating layer pool2
I0403 12:57:06.412761 27077 net.cpp:91] Creating Layer pool2
I0403 12:57:06.412786 27077 net.cpp:425] pool2 <- norm2
I0403 12:57:06.412807 27077 net.cpp:399] pool2 -> pool2
I0403 12:57:06.412863 27077 net.cpp:141] Setting up pool2
I0403 12:57:06.412888 27077 net.cpp:148] Top shape: 100 256 13 13 (4326400)
I0403 12:57:06.412904 27077 net.cpp:156] Memory required for data: 679564400
I0403 12:57:06.412919 27077 layer_factory.hpp:77] Creating layer conv3
I0403 12:57:06.412945 27077 net.cpp:91] Creating Layer conv3
I0403 12:57:06.412964 27077 net.cpp:425] conv3 <- pool2
I0403 12:57:06.412984 27077 net.cpp:399] conv3 -> conv3
I0403 12:57:06.452049 27077 net.cpp:141] Setting up conv3
I0403 12:57:06.452123 27077 net.cpp:148] Top shape: 100 384 13 13 (6489600)
I0403 12:57:06.452141 27077 net.cpp:156] Memory required for data: 705522800
I0403 12:57:06.452168 27077 layer_factory.hpp:77] Creating layer relu3
I0403 12:57:06.452194 27077 net.cpp:91] Creating Layer relu3
I0403 12:57:06.452214 27077 net.cpp:425] relu3 <- conv3
I0403 12:57:06.452234 27077 net.cpp:386] relu3 -> conv3 (in-place)
I0403 12:57:06.452520 27077 net.cpp:141] Setting up relu3
I0403 12:57:06.452548 27077 net.cpp:148] Top shape: 100 384 13 13 (6489600)
I0403 12:57:06.452565 27077 net.cpp:156] Memory required for data: 731481200
I0403 12:57:06.452582 27077 layer_factory.hpp:77] Creating layer conv4
I0403 12:57:06.452610 27077 net.cpp:91] Creating Layer conv4
I0403 12:57:06.452628 27077 net.cpp:425] conv4 <- conv3
I0403 12:57:06.452651 27077 net.cpp:399] conv4 -> conv4
I0403 12:57:06.482343 27077 net.cpp:141] Setting up conv4
I0403 12:57:06.482414 27077 net.cpp:148] Top shape: 100 384 13 13 (6489600)
I0403 12:57:06.482462 27077 net.cpp:156] Memory required for data: 757439600
I0403 12:57:06.482486 27077 layer_factory.hpp:77] Creating layer relu4
I0403 12:57:06.482509 27077 net.cpp:91] Creating Layer relu4
I0403 12:57:06.482527 27077 net.cpp:425] relu4 <- conv4
I0403 12:57:06.482549 27077 net.cpp:386] relu4 -> conv4 (in-place)
I0403 12:57:06.482837 27077 net.cpp:141] Setting up relu4
I0403 12:57:06.482868 27077 net.cpp:148] Top shape: 100 384 13 13 (6489600)
I0403 12:57:06.482887 27077 net.cpp:156] Memory required for data: 783398000
I0403 12:57:06.482903 27077 layer_factory.hpp:77] Creating layer conv5
I0403 12:57:06.482929 27077 net.cpp:91] Creating Layer conv5
I0403 12:57:06.482949 27077 net.cpp:425] conv5 <- conv4
I0403 12:57:06.482969 27077 net.cpp:399] conv5 -> conv5
I0403 12:57:06.503327 27077 net.cpp:141] Setting up conv5
I0403 12:57:06.503366 27077 net.cpp:148] Top shape: 100 256 13 13 (4326400)
I0403 12:57:06.503384 27077 net.cpp:156] Memory required for data: 800703600
I0403 12:57:06.503410 27077 layer_factory.hpp:77] Creating layer relu5
I0403 12:57:06.503432 27077 net.cpp:91] Creating Layer relu5
I0403 12:57:06.503449 27077 net.cpp:425] relu5 <- conv5
I0403 12:57:06.503471 27077 net.cpp:386] relu5 -> conv5 (in-place)
I0403 12:57:06.503759 27077 net.cpp:141] Setting up relu5
I0403 12:57:06.503788 27077 net.cpp:148] Top shape: 100 256 13 13 (4326400)
I0403 12:57:06.503804 27077 net.cpp:156] Memory required for data: 818009200
I0403 12:57:06.503821 27077 layer_factory.hpp:77] Creating layer pool5
I0403 12:57:06.503847 27077 net.cpp:91] Creating Layer pool5
I0403 12:57:06.503865 27077 net.cpp:425] pool5 <- conv5
I0403 12:57:06.503885 27077 net.cpp:399] pool5 -> pool5
I0403 12:57:06.503950 27077 net.cpp:141] Setting up pool5
I0403 12:57:06.503975 27077 net.cpp:148] Top shape: 100 256 6 6 (921600)
I0403 12:57:06.504004 27077 net.cpp:156] Memory required for data: 821695600
I0403 12:57:06.504019 27077 layer_factory.hpp:77] Creating layer fc6
I0403 12:57:06.504047 27077 net.cpp:91] Creating Layer fc6
I0403 12:57:06.504065 27077 net.cpp:425] fc6 <- pool5
I0403 12:57:06.504084 27077 net.cpp:399] fc6 -> fc6
I0403 12:57:08.077075 27077 net.cpp:141] Setting up fc6
I0403 12:57:08.077150 27077 net.cpp:148] Top shape: 100 4096 (409600)
I0403 12:57:08.077167 27077 net.cpp:156] Memory required for data: 823334000
I0403 12:57:08.077189 27077 layer_factory.hpp:77] Creating layer relu6
I0403 12:57:08.077213 27077 net.cpp:91] Creating Layer relu6
I0403 12:57:08.077229 27077 net.cpp:425] relu6 <- fc6
I0403 12:57:08.077253 27077 net.cpp:386] relu6 -> fc6 (in-place)
I0403 12:57:08.077477 27077 net.cpp:141] Setting up relu6
I0403 12:57:08.077503 27077 net.cpp:148] Top shape: 100 4096 (409600)
I0403 12:57:08.077519 27077 net.cpp:156] Memory required for data: 824972400
I0403 12:57:08.077534 27077 layer_factory.hpp:77] Creating layer drop6
I0403 12:57:08.077554 27077 net.cpp:91] Creating Layer drop6
I0403 12:57:08.077571 27077 net.cpp:425] drop6 <- fc6
I0403 12:57:08.077591 27077 net.cpp:386] drop6 -> fc6 (in-place)
I0403 12:57:08.077642 27077 net.cpp:141] Setting up drop6
I0403 12:57:08.077669 27077 net.cpp:148] Top shape: 100 4096 (409600)
I0403 12:57:08.077685 27077 net.cpp:156] Memory required for data: 826610800
I0403 12:57:08.077700 27077 layer_factory.hpp:77] Creating layer fc7
I0403 12:57:08.077721 27077 net.cpp:91] Creating Layer fc7
I0403 12:57:08.077738 27077 net.cpp:425] fc7 <- fc6
I0403 12:57:08.077759 27077 net.cpp:399] fc7 -> fc7
I0403 12:57:08.773355 27077 net.cpp:141] Setting up fc7
I0403 12:57:08.773401 27077 net.cpp:148] Top shape: 100 4096 (409600)
I0403 12:57:08.773417 27077 net.cpp:156] Memory required for data: 828249200
I0403 12:57:08.773440 27077 layer_factory.hpp:77] Creating layer relu7
I0403 12:57:08.773463 27077 net.cpp:91] Creating Layer relu7
I0403 12:57:08.773483 27077 net.cpp:425] relu7 <- fc7
I0403 12:57:08.773505 27077 net.cpp:386] relu7 -> fc7 (in-place)
I0403 12:57:08.773941 27077 net.cpp:141] Setting up relu7
I0403 12:57:08.773968 27077 net.cpp:148] Top shape: 100 4096 (409600)
I0403 12:57:08.774015 27077 net.cpp:156] Memory required for data: 829887600
I0403 12:57:08.774034 27077 layer_factory.hpp:77] Creating layer drop7
I0403 12:57:08.774055 27077 net.cpp:91] Creating Layer drop7
I0403 12:57:08.774070 27077 net.cpp:425] drop7 <- fc7
I0403 12:57:08.774092 27077 net.cpp:386] drop7 -> fc7 (in-place)
I0403 12:57:08.774138 27077 net.cpp:141] Setting up drop7
I0403 12:57:08.774163 27077 net.cpp:148] Top shape: 100 4096 (409600)
I0403 12:57:08.774178 27077 net.cpp:156] Memory required for data: 831526000
I0403 12:57:08.774194 27077 layer_factory.hpp:77] Creating layer fc8_plantvillage
I0403 12:57:08.774214 27077 net.cpp:91] Creating Layer fc8_plantvillage
I0403 12:57:08.774230 27077 net.cpp:425] fc8_plantvillage <- fc7
I0403 12:57:08.774250 27077 net.cpp:399] fc8_plantvillage -> fc8_plantvillage
I0403 12:57:08.781230 27077 net.cpp:141] Setting up fc8_plantvillage
I0403 12:57:08.781260 27077 net.cpp:148] Top shape: 100 38 (3800)
I0403 12:57:08.781280 27077 net.cpp:156] Memory required for data: 831541200
I0403 12:57:08.781299 27077 layer_factory.hpp:77] Creating layer fc8_plantvillage_fc8_plantvillage_0_split
I0403 12:57:08.781319 27077 net.cpp:91] Creating Layer fc8_plantvillage_fc8_plantvillage_0_split
I0403 12:57:08.781337 27077 net.cpp:425] fc8_plantvillage_fc8_plantvillage_0_split <- fc8_plantvillage
I0403 12:57:08.781363 27077 net.cpp:399] fc8_plantvillage_fc8_plantvillage_0_split -> fc8_plantvillage_fc8_plantvillage_0_split_0
I0403 12:57:08.781386 27077 net.cpp:399] fc8_plantvillage_fc8_plantvillage_0_split -> fc8_plantvillage_fc8_plantvillage_0_split_1
I0403 12:57:08.781407 27077 net.cpp:399] fc8_plantvillage_fc8_plantvillage_0_split -> fc8_plantvillage_fc8_plantvillage_0_split_2
I0403 12:57:08.781487 27077 net.cpp:141] Setting up fc8_plantvillage_fc8_plantvillage_0_split
I0403 12:57:08.781513 27077 net.cpp:148] Top shape: 100 38 (3800)
I0403 12:57:08.781530 27077 net.cpp:148] Top shape: 100 38 (3800)
I0403 12:57:08.781560 27077 net.cpp:148] Top shape: 100 38 (3800)
I0403 12:57:08.781574 27077 net.cpp:156] Memory required for data: 831586800
I0403 12:57:08.781590 27077 layer_factory.hpp:77] Creating layer prob
I0403 12:57:08.781610 27077 net.cpp:91] Creating Layer prob
I0403 12:57:08.781627 27077 net.cpp:425] prob <- fc8_plantvillage_fc8_plantvillage_0_split_0
I0403 12:57:08.781649 27077 net.cpp:399] prob -> prob
I0403 12:57:08.781901 27077 net.cpp:141] Setting up prob
I0403 12:57:08.781929 27077 net.cpp:148] Top shape: 100 38 (3800)
I0403 12:57:08.781944 27077 net.cpp:156] Memory required for data: 831602000
I0403 12:57:08.781960 27077 layer_factory.hpp:77] Creating layer hdf5out
I0403 12:57:08.781980 27077 net.cpp:91] Creating Layer hdf5out
I0403 12:57:08.781996 27077 net.cpp:425] hdf5out <- prob
I0403 12:57:08.782013 27077 net.cpp:425] hdf5out <- label_data_1_split_0
I0403 12:57:08.785650 27077 net.cpp:141] Setting up hdf5out
…
