…
I0403 13:09:21.390727 27502 net.cpp:313] The NetState phase (1) differed from the phase (0) specified by a rule in layer data
I0403 13:09:21.391041 27502 net.cpp:49] Initializing net from parameters: 
state {
  phase: TEST
}
layer {
  name: "data"
  type: "Data"
  top: "data"
  top: "label"
  include {
    phase: TEST
  }
  transform_param {
    crop_size: 227
    mean_file: "/home/mohanty/data/final_dataset/lmdb/color-50-50/mean.binaryproto"
  }
  data_param {
    source: "/home/mohanty/data/final_dataset/lmdb/color-50-50/test_db"
    batch_size: 100
    backend: LMDB
  }
}
layer {
  name: "conv1"
  type: "Convolution"
  bottom: "data"
  top: "conv1"
  param {
    lr_mult: 1
    decay_mult: 1
  }
  param {
    lr_mult: 2
    decay_mult: 0
  }
  convolution_param {
    num_output: 96
    kernel_size: 11
    stride: 4
    weight_filler {
      type: "gaussian"
      std: 0.01
    }
    bias_filler {
      type: "constant"
      value: 0
    }
  }
}
layer {
  name: "relu1"
  type: "ReLU"
  bottom: "conv1"
  top: "conv1"
}
layer {
  name: "norm1"
  type: "LRN"
  bottom: "conv1"
  top: "norm1"
  lrn_param {
    local_size: 5
    alpha: 0.0001
    beta: 0.75
  }
}
layer {
  name: "pool1"
  type: "Pooling"
  bottom: "norm1"
  top: "pool1"
  pooling_param {
    pool: MAX
    kernel_size: 3
    stride: 2
  }
}
layer {
  name: "conv2"
  type: "Convolution"
  bottom: "pool1"
  top: "conv2"
  param {
    lr_mult: 1
    decay_mult: 1
  }
  param {
    lr_mult: 2
    decay_mult: 0
  }
  convolution_param {
    num_output: 256
    pad: 2
    kernel_size: 5
    group: 2
    weight_filler {
      type: "gaussian"
      std: 0.01
    }
    bias_filler {
      type: "constant"
      value: 0.1
    }
  }
}
layer {
  name: "relu2"
  type: "ReLU"
  bottom: "conv2"
  top: "conv2"
}
layer {
  name: "norm2"
  type: "LRN"
  bottom: "conv2"
  top: "norm2"
  lrn_param {
    local_size: 5
    alpha: 0.0001
    beta: 0.75
  }
}
layer {
  name: "pool2"
  type: "Pooling"
  bottom: "norm2"
  top: "pool2"
  pooling_param {
    pool: MAX
    kernel_size: 3
    stride: 2
  }
}
layer {
  name: "conv3"
  type: "Convolution"
  bottom: "pool2"
  top: "conv3"
  param {
    lr_mult: 1
    decay_mult: 1
  }
  param {
    lr_mult: 2
    decay_mult: 0
  }
  convolution_param {
    num_output: 384
    pad: 1
    kernel_size: 3
    weight_filler {
      type: "gaussian"
      std: 0.01
    }
    bias_filler {
      type: "constant"
      value: 0
    }
  }
}
layer {
  name: "relu3"
  type: "ReLU"
  bottom: "conv3"
  top: "conv3"
}
layer {
  name: "conv4"
  type: "Convolution"
  bottom: "conv3"
  top: "conv4"
  param {
    lr_mult: 1
    decay_mult: 1
  }
  param {
    lr_mult: 2
    decay_mult: 0
  }
  convolution_param {
    num_output: 384
    pad: 1
    kernel_size: 3
    group: 2
    weight_filler {
      type: "gaussian"
      std: 0.01
    }
    bias_filler {
      type: "constant"
      value: 0.1
    }
  }
}
layer {
  name: "relu4"
  type: "ReLU"
  bottom: "conv4"
  top: "conv4"
}
layer {
  name: "conv5"
  type: "Convolution"
  bottom: "conv4"
  top: "conv5"
  param {
    lr_mult: 1
    decay_mult: 1
  }
  param {
    lr_mult: 2
    decay_mult: 0
  }
  convolution_param {
    num_output: 256
    pad: 1
    kernel_size: 3
    group: 2
    weight_filler {
      type: "gaussian"
      std: 0.01
    }
    bias_filler {
      type: "constant"
      value: 0.1
    }
  }
}
layer {
  name: "relu5"
  type: "ReLU"
  bottom: "conv5"
  top: "conv5"
}
layer {
  name: "pool5"
  type: "Pooling"
  bottom: "conv5"
  top: "pool5"
  pooling_param {
    pool: MAX
    kernel_size: 3
    stride: 2
  }
}
layer {
  name: "fc6"
  type: "InnerProduct"
  bottom: "pool5"
  top: "fc6"
  param {
    lr_mult: 1
    decay_mult: 1
  }
  param {
    lr_mult: 2
    decay_mult: 0
  }
  inner_product_param {
    num_output: 4096
    weight_filler {
      type: "gaussian"
      std: 0.005
    }
    bias_filler {
      type: "constant"
      value: 0.1
    }
  }
}
layer {
  name: "relu6"
  type: "ReLU"
  bottom: "fc6"
  top: "fc6"
}
layer {
  name: "drop6"
  type: "Dropout"
  bottom: "fc6"
  top: "fc6"
  dropout_param {
    dropout_ratio: 0.5
  }
}
layer {
  name: "fc7"
  type: "InnerProduct"
  bottom: "fc6"
  top: "fc7"
  param {
    lr_mult: 1
    decay_mult: 1
  }
  param {
    lr_mult: 2
    decay_mult: 0
  }
  inner_product_param {
    num_output: 4096
    weight_filler {
      type: "gaussian"
      std: 0.005
    }
    bias_filler {
      type: "constant"
      value: 0.1
    }
  }
}
layer {
  name: "relu7"
  type: "ReLU"
  bottom: "fc7"
  top: "fc7"
}
layer {
  name: "drop7"
  type: "Dropout"
  bottom: "fc7"
  top: "fc7"
  dropout_param {
    dropout_ratio: 0.5
  }
}
layer {
  name: "fc8_plantvillage"
  type: "InnerProduct"
  bottom: "fc7"
  top: "fc8_plantvillage"
  param {
    lr_mult: 1
    decay_mult: 1
  }
  param {
    lr_mult: 2
    decay_mult: 0
  }
  inner_product_param {
    num_output: 38
    weight_filler {
      type: "gaussian"
      std: 0.01
    }
    bias_filler {
      type: "constant"
      value: 0
    }
  }
}
layer {
  name: "prob"
  type: "Softmax"
  bottom: "fc8_plantvillage"
  top: "prob"
  include {
    phase: TEST
  }
}
layer {
  name: "hdf5out"
  type: "HDF5Output"
  bottom: "prob"
  bottom: "label"
  include {
    phase: TEST
  }
  hdf5_output_param {
    file_name: "hdf5_dumps/iter_4842.h5"
  }
}
layer {
  name: "loss"
  type: "SoftmaxWithLoss"
  bottom: "fc8_plantvillage"
  bottom: "label"
  top: "loss"
}
layer {
  name: "accuracy"
  type: "Accuracy"
  bottom: "fc8_plantvillage"
  bottom: "label"
  top: "accuracy"
  include {
    phase: TEST
  }
}
I0403 13:09:21.391664 27502 layer_factory.hpp:77] Creating layer data
I0403 13:09:21.392325 27502 net.cpp:91] Creating Layer data
I0403 13:09:21.392365 27502 net.cpp:399] data -> data
I0403 13:09:21.392421 27502 net.cpp:399] data -> label
I0403 13:09:21.392460 27502 data_transformer.cpp:25] Loading mean file from: /home/mohanty/data/final_dataset/lmdb/color-50-50/mean.binaryproto
I0403 13:09:21.395023 27507 db_lmdb.cpp:38] Opened lmdb /home/mohanty/data/final_dataset/lmdb/color-50-50/test_db
I0403 13:09:21.408237 27502 data_layer.cpp:41] output data size: 100,3,227,227
I0403 13:09:21.530534 27502 net.cpp:141] Setting up data
I0403 13:09:21.530627 27502 net.cpp:148] Top shape: 100 3 227 227 (15458700)
I0403 13:09:21.530650 27502 net.cpp:148] Top shape: 100 (100)
I0403 13:09:21.530668 27502 net.cpp:156] Memory required for data: 61835200
I0403 13:09:21.530697 27502 layer_factory.hpp:77] Creating layer label_data_1_split
I0403 13:09:21.530724 27502 net.cpp:91] Creating Layer label_data_1_split
I0403 13:09:21.530743 27502 net.cpp:425] label_data_1_split <- label
I0403 13:09:21.530776 27502 net.cpp:399] label_data_1_split -> label_data_1_split_0
I0403 13:09:21.530805 27502 net.cpp:399] label_data_1_split -> label_data_1_split_1
I0403 13:09:21.530829 27502 net.cpp:399] label_data_1_split -> label_data_1_split_2
I0403 13:09:21.530895 27502 net.cpp:141] Setting up label_data_1_split
I0403 13:09:21.530920 27502 net.cpp:148] Top shape: 100 (100)
I0403 13:09:21.530939 27502 net.cpp:148] Top shape: 100 (100)
I0403 13:09:21.530956 27502 net.cpp:148] Top shape: 100 (100)
I0403 13:09:21.530972 27502 net.cpp:156] Memory required for data: 61836400
I0403 13:09:21.530989 27502 layer_factory.hpp:77] Creating layer conv1
I0403 13:09:21.531023 27502 net.cpp:91] Creating Layer conv1
I0403 13:09:21.531044 27502 net.cpp:425] conv1 <- data
I0403 13:09:21.531064 27502 net.cpp:399] conv1 -> conv1
I0403 13:09:21.677358 27502 net.cpp:141] Setting up conv1
I0403 13:09:21.677438 27502 net.cpp:148] Top shape: 100 96 55 55 (29040000)
I0403 13:09:21.677458 27502 net.cpp:156] Memory required for data: 177996400
I0403 13:09:21.677491 27502 layer_factory.hpp:77] Creating layer relu1
I0403 13:09:21.677522 27502 net.cpp:91] Creating Layer relu1
I0403 13:09:21.677542 27502 net.cpp:425] relu1 <- conv1
I0403 13:09:21.677564 27502 net.cpp:386] relu1 -> conv1 (in-place)
I0403 13:09:21.677831 27502 net.cpp:141] Setting up relu1
I0403 13:09:21.677861 27502 net.cpp:148] Top shape: 100 96 55 55 (29040000)
I0403 13:09:21.677878 27502 net.cpp:156] Memory required for data: 294156400
I0403 13:09:21.677930 27502 layer_factory.hpp:77] Creating layer norm1
I0403 13:09:21.677961 27502 net.cpp:91] Creating Layer norm1
I0403 13:09:21.677981 27502 net.cpp:425] norm1 <- conv1
I0403 13:09:21.678002 27502 net.cpp:399] norm1 -> norm1
I0403 13:09:21.678325 27502 net.cpp:141] Setting up norm1
I0403 13:09:21.678359 27502 net.cpp:148] Top shape: 100 96 55 55 (29040000)
I0403 13:09:21.678378 27502 net.cpp:156] Memory required for data: 410316400
I0403 13:09:21.678396 27502 layer_factory.hpp:77] Creating layer pool1
I0403 13:09:21.678421 27502 net.cpp:91] Creating Layer pool1
I0403 13:09:21.678438 27502 net.cpp:425] pool1 <- norm1
I0403 13:09:21.678458 27502 net.cpp:399] pool1 -> pool1
I0403 13:09:21.678529 27502 net.cpp:141] Setting up pool1
I0403 13:09:21.678555 27502 net.cpp:148] Top shape: 100 96 27 27 (6998400)
I0403 13:09:21.678571 27502 net.cpp:156] Memory required for data: 438310000
I0403 13:09:21.678588 27502 layer_factory.hpp:77] Creating layer conv2
I0403 13:09:21.678617 27502 net.cpp:91] Creating Layer conv2
I0403 13:09:21.678633 27502 net.cpp:425] conv2 <- pool1
I0403 13:09:21.678654 27502 net.cpp:399] conv2 -> conv2
I0403 13:09:21.694355 27502 net.cpp:141] Setting up conv2
I0403 13:09:21.694407 27502 net.cpp:148] Top shape: 100 256 27 27 (18662400)
I0403 13:09:21.694427 27502 net.cpp:156] Memory required for data: 512959600
I0403 13:09:21.694453 27502 layer_factory.hpp:77] Creating layer relu2
I0403 13:09:21.694478 27502 net.cpp:91] Creating Layer relu2
I0403 13:09:21.694495 27502 net.cpp:425] relu2 <- conv2
I0403 13:09:21.694516 27502 net.cpp:386] relu2 -> conv2 (in-place)
I0403 13:09:21.694795 27502 net.cpp:141] Setting up relu2
I0403 13:09:21.694824 27502 net.cpp:148] Top shape: 100 256 27 27 (18662400)
I0403 13:09:21.694842 27502 net.cpp:156] Memory required for data: 587609200
I0403 13:09:21.694860 27502 layer_factory.hpp:77] Creating layer norm2
I0403 13:09:21.694885 27502 net.cpp:91] Creating Layer norm2
I0403 13:09:21.694903 27502 net.cpp:425] norm2 <- conv2
I0403 13:09:21.694923 27502 net.cpp:399] norm2 -> norm2
I0403 13:09:21.695122 27502 net.cpp:141] Setting up norm2
I0403 13:09:21.695152 27502 net.cpp:148] Top shape: 100 256 27 27 (18662400)
I0403 13:09:21.695170 27502 net.cpp:156] Memory required for data: 662258800
I0403 13:09:21.695188 27502 layer_factory.hpp:77] Creating layer pool2
I0403 13:09:21.695209 27502 net.cpp:91] Creating Layer pool2
I0403 13:09:21.695226 27502 net.cpp:425] pool2 <- norm2
I0403 13:09:21.695248 27502 net.cpp:399] pool2 -> pool2
I0403 13:09:21.695307 27502 net.cpp:141] Setting up pool2
I0403 13:09:21.695333 27502 net.cpp:148] Top shape: 100 256 13 13 (4326400)
I0403 13:09:21.695354 27502 net.cpp:156] Memory required for data: 679564400
I0403 13:09:21.695374 27502 layer_factory.hpp:77] Creating layer conv3
I0403 13:09:21.695401 27502 net.cpp:91] Creating Layer conv3
I0403 13:09:21.695421 27502 net.cpp:425] conv3 <- pool2
I0403 13:09:21.695492 27502 net.cpp:399] conv3 -> conv3
I0403 13:09:21.738873 27502 net.cpp:141] Setting up conv3
I0403 13:09:21.738951 27502 net.cpp:148] Top shape: 100 384 13 13 (6489600)
I0403 13:09:21.738970 27502 net.cpp:156] Memory required for data: 705522800
I0403 13:09:21.738998 27502 layer_factory.hpp:77] Creating layer relu3
I0403 13:09:21.739022 27502 net.cpp:91] Creating Layer relu3
I0403 13:09:21.739042 27502 net.cpp:425] relu3 <- conv3
I0403 13:09:21.739066 27502 net.cpp:386] relu3 -> conv3 (in-place)
I0403 13:09:21.739362 27502 net.cpp:141] Setting up relu3
I0403 13:09:21.739390 27502 net.cpp:148] Top shape: 100 384 13 13 (6489600)
I0403 13:09:21.739408 27502 net.cpp:156] Memory required for data: 731481200
I0403 13:09:21.739424 27502 layer_factory.hpp:77] Creating layer conv4
I0403 13:09:21.739452 27502 net.cpp:91] Creating Layer conv4
I0403 13:09:21.739472 27502 net.cpp:425] conv4 <- conv3
I0403 13:09:21.739496 27502 net.cpp:399] conv4 -> conv4
I0403 13:09:21.770309 27502 net.cpp:141] Setting up conv4
I0403 13:09:21.770385 27502 net.cpp:148] Top shape: 100 384 13 13 (6489600)
I0403 13:09:21.770455 27502 net.cpp:156] Memory required for data: 757439600
I0403 13:09:21.770480 27502 layer_factory.hpp:77] Creating layer relu4
I0403 13:09:21.770505 27502 net.cpp:91] Creating Layer relu4
I0403 13:09:21.770525 27502 net.cpp:425] relu4 <- conv4
I0403 13:09:21.770545 27502 net.cpp:386] relu4 -> conv4 (in-place)
I0403 13:09:21.770859 27502 net.cpp:141] Setting up relu4
I0403 13:09:21.770920 27502 net.cpp:148] Top shape: 100 384 13 13 (6489600)
I0403 13:09:21.770938 27502 net.cpp:156] Memory required for data: 783398000
I0403 13:09:21.770956 27502 layer_factory.hpp:77] Creating layer conv5
I0403 13:09:21.770980 27502 net.cpp:91] Creating Layer conv5
I0403 13:09:21.770999 27502 net.cpp:425] conv5 <- conv4
I0403 13:09:21.771023 27502 net.cpp:399] conv5 -> conv5
I0403 13:09:21.792114 27502 net.cpp:141] Setting up conv5
I0403 13:09:21.792172 27502 net.cpp:148] Top shape: 100 256 13 13 (4326400)
I0403 13:09:21.792192 27502 net.cpp:156] Memory required for data: 800703600
I0403 13:09:21.792220 27502 layer_factory.hpp:77] Creating layer relu5
I0403 13:09:21.792243 27502 net.cpp:91] Creating Layer relu5
I0403 13:09:21.792261 27502 net.cpp:425] relu5 <- conv5
I0403 13:09:21.792284 27502 net.cpp:386] relu5 -> conv5 (in-place)
I0403 13:09:21.792582 27502 net.cpp:141] Setting up relu5
I0403 13:09:21.792614 27502 net.cpp:148] Top shape: 100 256 13 13 (4326400)
I0403 13:09:21.792632 27502 net.cpp:156] Memory required for data: 818009200
I0403 13:09:21.792650 27502 layer_factory.hpp:77] Creating layer pool5
I0403 13:09:21.792673 27502 net.cpp:91] Creating Layer pool5
I0403 13:09:21.792695 27502 net.cpp:425] pool5 <- conv5
I0403 13:09:21.792716 27502 net.cpp:399] pool5 -> pool5
I0403 13:09:21.792783 27502 net.cpp:141] Setting up pool5
I0403 13:09:21.792810 27502 net.cpp:148] Top shape: 100 256 6 6 (921600)
I0403 13:09:21.792826 27502 net.cpp:156] Memory required for data: 821695600
I0403 13:09:21.792843 27502 layer_factory.hpp:77] Creating layer fc6
I0403 13:09:21.792871 27502 net.cpp:91] Creating Layer fc6
I0403 13:09:21.792891 27502 net.cpp:425] fc6 <- pool5
I0403 13:09:21.792914 27502 net.cpp:399] fc6 -> fc6
I0403 13:09:23.407950 27502 net.cpp:141] Setting up fc6
I0403 13:09:23.408004 27502 net.cpp:148] Top shape: 100 4096 (409600)
I0403 13:09:23.408035 27502 net.cpp:156] Memory required for data: 823334000
I0403 13:09:23.408056 27502 layer_factory.hpp:77] Creating layer relu6
I0403 13:09:23.408080 27502 net.cpp:91] Creating Layer relu6
I0403 13:09:23.408098 27502 net.cpp:425] relu6 <- fc6
I0403 13:09:23.408119 27502 net.cpp:386] relu6 -> fc6 (in-place)
I0403 13:09:23.408342 27502 net.cpp:141] Setting up relu6
I0403 13:09:23.408371 27502 net.cpp:148] Top shape: 100 4096 (409600)
I0403 13:09:23.408388 27502 net.cpp:156] Memory required for data: 824972400
I0403 13:09:23.408404 27502 layer_factory.hpp:77] Creating layer drop6
I0403 13:09:23.408423 27502 net.cpp:91] Creating Layer drop6
I0403 13:09:23.408439 27502 net.cpp:425] drop6 <- fc6
I0403 13:09:23.408460 27502 net.cpp:386] drop6 -> fc6 (in-place)
I0403 13:09:23.408510 27502 net.cpp:141] Setting up drop6
I0403 13:09:23.408535 27502 net.cpp:148] Top shape: 100 4096 (409600)
I0403 13:09:23.408550 27502 net.cpp:156] Memory required for data: 826610800
I0403 13:09:23.408565 27502 layer_factory.hpp:77] Creating layer fc7
I0403 13:09:23.408589 27502 net.cpp:91] Creating Layer fc7
I0403 13:09:23.408608 27502 net.cpp:425] fc7 <- fc6
I0403 13:09:23.408630 27502 net.cpp:399] fc7 -> fc7
I0403 13:09:24.118840 27502 net.cpp:141] Setting up fc7
I0403 13:09:24.118921 27502 net.cpp:148] Top shape: 100 4096 (409600)
I0403 13:09:24.118940 27502 net.cpp:156] Memory required for data: 828249200
I0403 13:09:24.118968 27502 layer_factory.hpp:77] Creating layer relu7
I0403 13:09:24.118993 27502 net.cpp:91] Creating Layer relu7
I0403 13:09:24.119012 27502 net.cpp:425] relu7 <- fc7
I0403 13:09:24.119034 27502 net.cpp:386] relu7 -> fc7 (in-place)
I0403 13:09:24.119451 27502 net.cpp:141] Setting up relu7
I0403 13:09:24.119482 27502 net.cpp:148] Top shape: 100 4096 (409600)
I0403 13:09:24.119534 27502 net.cpp:156] Memory required for data: 829887600
I0403 13:09:24.119551 27502 layer_factory.hpp:77] Creating layer drop7
I0403 13:09:24.119575 27502 net.cpp:91] Creating Layer drop7
I0403 13:09:24.119591 27502 net.cpp:425] drop7 <- fc7
I0403 13:09:24.119609 27502 net.cpp:386] drop7 -> fc7 (in-place)
I0403 13:09:24.119658 27502 net.cpp:141] Setting up drop7
I0403 13:09:24.119684 27502 net.cpp:148] Top shape: 100 4096 (409600)
I0403 13:09:24.119701 27502 net.cpp:156] Memory required for data: 831526000
I0403 13:09:24.119719 27502 layer_factory.hpp:77] Creating layer fc8_plantvillage
I0403 13:09:24.119741 27502 net.cpp:91] Creating Layer fc8_plantvillage
I0403 13:09:24.119760 27502 net.cpp:425] fc8_plantvillage <- fc7
I0403 13:09:24.119781 27502 net.cpp:399] fc8_plantvillage -> fc8_plantvillage
I0403 13:09:24.126922 27502 net.cpp:141] Setting up fc8_plantvillage
I0403 13:09:24.126953 27502 net.cpp:148] Top shape: 100 38 (3800)
I0403 13:09:24.126971 27502 net.cpp:156] Memory required for data: 831541200
I0403 13:09:24.126991 27502 layer_factory.hpp:77] Creating layer fc8_plantvillage_fc8_plantvillage_0_split
I0403 13:09:24.127012 27502 net.cpp:91] Creating Layer fc8_plantvillage_fc8_plantvillage_0_split
I0403 13:09:24.127029 27502 net.cpp:425] fc8_plantvillage_fc8_plantvillage_0_split <- fc8_plantvillage
I0403 13:09:24.127050 27502 net.cpp:399] fc8_plantvillage_fc8_plantvillage_0_split -> fc8_plantvillage_fc8_plantvillage_0_split_0
I0403 13:09:24.127074 27502 net.cpp:399] fc8_plantvillage_fc8_plantvillage_0_split -> fc8_plantvillage_fc8_plantvillage_0_split_1
I0403 13:09:24.127096 27502 net.cpp:399] fc8_plantvillage_fc8_plantvillage_0_split -> fc8_plantvillage_fc8_plantvillage_0_split_2
I0403 13:09:24.127178 27502 net.cpp:141] Setting up fc8_plantvillage_fc8_plantvillage_0_split
I0403 13:09:24.127205 27502 net.cpp:148] Top shape: 100 38 (3800)
I0403 13:09:24.127224 27502 net.cpp:148] Top shape: 100 38 (3800)
I0403 13:09:24.127241 27502 net.cpp:148] Top shape: 100 38 (3800)
I0403 13:09:24.127257 27502 net.cpp:156] Memory required for data: 831586800
I0403 13:09:24.127274 27502 layer_factory.hpp:77] Creating layer prob
I0403 13:09:24.127297 27502 net.cpp:91] Creating Layer prob
I0403 13:09:24.127321 27502 net.cpp:425] prob <- fc8_plantvillage_fc8_plantvillage_0_split_0
I0403 13:09:24.127341 27502 net.cpp:399] prob -> prob
I0403 13:09:24.127579 27502 net.cpp:141] Setting up prob
I0403 13:09:24.127610 27502 net.cpp:148] Top shape: 100 38 (3800)
I0403 13:09:24.127629 27502 net.cpp:156] Memory required for data: 831602000
I0403 13:09:24.127646 27502 layer_factory.hpp:77] Creating layer hdf5out
I0403 13:09:24.127668 27502 net.cpp:91] Creating Layer hdf5out
I0403 13:09:24.127686 27502 net.cpp:425] hdf5out <- prob
I0403 13:09:24.127704 27502 net.cpp:425] hdf5out <- label_data_1_split_0
I0403 13:09:24.130923 27502 net.cpp:141] Setting up hdf5out
…
