…
I0403 13:10:18.026377 27528 net.cpp:313] The NetState phase (1) differed from the phase (0) specified by a rule in layer data
I0403 13:10:18.026685 27528 net.cpp:49] Initializing net from parameters: 
state {
  phase: TEST
}
layer {
  name: "data"
  type: "Data"
  top: "data"
  top: "label"
  include {
    phase: TEST
  }
  transform_param {
    crop_size: 227
    mean_file: "/home/mohanty/data/final_dataset/lmdb/color-50-50/mean.binaryproto"
  }
  data_param {
    source: "/home/mohanty/data/final_dataset/lmdb/color-50-50/test_db"
    batch_size: 100
    backend: LMDB
  }
}
layer {
  name: "conv1"
  type: "Convolution"
  bottom: "data"
  top: "conv1"
  param {
    lr_mult: 1
    decay_mult: 1
  }
  param {
    lr_mult: 2
    decay_mult: 0
  }
  convolution_param {
    num_output: 96
    kernel_size: 11
    stride: 4
    weight_filler {
      type: "gaussian"
      std: 0.01
    }
    bias_filler {
      type: "constant"
      value: 0
    }
  }
}
layer {
  name: "relu1"
  type: "ReLU"
  bottom: "conv1"
  top: "conv1"
}
layer {
  name: "norm1"
  type: "LRN"
  bottom: "conv1"
  top: "norm1"
  lrn_param {
    local_size: 5
    alpha: 0.0001
    beta: 0.75
  }
}
layer {
  name: "pool1"
  type: "Pooling"
  bottom: "norm1"
  top: "pool1"
  pooling_param {
    pool: MAX
    kernel_size: 3
    stride: 2
  }
}
layer {
  name: "conv2"
  type: "Convolution"
  bottom: "pool1"
  top: "conv2"
  param {
    lr_mult: 1
    decay_mult: 1
  }
  param {
    lr_mult: 2
    decay_mult: 0
  }
  convolution_param {
    num_output: 256
    pad: 2
    kernel_size: 5
    group: 2
    weight_filler {
      type: "gaussian"
      std: 0.01
    }
    bias_filler {
      type: "constant"
      value: 0.1
    }
  }
}
layer {
  name: "relu2"
  type: "ReLU"
  bottom: "conv2"
  top: "conv2"
}
layer {
  name: "norm2"
  type: "LRN"
  bottom: "conv2"
  top: "norm2"
  lrn_param {
    local_size: 5
    alpha: 0.0001
    beta: 0.75
  }
}
layer {
  name: "pool2"
  type: "Pooling"
  bottom: "norm2"
  top: "pool2"
  pooling_param {
    pool: MAX
    kernel_size: 3
    stride: 2
  }
}
layer {
  name: "conv3"
  type: "Convolution"
  bottom: "pool2"
  top: "conv3"
  param {
    lr_mult: 1
    decay_mult: 1
  }
  param {
    lr_mult: 2
    decay_mult: 0
  }
  convolution_param {
    num_output: 384
    pad: 1
    kernel_size: 3
    weight_filler {
      type: "gaussian"
      std: 0.01
    }
    bias_filler {
      type: "constant"
      value: 0
    }
  }
}
layer {
  name: "relu3"
  type: "ReLU"
  bottom: "conv3"
  top: "conv3"
}
layer {
  name: "conv4"
  type: "Convolution"
  bottom: "conv3"
  top: "conv4"
  param {
    lr_mult: 1
    decay_mult: 1
  }
  param {
    lr_mult: 2
    decay_mult: 0
  }
  convolution_param {
    num_output: 384
    pad: 1
    kernel_size: 3
    group: 2
    weight_filler {
      type: "gaussian"
      std: 0.01
    }
    bias_filler {
      type: "constant"
      value: 0.1
    }
  }
}
layer {
  name: "relu4"
  type: "ReLU"
  bottom: "conv4"
  top: "conv4"
}
layer {
  name: "conv5"
  type: "Convolution"
  bottom: "conv4"
  top: "conv5"
  param {
    lr_mult: 1
    decay_mult: 1
  }
  param {
    lr_mult: 2
    decay_mult: 0
  }
  convolution_param {
    num_output: 256
    pad: 1
    kernel_size: 3
    group: 2
    weight_filler {
      type: "gaussian"
      std: 0.01
    }
    bias_filler {
      type: "constant"
      value: 0.1
    }
  }
}
layer {
  name: "relu5"
  type: "ReLU"
  bottom: "conv5"
  top: "conv5"
}
layer {
  name: "pool5"
  type: "Pooling"
  bottom: "conv5"
  top: "pool5"
  pooling_param {
    pool: MAX
    kernel_size: 3
    stride: 2
  }
}
layer {
  name: "fc6"
  type: "InnerProduct"
  bottom: "pool5"
  top: "fc6"
  param {
    lr_mult: 1
    decay_mult: 1
  }
  param {
    lr_mult: 2
    decay_mult: 0
  }
  inner_product_param {
    num_output: 4096
    weight_filler {
      type: "gaussian"
      std: 0.005
    }
    bias_filler {
      type: "constant"
      value: 0.1
    }
  }
}
layer {
  name: "relu6"
  type: "ReLU"
  bottom: "fc6"
  top: "fc6"
}
layer {
  name: "drop6"
  type: "Dropout"
  bottom: "fc6"
  top: "fc6"
  dropout_param {
    dropout_ratio: 0.5
  }
}
layer {
  name: "fc7"
  type: "InnerProduct"
  bottom: "fc6"
  top: "fc7"
  param {
    lr_mult: 1
    decay_mult: 1
  }
  param {
    lr_mult: 2
    decay_mult: 0
  }
  inner_product_param {
    num_output: 4096
    weight_filler {
      type: "gaussian"
      std: 0.005
    }
    bias_filler {
      type: "constant"
      value: 0.1
    }
  }
}
layer {
  name: "relu7"
  type: "ReLU"
  bottom: "fc7"
  top: "fc7"
}
layer {
  name: "drop7"
  type: "Dropout"
  bottom: "fc7"
  top: "fc7"
  dropout_param {
    dropout_ratio: 0.5
  }
}
layer {
  name: "fc8_plantvillage"
  type: "InnerProduct"
  bottom: "fc7"
  top: "fc8_plantvillage"
  param {
    lr_mult: 1
    decay_mult: 1
  }
  param {
    lr_mult: 2
    decay_mult: 0
  }
  inner_product_param {
    num_output: 38
    weight_filler {
      type: "gaussian"
      std: 0.01
    }
    bias_filler {
      type: "constant"
      value: 0
    }
  }
}
layer {
  name: "prob"
  type: "Softmax"
  bottom: "fc8_plantvillage"
  top: "prob"
  include {
    phase: TEST
  }
}
layer {
  name: "hdf5out"
  type: "HDF5Output"
  bottom: "prob"
  bottom: "label"
  include {
    phase: TEST
  }
  hdf5_output_param {
    file_name: "hdf5_dumps/iter_5111.h5"
  }
}
layer {
  name: "loss"
  type: "SoftmaxWithLoss"
  bottom: "fc8_plantvillage"
  bottom: "label"
  top: "loss"
}
layer {
  name: "accuracy"
  type: "Accuracy"
  bottom: "fc8_plantvillage"
  bottom: "label"
  top: "accuracy"
  include {
    phase: TEST
  }
}
I0403 13:10:18.027223 27528 layer_factory.hpp:77] Creating layer data
I0403 13:10:18.027884 27528 net.cpp:91] Creating Layer data
I0403 13:10:18.027920 27528 net.cpp:399] data -> data
I0403 13:10:18.027972 27528 net.cpp:399] data -> label
I0403 13:10:18.028010 27528 data_transformer.cpp:25] Loading mean file from: /home/mohanty/data/final_dataset/lmdb/color-50-50/mean.binaryproto
I0403 13:10:18.030966 27532 db_lmdb.cpp:38] Opened lmdb /home/mohanty/data/final_dataset/lmdb/color-50-50/test_db
I0403 13:10:18.042587 27528 data_layer.cpp:41] output data size: 100,3,227,227
I0403 13:10:18.164988 27528 net.cpp:141] Setting up data
I0403 13:10:18.165081 27528 net.cpp:148] Top shape: 100 3 227 227 (15458700)
I0403 13:10:18.165105 27528 net.cpp:148] Top shape: 100 (100)
I0403 13:10:18.165122 27528 net.cpp:156] Memory required for data: 61835200
I0403 13:10:18.165150 27528 layer_factory.hpp:77] Creating layer label_data_1_split
I0403 13:10:18.165177 27528 net.cpp:91] Creating Layer label_data_1_split
I0403 13:10:18.165196 27528 net.cpp:425] label_data_1_split <- label
I0403 13:10:18.165233 27528 net.cpp:399] label_data_1_split -> label_data_1_split_0
I0403 13:10:18.165263 27528 net.cpp:399] label_data_1_split -> label_data_1_split_1
I0403 13:10:18.165285 27528 net.cpp:399] label_data_1_split -> label_data_1_split_2
I0403 13:10:18.165359 27528 net.cpp:141] Setting up label_data_1_split
I0403 13:10:18.165385 27528 net.cpp:148] Top shape: 100 (100)
I0403 13:10:18.165403 27528 net.cpp:148] Top shape: 100 (100)
I0403 13:10:18.165421 27528 net.cpp:148] Top shape: 100 (100)
I0403 13:10:18.165436 27528 net.cpp:156] Memory required for data: 61836400
I0403 13:10:18.165452 27528 layer_factory.hpp:77] Creating layer conv1
I0403 13:10:18.165485 27528 net.cpp:91] Creating Layer conv1
I0403 13:10:18.165504 27528 net.cpp:425] conv1 <- data
I0403 13:10:18.165525 27528 net.cpp:399] conv1 -> conv1
I0403 13:10:18.313076 27528 net.cpp:141] Setting up conv1
I0403 13:10:18.313153 27528 net.cpp:148] Top shape: 100 96 55 55 (29040000)
I0403 13:10:18.313171 27528 net.cpp:156] Memory required for data: 177996400
I0403 13:10:18.313205 27528 layer_factory.hpp:77] Creating layer relu1
I0403 13:10:18.313235 27528 net.cpp:91] Creating Layer relu1
I0403 13:10:18.313256 27528 net.cpp:425] relu1 <- conv1
I0403 13:10:18.313277 27528 net.cpp:386] relu1 -> conv1 (in-place)
I0403 13:10:18.313544 27528 net.cpp:141] Setting up relu1
I0403 13:10:18.313575 27528 net.cpp:148] Top shape: 100 96 55 55 (29040000)
I0403 13:10:18.313591 27528 net.cpp:156] Memory required for data: 294156400
I0403 13:10:18.313642 27528 layer_factory.hpp:77] Creating layer norm1
I0403 13:10:18.313673 27528 net.cpp:91] Creating Layer norm1
I0403 13:10:18.313693 27528 net.cpp:425] norm1 <- conv1
I0403 13:10:18.313712 27528 net.cpp:399] norm1 -> norm1
I0403 13:10:18.314029 27528 net.cpp:141] Setting up norm1
I0403 13:10:18.314059 27528 net.cpp:148] Top shape: 100 96 55 55 (29040000)
I0403 13:10:18.314075 27528 net.cpp:156] Memory required for data: 410316400
I0403 13:10:18.314092 27528 layer_factory.hpp:77] Creating layer pool1
I0403 13:10:18.314117 27528 net.cpp:91] Creating Layer pool1
I0403 13:10:18.314136 27528 net.cpp:425] pool1 <- norm1
I0403 13:10:18.314155 27528 net.cpp:399] pool1 -> pool1
I0403 13:10:18.314225 27528 net.cpp:141] Setting up pool1
I0403 13:10:18.314251 27528 net.cpp:148] Top shape: 100 96 27 27 (6998400)
I0403 13:10:18.314267 27528 net.cpp:156] Memory required for data: 438310000
I0403 13:10:18.314283 27528 layer_factory.hpp:77] Creating layer conv2
I0403 13:10:18.314309 27528 net.cpp:91] Creating Layer conv2
I0403 13:10:18.314340 27528 net.cpp:425] conv2 <- pool1
I0403 13:10:18.314362 27528 net.cpp:399] conv2 -> conv2
I0403 13:10:18.330163 27528 net.cpp:141] Setting up conv2
I0403 13:10:18.330212 27528 net.cpp:148] Top shape: 100 256 27 27 (18662400)
I0403 13:10:18.330230 27528 net.cpp:156] Memory required for data: 512959600
I0403 13:10:18.330255 27528 layer_factory.hpp:77] Creating layer relu2
I0403 13:10:18.330279 27528 net.cpp:91] Creating Layer relu2
I0403 13:10:18.330298 27528 net.cpp:425] relu2 <- conv2
I0403 13:10:18.330322 27528 net.cpp:386] relu2 -> conv2 (in-place)
I0403 13:10:18.330612 27528 net.cpp:141] Setting up relu2
I0403 13:10:18.330641 27528 net.cpp:148] Top shape: 100 256 27 27 (18662400)
I0403 13:10:18.330657 27528 net.cpp:156] Memory required for data: 587609200
I0403 13:10:18.330674 27528 layer_factory.hpp:77] Creating layer norm2
I0403 13:10:18.330699 27528 net.cpp:91] Creating Layer norm2
I0403 13:10:18.330719 27528 net.cpp:425] norm2 <- conv2
I0403 13:10:18.330741 27528 net.cpp:399] norm2 -> norm2
I0403 13:10:18.330950 27528 net.cpp:141] Setting up norm2
I0403 13:10:18.330977 27528 net.cpp:148] Top shape: 100 256 27 27 (18662400)
I0403 13:10:18.330994 27528 net.cpp:156] Memory required for data: 662258800
I0403 13:10:18.331010 27528 layer_factory.hpp:77] Creating layer pool2
I0403 13:10:18.331030 27528 net.cpp:91] Creating Layer pool2
I0403 13:10:18.331048 27528 net.cpp:425] pool2 <- norm2
I0403 13:10:18.331069 27528 net.cpp:399] pool2 -> pool2
I0403 13:10:18.331126 27528 net.cpp:141] Setting up pool2
I0403 13:10:18.331151 27528 net.cpp:148] Top shape: 100 256 13 13 (4326400)
I0403 13:10:18.331167 27528 net.cpp:156] Memory required for data: 679564400
I0403 13:10:18.331183 27528 layer_factory.hpp:77] Creating layer conv3
I0403 13:10:18.331208 27528 net.cpp:91] Creating Layer conv3
I0403 13:10:18.331228 27528 net.cpp:425] conv3 <- pool2
I0403 13:10:18.331249 27528 net.cpp:399] conv3 -> conv3
I0403 13:10:18.370786 27528 net.cpp:141] Setting up conv3
I0403 13:10:18.370859 27528 net.cpp:148] Top shape: 100 384 13 13 (6489600)
I0403 13:10:18.370877 27528 net.cpp:156] Memory required for data: 705522800
I0403 13:10:18.370906 27528 layer_factory.hpp:77] Creating layer relu3
I0403 13:10:18.370930 27528 net.cpp:91] Creating Layer relu3
I0403 13:10:18.370949 27528 net.cpp:425] relu3 <- conv3
I0403 13:10:18.370968 27528 net.cpp:386] relu3 -> conv3 (in-place)
I0403 13:10:18.371248 27528 net.cpp:141] Setting up relu3
I0403 13:10:18.371275 27528 net.cpp:148] Top shape: 100 384 13 13 (6489600)
I0403 13:10:18.371292 27528 net.cpp:156] Memory required for data: 731481200
I0403 13:10:18.371314 27528 layer_factory.hpp:77] Creating layer conv4
I0403 13:10:18.371345 27528 net.cpp:91] Creating Layer conv4
I0403 13:10:18.371364 27528 net.cpp:425] conv4 <- conv3
I0403 13:10:18.371387 27528 net.cpp:399] conv4 -> conv4
I0403 13:10:18.401172 27528 net.cpp:141] Setting up conv4
I0403 13:10:18.401211 27528 net.cpp:148] Top shape: 100 384 13 13 (6489600)
I0403 13:10:18.401273 27528 net.cpp:156] Memory required for data: 757439600
I0403 13:10:18.401301 27528 layer_factory.hpp:77] Creating layer relu4
I0403 13:10:18.401334 27528 net.cpp:91] Creating Layer relu4
I0403 13:10:18.401353 27528 net.cpp:425] relu4 <- conv4
I0403 13:10:18.401379 27528 net.cpp:386] relu4 -> conv4 (in-place)
I0403 13:10:18.401691 27528 net.cpp:141] Setting up relu4
I0403 13:10:18.401720 27528 net.cpp:148] Top shape: 100 384 13 13 (6489600)
I0403 13:10:18.401734 27528 net.cpp:156] Memory required for data: 783398000
I0403 13:10:18.401751 27528 layer_factory.hpp:77] Creating layer conv5
I0403 13:10:18.401775 27528 net.cpp:91] Creating Layer conv5
I0403 13:10:18.401793 27528 net.cpp:425] conv5 <- conv4
I0403 13:10:18.401816 27528 net.cpp:399] conv5 -> conv5
I0403 13:10:18.422826 27528 net.cpp:141] Setting up conv5
I0403 13:10:18.422883 27528 net.cpp:148] Top shape: 100 256 13 13 (4326400)
I0403 13:10:18.422899 27528 net.cpp:156] Memory required for data: 800703600
I0403 13:10:18.422940 27528 layer_factory.hpp:77] Creating layer relu5
I0403 13:10:18.422965 27528 net.cpp:91] Creating Layer relu5
I0403 13:10:18.422982 27528 net.cpp:425] relu5 <- conv5
I0403 13:10:18.423002 27528 net.cpp:386] relu5 -> conv5 (in-place)
I0403 13:10:18.423290 27528 net.cpp:141] Setting up relu5
I0403 13:10:18.423328 27528 net.cpp:148] Top shape: 100 256 13 13 (4326400)
I0403 13:10:18.423347 27528 net.cpp:156] Memory required for data: 818009200
I0403 13:10:18.423363 27528 layer_factory.hpp:77] Creating layer pool5
I0403 13:10:18.423388 27528 net.cpp:91] Creating Layer pool5
I0403 13:10:18.423406 27528 net.cpp:425] pool5 <- conv5
I0403 13:10:18.423425 27528 net.cpp:399] pool5 -> pool5
I0403 13:10:18.423493 27528 net.cpp:141] Setting up pool5
I0403 13:10:18.423519 27528 net.cpp:148] Top shape: 100 256 6 6 (921600)
I0403 13:10:18.423537 27528 net.cpp:156] Memory required for data: 821695600
I0403 13:10:18.423552 27528 layer_factory.hpp:77] Creating layer fc6
I0403 13:10:18.423583 27528 net.cpp:91] Creating Layer fc6
I0403 13:10:18.423601 27528 net.cpp:425] fc6 <- pool5
I0403 13:10:18.423619 27528 net.cpp:399] fc6 -> fc6
I0403 13:10:19.982409 27528 net.cpp:141] Setting up fc6
I0403 13:10:19.982484 27528 net.cpp:148] Top shape: 100 4096 (409600)
I0403 13:10:19.982501 27528 net.cpp:156] Memory required for data: 823334000
I0403 13:10:19.982524 27528 layer_factory.hpp:77] Creating layer relu6
I0403 13:10:19.982547 27528 net.cpp:91] Creating Layer relu6
I0403 13:10:19.982564 27528 net.cpp:425] relu6 <- fc6
I0403 13:10:19.982588 27528 net.cpp:386] relu6 -> fc6 (in-place)
I0403 13:10:19.982801 27528 net.cpp:141] Setting up relu6
I0403 13:10:19.982827 27528 net.cpp:148] Top shape: 100 4096 (409600)
I0403 13:10:19.982842 27528 net.cpp:156] Memory required for data: 824972400
I0403 13:10:19.982858 27528 layer_factory.hpp:77] Creating layer drop6
I0403 13:10:19.982877 27528 net.cpp:91] Creating Layer drop6
I0403 13:10:19.982892 27528 net.cpp:425] drop6 <- fc6
I0403 13:10:19.982911 27528 net.cpp:386] drop6 -> fc6 (in-place)
I0403 13:10:19.982964 27528 net.cpp:141] Setting up drop6
I0403 13:10:19.982988 27528 net.cpp:148] Top shape: 100 4096 (409600)
I0403 13:10:19.983005 27528 net.cpp:156] Memory required for data: 826610800
I0403 13:10:19.983021 27528 layer_factory.hpp:77] Creating layer fc7
I0403 13:10:19.983041 27528 net.cpp:91] Creating Layer fc7
I0403 13:10:19.983057 27528 net.cpp:425] fc7 <- fc6
I0403 13:10:19.983079 27528 net.cpp:399] fc7 -> fc7
I0403 13:10:20.665691 27528 net.cpp:141] Setting up fc7
I0403 13:10:20.665755 27528 net.cpp:148] Top shape: 100 4096 (409600)
I0403 13:10:20.665771 27528 net.cpp:156] Memory required for data: 828249200
I0403 13:10:20.665796 27528 layer_factory.hpp:77] Creating layer relu7
I0403 13:10:20.665819 27528 net.cpp:91] Creating Layer relu7
I0403 13:10:20.665838 27528 net.cpp:425] relu7 <- fc7
I0403 13:10:20.665856 27528 net.cpp:386] relu7 -> fc7 (in-place)
I0403 13:10:20.666251 27528 net.cpp:141] Setting up relu7
I0403 13:10:20.666278 27528 net.cpp:148] Top shape: 100 4096 (409600)
I0403 13:10:20.666332 27528 net.cpp:156] Memory required for data: 829887600
I0403 13:10:20.666349 27528 layer_factory.hpp:77] Creating layer drop7
I0403 13:10:20.666371 27528 net.cpp:91] Creating Layer drop7
I0403 13:10:20.666388 27528 net.cpp:425] drop7 <- fc7
I0403 13:10:20.666406 27528 net.cpp:386] drop7 -> fc7 (in-place)
I0403 13:10:20.666450 27528 net.cpp:141] Setting up drop7
I0403 13:10:20.666474 27528 net.cpp:148] Top shape: 100 4096 (409600)
I0403 13:10:20.666491 27528 net.cpp:156] Memory required for data: 831526000
I0403 13:10:20.666506 27528 layer_factory.hpp:77] Creating layer fc8_plantvillage
I0403 13:10:20.666525 27528 net.cpp:91] Creating Layer fc8_plantvillage
I0403 13:10:20.666543 27528 net.cpp:425] fc8_plantvillage <- fc7
I0403 13:10:20.666563 27528 net.cpp:399] fc8_plantvillage -> fc8_plantvillage
I0403 13:10:20.673308 27528 net.cpp:141] Setting up fc8_plantvillage
I0403 13:10:20.673351 27528 net.cpp:148] Top shape: 100 38 (3800)
I0403 13:10:20.673368 27528 net.cpp:156] Memory required for data: 831541200
I0403 13:10:20.673388 27528 layer_factory.hpp:77] Creating layer fc8_plantvillage_fc8_plantvillage_0_split
I0403 13:10:20.673410 27528 net.cpp:91] Creating Layer fc8_plantvillage_fc8_plantvillage_0_split
I0403 13:10:20.673429 27528 net.cpp:425] fc8_plantvillage_fc8_plantvillage_0_split <- fc8_plantvillage
I0403 13:10:20.673447 27528 net.cpp:399] fc8_plantvillage_fc8_plantvillage_0_split -> fc8_plantvillage_fc8_plantvillage_0_split_0
I0403 13:10:20.673467 27528 net.cpp:399] fc8_plantvillage_fc8_plantvillage_0_split -> fc8_plantvillage_fc8_plantvillage_0_split_1
I0403 13:10:20.673486 27528 net.cpp:399] fc8_plantvillage_fc8_plantvillage_0_split -> fc8_plantvillage_fc8_plantvillage_0_split_2
I0403 13:10:20.673568 27528 net.cpp:141] Setting up fc8_plantvillage_fc8_plantvillage_0_split
I0403 13:10:20.673593 27528 net.cpp:148] Top shape: 100 38 (3800)
I0403 13:10:20.673609 27528 net.cpp:148] Top shape: 100 38 (3800)
I0403 13:10:20.673625 27528 net.cpp:148] Top shape: 100 38 (3800)
I0403 13:10:20.673640 27528 net.cpp:156] Memory required for data: 831586800
I0403 13:10:20.673655 27528 layer_factory.hpp:77] Creating layer prob
I0403 13:10:20.673673 27528 net.cpp:91] Creating Layer prob
I0403 13:10:20.673688 27528 net.cpp:425] prob <- fc8_plantvillage_fc8_plantvillage_0_split_0
I0403 13:10:20.673710 27528 net.cpp:399] prob -> prob
I0403 13:10:20.673931 27528 net.cpp:141] Setting up prob
I0403 13:10:20.673959 27528 net.cpp:148] Top shape: 100 38 (3800)
I0403 13:10:20.673974 27528 net.cpp:156] Memory required for data: 831602000
I0403 13:10:20.673991 27528 layer_factory.hpp:77] Creating layer hdf5out
I0403 13:10:20.674013 27528 net.cpp:91] Creating Layer hdf5out
I0403 13:10:20.674031 27528 net.cpp:425] hdf5out <- prob
I0403 13:10:20.674048 27528 net.cpp:425] hdf5out <- label_data_1_split_0
I0403 13:10:20.677954 27528 net.cpp:141] Setting up hdf5out
…
