…
I0403 12:55:13.087749 27031 net.cpp:313] The NetState phase (1) differed from the phase (0) specified by a rule in layer data
I0403 12:55:13.088065 27031 net.cpp:49] Initializing net from parameters: 
state {
  phase: TEST
}
layer {
  name: "data"
  type: "Data"
  top: "data"
  top: "label"
  include {
    phase: TEST
  }
  transform_param {
    crop_size: 227
    mean_file: "/home/mohanty/data/final_dataset/lmdb/color-50-50/mean.binaryproto"
  }
  data_param {
    source: "/home/mohanty/data/final_dataset/lmdb/color-50-50/test_db"
    batch_size: 100
    backend: LMDB
  }
}
layer {
  name: "conv1"
  type: "Convolution"
  bottom: "data"
  top: "conv1"
  param {
    lr_mult: 1
    decay_mult: 1
  }
  param {
    lr_mult: 2
    decay_mult: 0
  }
  convolution_param {
    num_output: 96
    kernel_size: 11
    stride: 4
    weight_filler {
      type: "gaussian"
      std: 0.01
    }
    bias_filler {
      type: "constant"
      value: 0
    }
  }
}
layer {
  name: "relu1"
  type: "ReLU"
  bottom: "conv1"
  top: "conv1"
}
layer {
  name: "norm1"
  type: "LRN"
  bottom: "conv1"
  top: "norm1"
  lrn_param {
    local_size: 5
    alpha: 0.0001
    beta: 0.75
  }
}
layer {
  name: "pool1"
  type: "Pooling"
  bottom: "norm1"
  top: "pool1"
  pooling_param {
    pool: MAX
    kernel_size: 3
    stride: 2
  }
}
layer {
  name: "conv2"
  type: "Convolution"
  bottom: "pool1"
  top: "conv2"
  param {
    lr_mult: 1
    decay_mult: 1
  }
  param {
    lr_mult: 2
    decay_mult: 0
  }
  convolution_param {
    num_output: 256
    pad: 2
    kernel_size: 5
    group: 2
    weight_filler {
      type: "gaussian"
      std: 0.01
    }
    bias_filler {
      type: "constant"
      value: 0.1
    }
  }
}
layer {
  name: "relu2"
  type: "ReLU"
  bottom: "conv2"
  top: "conv2"
}
layer {
  name: "norm2"
  type: "LRN"
  bottom: "conv2"
  top: "norm2"
  lrn_param {
    local_size: 5
    alpha: 0.0001
    beta: 0.75
  }
}
layer {
  name: "pool2"
  type: "Pooling"
  bottom: "norm2"
  top: "pool2"
  pooling_param {
    pool: MAX
    kernel_size: 3
    stride: 2
  }
}
layer {
  name: "conv3"
  type: "Convolution"
  bottom: "pool2"
  top: "conv3"
  param {
    lr_mult: 1
    decay_mult: 1
  }
  param {
    lr_mult: 2
    decay_mult: 0
  }
  convolution_param {
    num_output: 384
    pad: 1
    kernel_size: 3
    weight_filler {
      type: "gaussian"
      std: 0.01
    }
    bias_filler {
      type: "constant"
      value: 0
    }
  }
}
layer {
  name: "relu3"
  type: "ReLU"
  bottom: "conv3"
  top: "conv3"
}
layer {
  name: "conv4"
  type: "Convolution"
  bottom: "conv3"
  top: "conv4"
  param {
    lr_mult: 1
    decay_mult: 1
  }
  param {
    lr_mult: 2
    decay_mult: 0
  }
  convolution_param {
    num_output: 384
    pad: 1
    kernel_size: 3
    group: 2
    weight_filler {
      type: "gaussian"
      std: 0.01
    }
    bias_filler {
      type: "constant"
      value: 0.1
    }
  }
}
layer {
  name: "relu4"
  type: "ReLU"
  bottom: "conv4"
  top: "conv4"
}
layer {
  name: "conv5"
  type: "Convolution"
  bottom: "conv4"
  top: "conv5"
  param {
    lr_mult: 1
    decay_mult: 1
  }
  param {
    lr_mult: 2
    decay_mult: 0
  }
  convolution_param {
    num_output: 256
    pad: 1
    kernel_size: 3
    group: 2
    weight_filler {
      type: "gaussian"
      std: 0.01
    }
    bias_filler {
      type: "constant"
      value: 0.1
    }
  }
}
layer {
  name: "relu5"
  type: "ReLU"
  bottom: "conv5"
  top: "conv5"
}
layer {
  name: "pool5"
  type: "Pooling"
  bottom: "conv5"
  top: "pool5"
  pooling_param {
    pool: MAX
    kernel_size: 3
    stride: 2
  }
}
layer {
  name: "fc6"
  type: "InnerProduct"
  bottom: "pool5"
  top: "fc6"
  param {
    lr_mult: 1
    decay_mult: 1
  }
  param {
    lr_mult: 2
    decay_mult: 0
  }
  inner_product_param {
    num_output: 4096
    weight_filler {
      type: "gaussian"
      std: 0.005
    }
    bias_filler {
      type: "constant"
      value: 0.1
    }
  }
}
layer {
  name: "relu6"
  type: "ReLU"
  bottom: "fc6"
  top: "fc6"
}
layer {
  name: "drop6"
  type: "Dropout"
  bottom: "fc6"
  top: "fc6"
  dropout_param {
    dropout_ratio: 0.5
  }
}
layer {
  name: "fc7"
  type: "InnerProduct"
  bottom: "fc6"
  top: "fc7"
  param {
    lr_mult: 1
    decay_mult: 1
  }
  param {
    lr_mult: 2
    decay_mult: 0
  }
  inner_product_param {
    num_output: 4096
    weight_filler {
      type: "gaussian"
      std: 0.005
    }
    bias_filler {
      type: "constant"
      value: 0.1
    }
  }
}
layer {
  name: "relu7"
  type: "ReLU"
  bottom: "fc7"
  top: "fc7"
}
layer {
  name: "drop7"
  type: "Dropout"
  bottom: "fc7"
  top: "fc7"
  dropout_param {
    dropout_ratio: 0.5
  }
}
layer {
  name: "fc8_plantvillage"
  type: "InnerProduct"
  bottom: "fc7"
  top: "fc8_plantvillage"
  param {
    lr_mult: 1
    decay_mult: 1
  }
  param {
    lr_mult: 2
    decay_mult: 0
  }
  inner_product_param {
    num_output: 38
    weight_filler {
      type: "gaussian"
      std: 0.01
    }
    bias_filler {
      type: "constant"
      value: 0
    }
  }
}
layer {
  name: "prob"
  type: "Softmax"
  bottom: "fc8_plantvillage"
  top: "prob"
  include {
    phase: TEST
  }
}
layer {
  name: "hdf5out"
  type: "HDF5Output"
  bottom: "prob"
  bottom: "label"
  include {
    phase: TEST
  }
  hdf5_output_param {
    file_name: "hdf5_dumps/iter_807.h5"
  }
}
layer {
  name: "loss"
  type: "SoftmaxWithLoss"
  bottom: "fc8_plantvillage"
  bottom: "label"
  top: "loss"
}
layer {
  name: "accuracy"
  type: "Accuracy"
  bottom: "fc8_plantvillage"
  bottom: "label"
  top: "accuracy"
  include {
    phase: TEST
  }
}
I0403 12:55:13.088903 27031 layer_factory.hpp:77] Creating layer data
I0403 12:55:13.089567 27031 net.cpp:91] Creating Layer data
I0403 12:55:13.089602 27031 net.cpp:399] data -> data
I0403 12:55:13.089654 27031 net.cpp:399] data -> label
I0403 12:55:13.089694 27031 data_transformer.cpp:25] Loading mean file from: /home/mohanty/data/final_dataset/lmdb/color-50-50/mean.binaryproto
I0403 12:55:13.100086 27034 db_lmdb.cpp:38] Opened lmdb /home/mohanty/data/final_dataset/lmdb/color-50-50/test_db
I0403 12:55:13.103173 27031 data_layer.cpp:41] output data size: 100,3,227,227
I0403 12:55:13.225610 27031 net.cpp:141] Setting up data
I0403 12:55:13.225703 27031 net.cpp:148] Top shape: 100 3 227 227 (15458700)
I0403 12:55:13.225728 27031 net.cpp:148] Top shape: 100 (100)
I0403 12:55:13.225745 27031 net.cpp:156] Memory required for data: 61835200
I0403 12:55:13.225775 27031 layer_factory.hpp:77] Creating layer label_data_1_split
I0403 12:55:13.225802 27031 net.cpp:91] Creating Layer label_data_1_split
I0403 12:55:13.225821 27031 net.cpp:425] label_data_1_split <- label
I0403 12:55:13.225853 27031 net.cpp:399] label_data_1_split -> label_data_1_split_0
I0403 12:55:13.225881 27031 net.cpp:399] label_data_1_split -> label_data_1_split_1
I0403 12:55:13.225903 27031 net.cpp:399] label_data_1_split -> label_data_1_split_2
I0403 12:55:13.225967 27031 net.cpp:141] Setting up label_data_1_split
I0403 12:55:13.225992 27031 net.cpp:148] Top shape: 100 (100)
I0403 12:55:13.226011 27031 net.cpp:148] Top shape: 100 (100)
I0403 12:55:13.226028 27031 net.cpp:148] Top shape: 100 (100)
I0403 12:55:13.226043 27031 net.cpp:156] Memory required for data: 61836400
I0403 12:55:13.226059 27031 layer_factory.hpp:77] Creating layer conv1
I0403 12:55:13.226092 27031 net.cpp:91] Creating Layer conv1
I0403 12:55:13.226112 27031 net.cpp:425] conv1 <- data
I0403 12:55:13.226133 27031 net.cpp:399] conv1 -> conv1
I0403 12:55:13.370944 27031 net.cpp:141] Setting up conv1
I0403 12:55:13.371021 27031 net.cpp:148] Top shape: 100 96 55 55 (29040000)
I0403 12:55:13.371039 27031 net.cpp:156] Memory required for data: 177996400
I0403 12:55:13.371071 27031 layer_factory.hpp:77] Creating layer relu1
I0403 12:55:13.371100 27031 net.cpp:91] Creating Layer relu1
I0403 12:55:13.371120 27031 net.cpp:425] relu1 <- conv1
I0403 12:55:13.371141 27031 net.cpp:386] relu1 -> conv1 (in-place)
I0403 12:55:13.371408 27031 net.cpp:141] Setting up relu1
I0403 12:55:13.371438 27031 net.cpp:148] Top shape: 100 96 55 55 (29040000)
I0403 12:55:13.371454 27031 net.cpp:156] Memory required for data: 294156400
I0403 12:55:13.371503 27031 layer_factory.hpp:77] Creating layer norm1
I0403 12:55:13.371534 27031 net.cpp:91] Creating Layer norm1
I0403 12:55:13.371554 27031 net.cpp:425] norm1 <- conv1
I0403 12:55:13.371574 27031 net.cpp:399] norm1 -> norm1
I0403 12:55:13.371894 27031 net.cpp:141] Setting up norm1
I0403 12:55:13.371924 27031 net.cpp:148] Top shape: 100 96 55 55 (29040000)
I0403 12:55:13.371940 27031 net.cpp:156] Memory required for data: 410316400
I0403 12:55:13.371958 27031 layer_factory.hpp:77] Creating layer pool1
I0403 12:55:13.371981 27031 net.cpp:91] Creating Layer pool1
I0403 12:55:13.372000 27031 net.cpp:425] pool1 <- norm1
I0403 12:55:13.372020 27031 net.cpp:399] pool1 -> pool1
I0403 12:55:13.372089 27031 net.cpp:141] Setting up pool1
I0403 12:55:13.372115 27031 net.cpp:148] Top shape: 100 96 27 27 (6998400)
I0403 12:55:13.372131 27031 net.cpp:156] Memory required for data: 438310000
I0403 12:55:13.372148 27031 layer_factory.hpp:77] Creating layer conv2
I0403 12:55:13.372176 27031 net.cpp:91] Creating Layer conv2
I0403 12:55:13.372194 27031 net.cpp:425] conv2 <- pool1
I0403 12:55:13.372215 27031 net.cpp:399] conv2 -> conv2
I0403 12:55:13.387691 27031 net.cpp:141] Setting up conv2
I0403 12:55:13.387745 27031 net.cpp:148] Top shape: 100 256 27 27 (18662400)
I0403 12:55:13.387764 27031 net.cpp:156] Memory required for data: 512959600
I0403 12:55:13.387790 27031 layer_factory.hpp:77] Creating layer relu2
I0403 12:55:13.387812 27031 net.cpp:91] Creating Layer relu2
I0403 12:55:13.387830 27031 net.cpp:425] relu2 <- conv2
I0403 12:55:13.387851 27031 net.cpp:386] relu2 -> conv2 (in-place)
I0403 12:55:13.388135 27031 net.cpp:141] Setting up relu2
I0403 12:55:13.388169 27031 net.cpp:148] Top shape: 100 256 27 27 (18662400)
I0403 12:55:13.388186 27031 net.cpp:156] Memory required for data: 587609200
I0403 12:55:13.388203 27031 layer_factory.hpp:77] Creating layer norm2
I0403 12:55:13.388229 27031 net.cpp:91] Creating Layer norm2
I0403 12:55:13.388248 27031 net.cpp:425] norm2 <- conv2
I0403 12:55:13.388269 27031 net.cpp:399] norm2 -> norm2
I0403 12:55:13.388485 27031 net.cpp:141] Setting up norm2
I0403 12:55:13.388516 27031 net.cpp:148] Top shape: 100 256 27 27 (18662400)
I0403 12:55:13.388535 27031 net.cpp:156] Memory required for data: 662258800
I0403 12:55:13.388552 27031 layer_factory.hpp:77] Creating layer pool2
I0403 12:55:13.388573 27031 net.cpp:91] Creating Layer pool2
I0403 12:55:13.388599 27031 net.cpp:425] pool2 <- norm2
I0403 12:55:13.388620 27031 net.cpp:399] pool2 -> pool2
I0403 12:55:13.388675 27031 net.cpp:141] Setting up pool2
I0403 12:55:13.388700 27031 net.cpp:148] Top shape: 100 256 13 13 (4326400)
I0403 12:55:13.388716 27031 net.cpp:156] Memory required for data: 679564400
I0403 12:55:13.388733 27031 layer_factory.hpp:77] Creating layer conv3
I0403 12:55:13.388758 27031 net.cpp:91] Creating Layer conv3
I0403 12:55:13.388777 27031 net.cpp:425] conv3 <- pool2
I0403 12:55:13.388798 27031 net.cpp:399] conv3 -> conv3
I0403 12:55:13.434309 27031 net.cpp:141] Setting up conv3
I0403 12:55:13.434361 27031 net.cpp:148] Top shape: 100 384 13 13 (6489600)
I0403 12:55:13.434381 27031 net.cpp:156] Memory required for data: 705522800
I0403 12:55:13.434408 27031 layer_factory.hpp:77] Creating layer relu3
I0403 12:55:13.434432 27031 net.cpp:91] Creating Layer relu3
I0403 12:55:13.434451 27031 net.cpp:425] relu3 <- conv3
I0403 12:55:13.434470 27031 net.cpp:386] relu3 -> conv3 (in-place)
I0403 12:55:13.434749 27031 net.cpp:141] Setting up relu3
I0403 12:55:13.434779 27031 net.cpp:148] Top shape: 100 384 13 13 (6489600)
I0403 12:55:13.434797 27031 net.cpp:156] Memory required for data: 731481200
I0403 12:55:13.434813 27031 layer_factory.hpp:77] Creating layer conv4
I0403 12:55:13.434839 27031 net.cpp:91] Creating Layer conv4
I0403 12:55:13.434856 27031 net.cpp:425] conv4 <- conv3
I0403 12:55:13.434875 27031 net.cpp:399] conv4 -> conv4
I0403 12:55:13.465373 27031 net.cpp:141] Setting up conv4
I0403 12:55:13.465438 27031 net.cpp:148] Top shape: 100 384 13 13 (6489600)
I0403 12:55:13.465488 27031 net.cpp:156] Memory required for data: 757439600
I0403 12:55:13.465512 27031 layer_factory.hpp:77] Creating layer relu4
I0403 12:55:13.465536 27031 net.cpp:91] Creating Layer relu4
I0403 12:55:13.465555 27031 net.cpp:425] relu4 <- conv4
I0403 12:55:13.465576 27031 net.cpp:386] relu4 -> conv4 (in-place)
I0403 12:55:13.465870 27031 net.cpp:141] Setting up relu4
I0403 12:55:13.465901 27031 net.cpp:148] Top shape: 100 384 13 13 (6489600)
I0403 12:55:13.465919 27031 net.cpp:156] Memory required for data: 783398000
I0403 12:55:13.465934 27031 layer_factory.hpp:77] Creating layer conv5
I0403 12:55:13.465960 27031 net.cpp:91] Creating Layer conv5
I0403 12:55:13.465978 27031 net.cpp:425] conv5 <- conv4
I0403 12:55:13.466002 27031 net.cpp:399] conv5 -> conv5
I0403 12:55:13.486984 27031 net.cpp:141] Setting up conv5
I0403 12:55:13.487032 27031 net.cpp:148] Top shape: 100 256 13 13 (4326400)
I0403 12:55:13.487049 27031 net.cpp:156] Memory required for data: 800703600
I0403 12:55:13.487076 27031 layer_factory.hpp:77] Creating layer relu5
I0403 12:55:13.487099 27031 net.cpp:91] Creating Layer relu5
I0403 12:55:13.487118 27031 net.cpp:425] relu5 <- conv5
I0403 12:55:13.487140 27031 net.cpp:386] relu5 -> conv5 (in-place)
I0403 12:55:13.487447 27031 net.cpp:141] Setting up relu5
I0403 12:55:13.487479 27031 net.cpp:148] Top shape: 100 256 13 13 (4326400)
I0403 12:55:13.487496 27031 net.cpp:156] Memory required for data: 818009200
I0403 12:55:13.487514 27031 layer_factory.hpp:77] Creating layer pool5
I0403 12:55:13.487550 27031 net.cpp:91] Creating Layer pool5
I0403 12:55:13.487566 27031 net.cpp:425] pool5 <- conv5
I0403 12:55:13.487587 27031 net.cpp:399] pool5 -> pool5
I0403 12:55:13.487663 27031 net.cpp:141] Setting up pool5
I0403 12:55:13.487691 27031 net.cpp:148] Top shape: 100 256 6 6 (921600)
I0403 12:55:13.487710 27031 net.cpp:156] Memory required for data: 821695600
I0403 12:55:13.487726 27031 layer_factory.hpp:77] Creating layer fc6
I0403 12:55:13.487756 27031 net.cpp:91] Creating Layer fc6
I0403 12:55:13.487773 27031 net.cpp:425] fc6 <- pool5
I0403 12:55:13.487795 27031 net.cpp:399] fc6 -> fc6
I0403 12:55:15.037469 27031 net.cpp:141] Setting up fc6
I0403 12:55:15.037544 27031 net.cpp:148] Top shape: 100 4096 (409600)
I0403 12:55:15.037561 27031 net.cpp:156] Memory required for data: 823334000
I0403 12:55:15.037583 27031 layer_factory.hpp:77] Creating layer relu6
I0403 12:55:15.037608 27031 net.cpp:91] Creating Layer relu6
I0403 12:55:15.037627 27031 net.cpp:425] relu6 <- fc6
I0403 12:55:15.037648 27031 net.cpp:386] relu6 -> fc6 (in-place)
I0403 12:55:15.037873 27031 net.cpp:141] Setting up relu6
I0403 12:55:15.037900 27031 net.cpp:148] Top shape: 100 4096 (409600)
I0403 12:55:15.037916 27031 net.cpp:156] Memory required for data: 824972400
I0403 12:55:15.037931 27031 layer_factory.hpp:77] Creating layer drop6
I0403 12:55:15.037951 27031 net.cpp:91] Creating Layer drop6
I0403 12:55:15.037967 27031 net.cpp:425] drop6 <- fc6
I0403 12:55:15.037984 27031 net.cpp:386] drop6 -> fc6 (in-place)
I0403 12:55:15.038038 27031 net.cpp:141] Setting up drop6
I0403 12:55:15.038063 27031 net.cpp:148] Top shape: 100 4096 (409600)
I0403 12:55:15.038079 27031 net.cpp:156] Memory required for data: 826610800
I0403 12:55:15.038095 27031 layer_factory.hpp:77] Creating layer fc7
I0403 12:55:15.038120 27031 net.cpp:91] Creating Layer fc7
I0403 12:55:15.038137 27031 net.cpp:425] fc7 <- fc6
I0403 12:55:15.038156 27031 net.cpp:399] fc7 -> fc7
I0403 12:55:15.722602 27031 net.cpp:141] Setting up fc7
I0403 12:55:15.722679 27031 net.cpp:148] Top shape: 100 4096 (409600)
I0403 12:55:15.722697 27031 net.cpp:156] Memory required for data: 828249200
I0403 12:55:15.722719 27031 layer_factory.hpp:77] Creating layer relu7
I0403 12:55:15.722740 27031 net.cpp:91] Creating Layer relu7
I0403 12:55:15.722757 27031 net.cpp:425] relu7 <- fc7
I0403 12:55:15.722777 27031 net.cpp:386] relu7 -> fc7 (in-place)
I0403 12:55:15.723171 27031 net.cpp:141] Setting up relu7
I0403 12:55:15.723201 27031 net.cpp:148] Top shape: 100 4096 (409600)
I0403 12:55:15.723248 27031 net.cpp:156] Memory required for data: 829887600
I0403 12:55:15.723265 27031 layer_factory.hpp:77] Creating layer drop7
I0403 12:55:15.723285 27031 net.cpp:91] Creating Layer drop7
I0403 12:55:15.723300 27031 net.cpp:425] drop7 <- fc7
I0403 12:55:15.723317 27031 net.cpp:386] drop7 -> fc7 (in-place)
I0403 12:55:15.723374 27031 net.cpp:141] Setting up drop7
I0403 12:55:15.723400 27031 net.cpp:148] Top shape: 100 4096 (409600)
I0403 12:55:15.723415 27031 net.cpp:156] Memory required for data: 831526000
I0403 12:55:15.723430 27031 layer_factory.hpp:77] Creating layer fc8_plantvillage
I0403 12:55:15.723453 27031 net.cpp:91] Creating Layer fc8_plantvillage
I0403 12:55:15.723469 27031 net.cpp:425] fc8_plantvillage <- fc7
I0403 12:55:15.723489 27031 net.cpp:399] fc8_plantvillage -> fc8_plantvillage
I0403 12:55:15.730226 27031 net.cpp:141] Setting up fc8_plantvillage
I0403 12:55:15.730254 27031 net.cpp:148] Top shape: 100 38 (3800)
I0403 12:55:15.730270 27031 net.cpp:156] Memory required for data: 831541200
I0403 12:55:15.730290 27031 layer_factory.hpp:77] Creating layer fc8_plantvillage_fc8_plantvillage_0_split
I0403 12:55:15.730309 27031 net.cpp:91] Creating Layer fc8_plantvillage_fc8_plantvillage_0_split
I0403 12:55:15.730324 27031 net.cpp:425] fc8_plantvillage_fc8_plantvillage_0_split <- fc8_plantvillage
I0403 12:55:15.730345 27031 net.cpp:399] fc8_plantvillage_fc8_plantvillage_0_split -> fc8_plantvillage_fc8_plantvillage_0_split_0
I0403 12:55:15.730372 27031 net.cpp:399] fc8_plantvillage_fc8_plantvillage_0_split -> fc8_plantvillage_fc8_plantvillage_0_split_1
I0403 12:55:15.730393 27031 net.cpp:399] fc8_plantvillage_fc8_plantvillage_0_split -> fc8_plantvillage_fc8_plantvillage_0_split_2
I0403 12:55:15.730473 27031 net.cpp:141] Setting up fc8_plantvillage_fc8_plantvillage_0_split
I0403 12:55:15.730496 27031 net.cpp:148] Top shape: 100 38 (3800)
I0403 12:55:15.730512 27031 net.cpp:148] Top shape: 100 38 (3800)
I0403 12:55:15.730528 27031 net.cpp:148] Top shape: 100 38 (3800)
I0403 12:55:15.730542 27031 net.cpp:156] Memory required for data: 831586800
I0403 12:55:15.730557 27031 layer_factory.hpp:77] Creating layer prob
I0403 12:55:15.730579 27031 net.cpp:91] Creating Layer prob
I0403 12:55:15.730595 27031 net.cpp:425] prob <- fc8_plantvillage_fc8_plantvillage_0_split_0
I0403 12:55:15.730613 27031 net.cpp:399] prob -> prob
I0403 12:55:15.730834 27031 net.cpp:141] Setting up prob
I0403 12:55:15.730865 27031 net.cpp:148] Top shape: 100 38 (3800)
I0403 12:55:15.730880 27031 net.cpp:156] Memory required for data: 831602000
I0403 12:55:15.730895 27031 layer_factory.hpp:77] Creating layer hdf5out
I0403 12:55:15.730914 27031 net.cpp:91] Creating Layer hdf5out
I0403 12:55:15.730931 27031 net.cpp:425] hdf5out <- prob
I0403 12:55:15.730945 27031 net.cpp:425] hdf5out <- label_data_1_split_0
I0403 12:55:15.735146 27031 net.cpp:141] Setting up hdf5out
…
