…
I0403 13:17:52.447764 27728 net.cpp:313] The NetState phase (1) differed from the phase (0) specified by a rule in layer data
I0403 13:17:52.448081 27728 net.cpp:49] Initializing net from parameters: 
state {
  phase: TEST
}
layer {
  name: "data"
  type: "Data"
  top: "data"
  top: "label"
  include {
    phase: TEST
  }
  transform_param {
    crop_size: 227
    mean_file: "/home/mohanty/data/final_dataset/lmdb/color-50-50/mean.binaryproto"
  }
  data_param {
    source: "/home/mohanty/data/final_dataset/lmdb/color-50-50/test_db"
    batch_size: 100
    backend: LMDB
  }
}
layer {
  name: "conv1"
  type: "Convolution"
  bottom: "data"
  top: "conv1"
  param {
    lr_mult: 1
    decay_mult: 1
  }
  param {
    lr_mult: 2
    decay_mult: 0
  }
  convolution_param {
    num_output: 96
    kernel_size: 11
    stride: 4
    weight_filler {
      type: "gaussian"
      std: 0.01
    }
    bias_filler {
      type: "constant"
      value: 0
    }
  }
}
layer {
  name: "relu1"
  type: "ReLU"
  bottom: "conv1"
  top: "conv1"
}
layer {
  name: "norm1"
  type: "LRN"
  bottom: "conv1"
  top: "norm1"
  lrn_param {
    local_size: 5
    alpha: 0.0001
    beta: 0.75
  }
}
layer {
  name: "pool1"
  type: "Pooling"
  bottom: "norm1"
  top: "pool1"
  pooling_param {
    pool: MAX
    kernel_size: 3
    stride: 2
  }
}
layer {
  name: "conv2"
  type: "Convolution"
  bottom: "pool1"
  top: "conv2"
  param {
    lr_mult: 1
    decay_mult: 1
  }
  param {
    lr_mult: 2
    decay_mult: 0
  }
  convolution_param {
    num_output: 256
    pad: 2
    kernel_size: 5
    group: 2
    weight_filler {
      type: "gaussian"
      std: 0.01
    }
    bias_filler {
      type: "constant"
      value: 0.1
    }
  }
}
layer {
  name: "relu2"
  type: "ReLU"
  bottom: "conv2"
  top: "conv2"
}
layer {
  name: "norm2"
  type: "LRN"
  bottom: "conv2"
  top: "norm2"
  lrn_param {
    local_size: 5
    alpha: 0.0001
    beta: 0.75
  }
}
layer {
  name: "pool2"
  type: "Pooling"
  bottom: "norm2"
  top: "pool2"
  pooling_param {
    pool: MAX
    kernel_size: 3
    stride: 2
  }
}
layer {
  name: "conv3"
  type: "Convolution"
  bottom: "pool2"
  top: "conv3"
  param {
    lr_mult: 1
    decay_mult: 1
  }
  param {
    lr_mult: 2
    decay_mult: 0
  }
  convolution_param {
    num_output: 384
    pad: 1
    kernel_size: 3
    weight_filler {
      type: "gaussian"
      std: 0.01
    }
    bias_filler {
      type: "constant"
      value: 0
    }
  }
}
layer {
  name: "relu3"
  type: "ReLU"
  bottom: "conv3"
  top: "conv3"
}
layer {
  name: "conv4"
  type: "Convolution"
  bottom: "conv3"
  top: "conv4"
  param {
    lr_mult: 1
    decay_mult: 1
  }
  param {
    lr_mult: 2
    decay_mult: 0
  }
  convolution_param {
    num_output: 384
    pad: 1
    kernel_size: 3
    group: 2
    weight_filler {
      type: "gaussian"
      std: 0.01
    }
    bias_filler {
      type: "constant"
      value: 0.1
    }
  }
}
layer {
  name: "relu4"
  type: "ReLU"
  bottom: "conv4"
  top: "conv4"
}
layer {
  name: "conv5"
  type: "Convolution"
  bottom: "conv4"
  top: "conv5"
  param {
    lr_mult: 1
    decay_mult: 1
  }
  param {
    lr_mult: 2
    decay_mult: 0
  }
  convolution_param {
    num_output: 256
    pad: 1
    kernel_size: 3
    group: 2
    weight_filler {
      type: "gaussian"
      std: 0.01
    }
    bias_filler {
      type: "constant"
      value: 0.1
    }
  }
}
layer {
  name: "relu5"
  type: "ReLU"
  bottom: "conv5"
  top: "conv5"
}
layer {
  name: "pool5"
  type: "Pooling"
  bottom: "conv5"
  top: "pool5"
  pooling_param {
    pool: MAX
    kernel_size: 3
    stride: 2
  }
}
layer {
  name: "fc6"
  type: "InnerProduct"
  bottom: "pool5"
  top: "fc6"
  param {
    lr_mult: 1
    decay_mult: 1
  }
  param {
    lr_mult: 2
    decay_mult: 0
  }
  inner_product_param {
    num_output: 4096
    weight_filler {
      type: "gaussian"
      std: 0.005
    }
    bias_filler {
      type: "constant"
      value: 0.1
    }
  }
}
layer {
  name: "relu6"
  type: "ReLU"
  bottom: "fc6"
  top: "fc6"
}
layer {
  name: "drop6"
  type: "Dropout"
  bottom: "fc6"
  top: "fc6"
  dropout_param {
    dropout_ratio: 0.5
  }
}
layer {
  name: "fc7"
  type: "InnerProduct"
  bottom: "fc6"
  top: "fc7"
  param {
    lr_mult: 1
    decay_mult: 1
  }
  param {
    lr_mult: 2
    decay_mult: 0
  }
  inner_product_param {
    num_output: 4096
    weight_filler {
      type: "gaussian"
      std: 0.005
    }
    bias_filler {
      type: "constant"
      value: 0.1
    }
  }
}
layer {
  name: "relu7"
  type: "ReLU"
  bottom: "fc7"
  top: "fc7"
}
layer {
  name: "drop7"
  type: "Dropout"
  bottom: "fc7"
  top: "fc7"
  dropout_param {
    dropout_ratio: 0.5
  }
}
layer {
  name: "fc8_plantvillage"
  type: "InnerProduct"
  bottom: "fc7"
  top: "fc8_plantvillage"
  param {
    lr_mult: 1
    decay_mult: 1
  }
  param {
    lr_mult: 2
    decay_mult: 0
  }
  inner_product_param {
    num_output: 38
    weight_filler {
      type: "gaussian"
      std: 0.01
    }
    bias_filler {
      type: "constant"
      value: 0
    }
  }
}
layer {
  name: "prob"
  type: "Softmax"
  bottom: "fc8_plantvillage"
  top: "prob"
  include {
    phase: TEST
  }
}
layer {
  name: "hdf5out"
  type: "HDF5Output"
  bottom: "prob"
  bottom: "label"
  include {
    phase: TEST
  }
  hdf5_output_param {
    file_name: "hdf5_dumps/iter_7263.h5"
  }
}
layer {
  name: "loss"
  type: "SoftmaxWithLoss"
  bottom: "fc8_plantvillage"
  bottom: "label"
  top: "loss"
}
layer {
  name: "accuracy"
  type: "Accuracy"
  bottom: "fc8_plantvillage"
  bottom: "label"
  top: "accuracy"
  include {
    phase: TEST
  }
}
I0403 13:17:52.448758 27728 layer_factory.hpp:77] Creating layer data
I0403 13:17:52.449450 27728 net.cpp:91] Creating Layer data
I0403 13:17:52.449491 27728 net.cpp:399] data -> data
I0403 13:17:52.449544 27728 net.cpp:399] data -> label
I0403 13:17:52.449582 27728 data_transformer.cpp:25] Loading mean file from: /home/mohanty/data/final_dataset/lmdb/color-50-50/mean.binaryproto
I0403 13:17:52.452206 27731 db_lmdb.cpp:38] Opened lmdb /home/mohanty/data/final_dataset/lmdb/color-50-50/test_db
I0403 13:17:52.464217 27728 data_layer.cpp:41] output data size: 100,3,227,227
I0403 13:17:52.583789 27728 net.cpp:141] Setting up data
I0403 13:17:52.583878 27728 net.cpp:148] Top shape: 100 3 227 227 (15458700)
I0403 13:17:52.583902 27728 net.cpp:148] Top shape: 100 (100)
I0403 13:17:52.583919 27728 net.cpp:156] Memory required for data: 61835200
I0403 13:17:52.583945 27728 layer_factory.hpp:77] Creating layer label_data_1_split
I0403 13:17:52.583971 27728 net.cpp:91] Creating Layer label_data_1_split
I0403 13:17:52.583989 27728 net.cpp:425] label_data_1_split <- label
I0403 13:17:52.584022 27728 net.cpp:399] label_data_1_split -> label_data_1_split_0
I0403 13:17:52.584048 27728 net.cpp:399] label_data_1_split -> label_data_1_split_1
I0403 13:17:52.584070 27728 net.cpp:399] label_data_1_split -> label_data_1_split_2
I0403 13:17:52.584131 27728 net.cpp:141] Setting up label_data_1_split
I0403 13:17:52.584156 27728 net.cpp:148] Top shape: 100 (100)
I0403 13:17:52.584173 27728 net.cpp:148] Top shape: 100 (100)
I0403 13:17:52.584189 27728 net.cpp:148] Top shape: 100 (100)
I0403 13:17:52.584204 27728 net.cpp:156] Memory required for data: 61836400
I0403 13:17:52.584219 27728 layer_factory.hpp:77] Creating layer conv1
I0403 13:17:52.584251 27728 net.cpp:91] Creating Layer conv1
I0403 13:17:52.584271 27728 net.cpp:425] conv1 <- data
I0403 13:17:52.584291 27728 net.cpp:399] conv1 -> conv1
I0403 13:17:52.728410 27728 net.cpp:141] Setting up conv1
I0403 13:17:52.728487 27728 net.cpp:148] Top shape: 100 96 55 55 (29040000)
I0403 13:17:52.728504 27728 net.cpp:156] Memory required for data: 177996400
I0403 13:17:52.728550 27728 layer_factory.hpp:77] Creating layer relu1
I0403 13:17:52.728579 27728 net.cpp:91] Creating Layer relu1
I0403 13:17:52.728600 27728 net.cpp:425] relu1 <- conv1
I0403 13:17:52.728621 27728 net.cpp:386] relu1 -> conv1 (in-place)
I0403 13:17:52.728893 27728 net.cpp:141] Setting up relu1
I0403 13:17:52.728966 27728 net.cpp:148] Top shape: 100 96 55 55 (29040000)
I0403 13:17:52.728987 27728 net.cpp:156] Memory required for data: 294156400
I0403 13:17:52.729035 27728 layer_factory.hpp:77] Creating layer norm1
I0403 13:17:52.729065 27728 net.cpp:91] Creating Layer norm1
I0403 13:17:52.729084 27728 net.cpp:425] norm1 <- conv1
I0403 13:17:52.729104 27728 net.cpp:399] norm1 -> norm1
I0403 13:17:52.729416 27728 net.cpp:141] Setting up norm1
I0403 13:17:52.729446 27728 net.cpp:148] Top shape: 100 96 55 55 (29040000)
I0403 13:17:52.729463 27728 net.cpp:156] Memory required for data: 410316400
I0403 13:17:52.729478 27728 layer_factory.hpp:77] Creating layer pool1
I0403 13:17:52.729501 27728 net.cpp:91] Creating Layer pool1
I0403 13:17:52.729519 27728 net.cpp:425] pool1 <- norm1
I0403 13:17:52.729538 27728 net.cpp:399] pool1 -> pool1
I0403 13:17:52.729606 27728 net.cpp:141] Setting up pool1
I0403 13:17:52.729631 27728 net.cpp:148] Top shape: 100 96 27 27 (6998400)
I0403 13:17:52.729647 27728 net.cpp:156] Memory required for data: 438310000
I0403 13:17:52.729662 27728 layer_factory.hpp:77] Creating layer conv2
I0403 13:17:52.729688 27728 net.cpp:91] Creating Layer conv2
I0403 13:17:52.729706 27728 net.cpp:425] conv2 <- pool1
I0403 13:17:52.729724 27728 net.cpp:399] conv2 -> conv2
I0403 13:17:52.745198 27728 net.cpp:141] Setting up conv2
I0403 13:17:52.745244 27728 net.cpp:148] Top shape: 100 256 27 27 (18662400)
I0403 13:17:52.745261 27728 net.cpp:156] Memory required for data: 512959600
I0403 13:17:52.745285 27728 layer_factory.hpp:77] Creating layer relu2
I0403 13:17:52.745306 27728 net.cpp:91] Creating Layer relu2
I0403 13:17:52.745322 27728 net.cpp:425] relu2 <- conv2
I0403 13:17:52.745342 27728 net.cpp:386] relu2 -> conv2 (in-place)
I0403 13:17:52.745614 27728 net.cpp:141] Setting up relu2
I0403 13:17:52.745642 27728 net.cpp:148] Top shape: 100 256 27 27 (18662400)
I0403 13:17:52.745658 27728 net.cpp:156] Memory required for data: 587609200
I0403 13:17:52.745674 27728 layer_factory.hpp:77] Creating layer norm2
I0403 13:17:52.745695 27728 net.cpp:91] Creating Layer norm2
I0403 13:17:52.745713 27728 net.cpp:425] norm2 <- conv2
I0403 13:17:52.745733 27728 net.cpp:399] norm2 -> norm2
I0403 13:17:52.745925 27728 net.cpp:141] Setting up norm2
I0403 13:17:52.745952 27728 net.cpp:148] Top shape: 100 256 27 27 (18662400)
I0403 13:17:52.745967 27728 net.cpp:156] Memory required for data: 662258800
I0403 13:17:52.745982 27728 layer_factory.hpp:77] Creating layer pool2
I0403 13:17:52.746001 27728 net.cpp:91] Creating Layer pool2
I0403 13:17:52.746017 27728 net.cpp:425] pool2 <- norm2
I0403 13:17:52.746038 27728 net.cpp:399] pool2 -> pool2
I0403 13:17:52.746094 27728 net.cpp:141] Setting up pool2
I0403 13:17:52.746119 27728 net.cpp:148] Top shape: 100 256 13 13 (4326400)
I0403 13:17:52.746134 27728 net.cpp:156] Memory required for data: 679564400
I0403 13:17:52.746150 27728 layer_factory.hpp:77] Creating layer conv3
I0403 13:17:52.746173 27728 net.cpp:91] Creating Layer conv3
I0403 13:17:52.746192 27728 net.cpp:425] conv3 <- pool2
I0403 13:17:52.746213 27728 net.cpp:399] conv3 -> conv3
I0403 13:17:52.790415 27728 net.cpp:141] Setting up conv3
I0403 13:17:52.790487 27728 net.cpp:148] Top shape: 100 384 13 13 (6489600)
I0403 13:17:52.790503 27728 net.cpp:156] Memory required for data: 705522800
I0403 13:17:52.790530 27728 layer_factory.hpp:77] Creating layer relu3
I0403 13:17:52.790556 27728 net.cpp:91] Creating Layer relu3
I0403 13:17:52.790576 27728 net.cpp:425] relu3 <- conv3
I0403 13:17:52.790596 27728 net.cpp:386] relu3 -> conv3 (in-place)
I0403 13:17:52.790874 27728 net.cpp:141] Setting up relu3
I0403 13:17:52.790900 27728 net.cpp:148] Top shape: 100 384 13 13 (6489600)
I0403 13:17:52.790916 27728 net.cpp:156] Memory required for data: 731481200
I0403 13:17:52.790932 27728 layer_factory.hpp:77] Creating layer conv4
I0403 13:17:52.790961 27728 net.cpp:91] Creating Layer conv4
I0403 13:17:52.790979 27728 net.cpp:425] conv4 <- conv3
I0403 13:17:52.791002 27728 net.cpp:399] conv4 -> conv4
I0403 13:17:52.821847 27728 net.cpp:141] Setting up conv4
I0403 13:17:52.821912 27728 net.cpp:148] Top shape: 100 384 13 13 (6489600)
I0403 13:17:52.821961 27728 net.cpp:156] Memory required for data: 757439600
I0403 13:17:52.821985 27728 layer_factory.hpp:77] Creating layer relu4
I0403 13:17:52.822006 27728 net.cpp:91] Creating Layer relu4
I0403 13:17:52.822028 27728 net.cpp:425] relu4 <- conv4
I0403 13:17:52.822048 27728 net.cpp:386] relu4 -> conv4 (in-place)
I0403 13:17:52.822331 27728 net.cpp:141] Setting up relu4
I0403 13:17:52.822363 27728 net.cpp:148] Top shape: 100 384 13 13 (6489600)
I0403 13:17:52.822381 27728 net.cpp:156] Memory required for data: 783398000
I0403 13:17:52.822396 27728 layer_factory.hpp:77] Creating layer conv5
I0403 13:17:52.822422 27728 net.cpp:91] Creating Layer conv5
I0403 13:17:52.822441 27728 net.cpp:425] conv5 <- conv4
I0403 13:17:52.822463 27728 net.cpp:399] conv5 -> conv5
I0403 13:17:52.844036 27728 net.cpp:141] Setting up conv5
I0403 13:17:52.844087 27728 net.cpp:148] Top shape: 100 256 13 13 (4326400)
I0403 13:17:52.844105 27728 net.cpp:156] Memory required for data: 800703600
I0403 13:17:52.844131 27728 layer_factory.hpp:77] Creating layer relu5
I0403 13:17:52.844157 27728 net.cpp:91] Creating Layer relu5
I0403 13:17:52.844177 27728 net.cpp:425] relu5 <- conv5
I0403 13:17:52.844195 27728 net.cpp:386] relu5 -> conv5 (in-place)
I0403 13:17:52.844490 27728 net.cpp:141] Setting up relu5
I0403 13:17:52.844517 27728 net.cpp:148] Top shape: 100 256 13 13 (4326400)
I0403 13:17:52.844533 27728 net.cpp:156] Memory required for data: 818009200
I0403 13:17:52.844549 27728 layer_factory.hpp:77] Creating layer pool5
I0403 13:17:52.844574 27728 net.cpp:91] Creating Layer pool5
I0403 13:17:52.844593 27728 net.cpp:425] pool5 <- conv5
I0403 13:17:52.844611 27728 net.cpp:399] pool5 -> pool5
I0403 13:17:52.844674 27728 net.cpp:141] Setting up pool5
I0403 13:17:52.844699 27728 net.cpp:148] Top shape: 100 256 6 6 (921600)
I0403 13:17:52.844715 27728 net.cpp:156] Memory required for data: 821695600
I0403 13:17:52.844730 27728 layer_factory.hpp:77] Creating layer fc6
I0403 13:17:52.844760 27728 net.cpp:91] Creating Layer fc6
I0403 13:17:52.844779 27728 net.cpp:425] fc6 <- pool5
I0403 13:17:52.844797 27728 net.cpp:399] fc6 -> fc6
I0403 13:17:54.422392 27728 net.cpp:141] Setting up fc6
I0403 13:17:54.422464 27728 net.cpp:148] Top shape: 100 4096 (409600)
I0403 13:17:54.422480 27728 net.cpp:156] Memory required for data: 823334000
I0403 13:17:54.422502 27728 layer_factory.hpp:77] Creating layer relu6
I0403 13:17:54.422523 27728 net.cpp:91] Creating Layer relu6
I0403 13:17:54.422540 27728 net.cpp:425] relu6 <- fc6
I0403 13:17:54.422562 27728 net.cpp:386] relu6 -> fc6 (in-place)
I0403 13:17:54.422785 27728 net.cpp:141] Setting up relu6
I0403 13:17:54.422811 27728 net.cpp:148] Top shape: 100 4096 (409600)
I0403 13:17:54.422824 27728 net.cpp:156] Memory required for data: 824972400
I0403 13:17:54.422839 27728 layer_factory.hpp:77] Creating layer drop6
I0403 13:17:54.422858 27728 net.cpp:91] Creating Layer drop6
I0403 13:17:54.422874 27728 net.cpp:425] drop6 <- fc6
I0403 13:17:54.422894 27728 net.cpp:386] drop6 -> fc6 (in-place)
I0403 13:17:54.422946 27728 net.cpp:141] Setting up drop6
I0403 13:17:54.422971 27728 net.cpp:148] Top shape: 100 4096 (409600)
I0403 13:17:54.422984 27728 net.cpp:156] Memory required for data: 826610800
I0403 13:17:54.422999 27728 layer_factory.hpp:77] Creating layer fc7
I0403 13:17:54.423019 27728 net.cpp:91] Creating Layer fc7
I0403 13:17:54.423034 27728 net.cpp:425] fc7 <- fc6
I0403 13:17:54.423058 27728 net.cpp:399] fc7 -> fc7
I0403 13:17:55.154234 27728 net.cpp:141] Setting up fc7
I0403 13:17:55.154312 27728 net.cpp:148] Top shape: 100 4096 (409600)
I0403 13:17:55.154330 27728 net.cpp:156] Memory required for data: 828249200
I0403 13:17:55.154355 27728 layer_factory.hpp:77] Creating layer relu7
I0403 13:17:55.154379 27728 net.cpp:91] Creating Layer relu7
I0403 13:17:55.154398 27728 net.cpp:425] relu7 <- fc7
I0403 13:17:55.154418 27728 net.cpp:386] relu7 -> fc7 (in-place)
I0403 13:17:56.886124 27728 net.cpp:141] Setting up relu7
I0403 13:17:56.886205 27728 net.cpp:148] Top shape: 100 4096 (409600)
I0403 13:17:56.886253 27728 net.cpp:156] Memory required for data: 829887600
I0403 13:17:56.886275 27728 layer_factory.hpp:77] Creating layer drop7
I0403 13:17:56.886301 27728 net.cpp:91] Creating Layer drop7
I0403 13:17:56.886320 27728 net.cpp:425] drop7 <- fc7
I0403 13:17:56.886343 27728 net.cpp:386] drop7 -> fc7 (in-place)
I0403 13:17:56.886420 27728 net.cpp:141] Setting up drop7
I0403 13:17:56.886447 27728 net.cpp:148] Top shape: 100 4096 (409600)
I0403 13:17:56.886464 27728 net.cpp:156] Memory required for data: 831526000
I0403 13:17:56.886481 27728 layer_factory.hpp:77] Creating layer fc8_plantvillage
I0403 13:17:56.886502 27728 net.cpp:91] Creating Layer fc8_plantvillage
I0403 13:17:56.886517 27728 net.cpp:425] fc8_plantvillage <- fc7
I0403 13:17:56.886536 27728 net.cpp:399] fc8_plantvillage -> fc8_plantvillage
I0403 13:17:56.893736 27728 net.cpp:141] Setting up fc8_plantvillage
I0403 13:17:56.893767 27728 net.cpp:148] Top shape: 100 38 (3800)
I0403 13:17:56.893784 27728 net.cpp:156] Memory required for data: 831541200
I0403 13:17:56.893803 27728 layer_factory.hpp:77] Creating layer fc8_plantvillage_fc8_plantvillage_0_split
I0403 13:17:56.893826 27728 net.cpp:91] Creating Layer fc8_plantvillage_fc8_plantvillage_0_split
I0403 13:17:56.893842 27728 net.cpp:425] fc8_plantvillage_fc8_plantvillage_0_split <- fc8_plantvillage
I0403 13:17:56.893862 27728 net.cpp:399] fc8_plantvillage_fc8_plantvillage_0_split -> fc8_plantvillage_fc8_plantvillage_0_split_0
I0403 13:17:56.893882 27728 net.cpp:399] fc8_plantvillage_fc8_plantvillage_0_split -> fc8_plantvillage_fc8_plantvillage_0_split_1
I0403 13:17:56.893901 27728 net.cpp:399] fc8_plantvillage_fc8_plantvillage_0_split -> fc8_plantvillage_fc8_plantvillage_0_split_2
I0403 13:17:56.893986 27728 net.cpp:141] Setting up fc8_plantvillage_fc8_plantvillage_0_split
I0403 13:17:56.894011 27728 net.cpp:148] Top shape: 100 38 (3800)
I0403 13:17:56.894026 27728 net.cpp:148] Top shape: 100 38 (3800)
I0403 13:17:56.894042 27728 net.cpp:148] Top shape: 100 38 (3800)
I0403 13:17:56.894057 27728 net.cpp:156] Memory required for data: 831586800
I0403 13:17:56.894071 27728 layer_factory.hpp:77] Creating layer prob
I0403 13:17:56.894090 27728 net.cpp:91] Creating Layer prob
I0403 13:17:56.894104 27728 net.cpp:425] prob <- fc8_plantvillage_fc8_plantvillage_0_split_0
I0403 13:17:56.894125 27728 net.cpp:399] prob -> prob
I0403 13:17:56.894367 27728 net.cpp:141] Setting up prob
I0403 13:17:56.894394 27728 net.cpp:148] Top shape: 100 38 (3800)
I0403 13:17:56.894409 27728 net.cpp:156] Memory required for data: 831602000
I0403 13:17:56.894424 27728 layer_factory.hpp:77] Creating layer hdf5out
I0403 13:17:56.894446 27728 net.cpp:91] Creating Layer hdf5out
I0403 13:17:56.894464 27728 net.cpp:425] hdf5out <- prob
I0403 13:17:56.894479 27728 net.cpp:425] hdf5out <- label_data_1_split_0
I0403 13:17:56.901202 27728 net.cpp:141] Setting up hdf5out
…
