…
I0403 13:04:38.263036 27369 net.cpp:313] The NetState phase (1) differed from the phase (0) specified by a rule in layer data
I0403 13:04:38.263357 27369 net.cpp:49] Initializing net from parameters: 
state {
  phase: TEST
}
layer {
  name: "data"
  type: "Data"
  top: "data"
  top: "label"
  include {
    phase: TEST
  }
  transform_param {
    crop_size: 227
    mean_file: "/home/mohanty/data/final_dataset/lmdb/color-50-50/mean.binaryproto"
  }
  data_param {
    source: "/home/mohanty/data/final_dataset/lmdb/color-50-50/test_db"
    batch_size: 100
    backend: LMDB
  }
}
layer {
  name: "conv1"
  type: "Convolution"
  bottom: "data"
  top: "conv1"
  param {
    lr_mult: 1
    decay_mult: 1
  }
  param {
    lr_mult: 2
    decay_mult: 0
  }
  convolution_param {
    num_output: 96
    kernel_size: 11
    stride: 4
    weight_filler {
      type: "gaussian"
      std: 0.01
    }
    bias_filler {
      type: "constant"
      value: 0
    }
  }
}
layer {
  name: "relu1"
  type: "ReLU"
  bottom: "conv1"
  top: "conv1"
}
layer {
  name: "norm1"
  type: "LRN"
  bottom: "conv1"
  top: "norm1"
  lrn_param {
    local_size: 5
    alpha: 0.0001
    beta: 0.75
  }
}
layer {
  name: "pool1"
  type: "Pooling"
  bottom: "norm1"
  top: "pool1"
  pooling_param {
    pool: MAX
    kernel_size: 3
    stride: 2
  }
}
layer {
  name: "conv2"
  type: "Convolution"
  bottom: "pool1"
  top: "conv2"
  param {
    lr_mult: 1
    decay_mult: 1
  }
  param {
    lr_mult: 2
    decay_mult: 0
  }
  convolution_param {
    num_output: 256
    pad: 2
    kernel_size: 5
    group: 2
    weight_filler {
      type: "gaussian"
      std: 0.01
    }
    bias_filler {
      type: "constant"
      value: 0.1
    }
  }
}
layer {
  name: "relu2"
  type: "ReLU"
  bottom: "conv2"
  top: "conv2"
}
layer {
  name: "norm2"
  type: "LRN"
  bottom: "conv2"
  top: "norm2"
  lrn_param {
    local_size: 5
    alpha: 0.0001
    beta: 0.75
  }
}
layer {
  name: "pool2"
  type: "Pooling"
  bottom: "norm2"
  top: "pool2"
  pooling_param {
    pool: MAX
    kernel_size: 3
    stride: 2
  }
}
layer {
  name: "conv3"
  type: "Convolution"
  bottom: "pool2"
  top: "conv3"
  param {
    lr_mult: 1
    decay_mult: 1
  }
  param {
    lr_mult: 2
    decay_mult: 0
  }
  convolution_param {
    num_output: 384
    pad: 1
    kernel_size: 3
    weight_filler {
      type: "gaussian"
      std: 0.01
    }
    bias_filler {
      type: "constant"
      value: 0
    }
  }
}
layer {
  name: "relu3"
  type: "ReLU"
  bottom: "conv3"
  top: "conv3"
}
layer {
  name: "conv4"
  type: "Convolution"
  bottom: "conv3"
  top: "conv4"
  param {
    lr_mult: 1
    decay_mult: 1
  }
  param {
    lr_mult: 2
    decay_mult: 0
  }
  convolution_param {
    num_output: 384
    pad: 1
    kernel_size: 3
    group: 2
    weight_filler {
      type: "gaussian"
      std: 0.01
    }
    bias_filler {
      type: "constant"
      value: 0.1
    }
  }
}
layer {
  name: "relu4"
  type: "ReLU"
  bottom: "conv4"
  top: "conv4"
}
layer {
  name: "conv5"
  type: "Convolution"
  bottom: "conv4"
  top: "conv5"
  param {
    lr_mult: 1
    decay_mult: 1
  }
  param {
    lr_mult: 2
    decay_mult: 0
  }
  convolution_param {
    num_output: 256
    pad: 1
    kernel_size: 3
    group: 2
    weight_filler {
      type: "gaussian"
      std: 0.01
    }
    bias_filler {
      type: "constant"
      value: 0.1
    }
  }
}
layer {
  name: "relu5"
  type: "ReLU"
  bottom: "conv5"
  top: "conv5"
}
layer {
  name: "pool5"
  type: "Pooling"
  bottom: "conv5"
  top: "pool5"
  pooling_param {
    pool: MAX
    kernel_size: 3
    stride: 2
  }
}
layer {
  name: "fc6"
  type: "InnerProduct"
  bottom: "pool5"
  top: "fc6"
  param {
    lr_mult: 1
    decay_mult: 1
  }
  param {
    lr_mult: 2
    decay_mult: 0
  }
  inner_product_param {
    num_output: 4096
    weight_filler {
      type: "gaussian"
      std: 0.005
    }
    bias_filler {
      type: "constant"
      value: 0.1
    }
  }
}
layer {
  name: "relu6"
  type: "ReLU"
  bottom: "fc6"
  top: "fc6"
}
layer {
  name: "drop6"
  type: "Dropout"
  bottom: "fc6"
  top: "fc6"
  dropout_param {
    dropout_ratio: 0.5
  }
}
layer {
  name: "fc7"
  type: "InnerProduct"
  bottom: "fc6"
  top: "fc7"
  param {
    lr_mult: 1
    decay_mult: 1
  }
  param {
    lr_mult: 2
    decay_mult: 0
  }
  inner_product_param {
    num_output: 4096
    weight_filler {
      type: "gaussian"
      std: 0.005
    }
    bias_filler {
      type: "constant"
      value: 0.1
    }
  }
}
layer {
  name: "relu7"
  type: "ReLU"
  bottom: "fc7"
  top: "fc7"
}
layer {
  name: "drop7"
  type: "Dropout"
  bottom: "fc7"
  top: "fc7"
  dropout_param {
    dropout_ratio: 0.5
  }
}
layer {
  name: "fc8_plantvillage"
  type: "InnerProduct"
  bottom: "fc7"
  top: "fc8_plantvillage"
  param {
    lr_mult: 1
    decay_mult: 1
  }
  param {
    lr_mult: 2
    decay_mult: 0
  }
  inner_product_param {
    num_output: 38
    weight_filler {
      type: "gaussian"
      std: 0.01
    }
    bias_filler {
      type: "constant"
      value: 0
    }
  }
}
layer {
  name: "prob"
  type: "Softmax"
  bottom: "fc8_plantvillage"
  top: "prob"
  include {
    phase: TEST
  }
}
layer {
  name: "hdf5out"
  type: "HDF5Output"
  bottom: "prob"
  bottom: "label"
  include {
    phase: TEST
  }
  hdf5_output_param {
    file_name: "hdf5_dumps/iter_3497.h5"
  }
}
layer {
  name: "loss"
  type: "SoftmaxWithLoss"
  bottom: "fc8_plantvillage"
  bottom: "label"
  top: "loss"
}
layer {
  name: "accuracy"
  type: "Accuracy"
  bottom: "fc8_plantvillage"
  bottom: "label"
  top: "accuracy"
  include {
    phase: TEST
  }
}
I0403 13:04:38.263996 27369 layer_factory.hpp:77] Creating layer data
I0403 13:04:38.264673 27369 net.cpp:91] Creating Layer data
I0403 13:04:38.264708 27369 net.cpp:399] data -> data
I0403 13:04:38.264763 27369 net.cpp:399] data -> label
I0403 13:04:38.264806 27369 data_transformer.cpp:25] Loading mean file from: /home/mohanty/data/final_dataset/lmdb/color-50-50/mean.binaryproto
I0403 13:04:38.267745 27371 db_lmdb.cpp:38] Opened lmdb /home/mohanty/data/final_dataset/lmdb/color-50-50/test_db
I0403 13:04:38.279583 27369 data_layer.cpp:41] output data size: 100,3,227,227
I0403 13:04:38.402580 27369 net.cpp:141] Setting up data
I0403 13:04:38.402660 27369 net.cpp:148] Top shape: 100 3 227 227 (15458700)
I0403 13:04:38.402685 27369 net.cpp:148] Top shape: 100 (100)
I0403 13:04:38.402701 27369 net.cpp:156] Memory required for data: 61835200
I0403 13:04:38.402729 27369 layer_factory.hpp:77] Creating layer label_data_1_split
I0403 13:04:38.402756 27369 net.cpp:91] Creating Layer label_data_1_split
I0403 13:04:38.402776 27369 net.cpp:425] label_data_1_split <- label
I0403 13:04:38.402808 27369 net.cpp:399] label_data_1_split -> label_data_1_split_0
I0403 13:04:38.402837 27369 net.cpp:399] label_data_1_split -> label_data_1_split_1
I0403 13:04:38.402859 27369 net.cpp:399] label_data_1_split -> label_data_1_split_2
I0403 13:04:38.402925 27369 net.cpp:141] Setting up label_data_1_split
I0403 13:04:38.402951 27369 net.cpp:148] Top shape: 100 (100)
I0403 13:04:38.402968 27369 net.cpp:148] Top shape: 100 (100)
I0403 13:04:38.402986 27369 net.cpp:148] Top shape: 100 (100)
I0403 13:04:38.403000 27369 net.cpp:156] Memory required for data: 61836400
I0403 13:04:38.403017 27369 layer_factory.hpp:77] Creating layer conv1
I0403 13:04:38.403049 27369 net.cpp:91] Creating Layer conv1
I0403 13:04:38.403070 27369 net.cpp:425] conv1 <- data
I0403 13:04:38.403091 27369 net.cpp:399] conv1 -> conv1
I0403 13:04:38.550607 27369 net.cpp:141] Setting up conv1
I0403 13:04:38.550724 27369 net.cpp:148] Top shape: 100 96 55 55 (29040000)
I0403 13:04:38.550750 27369 net.cpp:156] Memory required for data: 177996400
I0403 13:04:38.550783 27369 layer_factory.hpp:77] Creating layer relu1
I0403 13:04:38.550812 27369 net.cpp:91] Creating Layer relu1
I0403 13:04:38.550832 27369 net.cpp:425] relu1 <- conv1
I0403 13:04:38.550851 27369 net.cpp:386] relu1 -> conv1 (in-place)
I0403 13:04:38.551125 27369 net.cpp:141] Setting up relu1
I0403 13:04:38.551153 27369 net.cpp:148] Top shape: 100 96 55 55 (29040000)
I0403 13:04:38.551169 27369 net.cpp:156] Memory required for data: 294156400
I0403 13:04:38.551223 27369 layer_factory.hpp:77] Creating layer norm1
I0403 13:04:38.551264 27369 net.cpp:91] Creating Layer norm1
I0403 13:04:38.551283 27369 net.cpp:425] norm1 <- conv1
I0403 13:04:38.551306 27369 net.cpp:399] norm1 -> norm1
I0403 13:04:38.551635 27369 net.cpp:141] Setting up norm1
I0403 13:04:38.551664 27369 net.cpp:148] Top shape: 100 96 55 55 (29040000)
I0403 13:04:38.551681 27369 net.cpp:156] Memory required for data: 410316400
I0403 13:04:38.551698 27369 layer_factory.hpp:77] Creating layer pool1
I0403 13:04:38.551723 27369 net.cpp:91] Creating Layer pool1
I0403 13:04:38.551743 27369 net.cpp:425] pool1 <- norm1
I0403 13:04:38.551761 27369 net.cpp:399] pool1 -> pool1
I0403 13:04:38.551831 27369 net.cpp:141] Setting up pool1
I0403 13:04:38.551857 27369 net.cpp:148] Top shape: 100 96 27 27 (6998400)
I0403 13:04:38.551874 27369 net.cpp:156] Memory required for data: 438310000
I0403 13:04:38.551890 27369 layer_factory.hpp:77] Creating layer conv2
I0403 13:04:38.551916 27369 net.cpp:91] Creating Layer conv2
I0403 13:04:38.551934 27369 net.cpp:425] conv2 <- pool1
I0403 13:04:38.551954 27369 net.cpp:399] conv2 -> conv2
I0403 13:04:38.567684 27369 net.cpp:141] Setting up conv2
I0403 13:04:38.567733 27369 net.cpp:148] Top shape: 100 256 27 27 (18662400)
I0403 13:04:38.567751 27369 net.cpp:156] Memory required for data: 512959600
I0403 13:04:38.567776 27369 layer_factory.hpp:77] Creating layer relu2
I0403 13:04:38.567798 27369 net.cpp:91] Creating Layer relu2
I0403 13:04:38.567816 27369 net.cpp:425] relu2 <- conv2
I0403 13:04:38.567837 27369 net.cpp:386] relu2 -> conv2 (in-place)
I0403 13:04:38.568131 27369 net.cpp:141] Setting up relu2
I0403 13:04:38.568161 27369 net.cpp:148] Top shape: 100 256 27 27 (18662400)
I0403 13:04:38.568177 27369 net.cpp:156] Memory required for data: 587609200
I0403 13:04:38.568192 27369 layer_factory.hpp:77] Creating layer norm2
I0403 13:04:38.568218 27369 net.cpp:91] Creating Layer norm2
I0403 13:04:38.568236 27369 net.cpp:425] norm2 <- conv2
I0403 13:04:38.568258 27369 net.cpp:399] norm2 -> norm2
I0403 13:04:38.568475 27369 net.cpp:141] Setting up norm2
I0403 13:04:38.568506 27369 net.cpp:148] Top shape: 100 256 27 27 (18662400)
I0403 13:04:38.568523 27369 net.cpp:156] Memory required for data: 662258800
I0403 13:04:38.568541 27369 layer_factory.hpp:77] Creating layer pool2
I0403 13:04:38.568560 27369 net.cpp:91] Creating Layer pool2
I0403 13:04:38.568577 27369 net.cpp:425] pool2 <- norm2
I0403 13:04:38.568599 27369 net.cpp:399] pool2 -> pool2
I0403 13:04:38.568657 27369 net.cpp:141] Setting up pool2
I0403 13:04:38.568683 27369 net.cpp:148] Top shape: 100 256 13 13 (4326400)
I0403 13:04:38.568699 27369 net.cpp:156] Memory required for data: 679564400
I0403 13:04:38.568716 27369 layer_factory.hpp:77] Creating layer conv3
I0403 13:04:38.568740 27369 net.cpp:91] Creating Layer conv3
I0403 13:04:38.568760 27369 net.cpp:425] conv3 <- pool2
I0403 13:04:38.568783 27369 net.cpp:399] conv3 -> conv3
I0403 13:04:38.611606 27369 net.cpp:141] Setting up conv3
I0403 13:04:38.611672 27369 net.cpp:148] Top shape: 100 384 13 13 (6489600)
I0403 13:04:38.611691 27369 net.cpp:156] Memory required for data: 705522800
I0403 13:04:38.611718 27369 layer_factory.hpp:77] Creating layer relu3
I0403 13:04:38.611742 27369 net.cpp:91] Creating Layer relu3
I0403 13:04:38.611763 27369 net.cpp:425] relu3 <- conv3
I0403 13:04:38.611784 27369 net.cpp:386] relu3 -> conv3 (in-place)
I0403 13:04:38.612079 27369 net.cpp:141] Setting up relu3
I0403 13:04:38.612110 27369 net.cpp:148] Top shape: 100 384 13 13 (6489600)
I0403 13:04:38.612128 27369 net.cpp:156] Memory required for data: 731481200
I0403 13:04:38.612143 27369 layer_factory.hpp:77] Creating layer conv4
I0403 13:04:38.612170 27369 net.cpp:91] Creating Layer conv4
I0403 13:04:38.612190 27369 net.cpp:425] conv4 <- conv3
I0403 13:04:38.612210 27369 net.cpp:399] conv4 -> conv4
I0403 13:04:38.643689 27369 net.cpp:141] Setting up conv4
I0403 13:04:38.643748 27369 net.cpp:148] Top shape: 100 384 13 13 (6489600)
I0403 13:04:38.643798 27369 net.cpp:156] Memory required for data: 757439600
I0403 13:04:38.643824 27369 layer_factory.hpp:77] Creating layer relu4
I0403 13:04:38.643856 27369 net.cpp:91] Creating Layer relu4
I0403 13:04:38.643877 27369 net.cpp:425] relu4 <- conv4
I0403 13:04:38.643896 27369 net.cpp:386] relu4 -> conv4 (in-place)
I0403 13:04:38.644188 27369 net.cpp:141] Setting up relu4
I0403 13:04:38.644217 27369 net.cpp:148] Top shape: 100 384 13 13 (6489600)
I0403 13:04:38.644233 27369 net.cpp:156] Memory required for data: 783398000
I0403 13:04:38.644249 27369 layer_factory.hpp:77] Creating layer conv5
I0403 13:04:38.644279 27369 net.cpp:91] Creating Layer conv5
I0403 13:04:38.644297 27369 net.cpp:425] conv5 <- conv4
I0403 13:04:38.644317 27369 net.cpp:399] conv5 -> conv5
I0403 13:04:38.665887 27369 net.cpp:141] Setting up conv5
I0403 13:04:38.665945 27369 net.cpp:148] Top shape: 100 256 13 13 (4326400)
I0403 13:04:38.665963 27369 net.cpp:156] Memory required for data: 800703600
I0403 13:04:38.665992 27369 layer_factory.hpp:77] Creating layer relu5
I0403 13:04:38.666015 27369 net.cpp:91] Creating Layer relu5
I0403 13:04:38.666034 27369 net.cpp:425] relu5 <- conv5
I0403 13:04:38.666057 27369 net.cpp:386] relu5 -> conv5 (in-place)
I0403 13:04:38.666354 27369 net.cpp:141] Setting up relu5
I0403 13:04:38.666383 27369 net.cpp:148] Top shape: 100 256 13 13 (4326400)
I0403 13:04:38.666400 27369 net.cpp:156] Memory required for data: 818009200
I0403 13:04:38.666417 27369 layer_factory.hpp:77] Creating layer pool5
I0403 13:04:38.666440 27369 net.cpp:91] Creating Layer pool5
I0403 13:04:38.666457 27369 net.cpp:425] pool5 <- conv5
I0403 13:04:38.666481 27369 net.cpp:399] pool5 -> pool5
I0403 13:04:38.666546 27369 net.cpp:141] Setting up pool5
I0403 13:04:38.666573 27369 net.cpp:148] Top shape: 100 256 6 6 (921600)
I0403 13:04:38.666589 27369 net.cpp:156] Memory required for data: 821695600
I0403 13:04:38.666604 27369 layer_factory.hpp:77] Creating layer fc6
I0403 13:04:38.666635 27369 net.cpp:91] Creating Layer fc6
I0403 13:04:38.666654 27369 net.cpp:425] fc6 <- pool5
I0403 13:04:38.666676 27369 net.cpp:399] fc6 -> fc6
I0403 13:04:40.288054 27369 net.cpp:141] Setting up fc6
I0403 13:04:40.288102 27369 net.cpp:148] Top shape: 100 4096 (409600)
I0403 13:04:40.288120 27369 net.cpp:156] Memory required for data: 823334000
I0403 13:04:40.288143 27369 layer_factory.hpp:77] Creating layer relu6
I0403 13:04:40.288168 27369 net.cpp:91] Creating Layer relu6
I0403 13:04:40.288187 27369 net.cpp:425] relu6 <- fc6
I0403 13:04:40.288208 27369 net.cpp:386] relu6 -> fc6 (in-place)
I0403 13:04:40.288445 27369 net.cpp:141] Setting up relu6
I0403 13:04:40.288475 27369 net.cpp:148] Top shape: 100 4096 (409600)
I0403 13:04:40.288491 27369 net.cpp:156] Memory required for data: 824972400
I0403 13:04:40.288507 27369 layer_factory.hpp:77] Creating layer drop6
I0403 13:04:40.288528 27369 net.cpp:91] Creating Layer drop6
I0403 13:04:40.288558 27369 net.cpp:425] drop6 <- fc6
I0403 13:04:40.288575 27369 net.cpp:386] drop6 -> fc6 (in-place)
I0403 13:04:40.288636 27369 net.cpp:141] Setting up drop6
I0403 13:04:40.288667 27369 net.cpp:148] Top shape: 100 4096 (409600)
I0403 13:04:40.288689 27369 net.cpp:156] Memory required for data: 826610800
I0403 13:04:40.288705 27369 layer_factory.hpp:77] Creating layer fc7
I0403 13:04:40.288729 27369 net.cpp:91] Creating Layer fc7
I0403 13:04:40.288748 27369 net.cpp:425] fc7 <- fc6
I0403 13:04:40.288768 27369 net.cpp:399] fc7 -> fc7
I0403 13:04:41.010164 27369 net.cpp:141] Setting up fc7
I0403 13:04:41.010229 27369 net.cpp:148] Top shape: 100 4096 (409600)
I0403 13:04:41.010247 27369 net.cpp:156] Memory required for data: 828249200
I0403 13:04:41.010284 27369 layer_factory.hpp:77] Creating layer relu7
I0403 13:04:41.010308 27369 net.cpp:91] Creating Layer relu7
I0403 13:04:41.010326 27369 net.cpp:425] relu7 <- fc7
I0403 13:04:41.010356 27369 net.cpp:386] relu7 -> fc7 (in-place)
I0403 13:04:41.010782 27369 net.cpp:141] Setting up relu7
I0403 13:04:41.010813 27369 net.cpp:148] Top shape: 100 4096 (409600)
I0403 13:04:41.010859 27369 net.cpp:156] Memory required for data: 829887600
I0403 13:04:41.010877 27369 layer_factory.hpp:77] Creating layer drop7
I0403 13:04:41.010898 27369 net.cpp:91] Creating Layer drop7
I0403 13:04:41.010915 27369 net.cpp:425] drop7 <- fc7
I0403 13:04:41.010936 27369 net.cpp:386] drop7 -> fc7 (in-place)
I0403 13:04:41.010992 27369 net.cpp:141] Setting up drop7
I0403 13:04:41.011020 27369 net.cpp:148] Top shape: 100 4096 (409600)
I0403 13:04:41.011036 27369 net.cpp:156] Memory required for data: 831526000
I0403 13:04:41.011052 27369 layer_factory.hpp:77] Creating layer fc8_plantvillage
I0403 13:04:41.011076 27369 net.cpp:91] Creating Layer fc8_plantvillage
I0403 13:04:41.011095 27369 net.cpp:425] fc8_plantvillage <- fc7
I0403 13:04:41.011117 27369 net.cpp:399] fc8_plantvillage -> fc8_plantvillage
I0403 13:04:41.018292 27369 net.cpp:141] Setting up fc8_plantvillage
I0403 13:04:41.018322 27369 net.cpp:148] Top shape: 100 38 (3800)
I0403 13:04:41.018339 27369 net.cpp:156] Memory required for data: 831541200
I0403 13:04:41.018364 27369 layer_factory.hpp:77] Creating layer fc8_plantvillage_fc8_plantvillage_0_split
I0403 13:04:41.018385 27369 net.cpp:91] Creating Layer fc8_plantvillage_fc8_plantvillage_0_split
I0403 13:04:41.018402 27369 net.cpp:425] fc8_plantvillage_fc8_plantvillage_0_split <- fc8_plantvillage
I0403 13:04:41.018424 27369 net.cpp:399] fc8_plantvillage_fc8_plantvillage_0_split -> fc8_plantvillage_fc8_plantvillage_0_split_0
I0403 13:04:41.018447 27369 net.cpp:399] fc8_plantvillage_fc8_plantvillage_0_split -> fc8_plantvillage_fc8_plantvillage_0_split_1
I0403 13:04:41.018471 27369 net.cpp:399] fc8_plantvillage_fc8_plantvillage_0_split -> fc8_plantvillage_fc8_plantvillage_0_split_2
I0403 13:04:41.018553 27369 net.cpp:141] Setting up fc8_plantvillage_fc8_plantvillage_0_split
I0403 13:04:41.018579 27369 net.cpp:148] Top shape: 100 38 (3800)
I0403 13:04:41.018597 27369 net.cpp:148] Top shape: 100 38 (3800)
I0403 13:04:41.018615 27369 net.cpp:148] Top shape: 100 38 (3800)
I0403 13:04:41.018630 27369 net.cpp:156] Memory required for data: 831586800
I0403 13:04:41.018646 27369 layer_factory.hpp:77] Creating layer prob
I0403 13:04:41.018666 27369 net.cpp:91] Creating Layer prob
I0403 13:04:41.018682 27369 net.cpp:425] prob <- fc8_plantvillage_fc8_plantvillage_0_split_0
I0403 13:04:41.018702 27369 net.cpp:399] prob -> prob
I0403 13:04:41.018947 27369 net.cpp:141] Setting up prob
I0403 13:04:41.018978 27369 net.cpp:148] Top shape: 100 38 (3800)
I0403 13:04:41.018996 27369 net.cpp:156] Memory required for data: 831602000
I0403 13:04:41.019012 27369 layer_factory.hpp:77] Creating layer hdf5out
I0403 13:04:41.019034 27369 net.cpp:91] Creating Layer hdf5out
I0403 13:04:41.019050 27369 net.cpp:425] hdf5out <- prob
I0403 13:04:41.019068 27369 net.cpp:425] hdf5out <- label_data_1_split_0
I0403 13:04:41.033527 27369 net.cpp:141] Setting up hdf5out
…
