…
I0403 13:00:51.388201 27169 net.cpp:313] The NetState phase (1) differed from the phase (0) specified by a rule in layer data
I0403 13:00:51.388536 27169 net.cpp:49] Initializing net from parameters: 
state {
  phase: TEST
}
layer {
  name: "data"
  type: "Data"
  top: "data"
  top: "label"
  include {
    phase: TEST
  }
  transform_param {
    crop_size: 227
    mean_file: "/home/mohanty/data/final_dataset/lmdb/color-50-50/mean.binaryproto"
  }
  data_param {
    source: "/home/mohanty/data/final_dataset/lmdb/color-50-50/test_db"
    batch_size: 100
    backend: LMDB
  }
}
layer {
  name: "conv1"
  type: "Convolution"
  bottom: "data"
  top: "conv1"
  param {
    lr_mult: 1
    decay_mult: 1
  }
  param {
    lr_mult: 2
    decay_mult: 0
  }
  convolution_param {
    num_output: 96
    kernel_size: 11
    stride: 4
    weight_filler {
      type: "gaussian"
      std: 0.01
    }
    bias_filler {
      type: "constant"
      value: 0
    }
  }
}
layer {
  name: "relu1"
  type: "ReLU"
  bottom: "conv1"
  top: "conv1"
}
layer {
  name: "norm1"
  type: "LRN"
  bottom: "conv1"
  top: "norm1"
  lrn_param {
    local_size: 5
    alpha: 0.0001
    beta: 0.75
  }
}
layer {
  name: "pool1"
  type: "Pooling"
  bottom: "norm1"
  top: "pool1"
  pooling_param {
    pool: MAX
    kernel_size: 3
    stride: 2
  }
}
layer {
  name: "conv2"
  type: "Convolution"
  bottom: "pool1"
  top: "conv2"
  param {
    lr_mult: 1
    decay_mult: 1
  }
  param {
    lr_mult: 2
    decay_mult: 0
  }
  convolution_param {
    num_output: 256
    pad: 2
    kernel_size: 5
    group: 2
    weight_filler {
      type: "gaussian"
      std: 0.01
    }
    bias_filler {
      type: "constant"
      value: 0.1
    }
  }
}
layer {
  name: "relu2"
  type: "ReLU"
  bottom: "conv2"
  top: "conv2"
}
layer {
  name: "norm2"
  type: "LRN"
  bottom: "conv2"
  top: "norm2"
  lrn_param {
    local_size: 5
    alpha: 0.0001
    beta: 0.75
  }
}
layer {
  name: "pool2"
  type: "Pooling"
  bottom: "norm2"
  top: "pool2"
  pooling_param {
    pool: MAX
    kernel_size: 3
    stride: 2
  }
}
layer {
  name: "conv3"
  type: "Convolution"
  bottom: "pool2"
  top: "conv3"
  param {
    lr_mult: 1
    decay_mult: 1
  }
  param {
    lr_mult: 2
    decay_mult: 0
  }
  convolution_param {
    num_output: 384
    pad: 1
    kernel_size: 3
    weight_filler {
      type: "gaussian"
      std: 0.01
    }
    bias_filler {
      type: "constant"
      value: 0
    }
  }
}
layer {
  name: "relu3"
  type: "ReLU"
  bottom: "conv3"
  top: "conv3"
}
layer {
  name: "conv4"
  type: "Convolution"
  bottom: "conv3"
  top: "conv4"
  param {
    lr_mult: 1
    decay_mult: 1
  }
  param {
    lr_mult: 2
    decay_mult: 0
  }
  convolution_param {
    num_output: 384
    pad: 1
    kernel_size: 3
    group: 2
    weight_filler {
      type: "gaussian"
      std: 0.01
    }
    bias_filler {
      type: "constant"
      value: 0.1
    }
  }
}
layer {
  name: "relu4"
  type: "ReLU"
  bottom: "conv4"
  top: "conv4"
}
layer {
  name: "conv5"
  type: "Convolution"
  bottom: "conv4"
  top: "conv5"
  param {
    lr_mult: 1
    decay_mult: 1
  }
  param {
    lr_mult: 2
    decay_mult: 0
  }
  convolution_param {
    num_output: 256
    pad: 1
    kernel_size: 3
    group: 2
    weight_filler {
      type: "gaussian"
      std: 0.01
    }
    bias_filler {
      type: "constant"
      value: 0.1
    }
  }
}
layer {
  name: "relu5"
  type: "ReLU"
  bottom: "conv5"
  top: "conv5"
}
layer {
  name: "pool5"
  type: "Pooling"
  bottom: "conv5"
  top: "pool5"
  pooling_param {
    pool: MAX
    kernel_size: 3
    stride: 2
  }
}
layer {
  name: "fc6"
  type: "InnerProduct"
  bottom: "pool5"
  top: "fc6"
  param {
    lr_mult: 1
    decay_mult: 1
  }
  param {
    lr_mult: 2
    decay_mult: 0
  }
  inner_product_param {
    num_output: 4096
    weight_filler {
      type: "gaussian"
      std: 0.005
    }
    bias_filler {
      type: "constant"
      value: 0.1
    }
  }
}
layer {
  name: "relu6"
  type: "ReLU"
  bottom: "fc6"
  top: "fc6"
}
layer {
  name: "drop6"
  type: "Dropout"
  bottom: "fc6"
  top: "fc6"
  dropout_param {
    dropout_ratio: 0.5
  }
}
layer {
  name: "fc7"
  type: "InnerProduct"
  bottom: "fc6"
  top: "fc7"
  param {
    lr_mult: 1
    decay_mult: 1
  }
  param {
    lr_mult: 2
    decay_mult: 0
  }
  inner_product_param {
    num_output: 4096
    weight_filler {
      type: "gaussian"
      std: 0.005
    }
    bias_filler {
      type: "constant"
      value: 0.1
    }
  }
}
layer {
  name: "relu7"
  type: "ReLU"
  bottom: "fc7"
  top: "fc7"
}
layer {
  name: "drop7"
  type: "Dropout"
  bottom: "fc7"
  top: "fc7"
  dropout_param {
    dropout_ratio: 0.5
  }
}
layer {
  name: "fc8_plantvillage"
  type: "InnerProduct"
  bottom: "fc7"
  top: "fc8_plantvillage"
  param {
    lr_mult: 1
    decay_mult: 1
  }
  param {
    lr_mult: 2
    decay_mult: 0
  }
  inner_product_param {
    num_output: 38
    weight_filler {
      type: "gaussian"
      std: 0.01
    }
    bias_filler {
      type: "constant"
      value: 0
    }
  }
}
layer {
  name: "prob"
  type: "Softmax"
  bottom: "fc8_plantvillage"
  top: "prob"
  include {
    phase: TEST
  }
}
layer {
  name: "hdf5out"
  type: "HDF5Output"
  bottom: "prob"
  bottom: "label"
  include {
    phase: TEST
  }
  hdf5_output_param {
    file_name: "hdf5_dumps/iter_2421.h5"
  }
}
layer {
  name: "loss"
  type: "SoftmaxWithLoss"
  bottom: "fc8_plantvillage"
  bottom: "label"
  top: "loss"
}
layer {
  name: "accuracy"
  type: "Accuracy"
  bottom: "fc8_plantvillage"
  bottom: "label"
  top: "accuracy"
  include {
    phase: TEST
  }
}
I0403 13:00:51.389128 27169 layer_factory.hpp:77] Creating layer data
I0403 13:00:51.389799 27169 net.cpp:91] Creating Layer data
I0403 13:00:51.389833 27169 net.cpp:399] data -> data
I0403 13:00:51.389890 27169 net.cpp:399] data -> label
I0403 13:00:51.389930 27169 data_transformer.cpp:25] Loading mean file from: /home/mohanty/data/final_dataset/lmdb/color-50-50/mean.binaryproto
I0403 13:00:51.392515 27172 db_lmdb.cpp:38] Opened lmdb /home/mohanty/data/final_dataset/lmdb/color-50-50/test_db
I0403 13:00:51.404774 27169 data_layer.cpp:41] output data size: 100,3,227,227
I0403 13:00:51.527436 27169 net.cpp:141] Setting up data
I0403 13:00:51.527529 27169 net.cpp:148] Top shape: 100 3 227 227 (15458700)
I0403 13:00:51.527554 27169 net.cpp:148] Top shape: 100 (100)
I0403 13:00:51.527570 27169 net.cpp:156] Memory required for data: 61835200
I0403 13:00:51.527598 27169 layer_factory.hpp:77] Creating layer label_data_1_split
I0403 13:00:51.527626 27169 net.cpp:91] Creating Layer label_data_1_split
I0403 13:00:51.527644 27169 net.cpp:425] label_data_1_split <- label
I0403 13:00:51.527678 27169 net.cpp:399] label_data_1_split -> label_data_1_split_0
I0403 13:00:51.527707 27169 net.cpp:399] label_data_1_split -> label_data_1_split_1
I0403 13:00:51.527729 27169 net.cpp:399] label_data_1_split -> label_data_1_split_2
I0403 13:00:51.527794 27169 net.cpp:141] Setting up label_data_1_split
I0403 13:00:51.527819 27169 net.cpp:148] Top shape: 100 (100)
I0403 13:00:51.527838 27169 net.cpp:148] Top shape: 100 (100)
I0403 13:00:51.527856 27169 net.cpp:148] Top shape: 100 (100)
I0403 13:00:51.527870 27169 net.cpp:156] Memory required for data: 61836400
I0403 13:00:51.527886 27169 layer_factory.hpp:77] Creating layer conv1
I0403 13:00:51.527917 27169 net.cpp:91] Creating Layer conv1
I0403 13:00:51.527938 27169 net.cpp:425] conv1 <- data
I0403 13:00:51.527959 27169 net.cpp:399] conv1 -> conv1
I0403 13:00:51.672710 27169 net.cpp:141] Setting up conv1
I0403 13:00:51.672791 27169 net.cpp:148] Top shape: 100 96 55 55 (29040000)
I0403 13:00:51.672811 27169 net.cpp:156] Memory required for data: 177996400
I0403 13:00:51.672842 27169 layer_factory.hpp:77] Creating layer relu1
I0403 13:00:51.672870 27169 net.cpp:91] Creating Layer relu1
I0403 13:00:51.672891 27169 net.cpp:425] relu1 <- conv1
I0403 13:00:51.672910 27169 net.cpp:386] relu1 -> conv1 (in-place)
I0403 13:00:51.673166 27169 net.cpp:141] Setting up relu1
I0403 13:00:51.673194 27169 net.cpp:148] Top shape: 100 96 55 55 (29040000)
I0403 13:00:51.673213 27169 net.cpp:156] Memory required for data: 294156400
I0403 13:00:51.673262 27169 layer_factory.hpp:77] Creating layer norm1
I0403 13:00:51.673291 27169 net.cpp:91] Creating Layer norm1
I0403 13:00:51.673310 27169 net.cpp:425] norm1 <- conv1
I0403 13:00:51.673329 27169 net.cpp:399] norm1 -> norm1
I0403 13:00:51.673650 27169 net.cpp:141] Setting up norm1
I0403 13:00:51.673681 27169 net.cpp:148] Top shape: 100 96 55 55 (29040000)
I0403 13:00:51.673696 27169 net.cpp:156] Memory required for data: 410316400
I0403 13:00:51.673713 27169 layer_factory.hpp:77] Creating layer pool1
I0403 13:00:51.673738 27169 net.cpp:91] Creating Layer pool1
I0403 13:00:51.673756 27169 net.cpp:425] pool1 <- norm1
I0403 13:00:51.673776 27169 net.cpp:399] pool1 -> pool1
I0403 13:00:51.673846 27169 net.cpp:141] Setting up pool1
I0403 13:00:51.673871 27169 net.cpp:148] Top shape: 100 96 27 27 (6998400)
I0403 13:00:51.673887 27169 net.cpp:156] Memory required for data: 438310000
I0403 13:00:51.673904 27169 layer_factory.hpp:77] Creating layer conv2
I0403 13:00:51.673929 27169 net.cpp:91] Creating Layer conv2
I0403 13:00:51.673959 27169 net.cpp:425] conv2 <- pool1
I0403 13:00:51.673976 27169 net.cpp:399] conv2 -> conv2
I0403 13:00:51.689366 27169 net.cpp:141] Setting up conv2
I0403 13:00:51.689415 27169 net.cpp:148] Top shape: 100 256 27 27 (18662400)
I0403 13:00:51.689435 27169 net.cpp:156] Memory required for data: 512959600
I0403 13:00:51.689460 27169 layer_factory.hpp:77] Creating layer relu2
I0403 13:00:51.689481 27169 net.cpp:91] Creating Layer relu2
I0403 13:00:51.689501 27169 net.cpp:425] relu2 <- conv2
I0403 13:00:51.689520 27169 net.cpp:386] relu2 -> conv2 (in-place)
I0403 13:00:51.689790 27169 net.cpp:141] Setting up relu2
I0403 13:00:51.689820 27169 net.cpp:148] Top shape: 100 256 27 27 (18662400)
I0403 13:00:51.689836 27169 net.cpp:156] Memory required for data: 587609200
I0403 13:00:51.689852 27169 layer_factory.hpp:77] Creating layer norm2
I0403 13:00:51.689875 27169 net.cpp:91] Creating Layer norm2
I0403 13:00:51.689893 27169 net.cpp:425] norm2 <- conv2
I0403 13:00:51.689924 27169 net.cpp:399] norm2 -> norm2
I0403 13:00:51.690109 27169 net.cpp:141] Setting up norm2
I0403 13:00:51.690136 27169 net.cpp:148] Top shape: 100 256 27 27 (18662400)
I0403 13:00:51.690152 27169 net.cpp:156] Memory required for data: 662258800
I0403 13:00:51.690168 27169 layer_factory.hpp:77] Creating layer pool2
I0403 13:00:51.690186 27169 net.cpp:91] Creating Layer pool2
I0403 13:00:51.690204 27169 net.cpp:425] pool2 <- norm2
I0403 13:00:51.690222 27169 net.cpp:399] pool2 -> pool2
I0403 13:00:51.690271 27169 net.cpp:141] Setting up pool2
I0403 13:00:51.690307 27169 net.cpp:148] Top shape: 100 256 13 13 (4326400)
I0403 13:00:51.690325 27169 net.cpp:156] Memory required for data: 679564400
I0403 13:00:51.690341 27169 layer_factory.hpp:77] Creating layer conv3
I0403 13:00:51.690371 27169 net.cpp:91] Creating Layer conv3
I0403 13:00:51.690390 27169 net.cpp:425] conv3 <- pool2
I0403 13:00:51.690413 27169 net.cpp:399] conv3 -> conv3
I0403 13:00:51.730625 27169 net.cpp:141] Setting up conv3
I0403 13:00:51.730701 27169 net.cpp:148] Top shape: 100 384 13 13 (6489600)
I0403 13:00:51.730722 27169 net.cpp:156] Memory required for data: 705522800
I0403 13:00:51.730751 27169 layer_factory.hpp:77] Creating layer relu3
I0403 13:00:51.730775 27169 net.cpp:91] Creating Layer relu3
I0403 13:00:51.730797 27169 net.cpp:425] relu3 <- conv3
I0403 13:00:51.730821 27169 net.cpp:386] relu3 -> conv3 (in-place)
I0403 13:00:51.731112 27169 net.cpp:141] Setting up relu3
I0403 13:00:51.731142 27169 net.cpp:148] Top shape: 100 384 13 13 (6489600)
I0403 13:00:51.731160 27169 net.cpp:156] Memory required for data: 731481200
I0403 13:00:51.731178 27169 layer_factory.hpp:77] Creating layer conv4
I0403 13:00:51.731205 27169 net.cpp:91] Creating Layer conv4
I0403 13:00:51.731226 27169 net.cpp:425] conv4 <- conv3
I0403 13:00:51.731252 27169 net.cpp:399] conv4 -> conv4
I0403 13:00:51.761395 27169 net.cpp:141] Setting up conv4
I0403 13:00:51.761467 27169 net.cpp:148] Top shape: 100 384 13 13 (6489600)
I0403 13:00:51.761520 27169 net.cpp:156] Memory required for data: 757439600
I0403 13:00:51.761544 27169 layer_factory.hpp:77] Creating layer relu4
I0403 13:00:51.761569 27169 net.cpp:91] Creating Layer relu4
I0403 13:00:51.761587 27169 net.cpp:425] relu4 <- conv4
I0403 13:00:51.761611 27169 net.cpp:386] relu4 -> conv4 (in-place)
I0403 13:00:51.761904 27169 net.cpp:141] Setting up relu4
I0403 13:00:51.761937 27169 net.cpp:148] Top shape: 100 384 13 13 (6489600)
I0403 13:00:51.761956 27169 net.cpp:156] Memory required for data: 783398000
I0403 13:00:51.761975 27169 layer_factory.hpp:77] Creating layer conv5
I0403 13:00:51.762001 27169 net.cpp:91] Creating Layer conv5
I0403 13:00:51.762019 27169 net.cpp:425] conv5 <- conv4
I0403 13:00:51.762040 27169 net.cpp:399] conv5 -> conv5
I0403 13:00:51.782647 27169 net.cpp:141] Setting up conv5
I0403 13:00:51.782707 27169 net.cpp:148] Top shape: 100 256 13 13 (4326400)
I0403 13:00:51.782727 27169 net.cpp:156] Memory required for data: 800703600
I0403 13:00:51.782753 27169 layer_factory.hpp:77] Creating layer relu5
I0403 13:00:51.782776 27169 net.cpp:91] Creating Layer relu5
I0403 13:00:51.782794 27169 net.cpp:425] relu5 <- conv5
I0403 13:00:51.782816 27169 net.cpp:386] relu5 -> conv5 (in-place)
I0403 13:00:51.783100 27169 net.cpp:141] Setting up relu5
I0403 13:00:51.783131 27169 net.cpp:148] Top shape: 100 256 13 13 (4326400)
I0403 13:00:51.783149 27169 net.cpp:156] Memory required for data: 818009200
I0403 13:00:51.783165 27169 layer_factory.hpp:77] Creating layer pool5
I0403 13:00:51.783192 27169 net.cpp:91] Creating Layer pool5
I0403 13:00:51.783213 27169 net.cpp:425] pool5 <- conv5
I0403 13:00:51.783236 27169 net.cpp:399] pool5 -> pool5
I0403 13:00:51.783298 27169 net.cpp:141] Setting up pool5
I0403 13:00:51.783325 27169 net.cpp:148] Top shape: 100 256 6 6 (921600)
I0403 13:00:51.783344 27169 net.cpp:156] Memory required for data: 821695600
I0403 13:00:51.783373 27169 layer_factory.hpp:77] Creating layer fc6
I0403 13:00:51.783403 27169 net.cpp:91] Creating Layer fc6
I0403 13:00:51.783423 27169 net.cpp:425] fc6 <- pool5
I0403 13:00:51.783447 27169 net.cpp:399] fc6 -> fc6
I0403 13:00:53.365169 27169 net.cpp:141] Setting up fc6
I0403 13:00:53.365229 27169 net.cpp:148] Top shape: 100 4096 (409600)
I0403 13:00:53.365247 27169 net.cpp:156] Memory required for data: 823334000
I0403 13:00:53.365269 27169 layer_factory.hpp:77] Creating layer relu6
I0403 13:00:53.365298 27169 net.cpp:91] Creating Layer relu6
I0403 13:00:53.365316 27169 net.cpp:425] relu6 <- fc6
I0403 13:00:53.365336 27169 net.cpp:386] relu6 -> fc6 (in-place)
I0403 13:00:53.365574 27169 net.cpp:141] Setting up relu6
I0403 13:00:53.365602 27169 net.cpp:148] Top shape: 100 4096 (409600)
I0403 13:00:53.365618 27169 net.cpp:156] Memory required for data: 824972400
I0403 13:00:53.365635 27169 layer_factory.hpp:77] Creating layer drop6
I0403 13:00:53.365655 27169 net.cpp:91] Creating Layer drop6
I0403 13:00:53.365671 27169 net.cpp:425] drop6 <- fc6
I0403 13:00:53.365691 27169 net.cpp:386] drop6 -> fc6 (in-place)
I0403 13:00:53.365746 27169 net.cpp:141] Setting up drop6
I0403 13:00:53.365773 27169 net.cpp:148] Top shape: 100 4096 (409600)
I0403 13:00:53.365790 27169 net.cpp:156] Memory required for data: 826610800
I0403 13:00:53.365808 27169 layer_factory.hpp:77] Creating layer fc7
I0403 13:00:53.365828 27169 net.cpp:91] Creating Layer fc7
I0403 13:00:53.365845 27169 net.cpp:425] fc7 <- fc6
I0403 13:00:53.365866 27169 net.cpp:399] fc7 -> fc7
I0403 13:00:54.054271 27169 net.cpp:141] Setting up fc7
I0403 13:00:54.054354 27169 net.cpp:148] Top shape: 100 4096 (409600)
I0403 13:00:54.054373 27169 net.cpp:156] Memory required for data: 828249200
I0403 13:00:54.054395 27169 layer_factory.hpp:77] Creating layer relu7
I0403 13:00:54.054419 27169 net.cpp:91] Creating Layer relu7
I0403 13:00:54.054437 27169 net.cpp:425] relu7 <- fc7
I0403 13:00:54.054461 27169 net.cpp:386] relu7 -> fc7 (in-place)
I0403 13:00:54.054880 27169 net.cpp:141] Setting up relu7
I0403 13:00:54.054910 27169 net.cpp:148] Top shape: 100 4096 (409600)
I0403 13:00:54.054960 27169 net.cpp:156] Memory required for data: 829887600
I0403 13:00:54.054976 27169 layer_factory.hpp:77] Creating layer drop7
I0403 13:00:54.054996 27169 net.cpp:91] Creating Layer drop7
I0403 13:00:54.055012 27169 net.cpp:425] drop7 <- fc7
I0403 13:00:54.055032 27169 net.cpp:386] drop7 -> fc7 (in-place)
I0403 13:00:54.055078 27169 net.cpp:141] Setting up drop7
I0403 13:00:54.055101 27169 net.cpp:148] Top shape: 100 4096 (409600)
I0403 13:00:54.055116 27169 net.cpp:156] Memory required for data: 831526000
I0403 13:00:54.055132 27169 layer_factory.hpp:77] Creating layer fc8_plantvillage
I0403 13:00:54.055155 27169 net.cpp:91] Creating Layer fc8_plantvillage
I0403 13:00:54.055172 27169 net.cpp:425] fc8_plantvillage <- fc7
I0403 13:00:54.055193 27169 net.cpp:399] fc8_plantvillage -> fc8_plantvillage
I0403 13:00:54.061910 27169 net.cpp:141] Setting up fc8_plantvillage
I0403 13:00:54.061941 27169 net.cpp:148] Top shape: 100 38 (3800)
I0403 13:00:54.061957 27169 net.cpp:156] Memory required for data: 831541200
I0403 13:00:54.061976 27169 layer_factory.hpp:77] Creating layer fc8_plantvillage_fc8_plantvillage_0_split
I0403 13:00:54.061995 27169 net.cpp:91] Creating Layer fc8_plantvillage_fc8_plantvillage_0_split
I0403 13:00:54.062011 27169 net.cpp:425] fc8_plantvillage_fc8_plantvillage_0_split <- fc8_plantvillage
I0403 13:00:54.062031 27169 net.cpp:399] fc8_plantvillage_fc8_plantvillage_0_split -> fc8_plantvillage_fc8_plantvillage_0_split_0
I0403 13:00:54.062052 27169 net.cpp:399] fc8_plantvillage_fc8_plantvillage_0_split -> fc8_plantvillage_fc8_plantvillage_0_split_1
I0403 13:00:54.062073 27169 net.cpp:399] fc8_plantvillage_fc8_plantvillage_0_split -> fc8_plantvillage_fc8_plantvillage_0_split_2
I0403 13:00:54.062152 27169 net.cpp:141] Setting up fc8_plantvillage_fc8_plantvillage_0_split
I0403 13:00:54.062176 27169 net.cpp:148] Top shape: 100 38 (3800)
I0403 13:00:54.062194 27169 net.cpp:148] Top shape: 100 38 (3800)
I0403 13:00:54.062211 27169 net.cpp:148] Top shape: 100 38 (3800)
I0403 13:00:54.062225 27169 net.cpp:156] Memory required for data: 831586800
I0403 13:00:54.062240 27169 layer_factory.hpp:77] Creating layer prob
I0403 13:00:54.062258 27169 net.cpp:91] Creating Layer prob
I0403 13:00:54.062274 27169 net.cpp:425] prob <- fc8_plantvillage_fc8_plantvillage_0_split_0
I0403 13:00:54.062294 27169 net.cpp:399] prob -> prob
I0403 13:00:54.062528 27169 net.cpp:141] Setting up prob
I0403 13:00:54.062558 27169 net.cpp:148] Top shape: 100 38 (3800)
I0403 13:00:54.062575 27169 net.cpp:156] Memory required for data: 831602000
I0403 13:00:54.062592 27169 layer_factory.hpp:77] Creating layer hdf5out
I0403 13:00:54.062611 27169 net.cpp:91] Creating Layer hdf5out
I0403 13:00:54.062628 27169 net.cpp:425] hdf5out <- prob
I0403 13:00:54.062644 27169 net.cpp:425] hdf5out <- label_data_1_split_0
I0403 13:00:54.066939 27169 net.cpp:141] Setting up hdf5out
…
