…
I0403 12:53:15.797534 26983 net.cpp:313] The NetState phase (1) differed from the phase (0) specified by a rule in layer data
I0403 12:53:15.797848 26983 net.cpp:49] Initializing net from parameters: 
state {
  phase: TEST
}
layer {
  name: "data"
  type: "Data"
  top: "data"
  top: "label"
  include {
    phase: TEST
  }
  transform_param {
    crop_size: 227
    mean_file: "/home/mohanty/data/final_dataset/lmdb/color-50-50/mean.binaryproto"
  }
  data_param {
    source: "/home/mohanty/data/final_dataset/lmdb/color-50-50/test_db"
    batch_size: 100
    backend: LMDB
  }
}
layer {
  name: "conv1"
  type: "Convolution"
  bottom: "data"
  top: "conv1"
  param {
    lr_mult: 1
    decay_mult: 1
  }
  param {
    lr_mult: 2
    decay_mult: 0
  }
  convolution_param {
    num_output: 96
    kernel_size: 11
    stride: 4
    weight_filler {
      type: "gaussian"
      std: 0.01
    }
    bias_filler {
      type: "constant"
      value: 0
    }
  }
}
layer {
  name: "relu1"
  type: "ReLU"
  bottom: "conv1"
  top: "conv1"
}
layer {
  name: "norm1"
  type: "LRN"
  bottom: "conv1"
  top: "norm1"
  lrn_param {
    local_size: 5
    alpha: 0.0001
    beta: 0.75
  }
}
layer {
  name: "pool1"
  type: "Pooling"
  bottom: "norm1"
  top: "pool1"
  pooling_param {
    pool: MAX
    kernel_size: 3
    stride: 2
  }
}
layer {
  name: "conv2"
  type: "Convolution"
  bottom: "pool1"
  top: "conv2"
  param {
    lr_mult: 1
    decay_mult: 1
  }
  param {
    lr_mult: 2
    decay_mult: 0
  }
  convolution_param {
    num_output: 256
    pad: 2
    kernel_size: 5
    group: 2
    weight_filler {
      type: "gaussian"
      std: 0.01
    }
    bias_filler {
      type: "constant"
      value: 0.1
    }
  }
}
layer {
  name: "relu2"
  type: "ReLU"
  bottom: "conv2"
  top: "conv2"
}
layer {
  name: "norm2"
  type: "LRN"
  bottom: "conv2"
  top: "norm2"
  lrn_param {
    local_size: 5
    alpha: 0.0001
    beta: 0.75
  }
}
layer {
  name: "pool2"
  type: "Pooling"
  bottom: "norm2"
  top: "pool2"
  pooling_param {
    pool: MAX
    kernel_size: 3
    stride: 2
  }
}
layer {
  name: "conv3"
  type: "Convolution"
  bottom: "pool2"
  top: "conv3"
  param {
    lr_mult: 1
    decay_mult: 1
  }
  param {
    lr_mult: 2
    decay_mult: 0
  }
  convolution_param {
    num_output: 384
    pad: 1
    kernel_size: 3
    weight_filler {
      type: "gaussian"
      std: 0.01
    }
    bias_filler {
      type: "constant"
      value: 0
    }
  }
}
layer {
  name: "relu3"
  type: "ReLU"
  bottom: "conv3"
  top: "conv3"
}
layer {
  name: "conv4"
  type: "Convolution"
  bottom: "conv3"
  top: "conv4"
  param {
    lr_mult: 1
    decay_mult: 1
  }
  param {
    lr_mult: 2
    decay_mult: 0
  }
  convolution_param {
    num_output: 384
    pad: 1
    kernel_size: 3
    group: 2
    weight_filler {
      type: "gaussian"
      std: 0.01
    }
    bias_filler {
      type: "constant"
      value: 0.1
    }
  }
}
layer {
  name: "relu4"
  type: "ReLU"
  bottom: "conv4"
  top: "conv4"
}
layer {
  name: "conv5"
  type: "Convolution"
  bottom: "conv4"
  top: "conv5"
  param {
    lr_mult: 1
    decay_mult: 1
  }
  param {
    lr_mult: 2
    decay_mult: 0
  }
  convolution_param {
    num_output: 256
    pad: 1
    kernel_size: 3
    group: 2
    weight_filler {
      type: "gaussian"
      std: 0.01
    }
    bias_filler {
      type: "constant"
      value: 0.1
    }
  }
}
layer {
  name: "relu5"
  type: "ReLU"
  bottom: "conv5"
  top: "conv5"
}
layer {
  name: "pool5"
  type: "Pooling"
  bottom: "conv5"
  top: "pool5"
  pooling_param {
    pool: MAX
    kernel_size: 3
    stride: 2
  }
}
layer {
  name: "fc6"
  type: "InnerProduct"
  bottom: "pool5"
  top: "fc6"
  param {
    lr_mult: 1
    decay_mult: 1
  }
  param {
    lr_mult: 2
    decay_mult: 0
  }
  inner_product_param {
    num_output: 4096
    weight_filler {
      type: "gaussian"
      std: 0.005
    }
    bias_filler {
      type: "constant"
      value: 0.1
    }
  }
}
layer {
  name: "relu6"
  type: "ReLU"
  bottom: "fc6"
  top: "fc6"
}
layer {
  name: "drop6"
  type: "Dropout"
  bottom: "fc6"
  top: "fc6"
  dropout_param {
    dropout_ratio: 0.5
  }
}
layer {
  name: "fc7"
  type: "InnerProduct"
  bottom: "fc6"
  top: "fc7"
  param {
    lr_mult: 1
    decay_mult: 1
  }
  param {
    lr_mult: 2
    decay_mult: 0
  }
  inner_product_param {
    num_output: 4096
    weight_filler {
      type: "gaussian"
      std: 0.005
    }
    bias_filler {
      type: "constant"
      value: 0.1
    }
  }
}
layer {
  name: "relu7"
  type: "ReLU"
  bottom: "fc7"
  top: "fc7"
}
layer {
  name: "drop7"
  type: "Dropout"
  bottom: "fc7"
  top: "fc7"
  dropout_param {
    dropout_ratio: 0.5
  }
}
layer {
  name: "fc8_plantvillage"
  type: "InnerProduct"
  bottom: "fc7"
  top: "fc8_plantvillage"
  param {
    lr_mult: 1
    decay_mult: 1
  }
  param {
    lr_mult: 2
    decay_mult: 0
  }
  inner_product_param {
    num_output: 38
    weight_filler {
      type: "gaussian"
      std: 0.01
    }
    bias_filler {
      type: "constant"
      value: 0
    }
  }
}
layer {
  name: "prob"
  type: "Softmax"
  bottom: "fc8_plantvillage"
  top: "prob"
  include {
    phase: TEST
  }
}
layer {
  name: "hdf5out"
  type: "HDF5Output"
  bottom: "prob"
  bottom: "label"
  include {
    phase: TEST
  }
  hdf5_output_param {
    file_name: "hdf5_dumps/iter_269.h5"
  }
}
layer {
  name: "loss"
  type: "SoftmaxWithLoss"
  bottom: "fc8_plantvillage"
  bottom: "label"
  top: "loss"
}
layer {
  name: "accuracy"
  type: "Accuracy"
  bottom: "fc8_plantvillage"
  bottom: "label"
  top: "accuracy"
  include {
    phase: TEST
  }
}
I0403 12:53:15.801520 26983 layer_factory.hpp:77] Creating layer data
I0403 12:53:15.802193 26983 net.cpp:91] Creating Layer data
I0403 12:53:15.802227 26983 net.cpp:399] data -> data
I0403 12:53:15.802279 26983 net.cpp:399] data -> label
I0403 12:53:15.802317 26983 data_transformer.cpp:25] Loading mean file from: /home/mohanty/data/final_dataset/lmdb/color-50-50/mean.binaryproto
I0403 12:53:15.846475 26986 db_lmdb.cpp:38] Opened lmdb /home/mohanty/data/final_dataset/lmdb/color-50-50/test_db
I0403 12:53:15.899427 26983 data_layer.cpp:41] output data size: 100,3,227,227
I0403 12:53:16.046808 26983 net.cpp:141] Setting up data
I0403 12:53:16.046903 26983 net.cpp:148] Top shape: 100 3 227 227 (15458700)
I0403 12:53:16.046927 26983 net.cpp:148] Top shape: 100 (100)
I0403 12:53:16.046944 26983 net.cpp:156] Memory required for data: 61835200
I0403 12:53:16.046974 26983 layer_factory.hpp:77] Creating layer label_data_1_split
I0403 12:53:16.047003 26983 net.cpp:91] Creating Layer label_data_1_split
I0403 12:53:16.047022 26983 net.cpp:425] label_data_1_split <- label
I0403 12:53:16.047054 26983 net.cpp:399] label_data_1_split -> label_data_1_split_0
I0403 12:53:16.047083 26983 net.cpp:399] label_data_1_split -> label_data_1_split_1
I0403 12:53:16.047106 26983 net.cpp:399] label_data_1_split -> label_data_1_split_2
I0403 12:53:16.047173 26983 net.cpp:141] Setting up label_data_1_split
I0403 12:53:16.047199 26983 net.cpp:148] Top shape: 100 (100)
I0403 12:53:16.047220 26983 net.cpp:148] Top shape: 100 (100)
I0403 12:53:16.047240 26983 net.cpp:148] Top shape: 100 (100)
I0403 12:53:16.047255 26983 net.cpp:156] Memory required for data: 61836400
I0403 12:53:16.047271 26983 layer_factory.hpp:77] Creating layer conv1
I0403 12:53:16.047303 26983 net.cpp:91] Creating Layer conv1
I0403 12:53:16.047323 26983 net.cpp:425] conv1 <- data
I0403 12:53:16.047348 26983 net.cpp:399] conv1 -> conv1
I0403 12:53:16.196466 26983 net.cpp:141] Setting up conv1
I0403 12:53:16.196537 26983 net.cpp:148] Top shape: 100 96 55 55 (29040000)
I0403 12:53:16.196560 26983 net.cpp:156] Memory required for data: 177996400
I0403 12:53:16.196598 26983 layer_factory.hpp:77] Creating layer relu1
I0403 12:53:16.196627 26983 net.cpp:91] Creating Layer relu1
I0403 12:53:16.196647 26983 net.cpp:425] relu1 <- conv1
I0403 12:53:16.196668 26983 net.cpp:386] relu1 -> conv1 (in-place)
I0403 12:53:16.196933 26983 net.cpp:141] Setting up relu1
I0403 12:53:16.196961 26983 net.cpp:148] Top shape: 100 96 55 55 (29040000)
I0403 12:53:16.196979 26983 net.cpp:156] Memory required for data: 294156400
I0403 12:53:16.197028 26983 layer_factory.hpp:77] Creating layer norm1
I0403 12:53:16.197058 26983 net.cpp:91] Creating Layer norm1
I0403 12:53:16.197079 26983 net.cpp:425] norm1 <- conv1
I0403 12:53:16.197099 26983 net.cpp:399] norm1 -> norm1
I0403 12:53:16.197414 26983 net.cpp:141] Setting up norm1
I0403 12:53:16.197444 26983 net.cpp:148] Top shape: 100 96 55 55 (29040000)
I0403 12:53:16.197461 26983 net.cpp:156] Memory required for data: 410316400
I0403 12:53:16.197479 26983 layer_factory.hpp:77] Creating layer pool1
I0403 12:53:16.197504 26983 net.cpp:91] Creating Layer pool1
I0403 12:53:16.197521 26983 net.cpp:425] pool1 <- norm1
I0403 12:53:16.197541 26983 net.cpp:399] pool1 -> pool1
I0403 12:53:16.197612 26983 net.cpp:141] Setting up pool1
I0403 12:53:16.197636 26983 net.cpp:148] Top shape: 100 96 27 27 (6998400)
I0403 12:53:16.197654 26983 net.cpp:156] Memory required for data: 438310000
I0403 12:53:16.197669 26983 layer_factory.hpp:77] Creating layer conv2
I0403 12:53:16.197695 26983 net.cpp:91] Creating Layer conv2
I0403 12:53:16.197713 26983 net.cpp:425] conv2 <- pool1
I0403 12:53:16.197733 26983 net.cpp:399] conv2 -> conv2
I0403 12:53:16.213110 26983 net.cpp:141] Setting up conv2
I0403 12:53:16.213155 26983 net.cpp:148] Top shape: 100 256 27 27 (18662400)
I0403 12:53:16.213174 26983 net.cpp:156] Memory required for data: 512959600
I0403 12:53:16.213203 26983 layer_factory.hpp:77] Creating layer relu2
I0403 12:53:16.213227 26983 net.cpp:91] Creating Layer relu2
I0403 12:53:16.213245 26983 net.cpp:425] relu2 <- conv2
I0403 12:53:16.213266 26983 net.cpp:386] relu2 -> conv2 (in-place)
I0403 12:53:16.213560 26983 net.cpp:141] Setting up relu2
I0403 12:53:16.213592 26983 net.cpp:148] Top shape: 100 256 27 27 (18662400)
I0403 12:53:16.213609 26983 net.cpp:156] Memory required for data: 587609200
I0403 12:53:16.213627 26983 layer_factory.hpp:77] Creating layer norm2
I0403 12:53:16.213649 26983 net.cpp:91] Creating Layer norm2
I0403 12:53:16.213666 26983 net.cpp:425] norm2 <- conv2
I0403 12:53:16.213687 26983 net.cpp:399] norm2 -> norm2
I0403 12:53:16.213917 26983 net.cpp:141] Setting up norm2
I0403 12:53:16.213944 26983 net.cpp:148] Top shape: 100 256 27 27 (18662400)
I0403 12:53:16.213961 26983 net.cpp:156] Memory required for data: 662258800
I0403 12:53:16.213978 26983 layer_factory.hpp:77] Creating layer pool2
I0403 12:53:16.214000 26983 net.cpp:91] Creating Layer pool2
I0403 12:53:16.214017 26983 net.cpp:425] pool2 <- norm2
I0403 12:53:16.214037 26983 net.cpp:399] pool2 -> pool2
I0403 12:53:16.214093 26983 net.cpp:141] Setting up pool2
I0403 12:53:16.214118 26983 net.cpp:148] Top shape: 100 256 13 13 (4326400)
I0403 12:53:16.214134 26983 net.cpp:156] Memory required for data: 679564400
I0403 12:53:16.214150 26983 layer_factory.hpp:77] Creating layer conv3
I0403 12:53:16.214175 26983 net.cpp:91] Creating Layer conv3
I0403 12:53:16.214195 26983 net.cpp:425] conv3 <- pool2
I0403 12:53:16.214217 26983 net.cpp:399] conv3 -> conv3
I0403 12:53:16.254230 26983 net.cpp:141] Setting up conv3
I0403 12:53:16.254293 26983 net.cpp:148] Top shape: 100 384 13 13 (6489600)
I0403 12:53:16.254312 26983 net.cpp:156] Memory required for data: 705522800
I0403 12:53:16.254354 26983 layer_factory.hpp:77] Creating layer relu3
I0403 12:53:16.254384 26983 net.cpp:91] Creating Layer relu3
I0403 12:53:16.254403 26983 net.cpp:425] relu3 <- conv3
I0403 12:53:16.254426 26983 net.cpp:386] relu3 -> conv3 (in-place)
I0403 12:53:16.254745 26983 net.cpp:141] Setting up relu3
I0403 12:53:16.254773 26983 net.cpp:148] Top shape: 100 384 13 13 (6489600)
I0403 12:53:16.254791 26983 net.cpp:156] Memory required for data: 731481200
I0403 12:53:16.254806 26983 layer_factory.hpp:77] Creating layer conv4
I0403 12:53:16.254837 26983 net.cpp:91] Creating Layer conv4
I0403 12:53:16.254856 26983 net.cpp:425] conv4 <- conv3
I0403 12:53:16.254876 26983 net.cpp:399] conv4 -> conv4
I0403 12:53:16.285591 26983 net.cpp:141] Setting up conv4
I0403 12:53:16.285645 26983 net.cpp:148] Top shape: 100 384 13 13 (6489600)
I0403 12:53:16.285696 26983 net.cpp:156] Memory required for data: 757439600
I0403 12:53:16.285720 26983 layer_factory.hpp:77] Creating layer relu4
I0403 12:53:16.285747 26983 net.cpp:91] Creating Layer relu4
I0403 12:53:16.285766 26983 net.cpp:425] relu4 <- conv4
I0403 12:53:16.285789 26983 net.cpp:386] relu4 -> conv4 (in-place)
I0403 12:53:16.286088 26983 net.cpp:141] Setting up relu4
I0403 12:53:16.286118 26983 net.cpp:148] Top shape: 100 384 13 13 (6489600)
I0403 12:53:16.286134 26983 net.cpp:156] Memory required for data: 783398000
I0403 12:53:16.286150 26983 layer_factory.hpp:77] Creating layer conv5
I0403 12:53:16.286178 26983 net.cpp:91] Creating Layer conv5
I0403 12:53:16.286197 26983 net.cpp:425] conv5 <- conv4
I0403 12:53:16.286219 26983 net.cpp:399] conv5 -> conv5
I0403 12:53:16.307329 26983 net.cpp:141] Setting up conv5
I0403 12:53:16.307375 26983 net.cpp:148] Top shape: 100 256 13 13 (4326400)
I0403 12:53:16.307394 26983 net.cpp:156] Memory required for data: 800703600
I0403 12:53:16.307422 26983 layer_factory.hpp:77] Creating layer relu5
I0403 12:53:16.307447 26983 net.cpp:91] Creating Layer relu5
I0403 12:53:16.307464 26983 net.cpp:425] relu5 <- conv5
I0403 12:53:16.307484 26983 net.cpp:386] relu5 -> conv5 (in-place)
I0403 12:53:16.307775 26983 net.cpp:141] Setting up relu5
I0403 12:53:16.307804 26983 net.cpp:148] Top shape: 100 256 13 13 (4326400)
I0403 12:53:16.307821 26983 net.cpp:156] Memory required for data: 818009200
I0403 12:53:16.307838 26983 layer_factory.hpp:77] Creating layer pool5
I0403 12:53:16.307862 26983 net.cpp:91] Creating Layer pool5
I0403 12:53:16.307879 26983 net.cpp:425] pool5 <- conv5
I0403 12:53:16.307904 26983 net.cpp:399] pool5 -> pool5
I0403 12:53:16.307968 26983 net.cpp:141] Setting up pool5
I0403 12:53:16.307996 26983 net.cpp:148] Top shape: 100 256 6 6 (921600)
I0403 12:53:16.308012 26983 net.cpp:156] Memory required for data: 821695600
I0403 12:53:16.308027 26983 layer_factory.hpp:77] Creating layer fc6
I0403 12:53:16.308059 26983 net.cpp:91] Creating Layer fc6
I0403 12:53:16.308079 26983 net.cpp:425] fc6 <- pool5
I0403 12:53:16.308102 26983 net.cpp:399] fc6 -> fc6
I0403 12:53:17.883213 26983 net.cpp:141] Setting up fc6
I0403 12:53:17.883255 26983 net.cpp:148] Top shape: 100 4096 (409600)
I0403 12:53:17.883271 26983 net.cpp:156] Memory required for data: 823334000
I0403 12:53:17.883293 26983 layer_factory.hpp:77] Creating layer relu6
I0403 12:53:17.883325 26983 net.cpp:91] Creating Layer relu6
I0403 12:53:17.883345 26983 net.cpp:425] relu6 <- fc6
I0403 12:53:17.883369 26983 net.cpp:386] relu6 -> fc6 (in-place)
I0403 12:53:17.883599 26983 net.cpp:141] Setting up relu6
I0403 12:53:17.883625 26983 net.cpp:148] Top shape: 100 4096 (409600)
I0403 12:53:17.883641 26983 net.cpp:156] Memory required for data: 824972400
I0403 12:53:17.883656 26983 layer_factory.hpp:77] Creating layer drop6
I0403 12:53:17.883678 26983 net.cpp:91] Creating Layer drop6
I0403 12:53:17.883695 26983 net.cpp:425] drop6 <- fc6
I0403 12:53:17.883713 26983 net.cpp:386] drop6 -> fc6 (in-place)
I0403 12:53:17.883764 26983 net.cpp:141] Setting up drop6
I0403 12:53:17.883788 26983 net.cpp:148] Top shape: 100 4096 (409600)
I0403 12:53:17.883816 26983 net.cpp:156] Memory required for data: 826610800
I0403 12:53:17.883831 26983 layer_factory.hpp:77] Creating layer fc7
I0403 12:53:17.883853 26983 net.cpp:91] Creating Layer fc7
I0403 12:53:17.883869 26983 net.cpp:425] fc7 <- fc6
I0403 12:53:17.883888 26983 net.cpp:399] fc7 -> fc7
I0403 12:53:18.574105 26983 net.cpp:141] Setting up fc7
I0403 12:53:18.574184 26983 net.cpp:148] Top shape: 100 4096 (409600)
I0403 12:53:18.574200 26983 net.cpp:156] Memory required for data: 828249200
I0403 12:53:18.574223 26983 layer_factory.hpp:77] Creating layer relu7
I0403 12:53:18.574251 26983 net.cpp:91] Creating Layer relu7
I0403 12:53:18.574271 26983 net.cpp:425] relu7 <- fc7
I0403 12:53:18.574291 26983 net.cpp:386] relu7 -> fc7 (in-place)
I0403 12:53:18.574698 26983 net.cpp:141] Setting up relu7
I0403 12:53:18.574725 26983 net.cpp:148] Top shape: 100 4096 (409600)
I0403 12:53:18.574774 26983 net.cpp:156] Memory required for data: 829887600
I0403 12:53:18.574791 26983 layer_factory.hpp:77] Creating layer drop7
I0403 12:53:18.574812 26983 net.cpp:91] Creating Layer drop7
I0403 12:53:18.574828 26983 net.cpp:425] drop7 <- fc7
I0403 12:53:18.574846 26983 net.cpp:386] drop7 -> fc7 (in-place)
I0403 12:53:18.574890 26983 net.cpp:141] Setting up drop7
I0403 12:53:18.574913 26983 net.cpp:148] Top shape: 100 4096 (409600)
I0403 12:53:18.574929 26983 net.cpp:156] Memory required for data: 831526000
I0403 12:53:18.574944 26983 layer_factory.hpp:77] Creating layer fc8_plantvillage
I0403 12:53:18.574965 26983 net.cpp:91] Creating Layer fc8_plantvillage
I0403 12:53:18.574981 26983 net.cpp:425] fc8_plantvillage <- fc7
I0403 12:53:18.575001 26983 net.cpp:399] fc8_plantvillage -> fc8_plantvillage
I0403 12:53:18.581713 26983 net.cpp:141] Setting up fc8_plantvillage
I0403 12:53:18.581745 26983 net.cpp:148] Top shape: 100 38 (3800)
I0403 12:53:18.581763 26983 net.cpp:156] Memory required for data: 831541200
I0403 12:53:18.581782 26983 layer_factory.hpp:77] Creating layer fc8_plantvillage_fc8_plantvillage_0_split
I0403 12:53:18.581802 26983 net.cpp:91] Creating Layer fc8_plantvillage_fc8_plantvillage_0_split
I0403 12:53:18.581818 26983 net.cpp:425] fc8_plantvillage_fc8_plantvillage_0_split <- fc8_plantvillage
I0403 12:53:18.581835 26983 net.cpp:399] fc8_plantvillage_fc8_plantvillage_0_split -> fc8_plantvillage_fc8_plantvillage_0_split_0
I0403 12:53:18.581856 26983 net.cpp:399] fc8_plantvillage_fc8_plantvillage_0_split -> fc8_plantvillage_fc8_plantvillage_0_split_1
I0403 12:53:18.581878 26983 net.cpp:399] fc8_plantvillage_fc8_plantvillage_0_split -> fc8_plantvillage_fc8_plantvillage_0_split_2
I0403 12:53:18.581957 26983 net.cpp:141] Setting up fc8_plantvillage_fc8_plantvillage_0_split
I0403 12:53:18.581982 26983 net.cpp:148] Top shape: 100 38 (3800)
I0403 12:53:18.582000 26983 net.cpp:148] Top shape: 100 38 (3800)
I0403 12:53:18.582015 26983 net.cpp:148] Top shape: 100 38 (3800)
I0403 12:53:18.582029 26983 net.cpp:156] Memory required for data: 831586800
I0403 12:53:18.582046 26983 layer_factory.hpp:77] Creating layer prob
I0403 12:53:18.582064 26983 net.cpp:91] Creating Layer prob
I0403 12:53:18.582080 26983 net.cpp:425] prob <- fc8_plantvillage_fc8_plantvillage_0_split_0
I0403 12:53:18.582098 26983 net.cpp:399] prob -> prob
I0403 12:53:18.582332 26983 net.cpp:141] Setting up prob
I0403 12:53:18.582358 26983 net.cpp:148] Top shape: 100 38 (3800)
I0403 12:53:18.582375 26983 net.cpp:156] Memory required for data: 831602000
I0403 12:53:18.582391 26983 layer_factory.hpp:77] Creating layer hdf5out
I0403 12:53:18.582413 26983 net.cpp:91] Creating Layer hdf5out
I0403 12:53:18.582430 26983 net.cpp:425] hdf5out <- prob
I0403 12:53:18.582447 26983 net.cpp:425] hdf5out <- label_data_1_split_0
I0403 12:53:18.610625 26983 net.cpp:141] Setting up hdf5out
…
