…
I0403 13:03:41.135026 27241 net.cpp:313] The NetState phase (1) differed from the phase (0) specified by a rule in layer data
I0403 13:03:41.135342 27241 net.cpp:49] Initializing net from parameters: 
state {
  phase: TEST
}
layer {
  name: "data"
  type: "Data"
  top: "data"
  top: "label"
  include {
    phase: TEST
  }
  transform_param {
    crop_size: 227
    mean_file: "/home/mohanty/data/final_dataset/lmdb/color-50-50/mean.binaryproto"
  }
  data_param {
    source: "/home/mohanty/data/final_dataset/lmdb/color-50-50/test_db"
    batch_size: 100
    backend: LMDB
  }
}
layer {
  name: "conv1"
  type: "Convolution"
  bottom: "data"
  top: "conv1"
  param {
    lr_mult: 1
    decay_mult: 1
  }
  param {
    lr_mult: 2
    decay_mult: 0
  }
  convolution_param {
    num_output: 96
    kernel_size: 11
    stride: 4
    weight_filler {
      type: "gaussian"
      std: 0.01
    }
    bias_filler {
      type: "constant"
      value: 0
    }
  }
}
layer {
  name: "relu1"
  type: "ReLU"
  bottom: "conv1"
  top: "conv1"
}
layer {
  name: "norm1"
  type: "LRN"
  bottom: "conv1"
  top: "norm1"
  lrn_param {
    local_size: 5
    alpha: 0.0001
    beta: 0.75
  }
}
layer {
  name: "pool1"
  type: "Pooling"
  bottom: "norm1"
  top: "pool1"
  pooling_param {
    pool: MAX
    kernel_size: 3
    stride: 2
  }
}
layer {
  name: "conv2"
  type: "Convolution"
  bottom: "pool1"
  top: "conv2"
  param {
    lr_mult: 1
    decay_mult: 1
  }
  param {
    lr_mult: 2
    decay_mult: 0
  }
  convolution_param {
    num_output: 256
    pad: 2
    kernel_size: 5
    group: 2
    weight_filler {
      type: "gaussian"
      std: 0.01
    }
    bias_filler {
      type: "constant"
      value: 0.1
    }
  }
}
layer {
  name: "relu2"
  type: "ReLU"
  bottom: "conv2"
  top: "conv2"
}
layer {
  name: "norm2"
  type: "LRN"
  bottom: "conv2"
  top: "norm2"
  lrn_param {
    local_size: 5
    alpha: 0.0001
    beta: 0.75
  }
}
layer {
  name: "pool2"
  type: "Pooling"
  bottom: "norm2"
  top: "pool2"
  pooling_param {
    pool: MAX
    kernel_size: 3
    stride: 2
  }
}
layer {
  name: "conv3"
  type: "Convolution"
  bottom: "pool2"
  top: "conv3"
  param {
    lr_mult: 1
    decay_mult: 1
  }
  param {
    lr_mult: 2
    decay_mult: 0
  }
  convolution_param {
    num_output: 384
    pad: 1
    kernel_size: 3
    weight_filler {
      type: "gaussian"
      std: 0.01
    }
    bias_filler {
      type: "constant"
      value: 0
    }
  }
}
layer {
  name: "relu3"
  type: "ReLU"
  bottom: "conv3"
  top: "conv3"
}
layer {
  name: "conv4"
  type: "Convolution"
  bottom: "conv3"
  top: "conv4"
  param {
    lr_mult: 1
    decay_mult: 1
  }
  param {
    lr_mult: 2
    decay_mult: 0
  }
  convolution_param {
    num_output: 384
    pad: 1
    kernel_size: 3
    group: 2
    weight_filler {
      type: "gaussian"
      std: 0.01
    }
    bias_filler {
      type: "constant"
      value: 0.1
    }
  }
}
layer {
  name: "relu4"
  type: "ReLU"
  bottom: "conv4"
  top: "conv4"
}
layer {
  name: "conv5"
  type: "Convolution"
  bottom: "conv4"
  top: "conv5"
  param {
    lr_mult: 1
    decay_mult: 1
  }
  param {
    lr_mult: 2
    decay_mult: 0
  }
  convolution_param {
    num_output: 256
    pad: 1
    kernel_size: 3
    group: 2
    weight_filler {
      type: "gaussian"
      std: 0.01
    }
    bias_filler {
      type: "constant"
      value: 0.1
    }
  }
}
layer {
  name: "relu5"
  type: "ReLU"
  bottom: "conv5"
  top: "conv5"
}
layer {
  name: "pool5"
  type: "Pooling"
  bottom: "conv5"
  top: "pool5"
  pooling_param {
    pool: MAX
    kernel_size: 3
    stride: 2
  }
}
layer {
  name: "fc6"
  type: "InnerProduct"
  bottom: "pool5"
  top: "fc6"
  param {
    lr_mult: 1
    decay_mult: 1
  }
  param {
    lr_mult: 2
    decay_mult: 0
  }
  inner_product_param {
    num_output: 4096
    weight_filler {
      type: "gaussian"
      std: 0.005
    }
    bias_filler {
      type: "constant"
      value: 0.1
    }
  }
}
layer {
  name: "relu6"
  type: "ReLU"
  bottom: "fc6"
  top: "fc6"
}
layer {
  name: "drop6"
  type: "Dropout"
  bottom: "fc6"
  top: "fc6"
  dropout_param {
    dropout_ratio: 0.5
  }
}
layer {
  name: "fc7"
  type: "InnerProduct"
  bottom: "fc6"
  top: "fc7"
  param {
    lr_mult: 1
    decay_mult: 1
  }
  param {
    lr_mult: 2
    decay_mult: 0
  }
  inner_product_param {
    num_output: 4096
    weight_filler {
      type: "gaussian"
      std: 0.005
    }
    bias_filler {
      type: "constant"
      value: 0.1
    }
  }
}
layer {
  name: "relu7"
  type: "ReLU"
  bottom: "fc7"
  top: "fc7"
}
layer {
  name: "drop7"
  type: "Dropout"
  bottom: "fc7"
  top: "fc7"
  dropout_param {
    dropout_ratio: 0.5
  }
}
layer {
  name: "fc8_plantvillage"
  type: "InnerProduct"
  bottom: "fc7"
  top: "fc8_plantvillage"
  param {
    lr_mult: 1
    decay_mult: 1
  }
  param {
    lr_mult: 2
    decay_mult: 0
  }
  inner_product_param {
    num_output: 38
    weight_filler {
      type: "gaussian"
      std: 0.01
    }
    bias_filler {
      type: "constant"
      value: 0
    }
  }
}
layer {
  name: "prob"
  type: "Softmax"
  bottom: "fc8_plantvillage"
  top: "prob"
  include {
    phase: TEST
  }
}
layer {
  name: "hdf5out"
  type: "HDF5Output"
  bottom: "prob"
  bottom: "label"
  include {
    phase: TEST
  }
  hdf5_output_param {
    file_name: "hdf5_dumps/iter_3228.h5"
  }
}
layer {
  name: "loss"
  type: "SoftmaxWithLoss"
  bottom: "fc8_plantvillage"
  bottom: "label"
  top: "loss"
}
layer {
  name: "accuracy"
  type: "Accuracy"
  bottom: "fc8_plantvillage"
  bottom: "label"
  top: "accuracy"
  include {
    phase: TEST
  }
}
I0403 13:03:41.144510 27241 layer_factory.hpp:77] Creating layer data
I0403 13:03:41.145159 27241 net.cpp:91] Creating Layer data
I0403 13:03:41.145190 27241 net.cpp:399] data -> data
I0403 13:03:41.145241 27241 net.cpp:399] data -> label
I0403 13:03:41.145277 27241 data_transformer.cpp:25] Loading mean file from: /home/mohanty/data/final_dataset/lmdb/color-50-50/mean.binaryproto
I0403 13:03:41.150714 27248 db_lmdb.cpp:38] Opened lmdb /home/mohanty/data/final_dataset/lmdb/color-50-50/test_db
I0403 13:03:41.163131 27241 data_layer.cpp:41] output data size: 100,3,227,227
I0403 13:03:41.286593 27241 net.cpp:141] Setting up data
I0403 13:03:41.286684 27241 net.cpp:148] Top shape: 100 3 227 227 (15458700)
I0403 13:03:41.286710 27241 net.cpp:148] Top shape: 100 (100)
I0403 13:03:41.286725 27241 net.cpp:156] Memory required for data: 61835200
I0403 13:03:41.286756 27241 layer_factory.hpp:77] Creating layer label_data_1_split
I0403 13:03:41.286782 27241 net.cpp:91] Creating Layer label_data_1_split
I0403 13:03:41.286801 27241 net.cpp:425] label_data_1_split <- label
I0403 13:03:41.286835 27241 net.cpp:399] label_data_1_split -> label_data_1_split_0
I0403 13:03:41.286864 27241 net.cpp:399] label_data_1_split -> label_data_1_split_1
I0403 13:03:41.286887 27241 net.cpp:399] label_data_1_split -> label_data_1_split_2
I0403 13:03:41.286954 27241 net.cpp:141] Setting up label_data_1_split
I0403 13:03:41.286979 27241 net.cpp:148] Top shape: 100 (100)
I0403 13:03:41.286998 27241 net.cpp:148] Top shape: 100 (100)
I0403 13:03:41.287014 27241 net.cpp:148] Top shape: 100 (100)
I0403 13:03:41.287029 27241 net.cpp:156] Memory required for data: 61836400
I0403 13:03:41.287045 27241 layer_factory.hpp:77] Creating layer conv1
I0403 13:03:41.287078 27241 net.cpp:91] Creating Layer conv1
I0403 13:03:41.287097 27241 net.cpp:425] conv1 <- data
I0403 13:03:41.287117 27241 net.cpp:399] conv1 -> conv1
I0403 13:03:41.445533 27241 net.cpp:141] Setting up conv1
I0403 13:03:41.445611 27241 net.cpp:148] Top shape: 100 96 55 55 (29040000)
I0403 13:03:41.445629 27241 net.cpp:156] Memory required for data: 177996400
I0403 13:03:41.445662 27241 layer_factory.hpp:77] Creating layer relu1
I0403 13:03:41.445693 27241 net.cpp:91] Creating Layer relu1
I0403 13:03:41.445710 27241 net.cpp:425] relu1 <- conv1
I0403 13:03:41.445730 27241 net.cpp:386] relu1 -> conv1 (in-place)
I0403 13:03:41.445991 27241 net.cpp:141] Setting up relu1
I0403 13:03:41.446018 27241 net.cpp:148] Top shape: 100 96 55 55 (29040000)
I0403 13:03:41.446035 27241 net.cpp:156] Memory required for data: 294156400
I0403 13:03:41.446084 27241 layer_factory.hpp:77] Creating layer norm1
I0403 13:03:41.446112 27241 net.cpp:91] Creating Layer norm1
I0403 13:03:41.446131 27241 net.cpp:425] norm1 <- conv1
I0403 13:03:41.446151 27241 net.cpp:399] norm1 -> norm1
I0403 13:03:41.446485 27241 net.cpp:141] Setting up norm1
I0403 13:03:41.446514 27241 net.cpp:148] Top shape: 100 96 55 55 (29040000)
I0403 13:03:41.446532 27241 net.cpp:156] Memory required for data: 410316400
I0403 13:03:41.446547 27241 layer_factory.hpp:77] Creating layer pool1
I0403 13:03:41.446570 27241 net.cpp:91] Creating Layer pool1
I0403 13:03:41.446589 27241 net.cpp:425] pool1 <- norm1
I0403 13:03:41.446609 27241 net.cpp:399] pool1 -> pool1
I0403 13:03:41.446681 27241 net.cpp:141] Setting up pool1
I0403 13:03:41.446707 27241 net.cpp:148] Top shape: 100 96 27 27 (6998400)
I0403 13:03:41.446722 27241 net.cpp:156] Memory required for data: 438310000
I0403 13:03:41.446738 27241 layer_factory.hpp:77] Creating layer conv2
I0403 13:03:41.446764 27241 net.cpp:91] Creating Layer conv2
I0403 13:03:41.446782 27241 net.cpp:425] conv2 <- pool1
I0403 13:03:41.446805 27241 net.cpp:399] conv2 -> conv2
I0403 13:03:41.462110 27241 net.cpp:141] Setting up conv2
I0403 13:03:41.462155 27241 net.cpp:148] Top shape: 100 256 27 27 (18662400)
I0403 13:03:41.462173 27241 net.cpp:156] Memory required for data: 512959600
I0403 13:03:41.462196 27241 layer_factory.hpp:77] Creating layer relu2
I0403 13:03:41.462223 27241 net.cpp:91] Creating Layer relu2
I0403 13:03:41.462241 27241 net.cpp:425] relu2 <- conv2
I0403 13:03:41.462260 27241 net.cpp:386] relu2 -> conv2 (in-place)
I0403 13:03:41.462545 27241 net.cpp:141] Setting up relu2
I0403 13:03:41.462574 27241 net.cpp:148] Top shape: 100 256 27 27 (18662400)
I0403 13:03:41.462590 27241 net.cpp:156] Memory required for data: 587609200
I0403 13:03:41.462607 27241 layer_factory.hpp:77] Creating layer norm2
I0403 13:03:41.462632 27241 net.cpp:91] Creating Layer norm2
I0403 13:03:41.462651 27241 net.cpp:425] norm2 <- conv2
I0403 13:03:41.462671 27241 net.cpp:399] norm2 -> norm2
I0403 13:03:41.462924 27241 net.cpp:141] Setting up norm2
I0403 13:03:41.462951 27241 net.cpp:148] Top shape: 100 256 27 27 (18662400)
I0403 13:03:41.462967 27241 net.cpp:156] Memory required for data: 662258800
I0403 13:03:41.462983 27241 layer_factory.hpp:77] Creating layer pool2
I0403 13:03:41.463002 27241 net.cpp:91] Creating Layer pool2
I0403 13:03:41.463018 27241 net.cpp:425] pool2 <- norm2
I0403 13:03:41.463039 27241 net.cpp:399] pool2 -> pool2
I0403 13:03:41.463093 27241 net.cpp:141] Setting up pool2
I0403 13:03:41.463117 27241 net.cpp:148] Top shape: 100 256 13 13 (4326400)
I0403 13:03:41.463134 27241 net.cpp:156] Memory required for data: 679564400
I0403 13:03:41.463148 27241 layer_factory.hpp:77] Creating layer conv3
I0403 13:03:41.463176 27241 net.cpp:91] Creating Layer conv3
I0403 13:03:41.463194 27241 net.cpp:425] conv3 <- pool2
I0403 13:03:41.463213 27241 net.cpp:399] conv3 -> conv3
I0403 13:03:41.502722 27241 net.cpp:141] Setting up conv3
I0403 13:03:41.502804 27241 net.cpp:148] Top shape: 100 384 13 13 (6489600)
I0403 13:03:41.502821 27241 net.cpp:156] Memory required for data: 705522800
I0403 13:03:41.502849 27241 layer_factory.hpp:77] Creating layer relu3
I0403 13:03:41.502876 27241 net.cpp:91] Creating Layer relu3
I0403 13:03:41.502897 27241 net.cpp:425] relu3 <- conv3
I0403 13:03:41.502917 27241 net.cpp:386] relu3 -> conv3 (in-place)
I0403 13:03:41.503202 27241 net.cpp:141] Setting up relu3
I0403 13:03:41.503232 27241 net.cpp:148] Top shape: 100 384 13 13 (6489600)
I0403 13:03:41.503248 27241 net.cpp:156] Memory required for data: 731481200
I0403 13:03:41.503264 27241 layer_factory.hpp:77] Creating layer conv4
I0403 13:03:41.503293 27241 net.cpp:91] Creating Layer conv4
I0403 13:03:41.503310 27241 net.cpp:425] conv4 <- conv3
I0403 13:03:41.503334 27241 net.cpp:399] conv4 -> conv4
I0403 13:03:41.533666 27241 net.cpp:141] Setting up conv4
I0403 13:03:41.533730 27241 net.cpp:148] Top shape: 100 384 13 13 (6489600)
I0403 13:03:41.533779 27241 net.cpp:156] Memory required for data: 757439600
I0403 13:03:41.533803 27241 layer_factory.hpp:77] Creating layer relu4
I0403 13:03:41.533825 27241 net.cpp:91] Creating Layer relu4
I0403 13:03:41.533843 27241 net.cpp:425] relu4 <- conv4
I0403 13:03:41.533864 27241 net.cpp:386] relu4 -> conv4 (in-place)
I0403 13:03:41.534152 27241 net.cpp:141] Setting up relu4
I0403 13:03:41.534180 27241 net.cpp:148] Top shape: 100 384 13 13 (6489600)
I0403 13:03:41.534198 27241 net.cpp:156] Memory required for data: 783398000
I0403 13:03:41.534214 27241 layer_factory.hpp:77] Creating layer conv5
I0403 13:03:41.534251 27241 net.cpp:91] Creating Layer conv5
I0403 13:03:41.534271 27241 net.cpp:425] conv5 <- conv4
I0403 13:03:41.534294 27241 net.cpp:399] conv5 -> conv5
I0403 13:03:41.555106 27241 net.cpp:141] Setting up conv5
I0403 13:03:41.555146 27241 net.cpp:148] Top shape: 100 256 13 13 (4326400)
I0403 13:03:41.555165 27241 net.cpp:156] Memory required for data: 800703600
I0403 13:03:41.555188 27241 layer_factory.hpp:77] Creating layer relu5
I0403 13:03:41.555209 27241 net.cpp:91] Creating Layer relu5
I0403 13:03:41.555227 27241 net.cpp:425] relu5 <- conv5
I0403 13:03:41.555249 27241 net.cpp:386] relu5 -> conv5 (in-place)
I0403 13:03:41.555534 27241 net.cpp:141] Setting up relu5
I0403 13:03:41.555562 27241 net.cpp:148] Top shape: 100 256 13 13 (4326400)
I0403 13:03:41.555578 27241 net.cpp:156] Memory required for data: 818009200
I0403 13:03:41.555594 27241 layer_factory.hpp:77] Creating layer pool5
I0403 13:03:41.555620 27241 net.cpp:91] Creating Layer pool5
I0403 13:03:41.555639 27241 net.cpp:425] pool5 <- conv5
I0403 13:03:41.555657 27241 net.cpp:399] pool5 -> pool5
I0403 13:03:41.555721 27241 net.cpp:141] Setting up pool5
I0403 13:03:41.555747 27241 net.cpp:148] Top shape: 100 256 6 6 (921600)
I0403 13:03:41.555763 27241 net.cpp:156] Memory required for data: 821695600
I0403 13:03:41.555778 27241 layer_factory.hpp:77] Creating layer fc6
I0403 13:03:41.555806 27241 net.cpp:91] Creating Layer fc6
I0403 13:03:41.555826 27241 net.cpp:425] fc6 <- pool5
I0403 13:03:41.555846 27241 net.cpp:399] fc6 -> fc6
I0403 13:03:43.113860 27241 net.cpp:141] Setting up fc6
I0403 13:03:43.113937 27241 net.cpp:148] Top shape: 100 4096 (409600)
I0403 13:03:43.113953 27241 net.cpp:156] Memory required for data: 823334000
I0403 13:03:43.113975 27241 layer_factory.hpp:77] Creating layer relu6
I0403 13:03:43.113997 27241 net.cpp:91] Creating Layer relu6
I0403 13:03:43.114015 27241 net.cpp:425] relu6 <- fc6
I0403 13:03:43.114038 27241 net.cpp:386] relu6 -> fc6 (in-place)
I0403 13:03:43.114250 27241 net.cpp:141] Setting up relu6
I0403 13:03:43.114276 27241 net.cpp:148] Top shape: 100 4096 (409600)
I0403 13:03:43.114292 27241 net.cpp:156] Memory required for data: 824972400
I0403 13:03:43.114308 27241 layer_factory.hpp:77] Creating layer drop6
I0403 13:03:43.114327 27241 net.cpp:91] Creating Layer drop6
I0403 13:03:43.114344 27241 net.cpp:425] drop6 <- fc6
I0403 13:03:43.114377 27241 net.cpp:386] drop6 -> fc6 (in-place)
I0403 13:03:43.114430 27241 net.cpp:141] Setting up drop6
I0403 13:03:43.114457 27241 net.cpp:148] Top shape: 100 4096 (409600)
I0403 13:03:43.114472 27241 net.cpp:156] Memory required for data: 826610800
I0403 13:03:43.114487 27241 layer_factory.hpp:77] Creating layer fc7
I0403 13:03:43.114507 27241 net.cpp:91] Creating Layer fc7
I0403 13:03:43.114523 27241 net.cpp:425] fc7 <- fc6
I0403 13:03:43.114543 27241 net.cpp:399] fc7 -> fc7
I0403 13:03:43.799868 27241 net.cpp:141] Setting up fc7
I0403 13:03:43.799921 27241 net.cpp:148] Top shape: 100 4096 (409600)
I0403 13:03:43.799937 27241 net.cpp:156] Memory required for data: 828249200
I0403 13:03:43.799958 27241 layer_factory.hpp:77] Creating layer relu7
I0403 13:03:43.799983 27241 net.cpp:91] Creating Layer relu7
I0403 13:03:43.800003 27241 net.cpp:425] relu7 <- fc7
I0403 13:03:43.800021 27241 net.cpp:386] relu7 -> fc7 (in-place)
I0403 13:03:43.800428 27241 net.cpp:141] Setting up relu7
I0403 13:03:43.800454 27241 net.cpp:148] Top shape: 100 4096 (409600)
I0403 13:03:43.800520 27241 net.cpp:156] Memory required for data: 829887600
I0403 13:03:43.800537 27241 layer_factory.hpp:77] Creating layer drop7
I0403 13:03:43.800556 27241 net.cpp:91] Creating Layer drop7
I0403 13:03:43.800571 27241 net.cpp:425] drop7 <- fc7
I0403 13:03:43.800592 27241 net.cpp:386] drop7 -> fc7 (in-place)
I0403 13:03:43.800637 27241 net.cpp:141] Setting up drop7
I0403 13:03:43.800662 27241 net.cpp:148] Top shape: 100 4096 (409600)
I0403 13:03:43.800678 27241 net.cpp:156] Memory required for data: 831526000
I0403 13:03:43.800693 27241 layer_factory.hpp:77] Creating layer fc8_plantvillage
I0403 13:03:43.800714 27241 net.cpp:91] Creating Layer fc8_plantvillage
I0403 13:03:43.800729 27241 net.cpp:425] fc8_plantvillage <- fc7
I0403 13:03:43.800748 27241 net.cpp:399] fc8_plantvillage -> fc8_plantvillage
I0403 13:03:43.807461 27241 net.cpp:141] Setting up fc8_plantvillage
I0403 13:03:43.807490 27241 net.cpp:148] Top shape: 100 38 (3800)
I0403 13:03:43.807507 27241 net.cpp:156] Memory required for data: 831541200
I0403 13:03:43.807526 27241 layer_factory.hpp:77] Creating layer fc8_plantvillage_fc8_plantvillage_0_split
I0403 13:03:43.807548 27241 net.cpp:91] Creating Layer fc8_plantvillage_fc8_plantvillage_0_split
I0403 13:03:43.807564 27241 net.cpp:425] fc8_plantvillage_fc8_plantvillage_0_split <- fc8_plantvillage
I0403 13:03:43.807582 27241 net.cpp:399] fc8_plantvillage_fc8_plantvillage_0_split -> fc8_plantvillage_fc8_plantvillage_0_split_0
I0403 13:03:43.807602 27241 net.cpp:399] fc8_plantvillage_fc8_plantvillage_0_split -> fc8_plantvillage_fc8_plantvillage_0_split_1
I0403 13:03:43.807621 27241 net.cpp:399] fc8_plantvillage_fc8_plantvillage_0_split -> fc8_plantvillage_fc8_plantvillage_0_split_2
I0403 13:03:43.807695 27241 net.cpp:141] Setting up fc8_plantvillage_fc8_plantvillage_0_split
I0403 13:03:43.807718 27241 net.cpp:148] Top shape: 100 38 (3800)
I0403 13:03:43.807735 27241 net.cpp:148] Top shape: 100 38 (3800)
I0403 13:03:43.807751 27241 net.cpp:148] Top shape: 100 38 (3800)
I0403 13:03:43.807766 27241 net.cpp:156] Memory required for data: 831586800
I0403 13:03:43.807781 27241 layer_factory.hpp:77] Creating layer prob
I0403 13:03:43.807799 27241 net.cpp:91] Creating Layer prob
I0403 13:03:43.807816 27241 net.cpp:425] prob <- fc8_plantvillage_fc8_plantvillage_0_split_0
I0403 13:03:43.807835 27241 net.cpp:399] prob -> prob
I0403 13:03:43.808053 27241 net.cpp:141] Setting up prob
I0403 13:03:43.808079 27241 net.cpp:148] Top shape: 100 38 (3800)
I0403 13:03:43.808094 27241 net.cpp:156] Memory required for data: 831602000
I0403 13:03:43.808109 27241 layer_factory.hpp:77] Creating layer hdf5out
I0403 13:03:43.808127 27241 net.cpp:91] Creating Layer hdf5out
I0403 13:03:43.808146 27241 net.cpp:425] hdf5out <- prob
I0403 13:03:43.808162 27241 net.cpp:425] hdf5out <- label_data_1_split_0
I0403 13:03:43.811846 27241 net.cpp:141] Setting up hdf5out
…
