…
I0403 13:08:24.812029 27463 net.cpp:313] The NetState phase (1) differed from the phase (0) specified by a rule in layer data
I0403 13:08:24.812326 27463 net.cpp:49] Initializing net from parameters: 
state {
  phase: TEST
}
layer {
  name: "data"
  type: "Data"
  top: "data"
  top: "label"
  include {
    phase: TEST
  }
  transform_param {
    crop_size: 227
    mean_file: "/home/mohanty/data/final_dataset/lmdb/color-50-50/mean.binaryproto"
  }
  data_param {
    source: "/home/mohanty/data/final_dataset/lmdb/color-50-50/test_db"
    batch_size: 100
    backend: LMDB
  }
}
layer {
  name: "conv1"
  type: "Convolution"
  bottom: "data"
  top: "conv1"
  param {
    lr_mult: 1
    decay_mult: 1
  }
  param {
    lr_mult: 2
    decay_mult: 0
  }
  convolution_param {
    num_output: 96
    kernel_size: 11
    stride: 4
    weight_filler {
      type: "gaussian"
      std: 0.01
    }
    bias_filler {
      type: "constant"
      value: 0
    }
  }
}
layer {
  name: "relu1"
  type: "ReLU"
  bottom: "conv1"
  top: "conv1"
}
layer {
  name: "norm1"
  type: "LRN"
  bottom: "conv1"
  top: "norm1"
  lrn_param {
    local_size: 5
    alpha: 0.0001
    beta: 0.75
  }
}
layer {
  name: "pool1"
  type: "Pooling"
  bottom: "norm1"
  top: "pool1"
  pooling_param {
    pool: MAX
    kernel_size: 3
    stride: 2
  }
}
layer {
  name: "conv2"
  type: "Convolution"
  bottom: "pool1"
  top: "conv2"
  param {
    lr_mult: 1
    decay_mult: 1
  }
  param {
    lr_mult: 2
    decay_mult: 0
  }
  convolution_param {
    num_output: 256
    pad: 2
    kernel_size: 5
    group: 2
    weight_filler {
      type: "gaussian"
      std: 0.01
    }
    bias_filler {
      type: "constant"
      value: 0.1
    }
  }
}
layer {
  name: "relu2"
  type: "ReLU"
  bottom: "conv2"
  top: "conv2"
}
layer {
  name: "norm2"
  type: "LRN"
  bottom: "conv2"
  top: "norm2"
  lrn_param {
    local_size: 5
    alpha: 0.0001
    beta: 0.75
  }
}
layer {
  name: "pool2"
  type: "Pooling"
  bottom: "norm2"
  top: "pool2"
  pooling_param {
    pool: MAX
    kernel_size: 3
    stride: 2
  }
}
layer {
  name: "conv3"
  type: "Convolution"
  bottom: "pool2"
  top: "conv3"
  param {
    lr_mult: 1
    decay_mult: 1
  }
  param {
    lr_mult: 2
    decay_mult: 0
  }
  convolution_param {
    num_output: 384
    pad: 1
    kernel_size: 3
    weight_filler {
      type: "gaussian"
      std: 0.01
    }
    bias_filler {
      type: "constant"
      value: 0
    }
  }
}
layer {
  name: "relu3"
  type: "ReLU"
  bottom: "conv3"
  top: "conv3"
}
layer {
  name: "conv4"
  type: "Convolution"
  bottom: "conv3"
  top: "conv4"
  param {
    lr_mult: 1
    decay_mult: 1
  }
  param {
    lr_mult: 2
    decay_mult: 0
  }
  convolution_param {
    num_output: 384
    pad: 1
    kernel_size: 3
    group: 2
    weight_filler {
      type: "gaussian"
      std: 0.01
    }
    bias_filler {
      type: "constant"
      value: 0.1
    }
  }
}
layer {
  name: "relu4"
  type: "ReLU"
  bottom: "conv4"
  top: "conv4"
}
layer {
  name: "conv5"
  type: "Convolution"
  bottom: "conv4"
  top: "conv5"
  param {
    lr_mult: 1
    decay_mult: 1
  }
  param {
    lr_mult: 2
    decay_mult: 0
  }
  convolution_param {
    num_output: 256
    pad: 1
    kernel_size: 3
    group: 2
    weight_filler {
      type: "gaussian"
      std: 0.01
    }
    bias_filler {
      type: "constant"
      value: 0.1
    }
  }
}
layer {
  name: "relu5"
  type: "ReLU"
  bottom: "conv5"
  top: "conv5"
}
layer {
  name: "pool5"
  type: "Pooling"
  bottom: "conv5"
  top: "pool5"
  pooling_param {
    pool: MAX
    kernel_size: 3
    stride: 2
  }
}
layer {
  name: "fc6"
  type: "InnerProduct"
  bottom: "pool5"
  top: "fc6"
  param {
    lr_mult: 1
    decay_mult: 1
  }
  param {
    lr_mult: 2
    decay_mult: 0
  }
  inner_product_param {
    num_output: 4096
    weight_filler {
      type: "gaussian"
      std: 0.005
    }
    bias_filler {
      type: "constant"
      value: 0.1
    }
  }
}
layer {
  name: "relu6"
  type: "ReLU"
  bottom: "fc6"
  top: "fc6"
}
layer {
  name: "drop6"
  type: "Dropout"
  bottom: "fc6"
  top: "fc6"
  dropout_param {
    dropout_ratio: 0.5
  }
}
layer {
  name: "fc7"
  type: "InnerProduct"
  bottom: "fc6"
  top: "fc7"
  param {
    lr_mult: 1
    decay_mult: 1
  }
  param {
    lr_mult: 2
    decay_mult: 0
  }
  inner_product_param {
    num_output: 4096
    weight_filler {
      type: "gaussian"
      std: 0.005
    }
    bias_filler {
      type: "constant"
      value: 0.1
    }
  }
}
layer {
  name: "relu7"
  type: "ReLU"
  bottom: "fc7"
  top: "fc7"
}
layer {
  name: "drop7"
  type: "Dropout"
  bottom: "fc7"
  top: "fc7"
  dropout_param {
    dropout_ratio: 0.5
  }
}
layer {
  name: "fc8_plantvillage"
  type: "InnerProduct"
  bottom: "fc7"
  top: "fc8_plantvillage"
  param {
    lr_mult: 1
    decay_mult: 1
  }
  param {
    lr_mult: 2
    decay_mult: 0
  }
  inner_product_param {
    num_output: 38
    weight_filler {
      type: "gaussian"
      std: 0.01
    }
    bias_filler {
      type: "constant"
      value: 0
    }
  }
}
layer {
  name: "prob"
  type: "Softmax"
  bottom: "fc8_plantvillage"
  top: "prob"
  include {
    phase: TEST
  }
}
layer {
  name: "hdf5out"
  type: "HDF5Output"
  bottom: "prob"
  bottom: "label"
  include {
    phase: TEST
  }
  hdf5_output_param {
    file_name: "hdf5_dumps/iter_4573.h5"
  }
}
layer {
  name: "loss"
  type: "SoftmaxWithLoss"
  bottom: "fc8_plantvillage"
  bottom: "label"
  top: "loss"
}
layer {
  name: "accuracy"
  type: "Accuracy"
  bottom: "fc8_plantvillage"
  bottom: "label"
  top: "accuracy"
  include {
    phase: TEST
  }
}
I0403 13:08:24.812927 27463 layer_factory.hpp:77] Creating layer data
I0403 13:08:24.813601 27463 net.cpp:91] Creating Layer data
I0403 13:08:24.813635 27463 net.cpp:399] data -> data
I0403 13:08:24.813695 27463 net.cpp:399] data -> label
I0403 13:08:24.813732 27463 data_transformer.cpp:25] Loading mean file from: /home/mohanty/data/final_dataset/lmdb/color-50-50/mean.binaryproto
I0403 13:08:24.823628 27465 db_lmdb.cpp:38] Opened lmdb /home/mohanty/data/final_dataset/lmdb/color-50-50/test_db
I0403 13:08:24.827004 27463 data_layer.cpp:41] output data size: 100,3,227,227
I0403 13:08:24.944376 27463 net.cpp:141] Setting up data
I0403 13:08:24.944468 27463 net.cpp:148] Top shape: 100 3 227 227 (15458700)
I0403 13:08:24.944490 27463 net.cpp:148] Top shape: 100 (100)
I0403 13:08:24.944506 27463 net.cpp:156] Memory required for data: 61835200
I0403 13:08:24.944532 27463 layer_factory.hpp:77] Creating layer label_data_1_split
I0403 13:08:24.944558 27463 net.cpp:91] Creating Layer label_data_1_split
I0403 13:08:24.944577 27463 net.cpp:425] label_data_1_split <- label
I0403 13:08:24.944607 27463 net.cpp:399] label_data_1_split -> label_data_1_split_0
I0403 13:08:24.944633 27463 net.cpp:399] label_data_1_split -> label_data_1_split_1
I0403 13:08:24.944653 27463 net.cpp:399] label_data_1_split -> label_data_1_split_2
I0403 13:08:24.944715 27463 net.cpp:141] Setting up label_data_1_split
I0403 13:08:24.944737 27463 net.cpp:148] Top shape: 100 (100)
I0403 13:08:24.944756 27463 net.cpp:148] Top shape: 100 (100)
I0403 13:08:24.944772 27463 net.cpp:148] Top shape: 100 (100)
I0403 13:08:24.944785 27463 net.cpp:156] Memory required for data: 61836400
I0403 13:08:24.944799 27463 layer_factory.hpp:77] Creating layer conv1
I0403 13:08:24.944830 27463 net.cpp:91] Creating Layer conv1
I0403 13:08:24.944849 27463 net.cpp:425] conv1 <- data
I0403 13:08:24.944867 27463 net.cpp:399] conv1 -> conv1
I0403 13:08:25.082564 27463 net.cpp:141] Setting up conv1
I0403 13:08:25.082638 27463 net.cpp:148] Top shape: 100 96 55 55 (29040000)
I0403 13:08:25.082655 27463 net.cpp:156] Memory required for data: 177996400
I0403 13:08:25.082687 27463 layer_factory.hpp:77] Creating layer relu1
I0403 13:08:25.082713 27463 net.cpp:91] Creating Layer relu1
I0403 13:08:25.082732 27463 net.cpp:425] relu1 <- conv1
I0403 13:08:25.082751 27463 net.cpp:386] relu1 -> conv1 (in-place)
I0403 13:08:25.083003 27463 net.cpp:141] Setting up relu1
I0403 13:08:25.083030 27463 net.cpp:148] Top shape: 100 96 55 55 (29040000)
I0403 13:08:25.083046 27463 net.cpp:156] Memory required for data: 294156400
I0403 13:08:25.083093 27463 layer_factory.hpp:77] Creating layer norm1
I0403 13:08:25.083122 27463 net.cpp:91] Creating Layer norm1
I0403 13:08:25.083142 27463 net.cpp:425] norm1 <- conv1
I0403 13:08:25.083160 27463 net.cpp:399] norm1 -> norm1
I0403 13:08:25.083474 27463 net.cpp:141] Setting up norm1
I0403 13:08:25.083506 27463 net.cpp:148] Top shape: 100 96 55 55 (29040000)
I0403 13:08:25.083524 27463 net.cpp:156] Memory required for data: 410316400
I0403 13:08:25.083539 27463 layer_factory.hpp:77] Creating layer pool1
I0403 13:08:25.083562 27463 net.cpp:91] Creating Layer pool1
I0403 13:08:25.083580 27463 net.cpp:425] pool1 <- norm1
I0403 13:08:25.083598 27463 net.cpp:399] pool1 -> pool1
I0403 13:08:25.083664 27463 net.cpp:141] Setting up pool1
I0403 13:08:25.083689 27463 net.cpp:148] Top shape: 100 96 27 27 (6998400)
I0403 13:08:25.083704 27463 net.cpp:156] Memory required for data: 438310000
I0403 13:08:25.083719 27463 layer_factory.hpp:77] Creating layer conv2
I0403 13:08:25.083744 27463 net.cpp:91] Creating Layer conv2
I0403 13:08:25.083760 27463 net.cpp:425] conv2 <- pool1
I0403 13:08:25.083780 27463 net.cpp:399] conv2 -> conv2
I0403 13:08:25.098167 27463 net.cpp:141] Setting up conv2
I0403 13:08:25.098203 27463 net.cpp:148] Top shape: 100 256 27 27 (18662400)
I0403 13:08:25.098219 27463 net.cpp:156] Memory required for data: 512959600
I0403 13:08:25.098242 27463 layer_factory.hpp:77] Creating layer relu2
I0403 13:08:25.098261 27463 net.cpp:91] Creating Layer relu2
I0403 13:08:25.098278 27463 net.cpp:425] relu2 <- conv2
I0403 13:08:25.098296 27463 net.cpp:386] relu2 -> conv2 (in-place)
I0403 13:08:25.098561 27463 net.cpp:141] Setting up relu2
I0403 13:08:25.098587 27463 net.cpp:148] Top shape: 100 256 27 27 (18662400)
I0403 13:08:25.098603 27463 net.cpp:156] Memory required for data: 587609200
I0403 13:08:25.098628 27463 layer_factory.hpp:77] Creating layer norm2
I0403 13:08:25.098647 27463 net.cpp:91] Creating Layer norm2
I0403 13:08:25.098664 27463 net.cpp:425] norm2 <- conv2
I0403 13:08:25.098682 27463 net.cpp:399] norm2 -> norm2
I0403 13:08:25.098861 27463 net.cpp:141] Setting up norm2
I0403 13:08:25.098887 27463 net.cpp:148] Top shape: 100 256 27 27 (18662400)
I0403 13:08:25.098902 27463 net.cpp:156] Memory required for data: 662258800
I0403 13:08:25.098917 27463 layer_factory.hpp:77] Creating layer pool2
I0403 13:08:25.098937 27463 net.cpp:91] Creating Layer pool2
I0403 13:08:25.098954 27463 net.cpp:425] pool2 <- norm2
I0403 13:08:25.098976 27463 net.cpp:399] pool2 -> pool2
I0403 13:08:25.099026 27463 net.cpp:141] Setting up pool2
I0403 13:08:25.099050 27463 net.cpp:148] Top shape: 100 256 13 13 (4326400)
I0403 13:08:25.099064 27463 net.cpp:156] Memory required for data: 679564400
I0403 13:08:25.099079 27463 layer_factory.hpp:77] Creating layer conv3
I0403 13:08:25.099099 27463 net.cpp:91] Creating Layer conv3
I0403 13:08:25.099117 27463 net.cpp:425] conv3 <- pool2
I0403 13:08:25.099134 27463 net.cpp:399] conv3 -> conv3
I0403 13:08:25.142244 27463 net.cpp:141] Setting up conv3
I0403 13:08:25.142307 27463 net.cpp:148] Top shape: 100 384 13 13 (6489600)
I0403 13:08:25.142334 27463 net.cpp:156] Memory required for data: 705522800
I0403 13:08:25.142365 27463 layer_factory.hpp:77] Creating layer relu3
I0403 13:08:25.142387 27463 net.cpp:91] Creating Layer relu3
I0403 13:08:25.142405 27463 net.cpp:425] relu3 <- conv3
I0403 13:08:25.142421 27463 net.cpp:386] relu3 -> conv3 (in-place)
I0403 13:08:25.142700 27463 net.cpp:141] Setting up relu3
I0403 13:08:25.142731 27463 net.cpp:148] Top shape: 100 384 13 13 (6489600)
I0403 13:08:25.142747 27463 net.cpp:156] Memory required for data: 731481200
I0403 13:08:25.142763 27463 layer_factory.hpp:77] Creating layer conv4
I0403 13:08:25.142789 27463 net.cpp:91] Creating Layer conv4
I0403 13:08:25.142808 27463 net.cpp:425] conv4 <- conv3
I0403 13:08:25.142829 27463 net.cpp:399] conv4 -> conv4
I0403 13:08:25.171723 27463 net.cpp:141] Setting up conv4
I0403 13:08:25.171771 27463 net.cpp:148] Top shape: 100 384 13 13 (6489600)
I0403 13:08:25.171821 27463 net.cpp:156] Memory required for data: 757439600
I0403 13:08:25.171844 27463 layer_factory.hpp:77] Creating layer relu4
I0403 13:08:25.171862 27463 net.cpp:91] Creating Layer relu4
I0403 13:08:25.171879 27463 net.cpp:425] relu4 <- conv4
I0403 13:08:25.171896 27463 net.cpp:386] relu4 -> conv4 (in-place)
I0403 13:08:25.172173 27463 net.cpp:141] Setting up relu4
I0403 13:08:25.172202 27463 net.cpp:148] Top shape: 100 384 13 13 (6489600)
I0403 13:08:25.172221 27463 net.cpp:156] Memory required for data: 783398000
I0403 13:08:25.172238 27463 layer_factory.hpp:77] Creating layer conv5
I0403 13:08:25.172262 27463 net.cpp:91] Creating Layer conv5
I0403 13:08:25.172281 27463 net.cpp:425] conv5 <- conv4
I0403 13:08:25.172305 27463 net.cpp:399] conv5 -> conv5
I0403 13:08:25.192059 27463 net.cpp:141] Setting up conv5
I0403 13:08:25.192091 27463 net.cpp:148] Top shape: 100 256 13 13 (4326400)
I0403 13:08:25.192107 27463 net.cpp:156] Memory required for data: 800703600
I0403 13:08:25.192132 27463 layer_factory.hpp:77] Creating layer relu5
I0403 13:08:25.192153 27463 net.cpp:91] Creating Layer relu5
I0403 13:08:25.192169 27463 net.cpp:425] relu5 <- conv5
I0403 13:08:25.192190 27463 net.cpp:386] relu5 -> conv5 (in-place)
I0403 13:08:25.192466 27463 net.cpp:141] Setting up relu5
I0403 13:08:25.192495 27463 net.cpp:148] Top shape: 100 256 13 13 (4326400)
I0403 13:08:25.192512 27463 net.cpp:156] Memory required for data: 818009200
I0403 13:08:25.192528 27463 layer_factory.hpp:77] Creating layer pool5
I0403 13:08:25.192550 27463 net.cpp:91] Creating Layer pool5
I0403 13:08:25.192567 27463 net.cpp:425] pool5 <- conv5
I0403 13:08:25.192589 27463 net.cpp:399] pool5 -> pool5
I0403 13:08:25.192646 27463 net.cpp:141] Setting up pool5
I0403 13:08:25.192673 27463 net.cpp:148] Top shape: 100 256 6 6 (921600)
I0403 13:08:25.192689 27463 net.cpp:156] Memory required for data: 821695600
I0403 13:08:25.192705 27463 layer_factory.hpp:77] Creating layer fc6
I0403 13:08:25.192731 27463 net.cpp:91] Creating Layer fc6
I0403 13:08:25.192749 27463 net.cpp:425] fc6 <- pool5
I0403 13:08:25.192770 27463 net.cpp:399] fc6 -> fc6
I0403 13:08:26.816404 27463 net.cpp:141] Setting up fc6
I0403 13:08:26.816479 27463 net.cpp:148] Top shape: 100 4096 (409600)
I0403 13:08:26.816498 27463 net.cpp:156] Memory required for data: 823334000
I0403 13:08:26.816519 27463 layer_factory.hpp:77] Creating layer relu6
I0403 13:08:26.816542 27463 net.cpp:91] Creating Layer relu6
I0403 13:08:26.816565 27463 net.cpp:425] relu6 <- fc6
I0403 13:08:26.816586 27463 net.cpp:386] relu6 -> fc6 (in-place)
I0403 13:08:26.816809 27463 net.cpp:141] Setting up relu6
I0403 13:08:26.816843 27463 net.cpp:148] Top shape: 100 4096 (409600)
I0403 13:08:26.816859 27463 net.cpp:156] Memory required for data: 824972400
I0403 13:08:26.816874 27463 layer_factory.hpp:77] Creating layer drop6
I0403 13:08:26.816892 27463 net.cpp:91] Creating Layer drop6
I0403 13:08:26.816908 27463 net.cpp:425] drop6 <- fc6
I0403 13:08:26.816927 27463 net.cpp:386] drop6 -> fc6 (in-place)
I0403 13:08:26.816977 27463 net.cpp:141] Setting up drop6
I0403 13:08:26.817001 27463 net.cpp:148] Top shape: 100 4096 (409600)
I0403 13:08:26.817016 27463 net.cpp:156] Memory required for data: 826610800
I0403 13:08:26.817031 27463 layer_factory.hpp:77] Creating layer fc7
I0403 13:08:26.817056 27463 net.cpp:91] Creating Layer fc7
I0403 13:08:26.817073 27463 net.cpp:425] fc7 <- fc6
I0403 13:08:26.817095 27463 net.cpp:399] fc7 -> fc7
I0403 13:08:27.515450 27463 net.cpp:141] Setting up fc7
I0403 13:08:27.515494 27463 net.cpp:148] Top shape: 100 4096 (409600)
I0403 13:08:27.515511 27463 net.cpp:156] Memory required for data: 828249200
I0403 13:08:27.515532 27463 layer_factory.hpp:77] Creating layer relu7
I0403 13:08:27.515552 27463 net.cpp:91] Creating Layer relu7
I0403 13:08:27.515571 27463 net.cpp:425] relu7 <- fc7
I0403 13:08:27.515597 27463 net.cpp:386] relu7 -> fc7 (in-place)
I0403 13:08:27.515993 27463 net.cpp:141] Setting up relu7
I0403 13:08:27.516022 27463 net.cpp:148] Top shape: 100 4096 (409600)
I0403 13:08:27.516065 27463 net.cpp:156] Memory required for data: 829887600
I0403 13:08:27.516083 27463 layer_factory.hpp:77] Creating layer drop7
I0403 13:08:27.516101 27463 net.cpp:91] Creating Layer drop7
I0403 13:08:27.516116 27463 net.cpp:425] drop7 <- fc7
I0403 13:08:27.516134 27463 net.cpp:386] drop7 -> fc7 (in-place)
I0403 13:08:27.516176 27463 net.cpp:141] Setting up drop7
I0403 13:08:27.516198 27463 net.cpp:148] Top shape: 100 4096 (409600)
I0403 13:08:27.516213 27463 net.cpp:156] Memory required for data: 831526000
I0403 13:08:27.516227 27463 layer_factory.hpp:77] Creating layer fc8_plantvillage
I0403 13:08:27.516249 27463 net.cpp:91] Creating Layer fc8_plantvillage
I0403 13:08:27.516264 27463 net.cpp:425] fc8_plantvillage <- fc7
I0403 13:08:27.516281 27463 net.cpp:399] fc8_plantvillage -> fc8_plantvillage
I0403 13:08:27.523061 27463 net.cpp:141] Setting up fc8_plantvillage
I0403 13:08:27.523089 27463 net.cpp:148] Top shape: 100 38 (3800)
I0403 13:08:27.523104 27463 net.cpp:156] Memory required for data: 831541200
I0403 13:08:27.523123 27463 layer_factory.hpp:77] Creating layer fc8_plantvillage_fc8_plantvillage_0_split
I0403 13:08:27.523141 27463 net.cpp:91] Creating Layer fc8_plantvillage_fc8_plantvillage_0_split
I0403 13:08:27.523155 27463 net.cpp:425] fc8_plantvillage_fc8_plantvillage_0_split <- fc8_plantvillage
I0403 13:08:27.523175 27463 net.cpp:399] fc8_plantvillage_fc8_plantvillage_0_split -> fc8_plantvillage_fc8_plantvillage_0_split_0
I0403 13:08:27.523195 27463 net.cpp:399] fc8_plantvillage_fc8_plantvillage_0_split -> fc8_plantvillage_fc8_plantvillage_0_split_1
I0403 13:08:27.523216 27463 net.cpp:399] fc8_plantvillage_fc8_plantvillage_0_split -> fc8_plantvillage_fc8_plantvillage_0_split_2
I0403 13:08:27.523288 27463 net.cpp:141] Setting up fc8_plantvillage_fc8_plantvillage_0_split
I0403 13:08:27.523313 27463 net.cpp:148] Top shape: 100 38 (3800)
I0403 13:08:27.523329 27463 net.cpp:148] Top shape: 100 38 (3800)
I0403 13:08:27.523344 27463 net.cpp:148] Top shape: 100 38 (3800)
I0403 13:08:27.523377 27463 net.cpp:156] Memory required for data: 831586800
I0403 13:08:27.523392 27463 layer_factory.hpp:77] Creating layer prob
I0403 13:08:27.523412 27463 net.cpp:91] Creating Layer prob
I0403 13:08:27.523428 27463 net.cpp:425] prob <- fc8_plantvillage_fc8_plantvillage_0_split_0
I0403 13:08:27.523447 27463 net.cpp:399] prob -> prob
I0403 13:08:27.523676 27463 net.cpp:141] Setting up prob
I0403 13:08:27.523705 27463 net.cpp:148] Top shape: 100 38 (3800)
I0403 13:08:27.523721 27463 net.cpp:156] Memory required for data: 831602000
I0403 13:08:27.523736 27463 layer_factory.hpp:77] Creating layer hdf5out
I0403 13:08:27.523754 27463 net.cpp:91] Creating Layer hdf5out
I0403 13:08:27.523769 27463 net.cpp:425] hdf5out <- prob
I0403 13:08:27.523798 27463 net.cpp:425] hdf5out <- label_data_1_split_0
I0403 13:08:27.527822 27463 net.cpp:141] Setting up hdf5out
…
