…
I0403 12:58:58.847317 27126 net.cpp:313] The NetState phase (1) differed from the phase (0) specified by a rule in layer data
I0403 12:58:58.847617 27126 net.cpp:49] Initializing net from parameters: 
state {
  phase: TEST
}
layer {
  name: "data"
  type: "Data"
  top: "data"
  top: "label"
  include {
    phase: TEST
  }
  transform_param {
    crop_size: 227
    mean_file: "/home/mohanty/data/final_dataset/lmdb/color-50-50/mean.binaryproto"
  }
  data_param {
    source: "/home/mohanty/data/final_dataset/lmdb/color-50-50/test_db"
    batch_size: 100
    backend: LMDB
  }
}
layer {
  name: "conv1"
  type: "Convolution"
  bottom: "data"
  top: "conv1"
  param {
    lr_mult: 1
    decay_mult: 1
  }
  param {
    lr_mult: 2
    decay_mult: 0
  }
  convolution_param {
    num_output: 96
    kernel_size: 11
    stride: 4
    weight_filler {
      type: "gaussian"
      std: 0.01
    }
    bias_filler {
      type: "constant"
      value: 0
    }
  }
}
layer {
  name: "relu1"
  type: "ReLU"
  bottom: "conv1"
  top: "conv1"
}
layer {
  name: "norm1"
  type: "LRN"
  bottom: "conv1"
  top: "norm1"
  lrn_param {
    local_size: 5
    alpha: 0.0001
    beta: 0.75
  }
}
layer {
  name: "pool1"
  type: "Pooling"
  bottom: "norm1"
  top: "pool1"
  pooling_param {
    pool: MAX
    kernel_size: 3
    stride: 2
  }
}
layer {
  name: "conv2"
  type: "Convolution"
  bottom: "pool1"
  top: "conv2"
  param {
    lr_mult: 1
    decay_mult: 1
  }
  param {
    lr_mult: 2
    decay_mult: 0
  }
  convolution_param {
    num_output: 256
    pad: 2
    kernel_size: 5
    group: 2
    weight_filler {
      type: "gaussian"
      std: 0.01
    }
    bias_filler {
      type: "constant"
      value: 0.1
    }
  }
}
layer {
  name: "relu2"
  type: "ReLU"
  bottom: "conv2"
  top: "conv2"
}
layer {
  name: "norm2"
  type: "LRN"
  bottom: "conv2"
  top: "norm2"
  lrn_param {
    local_size: 5
    alpha: 0.0001
    beta: 0.75
  }
}
layer {
  name: "pool2"
  type: "Pooling"
  bottom: "norm2"
  top: "pool2"
  pooling_param {
    pool: MAX
    kernel_size: 3
    stride: 2
  }
}
layer {
  name: "conv3"
  type: "Convolution"
  bottom: "pool2"
  top: "conv3"
  param {
    lr_mult: 1
    decay_mult: 1
  }
  param {
    lr_mult: 2
    decay_mult: 0
  }
  convolution_param {
    num_output: 384
    pad: 1
    kernel_size: 3
    weight_filler {
      type: "gaussian"
      std: 0.01
    }
    bias_filler {
      type: "constant"
      value: 0
    }
  }
}
layer {
  name: "relu3"
  type: "ReLU"
  bottom: "conv3"
  top: "conv3"
}
layer {
  name: "conv4"
  type: "Convolution"
  bottom: "conv3"
  top: "conv4"
  param {
    lr_mult: 1
    decay_mult: 1
  }
  param {
    lr_mult: 2
    decay_mult: 0
  }
  convolution_param {
    num_output: 384
    pad: 1
    kernel_size: 3
    group: 2
    weight_filler {
      type: "gaussian"
      std: 0.01
    }
    bias_filler {
      type: "constant"
      value: 0.1
    }
  }
}
layer {
  name: "relu4"
  type: "ReLU"
  bottom: "conv4"
  top: "conv4"
}
layer {
  name: "conv5"
  type: "Convolution"
  bottom: "conv4"
  top: "conv5"
  param {
    lr_mult: 1
    decay_mult: 1
  }
  param {
    lr_mult: 2
    decay_mult: 0
  }
  convolution_param {
    num_output: 256
    pad: 1
    kernel_size: 3
    group: 2
    weight_filler {
      type: "gaussian"
      std: 0.01
    }
    bias_filler {
      type: "constant"
      value: 0.1
    }
  }
}
layer {
  name: "relu5"
  type: "ReLU"
  bottom: "conv5"
  top: "conv5"
}
layer {
  name: "pool5"
  type: "Pooling"
  bottom: "conv5"
  top: "pool5"
  pooling_param {
    pool: MAX
    kernel_size: 3
    stride: 2
  }
}
layer {
  name: "fc6"
  type: "InnerProduct"
  bottom: "pool5"
  top: "fc6"
  param {
    lr_mult: 1
    decay_mult: 1
  }
  param {
    lr_mult: 2
    decay_mult: 0
  }
  inner_product_param {
    num_output: 4096
    weight_filler {
      type: "gaussian"
      std: 0.005
    }
    bias_filler {
      type: "constant"
      value: 0.1
    }
  }
}
layer {
  name: "relu6"
  type: "ReLU"
  bottom: "fc6"
  top: "fc6"
}
layer {
  name: "drop6"
  type: "Dropout"
  bottom: "fc6"
  top: "fc6"
  dropout_param {
    dropout_ratio: 0.5
  }
}
layer {
  name: "fc7"
  type: "InnerProduct"
  bottom: "fc6"
  top: "fc7"
  param {
    lr_mult: 1
    decay_mult: 1
  }
  param {
    lr_mult: 2
    decay_mult: 0
  }
  inner_product_param {
    num_output: 4096
    weight_filler {
      type: "gaussian"
      std: 0.005
    }
    bias_filler {
      type: "constant"
      value: 0.1
    }
  }
}
layer {
  name: "relu7"
  type: "ReLU"
  bottom: "fc7"
  top: "fc7"
}
layer {
  name: "drop7"
  type: "Dropout"
  bottom: "fc7"
  top: "fc7"
  dropout_param {
    dropout_ratio: 0.5
  }
}
layer {
  name: "fc8_plantvillage"
  type: "InnerProduct"
  bottom: "fc7"
  top: "fc8_plantvillage"
  param {
    lr_mult: 1
    decay_mult: 1
  }
  param {
    lr_mult: 2
    decay_mult: 0
  }
  inner_product_param {
    num_output: 38
    weight_filler {
      type: "gaussian"
      std: 0.01
    }
    bias_filler {
      type: "constant"
      value: 0
    }
  }
}
layer {
  name: "prob"
  type: "Softmax"
  bottom: "fc8_plantvillage"
  top: "prob"
  include {
    phase: TEST
  }
}
layer {
  name: "hdf5out"
  type: "HDF5Output"
  bottom: "prob"
  bottom: "label"
  include {
    phase: TEST
  }
  hdf5_output_param {
    file_name: "hdf5_dumps/iter_1883.h5"
  }
}
layer {
  name: "loss"
  type: "SoftmaxWithLoss"
  bottom: "fc8_plantvillage"
  bottom: "label"
  top: "loss"
}
layer {
  name: "accuracy"
  type: "Accuracy"
  bottom: "fc8_plantvillage"
  bottom: "label"
  top: "accuracy"
  include {
    phase: TEST
  }
}
I0403 12:58:58.848251 27126 layer_factory.hpp:77] Creating layer data
I0403 12:58:58.848953 27126 net.cpp:91] Creating Layer data
I0403 12:58:58.848987 27126 net.cpp:399] data -> data
I0403 12:58:58.849038 27126 net.cpp:399] data -> label
I0403 12:58:58.849081 27126 data_transformer.cpp:25] Loading mean file from: /home/mohanty/data/final_dataset/lmdb/color-50-50/mean.binaryproto
I0403 12:58:58.851987 27129 db_lmdb.cpp:38] Opened lmdb /home/mohanty/data/final_dataset/lmdb/color-50-50/test_db
I0403 12:58:58.863862 27126 data_layer.cpp:41] output data size: 100,3,227,227
I0403 12:58:58.988418 27126 net.cpp:141] Setting up data
I0403 12:58:58.988510 27126 net.cpp:148] Top shape: 100 3 227 227 (15458700)
I0403 12:58:58.988533 27126 net.cpp:148] Top shape: 100 (100)
I0403 12:58:58.988550 27126 net.cpp:156] Memory required for data: 61835200
I0403 12:58:58.988586 27126 layer_factory.hpp:77] Creating layer label_data_1_split
I0403 12:58:58.988613 27126 net.cpp:91] Creating Layer label_data_1_split
I0403 12:58:58.988632 27126 net.cpp:425] label_data_1_split <- label
I0403 12:58:58.988663 27126 net.cpp:399] label_data_1_split -> label_data_1_split_0
I0403 12:58:58.988692 27126 net.cpp:399] label_data_1_split -> label_data_1_split_1
I0403 12:58:58.988714 27126 net.cpp:399] label_data_1_split -> label_data_1_split_2
I0403 12:58:58.988791 27126 net.cpp:141] Setting up label_data_1_split
I0403 12:58:58.988816 27126 net.cpp:148] Top shape: 100 (100)
I0403 12:58:58.988832 27126 net.cpp:148] Top shape: 100 (100)
I0403 12:58:58.988848 27126 net.cpp:148] Top shape: 100 (100)
I0403 12:58:58.988862 27126 net.cpp:156] Memory required for data: 61836400
I0403 12:58:58.988878 27126 layer_factory.hpp:77] Creating layer conv1
I0403 12:58:58.988910 27126 net.cpp:91] Creating Layer conv1
I0403 12:58:58.988929 27126 net.cpp:425] conv1 <- data
I0403 12:58:58.988950 27126 net.cpp:399] conv1 -> conv1
I0403 12:58:59.134203 27126 net.cpp:141] Setting up conv1
I0403 12:58:59.134274 27126 net.cpp:148] Top shape: 100 96 55 55 (29040000)
I0403 12:58:59.134291 27126 net.cpp:156] Memory required for data: 177996400
I0403 12:58:59.134330 27126 layer_factory.hpp:77] Creating layer relu1
I0403 12:58:59.134362 27126 net.cpp:91] Creating Layer relu1
I0403 12:58:59.134383 27126 net.cpp:425] relu1 <- conv1
I0403 12:58:59.134403 27126 net.cpp:386] relu1 -> conv1 (in-place)
I0403 12:58:59.134696 27126 net.cpp:141] Setting up relu1
I0403 12:58:59.134727 27126 net.cpp:148] Top shape: 100 96 55 55 (29040000)
I0403 12:58:59.134742 27126 net.cpp:156] Memory required for data: 294156400
I0403 12:58:59.134790 27126 layer_factory.hpp:77] Creating layer norm1
I0403 12:58:59.134821 27126 net.cpp:91] Creating Layer norm1
I0403 12:58:59.134840 27126 net.cpp:425] norm1 <- conv1
I0403 12:58:59.134862 27126 net.cpp:399] norm1 -> norm1
I0403 12:58:59.135215 27126 net.cpp:141] Setting up norm1
I0403 12:58:59.135248 27126 net.cpp:148] Top shape: 100 96 55 55 (29040000)
I0403 12:58:59.135267 27126 net.cpp:156] Memory required for data: 410316400
I0403 12:58:59.135285 27126 layer_factory.hpp:77] Creating layer pool1
I0403 12:58:59.135308 27126 net.cpp:91] Creating Layer pool1
I0403 12:58:59.135332 27126 net.cpp:425] pool1 <- norm1
I0403 12:58:59.135354 27126 net.cpp:399] pool1 -> pool1
I0403 12:58:59.135428 27126 net.cpp:141] Setting up pool1
I0403 12:58:59.135454 27126 net.cpp:148] Top shape: 100 96 27 27 (6998400)
I0403 12:58:59.135471 27126 net.cpp:156] Memory required for data: 438310000
I0403 12:58:59.135488 27126 layer_factory.hpp:77] Creating layer conv2
I0403 12:58:59.135516 27126 net.cpp:91] Creating Layer conv2
I0403 12:58:59.135535 27126 net.cpp:425] conv2 <- pool1
I0403 12:58:59.135555 27126 net.cpp:399] conv2 -> conv2
I0403 12:58:59.151376 27126 net.cpp:141] Setting up conv2
I0403 12:58:59.151422 27126 net.cpp:148] Top shape: 100 256 27 27 (18662400)
I0403 12:58:59.151445 27126 net.cpp:156] Memory required for data: 512959600
I0403 12:58:59.151473 27126 layer_factory.hpp:77] Creating layer relu2
I0403 12:58:59.151494 27126 net.cpp:91] Creating Layer relu2
I0403 12:58:59.151510 27126 net.cpp:425] relu2 <- conv2
I0403 12:58:59.151532 27126 net.cpp:386] relu2 -> conv2 (in-place)
I0403 12:58:59.151825 27126 net.cpp:141] Setting up relu2
I0403 12:58:59.151854 27126 net.cpp:148] Top shape: 100 256 27 27 (18662400)
I0403 12:58:59.151870 27126 net.cpp:156] Memory required for data: 587609200
I0403 12:58:59.151886 27126 layer_factory.hpp:77] Creating layer norm2
I0403 12:58:59.151912 27126 net.cpp:91] Creating Layer norm2
I0403 12:58:59.151931 27126 net.cpp:425] norm2 <- conv2
I0403 12:58:59.151950 27126 net.cpp:399] norm2 -> norm2
I0403 12:58:59.152155 27126 net.cpp:141] Setting up norm2
I0403 12:58:59.152185 27126 net.cpp:148] Top shape: 100 256 27 27 (18662400)
I0403 12:58:59.152202 27126 net.cpp:156] Memory required for data: 662258800
I0403 12:58:59.152218 27126 layer_factory.hpp:77] Creating layer pool2
I0403 12:58:59.152238 27126 net.cpp:91] Creating Layer pool2
I0403 12:58:59.152254 27126 net.cpp:425] pool2 <- norm2
I0403 12:58:59.152276 27126 net.cpp:399] pool2 -> pool2
I0403 12:58:59.152338 27126 net.cpp:141] Setting up pool2
I0403 12:58:59.152364 27126 net.cpp:148] Top shape: 100 256 13 13 (4326400)
I0403 12:58:59.152379 27126 net.cpp:156] Memory required for data: 679564400
I0403 12:58:59.152395 27126 layer_factory.hpp:77] Creating layer conv3
I0403 12:58:59.152420 27126 net.cpp:91] Creating Layer conv3
I0403 12:58:59.152438 27126 net.cpp:425] conv3 <- pool2
I0403 12:58:59.152462 27126 net.cpp:399] conv3 -> conv3
I0403 12:58:59.198916 27126 net.cpp:141] Setting up conv3
I0403 12:58:59.198995 27126 net.cpp:148] Top shape: 100 384 13 13 (6489600)
I0403 12:58:59.199014 27126 net.cpp:156] Memory required for data: 705522800
I0403 12:58:59.199043 27126 layer_factory.hpp:77] Creating layer relu3
I0403 12:58:59.199069 27126 net.cpp:91] Creating Layer relu3
I0403 12:58:59.199089 27126 net.cpp:425] relu3 <- conv3
I0403 12:58:59.199112 27126 net.cpp:386] relu3 -> conv3 (in-place)
I0403 12:58:59.199421 27126 net.cpp:141] Setting up relu3
I0403 12:58:59.199451 27126 net.cpp:148] Top shape: 100 384 13 13 (6489600)
I0403 12:58:59.199467 27126 net.cpp:156] Memory required for data: 731481200
I0403 12:58:59.199483 27126 layer_factory.hpp:77] Creating layer conv4
I0403 12:58:59.199512 27126 net.cpp:91] Creating Layer conv4
I0403 12:58:59.199532 27126 net.cpp:425] conv4 <- conv3
I0403 12:58:59.199554 27126 net.cpp:399] conv4 -> conv4
I0403 12:58:59.230934 27126 net.cpp:141] Setting up conv4
I0403 12:58:59.231000 27126 net.cpp:148] Top shape: 100 384 13 13 (6489600)
I0403 12:58:59.231050 27126 net.cpp:156] Memory required for data: 757439600
I0403 12:58:59.231075 27126 layer_factory.hpp:77] Creating layer relu4
I0403 12:58:59.231096 27126 net.cpp:91] Creating Layer relu4
I0403 12:58:59.231115 27126 net.cpp:425] relu4 <- conv4
I0403 12:58:59.231135 27126 net.cpp:386] relu4 -> conv4 (in-place)
I0403 12:58:59.231431 27126 net.cpp:141] Setting up relu4
I0403 12:58:59.231462 27126 net.cpp:148] Top shape: 100 384 13 13 (6489600)
I0403 12:58:59.231480 27126 net.cpp:156] Memory required for data: 783398000
I0403 12:58:59.231497 27126 layer_factory.hpp:77] Creating layer conv5
I0403 12:58:59.231520 27126 net.cpp:91] Creating Layer conv5
I0403 12:58:59.231539 27126 net.cpp:425] conv5 <- conv4
I0403 12:58:59.231561 27126 net.cpp:399] conv5 -> conv5
I0403 12:58:59.253101 27126 net.cpp:141] Setting up conv5
I0403 12:58:59.253160 27126 net.cpp:148] Top shape: 100 256 13 13 (4326400)
I0403 12:58:59.253178 27126 net.cpp:156] Memory required for data: 800703600
I0403 12:58:59.253207 27126 layer_factory.hpp:77] Creating layer relu5
I0403 12:58:59.253232 27126 net.cpp:91] Creating Layer relu5
I0403 12:58:59.253248 27126 net.cpp:425] relu5 <- conv5
I0403 12:58:59.253271 27126 net.cpp:386] relu5 -> conv5 (in-place)
I0403 12:58:59.253571 27126 net.cpp:141] Setting up relu5
I0403 12:58:59.253602 27126 net.cpp:148] Top shape: 100 256 13 13 (4326400)
I0403 12:58:59.253620 27126 net.cpp:156] Memory required for data: 818009200
I0403 12:58:59.253636 27126 layer_factory.hpp:77] Creating layer pool5
I0403 12:58:59.253659 27126 net.cpp:91] Creating Layer pool5
I0403 12:58:59.253682 27126 net.cpp:425] pool5 <- conv5
I0403 12:58:59.253702 27126 net.cpp:399] pool5 -> pool5
I0403 12:58:59.253763 27126 net.cpp:141] Setting up pool5
I0403 12:58:59.253793 27126 net.cpp:148] Top shape: 100 256 6 6 (921600)
I0403 12:58:59.253809 27126 net.cpp:156] Memory required for data: 821695600
I0403 12:58:59.253826 27126 layer_factory.hpp:77] Creating layer fc6
I0403 12:58:59.253854 27126 net.cpp:91] Creating Layer fc6
I0403 12:58:59.253872 27126 net.cpp:425] fc6 <- pool5
I0403 12:58:59.253893 27126 net.cpp:399] fc6 -> fc6
I0403 12:59:00.816519 27126 net.cpp:141] Setting up fc6
I0403 12:59:00.816597 27126 net.cpp:148] Top shape: 100 4096 (409600)
I0403 12:59:00.816615 27126 net.cpp:156] Memory required for data: 823334000
I0403 12:59:00.816637 27126 layer_factory.hpp:77] Creating layer relu6
I0403 12:59:00.816660 27126 net.cpp:91] Creating Layer relu6
I0403 12:59:00.816679 27126 net.cpp:425] relu6 <- fc6
I0403 12:59:00.816697 27126 net.cpp:386] relu6 -> fc6 (in-place)
I0403 12:59:00.816925 27126 net.cpp:141] Setting up relu6
I0403 12:59:00.816952 27126 net.cpp:148] Top shape: 100 4096 (409600)
I0403 12:59:00.816968 27126 net.cpp:156] Memory required for data: 824972400
I0403 12:59:00.816984 27126 layer_factory.hpp:77] Creating layer drop6
I0403 12:59:00.817003 27126 net.cpp:91] Creating Layer drop6
I0403 12:59:00.817018 27126 net.cpp:425] drop6 <- fc6
I0403 12:59:00.817037 27126 net.cpp:386] drop6 -> fc6 (in-place)
I0403 12:59:00.817090 27126 net.cpp:141] Setting up drop6
I0403 12:59:00.817114 27126 net.cpp:148] Top shape: 100 4096 (409600)
I0403 12:59:00.817128 27126 net.cpp:156] Memory required for data: 826610800
I0403 12:59:00.817144 27126 layer_factory.hpp:77] Creating layer fc7
I0403 12:59:00.817167 27126 net.cpp:91] Creating Layer fc7
I0403 12:59:00.817183 27126 net.cpp:425] fc7 <- fc6
I0403 12:59:00.817203 27126 net.cpp:399] fc7 -> fc7
I0403 12:59:01.506507 27126 net.cpp:141] Setting up fc7
I0403 12:59:01.506584 27126 net.cpp:148] Top shape: 100 4096 (409600)
I0403 12:59:01.506602 27126 net.cpp:156] Memory required for data: 828249200
I0403 12:59:01.506623 27126 layer_factory.hpp:77] Creating layer relu7
I0403 12:59:01.506647 27126 net.cpp:91] Creating Layer relu7
I0403 12:59:01.506665 27126 net.cpp:425] relu7 <- fc7
I0403 12:59:01.506685 27126 net.cpp:386] relu7 -> fc7 (in-place)
I0403 12:59:01.507108 27126 net.cpp:141] Setting up relu7
I0403 12:59:01.507138 27126 net.cpp:148] Top shape: 100 4096 (409600)
I0403 12:59:01.507186 27126 net.cpp:156] Memory required for data: 829887600
I0403 12:59:01.507203 27126 layer_factory.hpp:77] Creating layer drop7
I0403 12:59:01.507225 27126 net.cpp:91] Creating Layer drop7
I0403 12:59:01.507241 27126 net.cpp:425] drop7 <- fc7
I0403 12:59:01.507258 27126 net.cpp:386] drop7 -> fc7 (in-place)
I0403 12:59:01.507305 27126 net.cpp:141] Setting up drop7
I0403 12:59:01.507334 27126 net.cpp:148] Top shape: 100 4096 (409600)
I0403 12:59:01.507351 27126 net.cpp:156] Memory required for data: 831526000
I0403 12:59:01.507367 27126 layer_factory.hpp:77] Creating layer fc8_plantvillage
I0403 12:59:01.507390 27126 net.cpp:91] Creating Layer fc8_plantvillage
I0403 12:59:01.507407 27126 net.cpp:425] fc8_plantvillage <- fc7
I0403 12:59:01.507426 27126 net.cpp:399] fc8_plantvillage -> fc8_plantvillage
I0403 12:59:01.514292 27126 net.cpp:141] Setting up fc8_plantvillage
I0403 12:59:01.514340 27126 net.cpp:148] Top shape: 100 38 (3800)
I0403 12:59:01.514358 27126 net.cpp:156] Memory required for data: 831541200
I0403 12:59:01.514376 27126 layer_factory.hpp:77] Creating layer fc8_plantvillage_fc8_plantvillage_0_split
I0403 12:59:01.514396 27126 net.cpp:91] Creating Layer fc8_plantvillage_fc8_plantvillage_0_split
I0403 12:59:01.514412 27126 net.cpp:425] fc8_plantvillage_fc8_plantvillage_0_split <- fc8_plantvillage
I0403 12:59:01.514433 27126 net.cpp:399] fc8_plantvillage_fc8_plantvillage_0_split -> fc8_plantvillage_fc8_plantvillage_0_split_0
I0403 12:59:01.514456 27126 net.cpp:399] fc8_plantvillage_fc8_plantvillage_0_split -> fc8_plantvillage_fc8_plantvillage_0_split_1
I0403 12:59:01.514477 27126 net.cpp:399] fc8_plantvillage_fc8_plantvillage_0_split -> fc8_plantvillage_fc8_plantvillage_0_split_2
I0403 12:59:01.514554 27126 net.cpp:141] Setting up fc8_plantvillage_fc8_plantvillage_0_split
I0403 12:59:01.514580 27126 net.cpp:148] Top shape: 100 38 (3800)
I0403 12:59:01.514596 27126 net.cpp:148] Top shape: 100 38 (3800)
I0403 12:59:01.514612 27126 net.cpp:148] Top shape: 100 38 (3800)
I0403 12:59:01.514626 27126 net.cpp:156] Memory required for data: 831586800
I0403 12:59:01.514654 27126 layer_factory.hpp:77] Creating layer prob
I0403 12:59:01.514677 27126 net.cpp:91] Creating Layer prob
I0403 12:59:01.514693 27126 net.cpp:425] prob <- fc8_plantvillage_fc8_plantvillage_0_split_0
I0403 12:59:01.514713 27126 net.cpp:399] prob -> prob
I0403 12:59:01.514935 27126 net.cpp:141] Setting up prob
I0403 12:59:01.514966 27126 net.cpp:148] Top shape: 100 38 (3800)
I0403 12:59:01.514982 27126 net.cpp:156] Memory required for data: 831602000
I0403 12:59:01.514997 27126 layer_factory.hpp:77] Creating layer hdf5out
I0403 12:59:01.515017 27126 net.cpp:91] Creating Layer hdf5out
I0403 12:59:01.515033 27126 net.cpp:425] hdf5out <- prob
I0403 12:59:01.515048 27126 net.cpp:425] hdf5out <- label_data_1_split_0
I0403 12:59:01.525342 27126 net.cpp:141] Setting up hdf5out
…
