…
I0403 12:56:09.623098 27053 net.cpp:313] The NetState phase (1) differed from the phase (0) specified by a rule in layer data
I0403 12:56:09.623409 27053 net.cpp:49] Initializing net from parameters: 
state {
  phase: TEST
}
layer {
  name: "data"
  type: "Data"
  top: "data"
  top: "label"
  include {
    phase: TEST
  }
  transform_param {
    crop_size: 227
    mean_file: "/home/mohanty/data/final_dataset/lmdb/color-50-50/mean.binaryproto"
  }
  data_param {
    source: "/home/mohanty/data/final_dataset/lmdb/color-50-50/test_db"
    batch_size: 100
    backend: LMDB
  }
}
layer {
  name: "conv1"
  type: "Convolution"
  bottom: "data"
  top: "conv1"
  param {
    lr_mult: 1
    decay_mult: 1
  }
  param {
    lr_mult: 2
    decay_mult: 0
  }
  convolution_param {
    num_output: 96
    kernel_size: 11
    stride: 4
    weight_filler {
      type: "gaussian"
      std: 0.01
    }
    bias_filler {
      type: "constant"
      value: 0
    }
  }
}
layer {
  name: "relu1"
  type: "ReLU"
  bottom: "conv1"
  top: "conv1"
}
layer {
  name: "norm1"
  type: "LRN"
  bottom: "conv1"
  top: "norm1"
  lrn_param {
    local_size: 5
    alpha: 0.0001
    beta: 0.75
  }
}
layer {
  name: "pool1"
  type: "Pooling"
  bottom: "norm1"
  top: "pool1"
  pooling_param {
    pool: MAX
    kernel_size: 3
    stride: 2
  }
}
layer {
  name: "conv2"
  type: "Convolution"
  bottom: "pool1"
  top: "conv2"
  param {
    lr_mult: 1
    decay_mult: 1
  }
  param {
    lr_mult: 2
    decay_mult: 0
  }
  convolution_param {
    num_output: 256
    pad: 2
    kernel_size: 5
    group: 2
    weight_filler {
      type: "gaussian"
      std: 0.01
    }
    bias_filler {
      type: "constant"
      value: 0.1
    }
  }
}
layer {
  name: "relu2"
  type: "ReLU"
  bottom: "conv2"
  top: "conv2"
}
layer {
  name: "norm2"
  type: "LRN"
  bottom: "conv2"
  top: "norm2"
  lrn_param {
    local_size: 5
    alpha: 0.0001
    beta: 0.75
  }
}
layer {
  name: "pool2"
  type: "Pooling"
  bottom: "norm2"
  top: "pool2"
  pooling_param {
    pool: MAX
    kernel_size: 3
    stride: 2
  }
}
layer {
  name: "conv3"
  type: "Convolution"
  bottom: "pool2"
  top: "conv3"
  param {
    lr_mult: 1
    decay_mult: 1
  }
  param {
    lr_mult: 2
    decay_mult: 0
  }
  convolution_param {
    num_output: 384
    pad: 1
    kernel_size: 3
    weight_filler {
      type: "gaussian"
      std: 0.01
    }
    bias_filler {
      type: "constant"
      value: 0
    }
  }
}
layer {
  name: "relu3"
  type: "ReLU"
  bottom: "conv3"
  top: "conv3"
}
layer {
  name: "conv4"
  type: "Convolution"
  bottom: "conv3"
  top: "conv4"
  param {
    lr_mult: 1
    decay_mult: 1
  }
  param {
    lr_mult: 2
    decay_mult: 0
  }
  convolution_param {
    num_output: 384
    pad: 1
    kernel_size: 3
    group: 2
    weight_filler {
      type: "gaussian"
      std: 0.01
    }
    bias_filler {
      type: "constant"
      value: 0.1
    }
  }
}
layer {
  name: "relu4"
  type: "ReLU"
  bottom: "conv4"
  top: "conv4"
}
layer {
  name: "conv5"
  type: "Convolution"
  bottom: "conv4"
  top: "conv5"
  param {
    lr_mult: 1
    decay_mult: 1
  }
  param {
    lr_mult: 2
    decay_mult: 0
  }
  convolution_param {
    num_output: 256
    pad: 1
    kernel_size: 3
    group: 2
    weight_filler {
      type: "gaussian"
      std: 0.01
    }
    bias_filler {
      type: "constant"
      value: 0.1
    }
  }
}
layer {
  name: "relu5"
  type: "ReLU"
  bottom: "conv5"
  top: "conv5"
}
layer {
  name: "pool5"
  type: "Pooling"
  bottom: "conv5"
  top: "pool5"
  pooling_param {
    pool: MAX
    kernel_size: 3
    stride: 2
  }
}
layer {
  name: "fc6"
  type: "InnerProduct"
  bottom: "pool5"
  top: "fc6"
  param {
    lr_mult: 1
    decay_mult: 1
  }
  param {
    lr_mult: 2
    decay_mult: 0
  }
  inner_product_param {
    num_output: 4096
    weight_filler {
      type: "gaussian"
      std: 0.005
    }
    bias_filler {
      type: "constant"
      value: 0.1
    }
  }
}
layer {
  name: "relu6"
  type: "ReLU"
  bottom: "fc6"
  top: "fc6"
}
layer {
  name: "drop6"
  type: "Dropout"
  bottom: "fc6"
  top: "fc6"
  dropout_param {
    dropout_ratio: 0.5
  }
}
layer {
  name: "fc7"
  type: "InnerProduct"
  bottom: "fc6"
  top: "fc7"
  param {
    lr_mult: 1
    decay_mult: 1
  }
  param {
    lr_mult: 2
    decay_mult: 0
  }
  inner_product_param {
    num_output: 4096
    weight_filler {
      type: "gaussian"
      std: 0.005
    }
    bias_filler {
      type: "constant"
      value: 0.1
    }
  }
}
layer {
  name: "relu7"
  type: "ReLU"
  bottom: "fc7"
  top: "fc7"
}
layer {
  name: "drop7"
  type: "Dropout"
  bottom: "fc7"
  top: "fc7"
  dropout_param {
    dropout_ratio: 0.5
  }
}
layer {
  name: "fc8_plantvillage"
  type: "InnerProduct"
  bottom: "fc7"
  top: "fc8_plantvillage"
  param {
    lr_mult: 1
    decay_mult: 1
  }
  param {
    lr_mult: 2
    decay_mult: 0
  }
  inner_product_param {
    num_output: 38
    weight_filler {
      type: "gaussian"
      std: 0.01
    }
    bias_filler {
      type: "constant"
      value: 0
    }
  }
}
layer {
  name: "prob"
  type: "Softmax"
  bottom: "fc8_plantvillage"
  top: "prob"
  include {
    phase: TEST
  }
}
layer {
  name: "hdf5out"
  type: "HDF5Output"
  bottom: "prob"
  bottom: "label"
  include {
    phase: TEST
  }
  hdf5_output_param {
    file_name: "hdf5_dumps/iter_1076.h5"
  }
}
layer {
  name: "loss"
  type: "SoftmaxWithLoss"
  bottom: "fc8_plantvillage"
  bottom: "label"
  top: "loss"
}
layer {
  name: "accuracy"
  type: "Accuracy"
  bottom: "fc8_plantvillage"
  bottom: "label"
  top: "accuracy"
  include {
    phase: TEST
  }
}
I0403 12:56:09.623999 27053 layer_factory.hpp:77] Creating layer data
I0403 12:56:09.624652 27053 net.cpp:91] Creating Layer data
I0403 12:56:09.624686 27053 net.cpp:399] data -> data
I0403 12:56:09.624740 27053 net.cpp:399] data -> label
I0403 12:56:09.624778 27053 data_transformer.cpp:25] Loading mean file from: /home/mohanty/data/final_dataset/lmdb/color-50-50/mean.binaryproto
I0403 12:56:09.627306 27056 db_lmdb.cpp:38] Opened lmdb /home/mohanty/data/final_dataset/lmdb/color-50-50/test_db
I0403 12:56:09.639279 27053 data_layer.cpp:41] output data size: 100,3,227,227
I0403 12:56:09.757338 27053 net.cpp:141] Setting up data
I0403 12:56:09.757400 27053 net.cpp:148] Top shape: 100 3 227 227 (15458700)
I0403 12:56:09.757424 27053 net.cpp:148] Top shape: 100 (100)
I0403 12:56:09.757441 27053 net.cpp:156] Memory required for data: 61835200
I0403 12:56:09.757467 27053 layer_factory.hpp:77] Creating layer label_data_1_split
I0403 12:56:09.757493 27053 net.cpp:91] Creating Layer label_data_1_split
I0403 12:56:09.757511 27053 net.cpp:425] label_data_1_split <- label
I0403 12:56:09.757544 27053 net.cpp:399] label_data_1_split -> label_data_1_split_0
I0403 12:56:09.757570 27053 net.cpp:399] label_data_1_split -> label_data_1_split_1
I0403 12:56:09.757591 27053 net.cpp:399] label_data_1_split -> label_data_1_split_2
I0403 12:56:09.757655 27053 net.cpp:141] Setting up label_data_1_split
I0403 12:56:09.757679 27053 net.cpp:148] Top shape: 100 (100)
I0403 12:56:09.757695 27053 net.cpp:148] Top shape: 100 (100)
I0403 12:56:09.757711 27053 net.cpp:148] Top shape: 100 (100)
I0403 12:56:09.757725 27053 net.cpp:156] Memory required for data: 61836400
I0403 12:56:09.757740 27053 layer_factory.hpp:77] Creating layer conv1
I0403 12:56:09.757772 27053 net.cpp:91] Creating Layer conv1
I0403 12:56:09.757792 27053 net.cpp:425] conv1 <- data
I0403 12:56:09.757812 27053 net.cpp:399] conv1 -> conv1
I0403 12:56:09.900673 27053 net.cpp:141] Setting up conv1
I0403 12:56:09.900749 27053 net.cpp:148] Top shape: 100 96 55 55 (29040000)
I0403 12:56:09.900768 27053 net.cpp:156] Memory required for data: 177996400
I0403 12:56:09.900801 27053 layer_factory.hpp:77] Creating layer relu1
I0403 12:56:09.900831 27053 net.cpp:91] Creating Layer relu1
I0403 12:56:09.900852 27053 net.cpp:425] relu1 <- conv1
I0403 12:56:09.900873 27053 net.cpp:386] relu1 -> conv1 (in-place)
I0403 12:56:09.901131 27053 net.cpp:141] Setting up relu1
I0403 12:56:09.901159 27053 net.cpp:148] Top shape: 100 96 55 55 (29040000)
I0403 12:56:09.901175 27053 net.cpp:156] Memory required for data: 294156400
I0403 12:56:09.901222 27053 layer_factory.hpp:77] Creating layer norm1
I0403 12:56:09.901252 27053 net.cpp:91] Creating Layer norm1
I0403 12:56:09.901273 27053 net.cpp:425] norm1 <- conv1
I0403 12:56:09.901293 27053 net.cpp:399] norm1 -> norm1
I0403 12:56:09.901651 27053 net.cpp:141] Setting up norm1
I0403 12:56:09.901681 27053 net.cpp:148] Top shape: 100 96 55 55 (29040000)
I0403 12:56:09.901698 27053 net.cpp:156] Memory required for data: 410316400
I0403 12:56:09.901715 27053 layer_factory.hpp:77] Creating layer pool1
I0403 12:56:09.901739 27053 net.cpp:91] Creating Layer pool1
I0403 12:56:09.901758 27053 net.cpp:425] pool1 <- norm1
I0403 12:56:09.901777 27053 net.cpp:399] pool1 -> pool1
I0403 12:56:09.901846 27053 net.cpp:141] Setting up pool1
I0403 12:56:09.901872 27053 net.cpp:148] Top shape: 100 96 27 27 (6998400)
I0403 12:56:09.901888 27053 net.cpp:156] Memory required for data: 438310000
I0403 12:56:09.901904 27053 layer_factory.hpp:77] Creating layer conv2
I0403 12:56:09.901929 27053 net.cpp:91] Creating Layer conv2
I0403 12:56:09.901947 27053 net.cpp:425] conv2 <- pool1
I0403 12:56:09.901965 27053 net.cpp:399] conv2 -> conv2
I0403 12:56:09.917184 27053 net.cpp:141] Setting up conv2
I0403 12:56:09.917273 27053 net.cpp:148] Top shape: 100 256 27 27 (18662400)
I0403 12:56:09.917294 27053 net.cpp:156] Memory required for data: 512959600
I0403 12:56:09.917318 27053 layer_factory.hpp:77] Creating layer relu2
I0403 12:56:09.917338 27053 net.cpp:91] Creating Layer relu2
I0403 12:56:09.917361 27053 net.cpp:425] relu2 <- conv2
I0403 12:56:09.917384 27053 net.cpp:386] relu2 -> conv2 (in-place)
I0403 12:56:09.917670 27053 net.cpp:141] Setting up relu2
I0403 12:56:09.917697 27053 net.cpp:148] Top shape: 100 256 27 27 (18662400)
I0403 12:56:09.917714 27053 net.cpp:156] Memory required for data: 587609200
I0403 12:56:09.917731 27053 layer_factory.hpp:77] Creating layer norm2
I0403 12:56:09.917755 27053 net.cpp:91] Creating Layer norm2
I0403 12:56:09.917774 27053 net.cpp:425] norm2 <- conv2
I0403 12:56:09.917795 27053 net.cpp:399] norm2 -> norm2
I0403 12:56:09.918004 27053 net.cpp:141] Setting up norm2
I0403 12:56:09.918030 27053 net.cpp:148] Top shape: 100 256 27 27 (18662400)
I0403 12:56:09.918047 27053 net.cpp:156] Memory required for data: 662258800
I0403 12:56:09.918062 27053 layer_factory.hpp:77] Creating layer pool2
I0403 12:56:09.918081 27053 net.cpp:91] Creating Layer pool2
I0403 12:56:09.918098 27053 net.cpp:425] pool2 <- norm2
I0403 12:56:09.918120 27053 net.cpp:399] pool2 -> pool2
I0403 12:56:09.918175 27053 net.cpp:141] Setting up pool2
I0403 12:56:09.918200 27053 net.cpp:148] Top shape: 100 256 13 13 (4326400)
I0403 12:56:09.918216 27053 net.cpp:156] Memory required for data: 679564400
I0403 12:56:09.918231 27053 layer_factory.hpp:77] Creating layer conv3
I0403 12:56:09.918257 27053 net.cpp:91] Creating Layer conv3
I0403 12:56:09.918275 27053 net.cpp:425] conv3 <- pool2
I0403 12:56:09.918297 27053 net.cpp:399] conv3 -> conv3
I0403 12:56:09.962261 27053 net.cpp:141] Setting up conv3
I0403 12:56:09.962334 27053 net.cpp:148] Top shape: 100 384 13 13 (6489600)
I0403 12:56:09.962355 27053 net.cpp:156] Memory required for data: 705522800
I0403 12:56:09.962383 27053 layer_factory.hpp:77] Creating layer relu3
I0403 12:56:09.962410 27053 net.cpp:91] Creating Layer relu3
I0403 12:56:09.962431 27053 net.cpp:425] relu3 <- conv3
I0403 12:56:09.962451 27053 net.cpp:386] relu3 -> conv3 (in-place)
I0403 12:56:09.962723 27053 net.cpp:141] Setting up relu3
I0403 12:56:09.962764 27053 net.cpp:148] Top shape: 100 384 13 13 (6489600)
I0403 12:56:09.962782 27053 net.cpp:156] Memory required for data: 731481200
I0403 12:56:09.962798 27053 layer_factory.hpp:77] Creating layer conv4
I0403 12:56:09.962826 27053 net.cpp:91] Creating Layer conv4
I0403 12:56:09.962846 27053 net.cpp:425] conv4 <- conv3
I0403 12:56:09.962869 27053 net.cpp:399] conv4 -> conv4
I0403 12:56:09.993417 27053 net.cpp:141] Setting up conv4
I0403 12:56:09.993489 27053 net.cpp:148] Top shape: 100 384 13 13 (6489600)
I0403 12:56:09.993556 27053 net.cpp:156] Memory required for data: 757439600
I0403 12:56:09.993582 27053 layer_factory.hpp:77] Creating layer relu4
I0403 12:56:09.993605 27053 net.cpp:91] Creating Layer relu4
I0403 12:56:09.993638 27053 net.cpp:425] relu4 <- conv4
I0403 12:56:09.993690 27053 net.cpp:386] relu4 -> conv4 (in-place)
I0403 12:56:09.993974 27053 net.cpp:141] Setting up relu4
I0403 12:56:09.994016 27053 net.cpp:148] Top shape: 100 384 13 13 (6489600)
I0403 12:56:09.994034 27053 net.cpp:156] Memory required for data: 783398000
I0403 12:56:09.994050 27053 layer_factory.hpp:77] Creating layer conv5
I0403 12:56:09.994076 27053 net.cpp:91] Creating Layer conv5
I0403 12:56:09.994093 27053 net.cpp:425] conv5 <- conv4
I0403 12:56:09.994117 27053 net.cpp:399] conv5 -> conv5
I0403 12:56:10.014925 27053 net.cpp:141] Setting up conv5
I0403 12:56:10.014971 27053 net.cpp:148] Top shape: 100 256 13 13 (4326400)
I0403 12:56:10.014988 27053 net.cpp:156] Memory required for data: 800703600
I0403 12:56:10.015015 27053 layer_factory.hpp:77] Creating layer relu5
I0403 12:56:10.015038 27053 net.cpp:91] Creating Layer relu5
I0403 12:56:10.015054 27053 net.cpp:425] relu5 <- conv5
I0403 12:56:10.015077 27053 net.cpp:386] relu5 -> conv5 (in-place)
I0403 12:56:10.015373 27053 net.cpp:141] Setting up relu5
I0403 12:56:10.015401 27053 net.cpp:148] Top shape: 100 256 13 13 (4326400)
I0403 12:56:10.015419 27053 net.cpp:156] Memory required for data: 818009200
I0403 12:56:10.015435 27053 layer_factory.hpp:77] Creating layer pool5
I0403 12:56:10.015460 27053 net.cpp:91] Creating Layer pool5
I0403 12:56:10.015478 27053 net.cpp:425] pool5 <- conv5
I0403 12:56:10.015498 27053 net.cpp:399] pool5 -> pool5
I0403 12:56:10.015563 27053 net.cpp:141] Setting up pool5
I0403 12:56:10.015586 27053 net.cpp:148] Top shape: 100 256 6 6 (921600)
I0403 12:56:10.015602 27053 net.cpp:156] Memory required for data: 821695600
I0403 12:56:10.015619 27053 layer_factory.hpp:77] Creating layer fc6
I0403 12:56:10.015650 27053 net.cpp:91] Creating Layer fc6
I0403 12:56:10.015668 27053 net.cpp:425] fc6 <- pool5
I0403 12:56:10.015688 27053 net.cpp:399] fc6 -> fc6
I0403 12:56:11.624398 27053 net.cpp:141] Setting up fc6
I0403 12:56:11.624476 27053 net.cpp:148] Top shape: 100 4096 (409600)
I0403 12:56:11.624495 27053 net.cpp:156] Memory required for data: 823334000
I0403 12:56:11.624517 27053 layer_factory.hpp:77] Creating layer relu6
I0403 12:56:11.624542 27053 net.cpp:91] Creating Layer relu6
I0403 12:56:11.624562 27053 net.cpp:425] relu6 <- fc6
I0403 12:56:11.624585 27053 net.cpp:386] relu6 -> fc6 (in-place)
I0403 12:56:11.624827 27053 net.cpp:141] Setting up relu6
I0403 12:56:11.624853 27053 net.cpp:148] Top shape: 100 4096 (409600)
I0403 12:56:11.624869 27053 net.cpp:156] Memory required for data: 824972400
I0403 12:56:11.624886 27053 layer_factory.hpp:77] Creating layer drop6
I0403 12:56:11.624904 27053 net.cpp:91] Creating Layer drop6
I0403 12:56:11.624922 27053 net.cpp:425] drop6 <- fc6
I0403 12:56:11.624945 27053 net.cpp:386] drop6 -> fc6 (in-place)
I0403 12:56:11.625000 27053 net.cpp:141] Setting up drop6
I0403 12:56:11.625030 27053 net.cpp:148] Top shape: 100 4096 (409600)
I0403 12:56:11.625047 27053 net.cpp:156] Memory required for data: 826610800
I0403 12:56:11.625063 27053 layer_factory.hpp:77] Creating layer fc7
I0403 12:56:11.625085 27053 net.cpp:91] Creating Layer fc7
I0403 12:56:11.625103 27053 net.cpp:425] fc7 <- fc6
I0403 12:56:11.625125 27053 net.cpp:399] fc7 -> fc7
I0403 12:56:12.328383 27053 net.cpp:141] Setting up fc7
I0403 12:56:12.328461 27053 net.cpp:148] Top shape: 100 4096 (409600)
I0403 12:56:12.328480 27053 net.cpp:156] Memory required for data: 828249200
I0403 12:56:12.328501 27053 layer_factory.hpp:77] Creating layer relu7
I0403 12:56:12.328524 27053 net.cpp:91] Creating Layer relu7
I0403 12:56:12.328544 27053 net.cpp:425] relu7 <- fc7
I0403 12:56:12.328569 27053 net.cpp:386] relu7 -> fc7 (in-place)
I0403 12:56:12.328972 27053 net.cpp:141] Setting up relu7
I0403 12:56:12.328999 27053 net.cpp:148] Top shape: 100 4096 (409600)
I0403 12:56:12.329047 27053 net.cpp:156] Memory required for data: 829887600
I0403 12:56:12.329064 27053 layer_factory.hpp:77] Creating layer drop7
I0403 12:56:12.329085 27053 net.cpp:91] Creating Layer drop7
I0403 12:56:12.329102 27053 net.cpp:425] drop7 <- fc7
I0403 12:56:12.329121 27053 net.cpp:386] drop7 -> fc7 (in-place)
I0403 12:56:12.329167 27053 net.cpp:141] Setting up drop7
I0403 12:56:12.329192 27053 net.cpp:148] Top shape: 100 4096 (409600)
I0403 12:56:12.329210 27053 net.cpp:156] Memory required for data: 831526000
I0403 12:56:12.329226 27053 layer_factory.hpp:77] Creating layer fc8_plantvillage
I0403 12:56:12.329246 27053 net.cpp:91] Creating Layer fc8_plantvillage
I0403 12:56:12.329262 27053 net.cpp:425] fc8_plantvillage <- fc7
I0403 12:56:12.329283 27053 net.cpp:399] fc8_plantvillage -> fc8_plantvillage
I0403 12:56:12.336035 27053 net.cpp:141] Setting up fc8_plantvillage
I0403 12:56:12.336064 27053 net.cpp:148] Top shape: 100 38 (3800)
I0403 12:56:12.336081 27053 net.cpp:156] Memory required for data: 831541200
I0403 12:56:12.336100 27053 layer_factory.hpp:77] Creating layer fc8_plantvillage_fc8_plantvillage_0_split
I0403 12:56:12.336119 27053 net.cpp:91] Creating Layer fc8_plantvillage_fc8_plantvillage_0_split
I0403 12:56:12.336136 27053 net.cpp:425] fc8_plantvillage_fc8_plantvillage_0_split <- fc8_plantvillage
I0403 12:56:12.336159 27053 net.cpp:399] fc8_plantvillage_fc8_plantvillage_0_split -> fc8_plantvillage_fc8_plantvillage_0_split_0
I0403 12:56:12.336181 27053 net.cpp:399] fc8_plantvillage_fc8_plantvillage_0_split -> fc8_plantvillage_fc8_plantvillage_0_split_1
I0403 12:56:12.336204 27053 net.cpp:399] fc8_plantvillage_fc8_plantvillage_0_split -> fc8_plantvillage_fc8_plantvillage_0_split_2
I0403 12:56:12.336282 27053 net.cpp:141] Setting up fc8_plantvillage_fc8_plantvillage_0_split
I0403 12:56:12.336307 27053 net.cpp:148] Top shape: 100 38 (3800)
I0403 12:56:12.336323 27053 net.cpp:148] Top shape: 100 38 (3800)
I0403 12:56:12.336339 27053 net.cpp:148] Top shape: 100 38 (3800)
I0403 12:56:12.336359 27053 net.cpp:156] Memory required for data: 831586800
I0403 12:56:12.336376 27053 layer_factory.hpp:77] Creating layer prob
I0403 12:56:12.336396 27053 net.cpp:91] Creating Layer prob
I0403 12:56:12.336411 27053 net.cpp:425] prob <- fc8_plantvillage_fc8_plantvillage_0_split_0
I0403 12:56:12.336432 27053 net.cpp:399] prob -> prob
I0403 12:56:12.336660 27053 net.cpp:141] Setting up prob
I0403 12:56:12.336688 27053 net.cpp:148] Top shape: 100 38 (3800)
I0403 12:56:12.336704 27053 net.cpp:156] Memory required for data: 831602000
I0403 12:56:12.336719 27053 layer_factory.hpp:77] Creating layer hdf5out
I0403 12:56:12.336738 27053 net.cpp:91] Creating Layer hdf5out
I0403 12:56:12.336755 27053 net.cpp:425] hdf5out <- prob
I0403 12:56:12.336771 27053 net.cpp:425] hdf5out <- label_data_1_split_0
I0403 12:56:12.340273 27053 net.cpp:141] Setting up hdf5out
…
