…
I0403 13:14:07.241819 27640 net.cpp:313] The NetState phase (1) differed from the phase (0) specified by a rule in layer data
I0403 13:14:07.242125 27640 net.cpp:49] Initializing net from parameters: 
state {
  phase: TEST
}
layer {
  name: "data"
  type: "Data"
  top: "data"
  top: "label"
  include {
    phase: TEST
  }
  transform_param {
    crop_size: 227
    mean_file: "/home/mohanty/data/final_dataset/lmdb/color-50-50/mean.binaryproto"
  }
  data_param {
    source: "/home/mohanty/data/final_dataset/lmdb/color-50-50/test_db"
    batch_size: 100
    backend: LMDB
  }
}
layer {
  name: "conv1"
  type: "Convolution"
  bottom: "data"
  top: "conv1"
  param {
    lr_mult: 1
    decay_mult: 1
  }
  param {
    lr_mult: 2
    decay_mult: 0
  }
  convolution_param {
    num_output: 96
    kernel_size: 11
    stride: 4
    weight_filler {
      type: "gaussian"
      std: 0.01
    }
    bias_filler {
      type: "constant"
      value: 0
    }
  }
}
layer {
  name: "relu1"
  type: "ReLU"
  bottom: "conv1"
  top: "conv1"
}
layer {
  name: "norm1"
  type: "LRN"
  bottom: "conv1"
  top: "norm1"
  lrn_param {
    local_size: 5
    alpha: 0.0001
    beta: 0.75
  }
}
layer {
  name: "pool1"
  type: "Pooling"
  bottom: "norm1"
  top: "pool1"
  pooling_param {
    pool: MAX
    kernel_size: 3
    stride: 2
  }
}
layer {
  name: "conv2"
  type: "Convolution"
  bottom: "pool1"
  top: "conv2"
  param {
    lr_mult: 1
    decay_mult: 1
  }
  param {
    lr_mult: 2
    decay_mult: 0
  }
  convolution_param {
    num_output: 256
    pad: 2
    kernel_size: 5
    group: 2
    weight_filler {
      type: "gaussian"
      std: 0.01
    }
    bias_filler {
      type: "constant"
      value: 0.1
    }
  }
}
layer {
  name: "relu2"
  type: "ReLU"
  bottom: "conv2"
  top: "conv2"
}
layer {
  name: "norm2"
  type: "LRN"
  bottom: "conv2"
  top: "norm2"
  lrn_param {
    local_size: 5
    alpha: 0.0001
    beta: 0.75
  }
}
layer {
  name: "pool2"
  type: "Pooling"
  bottom: "norm2"
  top: "pool2"
  pooling_param {
    pool: MAX
    kernel_size: 3
    stride: 2
  }
}
layer {
  name: "conv3"
  type: "Convolution"
  bottom: "pool2"
  top: "conv3"
  param {
    lr_mult: 1
    decay_mult: 1
  }
  param {
    lr_mult: 2
    decay_mult: 0
  }
  convolution_param {
    num_output: 384
    pad: 1
    kernel_size: 3
    weight_filler {
      type: "gaussian"
      std: 0.01
    }
    bias_filler {
      type: "constant"
      value: 0
    }
  }
}
layer {
  name: "relu3"
  type: "ReLU"
  bottom: "conv3"
  top: "conv3"
}
layer {
  name: "conv4"
  type: "Convolution"
  bottom: "conv3"
  top: "conv4"
  param {
    lr_mult: 1
    decay_mult: 1
  }
  param {
    lr_mult: 2
    decay_mult: 0
  }
  convolution_param {
    num_output: 384
    pad: 1
    kernel_size: 3
    group: 2
    weight_filler {
      type: "gaussian"
      std: 0.01
    }
    bias_filler {
      type: "constant"
      value: 0.1
    }
  }
}
layer {
  name: "relu4"
  type: "ReLU"
  bottom: "conv4"
  top: "conv4"
}
layer {
  name: "conv5"
  type: "Convolution"
  bottom: "conv4"
  top: "conv5"
  param {
    lr_mult: 1
    decay_mult: 1
  }
  param {
    lr_mult: 2
    decay_mult: 0
  }
  convolution_param {
    num_output: 256
    pad: 1
    kernel_size: 3
    group: 2
    weight_filler {
      type: "gaussian"
      std: 0.01
    }
    bias_filler {
      type: "constant"
      value: 0.1
    }
  }
}
layer {
  name: "relu5"
  type: "ReLU"
  bottom: "conv5"
  top: "conv5"
}
layer {
  name: "pool5"
  type: "Pooling"
  bottom: "conv5"
  top: "pool5"
  pooling_param {
    pool: MAX
    kernel_size: 3
    stride: 2
  }
}
layer {
  name: "fc6"
  type: "InnerProduct"
  bottom: "pool5"
  top: "fc6"
  param {
    lr_mult: 1
    decay_mult: 1
  }
  param {
    lr_mult: 2
    decay_mult: 0
  }
  inner_product_param {
    num_output: 4096
    weight_filler {
      type: "gaussian"
      std: 0.005
    }
    bias_filler {
      type: "constant"
      value: 0.1
    }
  }
}
layer {
  name: "relu6"
  type: "ReLU"
  bottom: "fc6"
  top: "fc6"
}
layer {
  name: "drop6"
  type: "Dropout"
  bottom: "fc6"
  top: "fc6"
  dropout_param {
    dropout_ratio: 0.5
  }
}
layer {
  name: "fc7"
  type: "InnerProduct"
  bottom: "fc6"
  top: "fc7"
  param {
    lr_mult: 1
    decay_mult: 1
  }
  param {
    lr_mult: 2
    decay_mult: 0
  }
  inner_product_param {
    num_output: 4096
    weight_filler {
      type: "gaussian"
      std: 0.005
    }
    bias_filler {
      type: "constant"
      value: 0.1
    }
  }
}
layer {
  name: "relu7"
  type: "ReLU"
  bottom: "fc7"
  top: "fc7"
}
layer {
  name: "drop7"
  type: "Dropout"
  bottom: "fc7"
  top: "fc7"
  dropout_param {
    dropout_ratio: 0.5
  }
}
layer {
  name: "fc8_plantvillage"
  type: "InnerProduct"
  bottom: "fc7"
  top: "fc8_plantvillage"
  param {
    lr_mult: 1
    decay_mult: 1
  }
  param {
    lr_mult: 2
    decay_mult: 0
  }
  inner_product_param {
    num_output: 38
    weight_filler {
      type: "gaussian"
      std: 0.01
    }
    bias_filler {
      type: "constant"
      value: 0
    }
  }
}
layer {
  name: "prob"
  type: "Softmax"
  bottom: "fc8_plantvillage"
  top: "prob"
  include {
    phase: TEST
  }
}
layer {
  name: "hdf5out"
  type: "HDF5Output"
  bottom: "prob"
  bottom: "label"
  include {
    phase: TEST
  }
  hdf5_output_param {
    file_name: "hdf5_dumps/iter_6187.h5"
  }
}
layer {
  name: "loss"
  type: "SoftmaxWithLoss"
  bottom: "fc8_plantvillage"
  bottom: "label"
  top: "loss"
}
layer {
  name: "accuracy"
  type: "Accuracy"
  bottom: "fc8_plantvillage"
  bottom: "label"
  top: "accuracy"
  include {
    phase: TEST
  }
}
I0403 13:14:07.242733 27640 layer_factory.hpp:77] Creating layer data
I0403 13:14:07.243391 27640 net.cpp:91] Creating Layer data
I0403 13:14:07.243425 27640 net.cpp:399] data -> data
I0403 13:14:07.243477 27640 net.cpp:399] data -> label
I0403 13:14:07.243515 27640 data_transformer.cpp:25] Loading mean file from: /home/mohanty/data/final_dataset/lmdb/color-50-50/mean.binaryproto
I0403 13:14:07.246479 27643 db_lmdb.cpp:38] Opened lmdb /home/mohanty/data/final_dataset/lmdb/color-50-50/test_db
I0403 13:14:07.258153 27640 data_layer.cpp:41] output data size: 100,3,227,227
I0403 13:14:07.378962 27640 net.cpp:141] Setting up data
I0403 13:14:07.379053 27640 net.cpp:148] Top shape: 100 3 227 227 (15458700)
I0403 13:14:07.379077 27640 net.cpp:148] Top shape: 100 (100)
I0403 13:14:07.379093 27640 net.cpp:156] Memory required for data: 61835200
I0403 13:14:07.379122 27640 layer_factory.hpp:77] Creating layer label_data_1_split
I0403 13:14:07.379149 27640 net.cpp:91] Creating Layer label_data_1_split
I0403 13:14:07.379169 27640 net.cpp:425] label_data_1_split <- label
I0403 13:14:07.379200 27640 net.cpp:399] label_data_1_split -> label_data_1_split_0
I0403 13:14:07.379228 27640 net.cpp:399] label_data_1_split -> label_data_1_split_1
I0403 13:14:07.379250 27640 net.cpp:399] label_data_1_split -> label_data_1_split_2
I0403 13:14:07.379318 27640 net.cpp:141] Setting up label_data_1_split
I0403 13:14:07.379344 27640 net.cpp:148] Top shape: 100 (100)
I0403 13:14:07.379362 27640 net.cpp:148] Top shape: 100 (100)
I0403 13:14:07.379379 27640 net.cpp:148] Top shape: 100 (100)
I0403 13:14:07.379395 27640 net.cpp:156] Memory required for data: 61836400
I0403 13:14:07.379410 27640 layer_factory.hpp:77] Creating layer conv1
I0403 13:14:07.379442 27640 net.cpp:91] Creating Layer conv1
I0403 13:14:07.379462 27640 net.cpp:425] conv1 <- data
I0403 13:14:07.379483 27640 net.cpp:399] conv1 -> conv1
I0403 13:14:07.523874 27640 net.cpp:141] Setting up conv1
I0403 13:14:07.523952 27640 net.cpp:148] Top shape: 100 96 55 55 (29040000)
I0403 13:14:07.523969 27640 net.cpp:156] Memory required for data: 177996400
I0403 13:14:07.524003 27640 layer_factory.hpp:77] Creating layer relu1
I0403 13:14:07.524031 27640 net.cpp:91] Creating Layer relu1
I0403 13:14:07.524050 27640 net.cpp:425] relu1 <- conv1
I0403 13:14:07.524070 27640 net.cpp:386] relu1 -> conv1 (in-place)
I0403 13:14:07.524330 27640 net.cpp:141] Setting up relu1
I0403 13:14:07.524363 27640 net.cpp:148] Top shape: 100 96 55 55 (29040000)
I0403 13:14:07.524380 27640 net.cpp:156] Memory required for data: 294156400
I0403 13:14:07.524430 27640 layer_factory.hpp:77] Creating layer norm1
I0403 13:14:07.524457 27640 net.cpp:91] Creating Layer norm1
I0403 13:14:07.524477 27640 net.cpp:425] norm1 <- conv1
I0403 13:14:07.524497 27640 net.cpp:399] norm1 -> norm1
I0403 13:14:07.524829 27640 net.cpp:141] Setting up norm1
I0403 13:14:07.524859 27640 net.cpp:148] Top shape: 100 96 55 55 (29040000)
I0403 13:14:07.524876 27640 net.cpp:156] Memory required for data: 410316400
I0403 13:14:07.524893 27640 layer_factory.hpp:77] Creating layer pool1
I0403 13:14:07.524919 27640 net.cpp:91] Creating Layer pool1
I0403 13:14:07.524936 27640 net.cpp:425] pool1 <- norm1
I0403 13:14:07.524955 27640 net.cpp:399] pool1 -> pool1
I0403 13:14:07.525030 27640 net.cpp:141] Setting up pool1
I0403 13:14:07.525056 27640 net.cpp:148] Top shape: 100 96 27 27 (6998400)
I0403 13:14:07.525084 27640 net.cpp:156] Memory required for data: 438310000
I0403 13:14:07.525100 27640 layer_factory.hpp:77] Creating layer conv2
I0403 13:14:07.525130 27640 net.cpp:91] Creating Layer conv2
I0403 13:14:07.525148 27640 net.cpp:425] conv2 <- pool1
I0403 13:14:07.525169 27640 net.cpp:399] conv2 -> conv2
I0403 13:14:07.540323 27640 net.cpp:141] Setting up conv2
I0403 13:14:07.540371 27640 net.cpp:148] Top shape: 100 256 27 27 (18662400)
I0403 13:14:07.540390 27640 net.cpp:156] Memory required for data: 512959600
I0403 13:14:07.540415 27640 layer_factory.hpp:77] Creating layer relu2
I0403 13:14:07.540438 27640 net.cpp:91] Creating Layer relu2
I0403 13:14:07.540457 27640 net.cpp:425] relu2 <- conv2
I0403 13:14:07.540491 27640 net.cpp:386] relu2 -> conv2 (in-place)
I0403 13:14:07.540783 27640 net.cpp:141] Setting up relu2
I0403 13:14:07.540812 27640 net.cpp:148] Top shape: 100 256 27 27 (18662400)
I0403 13:14:07.540828 27640 net.cpp:156] Memory required for data: 587609200
I0403 13:14:07.540844 27640 layer_factory.hpp:77] Creating layer norm2
I0403 13:14:07.540869 27640 net.cpp:91] Creating Layer norm2
I0403 13:14:07.540889 27640 net.cpp:425] norm2 <- conv2
I0403 13:14:07.540915 27640 net.cpp:399] norm2 -> norm2
I0403 13:14:07.541133 27640 net.cpp:141] Setting up norm2
I0403 13:14:07.541162 27640 net.cpp:148] Top shape: 100 256 27 27 (18662400)
I0403 13:14:07.541177 27640 net.cpp:156] Memory required for data: 662258800
I0403 13:14:07.541193 27640 layer_factory.hpp:77] Creating layer pool2
I0403 13:14:07.541213 27640 net.cpp:91] Creating Layer pool2
I0403 13:14:07.541229 27640 net.cpp:425] pool2 <- norm2
I0403 13:14:07.541249 27640 net.cpp:399] pool2 -> pool2
I0403 13:14:07.541309 27640 net.cpp:141] Setting up pool2
I0403 13:14:07.541339 27640 net.cpp:148] Top shape: 100 256 13 13 (4326400)
I0403 13:14:07.541354 27640 net.cpp:156] Memory required for data: 679564400
I0403 13:14:07.541369 27640 layer_factory.hpp:77] Creating layer conv3
I0403 13:14:07.541394 27640 net.cpp:91] Creating Layer conv3
I0403 13:14:07.541412 27640 net.cpp:425] conv3 <- pool2
I0403 13:14:07.541435 27640 net.cpp:399] conv3 -> conv3
I0403 13:14:07.586326 27640 net.cpp:141] Setting up conv3
I0403 13:14:07.586371 27640 net.cpp:148] Top shape: 100 384 13 13 (6489600)
I0403 13:14:07.586390 27640 net.cpp:156] Memory required for data: 705522800
I0403 13:14:07.586418 27640 layer_factory.hpp:77] Creating layer relu3
I0403 13:14:07.586443 27640 net.cpp:91] Creating Layer relu3
I0403 13:14:07.586462 27640 net.cpp:425] relu3 <- conv3
I0403 13:14:07.586482 27640 net.cpp:386] relu3 -> conv3 (in-place)
I0403 13:14:07.586758 27640 net.cpp:141] Setting up relu3
I0403 13:14:07.586786 27640 net.cpp:148] Top shape: 100 384 13 13 (6489600)
I0403 13:14:07.586802 27640 net.cpp:156] Memory required for data: 731481200
I0403 13:14:07.586817 27640 layer_factory.hpp:77] Creating layer conv4
I0403 13:14:07.586845 27640 net.cpp:91] Creating Layer conv4
I0403 13:14:07.586864 27640 net.cpp:425] conv4 <- conv3
I0403 13:14:07.586887 27640 net.cpp:399] conv4 -> conv4
I0403 13:14:07.616631 27640 net.cpp:141] Setting up conv4
I0403 13:14:07.616701 27640 net.cpp:148] Top shape: 100 384 13 13 (6489600)
I0403 13:14:07.616751 27640 net.cpp:156] Memory required for data: 757439600
I0403 13:14:07.616775 27640 layer_factory.hpp:77] Creating layer relu4
I0403 13:14:07.616801 27640 net.cpp:91] Creating Layer relu4
I0403 13:14:07.616819 27640 net.cpp:425] relu4 <- conv4
I0403 13:14:07.616840 27640 net.cpp:386] relu4 -> conv4 (in-place)
I0403 13:14:07.617120 27640 net.cpp:141] Setting up relu4
I0403 13:14:07.617149 27640 net.cpp:148] Top shape: 100 384 13 13 (6489600)
I0403 13:14:07.617169 27640 net.cpp:156] Memory required for data: 783398000
I0403 13:14:07.617187 27640 layer_factory.hpp:77] Creating layer conv5
I0403 13:14:07.617215 27640 net.cpp:91] Creating Layer conv5
I0403 13:14:07.617234 27640 net.cpp:425] conv5 <- conv4
I0403 13:14:07.617257 27640 net.cpp:399] conv5 -> conv5
I0403 13:14:07.637830 27640 net.cpp:141] Setting up conv5
I0403 13:14:07.637883 27640 net.cpp:148] Top shape: 100 256 13 13 (4326400)
I0403 13:14:07.637900 27640 net.cpp:156] Memory required for data: 800703600
I0403 13:14:07.637926 27640 layer_factory.hpp:77] Creating layer relu5
I0403 13:14:07.637951 27640 net.cpp:91] Creating Layer relu5
I0403 13:14:07.637970 27640 net.cpp:425] relu5 <- conv5
I0403 13:14:07.637989 27640 net.cpp:386] relu5 -> conv5 (in-place)
I0403 13:14:07.638279 27640 net.cpp:141] Setting up relu5
I0403 13:14:07.638306 27640 net.cpp:148] Top shape: 100 256 13 13 (4326400)
I0403 13:14:07.638327 27640 net.cpp:156] Memory required for data: 818009200
I0403 13:14:07.638344 27640 layer_factory.hpp:77] Creating layer pool5
I0403 13:14:07.638370 27640 net.cpp:91] Creating Layer pool5
I0403 13:14:07.638387 27640 net.cpp:425] pool5 <- conv5
I0403 13:14:07.638406 27640 net.cpp:399] pool5 -> pool5
I0403 13:14:07.638469 27640 net.cpp:141] Setting up pool5
I0403 13:14:07.638494 27640 net.cpp:148] Top shape: 100 256 6 6 (921600)
I0403 13:14:07.638509 27640 net.cpp:156] Memory required for data: 821695600
I0403 13:14:07.638525 27640 layer_factory.hpp:77] Creating layer fc6
I0403 13:14:07.638553 27640 net.cpp:91] Creating Layer fc6
I0403 13:14:07.638572 27640 net.cpp:425] fc6 <- pool5
I0403 13:14:07.638592 27640 net.cpp:399] fc6 -> fc6
I0403 13:14:09.194149 27640 net.cpp:141] Setting up fc6
I0403 13:14:09.194229 27640 net.cpp:148] Top shape: 100 4096 (409600)
I0403 13:14:09.194247 27640 net.cpp:156] Memory required for data: 823334000
I0403 13:14:09.194268 27640 layer_factory.hpp:77] Creating layer relu6
I0403 13:14:09.194290 27640 net.cpp:91] Creating Layer relu6
I0403 13:14:09.194308 27640 net.cpp:425] relu6 <- fc6
I0403 13:14:09.194337 27640 net.cpp:386] relu6 -> fc6 (in-place)
I0403 13:14:09.194584 27640 net.cpp:141] Setting up relu6
I0403 13:14:09.194612 27640 net.cpp:148] Top shape: 100 4096 (409600)
I0403 13:14:09.194627 27640 net.cpp:156] Memory required for data: 824972400
I0403 13:14:09.194643 27640 layer_factory.hpp:77] Creating layer drop6
I0403 13:14:09.194663 27640 net.cpp:91] Creating Layer drop6
I0403 13:14:09.194679 27640 net.cpp:425] drop6 <- fc6
I0403 13:14:09.194700 27640 net.cpp:386] drop6 -> fc6 (in-place)
I0403 13:14:09.194758 27640 net.cpp:141] Setting up drop6
I0403 13:14:09.194783 27640 net.cpp:148] Top shape: 100 4096 (409600)
I0403 13:14:09.194799 27640 net.cpp:156] Memory required for data: 826610800
I0403 13:14:09.194814 27640 layer_factory.hpp:77] Creating layer fc7
I0403 13:14:09.194835 27640 net.cpp:91] Creating Layer fc7
I0403 13:14:09.194852 27640 net.cpp:425] fc7 <- fc6
I0403 13:14:09.194876 27640 net.cpp:399] fc7 -> fc7
I0403 13:14:09.892757 27640 net.cpp:141] Setting up fc7
I0403 13:14:09.892832 27640 net.cpp:148] Top shape: 100 4096 (409600)
I0403 13:14:09.892848 27640 net.cpp:156] Memory required for data: 828249200
I0403 13:14:09.892870 27640 layer_factory.hpp:77] Creating layer relu7
I0403 13:14:09.892895 27640 net.cpp:91] Creating Layer relu7
I0403 13:14:09.892915 27640 net.cpp:425] relu7 <- fc7
I0403 13:14:09.892933 27640 net.cpp:386] relu7 -> fc7 (in-place)
I0403 13:14:09.893313 27640 net.cpp:141] Setting up relu7
I0403 13:14:09.893350 27640 net.cpp:148] Top shape: 100 4096 (409600)
I0403 13:14:09.893398 27640 net.cpp:156] Memory required for data: 829887600
I0403 13:14:09.893414 27640 layer_factory.hpp:77] Creating layer drop7
I0403 13:14:09.893436 27640 net.cpp:91] Creating Layer drop7
I0403 13:14:09.893453 27640 net.cpp:425] drop7 <- fc7
I0403 13:14:09.893471 27640 net.cpp:386] drop7 -> fc7 (in-place)
I0403 13:14:09.893513 27640 net.cpp:141] Setting up drop7
I0403 13:14:09.893538 27640 net.cpp:148] Top shape: 100 4096 (409600)
I0403 13:14:09.893553 27640 net.cpp:156] Memory required for data: 831526000
I0403 13:14:09.893568 27640 layer_factory.hpp:77] Creating layer fc8_plantvillage
I0403 13:14:09.893589 27640 net.cpp:91] Creating Layer fc8_plantvillage
I0403 13:14:09.893604 27640 net.cpp:425] fc8_plantvillage <- fc7
I0403 13:14:09.893623 27640 net.cpp:399] fc8_plantvillage -> fc8_plantvillage
I0403 13:14:09.900382 27640 net.cpp:141] Setting up fc8_plantvillage
I0403 13:14:09.900410 27640 net.cpp:148] Top shape: 100 38 (3800)
I0403 13:14:09.900426 27640 net.cpp:156] Memory required for data: 831541200
I0403 13:14:09.900445 27640 layer_factory.hpp:77] Creating layer fc8_plantvillage_fc8_plantvillage_0_split
I0403 13:14:09.900466 27640 net.cpp:91] Creating Layer fc8_plantvillage_fc8_plantvillage_0_split
I0403 13:14:09.900482 27640 net.cpp:425] fc8_plantvillage_fc8_plantvillage_0_split <- fc8_plantvillage
I0403 13:14:09.900501 27640 net.cpp:399] fc8_plantvillage_fc8_plantvillage_0_split -> fc8_plantvillage_fc8_plantvillage_0_split_0
I0403 13:14:09.900521 27640 net.cpp:399] fc8_plantvillage_fc8_plantvillage_0_split -> fc8_plantvillage_fc8_plantvillage_0_split_1
I0403 13:14:09.900540 27640 net.cpp:399] fc8_plantvillage_fc8_plantvillage_0_split -> fc8_plantvillage_fc8_plantvillage_0_split_2
I0403 13:14:09.900620 27640 net.cpp:141] Setting up fc8_plantvillage_fc8_plantvillage_0_split
I0403 13:14:09.900645 27640 net.cpp:148] Top shape: 100 38 (3800)
I0403 13:14:09.900660 27640 net.cpp:148] Top shape: 100 38 (3800)
I0403 13:14:09.900676 27640 net.cpp:148] Top shape: 100 38 (3800)
I0403 13:14:09.900689 27640 net.cpp:156] Memory required for data: 831586800
I0403 13:14:09.900706 27640 layer_factory.hpp:77] Creating layer prob
I0403 13:14:09.900724 27640 net.cpp:91] Creating Layer prob
I0403 13:14:09.900739 27640 net.cpp:425] prob <- fc8_plantvillage_fc8_plantvillage_0_split_0
I0403 13:14:09.900759 27640 net.cpp:399] prob -> prob
I0403 13:14:09.900988 27640 net.cpp:141] Setting up prob
I0403 13:14:09.901015 27640 net.cpp:148] Top shape: 100 38 (3800)
I0403 13:14:09.901031 27640 net.cpp:156] Memory required for data: 831602000
I0403 13:14:09.901046 27640 layer_factory.hpp:77] Creating layer hdf5out
I0403 13:14:09.901067 27640 net.cpp:91] Creating Layer hdf5out
I0403 13:14:09.901083 27640 net.cpp:425] hdf5out <- prob
I0403 13:14:09.901099 27640 net.cpp:425] hdf5out <- label_data_1_split_0
I0403 13:14:09.904795 27640 net.cpp:141] Setting up hdf5out
…
