…
I0403 13:15:59.701488 27684 net.cpp:313] The NetState phase (1) differed from the phase (0) specified by a rule in layer data
I0403 13:15:59.701782 27684 net.cpp:49] Initializing net from parameters: 
state {
  phase: TEST
}
layer {
  name: "data"
  type: "Data"
  top: "data"
  top: "label"
  include {
    phase: TEST
  }
  transform_param {
    crop_size: 227
    mean_file: "/home/mohanty/data/final_dataset/lmdb/color-50-50/mean.binaryproto"
  }
  data_param {
    source: "/home/mohanty/data/final_dataset/lmdb/color-50-50/test_db"
    batch_size: 100
    backend: LMDB
  }
}
layer {
  name: "conv1"
  type: "Convolution"
  bottom: "data"
  top: "conv1"
  param {
    lr_mult: 1
    decay_mult: 1
  }
  param {
    lr_mult: 2
    decay_mult: 0
  }
  convolution_param {
    num_output: 96
    kernel_size: 11
    stride: 4
    weight_filler {
      type: "gaussian"
      std: 0.01
    }
    bias_filler {
      type: "constant"
      value: 0
    }
  }
}
layer {
  name: "relu1"
  type: "ReLU"
  bottom: "conv1"
  top: "conv1"
}
layer {
  name: "norm1"
  type: "LRN"
  bottom: "conv1"
  top: "norm1"
  lrn_param {
    local_size: 5
    alpha: 0.0001
    beta: 0.75
  }
}
layer {
  name: "pool1"
  type: "Pooling"
  bottom: "norm1"
  top: "pool1"
  pooling_param {
    pool: MAX
    kernel_size: 3
    stride: 2
  }
}
layer {
  name: "conv2"
  type: "Convolution"
  bottom: "pool1"
  top: "conv2"
  param {
    lr_mult: 1
    decay_mult: 1
  }
  param {
    lr_mult: 2
    decay_mult: 0
  }
  convolution_param {
    num_output: 256
    pad: 2
    kernel_size: 5
    group: 2
    weight_filler {
      type: "gaussian"
      std: 0.01
    }
    bias_filler {
      type: "constant"
      value: 0.1
    }
  }
}
layer {
  name: "relu2"
  type: "ReLU"
  bottom: "conv2"
  top: "conv2"
}
layer {
  name: "norm2"
  type: "LRN"
  bottom: "conv2"
  top: "norm2"
  lrn_param {
    local_size: 5
    alpha: 0.0001
    beta: 0.75
  }
}
layer {
  name: "pool2"
  type: "Pooling"
  bottom: "norm2"
  top: "pool2"
  pooling_param {
    pool: MAX
    kernel_size: 3
    stride: 2
  }
}
layer {
  name: "conv3"
  type: "Convolution"
  bottom: "pool2"
  top: "conv3"
  param {
    lr_mult: 1
    decay_mult: 1
  }
  param {
    lr_mult: 2
    decay_mult: 0
  }
  convolution_param {
    num_output: 384
    pad: 1
    kernel_size: 3
    weight_filler {
      type: "gaussian"
      std: 0.01
    }
    bias_filler {
      type: "constant"
      value: 0
    }
  }
}
layer {
  name: "relu3"
  type: "ReLU"
  bottom: "conv3"
  top: "conv3"
}
layer {
  name: "conv4"
  type: "Convolution"
  bottom: "conv3"
  top: "conv4"
  param {
    lr_mult: 1
    decay_mult: 1
  }
  param {
    lr_mult: 2
    decay_mult: 0
  }
  convolution_param {
    num_output: 384
    pad: 1
    kernel_size: 3
    group: 2
    weight_filler {
      type: "gaussian"
      std: 0.01
    }
    bias_filler {
      type: "constant"
      value: 0.1
    }
  }
}
layer {
  name: "relu4"
  type: "ReLU"
  bottom: "conv4"
  top: "conv4"
}
layer {
  name: "conv5"
  type: "Convolution"
  bottom: "conv4"
  top: "conv5"
  param {
    lr_mult: 1
    decay_mult: 1
  }
  param {
    lr_mult: 2
    decay_mult: 0
  }
  convolution_param {
    num_output: 256
    pad: 1
    kernel_size: 3
    group: 2
    weight_filler {
      type: "gaussian"
      std: 0.01
    }
    bias_filler {
      type: "constant"
      value: 0.1
    }
  }
}
layer {
  name: "relu5"
  type: "ReLU"
  bottom: "conv5"
  top: "conv5"
}
layer {
  name: "pool5"
  type: "Pooling"
  bottom: "conv5"
  top: "pool5"
  pooling_param {
    pool: MAX
    kernel_size: 3
    stride: 2
  }
}
layer {
  name: "fc6"
  type: "InnerProduct"
  bottom: "pool5"
  top: "fc6"
  param {
    lr_mult: 1
    decay_mult: 1
  }
  param {
    lr_mult: 2
    decay_mult: 0
  }
  inner_product_param {
    num_output: 4096
    weight_filler {
      type: "gaussian"
      std: 0.005
    }
    bias_filler {
      type: "constant"
      value: 0.1
    }
  }
}
layer {
  name: "relu6"
  type: "ReLU"
  bottom: "fc6"
  top: "fc6"
}
layer {
  name: "drop6"
  type: "Dropout"
  bottom: "fc6"
  top: "fc6"
  dropout_param {
    dropout_ratio: 0.5
  }
}
layer {
  name: "fc7"
  type: "InnerProduct"
  bottom: "fc6"
  top: "fc7"
  param {
    lr_mult: 1
    decay_mult: 1
  }
  param {
    lr_mult: 2
    decay_mult: 0
  }
  inner_product_param {
    num_output: 4096
    weight_filler {
      type: "gaussian"
      std: 0.005
    }
    bias_filler {
      type: "constant"
      value: 0.1
    }
  }
}
layer {
  name: "relu7"
  type: "ReLU"
  bottom: "fc7"
  top: "fc7"
}
layer {
  name: "drop7"
  type: "Dropout"
  bottom: "fc7"
  top: "fc7"
  dropout_param {
    dropout_ratio: 0.5
  }
}
layer {
  name: "fc8_plantvillage"
  type: "InnerProduct"
  bottom: "fc7"
  top: "fc8_plantvillage"
  param {
    lr_mult: 1
    decay_mult: 1
  }
  param {
    lr_mult: 2
    decay_mult: 0
  }
  inner_product_param {
    num_output: 38
    weight_filler {
      type: "gaussian"
      std: 0.01
    }
    bias_filler {
      type: "constant"
      value: 0
    }
  }
}
layer {
  name: "prob"
  type: "Softmax"
  bottom: "fc8_plantvillage"
  top: "prob"
  include {
    phase: TEST
  }
}
layer {
  name: "hdf5out"
  type: "HDF5Output"
  bottom: "prob"
  bottom: "label"
  include {
    phase: TEST
  }
  hdf5_output_param {
    file_name: "hdf5_dumps/iter_6725.h5"
  }
}
layer {
  name: "loss"
  type: "SoftmaxWithLoss"
  bottom: "fc8_plantvillage"
  bottom: "label"
  top: "loss"
}
layer {
  name: "accuracy"
  type: "Accuracy"
  bottom: "fc8_plantvillage"
  bottom: "label"
  top: "accuracy"
  include {
    phase: TEST
  }
}
I0403 13:15:59.702368 27684 layer_factory.hpp:77] Creating layer data
I0403 13:15:59.703027 27684 net.cpp:91] Creating Layer data
I0403 13:15:59.703059 27684 net.cpp:399] data -> data
I0403 13:15:59.703110 27684 net.cpp:399] data -> label
I0403 13:15:59.703146 27684 data_transformer.cpp:25] Loading mean file from: /home/mohanty/data/final_dataset/lmdb/color-50-50/mean.binaryproto
I0403 13:15:59.706086 27687 db_lmdb.cpp:38] Opened lmdb /home/mohanty/data/final_dataset/lmdb/color-50-50/test_db
I0403 13:15:59.717728 27684 data_layer.cpp:41] output data size: 100,3,227,227
I0403 13:15:59.837424 27684 net.cpp:141] Setting up data
I0403 13:15:59.837484 27684 net.cpp:148] Top shape: 100 3 227 227 (15458700)
I0403 13:15:59.837507 27684 net.cpp:148] Top shape: 100 (100)
I0403 13:15:59.837524 27684 net.cpp:156] Memory required for data: 61835200
I0403 13:15:59.837553 27684 layer_factory.hpp:77] Creating layer label_data_1_split
I0403 13:15:59.837577 27684 net.cpp:91] Creating Layer label_data_1_split
I0403 13:15:59.837595 27684 net.cpp:425] label_data_1_split <- label
I0403 13:15:59.837628 27684 net.cpp:399] label_data_1_split -> label_data_1_split_0
I0403 13:15:59.837654 27684 net.cpp:399] label_data_1_split -> label_data_1_split_1
I0403 13:15:59.837677 27684 net.cpp:399] label_data_1_split -> label_data_1_split_2
I0403 13:15:59.837740 27684 net.cpp:141] Setting up label_data_1_split
I0403 13:15:59.837764 27684 net.cpp:148] Top shape: 100 (100)
I0403 13:15:59.837781 27684 net.cpp:148] Top shape: 100 (100)
I0403 13:15:59.837797 27684 net.cpp:148] Top shape: 100 (100)
I0403 13:15:59.837812 27684 net.cpp:156] Memory required for data: 61836400
I0403 13:15:59.837827 27684 layer_factory.hpp:77] Creating layer conv1
I0403 13:15:59.837860 27684 net.cpp:91] Creating Layer conv1
I0403 13:15:59.837878 27684 net.cpp:425] conv1 <- data
I0403 13:15:59.837898 27684 net.cpp:399] conv1 -> conv1
I0403 13:15:59.981597 27684 net.cpp:141] Setting up conv1
I0403 13:15:59.981660 27684 net.cpp:148] Top shape: 100 96 55 55 (29040000)
I0403 13:15:59.981678 27684 net.cpp:156] Memory required for data: 177996400
I0403 13:15:59.981712 27684 layer_factory.hpp:77] Creating layer relu1
I0403 13:15:59.981740 27684 net.cpp:91] Creating Layer relu1
I0403 13:15:59.981760 27684 net.cpp:425] relu1 <- conv1
I0403 13:15:59.981780 27684 net.cpp:386] relu1 -> conv1 (in-place)
I0403 13:15:59.982058 27684 net.cpp:141] Setting up relu1
I0403 13:15:59.982087 27684 net.cpp:148] Top shape: 100 96 55 55 (29040000)
I0403 13:15:59.982105 27684 net.cpp:156] Memory required for data: 294156400
I0403 13:15:59.982154 27684 layer_factory.hpp:77] Creating layer norm1
I0403 13:15:59.982184 27684 net.cpp:91] Creating Layer norm1
I0403 13:15:59.982203 27684 net.cpp:425] norm1 <- conv1
I0403 13:15:59.982225 27684 net.cpp:399] norm1 -> norm1
I0403 13:15:59.982640 27684 net.cpp:141] Setting up norm1
I0403 13:15:59.982671 27684 net.cpp:148] Top shape: 100 96 55 55 (29040000)
I0403 13:15:59.982687 27684 net.cpp:156] Memory required for data: 410316400
I0403 13:15:59.982704 27684 layer_factory.hpp:77] Creating layer pool1
I0403 13:15:59.982728 27684 net.cpp:91] Creating Layer pool1
I0403 13:15:59.982745 27684 net.cpp:425] pool1 <- norm1
I0403 13:15:59.982767 27684 net.cpp:399] pool1 -> pool1
I0403 13:15:59.982841 27684 net.cpp:141] Setting up pool1
I0403 13:15:59.982867 27684 net.cpp:148] Top shape: 100 96 27 27 (6998400)
I0403 13:15:59.982883 27684 net.cpp:156] Memory required for data: 438310000
I0403 13:15:59.982899 27684 layer_factory.hpp:77] Creating layer conv2
I0403 13:15:59.982931 27684 net.cpp:91] Creating Layer conv2
I0403 13:15:59.982950 27684 net.cpp:425] conv2 <- pool1
I0403 13:15:59.982970 27684 net.cpp:399] conv2 -> conv2
I0403 13:15:59.998760 27684 net.cpp:141] Setting up conv2
I0403 13:15:59.998814 27684 net.cpp:148] Top shape: 100 256 27 27 (18662400)
I0403 13:15:59.998833 27684 net.cpp:156] Memory required for data: 512959600
I0403 13:15:59.998858 27684 layer_factory.hpp:77] Creating layer relu2
I0403 13:15:59.998880 27684 net.cpp:91] Creating Layer relu2
I0403 13:15:59.998898 27684 net.cpp:425] relu2 <- conv2
I0403 13:15:59.998920 27684 net.cpp:386] relu2 -> conv2 (in-place)
I0403 13:15:59.999212 27684 net.cpp:141] Setting up relu2
I0403 13:15:59.999241 27684 net.cpp:148] Top shape: 100 256 27 27 (18662400)
I0403 13:15:59.999258 27684 net.cpp:156] Memory required for data: 587609200
I0403 13:15:59.999274 27684 layer_factory.hpp:77] Creating layer norm2
I0403 13:15:59.999299 27684 net.cpp:91] Creating Layer norm2
I0403 13:15:59.999322 27684 net.cpp:425] norm2 <- conv2
I0403 13:15:59.999343 27684 net.cpp:399] norm2 -> norm2
I0403 13:15:59.999555 27684 net.cpp:141] Setting up norm2
I0403 13:15:59.999585 27684 net.cpp:148] Top shape: 100 256 27 27 (18662400)
I0403 13:15:59.999603 27684 net.cpp:156] Memory required for data: 662258800
I0403 13:15:59.999620 27684 layer_factory.hpp:77] Creating layer pool2
I0403 13:15:59.999639 27684 net.cpp:91] Creating Layer pool2
I0403 13:15:59.999655 27684 net.cpp:425] pool2 <- norm2
I0403 13:15:59.999676 27684 net.cpp:399] pool2 -> pool2
I0403 13:15:59.999732 27684 net.cpp:141] Setting up pool2
I0403 13:15:59.999759 27684 net.cpp:148] Top shape: 100 256 13 13 (4326400)
I0403 13:15:59.999775 27684 net.cpp:156] Memory required for data: 679564400
I0403 13:15:59.999791 27684 layer_factory.hpp:77] Creating layer conv3
I0403 13:15:59.999815 27684 net.cpp:91] Creating Layer conv3
I0403 13:15:59.999832 27684 net.cpp:425] conv3 <- pool2
I0403 13:15:59.999855 27684 net.cpp:399] conv3 -> conv3
I0403 13:16:00.042215 27684 net.cpp:141] Setting up conv3
I0403 13:16:00.042289 27684 net.cpp:148] Top shape: 100 384 13 13 (6489600)
I0403 13:16:00.042305 27684 net.cpp:156] Memory required for data: 705522800
I0403 13:16:00.042340 27684 layer_factory.hpp:77] Creating layer relu3
I0403 13:16:00.042364 27684 net.cpp:91] Creating Layer relu3
I0403 13:16:00.042383 27684 net.cpp:425] relu3 <- conv3
I0403 13:16:00.042407 27684 net.cpp:386] relu3 -> conv3 (in-place)
I0403 13:16:00.042688 27684 net.cpp:141] Setting up relu3
I0403 13:16:00.042716 27684 net.cpp:148] Top shape: 100 384 13 13 (6489600)
I0403 13:16:00.042732 27684 net.cpp:156] Memory required for data: 731481200
I0403 13:16:00.042748 27684 layer_factory.hpp:77] Creating layer conv4
I0403 13:16:00.042775 27684 net.cpp:91] Creating Layer conv4
I0403 13:16:00.042793 27684 net.cpp:425] conv4 <- conv3
I0403 13:16:00.042814 27684 net.cpp:399] conv4 -> conv4
I0403 13:16:00.073695 27684 net.cpp:141] Setting up conv4
I0403 13:16:00.073768 27684 net.cpp:148] Top shape: 100 384 13 13 (6489600)
I0403 13:16:00.073848 27684 net.cpp:156] Memory required for data: 757439600
I0403 13:16:00.073875 27684 layer_factory.hpp:77] Creating layer relu4
I0403 13:16:00.073899 27684 net.cpp:91] Creating Layer relu4
I0403 13:16:00.073916 27684 net.cpp:425] relu4 <- conv4
I0403 13:16:00.073935 27684 net.cpp:386] relu4 -> conv4 (in-place)
I0403 13:16:00.074213 27684 net.cpp:141] Setting up relu4
I0403 13:16:00.074241 27684 net.cpp:148] Top shape: 100 384 13 13 (6489600)
I0403 13:16:00.074270 27684 net.cpp:156] Memory required for data: 783398000
I0403 13:16:00.074286 27684 layer_factory.hpp:77] Creating layer conv5
I0403 13:16:00.074336 27684 net.cpp:91] Creating Layer conv5
I0403 13:16:00.074357 27684 net.cpp:425] conv5 <- conv4
I0403 13:16:00.074379 27684 net.cpp:399] conv5 -> conv5
I0403 13:16:00.095052 27684 net.cpp:141] Setting up conv5
I0403 13:16:00.095098 27684 net.cpp:148] Top shape: 100 256 13 13 (4326400)
I0403 13:16:00.095118 27684 net.cpp:156] Memory required for data: 800703600
I0403 13:16:00.095142 27684 layer_factory.hpp:77] Creating layer relu5
I0403 13:16:00.095163 27684 net.cpp:91] Creating Layer relu5
I0403 13:16:00.095180 27684 net.cpp:425] relu5 <- conv5
I0403 13:16:00.095201 27684 net.cpp:386] relu5 -> conv5 (in-place)
I0403 13:16:00.095487 27684 net.cpp:141] Setting up relu5
I0403 13:16:00.095515 27684 net.cpp:148] Top shape: 100 256 13 13 (4326400)
I0403 13:16:00.095531 27684 net.cpp:156] Memory required for data: 818009200
I0403 13:16:00.095547 27684 layer_factory.hpp:77] Creating layer pool5
I0403 13:16:00.095572 27684 net.cpp:91] Creating Layer pool5
I0403 13:16:00.095590 27684 net.cpp:425] pool5 <- conv5
I0403 13:16:00.095610 27684 net.cpp:399] pool5 -> pool5
I0403 13:16:00.095674 27684 net.cpp:141] Setting up pool5
I0403 13:16:00.095697 27684 net.cpp:148] Top shape: 100 256 6 6 (921600)
I0403 13:16:00.095713 27684 net.cpp:156] Memory required for data: 821695600
I0403 13:16:00.095728 27684 layer_factory.hpp:77] Creating layer fc6
I0403 13:16:00.095755 27684 net.cpp:91] Creating Layer fc6
I0403 13:16:00.095774 27684 net.cpp:425] fc6 <- pool5
I0403 13:16:00.095795 27684 net.cpp:399] fc6 -> fc6
I0403 13:16:01.669705 27684 net.cpp:141] Setting up fc6
I0403 13:16:01.669782 27684 net.cpp:148] Top shape: 100 4096 (409600)
I0403 13:16:01.669800 27684 net.cpp:156] Memory required for data: 823334000
I0403 13:16:01.669822 27684 layer_factory.hpp:77] Creating layer relu6
I0403 13:16:01.669847 27684 net.cpp:91] Creating Layer relu6
I0403 13:16:01.669864 27684 net.cpp:425] relu6 <- fc6
I0403 13:16:01.669884 27684 net.cpp:386] relu6 -> fc6 (in-place)
I0403 13:16:01.670112 27684 net.cpp:141] Setting up relu6
I0403 13:16:01.670140 27684 net.cpp:148] Top shape: 100 4096 (409600)
I0403 13:16:01.670156 27684 net.cpp:156] Memory required for data: 824972400
I0403 13:16:01.670171 27684 layer_factory.hpp:77] Creating layer drop6
I0403 13:16:01.670191 27684 net.cpp:91] Creating Layer drop6
I0403 13:16:01.670205 27684 net.cpp:425] drop6 <- fc6
I0403 13:16:01.670225 27684 net.cpp:386] drop6 -> fc6 (in-place)
I0403 13:16:01.670276 27684 net.cpp:141] Setting up drop6
I0403 13:16:01.670300 27684 net.cpp:148] Top shape: 100 4096 (409600)
I0403 13:16:01.670321 27684 net.cpp:156] Memory required for data: 826610800
I0403 13:16:01.670338 27684 layer_factory.hpp:77] Creating layer fc7
I0403 13:16:01.670362 27684 net.cpp:91] Creating Layer fc7
I0403 13:16:01.670379 27684 net.cpp:425] fc7 <- fc6
I0403 13:16:01.670399 27684 net.cpp:399] fc7 -> fc7
I0403 13:16:02.362681 27684 net.cpp:141] Setting up fc7
I0403 13:16:02.362756 27684 net.cpp:148] Top shape: 100 4096 (409600)
I0403 13:16:02.362773 27684 net.cpp:156] Memory required for data: 828249200
I0403 13:16:02.362793 27684 layer_factory.hpp:77] Creating layer relu7
I0403 13:16:02.362818 27684 net.cpp:91] Creating Layer relu7
I0403 13:16:02.362834 27684 net.cpp:425] relu7 <- fc7
I0403 13:16:02.362857 27684 net.cpp:386] relu7 -> fc7 (in-place)
I0403 13:16:02.363257 27684 net.cpp:141] Setting up relu7
I0403 13:16:02.363284 27684 net.cpp:148] Top shape: 100 4096 (409600)
I0403 13:16:02.363344 27684 net.cpp:156] Memory required for data: 829887600
I0403 13:16:02.363361 27684 layer_factory.hpp:77] Creating layer drop7
I0403 13:16:02.363382 27684 net.cpp:91] Creating Layer drop7
I0403 13:16:02.363399 27684 net.cpp:425] drop7 <- fc7
I0403 13:16:02.363420 27684 net.cpp:386] drop7 -> fc7 (in-place)
I0403 13:16:02.363464 27684 net.cpp:141] Setting up drop7
I0403 13:16:02.363487 27684 net.cpp:148] Top shape: 100 4096 (409600)
I0403 13:16:02.363502 27684 net.cpp:156] Memory required for data: 831526000
I0403 13:16:02.363517 27684 layer_factory.hpp:77] Creating layer fc8_plantvillage
I0403 13:16:02.363540 27684 net.cpp:91] Creating Layer fc8_plantvillage
I0403 13:16:02.363557 27684 net.cpp:425] fc8_plantvillage <- fc7
I0403 13:16:02.363576 27684 net.cpp:399] fc8_plantvillage -> fc8_plantvillage
I0403 13:16:02.370396 27684 net.cpp:141] Setting up fc8_plantvillage
I0403 13:16:02.370425 27684 net.cpp:148] Top shape: 100 38 (3800)
I0403 13:16:02.370442 27684 net.cpp:156] Memory required for data: 831541200
I0403 13:16:02.370461 27684 layer_factory.hpp:77] Creating layer fc8_plantvillage_fc8_plantvillage_0_split
I0403 13:16:02.370479 27684 net.cpp:91] Creating Layer fc8_plantvillage_fc8_plantvillage_0_split
I0403 13:16:02.370496 27684 net.cpp:425] fc8_plantvillage_fc8_plantvillage_0_split <- fc8_plantvillage
I0403 13:16:02.370515 27684 net.cpp:399] fc8_plantvillage_fc8_plantvillage_0_split -> fc8_plantvillage_fc8_plantvillage_0_split_0
I0403 13:16:02.370535 27684 net.cpp:399] fc8_plantvillage_fc8_plantvillage_0_split -> fc8_plantvillage_fc8_plantvillage_0_split_1
I0403 13:16:02.370556 27684 net.cpp:399] fc8_plantvillage_fc8_plantvillage_0_split -> fc8_plantvillage_fc8_plantvillage_0_split_2
I0403 13:16:02.370635 27684 net.cpp:141] Setting up fc8_plantvillage_fc8_plantvillage_0_split
I0403 13:16:02.370663 27684 net.cpp:148] Top shape: 100 38 (3800)
I0403 13:16:02.370682 27684 net.cpp:148] Top shape: 100 38 (3800)
I0403 13:16:02.370698 27684 net.cpp:148] Top shape: 100 38 (3800)
I0403 13:16:02.370712 27684 net.cpp:156] Memory required for data: 831586800
I0403 13:16:02.370726 27684 layer_factory.hpp:77] Creating layer prob
I0403 13:16:02.370745 27684 net.cpp:91] Creating Layer prob
I0403 13:16:02.370762 27684 net.cpp:425] prob <- fc8_plantvillage_fc8_plantvillage_0_split_0
I0403 13:16:02.370780 27684 net.cpp:399] prob -> prob
I0403 13:16:02.371002 27684 net.cpp:141] Setting up prob
I0403 13:16:02.371031 27684 net.cpp:148] Top shape: 100 38 (3800)
I0403 13:16:02.371045 27684 net.cpp:156] Memory required for data: 831602000
I0403 13:16:02.371062 27684 layer_factory.hpp:77] Creating layer hdf5out
I0403 13:16:02.371081 27684 net.cpp:91] Creating Layer hdf5out
I0403 13:16:02.371098 27684 net.cpp:425] hdf5out <- prob
I0403 13:16:02.371115 27684 net.cpp:425] hdf5out <- label_data_1_split_0
I0403 13:16:02.375010 27684 net.cpp:141] Setting up hdf5out
…
