…
I0403 13:19:47.137107 27785 net.cpp:313] The NetState phase (1) differed from the phase (0) specified by a rule in layer data
I0403 13:19:47.137420 27785 net.cpp:49] Initializing net from parameters: 
state {
  phase: TEST
}
layer {
  name: "data"
  type: "Data"
  top: "data"
  top: "label"
  include {
    phase: TEST
  }
  transform_param {
    crop_size: 227
    mean_file: "/home/mohanty/data/final_dataset/lmdb/color-50-50/mean.binaryproto"
  }
  data_param {
    source: "/home/mohanty/data/final_dataset/lmdb/color-50-50/test_db"
    batch_size: 100
    backend: LMDB
  }
}
layer {
  name: "conv1"
  type: "Convolution"
  bottom: "data"
  top: "conv1"
  param {
    lr_mult: 1
    decay_mult: 1
  }
  param {
    lr_mult: 2
    decay_mult: 0
  }
  convolution_param {
    num_output: 96
    kernel_size: 11
    stride: 4
    weight_filler {
      type: "gaussian"
      std: 0.01
    }
    bias_filler {
      type: "constant"
      value: 0
    }
  }
}
layer {
  name: "relu1"
  type: "ReLU"
  bottom: "conv1"
  top: "conv1"
}
layer {
  name: "norm1"
  type: "LRN"
  bottom: "conv1"
  top: "norm1"
  lrn_param {
    local_size: 5
    alpha: 0.0001
    beta: 0.75
  }
}
layer {
  name: "pool1"
  type: "Pooling"
  bottom: "norm1"
  top: "pool1"
  pooling_param {
    pool: MAX
    kernel_size: 3
    stride: 2
  }
}
layer {
  name: "conv2"
  type: "Convolution"
  bottom: "pool1"
  top: "conv2"
  param {
    lr_mult: 1
    decay_mult: 1
  }
  param {
    lr_mult: 2
    decay_mult: 0
  }
  convolution_param {
    num_output: 256
    pad: 2
    kernel_size: 5
    group: 2
    weight_filler {
      type: "gaussian"
      std: 0.01
    }
    bias_filler {
      type: "constant"
      value: 0.1
    }
  }
}
layer {
  name: "relu2"
  type: "ReLU"
  bottom: "conv2"
  top: "conv2"
}
layer {
  name: "norm2"
  type: "LRN"
  bottom: "conv2"
  top: "norm2"
  lrn_param {
    local_size: 5
    alpha: 0.0001
    beta: 0.75
  }
}
layer {
  name: "pool2"
  type: "Pooling"
  bottom: "norm2"
  top: "pool2"
  pooling_param {
    pool: MAX
    kernel_size: 3
    stride: 2
  }
}
layer {
  name: "conv3"
  type: "Convolution"
  bottom: "pool2"
  top: "conv3"
  param {
    lr_mult: 1
    decay_mult: 1
  }
  param {
    lr_mult: 2
    decay_mult: 0
  }
  convolution_param {
    num_output: 384
    pad: 1
    kernel_size: 3
    weight_filler {
      type: "gaussian"
      std: 0.01
    }
    bias_filler {
      type: "constant"
      value: 0
    }
  }
}
layer {
  name: "relu3"
  type: "ReLU"
  bottom: "conv3"
  top: "conv3"
}
layer {
  name: "conv4"
  type: "Convolution"
  bottom: "conv3"
  top: "conv4"
  param {
    lr_mult: 1
    decay_mult: 1
  }
  param {
    lr_mult: 2
    decay_mult: 0
  }
  convolution_param {
    num_output: 384
    pad: 1
    kernel_size: 3
    group: 2
    weight_filler {
      type: "gaussian"
      std: 0.01
    }
    bias_filler {
      type: "constant"
      value: 0.1
    }
  }
}
layer {
  name: "relu4"
  type: "ReLU"
  bottom: "conv4"
  top: "conv4"
}
layer {
  name: "conv5"
  type: "Convolution"
  bottom: "conv4"
  top: "conv5"
  param {
    lr_mult: 1
    decay_mult: 1
  }
  param {
    lr_mult: 2
    decay_mult: 0
  }
  convolution_param {
    num_output: 256
    pad: 1
    kernel_size: 3
    group: 2
    weight_filler {
      type: "gaussian"
      std: 0.01
    }
    bias_filler {
      type: "constant"
      value: 0.1
    }
  }
}
layer {
  name: "relu5"
  type: "ReLU"
  bottom: "conv5"
  top: "conv5"
}
layer {
  name: "pool5"
  type: "Pooling"
  bottom: "conv5"
  top: "pool5"
  pooling_param {
    pool: MAX
    kernel_size: 3
    stride: 2
  }
}
layer {
  name: "fc6"
  type: "InnerProduct"
  bottom: "pool5"
  top: "fc6"
  param {
    lr_mult: 1
    decay_mult: 1
  }
  param {
    lr_mult: 2
    decay_mult: 0
  }
  inner_product_param {
    num_output: 4096
    weight_filler {
      type: "gaussian"
      std: 0.005
    }
    bias_filler {
      type: "constant"
      value: 0.1
    }
  }
}
layer {
  name: "relu6"
  type: "ReLU"
  bottom: "fc6"
  top: "fc6"
}
layer {
  name: "drop6"
  type: "Dropout"
  bottom: "fc6"
  top: "fc6"
  dropout_param {
    dropout_ratio: 0.5
  }
}
layer {
  name: "fc7"
  type: "InnerProduct"
  bottom: "fc6"
  top: "fc7"
  param {
    lr_mult: 1
    decay_mult: 1
  }
  param {
    lr_mult: 2
    decay_mult: 0
  }
  inner_product_param {
    num_output: 4096
    weight_filler {
      type: "gaussian"
      std: 0.005
    }
    bias_filler {
      type: "constant"
      value: 0.1
    }
  }
}
layer {
  name: "relu7"
  type: "ReLU"
  bottom: "fc7"
  top: "fc7"
}
layer {
  name: "drop7"
  type: "Dropout"
  bottom: "fc7"
  top: "fc7"
  dropout_param {
    dropout_ratio: 0.5
  }
}
layer {
  name: "fc8_plantvillage"
  type: "InnerProduct"
  bottom: "fc7"
  top: "fc8_plantvillage"
  param {
    lr_mult: 1
    decay_mult: 1
  }
  param {
    lr_mult: 2
    decay_mult: 0
  }
  inner_product_param {
    num_output: 38
    weight_filler {
      type: "gaussian"
      std: 0.01
    }
    bias_filler {
      type: "constant"
      value: 0
    }
  }
}
layer {
  name: "prob"
  type: "Softmax"
  bottom: "fc8_plantvillage"
  top: "prob"
  include {
    phase: TEST
  }
}
layer {
  name: "hdf5out"
  type: "HDF5Output"
  bottom: "prob"
  bottom: "label"
  include {
    phase: TEST
  }
  hdf5_output_param {
    file_name: "hdf5_dumps/iter_7801.h5"
  }
}
layer {
  name: "loss"
  type: "SoftmaxWithLoss"
  bottom: "fc8_plantvillage"
  bottom: "label"
  top: "loss"
}
layer {
  name: "accuracy"
  type: "Accuracy"
  bottom: "fc8_plantvillage"
  bottom: "label"
  top: "accuracy"
  include {
    phase: TEST
  }
}
I0403 13:19:47.138016 27785 layer_factory.hpp:77] Creating layer data
I0403 13:19:47.138720 27785 net.cpp:91] Creating Layer data
I0403 13:19:47.138751 27785 net.cpp:399] data -> data
I0403 13:19:47.138806 27785 net.cpp:399] data -> label
I0403 13:19:47.138845 27785 data_transformer.cpp:25] Loading mean file from: /home/mohanty/data/final_dataset/lmdb/color-50-50/mean.binaryproto
I0403 13:19:47.141172 27788 db_lmdb.cpp:38] Opened lmdb /home/mohanty/data/final_dataset/lmdb/color-50-50/test_db
I0403 13:19:47.153589 27785 data_layer.cpp:41] output data size: 100,3,227,227
I0403 13:19:47.275749 27785 net.cpp:141] Setting up data
I0403 13:19:47.275846 27785 net.cpp:148] Top shape: 100 3 227 227 (15458700)
I0403 13:19:47.275871 27785 net.cpp:148] Top shape: 100 (100)
I0403 13:19:47.275887 27785 net.cpp:156] Memory required for data: 61835200
I0403 13:19:47.275918 27785 layer_factory.hpp:77] Creating layer label_data_1_split
I0403 13:19:47.275943 27785 net.cpp:91] Creating Layer label_data_1_split
I0403 13:19:47.275962 27785 net.cpp:425] label_data_1_split <- label
I0403 13:19:47.275995 27785 net.cpp:399] label_data_1_split -> label_data_1_split_0
I0403 13:19:47.276024 27785 net.cpp:399] label_data_1_split -> label_data_1_split_1
I0403 13:19:47.276047 27785 net.cpp:399] label_data_1_split -> label_data_1_split_2
I0403 13:19:47.276115 27785 net.cpp:141] Setting up label_data_1_split
I0403 13:19:47.276141 27785 net.cpp:148] Top shape: 100 (100)
I0403 13:19:47.276160 27785 net.cpp:148] Top shape: 100 (100)
I0403 13:19:47.276176 27785 net.cpp:148] Top shape: 100 (100)
I0403 13:19:47.276191 27785 net.cpp:156] Memory required for data: 61836400
I0403 13:19:47.276208 27785 layer_factory.hpp:77] Creating layer conv1
I0403 13:19:47.276242 27785 net.cpp:91] Creating Layer conv1
I0403 13:19:47.276265 27785 net.cpp:425] conv1 <- data
I0403 13:19:47.276285 27785 net.cpp:399] conv1 -> conv1
I0403 13:19:47.421308 27785 net.cpp:141] Setting up conv1
I0403 13:19:47.421391 27785 net.cpp:148] Top shape: 100 96 55 55 (29040000)
I0403 13:19:47.421411 27785 net.cpp:156] Memory required for data: 177996400
I0403 13:19:47.421447 27785 layer_factory.hpp:77] Creating layer relu1
I0403 13:19:47.421476 27785 net.cpp:91] Creating Layer relu1
I0403 13:19:47.421496 27785 net.cpp:425] relu1 <- conv1
I0403 13:19:47.421519 27785 net.cpp:386] relu1 -> conv1 (in-place)
I0403 13:19:47.421808 27785 net.cpp:141] Setting up relu1
I0403 13:19:47.421839 27785 net.cpp:148] Top shape: 100 96 55 55 (29040000)
I0403 13:19:47.421857 27785 net.cpp:156] Memory required for data: 294156400
I0403 13:19:47.421906 27785 layer_factory.hpp:77] Creating layer norm1
I0403 13:19:47.421936 27785 net.cpp:91] Creating Layer norm1
I0403 13:19:47.421957 27785 net.cpp:425] norm1 <- conv1
I0403 13:19:47.421979 27785 net.cpp:399] norm1 -> norm1
I0403 13:19:47.422325 27785 net.cpp:141] Setting up norm1
I0403 13:19:47.422358 27785 net.cpp:148] Top shape: 100 96 55 55 (29040000)
I0403 13:19:47.422379 27785 net.cpp:156] Memory required for data: 410316400
I0403 13:19:47.422396 27785 layer_factory.hpp:77] Creating layer pool1
I0403 13:19:47.422425 27785 net.cpp:91] Creating Layer pool1
I0403 13:19:47.422446 27785 net.cpp:425] pool1 <- norm1
I0403 13:19:47.422467 27785 net.cpp:399] pool1 -> pool1
I0403 13:19:47.422540 27785 net.cpp:141] Setting up pool1
I0403 13:19:47.422566 27785 net.cpp:148] Top shape: 100 96 27 27 (6998400)
I0403 13:19:47.422582 27785 net.cpp:156] Memory required for data: 438310000
I0403 13:19:47.422600 27785 layer_factory.hpp:77] Creating layer conv2
I0403 13:19:47.422628 27785 net.cpp:91] Creating Layer conv2
I0403 13:19:47.422648 27785 net.cpp:425] conv2 <- pool1
I0403 13:19:47.422668 27785 net.cpp:399] conv2 -> conv2
I0403 13:19:47.438143 27785 net.cpp:141] Setting up conv2
I0403 13:19:47.438189 27785 net.cpp:148] Top shape: 100 256 27 27 (18662400)
I0403 13:19:47.438208 27785 net.cpp:156] Memory required for data: 512959600
I0403 13:19:47.438233 27785 layer_factory.hpp:77] Creating layer relu2
I0403 13:19:47.438256 27785 net.cpp:91] Creating Layer relu2
I0403 13:19:47.438274 27785 net.cpp:425] relu2 <- conv2
I0403 13:19:47.438297 27785 net.cpp:386] relu2 -> conv2 (in-place)
I0403 13:19:47.438587 27785 net.cpp:141] Setting up relu2
I0403 13:19:47.438617 27785 net.cpp:148] Top shape: 100 256 27 27 (18662400)
I0403 13:19:47.438634 27785 net.cpp:156] Memory required for data: 587609200
I0403 13:19:47.438650 27785 layer_factory.hpp:77] Creating layer norm2
I0403 13:19:47.438674 27785 net.cpp:91] Creating Layer norm2
I0403 13:19:47.438694 27785 net.cpp:425] norm2 <- conv2
I0403 13:19:47.438714 27785 net.cpp:399] norm2 -> norm2
I0403 13:19:47.438938 27785 net.cpp:141] Setting up norm2
I0403 13:19:47.438966 27785 net.cpp:148] Top shape: 100 256 27 27 (18662400)
I0403 13:19:47.438982 27785 net.cpp:156] Memory required for data: 662258800
I0403 13:19:47.438997 27785 layer_factory.hpp:77] Creating layer pool2
I0403 13:19:47.439018 27785 net.cpp:91] Creating Layer pool2
I0403 13:19:47.439034 27785 net.cpp:425] pool2 <- norm2
I0403 13:19:47.439056 27785 net.cpp:399] pool2 -> pool2
I0403 13:19:47.439112 27785 net.cpp:141] Setting up pool2
I0403 13:19:47.439139 27785 net.cpp:148] Top shape: 100 256 13 13 (4326400)
I0403 13:19:47.439157 27785 net.cpp:156] Memory required for data: 679564400
I0403 13:19:47.439172 27785 layer_factory.hpp:77] Creating layer conv3
I0403 13:19:47.439198 27785 net.cpp:91] Creating Layer conv3
I0403 13:19:47.439216 27785 net.cpp:425] conv3 <- pool2
I0403 13:19:47.439237 27785 net.cpp:399] conv3 -> conv3
I0403 13:19:47.484572 27785 net.cpp:141] Setting up conv3
I0403 13:19:47.484647 27785 net.cpp:148] Top shape: 100 384 13 13 (6489600)
I0403 13:19:47.484666 27785 net.cpp:156] Memory required for data: 705522800
I0403 13:19:47.484694 27785 layer_factory.hpp:77] Creating layer relu3
I0403 13:19:47.484719 27785 net.cpp:91] Creating Layer relu3
I0403 13:19:47.484738 27785 net.cpp:425] relu3 <- conv3
I0403 13:19:47.484761 27785 net.cpp:386] relu3 -> conv3 (in-place)
I0403 13:19:47.486923 27785 net.cpp:141] Setting up relu3
I0403 13:19:47.486953 27785 net.cpp:148] Top shape: 100 384 13 13 (6489600)
I0403 13:19:47.486971 27785 net.cpp:156] Memory required for data: 731481200
I0403 13:19:47.486989 27785 layer_factory.hpp:77] Creating layer conv4
I0403 13:19:47.487015 27785 net.cpp:91] Creating Layer conv4
I0403 13:19:47.487035 27785 net.cpp:425] conv4 <- conv3
I0403 13:19:47.487057 27785 net.cpp:399] conv4 -> conv4
I0403 13:19:47.518468 27785 net.cpp:141] Setting up conv4
I0403 13:19:47.518538 27785 net.cpp:148] Top shape: 100 384 13 13 (6489600)
I0403 13:19:47.518591 27785 net.cpp:156] Memory required for data: 757439600
I0403 13:19:47.518616 27785 layer_factory.hpp:77] Creating layer relu4
I0403 13:19:47.518640 27785 net.cpp:91] Creating Layer relu4
I0403 13:19:47.518659 27785 net.cpp:425] relu4 <- conv4
I0403 13:19:47.518683 27785 net.cpp:386] relu4 -> conv4 (in-place)
I0403 13:19:47.518976 27785 net.cpp:141] Setting up relu4
I0403 13:19:47.519008 27785 net.cpp:148] Top shape: 100 384 13 13 (6489600)
I0403 13:19:47.519027 27785 net.cpp:156] Memory required for data: 783398000
I0403 13:19:47.519044 27785 layer_factory.hpp:77] Creating layer conv5
I0403 13:19:47.519071 27785 net.cpp:91] Creating Layer conv5
I0403 13:19:47.519091 27785 net.cpp:425] conv5 <- conv4
I0403 13:19:47.519111 27785 net.cpp:399] conv5 -> conv5
I0403 13:19:47.540601 27785 net.cpp:141] Setting up conv5
I0403 13:19:47.540657 27785 net.cpp:148] Top shape: 100 256 13 13 (4326400)
I0403 13:19:47.540678 27785 net.cpp:156] Memory required for data: 800703600
I0403 13:19:47.540705 27785 layer_factory.hpp:77] Creating layer relu5
I0403 13:19:47.540729 27785 net.cpp:91] Creating Layer relu5
I0403 13:19:47.540747 27785 net.cpp:425] relu5 <- conv5
I0403 13:19:47.540771 27785 net.cpp:386] relu5 -> conv5 (in-place)
I0403 13:19:47.541069 27785 net.cpp:141] Setting up relu5
I0403 13:19:47.541098 27785 net.cpp:148] Top shape: 100 256 13 13 (4326400)
I0403 13:19:47.541115 27785 net.cpp:156] Memory required for data: 818009200
I0403 13:19:47.541131 27785 layer_factory.hpp:77] Creating layer pool5
I0403 13:19:47.541157 27785 net.cpp:91] Creating Layer pool5
I0403 13:19:47.541174 27785 net.cpp:425] pool5 <- conv5
I0403 13:19:47.541194 27785 net.cpp:399] pool5 -> pool5
I0403 13:19:47.541260 27785 net.cpp:141] Setting up pool5
I0403 13:19:47.541285 27785 net.cpp:148] Top shape: 100 256 6 6 (921600)
I0403 13:19:47.541301 27785 net.cpp:156] Memory required for data: 821695600
I0403 13:19:47.541321 27785 layer_factory.hpp:77] Creating layer fc6
I0403 13:19:47.541349 27785 net.cpp:91] Creating Layer fc6
I0403 13:19:47.541369 27785 net.cpp:425] fc6 <- pool5
I0403 13:19:47.541391 27785 net.cpp:399] fc6 -> fc6
I0403 13:19:49.096418 27785 net.cpp:141] Setting up fc6
I0403 13:19:49.096494 27785 net.cpp:148] Top shape: 100 4096 (409600)
I0403 13:19:49.096513 27785 net.cpp:156] Memory required for data: 823334000
I0403 13:19:49.096534 27785 layer_factory.hpp:77] Creating layer relu6
I0403 13:19:49.096556 27785 net.cpp:91] Creating Layer relu6
I0403 13:19:49.096575 27785 net.cpp:425] relu6 <- fc6
I0403 13:19:49.096593 27785 net.cpp:386] relu6 -> fc6 (in-place)
I0403 13:19:49.096810 27785 net.cpp:141] Setting up relu6
I0403 13:19:49.096837 27785 net.cpp:148] Top shape: 100 4096 (409600)
I0403 13:19:49.096853 27785 net.cpp:156] Memory required for data: 824972400
I0403 13:19:49.096869 27785 layer_factory.hpp:77] Creating layer drop6
I0403 13:19:49.096889 27785 net.cpp:91] Creating Layer drop6
I0403 13:19:49.096905 27785 net.cpp:425] drop6 <- fc6
I0403 13:19:49.096925 27785 net.cpp:386] drop6 -> fc6 (in-place)
I0403 13:19:49.096976 27785 net.cpp:141] Setting up drop6
I0403 13:19:49.097000 27785 net.cpp:148] Top shape: 100 4096 (409600)
I0403 13:19:49.097015 27785 net.cpp:156] Memory required for data: 826610800
I0403 13:19:49.097031 27785 layer_factory.hpp:77] Creating layer fc7
I0403 13:19:49.097054 27785 net.cpp:91] Creating Layer fc7
I0403 13:19:49.097071 27785 net.cpp:425] fc7 <- fc6
I0403 13:19:49.097091 27785 net.cpp:399] fc7 -> fc7
I0403 13:19:49.780808 27785 net.cpp:141] Setting up fc7
I0403 13:19:49.780864 27785 net.cpp:148] Top shape: 100 4096 (409600)
I0403 13:19:49.780880 27785 net.cpp:156] Memory required for data: 828249200
I0403 13:19:49.780902 27785 layer_factory.hpp:77] Creating layer relu7
I0403 13:19:49.780925 27785 net.cpp:91] Creating Layer relu7
I0403 13:19:49.780942 27785 net.cpp:425] relu7 <- fc7
I0403 13:19:49.780964 27785 net.cpp:386] relu7 -> fc7 (in-place)
I0403 13:19:49.781375 27785 net.cpp:141] Setting up relu7
I0403 13:19:49.781401 27785 net.cpp:148] Top shape: 100 4096 (409600)
I0403 13:19:49.781448 27785 net.cpp:156] Memory required for data: 829887600
I0403 13:19:49.781466 27785 layer_factory.hpp:77] Creating layer drop7
I0403 13:19:49.781484 27785 net.cpp:91] Creating Layer drop7
I0403 13:19:49.781500 27785 net.cpp:425] drop7 <- fc7
I0403 13:19:49.781519 27785 net.cpp:386] drop7 -> fc7 (in-place)
I0403 13:19:49.781561 27785 net.cpp:141] Setting up drop7
I0403 13:19:49.781586 27785 net.cpp:148] Top shape: 100 4096 (409600)
I0403 13:19:49.781602 27785 net.cpp:156] Memory required for data: 831526000
I0403 13:19:49.781617 27785 layer_factory.hpp:77] Creating layer fc8_plantvillage
I0403 13:19:49.781637 27785 net.cpp:91] Creating Layer fc8_plantvillage
I0403 13:19:49.781652 27785 net.cpp:425] fc8_plantvillage <- fc7
I0403 13:19:49.781684 27785 net.cpp:399] fc8_plantvillage -> fc8_plantvillage
I0403 13:19:49.788322 27785 net.cpp:141] Setting up fc8_plantvillage
I0403 13:19:49.788352 27785 net.cpp:148] Top shape: 100 38 (3800)
I0403 13:19:49.788367 27785 net.cpp:156] Memory required for data: 831541200
I0403 13:19:49.788386 27785 layer_factory.hpp:77] Creating layer fc8_plantvillage_fc8_plantvillage_0_split
I0403 13:19:49.788405 27785 net.cpp:91] Creating Layer fc8_plantvillage_fc8_plantvillage_0_split
I0403 13:19:49.788420 27785 net.cpp:425] fc8_plantvillage_fc8_plantvillage_0_split <- fc8_plantvillage
I0403 13:19:49.788440 27785 net.cpp:399] fc8_plantvillage_fc8_plantvillage_0_split -> fc8_plantvillage_fc8_plantvillage_0_split_0
I0403 13:19:49.788460 27785 net.cpp:399] fc8_plantvillage_fc8_plantvillage_0_split -> fc8_plantvillage_fc8_plantvillage_0_split_1
I0403 13:19:49.788480 27785 net.cpp:399] fc8_plantvillage_fc8_plantvillage_0_split -> fc8_plantvillage_fc8_plantvillage_0_split_2
I0403 13:19:49.788557 27785 net.cpp:141] Setting up fc8_plantvillage_fc8_plantvillage_0_split
I0403 13:19:49.788583 27785 net.cpp:148] Top shape: 100 38 (3800)
I0403 13:19:49.788600 27785 net.cpp:148] Top shape: 100 38 (3800)
I0403 13:19:49.788616 27785 net.cpp:148] Top shape: 100 38 (3800)
I0403 13:19:49.788630 27785 net.cpp:156] Memory required for data: 831586800
I0403 13:19:49.788645 27785 layer_factory.hpp:77] Creating layer prob
I0403 13:19:49.788664 27785 net.cpp:91] Creating Layer prob
I0403 13:19:49.788679 27785 net.cpp:425] prob <- fc8_plantvillage_fc8_plantvillage_0_split_0
I0403 13:19:49.788697 27785 net.cpp:399] prob -> prob
I0403 13:19:49.788916 27785 net.cpp:141] Setting up prob
I0403 13:19:49.788954 27785 net.cpp:148] Top shape: 100 38 (3800)
I0403 13:19:49.788970 27785 net.cpp:156] Memory required for data: 831602000
I0403 13:19:49.788987 27785 layer_factory.hpp:77] Creating layer hdf5out
I0403 13:19:49.789007 27785 net.cpp:91] Creating Layer hdf5out
I0403 13:19:49.789024 27785 net.cpp:425] hdf5out <- prob
I0403 13:19:49.789042 27785 net.cpp:425] hdf5out <- label_data_1_split_0
I0403 13:19:49.807090 27785 net.cpp:141] Setting up hdf5out
…
