…
I0403 12:59:55.232738 27148 net.cpp:313] The NetState phase (1) differed from the phase (0) specified by a rule in layer data
I0403 12:59:55.233044 27148 net.cpp:49] Initializing net from parameters: 
state {
  phase: TEST
}
layer {
  name: "data"
  type: "Data"
  top: "data"
  top: "label"
  include {
    phase: TEST
  }
  transform_param {
    crop_size: 227
    mean_file: "/home/mohanty/data/final_dataset/lmdb/color-50-50/mean.binaryproto"
  }
  data_param {
    source: "/home/mohanty/data/final_dataset/lmdb/color-50-50/test_db"
    batch_size: 100
    backend: LMDB
  }
}
layer {
  name: "conv1"
  type: "Convolution"
  bottom: "data"
  top: "conv1"
  param {
    lr_mult: 1
    decay_mult: 1
  }
  param {
    lr_mult: 2
    decay_mult: 0
  }
  convolution_param {
    num_output: 96
    kernel_size: 11
    stride: 4
    weight_filler {
      type: "gaussian"
      std: 0.01
    }
    bias_filler {
      type: "constant"
      value: 0
    }
  }
}
layer {
  name: "relu1"
  type: "ReLU"
  bottom: "conv1"
  top: "conv1"
}
layer {
  name: "norm1"
  type: "LRN"
  bottom: "conv1"
  top: "norm1"
  lrn_param {
    local_size: 5
    alpha: 0.0001
    beta: 0.75
  }
}
layer {
  name: "pool1"
  type: "Pooling"
  bottom: "norm1"
  top: "pool1"
  pooling_param {
    pool: MAX
    kernel_size: 3
    stride: 2
  }
}
layer {
  name: "conv2"
  type: "Convolution"
  bottom: "pool1"
  top: "conv2"
  param {
    lr_mult: 1
    decay_mult: 1
  }
  param {
    lr_mult: 2
    decay_mult: 0
  }
  convolution_param {
    num_output: 256
    pad: 2
    kernel_size: 5
    group: 2
    weight_filler {
      type: "gaussian"
      std: 0.01
    }
    bias_filler {
      type: "constant"
      value: 0.1
    }
  }
}
layer {
  name: "relu2"
  type: "ReLU"
  bottom: "conv2"
  top: "conv2"
}
layer {
  name: "norm2"
  type: "LRN"
  bottom: "conv2"
  top: "norm2"
  lrn_param {
    local_size: 5
    alpha: 0.0001
    beta: 0.75
  }
}
layer {
  name: "pool2"
  type: "Pooling"
  bottom: "norm2"
  top: "pool2"
  pooling_param {
    pool: MAX
    kernel_size: 3
    stride: 2
  }
}
layer {
  name: "conv3"
  type: "Convolution"
  bottom: "pool2"
  top: "conv3"
  param {
    lr_mult: 1
    decay_mult: 1
  }
  param {
    lr_mult: 2
    decay_mult: 0
  }
  convolution_param {
    num_output: 384
    pad: 1
    kernel_size: 3
    weight_filler {
      type: "gaussian"
      std: 0.01
    }
    bias_filler {
      type: "constant"
      value: 0
    }
  }
}
layer {
  name: "relu3"
  type: "ReLU"
  bottom: "conv3"
  top: "conv3"
}
layer {
  name: "conv4"
  type: "Convolution"
  bottom: "conv3"
  top: "conv4"
  param {
    lr_mult: 1
    decay_mult: 1
  }
  param {
    lr_mult: 2
    decay_mult: 0
  }
  convolution_param {
    num_output: 384
    pad: 1
    kernel_size: 3
    group: 2
    weight_filler {
      type: "gaussian"
      std: 0.01
    }
    bias_filler {
      type: "constant"
      value: 0.1
    }
  }
}
layer {
  name: "relu4"
  type: "ReLU"
  bottom: "conv4"
  top: "conv4"
}
layer {
  name: "conv5"
  type: "Convolution"
  bottom: "conv4"
  top: "conv5"
  param {
    lr_mult: 1
    decay_mult: 1
  }
  param {
    lr_mult: 2
    decay_mult: 0
  }
  convolution_param {
    num_output: 256
    pad: 1
    kernel_size: 3
    group: 2
    weight_filler {
      type: "gaussian"
      std: 0.01
    }
    bias_filler {
      type: "constant"
      value: 0.1
    }
  }
}
layer {
  name: "relu5"
  type: "ReLU"
  bottom: "conv5"
  top: "conv5"
}
layer {
  name: "pool5"
  type: "Pooling"
  bottom: "conv5"
  top: "pool5"
  pooling_param {
    pool: MAX
    kernel_size: 3
    stride: 2
  }
}
layer {
  name: "fc6"
  type: "InnerProduct"
  bottom: "pool5"
  top: "fc6"
  param {
    lr_mult: 1
    decay_mult: 1
  }
  param {
    lr_mult: 2
    decay_mult: 0
  }
  inner_product_param {
    num_output: 4096
    weight_filler {
      type: "gaussian"
      std: 0.005
    }
    bias_filler {
      type: "constant"
      value: 0.1
    }
  }
}
layer {
  name: "relu6"
  type: "ReLU"
  bottom: "fc6"
  top: "fc6"
}
layer {
  name: "drop6"
  type: "Dropout"
  bottom: "fc6"
  top: "fc6"
  dropout_param {
    dropout_ratio: 0.5
  }
}
layer {
  name: "fc7"
  type: "InnerProduct"
  bottom: "fc6"
  top: "fc7"
  param {
    lr_mult: 1
    decay_mult: 1
  }
  param {
    lr_mult: 2
    decay_mult: 0
  }
  inner_product_param {
    num_output: 4096
    weight_filler {
      type: "gaussian"
      std: 0.005
    }
    bias_filler {
      type: "constant"
      value: 0.1
    }
  }
}
layer {
  name: "relu7"
  type: "ReLU"
  bottom: "fc7"
  top: "fc7"
}
layer {
  name: "drop7"
  type: "Dropout"
  bottom: "fc7"
  top: "fc7"
  dropout_param {
    dropout_ratio: 0.5
  }
}
layer {
  name: "fc8_plantvillage"
  type: "InnerProduct"
  bottom: "fc7"
  top: "fc8_plantvillage"
  param {
    lr_mult: 1
    decay_mult: 1
  }
  param {
    lr_mult: 2
    decay_mult: 0
  }
  inner_product_param {
    num_output: 38
    weight_filler {
      type: "gaussian"
      std: 0.01
    }
    bias_filler {
      type: "constant"
      value: 0
    }
  }
}
layer {
  name: "prob"
  type: "Softmax"
  bottom: "fc8_plantvillage"
  top: "prob"
  include {
    phase: TEST
  }
}
layer {
  name: "hdf5out"
  type: "HDF5Output"
  bottom: "prob"
  bottom: "label"
  include {
    phase: TEST
  }
  hdf5_output_param {
    file_name: "hdf5_dumps/iter_2152.h5"
  }
}
layer {
  name: "loss"
  type: "SoftmaxWithLoss"
  bottom: "fc8_plantvillage"
  bottom: "label"
  top: "loss"
}
layer {
  name: "accuracy"
  type: "Accuracy"
  bottom: "fc8_plantvillage"
  bottom: "label"
  top: "accuracy"
  include {
    phase: TEST
  }
}
I0403 12:59:55.233606 27148 layer_factory.hpp:77] Creating layer data
I0403 12:59:55.234230 27148 net.cpp:91] Creating Layer data
I0403 12:59:55.234262 27148 net.cpp:399] data -> data
I0403 12:59:55.234318 27148 net.cpp:399] data -> label
I0403 12:59:55.234361 27148 data_transformer.cpp:25] Loading mean file from: /home/mohanty/data/final_dataset/lmdb/color-50-50/mean.binaryproto
I0403 12:59:55.237229 27150 db_lmdb.cpp:38] Opened lmdb /home/mohanty/data/final_dataset/lmdb/color-50-50/test_db
I0403 12:59:55.249132 27148 data_layer.cpp:41] output data size: 100,3,227,227
I0403 12:59:55.366659 27148 net.cpp:141] Setting up data
I0403 12:59:55.366751 27148 net.cpp:148] Top shape: 100 3 227 227 (15458700)
I0403 12:59:55.366775 27148 net.cpp:148] Top shape: 100 (100)
I0403 12:59:55.366789 27148 net.cpp:156] Memory required for data: 61835200
I0403 12:59:55.366817 27148 layer_factory.hpp:77] Creating layer label_data_1_split
I0403 12:59:55.366842 27148 net.cpp:91] Creating Layer label_data_1_split
I0403 12:59:55.366860 27148 net.cpp:425] label_data_1_split <- label
I0403 12:59:55.366891 27148 net.cpp:399] label_data_1_split -> label_data_1_split_0
I0403 12:59:55.366919 27148 net.cpp:399] label_data_1_split -> label_data_1_split_1
I0403 12:59:55.366940 27148 net.cpp:399] label_data_1_split -> label_data_1_split_2
I0403 12:59:55.367003 27148 net.cpp:141] Setting up label_data_1_split
I0403 12:59:55.367027 27148 net.cpp:148] Top shape: 100 (100)
I0403 12:59:55.367043 27148 net.cpp:148] Top shape: 100 (100)
I0403 12:59:55.367059 27148 net.cpp:148] Top shape: 100 (100)
I0403 12:59:55.367072 27148 net.cpp:156] Memory required for data: 61836400
I0403 12:59:55.367087 27148 layer_factory.hpp:77] Creating layer conv1
I0403 12:59:55.367117 27148 net.cpp:91] Creating Layer conv1
I0403 12:59:55.367136 27148 net.cpp:425] conv1 <- data
I0403 12:59:55.367156 27148 net.cpp:399] conv1 -> conv1
I0403 12:59:55.502120 27148 net.cpp:141] Setting up conv1
I0403 12:59:55.502197 27148 net.cpp:148] Top shape: 100 96 55 55 (29040000)
I0403 12:59:55.502214 27148 net.cpp:156] Memory required for data: 177996400
I0403 12:59:55.502246 27148 layer_factory.hpp:77] Creating layer relu1
I0403 12:59:55.502274 27148 net.cpp:91] Creating Layer relu1
I0403 12:59:55.502293 27148 net.cpp:425] relu1 <- conv1
I0403 12:59:55.502312 27148 net.cpp:386] relu1 -> conv1 (in-place)
I0403 12:59:55.502569 27148 net.cpp:141] Setting up relu1
I0403 12:59:55.502598 27148 net.cpp:148] Top shape: 100 96 55 55 (29040000)
I0403 12:59:55.502614 27148 net.cpp:156] Memory required for data: 294156400
I0403 12:59:55.502681 27148 layer_factory.hpp:77] Creating layer norm1
I0403 12:59:55.502709 27148 net.cpp:91] Creating Layer norm1
I0403 12:59:55.502728 27148 net.cpp:425] norm1 <- conv1
I0403 12:59:55.502748 27148 net.cpp:399] norm1 -> norm1
I0403 12:59:55.503069 27148 net.cpp:141] Setting up norm1
I0403 12:59:55.503099 27148 net.cpp:148] Top shape: 100 96 55 55 (29040000)
I0403 12:59:55.503114 27148 net.cpp:156] Memory required for data: 410316400
I0403 12:59:55.503131 27148 layer_factory.hpp:77] Creating layer pool1
I0403 12:59:55.503155 27148 net.cpp:91] Creating Layer pool1
I0403 12:59:55.503173 27148 net.cpp:425] pool1 <- norm1
I0403 12:59:55.503191 27148 net.cpp:399] pool1 -> pool1
I0403 12:59:55.503258 27148 net.cpp:141] Setting up pool1
I0403 12:59:55.503283 27148 net.cpp:148] Top shape: 100 96 27 27 (6998400)
I0403 12:59:55.503298 27148 net.cpp:156] Memory required for data: 438310000
I0403 12:59:55.503314 27148 layer_factory.hpp:77] Creating layer conv2
I0403 12:59:55.503362 27148 net.cpp:91] Creating Layer conv2
I0403 12:59:55.503381 27148 net.cpp:425] conv2 <- pool1
I0403 12:59:55.503399 27148 net.cpp:399] conv2 -> conv2
I0403 12:59:55.517871 27148 net.cpp:141] Setting up conv2
I0403 12:59:55.517909 27148 net.cpp:148] Top shape: 100 256 27 27 (18662400)
I0403 12:59:55.517925 27148 net.cpp:156] Memory required for data: 512959600
I0403 12:59:55.517947 27148 layer_factory.hpp:77] Creating layer relu2
I0403 12:59:55.517966 27148 net.cpp:91] Creating Layer relu2
I0403 12:59:55.517982 27148 net.cpp:425] relu2 <- conv2
I0403 12:59:55.518000 27148 net.cpp:386] relu2 -> conv2 (in-place)
I0403 12:59:55.518257 27148 net.cpp:141] Setting up relu2
I0403 12:59:55.518285 27148 net.cpp:148] Top shape: 100 256 27 27 (18662400)
I0403 12:59:55.518301 27148 net.cpp:156] Memory required for data: 587609200
I0403 12:59:55.518319 27148 layer_factory.hpp:77] Creating layer norm2
I0403 12:59:55.518342 27148 net.cpp:91] Creating Layer norm2
I0403 12:59:55.518359 27148 net.cpp:425] norm2 <- conv2
I0403 12:59:55.518378 27148 net.cpp:399] norm2 -> norm2
I0403 12:59:55.518554 27148 net.cpp:141] Setting up norm2
I0403 12:59:55.518581 27148 net.cpp:148] Top shape: 100 256 27 27 (18662400)
I0403 12:59:55.518597 27148 net.cpp:156] Memory required for data: 662258800
I0403 12:59:55.518612 27148 layer_factory.hpp:77] Creating layer pool2
I0403 12:59:55.518631 27148 net.cpp:91] Creating Layer pool2
I0403 12:59:55.518647 27148 net.cpp:425] pool2 <- norm2
I0403 12:59:55.518664 27148 net.cpp:399] pool2 -> pool2
I0403 12:59:55.518714 27148 net.cpp:141] Setting up pool2
I0403 12:59:55.518738 27148 net.cpp:148] Top shape: 100 256 13 13 (4326400)
I0403 12:59:55.518753 27148 net.cpp:156] Memory required for data: 679564400
I0403 12:59:55.518769 27148 layer_factory.hpp:77] Creating layer conv3
I0403 12:59:55.518792 27148 net.cpp:91] Creating Layer conv3
I0403 12:59:55.518810 27148 net.cpp:425] conv3 <- pool2
I0403 12:59:55.518832 27148 net.cpp:399] conv3 -> conv3
I0403 12:59:55.556145 27148 net.cpp:141] Setting up conv3
I0403 12:59:55.556207 27148 net.cpp:148] Top shape: 100 384 13 13 (6489600)
I0403 12:59:55.556224 27148 net.cpp:156] Memory required for data: 705522800
I0403 12:59:55.556249 27148 layer_factory.hpp:77] Creating layer relu3
I0403 12:59:55.556270 27148 net.cpp:91] Creating Layer relu3
I0403 12:59:55.556288 27148 net.cpp:425] relu3 <- conv3
I0403 12:59:55.556308 27148 net.cpp:386] relu3 -> conv3 (in-place)
I0403 12:59:55.556581 27148 net.cpp:141] Setting up relu3
I0403 12:59:55.556607 27148 net.cpp:148] Top shape: 100 384 13 13 (6489600)
I0403 12:59:55.556622 27148 net.cpp:156] Memory required for data: 731481200
I0403 12:59:55.556638 27148 layer_factory.hpp:77] Creating layer conv4
I0403 12:59:55.556663 27148 net.cpp:91] Creating Layer conv4
I0403 12:59:55.556680 27148 net.cpp:425] conv4 <- conv3
I0403 12:59:55.556702 27148 net.cpp:399] conv4 -> conv4
I0403 12:59:55.585552 27148 net.cpp:141] Setting up conv4
I0403 12:59:55.585598 27148 net.cpp:148] Top shape: 100 384 13 13 (6489600)
I0403 12:59:55.585650 27148 net.cpp:156] Memory required for data: 757439600
I0403 12:59:55.585670 27148 layer_factory.hpp:77] Creating layer relu4
I0403 12:59:55.585690 27148 net.cpp:91] Creating Layer relu4
I0403 12:59:55.585707 27148 net.cpp:425] relu4 <- conv4
I0403 12:59:55.585728 27148 net.cpp:386] relu4 -> conv4 (in-place)
I0403 12:59:55.586004 27148 net.cpp:141] Setting up relu4
I0403 12:59:55.586035 27148 net.cpp:148] Top shape: 100 384 13 13 (6489600)
I0403 12:59:55.586050 27148 net.cpp:156] Memory required for data: 783398000
I0403 12:59:55.586066 27148 layer_factory.hpp:77] Creating layer conv5
I0403 12:59:55.586091 27148 net.cpp:91] Creating Layer conv5
I0403 12:59:55.586109 27148 net.cpp:425] conv5 <- conv4
I0403 12:59:55.586129 27148 net.cpp:399] conv5 -> conv5
I0403 12:59:55.606576 27148 net.cpp:141] Setting up conv5
I0403 12:59:55.606617 27148 net.cpp:148] Top shape: 100 256 13 13 (4326400)
I0403 12:59:55.606634 27148 net.cpp:156] Memory required for data: 800703600
I0403 12:59:55.606659 27148 layer_factory.hpp:77] Creating layer relu5
I0403 12:59:55.606679 27148 net.cpp:91] Creating Layer relu5
I0403 12:59:55.606695 27148 net.cpp:425] relu5 <- conv5
I0403 12:59:55.606715 27148 net.cpp:386] relu5 -> conv5 (in-place)
I0403 12:59:55.606997 27148 net.cpp:141] Setting up relu5
I0403 12:59:55.607024 27148 net.cpp:148] Top shape: 100 256 13 13 (4326400)
I0403 12:59:55.607039 27148 net.cpp:156] Memory required for data: 818009200
I0403 12:59:55.607054 27148 layer_factory.hpp:77] Creating layer pool5
I0403 12:59:55.607080 27148 net.cpp:91] Creating Layer pool5
I0403 12:59:55.607100 27148 net.cpp:425] pool5 <- conv5
I0403 12:59:55.607117 27148 net.cpp:399] pool5 -> pool5
I0403 12:59:55.607178 27148 net.cpp:141] Setting up pool5
I0403 12:59:55.607203 27148 net.cpp:148] Top shape: 100 256 6 6 (921600)
I0403 12:59:55.607218 27148 net.cpp:156] Memory required for data: 821695600
I0403 12:59:55.607233 27148 layer_factory.hpp:77] Creating layer fc6
I0403 12:59:55.607260 27148 net.cpp:91] Creating Layer fc6
I0403 12:59:55.607277 27148 net.cpp:425] fc6 <- pool5
I0403 12:59:55.607300 27148 net.cpp:399] fc6 -> fc6
I0403 12:59:57.239871 27148 net.cpp:141] Setting up fc6
I0403 12:59:57.239946 27148 net.cpp:148] Top shape: 100 4096 (409600)
I0403 12:59:57.239962 27148 net.cpp:156] Memory required for data: 823334000
I0403 12:59:57.239984 27148 layer_factory.hpp:77] Creating layer relu6
I0403 12:59:57.240010 27148 net.cpp:91] Creating Layer relu6
I0403 12:59:57.240028 27148 net.cpp:425] relu6 <- fc6
I0403 12:59:57.240047 27148 net.cpp:386] relu6 -> fc6 (in-place)
I0403 12:59:57.240267 27148 net.cpp:141] Setting up relu6
I0403 12:59:57.240293 27148 net.cpp:148] Top shape: 100 4096 (409600)
I0403 12:59:57.240309 27148 net.cpp:156] Memory required for data: 824972400
I0403 12:59:57.240329 27148 layer_factory.hpp:77] Creating layer drop6
I0403 12:59:57.240350 27148 net.cpp:91] Creating Layer drop6
I0403 12:59:57.240365 27148 net.cpp:425] drop6 <- fc6
I0403 12:59:57.240388 27148 net.cpp:386] drop6 -> fc6 (in-place)
I0403 12:59:57.240442 27148 net.cpp:141] Setting up drop6
I0403 12:59:57.240469 27148 net.cpp:148] Top shape: 100 4096 (409600)
I0403 12:59:57.240485 27148 net.cpp:156] Memory required for data: 826610800
I0403 12:59:57.240500 27148 layer_factory.hpp:77] Creating layer fc7
I0403 12:59:57.240520 27148 net.cpp:91] Creating Layer fc7
I0403 12:59:57.240536 27148 net.cpp:425] fc7 <- fc6
I0403 12:59:57.240556 27148 net.cpp:399] fc7 -> fc7
I0403 12:59:57.925215 27148 net.cpp:141] Setting up fc7
I0403 12:59:57.925285 27148 net.cpp:148] Top shape: 100 4096 (409600)
I0403 12:59:57.925302 27148 net.cpp:156] Memory required for data: 828249200
I0403 12:59:57.925329 27148 layer_factory.hpp:77] Creating layer relu7
I0403 12:59:57.925354 27148 net.cpp:91] Creating Layer relu7
I0403 12:59:57.925374 27148 net.cpp:425] relu7 <- fc7
I0403 12:59:57.925396 27148 net.cpp:386] relu7 -> fc7 (in-place)
I0403 12:59:57.925835 27148 net.cpp:141] Setting up relu7
I0403 12:59:57.925865 27148 net.cpp:148] Top shape: 100 4096 (409600)
I0403 12:59:57.925925 27148 net.cpp:156] Memory required for data: 829887600
I0403 12:59:57.925941 27148 layer_factory.hpp:77] Creating layer drop7
I0403 12:59:57.925959 27148 net.cpp:91] Creating Layer drop7
I0403 12:59:57.925976 27148 net.cpp:425] drop7 <- fc7
I0403 12:59:57.925998 27148 net.cpp:386] drop7 -> fc7 (in-place)
I0403 12:59:57.926043 27148 net.cpp:141] Setting up drop7
I0403 12:59:57.926065 27148 net.cpp:148] Top shape: 100 4096 (409600)
I0403 12:59:57.926080 27148 net.cpp:156] Memory required for data: 831526000
I0403 12:59:57.926095 27148 layer_factory.hpp:77] Creating layer fc8_plantvillage
I0403 12:59:57.926116 27148 net.cpp:91] Creating Layer fc8_plantvillage
I0403 12:59:57.926133 27148 net.cpp:425] fc8_plantvillage <- fc7
I0403 12:59:57.926153 27148 net.cpp:399] fc8_plantvillage -> fc8_plantvillage
I0403 12:59:57.932867 27148 net.cpp:141] Setting up fc8_plantvillage
I0403 12:59:57.932894 27148 net.cpp:148] Top shape: 100 38 (3800)
I0403 12:59:57.932910 27148 net.cpp:156] Memory required for data: 831541200
I0403 12:59:57.932927 27148 layer_factory.hpp:77] Creating layer fc8_plantvillage_fc8_plantvillage_0_split
I0403 12:59:57.932946 27148 net.cpp:91] Creating Layer fc8_plantvillage_fc8_plantvillage_0_split
I0403 12:59:57.932961 27148 net.cpp:425] fc8_plantvillage_fc8_plantvillage_0_split <- fc8_plantvillage
I0403 12:59:57.932981 27148 net.cpp:399] fc8_plantvillage_fc8_plantvillage_0_split -> fc8_plantvillage_fc8_plantvillage_0_split_0
I0403 12:59:57.933002 27148 net.cpp:399] fc8_plantvillage_fc8_plantvillage_0_split -> fc8_plantvillage_fc8_plantvillage_0_split_1
I0403 12:59:57.933024 27148 net.cpp:399] fc8_plantvillage_fc8_plantvillage_0_split -> fc8_plantvillage_fc8_plantvillage_0_split_2
I0403 12:59:57.933099 27148 net.cpp:141] Setting up fc8_plantvillage_fc8_plantvillage_0_split
I0403 12:59:57.933121 27148 net.cpp:148] Top shape: 100 38 (3800)
I0403 12:59:57.933137 27148 net.cpp:148] Top shape: 100 38 (3800)
I0403 12:59:57.933152 27148 net.cpp:148] Top shape: 100 38 (3800)
I0403 12:59:57.933167 27148 net.cpp:156] Memory required for data: 831586800
I0403 12:59:57.933182 27148 layer_factory.hpp:77] Creating layer prob
I0403 12:59:57.933200 27148 net.cpp:91] Creating Layer prob
I0403 12:59:57.933215 27148 net.cpp:425] prob <- fc8_plantvillage_fc8_plantvillage_0_split_0
I0403 12:59:57.933236 27148 net.cpp:399] prob -> prob
I0403 12:59:57.933471 27148 net.cpp:141] Setting up prob
I0403 12:59:57.933501 27148 net.cpp:148] Top shape: 100 38 (3800)
I0403 12:59:57.933517 27148 net.cpp:156] Memory required for data: 831602000
I0403 12:59:57.933533 27148 layer_factory.hpp:77] Creating layer hdf5out
I0403 12:59:57.933552 27148 net.cpp:91] Creating Layer hdf5out
I0403 12:59:57.933568 27148 net.cpp:425] hdf5out <- prob
I0403 12:59:57.933583 27148 net.cpp:425] hdf5out <- label_data_1_split_0
I0403 12:59:57.937921 27148 net.cpp:141] Setting up hdf5out
…
