…
I0403 13:16:56.124312 27707 net.cpp:313] The NetState phase (1) differed from the phase (0) specified by a rule in layer data
I0403 13:16:56.124646 27707 net.cpp:49] Initializing net from parameters: 
state {
  phase: TEST
}
layer {
  name: "data"
  type: "Data"
  top: "data"
  top: "label"
  include {
    phase: TEST
  }
  transform_param {
    crop_size: 227
    mean_file: "/home/mohanty/data/final_dataset/lmdb/color-50-50/mean.binaryproto"
  }
  data_param {
    source: "/home/mohanty/data/final_dataset/lmdb/color-50-50/test_db"
    batch_size: 100
    backend: LMDB
  }
}
layer {
  name: "conv1"
  type: "Convolution"
  bottom: "data"
  top: "conv1"
  param {
    lr_mult: 1
    decay_mult: 1
  }
  param {
    lr_mult: 2
    decay_mult: 0
  }
  convolution_param {
    num_output: 96
    kernel_size: 11
    stride: 4
    weight_filler {
      type: "gaussian"
      std: 0.01
    }
    bias_filler {
      type: "constant"
      value: 0
    }
  }
}
layer {
  name: "relu1"
  type: "ReLU"
  bottom: "conv1"
  top: "conv1"
}
layer {
  name: "norm1"
  type: "LRN"
  bottom: "conv1"
  top: "norm1"
  lrn_param {
    local_size: 5
    alpha: 0.0001
    beta: 0.75
  }
}
layer {
  name: "pool1"
  type: "Pooling"
  bottom: "norm1"
  top: "pool1"
  pooling_param {
    pool: MAX
    kernel_size: 3
    stride: 2
  }
}
layer {
  name: "conv2"
  type: "Convolution"
  bottom: "pool1"
  top: "conv2"
  param {
    lr_mult: 1
    decay_mult: 1
  }
  param {
    lr_mult: 2
    decay_mult: 0
  }
  convolution_param {
    num_output: 256
    pad: 2
    kernel_size: 5
    group: 2
    weight_filler {
      type: "gaussian"
      std: 0.01
    }
    bias_filler {
      type: "constant"
      value: 0.1
    }
  }
}
layer {
  name: "relu2"
  type: "ReLU"
  bottom: "conv2"
  top: "conv2"
}
layer {
  name: "norm2"
  type: "LRN"
  bottom: "conv2"
  top: "norm2"
  lrn_param {
    local_size: 5
    alpha: 0.0001
    beta: 0.75
  }
}
layer {
  name: "pool2"
  type: "Pooling"
  bottom: "norm2"
  top: "pool2"
  pooling_param {
    pool: MAX
    kernel_size: 3
    stride: 2
  }
}
layer {
  name: "conv3"
  type: "Convolution"
  bottom: "pool2"
  top: "conv3"
  param {
    lr_mult: 1
    decay_mult: 1
  }
  param {
    lr_mult: 2
    decay_mult: 0
  }
  convolution_param {
    num_output: 384
    pad: 1
    kernel_size: 3
    weight_filler {
      type: "gaussian"
      std: 0.01
    }
    bias_filler {
      type: "constant"
      value: 0
    }
  }
}
layer {
  name: "relu3"
  type: "ReLU"
  bottom: "conv3"
  top: "conv3"
}
layer {
  name: "conv4"
  type: "Convolution"
  bottom: "conv3"
  top: "conv4"
  param {
    lr_mult: 1
    decay_mult: 1
  }
  param {
    lr_mult: 2
    decay_mult: 0
  }
  convolution_param {
    num_output: 384
    pad: 1
    kernel_size: 3
    group: 2
    weight_filler {
      type: "gaussian"
      std: 0.01
    }
    bias_filler {
      type: "constant"
      value: 0.1
    }
  }
}
layer {
  name: "relu4"
  type: "ReLU"
  bottom: "conv4"
  top: "conv4"
}
layer {
  name: "conv5"
  type: "Convolution"
  bottom: "conv4"
  top: "conv5"
  param {
    lr_mult: 1
    decay_mult: 1
  }
  param {
    lr_mult: 2
    decay_mult: 0
  }
  convolution_param {
    num_output: 256
    pad: 1
    kernel_size: 3
    group: 2
    weight_filler {
      type: "gaussian"
      std: 0.01
    }
    bias_filler {
      type: "constant"
      value: 0.1
    }
  }
}
layer {
  name: "relu5"
  type: "ReLU"
  bottom: "conv5"
  top: "conv5"
}
layer {
  name: "pool5"
  type: "Pooling"
  bottom: "conv5"
  top: "pool5"
  pooling_param {
    pool: MAX
    kernel_size: 3
    stride: 2
  }
}
layer {
  name: "fc6"
  type: "InnerProduct"
  bottom: "pool5"
  top: "fc6"
  param {
    lr_mult: 1
    decay_mult: 1
  }
  param {
    lr_mult: 2
    decay_mult: 0
  }
  inner_product_param {
    num_output: 4096
    weight_filler {
      type: "gaussian"
      std: 0.005
    }
    bias_filler {
      type: "constant"
      value: 0.1
    }
  }
}
layer {
  name: "relu6"
  type: "ReLU"
  bottom: "fc6"
  top: "fc6"
}
layer {
  name: "drop6"
  type: "Dropout"
  bottom: "fc6"
  top: "fc6"
  dropout_param {
    dropout_ratio: 0.5
  }
}
layer {
  name: "fc7"
  type: "InnerProduct"
  bottom: "fc6"
  top: "fc7"
  param {
    lr_mult: 1
    decay_mult: 1
  }
  param {
    lr_mult: 2
    decay_mult: 0
  }
  inner_product_param {
    num_output: 4096
    weight_filler {
      type: "gaussian"
      std: 0.005
    }
    bias_filler {
      type: "constant"
      value: 0.1
    }
  }
}
layer {
  name: "relu7"
  type: "ReLU"
  bottom: "fc7"
  top: "fc7"
}
layer {
  name: "drop7"
  type: "Dropout"
  bottom: "fc7"
  top: "fc7"
  dropout_param {
    dropout_ratio: 0.5
  }
}
layer {
  name: "fc8_plantvillage"
  type: "InnerProduct"
  bottom: "fc7"
  top: "fc8_plantvillage"
  param {
    lr_mult: 1
    decay_mult: 1
  }
  param {
    lr_mult: 2
    decay_mult: 0
  }
  inner_product_param {
    num_output: 38
    weight_filler {
      type: "gaussian"
      std: 0.01
    }
    bias_filler {
      type: "constant"
      value: 0
    }
  }
}
layer {
  name: "prob"
  type: "Softmax"
  bottom: "fc8_plantvillage"
  top: "prob"
  include {
    phase: TEST
  }
}
layer {
  name: "hdf5out"
  type: "HDF5Output"
  bottom: "prob"
  bottom: "label"
  include {
    phase: TEST
  }
  hdf5_output_param {
    file_name: "hdf5_dumps/iter_6994.h5"
  }
}
layer {
  name: "loss"
  type: "SoftmaxWithLoss"
  bottom: "fc8_plantvillage"
  bottom: "label"
  top: "loss"
}
layer {
  name: "accuracy"
  type: "Accuracy"
  bottom: "fc8_plantvillage"
  bottom: "label"
  top: "accuracy"
  include {
    phase: TEST
  }
}
I0403 13:16:56.125164 27707 layer_factory.hpp:77] Creating layer data
I0403 13:16:56.125825 27707 net.cpp:91] Creating Layer data
I0403 13:16:56.125860 27707 net.cpp:399] data -> data
I0403 13:16:56.125913 27707 net.cpp:399] data -> label
I0403 13:16:56.125951 27707 data_transformer.cpp:25] Loading mean file from: /home/mohanty/data/final_dataset/lmdb/color-50-50/mean.binaryproto
I0403 13:16:56.128556 27710 db_lmdb.cpp:38] Opened lmdb /home/mohanty/data/final_dataset/lmdb/color-50-50/test_db
I0403 13:16:56.140501 27707 data_layer.cpp:41] output data size: 100,3,227,227
I0403 13:16:56.264338 27707 net.cpp:141] Setting up data
I0403 13:16:56.264435 27707 net.cpp:148] Top shape: 100 3 227 227 (15458700)
I0403 13:16:56.264459 27707 net.cpp:148] Top shape: 100 (100)
I0403 13:16:56.264477 27707 net.cpp:156] Memory required for data: 61835200
I0403 13:16:56.264505 27707 layer_factory.hpp:77] Creating layer label_data_1_split
I0403 13:16:56.264533 27707 net.cpp:91] Creating Layer label_data_1_split
I0403 13:16:56.264551 27707 net.cpp:425] label_data_1_split <- label
I0403 13:16:56.264583 27707 net.cpp:399] label_data_1_split -> label_data_1_split_0
I0403 13:16:56.264612 27707 net.cpp:399] label_data_1_split -> label_data_1_split_1
I0403 13:16:56.264634 27707 net.cpp:399] label_data_1_split -> label_data_1_split_2
I0403 13:16:56.264700 27707 net.cpp:141] Setting up label_data_1_split
I0403 13:16:56.264725 27707 net.cpp:148] Top shape: 100 (100)
I0403 13:16:56.264742 27707 net.cpp:148] Top shape: 100 (100)
I0403 13:16:56.264758 27707 net.cpp:148] Top shape: 100 (100)
I0403 13:16:56.264775 27707 net.cpp:156] Memory required for data: 61836400
I0403 13:16:56.264791 27707 layer_factory.hpp:77] Creating layer conv1
I0403 13:16:56.264823 27707 net.cpp:91] Creating Layer conv1
I0403 13:16:56.264843 27707 net.cpp:425] conv1 <- data
I0403 13:16:56.264863 27707 net.cpp:399] conv1 -> conv1
I0403 13:16:56.411274 27707 net.cpp:141] Setting up conv1
I0403 13:16:56.411355 27707 net.cpp:148] Top shape: 100 96 55 55 (29040000)
I0403 13:16:56.411375 27707 net.cpp:156] Memory required for data: 177996400
I0403 13:16:56.411407 27707 layer_factory.hpp:77] Creating layer relu1
I0403 13:16:56.411435 27707 net.cpp:91] Creating Layer relu1
I0403 13:16:56.411454 27707 net.cpp:425] relu1 <- conv1
I0403 13:16:56.411474 27707 net.cpp:386] relu1 -> conv1 (in-place)
I0403 13:16:56.411739 27707 net.cpp:141] Setting up relu1
I0403 13:16:56.411768 27707 net.cpp:148] Top shape: 100 96 55 55 (29040000)
I0403 13:16:56.411785 27707 net.cpp:156] Memory required for data: 294156400
I0403 13:16:56.411836 27707 layer_factory.hpp:77] Creating layer norm1
I0403 13:16:56.411865 27707 net.cpp:91] Creating Layer norm1
I0403 13:16:56.411885 27707 net.cpp:425] norm1 <- conv1
I0403 13:16:56.411903 27707 net.cpp:399] norm1 -> norm1
I0403 13:16:56.412276 27707 net.cpp:141] Setting up norm1
I0403 13:16:56.412315 27707 net.cpp:148] Top shape: 100 96 55 55 (29040000)
I0403 13:16:56.412331 27707 net.cpp:156] Memory required for data: 410316400
I0403 13:16:56.412353 27707 layer_factory.hpp:77] Creating layer pool1
I0403 13:16:56.412379 27707 net.cpp:91] Creating Layer pool1
I0403 13:16:56.412400 27707 net.cpp:425] pool1 <- norm1
I0403 13:16:56.412418 27707 net.cpp:399] pool1 -> pool1
I0403 13:16:56.412492 27707 net.cpp:141] Setting up pool1
I0403 13:16:56.412519 27707 net.cpp:148] Top shape: 100 96 27 27 (6998400)
I0403 13:16:56.412534 27707 net.cpp:156] Memory required for data: 438310000
I0403 13:16:56.412550 27707 layer_factory.hpp:77] Creating layer conv2
I0403 13:16:56.412576 27707 net.cpp:91] Creating Layer conv2
I0403 13:16:56.412602 27707 net.cpp:425] conv2 <- pool1
I0403 13:16:56.412621 27707 net.cpp:399] conv2 -> conv2
I0403 13:16:56.428418 27707 net.cpp:141] Setting up conv2
I0403 13:16:56.428467 27707 net.cpp:148] Top shape: 100 256 27 27 (18662400)
I0403 13:16:56.428485 27707 net.cpp:156] Memory required for data: 512959600
I0403 13:16:56.428509 27707 layer_factory.hpp:77] Creating layer relu2
I0403 13:16:56.428534 27707 net.cpp:91] Creating Layer relu2
I0403 13:16:56.428552 27707 net.cpp:425] relu2 <- conv2
I0403 13:16:56.428572 27707 net.cpp:386] relu2 -> conv2 (in-place)
I0403 13:16:56.428860 27707 net.cpp:141] Setting up relu2
I0403 13:16:56.428890 27707 net.cpp:148] Top shape: 100 256 27 27 (18662400)
I0403 13:16:56.428908 27707 net.cpp:156] Memory required for data: 587609200
I0403 13:16:56.428925 27707 layer_factory.hpp:77] Creating layer norm2
I0403 13:16:56.428947 27707 net.cpp:91] Creating Layer norm2
I0403 13:16:56.428968 27707 net.cpp:425] norm2 <- conv2
I0403 13:16:56.428988 27707 net.cpp:399] norm2 -> norm2
I0403 13:16:56.429193 27707 net.cpp:141] Setting up norm2
I0403 13:16:56.429220 27707 net.cpp:148] Top shape: 100 256 27 27 (18662400)
I0403 13:16:56.429236 27707 net.cpp:156] Memory required for data: 662258800
I0403 13:16:56.429252 27707 layer_factory.hpp:77] Creating layer pool2
I0403 13:16:56.429275 27707 net.cpp:91] Creating Layer pool2
I0403 13:16:56.429293 27707 net.cpp:425] pool2 <- norm2
I0403 13:16:56.429312 27707 net.cpp:399] pool2 -> pool2
I0403 13:16:56.429373 27707 net.cpp:141] Setting up pool2
I0403 13:16:56.429399 27707 net.cpp:148] Top shape: 100 256 13 13 (4326400)
I0403 13:16:56.429414 27707 net.cpp:156] Memory required for data: 679564400
I0403 13:16:56.429430 27707 layer_factory.hpp:77] Creating layer conv3
I0403 13:16:56.429455 27707 net.cpp:91] Creating Layer conv3
I0403 13:16:56.429474 27707 net.cpp:425] conv3 <- pool2
I0403 13:16:56.429498 27707 net.cpp:399] conv3 -> conv3
I0403 13:16:56.472553 27707 net.cpp:141] Setting up conv3
I0403 13:16:56.472635 27707 net.cpp:148] Top shape: 100 384 13 13 (6489600)
I0403 13:16:56.472653 27707 net.cpp:156] Memory required for data: 705522800
I0403 13:16:56.472682 27707 layer_factory.hpp:77] Creating layer relu3
I0403 13:16:56.472707 27707 net.cpp:91] Creating Layer relu3
I0403 13:16:56.472725 27707 net.cpp:425] relu3 <- conv3
I0403 13:16:56.472744 27707 net.cpp:386] relu3 -> conv3 (in-place)
I0403 13:16:56.473022 27707 net.cpp:141] Setting up relu3
I0403 13:16:56.473053 27707 net.cpp:148] Top shape: 100 384 13 13 (6489600)
I0403 13:16:56.473070 27707 net.cpp:156] Memory required for data: 731481200
I0403 13:16:56.473086 27707 layer_factory.hpp:77] Creating layer conv4
I0403 13:16:56.473112 27707 net.cpp:91] Creating Layer conv4
I0403 13:16:56.473130 27707 net.cpp:425] conv4 <- conv3
I0403 13:16:56.473150 27707 net.cpp:399] conv4 -> conv4
I0403 13:16:56.504019 27707 net.cpp:141] Setting up conv4
I0403 13:16:56.504086 27707 net.cpp:148] Top shape: 100 384 13 13 (6489600)
I0403 13:16:56.504137 27707 net.cpp:156] Memory required for data: 757439600
I0403 13:16:56.504161 27707 layer_factory.hpp:77] Creating layer relu4
I0403 13:16:56.504191 27707 net.cpp:91] Creating Layer relu4
I0403 13:16:56.504210 27707 net.cpp:425] relu4 <- conv4
I0403 13:16:56.504233 27707 net.cpp:386] relu4 -> conv4 (in-place)
I0403 13:16:56.504531 27707 net.cpp:141] Setting up relu4
I0403 13:16:56.504560 27707 net.cpp:148] Top shape: 100 384 13 13 (6489600)
I0403 13:16:56.504578 27707 net.cpp:156] Memory required for data: 783398000
I0403 13:16:56.504601 27707 layer_factory.hpp:77] Creating layer conv5
I0403 13:16:56.504627 27707 net.cpp:91] Creating Layer conv5
I0403 13:16:56.504647 27707 net.cpp:425] conv5 <- conv4
I0403 13:16:56.504669 27707 net.cpp:399] conv5 -> conv5
I0403 13:16:56.525816 27707 net.cpp:141] Setting up conv5
I0403 13:16:56.525871 27707 net.cpp:148] Top shape: 100 256 13 13 (4326400)
I0403 13:16:56.525889 27707 net.cpp:156] Memory required for data: 800703600
I0403 13:16:56.525915 27707 layer_factory.hpp:77] Creating layer relu5
I0403 13:16:56.525943 27707 net.cpp:91] Creating Layer relu5
I0403 13:16:56.525962 27707 net.cpp:425] relu5 <- conv5
I0403 13:16:56.525981 27707 net.cpp:386] relu5 -> conv5 (in-place)
I0403 13:16:56.526265 27707 net.cpp:141] Setting up relu5
I0403 13:16:56.526294 27707 net.cpp:148] Top shape: 100 256 13 13 (4326400)
I0403 13:16:56.526310 27707 net.cpp:156] Memory required for data: 818009200
I0403 13:16:56.526327 27707 layer_factory.hpp:77] Creating layer pool5
I0403 13:16:56.526357 27707 net.cpp:91] Creating Layer pool5
I0403 13:16:56.526378 27707 net.cpp:425] pool5 <- conv5
I0403 13:16:56.526399 27707 net.cpp:399] pool5 -> pool5
I0403 13:16:56.526463 27707 net.cpp:141] Setting up pool5
I0403 13:16:56.526489 27707 net.cpp:148] Top shape: 100 256 6 6 (921600)
I0403 13:16:56.526506 27707 net.cpp:156] Memory required for data: 821695600
I0403 13:16:56.526525 27707 layer_factory.hpp:77] Creating layer fc6
I0403 13:16:56.526562 27707 net.cpp:91] Creating Layer fc6
I0403 13:16:56.526583 27707 net.cpp:425] fc6 <- pool5
I0403 13:16:56.526609 27707 net.cpp:399] fc6 -> fc6
I0403 13:16:58.102064 27707 net.cpp:141] Setting up fc6
I0403 13:16:58.102109 27707 net.cpp:148] Top shape: 100 4096 (409600)
I0403 13:16:58.102126 27707 net.cpp:156] Memory required for data: 823334000
I0403 13:16:58.102147 27707 layer_factory.hpp:77] Creating layer relu6
I0403 13:16:58.102172 27707 net.cpp:91] Creating Layer relu6
I0403 13:16:58.102191 27707 net.cpp:425] relu6 <- fc6
I0403 13:16:58.102210 27707 net.cpp:386] relu6 -> fc6 (in-place)
I0403 13:16:58.102428 27707 net.cpp:141] Setting up relu6
I0403 13:16:58.102453 27707 net.cpp:148] Top shape: 100 4096 (409600)
I0403 13:16:58.102468 27707 net.cpp:156] Memory required for data: 824972400
I0403 13:16:58.102481 27707 layer_factory.hpp:77] Creating layer drop6
I0403 13:16:58.102501 27707 net.cpp:91] Creating Layer drop6
I0403 13:16:58.102517 27707 net.cpp:425] drop6 <- fc6
I0403 13:16:58.102546 27707 net.cpp:386] drop6 -> fc6 (in-place)
I0403 13:16:58.102602 27707 net.cpp:141] Setting up drop6
I0403 13:16:58.102625 27707 net.cpp:148] Top shape: 100 4096 (409600)
I0403 13:16:58.102641 27707 net.cpp:156] Memory required for data: 826610800
I0403 13:16:58.102656 27707 layer_factory.hpp:77] Creating layer fc7
I0403 13:16:58.102679 27707 net.cpp:91] Creating Layer fc7
I0403 13:16:58.102695 27707 net.cpp:425] fc7 <- fc6
I0403 13:16:58.102715 27707 net.cpp:399] fc7 -> fc7
I0403 13:16:58.790650 27707 net.cpp:141] Setting up fc7
I0403 13:16:58.790729 27707 net.cpp:148] Top shape: 100 4096 (409600)
I0403 13:16:58.790746 27707 net.cpp:156] Memory required for data: 828249200
I0403 13:16:58.790768 27707 layer_factory.hpp:77] Creating layer relu7
I0403 13:16:58.790792 27707 net.cpp:91] Creating Layer relu7
I0403 13:16:58.790809 27707 net.cpp:425] relu7 <- fc7
I0403 13:16:58.790830 27707 net.cpp:386] relu7 -> fc7 (in-place)
I0403 13:16:58.791234 27707 net.cpp:141] Setting up relu7
I0403 13:16:58.791260 27707 net.cpp:148] Top shape: 100 4096 (409600)
I0403 13:16:58.791306 27707 net.cpp:156] Memory required for data: 829887600
I0403 13:16:58.791322 27707 layer_factory.hpp:77] Creating layer drop7
I0403 13:16:58.791342 27707 net.cpp:91] Creating Layer drop7
I0403 13:16:58.791366 27707 net.cpp:425] drop7 <- fc7
I0403 13:16:58.791384 27707 net.cpp:386] drop7 -> fc7 (in-place)
I0403 13:16:58.791431 27707 net.cpp:141] Setting up drop7
I0403 13:16:58.791455 27707 net.cpp:148] Top shape: 100 4096 (409600)
I0403 13:16:58.791470 27707 net.cpp:156] Memory required for data: 831526000
I0403 13:16:58.791484 27707 layer_factory.hpp:77] Creating layer fc8_plantvillage
I0403 13:16:58.791507 27707 net.cpp:91] Creating Layer fc8_plantvillage
I0403 13:16:58.791527 27707 net.cpp:425] fc8_plantvillage <- fc7
I0403 13:16:58.791553 27707 net.cpp:399] fc8_plantvillage -> fc8_plantvillage
I0403 13:16:58.798307 27707 net.cpp:141] Setting up fc8_plantvillage
I0403 13:16:58.798337 27707 net.cpp:148] Top shape: 100 38 (3800)
I0403 13:16:58.798359 27707 net.cpp:156] Memory required for data: 831541200
I0403 13:16:58.798379 27707 layer_factory.hpp:77] Creating layer fc8_plantvillage_fc8_plantvillage_0_split
I0403 13:16:58.798401 27707 net.cpp:91] Creating Layer fc8_plantvillage_fc8_plantvillage_0_split
I0403 13:16:58.798418 27707 net.cpp:425] fc8_plantvillage_fc8_plantvillage_0_split <- fc8_plantvillage
I0403 13:16:58.798436 27707 net.cpp:399] fc8_plantvillage_fc8_plantvillage_0_split -> fc8_plantvillage_fc8_plantvillage_0_split_0
I0403 13:16:58.798460 27707 net.cpp:399] fc8_plantvillage_fc8_plantvillage_0_split -> fc8_plantvillage_fc8_plantvillage_0_split_1
I0403 13:16:58.798480 27707 net.cpp:399] fc8_plantvillage_fc8_plantvillage_0_split -> fc8_plantvillage_fc8_plantvillage_0_split_2
I0403 13:16:58.798559 27707 net.cpp:141] Setting up fc8_plantvillage_fc8_plantvillage_0_split
I0403 13:16:58.798584 27707 net.cpp:148] Top shape: 100 38 (3800)
I0403 13:16:58.798601 27707 net.cpp:148] Top shape: 100 38 (3800)
I0403 13:16:58.798617 27707 net.cpp:148] Top shape: 100 38 (3800)
I0403 13:16:58.798631 27707 net.cpp:156] Memory required for data: 831586800
I0403 13:16:58.798646 27707 layer_factory.hpp:77] Creating layer prob
I0403 13:16:58.798667 27707 net.cpp:91] Creating Layer prob
I0403 13:16:58.798684 27707 net.cpp:425] prob <- fc8_plantvillage_fc8_plantvillage_0_split_0
I0403 13:16:58.798702 27707 net.cpp:399] prob -> prob
I0403 13:16:58.798925 27707 net.cpp:141] Setting up prob
I0403 13:16:58.798951 27707 net.cpp:148] Top shape: 100 38 (3800)
I0403 13:16:58.798966 27707 net.cpp:156] Memory required for data: 831602000
I0403 13:16:58.798981 27707 layer_factory.hpp:77] Creating layer hdf5out
I0403 13:16:58.799002 27707 net.cpp:91] Creating Layer hdf5out
I0403 13:16:58.799020 27707 net.cpp:425] hdf5out <- prob
I0403 13:16:58.799036 27707 net.cpp:425] hdf5out <- label_data_1_split_0
I0403 13:16:58.802646 27707 net.cpp:141] Setting up hdf5out
…
