…
I0403 05:27:06.504230  5364 net.cpp:313] The NetState phase (0) differed from the phase (1) specified by a rule in layer accuracy
I0403 05:27:06.505775  5364 net.cpp:49] Initializing net from parameters: 
state {
  phase: TRAIN
}
layer {
  name: "data"
  type: "Data"
  top: "data"
  top: "label"
  include {
    phase: TRAIN
  }
  transform_param {
    mirror: true
    crop_size: 227
    mean_file: "/home/mohanty/data/final_dataset/lmdb/grayscale-80-20/mean.binaryproto"
  }
  data_param {
    source: "/home/mohanty/data/final_dataset/lmdb/grayscale-80-20/train_db"
    batch_size: 100
    backend: LMDB
  }
}
layer {
  name: "conv1"
  type: "Convolution"
  bottom: "data"
  top: "conv1"
  param {
    lr_mult: 1
    decay_mult: 1
  }
  param {
    lr_mult: 2
    decay_mult: 0
  }
  convolution_param {
    num_output: 96
    kernel_size: 11
    stride: 4
    weight_filler {
      type: "gaussian"
      std: 0.01
    }
    bias_filler {
      type: "constant"
      value: 0
    }
  }
}
layer {
  name: "relu1"
  type: "ReLU"
  bottom: "conv1"
  top: "conv1"
}
layer {
  name: "norm1"
  type: "LRN"
  bottom: "conv1"
  top: "norm1"
  lrn_param {
    local_size: 5
    alpha: 0.0001
    beta: 0.75
  }
}
layer {
  name: "pool1"
  type: "Pooling"
  bottom: "norm1"
  top: "pool1"
  pooling_param {
    pool: MAX
    kernel_size: 3
    stride: 2
  }
}
layer {
  name: "conv2"
  type: "Convolution"
  bottom: "pool1"
  top: "conv2"
  param {
    lr_mult: 1
    decay_mult: 1
  }
  param {
    lr_mult: 2
    decay_mult: 0
  }
  convolution_param {
    num_output: 256
    pad: 2
    kernel_size: 5
    group: 2
    weight_filler {
      type: "gaussian"
      std: 0.01
    }
    bias_filler {
      type: "constant"
      value: 0.1
    }
  }
}
layer {
  name: "relu2"
  type: "ReLU"
  bottom: "conv2"
  top: "conv2"
}
layer {
  name: "norm2"
  type: "LRN"
  bottom: "conv2"
  top: "norm2"
  lrn_param {
    local_size: 5
    alpha: 0.0001
    beta: 0.75
  }
}
layer {
  name: "pool2"
  type: "Pooling"
  bottom: "norm2"
  top: "pool2"
  pooling_param {
    pool: MAX
    kernel_size: 3
    stride: 2
  }
}
layer {
  name: "conv3"
  type: "Convolution"
  bottom: "pool2"
  top: "conv3"
  param {
    lr_mult: 1
    decay_mult: 1
  }
  param {
    lr_mult: 2
    decay_mult: 0
  }
  convolution_param {
    num_output: 384
    pad: 1
    kernel_size: 3
    weight_filler {
      type: "gaussian"
      std: 0.01
    }
    bias_filler {
      type: "constant"
      value: 0
    }
  }
}
layer {
  name: "relu3"
  type: "ReLU"
  bottom: "conv3"
  top: "conv3"
}
layer {
  name: "conv4"
  type: "Convolution"
  bottom: "conv3"
  top: "conv4"
  param {
    lr_mult: 1
    decay_mult: 1
  }
  param {
    lr_mult: 2
    decay_mult: 0
  }
  convolution_param {
    num_output: 384
    pad: 1
    kernel_size: 3
    group: 2
    weight_filler {
      type: "gaussian"
      std: 0.01
    }
    bias_filler {
      type: "constant"
      value: 0.1
    }
  }
}
layer {
  name: "relu4"
  type: "ReLU"
  bottom: "conv4"
  top: "conv4"
}
layer {
  name: "conv5"
  type: "Convolution"
  bottom: "conv4"
  top: "conv5"
  param {
    lr_mult: 1
    decay_mult: 1
  }
  param {
    lr_mult: 2
    decay_mult: 0
  }
  convolution_param {
    num_output: 256
    pad: 1
    kernel_size: 3
    group: 2
    weight_filler {
      type: "gaussian"
      std: 0.01
    }
    bias_filler {
      type: "constant"
      value: 0.1
    }
  }
}
layer {
  name: "relu5"
  type: "ReLU"
  bottom: "conv5"
  top: "conv5"
}
layer {
  name: "pool5"
  type: "Pooling"
  bottom: "conv5"
  top: "pool5"
  pooling_param {
    pool: MAX
    kernel_size: 3
    stride: 2
  }
}
layer {
  name: "fc6"
  type: "InnerProduct"
  bottom: "pool5"
  top: "fc6"
  param {
    lr_mult: 1
    decay_mult: 1
  }
  param {
    lr_mult: 2
    decay_mult: 0
  }
  inner_product_param {
    num_output: 4096
    weight_filler {
      type: "gaussian"
      std: 0.005
    }
    bias_filler {
      type: "constant"
      value: 0.1
    }
  }
}
layer {
  name: "relu6"
  type: "ReLU"
  bottom: "fc6"
  top: "fc6"
}
layer {
  name: "drop6"
  type: "Dropout"
  bottom: "fc6"
  top: "fc6"
  dropout_param {
    dropout_ratio: 0.5
  }
}
layer {
  name: "fc7"
  type: "InnerProduct"
  bottom: "fc6"
  top: "fc7"
  param {
    lr_mult: 1
    decay_mult: 1
  }
  param {
    lr_mult: 2
    decay_mult: 0
  }
  inner_product_param {
    num_output: 4096
    weight_filler {
      type: "gaussian"
      std: 0.005
    }
    bias_filler {
      type: "constant"
      value: 0.1
    }
  }
}
layer {
  name: "relu7"
  type: "ReLU"
  bottom: "fc7"
  top: "fc7"
}
layer {
  name: "drop7"
  type: "Dropout"
  bottom: "fc7"
  top: "fc7"
  dropout_param {
    dropout_ratio: 0.5
  }
}
layer {
  name: "fc8_plantvillage"
  type: "InnerProduct"
  bottom: "fc7"
  top: "fc8_plantvillage"
  param {
    lr_mult: 1
    decay_mult: 1
  }
  param {
    lr_mult: 2
    decay_mult: 0
  }
  inner_product_param {
    num_output: 38
    weight_filler {
      type: "gaussian"
      std: 0.01
    }
    bias_filler {
      type: "constant"
      value: 0
    }
  }
}
layer {
  name: "loss"
  type: "SoftmaxWithLoss"
  bottom: "fc8_plantvillage"
  bottom: "label"
  top: "loss"
}
I0403 05:27:06.529373  5364 layer_factory.hpp:77] Creating layer data
I0403 05:27:06.530922  5364 net.cpp:91] Creating Layer data
I0403 05:27:06.530969  5364 net.cpp:399] data -> data
I0403 05:27:06.531036  5364 net.cpp:399] data -> label
I0403 05:27:06.531078  5364 data_transformer.cpp:25] Loading mean file from: /home/mohanty/data/final_dataset/lmdb/grayscale-80-20/mean.binaryproto
I0403 05:27:06.582159  5366 db_lmdb.cpp:38] Opened lmdb /home/mohanty/data/final_dataset/lmdb/grayscale-80-20/train_db
I0403 05:27:06.584357  5364 data_layer.cpp:41] output data size: 100,3,227,227
I0403 05:27:06.722053  5364 net.cpp:141] Setting up data
I0403 05:27:06.722165  5364 net.cpp:148] Top shape: 100 3 227 227 (15458700)
I0403 05:27:06.722192  5364 net.cpp:148] Top shape: 100 (100)
I0403 05:27:06.722223  5364 net.cpp:156] Memory required for data: 61835200
I0403 05:27:06.722283  5364 layer_factory.hpp:77] Creating layer conv1
I0403 05:27:06.722338  5364 net.cpp:91] Creating Layer conv1
I0403 05:27:06.722368  5364 net.cpp:425] conv1 <- data
I0403 05:27:06.722409  5364 net.cpp:399] conv1 -> conv1
I0403 05:27:06.725662  5364 net.cpp:141] Setting up conv1
I0403 05:27:06.725700  5364 net.cpp:148] Top shape: 100 96 55 55 (29040000)
I0403 05:27:06.725721  5364 net.cpp:156] Memory required for data: 177995200
I0403 05:27:06.725764  5364 layer_factory.hpp:77] Creating layer relu1
I0403 05:27:06.725798  5364 net.cpp:91] Creating Layer relu1
I0403 05:27:06.725822  5364 net.cpp:425] relu1 <- conv1
I0403 05:27:06.725844  5364 net.cpp:386] relu1 -> conv1 (in-place)
I0403 05:27:06.725873  5364 net.cpp:141] Setting up relu1
I0403 05:27:06.725896  5364 net.cpp:148] Top shape: 100 96 55 55 (29040000)
I0403 05:27:06.725914  5364 net.cpp:156] Memory required for data: 294155200
I0403 05:27:06.725931  5364 layer_factory.hpp:77] Creating layer norm1
I0403 05:27:06.725991  5364 net.cpp:91] Creating Layer norm1
I0403 05:27:06.726013  5364 net.cpp:425] norm1 <- conv1
I0403 05:27:06.726034  5364 net.cpp:399] norm1 -> norm1
I0403 05:27:06.731667  5364 net.cpp:141] Setting up norm1
I0403 05:27:06.731710  5364 net.cpp:148] Top shape: 100 96 55 55 (29040000)
I0403 05:27:06.731731  5364 net.cpp:156] Memory required for data: 410315200
I0403 05:27:06.731750  5364 layer_factory.hpp:77] Creating layer pool1
I0403 05:27:06.731777  5364 net.cpp:91] Creating Layer pool1
I0403 05:27:06.731799  5364 net.cpp:425] pool1 <- norm1
I0403 05:27:06.731822  5364 net.cpp:399] pool1 -> pool1
I0403 05:27:06.731910  5364 net.cpp:141] Setting up pool1
I0403 05:27:06.731942  5364 net.cpp:148] Top shape: 100 96 27 27 (6998400)
I0403 05:27:06.731961  5364 net.cpp:156] Memory required for data: 438308800
I0403 05:27:06.731978  5364 layer_factory.hpp:77] Creating layer conv2
I0403 05:27:06.732007  5364 net.cpp:91] Creating Layer conv2
I0403 05:27:06.732026  5364 net.cpp:425] conv2 <- pool1
I0403 05:27:06.732049  5364 net.cpp:399] conv2 -> conv2
I0403 05:27:06.733808  5368 blocking_queue.cpp:50] Waiting for data
I0403 05:27:06.751778  5364 net.cpp:141] Setting up conv2
I0403 05:27:06.751816  5364 net.cpp:148] Top shape: 100 256 27 27 (18662400)
I0403 05:27:06.751835  5364 net.cpp:156] Memory required for data: 512958400
I0403 05:27:06.751863  5364 layer_factory.hpp:77] Creating layer relu2
I0403 05:27:06.751888  5364 net.cpp:91] Creating Layer relu2
I0403 05:27:06.751909  5364 net.cpp:425] relu2 <- conv2
I0403 05:27:06.751931  5364 net.cpp:386] relu2 -> conv2 (in-place)
I0403 05:27:06.751955  5364 net.cpp:141] Setting up relu2
I0403 05:27:06.751977  5364 net.cpp:148] Top shape: 100 256 27 27 (18662400)
I0403 05:27:06.751994  5364 net.cpp:156] Memory required for data: 587608000
I0403 05:27:06.752012  5364 layer_factory.hpp:77] Creating layer norm2
I0403 05:27:06.752034  5364 net.cpp:91] Creating Layer norm2
I0403 05:27:06.752053  5364 net.cpp:425] norm2 <- conv2
I0403 05:27:06.752075  5364 net.cpp:399] norm2 -> norm2
I0403 05:27:06.752132  5364 net.cpp:141] Setting up norm2
I0403 05:27:06.752159  5364 net.cpp:148] Top shape: 100 256 27 27 (18662400)
I0403 05:27:06.752178  5364 net.cpp:156] Memory required for data: 662257600
I0403 05:27:06.752197  5364 layer_factory.hpp:77] Creating layer pool2
I0403 05:27:06.752220  5364 net.cpp:91] Creating Layer pool2
I0403 05:27:06.752240  5364 net.cpp:425] pool2 <- norm2
I0403 05:27:06.752262  5364 net.cpp:399] pool2 -> pool2
I0403 05:27:06.752320  5364 net.cpp:141] Setting up pool2
I0403 05:27:06.752346  5364 net.cpp:148] Top shape: 100 256 13 13 (4326400)
I0403 05:27:06.752364  5364 net.cpp:156] Memory required for data: 679563200
I0403 05:27:06.752382  5364 layer_factory.hpp:77] Creating layer conv3
I0403 05:27:06.752408  5364 net.cpp:91] Creating Layer conv3
I0403 05:27:06.752429  5364 net.cpp:425] conv3 <- pool2
I0403 05:27:06.752452  5364 net.cpp:399] conv3 -> conv3
I0403 05:27:06.796038  5364 net.cpp:141] Setting up conv3
I0403 05:27:06.796077  5364 net.cpp:148] Top shape: 100 384 13 13 (6489600)
I0403 05:27:06.796097  5364 net.cpp:156] Memory required for data: 705521600
I0403 05:27:06.796123  5364 layer_factory.hpp:77] Creating layer relu3
I0403 05:27:06.796147  5364 net.cpp:91] Creating Layer relu3
I0403 05:27:06.796169  5364 net.cpp:425] relu3 <- conv3
I0403 05:27:06.796190  5364 net.cpp:386] relu3 -> conv3 (in-place)
I0403 05:27:06.796213  5364 net.cpp:141] Setting up relu3
I0403 05:27:06.796236  5364 net.cpp:148] Top shape: 100 384 13 13 (6489600)
I0403 05:27:06.796252  5364 net.cpp:156] Memory required for data: 731480000
I0403 05:27:06.796269  5364 layer_factory.hpp:77] Creating layer conv4
I0403 05:27:06.796295  5364 net.cpp:91] Creating Layer conv4
I0403 05:27:06.796316  5364 net.cpp:425] conv4 <- conv3
I0403 05:27:06.796340  5364 net.cpp:399] conv4 -> conv4
I0403 05:27:06.829066  5364 net.cpp:141] Setting up conv4
I0403 05:27:06.829100  5364 net.cpp:148] Top shape: 100 384 13 13 (6489600)
I0403 05:27:06.829121  5364 net.cpp:156] Memory required for data: 757438400
I0403 05:27:06.829167  5364 layer_factory.hpp:77] Creating layer relu4
I0403 05:27:06.829192  5364 net.cpp:91] Creating Layer relu4
I0403 05:27:06.829213  5364 net.cpp:425] relu4 <- conv4
I0403 05:27:06.829236  5364 net.cpp:386] relu4 -> conv4 (in-place)
I0403 05:27:06.829259  5364 net.cpp:141] Setting up relu4
I0403 05:27:06.829280  5364 net.cpp:148] Top shape: 100 384 13 13 (6489600)
I0403 05:27:06.829298  5364 net.cpp:156] Memory required for data: 783396800
I0403 05:27:06.829316  5364 layer_factory.hpp:77] Creating layer conv5
I0403 05:27:06.829344  5364 net.cpp:91] Creating Layer conv5
I0403 05:27:06.829365  5364 net.cpp:425] conv5 <- conv4
I0403 05:27:06.829388  5364 net.cpp:399] conv5 -> conv5
I0403 05:27:06.851397  5364 net.cpp:141] Setting up conv5
I0403 05:27:06.851433  5364 net.cpp:148] Top shape: 100 256 13 13 (4326400)
I0403 05:27:06.851452  5364 net.cpp:156] Memory required for data: 800702400
I0403 05:27:06.851480  5364 layer_factory.hpp:77] Creating layer relu5
I0403 05:27:06.851507  5364 net.cpp:91] Creating Layer relu5
I0403 05:27:06.851538  5364 net.cpp:425] relu5 <- conv5
I0403 05:27:06.851560  5364 net.cpp:386] relu5 -> conv5 (in-place)
I0403 05:27:06.851584  5364 net.cpp:141] Setting up relu5
I0403 05:27:06.851605  5364 net.cpp:148] Top shape: 100 256 13 13 (4326400)
I0403 05:27:06.851624  5364 net.cpp:156] Memory required for data: 818008000
I0403 05:27:06.851641  5364 layer_factory.hpp:77] Creating layer pool5
I0403 05:27:06.851665  5364 net.cpp:91] Creating Layer pool5
I0403 05:27:06.851683  5364 net.cpp:425] pool5 <- conv5
I0403 05:27:06.851708  5364 net.cpp:399] pool5 -> pool5
I0403 05:27:06.851768  5364 net.cpp:141] Setting up pool5
I0403 05:27:06.851795  5364 net.cpp:148] Top shape: 100 256 6 6 (921600)
I0403 05:27:06.851814  5364 net.cpp:156] Memory required for data: 821694400
I0403 05:27:06.851831  5364 layer_factory.hpp:77] Creating layer fc6
I0403 05:27:06.851866  5364 net.cpp:91] Creating Layer fc6
I0403 05:27:06.851888  5364 net.cpp:425] fc6 <- pool5
I0403 05:27:06.851912  5364 net.cpp:399] fc6 -> fc6
I0403 05:27:08.707780  5364 net.cpp:141] Setting up fc6
I0403 05:27:08.707870  5364 net.cpp:148] Top shape: 100 4096 (409600)
I0403 05:27:08.707887  5364 net.cpp:156] Memory required for data: 823332800
I0403 05:27:08.707911  5364 layer_factory.hpp:77] Creating layer relu6
I0403 05:27:08.707938  5364 net.cpp:91] Creating Layer relu6
I0403 05:27:08.707957  5364 net.cpp:425] relu6 <- fc6
I0403 05:27:08.707978  5364 net.cpp:386] relu6 -> fc6 (in-place)
I0403 05:27:08.708000  5364 net.cpp:141] Setting up relu6
I0403 05:27:08.708017  5364 net.cpp:148] Top shape: 100 4096 (409600)
I0403 05:27:08.708032  5364 net.cpp:156] Memory required for data: 824971200
I0403 05:27:08.708046  5364 layer_factory.hpp:77] Creating layer drop6
I0403 05:27:08.708075  5364 net.cpp:91] Creating Layer drop6
I0403 05:27:08.708091  5364 net.cpp:425] drop6 <- fc6
I0403 05:27:08.708107  5364 net.cpp:386] drop6 -> fc6 (in-place)
I0403 05:27:08.708154  5364 net.cpp:141] Setting up drop6
I0403 05:27:08.708176  5364 net.cpp:148] Top shape: 100 4096 (409600)
I0403 05:27:08.708191  5364 net.cpp:156] Memory required for data: 826609600
I0403 05:27:08.708205  5364 layer_factory.hpp:77] Creating layer fc7
I0403 05:27:08.708227  5364 net.cpp:91] Creating Layer fc7
I0403 05:27:08.708243  5364 net.cpp:425] fc7 <- fc6
I0403 05:27:08.708261  5364 net.cpp:399] fc7 -> fc7
I0403 05:27:09.366011  5364 net.cpp:141] Setting up fc7
I0403 05:27:09.366111  5364 net.cpp:148] Top shape: 100 4096 (409600)
I0403 05:27:09.366127  5364 net.cpp:156] Memory required for data: 828248000
I0403 05:27:09.366149  5364 layer_factory.hpp:77] Creating layer relu7
I0403 05:27:09.366173  5364 net.cpp:91] Creating Layer relu7
I0403 05:27:09.366190  5364 net.cpp:425] relu7 <- fc7
I0403 05:27:09.366209  5364 net.cpp:386] relu7 -> fc7 (in-place)
I0403 05:27:09.366232  5364 net.cpp:141] Setting up relu7
I0403 05:27:09.366248  5364 net.cpp:148] Top shape: 100 4096 (409600)
I0403 05:27:09.366263  5364 net.cpp:156] Memory required for data: 829886400
I0403 05:27:09.366310  5364 layer_factory.hpp:77] Creating layer drop7
I0403 05:27:09.366333  5364 net.cpp:91] Creating Layer drop7
I0403 05:27:09.366350  5364 net.cpp:425] drop7 <- fc7
I0403 05:27:09.366367  5364 net.cpp:386] drop7 -> fc7 (in-place)
I0403 05:27:09.366408  5364 net.cpp:141] Setting up drop7
I0403 05:27:09.366430  5364 net.cpp:148] Top shape: 100 4096 (409600)
I0403 05:27:09.366444  5364 net.cpp:156] Memory required for data: 831524800
I0403 05:27:09.366458  5364 layer_factory.hpp:77] Creating layer fc8_plantvillage
I0403 05:27:09.366478  5364 net.cpp:91] Creating Layer fc8_plantvillage
I0403 05:27:09.366493  5364 net.cpp:425] fc8_plantvillage <- fc7
I0403 05:27:09.366513  5364 net.cpp:399] fc8_plantvillage -> fc8_plantvillage
I0403 05:27:09.372962  5364 net.cpp:141] Setting up fc8_plantvillage
I0403 05:27:09.372990  5364 net.cpp:148] Top shape: 100 38 (3800)
I0403 05:27:09.373006  5364 net.cpp:156] Memory required for data: 831540000
I0403 05:27:09.373023  5364 layer_factory.hpp:77] Creating layer loss
I0403 05:27:09.373051  5364 net.cpp:91] Creating Layer loss
I0403 05:27:09.373070  5364 net.cpp:425] loss <- fc8_plantvillage
I0403 05:27:09.373085  5364 net.cpp:425] loss <- label
I0403 05:27:09.373107  5364 net.cpp:399] loss -> loss
I0403 05:27:09.373136  5364 layer_factory.hpp:77] Creating layer loss
…
I0403 05:27:09.374822  5364 net.cpp:313] The NetState phase (1) differed from the phase (0) specified by a rule in layer data
I0403 05:27:09.375437  5364 net.cpp:49] Initializing net from parameters: 
state {
  phase: TEST
}
layer {
  name: "data"
  type: "Data"
  top: "data"
  top: "label"
  include {
    phase: TEST
  }
  transform_param {
    crop_size: 227
    mean_file: "/home/mohanty/data/final_dataset/lmdb/grayscale-80-20/mean.binaryproto"
  }
  data_param {
    source: "/home/mohanty/data/final_dataset/lmdb/grayscale-80-20/test_db"
    batch_size: 100
    backend: LMDB
  }
}
layer {
  name: "conv1"
  type: "Convolution"
  bottom: "data"
  top: "conv1"
  param {
    lr_mult: 1
    decay_mult: 1
  }
  param {
    lr_mult: 2
    decay_mult: 0
  }
  convolution_param {
    num_output: 96
    kernel_size: 11
    stride: 4
    weight_filler {
      type: "gaussian"
      std: 0.01
    }
    bias_filler {
      type: "constant"
      value: 0
    }
  }
}
layer {
  name: "relu1"
  type: "ReLU"
  bottom: "conv1"
  top: "conv1"
}
layer {
  name: "norm1"
  type: "LRN"
  bottom: "conv1"
  top: "norm1"
  lrn_param {
    local_size: 5
    alpha: 0.0001
    beta: 0.75
  }
}
layer {
  name: "pool1"
  type: "Pooling"
  bottom: "norm1"
  top: "pool1"
  pooling_param {
    pool: MAX
    kernel_size: 3
    stride: 2
  }
}
layer {
  name: "conv2"
  type: "Convolution"
  bottom: "pool1"
  top: "conv2"
  param {
    lr_mult: 1
    decay_mult: 1
  }
  param {
    lr_mult: 2
    decay_mult: 0
  }
  convolution_param {
    num_output: 256
    pad: 2
    kernel_size: 5
    group: 2
    weight_filler {
      type: "gaussian"
      std: 0.01
    }
    bias_filler {
      type: "constant"
      value: 0.1
    }
  }
}
layer {
  name: "relu2"
  type: "ReLU"
  bottom: "conv2"
  top: "conv2"
}
layer {
  name: "norm2"
  type: "LRN"
  bottom: "conv2"
  top: "norm2"
  lrn_param {
    local_size: 5
    alpha: 0.0001
    beta: 0.75
  }
}
layer {
  name: "pool2"
  type: "Pooling"
  bottom: "norm2"
  top: "pool2"
  pooling_param {
    pool: MAX
    kernel_size: 3
    stride: 2
  }
}
layer {
  name: "conv3"
  type: "Convolution"
  bottom: "pool2"
  top: "conv3"
  param {
    lr_mult: 1
    decay_mult: 1
  }
  param {
    lr_mult: 2
    decay_mult: 0
  }
  convolution_param {
    num_output: 384
    pad: 1
    kernel_size: 3
    weight_filler {
      type: "gaussian"
      std: 0.01
    }
    bias_filler {
      type: "constant"
      value: 0
    }
  }
}
layer {
  name: "relu3"
  type: "ReLU"
  bottom: "conv3"
  top: "conv3"
}
layer {
  name: "conv4"
  type: "Convolution"
  bottom: "conv3"
  top: "conv4"
  param {
    lr_mult: 1
    decay_mult: 1
  }
  param {
    lr_mult: 2
    decay_mult: 0
  }
  convolution_param {
    num_output: 384
    pad: 1
    kernel_size: 3
    group: 2
    weight_filler {
      type: "gaussian"
      std: 0.01
    }
    bias_filler {
      type: "constant"
      value: 0.1
    }
  }
}
layer {
  name: "relu4"
  type: "ReLU"
  bottom: "conv4"
  top: "conv4"
}
layer {
  name: "conv5"
  type: "Convolution"
  bottom: "conv4"
  top: "conv5"
  param {
    lr_mult: 1
    decay_mult: 1
  }
  param {
    lr_mult: 2
    decay_mult: 0
  }
  convolution_param {
    num_output: 256
    pad: 1
    kernel_size: 3
    group: 2
    weight_filler {
      type: "gaussian"
      std: 0.01
    }
    bias_filler {
      type: "constant"
      value: 0.1
    }
  }
}
layer {
  name: "relu5"
  type: "ReLU"
  bottom: "conv5"
  top: "conv5"
}
layer {
  name: "pool5"
  type: "Pooling"
  bottom: "conv5"
  top: "pool5"
  pooling_param {
    pool: MAX
    kernel_size: 3
    stride: 2
  }
}
layer {
  name: "fc6"
  type: "InnerProduct"
  bottom: "pool5"
  top: "fc6"
  param {
    lr_mult: 1
    decay_mult: 1
  }
  param {
    lr_mult: 2
    decay_mult: 0
  }
  inner_product_param {
    num_output: 4096
    weight_filler {
      type: "gaussian"
      std: 0.005
    }
    bias_filler {
      type: "constant"
      value: 0.1
    }
  }
}
layer {
  name: "relu6"
  type: "ReLU"
  bottom: "fc6"
  top: "fc6"
}
layer {
  name: "drop6"
  type: "Dropout"
  bottom: "fc6"
  top: "fc6"
  dropout_param {
    dropout_ratio: 0.5
  }
}
layer {
  name: "fc7"
  type: "InnerProduct"
  bottom: "fc6"
  top: "fc7"
  param {
    lr_mult: 1
    decay_mult: 1
  }
  param {
    lr_mult: 2
    decay_mult: 0
  }
  inner_product_param {
    num_output: 4096
    weight_filler {
      type: "gaussian"
      std: 0.005
    }
    bias_filler {
      type: "constant"
      value: 0.1
    }
  }
}
layer {
  name: "relu7"
  type: "ReLU"
  bottom: "fc7"
  top: "fc7"
}
layer {
  name: "drop7"
  type: "Dropout"
  bottom: "fc7"
  top: "fc7"
  dropout_param {
    dropout_ratio: 0.5
  }
}
layer {
  name: "fc8_plantvillage"
  type: "InnerProduct"
  bottom: "fc7"
  top: "fc8_plantvillage"
  param {
    lr_mult: 1
    decay_mult: 1
  }
  param {
    lr_mult: 2
    decay_mult: 0
  }
  inner_product_param {
    num_output: 38
    weight_filler {
      type: "gaussian"
      std: 0.01
    }
    bias_filler {
      type: "constant"
      value: 0
    }
  }
}
layer {
  name: "loss"
  type: "SoftmaxWithLoss"
  bottom: "fc8_plantvillage"
  bottom: "label"
  top: "loss"
}
layer {
  name: "accuracy"
  type: "Accuracy"
  bottom: "fc8_plantvillage"
  bottom: "label"
  top: "accuracy"
  include {
    phase: TEST
  }
}
I0403 05:27:09.375604  5364 layer_factory.hpp:77] Creating layer data
I0403 05:27:09.375767  5364 net.cpp:91] Creating Layer data
I0403 05:27:09.375797  5364 net.cpp:399] data -> data
I0403 05:27:09.375823  5364 net.cpp:399] data -> label
I0403 05:27:09.375847  5364 data_transformer.cpp:25] Loading mean file from: /home/mohanty/data/final_dataset/lmdb/grayscale-80-20/mean.binaryproto
I0403 05:27:09.414820  5369 db_lmdb.cpp:38] Opened lmdb /home/mohanty/data/final_dataset/lmdb/grayscale-80-20/test_db
I0403 05:27:09.421035  5364 data_layer.cpp:41] output data size: 100,3,227,227
I0403 05:27:09.540165  5364 net.cpp:141] Setting up data
I0403 05:27:09.540251  5364 net.cpp:148] Top shape: 100 3 227 227 (15458700)
I0403 05:27:09.540271  5364 net.cpp:148] Top shape: 100 (100)
I0403 05:27:09.540287  5364 net.cpp:156] Memory required for data: 61835200
I0403 05:27:09.540305  5364 layer_factory.hpp:77] Creating layer label_data_1_split
I0403 05:27:09.540334  5364 net.cpp:91] Creating Layer label_data_1_split
I0403 05:27:09.540354  5364 net.cpp:425] label_data_1_split <- label
I0403 05:27:09.540375  5364 net.cpp:399] label_data_1_split -> label_data_1_split_0
I0403 05:27:09.540401  5364 net.cpp:399] label_data_1_split -> label_data_1_split_1
I0403 05:27:09.540458  5364 net.cpp:141] Setting up label_data_1_split
I0403 05:27:09.540482  5364 net.cpp:148] Top shape: 100 (100)
I0403 05:27:09.540499  5364 net.cpp:148] Top shape: 100 (100)
I0403 05:27:09.540513  5364 net.cpp:156] Memory required for data: 61836000
I0403 05:27:09.540527  5364 layer_factory.hpp:77] Creating layer conv1
I0403 05:27:09.540562  5364 net.cpp:91] Creating Layer conv1
I0403 05:27:09.540582  5364 net.cpp:425] conv1 <- data
I0403 05:27:09.540601  5364 net.cpp:399] conv1 -> conv1
I0403 05:27:09.542194  5364 net.cpp:141] Setting up conv1
I0403 05:27:09.542223  5364 net.cpp:148] Top shape: 100 96 55 55 (29040000)
I0403 05:27:09.542240  5364 net.cpp:156] Memory required for data: 177996000
I0403 05:27:09.542268  5364 layer_factory.hpp:77] Creating layer relu1
I0403 05:27:09.542289  5364 net.cpp:91] Creating Layer relu1
I0403 05:27:09.542306  5364 net.cpp:425] relu1 <- conv1
I0403 05:27:09.542325  5364 net.cpp:386] relu1 -> conv1 (in-place)
I0403 05:27:09.542345  5364 net.cpp:141] Setting up relu1
I0403 05:27:09.542362  5364 net.cpp:148] Top shape: 100 96 55 55 (29040000)
I0403 05:27:09.542376  5364 net.cpp:156] Memory required for data: 294156000
I0403 05:27:09.542390  5364 layer_factory.hpp:77] Creating layer norm1
I0403 05:27:09.542412  5364 net.cpp:91] Creating Layer norm1
I0403 05:27:09.542430  5364 net.cpp:425] norm1 <- conv1
I0403 05:27:09.542448  5364 net.cpp:399] norm1 -> norm1
I0403 05:27:09.542500  5364 net.cpp:141] Setting up norm1
I0403 05:27:09.542523  5364 net.cpp:148] Top shape: 100 96 55 55 (29040000)
I0403 05:27:09.542538  5364 net.cpp:156] Memory required for data: 410316000
I0403 05:27:09.542577  5364 layer_factory.hpp:77] Creating layer pool1
I0403 05:27:09.542608  5364 net.cpp:91] Creating Layer pool1
I0403 05:27:09.542625  5364 net.cpp:425] pool1 <- norm1
I0403 05:27:09.542644  5364 net.cpp:399] pool1 -> pool1
I0403 05:27:09.548554  5364 net.cpp:141] Setting up pool1
I0403 05:27:09.548593  5364 net.cpp:148] Top shape: 100 96 27 27 (6998400)
I0403 05:27:09.548612  5364 net.cpp:156] Memory required for data: 438309600
I0403 05:27:09.548666  5364 layer_factory.hpp:77] Creating layer conv2
I0403 05:27:09.548693  5364 net.cpp:91] Creating Layer conv2
I0403 05:27:09.548712  5364 net.cpp:425] conv2 <- pool1
I0403 05:27:09.548733  5364 net.cpp:399] conv2 -> conv2
I0403 05:27:09.561568  5364 net.cpp:141] Setting up conv2
I0403 05:27:09.561599  5364 net.cpp:148] Top shape: 100 256 27 27 (18662400)
I0403 05:27:09.561616  5364 net.cpp:156] Memory required for data: 512959200
I0403 05:27:09.561640  5364 layer_factory.hpp:77] Creating layer relu2
I0403 05:27:09.561661  5364 net.cpp:91] Creating Layer relu2
I0403 05:27:09.561677  5364 net.cpp:425] relu2 <- conv2
I0403 05:27:09.561697  5364 net.cpp:386] relu2 -> conv2 (in-place)
I0403 05:27:09.561717  5364 net.cpp:141] Setting up relu2
I0403 05:27:09.561735  5364 net.cpp:148] Top shape: 100 256 27 27 (18662400)
I0403 05:27:09.561750  5364 net.cpp:156] Memory required for data: 587608800
I0403 05:27:09.561765  5364 layer_factory.hpp:77] Creating layer norm2
I0403 05:27:09.561785  5364 net.cpp:91] Creating Layer norm2
I0403 05:27:09.561803  5364 net.cpp:425] norm2 <- conv2
I0403 05:27:09.561822  5364 net.cpp:399] norm2 -> norm2
I0403 05:27:09.561872  5364 net.cpp:141] Setting up norm2
I0403 05:27:09.561897  5364 net.cpp:148] Top shape: 100 256 27 27 (18662400)
I0403 05:27:09.561913  5364 net.cpp:156] Memory required for data: 662258400
I0403 05:27:09.561928  5364 layer_factory.hpp:77] Creating layer pool2
I0403 05:27:09.561946  5364 net.cpp:91] Creating Layer pool2
I0403 05:27:09.561962  5364 net.cpp:425] pool2 <- norm2
I0403 05:27:09.561982  5364 net.cpp:399] pool2 -> pool2
I0403 05:27:09.562029  5364 net.cpp:141] Setting up pool2
I0403 05:27:09.562052  5364 net.cpp:148] Top shape: 100 256 13 13 (4326400)
I0403 05:27:09.562067  5364 net.cpp:156] Memory required for data: 679564000
I0403 05:27:09.562083  5364 layer_factory.hpp:77] Creating layer conv3
I0403 05:27:09.562105  5364 net.cpp:91] Creating Layer conv3
I0403 05:27:09.562122  5364 net.cpp:425] conv3 <- pool2
I0403 05:27:09.562142  5364 net.cpp:399] conv3 -> conv3
I0403 05:27:09.597713  5364 net.cpp:141] Setting up conv3
I0403 05:27:09.597779  5364 net.cpp:148] Top shape: 100 384 13 13 (6489600)
I0403 05:27:09.597797  5364 net.cpp:156] Memory required for data: 705522400
I0403 05:27:09.597821  5364 layer_factory.hpp:77] Creating layer relu3
I0403 05:27:09.597844  5364 net.cpp:91] Creating Layer relu3
I0403 05:27:09.597862  5364 net.cpp:425] relu3 <- conv3
I0403 05:27:09.597880  5364 net.cpp:386] relu3 -> conv3 (in-place)
I0403 05:27:09.597903  5364 net.cpp:141] Setting up relu3
I0403 05:27:09.597920  5364 net.cpp:148] Top shape: 100 384 13 13 (6489600)
I0403 05:27:09.597934  5364 net.cpp:156] Memory required for data: 731480800
I0403 05:27:09.597947  5364 layer_factory.hpp:77] Creating layer conv4
I0403 05:27:09.597971  5364 net.cpp:91] Creating Layer conv4
I0403 05:27:09.597988  5364 net.cpp:425] conv4 <- conv3
I0403 05:27:09.598008  5364 net.cpp:399] conv4 -> conv4
I0403 05:27:09.624584  5364 net.cpp:141] Setting up conv4
I0403 05:27:09.624625  5364 net.cpp:148] Top shape: 100 384 13 13 (6489600)
I0403 05:27:09.624640  5364 net.cpp:156] Memory required for data: 757439200
I0403 05:27:09.624660  5364 layer_factory.hpp:77] Creating layer relu4
I0403 05:27:09.624680  5364 net.cpp:91] Creating Layer relu4
I0403 05:27:09.624698  5364 net.cpp:425] relu4 <- conv4
I0403 05:27:09.624717  5364 net.cpp:386] relu4 -> conv4 (in-place)
I0403 05:27:09.624737  5364 net.cpp:141] Setting up relu4
I0403 05:27:09.624755  5364 net.cpp:148] Top shape: 100 384 13 13 (6489600)
I0403 05:27:09.624768  5364 net.cpp:156] Memory required for data: 783397600
I0403 05:27:09.624783  5364 layer_factory.hpp:77] Creating layer conv5
I0403 05:27:09.624806  5364 net.cpp:91] Creating Layer conv5
I0403 05:27:09.624824  5364 net.cpp:425] conv5 <- conv4
I0403 05:27:09.624842  5364 net.cpp:399] conv5 -> conv5
I0403 05:27:09.642279  5364 net.cpp:141] Setting up conv5
I0403 05:27:09.642313  5364 net.cpp:148] Top shape: 100 256 13 13 (4326400)
I0403 05:27:09.642356  5364 net.cpp:156] Memory required for data: 800703200
I0403 05:27:09.642381  5364 layer_factory.hpp:77] Creating layer relu5
I0403 05:27:09.642402  5364 net.cpp:91] Creating Layer relu5
I0403 05:27:09.642418  5364 net.cpp:425] relu5 <- conv5
I0403 05:27:09.642436  5364 net.cpp:386] relu5 -> conv5 (in-place)
I0403 05:27:09.642457  5364 net.cpp:141] Setting up relu5
I0403 05:27:09.642474  5364 net.cpp:148] Top shape: 100 256 13 13 (4326400)
I0403 05:27:09.642488  5364 net.cpp:156] Memory required for data: 818008800
I0403 05:27:09.642503  5364 layer_factory.hpp:77] Creating layer pool5
I0403 05:27:09.642542  5364 net.cpp:91] Creating Layer pool5
I0403 05:27:09.642561  5364 net.cpp:425] pool5 <- conv5
I0403 05:27:09.642580  5364 net.cpp:399] pool5 -> pool5
I0403 05:27:09.642634  5364 net.cpp:141] Setting up pool5
I0403 05:27:09.642658  5364 net.cpp:148] Top shape: 100 256 6 6 (921600)
I0403 05:27:09.642674  5364 net.cpp:156] Memory required for data: 821695200
I0403 05:27:09.642690  5364 layer_factory.hpp:77] Creating layer fc6
I0403 05:27:09.642711  5364 net.cpp:91] Creating Layer fc6
I0403 05:27:09.642729  5364 net.cpp:425] fc6 <- pool5
I0403 05:27:09.642748  5364 net.cpp:399] fc6 -> fc6
I0403 05:27:11.077462  5364 net.cpp:141] Setting up fc6
I0403 05:27:11.077553  5364 net.cpp:148] Top shape: 100 4096 (409600)
I0403 05:27:11.077570  5364 net.cpp:156] Memory required for data: 823333600
I0403 05:27:11.077594  5364 layer_factory.hpp:77] Creating layer relu6
I0403 05:27:11.077620  5364 net.cpp:91] Creating Layer relu6
I0403 05:27:11.077639  5364 net.cpp:425] relu6 <- fc6
I0403 05:27:11.077659  5364 net.cpp:386] relu6 -> fc6 (in-place)
I0403 05:27:11.077682  5364 net.cpp:141] Setting up relu6
I0403 05:27:11.077697  5364 net.cpp:148] Top shape: 100 4096 (409600)
I0403 05:27:11.077711  5364 net.cpp:156] Memory required for data: 824972000
I0403 05:27:11.077725  5364 layer_factory.hpp:77] Creating layer drop6
I0403 05:27:11.077744  5364 net.cpp:91] Creating Layer drop6
I0403 05:27:11.077762  5364 net.cpp:425] drop6 <- fc6
I0403 05:27:11.077780  5364 net.cpp:386] drop6 -> fc6 (in-place)
I0403 05:27:11.077818  5364 net.cpp:141] Setting up drop6
I0403 05:27:11.077839  5364 net.cpp:148] Top shape: 100 4096 (409600)
I0403 05:27:11.077853  5364 net.cpp:156] Memory required for data: 826610400
I0403 05:27:11.077867  5364 layer_factory.hpp:77] Creating layer fc7
I0403 05:27:11.077890  5364 net.cpp:91] Creating Layer fc7
I0403 05:27:11.077908  5364 net.cpp:425] fc7 <- fc6
I0403 05:27:11.077925  5364 net.cpp:399] fc7 -> fc7
I0403 05:27:11.711848  5364 net.cpp:141] Setting up fc7
I0403 05:27:11.711932  5364 net.cpp:148] Top shape: 100 4096 (409600)
I0403 05:27:11.711948  5364 net.cpp:156] Memory required for data: 828248800
I0403 05:27:11.711971  5364 layer_factory.hpp:77] Creating layer relu7
I0403 05:27:11.711997  5364 net.cpp:91] Creating Layer relu7
I0403 05:27:11.712015  5364 net.cpp:425] relu7 <- fc7
I0403 05:27:11.712034  5364 net.cpp:386] relu7 -> fc7 (in-place)
I0403 05:27:11.712057  5364 net.cpp:141] Setting up relu7
I0403 05:27:11.712074  5364 net.cpp:148] Top shape: 100 4096 (409600)
I0403 05:27:11.712087  5364 net.cpp:156] Memory required for data: 829887200
I0403 05:27:11.712101  5364 layer_factory.hpp:77] Creating layer drop7
I0403 05:27:11.712123  5364 net.cpp:91] Creating Layer drop7
I0403 05:27:11.712139  5364 net.cpp:425] drop7 <- fc7
I0403 05:27:11.712155  5364 net.cpp:386] drop7 -> fc7 (in-place)
I0403 05:27:11.712194  5364 net.cpp:141] Setting up drop7
I0403 05:27:11.712218  5364 net.cpp:148] Top shape: 100 4096 (409600)
I0403 05:27:11.712232  5364 net.cpp:156] Memory required for data: 831525600
I0403 05:27:11.712247  5364 layer_factory.hpp:77] Creating layer fc8_plantvillage
I0403 05:27:11.712267  5364 net.cpp:91] Creating Layer fc8_plantvillage
I0403 05:27:11.712282  5364 net.cpp:425] fc8_plantvillage <- fc7
I0403 05:27:11.712302  5364 net.cpp:399] fc8_plantvillage -> fc8_plantvillage
I0403 05:27:11.718578  5364 net.cpp:141] Setting up fc8_plantvillage
I0403 05:27:11.718610  5364 net.cpp:148] Top shape: 100 38 (3800)
I0403 05:27:11.718652  5364 net.cpp:156] Memory required for data: 831540800
I0403 05:27:11.718672  5364 layer_factory.hpp:77] Creating layer fc8_plantvillage_fc8_plantvillage_0_split
I0403 05:27:11.718693  5364 net.cpp:91] Creating Layer fc8_plantvillage_fc8_plantvillage_0_split
I0403 05:27:11.718711  5364 net.cpp:425] fc8_plantvillage_fc8_plantvillage_0_split <- fc8_plantvillage
I0403 05:27:11.718729  5364 net.cpp:399] fc8_plantvillage_fc8_plantvillage_0_split -> fc8_plantvillage_fc8_plantvillage_0_split_0
I0403 05:27:11.718750  5364 net.cpp:399] fc8_plantvillage_fc8_plantvillage_0_split -> fc8_plantvillage_fc8_plantvillage_0_split_1
I0403 05:27:11.718811  5364 net.cpp:141] Setting up fc8_plantvillage_fc8_plantvillage_0_split
I0403 05:27:11.718835  5364 net.cpp:148] Top shape: 100 38 (3800)
I0403 05:27:11.718850  5364 net.cpp:148] Top shape: 100 38 (3800)
I0403 05:27:11.718864  5364 net.cpp:156] Memory required for data: 831571200
I0403 05:27:11.718878  5364 layer_factory.hpp:77] Creating layer loss
I0403 05:27:11.718896  5364 net.cpp:91] Creating Layer loss
I0403 05:27:11.718912  5364 net.cpp:425] loss <- fc8_plantvillage_fc8_plantvillage_0_split_0
I0403 05:27:11.718929  5364 net.cpp:425] loss <- label_data_1_split_0
I0403 05:27:11.718950  5364 net.cpp:399] loss -> loss
…
