…
I0403 16:54:41.229200 21569 net.cpp:313] The NetState phase (1) differed from the phase (0) specified by a rule in layer data
I0403 16:54:41.230409 21569 net.cpp:49] Initializing net from parameters: 
state {
  phase: TEST
}
layer {
  name: "data"
  type: "Data"
  top: "data"
  top: "label"
  include {
    phase: TEST
  }
  transform_param {
    mirror: false
    crop_size: 224
    mean_file: "/home/mohanty/data/final_dataset/lmdb/grayscale-20-80/mean.binaryproto"
  }
  data_param {
    source: "/home/mohanty/data/final_dataset/lmdb/grayscale-20-80/test_db"
    batch_size: 24
    backend: LMDB
  }
}
layer {
  name: "conv1/7x7_s2"
  type: "Convolution"
  bottom: "data"
  top: "conv1/7x7_s2"
  param {
    lr_mult: 1
    decay_mult: 1
  }
  param {
    lr_mult: 2
    decay_mult: 0
  }
  convolution_param {
    num_output: 64
    pad: 3
    kernel_size: 7
    stride: 2
    weight_filler {
      type: "xavier"
      std: 0.1
    }
    bias_filler {
      type: "constant"
      value: 0.2
    }
  }
}
layer {
  name: "conv1/relu_7x7"
  type: "ReLU"
  bottom: "conv1/7x7_s2"
  top: "conv1/7x7_s2"
}
layer {
  name: "pool1/3x3_s2"
  type: "Pooling"
  bottom: "conv1/7x7_s2"
  top: "pool1/3x3_s2"
  pooling_param {
    pool: MAX
    kernel_size: 3
    stride: 2
  }
}
layer {
  name: "pool1/norm1"
  type: "LRN"
  bottom: "pool1/3x3_s2"
  top: "pool1/norm1"
  lrn_param {
    local_size: 5
    alpha: 0.0001
    beta: 0.75
  }
}
layer {
  name: "conv2/3x3_reduce"
  type: "Convolution"
  bottom: "pool1/norm1"
  top: "conv2/3x3_reduce"
  param {
    lr_mult: 1
    decay_mult: 1
  }
  param {
    lr_mult: 2
    decay_mult: 0
  }
  convolution_param {
    num_output: 64
    kernel_size: 1
    weight_filler {
      type: "xavier"
      std: 0.1
    }
    bias_filler {
      type: "constant"
      value: 0.2
    }
  }
}
layer {
  name: "conv2/relu_3x3_reduce"
  type: "ReLU"
  bottom: "conv2/3x3_reduce"
  top: "conv2/3x3_reduce"
}
layer {
  name: "conv2/3x3"
  type: "Convolution"
  bottom: "conv2/3x3_reduce"
  top: "conv2/3x3"
  param {
    lr_mult: 1
    decay_mult: 1
  }
  param {
    lr_mult: 2
    decay_mult: 0
  }
  convolution_param {
    num_output: 192
    pad: 1
    kernel_size: 3
    weight_filler {
      type: "xavier"
      std: 0.03
    }
    bias_filler {
      type: "constant"
      value: 0.2
    }
  }
}
layer {
  name: "conv2/relu_3x3"
  type: "ReLU"
  bottom: "conv2/3x3"
  top: "conv2/3x3"
}
layer {
  name: "conv2/norm2"
  type: "LRN"
  bottom: "conv2/3x3"
  top: "conv2/norm2"
  lrn_param {
    local_size: 5
    alpha: 0.0001
    beta: 0.75
  }
}
layer {
  name: "pool2/3x3_s2"
  type: "Pooling"
  bottom: "conv2/norm2"
  top: "pool2/3x3_s2"
  pooling_param {
    pool: MAX
    kernel_size: 3
    stride: 2
  }
}
layer {
  name: "inception_3a/1x1"
  type: "Convolution"
  bottom: "pool2/3x3_s2"
  top: "inception_3a/1x1"
  param {
    lr_mult: 1
    decay_mult: 1
  }
  param {
    lr_mult: 2
    decay_mult: 0
  }
  convolution_param {
    num_output: 64
    kernel_size: 1
    weight_filler {
      type: "xavier"
      std: 0.03
    }
    bias_filler {
      type: "constant"
      value: 0.2
    }
  }
}
layer {
  name: "inception_3a/relu_1x1"
  type: "ReLU"
  bottom: "inception_3a/1x1"
  top: "inception_3a/1x1"
}
layer {
  name: "inception_3a/3x3_reduce"
  type: "Convolution"
  bottom: "pool2/3x3_s2"
  top: "inception_3a/3x3_reduce"
  param {
    lr_mult: 1
    decay_mult: 1
  }
  param {
    lr_mult: 2
    decay_mult: 0
  }
  convolution_param {
    num_output: 96
    kernel_size: 1
    weight_filler {
      type: "xavier"
      std: 0.09
    }
    bias_filler {
      type: "constant"
      value: 0.2
    }
  }
}
layer {
  name: "inception_3a/relu_3x3_reduce"
  type: "ReLU"
  bottom: "inception_3a/3x3_reduce"
  top: "inception_3a/3x3_reduce"
}
layer {
  name: "inception_3a/3x3"
  type: "Convolution"
  bottom: "inception_3a/3x3_reduce"
  top: "inception_3a/3x3"
  param {
    lr_mult: 1
    decay_mult: 1
  }
  param {
    lr_mult: 2
    decay_mult: 0
  }
  convolution_param {
    num_output: 128
    pad: 1
    kernel_size: 3
    weight_filler {
      type: "xavier"
      std: 0.03
    }
    bias_filler {
      type: "constant"
      value: 0.2
    }
  }
}
layer {
  name: "inception_3a/relu_3x3"
  type: "ReLU"
  bottom: "inception_3a/3x3"
  top: "inception_3a/3x3"
}
layer {
  name: "inception_3a/5x5_reduce"
  type: "Convolution"
  bottom: "pool2/3x3_s2"
  top: "inception_3a/5x5_reduce"
  param {
    lr_mult: 1
    decay_mult: 1
  }
  param {
    lr_mult: 2
    decay_mult: 0
  }
  convolution_param {
    num_output: 16
    kernel_size: 1
    weight_filler {
      type: "xavier"
      std: 0.2
    }
    bias_filler {
      type: "constant"
      value: 0.2
    }
  }
}
layer {
  name: "inception_3a/relu_5x5_reduce"
  type: "ReLU"
  bottom: "inception_3a/5x5_reduce"
  top: "inception_3a/5x5_reduce"
}
layer {
  name: "inception_3a/5x5"
  type: "Convolution"
  bottom: "inception_3a/5x5_reduce"
  top: "inception_3a/5x5"
  param {
    lr_mult: 1
    decay_mult: 1
  }
  param {
    lr_mult: 2
    decay_mult: 0
  }
  convolution_param {
    num_output: 32
    pad: 2
    kernel_size: 5
    weight_filler {
      type: "xavier"
      std: 0.03
    }
    bias_filler {
      type: "constant"
      value: 0.2
    }
  }
}
layer {
  name: "inception_3a/relu_5x5"
  type: "ReLU"
  bottom: "inception_3a/5x5"
  top: "inception_3a/5x5"
}
layer {
  name: "inception_3a/pool"
  type: "Pooling"
  bottom: "pool2/3x3_s2"
  top: "inception_3a/pool"
  pooling_param {
    pool: MAX
    kernel_size: 3
    stride: 1
    pad: 1
  }
}
layer {
  name: "inception_3a/pool_proj"
  type: "Convolution"
  bottom: "inception_3a/pool"
  top: "inception_3a/pool_proj"
  param {
    lr_mult: 1
    decay_mult: 1
  }
  param {
    lr_mult: 2
    decay_mult: 0
  }
  convolution_param {
    num_output: 32
    kernel_size: 1
    weight_filler {
      type: "xavier"
      std: 0.1
    }
    bias_filler {
      type: "constant"
      value: 0.2
    }
  }
}
layer {
  name: "inception_3a/relu_pool_proj"
  type: "ReLU"
  bottom: "inception_3a/pool_proj"
  top: "inception_3a/pool_proj"
}
layer {
  name: "inception_3a/output"
  type: "Concat"
  bottom: "inception_3a/1x1"
  bottom: "inception_3a/3x3"
  bottom: "inception_3a/5x5"
  bottom: "inception_3a/pool_proj"
  top: "inception_3a/output"
}
layer {
  name: "inception_3b/1x1"
  type: "Convolution"
  bottom: "inception_3a/output"
  top: "inception_3b/1x1"
  param {
    lr_mult: 1
    decay_mult: 1
  }
  param {
    lr_mult: 2
    decay_mult: 0
  }
  convolution_param {
    num_output: 128
    kernel_size: 1
    weight_filler {
      type: "xavier"
      std: 0.03
    }
    bias_filler {
      type: "constant"
      value: 0.2
    }
  }
}
layer {
  name: "inception_3b/relu_1x1"
  type: "ReLU"
  bottom: "inception_3b/1x1"
  top: "inception_3b/1x1"
}
layer {
  name: "inception_3b/3x3_reduce"
  type: "Convolution"
  bottom: "inception_3a/output"
  top: "inception_3b/3x3_reduce"
  param {
    lr_mult: 1
    decay_mult: 1
  }
  param {
    lr_mult: 2
    decay_mult: 0
  }
  convolution_param {
    num_output: 128
    kernel_size: 1
    weight_filler {
      type: "xavier"
      std: 0.09
    }
    bias_filler {
      type: "constant"
      value: 0.2
    }
  }
}
layer {
  name: "inception_3b/relu_3x3_reduce"
  type: "ReLU"
  bottom: "inception_3b/3x3_reduce"
  top: "inception_3b/3x3_reduce"
}
layer {
  name: "inception_3b/3x3"
  type: "Convolution"
  bottom: "inception_3b/3x3_reduce"
  top: "inception_3b/3x3"
  param {
    lr_mult: 1
    decay_mult: 1
  }
  param {
    lr_mult: 2
    decay_mult: 0
  }
  convolution_param {
    num_output: 192
    pad: 1
    kernel_size: 3
    weight_filler {
      type: "xavier"
      std: 0.03
    }
    bias_filler {
      type: "constant"
      value: 0.2
    }
  }
}
layer {
  name: "inception_3b/relu_3x3"
  type: "ReLU"
  bottom: "inception_3b/3x3"
  top: "inception_3b/3x3"
}
layer {
  name: "inception_3b/5x5_reduce"
  type: "Convolution"
  bottom: "inception_3a/output"
  top: "inception_3b/5x5_reduce"
  param {
    lr_mult: 1
    decay_mult: 1
  }
  param {
    lr_mult: 2
    decay_mult: 0
  }
  convolution_param {
    num_output: 32
    kernel_size: 1
    weight_filler {
      type: "xavier"
      std: 0.2
    }
    bias_filler {
      type: "constant"
      value: 0.2
    }
  }
}
layer {
  name: "inception_3b/relu_5x5_reduce"
  type: "ReLU"
  bottom: "inception_3b/5x5_reduce"
  top: "inception_3b/5x5_reduce"
}
layer {
  name: "inception_3b/5x5"
  type: "Convolution"
  bottom: "inception_3b/5x5_reduce"
  top: "inception_3b/5x5"
  param {
    lr_mult: 1
    decay_mult: 1
  }
  param {
    lr_mult: 2
    decay_mult: 0
  }
  convolution_param {
    num_output: 96
    pad: 2
    kernel_size: 5
    weight_filler {
      type: "xavier"
      std: 0.03
    }
    bias_filler {
      type: "constant"
      value: 0.2
    }
  }
}
layer {
  name: "inception_3b/relu_5x5"
  type: "ReLU"
  bottom: "inception_3b/5x5"
  top: "inception_3b/5x5"
}
layer {
  name: "inception_3b/pool"
  type: "Pooling"
  bottom: "inception_3a/output"
  top: "inception_3b/pool"
  pooling_param {
    pool: MAX
    kernel_size: 3
    stride: 1
    pad: 1
  }
}
layer {
  name: "inception_3b/pool_proj"
  type: "Convolution"
  bottom: "inception_3b/pool"
  top: "inception_3b/pool_proj"
  param {
    lr_mult: 1
    decay_mult: 1
  }
  param {
    lr_mult: 2
    decay_mult: 0
  }
  convolution_param {
    num_output: 64
    kernel_size: 1
    weight_filler {
      type: "xavier"
      std: 0.1
    }
    bias_filler {
      type: "constant"
      value: 0.2
    }
  }
}
layer {
  name: "inception_3b/relu_pool_proj"
  type: "ReLU"
  bottom: "inception_3b/pool_proj"
  top: "inception_3b/pool_proj"
}
layer {
  name: "inception_3b/output"
  type: "Concat"
  bottom: "inception_3b/1x1"
  bottom: "inception_3b/3x3"
  bottom: "inception_3b/5x5"
  bottom: "inception_3b/pool_proj"
  top: "inception_3b/output"
}
layer {
  name: "pool3/3x3_s2"
  type: "Pooling"
  bottom: "inception_3b/output"
  top: "pool3/3x3_s2"
  pooling_param {
    pool: MAX
    kernel_size: 3
    stride: 2
  }
}
layer {
  name: "inception_4a/1x1"
  type: "Convolution"
  bottom: "pool3/3x3_s2"
  top: "inception_4a/1x1"
  param {
    lr_mult: 1
    decay_mult: 1
  }
  param {
    lr_mult: 2
    decay_mult: 0
  }
  convolution_param {
    num_output: 192
    kernel_size: 1
    weight_filler {
      type: "xavier"
      std: 0.03
    }
    bias_filler {
      type: "constant"
      value: 0.2
    }
  }
}
layer {
  name: "inception_4a/relu_1x1"
  type: "ReLU"
  bottom: "inception_4a/1x1"
  top: "inception_4a/1x1"
}
layer {
  name: "inception_4a/3x3_reduce"
  type: "Convolution"
  bottom: "pool3/3x3_s2"
  top: "inception_4a/3x3_reduce"
  param {
    lr_mult: 1
    decay_mult: 1
  }
  param {
    lr_mult: 2
    decay_mult: 0
  }
  convolution_param {
    num_output: 96
    kernel_size: 1
    weight_filler {
      type: "xavier"
      std: 0.09
    }
    bias_filler {
      type: "constant"
      value: 0.2
    }
  }
}
layer {
  name: "inception_4a/relu_3x3_reduce"
  type: "ReLU"
  bottom: "inception_4a/3x3_reduce"
  top: "inception_4a/3x3_reduce"
}
layer {
  name: "inception_4a/3x3"
  type: "Convolution"
  bottom: "inception_4a/3x3_reduce"
  top: "inception_4a/3x3"
  param {
    lr_mult: 1
    decay_mult: 1
  }
  param {
    lr_mult: 2
    decay_mult: 0
  }
  convolution_param {
    num_output: 208
    pad: 1
    kernel_size: 3
    weight_filler {
      type: "xavier"
      std: 0.03
    }
    bias_filler {
      type: "constant"
      value: 0.2
    }
  }
}
layer {
  name: "inception_4a/relu_3x3"
  type: "ReLU"
  bottom: "inception_4a/3x3"
  top: "inception_4a/3x3"
}
layer {
  name: "inception_4a/5x5_reduce"
  type: "Convolution"
  bottom: "pool3/3x3_s2"
  top: "inception_4a/5x5_reduce"
  param {
    lr_mult: 1
    decay_mult: 1
  }
  param {
    lr_mult: 2
    decay_mult: 0
  }
  convolution_param {
    num_output: 16
    kernel_size: 1
    weight_filler {
      type: "xavier"
      std: 0.2
    }
    bias_filler {
      type: "constant"
      value: 0.2
    }
  }
}
layer {
  name: "inception_4a/relu_5x5_reduce"
  type: "ReLU"
  bottom: "inception_4a/5x5_reduce"
  top: "inception_4a/5x5_reduce"
}
layer {
  name: "inception_4a/5x5"
  type: "Convolution"
  bottom: "inception_4a/5x5_reduce"
  top: "inception_4a/5x5"
  param {
    lr_mult: 1
    decay_mult: 1
  }
  param {
    lr_mult: 2
    decay_mult: 0
  }
  convolution_param {
    num_output: 48
    pad: 2
    kernel_size: 5
    weight_filler {
      type: "xavier"
      std: 0.03
    }
    bias_filler {
      type: "constant"
      value: 0.2
    }
  }
}
layer {
  name: "inception_4a/relu_5x5"
  type: "ReLU"
  bottom: "inception_4a/5x5"
  top: "inception_4a/5x5"
}
layer {
  name: "inception_4a/pool"
  type: "Pooling"
  bottom: "pool3/3x3_s2"
  top: "inception_4a/pool"
  pooling_param {
    pool: MAX
    kernel_size: 3
    stride: 1
    pad: 1
  }
}
layer {
  name: "inception_4a/pool_proj"
  type: "Convolution"
  bottom: "inception_4a/pool"
  top: "inception_4a/pool_proj"
  param {
    lr_mult: 1
    decay_mult: 1
  }
  param {
    lr_mult: 2
    decay_mult: 0
  }
  convolution_param {
    num_output: 64
    kernel_size: 1
    weight_filler {
      type: "xavier"
      std: 0.1
    }
    bias_filler {
      type: "constant"
      value: 0.2
    }
  }
}
layer {
  name: "inception_4a/relu_pool_proj"
  type: "ReLU"
  bottom: "inception_4a/pool_proj"
  top: "inception_4a/pool_proj"
}
layer {
  name: "inception_4a/output"
  type: "Concat"
  bottom: "inception_4a/1x1"
  bottom: "inception_4a/3x3"
  bottom: "inception_4a/5x5"
  bottom: "inception_4a/pool_proj"
  top: "inception_4a/output"
}
layer {
  name: "loss1/ave_pool"
  type: "Pooling"
  bottom: "inception_4a/output"
  top: "loss1/ave_pool"
  pooling_param {
    pool: AVE
    kernel_size: 5
    stride: 3
  }
}
layer {
  name: "loss1/conv"
  type: "Convolution"
  bottom: "loss1/ave_pool"
  top: "loss1/conv"
  param {
    lr_mult: 1
    decay_mult: 1
  }
  param {
    lr_mult: 2
    decay_mult: 0
  }
  convolution_param {
    num_output: 128
    kernel_size: 1
    weight_filler {
      type: "xavier"
      std: 0.08
    }
    bias_filler {
      type: "constant"
      value: 0.2
    }
  }
}
layer {
  name: "loss1/relu_conv"
  type: "ReLU"
  bottom: "loss1/conv"
  top: "loss1/conv"
}
layer {
  name: "loss1/fc"
  type: "InnerProduct"
  bottom: "loss1/conv"
  top: "loss1/fc"
  param {
    lr_mult: 1
    decay_mult: 1
  }
  param {
    lr_mult: 2
    decay_mult: 0
  }
  inner_product_param {
    num_output: 1024
    weight_filler {
      type: "xavier"
      std: 0.02
    }
    bias_filler {
      type: "constant"
      value: 0.2
    }
  }
}
layer {
  name: "loss1/relu_fc"
  type: "ReLU"
  bottom: "loss1/fc"
  top: "loss1/fc"
}
layer {
  name: "loss1/drop_fc"
  type: "Dropout"
  bottom: "loss1/fc"
  top: "loss1/fc"
  dropout_param {
    dropout_ratio: 0.7
  }
}
layer {
  name: "loss1/classifier_plantvillage"
  type: "InnerProduct"
  bottom: "loss1/fc"
  top: "loss1/classifier_plantvillage"
  param {
    lr_mult: 1
    decay_mult: 1
  }
  param {
    lr_mult: 2
    decay_mult: 0
  }
  inner_product_param {
    num_output: 38
    weight_filler {
      type: "xavier"
      std: 0.0009765625
    }
    bias_filler {
      type: "constant"
      value: 0
    }
  }
}
layer {
  name: "inception_4b/1x1"
  type: "Convolution"
  bottom: "inception_4a/output"
  top: "inception_4b/1x1"
  param {
    lr_mult: 1
    decay_mult: 1
  }
  param {
    lr_mult: 2
    decay_mult: 0
  }
  convolution_param {
    num_output: 160
    kernel_size: 1
    weight_filler {
      type: "xavier"
      std: 0.03
    }
    bias_filler {
      type: "constant"
      value: 0.2
    }
  }
}
layer {
  name: "inception_4b/relu_1x1"
  type: "ReLU"
  bottom: "inception_4b/1x1"
  top: "inception_4b/1x1"
}
layer {
  name: "inception_4b/3x3_reduce"
  type: "Convolution"
  bottom: "inception_4a/output"
  top: "inception_4b/3x3_reduce"
  param {
    lr_mult: 1
    decay_mult: 1
  }
  param {
    lr_mult: 2
    decay_mult: 0
  }
  convolution_param {
    num_output: 112
    kernel_size: 1
    weight_filler {
      type: "xavier"
      std: 0.09
    }
    bias_filler {
      type: "constant"
      value: 0.2
    }
  }
}
layer {
  name: "inception_4b/relu_3x3_reduce"
  type: "ReLU"
  bottom: "inception_4b/3x3_reduce"
  top: "inception_4b/3x3_reduce"
}
layer {
  name: "inception_4b/3x3"
  type: "Convolution"
  bottom: "inception_4b/3x3_reduce"
  top: "inception_4b/3x3"
  param {
    lr_mult: 1
    decay_mult: 1
  }
  param {
    lr_mult: 2
    decay_mult: 0
  }
  convolution_param {
    num_output: 224
    pad: 1
    kernel_size: 3
    weight_filler {
      type: "xavier"
      std: 0.03
    }
    bias_filler {
      type: "constant"
      value: 0.2
    }
  }
}
layer {
  name: "inception_4b/relu_3x3"
  type: "ReLU"
  bottom: "inception_4b/3x3"
  top: "inception_4b/3x3"
}
layer {
  name: "inception_4b/5x5_reduce"
  type: "Convolution"
  bottom: "inception_4a/output"
  top: "inception_4b/5x5_reduce"
  param {
    lr_mult: 1
    decay_mult: 1
  }
  param {
    lr_mult: 2
    decay_mult: 0
  }
  convolution_param {
    num_output: 24
    kernel_size: 1
    weight_filler {
      type: "xavier"
      std: 0.2
    }
    bias_filler {
      type: "constant"
      value: 0.2
    }
  }
}
layer {
  name: "inception_4b/relu_5x5_reduce"
  type: "ReLU"
  bottom: "inception_4b/5x5_reduce"
  top: "inception_4b/5x5_reduce"
}
layer {
  name: "inception_4b/5x5"
  type: "Convolution"
  bottom: "inception_4b/5x5_reduce"
  top: "inception_4b/5x5"
  param {
    lr_mult: 1
    decay_mult: 1
  }
  param {
    lr_mult: 2
    decay_mult: 0
  }
  convolution_param {
    num_output: 64
    pad: 2
    kernel_size: 5
    weight_filler {
      type: "xavier"
      std: 0.03
    }
    bias_filler {
      type: "constant"
      value: 0.2
    }
  }
}
layer {
  name: "inception_4b/relu_5x5"
  type: "ReLU"
  bottom: "inception_4b/5x5"
  top: "inception_4b/5x5"
}
layer {
  name: "inception_4b/pool"
  type: "Pooling"
  bottom: "inception_4a/output"
  top: "inception_4b/pool"
  pooling_param {
    pool: MAX
    kernel_size: 3
    stride: 1
    pad: 1
  }
}
layer {
  name: "inception_4b/pool_proj"
  type: "Convolution"
  bottom: "inception_4b/pool"
  top: "inception_4b/pool_proj"
  param {
    lr_mult: 1
    decay_mult: 1
  }
  param {
    lr_mult: 2
    decay_mult: 0
  }
  convolution_param {
    num_output: 64
    kernel_size: 1
    weight_filler {
      type: "xavier"
      std: 0.1
    }
    bias_filler {
      type: "constant"
      value: 0.2
    }
  }
}
layer {
  name: "inception_4b/relu_pool_proj"
  type: "ReLU"
  bottom: "inception_4b/pool_proj"
  top: "inception_4b/pool_proj"
}
layer {
  name: "inception_4b/output"
  type: "Concat"
  bottom: "inception_4b/1x1"
  bottom: "inception_4b/3x3"
  bottom: "inception_4b/5x5"
  bottom: "inception_4b/pool_proj"
  top: "inception_4b/output"
}
layer {
  name: "inception_4c/1x1"
  type: "Convolution"
  bottom: "inception_4b/output"
  top: "inception_4c/1x1"
  param {
    lr_mult: 1
    decay_mult: 1
  }
  param {
    lr_mult: 2
    decay_mult: 0
  }
  convolution_param {
    num_output: 128
    kernel_size: 1
    weight_filler {
      type: "xavier"
      std: 0.03
    }
    bias_filler {
      type: "constant"
      value: 0.2
    }
  }
}
layer {
  name: "inception_4c/relu_1x1"
  type: "ReLU"
  bottom: "inception_4c/1x1"
  top: "inception_4c/1x1"
}
layer {
  name: "inception_4c/3x3_reduce"
  type: "Convolution"
  bottom: "inception_4b/output"
  top: "inception_4c/3x3_reduce"
  param {
    lr_mult: 1
    decay_mult: 1
  }
  param {
    lr_mult: 2
    decay_mult: 0
  }
  convolution_param {
    num_output: 128
    kernel_size: 1
    weight_filler {
      type: "xavier"
      std: 0.09
    }
    bias_filler {
      type: "constant"
      value: 0.2
    }
  }
}
layer {
  name: "inception_4c/relu_3x3_reduce"
  type: "ReLU"
  bottom: "inception_4c/3x3_reduce"
  top: "inception_4c/3x3_reduce"
}
layer {
  name: "inception_4c/3x3"
  type: "Convolution"
  bottom: "inception_4c/3x3_reduce"
  top: "inception_4c/3x3"
  param {
    lr_mult: 1
    decay_mult: 1
  }
  param {
    lr_mult: 2
    decay_mult: 0
  }
  convolution_param {
    num_output: 256
    pad: 1
    kernel_size: 3
    weight_filler {
      type: "xavier"
      std: 0.03
    }
    bias_filler {
      type: "constant"
      value: 0.2
    }
  }
}
layer {
  name: "inception_4c/relu_3x3"
  type: "ReLU"
  bottom: "inception_4c/3x3"
  top: "inception_4c/3x3"
}
layer {
  name: "inception_4c/5x5_reduce"
  type: "Convolution"
  bottom: "inception_4b/output"
  top: "inception_4c/5x5_reduce"
  param {
    lr_mult: 1
    decay_mult: 1
  }
  param {
    lr_mult: 2
    decay_mult: 0
  }
  convolution_param {
    num_output: 24
    kernel_size: 1
    weight_filler {
      type: "xavier"
      std: 0.2
    }
    bias_filler {
      type: "constant"
      value: 0.2
    }
  }
}
layer {
  name: "inception_4c/relu_5x5_reduce"
  type: "ReLU"
  bottom: "inception_4c/5x5_reduce"
  top: "inception_4c/5x5_reduce"
}
layer {
  name: "inception_4c/5x5"
  type: "Convolution"
  bottom: "inception_4c/5x5_reduce"
  top: "inception_4c/5x5"
  param {
    lr_mult: 1
    decay_mult: 1
  }
  param {
    lr_mult: 2
    decay_mult: 0
  }
  convolution_param {
    num_output: 64
    pad: 2
    kernel_size: 5
    weight_filler {
      type: "xavier"
      std: 0.03
    }
    bias_filler {
      type: "constant"
      value: 0.2
    }
  }
}
layer {
  name: "inception_4c/relu_5x5"
  type: "ReLU"
  bottom: "inception_4c/5x5"
  top: "inception_4c/5x5"
}
layer {
  name: "inception_4c/pool"
  type: "Pooling"
  bottom: "inception_4b/output"
  top: "inception_4c/pool"
  pooling_param {
    pool: MAX
    kernel_size: 3
    stride: 1
    pad: 1
  }
}
layer {
  name: "inception_4c/pool_proj"
  type: "Convolution"
  bottom: "inception_4c/pool"
  top: "inception_4c/pool_proj"
  param {
    lr_mult: 1
    decay_mult: 1
  }
  param {
    lr_mult: 2
    decay_mult: 0
  }
  convolution_param {
    num_output: 64
    kernel_size: 1
    weight_filler {
      type: "xavier"
      std: 0.1
    }
    bias_filler {
      type: "constant"
      value: 0.2
    }
  }
}
layer {
  name: "inception_4c/relu_pool_proj"
  type: "ReLU"
  bottom: "inception_4c/pool_proj"
  top: "inception_4c/pool_proj"
}
layer {
  name: "inception_4c/output"
  type: "Concat"
  bottom: "inception_4c/1x1"
  bottom: "inception_4c/3x3"
  bottom: "inception_4c/5x5"
  bottom: "inception_4c/pool_proj"
  top: "inception_4c/output"
}
layer {
  name: "inception_4d/1x1"
  type: "Convolution"
  bottom: "inception_4c/output"
  top: "inception_4d/1x1"
  param {
    lr_mult: 1
    decay_mult: 1
  }
  param {
    lr_mult: 2
    decay_mult: 0
  }
  convolution_param {
    num_output: 112
    kernel_size: 1
    weight_filler {
      type: "xavier"
      std: 0.03
    }
    bias_filler {
      type: "constant"
      value: 0.2
    }
  }
}
layer {
  name: "inception_4d/relu_1x1"
  type: "ReLU"
  bottom: "inception_4d/1x1"
  top: "inception_4d/1x1"
}
layer {
  name: "inception_4d/3x3_reduce"
  type: "Convolution"
  bottom: "inception_4c/output"
  top: "inception_4d/3x3_reduce"
  param {
    lr_mult: 1
    decay_mult: 1
  }
  param {
    lr_mult: 2
    decay_mult: 0
  }
  convolution_param {
    num_output: 144
    kernel_size: 1
    weight_filler {
      type: "xavier"
      std: 0.09
    }
    bias_filler {
      type: "constant"
      value: 0.2
    }
  }
}
layer {
  name: "inception_4d/relu_3x3_reduce"
  type: "ReLU"
  bottom: "inception_4d/3x3_reduce"
  top: "inception_4d/3x3_reduce"
}
layer {
  name: "inception_4d/3x3"
  type: "Convolution"
  bottom: "inception_4d/3x3_reduce"
  top: "inception_4d/3x3"
  param {
    lr_mult: 1
    decay_mult: 1
  }
  param {
    lr_mult: 2
    decay_mult: 0
  }
  convolution_param {
    num_output: 288
    pad: 1
    kernel_size: 3
    weight_filler {
      type: "xavier"
      std: 0.03
    }
    bias_filler {
      type: "constant"
      value: 0.2
    }
  }
}
layer {
  name: "inception_4d/relu_3x3"
  type: "ReLU"
  bottom: "inception_4d/3x3"
  top: "inception_4d/3x3"
}
layer {
  name: "inception_4d/5x5_reduce"
  type: "Convolution"
  bottom: "inception_4c/output"
  top: "inception_4d/5x5_reduce"
  param {
    lr_mult: 1
    decay_mult: 1
  }
  param {
    lr_mult: 2
    decay_mult: 0
  }
  convolution_param {
    num_output: 32
    kernel_size: 1
    weight_filler {
      type: "xavier"
      std: 0.2
    }
    bias_filler {
      type: "constant"
      value: 0.2
    }
  }
}
layer {
  name: "inception_4d/relu_5x5_reduce"
  type: "ReLU"
  bottom: "inception_4d/5x5_reduce"
  top: "inception_4d/5x5_reduce"
}
layer {
  name: "inception_4d/5x5"
  type: "Convolution"
  bottom: "inception_4d/5x5_reduce"
  top: "inception_4d/5x5"
  param {
    lr_mult: 1
    decay_mult: 1
  }
  param {
    lr_mult: 2
    decay_mult: 0
  }
  convolution_param {
    num_output: 64
    pad: 2
    kernel_size: 5
    weight_filler {
      type: "xavier"
      std: 0.03
    }
    bias_filler {
      type: "constant"
      value: 0.2
    }
  }
}
layer {
  name: "inception_4d/relu_5x5"
  type: "ReLU"
  bottom: "inception_4d/5x5"
  top: "inception_4d/5x5"
}
layer {
  name: "inception_4d/pool"
  type: "Pooling"
  bottom: "inception_4c/output"
  top: "inception_4d/pool"
  pooling_param {
    pool: MAX
    kernel_size: 3
    stride: 1
    pad: 1
  }
}
layer {
  name: "inception_4d/pool_proj"
  type: "Convolution"
  bottom: "inception_4d/pool"
  top: "inception_4d/pool_proj"
  param {
    lr_mult: 1
    decay_mult: 1
  }
  param {
    lr_mult: 2
    decay_mult: 0
  }
  convolution_param {
    num_output: 64
    kernel_size: 1
    weight_filler {
      type: "xavier"
      std: 0.1
    }
    bias_filler {
      type: "constant"
      value: 0.2
    }
  }
}
layer {
  name: "inception_4d/relu_pool_proj"
  type: "ReLU"
  bottom: "inception_4d/pool_proj"
  top: "inception_4d/pool_proj"
}
layer {
  name: "inception_4d/output"
  type: "Concat"
  bottom: "inception_4d/1x1"
  bottom: "inception_4d/3x3"
  bottom: "inception_4d/5x5"
  bottom: "inception_4d/pool_proj"
  top: "inception_4d/output"
}
layer {
  name: "loss2/ave_pool"
  type: "Pooling"
  bottom: "inception_4d/output"
  top: "loss2/ave_pool"
  pooling_param {
    pool: AVE
    kernel_size: 5
    stride: 3
  }
}
layer {
  name: "loss2/conv"
  type: "Convolution"
  bottom: "loss2/ave_pool"
  top: "loss2/conv"
  param {
    lr_mult: 1
    decay_mult: 1
  }
  param {
    lr_mult: 2
    decay_mult: 0
  }
  convolution_param {
    num_output: 128
    kernel_size: 1
    weight_filler {
      type: "xavier"
      std: 0.08
    }
    bias_filler {
      type: "constant"
      value: 0.2
    }
  }
}
layer {
  name: "loss2/relu_conv"
  type: "ReLU"
  bottom: "loss2/conv"
  top: "loss2/conv"
}
layer {
  name: "loss2/fc"
  type: "InnerProduct"
  bottom: "loss2/conv"
  top: "loss2/fc"
  param {
    lr_mult: 1
    decay_mult: 1
  }
  param {
    lr_mult: 2
    decay_mult: 0
  }
  inner_product_param {
    num_output: 1024
    weight_filler {
      type: "xavier"
      std: 0.02
    }
    bias_filler {
      type: "constant"
      value: 0.2
    }
  }
}
layer {
  name: "loss2/relu_fc"
  type: "ReLU"
  bottom: "loss2/fc"
  top: "loss2/fc"
}
layer {
  name: "loss2/drop_fc"
  type: "Dropout"
  bottom: "loss2/fc"
  top: "loss2/fc"
  dropout_param {
    dropout_ratio: 0.7
  }
}
layer {
  name: "loss2/classifier_plantvillage"
  type: "InnerProduct"
  bottom: "loss2/fc"
  top: "loss2/classifier_plantvillage"
  param {
    lr_mult: 1
    decay_mult: 1
  }
  param {
    lr_mult: 2
    decay_mult: 0
  }
  inner_product_param {
    num_output: 38
    weight_filler {
      type: "xavier"
      std: 0.0009765625
    }
    bias_filler {
      type: "constant"
      value: 0
    }
  }
}
layer {
  name: "inception_4e/1x1"
  type: "Convolution"
  bottom: "inception_4d/output"
  top: "inception_4e/1x1"
  param {
    lr_mult: 1
    decay_mult: 1
  }
  param {
    lr_mult: 2
    decay_mult: 0
  }
  convolution_param {
    num_output: 256
    kernel_size: 1
    weight_filler {
      type: "xavier"
      std: 0.03
    }
    bias_filler {
      type: "constant"
      value: 0.2
    }
  }
}
layer {
  name: "inception_4e/relu_1x1"
  type: "ReLU"
  bottom: "inception_4e/1x1"
  top: "inception_4e/1x1"
}
layer {
  name: "inception_4e/3x3_reduce"
  type: "Convolution"
  bottom: "inception_4d/output"
  top: "inception_4e/3x3_reduce"
  param {
    lr_mult: 1
    decay_mult: 1
  }
  param {
    lr_mult: 2
    decay_mult: 0
  }
  convolution_param {
    num_output: 160
    kernel_size: 1
    weight_filler {
      type: "xavier"
      std: 0.09
    }
    bias_filler {
      type: "constant"
      value: 0.2
    }
  }
}
layer {
  name: "inception_4e/relu_3x3_reduce"
  type: "ReLU"
  bottom: "inception_4e/3x3_reduce"
  top: "inception_4e/3x3_reduce"
}
layer {
  name: "inception_4e/3x3"
  type: "Convolution"
  bottom: "inception_4e/3x3_reduce"
  top: "inception_4e/3x3"
  param {
    lr_mult: 1
    decay_mult: 1
  }
  param {
    lr_mult: 2
    decay_mult: 0
  }
  convolution_param {
    num_output: 320
    pad: 1
    kernel_size: 3
    weight_filler {
      type: "xavier"
      std: 0.03
    }
    bias_filler {
      type: "constant"
      value: 0.2
    }
  }
}
layer {
  name: "inception_4e/relu_3x3"
  type: "ReLU"
  bottom: "inception_4e/3x3"
  top: "inception_4e/3x3"
}
layer {
  name: "inception_4e/5x5_reduce"
  type: "Convolution"
  bottom: "inception_4d/output"
  top: "inception_4e/5x5_reduce"
  param {
    lr_mult: 1
    decay_mult: 1
  }
  param {
    lr_mult: 2
    decay_mult: 0
  }
  convolution_param {
    num_output: 32
    kernel_size: 1
    weight_filler {
      type: "xavier"
      std: 0.2
    }
    bias_filler {
      type: "constant"
      value: 0.2
    }
  }
}
layer {
  name: "inception_4e/relu_5x5_reduce"
  type: "ReLU"
  bottom: "inception_4e/5x5_reduce"
  top: "inception_4e/5x5_reduce"
}
layer {
  name: "inception_4e/5x5"
  type: "Convolution"
  bottom: "inception_4e/5x5_reduce"
  top: "inception_4e/
I0403 16:54:41.231645 21569 layer_factory.hpp:77] Creating layer data
I0403 16:54:41.232285 21569 net.cpp:91] Creating Layer data
I0403 16:54:41.232327 21569 net.cpp:399] data -> data
I0403 16:54:41.232380 21569 net.cpp:399] data -> label
I0403 16:54:41.232417 21569 data_transformer.cpp:25] Loading mean file from: /home/mohanty/data/final_dataset/lmdb/grayscale-20-80/mean.binaryproto
I0403 16:54:41.233659 21572 db_lmdb.cpp:38] Opened lmdb /home/mohanty/data/final_dataset/lmdb/grayscale-20-80/test_db
I0403 16:54:41.245518 21569 data_layer.cpp:41] output data size: 24,3,224,224
I0403 16:54:41.272408 21569 net.cpp:141] Setting up data
I0403 16:54:41.272488 21569 net.cpp:148] Top shape: 24 3 224 224 (3612672)
I0403 16:54:41.272513 21569 net.cpp:148] Top shape: 24 (24)
I0403 16:54:41.272529 21569 net.cpp:156] Memory required for data: 14450784
I0403 16:54:41.272557 21569 layer_factory.hpp:77] Creating layer label_data_1_split
I0403 16:54:41.272584 21569 net.cpp:91] Creating Layer label_data_1_split
I0403 16:54:41.272603 21569 net.cpp:425] label_data_1_split <- label
I0403 16:54:41.272634 21569 net.cpp:399] label_data_1_split -> label_data_1_split_0
I0403 16:54:41.272662 21569 net.cpp:399] label_data_1_split -> label_data_1_split_1
I0403 16:54:41.272683 21569 net.cpp:399] label_data_1_split -> label_data_1_split_2
I0403 16:54:41.272704 21569 net.cpp:399] label_data_1_split -> label_data_1_split_3
I0403 16:54:41.272723 21569 net.cpp:399] label_data_1_split -> label_data_1_split_4
I0403 16:54:41.272743 21569 net.cpp:399] label_data_1_split -> label_data_1_split_5
I0403 16:54:41.272763 21569 net.cpp:399] label_data_1_split -> label_data_1_split_6
I0403 16:54:41.272783 21569 net.cpp:399] label_data_1_split -> label_data_1_split_7
I0403 16:54:41.272804 21569 net.cpp:399] label_data_1_split -> label_data_1_split_8
I0403 16:54:41.272824 21569 net.cpp:399] label_data_1_split -> label_data_1_split_9
I0403 16:54:41.272940 21569 net.cpp:141] Setting up label_data_1_split
I0403 16:54:41.272966 21569 net.cpp:148] Top shape: 24 (24)
I0403 16:54:41.272984 21569 net.cpp:148] Top shape: 24 (24)
I0403 16:54:41.273000 21569 net.cpp:148] Top shape: 24 (24)
I0403 16:54:41.273020 21569 net.cpp:148] Top shape: 24 (24)
I0403 16:54:41.273038 21569 net.cpp:148] Top shape: 24 (24)
I0403 16:54:41.273053 21569 net.cpp:148] Top shape: 24 (24)
I0403 16:54:41.273071 21569 net.cpp:148] Top shape: 24 (24)
I0403 16:54:41.273087 21569 net.cpp:148] Top shape: 24 (24)
I0403 16:54:41.273102 21569 net.cpp:148] Top shape: 24 (24)
I0403 16:54:41.273118 21569 net.cpp:148] Top shape: 24 (24)
I0403 16:54:41.273162 21569 net.cpp:156] Memory required for data: 14451744
I0403 16:54:41.273178 21569 layer_factory.hpp:77] Creating layer conv1/7x7_s2
I0403 16:54:41.273210 21569 net.cpp:91] Creating Layer conv1/7x7_s2
I0403 16:54:41.273228 21569 net.cpp:425] conv1/7x7_s2 <- data
I0403 16:54:41.273247 21569 net.cpp:399] conv1/7x7_s2 -> conv1/7x7_s2
I0403 16:54:41.412590 21569 net.cpp:141] Setting up conv1/7x7_s2
I0403 16:54:41.412652 21569 net.cpp:148] Top shape: 24 64 112 112 (19267584)
I0403 16:54:41.412670 21569 net.cpp:156] Memory required for data: 91522080
I0403 16:54:41.412703 21569 layer_factory.hpp:77] Creating layer conv1/relu_7x7
I0403 16:54:41.412729 21569 net.cpp:91] Creating Layer conv1/relu_7x7
I0403 16:54:41.412749 21569 net.cpp:425] conv1/relu_7x7 <- conv1/7x7_s2
I0403 16:54:41.412767 21569 net.cpp:386] conv1/relu_7x7 -> conv1/7x7_s2 (in-place)
I0403 16:54:41.413048 21569 net.cpp:141] Setting up conv1/relu_7x7
I0403 16:54:41.413077 21569 net.cpp:148] Top shape: 24 64 112 112 (19267584)
I0403 16:54:41.413092 21569 net.cpp:156] Memory required for data: 168592416
I0403 16:54:41.413106 21569 layer_factory.hpp:77] Creating layer pool1/3x3_s2
I0403 16:54:41.413147 21569 net.cpp:91] Creating Layer pool1/3x3_s2
I0403 16:54:41.413168 21569 net.cpp:425] pool1/3x3_s2 <- conv1/7x7_s2
I0403 16:54:41.413187 21569 net.cpp:399] pool1/3x3_s2 -> pool1/3x3_s2
I0403 16:54:41.413269 21569 net.cpp:141] Setting up pool1/3x3_s2
I0403 16:54:41.413293 21569 net.cpp:148] Top shape: 24 64 56 56 (4816896)
I0403 16:54:41.413308 21569 net.cpp:156] Memory required for data: 187860000
I0403 16:54:41.413323 21569 layer_factory.hpp:77] Creating layer pool1/norm1
I0403 16:54:41.413352 21569 net.cpp:91] Creating Layer pool1/norm1
I0403 16:54:41.413369 21569 net.cpp:425] pool1/norm1 <- pool1/3x3_s2
I0403 16:54:41.413388 21569 net.cpp:399] pool1/norm1 -> pool1/norm1
I0403 16:54:41.413700 21569 net.cpp:141] Setting up pool1/norm1
I0403 16:54:41.413728 21569 net.cpp:148] Top shape: 24 64 56 56 (4816896)
I0403 16:54:41.413744 21569 net.cpp:156] Memory required for data: 207127584
I0403 16:54:41.413760 21569 layer_factory.hpp:77] Creating layer conv2/3x3_reduce
I0403 16:54:41.413789 21569 net.cpp:91] Creating Layer conv2/3x3_reduce
I0403 16:54:41.413806 21569 net.cpp:425] conv2/3x3_reduce <- pool1/norm1
I0403 16:54:41.413828 21569 net.cpp:399] conv2/3x3_reduce -> conv2/3x3_reduce
I0403 16:54:41.415283 21569 net.cpp:141] Setting up conv2/3x3_reduce
I0403 16:54:41.415315 21569 net.cpp:148] Top shape: 24 64 56 56 (4816896)
I0403 16:54:41.415331 21569 net.cpp:156] Memory required for data: 226395168
I0403 16:54:41.415354 21569 layer_factory.hpp:77] Creating layer conv2/relu_3x3_reduce
I0403 16:54:41.415374 21569 net.cpp:91] Creating Layer conv2/relu_3x3_reduce
I0403 16:54:41.415390 21569 net.cpp:425] conv2/relu_3x3_reduce <- conv2/3x3_reduce
I0403 16:54:41.415410 21569 net.cpp:386] conv2/relu_3x3_reduce -> conv2/3x3_reduce (in-place)
I0403 16:54:41.415700 21569 net.cpp:141] Setting up conv2/relu_3x3_reduce
I0403 16:54:41.415729 21569 net.cpp:148] Top shape: 24 64 56 56 (4816896)
I0403 16:54:41.415745 21569 net.cpp:156] Memory required for data: 245662752
I0403 16:54:41.415760 21569 layer_factory.hpp:77] Creating layer conv2/3x3
I0403 16:54:41.415786 21569 net.cpp:91] Creating Layer conv2/3x3
I0403 16:54:41.415803 21569 net.cpp:425] conv2/3x3 <- conv2/3x3_reduce
I0403 16:54:41.415827 21569 net.cpp:399] conv2/3x3 -> conv2/3x3
I0403 16:54:41.418248 21569 net.cpp:141] Setting up conv2/3x3
I0403 16:54:41.418282 21569 net.cpp:148] Top shape: 24 192 56 56 (14450688)
I0403 16:54:41.418298 21569 net.cpp:156] Memory required for data: 303465504
I0403 16:54:41.418320 21569 layer_factory.hpp:77] Creating layer conv2/relu_3x3
I0403 16:54:41.418341 21569 net.cpp:91] Creating Layer conv2/relu_3x3
I0403 16:54:41.418359 21569 net.cpp:425] conv2/relu_3x3 <- conv2/3x3
I0403 16:54:41.418381 21569 net.cpp:386] conv2/relu_3x3 -> conv2/3x3 (in-place)
I0403 16:54:41.418566 21569 net.cpp:141] Setting up conv2/relu_3x3
I0403 16:54:41.418594 21569 net.cpp:148] Top shape: 24 192 56 56 (14450688)
I0403 16:54:41.418640 21569 net.cpp:156] Memory required for data: 361268256
I0403 16:54:41.418656 21569 layer_factory.hpp:77] Creating layer conv2/norm2
I0403 16:54:41.418678 21569 net.cpp:91] Creating Layer conv2/norm2
I0403 16:54:41.418694 21569 net.cpp:425] conv2/norm2 <- conv2/3x3
I0403 16:54:41.418715 21569 net.cpp:399] conv2/norm2 -> conv2/norm2
I0403 16:54:41.419039 21569 net.cpp:141] Setting up conv2/norm2
I0403 16:54:41.419070 21569 net.cpp:148] Top shape: 24 192 56 56 (14450688)
I0403 16:54:41.419086 21569 net.cpp:156] Memory required for data: 419071008
I0403 16:54:41.419101 21569 layer_factory.hpp:77] Creating layer pool2/3x3_s2
I0403 16:54:41.419119 21569 net.cpp:91] Creating Layer pool2/3x3_s2
I0403 16:54:41.419136 21569 net.cpp:425] pool2/3x3_s2 <- conv2/norm2
I0403 16:54:41.419155 21569 net.cpp:399] pool2/3x3_s2 -> pool2/3x3_s2
I0403 16:54:41.419209 21569 net.cpp:141] Setting up pool2/3x3_s2
I0403 16:54:41.419232 21569 net.cpp:148] Top shape: 24 192 28 28 (3612672)
I0403 16:54:41.419247 21569 net.cpp:156] Memory required for data: 433521696
I0403 16:54:41.419262 21569 layer_factory.hpp:77] Creating layer pool2/3x3_s2_pool2/3x3_s2_0_split
I0403 16:54:41.419281 21569 net.cpp:91] Creating Layer pool2/3x3_s2_pool2/3x3_s2_0_split
I0403 16:54:41.419297 21569 net.cpp:425] pool2/3x3_s2_pool2/3x3_s2_0_split <- pool2/3x3_s2
I0403 16:54:41.419315 21569 net.cpp:399] pool2/3x3_s2_pool2/3x3_s2_0_split -> pool2/3x3_s2_pool2/3x3_s2_0_split_0
I0403 16:54:41.419334 21569 net.cpp:399] pool2/3x3_s2_pool2/3x3_s2_0_split -> pool2/3x3_s2_pool2/3x3_s2_0_split_1
I0403 16:54:41.419356 21569 net.cpp:399] pool2/3x3_s2_pool2/3x3_s2_0_split -> pool2/3x3_s2_pool2/3x3_s2_0_split_2
I0403 16:54:41.419376 21569 net.cpp:399] pool2/3x3_s2_pool2/3x3_s2_0_split -> pool2/3x3_s2_pool2/3x3_s2_0_split_3
I0403 16:54:41.419450 21569 net.cpp:141] Setting up pool2/3x3_s2_pool2/3x3_s2_0_split
I0403 16:54:41.419474 21569 net.cpp:148] Top shape: 24 192 28 28 (3612672)
I0403 16:54:41.419492 21569 net.cpp:148] Top shape: 24 192 28 28 (3612672)
I0403 16:54:41.419507 21569 net.cpp:148] Top shape: 24 192 28 28 (3612672)
I0403 16:54:41.419523 21569 net.cpp:148] Top shape: 24 192 28 28 (3612672)
I0403 16:54:41.419536 21569 net.cpp:156] Memory required for data: 491324448
I0403 16:54:41.419550 21569 layer_factory.hpp:77] Creating layer inception_3a/1x1
I0403 16:54:41.419574 21569 net.cpp:91] Creating Layer inception_3a/1x1
I0403 16:54:41.419592 21569 net.cpp:425] inception_3a/1x1 <- pool2/3x3_s2_pool2/3x3_s2_0_split_0
I0403 16:54:41.419613 21569 net.cpp:399] inception_3a/1x1 -> inception_3a/1x1
I0403 16:54:41.421210 21569 net.cpp:141] Setting up inception_3a/1x1
I0403 16:54:41.421243 21569 net.cpp:148] Top shape: 24 64 28 28 (1204224)
I0403 16:54:41.421263 21569 net.cpp:156] Memory required for data: 496141344
I0403 16:54:41.421283 21569 layer_factory.hpp:77] Creating layer inception_3a/relu_1x1
I0403 16:54:41.421303 21569 net.cpp:91] Creating Layer inception_3a/relu_1x1
I0403 16:54:41.421320 21569 net.cpp:425] inception_3a/relu_1x1 <- inception_3a/1x1
I0403 16:54:41.421342 21569 net.cpp:386] inception_3a/relu_1x1 -> inception_3a/1x1 (in-place)
I0403 16:54:41.421525 21569 net.cpp:141] Setting up inception_3a/relu_1x1
I0403 16:54:41.421551 21569 net.cpp:148] Top shape: 24 64 28 28 (1204224)
I0403 16:54:41.421567 21569 net.cpp:156] Memory required for data: 500958240
I0403 16:54:41.421583 21569 layer_factory.hpp:77] Creating layer inception_3a/3x3_reduce
I0403 16:54:41.421608 21569 net.cpp:91] Creating Layer inception_3a/3x3_reduce
I0403 16:54:41.421628 21569 net.cpp:425] inception_3a/3x3_reduce <- pool2/3x3_s2_pool2/3x3_s2_0_split_1
I0403 16:54:41.421651 21569 net.cpp:399] inception_3a/3x3_reduce -> inception_3a/3x3_reduce
I0403 16:54:41.423398 21569 net.cpp:141] Setting up inception_3a/3x3_reduce
I0403 16:54:41.423430 21569 net.cpp:148] Top shape: 24 96 28 28 (1806336)
I0403 16:54:41.423449 21569 net.cpp:156] Memory required for data: 508183584
I0403 16:54:41.423470 21569 layer_factory.hpp:77] Creating layer inception_3a/relu_3x3_reduce
I0403 16:54:41.423512 21569 net.cpp:91] Creating Layer inception_3a/relu_3x3_reduce
I0403 16:54:41.423532 21569 net.cpp:425] inception_3a/relu_3x3_reduce <- inception_3a/3x3_reduce
I0403 16:54:41.423552 21569 net.cpp:386] inception_3a/relu_3x3_reduce -> inception_3a/3x3_reduce (in-place)
I0403 16:54:41.423739 21569 net.cpp:141] Setting up inception_3a/relu_3x3_reduce
I0403 16:54:41.423769 21569 net.cpp:148] Top shape: 24 96 28 28 (1806336)
I0403 16:54:41.423786 21569 net.cpp:156] Memory required for data: 515408928
I0403 16:54:41.423801 21569 layer_factory.hpp:77] Creating layer inception_3a/3x3
I0403 16:54:41.423825 21569 net.cpp:91] Creating Layer inception_3a/3x3
I0403 16:54:41.423843 21569 net.cpp:425] inception_3a/3x3 <- inception_3a/3x3_reduce
I0403 16:54:41.423863 21569 net.cpp:399] inception_3a/3x3 -> inception_3a/3x3
I0403 16:54:41.425598 21569 net.cpp:141] Setting up inception_3a/3x3
I0403 16:54:41.425629 21569 net.cpp:148] Top shape: 24 128 28 28 (2408448)
I0403 16:54:41.425645 21569 net.cpp:156] Memory required for data: 525042720
I0403 16:54:41.425665 21569 layer_factory.hpp:77] Creating layer inception_3a/relu_3x3
I0403 16:54:41.425688 21569 net.cpp:91] Creating Layer inception_3a/relu_3x3
I0403 16:54:41.425705 21569 net.cpp:425] inception_3a/relu_3x3 <- inception_3a/3x3
I0403 16:54:41.425724 21569 net.cpp:386] inception_3a/relu_3x3 -> inception_3a/3x3 (in-place)
I0403 16:54:41.426010 21569 net.cpp:141] Setting up inception_3a/relu_3x3
I0403 16:54:41.426043 21569 net.cpp:148] Top shape: 24 128 28 28 (2408448)
I0403 16:54:41.426060 21569 net.cpp:156] Memory required for data: 534676512
I0403 16:54:41.426076 21569 layer_factory.hpp:77] Creating layer inception_3a/5x5_reduce
I0403 16:54:41.426100 21569 net.cpp:91] Creating Layer inception_3a/5x5_reduce
I0403 16:54:41.426118 21569 net.cpp:425] inception_3a/5x5_reduce <- pool2/3x3_s2_pool2/3x3_s2_0_split_2
I0403 16:54:41.426141 21569 net.cpp:399] inception_3a/5x5_reduce -> inception_3a/5x5_reduce
I0403 16:54:41.427171 21569 net.cpp:141] Setting up inception_3a/5x5_reduce
I0403 16:54:41.427202 21569 net.cpp:148] Top shape: 24 16 28 28 (301056)
I0403 16:54:41.427219 21569 net.cpp:156] Memory required for data: 535880736
I0403 16:54:41.427238 21569 layer_factory.hpp:77] Creating layer inception_3a/relu_5x5_reduce
I0403 16:54:41.427260 21569 net.cpp:91] Creating Layer inception_3a/relu_5x5_reduce
I0403 16:54:41.427279 21569 net.cpp:425] inception_3a/relu_5x5_reduce <- inception_3a/5x5_reduce
I0403 16:54:41.427297 21569 net.cpp:386] inception_3a/relu_5x5_reduce -> inception_3a/5x5_reduce (in-place)
I0403 16:54:41.427611 21569 net.cpp:141] Setting up inception_3a/relu_5x5_reduce
I0403 16:54:41.427639 21569 net.cpp:148] Top shape: 24 16 28 28 (301056)
I0403 16:54:41.427656 21569 net.cpp:156] Memory required for data: 537084960
I0403 16:54:41.427673 21569 layer_factory.hpp:77] Creating layer inception_3a/5x5
I0403 16:54:41.427696 21569 net.cpp:91] Creating Layer inception_3a/5x5
I0403 16:54:41.427716 21569 net.cpp:425] inception_3a/5x5 <- inception_3a/5x5_reduce
I0403 16:54:41.427739 21569 net.cpp:399] inception_3a/5x5 -> inception_3a/5x5
I0403 16:54:41.428820 21569 net.cpp:141] Setting up inception_3a/5x5
I0403 16:54:41.428848 21569 net.cpp:148] Top shape: 24 32 28 28 (602112)
I0403 16:54:41.428864 21569 net.cpp:156] Memory required for data: 539493408
I0403 16:54:41.428882 21569 layer_factory.hpp:77] Creating layer inception_3a/relu_5x5
I0403 16:54:41.428900 21569 net.cpp:91] Creating Layer inception_3a/relu_5x5
I0403 16:54:41.428948 21569 net.cpp:425] inception_3a/relu_5x5 <- inception_3a/5x5
I0403 16:54:41.428967 21569 net.cpp:386] inception_3a/relu_5x5 -> inception_3a/5x5 (in-place)
I0403 16:54:41.429149 21569 net.cpp:141] Setting up inception_3a/relu_5x5
I0403 16:54:41.429174 21569 net.cpp:148] Top shape: 24 32 28 28 (602112)
I0403 16:54:41.429189 21569 net.cpp:156] Memory required for data: 541901856
I0403 16:54:41.429215 21569 layer_factory.hpp:77] Creating layer inception_3a/pool
I0403 16:54:41.429234 21569 net.cpp:91] Creating Layer inception_3a/pool
I0403 16:54:41.429263 21569 net.cpp:425] inception_3a/pool <- pool2/3x3_s2_pool2/3x3_s2_0_split_3
I0403 16:54:41.429282 21569 net.cpp:399] inception_3a/pool -> inception_3a/pool
I0403 16:54:41.429339 21569 net.cpp:141] Setting up inception_3a/pool
I0403 16:54:41.429363 21569 net.cpp:148] Top shape: 24 192 28 28 (3612672)
I0403 16:54:41.429376 21569 net.cpp:156] Memory required for data: 556352544
I0403 16:54:41.429390 21569 layer_factory.hpp:77] Creating layer inception_3a/pool_proj
I0403 16:54:41.429411 21569 net.cpp:91] Creating Layer inception_3a/pool_proj
I0403 16:54:41.429427 21569 net.cpp:425] inception_3a/pool_proj <- inception_3a/pool
I0403 16:54:41.429448 21569 net.cpp:399] inception_3a/pool_proj -> inception_3a/pool_proj
I0403 16:54:41.430407 21569 net.cpp:141] Setting up inception_3a/pool_proj
I0403 16:54:41.430438 21569 net.cpp:148] Top shape: 24 32 28 28 (602112)
I0403 16:54:41.430454 21569 net.cpp:156] Memory required for data: 558760992
I0403 16:54:41.430476 21569 layer_factory.hpp:77] Creating layer inception_3a/relu_pool_proj
I0403 16:54:41.430498 21569 net.cpp:91] Creating Layer inception_3a/relu_pool_proj
I0403 16:54:41.430517 21569 net.cpp:425] inception_3a/relu_pool_proj <- inception_3a/pool_proj
I0403 16:54:41.430536 21569 net.cpp:386] inception_3a/relu_pool_proj -> inception_3a/pool_proj (in-place)
I0403 16:54:41.430812 21569 net.cpp:141] Setting up inception_3a/relu_pool_proj
I0403 16:54:41.430840 21569 net.cpp:148] Top shape: 24 32 28 28 (602112)
I0403 16:54:41.430855 21569 net.cpp:156] Memory required for data: 561169440
I0403 16:54:41.430869 21569 layer_factory.hpp:77] Creating layer inception_3a/output
I0403 16:54:41.430887 21569 net.cpp:91] Creating Layer inception_3a/output
I0403 16:54:41.430902 21569 net.cpp:425] inception_3a/output <- inception_3a/1x1
I0403 16:54:41.430917 21569 net.cpp:425] inception_3a/output <- inception_3a/3x3
I0403 16:54:41.430933 21569 net.cpp:425] inception_3a/output <- inception_3a/5x5
I0403 16:54:41.430948 21569 net.cpp:425] inception_3a/output <- inception_3a/pool_proj
I0403 16:54:41.430968 21569 net.cpp:399] inception_3a/output -> inception_3a/output
I0403 16:54:41.431012 21569 net.cpp:141] Setting up inception_3a/output
I0403 16:54:41.431042 21569 net.cpp:148] Top shape: 24 256 28 28 (4816896)
I0403 16:54:41.431058 21569 net.cpp:156] Memory required for data: 580437024
I0403 16:54:41.431072 21569 layer_factory.hpp:77] Creating layer inception_3a/output_inception_3a/output_0_split
I0403 16:54:41.431089 21569 net.cpp:91] Creating Layer inception_3a/output_inception_3a/output_0_split
I0403 16:54:41.431103 21569 net.cpp:425] inception_3a/output_inception_3a/output_0_split <- inception_3a/output
I0403 16:54:41.431123 21569 net.cpp:399] inception_3a/output_inception_3a/output_0_split -> inception_3a/output_inception_3a/output_0_split_0
I0403 16:54:41.431141 21569 net.cpp:399] inception_3a/output_inception_3a/output_0_split -> inception_3a/output_inception_3a/output_0_split_1
I0403 16:54:41.431162 21569 net.cpp:399] inception_3a/output_inception_3a/output_0_split -> inception_3a/output_inception_3a/output_0_split_2
I0403 16:54:41.431183 21569 net.cpp:399] inception_3a/output_inception_3a/output_0_split -> inception_3a/output_inception_3a/output_0_split_3
I0403 16:54:41.431257 21569 net.cpp:141] Setting up inception_3a/output_inception_3a/output_0_split
I0403 16:54:41.431278 21569 net.cpp:148] Top shape: 24 256 28 28 (4816896)
I0403 16:54:41.431294 21569 net.cpp:148] Top shape: 24 256 28 28 (4816896)
I0403 16:54:41.431310 21569 net.cpp:148] Top shape: 24 256 28 28 (4816896)
I0403 16:54:41.431324 21569 net.cpp:148] Top shape: 24 256 28 28 (4816896)
I0403 16:54:41.431339 21569 net.cpp:156] Memory required for data: 657507360
I0403 16:54:41.431352 21569 layer_factory.hpp:77] Creating layer inception_3b/1x1
I0403 16:54:41.431375 21569 net.cpp:91] Creating Layer inception_3b/1x1
I0403 16:54:41.431391 21569 net.cpp:425] inception_3b/1x1 <- inception_3a/output_inception_3a/output_0_split_0
I0403 16:54:41.431411 21569 net.cpp:399] inception_3b/1x1 -> inception_3b/1x1
I0403 16:54:41.432539 21569 net.cpp:141] Setting up inception_3b/1x1
I0403 16:54:41.432581 21569 net.cpp:148] Top shape: 24 128 28 28 (2408448)
I0403 16:54:41.432597 21569 net.cpp:156] Memory required for data: 667141152
I0403 16:54:41.432616 21569 layer_factory.hpp:77] Creating layer inception_3b/relu_1x1
I0403 16:54:41.432634 21569 net.cpp:91] Creating Layer inception_3b/relu_1x1
I0403 16:54:41.432651 21569 net.cpp:425] inception_3b/relu_1x1 <- inception_3b/1x1
I0403 16:54:41.432669 21569 net.cpp:386] inception_3b/relu_1x1 -> inception_3b/1x1 (in-place)
I0403 16:54:41.432843 21569 net.cpp:141] Setting up inception_3b/relu_1x1
I0403 16:54:41.432869 21569 net.cpp:148] Top shape: 24 128 28 28 (2408448)
I0403 16:54:41.432885 21569 net.cpp:156] Memory required for data: 676774944
I0403 16:54:41.432900 21569 layer_factory.hpp:77] Creating layer inception_3b/3x3_reduce
I0403 16:54:41.432922 21569 net.cpp:91] Creating Layer inception_3b/3x3_reduce
I0403 16:54:41.432940 21569 net.cpp:425] inception_3b/3x3_reduce <- inception_3a/output_inception_3a/output_0_split_1
I0403 16:54:41.432960 21569 net.cpp:399] inception_3b/3x3_reduce -> inception_3b/3x3_reduce
I0403 16:54:41.434085 21569 net.cpp:141] Setting up inception_3b/3x3_reduce
I0403 16:54:41.434118 21569 net.cpp:148] Top shape: 24 128 28 28 (2408448)
I0403 16:54:41.434134 21569 net.cpp:156] Memory required for data: 686408736
I0403 16:54:41.434154 21569 layer_factory.hpp:77] Creating layer inception_3b/relu_3x3_reduce
I0403 16:54:41.434173 21569 net.cpp:91] Creating Layer inception_3b/relu_3x3_reduce
I0403 16:54:41.434190 21569 net.cpp:425] inception_3b/relu_3x3_reduce <- inception_3b/3x3_reduce
I0403 16:54:41.434208 21569 net.cpp:386] inception_3b/relu_3x3_reduce -> inception_3b/3x3_reduce (in-place)
I0403 16:54:41.434379 21569 net.cpp:141] Setting up inception_3b/relu_3x3_reduce
I0403 16:54:41.434403 21569 net.cpp:148] Top shape: 24 128 28 28 (2408448)
I0403 16:54:41.434418 21569 net.cpp:156] Memory required for data: 696042528
I0403 16:54:41.434432 21569 layer_factory.hpp:77] Creating layer inception_3b/3x3
I0403 16:54:41.434458 21569 net.cpp:91] Creating Layer inception_3b/3x3
I0403 16:54:41.434474 21569 net.cpp:425] inception_3b/3x3 <- inception_3b/3x3_reduce
I0403 16:54:41.434492 21569 net.cpp:399] inception_3b/3x3 -> inception_3b/3x3
I0403 16:54:41.437402 21569 net.cpp:141] Setting up inception_3b/3x3
I0403 16:54:41.437430 21569 net.cpp:148] Top shape: 24 192 28 28 (3612672)
I0403 16:54:41.437445 21569 net.cpp:156] Memory required for data: 710493216
I0403 16:54:41.437463 21569 layer_factory.hpp:77] Creating layer inception_3b/relu_3x3
I0403 16:54:41.437484 21569 net.cpp:91] Creating Layer inception_3b/relu_3x3
I0403 16:54:41.437500 21569 net.cpp:425] inception_3b/relu_3x3 <- inception_3b/3x3
I0403 16:54:41.437516 21569 net.cpp:386] inception_3b/relu_3x3 -> inception_3b/3x3 (in-place)
I0403 16:54:41.437793 21569 net.cpp:141] Setting up inception_3b/relu_3x3
I0403 16:54:41.437819 21569 net.cpp:148] Top shape: 24 192 28 28 (3612672)
I0403 16:54:41.437834 21569 net.cpp:156] Memory required for data: 724943904
I0403 16:54:41.437847 21569 layer_factory.hpp:77] Creating layer inception_3b/5x5_reduce
I0403 16:54:41.437870 21569 net.cpp:91] Creating Layer inception_3b/5x5_reduce
I0403 16:54:41.437887 21569 net.cpp:425] inception_3b/5x5_reduce <- inception_3a/output_inception_3a/output_0_split_2
I0403 16:54:41.437908 21569 net.cpp:399] inception_3b/5x5_reduce -> inception_3b/5x5_reduce
I0403 16:54:41.438923 21569 net.cpp:141] Setting up inception_3b/5x5_reduce
I0403 16:54:41.438952 21569 net.cpp:148] Top shape: 24 32 28 28 (602112)
I0403 16:54:41.438969 21569 net.cpp:156] Memory required for data: 727352352
I0403 16:54:41.438987 21569 layer_factory.hpp:77] Creating layer inception_3b/relu_5x5_reduce
I0403 16:54:41.439007 21569 net.cpp:91] Creating Layer inception_3b/relu_5x5_reduce
I0403 16:54:41.439028 21569 net.cpp:425] inception_3b/relu_5x5_reduce <- inception_3b/5x5_reduce
I0403 16:54:41.439048 21569 net.cpp:386] inception_3b/relu_5x5_reduce -> inception_3b/5x5_reduce (in-place)
I0403 16:54:41.439234 21569 net.cpp:141] Setting up inception_3b/relu_5x5_reduce
I0403 16:54:41.439259 21569 net.cpp:148] Top shape: 24 32 28 28 (602112)
I0403 16:54:41.439272 21569 net.cpp:156] Memory required for data: 729760800
I0403 16:54:41.439286 21569 layer_factory.hpp:77] Creating layer inception_3b/5x5
I0403 16:54:41.439308 21569 net.cpp:91] Creating Layer inception_3b/5x5
I0403 16:54:41.439326 21569 net.cpp:425] inception_3b/5x5 <- inception_3b/5x5_reduce
I0403 16:54:41.439347 21569 net.cpp:399] inception_3b/5x5 -> inception_3b/5x5
I0403 16:54:41.441287 21569 net.cpp:141] Setting up inception_3b/5x5
I0403 16:54:41.441318 21569 net.cpp:148] Top shape: 24 96 28 28 (1806336)
I0403 16:54:41.441335 21569 net.cpp:156] Memory required for data: 736986144
I0403 16:54:41.441354 21569 layer_factory.hpp:77] Creating layer inception_3b/relu_5x5
I0403 16:54:41.441373 21569 net.cpp:91] Creating Layer inception_3b/relu_5x5
I0403 16:54:41.441391 21569 net.cpp:425] inception_3b/relu_5x5 <- inception_3b/5x5
I0403 16:54:41.441412 21569 net.cpp:386] inception_3b/relu_5x5 -> inception_3b/5x5 (in-place)
I0403 16:54:41.441599 21569 net.cpp:141] Setting up inception_3b/relu_5x5
I0403 16:54:41.441627 21569 net.cpp:148] Top shape: 24 96 28 28 (1806336)
I0403 16:54:41.441640 21569 net.cpp:156] Memory required for data: 744211488
I0403 16:54:41.441656 21569 layer_factory.hpp:77] Creating layer inception_3b/pool
I0403 16:54:41.441673 21569 net.cpp:91] Creating Layer inception_3b/pool
I0403 16:54:41.441687 21569 net.cpp:425] inception_3b/pool <- inception_3a/output_inception_3a/output_0_split_3
I0403 16:54:41.441704 21569 net.cpp:399] inception_3b/pool -> inception_3b/pool
I0403 16:54:41.441759 21569 net.cpp:141] Setting up inception_3b/pool
I0403 16:54:41.441782 21569 net.cpp:148] Top shape: 24 256 28 28 (4816896)
I0403 16:54:41.441797 21569 net.cpp:156] Memory required for data: 763479072
I0403 16:54:41.441810 21569 layer_factory.hpp:77] Creating layer inception_3b/pool_proj
I0403 16:54:41.441833 21569 net.cpp:91] Creating Layer inception_3b/pool_proj
I0403 16:54:41.441850 21569 net.cpp:425] inception_3b/pool_proj <- inception_3b/pool
I0403 16:54:41.441869 21569 net.cpp:399] inception_3b/pool_proj -> inception_3b/pool_proj
I0403 16:54:41.442914 21569 net.cpp:141] Setting up inception_3b/pool_proj
I0403 16:54:41.442941 21569 net.cpp:148] Top shape: 24 64 28 28 (1204224)
I0403 16:54:41.442957 21569 net.cpp:156] Memory required for data: 768295968
I0403 16:54:41.442977 21569 layer_factory.hpp:77] Creating layer inception_3b/relu_pool_proj
I0403 16:54:41.442997 21569 net.cpp:91] Creating Layer inception_3b/relu_pool_proj
I0403 16:54:41.443014 21569 net.cpp:425] inception_3b/relu_pool_proj <- inception_3b/pool_proj
I0403 16:54:41.443037 21569 net.cpp:386] inception_3b/relu_pool_proj -> inception_3b/pool_proj (in-place)
I0403 16:54:41.443426 21569 net.cpp:141] Setting up inception_3b/relu_pool_proj
I0403 16:54:41.443454 21569 net.cpp:148] Top shape: 24 64 28 28 (1204224)
I0403 16:54:41.443470 21569 net.cpp:156] Memory required for data: 773112864
I0403 16:54:41.443485 21569 layer_factory.hpp:77] Creating layer inception_3b/output
I0403 16:54:41.443505 21569 net.cpp:91] Creating Layer inception_3b/output
I0403 16:54:41.443521 21569 net.cpp:425] inception_3b/output <- inception_3b/1x1
I0403 16:54:41.443536 21569 net.cpp:425] inception_3b/output <- inception_3b/3x3
I0403 16:54:41.443552 21569 net.cpp:425] inception_3b/output <- inception_3b/5x5
I0403 16:54:41.443567 21569 net.cpp:425] inception_3b/output <- inception_3b/pool_proj
I0403 16:54:41.443583 21569 net.cpp:399] inception_3b/output -> inception_3b/output
I0403 16:54:41.443627 21569 net.cpp:141] Setting up inception_3b/output
I0403 16:54:41.443650 21569 net.cpp:148] Top shape: 24 480 28 28 (9031680)
I0403 16:54:41.443665 21569 net.cpp:156] Memory required for data: 809239584
I0403 16:54:41.443678 21569 layer_factory.hpp:77] Creating layer pool3/3x3_s2
I0403 16:54:41.443696 21569 net.cpp:91] Creating Layer pool3/3x3_s2
I0403 16:54:41.443711 21569 net.cpp:425] pool3/3x3_s2 <- inception_3b/output
I0403 16:54:41.443744 21569 net.cpp:399] pool3/3x3_s2 -> pool3/3x3_s2
I0403 16:54:41.443804 21569 net.cpp:141] Setting up pool3/3x3_s2
I0403 16:54:41.443830 21569 net.cpp:148] Top shape: 24 480 14 14 (2257920)
I0403 16:54:41.443845 21569 net.cpp:156] Memory required for data: 818271264
I0403 16:54:41.443858 21569 layer_factory.hpp:77] Creating layer pool3/3x3_s2_pool3/3x3_s2_0_split
I0403 16:54:41.443876 21569 net.cpp:91] Creating Layer pool3/3x3_s2_pool3/3x3_s2_0_split
I0403 16:54:41.443891 21569 net.cpp:425] pool3/3x3_s2_pool3/3x3_s2_0_split <- pool3/3x3_s2
I0403 16:54:41.443907 21569 net.cpp:399] pool3/3x3_s2_pool3/3x3_s2_0_split -> pool3/3x3_s2_pool3/3x3_s2_0_split_0
I0403 16:54:41.443928 21569 net.cpp:399] pool3/3x3_s2_pool3/3x3_s2_0_split -> pool3/3x3_s2_pool3/3x3_s2_0_split_1
I0403 16:54:41.443946 21569 net.cpp:399] pool3/3x3_s2_pool3/3x3_s2_0_split -> pool3/3x3_s2_pool3/3x3_s2_0_split_2
I0403 16:54:41.443965 21569 net.cpp:399] pool3/3x3_s2_pool3/3x3_s2_0_split -> pool3/3x3_s2_pool3/3x3_s2_0_split_3
I0403 16:54:41.444046 21569 net.cpp:141] Setting up pool3/3x3_s2_pool3/3x3_s2_0_split
I0403 16:54:41.444069 21569 net.cpp:148] Top shape: 24 480 14 14 (2257920)
I0403 16:54:41.444084 21569 net.cpp:148] Top shape: 24 480 14 14 (2257920)
I0403 16:54:41.444099 21569 net.cpp:148] Top shape: 24 480 14 14 (2257920)
I0403 16:54:41.444113 21569 net.cpp:148] Top shape: 24 480 14 14 (2257920)
I0403 16:54:41.444128 21569 net.cpp:156] Memory required for data: 854397984
I0403 16:54:41.444140 21569 layer_factory.hpp:77] Creating layer inception_4a/1x1
I0403 16:54:41.444162 21569 net.cpp:91] Creating Layer inception_4a/1x1
I0403 16:54:41.444180 21569 net.cpp:425] inception_4a/1x1 <- pool3/3x3_s2_pool3/3x3_s2_0_split_0
I0403 16:54:41.444200 21569 net.cpp:399] inception_4a/1x1 -> inception_4a/1x1
I0403 16:54:41.445757 21569 net.cpp:141] Setting up inception_4a/1x1
I0403 16:54:41.445786 21569 net.cpp:148] Top shape: 24 192 14 14 (903168)
I0403 16:54:41.445802 21569 net.cpp:156] Memory required for data: 858010656
I0403 16:54:41.445822 21569 layer_factory.hpp:77] Creating layer inception_4a/relu_1x1
I0403 16:54:41.445842 21569 net.cpp:91] Creating Layer inception_4a/relu_1x1
I0403 16:54:41.445873 21569 net.cpp:425] inception_4a/relu_1x1 <- inception_4a/1x1
I0403 16:54:41.445891 21569 net.cpp:386] inception_4a/relu_1x1 -> inception_4a/1x1 (in-place)
I0403 16:54:41.446075 21569 net.cpp:141] Setting up inception_4a/relu_1x1
I0403 16:54:41.446101 21569 net.cpp:148] Top shape: 24 192 14 14 (903168)
I0403 16:54:41.446117 21569 net.cpp:156] Memory required for data: 861623328
I0403 16:54:41.446142 21569 layer_factory.hpp:77] Creating layer inception_4a/3x3_reduce
I0403 16:54:41.446164 21569 net.cpp:91] Creating Layer inception_4a/3x3_reduce
I0403 16:54:41.446182 21569 net.cpp:425] inception_4a/3x3_reduce <- pool3/3x3_s2_pool3/3x3_s2_0_split_1
I0403 16:54:41.446215 21569 net.cpp:399] inception_4a/3x3_reduce -> inception_4a/3x3_reduce
I0403 16:54:41.447510 21569 net.cpp:141] Setting up inception_4a/3x3_reduce
I0403 16:54:41.447540 21569 net.cpp:148] Top shape: 24 96 14 14 (451584)
I0403 16:54:41.447556 21569 net.cpp:156] Memory required for data: 863429664
I0403 16:54:41.447581 21569 layer_factory.hpp:77] Creating layer inception_4a/relu_3x3_reduce
I0403 16:54:41.447603 21569 net.cpp:91] Creating Layer inception_4a/relu_3x3_reduce
I0403 16:54:41.447620 21569 net.cpp:425] inception_4a/relu_3x3_reduce <- inception_4a/3x3_reduce
I0403 16:54:41.447638 21569 net.cpp:386] inception_4a/relu_3x3_reduce -> inception_4a/3x3_reduce (in-place)
I0403 16:54:41.447813 21569 net.cpp:141] Setting up inception_4a/relu_3x3_reduce
I0403 16:54:41.447839 21569 net.cpp:148] Top shape: 24 96 14 14 (451584)
I0403 16:54:41.447854 21569 net.cpp:156] Memory required for data: 865236000
I0403 16:54:41.447868 21569 layer_factory.hpp:77] Creating layer inception_4a/3x3
I0403 16:54:41.447891 21569 net.cpp:91] Creating Layer inception_4a/3x3
I0403 16:54:41.447908 21569 net.cpp:425] inception_4a/3x3 <- inception_4a/3x3_reduce
I0403 16:54:41.447926 21569 net.cpp:399] inception_4a/3x3 -> inception_4a/3x3
I0403 16:54:41.450579 21569 net.cpp:141] Setting up inception_4a/3x3
I0403 16:54:41.450613 21569 net.cpp:148] Top shape: 24 208 14 14 (978432)
I0403 16:54:41.450631 21569 net.cpp:156] Memory required for data: 869149728
I0403 16:54:41.450649 21569 layer_factory.hpp:77] Creating layer inception_4a/relu_3x3
I0403 16:54:41.450669 21569 net.cpp:91] Creating Layer inception_4a/relu_3x3
I0403 16:54:41.450685 21569 net.cpp:425] inception_4a/relu_3x3 <- inception_4a/3x3
I0403 16:54:41.450706 21569 net.cpp:386] inception_4a/relu_3x3 -> inception_4a/3x3 (in-place)
I0403 16:54:41.450976 21569 net.cpp:141] Setting up inception_4a/relu_3x3
I0403 16:54:41.451005 21569 net.cpp:148] Top shape: 24 208 14 14 (978432)
I0403 16:54:41.451025 21569 net.cpp:156] Memory required for data: 873063456
I0403 16:54:41.451040 21569 layer_factory.hpp:77] Creating layer inception_4a/5x5_reduce
I0403 16:54:41.451063 21569 net.cpp:91] Creating Layer inception_4a/5x5_reduce
I0403 16:54:41.451081 21569 net.cpp:425] inception_4a/5x5_reduce <- pool3/3x3_s2_pool3/3x3_s2_0_split_2
I0403 16:54:41.451100 21569 net.cpp:399] inception_4a/5x5_reduce -> inception_4a/5x5_reduce
I0403 16:54:41.452105 21569 net.cpp:141] Setting up inception_4a/5x5_reduce
I0403 16:54:41.452134 21569 net.cpp:148] Top shape: 24 16 14 14 (75264)
I0403 16:54:41.452150 21569 net.cpp:156] Memory required for data: 873364512
I0403 16:54:41.452168 21569 layer_factory.hpp:77] Creating layer inception_4a/relu_5x5_reduce
I0403 16:54:41.452186 21569 net.cpp:91] Creating Layer inception_4a/relu_5x5_reduce
I0403 16:54:41.452205 21569 net.cpp:425] inception_4a/relu_5x5_reduce <- inception_4a/5x5_reduce
I0403 16:54:41.452222 21569 net.cpp:386] inception_4a/relu_5x5_reduce -> inception_4a/5x5_reduce (in-place)
I0403 16:54:41.452399 21569 net.cpp:141] Setting up inception_4a/relu_5x5_reduce
I0403 16:54:41.452424 21569 net.cpp:148] Top shape: 24 16 14 14 (75264)
I0403 16:54:41.452438 21569 net.cpp:156] Memory required for data: 873665568
I0403 16:54:41.452452 21569 layer_factory.hpp:77] Creating layer inception_4a/5x5
I0403 16:54:41.452473 21569 net.cpp:91] Creating Layer inception_4a/5x5
I0403 16:54:41.452491 21569 net.cpp:425] inception_4a/5x5 <- inception_4a/5x5_reduce
I0403 16:54:41.452512 21569 net.cpp:399] inception_4a/5x5 -> inception_4a/5x5
I0403 16:54:41.453578 21569 net.cpp:141] Setting up inception_4a/5x5
I0403 16:54:41.453606 21569 net.cpp:148] Top shape: 24 48 14 14 (225792)
I0403 16:54:41.453621 21569 net.cpp:156] Memory required for data: 874568736
I0403 16:54:41.453639 21569 layer_factory.hpp:77] Creating layer inception_4a/relu_5x5
I0403 16:54:41.453660 21569 net.cpp:91] Creating Layer inception_4a/relu_5x5
I0403 16:54:41.453676 21569 net.cpp:425] inception_4a/relu_5x5 <- inception_4a/5x5
I0403 16:54:41.453693 21569 net.cpp:386] inception_4a/relu_5x5 -> inception_4a/5x5 (in-place)
I0403 16:54:41.453867 21569 net.cpp:141] Setting up inception_4a/relu_5x5
I0403 16:54:41.453896 21569 net.cpp:148] Top shape: 24 48 14 14 (225792)
I0403 16:54:41.453912 21569 net.cpp:156] Memory required for data: 875471904
I0403 16:54:41.453927 21569 layer_factory.hpp:77] Creating layer inception_4a/pool
I0403 16:54:41.453943 21569 net.cpp:91] Creating Layer inception_4a/pool
I0403 16:54:41.453959 21569 net.cpp:425] inception_4a/pool <- pool3/3x3_s2_pool3/3x3_s2_0_split_3
I0403 16:54:41.453979 21569 net.cpp:399] inception_4a/pool -> inception_4a/pool
I0403 16:54:41.454042 21569 net.cpp:141] Setting up inception_4a/pool
I0403 16:54:41.454066 21569 net.cpp:148] Top shape: 24 480 14 14 (2257920)
I0403 16:54:41.454080 21569 net.cpp:156] Memory required for data: 884503584
I0403 16:54:41.454094 21569 layer_factory.hpp:77] Creating layer inception_4a/pool_proj
I0403 16:54:41.454116 21569 net.cpp:91] Creating Layer inception_4a/pool_proj
I0403 16:54:41.454133 21569 net.cpp:425] inception_4a/pool_proj <- inception_4a/pool
I0403 16:54:41.454154 21569 net.cpp:399] inception_4a/pool_proj -> inception_4a/pool_proj
I0403 16:54:41.455296 21569 net.cpp:141] Setting up inception_4a/pool_proj
I0403 16:54:41.455327 21569 net.cpp:148] Top shape: 24 64 14 14 (301056)
I0403 16:54:41.455358 21569 net.cpp:156] Memory required for data: 885707808
I0403 16:54:41.455377 21569 layer_factory.hpp:77] Creating layer inception_4a/relu_pool_proj
I0403 16:54:41.455395 21569 net.cpp:91] Creating Layer inception_4a/relu_pool_proj
I0403 16:54:41.455411 21569 net.cpp:425] inception_4a/relu_pool_proj <- inception_4a/pool_proj
I0403 16:54:41.455428 21569 net.cpp:386] inception_4a/relu_pool_proj -> inception_4a/pool_proj (in-place)
I0403 16:54:41.455708 21569 net.cpp:141] Setting up inception_4a/relu_pool_proj
I0403 16:54:41.455737 21569 net.cpp:148] Top shape: 24 64 14 14 (301056)
I0403 16:54:41.455752 21569 net.cpp:156] Memory required for data: 886912032
I0403 16:54:41.455767 21569 layer_factory.hpp:77] Creating layer inception_4a/output
I0403 16:54:41.455785 21569 net.cpp:91] Creating Layer inception_4a/output
I0403 16:54:41.455799 21569 net.cpp:425] inception_4a/output <- inception_4a/1x1
I0403 16:54:41.455816 21569 net.cpp:425] inception_4a/output <- inception_4a/3x3
I0403 16:54:41.455832 21569 net.cpp:425] inception_4a/output <- inception_4a/5x5
I0403 16:54:41.455847 21569 net.cpp:425] inception_4a/output <- inception_4a/pool_proj
I0403 16:54:41.455863 21569 net.cpp:399] inception_4a/output -> inception_4a/output
I0403 16:54:41.455907 21569 net.cpp:141] Setting up inception_4a/output
I0403 16:54:41.455930 21569 net.cpp:148] Top shape: 24 512 14 14 (2408448)
I0403 16:54:41.455945 21569 net.cpp:156] Memory required for data: 896545824
I0403 16:54:41.455960 21569 layer_factory.hpp:77] Creating layer inception_4a/output_inception_4a/output_0_split
I0403 16:54:41.455976 21569 net.cpp:91] Creating Layer inception_4a/output_inception_4a/output_0_split
I0403 16:54:41.455992 21569 net.cpp:425] inception_4a/output_inception_4a/output_0_split <- inception_4a/output
I0403 16:54:41.456009 21569 net.cpp:399] inception_4a/output_inception_4a/output_0_split -> inception_4a/output_inception_4a/output_0_split_0
I0403 16:54:41.456033 21569 net.cpp:399] inception_4a/output_inception_4a/output_0_split -> inception_4a/output_inception_4a/output_0_split_1
I0403 16:54:41.456054 21569 net.cpp:399] inception_4a/output_inception_4a/output_0_split -> inception_4a/output_inception_4a/output_0_split_2
I0403 16:54:41.456073 21569 net.cpp:399] inception_4a/output_inception_4a/output_0_split -> inception_4a/output_inception_4a/output_0_split_3
I0403 16:54:41.456092 21569 net.cpp:399] inception_4a/output_inception_4a/output_0_split -> inception_4a/output_inception_4a/output_0_split_4
I0403 16:54:41.456184 21569 net.cpp:141] Setting up inception_4a/output_inception_4a/output_0_split
I0403 16:54:41.456207 21569 net.cpp:148] Top shape: 24 512 14 14 (2408448)
I0403 16:54:41.456223 21569 net.cpp:148] Top shape: 24 512 14 14 (2408448)
I0403 16:54:41.456238 21569 net.cpp:148] Top shape: 24 512 14 14 (2408448)
I0403 16:54:41.456254 21569 net.cpp:148] Top shape: 24 512 14 14 (2408448)
I0403 16:54:41.456269 21569 net.cpp:148] Top shape: 24 512 14 14 (2408448)
I0403 16:54:41.456282 21569 net.cpp:156] Memory required for data: 944714784
I0403 16:54:41.456296 21569 layer_factory.hpp:77] Creating layer loss1/ave_pool
I0403 16:54:41.456312 21569 net.cpp:91] Creating Layer loss1/ave_pool
I0403 16:54:41.456327 21569 net.cpp:425] loss1/ave_pool <- inception_4a/output_inception_4a/output_0_split_0
I0403 16:54:41.456346 21569 net.cpp:399] loss1/ave_pool -> loss1/ave_pool
I0403 16:54:41.456548 21569 net.cpp:141] Setting up loss1/ave_pool
I0403 16:54:41.456575 21569 net.cpp:148] Top shape: 24 512 4 4 (196608)
I0403 16:54:41.456590 21569 net.cpp:156] Memory required for data: 945501216
I0403 16:54:41.456605 21569 layer_factory.hpp:77] Creating layer loss1/conv
I0403 16:54:41.456624 21569 net.cpp:91] Creating Layer loss1/conv
I0403 16:54:41.456640 21569 net.cpp:425] loss1/conv <- loss1/ave_pool
I0403 16:54:41.456661 21569 net.cpp:399] loss1/conv -> loss1/conv
I0403 16:54:41.458148 21569 net.cpp:141] Setting up loss1/conv
I0403 16:54:41.458181 21569 net.cpp:148] Top shape: 24 128 4 4 (49152)
I0403 16:54:41.458214 21569 net.cpp:156] Memory required for data: 945697824
I0403 16:54:41.458233 21569 layer_factory.hpp:77] Creating layer loss1/relu_conv
I0403 16:54:41.458252 21569 net.cpp:91] Creating Layer loss1/relu_conv
I0403 16:54:41.458268 21569 net.cpp:425] loss1/relu_conv <- loss1/conv
I0403 16:54:41.458289 21569 net.cpp:386] loss1/relu_conv -> loss1/conv (in-place)
I0403 16:54:41.458580 21569 net.cpp:141] Setting up loss1/relu_conv
I0403 16:54:41.458611 21569 net.cpp:148] Top shape: 24 128 4 4 (49152)
I0403 16:54:41.458627 21569 net.cpp:156] Memory required for data: 945894432
I0403 16:54:41.458643 21569 layer_factory.hpp:77] Creating layer loss1/fc
I0403 16:54:41.458667 21569 net.cpp:91] Creating Layer loss1/fc
I0403 16:54:41.458686 21569 net.cpp:425] loss1/fc <- loss1/conv
I0403 16:54:41.458709 21569 net.cpp:399] loss1/fc -> loss1/fc
I0403 16:54:41.476922 21569 net.cpp:141] Setting up loss1/fc
I0403 16:54:41.476986 21569 net.cpp:148] Top shape: 24 1024 (24576)
I0403 16:54:41.477002 21569 net.cpp:156] Memory required for data: 945992736
I0403 16:54:41.477025 21569 layer_factory.hpp:77] Creating layer loss1/relu_fc
I0403 16:54:41.477049 21569 net.cpp:91] Creating Layer loss1/relu_fc
I0403 16:54:41.477067 21569 net.cpp:425] loss1/relu_fc <- loss1/fc
I0403 16:54:41.477087 21569 net.cpp:386] loss1/relu_fc -> loss1/fc (in-place)
I0403 16:54:41.477293 21569 net.cpp:141] Setting up loss1/relu_fc
I0403 16:54:41.477319 21569 net.cpp:148] Top shape: 24 1024 (24576)
I0403 16:54:41.477334 21569 net.cpp:156] Memory required for data: 946091040
I0403 16:54:41.477347 21569 layer_factory.hpp:77] Creating layer loss1/drop_fc
I0403 16:54:41.477376 21569 net.cpp:91] Creating Layer loss1/drop_fc
I0403 16:54:41.477394 21569 net.cpp:425] loss1/drop_fc <- loss1/fc
I0403 16:54:41.477414 21569 net.cpp:386] loss1/drop_fc -> loss1/fc (in-place)
I0403 16:54:41.477468 21569 net.cpp:141] Setting up loss1/drop_fc
I0403 16:54:41.477491 21569 net.cpp:148] Top shape: 24 1024 (24576)
I0403 16:54:41.477505 21569 net.cpp:156] Memory required for data: 946189344
I0403 16:54:41.477520 21569 layer_factory.hpp:77] Creating layer loss1/classifier_plantvillage
I0403 16:54:41.477545 21569 net.cpp:91] Creating Layer loss1/classifier_plantvillage
I0403 16:54:41.477560 21569 net.cpp:425] loss1/classifier_plantvillage <- loss1/fc
I0403 16:54:41.477578 21569 net.cpp:399] loss1/classifier_plantvillage -> loss1/classifier_plantvillage
I0403 16:54:41.478520 21569 net.cpp:141] Setting up loss1/classifier_plantvillage
I0403 16:54:41.478551 21569 net.cpp:148] Top shape: 24 38 (912)
I0403 16:54:41.478567 21569 net.cpp:156] Memory required for data: 946192992
I0403 16:54:41.478585 21569 layer_factory.hpp:77] Creating layer loss1/classifier_plantvillage_loss1/classifier_plantvillage_0_split
I0403 16:54:41.478603 21569 net.cpp:91] Creating Layer loss1/classifier_plantvillage_loss1/classifier_plantvillage_0_split
I0403 16:54:41.478618 21569 net.cpp:425] loss1/classifier_plantvillage_loss1/classifier_plantvillage_0_split <- loss1/classifier_plantvillage
I0403 16:54:41.478638 21569 net.cpp:399] loss1/classifier_plantvillage_loss1/classifier_plantvillage_0_split -> loss1/classifier_plantvillage_loss1/classifier_plantvillage_0_split_0
I0403 16:54:41.478659 21569 net.cpp:399] loss1/classifier_plantvillage_loss1/classifier_plantvillage_0_split -> loss1/classifier_plantvillage_loss1/classifier_plantvillage_0_split_1
I0403 16:54:41.478678 21569 net.cpp:399] loss1/classifier_plantvillage_loss1/classifier_plantvillage_0_split -> loss1/classifier_plantvillage_loss1/classifier_plantvillage_0_split_2
I0403 16:54:41.478744 21569 net.cpp:141] Setting up loss1/classifier_plantvillage_loss1/classifier_plantvillage_0_split
I0403 16:54:41.478766 21569 net.cpp:148] Top shape: 24 38 (912)
I0403 16:54:41.478782 21569 net.cpp:148] Top shape: 24 38 (912)
I0403 16:54:41.478797 21569 net.cpp:148] Top shape: 24 38 (912)
I0403 16:54:41.478811 21569 net.cpp:156] Memory required for data: 946203936
I0403 16:54:41.478824 21569 layer_factory.hpp:77] Creating layer inception_4b/1x1
I0403 16:54:41.478847 21569 net.cpp:91] Creating Layer inception_4b/1x1
I0403 16:54:41.478881 21569 net.cpp:425] inception_4b/1x1 <- inception_4a/output_inception_4a/output_0_split_1
I0403 16:54:41.478902 21569 net.cpp:399] inception_4b/1x1 -> inception_4b/1x1
I0403 16:54:41.480571 21569 net.cpp:141] Setting up inception_4b/1x1
I0403 16:54:41.480599 21569 net.cpp:148] Top shape: 24 160 14 14 (752640)
I0403 16:54:41.480615 21569 net.cpp:156] Memory required for data: 949214496
I0403 16:54:41.480633 21569 layer_factory.hpp:77] Creating layer inception_4b/relu_1x1
I0403 16:54:41.480651 21569 net.cpp:91] Creating Layer inception_4b/relu_1x1
I0403 16:54:41.480669 21569 net.cpp:425] inception_4b/relu_1x1 <- inception_4b/1x1
I0403 16:54:41.480689 21569 net.cpp:386] inception_4b/relu_1x1 -> inception_4b/1x1 (in-place)
I0403 16:54:41.480870 21569 net.cpp:141] Setting up inception_4b/relu_1x1
I0403 16:54:41.480895 21569 net.cpp:148] Top shape: 24 160 14 14 (752640)
I0403 16:54:41.480911 21569 net.cpp:156] Memory required for data: 952225056
I0403 16:54:41.480924 21569 layer_factory.hpp:77] Creating layer inception_4b/3x3_reduce
I0403 16:54:41.480948 21569 net.cpp:91] Creating Layer inception_4b/3x3_reduce
I0403 16:54:41.480967 21569 net.cpp:425] inception_4b/3x3_reduce <- inception_4a/output_inception_4a/output_0_split_2
I0403 16:54:41.480988 21569 net.cpp:399] inception_4b/3x3_reduce -> inception_4b/3x3_reduce
I0403 16:54:41.482342 21569 net.cpp:141] Setting up inception_4b/3x3_reduce
I0403 16:54:41.482369 21569 net.cpp:148] Top shape: 24 112 14 14 (526848)
I0403 16:54:41.482385 21569 net.cpp:156] Memory required for data: 954332448
I0403 16:54:41.482403 21569 layer_factory.hpp:77] Creating layer inception_4b/relu_3x3_reduce
I0403 16:54:41.482422 21569 net.cpp:91] Creating Layer inception_4b/relu_3x3_reduce
I0403 16:54:41.482439 21569 net.cpp:425] inception_4b/relu_3x3_reduce <- inception_4b/3x3_reduce
I0403 16:54:41.482456 21569 net.cpp:386] inception_4b/relu_3x3_reduce -> inception_4b/3x3_reduce (in-place)
I0403 16:54:41.482738 21569 net.cpp:141] Setting up inception_4b/relu_3x3_reduce
I0403 16:54:41.482764 21569 net.cpp:148] Top shape: 24 112 14 14 (526848)
I0403 16:54:41.482779 21569 net.cpp:156] Memory required for data: 956439840
I0403 16:54:41.482794 21569 layer_factory.hpp:77] Creating layer inception_4b/3x3
I0403 16:54:41.482817 21569 net.cpp:91] Creating Layer inception_4b/3x3
I0403 16:54:41.482834 21569 net.cpp:425] inception_4b/3x3 <- inception_4b/3x3_reduce
I0403 16:54:41.482856 21569 net.cpp:399] inception_4b/3x3 -> inception_4b/3x3
I0403 16:54:41.485846 21569 net.cpp:141] Setting up inception_4b/3x3
I0403 16:54:41.485875 21569 net.cpp:148] Top shape: 24 224 14 14 (1053696)
I0403 16:54:41.485891 21569 net.cpp:156] Memory required for data: 960654624
I0403 16:54:41.485913 21569 layer_factory.hpp:77] Creating layer inception_4b/relu_3x3
I0403 16:54:41.485932 21569 net.cpp:91] Creating Layer inception_4b/relu_3x3
I0403 16:54:41.485949 21569 net.cpp:425] inception_4b/relu_3x3 <- inception_4b/3x3
I0403 16:54:41.485966 21569 net.cpp:386] inception_4b/relu_3x3 -> inception_4b/3x3 (in-place)
I0403 16:54:41.486153 21569 net.cpp:141] Setting up inception_4b/relu_3x3
I0403 16:54:41.486179 21569 net.cpp:148] Top shape: 24 224 14 14 (1053696)
I0403 16:54:41.486196 21569 net.cpp:156] Memory required for data: 964869408
I0403 16:54:41.486212 21569 layer_factory.hpp:77] Creating layer inception_4b/5x5_reduce
I0403 16:54:41.486233 21569 net.cpp:91] Creating Layer inception_4b/5x5_reduce
I0403 16:54:41.486250 21569 net.cpp:425] inception_4b/5x5_reduce <- inception_4a/output_inception_4a/output_0_split_3
I0403 16:54:41.486273 21569 net.cpp:399] inception_4b/5x5_reduce -> inception_4b/5x5_reduce
I0403 16:54:41.487352 21569 net.cpp:141] Setting up inception_4b/5x5_reduce
I0403 16:54:41.487380 21569 net.cpp:148] Top shape: 24 24 14 14 (112896)
I0403 16:54:41.487395 21569 net.cpp:156] Memory required for data: 965320992
I0403 16:54:41.487412 21569 layer_factory.hpp:77] Creating layer inception_4b/relu_5x5_reduce
I0403 16:54:41.487431 21569 net.cpp:91] Creating Layer inception_4b/relu_5x5_reduce
I0403 16:54:41.487460 21569 net.cpp:425] inception_4b/relu_5x5_reduce <- inception_4b/5x5_reduce
I0403 16:54:41.487481 21569 net.cpp:386] inception_4b/relu_5x5_reduce -> inception_4b/5x5_reduce (in-place)
I0403 16:54:41.487666 21569 net.cpp:141] Setting up inception_4b/relu_5x5_reduce
I0403 16:54:41.487690 21569 net.cpp:148] Top shape: 24 24 14 14 (112896)
I0403 16:54:41.487705 21569 net.cpp:156] Memory required for data: 965772576
I0403 16:54:41.487720 21569 layer_factory.hpp:77] Creating layer inception_4b/5x5
I0403 16:54:41.487741 21569 net.cpp:91] Creating Layer inception_4b/5x5
I0403 16:54:41.487758 21569 net.cpp:425] inception_4b/5x5 <- inception_4b/5x5_reduce
I0403 16:54:41.487778 21569 net.cpp:399] inception_4b/5x5 -> inception_4b/5x5
I0403 16:54:41.489006 21569 net.cpp:141] Setting up inception_4b/5x5
I0403 16:54:41.489039 21569 net.cpp:148] Top shape: 24 64 14 14 (301056)
I0403 16:54:41.489056 21569 net.cpp:156] Memory required for data: 966976800
I0403 16:54:41.489075 21569 layer_factory.hpp:77] Creating layer inception_4b/relu_5x5
I0403 16:54:41.489092 21569 net.cpp:91] Creating Layer inception_4b/relu_5x5
I0403 16:54:41.489107 21569 net.cpp:425] inception_4b/relu_5x5 <- inception_4b/5x5
I0403 16:54:41.489126 21569 net.cpp:386] inception_4b/relu_5x5 -> inception_4b/5x5 (in-place)
I0403 16:54:41.489411 21569 net.cpp:141] Setting up inception_4b/relu_5x5
I0403 16:54:41.489439 21569 net.cpp:148] Top shape: 24 64 14 14 (301056)
I0403 16:54:41.489455 21569 net.cpp:156] Memory required for data: 968181024
I0403 16:54:41.489470 21569 layer_factory.hpp:77] Creating layer inception_4b/pool
I0403 16:54:41.489487 21569 net.cpp:91] Creating Layer inception_4b/pool
I0403 16:54:41.489502 21569 net.cpp:425] inception_4b/pool <- inception_4a/output_inception_4a/output_0_split_4
I0403 16:54:41.489522 21569 net.cpp:399] inception_4b/pool -> inception_4b/pool
I0403 16:54:41.489585 21569 net.cpp:141] Setting up inception_4b/pool
I0403 16:54:41.489610 21569 net.cpp:148] Top shape: 24 512 14 14 (2408448)
I0403 16:54:41.489625 21569 net.cpp:156] Memory required for data: 977814816
I0403 16:54:41.489639 21569 layer_factory.hpp:77] Creating layer inception_4b/pool_proj
I0403 16:54:41.489660 21569 net.cpp:91] Creating Layer inception_4b/pool_proj
I0403 16:54:41.489677 21569 net.cpp:425] inception_4b/pool_proj <- inception_4b/pool
I0403 16:54:41.489696 21569 net.cpp:399] inception_4b/pool_proj -> inception_4b/pool_proj
I0403 16:54:41.490900 21569 net.cpp:141] Setting up inception_4b/pool_proj
I0403 16:54:41.490929 21569 net.cpp:148] Top shape: 24 64 14 14 (301056)
I0403 16:54:41.490947 21569 net.cpp:156] Memory required for data: 979019040
I0403 16:54:41.490965 21569 layer_factory.hpp:77] Creating layer inception_4b/relu_pool_proj
I0403 16:54:41.490986 21569 net.cpp:91] Creating Layer inception_4b/relu_pool_proj
I0403 16:54:41.491004 21569 net.cpp:425] inception_4b/relu_pool_proj <- inception_4b/pool_proj
I0403 16:54:41.491026 21569 net.cpp:386] inception_4b/relu_pool_proj -> inception_4b/pool_proj (in-place)
I0403 16:54:41.491209 21569 net.cpp:141] Setting up inception_4b/relu_pool_proj
I0403 16:54:41.491235 21569 net.cpp:148] Top shape: 24 64 14 14 (301056)
I0403 16:54:41.491250 21569 net.cpp:156] Memory required for data: 980223264
I0403 16:54:41.491264 21569 layer_factory.hpp:77] Creating layer inception_4b/output
I0403 16:54:41.491283 21569 net.cpp:91] Creating Layer inception_4b/output
I0403 16:54:41.491302 21569 net.cpp:425] inception_4b/output <- inception_4b/1x1
I0403 16:54:41.491319 21569 net.cpp:425] inception_4b/output <- inception_4b/3x3
I0403 16:54:41.491335 21569 net.cpp:425] inception_4b/output <- inception_4b/5x5
I0403 16:54:41.491351 21569 net.cpp:425] inception_4b/output <- inception_4b/pool_proj
I0403 16:54:41.491369 21569 net.cpp:399] inception_4b/output -> inception_4b/output
I0403 16:54:41.491415 21569 net.cpp:141] Setting up inception_4b/output
I0403 16:54:41.491437 21569 net.cpp:148] Top shape: 24 512 14 14 (2408448)
I0403 16:54:41.491451 21569 net.cpp:156] Memory required for data: 989857056
I0403 16:54:41.491478 21569 layer_factory.hpp:77] Creating layer inception_4b/output_inception_4b/output_0_split
I0403 16:54:41.491497 21569 net.cpp:91] Creating Layer inception_4b/output_inception_4b/output_0_split
I0403 16:54:41.491511 21569 net.cpp:425] inception_4b/output_inception_4b/output_0_split <- inception_4b/output
I0403 16:54:41.491544 21569 net.cpp:399] inception_4b/output_inception_4b/output_0_split -> inception_4b/output_inception_4b/output_0_split_0
I0403 16:54:41.491564 21569 net.cpp:399] inception_4b/output_inception_4b/output_0_split -> inception_4b/output_inception_4b/output_0_split_1
I0403 16:54:41.491583 21569 net.cpp:399] inception_4b/output_inception_4b/output_0_split -> inception_4b/output_inception_4b/output_0_split_2
I0403 16:54:41.491603 21569 net.cpp:399] inception_4b/output_inception_4b/output_0_split -> inception_4b/output_inception_4b/output_0_split_3
I0403 16:54:41.491688 21569 net.cpp:141] Setting up inception_4b/output_inception_4b/output_0_split
I0403 16:54:41.491714 21569 net.cpp:148] Top shape: 24 512 14 14 (2408448)
I0403 16:54:41.491730 21569 net.cpp:148] Top shape: 24 512 14 14 (2408448)
I0403 16:54:41.491746 21569 net.cpp:148] Top shape: 24 512 14 14 (2408448)
I0403 16:54:41.491761 21569 net.cpp:148] Top shape: 24 512 14 14 (2408448)
I0403 16:54:41.491775 21569 net.cpp:156] Memory required for data: 1028392224
I0403 16:54:41.491789 21569 layer_factory.hpp:77] Creating layer inception_4c/1x1
I0403 16:54:41.491811 21569 net.cpp:91] Creating Layer inception_4c/1x1
I0403 16:54:41.491840 21569 net.cpp:425] inception_4c/1x1 <- inception_4b/output_inception_4b/output_0_split_0
I0403 16:54:41.491858 21569 net.cpp:399] inception_4c/1x1 -> inception_4c/1x1
I0403 16:54:41.493300 21569 net.cpp:141] Setting up inception_4c/1x1
I0403 16:54:41.493329 21569 net.cpp:148] Top shape: 24 128 14 14 (602112)
I0403 16:54:41.493343 21569 net.cpp:156] Memory required for data: 1030800672
I0403 16:54:41.493361 21569 layer_factory.hpp:77] Creating layer inception_4c/relu_1x1
I0403 16:54:41.493381 21569 net.cpp:91] Creating Layer inception_4c/relu_1x1
I0403 16:54:41.493398 21569 net.cpp:425] inception_4c/relu_1x1 <- inception_4c/1x1
I0403 16:54:41.493415 21569 net.cpp:386] inception_4c/relu_1x1 -> inception_4c/1x1 (in-place)
I0403 16:54:41.493594 21569 net.cpp:141] Setting up inception_4c/relu_1x1
I0403 16:54:41.493621 21569 net.cpp:148] Top shape: 24 128 14 14 (602112)
I0403 16:54:41.493636 21569 net.cpp:156] Memory required for data: 1033209120
I0403 16:54:41.493650 21569 layer_factory.hpp:77] Creating layer inception_4c/3x3_reduce
I0403 16:54:41.493674 21569 net.cpp:91] Creating Layer inception_4c/3x3_reduce
I0403 16:54:41.493690 21569 net.cpp:425] inception_4c/3x3_reduce <- inception_4b/output_inception_4b/output_0_split_1
I0403 16:54:41.493718 21569 net.cpp:399] inception_4c/3x3_reduce -> inception_4c/3x3_reduce
I0403 16:54:41.495645 21569 net.cpp:141] Setting up inception_4c/3x3_reduce
I0403 16:54:41.495676 21569 net.cpp:148] Top shape: 24 128 14 14 (602112)
I0403 16:54:41.495692 21569 net.cpp:156] Memory required for data: 1035617568
I0403 16:54:41.495709 21569 layer_factory.hpp:77] Creating layer inception_4c/relu_3x3_reduce
I0403 16:54:41.495728 21569 net.cpp:91] Creating Layer inception_4c/relu_3x3_reduce
I0403 16:54:41.495744 21569 net.cpp:425] inception_4c/relu_3x3_reduce <- inception_4c/3x3_reduce
I0403 16:54:41.495764 21569 net.cpp:386] inception_4c/relu_3x3_reduce -> inception_4c/3x3_reduce (in-place)
I0403 16:54:41.496062 21569 net.cpp:141] Setting up inception_4c/relu_3x3_reduce
I0403 16:54:41.496089 21569 net.cpp:148] Top shape: 24 128 14 14 (602112)
I0403 16:54:41.496105 21569 net.cpp:156] Memory required for data: 1038026016
I0403 16:54:41.496120 21569 layer_factory.hpp:77] Creating layer inception_4c/3x3
I0403 16:54:41.496143 21569 net.cpp:91] Creating Layer inception_4c/3x3
I0403 16:54:41.496160 21569 net.cpp:425] inception_4c/3x3 <- inception_4c/3x3_reduce
I0403 16:54:41.496181 21569 net.cpp:399] inception_4c/3x3 -> inception_4c/3x3
I0403 16:54:41.499788 21569 net.cpp:141] Setting up inception_4c/3x3
I0403 16:54:41.499830 21569 net.cpp:148] Top shape: 24 256 14 14 (1204224)
I0403 16:54:41.499847 21569 net.cpp:156] Memory required for data: 1042842912
I0403 16:54:41.499879 21569 layer_factory.hpp:77] Creating layer inception_4c/relu_3x3
I0403 16:54:41.499902 21569 net.cpp:91] Creating Layer inception_4c/relu_3x3
I0403 16:54:41.499920 21569 net.cpp:425] inception_4c/relu_3x3 <- inception_4c/3x3
I0403 16:54:41.499938 21569 net.cpp:386] inception_4c/relu_3x3 -> inception_4c/3x3 (in-place)
I0403 16:54:41.500125 21569 net.cpp:141] Setting up inception_4c/relu_3x3
I0403 16:54:41.500152 21569 net.cpp:148] Top shape: 24 256 14 14 (1204224)
I0403 16:54:41.500166 21569 net.cpp:156] Memory required for data: 1047659808
I0403 16:54:41.500181 21569 layer_factory.hpp:77] Creating layer inception_4c/5x5_reduce
I0403 16:54:41.500205 21569 net.cpp:91] Creating Layer inception_4c/5x5_reduce
I0403 16:54:41.500221 21569 net.cpp:425] inception_4c/5x5_reduce <- inception_4b/output_inception_4b/output_0_split_2
I0403 16:54:41.500241 21569 net.cpp:399] inception_4c/5x5_reduce -> inception_4c/5x5_reduce
I0403 16:54:41.501327 21569 net.cpp:141] Setting up inception_4c/5x5_reduce
I0403 16:54:41.501356 21569 net.cpp:148] Top shape: 24 24 14 14 (112896)
I0403 16:54:41.501374 21569 net.cpp:156] Memory required for data: 1048111392
I0403 16:54:41.501392 21569 layer_factory.hpp:77] Creating layer inception_4c/relu_5x5_reduce
I0403 16:54:41.501410 21569 net.cpp:91] Creating Layer inception_4c/relu_5x5_reduce
I0403 16:54:41.501427 21569 net.cpp:425] inception_4c/relu_5x5_reduce <- inception_4c/5x5_reduce
I0403 16:54:41.501447 21569 net.cpp:386] inception_4c/relu_5x5_reduce -> inception_4c/5x5_reduce (in-place)
I0403 16:54:41.501642 21569 net.cpp:141] Setting up inception_4c/relu_5x5_reduce
I0403 16:54:41.501665 21569 net.cpp:148] Top shape: 24 24 14 14 (112896)
I0403 16:54:41.501679 21569 net.cpp:156] Memory required for data: 1048562976
I0403 16:54:41.501693 21569 layer_factory.hpp:77] Creating layer inception_4c/5x5
I0403 16:54:41.501713 21569 net.cpp:91] Creating Layer inception_4c/5x5
I0403 16:54:41.501729 21569 net.cpp:425] inception_4c/5x5 <- inception_4c/5x5_reduce
I0403 16:54:41.501751 21569 net.cpp:399] inception_4c/5x5 -> inception_4c/5x5
I0403 16:54:41.502956 21569 net.cpp:141] Setting up inception_4c/5x5
I0403 16:54:41.502984 21569 net.cpp:148] Top shape: 24 64 14 14 (301056)
I0403 16:54:41.502997 21569 net.cpp:156] Memory required for data: 1049767200
I0403 16:54:41.503015 21569 layer_factory.hpp:77] Creating layer inception_4c/relu_5x5
I0403 16:54:41.503039 21569 net.cpp:91] Creating Layer inception_4c/relu_5x5
I0403 16:54:41.503057 21569 net.cpp:425] inception_4c/relu_5x5 <- inception_4c/5x5
I0403 16:54:41.503073 21569 net.cpp:386] inception_4c/relu_5x5 -> inception_4c/5x5 (in-place)
I0403 16:54:41.503353 21569 net.cpp:141] Setting up inception_4c/relu_5x5
I0403 16:54:41.503378 21569 net.cpp:148] Top shape: 24 64 14 14 (301056)
I0403 16:54:41.503392 21569 net.cpp:156] Memory required for data: 1050971424
I0403 16:54:41.503407 21569 layer_factory.hpp:77] Creating layer inception_4c/pool
I0403 16:54:41.503425 21569 net.cpp:91] Creating Layer inception_4c/pool
I0403 16:54:41.503442 21569 net.cpp:425] inception_4c/pool <- inception_4b/output_inception_4b/output_0_split_3
I0403 16:54:41.503458 21569 net.cpp:399] inception_4c/pool -> inception_4c/pool
I0403 16:54:41.503522 21569 net.cpp:141] Setting up inception_4c/pool
I0403 16:54:41.503545 21569 net.cpp:148] Top shape: 24 512 14 14 (2408448)
I0403 16:54:41.503559 21569 net.cpp:156] Memory required for data: 1060605216
I0403 16:54:41.503573 21569 layer_factory.hpp:77] Creating layer inception_4c/pool_proj
I0403 16:54:41.503593 21569 net.cpp:91] Creating Layer inception_4c/pool_proj
I0403 16:54:41.503609 21569 net.cpp:425] inception_4c/pool_proj <- inception_4c/pool
I0403 16:54:41.503629 21569 net.cpp:399] inception_4c/pool_proj -> inception_4c/pool_proj
I0403 16:54:41.504822 21569 net.cpp:141] Setting up inception_4c/pool_proj
I0403 16:54:41.504849 21569 net.cpp:148] Top shape: 24 64 14 14 (301056)
I0403 16:54:41.504878 21569 net.cpp:156] Memory required for data: 1061809440
I0403 16:54:41.504897 21569 layer_factory.hpp:77] Creating layer inception_4c/relu_pool_proj
I0403 16:54:41.504917 21569 net.cpp:91] Creating Layer inception_4c/relu_pool_proj
I0403 16:54:41.504932 21569 net.cpp:425] inception_4c/relu_pool_proj <- inception_4c/pool_proj
I0403 16:54:41.504948 21569 net.cpp:386] inception_4c/relu_pool_proj -> inception_4c/pool_proj (in-place)
I0403 16:54:41.505131 21569 net.cpp:141] Setting up inception_4c/relu_pool_proj
I0403 16:54:41.505154 21569 net.cpp:148] Top shape: 24 64 14 14 (301056)
I0403 16:54:41.505168 21569 net.cpp:156] Memory required for data: 1063013664
I0403 16:54:41.505182 21569 layer_factory.hpp:77] Creating layer inception_4c/output
I0403 16:54:41.505200 21569 net.cpp:91] Creating Layer inception_4c/output
I0403 16:54:41.505215 21569 net.cpp:425] inception_4c/output <- inception_4c/1x1
I0403 16:54:41.505230 21569 net.cpp:425] inception_4c/output <- inception_4c/3x3
I0403 16:54:41.505245 21569 net.cpp:425] inception_4c/output <- inception_4c/5x5
I0403 16:54:41.505260 21569 net.cpp:425] inception_4c/output <- inception_4c/pool_proj
I0403 16:54:41.505275 21569 net.cpp:399] inception_4c/output -> inception_4c/output
I0403 16:54:41.505321 21569 net.cpp:141] Setting up inception_4c/output
I0403 16:54:41.505343 21569 net.cpp:148] Top shape: 24 512 14 14 (2408448)
I0403 16:54:41.505357 21569 net.cpp:156] Memory required for data: 1072647456
I0403 16:54:41.505370 21569 layer_factory.hpp:77] Creating layer inception_4c/output_inception_4c/output_0_split
I0403 16:54:41.505386 21569 net.cpp:91] Creating Layer inception_4c/output_inception_4c/output_0_split
I0403 16:54:41.505400 21569 net.cpp:425] inception_4c/output_inception_4c/output_0_split <- inception_4c/output
I0403 16:54:41.505419 21569 net.cpp:399] inception_4c/output_inception_4c/output_0_split -> inception_4c/output_inception_4c/output_0_split_0
I0403 16:54:41.505439 21569 net.cpp:399] inception_4c/output_inception_4c/output_0_split -> inception_4c/output_inception_4c/output_0_split_1
I0403 16:54:41.505457 21569 net.cpp:399] inception_4c/output_inception_4c/output_0_split -> inception_4c/output_inception_4c/output_0_split_2
I0403 16:54:41.505475 21569 net.cpp:399] inception_4c/output_inception_4c/output_0_split -> inception_4c/output_inception_4c/output_0_split_3
I0403 16:54:41.505558 21569 net.cpp:141] Setting up inception_4c/output_inception_4c/output_0_split
I0403 16:54:41.505583 21569 net.cpp:148] Top shape: 24 512 14 14 (2408448)
I0403 16:54:41.505599 21569 net.cpp:148] Top shape: 24 512 14 14 (2408448)
I0403 16:54:41.505612 21569 net.cpp:148] Top shape: 24 512 14 14 (2408448)
I0403 16:54:41.505626 21569 net.cpp:148] Top shape: 24 512 14 14 (2408448)
I0403 16:54:41.505640 21569 net.cpp:156] Memory required for data: 1111182624
I0403 16:54:41.505652 21569 layer_factory.hpp:77] Creating layer inception_4d/1x1
I0403 16:54:41.505672 21569 net.cpp:91] Creating Layer inception_4d/1x1
I0403 16:54:41.505688 21569 net.cpp:425] inception_4d/1x1 <- inception_4c/output_inception_4c/output_0_split_0
I0403 16:54:41.505705 21569 net.cpp:399] inception_4d/1x1 -> inception_4d/1x1
I0403 16:54:41.507062 21569 net.cpp:141] Setting up inception_4d/1x1
I0403 16:54:41.507092 21569 net.cpp:148] Top shape: 24 112 14 14 (526848)
I0403 16:54:41.507110 21569 net.cpp:156] Memory required for data: 1113290016
I0403 16:54:41.507129 21569 layer_factory.hpp:77] Creating layer inception_4d/relu_1x1
I0403 16:54:41.507148 21569 net.cpp:91] Creating Layer inception_4d/relu_1x1
I0403 16:54:41.507165 21569 net.cpp:425] inception_4d/relu_1x1 <- inception_4d/1x1
I0403 16:54:41.507184 21569 net.cpp:386] inception_4d/relu_1x1 -> inception_4d/1x1 (in-place)
I0403 16:54:41.507364 21569 net.cpp:141] Setting up inception_4d/relu_1x1
I0403 16:54:41.507387 21569 net.cpp:148] Top shape: 24 112 14 14 (526848)
I0403 16:54:41.507400 21569 net.cpp:156] Memory required for data: 1115397408
I0403 16:54:41.507414 21569 layer_factory.hpp:77] Creating layer inception_4d/3x3_reduce
I0403 16:54:41.507448 21569 net.cpp:91] Creating Layer inception_4d/3x3_reduce
I0403 16:54:41.507467 21569 net.cpp:425] inception_4d/3x3_reduce <- inception_4c/output_inception_4c/output_0_split_1
I0403 16:54:41.507486 21569 net.cpp:399] inception_4d/3x3_reduce -> inception_4d/3x3_reduce
I0403 16:54:41.509027 21569 net.cpp:141] Setting up inception_4d/3x3_reduce
I0403 16:54:41.509053 21569 net.cpp:148] Top shape: 24 144 14 14 (677376)
I0403 16:54:41.509069 21569 net.cpp:156] Memory required for data: 1118106912
I0403 16:54:41.509088 21569 layer_factory.hpp:77] Creating layer inception_4d/relu_3x3_reduce
I0403 16:54:41.509109 21569 net.cpp:91] Creating Layer inception_4d/relu_3x3_reduce
I0403 16:54:41.509129 21569 net.cpp:425] inception_4d/relu_3x3_reduce <- inception_4d/3x3_reduce
I0403 16:54:41.509145 21569 net.cpp:386] inception_4d/relu_3x3_reduce -> inception_4d/3x3_reduce (in-place)
I0403 16:54:41.509482 21569 net.cpp:141] Setting up inception_4d/relu_3x3_reduce
I0403 16:54:41.509510 21569 net.cpp:148] Top shape: 24 144 14 14 (677376)
I0403 16:54:41.509526 21569 net.cpp:156] Memory required for data: 1120816416
I0403 16:54:41.509541 21569 layer_factory.hpp:77] Creating layer inception_4d/3x3
I0403 16:54:41.509565 21569 net.cpp:91] Creating Layer inception_4d/3x3
I0403 16:54:41.509584 21569 net.cpp:425] inception_4d/3x3 <- inception_4d/3x3_reduce
I0403 16:54:41.509606 21569 net.cpp:399] inception_4d/3x3 -> inception_4d/3x3
I0403 16:54:41.513900 21569 net.cpp:141] Setting up inception_4d/3x3
I0403 16:54:41.513929 21569 net.cpp:148] Top shape: 24 288 14 14 (1354752)
I0403 16:54:41.513947 21569 net.cpp:156] Memory required for data: 1126235424
I0403 16:54:41.513965 21569 layer_factory.hpp:77] Creating layer inception_4d/relu_3x3
I0403 16:54:41.513984 21569 net.cpp:91] Creating Layer inception_4d/relu_3x3
I0403 16:54:41.514000 21569 net.cpp:425] inception_4d/relu_3x3 <- inception_4d/3x3
I0403 16:54:41.514024 21569 net.cpp:386] inception_4d/relu_3x3 -> inception_4d/3x3 (in-place)
I0403 16:54:41.514221 21569 net.cpp:141] Setting up inception_4d/relu_3x3
I0403 16:54:41.514248 21569 net.cpp:148] Top shape: 24 288 14 14 (1354752)
I0403 16:54:41.514264 21569 net.cpp:156] Memory required for data: 1131654432
I0403 16:54:41.514279 21569 layer_factory.hpp:77] Creating layer inception_4d/5x5_reduce
I0403 16:54:41.514302 21569 net.cpp:91] Creating Layer inception_4d/5x5_reduce
I0403 16:54:41.514320 21569 net.cpp:425] inception_4d/5x5_reduce <- inception_4c/output_inception_4c/output_0_split_2
I0403 16:54:41.514344 21569 net.cpp:399] inception_4d/5x5_reduce -> inception_4d/5x5_reduce
I0403 16:54:41.515507 21569 net.cpp:141] Setting up inception_4d/5x5_reduce
I0403 16:54:41.515537 21569 net.cpp:148] Top shape: 24 32 14 14 (150528)
I0403 16:54:41.515554 21569 net.cpp:156] Memory required for data: 1132256544
I0403 16:54:41.515573 21569 layer_factory.hpp:77] Creating layer inception_4d/relu_5x5_reduce
I0403 16:54:41.515591 21569 net.cpp:91] Creating Layer inception_4d/relu_5x5_reduce
I0403 16:54:41.515607 21569 net.cpp:425] inception_4d/relu_5x5_reduce <- inception_4d/5x5_reduce
I0403 16:54:41.515627 21569 net.cpp:386] inception_4d/relu_5x5_reduce -> inception_4d/5x5_reduce (in-place)
I0403 16:54:41.515810 21569 net.cpp:141] Setting up inception_4d/relu_5x5_reduce
I0403 16:54:41.515836 21569 net.cpp:148] Top shape: 24 32 14 14 (150528)
I0403 16:54:41.515851 21569 net.cpp:156] Memory required for data: 1132858656
I0403 16:54:41.515866 21569 layer_factory.hpp:77] Creating layer inception_4d/5x5
I0403 16:54:41.515887 21569 net.cpp:91] Creating Layer inception_4d/5x5
I0403 16:54:41.515904 21569 net.cpp:425] inception_4d/5x5 <- inception_4d/5x5_reduce
I0403 16:54:41.515924 21569 net.cpp:399] inception_4d/5x5 -> inception_4d/5x5
I0403 16:54:41.517398 21569 net.cpp:141] Setting up inception_4d/5x5
I0403 16:54:41.517426 21569 net.cpp:148] Top shape: 24 64 14 14 (301056)
I0403 16:54:41.517441 21569 net.cpp:156] Memory required for data: 1134062880
I0403 16:54:41.517462 21569 layer_factory.hpp:77] Creating layer inception_4d/relu_5x5
I0403 16:54:41.517498 21569 net.cpp:91] Creating Layer inception_4d/relu_5x5
I0403 16:54:41.517516 21569 net.cpp:425] inception_4d/relu_5x5 <- inception_4d/5x5
I0403 16:54:41.517532 21569 net.cpp:386] inception_4d/relu_5x5 -> inception_4d/5x5 (in-place)
I0403 16:54:41.517827 21569 net.cpp:141] Setting up inception_4d/relu_5x5
I0403 16:54:41.517854 21569 net.cpp:148] Top shape: 24 64 14 14 (301056)
I0403 16:54:41.517869 21569 net.cpp:156] Memory required for data: 1135267104
I0403 16:54:41.517884 21569 layer_factory.hpp:77] Creating layer inception_4d/pool
I0403 16:54:41.517902 21569 net.cpp:91] Creating Layer inception_4d/pool
I0403 16:54:41.517917 21569 net.cpp:425] inception_4d/pool <- inception_4c/output_inception_4c/output_0_split_3
I0403 16:54:41.517936 21569 net.cpp:399] inception_4d/pool -> inception_4d/pool
I0403 16:54:41.518003 21569 net.cpp:141] Setting up inception_4d/pool
I0403 16:54:41.518036 21569 net.cpp:148] Top shape: 24 512 14 14 (2408448)
I0403 16:54:41.518052 21569 net.cpp:156] Memory required for data: 1144900896
I0403 16:54:41.518066 21569 layer_factory.hpp:77] Creating layer inception_4d/pool_proj
I0403 16:54:41.518087 21569 net.cpp:91] Creating Layer inception_4d/pool_proj
I0403 16:54:41.518103 21569 net.cpp:425] inception_4d/pool_proj <- inception_4d/pool
I0403 16:54:41.518123 21569 net.cpp:399] inception_4d/pool_proj -> inception_4d/pool_proj
I0403 16:54:41.519825 21569 net.cpp:141] Setting up inception_4d/pool_proj
I0403 16:54:41.519856 21569 net.cpp:148] Top shape: 24 64 14 14 (301056)
I0403 16:54:41.519875 21569 net.cpp:156] Memory required for data: 1146105120
I0403 16:54:41.519893 21569 layer_factory.hpp:77] Creating layer inception_4d/relu_pool_proj
I0403 16:54:41.519912 21569 net.cpp:91] Creating Layer inception_4d/relu_pool_proj
I0403 16:54:41.519927 21569 net.cpp:425] inception_4d/relu_pool_proj <- inception_4d/pool_proj
I0403 16:54:41.519948 21569 net.cpp:386] inception_4d/relu_pool_proj -> inception_4d/pool_proj (in-place)
I0403 16:54:41.520138 21569 net.cpp:141] Setting up inception_4d/relu_pool_proj
I0403 16:54:41.520164 21569 net.cpp:148] Top shape: 24 64 14 14 (301056)
I0403 16:54:41.520176 21569 net.cpp:156] Memory required for data: 1147309344
I0403 16:54:41.520190 21569 layer_factory.hpp:77] Creating layer inception_4d/output
I0403 16:54:41.520206 21569 net.cpp:91] Creating Layer inception_4d/output
I0403 16:54:41.520220 21569 net.cpp:425] inception_4d/output <- inception_4d/1x1
I0403 16:54:41.520236 21569 net.cpp:425] inception_4d/output <- inception_4d/3x3
I0403 16:54:41.520251 21569 net.cpp:425] inception_4d/output <- inception_4d/5x5
I0403 16:54:41.520265 21569 net.cpp:425] inception_4d/output <- inception_4d/pool_proj
I0403 16:54:41.520282 21569 net.cpp:399] inception_4d/output -> inception_4d/output
I0403 16:54:41.520328 21569 net.cpp:141] Setting up inception_4d/output
I0403 16:54:41.520354 21569 net.cpp:148] Top shape: 24 528 14 14 (2483712)
I0403 16:54:41.520370 21569 net.cpp:156] Memory required for data: 1157244192
I0403 16:54:41.520383 21569 layer_factory.hpp:77] Creating layer inception_4d/output_inception_4d/output_0_split
I0403 16:54:41.520400 21569 net.cpp:91] Creating Layer inception_4d/output_inception_4d/output_0_split
I0403 16:54:41.520414 21569 net.cpp:425] inception_4d/output_inception_4d/output_0_split <- inception_4d/output
I0403 16:54:41.520434 21569 net.cpp:399] inception_4d/output_inception_4d/output_0_split -> inception_4d/output_inception_4d/output_0_split_0
I0403 16:54:41.520453 21569 net.cpp:399] inception_4d/output_inception_4d/output_0_split -> inception_4d/output_inception_4d/output_0_split_1
I0403 16:54:41.520473 21569 net.cpp:399] inception_4d/output_inception_4d/output_0_split -> inception_4d/output_inception_4d/output_0_split_2
I0403 16:54:41.520493 21569 net.cpp:399] inception_4d/output_inception_4d/output_0_split -> inception_4d/output_inception_4d/output_0_split_3
I0403 16:54:41.520510 21569 net.cpp:399] inception_4d/output_inception_4d/output_0_split -> inception_4d/output_inception_4d/output_0_split_4
I0403 16:54:41.520609 21569 net.cpp:141] Setting up inception_4d/output_inception_4d/output_0_split
I0403 16:54:41.520644 21569 net.cpp:148] Top shape: 24 528 14 14 (2483712)
I0403 16:54:41.520663 21569 net.cpp:148] Top shape: 24 528 14 14 (2483712)
I0403 16:54:41.520678 21569 net.cpp:148] Top shape: 24 528 14 14 (2483712)
I0403 16:54:41.520694 21569 net.cpp:148] Top shape: 24 528 14 14 (2483712)
I0403 16:54:41.520709 21569 net.cpp:148] Top shape: 24 528 14 14 (2483712)
I0403 16:54:41.520721 21569 net.cpp:156] Memory required for data: 1206918432
I0403 16:54:41.520735 21569 layer_factory.hpp:77] Creating layer loss2/ave_pool
I0403 16:54:41.520751 21569 net.cpp:91] Creating Layer loss2/ave_pool
I0403 16:54:41.520766 21569 net.cpp:425] loss2/ave_pool <- inception_4d/output_inception_4d/output_0_split_0
I0403 16:54:41.520787 21569 net.cpp:399] loss2/ave_pool -> loss2/ave_pool
I0403 16:54:41.521098 21569 net.cpp:141] Setting up loss2/ave_pool
I0403 16:54:41.521124 21569 net.cpp:148] Top shape: 24 528 4 4 (202752)
I0403 16:54:41.521138 21569 net.cpp:156] Memory required for data: 1207729440
I0403 16:54:41.521152 21569 layer_factory.hpp:77] Creating layer loss2/conv
I0403 16:54:41.521174 21569 net.cpp:91] Creating Layer loss2/conv
I0403 16:54:41.521191 21569 net.cpp:425] loss2/conv <- loss2/ave_pool
I0403 16:54:41.521212 21569 net.cpp:399] loss2/conv -> loss2/conv
I0403 16:54:41.523066 21569 net.cpp:141] Setting up loss2/conv
I0403 16:54:41.523095 21569 net.cpp:148] Top shape: 24 128 4 4 (49152)
I0403 16:54:41.523111 21569 net.cpp:156] Memory required for data: 1207926048
I0403 16:54:41.523130 21569 layer_factory.hpp:77] Creating layer loss2/relu_conv
I0403 16:54:41.523150 21569 net.cpp:91] Creating Layer loss2/relu_conv
I0403 16:54:41.523169 21569 net.cpp:425] loss2/relu_conv <- loss2/conv
I0403 16:54:41.523187 21569 net.cpp:386] loss2/relu_conv -> loss2/conv (in-place)
I0403 16:54:41.523473 21569 net.cpp:141] Setting up loss2/relu_conv
I0403 16:54:41.523500 21569 net.cpp:148] Top shape: 24 128 4 4 (49152)
I0403 16:54:41.523515 21569 net.cpp:156] Memory required for data: 1208122656
I0403 16:54:41.523530 21569 layer_factory.hpp:77] Creating layer loss2/fc
I0403 16:54:41.523551 21569 net.cpp:91] Creating Layer loss2/fc
I0403 16:54:41.523568 21569 net.cpp:425] loss2/fc <- loss2/conv
I0403 16:54:41.523587 21569 net.cpp:399] loss2/fc -> loss2/fc
I0403 16:54:41.540699 21569 net.cpp:141] Setting up loss2/fc
I0403 16:54:41.540732 21569 net.cpp:148] Top shape: 24 1024 (24576)
I0403 16:54:41.540746 21569 net.cpp:156] Memory required for data: 1208220960
I0403 16:54:41.540766 21569 layer_factory.hpp:77] Creating layer loss2/relu_fc
I0403 16:54:41.540782 21569 net.cpp:91] Creating Layer loss2/relu_fc
I0403 16:54:41.540798 21569 net.cpp:425] loss2/relu_fc <- loss2/fc
I0403 16:54:41.540817 21569 net.cpp:386] loss2/relu_fc -> loss2/fc (in-place)
I0403 16:54:41.541111 21569 net.cpp:141] Setting up loss2/relu_fc
I0403 16:54:41.541137 21569 net.cpp:148] Top shape: 24 1024 (24576)
I0403 16:54:41.541152 21569 net.cpp:156] Memory required for data: 1208319264
I0403 16:54:41.541167 21569 layer_factory.hpp:77] Creating layer loss2/drop_fc
I0403 16:54:41.541184 21569 net.cpp:91] Creating Layer loss2/drop_fc
I0403 16:54:41.541199 21569 net.cpp:425] loss2/drop_fc <- loss2/fc
I0403 16:54:41.541219 21569 net.cpp:386] loss2/drop_fc -> loss2/fc (in-place)
I0403 16:54:41.541267 21569 net.cpp:141] Setting up loss2/drop_fc
I0403 16:54:41.541290 21569 net.cpp:148] Top shape: 24 1024 (24576)
I0403 16:54:41.541312 21569 net.cpp:156] Memory required for data: 1208417568
I0403 16:54:41.541326 21569 layer_factory.hpp:77] Creating layer loss2/classifier_plantvillage
I0403 16:54:41.541345 21569 net.cpp:91] Creating Layer loss2/classifier_plantvillage
I0403 16:54:41.541362 21569 net.cpp:425] loss2/classifier_plantvillage <- loss2/fc
I0403 16:54:41.541381 21569 net.cpp:399] loss2/classifier_plantvillage -> loss2/classifier_plantvillage
I0403 16:54:41.541774 21569 net.cpp:141] Setting up loss2/classifier_plantvillage
I0403 16:54:41.541798 21569 net.cpp:148] Top shape: 24 38 (912)
I0403 16:54:41.541826 21569 net.cpp:156] Memory required for data: 1208421216
I0403 16:54:41.541844 21569 layer_factory.hpp:77] Creating layer loss2/classifier_plantvillage_loss2/classifier_plantvillage_0_split
I0403 16:54:41.541863 21569 net.cpp:91] Creating Layer loss2/classifier_plantvillage_loss2/classifier_plantvillage_0_split
I0403 16:54:41.541878 21569 net.cpp:425] loss2/classifier_plantvillage_loss2/classifier_plantvillage_0_split <- loss2/classifier_plantvillage
I0403 16:54:41.541894 21569 net.cpp:399] loss2/classifier_plantvillage_loss2/classifier_plantvillage_0_split -> loss2/classifier_plantvillage_loss2/classifier_plantvillage_0_split_0
I0403 16:54:41.541914 21569 net.cpp:399] loss2/classifier_plantvillage_loss2/classifier_plantvillage_0_split -> loss2/classifier_plantvillage_loss2/classifier_plantvillage_0_split_1
I0403 16:54:41.541934 21569 net.cpp:399] loss2/classifier_plantvillage_loss2/classifier_plantvillage_0_split -> loss2/classifier_plantvillage_loss2/classifier_plantvillage_0_split_2
I0403 16:54:41.542008 21569 net.cpp:141] Setting up loss2/classifier_plantvillage_loss2/classifier_plantvillage_0_split
I0403 16:54:41.542033 21569 net.cpp:148] Top shape: 24 38 (912)
I0403 16:54:41.542049 21569 net.cpp:148] Top shape: 24 38 (912)
I0403 16:54:41.542063 21569 net.cpp:148] Top shape: 24 38 (912)
I0403 16:54:41.542076 21569 net.cpp:156] Memory required for data: 1208432160
I0403 16:54:41.542090 21569 layer_factory.hpp:77] Creating layer inception_4e/1x1
I0403 16:54:41.542109 21569 net.cpp:91] Creating Layer inception_4e/1x1
I0403 16:54:41.542124 21569 net.cpp:425] inception_4e/1x1 <- inception_4d/output_inception_4d/output_0_split_1
I0403 16:54:41.542146 21569 net.cpp:399] inception_4e/1x1 -> inception_4e/1x1
I0403 16:54:41.543911 21569 net.cpp:141] Setting up inception_4e/1x1
I0403 16:54:41.543939 21569 net.cpp:148] Top shape: 24 256 14 14 (1204224)
I0403 16:54:41.543956 21569 net.cpp:156] Memory required for data: 1213249056
I0403 16:54:41.543973 21569 layer_factory.hpp:77] Creating layer inception_4e/relu_1x1
I0403 16:54:41.543994 21569 net.cpp:91] Creating Layer inception_4e/relu_1x1
I0403 16:54:41.544011 21569 net.cpp:425] inception_4e/relu_1x1 <- inception_4e/1x1
I0403 16:54:41.544034 21569 net.cpp:386] inception_4e/relu_1x1 -> inception_4e/1x1 (in-place)
I0403 16:54:41.544358 21569 net.cpp:141] Setting up inception_4e/relu_1x1
I0403 16:54:41.544384 21569 net.cpp:148] Top shape: 24 256 14 14 (1204224)
I0403 16:54:41.544399 21569 net.cpp:156] Memory required for data: 1218065952
I0403 16:54:41.544412 21569 layer_factory.hpp:77] Creating layer inception_4e/3x3_reduce
I0403 16:54:41.544433 21569 net.cpp:91] Creating Layer inception_4e/3x3_reduce
I0403 16:54:41.544450 21569 net.cpp:425] inception_4e/3x3_reduce <- inception_4d/output_inception_4d/output_0_split_2
I0403 16:54:41.544471 21569 net.cpp:399] inception_4e/3x3_reduce -> inception_4e/3x3_reduce
I0403 16:54:41.546586 21569 net.cpp:141] Setting up inception_4e/3x3_reduce
I0403 16:54:41.546617 21569 net.cpp:148] Top shape: 24 160 14 14 (752640)
I0403 16:54:41.546633 21569 net.cpp:156] Memory required for data: 1221076512
I0403 16:54:41.546651 21569 layer_factory.hpp:77] Creating layer inception_4e/relu_3x3_reduce
I0403 16:54:41.546671 21569 net.cpp:91] Creating Layer inception_4e/relu_3x3_reduce
I0403 16:54:41.546689 21569 net.cpp:425] inception_4e/relu_3x3_reduce <- inception_4e/3x3_reduce
I0403 16:54:41.546707 21569 net.cpp:386] inception_4e/relu_3x3_reduce -> inception_4e/3x3_reduce (in-place)
I0403 16:54:41.546895 21569 net.cpp:141] Setting up inception_4e/relu_3x3_reduce
I0403 16:54:41.546921 21569 net.cpp:148] Top shape: 24 160 14 14 (752640)
I0403 16:54:41.546936 21569 net.cpp:156] Memory required for data: 1224087072
I0403 16:54:41.546950 21569 layer_factory.hpp:77] Creating layer inception_4e/3x3
I0403 16:54:41.546978 21569 net.cpp:91] Creating Layer inception_4e/3x3
I0403 16:54:41.546996 21569 net.cpp:425] inception_4e/3x3 <- inception_4e/3x3_reduce
I0403 16:54:41.547020 21569 net.cpp:399] inception_4e/3x3 -> inception_4e/3x3
I0403 16:54:41.552031 21569 net.cpp:141] Setting up inception_4e/3x3
I0403 16:54:41.552076 21569 net.cpp:148] Top shape: 24 320 14 14 (1505280)
I0403 16:54:41.552093 21569 net.cpp:156] Memory required for data: 1230108192
I0403 16:54:41.552114 21569 layer_factory.hpp:77] Creating layer inception_4e/relu_3x3
I0403 16:54:41.552134 21569 net.cpp:91] Creating Layer inception_4e/relu_3x3
I0403 16:54:41.552150 21569 net.cpp:425] inception_4e/relu_3x3 <- inception_4e/3x3
I0403 16:54:41.552167 21569 net.cpp:386] inception_4e/relu_3x3 -> inception_4e/3x3 (in-place)
I0403 16:54:41.552481 21569 net.cpp:141] Setting up inception_4e/relu_3x3
I0403 16:54:41.552510 21569 net.cpp:148] Top shape: 24 320 14 14 (1505280)
I0403 16:54:41.552527 21569 net.cpp:156] Memory required for data: 1236129312
I0403 16:54:41.552543 21569 layer_factory.hpp:77] Creating layer inception_4e/5x5_reduce
I0403 16:54:41.552567 21569 net.cpp:91] Creating Layer inception_4e/5x5_reduce
I0403 16:54:41.552584 21569 net.cpp:425] inception_4e/5x5_reduce <- inception_4d/output_inception_4d/output_0_split_3
I0403 16:54:41.552604 21569 net.cpp:399] inception_4e/5x5_reduce -> inception_4e/5x5_reduce
I0403 16:54:41.553689 21569 net.cpp:141] Setting up inception_4e/5x5_reduce
I0403 16:54:41.553719 21569 net.cpp:148] Top shape: 24 32 14 14 (150528)
I0403 16:54:41.553733 21569 net.cpp:156] Memory required for data: 1236731424
I0403 16:54:41.553752 21569 layer_factory.hpp:77] Creating layer inception_4e/relu_5x5_reduce
I0403 16:54:41.553771 21569 net.cpp:91] Creating Layer inception_4e/relu_5x5_reduce
I0403 16:54:41.553789 21569 net.cpp:425] inception_4e/relu_5x5_reduce <- inception_4e/5x5_reduce
I0403 16:54:41.553807 21569 net.cpp:386] inception_4e/relu_5x5_reduce -> inception_4e/5x5_reduce (in-place)
I0403 16:54:41.554117 21569 net.cpp:141] Setting up inception_4e/relu_5x5_reduce
I0403 16:54:41.554144 21569 net.cpp:148] Top shape: 24 32 14 14 (150528)
I0403 16:54:41.554160 21569 net.cpp:156] Memory required for data: 1237333536
I0403 16:54:41.554175 21569 layer_factory.hpp:77] Creating layer inception_4e/5x5
I0403 16:54:41.554214 21569 net.cpp:91] Creating Layer inception_4e/5x5
I0403 16:54:41.554235 21569 net.cpp:425] inception_4e/5x5 <- inception_4e/5x5_reduce
I0403 16:54:41.554255 21569 net.cpp:399] inception_4e/5x5 -> inception_4e/5x5
I0403 16:54:41.556123 21569 net.cpp:141] Setting up inception_4e/5x5
I0403 16:54:41.556152 21569 net.cpp:148] Top shape: 24 128 14 14 (602112)
I0403 16:54:41.556167 21569 net.cpp:156] Memory required for data: 1239741984
I0403 16:54:41.556187 21569 layer_factory.hpp:77] Creating layer inception_4e/relu_5x5
I0403 16:54:41.556205 21569 net.cpp:91] Creating Layer inception_4e/relu_5x5
I0403 16:54:41.556221 21569 net.cpp:425] inception_4e/relu_5x5 <- inception_4e/5x5
I0403 16:54:41.556239 21569 net.cpp:386] inception_4e/relu_5x5 -> inception_4e/5x5 (in-place)
I0403 16:54:41.556438 21569 net.cpp:141] Setting up inception_4e/relu_5x5
I0403 16:54:41.556463 21569 net.cpp:148] Top shape: 24 128 14 14 (602112)
I0403 16:54:41.556478 21569 net.cpp:156] Memory required for data: 1242150432
I0403 16:54:41.556491 21569 layer_factory.hpp:77] Creating layer inception_4e/pool
I0403 16:54:41.556511 21569 net.cpp:91] Creating Layer inception_4e/pool
I0403 16:54:41.556527 21569 net.cpp:425] inception_4e/pool <- inception_4d/output_inception_4d/output_0_split_4
I0403 16:54:41.556545 21569 net.cpp:399] inception_4e/pool -> inception_4e/pool
I0403 16:54:41.556617 21569 net.cpp:141] Setting up inception_4e/pool
I0403 16:54:41.556640 21569 net.cpp:148] Top shape: 24 528 14 14 (2483712)
I0403 16:54:41.556654 21569 net.cpp:156] Memory required for data: 1252085280
I0403 16:54:41.556669 21569 layer_factory.hpp:77] Creating layer inception_4e/pool_proj
I0403 16:54:41.556690 21569 net.cpp:91] Creating Layer inception_4e/pool_proj
I0403 16:54:41.556707 21569 net.cpp:425] inception_4e/pool_proj <- inception_4e/pool
I0403 16:54:41.556728 21569 net.cpp:399] inception_4e/pool_proj -> inception_4e/pool_proj
I0403 16:54:41.558249 21569 net.cpp:141] Setting up inception_4e/pool_proj
I0403 16:54:41.558290 21569 net.cpp:148] Top shape: 24 128 14 14 (602112)
I0403 16:54:41.558307 21569 net.cpp:156] Memory required for data: 1254493728
I0403 16:54:41.558326 21569 layer_factory.hpp:77] Creating layer inception_4e/relu_pool_proj
I0403 16:54:41.558343 21569 net.cpp:91] Creating Layer inception_4e/relu_pool_proj
I0403 16:54:41.558359 21569 net.cpp:425] inception_4e/relu_pool_proj <- inception_4e/pool_proj
I0403 16:54:41.558380 21569 net.cpp:386] inception_4e/relu_pool_proj -> inception_4e/pool_proj (in-place)
I0403 16:54:41.558676 21569 net.cpp:141] Setting up inception_4e/relu_pool_proj
I0403 16:54:41.558701 21569 net.cpp:148] Top shape: 24 128 14 14 (602112)
I0403 16:54:41.558715 21569 net.cpp:156] Memory required for data: 1256902176
I0403 16:54:41.558729 21569 layer_factory.hpp:77] Creating layer inception_4e/output
I0403 16:54:41.558748 21569 net.cpp:91] Creating Layer inception_4e/output
I0403 16:54:41.558763 21569 net.cpp:425] inception_4e/output <- inception_4e/1x1
I0403 16:54:41.558779 21569 net.cpp:425] inception_4e/output <- inception_4e/3x3
I0403 16:54:41.558794 21569 net.cpp:425] inception_4e/output <- inception_4e/5x5
I0403 16:54:41.558809 21569 net.cpp:425] inception_4e/output <- inception_4e/pool_proj
I0403 16:54:41.558828 21569 net.cpp:399] inception_4e/output -> inception_4e/output
I0403 16:54:41.558876 21569 net.cpp:141] Setting up inception_4e/output
I0403 16:54:41.558899 21569 net.cpp:148] Top shape: 24 832 14 14 (3913728)
I0403 16:54:41.558917 21569 net.cpp:156] Memory required for data: 1272557088
I0403 16:54:41.558930 21569 layer_factory.hpp:77] Creating layer pool4/3x3_s2
I0403 16:54:41.558948 21569 net.cpp:91] Creating Layer pool4/3x3_s2
I0403 16:54:41.558965 21569 net.cpp:425] pool4/3x3_s2 <- inception_4e/output
I0403 16:54:41.558984 21569 net.cpp:399] pool4/3x3_s2 -> pool4/3x3_s2
I0403 16:54:41.559056 21569 net.cpp:141] Setting up pool4/3x3_s2
I0403 16:54:41.559078 21569 net.cpp:148] Top shape: 24 832 7 7 (978432)
I0403 16:54:41.559093 21569 net.cpp:156] Memory required for data: 1276470816
I0403 16:54:41.559106 21569 layer_factory.hpp:77] Creating layer pool4/3x3_s2_pool4/3x3_s2_0_split
I0403 16:54:41.559123 21569 net.cpp:91] Creating Layer pool4/3x3_s2_pool4/3x3_s2_0_split
I0403 16:54:41.559139 21569 net.cpp:425] pool4/3x3_s2_pool4/3x3_s2_0_split <- pool4/3x3_s2
I0403 16:54:41.559157 21569 net.cpp:399] pool4/3x3_s2_pool4/3x3_s2_0_split -> pool4/3x3_s2_pool4/3x3_s2_0_split_0
I0403 16:54:41.559177 21569 net.cpp:399] pool4/3x3_s2_pool4/3x3_s2_0_split -> pool4/3x3_s2_pool4/3x3_s2_0_split_1
I0403 16:54:41.559196 21569 net.cpp:399] pool4/3x3_s2_pool4/3x3_s2_0_split -> pool4/3x3_s2_pool4/3x3_s2_0_split_2
I0403 16:54:41.559216 21569 net.cpp:399] pool4/3x3_s2_pool4/3x3_s2_0_split -> pool4/3x3_s2_pool4/3x3_s2_0_split_3
I0403 16:54:41.559304 21569 net.cpp:141] Setting up pool4/3x3_s2_pool4/3x3_s2_0_split
I0403 16:54:41.559329 21569 net.cpp:148] Top shape: 24 832 7 7 (978432)
I0403 16:54:41.559346 21569 net.cpp:148] Top shape: 24 832 7 7 (978432)
I0403 16:54:41.559361 21569 net.cpp:148] Top shape: 24 832 7 7 (978432)
I0403 16:54:41.559376 21569 net.cpp:148] Top shape: 24 832 7 7 (978432)
I0403 16:54:41.559389 21569 net.cpp:156] Memory required for data: 1292125728
I0403 16:54:41.559403 21569 layer_factory.hpp:77] Creating layer inception_5a/1x1
I0403 16:54:41.559424 21569 net.cpp:91] Creating Layer inception_5a/1x1
I0403 16:54:41.559442 21569 net.cpp:425] inception_5a/1x1 <- pool4/3x3_s2_pool4/3x3_s2_0_split_0
I0403 16:54:41.559461 21569 net.cpp:399] inception_5a/1x1 -> inception_5a/1x1
I0403 16:54:41.562325 21569 net.cpp:141] Setting up inception_5a/1x1
I0403 16:54:41.562356 21569 net.cpp:148] Top shape: 24 256 7 7 (301056)
I0403 16:54:41.562373 21569 net.cpp:156] Memory required for data: 1293329952
I0403 16:54:41.562391 21569 layer_factory.hpp:77] Creating layer inception_5a/relu_1x1
I0403 16:54:41.562412 21569 net.cpp:91] Creating Layer inception_5a/relu_1x1
I0403 16:54:41.562430 21569 net.cpp:425] inception_5a/relu_1x1 <- inception_5a/1x1
I0403 16:54:41.562450 21569 net.cpp:386] inception_5a/relu_1x1 -> inception_5a/1x1 (in-place)
I0403 16:54:41.562764 21569 net.cpp:141] Setting up inception_5a/relu_1x1
I0403 16:54:41.562789 21569 net.cpp:148] Top shape: 24 256 7 7 (301056)
I0403 16:54:41.562804 21569 net.cpp:156] Memory required for data: 1294534176
I0403 16:54:41.562819 21569 layer_factory.hpp:77] Creating layer inception_5a/3x3_reduce
I0403 16:54:41.562841 21569 net.cpp:91] Creating Layer inception_5a/3x3_reduce
I0403 16:54:41.562858 21569 net.cpp:425] inception_5a/3x3_reduce <- pool4/3x3_s2_pool4/3x3_s2_0_split_1
I0403 16:54:41.562878 21569 net.cpp:399] inception_5a/3x3_reduce -> inception_5a/3x3_reduce
I0403 16:54:41.565369 21569 net.cpp:141] Setting up inception_5a/3x3_reduce
I0403 16:54:41.565400 21569 net.cpp:148] Top shape: 24 160 7 7 (188160)
I0403 16:54:41.565417 21569 net.cpp:156] Memory required for data: 1295286816
I0403 16:54:41.565433 21569 layer_factory.hpp:77] Creating layer inception_5a/relu_3x3_reduce
I0403 16:54:41.565451 21569 net.cpp:91] Creating Layer inception_5a/relu_3x3_reduce
I0403 16:54:41.565469 21569 net.cpp:425] inception_5a/relu_3x3_reduce <- inception_5a/3x3_reduce
I0403 16:54:41.565485 21569 net.cpp:386] inception_5a/relu_3x3_reduce -> inception_5a/3x3_reduce (in-place)
I0403 16:54:41.565680 21569 net.cpp:141] Setting up inception_5a/relu_3x3_reduce
I0403 16:54:41.565704 21569 net.cpp:148] Top shape: 24 160 7 7 (188160)
I0403 16:54:41.565718 21569 net.cpp:156] Memory required for data: 1296039456
I0403 16:54:41.565732 21569 layer_factory.hpp:77] Creating layer inception_5a/3x3
I0403 16:54:41.565753 21569 net.cpp:91] Creating Layer inception_5a/3x3
I0403 16:54:41.565770 21569 net.cpp:425] inception_5a/3x3 <- inception_5a/3x3_reduce
I0403 16:54:41.565793 21569 net.cpp:399] inception_5a/3x3 -> inception_5a/3x3
I0403 16:54:41.570822 21569 net.cpp:141] Setting up inception_5a/3x3
I0403 16:54:41.570853 21569 net.cpp:148] Top shape: 24 320 7 7 (376320)
I0403 16:54:41.570869 21569 net.cpp:156] Memory required for data: 1297544736
I0403 16:54:41.570889 21569 layer_factory.hpp:77] Creating layer inception_5a/relu_3x3
I0403 16:54:41.570907 21569 net.cpp:91] Creating Layer inception_5a/relu_3x3
I0403 16:54:41.570925 21569 net.cpp:425] inception_5a/relu_3x3 <- inception_5a/3x3
I0403 16:54:41.570946 21569 net.cpp:386] inception_5a/relu_3x3 -> inception_5a/3x3 (in-place)
I0403 16:54:41.571251 21569 net.cpp:141] Setting up inception_5a/relu_3x3
I0403 16:54:41.571280 21569 net.cpp:148] Top shape: 24 320 7 7 (376320)
I0403 16:54:41.571295 21569 net.cpp:156] Memory required for data: 1299050016
I0403 16:54:41.571310 21569 layer_factory.hpp:77] Creating layer inception_5a/5x5_reduce
I0403 16:54:41.571331 21569 net.cpp:91] Creating Layer inception_5a/5x5_reduce
I0403 16:54:41.571349 21569 net.cpp:425] inception_5a/5x5_reduce <- pool4/3x3_s2_pool4/3x3_s2_0_split_2
I0403 16:54:41.571372 21569 net.cpp:399] inception_5a/5x5_reduce -> inception_5a/5x5_reduce
I0403 16:54:41.572582 21569 net.cpp:141] Setting up inception_5a/5x5_reduce
I0403 16:54:41.572610 21569 net.cpp:148] Top shape: 24 32 7 7 (37632)
I0403 16:54:41.572625 21569 net.cpp:156] Memory required for data: 1299200544
I0403 16:54:41.572643 21569 layer_factory.hpp:77] Creating layer inception_5a/relu_5x5_reduce
I0403 16:54:41.572664 21569 net.cpp:91] Creating Layer inception_5a/relu_5x5_reduce
I0403 16:54:41.572680 21569 net.cpp:425] inception_5a/relu_5x5_reduce <- inception_5a/5x5_reduce
I0403 16:54:41.572696 21569 net.cpp:386] inception_5a/relu_5x5_reduce -> inception_5a/5x5_reduce (in-place)
I0403 16:54:41.572996 21569 net.cpp:141] Setting up inception_5a/relu_5x5_reduce
I0403 16:54:41.573030 21569 net.cpp:148] Top shape: 24 32 7 7 (37632)
I0403 16:54:41.573046 21569 net.cpp:156] Memory required for data: 1299351072
I0403 16:54:41.573061 21569 layer_factory.hpp:77] Creating layer inception_5a/5x5
I0403 16:54:41.573084 21569 net.cpp:91] Creating Layer inception_5a/5x5
I0403 16:54:41.573102 21569 net.cpp:425] inception_5a/5x5 <- inception_5a/5x5_reduce
I0403 16:54:41.573123 21569 net.cpp:399] inception_5a/5x5 -> inception_5a/5x5
I0403 16:54:41.574849 21569 net.cpp:141] Setting up inception_5a/5x5
I0403 16:54:41.574890 21569 net.cpp:148] Top shape: 24 128 7 7 (150528)
I0403 16:54:41.574908 21569 net.cpp:156] Memory required for data: 1299953184
I0403 16:54:41.574925 21569 layer_factory.hpp:77] Creating layer inception_5a/relu_5x5
I0403 16:54:41.574944 21569 net.cpp:91] Creating Layer inception_5a/relu_5x5
I0403 16:54:41.574965 21569 net.cpp:425] inception_5a/relu_5x5 <- inception_5a/5x5
I0403 16:54:41.574985 21569 net.cpp:386] inception_5a/relu_5x5 -> inception_5a/5x5 (in-place)
I0403 16:54:41.575184 21569 net.cpp:141] Setting up inception_5a/relu_5x5
I0403 16:54:41.575212 21569 net.cpp:148] Top shape: 24 128 7 7 (150528)
I0403 16:54:41.575227 21569 net.cpp:156] Memory required for data: 1300555296
I0403 16:54:41.575242 21569 layer_factory.hpp:77] Creating layer inception_5a/pool
I0403 16:54:41.575261 21569 net.cpp:91] Creating Layer inception_5a/pool
I0403 16:54:41.575278 21569 net.cpp:425] inception_5a/pool <- pool4/3x3_s2_pool4/3x3_s2_0_split_3
I0403 16:54:41.575297 21569 net.cpp:399] inception_5a/pool -> inception_5a/pool
I0403 16:54:41.575369 21569 net.cpp:141] Setting up inception_5a/pool
I0403 16:54:41.575394 21569 net.cpp:148] Top shape: 24 832 7 7 (978432)
I0403 16:54:41.575408 21569 net.cpp:156] Memory required for data: 1304469024
I0403 16:54:41.575423 21569 layer_factory.hpp:77] Creating layer inception_5a/pool_proj
I0403 16:54:41.575445 21569 net.cpp:91] Creating Layer inception_5a/pool_proj
I0403 16:54:41.575464 21569 net.cpp:425] inception_5a/pool_proj <- inception_5a/pool
I0403 16:54:41.575485 21569 net.cpp:399] inception_5a/pool_proj -> inception_5a/pool_proj
I0403 16:54:41.577775 21569 net.cpp:141] Setting up inception_5a/pool_proj
I0403 16:54:41.577808 21569 net.cpp:148] Top shape: 24 128 7 7 (150528)
I0403 16:54:41.577826 21569 net.cpp:156] Memory required for data: 1305071136
I0403 16:54:41.577846 21569 layer_factory.hpp:77] Creating layer inception_5a/relu_pool_proj
I0403 16:54:41.577864 21569 net.cpp:91] Creating Layer inception_5a/relu_pool_proj
I0403 16:54:41.577883 21569 net.cpp:425] inception_5a/relu_pool_proj <- inception_5a/pool_proj
I0403 16:54:41.577903 21569 net.cpp:386] inception_5a/relu_pool_proj -> inception_5a/pool_proj (in-place)
I0403 16:54:41.578209 21569 net.cpp:141] Setting up inception_5a/relu_pool_proj
I0403 16:54:41.578239 21569 net.cpp:148] Top shape: 24 128 7 7 (150528)
I0403 16:54:41.578256 21569 net.cpp:156] Memory required for data: 1305673248
I0403 16:54:41.578275 21569 layer_factory.hpp:77] Creating layer inception_5a/output
I0403 16:54:41.578294 21569 net.cpp:91] Creating Layer inception_5a/output
I0403 16:54:41.578308 21569 net.cpp:425] inception_5a/output <- inception_5a/1x1
I0403 16:54:41.578325 21569 net.cpp:425] inception_5a/output <- inception_5a/3x3
I0403 16:54:41.578341 21569 net.cpp:425] inception_5a/output <- inception_5a/5x5
I0403 16:54:41.578357 21569 net.cpp:425] inception_5a/output <- inception_5a/pool_proj
I0403 16:54:41.578377 21569 net.cpp:399] inception_5a/output -> inception_5a/output
I0403 16:54:41.578425 21569 net.cpp:141] Setting up inception_5a/output
I0403 16:54:41.578449 21569 net.cpp:148] Top shape: 24 832 7 7 (978432)
I0403 16:54:41.578464 21569 net.cpp:156] Memory required for data: 1309586976
I0403 16:54:41.578477 21569 layer_factory.hpp:77] Creating layer inception_5a/output_inception_5a/output_0_split
I0403 16:54:41.578497 21569 net.cpp:91] Creating Layer inception_5a/output_inception_5a/output_0_split
I0403 16:54:41.578515 21569 net.cpp:425] inception_5a/output_inception_5a/output_0_split <- inception_5a/output
I0403 16:54:41.578531 21569 net.cpp:399] inception_5a/output_inception_5a/output_0_split -> inception_5a/output_inception_5a/output_0_split_0
I0403 16:54:41.578550 21569 net.cpp:399] inception_5a/output_inception_5a/output_0_split -> inception_5a/output_inception_5a/output_0_split_1
I0403 16:54:41.578573 21569 net.cpp:399] inception_5a/output_inception_5a/output_0_split -> inception_5a/output_inception_5a/output_0_split_2
I0403 16:54:41.578593 21569 net.cpp:399] inception_5a/output_inception_5a/output_0_split -> inception_5a/output_inception_5a/output_0_split_3
I0403 16:54:41.578704 21569 net.cpp:141] Setting up inception_5a/output_inception_5a/output_0_split
I0403 16:54:41.578728 21569 net.cpp:148] Top shape: 24 832 7 7 (978432)
I0403 16:54:41.578744 21569 net.cpp:148] Top shape: 24 832 7 7 (978432)
I0403 16:54:41.578759 21569 net.cpp:148] Top shape: 24 832 7 7 (978432)
I0403 16:54:41.578774 21569 net.cpp:148] Top shape: 24 832 7 7 (978432)
I0403 16:54:41.578788 21569 net.cpp:156] Memory required for data: 1325241888
I0403 16:54:41.578801 21569 layer_factory.hpp:77] Creating layer inception_5b/1x1
I0403 16:54:41.578824 21569 net.cpp:91] Creating Layer inception_5b/1x1
I0403 16:54:41.578840 21569 net.cpp:425] inception_5b/1x1 <- inception_5a/output_inception_5a/output_0_split_0
I0403 16:54:41.578861 21569 net.cpp:399] inception_5b/1x1 -> inception_5b/1x1
I0403 16:54:41.582691 21569 net.cpp:141] Setting up inception_5b/1x1
I0403 16:54:41.582722 21569 net.cpp:148] Top shape: 24 384 7 7 (451584)
I0403 16:54:41.582738 21569 net.cpp:156] Memory required for data: 1327048224
I0403 16:54:41.582756 21569 layer_factory.hpp:77] Creating layer inception_5b/relu_1x1
I0403 16:54:41.582774 21569 net.cpp:91] Creating Layer inception_5b/relu_1x1
I0403 16:54:41.582790 21569 net.cpp:425] inception_5b/relu_1x1 <- inception_5b/1x1
I0403 16:54:41.582808 21569 net.cpp:386] inception_5b/relu_1x1 -> inception_5b/1x1 (in-place)
I0403 16:54:41.583120 21569 net.cpp:141] Setting up inception_5b/relu_1x1
I0403 16:54:41.583148 21569 net.cpp:148] Top shape: 24 384 7 7 (451584)
I0403 16:54:41.583163 21569 net.cpp:156] Memory required for data: 1328854560
I0403 16:54:41.583178 21569 layer_factory.hpp:77] Creating layer inception_5b/3x3_reduce
I0403 16:54:41.583199 21569 net.cpp:91] Creating Layer inception_5b/3x3_reduce
I0403 16:54:41.583217 21569 net.cpp:425] inception_5b/3x3_reduce <- inception_5a/output_inception_5a/output_0_split_1
I0403 16:54:41.583236 21569 net.cpp:399] inception_5b/3x3_reduce -> inception_5b/3x3_reduce
I0403 16:54:41.585937 21569 net.cpp:141] Setting up inception_5b/3x3_reduce
I0403 16:54:41.585970 21569 net.cpp:148] Top shape: 24 192 7 7 (225792)
I0403 16:54:41.585988 21569 net.cpp:156] Memory required for data: 1329757728
I0403 16:54:41.586007 21569 layer_factory.hpp:77] Creating layer inception_5b/relu_3x3_reduce
I0403 16:54:41.586031 21569 net.cpp:91] Creating Layer inception_5b/relu_3x3_reduce
I0403 16:54:41.586050 21569 net.cpp:425] inception_5b/relu_3x3_reduce <- inception_5b/3x3_reduce
I0403 16:54:41.586073 21569 net.cpp:386] inception_5b/relu_3x3_reduce -> inception_5b/3x3_reduce (in-place)
I0403 16:54:41.586266 21569 net.cpp:141] Setting up inception_5b/relu_3x3_reduce
I0403 16:54:41.586292 21569 net.cpp:148] Top shape: 24 192 7 7 (225792)
I0403 16:54:41.586305 21569 net.cpp:156] Memory required for data: 1330660896
I0403 16:54:41.586319 21569 layer_factory.hpp:77] Creating layer inception_5b/3x3
I0403 16:54:41.586341 21569 net.cpp:91] Creating Layer inception_5b/3x3
I0403 16:54:41.586359 21569 net.cpp:425] inception_5b/3x3 <- inception_5b/3x3_reduce
I0403 16:54:41.586380 21569 net.cpp:399] inception_5b/3x3 -> inception_5b/3x3
I0403 16:54:41.593026 21569 net.cpp:141] Setting up inception_5b/3x3
I0403 16:54:41.593058 21569 net.cpp:148] Top shape: 24 384 7 7 (451584)
I0403 16:54:41.593076 21569 net.cpp:156] Memory required for data: 1332467232
I0403 16:54:41.593094 21569 layer_factory.hpp:77] Creating layer inception_5b/relu_3x3
I0403 16:54:41.593111 21569 net.cpp:91] Creating Layer inception_5b/relu_3x3
I0403 16:54:41.593127 21569 net.cpp:425] inception_5b/relu_3x3 <- inception_5b/3x3
I0403 16:54:41.593145 21569 net.cpp:386] inception_5b/relu_3x3 -> inception_5b/3x3 (in-place)
I0403 16:54:41.593435 21569 net.cpp:141] Setting up inception_5b/relu_3x3
I0403 16:54:41.593461 21569 net.cpp:148] Top shape: 24 384 7 7 (451584)
I0403 16:54:41.593477 21569 net.cpp:156] Memory required for data: 1334273568
I0403 16:54:41.593492 21569 layer_factory.hpp:77] Creating layer inception_5b/5x5_reduce
I0403 16:54:41.593528 21569 net.cpp:91] Creating Layer inception_5b/5x5_reduce
I0403 16:54:41.593546 21569 net.cpp:425] inception_5b/5x5_reduce <- inception_5a/output_inception_5a/output_0_split_2
I0403 16:54:41.593564 21569 net.cpp:399] inception_5b/5x5_reduce -> inception_5b/5x5_reduce
I0403 16:54:41.594810 21569 net.cpp:141] Setting up inception_5b/5x5_reduce
I0403 16:54:41.594838 21569 net.cpp:148] Top shape: 24 48 7 7 (56448)
I0403 16:54:41.594854 21569 net.cpp:156] Memory required for data: 1334499360
I0403 16:54:41.594872 21569 layer_factory.hpp:77] Creating layer inception_5b/relu_5x5_reduce
I0403 16:54:41.594889 21569 net.cpp:91] Creating Layer inception_5b/relu_5x5_reduce
I0403 16:54:41.594905 21569 net.cpp:425] inception_5b/relu_5x5_reduce <- inception_5b/5x5_reduce
I0403 16:54:41.594925 21569 net.cpp:386] inception_5b/relu_5x5_reduce -> inception_5b/5x5_reduce (in-place)
I0403 16:54:41.595293 21569 net.cpp:141] Setting up inception_5b/relu_5x5_reduce
I0403 16:54:41.595319 21569 net.cpp:148] Top shape: 24 48 7 7 (56448)
I0403 16:54:41.595334 21569 net.cpp:156] Memory required for data: 1334725152
I0403 16:54:41.595347 21569 layer_factory.hpp:77] Creating layer inception_5b/5x5
I0403 16:54:41.595366 21569 net.cpp:91] Creating Layer inception_5b/5x5
I0403 16:54:41.595382 21569 net.cpp:425] inception_5b/5x5 <- inception_5b/5x5_reduce
I0403 16:54:41.595401 21569 net.cpp:399] inception_5b/5x5 -> inception_5b/5x5
I0403 16:54:41.597432 21569 net.cpp:141] Setting up inception_5b/5x5
I0403 16:54:41.597461 21569 net.cpp:148] Top shape: 24 128 7 7 (150528)
I0403 16:54:41.597477 21569 net.cpp:156] Memory required for data: 1335327264
I0403 16:54:41.597494 21569 layer_factory.hpp:77] Creating layer inception_5b/relu_5x5
I0403 16:54:41.597514 21569 net.cpp:91] Creating Layer inception_5b/relu_5x5
I0403 16:54:41.597532 21569 net.cpp:425] inception_5b/relu_5x5 <- inception_5b/5x5
I0403 16:54:41.597550 21569 net.cpp:386] inception_5b/relu_5x5 -> inception_5b/5x5 (in-place)
I0403 16:54:41.597739 21569 net.cpp:141] Setting up inception_5b/relu_5x5
I0403 16:54:41.597764 21569 net.cpp:148] Top shape: 24 128 7 7 (150528)
I0403 16:54:41.597777 21569 net.cpp:156] Memory required for data: 1335929376
I0403 16:54:41.597791 21569 layer_factory.hpp:77] Creating layer inception_5b/pool
I0403 16:54:41.597810 21569 net.cpp:91] Creating Layer inception_5b/pool
I0403 16:54:41.597826 21569 net.cpp:425] inception_5b/pool <- inception_5a/output_inception_5a/output_0_split_3
I0403 16:54:41.597843 21569 net.cpp:399] inception_5b/pool -> inception_5b/pool
I0403 16:54:41.597915 21569 net.cpp:141] Setting up inception_5b/pool
I0403 16:54:41.597939 21569 net.cpp:148] Top shape: 24 832 7 7 (978432)
I0403 16:54:41.597952 21569 net.cpp:156] Memory required for data: 1339843104
I0403 16:54:41.597966 21569 layer_factory.hpp:77] Creating layer inception_5b/pool_proj
I0403 16:54:41.597987 21569 net.cpp:91] Creating Layer inception_5b/pool_proj
I0403 16:54:41.598004 21569 net.cpp:425] inception_5b/pool_proj <- inception_5b/pool
I0403 16:54:41.598033 21569 net.cpp:399] inception_5b/pool_proj -> inception_5b/pool_proj
I0403 16:54:41.600287 21569 net.cpp:141] Setting up inception_5b/pool_proj
I0403 16:54:41.600317 21569 net.cpp:148] Top shape: 24 128 7 7 (150528)
I0403 16:54:41.600332 21569 net.cpp:156] Memory required for data: 1340445216
I0403 16:54:41.600350 21569 layer_factory.hpp:77] Creating layer inception_5b/relu_pool_proj
I0403 16:54:41.600368 21569 net.cpp:91] Creating Layer inception_5b/relu_pool_proj
I0403 16:54:41.600385 21569 net.cpp:425] inception_5b/relu_pool_proj <- inception_5b/pool_proj
I0403 16:54:41.600404 21569 net.cpp:386] inception_5b/relu_pool_proj -> inception_5b/pool_proj (in-place)
I0403 16:54:41.600697 21569 net.cpp:141] Setting up inception_5b/relu_pool_proj
I0403 16:54:41.600723 21569 net.cpp:148] Top shape: 24 128 7 7 (150528)
I0403 16:54:41.600739 21569 net.cpp:156] Memory required for data: 1341047328
I0403 16:54:41.600754 21569 layer_factory.hpp:77] Creating layer inception_5b/output
I0403 16:54:41.600769 21569 net.cpp:91] Creating Layer inception_5b/output
I0403 16:54:41.600798 21569 net.cpp:425] inception_5b/output <- inception_5b/1x1
I0403 16:54:41.600816 21569 net.cpp:425] inception_5b/output <- inception_5b/3x3
I0403 16:54:41.600831 21569 net.cpp:425] inception_5b/output <- inception_5b/5x5
I0403 16:54:41.600847 21569 net.cpp:425] inception_5b/output <- inception_5b/pool_proj
I0403 16:54:41.600865 21569 net.cpp:399] inception_5b/output -> inception_5b/output
I0403 16:54:41.600914 21569 net.cpp:141] Setting up inception_5b/output
I0403 16:54:41.600940 21569 net.cpp:148] Top shape: 24 1024 7 7 (1204224)
I0403 16:54:41.600955 21569 net.cpp:156] Memory required for data: 1345864224
I0403 16:54:41.600968 21569 layer_factory.hpp:77] Creating layer pool5/7x7_s1
I0403 16:54:41.600986 21569 net.cpp:91] Creating Layer pool5/7x7_s1
I0403 16:54:41.601001 21569 net.cpp:425] pool5/7x7_s1 <- inception_5b/output
I0403 16:54:41.601021 21569 net.cpp:399] pool5/7x7_s1 -> pool5/7x7_s1
I0403 16:54:41.601235 21569 net.cpp:141] Setting up pool5/7x7_s1
I0403 16:54:41.601260 21569 net.cpp:148] Top shape: 24 1024 1 1 (24576)
I0403 16:54:41.601274 21569 net.cpp:156] Memory required for data: 1345962528
I0403 16:54:41.601287 21569 layer_factory.hpp:77] Creating layer pool5/drop_7x7_s1
I0403 16:54:41.601303 21569 net.cpp:91] Creating Layer pool5/drop_7x7_s1
I0403 16:54:41.601318 21569 net.cpp:425] pool5/drop_7x7_s1 <- pool5/7x7_s1
I0403 16:54:41.601336 21569 net.cpp:386] pool5/drop_7x7_s1 -> pool5/7x7_s1 (in-place)
I0403 16:54:41.601384 21569 net.cpp:141] Setting up pool5/drop_7x7_s1
I0403 16:54:41.601408 21569 net.cpp:148] Top shape: 24 1024 1 1 (24576)
I0403 16:54:41.601423 21569 net.cpp:156] Memory required for data: 1346060832
I0403 16:54:41.601436 21569 layer_factory.hpp:77] Creating layer loss3/classifier_plantvillage
I0403 16:54:41.601454 21569 net.cpp:91] Creating Layer loss3/classifier_plantvillage
I0403 16:54:41.601469 21569 net.cpp:425] loss3/classifier_plantvillage <- pool5/7x7_s1
I0403 16:54:41.601490 21569 net.cpp:399] loss3/classifier_plantvillage -> loss3/classifier_plantvillage
I0403 16:54:41.601907 21569 net.cpp:141] Setting up loss3/classifier_plantvillage
I0403 16:54:41.601929 21569 net.cpp:148] Top shape: 24 38 (912)
I0403 16:54:41.601943 21569 net.cpp:156] Memory required for data: 1346064480
I0403 16:54:41.601963 21569 layer_factory.hpp:77] Creating layer loss3/classifier_plantvillage_loss3/classifier_plantvillage_0_split
I0403 16:54:41.601982 21569 net.cpp:91] Creating Layer loss3/classifier_plantvillage_loss3/classifier_plantvillage_0_split
I0403 16:54:41.601997 21569 net.cpp:425] loss3/classifier_plantvillage_loss3/classifier_plantvillage_0_split <- loss3/classifier_plantvillage
I0403 16:54:41.602015 21569 net.cpp:399] loss3/classifier_plantvillage_loss3/classifier_plantvillage_0_split -> loss3/classifier_plantvillage_loss3/classifier_plantvillage_0_split_0
I0403 16:54:41.602037 21569 net.cpp:399] loss3/classifier_plantvillage_loss3/classifier_plantvillage_0_split -> loss3/classifier_plantvillage_loss3/classifier_plantvillage_0_split_1
I0403 16:54:41.602061 21569 net.cpp:399] loss3/classifier_plantvillage_loss3/classifier_plantvillage_0_split -> loss3/classifier_plantvillage_loss3/classifier_plantvillage_0_split_2
I0403 16:54:41.602079 21569 net.cpp:399] loss3/classifier_plantvillage_loss3/classifier_plantvillage_0_split -> loss3/classifier_plantvillage_loss3/classifier_plantvillage_0_split_3
I0403 16:54:41.602176 21569 net.cpp:141] Setting up loss3/classifier_plantvillage_loss3/classifier_plantvillage_0_split
I0403 16:54:41.602200 21569 net.cpp:148] Top shape: 24 38 (912)
I0403 16:54:41.602215 21569 net.cpp:148] Top shape: 24 38 (912)
I0403 16:54:41.602228 21569 net.cpp:148] Top shape: 24 38 (912)
I0403 16:54:41.602243 21569 net.cpp:148] Top shape: 24 38 (912)
I0403 16:54:41.602257 21569 net.cpp:156] Memory required for data: 1346079072
I0403 16:54:41.602269 21569 layer_factory.hpp:77] Creating layer loss1/loss
I0403 16:54:41.602289 21569 net.cpp:91] Creating Layer loss1/loss
I0403 16:54:41.602306 21569 net.cpp:425] loss1/loss <- loss1/classifier_plantvillage_loss1/classifier_plantvillage_0_split_0
I0403 16:54:41.602335 21569 net.cpp:425] loss1/loss <- label_data_1_split_0
…
