…
I0403 16:24:24.701097 21032 net.cpp:313] The NetState phase (1) differed from the phase (0) specified by a rule in layer data
I0403 16:24:24.702287 21032 net.cpp:49] Initializing net from parameters: 
state {
  phase: TEST
}
layer {
  name: "data"
  type: "Data"
  top: "data"
  top: "label"
  include {
    phase: TEST
  }
  transform_param {
    mirror: false
    crop_size: 224
    mean_file: "/home/mohanty/data/final_dataset/lmdb/grayscale-20-80/mean.binaryproto"
  }
  data_param {
    source: "/home/mohanty/data/final_dataset/lmdb/grayscale-20-80/test_db"
    batch_size: 24
    backend: LMDB
  }
}
layer {
  name: "conv1/7x7_s2"
  type: "Convolution"
  bottom: "data"
  top: "conv1/7x7_s2"
  param {
    lr_mult: 1
    decay_mult: 1
  }
  param {
    lr_mult: 2
    decay_mult: 0
  }
  convolution_param {
    num_output: 64
    pad: 3
    kernel_size: 7
    stride: 2
    weight_filler {
      type: "xavier"
      std: 0.1
    }
    bias_filler {
      type: "constant"
      value: 0.2
    }
  }
}
layer {
  name: "conv1/relu_7x7"
  type: "ReLU"
  bottom: "conv1/7x7_s2"
  top: "conv1/7x7_s2"
}
layer {
  name: "pool1/3x3_s2"
  type: "Pooling"
  bottom: "conv1/7x7_s2"
  top: "pool1/3x3_s2"
  pooling_param {
    pool: MAX
    kernel_size: 3
    stride: 2
  }
}
layer {
  name: "pool1/norm1"
  type: "LRN"
  bottom: "pool1/3x3_s2"
  top: "pool1/norm1"
  lrn_param {
    local_size: 5
    alpha: 0.0001
    beta: 0.75
  }
}
layer {
  name: "conv2/3x3_reduce"
  type: "Convolution"
  bottom: "pool1/norm1"
  top: "conv2/3x3_reduce"
  param {
    lr_mult: 1
    decay_mult: 1
  }
  param {
    lr_mult: 2
    decay_mult: 0
  }
  convolution_param {
    num_output: 64
    kernel_size: 1
    weight_filler {
      type: "xavier"
      std: 0.1
    }
    bias_filler {
      type: "constant"
      value: 0.2
    }
  }
}
layer {
  name: "conv2/relu_3x3_reduce"
  type: "ReLU"
  bottom: "conv2/3x3_reduce"
  top: "conv2/3x3_reduce"
}
layer {
  name: "conv2/3x3"
  type: "Convolution"
  bottom: "conv2/3x3_reduce"
  top: "conv2/3x3"
  param {
    lr_mult: 1
    decay_mult: 1
  }
  param {
    lr_mult: 2
    decay_mult: 0
  }
  convolution_param {
    num_output: 192
    pad: 1
    kernel_size: 3
    weight_filler {
      type: "xavier"
      std: 0.03
    }
    bias_filler {
      type: "constant"
      value: 0.2
    }
  }
}
layer {
  name: "conv2/relu_3x3"
  type: "ReLU"
  bottom: "conv2/3x3"
  top: "conv2/3x3"
}
layer {
  name: "conv2/norm2"
  type: "LRN"
  bottom: "conv2/3x3"
  top: "conv2/norm2"
  lrn_param {
    local_size: 5
    alpha: 0.0001
    beta: 0.75
  }
}
layer {
  name: "pool2/3x3_s2"
  type: "Pooling"
  bottom: "conv2/norm2"
  top: "pool2/3x3_s2"
  pooling_param {
    pool: MAX
    kernel_size: 3
    stride: 2
  }
}
layer {
  name: "inception_3a/1x1"
  type: "Convolution"
  bottom: "pool2/3x3_s2"
  top: "inception_3a/1x1"
  param {
    lr_mult: 1
    decay_mult: 1
  }
  param {
    lr_mult: 2
    decay_mult: 0
  }
  convolution_param {
    num_output: 64
    kernel_size: 1
    weight_filler {
      type: "xavier"
      std: 0.03
    }
    bias_filler {
      type: "constant"
      value: 0.2
    }
  }
}
layer {
  name: "inception_3a/relu_1x1"
  type: "ReLU"
  bottom: "inception_3a/1x1"
  top: "inception_3a/1x1"
}
layer {
  name: "inception_3a/3x3_reduce"
  type: "Convolution"
  bottom: "pool2/3x3_s2"
  top: "inception_3a/3x3_reduce"
  param {
    lr_mult: 1
    decay_mult: 1
  }
  param {
    lr_mult: 2
    decay_mult: 0
  }
  convolution_param {
    num_output: 96
    kernel_size: 1
    weight_filler {
      type: "xavier"
      std: 0.09
    }
    bias_filler {
      type: "constant"
      value: 0.2
    }
  }
}
layer {
  name: "inception_3a/relu_3x3_reduce"
  type: "ReLU"
  bottom: "inception_3a/3x3_reduce"
  top: "inception_3a/3x3_reduce"
}
layer {
  name: "inception_3a/3x3"
  type: "Convolution"
  bottom: "inception_3a/3x3_reduce"
  top: "inception_3a/3x3"
  param {
    lr_mult: 1
    decay_mult: 1
  }
  param {
    lr_mult: 2
    decay_mult: 0
  }
  convolution_param {
    num_output: 128
    pad: 1
    kernel_size: 3
    weight_filler {
      type: "xavier"
      std: 0.03
    }
    bias_filler {
      type: "constant"
      value: 0.2
    }
  }
}
layer {
  name: "inception_3a/relu_3x3"
  type: "ReLU"
  bottom: "inception_3a/3x3"
  top: "inception_3a/3x3"
}
layer {
  name: "inception_3a/5x5_reduce"
  type: "Convolution"
  bottom: "pool2/3x3_s2"
  top: "inception_3a/5x5_reduce"
  param {
    lr_mult: 1
    decay_mult: 1
  }
  param {
    lr_mult: 2
    decay_mult: 0
  }
  convolution_param {
    num_output: 16
    kernel_size: 1
    weight_filler {
      type: "xavier"
      std: 0.2
    }
    bias_filler {
      type: "constant"
      value: 0.2
    }
  }
}
layer {
  name: "inception_3a/relu_5x5_reduce"
  type: "ReLU"
  bottom: "inception_3a/5x5_reduce"
  top: "inception_3a/5x5_reduce"
}
layer {
  name: "inception_3a/5x5"
  type: "Convolution"
  bottom: "inception_3a/5x5_reduce"
  top: "inception_3a/5x5"
  param {
    lr_mult: 1
    decay_mult: 1
  }
  param {
    lr_mult: 2
    decay_mult: 0
  }
  convolution_param {
    num_output: 32
    pad: 2
    kernel_size: 5
    weight_filler {
      type: "xavier"
      std: 0.03
    }
    bias_filler {
      type: "constant"
      value: 0.2
    }
  }
}
layer {
  name: "inception_3a/relu_5x5"
  type: "ReLU"
  bottom: "inception_3a/5x5"
  top: "inception_3a/5x5"
}
layer {
  name: "inception_3a/pool"
  type: "Pooling"
  bottom: "pool2/3x3_s2"
  top: "inception_3a/pool"
  pooling_param {
    pool: MAX
    kernel_size: 3
    stride: 1
    pad: 1
  }
}
layer {
  name: "inception_3a/pool_proj"
  type: "Convolution"
  bottom: "inception_3a/pool"
  top: "inception_3a/pool_proj"
  param {
    lr_mult: 1
    decay_mult: 1
  }
  param {
    lr_mult: 2
    decay_mult: 0
  }
  convolution_param {
    num_output: 32
    kernel_size: 1
    weight_filler {
      type: "xavier"
      std: 0.1
    }
    bias_filler {
      type: "constant"
      value: 0.2
    }
  }
}
layer {
  name: "inception_3a/relu_pool_proj"
  type: "ReLU"
  bottom: "inception_3a/pool_proj"
  top: "inception_3a/pool_proj"
}
layer {
  name: "inception_3a/output"
  type: "Concat"
  bottom: "inception_3a/1x1"
  bottom: "inception_3a/3x3"
  bottom: "inception_3a/5x5"
  bottom: "inception_3a/pool_proj"
  top: "inception_3a/output"
}
layer {
  name: "inception_3b/1x1"
  type: "Convolution"
  bottom: "inception_3a/output"
  top: "inception_3b/1x1"
  param {
    lr_mult: 1
    decay_mult: 1
  }
  param {
    lr_mult: 2
    decay_mult: 0
  }
  convolution_param {
    num_output: 128
    kernel_size: 1
    weight_filler {
      type: "xavier"
      std: 0.03
    }
    bias_filler {
      type: "constant"
      value: 0.2
    }
  }
}
layer {
  name: "inception_3b/relu_1x1"
  type: "ReLU"
  bottom: "inception_3b/1x1"
  top: "inception_3b/1x1"
}
layer {
  name: "inception_3b/3x3_reduce"
  type: "Convolution"
  bottom: "inception_3a/output"
  top: "inception_3b/3x3_reduce"
  param {
    lr_mult: 1
    decay_mult: 1
  }
  param {
    lr_mult: 2
    decay_mult: 0
  }
  convolution_param {
    num_output: 128
    kernel_size: 1
    weight_filler {
      type: "xavier"
      std: 0.09
    }
    bias_filler {
      type: "constant"
      value: 0.2
    }
  }
}
layer {
  name: "inception_3b/relu_3x3_reduce"
  type: "ReLU"
  bottom: "inception_3b/3x3_reduce"
  top: "inception_3b/3x3_reduce"
}
layer {
  name: "inception_3b/3x3"
  type: "Convolution"
  bottom: "inception_3b/3x3_reduce"
  top: "inception_3b/3x3"
  param {
    lr_mult: 1
    decay_mult: 1
  }
  param {
    lr_mult: 2
    decay_mult: 0
  }
  convolution_param {
    num_output: 192
    pad: 1
    kernel_size: 3
    weight_filler {
      type: "xavier"
      std: 0.03
    }
    bias_filler {
      type: "constant"
      value: 0.2
    }
  }
}
layer {
  name: "inception_3b/relu_3x3"
  type: "ReLU"
  bottom: "inception_3b/3x3"
  top: "inception_3b/3x3"
}
layer {
  name: "inception_3b/5x5_reduce"
  type: "Convolution"
  bottom: "inception_3a/output"
  top: "inception_3b/5x5_reduce"
  param {
    lr_mult: 1
    decay_mult: 1
  }
  param {
    lr_mult: 2
    decay_mult: 0
  }
  convolution_param {
    num_output: 32
    kernel_size: 1
    weight_filler {
      type: "xavier"
      std: 0.2
    }
    bias_filler {
      type: "constant"
      value: 0.2
    }
  }
}
layer {
  name: "inception_3b/relu_5x5_reduce"
  type: "ReLU"
  bottom: "inception_3b/5x5_reduce"
  top: "inception_3b/5x5_reduce"
}
layer {
  name: "inception_3b/5x5"
  type: "Convolution"
  bottom: "inception_3b/5x5_reduce"
  top: "inception_3b/5x5"
  param {
    lr_mult: 1
    decay_mult: 1
  }
  param {
    lr_mult: 2
    decay_mult: 0
  }
  convolution_param {
    num_output: 96
    pad: 2
    kernel_size: 5
    weight_filler {
      type: "xavier"
      std: 0.03
    }
    bias_filler {
      type: "constant"
      value: 0.2
    }
  }
}
layer {
  name: "inception_3b/relu_5x5"
  type: "ReLU"
  bottom: "inception_3b/5x5"
  top: "inception_3b/5x5"
}
layer {
  name: "inception_3b/pool"
  type: "Pooling"
  bottom: "inception_3a/output"
  top: "inception_3b/pool"
  pooling_param {
    pool: MAX
    kernel_size: 3
    stride: 1
    pad: 1
  }
}
layer {
  name: "inception_3b/pool_proj"
  type: "Convolution"
  bottom: "inception_3b/pool"
  top: "inception_3b/pool_proj"
  param {
    lr_mult: 1
    decay_mult: 1
  }
  param {
    lr_mult: 2
    decay_mult: 0
  }
  convolution_param {
    num_output: 64
    kernel_size: 1
    weight_filler {
      type: "xavier"
      std: 0.1
    }
    bias_filler {
      type: "constant"
      value: 0.2
    }
  }
}
layer {
  name: "inception_3b/relu_pool_proj"
  type: "ReLU"
  bottom: "inception_3b/pool_proj"
  top: "inception_3b/pool_proj"
}
layer {
  name: "inception_3b/output"
  type: "Concat"
  bottom: "inception_3b/1x1"
  bottom: "inception_3b/3x3"
  bottom: "inception_3b/5x5"
  bottom: "inception_3b/pool_proj"
  top: "inception_3b/output"
}
layer {
  name: "pool3/3x3_s2"
  type: "Pooling"
  bottom: "inception_3b/output"
  top: "pool3/3x3_s2"
  pooling_param {
    pool: MAX
    kernel_size: 3
    stride: 2
  }
}
layer {
  name: "inception_4a/1x1"
  type: "Convolution"
  bottom: "pool3/3x3_s2"
  top: "inception_4a/1x1"
  param {
    lr_mult: 1
    decay_mult: 1
  }
  param {
    lr_mult: 2
    decay_mult: 0
  }
  convolution_param {
    num_output: 192
    kernel_size: 1
    weight_filler {
      type: "xavier"
      std: 0.03
    }
    bias_filler {
      type: "constant"
      value: 0.2
    }
  }
}
layer {
  name: "inception_4a/relu_1x1"
  type: "ReLU"
  bottom: "inception_4a/1x1"
  top: "inception_4a/1x1"
}
layer {
  name: "inception_4a/3x3_reduce"
  type: "Convolution"
  bottom: "pool3/3x3_s2"
  top: "inception_4a/3x3_reduce"
  param {
    lr_mult: 1
    decay_mult: 1
  }
  param {
    lr_mult: 2
    decay_mult: 0
  }
  convolution_param {
    num_output: 96
    kernel_size: 1
    weight_filler {
      type: "xavier"
      std: 0.09
    }
    bias_filler {
      type: "constant"
      value: 0.2
    }
  }
}
layer {
  name: "inception_4a/relu_3x3_reduce"
  type: "ReLU"
  bottom: "inception_4a/3x3_reduce"
  top: "inception_4a/3x3_reduce"
}
layer {
  name: "inception_4a/3x3"
  type: "Convolution"
  bottom: "inception_4a/3x3_reduce"
  top: "inception_4a/3x3"
  param {
    lr_mult: 1
    decay_mult: 1
  }
  param {
    lr_mult: 2
    decay_mult: 0
  }
  convolution_param {
    num_output: 208
    pad: 1
    kernel_size: 3
    weight_filler {
      type: "xavier"
      std: 0.03
    }
    bias_filler {
      type: "constant"
      value: 0.2
    }
  }
}
layer {
  name: "inception_4a/relu_3x3"
  type: "ReLU"
  bottom: "inception_4a/3x3"
  top: "inception_4a/3x3"
}
layer {
  name: "inception_4a/5x5_reduce"
  type: "Convolution"
  bottom: "pool3/3x3_s2"
  top: "inception_4a/5x5_reduce"
  param {
    lr_mult: 1
    decay_mult: 1
  }
  param {
    lr_mult: 2
    decay_mult: 0
  }
  convolution_param {
    num_output: 16
    kernel_size: 1
    weight_filler {
      type: "xavier"
      std: 0.2
    }
    bias_filler {
      type: "constant"
      value: 0.2
    }
  }
}
layer {
  name: "inception_4a/relu_5x5_reduce"
  type: "ReLU"
  bottom: "inception_4a/5x5_reduce"
  top: "inception_4a/5x5_reduce"
}
layer {
  name: "inception_4a/5x5"
  type: "Convolution"
  bottom: "inception_4a/5x5_reduce"
  top: "inception_4a/5x5"
  param {
    lr_mult: 1
    decay_mult: 1
  }
  param {
    lr_mult: 2
    decay_mult: 0
  }
  convolution_param {
    num_output: 48
    pad: 2
    kernel_size: 5
    weight_filler {
      type: "xavier"
      std: 0.03
    }
    bias_filler {
      type: "constant"
      value: 0.2
    }
  }
}
layer {
  name: "inception_4a/relu_5x5"
  type: "ReLU"
  bottom: "inception_4a/5x5"
  top: "inception_4a/5x5"
}
layer {
  name: "inception_4a/pool"
  type: "Pooling"
  bottom: "pool3/3x3_s2"
  top: "inception_4a/pool"
  pooling_param {
    pool: MAX
    kernel_size: 3
    stride: 1
    pad: 1
  }
}
layer {
  name: "inception_4a/pool_proj"
  type: "Convolution"
  bottom: "inception_4a/pool"
  top: "inception_4a/pool_proj"
  param {
    lr_mult: 1
    decay_mult: 1
  }
  param {
    lr_mult: 2
    decay_mult: 0
  }
  convolution_param {
    num_output: 64
    kernel_size: 1
    weight_filler {
      type: "xavier"
      std: 0.1
    }
    bias_filler {
      type: "constant"
      value: 0.2
    }
  }
}
layer {
  name: "inception_4a/relu_pool_proj"
  type: "ReLU"
  bottom: "inception_4a/pool_proj"
  top: "inception_4a/pool_proj"
}
layer {
  name: "inception_4a/output"
  type: "Concat"
  bottom: "inception_4a/1x1"
  bottom: "inception_4a/3x3"
  bottom: "inception_4a/5x5"
  bottom: "inception_4a/pool_proj"
  top: "inception_4a/output"
}
layer {
  name: "loss1/ave_pool"
  type: "Pooling"
  bottom: "inception_4a/output"
  top: "loss1/ave_pool"
  pooling_param {
    pool: AVE
    kernel_size: 5
    stride: 3
  }
}
layer {
  name: "loss1/conv"
  type: "Convolution"
  bottom: "loss1/ave_pool"
  top: "loss1/conv"
  param {
    lr_mult: 1
    decay_mult: 1
  }
  param {
    lr_mult: 2
    decay_mult: 0
  }
  convolution_param {
    num_output: 128
    kernel_size: 1
    weight_filler {
      type: "xavier"
      std: 0.08
    }
    bias_filler {
      type: "constant"
      value: 0.2
    }
  }
}
layer {
  name: "loss1/relu_conv"
  type: "ReLU"
  bottom: "loss1/conv"
  top: "loss1/conv"
}
layer {
  name: "loss1/fc"
  type: "InnerProduct"
  bottom: "loss1/conv"
  top: "loss1/fc"
  param {
    lr_mult: 1
    decay_mult: 1
  }
  param {
    lr_mult: 2
    decay_mult: 0
  }
  inner_product_param {
    num_output: 1024
    weight_filler {
      type: "xavier"
      std: 0.02
    }
    bias_filler {
      type: "constant"
      value: 0.2
    }
  }
}
layer {
  name: "loss1/relu_fc"
  type: "ReLU"
  bottom: "loss1/fc"
  top: "loss1/fc"
}
layer {
  name: "loss1/drop_fc"
  type: "Dropout"
  bottom: "loss1/fc"
  top: "loss1/fc"
  dropout_param {
    dropout_ratio: 0.7
  }
}
layer {
  name: "loss1/classifier_plantvillage"
  type: "InnerProduct"
  bottom: "loss1/fc"
  top: "loss1/classifier_plantvillage"
  param {
    lr_mult: 1
    decay_mult: 1
  }
  param {
    lr_mult: 2
    decay_mult: 0
  }
  inner_product_param {
    num_output: 38
    weight_filler {
      type: "xavier"
      std: 0.0009765625
    }
    bias_filler {
      type: "constant"
      value: 0
    }
  }
}
layer {
  name: "inception_4b/1x1"
  type: "Convolution"
  bottom: "inception_4a/output"
  top: "inception_4b/1x1"
  param {
    lr_mult: 1
    decay_mult: 1
  }
  param {
    lr_mult: 2
    decay_mult: 0
  }
  convolution_param {
    num_output: 160
    kernel_size: 1
    weight_filler {
      type: "xavier"
      std: 0.03
    }
    bias_filler {
      type: "constant"
      value: 0.2
    }
  }
}
layer {
  name: "inception_4b/relu_1x1"
  type: "ReLU"
  bottom: "inception_4b/1x1"
  top: "inception_4b/1x1"
}
layer {
  name: "inception_4b/3x3_reduce"
  type: "Convolution"
  bottom: "inception_4a/output"
  top: "inception_4b/3x3_reduce"
  param {
    lr_mult: 1
    decay_mult: 1
  }
  param {
    lr_mult: 2
    decay_mult: 0
  }
  convolution_param {
    num_output: 112
    kernel_size: 1
    weight_filler {
      type: "xavier"
      std: 0.09
    }
    bias_filler {
      type: "constant"
      value: 0.2
    }
  }
}
layer {
  name: "inception_4b/relu_3x3_reduce"
  type: "ReLU"
  bottom: "inception_4b/3x3_reduce"
  top: "inception_4b/3x3_reduce"
}
layer {
  name: "inception_4b/3x3"
  type: "Convolution"
  bottom: "inception_4b/3x3_reduce"
  top: "inception_4b/3x3"
  param {
    lr_mult: 1
    decay_mult: 1
  }
  param {
    lr_mult: 2
    decay_mult: 0
  }
  convolution_param {
    num_output: 224
    pad: 1
    kernel_size: 3
    weight_filler {
      type: "xavier"
      std: 0.03
    }
    bias_filler {
      type: "constant"
      value: 0.2
    }
  }
}
layer {
  name: "inception_4b/relu_3x3"
  type: "ReLU"
  bottom: "inception_4b/3x3"
  top: "inception_4b/3x3"
}
layer {
  name: "inception_4b/5x5_reduce"
  type: "Convolution"
  bottom: "inception_4a/output"
  top: "inception_4b/5x5_reduce"
  param {
    lr_mult: 1
    decay_mult: 1
  }
  param {
    lr_mult: 2
    decay_mult: 0
  }
  convolution_param {
    num_output: 24
    kernel_size: 1
    weight_filler {
      type: "xavier"
      std: 0.2
    }
    bias_filler {
      type: "constant"
      value: 0.2
    }
  }
}
layer {
  name: "inception_4b/relu_5x5_reduce"
  type: "ReLU"
  bottom: "inception_4b/5x5_reduce"
  top: "inception_4b/5x5_reduce"
}
layer {
  name: "inception_4b/5x5"
  type: "Convolution"
  bottom: "inception_4b/5x5_reduce"
  top: "inception_4b/5x5"
  param {
    lr_mult: 1
    decay_mult: 1
  }
  param {
    lr_mult: 2
    decay_mult: 0
  }
  convolution_param {
    num_output: 64
    pad: 2
    kernel_size: 5
    weight_filler {
      type: "xavier"
      std: 0.03
    }
    bias_filler {
      type: "constant"
      value: 0.2
    }
  }
}
layer {
  name: "inception_4b/relu_5x5"
  type: "ReLU"
  bottom: "inception_4b/5x5"
  top: "inception_4b/5x5"
}
layer {
  name: "inception_4b/pool"
  type: "Pooling"
  bottom: "inception_4a/output"
  top: "inception_4b/pool"
  pooling_param {
    pool: MAX
    kernel_size: 3
    stride: 1
    pad: 1
  }
}
layer {
  name: "inception_4b/pool_proj"
  type: "Convolution"
  bottom: "inception_4b/pool"
  top: "inception_4b/pool_proj"
  param {
    lr_mult: 1
    decay_mult: 1
  }
  param {
    lr_mult: 2
    decay_mult: 0
  }
  convolution_param {
    num_output: 64
    kernel_size: 1
    weight_filler {
      type: "xavier"
      std: 0.1
    }
    bias_filler {
      type: "constant"
      value: 0.2
    }
  }
}
layer {
  name: "inception_4b/relu_pool_proj"
  type: "ReLU"
  bottom: "inception_4b/pool_proj"
  top: "inception_4b/pool_proj"
}
layer {
  name: "inception_4b/output"
  type: "Concat"
  bottom: "inception_4b/1x1"
  bottom: "inception_4b/3x3"
  bottom: "inception_4b/5x5"
  bottom: "inception_4b/pool_proj"
  top: "inception_4b/output"
}
layer {
  name: "inception_4c/1x1"
  type: "Convolution"
  bottom: "inception_4b/output"
  top: "inception_4c/1x1"
  param {
    lr_mult: 1
    decay_mult: 1
  }
  param {
    lr_mult: 2
    decay_mult: 0
  }
  convolution_param {
    num_output: 128
    kernel_size: 1
    weight_filler {
      type: "xavier"
      std: 0.03
    }
    bias_filler {
      type: "constant"
      value: 0.2
    }
  }
}
layer {
  name: "inception_4c/relu_1x1"
  type: "ReLU"
  bottom: "inception_4c/1x1"
  top: "inception_4c/1x1"
}
layer {
  name: "inception_4c/3x3_reduce"
  type: "Convolution"
  bottom: "inception_4b/output"
  top: "inception_4c/3x3_reduce"
  param {
    lr_mult: 1
    decay_mult: 1
  }
  param {
    lr_mult: 2
    decay_mult: 0
  }
  convolution_param {
    num_output: 128
    kernel_size: 1
    weight_filler {
      type: "xavier"
      std: 0.09
    }
    bias_filler {
      type: "constant"
      value: 0.2
    }
  }
}
layer {
  name: "inception_4c/relu_3x3_reduce"
  type: "ReLU"
  bottom: "inception_4c/3x3_reduce"
  top: "inception_4c/3x3_reduce"
}
layer {
  name: "inception_4c/3x3"
  type: "Convolution"
  bottom: "inception_4c/3x3_reduce"
  top: "inception_4c/3x3"
  param {
    lr_mult: 1
    decay_mult: 1
  }
  param {
    lr_mult: 2
    decay_mult: 0
  }
  convolution_param {
    num_output: 256
    pad: 1
    kernel_size: 3
    weight_filler {
      type: "xavier"
      std: 0.03
    }
    bias_filler {
      type: "constant"
      value: 0.2
    }
  }
}
layer {
  name: "inception_4c/relu_3x3"
  type: "ReLU"
  bottom: "inception_4c/3x3"
  top: "inception_4c/3x3"
}
layer {
  name: "inception_4c/5x5_reduce"
  type: "Convolution"
  bottom: "inception_4b/output"
  top: "inception_4c/5x5_reduce"
  param {
    lr_mult: 1
    decay_mult: 1
  }
  param {
    lr_mult: 2
    decay_mult: 0
  }
  convolution_param {
    num_output: 24
    kernel_size: 1
    weight_filler {
      type: "xavier"
      std: 0.2
    }
    bias_filler {
      type: "constant"
      value: 0.2
    }
  }
}
layer {
  name: "inception_4c/relu_5x5_reduce"
  type: "ReLU"
  bottom: "inception_4c/5x5_reduce"
  top: "inception_4c/5x5_reduce"
}
layer {
  name: "inception_4c/5x5"
  type: "Convolution"
  bottom: "inception_4c/5x5_reduce"
  top: "inception_4c/5x5"
  param {
    lr_mult: 1
    decay_mult: 1
  }
  param {
    lr_mult: 2
    decay_mult: 0
  }
  convolution_param {
    num_output: 64
    pad: 2
    kernel_size: 5
    weight_filler {
      type: "xavier"
      std: 0.03
    }
    bias_filler {
      type: "constant"
      value: 0.2
    }
  }
}
layer {
  name: "inception_4c/relu_5x5"
  type: "ReLU"
  bottom: "inception_4c/5x5"
  top: "inception_4c/5x5"
}
layer {
  name: "inception_4c/pool"
  type: "Pooling"
  bottom: "inception_4b/output"
  top: "inception_4c/pool"
  pooling_param {
    pool: MAX
    kernel_size: 3
    stride: 1
    pad: 1
  }
}
layer {
  name: "inception_4c/pool_proj"
  type: "Convolution"
  bottom: "inception_4c/pool"
  top: "inception_4c/pool_proj"
  param {
    lr_mult: 1
    decay_mult: 1
  }
  param {
    lr_mult: 2
    decay_mult: 0
  }
  convolution_param {
    num_output: 64
    kernel_size: 1
    weight_filler {
      type: "xavier"
      std: 0.1
    }
    bias_filler {
      type: "constant"
      value: 0.2
    }
  }
}
layer {
  name: "inception_4c/relu_pool_proj"
  type: "ReLU"
  bottom: "inception_4c/pool_proj"
  top: "inception_4c/pool_proj"
}
layer {
  name: "inception_4c/output"
  type: "Concat"
  bottom: "inception_4c/1x1"
  bottom: "inception_4c/3x3"
  bottom: "inception_4c/5x5"
  bottom: "inception_4c/pool_proj"
  top: "inception_4c/output"
}
layer {
  name: "inception_4d/1x1"
  type: "Convolution"
  bottom: "inception_4c/output"
  top: "inception_4d/1x1"
  param {
    lr_mult: 1
    decay_mult: 1
  }
  param {
    lr_mult: 2
    decay_mult: 0
  }
  convolution_param {
    num_output: 112
    kernel_size: 1
    weight_filler {
      type: "xavier"
      std: 0.03
    }
    bias_filler {
      type: "constant"
      value: 0.2
    }
  }
}
layer {
  name: "inception_4d/relu_1x1"
  type: "ReLU"
  bottom: "inception_4d/1x1"
  top: "inception_4d/1x1"
}
layer {
  name: "inception_4d/3x3_reduce"
  type: "Convolution"
  bottom: "inception_4c/output"
  top: "inception_4d/3x3_reduce"
  param {
    lr_mult: 1
    decay_mult: 1
  }
  param {
    lr_mult: 2
    decay_mult: 0
  }
  convolution_param {
    num_output: 144
    kernel_size: 1
    weight_filler {
      type: "xavier"
      std: 0.09
    }
    bias_filler {
      type: "constant"
      value: 0.2
    }
  }
}
layer {
  name: "inception_4d/relu_3x3_reduce"
  type: "ReLU"
  bottom: "inception_4d/3x3_reduce"
  top: "inception_4d/3x3_reduce"
}
layer {
  name: "inception_4d/3x3"
  type: "Convolution"
  bottom: "inception_4d/3x3_reduce"
  top: "inception_4d/3x3"
  param {
    lr_mult: 1
    decay_mult: 1
  }
  param {
    lr_mult: 2
    decay_mult: 0
  }
  convolution_param {
    num_output: 288
    pad: 1
    kernel_size: 3
    weight_filler {
      type: "xavier"
      std: 0.03
    }
    bias_filler {
      type: "constant"
      value: 0.2
    }
  }
}
layer {
  name: "inception_4d/relu_3x3"
  type: "ReLU"
  bottom: "inception_4d/3x3"
  top: "inception_4d/3x3"
}
layer {
  name: "inception_4d/5x5_reduce"
  type: "Convolution"
  bottom: "inception_4c/output"
  top: "inception_4d/5x5_reduce"
  param {
    lr_mult: 1
    decay_mult: 1
  }
  param {
    lr_mult: 2
    decay_mult: 0
  }
  convolution_param {
    num_output: 32
    kernel_size: 1
    weight_filler {
      type: "xavier"
      std: 0.2
    }
    bias_filler {
      type: "constant"
      value: 0.2
    }
  }
}
layer {
  name: "inception_4d/relu_5x5_reduce"
  type: "ReLU"
  bottom: "inception_4d/5x5_reduce"
  top: "inception_4d/5x5_reduce"
}
layer {
  name: "inception_4d/5x5"
  type: "Convolution"
  bottom: "inception_4d/5x5_reduce"
  top: "inception_4d/5x5"
  param {
    lr_mult: 1
    decay_mult: 1
  }
  param {
    lr_mult: 2
    decay_mult: 0
  }
  convolution_param {
    num_output: 64
    pad: 2
    kernel_size: 5
    weight_filler {
      type: "xavier"
      std: 0.03
    }
    bias_filler {
      type: "constant"
      value: 0.2
    }
  }
}
layer {
  name: "inception_4d/relu_5x5"
  type: "ReLU"
  bottom: "inception_4d/5x5"
  top: "inception_4d/5x5"
}
layer {
  name: "inception_4d/pool"
  type: "Pooling"
  bottom: "inception_4c/output"
  top: "inception_4d/pool"
  pooling_param {
    pool: MAX
    kernel_size: 3
    stride: 1
    pad: 1
  }
}
layer {
  name: "inception_4d/pool_proj"
  type: "Convolution"
  bottom: "inception_4d/pool"
  top: "inception_4d/pool_proj"
  param {
    lr_mult: 1
    decay_mult: 1
  }
  param {
    lr_mult: 2
    decay_mult: 0
  }
  convolution_param {
    num_output: 64
    kernel_size: 1
    weight_filler {
      type: "xavier"
      std: 0.1
    }
    bias_filler {
      type: "constant"
      value: 0.2
    }
  }
}
layer {
  name: "inception_4d/relu_pool_proj"
  type: "ReLU"
  bottom: "inception_4d/pool_proj"
  top: "inception_4d/pool_proj"
}
layer {
  name: "inception_4d/output"
  type: "Concat"
  bottom: "inception_4d/1x1"
  bottom: "inception_4d/3x3"
  bottom: "inception_4d/5x5"
  bottom: "inception_4d/pool_proj"
  top: "inception_4d/output"
}
layer {
  name: "loss2/ave_pool"
  type: "Pooling"
  bottom: "inception_4d/output"
  top: "loss2/ave_pool"
  pooling_param {
    pool: AVE
    kernel_size: 5
    stride: 3
  }
}
layer {
  name: "loss2/conv"
  type: "Convolution"
  bottom: "loss2/ave_pool"
  top: "loss2/conv"
  param {
    lr_mult: 1
    decay_mult: 1
  }
  param {
    lr_mult: 2
    decay_mult: 0
  }
  convolution_param {
    num_output: 128
    kernel_size: 1
    weight_filler {
      type: "xavier"
      std: 0.08
    }
    bias_filler {
      type: "constant"
      value: 0.2
    }
  }
}
layer {
  name: "loss2/relu_conv"
  type: "ReLU"
  bottom: "loss2/conv"
  top: "loss2/conv"
}
layer {
  name: "loss2/fc"
  type: "InnerProduct"
  bottom: "loss2/conv"
  top: "loss2/fc"
  param {
    lr_mult: 1
    decay_mult: 1
  }
  param {
    lr_mult: 2
    decay_mult: 0
  }
  inner_product_param {
    num_output: 1024
    weight_filler {
      type: "xavier"
      std: 0.02
    }
    bias_filler {
      type: "constant"
      value: 0.2
    }
  }
}
layer {
  name: "loss2/relu_fc"
  type: "ReLU"
  bottom: "loss2/fc"
  top: "loss2/fc"
}
layer {
  name: "loss2/drop_fc"
  type: "Dropout"
  bottom: "loss2/fc"
  top: "loss2/fc"
  dropout_param {
    dropout_ratio: 0.7
  }
}
layer {
  name: "loss2/classifier_plantvillage"
  type: "InnerProduct"
  bottom: "loss2/fc"
  top: "loss2/classifier_plantvillage"
  param {
    lr_mult: 1
    decay_mult: 1
  }
  param {
    lr_mult: 2
    decay_mult: 0
  }
  inner_product_param {
    num_output: 38
    weight_filler {
      type: "xavier"
      std: 0.0009765625
    }
    bias_filler {
      type: "constant"
      value: 0
    }
  }
}
layer {
  name: "inception_4e/1x1"
  type: "Convolution"
  bottom: "inception_4d/output"
  top: "inception_4e/1x1"
  param {
    lr_mult: 1
    decay_mult: 1
  }
  param {
    lr_mult: 2
    decay_mult: 0
  }
  convolution_param {
    num_output: 256
    kernel_size: 1
    weight_filler {
      type: "xavier"
      std: 0.03
    }
    bias_filler {
      type: "constant"
      value: 0.2
    }
  }
}
layer {
  name: "inception_4e/relu_1x1"
  type: "ReLU"
  bottom: "inception_4e/1x1"
  top: "inception_4e/1x1"
}
layer {
  name: "inception_4e/3x3_reduce"
  type: "Convolution"
  bottom: "inception_4d/output"
  top: "inception_4e/3x3_reduce"
  param {
    lr_mult: 1
    decay_mult: 1
  }
  param {
    lr_mult: 2
    decay_mult: 0
  }
  convolution_param {
    num_output: 160
    kernel_size: 1
    weight_filler {
      type: "xavier"
      std: 0.09
    }
    bias_filler {
      type: "constant"
      value: 0.2
    }
  }
}
layer {
  name: "inception_4e/relu_3x3_reduce"
  type: "ReLU"
  bottom: "inception_4e/3x3_reduce"
  top: "inception_4e/3x3_reduce"
}
layer {
  name: "inception_4e/3x3"
  type: "Convolution"
  bottom: "inception_4e/3x3_reduce"
  top: "inception_4e/3x3"
  param {
    lr_mult: 1
    decay_mult: 1
  }
  param {
    lr_mult: 2
    decay_mult: 0
  }
  convolution_param {
    num_output: 320
    pad: 1
    kernel_size: 3
    weight_filler {
      type: "xavier"
      std: 0.03
    }
    bias_filler {
      type: "constant"
      value: 0.2
    }
  }
}
layer {
  name: "inception_4e/relu_3x3"
  type: "ReLU"
  bottom: "inception_4e/3x3"
  top: "inception_4e/3x3"
}
layer {
  name: "inception_4e/5x5_reduce"
  type: "Convolution"
  bottom: "inception_4d/output"
  top: "inception_4e/5x5_reduce"
  param {
    lr_mult: 1
    decay_mult: 1
  }
  param {
    lr_mult: 2
    decay_mult: 0
  }
  convolution_param {
    num_output: 32
    kernel_size: 1
    weight_filler {
      type: "xavier"
      std: 0.2
    }
    bias_filler {
      type: "constant"
      value: 0.2
    }
  }
}
layer {
  name: "inception_4e/relu_5x5_reduce"
  type: "ReLU"
  bottom: "inception_4e/5x5_reduce"
  top: "inception_4e/5x5_reduce"
}
layer {
  name: "inception_4e/5x5"
  type: "Convolution"
  bottom: "inception_4e/5x5_reduce"
  top: "inception_4e/
I0403 16:24:24.703487 21032 layer_factory.hpp:77] Creating layer data
I0403 16:24:24.704110 21032 net.cpp:91] Creating Layer data
I0403 16:24:24.704141 21032 net.cpp:399] data -> data
I0403 16:24:24.704195 21032 net.cpp:399] data -> label
I0403 16:24:24.704231 21032 data_transformer.cpp:25] Loading mean file from: /home/mohanty/data/final_dataset/lmdb/grayscale-20-80/mean.binaryproto
I0403 16:24:24.705459 21036 db_lmdb.cpp:38] Opened lmdb /home/mohanty/data/final_dataset/lmdb/grayscale-20-80/test_db
I0403 16:24:24.717495 21032 data_layer.cpp:41] output data size: 24,3,224,224
I0403 16:24:24.747243 21032 net.cpp:141] Setting up data
I0403 16:24:24.747339 21032 net.cpp:148] Top shape: 24 3 224 224 (3612672)
I0403 16:24:24.747362 21032 net.cpp:148] Top shape: 24 (24)
I0403 16:24:24.747378 21032 net.cpp:156] Memory required for data: 14450784
I0403 16:24:24.747406 21032 layer_factory.hpp:77] Creating layer label_data_1_split
I0403 16:24:24.747431 21032 net.cpp:91] Creating Layer label_data_1_split
I0403 16:24:24.747450 21032 net.cpp:425] label_data_1_split <- label
I0403 16:24:24.747483 21032 net.cpp:399] label_data_1_split -> label_data_1_split_0
I0403 16:24:24.747509 21032 net.cpp:399] label_data_1_split -> label_data_1_split_1
I0403 16:24:24.747530 21032 net.cpp:399] label_data_1_split -> label_data_1_split_2
I0403 16:24:24.747551 21032 net.cpp:399] label_data_1_split -> label_data_1_split_3
I0403 16:24:24.747571 21032 net.cpp:399] label_data_1_split -> label_data_1_split_4
I0403 16:24:24.747591 21032 net.cpp:399] label_data_1_split -> label_data_1_split_5
I0403 16:24:24.747609 21032 net.cpp:399] label_data_1_split -> label_data_1_split_6
I0403 16:24:24.747630 21032 net.cpp:399] label_data_1_split -> label_data_1_split_7
I0403 16:24:24.747649 21032 net.cpp:399] label_data_1_split -> label_data_1_split_8
I0403 16:24:24.747669 21032 net.cpp:399] label_data_1_split -> label_data_1_split_9
I0403 16:24:24.747786 21032 net.cpp:141] Setting up label_data_1_split
I0403 16:24:24.747809 21032 net.cpp:148] Top shape: 24 (24)
I0403 16:24:24.747827 21032 net.cpp:148] Top shape: 24 (24)
I0403 16:24:24.747843 21032 net.cpp:148] Top shape: 24 (24)
I0403 16:24:24.747858 21032 net.cpp:148] Top shape: 24 (24)
I0403 16:24:24.747874 21032 net.cpp:148] Top shape: 24 (24)
I0403 16:24:24.747889 21032 net.cpp:148] Top shape: 24 (24)
I0403 16:24:24.747903 21032 net.cpp:148] Top shape: 24 (24)
I0403 16:24:24.747918 21032 net.cpp:148] Top shape: 24 (24)
I0403 16:24:24.747934 21032 net.cpp:148] Top shape: 24 (24)
I0403 16:24:24.747951 21032 net.cpp:148] Top shape: 24 (24)
I0403 16:24:24.747992 21032 net.cpp:156] Memory required for data: 14451744
I0403 16:24:24.748009 21032 layer_factory.hpp:77] Creating layer conv1/7x7_s2
I0403 16:24:24.748051 21032 net.cpp:91] Creating Layer conv1/7x7_s2
I0403 16:24:24.748071 21032 net.cpp:425] conv1/7x7_s2 <- data
I0403 16:24:24.748091 21032 net.cpp:399] conv1/7x7_s2 -> conv1/7x7_s2
I0403 16:24:24.886333 21032 net.cpp:141] Setting up conv1/7x7_s2
I0403 16:24:24.886430 21032 net.cpp:148] Top shape: 24 64 112 112 (19267584)
I0403 16:24:24.886447 21032 net.cpp:156] Memory required for data: 91522080
I0403 16:24:24.886478 21032 layer_factory.hpp:77] Creating layer conv1/relu_7x7
I0403 16:24:24.886507 21032 net.cpp:91] Creating Layer conv1/relu_7x7
I0403 16:24:24.886524 21032 net.cpp:425] conv1/relu_7x7 <- conv1/7x7_s2
I0403 16:24:24.886543 21032 net.cpp:386] conv1/relu_7x7 -> conv1/7x7_s2 (in-place)
I0403 16:24:24.886806 21032 net.cpp:141] Setting up conv1/relu_7x7
I0403 16:24:24.886832 21032 net.cpp:148] Top shape: 24 64 112 112 (19267584)
I0403 16:24:24.886848 21032 net.cpp:156] Memory required for data: 168592416
I0403 16:24:24.886863 21032 layer_factory.hpp:77] Creating layer pool1/3x3_s2
I0403 16:24:24.886888 21032 net.cpp:91] Creating Layer pool1/3x3_s2
I0403 16:24:24.886906 21032 net.cpp:425] pool1/3x3_s2 <- conv1/7x7_s2
I0403 16:24:24.886924 21032 net.cpp:399] pool1/3x3_s2 -> pool1/3x3_s2
I0403 16:24:24.886998 21032 net.cpp:141] Setting up pool1/3x3_s2
I0403 16:24:24.887027 21032 net.cpp:148] Top shape: 24 64 56 56 (4816896)
I0403 16:24:24.887043 21032 net.cpp:156] Memory required for data: 187860000
I0403 16:24:24.887058 21032 layer_factory.hpp:77] Creating layer pool1/norm1
I0403 16:24:24.887082 21032 net.cpp:91] Creating Layer pool1/norm1
I0403 16:24:24.887099 21032 net.cpp:425] pool1/norm1 <- pool1/3x3_s2
I0403 16:24:24.887117 21032 net.cpp:399] pool1/norm1 -> pool1/norm1
I0403 16:24:24.887406 21032 net.cpp:141] Setting up pool1/norm1
I0403 16:24:24.887434 21032 net.cpp:148] Top shape: 24 64 56 56 (4816896)
I0403 16:24:24.887449 21032 net.cpp:156] Memory required for data: 207127584
I0403 16:24:24.887465 21032 layer_factory.hpp:77] Creating layer conv2/3x3_reduce
I0403 16:24:24.887488 21032 net.cpp:91] Creating Layer conv2/3x3_reduce
I0403 16:24:24.887504 21032 net.cpp:425] conv2/3x3_reduce <- pool1/norm1
I0403 16:24:24.887522 21032 net.cpp:399] conv2/3x3_reduce -> conv2/3x3_reduce
I0403 16:24:24.888856 21032 net.cpp:141] Setting up conv2/3x3_reduce
I0403 16:24:24.888886 21032 net.cpp:148] Top shape: 24 64 56 56 (4816896)
I0403 16:24:24.888902 21032 net.cpp:156] Memory required for data: 226395168
I0403 16:24:24.888924 21032 layer_factory.hpp:77] Creating layer conv2/relu_3x3_reduce
I0403 16:24:24.888943 21032 net.cpp:91] Creating Layer conv2/relu_3x3_reduce
I0403 16:24:24.888959 21032 net.cpp:425] conv2/relu_3x3_reduce <- conv2/3x3_reduce
I0403 16:24:24.888977 21032 net.cpp:386] conv2/relu_3x3_reduce -> conv2/3x3_reduce (in-place)
I0403 16:24:24.889235 21032 net.cpp:141] Setting up conv2/relu_3x3_reduce
I0403 16:24:24.889261 21032 net.cpp:148] Top shape: 24 64 56 56 (4816896)
I0403 16:24:24.889276 21032 net.cpp:156] Memory required for data: 245662752
I0403 16:24:24.889292 21032 layer_factory.hpp:77] Creating layer conv2/3x3
I0403 16:24:24.889313 21032 net.cpp:91] Creating Layer conv2/3x3
I0403 16:24:24.889330 21032 net.cpp:425] conv2/3x3 <- conv2/3x3_reduce
I0403 16:24:24.889348 21032 net.cpp:399] conv2/3x3 -> conv2/3x3
I0403 16:24:24.891633 21032 net.cpp:141] Setting up conv2/3x3
I0403 16:24:24.891664 21032 net.cpp:148] Top shape: 24 192 56 56 (14450688)
I0403 16:24:24.891680 21032 net.cpp:156] Memory required for data: 303465504
I0403 16:24:24.891701 21032 layer_factory.hpp:77] Creating layer conv2/relu_3x3
I0403 16:24:24.891721 21032 net.cpp:91] Creating Layer conv2/relu_3x3
I0403 16:24:24.891737 21032 net.cpp:425] conv2/relu_3x3 <- conv2/3x3
I0403 16:24:24.891754 21032 net.cpp:386] conv2/relu_3x3 -> conv2/3x3 (in-place)
I0403 16:24:24.891919 21032 net.cpp:141] Setting up conv2/relu_3x3
I0403 16:24:24.891944 21032 net.cpp:148] Top shape: 24 192 56 56 (14450688)
I0403 16:24:24.891996 21032 net.cpp:156] Memory required for data: 361268256
I0403 16:24:24.892014 21032 layer_factory.hpp:77] Creating layer conv2/norm2
I0403 16:24:24.892040 21032 net.cpp:91] Creating Layer conv2/norm2
I0403 16:24:24.892057 21032 net.cpp:425] conv2/norm2 <- conv2/3x3
I0403 16:24:24.892076 21032 net.cpp:399] conv2/norm2 -> conv2/norm2
I0403 16:24:24.892367 21032 net.cpp:141] Setting up conv2/norm2
I0403 16:24:24.892395 21032 net.cpp:148] Top shape: 24 192 56 56 (14450688)
I0403 16:24:24.892410 21032 net.cpp:156] Memory required for data: 419071008
I0403 16:24:24.892426 21032 layer_factory.hpp:77] Creating layer pool2/3x3_s2
I0403 16:24:24.892443 21032 net.cpp:91] Creating Layer pool2/3x3_s2
I0403 16:24:24.892459 21032 net.cpp:425] pool2/3x3_s2 <- conv2/norm2
I0403 16:24:24.892477 21032 net.cpp:399] pool2/3x3_s2 -> pool2/3x3_s2
I0403 16:24:24.892527 21032 net.cpp:141] Setting up pool2/3x3_s2
I0403 16:24:24.892550 21032 net.cpp:148] Top shape: 24 192 28 28 (3612672)
I0403 16:24:24.892565 21032 net.cpp:156] Memory required for data: 433521696
I0403 16:24:24.892580 21032 layer_factory.hpp:77] Creating layer pool2/3x3_s2_pool2/3x3_s2_0_split
I0403 16:24:24.892597 21032 net.cpp:91] Creating Layer pool2/3x3_s2_pool2/3x3_s2_0_split
I0403 16:24:24.892612 21032 net.cpp:425] pool2/3x3_s2_pool2/3x3_s2_0_split <- pool2/3x3_s2
I0403 16:24:24.892629 21032 net.cpp:399] pool2/3x3_s2_pool2/3x3_s2_0_split -> pool2/3x3_s2_pool2/3x3_s2_0_split_0
I0403 16:24:24.892649 21032 net.cpp:399] pool2/3x3_s2_pool2/3x3_s2_0_split -> pool2/3x3_s2_pool2/3x3_s2_0_split_1
I0403 16:24:24.892668 21032 net.cpp:399] pool2/3x3_s2_pool2/3x3_s2_0_split -> pool2/3x3_s2_pool2/3x3_s2_0_split_2
I0403 16:24:24.892688 21032 net.cpp:399] pool2/3x3_s2_pool2/3x3_s2_0_split -> pool2/3x3_s2_pool2/3x3_s2_0_split_3
I0403 16:24:24.892752 21032 net.cpp:141] Setting up pool2/3x3_s2_pool2/3x3_s2_0_split
I0403 16:24:24.892776 21032 net.cpp:148] Top shape: 24 192 28 28 (3612672)
I0403 16:24:24.892792 21032 net.cpp:148] Top shape: 24 192 28 28 (3612672)
I0403 16:24:24.892808 21032 net.cpp:148] Top shape: 24 192 28 28 (3612672)
I0403 16:24:24.892824 21032 net.cpp:148] Top shape: 24 192 28 28 (3612672)
I0403 16:24:24.892838 21032 net.cpp:156] Memory required for data: 491324448
I0403 16:24:24.892853 21032 layer_factory.hpp:77] Creating layer inception_3a/1x1
I0403 16:24:24.892874 21032 net.cpp:91] Creating Layer inception_3a/1x1
I0403 16:24:24.892889 21032 net.cpp:425] inception_3a/1x1 <- pool2/3x3_s2_pool2/3x3_s2_0_split_0
I0403 16:24:24.892907 21032 net.cpp:399] inception_3a/1x1 -> inception_3a/1x1
I0403 16:24:24.894520 21032 net.cpp:141] Setting up inception_3a/1x1
I0403 16:24:24.894551 21032 net.cpp:148] Top shape: 24 64 28 28 (1204224)
I0403 16:24:24.894568 21032 net.cpp:156] Memory required for data: 496141344
I0403 16:24:24.894587 21032 layer_factory.hpp:77] Creating layer inception_3a/relu_1x1
I0403 16:24:24.894609 21032 net.cpp:91] Creating Layer inception_3a/relu_1x1
I0403 16:24:24.894625 21032 net.cpp:425] inception_3a/relu_1x1 <- inception_3a/1x1
I0403 16:24:24.894644 21032 net.cpp:386] inception_3a/relu_1x1 -> inception_3a/1x1 (in-place)
I0403 16:24:24.894825 21032 net.cpp:141] Setting up inception_3a/relu_1x1
I0403 16:24:24.894851 21032 net.cpp:148] Top shape: 24 64 28 28 (1204224)
I0403 16:24:24.894866 21032 net.cpp:156] Memory required for data: 500958240
I0403 16:24:24.894882 21032 layer_factory.hpp:77] Creating layer inception_3a/3x3_reduce
I0403 16:24:24.894907 21032 net.cpp:91] Creating Layer inception_3a/3x3_reduce
I0403 16:24:24.894925 21032 net.cpp:425] inception_3a/3x3_reduce <- pool2/3x3_s2_pool2/3x3_s2_0_split_1
I0403 16:24:24.894945 21032 net.cpp:399] inception_3a/3x3_reduce -> inception_3a/3x3_reduce
I0403 16:24:24.896698 21032 net.cpp:141] Setting up inception_3a/3x3_reduce
I0403 16:24:24.896729 21032 net.cpp:148] Top shape: 24 96 28 28 (1806336)
I0403 16:24:24.896746 21032 net.cpp:156] Memory required for data: 508183584
I0403 16:24:24.896769 21032 layer_factory.hpp:77] Creating layer inception_3a/relu_3x3_reduce
I0403 16:24:24.896808 21032 net.cpp:91] Creating Layer inception_3a/relu_3x3_reduce
I0403 16:24:24.896827 21032 net.cpp:425] inception_3a/relu_3x3_reduce <- inception_3a/3x3_reduce
I0403 16:24:24.896847 21032 net.cpp:386] inception_3a/relu_3x3_reduce -> inception_3a/3x3_reduce (in-place)
I0403 16:24:24.897042 21032 net.cpp:141] Setting up inception_3a/relu_3x3_reduce
I0403 16:24:24.897068 21032 net.cpp:148] Top shape: 24 96 28 28 (1806336)
I0403 16:24:24.897083 21032 net.cpp:156] Memory required for data: 515408928
I0403 16:24:24.897099 21032 layer_factory.hpp:77] Creating layer inception_3a/3x3
I0403 16:24:24.897121 21032 net.cpp:91] Creating Layer inception_3a/3x3
I0403 16:24:24.897140 21032 net.cpp:425] inception_3a/3x3 <- inception_3a/3x3_reduce
I0403 16:24:24.897161 21032 net.cpp:399] inception_3a/3x3 -> inception_3a/3x3
I0403 16:24:24.898912 21032 net.cpp:141] Setting up inception_3a/3x3
I0403 16:24:24.898942 21032 net.cpp:148] Top shape: 24 128 28 28 (2408448)
I0403 16:24:24.898959 21032 net.cpp:156] Memory required for data: 525042720
I0403 16:24:24.898978 21032 layer_factory.hpp:77] Creating layer inception_3a/relu_3x3
I0403 16:24:24.899001 21032 net.cpp:91] Creating Layer inception_3a/relu_3x3
I0403 16:24:24.899024 21032 net.cpp:425] inception_3a/relu_3x3 <- inception_3a/3x3
I0403 16:24:24.899044 21032 net.cpp:386] inception_3a/relu_3x3 -> inception_3a/3x3 (in-place)
I0403 16:24:24.899332 21032 net.cpp:141] Setting up inception_3a/relu_3x3
I0403 16:24:24.899359 21032 net.cpp:148] Top shape: 24 128 28 28 (2408448)
I0403 16:24:24.899374 21032 net.cpp:156] Memory required for data: 534676512
I0403 16:24:24.899389 21032 layer_factory.hpp:77] Creating layer inception_3a/5x5_reduce
I0403 16:24:24.899413 21032 net.cpp:91] Creating Layer inception_3a/5x5_reduce
I0403 16:24:24.899437 21032 net.cpp:425] inception_3a/5x5_reduce <- pool2/3x3_s2_pool2/3x3_s2_0_split_2
I0403 16:24:24.899459 21032 net.cpp:399] inception_3a/5x5_reduce -> inception_3a/5x5_reduce
I0403 16:24:24.900462 21032 net.cpp:141] Setting up inception_3a/5x5_reduce
I0403 16:24:24.900491 21032 net.cpp:148] Top shape: 24 16 28 28 (301056)
I0403 16:24:24.900513 21032 net.cpp:156] Memory required for data: 535880736
I0403 16:24:24.900533 21032 layer_factory.hpp:77] Creating layer inception_3a/relu_5x5_reduce
I0403 16:24:24.900552 21032 net.cpp:91] Creating Layer inception_3a/relu_5x5_reduce
I0403 16:24:24.900568 21032 net.cpp:425] inception_3a/relu_5x5_reduce <- inception_3a/5x5_reduce
I0403 16:24:24.900586 21032 net.cpp:386] inception_3a/relu_5x5_reduce -> inception_3a/5x5_reduce (in-place)
I0403 16:24:24.900923 21032 net.cpp:141] Setting up inception_3a/relu_5x5_reduce
I0403 16:24:24.900952 21032 net.cpp:148] Top shape: 24 16 28 28 (301056)
I0403 16:24:24.900969 21032 net.cpp:156] Memory required for data: 537084960
I0403 16:24:24.900985 21032 layer_factory.hpp:77] Creating layer inception_3a/5x5
I0403 16:24:24.901007 21032 net.cpp:91] Creating Layer inception_3a/5x5
I0403 16:24:24.901031 21032 net.cpp:425] inception_3a/5x5 <- inception_3a/5x5_reduce
I0403 16:24:24.901051 21032 net.cpp:399] inception_3a/5x5 -> inception_3a/5x5
I0403 16:24:24.902122 21032 net.cpp:141] Setting up inception_3a/5x5
I0403 16:24:24.902150 21032 net.cpp:148] Top shape: 24 32 28 28 (602112)
I0403 16:24:24.902166 21032 net.cpp:156] Memory required for data: 539493408
I0403 16:24:24.902185 21032 layer_factory.hpp:77] Creating layer inception_3a/relu_5x5
I0403 16:24:24.902207 21032 net.cpp:91] Creating Layer inception_3a/relu_5x5
I0403 16:24:24.902225 21032 net.cpp:425] inception_3a/relu_5x5 <- inception_3a/5x5
I0403 16:24:24.902242 21032 net.cpp:386] inception_3a/relu_5x5 -> inception_3a/5x5 (in-place)
I0403 16:24:24.902422 21032 net.cpp:141] Setting up inception_3a/relu_5x5
I0403 16:24:24.902448 21032 net.cpp:148] Top shape: 24 32 28 28 (602112)
I0403 16:24:24.902463 21032 net.cpp:156] Memory required for data: 541901856
I0403 16:24:24.902478 21032 layer_factory.hpp:77] Creating layer inception_3a/pool
I0403 16:24:24.902499 21032 net.cpp:91] Creating Layer inception_3a/pool
I0403 16:24:24.902531 21032 net.cpp:425] inception_3a/pool <- pool2/3x3_s2_pool2/3x3_s2_0_split_3
I0403 16:24:24.902552 21032 net.cpp:399] inception_3a/pool -> inception_3a/pool
I0403 16:24:24.902624 21032 net.cpp:141] Setting up inception_3a/pool
I0403 16:24:24.902647 21032 net.cpp:148] Top shape: 24 192 28 28 (3612672)
I0403 16:24:24.902662 21032 net.cpp:156] Memory required for data: 556352544
I0403 16:24:24.902678 21032 layer_factory.hpp:77] Creating layer inception_3a/pool_proj
I0403 16:24:24.902700 21032 net.cpp:91] Creating Layer inception_3a/pool_proj
I0403 16:24:24.902719 21032 net.cpp:425] inception_3a/pool_proj <- inception_3a/pool
I0403 16:24:24.902740 21032 net.cpp:399] inception_3a/pool_proj -> inception_3a/pool_proj
I0403 16:24:24.903717 21032 net.cpp:141] Setting up inception_3a/pool_proj
I0403 16:24:24.903748 21032 net.cpp:148] Top shape: 24 32 28 28 (602112)
I0403 16:24:24.903764 21032 net.cpp:156] Memory required for data: 558760992
I0403 16:24:24.903789 21032 layer_factory.hpp:77] Creating layer inception_3a/relu_pool_proj
I0403 16:24:24.903808 21032 net.cpp:91] Creating Layer inception_3a/relu_pool_proj
I0403 16:24:24.903825 21032 net.cpp:425] inception_3a/relu_pool_proj <- inception_3a/pool_proj
I0403 16:24:24.903842 21032 net.cpp:386] inception_3a/relu_pool_proj -> inception_3a/pool_proj (in-place)
I0403 16:24:24.904122 21032 net.cpp:141] Setting up inception_3a/relu_pool_proj
I0403 16:24:24.904150 21032 net.cpp:148] Top shape: 24 32 28 28 (602112)
I0403 16:24:24.904165 21032 net.cpp:156] Memory required for data: 561169440
I0403 16:24:24.904180 21032 layer_factory.hpp:77] Creating layer inception_3a/output
I0403 16:24:24.904199 21032 net.cpp:91] Creating Layer inception_3a/output
I0403 16:24:24.904216 21032 net.cpp:425] inception_3a/output <- inception_3a/1x1
I0403 16:24:24.904232 21032 net.cpp:425] inception_3a/output <- inception_3a/3x3
I0403 16:24:24.904248 21032 net.cpp:425] inception_3a/output <- inception_3a/5x5
I0403 16:24:24.904263 21032 net.cpp:425] inception_3a/output <- inception_3a/pool_proj
I0403 16:24:24.904281 21032 net.cpp:399] inception_3a/output -> inception_3a/output
I0403 16:24:24.904330 21032 net.cpp:141] Setting up inception_3a/output
I0403 16:24:24.904353 21032 net.cpp:148] Top shape: 24 256 28 28 (4816896)
I0403 16:24:24.904368 21032 net.cpp:156] Memory required for data: 580437024
I0403 16:24:24.904383 21032 layer_factory.hpp:77] Creating layer inception_3a/output_inception_3a/output_0_split
I0403 16:24:24.904400 21032 net.cpp:91] Creating Layer inception_3a/output_inception_3a/output_0_split
I0403 16:24:24.904415 21032 net.cpp:425] inception_3a/output_inception_3a/output_0_split <- inception_3a/output
I0403 16:24:24.904435 21032 net.cpp:399] inception_3a/output_inception_3a/output_0_split -> inception_3a/output_inception_3a/output_0_split_0
I0403 16:24:24.904456 21032 net.cpp:399] inception_3a/output_inception_3a/output_0_split -> inception_3a/output_inception_3a/output_0_split_1
I0403 16:24:24.904479 21032 net.cpp:399] inception_3a/output_inception_3a/output_0_split -> inception_3a/output_inception_3a/output_0_split_2
I0403 16:24:24.904500 21032 net.cpp:399] inception_3a/output_inception_3a/output_0_split -> inception_3a/output_inception_3a/output_0_split_3
I0403 16:24:24.904577 21032 net.cpp:141] Setting up inception_3a/output_inception_3a/output_0_split
I0403 16:24:24.904600 21032 net.cpp:148] Top shape: 24 256 28 28 (4816896)
I0403 16:24:24.904618 21032 net.cpp:148] Top shape: 24 256 28 28 (4816896)
I0403 16:24:24.904633 21032 net.cpp:148] Top shape: 24 256 28 28 (4816896)
I0403 16:24:24.904649 21032 net.cpp:148] Top shape: 24 256 28 28 (4816896)
I0403 16:24:24.904664 21032 net.cpp:156] Memory required for data: 657507360
I0403 16:24:24.904677 21032 layer_factory.hpp:77] Creating layer inception_3b/1x1
I0403 16:24:24.904700 21032 net.cpp:91] Creating Layer inception_3b/1x1
I0403 16:24:24.904717 21032 net.cpp:425] inception_3b/1x1 <- inception_3a/output_inception_3a/output_0_split_0
I0403 16:24:24.904737 21032 net.cpp:399] inception_3b/1x1 -> inception_3b/1x1
I0403 16:24:24.905894 21032 net.cpp:141] Setting up inception_3b/1x1
I0403 16:24:24.905935 21032 net.cpp:148] Top shape: 24 128 28 28 (2408448)
I0403 16:24:24.905949 21032 net.cpp:156] Memory required for data: 667141152
I0403 16:24:24.905968 21032 layer_factory.hpp:77] Creating layer inception_3b/relu_1x1
I0403 16:24:24.905987 21032 net.cpp:91] Creating Layer inception_3b/relu_1x1
I0403 16:24:24.906002 21032 net.cpp:425] inception_3b/relu_1x1 <- inception_3b/1x1
I0403 16:24:24.906026 21032 net.cpp:386] inception_3b/relu_1x1 -> inception_3b/1x1 (in-place)
I0403 16:24:24.906206 21032 net.cpp:141] Setting up inception_3b/relu_1x1
I0403 16:24:24.906231 21032 net.cpp:148] Top shape: 24 128 28 28 (2408448)
I0403 16:24:24.906246 21032 net.cpp:156] Memory required for data: 676774944
I0403 16:24:24.906260 21032 layer_factory.hpp:77] Creating layer inception_3b/3x3_reduce
I0403 16:24:24.906283 21032 net.cpp:91] Creating Layer inception_3b/3x3_reduce
I0403 16:24:24.906301 21032 net.cpp:425] inception_3b/3x3_reduce <- inception_3a/output_inception_3a/output_0_split_1
I0403 16:24:24.906322 21032 net.cpp:399] inception_3b/3x3_reduce -> inception_3b/3x3_reduce
I0403 16:24:24.907476 21032 net.cpp:141] Setting up inception_3b/3x3_reduce
I0403 16:24:24.907505 21032 net.cpp:148] Top shape: 24 128 28 28 (2408448)
I0403 16:24:24.907521 21032 net.cpp:156] Memory required for data: 686408736
I0403 16:24:24.907539 21032 layer_factory.hpp:77] Creating layer inception_3b/relu_3x3_reduce
I0403 16:24:24.907557 21032 net.cpp:91] Creating Layer inception_3b/relu_3x3_reduce
I0403 16:24:24.907577 21032 net.cpp:425] inception_3b/relu_3x3_reduce <- inception_3b/3x3_reduce
I0403 16:24:24.907593 21032 net.cpp:386] inception_3b/relu_3x3_reduce -> inception_3b/3x3_reduce (in-place)
I0403 16:24:24.907768 21032 net.cpp:141] Setting up inception_3b/relu_3x3_reduce
I0403 16:24:24.907794 21032 net.cpp:148] Top shape: 24 128 28 28 (2408448)
I0403 16:24:24.907809 21032 net.cpp:156] Memory required for data: 696042528
I0403 16:24:24.907824 21032 layer_factory.hpp:77] Creating layer inception_3b/3x3
I0403 16:24:24.907850 21032 net.cpp:91] Creating Layer inception_3b/3x3
I0403 16:24:24.907868 21032 net.cpp:425] inception_3b/3x3 <- inception_3b/3x3_reduce
I0403 16:24:24.907886 21032 net.cpp:399] inception_3b/3x3 -> inception_3b/3x3
I0403 16:24:24.910867 21032 net.cpp:141] Setting up inception_3b/3x3
I0403 16:24:24.910895 21032 net.cpp:148] Top shape: 24 192 28 28 (3612672)
I0403 16:24:24.910912 21032 net.cpp:156] Memory required for data: 710493216
I0403 16:24:24.910929 21032 layer_factory.hpp:77] Creating layer inception_3b/relu_3x3
I0403 16:24:24.910949 21032 net.cpp:91] Creating Layer inception_3b/relu_3x3
I0403 16:24:24.910965 21032 net.cpp:425] inception_3b/relu_3x3 <- inception_3b/3x3
I0403 16:24:24.910981 21032 net.cpp:386] inception_3b/relu_3x3 -> inception_3b/3x3 (in-place)
I0403 16:24:24.911262 21032 net.cpp:141] Setting up inception_3b/relu_3x3
I0403 16:24:24.911288 21032 net.cpp:148] Top shape: 24 192 28 28 (3612672)
I0403 16:24:24.911303 21032 net.cpp:156] Memory required for data: 724943904
I0403 16:24:24.911317 21032 layer_factory.hpp:77] Creating layer inception_3b/5x5_reduce
I0403 16:24:24.911339 21032 net.cpp:91] Creating Layer inception_3b/5x5_reduce
I0403 16:24:24.911356 21032 net.cpp:425] inception_3b/5x5_reduce <- inception_3a/output_inception_3a/output_0_split_2
I0403 16:24:24.911378 21032 net.cpp:399] inception_3b/5x5_reduce -> inception_3b/5x5_reduce
I0403 16:24:24.912360 21032 net.cpp:141] Setting up inception_3b/5x5_reduce
I0403 16:24:24.912400 21032 net.cpp:148] Top shape: 24 32 28 28 (602112)
I0403 16:24:24.912413 21032 net.cpp:156] Memory required for data: 727352352
I0403 16:24:24.912431 21032 layer_factory.hpp:77] Creating layer inception_3b/relu_5x5_reduce
I0403 16:24:24.912472 21032 net.cpp:91] Creating Layer inception_3b/relu_5x5_reduce
I0403 16:24:24.912487 21032 net.cpp:425] inception_3b/relu_5x5_reduce <- inception_3b/5x5_reduce
I0403 16:24:24.912504 21032 net.cpp:386] inception_3b/relu_5x5_reduce -> inception_3b/5x5_reduce (in-place)
I0403 16:24:24.912703 21032 net.cpp:141] Setting up inception_3b/relu_5x5_reduce
I0403 16:24:24.912729 21032 net.cpp:148] Top shape: 24 32 28 28 (602112)
I0403 16:24:24.912755 21032 net.cpp:156] Memory required for data: 729760800
I0403 16:24:24.912768 21032 layer_factory.hpp:77] Creating layer inception_3b/5x5
I0403 16:24:24.912791 21032 net.cpp:91] Creating Layer inception_3b/5x5
I0403 16:24:24.912808 21032 net.cpp:425] inception_3b/5x5 <- inception_3b/5x5_reduce
I0403 16:24:24.912837 21032 net.cpp:399] inception_3b/5x5 -> inception_3b/5x5
I0403 16:24:24.914763 21032 net.cpp:141] Setting up inception_3b/5x5
I0403 16:24:24.914791 21032 net.cpp:148] Top shape: 24 96 28 28 (1806336)
I0403 16:24:24.914806 21032 net.cpp:156] Memory required for data: 736986144
I0403 16:24:24.914824 21032 layer_factory.hpp:77] Creating layer inception_3b/relu_5x5
I0403 16:24:24.914840 21032 net.cpp:91] Creating Layer inception_3b/relu_5x5
I0403 16:24:24.914856 21032 net.cpp:425] inception_3b/relu_5x5 <- inception_3b/5x5
I0403 16:24:24.914875 21032 net.cpp:386] inception_3b/relu_5x5 -> inception_3b/5x5 (in-place)
I0403 16:24:24.915063 21032 net.cpp:141] Setting up inception_3b/relu_5x5
I0403 16:24:24.915087 21032 net.cpp:148] Top shape: 24 96 28 28 (1806336)
I0403 16:24:24.915102 21032 net.cpp:156] Memory required for data: 744211488
I0403 16:24:24.915115 21032 layer_factory.hpp:77] Creating layer inception_3b/pool
I0403 16:24:24.915132 21032 net.cpp:91] Creating Layer inception_3b/pool
I0403 16:24:24.915146 21032 net.cpp:425] inception_3b/pool <- inception_3a/output_inception_3a/output_0_split_3
I0403 16:24:24.915164 21032 net.cpp:399] inception_3b/pool -> inception_3b/pool
I0403 16:24:24.915220 21032 net.cpp:141] Setting up inception_3b/pool
I0403 16:24:24.915242 21032 net.cpp:148] Top shape: 24 256 28 28 (4816896)
I0403 16:24:24.915256 21032 net.cpp:156] Memory required for data: 763479072
I0403 16:24:24.915269 21032 layer_factory.hpp:77] Creating layer inception_3b/pool_proj
I0403 16:24:24.915290 21032 net.cpp:91] Creating Layer inception_3b/pool_proj
I0403 16:24:24.915307 21032 net.cpp:425] inception_3b/pool_proj <- inception_3b/pool
I0403 16:24:24.915326 21032 net.cpp:399] inception_3b/pool_proj -> inception_3b/pool_proj
I0403 16:24:24.916350 21032 net.cpp:141] Setting up inception_3b/pool_proj
I0403 16:24:24.916379 21032 net.cpp:148] Top shape: 24 64 28 28 (1204224)
I0403 16:24:24.916394 21032 net.cpp:156] Memory required for data: 768295968
I0403 16:24:24.916412 21032 layer_factory.hpp:77] Creating layer inception_3b/relu_pool_proj
I0403 16:24:24.916429 21032 net.cpp:91] Creating Layer inception_3b/relu_pool_proj
I0403 16:24:24.916445 21032 net.cpp:425] inception_3b/relu_pool_proj <- inception_3b/pool_proj
I0403 16:24:24.916463 21032 net.cpp:386] inception_3b/relu_pool_proj -> inception_3b/pool_proj (in-place)
I0403 16:24:24.916853 21032 net.cpp:141] Setting up inception_3b/relu_pool_proj
I0403 16:24:24.916880 21032 net.cpp:148] Top shape: 24 64 28 28 (1204224)
I0403 16:24:24.916896 21032 net.cpp:156] Memory required for data: 773112864
I0403 16:24:24.916911 21032 layer_factory.hpp:77] Creating layer inception_3b/output
I0403 16:24:24.916928 21032 net.cpp:91] Creating Layer inception_3b/output
I0403 16:24:24.916942 21032 net.cpp:425] inception_3b/output <- inception_3b/1x1
I0403 16:24:24.916957 21032 net.cpp:425] inception_3b/output <- inception_3b/3x3
I0403 16:24:24.916972 21032 net.cpp:425] inception_3b/output <- inception_3b/5x5
I0403 16:24:24.916988 21032 net.cpp:425] inception_3b/output <- inception_3b/pool_proj
I0403 16:24:24.917003 21032 net.cpp:399] inception_3b/output -> inception_3b/output
I0403 16:24:24.917050 21032 net.cpp:141] Setting up inception_3b/output
I0403 16:24:24.917073 21032 net.cpp:148] Top shape: 24 480 28 28 (9031680)
I0403 16:24:24.917088 21032 net.cpp:156] Memory required for data: 809239584
I0403 16:24:24.917100 21032 layer_factory.hpp:77] Creating layer pool3/3x3_s2
I0403 16:24:24.917119 21032 net.cpp:91] Creating Layer pool3/3x3_s2
I0403 16:24:24.917135 21032 net.cpp:425] pool3/3x3_s2 <- inception_3b/output
I0403 16:24:24.917166 21032 net.cpp:399] pool3/3x3_s2 -> pool3/3x3_s2
I0403 16:24:24.917223 21032 net.cpp:141] Setting up pool3/3x3_s2
I0403 16:24:24.917245 21032 net.cpp:148] Top shape: 24 480 14 14 (2257920)
I0403 16:24:24.917259 21032 net.cpp:156] Memory required for data: 818271264
I0403 16:24:24.917273 21032 layer_factory.hpp:77] Creating layer pool3/3x3_s2_pool3/3x3_s2_0_split
I0403 16:24:24.917289 21032 net.cpp:91] Creating Layer pool3/3x3_s2_pool3/3x3_s2_0_split
I0403 16:24:24.917304 21032 net.cpp:425] pool3/3x3_s2_pool3/3x3_s2_0_split <- pool3/3x3_s2
I0403 16:24:24.917322 21032 net.cpp:399] pool3/3x3_s2_pool3/3x3_s2_0_split -> pool3/3x3_s2_pool3/3x3_s2_0_split_0
I0403 16:24:24.917341 21032 net.cpp:399] pool3/3x3_s2_pool3/3x3_s2_0_split -> pool3/3x3_s2_pool3/3x3_s2_0_split_1
I0403 16:24:24.917359 21032 net.cpp:399] pool3/3x3_s2_pool3/3x3_s2_0_split -> pool3/3x3_s2_pool3/3x3_s2_0_split_2
I0403 16:24:24.917377 21032 net.cpp:399] pool3/3x3_s2_pool3/3x3_s2_0_split -> pool3/3x3_s2_pool3/3x3_s2_0_split_3
I0403 16:24:24.917451 21032 net.cpp:141] Setting up pool3/3x3_s2_pool3/3x3_s2_0_split
I0403 16:24:24.917475 21032 net.cpp:148] Top shape: 24 480 14 14 (2257920)
I0403 16:24:24.917491 21032 net.cpp:148] Top shape: 24 480 14 14 (2257920)
I0403 16:24:24.917505 21032 net.cpp:148] Top shape: 24 480 14 14 (2257920)
I0403 16:24:24.917520 21032 net.cpp:148] Top shape: 24 480 14 14 (2257920)
I0403 16:24:24.917533 21032 net.cpp:156] Memory required for data: 854397984
I0403 16:24:24.917547 21032 layer_factory.hpp:77] Creating layer inception_4a/1x1
I0403 16:24:24.917567 21032 net.cpp:91] Creating Layer inception_4a/1x1
I0403 16:24:24.917583 21032 net.cpp:425] inception_4a/1x1 <- pool3/3x3_s2_pool3/3x3_s2_0_split_0
I0403 16:24:24.917601 21032 net.cpp:399] inception_4a/1x1 -> inception_4a/1x1
I0403 16:24:24.919149 21032 net.cpp:141] Setting up inception_4a/1x1
I0403 16:24:24.919178 21032 net.cpp:148] Top shape: 24 192 14 14 (903168)
I0403 16:24:24.919194 21032 net.cpp:156] Memory required for data: 858010656
I0403 16:24:24.919212 21032 layer_factory.hpp:77] Creating layer inception_4a/relu_1x1
I0403 16:24:24.919229 21032 net.cpp:91] Creating Layer inception_4a/relu_1x1
I0403 16:24:24.919245 21032 net.cpp:425] inception_4a/relu_1x1 <- inception_4a/1x1
I0403 16:24:24.919265 21032 net.cpp:386] inception_4a/relu_1x1 -> inception_4a/1x1 (in-place)
I0403 16:24:24.919435 21032 net.cpp:141] Setting up inception_4a/relu_1x1
I0403 16:24:24.919457 21032 net.cpp:148] Top shape: 24 192 14 14 (903168)
I0403 16:24:24.919471 21032 net.cpp:156] Memory required for data: 861623328
I0403 16:24:24.919486 21032 layer_factory.hpp:77] Creating layer inception_4a/3x3_reduce
I0403 16:24:24.919507 21032 net.cpp:91] Creating Layer inception_4a/3x3_reduce
I0403 16:24:24.919523 21032 net.cpp:425] inception_4a/3x3_reduce <- pool3/3x3_s2_pool3/3x3_s2_0_split_1
I0403 16:24:24.919543 21032 net.cpp:399] inception_4a/3x3_reduce -> inception_4a/3x3_reduce
I0403 16:24:24.920761 21032 net.cpp:141] Setting up inception_4a/3x3_reduce
I0403 16:24:24.920790 21032 net.cpp:148] Top shape: 24 96 14 14 (451584)
I0403 16:24:24.920806 21032 net.cpp:156] Memory required for data: 863429664
I0403 16:24:24.920827 21032 layer_factory.hpp:77] Creating layer inception_4a/relu_3x3_reduce
I0403 16:24:24.920848 21032 net.cpp:91] Creating Layer inception_4a/relu_3x3_reduce
I0403 16:24:24.920863 21032 net.cpp:425] inception_4a/relu_3x3_reduce <- inception_4a/3x3_reduce
I0403 16:24:24.920881 21032 net.cpp:386] inception_4a/relu_3x3_reduce -> inception_4a/3x3_reduce (in-place)
I0403 16:24:24.921051 21032 net.cpp:141] Setting up inception_4a/relu_3x3_reduce
I0403 16:24:24.921073 21032 net.cpp:148] Top shape: 24 96 14 14 (451584)
I0403 16:24:24.921087 21032 net.cpp:156] Memory required for data: 865236000
I0403 16:24:24.921102 21032 layer_factory.hpp:77] Creating layer inception_4a/3x3
I0403 16:24:24.921123 21032 net.cpp:91] Creating Layer inception_4a/3x3
I0403 16:24:24.921139 21032 net.cpp:425] inception_4a/3x3 <- inception_4a/3x3_reduce
I0403 16:24:24.921159 21032 net.cpp:399] inception_4a/3x3 -> inception_4a/3x3
I0403 16:24:24.923779 21032 net.cpp:141] Setting up inception_4a/3x3
I0403 16:24:24.923809 21032 net.cpp:148] Top shape: 24 208 14 14 (978432)
I0403 16:24:24.923823 21032 net.cpp:156] Memory required for data: 869149728
I0403 16:24:24.923842 21032 layer_factory.hpp:77] Creating layer inception_4a/relu_3x3
I0403 16:24:24.923862 21032 net.cpp:91] Creating Layer inception_4a/relu_3x3
I0403 16:24:24.923889 21032 net.cpp:425] inception_4a/relu_3x3 <- inception_4a/3x3
I0403 16:24:24.923905 21032 net.cpp:386] inception_4a/relu_3x3 -> inception_4a/3x3 (in-place)
I0403 16:24:24.924176 21032 net.cpp:141] Setting up inception_4a/relu_3x3
I0403 16:24:24.924201 21032 net.cpp:148] Top shape: 24 208 14 14 (978432)
I0403 16:24:24.924216 21032 net.cpp:156] Memory required for data: 873063456
I0403 16:24:24.924229 21032 layer_factory.hpp:77] Creating layer inception_4a/5x5_reduce
I0403 16:24:24.924252 21032 net.cpp:91] Creating Layer inception_4a/5x5_reduce
I0403 16:24:24.924268 21032 net.cpp:425] inception_4a/5x5_reduce <- pool3/3x3_s2_pool3/3x3_s2_0_split_2
I0403 16:24:24.924288 21032 net.cpp:399] inception_4a/5x5_reduce -> inception_4a/5x5_reduce
I0403 16:24:24.925256 21032 net.cpp:141] Setting up inception_4a/5x5_reduce
I0403 16:24:24.925282 21032 net.cpp:148] Top shape: 24 16 14 14 (75264)
I0403 16:24:24.925297 21032 net.cpp:156] Memory required for data: 873364512
I0403 16:24:24.925313 21032 layer_factory.hpp:77] Creating layer inception_4a/relu_5x5_reduce
I0403 16:24:24.925333 21032 net.cpp:91] Creating Layer inception_4a/relu_5x5_reduce
I0403 16:24:24.925349 21032 net.cpp:425] inception_4a/relu_5x5_reduce <- inception_4a/5x5_reduce
I0403 16:24:24.925365 21032 net.cpp:386] inception_4a/relu_5x5_reduce -> inception_4a/5x5_reduce (in-place)
I0403 16:24:24.925535 21032 net.cpp:141] Setting up inception_4a/relu_5x5_reduce
I0403 16:24:24.925559 21032 net.cpp:148] Top shape: 24 16 14 14 (75264)
I0403 16:24:24.925573 21032 net.cpp:156] Memory required for data: 873665568
I0403 16:24:24.925587 21032 layer_factory.hpp:77] Creating layer inception_4a/5x5
I0403 16:24:24.925611 21032 net.cpp:91] Creating Layer inception_4a/5x5
I0403 16:24:24.925627 21032 net.cpp:425] inception_4a/5x5 <- inception_4a/5x5_reduce
I0403 16:24:24.925645 21032 net.cpp:399] inception_4a/5x5 -> inception_4a/5x5
I0403 16:24:24.926738 21032 net.cpp:141] Setting up inception_4a/5x5
I0403 16:24:24.926769 21032 net.cpp:148] Top shape: 24 48 14 14 (225792)
I0403 16:24:24.926784 21032 net.cpp:156] Memory required for data: 874568736
I0403 16:24:24.926802 21032 layer_factory.hpp:77] Creating layer inception_4a/relu_5x5
I0403 16:24:24.926820 21032 net.cpp:91] Creating Layer inception_4a/relu_5x5
I0403 16:24:24.926836 21032 net.cpp:425] inception_4a/relu_5x5 <- inception_4a/5x5
I0403 16:24:24.926852 21032 net.cpp:386] inception_4a/relu_5x5 -> inception_4a/5x5 (in-place)
I0403 16:24:24.927032 21032 net.cpp:141] Setting up inception_4a/relu_5x5
I0403 16:24:24.927058 21032 net.cpp:148] Top shape: 24 48 14 14 (225792)
I0403 16:24:24.927073 21032 net.cpp:156] Memory required for data: 875471904
I0403 16:24:24.927088 21032 layer_factory.hpp:77] Creating layer inception_4a/pool
I0403 16:24:24.927106 21032 net.cpp:91] Creating Layer inception_4a/pool
I0403 16:24:24.927121 21032 net.cpp:425] inception_4a/pool <- pool3/3x3_s2_pool3/3x3_s2_0_split_3
I0403 16:24:24.927140 21032 net.cpp:399] inception_4a/pool -> inception_4a/pool
I0403 16:24:24.927201 21032 net.cpp:141] Setting up inception_4a/pool
I0403 16:24:24.927225 21032 net.cpp:148] Top shape: 24 480 14 14 (2257920)
I0403 16:24:24.927242 21032 net.cpp:156] Memory required for data: 884503584
I0403 16:24:24.927255 21032 layer_factory.hpp:77] Creating layer inception_4a/pool_proj
I0403 16:24:24.927276 21032 net.cpp:91] Creating Layer inception_4a/pool_proj
I0403 16:24:24.927292 21032 net.cpp:425] inception_4a/pool_proj <- inception_4a/pool
I0403 16:24:24.927310 21032 net.cpp:399] inception_4a/pool_proj -> inception_4a/pool_proj
I0403 16:24:24.928478 21032 net.cpp:141] Setting up inception_4a/pool_proj
I0403 16:24:24.928509 21032 net.cpp:148] Top shape: 24 64 14 14 (301056)
I0403 16:24:24.928539 21032 net.cpp:156] Memory required for data: 885707808
I0403 16:24:24.928558 21032 layer_factory.hpp:77] Creating layer inception_4a/relu_pool_proj
I0403 16:24:24.928576 21032 net.cpp:91] Creating Layer inception_4a/relu_pool_proj
I0403 16:24:24.928591 21032 net.cpp:425] inception_4a/relu_pool_proj <- inception_4a/pool_proj
I0403 16:24:24.928611 21032 net.cpp:386] inception_4a/relu_pool_proj -> inception_4a/pool_proj (in-place)
I0403 16:24:24.928890 21032 net.cpp:141] Setting up inception_4a/relu_pool_proj
I0403 16:24:24.928918 21032 net.cpp:148] Top shape: 24 64 14 14 (301056)
I0403 16:24:24.928936 21032 net.cpp:156] Memory required for data: 886912032
I0403 16:24:24.928951 21032 layer_factory.hpp:77] Creating layer inception_4a/output
I0403 16:24:24.928967 21032 net.cpp:91] Creating Layer inception_4a/output
I0403 16:24:24.928982 21032 net.cpp:425] inception_4a/output <- inception_4a/1x1
I0403 16:24:24.928998 21032 net.cpp:425] inception_4a/output <- inception_4a/3x3
I0403 16:24:24.929014 21032 net.cpp:425] inception_4a/output <- inception_4a/5x5
I0403 16:24:24.929035 21032 net.cpp:425] inception_4a/output <- inception_4a/pool_proj
I0403 16:24:24.929052 21032 net.cpp:399] inception_4a/output -> inception_4a/output
I0403 16:24:24.929097 21032 net.cpp:141] Setting up inception_4a/output
I0403 16:24:24.929121 21032 net.cpp:148] Top shape: 24 512 14 14 (2408448)
I0403 16:24:24.929136 21032 net.cpp:156] Memory required for data: 896545824
I0403 16:24:24.929149 21032 layer_factory.hpp:77] Creating layer inception_4a/output_inception_4a/output_0_split
I0403 16:24:24.929168 21032 net.cpp:91] Creating Layer inception_4a/output_inception_4a/output_0_split
I0403 16:24:24.929184 21032 net.cpp:425] inception_4a/output_inception_4a/output_0_split <- inception_4a/output
I0403 16:24:24.929201 21032 net.cpp:399] inception_4a/output_inception_4a/output_0_split -> inception_4a/output_inception_4a/output_0_split_0
I0403 16:24:24.929221 21032 net.cpp:399] inception_4a/output_inception_4a/output_0_split -> inception_4a/output_inception_4a/output_0_split_1
I0403 16:24:24.929241 21032 net.cpp:399] inception_4a/output_inception_4a/output_0_split -> inception_4a/output_inception_4a/output_0_split_2
I0403 16:24:24.929263 21032 net.cpp:399] inception_4a/output_inception_4a/output_0_split -> inception_4a/output_inception_4a/output_0_split_3
I0403 16:24:24.929283 21032 net.cpp:399] inception_4a/output_inception_4a/output_0_split -> inception_4a/output_inception_4a/output_0_split_4
I0403 16:24:24.929374 21032 net.cpp:141] Setting up inception_4a/output_inception_4a/output_0_split
I0403 16:24:24.929396 21032 net.cpp:148] Top shape: 24 512 14 14 (2408448)
I0403 16:24:24.929412 21032 net.cpp:148] Top shape: 24 512 14 14 (2408448)
I0403 16:24:24.929427 21032 net.cpp:148] Top shape: 24 512 14 14 (2408448)
I0403 16:24:24.929442 21032 net.cpp:148] Top shape: 24 512 14 14 (2408448)
I0403 16:24:24.929457 21032 net.cpp:148] Top shape: 24 512 14 14 (2408448)
I0403 16:24:24.929471 21032 net.cpp:156] Memory required for data: 944714784
I0403 16:24:24.929484 21032 layer_factory.hpp:77] Creating layer loss1/ave_pool
I0403 16:24:24.929505 21032 net.cpp:91] Creating Layer loss1/ave_pool
I0403 16:24:24.929522 21032 net.cpp:425] loss1/ave_pool <- inception_4a/output_inception_4a/output_0_split_0
I0403 16:24:24.929539 21032 net.cpp:399] loss1/ave_pool -> loss1/ave_pool
I0403 16:24:24.929741 21032 net.cpp:141] Setting up loss1/ave_pool
I0403 16:24:24.929769 21032 net.cpp:148] Top shape: 24 512 4 4 (196608)
I0403 16:24:24.929785 21032 net.cpp:156] Memory required for data: 945501216
I0403 16:24:24.929800 21032 layer_factory.hpp:77] Creating layer loss1/conv
I0403 16:24:24.929821 21032 net.cpp:91] Creating Layer loss1/conv
I0403 16:24:24.929838 21032 net.cpp:425] loss1/conv <- loss1/ave_pool
I0403 16:24:24.929857 21032 net.cpp:399] loss1/conv -> loss1/conv
I0403 16:24:24.931299 21032 net.cpp:141] Setting up loss1/conv
I0403 16:24:24.931327 21032 net.cpp:148] Top shape: 24 128 4 4 (49152)
I0403 16:24:24.931356 21032 net.cpp:156] Memory required for data: 945697824
I0403 16:24:24.931375 21032 layer_factory.hpp:77] Creating layer loss1/relu_conv
I0403 16:24:24.931396 21032 net.cpp:91] Creating Layer loss1/relu_conv
I0403 16:24:24.931412 21032 net.cpp:425] loss1/relu_conv <- loss1/conv
I0403 16:24:24.931429 21032 net.cpp:386] loss1/relu_conv -> loss1/conv (in-place)
I0403 16:24:24.931709 21032 net.cpp:141] Setting up loss1/relu_conv
I0403 16:24:24.931735 21032 net.cpp:148] Top shape: 24 128 4 4 (49152)
I0403 16:24:24.931749 21032 net.cpp:156] Memory required for data: 945894432
I0403 16:24:24.931763 21032 layer_factory.hpp:77] Creating layer loss1/fc
I0403 16:24:24.931788 21032 net.cpp:91] Creating Layer loss1/fc
I0403 16:24:24.931807 21032 net.cpp:425] loss1/fc <- loss1/conv
I0403 16:24:24.931824 21032 net.cpp:399] loss1/fc -> loss1/fc
I0403 16:24:24.949416 21032 net.cpp:141] Setting up loss1/fc
I0403 16:24:24.949451 21032 net.cpp:148] Top shape: 24 1024 (24576)
I0403 16:24:24.949465 21032 net.cpp:156] Memory required for data: 945992736
I0403 16:24:24.949483 21032 layer_factory.hpp:77] Creating layer loss1/relu_fc
I0403 16:24:24.949501 21032 net.cpp:91] Creating Layer loss1/relu_fc
I0403 16:24:24.949515 21032 net.cpp:425] loss1/relu_fc <- loss1/fc
I0403 16:24:24.949535 21032 net.cpp:386] loss1/relu_fc -> loss1/fc (in-place)
I0403 16:24:24.949713 21032 net.cpp:141] Setting up loss1/relu_fc
I0403 16:24:24.949738 21032 net.cpp:148] Top shape: 24 1024 (24576)
I0403 16:24:24.949751 21032 net.cpp:156] Memory required for data: 946091040
I0403 16:24:24.949765 21032 layer_factory.hpp:77] Creating layer loss1/drop_fc
I0403 16:24:24.949790 21032 net.cpp:91] Creating Layer loss1/drop_fc
I0403 16:24:24.949806 21032 net.cpp:425] loss1/drop_fc <- loss1/fc
I0403 16:24:24.949826 21032 net.cpp:386] loss1/drop_fc -> loss1/fc (in-place)
I0403 16:24:24.949875 21032 net.cpp:141] Setting up loss1/drop_fc
I0403 16:24:24.949897 21032 net.cpp:148] Top shape: 24 1024 (24576)
I0403 16:24:24.949910 21032 net.cpp:156] Memory required for data: 946189344
I0403 16:24:24.949924 21032 layer_factory.hpp:77] Creating layer loss1/classifier_plantvillage
I0403 16:24:24.949945 21032 net.cpp:91] Creating Layer loss1/classifier_plantvillage
I0403 16:24:24.949962 21032 net.cpp:425] loss1/classifier_plantvillage <- loss1/fc
I0403 16:24:24.949981 21032 net.cpp:399] loss1/classifier_plantvillage -> loss1/classifier_plantvillage
I0403 16:24:24.950878 21032 net.cpp:141] Setting up loss1/classifier_plantvillage
I0403 16:24:24.950906 21032 net.cpp:148] Top shape: 24 38 (912)
I0403 16:24:24.950919 21032 net.cpp:156] Memory required for data: 946192992
I0403 16:24:24.950937 21032 layer_factory.hpp:77] Creating layer loss1/classifier_plantvillage_loss1/classifier_plantvillage_0_split
I0403 16:24:24.950954 21032 net.cpp:91] Creating Layer loss1/classifier_plantvillage_loss1/classifier_plantvillage_0_split
I0403 16:24:24.950970 21032 net.cpp:425] loss1/classifier_plantvillage_loss1/classifier_plantvillage_0_split <- loss1/classifier_plantvillage
I0403 16:24:24.950989 21032 net.cpp:399] loss1/classifier_plantvillage_loss1/classifier_plantvillage_0_split -> loss1/classifier_plantvillage_loss1/classifier_plantvillage_0_split_0
I0403 16:24:24.951009 21032 net.cpp:399] loss1/classifier_plantvillage_loss1/classifier_plantvillage_0_split -> loss1/classifier_plantvillage_loss1/classifier_plantvillage_0_split_1
I0403 16:24:24.951033 21032 net.cpp:399] loss1/classifier_plantvillage_loss1/classifier_plantvillage_0_split -> loss1/classifier_plantvillage_loss1/classifier_plantvillage_0_split_2
I0403 16:24:24.951097 21032 net.cpp:141] Setting up loss1/classifier_plantvillage_loss1/classifier_plantvillage_0_split
I0403 16:24:24.951120 21032 net.cpp:148] Top shape: 24 38 (912)
I0403 16:24:24.951138 21032 net.cpp:148] Top shape: 24 38 (912)
I0403 16:24:24.951151 21032 net.cpp:148] Top shape: 24 38 (912)
I0403 16:24:24.951164 21032 net.cpp:156] Memory required for data: 946203936
I0403 16:24:24.951179 21032 layer_factory.hpp:77] Creating layer inception_4b/1x1
I0403 16:24:24.951197 21032 net.cpp:91] Creating Layer inception_4b/1x1
I0403 16:24:24.951230 21032 net.cpp:425] inception_4b/1x1 <- inception_4a/output_inception_4a/output_0_split_1
I0403 16:24:24.951248 21032 net.cpp:399] inception_4b/1x1 -> inception_4b/1x1
I0403 16:24:24.952867 21032 net.cpp:141] Setting up inception_4b/1x1
I0403 16:24:24.952894 21032 net.cpp:148] Top shape: 24 160 14 14 (752640)
I0403 16:24:24.952909 21032 net.cpp:156] Memory required for data: 949214496
I0403 16:24:24.952927 21032 layer_factory.hpp:77] Creating layer inception_4b/relu_1x1
I0403 16:24:24.952949 21032 net.cpp:91] Creating Layer inception_4b/relu_1x1
I0403 16:24:24.952965 21032 net.cpp:425] inception_4b/relu_1x1 <- inception_4b/1x1
I0403 16:24:24.952982 21032 net.cpp:386] inception_4b/relu_1x1 -> inception_4b/1x1 (in-place)
I0403 16:24:24.953166 21032 net.cpp:141] Setting up inception_4b/relu_1x1
I0403 16:24:24.953191 21032 net.cpp:148] Top shape: 24 160 14 14 (752640)
I0403 16:24:24.953205 21032 net.cpp:156] Memory required for data: 952225056
I0403 16:24:24.953220 21032 layer_factory.hpp:77] Creating layer inception_4b/3x3_reduce
I0403 16:24:24.953243 21032 net.cpp:91] Creating Layer inception_4b/3x3_reduce
I0403 16:24:24.953260 21032 net.cpp:425] inception_4b/3x3_reduce <- inception_4a/output_inception_4a/output_0_split_2
I0403 16:24:24.953279 21032 net.cpp:399] inception_4b/3x3_reduce -> inception_4b/3x3_reduce
I0403 16:24:24.954646 21032 net.cpp:141] Setting up inception_4b/3x3_reduce
I0403 16:24:24.954674 21032 net.cpp:148] Top shape: 24 112 14 14 (526848)
I0403 16:24:24.954689 21032 net.cpp:156] Memory required for data: 954332448
I0403 16:24:24.954706 21032 layer_factory.hpp:77] Creating layer inception_4b/relu_3x3_reduce
I0403 16:24:24.954727 21032 net.cpp:91] Creating Layer inception_4b/relu_3x3_reduce
I0403 16:24:24.954744 21032 net.cpp:425] inception_4b/relu_3x3_reduce <- inception_4b/3x3_reduce
I0403 16:24:24.954761 21032 net.cpp:386] inception_4b/relu_3x3_reduce -> inception_4b/3x3_reduce (in-place)
I0403 16:24:24.955042 21032 net.cpp:141] Setting up inception_4b/relu_3x3_reduce
I0403 16:24:24.955068 21032 net.cpp:148] Top shape: 24 112 14 14 (526848)
I0403 16:24:24.955083 21032 net.cpp:156] Memory required for data: 956439840
I0403 16:24:24.955098 21032 layer_factory.hpp:77] Creating layer inception_4b/3x3
I0403 16:24:24.955121 21032 net.cpp:91] Creating Layer inception_4b/3x3
I0403 16:24:24.955138 21032 net.cpp:425] inception_4b/3x3 <- inception_4b/3x3_reduce
I0403 16:24:24.955157 21032 net.cpp:399] inception_4b/3x3 -> inception_4b/3x3
I0403 16:24:24.958112 21032 net.cpp:141] Setting up inception_4b/3x3
I0403 16:24:24.958144 21032 net.cpp:148] Top shape: 24 224 14 14 (1053696)
I0403 16:24:24.958160 21032 net.cpp:156] Memory required for data: 960654624
I0403 16:24:24.958179 21032 layer_factory.hpp:77] Creating layer inception_4b/relu_3x3
I0403 16:24:24.958197 21032 net.cpp:91] Creating Layer inception_4b/relu_3x3
I0403 16:24:24.958214 21032 net.cpp:425] inception_4b/relu_3x3 <- inception_4b/3x3
I0403 16:24:24.958232 21032 net.cpp:386] inception_4b/relu_3x3 -> inception_4b/3x3 (in-place)
I0403 16:24:24.958410 21032 net.cpp:141] Setting up inception_4b/relu_3x3
I0403 16:24:24.958436 21032 net.cpp:148] Top shape: 24 224 14 14 (1053696)
I0403 16:24:24.958449 21032 net.cpp:156] Memory required for data: 964869408
I0403 16:24:24.958464 21032 layer_factory.hpp:77] Creating layer inception_4b/5x5_reduce
I0403 16:24:24.958485 21032 net.cpp:91] Creating Layer inception_4b/5x5_reduce
I0403 16:24:24.958503 21032 net.cpp:425] inception_4b/5x5_reduce <- inception_4a/output_inception_4a/output_0_split_3
I0403 16:24:24.958524 21032 net.cpp:399] inception_4b/5x5_reduce -> inception_4b/5x5_reduce
I0403 16:24:24.959604 21032 net.cpp:141] Setting up inception_4b/5x5_reduce
I0403 16:24:24.959632 21032 net.cpp:148] Top shape: 24 24 14 14 (112896)
I0403 16:24:24.959647 21032 net.cpp:156] Memory required for data: 965320992
I0403 16:24:24.959666 21032 layer_factory.hpp:77] Creating layer inception_4b/relu_5x5_reduce
I0403 16:24:24.959686 21032 net.cpp:91] Creating Layer inception_4b/relu_5x5_reduce
I0403 16:24:24.959717 21032 net.cpp:425] inception_4b/relu_5x5_reduce <- inception_4b/5x5_reduce
I0403 16:24:24.959734 21032 net.cpp:386] inception_4b/relu_5x5_reduce -> inception_4b/5x5_reduce (in-place)
I0403 16:24:24.959913 21032 net.cpp:141] Setting up inception_4b/relu_5x5_reduce
I0403 16:24:24.959939 21032 net.cpp:148] Top shape: 24 24 14 14 (112896)
I0403 16:24:24.959954 21032 net.cpp:156] Memory required for data: 965772576
I0403 16:24:24.959969 21032 layer_factory.hpp:77] Creating layer inception_4b/5x5
I0403 16:24:24.959991 21032 net.cpp:91] Creating Layer inception_4b/5x5
I0403 16:24:24.960008 21032 net.cpp:425] inception_4b/5x5 <- inception_4b/5x5_reduce
I0403 16:24:24.960032 21032 net.cpp:399] inception_4b/5x5 -> inception_4b/5x5
I0403 16:24:24.961258 21032 net.cpp:141] Setting up inception_4b/5x5
I0403 16:24:24.961285 21032 net.cpp:148] Top shape: 24 64 14 14 (301056)
I0403 16:24:24.961302 21032 net.cpp:156] Memory required for data: 966976800
I0403 16:24:24.961319 21032 layer_factory.hpp:77] Creating layer inception_4b/relu_5x5
I0403 16:24:24.961339 21032 net.cpp:91] Creating Layer inception_4b/relu_5x5
I0403 16:24:24.961356 21032 net.cpp:425] inception_4b/relu_5x5 <- inception_4b/5x5
I0403 16:24:24.961374 21032 net.cpp:386] inception_4b/relu_5x5 -> inception_4b/5x5 (in-place)
I0403 16:24:24.961663 21032 net.cpp:141] Setting up inception_4b/relu_5x5
I0403 16:24:24.961689 21032 net.cpp:148] Top shape: 24 64 14 14 (301056)
I0403 16:24:24.961704 21032 net.cpp:156] Memory required for data: 968181024
I0403 16:24:24.961719 21032 layer_factory.hpp:77] Creating layer inception_4b/pool
I0403 16:24:24.961737 21032 net.cpp:91] Creating Layer inception_4b/pool
I0403 16:24:24.961755 21032 net.cpp:425] inception_4b/pool <- inception_4a/output_inception_4a/output_0_split_4
I0403 16:24:24.961771 21032 net.cpp:399] inception_4b/pool -> inception_4b/pool
I0403 16:24:24.961836 21032 net.cpp:141] Setting up inception_4b/pool
I0403 16:24:24.961860 21032 net.cpp:148] Top shape: 24 512 14 14 (2408448)
I0403 16:24:24.961876 21032 net.cpp:156] Memory required for data: 977814816
I0403 16:24:24.961891 21032 layer_factory.hpp:77] Creating layer inception_4b/pool_proj
I0403 16:24:24.961912 21032 net.cpp:91] Creating Layer inception_4b/pool_proj
I0403 16:24:24.961930 21032 net.cpp:425] inception_4b/pool_proj <- inception_4b/pool
I0403 16:24:24.961951 21032 net.cpp:399] inception_4b/pool_proj -> inception_4b/pool_proj
I0403 16:24:24.963143 21032 net.cpp:141] Setting up inception_4b/pool_proj
I0403 16:24:24.963171 21032 net.cpp:148] Top shape: 24 64 14 14 (301056)
I0403 16:24:24.963186 21032 net.cpp:156] Memory required for data: 979019040
I0403 16:24:24.963204 21032 layer_factory.hpp:77] Creating layer inception_4b/relu_pool_proj
I0403 16:24:24.963227 21032 net.cpp:91] Creating Layer inception_4b/relu_pool_proj
I0403 16:24:24.963243 21032 net.cpp:425] inception_4b/relu_pool_proj <- inception_4b/pool_proj
I0403 16:24:24.963259 21032 net.cpp:386] inception_4b/relu_pool_proj -> inception_4b/pool_proj (in-place)
I0403 16:24:24.963435 21032 net.cpp:141] Setting up inception_4b/relu_pool_proj
I0403 16:24:24.963464 21032 net.cpp:148] Top shape: 24 64 14 14 (301056)
I0403 16:24:24.963479 21032 net.cpp:156] Memory required for data: 980223264
I0403 16:24:24.963493 21032 layer_factory.hpp:77] Creating layer inception_4b/output
I0403 16:24:24.963512 21032 net.cpp:91] Creating Layer inception_4b/output
I0403 16:24:24.963528 21032 net.cpp:425] inception_4b/output <- inception_4b/1x1
I0403 16:24:24.963544 21032 net.cpp:425] inception_4b/output <- inception_4b/3x3
I0403 16:24:24.963559 21032 net.cpp:425] inception_4b/output <- inception_4b/5x5
I0403 16:24:24.963575 21032 net.cpp:425] inception_4b/output <- inception_4b/pool_proj
I0403 16:24:24.963592 21032 net.cpp:399] inception_4b/output -> inception_4b/output
I0403 16:24:24.963637 21032 net.cpp:141] Setting up inception_4b/output
I0403 16:24:24.963660 21032 net.cpp:148] Top shape: 24 512 14 14 (2408448)
I0403 16:24:24.963675 21032 net.cpp:156] Memory required for data: 989857056
I0403 16:24:24.963703 21032 layer_factory.hpp:77] Creating layer inception_4b/output_inception_4b/output_0_split
I0403 16:24:24.963721 21032 net.cpp:91] Creating Layer inception_4b/output_inception_4b/output_0_split
I0403 16:24:24.963737 21032 net.cpp:425] inception_4b/output_inception_4b/output_0_split <- inception_4b/output
I0403 16:24:24.963755 21032 net.cpp:399] inception_4b/output_inception_4b/output_0_split -> inception_4b/output_inception_4b/output_0_split_0
I0403 16:24:24.963776 21032 net.cpp:399] inception_4b/output_inception_4b/output_0_split -> inception_4b/output_inception_4b/output_0_split_1
I0403 16:24:24.963796 21032 net.cpp:399] inception_4b/output_inception_4b/output_0_split -> inception_4b/output_inception_4b/output_0_split_2
I0403 16:24:24.963817 21032 net.cpp:399] inception_4b/output_inception_4b/output_0_split -> inception_4b/output_inception_4b/output_0_split_3
I0403 16:24:24.963903 21032 net.cpp:141] Setting up inception_4b/output_inception_4b/output_0_split
I0403 16:24:24.963927 21032 net.cpp:148] Top shape: 24 512 14 14 (2408448)
I0403 16:24:24.963943 21032 net.cpp:148] Top shape: 24 512 14 14 (2408448)
I0403 16:24:24.963958 21032 net.cpp:148] Top shape: 24 512 14 14 (2408448)
I0403 16:24:24.963973 21032 net.cpp:148] Top shape: 24 512 14 14 (2408448)
I0403 16:24:24.963986 21032 net.cpp:156] Memory required for data: 1028392224
I0403 16:24:24.964001 21032 layer_factory.hpp:77] Creating layer inception_4c/1x1
I0403 16:24:24.964026 21032 net.cpp:91] Creating Layer inception_4c/1x1
I0403 16:24:24.964046 21032 net.cpp:425] inception_4c/1x1 <- inception_4b/output_inception_4b/output_0_split_0
I0403 16:24:24.964066 21032 net.cpp:399] inception_4c/1x1 -> inception_4c/1x1
I0403 16:24:24.965490 21032 net.cpp:141] Setting up inception_4c/1x1
I0403 16:24:24.965520 21032 net.cpp:148] Top shape: 24 128 14 14 (602112)
I0403 16:24:24.965538 21032 net.cpp:156] Memory required for data: 1030800672
I0403 16:24:24.965556 21032 layer_factory.hpp:77] Creating layer inception_4c/relu_1x1
I0403 16:24:24.965574 21032 net.cpp:91] Creating Layer inception_4c/relu_1x1
I0403 16:24:24.965590 21032 net.cpp:425] inception_4c/relu_1x1 <- inception_4c/1x1
I0403 16:24:24.965607 21032 net.cpp:386] inception_4c/relu_1x1 -> inception_4c/1x1 (in-place)
I0403 16:24:24.965785 21032 net.cpp:141] Setting up inception_4c/relu_1x1
I0403 16:24:24.965809 21032 net.cpp:148] Top shape: 24 128 14 14 (602112)
I0403 16:24:24.965823 21032 net.cpp:156] Memory required for data: 1033209120
I0403 16:24:24.965838 21032 layer_factory.hpp:77] Creating layer inception_4c/3x3_reduce
I0403 16:24:24.965859 21032 net.cpp:91] Creating Layer inception_4c/3x3_reduce
I0403 16:24:24.965876 21032 net.cpp:425] inception_4c/3x3_reduce <- inception_4b/output_inception_4b/output_0_split_1
I0403 16:24:24.965896 21032 net.cpp:399] inception_4c/3x3_reduce -> inception_4c/3x3_reduce
I0403 16:24:24.967823 21032 net.cpp:141] Setting up inception_4c/3x3_reduce
I0403 16:24:24.967852 21032 net.cpp:148] Top shape: 24 128 14 14 (602112)
I0403 16:24:24.967869 21032 net.cpp:156] Memory required for data: 1035617568
I0403 16:24:24.967886 21032 layer_factory.hpp:77] Creating layer inception_4c/relu_3x3_reduce
I0403 16:24:24.967906 21032 net.cpp:91] Creating Layer inception_4c/relu_3x3_reduce
I0403 16:24:24.967922 21032 net.cpp:425] inception_4c/relu_3x3_reduce <- inception_4c/3x3_reduce
I0403 16:24:24.967941 21032 net.cpp:386] inception_4c/relu_3x3_reduce -> inception_4c/3x3_reduce (in-place)
I0403 16:24:24.968235 21032 net.cpp:141] Setting up inception_4c/relu_3x3_reduce
I0403 16:24:24.968261 21032 net.cpp:148] Top shape: 24 128 14 14 (602112)
I0403 16:24:24.968276 21032 net.cpp:156] Memory required for data: 1038026016
I0403 16:24:24.968291 21032 layer_factory.hpp:77] Creating layer inception_4c/3x3
I0403 16:24:24.968312 21032 net.cpp:91] Creating Layer inception_4c/3x3
I0403 16:24:24.968330 21032 net.cpp:425] inception_4c/3x3 <- inception_4c/3x3_reduce
I0403 16:24:24.968353 21032 net.cpp:399] inception_4c/3x3 -> inception_4c/3x3
I0403 16:24:24.971961 21032 net.cpp:141] Setting up inception_4c/3x3
I0403 16:24:24.972005 21032 net.cpp:148] Top shape: 24 256 14 14 (1204224)
I0403 16:24:24.972028 21032 net.cpp:156] Memory required for data: 1042842912
I0403 16:24:24.972062 21032 layer_factory.hpp:77] Creating layer inception_4c/relu_3x3
I0403 16:24:24.972085 21032 net.cpp:91] Creating Layer inception_4c/relu_3x3
I0403 16:24:24.972103 21032 net.cpp:425] inception_4c/relu_3x3 <- inception_4c/3x3
I0403 16:24:24.972121 21032 net.cpp:386] inception_4c/relu_3x3 -> inception_4c/3x3 (in-place)
I0403 16:24:24.972318 21032 net.cpp:141] Setting up inception_4c/relu_3x3
I0403 16:24:24.972343 21032 net.cpp:148] Top shape: 24 256 14 14 (1204224)
I0403 16:24:24.972357 21032 net.cpp:156] Memory required for data: 1047659808
I0403 16:24:24.972373 21032 layer_factory.hpp:77] Creating layer inception_4c/5x5_reduce
I0403 16:24:24.972393 21032 net.cpp:91] Creating Layer inception_4c/5x5_reduce
I0403 16:24:24.972412 21032 net.cpp:425] inception_4c/5x5_reduce <- inception_4b/output_inception_4b/output_0_split_2
I0403 16:24:24.972434 21032 net.cpp:399] inception_4c/5x5_reduce -> inception_4c/5x5_reduce
I0403 16:24:24.973521 21032 net.cpp:141] Setting up inception_4c/5x5_reduce
I0403 16:24:24.973549 21032 net.cpp:148] Top shape: 24 24 14 14 (112896)
I0403 16:24:24.973564 21032 net.cpp:156] Memory required for data: 1048111392
I0403 16:24:24.973582 21032 layer_factory.hpp:77] Creating layer inception_4c/relu_5x5_reduce
I0403 16:24:24.973603 21032 net.cpp:91] Creating Layer inception_4c/relu_5x5_reduce
I0403 16:24:24.973618 21032 net.cpp:425] inception_4c/relu_5x5_reduce <- inception_4c/5x5_reduce
I0403 16:24:24.973635 21032 net.cpp:386] inception_4c/relu_5x5_reduce -> inception_4c/5x5_reduce (in-place)
I0403 16:24:24.973817 21032 net.cpp:141] Setting up inception_4c/relu_5x5_reduce
I0403 16:24:24.973845 21032 net.cpp:148] Top shape: 24 24 14 14 (112896)
I0403 16:24:24.973860 21032 net.cpp:156] Memory required for data: 1048562976
I0403 16:24:24.973875 21032 layer_factory.hpp:77] Creating layer inception_4c/5x5
I0403 16:24:24.973896 21032 net.cpp:91] Creating Layer inception_4c/5x5
I0403 16:24:24.973913 21032 net.cpp:425] inception_4c/5x5 <- inception_4c/5x5_reduce
I0403 16:24:24.973932 21032 net.cpp:399] inception_4c/5x5 -> inception_4c/5x5
I0403 16:24:24.975216 21032 net.cpp:141] Setting up inception_4c/5x5
I0403 16:24:24.975246 21032 net.cpp:148] Top shape: 24 64 14 14 (301056)
I0403 16:24:24.975262 21032 net.cpp:156] Memory required for data: 1049767200
I0403 16:24:24.975281 21032 layer_factory.hpp:77] Creating layer inception_4c/relu_5x5
I0403 16:24:24.975297 21032 net.cpp:91] Creating Layer inception_4c/relu_5x5
I0403 16:24:24.975312 21032 net.cpp:425] inception_4c/relu_5x5 <- inception_4c/5x5
I0403 16:24:24.975332 21032 net.cpp:386] inception_4c/relu_5x5 -> inception_4c/5x5 (in-place)
I0403 16:24:24.975620 21032 net.cpp:141] Setting up inception_4c/relu_5x5
I0403 16:24:24.975649 21032 net.cpp:148] Top shape: 24 64 14 14 (301056)
I0403 16:24:24.975666 21032 net.cpp:156] Memory required for data: 1050971424
I0403 16:24:24.975680 21032 layer_factory.hpp:77] Creating layer inception_4c/pool
I0403 16:24:24.975698 21032 net.cpp:91] Creating Layer inception_4c/pool
I0403 16:24:24.975714 21032 net.cpp:425] inception_4c/pool <- inception_4b/output_inception_4b/output_0_split_3
I0403 16:24:24.975734 21032 net.cpp:399] inception_4c/pool -> inception_4c/pool
I0403 16:24:24.975800 21032 net.cpp:141] Setting up inception_4c/pool
I0403 16:24:24.975823 21032 net.cpp:148] Top shape: 24 512 14 14 (2408448)
I0403 16:24:24.975838 21032 net.cpp:156] Memory required for data: 1060605216
I0403 16:24:24.975852 21032 layer_factory.hpp:77] Creating layer inception_4c/pool_proj
I0403 16:24:24.975873 21032 net.cpp:91] Creating Layer inception_4c/pool_proj
I0403 16:24:24.975891 21032 net.cpp:425] inception_4c/pool_proj <- inception_4c/pool
I0403 16:24:24.975911 21032 net.cpp:399] inception_4c/pool_proj -> inception_4c/pool_proj
I0403 16:24:24.977197 21032 net.cpp:141] Setting up inception_4c/pool_proj
I0403 16:24:24.977226 21032 net.cpp:148] Top shape: 24 64 14 14 (301056)
I0403 16:24:24.977257 21032 net.cpp:156] Memory required for data: 1061809440
I0403 16:24:24.977277 21032 layer_factory.hpp:77] Creating layer inception_4c/relu_pool_proj
I0403 16:24:24.977298 21032 net.cpp:91] Creating Layer inception_4c/relu_pool_proj
I0403 16:24:24.977315 21032 net.cpp:425] inception_4c/relu_pool_proj <- inception_4c/pool_proj
I0403 16:24:24.977332 21032 net.cpp:386] inception_4c/relu_pool_proj -> inception_4c/pool_proj (in-place)
I0403 16:24:24.977524 21032 net.cpp:141] Setting up inception_4c/relu_pool_proj
I0403 16:24:24.977548 21032 net.cpp:148] Top shape: 24 64 14 14 (301056)
I0403 16:24:24.977563 21032 net.cpp:156] Memory required for data: 1063013664
I0403 16:24:24.977579 21032 layer_factory.hpp:77] Creating layer inception_4c/output
I0403 16:24:24.977599 21032 net.cpp:91] Creating Layer inception_4c/output
I0403 16:24:24.977615 21032 net.cpp:425] inception_4c/output <- inception_4c/1x1
I0403 16:24:24.977632 21032 net.cpp:425] inception_4c/output <- inception_4c/3x3
I0403 16:24:24.977648 21032 net.cpp:425] inception_4c/output <- inception_4c/5x5
I0403 16:24:24.977666 21032 net.cpp:425] inception_4c/output <- inception_4c/pool_proj
I0403 16:24:24.977684 21032 net.cpp:399] inception_4c/output -> inception_4c/output
I0403 16:24:24.977733 21032 net.cpp:141] Setting up inception_4c/output
I0403 16:24:24.977757 21032 net.cpp:148] Top shape: 24 512 14 14 (2408448)
I0403 16:24:24.977771 21032 net.cpp:156] Memory required for data: 1072647456
I0403 16:24:24.977787 21032 layer_factory.hpp:77] Creating layer inception_4c/output_inception_4c/output_0_split
I0403 16:24:24.977802 21032 net.cpp:91] Creating Layer inception_4c/output_inception_4c/output_0_split
I0403 16:24:24.977818 21032 net.cpp:425] inception_4c/output_inception_4c/output_0_split <- inception_4c/output
I0403 16:24:24.977838 21032 net.cpp:399] inception_4c/output_inception_4c/output_0_split -> inception_4c/output_inception_4c/output_0_split_0
I0403 16:24:24.977859 21032 net.cpp:399] inception_4c/output_inception_4c/output_0_split -> inception_4c/output_inception_4c/output_0_split_1
I0403 16:24:24.977880 21032 net.cpp:399] inception_4c/output_inception_4c/output_0_split -> inception_4c/output_inception_4c/output_0_split_2
I0403 16:24:24.977900 21032 net.cpp:399] inception_4c/output_inception_4c/output_0_split -> inception_4c/output_inception_4c/output_0_split_3
I0403 16:24:24.977993 21032 net.cpp:141] Setting up inception_4c/output_inception_4c/output_0_split
I0403 16:24:24.978015 21032 net.cpp:148] Top shape: 24 512 14 14 (2408448)
I0403 16:24:24.978045 21032 net.cpp:148] Top shape: 24 512 14 14 (2408448)
I0403 16:24:24.978062 21032 net.cpp:148] Top shape: 24 512 14 14 (2408448)
I0403 16:24:24.978077 21032 net.cpp:148] Top shape: 24 512 14 14 (2408448)
I0403 16:24:24.978091 21032 net.cpp:156] Memory required for data: 1111182624
I0403 16:24:24.978106 21032 layer_factory.hpp:77] Creating layer inception_4d/1x1
I0403 16:24:24.978128 21032 net.cpp:91] Creating Layer inception_4d/1x1
I0403 16:24:24.978147 21032 net.cpp:425] inception_4d/1x1 <- inception_4c/output_inception_4c/output_0_split_0
I0403 16:24:24.978168 21032 net.cpp:399] inception_4d/1x1 -> inception_4d/1x1
I0403 16:24:24.979595 21032 net.cpp:141] Setting up inception_4d/1x1
I0403 16:24:24.979624 21032 net.cpp:148] Top shape: 24 112 14 14 (526848)
I0403 16:24:24.979640 21032 net.cpp:156] Memory required for data: 1113290016
I0403 16:24:24.979657 21032 layer_factory.hpp:77] Creating layer inception_4d/relu_1x1
I0403 16:24:24.979676 21032 net.cpp:91] Creating Layer inception_4d/relu_1x1
I0403 16:24:24.979691 21032 net.cpp:425] inception_4d/relu_1x1 <- inception_4d/1x1
I0403 16:24:24.979712 21032 net.cpp:386] inception_4d/relu_1x1 -> inception_4d/1x1 (in-place)
I0403 16:24:24.979902 21032 net.cpp:141] Setting up inception_4d/relu_1x1
I0403 16:24:24.979928 21032 net.cpp:148] Top shape: 24 112 14 14 (526848)
I0403 16:24:24.979943 21032 net.cpp:156] Memory required for data: 1115397408
I0403 16:24:24.979957 21032 layer_factory.hpp:77] Creating layer inception_4d/3x3_reduce
I0403 16:24:24.979993 21032 net.cpp:91] Creating Layer inception_4d/3x3_reduce
I0403 16:24:24.980012 21032 net.cpp:425] inception_4d/3x3_reduce <- inception_4c/output_inception_4c/output_0_split_1
I0403 16:24:24.980039 21032 net.cpp:399] inception_4d/3x3_reduce -> inception_4d/3x3_reduce
I0403 16:24:24.981597 21032 net.cpp:141] Setting up inception_4d/3x3_reduce
I0403 16:24:24.981628 21032 net.cpp:148] Top shape: 24 144 14 14 (677376)
I0403 16:24:24.981644 21032 net.cpp:156] Memory required for data: 1118106912
I0403 16:24:24.981663 21032 layer_factory.hpp:77] Creating layer inception_4d/relu_3x3_reduce
I0403 16:24:24.981681 21032 net.cpp:91] Creating Layer inception_4d/relu_3x3_reduce
I0403 16:24:24.981698 21032 net.cpp:425] inception_4d/relu_3x3_reduce <- inception_4d/3x3_reduce
I0403 16:24:24.981715 21032 net.cpp:386] inception_4d/relu_3x3_reduce -> inception_4d/3x3_reduce (in-place)
I0403 16:24:24.982010 21032 net.cpp:141] Setting up inception_4d/relu_3x3_reduce
I0403 16:24:24.982043 21032 net.cpp:148] Top shape: 24 144 14 14 (677376)
I0403 16:24:24.982060 21032 net.cpp:156] Memory required for data: 1120816416
I0403 16:24:24.982075 21032 layer_factory.hpp:77] Creating layer inception_4d/3x3
I0403 16:24:24.982098 21032 net.cpp:91] Creating Layer inception_4d/3x3
I0403 16:24:24.982116 21032 net.cpp:425] inception_4d/3x3 <- inception_4d/3x3_reduce
I0403 16:24:24.982136 21032 net.cpp:399] inception_4d/3x3 -> inception_4d/3x3
I0403 16:24:24.986543 21032 net.cpp:141] Setting up inception_4d/3x3
I0403 16:24:24.986573 21032 net.cpp:148] Top shape: 24 288 14 14 (1354752)
I0403 16:24:24.986589 21032 net.cpp:156] Memory required for data: 1126235424
I0403 16:24:24.986608 21032 layer_factory.hpp:77] Creating layer inception_4d/relu_3x3
I0403 16:24:24.986626 21032 net.cpp:91] Creating Layer inception_4d/relu_3x3
I0403 16:24:24.986642 21032 net.cpp:425] inception_4d/relu_3x3 <- inception_4d/3x3
I0403 16:24:24.986662 21032 net.cpp:386] inception_4d/relu_3x3 -> inception_4d/3x3 (in-place)
I0403 16:24:24.986852 21032 net.cpp:141] Setting up inception_4d/relu_3x3
I0403 16:24:24.986877 21032 net.cpp:148] Top shape: 24 288 14 14 (1354752)
I0403 16:24:24.986893 21032 net.cpp:156] Memory required for data: 1131654432
I0403 16:24:24.986908 21032 layer_factory.hpp:77] Creating layer inception_4d/5x5_reduce
I0403 16:24:24.986930 21032 net.cpp:91] Creating Layer inception_4d/5x5_reduce
I0403 16:24:24.986948 21032 net.cpp:425] inception_4d/5x5_reduce <- inception_4c/output_inception_4c/output_0_split_2
I0403 16:24:24.986969 21032 net.cpp:399] inception_4d/5x5_reduce -> inception_4d/5x5_reduce
I0403 16:24:24.988168 21032 net.cpp:141] Setting up inception_4d/5x5_reduce
I0403 16:24:24.988196 21032 net.cpp:148] Top shape: 24 32 14 14 (150528)
I0403 16:24:24.988212 21032 net.cpp:156] Memory required for data: 1132256544
I0403 16:24:24.988232 21032 layer_factory.hpp:77] Creating layer inception_4d/relu_5x5_reduce
I0403 16:24:24.988250 21032 net.cpp:91] Creating Layer inception_4d/relu_5x5_reduce
I0403 16:24:24.988270 21032 net.cpp:425] inception_4d/relu_5x5_reduce <- inception_4d/5x5_reduce
I0403 16:24:24.988287 21032 net.cpp:386] inception_4d/relu_5x5_reduce -> inception_4d/5x5_reduce (in-place)
I0403 16:24:24.988484 21032 net.cpp:141] Setting up inception_4d/relu_5x5_reduce
I0403 16:24:24.988509 21032 net.cpp:148] Top shape: 24 32 14 14 (150528)
I0403 16:24:24.988523 21032 net.cpp:156] Memory required for data: 1132858656
I0403 16:24:24.988539 21032 layer_factory.hpp:77] Creating layer inception_4d/5x5
I0403 16:24:24.988561 21032 net.cpp:91] Creating Layer inception_4d/5x5
I0403 16:24:24.988579 21032 net.cpp:425] inception_4d/5x5 <- inception_4d/5x5_reduce
I0403 16:24:24.988601 21032 net.cpp:399] inception_4d/5x5 -> inception_4d/5x5
I0403 16:24:24.990182 21032 net.cpp:141] Setting up inception_4d/5x5
I0403 16:24:24.990211 21032 net.cpp:148] Top shape: 24 64 14 14 (301056)
I0403 16:24:24.990227 21032 net.cpp:156] Memory required for data: 1134062880
I0403 16:24:24.990247 21032 layer_factory.hpp:77] Creating layer inception_4d/relu_5x5
I0403 16:24:24.990284 21032 net.cpp:91] Creating Layer inception_4d/relu_5x5
I0403 16:24:24.990303 21032 net.cpp:425] inception_4d/relu_5x5 <- inception_4d/5x5
I0403 16:24:24.990334 21032 net.cpp:386] inception_4d/relu_5x5 -> inception_4d/5x5 (in-place)
I0403 16:24:24.990645 21032 net.cpp:141] Setting up inception_4d/relu_5x5
I0403 16:24:24.990672 21032 net.cpp:148] Top shape: 24 64 14 14 (301056)
I0403 16:24:24.990687 21032 net.cpp:156] Memory required for data: 1135267104
I0403 16:24:24.990702 21032 layer_factory.hpp:77] Creating layer inception_4d/pool
I0403 16:24:24.990723 21032 net.cpp:91] Creating Layer inception_4d/pool
I0403 16:24:24.990741 21032 net.cpp:425] inception_4d/pool <- inception_4c/output_inception_4c/output_0_split_3
I0403 16:24:24.990758 21032 net.cpp:399] inception_4d/pool -> inception_4d/pool
I0403 16:24:24.990828 21032 net.cpp:141] Setting up inception_4d/pool
I0403 16:24:24.990854 21032 net.cpp:148] Top shape: 24 512 14 14 (2408448)
I0403 16:24:24.990869 21032 net.cpp:156] Memory required for data: 1144900896
I0403 16:24:24.990882 21032 layer_factory.hpp:77] Creating layer inception_4d/pool_proj
I0403 16:24:24.990905 21032 net.cpp:91] Creating Layer inception_4d/pool_proj
I0403 16:24:24.990922 21032 net.cpp:425] inception_4d/pool_proj <- inception_4d/pool
I0403 16:24:24.990943 21032 net.cpp:399] inception_4d/pool_proj -> inception_4d/pool_proj
I0403 16:24:24.992760 21032 net.cpp:141] Setting up inception_4d/pool_proj
I0403 16:24:24.992790 21032 net.cpp:148] Top shape: 24 64 14 14 (301056)
I0403 16:24:24.992806 21032 net.cpp:156] Memory required for data: 1146105120
I0403 16:24:24.992826 21032 layer_factory.hpp:77] Creating layer inception_4d/relu_pool_proj
I0403 16:24:24.992844 21032 net.cpp:91] Creating Layer inception_4d/relu_pool_proj
I0403 16:24:24.992861 21032 net.cpp:425] inception_4d/relu_pool_proj <- inception_4d/pool_proj
I0403 16:24:24.992880 21032 net.cpp:386] inception_4d/relu_pool_proj -> inception_4d/pool_proj (in-place)
I0403 16:24:24.993075 21032 net.cpp:141] Setting up inception_4d/relu_pool_proj
I0403 16:24:24.993100 21032 net.cpp:148] Top shape: 24 64 14 14 (301056)
I0403 16:24:24.993115 21032 net.cpp:156] Memory required for data: 1147309344
I0403 16:24:24.993131 21032 layer_factory.hpp:77] Creating layer inception_4d/output
I0403 16:24:24.993150 21032 net.cpp:91] Creating Layer inception_4d/output
I0403 16:24:24.993167 21032 net.cpp:425] inception_4d/output <- inception_4d/1x1
I0403 16:24:24.993183 21032 net.cpp:425] inception_4d/output <- inception_4d/3x3
I0403 16:24:24.993201 21032 net.cpp:425] inception_4d/output <- inception_4d/5x5
I0403 16:24:24.993217 21032 net.cpp:425] inception_4d/output <- inception_4d/pool_proj
I0403 16:24:24.993234 21032 net.cpp:399] inception_4d/output -> inception_4d/output
I0403 16:24:24.993285 21032 net.cpp:141] Setting up inception_4d/output
I0403 16:24:24.993309 21032 net.cpp:148] Top shape: 24 528 14 14 (2483712)
I0403 16:24:24.993324 21032 net.cpp:156] Memory required for data: 1157244192
I0403 16:24:24.993338 21032 layer_factory.hpp:77] Creating layer inception_4d/output_inception_4d/output_0_split
I0403 16:24:24.993356 21032 net.cpp:91] Creating Layer inception_4d/output_inception_4d/output_0_split
I0403 16:24:24.993371 21032 net.cpp:425] inception_4d/output_inception_4d/output_0_split <- inception_4d/output
I0403 16:24:24.993392 21032 net.cpp:399] inception_4d/output_inception_4d/output_0_split -> inception_4d/output_inception_4d/output_0_split_0
I0403 16:24:24.993413 21032 net.cpp:399] inception_4d/output_inception_4d/output_0_split -> inception_4d/output_inception_4d/output_0_split_1
I0403 16:24:24.993434 21032 net.cpp:399] inception_4d/output_inception_4d/output_0_split -> inception_4d/output_inception_4d/output_0_split_2
I0403 16:24:24.993454 21032 net.cpp:399] inception_4d/output_inception_4d/output_0_split -> inception_4d/output_inception_4d/output_0_split_3
I0403 16:24:24.993474 21032 net.cpp:399] inception_4d/output_inception_4d/output_0_split -> inception_4d/output_inception_4d/output_0_split_4
I0403 16:24:24.993579 21032 net.cpp:141] Setting up inception_4d/output_inception_4d/output_0_split
I0403 16:24:24.993615 21032 net.cpp:148] Top shape: 24 528 14 14 (2483712)
I0403 16:24:24.993635 21032 net.cpp:148] Top shape: 24 528 14 14 (2483712)
I0403 16:24:24.993654 21032 net.cpp:148] Top shape: 24 528 14 14 (2483712)
I0403 16:24:24.993669 21032 net.cpp:148] Top shape: 24 528 14 14 (2483712)
I0403 16:24:24.993685 21032 net.cpp:148] Top shape: 24 528 14 14 (2483712)
I0403 16:24:24.993697 21032 net.cpp:156] Memory required for data: 1206918432
I0403 16:24:24.993713 21032 layer_factory.hpp:77] Creating layer loss2/ave_pool
I0403 16:24:24.993731 21032 net.cpp:91] Creating Layer loss2/ave_pool
I0403 16:24:24.993746 21032 net.cpp:425] loss2/ave_pool <- inception_4d/output_inception_4d/output_0_split_0
I0403 16:24:24.993767 21032 net.cpp:399] loss2/ave_pool -> loss2/ave_pool
I0403 16:24:24.994097 21032 net.cpp:141] Setting up loss2/ave_pool
I0403 16:24:24.994124 21032 net.cpp:148] Top shape: 24 528 4 4 (202752)
I0403 16:24:24.994139 21032 net.cpp:156] Memory required for data: 1207729440
I0403 16:24:24.994155 21032 layer_factory.hpp:77] Creating layer loss2/conv
I0403 16:24:24.994177 21032 net.cpp:91] Creating Layer loss2/conv
I0403 16:24:24.994195 21032 net.cpp:425] loss2/conv <- loss2/ave_pool
I0403 16:24:24.994216 21032 net.cpp:399] loss2/conv -> loss2/conv
I0403 16:24:24.996136 21032 net.cpp:141] Setting up loss2/conv
I0403 16:24:24.996165 21032 net.cpp:148] Top shape: 24 128 4 4 (49152)
I0403 16:24:24.996184 21032 net.cpp:156] Memory required for data: 1207926048
I0403 16:24:24.996202 21032 layer_factory.hpp:77] Creating layer loss2/relu_conv
I0403 16:24:24.996220 21032 net.cpp:91] Creating Layer loss2/relu_conv
I0403 16:24:24.996235 21032 net.cpp:425] loss2/relu_conv <- loss2/conv
I0403 16:24:24.996253 21032 net.cpp:386] loss2/relu_conv -> loss2/conv (in-place)
I0403 16:24:24.996538 21032 net.cpp:141] Setting up loss2/relu_conv
I0403 16:24:24.996564 21032 net.cpp:148] Top shape: 24 128 4 4 (49152)
I0403 16:24:24.996582 21032 net.cpp:156] Memory required for data: 1208122656
I0403 16:24:24.996597 21032 layer_factory.hpp:77] Creating layer loss2/fc
I0403 16:24:24.996618 21032 net.cpp:91] Creating Layer loss2/fc
I0403 16:24:24.996634 21032 net.cpp:425] loss2/fc <- loss2/conv
I0403 16:24:24.996655 21032 net.cpp:399] loss2/fc -> loss2/fc
I0403 16:24:25.013859 21032 net.cpp:141] Setting up loss2/fc
I0403 16:24:25.013891 21032 net.cpp:148] Top shape: 24 1024 (24576)
I0403 16:24:25.013906 21032 net.cpp:156] Memory required for data: 1208220960
I0403 16:24:25.013924 21032 layer_factory.hpp:77] Creating layer loss2/relu_fc
I0403 16:24:25.013945 21032 net.cpp:91] Creating Layer loss2/relu_fc
I0403 16:24:25.013962 21032 net.cpp:425] loss2/relu_fc <- loss2/fc
I0403 16:24:25.013978 21032 net.cpp:386] loss2/relu_fc -> loss2/fc (in-place)
I0403 16:24:25.014288 21032 net.cpp:141] Setting up loss2/relu_fc
I0403 16:24:25.014325 21032 net.cpp:148] Top shape: 24 1024 (24576)
I0403 16:24:25.014340 21032 net.cpp:156] Memory required for data: 1208319264
I0403 16:24:25.014354 21032 layer_factory.hpp:77] Creating layer loss2/drop_fc
I0403 16:24:25.014372 21032 net.cpp:91] Creating Layer loss2/drop_fc
I0403 16:24:25.014390 21032 net.cpp:425] loss2/drop_fc <- loss2/fc
I0403 16:24:25.014406 21032 net.cpp:386] loss2/drop_fc -> loss2/fc (in-place)
I0403 16:24:25.014453 21032 net.cpp:141] Setting up loss2/drop_fc
I0403 16:24:25.014477 21032 net.cpp:148] Top shape: 24 1024 (24576)
I0403 16:24:25.014492 21032 net.cpp:156] Memory required for data: 1208417568
I0403 16:24:25.014505 21032 layer_factory.hpp:77] Creating layer loss2/classifier_plantvillage
I0403 16:24:25.014523 21032 net.cpp:91] Creating Layer loss2/classifier_plantvillage
I0403 16:24:25.014538 21032 net.cpp:425] loss2/classifier_plantvillage <- loss2/fc
I0403 16:24:25.014556 21032 net.cpp:399] loss2/classifier_plantvillage -> loss2/classifier_plantvillage
I0403 16:24:25.014942 21032 net.cpp:141] Setting up loss2/classifier_plantvillage
I0403 16:24:25.014968 21032 net.cpp:148] Top shape: 24 38 (912)
I0403 16:24:25.015000 21032 net.cpp:156] Memory required for data: 1208421216
I0403 16:24:25.015023 21032 layer_factory.hpp:77] Creating layer loss2/classifier_plantvillage_loss2/classifier_plantvillage_0_split
I0403 16:24:25.015043 21032 net.cpp:91] Creating Layer loss2/classifier_plantvillage_loss2/classifier_plantvillage_0_split
I0403 16:24:25.015058 21032 net.cpp:425] loss2/classifier_plantvillage_loss2/classifier_plantvillage_0_split <- loss2/classifier_plantvillage
I0403 16:24:25.015074 21032 net.cpp:399] loss2/classifier_plantvillage_loss2/classifier_plantvillage_0_split -> loss2/classifier_plantvillage_loss2/classifier_plantvillage_0_split_0
I0403 16:24:25.015094 21032 net.cpp:399] loss2/classifier_plantvillage_loss2/classifier_plantvillage_0_split -> loss2/classifier_plantvillage_loss2/classifier_plantvillage_0_split_1
I0403 16:24:25.015115 21032 net.cpp:399] loss2/classifier_plantvillage_loss2/classifier_plantvillage_0_split -> loss2/classifier_plantvillage_loss2/classifier_plantvillage_0_split_2
I0403 16:24:25.015190 21032 net.cpp:141] Setting up loss2/classifier_plantvillage_loss2/classifier_plantvillage_0_split
I0403 16:24:25.015213 21032 net.cpp:148] Top shape: 24 38 (912)
I0403 16:24:25.015228 21032 net.cpp:148] Top shape: 24 38 (912)
I0403 16:24:25.015242 21032 net.cpp:148] Top shape: 24 38 (912)
I0403 16:24:25.015255 21032 net.cpp:156] Memory required for data: 1208432160
I0403 16:24:25.015269 21032 layer_factory.hpp:77] Creating layer inception_4e/1x1
I0403 16:24:25.015291 21032 net.cpp:91] Creating Layer inception_4e/1x1
I0403 16:24:25.015308 21032 net.cpp:425] inception_4e/1x1 <- inception_4d/output_inception_4d/output_0_split_1
I0403 16:24:25.015328 21032 net.cpp:399] inception_4e/1x1 -> inception_4e/1x1
I0403 16:24:25.017093 21032 net.cpp:141] Setting up inception_4e/1x1
I0403 16:24:25.017120 21032 net.cpp:148] Top shape: 24 256 14 14 (1204224)
I0403 16:24:25.017135 21032 net.cpp:156] Memory required for data: 1213249056
I0403 16:24:25.017153 21032 layer_factory.hpp:77] Creating layer inception_4e/relu_1x1
I0403 16:24:25.017173 21032 net.cpp:91] Creating Layer inception_4e/relu_1x1
I0403 16:24:25.017187 21032 net.cpp:425] inception_4e/relu_1x1 <- inception_4e/1x1
I0403 16:24:25.017204 21032 net.cpp:386] inception_4e/relu_1x1 -> inception_4e/1x1 (in-place)
I0403 16:24:25.017491 21032 net.cpp:141] Setting up inception_4e/relu_1x1
I0403 16:24:25.017516 21032 net.cpp:148] Top shape: 24 256 14 14 (1204224)
I0403 16:24:25.017530 21032 net.cpp:156] Memory required for data: 1218065952
I0403 16:24:25.017545 21032 layer_factory.hpp:77] Creating layer inception_4e/3x3_reduce
I0403 16:24:25.017567 21032 net.cpp:91] Creating Layer inception_4e/3x3_reduce
I0403 16:24:25.017585 21032 net.cpp:425] inception_4e/3x3_reduce <- inception_4d/output_inception_4d/output_0_split_2
I0403 16:24:25.017602 21032 net.cpp:399] inception_4e/3x3_reduce -> inception_4e/3x3_reduce
I0403 16:24:25.019695 21032 net.cpp:141] Setting up inception_4e/3x3_reduce
I0403 16:24:25.019722 21032 net.cpp:148] Top shape: 24 160 14 14 (752640)
I0403 16:24:25.019737 21032 net.cpp:156] Memory required for data: 1221076512
I0403 16:24:25.019755 21032 layer_factory.hpp:77] Creating layer inception_4e/relu_3x3_reduce
I0403 16:24:25.019774 21032 net.cpp:91] Creating Layer inception_4e/relu_3x3_reduce
I0403 16:24:25.019790 21032 net.cpp:425] inception_4e/relu_3x3_reduce <- inception_4e/3x3_reduce
I0403 16:24:25.019806 21032 net.cpp:386] inception_4e/relu_3x3_reduce -> inception_4e/3x3_reduce (in-place)
I0403 16:24:25.019987 21032 net.cpp:141] Setting up inception_4e/relu_3x3_reduce
I0403 16:24:25.020012 21032 net.cpp:148] Top shape: 24 160 14 14 (752640)
I0403 16:24:25.020032 21032 net.cpp:156] Memory required for data: 1224087072
I0403 16:24:25.020047 21032 layer_factory.hpp:77] Creating layer inception_4e/3x3
I0403 16:24:25.020068 21032 net.cpp:91] Creating Layer inception_4e/3x3
I0403 16:24:25.020086 21032 net.cpp:425] inception_4e/3x3 <- inception_4e/3x3_reduce
I0403 16:24:25.020102 21032 net.cpp:399] inception_4e/3x3 -> inception_4e/3x3
I0403 16:24:25.024994 21032 net.cpp:141] Setting up inception_4e/3x3
I0403 16:24:25.025040 21032 net.cpp:148] Top shape: 24 320 14 14 (1505280)
I0403 16:24:25.025058 21032 net.cpp:156] Memory required for data: 1230108192
I0403 16:24:25.025075 21032 layer_factory.hpp:77] Creating layer inception_4e/relu_3x3
I0403 16:24:25.025094 21032 net.cpp:91] Creating Layer inception_4e/relu_3x3
I0403 16:24:25.025109 21032 net.cpp:425] inception_4e/relu_3x3 <- inception_4e/3x3
I0403 16:24:25.025127 21032 net.cpp:386] inception_4e/relu_3x3 -> inception_4e/3x3 (in-place)
I0403 16:24:25.025418 21032 net.cpp:141] Setting up inception_4e/relu_3x3
I0403 16:24:25.025442 21032 net.cpp:148] Top shape: 24 320 14 14 (1505280)
I0403 16:24:25.025457 21032 net.cpp:156] Memory required for data: 1236129312
I0403 16:24:25.025471 21032 layer_factory.hpp:77] Creating layer inception_4e/5x5_reduce
I0403 16:24:25.025493 21032 net.cpp:91] Creating Layer inception_4e/5x5_reduce
I0403 16:24:25.025511 21032 net.cpp:425] inception_4e/5x5_reduce <- inception_4d/output_inception_4d/output_0_split_3
I0403 16:24:25.025532 21032 net.cpp:399] inception_4e/5x5_reduce -> inception_4e/5x5_reduce
I0403 16:24:25.026602 21032 net.cpp:141] Setting up inception_4e/5x5_reduce
I0403 16:24:25.026628 21032 net.cpp:148] Top shape: 24 32 14 14 (150528)
I0403 16:24:25.026643 21032 net.cpp:156] Memory required for data: 1236731424
I0403 16:24:25.026659 21032 layer_factory.hpp:77] Creating layer inception_4e/relu_5x5_reduce
I0403 16:24:25.026679 21032 net.cpp:91] Creating Layer inception_4e/relu_5x5_reduce
I0403 16:24:25.026696 21032 net.cpp:425] inception_4e/relu_5x5_reduce <- inception_4e/5x5_reduce
I0403 16:24:25.026712 21032 net.cpp:386] inception_4e/relu_5x5_reduce -> inception_4e/5x5_reduce (in-place)
I0403 16:24:25.027004 21032 net.cpp:141] Setting up inception_4e/relu_5x5_reduce
I0403 16:24:25.027032 21032 net.cpp:148] Top shape: 24 32 14 14 (150528)
I0403 16:24:25.027048 21032 net.cpp:156] Memory required for data: 1237333536
I0403 16:24:25.027062 21032 layer_factory.hpp:77] Creating layer inception_4e/5x5
I0403 16:24:25.027099 21032 net.cpp:91] Creating Layer inception_4e/5x5
I0403 16:24:25.027117 21032 net.cpp:425] inception_4e/5x5 <- inception_4e/5x5_reduce
I0403 16:24:25.027137 21032 net.cpp:399] inception_4e/5x5 -> inception_4e/5x5
I0403 16:24:25.029007 21032 net.cpp:141] Setting up inception_4e/5x5
I0403 16:24:25.029037 21032 net.cpp:148] Top shape: 24 128 14 14 (602112)
I0403 16:24:25.029053 21032 net.cpp:156] Memory required for data: 1239741984
I0403 16:24:25.029072 21032 layer_factory.hpp:77] Creating layer inception_4e/relu_5x5
I0403 16:24:25.029091 21032 net.cpp:91] Creating Layer inception_4e/relu_5x5
I0403 16:24:25.029109 21032 net.cpp:425] inception_4e/relu_5x5 <- inception_4e/5x5
I0403 16:24:25.029125 21032 net.cpp:386] inception_4e/relu_5x5 -> inception_4e/5x5 (in-place)
I0403 16:24:25.029315 21032 net.cpp:141] Setting up inception_4e/relu_5x5
I0403 16:24:25.029341 21032 net.cpp:148] Top shape: 24 128 14 14 (602112)
I0403 16:24:25.029356 21032 net.cpp:156] Memory required for data: 1242150432
I0403 16:24:25.029371 21032 layer_factory.hpp:77] Creating layer inception_4e/pool
I0403 16:24:25.029386 21032 net.cpp:91] Creating Layer inception_4e/pool
I0403 16:24:25.029402 21032 net.cpp:425] inception_4e/pool <- inception_4d/output_inception_4d/output_0_split_4
I0403 16:24:25.029418 21032 net.cpp:399] inception_4e/pool -> inception_4e/pool
I0403 16:24:25.029487 21032 net.cpp:141] Setting up inception_4e/pool
I0403 16:24:25.029510 21032 net.cpp:148] Top shape: 24 528 14 14 (2483712)
I0403 16:24:25.029523 21032 net.cpp:156] Memory required for data: 1252085280
I0403 16:24:25.029537 21032 layer_factory.hpp:77] Creating layer inception_4e/pool_proj
I0403 16:24:25.029558 21032 net.cpp:91] Creating Layer inception_4e/pool_proj
I0403 16:24:25.029575 21032 net.cpp:425] inception_4e/pool_proj <- inception_4e/pool
I0403 16:24:25.029594 21032 net.cpp:399] inception_4e/pool_proj -> inception_4e/pool_proj
I0403 16:24:25.031147 21032 net.cpp:141] Setting up inception_4e/pool_proj
I0403 16:24:25.031185 21032 net.cpp:148] Top shape: 24 128 14 14 (602112)
I0403 16:24:25.031203 21032 net.cpp:156] Memory required for data: 1254493728
I0403 16:24:25.031220 21032 layer_factory.hpp:77] Creating layer inception_4e/relu_pool_proj
I0403 16:24:25.031239 21032 net.cpp:91] Creating Layer inception_4e/relu_pool_proj
I0403 16:24:25.031254 21032 net.cpp:425] inception_4e/relu_pool_proj <- inception_4e/pool_proj
I0403 16:24:25.031272 21032 net.cpp:386] inception_4e/relu_pool_proj -> inception_4e/pool_proj (in-place)
I0403 16:24:25.031568 21032 net.cpp:141] Setting up inception_4e/relu_pool_proj
I0403 16:24:25.031594 21032 net.cpp:148] Top shape: 24 128 14 14 (602112)
I0403 16:24:25.031608 21032 net.cpp:156] Memory required for data: 1256902176
I0403 16:24:25.031622 21032 layer_factory.hpp:77] Creating layer inception_4e/output
I0403 16:24:25.031641 21032 net.cpp:91] Creating Layer inception_4e/output
I0403 16:24:25.031656 21032 net.cpp:425] inception_4e/output <- inception_4e/1x1
I0403 16:24:25.031672 21032 net.cpp:425] inception_4e/output <- inception_4e/3x3
I0403 16:24:25.031687 21032 net.cpp:425] inception_4e/output <- inception_4e/5x5
I0403 16:24:25.031703 21032 net.cpp:425] inception_4e/output <- inception_4e/pool_proj
I0403 16:24:25.031721 21032 net.cpp:399] inception_4e/output -> inception_4e/output
I0403 16:24:25.031770 21032 net.cpp:141] Setting up inception_4e/output
I0403 16:24:25.031796 21032 net.cpp:148] Top shape: 24 832 14 14 (3913728)
I0403 16:24:25.031811 21032 net.cpp:156] Memory required for data: 1272557088
I0403 16:24:25.031826 21032 layer_factory.hpp:77] Creating layer pool4/3x3_s2
I0403 16:24:25.031843 21032 net.cpp:91] Creating Layer pool4/3x3_s2
I0403 16:24:25.031859 21032 net.cpp:425] pool4/3x3_s2 <- inception_4e/output
I0403 16:24:25.031879 21032 net.cpp:399] pool4/3x3_s2 -> pool4/3x3_s2
I0403 16:24:25.031947 21032 net.cpp:141] Setting up pool4/3x3_s2
I0403 16:24:25.031971 21032 net.cpp:148] Top shape: 24 832 7 7 (978432)
I0403 16:24:25.031985 21032 net.cpp:156] Memory required for data: 1276470816
I0403 16:24:25.032001 21032 layer_factory.hpp:77] Creating layer pool4/3x3_s2_pool4/3x3_s2_0_split
I0403 16:24:25.032035 21032 net.cpp:91] Creating Layer pool4/3x3_s2_pool4/3x3_s2_0_split
I0403 16:24:25.032053 21032 net.cpp:425] pool4/3x3_s2_pool4/3x3_s2_0_split <- pool4/3x3_s2
I0403 16:24:25.032070 21032 net.cpp:399] pool4/3x3_s2_pool4/3x3_s2_0_split -> pool4/3x3_s2_pool4/3x3_s2_0_split_0
I0403 16:24:25.032091 21032 net.cpp:399] pool4/3x3_s2_pool4/3x3_s2_0_split -> pool4/3x3_s2_pool4/3x3_s2_0_split_1
I0403 16:24:25.032114 21032 net.cpp:399] pool4/3x3_s2_pool4/3x3_s2_0_split -> pool4/3x3_s2_pool4/3x3_s2_0_split_2
I0403 16:24:25.032135 21032 net.cpp:399] pool4/3x3_s2_pool4/3x3_s2_0_split -> pool4/3x3_s2_pool4/3x3_s2_0_split_3
I0403 16:24:25.032227 21032 net.cpp:141] Setting up pool4/3x3_s2_pool4/3x3_s2_0_split
I0403 16:24:25.032251 21032 net.cpp:148] Top shape: 24 832 7 7 (978432)
I0403 16:24:25.032269 21032 net.cpp:148] Top shape: 24 832 7 7 (978432)
I0403 16:24:25.032284 21032 net.cpp:148] Top shape: 24 832 7 7 (978432)
I0403 16:24:25.032299 21032 net.cpp:148] Top shape: 24 832 7 7 (978432)
I0403 16:24:25.032325 21032 net.cpp:156] Memory required for data: 1292125728
I0403 16:24:25.032338 21032 layer_factory.hpp:77] Creating layer inception_5a/1x1
I0403 16:24:25.032361 21032 net.cpp:91] Creating Layer inception_5a/1x1
I0403 16:24:25.032377 21032 net.cpp:425] inception_5a/1x1 <- pool4/3x3_s2_pool4/3x3_s2_0_split_0
I0403 16:24:25.032398 21032 net.cpp:399] inception_5a/1x1 -> inception_5a/1x1
I0403 16:24:25.035297 21032 net.cpp:141] Setting up inception_5a/1x1
I0403 16:24:25.035326 21032 net.cpp:148] Top shape: 24 256 7 7 (301056)
I0403 16:24:25.035342 21032 net.cpp:156] Memory required for data: 1293329952
I0403 16:24:25.035361 21032 layer_factory.hpp:77] Creating layer inception_5a/relu_1x1
I0403 16:24:25.035382 21032 net.cpp:91] Creating Layer inception_5a/relu_1x1
I0403 16:24:25.035398 21032 net.cpp:425] inception_5a/relu_1x1 <- inception_5a/1x1
I0403 16:24:25.035414 21032 net.cpp:386] inception_5a/relu_1x1 -> inception_5a/1x1 (in-place)
I0403 16:24:25.035733 21032 net.cpp:141] Setting up inception_5a/relu_1x1
I0403 16:24:25.035759 21032 net.cpp:148] Top shape: 24 256 7 7 (301056)
I0403 16:24:25.035773 21032 net.cpp:156] Memory required for data: 1294534176
I0403 16:24:25.035789 21032 layer_factory.hpp:77] Creating layer inception_5a/3x3_reduce
I0403 16:24:25.035812 21032 net.cpp:91] Creating Layer inception_5a/3x3_reduce
I0403 16:24:25.035830 21032 net.cpp:425] inception_5a/3x3_reduce <- pool4/3x3_s2_pool4/3x3_s2_0_split_1
I0403 16:24:25.035851 21032 net.cpp:399] inception_5a/3x3_reduce -> inception_5a/3x3_reduce
I0403 16:24:25.038362 21032 net.cpp:141] Setting up inception_5a/3x3_reduce
I0403 16:24:25.038390 21032 net.cpp:148] Top shape: 24 160 7 7 (188160)
I0403 16:24:25.038406 21032 net.cpp:156] Memory required for data: 1295286816
I0403 16:24:25.038424 21032 layer_factory.hpp:77] Creating layer inception_5a/relu_3x3_reduce
I0403 16:24:25.038442 21032 net.cpp:91] Creating Layer inception_5a/relu_3x3_reduce
I0403 16:24:25.038458 21032 net.cpp:425] inception_5a/relu_3x3_reduce <- inception_5a/3x3_reduce
I0403 16:24:25.038478 21032 net.cpp:386] inception_5a/relu_3x3_reduce -> inception_5a/3x3_reduce (in-place)
I0403 16:24:25.038667 21032 net.cpp:141] Setting up inception_5a/relu_3x3_reduce
I0403 16:24:25.038692 21032 net.cpp:148] Top shape: 24 160 7 7 (188160)
I0403 16:24:25.038707 21032 net.cpp:156] Memory required for data: 1296039456
I0403 16:24:25.038720 21032 layer_factory.hpp:77] Creating layer inception_5a/3x3
I0403 16:24:25.038743 21032 net.cpp:91] Creating Layer inception_5a/3x3
I0403 16:24:25.038759 21032 net.cpp:425] inception_5a/3x3 <- inception_5a/3x3_reduce
I0403 16:24:25.038781 21032 net.cpp:399] inception_5a/3x3 -> inception_5a/3x3
I0403 16:24:25.043985 21032 net.cpp:141] Setting up inception_5a/3x3
I0403 16:24:25.044020 21032 net.cpp:148] Top shape: 24 320 7 7 (376320)
I0403 16:24:25.044037 21032 net.cpp:156] Memory required for data: 1297544736
I0403 16:24:25.044057 21032 layer_factory.hpp:77] Creating layer inception_5a/relu_3x3
I0403 16:24:25.044077 21032 net.cpp:91] Creating Layer inception_5a/relu_3x3
I0403 16:24:25.044095 21032 net.cpp:425] inception_5a/relu_3x3 <- inception_5a/3x3
I0403 16:24:25.044112 21032 net.cpp:386] inception_5a/relu_3x3 -> inception_5a/3x3 (in-place)
I0403 16:24:25.044414 21032 net.cpp:141] Setting up inception_5a/relu_3x3
I0403 16:24:25.044440 21032 net.cpp:148] Top shape: 24 320 7 7 (376320)
I0403 16:24:25.044456 21032 net.cpp:156] Memory required for data: 1299050016
I0403 16:24:25.044471 21032 layer_factory.hpp:77] Creating layer inception_5a/5x5_reduce
I0403 16:24:25.044493 21032 net.cpp:91] Creating Layer inception_5a/5x5_reduce
I0403 16:24:25.044512 21032 net.cpp:425] inception_5a/5x5_reduce <- pool4/3x3_s2_pool4/3x3_s2_0_split_2
I0403 16:24:25.044534 21032 net.cpp:399] inception_5a/5x5_reduce -> inception_5a/5x5_reduce
I0403 16:24:25.045742 21032 net.cpp:141] Setting up inception_5a/5x5_reduce
I0403 16:24:25.045774 21032 net.cpp:148] Top shape: 24 32 7 7 (37632)
I0403 16:24:25.045791 21032 net.cpp:156] Memory required for data: 1299200544
I0403 16:24:25.045810 21032 layer_factory.hpp:77] Creating layer inception_5a/relu_5x5_reduce
I0403 16:24:25.045827 21032 net.cpp:91] Creating Layer inception_5a/relu_5x5_reduce
I0403 16:24:25.045845 21032 net.cpp:425] inception_5a/relu_5x5_reduce <- inception_5a/5x5_reduce
I0403 16:24:25.045862 21032 net.cpp:386] inception_5a/relu_5x5_reduce -> inception_5a/5x5_reduce (in-place)
I0403 16:24:25.046175 21032 net.cpp:141] Setting up inception_5a/relu_5x5_reduce
I0403 16:24:25.046200 21032 net.cpp:148] Top shape: 24 32 7 7 (37632)
I0403 16:24:25.046219 21032 net.cpp:156] Memory required for data: 1299351072
I0403 16:24:25.046234 21032 layer_factory.hpp:77] Creating layer inception_5a/5x5
I0403 16:24:25.046254 21032 net.cpp:91] Creating Layer inception_5a/5x5
I0403 16:24:25.046272 21032 net.cpp:425] inception_5a/5x5 <- inception_5a/5x5_reduce
I0403 16:24:25.046293 21032 net.cpp:399] inception_5a/5x5 -> inception_5a/5x5
I0403 16:24:25.048084 21032 net.cpp:141] Setting up inception_5a/5x5
I0403 16:24:25.048125 21032 net.cpp:148] Top shape: 24 128 7 7 (150528)
I0403 16:24:25.048141 21032 net.cpp:156] Memory required for data: 1299953184
I0403 16:24:25.048161 21032 layer_factory.hpp:77] Creating layer inception_5a/relu_5x5
I0403 16:24:25.048180 21032 net.cpp:91] Creating Layer inception_5a/relu_5x5
I0403 16:24:25.048197 21032 net.cpp:425] inception_5a/relu_5x5 <- inception_5a/5x5
I0403 16:24:25.048215 21032 net.cpp:386] inception_5a/relu_5x5 -> inception_5a/5x5 (in-place)
I0403 16:24:25.048413 21032 net.cpp:141] Setting up inception_5a/relu_5x5
I0403 16:24:25.048439 21032 net.cpp:148] Top shape: 24 128 7 7 (150528)
I0403 16:24:25.048456 21032 net.cpp:156] Memory required for data: 1300555296
I0403 16:24:25.048472 21032 layer_factory.hpp:77] Creating layer inception_5a/pool
I0403 16:24:25.048490 21032 net.cpp:91] Creating Layer inception_5a/pool
I0403 16:24:25.048506 21032 net.cpp:425] inception_5a/pool <- pool4/3x3_s2_pool4/3x3_s2_0_split_3
I0403 16:24:25.048524 21032 net.cpp:399] inception_5a/pool -> inception_5a/pool
I0403 16:24:25.048609 21032 net.cpp:141] Setting up inception_5a/pool
I0403 16:24:25.048632 21032 net.cpp:148] Top shape: 24 832 7 7 (978432)
I0403 16:24:25.048647 21032 net.cpp:156] Memory required for data: 1304469024
I0403 16:24:25.048661 21032 layer_factory.hpp:77] Creating layer inception_5a/pool_proj
I0403 16:24:25.048683 21032 net.cpp:91] Creating Layer inception_5a/pool_proj
I0403 16:24:25.048701 21032 net.cpp:425] inception_5a/pool_proj <- inception_5a/pool
I0403 16:24:25.048722 21032 net.cpp:399] inception_5a/pool_proj -> inception_5a/pool_proj
I0403 16:24:25.051085 21032 net.cpp:141] Setting up inception_5a/pool_proj
I0403 16:24:25.051115 21032 net.cpp:148] Top shape: 24 128 7 7 (150528)
I0403 16:24:25.051131 21032 net.cpp:156] Memory required for data: 1305071136
I0403 16:24:25.051148 21032 layer_factory.hpp:77] Creating layer inception_5a/relu_pool_proj
I0403 16:24:25.051168 21032 net.cpp:91] Creating Layer inception_5a/relu_pool_proj
I0403 16:24:25.051185 21032 net.cpp:425] inception_5a/relu_pool_proj <- inception_5a/pool_proj
I0403 16:24:25.051203 21032 net.cpp:386] inception_5a/relu_pool_proj -> inception_5a/pool_proj (in-place)
I0403 16:24:25.051498 21032 net.cpp:141] Setting up inception_5a/relu_pool_proj
I0403 16:24:25.051524 21032 net.cpp:148] Top shape: 24 128 7 7 (150528)
I0403 16:24:25.051539 21032 net.cpp:156] Memory required for data: 1305673248
I0403 16:24:25.051553 21032 layer_factory.hpp:77] Creating layer inception_5a/output
I0403 16:24:25.051570 21032 net.cpp:91] Creating Layer inception_5a/output
I0403 16:24:25.051585 21032 net.cpp:425] inception_5a/output <- inception_5a/1x1
I0403 16:24:25.051602 21032 net.cpp:425] inception_5a/output <- inception_5a/3x3
I0403 16:24:25.051617 21032 net.cpp:425] inception_5a/output <- inception_5a/5x5
I0403 16:24:25.051633 21032 net.cpp:425] inception_5a/output <- inception_5a/pool_proj
I0403 16:24:25.051653 21032 net.cpp:399] inception_5a/output -> inception_5a/output
I0403 16:24:25.051703 21032 net.cpp:141] Setting up inception_5a/output
I0403 16:24:25.051728 21032 net.cpp:148] Top shape: 24 832 7 7 (978432)
I0403 16:24:25.051744 21032 net.cpp:156] Memory required for data: 1309586976
I0403 16:24:25.051759 21032 layer_factory.hpp:77] Creating layer inception_5a/output_inception_5a/output_0_split
I0403 16:24:25.051775 21032 net.cpp:91] Creating Layer inception_5a/output_inception_5a/output_0_split
I0403 16:24:25.051790 21032 net.cpp:425] inception_5a/output_inception_5a/output_0_split <- inception_5a/output
I0403 16:24:25.051810 21032 net.cpp:399] inception_5a/output_inception_5a/output_0_split -> inception_5a/output_inception_5a/output_0_split_0
I0403 16:24:25.051831 21032 net.cpp:399] inception_5a/output_inception_5a/output_0_split -> inception_5a/output_inception_5a/output_0_split_1
I0403 16:24:25.051852 21032 net.cpp:399] inception_5a/output_inception_5a/output_0_split -> inception_5a/output_inception_5a/output_0_split_2
I0403 16:24:25.051872 21032 net.cpp:399] inception_5a/output_inception_5a/output_0_split -> inception_5a/output_inception_5a/output_0_split_3
I0403 16:24:25.051985 21032 net.cpp:141] Setting up inception_5a/output_inception_5a/output_0_split
I0403 16:24:25.052009 21032 net.cpp:148] Top shape: 24 832 7 7 (978432)
I0403 16:24:25.052031 21032 net.cpp:148] Top shape: 24 832 7 7 (978432)
I0403 16:24:25.052047 21032 net.cpp:148] Top shape: 24 832 7 7 (978432)
I0403 16:24:25.052062 21032 net.cpp:148] Top shape: 24 832 7 7 (978432)
I0403 16:24:25.052075 21032 net.cpp:156] Memory required for data: 1325241888
I0403 16:24:25.052090 21032 layer_factory.hpp:77] Creating layer inception_5b/1x1
I0403 16:24:25.052112 21032 net.cpp:91] Creating Layer inception_5b/1x1
I0403 16:24:25.052130 21032 net.cpp:425] inception_5b/1x1 <- inception_5a/output_inception_5a/output_0_split_0
I0403 16:24:25.052151 21032 net.cpp:399] inception_5b/1x1 -> inception_5b/1x1
I0403 16:24:25.055945 21032 net.cpp:141] Setting up inception_5b/1x1
I0403 16:24:25.055975 21032 net.cpp:148] Top shape: 24 384 7 7 (451584)
I0403 16:24:25.055992 21032 net.cpp:156] Memory required for data: 1327048224
I0403 16:24:25.056011 21032 layer_factory.hpp:77] Creating layer inception_5b/relu_1x1
I0403 16:24:25.056033 21032 net.cpp:91] Creating Layer inception_5b/relu_1x1
I0403 16:24:25.056051 21032 net.cpp:425] inception_5b/relu_1x1 <- inception_5b/1x1
I0403 16:24:25.056071 21032 net.cpp:386] inception_5b/relu_1x1 -> inception_5b/1x1 (in-place)
I0403 16:24:25.056381 21032 net.cpp:141] Setting up inception_5b/relu_1x1
I0403 16:24:25.056407 21032 net.cpp:148] Top shape: 24 384 7 7 (451584)
I0403 16:24:25.056422 21032 net.cpp:156] Memory required for data: 1328854560
I0403 16:24:25.056437 21032 layer_factory.hpp:77] Creating layer inception_5b/3x3_reduce
I0403 16:24:25.056458 21032 net.cpp:91] Creating Layer inception_5b/3x3_reduce
I0403 16:24:25.056476 21032 net.cpp:425] inception_5b/3x3_reduce <- inception_5a/output_inception_5a/output_0_split_1
I0403 16:24:25.056499 21032 net.cpp:399] inception_5b/3x3_reduce -> inception_5b/3x3_reduce
I0403 16:24:25.059181 21032 net.cpp:141] Setting up inception_5b/3x3_reduce
I0403 16:24:25.059211 21032 net.cpp:148] Top shape: 24 192 7 7 (225792)
I0403 16:24:25.059226 21032 net.cpp:156] Memory required for data: 1329757728
I0403 16:24:25.059244 21032 layer_factory.hpp:77] Creating layer inception_5b/relu_3x3_reduce
I0403 16:24:25.059263 21032 net.cpp:91] Creating Layer inception_5b/relu_3x3_reduce
I0403 16:24:25.059284 21032 net.cpp:425] inception_5b/relu_3x3_reduce <- inception_5b/3x3_reduce
I0403 16:24:25.059303 21032 net.cpp:386] inception_5b/relu_3x3_reduce -> inception_5b/3x3_reduce (in-place)
I0403 16:24:25.059494 21032 net.cpp:141] Setting up inception_5b/relu_3x3_reduce
I0403 16:24:25.059517 21032 net.cpp:148] Top shape: 24 192 7 7 (225792)
I0403 16:24:25.059531 21032 net.cpp:156] Memory required for data: 1330660896
I0403 16:24:25.059545 21032 layer_factory.hpp:77] Creating layer inception_5b/3x3
I0403 16:24:25.059567 21032 net.cpp:91] Creating Layer inception_5b/3x3
I0403 16:24:25.059584 21032 net.cpp:425] inception_5b/3x3 <- inception_5b/3x3_reduce
I0403 16:24:25.059607 21032 net.cpp:399] inception_5b/3x3 -> inception_5b/3x3
I0403 16:24:25.066388 21032 net.cpp:141] Setting up inception_5b/3x3
I0403 16:24:25.066418 21032 net.cpp:148] Top shape: 24 384 7 7 (451584)
I0403 16:24:25.066433 21032 net.cpp:156] Memory required for data: 1332467232
I0403 16:24:25.066452 21032 layer_factory.hpp:77] Creating layer inception_5b/relu_3x3
I0403 16:24:25.066474 21032 net.cpp:91] Creating Layer inception_5b/relu_3x3
I0403 16:24:25.066491 21032 net.cpp:425] inception_5b/relu_3x3 <- inception_5b/3x3
I0403 16:24:25.066509 21032 net.cpp:386] inception_5b/relu_3x3 -> inception_5b/3x3 (in-place)
I0403 16:24:25.066812 21032 net.cpp:141] Setting up inception_5b/relu_3x3
I0403 16:24:25.066838 21032 net.cpp:148] Top shape: 24 384 7 7 (451584)
I0403 16:24:25.066851 21032 net.cpp:156] Memory required for data: 1334273568
I0403 16:24:25.066866 21032 layer_factory.hpp:77] Creating layer inception_5b/5x5_reduce
I0403 16:24:25.066905 21032 net.cpp:91] Creating Layer inception_5b/5x5_reduce
I0403 16:24:25.066922 21032 net.cpp:425] inception_5b/5x5_reduce <- inception_5a/output_inception_5a/output_0_split_2
I0403 16:24:25.066946 21032 net.cpp:399] inception_5b/5x5_reduce -> inception_5b/5x5_reduce
I0403 16:24:25.068248 21032 net.cpp:141] Setting up inception_5b/5x5_reduce
I0403 16:24:25.068275 21032 net.cpp:148] Top shape: 24 48 7 7 (56448)
I0403 16:24:25.068290 21032 net.cpp:156] Memory required for data: 1334499360
I0403 16:24:25.068308 21032 layer_factory.hpp:77] Creating layer inception_5b/relu_5x5_reduce
I0403 16:24:25.068326 21032 net.cpp:91] Creating Layer inception_5b/relu_5x5_reduce
I0403 16:24:25.068342 21032 net.cpp:425] inception_5b/relu_5x5_reduce <- inception_5b/5x5_reduce
I0403 16:24:25.068361 21032 net.cpp:386] inception_5b/relu_5x5_reduce -> inception_5b/5x5_reduce (in-place)
I0403 16:24:25.068737 21032 net.cpp:141] Setting up inception_5b/relu_5x5_reduce
I0403 16:24:25.068764 21032 net.cpp:148] Top shape: 24 48 7 7 (56448)
I0403 16:24:25.068779 21032 net.cpp:156] Memory required for data: 1334725152
I0403 16:24:25.068794 21032 layer_factory.hpp:77] Creating layer inception_5b/5x5
I0403 16:24:25.068814 21032 net.cpp:91] Creating Layer inception_5b/5x5
I0403 16:24:25.068830 21032 net.cpp:425] inception_5b/5x5 <- inception_5b/5x5_reduce
I0403 16:24:25.068847 21032 net.cpp:399] inception_5b/5x5 -> inception_5b/5x5
I0403 16:24:25.070956 21032 net.cpp:141] Setting up inception_5b/5x5
I0403 16:24:25.070984 21032 net.cpp:148] Top shape: 24 128 7 7 (150528)
I0403 16:24:25.071002 21032 net.cpp:156] Memory required for data: 1335327264
I0403 16:24:25.071023 21032 layer_factory.hpp:77] Creating layer inception_5b/relu_5x5
I0403 16:24:25.071045 21032 net.cpp:91] Creating Layer inception_5b/relu_5x5
I0403 16:24:25.071063 21032 net.cpp:425] inception_5b/relu_5x5 <- inception_5b/5x5
I0403 16:24:25.071079 21032 net.cpp:386] inception_5b/relu_5x5 -> inception_5b/5x5 (in-place)
I0403 16:24:25.071274 21032 net.cpp:141] Setting up inception_5b/relu_5x5
I0403 16:24:25.071301 21032 net.cpp:148] Top shape: 24 128 7 7 (150528)
I0403 16:24:25.071317 21032 net.cpp:156] Memory required for data: 1335929376
I0403 16:24:25.071332 21032 layer_factory.hpp:77] Creating layer inception_5b/pool
I0403 16:24:25.071349 21032 net.cpp:91] Creating Layer inception_5b/pool
I0403 16:24:25.071365 21032 net.cpp:425] inception_5b/pool <- inception_5a/output_inception_5a/output_0_split_3
I0403 16:24:25.071385 21032 net.cpp:399] inception_5b/pool -> inception_5b/pool
I0403 16:24:25.071458 21032 net.cpp:141] Setting up inception_5b/pool
I0403 16:24:25.071481 21032 net.cpp:148] Top shape: 24 832 7 7 (978432)
I0403 16:24:25.071496 21032 net.cpp:156] Memory required for data: 1339843104
I0403 16:24:25.071509 21032 layer_factory.hpp:77] Creating layer inception_5b/pool_proj
I0403 16:24:25.071532 21032 net.cpp:91] Creating Layer inception_5b/pool_proj
I0403 16:24:25.071548 21032 net.cpp:425] inception_5b/pool_proj <- inception_5b/pool
I0403 16:24:25.071569 21032 net.cpp:399] inception_5b/pool_proj -> inception_5b/pool_proj
I0403 16:24:25.073917 21032 net.cpp:141] Setting up inception_5b/pool_proj
I0403 16:24:25.073946 21032 net.cpp:148] Top shape: 24 128 7 7 (150528)
I0403 16:24:25.073962 21032 net.cpp:156] Memory required for data: 1340445216
I0403 16:24:25.073981 21032 layer_factory.hpp:77] Creating layer inception_5b/relu_pool_proj
I0403 16:24:25.074002 21032 net.cpp:91] Creating Layer inception_5b/relu_pool_proj
I0403 16:24:25.074023 21032 net.cpp:425] inception_5b/relu_pool_proj <- inception_5b/pool_proj
I0403 16:24:25.074041 21032 net.cpp:386] inception_5b/relu_pool_proj -> inception_5b/pool_proj (in-place)
I0403 16:24:25.074340 21032 net.cpp:141] Setting up inception_5b/relu_pool_proj
I0403 16:24:25.074367 21032 net.cpp:148] Top shape: 24 128 7 7 (150528)
I0403 16:24:25.074381 21032 net.cpp:156] Memory required for data: 1341047328
I0403 16:24:25.074396 21032 layer_factory.hpp:77] Creating layer inception_5b/output
I0403 16:24:25.074414 21032 net.cpp:91] Creating Layer inception_5b/output
I0403 16:24:25.074443 21032 net.cpp:425] inception_5b/output <- inception_5b/1x1
I0403 16:24:25.074460 21032 net.cpp:425] inception_5b/output <- inception_5b/3x3
I0403 16:24:25.074476 21032 net.cpp:425] inception_5b/output <- inception_5b/5x5
I0403 16:24:25.074492 21032 net.cpp:425] inception_5b/output <- inception_5b/pool_proj
I0403 16:24:25.074512 21032 net.cpp:399] inception_5b/output -> inception_5b/output
I0403 16:24:25.074563 21032 net.cpp:141] Setting up inception_5b/output
I0403 16:24:25.074589 21032 net.cpp:148] Top shape: 24 1024 7 7 (1204224)
I0403 16:24:25.074604 21032 net.cpp:156] Memory required for data: 1345864224
I0403 16:24:25.074618 21032 layer_factory.hpp:77] Creating layer pool5/7x7_s1
I0403 16:24:25.074635 21032 net.cpp:91] Creating Layer pool5/7x7_s1
I0403 16:24:25.074651 21032 net.cpp:425] pool5/7x7_s1 <- inception_5b/output
I0403 16:24:25.074671 21032 net.cpp:399] pool5/7x7_s1 -> pool5/7x7_s1
I0403 16:24:25.074888 21032 net.cpp:141] Setting up pool5/7x7_s1
I0403 16:24:25.074913 21032 net.cpp:148] Top shape: 24 1024 1 1 (24576)
I0403 16:24:25.074928 21032 net.cpp:156] Memory required for data: 1345962528
I0403 16:24:25.074942 21032 layer_factory.hpp:77] Creating layer pool5/drop_7x7_s1
I0403 16:24:25.074959 21032 net.cpp:91] Creating Layer pool5/drop_7x7_s1
I0403 16:24:25.074975 21032 net.cpp:425] pool5/drop_7x7_s1 <- pool5/7x7_s1
I0403 16:24:25.074995 21032 net.cpp:386] pool5/drop_7x7_s1 -> pool5/7x7_s1 (in-place)
I0403 16:24:25.075052 21032 net.cpp:141] Setting up pool5/drop_7x7_s1
I0403 16:24:25.075075 21032 net.cpp:148] Top shape: 24 1024 1 1 (24576)
I0403 16:24:25.075090 21032 net.cpp:156] Memory required for data: 1346060832
I0403 16:24:25.075104 21032 layer_factory.hpp:77] Creating layer loss3/classifier_plantvillage
I0403 16:24:25.075124 21032 net.cpp:91] Creating Layer loss3/classifier_plantvillage
I0403 16:24:25.075139 21032 net.cpp:425] loss3/classifier_plantvillage <- pool5/7x7_s1
I0403 16:24:25.075160 21032 net.cpp:399] loss3/classifier_plantvillage -> loss3/classifier_plantvillage
I0403 16:24:25.075592 21032 net.cpp:141] Setting up loss3/classifier_plantvillage
I0403 16:24:25.075615 21032 net.cpp:148] Top shape: 24 38 (912)
I0403 16:24:25.075630 21032 net.cpp:156] Memory required for data: 1346064480
I0403 16:24:25.075649 21032 layer_factory.hpp:77] Creating layer loss3/classifier_plantvillage_loss3/classifier_plantvillage_0_split
I0403 16:24:25.075670 21032 net.cpp:91] Creating Layer loss3/classifier_plantvillage_loss3/classifier_plantvillage_0_split
I0403 16:24:25.075687 21032 net.cpp:425] loss3/classifier_plantvillage_loss3/classifier_plantvillage_0_split <- loss3/classifier_plantvillage
I0403 16:24:25.075706 21032 net.cpp:399] loss3/classifier_plantvillage_loss3/classifier_plantvillage_0_split -> loss3/classifier_plantvillage_loss3/classifier_plantvillage_0_split_0
I0403 16:24:25.075726 21032 net.cpp:399] loss3/classifier_plantvillage_loss3/classifier_plantvillage_0_split -> loss3/classifier_plantvillage_loss3/classifier_plantvillage_0_split_1
I0403 16:24:25.075745 21032 net.cpp:399] loss3/classifier_plantvillage_loss3/classifier_plantvillage_0_split -> loss3/classifier_plantvillage_loss3/classifier_plantvillage_0_split_2
I0403 16:24:25.075765 21032 net.cpp:399] loss3/classifier_plantvillage_loss3/classifier_plantvillage_0_split -> loss3/classifier_plantvillage_loss3/classifier_plantvillage_0_split_3
I0403 16:24:25.075865 21032 net.cpp:141] Setting up loss3/classifier_plantvillage_loss3/classifier_plantvillage_0_split
I0403 16:24:25.075891 21032 net.cpp:148] Top shape: 24 38 (912)
I0403 16:24:25.075906 21032 net.cpp:148] Top shape: 24 38 (912)
I0403 16:24:25.075922 21032 net.cpp:148] Top shape: 24 38 (912)
I0403 16:24:25.075937 21032 net.cpp:148] Top shape: 24 38 (912)
I0403 16:24:25.075950 21032 net.cpp:156] Memory required for data: 1346079072
I0403 16:24:25.075965 21032 layer_factory.hpp:77] Creating layer loss1/loss
I0403 16:24:25.075986 21032 net.cpp:91] Creating Layer loss1/loss
I0403 16:24:25.076004 21032 net.cpp:425] loss1/loss <- loss1/classifier_plantvillage_loss1/classifier_plantvillage_0_split_0
I0403 16:24:25.076056 21032 net.cpp:425] loss1/loss <- label_data_1_split_0
…
