…
I0403 16:18:52.512692 20932 net.cpp:313] The NetState phase (1) differed from the phase (0) specified by a rule in layer data
I0403 16:18:52.513917 20932 net.cpp:49] Initializing net from parameters: 
state {
  phase: TEST
}
layer {
  name: "data"
  type: "Data"
  top: "data"
  top: "label"
  include {
    phase: TEST
  }
  transform_param {
    mirror: false
    crop_size: 224
    mean_file: "/home/mohanty/data/final_dataset/lmdb/grayscale-20-80/mean.binaryproto"
  }
  data_param {
    source: "/home/mohanty/data/final_dataset/lmdb/grayscale-20-80/test_db"
    batch_size: 24
    backend: LMDB
  }
}
layer {
  name: "conv1/7x7_s2"
  type: "Convolution"
  bottom: "data"
  top: "conv1/7x7_s2"
  param {
    lr_mult: 1
    decay_mult: 1
  }
  param {
    lr_mult: 2
    decay_mult: 0
  }
  convolution_param {
    num_output: 64
    pad: 3
    kernel_size: 7
    stride: 2
    weight_filler {
      type: "xavier"
      std: 0.1
    }
    bias_filler {
      type: "constant"
      value: 0.2
    }
  }
}
layer {
  name: "conv1/relu_7x7"
  type: "ReLU"
  bottom: "conv1/7x7_s2"
  top: "conv1/7x7_s2"
}
layer {
  name: "pool1/3x3_s2"
  type: "Pooling"
  bottom: "conv1/7x7_s2"
  top: "pool1/3x3_s2"
  pooling_param {
    pool: MAX
    kernel_size: 3
    stride: 2
  }
}
layer {
  name: "pool1/norm1"
  type: "LRN"
  bottom: "pool1/3x3_s2"
  top: "pool1/norm1"
  lrn_param {
    local_size: 5
    alpha: 0.0001
    beta: 0.75
  }
}
layer {
  name: "conv2/3x3_reduce"
  type: "Convolution"
  bottom: "pool1/norm1"
  top: "conv2/3x3_reduce"
  param {
    lr_mult: 1
    decay_mult: 1
  }
  param {
    lr_mult: 2
    decay_mult: 0
  }
  convolution_param {
    num_output: 64
    kernel_size: 1
    weight_filler {
      type: "xavier"
      std: 0.1
    }
    bias_filler {
      type: "constant"
      value: 0.2
    }
  }
}
layer {
  name: "conv2/relu_3x3_reduce"
  type: "ReLU"
  bottom: "conv2/3x3_reduce"
  top: "conv2/3x3_reduce"
}
layer {
  name: "conv2/3x3"
  type: "Convolution"
  bottom: "conv2/3x3_reduce"
  top: "conv2/3x3"
  param {
    lr_mult: 1
    decay_mult: 1
  }
  param {
    lr_mult: 2
    decay_mult: 0
  }
  convolution_param {
    num_output: 192
    pad: 1
    kernel_size: 3
    weight_filler {
      type: "xavier"
      std: 0.03
    }
    bias_filler {
      type: "constant"
      value: 0.2
    }
  }
}
layer {
  name: "conv2/relu_3x3"
  type: "ReLU"
  bottom: "conv2/3x3"
  top: "conv2/3x3"
}
layer {
  name: "conv2/norm2"
  type: "LRN"
  bottom: "conv2/3x3"
  top: "conv2/norm2"
  lrn_param {
    local_size: 5
    alpha: 0.0001
    beta: 0.75
  }
}
layer {
  name: "pool2/3x3_s2"
  type: "Pooling"
  bottom: "conv2/norm2"
  top: "pool2/3x3_s2"
  pooling_param {
    pool: MAX
    kernel_size: 3
    stride: 2
  }
}
layer {
  name: "inception_3a/1x1"
  type: "Convolution"
  bottom: "pool2/3x3_s2"
  top: "inception_3a/1x1"
  param {
    lr_mult: 1
    decay_mult: 1
  }
  param {
    lr_mult: 2
    decay_mult: 0
  }
  convolution_param {
    num_output: 64
    kernel_size: 1
    weight_filler {
      type: "xavier"
      std: 0.03
    }
    bias_filler {
      type: "constant"
      value: 0.2
    }
  }
}
layer {
  name: "inception_3a/relu_1x1"
  type: "ReLU"
  bottom: "inception_3a/1x1"
  top: "inception_3a/1x1"
}
layer {
  name: "inception_3a/3x3_reduce"
  type: "Convolution"
  bottom: "pool2/3x3_s2"
  top: "inception_3a/3x3_reduce"
  param {
    lr_mult: 1
    decay_mult: 1
  }
  param {
    lr_mult: 2
    decay_mult: 0
  }
  convolution_param {
    num_output: 96
    kernel_size: 1
    weight_filler {
      type: "xavier"
      std: 0.09
    }
    bias_filler {
      type: "constant"
      value: 0.2
    }
  }
}
layer {
  name: "inception_3a/relu_3x3_reduce"
  type: "ReLU"
  bottom: "inception_3a/3x3_reduce"
  top: "inception_3a/3x3_reduce"
}
layer {
  name: "inception_3a/3x3"
  type: "Convolution"
  bottom: "inception_3a/3x3_reduce"
  top: "inception_3a/3x3"
  param {
    lr_mult: 1
    decay_mult: 1
  }
  param {
    lr_mult: 2
    decay_mult: 0
  }
  convolution_param {
    num_output: 128
    pad: 1
    kernel_size: 3
    weight_filler {
      type: "xavier"
      std: 0.03
    }
    bias_filler {
      type: "constant"
      value: 0.2
    }
  }
}
layer {
  name: "inception_3a/relu_3x3"
  type: "ReLU"
  bottom: "inception_3a/3x3"
  top: "inception_3a/3x3"
}
layer {
  name: "inception_3a/5x5_reduce"
  type: "Convolution"
  bottom: "pool2/3x3_s2"
  top: "inception_3a/5x5_reduce"
  param {
    lr_mult: 1
    decay_mult: 1
  }
  param {
    lr_mult: 2
    decay_mult: 0
  }
  convolution_param {
    num_output: 16
    kernel_size: 1
    weight_filler {
      type: "xavier"
      std: 0.2
    }
    bias_filler {
      type: "constant"
      value: 0.2
    }
  }
}
layer {
  name: "inception_3a/relu_5x5_reduce"
  type: "ReLU"
  bottom: "inception_3a/5x5_reduce"
  top: "inception_3a/5x5_reduce"
}
layer {
  name: "inception_3a/5x5"
  type: "Convolution"
  bottom: "inception_3a/5x5_reduce"
  top: "inception_3a/5x5"
  param {
    lr_mult: 1
    decay_mult: 1
  }
  param {
    lr_mult: 2
    decay_mult: 0
  }
  convolution_param {
    num_output: 32
    pad: 2
    kernel_size: 5
    weight_filler {
      type: "xavier"
      std: 0.03
    }
    bias_filler {
      type: "constant"
      value: 0.2
    }
  }
}
layer {
  name: "inception_3a/relu_5x5"
  type: "ReLU"
  bottom: "inception_3a/5x5"
  top: "inception_3a/5x5"
}
layer {
  name: "inception_3a/pool"
  type: "Pooling"
  bottom: "pool2/3x3_s2"
  top: "inception_3a/pool"
  pooling_param {
    pool: MAX
    kernel_size: 3
    stride: 1
    pad: 1
  }
}
layer {
  name: "inception_3a/pool_proj"
  type: "Convolution"
  bottom: "inception_3a/pool"
  top: "inception_3a/pool_proj"
  param {
    lr_mult: 1
    decay_mult: 1
  }
  param {
    lr_mult: 2
    decay_mult: 0
  }
  convolution_param {
    num_output: 32
    kernel_size: 1
    weight_filler {
      type: "xavier"
      std: 0.1
    }
    bias_filler {
      type: "constant"
      value: 0.2
    }
  }
}
layer {
  name: "inception_3a/relu_pool_proj"
  type: "ReLU"
  bottom: "inception_3a/pool_proj"
  top: "inception_3a/pool_proj"
}
layer {
  name: "inception_3a/output"
  type: "Concat"
  bottom: "inception_3a/1x1"
  bottom: "inception_3a/3x3"
  bottom: "inception_3a/5x5"
  bottom: "inception_3a/pool_proj"
  top: "inception_3a/output"
}
layer {
  name: "inception_3b/1x1"
  type: "Convolution"
  bottom: "inception_3a/output"
  top: "inception_3b/1x1"
  param {
    lr_mult: 1
    decay_mult: 1
  }
  param {
    lr_mult: 2
    decay_mult: 0
  }
  convolution_param {
    num_output: 128
    kernel_size: 1
    weight_filler {
      type: "xavier"
      std: 0.03
    }
    bias_filler {
      type: "constant"
      value: 0.2
    }
  }
}
layer {
  name: "inception_3b/relu_1x1"
  type: "ReLU"
  bottom: "inception_3b/1x1"
  top: "inception_3b/1x1"
}
layer {
  name: "inception_3b/3x3_reduce"
  type: "Convolution"
  bottom: "inception_3a/output"
  top: "inception_3b/3x3_reduce"
  param {
    lr_mult: 1
    decay_mult: 1
  }
  param {
    lr_mult: 2
    decay_mult: 0
  }
  convolution_param {
    num_output: 128
    kernel_size: 1
    weight_filler {
      type: "xavier"
      std: 0.09
    }
    bias_filler {
      type: "constant"
      value: 0.2
    }
  }
}
layer {
  name: "inception_3b/relu_3x3_reduce"
  type: "ReLU"
  bottom: "inception_3b/3x3_reduce"
  top: "inception_3b/3x3_reduce"
}
layer {
  name: "inception_3b/3x3"
  type: "Convolution"
  bottom: "inception_3b/3x3_reduce"
  top: "inception_3b/3x3"
  param {
    lr_mult: 1
    decay_mult: 1
  }
  param {
    lr_mult: 2
    decay_mult: 0
  }
  convolution_param {
    num_output: 192
    pad: 1
    kernel_size: 3
    weight_filler {
      type: "xavier"
      std: 0.03
    }
    bias_filler {
      type: "constant"
      value: 0.2
    }
  }
}
layer {
  name: "inception_3b/relu_3x3"
  type: "ReLU"
  bottom: "inception_3b/3x3"
  top: "inception_3b/3x3"
}
layer {
  name: "inception_3b/5x5_reduce"
  type: "Convolution"
  bottom: "inception_3a/output"
  top: "inception_3b/5x5_reduce"
  param {
    lr_mult: 1
    decay_mult: 1
  }
  param {
    lr_mult: 2
    decay_mult: 0
  }
  convolution_param {
    num_output: 32
    kernel_size: 1
    weight_filler {
      type: "xavier"
      std: 0.2
    }
    bias_filler {
      type: "constant"
      value: 0.2
    }
  }
}
layer {
  name: "inception_3b/relu_5x5_reduce"
  type: "ReLU"
  bottom: "inception_3b/5x5_reduce"
  top: "inception_3b/5x5_reduce"
}
layer {
  name: "inception_3b/5x5"
  type: "Convolution"
  bottom: "inception_3b/5x5_reduce"
  top: "inception_3b/5x5"
  param {
    lr_mult: 1
    decay_mult: 1
  }
  param {
    lr_mult: 2
    decay_mult: 0
  }
  convolution_param {
    num_output: 96
    pad: 2
    kernel_size: 5
    weight_filler {
      type: "xavier"
      std: 0.03
    }
    bias_filler {
      type: "constant"
      value: 0.2
    }
  }
}
layer {
  name: "inception_3b/relu_5x5"
  type: "ReLU"
  bottom: "inception_3b/5x5"
  top: "inception_3b/5x5"
}
layer {
  name: "inception_3b/pool"
  type: "Pooling"
  bottom: "inception_3a/output"
  top: "inception_3b/pool"
  pooling_param {
    pool: MAX
    kernel_size: 3
    stride: 1
    pad: 1
  }
}
layer {
  name: "inception_3b/pool_proj"
  type: "Convolution"
  bottom: "inception_3b/pool"
  top: "inception_3b/pool_proj"
  param {
    lr_mult: 1
    decay_mult: 1
  }
  param {
    lr_mult: 2
    decay_mult: 0
  }
  convolution_param {
    num_output: 64
    kernel_size: 1
    weight_filler {
      type: "xavier"
      std: 0.1
    }
    bias_filler {
      type: "constant"
      value: 0.2
    }
  }
}
layer {
  name: "inception_3b/relu_pool_proj"
  type: "ReLU"
  bottom: "inception_3b/pool_proj"
  top: "inception_3b/pool_proj"
}
layer {
  name: "inception_3b/output"
  type: "Concat"
  bottom: "inception_3b/1x1"
  bottom: "inception_3b/3x3"
  bottom: "inception_3b/5x5"
  bottom: "inception_3b/pool_proj"
  top: "inception_3b/output"
}
layer {
  name: "pool3/3x3_s2"
  type: "Pooling"
  bottom: "inception_3b/output"
  top: "pool3/3x3_s2"
  pooling_param {
    pool: MAX
    kernel_size: 3
    stride: 2
  }
}
layer {
  name: "inception_4a/1x1"
  type: "Convolution"
  bottom: "pool3/3x3_s2"
  top: "inception_4a/1x1"
  param {
    lr_mult: 1
    decay_mult: 1
  }
  param {
    lr_mult: 2
    decay_mult: 0
  }
  convolution_param {
    num_output: 192
    kernel_size: 1
    weight_filler {
      type: "xavier"
      std: 0.03
    }
    bias_filler {
      type: "constant"
      value: 0.2
    }
  }
}
layer {
  name: "inception_4a/relu_1x1"
  type: "ReLU"
  bottom: "inception_4a/1x1"
  top: "inception_4a/1x1"
}
layer {
  name: "inception_4a/3x3_reduce"
  type: "Convolution"
  bottom: "pool3/3x3_s2"
  top: "inception_4a/3x3_reduce"
  param {
    lr_mult: 1
    decay_mult: 1
  }
  param {
    lr_mult: 2
    decay_mult: 0
  }
  convolution_param {
    num_output: 96
    kernel_size: 1
    weight_filler {
      type: "xavier"
      std: 0.09
    }
    bias_filler {
      type: "constant"
      value: 0.2
    }
  }
}
layer {
  name: "inception_4a/relu_3x3_reduce"
  type: "ReLU"
  bottom: "inception_4a/3x3_reduce"
  top: "inception_4a/3x3_reduce"
}
layer {
  name: "inception_4a/3x3"
  type: "Convolution"
  bottom: "inception_4a/3x3_reduce"
  top: "inception_4a/3x3"
  param {
    lr_mult: 1
    decay_mult: 1
  }
  param {
    lr_mult: 2
    decay_mult: 0
  }
  convolution_param {
    num_output: 208
    pad: 1
    kernel_size: 3
    weight_filler {
      type: "xavier"
      std: 0.03
    }
    bias_filler {
      type: "constant"
      value: 0.2
    }
  }
}
layer {
  name: "inception_4a/relu_3x3"
  type: "ReLU"
  bottom: "inception_4a/3x3"
  top: "inception_4a/3x3"
}
layer {
  name: "inception_4a/5x5_reduce"
  type: "Convolution"
  bottom: "pool3/3x3_s2"
  top: "inception_4a/5x5_reduce"
  param {
    lr_mult: 1
    decay_mult: 1
  }
  param {
    lr_mult: 2
    decay_mult: 0
  }
  convolution_param {
    num_output: 16
    kernel_size: 1
    weight_filler {
      type: "xavier"
      std: 0.2
    }
    bias_filler {
      type: "constant"
      value: 0.2
    }
  }
}
layer {
  name: "inception_4a/relu_5x5_reduce"
  type: "ReLU"
  bottom: "inception_4a/5x5_reduce"
  top: "inception_4a/5x5_reduce"
}
layer {
  name: "inception_4a/5x5"
  type: "Convolution"
  bottom: "inception_4a/5x5_reduce"
  top: "inception_4a/5x5"
  param {
    lr_mult: 1
    decay_mult: 1
  }
  param {
    lr_mult: 2
    decay_mult: 0
  }
  convolution_param {
    num_output: 48
    pad: 2
    kernel_size: 5
    weight_filler {
      type: "xavier"
      std: 0.03
    }
    bias_filler {
      type: "constant"
      value: 0.2
    }
  }
}
layer {
  name: "inception_4a/relu_5x5"
  type: "ReLU"
  bottom: "inception_4a/5x5"
  top: "inception_4a/5x5"
}
layer {
  name: "inception_4a/pool"
  type: "Pooling"
  bottom: "pool3/3x3_s2"
  top: "inception_4a/pool"
  pooling_param {
    pool: MAX
    kernel_size: 3
    stride: 1
    pad: 1
  }
}
layer {
  name: "inception_4a/pool_proj"
  type: "Convolution"
  bottom: "inception_4a/pool"
  top: "inception_4a/pool_proj"
  param {
    lr_mult: 1
    decay_mult: 1
  }
  param {
    lr_mult: 2
    decay_mult: 0
  }
  convolution_param {
    num_output: 64
    kernel_size: 1
    weight_filler {
      type: "xavier"
      std: 0.1
    }
    bias_filler {
      type: "constant"
      value: 0.2
    }
  }
}
layer {
  name: "inception_4a/relu_pool_proj"
  type: "ReLU"
  bottom: "inception_4a/pool_proj"
  top: "inception_4a/pool_proj"
}
layer {
  name: "inception_4a/output"
  type: "Concat"
  bottom: "inception_4a/1x1"
  bottom: "inception_4a/3x3"
  bottom: "inception_4a/5x5"
  bottom: "inception_4a/pool_proj"
  top: "inception_4a/output"
}
layer {
  name: "loss1/ave_pool"
  type: "Pooling"
  bottom: "inception_4a/output"
  top: "loss1/ave_pool"
  pooling_param {
    pool: AVE
    kernel_size: 5
    stride: 3
  }
}
layer {
  name: "loss1/conv"
  type: "Convolution"
  bottom: "loss1/ave_pool"
  top: "loss1/conv"
  param {
    lr_mult: 1
    decay_mult: 1
  }
  param {
    lr_mult: 2
    decay_mult: 0
  }
  convolution_param {
    num_output: 128
    kernel_size: 1
    weight_filler {
      type: "xavier"
      std: 0.08
    }
    bias_filler {
      type: "constant"
      value: 0.2
    }
  }
}
layer {
  name: "loss1/relu_conv"
  type: "ReLU"
  bottom: "loss1/conv"
  top: "loss1/conv"
}
layer {
  name: "loss1/fc"
  type: "InnerProduct"
  bottom: "loss1/conv"
  top: "loss1/fc"
  param {
    lr_mult: 1
    decay_mult: 1
  }
  param {
    lr_mult: 2
    decay_mult: 0
  }
  inner_product_param {
    num_output: 1024
    weight_filler {
      type: "xavier"
      std: 0.02
    }
    bias_filler {
      type: "constant"
      value: 0.2
    }
  }
}
layer {
  name: "loss1/relu_fc"
  type: "ReLU"
  bottom: "loss1/fc"
  top: "loss1/fc"
}
layer {
  name: "loss1/drop_fc"
  type: "Dropout"
  bottom: "loss1/fc"
  top: "loss1/fc"
  dropout_param {
    dropout_ratio: 0.7
  }
}
layer {
  name: "loss1/classifier_plantvillage"
  type: "InnerProduct"
  bottom: "loss1/fc"
  top: "loss1/classifier_plantvillage"
  param {
    lr_mult: 1
    decay_mult: 1
  }
  param {
    lr_mult: 2
    decay_mult: 0
  }
  inner_product_param {
    num_output: 38
    weight_filler {
      type: "xavier"
      std: 0.0009765625
    }
    bias_filler {
      type: "constant"
      value: 0
    }
  }
}
layer {
  name: "inception_4b/1x1"
  type: "Convolution"
  bottom: "inception_4a/output"
  top: "inception_4b/1x1"
  param {
    lr_mult: 1
    decay_mult: 1
  }
  param {
    lr_mult: 2
    decay_mult: 0
  }
  convolution_param {
    num_output: 160
    kernel_size: 1
    weight_filler {
      type: "xavier"
      std: 0.03
    }
    bias_filler {
      type: "constant"
      value: 0.2
    }
  }
}
layer {
  name: "inception_4b/relu_1x1"
  type: "ReLU"
  bottom: "inception_4b/1x1"
  top: "inception_4b/1x1"
}
layer {
  name: "inception_4b/3x3_reduce"
  type: "Convolution"
  bottom: "inception_4a/output"
  top: "inception_4b/3x3_reduce"
  param {
    lr_mult: 1
    decay_mult: 1
  }
  param {
    lr_mult: 2
    decay_mult: 0
  }
  convolution_param {
    num_output: 112
    kernel_size: 1
    weight_filler {
      type: "xavier"
      std: 0.09
    }
    bias_filler {
      type: "constant"
      value: 0.2
    }
  }
}
layer {
  name: "inception_4b/relu_3x3_reduce"
  type: "ReLU"
  bottom: "inception_4b/3x3_reduce"
  top: "inception_4b/3x3_reduce"
}
layer {
  name: "inception_4b/3x3"
  type: "Convolution"
  bottom: "inception_4b/3x3_reduce"
  top: "inception_4b/3x3"
  param {
    lr_mult: 1
    decay_mult: 1
  }
  param {
    lr_mult: 2
    decay_mult: 0
  }
  convolution_param {
    num_output: 224
    pad: 1
    kernel_size: 3
    weight_filler {
      type: "xavier"
      std: 0.03
    }
    bias_filler {
      type: "constant"
      value: 0.2
    }
  }
}
layer {
  name: "inception_4b/relu_3x3"
  type: "ReLU"
  bottom: "inception_4b/3x3"
  top: "inception_4b/3x3"
}
layer {
  name: "inception_4b/5x5_reduce"
  type: "Convolution"
  bottom: "inception_4a/output"
  top: "inception_4b/5x5_reduce"
  param {
    lr_mult: 1
    decay_mult: 1
  }
  param {
    lr_mult: 2
    decay_mult: 0
  }
  convolution_param {
    num_output: 24
    kernel_size: 1
    weight_filler {
      type: "xavier"
      std: 0.2
    }
    bias_filler {
      type: "constant"
      value: 0.2
    }
  }
}
layer {
  name: "inception_4b/relu_5x5_reduce"
  type: "ReLU"
  bottom: "inception_4b/5x5_reduce"
  top: "inception_4b/5x5_reduce"
}
layer {
  name: "inception_4b/5x5"
  type: "Convolution"
  bottom: "inception_4b/5x5_reduce"
  top: "inception_4b/5x5"
  param {
    lr_mult: 1
    decay_mult: 1
  }
  param {
    lr_mult: 2
    decay_mult: 0
  }
  convolution_param {
    num_output: 64
    pad: 2
    kernel_size: 5
    weight_filler {
      type: "xavier"
      std: 0.03
    }
    bias_filler {
      type: "constant"
      value: 0.2
    }
  }
}
layer {
  name: "inception_4b/relu_5x5"
  type: "ReLU"
  bottom: "inception_4b/5x5"
  top: "inception_4b/5x5"
}
layer {
  name: "inception_4b/pool"
  type: "Pooling"
  bottom: "inception_4a/output"
  top: "inception_4b/pool"
  pooling_param {
    pool: MAX
    kernel_size: 3
    stride: 1
    pad: 1
  }
}
layer {
  name: "inception_4b/pool_proj"
  type: "Convolution"
  bottom: "inception_4b/pool"
  top: "inception_4b/pool_proj"
  param {
    lr_mult: 1
    decay_mult: 1
  }
  param {
    lr_mult: 2
    decay_mult: 0
  }
  convolution_param {
    num_output: 64
    kernel_size: 1
    weight_filler {
      type: "xavier"
      std: 0.1
    }
    bias_filler {
      type: "constant"
      value: 0.2
    }
  }
}
layer {
  name: "inception_4b/relu_pool_proj"
  type: "ReLU"
  bottom: "inception_4b/pool_proj"
  top: "inception_4b/pool_proj"
}
layer {
  name: "inception_4b/output"
  type: "Concat"
  bottom: "inception_4b/1x1"
  bottom: "inception_4b/3x3"
  bottom: "inception_4b/5x5"
  bottom: "inception_4b/pool_proj"
  top: "inception_4b/output"
}
layer {
  name: "inception_4c/1x1"
  type: "Convolution"
  bottom: "inception_4b/output"
  top: "inception_4c/1x1"
  param {
    lr_mult: 1
    decay_mult: 1
  }
  param {
    lr_mult: 2
    decay_mult: 0
  }
  convolution_param {
    num_output: 128
    kernel_size: 1
    weight_filler {
      type: "xavier"
      std: 0.03
    }
    bias_filler {
      type: "constant"
      value: 0.2
    }
  }
}
layer {
  name: "inception_4c/relu_1x1"
  type: "ReLU"
  bottom: "inception_4c/1x1"
  top: "inception_4c/1x1"
}
layer {
  name: "inception_4c/3x3_reduce"
  type: "Convolution"
  bottom: "inception_4b/output"
  top: "inception_4c/3x3_reduce"
  param {
    lr_mult: 1
    decay_mult: 1
  }
  param {
    lr_mult: 2
    decay_mult: 0
  }
  convolution_param {
    num_output: 128
    kernel_size: 1
    weight_filler {
      type: "xavier"
      std: 0.09
    }
    bias_filler {
      type: "constant"
      value: 0.2
    }
  }
}
layer {
  name: "inception_4c/relu_3x3_reduce"
  type: "ReLU"
  bottom: "inception_4c/3x3_reduce"
  top: "inception_4c/3x3_reduce"
}
layer {
  name: "inception_4c/3x3"
  type: "Convolution"
  bottom: "inception_4c/3x3_reduce"
  top: "inception_4c/3x3"
  param {
    lr_mult: 1
    decay_mult: 1
  }
  param {
    lr_mult: 2
    decay_mult: 0
  }
  convolution_param {
    num_output: 256
    pad: 1
    kernel_size: 3
    weight_filler {
      type: "xavier"
      std: 0.03
    }
    bias_filler {
      type: "constant"
      value: 0.2
    }
  }
}
layer {
  name: "inception_4c/relu_3x3"
  type: "ReLU"
  bottom: "inception_4c/3x3"
  top: "inception_4c/3x3"
}
layer {
  name: "inception_4c/5x5_reduce"
  type: "Convolution"
  bottom: "inception_4b/output"
  top: "inception_4c/5x5_reduce"
  param {
    lr_mult: 1
    decay_mult: 1
  }
  param {
    lr_mult: 2
    decay_mult: 0
  }
  convolution_param {
    num_output: 24
    kernel_size: 1
    weight_filler {
      type: "xavier"
      std: 0.2
    }
    bias_filler {
      type: "constant"
      value: 0.2
    }
  }
}
layer {
  name: "inception_4c/relu_5x5_reduce"
  type: "ReLU"
  bottom: "inception_4c/5x5_reduce"
  top: "inception_4c/5x5_reduce"
}
layer {
  name: "inception_4c/5x5"
  type: "Convolution"
  bottom: "inception_4c/5x5_reduce"
  top: "inception_4c/5x5"
  param {
    lr_mult: 1
    decay_mult: 1
  }
  param {
    lr_mult: 2
    decay_mult: 0
  }
  convolution_param {
    num_output: 64
    pad: 2
    kernel_size: 5
    weight_filler {
      type: "xavier"
      std: 0.03
    }
    bias_filler {
      type: "constant"
      value: 0.2
    }
  }
}
layer {
  name: "inception_4c/relu_5x5"
  type: "ReLU"
  bottom: "inception_4c/5x5"
  top: "inception_4c/5x5"
}
layer {
  name: "inception_4c/pool"
  type: "Pooling"
  bottom: "inception_4b/output"
  top: "inception_4c/pool"
  pooling_param {
    pool: MAX
    kernel_size: 3
    stride: 1
    pad: 1
  }
}
layer {
  name: "inception_4c/pool_proj"
  type: "Convolution"
  bottom: "inception_4c/pool"
  top: "inception_4c/pool_proj"
  param {
    lr_mult: 1
    decay_mult: 1
  }
  param {
    lr_mult: 2
    decay_mult: 0
  }
  convolution_param {
    num_output: 64
    kernel_size: 1
    weight_filler {
      type: "xavier"
      std: 0.1
    }
    bias_filler {
      type: "constant"
      value: 0.2
    }
  }
}
layer {
  name: "inception_4c/relu_pool_proj"
  type: "ReLU"
  bottom: "inception_4c/pool_proj"
  top: "inception_4c/pool_proj"
}
layer {
  name: "inception_4c/output"
  type: "Concat"
  bottom: "inception_4c/1x1"
  bottom: "inception_4c/3x3"
  bottom: "inception_4c/5x5"
  bottom: "inception_4c/pool_proj"
  top: "inception_4c/output"
}
layer {
  name: "inception_4d/1x1"
  type: "Convolution"
  bottom: "inception_4c/output"
  top: "inception_4d/1x1"
  param {
    lr_mult: 1
    decay_mult: 1
  }
  param {
    lr_mult: 2
    decay_mult: 0
  }
  convolution_param {
    num_output: 112
    kernel_size: 1
    weight_filler {
      type: "xavier"
      std: 0.03
    }
    bias_filler {
      type: "constant"
      value: 0.2
    }
  }
}
layer {
  name: "inception_4d/relu_1x1"
  type: "ReLU"
  bottom: "inception_4d/1x1"
  top: "inception_4d/1x1"
}
layer {
  name: "inception_4d/3x3_reduce"
  type: "Convolution"
  bottom: "inception_4c/output"
  top: "inception_4d/3x3_reduce"
  param {
    lr_mult: 1
    decay_mult: 1
  }
  param {
    lr_mult: 2
    decay_mult: 0
  }
  convolution_param {
    num_output: 144
    kernel_size: 1
    weight_filler {
      type: "xavier"
      std: 0.09
    }
    bias_filler {
      type: "constant"
      value: 0.2
    }
  }
}
layer {
  name: "inception_4d/relu_3x3_reduce"
  type: "ReLU"
  bottom: "inception_4d/3x3_reduce"
  top: "inception_4d/3x3_reduce"
}
layer {
  name: "inception_4d/3x3"
  type: "Convolution"
  bottom: "inception_4d/3x3_reduce"
  top: "inception_4d/3x3"
  param {
    lr_mult: 1
    decay_mult: 1
  }
  param {
    lr_mult: 2
    decay_mult: 0
  }
  convolution_param {
    num_output: 288
    pad: 1
    kernel_size: 3
    weight_filler {
      type: "xavier"
      std: 0.03
    }
    bias_filler {
      type: "constant"
      value: 0.2
    }
  }
}
layer {
  name: "inception_4d/relu_3x3"
  type: "ReLU"
  bottom: "inception_4d/3x3"
  top: "inception_4d/3x3"
}
layer {
  name: "inception_4d/5x5_reduce"
  type: "Convolution"
  bottom: "inception_4c/output"
  top: "inception_4d/5x5_reduce"
  param {
    lr_mult: 1
    decay_mult: 1
  }
  param {
    lr_mult: 2
    decay_mult: 0
  }
  convolution_param {
    num_output: 32
    kernel_size: 1
    weight_filler {
      type: "xavier"
      std: 0.2
    }
    bias_filler {
      type: "constant"
      value: 0.2
    }
  }
}
layer {
  name: "inception_4d/relu_5x5_reduce"
  type: "ReLU"
  bottom: "inception_4d/5x5_reduce"
  top: "inception_4d/5x5_reduce"
}
layer {
  name: "inception_4d/5x5"
  type: "Convolution"
  bottom: "inception_4d/5x5_reduce"
  top: "inception_4d/5x5"
  param {
    lr_mult: 1
    decay_mult: 1
  }
  param {
    lr_mult: 2
    decay_mult: 0
  }
  convolution_param {
    num_output: 64
    pad: 2
    kernel_size: 5
    weight_filler {
      type: "xavier"
      std: 0.03
    }
    bias_filler {
      type: "constant"
      value: 0.2
    }
  }
}
layer {
  name: "inception_4d/relu_5x5"
  type: "ReLU"
  bottom: "inception_4d/5x5"
  top: "inception_4d/5x5"
}
layer {
  name: "inception_4d/pool"
  type: "Pooling"
  bottom: "inception_4c/output"
  top: "inception_4d/pool"
  pooling_param {
    pool: MAX
    kernel_size: 3
    stride: 1
    pad: 1
  }
}
layer {
  name: "inception_4d/pool_proj"
  type: "Convolution"
  bottom: "inception_4d/pool"
  top: "inception_4d/pool_proj"
  param {
    lr_mult: 1
    decay_mult: 1
  }
  param {
    lr_mult: 2
    decay_mult: 0
  }
  convolution_param {
    num_output: 64
    kernel_size: 1
    weight_filler {
      type: "xavier"
      std: 0.1
    }
    bias_filler {
      type: "constant"
      value: 0.2
    }
  }
}
layer {
  name: "inception_4d/relu_pool_proj"
  type: "ReLU"
  bottom: "inception_4d/pool_proj"
  top: "inception_4d/pool_proj"
}
layer {
  name: "inception_4d/output"
  type: "Concat"
  bottom: "inception_4d/1x1"
  bottom: "inception_4d/3x3"
  bottom: "inception_4d/5x5"
  bottom: "inception_4d/pool_proj"
  top: "inception_4d/output"
}
layer {
  name: "loss2/ave_pool"
  type: "Pooling"
  bottom: "inception_4d/output"
  top: "loss2/ave_pool"
  pooling_param {
    pool: AVE
    kernel_size: 5
    stride: 3
  }
}
layer {
  name: "loss2/conv"
  type: "Convolution"
  bottom: "loss2/ave_pool"
  top: "loss2/conv"
  param {
    lr_mult: 1
    decay_mult: 1
  }
  param {
    lr_mult: 2
    decay_mult: 0
  }
  convolution_param {
    num_output: 128
    kernel_size: 1
    weight_filler {
      type: "xavier"
      std: 0.08
    }
    bias_filler {
      type: "constant"
      value: 0.2
    }
  }
}
layer {
  name: "loss2/relu_conv"
  type: "ReLU"
  bottom: "loss2/conv"
  top: "loss2/conv"
}
layer {
  name: "loss2/fc"
  type: "InnerProduct"
  bottom: "loss2/conv"
  top: "loss2/fc"
  param {
    lr_mult: 1
    decay_mult: 1
  }
  param {
    lr_mult: 2
    decay_mult: 0
  }
  inner_product_param {
    num_output: 1024
    weight_filler {
      type: "xavier"
      std: 0.02
    }
    bias_filler {
      type: "constant"
      value: 0.2
    }
  }
}
layer {
  name: "loss2/relu_fc"
  type: "ReLU"
  bottom: "loss2/fc"
  top: "loss2/fc"
}
layer {
  name: "loss2/drop_fc"
  type: "Dropout"
  bottom: "loss2/fc"
  top: "loss2/fc"
  dropout_param {
    dropout_ratio: 0.7
  }
}
layer {
  name: "loss2/classifier_plantvillage"
  type: "InnerProduct"
  bottom: "loss2/fc"
  top: "loss2/classifier_plantvillage"
  param {
    lr_mult: 1
    decay_mult: 1
  }
  param {
    lr_mult: 2
    decay_mult: 0
  }
  inner_product_param {
    num_output: 38
    weight_filler {
      type: "xavier"
      std: 0.0009765625
    }
    bias_filler {
      type: "constant"
      value: 0
    }
  }
}
layer {
  name: "inception_4e/1x1"
  type: "Convolution"
  bottom: "inception_4d/output"
  top: "inception_4e/1x1"
  param {
    lr_mult: 1
    decay_mult: 1
  }
  param {
    lr_mult: 2
    decay_mult: 0
  }
  convolution_param {
    num_output: 256
    kernel_size: 1
    weight_filler {
      type: "xavier"
      std: 0.03
    }
    bias_filler {
      type: "constant"
      value: 0.2
    }
  }
}
layer {
  name: "inception_4e/relu_1x1"
  type: "ReLU"
  bottom: "inception_4e/1x1"
  top: "inception_4e/1x1"
}
layer {
  name: "inception_4e/3x3_reduce"
  type: "Convolution"
  bottom: "inception_4d/output"
  top: "inception_4e/3x3_reduce"
  param {
    lr_mult: 1
    decay_mult: 1
  }
  param {
    lr_mult: 2
    decay_mult: 0
  }
  convolution_param {
    num_output: 160
    kernel_size: 1
    weight_filler {
      type: "xavier"
      std: 0.09
    }
    bias_filler {
      type: "constant"
      value: 0.2
    }
  }
}
layer {
  name: "inception_4e/relu_3x3_reduce"
  type: "ReLU"
  bottom: "inception_4e/3x3_reduce"
  top: "inception_4e/3x3_reduce"
}
layer {
  name: "inception_4e/3x3"
  type: "Convolution"
  bottom: "inception_4e/3x3_reduce"
  top: "inception_4e/3x3"
  param {
    lr_mult: 1
    decay_mult: 1
  }
  param {
    lr_mult: 2
    decay_mult: 0
  }
  convolution_param {
    num_output: 320
    pad: 1
    kernel_size: 3
    weight_filler {
      type: "xavier"
      std: 0.03
    }
    bias_filler {
      type: "constant"
      value: 0.2
    }
  }
}
layer {
  name: "inception_4e/relu_3x3"
  type: "ReLU"
  bottom: "inception_4e/3x3"
  top: "inception_4e/3x3"
}
layer {
  name: "inception_4e/5x5_reduce"
  type: "Convolution"
  bottom: "inception_4d/output"
  top: "inception_4e/5x5_reduce"
  param {
    lr_mult: 1
    decay_mult: 1
  }
  param {
    lr_mult: 2
    decay_mult: 0
  }
  convolution_param {
    num_output: 32
    kernel_size: 1
    weight_filler {
      type: "xavier"
      std: 0.2
    }
    bias_filler {
      type: "constant"
      value: 0.2
    }
  }
}
layer {
  name: "inception_4e/relu_5x5_reduce"
  type: "ReLU"
  bottom: "inception_4e/5x5_reduce"
  top: "inception_4e/5x5_reduce"
}
layer {
  name: "inception_4e/5x5"
  type: "Convolution"
  bottom: "inception_4e/5x5_reduce"
  top: "inception_4e/
I0403 16:18:52.515182 20932 layer_factory.hpp:77] Creating layer data
I0403 16:18:52.515810 20932 net.cpp:91] Creating Layer data
I0403 16:18:52.515843 20932 net.cpp:399] data -> data
I0403 16:18:52.515895 20932 net.cpp:399] data -> label
I0403 16:18:52.515933 20932 data_transformer.cpp:25] Loading mean file from: /home/mohanty/data/final_dataset/lmdb/grayscale-20-80/mean.binaryproto
I0403 16:18:52.517179 20934 db_lmdb.cpp:38] Opened lmdb /home/mohanty/data/final_dataset/lmdb/grayscale-20-80/test_db
I0403 16:18:52.529016 20932 data_layer.cpp:41] output data size: 24,3,224,224
I0403 16:18:52.556123 20932 net.cpp:141] Setting up data
I0403 16:18:52.556208 20932 net.cpp:148] Top shape: 24 3 224 224 (3612672)
I0403 16:18:52.556232 20932 net.cpp:148] Top shape: 24 (24)
I0403 16:18:52.556251 20932 net.cpp:156] Memory required for data: 14450784
I0403 16:18:52.556277 20932 layer_factory.hpp:77] Creating layer label_data_1_split
I0403 16:18:52.556304 20932 net.cpp:91] Creating Layer label_data_1_split
I0403 16:18:52.556324 20932 net.cpp:425] label_data_1_split <- label
I0403 16:18:52.556356 20932 net.cpp:399] label_data_1_split -> label_data_1_split_0
I0403 16:18:52.556385 20932 net.cpp:399] label_data_1_split -> label_data_1_split_1
I0403 16:18:52.556408 20932 net.cpp:399] label_data_1_split -> label_data_1_split_2
I0403 16:18:52.556429 20932 net.cpp:399] label_data_1_split -> label_data_1_split_3
I0403 16:18:52.556450 20932 net.cpp:399] label_data_1_split -> label_data_1_split_4
I0403 16:18:52.556471 20932 net.cpp:399] label_data_1_split -> label_data_1_split_5
I0403 16:18:52.556490 20932 net.cpp:399] label_data_1_split -> label_data_1_split_6
I0403 16:18:52.556512 20932 net.cpp:399] label_data_1_split -> label_data_1_split_7
I0403 16:18:52.556534 20932 net.cpp:399] label_data_1_split -> label_data_1_split_8
I0403 16:18:52.556553 20932 net.cpp:399] label_data_1_split -> label_data_1_split_9
I0403 16:18:52.556670 20932 net.cpp:141] Setting up label_data_1_split
I0403 16:18:52.556696 20932 net.cpp:148] Top shape: 24 (24)
I0403 16:18:52.556715 20932 net.cpp:148] Top shape: 24 (24)
I0403 16:18:52.556730 20932 net.cpp:148] Top shape: 24 (24)
I0403 16:18:52.556746 20932 net.cpp:148] Top shape: 24 (24)
I0403 16:18:52.556763 20932 net.cpp:148] Top shape: 24 (24)
I0403 16:18:52.556779 20932 net.cpp:148] Top shape: 24 (24)
I0403 16:18:52.556795 20932 net.cpp:148] Top shape: 24 (24)
I0403 16:18:52.556812 20932 net.cpp:148] Top shape: 24 (24)
I0403 16:18:52.556826 20932 net.cpp:148] Top shape: 24 (24)
I0403 16:18:52.556843 20932 net.cpp:148] Top shape: 24 (24)
I0403 16:18:52.556887 20932 net.cpp:156] Memory required for data: 14451744
I0403 16:18:52.556905 20932 layer_factory.hpp:77] Creating layer conv1/7x7_s2
I0403 16:18:52.556936 20932 net.cpp:91] Creating Layer conv1/7x7_s2
I0403 16:18:52.556957 20932 net.cpp:425] conv1/7x7_s2 <- data
I0403 16:18:52.556977 20932 net.cpp:399] conv1/7x7_s2 -> conv1/7x7_s2
I0403 16:18:52.693771 20932 net.cpp:141] Setting up conv1/7x7_s2
I0403 16:18:52.693846 20932 net.cpp:148] Top shape: 24 64 112 112 (19267584)
I0403 16:18:52.693863 20932 net.cpp:156] Memory required for data: 91522080
I0403 16:18:52.693892 20932 layer_factory.hpp:77] Creating layer conv1/relu_7x7
I0403 16:18:52.693919 20932 net.cpp:91] Creating Layer conv1/relu_7x7
I0403 16:18:52.693938 20932 net.cpp:425] conv1/relu_7x7 <- conv1/7x7_s2
I0403 16:18:52.693956 20932 net.cpp:386] conv1/relu_7x7 -> conv1/7x7_s2 (in-place)
I0403 16:18:52.694211 20932 net.cpp:141] Setting up conv1/relu_7x7
I0403 16:18:52.694237 20932 net.cpp:148] Top shape: 24 64 112 112 (19267584)
I0403 16:18:52.694252 20932 net.cpp:156] Memory required for data: 168592416
I0403 16:18:52.694267 20932 layer_factory.hpp:77] Creating layer pool1/3x3_s2
I0403 16:18:52.694289 20932 net.cpp:91] Creating Layer pool1/3x3_s2
I0403 16:18:52.694306 20932 net.cpp:425] pool1/3x3_s2 <- conv1/7x7_s2
I0403 16:18:52.694324 20932 net.cpp:399] pool1/3x3_s2 -> pool1/3x3_s2
I0403 16:18:52.694394 20932 net.cpp:141] Setting up pool1/3x3_s2
I0403 16:18:52.694417 20932 net.cpp:148] Top shape: 24 64 56 56 (4816896)
I0403 16:18:52.694432 20932 net.cpp:156] Memory required for data: 187860000
I0403 16:18:52.694445 20932 layer_factory.hpp:77] Creating layer pool1/norm1
I0403 16:18:52.694468 20932 net.cpp:91] Creating Layer pool1/norm1
I0403 16:18:52.694485 20932 net.cpp:425] pool1/norm1 <- pool1/3x3_s2
I0403 16:18:52.694502 20932 net.cpp:399] pool1/norm1 -> pool1/norm1
I0403 16:18:52.694777 20932 net.cpp:141] Setting up pool1/norm1
I0403 16:18:52.694803 20932 net.cpp:148] Top shape: 24 64 56 56 (4816896)
I0403 16:18:52.694818 20932 net.cpp:156] Memory required for data: 207127584
I0403 16:18:52.694833 20932 layer_factory.hpp:77] Creating layer conv2/3x3_reduce
I0403 16:18:52.694856 20932 net.cpp:91] Creating Layer conv2/3x3_reduce
I0403 16:18:52.694871 20932 net.cpp:425] conv2/3x3_reduce <- pool1/norm1
I0403 16:18:52.694890 20932 net.cpp:399] conv2/3x3_reduce -> conv2/3x3_reduce
I0403 16:18:52.696179 20932 net.cpp:141] Setting up conv2/3x3_reduce
I0403 16:18:52.696209 20932 net.cpp:148] Top shape: 24 64 56 56 (4816896)
I0403 16:18:52.696224 20932 net.cpp:156] Memory required for data: 226395168
I0403 16:18:52.696244 20932 layer_factory.hpp:77] Creating layer conv2/relu_3x3_reduce
I0403 16:18:52.696262 20932 net.cpp:91] Creating Layer conv2/relu_3x3_reduce
I0403 16:18:52.696277 20932 net.cpp:425] conv2/relu_3x3_reduce <- conv2/3x3_reduce
I0403 16:18:52.696293 20932 net.cpp:386] conv2/relu_3x3_reduce -> conv2/3x3_reduce (in-place)
I0403 16:18:52.696537 20932 net.cpp:141] Setting up conv2/relu_3x3_reduce
I0403 16:18:52.696563 20932 net.cpp:148] Top shape: 24 64 56 56 (4816896)
I0403 16:18:52.696578 20932 net.cpp:156] Memory required for data: 245662752
I0403 16:18:52.696591 20932 layer_factory.hpp:77] Creating layer conv2/3x3
I0403 16:18:52.696614 20932 net.cpp:91] Creating Layer conv2/3x3
I0403 16:18:52.696630 20932 net.cpp:425] conv2/3x3 <- conv2/3x3_reduce
I0403 16:18:52.696647 20932 net.cpp:399] conv2/3x3 -> conv2/3x3
I0403 16:18:52.698863 20932 net.cpp:141] Setting up conv2/3x3
I0403 16:18:52.698896 20932 net.cpp:148] Top shape: 24 192 56 56 (14450688)
I0403 16:18:52.698912 20932 net.cpp:156] Memory required for data: 303465504
I0403 16:18:52.698933 20932 layer_factory.hpp:77] Creating layer conv2/relu_3x3
I0403 16:18:52.698952 20932 net.cpp:91] Creating Layer conv2/relu_3x3
I0403 16:18:52.698969 20932 net.cpp:425] conv2/relu_3x3 <- conv2/3x3
I0403 16:18:52.698987 20932 net.cpp:386] conv2/relu_3x3 -> conv2/3x3 (in-place)
I0403 16:18:52.699148 20932 net.cpp:141] Setting up conv2/relu_3x3
I0403 16:18:52.699174 20932 net.cpp:148] Top shape: 24 192 56 56 (14450688)
I0403 16:18:52.699221 20932 net.cpp:156] Memory required for data: 361268256
I0403 16:18:52.699237 20932 layer_factory.hpp:77] Creating layer conv2/norm2
I0403 16:18:52.699256 20932 net.cpp:91] Creating Layer conv2/norm2
I0403 16:18:52.699271 20932 net.cpp:425] conv2/norm2 <- conv2/3x3
I0403 16:18:52.699290 20932 net.cpp:399] conv2/norm2 -> conv2/norm2
I0403 16:18:52.699573 20932 net.cpp:141] Setting up conv2/norm2
I0403 16:18:52.699600 20932 net.cpp:148] Top shape: 24 192 56 56 (14450688)
I0403 16:18:52.699616 20932 net.cpp:156] Memory required for data: 419071008
I0403 16:18:52.699631 20932 layer_factory.hpp:77] Creating layer pool2/3x3_s2
I0403 16:18:52.699650 20932 net.cpp:91] Creating Layer pool2/3x3_s2
I0403 16:18:52.699664 20932 net.cpp:425] pool2/3x3_s2 <- conv2/norm2
I0403 16:18:52.699682 20932 net.cpp:399] pool2/3x3_s2 -> pool2/3x3_s2
I0403 16:18:52.699730 20932 net.cpp:141] Setting up pool2/3x3_s2
I0403 16:18:52.699753 20932 net.cpp:148] Top shape: 24 192 28 28 (3612672)
I0403 16:18:52.699769 20932 net.cpp:156] Memory required for data: 433521696
I0403 16:18:52.699784 20932 layer_factory.hpp:77] Creating layer pool2/3x3_s2_pool2/3x3_s2_0_split
I0403 16:18:52.699801 20932 net.cpp:91] Creating Layer pool2/3x3_s2_pool2/3x3_s2_0_split
I0403 16:18:52.699816 20932 net.cpp:425] pool2/3x3_s2_pool2/3x3_s2_0_split <- pool2/3x3_s2
I0403 16:18:52.699834 20932 net.cpp:399] pool2/3x3_s2_pool2/3x3_s2_0_split -> pool2/3x3_s2_pool2/3x3_s2_0_split_0
I0403 16:18:52.699852 20932 net.cpp:399] pool2/3x3_s2_pool2/3x3_s2_0_split -> pool2/3x3_s2_pool2/3x3_s2_0_split_1
I0403 16:18:52.699872 20932 net.cpp:399] pool2/3x3_s2_pool2/3x3_s2_0_split -> pool2/3x3_s2_pool2/3x3_s2_0_split_2
I0403 16:18:52.699893 20932 net.cpp:399] pool2/3x3_s2_pool2/3x3_s2_0_split -> pool2/3x3_s2_pool2/3x3_s2_0_split_3
I0403 16:18:52.699956 20932 net.cpp:141] Setting up pool2/3x3_s2_pool2/3x3_s2_0_split
I0403 16:18:52.699978 20932 net.cpp:148] Top shape: 24 192 28 28 (3612672)
I0403 16:18:52.699995 20932 net.cpp:148] Top shape: 24 192 28 28 (3612672)
I0403 16:18:52.700009 20932 net.cpp:148] Top shape: 24 192 28 28 (3612672)
I0403 16:18:52.700024 20932 net.cpp:148] Top shape: 24 192 28 28 (3612672)
I0403 16:18:52.700039 20932 net.cpp:156] Memory required for data: 491324448
I0403 16:18:52.700059 20932 layer_factory.hpp:77] Creating layer inception_3a/1x1
I0403 16:18:52.700081 20932 net.cpp:91] Creating Layer inception_3a/1x1
I0403 16:18:52.700098 20932 net.cpp:425] inception_3a/1x1 <- pool2/3x3_s2_pool2/3x3_s2_0_split_0
I0403 16:18:52.700115 20932 net.cpp:399] inception_3a/1x1 -> inception_3a/1x1
I0403 16:18:52.701589 20932 net.cpp:141] Setting up inception_3a/1x1
I0403 16:18:52.701617 20932 net.cpp:148] Top shape: 24 64 28 28 (1204224)
I0403 16:18:52.701632 20932 net.cpp:156] Memory required for data: 496141344
I0403 16:18:52.701649 20932 layer_factory.hpp:77] Creating layer inception_3a/relu_1x1
I0403 16:18:52.701669 20932 net.cpp:91] Creating Layer inception_3a/relu_1x1
I0403 16:18:52.701684 20932 net.cpp:425] inception_3a/relu_1x1 <- inception_3a/1x1
I0403 16:18:52.701700 20932 net.cpp:386] inception_3a/relu_1x1 -> inception_3a/1x1 (in-place)
I0403 16:18:52.701864 20932 net.cpp:141] Setting up inception_3a/relu_1x1
I0403 16:18:52.701890 20932 net.cpp:148] Top shape: 24 64 28 28 (1204224)
I0403 16:18:52.701905 20932 net.cpp:156] Memory required for data: 500958240
I0403 16:18:52.701918 20932 layer_factory.hpp:77] Creating layer inception_3a/3x3_reduce
I0403 16:18:52.701939 20932 net.cpp:91] Creating Layer inception_3a/3x3_reduce
I0403 16:18:52.701956 20932 net.cpp:425] inception_3a/3x3_reduce <- pool2/3x3_s2_pool2/3x3_s2_0_split_1
I0403 16:18:52.701973 20932 net.cpp:399] inception_3a/3x3_reduce -> inception_3a/3x3_reduce
I0403 16:18:52.703594 20932 net.cpp:141] Setting up inception_3a/3x3_reduce
I0403 16:18:52.703624 20932 net.cpp:148] Top shape: 24 96 28 28 (1806336)
I0403 16:18:52.703639 20932 net.cpp:156] Memory required for data: 508183584
I0403 16:18:52.703661 20932 layer_factory.hpp:77] Creating layer inception_3a/relu_3x3_reduce
I0403 16:18:52.703696 20932 net.cpp:91] Creating Layer inception_3a/relu_3x3_reduce
I0403 16:18:52.703711 20932 net.cpp:425] inception_3a/relu_3x3_reduce <- inception_3a/3x3_reduce
I0403 16:18:52.703729 20932 net.cpp:386] inception_3a/relu_3x3_reduce -> inception_3a/3x3_reduce (in-place)
I0403 16:18:52.703902 20932 net.cpp:141] Setting up inception_3a/relu_3x3_reduce
I0403 16:18:52.703927 20932 net.cpp:148] Top shape: 24 96 28 28 (1806336)
I0403 16:18:52.703940 20932 net.cpp:156] Memory required for data: 515408928
I0403 16:18:52.703954 20932 layer_factory.hpp:77] Creating layer inception_3a/3x3
I0403 16:18:52.703975 20932 net.cpp:91] Creating Layer inception_3a/3x3
I0403 16:18:52.703992 20932 net.cpp:425] inception_3a/3x3 <- inception_3a/3x3_reduce
I0403 16:18:52.704012 20932 net.cpp:399] inception_3a/3x3 -> inception_3a/3x3
I0403 16:18:52.705608 20932 net.cpp:141] Setting up inception_3a/3x3
I0403 16:18:52.705636 20932 net.cpp:148] Top shape: 24 128 28 28 (2408448)
I0403 16:18:52.705652 20932 net.cpp:156] Memory required for data: 525042720
I0403 16:18:52.705670 20932 layer_factory.hpp:77] Creating layer inception_3a/relu_3x3
I0403 16:18:52.705692 20932 net.cpp:91] Creating Layer inception_3a/relu_3x3
I0403 16:18:52.705708 20932 net.cpp:425] inception_3a/relu_3x3 <- inception_3a/3x3
I0403 16:18:52.705724 20932 net.cpp:386] inception_3a/relu_3x3 -> inception_3a/3x3 (in-place)
I0403 16:18:52.705991 20932 net.cpp:141] Setting up inception_3a/relu_3x3
I0403 16:18:52.706017 20932 net.cpp:148] Top shape: 24 128 28 28 (2408448)
I0403 16:18:52.706029 20932 net.cpp:156] Memory required for data: 534676512
I0403 16:18:52.706043 20932 layer_factory.hpp:77] Creating layer inception_3a/5x5_reduce
I0403 16:18:52.706070 20932 net.cpp:91] Creating Layer inception_3a/5x5_reduce
I0403 16:18:52.706087 20932 net.cpp:425] inception_3a/5x5_reduce <- pool2/3x3_s2_pool2/3x3_s2_0_split_2
I0403 16:18:52.706105 20932 net.cpp:399] inception_3a/5x5_reduce -> inception_3a/5x5_reduce
I0403 16:18:52.707026 20932 net.cpp:141] Setting up inception_3a/5x5_reduce
I0403 16:18:52.707058 20932 net.cpp:148] Top shape: 24 16 28 28 (301056)
I0403 16:18:52.707075 20932 net.cpp:156] Memory required for data: 535880736
I0403 16:18:52.707093 20932 layer_factory.hpp:77] Creating layer inception_3a/relu_5x5_reduce
I0403 16:18:52.707109 20932 net.cpp:91] Creating Layer inception_3a/relu_5x5_reduce
I0403 16:18:52.707124 20932 net.cpp:425] inception_3a/relu_5x5_reduce <- inception_3a/5x5_reduce
I0403 16:18:52.707144 20932 net.cpp:386] inception_3a/relu_5x5_reduce -> inception_3a/5x5_reduce (in-place)
I0403 16:18:52.707435 20932 net.cpp:141] Setting up inception_3a/relu_5x5_reduce
I0403 16:18:52.707460 20932 net.cpp:148] Top shape: 24 16 28 28 (301056)
I0403 16:18:52.707474 20932 net.cpp:156] Memory required for data: 537084960
I0403 16:18:52.707487 20932 layer_factory.hpp:77] Creating layer inception_3a/5x5
I0403 16:18:52.707509 20932 net.cpp:91] Creating Layer inception_3a/5x5
I0403 16:18:52.707525 20932 net.cpp:425] inception_3a/5x5 <- inception_3a/5x5_reduce
I0403 16:18:52.707545 20932 net.cpp:399] inception_3a/5x5 -> inception_3a/5x5
I0403 16:18:52.708526 20932 net.cpp:141] Setting up inception_3a/5x5
I0403 16:18:52.708555 20932 net.cpp:148] Top shape: 24 32 28 28 (602112)
I0403 16:18:52.708570 20932 net.cpp:156] Memory required for data: 539493408
I0403 16:18:52.708586 20932 layer_factory.hpp:77] Creating layer inception_3a/relu_5x5
I0403 16:18:52.708606 20932 net.cpp:91] Creating Layer inception_3a/relu_5x5
I0403 16:18:52.708622 20932 net.cpp:425] inception_3a/relu_5x5 <- inception_3a/5x5
I0403 16:18:52.708639 20932 net.cpp:386] inception_3a/relu_5x5 -> inception_3a/5x5 (in-place)
I0403 16:18:52.708801 20932 net.cpp:141] Setting up inception_3a/relu_5x5
I0403 16:18:52.708827 20932 net.cpp:148] Top shape: 24 32 28 28 (602112)
I0403 16:18:52.708840 20932 net.cpp:156] Memory required for data: 541901856
I0403 16:18:52.708854 20932 layer_factory.hpp:77] Creating layer inception_3a/pool
I0403 16:18:52.708870 20932 net.cpp:91] Creating Layer inception_3a/pool
I0403 16:18:52.708900 20932 net.cpp:425] inception_3a/pool <- pool2/3x3_s2_pool2/3x3_s2_0_split_3
I0403 16:18:52.708920 20932 net.cpp:399] inception_3a/pool -> inception_3a/pool
I0403 16:18:52.708976 20932 net.cpp:141] Setting up inception_3a/pool
I0403 16:18:52.708997 20932 net.cpp:148] Top shape: 24 192 28 28 (3612672)
I0403 16:18:52.709010 20932 net.cpp:156] Memory required for data: 556352544
I0403 16:18:52.709023 20932 layer_factory.hpp:77] Creating layer inception_3a/pool_proj
I0403 16:18:52.709046 20932 net.cpp:91] Creating Layer inception_3a/pool_proj
I0403 16:18:52.709069 20932 net.cpp:425] inception_3a/pool_proj <- inception_3a/pool
I0403 16:18:52.709085 20932 net.cpp:399] inception_3a/pool_proj -> inception_3a/pool_proj
I0403 16:18:52.710006 20932 net.cpp:141] Setting up inception_3a/pool_proj
I0403 16:18:52.710036 20932 net.cpp:148] Top shape: 24 32 28 28 (602112)
I0403 16:18:52.710055 20932 net.cpp:156] Memory required for data: 558760992
I0403 16:18:52.710080 20932 layer_factory.hpp:77] Creating layer inception_3a/relu_pool_proj
I0403 16:18:52.710103 20932 net.cpp:91] Creating Layer inception_3a/relu_pool_proj
I0403 16:18:52.710119 20932 net.cpp:425] inception_3a/relu_pool_proj <- inception_3a/pool_proj
I0403 16:18:52.710137 20932 net.cpp:386] inception_3a/relu_pool_proj -> inception_3a/pool_proj (in-place)
I0403 16:18:52.710400 20932 net.cpp:141] Setting up inception_3a/relu_pool_proj
I0403 16:18:52.710427 20932 net.cpp:148] Top shape: 24 32 28 28 (602112)
I0403 16:18:52.710440 20932 net.cpp:156] Memory required for data: 561169440
I0403 16:18:52.710454 20932 layer_factory.hpp:77] Creating layer inception_3a/output
I0403 16:18:52.710474 20932 net.cpp:91] Creating Layer inception_3a/output
I0403 16:18:52.710489 20932 net.cpp:425] inception_3a/output <- inception_3a/1x1
I0403 16:18:52.710505 20932 net.cpp:425] inception_3a/output <- inception_3a/3x3
I0403 16:18:52.710520 20932 net.cpp:425] inception_3a/output <- inception_3a/5x5
I0403 16:18:52.710533 20932 net.cpp:425] inception_3a/output <- inception_3a/pool_proj
I0403 16:18:52.710549 20932 net.cpp:399] inception_3a/output -> inception_3a/output
I0403 16:18:52.710593 20932 net.cpp:141] Setting up inception_3a/output
I0403 16:18:52.710614 20932 net.cpp:148] Top shape: 24 256 28 28 (4816896)
I0403 16:18:52.710628 20932 net.cpp:156] Memory required for data: 580437024
I0403 16:18:52.710641 20932 layer_factory.hpp:77] Creating layer inception_3a/output_inception_3a/output_0_split
I0403 16:18:52.710657 20932 net.cpp:91] Creating Layer inception_3a/output_inception_3a/output_0_split
I0403 16:18:52.710672 20932 net.cpp:425] inception_3a/output_inception_3a/output_0_split <- inception_3a/output
I0403 16:18:52.710690 20932 net.cpp:399] inception_3a/output_inception_3a/output_0_split -> inception_3a/output_inception_3a/output_0_split_0
I0403 16:18:52.710710 20932 net.cpp:399] inception_3a/output_inception_3a/output_0_split -> inception_3a/output_inception_3a/output_0_split_1
I0403 16:18:52.710732 20932 net.cpp:399] inception_3a/output_inception_3a/output_0_split -> inception_3a/output_inception_3a/output_0_split_2
I0403 16:18:52.710753 20932 net.cpp:399] inception_3a/output_inception_3a/output_0_split -> inception_3a/output_inception_3a/output_0_split_3
I0403 16:18:52.710821 20932 net.cpp:141] Setting up inception_3a/output_inception_3a/output_0_split
I0403 16:18:52.710844 20932 net.cpp:148] Top shape: 24 256 28 28 (4816896)
I0403 16:18:52.710861 20932 net.cpp:148] Top shape: 24 256 28 28 (4816896)
I0403 16:18:52.710876 20932 net.cpp:148] Top shape: 24 256 28 28 (4816896)
I0403 16:18:52.710891 20932 net.cpp:148] Top shape: 24 256 28 28 (4816896)
I0403 16:18:52.710902 20932 net.cpp:156] Memory required for data: 657507360
I0403 16:18:52.710916 20932 layer_factory.hpp:77] Creating layer inception_3b/1x1
I0403 16:18:52.710934 20932 net.cpp:91] Creating Layer inception_3b/1x1
I0403 16:18:52.710949 20932 net.cpp:425] inception_3b/1x1 <- inception_3a/output_inception_3a/output_0_split_0
I0403 16:18:52.710971 20932 net.cpp:399] inception_3b/1x1 -> inception_3b/1x1
I0403 16:18:52.712059 20932 net.cpp:141] Setting up inception_3b/1x1
I0403 16:18:52.712096 20932 net.cpp:148] Top shape: 24 128 28 28 (2408448)
I0403 16:18:52.712111 20932 net.cpp:156] Memory required for data: 667141152
I0403 16:18:52.712128 20932 layer_factory.hpp:77] Creating layer inception_3b/relu_1x1
I0403 16:18:52.712148 20932 net.cpp:91] Creating Layer inception_3b/relu_1x1
I0403 16:18:52.712162 20932 net.cpp:425] inception_3b/relu_1x1 <- inception_3b/1x1
I0403 16:18:52.712178 20932 net.cpp:386] inception_3b/relu_1x1 -> inception_3b/1x1 (in-place)
I0403 16:18:52.712347 20932 net.cpp:141] Setting up inception_3b/relu_1x1
I0403 16:18:52.712371 20932 net.cpp:148] Top shape: 24 128 28 28 (2408448)
I0403 16:18:52.712384 20932 net.cpp:156] Memory required for data: 676774944
I0403 16:18:52.712399 20932 layer_factory.hpp:77] Creating layer inception_3b/3x3_reduce
I0403 16:18:52.712422 20932 net.cpp:91] Creating Layer inception_3b/3x3_reduce
I0403 16:18:52.712438 20932 net.cpp:425] inception_3b/3x3_reduce <- inception_3a/output_inception_3a/output_0_split_1
I0403 16:18:52.712456 20932 net.cpp:399] inception_3b/3x3_reduce -> inception_3b/3x3_reduce
I0403 16:18:52.713552 20932 net.cpp:141] Setting up inception_3b/3x3_reduce
I0403 16:18:52.713582 20932 net.cpp:148] Top shape: 24 128 28 28 (2408448)
I0403 16:18:52.713596 20932 net.cpp:156] Memory required for data: 686408736
I0403 16:18:52.713614 20932 layer_factory.hpp:77] Creating layer inception_3b/relu_3x3_reduce
I0403 16:18:52.713634 20932 net.cpp:91] Creating Layer inception_3b/relu_3x3_reduce
I0403 16:18:52.713649 20932 net.cpp:425] inception_3b/relu_3x3_reduce <- inception_3b/3x3_reduce
I0403 16:18:52.713665 20932 net.cpp:386] inception_3b/relu_3x3_reduce -> inception_3b/3x3_reduce (in-place)
I0403 16:18:52.713829 20932 net.cpp:141] Setting up inception_3b/relu_3x3_reduce
I0403 16:18:52.713855 20932 net.cpp:148] Top shape: 24 128 28 28 (2408448)
I0403 16:18:52.713871 20932 net.cpp:156] Memory required for data: 696042528
I0403 16:18:52.713883 20932 layer_factory.hpp:77] Creating layer inception_3b/3x3
I0403 16:18:52.713907 20932 net.cpp:91] Creating Layer inception_3b/3x3
I0403 16:18:52.713923 20932 net.cpp:425] inception_3b/3x3 <- inception_3b/3x3_reduce
I0403 16:18:52.713943 20932 net.cpp:399] inception_3b/3x3 -> inception_3b/3x3
I0403 16:18:52.716737 20932 net.cpp:141] Setting up inception_3b/3x3
I0403 16:18:52.716766 20932 net.cpp:148] Top shape: 24 192 28 28 (3612672)
I0403 16:18:52.716783 20932 net.cpp:156] Memory required for data: 710493216
I0403 16:18:52.716800 20932 layer_factory.hpp:77] Creating layer inception_3b/relu_3x3
I0403 16:18:52.716821 20932 net.cpp:91] Creating Layer inception_3b/relu_3x3
I0403 16:18:52.716836 20932 net.cpp:425] inception_3b/relu_3x3 <- inception_3b/3x3
I0403 16:18:52.716853 20932 net.cpp:386] inception_3b/relu_3x3 -> inception_3b/3x3 (in-place)
I0403 16:18:52.717124 20932 net.cpp:141] Setting up inception_3b/relu_3x3
I0403 16:18:52.717149 20932 net.cpp:148] Top shape: 24 192 28 28 (3612672)
I0403 16:18:52.717164 20932 net.cpp:156] Memory required for data: 724943904
I0403 16:18:52.717177 20932 layer_factory.hpp:77] Creating layer inception_3b/5x5_reduce
I0403 16:18:52.717200 20932 net.cpp:91] Creating Layer inception_3b/5x5_reduce
I0403 16:18:52.717217 20932 net.cpp:425] inception_3b/5x5_reduce <- inception_3a/output_inception_3a/output_0_split_2
I0403 16:18:52.717236 20932 net.cpp:399] inception_3b/5x5_reduce -> inception_3b/5x5_reduce
I0403 16:18:52.718205 20932 net.cpp:141] Setting up inception_3b/5x5_reduce
I0403 16:18:52.718233 20932 net.cpp:148] Top shape: 24 32 28 28 (602112)
I0403 16:18:52.718250 20932 net.cpp:156] Memory required for data: 727352352
I0403 16:18:52.718266 20932 layer_factory.hpp:77] Creating layer inception_3b/relu_5x5_reduce
I0403 16:18:52.718286 20932 net.cpp:91] Creating Layer inception_3b/relu_5x5_reduce
I0403 16:18:52.718303 20932 net.cpp:425] inception_3b/relu_5x5_reduce <- inception_3b/5x5_reduce
I0403 16:18:52.718320 20932 net.cpp:386] inception_3b/relu_5x5_reduce -> inception_3b/5x5_reduce (in-place)
I0403 16:18:52.718507 20932 net.cpp:141] Setting up inception_3b/relu_5x5_reduce
I0403 16:18:52.718530 20932 net.cpp:148] Top shape: 24 32 28 28 (602112)
I0403 16:18:52.718544 20932 net.cpp:156] Memory required for data: 729760800
I0403 16:18:52.718559 20932 layer_factory.hpp:77] Creating layer inception_3b/5x5
I0403 16:18:52.718580 20932 net.cpp:91] Creating Layer inception_3b/5x5
I0403 16:18:52.718596 20932 net.cpp:425] inception_3b/5x5 <- inception_3b/5x5_reduce
I0403 16:18:52.718617 20932 net.cpp:399] inception_3b/5x5 -> inception_3b/5x5
I0403 16:18:52.720520 20932 net.cpp:141] Setting up inception_3b/5x5
I0403 16:18:52.720548 20932 net.cpp:148] Top shape: 24 96 28 28 (1806336)
I0403 16:18:52.720563 20932 net.cpp:156] Memory required for data: 736986144
I0403 16:18:52.720582 20932 layer_factory.hpp:77] Creating layer inception_3b/relu_5x5
I0403 16:18:52.720602 20932 net.cpp:91] Creating Layer inception_3b/relu_5x5
I0403 16:18:52.720618 20932 net.cpp:425] inception_3b/relu_5x5 <- inception_3b/5x5
I0403 16:18:52.720636 20932 net.cpp:386] inception_3b/relu_5x5 -> inception_3b/5x5 (in-place)
I0403 16:18:52.720819 20932 net.cpp:141] Setting up inception_3b/relu_5x5
I0403 16:18:52.720844 20932 net.cpp:148] Top shape: 24 96 28 28 (1806336)
I0403 16:18:52.720859 20932 net.cpp:156] Memory required for data: 744211488
I0403 16:18:52.720873 20932 layer_factory.hpp:77] Creating layer inception_3b/pool
I0403 16:18:52.720890 20932 net.cpp:91] Creating Layer inception_3b/pool
I0403 16:18:52.720906 20932 net.cpp:425] inception_3b/pool <- inception_3a/output_inception_3a/output_0_split_3
I0403 16:18:52.720922 20932 net.cpp:399] inception_3b/pool -> inception_3b/pool
I0403 16:18:52.720975 20932 net.cpp:141] Setting up inception_3b/pool
I0403 16:18:52.720999 20932 net.cpp:148] Top shape: 24 256 28 28 (4816896)
I0403 16:18:52.721014 20932 net.cpp:156] Memory required for data: 763479072
I0403 16:18:52.721027 20932 layer_factory.hpp:77] Creating layer inception_3b/pool_proj
I0403 16:18:52.721053 20932 net.cpp:91] Creating Layer inception_3b/pool_proj
I0403 16:18:52.721071 20932 net.cpp:425] inception_3b/pool_proj <- inception_3b/pool
I0403 16:18:52.721091 20932 net.cpp:399] inception_3b/pool_proj -> inception_3b/pool_proj
I0403 16:18:52.722108 20932 net.cpp:141] Setting up inception_3b/pool_proj
I0403 16:18:52.722136 20932 net.cpp:148] Top shape: 24 64 28 28 (1204224)
I0403 16:18:52.722151 20932 net.cpp:156] Memory required for data: 768295968
I0403 16:18:52.722167 20932 layer_factory.hpp:77] Creating layer inception_3b/relu_pool_proj
I0403 16:18:52.722184 20932 net.cpp:91] Creating Layer inception_3b/relu_pool_proj
I0403 16:18:52.722199 20932 net.cpp:425] inception_3b/relu_pool_proj <- inception_3b/pool_proj
I0403 16:18:52.722218 20932 net.cpp:386] inception_3b/relu_pool_proj -> inception_3b/pool_proj (in-place)
I0403 16:18:52.722599 20932 net.cpp:141] Setting up inception_3b/relu_pool_proj
I0403 16:18:52.722626 20932 net.cpp:148] Top shape: 24 64 28 28 (1204224)
I0403 16:18:52.722641 20932 net.cpp:156] Memory required for data: 773112864
I0403 16:18:52.722656 20932 layer_factory.hpp:77] Creating layer inception_3b/output
I0403 16:18:52.722671 20932 net.cpp:91] Creating Layer inception_3b/output
I0403 16:18:52.722687 20932 net.cpp:425] inception_3b/output <- inception_3b/1x1
I0403 16:18:52.722702 20932 net.cpp:425] inception_3b/output <- inception_3b/3x3
I0403 16:18:52.722717 20932 net.cpp:425] inception_3b/output <- inception_3b/5x5
I0403 16:18:52.722733 20932 net.cpp:425] inception_3b/output <- inception_3b/pool_proj
I0403 16:18:52.722753 20932 net.cpp:399] inception_3b/output -> inception_3b/output
I0403 16:18:52.722795 20932 net.cpp:141] Setting up inception_3b/output
I0403 16:18:52.722815 20932 net.cpp:148] Top shape: 24 480 28 28 (9031680)
I0403 16:18:52.722829 20932 net.cpp:156] Memory required for data: 809239584
I0403 16:18:52.722842 20932 layer_factory.hpp:77] Creating layer pool3/3x3_s2
I0403 16:18:52.722862 20932 net.cpp:91] Creating Layer pool3/3x3_s2
I0403 16:18:52.722877 20932 net.cpp:425] pool3/3x3_s2 <- inception_3b/output
I0403 16:18:52.722908 20932 net.cpp:399] pool3/3x3_s2 -> pool3/3x3_s2
I0403 16:18:52.722965 20932 net.cpp:141] Setting up pool3/3x3_s2
I0403 16:18:52.722988 20932 net.cpp:148] Top shape: 24 480 14 14 (2257920)
I0403 16:18:52.723001 20932 net.cpp:156] Memory required for data: 818271264
I0403 16:18:52.723016 20932 layer_factory.hpp:77] Creating layer pool3/3x3_s2_pool3/3x3_s2_0_split
I0403 16:18:52.723031 20932 net.cpp:91] Creating Layer pool3/3x3_s2_pool3/3x3_s2_0_split
I0403 16:18:52.723045 20932 net.cpp:425] pool3/3x3_s2_pool3/3x3_s2_0_split <- pool3/3x3_s2
I0403 16:18:52.723069 20932 net.cpp:399] pool3/3x3_s2_pool3/3x3_s2_0_split -> pool3/3x3_s2_pool3/3x3_s2_0_split_0
I0403 16:18:52.723089 20932 net.cpp:399] pool3/3x3_s2_pool3/3x3_s2_0_split -> pool3/3x3_s2_pool3/3x3_s2_0_split_1
I0403 16:18:52.723107 20932 net.cpp:399] pool3/3x3_s2_pool3/3x3_s2_0_split -> pool3/3x3_s2_pool3/3x3_s2_0_split_2
I0403 16:18:52.723125 20932 net.cpp:399] pool3/3x3_s2_pool3/3x3_s2_0_split -> pool3/3x3_s2_pool3/3x3_s2_0_split_3
I0403 16:18:52.723198 20932 net.cpp:141] Setting up pool3/3x3_s2_pool3/3x3_s2_0_split
I0403 16:18:52.723219 20932 net.cpp:148] Top shape: 24 480 14 14 (2257920)
I0403 16:18:52.723235 20932 net.cpp:148] Top shape: 24 480 14 14 (2257920)
I0403 16:18:52.723249 20932 net.cpp:148] Top shape: 24 480 14 14 (2257920)
I0403 16:18:52.723263 20932 net.cpp:148] Top shape: 24 480 14 14 (2257920)
I0403 16:18:52.723275 20932 net.cpp:156] Memory required for data: 854397984
I0403 16:18:52.723289 20932 layer_factory.hpp:77] Creating layer inception_4a/1x1
I0403 16:18:52.723309 20932 net.cpp:91] Creating Layer inception_4a/1x1
I0403 16:18:52.723325 20932 net.cpp:425] inception_4a/1x1 <- pool3/3x3_s2_pool3/3x3_s2_0_split_0
I0403 16:18:52.723345 20932 net.cpp:399] inception_4a/1x1 -> inception_4a/1x1
I0403 16:18:52.724849 20932 net.cpp:141] Setting up inception_4a/1x1
I0403 16:18:52.724877 20932 net.cpp:148] Top shape: 24 192 14 14 (903168)
I0403 16:18:52.724892 20932 net.cpp:156] Memory required for data: 858010656
I0403 16:18:52.724910 20932 layer_factory.hpp:77] Creating layer inception_4a/relu_1x1
I0403 16:18:52.724927 20932 net.cpp:91] Creating Layer inception_4a/relu_1x1
I0403 16:18:52.724941 20932 net.cpp:425] inception_4a/relu_1x1 <- inception_4a/1x1
I0403 16:18:52.724959 20932 net.cpp:386] inception_4a/relu_1x1 -> inception_4a/1x1 (in-place)
I0403 16:18:52.725133 20932 net.cpp:141] Setting up inception_4a/relu_1x1
I0403 16:18:52.725157 20932 net.cpp:148] Top shape: 24 192 14 14 (903168)
I0403 16:18:52.725172 20932 net.cpp:156] Memory required for data: 861623328
I0403 16:18:52.725185 20932 layer_factory.hpp:77] Creating layer inception_4a/3x3_reduce
I0403 16:18:52.725206 20932 net.cpp:91] Creating Layer inception_4a/3x3_reduce
I0403 16:18:52.725222 20932 net.cpp:425] inception_4a/3x3_reduce <- pool3/3x3_s2_pool3/3x3_s2_0_split_1
I0403 16:18:52.725241 20932 net.cpp:399] inception_4a/3x3_reduce -> inception_4a/3x3_reduce
I0403 16:18:52.726455 20932 net.cpp:141] Setting up inception_4a/3x3_reduce
I0403 16:18:52.726483 20932 net.cpp:148] Top shape: 24 96 14 14 (451584)
I0403 16:18:52.726498 20932 net.cpp:156] Memory required for data: 863429664
I0403 16:18:52.726522 20932 layer_factory.hpp:77] Creating layer inception_4a/relu_3x3_reduce
I0403 16:18:52.726541 20932 net.cpp:91] Creating Layer inception_4a/relu_3x3_reduce
I0403 16:18:52.726557 20932 net.cpp:425] inception_4a/relu_3x3_reduce <- inception_4a/3x3_reduce
I0403 16:18:52.726574 20932 net.cpp:386] inception_4a/relu_3x3_reduce -> inception_4a/3x3_reduce (in-place)
I0403 16:18:52.726740 20932 net.cpp:141] Setting up inception_4a/relu_3x3_reduce
I0403 16:18:52.726764 20932 net.cpp:148] Top shape: 24 96 14 14 (451584)
I0403 16:18:52.726778 20932 net.cpp:156] Memory required for data: 865236000
I0403 16:18:52.726791 20932 layer_factory.hpp:77] Creating layer inception_4a/3x3
I0403 16:18:52.726812 20932 net.cpp:91] Creating Layer inception_4a/3x3
I0403 16:18:52.726829 20932 net.cpp:425] inception_4a/3x3 <- inception_4a/3x3_reduce
I0403 16:18:52.726850 20932 net.cpp:399] inception_4a/3x3 -> inception_4a/3x3
I0403 16:18:52.729425 20932 net.cpp:141] Setting up inception_4a/3x3
I0403 16:18:52.729454 20932 net.cpp:148] Top shape: 24 208 14 14 (978432)
I0403 16:18:52.729470 20932 net.cpp:156] Memory required for data: 869149728
I0403 16:18:52.729487 20932 layer_factory.hpp:77] Creating layer inception_4a/relu_3x3
I0403 16:18:52.729507 20932 net.cpp:91] Creating Layer inception_4a/relu_3x3
I0403 16:18:52.729523 20932 net.cpp:425] inception_4a/relu_3x3 <- inception_4a/3x3
I0403 16:18:52.729539 20932 net.cpp:386] inception_4a/relu_3x3 -> inception_4a/3x3 (in-place)
I0403 16:18:52.729804 20932 net.cpp:141] Setting up inception_4a/relu_3x3
I0403 16:18:52.729830 20932 net.cpp:148] Top shape: 24 208 14 14 (978432)
I0403 16:18:52.729843 20932 net.cpp:156] Memory required for data: 873063456
I0403 16:18:52.729856 20932 layer_factory.hpp:77] Creating layer inception_4a/5x5_reduce
I0403 16:18:52.729877 20932 net.cpp:91] Creating Layer inception_4a/5x5_reduce
I0403 16:18:52.729893 20932 net.cpp:425] inception_4a/5x5_reduce <- pool3/3x3_s2_pool3/3x3_s2_0_split_2
I0403 16:18:52.729915 20932 net.cpp:399] inception_4a/5x5_reduce -> inception_4a/5x5_reduce
I0403 16:18:52.730893 20932 net.cpp:141] Setting up inception_4a/5x5_reduce
I0403 16:18:52.730921 20932 net.cpp:148] Top shape: 24 16 14 14 (75264)
I0403 16:18:52.730934 20932 net.cpp:156] Memory required for data: 873364512
I0403 16:18:52.730952 20932 layer_factory.hpp:77] Creating layer inception_4a/relu_5x5_reduce
I0403 16:18:52.730973 20932 net.cpp:91] Creating Layer inception_4a/relu_5x5_reduce
I0403 16:18:52.730990 20932 net.cpp:425] inception_4a/relu_5x5_reduce <- inception_4a/5x5_reduce
I0403 16:18:52.731006 20932 net.cpp:386] inception_4a/relu_5x5_reduce -> inception_4a/5x5_reduce (in-place)
I0403 16:18:52.731179 20932 net.cpp:141] Setting up inception_4a/relu_5x5_reduce
I0403 16:18:52.731204 20932 net.cpp:148] Top shape: 24 16 14 14 (75264)
I0403 16:18:52.731218 20932 net.cpp:156] Memory required for data: 873665568
I0403 16:18:52.731231 20932 layer_factory.hpp:77] Creating layer inception_4a/5x5
I0403 16:18:52.731252 20932 net.cpp:91] Creating Layer inception_4a/5x5
I0403 16:18:52.731268 20932 net.cpp:425] inception_4a/5x5 <- inception_4a/5x5_reduce
I0403 16:18:52.731288 20932 net.cpp:399] inception_4a/5x5 -> inception_4a/5x5
I0403 16:18:52.732331 20932 net.cpp:141] Setting up inception_4a/5x5
I0403 16:18:52.732360 20932 net.cpp:148] Top shape: 24 48 14 14 (225792)
I0403 16:18:52.732374 20932 net.cpp:156] Memory required for data: 874568736
I0403 16:18:52.732393 20932 layer_factory.hpp:77] Creating layer inception_4a/relu_5x5
I0403 16:18:52.732409 20932 net.cpp:91] Creating Layer inception_4a/relu_5x5
I0403 16:18:52.732424 20932 net.cpp:425] inception_4a/relu_5x5 <- inception_4a/5x5
I0403 16:18:52.732442 20932 net.cpp:386] inception_4a/relu_5x5 -> inception_4a/5x5 (in-place)
I0403 16:18:52.732610 20932 net.cpp:141] Setting up inception_4a/relu_5x5
I0403 16:18:52.732635 20932 net.cpp:148] Top shape: 24 48 14 14 (225792)
I0403 16:18:52.732647 20932 net.cpp:156] Memory required for data: 875471904
I0403 16:18:52.732661 20932 layer_factory.hpp:77] Creating layer inception_4a/pool
I0403 16:18:52.732677 20932 net.cpp:91] Creating Layer inception_4a/pool
I0403 16:18:52.732692 20932 net.cpp:425] inception_4a/pool <- pool3/3x3_s2_pool3/3x3_s2_0_split_3
I0403 16:18:52.732712 20932 net.cpp:399] inception_4a/pool -> inception_4a/pool
I0403 16:18:52.732769 20932 net.cpp:141] Setting up inception_4a/pool
I0403 16:18:52.732792 20932 net.cpp:148] Top shape: 24 480 14 14 (2257920)
I0403 16:18:52.732806 20932 net.cpp:156] Memory required for data: 884503584
I0403 16:18:52.732820 20932 layer_factory.hpp:77] Creating layer inception_4a/pool_proj
I0403 16:18:52.732841 20932 net.cpp:91] Creating Layer inception_4a/pool_proj
I0403 16:18:52.732858 20932 net.cpp:425] inception_4a/pool_proj <- inception_4a/pool
I0403 16:18:52.732875 20932 net.cpp:399] inception_4a/pool_proj -> inception_4a/pool_proj
I0403 16:18:52.734035 20932 net.cpp:141] Setting up inception_4a/pool_proj
I0403 16:18:52.734067 20932 net.cpp:148] Top shape: 24 64 14 14 (301056)
I0403 16:18:52.734100 20932 net.cpp:156] Memory required for data: 885707808
I0403 16:18:52.734120 20932 layer_factory.hpp:77] Creating layer inception_4a/relu_pool_proj
I0403 16:18:52.734138 20932 net.cpp:91] Creating Layer inception_4a/relu_pool_proj
I0403 16:18:52.734154 20932 net.cpp:425] inception_4a/relu_pool_proj <- inception_4a/pool_proj
I0403 16:18:52.734177 20932 net.cpp:386] inception_4a/relu_pool_proj -> inception_4a/pool_proj (in-place)
I0403 16:18:52.734462 20932 net.cpp:141] Setting up inception_4a/relu_pool_proj
I0403 16:18:52.734488 20932 net.cpp:148] Top shape: 24 64 14 14 (301056)
I0403 16:18:52.734503 20932 net.cpp:156] Memory required for data: 886912032
I0403 16:18:52.734519 20932 layer_factory.hpp:77] Creating layer inception_4a/output
I0403 16:18:52.734536 20932 net.cpp:91] Creating Layer inception_4a/output
I0403 16:18:52.734552 20932 net.cpp:425] inception_4a/output <- inception_4a/1x1
I0403 16:18:52.734568 20932 net.cpp:425] inception_4a/output <- inception_4a/3x3
I0403 16:18:52.734585 20932 net.cpp:425] inception_4a/output <- inception_4a/5x5
I0403 16:18:52.734599 20932 net.cpp:425] inception_4a/output <- inception_4a/pool_proj
I0403 16:18:52.734618 20932 net.cpp:399] inception_4a/output -> inception_4a/output
I0403 16:18:52.734661 20932 net.cpp:141] Setting up inception_4a/output
I0403 16:18:52.734688 20932 net.cpp:148] Top shape: 24 512 14 14 (2408448)
I0403 16:18:52.734704 20932 net.cpp:156] Memory required for data: 896545824
I0403 16:18:52.734719 20932 layer_factory.hpp:77] Creating layer inception_4a/output_inception_4a/output_0_split
I0403 16:18:52.734736 20932 net.cpp:91] Creating Layer inception_4a/output_inception_4a/output_0_split
I0403 16:18:52.734751 20932 net.cpp:425] inception_4a/output_inception_4a/output_0_split <- inception_4a/output
I0403 16:18:52.734771 20932 net.cpp:399] inception_4a/output_inception_4a/output_0_split -> inception_4a/output_inception_4a/output_0_split_0
I0403 16:18:52.734791 20932 net.cpp:399] inception_4a/output_inception_4a/output_0_split -> inception_4a/output_inception_4a/output_0_split_1
I0403 16:18:52.734812 20932 net.cpp:399] inception_4a/output_inception_4a/output_0_split -> inception_4a/output_inception_4a/output_0_split_2
I0403 16:18:52.734834 20932 net.cpp:399] inception_4a/output_inception_4a/output_0_split -> inception_4a/output_inception_4a/output_0_split_3
I0403 16:18:52.734855 20932 net.cpp:399] inception_4a/output_inception_4a/output_0_split -> inception_4a/output_inception_4a/output_0_split_4
I0403 16:18:52.734946 20932 net.cpp:141] Setting up inception_4a/output_inception_4a/output_0_split
I0403 16:18:52.734969 20932 net.cpp:148] Top shape: 24 512 14 14 (2408448)
I0403 16:18:52.734987 20932 net.cpp:148] Top shape: 24 512 14 14 (2408448)
I0403 16:18:52.735002 20932 net.cpp:148] Top shape: 24 512 14 14 (2408448)
I0403 16:18:52.735018 20932 net.cpp:148] Top shape: 24 512 14 14 (2408448)
I0403 16:18:52.735033 20932 net.cpp:148] Top shape: 24 512 14 14 (2408448)
I0403 16:18:52.735051 20932 net.cpp:156] Memory required for data: 944714784
I0403 16:18:52.735067 20932 layer_factory.hpp:77] Creating layer loss1/ave_pool
I0403 16:18:52.735086 20932 net.cpp:91] Creating Layer loss1/ave_pool
I0403 16:18:52.735103 20932 net.cpp:425] loss1/ave_pool <- inception_4a/output_inception_4a/output_0_split_0
I0403 16:18:52.735121 20932 net.cpp:399] loss1/ave_pool -> loss1/ave_pool
I0403 16:18:52.735326 20932 net.cpp:141] Setting up loss1/ave_pool
I0403 16:18:52.735352 20932 net.cpp:148] Top shape: 24 512 4 4 (196608)
I0403 16:18:52.735368 20932 net.cpp:156] Memory required for data: 945501216
I0403 16:18:52.735383 20932 layer_factory.hpp:77] Creating layer loss1/conv
I0403 16:18:52.735405 20932 net.cpp:91] Creating Layer loss1/conv
I0403 16:18:52.735424 20932 net.cpp:425] loss1/conv <- loss1/ave_pool
I0403 16:18:52.735445 20932 net.cpp:399] loss1/conv -> loss1/conv
I0403 16:18:52.736840 20932 net.cpp:141] Setting up loss1/conv
I0403 16:18:52.736867 20932 net.cpp:148] Top shape: 24 128 4 4 (49152)
I0403 16:18:52.736896 20932 net.cpp:156] Memory required for data: 945697824
I0403 16:18:52.736917 20932 layer_factory.hpp:77] Creating layer loss1/relu_conv
I0403 16:18:52.736937 20932 net.cpp:91] Creating Layer loss1/relu_conv
I0403 16:18:52.736951 20932 net.cpp:425] loss1/relu_conv <- loss1/conv
I0403 16:18:52.736968 20932 net.cpp:386] loss1/relu_conv -> loss1/conv (in-place)
I0403 16:18:52.737252 20932 net.cpp:141] Setting up loss1/relu_conv
I0403 16:18:52.737278 20932 net.cpp:148] Top shape: 24 128 4 4 (49152)
I0403 16:18:52.737293 20932 net.cpp:156] Memory required for data: 945894432
I0403 16:18:52.737306 20932 layer_factory.hpp:77] Creating layer loss1/fc
I0403 16:18:52.737331 20932 net.cpp:91] Creating Layer loss1/fc
I0403 16:18:52.737349 20932 net.cpp:425] loss1/fc <- loss1/conv
I0403 16:18:52.737368 20932 net.cpp:399] loss1/fc -> loss1/fc
I0403 16:18:52.755024 20932 net.cpp:141] Setting up loss1/fc
I0403 16:18:52.755081 20932 net.cpp:148] Top shape: 24 1024 (24576)
I0403 16:18:52.755100 20932 net.cpp:156] Memory required for data: 945992736
I0403 16:18:52.755118 20932 layer_factory.hpp:77] Creating layer loss1/relu_fc
I0403 16:18:52.755138 20932 net.cpp:91] Creating Layer loss1/relu_fc
I0403 16:18:52.755156 20932 net.cpp:425] loss1/relu_fc <- loss1/fc
I0403 16:18:52.755174 20932 net.cpp:386] loss1/relu_fc -> loss1/fc (in-place)
I0403 16:18:52.755381 20932 net.cpp:141] Setting up loss1/relu_fc
I0403 16:18:52.755405 20932 net.cpp:148] Top shape: 24 1024 (24576)
I0403 16:18:52.755420 20932 net.cpp:156] Memory required for data: 946091040
I0403 16:18:52.755434 20932 layer_factory.hpp:77] Creating layer loss1/drop_fc
I0403 16:18:52.755463 20932 net.cpp:91] Creating Layer loss1/drop_fc
I0403 16:18:52.755481 20932 net.cpp:425] loss1/drop_fc <- loss1/fc
I0403 16:18:52.755497 20932 net.cpp:386] loss1/drop_fc -> loss1/fc (in-place)
I0403 16:18:52.755548 20932 net.cpp:141] Setting up loss1/drop_fc
I0403 16:18:52.755573 20932 net.cpp:148] Top shape: 24 1024 (24576)
I0403 16:18:52.755587 20932 net.cpp:156] Memory required for data: 946189344
I0403 16:18:52.755601 20932 layer_factory.hpp:77] Creating layer loss1/classifier_plantvillage
I0403 16:18:52.755620 20932 net.cpp:91] Creating Layer loss1/classifier_plantvillage
I0403 16:18:52.755635 20932 net.cpp:425] loss1/classifier_plantvillage <- loss1/fc
I0403 16:18:52.755656 20932 net.cpp:399] loss1/classifier_plantvillage -> loss1/classifier_plantvillage
I0403 16:18:52.756572 20932 net.cpp:141] Setting up loss1/classifier_plantvillage
I0403 16:18:52.756598 20932 net.cpp:148] Top shape: 24 38 (912)
I0403 16:18:52.756613 20932 net.cpp:156] Memory required for data: 946192992
I0403 16:18:52.756630 20932 layer_factory.hpp:77] Creating layer loss1/classifier_plantvillage_loss1/classifier_plantvillage_0_split
I0403 16:18:52.756649 20932 net.cpp:91] Creating Layer loss1/classifier_plantvillage_loss1/classifier_plantvillage_0_split
I0403 16:18:52.756664 20932 net.cpp:425] loss1/classifier_plantvillage_loss1/classifier_plantvillage_0_split <- loss1/classifier_plantvillage
I0403 16:18:52.756682 20932 net.cpp:399] loss1/classifier_plantvillage_loss1/classifier_plantvillage_0_split -> loss1/classifier_plantvillage_loss1/classifier_plantvillage_0_split_0
I0403 16:18:52.756703 20932 net.cpp:399] loss1/classifier_plantvillage_loss1/classifier_plantvillage_0_split -> loss1/classifier_plantvillage_loss1/classifier_plantvillage_0_split_1
I0403 16:18:52.756723 20932 net.cpp:399] loss1/classifier_plantvillage_loss1/classifier_plantvillage_0_split -> loss1/classifier_plantvillage_loss1/classifier_plantvillage_0_split_2
I0403 16:18:52.756790 20932 net.cpp:141] Setting up loss1/classifier_plantvillage_loss1/classifier_plantvillage_0_split
I0403 16:18:52.756813 20932 net.cpp:148] Top shape: 24 38 (912)
I0403 16:18:52.756829 20932 net.cpp:148] Top shape: 24 38 (912)
I0403 16:18:52.756844 20932 net.cpp:148] Top shape: 24 38 (912)
I0403 16:18:52.756856 20932 net.cpp:156] Memory required for data: 946203936
I0403 16:18:52.756870 20932 layer_factory.hpp:77] Creating layer inception_4b/1x1
I0403 16:18:52.756894 20932 net.cpp:91] Creating Layer inception_4b/1x1
I0403 16:18:52.756935 20932 net.cpp:425] inception_4b/1x1 <- inception_4a/output_inception_4a/output_0_split_1
I0403 16:18:52.756955 20932 net.cpp:399] inception_4b/1x1 -> inception_4b/1x1
I0403 16:18:52.758674 20932 net.cpp:141] Setting up inception_4b/1x1
I0403 16:18:52.758704 20932 net.cpp:148] Top shape: 24 160 14 14 (752640)
I0403 16:18:52.758719 20932 net.cpp:156] Memory required for data: 949214496
I0403 16:18:52.758738 20932 layer_factory.hpp:77] Creating layer inception_4b/relu_1x1
I0403 16:18:52.758759 20932 net.cpp:91] Creating Layer inception_4b/relu_1x1
I0403 16:18:52.758774 20932 net.cpp:425] inception_4b/relu_1x1 <- inception_4b/1x1
I0403 16:18:52.758791 20932 net.cpp:386] inception_4b/relu_1x1 -> inception_4b/1x1 (in-place)
I0403 16:18:52.758968 20932 net.cpp:141] Setting up inception_4b/relu_1x1
I0403 16:18:52.758996 20932 net.cpp:148] Top shape: 24 160 14 14 (752640)
I0403 16:18:52.759011 20932 net.cpp:156] Memory required for data: 952225056
I0403 16:18:52.759024 20932 layer_factory.hpp:77] Creating layer inception_4b/3x3_reduce
I0403 16:18:52.759047 20932 net.cpp:91] Creating Layer inception_4b/3x3_reduce
I0403 16:18:52.759068 20932 net.cpp:425] inception_4b/3x3_reduce <- inception_4a/output_inception_4a/output_0_split_2
I0403 16:18:52.759086 20932 net.cpp:399] inception_4b/3x3_reduce -> inception_4b/3x3_reduce
I0403 16:18:52.760434 20932 net.cpp:141] Setting up inception_4b/3x3_reduce
I0403 16:18:52.760468 20932 net.cpp:148] Top shape: 24 112 14 14 (526848)
I0403 16:18:52.760485 20932 net.cpp:156] Memory required for data: 954332448
I0403 16:18:52.760504 20932 layer_factory.hpp:77] Creating layer inception_4b/relu_3x3_reduce
I0403 16:18:52.760521 20932 net.cpp:91] Creating Layer inception_4b/relu_3x3_reduce
I0403 16:18:52.760536 20932 net.cpp:425] inception_4b/relu_3x3_reduce <- inception_4b/3x3_reduce
I0403 16:18:52.760553 20932 net.cpp:386] inception_4b/relu_3x3_reduce -> inception_4b/3x3_reduce (in-place)
I0403 16:18:52.760838 20932 net.cpp:141] Setting up inception_4b/relu_3x3_reduce
I0403 16:18:52.760867 20932 net.cpp:148] Top shape: 24 112 14 14 (526848)
I0403 16:18:52.760884 20932 net.cpp:156] Memory required for data: 956439840
I0403 16:18:52.760900 20932 layer_factory.hpp:77] Creating layer inception_4b/3x3
I0403 16:18:52.760921 20932 net.cpp:91] Creating Layer inception_4b/3x3
I0403 16:18:52.760937 20932 net.cpp:425] inception_4b/3x3 <- inception_4b/3x3_reduce
I0403 16:18:52.760956 20932 net.cpp:399] inception_4b/3x3 -> inception_4b/3x3
I0403 16:18:52.763945 20932 net.cpp:141] Setting up inception_4b/3x3
I0403 16:18:52.763978 20932 net.cpp:148] Top shape: 24 224 14 14 (1053696)
I0403 16:18:52.763993 20932 net.cpp:156] Memory required for data: 960654624
I0403 16:18:52.764010 20932 layer_factory.hpp:77] Creating layer inception_4b/relu_3x3
I0403 16:18:52.764029 20932 net.cpp:91] Creating Layer inception_4b/relu_3x3
I0403 16:18:52.764044 20932 net.cpp:425] inception_4b/relu_3x3 <- inception_4b/3x3
I0403 16:18:52.764067 20932 net.cpp:386] inception_4b/relu_3x3 -> inception_4b/3x3 (in-place)
I0403 16:18:52.764247 20932 net.cpp:141] Setting up inception_4b/relu_3x3
I0403 16:18:52.764272 20932 net.cpp:148] Top shape: 24 224 14 14 (1053696)
I0403 16:18:52.764287 20932 net.cpp:156] Memory required for data: 964869408
I0403 16:18:52.764302 20932 layer_factory.hpp:77] Creating layer inception_4b/5x5_reduce
I0403 16:18:52.764322 20932 net.cpp:91] Creating Layer inception_4b/5x5_reduce
I0403 16:18:52.764339 20932 net.cpp:425] inception_4b/5x5_reduce <- inception_4a/output_inception_4a/output_0_split_3
I0403 16:18:52.764360 20932 net.cpp:399] inception_4b/5x5_reduce -> inception_4b/5x5_reduce
I0403 16:18:52.765455 20932 net.cpp:141] Setting up inception_4b/5x5_reduce
I0403 16:18:52.765486 20932 net.cpp:148] Top shape: 24 24 14 14 (112896)
I0403 16:18:52.765502 20932 net.cpp:156] Memory required for data: 965320992
I0403 16:18:52.765521 20932 layer_factory.hpp:77] Creating layer inception_4b/relu_5x5_reduce
I0403 16:18:52.765538 20932 net.cpp:91] Creating Layer inception_4b/relu_5x5_reduce
I0403 16:18:52.765570 20932 net.cpp:425] inception_4b/relu_5x5_reduce <- inception_4b/5x5_reduce
I0403 16:18:52.765588 20932 net.cpp:386] inception_4b/relu_5x5_reduce -> inception_4b/5x5_reduce (in-place)
I0403 16:18:52.765769 20932 net.cpp:141] Setting up inception_4b/relu_5x5_reduce
I0403 16:18:52.765795 20932 net.cpp:148] Top shape: 24 24 14 14 (112896)
I0403 16:18:52.765810 20932 net.cpp:156] Memory required for data: 965772576
I0403 16:18:52.765825 20932 layer_factory.hpp:77] Creating layer inception_4b/5x5
I0403 16:18:52.765846 20932 net.cpp:91] Creating Layer inception_4b/5x5
I0403 16:18:52.765863 20932 net.cpp:425] inception_4b/5x5 <- inception_4b/5x5_reduce
I0403 16:18:52.765883 20932 net.cpp:399] inception_4b/5x5 -> inception_4b/5x5
I0403 16:18:52.767122 20932 net.cpp:141] Setting up inception_4b/5x5
I0403 16:18:52.767150 20932 net.cpp:148] Top shape: 24 64 14 14 (301056)
I0403 16:18:52.767166 20932 net.cpp:156] Memory required for data: 966976800
I0403 16:18:52.767184 20932 layer_factory.hpp:77] Creating layer inception_4b/relu_5x5
I0403 16:18:52.767204 20932 net.cpp:91] Creating Layer inception_4b/relu_5x5
I0403 16:18:52.767222 20932 net.cpp:425] inception_4b/relu_5x5 <- inception_4b/5x5
I0403 16:18:52.767240 20932 net.cpp:386] inception_4b/relu_5x5 -> inception_4b/5x5 (in-place)
I0403 16:18:52.767520 20932 net.cpp:141] Setting up inception_4b/relu_5x5
I0403 16:18:52.767547 20932 net.cpp:148] Top shape: 24 64 14 14 (301056)
I0403 16:18:52.767563 20932 net.cpp:156] Memory required for data: 968181024
I0403 16:18:52.767580 20932 layer_factory.hpp:77] Creating layer inception_4b/pool
I0403 16:18:52.767604 20932 net.cpp:91] Creating Layer inception_4b/pool
I0403 16:18:52.767622 20932 net.cpp:425] inception_4b/pool <- inception_4a/output_inception_4a/output_0_split_4
I0403 16:18:52.767640 20932 net.cpp:399] inception_4b/pool -> inception_4b/pool
I0403 16:18:52.767705 20932 net.cpp:141] Setting up inception_4b/pool
I0403 16:18:52.767730 20932 net.cpp:148] Top shape: 24 512 14 14 (2408448)
I0403 16:18:52.767745 20932 net.cpp:156] Memory required for data: 977814816
I0403 16:18:52.767760 20932 layer_factory.hpp:77] Creating layer inception_4b/pool_proj
I0403 16:18:52.767781 20932 net.cpp:91] Creating Layer inception_4b/pool_proj
I0403 16:18:52.767798 20932 net.cpp:425] inception_4b/pool_proj <- inception_4b/pool
I0403 16:18:52.767818 20932 net.cpp:399] inception_4b/pool_proj -> inception_4b/pool_proj
I0403 16:18:52.769023 20932 net.cpp:141] Setting up inception_4b/pool_proj
I0403 16:18:52.769054 20932 net.cpp:148] Top shape: 24 64 14 14 (301056)
I0403 16:18:52.769071 20932 net.cpp:156] Memory required for data: 979019040
I0403 16:18:52.769089 20932 layer_factory.hpp:77] Creating layer inception_4b/relu_pool_proj
I0403 16:18:52.769109 20932 net.cpp:91] Creating Layer inception_4b/relu_pool_proj
I0403 16:18:52.769125 20932 net.cpp:425] inception_4b/relu_pool_proj <- inception_4b/pool_proj
I0403 16:18:52.769141 20932 net.cpp:386] inception_4b/relu_pool_proj -> inception_4b/pool_proj (in-place)
I0403 16:18:52.769325 20932 net.cpp:141] Setting up inception_4b/relu_pool_proj
I0403 16:18:52.769348 20932 net.cpp:148] Top shape: 24 64 14 14 (301056)
I0403 16:18:52.769362 20932 net.cpp:156] Memory required for data: 980223264
I0403 16:18:52.769376 20932 layer_factory.hpp:77] Creating layer inception_4b/output
I0403 16:18:52.769393 20932 net.cpp:91] Creating Layer inception_4b/output
I0403 16:18:52.769408 20932 net.cpp:425] inception_4b/output <- inception_4b/1x1
I0403 16:18:52.769424 20932 net.cpp:425] inception_4b/output <- inception_4b/3x3
I0403 16:18:52.769439 20932 net.cpp:425] inception_4b/output <- inception_4b/5x5
I0403 16:18:52.769454 20932 net.cpp:425] inception_4b/output <- inception_4b/pool_proj
I0403 16:18:52.769472 20932 net.cpp:399] inception_4b/output -> inception_4b/output
I0403 16:18:52.769517 20932 net.cpp:141] Setting up inception_4b/output
I0403 16:18:52.769542 20932 net.cpp:148] Top shape: 24 512 14 14 (2408448)
I0403 16:18:52.769557 20932 net.cpp:156] Memory required for data: 989857056
I0403 16:18:52.769585 20932 layer_factory.hpp:77] Creating layer inception_4b/output_inception_4b/output_0_split
I0403 16:18:52.769603 20932 net.cpp:91] Creating Layer inception_4b/output_inception_4b/output_0_split
I0403 16:18:52.769618 20932 net.cpp:425] inception_4b/output_inception_4b/output_0_split <- inception_4b/output
I0403 16:18:52.769635 20932 net.cpp:399] inception_4b/output_inception_4b/output_0_split -> inception_4b/output_inception_4b/output_0_split_0
I0403 16:18:52.769654 20932 net.cpp:399] inception_4b/output_inception_4b/output_0_split -> inception_4b/output_inception_4b/output_0_split_1
I0403 16:18:52.769676 20932 net.cpp:399] inception_4b/output_inception_4b/output_0_split -> inception_4b/output_inception_4b/output_0_split_2
I0403 16:18:52.769698 20932 net.cpp:399] inception_4b/output_inception_4b/output_0_split -> inception_4b/output_inception_4b/output_0_split_3
I0403 16:18:52.769781 20932 net.cpp:141] Setting up inception_4b/output_inception_4b/output_0_split
I0403 16:18:52.769805 20932 net.cpp:148] Top shape: 24 512 14 14 (2408448)
I0403 16:18:52.769822 20932 net.cpp:148] Top shape: 24 512 14 14 (2408448)
I0403 16:18:52.769837 20932 net.cpp:148] Top shape: 24 512 14 14 (2408448)
I0403 16:18:52.769851 20932 net.cpp:148] Top shape: 24 512 14 14 (2408448)
I0403 16:18:52.769865 20932 net.cpp:156] Memory required for data: 1028392224
I0403 16:18:52.769878 20932 layer_factory.hpp:77] Creating layer inception_4c/1x1
I0403 16:18:52.769902 20932 net.cpp:91] Creating Layer inception_4c/1x1
I0403 16:18:52.769922 20932 net.cpp:425] inception_4c/1x1 <- inception_4b/output_inception_4b/output_0_split_0
I0403 16:18:52.769942 20932 net.cpp:399] inception_4c/1x1 -> inception_4c/1x1
I0403 16:18:52.771394 20932 net.cpp:141] Setting up inception_4c/1x1
I0403 16:18:52.771422 20932 net.cpp:148] Top shape: 24 128 14 14 (602112)
I0403 16:18:52.771437 20932 net.cpp:156] Memory required for data: 1030800672
I0403 16:18:52.771456 20932 layer_factory.hpp:77] Creating layer inception_4c/relu_1x1
I0403 16:18:52.771472 20932 net.cpp:91] Creating Layer inception_4c/relu_1x1
I0403 16:18:52.771488 20932 net.cpp:425] inception_4c/relu_1x1 <- inception_4c/1x1
I0403 16:18:52.771507 20932 net.cpp:386] inception_4c/relu_1x1 -> inception_4c/1x1 (in-place)
I0403 16:18:52.771687 20932 net.cpp:141] Setting up inception_4c/relu_1x1
I0403 16:18:52.771711 20932 net.cpp:148] Top shape: 24 128 14 14 (602112)
I0403 16:18:52.771725 20932 net.cpp:156] Memory required for data: 1033209120
I0403 16:18:52.771740 20932 layer_factory.hpp:77] Creating layer inception_4c/3x3_reduce
I0403 16:18:52.771761 20932 net.cpp:91] Creating Layer inception_4c/3x3_reduce
I0403 16:18:52.771778 20932 net.cpp:425] inception_4c/3x3_reduce <- inception_4b/output_inception_4b/output_0_split_1
I0403 16:18:52.771800 20932 net.cpp:399] inception_4c/3x3_reduce -> inception_4c/3x3_reduce
I0403 16:18:52.773736 20932 net.cpp:141] Setting up inception_4c/3x3_reduce
I0403 16:18:52.773764 20932 net.cpp:148] Top shape: 24 128 14 14 (602112)
I0403 16:18:52.773778 20932 net.cpp:156] Memory required for data: 1035617568
I0403 16:18:52.773797 20932 layer_factory.hpp:77] Creating layer inception_4c/relu_3x3_reduce
I0403 16:18:52.773815 20932 net.cpp:91] Creating Layer inception_4c/relu_3x3_reduce
I0403 16:18:52.773831 20932 net.cpp:425] inception_4c/relu_3x3_reduce <- inception_4c/3x3_reduce
I0403 16:18:52.773847 20932 net.cpp:386] inception_4c/relu_3x3_reduce -> inception_4c/3x3_reduce (in-place)
I0403 16:18:52.774135 20932 net.cpp:141] Setting up inception_4c/relu_3x3_reduce
I0403 16:18:52.774163 20932 net.cpp:148] Top shape: 24 128 14 14 (602112)
I0403 16:18:52.774178 20932 net.cpp:156] Memory required for data: 1038026016
I0403 16:18:52.774191 20932 layer_factory.hpp:77] Creating layer inception_4c/3x3
I0403 16:18:52.774214 20932 net.cpp:91] Creating Layer inception_4c/3x3
I0403 16:18:52.774230 20932 net.cpp:425] inception_4c/3x3 <- inception_4c/3x3_reduce
I0403 16:18:52.774250 20932 net.cpp:399] inception_4c/3x3 -> inception_4c/3x3
I0403 16:18:52.777842 20932 net.cpp:141] Setting up inception_4c/3x3
I0403 16:18:52.777884 20932 net.cpp:148] Top shape: 24 256 14 14 (1204224)
I0403 16:18:52.777901 20932 net.cpp:156] Memory required for data: 1042842912
I0403 16:18:52.777935 20932 layer_factory.hpp:77] Creating layer inception_4c/relu_3x3
I0403 16:18:52.777971 20932 net.cpp:91] Creating Layer inception_4c/relu_3x3
I0403 16:18:52.777987 20932 net.cpp:425] inception_4c/relu_3x3 <- inception_4c/3x3
I0403 16:18:52.778003 20932 net.cpp:386] inception_4c/relu_3x3 -> inception_4c/3x3 (in-place)
I0403 16:18:52.778190 20932 net.cpp:141] Setting up inception_4c/relu_3x3
I0403 16:18:52.778218 20932 net.cpp:148] Top shape: 24 256 14 14 (1204224)
I0403 16:18:52.778233 20932 net.cpp:156] Memory required for data: 1047659808
I0403 16:18:52.778247 20932 layer_factory.hpp:77] Creating layer inception_4c/5x5_reduce
I0403 16:18:52.778269 20932 net.cpp:91] Creating Layer inception_4c/5x5_reduce
I0403 16:18:52.778285 20932 net.cpp:425] inception_4c/5x5_reduce <- inception_4b/output_inception_4b/output_0_split_2
I0403 16:18:52.778303 20932 net.cpp:399] inception_4c/5x5_reduce -> inception_4c/5x5_reduce
I0403 16:18:52.779387 20932 net.cpp:141] Setting up inception_4c/5x5_reduce
I0403 16:18:52.779417 20932 net.cpp:148] Top shape: 24 24 14 14 (112896)
I0403 16:18:52.779431 20932 net.cpp:156] Memory required for data: 1048111392
I0403 16:18:52.779449 20932 layer_factory.hpp:77] Creating layer inception_4c/relu_5x5_reduce
I0403 16:18:52.779466 20932 net.cpp:91] Creating Layer inception_4c/relu_5x5_reduce
I0403 16:18:52.779481 20932 net.cpp:425] inception_4c/relu_5x5_reduce <- inception_4c/5x5_reduce
I0403 16:18:52.779496 20932 net.cpp:386] inception_4c/relu_5x5_reduce -> inception_4c/5x5_reduce (in-place)
I0403 16:18:52.779676 20932 net.cpp:141] Setting up inception_4c/relu_5x5_reduce
I0403 16:18:52.779701 20932 net.cpp:148] Top shape: 24 24 14 14 (112896)
I0403 16:18:52.779716 20932 net.cpp:156] Memory required for data: 1048562976
I0403 16:18:52.779729 20932 layer_factory.hpp:77] Creating layer inception_4c/5x5
I0403 16:18:52.779750 20932 net.cpp:91] Creating Layer inception_4c/5x5
I0403 16:18:52.779767 20932 net.cpp:425] inception_4c/5x5 <- inception_4c/5x5_reduce
I0403 16:18:52.779783 20932 net.cpp:399] inception_4c/5x5 -> inception_4c/5x5
I0403 16:18:52.780997 20932 net.cpp:141] Setting up inception_4c/5x5
I0403 16:18:52.781024 20932 net.cpp:148] Top shape: 24 64 14 14 (301056)
I0403 16:18:52.781039 20932 net.cpp:156] Memory required for data: 1049767200
I0403 16:18:52.781060 20932 layer_factory.hpp:77] Creating layer inception_4c/relu_5x5
I0403 16:18:52.781078 20932 net.cpp:91] Creating Layer inception_4c/relu_5x5
I0403 16:18:52.781093 20932 net.cpp:425] inception_4c/relu_5x5 <- inception_4c/5x5
I0403 16:18:52.781112 20932 net.cpp:386] inception_4c/relu_5x5 -> inception_4c/5x5 (in-place)
I0403 16:18:52.781396 20932 net.cpp:141] Setting up inception_4c/relu_5x5
I0403 16:18:52.781421 20932 net.cpp:148] Top shape: 24 64 14 14 (301056)
I0403 16:18:52.781435 20932 net.cpp:156] Memory required for data: 1050971424
I0403 16:18:52.781448 20932 layer_factory.hpp:77] Creating layer inception_4c/pool
I0403 16:18:52.781466 20932 net.cpp:91] Creating Layer inception_4c/pool
I0403 16:18:52.781479 20932 net.cpp:425] inception_4c/pool <- inception_4b/output_inception_4b/output_0_split_3
I0403 16:18:52.781498 20932 net.cpp:399] inception_4c/pool -> inception_4c/pool
I0403 16:18:52.781560 20932 net.cpp:141] Setting up inception_4c/pool
I0403 16:18:52.781584 20932 net.cpp:148] Top shape: 24 512 14 14 (2408448)
I0403 16:18:52.781597 20932 net.cpp:156] Memory required for data: 1060605216
I0403 16:18:52.781610 20932 layer_factory.hpp:77] Creating layer inception_4c/pool_proj
I0403 16:18:52.781632 20932 net.cpp:91] Creating Layer inception_4c/pool_proj
I0403 16:18:52.781648 20932 net.cpp:425] inception_4c/pool_proj <- inception_4c/pool
I0403 16:18:52.781666 20932 net.cpp:399] inception_4c/pool_proj -> inception_4c/pool_proj
I0403 16:18:52.782846 20932 net.cpp:141] Setting up inception_4c/pool_proj
I0403 16:18:52.782873 20932 net.cpp:148] Top shape: 24 64 14 14 (301056)
I0403 16:18:52.782902 20932 net.cpp:156] Memory required for data: 1061809440
I0403 16:18:52.782919 20932 layer_factory.hpp:77] Creating layer inception_4c/relu_pool_proj
I0403 16:18:52.782938 20932 net.cpp:91] Creating Layer inception_4c/relu_pool_proj
I0403 16:18:52.782953 20932 net.cpp:425] inception_4c/relu_pool_proj <- inception_4c/pool_proj
I0403 16:18:52.782970 20932 net.cpp:386] inception_4c/relu_pool_proj -> inception_4c/pool_proj (in-place)
I0403 16:18:52.783151 20932 net.cpp:141] Setting up inception_4c/relu_pool_proj
I0403 16:18:52.783176 20932 net.cpp:148] Top shape: 24 64 14 14 (301056)
I0403 16:18:52.783190 20932 net.cpp:156] Memory required for data: 1063013664
I0403 16:18:52.783205 20932 layer_factory.hpp:77] Creating layer inception_4c/output
I0403 16:18:52.783221 20932 net.cpp:91] Creating Layer inception_4c/output
I0403 16:18:52.783236 20932 net.cpp:425] inception_4c/output <- inception_4c/1x1
I0403 16:18:52.783251 20932 net.cpp:425] inception_4c/output <- inception_4c/3x3
I0403 16:18:52.783264 20932 net.cpp:425] inception_4c/output <- inception_4c/5x5
I0403 16:18:52.783279 20932 net.cpp:425] inception_4c/output <- inception_4c/pool_proj
I0403 16:18:52.783298 20932 net.cpp:399] inception_4c/output -> inception_4c/output
I0403 16:18:52.783341 20932 net.cpp:141] Setting up inception_4c/output
I0403 16:18:52.783363 20932 net.cpp:148] Top shape: 24 512 14 14 (2408448)
I0403 16:18:52.783380 20932 net.cpp:156] Memory required for data: 1072647456
I0403 16:18:52.783393 20932 layer_factory.hpp:77] Creating layer inception_4c/output_inception_4c/output_0_split
I0403 16:18:52.783409 20932 net.cpp:91] Creating Layer inception_4c/output_inception_4c/output_0_split
I0403 16:18:52.783423 20932 net.cpp:425] inception_4c/output_inception_4c/output_0_split <- inception_4c/output
I0403 16:18:52.783439 20932 net.cpp:399] inception_4c/output_inception_4c/output_0_split -> inception_4c/output_inception_4c/output_0_split_0
I0403 16:18:52.783457 20932 net.cpp:399] inception_4c/output_inception_4c/output_0_split -> inception_4c/output_inception_4c/output_0_split_1
I0403 16:18:52.783476 20932 net.cpp:399] inception_4c/output_inception_4c/output_0_split -> inception_4c/output_inception_4c/output_0_split_2
I0403 16:18:52.783499 20932 net.cpp:399] inception_4c/output_inception_4c/output_0_split -> inception_4c/output_inception_4c/output_0_split_3
I0403 16:18:52.783582 20932 net.cpp:141] Setting up inception_4c/output_inception_4c/output_0_split
I0403 16:18:52.783604 20932 net.cpp:148] Top shape: 24 512 14 14 (2408448)
I0403 16:18:52.783620 20932 net.cpp:148] Top shape: 24 512 14 14 (2408448)
I0403 16:18:52.783635 20932 net.cpp:148] Top shape: 24 512 14 14 (2408448)
I0403 16:18:52.783649 20932 net.cpp:148] Top shape: 24 512 14 14 (2408448)
I0403 16:18:52.783661 20932 net.cpp:156] Memory required for data: 1111182624
I0403 16:18:52.783674 20932 layer_factory.hpp:77] Creating layer inception_4d/1x1
I0403 16:18:52.783694 20932 net.cpp:91] Creating Layer inception_4d/1x1
I0403 16:18:52.783711 20932 net.cpp:425] inception_4d/1x1 <- inception_4c/output_inception_4c/output_0_split_0
I0403 16:18:52.783731 20932 net.cpp:399] inception_4d/1x1 -> inception_4d/1x1
I0403 16:18:52.785071 20932 net.cpp:141] Setting up inception_4d/1x1
I0403 16:18:52.785099 20932 net.cpp:148] Top shape: 24 112 14 14 (526848)
I0403 16:18:52.785115 20932 net.cpp:156] Memory required for data: 1113290016
I0403 16:18:52.785132 20932 layer_factory.hpp:77] Creating layer inception_4d/relu_1x1
I0403 16:18:52.785152 20932 net.cpp:91] Creating Layer inception_4d/relu_1x1
I0403 16:18:52.785168 20932 net.cpp:425] inception_4d/relu_1x1 <- inception_4d/1x1
I0403 16:18:52.785186 20932 net.cpp:386] inception_4d/relu_1x1 -> inception_4d/1x1 (in-place)
I0403 16:18:52.785367 20932 net.cpp:141] Setting up inception_4d/relu_1x1
I0403 16:18:52.785392 20932 net.cpp:148] Top shape: 24 112 14 14 (526848)
I0403 16:18:52.785409 20932 net.cpp:156] Memory required for data: 1115397408
I0403 16:18:52.785424 20932 layer_factory.hpp:77] Creating layer inception_4d/3x3_reduce
I0403 16:18:52.785455 20932 net.cpp:91] Creating Layer inception_4d/3x3_reduce
I0403 16:18:52.785473 20932 net.cpp:425] inception_4d/3x3_reduce <- inception_4c/output_inception_4c/output_0_split_1
I0403 16:18:52.785493 20932 net.cpp:399] inception_4d/3x3_reduce -> inception_4d/3x3_reduce
I0403 16:18:52.786963 20932 net.cpp:141] Setting up inception_4d/3x3_reduce
I0403 16:18:52.786991 20932 net.cpp:148] Top shape: 24 144 14 14 (677376)
I0403 16:18:52.787008 20932 net.cpp:156] Memory required for data: 1118106912
I0403 16:18:52.787030 20932 layer_factory.hpp:77] Creating layer inception_4d/relu_3x3_reduce
I0403 16:18:52.787052 20932 net.cpp:91] Creating Layer inception_4d/relu_3x3_reduce
I0403 16:18:52.787070 20932 net.cpp:425] inception_4d/relu_3x3_reduce <- inception_4d/3x3_reduce
I0403 16:18:52.787091 20932 net.cpp:386] inception_4d/relu_3x3_reduce -> inception_4d/3x3_reduce (in-place)
I0403 16:18:52.787374 20932 net.cpp:141] Setting up inception_4d/relu_3x3_reduce
I0403 16:18:52.787400 20932 net.cpp:148] Top shape: 24 144 14 14 (677376)
I0403 16:18:52.787415 20932 net.cpp:156] Memory required for data: 1120816416
I0403 16:18:52.787427 20932 layer_factory.hpp:77] Creating layer inception_4d/3x3
I0403 16:18:52.787448 20932 net.cpp:91] Creating Layer inception_4d/3x3
I0403 16:18:52.787466 20932 net.cpp:425] inception_4d/3x3 <- inception_4d/3x3_reduce
I0403 16:18:52.787484 20932 net.cpp:399] inception_4d/3x3 -> inception_4d/3x3
I0403 16:18:52.791630 20932 net.cpp:141] Setting up inception_4d/3x3
I0403 16:18:52.791658 20932 net.cpp:148] Top shape: 24 288 14 14 (1354752)
I0403 16:18:52.791676 20932 net.cpp:156] Memory required for data: 1126235424
I0403 16:18:52.791692 20932 layer_factory.hpp:77] Creating layer inception_4d/relu_3x3
I0403 16:18:52.791712 20932 net.cpp:91] Creating Layer inception_4d/relu_3x3
I0403 16:18:52.791729 20932 net.cpp:425] inception_4d/relu_3x3 <- inception_4d/3x3
I0403 16:18:52.791746 20932 net.cpp:386] inception_4d/relu_3x3 -> inception_4d/3x3 (in-place)
I0403 16:18:52.791925 20932 net.cpp:141] Setting up inception_4d/relu_3x3
I0403 16:18:52.791949 20932 net.cpp:148] Top shape: 24 288 14 14 (1354752)
I0403 16:18:52.791965 20932 net.cpp:156] Memory required for data: 1131654432
I0403 16:18:52.791978 20932 layer_factory.hpp:77] Creating layer inception_4d/5x5_reduce
I0403 16:18:52.792001 20932 net.cpp:91] Creating Layer inception_4d/5x5_reduce
I0403 16:18:52.792017 20932 net.cpp:425] inception_4d/5x5_reduce <- inception_4c/output_inception_4c/output_0_split_2
I0403 16:18:52.792035 20932 net.cpp:399] inception_4d/5x5_reduce -> inception_4d/5x5_reduce
I0403 16:18:52.793164 20932 net.cpp:141] Setting up inception_4d/5x5_reduce
I0403 16:18:52.793192 20932 net.cpp:148] Top shape: 24 32 14 14 (150528)
I0403 16:18:52.793207 20932 net.cpp:156] Memory required for data: 1132256544
I0403 16:18:52.793225 20932 layer_factory.hpp:77] Creating layer inception_4d/relu_5x5_reduce
I0403 16:18:52.793244 20932 net.cpp:91] Creating Layer inception_4d/relu_5x5_reduce
I0403 16:18:52.793259 20932 net.cpp:425] inception_4d/relu_5x5_reduce <- inception_4d/5x5_reduce
I0403 16:18:52.793275 20932 net.cpp:386] inception_4d/relu_5x5_reduce -> inception_4d/5x5_reduce (in-place)
I0403 16:18:52.793455 20932 net.cpp:141] Setting up inception_4d/relu_5x5_reduce
I0403 16:18:52.793483 20932 net.cpp:148] Top shape: 24 32 14 14 (150528)
I0403 16:18:52.793496 20932 net.cpp:156] Memory required for data: 1132858656
I0403 16:18:52.793510 20932 layer_factory.hpp:77] Creating layer inception_4d/5x5
I0403 16:18:52.793531 20932 net.cpp:91] Creating Layer inception_4d/5x5
I0403 16:18:52.793547 20932 net.cpp:425] inception_4d/5x5 <- inception_4d/5x5_reduce
I0403 16:18:52.793565 20932 net.cpp:399] inception_4d/5x5 -> inception_4d/5x5
I0403 16:18:52.795012 20932 net.cpp:141] Setting up inception_4d/5x5
I0403 16:18:52.795043 20932 net.cpp:148] Top shape: 24 64 14 14 (301056)
I0403 16:18:52.795065 20932 net.cpp:156] Memory required for data: 1134062880
I0403 16:18:52.795084 20932 layer_factory.hpp:77] Creating layer inception_4d/relu_5x5
I0403 16:18:52.795119 20932 net.cpp:91] Creating Layer inception_4d/relu_5x5
I0403 16:18:52.795135 20932 net.cpp:425] inception_4d/relu_5x5 <- inception_4d/5x5
I0403 16:18:52.795150 20932 net.cpp:386] inception_4d/relu_5x5 -> inception_4d/5x5 (in-place)
I0403 16:18:52.795445 20932 net.cpp:141] Setting up inception_4d/relu_5x5
I0403 16:18:52.795475 20932 net.cpp:148] Top shape: 24 64 14 14 (301056)
I0403 16:18:52.795490 20932 net.cpp:156] Memory required for data: 1135267104
I0403 16:18:52.795505 20932 layer_factory.hpp:77] Creating layer inception_4d/pool
I0403 16:18:52.795521 20932 net.cpp:91] Creating Layer inception_4d/pool
I0403 16:18:52.795536 20932 net.cpp:425] inception_4d/pool <- inception_4c/output_inception_4c/output_0_split_3
I0403 16:18:52.795552 20932 net.cpp:399] inception_4d/pool -> inception_4d/pool
I0403 16:18:52.795616 20932 net.cpp:141] Setting up inception_4d/pool
I0403 16:18:52.795639 20932 net.cpp:148] Top shape: 24 512 14 14 (2408448)
I0403 16:18:52.795653 20932 net.cpp:156] Memory required for data: 1144900896
I0403 16:18:52.795666 20932 layer_factory.hpp:77] Creating layer inception_4d/pool_proj
I0403 16:18:52.795687 20932 net.cpp:91] Creating Layer inception_4d/pool_proj
I0403 16:18:52.795704 20932 net.cpp:425] inception_4d/pool_proj <- inception_4d/pool
I0403 16:18:52.795724 20932 net.cpp:399] inception_4d/pool_proj -> inception_4d/pool_proj
I0403 16:18:52.797456 20932 net.cpp:141] Setting up inception_4d/pool_proj
I0403 16:18:52.797484 20932 net.cpp:148] Top shape: 24 64 14 14 (301056)
I0403 16:18:52.797499 20932 net.cpp:156] Memory required for data: 1146105120
I0403 16:18:52.797518 20932 layer_factory.hpp:77] Creating layer inception_4d/relu_pool_proj
I0403 16:18:52.797538 20932 net.cpp:91] Creating Layer inception_4d/relu_pool_proj
I0403 16:18:52.797554 20932 net.cpp:425] inception_4d/relu_pool_proj <- inception_4d/pool_proj
I0403 16:18:52.797570 20932 net.cpp:386] inception_4d/relu_pool_proj -> inception_4d/pool_proj (in-place)
I0403 16:18:52.797754 20932 net.cpp:141] Setting up inception_4d/relu_pool_proj
I0403 16:18:52.797777 20932 net.cpp:148] Top shape: 24 64 14 14 (301056)
I0403 16:18:52.797791 20932 net.cpp:156] Memory required for data: 1147309344
I0403 16:18:52.797804 20932 layer_factory.hpp:77] Creating layer inception_4d/output
I0403 16:18:52.797823 20932 net.cpp:91] Creating Layer inception_4d/output
I0403 16:18:52.797838 20932 net.cpp:425] inception_4d/output <- inception_4d/1x1
I0403 16:18:52.797853 20932 net.cpp:425] inception_4d/output <- inception_4d/3x3
I0403 16:18:52.797868 20932 net.cpp:425] inception_4d/output <- inception_4d/5x5
I0403 16:18:52.797883 20932 net.cpp:425] inception_4d/output <- inception_4d/pool_proj
I0403 16:18:52.797899 20932 net.cpp:399] inception_4d/output -> inception_4d/output
I0403 16:18:52.797945 20932 net.cpp:141] Setting up inception_4d/output
I0403 16:18:52.797969 20932 net.cpp:148] Top shape: 24 528 14 14 (2483712)
I0403 16:18:52.797982 20932 net.cpp:156] Memory required for data: 1157244192
I0403 16:18:52.797996 20932 layer_factory.hpp:77] Creating layer inception_4d/output_inception_4d/output_0_split
I0403 16:18:52.798012 20932 net.cpp:91] Creating Layer inception_4d/output_inception_4d/output_0_split
I0403 16:18:52.798027 20932 net.cpp:425] inception_4d/output_inception_4d/output_0_split <- inception_4d/output
I0403 16:18:52.798045 20932 net.cpp:399] inception_4d/output_inception_4d/output_0_split -> inception_4d/output_inception_4d/output_0_split_0
I0403 16:18:52.798079 20932 net.cpp:399] inception_4d/output_inception_4d/output_0_split -> inception_4d/output_inception_4d/output_0_split_1
I0403 16:18:52.798099 20932 net.cpp:399] inception_4d/output_inception_4d/output_0_split -> inception_4d/output_inception_4d/output_0_split_2
I0403 16:18:52.798125 20932 net.cpp:399] inception_4d/output_inception_4d/output_0_split -> inception_4d/output_inception_4d/output_0_split_3
I0403 16:18:52.798143 20932 net.cpp:399] inception_4d/output_inception_4d/output_0_split -> inception_4d/output_inception_4d/output_0_split_4
I0403 16:18:52.798241 20932 net.cpp:141] Setting up inception_4d/output_inception_4d/output_0_split
I0403 16:18:52.798276 20932 net.cpp:148] Top shape: 24 528 14 14 (2483712)
I0403 16:18:52.798292 20932 net.cpp:148] Top shape: 24 528 14 14 (2483712)
I0403 16:18:52.798306 20932 net.cpp:148] Top shape: 24 528 14 14 (2483712)
I0403 16:18:52.798321 20932 net.cpp:148] Top shape: 24 528 14 14 (2483712)
I0403 16:18:52.798336 20932 net.cpp:148] Top shape: 24 528 14 14 (2483712)
I0403 16:18:52.798348 20932 net.cpp:156] Memory required for data: 1206918432
I0403 16:18:52.798362 20932 layer_factory.hpp:77] Creating layer loss2/ave_pool
I0403 16:18:52.798377 20932 net.cpp:91] Creating Layer loss2/ave_pool
I0403 16:18:52.798393 20932 net.cpp:425] loss2/ave_pool <- inception_4d/output_inception_4d/output_0_split_0
I0403 16:18:52.798413 20932 net.cpp:399] loss2/ave_pool -> loss2/ave_pool
I0403 16:18:52.798717 20932 net.cpp:141] Setting up loss2/ave_pool
I0403 16:18:52.798744 20932 net.cpp:148] Top shape: 24 528 4 4 (202752)
I0403 16:18:52.798758 20932 net.cpp:156] Memory required for data: 1207729440
I0403 16:18:52.798773 20932 layer_factory.hpp:77] Creating layer loss2/conv
I0403 16:18:52.798794 20932 net.cpp:91] Creating Layer loss2/conv
I0403 16:18:52.798810 20932 net.cpp:425] loss2/conv <- loss2/ave_pool
I0403 16:18:52.798830 20932 net.cpp:399] loss2/conv -> loss2/conv
I0403 16:18:52.800683 20932 net.cpp:141] Setting up loss2/conv
I0403 16:18:52.800714 20932 net.cpp:148] Top shape: 24 128 4 4 (49152)
I0403 16:18:52.800731 20932 net.cpp:156] Memory required for data: 1207926048
I0403 16:18:52.800761 20932 layer_factory.hpp:77] Creating layer loss2/relu_conv
I0403 16:18:52.800778 20932 net.cpp:91] Creating Layer loss2/relu_conv
I0403 16:18:52.800794 20932 net.cpp:425] loss2/relu_conv <- loss2/conv
I0403 16:18:52.800814 20932 net.cpp:386] loss2/relu_conv -> loss2/conv (in-place)
I0403 16:18:52.801100 20932 net.cpp:141] Setting up loss2/relu_conv
I0403 16:18:52.801128 20932 net.cpp:148] Top shape: 24 128 4 4 (49152)
I0403 16:18:52.801143 20932 net.cpp:156] Memory required for data: 1208122656
I0403 16:18:52.801157 20932 layer_factory.hpp:77] Creating layer loss2/fc
I0403 16:18:52.801177 20932 net.cpp:91] Creating Layer loss2/fc
I0403 16:18:52.801192 20932 net.cpp:425] loss2/fc <- loss2/conv
I0403 16:18:52.801214 20932 net.cpp:399] loss2/fc -> loss2/fc
I0403 16:18:52.818373 20932 net.cpp:141] Setting up loss2/fc
I0403 16:18:52.818406 20932 net.cpp:148] Top shape: 24 1024 (24576)
I0403 16:18:52.818421 20932 net.cpp:156] Memory required for data: 1208220960
I0403 16:18:52.818439 20932 layer_factory.hpp:77] Creating layer loss2/relu_fc
I0403 16:18:52.818459 20932 net.cpp:91] Creating Layer loss2/relu_fc
I0403 16:18:52.818476 20932 net.cpp:425] loss2/relu_fc <- loss2/fc
I0403 16:18:52.818495 20932 net.cpp:386] loss2/relu_fc -> loss2/fc (in-place)
I0403 16:18:52.818783 20932 net.cpp:141] Setting up loss2/relu_fc
I0403 16:18:52.818809 20932 net.cpp:148] Top shape: 24 1024 (24576)
I0403 16:18:52.818825 20932 net.cpp:156] Memory required for data: 1208319264
I0403 16:18:52.818838 20932 layer_factory.hpp:77] Creating layer loss2/drop_fc
I0403 16:18:52.818857 20932 net.cpp:91] Creating Layer loss2/drop_fc
I0403 16:18:52.818873 20932 net.cpp:425] loss2/drop_fc <- loss2/fc
I0403 16:18:52.818889 20932 net.cpp:386] loss2/drop_fc -> loss2/fc (in-place)
I0403 16:18:52.818939 20932 net.cpp:141] Setting up loss2/drop_fc
I0403 16:18:52.818964 20932 net.cpp:148] Top shape: 24 1024 (24576)
I0403 16:18:52.818977 20932 net.cpp:156] Memory required for data: 1208417568
I0403 16:18:52.818991 20932 layer_factory.hpp:77] Creating layer loss2/classifier_plantvillage
I0403 16:18:52.819010 20932 net.cpp:91] Creating Layer loss2/classifier_plantvillage
I0403 16:18:52.819023 20932 net.cpp:425] loss2/classifier_plantvillage <- loss2/fc
I0403 16:18:52.819044 20932 net.cpp:399] loss2/classifier_plantvillage -> loss2/classifier_plantvillage
I0403 16:18:52.819437 20932 net.cpp:141] Setting up loss2/classifier_plantvillage
I0403 16:18:52.819461 20932 net.cpp:148] Top shape: 24 38 (912)
I0403 16:18:52.819489 20932 net.cpp:156] Memory required for data: 1208421216
I0403 16:18:52.819509 20932 layer_factory.hpp:77] Creating layer loss2/classifier_plantvillage_loss2/classifier_plantvillage_0_split
I0403 16:18:52.819525 20932 net.cpp:91] Creating Layer loss2/classifier_plantvillage_loss2/classifier_plantvillage_0_split
I0403 16:18:52.819540 20932 net.cpp:425] loss2/classifier_plantvillage_loss2/classifier_plantvillage_0_split <- loss2/classifier_plantvillage
I0403 16:18:52.819560 20932 net.cpp:399] loss2/classifier_plantvillage_loss2/classifier_plantvillage_0_split -> loss2/classifier_plantvillage_loss2/classifier_plantvillage_0_split_0
I0403 16:18:52.819579 20932 net.cpp:399] loss2/classifier_plantvillage_loss2/classifier_plantvillage_0_split -> loss2/classifier_plantvillage_loss2/classifier_plantvillage_0_split_1
I0403 16:18:52.819599 20932 net.cpp:399] loss2/classifier_plantvillage_loss2/classifier_plantvillage_0_split -> loss2/classifier_plantvillage_loss2/classifier_plantvillage_0_split_2
I0403 16:18:52.819674 20932 net.cpp:141] Setting up loss2/classifier_plantvillage_loss2/classifier_plantvillage_0_split
I0403 16:18:52.819695 20932 net.cpp:148] Top shape: 24 38 (912)
I0403 16:18:52.819710 20932 net.cpp:148] Top shape: 24 38 (912)
I0403 16:18:52.819725 20932 net.cpp:148] Top shape: 24 38 (912)
I0403 16:18:52.819736 20932 net.cpp:156] Memory required for data: 1208432160
I0403 16:18:52.819751 20932 layer_factory.hpp:77] Creating layer inception_4e/1x1
I0403 16:18:52.819772 20932 net.cpp:91] Creating Layer inception_4e/1x1
I0403 16:18:52.819787 20932 net.cpp:425] inception_4e/1x1 <- inception_4d/output_inception_4d/output_0_split_1
I0403 16:18:52.819804 20932 net.cpp:399] inception_4e/1x1 -> inception_4e/1x1
I0403 16:18:52.821571 20932 net.cpp:141] Setting up inception_4e/1x1
I0403 16:18:52.821600 20932 net.cpp:148] Top shape: 24 256 14 14 (1204224)
I0403 16:18:52.821615 20932 net.cpp:156] Memory required for data: 1213249056
I0403 16:18:52.821633 20932 layer_factory.hpp:77] Creating layer inception_4e/relu_1x1
I0403 16:18:52.821651 20932 net.cpp:91] Creating Layer inception_4e/relu_1x1
I0403 16:18:52.821667 20932 net.cpp:425] inception_4e/relu_1x1 <- inception_4e/1x1
I0403 16:18:52.821684 20932 net.cpp:386] inception_4e/relu_1x1 -> inception_4e/1x1 (in-place)
I0403 16:18:52.821990 20932 net.cpp:141] Setting up inception_4e/relu_1x1
I0403 16:18:52.822018 20932 net.cpp:148] Top shape: 24 256 14 14 (1204224)
I0403 16:18:52.822032 20932 net.cpp:156] Memory required for data: 1218065952
I0403 16:18:52.822051 20932 layer_factory.hpp:77] Creating layer inception_4e/3x3_reduce
I0403 16:18:52.822074 20932 net.cpp:91] Creating Layer inception_4e/3x3_reduce
I0403 16:18:52.822091 20932 net.cpp:425] inception_4e/3x3_reduce <- inception_4d/output_inception_4d/output_0_split_2
I0403 16:18:52.822113 20932 net.cpp:399] inception_4e/3x3_reduce -> inception_4e/3x3_reduce
I0403 16:18:52.824249 20932 net.cpp:141] Setting up inception_4e/3x3_reduce
I0403 16:18:52.824280 20932 net.cpp:148] Top shape: 24 160 14 14 (752640)
I0403 16:18:52.824295 20932 net.cpp:156] Memory required for data: 1221076512
I0403 16:18:52.824316 20932 layer_factory.hpp:77] Creating layer inception_4e/relu_3x3_reduce
I0403 16:18:52.824334 20932 net.cpp:91] Creating Layer inception_4e/relu_3x3_reduce
I0403 16:18:52.824350 20932 net.cpp:425] inception_4e/relu_3x3_reduce <- inception_4e/3x3_reduce
I0403 16:18:52.824367 20932 net.cpp:386] inception_4e/relu_3x3_reduce -> inception_4e/3x3_reduce (in-place)
I0403 16:18:52.824558 20932 net.cpp:141] Setting up inception_4e/relu_3x3_reduce
I0403 16:18:52.824582 20932 net.cpp:148] Top shape: 24 160 14 14 (752640)
I0403 16:18:52.824596 20932 net.cpp:156] Memory required for data: 1224087072
I0403 16:18:52.824610 20932 layer_factory.hpp:77] Creating layer inception_4e/3x3
I0403 16:18:52.824631 20932 net.cpp:91] Creating Layer inception_4e/3x3
I0403 16:18:52.824648 20932 net.cpp:425] inception_4e/3x3 <- inception_4e/3x3_reduce
I0403 16:18:52.824669 20932 net.cpp:399] inception_4e/3x3 -> inception_4e/3x3
I0403 16:18:52.829679 20932 net.cpp:141] Setting up inception_4e/3x3
I0403 16:18:52.829722 20932 net.cpp:148] Top shape: 24 320 14 14 (1505280)
I0403 16:18:52.829738 20932 net.cpp:156] Memory required for data: 1230108192
I0403 16:18:52.829756 20932 layer_factory.hpp:77] Creating layer inception_4e/relu_3x3
I0403 16:18:52.829774 20932 net.cpp:91] Creating Layer inception_4e/relu_3x3
I0403 16:18:52.829789 20932 net.cpp:425] inception_4e/relu_3x3 <- inception_4e/3x3
I0403 16:18:52.829808 20932 net.cpp:386] inception_4e/relu_3x3 -> inception_4e/3x3 (in-place)
I0403 16:18:52.830173 20932 net.cpp:141] Setting up inception_4e/relu_3x3
I0403 16:18:52.830199 20932 net.cpp:148] Top shape: 24 320 14 14 (1505280)
I0403 16:18:52.830214 20932 net.cpp:156] Memory required for data: 1236129312
I0403 16:18:52.830229 20932 layer_factory.hpp:77] Creating layer inception_4e/5x5_reduce
I0403 16:18:52.830252 20932 net.cpp:91] Creating Layer inception_4e/5x5_reduce
I0403 16:18:52.830270 20932 net.cpp:425] inception_4e/5x5_reduce <- inception_4d/output_inception_4d/output_0_split_3
I0403 16:18:52.830291 20932 net.cpp:399] inception_4e/5x5_reduce -> inception_4e/5x5_reduce
I0403 16:18:52.831364 20932 net.cpp:141] Setting up inception_4e/5x5_reduce
I0403 16:18:52.831395 20932 net.cpp:148] Top shape: 24 32 14 14 (150528)
I0403 16:18:52.831413 20932 net.cpp:156] Memory required for data: 1236731424
I0403 16:18:52.831430 20932 layer_factory.hpp:77] Creating layer inception_4e/relu_5x5_reduce
I0403 16:18:52.831449 20932 net.cpp:91] Creating Layer inception_4e/relu_5x5_reduce
I0403 16:18:52.831465 20932 net.cpp:425] inception_4e/relu_5x5_reduce <- inception_4e/5x5_reduce
I0403 16:18:52.831481 20932 net.cpp:386] inception_4e/relu_5x5_reduce -> inception_4e/5x5_reduce (in-place)
I0403 16:18:52.831781 20932 net.cpp:141] Setting up inception_4e/relu_5x5_reduce
I0403 16:18:52.831811 20932 net.cpp:148] Top shape: 24 32 14 14 (150528)
I0403 16:18:52.831826 20932 net.cpp:156] Memory required for data: 1237333536
I0403 16:18:52.831841 20932 layer_factory.hpp:77] Creating layer inception_4e/5x5
I0403 16:18:52.831881 20932 net.cpp:91] Creating Layer inception_4e/5x5
I0403 16:18:52.831899 20932 net.cpp:425] inception_4e/5x5 <- inception_4e/5x5_reduce
I0403 16:18:52.831918 20932 net.cpp:399] inception_4e/5x5 -> inception_4e/5x5
I0403 16:18:52.833772 20932 net.cpp:141] Setting up inception_4e/5x5
I0403 16:18:52.833801 20932 net.cpp:148] Top shape: 24 128 14 14 (602112)
I0403 16:18:52.833817 20932 net.cpp:156] Memory required for data: 1239741984
I0403 16:18:52.833837 20932 layer_factory.hpp:77] Creating layer inception_4e/relu_5x5
I0403 16:18:52.833856 20932 net.cpp:91] Creating Layer inception_4e/relu_5x5
I0403 16:18:52.833873 20932 net.cpp:425] inception_4e/relu_5x5 <- inception_4e/5x5
I0403 16:18:52.833889 20932 net.cpp:386] inception_4e/relu_5x5 -> inception_4e/5x5 (in-place)
I0403 16:18:52.834095 20932 net.cpp:141] Setting up inception_4e/relu_5x5
I0403 16:18:52.834122 20932 net.cpp:148] Top shape: 24 128 14 14 (602112)
I0403 16:18:52.834136 20932 net.cpp:156] Memory required for data: 1242150432
I0403 16:18:52.834151 20932 layer_factory.hpp:77] Creating layer inception_4e/pool
I0403 16:18:52.834168 20932 net.cpp:91] Creating Layer inception_4e/pool
I0403 16:18:52.834183 20932 net.cpp:425] inception_4e/pool <- inception_4d/output_inception_4d/output_0_split_4
I0403 16:18:52.834203 20932 net.cpp:399] inception_4e/pool -> inception_4e/pool
I0403 16:18:52.834271 20932 net.cpp:141] Setting up inception_4e/pool
I0403 16:18:52.834295 20932 net.cpp:148] Top shape: 24 528 14 14 (2483712)
I0403 16:18:52.834309 20932 net.cpp:156] Memory required for data: 1252085280
I0403 16:18:52.834322 20932 layer_factory.hpp:77] Creating layer inception_4e/pool_proj
I0403 16:18:52.834347 20932 net.cpp:91] Creating Layer inception_4e/pool_proj
I0403 16:18:52.834363 20932 net.cpp:425] inception_4e/pool_proj <- inception_4e/pool
I0403 16:18:52.834383 20932 net.cpp:399] inception_4e/pool_proj -> inception_4e/pool_proj
I0403 16:18:52.835937 20932 net.cpp:141] Setting up inception_4e/pool_proj
I0403 16:18:52.835976 20932 net.cpp:148] Top shape: 24 128 14 14 (602112)
I0403 16:18:52.835994 20932 net.cpp:156] Memory required for data: 1254493728
I0403 16:18:52.836011 20932 layer_factory.hpp:77] Creating layer inception_4e/relu_pool_proj
I0403 16:18:52.836032 20932 net.cpp:91] Creating Layer inception_4e/relu_pool_proj
I0403 16:18:52.836053 20932 net.cpp:425] inception_4e/relu_pool_proj <- inception_4e/pool_proj
I0403 16:18:52.836073 20932 net.cpp:386] inception_4e/relu_pool_proj -> inception_4e/pool_proj (in-place)
I0403 16:18:52.836374 20932 net.cpp:141] Setting up inception_4e/relu_pool_proj
I0403 16:18:52.836400 20932 net.cpp:148] Top shape: 24 128 14 14 (602112)
I0403 16:18:52.836416 20932 net.cpp:156] Memory required for data: 1256902176
I0403 16:18:52.836429 20932 layer_factory.hpp:77] Creating layer inception_4e/output
I0403 16:18:52.836449 20932 net.cpp:91] Creating Layer inception_4e/output
I0403 16:18:52.836467 20932 net.cpp:425] inception_4e/output <- inception_4e/1x1
I0403 16:18:52.836483 20932 net.cpp:425] inception_4e/output <- inception_4e/3x3
I0403 16:18:52.836498 20932 net.cpp:425] inception_4e/output <- inception_4e/5x5
I0403 16:18:52.836513 20932 net.cpp:425] inception_4e/output <- inception_4e/pool_proj
I0403 16:18:52.836530 20932 net.cpp:399] inception_4e/output -> inception_4e/output
I0403 16:18:52.836583 20932 net.cpp:141] Setting up inception_4e/output
I0403 16:18:52.836607 20932 net.cpp:148] Top shape: 24 832 14 14 (3913728)
I0403 16:18:52.836621 20932 net.cpp:156] Memory required for data: 1272557088
I0403 16:18:52.836637 20932 layer_factory.hpp:77] Creating layer pool4/3x3_s2
I0403 16:18:52.836653 20932 net.cpp:91] Creating Layer pool4/3x3_s2
I0403 16:18:52.836668 20932 net.cpp:425] pool4/3x3_s2 <- inception_4e/output
I0403 16:18:52.836689 20932 net.cpp:399] pool4/3x3_s2 -> pool4/3x3_s2
I0403 16:18:52.836756 20932 net.cpp:141] Setting up pool4/3x3_s2
I0403 16:18:52.836783 20932 net.cpp:148] Top shape: 24 832 7 7 (978432)
I0403 16:18:52.836797 20932 net.cpp:156] Memory required for data: 1276470816
I0403 16:18:52.836812 20932 layer_factory.hpp:77] Creating layer pool4/3x3_s2_pool4/3x3_s2_0_split
I0403 16:18:52.836828 20932 net.cpp:91] Creating Layer pool4/3x3_s2_pool4/3x3_s2_0_split
I0403 16:18:52.836844 20932 net.cpp:425] pool4/3x3_s2_pool4/3x3_s2_0_split <- pool4/3x3_s2
I0403 16:18:52.836861 20932 net.cpp:399] pool4/3x3_s2_pool4/3x3_s2_0_split -> pool4/3x3_s2_pool4/3x3_s2_0_split_0
I0403 16:18:52.836880 20932 net.cpp:399] pool4/3x3_s2_pool4/3x3_s2_0_split -> pool4/3x3_s2_pool4/3x3_s2_0_split_1
I0403 16:18:52.836904 20932 net.cpp:399] pool4/3x3_s2_pool4/3x3_s2_0_split -> pool4/3x3_s2_pool4/3x3_s2_0_split_2
I0403 16:18:52.836925 20932 net.cpp:399] pool4/3x3_s2_pool4/3x3_s2_0_split -> pool4/3x3_s2_pool4/3x3_s2_0_split_3
I0403 16:18:52.837018 20932 net.cpp:141] Setting up pool4/3x3_s2_pool4/3x3_s2_0_split
I0403 16:18:52.837043 20932 net.cpp:148] Top shape: 24 832 7 7 (978432)
I0403 16:18:52.837064 20932 net.cpp:148] Top shape: 24 832 7 7 (978432)
I0403 16:18:52.837080 20932 net.cpp:148] Top shape: 24 832 7 7 (978432)
I0403 16:18:52.837095 20932 net.cpp:148] Top shape: 24 832 7 7 (978432)
I0403 16:18:52.837108 20932 net.cpp:156] Memory required for data: 1292125728
I0403 16:18:52.837122 20932 layer_factory.hpp:77] Creating layer inception_5a/1x1
I0403 16:18:52.837146 20932 net.cpp:91] Creating Layer inception_5a/1x1
I0403 16:18:52.837163 20932 net.cpp:425] inception_5a/1x1 <- pool4/3x3_s2_pool4/3x3_s2_0_split_0
I0403 16:18:52.837184 20932 net.cpp:399] inception_5a/1x1 -> inception_5a/1x1
I0403 16:18:52.840139 20932 net.cpp:141] Setting up inception_5a/1x1
I0403 16:18:52.840172 20932 net.cpp:148] Top shape: 24 256 7 7 (301056)
I0403 16:18:52.840188 20932 net.cpp:156] Memory required for data: 1293329952
I0403 16:18:52.840205 20932 layer_factory.hpp:77] Creating layer inception_5a/relu_1x1
I0403 16:18:52.840225 20932 net.cpp:91] Creating Layer inception_5a/relu_1x1
I0403 16:18:52.840245 20932 net.cpp:425] inception_5a/relu_1x1 <- inception_5a/1x1
I0403 16:18:52.840261 20932 net.cpp:386] inception_5a/relu_1x1 -> inception_5a/1x1 (in-place)
I0403 16:18:52.840587 20932 net.cpp:141] Setting up inception_5a/relu_1x1
I0403 16:18:52.840615 20932 net.cpp:148] Top shape: 24 256 7 7 (301056)
I0403 16:18:52.840629 20932 net.cpp:156] Memory required for data: 1294534176
I0403 16:18:52.840643 20932 layer_factory.hpp:77] Creating layer inception_5a/3x3_reduce
I0403 16:18:52.840667 20932 net.cpp:91] Creating Layer inception_5a/3x3_reduce
I0403 16:18:52.840685 20932 net.cpp:425] inception_5a/3x3_reduce <- pool4/3x3_s2_pool4/3x3_s2_0_split_1
I0403 16:18:52.840704 20932 net.cpp:399] inception_5a/3x3_reduce -> inception_5a/3x3_reduce
I0403 16:18:52.843248 20932 net.cpp:141] Setting up inception_5a/3x3_reduce
I0403 16:18:52.843281 20932 net.cpp:148] Top shape: 24 160 7 7 (188160)
I0403 16:18:52.843300 20932 net.cpp:156] Memory required for data: 1295286816
I0403 16:18:52.843319 20932 layer_factory.hpp:77] Creating layer inception_5a/relu_3x3_reduce
I0403 16:18:52.843340 20932 net.cpp:91] Creating Layer inception_5a/relu_3x3_reduce
I0403 16:18:52.843358 20932 net.cpp:425] inception_5a/relu_3x3_reduce <- inception_5a/3x3_reduce
I0403 16:18:52.843375 20932 net.cpp:386] inception_5a/relu_3x3_reduce -> inception_5a/3x3_reduce (in-place)
I0403 16:18:52.843572 20932 net.cpp:141] Setting up inception_5a/relu_3x3_reduce
I0403 16:18:52.843600 20932 net.cpp:148] Top shape: 24 160 7 7 (188160)
I0403 16:18:52.843614 20932 net.cpp:156] Memory required for data: 1296039456
I0403 16:18:52.843629 20932 layer_factory.hpp:77] Creating layer inception_5a/3x3
I0403 16:18:52.843654 20932 net.cpp:91] Creating Layer inception_5a/3x3
I0403 16:18:52.843672 20932 net.cpp:425] inception_5a/3x3 <- inception_5a/3x3_reduce
I0403 16:18:52.843691 20932 net.cpp:399] inception_5a/3x3 -> inception_5a/3x3
I0403 16:18:52.848872 20932 net.cpp:141] Setting up inception_5a/3x3
I0403 16:18:52.848904 20932 net.cpp:148] Top shape: 24 320 7 7 (376320)
I0403 16:18:52.848924 20932 net.cpp:156] Memory required for data: 1297544736
I0403 16:18:52.848943 20932 layer_factory.hpp:77] Creating layer inception_5a/relu_3x3
I0403 16:18:52.848961 20932 net.cpp:91] Creating Layer inception_5a/relu_3x3
I0403 16:18:52.848978 20932 net.cpp:425] inception_5a/relu_3x3 <- inception_5a/3x3
I0403 16:18:52.848997 20932 net.cpp:386] inception_5a/relu_3x3 -> inception_5a/3x3 (in-place)
I0403 16:18:52.849315 20932 net.cpp:141] Setting up inception_5a/relu_3x3
I0403 16:18:52.849344 20932 net.cpp:148] Top shape: 24 320 7 7 (376320)
I0403 16:18:52.849361 20932 net.cpp:156] Memory required for data: 1299050016
I0403 16:18:52.849377 20932 layer_factory.hpp:77] Creating layer inception_5a/5x5_reduce
I0403 16:18:52.849397 20932 net.cpp:91] Creating Layer inception_5a/5x5_reduce
I0403 16:18:52.849416 20932 net.cpp:425] inception_5a/5x5_reduce <- pool4/3x3_s2_pool4/3x3_s2_0_split_2
I0403 16:18:52.849437 20932 net.cpp:399] inception_5a/5x5_reduce -> inception_5a/5x5_reduce
I0403 16:18:52.850649 20932 net.cpp:141] Setting up inception_5a/5x5_reduce
I0403 16:18:52.850682 20932 net.cpp:148] Top shape: 24 32 7 7 (37632)
I0403 16:18:52.850698 20932 net.cpp:156] Memory required for data: 1299200544
I0403 16:18:52.850718 20932 layer_factory.hpp:77] Creating layer inception_5a/relu_5x5_reduce
I0403 16:18:52.850736 20932 net.cpp:91] Creating Layer inception_5a/relu_5x5_reduce
I0403 16:18:52.850754 20932 net.cpp:425] inception_5a/relu_5x5_reduce <- inception_5a/5x5_reduce
I0403 16:18:52.850774 20932 net.cpp:386] inception_5a/relu_5x5_reduce -> inception_5a/5x5_reduce (in-place)
I0403 16:18:52.851084 20932 net.cpp:141] Setting up inception_5a/relu_5x5_reduce
I0403 16:18:52.851114 20932 net.cpp:148] Top shape: 24 32 7 7 (37632)
I0403 16:18:52.851130 20932 net.cpp:156] Memory required for data: 1299351072
I0403 16:18:52.851143 20932 layer_factory.hpp:77] Creating layer inception_5a/5x5
I0403 16:18:52.851166 20932 net.cpp:91] Creating Layer inception_5a/5x5
I0403 16:18:52.851183 20932 net.cpp:425] inception_5a/5x5 <- inception_5a/5x5_reduce
I0403 16:18:52.851202 20932 net.cpp:399] inception_5a/5x5 -> inception_5a/5x5
I0403 16:18:52.852974 20932 net.cpp:141] Setting up inception_5a/5x5
I0403 16:18:52.853018 20932 net.cpp:148] Top shape: 24 128 7 7 (150528)
I0403 16:18:52.853034 20932 net.cpp:156] Memory required for data: 1299953184
I0403 16:18:52.853056 20932 layer_factory.hpp:77] Creating layer inception_5a/relu_5x5
I0403 16:18:52.853080 20932 net.cpp:91] Creating Layer inception_5a/relu_5x5
I0403 16:18:52.853096 20932 net.cpp:425] inception_5a/relu_5x5 <- inception_5a/5x5
I0403 16:18:52.853113 20932 net.cpp:386] inception_5a/relu_5x5 -> inception_5a/5x5 (in-place)
I0403 16:18:52.853312 20932 net.cpp:141] Setting up inception_5a/relu_5x5
I0403 16:18:52.853340 20932 net.cpp:148] Top shape: 24 128 7 7 (150528)
I0403 16:18:52.853355 20932 net.cpp:156] Memory required for data: 1300555296
I0403 16:18:52.853369 20932 layer_factory.hpp:77] Creating layer inception_5a/pool
I0403 16:18:52.853386 20932 net.cpp:91] Creating Layer inception_5a/pool
I0403 16:18:52.853402 20932 net.cpp:425] inception_5a/pool <- pool4/3x3_s2_pool4/3x3_s2_0_split_3
I0403 16:18:52.853423 20932 net.cpp:399] inception_5a/pool -> inception_5a/pool
I0403 16:18:52.853494 20932 net.cpp:141] Setting up inception_5a/pool
I0403 16:18:52.853518 20932 net.cpp:148] Top shape: 24 832 7 7 (978432)
I0403 16:18:52.853533 20932 net.cpp:156] Memory required for data: 1304469024
I0403 16:18:52.853548 20932 layer_factory.hpp:77] Creating layer inception_5a/pool_proj
I0403 16:18:52.853569 20932 net.cpp:91] Creating Layer inception_5a/pool_proj
I0403 16:18:52.853587 20932 net.cpp:425] inception_5a/pool_proj <- inception_5a/pool
I0403 16:18:52.853608 20932 net.cpp:399] inception_5a/pool_proj -> inception_5a/pool_proj
I0403 16:18:52.855970 20932 net.cpp:141] Setting up inception_5a/pool_proj
I0403 16:18:52.856003 20932 net.cpp:148] Top shape: 24 128 7 7 (150528)
I0403 16:18:52.856020 20932 net.cpp:156] Memory required for data: 1305071136
I0403 16:18:52.856040 20932 layer_factory.hpp:77] Creating layer inception_5a/relu_pool_proj
I0403 16:18:52.856066 20932 net.cpp:91] Creating Layer inception_5a/relu_pool_proj
I0403 16:18:52.856086 20932 net.cpp:425] inception_5a/relu_pool_proj <- inception_5a/pool_proj
I0403 16:18:52.856104 20932 net.cpp:386] inception_5a/relu_pool_proj -> inception_5a/pool_proj (in-place)
I0403 16:18:52.856415 20932 net.cpp:141] Setting up inception_5a/relu_pool_proj
I0403 16:18:52.856441 20932 net.cpp:148] Top shape: 24 128 7 7 (150528)
I0403 16:18:52.856456 20932 net.cpp:156] Memory required for data: 1305673248
I0403 16:18:52.856470 20932 layer_factory.hpp:77] Creating layer inception_5a/output
I0403 16:18:52.856488 20932 net.cpp:91] Creating Layer inception_5a/output
I0403 16:18:52.856503 20932 net.cpp:425] inception_5a/output <- inception_5a/1x1
I0403 16:18:52.856523 20932 net.cpp:425] inception_5a/output <- inception_5a/3x3
I0403 16:18:52.856539 20932 net.cpp:425] inception_5a/output <- inception_5a/5x5
I0403 16:18:52.856555 20932 net.cpp:425] inception_5a/output <- inception_5a/pool_proj
I0403 16:18:52.856571 20932 net.cpp:399] inception_5a/output -> inception_5a/output
I0403 16:18:52.856624 20932 net.cpp:141] Setting up inception_5a/output
I0403 16:18:52.856648 20932 net.cpp:148] Top shape: 24 832 7 7 (978432)
I0403 16:18:52.856662 20932 net.cpp:156] Memory required for data: 1309586976
I0403 16:18:52.856678 20932 layer_factory.hpp:77] Creating layer inception_5a/output_inception_5a/output_0_split
I0403 16:18:52.856694 20932 net.cpp:91] Creating Layer inception_5a/output_inception_5a/output_0_split
I0403 16:18:52.856709 20932 net.cpp:425] inception_5a/output_inception_5a/output_0_split <- inception_5a/output
I0403 16:18:52.856731 20932 net.cpp:399] inception_5a/output_inception_5a/output_0_split -> inception_5a/output_inception_5a/output_0_split_0
I0403 16:18:52.856752 20932 net.cpp:399] inception_5a/output_inception_5a/output_0_split -> inception_5a/output_inception_5a/output_0_split_1
I0403 16:18:52.856773 20932 net.cpp:399] inception_5a/output_inception_5a/output_0_split -> inception_5a/output_inception_5a/output_0_split_2
I0403 16:18:52.856793 20932 net.cpp:399] inception_5a/output_inception_5a/output_0_split -> inception_5a/output_inception_5a/output_0_split_3
I0403 16:18:52.856909 20932 net.cpp:141] Setting up inception_5a/output_inception_5a/output_0_split
I0403 16:18:52.856935 20932 net.cpp:148] Top shape: 24 832 7 7 (978432)
I0403 16:18:52.856952 20932 net.cpp:148] Top shape: 24 832 7 7 (978432)
I0403 16:18:52.856967 20932 net.cpp:148] Top shape: 24 832 7 7 (978432)
I0403 16:18:52.856982 20932 net.cpp:148] Top shape: 24 832 7 7 (978432)
I0403 16:18:52.856995 20932 net.cpp:156] Memory required for data: 1325241888
I0403 16:18:52.857009 20932 layer_factory.hpp:77] Creating layer inception_5b/1x1
I0403 16:18:52.857031 20932 net.cpp:91] Creating Layer inception_5b/1x1
I0403 16:18:52.857055 20932 net.cpp:425] inception_5b/1x1 <- inception_5a/output_inception_5a/output_0_split_0
I0403 16:18:52.857089 20932 net.cpp:399] inception_5b/1x1 -> inception_5b/1x1
I0403 16:18:52.861018 20932 net.cpp:141] Setting up inception_5b/1x1
I0403 16:18:52.861054 20932 net.cpp:148] Top shape: 24 384 7 7 (451584)
I0403 16:18:52.861073 20932 net.cpp:156] Memory required for data: 1327048224
I0403 16:18:52.861093 20932 layer_factory.hpp:77] Creating layer inception_5b/relu_1x1
I0403 16:18:52.861115 20932 net.cpp:91] Creating Layer inception_5b/relu_1x1
I0403 16:18:52.861134 20932 net.cpp:425] inception_5b/relu_1x1 <- inception_5b/1x1
I0403 16:18:52.861152 20932 net.cpp:386] inception_5b/relu_1x1 -> inception_5b/1x1 (in-place)
I0403 16:18:52.861467 20932 net.cpp:141] Setting up inception_5b/relu_1x1
I0403 16:18:52.861495 20932 net.cpp:148] Top shape: 24 384 7 7 (451584)
I0403 16:18:52.861511 20932 net.cpp:156] Memory required for data: 1328854560
I0403 16:18:52.861526 20932 layer_factory.hpp:77] Creating layer inception_5b/3x3_reduce
I0403 16:18:52.861548 20932 net.cpp:91] Creating Layer inception_5b/3x3_reduce
I0403 16:18:52.861567 20932 net.cpp:425] inception_5b/3x3_reduce <- inception_5a/output_inception_5a/output_0_split_1
I0403 16:18:52.861588 20932 net.cpp:399] inception_5b/3x3_reduce -> inception_5b/3x3_reduce
I0403 16:18:52.864338 20932 net.cpp:141] Setting up inception_5b/3x3_reduce
I0403 16:18:52.864370 20932 net.cpp:148] Top shape: 24 192 7 7 (225792)
I0403 16:18:52.864387 20932 net.cpp:156] Memory required for data: 1329757728
I0403 16:18:52.864405 20932 layer_factory.hpp:77] Creating layer inception_5b/relu_3x3_reduce
I0403 16:18:52.864428 20932 net.cpp:91] Creating Layer inception_5b/relu_3x3_reduce
I0403 16:18:52.864446 20932 net.cpp:425] inception_5b/relu_3x3_reduce <- inception_5b/3x3_reduce
I0403 16:18:52.864465 20932 net.cpp:386] inception_5b/relu_3x3_reduce -> inception_5b/3x3_reduce (in-place)
I0403 16:18:52.864661 20932 net.cpp:141] Setting up inception_5b/relu_3x3_reduce
I0403 16:18:52.864689 20932 net.cpp:148] Top shape: 24 192 7 7 (225792)
I0403 16:18:52.864704 20932 net.cpp:156] Memory required for data: 1330660896
I0403 16:18:52.864718 20932 layer_factory.hpp:77] Creating layer inception_5b/3x3
I0403 16:18:52.864742 20932 net.cpp:91] Creating Layer inception_5b/3x3
I0403 16:18:52.864759 20932 net.cpp:425] inception_5b/3x3 <- inception_5b/3x3_reduce
I0403 16:18:52.864778 20932 net.cpp:399] inception_5b/3x3 -> inception_5b/3x3
I0403 16:18:52.871676 20932 net.cpp:141] Setting up inception_5b/3x3
I0403 16:18:52.871706 20932 net.cpp:148] Top shape: 24 384 7 7 (451584)
I0403 16:18:52.871721 20932 net.cpp:156] Memory required for data: 1332467232
I0403 16:18:52.871739 20932 layer_factory.hpp:77] Creating layer inception_5b/relu_3x3
I0403 16:18:52.871759 20932 net.cpp:91] Creating Layer inception_5b/relu_3x3
I0403 16:18:52.871775 20932 net.cpp:425] inception_5b/relu_3x3 <- inception_5b/3x3
I0403 16:18:52.871793 20932 net.cpp:386] inception_5b/relu_3x3 -> inception_5b/3x3 (in-place)
I0403 16:18:52.872104 20932 net.cpp:141] Setting up inception_5b/relu_3x3
I0403 16:18:52.872130 20932 net.cpp:148] Top shape: 24 384 7 7 (451584)
I0403 16:18:52.872145 20932 net.cpp:156] Memory required for data: 1334273568
I0403 16:18:52.872159 20932 layer_factory.hpp:77] Creating layer inception_5b/5x5_reduce
I0403 16:18:52.872198 20932 net.cpp:91] Creating Layer inception_5b/5x5_reduce
I0403 16:18:52.872218 20932 net.cpp:425] inception_5b/5x5_reduce <- inception_5a/output_inception_5a/output_0_split_2
I0403 16:18:52.872241 20932 net.cpp:399] inception_5b/5x5_reduce -> inception_5b/5x5_reduce
I0403 16:18:52.873525 20932 net.cpp:141] Setting up inception_5b/5x5_reduce
I0403 16:18:52.873555 20932 net.cpp:148] Top shape: 24 48 7 7 (56448)
I0403 16:18:52.873570 20932 net.cpp:156] Memory required for data: 1334499360
I0403 16:18:52.873589 20932 layer_factory.hpp:77] Creating layer inception_5b/relu_5x5_reduce
I0403 16:18:52.873608 20932 net.cpp:91] Creating Layer inception_5b/relu_5x5_reduce
I0403 16:18:52.873626 20932 net.cpp:425] inception_5b/relu_5x5_reduce <- inception_5b/5x5_reduce
I0403 16:18:52.873644 20932 net.cpp:386] inception_5b/relu_5x5_reduce -> inception_5b/5x5_reduce (in-place)
I0403 16:18:52.874024 20932 net.cpp:141] Setting up inception_5b/relu_5x5_reduce
I0403 16:18:52.874054 20932 net.cpp:148] Top shape: 24 48 7 7 (56448)
I0403 16:18:52.874070 20932 net.cpp:156] Memory required for data: 1334725152
I0403 16:18:52.874084 20932 layer_factory.hpp:77] Creating layer inception_5b/5x5
I0403 16:18:52.874104 20932 net.cpp:91] Creating Layer inception_5b/5x5
I0403 16:18:52.874128 20932 net.cpp:425] inception_5b/5x5 <- inception_5b/5x5_reduce
I0403 16:18:52.874146 20932 net.cpp:399] inception_5b/5x5 -> inception_5b/5x5
I0403 16:18:52.876266 20932 net.cpp:141] Setting up inception_5b/5x5
I0403 16:18:52.876294 20932 net.cpp:148] Top shape: 24 128 7 7 (150528)
I0403 16:18:52.876310 20932 net.cpp:156] Memory required for data: 1335327264
I0403 16:18:52.876329 20932 layer_factory.hpp:77] Creating layer inception_5b/relu_5x5
I0403 16:18:52.876350 20932 net.cpp:91] Creating Layer inception_5b/relu_5x5
I0403 16:18:52.876369 20932 net.cpp:425] inception_5b/relu_5x5 <- inception_5b/5x5
I0403 16:18:52.876387 20932 net.cpp:386] inception_5b/relu_5x5 -> inception_5b/5x5 (in-place)
I0403 16:18:52.876600 20932 net.cpp:141] Setting up inception_5b/relu_5x5
I0403 16:18:52.876623 20932 net.cpp:148] Top shape: 24 128 7 7 (150528)
I0403 16:18:52.876637 20932 net.cpp:156] Memory required for data: 1335929376
I0403 16:18:52.876652 20932 layer_factory.hpp:77] Creating layer inception_5b/pool
I0403 16:18:52.876668 20932 net.cpp:91] Creating Layer inception_5b/pool
I0403 16:18:52.876683 20932 net.cpp:425] inception_5b/pool <- inception_5a/output_inception_5a/output_0_split_3
I0403 16:18:52.876703 20932 net.cpp:399] inception_5b/pool -> inception_5b/pool
I0403 16:18:52.876775 20932 net.cpp:141] Setting up inception_5b/pool
I0403 16:18:52.876798 20932 net.cpp:148] Top shape: 24 832 7 7 (978432)
I0403 16:18:52.876812 20932 net.cpp:156] Memory required for data: 1339843104
I0403 16:18:52.876827 20932 layer_factory.hpp:77] Creating layer inception_5b/pool_proj
I0403 16:18:52.876849 20932 net.cpp:91] Creating Layer inception_5b/pool_proj
I0403 16:18:52.876866 20932 net.cpp:425] inception_5b/pool_proj <- inception_5b/pool
I0403 16:18:52.876884 20932 net.cpp:399] inception_5b/pool_proj -> inception_5b/pool_proj
I0403 16:18:52.879212 20932 net.cpp:141] Setting up inception_5b/pool_proj
I0403 16:18:52.879243 20932 net.cpp:148] Top shape: 24 128 7 7 (150528)
I0403 16:18:52.879259 20932 net.cpp:156] Memory required for data: 1340445216
I0403 16:18:52.879278 20932 layer_factory.hpp:77] Creating layer inception_5b/relu_pool_proj
I0403 16:18:52.879298 20932 net.cpp:91] Creating Layer inception_5b/relu_pool_proj
I0403 16:18:52.879314 20932 net.cpp:425] inception_5b/relu_pool_proj <- inception_5b/pool_proj
I0403 16:18:52.879331 20932 net.cpp:386] inception_5b/relu_pool_proj -> inception_5b/pool_proj (in-place)
I0403 16:18:52.879629 20932 net.cpp:141] Setting up inception_5b/relu_pool_proj
I0403 16:18:52.879657 20932 net.cpp:148] Top shape: 24 128 7 7 (150528)
I0403 16:18:52.879670 20932 net.cpp:156] Memory required for data: 1341047328
I0403 16:18:52.879685 20932 layer_factory.hpp:77] Creating layer inception_5b/output
I0403 16:18:52.879705 20932 net.cpp:91] Creating Layer inception_5b/output
I0403 16:18:52.879735 20932 net.cpp:425] inception_5b/output <- inception_5b/1x1
I0403 16:18:52.879752 20932 net.cpp:425] inception_5b/output <- inception_5b/3x3
I0403 16:18:52.879768 20932 net.cpp:425] inception_5b/output <- inception_5b/5x5
I0403 16:18:52.879783 20932 net.cpp:425] inception_5b/output <- inception_5b/pool_proj
I0403 16:18:52.879801 20932 net.cpp:399] inception_5b/output -> inception_5b/output
I0403 16:18:52.879853 20932 net.cpp:141] Setting up inception_5b/output
I0403 16:18:52.879876 20932 net.cpp:148] Top shape: 24 1024 7 7 (1204224)
I0403 16:18:52.879890 20932 net.cpp:156] Memory required for data: 1345864224
I0403 16:18:52.879904 20932 layer_factory.hpp:77] Creating layer pool5/7x7_s1
I0403 16:18:52.879921 20932 net.cpp:91] Creating Layer pool5/7x7_s1
I0403 16:18:52.879936 20932 net.cpp:425] pool5/7x7_s1 <- inception_5b/output
I0403 16:18:52.879958 20932 net.cpp:399] pool5/7x7_s1 -> pool5/7x7_s1
I0403 16:18:52.880182 20932 net.cpp:141] Setting up pool5/7x7_s1
I0403 16:18:52.880208 20932 net.cpp:148] Top shape: 24 1024 1 1 (24576)
I0403 16:18:52.880223 20932 net.cpp:156] Memory required for data: 1345962528
I0403 16:18:52.880237 20932 layer_factory.hpp:77] Creating layer pool5/drop_7x7_s1
I0403 16:18:52.880255 20932 net.cpp:91] Creating Layer pool5/drop_7x7_s1
I0403 16:18:52.880270 20932 net.cpp:425] pool5/drop_7x7_s1 <- pool5/7x7_s1
I0403 16:18:52.880287 20932 net.cpp:386] pool5/drop_7x7_s1 -> pool5/7x7_s1 (in-place)
I0403 16:18:52.880338 20932 net.cpp:141] Setting up pool5/drop_7x7_s1
I0403 16:18:52.880362 20932 net.cpp:148] Top shape: 24 1024 1 1 (24576)
I0403 16:18:52.880374 20932 net.cpp:156] Memory required for data: 1346060832
I0403 16:18:52.880388 20932 layer_factory.hpp:77] Creating layer loss3/classifier_plantvillage
I0403 16:18:52.880409 20932 net.cpp:91] Creating Layer loss3/classifier_plantvillage
I0403 16:18:52.880425 20932 net.cpp:425] loss3/classifier_plantvillage <- pool5/7x7_s1
I0403 16:18:52.880444 20932 net.cpp:399] loss3/classifier_plantvillage -> loss3/classifier_plantvillage
I0403 16:18:52.880868 20932 net.cpp:141] Setting up loss3/classifier_plantvillage
I0403 16:18:52.880892 20932 net.cpp:148] Top shape: 24 38 (912)
I0403 16:18:52.880906 20932 net.cpp:156] Memory required for data: 1346064480
I0403 16:18:52.880923 20932 layer_factory.hpp:77] Creating layer loss3/classifier_plantvillage_loss3/classifier_plantvillage_0_split
I0403 16:18:52.880940 20932 net.cpp:91] Creating Layer loss3/classifier_plantvillage_loss3/classifier_plantvillage_0_split
I0403 16:18:52.880955 20932 net.cpp:425] loss3/classifier_plantvillage_loss3/classifier_plantvillage_0_split <- loss3/classifier_plantvillage
I0403 16:18:52.880975 20932 net.cpp:399] loss3/classifier_plantvillage_loss3/classifier_plantvillage_0_split -> loss3/classifier_plantvillage_loss3/classifier_plantvillage_0_split_0
I0403 16:18:52.880995 20932 net.cpp:399] loss3/classifier_plantvillage_loss3/classifier_plantvillage_0_split -> loss3/classifier_plantvillage_loss3/classifier_plantvillage_0_split_1
I0403 16:18:52.881016 20932 net.cpp:399] loss3/classifier_plantvillage_loss3/classifier_plantvillage_0_split -> loss3/classifier_plantvillage_loss3/classifier_plantvillage_0_split_2
I0403 16:18:52.881036 20932 net.cpp:399] loss3/classifier_plantvillage_loss3/classifier_plantvillage_0_split -> loss3/classifier_plantvillage_loss3/classifier_plantvillage_0_split_3
I0403 16:18:52.881142 20932 net.cpp:141] Setting up loss3/classifier_plantvillage_loss3/classifier_plantvillage_0_split
I0403 16:18:52.881167 20932 net.cpp:148] Top shape: 24 38 (912)
I0403 16:18:52.881183 20932 net.cpp:148] Top shape: 24 38 (912)
I0403 16:18:52.881198 20932 net.cpp:148] Top shape: 24 38 (912)
I0403 16:18:52.881212 20932 net.cpp:148] Top shape: 24 38 (912)
I0403 16:18:52.881225 20932 net.cpp:156] Memory required for data: 1346079072
I0403 16:18:52.881239 20932 layer_factory.hpp:77] Creating layer loss1/loss
I0403 16:18:52.881259 20932 net.cpp:91] Creating Layer loss1/loss
I0403 16:18:52.881275 20932 net.cpp:425] loss1/loss <- loss1/classifier_plantvillage_loss1/classifier_plantvillage_0_split_0
I0403 16:18:52.881305 20932 net.cpp:425] loss1/loss <- label_data_1_split_0
…
