…
I0403 15:54:03.566573 20510 net.cpp:313] The NetState phase (1) differed from the phase (0) specified by a rule in layer data
I0403 15:54:03.567746 20510 net.cpp:49] Initializing net from parameters: 
state {
  phase: TEST
}
layer {
  name: "data"
  type: "Data"
  top: "data"
  top: "label"
  include {
    phase: TEST
  }
  transform_param {
    mirror: false
    crop_size: 224
    mean_file: "/home/mohanty/data/final_dataset/lmdb/grayscale-20-80/mean.binaryproto"
  }
  data_param {
    source: "/home/mohanty/data/final_dataset/lmdb/grayscale-20-80/test_db"
    batch_size: 24
    backend: LMDB
  }
}
layer {
  name: "conv1/7x7_s2"
  type: "Convolution"
  bottom: "data"
  top: "conv1/7x7_s2"
  param {
    lr_mult: 1
    decay_mult: 1
  }
  param {
    lr_mult: 2
    decay_mult: 0
  }
  convolution_param {
    num_output: 64
    pad: 3
    kernel_size: 7
    stride: 2
    weight_filler {
      type: "xavier"
      std: 0.1
    }
    bias_filler {
      type: "constant"
      value: 0.2
    }
  }
}
layer {
  name: "conv1/relu_7x7"
  type: "ReLU"
  bottom: "conv1/7x7_s2"
  top: "conv1/7x7_s2"
}
layer {
  name: "pool1/3x3_s2"
  type: "Pooling"
  bottom: "conv1/7x7_s2"
  top: "pool1/3x3_s2"
  pooling_param {
    pool: MAX
    kernel_size: 3
    stride: 2
  }
}
layer {
  name: "pool1/norm1"
  type: "LRN"
  bottom: "pool1/3x3_s2"
  top: "pool1/norm1"
  lrn_param {
    local_size: 5
    alpha: 0.0001
    beta: 0.75
  }
}
layer {
  name: "conv2/3x3_reduce"
  type: "Convolution"
  bottom: "pool1/norm1"
  top: "conv2/3x3_reduce"
  param {
    lr_mult: 1
    decay_mult: 1
  }
  param {
    lr_mult: 2
    decay_mult: 0
  }
  convolution_param {
    num_output: 64
    kernel_size: 1
    weight_filler {
      type: "xavier"
      std: 0.1
    }
    bias_filler {
      type: "constant"
      value: 0.2
    }
  }
}
layer {
  name: "conv2/relu_3x3_reduce"
  type: "ReLU"
  bottom: "conv2/3x3_reduce"
  top: "conv2/3x3_reduce"
}
layer {
  name: "conv2/3x3"
  type: "Convolution"
  bottom: "conv2/3x3_reduce"
  top: "conv2/3x3"
  param {
    lr_mult: 1
    decay_mult: 1
  }
  param {
    lr_mult: 2
    decay_mult: 0
  }
  convolution_param {
    num_output: 192
    pad: 1
    kernel_size: 3
    weight_filler {
      type: "xavier"
      std: 0.03
    }
    bias_filler {
      type: "constant"
      value: 0.2
    }
  }
}
layer {
  name: "conv2/relu_3x3"
  type: "ReLU"
  bottom: "conv2/3x3"
  top: "conv2/3x3"
}
layer {
  name: "conv2/norm2"
  type: "LRN"
  bottom: "conv2/3x3"
  top: "conv2/norm2"
  lrn_param {
    local_size: 5
    alpha: 0.0001
    beta: 0.75
  }
}
layer {
  name: "pool2/3x3_s2"
  type: "Pooling"
  bottom: "conv2/norm2"
  top: "pool2/3x3_s2"
  pooling_param {
    pool: MAX
    kernel_size: 3
    stride: 2
  }
}
layer {
  name: "inception_3a/1x1"
  type: "Convolution"
  bottom: "pool2/3x3_s2"
  top: "inception_3a/1x1"
  param {
    lr_mult: 1
    decay_mult: 1
  }
  param {
    lr_mult: 2
    decay_mult: 0
  }
  convolution_param {
    num_output: 64
    kernel_size: 1
    weight_filler {
      type: "xavier"
      std: 0.03
    }
    bias_filler {
      type: "constant"
      value: 0.2
    }
  }
}
layer {
  name: "inception_3a/relu_1x1"
  type: "ReLU"
  bottom: "inception_3a/1x1"
  top: "inception_3a/1x1"
}
layer {
  name: "inception_3a/3x3_reduce"
  type: "Convolution"
  bottom: "pool2/3x3_s2"
  top: "inception_3a/3x3_reduce"
  param {
    lr_mult: 1
    decay_mult: 1
  }
  param {
    lr_mult: 2
    decay_mult: 0
  }
  convolution_param {
    num_output: 96
    kernel_size: 1
    weight_filler {
      type: "xavier"
      std: 0.09
    }
    bias_filler {
      type: "constant"
      value: 0.2
    }
  }
}
layer {
  name: "inception_3a/relu_3x3_reduce"
  type: "ReLU"
  bottom: "inception_3a/3x3_reduce"
  top: "inception_3a/3x3_reduce"
}
layer {
  name: "inception_3a/3x3"
  type: "Convolution"
  bottom: "inception_3a/3x3_reduce"
  top: "inception_3a/3x3"
  param {
    lr_mult: 1
    decay_mult: 1
  }
  param {
    lr_mult: 2
    decay_mult: 0
  }
  convolution_param {
    num_output: 128
    pad: 1
    kernel_size: 3
    weight_filler {
      type: "xavier"
      std: 0.03
    }
    bias_filler {
      type: "constant"
      value: 0.2
    }
  }
}
layer {
  name: "inception_3a/relu_3x3"
  type: "ReLU"
  bottom: "inception_3a/3x3"
  top: "inception_3a/3x3"
}
layer {
  name: "inception_3a/5x5_reduce"
  type: "Convolution"
  bottom: "pool2/3x3_s2"
  top: "inception_3a/5x5_reduce"
  param {
    lr_mult: 1
    decay_mult: 1
  }
  param {
    lr_mult: 2
    decay_mult: 0
  }
  convolution_param {
    num_output: 16
    kernel_size: 1
    weight_filler {
      type: "xavier"
      std: 0.2
    }
    bias_filler {
      type: "constant"
      value: 0.2
    }
  }
}
layer {
  name: "inception_3a/relu_5x5_reduce"
  type: "ReLU"
  bottom: "inception_3a/5x5_reduce"
  top: "inception_3a/5x5_reduce"
}
layer {
  name: "inception_3a/5x5"
  type: "Convolution"
  bottom: "inception_3a/5x5_reduce"
  top: "inception_3a/5x5"
  param {
    lr_mult: 1
    decay_mult: 1
  }
  param {
    lr_mult: 2
    decay_mult: 0
  }
  convolution_param {
    num_output: 32
    pad: 2
    kernel_size: 5
    weight_filler {
      type: "xavier"
      std: 0.03
    }
    bias_filler {
      type: "constant"
      value: 0.2
    }
  }
}
layer {
  name: "inception_3a/relu_5x5"
  type: "ReLU"
  bottom: "inception_3a/5x5"
  top: "inception_3a/5x5"
}
layer {
  name: "inception_3a/pool"
  type: "Pooling"
  bottom: "pool2/3x3_s2"
  top: "inception_3a/pool"
  pooling_param {
    pool: MAX
    kernel_size: 3
    stride: 1
    pad: 1
  }
}
layer {
  name: "inception_3a/pool_proj"
  type: "Convolution"
  bottom: "inception_3a/pool"
  top: "inception_3a/pool_proj"
  param {
    lr_mult: 1
    decay_mult: 1
  }
  param {
    lr_mult: 2
    decay_mult: 0
  }
  convolution_param {
    num_output: 32
    kernel_size: 1
    weight_filler {
      type: "xavier"
      std: 0.1
    }
    bias_filler {
      type: "constant"
      value: 0.2
    }
  }
}
layer {
  name: "inception_3a/relu_pool_proj"
  type: "ReLU"
  bottom: "inception_3a/pool_proj"
  top: "inception_3a/pool_proj"
}
layer {
  name: "inception_3a/output"
  type: "Concat"
  bottom: "inception_3a/1x1"
  bottom: "inception_3a/3x3"
  bottom: "inception_3a/5x5"
  bottom: "inception_3a/pool_proj"
  top: "inception_3a/output"
}
layer {
  name: "inception_3b/1x1"
  type: "Convolution"
  bottom: "inception_3a/output"
  top: "inception_3b/1x1"
  param {
    lr_mult: 1
    decay_mult: 1
  }
  param {
    lr_mult: 2
    decay_mult: 0
  }
  convolution_param {
    num_output: 128
    kernel_size: 1
    weight_filler {
      type: "xavier"
      std: 0.03
    }
    bias_filler {
      type: "constant"
      value: 0.2
    }
  }
}
layer {
  name: "inception_3b/relu_1x1"
  type: "ReLU"
  bottom: "inception_3b/1x1"
  top: "inception_3b/1x1"
}
layer {
  name: "inception_3b/3x3_reduce"
  type: "Convolution"
  bottom: "inception_3a/output"
  top: "inception_3b/3x3_reduce"
  param {
    lr_mult: 1
    decay_mult: 1
  }
  param {
    lr_mult: 2
    decay_mult: 0
  }
  convolution_param {
    num_output: 128
    kernel_size: 1
    weight_filler {
      type: "xavier"
      std: 0.09
    }
    bias_filler {
      type: "constant"
      value: 0.2
    }
  }
}
layer {
  name: "inception_3b/relu_3x3_reduce"
  type: "ReLU"
  bottom: "inception_3b/3x3_reduce"
  top: "inception_3b/3x3_reduce"
}
layer {
  name: "inception_3b/3x3"
  type: "Convolution"
  bottom: "inception_3b/3x3_reduce"
  top: "inception_3b/3x3"
  param {
    lr_mult: 1
    decay_mult: 1
  }
  param {
    lr_mult: 2
    decay_mult: 0
  }
  convolution_param {
    num_output: 192
    pad: 1
    kernel_size: 3
    weight_filler {
      type: "xavier"
      std: 0.03
    }
    bias_filler {
      type: "constant"
      value: 0.2
    }
  }
}
layer {
  name: "inception_3b/relu_3x3"
  type: "ReLU"
  bottom: "inception_3b/3x3"
  top: "inception_3b/3x3"
}
layer {
  name: "inception_3b/5x5_reduce"
  type: "Convolution"
  bottom: "inception_3a/output"
  top: "inception_3b/5x5_reduce"
  param {
    lr_mult: 1
    decay_mult: 1
  }
  param {
    lr_mult: 2
    decay_mult: 0
  }
  convolution_param {
    num_output: 32
    kernel_size: 1
    weight_filler {
      type: "xavier"
      std: 0.2
    }
    bias_filler {
      type: "constant"
      value: 0.2
    }
  }
}
layer {
  name: "inception_3b/relu_5x5_reduce"
  type: "ReLU"
  bottom: "inception_3b/5x5_reduce"
  top: "inception_3b/5x5_reduce"
}
layer {
  name: "inception_3b/5x5"
  type: "Convolution"
  bottom: "inception_3b/5x5_reduce"
  top: "inception_3b/5x5"
  param {
    lr_mult: 1
    decay_mult: 1
  }
  param {
    lr_mult: 2
    decay_mult: 0
  }
  convolution_param {
    num_output: 96
    pad: 2
    kernel_size: 5
    weight_filler {
      type: "xavier"
      std: 0.03
    }
    bias_filler {
      type: "constant"
      value: 0.2
    }
  }
}
layer {
  name: "inception_3b/relu_5x5"
  type: "ReLU"
  bottom: "inception_3b/5x5"
  top: "inception_3b/5x5"
}
layer {
  name: "inception_3b/pool"
  type: "Pooling"
  bottom: "inception_3a/output"
  top: "inception_3b/pool"
  pooling_param {
    pool: MAX
    kernel_size: 3
    stride: 1
    pad: 1
  }
}
layer {
  name: "inception_3b/pool_proj"
  type: "Convolution"
  bottom: "inception_3b/pool"
  top: "inception_3b/pool_proj"
  param {
    lr_mult: 1
    decay_mult: 1
  }
  param {
    lr_mult: 2
    decay_mult: 0
  }
  convolution_param {
    num_output: 64
    kernel_size: 1
    weight_filler {
      type: "xavier"
      std: 0.1
    }
    bias_filler {
      type: "constant"
      value: 0.2
    }
  }
}
layer {
  name: "inception_3b/relu_pool_proj"
  type: "ReLU"
  bottom: "inception_3b/pool_proj"
  top: "inception_3b/pool_proj"
}
layer {
  name: "inception_3b/output"
  type: "Concat"
  bottom: "inception_3b/1x1"
  bottom: "inception_3b/3x3"
  bottom: "inception_3b/5x5"
  bottom: "inception_3b/pool_proj"
  top: "inception_3b/output"
}
layer {
  name: "pool3/3x3_s2"
  type: "Pooling"
  bottom: "inception_3b/output"
  top: "pool3/3x3_s2"
  pooling_param {
    pool: MAX
    kernel_size: 3
    stride: 2
  }
}
layer {
  name: "inception_4a/1x1"
  type: "Convolution"
  bottom: "pool3/3x3_s2"
  top: "inception_4a/1x1"
  param {
    lr_mult: 1
    decay_mult: 1
  }
  param {
    lr_mult: 2
    decay_mult: 0
  }
  convolution_param {
    num_output: 192
    kernel_size: 1
    weight_filler {
      type: "xavier"
      std: 0.03
    }
    bias_filler {
      type: "constant"
      value: 0.2
    }
  }
}
layer {
  name: "inception_4a/relu_1x1"
  type: "ReLU"
  bottom: "inception_4a/1x1"
  top: "inception_4a/1x1"
}
layer {
  name: "inception_4a/3x3_reduce"
  type: "Convolution"
  bottom: "pool3/3x3_s2"
  top: "inception_4a/3x3_reduce"
  param {
    lr_mult: 1
    decay_mult: 1
  }
  param {
    lr_mult: 2
    decay_mult: 0
  }
  convolution_param {
    num_output: 96
    kernel_size: 1
    weight_filler {
      type: "xavier"
      std: 0.09
    }
    bias_filler {
      type: "constant"
      value: 0.2
    }
  }
}
layer {
  name: "inception_4a/relu_3x3_reduce"
  type: "ReLU"
  bottom: "inception_4a/3x3_reduce"
  top: "inception_4a/3x3_reduce"
}
layer {
  name: "inception_4a/3x3"
  type: "Convolution"
  bottom: "inception_4a/3x3_reduce"
  top: "inception_4a/3x3"
  param {
    lr_mult: 1
    decay_mult: 1
  }
  param {
    lr_mult: 2
    decay_mult: 0
  }
  convolution_param {
    num_output: 208
    pad: 1
    kernel_size: 3
    weight_filler {
      type: "xavier"
      std: 0.03
    }
    bias_filler {
      type: "constant"
      value: 0.2
    }
  }
}
layer {
  name: "inception_4a/relu_3x3"
  type: "ReLU"
  bottom: "inception_4a/3x3"
  top: "inception_4a/3x3"
}
layer {
  name: "inception_4a/5x5_reduce"
  type: "Convolution"
  bottom: "pool3/3x3_s2"
  top: "inception_4a/5x5_reduce"
  param {
    lr_mult: 1
    decay_mult: 1
  }
  param {
    lr_mult: 2
    decay_mult: 0
  }
  convolution_param {
    num_output: 16
    kernel_size: 1
    weight_filler {
      type: "xavier"
      std: 0.2
    }
    bias_filler {
      type: "constant"
      value: 0.2
    }
  }
}
layer {
  name: "inception_4a/relu_5x5_reduce"
  type: "ReLU"
  bottom: "inception_4a/5x5_reduce"
  top: "inception_4a/5x5_reduce"
}
layer {
  name: "inception_4a/5x5"
  type: "Convolution"
  bottom: "inception_4a/5x5_reduce"
  top: "inception_4a/5x5"
  param {
    lr_mult: 1
    decay_mult: 1
  }
  param {
    lr_mult: 2
    decay_mult: 0
  }
  convolution_param {
    num_output: 48
    pad: 2
    kernel_size: 5
    weight_filler {
      type: "xavier"
      std: 0.03
    }
    bias_filler {
      type: "constant"
      value: 0.2
    }
  }
}
layer {
  name: "inception_4a/relu_5x5"
  type: "ReLU"
  bottom: "inception_4a/5x5"
  top: "inception_4a/5x5"
}
layer {
  name: "inception_4a/pool"
  type: "Pooling"
  bottom: "pool3/3x3_s2"
  top: "inception_4a/pool"
  pooling_param {
    pool: MAX
    kernel_size: 3
    stride: 1
    pad: 1
  }
}
layer {
  name: "inception_4a/pool_proj"
  type: "Convolution"
  bottom: "inception_4a/pool"
  top: "inception_4a/pool_proj"
  param {
    lr_mult: 1
    decay_mult: 1
  }
  param {
    lr_mult: 2
    decay_mult: 0
  }
  convolution_param {
    num_output: 64
    kernel_size: 1
    weight_filler {
      type: "xavier"
      std: 0.1
    }
    bias_filler {
      type: "constant"
      value: 0.2
    }
  }
}
layer {
  name: "inception_4a/relu_pool_proj"
  type: "ReLU"
  bottom: "inception_4a/pool_proj"
  top: "inception_4a/pool_proj"
}
layer {
  name: "inception_4a/output"
  type: "Concat"
  bottom: "inception_4a/1x1"
  bottom: "inception_4a/3x3"
  bottom: "inception_4a/5x5"
  bottom: "inception_4a/pool_proj"
  top: "inception_4a/output"
}
layer {
  name: "loss1/ave_pool"
  type: "Pooling"
  bottom: "inception_4a/output"
  top: "loss1/ave_pool"
  pooling_param {
    pool: AVE
    kernel_size: 5
    stride: 3
  }
}
layer {
  name: "loss1/conv"
  type: "Convolution"
  bottom: "loss1/ave_pool"
  top: "loss1/conv"
  param {
    lr_mult: 1
    decay_mult: 1
  }
  param {
    lr_mult: 2
    decay_mult: 0
  }
  convolution_param {
    num_output: 128
    kernel_size: 1
    weight_filler {
      type: "xavier"
      std: 0.08
    }
    bias_filler {
      type: "constant"
      value: 0.2
    }
  }
}
layer {
  name: "loss1/relu_conv"
  type: "ReLU"
  bottom: "loss1/conv"
  top: "loss1/conv"
}
layer {
  name: "loss1/fc"
  type: "InnerProduct"
  bottom: "loss1/conv"
  top: "loss1/fc"
  param {
    lr_mult: 1
    decay_mult: 1
  }
  param {
    lr_mult: 2
    decay_mult: 0
  }
  inner_product_param {
    num_output: 1024
    weight_filler {
      type: "xavier"
      std: 0.02
    }
    bias_filler {
      type: "constant"
      value: 0.2
    }
  }
}
layer {
  name: "loss1/relu_fc"
  type: "ReLU"
  bottom: "loss1/fc"
  top: "loss1/fc"
}
layer {
  name: "loss1/drop_fc"
  type: "Dropout"
  bottom: "loss1/fc"
  top: "loss1/fc"
  dropout_param {
    dropout_ratio: 0.7
  }
}
layer {
  name: "loss1/classifier_plantvillage"
  type: "InnerProduct"
  bottom: "loss1/fc"
  top: "loss1/classifier_plantvillage"
  param {
    lr_mult: 1
    decay_mult: 1
  }
  param {
    lr_mult: 2
    decay_mult: 0
  }
  inner_product_param {
    num_output: 38
    weight_filler {
      type: "xavier"
      std: 0.0009765625
    }
    bias_filler {
      type: "constant"
      value: 0
    }
  }
}
layer {
  name: "inception_4b/1x1"
  type: "Convolution"
  bottom: "inception_4a/output"
  top: "inception_4b/1x1"
  param {
    lr_mult: 1
    decay_mult: 1
  }
  param {
    lr_mult: 2
    decay_mult: 0
  }
  convolution_param {
    num_output: 160
    kernel_size: 1
    weight_filler {
      type: "xavier"
      std: 0.03
    }
    bias_filler {
      type: "constant"
      value: 0.2
    }
  }
}
layer {
  name: "inception_4b/relu_1x1"
  type: "ReLU"
  bottom: "inception_4b/1x1"
  top: "inception_4b/1x1"
}
layer {
  name: "inception_4b/3x3_reduce"
  type: "Convolution"
  bottom: "inception_4a/output"
  top: "inception_4b/3x3_reduce"
  param {
    lr_mult: 1
    decay_mult: 1
  }
  param {
    lr_mult: 2
    decay_mult: 0
  }
  convolution_param {
    num_output: 112
    kernel_size: 1
    weight_filler {
      type: "xavier"
      std: 0.09
    }
    bias_filler {
      type: "constant"
      value: 0.2
    }
  }
}
layer {
  name: "inception_4b/relu_3x3_reduce"
  type: "ReLU"
  bottom: "inception_4b/3x3_reduce"
  top: "inception_4b/3x3_reduce"
}
layer {
  name: "inception_4b/3x3"
  type: "Convolution"
  bottom: "inception_4b/3x3_reduce"
  top: "inception_4b/3x3"
  param {
    lr_mult: 1
    decay_mult: 1
  }
  param {
    lr_mult: 2
    decay_mult: 0
  }
  convolution_param {
    num_output: 224
    pad: 1
    kernel_size: 3
    weight_filler {
      type: "xavier"
      std: 0.03
    }
    bias_filler {
      type: "constant"
      value: 0.2
    }
  }
}
layer {
  name: "inception_4b/relu_3x3"
  type: "ReLU"
  bottom: "inception_4b/3x3"
  top: "inception_4b/3x3"
}
layer {
  name: "inception_4b/5x5_reduce"
  type: "Convolution"
  bottom: "inception_4a/output"
  top: "inception_4b/5x5_reduce"
  param {
    lr_mult: 1
    decay_mult: 1
  }
  param {
    lr_mult: 2
    decay_mult: 0
  }
  convolution_param {
    num_output: 24
    kernel_size: 1
    weight_filler {
      type: "xavier"
      std: 0.2
    }
    bias_filler {
      type: "constant"
      value: 0.2
    }
  }
}
layer {
  name: "inception_4b/relu_5x5_reduce"
  type: "ReLU"
  bottom: "inception_4b/5x5_reduce"
  top: "inception_4b/5x5_reduce"
}
layer {
  name: "inception_4b/5x5"
  type: "Convolution"
  bottom: "inception_4b/5x5_reduce"
  top: "inception_4b/5x5"
  param {
    lr_mult: 1
    decay_mult: 1
  }
  param {
    lr_mult: 2
    decay_mult: 0
  }
  convolution_param {
    num_output: 64
    pad: 2
    kernel_size: 5
    weight_filler {
      type: "xavier"
      std: 0.03
    }
    bias_filler {
      type: "constant"
      value: 0.2
    }
  }
}
layer {
  name: "inception_4b/relu_5x5"
  type: "ReLU"
  bottom: "inception_4b/5x5"
  top: "inception_4b/5x5"
}
layer {
  name: "inception_4b/pool"
  type: "Pooling"
  bottom: "inception_4a/output"
  top: "inception_4b/pool"
  pooling_param {
    pool: MAX
    kernel_size: 3
    stride: 1
    pad: 1
  }
}
layer {
  name: "inception_4b/pool_proj"
  type: "Convolution"
  bottom: "inception_4b/pool"
  top: "inception_4b/pool_proj"
  param {
    lr_mult: 1
    decay_mult: 1
  }
  param {
    lr_mult: 2
    decay_mult: 0
  }
  convolution_param {
    num_output: 64
    kernel_size: 1
    weight_filler {
      type: "xavier"
      std: 0.1
    }
    bias_filler {
      type: "constant"
      value: 0.2
    }
  }
}
layer {
  name: "inception_4b/relu_pool_proj"
  type: "ReLU"
  bottom: "inception_4b/pool_proj"
  top: "inception_4b/pool_proj"
}
layer {
  name: "inception_4b/output"
  type: "Concat"
  bottom: "inception_4b/1x1"
  bottom: "inception_4b/3x3"
  bottom: "inception_4b/5x5"
  bottom: "inception_4b/pool_proj"
  top: "inception_4b/output"
}
layer {
  name: "inception_4c/1x1"
  type: "Convolution"
  bottom: "inception_4b/output"
  top: "inception_4c/1x1"
  param {
    lr_mult: 1
    decay_mult: 1
  }
  param {
    lr_mult: 2
    decay_mult: 0
  }
  convolution_param {
    num_output: 128
    kernel_size: 1
    weight_filler {
      type: "xavier"
      std: 0.03
    }
    bias_filler {
      type: "constant"
      value: 0.2
    }
  }
}
layer {
  name: "inception_4c/relu_1x1"
  type: "ReLU"
  bottom: "inception_4c/1x1"
  top: "inception_4c/1x1"
}
layer {
  name: "inception_4c/3x3_reduce"
  type: "Convolution"
  bottom: "inception_4b/output"
  top: "inception_4c/3x3_reduce"
  param {
    lr_mult: 1
    decay_mult: 1
  }
  param {
    lr_mult: 2
    decay_mult: 0
  }
  convolution_param {
    num_output: 128
    kernel_size: 1
    weight_filler {
      type: "xavier"
      std: 0.09
    }
    bias_filler {
      type: "constant"
      value: 0.2
    }
  }
}
layer {
  name: "inception_4c/relu_3x3_reduce"
  type: "ReLU"
  bottom: "inception_4c/3x3_reduce"
  top: "inception_4c/3x3_reduce"
}
layer {
  name: "inception_4c/3x3"
  type: "Convolution"
  bottom: "inception_4c/3x3_reduce"
  top: "inception_4c/3x3"
  param {
    lr_mult: 1
    decay_mult: 1
  }
  param {
    lr_mult: 2
    decay_mult: 0
  }
  convolution_param {
    num_output: 256
    pad: 1
    kernel_size: 3
    weight_filler {
      type: "xavier"
      std: 0.03
    }
    bias_filler {
      type: "constant"
      value: 0.2
    }
  }
}
layer {
  name: "inception_4c/relu_3x3"
  type: "ReLU"
  bottom: "inception_4c/3x3"
  top: "inception_4c/3x3"
}
layer {
  name: "inception_4c/5x5_reduce"
  type: "Convolution"
  bottom: "inception_4b/output"
  top: "inception_4c/5x5_reduce"
  param {
    lr_mult: 1
    decay_mult: 1
  }
  param {
    lr_mult: 2
    decay_mult: 0
  }
  convolution_param {
    num_output: 24
    kernel_size: 1
    weight_filler {
      type: "xavier"
      std: 0.2
    }
    bias_filler {
      type: "constant"
      value: 0.2
    }
  }
}
layer {
  name: "inception_4c/relu_5x5_reduce"
  type: "ReLU"
  bottom: "inception_4c/5x5_reduce"
  top: "inception_4c/5x5_reduce"
}
layer {
  name: "inception_4c/5x5"
  type: "Convolution"
  bottom: "inception_4c/5x5_reduce"
  top: "inception_4c/5x5"
  param {
    lr_mult: 1
    decay_mult: 1
  }
  param {
    lr_mult: 2
    decay_mult: 0
  }
  convolution_param {
    num_output: 64
    pad: 2
    kernel_size: 5
    weight_filler {
      type: "xavier"
      std: 0.03
    }
    bias_filler {
      type: "constant"
      value: 0.2
    }
  }
}
layer {
  name: "inception_4c/relu_5x5"
  type: "ReLU"
  bottom: "inception_4c/5x5"
  top: "inception_4c/5x5"
}
layer {
  name: "inception_4c/pool"
  type: "Pooling"
  bottom: "inception_4b/output"
  top: "inception_4c/pool"
  pooling_param {
    pool: MAX
    kernel_size: 3
    stride: 1
    pad: 1
  }
}
layer {
  name: "inception_4c/pool_proj"
  type: "Convolution"
  bottom: "inception_4c/pool"
  top: "inception_4c/pool_proj"
  param {
    lr_mult: 1
    decay_mult: 1
  }
  param {
    lr_mult: 2
    decay_mult: 0
  }
  convolution_param {
    num_output: 64
    kernel_size: 1
    weight_filler {
      type: "xavier"
      std: 0.1
    }
    bias_filler {
      type: "constant"
      value: 0.2
    }
  }
}
layer {
  name: "inception_4c/relu_pool_proj"
  type: "ReLU"
  bottom: "inception_4c/pool_proj"
  top: "inception_4c/pool_proj"
}
layer {
  name: "inception_4c/output"
  type: "Concat"
  bottom: "inception_4c/1x1"
  bottom: "inception_4c/3x3"
  bottom: "inception_4c/5x5"
  bottom: "inception_4c/pool_proj"
  top: "inception_4c/output"
}
layer {
  name: "inception_4d/1x1"
  type: "Convolution"
  bottom: "inception_4c/output"
  top: "inception_4d/1x1"
  param {
    lr_mult: 1
    decay_mult: 1
  }
  param {
    lr_mult: 2
    decay_mult: 0
  }
  convolution_param {
    num_output: 112
    kernel_size: 1
    weight_filler {
      type: "xavier"
      std: 0.03
    }
    bias_filler {
      type: "constant"
      value: 0.2
    }
  }
}
layer {
  name: "inception_4d/relu_1x1"
  type: "ReLU"
  bottom: "inception_4d/1x1"
  top: "inception_4d/1x1"
}
layer {
  name: "inception_4d/3x3_reduce"
  type: "Convolution"
  bottom: "inception_4c/output"
  top: "inception_4d/3x3_reduce"
  param {
    lr_mult: 1
    decay_mult: 1
  }
  param {
    lr_mult: 2
    decay_mult: 0
  }
  convolution_param {
    num_output: 144
    kernel_size: 1
    weight_filler {
      type: "xavier"
      std: 0.09
    }
    bias_filler {
      type: "constant"
      value: 0.2
    }
  }
}
layer {
  name: "inception_4d/relu_3x3_reduce"
  type: "ReLU"
  bottom: "inception_4d/3x3_reduce"
  top: "inception_4d/3x3_reduce"
}
layer {
  name: "inception_4d/3x3"
  type: "Convolution"
  bottom: "inception_4d/3x3_reduce"
  top: "inception_4d/3x3"
  param {
    lr_mult: 1
    decay_mult: 1
  }
  param {
    lr_mult: 2
    decay_mult: 0
  }
  convolution_param {
    num_output: 288
    pad: 1
    kernel_size: 3
    weight_filler {
      type: "xavier"
      std: 0.03
    }
    bias_filler {
      type: "constant"
      value: 0.2
    }
  }
}
layer {
  name: "inception_4d/relu_3x3"
  type: "ReLU"
  bottom: "inception_4d/3x3"
  top: "inception_4d/3x3"
}
layer {
  name: "inception_4d/5x5_reduce"
  type: "Convolution"
  bottom: "inception_4c/output"
  top: "inception_4d/5x5_reduce"
  param {
    lr_mult: 1
    decay_mult: 1
  }
  param {
    lr_mult: 2
    decay_mult: 0
  }
  convolution_param {
    num_output: 32
    kernel_size: 1
    weight_filler {
      type: "xavier"
      std: 0.2
    }
    bias_filler {
      type: "constant"
      value: 0.2
    }
  }
}
layer {
  name: "inception_4d/relu_5x5_reduce"
  type: "ReLU"
  bottom: "inception_4d/5x5_reduce"
  top: "inception_4d/5x5_reduce"
}
layer {
  name: "inception_4d/5x5"
  type: "Convolution"
  bottom: "inception_4d/5x5_reduce"
  top: "inception_4d/5x5"
  param {
    lr_mult: 1
    decay_mult: 1
  }
  param {
    lr_mult: 2
    decay_mult: 0
  }
  convolution_param {
    num_output: 64
    pad: 2
    kernel_size: 5
    weight_filler {
      type: "xavier"
      std: 0.03
    }
    bias_filler {
      type: "constant"
      value: 0.2
    }
  }
}
layer {
  name: "inception_4d/relu_5x5"
  type: "ReLU"
  bottom: "inception_4d/5x5"
  top: "inception_4d/5x5"
}
layer {
  name: "inception_4d/pool"
  type: "Pooling"
  bottom: "inception_4c/output"
  top: "inception_4d/pool"
  pooling_param {
    pool: MAX
    kernel_size: 3
    stride: 1
    pad: 1
  }
}
layer {
  name: "inception_4d/pool_proj"
  type: "Convolution"
  bottom: "inception_4d/pool"
  top: "inception_4d/pool_proj"
  param {
    lr_mult: 1
    decay_mult: 1
  }
  param {
    lr_mult: 2
    decay_mult: 0
  }
  convolution_param {
    num_output: 64
    kernel_size: 1
    weight_filler {
      type: "xavier"
      std: 0.1
    }
    bias_filler {
      type: "constant"
      value: 0.2
    }
  }
}
layer {
  name: "inception_4d/relu_pool_proj"
  type: "ReLU"
  bottom: "inception_4d/pool_proj"
  top: "inception_4d/pool_proj"
}
layer {
  name: "inception_4d/output"
  type: "Concat"
  bottom: "inception_4d/1x1"
  bottom: "inception_4d/3x3"
  bottom: "inception_4d/5x5"
  bottom: "inception_4d/pool_proj"
  top: "inception_4d/output"
}
layer {
  name: "loss2/ave_pool"
  type: "Pooling"
  bottom: "inception_4d/output"
  top: "loss2/ave_pool"
  pooling_param {
    pool: AVE
    kernel_size: 5
    stride: 3
  }
}
layer {
  name: "loss2/conv"
  type: "Convolution"
  bottom: "loss2/ave_pool"
  top: "loss2/conv"
  param {
    lr_mult: 1
    decay_mult: 1
  }
  param {
    lr_mult: 2
    decay_mult: 0
  }
  convolution_param {
    num_output: 128
    kernel_size: 1
    weight_filler {
      type: "xavier"
      std: 0.08
    }
    bias_filler {
      type: "constant"
      value: 0.2
    }
  }
}
layer {
  name: "loss2/relu_conv"
  type: "ReLU"
  bottom: "loss2/conv"
  top: "loss2/conv"
}
layer {
  name: "loss2/fc"
  type: "InnerProduct"
  bottom: "loss2/conv"
  top: "loss2/fc"
  param {
    lr_mult: 1
    decay_mult: 1
  }
  param {
    lr_mult: 2
    decay_mult: 0
  }
  inner_product_param {
    num_output: 1024
    weight_filler {
      type: "xavier"
      std: 0.02
    }
    bias_filler {
      type: "constant"
      value: 0.2
    }
  }
}
layer {
  name: "loss2/relu_fc"
  type: "ReLU"
  bottom: "loss2/fc"
  top: "loss2/fc"
}
layer {
  name: "loss2/drop_fc"
  type: "Dropout"
  bottom: "loss2/fc"
  top: "loss2/fc"
  dropout_param {
    dropout_ratio: 0.7
  }
}
layer {
  name: "loss2/classifier_plantvillage"
  type: "InnerProduct"
  bottom: "loss2/fc"
  top: "loss2/classifier_plantvillage"
  param {
    lr_mult: 1
    decay_mult: 1
  }
  param {
    lr_mult: 2
    decay_mult: 0
  }
  inner_product_param {
    num_output: 38
    weight_filler {
      type: "xavier"
      std: 0.0009765625
    }
    bias_filler {
      type: "constant"
      value: 0
    }
  }
}
layer {
  name: "inception_4e/1x1"
  type: "Convolution"
  bottom: "inception_4d/output"
  top: "inception_4e/1x1"
  param {
    lr_mult: 1
    decay_mult: 1
  }
  param {
    lr_mult: 2
    decay_mult: 0
  }
  convolution_param {
    num_output: 256
    kernel_size: 1
    weight_filler {
      type: "xavier"
      std: 0.03
    }
    bias_filler {
      type: "constant"
      value: 0.2
    }
  }
}
layer {
  name: "inception_4e/relu_1x1"
  type: "ReLU"
  bottom: "inception_4e/1x1"
  top: "inception_4e/1x1"
}
layer {
  name: "inception_4e/3x3_reduce"
  type: "Convolution"
  bottom: "inception_4d/output"
  top: "inception_4e/3x3_reduce"
  param {
    lr_mult: 1
    decay_mult: 1
  }
  param {
    lr_mult: 2
    decay_mult: 0
  }
  convolution_param {
    num_output: 160
    kernel_size: 1
    weight_filler {
      type: "xavier"
      std: 0.09
    }
    bias_filler {
      type: "constant"
      value: 0.2
    }
  }
}
layer {
  name: "inception_4e/relu_3x3_reduce"
  type: "ReLU"
  bottom: "inception_4e/3x3_reduce"
  top: "inception_4e/3x3_reduce"
}
layer {
  name: "inception_4e/3x3"
  type: "Convolution"
  bottom: "inception_4e/3x3_reduce"
  top: "inception_4e/3x3"
  param {
    lr_mult: 1
    decay_mult: 1
  }
  param {
    lr_mult: 2
    decay_mult: 0
  }
  convolution_param {
    num_output: 320
    pad: 1
    kernel_size: 3
    weight_filler {
      type: "xavier"
      std: 0.03
    }
    bias_filler {
      type: "constant"
      value: 0.2
    }
  }
}
layer {
  name: "inception_4e/relu_3x3"
  type: "ReLU"
  bottom: "inception_4e/3x3"
  top: "inception_4e/3x3"
}
layer {
  name: "inception_4e/5x5_reduce"
  type: "Convolution"
  bottom: "inception_4d/output"
  top: "inception_4e/5x5_reduce"
  param {
    lr_mult: 1
    decay_mult: 1
  }
  param {
    lr_mult: 2
    decay_mult: 0
  }
  convolution_param {
    num_output: 32
    kernel_size: 1
    weight_filler {
      type: "xavier"
      std: 0.2
    }
    bias_filler {
      type: "constant"
      value: 0.2
    }
  }
}
layer {
  name: "inception_4e/relu_5x5_reduce"
  type: "ReLU"
  bottom: "inception_4e/5x5_reduce"
  top: "inception_4e/5x5_reduce"
}
layer {
  name: "inception_4e/5x5"
  type: "Convolution"
  bottom: "inception_4e/5x5_reduce"
  top: "inception_4e/
I0403 15:54:03.569068 20510 layer_factory.hpp:77] Creating layer data
I0403 15:54:03.569684 20510 net.cpp:91] Creating Layer data
I0403 15:54:03.569716 20510 net.cpp:399] data -> data
I0403 15:54:03.569766 20510 net.cpp:399] data -> label
I0403 15:54:03.569803 20510 data_transformer.cpp:25] Loading mean file from: /home/mohanty/data/final_dataset/lmdb/grayscale-20-80/mean.binaryproto
I0403 15:54:03.570982 20514 db_lmdb.cpp:38] Opened lmdb /home/mohanty/data/final_dataset/lmdb/grayscale-20-80/test_db
I0403 15:54:03.582799 20510 data_layer.cpp:41] output data size: 24,3,224,224
I0403 15:54:03.609757 20510 net.cpp:141] Setting up data
I0403 15:54:03.609840 20510 net.cpp:148] Top shape: 24 3 224 224 (3612672)
I0403 15:54:03.609863 20510 net.cpp:148] Top shape: 24 (24)
I0403 15:54:03.609879 20510 net.cpp:156] Memory required for data: 14450784
I0403 15:54:03.609906 20510 layer_factory.hpp:77] Creating layer label_data_1_split
I0403 15:54:03.609932 20510 net.cpp:91] Creating Layer label_data_1_split
I0403 15:54:03.609951 20510 net.cpp:425] label_data_1_split <- label
I0403 15:54:03.609983 20510 net.cpp:399] label_data_1_split -> label_data_1_split_0
I0403 15:54:03.610011 20510 net.cpp:399] label_data_1_split -> label_data_1_split_1
I0403 15:54:03.610033 20510 net.cpp:399] label_data_1_split -> label_data_1_split_2
I0403 15:54:03.610059 20510 net.cpp:399] label_data_1_split -> label_data_1_split_3
I0403 15:54:03.610080 20510 net.cpp:399] label_data_1_split -> label_data_1_split_4
I0403 15:54:03.610100 20510 net.cpp:399] label_data_1_split -> label_data_1_split_5
I0403 15:54:03.610119 20510 net.cpp:399] label_data_1_split -> label_data_1_split_6
I0403 15:54:03.610141 20510 net.cpp:399] label_data_1_split -> label_data_1_split_7
I0403 15:54:03.610160 20510 net.cpp:399] label_data_1_split -> label_data_1_split_8
I0403 15:54:03.610180 20510 net.cpp:399] label_data_1_split -> label_data_1_split_9
I0403 15:54:03.610297 20510 net.cpp:141] Setting up label_data_1_split
I0403 15:54:03.610321 20510 net.cpp:148] Top shape: 24 (24)
I0403 15:54:03.610347 20510 net.cpp:148] Top shape: 24 (24)
I0403 15:54:03.610371 20510 net.cpp:148] Top shape: 24 (24)
I0403 15:54:03.610389 20510 net.cpp:148] Top shape: 24 (24)
I0403 15:54:03.610404 20510 net.cpp:148] Top shape: 24 (24)
I0403 15:54:03.610419 20510 net.cpp:148] Top shape: 24 (24)
I0403 15:54:03.610435 20510 net.cpp:148] Top shape: 24 (24)
I0403 15:54:03.610450 20510 net.cpp:148] Top shape: 24 (24)
I0403 15:54:03.610466 20510 net.cpp:148] Top shape: 24 (24)
I0403 15:54:03.610482 20510 net.cpp:148] Top shape: 24 (24)
I0403 15:54:03.610527 20510 net.cpp:156] Memory required for data: 14451744
I0403 15:54:03.610543 20510 layer_factory.hpp:77] Creating layer conv1/7x7_s2
I0403 15:54:03.610574 20510 net.cpp:91] Creating Layer conv1/7x7_s2
I0403 15:54:03.610594 20510 net.cpp:425] conv1/7x7_s2 <- data
I0403 15:54:03.610612 20510 net.cpp:399] conv1/7x7_s2 -> conv1/7x7_s2
I0403 15:54:03.750646 20510 net.cpp:141] Setting up conv1/7x7_s2
I0403 15:54:03.750716 20510 net.cpp:148] Top shape: 24 64 112 112 (19267584)
I0403 15:54:03.750735 20510 net.cpp:156] Memory required for data: 91522080
I0403 15:54:03.750766 20510 layer_factory.hpp:77] Creating layer conv1/relu_7x7
I0403 15:54:03.750797 20510 net.cpp:91] Creating Layer conv1/relu_7x7
I0403 15:54:03.750816 20510 net.cpp:425] conv1/relu_7x7 <- conv1/7x7_s2
I0403 15:54:03.750835 20510 net.cpp:386] conv1/relu_7x7 -> conv1/7x7_s2 (in-place)
I0403 15:54:03.751127 20510 net.cpp:141] Setting up conv1/relu_7x7
I0403 15:54:03.751155 20510 net.cpp:148] Top shape: 24 64 112 112 (19267584)
I0403 15:54:03.751171 20510 net.cpp:156] Memory required for data: 168592416
I0403 15:54:03.751186 20510 layer_factory.hpp:77] Creating layer pool1/3x3_s2
I0403 15:54:03.751214 20510 net.cpp:91] Creating Layer pool1/3x3_s2
I0403 15:54:03.751263 20510 net.cpp:425] pool1/3x3_s2 <- conv1/7x7_s2
I0403 15:54:03.751287 20510 net.cpp:399] pool1/3x3_s2 -> pool1/3x3_s2
I0403 15:54:03.751370 20510 net.cpp:141] Setting up pool1/3x3_s2
I0403 15:54:03.751395 20510 net.cpp:148] Top shape: 24 64 56 56 (4816896)
I0403 15:54:03.751410 20510 net.cpp:156] Memory required for data: 187860000
I0403 15:54:03.751425 20510 layer_factory.hpp:77] Creating layer pool1/norm1
I0403 15:54:03.751451 20510 net.cpp:91] Creating Layer pool1/norm1
I0403 15:54:03.751471 20510 net.cpp:425] pool1/norm1 <- pool1/3x3_s2
I0403 15:54:03.751488 20510 net.cpp:399] pool1/norm1 -> pool1/norm1
I0403 15:54:03.751809 20510 net.cpp:141] Setting up pool1/norm1
I0403 15:54:03.751838 20510 net.cpp:148] Top shape: 24 64 56 56 (4816896)
I0403 15:54:03.751865 20510 net.cpp:156] Memory required for data: 207127584
I0403 15:54:03.751880 20510 layer_factory.hpp:77] Creating layer conv2/3x3_reduce
I0403 15:54:03.751906 20510 net.cpp:91] Creating Layer conv2/3x3_reduce
I0403 15:54:03.751924 20510 net.cpp:425] conv2/3x3_reduce <- pool1/norm1
I0403 15:54:03.751943 20510 net.cpp:399] conv2/3x3_reduce -> conv2/3x3_reduce
I0403 15:54:03.753419 20510 net.cpp:141] Setting up conv2/3x3_reduce
I0403 15:54:03.753451 20510 net.cpp:148] Top shape: 24 64 56 56 (4816896)
I0403 15:54:03.753468 20510 net.cpp:156] Memory required for data: 226395168
I0403 15:54:03.753489 20510 layer_factory.hpp:77] Creating layer conv2/relu_3x3_reduce
I0403 15:54:03.753507 20510 net.cpp:91] Creating Layer conv2/relu_3x3_reduce
I0403 15:54:03.753522 20510 net.cpp:425] conv2/relu_3x3_reduce <- conv2/3x3_reduce
I0403 15:54:03.753548 20510 net.cpp:386] conv2/relu_3x3_reduce -> conv2/3x3_reduce (in-place)
I0403 15:54:03.753821 20510 net.cpp:141] Setting up conv2/relu_3x3_reduce
I0403 15:54:03.753850 20510 net.cpp:148] Top shape: 24 64 56 56 (4816896)
I0403 15:54:03.753866 20510 net.cpp:156] Memory required for data: 245662752
I0403 15:54:03.753881 20510 layer_factory.hpp:77] Creating layer conv2/3x3
I0403 15:54:03.753906 20510 net.cpp:91] Creating Layer conv2/3x3
I0403 15:54:03.753922 20510 net.cpp:425] conv2/3x3 <- conv2/3x3_reduce
I0403 15:54:03.753944 20510 net.cpp:399] conv2/3x3 -> conv2/3x3
I0403 15:54:03.756366 20510 net.cpp:141] Setting up conv2/3x3
I0403 15:54:03.756398 20510 net.cpp:148] Top shape: 24 192 56 56 (14450688)
I0403 15:54:03.756415 20510 net.cpp:156] Memory required for data: 303465504
I0403 15:54:03.756438 20510 layer_factory.hpp:77] Creating layer conv2/relu_3x3
I0403 15:54:03.756458 20510 net.cpp:91] Creating Layer conv2/relu_3x3
I0403 15:54:03.756474 20510 net.cpp:425] conv2/relu_3x3 <- conv2/3x3
I0403 15:54:03.756494 20510 net.cpp:386] conv2/relu_3x3 -> conv2/3x3 (in-place)
I0403 15:54:03.756685 20510 net.cpp:141] Setting up conv2/relu_3x3
I0403 15:54:03.756710 20510 net.cpp:148] Top shape: 24 192 56 56 (14450688)
I0403 15:54:03.756745 20510 net.cpp:156] Memory required for data: 361268256
I0403 15:54:03.756762 20510 layer_factory.hpp:77] Creating layer conv2/norm2
I0403 15:54:03.756783 20510 net.cpp:91] Creating Layer conv2/norm2
I0403 15:54:03.756799 20510 net.cpp:425] conv2/norm2 <- conv2/3x3
I0403 15:54:03.756819 20510 net.cpp:399] conv2/norm2 -> conv2/norm2
I0403 15:54:03.757138 20510 net.cpp:141] Setting up conv2/norm2
I0403 15:54:03.757167 20510 net.cpp:148] Top shape: 24 192 56 56 (14450688)
I0403 15:54:03.757184 20510 net.cpp:156] Memory required for data: 419071008
I0403 15:54:03.757199 20510 layer_factory.hpp:77] Creating layer pool2/3x3_s2
I0403 15:54:03.757223 20510 net.cpp:91] Creating Layer pool2/3x3_s2
I0403 15:54:03.757239 20510 net.cpp:425] pool2/3x3_s2 <- conv2/norm2
I0403 15:54:03.757259 20510 net.cpp:399] pool2/3x3_s2 -> pool2/3x3_s2
I0403 15:54:03.757311 20510 net.cpp:141] Setting up pool2/3x3_s2
I0403 15:54:03.757334 20510 net.cpp:148] Top shape: 24 192 28 28 (3612672)
I0403 15:54:03.757349 20510 net.cpp:156] Memory required for data: 433521696
I0403 15:54:03.757364 20510 layer_factory.hpp:77] Creating layer pool2/3x3_s2_pool2/3x3_s2_0_split
I0403 15:54:03.757382 20510 net.cpp:91] Creating Layer pool2/3x3_s2_pool2/3x3_s2_0_split
I0403 15:54:03.757398 20510 net.cpp:425] pool2/3x3_s2_pool2/3x3_s2_0_split <- pool2/3x3_s2
I0403 15:54:03.757416 20510 net.cpp:399] pool2/3x3_s2_pool2/3x3_s2_0_split -> pool2/3x3_s2_pool2/3x3_s2_0_split_0
I0403 15:54:03.757434 20510 net.cpp:399] pool2/3x3_s2_pool2/3x3_s2_0_split -> pool2/3x3_s2_pool2/3x3_s2_0_split_1
I0403 15:54:03.757454 20510 net.cpp:399] pool2/3x3_s2_pool2/3x3_s2_0_split -> pool2/3x3_s2_pool2/3x3_s2_0_split_2
I0403 15:54:03.757475 20510 net.cpp:399] pool2/3x3_s2_pool2/3x3_s2_0_split -> pool2/3x3_s2_pool2/3x3_s2_0_split_3
I0403 15:54:03.757547 20510 net.cpp:141] Setting up pool2/3x3_s2_pool2/3x3_s2_0_split
I0403 15:54:03.757570 20510 net.cpp:148] Top shape: 24 192 28 28 (3612672)
I0403 15:54:03.757586 20510 net.cpp:148] Top shape: 24 192 28 28 (3612672)
I0403 15:54:03.757601 20510 net.cpp:148] Top shape: 24 192 28 28 (3612672)
I0403 15:54:03.757616 20510 net.cpp:148] Top shape: 24 192 28 28 (3612672)
I0403 15:54:03.757630 20510 net.cpp:156] Memory required for data: 491324448
I0403 15:54:03.757644 20510 layer_factory.hpp:77] Creating layer inception_3a/1x1
I0403 15:54:03.757666 20510 net.cpp:91] Creating Layer inception_3a/1x1
I0403 15:54:03.757683 20510 net.cpp:425] inception_3a/1x1 <- pool2/3x3_s2_pool2/3x3_s2_0_split_0
I0403 15:54:03.757707 20510 net.cpp:399] inception_3a/1x1 -> inception_3a/1x1
I0403 15:54:03.759336 20510 net.cpp:141] Setting up inception_3a/1x1
I0403 15:54:03.759367 20510 net.cpp:148] Top shape: 24 64 28 28 (1204224)
I0403 15:54:03.759383 20510 net.cpp:156] Memory required for data: 496141344
I0403 15:54:03.759402 20510 layer_factory.hpp:77] Creating layer inception_3a/relu_1x1
I0403 15:54:03.759419 20510 net.cpp:91] Creating Layer inception_3a/relu_1x1
I0403 15:54:03.759435 20510 net.cpp:425] inception_3a/relu_1x1 <- inception_3a/1x1
I0403 15:54:03.759454 20510 net.cpp:386] inception_3a/relu_1x1 -> inception_3a/1x1 (in-place)
I0403 15:54:03.759631 20510 net.cpp:141] Setting up inception_3a/relu_1x1
I0403 15:54:03.759657 20510 net.cpp:148] Top shape: 24 64 28 28 (1204224)
I0403 15:54:03.759671 20510 net.cpp:156] Memory required for data: 500958240
I0403 15:54:03.759685 20510 layer_factory.hpp:77] Creating layer inception_3a/3x3_reduce
I0403 15:54:03.759708 20510 net.cpp:91] Creating Layer inception_3a/3x3_reduce
I0403 15:54:03.759726 20510 net.cpp:425] inception_3a/3x3_reduce <- pool2/3x3_s2_pool2/3x3_s2_0_split_1
I0403 15:54:03.759747 20510 net.cpp:399] inception_3a/3x3_reduce -> inception_3a/3x3_reduce
I0403 15:54:03.761493 20510 net.cpp:141] Setting up inception_3a/3x3_reduce
I0403 15:54:03.761525 20510 net.cpp:148] Top shape: 24 96 28 28 (1806336)
I0403 15:54:03.761541 20510 net.cpp:156] Memory required for data: 508183584
I0403 15:54:03.761564 20510 layer_factory.hpp:77] Creating layer inception_3a/relu_3x3_reduce
I0403 15:54:03.761601 20510 net.cpp:91] Creating Layer inception_3a/relu_3x3_reduce
I0403 15:54:03.761620 20510 net.cpp:425] inception_3a/relu_3x3_reduce <- inception_3a/3x3_reduce
I0403 15:54:03.761637 20510 net.cpp:386] inception_3a/relu_3x3_reduce -> inception_3a/3x3_reduce (in-place)
I0403 15:54:03.761826 20510 net.cpp:141] Setting up inception_3a/relu_3x3_reduce
I0403 15:54:03.761852 20510 net.cpp:148] Top shape: 24 96 28 28 (1806336)
I0403 15:54:03.761868 20510 net.cpp:156] Memory required for data: 515408928
I0403 15:54:03.761883 20510 layer_factory.hpp:77] Creating layer inception_3a/3x3
I0403 15:54:03.761906 20510 net.cpp:91] Creating Layer inception_3a/3x3
I0403 15:54:03.761924 20510 net.cpp:425] inception_3a/3x3 <- inception_3a/3x3_reduce
I0403 15:54:03.761941 20510 net.cpp:399] inception_3a/3x3 -> inception_3a/3x3
I0403 15:54:03.763620 20510 net.cpp:141] Setting up inception_3a/3x3
I0403 15:54:03.763648 20510 net.cpp:148] Top shape: 24 128 28 28 (2408448)
I0403 15:54:03.763664 20510 net.cpp:156] Memory required for data: 525042720
I0403 15:54:03.763681 20510 layer_factory.hpp:77] Creating layer inception_3a/relu_3x3
I0403 15:54:03.763700 20510 net.cpp:91] Creating Layer inception_3a/relu_3x3
I0403 15:54:03.763715 20510 net.cpp:425] inception_3a/relu_3x3 <- inception_3a/3x3
I0403 15:54:03.763734 20510 net.cpp:386] inception_3a/relu_3x3 -> inception_3a/3x3 (in-place)
I0403 15:54:03.764016 20510 net.cpp:141] Setting up inception_3a/relu_3x3
I0403 15:54:03.764042 20510 net.cpp:148] Top shape: 24 128 28 28 (2408448)
I0403 15:54:03.764062 20510 net.cpp:156] Memory required for data: 534676512
I0403 15:54:03.764078 20510 layer_factory.hpp:77] Creating layer inception_3a/5x5_reduce
I0403 15:54:03.764101 20510 net.cpp:91] Creating Layer inception_3a/5x5_reduce
I0403 15:54:03.764117 20510 net.cpp:425] inception_3a/5x5_reduce <- pool2/3x3_s2_pool2/3x3_s2_0_split_2
I0403 15:54:03.764139 20510 net.cpp:399] inception_3a/5x5_reduce -> inception_3a/5x5_reduce
I0403 15:54:03.765154 20510 net.cpp:141] Setting up inception_3a/5x5_reduce
I0403 15:54:03.765183 20510 net.cpp:148] Top shape: 24 16 28 28 (301056)
I0403 15:54:03.765198 20510 net.cpp:156] Memory required for data: 535880736
I0403 15:54:03.765216 20510 layer_factory.hpp:77] Creating layer inception_3a/relu_5x5_reduce
I0403 15:54:03.765236 20510 net.cpp:91] Creating Layer inception_3a/relu_5x5_reduce
I0403 15:54:03.765252 20510 net.cpp:425] inception_3a/relu_5x5_reduce <- inception_3a/5x5_reduce
I0403 15:54:03.765270 20510 net.cpp:386] inception_3a/relu_5x5_reduce -> inception_3a/5x5_reduce (in-place)
I0403 15:54:03.765571 20510 net.cpp:141] Setting up inception_3a/relu_5x5_reduce
I0403 15:54:03.765599 20510 net.cpp:148] Top shape: 24 16 28 28 (301056)
I0403 15:54:03.765612 20510 net.cpp:156] Memory required for data: 537084960
I0403 15:54:03.765627 20510 layer_factory.hpp:77] Creating layer inception_3a/5x5
I0403 15:54:03.765650 20510 net.cpp:91] Creating Layer inception_3a/5x5
I0403 15:54:03.765668 20510 net.cpp:425] inception_3a/5x5 <- inception_3a/5x5_reduce
I0403 15:54:03.765686 20510 net.cpp:399] inception_3a/5x5 -> inception_3a/5x5
I0403 15:54:03.766715 20510 net.cpp:141] Setting up inception_3a/5x5
I0403 15:54:03.766741 20510 net.cpp:148] Top shape: 24 32 28 28 (602112)
I0403 15:54:03.766757 20510 net.cpp:156] Memory required for data: 539493408
I0403 15:54:03.766775 20510 layer_factory.hpp:77] Creating layer inception_3a/relu_5x5
I0403 15:54:03.766793 20510 net.cpp:91] Creating Layer inception_3a/relu_5x5
I0403 15:54:03.766808 20510 net.cpp:425] inception_3a/relu_5x5 <- inception_3a/5x5
I0403 15:54:03.766827 20510 net.cpp:386] inception_3a/relu_5x5 -> inception_3a/5x5 (in-place)
I0403 15:54:03.767004 20510 net.cpp:141] Setting up inception_3a/relu_5x5
I0403 15:54:03.767030 20510 net.cpp:148] Top shape: 24 32 28 28 (602112)
I0403 15:54:03.767045 20510 net.cpp:156] Memory required for data: 541901856
I0403 15:54:03.767065 20510 layer_factory.hpp:77] Creating layer inception_3a/pool
I0403 15:54:03.767086 20510 net.cpp:91] Creating Layer inception_3a/pool
I0403 15:54:03.767115 20510 net.cpp:425] inception_3a/pool <- pool2/3x3_s2_pool2/3x3_s2_0_split_3
I0403 15:54:03.767134 20510 net.cpp:399] inception_3a/pool -> inception_3a/pool
I0403 15:54:03.767194 20510 net.cpp:141] Setting up inception_3a/pool
I0403 15:54:03.767216 20510 net.cpp:148] Top shape: 24 192 28 28 (3612672)
I0403 15:54:03.767231 20510 net.cpp:156] Memory required for data: 556352544
I0403 15:54:03.767246 20510 layer_factory.hpp:77] Creating layer inception_3a/pool_proj
I0403 15:54:03.767269 20510 net.cpp:91] Creating Layer inception_3a/pool_proj
I0403 15:54:03.767287 20510 net.cpp:425] inception_3a/pool_proj <- inception_3a/pool
I0403 15:54:03.767308 20510 net.cpp:399] inception_3a/pool_proj -> inception_3a/pool_proj
I0403 15:54:03.768316 20510 net.cpp:141] Setting up inception_3a/pool_proj
I0403 15:54:03.768348 20510 net.cpp:148] Top shape: 24 32 28 28 (602112)
I0403 15:54:03.768365 20510 net.cpp:156] Memory required for data: 558760992
I0403 15:54:03.768388 20510 layer_factory.hpp:77] Creating layer inception_3a/relu_pool_proj
I0403 15:54:03.768409 20510 net.cpp:91] Creating Layer inception_3a/relu_pool_proj
I0403 15:54:03.768426 20510 net.cpp:425] inception_3a/relu_pool_proj <- inception_3a/pool_proj
I0403 15:54:03.768445 20510 net.cpp:386] inception_3a/relu_pool_proj -> inception_3a/pool_proj (in-place)
I0403 15:54:03.768746 20510 net.cpp:141] Setting up inception_3a/relu_pool_proj
I0403 15:54:03.768772 20510 net.cpp:148] Top shape: 24 32 28 28 (602112)
I0403 15:54:03.768787 20510 net.cpp:156] Memory required for data: 561169440
I0403 15:54:03.768801 20510 layer_factory.hpp:77] Creating layer inception_3a/output
I0403 15:54:03.768820 20510 net.cpp:91] Creating Layer inception_3a/output
I0403 15:54:03.768834 20510 net.cpp:425] inception_3a/output <- inception_3a/1x1
I0403 15:54:03.768851 20510 net.cpp:425] inception_3a/output <- inception_3a/3x3
I0403 15:54:03.768867 20510 net.cpp:425] inception_3a/output <- inception_3a/5x5
I0403 15:54:03.768882 20510 net.cpp:425] inception_3a/output <- inception_3a/pool_proj
I0403 15:54:03.768900 20510 net.cpp:399] inception_3a/output -> inception_3a/output
I0403 15:54:03.768945 20510 net.cpp:141] Setting up inception_3a/output
I0403 15:54:03.768972 20510 net.cpp:148] Top shape: 24 256 28 28 (4816896)
I0403 15:54:03.768987 20510 net.cpp:156] Memory required for data: 580437024
I0403 15:54:03.769002 20510 layer_factory.hpp:77] Creating layer inception_3a/output_inception_3a/output_0_split
I0403 15:54:03.769019 20510 net.cpp:91] Creating Layer inception_3a/output_inception_3a/output_0_split
I0403 15:54:03.769034 20510 net.cpp:425] inception_3a/output_inception_3a/output_0_split <- inception_3a/output
I0403 15:54:03.769054 20510 net.cpp:399] inception_3a/output_inception_3a/output_0_split -> inception_3a/output_inception_3a/output_0_split_0
I0403 15:54:03.769078 20510 net.cpp:399] inception_3a/output_inception_3a/output_0_split -> inception_3a/output_inception_3a/output_0_split_1
I0403 15:54:03.769101 20510 net.cpp:399] inception_3a/output_inception_3a/output_0_split -> inception_3a/output_inception_3a/output_0_split_2
I0403 15:54:03.769122 20510 net.cpp:399] inception_3a/output_inception_3a/output_0_split -> inception_3a/output_inception_3a/output_0_split_3
I0403 15:54:03.769196 20510 net.cpp:141] Setting up inception_3a/output_inception_3a/output_0_split
I0403 15:54:03.769222 20510 net.cpp:148] Top shape: 24 256 28 28 (4816896)
I0403 15:54:03.769239 20510 net.cpp:148] Top shape: 24 256 28 28 (4816896)
I0403 15:54:03.769268 20510 net.cpp:148] Top shape: 24 256 28 28 (4816896)
I0403 15:54:03.769284 20510 net.cpp:148] Top shape: 24 256 28 28 (4816896)
I0403 15:54:03.769297 20510 net.cpp:156] Memory required for data: 657507360
I0403 15:54:03.769312 20510 layer_factory.hpp:77] Creating layer inception_3b/1x1
I0403 15:54:03.769335 20510 net.cpp:91] Creating Layer inception_3b/1x1
I0403 15:54:03.769352 20510 net.cpp:425] inception_3b/1x1 <- inception_3a/output_inception_3a/output_0_split_0
I0403 15:54:03.769373 20510 net.cpp:399] inception_3b/1x1 -> inception_3b/1x1
I0403 15:54:03.770575 20510 net.cpp:141] Setting up inception_3b/1x1
I0403 15:54:03.770619 20510 net.cpp:148] Top shape: 24 128 28 28 (2408448)
I0403 15:54:03.770637 20510 net.cpp:156] Memory required for data: 667141152
I0403 15:54:03.770656 20510 layer_factory.hpp:77] Creating layer inception_3b/relu_1x1
I0403 15:54:03.770675 20510 net.cpp:91] Creating Layer inception_3b/relu_1x1
I0403 15:54:03.770691 20510 net.cpp:425] inception_3b/relu_1x1 <- inception_3b/1x1
I0403 15:54:03.770712 20510 net.cpp:386] inception_3b/relu_1x1 -> inception_3b/1x1 (in-place)
I0403 15:54:03.770898 20510 net.cpp:141] Setting up inception_3b/relu_1x1
I0403 15:54:03.770925 20510 net.cpp:148] Top shape: 24 128 28 28 (2408448)
I0403 15:54:03.770939 20510 net.cpp:156] Memory required for data: 676774944
I0403 15:54:03.770954 20510 layer_factory.hpp:77] Creating layer inception_3b/3x3_reduce
I0403 15:54:03.770978 20510 net.cpp:91] Creating Layer inception_3b/3x3_reduce
I0403 15:54:03.770999 20510 net.cpp:425] inception_3b/3x3_reduce <- inception_3a/output_inception_3a/output_0_split_1
I0403 15:54:03.771020 20510 net.cpp:399] inception_3b/3x3_reduce -> inception_3b/3x3_reduce
I0403 15:54:03.772224 20510 net.cpp:141] Setting up inception_3b/3x3_reduce
I0403 15:54:03.772256 20510 net.cpp:148] Top shape: 24 128 28 28 (2408448)
I0403 15:54:03.772274 20510 net.cpp:156] Memory required for data: 686408736
I0403 15:54:03.772291 20510 layer_factory.hpp:77] Creating layer inception_3b/relu_3x3_reduce
I0403 15:54:03.772310 20510 net.cpp:91] Creating Layer inception_3b/relu_3x3_reduce
I0403 15:54:03.772326 20510 net.cpp:425] inception_3b/relu_3x3_reduce <- inception_3b/3x3_reduce
I0403 15:54:03.772347 20510 net.cpp:386] inception_3b/relu_3x3_reduce -> inception_3b/3x3_reduce (in-place)
I0403 15:54:03.772532 20510 net.cpp:141] Setting up inception_3b/relu_3x3_reduce
I0403 15:54:03.772558 20510 net.cpp:148] Top shape: 24 128 28 28 (2408448)
I0403 15:54:03.772573 20510 net.cpp:156] Memory required for data: 696042528
I0403 15:54:03.772588 20510 layer_factory.hpp:77] Creating layer inception_3b/3x3
I0403 15:54:03.772615 20510 net.cpp:91] Creating Layer inception_3b/3x3
I0403 15:54:03.772634 20510 net.cpp:425] inception_3b/3x3 <- inception_3b/3x3_reduce
I0403 15:54:03.772653 20510 net.cpp:399] inception_3b/3x3 -> inception_3b/3x3
I0403 15:54:03.775709 20510 net.cpp:141] Setting up inception_3b/3x3
I0403 15:54:03.775740 20510 net.cpp:148] Top shape: 24 192 28 28 (3612672)
I0403 15:54:03.775755 20510 net.cpp:156] Memory required for data: 710493216
I0403 15:54:03.775774 20510 layer_factory.hpp:77] Creating layer inception_3b/relu_3x3
I0403 15:54:03.775794 20510 net.cpp:91] Creating Layer inception_3b/relu_3x3
I0403 15:54:03.775810 20510 net.cpp:425] inception_3b/relu_3x3 <- inception_3b/3x3
I0403 15:54:03.775830 20510 net.cpp:386] inception_3b/relu_3x3 -> inception_3b/3x3 (in-place)
I0403 15:54:03.776126 20510 net.cpp:141] Setting up inception_3b/relu_3x3
I0403 15:54:03.776154 20510 net.cpp:148] Top shape: 24 192 28 28 (3612672)
I0403 15:54:03.776170 20510 net.cpp:156] Memory required for data: 724943904
I0403 15:54:03.776185 20510 layer_factory.hpp:77] Creating layer inception_3b/5x5_reduce
I0403 15:54:03.776207 20510 net.cpp:91] Creating Layer inception_3b/5x5_reduce
I0403 15:54:03.776226 20510 net.cpp:425] inception_3b/5x5_reduce <- inception_3a/output_inception_3a/output_0_split_2
I0403 15:54:03.776249 20510 net.cpp:399] inception_3b/5x5_reduce -> inception_3b/5x5_reduce
I0403 15:54:03.777292 20510 net.cpp:141] Setting up inception_3b/5x5_reduce
I0403 15:54:03.777320 20510 net.cpp:148] Top shape: 24 32 28 28 (602112)
I0403 15:54:03.777336 20510 net.cpp:156] Memory required for data: 727352352
I0403 15:54:03.777355 20510 layer_factory.hpp:77] Creating layer inception_3b/relu_5x5_reduce
I0403 15:54:03.777374 20510 net.cpp:91] Creating Layer inception_3b/relu_5x5_reduce
I0403 15:54:03.777390 20510 net.cpp:425] inception_3b/relu_5x5_reduce <- inception_3b/5x5_reduce
I0403 15:54:03.777410 20510 net.cpp:386] inception_3b/relu_5x5_reduce -> inception_3b/5x5_reduce (in-place)
I0403 15:54:03.777613 20510 net.cpp:141] Setting up inception_3b/relu_5x5_reduce
I0403 15:54:03.777639 20510 net.cpp:148] Top shape: 24 32 28 28 (602112)
I0403 15:54:03.777654 20510 net.cpp:156] Memory required for data: 729760800
I0403 15:54:03.777669 20510 layer_factory.hpp:77] Creating layer inception_3b/5x5
I0403 15:54:03.777693 20510 net.cpp:91] Creating Layer inception_3b/5x5
I0403 15:54:03.777710 20510 net.cpp:425] inception_3b/5x5 <- inception_3b/5x5_reduce
I0403 15:54:03.777731 20510 net.cpp:399] inception_3b/5x5 -> inception_3b/5x5
I0403 15:54:03.779817 20510 net.cpp:141] Setting up inception_3b/5x5
I0403 15:54:03.779851 20510 net.cpp:148] Top shape: 24 96 28 28 (1806336)
I0403 15:54:03.779870 20510 net.cpp:156] Memory required for data: 736986144
I0403 15:54:03.779888 20510 layer_factory.hpp:77] Creating layer inception_3b/relu_5x5
I0403 15:54:03.779906 20510 net.cpp:91] Creating Layer inception_3b/relu_5x5
I0403 15:54:03.779922 20510 net.cpp:425] inception_3b/relu_5x5 <- inception_3b/5x5
I0403 15:54:03.779939 20510 net.cpp:386] inception_3b/relu_5x5 -> inception_3b/5x5 (in-place)
I0403 15:54:03.780153 20510 net.cpp:141] Setting up inception_3b/relu_5x5
I0403 15:54:03.780179 20510 net.cpp:148] Top shape: 24 96 28 28 (1806336)
I0403 15:54:03.780194 20510 net.cpp:156] Memory required for data: 744211488
I0403 15:54:03.780208 20510 layer_factory.hpp:77] Creating layer inception_3b/pool
I0403 15:54:03.780227 20510 net.cpp:91] Creating Layer inception_3b/pool
I0403 15:54:03.780243 20510 net.cpp:425] inception_3b/pool <- inception_3a/output_inception_3a/output_0_split_3
I0403 15:54:03.780262 20510 net.cpp:399] inception_3b/pool -> inception_3b/pool
I0403 15:54:03.780321 20510 net.cpp:141] Setting up inception_3b/pool
I0403 15:54:03.780356 20510 net.cpp:148] Top shape: 24 256 28 28 (4816896)
I0403 15:54:03.780376 20510 net.cpp:156] Memory required for data: 763479072
I0403 15:54:03.780391 20510 layer_factory.hpp:77] Creating layer inception_3b/pool_proj
I0403 15:54:03.780414 20510 net.cpp:91] Creating Layer inception_3b/pool_proj
I0403 15:54:03.780432 20510 net.cpp:425] inception_3b/pool_proj <- inception_3b/pool
I0403 15:54:03.780452 20510 net.cpp:399] inception_3b/pool_proj -> inception_3b/pool_proj
I0403 15:54:03.781574 20510 net.cpp:141] Setting up inception_3b/pool_proj
I0403 15:54:03.781605 20510 net.cpp:148] Top shape: 24 64 28 28 (1204224)
I0403 15:54:03.781620 20510 net.cpp:156] Memory required for data: 768295968
I0403 15:54:03.781638 20510 layer_factory.hpp:77] Creating layer inception_3b/relu_pool_proj
I0403 15:54:03.781658 20510 net.cpp:91] Creating Layer inception_3b/relu_pool_proj
I0403 15:54:03.781675 20510 net.cpp:425] inception_3b/relu_pool_proj <- inception_3b/pool_proj
I0403 15:54:03.781693 20510 net.cpp:386] inception_3b/relu_pool_proj -> inception_3b/pool_proj (in-place)
I0403 15:54:03.782114 20510 net.cpp:141] Setting up inception_3b/relu_pool_proj
I0403 15:54:03.782150 20510 net.cpp:148] Top shape: 24 64 28 28 (1204224)
I0403 15:54:03.782172 20510 net.cpp:156] Memory required for data: 773112864
I0403 15:54:03.782194 20510 layer_factory.hpp:77] Creating layer inception_3b/output
I0403 15:54:03.782212 20510 net.cpp:91] Creating Layer inception_3b/output
I0403 15:54:03.782228 20510 net.cpp:425] inception_3b/output <- inception_3b/1x1
I0403 15:54:03.782244 20510 net.cpp:425] inception_3b/output <- inception_3b/3x3
I0403 15:54:03.782261 20510 net.cpp:425] inception_3b/output <- inception_3b/5x5
I0403 15:54:03.782277 20510 net.cpp:425] inception_3b/output <- inception_3b/pool_proj
I0403 15:54:03.782296 20510 net.cpp:399] inception_3b/output -> inception_3b/output
I0403 15:54:03.782348 20510 net.cpp:141] Setting up inception_3b/output
I0403 15:54:03.782372 20510 net.cpp:148] Top shape: 24 480 28 28 (9031680)
I0403 15:54:03.782387 20510 net.cpp:156] Memory required for data: 809239584
I0403 15:54:03.782402 20510 layer_factory.hpp:77] Creating layer pool3/3x3_s2
I0403 15:54:03.782419 20510 net.cpp:91] Creating Layer pool3/3x3_s2
I0403 15:54:03.782435 20510 net.cpp:425] pool3/3x3_s2 <- inception_3b/output
I0403 15:54:03.782472 20510 net.cpp:399] pool3/3x3_s2 -> pool3/3x3_s2
I0403 15:54:03.782534 20510 net.cpp:141] Setting up pool3/3x3_s2
I0403 15:54:03.782558 20510 net.cpp:148] Top shape: 24 480 14 14 (2257920)
I0403 15:54:03.782573 20510 net.cpp:156] Memory required for data: 818271264
I0403 15:54:03.782588 20510 layer_factory.hpp:77] Creating layer pool3/3x3_s2_pool3/3x3_s2_0_split
I0403 15:54:03.782608 20510 net.cpp:91] Creating Layer pool3/3x3_s2_pool3/3x3_s2_0_split
I0403 15:54:03.782624 20510 net.cpp:425] pool3/3x3_s2_pool3/3x3_s2_0_split <- pool3/3x3_s2
I0403 15:54:03.782641 20510 net.cpp:399] pool3/3x3_s2_pool3/3x3_s2_0_split -> pool3/3x3_s2_pool3/3x3_s2_0_split_0
I0403 15:54:03.782663 20510 net.cpp:399] pool3/3x3_s2_pool3/3x3_s2_0_split -> pool3/3x3_s2_pool3/3x3_s2_0_split_1
I0403 15:54:03.782685 20510 net.cpp:399] pool3/3x3_s2_pool3/3x3_s2_0_split -> pool3/3x3_s2_pool3/3x3_s2_0_split_2
I0403 15:54:03.782704 20510 net.cpp:399] pool3/3x3_s2_pool3/3x3_s2_0_split -> pool3/3x3_s2_pool3/3x3_s2_0_split_3
I0403 15:54:03.782783 20510 net.cpp:141] Setting up pool3/3x3_s2_pool3/3x3_s2_0_split
I0403 15:54:03.782805 20510 net.cpp:148] Top shape: 24 480 14 14 (2257920)
I0403 15:54:03.782821 20510 net.cpp:148] Top shape: 24 480 14 14 (2257920)
I0403 15:54:03.782837 20510 net.cpp:148] Top shape: 24 480 14 14 (2257920)
I0403 15:54:03.782853 20510 net.cpp:148] Top shape: 24 480 14 14 (2257920)
I0403 15:54:03.782867 20510 net.cpp:156] Memory required for data: 854397984
I0403 15:54:03.782882 20510 layer_factory.hpp:77] Creating layer inception_4a/1x1
I0403 15:54:03.782905 20510 net.cpp:91] Creating Layer inception_4a/1x1
I0403 15:54:03.782922 20510 net.cpp:425] inception_4a/1x1 <- pool3/3x3_s2_pool3/3x3_s2_0_split_0
I0403 15:54:03.782944 20510 net.cpp:399] inception_4a/1x1 -> inception_4a/1x1
I0403 15:54:03.784617 20510 net.cpp:141] Setting up inception_4a/1x1
I0403 15:54:03.784646 20510 net.cpp:148] Top shape: 24 192 14 14 (903168)
I0403 15:54:03.784665 20510 net.cpp:156] Memory required for data: 858010656
I0403 15:54:03.784684 20510 layer_factory.hpp:77] Creating layer inception_4a/relu_1x1
I0403 15:54:03.784703 20510 net.cpp:91] Creating Layer inception_4a/relu_1x1
I0403 15:54:03.784718 20510 net.cpp:425] inception_4a/relu_1x1 <- inception_4a/1x1
I0403 15:54:03.784734 20510 net.cpp:386] inception_4a/relu_1x1 -> inception_4a/1x1 (in-place)
I0403 15:54:03.784922 20510 net.cpp:141] Setting up inception_4a/relu_1x1
I0403 15:54:03.784951 20510 net.cpp:148] Top shape: 24 192 14 14 (903168)
I0403 15:54:03.784967 20510 net.cpp:156] Memory required for data: 861623328
I0403 15:54:03.784982 20510 layer_factory.hpp:77] Creating layer inception_4a/3x3_reduce
I0403 15:54:03.785007 20510 net.cpp:91] Creating Layer inception_4a/3x3_reduce
I0403 15:54:03.785025 20510 net.cpp:425] inception_4a/3x3_reduce <- pool3/3x3_s2_pool3/3x3_s2_0_split_1
I0403 15:54:03.785044 20510 net.cpp:399] inception_4a/3x3_reduce -> inception_4a/3x3_reduce
I0403 15:54:03.786415 20510 net.cpp:141] Setting up inception_4a/3x3_reduce
I0403 15:54:03.786443 20510 net.cpp:148] Top shape: 24 96 14 14 (451584)
I0403 15:54:03.786460 20510 net.cpp:156] Memory required for data: 863429664
I0403 15:54:03.786487 20510 layer_factory.hpp:77] Creating layer inception_4a/relu_3x3_reduce
I0403 15:54:03.786507 20510 net.cpp:91] Creating Layer inception_4a/relu_3x3_reduce
I0403 15:54:03.786525 20510 net.cpp:425] inception_4a/relu_3x3_reduce <- inception_4a/3x3_reduce
I0403 15:54:03.786542 20510 net.cpp:386] inception_4a/relu_3x3_reduce -> inception_4a/3x3_reduce (in-place)
I0403 15:54:03.786731 20510 net.cpp:141] Setting up inception_4a/relu_3x3_reduce
I0403 15:54:03.786759 20510 net.cpp:148] Top shape: 24 96 14 14 (451584)
I0403 15:54:03.786775 20510 net.cpp:156] Memory required for data: 865236000
I0403 15:54:03.786790 20510 layer_factory.hpp:77] Creating layer inception_4a/3x3
I0403 15:54:03.786813 20510 net.cpp:91] Creating Layer inception_4a/3x3
I0403 15:54:03.786830 20510 net.cpp:425] inception_4a/3x3 <- inception_4a/3x3_reduce
I0403 15:54:03.786849 20510 net.cpp:399] inception_4a/3x3 -> inception_4a/3x3
I0403 15:54:03.789701 20510 net.cpp:141] Setting up inception_4a/3x3
I0403 15:54:03.789733 20510 net.cpp:148] Top shape: 24 208 14 14 (978432)
I0403 15:54:03.789751 20510 net.cpp:156] Memory required for data: 869149728
I0403 15:54:03.789768 20510 layer_factory.hpp:77] Creating layer inception_4a/relu_3x3
I0403 15:54:03.789788 20510 net.cpp:91] Creating Layer inception_4a/relu_3x3
I0403 15:54:03.789803 20510 net.cpp:425] inception_4a/relu_3x3 <- inception_4a/3x3
I0403 15:54:03.789824 20510 net.cpp:386] inception_4a/relu_3x3 -> inception_4a/3x3 (in-place)
I0403 15:54:03.790128 20510 net.cpp:141] Setting up inception_4a/relu_3x3
I0403 15:54:03.790158 20510 net.cpp:148] Top shape: 24 208 14 14 (978432)
I0403 15:54:03.790174 20510 net.cpp:156] Memory required for data: 873063456
I0403 15:54:03.790189 20510 layer_factory.hpp:77] Creating layer inception_4a/5x5_reduce
I0403 15:54:03.790212 20510 net.cpp:91] Creating Layer inception_4a/5x5_reduce
I0403 15:54:03.790230 20510 net.cpp:425] inception_4a/5x5_reduce <- pool3/3x3_s2_pool3/3x3_s2_0_split_2
I0403 15:54:03.790253 20510 net.cpp:399] inception_4a/5x5_reduce -> inception_4a/5x5_reduce
I0403 15:54:03.791340 20510 net.cpp:141] Setting up inception_4a/5x5_reduce
I0403 15:54:03.791369 20510 net.cpp:148] Top shape: 24 16 14 14 (75264)
I0403 15:54:03.791385 20510 net.cpp:156] Memory required for data: 873364512
I0403 15:54:03.791404 20510 layer_factory.hpp:77] Creating layer inception_4a/relu_5x5_reduce
I0403 15:54:03.791421 20510 net.cpp:91] Creating Layer inception_4a/relu_5x5_reduce
I0403 15:54:03.791437 20510 net.cpp:425] inception_4a/relu_5x5_reduce <- inception_4a/5x5_reduce
I0403 15:54:03.791461 20510 net.cpp:386] inception_4a/relu_5x5_reduce -> inception_4a/5x5_reduce (in-place)
I0403 15:54:03.791653 20510 net.cpp:141] Setting up inception_4a/relu_5x5_reduce
I0403 15:54:03.791679 20510 net.cpp:148] Top shape: 24 16 14 14 (75264)
I0403 15:54:03.791694 20510 net.cpp:156] Memory required for data: 873665568
I0403 15:54:03.791709 20510 layer_factory.hpp:77] Creating layer inception_4a/5x5
I0403 15:54:03.791733 20510 net.cpp:91] Creating Layer inception_4a/5x5
I0403 15:54:03.791750 20510 net.cpp:425] inception_4a/5x5 <- inception_4a/5x5_reduce
I0403 15:54:03.791771 20510 net.cpp:399] inception_4a/5x5 -> inception_4a/5x5
I0403 15:54:03.792924 20510 net.cpp:141] Setting up inception_4a/5x5
I0403 15:54:03.792953 20510 net.cpp:148] Top shape: 24 48 14 14 (225792)
I0403 15:54:03.792968 20510 net.cpp:156] Memory required for data: 874568736
I0403 15:54:03.792987 20510 layer_factory.hpp:77] Creating layer inception_4a/relu_5x5
I0403 15:54:03.793009 20510 net.cpp:91] Creating Layer inception_4a/relu_5x5
I0403 15:54:03.793025 20510 net.cpp:425] inception_4a/relu_5x5 <- inception_4a/5x5
I0403 15:54:03.793042 20510 net.cpp:386] inception_4a/relu_5x5 -> inception_4a/5x5 (in-place)
I0403 15:54:03.793239 20510 net.cpp:141] Setting up inception_4a/relu_5x5
I0403 15:54:03.793267 20510 net.cpp:148] Top shape: 24 48 14 14 (225792)
I0403 15:54:03.793282 20510 net.cpp:156] Memory required for data: 875471904
I0403 15:54:03.793298 20510 layer_factory.hpp:77] Creating layer inception_4a/pool
I0403 15:54:03.793315 20510 net.cpp:91] Creating Layer inception_4a/pool
I0403 15:54:03.793331 20510 net.cpp:425] inception_4a/pool <- pool3/3x3_s2_pool3/3x3_s2_0_split_3
I0403 15:54:03.793350 20510 net.cpp:399] inception_4a/pool -> inception_4a/pool
I0403 15:54:03.793416 20510 net.cpp:141] Setting up inception_4a/pool
I0403 15:54:03.793440 20510 net.cpp:148] Top shape: 24 480 14 14 (2257920)
I0403 15:54:03.793455 20510 net.cpp:156] Memory required for data: 884503584
I0403 15:54:03.793470 20510 layer_factory.hpp:77] Creating layer inception_4a/pool_proj
I0403 15:54:03.793493 20510 net.cpp:91] Creating Layer inception_4a/pool_proj
I0403 15:54:03.793510 20510 net.cpp:425] inception_4a/pool_proj <- inception_4a/pool
I0403 15:54:03.793531 20510 net.cpp:399] inception_4a/pool_proj -> inception_4a/pool_proj
I0403 15:54:03.794775 20510 net.cpp:141] Setting up inception_4a/pool_proj
I0403 15:54:03.794805 20510 net.cpp:148] Top shape: 24 64 14 14 (301056)
I0403 15:54:03.794836 20510 net.cpp:156] Memory required for data: 885707808
I0403 15:54:03.794857 20510 layer_factory.hpp:77] Creating layer inception_4a/relu_pool_proj
I0403 15:54:03.794878 20510 net.cpp:91] Creating Layer inception_4a/relu_pool_proj
I0403 15:54:03.794895 20510 net.cpp:425] inception_4a/relu_pool_proj <- inception_4a/pool_proj
I0403 15:54:03.794914 20510 net.cpp:386] inception_4a/relu_pool_proj -> inception_4a/pool_proj (in-place)
I0403 15:54:03.795220 20510 net.cpp:141] Setting up inception_4a/relu_pool_proj
I0403 15:54:03.795248 20510 net.cpp:148] Top shape: 24 64 14 14 (301056)
I0403 15:54:03.795264 20510 net.cpp:156] Memory required for data: 886912032
I0403 15:54:03.795279 20510 layer_factory.hpp:77] Creating layer inception_4a/output
I0403 15:54:03.795300 20510 net.cpp:91] Creating Layer inception_4a/output
I0403 15:54:03.795316 20510 net.cpp:425] inception_4a/output <- inception_4a/1x1
I0403 15:54:03.795333 20510 net.cpp:425] inception_4a/output <- inception_4a/3x3
I0403 15:54:03.795351 20510 net.cpp:425] inception_4a/output <- inception_4a/5x5
I0403 15:54:03.795367 20510 net.cpp:425] inception_4a/output <- inception_4a/pool_proj
I0403 15:54:03.795383 20510 net.cpp:399] inception_4a/output -> inception_4a/output
I0403 15:54:03.795433 20510 net.cpp:141] Setting up inception_4a/output
I0403 15:54:03.795456 20510 net.cpp:148] Top shape: 24 512 14 14 (2408448)
I0403 15:54:03.795471 20510 net.cpp:156] Memory required for data: 896545824
I0403 15:54:03.795486 20510 layer_factory.hpp:77] Creating layer inception_4a/output_inception_4a/output_0_split
I0403 15:54:03.795503 20510 net.cpp:91] Creating Layer inception_4a/output_inception_4a/output_0_split
I0403 15:54:03.795519 20510 net.cpp:425] inception_4a/output_inception_4a/output_0_split <- inception_4a/output
I0403 15:54:03.795541 20510 net.cpp:399] inception_4a/output_inception_4a/output_0_split -> inception_4a/output_inception_4a/output_0_split_0
I0403 15:54:03.795562 20510 net.cpp:399] inception_4a/output_inception_4a/output_0_split -> inception_4a/output_inception_4a/output_0_split_1
I0403 15:54:03.795583 20510 net.cpp:399] inception_4a/output_inception_4a/output_0_split -> inception_4a/output_inception_4a/output_0_split_2
I0403 15:54:03.795603 20510 net.cpp:399] inception_4a/output_inception_4a/output_0_split -> inception_4a/output_inception_4a/output_0_split_3
I0403 15:54:03.795627 20510 net.cpp:399] inception_4a/output_inception_4a/output_0_split -> inception_4a/output_inception_4a/output_0_split_4
I0403 15:54:03.795724 20510 net.cpp:141] Setting up inception_4a/output_inception_4a/output_0_split
I0403 15:54:03.795749 20510 net.cpp:148] Top shape: 24 512 14 14 (2408448)
I0403 15:54:03.795766 20510 net.cpp:148] Top shape: 24 512 14 14 (2408448)
I0403 15:54:03.795781 20510 net.cpp:148] Top shape: 24 512 14 14 (2408448)
I0403 15:54:03.795797 20510 net.cpp:148] Top shape: 24 512 14 14 (2408448)
I0403 15:54:03.795814 20510 net.cpp:148] Top shape: 24 512 14 14 (2408448)
I0403 15:54:03.795827 20510 net.cpp:156] Memory required for data: 944714784
I0403 15:54:03.795841 20510 layer_factory.hpp:77] Creating layer loss1/ave_pool
I0403 15:54:03.795860 20510 net.cpp:91] Creating Layer loss1/ave_pool
I0403 15:54:03.795876 20510 net.cpp:425] loss1/ave_pool <- inception_4a/output_inception_4a/output_0_split_0
I0403 15:54:03.795897 20510 net.cpp:399] loss1/ave_pool -> loss1/ave_pool
I0403 15:54:03.796123 20510 net.cpp:141] Setting up loss1/ave_pool
I0403 15:54:03.796150 20510 net.cpp:148] Top shape: 24 512 4 4 (196608)
I0403 15:54:03.796165 20510 net.cpp:156] Memory required for data: 945501216
I0403 15:54:03.796180 20510 layer_factory.hpp:77] Creating layer loss1/conv
I0403 15:54:03.796205 20510 net.cpp:91] Creating Layer loss1/conv
I0403 15:54:03.796222 20510 net.cpp:425] loss1/conv <- loss1/ave_pool
I0403 15:54:03.796241 20510 net.cpp:399] loss1/conv -> loss1/conv
I0403 15:54:03.797742 20510 net.cpp:141] Setting up loss1/conv
I0403 15:54:03.797772 20510 net.cpp:148] Top shape: 24 128 4 4 (49152)
I0403 15:54:03.797802 20510 net.cpp:156] Memory required for data: 945697824
I0403 15:54:03.797823 20510 layer_factory.hpp:77] Creating layer loss1/relu_conv
I0403 15:54:03.797842 20510 net.cpp:91] Creating Layer loss1/relu_conv
I0403 15:54:03.797858 20510 net.cpp:425] loss1/relu_conv <- loss1/conv
I0403 15:54:03.797878 20510 net.cpp:386] loss1/relu_conv -> loss1/conv (in-place)
I0403 15:54:03.798198 20510 net.cpp:141] Setting up loss1/relu_conv
I0403 15:54:03.798225 20510 net.cpp:148] Top shape: 24 128 4 4 (49152)
I0403 15:54:03.798241 20510 net.cpp:156] Memory required for data: 945894432
I0403 15:54:03.798256 20510 layer_factory.hpp:77] Creating layer loss1/fc
I0403 15:54:03.798280 20510 net.cpp:91] Creating Layer loss1/fc
I0403 15:54:03.798298 20510 net.cpp:425] loss1/fc <- loss1/conv
I0403 15:54:03.798319 20510 net.cpp:399] loss1/fc -> loss1/fc
I0403 15:54:03.817730 20510 net.cpp:141] Setting up loss1/fc
I0403 15:54:03.817773 20510 net.cpp:148] Top shape: 24 1024 (24576)
I0403 15:54:03.817790 20510 net.cpp:156] Memory required for data: 945992736
I0403 15:54:03.817811 20510 layer_factory.hpp:77] Creating layer loss1/relu_fc
I0403 15:54:03.817831 20510 net.cpp:91] Creating Layer loss1/relu_fc
I0403 15:54:03.817848 20510 net.cpp:425] loss1/relu_fc <- loss1/fc
I0403 15:54:03.817867 20510 net.cpp:386] loss1/relu_fc -> loss1/fc (in-place)
I0403 15:54:03.818114 20510 net.cpp:141] Setting up loss1/relu_fc
I0403 15:54:03.818141 20510 net.cpp:148] Top shape: 24 1024 (24576)
I0403 15:54:03.818157 20510 net.cpp:156] Memory required for data: 946091040
I0403 15:54:03.818172 20510 layer_factory.hpp:77] Creating layer loss1/drop_fc
I0403 15:54:03.818200 20510 net.cpp:91] Creating Layer loss1/drop_fc
I0403 15:54:03.818217 20510 net.cpp:425] loss1/drop_fc <- loss1/fc
I0403 15:54:03.818234 20510 net.cpp:386] loss1/drop_fc -> loss1/fc (in-place)
I0403 15:54:03.818290 20510 net.cpp:141] Setting up loss1/drop_fc
I0403 15:54:03.818315 20510 net.cpp:148] Top shape: 24 1024 (24576)
I0403 15:54:03.818328 20510 net.cpp:156] Memory required for data: 946189344
I0403 15:54:03.818343 20510 layer_factory.hpp:77] Creating layer loss1/classifier_plantvillage
I0403 15:54:03.818366 20510 net.cpp:91] Creating Layer loss1/classifier_plantvillage
I0403 15:54:03.818382 20510 net.cpp:425] loss1/classifier_plantvillage <- loss1/fc
I0403 15:54:03.818399 20510 net.cpp:399] loss1/classifier_plantvillage -> loss1/classifier_plantvillage
I0403 15:54:03.819367 20510 net.cpp:141] Setting up loss1/classifier_plantvillage
I0403 15:54:03.819397 20510 net.cpp:148] Top shape: 24 38 (912)
I0403 15:54:03.819412 20510 net.cpp:156] Memory required for data: 946192992
I0403 15:54:03.819430 20510 layer_factory.hpp:77] Creating layer loss1/classifier_plantvillage_loss1/classifier_plantvillage_0_split
I0403 15:54:03.819448 20510 net.cpp:91] Creating Layer loss1/classifier_plantvillage_loss1/classifier_plantvillage_0_split
I0403 15:54:03.819463 20510 net.cpp:425] loss1/classifier_plantvillage_loss1/classifier_plantvillage_0_split <- loss1/classifier_plantvillage
I0403 15:54:03.819480 20510 net.cpp:399] loss1/classifier_plantvillage_loss1/classifier_plantvillage_0_split -> loss1/classifier_plantvillage_loss1/classifier_plantvillage_0_split_0
I0403 15:54:03.819499 20510 net.cpp:399] loss1/classifier_plantvillage_loss1/classifier_plantvillage_0_split -> loss1/classifier_plantvillage_loss1/classifier_plantvillage_0_split_1
I0403 15:54:03.819521 20510 net.cpp:399] loss1/classifier_plantvillage_loss1/classifier_plantvillage_0_split -> loss1/classifier_plantvillage_loss1/classifier_plantvillage_0_split_2
I0403 15:54:03.819587 20510 net.cpp:141] Setting up loss1/classifier_plantvillage_loss1/classifier_plantvillage_0_split
I0403 15:54:03.819610 20510 net.cpp:148] Top shape: 24 38 (912)
I0403 15:54:03.819627 20510 net.cpp:148] Top shape: 24 38 (912)
I0403 15:54:03.819640 20510 net.cpp:148] Top shape: 24 38 (912)
I0403 15:54:03.819654 20510 net.cpp:156] Memory required for data: 946203936
I0403 15:54:03.819669 20510 layer_factory.hpp:77] Creating layer inception_4b/1x1
I0403 15:54:03.819689 20510 net.cpp:91] Creating Layer inception_4b/1x1
I0403 15:54:03.819727 20510 net.cpp:425] inception_4b/1x1 <- inception_4a/output_inception_4a/output_0_split_1
I0403 15:54:03.819749 20510 net.cpp:399] inception_4b/1x1 -> inception_4b/1x1
I0403 15:54:03.821472 20510 net.cpp:141] Setting up inception_4b/1x1
I0403 15:54:03.821501 20510 net.cpp:148] Top shape: 24 160 14 14 (752640)
I0403 15:54:03.821516 20510 net.cpp:156] Memory required for data: 949214496
I0403 15:54:03.821535 20510 layer_factory.hpp:77] Creating layer inception_4b/relu_1x1
I0403 15:54:03.821552 20510 net.cpp:91] Creating Layer inception_4b/relu_1x1
I0403 15:54:03.821568 20510 net.cpp:425] inception_4b/relu_1x1 <- inception_4b/1x1
I0403 15:54:03.821588 20510 net.cpp:386] inception_4b/relu_1x1 -> inception_4b/1x1 (in-place)
I0403 15:54:03.821768 20510 net.cpp:141] Setting up inception_4b/relu_1x1
I0403 15:54:03.821792 20510 net.cpp:148] Top shape: 24 160 14 14 (752640)
I0403 15:54:03.821806 20510 net.cpp:156] Memory required for data: 952225056
I0403 15:54:03.821821 20510 layer_factory.hpp:77] Creating layer inception_4b/3x3_reduce
I0403 15:54:03.821843 20510 net.cpp:91] Creating Layer inception_4b/3x3_reduce
I0403 15:54:03.821859 20510 net.cpp:425] inception_4b/3x3_reduce <- inception_4a/output_inception_4a/output_0_split_2
I0403 15:54:03.821879 20510 net.cpp:399] inception_4b/3x3_reduce -> inception_4b/3x3_reduce
I0403 15:54:03.823279 20510 net.cpp:141] Setting up inception_4b/3x3_reduce
I0403 15:54:03.823308 20510 net.cpp:148] Top shape: 24 112 14 14 (526848)
I0403 15:54:03.823324 20510 net.cpp:156] Memory required for data: 954332448
I0403 15:54:03.823355 20510 layer_factory.hpp:77] Creating layer inception_4b/relu_3x3_reduce
I0403 15:54:03.823376 20510 net.cpp:91] Creating Layer inception_4b/relu_3x3_reduce
I0403 15:54:03.823393 20510 net.cpp:425] inception_4b/relu_3x3_reduce <- inception_4b/3x3_reduce
I0403 15:54:03.823421 20510 net.cpp:386] inception_4b/relu_3x3_reduce -> inception_4b/3x3_reduce (in-place)
I0403 15:54:03.823706 20510 net.cpp:141] Setting up inception_4b/relu_3x3_reduce
I0403 15:54:03.823732 20510 net.cpp:148] Top shape: 24 112 14 14 (526848)
I0403 15:54:03.823746 20510 net.cpp:156] Memory required for data: 956439840
I0403 15:54:03.823760 20510 layer_factory.hpp:77] Creating layer inception_4b/3x3
I0403 15:54:03.823782 20510 net.cpp:91] Creating Layer inception_4b/3x3
I0403 15:54:03.823799 20510 net.cpp:425] inception_4b/3x3 <- inception_4b/3x3_reduce
I0403 15:54:03.823820 20510 net.cpp:399] inception_4b/3x3 -> inception_4b/3x3
I0403 15:54:03.826889 20510 net.cpp:141] Setting up inception_4b/3x3
I0403 15:54:03.826920 20510 net.cpp:148] Top shape: 24 224 14 14 (1053696)
I0403 15:54:03.826936 20510 net.cpp:156] Memory required for data: 960654624
I0403 15:54:03.826953 20510 layer_factory.hpp:77] Creating layer inception_4b/relu_3x3
I0403 15:54:03.826970 20510 net.cpp:91] Creating Layer inception_4b/relu_3x3
I0403 15:54:03.826987 20510 net.cpp:425] inception_4b/relu_3x3 <- inception_4b/3x3
I0403 15:54:03.827003 20510 net.cpp:386] inception_4b/relu_3x3 -> inception_4b/3x3 (in-place)
I0403 15:54:03.827206 20510 net.cpp:141] Setting up inception_4b/relu_3x3
I0403 15:54:03.827234 20510 net.cpp:148] Top shape: 24 224 14 14 (1053696)
I0403 15:54:03.827249 20510 net.cpp:156] Memory required for data: 964869408
I0403 15:54:03.827263 20510 layer_factory.hpp:77] Creating layer inception_4b/5x5_reduce
I0403 15:54:03.827286 20510 net.cpp:91] Creating Layer inception_4b/5x5_reduce
I0403 15:54:03.827303 20510 net.cpp:425] inception_4b/5x5_reduce <- inception_4a/output_inception_4a/output_0_split_3
I0403 15:54:03.827324 20510 net.cpp:399] inception_4b/5x5_reduce -> inception_4b/5x5_reduce
I0403 15:54:03.828431 20510 net.cpp:141] Setting up inception_4b/5x5_reduce
I0403 15:54:03.828459 20510 net.cpp:148] Top shape: 24 24 14 14 (112896)
I0403 15:54:03.828474 20510 net.cpp:156] Memory required for data: 965320992
I0403 15:54:03.828491 20510 layer_factory.hpp:77] Creating layer inception_4b/relu_5x5_reduce
I0403 15:54:03.828515 20510 net.cpp:91] Creating Layer inception_4b/relu_5x5_reduce
I0403 15:54:03.828544 20510 net.cpp:425] inception_4b/relu_5x5_reduce <- inception_4b/5x5_reduce
I0403 15:54:03.828562 20510 net.cpp:386] inception_4b/relu_5x5_reduce -> inception_4b/5x5_reduce (in-place)
I0403 15:54:03.828747 20510 net.cpp:141] Setting up inception_4b/relu_5x5_reduce
I0403 15:54:03.828773 20510 net.cpp:148] Top shape: 24 24 14 14 (112896)
I0403 15:54:03.828786 20510 net.cpp:156] Memory required for data: 965772576
I0403 15:54:03.828800 20510 layer_factory.hpp:77] Creating layer inception_4b/5x5
I0403 15:54:03.828821 20510 net.cpp:91] Creating Layer inception_4b/5x5
I0403 15:54:03.828838 20510 net.cpp:425] inception_4b/5x5 <- inception_4b/5x5_reduce
I0403 15:54:03.828858 20510 net.cpp:399] inception_4b/5x5 -> inception_4b/5x5
I0403 15:54:03.830118 20510 net.cpp:141] Setting up inception_4b/5x5
I0403 15:54:03.830147 20510 net.cpp:148] Top shape: 24 64 14 14 (301056)
I0403 15:54:03.830162 20510 net.cpp:156] Memory required for data: 966976800
I0403 15:54:03.830179 20510 layer_factory.hpp:77] Creating layer inception_4b/relu_5x5
I0403 15:54:03.830196 20510 net.cpp:91] Creating Layer inception_4b/relu_5x5
I0403 15:54:03.830212 20510 net.cpp:425] inception_4b/relu_5x5 <- inception_4b/5x5
I0403 15:54:03.830230 20510 net.cpp:386] inception_4b/relu_5x5 -> inception_4b/5x5 (in-place)
I0403 15:54:03.830525 20510 net.cpp:141] Setting up inception_4b/relu_5x5
I0403 15:54:03.830551 20510 net.cpp:148] Top shape: 24 64 14 14 (301056)
I0403 15:54:03.830565 20510 net.cpp:156] Memory required for data: 968181024
I0403 15:54:03.830579 20510 layer_factory.hpp:77] Creating layer inception_4b/pool
I0403 15:54:03.830597 20510 net.cpp:91] Creating Layer inception_4b/pool
I0403 15:54:03.830612 20510 net.cpp:425] inception_4b/pool <- inception_4a/output_inception_4a/output_0_split_4
I0403 15:54:03.830634 20510 net.cpp:399] inception_4b/pool -> inception_4b/pool
I0403 15:54:03.830700 20510 net.cpp:141] Setting up inception_4b/pool
I0403 15:54:03.830723 20510 net.cpp:148] Top shape: 24 512 14 14 (2408448)
I0403 15:54:03.830736 20510 net.cpp:156] Memory required for data: 977814816
I0403 15:54:03.830751 20510 layer_factory.hpp:77] Creating layer inception_4b/pool_proj
I0403 15:54:03.830773 20510 net.cpp:91] Creating Layer inception_4b/pool_proj
I0403 15:54:03.830791 20510 net.cpp:425] inception_4b/pool_proj <- inception_4b/pool
I0403 15:54:03.830808 20510 net.cpp:399] inception_4b/pool_proj -> inception_4b/pool_proj
I0403 15:54:03.832042 20510 net.cpp:141] Setting up inception_4b/pool_proj
I0403 15:54:03.832074 20510 net.cpp:148] Top shape: 24 64 14 14 (301056)
I0403 15:54:03.832090 20510 net.cpp:156] Memory required for data: 979019040
I0403 15:54:03.832108 20510 layer_factory.hpp:77] Creating layer inception_4b/relu_pool_proj
I0403 15:54:03.832126 20510 net.cpp:91] Creating Layer inception_4b/relu_pool_proj
I0403 15:54:03.832142 20510 net.cpp:425] inception_4b/relu_pool_proj <- inception_4b/pool_proj
I0403 15:54:03.832161 20510 net.cpp:386] inception_4b/relu_pool_proj -> inception_4b/pool_proj (in-place)
I0403 15:54:03.832373 20510 net.cpp:141] Setting up inception_4b/relu_pool_proj
I0403 15:54:03.832398 20510 net.cpp:148] Top shape: 24 64 14 14 (301056)
I0403 15:54:03.832412 20510 net.cpp:156] Memory required for data: 980223264
I0403 15:54:03.832427 20510 layer_factory.hpp:77] Creating layer inception_4b/output
I0403 15:54:03.832445 20510 net.cpp:91] Creating Layer inception_4b/output
I0403 15:54:03.832461 20510 net.cpp:425] inception_4b/output <- inception_4b/1x1
I0403 15:54:03.832478 20510 net.cpp:425] inception_4b/output <- inception_4b/3x3
I0403 15:54:03.832494 20510 net.cpp:425] inception_4b/output <- inception_4b/5x5
I0403 15:54:03.832507 20510 net.cpp:425] inception_4b/output <- inception_4b/pool_proj
I0403 15:54:03.832525 20510 net.cpp:399] inception_4b/output -> inception_4b/output
I0403 15:54:03.832571 20510 net.cpp:141] Setting up inception_4b/output
I0403 15:54:03.832593 20510 net.cpp:148] Top shape: 24 512 14 14 (2408448)
I0403 15:54:03.832607 20510 net.cpp:156] Memory required for data: 989857056
I0403 15:54:03.832635 20510 layer_factory.hpp:77] Creating layer inception_4b/output_inception_4b/output_0_split
I0403 15:54:03.832653 20510 net.cpp:91] Creating Layer inception_4b/output_inception_4b/output_0_split
I0403 15:54:03.832667 20510 net.cpp:425] inception_4b/output_inception_4b/output_0_split <- inception_4b/output
I0403 15:54:03.832686 20510 net.cpp:399] inception_4b/output_inception_4b/output_0_split -> inception_4b/output_inception_4b/output_0_split_0
I0403 15:54:03.832707 20510 net.cpp:399] inception_4b/output_inception_4b/output_0_split -> inception_4b/output_inception_4b/output_0_split_1
I0403 15:54:03.832726 20510 net.cpp:399] inception_4b/output_inception_4b/output_0_split -> inception_4b/output_inception_4b/output_0_split_2
I0403 15:54:03.832746 20510 net.cpp:399] inception_4b/output_inception_4b/output_0_split -> inception_4b/output_inception_4b/output_0_split_3
I0403 15:54:03.832826 20510 net.cpp:141] Setting up inception_4b/output_inception_4b/output_0_split
I0403 15:54:03.832852 20510 net.cpp:148] Top shape: 24 512 14 14 (2408448)
I0403 15:54:03.832869 20510 net.cpp:148] Top shape: 24 512 14 14 (2408448)
I0403 15:54:03.832883 20510 net.cpp:148] Top shape: 24 512 14 14 (2408448)
I0403 15:54:03.832898 20510 net.cpp:148] Top shape: 24 512 14 14 (2408448)
I0403 15:54:03.832911 20510 net.cpp:156] Memory required for data: 1028392224
I0403 15:54:03.832926 20510 layer_factory.hpp:77] Creating layer inception_4c/1x1
I0403 15:54:03.832947 20510 net.cpp:91] Creating Layer inception_4c/1x1
I0403 15:54:03.832963 20510 net.cpp:425] inception_4c/1x1 <- inception_4b/output_inception_4b/output_0_split_0
I0403 15:54:03.832981 20510 net.cpp:399] inception_4c/1x1 -> inception_4c/1x1
I0403 15:54:03.834460 20510 net.cpp:141] Setting up inception_4c/1x1
I0403 15:54:03.834488 20510 net.cpp:148] Top shape: 24 128 14 14 (602112)
I0403 15:54:03.834503 20510 net.cpp:156] Memory required for data: 1030800672
I0403 15:54:03.834520 20510 layer_factory.hpp:77] Creating layer inception_4c/relu_1x1
I0403 15:54:03.834542 20510 net.cpp:91] Creating Layer inception_4c/relu_1x1
I0403 15:54:03.834558 20510 net.cpp:425] inception_4c/relu_1x1 <- inception_4c/1x1
I0403 15:54:03.834573 20510 net.cpp:386] inception_4c/relu_1x1 -> inception_4c/1x1 (in-place)
I0403 15:54:03.834758 20510 net.cpp:141] Setting up inception_4c/relu_1x1
I0403 15:54:03.834785 20510 net.cpp:148] Top shape: 24 128 14 14 (602112)
I0403 15:54:03.834800 20510 net.cpp:156] Memory required for data: 1033209120
I0403 15:54:03.834813 20510 layer_factory.hpp:77] Creating layer inception_4c/3x3_reduce
I0403 15:54:03.834836 20510 net.cpp:91] Creating Layer inception_4c/3x3_reduce
I0403 15:54:03.834852 20510 net.cpp:425] inception_4c/3x3_reduce <- inception_4b/output_inception_4b/output_0_split_1
I0403 15:54:03.834870 20510 net.cpp:399] inception_4c/3x3_reduce -> inception_4c/3x3_reduce
I0403 15:54:03.836818 20510 net.cpp:141] Setting up inception_4c/3x3_reduce
I0403 15:54:03.836848 20510 net.cpp:148] Top shape: 24 128 14 14 (602112)
I0403 15:54:03.836864 20510 net.cpp:156] Memory required for data: 1035617568
I0403 15:54:03.836882 20510 layer_factory.hpp:77] Creating layer inception_4c/relu_3x3_reduce
I0403 15:54:03.836899 20510 net.cpp:91] Creating Layer inception_4c/relu_3x3_reduce
I0403 15:54:03.836915 20510 net.cpp:425] inception_4c/relu_3x3_reduce <- inception_4c/3x3_reduce
I0403 15:54:03.836935 20510 net.cpp:386] inception_4c/relu_3x3_reduce -> inception_4c/3x3_reduce (in-place)
I0403 15:54:03.837226 20510 net.cpp:141] Setting up inception_4c/relu_3x3_reduce
I0403 15:54:03.837255 20510 net.cpp:148] Top shape: 24 128 14 14 (602112)
I0403 15:54:03.837270 20510 net.cpp:156] Memory required for data: 1038026016
I0403 15:54:03.837285 20510 layer_factory.hpp:77] Creating layer inception_4c/3x3
I0403 15:54:03.837307 20510 net.cpp:91] Creating Layer inception_4c/3x3
I0403 15:54:03.837324 20510 net.cpp:425] inception_4c/3x3 <- inception_4c/3x3_reduce
I0403 15:54:03.837342 20510 net.cpp:399] inception_4c/3x3 -> inception_4c/3x3
I0403 15:54:03.840898 20510 net.cpp:141] Setting up inception_4c/3x3
I0403 15:54:03.840937 20510 net.cpp:148] Top shape: 24 256 14 14 (1204224)
I0403 15:54:03.840952 20510 net.cpp:156] Memory required for data: 1042842912
I0403 15:54:03.840983 20510 layer_factory.hpp:77] Creating layer inception_4c/relu_3x3
I0403 15:54:03.841003 20510 net.cpp:91] Creating Layer inception_4c/relu_3x3
I0403 15:54:03.841018 20510 net.cpp:425] inception_4c/relu_3x3 <- inception_4c/3x3
I0403 15:54:03.841037 20510 net.cpp:386] inception_4c/relu_3x3 -> inception_4c/3x3 (in-place)
I0403 15:54:03.841220 20510 net.cpp:141] Setting up inception_4c/relu_3x3
I0403 15:54:03.841244 20510 net.cpp:148] Top shape: 24 256 14 14 (1204224)
I0403 15:54:03.841258 20510 net.cpp:156] Memory required for data: 1047659808
I0403 15:54:03.841271 20510 layer_factory.hpp:77] Creating layer inception_4c/5x5_reduce
I0403 15:54:03.841294 20510 net.cpp:91] Creating Layer inception_4c/5x5_reduce
I0403 15:54:03.841310 20510 net.cpp:425] inception_4c/5x5_reduce <- inception_4b/output_inception_4b/output_0_split_2
I0403 15:54:03.841330 20510 net.cpp:399] inception_4c/5x5_reduce -> inception_4c/5x5_reduce
I0403 15:54:03.842391 20510 net.cpp:141] Setting up inception_4c/5x5_reduce
I0403 15:54:03.842418 20510 net.cpp:148] Top shape: 24 24 14 14 (112896)
I0403 15:54:03.842433 20510 net.cpp:156] Memory required for data: 1048111392
I0403 15:54:03.842450 20510 layer_factory.hpp:77] Creating layer inception_4c/relu_5x5_reduce
I0403 15:54:03.842468 20510 net.cpp:91] Creating Layer inception_4c/relu_5x5_reduce
I0403 15:54:03.842484 20510 net.cpp:425] inception_4c/relu_5x5_reduce <- inception_4c/5x5_reduce
I0403 15:54:03.842500 20510 net.cpp:386] inception_4c/relu_5x5_reduce -> inception_4c/5x5_reduce (in-place)
I0403 15:54:03.842682 20510 net.cpp:141] Setting up inception_4c/relu_5x5_reduce
I0403 15:54:03.842706 20510 net.cpp:148] Top shape: 24 24 14 14 (112896)
I0403 15:54:03.842720 20510 net.cpp:156] Memory required for data: 1048562976
I0403 15:54:03.842733 20510 layer_factory.hpp:77] Creating layer inception_4c/5x5
I0403 15:54:03.842754 20510 net.cpp:91] Creating Layer inception_4c/5x5
I0403 15:54:03.842772 20510 net.cpp:425] inception_4c/5x5 <- inception_4c/5x5_reduce
I0403 15:54:03.842790 20510 net.cpp:399] inception_4c/5x5 -> inception_4c/5x5
I0403 15:54:03.844012 20510 net.cpp:141] Setting up inception_4c/5x5
I0403 15:54:03.844038 20510 net.cpp:148] Top shape: 24 64 14 14 (301056)
I0403 15:54:03.844058 20510 net.cpp:156] Memory required for data: 1049767200
I0403 15:54:03.844075 20510 layer_factory.hpp:77] Creating layer inception_4c/relu_5x5
I0403 15:54:03.844094 20510 net.cpp:91] Creating Layer inception_4c/relu_5x5
I0403 15:54:03.844110 20510 net.cpp:425] inception_4c/relu_5x5 <- inception_4c/5x5
I0403 15:54:03.844125 20510 net.cpp:386] inception_4c/relu_5x5 -> inception_4c/5x5 (in-place)
I0403 15:54:03.844414 20510 net.cpp:141] Setting up inception_4c/relu_5x5
I0403 15:54:03.844440 20510 net.cpp:148] Top shape: 24 64 14 14 (301056)
I0403 15:54:03.844454 20510 net.cpp:156] Memory required for data: 1050971424
I0403 15:54:03.844467 20510 layer_factory.hpp:77] Creating layer inception_4c/pool
I0403 15:54:03.844486 20510 net.cpp:91] Creating Layer inception_4c/pool
I0403 15:54:03.844502 20510 net.cpp:425] inception_4c/pool <- inception_4b/output_inception_4b/output_0_split_3
I0403 15:54:03.844519 20510 net.cpp:399] inception_4c/pool -> inception_4c/pool
I0403 15:54:03.844583 20510 net.cpp:141] Setting up inception_4c/pool
I0403 15:54:03.844604 20510 net.cpp:148] Top shape: 24 512 14 14 (2408448)
I0403 15:54:03.844617 20510 net.cpp:156] Memory required for data: 1060605216
I0403 15:54:03.844630 20510 layer_factory.hpp:77] Creating layer inception_4c/pool_proj
I0403 15:54:03.844651 20510 net.cpp:91] Creating Layer inception_4c/pool_proj
I0403 15:54:03.844668 20510 net.cpp:425] inception_4c/pool_proj <- inception_4c/pool
I0403 15:54:03.844687 20510 net.cpp:399] inception_4c/pool_proj -> inception_4c/pool_proj
I0403 15:54:03.845883 20510 net.cpp:141] Setting up inception_4c/pool_proj
I0403 15:54:03.845911 20510 net.cpp:148] Top shape: 24 64 14 14 (301056)
I0403 15:54:03.845937 20510 net.cpp:156] Memory required for data: 1061809440
I0403 15:54:03.845957 20510 layer_factory.hpp:77] Creating layer inception_4c/relu_pool_proj
I0403 15:54:03.845973 20510 net.cpp:91] Creating Layer inception_4c/relu_pool_proj
I0403 15:54:03.845988 20510 net.cpp:425] inception_4c/relu_pool_proj <- inception_4c/pool_proj
I0403 15:54:03.846006 20510 net.cpp:386] inception_4c/relu_pool_proj -> inception_4c/pool_proj (in-place)
I0403 15:54:03.846192 20510 net.cpp:141] Setting up inception_4c/relu_pool_proj
I0403 15:54:03.846216 20510 net.cpp:148] Top shape: 24 64 14 14 (301056)
I0403 15:54:03.846230 20510 net.cpp:156] Memory required for data: 1063013664
I0403 15:54:03.846243 20510 layer_factory.hpp:77] Creating layer inception_4c/output
I0403 15:54:03.846262 20510 net.cpp:91] Creating Layer inception_4c/output
I0403 15:54:03.846277 20510 net.cpp:425] inception_4c/output <- inception_4c/1x1
I0403 15:54:03.846293 20510 net.cpp:425] inception_4c/output <- inception_4c/3x3
I0403 15:54:03.846307 20510 net.cpp:425] inception_4c/output <- inception_4c/5x5
I0403 15:54:03.846323 20510 net.cpp:425] inception_4c/output <- inception_4c/pool_proj
I0403 15:54:03.846338 20510 net.cpp:399] inception_4c/output -> inception_4c/output
I0403 15:54:03.846384 20510 net.cpp:141] Setting up inception_4c/output
I0403 15:54:03.846405 20510 net.cpp:148] Top shape: 24 512 14 14 (2408448)
I0403 15:54:03.846420 20510 net.cpp:156] Memory required for data: 1072647456
I0403 15:54:03.846432 20510 layer_factory.hpp:77] Creating layer inception_4c/output_inception_4c/output_0_split
I0403 15:54:03.846448 20510 net.cpp:91] Creating Layer inception_4c/output_inception_4c/output_0_split
I0403 15:54:03.846463 20510 net.cpp:425] inception_4c/output_inception_4c/output_0_split <- inception_4c/output
I0403 15:54:03.846482 20510 net.cpp:399] inception_4c/output_inception_4c/output_0_split -> inception_4c/output_inception_4c/output_0_split_0
I0403 15:54:03.846500 20510 net.cpp:399] inception_4c/output_inception_4c/output_0_split -> inception_4c/output_inception_4c/output_0_split_1
I0403 15:54:03.846519 20510 net.cpp:399] inception_4c/output_inception_4c/output_0_split -> inception_4c/output_inception_4c/output_0_split_2
I0403 15:54:03.846537 20510 net.cpp:399] inception_4c/output_inception_4c/output_0_split -> inception_4c/output_inception_4c/output_0_split_3
I0403 15:54:03.846616 20510 net.cpp:141] Setting up inception_4c/output_inception_4c/output_0_split
I0403 15:54:03.846642 20510 net.cpp:148] Top shape: 24 512 14 14 (2408448)
I0403 15:54:03.846657 20510 net.cpp:148] Top shape: 24 512 14 14 (2408448)
I0403 15:54:03.846671 20510 net.cpp:148] Top shape: 24 512 14 14 (2408448)
I0403 15:54:03.846686 20510 net.cpp:148] Top shape: 24 512 14 14 (2408448)
I0403 15:54:03.846699 20510 net.cpp:156] Memory required for data: 1111182624
I0403 15:54:03.846712 20510 layer_factory.hpp:77] Creating layer inception_4d/1x1
I0403 15:54:03.846734 20510 net.cpp:91] Creating Layer inception_4d/1x1
I0403 15:54:03.846750 20510 net.cpp:425] inception_4d/1x1 <- inception_4c/output_inception_4c/output_0_split_0
I0403 15:54:03.846766 20510 net.cpp:399] inception_4d/1x1 -> inception_4d/1x1
I0403 15:54:03.848126 20510 net.cpp:141] Setting up inception_4d/1x1
I0403 15:54:03.848156 20510 net.cpp:148] Top shape: 24 112 14 14 (526848)
I0403 15:54:03.848171 20510 net.cpp:156] Memory required for data: 1113290016
I0403 15:54:03.848188 20510 layer_factory.hpp:77] Creating layer inception_4d/relu_1x1
I0403 15:54:03.848206 20510 net.cpp:91] Creating Layer inception_4d/relu_1x1
I0403 15:54:03.848220 20510 net.cpp:425] inception_4d/relu_1x1 <- inception_4d/1x1
I0403 15:54:03.848237 20510 net.cpp:386] inception_4d/relu_1x1 -> inception_4d/1x1 (in-place)
I0403 15:54:03.848418 20510 net.cpp:141] Setting up inception_4d/relu_1x1
I0403 15:54:03.848441 20510 net.cpp:148] Top shape: 24 112 14 14 (526848)
I0403 15:54:03.848454 20510 net.cpp:156] Memory required for data: 1115397408
I0403 15:54:03.848469 20510 layer_factory.hpp:77] Creating layer inception_4d/3x3_reduce
I0403 15:54:03.848502 20510 net.cpp:91] Creating Layer inception_4d/3x3_reduce
I0403 15:54:03.848520 20510 net.cpp:425] inception_4d/3x3_reduce <- inception_4c/output_inception_4c/output_0_split_1
I0403 15:54:03.848541 20510 net.cpp:399] inception_4d/3x3_reduce -> inception_4d/3x3_reduce
I0403 15:54:03.850011 20510 net.cpp:141] Setting up inception_4d/3x3_reduce
I0403 15:54:03.850039 20510 net.cpp:148] Top shape: 24 144 14 14 (677376)
I0403 15:54:03.850056 20510 net.cpp:156] Memory required for data: 1118106912
I0403 15:54:03.850075 20510 layer_factory.hpp:77] Creating layer inception_4d/relu_3x3_reduce
I0403 15:54:03.850095 20510 net.cpp:91] Creating Layer inception_4d/relu_3x3_reduce
I0403 15:54:03.850111 20510 net.cpp:425] inception_4d/relu_3x3_reduce <- inception_4d/3x3_reduce
I0403 15:54:03.850127 20510 net.cpp:386] inception_4d/relu_3x3_reduce -> inception_4d/3x3_reduce (in-place)
I0403 15:54:03.850412 20510 net.cpp:141] Setting up inception_4d/relu_3x3_reduce
I0403 15:54:03.850437 20510 net.cpp:148] Top shape: 24 144 14 14 (677376)
I0403 15:54:03.850451 20510 net.cpp:156] Memory required for data: 1120816416
I0403 15:54:03.850466 20510 layer_factory.hpp:77] Creating layer inception_4d/3x3
I0403 15:54:03.850486 20510 net.cpp:91] Creating Layer inception_4d/3x3
I0403 15:54:03.850503 20510 net.cpp:425] inception_4d/3x3 <- inception_4d/3x3_reduce
I0403 15:54:03.850520 20510 net.cpp:399] inception_4d/3x3 -> inception_4d/3x3
I0403 15:54:03.854818 20510 net.cpp:141] Setting up inception_4d/3x3
I0403 15:54:03.854848 20510 net.cpp:148] Top shape: 24 288 14 14 (1354752)
I0403 15:54:03.854864 20510 net.cpp:156] Memory required for data: 1126235424
I0403 15:54:03.854882 20510 layer_factory.hpp:77] Creating layer inception_4d/relu_3x3
I0403 15:54:03.854899 20510 net.cpp:91] Creating Layer inception_4d/relu_3x3
I0403 15:54:03.854915 20510 net.cpp:425] inception_4d/relu_3x3 <- inception_4d/3x3
I0403 15:54:03.854933 20510 net.cpp:386] inception_4d/relu_3x3 -> inception_4d/3x3 (in-place)
I0403 15:54:03.855123 20510 net.cpp:141] Setting up inception_4d/relu_3x3
I0403 15:54:03.855149 20510 net.cpp:148] Top shape: 24 288 14 14 (1354752)
I0403 15:54:03.855162 20510 net.cpp:156] Memory required for data: 1131654432
I0403 15:54:03.855176 20510 layer_factory.hpp:77] Creating layer inception_4d/5x5_reduce
I0403 15:54:03.855197 20510 net.cpp:91] Creating Layer inception_4d/5x5_reduce
I0403 15:54:03.855216 20510 net.cpp:425] inception_4d/5x5_reduce <- inception_4c/output_inception_4c/output_0_split_2
I0403 15:54:03.855235 20510 net.cpp:399] inception_4d/5x5_reduce -> inception_4d/5x5_reduce
I0403 15:54:03.856392 20510 net.cpp:141] Setting up inception_4d/5x5_reduce
I0403 15:54:03.856423 20510 net.cpp:148] Top shape: 24 32 14 14 (150528)
I0403 15:54:03.856439 20510 net.cpp:156] Memory required for data: 1132256544
I0403 15:54:03.856457 20510 layer_factory.hpp:77] Creating layer inception_4d/relu_5x5_reduce
I0403 15:54:03.856475 20510 net.cpp:91] Creating Layer inception_4d/relu_5x5_reduce
I0403 15:54:03.856490 20510 net.cpp:425] inception_4d/relu_5x5_reduce <- inception_4d/5x5_reduce
I0403 15:54:03.856508 20510 net.cpp:386] inception_4d/relu_5x5_reduce -> inception_4d/5x5_reduce (in-place)
I0403 15:54:03.856696 20510 net.cpp:141] Setting up inception_4d/relu_5x5_reduce
I0403 15:54:03.856721 20510 net.cpp:148] Top shape: 24 32 14 14 (150528)
I0403 15:54:03.856735 20510 net.cpp:156] Memory required for data: 1132858656
I0403 15:54:03.856750 20510 layer_factory.hpp:77] Creating layer inception_4d/5x5
I0403 15:54:03.856772 20510 net.cpp:91] Creating Layer inception_4d/5x5
I0403 15:54:03.856789 20510 net.cpp:425] inception_4d/5x5 <- inception_4d/5x5_reduce
I0403 15:54:03.856809 20510 net.cpp:399] inception_4d/5x5 -> inception_4d/5x5
I0403 15:54:03.858331 20510 net.cpp:141] Setting up inception_4d/5x5
I0403 15:54:03.858360 20510 net.cpp:148] Top shape: 24 64 14 14 (301056)
I0403 15:54:03.858374 20510 net.cpp:156] Memory required for data: 1134062880
I0403 15:54:03.858392 20510 layer_factory.hpp:77] Creating layer inception_4d/relu_5x5
I0403 15:54:03.858427 20510 net.cpp:91] Creating Layer inception_4d/relu_5x5
I0403 15:54:03.858444 20510 net.cpp:425] inception_4d/relu_5x5 <- inception_4d/5x5
I0403 15:54:03.858461 20510 net.cpp:386] inception_4d/relu_5x5 -> inception_4d/5x5 (in-place)
I0403 15:54:03.858780 20510 net.cpp:141] Setting up inception_4d/relu_5x5
I0403 15:54:03.858808 20510 net.cpp:148] Top shape: 24 64 14 14 (301056)
I0403 15:54:03.858822 20510 net.cpp:156] Memory required for data: 1135267104
I0403 15:54:03.858836 20510 layer_factory.hpp:77] Creating layer inception_4d/pool
I0403 15:54:03.858856 20510 net.cpp:91] Creating Layer inception_4d/pool
I0403 15:54:03.858875 20510 net.cpp:425] inception_4d/pool <- inception_4c/output_inception_4c/output_0_split_3
I0403 15:54:03.858892 20510 net.cpp:399] inception_4d/pool -> inception_4d/pool
I0403 15:54:03.858961 20510 net.cpp:141] Setting up inception_4d/pool
I0403 15:54:03.858986 20510 net.cpp:148] Top shape: 24 512 14 14 (2408448)
I0403 15:54:03.859001 20510 net.cpp:156] Memory required for data: 1144900896
I0403 15:54:03.859015 20510 layer_factory.hpp:77] Creating layer inception_4d/pool_proj
I0403 15:54:03.859037 20510 net.cpp:91] Creating Layer inception_4d/pool_proj
I0403 15:54:03.859060 20510 net.cpp:425] inception_4d/pool_proj <- inception_4d/pool
I0403 15:54:03.859082 20510 net.cpp:399] inception_4d/pool_proj -> inception_4d/pool_proj
I0403 15:54:03.860930 20510 net.cpp:141] Setting up inception_4d/pool_proj
I0403 15:54:03.860963 20510 net.cpp:148] Top shape: 24 64 14 14 (301056)
I0403 15:54:03.860980 20510 net.cpp:156] Memory required for data: 1146105120
I0403 15:54:03.860999 20510 layer_factory.hpp:77] Creating layer inception_4d/relu_pool_proj
I0403 15:54:03.861017 20510 net.cpp:91] Creating Layer inception_4d/relu_pool_proj
I0403 15:54:03.861033 20510 net.cpp:425] inception_4d/relu_pool_proj <- inception_4d/pool_proj
I0403 15:54:03.861058 20510 net.cpp:386] inception_4d/relu_pool_proj -> inception_4d/pool_proj (in-place)
I0403 15:54:03.861256 20510 net.cpp:141] Setting up inception_4d/relu_pool_proj
I0403 15:54:03.861281 20510 net.cpp:148] Top shape: 24 64 14 14 (301056)
I0403 15:54:03.861296 20510 net.cpp:156] Memory required for data: 1147309344
I0403 15:54:03.861310 20510 layer_factory.hpp:77] Creating layer inception_4d/output
I0403 15:54:03.861328 20510 net.cpp:91] Creating Layer inception_4d/output
I0403 15:54:03.861343 20510 net.cpp:425] inception_4d/output <- inception_4d/1x1
I0403 15:54:03.861359 20510 net.cpp:425] inception_4d/output <- inception_4d/3x3
I0403 15:54:03.861376 20510 net.cpp:425] inception_4d/output <- inception_4d/5x5
I0403 15:54:03.861392 20510 net.cpp:425] inception_4d/output <- inception_4d/pool_proj
I0403 15:54:03.861410 20510 net.cpp:399] inception_4d/output -> inception_4d/output
I0403 15:54:03.861459 20510 net.cpp:141] Setting up inception_4d/output
I0403 15:54:03.861485 20510 net.cpp:148] Top shape: 24 528 14 14 (2483712)
I0403 15:54:03.861500 20510 net.cpp:156] Memory required for data: 1157244192
I0403 15:54:03.861513 20510 layer_factory.hpp:77] Creating layer inception_4d/output_inception_4d/output_0_split
I0403 15:54:03.861531 20510 net.cpp:91] Creating Layer inception_4d/output_inception_4d/output_0_split
I0403 15:54:03.861547 20510 net.cpp:425] inception_4d/output_inception_4d/output_0_split <- inception_4d/output
I0403 15:54:03.861568 20510 net.cpp:399] inception_4d/output_inception_4d/output_0_split -> inception_4d/output_inception_4d/output_0_split_0
I0403 15:54:03.861588 20510 net.cpp:399] inception_4d/output_inception_4d/output_0_split -> inception_4d/output_inception_4d/output_0_split_1
I0403 15:54:03.861609 20510 net.cpp:399] inception_4d/output_inception_4d/output_0_split -> inception_4d/output_inception_4d/output_0_split_2
I0403 15:54:03.861629 20510 net.cpp:399] inception_4d/output_inception_4d/output_0_split -> inception_4d/output_inception_4d/output_0_split_3
I0403 15:54:03.861649 20510 net.cpp:399] inception_4d/output_inception_4d/output_0_split -> inception_4d/output_inception_4d/output_0_split_4
I0403 15:54:03.861752 20510 net.cpp:141] Setting up inception_4d/output_inception_4d/output_0_split
I0403 15:54:03.861790 20510 net.cpp:148] Top shape: 24 528 14 14 (2483712)
I0403 15:54:03.861809 20510 net.cpp:148] Top shape: 24 528 14 14 (2483712)
I0403 15:54:03.861824 20510 net.cpp:148] Top shape: 24 528 14 14 (2483712)
I0403 15:54:03.861838 20510 net.cpp:148] Top shape: 24 528 14 14 (2483712)
I0403 15:54:03.861853 20510 net.cpp:148] Top shape: 24 528 14 14 (2483712)
I0403 15:54:03.861867 20510 net.cpp:156] Memory required for data: 1206918432
I0403 15:54:03.861882 20510 layer_factory.hpp:77] Creating layer loss2/ave_pool
I0403 15:54:03.861899 20510 net.cpp:91] Creating Layer loss2/ave_pool
I0403 15:54:03.861914 20510 net.cpp:425] loss2/ave_pool <- inception_4d/output_inception_4d/output_0_split_0
I0403 15:54:03.861944 20510 net.cpp:399] loss2/ave_pool -> loss2/ave_pool
I0403 15:54:03.862300 20510 net.cpp:141] Setting up loss2/ave_pool
I0403 15:54:03.862329 20510 net.cpp:148] Top shape: 24 528 4 4 (202752)
I0403 15:54:03.862345 20510 net.cpp:156] Memory required for data: 1207729440
I0403 15:54:03.862361 20510 layer_factory.hpp:77] Creating layer loss2/conv
I0403 15:54:03.862383 20510 net.cpp:91] Creating Layer loss2/conv
I0403 15:54:03.862401 20510 net.cpp:425] loss2/conv <- loss2/ave_pool
I0403 15:54:03.862419 20510 net.cpp:399] loss2/conv -> loss2/conv
I0403 15:54:03.864431 20510 net.cpp:141] Setting up loss2/conv
I0403 15:54:03.864460 20510 net.cpp:148] Top shape: 24 128 4 4 (49152)
I0403 15:54:03.864476 20510 net.cpp:156] Memory required for data: 1207926048
I0403 15:54:03.864493 20510 layer_factory.hpp:77] Creating layer loss2/relu_conv
I0403 15:54:03.864513 20510 net.cpp:91] Creating Layer loss2/relu_conv
I0403 15:54:03.864531 20510 net.cpp:425] loss2/relu_conv <- loss2/conv
I0403 15:54:03.864547 20510 net.cpp:386] loss2/relu_conv -> loss2/conv (in-place)
I0403 15:54:03.864848 20510 net.cpp:141] Setting up loss2/relu_conv
I0403 15:54:03.864874 20510 net.cpp:148] Top shape: 24 128 4 4 (49152)
I0403 15:54:03.864889 20510 net.cpp:156] Memory required for data: 1208122656
I0403 15:54:03.864904 20510 layer_factory.hpp:77] Creating layer loss2/fc
I0403 15:54:03.864925 20510 net.cpp:91] Creating Layer loss2/fc
I0403 15:54:03.864943 20510 net.cpp:425] loss2/fc <- loss2/conv
I0403 15:54:03.864961 20510 net.cpp:399] loss2/fc -> loss2/fc
I0403 15:54:03.882809 20510 net.cpp:141] Setting up loss2/fc
I0403 15:54:03.882865 20510 net.cpp:148] Top shape: 24 1024 (24576)
I0403 15:54:03.882879 20510 net.cpp:156] Memory required for data: 1208220960
I0403 15:54:03.882899 20510 layer_factory.hpp:77] Creating layer loss2/relu_fc
I0403 15:54:03.882917 20510 net.cpp:91] Creating Layer loss2/relu_fc
I0403 15:54:03.882936 20510 net.cpp:425] loss2/relu_fc <- loss2/fc
I0403 15:54:03.882956 20510 net.cpp:386] loss2/relu_fc -> loss2/fc (in-place)
I0403 15:54:03.883307 20510 net.cpp:141] Setting up loss2/relu_fc
I0403 15:54:03.883333 20510 net.cpp:148] Top shape: 24 1024 (24576)
I0403 15:54:03.883348 20510 net.cpp:156] Memory required for data: 1208319264
I0403 15:54:03.883363 20510 layer_factory.hpp:77] Creating layer loss2/drop_fc
I0403 15:54:03.883381 20510 net.cpp:91] Creating Layer loss2/drop_fc
I0403 15:54:03.883396 20510 net.cpp:425] loss2/drop_fc <- loss2/fc
I0403 15:54:03.883414 20510 net.cpp:386] loss2/drop_fc -> loss2/fc (in-place)
I0403 15:54:03.883466 20510 net.cpp:141] Setting up loss2/drop_fc
I0403 15:54:03.883491 20510 net.cpp:148] Top shape: 24 1024 (24576)
I0403 15:54:03.883505 20510 net.cpp:156] Memory required for data: 1208417568
I0403 15:54:03.883519 20510 layer_factory.hpp:77] Creating layer loss2/classifier_plantvillage
I0403 15:54:03.883538 20510 net.cpp:91] Creating Layer loss2/classifier_plantvillage
I0403 15:54:03.883553 20510 net.cpp:425] loss2/classifier_plantvillage <- loss2/fc
I0403 15:54:03.883574 20510 net.cpp:399] loss2/classifier_plantvillage -> loss2/classifier_plantvillage
I0403 15:54:03.883987 20510 net.cpp:141] Setting up loss2/classifier_plantvillage
I0403 15:54:03.884011 20510 net.cpp:148] Top shape: 24 38 (912)
I0403 15:54:03.884045 20510 net.cpp:156] Memory required for data: 1208421216
I0403 15:54:03.884069 20510 layer_factory.hpp:77] Creating layer loss2/classifier_plantvillage_loss2/classifier_plantvillage_0_split
I0403 15:54:03.884090 20510 net.cpp:91] Creating Layer loss2/classifier_plantvillage_loss2/classifier_plantvillage_0_split
I0403 15:54:03.884107 20510 net.cpp:425] loss2/classifier_plantvillage_loss2/classifier_plantvillage_0_split <- loss2/classifier_plantvillage
I0403 15:54:03.884124 20510 net.cpp:399] loss2/classifier_plantvillage_loss2/classifier_plantvillage_0_split -> loss2/classifier_plantvillage_loss2/classifier_plantvillage_0_split_0
I0403 15:54:03.884143 20510 net.cpp:399] loss2/classifier_plantvillage_loss2/classifier_plantvillage_0_split -> loss2/classifier_plantvillage_loss2/classifier_plantvillage_0_split_1
I0403 15:54:03.884163 20510 net.cpp:399] loss2/classifier_plantvillage_loss2/classifier_plantvillage_0_split -> loss2/classifier_plantvillage_loss2/classifier_plantvillage_0_split_2
I0403 15:54:03.884245 20510 net.cpp:141] Setting up loss2/classifier_plantvillage_loss2/classifier_plantvillage_0_split
I0403 15:54:03.884268 20510 net.cpp:148] Top shape: 24 38 (912)
I0403 15:54:03.884284 20510 net.cpp:148] Top shape: 24 38 (912)
I0403 15:54:03.884299 20510 net.cpp:148] Top shape: 24 38 (912)
I0403 15:54:03.884311 20510 net.cpp:156] Memory required for data: 1208432160
I0403 15:54:03.884325 20510 layer_factory.hpp:77] Creating layer inception_4e/1x1
I0403 15:54:03.884347 20510 net.cpp:91] Creating Layer inception_4e/1x1
I0403 15:54:03.884364 20510 net.cpp:425] inception_4e/1x1 <- inception_4d/output_inception_4d/output_0_split_1
I0403 15:54:03.884382 20510 net.cpp:399] inception_4e/1x1 -> inception_4e/1x1
I0403 15:54:03.886245 20510 net.cpp:141] Setting up inception_4e/1x1
I0403 15:54:03.886273 20510 net.cpp:148] Top shape: 24 256 14 14 (1204224)
I0403 15:54:03.886288 20510 net.cpp:156] Memory required for data: 1213249056
I0403 15:54:03.886307 20510 layer_factory.hpp:77] Creating layer inception_4e/relu_1x1
I0403 15:54:03.886325 20510 net.cpp:91] Creating Layer inception_4e/relu_1x1
I0403 15:54:03.886342 20510 net.cpp:425] inception_4e/relu_1x1 <- inception_4e/1x1
I0403 15:54:03.886358 20510 net.cpp:386] inception_4e/relu_1x1 -> inception_4e/1x1 (in-place)
I0403 15:54:03.886657 20510 net.cpp:141] Setting up inception_4e/relu_1x1
I0403 15:54:03.886683 20510 net.cpp:148] Top shape: 24 256 14 14 (1204224)
I0403 15:54:03.886698 20510 net.cpp:156] Memory required for data: 1218065952
I0403 15:54:03.886711 20510 layer_factory.hpp:77] Creating layer inception_4e/3x3_reduce
I0403 15:54:03.886734 20510 net.cpp:91] Creating Layer inception_4e/3x3_reduce
I0403 15:54:03.886751 20510 net.cpp:425] inception_4e/3x3_reduce <- inception_4d/output_inception_4d/output_0_split_2
I0403 15:54:03.886771 20510 net.cpp:399] inception_4e/3x3_reduce -> inception_4e/3x3_reduce
I0403 15:54:03.888931 20510 net.cpp:141] Setting up inception_4e/3x3_reduce
I0403 15:54:03.888958 20510 net.cpp:148] Top shape: 24 160 14 14 (752640)
I0403 15:54:03.888974 20510 net.cpp:156] Memory required for data: 1221076512
I0403 15:54:03.888993 20510 layer_factory.hpp:77] Creating layer inception_4e/relu_3x3_reduce
I0403 15:54:03.889011 20510 net.cpp:91] Creating Layer inception_4e/relu_3x3_reduce
I0403 15:54:03.889026 20510 net.cpp:425] inception_4e/relu_3x3_reduce <- inception_4e/3x3_reduce
I0403 15:54:03.889045 20510 net.cpp:386] inception_4e/relu_3x3_reduce -> inception_4e/3x3_reduce (in-place)
I0403 15:54:03.889241 20510 net.cpp:141] Setting up inception_4e/relu_3x3_reduce
I0403 15:54:03.889266 20510 net.cpp:148] Top shape: 24 160 14 14 (752640)
I0403 15:54:03.889279 20510 net.cpp:156] Memory required for data: 1224087072
I0403 15:54:03.889293 20510 layer_factory.hpp:77] Creating layer inception_4e/3x3
I0403 15:54:03.889315 20510 net.cpp:91] Creating Layer inception_4e/3x3
I0403 15:54:03.889333 20510 net.cpp:425] inception_4e/3x3 <- inception_4e/3x3_reduce
I0403 15:54:03.889353 20510 net.cpp:399] inception_4e/3x3 -> inception_4e/3x3
I0403 15:54:03.894443 20510 net.cpp:141] Setting up inception_4e/3x3
I0403 15:54:03.894484 20510 net.cpp:148] Top shape: 24 320 14 14 (1505280)
I0403 15:54:03.894500 20510 net.cpp:156] Memory required for data: 1230108192
I0403 15:54:03.894518 20510 layer_factory.hpp:77] Creating layer inception_4e/relu_3x3
I0403 15:54:03.894539 20510 net.cpp:91] Creating Layer inception_4e/relu_3x3
I0403 15:54:03.894554 20510 net.cpp:425] inception_4e/relu_3x3 <- inception_4e/3x3
I0403 15:54:03.894572 20510 net.cpp:386] inception_4e/relu_3x3 -> inception_4e/3x3 (in-place)
I0403 15:54:03.894877 20510 net.cpp:141] Setting up inception_4e/relu_3x3
I0403 15:54:03.894906 20510 net.cpp:148] Top shape: 24 320 14 14 (1505280)
I0403 15:54:03.894920 20510 net.cpp:156] Memory required for data: 1236129312
I0403 15:54:03.894934 20510 layer_factory.hpp:77] Creating layer inception_4e/5x5_reduce
I0403 15:54:03.894958 20510 net.cpp:91] Creating Layer inception_4e/5x5_reduce
I0403 15:54:03.894974 20510 net.cpp:425] inception_4e/5x5_reduce <- inception_4d/output_inception_4d/output_0_split_3
I0403 15:54:03.894992 20510 net.cpp:399] inception_4e/5x5_reduce -> inception_4e/5x5_reduce
I0403 15:54:03.896080 20510 net.cpp:141] Setting up inception_4e/5x5_reduce
I0403 15:54:03.896107 20510 net.cpp:148] Top shape: 24 32 14 14 (150528)
I0403 15:54:03.896131 20510 net.cpp:156] Memory required for data: 1236731424
I0403 15:54:03.896148 20510 layer_factory.hpp:77] Creating layer inception_4e/relu_5x5_reduce
I0403 15:54:03.896179 20510 net.cpp:91] Creating Layer inception_4e/relu_5x5_reduce
I0403 15:54:03.896206 20510 net.cpp:425] inception_4e/relu_5x5_reduce <- inception_4e/5x5_reduce
I0403 15:54:03.896232 20510 net.cpp:386] inception_4e/relu_5x5_reduce -> inception_4e/5x5_reduce (in-place)
I0403 15:54:03.896551 20510 net.cpp:141] Setting up inception_4e/relu_5x5_reduce
I0403 15:54:03.896577 20510 net.cpp:148] Top shape: 24 32 14 14 (150528)
I0403 15:54:03.896591 20510 net.cpp:156] Memory required for data: 1237333536
I0403 15:54:03.896606 20510 layer_factory.hpp:77] Creating layer inception_4e/5x5
I0403 15:54:03.896646 20510 net.cpp:91] Creating Layer inception_4e/5x5
I0403 15:54:03.896666 20510 net.cpp:425] inception_4e/5x5 <- inception_4e/5x5_reduce
I0403 15:54:03.896684 20510 net.cpp:399] inception_4e/5x5 -> inception_4e/5x5
I0403 15:54:03.898649 20510 net.cpp:141] Setting up inception_4e/5x5
I0403 15:54:03.898679 20510 net.cpp:148] Top shape: 24 128 14 14 (602112)
I0403 15:54:03.898695 20510 net.cpp:156] Memory required for data: 1239741984
I0403 15:54:03.898715 20510 layer_factory.hpp:77] Creating layer inception_4e/relu_5x5
I0403 15:54:03.898732 20510 net.cpp:91] Creating Layer inception_4e/relu_5x5
I0403 15:54:03.898748 20510 net.cpp:425] inception_4e/relu_5x5 <- inception_4e/5x5
I0403 15:54:03.898767 20510 net.cpp:386] inception_4e/relu_5x5 -> inception_4e/5x5 (in-place)
I0403 15:54:03.898977 20510 net.cpp:141] Setting up inception_4e/relu_5x5
I0403 15:54:03.899004 20510 net.cpp:148] Top shape: 24 128 14 14 (602112)
I0403 15:54:03.899019 20510 net.cpp:156] Memory required for data: 1242150432
I0403 15:54:03.899032 20510 layer_factory.hpp:77] Creating layer inception_4e/pool
I0403 15:54:03.899055 20510 net.cpp:91] Creating Layer inception_4e/pool
I0403 15:54:03.899071 20510 net.cpp:425] inception_4e/pool <- inception_4d/output_inception_4d/output_0_split_4
I0403 15:54:03.899091 20510 net.cpp:399] inception_4e/pool -> inception_4e/pool
I0403 15:54:03.899166 20510 net.cpp:141] Setting up inception_4e/pool
I0403 15:54:03.899190 20510 net.cpp:148] Top shape: 24 528 14 14 (2483712)
I0403 15:54:03.899204 20510 net.cpp:156] Memory required for data: 1252085280
I0403 15:54:03.899219 20510 layer_factory.hpp:77] Creating layer inception_4e/pool_proj
I0403 15:54:03.899241 20510 net.cpp:91] Creating Layer inception_4e/pool_proj
I0403 15:54:03.899258 20510 net.cpp:425] inception_4e/pool_proj <- inception_4e/pool
I0403 15:54:03.899278 20510 net.cpp:399] inception_4e/pool_proj -> inception_4e/pool_proj
I0403 15:54:03.900837 20510 net.cpp:141] Setting up inception_4e/pool_proj
I0403 15:54:03.900879 20510 net.cpp:148] Top shape: 24 128 14 14 (602112)
I0403 15:54:03.900897 20510 net.cpp:156] Memory required for data: 1254493728
I0403 15:54:03.900915 20510 layer_factory.hpp:77] Creating layer inception_4e/relu_pool_proj
I0403 15:54:03.900933 20510 net.cpp:91] Creating Layer inception_4e/relu_pool_proj
I0403 15:54:03.900950 20510 net.cpp:425] inception_4e/relu_pool_proj <- inception_4e/pool_proj
I0403 15:54:03.900969 20510 net.cpp:386] inception_4e/relu_pool_proj -> inception_4e/pool_proj (in-place)
I0403 15:54:03.901276 20510 net.cpp:141] Setting up inception_4e/relu_pool_proj
I0403 15:54:03.901305 20510 net.cpp:148] Top shape: 24 128 14 14 (602112)
I0403 15:54:03.901320 20510 net.cpp:156] Memory required for data: 1256902176
I0403 15:54:03.901335 20510 layer_factory.hpp:77] Creating layer inception_4e/output
I0403 15:54:03.901353 20510 net.cpp:91] Creating Layer inception_4e/output
I0403 15:54:03.901368 20510 net.cpp:425] inception_4e/output <- inception_4e/1x1
I0403 15:54:03.901384 20510 net.cpp:425] inception_4e/output <- inception_4e/3x3
I0403 15:54:03.901399 20510 net.cpp:425] inception_4e/output <- inception_4e/5x5
I0403 15:54:03.901415 20510 net.cpp:425] inception_4e/output <- inception_4e/pool_proj
I0403 15:54:03.901434 20510 net.cpp:399] inception_4e/output -> inception_4e/output
I0403 15:54:03.901484 20510 net.cpp:141] Setting up inception_4e/output
I0403 15:54:03.901509 20510 net.cpp:148] Top shape: 24 832 14 14 (3913728)
I0403 15:54:03.901522 20510 net.cpp:156] Memory required for data: 1272557088
I0403 15:54:03.901537 20510 layer_factory.hpp:77] Creating layer pool4/3x3_s2
I0403 15:54:03.901556 20510 net.cpp:91] Creating Layer pool4/3x3_s2
I0403 15:54:03.901573 20510 net.cpp:425] pool4/3x3_s2 <- inception_4e/output
I0403 15:54:03.901592 20510 net.cpp:399] pool4/3x3_s2 -> pool4/3x3_s2
I0403 15:54:03.901664 20510 net.cpp:141] Setting up pool4/3x3_s2
I0403 15:54:03.901686 20510 net.cpp:148] Top shape: 24 832 7 7 (978432)
I0403 15:54:03.901701 20510 net.cpp:156] Memory required for data: 1276470816
I0403 15:54:03.901715 20510 layer_factory.hpp:77] Creating layer pool4/3x3_s2_pool4/3x3_s2_0_split
I0403 15:54:03.901733 20510 net.cpp:91] Creating Layer pool4/3x3_s2_pool4/3x3_s2_0_split
I0403 15:54:03.901748 20510 net.cpp:425] pool4/3x3_s2_pool4/3x3_s2_0_split <- pool4/3x3_s2
I0403 15:54:03.901768 20510 net.cpp:399] pool4/3x3_s2_pool4/3x3_s2_0_split -> pool4/3x3_s2_pool4/3x3_s2_0_split_0
I0403 15:54:03.901788 20510 net.cpp:399] pool4/3x3_s2_pool4/3x3_s2_0_split -> pool4/3x3_s2_pool4/3x3_s2_0_split_1
I0403 15:54:03.901808 20510 net.cpp:399] pool4/3x3_s2_pool4/3x3_s2_0_split -> pool4/3x3_s2_pool4/3x3_s2_0_split_2
I0403 15:54:03.901829 20510 net.cpp:399] pool4/3x3_s2_pool4/3x3_s2_0_split -> pool4/3x3_s2_pool4/3x3_s2_0_split_3
I0403 15:54:03.901921 20510 net.cpp:141] Setting up pool4/3x3_s2_pool4/3x3_s2_0_split
I0403 15:54:03.901950 20510 net.cpp:148] Top shape: 24 832 7 7 (978432)
I0403 15:54:03.901970 20510 net.cpp:148] Top shape: 24 832 7 7 (978432)
I0403 15:54:03.901986 20510 net.cpp:148] Top shape: 24 832 7 7 (978432)
I0403 15:54:03.902003 20510 net.cpp:148] Top shape: 24 832 7 7 (978432)
I0403 15:54:03.902015 20510 net.cpp:156] Memory required for data: 1292125728
I0403 15:54:03.902030 20510 layer_factory.hpp:77] Creating layer inception_5a/1x1
I0403 15:54:03.902056 20510 net.cpp:91] Creating Layer inception_5a/1x1
I0403 15:54:03.902075 20510 net.cpp:425] inception_5a/1x1 <- pool4/3x3_s2_pool4/3x3_s2_0_split_0
I0403 15:54:03.902096 20510 net.cpp:399] inception_5a/1x1 -> inception_5a/1x1
I0403 15:54:03.905053 20510 net.cpp:141] Setting up inception_5a/1x1
I0403 15:54:03.905083 20510 net.cpp:148] Top shape: 24 256 7 7 (301056)
I0403 15:54:03.905099 20510 net.cpp:156] Memory required for data: 1293329952
I0403 15:54:03.905117 20510 layer_factory.hpp:77] Creating layer inception_5a/relu_1x1
I0403 15:54:03.905135 20510 net.cpp:91] Creating Layer inception_5a/relu_1x1
I0403 15:54:03.905151 20510 net.cpp:425] inception_5a/relu_1x1 <- inception_5a/1x1
I0403 15:54:03.905171 20510 net.cpp:386] inception_5a/relu_1x1 -> inception_5a/1x1 (in-place)
I0403 15:54:03.905503 20510 net.cpp:141] Setting up inception_5a/relu_1x1
I0403 15:54:03.905534 20510 net.cpp:148] Top shape: 24 256 7 7 (301056)
I0403 15:54:03.905556 20510 net.cpp:156] Memory required for data: 1294534176
I0403 15:54:03.905581 20510 layer_factory.hpp:77] Creating layer inception_5a/3x3_reduce
I0403 15:54:03.905612 20510 net.cpp:91] Creating Layer inception_5a/3x3_reduce
I0403 15:54:03.905630 20510 net.cpp:425] inception_5a/3x3_reduce <- pool4/3x3_s2_pool4/3x3_s2_0_split_1
I0403 15:54:03.905652 20510 net.cpp:399] inception_5a/3x3_reduce -> inception_5a/3x3_reduce
I0403 15:54:03.908174 20510 net.cpp:141] Setting up inception_5a/3x3_reduce
I0403 15:54:03.908203 20510 net.cpp:148] Top shape: 24 160 7 7 (188160)
I0403 15:54:03.908218 20510 net.cpp:156] Memory required for data: 1295286816
I0403 15:54:03.908238 20510 layer_factory.hpp:77] Creating layer inception_5a/relu_3x3_reduce
I0403 15:54:03.908257 20510 net.cpp:91] Creating Layer inception_5a/relu_3x3_reduce
I0403 15:54:03.908272 20510 net.cpp:425] inception_5a/relu_3x3_reduce <- inception_5a/3x3_reduce
I0403 15:54:03.908288 20510 net.cpp:386] inception_5a/relu_3x3_reduce -> inception_5a/3x3_reduce (in-place)
I0403 15:54:03.908483 20510 net.cpp:141] Setting up inception_5a/relu_3x3_reduce
I0403 15:54:03.908507 20510 net.cpp:148] Top shape: 24 160 7 7 (188160)
I0403 15:54:03.908521 20510 net.cpp:156] Memory required for data: 1296039456
I0403 15:54:03.908535 20510 layer_factory.hpp:77] Creating layer inception_5a/3x3
I0403 15:54:03.908557 20510 net.cpp:91] Creating Layer inception_5a/3x3
I0403 15:54:03.908574 20510 net.cpp:425] inception_5a/3x3 <- inception_5a/3x3_reduce
I0403 15:54:03.908594 20510 net.cpp:399] inception_5a/3x3 -> inception_5a/3x3
I0403 15:54:03.913919 20510 net.cpp:141] Setting up inception_5a/3x3
I0403 15:54:03.913952 20510 net.cpp:148] Top shape: 24 320 7 7 (376320)
I0403 15:54:03.913969 20510 net.cpp:156] Memory required for data: 1297544736
I0403 15:54:03.913986 20510 layer_factory.hpp:77] Creating layer inception_5a/relu_3x3
I0403 15:54:03.914005 20510 net.cpp:91] Creating Layer inception_5a/relu_3x3
I0403 15:54:03.914021 20510 net.cpp:425] inception_5a/relu_3x3 <- inception_5a/3x3
I0403 15:54:03.914039 20510 net.cpp:386] inception_5a/relu_3x3 -> inception_5a/3x3 (in-place)
I0403 15:54:03.914351 20510 net.cpp:141] Setting up inception_5a/relu_3x3
I0403 15:54:03.914377 20510 net.cpp:148] Top shape: 24 320 7 7 (376320)
I0403 15:54:03.914392 20510 net.cpp:156] Memory required for data: 1299050016
I0403 15:54:03.914407 20510 layer_factory.hpp:77] Creating layer inception_5a/5x5_reduce
I0403 15:54:03.914430 20510 net.cpp:91] Creating Layer inception_5a/5x5_reduce
I0403 15:54:03.914448 20510 net.cpp:425] inception_5a/5x5_reduce <- pool4/3x3_s2_pool4/3x3_s2_0_split_2
I0403 15:54:03.914469 20510 net.cpp:399] inception_5a/5x5_reduce -> inception_5a/5x5_reduce
I0403 15:54:03.915694 20510 net.cpp:141] Setting up inception_5a/5x5_reduce
I0403 15:54:03.915724 20510 net.cpp:148] Top shape: 24 32 7 7 (37632)
I0403 15:54:03.915740 20510 net.cpp:156] Memory required for data: 1299200544
I0403 15:54:03.915757 20510 layer_factory.hpp:77] Creating layer inception_5a/relu_5x5_reduce
I0403 15:54:03.915777 20510 net.cpp:91] Creating Layer inception_5a/relu_5x5_reduce
I0403 15:54:03.915794 20510 net.cpp:425] inception_5a/relu_5x5_reduce <- inception_5a/5x5_reduce
I0403 15:54:03.915812 20510 net.cpp:386] inception_5a/relu_5x5_reduce -> inception_5a/5x5_reduce (in-place)
I0403 15:54:03.916142 20510 net.cpp:141] Setting up inception_5a/relu_5x5_reduce
I0403 15:54:03.916170 20510 net.cpp:148] Top shape: 24 32 7 7 (37632)
I0403 15:54:03.916185 20510 net.cpp:156] Memory required for data: 1299351072
I0403 15:54:03.916201 20510 layer_factory.hpp:77] Creating layer inception_5a/5x5
I0403 15:54:03.916224 20510 net.cpp:91] Creating Layer inception_5a/5x5
I0403 15:54:03.916242 20510 net.cpp:425] inception_5a/5x5 <- inception_5a/5x5_reduce
I0403 15:54:03.916263 20510 net.cpp:399] inception_5a/5x5 -> inception_5a/5x5
I0403 15:54:03.918128 20510 net.cpp:141] Setting up inception_5a/5x5
I0403 15:54:03.918166 20510 net.cpp:148] Top shape: 24 128 7 7 (150528)
I0403 15:54:03.918181 20510 net.cpp:156] Memory required for data: 1299953184
I0403 15:54:03.918200 20510 layer_factory.hpp:77] Creating layer inception_5a/relu_5x5
I0403 15:54:03.918216 20510 net.cpp:91] Creating Layer inception_5a/relu_5x5
I0403 15:54:03.918231 20510 net.cpp:425] inception_5a/relu_5x5 <- inception_5a/5x5
I0403 15:54:03.918251 20510 net.cpp:386] inception_5a/relu_5x5 -> inception_5a/5x5 (in-place)
I0403 15:54:03.918445 20510 net.cpp:141] Setting up inception_5a/relu_5x5
I0403 15:54:03.918470 20510 net.cpp:148] Top shape: 24 128 7 7 (150528)
I0403 15:54:03.918483 20510 net.cpp:156] Memory required for data: 1300555296
I0403 15:54:03.918498 20510 layer_factory.hpp:77] Creating layer inception_5a/pool
I0403 15:54:03.918516 20510 net.cpp:91] Creating Layer inception_5a/pool
I0403 15:54:03.918532 20510 net.cpp:425] inception_5a/pool <- pool4/3x3_s2_pool4/3x3_s2_0_split_3
I0403 15:54:03.918550 20510 net.cpp:399] inception_5a/pool -> inception_5a/pool
I0403 15:54:03.918622 20510 net.cpp:141] Setting up inception_5a/pool
I0403 15:54:03.918645 20510 net.cpp:148] Top shape: 24 832 7 7 (978432)
I0403 15:54:03.918658 20510 net.cpp:156] Memory required for data: 1304469024
I0403 15:54:03.918673 20510 layer_factory.hpp:77] Creating layer inception_5a/pool_proj
I0403 15:54:03.918694 20510 net.cpp:91] Creating Layer inception_5a/pool_proj
I0403 15:54:03.918711 20510 net.cpp:425] inception_5a/pool_proj <- inception_5a/pool
I0403 15:54:03.918731 20510 net.cpp:399] inception_5a/pool_proj -> inception_5a/pool_proj
I0403 15:54:03.921035 20510 net.cpp:141] Setting up inception_5a/pool_proj
I0403 15:54:03.921069 20510 net.cpp:148] Top shape: 24 128 7 7 (150528)
I0403 15:54:03.921085 20510 net.cpp:156] Memory required for data: 1305071136
I0403 15:54:03.921103 20510 layer_factory.hpp:77] Creating layer inception_5a/relu_pool_proj
I0403 15:54:03.921120 20510 net.cpp:91] Creating Layer inception_5a/relu_pool_proj
I0403 15:54:03.921136 20510 net.cpp:425] inception_5a/relu_pool_proj <- inception_5a/pool_proj
I0403 15:54:03.921154 20510 net.cpp:386] inception_5a/relu_pool_proj -> inception_5a/pool_proj (in-place)
I0403 15:54:03.921461 20510 net.cpp:141] Setting up inception_5a/relu_pool_proj
I0403 15:54:03.921489 20510 net.cpp:148] Top shape: 24 128 7 7 (150528)
I0403 15:54:03.921504 20510 net.cpp:156] Memory required for data: 1305673248
I0403 15:54:03.921519 20510 layer_factory.hpp:77] Creating layer inception_5a/output
I0403 15:54:03.921535 20510 net.cpp:91] Creating Layer inception_5a/output
I0403 15:54:03.921550 20510 net.cpp:425] inception_5a/output <- inception_5a/1x1
I0403 15:54:03.921566 20510 net.cpp:425] inception_5a/output <- inception_5a/3x3
I0403 15:54:03.921581 20510 net.cpp:425] inception_5a/output <- inception_5a/5x5
I0403 15:54:03.921597 20510 net.cpp:425] inception_5a/output <- inception_5a/pool_proj
I0403 15:54:03.921612 20510 net.cpp:399] inception_5a/output -> inception_5a/output
I0403 15:54:03.921664 20510 net.cpp:141] Setting up inception_5a/output
I0403 15:54:03.921687 20510 net.cpp:148] Top shape: 24 832 7 7 (978432)
I0403 15:54:03.921701 20510 net.cpp:156] Memory required for data: 1309586976
I0403 15:54:03.921715 20510 layer_factory.hpp:77] Creating layer inception_5a/output_inception_5a/output_0_split
I0403 15:54:03.921733 20510 net.cpp:91] Creating Layer inception_5a/output_inception_5a/output_0_split
I0403 15:54:03.921749 20510 net.cpp:425] inception_5a/output_inception_5a/output_0_split <- inception_5a/output
I0403 15:54:03.921766 20510 net.cpp:399] inception_5a/output_inception_5a/output_0_split -> inception_5a/output_inception_5a/output_0_split_0
I0403 15:54:03.921785 20510 net.cpp:399] inception_5a/output_inception_5a/output_0_split -> inception_5a/output_inception_5a/output_0_split_1
I0403 15:54:03.921804 20510 net.cpp:399] inception_5a/output_inception_5a/output_0_split -> inception_5a/output_inception_5a/output_0_split_2
I0403 15:54:03.921828 20510 net.cpp:399] inception_5a/output_inception_5a/output_0_split -> inception_5a/output_inception_5a/output_0_split_3
I0403 15:54:03.921941 20510 net.cpp:141] Setting up inception_5a/output_inception_5a/output_0_split
I0403 15:54:03.921964 20510 net.cpp:148] Top shape: 24 832 7 7 (978432)
I0403 15:54:03.921980 20510 net.cpp:148] Top shape: 24 832 7 7 (978432)
I0403 15:54:03.921996 20510 net.cpp:148] Top shape: 24 832 7 7 (978432)
I0403 15:54:03.922010 20510 net.cpp:148] Top shape: 24 832 7 7 (978432)
I0403 15:54:03.922024 20510 net.cpp:156] Memory required for data: 1325241888
I0403 15:54:03.922037 20510 layer_factory.hpp:77] Creating layer inception_5b/1x1
I0403 15:54:03.922063 20510 net.cpp:91] Creating Layer inception_5b/1x1
I0403 15:54:03.922081 20510 net.cpp:425] inception_5b/1x1 <- inception_5a/output_inception_5a/output_0_split_0
I0403 15:54:03.922102 20510 net.cpp:399] inception_5b/1x1 -> inception_5b/1x1
I0403 15:54:03.925885 20510 net.cpp:141] Setting up inception_5b/1x1
I0403 15:54:03.925917 20510 net.cpp:148] Top shape: 24 384 7 7 (451584)
I0403 15:54:03.925935 20510 net.cpp:156] Memory required for data: 1327048224
I0403 15:54:03.925952 20510 layer_factory.hpp:77] Creating layer inception_5b/relu_1x1
I0403 15:54:03.925969 20510 net.cpp:91] Creating Layer inception_5b/relu_1x1
I0403 15:54:03.925986 20510 net.cpp:425] inception_5b/relu_1x1 <- inception_5b/1x1
I0403 15:54:03.926004 20510 net.cpp:386] inception_5b/relu_1x1 -> inception_5b/1x1 (in-place)
I0403 15:54:03.926318 20510 net.cpp:141] Setting up inception_5b/relu_1x1
I0403 15:54:03.926347 20510 net.cpp:148] Top shape: 24 384 7 7 (451584)
I0403 15:54:03.926362 20510 net.cpp:156] Memory required for data: 1328854560
I0403 15:54:03.926376 20510 layer_factory.hpp:77] Creating layer inception_5b/3x3_reduce
I0403 15:54:03.926398 20510 net.cpp:91] Creating Layer inception_5b/3x3_reduce
I0403 15:54:03.926414 20510 net.cpp:425] inception_5b/3x3_reduce <- inception_5a/output_inception_5a/output_0_split_1
I0403 15:54:03.926434 20510 net.cpp:399] inception_5b/3x3_reduce -> inception_5b/3x3_reduce
I0403 15:54:03.929128 20510 net.cpp:141] Setting up inception_5b/3x3_reduce
I0403 15:54:03.929162 20510 net.cpp:148] Top shape: 24 192 7 7 (225792)
I0403 15:54:03.929178 20510 net.cpp:156] Memory required for data: 1329757728
I0403 15:54:03.929196 20510 layer_factory.hpp:77] Creating layer inception_5b/relu_3x3_reduce
I0403 15:54:03.929214 20510 net.cpp:91] Creating Layer inception_5b/relu_3x3_reduce
I0403 15:54:03.929229 20510 net.cpp:425] inception_5b/relu_3x3_reduce <- inception_5b/3x3_reduce
I0403 15:54:03.929245 20510 net.cpp:386] inception_5b/relu_3x3_reduce -> inception_5b/3x3_reduce (in-place)
I0403 15:54:03.929440 20510 net.cpp:141] Setting up inception_5b/relu_3x3_reduce
I0403 15:54:03.929466 20510 net.cpp:148] Top shape: 24 192 7 7 (225792)
I0403 15:54:03.929479 20510 net.cpp:156] Memory required for data: 1330660896
I0403 15:54:03.929493 20510 layer_factory.hpp:77] Creating layer inception_5b/3x3
I0403 15:54:03.929515 20510 net.cpp:91] Creating Layer inception_5b/3x3
I0403 15:54:03.929533 20510 net.cpp:425] inception_5b/3x3 <- inception_5b/3x3_reduce
I0403 15:54:03.929553 20510 net.cpp:399] inception_5b/3x3 -> inception_5b/3x3
I0403 15:54:03.936285 20510 net.cpp:141] Setting up inception_5b/3x3
I0403 15:54:03.936316 20510 net.cpp:148] Top shape: 24 384 7 7 (451584)
I0403 15:54:03.936331 20510 net.cpp:156] Memory required for data: 1332467232
I0403 15:54:03.936349 20510 layer_factory.hpp:77] Creating layer inception_5b/relu_3x3
I0403 15:54:03.936367 20510 net.cpp:91] Creating Layer inception_5b/relu_3x3
I0403 15:54:03.936383 20510 net.cpp:425] inception_5b/relu_3x3 <- inception_5b/3x3
I0403 15:54:03.936401 20510 net.cpp:386] inception_5b/relu_3x3 -> inception_5b/3x3 (in-place)
I0403 15:54:03.936708 20510 net.cpp:141] Setting up inception_5b/relu_3x3
I0403 15:54:03.936736 20510 net.cpp:148] Top shape: 24 384 7 7 (451584)
I0403 15:54:03.936750 20510 net.cpp:156] Memory required for data: 1334273568
I0403 15:54:03.936765 20510 layer_factory.hpp:77] Creating layer inception_5b/5x5_reduce
I0403 15:54:03.936802 20510 net.cpp:91] Creating Layer inception_5b/5x5_reduce
I0403 15:54:03.936820 20510 net.cpp:425] inception_5b/5x5_reduce <- inception_5a/output_inception_5a/output_0_split_2
I0403 15:54:03.936841 20510 net.cpp:399] inception_5b/5x5_reduce -> inception_5b/5x5_reduce
I0403 15:54:03.938148 20510 net.cpp:141] Setting up inception_5b/5x5_reduce
I0403 15:54:03.938177 20510 net.cpp:148] Top shape: 24 48 7 7 (56448)
I0403 15:54:03.938194 20510 net.cpp:156] Memory required for data: 1334499360
I0403 15:54:03.938211 20510 layer_factory.hpp:77] Creating layer inception_5b/relu_5x5_reduce
I0403 15:54:03.938228 20510 net.cpp:91] Creating Layer inception_5b/relu_5x5_reduce
I0403 15:54:03.938244 20510 net.cpp:425] inception_5b/relu_5x5_reduce <- inception_5b/5x5_reduce
I0403 15:54:03.938263 20510 net.cpp:386] inception_5b/relu_5x5_reduce -> inception_5b/5x5_reduce (in-place)
I0403 15:54:03.938645 20510 net.cpp:141] Setting up inception_5b/relu_5x5_reduce
I0403 15:54:03.938671 20510 net.cpp:148] Top shape: 24 48 7 7 (56448)
I0403 15:54:03.938686 20510 net.cpp:156] Memory required for data: 1334725152
I0403 15:54:03.938700 20510 layer_factory.hpp:77] Creating layer inception_5b/5x5
I0403 15:54:03.938720 20510 net.cpp:91] Creating Layer inception_5b/5x5
I0403 15:54:03.938736 20510 net.cpp:425] inception_5b/5x5 <- inception_5b/5x5_reduce
I0403 15:54:03.938755 20510 net.cpp:399] inception_5b/5x5 -> inception_5b/5x5
I0403 15:54:03.940824 20510 net.cpp:141] Setting up inception_5b/5x5
I0403 15:54:03.940851 20510 net.cpp:148] Top shape: 24 128 7 7 (150528)
I0403 15:54:03.940865 20510 net.cpp:156] Memory required for data: 1335327264
I0403 15:54:03.940883 20510 layer_factory.hpp:77] Creating layer inception_5b/relu_5x5
I0403 15:54:03.940901 20510 net.cpp:91] Creating Layer inception_5b/relu_5x5
I0403 15:54:03.940917 20510 net.cpp:425] inception_5b/relu_5x5 <- inception_5b/5x5
I0403 15:54:03.940935 20510 net.cpp:386] inception_5b/relu_5x5 -> inception_5b/5x5 (in-place)
I0403 15:54:03.941140 20510 net.cpp:141] Setting up inception_5b/relu_5x5
I0403 15:54:03.941164 20510 net.cpp:148] Top shape: 24 128 7 7 (150528)
I0403 15:54:03.941179 20510 net.cpp:156] Memory required for data: 1335929376
I0403 15:54:03.941192 20510 layer_factory.hpp:77] Creating layer inception_5b/pool
I0403 15:54:03.941211 20510 net.cpp:91] Creating Layer inception_5b/pool
I0403 15:54:03.941229 20510 net.cpp:425] inception_5b/pool <- inception_5a/output_inception_5a/output_0_split_3
I0403 15:54:03.941247 20510 net.cpp:399] inception_5b/pool -> inception_5b/pool
I0403 15:54:03.941320 20510 net.cpp:141] Setting up inception_5b/pool
I0403 15:54:03.941344 20510 net.cpp:148] Top shape: 24 832 7 7 (978432)
I0403 15:54:03.941357 20510 net.cpp:156] Memory required for data: 1339843104
I0403 15:54:03.941371 20510 layer_factory.hpp:77] Creating layer inception_5b/pool_proj
I0403 15:54:03.941392 20510 net.cpp:91] Creating Layer inception_5b/pool_proj
I0403 15:54:03.941409 20510 net.cpp:425] inception_5b/pool_proj <- inception_5b/pool
I0403 15:54:03.941429 20510 net.cpp:399] inception_5b/pool_proj -> inception_5b/pool_proj
I0403 15:54:03.943848 20510 net.cpp:141] Setting up inception_5b/pool_proj
I0403 15:54:03.943881 20510 net.cpp:148] Top shape: 24 128 7 7 (150528)
I0403 15:54:03.943897 20510 net.cpp:156] Memory required for data: 1340445216
I0403 15:54:03.943915 20510 layer_factory.hpp:77] Creating layer inception_5b/relu_pool_proj
I0403 15:54:03.943933 20510 net.cpp:91] Creating Layer inception_5b/relu_pool_proj
I0403 15:54:03.943949 20510 net.cpp:425] inception_5b/relu_pool_proj <- inception_5b/pool_proj
I0403 15:54:03.943969 20510 net.cpp:386] inception_5b/relu_pool_proj -> inception_5b/pool_proj (in-place)
I0403 15:54:03.944283 20510 net.cpp:141] Setting up inception_5b/relu_pool_proj
I0403 15:54:03.944313 20510 net.cpp:148] Top shape: 24 128 7 7 (150528)
I0403 15:54:03.944329 20510 net.cpp:156] Memory required for data: 1341047328
I0403 15:54:03.944342 20510 layer_factory.hpp:77] Creating layer inception_5b/output
I0403 15:54:03.944360 20510 net.cpp:91] Creating Layer inception_5b/output
I0403 15:54:03.944391 20510 net.cpp:425] inception_5b/output <- inception_5b/1x1
I0403 15:54:03.944408 20510 net.cpp:425] inception_5b/output <- inception_5b/3x3
I0403 15:54:03.944424 20510 net.cpp:425] inception_5b/output <- inception_5b/5x5
I0403 15:54:03.944439 20510 net.cpp:425] inception_5b/output <- inception_5b/pool_proj
I0403 15:54:03.944458 20510 net.cpp:399] inception_5b/output -> inception_5b/output
I0403 15:54:03.944511 20510 net.cpp:141] Setting up inception_5b/output
I0403 15:54:03.944535 20510 net.cpp:148] Top shape: 24 1024 7 7 (1204224)
I0403 15:54:03.944550 20510 net.cpp:156] Memory required for data: 1345864224
I0403 15:54:03.944564 20510 layer_factory.hpp:77] Creating layer pool5/7x7_s1
I0403 15:54:03.944587 20510 net.cpp:91] Creating Layer pool5/7x7_s1
I0403 15:54:03.944605 20510 net.cpp:425] pool5/7x7_s1 <- inception_5b/output
I0403 15:54:03.944623 20510 net.cpp:399] pool5/7x7_s1 -> pool5/7x7_s1
I0403 15:54:03.944850 20510 net.cpp:141] Setting up pool5/7x7_s1
I0403 15:54:03.944876 20510 net.cpp:148] Top shape: 24 1024 1 1 (24576)
I0403 15:54:03.944890 20510 net.cpp:156] Memory required for data: 1345962528
I0403 15:54:03.944905 20510 layer_factory.hpp:77] Creating layer pool5/drop_7x7_s1
I0403 15:54:03.944921 20510 net.cpp:91] Creating Layer pool5/drop_7x7_s1
I0403 15:54:03.944937 20510 net.cpp:425] pool5/drop_7x7_s1 <- pool5/7x7_s1
I0403 15:54:03.944957 20510 net.cpp:386] pool5/drop_7x7_s1 -> pool5/7x7_s1 (in-place)
I0403 15:54:03.945008 20510 net.cpp:141] Setting up pool5/drop_7x7_s1
I0403 15:54:03.945034 20510 net.cpp:148] Top shape: 24 1024 1 1 (24576)
I0403 15:54:03.945053 20510 net.cpp:156] Memory required for data: 1346060832
I0403 15:54:03.945070 20510 layer_factory.hpp:77] Creating layer loss3/classifier_plantvillage
I0403 15:54:03.945088 20510 net.cpp:91] Creating Layer loss3/classifier_plantvillage
I0403 15:54:03.945104 20510 net.cpp:425] loss3/classifier_plantvillage <- pool5/7x7_s1
I0403 15:54:03.945125 20510 net.cpp:399] loss3/classifier_plantvillage -> loss3/classifier_plantvillage
I0403 15:54:03.945566 20510 net.cpp:141] Setting up loss3/classifier_plantvillage
I0403 15:54:03.945593 20510 net.cpp:148] Top shape: 24 38 (912)
I0403 15:54:03.945610 20510 net.cpp:156] Memory required for data: 1346064480
I0403 15:54:03.945627 20510 layer_factory.hpp:77] Creating layer loss3/classifier_plantvillage_loss3/classifier_plantvillage_0_split
I0403 15:54:03.945646 20510 net.cpp:91] Creating Layer loss3/classifier_plantvillage_loss3/classifier_plantvillage_0_split
I0403 15:54:03.945662 20510 net.cpp:425] loss3/classifier_plantvillage_loss3/classifier_plantvillage_0_split <- loss3/classifier_plantvillage
I0403 15:54:03.945678 20510 net.cpp:399] loss3/classifier_plantvillage_loss3/classifier_plantvillage_0_split -> loss3/classifier_plantvillage_loss3/classifier_plantvillage_0_split_0
I0403 15:54:03.945698 20510 net.cpp:399] loss3/classifier_plantvillage_loss3/classifier_plantvillage_0_split -> loss3/classifier_plantvillage_loss3/classifier_plantvillage_0_split_1
I0403 15:54:03.945718 20510 net.cpp:399] loss3/classifier_plantvillage_loss3/classifier_plantvillage_0_split -> loss3/classifier_plantvillage_loss3/classifier_plantvillage_0_split_2
I0403 15:54:03.945740 20510 net.cpp:399] loss3/classifier_plantvillage_loss3/classifier_plantvillage_0_split -> loss3/classifier_plantvillage_loss3/classifier_plantvillage_0_split_3
I0403 15:54:03.945844 20510 net.cpp:141] Setting up loss3/classifier_plantvillage_loss3/classifier_plantvillage_0_split
I0403 15:54:03.945868 20510 net.cpp:148] Top shape: 24 38 (912)
I0403 15:54:03.945884 20510 net.cpp:148] Top shape: 24 38 (912)
I0403 15:54:03.945899 20510 net.cpp:148] Top shape: 24 38 (912)
I0403 15:54:03.945914 20510 net.cpp:148] Top shape: 24 38 (912)
I0403 15:54:03.945929 20510 net.cpp:156] Memory required for data: 1346079072
I0403 15:54:03.945942 20510 layer_factory.hpp:77] Creating layer loss1/loss
I0403 15:54:03.945965 20510 net.cpp:91] Creating Layer loss1/loss
I0403 15:54:03.945981 20510 net.cpp:425] loss1/loss <- loss1/classifier_plantvillage_loss1/classifier_plantvillage_0_split_0
I0403 15:54:03.946012 20510 net.cpp:425] loss1/loss <- label_data_1_split_0
…
