…
I0403 16:38:11.061501 21290 net.cpp:313] The NetState phase (1) differed from the phase (0) specified by a rule in layer data
I0403 16:38:11.062640 21290 net.cpp:49] Initializing net from parameters: 
state {
  phase: TEST
}
layer {
  name: "data"
  type: "Data"
  top: "data"
  top: "label"
  include {
    phase: TEST
  }
  transform_param {
    mirror: false
    crop_size: 224
    mean_file: "/home/mohanty/data/final_dataset/lmdb/grayscale-20-80/mean.binaryproto"
  }
  data_param {
    source: "/home/mohanty/data/final_dataset/lmdb/grayscale-20-80/test_db"
    batch_size: 24
    backend: LMDB
  }
}
layer {
  name: "conv1/7x7_s2"
  type: "Convolution"
  bottom: "data"
  top: "conv1/7x7_s2"
  param {
    lr_mult: 1
    decay_mult: 1
  }
  param {
    lr_mult: 2
    decay_mult: 0
  }
  convolution_param {
    num_output: 64
    pad: 3
    kernel_size: 7
    stride: 2
    weight_filler {
      type: "xavier"
      std: 0.1
    }
    bias_filler {
      type: "constant"
      value: 0.2
    }
  }
}
layer {
  name: "conv1/relu_7x7"
  type: "ReLU"
  bottom: "conv1/7x7_s2"
  top: "conv1/7x7_s2"
}
layer {
  name: "pool1/3x3_s2"
  type: "Pooling"
  bottom: "conv1/7x7_s2"
  top: "pool1/3x3_s2"
  pooling_param {
    pool: MAX
    kernel_size: 3
    stride: 2
  }
}
layer {
  name: "pool1/norm1"
  type: "LRN"
  bottom: "pool1/3x3_s2"
  top: "pool1/norm1"
  lrn_param {
    local_size: 5
    alpha: 0.0001
    beta: 0.75
  }
}
layer {
  name: "conv2/3x3_reduce"
  type: "Convolution"
  bottom: "pool1/norm1"
  top: "conv2/3x3_reduce"
  param {
    lr_mult: 1
    decay_mult: 1
  }
  param {
    lr_mult: 2
    decay_mult: 0
  }
  convolution_param {
    num_output: 64
    kernel_size: 1
    weight_filler {
      type: "xavier"
      std: 0.1
    }
    bias_filler {
      type: "constant"
      value: 0.2
    }
  }
}
layer {
  name: "conv2/relu_3x3_reduce"
  type: "ReLU"
  bottom: "conv2/3x3_reduce"
  top: "conv2/3x3_reduce"
}
layer {
  name: "conv2/3x3"
  type: "Convolution"
  bottom: "conv2/3x3_reduce"
  top: "conv2/3x3"
  param {
    lr_mult: 1
    decay_mult: 1
  }
  param {
    lr_mult: 2
    decay_mult: 0
  }
  convolution_param {
    num_output: 192
    pad: 1
    kernel_size: 3
    weight_filler {
      type: "xavier"
      std: 0.03
    }
    bias_filler {
      type: "constant"
      value: 0.2
    }
  }
}
layer {
  name: "conv2/relu_3x3"
  type: "ReLU"
  bottom: "conv2/3x3"
  top: "conv2/3x3"
}
layer {
  name: "conv2/norm2"
  type: "LRN"
  bottom: "conv2/3x3"
  top: "conv2/norm2"
  lrn_param {
    local_size: 5
    alpha: 0.0001
    beta: 0.75
  }
}
layer {
  name: "pool2/3x3_s2"
  type: "Pooling"
  bottom: "conv2/norm2"
  top: "pool2/3x3_s2"
  pooling_param {
    pool: MAX
    kernel_size: 3
    stride: 2
  }
}
layer {
  name: "inception_3a/1x1"
  type: "Convolution"
  bottom: "pool2/3x3_s2"
  top: "inception_3a/1x1"
  param {
    lr_mult: 1
    decay_mult: 1
  }
  param {
    lr_mult: 2
    decay_mult: 0
  }
  convolution_param {
    num_output: 64
    kernel_size: 1
    weight_filler {
      type: "xavier"
      std: 0.03
    }
    bias_filler {
      type: "constant"
      value: 0.2
    }
  }
}
layer {
  name: "inception_3a/relu_1x1"
  type: "ReLU"
  bottom: "inception_3a/1x1"
  top: "inception_3a/1x1"
}
layer {
  name: "inception_3a/3x3_reduce"
  type: "Convolution"
  bottom: "pool2/3x3_s2"
  top: "inception_3a/3x3_reduce"
  param {
    lr_mult: 1
    decay_mult: 1
  }
  param {
    lr_mult: 2
    decay_mult: 0
  }
  convolution_param {
    num_output: 96
    kernel_size: 1
    weight_filler {
      type: "xavier"
      std: 0.09
    }
    bias_filler {
      type: "constant"
      value: 0.2
    }
  }
}
layer {
  name: "inception_3a/relu_3x3_reduce"
  type: "ReLU"
  bottom: "inception_3a/3x3_reduce"
  top: "inception_3a/3x3_reduce"
}
layer {
  name: "inception_3a/3x3"
  type: "Convolution"
  bottom: "inception_3a/3x3_reduce"
  top: "inception_3a/3x3"
  param {
    lr_mult: 1
    decay_mult: 1
  }
  param {
    lr_mult: 2
    decay_mult: 0
  }
  convolution_param {
    num_output: 128
    pad: 1
    kernel_size: 3
    weight_filler {
      type: "xavier"
      std: 0.03
    }
    bias_filler {
      type: "constant"
      value: 0.2
    }
  }
}
layer {
  name: "inception_3a/relu_3x3"
  type: "ReLU"
  bottom: "inception_3a/3x3"
  top: "inception_3a/3x3"
}
layer {
  name: "inception_3a/5x5_reduce"
  type: "Convolution"
  bottom: "pool2/3x3_s2"
  top: "inception_3a/5x5_reduce"
  param {
    lr_mult: 1
    decay_mult: 1
  }
  param {
    lr_mult: 2
    decay_mult: 0
  }
  convolution_param {
    num_output: 16
    kernel_size: 1
    weight_filler {
      type: "xavier"
      std: 0.2
    }
    bias_filler {
      type: "constant"
      value: 0.2
    }
  }
}
layer {
  name: "inception_3a/relu_5x5_reduce"
  type: "ReLU"
  bottom: "inception_3a/5x5_reduce"
  top: "inception_3a/5x5_reduce"
}
layer {
  name: "inception_3a/5x5"
  type: "Convolution"
  bottom: "inception_3a/5x5_reduce"
  top: "inception_3a/5x5"
  param {
    lr_mult: 1
    decay_mult: 1
  }
  param {
    lr_mult: 2
    decay_mult: 0
  }
  convolution_param {
    num_output: 32
    pad: 2
    kernel_size: 5
    weight_filler {
      type: "xavier"
      std: 0.03
    }
    bias_filler {
      type: "constant"
      value: 0.2
    }
  }
}
layer {
  name: "inception_3a/relu_5x5"
  type: "ReLU"
  bottom: "inception_3a/5x5"
  top: "inception_3a/5x5"
}
layer {
  name: "inception_3a/pool"
  type: "Pooling"
  bottom: "pool2/3x3_s2"
  top: "inception_3a/pool"
  pooling_param {
    pool: MAX
    kernel_size: 3
    stride: 1
    pad: 1
  }
}
layer {
  name: "inception_3a/pool_proj"
  type: "Convolution"
  bottom: "inception_3a/pool"
  top: "inception_3a/pool_proj"
  param {
    lr_mult: 1
    decay_mult: 1
  }
  param {
    lr_mult: 2
    decay_mult: 0
  }
  convolution_param {
    num_output: 32
    kernel_size: 1
    weight_filler {
      type: "xavier"
      std: 0.1
    }
    bias_filler {
      type: "constant"
      value: 0.2
    }
  }
}
layer {
  name: "inception_3a/relu_pool_proj"
  type: "ReLU"
  bottom: "inception_3a/pool_proj"
  top: "inception_3a/pool_proj"
}
layer {
  name: "inception_3a/output"
  type: "Concat"
  bottom: "inception_3a/1x1"
  bottom: "inception_3a/3x3"
  bottom: "inception_3a/5x5"
  bottom: "inception_3a/pool_proj"
  top: "inception_3a/output"
}
layer {
  name: "inception_3b/1x1"
  type: "Convolution"
  bottom: "inception_3a/output"
  top: "inception_3b/1x1"
  param {
    lr_mult: 1
    decay_mult: 1
  }
  param {
    lr_mult: 2
    decay_mult: 0
  }
  convolution_param {
    num_output: 128
    kernel_size: 1
    weight_filler {
      type: "xavier"
      std: 0.03
    }
    bias_filler {
      type: "constant"
      value: 0.2
    }
  }
}
layer {
  name: "inception_3b/relu_1x1"
  type: "ReLU"
  bottom: "inception_3b/1x1"
  top: "inception_3b/1x1"
}
layer {
  name: "inception_3b/3x3_reduce"
  type: "Convolution"
  bottom: "inception_3a/output"
  top: "inception_3b/3x3_reduce"
  param {
    lr_mult: 1
    decay_mult: 1
  }
  param {
    lr_mult: 2
    decay_mult: 0
  }
  convolution_param {
    num_output: 128
    kernel_size: 1
    weight_filler {
      type: "xavier"
      std: 0.09
    }
    bias_filler {
      type: "constant"
      value: 0.2
    }
  }
}
layer {
  name: "inception_3b/relu_3x3_reduce"
  type: "ReLU"
  bottom: "inception_3b/3x3_reduce"
  top: "inception_3b/3x3_reduce"
}
layer {
  name: "inception_3b/3x3"
  type: "Convolution"
  bottom: "inception_3b/3x3_reduce"
  top: "inception_3b/3x3"
  param {
    lr_mult: 1
    decay_mult: 1
  }
  param {
    lr_mult: 2
    decay_mult: 0
  }
  convolution_param {
    num_output: 192
    pad: 1
    kernel_size: 3
    weight_filler {
      type: "xavier"
      std: 0.03
    }
    bias_filler {
      type: "constant"
      value: 0.2
    }
  }
}
layer {
  name: "inception_3b/relu_3x3"
  type: "ReLU"
  bottom: "inception_3b/3x3"
  top: "inception_3b/3x3"
}
layer {
  name: "inception_3b/5x5_reduce"
  type: "Convolution"
  bottom: "inception_3a/output"
  top: "inception_3b/5x5_reduce"
  param {
    lr_mult: 1
    decay_mult: 1
  }
  param {
    lr_mult: 2
    decay_mult: 0
  }
  convolution_param {
    num_output: 32
    kernel_size: 1
    weight_filler {
      type: "xavier"
      std: 0.2
    }
    bias_filler {
      type: "constant"
      value: 0.2
    }
  }
}
layer {
  name: "inception_3b/relu_5x5_reduce"
  type: "ReLU"
  bottom: "inception_3b/5x5_reduce"
  top: "inception_3b/5x5_reduce"
}
layer {
  name: "inception_3b/5x5"
  type: "Convolution"
  bottom: "inception_3b/5x5_reduce"
  top: "inception_3b/5x5"
  param {
    lr_mult: 1
    decay_mult: 1
  }
  param {
    lr_mult: 2
    decay_mult: 0
  }
  convolution_param {
    num_output: 96
    pad: 2
    kernel_size: 5
    weight_filler {
      type: "xavier"
      std: 0.03
    }
    bias_filler {
      type: "constant"
      value: 0.2
    }
  }
}
layer {
  name: "inception_3b/relu_5x5"
  type: "ReLU"
  bottom: "inception_3b/5x5"
  top: "inception_3b/5x5"
}
layer {
  name: "inception_3b/pool"
  type: "Pooling"
  bottom: "inception_3a/output"
  top: "inception_3b/pool"
  pooling_param {
    pool: MAX
    kernel_size: 3
    stride: 1
    pad: 1
  }
}
layer {
  name: "inception_3b/pool_proj"
  type: "Convolution"
  bottom: "inception_3b/pool"
  top: "inception_3b/pool_proj"
  param {
    lr_mult: 1
    decay_mult: 1
  }
  param {
    lr_mult: 2
    decay_mult: 0
  }
  convolution_param {
    num_output: 64
    kernel_size: 1
    weight_filler {
      type: "xavier"
      std: 0.1
    }
    bias_filler {
      type: "constant"
      value: 0.2
    }
  }
}
layer {
  name: "inception_3b/relu_pool_proj"
  type: "ReLU"
  bottom: "inception_3b/pool_proj"
  top: "inception_3b/pool_proj"
}
layer {
  name: "inception_3b/output"
  type: "Concat"
  bottom: "inception_3b/1x1"
  bottom: "inception_3b/3x3"
  bottom: "inception_3b/5x5"
  bottom: "inception_3b/pool_proj"
  top: "inception_3b/output"
}
layer {
  name: "pool3/3x3_s2"
  type: "Pooling"
  bottom: "inception_3b/output"
  top: "pool3/3x3_s2"
  pooling_param {
    pool: MAX
    kernel_size: 3
    stride: 2
  }
}
layer {
  name: "inception_4a/1x1"
  type: "Convolution"
  bottom: "pool3/3x3_s2"
  top: "inception_4a/1x1"
  param {
    lr_mult: 1
    decay_mult: 1
  }
  param {
    lr_mult: 2
    decay_mult: 0
  }
  convolution_param {
    num_output: 192
    kernel_size: 1
    weight_filler {
      type: "xavier"
      std: 0.03
    }
    bias_filler {
      type: "constant"
      value: 0.2
    }
  }
}
layer {
  name: "inception_4a/relu_1x1"
  type: "ReLU"
  bottom: "inception_4a/1x1"
  top: "inception_4a/1x1"
}
layer {
  name: "inception_4a/3x3_reduce"
  type: "Convolution"
  bottom: "pool3/3x3_s2"
  top: "inception_4a/3x3_reduce"
  param {
    lr_mult: 1
    decay_mult: 1
  }
  param {
    lr_mult: 2
    decay_mult: 0
  }
  convolution_param {
    num_output: 96
    kernel_size: 1
    weight_filler {
      type: "xavier"
      std: 0.09
    }
    bias_filler {
      type: "constant"
      value: 0.2
    }
  }
}
layer {
  name: "inception_4a/relu_3x3_reduce"
  type: "ReLU"
  bottom: "inception_4a/3x3_reduce"
  top: "inception_4a/3x3_reduce"
}
layer {
  name: "inception_4a/3x3"
  type: "Convolution"
  bottom: "inception_4a/3x3_reduce"
  top: "inception_4a/3x3"
  param {
    lr_mult: 1
    decay_mult: 1
  }
  param {
    lr_mult: 2
    decay_mult: 0
  }
  convolution_param {
    num_output: 208
    pad: 1
    kernel_size: 3
    weight_filler {
      type: "xavier"
      std: 0.03
    }
    bias_filler {
      type: "constant"
      value: 0.2
    }
  }
}
layer {
  name: "inception_4a/relu_3x3"
  type: "ReLU"
  bottom: "inception_4a/3x3"
  top: "inception_4a/3x3"
}
layer {
  name: "inception_4a/5x5_reduce"
  type: "Convolution"
  bottom: "pool3/3x3_s2"
  top: "inception_4a/5x5_reduce"
  param {
    lr_mult: 1
    decay_mult: 1
  }
  param {
    lr_mult: 2
    decay_mult: 0
  }
  convolution_param {
    num_output: 16
    kernel_size: 1
    weight_filler {
      type: "xavier"
      std: 0.2
    }
    bias_filler {
      type: "constant"
      value: 0.2
    }
  }
}
layer {
  name: "inception_4a/relu_5x5_reduce"
  type: "ReLU"
  bottom: "inception_4a/5x5_reduce"
  top: "inception_4a/5x5_reduce"
}
layer {
  name: "inception_4a/5x5"
  type: "Convolution"
  bottom: "inception_4a/5x5_reduce"
  top: "inception_4a/5x5"
  param {
    lr_mult: 1
    decay_mult: 1
  }
  param {
    lr_mult: 2
    decay_mult: 0
  }
  convolution_param {
    num_output: 48
    pad: 2
    kernel_size: 5
    weight_filler {
      type: "xavier"
      std: 0.03
    }
    bias_filler {
      type: "constant"
      value: 0.2
    }
  }
}
layer {
  name: "inception_4a/relu_5x5"
  type: "ReLU"
  bottom: "inception_4a/5x5"
  top: "inception_4a/5x5"
}
layer {
  name: "inception_4a/pool"
  type: "Pooling"
  bottom: "pool3/3x3_s2"
  top: "inception_4a/pool"
  pooling_param {
    pool: MAX
    kernel_size: 3
    stride: 1
    pad: 1
  }
}
layer {
  name: "inception_4a/pool_proj"
  type: "Convolution"
  bottom: "inception_4a/pool"
  top: "inception_4a/pool_proj"
  param {
    lr_mult: 1
    decay_mult: 1
  }
  param {
    lr_mult: 2
    decay_mult: 0
  }
  convolution_param {
    num_output: 64
    kernel_size: 1
    weight_filler {
      type: "xavier"
      std: 0.1
    }
    bias_filler {
      type: "constant"
      value: 0.2
    }
  }
}
layer {
  name: "inception_4a/relu_pool_proj"
  type: "ReLU"
  bottom: "inception_4a/pool_proj"
  top: "inception_4a/pool_proj"
}
layer {
  name: "inception_4a/output"
  type: "Concat"
  bottom: "inception_4a/1x1"
  bottom: "inception_4a/3x3"
  bottom: "inception_4a/5x5"
  bottom: "inception_4a/pool_proj"
  top: "inception_4a/output"
}
layer {
  name: "loss1/ave_pool"
  type: "Pooling"
  bottom: "inception_4a/output"
  top: "loss1/ave_pool"
  pooling_param {
    pool: AVE
    kernel_size: 5
    stride: 3
  }
}
layer {
  name: "loss1/conv"
  type: "Convolution"
  bottom: "loss1/ave_pool"
  top: "loss1/conv"
  param {
    lr_mult: 1
    decay_mult: 1
  }
  param {
    lr_mult: 2
    decay_mult: 0
  }
  convolution_param {
    num_output: 128
    kernel_size: 1
    weight_filler {
      type: "xavier"
      std: 0.08
    }
    bias_filler {
      type: "constant"
      value: 0.2
    }
  }
}
layer {
  name: "loss1/relu_conv"
  type: "ReLU"
  bottom: "loss1/conv"
  top: "loss1/conv"
}
layer {
  name: "loss1/fc"
  type: "InnerProduct"
  bottom: "loss1/conv"
  top: "loss1/fc"
  param {
    lr_mult: 1
    decay_mult: 1
  }
  param {
    lr_mult: 2
    decay_mult: 0
  }
  inner_product_param {
    num_output: 1024
    weight_filler {
      type: "xavier"
      std: 0.02
    }
    bias_filler {
      type: "constant"
      value: 0.2
    }
  }
}
layer {
  name: "loss1/relu_fc"
  type: "ReLU"
  bottom: "loss1/fc"
  top: "loss1/fc"
}
layer {
  name: "loss1/drop_fc"
  type: "Dropout"
  bottom: "loss1/fc"
  top: "loss1/fc"
  dropout_param {
    dropout_ratio: 0.7
  }
}
layer {
  name: "loss1/classifier_plantvillage"
  type: "InnerProduct"
  bottom: "loss1/fc"
  top: "loss1/classifier_plantvillage"
  param {
    lr_mult: 1
    decay_mult: 1
  }
  param {
    lr_mult: 2
    decay_mult: 0
  }
  inner_product_param {
    num_output: 38
    weight_filler {
      type: "xavier"
      std: 0.0009765625
    }
    bias_filler {
      type: "constant"
      value: 0
    }
  }
}
layer {
  name: "inception_4b/1x1"
  type: "Convolution"
  bottom: "inception_4a/output"
  top: "inception_4b/1x1"
  param {
    lr_mult: 1
    decay_mult: 1
  }
  param {
    lr_mult: 2
    decay_mult: 0
  }
  convolution_param {
    num_output: 160
    kernel_size: 1
    weight_filler {
      type: "xavier"
      std: 0.03
    }
    bias_filler {
      type: "constant"
      value: 0.2
    }
  }
}
layer {
  name: "inception_4b/relu_1x1"
  type: "ReLU"
  bottom: "inception_4b/1x1"
  top: "inception_4b/1x1"
}
layer {
  name: "inception_4b/3x3_reduce"
  type: "Convolution"
  bottom: "inception_4a/output"
  top: "inception_4b/3x3_reduce"
  param {
    lr_mult: 1
    decay_mult: 1
  }
  param {
    lr_mult: 2
    decay_mult: 0
  }
  convolution_param {
    num_output: 112
    kernel_size: 1
    weight_filler {
      type: "xavier"
      std: 0.09
    }
    bias_filler {
      type: "constant"
      value: 0.2
    }
  }
}
layer {
  name: "inception_4b/relu_3x3_reduce"
  type: "ReLU"
  bottom: "inception_4b/3x3_reduce"
  top: "inception_4b/3x3_reduce"
}
layer {
  name: "inception_4b/3x3"
  type: "Convolution"
  bottom: "inception_4b/3x3_reduce"
  top: "inception_4b/3x3"
  param {
    lr_mult: 1
    decay_mult: 1
  }
  param {
    lr_mult: 2
    decay_mult: 0
  }
  convolution_param {
    num_output: 224
    pad: 1
    kernel_size: 3
    weight_filler {
      type: "xavier"
      std: 0.03
    }
    bias_filler {
      type: "constant"
      value: 0.2
    }
  }
}
layer {
  name: "inception_4b/relu_3x3"
  type: "ReLU"
  bottom: "inception_4b/3x3"
  top: "inception_4b/3x3"
}
layer {
  name: "inception_4b/5x5_reduce"
  type: "Convolution"
  bottom: "inception_4a/output"
  top: "inception_4b/5x5_reduce"
  param {
    lr_mult: 1
    decay_mult: 1
  }
  param {
    lr_mult: 2
    decay_mult: 0
  }
  convolution_param {
    num_output: 24
    kernel_size: 1
    weight_filler {
      type: "xavier"
      std: 0.2
    }
    bias_filler {
      type: "constant"
      value: 0.2
    }
  }
}
layer {
  name: "inception_4b/relu_5x5_reduce"
  type: "ReLU"
  bottom: "inception_4b/5x5_reduce"
  top: "inception_4b/5x5_reduce"
}
layer {
  name: "inception_4b/5x5"
  type: "Convolution"
  bottom: "inception_4b/5x5_reduce"
  top: "inception_4b/5x5"
  param {
    lr_mult: 1
    decay_mult: 1
  }
  param {
    lr_mult: 2
    decay_mult: 0
  }
  convolution_param {
    num_output: 64
    pad: 2
    kernel_size: 5
    weight_filler {
      type: "xavier"
      std: 0.03
    }
    bias_filler {
      type: "constant"
      value: 0.2
    }
  }
}
layer {
  name: "inception_4b/relu_5x5"
  type: "ReLU"
  bottom: "inception_4b/5x5"
  top: "inception_4b/5x5"
}
layer {
  name: "inception_4b/pool"
  type: "Pooling"
  bottom: "inception_4a/output"
  top: "inception_4b/pool"
  pooling_param {
    pool: MAX
    kernel_size: 3
    stride: 1
    pad: 1
  }
}
layer {
  name: "inception_4b/pool_proj"
  type: "Convolution"
  bottom: "inception_4b/pool"
  top: "inception_4b/pool_proj"
  param {
    lr_mult: 1
    decay_mult: 1
  }
  param {
    lr_mult: 2
    decay_mult: 0
  }
  convolution_param {
    num_output: 64
    kernel_size: 1
    weight_filler {
      type: "xavier"
      std: 0.1
    }
    bias_filler {
      type: "constant"
      value: 0.2
    }
  }
}
layer {
  name: "inception_4b/relu_pool_proj"
  type: "ReLU"
  bottom: "inception_4b/pool_proj"
  top: "inception_4b/pool_proj"
}
layer {
  name: "inception_4b/output"
  type: "Concat"
  bottom: "inception_4b/1x1"
  bottom: "inception_4b/3x3"
  bottom: "inception_4b/5x5"
  bottom: "inception_4b/pool_proj"
  top: "inception_4b/output"
}
layer {
  name: "inception_4c/1x1"
  type: "Convolution"
  bottom: "inception_4b/output"
  top: "inception_4c/1x1"
  param {
    lr_mult: 1
    decay_mult: 1
  }
  param {
    lr_mult: 2
    decay_mult: 0
  }
  convolution_param {
    num_output: 128
    kernel_size: 1
    weight_filler {
      type: "xavier"
      std: 0.03
    }
    bias_filler {
      type: "constant"
      value: 0.2
    }
  }
}
layer {
  name: "inception_4c/relu_1x1"
  type: "ReLU"
  bottom: "inception_4c/1x1"
  top: "inception_4c/1x1"
}
layer {
  name: "inception_4c/3x3_reduce"
  type: "Convolution"
  bottom: "inception_4b/output"
  top: "inception_4c/3x3_reduce"
  param {
    lr_mult: 1
    decay_mult: 1
  }
  param {
    lr_mult: 2
    decay_mult: 0
  }
  convolution_param {
    num_output: 128
    kernel_size: 1
    weight_filler {
      type: "xavier"
      std: 0.09
    }
    bias_filler {
      type: "constant"
      value: 0.2
    }
  }
}
layer {
  name: "inception_4c/relu_3x3_reduce"
  type: "ReLU"
  bottom: "inception_4c/3x3_reduce"
  top: "inception_4c/3x3_reduce"
}
layer {
  name: "inception_4c/3x3"
  type: "Convolution"
  bottom: "inception_4c/3x3_reduce"
  top: "inception_4c/3x3"
  param {
    lr_mult: 1
    decay_mult: 1
  }
  param {
    lr_mult: 2
    decay_mult: 0
  }
  convolution_param {
    num_output: 256
    pad: 1
    kernel_size: 3
    weight_filler {
      type: "xavier"
      std: 0.03
    }
    bias_filler {
      type: "constant"
      value: 0.2
    }
  }
}
layer {
  name: "inception_4c/relu_3x3"
  type: "ReLU"
  bottom: "inception_4c/3x3"
  top: "inception_4c/3x3"
}
layer {
  name: "inception_4c/5x5_reduce"
  type: "Convolution"
  bottom: "inception_4b/output"
  top: "inception_4c/5x5_reduce"
  param {
    lr_mult: 1
    decay_mult: 1
  }
  param {
    lr_mult: 2
    decay_mult: 0
  }
  convolution_param {
    num_output: 24
    kernel_size: 1
    weight_filler {
      type: "xavier"
      std: 0.2
    }
    bias_filler {
      type: "constant"
      value: 0.2
    }
  }
}
layer {
  name: "inception_4c/relu_5x5_reduce"
  type: "ReLU"
  bottom: "inception_4c/5x5_reduce"
  top: "inception_4c/5x5_reduce"
}
layer {
  name: "inception_4c/5x5"
  type: "Convolution"
  bottom: "inception_4c/5x5_reduce"
  top: "inception_4c/5x5"
  param {
    lr_mult: 1
    decay_mult: 1
  }
  param {
    lr_mult: 2
    decay_mult: 0
  }
  convolution_param {
    num_output: 64
    pad: 2
    kernel_size: 5
    weight_filler {
      type: "xavier"
      std: 0.03
    }
    bias_filler {
      type: "constant"
      value: 0.2
    }
  }
}
layer {
  name: "inception_4c/relu_5x5"
  type: "ReLU"
  bottom: "inception_4c/5x5"
  top: "inception_4c/5x5"
}
layer {
  name: "inception_4c/pool"
  type: "Pooling"
  bottom: "inception_4b/output"
  top: "inception_4c/pool"
  pooling_param {
    pool: MAX
    kernel_size: 3
    stride: 1
    pad: 1
  }
}
layer {
  name: "inception_4c/pool_proj"
  type: "Convolution"
  bottom: "inception_4c/pool"
  top: "inception_4c/pool_proj"
  param {
    lr_mult: 1
    decay_mult: 1
  }
  param {
    lr_mult: 2
    decay_mult: 0
  }
  convolution_param {
    num_output: 64
    kernel_size: 1
    weight_filler {
      type: "xavier"
      std: 0.1
    }
    bias_filler {
      type: "constant"
      value: 0.2
    }
  }
}
layer {
  name: "inception_4c/relu_pool_proj"
  type: "ReLU"
  bottom: "inception_4c/pool_proj"
  top: "inception_4c/pool_proj"
}
layer {
  name: "inception_4c/output"
  type: "Concat"
  bottom: "inception_4c/1x1"
  bottom: "inception_4c/3x3"
  bottom: "inception_4c/5x5"
  bottom: "inception_4c/pool_proj"
  top: "inception_4c/output"
}
layer {
  name: "inception_4d/1x1"
  type: "Convolution"
  bottom: "inception_4c/output"
  top: "inception_4d/1x1"
  param {
    lr_mult: 1
    decay_mult: 1
  }
  param {
    lr_mult: 2
    decay_mult: 0
  }
  convolution_param {
    num_output: 112
    kernel_size: 1
    weight_filler {
      type: "xavier"
      std: 0.03
    }
    bias_filler {
      type: "constant"
      value: 0.2
    }
  }
}
layer {
  name: "inception_4d/relu_1x1"
  type: "ReLU"
  bottom: "inception_4d/1x1"
  top: "inception_4d/1x1"
}
layer {
  name: "inception_4d/3x3_reduce"
  type: "Convolution"
  bottom: "inception_4c/output"
  top: "inception_4d/3x3_reduce"
  param {
    lr_mult: 1
    decay_mult: 1
  }
  param {
    lr_mult: 2
    decay_mult: 0
  }
  convolution_param {
    num_output: 144
    kernel_size: 1
    weight_filler {
      type: "xavier"
      std: 0.09
    }
    bias_filler {
      type: "constant"
      value: 0.2
    }
  }
}
layer {
  name: "inception_4d/relu_3x3_reduce"
  type: "ReLU"
  bottom: "inception_4d/3x3_reduce"
  top: "inception_4d/3x3_reduce"
}
layer {
  name: "inception_4d/3x3"
  type: "Convolution"
  bottom: "inception_4d/3x3_reduce"
  top: "inception_4d/3x3"
  param {
    lr_mult: 1
    decay_mult: 1
  }
  param {
    lr_mult: 2
    decay_mult: 0
  }
  convolution_param {
    num_output: 288
    pad: 1
    kernel_size: 3
    weight_filler {
      type: "xavier"
      std: 0.03
    }
    bias_filler {
      type: "constant"
      value: 0.2
    }
  }
}
layer {
  name: "inception_4d/relu_3x3"
  type: "ReLU"
  bottom: "inception_4d/3x3"
  top: "inception_4d/3x3"
}
layer {
  name: "inception_4d/5x5_reduce"
  type: "Convolution"
  bottom: "inception_4c/output"
  top: "inception_4d/5x5_reduce"
  param {
    lr_mult: 1
    decay_mult: 1
  }
  param {
    lr_mult: 2
    decay_mult: 0
  }
  convolution_param {
    num_output: 32
    kernel_size: 1
    weight_filler {
      type: "xavier"
      std: 0.2
    }
    bias_filler {
      type: "constant"
      value: 0.2
    }
  }
}
layer {
  name: "inception_4d/relu_5x5_reduce"
  type: "ReLU"
  bottom: "inception_4d/5x5_reduce"
  top: "inception_4d/5x5_reduce"
}
layer {
  name: "inception_4d/5x5"
  type: "Convolution"
  bottom: "inception_4d/5x5_reduce"
  top: "inception_4d/5x5"
  param {
    lr_mult: 1
    decay_mult: 1
  }
  param {
    lr_mult: 2
    decay_mult: 0
  }
  convolution_param {
    num_output: 64
    pad: 2
    kernel_size: 5
    weight_filler {
      type: "xavier"
      std: 0.03
    }
    bias_filler {
      type: "constant"
      value: 0.2
    }
  }
}
layer {
  name: "inception_4d/relu_5x5"
  type: "ReLU"
  bottom: "inception_4d/5x5"
  top: "inception_4d/5x5"
}
layer {
  name: "inception_4d/pool"
  type: "Pooling"
  bottom: "inception_4c/output"
  top: "inception_4d/pool"
  pooling_param {
    pool: MAX
    kernel_size: 3
    stride: 1
    pad: 1
  }
}
layer {
  name: "inception_4d/pool_proj"
  type: "Convolution"
  bottom: "inception_4d/pool"
  top: "inception_4d/pool_proj"
  param {
    lr_mult: 1
    decay_mult: 1
  }
  param {
    lr_mult: 2
    decay_mult: 0
  }
  convolution_param {
    num_output: 64
    kernel_size: 1
    weight_filler {
      type: "xavier"
      std: 0.1
    }
    bias_filler {
      type: "constant"
      value: 0.2
    }
  }
}
layer {
  name: "inception_4d/relu_pool_proj"
  type: "ReLU"
  bottom: "inception_4d/pool_proj"
  top: "inception_4d/pool_proj"
}
layer {
  name: "inception_4d/output"
  type: "Concat"
  bottom: "inception_4d/1x1"
  bottom: "inception_4d/3x3"
  bottom: "inception_4d/5x5"
  bottom: "inception_4d/pool_proj"
  top: "inception_4d/output"
}
layer {
  name: "loss2/ave_pool"
  type: "Pooling"
  bottom: "inception_4d/output"
  top: "loss2/ave_pool"
  pooling_param {
    pool: AVE
    kernel_size: 5
    stride: 3
  }
}
layer {
  name: "loss2/conv"
  type: "Convolution"
  bottom: "loss2/ave_pool"
  top: "loss2/conv"
  param {
    lr_mult: 1
    decay_mult: 1
  }
  param {
    lr_mult: 2
    decay_mult: 0
  }
  convolution_param {
    num_output: 128
    kernel_size: 1
    weight_filler {
      type: "xavier"
      std: 0.08
    }
    bias_filler {
      type: "constant"
      value: 0.2
    }
  }
}
layer {
  name: "loss2/relu_conv"
  type: "ReLU"
  bottom: "loss2/conv"
  top: "loss2/conv"
}
layer {
  name: "loss2/fc"
  type: "InnerProduct"
  bottom: "loss2/conv"
  top: "loss2/fc"
  param {
    lr_mult: 1
    decay_mult: 1
  }
  param {
    lr_mult: 2
    decay_mult: 0
  }
  inner_product_param {
    num_output: 1024
    weight_filler {
      type: "xavier"
      std: 0.02
    }
    bias_filler {
      type: "constant"
      value: 0.2
    }
  }
}
layer {
  name: "loss2/relu_fc"
  type: "ReLU"
  bottom: "loss2/fc"
  top: "loss2/fc"
}
layer {
  name: "loss2/drop_fc"
  type: "Dropout"
  bottom: "loss2/fc"
  top: "loss2/fc"
  dropout_param {
    dropout_ratio: 0.7
  }
}
layer {
  name: "loss2/classifier_plantvillage"
  type: "InnerProduct"
  bottom: "loss2/fc"
  top: "loss2/classifier_plantvillage"
  param {
    lr_mult: 1
    decay_mult: 1
  }
  param {
    lr_mult: 2
    decay_mult: 0
  }
  inner_product_param {
    num_output: 38
    weight_filler {
      type: "xavier"
      std: 0.0009765625
    }
    bias_filler {
      type: "constant"
      value: 0
    }
  }
}
layer {
  name: "inception_4e/1x1"
  type: "Convolution"
  bottom: "inception_4d/output"
  top: "inception_4e/1x1"
  param {
    lr_mult: 1
    decay_mult: 1
  }
  param {
    lr_mult: 2
    decay_mult: 0
  }
  convolution_param {
    num_output: 256
    kernel_size: 1
    weight_filler {
      type: "xavier"
      std: 0.03
    }
    bias_filler {
      type: "constant"
      value: 0.2
    }
  }
}
layer {
  name: "inception_4e/relu_1x1"
  type: "ReLU"
  bottom: "inception_4e/1x1"
  top: "inception_4e/1x1"
}
layer {
  name: "inception_4e/3x3_reduce"
  type: "Convolution"
  bottom: "inception_4d/output"
  top: "inception_4e/3x3_reduce"
  param {
    lr_mult: 1
    decay_mult: 1
  }
  param {
    lr_mult: 2
    decay_mult: 0
  }
  convolution_param {
    num_output: 160
    kernel_size: 1
    weight_filler {
      type: "xavier"
      std: 0.09
    }
    bias_filler {
      type: "constant"
      value: 0.2
    }
  }
}
layer {
  name: "inception_4e/relu_3x3_reduce"
  type: "ReLU"
  bottom: "inception_4e/3x3_reduce"
  top: "inception_4e/3x3_reduce"
}
layer {
  name: "inception_4e/3x3"
  type: "Convolution"
  bottom: "inception_4e/3x3_reduce"
  top: "inception_4e/3x3"
  param {
    lr_mult: 1
    decay_mult: 1
  }
  param {
    lr_mult: 2
    decay_mult: 0
  }
  convolution_param {
    num_output: 320
    pad: 1
    kernel_size: 3
    weight_filler {
      type: "xavier"
      std: 0.03
    }
    bias_filler {
      type: "constant"
      value: 0.2
    }
  }
}
layer {
  name: "inception_4e/relu_3x3"
  type: "ReLU"
  bottom: "inception_4e/3x3"
  top: "inception_4e/3x3"
}
layer {
  name: "inception_4e/5x5_reduce"
  type: "Convolution"
  bottom: "inception_4d/output"
  top: "inception_4e/5x5_reduce"
  param {
    lr_mult: 1
    decay_mult: 1
  }
  param {
    lr_mult: 2
    decay_mult: 0
  }
  convolution_param {
    num_output: 32
    kernel_size: 1
    weight_filler {
      type: "xavier"
      std: 0.2
    }
    bias_filler {
      type: "constant"
      value: 0.2
    }
  }
}
layer {
  name: "inception_4e/relu_5x5_reduce"
  type: "ReLU"
  bottom: "inception_4e/5x5_reduce"
  top: "inception_4e/5x5_reduce"
}
layer {
  name: "inception_4e/5x5"
  type: "Convolution"
  bottom: "inception_4e/5x5_reduce"
  top: "inception_4e/
I0403 16:38:11.063851 21290 layer_factory.hpp:77] Creating layer data
I0403 16:38:11.064468 21290 net.cpp:91] Creating Layer data
I0403 16:38:11.064503 21290 net.cpp:399] data -> data
I0403 16:38:11.064555 21290 net.cpp:399] data -> label
I0403 16:38:11.064592 21290 data_transformer.cpp:25] Loading mean file from: /home/mohanty/data/final_dataset/lmdb/grayscale-20-80/mean.binaryproto
I0403 16:38:11.065810 21293 db_lmdb.cpp:38] Opened lmdb /home/mohanty/data/final_dataset/lmdb/grayscale-20-80/test_db
I0403 16:38:11.077848 21290 data_layer.cpp:41] output data size: 24,3,224,224
I0403 16:38:11.105509 21290 net.cpp:141] Setting up data
I0403 16:38:11.105612 21290 net.cpp:148] Top shape: 24 3 224 224 (3612672)
I0403 16:38:11.105634 21290 net.cpp:148] Top shape: 24 (24)
I0403 16:38:11.105648 21290 net.cpp:156] Memory required for data: 14450784
I0403 16:38:11.105676 21290 layer_factory.hpp:77] Creating layer label_data_1_split
I0403 16:38:11.105702 21290 net.cpp:91] Creating Layer label_data_1_split
I0403 16:38:11.105720 21290 net.cpp:425] label_data_1_split <- label
I0403 16:38:11.105752 21290 net.cpp:399] label_data_1_split -> label_data_1_split_0
I0403 16:38:11.105792 21290 net.cpp:399] label_data_1_split -> label_data_1_split_1
I0403 16:38:11.105813 21290 net.cpp:399] label_data_1_split -> label_data_1_split_2
I0403 16:38:11.105834 21290 net.cpp:399] label_data_1_split -> label_data_1_split_3
I0403 16:38:11.105854 21290 net.cpp:399] label_data_1_split -> label_data_1_split_4
I0403 16:38:11.105875 21290 net.cpp:399] label_data_1_split -> label_data_1_split_5
I0403 16:38:11.105893 21290 net.cpp:399] label_data_1_split -> label_data_1_split_6
I0403 16:38:11.105914 21290 net.cpp:399] label_data_1_split -> label_data_1_split_7
I0403 16:38:11.105933 21290 net.cpp:399] label_data_1_split -> label_data_1_split_8
I0403 16:38:11.105954 21290 net.cpp:399] label_data_1_split -> label_data_1_split_9
I0403 16:38:11.106082 21290 net.cpp:141] Setting up label_data_1_split
I0403 16:38:11.106107 21290 net.cpp:148] Top shape: 24 (24)
I0403 16:38:11.106125 21290 net.cpp:148] Top shape: 24 (24)
I0403 16:38:11.106142 21290 net.cpp:148] Top shape: 24 (24)
I0403 16:38:11.106158 21290 net.cpp:148] Top shape: 24 (24)
I0403 16:38:11.106173 21290 net.cpp:148] Top shape: 24 (24)
I0403 16:38:11.106189 21290 net.cpp:148] Top shape: 24 (24)
I0403 16:38:11.106204 21290 net.cpp:148] Top shape: 24 (24)
I0403 16:38:11.106220 21290 net.cpp:148] Top shape: 24 (24)
I0403 16:38:11.106235 21290 net.cpp:148] Top shape: 24 (24)
I0403 16:38:11.106251 21290 net.cpp:148] Top shape: 24 (24)
I0403 16:38:11.106298 21290 net.cpp:156] Memory required for data: 14451744
I0403 16:38:11.106315 21290 layer_factory.hpp:77] Creating layer conv1/7x7_s2
I0403 16:38:11.106348 21290 net.cpp:91] Creating Layer conv1/7x7_s2
I0403 16:38:11.106367 21290 net.cpp:425] conv1/7x7_s2 <- data
I0403 16:38:11.106386 21290 net.cpp:399] conv1/7x7_s2 -> conv1/7x7_s2
I0403 16:38:11.242998 21290 net.cpp:141] Setting up conv1/7x7_s2
I0403 16:38:11.243068 21290 net.cpp:148] Top shape: 24 64 112 112 (19267584)
I0403 16:38:11.243088 21290 net.cpp:156] Memory required for data: 91522080
I0403 16:38:11.243118 21290 layer_factory.hpp:77] Creating layer conv1/relu_7x7
I0403 16:38:11.243144 21290 net.cpp:91] Creating Layer conv1/relu_7x7
I0403 16:38:11.243162 21290 net.cpp:425] conv1/relu_7x7 <- conv1/7x7_s2
I0403 16:38:11.243185 21290 net.cpp:386] conv1/relu_7x7 -> conv1/7x7_s2 (in-place)
I0403 16:38:11.243471 21290 net.cpp:141] Setting up conv1/relu_7x7
I0403 16:38:11.243499 21290 net.cpp:148] Top shape: 24 64 112 112 (19267584)
I0403 16:38:11.243513 21290 net.cpp:156] Memory required for data: 168592416
I0403 16:38:11.243530 21290 layer_factory.hpp:77] Creating layer pool1/3x3_s2
I0403 16:38:11.243552 21290 net.cpp:91] Creating Layer pool1/3x3_s2
I0403 16:38:11.243569 21290 net.cpp:425] pool1/3x3_s2 <- conv1/7x7_s2
I0403 16:38:11.243590 21290 net.cpp:399] pool1/3x3_s2 -> pool1/3x3_s2
I0403 16:38:11.243671 21290 net.cpp:141] Setting up pool1/3x3_s2
I0403 16:38:11.243695 21290 net.cpp:148] Top shape: 24 64 56 56 (4816896)
I0403 16:38:11.243710 21290 net.cpp:156] Memory required for data: 187860000
I0403 16:38:11.243724 21290 layer_factory.hpp:77] Creating layer pool1/norm1
I0403 16:38:11.243752 21290 net.cpp:91] Creating Layer pool1/norm1
I0403 16:38:11.243769 21290 net.cpp:425] pool1/norm1 <- pool1/3x3_s2
I0403 16:38:11.243789 21290 net.cpp:399] pool1/norm1 -> pool1/norm1
I0403 16:38:11.244109 21290 net.cpp:141] Setting up pool1/norm1
I0403 16:38:11.244138 21290 net.cpp:148] Top shape: 24 64 56 56 (4816896)
I0403 16:38:11.244153 21290 net.cpp:156] Memory required for data: 207127584
I0403 16:38:11.244166 21290 layer_factory.hpp:77] Creating layer conv2/3x3_reduce
I0403 16:38:11.244194 21290 net.cpp:91] Creating Layer conv2/3x3_reduce
I0403 16:38:11.244211 21290 net.cpp:425] conv2/3x3_reduce <- pool1/norm1
I0403 16:38:11.244232 21290 net.cpp:399] conv2/3x3_reduce -> conv2/3x3_reduce
I0403 16:38:11.245653 21290 net.cpp:141] Setting up conv2/3x3_reduce
I0403 16:38:11.245683 21290 net.cpp:148] Top shape: 24 64 56 56 (4816896)
I0403 16:38:11.245702 21290 net.cpp:156] Memory required for data: 226395168
I0403 16:38:11.245723 21290 layer_factory.hpp:77] Creating layer conv2/relu_3x3_reduce
I0403 16:38:11.245741 21290 net.cpp:91] Creating Layer conv2/relu_3x3_reduce
I0403 16:38:11.245757 21290 net.cpp:425] conv2/relu_3x3_reduce <- conv2/3x3_reduce
I0403 16:38:11.245774 21290 net.cpp:386] conv2/relu_3x3_reduce -> conv2/3x3_reduce (in-place)
I0403 16:38:11.246054 21290 net.cpp:141] Setting up conv2/relu_3x3_reduce
I0403 16:38:11.246083 21290 net.cpp:148] Top shape: 24 64 56 56 (4816896)
I0403 16:38:11.246099 21290 net.cpp:156] Memory required for data: 245662752
I0403 16:38:11.246114 21290 layer_factory.hpp:77] Creating layer conv2/3x3
I0403 16:38:11.246139 21290 net.cpp:91] Creating Layer conv2/3x3
I0403 16:38:11.246155 21290 net.cpp:425] conv2/3x3 <- conv2/3x3_reduce
I0403 16:38:11.246173 21290 net.cpp:399] conv2/3x3 -> conv2/3x3
I0403 16:38:11.248504 21290 net.cpp:141] Setting up conv2/3x3
I0403 16:38:11.248538 21290 net.cpp:148] Top shape: 24 192 56 56 (14450688)
I0403 16:38:11.248554 21290 net.cpp:156] Memory required for data: 303465504
I0403 16:38:11.248575 21290 layer_factory.hpp:77] Creating layer conv2/relu_3x3
I0403 16:38:11.248594 21290 net.cpp:91] Creating Layer conv2/relu_3x3
I0403 16:38:11.248610 21290 net.cpp:425] conv2/relu_3x3 <- conv2/3x3
I0403 16:38:11.248626 21290 net.cpp:386] conv2/relu_3x3 -> conv2/3x3 (in-place)
I0403 16:38:11.248807 21290 net.cpp:141] Setting up conv2/relu_3x3
I0403 16:38:11.248833 21290 net.cpp:148] Top shape: 24 192 56 56 (14450688)
I0403 16:38:11.248878 21290 net.cpp:156] Memory required for data: 361268256
I0403 16:38:11.248894 21290 layer_factory.hpp:77] Creating layer conv2/norm2
I0403 16:38:11.248916 21290 net.cpp:91] Creating Layer conv2/norm2
I0403 16:38:11.248934 21290 net.cpp:425] conv2/norm2 <- conv2/3x3
I0403 16:38:11.248951 21290 net.cpp:399] conv2/norm2 -> conv2/norm2
I0403 16:38:11.249276 21290 net.cpp:141] Setting up conv2/norm2
I0403 16:38:11.249305 21290 net.cpp:148] Top shape: 24 192 56 56 (14450688)
I0403 16:38:11.249320 21290 net.cpp:156] Memory required for data: 419071008
I0403 16:38:11.249333 21290 layer_factory.hpp:77] Creating layer pool2/3x3_s2
I0403 16:38:11.249353 21290 net.cpp:91] Creating Layer pool2/3x3_s2
I0403 16:38:11.249369 21290 net.cpp:425] pool2/3x3_s2 <- conv2/norm2
I0403 16:38:11.249387 21290 net.cpp:399] pool2/3x3_s2 -> pool2/3x3_s2
I0403 16:38:11.249444 21290 net.cpp:141] Setting up pool2/3x3_s2
I0403 16:38:11.249466 21290 net.cpp:148] Top shape: 24 192 28 28 (3612672)
I0403 16:38:11.249480 21290 net.cpp:156] Memory required for data: 433521696
I0403 16:38:11.249495 21290 layer_factory.hpp:77] Creating layer pool2/3x3_s2_pool2/3x3_s2_0_split
I0403 16:38:11.249513 21290 net.cpp:91] Creating Layer pool2/3x3_s2_pool2/3x3_s2_0_split
I0403 16:38:11.249527 21290 net.cpp:425] pool2/3x3_s2_pool2/3x3_s2_0_split <- pool2/3x3_s2
I0403 16:38:11.249547 21290 net.cpp:399] pool2/3x3_s2_pool2/3x3_s2_0_split -> pool2/3x3_s2_pool2/3x3_s2_0_split_0
I0403 16:38:11.249568 21290 net.cpp:399] pool2/3x3_s2_pool2/3x3_s2_0_split -> pool2/3x3_s2_pool2/3x3_s2_0_split_1
I0403 16:38:11.249588 21290 net.cpp:399] pool2/3x3_s2_pool2/3x3_s2_0_split -> pool2/3x3_s2_pool2/3x3_s2_0_split_2
I0403 16:38:11.249608 21290 net.cpp:399] pool2/3x3_s2_pool2/3x3_s2_0_split -> pool2/3x3_s2_pool2/3x3_s2_0_split_3
I0403 16:38:11.249680 21290 net.cpp:141] Setting up pool2/3x3_s2_pool2/3x3_s2_0_split
I0403 16:38:11.249706 21290 net.cpp:148] Top shape: 24 192 28 28 (3612672)
I0403 16:38:11.249722 21290 net.cpp:148] Top shape: 24 192 28 28 (3612672)
I0403 16:38:11.249737 21290 net.cpp:148] Top shape: 24 192 28 28 (3612672)
I0403 16:38:11.249755 21290 net.cpp:148] Top shape: 24 192 28 28 (3612672)
I0403 16:38:11.249768 21290 net.cpp:156] Memory required for data: 491324448
I0403 16:38:11.249783 21290 layer_factory.hpp:77] Creating layer inception_3a/1x1
I0403 16:38:11.249805 21290 net.cpp:91] Creating Layer inception_3a/1x1
I0403 16:38:11.249822 21290 net.cpp:425] inception_3a/1x1 <- pool2/3x3_s2_pool2/3x3_s2_0_split_0
I0403 16:38:11.249841 21290 net.cpp:399] inception_3a/1x1 -> inception_3a/1x1
I0403 16:38:11.251428 21290 net.cpp:141] Setting up inception_3a/1x1
I0403 16:38:11.251459 21290 net.cpp:148] Top shape: 24 64 28 28 (1204224)
I0403 16:38:11.251476 21290 net.cpp:156] Memory required for data: 496141344
I0403 16:38:11.251494 21290 layer_factory.hpp:77] Creating layer inception_3a/relu_1x1
I0403 16:38:11.251518 21290 net.cpp:91] Creating Layer inception_3a/relu_1x1
I0403 16:38:11.251535 21290 net.cpp:425] inception_3a/relu_1x1 <- inception_3a/1x1
I0403 16:38:11.251554 21290 net.cpp:386] inception_3a/relu_1x1 -> inception_3a/1x1 (in-place)
I0403 16:38:11.251740 21290 net.cpp:141] Setting up inception_3a/relu_1x1
I0403 16:38:11.251766 21290 net.cpp:148] Top shape: 24 64 28 28 (1204224)
I0403 16:38:11.251781 21290 net.cpp:156] Memory required for data: 500958240
I0403 16:38:11.251796 21290 layer_factory.hpp:77] Creating layer inception_3a/3x3_reduce
I0403 16:38:11.251819 21290 net.cpp:91] Creating Layer inception_3a/3x3_reduce
I0403 16:38:11.251837 21290 net.cpp:425] inception_3a/3x3_reduce <- pool2/3x3_s2_pool2/3x3_s2_0_split_1
I0403 16:38:11.251858 21290 net.cpp:399] inception_3a/3x3_reduce -> inception_3a/3x3_reduce
I0403 16:38:11.253612 21290 net.cpp:141] Setting up inception_3a/3x3_reduce
I0403 16:38:11.253645 21290 net.cpp:148] Top shape: 24 96 28 28 (1806336)
I0403 16:38:11.253664 21290 net.cpp:156] Memory required for data: 508183584
I0403 16:38:11.253685 21290 layer_factory.hpp:77] Creating layer inception_3a/relu_3x3_reduce
I0403 16:38:11.253721 21290 net.cpp:91] Creating Layer inception_3a/relu_3x3_reduce
I0403 16:38:11.253739 21290 net.cpp:425] inception_3a/relu_3x3_reduce <- inception_3a/3x3_reduce
I0403 16:38:11.253761 21290 net.cpp:386] inception_3a/relu_3x3_reduce -> inception_3a/3x3_reduce (in-place)
I0403 16:38:11.253955 21290 net.cpp:141] Setting up inception_3a/relu_3x3_reduce
I0403 16:38:11.253981 21290 net.cpp:148] Top shape: 24 96 28 28 (1806336)
I0403 16:38:11.253998 21290 net.cpp:156] Memory required for data: 515408928
I0403 16:38:11.254011 21290 layer_factory.hpp:77] Creating layer inception_3a/3x3
I0403 16:38:11.254035 21290 net.cpp:91] Creating Layer inception_3a/3x3
I0403 16:38:11.254057 21290 net.cpp:425] inception_3a/3x3 <- inception_3a/3x3_reduce
I0403 16:38:11.254081 21290 net.cpp:399] inception_3a/3x3 -> inception_3a/3x3
I0403 16:38:11.255861 21290 net.cpp:141] Setting up inception_3a/3x3
I0403 16:38:11.255892 21290 net.cpp:148] Top shape: 24 128 28 28 (2408448)
I0403 16:38:11.255909 21290 net.cpp:156] Memory required for data: 525042720
I0403 16:38:11.255928 21290 layer_factory.hpp:77] Creating layer inception_3a/relu_3x3
I0403 16:38:11.255946 21290 net.cpp:91] Creating Layer inception_3a/relu_3x3
I0403 16:38:11.255962 21290 net.cpp:425] inception_3a/relu_3x3 <- inception_3a/3x3
I0403 16:38:11.255982 21290 net.cpp:386] inception_3a/relu_3x3 -> inception_3a/3x3 (in-place)
I0403 16:38:11.256279 21290 net.cpp:141] Setting up inception_3a/relu_3x3
I0403 16:38:11.256309 21290 net.cpp:148] Top shape: 24 128 28 28 (2408448)
I0403 16:38:11.256326 21290 net.cpp:156] Memory required for data: 534676512
I0403 16:38:11.256341 21290 layer_factory.hpp:77] Creating layer inception_3a/5x5_reduce
I0403 16:38:11.256366 21290 net.cpp:91] Creating Layer inception_3a/5x5_reduce
I0403 16:38:11.256382 21290 net.cpp:425] inception_3a/5x5_reduce <- pool2/3x3_s2_pool2/3x3_s2_0_split_2
I0403 16:38:11.256402 21290 net.cpp:399] inception_3a/5x5_reduce -> inception_3a/5x5_reduce
I0403 16:38:11.257418 21290 net.cpp:141] Setting up inception_3a/5x5_reduce
I0403 16:38:11.257449 21290 net.cpp:148] Top shape: 24 16 28 28 (301056)
I0403 16:38:11.257465 21290 net.cpp:156] Memory required for data: 535880736
I0403 16:38:11.257483 21290 layer_factory.hpp:77] Creating layer inception_3a/relu_5x5_reduce
I0403 16:38:11.257501 21290 net.cpp:91] Creating Layer inception_3a/relu_5x5_reduce
I0403 16:38:11.257518 21290 net.cpp:425] inception_3a/relu_5x5_reduce <- inception_3a/5x5_reduce
I0403 16:38:11.257539 21290 net.cpp:386] inception_3a/relu_5x5_reduce -> inception_3a/5x5_reduce (in-place)
I0403 16:38:11.257848 21290 net.cpp:141] Setting up inception_3a/relu_5x5_reduce
I0403 16:38:11.257874 21290 net.cpp:148] Top shape: 24 16 28 28 (301056)
I0403 16:38:11.257889 21290 net.cpp:156] Memory required for data: 537084960
I0403 16:38:11.257904 21290 layer_factory.hpp:77] Creating layer inception_3a/5x5
I0403 16:38:11.257938 21290 net.cpp:91] Creating Layer inception_3a/5x5
I0403 16:38:11.257957 21290 net.cpp:425] inception_3a/5x5 <- inception_3a/5x5_reduce
I0403 16:38:11.257979 21290 net.cpp:399] inception_3a/5x5 -> inception_3a/5x5
I0403 16:38:11.259039 21290 net.cpp:141] Setting up inception_3a/5x5
I0403 16:38:11.259078 21290 net.cpp:148] Top shape: 24 32 28 28 (602112)
I0403 16:38:11.259094 21290 net.cpp:156] Memory required for data: 539493408
I0403 16:38:11.259112 21290 layer_factory.hpp:77] Creating layer inception_3a/relu_5x5
I0403 16:38:11.259133 21290 net.cpp:91] Creating Layer inception_3a/relu_5x5
I0403 16:38:11.259150 21290 net.cpp:425] inception_3a/relu_5x5 <- inception_3a/5x5
I0403 16:38:11.259167 21290 net.cpp:386] inception_3a/relu_5x5 -> inception_3a/5x5 (in-place)
I0403 16:38:11.259346 21290 net.cpp:141] Setting up inception_3a/relu_5x5
I0403 16:38:11.259372 21290 net.cpp:148] Top shape: 24 32 28 28 (602112)
I0403 16:38:11.259387 21290 net.cpp:156] Memory required for data: 541901856
I0403 16:38:11.259402 21290 layer_factory.hpp:77] Creating layer inception_3a/pool
I0403 16:38:11.259419 21290 net.cpp:91] Creating Layer inception_3a/pool
I0403 16:38:11.259449 21290 net.cpp:425] inception_3a/pool <- pool2/3x3_s2_pool2/3x3_s2_0_split_3
I0403 16:38:11.259470 21290 net.cpp:399] inception_3a/pool -> inception_3a/pool
I0403 16:38:11.259529 21290 net.cpp:141] Setting up inception_3a/pool
I0403 16:38:11.259553 21290 net.cpp:148] Top shape: 24 192 28 28 (3612672)
I0403 16:38:11.259567 21290 net.cpp:156] Memory required for data: 556352544
I0403 16:38:11.259582 21290 layer_factory.hpp:77] Creating layer inception_3a/pool_proj
I0403 16:38:11.259606 21290 net.cpp:91] Creating Layer inception_3a/pool_proj
I0403 16:38:11.259624 21290 net.cpp:425] inception_3a/pool_proj <- inception_3a/pool
I0403 16:38:11.259644 21290 net.cpp:399] inception_3a/pool_proj -> inception_3a/pool_proj
I0403 16:38:11.260627 21290 net.cpp:141] Setting up inception_3a/pool_proj
I0403 16:38:11.260655 21290 net.cpp:148] Top shape: 24 32 28 28 (602112)
I0403 16:38:11.260670 21290 net.cpp:156] Memory required for data: 558760992
I0403 16:38:11.260694 21290 layer_factory.hpp:77] Creating layer inception_3a/relu_pool_proj
I0403 16:38:11.260715 21290 net.cpp:91] Creating Layer inception_3a/relu_pool_proj
I0403 16:38:11.260730 21290 net.cpp:425] inception_3a/relu_pool_proj <- inception_3a/pool_proj
I0403 16:38:11.260749 21290 net.cpp:386] inception_3a/relu_pool_proj -> inception_3a/pool_proj (in-place)
I0403 16:38:11.261029 21290 net.cpp:141] Setting up inception_3a/relu_pool_proj
I0403 16:38:11.261062 21290 net.cpp:148] Top shape: 24 32 28 28 (602112)
I0403 16:38:11.261080 21290 net.cpp:156] Memory required for data: 561169440
I0403 16:38:11.261096 21290 layer_factory.hpp:77] Creating layer inception_3a/output
I0403 16:38:11.261112 21290 net.cpp:91] Creating Layer inception_3a/output
I0403 16:38:11.261128 21290 net.cpp:425] inception_3a/output <- inception_3a/1x1
I0403 16:38:11.261144 21290 net.cpp:425] inception_3a/output <- inception_3a/3x3
I0403 16:38:11.261160 21290 net.cpp:425] inception_3a/output <- inception_3a/5x5
I0403 16:38:11.261176 21290 net.cpp:425] inception_3a/output <- inception_3a/pool_proj
I0403 16:38:11.261193 21290 net.cpp:399] inception_3a/output -> inception_3a/output
I0403 16:38:11.261243 21290 net.cpp:141] Setting up inception_3a/output
I0403 16:38:11.261266 21290 net.cpp:148] Top shape: 24 256 28 28 (4816896)
I0403 16:38:11.261281 21290 net.cpp:156] Memory required for data: 580437024
I0403 16:38:11.261296 21290 layer_factory.hpp:77] Creating layer inception_3a/output_inception_3a/output_0_split
I0403 16:38:11.261317 21290 net.cpp:91] Creating Layer inception_3a/output_inception_3a/output_0_split
I0403 16:38:11.261332 21290 net.cpp:425] inception_3a/output_inception_3a/output_0_split <- inception_3a/output
I0403 16:38:11.261349 21290 net.cpp:399] inception_3a/output_inception_3a/output_0_split -> inception_3a/output_inception_3a/output_0_split_0
I0403 16:38:11.261369 21290 net.cpp:399] inception_3a/output_inception_3a/output_0_split -> inception_3a/output_inception_3a/output_0_split_1
I0403 16:38:11.261397 21290 net.cpp:399] inception_3a/output_inception_3a/output_0_split -> inception_3a/output_inception_3a/output_0_split_2
I0403 16:38:11.261420 21290 net.cpp:399] inception_3a/output_inception_3a/output_0_split -> inception_3a/output_inception_3a/output_0_split_3
I0403 16:38:11.261494 21290 net.cpp:141] Setting up inception_3a/output_inception_3a/output_0_split
I0403 16:38:11.261517 21290 net.cpp:148] Top shape: 24 256 28 28 (4816896)
I0403 16:38:11.261535 21290 net.cpp:148] Top shape: 24 256 28 28 (4816896)
I0403 16:38:11.261553 21290 net.cpp:148] Top shape: 24 256 28 28 (4816896)
I0403 16:38:11.261567 21290 net.cpp:148] Top shape: 24 256 28 28 (4816896)
I0403 16:38:11.261581 21290 net.cpp:156] Memory required for data: 657507360
I0403 16:38:11.261596 21290 layer_factory.hpp:77] Creating layer inception_3b/1x1
I0403 16:38:11.261615 21290 net.cpp:91] Creating Layer inception_3b/1x1
I0403 16:38:11.261632 21290 net.cpp:425] inception_3b/1x1 <- inception_3a/output_inception_3a/output_0_split_0
I0403 16:38:11.261656 21290 net.cpp:399] inception_3b/1x1 -> inception_3b/1x1
I0403 16:38:11.262814 21290 net.cpp:141] Setting up inception_3b/1x1
I0403 16:38:11.262856 21290 net.cpp:148] Top shape: 24 128 28 28 (2408448)
I0403 16:38:11.262871 21290 net.cpp:156] Memory required for data: 667141152
I0403 16:38:11.262889 21290 layer_factory.hpp:77] Creating layer inception_3b/relu_1x1
I0403 16:38:11.262909 21290 net.cpp:91] Creating Layer inception_3b/relu_1x1
I0403 16:38:11.262926 21290 net.cpp:425] inception_3b/relu_1x1 <- inception_3b/1x1
I0403 16:38:11.262956 21290 net.cpp:386] inception_3b/relu_1x1 -> inception_3b/1x1 (in-place)
I0403 16:38:11.263144 21290 net.cpp:141] Setting up inception_3b/relu_1x1
I0403 16:38:11.263173 21290 net.cpp:148] Top shape: 24 128 28 28 (2408448)
I0403 16:38:11.263188 21290 net.cpp:156] Memory required for data: 676774944
I0403 16:38:11.263205 21290 layer_factory.hpp:77] Creating layer inception_3b/3x3_reduce
I0403 16:38:11.263226 21290 net.cpp:91] Creating Layer inception_3b/3x3_reduce
I0403 16:38:11.263257 21290 net.cpp:425] inception_3b/3x3_reduce <- inception_3a/output_inception_3a/output_0_split_1
I0403 16:38:11.263275 21290 net.cpp:399] inception_3b/3x3_reduce -> inception_3b/3x3_reduce
I0403 16:38:11.264433 21290 net.cpp:141] Setting up inception_3b/3x3_reduce
I0403 16:38:11.264461 21290 net.cpp:148] Top shape: 24 128 28 28 (2408448)
I0403 16:38:11.264477 21290 net.cpp:156] Memory required for data: 686408736
I0403 16:38:11.264495 21290 layer_factory.hpp:77] Creating layer inception_3b/relu_3x3_reduce
I0403 16:38:11.264515 21290 net.cpp:91] Creating Layer inception_3b/relu_3x3_reduce
I0403 16:38:11.264531 21290 net.cpp:425] inception_3b/relu_3x3_reduce <- inception_3b/3x3_reduce
I0403 16:38:11.264549 21290 net.cpp:386] inception_3b/relu_3x3_reduce -> inception_3b/3x3_reduce (in-place)
I0403 16:38:11.264724 21290 net.cpp:141] Setting up inception_3b/relu_3x3_reduce
I0403 16:38:11.264752 21290 net.cpp:148] Top shape: 24 128 28 28 (2408448)
I0403 16:38:11.264767 21290 net.cpp:156] Memory required for data: 696042528
I0403 16:38:11.264782 21290 layer_factory.hpp:77] Creating layer inception_3b/3x3
I0403 16:38:11.264806 21290 net.cpp:91] Creating Layer inception_3b/3x3
I0403 16:38:11.264825 21290 net.cpp:425] inception_3b/3x3 <- inception_3b/3x3_reduce
I0403 16:38:11.264847 21290 net.cpp:399] inception_3b/3x3 -> inception_3b/3x3
I0403 16:38:11.267796 21290 net.cpp:141] Setting up inception_3b/3x3
I0403 16:38:11.267827 21290 net.cpp:148] Top shape: 24 192 28 28 (3612672)
I0403 16:38:11.267843 21290 net.cpp:156] Memory required for data: 710493216
I0403 16:38:11.267861 21290 layer_factory.hpp:77] Creating layer inception_3b/relu_3x3
I0403 16:38:11.267879 21290 net.cpp:91] Creating Layer inception_3b/relu_3x3
I0403 16:38:11.267894 21290 net.cpp:425] inception_3b/relu_3x3 <- inception_3b/3x3
I0403 16:38:11.267915 21290 net.cpp:386] inception_3b/relu_3x3 -> inception_3b/3x3 (in-place)
I0403 16:38:11.268196 21290 net.cpp:141] Setting up inception_3b/relu_3x3
I0403 16:38:11.268226 21290 net.cpp:148] Top shape: 24 192 28 28 (3612672)
I0403 16:38:11.268242 21290 net.cpp:156] Memory required for data: 724943904
I0403 16:38:11.268257 21290 layer_factory.hpp:77] Creating layer inception_3b/5x5_reduce
I0403 16:38:11.268281 21290 net.cpp:91] Creating Layer inception_3b/5x5_reduce
I0403 16:38:11.268298 21290 net.cpp:425] inception_3b/5x5_reduce <- inception_3a/output_inception_3a/output_0_split_2
I0403 16:38:11.268317 21290 net.cpp:399] inception_3b/5x5_reduce -> inception_3b/5x5_reduce
I0403 16:38:11.269358 21290 net.cpp:141] Setting up inception_3b/5x5_reduce
I0403 16:38:11.269390 21290 net.cpp:148] Top shape: 24 32 28 28 (602112)
I0403 16:38:11.269407 21290 net.cpp:156] Memory required for data: 727352352
I0403 16:38:11.269426 21290 layer_factory.hpp:77] Creating layer inception_3b/relu_5x5_reduce
I0403 16:38:11.269444 21290 net.cpp:91] Creating Layer inception_3b/relu_5x5_reduce
I0403 16:38:11.269460 21290 net.cpp:425] inception_3b/relu_5x5_reduce <- inception_3b/5x5_reduce
I0403 16:38:11.269480 21290 net.cpp:386] inception_3b/relu_5x5_reduce -> inception_3b/5x5_reduce (in-place)
I0403 16:38:11.269704 21290 net.cpp:141] Setting up inception_3b/relu_5x5_reduce
I0403 16:38:11.269731 21290 net.cpp:148] Top shape: 24 32 28 28 (602112)
I0403 16:38:11.269745 21290 net.cpp:156] Memory required for data: 729760800
I0403 16:38:11.269760 21290 layer_factory.hpp:77] Creating layer inception_3b/5x5
I0403 16:38:11.269783 21290 net.cpp:91] Creating Layer inception_3b/5x5
I0403 16:38:11.269800 21290 net.cpp:425] inception_3b/5x5 <- inception_3b/5x5_reduce
I0403 16:38:11.269822 21290 net.cpp:399] inception_3b/5x5 -> inception_3b/5x5
I0403 16:38:11.271839 21290 net.cpp:141] Setting up inception_3b/5x5
I0403 16:38:11.271868 21290 net.cpp:148] Top shape: 24 96 28 28 (1806336)
I0403 16:38:11.271883 21290 net.cpp:156] Memory required for data: 736986144
I0403 16:38:11.271900 21290 layer_factory.hpp:77] Creating layer inception_3b/relu_5x5
I0403 16:38:11.271919 21290 net.cpp:91] Creating Layer inception_3b/relu_5x5
I0403 16:38:11.271935 21290 net.cpp:425] inception_3b/relu_5x5 <- inception_3b/5x5
I0403 16:38:11.271951 21290 net.cpp:386] inception_3b/relu_5x5 -> inception_3b/5x5 (in-place)
I0403 16:38:11.272148 21290 net.cpp:141] Setting up inception_3b/relu_5x5
I0403 16:38:11.272173 21290 net.cpp:148] Top shape: 24 96 28 28 (1806336)
I0403 16:38:11.272187 21290 net.cpp:156] Memory required for data: 744211488
I0403 16:38:11.272202 21290 layer_factory.hpp:77] Creating layer inception_3b/pool
I0403 16:38:11.272220 21290 net.cpp:91] Creating Layer inception_3b/pool
I0403 16:38:11.272235 21290 net.cpp:425] inception_3b/pool <- inception_3a/output_inception_3a/output_0_split_3
I0403 16:38:11.272253 21290 net.cpp:399] inception_3b/pool -> inception_3b/pool
I0403 16:38:11.272308 21290 net.cpp:141] Setting up inception_3b/pool
I0403 16:38:11.272331 21290 net.cpp:148] Top shape: 24 256 28 28 (4816896)
I0403 16:38:11.272346 21290 net.cpp:156] Memory required for data: 763479072
I0403 16:38:11.272359 21290 layer_factory.hpp:77] Creating layer inception_3b/pool_proj
I0403 16:38:11.272382 21290 net.cpp:91] Creating Layer inception_3b/pool_proj
I0403 16:38:11.272398 21290 net.cpp:425] inception_3b/pool_proj <- inception_3b/pool
I0403 16:38:11.272419 21290 net.cpp:399] inception_3b/pool_proj -> inception_3b/pool_proj
I0403 16:38:11.273478 21290 net.cpp:141] Setting up inception_3b/pool_proj
I0403 16:38:11.273505 21290 net.cpp:148] Top shape: 24 64 28 28 (1204224)
I0403 16:38:11.273520 21290 net.cpp:156] Memory required for data: 768295968
I0403 16:38:11.273537 21290 layer_factory.hpp:77] Creating layer inception_3b/relu_pool_proj
I0403 16:38:11.273555 21290 net.cpp:91] Creating Layer inception_3b/relu_pool_proj
I0403 16:38:11.273569 21290 net.cpp:425] inception_3b/relu_pool_proj <- inception_3b/pool_proj
I0403 16:38:11.273589 21290 net.cpp:386] inception_3b/relu_pool_proj -> inception_3b/pool_proj (in-place)
I0403 16:38:11.273991 21290 net.cpp:141] Setting up inception_3b/relu_pool_proj
I0403 16:38:11.274019 21290 net.cpp:148] Top shape: 24 64 28 28 (1204224)
I0403 16:38:11.274034 21290 net.cpp:156] Memory required for data: 773112864
I0403 16:38:11.274052 21290 layer_factory.hpp:77] Creating layer inception_3b/output
I0403 16:38:11.274070 21290 net.cpp:91] Creating Layer inception_3b/output
I0403 16:38:11.274086 21290 net.cpp:425] inception_3b/output <- inception_3b/1x1
I0403 16:38:11.274102 21290 net.cpp:425] inception_3b/output <- inception_3b/3x3
I0403 16:38:11.274118 21290 net.cpp:425] inception_3b/output <- inception_3b/5x5
I0403 16:38:11.274134 21290 net.cpp:425] inception_3b/output <- inception_3b/pool_proj
I0403 16:38:11.274154 21290 net.cpp:399] inception_3b/output -> inception_3b/output
I0403 16:38:11.274197 21290 net.cpp:141] Setting up inception_3b/output
I0403 16:38:11.274221 21290 net.cpp:148] Top shape: 24 480 28 28 (9031680)
I0403 16:38:11.274235 21290 net.cpp:156] Memory required for data: 809239584
I0403 16:38:11.274250 21290 layer_factory.hpp:77] Creating layer pool3/3x3_s2
I0403 16:38:11.274269 21290 net.cpp:91] Creating Layer pool3/3x3_s2
I0403 16:38:11.274284 21290 net.cpp:425] pool3/3x3_s2 <- inception_3b/output
I0403 16:38:11.274317 21290 net.cpp:399] pool3/3x3_s2 -> pool3/3x3_s2
I0403 16:38:11.274375 21290 net.cpp:141] Setting up pool3/3x3_s2
I0403 16:38:11.274399 21290 net.cpp:148] Top shape: 24 480 14 14 (2257920)
I0403 16:38:11.274412 21290 net.cpp:156] Memory required for data: 818271264
I0403 16:38:11.274426 21290 layer_factory.hpp:77] Creating layer pool3/3x3_s2_pool3/3x3_s2_0_split
I0403 16:38:11.274446 21290 net.cpp:91] Creating Layer pool3/3x3_s2_pool3/3x3_s2_0_split
I0403 16:38:11.274461 21290 net.cpp:425] pool3/3x3_s2_pool3/3x3_s2_0_split <- pool3/3x3_s2
I0403 16:38:11.274478 21290 net.cpp:399] pool3/3x3_s2_pool3/3x3_s2_0_split -> pool3/3x3_s2_pool3/3x3_s2_0_split_0
I0403 16:38:11.274497 21290 net.cpp:399] pool3/3x3_s2_pool3/3x3_s2_0_split -> pool3/3x3_s2_pool3/3x3_s2_0_split_1
I0403 16:38:11.274516 21290 net.cpp:399] pool3/3x3_s2_pool3/3x3_s2_0_split -> pool3/3x3_s2_pool3/3x3_s2_0_split_2
I0403 16:38:11.274535 21290 net.cpp:399] pool3/3x3_s2_pool3/3x3_s2_0_split -> pool3/3x3_s2_pool3/3x3_s2_0_split_3
I0403 16:38:11.274610 21290 net.cpp:141] Setting up pool3/3x3_s2_pool3/3x3_s2_0_split
I0403 16:38:11.274631 21290 net.cpp:148] Top shape: 24 480 14 14 (2257920)
I0403 16:38:11.274647 21290 net.cpp:148] Top shape: 24 480 14 14 (2257920)
I0403 16:38:11.274662 21290 net.cpp:148] Top shape: 24 480 14 14 (2257920)
I0403 16:38:11.274677 21290 net.cpp:148] Top shape: 24 480 14 14 (2257920)
I0403 16:38:11.274689 21290 net.cpp:156] Memory required for data: 854397984
I0403 16:38:11.274703 21290 layer_factory.hpp:77] Creating layer inception_4a/1x1
I0403 16:38:11.274724 21290 net.cpp:91] Creating Layer inception_4a/1x1
I0403 16:38:11.274741 21290 net.cpp:425] inception_4a/1x1 <- pool3/3x3_s2_pool3/3x3_s2_0_split_0
I0403 16:38:11.274761 21290 net.cpp:399] inception_4a/1x1 -> inception_4a/1x1
I0403 16:38:11.276324 21290 net.cpp:141] Setting up inception_4a/1x1
I0403 16:38:11.276351 21290 net.cpp:148] Top shape: 24 192 14 14 (903168)
I0403 16:38:11.276365 21290 net.cpp:156] Memory required for data: 858010656
I0403 16:38:11.276383 21290 layer_factory.hpp:77] Creating layer inception_4a/relu_1x1
I0403 16:38:11.276403 21290 net.cpp:91] Creating Layer inception_4a/relu_1x1
I0403 16:38:11.276419 21290 net.cpp:425] inception_4a/relu_1x1 <- inception_4a/1x1
I0403 16:38:11.276437 21290 net.cpp:386] inception_4a/relu_1x1 -> inception_4a/1x1 (in-place)
I0403 16:38:11.276623 21290 net.cpp:141] Setting up inception_4a/relu_1x1
I0403 16:38:11.276646 21290 net.cpp:148] Top shape: 24 192 14 14 (903168)
I0403 16:38:11.276664 21290 net.cpp:156] Memory required for data: 861623328
I0403 16:38:11.276677 21290 layer_factory.hpp:77] Creating layer inception_4a/3x3_reduce
I0403 16:38:11.276696 21290 net.cpp:91] Creating Layer inception_4a/3x3_reduce
I0403 16:38:11.276711 21290 net.cpp:425] inception_4a/3x3_reduce <- pool3/3x3_s2_pool3/3x3_s2_0_split_1
I0403 16:38:11.276731 21290 net.cpp:399] inception_4a/3x3_reduce -> inception_4a/3x3_reduce
I0403 16:38:11.277966 21290 net.cpp:141] Setting up inception_4a/3x3_reduce
I0403 16:38:11.277992 21290 net.cpp:148] Top shape: 24 96 14 14 (451584)
I0403 16:38:11.278007 21290 net.cpp:156] Memory required for data: 863429664
I0403 16:38:11.278030 21290 layer_factory.hpp:77] Creating layer inception_4a/relu_3x3_reduce
I0403 16:38:11.278053 21290 net.cpp:91] Creating Layer inception_4a/relu_3x3_reduce
I0403 16:38:11.278069 21290 net.cpp:425] inception_4a/relu_3x3_reduce <- inception_4a/3x3_reduce
I0403 16:38:11.278087 21290 net.cpp:386] inception_4a/relu_3x3_reduce -> inception_4a/3x3_reduce (in-place)
I0403 16:38:11.278259 21290 net.cpp:141] Setting up inception_4a/relu_3x3_reduce
I0403 16:38:11.278281 21290 net.cpp:148] Top shape: 24 96 14 14 (451584)
I0403 16:38:11.278295 21290 net.cpp:156] Memory required for data: 865236000
I0403 16:38:11.278308 21290 layer_factory.hpp:77] Creating layer inception_4a/3x3
I0403 16:38:11.278331 21290 net.cpp:91] Creating Layer inception_4a/3x3
I0403 16:38:11.278347 21290 net.cpp:425] inception_4a/3x3 <- inception_4a/3x3_reduce
I0403 16:38:11.278367 21290 net.cpp:399] inception_4a/3x3 -> inception_4a/3x3
I0403 16:38:11.280941 21290 net.cpp:141] Setting up inception_4a/3x3
I0403 16:38:11.280968 21290 net.cpp:148] Top shape: 24 208 14 14 (978432)
I0403 16:38:11.280982 21290 net.cpp:156] Memory required for data: 869149728
I0403 16:38:11.280998 21290 layer_factory.hpp:77] Creating layer inception_4a/relu_3x3
I0403 16:38:11.281018 21290 net.cpp:91] Creating Layer inception_4a/relu_3x3
I0403 16:38:11.281033 21290 net.cpp:425] inception_4a/relu_3x3 <- inception_4a/3x3
I0403 16:38:11.281052 21290 net.cpp:386] inception_4a/relu_3x3 -> inception_4a/3x3 (in-place)
I0403 16:38:11.281322 21290 net.cpp:141] Setting up inception_4a/relu_3x3
I0403 16:38:11.281347 21290 net.cpp:148] Top shape: 24 208 14 14 (978432)
I0403 16:38:11.281363 21290 net.cpp:156] Memory required for data: 873063456
I0403 16:38:11.281376 21290 layer_factory.hpp:77] Creating layer inception_4a/5x5_reduce
I0403 16:38:11.281397 21290 net.cpp:91] Creating Layer inception_4a/5x5_reduce
I0403 16:38:11.281415 21290 net.cpp:425] inception_4a/5x5_reduce <- pool3/3x3_s2_pool3/3x3_s2_0_split_2
I0403 16:38:11.281435 21290 net.cpp:399] inception_4a/5x5_reduce -> inception_4a/5x5_reduce
I0403 16:38:11.282428 21290 net.cpp:141] Setting up inception_4a/5x5_reduce
I0403 16:38:11.282454 21290 net.cpp:148] Top shape: 24 16 14 14 (75264)
I0403 16:38:11.282481 21290 net.cpp:156] Memory required for data: 873364512
I0403 16:38:11.282500 21290 layer_factory.hpp:77] Creating layer inception_4a/relu_5x5_reduce
I0403 16:38:11.282519 21290 net.cpp:91] Creating Layer inception_4a/relu_5x5_reduce
I0403 16:38:11.282536 21290 net.cpp:425] inception_4a/relu_5x5_reduce <- inception_4a/5x5_reduce
I0403 16:38:11.282552 21290 net.cpp:386] inception_4a/relu_5x5_reduce -> inception_4a/5x5_reduce (in-place)
I0403 16:38:11.282733 21290 net.cpp:141] Setting up inception_4a/relu_5x5_reduce
I0403 16:38:11.282757 21290 net.cpp:148] Top shape: 24 16 14 14 (75264)
I0403 16:38:11.282773 21290 net.cpp:156] Memory required for data: 873665568
I0403 16:38:11.282786 21290 layer_factory.hpp:77] Creating layer inception_4a/5x5
I0403 16:38:11.282809 21290 net.cpp:91] Creating Layer inception_4a/5x5
I0403 16:38:11.282824 21290 net.cpp:425] inception_4a/5x5 <- inception_4a/5x5_reduce
I0403 16:38:11.282845 21290 net.cpp:399] inception_4a/5x5 -> inception_4a/5x5
I0403 16:38:11.283931 21290 net.cpp:141] Setting up inception_4a/5x5
I0403 16:38:11.283957 21290 net.cpp:148] Top shape: 24 48 14 14 (225792)
I0403 16:38:11.283972 21290 net.cpp:156] Memory required for data: 874568736
I0403 16:38:11.283989 21290 layer_factory.hpp:77] Creating layer inception_4a/relu_5x5
I0403 16:38:11.284006 21290 net.cpp:91] Creating Layer inception_4a/relu_5x5
I0403 16:38:11.284023 21290 net.cpp:425] inception_4a/relu_5x5 <- inception_4a/5x5
I0403 16:38:11.284041 21290 net.cpp:386] inception_4a/relu_5x5 -> inception_4a/5x5 (in-place)
I0403 16:38:11.284248 21290 net.cpp:141] Setting up inception_4a/relu_5x5
I0403 16:38:11.284273 21290 net.cpp:148] Top shape: 24 48 14 14 (225792)
I0403 16:38:11.284288 21290 net.cpp:156] Memory required for data: 875471904
I0403 16:38:11.284302 21290 layer_factory.hpp:77] Creating layer inception_4a/pool
I0403 16:38:11.284322 21290 net.cpp:91] Creating Layer inception_4a/pool
I0403 16:38:11.284339 21290 net.cpp:425] inception_4a/pool <- pool3/3x3_s2_pool3/3x3_s2_0_split_3
I0403 16:38:11.284358 21290 net.cpp:399] inception_4a/pool -> inception_4a/pool
I0403 16:38:11.284420 21290 net.cpp:141] Setting up inception_4a/pool
I0403 16:38:11.284445 21290 net.cpp:148] Top shape: 24 480 14 14 (2257920)
I0403 16:38:11.284458 21290 net.cpp:156] Memory required for data: 884503584
I0403 16:38:11.284473 21290 layer_factory.hpp:77] Creating layer inception_4a/pool_proj
I0403 16:38:11.284495 21290 net.cpp:91] Creating Layer inception_4a/pool_proj
I0403 16:38:11.284512 21290 net.cpp:425] inception_4a/pool_proj <- inception_4a/pool
I0403 16:38:11.284533 21290 net.cpp:399] inception_4a/pool_proj -> inception_4a/pool_proj
I0403 16:38:11.285725 21290 net.cpp:141] Setting up inception_4a/pool_proj
I0403 16:38:11.285753 21290 net.cpp:148] Top shape: 24 64 14 14 (301056)
I0403 16:38:11.285781 21290 net.cpp:156] Memory required for data: 885707808
I0403 16:38:11.285800 21290 layer_factory.hpp:77] Creating layer inception_4a/relu_pool_proj
I0403 16:38:11.285820 21290 net.cpp:91] Creating Layer inception_4a/relu_pool_proj
I0403 16:38:11.285837 21290 net.cpp:425] inception_4a/relu_pool_proj <- inception_4a/pool_proj
I0403 16:38:11.285853 21290 net.cpp:386] inception_4a/relu_pool_proj -> inception_4a/pool_proj (in-place)
I0403 16:38:11.286139 21290 net.cpp:141] Setting up inception_4a/relu_pool_proj
I0403 16:38:11.286164 21290 net.cpp:148] Top shape: 24 64 14 14 (301056)
I0403 16:38:11.286178 21290 net.cpp:156] Memory required for data: 886912032
I0403 16:38:11.286192 21290 layer_factory.hpp:77] Creating layer inception_4a/output
I0403 16:38:11.286209 21290 net.cpp:91] Creating Layer inception_4a/output
I0403 16:38:11.286224 21290 net.cpp:425] inception_4a/output <- inception_4a/1x1
I0403 16:38:11.286240 21290 net.cpp:425] inception_4a/output <- inception_4a/3x3
I0403 16:38:11.286257 21290 net.cpp:425] inception_4a/output <- inception_4a/5x5
I0403 16:38:11.286272 21290 net.cpp:425] inception_4a/output <- inception_4a/pool_proj
I0403 16:38:11.286290 21290 net.cpp:399] inception_4a/output -> inception_4a/output
I0403 16:38:11.286334 21290 net.cpp:141] Setting up inception_4a/output
I0403 16:38:11.286360 21290 net.cpp:148] Top shape: 24 512 14 14 (2408448)
I0403 16:38:11.286375 21290 net.cpp:156] Memory required for data: 896545824
I0403 16:38:11.286388 21290 layer_factory.hpp:77] Creating layer inception_4a/output_inception_4a/output_0_split
I0403 16:38:11.286406 21290 net.cpp:91] Creating Layer inception_4a/output_inception_4a/output_0_split
I0403 16:38:11.286420 21290 net.cpp:425] inception_4a/output_inception_4a/output_0_split <- inception_4a/output
I0403 16:38:11.286439 21290 net.cpp:399] inception_4a/output_inception_4a/output_0_split -> inception_4a/output_inception_4a/output_0_split_0
I0403 16:38:11.286460 21290 net.cpp:399] inception_4a/output_inception_4a/output_0_split -> inception_4a/output_inception_4a/output_0_split_1
I0403 16:38:11.286481 21290 net.cpp:399] inception_4a/output_inception_4a/output_0_split -> inception_4a/output_inception_4a/output_0_split_2
I0403 16:38:11.286500 21290 net.cpp:399] inception_4a/output_inception_4a/output_0_split -> inception_4a/output_inception_4a/output_0_split_3
I0403 16:38:11.286520 21290 net.cpp:399] inception_4a/output_inception_4a/output_0_split -> inception_4a/output_inception_4a/output_0_split_4
I0403 16:38:11.286612 21290 net.cpp:141] Setting up inception_4a/output_inception_4a/output_0_split
I0403 16:38:11.286634 21290 net.cpp:148] Top shape: 24 512 14 14 (2408448)
I0403 16:38:11.286653 21290 net.cpp:148] Top shape: 24 512 14 14 (2408448)
I0403 16:38:11.286669 21290 net.cpp:148] Top shape: 24 512 14 14 (2408448)
I0403 16:38:11.286684 21290 net.cpp:148] Top shape: 24 512 14 14 (2408448)
I0403 16:38:11.286697 21290 net.cpp:148] Top shape: 24 512 14 14 (2408448)
I0403 16:38:11.286710 21290 net.cpp:156] Memory required for data: 944714784
I0403 16:38:11.286725 21290 layer_factory.hpp:77] Creating layer loss1/ave_pool
I0403 16:38:11.286741 21290 net.cpp:91] Creating Layer loss1/ave_pool
I0403 16:38:11.286756 21290 net.cpp:425] loss1/ave_pool <- inception_4a/output_inception_4a/output_0_split_0
I0403 16:38:11.286775 21290 net.cpp:399] loss1/ave_pool -> loss1/ave_pool
I0403 16:38:11.286984 21290 net.cpp:141] Setting up loss1/ave_pool
I0403 16:38:11.287009 21290 net.cpp:148] Top shape: 24 512 4 4 (196608)
I0403 16:38:11.287024 21290 net.cpp:156] Memory required for data: 945501216
I0403 16:38:11.287039 21290 layer_factory.hpp:77] Creating layer loss1/conv
I0403 16:38:11.287065 21290 net.cpp:91] Creating Layer loss1/conv
I0403 16:38:11.287083 21290 net.cpp:425] loss1/conv <- loss1/ave_pool
I0403 16:38:11.287103 21290 net.cpp:399] loss1/conv -> loss1/conv
I0403 16:38:11.288521 21290 net.cpp:141] Setting up loss1/conv
I0403 16:38:11.288547 21290 net.cpp:148] Top shape: 24 128 4 4 (49152)
I0403 16:38:11.288575 21290 net.cpp:156] Memory required for data: 945697824
I0403 16:38:11.288594 21290 layer_factory.hpp:77] Creating layer loss1/relu_conv
I0403 16:38:11.288614 21290 net.cpp:91] Creating Layer loss1/relu_conv
I0403 16:38:11.288630 21290 net.cpp:425] loss1/relu_conv <- loss1/conv
I0403 16:38:11.288646 21290 net.cpp:386] loss1/relu_conv -> loss1/conv (in-place)
I0403 16:38:11.288928 21290 net.cpp:141] Setting up loss1/relu_conv
I0403 16:38:11.288954 21290 net.cpp:148] Top shape: 24 128 4 4 (49152)
I0403 16:38:11.288969 21290 net.cpp:156] Memory required for data: 945894432
I0403 16:38:11.288982 21290 layer_factory.hpp:77] Creating layer loss1/fc
I0403 16:38:11.289007 21290 net.cpp:91] Creating Layer loss1/fc
I0403 16:38:11.289026 21290 net.cpp:425] loss1/fc <- loss1/conv
I0403 16:38:11.289046 21290 net.cpp:399] loss1/fc -> loss1/fc
I0403 16:38:11.306589 21290 net.cpp:141] Setting up loss1/fc
I0403 16:38:11.306623 21290 net.cpp:148] Top shape: 24 1024 (24576)
I0403 16:38:11.306638 21290 net.cpp:156] Memory required for data: 945992736
I0403 16:38:11.306655 21290 layer_factory.hpp:77] Creating layer loss1/relu_fc
I0403 16:38:11.306673 21290 net.cpp:91] Creating Layer loss1/relu_fc
I0403 16:38:11.306687 21290 net.cpp:425] loss1/relu_fc <- loss1/fc
I0403 16:38:11.306707 21290 net.cpp:386] loss1/relu_fc -> loss1/fc (in-place)
I0403 16:38:11.306888 21290 net.cpp:141] Setting up loss1/relu_fc
I0403 16:38:11.306913 21290 net.cpp:148] Top shape: 24 1024 (24576)
I0403 16:38:11.306928 21290 net.cpp:156] Memory required for data: 946091040
I0403 16:38:11.306941 21290 layer_factory.hpp:77] Creating layer loss1/drop_fc
I0403 16:38:11.306968 21290 net.cpp:91] Creating Layer loss1/drop_fc
I0403 16:38:11.306984 21290 net.cpp:425] loss1/drop_fc <- loss1/fc
I0403 16:38:11.307001 21290 net.cpp:386] loss1/drop_fc -> loss1/fc (in-place)
I0403 16:38:11.307055 21290 net.cpp:141] Setting up loss1/drop_fc
I0403 16:38:11.307078 21290 net.cpp:148] Top shape: 24 1024 (24576)
I0403 16:38:11.307091 21290 net.cpp:156] Memory required for data: 946189344
I0403 16:38:11.307106 21290 layer_factory.hpp:77] Creating layer loss1/classifier_plantvillage
I0403 16:38:11.307121 21290 net.cpp:91] Creating Layer loss1/classifier_plantvillage
I0403 16:38:11.307137 21290 net.cpp:425] loss1/classifier_plantvillage <- loss1/fc
I0403 16:38:11.307157 21290 net.cpp:399] loss1/classifier_plantvillage -> loss1/classifier_plantvillage
I0403 16:38:11.308059 21290 net.cpp:141] Setting up loss1/classifier_plantvillage
I0403 16:38:11.308086 21290 net.cpp:148] Top shape: 24 38 (912)
I0403 16:38:11.308100 21290 net.cpp:156] Memory required for data: 946192992
I0403 16:38:11.308117 21290 layer_factory.hpp:77] Creating layer loss1/classifier_plantvillage_loss1/classifier_plantvillage_0_split
I0403 16:38:11.308136 21290 net.cpp:91] Creating Layer loss1/classifier_plantvillage_loss1/classifier_plantvillage_0_split
I0403 16:38:11.308151 21290 net.cpp:425] loss1/classifier_plantvillage_loss1/classifier_plantvillage_0_split <- loss1/classifier_plantvillage
I0403 16:38:11.308168 21290 net.cpp:399] loss1/classifier_plantvillage_loss1/classifier_plantvillage_0_split -> loss1/classifier_plantvillage_loss1/classifier_plantvillage_0_split_0
I0403 16:38:11.308187 21290 net.cpp:399] loss1/classifier_plantvillage_loss1/classifier_plantvillage_0_split -> loss1/classifier_plantvillage_loss1/classifier_plantvillage_0_split_1
I0403 16:38:11.308207 21290 net.cpp:399] loss1/classifier_plantvillage_loss1/classifier_plantvillage_0_split -> loss1/classifier_plantvillage_loss1/classifier_plantvillage_0_split_2
I0403 16:38:11.308274 21290 net.cpp:141] Setting up loss1/classifier_plantvillage_loss1/classifier_plantvillage_0_split
I0403 16:38:11.308295 21290 net.cpp:148] Top shape: 24 38 (912)
I0403 16:38:11.308310 21290 net.cpp:148] Top shape: 24 38 (912)
I0403 16:38:11.308325 21290 net.cpp:148] Top shape: 24 38 (912)
I0403 16:38:11.308336 21290 net.cpp:156] Memory required for data: 946203936
I0403 16:38:11.308351 21290 layer_factory.hpp:77] Creating layer inception_4b/1x1
I0403 16:38:11.308370 21290 net.cpp:91] Creating Layer inception_4b/1x1
I0403 16:38:11.308401 21290 net.cpp:425] inception_4b/1x1 <- inception_4a/output_inception_4a/output_0_split_1
I0403 16:38:11.308421 21290 net.cpp:399] inception_4b/1x1 -> inception_4b/1x1
I0403 16:38:11.310014 21290 net.cpp:141] Setting up inception_4b/1x1
I0403 16:38:11.310042 21290 net.cpp:148] Top shape: 24 160 14 14 (752640)
I0403 16:38:11.310062 21290 net.cpp:156] Memory required for data: 949214496
I0403 16:38:11.310080 21290 layer_factory.hpp:77] Creating layer inception_4b/relu_1x1
I0403 16:38:11.310098 21290 net.cpp:91] Creating Layer inception_4b/relu_1x1
I0403 16:38:11.310114 21290 net.cpp:425] inception_4b/relu_1x1 <- inception_4b/1x1
I0403 16:38:11.310132 21290 net.cpp:386] inception_4b/relu_1x1 -> inception_4b/1x1 (in-place)
I0403 16:38:11.310308 21290 net.cpp:141] Setting up inception_4b/relu_1x1
I0403 16:38:11.310331 21290 net.cpp:148] Top shape: 24 160 14 14 (752640)
I0403 16:38:11.310345 21290 net.cpp:156] Memory required for data: 952225056
I0403 16:38:11.310359 21290 layer_factory.hpp:77] Creating layer inception_4b/3x3_reduce
I0403 16:38:11.310381 21290 net.cpp:91] Creating Layer inception_4b/3x3_reduce
I0403 16:38:11.310398 21290 net.cpp:425] inception_4b/3x3_reduce <- inception_4a/output_inception_4a/output_0_split_2
I0403 16:38:11.310420 21290 net.cpp:399] inception_4b/3x3_reduce -> inception_4b/3x3_reduce
I0403 16:38:11.311725 21290 net.cpp:141] Setting up inception_4b/3x3_reduce
I0403 16:38:11.311753 21290 net.cpp:148] Top shape: 24 112 14 14 (526848)
I0403 16:38:11.311766 21290 net.cpp:156] Memory required for data: 954332448
I0403 16:38:11.311784 21290 layer_factory.hpp:77] Creating layer inception_4b/relu_3x3_reduce
I0403 16:38:11.311800 21290 net.cpp:91] Creating Layer inception_4b/relu_3x3_reduce
I0403 16:38:11.311815 21290 net.cpp:425] inception_4b/relu_3x3_reduce <- inception_4b/3x3_reduce
I0403 16:38:11.311833 21290 net.cpp:386] inception_4b/relu_3x3_reduce -> inception_4b/3x3_reduce (in-place)
I0403 16:38:11.312111 21290 net.cpp:141] Setting up inception_4b/relu_3x3_reduce
I0403 16:38:11.312136 21290 net.cpp:148] Top shape: 24 112 14 14 (526848)
I0403 16:38:11.312150 21290 net.cpp:156] Memory required for data: 956439840
I0403 16:38:11.312165 21290 layer_factory.hpp:77] Creating layer inception_4b/3x3
I0403 16:38:11.312186 21290 net.cpp:91] Creating Layer inception_4b/3x3
I0403 16:38:11.312201 21290 net.cpp:425] inception_4b/3x3 <- inception_4b/3x3_reduce
I0403 16:38:11.312222 21290 net.cpp:399] inception_4b/3x3 -> inception_4b/3x3
I0403 16:38:11.315094 21290 net.cpp:141] Setting up inception_4b/3x3
I0403 16:38:11.315121 21290 net.cpp:148] Top shape: 24 224 14 14 (1053696)
I0403 16:38:11.315136 21290 net.cpp:156] Memory required for data: 960654624
I0403 16:38:11.315155 21290 layer_factory.hpp:77] Creating layer inception_4b/relu_3x3
I0403 16:38:11.315176 21290 net.cpp:91] Creating Layer inception_4b/relu_3x3
I0403 16:38:11.315192 21290 net.cpp:425] inception_4b/relu_3x3 <- inception_4b/3x3
I0403 16:38:11.315208 21290 net.cpp:386] inception_4b/relu_3x3 -> inception_4b/3x3 (in-place)
I0403 16:38:11.315383 21290 net.cpp:141] Setting up inception_4b/relu_3x3
I0403 16:38:11.315409 21290 net.cpp:148] Top shape: 24 224 14 14 (1053696)
I0403 16:38:11.315424 21290 net.cpp:156] Memory required for data: 964869408
I0403 16:38:11.315438 21290 layer_factory.hpp:77] Creating layer inception_4b/5x5_reduce
I0403 16:38:11.315456 21290 net.cpp:91] Creating Layer inception_4b/5x5_reduce
I0403 16:38:11.315472 21290 net.cpp:425] inception_4b/5x5_reduce <- inception_4a/output_inception_4a/output_0_split_3
I0403 16:38:11.315493 21290 net.cpp:399] inception_4b/5x5_reduce -> inception_4b/5x5_reduce
I0403 16:38:11.316545 21290 net.cpp:141] Setting up inception_4b/5x5_reduce
I0403 16:38:11.316575 21290 net.cpp:148] Top shape: 24 24 14 14 (112896)
I0403 16:38:11.316589 21290 net.cpp:156] Memory required for data: 965320992
I0403 16:38:11.316606 21290 layer_factory.hpp:77] Creating layer inception_4b/relu_5x5_reduce
I0403 16:38:11.316623 21290 net.cpp:91] Creating Layer inception_4b/relu_5x5_reduce
I0403 16:38:11.316653 21290 net.cpp:425] inception_4b/relu_5x5_reduce <- inception_4b/5x5_reduce
I0403 16:38:11.316669 21290 net.cpp:386] inception_4b/relu_5x5_reduce -> inception_4b/5x5_reduce (in-place)
I0403 16:38:11.316853 21290 net.cpp:141] Setting up inception_4b/relu_5x5_reduce
I0403 16:38:11.316876 21290 net.cpp:148] Top shape: 24 24 14 14 (112896)
I0403 16:38:11.316890 21290 net.cpp:156] Memory required for data: 965772576
I0403 16:38:11.316905 21290 layer_factory.hpp:77] Creating layer inception_4b/5x5
I0403 16:38:11.316925 21290 net.cpp:91] Creating Layer inception_4b/5x5
I0403 16:38:11.316941 21290 net.cpp:425] inception_4b/5x5 <- inception_4b/5x5_reduce
I0403 16:38:11.316962 21290 net.cpp:399] inception_4b/5x5 -> inception_4b/5x5
I0403 16:38:11.318153 21290 net.cpp:141] Setting up inception_4b/5x5
I0403 16:38:11.318179 21290 net.cpp:148] Top shape: 24 64 14 14 (301056)
I0403 16:38:11.318193 21290 net.cpp:156] Memory required for data: 966976800
I0403 16:38:11.318210 21290 layer_factory.hpp:77] Creating layer inception_4b/relu_5x5
I0403 16:38:11.318230 21290 net.cpp:91] Creating Layer inception_4b/relu_5x5
I0403 16:38:11.318246 21290 net.cpp:425] inception_4b/relu_5x5 <- inception_4b/5x5
I0403 16:38:11.318262 21290 net.cpp:386] inception_4b/relu_5x5 -> inception_4b/5x5 (in-place)
I0403 16:38:11.318541 21290 net.cpp:141] Setting up inception_4b/relu_5x5
I0403 16:38:11.318567 21290 net.cpp:148] Top shape: 24 64 14 14 (301056)
I0403 16:38:11.318580 21290 net.cpp:156] Memory required for data: 968181024
I0403 16:38:11.318593 21290 layer_factory.hpp:77] Creating layer inception_4b/pool
I0403 16:38:11.318613 21290 net.cpp:91] Creating Layer inception_4b/pool
I0403 16:38:11.318629 21290 net.cpp:425] inception_4b/pool <- inception_4a/output_inception_4a/output_0_split_4
I0403 16:38:11.318646 21290 net.cpp:399] inception_4b/pool -> inception_4b/pool
I0403 16:38:11.318708 21290 net.cpp:141] Setting up inception_4b/pool
I0403 16:38:11.318730 21290 net.cpp:148] Top shape: 24 512 14 14 (2408448)
I0403 16:38:11.318744 21290 net.cpp:156] Memory required for data: 977814816
I0403 16:38:11.318758 21290 layer_factory.hpp:77] Creating layer inception_4b/pool_proj
I0403 16:38:11.318778 21290 net.cpp:91] Creating Layer inception_4b/pool_proj
I0403 16:38:11.318794 21290 net.cpp:425] inception_4b/pool_proj <- inception_4b/pool
I0403 16:38:11.318814 21290 net.cpp:399] inception_4b/pool_proj -> inception_4b/pool_proj
I0403 16:38:11.320010 21290 net.cpp:141] Setting up inception_4b/pool_proj
I0403 16:38:11.320039 21290 net.cpp:148] Top shape: 24 64 14 14 (301056)
I0403 16:38:11.320060 21290 net.cpp:156] Memory required for data: 979019040
I0403 16:38:11.320080 21290 layer_factory.hpp:77] Creating layer inception_4b/relu_pool_proj
I0403 16:38:11.320098 21290 net.cpp:91] Creating Layer inception_4b/relu_pool_proj
I0403 16:38:11.320114 21290 net.cpp:425] inception_4b/relu_pool_proj <- inception_4b/pool_proj
I0403 16:38:11.320133 21290 net.cpp:386] inception_4b/relu_pool_proj -> inception_4b/pool_proj (in-place)
I0403 16:38:11.320313 21290 net.cpp:141] Setting up inception_4b/relu_pool_proj
I0403 16:38:11.320338 21290 net.cpp:148] Top shape: 24 64 14 14 (301056)
I0403 16:38:11.320351 21290 net.cpp:156] Memory required for data: 980223264
I0403 16:38:11.320366 21290 layer_factory.hpp:77] Creating layer inception_4b/output
I0403 16:38:11.320384 21290 net.cpp:91] Creating Layer inception_4b/output
I0403 16:38:11.320397 21290 net.cpp:425] inception_4b/output <- inception_4b/1x1
I0403 16:38:11.320412 21290 net.cpp:425] inception_4b/output <- inception_4b/3x3
I0403 16:38:11.320428 21290 net.cpp:425] inception_4b/output <- inception_4b/5x5
I0403 16:38:11.320443 21290 net.cpp:425] inception_4b/output <- inception_4b/pool_proj
I0403 16:38:11.320463 21290 net.cpp:399] inception_4b/output -> inception_4b/output
I0403 16:38:11.320508 21290 net.cpp:141] Setting up inception_4b/output
I0403 16:38:11.320534 21290 net.cpp:148] Top shape: 24 512 14 14 (2408448)
I0403 16:38:11.320549 21290 net.cpp:156] Memory required for data: 989857056
I0403 16:38:11.320577 21290 layer_factory.hpp:77] Creating layer inception_4b/output_inception_4b/output_0_split
I0403 16:38:11.320595 21290 net.cpp:91] Creating Layer inception_4b/output_inception_4b/output_0_split
I0403 16:38:11.320611 21290 net.cpp:425] inception_4b/output_inception_4b/output_0_split <- inception_4b/output
I0403 16:38:11.320627 21290 net.cpp:399] inception_4b/output_inception_4b/output_0_split -> inception_4b/output_inception_4b/output_0_split_0
I0403 16:38:11.320648 21290 net.cpp:399] inception_4b/output_inception_4b/output_0_split -> inception_4b/output_inception_4b/output_0_split_1
I0403 16:38:11.320669 21290 net.cpp:399] inception_4b/output_inception_4b/output_0_split -> inception_4b/output_inception_4b/output_0_split_2
I0403 16:38:11.320689 21290 net.cpp:399] inception_4b/output_inception_4b/output_0_split -> inception_4b/output_inception_4b/output_0_split_3
I0403 16:38:11.320775 21290 net.cpp:141] Setting up inception_4b/output_inception_4b/output_0_split
I0403 16:38:11.320797 21290 net.cpp:148] Top shape: 24 512 14 14 (2408448)
I0403 16:38:11.320813 21290 net.cpp:148] Top shape: 24 512 14 14 (2408448)
I0403 16:38:11.320828 21290 net.cpp:148] Top shape: 24 512 14 14 (2408448)
I0403 16:38:11.320842 21290 net.cpp:148] Top shape: 24 512 14 14 (2408448)
I0403 16:38:11.320855 21290 net.cpp:156] Memory required for data: 1028392224
I0403 16:38:11.320869 21290 layer_factory.hpp:77] Creating layer inception_4c/1x1
I0403 16:38:11.320893 21290 net.cpp:91] Creating Layer inception_4c/1x1
I0403 16:38:11.320909 21290 net.cpp:425] inception_4c/1x1 <- inception_4b/output_inception_4b/output_0_split_0
I0403 16:38:11.320930 21290 net.cpp:399] inception_4c/1x1 -> inception_4c/1x1
I0403 16:38:11.322361 21290 net.cpp:141] Setting up inception_4c/1x1
I0403 16:38:11.322389 21290 net.cpp:148] Top shape: 24 128 14 14 (602112)
I0403 16:38:11.322404 21290 net.cpp:156] Memory required for data: 1030800672
I0403 16:38:11.322422 21290 layer_factory.hpp:77] Creating layer inception_4c/relu_1x1
I0403 16:38:11.322438 21290 net.cpp:91] Creating Layer inception_4c/relu_1x1
I0403 16:38:11.322454 21290 net.cpp:425] inception_4c/relu_1x1 <- inception_4c/1x1
I0403 16:38:11.322473 21290 net.cpp:386] inception_4c/relu_1x1 -> inception_4c/1x1 (in-place)
I0403 16:38:11.322662 21290 net.cpp:141] Setting up inception_4c/relu_1x1
I0403 16:38:11.322686 21290 net.cpp:148] Top shape: 24 128 14 14 (602112)
I0403 16:38:11.322700 21290 net.cpp:156] Memory required for data: 1033209120
I0403 16:38:11.322715 21290 layer_factory.hpp:77] Creating layer inception_4c/3x3_reduce
I0403 16:38:11.322737 21290 net.cpp:91] Creating Layer inception_4c/3x3_reduce
I0403 16:38:11.322754 21290 net.cpp:425] inception_4c/3x3_reduce <- inception_4b/output_inception_4b/output_0_split_1
I0403 16:38:11.322774 21290 net.cpp:399] inception_4c/3x3_reduce -> inception_4c/3x3_reduce
I0403 16:38:11.324708 21290 net.cpp:141] Setting up inception_4c/3x3_reduce
I0403 16:38:11.324736 21290 net.cpp:148] Top shape: 24 128 14 14 (602112)
I0403 16:38:11.324755 21290 net.cpp:156] Memory required for data: 1035617568
I0403 16:38:11.324772 21290 layer_factory.hpp:77] Creating layer inception_4c/relu_3x3_reduce
I0403 16:38:11.324790 21290 net.cpp:91] Creating Layer inception_4c/relu_3x3_reduce
I0403 16:38:11.324805 21290 net.cpp:425] inception_4c/relu_3x3_reduce <- inception_4c/3x3_reduce
I0403 16:38:11.324822 21290 net.cpp:386] inception_4c/relu_3x3_reduce -> inception_4c/3x3_reduce (in-place)
I0403 16:38:11.325112 21290 net.cpp:141] Setting up inception_4c/relu_3x3_reduce
I0403 16:38:11.325137 21290 net.cpp:148] Top shape: 24 128 14 14 (602112)
I0403 16:38:11.325155 21290 net.cpp:156] Memory required for data: 1038026016
I0403 16:38:11.325170 21290 layer_factory.hpp:77] Creating layer inception_4c/3x3
I0403 16:38:11.325189 21290 net.cpp:91] Creating Layer inception_4c/3x3
I0403 16:38:11.325206 21290 net.cpp:425] inception_4c/3x3 <- inception_4c/3x3_reduce
I0403 16:38:11.325228 21290 net.cpp:399] inception_4c/3x3 -> inception_4c/3x3
I0403 16:38:11.328830 21290 net.cpp:141] Setting up inception_4c/3x3
I0403 16:38:11.328869 21290 net.cpp:148] Top shape: 24 256 14 14 (1204224)
I0403 16:38:11.328886 21290 net.cpp:156] Memory required for data: 1042842912
I0403 16:38:11.328919 21290 layer_factory.hpp:77] Creating layer inception_4c/relu_3x3
I0403 16:38:11.328939 21290 net.cpp:91] Creating Layer inception_4c/relu_3x3
I0403 16:38:11.328954 21290 net.cpp:425] inception_4c/relu_3x3 <- inception_4c/3x3
I0403 16:38:11.328971 21290 net.cpp:386] inception_4c/relu_3x3 -> inception_4c/3x3 (in-place)
I0403 16:38:11.329170 21290 net.cpp:141] Setting up inception_4c/relu_3x3
I0403 16:38:11.329197 21290 net.cpp:148] Top shape: 24 256 14 14 (1204224)
I0403 16:38:11.329215 21290 net.cpp:156] Memory required for data: 1047659808
I0403 16:38:11.329228 21290 layer_factory.hpp:77] Creating layer inception_4c/5x5_reduce
I0403 16:38:11.329252 21290 net.cpp:91] Creating Layer inception_4c/5x5_reduce
I0403 16:38:11.329268 21290 net.cpp:425] inception_4c/5x5_reduce <- inception_4b/output_inception_4b/output_0_split_2
I0403 16:38:11.329287 21290 net.cpp:399] inception_4c/5x5_reduce -> inception_4c/5x5_reduce
I0403 16:38:11.330384 21290 net.cpp:141] Setting up inception_4c/5x5_reduce
I0403 16:38:11.330415 21290 net.cpp:148] Top shape: 24 24 14 14 (112896)
I0403 16:38:11.330431 21290 net.cpp:156] Memory required for data: 1048111392
I0403 16:38:11.330448 21290 layer_factory.hpp:77] Creating layer inception_4c/relu_5x5_reduce
I0403 16:38:11.330466 21290 net.cpp:91] Creating Layer inception_4c/relu_5x5_reduce
I0403 16:38:11.330482 21290 net.cpp:425] inception_4c/relu_5x5_reduce <- inception_4c/5x5_reduce
I0403 16:38:11.330498 21290 net.cpp:386] inception_4c/relu_5x5_reduce -> inception_4c/5x5_reduce (in-place)
I0403 16:38:11.330684 21290 net.cpp:141] Setting up inception_4c/relu_5x5_reduce
I0403 16:38:11.330708 21290 net.cpp:148] Top shape: 24 24 14 14 (112896)
I0403 16:38:11.330723 21290 net.cpp:156] Memory required for data: 1048562976
I0403 16:38:11.330736 21290 layer_factory.hpp:77] Creating layer inception_4c/5x5
I0403 16:38:11.330757 21290 net.cpp:91] Creating Layer inception_4c/5x5
I0403 16:38:11.330775 21290 net.cpp:425] inception_4c/5x5 <- inception_4c/5x5_reduce
I0403 16:38:11.330795 21290 net.cpp:399] inception_4c/5x5 -> inception_4c/5x5
I0403 16:38:11.332036 21290 net.cpp:141] Setting up inception_4c/5x5
I0403 16:38:11.332082 21290 net.cpp:148] Top shape: 24 64 14 14 (301056)
I0403 16:38:11.332098 21290 net.cpp:156] Memory required for data: 1049767200
I0403 16:38:11.332115 21290 layer_factory.hpp:77] Creating layer inception_4c/relu_5x5
I0403 16:38:11.332134 21290 net.cpp:91] Creating Layer inception_4c/relu_5x5
I0403 16:38:11.332149 21290 net.cpp:425] inception_4c/relu_5x5 <- inception_4c/5x5
I0403 16:38:11.332170 21290 net.cpp:386] inception_4c/relu_5x5 -> inception_4c/5x5 (in-place)
I0403 16:38:11.332473 21290 net.cpp:141] Setting up inception_4c/relu_5x5
I0403 16:38:11.332500 21290 net.cpp:148] Top shape: 24 64 14 14 (301056)
I0403 16:38:11.332515 21290 net.cpp:156] Memory required for data: 1050971424
I0403 16:38:11.332530 21290 layer_factory.hpp:77] Creating layer inception_4c/pool
I0403 16:38:11.332547 21290 net.cpp:91] Creating Layer inception_4c/pool
I0403 16:38:11.332562 21290 net.cpp:425] inception_4c/pool <- inception_4b/output_inception_4b/output_0_split_3
I0403 16:38:11.332582 21290 net.cpp:399] inception_4c/pool -> inception_4c/pool
I0403 16:38:11.332650 21290 net.cpp:141] Setting up inception_4c/pool
I0403 16:38:11.332674 21290 net.cpp:148] Top shape: 24 512 14 14 (2408448)
I0403 16:38:11.332689 21290 net.cpp:156] Memory required for data: 1060605216
I0403 16:38:11.332703 21290 layer_factory.hpp:77] Creating layer inception_4c/pool_proj
I0403 16:38:11.332727 21290 net.cpp:91] Creating Layer inception_4c/pool_proj
I0403 16:38:11.332746 21290 net.cpp:425] inception_4c/pool_proj <- inception_4c/pool
I0403 16:38:11.332764 21290 net.cpp:399] inception_4c/pool_proj -> inception_4c/pool_proj
I0403 16:38:11.334028 21290 net.cpp:141] Setting up inception_4c/pool_proj
I0403 16:38:11.334060 21290 net.cpp:148] Top shape: 24 64 14 14 (301056)
I0403 16:38:11.334090 21290 net.cpp:156] Memory required for data: 1061809440
I0403 16:38:11.334112 21290 layer_factory.hpp:77] Creating layer inception_4c/relu_pool_proj
I0403 16:38:11.334131 21290 net.cpp:91] Creating Layer inception_4c/relu_pool_proj
I0403 16:38:11.334147 21290 net.cpp:425] inception_4c/relu_pool_proj <- inception_4c/pool_proj
I0403 16:38:11.334164 21290 net.cpp:386] inception_4c/relu_pool_proj -> inception_4c/pool_proj (in-place)
I0403 16:38:11.334357 21290 net.cpp:141] Setting up inception_4c/relu_pool_proj
I0403 16:38:11.334383 21290 net.cpp:148] Top shape: 24 64 14 14 (301056)
I0403 16:38:11.334398 21290 net.cpp:156] Memory required for data: 1063013664
I0403 16:38:11.334411 21290 layer_factory.hpp:77] Creating layer inception_4c/output
I0403 16:38:11.334429 21290 net.cpp:91] Creating Layer inception_4c/output
I0403 16:38:11.334444 21290 net.cpp:425] inception_4c/output <- inception_4c/1x1
I0403 16:38:11.334460 21290 net.cpp:425] inception_4c/output <- inception_4c/3x3
I0403 16:38:11.334476 21290 net.cpp:425] inception_4c/output <- inception_4c/5x5
I0403 16:38:11.334492 21290 net.cpp:425] inception_4c/output <- inception_4c/pool_proj
I0403 16:38:11.334511 21290 net.cpp:399] inception_4c/output -> inception_4c/output
I0403 16:38:11.334559 21290 net.cpp:141] Setting up inception_4c/output
I0403 16:38:11.334585 21290 net.cpp:148] Top shape: 24 512 14 14 (2408448)
I0403 16:38:11.334600 21290 net.cpp:156] Memory required for data: 1072647456
I0403 16:38:11.334615 21290 layer_factory.hpp:77] Creating layer inception_4c/output_inception_4c/output_0_split
I0403 16:38:11.334632 21290 net.cpp:91] Creating Layer inception_4c/output_inception_4c/output_0_split
I0403 16:38:11.334647 21290 net.cpp:425] inception_4c/output_inception_4c/output_0_split <- inception_4c/output
I0403 16:38:11.334666 21290 net.cpp:399] inception_4c/output_inception_4c/output_0_split -> inception_4c/output_inception_4c/output_0_split_0
I0403 16:38:11.334686 21290 net.cpp:399] inception_4c/output_inception_4c/output_0_split -> inception_4c/output_inception_4c/output_0_split_1
I0403 16:38:11.334708 21290 net.cpp:399] inception_4c/output_inception_4c/output_0_split -> inception_4c/output_inception_4c/output_0_split_2
I0403 16:38:11.334730 21290 net.cpp:399] inception_4c/output_inception_4c/output_0_split -> inception_4c/output_inception_4c/output_0_split_3
I0403 16:38:11.334820 21290 net.cpp:141] Setting up inception_4c/output_inception_4c/output_0_split
I0403 16:38:11.334846 21290 net.cpp:148] Top shape: 24 512 14 14 (2408448)
I0403 16:38:11.334861 21290 net.cpp:148] Top shape: 24 512 14 14 (2408448)
I0403 16:38:11.334877 21290 net.cpp:148] Top shape: 24 512 14 14 (2408448)
I0403 16:38:11.334892 21290 net.cpp:148] Top shape: 24 512 14 14 (2408448)
I0403 16:38:11.334904 21290 net.cpp:156] Memory required for data: 1111182624
I0403 16:38:11.334918 21290 layer_factory.hpp:77] Creating layer inception_4d/1x1
I0403 16:38:11.334940 21290 net.cpp:91] Creating Layer inception_4d/1x1
I0403 16:38:11.334959 21290 net.cpp:425] inception_4d/1x1 <- inception_4c/output_inception_4c/output_0_split_0
I0403 16:38:11.334980 21290 net.cpp:399] inception_4d/1x1 -> inception_4d/1x1
I0403 16:38:11.336416 21290 net.cpp:141] Setting up inception_4d/1x1
I0403 16:38:11.336446 21290 net.cpp:148] Top shape: 24 112 14 14 (526848)
I0403 16:38:11.336460 21290 net.cpp:156] Memory required for data: 1113290016
I0403 16:38:11.336479 21290 layer_factory.hpp:77] Creating layer inception_4d/relu_1x1
I0403 16:38:11.336499 21290 net.cpp:91] Creating Layer inception_4d/relu_1x1
I0403 16:38:11.336515 21290 net.cpp:425] inception_4d/relu_1x1 <- inception_4d/1x1
I0403 16:38:11.336534 21290 net.cpp:386] inception_4d/relu_1x1 -> inception_4d/1x1 (in-place)
I0403 16:38:11.336727 21290 net.cpp:141] Setting up inception_4d/relu_1x1
I0403 16:38:11.336755 21290 net.cpp:148] Top shape: 24 112 14 14 (526848)
I0403 16:38:11.336771 21290 net.cpp:156] Memory required for data: 1115397408
I0403 16:38:11.336784 21290 layer_factory.hpp:77] Creating layer inception_4d/3x3_reduce
I0403 16:38:11.336822 21290 net.cpp:91] Creating Layer inception_4d/3x3_reduce
I0403 16:38:11.336840 21290 net.cpp:425] inception_4d/3x3_reduce <- inception_4c/output_inception_4c/output_0_split_1
I0403 16:38:11.336860 21290 net.cpp:399] inception_4d/3x3_reduce -> inception_4d/3x3_reduce
I0403 16:38:11.338425 21290 net.cpp:141] Setting up inception_4d/3x3_reduce
I0403 16:38:11.338454 21290 net.cpp:148] Top shape: 24 144 14 14 (677376)
I0403 16:38:11.338469 21290 net.cpp:156] Memory required for data: 1118106912
I0403 16:38:11.338486 21290 layer_factory.hpp:77] Creating layer inception_4d/relu_3x3_reduce
I0403 16:38:11.338507 21290 net.cpp:91] Creating Layer inception_4d/relu_3x3_reduce
I0403 16:38:11.338524 21290 net.cpp:425] inception_4d/relu_3x3_reduce <- inception_4d/3x3_reduce
I0403 16:38:11.338541 21290 net.cpp:386] inception_4d/relu_3x3_reduce -> inception_4d/3x3_reduce (in-place)
I0403 16:38:11.338838 21290 net.cpp:141] Setting up inception_4d/relu_3x3_reduce
I0403 16:38:11.338865 21290 net.cpp:148] Top shape: 24 144 14 14 (677376)
I0403 16:38:11.338881 21290 net.cpp:156] Memory required for data: 1120816416
I0403 16:38:11.338894 21290 layer_factory.hpp:77] Creating layer inception_4d/3x3
I0403 16:38:11.338917 21290 net.cpp:91] Creating Layer inception_4d/3x3
I0403 16:38:11.338934 21290 net.cpp:425] inception_4d/3x3 <- inception_4d/3x3_reduce
I0403 16:38:11.338956 21290 net.cpp:399] inception_4d/3x3 -> inception_4d/3x3
I0403 16:38:11.343338 21290 net.cpp:141] Setting up inception_4d/3x3
I0403 16:38:11.343369 21290 net.cpp:148] Top shape: 24 288 14 14 (1354752)
I0403 16:38:11.343384 21290 net.cpp:156] Memory required for data: 1126235424
I0403 16:38:11.343402 21290 layer_factory.hpp:77] Creating layer inception_4d/relu_3x3
I0403 16:38:11.343423 21290 net.cpp:91] Creating Layer inception_4d/relu_3x3
I0403 16:38:11.343441 21290 net.cpp:425] inception_4d/relu_3x3 <- inception_4d/3x3
I0403 16:38:11.343457 21290 net.cpp:386] inception_4d/relu_3x3 -> inception_4d/3x3 (in-place)
I0403 16:38:11.343647 21290 net.cpp:141] Setting up inception_4d/relu_3x3
I0403 16:38:11.343675 21290 net.cpp:148] Top shape: 24 288 14 14 (1354752)
I0403 16:38:11.343691 21290 net.cpp:156] Memory required for data: 1131654432
I0403 16:38:11.343705 21290 layer_factory.hpp:77] Creating layer inception_4d/5x5_reduce
I0403 16:38:11.343729 21290 net.cpp:91] Creating Layer inception_4d/5x5_reduce
I0403 16:38:11.343747 21290 net.cpp:425] inception_4d/5x5_reduce <- inception_4c/output_inception_4c/output_0_split_2
I0403 16:38:11.343766 21290 net.cpp:399] inception_4d/5x5_reduce -> inception_4d/5x5_reduce
I0403 16:38:11.344954 21290 net.cpp:141] Setting up inception_4d/5x5_reduce
I0403 16:38:11.344982 21290 net.cpp:148] Top shape: 24 32 14 14 (150528)
I0403 16:38:11.344998 21290 net.cpp:156] Memory required for data: 1132256544
I0403 16:38:11.345016 21290 layer_factory.hpp:77] Creating layer inception_4d/relu_5x5_reduce
I0403 16:38:11.345037 21290 net.cpp:91] Creating Layer inception_4d/relu_5x5_reduce
I0403 16:38:11.345059 21290 net.cpp:425] inception_4d/relu_5x5_reduce <- inception_4d/5x5_reduce
I0403 16:38:11.345078 21290 net.cpp:386] inception_4d/relu_5x5_reduce -> inception_4d/5x5_reduce (in-place)
I0403 16:38:11.345271 21290 net.cpp:141] Setting up inception_4d/relu_5x5_reduce
I0403 16:38:11.345300 21290 net.cpp:148] Top shape: 24 32 14 14 (150528)
I0403 16:38:11.345315 21290 net.cpp:156] Memory required for data: 1132858656
I0403 16:38:11.345330 21290 layer_factory.hpp:77] Creating layer inception_4d/5x5
I0403 16:38:11.345351 21290 net.cpp:91] Creating Layer inception_4d/5x5
I0403 16:38:11.345369 21290 net.cpp:425] inception_4d/5x5 <- inception_4d/5x5_reduce
I0403 16:38:11.345388 21290 net.cpp:399] inception_4d/5x5 -> inception_4d/5x5
I0403 16:38:11.346915 21290 net.cpp:141] Setting up inception_4d/5x5
I0403 16:38:11.346946 21290 net.cpp:148] Top shape: 24 64 14 14 (301056)
I0403 16:38:11.346961 21290 net.cpp:156] Memory required for data: 1134062880
I0403 16:38:11.346979 21290 layer_factory.hpp:77] Creating layer inception_4d/relu_5x5
I0403 16:38:11.347012 21290 net.cpp:91] Creating Layer inception_4d/relu_5x5
I0403 16:38:11.347029 21290 net.cpp:425] inception_4d/relu_5x5 <- inception_4d/5x5
I0403 16:38:11.347053 21290 net.cpp:386] inception_4d/relu_5x5 -> inception_4d/5x5 (in-place)
I0403 16:38:11.347364 21290 net.cpp:141] Setting up inception_4d/relu_5x5
I0403 16:38:11.347393 21290 net.cpp:148] Top shape: 24 64 14 14 (301056)
I0403 16:38:11.347407 21290 net.cpp:156] Memory required for data: 1135267104
I0403 16:38:11.347422 21290 layer_factory.hpp:77] Creating layer inception_4d/pool
I0403 16:38:11.347440 21290 net.cpp:91] Creating Layer inception_4d/pool
I0403 16:38:11.347455 21290 net.cpp:425] inception_4d/pool <- inception_4c/output_inception_4c/output_0_split_3
I0403 16:38:11.347476 21290 net.cpp:399] inception_4d/pool -> inception_4d/pool
I0403 16:38:11.347544 21290 net.cpp:141] Setting up inception_4d/pool
I0403 16:38:11.347568 21290 net.cpp:148] Top shape: 24 512 14 14 (2408448)
I0403 16:38:11.347584 21290 net.cpp:156] Memory required for data: 1144900896
I0403 16:38:11.347597 21290 layer_factory.hpp:77] Creating layer inception_4d/pool_proj
I0403 16:38:11.347620 21290 net.cpp:91] Creating Layer inception_4d/pool_proj
I0403 16:38:11.347637 21290 net.cpp:425] inception_4d/pool_proj <- inception_4d/pool
I0403 16:38:11.347656 21290 net.cpp:399] inception_4d/pool_proj -> inception_4d/pool_proj
I0403 16:38:11.349483 21290 net.cpp:141] Setting up inception_4d/pool_proj
I0403 16:38:11.349514 21290 net.cpp:148] Top shape: 24 64 14 14 (301056)
I0403 16:38:11.349529 21290 net.cpp:156] Memory required for data: 1146105120
I0403 16:38:11.349547 21290 layer_factory.hpp:77] Creating layer inception_4d/relu_pool_proj
I0403 16:38:11.349567 21290 net.cpp:91] Creating Layer inception_4d/relu_pool_proj
I0403 16:38:11.349584 21290 net.cpp:425] inception_4d/relu_pool_proj <- inception_4d/pool_proj
I0403 16:38:11.349601 21290 net.cpp:386] inception_4d/relu_pool_proj -> inception_4d/pool_proj (in-place)
I0403 16:38:11.349794 21290 net.cpp:141] Setting up inception_4d/relu_pool_proj
I0403 16:38:11.349822 21290 net.cpp:148] Top shape: 24 64 14 14 (301056)
I0403 16:38:11.349838 21290 net.cpp:156] Memory required for data: 1147309344
I0403 16:38:11.349853 21290 layer_factory.hpp:77] Creating layer inception_4d/output
I0403 16:38:11.349870 21290 net.cpp:91] Creating Layer inception_4d/output
I0403 16:38:11.349886 21290 net.cpp:425] inception_4d/output <- inception_4d/1x1
I0403 16:38:11.349903 21290 net.cpp:425] inception_4d/output <- inception_4d/3x3
I0403 16:38:11.349920 21290 net.cpp:425] inception_4d/output <- inception_4d/5x5
I0403 16:38:11.349936 21290 net.cpp:425] inception_4d/output <- inception_4d/pool_proj
I0403 16:38:11.349954 21290 net.cpp:399] inception_4d/output -> inception_4d/output
I0403 16:38:11.350003 21290 net.cpp:141] Setting up inception_4d/output
I0403 16:38:11.350026 21290 net.cpp:148] Top shape: 24 528 14 14 (2483712)
I0403 16:38:11.350041 21290 net.cpp:156] Memory required for data: 1157244192
I0403 16:38:11.350061 21290 layer_factory.hpp:77] Creating layer inception_4d/output_inception_4d/output_0_split
I0403 16:38:11.350082 21290 net.cpp:91] Creating Layer inception_4d/output_inception_4d/output_0_split
I0403 16:38:11.350100 21290 net.cpp:425] inception_4d/output_inception_4d/output_0_split <- inception_4d/output
I0403 16:38:11.350119 21290 net.cpp:399] inception_4d/output_inception_4d/output_0_split -> inception_4d/output_inception_4d/output_0_split_0
I0403 16:38:11.350141 21290 net.cpp:399] inception_4d/output_inception_4d/output_0_split -> inception_4d/output_inception_4d/output_0_split_1
I0403 16:38:11.350165 21290 net.cpp:399] inception_4d/output_inception_4d/output_0_split -> inception_4d/output_inception_4d/output_0_split_2
I0403 16:38:11.350188 21290 net.cpp:399] inception_4d/output_inception_4d/output_0_split -> inception_4d/output_inception_4d/output_0_split_3
I0403 16:38:11.350208 21290 net.cpp:399] inception_4d/output_inception_4d/output_0_split -> inception_4d/output_inception_4d/output_0_split_4
I0403 16:38:11.350312 21290 net.cpp:141] Setting up inception_4d/output_inception_4d/output_0_split
I0403 16:38:11.350349 21290 net.cpp:148] Top shape: 24 528 14 14 (2483712)
I0403 16:38:11.350378 21290 net.cpp:148] Top shape: 24 528 14 14 (2483712)
I0403 16:38:11.350392 21290 net.cpp:148] Top shape: 24 528 14 14 (2483712)
I0403 16:38:11.350407 21290 net.cpp:148] Top shape: 24 528 14 14 (2483712)
I0403 16:38:11.350421 21290 net.cpp:148] Top shape: 24 528 14 14 (2483712)
I0403 16:38:11.350435 21290 net.cpp:156] Memory required for data: 1206918432
I0403 16:38:11.350448 21290 layer_factory.hpp:77] Creating layer loss2/ave_pool
I0403 16:38:11.350466 21290 net.cpp:91] Creating Layer loss2/ave_pool
I0403 16:38:11.350481 21290 net.cpp:425] loss2/ave_pool <- inception_4d/output_inception_4d/output_0_split_0
I0403 16:38:11.350502 21290 net.cpp:399] loss2/ave_pool -> loss2/ave_pool
I0403 16:38:11.350821 21290 net.cpp:141] Setting up loss2/ave_pool
I0403 16:38:11.350847 21290 net.cpp:148] Top shape: 24 528 4 4 (202752)
I0403 16:38:11.350862 21290 net.cpp:156] Memory required for data: 1207729440
I0403 16:38:11.350877 21290 layer_factory.hpp:77] Creating layer loss2/conv
I0403 16:38:11.350898 21290 net.cpp:91] Creating Layer loss2/conv
I0403 16:38:11.350914 21290 net.cpp:425] loss2/conv <- loss2/ave_pool
I0403 16:38:11.350935 21290 net.cpp:399] loss2/conv -> loss2/conv
I0403 16:38:11.352838 21290 net.cpp:141] Setting up loss2/conv
I0403 16:38:11.352870 21290 net.cpp:148] Top shape: 24 128 4 4 (49152)
I0403 16:38:11.352886 21290 net.cpp:156] Memory required for data: 1207926048
I0403 16:38:11.352903 21290 layer_factory.hpp:77] Creating layer loss2/relu_conv
I0403 16:38:11.352921 21290 net.cpp:91] Creating Layer loss2/relu_conv
I0403 16:38:11.352936 21290 net.cpp:425] loss2/relu_conv <- loss2/conv
I0403 16:38:11.352955 21290 net.cpp:386] loss2/relu_conv -> loss2/conv (in-place)
I0403 16:38:11.353247 21290 net.cpp:141] Setting up loss2/relu_conv
I0403 16:38:11.353276 21290 net.cpp:148] Top shape: 24 128 4 4 (49152)
I0403 16:38:11.353291 21290 net.cpp:156] Memory required for data: 1208122656
I0403 16:38:11.353304 21290 layer_factory.hpp:77] Creating layer loss2/fc
I0403 16:38:11.353323 21290 net.cpp:91] Creating Layer loss2/fc
I0403 16:38:11.353339 21290 net.cpp:425] loss2/fc <- loss2/conv
I0403 16:38:11.353360 21290 net.cpp:399] loss2/fc -> loss2/fc
I0403 16:38:11.370746 21290 net.cpp:141] Setting up loss2/fc
I0403 16:38:11.370791 21290 net.cpp:148] Top shape: 24 1024 (24576)
I0403 16:38:11.370806 21290 net.cpp:156] Memory required for data: 1208220960
I0403 16:38:11.370825 21290 layer_factory.hpp:77] Creating layer loss2/relu_fc
I0403 16:38:11.370846 21290 net.cpp:91] Creating Layer loss2/relu_fc
I0403 16:38:11.370864 21290 net.cpp:425] loss2/relu_fc <- loss2/fc
I0403 16:38:11.370882 21290 net.cpp:386] loss2/relu_fc -> loss2/fc (in-place)
I0403 16:38:11.371201 21290 net.cpp:141] Setting up loss2/relu_fc
I0403 16:38:11.371227 21290 net.cpp:148] Top shape: 24 1024 (24576)
I0403 16:38:11.371240 21290 net.cpp:156] Memory required for data: 1208319264
I0403 16:38:11.371255 21290 layer_factory.hpp:77] Creating layer loss2/drop_fc
I0403 16:38:11.371275 21290 net.cpp:91] Creating Layer loss2/drop_fc
I0403 16:38:11.371291 21290 net.cpp:425] loss2/drop_fc <- loss2/fc
I0403 16:38:11.371309 21290 net.cpp:386] loss2/drop_fc -> loss2/fc (in-place)
I0403 16:38:11.371359 21290 net.cpp:141] Setting up loss2/drop_fc
I0403 16:38:11.371382 21290 net.cpp:148] Top shape: 24 1024 (24576)
I0403 16:38:11.371397 21290 net.cpp:156] Memory required for data: 1208417568
I0403 16:38:11.371410 21290 layer_factory.hpp:77] Creating layer loss2/classifier_plantvillage
I0403 16:38:11.371431 21290 net.cpp:91] Creating Layer loss2/classifier_plantvillage
I0403 16:38:11.371448 21290 net.cpp:425] loss2/classifier_plantvillage <- loss2/fc
I0403 16:38:11.371465 21290 net.cpp:399] loss2/classifier_plantvillage -> loss2/classifier_plantvillage
I0403 16:38:11.371876 21290 net.cpp:141] Setting up loss2/classifier_plantvillage
I0403 16:38:11.371901 21290 net.cpp:148] Top shape: 24 38 (912)
I0403 16:38:11.371933 21290 net.cpp:156] Memory required for data: 1208421216
I0403 16:38:11.371953 21290 layer_factory.hpp:77] Creating layer loss2/classifier_plantvillage_loss2/classifier_plantvillage_0_split
I0403 16:38:11.371969 21290 net.cpp:91] Creating Layer loss2/classifier_plantvillage_loss2/classifier_plantvillage_0_split
I0403 16:38:11.371985 21290 net.cpp:425] loss2/classifier_plantvillage_loss2/classifier_plantvillage_0_split <- loss2/classifier_plantvillage
I0403 16:38:11.372004 21290 net.cpp:399] loss2/classifier_plantvillage_loss2/classifier_plantvillage_0_split -> loss2/classifier_plantvillage_loss2/classifier_plantvillage_0_split_0
I0403 16:38:11.372025 21290 net.cpp:399] loss2/classifier_plantvillage_loss2/classifier_plantvillage_0_split -> loss2/classifier_plantvillage_loss2/classifier_plantvillage_0_split_1
I0403 16:38:11.372045 21290 net.cpp:399] loss2/classifier_plantvillage_loss2/classifier_plantvillage_0_split -> loss2/classifier_plantvillage_loss2/classifier_plantvillage_0_split_2
I0403 16:38:11.372128 21290 net.cpp:141] Setting up loss2/classifier_plantvillage_loss2/classifier_plantvillage_0_split
I0403 16:38:11.372153 21290 net.cpp:148] Top shape: 24 38 (912)
I0403 16:38:11.372169 21290 net.cpp:148] Top shape: 24 38 (912)
I0403 16:38:11.372184 21290 net.cpp:148] Top shape: 24 38 (912)
I0403 16:38:11.372197 21290 net.cpp:156] Memory required for data: 1208432160
I0403 16:38:11.372213 21290 layer_factory.hpp:77] Creating layer inception_4e/1x1
I0403 16:38:11.372232 21290 net.cpp:91] Creating Layer inception_4e/1x1
I0403 16:38:11.372249 21290 net.cpp:425] inception_4e/1x1 <- inception_4d/output_inception_4d/output_0_split_1
I0403 16:38:11.372267 21290 net.cpp:399] inception_4e/1x1 -> inception_4e/1x1
I0403 16:38:11.374083 21290 net.cpp:141] Setting up inception_4e/1x1
I0403 16:38:11.374109 21290 net.cpp:148] Top shape: 24 256 14 14 (1204224)
I0403 16:38:11.374124 21290 net.cpp:156] Memory required for data: 1213249056
I0403 16:38:11.374141 21290 layer_factory.hpp:77] Creating layer inception_4e/relu_1x1
I0403 16:38:11.374158 21290 net.cpp:91] Creating Layer inception_4e/relu_1x1
I0403 16:38:11.374173 21290 net.cpp:425] inception_4e/relu_1x1 <- inception_4e/1x1
I0403 16:38:11.374192 21290 net.cpp:386] inception_4e/relu_1x1 -> inception_4e/1x1 (in-place)
I0403 16:38:11.374485 21290 net.cpp:141] Setting up inception_4e/relu_1x1
I0403 16:38:11.374510 21290 net.cpp:148] Top shape: 24 256 14 14 (1204224)
I0403 16:38:11.374524 21290 net.cpp:156] Memory required for data: 1218065952
I0403 16:38:11.374538 21290 layer_factory.hpp:77] Creating layer inception_4e/3x3_reduce
I0403 16:38:11.374559 21290 net.cpp:91] Creating Layer inception_4e/3x3_reduce
I0403 16:38:11.374575 21290 net.cpp:425] inception_4e/3x3_reduce <- inception_4d/output_inception_4d/output_0_split_2
I0403 16:38:11.374595 21290 net.cpp:399] inception_4e/3x3_reduce -> inception_4e/3x3_reduce
I0403 16:38:11.376662 21290 net.cpp:141] Setting up inception_4e/3x3_reduce
I0403 16:38:11.376690 21290 net.cpp:148] Top shape: 24 160 14 14 (752640)
I0403 16:38:11.376706 21290 net.cpp:156] Memory required for data: 1221076512
I0403 16:38:11.376724 21290 layer_factory.hpp:77] Creating layer inception_4e/relu_3x3_reduce
I0403 16:38:11.376740 21290 net.cpp:91] Creating Layer inception_4e/relu_3x3_reduce
I0403 16:38:11.376755 21290 net.cpp:425] inception_4e/relu_3x3_reduce <- inception_4e/3x3_reduce
I0403 16:38:11.376773 21290 net.cpp:386] inception_4e/relu_3x3_reduce -> inception_4e/3x3_reduce (in-place)
I0403 16:38:11.376956 21290 net.cpp:141] Setting up inception_4e/relu_3x3_reduce
I0403 16:38:11.376981 21290 net.cpp:148] Top shape: 24 160 14 14 (752640)
I0403 16:38:11.376994 21290 net.cpp:156] Memory required for data: 1224087072
I0403 16:38:11.377008 21290 layer_factory.hpp:77] Creating layer inception_4e/3x3
I0403 16:38:11.377029 21290 net.cpp:91] Creating Layer inception_4e/3x3
I0403 16:38:11.377045 21290 net.cpp:425] inception_4e/3x3 <- inception_4e/3x3_reduce
I0403 16:38:11.377071 21290 net.cpp:399] inception_4e/3x3 -> inception_4e/3x3
I0403 16:38:11.381937 21290 net.cpp:141] Setting up inception_4e/3x3
I0403 16:38:11.381985 21290 net.cpp:148] Top shape: 24 320 14 14 (1505280)
I0403 16:38:11.382001 21290 net.cpp:156] Memory required for data: 1230108192
I0403 16:38:11.382019 21290 layer_factory.hpp:77] Creating layer inception_4e/relu_3x3
I0403 16:38:11.382036 21290 net.cpp:91] Creating Layer inception_4e/relu_3x3
I0403 16:38:11.382056 21290 net.cpp:425] inception_4e/relu_3x3 <- inception_4e/3x3
I0403 16:38:11.382076 21290 net.cpp:386] inception_4e/relu_3x3 -> inception_4e/3x3 (in-place)
I0403 16:38:11.382371 21290 net.cpp:141] Setting up inception_4e/relu_3x3
I0403 16:38:11.382396 21290 net.cpp:148] Top shape: 24 320 14 14 (1505280)
I0403 16:38:11.382411 21290 net.cpp:156] Memory required for data: 1236129312
I0403 16:38:11.382424 21290 layer_factory.hpp:77] Creating layer inception_4e/5x5_reduce
I0403 16:38:11.382447 21290 net.cpp:91] Creating Layer inception_4e/5x5_reduce
I0403 16:38:11.382463 21290 net.cpp:425] inception_4e/5x5_reduce <- inception_4d/output_inception_4d/output_0_split_3
I0403 16:38:11.382485 21290 net.cpp:399] inception_4e/5x5_reduce -> inception_4e/5x5_reduce
I0403 16:38:11.383530 21290 net.cpp:141] Setting up inception_4e/5x5_reduce
I0403 16:38:11.383558 21290 net.cpp:148] Top shape: 24 32 14 14 (150528)
I0403 16:38:11.383572 21290 net.cpp:156] Memory required for data: 1236731424
I0403 16:38:11.383589 21290 layer_factory.hpp:77] Creating layer inception_4e/relu_5x5_reduce
I0403 16:38:11.383607 21290 net.cpp:91] Creating Layer inception_4e/relu_5x5_reduce
I0403 16:38:11.383621 21290 net.cpp:425] inception_4e/relu_5x5_reduce <- inception_4e/5x5_reduce
I0403 16:38:11.383640 21290 net.cpp:386] inception_4e/relu_5x5_reduce -> inception_4e/5x5_reduce (in-place)
I0403 16:38:11.383931 21290 net.cpp:141] Setting up inception_4e/relu_5x5_reduce
I0403 16:38:11.383958 21290 net.cpp:148] Top shape: 24 32 14 14 (150528)
I0403 16:38:11.383972 21290 net.cpp:156] Memory required for data: 1237333536
I0403 16:38:11.383988 21290 layer_factory.hpp:77] Creating layer inception_4e/5x5
I0403 16:38:11.384024 21290 net.cpp:91] Creating Layer inception_4e/5x5
I0403 16:38:11.384043 21290 net.cpp:425] inception_4e/5x5 <- inception_4e/5x5_reduce
I0403 16:38:11.384066 21290 net.cpp:399] inception_4e/5x5 -> inception_4e/5x5
I0403 16:38:11.385906 21290 net.cpp:141] Setting up inception_4e/5x5
I0403 16:38:11.385936 21290 net.cpp:148] Top shape: 24 128 14 14 (602112)
I0403 16:38:11.385952 21290 net.cpp:156] Memory required for data: 1239741984
I0403 16:38:11.385978 21290 layer_factory.hpp:77] Creating layer inception_4e/relu_5x5
I0403 16:38:11.385998 21290 net.cpp:91] Creating Layer inception_4e/relu_5x5
I0403 16:38:11.386013 21290 net.cpp:425] inception_4e/relu_5x5 <- inception_4e/5x5
I0403 16:38:11.386030 21290 net.cpp:386] inception_4e/relu_5x5 -> inception_4e/5x5 (in-place)
I0403 16:38:11.386234 21290 net.cpp:141] Setting up inception_4e/relu_5x5
I0403 16:38:11.386270 21290 net.cpp:148] Top shape: 24 128 14 14 (602112)
I0403 16:38:11.386286 21290 net.cpp:156] Memory required for data: 1242150432
I0403 16:38:11.386299 21290 layer_factory.hpp:77] Creating layer inception_4e/pool
I0403 16:38:11.386317 21290 net.cpp:91] Creating Layer inception_4e/pool
I0403 16:38:11.386332 21290 net.cpp:425] inception_4e/pool <- inception_4d/output_inception_4d/output_0_split_4
I0403 16:38:11.386351 21290 net.cpp:399] inception_4e/pool -> inception_4e/pool
I0403 16:38:11.386422 21290 net.cpp:141] Setting up inception_4e/pool
I0403 16:38:11.386448 21290 net.cpp:148] Top shape: 24 528 14 14 (2483712)
I0403 16:38:11.386462 21290 net.cpp:156] Memory required for data: 1252085280
I0403 16:38:11.386477 21290 layer_factory.hpp:77] Creating layer inception_4e/pool_proj
I0403 16:38:11.386498 21290 net.cpp:91] Creating Layer inception_4e/pool_proj
I0403 16:38:11.386514 21290 net.cpp:425] inception_4e/pool_proj <- inception_4e/pool
I0403 16:38:11.386533 21290 net.cpp:399] inception_4e/pool_proj -> inception_4e/pool_proj
I0403 16:38:11.388038 21290 net.cpp:141] Setting up inception_4e/pool_proj
I0403 16:38:11.388082 21290 net.cpp:148] Top shape: 24 128 14 14 (602112)
I0403 16:38:11.388097 21290 net.cpp:156] Memory required for data: 1254493728
I0403 16:38:11.388114 21290 layer_factory.hpp:77] Creating layer inception_4e/relu_pool_proj
I0403 16:38:11.388134 21290 net.cpp:91] Creating Layer inception_4e/relu_pool_proj
I0403 16:38:11.388150 21290 net.cpp:425] inception_4e/relu_pool_proj <- inception_4e/pool_proj
I0403 16:38:11.388167 21290 net.cpp:386] inception_4e/relu_pool_proj -> inception_4e/pool_proj (in-place)
I0403 16:38:11.388466 21290 net.cpp:141] Setting up inception_4e/relu_pool_proj
I0403 16:38:11.388492 21290 net.cpp:148] Top shape: 24 128 14 14 (602112)
I0403 16:38:11.388506 21290 net.cpp:156] Memory required for data: 1256902176
I0403 16:38:11.388521 21290 layer_factory.hpp:77] Creating layer inception_4e/output
I0403 16:38:11.388540 21290 net.cpp:91] Creating Layer inception_4e/output
I0403 16:38:11.388556 21290 net.cpp:425] inception_4e/output <- inception_4e/1x1
I0403 16:38:11.388572 21290 net.cpp:425] inception_4e/output <- inception_4e/3x3
I0403 16:38:11.388588 21290 net.cpp:425] inception_4e/output <- inception_4e/5x5
I0403 16:38:11.388604 21290 net.cpp:425] inception_4e/output <- inception_4e/pool_proj
I0403 16:38:11.388620 21290 net.cpp:399] inception_4e/output -> inception_4e/output
I0403 16:38:11.388671 21290 net.cpp:141] Setting up inception_4e/output
I0403 16:38:11.388695 21290 net.cpp:148] Top shape: 24 832 14 14 (3913728)
I0403 16:38:11.388708 21290 net.cpp:156] Memory required for data: 1272557088
I0403 16:38:11.388722 21290 layer_factory.hpp:77] Creating layer pool4/3x3_s2
I0403 16:38:11.388739 21290 net.cpp:91] Creating Layer pool4/3x3_s2
I0403 16:38:11.388754 21290 net.cpp:425] pool4/3x3_s2 <- inception_4e/output
I0403 16:38:11.388774 21290 net.cpp:399] pool4/3x3_s2 -> pool4/3x3_s2
I0403 16:38:11.388840 21290 net.cpp:141] Setting up pool4/3x3_s2
I0403 16:38:11.388866 21290 net.cpp:148] Top shape: 24 832 7 7 (978432)
I0403 16:38:11.388880 21290 net.cpp:156] Memory required for data: 1276470816
I0403 16:38:11.388895 21290 layer_factory.hpp:77] Creating layer pool4/3x3_s2_pool4/3x3_s2_0_split
I0403 16:38:11.388911 21290 net.cpp:91] Creating Layer pool4/3x3_s2_pool4/3x3_s2_0_split
I0403 16:38:11.388926 21290 net.cpp:425] pool4/3x3_s2_pool4/3x3_s2_0_split <- pool4/3x3_s2
I0403 16:38:11.388942 21290 net.cpp:399] pool4/3x3_s2_pool4/3x3_s2_0_split -> pool4/3x3_s2_pool4/3x3_s2_0_split_0
I0403 16:38:11.388963 21290 net.cpp:399] pool4/3x3_s2_pool4/3x3_s2_0_split -> pool4/3x3_s2_pool4/3x3_s2_0_split_1
I0403 16:38:11.388984 21290 net.cpp:399] pool4/3x3_s2_pool4/3x3_s2_0_split -> pool4/3x3_s2_pool4/3x3_s2_0_split_2
I0403 16:38:11.389004 21290 net.cpp:399] pool4/3x3_s2_pool4/3x3_s2_0_split -> pool4/3x3_s2_pool4/3x3_s2_0_split_3
I0403 16:38:11.389107 21290 net.cpp:141] Setting up pool4/3x3_s2_pool4/3x3_s2_0_split
I0403 16:38:11.389132 21290 net.cpp:148] Top shape: 24 832 7 7 (978432)
I0403 16:38:11.389147 21290 net.cpp:148] Top shape: 24 832 7 7 (978432)
I0403 16:38:11.389161 21290 net.cpp:148] Top shape: 24 832 7 7 (978432)
I0403 16:38:11.389175 21290 net.cpp:148] Top shape: 24 832 7 7 (978432)
I0403 16:38:11.389189 21290 net.cpp:156] Memory required for data: 1292125728
I0403 16:38:11.389201 21290 layer_factory.hpp:77] Creating layer inception_5a/1x1
I0403 16:38:11.389225 21290 net.cpp:91] Creating Layer inception_5a/1x1
I0403 16:38:11.389242 21290 net.cpp:425] inception_5a/1x1 <- pool4/3x3_s2_pool4/3x3_s2_0_split_0
I0403 16:38:11.389261 21290 net.cpp:399] inception_5a/1x1 -> inception_5a/1x1
I0403 16:38:11.392108 21290 net.cpp:141] Setting up inception_5a/1x1
I0403 16:38:11.392138 21290 net.cpp:148] Top shape: 24 256 7 7 (301056)
I0403 16:38:11.392155 21290 net.cpp:156] Memory required for data: 1293329952
I0403 16:38:11.392174 21290 layer_factory.hpp:77] Creating layer inception_5a/relu_1x1
I0403 16:38:11.392191 21290 net.cpp:91] Creating Layer inception_5a/relu_1x1
I0403 16:38:11.392206 21290 net.cpp:425] inception_5a/relu_1x1 <- inception_5a/1x1
I0403 16:38:11.392225 21290 net.cpp:386] inception_5a/relu_1x1 -> inception_5a/1x1 (in-place)
I0403 16:38:11.392536 21290 net.cpp:141] Setting up inception_5a/relu_1x1
I0403 16:38:11.392565 21290 net.cpp:148] Top shape: 24 256 7 7 (301056)
I0403 16:38:11.392580 21290 net.cpp:156] Memory required for data: 1294534176
I0403 16:38:11.392595 21290 layer_factory.hpp:77] Creating layer inception_5a/3x3_reduce
I0403 16:38:11.392616 21290 net.cpp:91] Creating Layer inception_5a/3x3_reduce
I0403 16:38:11.392634 21290 net.cpp:425] inception_5a/3x3_reduce <- pool4/3x3_s2_pool4/3x3_s2_0_split_1
I0403 16:38:11.392652 21290 net.cpp:399] inception_5a/3x3_reduce -> inception_5a/3x3_reduce
I0403 16:38:11.395126 21290 net.cpp:141] Setting up inception_5a/3x3_reduce
I0403 16:38:11.395154 21290 net.cpp:148] Top shape: 24 160 7 7 (188160)
I0403 16:38:11.395169 21290 net.cpp:156] Memory required for data: 1295286816
I0403 16:38:11.395187 21290 layer_factory.hpp:77] Creating layer inception_5a/relu_3x3_reduce
I0403 16:38:11.395208 21290 net.cpp:91] Creating Layer inception_5a/relu_3x3_reduce
I0403 16:38:11.395225 21290 net.cpp:425] inception_5a/relu_3x3_reduce <- inception_5a/3x3_reduce
I0403 16:38:11.395241 21290 net.cpp:386] inception_5a/relu_3x3_reduce -> inception_5a/3x3_reduce (in-place)
I0403 16:38:11.395431 21290 net.cpp:141] Setting up inception_5a/relu_3x3_reduce
I0403 16:38:11.395457 21290 net.cpp:148] Top shape: 24 160 7 7 (188160)
I0403 16:38:11.395469 21290 net.cpp:156] Memory required for data: 1296039456
I0403 16:38:11.395484 21290 layer_factory.hpp:77] Creating layer inception_5a/3x3
I0403 16:38:11.395509 21290 net.cpp:91] Creating Layer inception_5a/3x3
I0403 16:38:11.395526 21290 net.cpp:425] inception_5a/3x3 <- inception_5a/3x3_reduce
I0403 16:38:11.395545 21290 net.cpp:399] inception_5a/3x3 -> inception_5a/3x3
I0403 16:38:11.400596 21290 net.cpp:141] Setting up inception_5a/3x3
I0403 16:38:11.400627 21290 net.cpp:148] Top shape: 24 320 7 7 (376320)
I0403 16:38:11.400643 21290 net.cpp:156] Memory required for data: 1297544736
I0403 16:38:11.400660 21290 layer_factory.hpp:77] Creating layer inception_5a/relu_3x3
I0403 16:38:11.400678 21290 net.cpp:91] Creating Layer inception_5a/relu_3x3
I0403 16:38:11.400694 21290 net.cpp:425] inception_5a/relu_3x3 <- inception_5a/3x3
I0403 16:38:11.400712 21290 net.cpp:386] inception_5a/relu_3x3 -> inception_5a/3x3 (in-place)
I0403 16:38:11.401010 21290 net.cpp:141] Setting up inception_5a/relu_3x3
I0403 16:38:11.401038 21290 net.cpp:148] Top shape: 24 320 7 7 (376320)
I0403 16:38:11.401058 21290 net.cpp:156] Memory required for data: 1299050016
I0403 16:38:11.401073 21290 layer_factory.hpp:77] Creating layer inception_5a/5x5_reduce
I0403 16:38:11.401095 21290 net.cpp:91] Creating Layer inception_5a/5x5_reduce
I0403 16:38:11.401113 21290 net.cpp:425] inception_5a/5x5_reduce <- pool4/3x3_s2_pool4/3x3_s2_0_split_2
I0403 16:38:11.401131 21290 net.cpp:399] inception_5a/5x5_reduce -> inception_5a/5x5_reduce
I0403 16:38:11.402307 21290 net.cpp:141] Setting up inception_5a/5x5_reduce
I0403 16:38:11.402338 21290 net.cpp:148] Top shape: 24 32 7 7 (37632)
I0403 16:38:11.402354 21290 net.cpp:156] Memory required for data: 1299200544
I0403 16:38:11.402371 21290 layer_factory.hpp:77] Creating layer inception_5a/relu_5x5_reduce
I0403 16:38:11.402390 21290 net.cpp:91] Creating Layer inception_5a/relu_5x5_reduce
I0403 16:38:11.402405 21290 net.cpp:425] inception_5a/relu_5x5_reduce <- inception_5a/5x5_reduce
I0403 16:38:11.402425 21290 net.cpp:386] inception_5a/relu_5x5_reduce -> inception_5a/5x5_reduce (in-place)
I0403 16:38:11.402740 21290 net.cpp:141] Setting up inception_5a/relu_5x5_reduce
I0403 16:38:11.402766 21290 net.cpp:148] Top shape: 24 32 7 7 (37632)
I0403 16:38:11.402781 21290 net.cpp:156] Memory required for data: 1299351072
I0403 16:38:11.402796 21290 layer_factory.hpp:77] Creating layer inception_5a/5x5
I0403 16:38:11.402817 21290 net.cpp:91] Creating Layer inception_5a/5x5
I0403 16:38:11.402833 21290 net.cpp:425] inception_5a/5x5 <- inception_5a/5x5_reduce
I0403 16:38:11.402851 21290 net.cpp:399] inception_5a/5x5 -> inception_5a/5x5
I0403 16:38:11.404532 21290 net.cpp:141] Setting up inception_5a/5x5
I0403 16:38:11.404573 21290 net.cpp:148] Top shape: 24 128 7 7 (150528)
I0403 16:38:11.404589 21290 net.cpp:156] Memory required for data: 1299953184
I0403 16:38:11.404606 21290 layer_factory.hpp:77] Creating layer inception_5a/relu_5x5
I0403 16:38:11.404623 21290 net.cpp:91] Creating Layer inception_5a/relu_5x5
I0403 16:38:11.404639 21290 net.cpp:425] inception_5a/relu_5x5 <- inception_5a/5x5
I0403 16:38:11.404654 21290 net.cpp:386] inception_5a/relu_5x5 -> inception_5a/5x5 (in-place)
I0403 16:38:11.404844 21290 net.cpp:141] Setting up inception_5a/relu_5x5
I0403 16:38:11.404868 21290 net.cpp:148] Top shape: 24 128 7 7 (150528)
I0403 16:38:11.404881 21290 net.cpp:156] Memory required for data: 1300555296
I0403 16:38:11.404896 21290 layer_factory.hpp:77] Creating layer inception_5a/pool
I0403 16:38:11.404912 21290 net.cpp:91] Creating Layer inception_5a/pool
I0403 16:38:11.404927 21290 net.cpp:425] inception_5a/pool <- pool4/3x3_s2_pool4/3x3_s2_0_split_3
I0403 16:38:11.404947 21290 net.cpp:399] inception_5a/pool -> inception_5a/pool
I0403 16:38:11.405014 21290 net.cpp:141] Setting up inception_5a/pool
I0403 16:38:11.405038 21290 net.cpp:148] Top shape: 24 832 7 7 (978432)
I0403 16:38:11.405056 21290 net.cpp:156] Memory required for data: 1304469024
I0403 16:38:11.405071 21290 layer_factory.hpp:77] Creating layer inception_5a/pool_proj
I0403 16:38:11.405092 21290 net.cpp:91] Creating Layer inception_5a/pool_proj
I0403 16:38:11.405109 21290 net.cpp:425] inception_5a/pool_proj <- inception_5a/pool
I0403 16:38:11.405127 21290 net.cpp:399] inception_5a/pool_proj -> inception_5a/pool_proj
I0403 16:38:11.407341 21290 net.cpp:141] Setting up inception_5a/pool_proj
I0403 16:38:11.407369 21290 net.cpp:148] Top shape: 24 128 7 7 (150528)
I0403 16:38:11.407384 21290 net.cpp:156] Memory required for data: 1305071136
I0403 16:38:11.407407 21290 layer_factory.hpp:77] Creating layer inception_5a/relu_pool_proj
I0403 16:38:11.407426 21290 net.cpp:91] Creating Layer inception_5a/relu_pool_proj
I0403 16:38:11.407444 21290 net.cpp:425] inception_5a/relu_pool_proj <- inception_5a/pool_proj
I0403 16:38:11.407465 21290 net.cpp:386] inception_5a/relu_pool_proj -> inception_5a/pool_proj (in-place)
I0403 16:38:11.407775 21290 net.cpp:141] Setting up inception_5a/relu_pool_proj
I0403 16:38:11.407806 21290 net.cpp:148] Top shape: 24 128 7 7 (150528)
I0403 16:38:11.407825 21290 net.cpp:156] Memory required for data: 1305673248
I0403 16:38:11.407850 21290 layer_factory.hpp:77] Creating layer inception_5a/output
I0403 16:38:11.407887 21290 net.cpp:91] Creating Layer inception_5a/output
I0403 16:38:11.407909 21290 net.cpp:425] inception_5a/output <- inception_5a/1x1
I0403 16:38:11.407934 21290 net.cpp:425] inception_5a/output <- inception_5a/3x3
I0403 16:38:11.407950 21290 net.cpp:425] inception_5a/output <- inception_5a/5x5
I0403 16:38:11.407964 21290 net.cpp:425] inception_5a/output <- inception_5a/pool_proj
I0403 16:38:11.407980 21290 net.cpp:399] inception_5a/output -> inception_5a/output
I0403 16:38:11.408031 21290 net.cpp:141] Setting up inception_5a/output
I0403 16:38:11.408064 21290 net.cpp:148] Top shape: 24 832 7 7 (978432)
I0403 16:38:11.408082 21290 net.cpp:156] Memory required for data: 1309586976
I0403 16:38:11.408095 21290 layer_factory.hpp:77] Creating layer inception_5a/output_inception_5a/output_0_split
I0403 16:38:11.408112 21290 net.cpp:91] Creating Layer inception_5a/output_inception_5a/output_0_split
I0403 16:38:11.408125 21290 net.cpp:425] inception_5a/output_inception_5a/output_0_split <- inception_5a/output
I0403 16:38:11.408155 21290 net.cpp:399] inception_5a/output_inception_5a/output_0_split -> inception_5a/output_inception_5a/output_0_split_0
I0403 16:38:11.408176 21290 net.cpp:399] inception_5a/output_inception_5a/output_0_split -> inception_5a/output_inception_5a/output_0_split_1
I0403 16:38:11.408197 21290 net.cpp:399] inception_5a/output_inception_5a/output_0_split -> inception_5a/output_inception_5a/output_0_split_2
I0403 16:38:11.408216 21290 net.cpp:399] inception_5a/output_inception_5a/output_0_split -> inception_5a/output_inception_5a/output_0_split_3
I0403 16:38:11.408334 21290 net.cpp:141] Setting up inception_5a/output_inception_5a/output_0_split
I0403 16:38:11.408360 21290 net.cpp:148] Top shape: 24 832 7 7 (978432)
I0403 16:38:11.408376 21290 net.cpp:148] Top shape: 24 832 7 7 (978432)
I0403 16:38:11.408391 21290 net.cpp:148] Top shape: 24 832 7 7 (978432)
I0403 16:38:11.408406 21290 net.cpp:148] Top shape: 24 832 7 7 (978432)
I0403 16:38:11.408419 21290 net.cpp:156] Memory required for data: 1325241888
I0403 16:38:11.408433 21290 layer_factory.hpp:77] Creating layer inception_5b/1x1
I0403 16:38:11.408455 21290 net.cpp:91] Creating Layer inception_5b/1x1
I0403 16:38:11.408473 21290 net.cpp:425] inception_5b/1x1 <- inception_5a/output_inception_5a/output_0_split_0
I0403 16:38:11.408491 21290 net.cpp:399] inception_5b/1x1 -> inception_5b/1x1
I0403 16:38:11.412261 21290 net.cpp:141] Setting up inception_5b/1x1
I0403 16:38:11.412292 21290 net.cpp:148] Top shape: 24 384 7 7 (451584)
I0403 16:38:11.412307 21290 net.cpp:156] Memory required for data: 1327048224
I0403 16:38:11.412325 21290 layer_factory.hpp:77] Creating layer inception_5b/relu_1x1
I0403 16:38:11.412345 21290 net.cpp:91] Creating Layer inception_5b/relu_1x1
I0403 16:38:11.412363 21290 net.cpp:425] inception_5b/relu_1x1 <- inception_5b/1x1
I0403 16:38:11.412379 21290 net.cpp:386] inception_5b/relu_1x1 -> inception_5b/1x1 (in-place)
I0403 16:38:11.412686 21290 net.cpp:141] Setting up inception_5b/relu_1x1
I0403 16:38:11.412714 21290 net.cpp:148] Top shape: 24 384 7 7 (451584)
I0403 16:38:11.412727 21290 net.cpp:156] Memory required for data: 1328854560
I0403 16:38:11.412741 21290 layer_factory.hpp:77] Creating layer inception_5b/3x3_reduce
I0403 16:38:11.412763 21290 net.cpp:91] Creating Layer inception_5b/3x3_reduce
I0403 16:38:11.412781 21290 net.cpp:425] inception_5b/3x3_reduce <- inception_5a/output_inception_5a/output_0_split_1
I0403 16:38:11.412802 21290 net.cpp:399] inception_5b/3x3_reduce -> inception_5b/3x3_reduce
I0403 16:38:11.415470 21290 net.cpp:141] Setting up inception_5b/3x3_reduce
I0403 16:38:11.415503 21290 net.cpp:148] Top shape: 24 192 7 7 (225792)
I0403 16:38:11.415518 21290 net.cpp:156] Memory required for data: 1329757728
I0403 16:38:11.415536 21290 layer_factory.hpp:77] Creating layer inception_5b/relu_3x3_reduce
I0403 16:38:11.415556 21290 net.cpp:91] Creating Layer inception_5b/relu_3x3_reduce
I0403 16:38:11.415573 21290 net.cpp:425] inception_5b/relu_3x3_reduce <- inception_5b/3x3_reduce
I0403 16:38:11.415591 21290 net.cpp:386] inception_5b/relu_3x3_reduce -> inception_5b/3x3_reduce (in-place)
I0403 16:38:11.415783 21290 net.cpp:141] Setting up inception_5b/relu_3x3_reduce
I0403 16:38:11.415809 21290 net.cpp:148] Top shape: 24 192 7 7 (225792)
I0403 16:38:11.415825 21290 net.cpp:156] Memory required for data: 1330660896
I0403 16:38:11.415839 21290 layer_factory.hpp:77] Creating layer inception_5b/3x3
I0403 16:38:11.415860 21290 net.cpp:91] Creating Layer inception_5b/3x3
I0403 16:38:11.415877 21290 net.cpp:425] inception_5b/3x3 <- inception_5b/3x3_reduce
I0403 16:38:11.415895 21290 net.cpp:399] inception_5b/3x3 -> inception_5b/3x3
I0403 16:38:11.422621 21290 net.cpp:141] Setting up inception_5b/3x3
I0403 16:38:11.422651 21290 net.cpp:148] Top shape: 24 384 7 7 (451584)
I0403 16:38:11.422665 21290 net.cpp:156] Memory required for data: 1332467232
I0403 16:38:11.422683 21290 layer_factory.hpp:77] Creating layer inception_5b/relu_3x3
I0403 16:38:11.422703 21290 net.cpp:91] Creating Layer inception_5b/relu_3x3
I0403 16:38:11.422720 21290 net.cpp:425] inception_5b/relu_3x3 <- inception_5b/3x3
I0403 16:38:11.422737 21290 net.cpp:386] inception_5b/relu_3x3 -> inception_5b/3x3 (in-place)
I0403 16:38:11.423040 21290 net.cpp:141] Setting up inception_5b/relu_3x3
I0403 16:38:11.423070 21290 net.cpp:148] Top shape: 24 384 7 7 (451584)
I0403 16:38:11.423085 21290 net.cpp:156] Memory required for data: 1334273568
I0403 16:38:11.423100 21290 layer_factory.hpp:77] Creating layer inception_5b/5x5_reduce
I0403 16:38:11.423142 21290 net.cpp:91] Creating Layer inception_5b/5x5_reduce
I0403 16:38:11.423163 21290 net.cpp:425] inception_5b/5x5_reduce <- inception_5a/output_inception_5a/output_0_split_2
I0403 16:38:11.423182 21290 net.cpp:399] inception_5b/5x5_reduce -> inception_5b/5x5_reduce
I0403 16:38:11.424479 21290 net.cpp:141] Setting up inception_5b/5x5_reduce
I0403 16:38:11.424505 21290 net.cpp:148] Top shape: 24 48 7 7 (56448)
I0403 16:38:11.424521 21290 net.cpp:156] Memory required for data: 1334499360
I0403 16:38:11.424538 21290 layer_factory.hpp:77] Creating layer inception_5b/relu_5x5_reduce
I0403 16:38:11.424558 21290 net.cpp:91] Creating Layer inception_5b/relu_5x5_reduce
I0403 16:38:11.424576 21290 net.cpp:425] inception_5b/relu_5x5_reduce <- inception_5b/5x5_reduce
I0403 16:38:11.424592 21290 net.cpp:386] inception_5b/relu_5x5_reduce -> inception_5b/5x5_reduce (in-place)
I0403 16:38:11.424973 21290 net.cpp:141] Setting up inception_5b/relu_5x5_reduce
I0403 16:38:11.425000 21290 net.cpp:148] Top shape: 24 48 7 7 (56448)
I0403 16:38:11.425014 21290 net.cpp:156] Memory required for data: 1334725152
I0403 16:38:11.425029 21290 layer_factory.hpp:77] Creating layer inception_5b/5x5
I0403 16:38:11.425052 21290 net.cpp:91] Creating Layer inception_5b/5x5
I0403 16:38:11.425071 21290 net.cpp:425] inception_5b/5x5 <- inception_5b/5x5_reduce
I0403 16:38:11.425089 21290 net.cpp:399] inception_5b/5x5 -> inception_5b/5x5
I0403 16:38:11.427172 21290 net.cpp:141] Setting up inception_5b/5x5
I0403 16:38:11.427202 21290 net.cpp:148] Top shape: 24 128 7 7 (150528)
I0403 16:38:11.427218 21290 net.cpp:156] Memory required for data: 1335327264
I0403 16:38:11.427235 21290 layer_factory.hpp:77] Creating layer inception_5b/relu_5x5
I0403 16:38:11.427253 21290 net.cpp:91] Creating Layer inception_5b/relu_5x5
I0403 16:38:11.427269 21290 net.cpp:425] inception_5b/relu_5x5 <- inception_5b/5x5
I0403 16:38:11.427289 21290 net.cpp:386] inception_5b/relu_5x5 -> inception_5b/5x5 (in-place)
I0403 16:38:11.427485 21290 net.cpp:141] Setting up inception_5b/relu_5x5
I0403 16:38:11.427510 21290 net.cpp:148] Top shape: 24 128 7 7 (150528)
I0403 16:38:11.427523 21290 net.cpp:156] Memory required for data: 1335929376
I0403 16:38:11.427537 21290 layer_factory.hpp:77] Creating layer inception_5b/pool
I0403 16:38:11.427556 21290 net.cpp:91] Creating Layer inception_5b/pool
I0403 16:38:11.427572 21290 net.cpp:425] inception_5b/pool <- inception_5a/output_inception_5a/output_0_split_3
I0403 16:38:11.427590 21290 net.cpp:399] inception_5b/pool -> inception_5b/pool
I0403 16:38:11.427664 21290 net.cpp:141] Setting up inception_5b/pool
I0403 16:38:11.427688 21290 net.cpp:148] Top shape: 24 832 7 7 (978432)
I0403 16:38:11.427702 21290 net.cpp:156] Memory required for data: 1339843104
I0403 16:38:11.427716 21290 layer_factory.hpp:77] Creating layer inception_5b/pool_proj
I0403 16:38:11.427738 21290 net.cpp:91] Creating Layer inception_5b/pool_proj
I0403 16:38:11.427757 21290 net.cpp:425] inception_5b/pool_proj <- inception_5b/pool
I0403 16:38:11.427774 21290 net.cpp:399] inception_5b/pool_proj -> inception_5b/pool_proj
I0403 16:38:11.430107 21290 net.cpp:141] Setting up inception_5b/pool_proj
I0403 16:38:11.430137 21290 net.cpp:148] Top shape: 24 128 7 7 (150528)
I0403 16:38:11.430155 21290 net.cpp:156] Memory required for data: 1340445216
I0403 16:38:11.430173 21290 layer_factory.hpp:77] Creating layer inception_5b/relu_pool_proj
I0403 16:38:11.430191 21290 net.cpp:91] Creating Layer inception_5b/relu_pool_proj
I0403 16:38:11.430210 21290 net.cpp:425] inception_5b/relu_pool_proj <- inception_5b/pool_proj
I0403 16:38:11.430227 21290 net.cpp:386] inception_5b/relu_pool_proj -> inception_5b/pool_proj (in-place)
I0403 16:38:11.430526 21290 net.cpp:141] Setting up inception_5b/relu_pool_proj
I0403 16:38:11.430552 21290 net.cpp:148] Top shape: 24 128 7 7 (150528)
I0403 16:38:11.430570 21290 net.cpp:156] Memory required for data: 1341047328
I0403 16:38:11.430584 21290 layer_factory.hpp:77] Creating layer inception_5b/output
I0403 16:38:11.430601 21290 net.cpp:91] Creating Layer inception_5b/output
I0403 16:38:11.430630 21290 net.cpp:425] inception_5b/output <- inception_5b/1x1
I0403 16:38:11.430646 21290 net.cpp:425] inception_5b/output <- inception_5b/3x3
I0403 16:38:11.430662 21290 net.cpp:425] inception_5b/output <- inception_5b/5x5
I0403 16:38:11.430678 21290 net.cpp:425] inception_5b/output <- inception_5b/pool_proj
I0403 16:38:11.430694 21290 net.cpp:399] inception_5b/output -> inception_5b/output
I0403 16:38:11.430748 21290 net.cpp:141] Setting up inception_5b/output
I0403 16:38:11.430771 21290 net.cpp:148] Top shape: 24 1024 7 7 (1204224)
I0403 16:38:11.430785 21290 net.cpp:156] Memory required for data: 1345864224
I0403 16:38:11.430799 21290 layer_factory.hpp:77] Creating layer pool5/7x7_s1
I0403 16:38:11.430819 21290 net.cpp:91] Creating Layer pool5/7x7_s1
I0403 16:38:11.430835 21290 net.cpp:425] pool5/7x7_s1 <- inception_5b/output
I0403 16:38:11.430852 21290 net.cpp:399] pool5/7x7_s1 -> pool5/7x7_s1
I0403 16:38:11.431080 21290 net.cpp:141] Setting up pool5/7x7_s1
I0403 16:38:11.431107 21290 net.cpp:148] Top shape: 24 1024 1 1 (24576)
I0403 16:38:11.431123 21290 net.cpp:156] Memory required for data: 1345962528
I0403 16:38:11.431138 21290 layer_factory.hpp:77] Creating layer pool5/drop_7x7_s1
I0403 16:38:11.431155 21290 net.cpp:91] Creating Layer pool5/drop_7x7_s1
I0403 16:38:11.431171 21290 net.cpp:425] pool5/drop_7x7_s1 <- pool5/7x7_s1
I0403 16:38:11.431188 21290 net.cpp:386] pool5/drop_7x7_s1 -> pool5/7x7_s1 (in-place)
I0403 16:38:11.431239 21290 net.cpp:141] Setting up pool5/drop_7x7_s1
I0403 16:38:11.431262 21290 net.cpp:148] Top shape: 24 1024 1 1 (24576)
I0403 16:38:11.431277 21290 net.cpp:156] Memory required for data: 1346060832
I0403 16:38:11.431290 21290 layer_factory.hpp:77] Creating layer loss3/classifier_plantvillage
I0403 16:38:11.431311 21290 net.cpp:91] Creating Layer loss3/classifier_plantvillage
I0403 16:38:11.431327 21290 net.cpp:425] loss3/classifier_plantvillage <- pool5/7x7_s1
I0403 16:38:11.431346 21290 net.cpp:399] loss3/classifier_plantvillage -> loss3/classifier_plantvillage
I0403 16:38:11.431777 21290 net.cpp:141] Setting up loss3/classifier_plantvillage
I0403 16:38:11.431802 21290 net.cpp:148] Top shape: 24 38 (912)
I0403 16:38:11.431816 21290 net.cpp:156] Memory required for data: 1346064480
I0403 16:38:11.431833 21290 layer_factory.hpp:77] Creating layer loss3/classifier_plantvillage_loss3/classifier_plantvillage_0_split
I0403 16:38:11.431851 21290 net.cpp:91] Creating Layer loss3/classifier_plantvillage_loss3/classifier_plantvillage_0_split
I0403 16:38:11.431866 21290 net.cpp:425] loss3/classifier_plantvillage_loss3/classifier_plantvillage_0_split <- loss3/classifier_plantvillage
I0403 16:38:11.431886 21290 net.cpp:399] loss3/classifier_plantvillage_loss3/classifier_plantvillage_0_split -> loss3/classifier_plantvillage_loss3/classifier_plantvillage_0_split_0
I0403 16:38:11.431907 21290 net.cpp:399] loss3/classifier_plantvillage_loss3/classifier_plantvillage_0_split -> loss3/classifier_plantvillage_loss3/classifier_plantvillage_0_split_1
I0403 16:38:11.431929 21290 net.cpp:399] loss3/classifier_plantvillage_loss3/classifier_plantvillage_0_split -> loss3/classifier_plantvillage_loss3/classifier_plantvillage_0_split_2
I0403 16:38:11.431949 21290 net.cpp:399] loss3/classifier_plantvillage_loss3/classifier_plantvillage_0_split -> loss3/classifier_plantvillage_loss3/classifier_plantvillage_0_split_3
I0403 16:38:11.432057 21290 net.cpp:141] Setting up loss3/classifier_plantvillage_loss3/classifier_plantvillage_0_split
I0403 16:38:11.432083 21290 net.cpp:148] Top shape: 24 38 (912)
I0403 16:38:11.432101 21290 net.cpp:148] Top shape: 24 38 (912)
I0403 16:38:11.432116 21290 net.cpp:148] Top shape: 24 38 (912)
I0403 16:38:11.432129 21290 net.cpp:148] Top shape: 24 38 (912)
I0403 16:38:11.432142 21290 net.cpp:156] Memory required for data: 1346079072
I0403 16:38:11.432157 21290 layer_factory.hpp:77] Creating layer loss1/loss
I0403 16:38:11.432178 21290 net.cpp:91] Creating Layer loss1/loss
I0403 16:38:11.432193 21290 net.cpp:425] loss1/loss <- loss1/classifier_plantvillage_loss1/classifier_plantvillage_0_split_0
I0403 16:38:11.432224 21290 net.cpp:425] loss1/loss <- label_data_1_split_0
…
