…
I0403 16:29:57.448828 21139 net.cpp:313] The NetState phase (1) differed from the phase (0) specified by a rule in layer data
I0403 16:29:57.449990 21139 net.cpp:49] Initializing net from parameters: 
state {
  phase: TEST
}
layer {
  name: "data"
  type: "Data"
  top: "data"
  top: "label"
  include {
    phase: TEST
  }
  transform_param {
    mirror: false
    crop_size: 224
    mean_file: "/home/mohanty/data/final_dataset/lmdb/grayscale-20-80/mean.binaryproto"
  }
  data_param {
    source: "/home/mohanty/data/final_dataset/lmdb/grayscale-20-80/test_db"
    batch_size: 24
    backend: LMDB
  }
}
layer {
  name: "conv1/7x7_s2"
  type: "Convolution"
  bottom: "data"
  top: "conv1/7x7_s2"
  param {
    lr_mult: 1
    decay_mult: 1
  }
  param {
    lr_mult: 2
    decay_mult: 0
  }
  convolution_param {
    num_output: 64
    pad: 3
    kernel_size: 7
    stride: 2
    weight_filler {
      type: "xavier"
      std: 0.1
    }
    bias_filler {
      type: "constant"
      value: 0.2
    }
  }
}
layer {
  name: "conv1/relu_7x7"
  type: "ReLU"
  bottom: "conv1/7x7_s2"
  top: "conv1/7x7_s2"
}
layer {
  name: "pool1/3x3_s2"
  type: "Pooling"
  bottom: "conv1/7x7_s2"
  top: "pool1/3x3_s2"
  pooling_param {
    pool: MAX
    kernel_size: 3
    stride: 2
  }
}
layer {
  name: "pool1/norm1"
  type: "LRN"
  bottom: "pool1/3x3_s2"
  top: "pool1/norm1"
  lrn_param {
    local_size: 5
    alpha: 0.0001
    beta: 0.75
  }
}
layer {
  name: "conv2/3x3_reduce"
  type: "Convolution"
  bottom: "pool1/norm1"
  top: "conv2/3x3_reduce"
  param {
    lr_mult: 1
    decay_mult: 1
  }
  param {
    lr_mult: 2
    decay_mult: 0
  }
  convolution_param {
    num_output: 64
    kernel_size: 1
    weight_filler {
      type: "xavier"
      std: 0.1
    }
    bias_filler {
      type: "constant"
      value: 0.2
    }
  }
}
layer {
  name: "conv2/relu_3x3_reduce"
  type: "ReLU"
  bottom: "conv2/3x3_reduce"
  top: "conv2/3x3_reduce"
}
layer {
  name: "conv2/3x3"
  type: "Convolution"
  bottom: "conv2/3x3_reduce"
  top: "conv2/3x3"
  param {
    lr_mult: 1
    decay_mult: 1
  }
  param {
    lr_mult: 2
    decay_mult: 0
  }
  convolution_param {
    num_output: 192
    pad: 1
    kernel_size: 3
    weight_filler {
      type: "xavier"
      std: 0.03
    }
    bias_filler {
      type: "constant"
      value: 0.2
    }
  }
}
layer {
  name: "conv2/relu_3x3"
  type: "ReLU"
  bottom: "conv2/3x3"
  top: "conv2/3x3"
}
layer {
  name: "conv2/norm2"
  type: "LRN"
  bottom: "conv2/3x3"
  top: "conv2/norm2"
  lrn_param {
    local_size: 5
    alpha: 0.0001
    beta: 0.75
  }
}
layer {
  name: "pool2/3x3_s2"
  type: "Pooling"
  bottom: "conv2/norm2"
  top: "pool2/3x3_s2"
  pooling_param {
    pool: MAX
    kernel_size: 3
    stride: 2
  }
}
layer {
  name: "inception_3a/1x1"
  type: "Convolution"
  bottom: "pool2/3x3_s2"
  top: "inception_3a/1x1"
  param {
    lr_mult: 1
    decay_mult: 1
  }
  param {
    lr_mult: 2
    decay_mult: 0
  }
  convolution_param {
    num_output: 64
    kernel_size: 1
    weight_filler {
      type: "xavier"
      std: 0.03
    }
    bias_filler {
      type: "constant"
      value: 0.2
    }
  }
}
layer {
  name: "inception_3a/relu_1x1"
  type: "ReLU"
  bottom: "inception_3a/1x1"
  top: "inception_3a/1x1"
}
layer {
  name: "inception_3a/3x3_reduce"
  type: "Convolution"
  bottom: "pool2/3x3_s2"
  top: "inception_3a/3x3_reduce"
  param {
    lr_mult: 1
    decay_mult: 1
  }
  param {
    lr_mult: 2
    decay_mult: 0
  }
  convolution_param {
    num_output: 96
    kernel_size: 1
    weight_filler {
      type: "xavier"
      std: 0.09
    }
    bias_filler {
      type: "constant"
      value: 0.2
    }
  }
}
layer {
  name: "inception_3a/relu_3x3_reduce"
  type: "ReLU"
  bottom: "inception_3a/3x3_reduce"
  top: "inception_3a/3x3_reduce"
}
layer {
  name: "inception_3a/3x3"
  type: "Convolution"
  bottom: "inception_3a/3x3_reduce"
  top: "inception_3a/3x3"
  param {
    lr_mult: 1
    decay_mult: 1
  }
  param {
    lr_mult: 2
    decay_mult: 0
  }
  convolution_param {
    num_output: 128
    pad: 1
    kernel_size: 3
    weight_filler {
      type: "xavier"
      std: 0.03
    }
    bias_filler {
      type: "constant"
      value: 0.2
    }
  }
}
layer {
  name: "inception_3a/relu_3x3"
  type: "ReLU"
  bottom: "inception_3a/3x3"
  top: "inception_3a/3x3"
}
layer {
  name: "inception_3a/5x5_reduce"
  type: "Convolution"
  bottom: "pool2/3x3_s2"
  top: "inception_3a/5x5_reduce"
  param {
    lr_mult: 1
    decay_mult: 1
  }
  param {
    lr_mult: 2
    decay_mult: 0
  }
  convolution_param {
    num_output: 16
    kernel_size: 1
    weight_filler {
      type: "xavier"
      std: 0.2
    }
    bias_filler {
      type: "constant"
      value: 0.2
    }
  }
}
layer {
  name: "inception_3a/relu_5x5_reduce"
  type: "ReLU"
  bottom: "inception_3a/5x5_reduce"
  top: "inception_3a/5x5_reduce"
}
layer {
  name: "inception_3a/5x5"
  type: "Convolution"
  bottom: "inception_3a/5x5_reduce"
  top: "inception_3a/5x5"
  param {
    lr_mult: 1
    decay_mult: 1
  }
  param {
    lr_mult: 2
    decay_mult: 0
  }
  convolution_param {
    num_output: 32
    pad: 2
    kernel_size: 5
    weight_filler {
      type: "xavier"
      std: 0.03
    }
    bias_filler {
      type: "constant"
      value: 0.2
    }
  }
}
layer {
  name: "inception_3a/relu_5x5"
  type: "ReLU"
  bottom: "inception_3a/5x5"
  top: "inception_3a/5x5"
}
layer {
  name: "inception_3a/pool"
  type: "Pooling"
  bottom: "pool2/3x3_s2"
  top: "inception_3a/pool"
  pooling_param {
    pool: MAX
    kernel_size: 3
    stride: 1
    pad: 1
  }
}
layer {
  name: "inception_3a/pool_proj"
  type: "Convolution"
  bottom: "inception_3a/pool"
  top: "inception_3a/pool_proj"
  param {
    lr_mult: 1
    decay_mult: 1
  }
  param {
    lr_mult: 2
    decay_mult: 0
  }
  convolution_param {
    num_output: 32
    kernel_size: 1
    weight_filler {
      type: "xavier"
      std: 0.1
    }
    bias_filler {
      type: "constant"
      value: 0.2
    }
  }
}
layer {
  name: "inception_3a/relu_pool_proj"
  type: "ReLU"
  bottom: "inception_3a/pool_proj"
  top: "inception_3a/pool_proj"
}
layer {
  name: "inception_3a/output"
  type: "Concat"
  bottom: "inception_3a/1x1"
  bottom: "inception_3a/3x3"
  bottom: "inception_3a/5x5"
  bottom: "inception_3a/pool_proj"
  top: "inception_3a/output"
}
layer {
  name: "inception_3b/1x1"
  type: "Convolution"
  bottom: "inception_3a/output"
  top: "inception_3b/1x1"
  param {
    lr_mult: 1
    decay_mult: 1
  }
  param {
    lr_mult: 2
    decay_mult: 0
  }
  convolution_param {
    num_output: 128
    kernel_size: 1
    weight_filler {
      type: "xavier"
      std: 0.03
    }
    bias_filler {
      type: "constant"
      value: 0.2
    }
  }
}
layer {
  name: "inception_3b/relu_1x1"
  type: "ReLU"
  bottom: "inception_3b/1x1"
  top: "inception_3b/1x1"
}
layer {
  name: "inception_3b/3x3_reduce"
  type: "Convolution"
  bottom: "inception_3a/output"
  top: "inception_3b/3x3_reduce"
  param {
    lr_mult: 1
    decay_mult: 1
  }
  param {
    lr_mult: 2
    decay_mult: 0
  }
  convolution_param {
    num_output: 128
    kernel_size: 1
    weight_filler {
      type: "xavier"
      std: 0.09
    }
    bias_filler {
      type: "constant"
      value: 0.2
    }
  }
}
layer {
  name: "inception_3b/relu_3x3_reduce"
  type: "ReLU"
  bottom: "inception_3b/3x3_reduce"
  top: "inception_3b/3x3_reduce"
}
layer {
  name: "inception_3b/3x3"
  type: "Convolution"
  bottom: "inception_3b/3x3_reduce"
  top: "inception_3b/3x3"
  param {
    lr_mult: 1
    decay_mult: 1
  }
  param {
    lr_mult: 2
    decay_mult: 0
  }
  convolution_param {
    num_output: 192
    pad: 1
    kernel_size: 3
    weight_filler {
      type: "xavier"
      std: 0.03
    }
    bias_filler {
      type: "constant"
      value: 0.2
    }
  }
}
layer {
  name: "inception_3b/relu_3x3"
  type: "ReLU"
  bottom: "inception_3b/3x3"
  top: "inception_3b/3x3"
}
layer {
  name: "inception_3b/5x5_reduce"
  type: "Convolution"
  bottom: "inception_3a/output"
  top: "inception_3b/5x5_reduce"
  param {
    lr_mult: 1
    decay_mult: 1
  }
  param {
    lr_mult: 2
    decay_mult: 0
  }
  convolution_param {
    num_output: 32
    kernel_size: 1
    weight_filler {
      type: "xavier"
      std: 0.2
    }
    bias_filler {
      type: "constant"
      value: 0.2
    }
  }
}
layer {
  name: "inception_3b/relu_5x5_reduce"
  type: "ReLU"
  bottom: "inception_3b/5x5_reduce"
  top: "inception_3b/5x5_reduce"
}
layer {
  name: "inception_3b/5x5"
  type: "Convolution"
  bottom: "inception_3b/5x5_reduce"
  top: "inception_3b/5x5"
  param {
    lr_mult: 1
    decay_mult: 1
  }
  param {
    lr_mult: 2
    decay_mult: 0
  }
  convolution_param {
    num_output: 96
    pad: 2
    kernel_size: 5
    weight_filler {
      type: "xavier"
      std: 0.03
    }
    bias_filler {
      type: "constant"
      value: 0.2
    }
  }
}
layer {
  name: "inception_3b/relu_5x5"
  type: "ReLU"
  bottom: "inception_3b/5x5"
  top: "inception_3b/5x5"
}
layer {
  name: "inception_3b/pool"
  type: "Pooling"
  bottom: "inception_3a/output"
  top: "inception_3b/pool"
  pooling_param {
    pool: MAX
    kernel_size: 3
    stride: 1
    pad: 1
  }
}
layer {
  name: "inception_3b/pool_proj"
  type: "Convolution"
  bottom: "inception_3b/pool"
  top: "inception_3b/pool_proj"
  param {
    lr_mult: 1
    decay_mult: 1
  }
  param {
    lr_mult: 2
    decay_mult: 0
  }
  convolution_param {
    num_output: 64
    kernel_size: 1
    weight_filler {
      type: "xavier"
      std: 0.1
    }
    bias_filler {
      type: "constant"
      value: 0.2
    }
  }
}
layer {
  name: "inception_3b/relu_pool_proj"
  type: "ReLU"
  bottom: "inception_3b/pool_proj"
  top: "inception_3b/pool_proj"
}
layer {
  name: "inception_3b/output"
  type: "Concat"
  bottom: "inception_3b/1x1"
  bottom: "inception_3b/3x3"
  bottom: "inception_3b/5x5"
  bottom: "inception_3b/pool_proj"
  top: "inception_3b/output"
}
layer {
  name: "pool3/3x3_s2"
  type: "Pooling"
  bottom: "inception_3b/output"
  top: "pool3/3x3_s2"
  pooling_param {
    pool: MAX
    kernel_size: 3
    stride: 2
  }
}
layer {
  name: "inception_4a/1x1"
  type: "Convolution"
  bottom: "pool3/3x3_s2"
  top: "inception_4a/1x1"
  param {
    lr_mult: 1
    decay_mult: 1
  }
  param {
    lr_mult: 2
    decay_mult: 0
  }
  convolution_param {
    num_output: 192
    kernel_size: 1
    weight_filler {
      type: "xavier"
      std: 0.03
    }
    bias_filler {
      type: "constant"
      value: 0.2
    }
  }
}
layer {
  name: "inception_4a/relu_1x1"
  type: "ReLU"
  bottom: "inception_4a/1x1"
  top: "inception_4a/1x1"
}
layer {
  name: "inception_4a/3x3_reduce"
  type: "Convolution"
  bottom: "pool3/3x3_s2"
  top: "inception_4a/3x3_reduce"
  param {
    lr_mult: 1
    decay_mult: 1
  }
  param {
    lr_mult: 2
    decay_mult: 0
  }
  convolution_param {
    num_output: 96
    kernel_size: 1
    weight_filler {
      type: "xavier"
      std: 0.09
    }
    bias_filler {
      type: "constant"
      value: 0.2
    }
  }
}
layer {
  name: "inception_4a/relu_3x3_reduce"
  type: "ReLU"
  bottom: "inception_4a/3x3_reduce"
  top: "inception_4a/3x3_reduce"
}
layer {
  name: "inception_4a/3x3"
  type: "Convolution"
  bottom: "inception_4a/3x3_reduce"
  top: "inception_4a/3x3"
  param {
    lr_mult: 1
    decay_mult: 1
  }
  param {
    lr_mult: 2
    decay_mult: 0
  }
  convolution_param {
    num_output: 208
    pad: 1
    kernel_size: 3
    weight_filler {
      type: "xavier"
      std: 0.03
    }
    bias_filler {
      type: "constant"
      value: 0.2
    }
  }
}
layer {
  name: "inception_4a/relu_3x3"
  type: "ReLU"
  bottom: "inception_4a/3x3"
  top: "inception_4a/3x3"
}
layer {
  name: "inception_4a/5x5_reduce"
  type: "Convolution"
  bottom: "pool3/3x3_s2"
  top: "inception_4a/5x5_reduce"
  param {
    lr_mult: 1
    decay_mult: 1
  }
  param {
    lr_mult: 2
    decay_mult: 0
  }
  convolution_param {
    num_output: 16
    kernel_size: 1
    weight_filler {
      type: "xavier"
      std: 0.2
    }
    bias_filler {
      type: "constant"
      value: 0.2
    }
  }
}
layer {
  name: "inception_4a/relu_5x5_reduce"
  type: "ReLU"
  bottom: "inception_4a/5x5_reduce"
  top: "inception_4a/5x5_reduce"
}
layer {
  name: "inception_4a/5x5"
  type: "Convolution"
  bottom: "inception_4a/5x5_reduce"
  top: "inception_4a/5x5"
  param {
    lr_mult: 1
    decay_mult: 1
  }
  param {
    lr_mult: 2
    decay_mult: 0
  }
  convolution_param {
    num_output: 48
    pad: 2
    kernel_size: 5
    weight_filler {
      type: "xavier"
      std: 0.03
    }
    bias_filler {
      type: "constant"
      value: 0.2
    }
  }
}
layer {
  name: "inception_4a/relu_5x5"
  type: "ReLU"
  bottom: "inception_4a/5x5"
  top: "inception_4a/5x5"
}
layer {
  name: "inception_4a/pool"
  type: "Pooling"
  bottom: "pool3/3x3_s2"
  top: "inception_4a/pool"
  pooling_param {
    pool: MAX
    kernel_size: 3
    stride: 1
    pad: 1
  }
}
layer {
  name: "inception_4a/pool_proj"
  type: "Convolution"
  bottom: "inception_4a/pool"
  top: "inception_4a/pool_proj"
  param {
    lr_mult: 1
    decay_mult: 1
  }
  param {
    lr_mult: 2
    decay_mult: 0
  }
  convolution_param {
    num_output: 64
    kernel_size: 1
    weight_filler {
      type: "xavier"
      std: 0.1
    }
    bias_filler {
      type: "constant"
      value: 0.2
    }
  }
}
layer {
  name: "inception_4a/relu_pool_proj"
  type: "ReLU"
  bottom: "inception_4a/pool_proj"
  top: "inception_4a/pool_proj"
}
layer {
  name: "inception_4a/output"
  type: "Concat"
  bottom: "inception_4a/1x1"
  bottom: "inception_4a/3x3"
  bottom: "inception_4a/5x5"
  bottom: "inception_4a/pool_proj"
  top: "inception_4a/output"
}
layer {
  name: "loss1/ave_pool"
  type: "Pooling"
  bottom: "inception_4a/output"
  top: "loss1/ave_pool"
  pooling_param {
    pool: AVE
    kernel_size: 5
    stride: 3
  }
}
layer {
  name: "loss1/conv"
  type: "Convolution"
  bottom: "loss1/ave_pool"
  top: "loss1/conv"
  param {
    lr_mult: 1
    decay_mult: 1
  }
  param {
    lr_mult: 2
    decay_mult: 0
  }
  convolution_param {
    num_output: 128
    kernel_size: 1
    weight_filler {
      type: "xavier"
      std: 0.08
    }
    bias_filler {
      type: "constant"
      value: 0.2
    }
  }
}
layer {
  name: "loss1/relu_conv"
  type: "ReLU"
  bottom: "loss1/conv"
  top: "loss1/conv"
}
layer {
  name: "loss1/fc"
  type: "InnerProduct"
  bottom: "loss1/conv"
  top: "loss1/fc"
  param {
    lr_mult: 1
    decay_mult: 1
  }
  param {
    lr_mult: 2
    decay_mult: 0
  }
  inner_product_param {
    num_output: 1024
    weight_filler {
      type: "xavier"
      std: 0.02
    }
    bias_filler {
      type: "constant"
      value: 0.2
    }
  }
}
layer {
  name: "loss1/relu_fc"
  type: "ReLU"
  bottom: "loss1/fc"
  top: "loss1/fc"
}
layer {
  name: "loss1/drop_fc"
  type: "Dropout"
  bottom: "loss1/fc"
  top: "loss1/fc"
  dropout_param {
    dropout_ratio: 0.7
  }
}
layer {
  name: "loss1/classifier_plantvillage"
  type: "InnerProduct"
  bottom: "loss1/fc"
  top: "loss1/classifier_plantvillage"
  param {
    lr_mult: 1
    decay_mult: 1
  }
  param {
    lr_mult: 2
    decay_mult: 0
  }
  inner_product_param {
    num_output: 38
    weight_filler {
      type: "xavier"
      std: 0.0009765625
    }
    bias_filler {
      type: "constant"
      value: 0
    }
  }
}
layer {
  name: "inception_4b/1x1"
  type: "Convolution"
  bottom: "inception_4a/output"
  top: "inception_4b/1x1"
  param {
    lr_mult: 1
    decay_mult: 1
  }
  param {
    lr_mult: 2
    decay_mult: 0
  }
  convolution_param {
    num_output: 160
    kernel_size: 1
    weight_filler {
      type: "xavier"
      std: 0.03
    }
    bias_filler {
      type: "constant"
      value: 0.2
    }
  }
}
layer {
  name: "inception_4b/relu_1x1"
  type: "ReLU"
  bottom: "inception_4b/1x1"
  top: "inception_4b/1x1"
}
layer {
  name: "inception_4b/3x3_reduce"
  type: "Convolution"
  bottom: "inception_4a/output"
  top: "inception_4b/3x3_reduce"
  param {
    lr_mult: 1
    decay_mult: 1
  }
  param {
    lr_mult: 2
    decay_mult: 0
  }
  convolution_param {
    num_output: 112
    kernel_size: 1
    weight_filler {
      type: "xavier"
      std: 0.09
    }
    bias_filler {
      type: "constant"
      value: 0.2
    }
  }
}
layer {
  name: "inception_4b/relu_3x3_reduce"
  type: "ReLU"
  bottom: "inception_4b/3x3_reduce"
  top: "inception_4b/3x3_reduce"
}
layer {
  name: "inception_4b/3x3"
  type: "Convolution"
  bottom: "inception_4b/3x3_reduce"
  top: "inception_4b/3x3"
  param {
    lr_mult: 1
    decay_mult: 1
  }
  param {
    lr_mult: 2
    decay_mult: 0
  }
  convolution_param {
    num_output: 224
    pad: 1
    kernel_size: 3
    weight_filler {
      type: "xavier"
      std: 0.03
    }
    bias_filler {
      type: "constant"
      value: 0.2
    }
  }
}
layer {
  name: "inception_4b/relu_3x3"
  type: "ReLU"
  bottom: "inception_4b/3x3"
  top: "inception_4b/3x3"
}
layer {
  name: "inception_4b/5x5_reduce"
  type: "Convolution"
  bottom: "inception_4a/output"
  top: "inception_4b/5x5_reduce"
  param {
    lr_mult: 1
    decay_mult: 1
  }
  param {
    lr_mult: 2
    decay_mult: 0
  }
  convolution_param {
    num_output: 24
    kernel_size: 1
    weight_filler {
      type: "xavier"
      std: 0.2
    }
    bias_filler {
      type: "constant"
      value: 0.2
    }
  }
}
layer {
  name: "inception_4b/relu_5x5_reduce"
  type: "ReLU"
  bottom: "inception_4b/5x5_reduce"
  top: "inception_4b/5x5_reduce"
}
layer {
  name: "inception_4b/5x5"
  type: "Convolution"
  bottom: "inception_4b/5x5_reduce"
  top: "inception_4b/5x5"
  param {
    lr_mult: 1
    decay_mult: 1
  }
  param {
    lr_mult: 2
    decay_mult: 0
  }
  convolution_param {
    num_output: 64
    pad: 2
    kernel_size: 5
    weight_filler {
      type: "xavier"
      std: 0.03
    }
    bias_filler {
      type: "constant"
      value: 0.2
    }
  }
}
layer {
  name: "inception_4b/relu_5x5"
  type: "ReLU"
  bottom: "inception_4b/5x5"
  top: "inception_4b/5x5"
}
layer {
  name: "inception_4b/pool"
  type: "Pooling"
  bottom: "inception_4a/output"
  top: "inception_4b/pool"
  pooling_param {
    pool: MAX
    kernel_size: 3
    stride: 1
    pad: 1
  }
}
layer {
  name: "inception_4b/pool_proj"
  type: "Convolution"
  bottom: "inception_4b/pool"
  top: "inception_4b/pool_proj"
  param {
    lr_mult: 1
    decay_mult: 1
  }
  param {
    lr_mult: 2
    decay_mult: 0
  }
  convolution_param {
    num_output: 64
    kernel_size: 1
    weight_filler {
      type: "xavier"
      std: 0.1
    }
    bias_filler {
      type: "constant"
      value: 0.2
    }
  }
}
layer {
  name: "inception_4b/relu_pool_proj"
  type: "ReLU"
  bottom: "inception_4b/pool_proj"
  top: "inception_4b/pool_proj"
}
layer {
  name: "inception_4b/output"
  type: "Concat"
  bottom: "inception_4b/1x1"
  bottom: "inception_4b/3x3"
  bottom: "inception_4b/5x5"
  bottom: "inception_4b/pool_proj"
  top: "inception_4b/output"
}
layer {
  name: "inception_4c/1x1"
  type: "Convolution"
  bottom: "inception_4b/output"
  top: "inception_4c/1x1"
  param {
    lr_mult: 1
    decay_mult: 1
  }
  param {
    lr_mult: 2
    decay_mult: 0
  }
  convolution_param {
    num_output: 128
    kernel_size: 1
    weight_filler {
      type: "xavier"
      std: 0.03
    }
    bias_filler {
      type: "constant"
      value: 0.2
    }
  }
}
layer {
  name: "inception_4c/relu_1x1"
  type: "ReLU"
  bottom: "inception_4c/1x1"
  top: "inception_4c/1x1"
}
layer {
  name: "inception_4c/3x3_reduce"
  type: "Convolution"
  bottom: "inception_4b/output"
  top: "inception_4c/3x3_reduce"
  param {
    lr_mult: 1
    decay_mult: 1
  }
  param {
    lr_mult: 2
    decay_mult: 0
  }
  convolution_param {
    num_output: 128
    kernel_size: 1
    weight_filler {
      type: "xavier"
      std: 0.09
    }
    bias_filler {
      type: "constant"
      value: 0.2
    }
  }
}
layer {
  name: "inception_4c/relu_3x3_reduce"
  type: "ReLU"
  bottom: "inception_4c/3x3_reduce"
  top: "inception_4c/3x3_reduce"
}
layer {
  name: "inception_4c/3x3"
  type: "Convolution"
  bottom: "inception_4c/3x3_reduce"
  top: "inception_4c/3x3"
  param {
    lr_mult: 1
    decay_mult: 1
  }
  param {
    lr_mult: 2
    decay_mult: 0
  }
  convolution_param {
    num_output: 256
    pad: 1
    kernel_size: 3
    weight_filler {
      type: "xavier"
      std: 0.03
    }
    bias_filler {
      type: "constant"
      value: 0.2
    }
  }
}
layer {
  name: "inception_4c/relu_3x3"
  type: "ReLU"
  bottom: "inception_4c/3x3"
  top: "inception_4c/3x3"
}
layer {
  name: "inception_4c/5x5_reduce"
  type: "Convolution"
  bottom: "inception_4b/output"
  top: "inception_4c/5x5_reduce"
  param {
    lr_mult: 1
    decay_mult: 1
  }
  param {
    lr_mult: 2
    decay_mult: 0
  }
  convolution_param {
    num_output: 24
    kernel_size: 1
    weight_filler {
      type: "xavier"
      std: 0.2
    }
    bias_filler {
      type: "constant"
      value: 0.2
    }
  }
}
layer {
  name: "inception_4c/relu_5x5_reduce"
  type: "ReLU"
  bottom: "inception_4c/5x5_reduce"
  top: "inception_4c/5x5_reduce"
}
layer {
  name: "inception_4c/5x5"
  type: "Convolution"
  bottom: "inception_4c/5x5_reduce"
  top: "inception_4c/5x5"
  param {
    lr_mult: 1
    decay_mult: 1
  }
  param {
    lr_mult: 2
    decay_mult: 0
  }
  convolution_param {
    num_output: 64
    pad: 2
    kernel_size: 5
    weight_filler {
      type: "xavier"
      std: 0.03
    }
    bias_filler {
      type: "constant"
      value: 0.2
    }
  }
}
layer {
  name: "inception_4c/relu_5x5"
  type: "ReLU"
  bottom: "inception_4c/5x5"
  top: "inception_4c/5x5"
}
layer {
  name: "inception_4c/pool"
  type: "Pooling"
  bottom: "inception_4b/output"
  top: "inception_4c/pool"
  pooling_param {
    pool: MAX
    kernel_size: 3
    stride: 1
    pad: 1
  }
}
layer {
  name: "inception_4c/pool_proj"
  type: "Convolution"
  bottom: "inception_4c/pool"
  top: "inception_4c/pool_proj"
  param {
    lr_mult: 1
    decay_mult: 1
  }
  param {
    lr_mult: 2
    decay_mult: 0
  }
  convolution_param {
    num_output: 64
    kernel_size: 1
    weight_filler {
      type: "xavier"
      std: 0.1
    }
    bias_filler {
      type: "constant"
      value: 0.2
    }
  }
}
layer {
  name: "inception_4c/relu_pool_proj"
  type: "ReLU"
  bottom: "inception_4c/pool_proj"
  top: "inception_4c/pool_proj"
}
layer {
  name: "inception_4c/output"
  type: "Concat"
  bottom: "inception_4c/1x1"
  bottom: "inception_4c/3x3"
  bottom: "inception_4c/5x5"
  bottom: "inception_4c/pool_proj"
  top: "inception_4c/output"
}
layer {
  name: "inception_4d/1x1"
  type: "Convolution"
  bottom: "inception_4c/output"
  top: "inception_4d/1x1"
  param {
    lr_mult: 1
    decay_mult: 1
  }
  param {
    lr_mult: 2
    decay_mult: 0
  }
  convolution_param {
    num_output: 112
    kernel_size: 1
    weight_filler {
      type: "xavier"
      std: 0.03
    }
    bias_filler {
      type: "constant"
      value: 0.2
    }
  }
}
layer {
  name: "inception_4d/relu_1x1"
  type: "ReLU"
  bottom: "inception_4d/1x1"
  top: "inception_4d/1x1"
}
layer {
  name: "inception_4d/3x3_reduce"
  type: "Convolution"
  bottom: "inception_4c/output"
  top: "inception_4d/3x3_reduce"
  param {
    lr_mult: 1
    decay_mult: 1
  }
  param {
    lr_mult: 2
    decay_mult: 0
  }
  convolution_param {
    num_output: 144
    kernel_size: 1
    weight_filler {
      type: "xavier"
      std: 0.09
    }
    bias_filler {
      type: "constant"
      value: 0.2
    }
  }
}
layer {
  name: "inception_4d/relu_3x3_reduce"
  type: "ReLU"
  bottom: "inception_4d/3x3_reduce"
  top: "inception_4d/3x3_reduce"
}
layer {
  name: "inception_4d/3x3"
  type: "Convolution"
  bottom: "inception_4d/3x3_reduce"
  top: "inception_4d/3x3"
  param {
    lr_mult: 1
    decay_mult: 1
  }
  param {
    lr_mult: 2
    decay_mult: 0
  }
  convolution_param {
    num_output: 288
    pad: 1
    kernel_size: 3
    weight_filler {
      type: "xavier"
      std: 0.03
    }
    bias_filler {
      type: "constant"
      value: 0.2
    }
  }
}
layer {
  name: "inception_4d/relu_3x3"
  type: "ReLU"
  bottom: "inception_4d/3x3"
  top: "inception_4d/3x3"
}
layer {
  name: "inception_4d/5x5_reduce"
  type: "Convolution"
  bottom: "inception_4c/output"
  top: "inception_4d/5x5_reduce"
  param {
    lr_mult: 1
    decay_mult: 1
  }
  param {
    lr_mult: 2
    decay_mult: 0
  }
  convolution_param {
    num_output: 32
    kernel_size: 1
    weight_filler {
      type: "xavier"
      std: 0.2
    }
    bias_filler {
      type: "constant"
      value: 0.2
    }
  }
}
layer {
  name: "inception_4d/relu_5x5_reduce"
  type: "ReLU"
  bottom: "inception_4d/5x5_reduce"
  top: "inception_4d/5x5_reduce"
}
layer {
  name: "inception_4d/5x5"
  type: "Convolution"
  bottom: "inception_4d/5x5_reduce"
  top: "inception_4d/5x5"
  param {
    lr_mult: 1
    decay_mult: 1
  }
  param {
    lr_mult: 2
    decay_mult: 0
  }
  convolution_param {
    num_output: 64
    pad: 2
    kernel_size: 5
    weight_filler {
      type: "xavier"
      std: 0.03
    }
    bias_filler {
      type: "constant"
      value: 0.2
    }
  }
}
layer {
  name: "inception_4d/relu_5x5"
  type: "ReLU"
  bottom: "inception_4d/5x5"
  top: "inception_4d/5x5"
}
layer {
  name: "inception_4d/pool"
  type: "Pooling"
  bottom: "inception_4c/output"
  top: "inception_4d/pool"
  pooling_param {
    pool: MAX
    kernel_size: 3
    stride: 1
    pad: 1
  }
}
layer {
  name: "inception_4d/pool_proj"
  type: "Convolution"
  bottom: "inception_4d/pool"
  top: "inception_4d/pool_proj"
  param {
    lr_mult: 1
    decay_mult: 1
  }
  param {
    lr_mult: 2
    decay_mult: 0
  }
  convolution_param {
    num_output: 64
    kernel_size: 1
    weight_filler {
      type: "xavier"
      std: 0.1
    }
    bias_filler {
      type: "constant"
      value: 0.2
    }
  }
}
layer {
  name: "inception_4d/relu_pool_proj"
  type: "ReLU"
  bottom: "inception_4d/pool_proj"
  top: "inception_4d/pool_proj"
}
layer {
  name: "inception_4d/output"
  type: "Concat"
  bottom: "inception_4d/1x1"
  bottom: "inception_4d/3x3"
  bottom: "inception_4d/5x5"
  bottom: "inception_4d/pool_proj"
  top: "inception_4d/output"
}
layer {
  name: "loss2/ave_pool"
  type: "Pooling"
  bottom: "inception_4d/output"
  top: "loss2/ave_pool"
  pooling_param {
    pool: AVE
    kernel_size: 5
    stride: 3
  }
}
layer {
  name: "loss2/conv"
  type: "Convolution"
  bottom: "loss2/ave_pool"
  top: "loss2/conv"
  param {
    lr_mult: 1
    decay_mult: 1
  }
  param {
    lr_mult: 2
    decay_mult: 0
  }
  convolution_param {
    num_output: 128
    kernel_size: 1
    weight_filler {
      type: "xavier"
      std: 0.08
    }
    bias_filler {
      type: "constant"
      value: 0.2
    }
  }
}
layer {
  name: "loss2/relu_conv"
  type: "ReLU"
  bottom: "loss2/conv"
  top: "loss2/conv"
}
layer {
  name: "loss2/fc"
  type: "InnerProduct"
  bottom: "loss2/conv"
  top: "loss2/fc"
  param {
    lr_mult: 1
    decay_mult: 1
  }
  param {
    lr_mult: 2
    decay_mult: 0
  }
  inner_product_param {
    num_output: 1024
    weight_filler {
      type: "xavier"
      std: 0.02
    }
    bias_filler {
      type: "constant"
      value: 0.2
    }
  }
}
layer {
  name: "loss2/relu_fc"
  type: "ReLU"
  bottom: "loss2/fc"
  top: "loss2/fc"
}
layer {
  name: "loss2/drop_fc"
  type: "Dropout"
  bottom: "loss2/fc"
  top: "loss2/fc"
  dropout_param {
    dropout_ratio: 0.7
  }
}
layer {
  name: "loss2/classifier_plantvillage"
  type: "InnerProduct"
  bottom: "loss2/fc"
  top: "loss2/classifier_plantvillage"
  param {
    lr_mult: 1
    decay_mult: 1
  }
  param {
    lr_mult: 2
    decay_mult: 0
  }
  inner_product_param {
    num_output: 38
    weight_filler {
      type: "xavier"
      std: 0.0009765625
    }
    bias_filler {
      type: "constant"
      value: 0
    }
  }
}
layer {
  name: "inception_4e/1x1"
  type: "Convolution"
  bottom: "inception_4d/output"
  top: "inception_4e/1x1"
  param {
    lr_mult: 1
    decay_mult: 1
  }
  param {
    lr_mult: 2
    decay_mult: 0
  }
  convolution_param {
    num_output: 256
    kernel_size: 1
    weight_filler {
      type: "xavier"
      std: 0.03
    }
    bias_filler {
      type: "constant"
      value: 0.2
    }
  }
}
layer {
  name: "inception_4e/relu_1x1"
  type: "ReLU"
  bottom: "inception_4e/1x1"
  top: "inception_4e/1x1"
}
layer {
  name: "inception_4e/3x3_reduce"
  type: "Convolution"
  bottom: "inception_4d/output"
  top: "inception_4e/3x3_reduce"
  param {
    lr_mult: 1
    decay_mult: 1
  }
  param {
    lr_mult: 2
    decay_mult: 0
  }
  convolution_param {
    num_output: 160
    kernel_size: 1
    weight_filler {
      type: "xavier"
      std: 0.09
    }
    bias_filler {
      type: "constant"
      value: 0.2
    }
  }
}
layer {
  name: "inception_4e/relu_3x3_reduce"
  type: "ReLU"
  bottom: "inception_4e/3x3_reduce"
  top: "inception_4e/3x3_reduce"
}
layer {
  name: "inception_4e/3x3"
  type: "Convolution"
  bottom: "inception_4e/3x3_reduce"
  top: "inception_4e/3x3"
  param {
    lr_mult: 1
    decay_mult: 1
  }
  param {
    lr_mult: 2
    decay_mult: 0
  }
  convolution_param {
    num_output: 320
    pad: 1
    kernel_size: 3
    weight_filler {
      type: "xavier"
      std: 0.03
    }
    bias_filler {
      type: "constant"
      value: 0.2
    }
  }
}
layer {
  name: "inception_4e/relu_3x3"
  type: "ReLU"
  bottom: "inception_4e/3x3"
  top: "inception_4e/3x3"
}
layer {
  name: "inception_4e/5x5_reduce"
  type: "Convolution"
  bottom: "inception_4d/output"
  top: "inception_4e/5x5_reduce"
  param {
    lr_mult: 1
    decay_mult: 1
  }
  param {
    lr_mult: 2
    decay_mult: 0
  }
  convolution_param {
    num_output: 32
    kernel_size: 1
    weight_filler {
      type: "xavier"
      std: 0.2
    }
    bias_filler {
      type: "constant"
      value: 0.2
    }
  }
}
layer {
  name: "inception_4e/relu_5x5_reduce"
  type: "ReLU"
  bottom: "inception_4e/5x5_reduce"
  top: "inception_4e/5x5_reduce"
}
layer {
  name: "inception_4e/5x5"
  type: "Convolution"
  bottom: "inception_4e/5x5_reduce"
  top: "inception_4e/
I0403 16:29:57.451248 21139 layer_factory.hpp:77] Creating layer data
I0403 16:29:57.451841 21139 net.cpp:91] Creating Layer data
I0403 16:29:57.451874 21139 net.cpp:399] data -> data
I0403 16:29:57.451923 21139 net.cpp:399] data -> label
I0403 16:29:57.451958 21139 data_transformer.cpp:25] Loading mean file from: /home/mohanty/data/final_dataset/lmdb/grayscale-20-80/mean.binaryproto
I0403 16:29:57.453176 21142 db_lmdb.cpp:38] Opened lmdb /home/mohanty/data/final_dataset/lmdb/grayscale-20-80/test_db
I0403 16:29:57.464803 21139 data_layer.cpp:41] output data size: 24,3,224,224
I0403 16:29:57.491410 21139 net.cpp:141] Setting up data
I0403 16:29:57.491518 21139 net.cpp:148] Top shape: 24 3 224 224 (3612672)
I0403 16:29:57.491539 21139 net.cpp:148] Top shape: 24 (24)
I0403 16:29:57.491554 21139 net.cpp:156] Memory required for data: 14450784
I0403 16:29:57.491580 21139 layer_factory.hpp:77] Creating layer label_data_1_split
I0403 16:29:57.491606 21139 net.cpp:91] Creating Layer label_data_1_split
I0403 16:29:57.491623 21139 net.cpp:425] label_data_1_split <- label
I0403 16:29:57.491654 21139 net.cpp:399] label_data_1_split -> label_data_1_split_0
I0403 16:29:57.491682 21139 net.cpp:399] label_data_1_split -> label_data_1_split_1
I0403 16:29:57.491703 21139 net.cpp:399] label_data_1_split -> label_data_1_split_2
I0403 16:29:57.491722 21139 net.cpp:399] label_data_1_split -> label_data_1_split_3
I0403 16:29:57.491741 21139 net.cpp:399] label_data_1_split -> label_data_1_split_4
I0403 16:29:57.491761 21139 net.cpp:399] label_data_1_split -> label_data_1_split_5
I0403 16:29:57.491780 21139 net.cpp:399] label_data_1_split -> label_data_1_split_6
I0403 16:29:57.491799 21139 net.cpp:399] label_data_1_split -> label_data_1_split_7
I0403 16:29:57.491818 21139 net.cpp:399] label_data_1_split -> label_data_1_split_8
I0403 16:29:57.491837 21139 net.cpp:399] label_data_1_split -> label_data_1_split_9
I0403 16:29:57.491956 21139 net.cpp:141] Setting up label_data_1_split
I0403 16:29:57.491979 21139 net.cpp:148] Top shape: 24 (24)
I0403 16:29:57.491996 21139 net.cpp:148] Top shape: 24 (24)
I0403 16:29:57.492010 21139 net.cpp:148] Top shape: 24 (24)
I0403 16:29:57.492025 21139 net.cpp:148] Top shape: 24 (24)
I0403 16:29:57.492040 21139 net.cpp:148] Top shape: 24 (24)
I0403 16:29:57.492061 21139 net.cpp:148] Top shape: 24 (24)
I0403 16:29:57.492079 21139 net.cpp:148] Top shape: 24 (24)
I0403 16:29:57.492094 21139 net.cpp:148] Top shape: 24 (24)
I0403 16:29:57.492108 21139 net.cpp:148] Top shape: 24 (24)
I0403 16:29:57.492125 21139 net.cpp:148] Top shape: 24 (24)
I0403 16:29:57.492180 21139 net.cpp:156] Memory required for data: 14451744
I0403 16:29:57.492195 21139 layer_factory.hpp:77] Creating layer conv1/7x7_s2
I0403 16:29:57.492226 21139 net.cpp:91] Creating Layer conv1/7x7_s2
I0403 16:29:57.492244 21139 net.cpp:425] conv1/7x7_s2 <- data
I0403 16:29:57.492264 21139 net.cpp:399] conv1/7x7_s2 -> conv1/7x7_s2
I0403 16:29:57.624708 21139 net.cpp:141] Setting up conv1/7x7_s2
I0403 16:29:57.624781 21139 net.cpp:148] Top shape: 24 64 112 112 (19267584)
I0403 16:29:57.624799 21139 net.cpp:156] Memory required for data: 91522080
I0403 16:29:57.624830 21139 layer_factory.hpp:77] Creating layer conv1/relu_7x7
I0403 16:29:57.624855 21139 net.cpp:91] Creating Layer conv1/relu_7x7
I0403 16:29:57.624873 21139 net.cpp:425] conv1/relu_7x7 <- conv1/7x7_s2
I0403 16:29:57.624893 21139 net.cpp:386] conv1/relu_7x7 -> conv1/7x7_s2 (in-place)
I0403 16:29:57.625180 21139 net.cpp:141] Setting up conv1/relu_7x7
I0403 16:29:57.625208 21139 net.cpp:148] Top shape: 24 64 112 112 (19267584)
I0403 16:29:57.625224 21139 net.cpp:156] Memory required for data: 168592416
I0403 16:29:57.625239 21139 layer_factory.hpp:77] Creating layer pool1/3x3_s2
I0403 16:29:57.625277 21139 net.cpp:91] Creating Layer pool1/3x3_s2
I0403 16:29:57.625293 21139 net.cpp:425] pool1/3x3_s2 <- conv1/7x7_s2
I0403 16:29:57.625311 21139 net.cpp:399] pool1/3x3_s2 -> pool1/3x3_s2
I0403 16:29:57.625386 21139 net.cpp:141] Setting up pool1/3x3_s2
I0403 16:29:57.625411 21139 net.cpp:148] Top shape: 24 64 56 56 (4816896)
I0403 16:29:57.625425 21139 net.cpp:156] Memory required for data: 187860000
I0403 16:29:57.625440 21139 layer_factory.hpp:77] Creating layer pool1/norm1
I0403 16:29:57.625465 21139 net.cpp:91] Creating Layer pool1/norm1
I0403 16:29:57.625483 21139 net.cpp:425] pool1/norm1 <- pool1/3x3_s2
I0403 16:29:57.625500 21139 net.cpp:399] pool1/norm1 -> pool1/norm1
I0403 16:29:57.625788 21139 net.cpp:141] Setting up pool1/norm1
I0403 16:29:57.625815 21139 net.cpp:148] Top shape: 24 64 56 56 (4816896)
I0403 16:29:57.625831 21139 net.cpp:156] Memory required for data: 207127584
I0403 16:29:57.625846 21139 layer_factory.hpp:77] Creating layer conv2/3x3_reduce
I0403 16:29:57.625871 21139 net.cpp:91] Creating Layer conv2/3x3_reduce
I0403 16:29:57.625887 21139 net.cpp:425] conv2/3x3_reduce <- pool1/norm1
I0403 16:29:57.625906 21139 net.cpp:399] conv2/3x3_reduce -> conv2/3x3_reduce
I0403 16:29:57.627265 21139 net.cpp:141] Setting up conv2/3x3_reduce
I0403 16:29:57.627296 21139 net.cpp:148] Top shape: 24 64 56 56 (4816896)
I0403 16:29:57.627312 21139 net.cpp:156] Memory required for data: 226395168
I0403 16:29:57.627333 21139 layer_factory.hpp:77] Creating layer conv2/relu_3x3_reduce
I0403 16:29:57.627351 21139 net.cpp:91] Creating Layer conv2/relu_3x3_reduce
I0403 16:29:57.627367 21139 net.cpp:425] conv2/relu_3x3_reduce <- conv2/3x3_reduce
I0403 16:29:57.627388 21139 net.cpp:386] conv2/relu_3x3_reduce -> conv2/3x3_reduce (in-place)
I0403 16:29:57.627665 21139 net.cpp:141] Setting up conv2/relu_3x3_reduce
I0403 16:29:57.627693 21139 net.cpp:148] Top shape: 24 64 56 56 (4816896)
I0403 16:29:57.627708 21139 net.cpp:156] Memory required for data: 245662752
I0403 16:29:57.627723 21139 layer_factory.hpp:77] Creating layer conv2/3x3
I0403 16:29:57.627748 21139 net.cpp:91] Creating Layer conv2/3x3
I0403 16:29:57.627765 21139 net.cpp:425] conv2/3x3 <- conv2/3x3_reduce
I0403 16:29:57.627785 21139 net.cpp:399] conv2/3x3 -> conv2/3x3
I0403 16:29:57.630182 21139 net.cpp:141] Setting up conv2/3x3
I0403 16:29:57.630214 21139 net.cpp:148] Top shape: 24 192 56 56 (14450688)
I0403 16:29:57.630230 21139 net.cpp:156] Memory required for data: 303465504
I0403 16:29:57.630251 21139 layer_factory.hpp:77] Creating layer conv2/relu_3x3
I0403 16:29:57.630270 21139 net.cpp:91] Creating Layer conv2/relu_3x3
I0403 16:29:57.630286 21139 net.cpp:425] conv2/relu_3x3 <- conv2/3x3
I0403 16:29:57.630306 21139 net.cpp:386] conv2/relu_3x3 -> conv2/3x3 (in-place)
I0403 16:29:57.630482 21139 net.cpp:141] Setting up conv2/relu_3x3
I0403 16:29:57.630507 21139 net.cpp:148] Top shape: 24 192 56 56 (14450688)
I0403 16:29:57.630553 21139 net.cpp:156] Memory required for data: 361268256
I0403 16:29:57.630569 21139 layer_factory.hpp:77] Creating layer conv2/norm2
I0403 16:29:57.630589 21139 net.cpp:91] Creating Layer conv2/norm2
I0403 16:29:57.630606 21139 net.cpp:425] conv2/norm2 <- conv2/3x3
I0403 16:29:57.630623 21139 net.cpp:399] conv2/norm2 -> conv2/norm2
I0403 16:29:57.630934 21139 net.cpp:141] Setting up conv2/norm2
I0403 16:29:57.630964 21139 net.cpp:148] Top shape: 24 192 56 56 (14450688)
I0403 16:29:57.630978 21139 net.cpp:156] Memory required for data: 419071008
I0403 16:29:57.630992 21139 layer_factory.hpp:77] Creating layer pool2/3x3_s2
I0403 16:29:57.631009 21139 net.cpp:91] Creating Layer pool2/3x3_s2
I0403 16:29:57.631024 21139 net.cpp:425] pool2/3x3_s2 <- conv2/norm2
I0403 16:29:57.631042 21139 net.cpp:399] pool2/3x3_s2 -> pool2/3x3_s2
I0403 16:29:57.631101 21139 net.cpp:141] Setting up pool2/3x3_s2
I0403 16:29:57.631124 21139 net.cpp:148] Top shape: 24 192 28 28 (3612672)
I0403 16:29:57.631139 21139 net.cpp:156] Memory required for data: 433521696
I0403 16:29:57.631153 21139 layer_factory.hpp:77] Creating layer pool2/3x3_s2_pool2/3x3_s2_0_split
I0403 16:29:57.631170 21139 net.cpp:91] Creating Layer pool2/3x3_s2_pool2/3x3_s2_0_split
I0403 16:29:57.631186 21139 net.cpp:425] pool2/3x3_s2_pool2/3x3_s2_0_split <- pool2/3x3_s2
I0403 16:29:57.631204 21139 net.cpp:399] pool2/3x3_s2_pool2/3x3_s2_0_split -> pool2/3x3_s2_pool2/3x3_s2_0_split_0
I0403 16:29:57.631224 21139 net.cpp:399] pool2/3x3_s2_pool2/3x3_s2_0_split -> pool2/3x3_s2_pool2/3x3_s2_0_split_1
I0403 16:29:57.631243 21139 net.cpp:399] pool2/3x3_s2_pool2/3x3_s2_0_split -> pool2/3x3_s2_pool2/3x3_s2_0_split_2
I0403 16:29:57.631264 21139 net.cpp:399] pool2/3x3_s2_pool2/3x3_s2_0_split -> pool2/3x3_s2_pool2/3x3_s2_0_split_3
I0403 16:29:57.631336 21139 net.cpp:141] Setting up pool2/3x3_s2_pool2/3x3_s2_0_split
I0403 16:29:57.631359 21139 net.cpp:148] Top shape: 24 192 28 28 (3612672)
I0403 16:29:57.631374 21139 net.cpp:148] Top shape: 24 192 28 28 (3612672)
I0403 16:29:57.631391 21139 net.cpp:148] Top shape: 24 192 28 28 (3612672)
I0403 16:29:57.631405 21139 net.cpp:148] Top shape: 24 192 28 28 (3612672)
I0403 16:29:57.631418 21139 net.cpp:156] Memory required for data: 491324448
I0403 16:29:57.631433 21139 layer_factory.hpp:77] Creating layer inception_3a/1x1
I0403 16:29:57.631456 21139 net.cpp:91] Creating Layer inception_3a/1x1
I0403 16:29:57.631472 21139 net.cpp:425] inception_3a/1x1 <- pool2/3x3_s2_pool2/3x3_s2_0_split_0
I0403 16:29:57.631494 21139 net.cpp:399] inception_3a/1x1 -> inception_3a/1x1
I0403 16:29:57.633029 21139 net.cpp:141] Setting up inception_3a/1x1
I0403 16:29:57.633066 21139 net.cpp:148] Top shape: 24 64 28 28 (1204224)
I0403 16:29:57.633085 21139 net.cpp:156] Memory required for data: 496141344
I0403 16:29:57.633103 21139 layer_factory.hpp:77] Creating layer inception_3a/relu_1x1
I0403 16:29:57.633122 21139 net.cpp:91] Creating Layer inception_3a/relu_1x1
I0403 16:29:57.633138 21139 net.cpp:425] inception_3a/relu_1x1 <- inception_3a/1x1
I0403 16:29:57.633157 21139 net.cpp:386] inception_3a/relu_1x1 -> inception_3a/1x1 (in-place)
I0403 16:29:57.633337 21139 net.cpp:141] Setting up inception_3a/relu_1x1
I0403 16:29:57.633363 21139 net.cpp:148] Top shape: 24 64 28 28 (1204224)
I0403 16:29:57.633378 21139 net.cpp:156] Memory required for data: 500958240
I0403 16:29:57.633391 21139 layer_factory.hpp:77] Creating layer inception_3a/3x3_reduce
I0403 16:29:57.633414 21139 net.cpp:91] Creating Layer inception_3a/3x3_reduce
I0403 16:29:57.633430 21139 net.cpp:425] inception_3a/3x3_reduce <- pool2/3x3_s2_pool2/3x3_s2_0_split_1
I0403 16:29:57.633451 21139 net.cpp:399] inception_3a/3x3_reduce -> inception_3a/3x3_reduce
I0403 16:29:57.635221 21139 net.cpp:141] Setting up inception_3a/3x3_reduce
I0403 16:29:57.635252 21139 net.cpp:148] Top shape: 24 96 28 28 (1806336)
I0403 16:29:57.635268 21139 net.cpp:156] Memory required for data: 508183584
I0403 16:29:57.635290 21139 layer_factory.hpp:77] Creating layer inception_3a/relu_3x3_reduce
I0403 16:29:57.635325 21139 net.cpp:91] Creating Layer inception_3a/relu_3x3_reduce
I0403 16:29:57.635344 21139 net.cpp:425] inception_3a/relu_3x3_reduce <- inception_3a/3x3_reduce
I0403 16:29:57.635363 21139 net.cpp:386] inception_3a/relu_3x3_reduce -> inception_3a/3x3_reduce (in-place)
I0403 16:29:57.635546 21139 net.cpp:141] Setting up inception_3a/relu_3x3_reduce
I0403 16:29:57.635574 21139 net.cpp:148] Top shape: 24 96 28 28 (1806336)
I0403 16:29:57.635591 21139 net.cpp:156] Memory required for data: 515408928
I0403 16:29:57.635607 21139 layer_factory.hpp:77] Creating layer inception_3a/3x3
I0403 16:29:57.635628 21139 net.cpp:91] Creating Layer inception_3a/3x3
I0403 16:29:57.635645 21139 net.cpp:425] inception_3a/3x3 <- inception_3a/3x3_reduce
I0403 16:29:57.635664 21139 net.cpp:399] inception_3a/3x3 -> inception_3a/3x3
I0403 16:29:57.637356 21139 net.cpp:141] Setting up inception_3a/3x3
I0403 16:29:57.637384 21139 net.cpp:148] Top shape: 24 128 28 28 (2408448)
I0403 16:29:57.637399 21139 net.cpp:156] Memory required for data: 525042720
I0403 16:29:57.637418 21139 layer_factory.hpp:77] Creating layer inception_3a/relu_3x3
I0403 16:29:57.637437 21139 net.cpp:91] Creating Layer inception_3a/relu_3x3
I0403 16:29:57.637452 21139 net.cpp:425] inception_3a/relu_3x3 <- inception_3a/3x3
I0403 16:29:57.637471 21139 net.cpp:386] inception_3a/relu_3x3 -> inception_3a/3x3 (in-place)
I0403 16:29:57.637786 21139 net.cpp:141] Setting up inception_3a/relu_3x3
I0403 16:29:57.637814 21139 net.cpp:148] Top shape: 24 128 28 28 (2408448)
I0403 16:29:57.637828 21139 net.cpp:156] Memory required for data: 534676512
I0403 16:29:57.637843 21139 layer_factory.hpp:77] Creating layer inception_3a/5x5_reduce
I0403 16:29:57.637866 21139 net.cpp:91] Creating Layer inception_3a/5x5_reduce
I0403 16:29:57.637883 21139 net.cpp:425] inception_3a/5x5_reduce <- pool2/3x3_s2_pool2/3x3_s2_0_split_2
I0403 16:29:57.637904 21139 net.cpp:399] inception_3a/5x5_reduce -> inception_3a/5x5_reduce
I0403 16:29:57.638897 21139 net.cpp:141] Setting up inception_3a/5x5_reduce
I0403 16:29:57.638929 21139 net.cpp:148] Top shape: 24 16 28 28 (301056)
I0403 16:29:57.638944 21139 net.cpp:156] Memory required for data: 535880736
I0403 16:29:57.638974 21139 layer_factory.hpp:77] Creating layer inception_3a/relu_5x5_reduce
I0403 16:29:57.638996 21139 net.cpp:91] Creating Layer inception_3a/relu_5x5_reduce
I0403 16:29:57.639014 21139 net.cpp:425] inception_3a/relu_5x5_reduce <- inception_3a/5x5_reduce
I0403 16:29:57.639031 21139 net.cpp:386] inception_3a/relu_5x5_reduce -> inception_3a/5x5_reduce (in-place)
I0403 16:29:57.639369 21139 net.cpp:141] Setting up inception_3a/relu_5x5_reduce
I0403 16:29:57.639408 21139 net.cpp:148] Top shape: 24 16 28 28 (301056)
I0403 16:29:57.639422 21139 net.cpp:156] Memory required for data: 537084960
I0403 16:29:57.639437 21139 layer_factory.hpp:77] Creating layer inception_3a/5x5
I0403 16:29:57.639458 21139 net.cpp:91] Creating Layer inception_3a/5x5
I0403 16:29:57.639475 21139 net.cpp:425] inception_3a/5x5 <- inception_3a/5x5_reduce
I0403 16:29:57.639497 21139 net.cpp:399] inception_3a/5x5 -> inception_3a/5x5
I0403 16:29:57.640506 21139 net.cpp:141] Setting up inception_3a/5x5
I0403 16:29:57.640535 21139 net.cpp:148] Top shape: 24 32 28 28 (602112)
I0403 16:29:57.640552 21139 net.cpp:156] Memory required for data: 539493408
I0403 16:29:57.640569 21139 layer_factory.hpp:77] Creating layer inception_3a/relu_5x5
I0403 16:29:57.640586 21139 net.cpp:91] Creating Layer inception_3a/relu_5x5
I0403 16:29:57.640602 21139 net.cpp:425] inception_3a/relu_5x5 <- inception_3a/5x5
I0403 16:29:57.640620 21139 net.cpp:386] inception_3a/relu_5x5 -> inception_3a/5x5 (in-place)
I0403 16:29:57.640789 21139 net.cpp:141] Setting up inception_3a/relu_5x5
I0403 16:29:57.640815 21139 net.cpp:148] Top shape: 24 32 28 28 (602112)
I0403 16:29:57.640827 21139 net.cpp:156] Memory required for data: 541901856
I0403 16:29:57.640841 21139 layer_factory.hpp:77] Creating layer inception_3a/pool
I0403 16:29:57.640858 21139 net.cpp:91] Creating Layer inception_3a/pool
I0403 16:29:57.640888 21139 net.cpp:425] inception_3a/pool <- pool2/3x3_s2_pool2/3x3_s2_0_split_3
I0403 16:29:57.640908 21139 net.cpp:399] inception_3a/pool -> inception_3a/pool
I0403 16:29:57.640967 21139 net.cpp:141] Setting up inception_3a/pool
I0403 16:29:57.640990 21139 net.cpp:148] Top shape: 24 192 28 28 (3612672)
I0403 16:29:57.641003 21139 net.cpp:156] Memory required for data: 556352544
I0403 16:29:57.641017 21139 layer_factory.hpp:77] Creating layer inception_3a/pool_proj
I0403 16:29:57.641039 21139 net.cpp:91] Creating Layer inception_3a/pool_proj
I0403 16:29:57.641060 21139 net.cpp:425] inception_3a/pool_proj <- inception_3a/pool
I0403 16:29:57.641083 21139 net.cpp:399] inception_3a/pool_proj -> inception_3a/pool_proj
I0403 16:29:57.642030 21139 net.cpp:141] Setting up inception_3a/pool_proj
I0403 16:29:57.642062 21139 net.cpp:148] Top shape: 24 32 28 28 (602112)
I0403 16:29:57.642078 21139 net.cpp:156] Memory required for data: 558760992
I0403 16:29:57.642102 21139 layer_factory.hpp:77] Creating layer inception_3a/relu_pool_proj
I0403 16:29:57.642123 21139 net.cpp:91] Creating Layer inception_3a/relu_pool_proj
I0403 16:29:57.642139 21139 net.cpp:425] inception_3a/relu_pool_proj <- inception_3a/pool_proj
I0403 16:29:57.642156 21139 net.cpp:386] inception_3a/relu_pool_proj -> inception_3a/pool_proj (in-place)
I0403 16:29:57.642428 21139 net.cpp:141] Setting up inception_3a/relu_pool_proj
I0403 16:29:57.642454 21139 net.cpp:148] Top shape: 24 32 28 28 (602112)
I0403 16:29:57.642468 21139 net.cpp:156] Memory required for data: 561169440
I0403 16:29:57.642482 21139 layer_factory.hpp:77] Creating layer inception_3a/output
I0403 16:29:57.642500 21139 net.cpp:91] Creating Layer inception_3a/output
I0403 16:29:57.642515 21139 net.cpp:425] inception_3a/output <- inception_3a/1x1
I0403 16:29:57.642531 21139 net.cpp:425] inception_3a/output <- inception_3a/3x3
I0403 16:29:57.642546 21139 net.cpp:425] inception_3a/output <- inception_3a/5x5
I0403 16:29:57.642561 21139 net.cpp:425] inception_3a/output <- inception_3a/pool_proj
I0403 16:29:57.642580 21139 net.cpp:399] inception_3a/output -> inception_3a/output
I0403 16:29:57.642628 21139 net.cpp:141] Setting up inception_3a/output
I0403 16:29:57.642655 21139 net.cpp:148] Top shape: 24 256 28 28 (4816896)
I0403 16:29:57.642670 21139 net.cpp:156] Memory required for data: 580437024
I0403 16:29:57.642684 21139 layer_factory.hpp:77] Creating layer inception_3a/output_inception_3a/output_0_split
I0403 16:29:57.642701 21139 net.cpp:91] Creating Layer inception_3a/output_inception_3a/output_0_split
I0403 16:29:57.642716 21139 net.cpp:425] inception_3a/output_inception_3a/output_0_split <- inception_3a/output
I0403 16:29:57.642734 21139 net.cpp:399] inception_3a/output_inception_3a/output_0_split -> inception_3a/output_inception_3a/output_0_split_0
I0403 16:29:57.642755 21139 net.cpp:399] inception_3a/output_inception_3a/output_0_split -> inception_3a/output_inception_3a/output_0_split_1
I0403 16:29:57.642776 21139 net.cpp:399] inception_3a/output_inception_3a/output_0_split -> inception_3a/output_inception_3a/output_0_split_2
I0403 16:29:57.642796 21139 net.cpp:399] inception_3a/output_inception_3a/output_0_split -> inception_3a/output_inception_3a/output_0_split_3
I0403 16:29:57.642868 21139 net.cpp:141] Setting up inception_3a/output_inception_3a/output_0_split
I0403 16:29:57.642892 21139 net.cpp:148] Top shape: 24 256 28 28 (4816896)
I0403 16:29:57.642910 21139 net.cpp:148] Top shape: 24 256 28 28 (4816896)
I0403 16:29:57.642925 21139 net.cpp:148] Top shape: 24 256 28 28 (4816896)
I0403 16:29:57.642940 21139 net.cpp:148] Top shape: 24 256 28 28 (4816896)
I0403 16:29:57.642952 21139 net.cpp:156] Memory required for data: 657507360
I0403 16:29:57.642967 21139 layer_factory.hpp:77] Creating layer inception_3b/1x1
I0403 16:29:57.642988 21139 net.cpp:91] Creating Layer inception_3b/1x1
I0403 16:29:57.643005 21139 net.cpp:425] inception_3b/1x1 <- inception_3a/output_inception_3a/output_0_split_0
I0403 16:29:57.643025 21139 net.cpp:399] inception_3b/1x1 -> inception_3b/1x1
I0403 16:29:57.644165 21139 net.cpp:141] Setting up inception_3b/1x1
I0403 16:29:57.644208 21139 net.cpp:148] Top shape: 24 128 28 28 (2408448)
I0403 16:29:57.644225 21139 net.cpp:156] Memory required for data: 667141152
I0403 16:29:57.644255 21139 layer_factory.hpp:77] Creating layer inception_3b/relu_1x1
I0403 16:29:57.644273 21139 net.cpp:91] Creating Layer inception_3b/relu_1x1
I0403 16:29:57.644289 21139 net.cpp:425] inception_3b/relu_1x1 <- inception_3b/1x1
I0403 16:29:57.644305 21139 net.cpp:386] inception_3b/relu_1x1 -> inception_3b/1x1 (in-place)
I0403 16:29:57.644481 21139 net.cpp:141] Setting up inception_3b/relu_1x1
I0403 16:29:57.644505 21139 net.cpp:148] Top shape: 24 128 28 28 (2408448)
I0403 16:29:57.644520 21139 net.cpp:156] Memory required for data: 676774944
I0403 16:29:57.644534 21139 layer_factory.hpp:77] Creating layer inception_3b/3x3_reduce
I0403 16:29:57.644556 21139 net.cpp:91] Creating Layer inception_3b/3x3_reduce
I0403 16:29:57.644572 21139 net.cpp:425] inception_3b/3x3_reduce <- inception_3a/output_inception_3a/output_0_split_1
I0403 16:29:57.644593 21139 net.cpp:399] inception_3b/3x3_reduce -> inception_3b/3x3_reduce
I0403 16:29:57.645714 21139 net.cpp:141] Setting up inception_3b/3x3_reduce
I0403 16:29:57.645743 21139 net.cpp:148] Top shape: 24 128 28 28 (2408448)
I0403 16:29:57.645758 21139 net.cpp:156] Memory required for data: 686408736
I0403 16:29:57.645776 21139 layer_factory.hpp:77] Creating layer inception_3b/relu_3x3_reduce
I0403 16:29:57.645793 21139 net.cpp:91] Creating Layer inception_3b/relu_3x3_reduce
I0403 16:29:57.645809 21139 net.cpp:425] inception_3b/relu_3x3_reduce <- inception_3b/3x3_reduce
I0403 16:29:57.645828 21139 net.cpp:386] inception_3b/relu_3x3_reduce -> inception_3b/3x3_reduce (in-place)
I0403 16:29:57.645997 21139 net.cpp:141] Setting up inception_3b/relu_3x3_reduce
I0403 16:29:57.646021 21139 net.cpp:148] Top shape: 24 128 28 28 (2408448)
I0403 16:29:57.646035 21139 net.cpp:156] Memory required for data: 696042528
I0403 16:29:57.646054 21139 layer_factory.hpp:77] Creating layer inception_3b/3x3
I0403 16:29:57.646081 21139 net.cpp:91] Creating Layer inception_3b/3x3
I0403 16:29:57.646100 21139 net.cpp:425] inception_3b/3x3 <- inception_3b/3x3_reduce
I0403 16:29:57.646119 21139 net.cpp:399] inception_3b/3x3 -> inception_3b/3x3
I0403 16:29:57.649005 21139 net.cpp:141] Setting up inception_3b/3x3
I0403 16:29:57.649035 21139 net.cpp:148] Top shape: 24 192 28 28 (3612672)
I0403 16:29:57.649055 21139 net.cpp:156] Memory required for data: 710493216
I0403 16:29:57.649075 21139 layer_factory.hpp:77] Creating layer inception_3b/relu_3x3
I0403 16:29:57.649092 21139 net.cpp:91] Creating Layer inception_3b/relu_3x3
I0403 16:29:57.649108 21139 net.cpp:425] inception_3b/relu_3x3 <- inception_3b/3x3
I0403 16:29:57.649128 21139 net.cpp:386] inception_3b/relu_3x3 -> inception_3b/3x3 (in-place)
I0403 16:29:57.649417 21139 net.cpp:141] Setting up inception_3b/relu_3x3
I0403 16:29:57.649443 21139 net.cpp:148] Top shape: 24 192 28 28 (3612672)
I0403 16:29:57.649458 21139 net.cpp:156] Memory required for data: 724943904
I0403 16:29:57.649472 21139 layer_factory.hpp:77] Creating layer inception_3b/5x5_reduce
I0403 16:29:57.649497 21139 net.cpp:91] Creating Layer inception_3b/5x5_reduce
I0403 16:29:57.649518 21139 net.cpp:425] inception_3b/5x5_reduce <- inception_3a/output_inception_3a/output_0_split_2
I0403 16:29:57.649538 21139 net.cpp:399] inception_3b/5x5_reduce -> inception_3b/5x5_reduce
I0403 16:29:57.650513 21139 net.cpp:141] Setting up inception_3b/5x5_reduce
I0403 16:29:57.650542 21139 net.cpp:148] Top shape: 24 32 28 28 (602112)
I0403 16:29:57.650558 21139 net.cpp:156] Memory required for data: 727352352
I0403 16:29:57.650575 21139 layer_factory.hpp:77] Creating layer inception_3b/relu_5x5_reduce
I0403 16:29:57.650593 21139 net.cpp:91] Creating Layer inception_3b/relu_5x5_reduce
I0403 16:29:57.650609 21139 net.cpp:425] inception_3b/relu_5x5_reduce <- inception_3b/5x5_reduce
I0403 16:29:57.650627 21139 net.cpp:386] inception_3b/relu_5x5_reduce -> inception_3b/5x5_reduce (in-place)
I0403 16:29:57.650817 21139 net.cpp:141] Setting up inception_3b/relu_5x5_reduce
I0403 16:29:57.650841 21139 net.cpp:148] Top shape: 24 32 28 28 (602112)
I0403 16:29:57.650856 21139 net.cpp:156] Memory required for data: 729760800
I0403 16:29:57.650869 21139 layer_factory.hpp:77] Creating layer inception_3b/5x5
I0403 16:29:57.650892 21139 net.cpp:91] Creating Layer inception_3b/5x5
I0403 16:29:57.650908 21139 net.cpp:425] inception_3b/5x5 <- inception_3b/5x5_reduce
I0403 16:29:57.650929 21139 net.cpp:399] inception_3b/5x5 -> inception_3b/5x5
I0403 16:29:57.652961 21139 net.cpp:141] Setting up inception_3b/5x5
I0403 16:29:57.652988 21139 net.cpp:148] Top shape: 24 96 28 28 (1806336)
I0403 16:29:57.653004 21139 net.cpp:156] Memory required for data: 736986144
I0403 16:29:57.653024 21139 layer_factory.hpp:77] Creating layer inception_3b/relu_5x5
I0403 16:29:57.653043 21139 net.cpp:91] Creating Layer inception_3b/relu_5x5
I0403 16:29:57.653064 21139 net.cpp:425] inception_3b/relu_5x5 <- inception_3b/5x5
I0403 16:29:57.653082 21139 net.cpp:386] inception_3b/relu_5x5 -> inception_3b/5x5 (in-place)
I0403 16:29:57.653280 21139 net.cpp:141] Setting up inception_3b/relu_5x5
I0403 16:29:57.653304 21139 net.cpp:148] Top shape: 24 96 28 28 (1806336)
I0403 16:29:57.653319 21139 net.cpp:156] Memory required for data: 744211488
I0403 16:29:57.653334 21139 layer_factory.hpp:77] Creating layer inception_3b/pool
I0403 16:29:57.653352 21139 net.cpp:91] Creating Layer inception_3b/pool
I0403 16:29:57.653367 21139 net.cpp:425] inception_3b/pool <- inception_3a/output_inception_3a/output_0_split_3
I0403 16:29:57.653385 21139 net.cpp:399] inception_3b/pool -> inception_3b/pool
I0403 16:29:57.653440 21139 net.cpp:141] Setting up inception_3b/pool
I0403 16:29:57.653463 21139 net.cpp:148] Top shape: 24 256 28 28 (4816896)
I0403 16:29:57.653477 21139 net.cpp:156] Memory required for data: 763479072
I0403 16:29:57.653491 21139 layer_factory.hpp:77] Creating layer inception_3b/pool_proj
I0403 16:29:57.653514 21139 net.cpp:91] Creating Layer inception_3b/pool_proj
I0403 16:29:57.653532 21139 net.cpp:425] inception_3b/pool_proj <- inception_3b/pool
I0403 16:29:57.653549 21139 net.cpp:399] inception_3b/pool_proj -> inception_3b/pool_proj
I0403 16:29:57.654654 21139 net.cpp:141] Setting up inception_3b/pool_proj
I0403 16:29:57.654683 21139 net.cpp:148] Top shape: 24 64 28 28 (1204224)
I0403 16:29:57.654700 21139 net.cpp:156] Memory required for data: 768295968
I0403 16:29:57.654718 21139 layer_factory.hpp:77] Creating layer inception_3b/relu_pool_proj
I0403 16:29:57.654738 21139 net.cpp:91] Creating Layer inception_3b/relu_pool_proj
I0403 16:29:57.654755 21139 net.cpp:425] inception_3b/relu_pool_proj <- inception_3b/pool_proj
I0403 16:29:57.654772 21139 net.cpp:386] inception_3b/relu_pool_proj -> inception_3b/pool_proj (in-place)
I0403 16:29:57.655184 21139 net.cpp:141] Setting up inception_3b/relu_pool_proj
I0403 16:29:57.655212 21139 net.cpp:148] Top shape: 24 64 28 28 (1204224)
I0403 16:29:57.655227 21139 net.cpp:156] Memory required for data: 773112864
I0403 16:29:57.655243 21139 layer_factory.hpp:77] Creating layer inception_3b/output
I0403 16:29:57.655261 21139 net.cpp:91] Creating Layer inception_3b/output
I0403 16:29:57.655277 21139 net.cpp:425] inception_3b/output <- inception_3b/1x1
I0403 16:29:57.655295 21139 net.cpp:425] inception_3b/output <- inception_3b/3x3
I0403 16:29:57.655311 21139 net.cpp:425] inception_3b/output <- inception_3b/5x5
I0403 16:29:57.655328 21139 net.cpp:425] inception_3b/output <- inception_3b/pool_proj
I0403 16:29:57.655344 21139 net.cpp:399] inception_3b/output -> inception_3b/output
I0403 16:29:57.655385 21139 net.cpp:141] Setting up inception_3b/output
I0403 16:29:57.655411 21139 net.cpp:148] Top shape: 24 480 28 28 (9031680)
I0403 16:29:57.655426 21139 net.cpp:156] Memory required for data: 809239584
I0403 16:29:57.655441 21139 layer_factory.hpp:77] Creating layer pool3/3x3_s2
I0403 16:29:57.655457 21139 net.cpp:91] Creating Layer pool3/3x3_s2
I0403 16:29:57.655472 21139 net.cpp:425] pool3/3x3_s2 <- inception_3b/output
I0403 16:29:57.655508 21139 net.cpp:399] pool3/3x3_s2 -> pool3/3x3_s2
I0403 16:29:57.655566 21139 net.cpp:141] Setting up pool3/3x3_s2
I0403 16:29:57.655592 21139 net.cpp:148] Top shape: 24 480 14 14 (2257920)
I0403 16:29:57.655607 21139 net.cpp:156] Memory required for data: 818271264
I0403 16:29:57.655622 21139 layer_factory.hpp:77] Creating layer pool3/3x3_s2_pool3/3x3_s2_0_split
I0403 16:29:57.655639 21139 net.cpp:91] Creating Layer pool3/3x3_s2_pool3/3x3_s2_0_split
I0403 16:29:57.655654 21139 net.cpp:425] pool3/3x3_s2_pool3/3x3_s2_0_split <- pool3/3x3_s2
I0403 16:29:57.655671 21139 net.cpp:399] pool3/3x3_s2_pool3/3x3_s2_0_split -> pool3/3x3_s2_pool3/3x3_s2_0_split_0
I0403 16:29:57.655691 21139 net.cpp:399] pool3/3x3_s2_pool3/3x3_s2_0_split -> pool3/3x3_s2_pool3/3x3_s2_0_split_1
I0403 16:29:57.655712 21139 net.cpp:399] pool3/3x3_s2_pool3/3x3_s2_0_split -> pool3/3x3_s2_pool3/3x3_s2_0_split_2
I0403 16:29:57.655732 21139 net.cpp:399] pool3/3x3_s2_pool3/3x3_s2_0_split -> pool3/3x3_s2_pool3/3x3_s2_0_split_3
I0403 16:29:57.655809 21139 net.cpp:141] Setting up pool3/3x3_s2_pool3/3x3_s2_0_split
I0403 16:29:57.655832 21139 net.cpp:148] Top shape: 24 480 14 14 (2257920)
I0403 16:29:57.655848 21139 net.cpp:148] Top shape: 24 480 14 14 (2257920)
I0403 16:29:57.655864 21139 net.cpp:148] Top shape: 24 480 14 14 (2257920)
I0403 16:29:57.655879 21139 net.cpp:148] Top shape: 24 480 14 14 (2257920)
I0403 16:29:57.655892 21139 net.cpp:156] Memory required for data: 854397984
I0403 16:29:57.655907 21139 layer_factory.hpp:77] Creating layer inception_4a/1x1
I0403 16:29:57.655930 21139 net.cpp:91] Creating Layer inception_4a/1x1
I0403 16:29:57.655946 21139 net.cpp:425] inception_4a/1x1 <- pool3/3x3_s2_pool3/3x3_s2_0_split_0
I0403 16:29:57.655967 21139 net.cpp:399] inception_4a/1x1 -> inception_4a/1x1
I0403 16:29:57.657582 21139 net.cpp:141] Setting up inception_4a/1x1
I0403 16:29:57.657609 21139 net.cpp:148] Top shape: 24 192 14 14 (903168)
I0403 16:29:57.657625 21139 net.cpp:156] Memory required for data: 858010656
I0403 16:29:57.657644 21139 layer_factory.hpp:77] Creating layer inception_4a/relu_1x1
I0403 16:29:57.657665 21139 net.cpp:91] Creating Layer inception_4a/relu_1x1
I0403 16:29:57.657680 21139 net.cpp:425] inception_4a/relu_1x1 <- inception_4a/1x1
I0403 16:29:57.657697 21139 net.cpp:386] inception_4a/relu_1x1 -> inception_4a/1x1 (in-place)
I0403 16:29:57.657877 21139 net.cpp:141] Setting up inception_4a/relu_1x1
I0403 16:29:57.657905 21139 net.cpp:148] Top shape: 24 192 14 14 (903168)
I0403 16:29:57.657922 21139 net.cpp:156] Memory required for data: 861623328
I0403 16:29:57.657937 21139 layer_factory.hpp:77] Creating layer inception_4a/3x3_reduce
I0403 16:29:57.657958 21139 net.cpp:91] Creating Layer inception_4a/3x3_reduce
I0403 16:29:57.657975 21139 net.cpp:425] inception_4a/3x3_reduce <- pool3/3x3_s2_pool3/3x3_s2_0_split_1
I0403 16:29:57.657995 21139 net.cpp:399] inception_4a/3x3_reduce -> inception_4a/3x3_reduce
I0403 16:29:57.659343 21139 net.cpp:141] Setting up inception_4a/3x3_reduce
I0403 16:29:57.659371 21139 net.cpp:148] Top shape: 24 96 14 14 (451584)
I0403 16:29:57.659386 21139 net.cpp:156] Memory required for data: 863429664
I0403 16:29:57.659412 21139 layer_factory.hpp:77] Creating layer inception_4a/relu_3x3_reduce
I0403 16:29:57.659435 21139 net.cpp:91] Creating Layer inception_4a/relu_3x3_reduce
I0403 16:29:57.659451 21139 net.cpp:425] inception_4a/relu_3x3_reduce <- inception_4a/3x3_reduce
I0403 16:29:57.659467 21139 net.cpp:386] inception_4a/relu_3x3_reduce -> inception_4a/3x3_reduce (in-place)
I0403 16:29:57.659646 21139 net.cpp:141] Setting up inception_4a/relu_3x3_reduce
I0403 16:29:57.659672 21139 net.cpp:148] Top shape: 24 96 14 14 (451584)
I0403 16:29:57.659687 21139 net.cpp:156] Memory required for data: 865236000
I0403 16:29:57.659703 21139 layer_factory.hpp:77] Creating layer inception_4a/3x3
I0403 16:29:57.659725 21139 net.cpp:91] Creating Layer inception_4a/3x3
I0403 16:29:57.659742 21139 net.cpp:425] inception_4a/3x3 <- inception_4a/3x3_reduce
I0403 16:29:57.659761 21139 net.cpp:399] inception_4a/3x3 -> inception_4a/3x3
I0403 16:29:57.662461 21139 net.cpp:141] Setting up inception_4a/3x3
I0403 16:29:57.662493 21139 net.cpp:148] Top shape: 24 208 14 14 (978432)
I0403 16:29:57.662508 21139 net.cpp:156] Memory required for data: 869149728
I0403 16:29:57.662526 21139 layer_factory.hpp:77] Creating layer inception_4a/relu_3x3
I0403 16:29:57.662544 21139 net.cpp:91] Creating Layer inception_4a/relu_3x3
I0403 16:29:57.662560 21139 net.cpp:425] inception_4a/relu_3x3 <- inception_4a/3x3
I0403 16:29:57.662580 21139 net.cpp:386] inception_4a/relu_3x3 -> inception_4a/3x3 (in-place)
I0403 16:29:57.662853 21139 net.cpp:141] Setting up inception_4a/relu_3x3
I0403 16:29:57.662880 21139 net.cpp:148] Top shape: 24 208 14 14 (978432)
I0403 16:29:57.662895 21139 net.cpp:156] Memory required for data: 873063456
I0403 16:29:57.662910 21139 layer_factory.hpp:77] Creating layer inception_4a/5x5_reduce
I0403 16:29:57.662933 21139 net.cpp:91] Creating Layer inception_4a/5x5_reduce
I0403 16:29:57.662950 21139 net.cpp:425] inception_4a/5x5_reduce <- pool3/3x3_s2_pool3/3x3_s2_0_split_2
I0403 16:29:57.662968 21139 net.cpp:399] inception_4a/5x5_reduce -> inception_4a/5x5_reduce
I0403 16:29:57.663976 21139 net.cpp:141] Setting up inception_4a/5x5_reduce
I0403 16:29:57.664006 21139 net.cpp:148] Top shape: 24 16 14 14 (75264)
I0403 16:29:57.664022 21139 net.cpp:156] Memory required for data: 873364512
I0403 16:29:57.664041 21139 layer_factory.hpp:77] Creating layer inception_4a/relu_5x5_reduce
I0403 16:29:57.664064 21139 net.cpp:91] Creating Layer inception_4a/relu_5x5_reduce
I0403 16:29:57.664080 21139 net.cpp:425] inception_4a/relu_5x5_reduce <- inception_4a/5x5_reduce
I0403 16:29:57.664100 21139 net.cpp:386] inception_4a/relu_5x5_reduce -> inception_4a/5x5_reduce (in-place)
I0403 16:29:57.664291 21139 net.cpp:141] Setting up inception_4a/relu_5x5_reduce
I0403 16:29:57.664315 21139 net.cpp:148] Top shape: 24 16 14 14 (75264)
I0403 16:29:57.664330 21139 net.cpp:156] Memory required for data: 873665568
I0403 16:29:57.664345 21139 layer_factory.hpp:77] Creating layer inception_4a/5x5
I0403 16:29:57.664366 21139 net.cpp:91] Creating Layer inception_4a/5x5
I0403 16:29:57.664381 21139 net.cpp:425] inception_4a/5x5 <- inception_4a/5x5_reduce
I0403 16:29:57.664402 21139 net.cpp:399] inception_4a/5x5 -> inception_4a/5x5
I0403 16:29:57.665470 21139 net.cpp:141] Setting up inception_4a/5x5
I0403 16:29:57.665498 21139 net.cpp:148] Top shape: 24 48 14 14 (225792)
I0403 16:29:57.665513 21139 net.cpp:156] Memory required for data: 874568736
I0403 16:29:57.665531 21139 layer_factory.hpp:77] Creating layer inception_4a/relu_5x5
I0403 16:29:57.665551 21139 net.cpp:91] Creating Layer inception_4a/relu_5x5
I0403 16:29:57.665567 21139 net.cpp:425] inception_4a/relu_5x5 <- inception_4a/5x5
I0403 16:29:57.665585 21139 net.cpp:386] inception_4a/relu_5x5 -> inception_4a/5x5 (in-place)
I0403 16:29:57.665758 21139 net.cpp:141] Setting up inception_4a/relu_5x5
I0403 16:29:57.665782 21139 net.cpp:148] Top shape: 24 48 14 14 (225792)
I0403 16:29:57.665796 21139 net.cpp:156] Memory required for data: 875471904
I0403 16:29:57.665810 21139 layer_factory.hpp:77] Creating layer inception_4a/pool
I0403 16:29:57.665829 21139 net.cpp:91] Creating Layer inception_4a/pool
I0403 16:29:57.665845 21139 net.cpp:425] inception_4a/pool <- pool3/3x3_s2_pool3/3x3_s2_0_split_3
I0403 16:29:57.665861 21139 net.cpp:399] inception_4a/pool -> inception_4a/pool
I0403 16:29:57.665921 21139 net.cpp:141] Setting up inception_4a/pool
I0403 16:29:57.665945 21139 net.cpp:148] Top shape: 24 480 14 14 (2257920)
I0403 16:29:57.665957 21139 net.cpp:156] Memory required for data: 884503584
I0403 16:29:57.665971 21139 layer_factory.hpp:77] Creating layer inception_4a/pool_proj
I0403 16:29:57.665993 21139 net.cpp:91] Creating Layer inception_4a/pool_proj
I0403 16:29:57.666009 21139 net.cpp:425] inception_4a/pool_proj <- inception_4a/pool
I0403 16:29:57.666029 21139 net.cpp:399] inception_4a/pool_proj -> inception_4a/pool_proj
I0403 16:29:57.667182 21139 net.cpp:141] Setting up inception_4a/pool_proj
I0403 16:29:57.667223 21139 net.cpp:148] Top shape: 24 64 14 14 (301056)
I0403 16:29:57.667253 21139 net.cpp:156] Memory required for data: 885707808
I0403 16:29:57.667273 21139 layer_factory.hpp:77] Creating layer inception_4a/relu_pool_proj
I0403 16:29:57.667295 21139 net.cpp:91] Creating Layer inception_4a/relu_pool_proj
I0403 16:29:57.667312 21139 net.cpp:425] inception_4a/relu_pool_proj <- inception_4a/pool_proj
I0403 16:29:57.667330 21139 net.cpp:386] inception_4a/relu_pool_proj -> inception_4a/pool_proj (in-place)
I0403 16:29:57.667619 21139 net.cpp:141] Setting up inception_4a/relu_pool_proj
I0403 16:29:57.667645 21139 net.cpp:148] Top shape: 24 64 14 14 (301056)
I0403 16:29:57.667660 21139 net.cpp:156] Memory required for data: 886912032
I0403 16:29:57.667675 21139 layer_factory.hpp:77] Creating layer inception_4a/output
I0403 16:29:57.667695 21139 net.cpp:91] Creating Layer inception_4a/output
I0403 16:29:57.667711 21139 net.cpp:425] inception_4a/output <- inception_4a/1x1
I0403 16:29:57.667726 21139 net.cpp:425] inception_4a/output <- inception_4a/3x3
I0403 16:29:57.667742 21139 net.cpp:425] inception_4a/output <- inception_4a/5x5
I0403 16:29:57.667758 21139 net.cpp:425] inception_4a/output <- inception_4a/pool_proj
I0403 16:29:57.667774 21139 net.cpp:399] inception_4a/output -> inception_4a/output
I0403 16:29:57.667821 21139 net.cpp:141] Setting up inception_4a/output
I0403 16:29:57.667845 21139 net.cpp:148] Top shape: 24 512 14 14 (2408448)
I0403 16:29:57.667860 21139 net.cpp:156] Memory required for data: 896545824
I0403 16:29:57.667873 21139 layer_factory.hpp:77] Creating layer inception_4a/output_inception_4a/output_0_split
I0403 16:29:57.667891 21139 net.cpp:91] Creating Layer inception_4a/output_inception_4a/output_0_split
I0403 16:29:57.667906 21139 net.cpp:425] inception_4a/output_inception_4a/output_0_split <- inception_4a/output
I0403 16:29:57.667925 21139 net.cpp:399] inception_4a/output_inception_4a/output_0_split -> inception_4a/output_inception_4a/output_0_split_0
I0403 16:29:57.667946 21139 net.cpp:399] inception_4a/output_inception_4a/output_0_split -> inception_4a/output_inception_4a/output_0_split_1
I0403 16:29:57.667965 21139 net.cpp:399] inception_4a/output_inception_4a/output_0_split -> inception_4a/output_inception_4a/output_0_split_2
I0403 16:29:57.667985 21139 net.cpp:399] inception_4a/output_inception_4a/output_0_split -> inception_4a/output_inception_4a/output_0_split_3
I0403 16:29:57.668004 21139 net.cpp:399] inception_4a/output_inception_4a/output_0_split -> inception_4a/output_inception_4a/output_0_split_4
I0403 16:29:57.668104 21139 net.cpp:141] Setting up inception_4a/output_inception_4a/output_0_split
I0403 16:29:57.668128 21139 net.cpp:148] Top shape: 24 512 14 14 (2408448)
I0403 16:29:57.668148 21139 net.cpp:148] Top shape: 24 512 14 14 (2408448)
I0403 16:29:57.668164 21139 net.cpp:148] Top shape: 24 512 14 14 (2408448)
I0403 16:29:57.668179 21139 net.cpp:148] Top shape: 24 512 14 14 (2408448)
I0403 16:29:57.668195 21139 net.cpp:148] Top shape: 24 512 14 14 (2408448)
I0403 16:29:57.668210 21139 net.cpp:156] Memory required for data: 944714784
I0403 16:29:57.668223 21139 layer_factory.hpp:77] Creating layer loss1/ave_pool
I0403 16:29:57.668241 21139 net.cpp:91] Creating Layer loss1/ave_pool
I0403 16:29:57.668256 21139 net.cpp:425] loss1/ave_pool <- inception_4a/output_inception_4a/output_0_split_0
I0403 16:29:57.668277 21139 net.cpp:399] loss1/ave_pool -> loss1/ave_pool
I0403 16:29:57.668488 21139 net.cpp:141] Setting up loss1/ave_pool
I0403 16:29:57.668514 21139 net.cpp:148] Top shape: 24 512 4 4 (196608)
I0403 16:29:57.668529 21139 net.cpp:156] Memory required for data: 945501216
I0403 16:29:57.668543 21139 layer_factory.hpp:77] Creating layer loss1/conv
I0403 16:29:57.668565 21139 net.cpp:91] Creating Layer loss1/conv
I0403 16:29:57.668582 21139 net.cpp:425] loss1/conv <- loss1/ave_pool
I0403 16:29:57.668602 21139 net.cpp:399] loss1/conv -> loss1/conv
I0403 16:29:57.670114 21139 net.cpp:141] Setting up loss1/conv
I0403 16:29:57.670143 21139 net.cpp:148] Top shape: 24 128 4 4 (49152)
I0403 16:29:57.670171 21139 net.cpp:156] Memory required for data: 945697824
I0403 16:29:57.670191 21139 layer_factory.hpp:77] Creating layer loss1/relu_conv
I0403 16:29:57.670207 21139 net.cpp:91] Creating Layer loss1/relu_conv
I0403 16:29:57.670222 21139 net.cpp:425] loss1/relu_conv <- loss1/conv
I0403 16:29:57.670241 21139 net.cpp:386] loss1/relu_conv -> loss1/conv (in-place)
I0403 16:29:57.670511 21139 net.cpp:141] Setting up loss1/relu_conv
I0403 16:29:57.670537 21139 net.cpp:148] Top shape: 24 128 4 4 (49152)
I0403 16:29:57.670552 21139 net.cpp:156] Memory required for data: 945894432
I0403 16:29:57.670567 21139 layer_factory.hpp:77] Creating layer loss1/fc
I0403 16:29:57.670588 21139 net.cpp:91] Creating Layer loss1/fc
I0403 16:29:57.670604 21139 net.cpp:425] loss1/fc <- loss1/conv
I0403 16:29:57.670625 21139 net.cpp:399] loss1/fc -> loss1/fc
I0403 16:29:57.687881 21139 net.cpp:141] Setting up loss1/fc
I0403 16:29:57.687912 21139 net.cpp:148] Top shape: 24 1024 (24576)
I0403 16:29:57.687927 21139 net.cpp:156] Memory required for data: 945992736
I0403 16:29:57.687945 21139 layer_factory.hpp:77] Creating layer loss1/relu_fc
I0403 16:29:57.687964 21139 net.cpp:91] Creating Layer loss1/relu_fc
I0403 16:29:57.687981 21139 net.cpp:425] loss1/relu_fc <- loss1/fc
I0403 16:29:57.687997 21139 net.cpp:386] loss1/relu_fc -> loss1/fc (in-place)
I0403 16:29:57.688177 21139 net.cpp:141] Setting up loss1/relu_fc
I0403 16:29:57.688202 21139 net.cpp:148] Top shape: 24 1024 (24576)
I0403 16:29:57.688216 21139 net.cpp:156] Memory required for data: 946091040
I0403 16:29:57.688230 21139 layer_factory.hpp:77] Creating layer loss1/drop_fc
I0403 16:29:57.688256 21139 net.cpp:91] Creating Layer loss1/drop_fc
I0403 16:29:57.688271 21139 net.cpp:425] loss1/drop_fc <- loss1/fc
I0403 16:29:57.688288 21139 net.cpp:386] loss1/drop_fc -> loss1/fc (in-place)
I0403 16:29:57.688338 21139 net.cpp:141] Setting up loss1/drop_fc
I0403 16:29:57.688360 21139 net.cpp:148] Top shape: 24 1024 (24576)
I0403 16:29:57.688374 21139 net.cpp:156] Memory required for data: 946189344
I0403 16:29:57.688387 21139 layer_factory.hpp:77] Creating layer loss1/classifier_plantvillage
I0403 16:29:57.688408 21139 net.cpp:91] Creating Layer loss1/classifier_plantvillage
I0403 16:29:57.688424 21139 net.cpp:425] loss1/classifier_plantvillage <- loss1/fc
I0403 16:29:57.688441 21139 net.cpp:399] loss1/classifier_plantvillage -> loss1/classifier_plantvillage
I0403 16:29:57.689347 21139 net.cpp:141] Setting up loss1/classifier_plantvillage
I0403 16:29:57.689373 21139 net.cpp:148] Top shape: 24 38 (912)
I0403 16:29:57.689388 21139 net.cpp:156] Memory required for data: 946192992
I0403 16:29:57.689404 21139 layer_factory.hpp:77] Creating layer loss1/classifier_plantvillage_loss1/classifier_plantvillage_0_split
I0403 16:29:57.689424 21139 net.cpp:91] Creating Layer loss1/classifier_plantvillage_loss1/classifier_plantvillage_0_split
I0403 16:29:57.689440 21139 net.cpp:425] loss1/classifier_plantvillage_loss1/classifier_plantvillage_0_split <- loss1/classifier_plantvillage
I0403 16:29:57.689456 21139 net.cpp:399] loss1/classifier_plantvillage_loss1/classifier_plantvillage_0_split -> loss1/classifier_plantvillage_loss1/classifier_plantvillage_0_split_0
I0403 16:29:57.689477 21139 net.cpp:399] loss1/classifier_plantvillage_loss1/classifier_plantvillage_0_split -> loss1/classifier_plantvillage_loss1/classifier_plantvillage_0_split_1
I0403 16:29:57.689497 21139 net.cpp:399] loss1/classifier_plantvillage_loss1/classifier_plantvillage_0_split -> loss1/classifier_plantvillage_loss1/classifier_plantvillage_0_split_2
I0403 16:29:57.689559 21139 net.cpp:141] Setting up loss1/classifier_plantvillage_loss1/classifier_plantvillage_0_split
I0403 16:29:57.689581 21139 net.cpp:148] Top shape: 24 38 (912)
I0403 16:29:57.689596 21139 net.cpp:148] Top shape: 24 38 (912)
I0403 16:29:57.689610 21139 net.cpp:148] Top shape: 24 38 (912)
I0403 16:29:57.689623 21139 net.cpp:156] Memory required for data: 946203936
I0403 16:29:57.689637 21139 layer_factory.hpp:77] Creating layer inception_4b/1x1
I0403 16:29:57.689659 21139 net.cpp:91] Creating Layer inception_4b/1x1
I0403 16:29:57.689689 21139 net.cpp:425] inception_4b/1x1 <- inception_4a/output_inception_4a/output_0_split_1
I0403 16:29:57.689708 21139 net.cpp:399] inception_4b/1x1 -> inception_4b/1x1
I0403 16:29:57.691300 21139 net.cpp:141] Setting up inception_4b/1x1
I0403 16:29:57.691329 21139 net.cpp:148] Top shape: 24 160 14 14 (752640)
I0403 16:29:57.691344 21139 net.cpp:156] Memory required for data: 949214496
I0403 16:29:57.691362 21139 layer_factory.hpp:77] Creating layer inception_4b/relu_1x1
I0403 16:29:57.691380 21139 net.cpp:91] Creating Layer inception_4b/relu_1x1
I0403 16:29:57.691395 21139 net.cpp:425] inception_4b/relu_1x1 <- inception_4b/1x1
I0403 16:29:57.691412 21139 net.cpp:386] inception_4b/relu_1x1 -> inception_4b/1x1 (in-place)
I0403 16:29:57.691583 21139 net.cpp:141] Setting up inception_4b/relu_1x1
I0403 16:29:57.691607 21139 net.cpp:148] Top shape: 24 160 14 14 (752640)
I0403 16:29:57.691620 21139 net.cpp:156] Memory required for data: 952225056
I0403 16:29:57.691634 21139 layer_factory.hpp:77] Creating layer inception_4b/3x3_reduce
I0403 16:29:57.691655 21139 net.cpp:91] Creating Layer inception_4b/3x3_reduce
I0403 16:29:57.691673 21139 net.cpp:425] inception_4b/3x3_reduce <- inception_4a/output_inception_4a/output_0_split_2
I0403 16:29:57.691692 21139 net.cpp:399] inception_4b/3x3_reduce -> inception_4b/3x3_reduce
I0403 16:29:57.693022 21139 net.cpp:141] Setting up inception_4b/3x3_reduce
I0403 16:29:57.693053 21139 net.cpp:148] Top shape: 24 112 14 14 (526848)
I0403 16:29:57.693068 21139 net.cpp:156] Memory required for data: 954332448
I0403 16:29:57.693086 21139 layer_factory.hpp:77] Creating layer inception_4b/relu_3x3_reduce
I0403 16:29:57.693104 21139 net.cpp:91] Creating Layer inception_4b/relu_3x3_reduce
I0403 16:29:57.693119 21139 net.cpp:425] inception_4b/relu_3x3_reduce <- inception_4b/3x3_reduce
I0403 16:29:57.693138 21139 net.cpp:386] inception_4b/relu_3x3_reduce -> inception_4b/3x3_reduce (in-place)
I0403 16:29:57.693409 21139 net.cpp:141] Setting up inception_4b/relu_3x3_reduce
I0403 16:29:57.693434 21139 net.cpp:148] Top shape: 24 112 14 14 (526848)
I0403 16:29:57.693449 21139 net.cpp:156] Memory required for data: 956439840
I0403 16:29:57.693462 21139 layer_factory.hpp:77] Creating layer inception_4b/3x3
I0403 16:29:57.693483 21139 net.cpp:91] Creating Layer inception_4b/3x3
I0403 16:29:57.693500 21139 net.cpp:425] inception_4b/3x3 <- inception_4b/3x3_reduce
I0403 16:29:57.693532 21139 net.cpp:399] inception_4b/3x3 -> inception_4b/3x3
I0403 16:29:57.696442 21139 net.cpp:141] Setting up inception_4b/3x3
I0403 16:29:57.696470 21139 net.cpp:148] Top shape: 24 224 14 14 (1053696)
I0403 16:29:57.696485 21139 net.cpp:156] Memory required for data: 960654624
I0403 16:29:57.696503 21139 layer_factory.hpp:77] Creating layer inception_4b/relu_3x3
I0403 16:29:57.696522 21139 net.cpp:91] Creating Layer inception_4b/relu_3x3
I0403 16:29:57.696537 21139 net.cpp:425] inception_4b/relu_3x3 <- inception_4b/3x3
I0403 16:29:57.696553 21139 net.cpp:386] inception_4b/relu_3x3 -> inception_4b/3x3 (in-place)
I0403 16:29:57.696723 21139 net.cpp:141] Setting up inception_4b/relu_3x3
I0403 16:29:57.696749 21139 net.cpp:148] Top shape: 24 224 14 14 (1053696)
I0403 16:29:57.696763 21139 net.cpp:156] Memory required for data: 964869408
I0403 16:29:57.696776 21139 layer_factory.hpp:77] Creating layer inception_4b/5x5_reduce
I0403 16:29:57.696797 21139 net.cpp:91] Creating Layer inception_4b/5x5_reduce
I0403 16:29:57.696813 21139 net.cpp:425] inception_4b/5x5_reduce <- inception_4a/output_inception_4a/output_0_split_3
I0403 16:29:57.696833 21139 net.cpp:399] inception_4b/5x5_reduce -> inception_4b/5x5_reduce
I0403 16:29:57.697938 21139 net.cpp:141] Setting up inception_4b/5x5_reduce
I0403 16:29:57.697967 21139 net.cpp:148] Top shape: 24 24 14 14 (112896)
I0403 16:29:57.697983 21139 net.cpp:156] Memory required for data: 965320992
I0403 16:29:57.698001 21139 layer_factory.hpp:77] Creating layer inception_4b/relu_5x5_reduce
I0403 16:29:57.698019 21139 net.cpp:91] Creating Layer inception_4b/relu_5x5_reduce
I0403 16:29:57.698058 21139 net.cpp:425] inception_4b/relu_5x5_reduce <- inception_4b/5x5_reduce
I0403 16:29:57.698082 21139 net.cpp:386] inception_4b/relu_5x5_reduce -> inception_4b/5x5_reduce (in-place)
I0403 16:29:57.698272 21139 net.cpp:141] Setting up inception_4b/relu_5x5_reduce
I0403 16:29:57.698297 21139 net.cpp:148] Top shape: 24 24 14 14 (112896)
I0403 16:29:57.698310 21139 net.cpp:156] Memory required for data: 965772576
I0403 16:29:57.698324 21139 layer_factory.hpp:77] Creating layer inception_4b/5x5
I0403 16:29:57.698346 21139 net.cpp:91] Creating Layer inception_4b/5x5
I0403 16:29:57.698362 21139 net.cpp:425] inception_4b/5x5 <- inception_4b/5x5_reduce
I0403 16:29:57.698382 21139 net.cpp:399] inception_4b/5x5 -> inception_4b/5x5
I0403 16:29:57.699636 21139 net.cpp:141] Setting up inception_4b/5x5
I0403 16:29:57.699666 21139 net.cpp:148] Top shape: 24 64 14 14 (301056)
I0403 16:29:57.699681 21139 net.cpp:156] Memory required for data: 966976800
I0403 16:29:57.699699 21139 layer_factory.hpp:77] Creating layer inception_4b/relu_5x5
I0403 16:29:57.699717 21139 net.cpp:91] Creating Layer inception_4b/relu_5x5
I0403 16:29:57.699733 21139 net.cpp:425] inception_4b/relu_5x5 <- inception_4b/5x5
I0403 16:29:57.699751 21139 net.cpp:386] inception_4b/relu_5x5 -> inception_4b/5x5 (in-place)
I0403 16:29:57.700033 21139 net.cpp:141] Setting up inception_4b/relu_5x5
I0403 16:29:57.700068 21139 net.cpp:148] Top shape: 24 64 14 14 (301056)
I0403 16:29:57.700084 21139 net.cpp:156] Memory required for data: 968181024
I0403 16:29:57.700099 21139 layer_factory.hpp:77] Creating layer inception_4b/pool
I0403 16:29:57.700116 21139 net.cpp:91] Creating Layer inception_4b/pool
I0403 16:29:57.700132 21139 net.cpp:425] inception_4b/pool <- inception_4a/output_inception_4a/output_0_split_4
I0403 16:29:57.700152 21139 net.cpp:399] inception_4b/pool -> inception_4b/pool
I0403 16:29:57.700214 21139 net.cpp:141] Setting up inception_4b/pool
I0403 16:29:57.700239 21139 net.cpp:148] Top shape: 24 512 14 14 (2408448)
I0403 16:29:57.700255 21139 net.cpp:156] Memory required for data: 977814816
I0403 16:29:57.700268 21139 layer_factory.hpp:77] Creating layer inception_4b/pool_proj
I0403 16:29:57.700287 21139 net.cpp:91] Creating Layer inception_4b/pool_proj
I0403 16:29:57.700304 21139 net.cpp:425] inception_4b/pool_proj <- inception_4b/pool
I0403 16:29:57.700323 21139 net.cpp:399] inception_4b/pool_proj -> inception_4b/pool_proj
I0403 16:29:57.701520 21139 net.cpp:141] Setting up inception_4b/pool_proj
I0403 16:29:57.701547 21139 net.cpp:148] Top shape: 24 64 14 14 (301056)
I0403 16:29:57.701561 21139 net.cpp:156] Memory required for data: 979019040
I0403 16:29:57.701580 21139 layer_factory.hpp:77] Creating layer inception_4b/relu_pool_proj
I0403 16:29:57.701597 21139 net.cpp:91] Creating Layer inception_4b/relu_pool_proj
I0403 16:29:57.701612 21139 net.cpp:425] inception_4b/relu_pool_proj <- inception_4b/pool_proj
I0403 16:29:57.701632 21139 net.cpp:386] inception_4b/relu_pool_proj -> inception_4b/pool_proj (in-place)
I0403 16:29:57.701809 21139 net.cpp:141] Setting up inception_4b/relu_pool_proj
I0403 16:29:57.701833 21139 net.cpp:148] Top shape: 24 64 14 14 (301056)
I0403 16:29:57.701848 21139 net.cpp:156] Memory required for data: 980223264
I0403 16:29:57.701861 21139 layer_factory.hpp:77] Creating layer inception_4b/output
I0403 16:29:57.701879 21139 net.cpp:91] Creating Layer inception_4b/output
I0403 16:29:57.701892 21139 net.cpp:425] inception_4b/output <- inception_4b/1x1
I0403 16:29:57.701910 21139 net.cpp:425] inception_4b/output <- inception_4b/3x3
I0403 16:29:57.701925 21139 net.cpp:425] inception_4b/output <- inception_4b/5x5
I0403 16:29:57.701939 21139 net.cpp:425] inception_4b/output <- inception_4b/pool_proj
I0403 16:29:57.701958 21139 net.cpp:399] inception_4b/output -> inception_4b/output
I0403 16:29:57.702004 21139 net.cpp:141] Setting up inception_4b/output
I0403 16:29:57.702028 21139 net.cpp:148] Top shape: 24 512 14 14 (2408448)
I0403 16:29:57.702041 21139 net.cpp:156] Memory required for data: 989857056
I0403 16:29:57.702075 21139 layer_factory.hpp:77] Creating layer inception_4b/output_inception_4b/output_0_split
I0403 16:29:57.702091 21139 net.cpp:91] Creating Layer inception_4b/output_inception_4b/output_0_split
I0403 16:29:57.702106 21139 net.cpp:425] inception_4b/output_inception_4b/output_0_split <- inception_4b/output
I0403 16:29:57.702126 21139 net.cpp:399] inception_4b/output_inception_4b/output_0_split -> inception_4b/output_inception_4b/output_0_split_0
I0403 16:29:57.702145 21139 net.cpp:399] inception_4b/output_inception_4b/output_0_split -> inception_4b/output_inception_4b/output_0_split_1
I0403 16:29:57.702165 21139 net.cpp:399] inception_4b/output_inception_4b/output_0_split -> inception_4b/output_inception_4b/output_0_split_2
I0403 16:29:57.702184 21139 net.cpp:399] inception_4b/output_inception_4b/output_0_split -> inception_4b/output_inception_4b/output_0_split_3
I0403 16:29:57.702267 21139 net.cpp:141] Setting up inception_4b/output_inception_4b/output_0_split
I0403 16:29:57.702292 21139 net.cpp:148] Top shape: 24 512 14 14 (2408448)
I0403 16:29:57.702309 21139 net.cpp:148] Top shape: 24 512 14 14 (2408448)
I0403 16:29:57.702324 21139 net.cpp:148] Top shape: 24 512 14 14 (2408448)
I0403 16:29:57.702338 21139 net.cpp:148] Top shape: 24 512 14 14 (2408448)
I0403 16:29:57.702353 21139 net.cpp:156] Memory required for data: 1028392224
I0403 16:29:57.702365 21139 layer_factory.hpp:77] Creating layer inception_4c/1x1
I0403 16:29:57.702388 21139 net.cpp:91] Creating Layer inception_4c/1x1
I0403 16:29:57.702404 21139 net.cpp:425] inception_4c/1x1 <- inception_4b/output_inception_4b/output_0_split_0
I0403 16:29:57.702422 21139 net.cpp:399] inception_4c/1x1 -> inception_4c/1x1
I0403 16:29:57.703842 21139 net.cpp:141] Setting up inception_4c/1x1
I0403 16:29:57.703871 21139 net.cpp:148] Top shape: 24 128 14 14 (602112)
I0403 16:29:57.703891 21139 net.cpp:156] Memory required for data: 1030800672
I0403 16:29:57.703910 21139 layer_factory.hpp:77] Creating layer inception_4c/relu_1x1
I0403 16:29:57.703940 21139 net.cpp:91] Creating Layer inception_4c/relu_1x1
I0403 16:29:57.703958 21139 net.cpp:425] inception_4c/relu_1x1 <- inception_4c/1x1
I0403 16:29:57.703989 21139 net.cpp:386] inception_4c/relu_1x1 -> inception_4c/1x1 (in-place)
I0403 16:29:57.704176 21139 net.cpp:141] Setting up inception_4c/relu_1x1
I0403 16:29:57.704213 21139 net.cpp:148] Top shape: 24 128 14 14 (602112)
I0403 16:29:57.704234 21139 net.cpp:156] Memory required for data: 1033209120
I0403 16:29:57.704270 21139 layer_factory.hpp:77] Creating layer inception_4c/3x3_reduce
I0403 16:29:57.704301 21139 net.cpp:91] Creating Layer inception_4c/3x3_reduce
I0403 16:29:57.704321 21139 net.cpp:425] inception_4c/3x3_reduce <- inception_4b/output_inception_4b/output_0_split_1
I0403 16:29:57.704345 21139 net.cpp:399] inception_4c/3x3_reduce -> inception_4c/3x3_reduce
I0403 16:29:57.706334 21139 net.cpp:141] Setting up inception_4c/3x3_reduce
I0403 16:29:57.706365 21139 net.cpp:148] Top shape: 24 128 14 14 (602112)
I0403 16:29:57.706382 21139 net.cpp:156] Memory required for data: 1035617568
I0403 16:29:57.706400 21139 layer_factory.hpp:77] Creating layer inception_4c/relu_3x3_reduce
I0403 16:29:57.706418 21139 net.cpp:91] Creating Layer inception_4c/relu_3x3_reduce
I0403 16:29:57.706434 21139 net.cpp:425] inception_4c/relu_3x3_reduce <- inception_4c/3x3_reduce
I0403 16:29:57.706454 21139 net.cpp:386] inception_4c/relu_3x3_reduce -> inception_4c/3x3_reduce (in-place)
I0403 16:29:57.706744 21139 net.cpp:141] Setting up inception_4c/relu_3x3_reduce
I0403 16:29:57.706773 21139 net.cpp:148] Top shape: 24 128 14 14 (602112)
I0403 16:29:57.706787 21139 net.cpp:156] Memory required for data: 1038026016
I0403 16:29:57.706801 21139 layer_factory.hpp:77] Creating layer inception_4c/3x3
I0403 16:29:57.706825 21139 net.cpp:91] Creating Layer inception_4c/3x3
I0403 16:29:57.706842 21139 net.cpp:425] inception_4c/3x3 <- inception_4c/3x3_reduce
I0403 16:29:57.706863 21139 net.cpp:399] inception_4c/3x3 -> inception_4c/3x3
I0403 16:29:57.710592 21139 net.cpp:141] Setting up inception_4c/3x3
I0403 16:29:57.710636 21139 net.cpp:148] Top shape: 24 256 14 14 (1204224)
I0403 16:29:57.710654 21139 net.cpp:156] Memory required for data: 1042842912
I0403 16:29:57.710686 21139 layer_factory.hpp:77] Creating layer inception_4c/relu_3x3
I0403 16:29:57.710707 21139 net.cpp:91] Creating Layer inception_4c/relu_3x3
I0403 16:29:57.710723 21139 net.cpp:425] inception_4c/relu_3x3 <- inception_4c/3x3
I0403 16:29:57.710744 21139 net.cpp:386] inception_4c/relu_3x3 -> inception_4c/3x3 (in-place)
I0403 16:29:57.710930 21139 net.cpp:141] Setting up inception_4c/relu_3x3
I0403 16:29:57.710955 21139 net.cpp:148] Top shape: 24 256 14 14 (1204224)
I0403 16:29:57.710969 21139 net.cpp:156] Memory required for data: 1047659808
I0403 16:29:57.710983 21139 layer_factory.hpp:77] Creating layer inception_4c/5x5_reduce
I0403 16:29:57.711007 21139 net.cpp:91] Creating Layer inception_4c/5x5_reduce
I0403 16:29:57.711025 21139 net.cpp:425] inception_4c/5x5_reduce <- inception_4b/output_inception_4b/output_0_split_2
I0403 16:29:57.711046 21139 net.cpp:399] inception_4c/5x5_reduce -> inception_4c/5x5_reduce
I0403 16:29:57.712162 21139 net.cpp:141] Setting up inception_4c/5x5_reduce
I0403 16:29:57.712190 21139 net.cpp:148] Top shape: 24 24 14 14 (112896)
I0403 16:29:57.712205 21139 net.cpp:156] Memory required for data: 1048111392
I0403 16:29:57.712224 21139 layer_factory.hpp:77] Creating layer inception_4c/relu_5x5_reduce
I0403 16:29:57.712241 21139 net.cpp:91] Creating Layer inception_4c/relu_5x5_reduce
I0403 16:29:57.712257 21139 net.cpp:425] inception_4c/relu_5x5_reduce <- inception_4c/5x5_reduce
I0403 16:29:57.712277 21139 net.cpp:386] inception_4c/relu_5x5_reduce -> inception_4c/5x5_reduce (in-place)
I0403 16:29:57.712461 21139 net.cpp:141] Setting up inception_4c/relu_5x5_reduce
I0403 16:29:57.712486 21139 net.cpp:148] Top shape: 24 24 14 14 (112896)
I0403 16:29:57.712502 21139 net.cpp:156] Memory required for data: 1048562976
I0403 16:29:57.712517 21139 layer_factory.hpp:77] Creating layer inception_4c/5x5
I0403 16:29:57.712538 21139 net.cpp:91] Creating Layer inception_4c/5x5
I0403 16:29:57.712555 21139 net.cpp:425] inception_4c/5x5 <- inception_4c/5x5_reduce
I0403 16:29:57.712577 21139 net.cpp:399] inception_4c/5x5 -> inception_4c/5x5
I0403 16:29:57.713857 21139 net.cpp:141] Setting up inception_4c/5x5
I0403 16:29:57.713886 21139 net.cpp:148] Top shape: 24 64 14 14 (301056)
I0403 16:29:57.713901 21139 net.cpp:156] Memory required for data: 1049767200
I0403 16:29:57.713918 21139 layer_factory.hpp:77] Creating layer inception_4c/relu_5x5
I0403 16:29:57.713938 21139 net.cpp:91] Creating Layer inception_4c/relu_5x5
I0403 16:29:57.713955 21139 net.cpp:425] inception_4c/relu_5x5 <- inception_4c/5x5
I0403 16:29:57.713985 21139 net.cpp:386] inception_4c/relu_5x5 -> inception_4c/5x5 (in-place)
I0403 16:29:57.714309 21139 net.cpp:141] Setting up inception_4c/relu_5x5
I0403 16:29:57.714336 21139 net.cpp:148] Top shape: 24 64 14 14 (301056)
I0403 16:29:57.714350 21139 net.cpp:156] Memory required for data: 1050971424
I0403 16:29:57.714365 21139 layer_factory.hpp:77] Creating layer inception_4c/pool
I0403 16:29:57.714385 21139 net.cpp:91] Creating Layer inception_4c/pool
I0403 16:29:57.714401 21139 net.cpp:425] inception_4c/pool <- inception_4b/output_inception_4b/output_0_split_3
I0403 16:29:57.714421 21139 net.cpp:399] inception_4c/pool -> inception_4c/pool
I0403 16:29:57.714488 21139 net.cpp:141] Setting up inception_4c/pool
I0403 16:29:57.714512 21139 net.cpp:148] Top shape: 24 512 14 14 (2408448)
I0403 16:29:57.714526 21139 net.cpp:156] Memory required for data: 1060605216
I0403 16:29:57.714541 21139 layer_factory.hpp:77] Creating layer inception_4c/pool_proj
I0403 16:29:57.714563 21139 net.cpp:91] Creating Layer inception_4c/pool_proj
I0403 16:29:57.714581 21139 net.cpp:425] inception_4c/pool_proj <- inception_4c/pool
I0403 16:29:57.714601 21139 net.cpp:399] inception_4c/pool_proj -> inception_4c/pool_proj
I0403 16:29:57.715859 21139 net.cpp:141] Setting up inception_4c/pool_proj
I0403 16:29:57.715890 21139 net.cpp:148] Top shape: 24 64 14 14 (301056)
I0403 16:29:57.715920 21139 net.cpp:156] Memory required for data: 1061809440
I0403 16:29:57.715939 21139 layer_factory.hpp:77] Creating layer inception_4c/relu_pool_proj
I0403 16:29:57.715957 21139 net.cpp:91] Creating Layer inception_4c/relu_pool_proj
I0403 16:29:57.715973 21139 net.cpp:425] inception_4c/relu_pool_proj <- inception_4c/pool_proj
I0403 16:29:57.715993 21139 net.cpp:386] inception_4c/relu_pool_proj -> inception_4c/pool_proj (in-place)
I0403 16:29:57.716186 21139 net.cpp:141] Setting up inception_4c/relu_pool_proj
I0403 16:29:57.716212 21139 net.cpp:148] Top shape: 24 64 14 14 (301056)
I0403 16:29:57.716228 21139 net.cpp:156] Memory required for data: 1063013664
I0403 16:29:57.716243 21139 layer_factory.hpp:77] Creating layer inception_4c/output
I0403 16:29:57.716259 21139 net.cpp:91] Creating Layer inception_4c/output
I0403 16:29:57.716274 21139 net.cpp:425] inception_4c/output <- inception_4c/1x1
I0403 16:29:57.716290 21139 net.cpp:425] inception_4c/output <- inception_4c/3x3
I0403 16:29:57.716306 21139 net.cpp:425] inception_4c/output <- inception_4c/5x5
I0403 16:29:57.716322 21139 net.cpp:425] inception_4c/output <- inception_4c/pool_proj
I0403 16:29:57.716341 21139 net.cpp:399] inception_4c/output -> inception_4c/output
I0403 16:29:57.716392 21139 net.cpp:141] Setting up inception_4c/output
I0403 16:29:57.716415 21139 net.cpp:148] Top shape: 24 512 14 14 (2408448)
I0403 16:29:57.716429 21139 net.cpp:156] Memory required for data: 1072647456
I0403 16:29:57.716444 21139 layer_factory.hpp:77] Creating layer inception_4c/output_inception_4c/output_0_split
I0403 16:29:57.716460 21139 net.cpp:91] Creating Layer inception_4c/output_inception_4c/output_0_split
I0403 16:29:57.716475 21139 net.cpp:425] inception_4c/output_inception_4c/output_0_split <- inception_4c/output
I0403 16:29:57.716495 21139 net.cpp:399] inception_4c/output_inception_4c/output_0_split -> inception_4c/output_inception_4c/output_0_split_0
I0403 16:29:57.716516 21139 net.cpp:399] inception_4c/output_inception_4c/output_0_split -> inception_4c/output_inception_4c/output_0_split_1
I0403 16:29:57.716536 21139 net.cpp:399] inception_4c/output_inception_4c/output_0_split -> inception_4c/output_inception_4c/output_0_split_2
I0403 16:29:57.716555 21139 net.cpp:399] inception_4c/output_inception_4c/output_0_split -> inception_4c/output_inception_4c/output_0_split_3
I0403 16:29:57.716642 21139 net.cpp:141] Setting up inception_4c/output_inception_4c/output_0_split
I0403 16:29:57.716668 21139 net.cpp:148] Top shape: 24 512 14 14 (2408448)
I0403 16:29:57.716686 21139 net.cpp:148] Top shape: 24 512 14 14 (2408448)
I0403 16:29:57.716702 21139 net.cpp:148] Top shape: 24 512 14 14 (2408448)
I0403 16:29:57.716717 21139 net.cpp:148] Top shape: 24 512 14 14 (2408448)
I0403 16:29:57.716732 21139 net.cpp:156] Memory required for data: 1111182624
I0403 16:29:57.716747 21139 layer_factory.hpp:77] Creating layer inception_4d/1x1
I0403 16:29:57.716768 21139 net.cpp:91] Creating Layer inception_4d/1x1
I0403 16:29:57.716785 21139 net.cpp:425] inception_4d/1x1 <- inception_4c/output_inception_4c/output_0_split_0
I0403 16:29:57.716804 21139 net.cpp:399] inception_4d/1x1 -> inception_4d/1x1
I0403 16:29:57.718228 21139 net.cpp:141] Setting up inception_4d/1x1
I0403 16:29:57.718256 21139 net.cpp:148] Top shape: 24 112 14 14 (526848)
I0403 16:29:57.718271 21139 net.cpp:156] Memory required for data: 1113290016
I0403 16:29:57.718289 21139 layer_factory.hpp:77] Creating layer inception_4d/relu_1x1
I0403 16:29:57.718309 21139 net.cpp:91] Creating Layer inception_4d/relu_1x1
I0403 16:29:57.718325 21139 net.cpp:425] inception_4d/relu_1x1 <- inception_4d/1x1
I0403 16:29:57.718341 21139 net.cpp:386] inception_4d/relu_1x1 -> inception_4d/1x1 (in-place)
I0403 16:29:57.718526 21139 net.cpp:141] Setting up inception_4d/relu_1x1
I0403 16:29:57.718551 21139 net.cpp:148] Top shape: 24 112 14 14 (526848)
I0403 16:29:57.718564 21139 net.cpp:156] Memory required for data: 1115397408
I0403 16:29:57.718580 21139 layer_factory.hpp:77] Creating layer inception_4d/3x3_reduce
I0403 16:29:57.718616 21139 net.cpp:91] Creating Layer inception_4d/3x3_reduce
I0403 16:29:57.718633 21139 net.cpp:425] inception_4d/3x3_reduce <- inception_4c/output_inception_4c/output_0_split_1
I0403 16:29:57.718654 21139 net.cpp:399] inception_4d/3x3_reduce -> inception_4d/3x3_reduce
I0403 16:29:57.720201 21139 net.cpp:141] Setting up inception_4d/3x3_reduce
I0403 16:29:57.720228 21139 net.cpp:148] Top shape: 24 144 14 14 (677376)
I0403 16:29:57.720243 21139 net.cpp:156] Memory required for data: 1118106912
I0403 16:29:57.720260 21139 layer_factory.hpp:77] Creating layer inception_4d/relu_3x3_reduce
I0403 16:29:57.720280 21139 net.cpp:91] Creating Layer inception_4d/relu_3x3_reduce
I0403 16:29:57.720296 21139 net.cpp:425] inception_4d/relu_3x3_reduce <- inception_4d/3x3_reduce
I0403 16:29:57.720314 21139 net.cpp:386] inception_4d/relu_3x3_reduce -> inception_4d/3x3_reduce (in-place)
I0403 16:29:57.720600 21139 net.cpp:141] Setting up inception_4d/relu_3x3_reduce
I0403 16:29:57.720626 21139 net.cpp:148] Top shape: 24 144 14 14 (677376)
I0403 16:29:57.720640 21139 net.cpp:156] Memory required for data: 1120816416
I0403 16:29:57.720654 21139 layer_factory.hpp:77] Creating layer inception_4d/3x3
I0403 16:29:57.720676 21139 net.cpp:91] Creating Layer inception_4d/3x3
I0403 16:29:57.720693 21139 net.cpp:425] inception_4d/3x3 <- inception_4d/3x3_reduce
I0403 16:29:57.720715 21139 net.cpp:399] inception_4d/3x3 -> inception_4d/3x3
I0403 16:29:57.725003 21139 net.cpp:141] Setting up inception_4d/3x3
I0403 16:29:57.725035 21139 net.cpp:148] Top shape: 24 288 14 14 (1354752)
I0403 16:29:57.725055 21139 net.cpp:156] Memory required for data: 1126235424
I0403 16:29:57.725075 21139 layer_factory.hpp:77] Creating layer inception_4d/relu_3x3
I0403 16:29:57.725092 21139 net.cpp:91] Creating Layer inception_4d/relu_3x3
I0403 16:29:57.725108 21139 net.cpp:425] inception_4d/relu_3x3 <- inception_4d/3x3
I0403 16:29:57.725126 21139 net.cpp:386] inception_4d/relu_3x3 -> inception_4d/3x3 (in-place)
I0403 16:29:57.725311 21139 net.cpp:141] Setting up inception_4d/relu_3x3
I0403 16:29:57.725334 21139 net.cpp:148] Top shape: 24 288 14 14 (1354752)
I0403 16:29:57.725348 21139 net.cpp:156] Memory required for data: 1131654432
I0403 16:29:57.725363 21139 layer_factory.hpp:77] Creating layer inception_4d/5x5_reduce
I0403 16:29:57.725383 21139 net.cpp:91] Creating Layer inception_4d/5x5_reduce
I0403 16:29:57.725400 21139 net.cpp:425] inception_4d/5x5_reduce <- inception_4c/output_inception_4c/output_0_split_2
I0403 16:29:57.725422 21139 net.cpp:399] inception_4d/5x5_reduce -> inception_4d/5x5_reduce
I0403 16:29:57.726562 21139 net.cpp:141] Setting up inception_4d/5x5_reduce
I0403 16:29:57.726593 21139 net.cpp:148] Top shape: 24 32 14 14 (150528)
I0403 16:29:57.726608 21139 net.cpp:156] Memory required for data: 1132256544
I0403 16:29:57.726626 21139 layer_factory.hpp:77] Creating layer inception_4d/relu_5x5_reduce
I0403 16:29:57.726644 21139 net.cpp:91] Creating Layer inception_4d/relu_5x5_reduce
I0403 16:29:57.726658 21139 net.cpp:425] inception_4d/relu_5x5_reduce <- inception_4d/5x5_reduce
I0403 16:29:57.726677 21139 net.cpp:386] inception_4d/relu_5x5_reduce -> inception_4d/5x5_reduce (in-place)
I0403 16:29:57.726861 21139 net.cpp:141] Setting up inception_4d/relu_5x5_reduce
I0403 16:29:57.726886 21139 net.cpp:148] Top shape: 24 32 14 14 (150528)
I0403 16:29:57.726900 21139 net.cpp:156] Memory required for data: 1132858656
I0403 16:29:57.726914 21139 layer_factory.hpp:77] Creating layer inception_4d/5x5
I0403 16:29:57.726936 21139 net.cpp:91] Creating Layer inception_4d/5x5
I0403 16:29:57.726953 21139 net.cpp:425] inception_4d/5x5 <- inception_4d/5x5_reduce
I0403 16:29:57.726986 21139 net.cpp:399] inception_4d/5x5 -> inception_4d/5x5
I0403 16:29:57.728505 21139 net.cpp:141] Setting up inception_4d/5x5
I0403 16:29:57.728533 21139 net.cpp:148] Top shape: 24 64 14 14 (301056)
I0403 16:29:57.728548 21139 net.cpp:156] Memory required for data: 1134062880
I0403 16:29:57.728565 21139 layer_factory.hpp:77] Creating layer inception_4d/relu_5x5
I0403 16:29:57.728600 21139 net.cpp:91] Creating Layer inception_4d/relu_5x5
I0403 16:29:57.728616 21139 net.cpp:425] inception_4d/relu_5x5 <- inception_4d/5x5
I0403 16:29:57.728636 21139 net.cpp:386] inception_4d/relu_5x5 -> inception_4d/5x5 (in-place)
I0403 16:29:57.728940 21139 net.cpp:141] Setting up inception_4d/relu_5x5
I0403 16:29:57.728966 21139 net.cpp:148] Top shape: 24 64 14 14 (301056)
I0403 16:29:57.728981 21139 net.cpp:156] Memory required for data: 1135267104
I0403 16:29:57.728994 21139 layer_factory.hpp:77] Creating layer inception_4d/pool
I0403 16:29:57.729012 21139 net.cpp:91] Creating Layer inception_4d/pool
I0403 16:29:57.729027 21139 net.cpp:425] inception_4d/pool <- inception_4c/output_inception_4c/output_0_split_3
I0403 16:29:57.729058 21139 net.cpp:399] inception_4d/pool -> inception_4d/pool
I0403 16:29:57.729127 21139 net.cpp:141] Setting up inception_4d/pool
I0403 16:29:57.729151 21139 net.cpp:148] Top shape: 24 512 14 14 (2408448)
I0403 16:29:57.729166 21139 net.cpp:156] Memory required for data: 1144900896
I0403 16:29:57.729179 21139 layer_factory.hpp:77] Creating layer inception_4d/pool_proj
I0403 16:29:57.729202 21139 net.cpp:91] Creating Layer inception_4d/pool_proj
I0403 16:29:57.729219 21139 net.cpp:425] inception_4d/pool_proj <- inception_4d/pool
I0403 16:29:57.729236 21139 net.cpp:399] inception_4d/pool_proj -> inception_4d/pool_proj
I0403 16:29:57.730995 21139 net.cpp:141] Setting up inception_4d/pool_proj
I0403 16:29:57.731025 21139 net.cpp:148] Top shape: 24 64 14 14 (301056)
I0403 16:29:57.731041 21139 net.cpp:156] Memory required for data: 1146105120
I0403 16:29:57.731065 21139 layer_factory.hpp:77] Creating layer inception_4d/relu_pool_proj
I0403 16:29:57.731082 21139 net.cpp:91] Creating Layer inception_4d/relu_pool_proj
I0403 16:29:57.731098 21139 net.cpp:425] inception_4d/relu_pool_proj <- inception_4d/pool_proj
I0403 16:29:57.731114 21139 net.cpp:386] inception_4d/relu_pool_proj -> inception_4d/pool_proj (in-place)
I0403 16:29:57.731300 21139 net.cpp:141] Setting up inception_4d/relu_pool_proj
I0403 16:29:57.731324 21139 net.cpp:148] Top shape: 24 64 14 14 (301056)
I0403 16:29:57.731338 21139 net.cpp:156] Memory required for data: 1147309344
I0403 16:29:57.731353 21139 layer_factory.hpp:77] Creating layer inception_4d/output
I0403 16:29:57.731369 21139 net.cpp:91] Creating Layer inception_4d/output
I0403 16:29:57.731384 21139 net.cpp:425] inception_4d/output <- inception_4d/1x1
I0403 16:29:57.731400 21139 net.cpp:425] inception_4d/output <- inception_4d/3x3
I0403 16:29:57.731416 21139 net.cpp:425] inception_4d/output <- inception_4d/5x5
I0403 16:29:57.731431 21139 net.cpp:425] inception_4d/output <- inception_4d/pool_proj
I0403 16:29:57.731449 21139 net.cpp:399] inception_4d/output -> inception_4d/output
I0403 16:29:57.731497 21139 net.cpp:141] Setting up inception_4d/output
I0403 16:29:57.731521 21139 net.cpp:148] Top shape: 24 528 14 14 (2483712)
I0403 16:29:57.731536 21139 net.cpp:156] Memory required for data: 1157244192
I0403 16:29:57.731551 21139 layer_factory.hpp:77] Creating layer inception_4d/output_inception_4d/output_0_split
I0403 16:29:57.731567 21139 net.cpp:91] Creating Layer inception_4d/output_inception_4d/output_0_split
I0403 16:29:57.731582 21139 net.cpp:425] inception_4d/output_inception_4d/output_0_split <- inception_4d/output
I0403 16:29:57.731602 21139 net.cpp:399] inception_4d/output_inception_4d/output_0_split -> inception_4d/output_inception_4d/output_0_split_0
I0403 16:29:57.731623 21139 net.cpp:399] inception_4d/output_inception_4d/output_0_split -> inception_4d/output_inception_4d/output_0_split_1
I0403 16:29:57.731643 21139 net.cpp:399] inception_4d/output_inception_4d/output_0_split -> inception_4d/output_inception_4d/output_0_split_2
I0403 16:29:57.731664 21139 net.cpp:399] inception_4d/output_inception_4d/output_0_split -> inception_4d/output_inception_4d/output_0_split_3
I0403 16:29:57.731683 21139 net.cpp:399] inception_4d/output_inception_4d/output_0_split -> inception_4d/output_inception_4d/output_0_split_4
I0403 16:29:57.731783 21139 net.cpp:141] Setting up inception_4d/output_inception_4d/output_0_split
I0403 16:29:57.731818 21139 net.cpp:148] Top shape: 24 528 14 14 (2483712)
I0403 16:29:57.731835 21139 net.cpp:148] Top shape: 24 528 14 14 (2483712)
I0403 16:29:57.731850 21139 net.cpp:148] Top shape: 24 528 14 14 (2483712)
I0403 16:29:57.731865 21139 net.cpp:148] Top shape: 24 528 14 14 (2483712)
I0403 16:29:57.731881 21139 net.cpp:148] Top shape: 24 528 14 14 (2483712)
I0403 16:29:57.731894 21139 net.cpp:156] Memory required for data: 1206918432
I0403 16:29:57.731909 21139 layer_factory.hpp:77] Creating layer loss2/ave_pool
I0403 16:29:57.731927 21139 net.cpp:91] Creating Layer loss2/ave_pool
I0403 16:29:57.731943 21139 net.cpp:425] loss2/ave_pool <- inception_4d/output_inception_4d/output_0_split_0
I0403 16:29:57.731973 21139 net.cpp:399] loss2/ave_pool -> loss2/ave_pool
I0403 16:29:57.732336 21139 net.cpp:141] Setting up loss2/ave_pool
I0403 16:29:57.732365 21139 net.cpp:148] Top shape: 24 528 4 4 (202752)
I0403 16:29:57.732390 21139 net.cpp:156] Memory required for data: 1207729440
I0403 16:29:57.732405 21139 layer_factory.hpp:77] Creating layer loss2/conv
I0403 16:29:57.732427 21139 net.cpp:91] Creating Layer loss2/conv
I0403 16:29:57.732445 21139 net.cpp:425] loss2/conv <- loss2/ave_pool
I0403 16:29:57.732465 21139 net.cpp:399] loss2/conv -> loss2/conv
I0403 16:29:57.734417 21139 net.cpp:141] Setting up loss2/conv
I0403 16:29:57.734447 21139 net.cpp:148] Top shape: 24 128 4 4 (49152)
I0403 16:29:57.734462 21139 net.cpp:156] Memory required for data: 1207926048
I0403 16:29:57.734480 21139 layer_factory.hpp:77] Creating layer loss2/relu_conv
I0403 16:29:57.734500 21139 net.cpp:91] Creating Layer loss2/relu_conv
I0403 16:29:57.734518 21139 net.cpp:425] loss2/relu_conv <- loss2/conv
I0403 16:29:57.734534 21139 net.cpp:386] loss2/relu_conv -> loss2/conv (in-place)
I0403 16:29:57.734827 21139 net.cpp:141] Setting up loss2/relu_conv
I0403 16:29:57.734853 21139 net.cpp:148] Top shape: 24 128 4 4 (49152)
I0403 16:29:57.734868 21139 net.cpp:156] Memory required for data: 1208122656
I0403 16:29:57.734882 21139 layer_factory.hpp:77] Creating layer loss2/fc
I0403 16:29:57.734905 21139 net.cpp:91] Creating Layer loss2/fc
I0403 16:29:57.734921 21139 net.cpp:425] loss2/fc <- loss2/conv
I0403 16:29:57.734941 21139 net.cpp:399] loss2/fc -> loss2/fc
I0403 16:29:57.753005 21139 net.cpp:141] Setting up loss2/fc
I0403 16:29:57.753062 21139 net.cpp:148] Top shape: 24 1024 (24576)
I0403 16:29:57.753078 21139 net.cpp:156] Memory required for data: 1208220960
I0403 16:29:57.753098 21139 layer_factory.hpp:77] Creating layer loss2/relu_fc
I0403 16:29:57.753115 21139 net.cpp:91] Creating Layer loss2/relu_fc
I0403 16:29:57.753130 21139 net.cpp:425] loss2/relu_fc <- loss2/fc
I0403 16:29:57.753149 21139 net.cpp:386] loss2/relu_fc -> loss2/fc (in-place)
I0403 16:29:57.753473 21139 net.cpp:141] Setting up loss2/relu_fc
I0403 16:29:57.753500 21139 net.cpp:148] Top shape: 24 1024 (24576)
I0403 16:29:57.753515 21139 net.cpp:156] Memory required for data: 1208319264
I0403 16:29:57.753530 21139 layer_factory.hpp:77] Creating layer loss2/drop_fc
I0403 16:29:57.753546 21139 net.cpp:91] Creating Layer loss2/drop_fc
I0403 16:29:57.753561 21139 net.cpp:425] loss2/drop_fc <- loss2/fc
I0403 16:29:57.753581 21139 net.cpp:386] loss2/drop_fc -> loss2/fc (in-place)
I0403 16:29:57.753628 21139 net.cpp:141] Setting up loss2/drop_fc
I0403 16:29:57.753649 21139 net.cpp:148] Top shape: 24 1024 (24576)
I0403 16:29:57.753662 21139 net.cpp:156] Memory required for data: 1208417568
I0403 16:29:57.753676 21139 layer_factory.hpp:77] Creating layer loss2/classifier_plantvillage
I0403 16:29:57.753697 21139 net.cpp:91] Creating Layer loss2/classifier_plantvillage
I0403 16:29:57.753713 21139 net.cpp:425] loss2/classifier_plantvillage <- loss2/fc
I0403 16:29:57.753732 21139 net.cpp:399] loss2/classifier_plantvillage -> loss2/classifier_plantvillage
I0403 16:29:57.754137 21139 net.cpp:141] Setting up loss2/classifier_plantvillage
I0403 16:29:57.754160 21139 net.cpp:148] Top shape: 24 38 (912)
I0403 16:29:57.754196 21139 net.cpp:156] Memory required for data: 1208421216
I0403 16:29:57.754215 21139 layer_factory.hpp:77] Creating layer loss2/classifier_plantvillage_loss2/classifier_plantvillage_0_split
I0403 16:29:57.754236 21139 net.cpp:91] Creating Layer loss2/classifier_plantvillage_loss2/classifier_plantvillage_0_split
I0403 16:29:57.754252 21139 net.cpp:425] loss2/classifier_plantvillage_loss2/classifier_plantvillage_0_split <- loss2/classifier_plantvillage
I0403 16:29:57.754268 21139 net.cpp:399] loss2/classifier_plantvillage_loss2/classifier_plantvillage_0_split -> loss2/classifier_plantvillage_loss2/classifier_plantvillage_0_split_0
I0403 16:29:57.754287 21139 net.cpp:399] loss2/classifier_plantvillage_loss2/classifier_plantvillage_0_split -> loss2/classifier_plantvillage_loss2/classifier_plantvillage_0_split_1
I0403 16:29:57.754305 21139 net.cpp:399] loss2/classifier_plantvillage_loss2/classifier_plantvillage_0_split -> loss2/classifier_plantvillage_loss2/classifier_plantvillage_0_split_2
I0403 16:29:57.754381 21139 net.cpp:141] Setting up loss2/classifier_plantvillage_loss2/classifier_plantvillage_0_split
I0403 16:29:57.754405 21139 net.cpp:148] Top shape: 24 38 (912)
I0403 16:29:57.754420 21139 net.cpp:148] Top shape: 24 38 (912)
I0403 16:29:57.754433 21139 net.cpp:148] Top shape: 24 38 (912)
I0403 16:29:57.754446 21139 net.cpp:156] Memory required for data: 1208432160
I0403 16:29:57.754461 21139 layer_factory.hpp:77] Creating layer inception_4e/1x1
I0403 16:29:57.754479 21139 net.cpp:91] Creating Layer inception_4e/1x1
I0403 16:29:57.754495 21139 net.cpp:425] inception_4e/1x1 <- inception_4d/output_inception_4d/output_0_split_1
I0403 16:29:57.754515 21139 net.cpp:399] inception_4e/1x1 -> inception_4e/1x1
I0403 16:29:57.756335 21139 net.cpp:141] Setting up inception_4e/1x1
I0403 16:29:57.756362 21139 net.cpp:148] Top shape: 24 256 14 14 (1204224)
I0403 16:29:57.756377 21139 net.cpp:156] Memory required for data: 1213249056
I0403 16:29:57.756395 21139 layer_factory.hpp:77] Creating layer inception_4e/relu_1x1
I0403 16:29:57.756414 21139 net.cpp:91] Creating Layer inception_4e/relu_1x1
I0403 16:29:57.756431 21139 net.cpp:425] inception_4e/relu_1x1 <- inception_4e/1x1
I0403 16:29:57.756448 21139 net.cpp:386] inception_4e/relu_1x1 -> inception_4e/1x1 (in-place)
I0403 16:29:57.756742 21139 net.cpp:141] Setting up inception_4e/relu_1x1
I0403 16:29:57.756767 21139 net.cpp:148] Top shape: 24 256 14 14 (1204224)
I0403 16:29:57.756781 21139 net.cpp:156] Memory required for data: 1218065952
I0403 16:29:57.756796 21139 layer_factory.hpp:77] Creating layer inception_4e/3x3_reduce
I0403 16:29:57.756817 21139 net.cpp:91] Creating Layer inception_4e/3x3_reduce
I0403 16:29:57.756834 21139 net.cpp:425] inception_4e/3x3_reduce <- inception_4d/output_inception_4d/output_0_split_2
I0403 16:29:57.756856 21139 net.cpp:399] inception_4e/3x3_reduce -> inception_4e/3x3_reduce
I0403 16:29:57.758986 21139 net.cpp:141] Setting up inception_4e/3x3_reduce
I0403 16:29:57.759014 21139 net.cpp:148] Top shape: 24 160 14 14 (752640)
I0403 16:29:57.759028 21139 net.cpp:156] Memory required for data: 1221076512
I0403 16:29:57.759045 21139 layer_factory.hpp:77] Creating layer inception_4e/relu_3x3_reduce
I0403 16:29:57.759074 21139 net.cpp:91] Creating Layer inception_4e/relu_3x3_reduce
I0403 16:29:57.759093 21139 net.cpp:425] inception_4e/relu_3x3_reduce <- inception_4e/3x3_reduce
I0403 16:29:57.759109 21139 net.cpp:386] inception_4e/relu_3x3_reduce -> inception_4e/3x3_reduce (in-place)
I0403 16:29:57.759302 21139 net.cpp:141] Setting up inception_4e/relu_3x3_reduce
I0403 16:29:57.759327 21139 net.cpp:148] Top shape: 24 160 14 14 (752640)
I0403 16:29:57.759341 21139 net.cpp:156] Memory required for data: 1224087072
I0403 16:29:57.759356 21139 layer_factory.hpp:77] Creating layer inception_4e/3x3
I0403 16:29:57.759377 21139 net.cpp:91] Creating Layer inception_4e/3x3
I0403 16:29:57.759394 21139 net.cpp:425] inception_4e/3x3 <- inception_4e/3x3_reduce
I0403 16:29:57.759414 21139 net.cpp:399] inception_4e/3x3 -> inception_4e/3x3
I0403 16:29:57.764276 21139 net.cpp:141] Setting up inception_4e/3x3
I0403 16:29:57.764317 21139 net.cpp:148] Top shape: 24 320 14 14 (1505280)
I0403 16:29:57.764331 21139 net.cpp:156] Memory required for data: 1230108192
I0403 16:29:57.764349 21139 layer_factory.hpp:77] Creating layer inception_4e/relu_3x3
I0403 16:29:57.764367 21139 net.cpp:91] Creating Layer inception_4e/relu_3x3
I0403 16:29:57.764384 21139 net.cpp:425] inception_4e/relu_3x3 <- inception_4e/3x3
I0403 16:29:57.764400 21139 net.cpp:386] inception_4e/relu_3x3 -> inception_4e/3x3 (in-place)
I0403 16:29:57.764693 21139 net.cpp:141] Setting up inception_4e/relu_3x3
I0403 16:29:57.764717 21139 net.cpp:148] Top shape: 24 320 14 14 (1505280)
I0403 16:29:57.764731 21139 net.cpp:156] Memory required for data: 1236129312
I0403 16:29:57.764745 21139 layer_factory.hpp:77] Creating layer inception_4e/5x5_reduce
I0403 16:29:57.764768 21139 net.cpp:91] Creating Layer inception_4e/5x5_reduce
I0403 16:29:57.764785 21139 net.cpp:425] inception_4e/5x5_reduce <- inception_4d/output_inception_4d/output_0_split_3
I0403 16:29:57.764802 21139 net.cpp:399] inception_4e/5x5_reduce -> inception_4e/5x5_reduce
I0403 16:29:57.765844 21139 net.cpp:141] Setting up inception_4e/5x5_reduce
I0403 16:29:57.765872 21139 net.cpp:148] Top shape: 24 32 14 14 (150528)
I0403 16:29:57.765885 21139 net.cpp:156] Memory required for data: 1236731424
I0403 16:29:57.765902 21139 layer_factory.hpp:77] Creating layer inception_4e/relu_5x5_reduce
I0403 16:29:57.765919 21139 net.cpp:91] Creating Layer inception_4e/relu_5x5_reduce
I0403 16:29:57.765934 21139 net.cpp:425] inception_4e/relu_5x5_reduce <- inception_4e/5x5_reduce
I0403 16:29:57.765954 21139 net.cpp:386] inception_4e/relu_5x5_reduce -> inception_4e/5x5_reduce (in-place)
I0403 16:29:57.766248 21139 net.cpp:141] Setting up inception_4e/relu_5x5_reduce
I0403 16:29:57.766273 21139 net.cpp:148] Top shape: 24 32 14 14 (150528)
I0403 16:29:57.766288 21139 net.cpp:156] Memory required for data: 1237333536
I0403 16:29:57.766302 21139 layer_factory.hpp:77] Creating layer inception_4e/5x5
I0403 16:29:57.766338 21139 net.cpp:91] Creating Layer inception_4e/5x5
I0403 16:29:57.766356 21139 net.cpp:425] inception_4e/5x5 <- inception_4e/5x5_reduce
I0403 16:29:57.766376 21139 net.cpp:399] inception_4e/5x5 -> inception_4e/5x5
I0403 16:29:57.768174 21139 net.cpp:141] Setting up inception_4e/5x5
I0403 16:29:57.768203 21139 net.cpp:148] Top shape: 24 128 14 14 (602112)
I0403 16:29:57.768216 21139 net.cpp:156] Memory required for data: 1239741984
I0403 16:29:57.768234 21139 layer_factory.hpp:77] Creating layer inception_4e/relu_5x5
I0403 16:29:57.768251 21139 net.cpp:91] Creating Layer inception_4e/relu_5x5
I0403 16:29:57.768266 21139 net.cpp:425] inception_4e/relu_5x5 <- inception_4e/5x5
I0403 16:29:57.768285 21139 net.cpp:386] inception_4e/relu_5x5 -> inception_4e/5x5 (in-place)
I0403 16:29:57.768477 21139 net.cpp:141] Setting up inception_4e/relu_5x5
I0403 16:29:57.768501 21139 net.cpp:148] Top shape: 24 128 14 14 (602112)
I0403 16:29:57.768515 21139 net.cpp:156] Memory required for data: 1242150432
I0403 16:29:57.768529 21139 layer_factory.hpp:77] Creating layer inception_4e/pool
I0403 16:29:57.768548 21139 net.cpp:91] Creating Layer inception_4e/pool
I0403 16:29:57.768563 21139 net.cpp:425] inception_4e/pool <- inception_4d/output_inception_4d/output_0_split_4
I0403 16:29:57.768581 21139 net.cpp:399] inception_4e/pool -> inception_4e/pool
I0403 16:29:57.768648 21139 net.cpp:141] Setting up inception_4e/pool
I0403 16:29:57.768671 21139 net.cpp:148] Top shape: 24 528 14 14 (2483712)
I0403 16:29:57.768684 21139 net.cpp:156] Memory required for data: 1252085280
I0403 16:29:57.768697 21139 layer_factory.hpp:77] Creating layer inception_4e/pool_proj
I0403 16:29:57.768718 21139 net.cpp:91] Creating Layer inception_4e/pool_proj
I0403 16:29:57.768734 21139 net.cpp:425] inception_4e/pool_proj <- inception_4e/pool
I0403 16:29:57.768754 21139 net.cpp:399] inception_4e/pool_proj -> inception_4e/pool_proj
I0403 16:29:57.770216 21139 net.cpp:141] Setting up inception_4e/pool_proj
I0403 16:29:57.770256 21139 net.cpp:148] Top shape: 24 128 14 14 (602112)
I0403 16:29:57.770272 21139 net.cpp:156] Memory required for data: 1254493728
I0403 16:29:57.770290 21139 layer_factory.hpp:77] Creating layer inception_4e/relu_pool_proj
I0403 16:29:57.770308 21139 net.cpp:91] Creating Layer inception_4e/relu_pool_proj
I0403 16:29:57.770321 21139 net.cpp:425] inception_4e/relu_pool_proj <- inception_4e/pool_proj
I0403 16:29:57.770337 21139 net.cpp:386] inception_4e/relu_pool_proj -> inception_4e/pool_proj (in-place)
I0403 16:29:57.770622 21139 net.cpp:141] Setting up inception_4e/relu_pool_proj
I0403 16:29:57.770650 21139 net.cpp:148] Top shape: 24 128 14 14 (602112)
I0403 16:29:57.770664 21139 net.cpp:156] Memory required for data: 1256902176
I0403 16:29:57.770679 21139 layer_factory.hpp:77] Creating layer inception_4e/output
I0403 16:29:57.770696 21139 net.cpp:91] Creating Layer inception_4e/output
I0403 16:29:57.770710 21139 net.cpp:425] inception_4e/output <- inception_4e/1x1
I0403 16:29:57.770726 21139 net.cpp:425] inception_4e/output <- inception_4e/3x3
I0403 16:29:57.770741 21139 net.cpp:425] inception_4e/output <- inception_4e/5x5
I0403 16:29:57.770756 21139 net.cpp:425] inception_4e/output <- inception_4e/pool_proj
I0403 16:29:57.770772 21139 net.cpp:399] inception_4e/output -> inception_4e/output
I0403 16:29:57.770822 21139 net.cpp:141] Setting up inception_4e/output
I0403 16:29:57.770843 21139 net.cpp:148] Top shape: 24 832 14 14 (3913728)
I0403 16:29:57.770858 21139 net.cpp:156] Memory required for data: 1272557088
I0403 16:29:57.770870 21139 layer_factory.hpp:77] Creating layer pool4/3x3_s2
I0403 16:29:57.770889 21139 net.cpp:91] Creating Layer pool4/3x3_s2
I0403 16:29:57.770905 21139 net.cpp:425] pool4/3x3_s2 <- inception_4e/output
I0403 16:29:57.770922 21139 net.cpp:399] pool4/3x3_s2 -> pool4/3x3_s2
I0403 16:29:57.770988 21139 net.cpp:141] Setting up pool4/3x3_s2
I0403 16:29:57.771011 21139 net.cpp:148] Top shape: 24 832 7 7 (978432)
I0403 16:29:57.771025 21139 net.cpp:156] Memory required for data: 1276470816
I0403 16:29:57.771039 21139 layer_factory.hpp:77] Creating layer pool4/3x3_s2_pool4/3x3_s2_0_split
I0403 16:29:57.771059 21139 net.cpp:91] Creating Layer pool4/3x3_s2_pool4/3x3_s2_0_split
I0403 16:29:57.771075 21139 net.cpp:425] pool4/3x3_s2_pool4/3x3_s2_0_split <- pool4/3x3_s2
I0403 16:29:57.771093 21139 net.cpp:399] pool4/3x3_s2_pool4/3x3_s2_0_split -> pool4/3x3_s2_pool4/3x3_s2_0_split_0
I0403 16:29:57.771112 21139 net.cpp:399] pool4/3x3_s2_pool4/3x3_s2_0_split -> pool4/3x3_s2_pool4/3x3_s2_0_split_1
I0403 16:29:57.771131 21139 net.cpp:399] pool4/3x3_s2_pool4/3x3_s2_0_split -> pool4/3x3_s2_pool4/3x3_s2_0_split_2
I0403 16:29:57.771149 21139 net.cpp:399] pool4/3x3_s2_pool4/3x3_s2_0_split -> pool4/3x3_s2_pool4/3x3_s2_0_split_3
I0403 16:29:57.771239 21139 net.cpp:141] Setting up pool4/3x3_s2_pool4/3x3_s2_0_split
I0403 16:29:57.771262 21139 net.cpp:148] Top shape: 24 832 7 7 (978432)
I0403 16:29:57.771278 21139 net.cpp:148] Top shape: 24 832 7 7 (978432)
I0403 16:29:57.771292 21139 net.cpp:148] Top shape: 24 832 7 7 (978432)
I0403 16:29:57.771307 21139 net.cpp:148] Top shape: 24 832 7 7 (978432)
I0403 16:29:57.771319 21139 net.cpp:156] Memory required for data: 1292125728
I0403 16:29:57.771333 21139 layer_factory.hpp:77] Creating layer inception_5a/1x1
I0403 16:29:57.771354 21139 net.cpp:91] Creating Layer inception_5a/1x1
I0403 16:29:57.771370 21139 net.cpp:425] inception_5a/1x1 <- pool4/3x3_s2_pool4/3x3_s2_0_split_0
I0403 16:29:57.771387 21139 net.cpp:399] inception_5a/1x1 -> inception_5a/1x1
I0403 16:29:57.774154 21139 net.cpp:141] Setting up inception_5a/1x1
I0403 16:29:57.774181 21139 net.cpp:148] Top shape: 24 256 7 7 (301056)
I0403 16:29:57.774196 21139 net.cpp:156] Memory required for data: 1293329952
I0403 16:29:57.774214 21139 layer_factory.hpp:77] Creating layer inception_5a/relu_1x1
I0403 16:29:57.774231 21139 net.cpp:91] Creating Layer inception_5a/relu_1x1
I0403 16:29:57.774246 21139 net.cpp:425] inception_5a/relu_1x1 <- inception_5a/1x1
I0403 16:29:57.774266 21139 net.cpp:386] inception_5a/relu_1x1 -> inception_5a/1x1 (in-place)
I0403 16:29:57.774572 21139 net.cpp:141] Setting up inception_5a/relu_1x1
I0403 16:29:57.774598 21139 net.cpp:148] Top shape: 24 256 7 7 (301056)
I0403 16:29:57.774612 21139 net.cpp:156] Memory required for data: 1294534176
I0403 16:29:57.774626 21139 layer_factory.hpp:77] Creating layer inception_5a/3x3_reduce
I0403 16:29:57.774646 21139 net.cpp:91] Creating Layer inception_5a/3x3_reduce
I0403 16:29:57.774663 21139 net.cpp:425] inception_5a/3x3_reduce <- pool4/3x3_s2_pool4/3x3_s2_0_split_1
I0403 16:29:57.774683 21139 net.cpp:399] inception_5a/3x3_reduce -> inception_5a/3x3_reduce
I0403 16:29:57.777082 21139 net.cpp:141] Setting up inception_5a/3x3_reduce
I0403 16:29:57.777113 21139 net.cpp:148] Top shape: 24 160 7 7 (188160)
I0403 16:29:57.777128 21139 net.cpp:156] Memory required for data: 1295286816
I0403 16:29:57.777146 21139 layer_factory.hpp:77] Creating layer inception_5a/relu_3x3_reduce
I0403 16:29:57.777163 21139 net.cpp:91] Creating Layer inception_5a/relu_3x3_reduce
I0403 16:29:57.777179 21139 net.cpp:425] inception_5a/relu_3x3_reduce <- inception_5a/3x3_reduce
I0403 16:29:57.777194 21139 net.cpp:386] inception_5a/relu_3x3_reduce -> inception_5a/3x3_reduce (in-place)
I0403 16:29:57.777376 21139 net.cpp:141] Setting up inception_5a/relu_3x3_reduce
I0403 16:29:57.777403 21139 net.cpp:148] Top shape: 24 160 7 7 (188160)
I0403 16:29:57.777431 21139 net.cpp:156] Memory required for data: 1296039456
I0403 16:29:57.777444 21139 layer_factory.hpp:77] Creating layer inception_5a/3x3
I0403 16:29:57.777465 21139 net.cpp:91] Creating Layer inception_5a/3x3
I0403 16:29:57.777482 21139 net.cpp:425] inception_5a/3x3 <- inception_5a/3x3_reduce
I0403 16:29:57.777500 21139 net.cpp:399] inception_5a/3x3 -> inception_5a/3x3
I0403 16:29:57.782402 21139 net.cpp:141] Setting up inception_5a/3x3
I0403 16:29:57.782430 21139 net.cpp:148] Top shape: 24 320 7 7 (376320)
I0403 16:29:57.782445 21139 net.cpp:156] Memory required for data: 1297544736
I0403 16:29:57.782462 21139 layer_factory.hpp:77] Creating layer inception_5a/relu_3x3
I0403 16:29:57.782480 21139 net.cpp:91] Creating Layer inception_5a/relu_3x3
I0403 16:29:57.782495 21139 net.cpp:425] inception_5a/relu_3x3 <- inception_5a/3x3
I0403 16:29:57.782513 21139 net.cpp:386] inception_5a/relu_3x3 -> inception_5a/3x3 (in-place)
I0403 16:29:57.782801 21139 net.cpp:141] Setting up inception_5a/relu_3x3
I0403 16:29:57.782826 21139 net.cpp:148] Top shape: 24 320 7 7 (376320)
I0403 16:29:57.782840 21139 net.cpp:156] Memory required for data: 1299050016
I0403 16:29:57.782853 21139 layer_factory.hpp:77] Creating layer inception_5a/5x5_reduce
I0403 16:29:57.782876 21139 net.cpp:91] Creating Layer inception_5a/5x5_reduce
I0403 16:29:57.782892 21139 net.cpp:425] inception_5a/5x5_reduce <- pool4/3x3_s2_pool4/3x3_s2_0_split_2
I0403 16:29:57.782913 21139 net.cpp:399] inception_5a/5x5_reduce -> inception_5a/5x5_reduce
I0403 16:29:57.784056 21139 net.cpp:141] Setting up inception_5a/5x5_reduce
I0403 16:29:57.784085 21139 net.cpp:148] Top shape: 24 32 7 7 (37632)
I0403 16:29:57.784101 21139 net.cpp:156] Memory required for data: 1299200544
I0403 16:29:57.784118 21139 layer_factory.hpp:77] Creating layer inception_5a/relu_5x5_reduce
I0403 16:29:57.784139 21139 net.cpp:91] Creating Layer inception_5a/relu_5x5_reduce
I0403 16:29:57.784155 21139 net.cpp:425] inception_5a/relu_5x5_reduce <- inception_5a/5x5_reduce
I0403 16:29:57.784171 21139 net.cpp:386] inception_5a/relu_5x5_reduce -> inception_5a/5x5_reduce (in-place)
I0403 16:29:57.784462 21139 net.cpp:141] Setting up inception_5a/relu_5x5_reduce
I0403 16:29:57.784487 21139 net.cpp:148] Top shape: 24 32 7 7 (37632)
I0403 16:29:57.784502 21139 net.cpp:156] Memory required for data: 1299351072
I0403 16:29:57.784514 21139 layer_factory.hpp:77] Creating layer inception_5a/5x5
I0403 16:29:57.784535 21139 net.cpp:91] Creating Layer inception_5a/5x5
I0403 16:29:57.784553 21139 net.cpp:425] inception_5a/5x5 <- inception_5a/5x5_reduce
I0403 16:29:57.784572 21139 net.cpp:399] inception_5a/5x5 -> inception_5a/5x5
I0403 16:29:57.786248 21139 net.cpp:141] Setting up inception_5a/5x5
I0403 16:29:57.786285 21139 net.cpp:148] Top shape: 24 128 7 7 (150528)
I0403 16:29:57.786300 21139 net.cpp:156] Memory required for data: 1299953184
I0403 16:29:57.786319 21139 layer_factory.hpp:77] Creating layer inception_5a/relu_5x5
I0403 16:29:57.786334 21139 net.cpp:91] Creating Layer inception_5a/relu_5x5
I0403 16:29:57.786350 21139 net.cpp:425] inception_5a/relu_5x5 <- inception_5a/5x5
I0403 16:29:57.786367 21139 net.cpp:386] inception_5a/relu_5x5 -> inception_5a/5x5 (in-place)
I0403 16:29:57.786553 21139 net.cpp:141] Setting up inception_5a/relu_5x5
I0403 16:29:57.786577 21139 net.cpp:148] Top shape: 24 128 7 7 (150528)
I0403 16:29:57.786591 21139 net.cpp:156] Memory required for data: 1300555296
I0403 16:29:57.786604 21139 layer_factory.hpp:77] Creating layer inception_5a/pool
I0403 16:29:57.786623 21139 net.cpp:91] Creating Layer inception_5a/pool
I0403 16:29:57.786639 21139 net.cpp:425] inception_5a/pool <- pool4/3x3_s2_pool4/3x3_s2_0_split_3
I0403 16:29:57.786656 21139 net.cpp:399] inception_5a/pool -> inception_5a/pool
I0403 16:29:57.786725 21139 net.cpp:141] Setting up inception_5a/pool
I0403 16:29:57.786746 21139 net.cpp:148] Top shape: 24 832 7 7 (978432)
I0403 16:29:57.786761 21139 net.cpp:156] Memory required for data: 1304469024
I0403 16:29:57.786774 21139 layer_factory.hpp:77] Creating layer inception_5a/pool_proj
I0403 16:29:57.786794 21139 net.cpp:91] Creating Layer inception_5a/pool_proj
I0403 16:29:57.786811 21139 net.cpp:425] inception_5a/pool_proj <- inception_5a/pool
I0403 16:29:57.786831 21139 net.cpp:399] inception_5a/pool_proj -> inception_5a/pool_proj
I0403 16:29:57.789077 21139 net.cpp:141] Setting up inception_5a/pool_proj
I0403 16:29:57.789108 21139 net.cpp:148] Top shape: 24 128 7 7 (150528)
I0403 16:29:57.789124 21139 net.cpp:156] Memory required for data: 1305071136
I0403 16:29:57.789141 21139 layer_factory.hpp:77] Creating layer inception_5a/relu_pool_proj
I0403 16:29:57.789158 21139 net.cpp:91] Creating Layer inception_5a/relu_pool_proj
I0403 16:29:57.789173 21139 net.cpp:425] inception_5a/relu_pool_proj <- inception_5a/pool_proj
I0403 16:29:57.789191 21139 net.cpp:386] inception_5a/relu_pool_proj -> inception_5a/pool_proj (in-place)
I0403 16:29:57.789484 21139 net.cpp:141] Setting up inception_5a/relu_pool_proj
I0403 16:29:57.789511 21139 net.cpp:148] Top shape: 24 128 7 7 (150528)
I0403 16:29:57.789526 21139 net.cpp:156] Memory required for data: 1305673248
I0403 16:29:57.789541 21139 layer_factory.hpp:77] Creating layer inception_5a/output
I0403 16:29:57.789556 21139 net.cpp:91] Creating Layer inception_5a/output
I0403 16:29:57.789572 21139 net.cpp:425] inception_5a/output <- inception_5a/1x1
I0403 16:29:57.789587 21139 net.cpp:425] inception_5a/output <- inception_5a/3x3
I0403 16:29:57.789602 21139 net.cpp:425] inception_5a/output <- inception_5a/5x5
I0403 16:29:57.789618 21139 net.cpp:425] inception_5a/output <- inception_5a/pool_proj
I0403 16:29:57.789633 21139 net.cpp:399] inception_5a/output -> inception_5a/output
I0403 16:29:57.789683 21139 net.cpp:141] Setting up inception_5a/output
I0403 16:29:57.789705 21139 net.cpp:148] Top shape: 24 832 7 7 (978432)
I0403 16:29:57.789719 21139 net.cpp:156] Memory required for data: 1309586976
I0403 16:29:57.789732 21139 layer_factory.hpp:77] Creating layer inception_5a/output_inception_5a/output_0_split
I0403 16:29:57.789752 21139 net.cpp:91] Creating Layer inception_5a/output_inception_5a/output_0_split
I0403 16:29:57.789767 21139 net.cpp:425] inception_5a/output_inception_5a/output_0_split <- inception_5a/output
I0403 16:29:57.789784 21139 net.cpp:399] inception_5a/output_inception_5a/output_0_split -> inception_5a/output_inception_5a/output_0_split_0
I0403 16:29:57.789803 21139 net.cpp:399] inception_5a/output_inception_5a/output_0_split -> inception_5a/output_inception_5a/output_0_split_1
I0403 16:29:57.789820 21139 net.cpp:399] inception_5a/output_inception_5a/output_0_split -> inception_5a/output_inception_5a/output_0_split_2
I0403 16:29:57.789842 21139 net.cpp:399] inception_5a/output_inception_5a/output_0_split -> inception_5a/output_inception_5a/output_0_split_3
I0403 16:29:57.789952 21139 net.cpp:141] Setting up inception_5a/output_inception_5a/output_0_split
I0403 16:29:57.789975 21139 net.cpp:148] Top shape: 24 832 7 7 (978432)
I0403 16:29:57.789990 21139 net.cpp:148] Top shape: 24 832 7 7 (978432)
I0403 16:29:57.790004 21139 net.cpp:148] Top shape: 24 832 7 7 (978432)
I0403 16:29:57.790020 21139 net.cpp:148] Top shape: 24 832 7 7 (978432)
I0403 16:29:57.790033 21139 net.cpp:156] Memory required for data: 1325241888
I0403 16:29:57.790051 21139 layer_factory.hpp:77] Creating layer inception_5b/1x1
I0403 16:29:57.790073 21139 net.cpp:91] Creating Layer inception_5b/1x1
I0403 16:29:57.790091 21139 net.cpp:425] inception_5b/1x1 <- inception_5a/output_inception_5a/output_0_split_0
I0403 16:29:57.790110 21139 net.cpp:399] inception_5b/1x1 -> inception_5b/1x1
I0403 16:29:57.793954 21139 net.cpp:141] Setting up inception_5b/1x1
I0403 16:29:57.793987 21139 net.cpp:148] Top shape: 24 384 7 7 (451584)
I0403 16:29:57.794005 21139 net.cpp:156] Memory required for data: 1327048224
I0403 16:29:57.794023 21139 layer_factory.hpp:77] Creating layer inception_5b/relu_1x1
I0403 16:29:57.794041 21139 net.cpp:91] Creating Layer inception_5b/relu_1x1
I0403 16:29:57.794061 21139 net.cpp:425] inception_5b/relu_1x1 <- inception_5b/1x1
I0403 16:29:57.794080 21139 net.cpp:386] inception_5b/relu_1x1 -> inception_5b/1x1 (in-place)
I0403 16:29:57.794399 21139 net.cpp:141] Setting up inception_5b/relu_1x1
I0403 16:29:57.794427 21139 net.cpp:148] Top shape: 24 384 7 7 (451584)
I0403 16:29:57.794443 21139 net.cpp:156] Memory required for data: 1328854560
I0403 16:29:57.794457 21139 layer_factory.hpp:77] Creating layer inception_5b/3x3_reduce
I0403 16:29:57.794477 21139 net.cpp:91] Creating Layer inception_5b/3x3_reduce
I0403 16:29:57.794494 21139 net.cpp:425] inception_5b/3x3_reduce <- inception_5a/output_inception_5a/output_0_split_1
I0403 16:29:57.794515 21139 net.cpp:399] inception_5b/3x3_reduce -> inception_5b/3x3_reduce
I0403 16:29:57.797268 21139 net.cpp:141] Setting up inception_5b/3x3_reduce
I0403 16:29:57.797302 21139 net.cpp:148] Top shape: 24 192 7 7 (225792)
I0403 16:29:57.797318 21139 net.cpp:156] Memory required for data: 1329757728
I0403 16:29:57.797338 21139 layer_factory.hpp:77] Creating layer inception_5b/relu_3x3_reduce
I0403 16:29:57.797355 21139 net.cpp:91] Creating Layer inception_5b/relu_3x3_reduce
I0403 16:29:57.797371 21139 net.cpp:425] inception_5b/relu_3x3_reduce <- inception_5b/3x3_reduce
I0403 16:29:57.797390 21139 net.cpp:386] inception_5b/relu_3x3_reduce -> inception_5b/3x3_reduce (in-place)
I0403 16:29:57.797586 21139 net.cpp:141] Setting up inception_5b/relu_3x3_reduce
I0403 16:29:57.797612 21139 net.cpp:148] Top shape: 24 192 7 7 (225792)
I0403 16:29:57.797626 21139 net.cpp:156] Memory required for data: 1330660896
I0403 16:29:57.797641 21139 layer_factory.hpp:77] Creating layer inception_5b/3x3
I0403 16:29:57.797663 21139 net.cpp:91] Creating Layer inception_5b/3x3
I0403 16:29:57.797682 21139 net.cpp:425] inception_5b/3x3 <- inception_5b/3x3_reduce
I0403 16:29:57.797703 21139 net.cpp:399] inception_5b/3x3 -> inception_5b/3x3
I0403 16:29:57.804669 21139 net.cpp:141] Setting up inception_5b/3x3
I0403 16:29:57.804708 21139 net.cpp:148] Top shape: 24 384 7 7 (451584)
I0403 16:29:57.804724 21139 net.cpp:156] Memory required for data: 1332467232
I0403 16:29:57.804743 21139 layer_factory.hpp:77] Creating layer inception_5b/relu_3x3
I0403 16:29:57.804760 21139 net.cpp:91] Creating Layer inception_5b/relu_3x3
I0403 16:29:57.804776 21139 net.cpp:425] inception_5b/relu_3x3 <- inception_5b/3x3
I0403 16:29:57.804797 21139 net.cpp:386] inception_5b/relu_3x3 -> inception_5b/3x3 (in-place)
I0403 16:29:57.805114 21139 net.cpp:141] Setting up inception_5b/relu_3x3
I0403 16:29:57.805143 21139 net.cpp:148] Top shape: 24 384 7 7 (451584)
I0403 16:29:57.805160 21139 net.cpp:156] Memory required for data: 1334273568
I0403 16:29:57.805174 21139 layer_factory.hpp:77] Creating layer inception_5b/5x5_reduce
I0403 16:29:57.805217 21139 net.cpp:91] Creating Layer inception_5b/5x5_reduce
I0403 16:29:57.805235 21139 net.cpp:425] inception_5b/5x5_reduce <- inception_5a/output_inception_5a/output_0_split_2
I0403 16:29:57.805254 21139 net.cpp:399] inception_5b/5x5_reduce -> inception_5b/5x5_reduce
I0403 16:29:57.806586 21139 net.cpp:141] Setting up inception_5b/5x5_reduce
I0403 16:29:57.806617 21139 net.cpp:148] Top shape: 24 48 7 7 (56448)
I0403 16:29:57.806633 21139 net.cpp:156] Memory required for data: 1334499360
I0403 16:29:57.806651 21139 layer_factory.hpp:77] Creating layer inception_5b/relu_5x5_reduce
I0403 16:29:57.806669 21139 net.cpp:91] Creating Layer inception_5b/relu_5x5_reduce
I0403 16:29:57.806685 21139 net.cpp:425] inception_5b/relu_5x5_reduce <- inception_5b/5x5_reduce
I0403 16:29:57.806702 21139 net.cpp:386] inception_5b/relu_5x5_reduce -> inception_5b/5x5_reduce (in-place)
I0403 16:29:57.807098 21139 net.cpp:141] Setting up inception_5b/relu_5x5_reduce
I0403 16:29:57.807126 21139 net.cpp:148] Top shape: 24 48 7 7 (56448)
I0403 16:29:57.807140 21139 net.cpp:156] Memory required for data: 1334725152
I0403 16:29:57.807155 21139 layer_factory.hpp:77] Creating layer inception_5b/5x5
I0403 16:29:57.807176 21139 net.cpp:91] Creating Layer inception_5b/5x5
I0403 16:29:57.807193 21139 net.cpp:425] inception_5b/5x5 <- inception_5b/5x5_reduce
I0403 16:29:57.807214 21139 net.cpp:399] inception_5b/5x5 -> inception_5b/5x5
I0403 16:29:57.809378 21139 net.cpp:141] Setting up inception_5b/5x5
I0403 16:29:57.809406 21139 net.cpp:148] Top shape: 24 128 7 7 (150528)
I0403 16:29:57.809422 21139 net.cpp:156] Memory required for data: 1335327264
I0403 16:29:57.809440 21139 layer_factory.hpp:77] Creating layer inception_5b/relu_5x5
I0403 16:29:57.809458 21139 net.cpp:91] Creating Layer inception_5b/relu_5x5
I0403 16:29:57.809473 21139 net.cpp:425] inception_5b/relu_5x5 <- inception_5b/5x5
I0403 16:29:57.809492 21139 net.cpp:386] inception_5b/relu_5x5 -> inception_5b/5x5 (in-place)
I0403 16:29:57.809686 21139 net.cpp:141] Setting up inception_5b/relu_5x5
I0403 16:29:57.809710 21139 net.cpp:148] Top shape: 24 128 7 7 (150528)
I0403 16:29:57.809725 21139 net.cpp:156] Memory required for data: 1335929376
I0403 16:29:57.809739 21139 layer_factory.hpp:77] Creating layer inception_5b/pool
I0403 16:29:57.809761 21139 net.cpp:91] Creating Layer inception_5b/pool
I0403 16:29:57.809777 21139 net.cpp:425] inception_5b/pool <- inception_5a/output_inception_5a/output_0_split_3
I0403 16:29:57.809794 21139 net.cpp:399] inception_5b/pool -> inception_5b/pool
I0403 16:29:57.809870 21139 net.cpp:141] Setting up inception_5b/pool
I0403 16:29:57.809893 21139 net.cpp:148] Top shape: 24 832 7 7 (978432)
I0403 16:29:57.809907 21139 net.cpp:156] Memory required for data: 1339843104
I0403 16:29:57.809921 21139 layer_factory.hpp:77] Creating layer inception_5b/pool_proj
I0403 16:29:57.809943 21139 net.cpp:91] Creating Layer inception_5b/pool_proj
I0403 16:29:57.809962 21139 net.cpp:425] inception_5b/pool_proj <- inception_5b/pool
I0403 16:29:57.809981 21139 net.cpp:399] inception_5b/pool_proj -> inception_5b/pool_proj
I0403 16:29:57.812307 21139 net.cpp:141] Setting up inception_5b/pool_proj
I0403 16:29:57.812338 21139 net.cpp:148] Top shape: 24 128 7 7 (150528)
I0403 16:29:57.812355 21139 net.cpp:156] Memory required for data: 1340445216
I0403 16:29:57.812372 21139 layer_factory.hpp:77] Creating layer inception_5b/relu_pool_proj
I0403 16:29:57.812389 21139 net.cpp:91] Creating Layer inception_5b/relu_pool_proj
I0403 16:29:57.812407 21139 net.cpp:425] inception_5b/relu_pool_proj <- inception_5b/pool_proj
I0403 16:29:57.812424 21139 net.cpp:386] inception_5b/relu_pool_proj -> inception_5b/pool_proj (in-place)
I0403 16:29:57.812723 21139 net.cpp:141] Setting up inception_5b/relu_pool_proj
I0403 16:29:57.812752 21139 net.cpp:148] Top shape: 24 128 7 7 (150528)
I0403 16:29:57.812767 21139 net.cpp:156] Memory required for data: 1341047328
I0403 16:29:57.812782 21139 layer_factory.hpp:77] Creating layer inception_5b/output
I0403 16:29:57.812798 21139 net.cpp:91] Creating Layer inception_5b/output
I0403 16:29:57.812829 21139 net.cpp:425] inception_5b/output <- inception_5b/1x1
I0403 16:29:57.812846 21139 net.cpp:425] inception_5b/output <- inception_5b/3x3
I0403 16:29:57.812862 21139 net.cpp:425] inception_5b/output <- inception_5b/5x5
I0403 16:29:57.812878 21139 net.cpp:425] inception_5b/output <- inception_5b/pool_proj
I0403 16:29:57.812896 21139 net.cpp:399] inception_5b/output -> inception_5b/output
I0403 16:29:57.812948 21139 net.cpp:141] Setting up inception_5b/output
I0403 16:29:57.812973 21139 net.cpp:148] Top shape: 24 1024 7 7 (1204224)
I0403 16:29:57.812986 21139 net.cpp:156] Memory required for data: 1345864224
I0403 16:29:57.813000 21139 layer_factory.hpp:77] Creating layer pool5/7x7_s1
I0403 16:29:57.813020 21139 net.cpp:91] Creating Layer pool5/7x7_s1
I0403 16:29:57.813036 21139 net.cpp:425] pool5/7x7_s1 <- inception_5b/output
I0403 16:29:57.813058 21139 net.cpp:399] pool5/7x7_s1 -> pool5/7x7_s1
I0403 16:29:57.813279 21139 net.cpp:141] Setting up pool5/7x7_s1
I0403 16:29:57.813304 21139 net.cpp:148] Top shape: 24 1024 1 1 (24576)
I0403 16:29:57.813318 21139 net.cpp:156] Memory required for data: 1345962528
I0403 16:29:57.813333 21139 layer_factory.hpp:77] Creating layer pool5/drop_7x7_s1
I0403 16:29:57.813350 21139 net.cpp:91] Creating Layer pool5/drop_7x7_s1
I0403 16:29:57.813364 21139 net.cpp:425] pool5/drop_7x7_s1 <- pool5/7x7_s1
I0403 16:29:57.813383 21139 net.cpp:386] pool5/drop_7x7_s1 -> pool5/7x7_s1 (in-place)
I0403 16:29:57.813433 21139 net.cpp:141] Setting up pool5/drop_7x7_s1
I0403 16:29:57.813458 21139 net.cpp:148] Top shape: 24 1024 1 1 (24576)
I0403 16:29:57.813473 21139 net.cpp:156] Memory required for data: 1346060832
I0403 16:29:57.813488 21139 layer_factory.hpp:77] Creating layer loss3/classifier_plantvillage
I0403 16:29:57.813506 21139 net.cpp:91] Creating Layer loss3/classifier_plantvillage
I0403 16:29:57.813521 21139 net.cpp:425] loss3/classifier_plantvillage <- pool5/7x7_s1
I0403 16:29:57.813542 21139 net.cpp:399] loss3/classifier_plantvillage -> loss3/classifier_plantvillage
I0403 16:29:57.813974 21139 net.cpp:141] Setting up loss3/classifier_plantvillage
I0403 16:29:57.813998 21139 net.cpp:148] Top shape: 24 38 (912)
I0403 16:29:57.814013 21139 net.cpp:156] Memory required for data: 1346064480
I0403 16:29:57.814030 21139 layer_factory.hpp:77] Creating layer loss3/classifier_plantvillage_loss3/classifier_plantvillage_0_split
I0403 16:29:57.814054 21139 net.cpp:91] Creating Layer loss3/classifier_plantvillage_loss3/classifier_plantvillage_0_split
I0403 16:29:57.814072 21139 net.cpp:425] loss3/classifier_plantvillage_loss3/classifier_plantvillage_0_split <- loss3/classifier_plantvillage
I0403 16:29:57.814090 21139 net.cpp:399] loss3/classifier_plantvillage_loss3/classifier_plantvillage_0_split -> loss3/classifier_plantvillage_loss3/classifier_plantvillage_0_split_0
I0403 16:29:57.814108 21139 net.cpp:399] loss3/classifier_plantvillage_loss3/classifier_plantvillage_0_split -> loss3/classifier_plantvillage_loss3/classifier_plantvillage_0_split_1
I0403 16:29:57.814128 21139 net.cpp:399] loss3/classifier_plantvillage_loss3/classifier_plantvillage_0_split -> loss3/classifier_plantvillage_loss3/classifier_plantvillage_0_split_2
I0403 16:29:57.814152 21139 net.cpp:399] loss3/classifier_plantvillage_loss3/classifier_plantvillage_0_split -> loss3/classifier_plantvillage_loss3/classifier_plantvillage_0_split_3
I0403 16:29:57.814254 21139 net.cpp:141] Setting up loss3/classifier_plantvillage_loss3/classifier_plantvillage_0_split
I0403 16:29:57.814277 21139 net.cpp:148] Top shape: 24 38 (912)
I0403 16:29:57.814293 21139 net.cpp:148] Top shape: 24 38 (912)
I0403 16:29:57.814307 21139 net.cpp:148] Top shape: 24 38 (912)
I0403 16:29:57.814322 21139 net.cpp:148] Top shape: 24 38 (912)
I0403 16:29:57.814337 21139 net.cpp:156] Memory required for data: 1346079072
I0403 16:29:57.814349 21139 layer_factory.hpp:77] Creating layer loss1/loss
I0403 16:29:57.814370 21139 net.cpp:91] Creating Layer loss1/loss
I0403 16:29:57.814388 21139 net.cpp:425] loss1/loss <- loss1/classifier_plantvillage_loss1/classifier_plantvillage_0_split_0
I0403 16:29:57.814417 21139 net.cpp:425] loss1/loss <- label_data_1_split_0
…
