…
I0403 15:51:19.074802 20343 net.cpp:313] The NetState phase (1) differed from the phase (0) specified by a rule in layer data
I0403 15:51:19.076001 20343 net.cpp:49] Initializing net from parameters: 
state {
  phase: TEST
}
layer {
  name: "data"
  type: "Data"
  top: "data"
  top: "label"
  include {
    phase: TEST
  }
  transform_param {
    mirror: false
    crop_size: 224
    mean_file: "/home/mohanty/data/final_dataset/lmdb/grayscale-20-80/mean.binaryproto"
  }
  data_param {
    source: "/home/mohanty/data/final_dataset/lmdb/grayscale-20-80/test_db"
    batch_size: 24
    backend: LMDB
  }
}
layer {
  name: "conv1/7x7_s2"
  type: "Convolution"
  bottom: "data"
  top: "conv1/7x7_s2"
  param {
    lr_mult: 1
    decay_mult: 1
  }
  param {
    lr_mult: 2
    decay_mult: 0
  }
  convolution_param {
    num_output: 64
    pad: 3
    kernel_size: 7
    stride: 2
    weight_filler {
      type: "xavier"
      std: 0.1
    }
    bias_filler {
      type: "constant"
      value: 0.2
    }
  }
}
layer {
  name: "conv1/relu_7x7"
  type: "ReLU"
  bottom: "conv1/7x7_s2"
  top: "conv1/7x7_s2"
}
layer {
  name: "pool1/3x3_s2"
  type: "Pooling"
  bottom: "conv1/7x7_s2"
  top: "pool1/3x3_s2"
  pooling_param {
    pool: MAX
    kernel_size: 3
    stride: 2
  }
}
layer {
  name: "pool1/norm1"
  type: "LRN"
  bottom: "pool1/3x3_s2"
  top: "pool1/norm1"
  lrn_param {
    local_size: 5
    alpha: 0.0001
    beta: 0.75
  }
}
layer {
  name: "conv2/3x3_reduce"
  type: "Convolution"
  bottom: "pool1/norm1"
  top: "conv2/3x3_reduce"
  param {
    lr_mult: 1
    decay_mult: 1
  }
  param {
    lr_mult: 2
    decay_mult: 0
  }
  convolution_param {
    num_output: 64
    kernel_size: 1
    weight_filler {
      type: "xavier"
      std: 0.1
    }
    bias_filler {
      type: "constant"
      value: 0.2
    }
  }
}
layer {
  name: "conv2/relu_3x3_reduce"
  type: "ReLU"
  bottom: "conv2/3x3_reduce"
  top: "conv2/3x3_reduce"
}
layer {
  name: "conv2/3x3"
  type: "Convolution"
  bottom: "conv2/3x3_reduce"
  top: "conv2/3x3"
  param {
    lr_mult: 1
    decay_mult: 1
  }
  param {
    lr_mult: 2
    decay_mult: 0
  }
  convolution_param {
    num_output: 192
    pad: 1
    kernel_size: 3
    weight_filler {
      type: "xavier"
      std: 0.03
    }
    bias_filler {
      type: "constant"
      value: 0.2
    }
  }
}
layer {
  name: "conv2/relu_3x3"
  type: "ReLU"
  bottom: "conv2/3x3"
  top: "conv2/3x3"
}
layer {
  name: "conv2/norm2"
  type: "LRN"
  bottom: "conv2/3x3"
  top: "conv2/norm2"
  lrn_param {
    local_size: 5
    alpha: 0.0001
    beta: 0.75
  }
}
layer {
  name: "pool2/3x3_s2"
  type: "Pooling"
  bottom: "conv2/norm2"
  top: "pool2/3x3_s2"
  pooling_param {
    pool: MAX
    kernel_size: 3
    stride: 2
  }
}
layer {
  name: "inception_3a/1x1"
  type: "Convolution"
  bottom: "pool2/3x3_s2"
  top: "inception_3a/1x1"
  param {
    lr_mult: 1
    decay_mult: 1
  }
  param {
    lr_mult: 2
    decay_mult: 0
  }
  convolution_param {
    num_output: 64
    kernel_size: 1
    weight_filler {
      type: "xavier"
      std: 0.03
    }
    bias_filler {
      type: "constant"
      value: 0.2
    }
  }
}
layer {
  name: "inception_3a/relu_1x1"
  type: "ReLU"
  bottom: "inception_3a/1x1"
  top: "inception_3a/1x1"
}
layer {
  name: "inception_3a/3x3_reduce"
  type: "Convolution"
  bottom: "pool2/3x3_s2"
  top: "inception_3a/3x3_reduce"
  param {
    lr_mult: 1
    decay_mult: 1
  }
  param {
    lr_mult: 2
    decay_mult: 0
  }
  convolution_param {
    num_output: 96
    kernel_size: 1
    weight_filler {
      type: "xavier"
      std: 0.09
    }
    bias_filler {
      type: "constant"
      value: 0.2
    }
  }
}
layer {
  name: "inception_3a/relu_3x3_reduce"
  type: "ReLU"
  bottom: "inception_3a/3x3_reduce"
  top: "inception_3a/3x3_reduce"
}
layer {
  name: "inception_3a/3x3"
  type: "Convolution"
  bottom: "inception_3a/3x3_reduce"
  top: "inception_3a/3x3"
  param {
    lr_mult: 1
    decay_mult: 1
  }
  param {
    lr_mult: 2
    decay_mult: 0
  }
  convolution_param {
    num_output: 128
    pad: 1
    kernel_size: 3
    weight_filler {
      type: "xavier"
      std: 0.03
    }
    bias_filler {
      type: "constant"
      value: 0.2
    }
  }
}
layer {
  name: "inception_3a/relu_3x3"
  type: "ReLU"
  bottom: "inception_3a/3x3"
  top: "inception_3a/3x3"
}
layer {
  name: "inception_3a/5x5_reduce"
  type: "Convolution"
  bottom: "pool2/3x3_s2"
  top: "inception_3a/5x5_reduce"
  param {
    lr_mult: 1
    decay_mult: 1
  }
  param {
    lr_mult: 2
    decay_mult: 0
  }
  convolution_param {
    num_output: 16
    kernel_size: 1
    weight_filler {
      type: "xavier"
      std: 0.2
    }
    bias_filler {
      type: "constant"
      value: 0.2
    }
  }
}
layer {
  name: "inception_3a/relu_5x5_reduce"
  type: "ReLU"
  bottom: "inception_3a/5x5_reduce"
  top: "inception_3a/5x5_reduce"
}
layer {
  name: "inception_3a/5x5"
  type: "Convolution"
  bottom: "inception_3a/5x5_reduce"
  top: "inception_3a/5x5"
  param {
    lr_mult: 1
    decay_mult: 1
  }
  param {
    lr_mult: 2
    decay_mult: 0
  }
  convolution_param {
    num_output: 32
    pad: 2
    kernel_size: 5
    weight_filler {
      type: "xavier"
      std: 0.03
    }
    bias_filler {
      type: "constant"
      value: 0.2
    }
  }
}
layer {
  name: "inception_3a/relu_5x5"
  type: "ReLU"
  bottom: "inception_3a/5x5"
  top: "inception_3a/5x5"
}
layer {
  name: "inception_3a/pool"
  type: "Pooling"
  bottom: "pool2/3x3_s2"
  top: "inception_3a/pool"
  pooling_param {
    pool: MAX
    kernel_size: 3
    stride: 1
    pad: 1
  }
}
layer {
  name: "inception_3a/pool_proj"
  type: "Convolution"
  bottom: "inception_3a/pool"
  top: "inception_3a/pool_proj"
  param {
    lr_mult: 1
    decay_mult: 1
  }
  param {
    lr_mult: 2
    decay_mult: 0
  }
  convolution_param {
    num_output: 32
    kernel_size: 1
    weight_filler {
      type: "xavier"
      std: 0.1
    }
    bias_filler {
      type: "constant"
      value: 0.2
    }
  }
}
layer {
  name: "inception_3a/relu_pool_proj"
  type: "ReLU"
  bottom: "inception_3a/pool_proj"
  top: "inception_3a/pool_proj"
}
layer {
  name: "inception_3a/output"
  type: "Concat"
  bottom: "inception_3a/1x1"
  bottom: "inception_3a/3x3"
  bottom: "inception_3a/5x5"
  bottom: "inception_3a/pool_proj"
  top: "inception_3a/output"
}
layer {
  name: "inception_3b/1x1"
  type: "Convolution"
  bottom: "inception_3a/output"
  top: "inception_3b/1x1"
  param {
    lr_mult: 1
    decay_mult: 1
  }
  param {
    lr_mult: 2
    decay_mult: 0
  }
  convolution_param {
    num_output: 128
    kernel_size: 1
    weight_filler {
      type: "xavier"
      std: 0.03
    }
    bias_filler {
      type: "constant"
      value: 0.2
    }
  }
}
layer {
  name: "inception_3b/relu_1x1"
  type: "ReLU"
  bottom: "inception_3b/1x1"
  top: "inception_3b/1x1"
}
layer {
  name: "inception_3b/3x3_reduce"
  type: "Convolution"
  bottom: "inception_3a/output"
  top: "inception_3b/3x3_reduce"
  param {
    lr_mult: 1
    decay_mult: 1
  }
  param {
    lr_mult: 2
    decay_mult: 0
  }
  convolution_param {
    num_output: 128
    kernel_size: 1
    weight_filler {
      type: "xavier"
      std: 0.09
    }
    bias_filler {
      type: "constant"
      value: 0.2
    }
  }
}
layer {
  name: "inception_3b/relu_3x3_reduce"
  type: "ReLU"
  bottom: "inception_3b/3x3_reduce"
  top: "inception_3b/3x3_reduce"
}
layer {
  name: "inception_3b/3x3"
  type: "Convolution"
  bottom: "inception_3b/3x3_reduce"
  top: "inception_3b/3x3"
  param {
    lr_mult: 1
    decay_mult: 1
  }
  param {
    lr_mult: 2
    decay_mult: 0
  }
  convolution_param {
    num_output: 192
    pad: 1
    kernel_size: 3
    weight_filler {
      type: "xavier"
      std: 0.03
    }
    bias_filler {
      type: "constant"
      value: 0.2
    }
  }
}
layer {
  name: "inception_3b/relu_3x3"
  type: "ReLU"
  bottom: "inception_3b/3x3"
  top: "inception_3b/3x3"
}
layer {
  name: "inception_3b/5x5_reduce"
  type: "Convolution"
  bottom: "inception_3a/output"
  top: "inception_3b/5x5_reduce"
  param {
    lr_mult: 1
    decay_mult: 1
  }
  param {
    lr_mult: 2
    decay_mult: 0
  }
  convolution_param {
    num_output: 32
    kernel_size: 1
    weight_filler {
      type: "xavier"
      std: 0.2
    }
    bias_filler {
      type: "constant"
      value: 0.2
    }
  }
}
layer {
  name: "inception_3b/relu_5x5_reduce"
  type: "ReLU"
  bottom: "inception_3b/5x5_reduce"
  top: "inception_3b/5x5_reduce"
}
layer {
  name: "inception_3b/5x5"
  type: "Convolution"
  bottom: "inception_3b/5x5_reduce"
  top: "inception_3b/5x5"
  param {
    lr_mult: 1
    decay_mult: 1
  }
  param {
    lr_mult: 2
    decay_mult: 0
  }
  convolution_param {
    num_output: 96
    pad: 2
    kernel_size: 5
    weight_filler {
      type: "xavier"
      std: 0.03
    }
    bias_filler {
      type: "constant"
      value: 0.2
    }
  }
}
layer {
  name: "inception_3b/relu_5x5"
  type: "ReLU"
  bottom: "inception_3b/5x5"
  top: "inception_3b/5x5"
}
layer {
  name: "inception_3b/pool"
  type: "Pooling"
  bottom: "inception_3a/output"
  top: "inception_3b/pool"
  pooling_param {
    pool: MAX
    kernel_size: 3
    stride: 1
    pad: 1
  }
}
layer {
  name: "inception_3b/pool_proj"
  type: "Convolution"
  bottom: "inception_3b/pool"
  top: "inception_3b/pool_proj"
  param {
    lr_mult: 1
    decay_mult: 1
  }
  param {
    lr_mult: 2
    decay_mult: 0
  }
  convolution_param {
    num_output: 64
    kernel_size: 1
    weight_filler {
      type: "xavier"
      std: 0.1
    }
    bias_filler {
      type: "constant"
      value: 0.2
    }
  }
}
layer {
  name: "inception_3b/relu_pool_proj"
  type: "ReLU"
  bottom: "inception_3b/pool_proj"
  top: "inception_3b/pool_proj"
}
layer {
  name: "inception_3b/output"
  type: "Concat"
  bottom: "inception_3b/1x1"
  bottom: "inception_3b/3x3"
  bottom: "inception_3b/5x5"
  bottom: "inception_3b/pool_proj"
  top: "inception_3b/output"
}
layer {
  name: "pool3/3x3_s2"
  type: "Pooling"
  bottom: "inception_3b/output"
  top: "pool3/3x3_s2"
  pooling_param {
    pool: MAX
    kernel_size: 3
    stride: 2
  }
}
layer {
  name: "inception_4a/1x1"
  type: "Convolution"
  bottom: "pool3/3x3_s2"
  top: "inception_4a/1x1"
  param {
    lr_mult: 1
    decay_mult: 1
  }
  param {
    lr_mult: 2
    decay_mult: 0
  }
  convolution_param {
    num_output: 192
    kernel_size: 1
    weight_filler {
      type: "xavier"
      std: 0.03
    }
    bias_filler {
      type: "constant"
      value: 0.2
    }
  }
}
layer {
  name: "inception_4a/relu_1x1"
  type: "ReLU"
  bottom: "inception_4a/1x1"
  top: "inception_4a/1x1"
}
layer {
  name: "inception_4a/3x3_reduce"
  type: "Convolution"
  bottom: "pool3/3x3_s2"
  top: "inception_4a/3x3_reduce"
  param {
    lr_mult: 1
    decay_mult: 1
  }
  param {
    lr_mult: 2
    decay_mult: 0
  }
  convolution_param {
    num_output: 96
    kernel_size: 1
    weight_filler {
      type: "xavier"
      std: 0.09
    }
    bias_filler {
      type: "constant"
      value: 0.2
    }
  }
}
layer {
  name: "inception_4a/relu_3x3_reduce"
  type: "ReLU"
  bottom: "inception_4a/3x3_reduce"
  top: "inception_4a/3x3_reduce"
}
layer {
  name: "inception_4a/3x3"
  type: "Convolution"
  bottom: "inception_4a/3x3_reduce"
  top: "inception_4a/3x3"
  param {
    lr_mult: 1
    decay_mult: 1
  }
  param {
    lr_mult: 2
    decay_mult: 0
  }
  convolution_param {
    num_output: 208
    pad: 1
    kernel_size: 3
    weight_filler {
      type: "xavier"
      std: 0.03
    }
    bias_filler {
      type: "constant"
      value: 0.2
    }
  }
}
layer {
  name: "inception_4a/relu_3x3"
  type: "ReLU"
  bottom: "inception_4a/3x3"
  top: "inception_4a/3x3"
}
layer {
  name: "inception_4a/5x5_reduce"
  type: "Convolution"
  bottom: "pool3/3x3_s2"
  top: "inception_4a/5x5_reduce"
  param {
    lr_mult: 1
    decay_mult: 1
  }
  param {
    lr_mult: 2
    decay_mult: 0
  }
  convolution_param {
    num_output: 16
    kernel_size: 1
    weight_filler {
      type: "xavier"
      std: 0.2
    }
    bias_filler {
      type: "constant"
      value: 0.2
    }
  }
}
layer {
  name: "inception_4a/relu_5x5_reduce"
  type: "ReLU"
  bottom: "inception_4a/5x5_reduce"
  top: "inception_4a/5x5_reduce"
}
layer {
  name: "inception_4a/5x5"
  type: "Convolution"
  bottom: "inception_4a/5x5_reduce"
  top: "inception_4a/5x5"
  param {
    lr_mult: 1
    decay_mult: 1
  }
  param {
    lr_mult: 2
    decay_mult: 0
  }
  convolution_param {
    num_output: 48
    pad: 2
    kernel_size: 5
    weight_filler {
      type: "xavier"
      std: 0.03
    }
    bias_filler {
      type: "constant"
      value: 0.2
    }
  }
}
layer {
  name: "inception_4a/relu_5x5"
  type: "ReLU"
  bottom: "inception_4a/5x5"
  top: "inception_4a/5x5"
}
layer {
  name: "inception_4a/pool"
  type: "Pooling"
  bottom: "pool3/3x3_s2"
  top: "inception_4a/pool"
  pooling_param {
    pool: MAX
    kernel_size: 3
    stride: 1
    pad: 1
  }
}
layer {
  name: "inception_4a/pool_proj"
  type: "Convolution"
  bottom: "inception_4a/pool"
  top: "inception_4a/pool_proj"
  param {
    lr_mult: 1
    decay_mult: 1
  }
  param {
    lr_mult: 2
    decay_mult: 0
  }
  convolution_param {
    num_output: 64
    kernel_size: 1
    weight_filler {
      type: "xavier"
      std: 0.1
    }
    bias_filler {
      type: "constant"
      value: 0.2
    }
  }
}
layer {
  name: "inception_4a/relu_pool_proj"
  type: "ReLU"
  bottom: "inception_4a/pool_proj"
  top: "inception_4a/pool_proj"
}
layer {
  name: "inception_4a/output"
  type: "Concat"
  bottom: "inception_4a/1x1"
  bottom: "inception_4a/3x3"
  bottom: "inception_4a/5x5"
  bottom: "inception_4a/pool_proj"
  top: "inception_4a/output"
}
layer {
  name: "loss1/ave_pool"
  type: "Pooling"
  bottom: "inception_4a/output"
  top: "loss1/ave_pool"
  pooling_param {
    pool: AVE
    kernel_size: 5
    stride: 3
  }
}
layer {
  name: "loss1/conv"
  type: "Convolution"
  bottom: "loss1/ave_pool"
  top: "loss1/conv"
  param {
    lr_mult: 1
    decay_mult: 1
  }
  param {
    lr_mult: 2
    decay_mult: 0
  }
  convolution_param {
    num_output: 128
    kernel_size: 1
    weight_filler {
      type: "xavier"
      std: 0.08
    }
    bias_filler {
      type: "constant"
      value: 0.2
    }
  }
}
layer {
  name: "loss1/relu_conv"
  type: "ReLU"
  bottom: "loss1/conv"
  top: "loss1/conv"
}
layer {
  name: "loss1/fc"
  type: "InnerProduct"
  bottom: "loss1/conv"
  top: "loss1/fc"
  param {
    lr_mult: 1
    decay_mult: 1
  }
  param {
    lr_mult: 2
    decay_mult: 0
  }
  inner_product_param {
    num_output: 1024
    weight_filler {
      type: "xavier"
      std: 0.02
    }
    bias_filler {
      type: "constant"
      value: 0.2
    }
  }
}
layer {
  name: "loss1/relu_fc"
  type: "ReLU"
  bottom: "loss1/fc"
  top: "loss1/fc"
}
layer {
  name: "loss1/drop_fc"
  type: "Dropout"
  bottom: "loss1/fc"
  top: "loss1/fc"
  dropout_param {
    dropout_ratio: 0.7
  }
}
layer {
  name: "loss1/classifier_plantvillage"
  type: "InnerProduct"
  bottom: "loss1/fc"
  top: "loss1/classifier_plantvillage"
  param {
    lr_mult: 1
    decay_mult: 1
  }
  param {
    lr_mult: 2
    decay_mult: 0
  }
  inner_product_param {
    num_output: 38
    weight_filler {
      type: "xavier"
      std: 0.0009765625
    }
    bias_filler {
      type: "constant"
      value: 0
    }
  }
}
layer {
  name: "inception_4b/1x1"
  type: "Convolution"
  bottom: "inception_4a/output"
  top: "inception_4b/1x1"
  param {
    lr_mult: 1
    decay_mult: 1
  }
  param {
    lr_mult: 2
    decay_mult: 0
  }
  convolution_param {
    num_output: 160
    kernel_size: 1
    weight_filler {
      type: "xavier"
      std: 0.03
    }
    bias_filler {
      type: "constant"
      value: 0.2
    }
  }
}
layer {
  name: "inception_4b/relu_1x1"
  type: "ReLU"
  bottom: "inception_4b/1x1"
  top: "inception_4b/1x1"
}
layer {
  name: "inception_4b/3x3_reduce"
  type: "Convolution"
  bottom: "inception_4a/output"
  top: "inception_4b/3x3_reduce"
  param {
    lr_mult: 1
    decay_mult: 1
  }
  param {
    lr_mult: 2
    decay_mult: 0
  }
  convolution_param {
    num_output: 112
    kernel_size: 1
    weight_filler {
      type: "xavier"
      std: 0.09
    }
    bias_filler {
      type: "constant"
      value: 0.2
    }
  }
}
layer {
  name: "inception_4b/relu_3x3_reduce"
  type: "ReLU"
  bottom: "inception_4b/3x3_reduce"
  top: "inception_4b/3x3_reduce"
}
layer {
  name: "inception_4b/3x3"
  type: "Convolution"
  bottom: "inception_4b/3x3_reduce"
  top: "inception_4b/3x3"
  param {
    lr_mult: 1
    decay_mult: 1
  }
  param {
    lr_mult: 2
    decay_mult: 0
  }
  convolution_param {
    num_output: 224
    pad: 1
    kernel_size: 3
    weight_filler {
      type: "xavier"
      std: 0.03
    }
    bias_filler {
      type: "constant"
      value: 0.2
    }
  }
}
layer {
  name: "inception_4b/relu_3x3"
  type: "ReLU"
  bottom: "inception_4b/3x3"
  top: "inception_4b/3x3"
}
layer {
  name: "inception_4b/5x5_reduce"
  type: "Convolution"
  bottom: "inception_4a/output"
  top: "inception_4b/5x5_reduce"
  param {
    lr_mult: 1
    decay_mult: 1
  }
  param {
    lr_mult: 2
    decay_mult: 0
  }
  convolution_param {
    num_output: 24
    kernel_size: 1
    weight_filler {
      type: "xavier"
      std: 0.2
    }
    bias_filler {
      type: "constant"
      value: 0.2
    }
  }
}
layer {
  name: "inception_4b/relu_5x5_reduce"
  type: "ReLU"
  bottom: "inception_4b/5x5_reduce"
  top: "inception_4b/5x5_reduce"
}
layer {
  name: "inception_4b/5x5"
  type: "Convolution"
  bottom: "inception_4b/5x5_reduce"
  top: "inception_4b/5x5"
  param {
    lr_mult: 1
    decay_mult: 1
  }
  param {
    lr_mult: 2
    decay_mult: 0
  }
  convolution_param {
    num_output: 64
    pad: 2
    kernel_size: 5
    weight_filler {
      type: "xavier"
      std: 0.03
    }
    bias_filler {
      type: "constant"
      value: 0.2
    }
  }
}
layer {
  name: "inception_4b/relu_5x5"
  type: "ReLU"
  bottom: "inception_4b/5x5"
  top: "inception_4b/5x5"
}
layer {
  name: "inception_4b/pool"
  type: "Pooling"
  bottom: "inception_4a/output"
  top: "inception_4b/pool"
  pooling_param {
    pool: MAX
    kernel_size: 3
    stride: 1
    pad: 1
  }
}
layer {
  name: "inception_4b/pool_proj"
  type: "Convolution"
  bottom: "inception_4b/pool"
  top: "inception_4b/pool_proj"
  param {
    lr_mult: 1
    decay_mult: 1
  }
  param {
    lr_mult: 2
    decay_mult: 0
  }
  convolution_param {
    num_output: 64
    kernel_size: 1
    weight_filler {
      type: "xavier"
      std: 0.1
    }
    bias_filler {
      type: "constant"
      value: 0.2
    }
  }
}
layer {
  name: "inception_4b/relu_pool_proj"
  type: "ReLU"
  bottom: "inception_4b/pool_proj"
  top: "inception_4b/pool_proj"
}
layer {
  name: "inception_4b/output"
  type: "Concat"
  bottom: "inception_4b/1x1"
  bottom: "inception_4b/3x3"
  bottom: "inception_4b/5x5"
  bottom: "inception_4b/pool_proj"
  top: "inception_4b/output"
}
layer {
  name: "inception_4c/1x1"
  type: "Convolution"
  bottom: "inception_4b/output"
  top: "inception_4c/1x1"
  param {
    lr_mult: 1
    decay_mult: 1
  }
  param {
    lr_mult: 2
    decay_mult: 0
  }
  convolution_param {
    num_output: 128
    kernel_size: 1
    weight_filler {
      type: "xavier"
      std: 0.03
    }
    bias_filler {
      type: "constant"
      value: 0.2
    }
  }
}
layer {
  name: "inception_4c/relu_1x1"
  type: "ReLU"
  bottom: "inception_4c/1x1"
  top: "inception_4c/1x1"
}
layer {
  name: "inception_4c/3x3_reduce"
  type: "Convolution"
  bottom: "inception_4b/output"
  top: "inception_4c/3x3_reduce"
  param {
    lr_mult: 1
    decay_mult: 1
  }
  param {
    lr_mult: 2
    decay_mult: 0
  }
  convolution_param {
    num_output: 128
    kernel_size: 1
    weight_filler {
      type: "xavier"
      std: 0.09
    }
    bias_filler {
      type: "constant"
      value: 0.2
    }
  }
}
layer {
  name: "inception_4c/relu_3x3_reduce"
  type: "ReLU"
  bottom: "inception_4c/3x3_reduce"
  top: "inception_4c/3x3_reduce"
}
layer {
  name: "inception_4c/3x3"
  type: "Convolution"
  bottom: "inception_4c/3x3_reduce"
  top: "inception_4c/3x3"
  param {
    lr_mult: 1
    decay_mult: 1
  }
  param {
    lr_mult: 2
    decay_mult: 0
  }
  convolution_param {
    num_output: 256
    pad: 1
    kernel_size: 3
    weight_filler {
      type: "xavier"
      std: 0.03
    }
    bias_filler {
      type: "constant"
      value: 0.2
    }
  }
}
layer {
  name: "inception_4c/relu_3x3"
  type: "ReLU"
  bottom: "inception_4c/3x3"
  top: "inception_4c/3x3"
}
layer {
  name: "inception_4c/5x5_reduce"
  type: "Convolution"
  bottom: "inception_4b/output"
  top: "inception_4c/5x5_reduce"
  param {
    lr_mult: 1
    decay_mult: 1
  }
  param {
    lr_mult: 2
    decay_mult: 0
  }
  convolution_param {
    num_output: 24
    kernel_size: 1
    weight_filler {
      type: "xavier"
      std: 0.2
    }
    bias_filler {
      type: "constant"
      value: 0.2
    }
  }
}
layer {
  name: "inception_4c/relu_5x5_reduce"
  type: "ReLU"
  bottom: "inception_4c/5x5_reduce"
  top: "inception_4c/5x5_reduce"
}
layer {
  name: "inception_4c/5x5"
  type: "Convolution"
  bottom: "inception_4c/5x5_reduce"
  top: "inception_4c/5x5"
  param {
    lr_mult: 1
    decay_mult: 1
  }
  param {
    lr_mult: 2
    decay_mult: 0
  }
  convolution_param {
    num_output: 64
    pad: 2
    kernel_size: 5
    weight_filler {
      type: "xavier"
      std: 0.03
    }
    bias_filler {
      type: "constant"
      value: 0.2
    }
  }
}
layer {
  name: "inception_4c/relu_5x5"
  type: "ReLU"
  bottom: "inception_4c/5x5"
  top: "inception_4c/5x5"
}
layer {
  name: "inception_4c/pool"
  type: "Pooling"
  bottom: "inception_4b/output"
  top: "inception_4c/pool"
  pooling_param {
    pool: MAX
    kernel_size: 3
    stride: 1
    pad: 1
  }
}
layer {
  name: "inception_4c/pool_proj"
  type: "Convolution"
  bottom: "inception_4c/pool"
  top: "inception_4c/pool_proj"
  param {
    lr_mult: 1
    decay_mult: 1
  }
  param {
    lr_mult: 2
    decay_mult: 0
  }
  convolution_param {
    num_output: 64
    kernel_size: 1
    weight_filler {
      type: "xavier"
      std: 0.1
    }
    bias_filler {
      type: "constant"
      value: 0.2
    }
  }
}
layer {
  name: "inception_4c/relu_pool_proj"
  type: "ReLU"
  bottom: "inception_4c/pool_proj"
  top: "inception_4c/pool_proj"
}
layer {
  name: "inception_4c/output"
  type: "Concat"
  bottom: "inception_4c/1x1"
  bottom: "inception_4c/3x3"
  bottom: "inception_4c/5x5"
  bottom: "inception_4c/pool_proj"
  top: "inception_4c/output"
}
layer {
  name: "inception_4d/1x1"
  type: "Convolution"
  bottom: "inception_4c/output"
  top: "inception_4d/1x1"
  param {
    lr_mult: 1
    decay_mult: 1
  }
  param {
    lr_mult: 2
    decay_mult: 0
  }
  convolution_param {
    num_output: 112
    kernel_size: 1
    weight_filler {
      type: "xavier"
      std: 0.03
    }
    bias_filler {
      type: "constant"
      value: 0.2
    }
  }
}
layer {
  name: "inception_4d/relu_1x1"
  type: "ReLU"
  bottom: "inception_4d/1x1"
  top: "inception_4d/1x1"
}
layer {
  name: "inception_4d/3x3_reduce"
  type: "Convolution"
  bottom: "inception_4c/output"
  top: "inception_4d/3x3_reduce"
  param {
    lr_mult: 1
    decay_mult: 1
  }
  param {
    lr_mult: 2
    decay_mult: 0
  }
  convolution_param {
    num_output: 144
    kernel_size: 1
    weight_filler {
      type: "xavier"
      std: 0.09
    }
    bias_filler {
      type: "constant"
      value: 0.2
    }
  }
}
layer {
  name: "inception_4d/relu_3x3_reduce"
  type: "ReLU"
  bottom: "inception_4d/3x3_reduce"
  top: "inception_4d/3x3_reduce"
}
layer {
  name: "inception_4d/3x3"
  type: "Convolution"
  bottom: "inception_4d/3x3_reduce"
  top: "inception_4d/3x3"
  param {
    lr_mult: 1
    decay_mult: 1
  }
  param {
    lr_mult: 2
    decay_mult: 0
  }
  convolution_param {
    num_output: 288
    pad: 1
    kernel_size: 3
    weight_filler {
      type: "xavier"
      std: 0.03
    }
    bias_filler {
      type: "constant"
      value: 0.2
    }
  }
}
layer {
  name: "inception_4d/relu_3x3"
  type: "ReLU"
  bottom: "inception_4d/3x3"
  top: "inception_4d/3x3"
}
layer {
  name: "inception_4d/5x5_reduce"
  type: "Convolution"
  bottom: "inception_4c/output"
  top: "inception_4d/5x5_reduce"
  param {
    lr_mult: 1
    decay_mult: 1
  }
  param {
    lr_mult: 2
    decay_mult: 0
  }
  convolution_param {
    num_output: 32
    kernel_size: 1
    weight_filler {
      type: "xavier"
      std: 0.2
    }
    bias_filler {
      type: "constant"
      value: 0.2
    }
  }
}
layer {
  name: "inception_4d/relu_5x5_reduce"
  type: "ReLU"
  bottom: "inception_4d/5x5_reduce"
  top: "inception_4d/5x5_reduce"
}
layer {
  name: "inception_4d/5x5"
  type: "Convolution"
  bottom: "inception_4d/5x5_reduce"
  top: "inception_4d/5x5"
  param {
    lr_mult: 1
    decay_mult: 1
  }
  param {
    lr_mult: 2
    decay_mult: 0
  }
  convolution_param {
    num_output: 64
    pad: 2
    kernel_size: 5
    weight_filler {
      type: "xavier"
      std: 0.03
    }
    bias_filler {
      type: "constant"
      value: 0.2
    }
  }
}
layer {
  name: "inception_4d/relu_5x5"
  type: "ReLU"
  bottom: "inception_4d/5x5"
  top: "inception_4d/5x5"
}
layer {
  name: "inception_4d/pool"
  type: "Pooling"
  bottom: "inception_4c/output"
  top: "inception_4d/pool"
  pooling_param {
    pool: MAX
    kernel_size: 3
    stride: 1
    pad: 1
  }
}
layer {
  name: "inception_4d/pool_proj"
  type: "Convolution"
  bottom: "inception_4d/pool"
  top: "inception_4d/pool_proj"
  param {
    lr_mult: 1
    decay_mult: 1
  }
  param {
    lr_mult: 2
    decay_mult: 0
  }
  convolution_param {
    num_output: 64
    kernel_size: 1
    weight_filler {
      type: "xavier"
      std: 0.1
    }
    bias_filler {
      type: "constant"
      value: 0.2
    }
  }
}
layer {
  name: "inception_4d/relu_pool_proj"
  type: "ReLU"
  bottom: "inception_4d/pool_proj"
  top: "inception_4d/pool_proj"
}
layer {
  name: "inception_4d/output"
  type: "Concat"
  bottom: "inception_4d/1x1"
  bottom: "inception_4d/3x3"
  bottom: "inception_4d/5x5"
  bottom: "inception_4d/pool_proj"
  top: "inception_4d/output"
}
layer {
  name: "loss2/ave_pool"
  type: "Pooling"
  bottom: "inception_4d/output"
  top: "loss2/ave_pool"
  pooling_param {
    pool: AVE
    kernel_size: 5
    stride: 3
  }
}
layer {
  name: "loss2/conv"
  type: "Convolution"
  bottom: "loss2/ave_pool"
  top: "loss2/conv"
  param {
    lr_mult: 1
    decay_mult: 1
  }
  param {
    lr_mult: 2
    decay_mult: 0
  }
  convolution_param {
    num_output: 128
    kernel_size: 1
    weight_filler {
      type: "xavier"
      std: 0.08
    }
    bias_filler {
      type: "constant"
      value: 0.2
    }
  }
}
layer {
  name: "loss2/relu_conv"
  type: "ReLU"
  bottom: "loss2/conv"
  top: "loss2/conv"
}
layer {
  name: "loss2/fc"
  type: "InnerProduct"
  bottom: "loss2/conv"
  top: "loss2/fc"
  param {
    lr_mult: 1
    decay_mult: 1
  }
  param {
    lr_mult: 2
    decay_mult: 0
  }
  inner_product_param {
    num_output: 1024
    weight_filler {
      type: "xavier"
      std: 0.02
    }
    bias_filler {
      type: "constant"
      value: 0.2
    }
  }
}
layer {
  name: "loss2/relu_fc"
  type: "ReLU"
  bottom: "loss2/fc"
  top: "loss2/fc"
}
layer {
  name: "loss2/drop_fc"
  type: "Dropout"
  bottom: "loss2/fc"
  top: "loss2/fc"
  dropout_param {
    dropout_ratio: 0.7
  }
}
layer {
  name: "loss2/classifier_plantvillage"
  type: "InnerProduct"
  bottom: "loss2/fc"
  top: "loss2/classifier_plantvillage"
  param {
    lr_mult: 1
    decay_mult: 1
  }
  param {
    lr_mult: 2
    decay_mult: 0
  }
  inner_product_param {
    num_output: 38
    weight_filler {
      type: "xavier"
      std: 0.0009765625
    }
    bias_filler {
      type: "constant"
      value: 0
    }
  }
}
layer {
  name: "inception_4e/1x1"
  type: "Convolution"
  bottom: "inception_4d/output"
  top: "inception_4e/1x1"
  param {
    lr_mult: 1
    decay_mult: 1
  }
  param {
    lr_mult: 2
    decay_mult: 0
  }
  convolution_param {
    num_output: 256
    kernel_size: 1
    weight_filler {
      type: "xavier"
      std: 0.03
    }
    bias_filler {
      type: "constant"
      value: 0.2
    }
  }
}
layer {
  name: "inception_4e/relu_1x1"
  type: "ReLU"
  bottom: "inception_4e/1x1"
  top: "inception_4e/1x1"
}
layer {
  name: "inception_4e/3x3_reduce"
  type: "Convolution"
  bottom: "inception_4d/output"
  top: "inception_4e/3x3_reduce"
  param {
    lr_mult: 1
    decay_mult: 1
  }
  param {
    lr_mult: 2
    decay_mult: 0
  }
  convolution_param {
    num_output: 160
    kernel_size: 1
    weight_filler {
      type: "xavier"
      std: 0.09
    }
    bias_filler {
      type: "constant"
      value: 0.2
    }
  }
}
layer {
  name: "inception_4e/relu_3x3_reduce"
  type: "ReLU"
  bottom: "inception_4e/3x3_reduce"
  top: "inception_4e/3x3_reduce"
}
layer {
  name: "inception_4e/3x3"
  type: "Convolution"
  bottom: "inception_4e/3x3_reduce"
  top: "inception_4e/3x3"
  param {
    lr_mult: 1
    decay_mult: 1
  }
  param {
    lr_mult: 2
    decay_mult: 0
  }
  convolution_param {
    num_output: 320
    pad: 1
    kernel_size: 3
    weight_filler {
      type: "xavier"
      std: 0.03
    }
    bias_filler {
      type: "constant"
      value: 0.2
    }
  }
}
layer {
  name: "inception_4e/relu_3x3"
  type: "ReLU"
  bottom: "inception_4e/3x3"
  top: "inception_4e/3x3"
}
layer {
  name: "inception_4e/5x5_reduce"
  type: "Convolution"
  bottom: "inception_4d/output"
  top: "inception_4e/5x5_reduce"
  param {
    lr_mult: 1
    decay_mult: 1
  }
  param {
    lr_mult: 2
    decay_mult: 0
  }
  convolution_param {
    num_output: 32
    kernel_size: 1
    weight_filler {
      type: "xavier"
      std: 0.2
    }
    bias_filler {
      type: "constant"
      value: 0.2
    }
  }
}
layer {
  name: "inception_4e/relu_5x5_reduce"
  type: "ReLU"
  bottom: "inception_4e/5x5_reduce"
  top: "inception_4e/5x5_reduce"
}
layer {
  name: "inception_4e/5x5"
  type: "Convolution"
  bottom: "inception_4e/5x5_reduce"
  top: "inception_4e/
I0403 15:51:19.077266 20343 layer_factory.hpp:77] Creating layer data
I0403 15:51:19.077889 20343 net.cpp:91] Creating Layer data
I0403 15:51:19.077920 20343 net.cpp:399] data -> data
I0403 15:51:19.077975 20343 net.cpp:399] data -> label
I0403 15:51:19.078011 20343 data_transformer.cpp:25] Loading mean file from: /home/mohanty/data/final_dataset/lmdb/grayscale-20-80/mean.binaryproto
I0403 15:51:19.079226 20347 db_lmdb.cpp:38] Opened lmdb /home/mohanty/data/final_dataset/lmdb/grayscale-20-80/test_db
I0403 15:51:19.091228 20343 data_layer.cpp:41] output data size: 24,3,224,224
I0403 15:51:19.118727 20343 net.cpp:141] Setting up data
I0403 15:51:19.118830 20343 net.cpp:148] Top shape: 24 3 224 224 (3612672)
I0403 15:51:19.118854 20343 net.cpp:148] Top shape: 24 (24)
I0403 15:51:19.118870 20343 net.cpp:156] Memory required for data: 14450784
I0403 15:51:19.118897 20343 layer_factory.hpp:77] Creating layer label_data_1_split
I0403 15:51:19.118924 20343 net.cpp:91] Creating Layer label_data_1_split
I0403 15:51:19.118943 20343 net.cpp:425] label_data_1_split <- label
I0403 15:51:19.118978 20343 net.cpp:399] label_data_1_split -> label_data_1_split_0
I0403 15:51:19.119007 20343 net.cpp:399] label_data_1_split -> label_data_1_split_1
I0403 15:51:19.119035 20343 net.cpp:399] label_data_1_split -> label_data_1_split_2
I0403 15:51:19.119057 20343 net.cpp:399] label_data_1_split -> label_data_1_split_3
I0403 15:51:19.119077 20343 net.cpp:399] label_data_1_split -> label_data_1_split_4
I0403 15:51:19.119097 20343 net.cpp:399] label_data_1_split -> label_data_1_split_5
I0403 15:51:19.119117 20343 net.cpp:399] label_data_1_split -> label_data_1_split_6
I0403 15:51:19.119138 20343 net.cpp:399] label_data_1_split -> label_data_1_split_7
I0403 15:51:19.119158 20343 net.cpp:399] label_data_1_split -> label_data_1_split_8
I0403 15:51:19.119179 20343 net.cpp:399] label_data_1_split -> label_data_1_split_9
I0403 15:51:19.119298 20343 net.cpp:141] Setting up label_data_1_split
I0403 15:51:19.119323 20343 net.cpp:148] Top shape: 24 (24)
I0403 15:51:19.119340 20343 net.cpp:148] Top shape: 24 (24)
I0403 15:51:19.119357 20343 net.cpp:148] Top shape: 24 (24)
I0403 15:51:19.119374 20343 net.cpp:148] Top shape: 24 (24)
I0403 15:51:19.119390 20343 net.cpp:148] Top shape: 24 (24)
I0403 15:51:19.119406 20343 net.cpp:148] Top shape: 24 (24)
I0403 15:51:19.119422 20343 net.cpp:148] Top shape: 24 (24)
I0403 15:51:19.119438 20343 net.cpp:148] Top shape: 24 (24)
I0403 15:51:19.119454 20343 net.cpp:148] Top shape: 24 (24)
I0403 15:51:19.119470 20343 net.cpp:148] Top shape: 24 (24)
I0403 15:51:19.119520 20343 net.cpp:156] Memory required for data: 14451744
I0403 15:51:19.119536 20343 layer_factory.hpp:77] Creating layer conv1/7x7_s2
I0403 15:51:19.119570 20343 net.cpp:91] Creating Layer conv1/7x7_s2
I0403 15:51:19.119588 20343 net.cpp:425] conv1/7x7_s2 <- data
I0403 15:51:19.119609 20343 net.cpp:399] conv1/7x7_s2 -> conv1/7x7_s2
I0403 15:51:19.263980 20343 net.cpp:141] Setting up conv1/7x7_s2
I0403 15:51:19.264070 20343 net.cpp:148] Top shape: 24 64 112 112 (19267584)
I0403 15:51:19.264088 20343 net.cpp:156] Memory required for data: 91522080
I0403 15:51:19.264122 20343 layer_factory.hpp:77] Creating layer conv1/relu_7x7
I0403 15:51:19.264152 20343 net.cpp:91] Creating Layer conv1/relu_7x7
I0403 15:51:19.264171 20343 net.cpp:425] conv1/relu_7x7 <- conv1/7x7_s2
I0403 15:51:19.264190 20343 net.cpp:386] conv1/relu_7x7 -> conv1/7x7_s2 (in-place)
I0403 15:51:19.264477 20343 net.cpp:141] Setting up conv1/relu_7x7
I0403 15:51:19.264506 20343 net.cpp:148] Top shape: 24 64 112 112 (19267584)
I0403 15:51:19.264523 20343 net.cpp:156] Memory required for data: 168592416
I0403 15:51:19.264539 20343 layer_factory.hpp:77] Creating layer pool1/3x3_s2
I0403 15:51:19.264566 20343 net.cpp:91] Creating Layer pool1/3x3_s2
I0403 15:51:19.264585 20343 net.cpp:425] pool1/3x3_s2 <- conv1/7x7_s2
I0403 15:51:19.264605 20343 net.cpp:399] pool1/3x3_s2 -> pool1/3x3_s2
I0403 15:51:19.264691 20343 net.cpp:141] Setting up pool1/3x3_s2
I0403 15:51:19.264717 20343 net.cpp:148] Top shape: 24 64 56 56 (4816896)
I0403 15:51:19.264732 20343 net.cpp:156] Memory required for data: 187860000
I0403 15:51:19.264749 20343 layer_factory.hpp:77] Creating layer pool1/norm1
I0403 15:51:19.264775 20343 net.cpp:91] Creating Layer pool1/norm1
I0403 15:51:19.264796 20343 net.cpp:425] pool1/norm1 <- pool1/3x3_s2
I0403 15:51:19.264813 20343 net.cpp:399] pool1/norm1 -> pool1/norm1
I0403 15:51:19.265172 20343 net.cpp:141] Setting up pool1/norm1
I0403 15:51:19.265202 20343 net.cpp:148] Top shape: 24 64 56 56 (4816896)
I0403 15:51:19.265218 20343 net.cpp:156] Memory required for data: 207127584
I0403 15:51:19.265234 20343 layer_factory.hpp:77] Creating layer conv2/3x3_reduce
I0403 15:51:19.265264 20343 net.cpp:91] Creating Layer conv2/3x3_reduce
I0403 15:51:19.265282 20343 net.cpp:425] conv2/3x3_reduce <- pool1/norm1
I0403 15:51:19.265303 20343 net.cpp:399] conv2/3x3_reduce -> conv2/3x3_reduce
I0403 15:51:19.266799 20343 net.cpp:141] Setting up conv2/3x3_reduce
I0403 15:51:19.266834 20343 net.cpp:148] Top shape: 24 64 56 56 (4816896)
I0403 15:51:19.266851 20343 net.cpp:156] Memory required for data: 226395168
I0403 15:51:19.266873 20343 layer_factory.hpp:77] Creating layer conv2/relu_3x3_reduce
I0403 15:51:19.266893 20343 net.cpp:91] Creating Layer conv2/relu_3x3_reduce
I0403 15:51:19.266909 20343 net.cpp:425] conv2/relu_3x3_reduce <- conv2/3x3_reduce
I0403 15:51:19.266930 20343 net.cpp:386] conv2/relu_3x3_reduce -> conv2/3x3_reduce (in-place)
I0403 15:51:19.267215 20343 net.cpp:141] Setting up conv2/relu_3x3_reduce
I0403 15:51:19.267246 20343 net.cpp:148] Top shape: 24 64 56 56 (4816896)
I0403 15:51:19.267262 20343 net.cpp:156] Memory required for data: 245662752
I0403 15:51:19.267278 20343 layer_factory.hpp:77] Creating layer conv2/3x3
I0403 15:51:19.267302 20343 net.cpp:91] Creating Layer conv2/3x3
I0403 15:51:19.267321 20343 net.cpp:425] conv2/3x3 <- conv2/3x3_reduce
I0403 15:51:19.267344 20343 net.cpp:399] conv2/3x3 -> conv2/3x3
I0403 15:51:19.269815 20343 net.cpp:141] Setting up conv2/3x3
I0403 15:51:19.269850 20343 net.cpp:148] Top shape: 24 192 56 56 (14450688)
I0403 15:51:19.269868 20343 net.cpp:156] Memory required for data: 303465504
I0403 15:51:19.269891 20343 layer_factory.hpp:77] Creating layer conv2/relu_3x3
I0403 15:51:19.269911 20343 net.cpp:91] Creating Layer conv2/relu_3x3
I0403 15:51:19.269927 20343 net.cpp:425] conv2/relu_3x3 <- conv2/3x3
I0403 15:51:19.269948 20343 net.cpp:386] conv2/relu_3x3 -> conv2/3x3 (in-place)
I0403 15:51:19.270167 20343 net.cpp:141] Setting up conv2/relu_3x3
I0403 15:51:19.270195 20343 net.cpp:148] Top shape: 24 192 56 56 (14450688)
I0403 15:51:19.270241 20343 net.cpp:156] Memory required for data: 361268256
I0403 15:51:19.270258 20343 layer_factory.hpp:77] Creating layer conv2/norm2
I0403 15:51:19.270279 20343 net.cpp:91] Creating Layer conv2/norm2
I0403 15:51:19.270298 20343 net.cpp:425] conv2/norm2 <- conv2/3x3
I0403 15:51:19.270318 20343 net.cpp:399] conv2/norm2 -> conv2/norm2
I0403 15:51:19.270642 20343 net.cpp:141] Setting up conv2/norm2
I0403 15:51:19.270673 20343 net.cpp:148] Top shape: 24 192 56 56 (14450688)
I0403 15:51:19.270690 20343 net.cpp:156] Memory required for data: 419071008
I0403 15:51:19.270705 20343 layer_factory.hpp:77] Creating layer pool2/3x3_s2
I0403 15:51:19.270723 20343 net.cpp:91] Creating Layer pool2/3x3_s2
I0403 15:51:19.270740 20343 net.cpp:425] pool2/3x3_s2 <- conv2/norm2
I0403 15:51:19.270761 20343 net.cpp:399] pool2/3x3_s2 -> pool2/3x3_s2
I0403 15:51:19.270817 20343 net.cpp:141] Setting up pool2/3x3_s2
I0403 15:51:19.270840 20343 net.cpp:148] Top shape: 24 192 28 28 (3612672)
I0403 15:51:19.270856 20343 net.cpp:156] Memory required for data: 433521696
I0403 15:51:19.270871 20343 layer_factory.hpp:77] Creating layer pool2/3x3_s2_pool2/3x3_s2_0_split
I0403 15:51:19.270892 20343 net.cpp:91] Creating Layer pool2/3x3_s2_pool2/3x3_s2_0_split
I0403 15:51:19.270910 20343 net.cpp:425] pool2/3x3_s2_pool2/3x3_s2_0_split <- pool2/3x3_s2
I0403 15:51:19.270927 20343 net.cpp:399] pool2/3x3_s2_pool2/3x3_s2_0_split -> pool2/3x3_s2_pool2/3x3_s2_0_split_0
I0403 15:51:19.270947 20343 net.cpp:399] pool2/3x3_s2_pool2/3x3_s2_0_split -> pool2/3x3_s2_pool2/3x3_s2_0_split_1
I0403 15:51:19.270967 20343 net.cpp:399] pool2/3x3_s2_pool2/3x3_s2_0_split -> pool2/3x3_s2_pool2/3x3_s2_0_split_2
I0403 15:51:19.270987 20343 net.cpp:399] pool2/3x3_s2_pool2/3x3_s2_0_split -> pool2/3x3_s2_pool2/3x3_s2_0_split_3
I0403 15:51:19.271070 20343 net.cpp:141] Setting up pool2/3x3_s2_pool2/3x3_s2_0_split
I0403 15:51:19.271095 20343 net.cpp:148] Top shape: 24 192 28 28 (3612672)
I0403 15:51:19.271111 20343 net.cpp:148] Top shape: 24 192 28 28 (3612672)
I0403 15:51:19.271128 20343 net.cpp:148] Top shape: 24 192 28 28 (3612672)
I0403 15:51:19.271144 20343 net.cpp:148] Top shape: 24 192 28 28 (3612672)
I0403 15:51:19.271158 20343 net.cpp:156] Memory required for data: 491324448
I0403 15:51:19.271173 20343 layer_factory.hpp:77] Creating layer inception_3a/1x1
I0403 15:51:19.271196 20343 net.cpp:91] Creating Layer inception_3a/1x1
I0403 15:51:19.271216 20343 net.cpp:425] inception_3a/1x1 <- pool2/3x3_s2_pool2/3x3_s2_0_split_0
I0403 15:51:19.271239 20343 net.cpp:399] inception_3a/1x1 -> inception_3a/1x1
I0403 15:51:19.272944 20343 net.cpp:141] Setting up inception_3a/1x1
I0403 15:51:19.272979 20343 net.cpp:148] Top shape: 24 64 28 28 (1204224)
I0403 15:51:19.272996 20343 net.cpp:156] Memory required for data: 496141344
I0403 15:51:19.273020 20343 layer_factory.hpp:77] Creating layer inception_3a/relu_1x1
I0403 15:51:19.273041 20343 net.cpp:91] Creating Layer inception_3a/relu_1x1
I0403 15:51:19.273057 20343 net.cpp:425] inception_3a/relu_1x1 <- inception_3a/1x1
I0403 15:51:19.273077 20343 net.cpp:386] inception_3a/relu_1x1 -> inception_3a/1x1 (in-place)
I0403 15:51:19.273264 20343 net.cpp:141] Setting up inception_3a/relu_1x1
I0403 15:51:19.273291 20343 net.cpp:148] Top shape: 24 64 28 28 (1204224)
I0403 15:51:19.273306 20343 net.cpp:156] Memory required for data: 500958240
I0403 15:51:19.273321 20343 layer_factory.hpp:77] Creating layer inception_3a/3x3_reduce
I0403 15:51:19.273345 20343 net.cpp:91] Creating Layer inception_3a/3x3_reduce
I0403 15:51:19.273363 20343 net.cpp:425] inception_3a/3x3_reduce <- pool2/3x3_s2_pool2/3x3_s2_0_split_1
I0403 15:51:19.273386 20343 net.cpp:399] inception_3a/3x3_reduce -> inception_3a/3x3_reduce
I0403 15:51:19.275162 20343 net.cpp:141] Setting up inception_3a/3x3_reduce
I0403 15:51:19.275197 20343 net.cpp:148] Top shape: 24 96 28 28 (1806336)
I0403 15:51:19.275216 20343 net.cpp:156] Memory required for data: 508183584
I0403 15:51:19.275238 20343 layer_factory.hpp:77] Creating layer inception_3a/relu_3x3_reduce
I0403 15:51:19.275281 20343 net.cpp:91] Creating Layer inception_3a/relu_3x3_reduce
I0403 15:51:19.275300 20343 net.cpp:425] inception_3a/relu_3x3_reduce <- inception_3a/3x3_reduce
I0403 15:51:19.275318 20343 net.cpp:386] inception_3a/relu_3x3_reduce -> inception_3a/3x3_reduce (in-place)
I0403 15:51:19.275509 20343 net.cpp:141] Setting up inception_3a/relu_3x3_reduce
I0403 15:51:19.275538 20343 net.cpp:148] Top shape: 24 96 28 28 (1806336)
I0403 15:51:19.275554 20343 net.cpp:156] Memory required for data: 515408928
I0403 15:51:19.275569 20343 layer_factory.hpp:77] Creating layer inception_3a/3x3
I0403 15:51:19.275593 20343 net.cpp:91] Creating Layer inception_3a/3x3
I0403 15:51:19.275612 20343 net.cpp:425] inception_3a/3x3 <- inception_3a/3x3_reduce
I0403 15:51:19.275631 20343 net.cpp:399] inception_3a/3x3 -> inception_3a/3x3
I0403 15:51:19.277384 20343 net.cpp:141] Setting up inception_3a/3x3
I0403 15:51:19.277413 20343 net.cpp:148] Top shape: 24 128 28 28 (2408448)
I0403 15:51:19.277431 20343 net.cpp:156] Memory required for data: 525042720
I0403 15:51:19.277449 20343 layer_factory.hpp:77] Creating layer inception_3a/relu_3x3
I0403 15:51:19.277469 20343 net.cpp:91] Creating Layer inception_3a/relu_3x3
I0403 15:51:19.277485 20343 net.cpp:425] inception_3a/relu_3x3 <- inception_3a/3x3
I0403 15:51:19.277506 20343 net.cpp:386] inception_3a/relu_3x3 -> inception_3a/3x3 (in-place)
I0403 15:51:19.277792 20343 net.cpp:141] Setting up inception_3a/relu_3x3
I0403 15:51:19.277819 20343 net.cpp:148] Top shape: 24 128 28 28 (2408448)
I0403 15:51:19.277835 20343 net.cpp:156] Memory required for data: 534676512
I0403 15:51:19.277851 20343 layer_factory.hpp:77] Creating layer inception_3a/5x5_reduce
I0403 15:51:19.277875 20343 net.cpp:91] Creating Layer inception_3a/5x5_reduce
I0403 15:51:19.277894 20343 net.cpp:425] inception_3a/5x5_reduce <- pool2/3x3_s2_pool2/3x3_s2_0_split_2
I0403 15:51:19.277915 20343 net.cpp:399] inception_3a/5x5_reduce -> inception_3a/5x5_reduce
I0403 15:51:19.278933 20343 net.cpp:141] Setting up inception_3a/5x5_reduce
I0403 15:51:19.278961 20343 net.cpp:148] Top shape: 24 16 28 28 (301056)
I0403 15:51:19.278977 20343 net.cpp:156] Memory required for data: 535880736
I0403 15:51:19.278996 20343 layer_factory.hpp:77] Creating layer inception_3a/relu_5x5_reduce
I0403 15:51:19.279028 20343 net.cpp:91] Creating Layer inception_3a/relu_5x5_reduce
I0403 15:51:19.279049 20343 net.cpp:425] inception_3a/relu_5x5_reduce <- inception_3a/5x5_reduce
I0403 15:51:19.279068 20343 net.cpp:386] inception_3a/relu_5x5_reduce -> inception_3a/5x5_reduce (in-place)
I0403 15:51:19.279378 20343 net.cpp:141] Setting up inception_3a/relu_5x5_reduce
I0403 15:51:19.279407 20343 net.cpp:148] Top shape: 24 16 28 28 (301056)
I0403 15:51:19.279422 20343 net.cpp:156] Memory required for data: 537084960
I0403 15:51:19.279436 20343 layer_factory.hpp:77] Creating layer inception_3a/5x5
I0403 15:51:19.279460 20343 net.cpp:91] Creating Layer inception_3a/5x5
I0403 15:51:19.279479 20343 net.cpp:425] inception_3a/5x5 <- inception_3a/5x5_reduce
I0403 15:51:19.279500 20343 net.cpp:399] inception_3a/5x5 -> inception_3a/5x5
I0403 15:51:19.280566 20343 net.cpp:141] Setting up inception_3a/5x5
I0403 15:51:19.280596 20343 net.cpp:148] Top shape: 24 32 28 28 (602112)
I0403 15:51:19.280611 20343 net.cpp:156] Memory required for data: 539493408
I0403 15:51:19.280630 20343 layer_factory.hpp:77] Creating layer inception_3a/relu_5x5
I0403 15:51:19.280650 20343 net.cpp:91] Creating Layer inception_3a/relu_5x5
I0403 15:51:19.280666 20343 net.cpp:425] inception_3a/relu_5x5 <- inception_3a/5x5
I0403 15:51:19.280686 20343 net.cpp:386] inception_3a/relu_5x5 -> inception_3a/5x5 (in-place)
I0403 15:51:19.280867 20343 net.cpp:141] Setting up inception_3a/relu_5x5
I0403 15:51:19.280894 20343 net.cpp:148] Top shape: 24 32 28 28 (602112)
I0403 15:51:19.280910 20343 net.cpp:156] Memory required for data: 541901856
I0403 15:51:19.280925 20343 layer_factory.hpp:77] Creating layer inception_3a/pool
I0403 15:51:19.280946 20343 net.cpp:91] Creating Layer inception_3a/pool
I0403 15:51:19.280978 20343 net.cpp:425] inception_3a/pool <- pool2/3x3_s2_pool2/3x3_s2_0_split_3
I0403 15:51:19.280998 20343 net.cpp:399] inception_3a/pool -> inception_3a/pool
I0403 15:51:19.281064 20343 net.cpp:141] Setting up inception_3a/pool
I0403 15:51:19.281088 20343 net.cpp:148] Top shape: 24 192 28 28 (3612672)
I0403 15:51:19.281105 20343 net.cpp:156] Memory required for data: 556352544
I0403 15:51:19.281119 20343 layer_factory.hpp:77] Creating layer inception_3a/pool_proj
I0403 15:51:19.281146 20343 net.cpp:91] Creating Layer inception_3a/pool_proj
I0403 15:51:19.281163 20343 net.cpp:425] inception_3a/pool_proj <- inception_3a/pool
I0403 15:51:19.281185 20343 net.cpp:399] inception_3a/pool_proj -> inception_3a/pool_proj
I0403 15:51:19.282204 20343 net.cpp:141] Setting up inception_3a/pool_proj
I0403 15:51:19.282237 20343 net.cpp:148] Top shape: 24 32 28 28 (602112)
I0403 15:51:19.282253 20343 net.cpp:156] Memory required for data: 558760992
I0403 15:51:19.282276 20343 layer_factory.hpp:77] Creating layer inception_3a/relu_pool_proj
I0403 15:51:19.282299 20343 net.cpp:91] Creating Layer inception_3a/relu_pool_proj
I0403 15:51:19.282317 20343 net.cpp:425] inception_3a/relu_pool_proj <- inception_3a/pool_proj
I0403 15:51:19.282335 20343 net.cpp:386] inception_3a/relu_pool_proj -> inception_3a/pool_proj (in-place)
I0403 15:51:19.282623 20343 net.cpp:141] Setting up inception_3a/relu_pool_proj
I0403 15:51:19.282650 20343 net.cpp:148] Top shape: 24 32 28 28 (602112)
I0403 15:51:19.282666 20343 net.cpp:156] Memory required for data: 561169440
I0403 15:51:19.282682 20343 layer_factory.hpp:77] Creating layer inception_3a/output
I0403 15:51:19.282701 20343 net.cpp:91] Creating Layer inception_3a/output
I0403 15:51:19.282718 20343 net.cpp:425] inception_3a/output <- inception_3a/1x1
I0403 15:51:19.282734 20343 net.cpp:425] inception_3a/output <- inception_3a/3x3
I0403 15:51:19.282752 20343 net.cpp:425] inception_3a/output <- inception_3a/5x5
I0403 15:51:19.282768 20343 net.cpp:425] inception_3a/output <- inception_3a/pool_proj
I0403 15:51:19.282789 20343 net.cpp:399] inception_3a/output -> inception_3a/output
I0403 15:51:19.282837 20343 net.cpp:141] Setting up inception_3a/output
I0403 15:51:19.282866 20343 net.cpp:148] Top shape: 24 256 28 28 (4816896)
I0403 15:51:19.282881 20343 net.cpp:156] Memory required for data: 580437024
I0403 15:51:19.282897 20343 layer_factory.hpp:77] Creating layer inception_3a/output_inception_3a/output_0_split
I0403 15:51:19.282915 20343 net.cpp:91] Creating Layer inception_3a/output_inception_3a/output_0_split
I0403 15:51:19.282932 20343 net.cpp:425] inception_3a/output_inception_3a/output_0_split <- inception_3a/output
I0403 15:51:19.282948 20343 net.cpp:399] inception_3a/output_inception_3a/output_0_split -> inception_3a/output_inception_3a/output_0_split_0
I0403 15:51:19.282969 20343 net.cpp:399] inception_3a/output_inception_3a/output_0_split -> inception_3a/output_inception_3a/output_0_split_1
I0403 15:51:19.282994 20343 net.cpp:399] inception_3a/output_inception_3a/output_0_split -> inception_3a/output_inception_3a/output_0_split_2
I0403 15:51:19.283020 20343 net.cpp:399] inception_3a/output_inception_3a/output_0_split -> inception_3a/output_inception_3a/output_0_split_3
I0403 15:51:19.283102 20343 net.cpp:141] Setting up inception_3a/output_inception_3a/output_0_split
I0403 15:51:19.283128 20343 net.cpp:148] Top shape: 24 256 28 28 (4816896)
I0403 15:51:19.283148 20343 net.cpp:148] Top shape: 24 256 28 28 (4816896)
I0403 15:51:19.283164 20343 net.cpp:148] Top shape: 24 256 28 28 (4816896)
I0403 15:51:19.283181 20343 net.cpp:148] Top shape: 24 256 28 28 (4816896)
I0403 15:51:19.283195 20343 net.cpp:156] Memory required for data: 657507360
I0403 15:51:19.283211 20343 layer_factory.hpp:77] Creating layer inception_3b/1x1
I0403 15:51:19.283234 20343 net.cpp:91] Creating Layer inception_3b/1x1
I0403 15:51:19.283252 20343 net.cpp:425] inception_3b/1x1 <- inception_3a/output_inception_3a/output_0_split_0
I0403 15:51:19.283272 20343 net.cpp:399] inception_3b/1x1 -> inception_3b/1x1
I0403 15:51:19.284487 20343 net.cpp:141] Setting up inception_3b/1x1
I0403 15:51:19.284531 20343 net.cpp:148] Top shape: 24 128 28 28 (2408448)
I0403 15:51:19.284550 20343 net.cpp:156] Memory required for data: 667141152
I0403 15:51:19.284569 20343 layer_factory.hpp:77] Creating layer inception_3b/relu_1x1
I0403 15:51:19.284590 20343 net.cpp:91] Creating Layer inception_3b/relu_1x1
I0403 15:51:19.284606 20343 net.cpp:425] inception_3b/relu_1x1 <- inception_3b/1x1
I0403 15:51:19.284629 20343 net.cpp:386] inception_3b/relu_1x1 -> inception_3b/1x1 (in-place)
I0403 15:51:19.284818 20343 net.cpp:141] Setting up inception_3b/relu_1x1
I0403 15:51:19.284844 20343 net.cpp:148] Top shape: 24 128 28 28 (2408448)
I0403 15:51:19.284859 20343 net.cpp:156] Memory required for data: 676774944
I0403 15:51:19.284874 20343 layer_factory.hpp:77] Creating layer inception_3b/3x3_reduce
I0403 15:51:19.284898 20343 net.cpp:91] Creating Layer inception_3b/3x3_reduce
I0403 15:51:19.284917 20343 net.cpp:425] inception_3b/3x3_reduce <- inception_3a/output_inception_3a/output_0_split_1
I0403 15:51:19.284940 20343 net.cpp:399] inception_3b/3x3_reduce -> inception_3b/3x3_reduce
I0403 15:51:19.286151 20343 net.cpp:141] Setting up inception_3b/3x3_reduce
I0403 15:51:19.286185 20343 net.cpp:148] Top shape: 24 128 28 28 (2408448)
I0403 15:51:19.286201 20343 net.cpp:156] Memory required for data: 686408736
I0403 15:51:19.286221 20343 layer_factory.hpp:77] Creating layer inception_3b/relu_3x3_reduce
I0403 15:51:19.286240 20343 net.cpp:91] Creating Layer inception_3b/relu_3x3_reduce
I0403 15:51:19.286257 20343 net.cpp:425] inception_3b/relu_3x3_reduce <- inception_3b/3x3_reduce
I0403 15:51:19.286275 20343 net.cpp:386] inception_3b/relu_3x3_reduce -> inception_3b/3x3_reduce (in-place)
I0403 15:51:19.286459 20343 net.cpp:141] Setting up inception_3b/relu_3x3_reduce
I0403 15:51:19.286485 20343 net.cpp:148] Top shape: 24 128 28 28 (2408448)
I0403 15:51:19.286500 20343 net.cpp:156] Memory required for data: 696042528
I0403 15:51:19.286515 20343 layer_factory.hpp:77] Creating layer inception_3b/3x3
I0403 15:51:19.286541 20343 net.cpp:91] Creating Layer inception_3b/3x3
I0403 15:51:19.286561 20343 net.cpp:425] inception_3b/3x3 <- inception_3b/3x3_reduce
I0403 15:51:19.286582 20343 net.cpp:399] inception_3b/3x3 -> inception_3b/3x3
I0403 15:51:19.289656 20343 net.cpp:141] Setting up inception_3b/3x3
I0403 15:51:19.289686 20343 net.cpp:148] Top shape: 24 192 28 28 (3612672)
I0403 15:51:19.289703 20343 net.cpp:156] Memory required for data: 710493216
I0403 15:51:19.289723 20343 layer_factory.hpp:77] Creating layer inception_3b/relu_3x3
I0403 15:51:19.289742 20343 net.cpp:91] Creating Layer inception_3b/relu_3x3
I0403 15:51:19.289758 20343 net.cpp:425] inception_3b/relu_3x3 <- inception_3b/3x3
I0403 15:51:19.289779 20343 net.cpp:386] inception_3b/relu_3x3 -> inception_3b/3x3 (in-place)
I0403 15:51:19.290074 20343 net.cpp:141] Setting up inception_3b/relu_3x3
I0403 15:51:19.290103 20343 net.cpp:148] Top shape: 24 192 28 28 (3612672)
I0403 15:51:19.290120 20343 net.cpp:156] Memory required for data: 724943904
I0403 15:51:19.290137 20343 layer_factory.hpp:77] Creating layer inception_3b/5x5_reduce
I0403 15:51:19.290160 20343 net.cpp:91] Creating Layer inception_3b/5x5_reduce
I0403 15:51:19.290179 20343 net.cpp:425] inception_3b/5x5_reduce <- inception_3a/output_inception_3a/output_0_split_2
I0403 15:51:19.290202 20343 net.cpp:399] inception_3b/5x5_reduce -> inception_3b/5x5_reduce
I0403 15:51:19.291250 20343 net.cpp:141] Setting up inception_3b/5x5_reduce
I0403 15:51:19.291280 20343 net.cpp:148] Top shape: 24 32 28 28 (602112)
I0403 15:51:19.291296 20343 net.cpp:156] Memory required for data: 727352352
I0403 15:51:19.291316 20343 layer_factory.hpp:77] Creating layer inception_3b/relu_5x5_reduce
I0403 15:51:19.291334 20343 net.cpp:91] Creating Layer inception_3b/relu_5x5_reduce
I0403 15:51:19.291352 20343 net.cpp:425] inception_3b/relu_5x5_reduce <- inception_3b/5x5_reduce
I0403 15:51:19.291373 20343 net.cpp:386] inception_3b/relu_5x5_reduce -> inception_3b/5x5_reduce (in-place)
I0403 15:51:19.291574 20343 net.cpp:141] Setting up inception_3b/relu_5x5_reduce
I0403 15:51:19.291601 20343 net.cpp:148] Top shape: 24 32 28 28 (602112)
I0403 15:51:19.291616 20343 net.cpp:156] Memory required for data: 729760800
I0403 15:51:19.291631 20343 layer_factory.hpp:77] Creating layer inception_3b/5x5
I0403 15:51:19.291654 20343 net.cpp:91] Creating Layer inception_3b/5x5
I0403 15:51:19.291673 20343 net.cpp:425] inception_3b/5x5 <- inception_3b/5x5_reduce
I0403 15:51:19.291695 20343 net.cpp:399] inception_3b/5x5 -> inception_3b/5x5
I0403 15:51:19.293768 20343 net.cpp:141] Setting up inception_3b/5x5
I0403 15:51:19.293800 20343 net.cpp:148] Top shape: 24 96 28 28 (1806336)
I0403 15:51:19.293818 20343 net.cpp:156] Memory required for data: 736986144
I0403 15:51:19.293839 20343 layer_factory.hpp:77] Creating layer inception_3b/relu_5x5
I0403 15:51:19.293859 20343 net.cpp:91] Creating Layer inception_3b/relu_5x5
I0403 15:51:19.293875 20343 net.cpp:425] inception_3b/relu_5x5 <- inception_3b/5x5
I0403 15:51:19.293894 20343 net.cpp:386] inception_3b/relu_5x5 -> inception_3b/5x5 (in-place)
I0403 15:51:19.294098 20343 net.cpp:141] Setting up inception_3b/relu_5x5
I0403 15:51:19.294126 20343 net.cpp:148] Top shape: 24 96 28 28 (1806336)
I0403 15:51:19.294140 20343 net.cpp:156] Memory required for data: 744211488
I0403 15:51:19.294157 20343 layer_factory.hpp:77] Creating layer inception_3b/pool
I0403 15:51:19.294174 20343 net.cpp:91] Creating Layer inception_3b/pool
I0403 15:51:19.294193 20343 net.cpp:425] inception_3b/pool <- inception_3a/output_inception_3a/output_0_split_3
I0403 15:51:19.294214 20343 net.cpp:399] inception_3b/pool -> inception_3b/pool
I0403 15:51:19.294272 20343 net.cpp:141] Setting up inception_3b/pool
I0403 15:51:19.294299 20343 net.cpp:148] Top shape: 24 256 28 28 (4816896)
I0403 15:51:19.294317 20343 net.cpp:156] Memory required for data: 763479072
I0403 15:51:19.294332 20343 layer_factory.hpp:77] Creating layer inception_3b/pool_proj
I0403 15:51:19.294354 20343 net.cpp:91] Creating Layer inception_3b/pool_proj
I0403 15:51:19.294373 20343 net.cpp:425] inception_3b/pool_proj <- inception_3b/pool
I0403 15:51:19.294394 20343 net.cpp:399] inception_3b/pool_proj -> inception_3b/pool_proj
I0403 15:51:19.295511 20343 net.cpp:141] Setting up inception_3b/pool_proj
I0403 15:51:19.295539 20343 net.cpp:148] Top shape: 24 64 28 28 (1204224)
I0403 15:51:19.295557 20343 net.cpp:156] Memory required for data: 768295968
I0403 15:51:19.295575 20343 layer_factory.hpp:77] Creating layer inception_3b/relu_pool_proj
I0403 15:51:19.295596 20343 net.cpp:91] Creating Layer inception_3b/relu_pool_proj
I0403 15:51:19.295614 20343 net.cpp:425] inception_3b/relu_pool_proj <- inception_3b/pool_proj
I0403 15:51:19.295634 20343 net.cpp:386] inception_3b/relu_pool_proj -> inception_3b/pool_proj (in-place)
I0403 15:51:19.296052 20343 net.cpp:141] Setting up inception_3b/relu_pool_proj
I0403 15:51:19.296080 20343 net.cpp:148] Top shape: 24 64 28 28 (1204224)
I0403 15:51:19.296097 20343 net.cpp:156] Memory required for data: 773112864
I0403 15:51:19.296113 20343 layer_factory.hpp:77] Creating layer inception_3b/output
I0403 15:51:19.296130 20343 net.cpp:91] Creating Layer inception_3b/output
I0403 15:51:19.296146 20343 net.cpp:425] inception_3b/output <- inception_3b/1x1
I0403 15:51:19.296164 20343 net.cpp:425] inception_3b/output <- inception_3b/3x3
I0403 15:51:19.296180 20343 net.cpp:425] inception_3b/output <- inception_3b/5x5
I0403 15:51:19.296196 20343 net.cpp:425] inception_3b/output <- inception_3b/pool_proj
I0403 15:51:19.296218 20343 net.cpp:399] inception_3b/output -> inception_3b/output
I0403 15:51:19.296267 20343 net.cpp:141] Setting up inception_3b/output
I0403 15:51:19.296290 20343 net.cpp:148] Top shape: 24 480 28 28 (9031680)
I0403 15:51:19.296306 20343 net.cpp:156] Memory required for data: 809239584
I0403 15:51:19.296322 20343 layer_factory.hpp:77] Creating layer pool3/3x3_s2
I0403 15:51:19.296339 20343 net.cpp:91] Creating Layer pool3/3x3_s2
I0403 15:51:19.296355 20343 net.cpp:425] pool3/3x3_s2 <- inception_3b/output
I0403 15:51:19.296393 20343 net.cpp:399] pool3/3x3_s2 -> pool3/3x3_s2
I0403 15:51:19.296455 20343 net.cpp:141] Setting up pool3/3x3_s2
I0403 15:51:19.296480 20343 net.cpp:148] Top shape: 24 480 14 14 (2257920)
I0403 15:51:19.296495 20343 net.cpp:156] Memory required for data: 818271264
I0403 15:51:19.296510 20343 layer_factory.hpp:77] Creating layer pool3/3x3_s2_pool3/3x3_s2_0_split
I0403 15:51:19.296530 20343 net.cpp:91] Creating Layer pool3/3x3_s2_pool3/3x3_s2_0_split
I0403 15:51:19.296547 20343 net.cpp:425] pool3/3x3_s2_pool3/3x3_s2_0_split <- pool3/3x3_s2
I0403 15:51:19.296566 20343 net.cpp:399] pool3/3x3_s2_pool3/3x3_s2_0_split -> pool3/3x3_s2_pool3/3x3_s2_0_split_0
I0403 15:51:19.296587 20343 net.cpp:399] pool3/3x3_s2_pool3/3x3_s2_0_split -> pool3/3x3_s2_pool3/3x3_s2_0_split_1
I0403 15:51:19.296609 20343 net.cpp:399] pool3/3x3_s2_pool3/3x3_s2_0_split -> pool3/3x3_s2_pool3/3x3_s2_0_split_2
I0403 15:51:19.296629 20343 net.cpp:399] pool3/3x3_s2_pool3/3x3_s2_0_split -> pool3/3x3_s2_pool3/3x3_s2_0_split_3
I0403 15:51:19.296708 20343 net.cpp:141] Setting up pool3/3x3_s2_pool3/3x3_s2_0_split
I0403 15:51:19.296733 20343 net.cpp:148] Top shape: 24 480 14 14 (2257920)
I0403 15:51:19.296751 20343 net.cpp:148] Top shape: 24 480 14 14 (2257920)
I0403 15:51:19.296766 20343 net.cpp:148] Top shape: 24 480 14 14 (2257920)
I0403 15:51:19.296782 20343 net.cpp:148] Top shape: 24 480 14 14 (2257920)
I0403 15:51:19.296797 20343 net.cpp:156] Memory required for data: 854397984
I0403 15:51:19.296811 20343 layer_factory.hpp:77] Creating layer inception_4a/1x1
I0403 15:51:19.296834 20343 net.cpp:91] Creating Layer inception_4a/1x1
I0403 15:51:19.296852 20343 net.cpp:425] inception_4a/1x1 <- pool3/3x3_s2_pool3/3x3_s2_0_split_0
I0403 15:51:19.296874 20343 net.cpp:399] inception_4a/1x1 -> inception_4a/1x1
I0403 15:51:19.298518 20343 net.cpp:141] Setting up inception_4a/1x1
I0403 15:51:19.298547 20343 net.cpp:148] Top shape: 24 192 14 14 (903168)
I0403 15:51:19.298563 20343 net.cpp:156] Memory required for data: 858010656
I0403 15:51:19.298581 20343 layer_factory.hpp:77] Creating layer inception_4a/relu_1x1
I0403 15:51:19.298602 20343 net.cpp:91] Creating Layer inception_4a/relu_1x1
I0403 15:51:19.298619 20343 net.cpp:425] inception_4a/relu_1x1 <- inception_4a/1x1
I0403 15:51:19.298636 20343 net.cpp:386] inception_4a/relu_1x1 -> inception_4a/1x1 (in-place)
I0403 15:51:19.298817 20343 net.cpp:141] Setting up inception_4a/relu_1x1
I0403 15:51:19.298845 20343 net.cpp:148] Top shape: 24 192 14 14 (903168)
I0403 15:51:19.298861 20343 net.cpp:156] Memory required for data: 861623328
I0403 15:51:19.298876 20343 layer_factory.hpp:77] Creating layer inception_4a/3x3_reduce
I0403 15:51:19.298897 20343 net.cpp:91] Creating Layer inception_4a/3x3_reduce
I0403 15:51:19.298915 20343 net.cpp:425] inception_4a/3x3_reduce <- pool3/3x3_s2_pool3/3x3_s2_0_split_1
I0403 15:51:19.298934 20343 net.cpp:399] inception_4a/3x3_reduce -> inception_4a/3x3_reduce
I0403 15:51:19.300261 20343 net.cpp:141] Setting up inception_4a/3x3_reduce
I0403 15:51:19.300289 20343 net.cpp:148] Top shape: 24 96 14 14 (451584)
I0403 15:51:19.300304 20343 net.cpp:156] Memory required for data: 863429664
I0403 15:51:19.300330 20343 layer_factory.hpp:77] Creating layer inception_4a/relu_3x3_reduce
I0403 15:51:19.300353 20343 net.cpp:91] Creating Layer inception_4a/relu_3x3_reduce
I0403 15:51:19.300369 20343 net.cpp:425] inception_4a/relu_3x3_reduce <- inception_4a/3x3_reduce
I0403 15:51:19.300387 20343 net.cpp:386] inception_4a/relu_3x3_reduce -> inception_4a/3x3_reduce (in-place)
I0403 15:51:19.300580 20343 net.cpp:141] Setting up inception_4a/relu_3x3_reduce
I0403 15:51:19.300609 20343 net.cpp:148] Top shape: 24 96 14 14 (451584)
I0403 15:51:19.300626 20343 net.cpp:156] Memory required for data: 865236000
I0403 15:51:19.300642 20343 layer_factory.hpp:77] Creating layer inception_4a/3x3
I0403 15:51:19.300664 20343 net.cpp:91] Creating Layer inception_4a/3x3
I0403 15:51:19.300683 20343 net.cpp:425] inception_4a/3x3 <- inception_4a/3x3_reduce
I0403 15:51:19.300701 20343 net.cpp:399] inception_4a/3x3 -> inception_4a/3x3
I0403 15:51:19.303467 20343 net.cpp:141] Setting up inception_4a/3x3
I0403 15:51:19.303498 20343 net.cpp:148] Top shape: 24 208 14 14 (978432)
I0403 15:51:19.303515 20343 net.cpp:156] Memory required for data: 869149728
I0403 15:51:19.303534 20343 layer_factory.hpp:77] Creating layer inception_4a/relu_3x3
I0403 15:51:19.303552 20343 net.cpp:91] Creating Layer inception_4a/relu_3x3
I0403 15:51:19.303568 20343 net.cpp:425] inception_4a/relu_3x3 <- inception_4a/3x3
I0403 15:51:19.303586 20343 net.cpp:386] inception_4a/relu_3x3 -> inception_4a/3x3 (in-place)
I0403 15:51:19.303869 20343 net.cpp:141] Setting up inception_4a/relu_3x3
I0403 15:51:19.303899 20343 net.cpp:148] Top shape: 24 208 14 14 (978432)
I0403 15:51:19.303915 20343 net.cpp:156] Memory required for data: 873063456
I0403 15:51:19.303930 20343 layer_factory.hpp:77] Creating layer inception_4a/5x5_reduce
I0403 15:51:19.303953 20343 net.cpp:91] Creating Layer inception_4a/5x5_reduce
I0403 15:51:19.303972 20343 net.cpp:425] inception_4a/5x5_reduce <- pool3/3x3_s2_pool3/3x3_s2_0_split_2
I0403 15:51:19.303992 20343 net.cpp:399] inception_4a/5x5_reduce -> inception_4a/5x5_reduce
I0403 15:51:19.305043 20343 net.cpp:141] Setting up inception_4a/5x5_reduce
I0403 15:51:19.305071 20343 net.cpp:148] Top shape: 24 16 14 14 (75264)
I0403 15:51:19.305088 20343 net.cpp:156] Memory required for data: 873364512
I0403 15:51:19.305106 20343 layer_factory.hpp:77] Creating layer inception_4a/relu_5x5_reduce
I0403 15:51:19.305125 20343 net.cpp:91] Creating Layer inception_4a/relu_5x5_reduce
I0403 15:51:19.305141 20343 net.cpp:425] inception_4a/relu_5x5_reduce <- inception_4a/5x5_reduce
I0403 15:51:19.305161 20343 net.cpp:386] inception_4a/relu_5x5_reduce -> inception_4a/5x5_reduce (in-place)
I0403 15:51:19.305341 20343 net.cpp:141] Setting up inception_4a/relu_5x5_reduce
I0403 15:51:19.305366 20343 net.cpp:148] Top shape: 24 16 14 14 (75264)
I0403 15:51:19.305382 20343 net.cpp:156] Memory required for data: 873665568
I0403 15:51:19.305397 20343 layer_factory.hpp:77] Creating layer inception_4a/5x5
I0403 15:51:19.305419 20343 net.cpp:91] Creating Layer inception_4a/5x5
I0403 15:51:19.305438 20343 net.cpp:425] inception_4a/5x5 <- inception_4a/5x5_reduce
I0403 15:51:19.305459 20343 net.cpp:399] inception_4a/5x5 -> inception_4a/5x5
I0403 15:51:19.306570 20343 net.cpp:141] Setting up inception_4a/5x5
I0403 15:51:19.306597 20343 net.cpp:148] Top shape: 24 48 14 14 (225792)
I0403 15:51:19.306613 20343 net.cpp:156] Memory required for data: 874568736
I0403 15:51:19.306632 20343 layer_factory.hpp:77] Creating layer inception_4a/relu_5x5
I0403 15:51:19.306653 20343 net.cpp:91] Creating Layer inception_4a/relu_5x5
I0403 15:51:19.306670 20343 net.cpp:425] inception_4a/relu_5x5 <- inception_4a/5x5
I0403 15:51:19.306689 20343 net.cpp:386] inception_4a/relu_5x5 -> inception_4a/5x5 (in-place)
I0403 15:51:19.306869 20343 net.cpp:141] Setting up inception_4a/relu_5x5
I0403 15:51:19.306897 20343 net.cpp:148] Top shape: 24 48 14 14 (225792)
I0403 15:51:19.306913 20343 net.cpp:156] Memory required for data: 875471904
I0403 15:51:19.306928 20343 layer_factory.hpp:77] Creating layer inception_4a/pool
I0403 15:51:19.306946 20343 net.cpp:91] Creating Layer inception_4a/pool
I0403 15:51:19.306962 20343 net.cpp:425] inception_4a/pool <- pool3/3x3_s2_pool3/3x3_s2_0_split_3
I0403 15:51:19.306980 20343 net.cpp:399] inception_4a/pool -> inception_4a/pool
I0403 15:51:19.307049 20343 net.cpp:141] Setting up inception_4a/pool
I0403 15:51:19.307072 20343 net.cpp:148] Top shape: 24 480 14 14 (2257920)
I0403 15:51:19.307088 20343 net.cpp:156] Memory required for data: 884503584
I0403 15:51:19.307103 20343 layer_factory.hpp:77] Creating layer inception_4a/pool_proj
I0403 15:51:19.307126 20343 net.cpp:91] Creating Layer inception_4a/pool_proj
I0403 15:51:19.307142 20343 net.cpp:425] inception_4a/pool_proj <- inception_4a/pool
I0403 15:51:19.307163 20343 net.cpp:399] inception_4a/pool_proj -> inception_4a/pool_proj
I0403 15:51:19.308359 20343 net.cpp:141] Setting up inception_4a/pool_proj
I0403 15:51:19.308388 20343 net.cpp:148] Top shape: 24 64 14 14 (301056)
I0403 15:51:19.308419 20343 net.cpp:156] Memory required for data: 885707808
I0403 15:51:19.308440 20343 layer_factory.hpp:77] Creating layer inception_4a/relu_pool_proj
I0403 15:51:19.308461 20343 net.cpp:91] Creating Layer inception_4a/relu_pool_proj
I0403 15:51:19.308480 20343 net.cpp:425] inception_4a/relu_pool_proj <- inception_4a/pool_proj
I0403 15:51:19.308496 20343 net.cpp:386] inception_4a/relu_pool_proj -> inception_4a/pool_proj (in-place)
I0403 15:51:19.308784 20343 net.cpp:141] Setting up inception_4a/relu_pool_proj
I0403 15:51:19.308812 20343 net.cpp:148] Top shape: 24 64 14 14 (301056)
I0403 15:51:19.308828 20343 net.cpp:156] Memory required for data: 886912032
I0403 15:51:19.308842 20343 layer_factory.hpp:77] Creating layer inception_4a/output
I0403 15:51:19.308863 20343 net.cpp:91] Creating Layer inception_4a/output
I0403 15:51:19.308881 20343 net.cpp:425] inception_4a/output <- inception_4a/1x1
I0403 15:51:19.308897 20343 net.cpp:425] inception_4a/output <- inception_4a/3x3
I0403 15:51:19.308914 20343 net.cpp:425] inception_4a/output <- inception_4a/5x5
I0403 15:51:19.308929 20343 net.cpp:425] inception_4a/output <- inception_4a/pool_proj
I0403 15:51:19.308946 20343 net.cpp:399] inception_4a/output -> inception_4a/output
I0403 15:51:19.308995 20343 net.cpp:141] Setting up inception_4a/output
I0403 15:51:19.309029 20343 net.cpp:148] Top shape: 24 512 14 14 (2408448)
I0403 15:51:19.309047 20343 net.cpp:156] Memory required for data: 896545824
I0403 15:51:19.309062 20343 layer_factory.hpp:77] Creating layer inception_4a/output_inception_4a/output_0_split
I0403 15:51:19.309080 20343 net.cpp:91] Creating Layer inception_4a/output_inception_4a/output_0_split
I0403 15:51:19.309097 20343 net.cpp:425] inception_4a/output_inception_4a/output_0_split <- inception_4a/output
I0403 15:51:19.309116 20343 net.cpp:399] inception_4a/output_inception_4a/output_0_split -> inception_4a/output_inception_4a/output_0_split_0
I0403 15:51:19.309139 20343 net.cpp:399] inception_4a/output_inception_4a/output_0_split -> inception_4a/output_inception_4a/output_0_split_1
I0403 15:51:19.309159 20343 net.cpp:399] inception_4a/output_inception_4a/output_0_split -> inception_4a/output_inception_4a/output_0_split_2
I0403 15:51:19.309180 20343 net.cpp:399] inception_4a/output_inception_4a/output_0_split -> inception_4a/output_inception_4a/output_0_split_3
I0403 15:51:19.309200 20343 net.cpp:399] inception_4a/output_inception_4a/output_0_split -> inception_4a/output_inception_4a/output_0_split_4
I0403 15:51:19.309298 20343 net.cpp:141] Setting up inception_4a/output_inception_4a/output_0_split
I0403 15:51:19.309322 20343 net.cpp:148] Top shape: 24 512 14 14 (2408448)
I0403 15:51:19.309340 20343 net.cpp:148] Top shape: 24 512 14 14 (2408448)
I0403 15:51:19.309356 20343 net.cpp:148] Top shape: 24 512 14 14 (2408448)
I0403 15:51:19.309372 20343 net.cpp:148] Top shape: 24 512 14 14 (2408448)
I0403 15:51:19.309387 20343 net.cpp:148] Top shape: 24 512 14 14 (2408448)
I0403 15:51:19.309401 20343 net.cpp:156] Memory required for data: 944714784
I0403 15:51:19.309415 20343 layer_factory.hpp:77] Creating layer loss1/ave_pool
I0403 15:51:19.309433 20343 net.cpp:91] Creating Layer loss1/ave_pool
I0403 15:51:19.309449 20343 net.cpp:425] loss1/ave_pool <- inception_4a/output_inception_4a/output_0_split_0
I0403 15:51:19.309469 20343 net.cpp:399] loss1/ave_pool -> loss1/ave_pool
I0403 15:51:19.309681 20343 net.cpp:141] Setting up loss1/ave_pool
I0403 15:51:19.309707 20343 net.cpp:148] Top shape: 24 512 4 4 (196608)
I0403 15:51:19.309723 20343 net.cpp:156] Memory required for data: 945501216
I0403 15:51:19.309738 20343 layer_factory.hpp:77] Creating layer loss1/conv
I0403 15:51:19.309761 20343 net.cpp:91] Creating Layer loss1/conv
I0403 15:51:19.309779 20343 net.cpp:425] loss1/conv <- loss1/ave_pool
I0403 15:51:19.309799 20343 net.cpp:399] loss1/conv -> loss1/conv
I0403 15:51:19.311303 20343 net.cpp:141] Setting up loss1/conv
I0403 15:51:19.311336 20343 net.cpp:148] Top shape: 24 128 4 4 (49152)
I0403 15:51:19.311367 20343 net.cpp:156] Memory required for data: 945697824
I0403 15:51:19.311388 20343 layer_factory.hpp:77] Creating layer loss1/relu_conv
I0403 15:51:19.311408 20343 net.cpp:91] Creating Layer loss1/relu_conv
I0403 15:51:19.311424 20343 net.cpp:425] loss1/relu_conv <- loss1/conv
I0403 15:51:19.311446 20343 net.cpp:386] loss1/relu_conv -> loss1/conv (in-place)
I0403 15:51:19.311739 20343 net.cpp:141] Setting up loss1/relu_conv
I0403 15:51:19.311769 20343 net.cpp:148] Top shape: 24 128 4 4 (49152)
I0403 15:51:19.311785 20343 net.cpp:156] Memory required for data: 945894432
I0403 15:51:19.311800 20343 layer_factory.hpp:77] Creating layer loss1/fc
I0403 15:51:19.311825 20343 net.cpp:91] Creating Layer loss1/fc
I0403 15:51:19.311844 20343 net.cpp:425] loss1/fc <- loss1/conv
I0403 15:51:19.311866 20343 net.cpp:399] loss1/fc -> loss1/fc
I0403 15:51:19.330602 20343 net.cpp:141] Setting up loss1/fc
I0403 15:51:19.330637 20343 net.cpp:148] Top shape: 24 1024 (24576)
I0403 15:51:19.330657 20343 net.cpp:156] Memory required for data: 945992736
I0403 15:51:19.330677 20343 layer_factory.hpp:77] Creating layer loss1/relu_fc
I0403 15:51:19.330698 20343 net.cpp:91] Creating Layer loss1/relu_fc
I0403 15:51:19.330715 20343 net.cpp:425] loss1/relu_fc <- loss1/fc
I0403 15:51:19.330734 20343 net.cpp:386] loss1/relu_fc -> loss1/fc (in-place)
I0403 15:51:19.330937 20343 net.cpp:141] Setting up loss1/relu_fc
I0403 15:51:19.330966 20343 net.cpp:148] Top shape: 24 1024 (24576)
I0403 15:51:19.330983 20343 net.cpp:156] Memory required for data: 946091040
I0403 15:51:19.330999 20343 layer_factory.hpp:77] Creating layer loss1/drop_fc
I0403 15:51:19.331032 20343 net.cpp:91] Creating Layer loss1/drop_fc
I0403 15:51:19.331050 20343 net.cpp:425] loss1/drop_fc <- loss1/fc
I0403 15:51:19.331068 20343 net.cpp:386] loss1/drop_fc -> loss1/fc (in-place)
I0403 15:51:19.331125 20343 net.cpp:141] Setting up loss1/drop_fc
I0403 15:51:19.331148 20343 net.cpp:148] Top shape: 24 1024 (24576)
I0403 15:51:19.331163 20343 net.cpp:156] Memory required for data: 946189344
I0403 15:51:19.331179 20343 layer_factory.hpp:77] Creating layer loss1/classifier_plantvillage
I0403 15:51:19.331202 20343 net.cpp:91] Creating Layer loss1/classifier_plantvillage
I0403 15:51:19.331219 20343 net.cpp:425] loss1/classifier_plantvillage <- loss1/fc
I0403 15:51:19.331238 20343 net.cpp:399] loss1/classifier_plantvillage -> loss1/classifier_plantvillage
I0403 15:51:19.332214 20343 net.cpp:141] Setting up loss1/classifier_plantvillage
I0403 15:51:19.332245 20343 net.cpp:148] Top shape: 24 38 (912)
I0403 15:51:19.332262 20343 net.cpp:156] Memory required for data: 946192992
I0403 15:51:19.332281 20343 layer_factory.hpp:77] Creating layer loss1/classifier_plantvillage_loss1/classifier_plantvillage_0_split
I0403 15:51:19.332300 20343 net.cpp:91] Creating Layer loss1/classifier_plantvillage_loss1/classifier_plantvillage_0_split
I0403 15:51:19.332317 20343 net.cpp:425] loss1/classifier_plantvillage_loss1/classifier_plantvillage_0_split <- loss1/classifier_plantvillage
I0403 15:51:19.332335 20343 net.cpp:399] loss1/classifier_plantvillage_loss1/classifier_plantvillage_0_split -> loss1/classifier_plantvillage_loss1/classifier_plantvillage_0_split_0
I0403 15:51:19.332355 20343 net.cpp:399] loss1/classifier_plantvillage_loss1/classifier_plantvillage_0_split -> loss1/classifier_plantvillage_loss1/classifier_plantvillage_0_split_1
I0403 15:51:19.332379 20343 net.cpp:399] loss1/classifier_plantvillage_loss1/classifier_plantvillage_0_split -> loss1/classifier_plantvillage_loss1/classifier_plantvillage_0_split_2
I0403 15:51:19.332449 20343 net.cpp:141] Setting up loss1/classifier_plantvillage_loss1/classifier_plantvillage_0_split
I0403 15:51:19.332473 20343 net.cpp:148] Top shape: 24 38 (912)
I0403 15:51:19.332490 20343 net.cpp:148] Top shape: 24 38 (912)
I0403 15:51:19.332506 20343 net.cpp:148] Top shape: 24 38 (912)
I0403 15:51:19.332520 20343 net.cpp:156] Memory required for data: 946203936
I0403 15:51:19.332535 20343 layer_factory.hpp:77] Creating layer inception_4b/1x1
I0403 15:51:19.332557 20343 net.cpp:91] Creating Layer inception_4b/1x1
I0403 15:51:19.332597 20343 net.cpp:425] inception_4b/1x1 <- inception_4a/output_inception_4a/output_0_split_1
I0403 15:51:19.332623 20343 net.cpp:399] inception_4b/1x1 -> inception_4b/1x1
I0403 15:51:19.334384 20343 net.cpp:141] Setting up inception_4b/1x1
I0403 15:51:19.334415 20343 net.cpp:148] Top shape: 24 160 14 14 (752640)
I0403 15:51:19.334431 20343 net.cpp:156] Memory required for data: 949214496
I0403 15:51:19.334450 20343 layer_factory.hpp:77] Creating layer inception_4b/relu_1x1
I0403 15:51:19.334470 20343 net.cpp:91] Creating Layer inception_4b/relu_1x1
I0403 15:51:19.334486 20343 net.cpp:425] inception_4b/relu_1x1 <- inception_4b/1x1
I0403 15:51:19.334506 20343 net.cpp:386] inception_4b/relu_1x1 -> inception_4b/1x1 (in-place)
I0403 15:51:19.334695 20343 net.cpp:141] Setting up inception_4b/relu_1x1
I0403 15:51:19.334722 20343 net.cpp:148] Top shape: 24 160 14 14 (752640)
I0403 15:51:19.334738 20343 net.cpp:156] Memory required for data: 952225056
I0403 15:51:19.334753 20343 layer_factory.hpp:77] Creating layer inception_4b/3x3_reduce
I0403 15:51:19.334775 20343 net.cpp:91] Creating Layer inception_4b/3x3_reduce
I0403 15:51:19.334794 20343 net.cpp:425] inception_4b/3x3_reduce <- inception_4a/output_inception_4a/output_0_split_2
I0403 15:51:19.334815 20343 net.cpp:399] inception_4b/3x3_reduce -> inception_4b/3x3_reduce
I0403 15:51:19.336257 20343 net.cpp:141] Setting up inception_4b/3x3_reduce
I0403 15:51:19.336287 20343 net.cpp:148] Top shape: 24 112 14 14 (526848)
I0403 15:51:19.336302 20343 net.cpp:156] Memory required for data: 954332448
I0403 15:51:19.336321 20343 layer_factory.hpp:77] Creating layer inception_4b/relu_3x3_reduce
I0403 15:51:19.336344 20343 net.cpp:91] Creating Layer inception_4b/relu_3x3_reduce
I0403 15:51:19.336360 20343 net.cpp:425] inception_4b/relu_3x3_reduce <- inception_4b/3x3_reduce
I0403 15:51:19.336379 20343 net.cpp:386] inception_4b/relu_3x3_reduce -> inception_4b/3x3_reduce (in-place)
I0403 15:51:19.336675 20343 net.cpp:141] Setting up inception_4b/relu_3x3_reduce
I0403 15:51:19.336702 20343 net.cpp:148] Top shape: 24 112 14 14 (526848)
I0403 15:51:19.336719 20343 net.cpp:156] Memory required for data: 956439840
I0403 15:51:19.336733 20343 layer_factory.hpp:77] Creating layer inception_4b/3x3
I0403 15:51:19.336756 20343 net.cpp:91] Creating Layer inception_4b/3x3
I0403 15:51:19.336776 20343 net.cpp:425] inception_4b/3x3 <- inception_4b/3x3_reduce
I0403 15:51:19.336799 20343 net.cpp:399] inception_4b/3x3 -> inception_4b/3x3
I0403 15:51:19.339962 20343 net.cpp:141] Setting up inception_4b/3x3
I0403 15:51:19.339992 20343 net.cpp:148] Top shape: 24 224 14 14 (1053696)
I0403 15:51:19.340011 20343 net.cpp:156] Memory required for data: 960654624
I0403 15:51:19.340036 20343 layer_factory.hpp:77] Creating layer inception_4b/relu_3x3
I0403 15:51:19.340056 20343 net.cpp:91] Creating Layer inception_4b/relu_3x3
I0403 15:51:19.340073 20343 net.cpp:425] inception_4b/relu_3x3 <- inception_4b/3x3
I0403 15:51:19.340093 20343 net.cpp:386] inception_4b/relu_3x3 -> inception_4b/3x3 (in-place)
I0403 15:51:19.340286 20343 net.cpp:141] Setting up inception_4b/relu_3x3
I0403 15:51:19.340314 20343 net.cpp:148] Top shape: 24 224 14 14 (1053696)
I0403 15:51:19.340330 20343 net.cpp:156] Memory required for data: 964869408
I0403 15:51:19.340345 20343 layer_factory.hpp:77] Creating layer inception_4b/5x5_reduce
I0403 15:51:19.340369 20343 net.cpp:91] Creating Layer inception_4b/5x5_reduce
I0403 15:51:19.340387 20343 net.cpp:425] inception_4b/5x5_reduce <- inception_4a/output_inception_4a/output_0_split_3
I0403 15:51:19.340407 20343 net.cpp:399] inception_4b/5x5_reduce -> inception_4b/5x5_reduce
I0403 15:51:19.341567 20343 net.cpp:141] Setting up inception_4b/5x5_reduce
I0403 15:51:19.341595 20343 net.cpp:148] Top shape: 24 24 14 14 (112896)
I0403 15:51:19.341612 20343 net.cpp:156] Memory required for data: 965320992
I0403 15:51:19.341632 20343 layer_factory.hpp:77] Creating layer inception_4b/relu_5x5_reduce
I0403 15:51:19.341651 20343 net.cpp:91] Creating Layer inception_4b/relu_5x5_reduce
I0403 15:51:19.341686 20343 net.cpp:425] inception_4b/relu_5x5_reduce <- inception_4b/5x5_reduce
I0403 15:51:19.341707 20343 net.cpp:386] inception_4b/relu_5x5_reduce -> inception_4b/5x5_reduce (in-place)
I0403 15:51:19.341899 20343 net.cpp:141] Setting up inception_4b/relu_5x5_reduce
I0403 15:51:19.341925 20343 net.cpp:148] Top shape: 24 24 14 14 (112896)
I0403 15:51:19.341941 20343 net.cpp:156] Memory required for data: 965772576
I0403 15:51:19.341956 20343 layer_factory.hpp:77] Creating layer inception_4b/5x5
I0403 15:51:19.341979 20343 net.cpp:91] Creating Layer inception_4b/5x5
I0403 15:51:19.341998 20343 net.cpp:425] inception_4b/5x5 <- inception_4b/5x5_reduce
I0403 15:51:19.342023 20343 net.cpp:399] inception_4b/5x5 -> inception_4b/5x5
I0403 15:51:19.343333 20343 net.cpp:141] Setting up inception_4b/5x5
I0403 15:51:19.343363 20343 net.cpp:148] Top shape: 24 64 14 14 (301056)
I0403 15:51:19.343379 20343 net.cpp:156] Memory required for data: 966976800
I0403 15:51:19.343397 20343 layer_factory.hpp:77] Creating layer inception_4b/relu_5x5
I0403 15:51:19.343415 20343 net.cpp:91] Creating Layer inception_4b/relu_5x5
I0403 15:51:19.343433 20343 net.cpp:425] inception_4b/relu_5x5 <- inception_4b/5x5
I0403 15:51:19.343454 20343 net.cpp:386] inception_4b/relu_5x5 -> inception_4b/5x5 (in-place)
I0403 15:51:19.343758 20343 net.cpp:141] Setting up inception_4b/relu_5x5
I0403 15:51:19.343786 20343 net.cpp:148] Top shape: 24 64 14 14 (301056)
I0403 15:51:19.343802 20343 net.cpp:156] Memory required for data: 968181024
I0403 15:51:19.343817 20343 layer_factory.hpp:77] Creating layer inception_4b/pool
I0403 15:51:19.343837 20343 net.cpp:91] Creating Layer inception_4b/pool
I0403 15:51:19.343853 20343 net.cpp:425] inception_4b/pool <- inception_4a/output_inception_4a/output_0_split_4
I0403 15:51:19.343878 20343 net.cpp:399] inception_4b/pool -> inception_4b/pool
I0403 15:51:19.343946 20343 net.cpp:141] Setting up inception_4b/pool
I0403 15:51:19.343971 20343 net.cpp:148] Top shape: 24 512 14 14 (2408448)
I0403 15:51:19.343986 20343 net.cpp:156] Memory required for data: 977814816
I0403 15:51:19.344002 20343 layer_factory.hpp:77] Creating layer inception_4b/pool_proj
I0403 15:51:19.344030 20343 net.cpp:91] Creating Layer inception_4b/pool_proj
I0403 15:51:19.344050 20343 net.cpp:425] inception_4b/pool_proj <- inception_4b/pool
I0403 15:51:19.344070 20343 net.cpp:399] inception_4b/pool_proj -> inception_4b/pool_proj
I0403 15:51:19.345366 20343 net.cpp:141] Setting up inception_4b/pool_proj
I0403 15:51:19.345394 20343 net.cpp:148] Top shape: 24 64 14 14 (301056)
I0403 15:51:19.345412 20343 net.cpp:156] Memory required for data: 979019040
I0403 15:51:19.345429 20343 layer_factory.hpp:77] Creating layer inception_4b/relu_pool_proj
I0403 15:51:19.345449 20343 net.cpp:91] Creating Layer inception_4b/relu_pool_proj
I0403 15:51:19.345465 20343 net.cpp:425] inception_4b/relu_pool_proj <- inception_4b/pool_proj
I0403 15:51:19.345486 20343 net.cpp:386] inception_4b/relu_pool_proj -> inception_4b/pool_proj (in-place)
I0403 15:51:19.345679 20343 net.cpp:141] Setting up inception_4b/relu_pool_proj
I0403 15:51:19.345705 20343 net.cpp:148] Top shape: 24 64 14 14 (301056)
I0403 15:51:19.345721 20343 net.cpp:156] Memory required for data: 980223264
I0403 15:51:19.345736 20343 layer_factory.hpp:77] Creating layer inception_4b/output
I0403 15:51:19.345757 20343 net.cpp:91] Creating Layer inception_4b/output
I0403 15:51:19.345773 20343 net.cpp:425] inception_4b/output <- inception_4b/1x1
I0403 15:51:19.345790 20343 net.cpp:425] inception_4b/output <- inception_4b/3x3
I0403 15:51:19.345808 20343 net.cpp:425] inception_4b/output <- inception_4b/5x5
I0403 15:51:19.345824 20343 net.cpp:425] inception_4b/output <- inception_4b/pool_proj
I0403 15:51:19.345841 20343 net.cpp:399] inception_4b/output -> inception_4b/output
I0403 15:51:19.345890 20343 net.cpp:141] Setting up inception_4b/output
I0403 15:51:19.345916 20343 net.cpp:148] Top shape: 24 512 14 14 (2408448)
I0403 15:51:19.345930 20343 net.cpp:156] Memory required for data: 989857056
I0403 15:51:19.345960 20343 layer_factory.hpp:77] Creating layer inception_4b/output_inception_4b/output_0_split
I0403 15:51:19.345979 20343 net.cpp:91] Creating Layer inception_4b/output_inception_4b/output_0_split
I0403 15:51:19.345996 20343 net.cpp:425] inception_4b/output_inception_4b/output_0_split <- inception_4b/output
I0403 15:51:19.346020 20343 net.cpp:399] inception_4b/output_inception_4b/output_0_split -> inception_4b/output_inception_4b/output_0_split_0
I0403 15:51:19.346045 20343 net.cpp:399] inception_4b/output_inception_4b/output_0_split -> inception_4b/output_inception_4b/output_0_split_1
I0403 15:51:19.346066 20343 net.cpp:399] inception_4b/output_inception_4b/output_0_split -> inception_4b/output_inception_4b/output_0_split_2
I0403 15:51:19.346087 20343 net.cpp:399] inception_4b/output_inception_4b/output_0_split -> inception_4b/output_inception_4b/output_0_split_3
I0403 15:51:19.346174 20343 net.cpp:141] Setting up inception_4b/output_inception_4b/output_0_split
I0403 15:51:19.346200 20343 net.cpp:148] Top shape: 24 512 14 14 (2408448)
I0403 15:51:19.346220 20343 net.cpp:148] Top shape: 24 512 14 14 (2408448)
I0403 15:51:19.346236 20343 net.cpp:148] Top shape: 24 512 14 14 (2408448)
I0403 15:51:19.346252 20343 net.cpp:148] Top shape: 24 512 14 14 (2408448)
I0403 15:51:19.346266 20343 net.cpp:156] Memory required for data: 1028392224
I0403 15:51:19.346282 20343 layer_factory.hpp:77] Creating layer inception_4c/1x1
I0403 15:51:19.346307 20343 net.cpp:91] Creating Layer inception_4c/1x1
I0403 15:51:19.346325 20343 net.cpp:425] inception_4c/1x1 <- inception_4b/output_inception_4b/output_0_split_0
I0403 15:51:19.346344 20343 net.cpp:399] inception_4c/1x1 -> inception_4c/1x1
I0403 15:51:19.347887 20343 net.cpp:141] Setting up inception_4c/1x1
I0403 15:51:19.347915 20343 net.cpp:148] Top shape: 24 128 14 14 (602112)
I0403 15:51:19.347932 20343 net.cpp:156] Memory required for data: 1030800672
I0403 15:51:19.347952 20343 layer_factory.hpp:77] Creating layer inception_4c/relu_1x1
I0403 15:51:19.347975 20343 net.cpp:91] Creating Layer inception_4c/relu_1x1
I0403 15:51:19.347992 20343 net.cpp:425] inception_4c/relu_1x1 <- inception_4c/1x1
I0403 15:51:19.348011 20343 net.cpp:386] inception_4c/relu_1x1 -> inception_4c/1x1 (in-place)
I0403 15:51:19.348212 20343 net.cpp:141] Setting up inception_4c/relu_1x1
I0403 15:51:19.348242 20343 net.cpp:148] Top shape: 24 128 14 14 (602112)
I0403 15:51:19.348258 20343 net.cpp:156] Memory required for data: 1033209120
I0403 15:51:19.348273 20343 layer_factory.hpp:77] Creating layer inception_4c/3x3_reduce
I0403 15:51:19.348297 20343 net.cpp:91] Creating Layer inception_4c/3x3_reduce
I0403 15:51:19.348316 20343 net.cpp:425] inception_4c/3x3_reduce <- inception_4b/output_inception_4b/output_0_split_1
I0403 15:51:19.348336 20343 net.cpp:399] inception_4c/3x3_reduce -> inception_4c/3x3_reduce
I0403 15:51:19.350420 20343 net.cpp:141] Setting up inception_4c/3x3_reduce
I0403 15:51:19.350453 20343 net.cpp:148] Top shape: 24 128 14 14 (602112)
I0403 15:51:19.350471 20343 net.cpp:156] Memory required for data: 1035617568
I0403 15:51:19.350492 20343 layer_factory.hpp:77] Creating layer inception_4c/relu_3x3_reduce
I0403 15:51:19.350510 20343 net.cpp:91] Creating Layer inception_4c/relu_3x3_reduce
I0403 15:51:19.350528 20343 net.cpp:425] inception_4c/relu_3x3_reduce <- inception_4c/3x3_reduce
I0403 15:51:19.350548 20343 net.cpp:386] inception_4c/relu_3x3_reduce -> inception_4c/3x3_reduce (in-place)
I0403 15:51:19.350852 20343 net.cpp:141] Setting up inception_4c/relu_3x3_reduce
I0403 15:51:19.350881 20343 net.cpp:148] Top shape: 24 128 14 14 (602112)
I0403 15:51:19.350898 20343 net.cpp:156] Memory required for data: 1038026016
I0403 15:51:19.350914 20343 layer_factory.hpp:77] Creating layer inception_4c/3x3
I0403 15:51:19.350939 20343 net.cpp:91] Creating Layer inception_4c/3x3
I0403 15:51:19.350958 20343 net.cpp:425] inception_4c/3x3 <- inception_4c/3x3_reduce
I0403 15:51:19.350977 20343 net.cpp:399] inception_4c/3x3 -> inception_4c/3x3
I0403 15:51:19.354827 20343 net.cpp:141] Setting up inception_4c/3x3
I0403 15:51:19.354871 20343 net.cpp:148] Top shape: 24 256 14 14 (1204224)
I0403 15:51:19.354887 20343 net.cpp:156] Memory required for data: 1042842912
I0403 15:51:19.354923 20343 layer_factory.hpp:77] Creating layer inception_4c/relu_3x3
I0403 15:51:19.354943 20343 net.cpp:91] Creating Layer inception_4c/relu_3x3
I0403 15:51:19.354961 20343 net.cpp:425] inception_4c/relu_3x3 <- inception_4c/3x3
I0403 15:51:19.354981 20343 net.cpp:386] inception_4c/relu_3x3 -> inception_4c/3x3 (in-place)
I0403 15:51:19.355181 20343 net.cpp:141] Setting up inception_4c/relu_3x3
I0403 15:51:19.355208 20343 net.cpp:148] Top shape: 24 256 14 14 (1204224)
I0403 15:51:19.355223 20343 net.cpp:156] Memory required for data: 1047659808
I0403 15:51:19.355239 20343 layer_factory.hpp:77] Creating layer inception_4c/5x5_reduce
I0403 15:51:19.355264 20343 net.cpp:91] Creating Layer inception_4c/5x5_reduce
I0403 15:51:19.355283 20343 net.cpp:425] inception_4c/5x5_reduce <- inception_4b/output_inception_4b/output_0_split_2
I0403 15:51:19.355304 20343 net.cpp:399] inception_4c/5x5_reduce -> inception_4c/5x5_reduce
I0403 15:51:19.356472 20343 net.cpp:141] Setting up inception_4c/5x5_reduce
I0403 15:51:19.356501 20343 net.cpp:148] Top shape: 24 24 14 14 (112896)
I0403 15:51:19.356518 20343 net.cpp:156] Memory required for data: 1048111392
I0403 15:51:19.356537 20343 layer_factory.hpp:77] Creating layer inception_4c/relu_5x5_reduce
I0403 15:51:19.356556 20343 net.cpp:91] Creating Layer inception_4c/relu_5x5_reduce
I0403 15:51:19.356573 20343 net.cpp:425] inception_4c/relu_5x5_reduce <- inception_4c/5x5_reduce
I0403 15:51:19.356595 20343 net.cpp:386] inception_4c/relu_5x5_reduce -> inception_4c/5x5_reduce (in-place)
I0403 15:51:19.356794 20343 net.cpp:141] Setting up inception_4c/relu_5x5_reduce
I0403 15:51:19.356820 20343 net.cpp:148] Top shape: 24 24 14 14 (112896)
I0403 15:51:19.356837 20343 net.cpp:156] Memory required for data: 1048562976
I0403 15:51:19.356851 20343 layer_factory.hpp:77] Creating layer inception_4c/5x5
I0403 15:51:19.356874 20343 net.cpp:91] Creating Layer inception_4c/5x5
I0403 15:51:19.356894 20343 net.cpp:425] inception_4c/5x5 <- inception_4c/5x5_reduce
I0403 15:51:19.356915 20343 net.cpp:399] inception_4c/5x5 -> inception_4c/5x5
I0403 15:51:19.358242 20343 net.cpp:141] Setting up inception_4c/5x5
I0403 15:51:19.358270 20343 net.cpp:148] Top shape: 24 64 14 14 (301056)
I0403 15:51:19.358286 20343 net.cpp:156] Memory required for data: 1049767200
I0403 15:51:19.358305 20343 layer_factory.hpp:77] Creating layer inception_4c/relu_5x5
I0403 15:51:19.358326 20343 net.cpp:91] Creating Layer inception_4c/relu_5x5
I0403 15:51:19.358345 20343 net.cpp:425] inception_4c/relu_5x5 <- inception_4c/5x5
I0403 15:51:19.358363 20343 net.cpp:386] inception_4c/relu_5x5 -> inception_4c/5x5 (in-place)
I0403 15:51:19.358669 20343 net.cpp:141] Setting up inception_4c/relu_5x5
I0403 15:51:19.358695 20343 net.cpp:148] Top shape: 24 64 14 14 (301056)
I0403 15:51:19.358712 20343 net.cpp:156] Memory required for data: 1050971424
I0403 15:51:19.358727 20343 layer_factory.hpp:77] Creating layer inception_4c/pool
I0403 15:51:19.358748 20343 net.cpp:91] Creating Layer inception_4c/pool
I0403 15:51:19.358765 20343 net.cpp:425] inception_4c/pool <- inception_4b/output_inception_4b/output_0_split_3
I0403 15:51:19.358784 20343 net.cpp:399] inception_4c/pool -> inception_4c/pool
I0403 15:51:19.358855 20343 net.cpp:141] Setting up inception_4c/pool
I0403 15:51:19.358880 20343 net.cpp:148] Top shape: 24 512 14 14 (2408448)
I0403 15:51:19.358896 20343 net.cpp:156] Memory required for data: 1060605216
I0403 15:51:19.358911 20343 layer_factory.hpp:77] Creating layer inception_4c/pool_proj
I0403 15:51:19.358933 20343 net.cpp:91] Creating Layer inception_4c/pool_proj
I0403 15:51:19.358952 20343 net.cpp:425] inception_4c/pool_proj <- inception_4c/pool
I0403 15:51:19.358975 20343 net.cpp:399] inception_4c/pool_proj -> inception_4c/pool_proj
I0403 15:51:19.360297 20343 net.cpp:141] Setting up inception_4c/pool_proj
I0403 15:51:19.360327 20343 net.cpp:148] Top shape: 24 64 14 14 (301056)
I0403 15:51:19.360358 20343 net.cpp:156] Memory required for data: 1061809440
I0403 15:51:19.360379 20343 layer_factory.hpp:77] Creating layer inception_4c/relu_pool_proj
I0403 15:51:19.360399 20343 net.cpp:91] Creating Layer inception_4c/relu_pool_proj
I0403 15:51:19.360416 20343 net.cpp:425] inception_4c/relu_pool_proj <- inception_4c/pool_proj
I0403 15:51:19.360436 20343 net.cpp:386] inception_4c/relu_pool_proj -> inception_4c/pool_proj (in-place)
I0403 15:51:19.360636 20343 net.cpp:141] Setting up inception_4c/relu_pool_proj
I0403 15:51:19.360663 20343 net.cpp:148] Top shape: 24 64 14 14 (301056)
I0403 15:51:19.360678 20343 net.cpp:156] Memory required for data: 1063013664
I0403 15:51:19.360693 20343 layer_factory.hpp:77] Creating layer inception_4c/output
I0403 15:51:19.360714 20343 net.cpp:91] Creating Layer inception_4c/output
I0403 15:51:19.360731 20343 net.cpp:425] inception_4c/output <- inception_4c/1x1
I0403 15:51:19.360749 20343 net.cpp:425] inception_4c/output <- inception_4c/3x3
I0403 15:51:19.360765 20343 net.cpp:425] inception_4c/output <- inception_4c/5x5
I0403 15:51:19.360782 20343 net.cpp:425] inception_4c/output <- inception_4c/pool_proj
I0403 15:51:19.360800 20343 net.cpp:399] inception_4c/output -> inception_4c/output
I0403 15:51:19.360852 20343 net.cpp:141] Setting up inception_4c/output
I0403 15:51:19.360875 20343 net.cpp:148] Top shape: 24 512 14 14 (2408448)
I0403 15:51:19.360891 20343 net.cpp:156] Memory required for data: 1072647456
I0403 15:51:19.360905 20343 layer_factory.hpp:77] Creating layer inception_4c/output_inception_4c/output_0_split
I0403 15:51:19.360924 20343 net.cpp:91] Creating Layer inception_4c/output_inception_4c/output_0_split
I0403 15:51:19.360939 20343 net.cpp:425] inception_4c/output_inception_4c/output_0_split <- inception_4c/output
I0403 15:51:19.360960 20343 net.cpp:399] inception_4c/output_inception_4c/output_0_split -> inception_4c/output_inception_4c/output_0_split_0
I0403 15:51:19.360982 20343 net.cpp:399] inception_4c/output_inception_4c/output_0_split -> inception_4c/output_inception_4c/output_0_split_1
I0403 15:51:19.361002 20343 net.cpp:399] inception_4c/output_inception_4c/output_0_split -> inception_4c/output_inception_4c/output_0_split_2
I0403 15:51:19.361027 20343 net.cpp:399] inception_4c/output_inception_4c/output_0_split -> inception_4c/output_inception_4c/output_0_split_3
I0403 15:51:19.361119 20343 net.cpp:141] Setting up inception_4c/output_inception_4c/output_0_split
I0403 15:51:19.361147 20343 net.cpp:148] Top shape: 24 512 14 14 (2408448)
I0403 15:51:19.361166 20343 net.cpp:148] Top shape: 24 512 14 14 (2408448)
I0403 15:51:19.361182 20343 net.cpp:148] Top shape: 24 512 14 14 (2408448)
I0403 15:51:19.361197 20343 net.cpp:148] Top shape: 24 512 14 14 (2408448)
I0403 15:51:19.361213 20343 net.cpp:156] Memory required for data: 1111182624
I0403 15:51:19.361228 20343 layer_factory.hpp:77] Creating layer inception_4d/1x1
I0403 15:51:19.361251 20343 net.cpp:91] Creating Layer inception_4d/1x1
I0403 15:51:19.361269 20343 net.cpp:425] inception_4d/1x1 <- inception_4c/output_inception_4c/output_0_split_0
I0403 15:51:19.361289 20343 net.cpp:399] inception_4d/1x1 -> inception_4d/1x1
I0403 15:51:19.362797 20343 net.cpp:141] Setting up inception_4d/1x1
I0403 15:51:19.362829 20343 net.cpp:148] Top shape: 24 112 14 14 (526848)
I0403 15:51:19.362848 20343 net.cpp:156] Memory required for data: 1113290016
I0403 15:51:19.362866 20343 layer_factory.hpp:77] Creating layer inception_4d/relu_1x1
I0403 15:51:19.362886 20343 net.cpp:91] Creating Layer inception_4d/relu_1x1
I0403 15:51:19.362903 20343 net.cpp:425] inception_4d/relu_1x1 <- inception_4d/1x1
I0403 15:51:19.362921 20343 net.cpp:386] inception_4d/relu_1x1 -> inception_4d/1x1 (in-place)
I0403 15:51:19.363128 20343 net.cpp:141] Setting up inception_4d/relu_1x1
I0403 15:51:19.363155 20343 net.cpp:148] Top shape: 24 112 14 14 (526848)
I0403 15:51:19.363170 20343 net.cpp:156] Memory required for data: 1115397408
I0403 15:51:19.363186 20343 layer_factory.hpp:77] Creating layer inception_4d/3x3_reduce
I0403 15:51:19.363227 20343 net.cpp:91] Creating Layer inception_4d/3x3_reduce
I0403 15:51:19.363246 20343 net.cpp:425] inception_4d/3x3_reduce <- inception_4c/output_inception_4c/output_0_split_1
I0403 15:51:19.363270 20343 net.cpp:399] inception_4d/3x3_reduce -> inception_4d/3x3_reduce
I0403 15:51:19.364881 20343 net.cpp:141] Setting up inception_4d/3x3_reduce
I0403 15:51:19.364912 20343 net.cpp:148] Top shape: 24 144 14 14 (677376)
I0403 15:51:19.364929 20343 net.cpp:156] Memory required for data: 1118106912
I0403 15:51:19.364948 20343 layer_factory.hpp:77] Creating layer inception_4d/relu_3x3_reduce
I0403 15:51:19.364969 20343 net.cpp:91] Creating Layer inception_4d/relu_3x3_reduce
I0403 15:51:19.364986 20343 net.cpp:425] inception_4d/relu_3x3_reduce <- inception_4d/3x3_reduce
I0403 15:51:19.365005 20343 net.cpp:386] inception_4d/relu_3x3_reduce -> inception_4d/3x3_reduce (in-place)
I0403 15:51:19.365319 20343 net.cpp:141] Setting up inception_4d/relu_3x3_reduce
I0403 15:51:19.365347 20343 net.cpp:148] Top shape: 24 144 14 14 (677376)
I0403 15:51:19.365363 20343 net.cpp:156] Memory required for data: 1120816416
I0403 15:51:19.365378 20343 layer_factory.hpp:77] Creating layer inception_4d/3x3
I0403 15:51:19.365401 20343 net.cpp:91] Creating Layer inception_4d/3x3
I0403 15:51:19.365420 20343 net.cpp:425] inception_4d/3x3 <- inception_4d/3x3_reduce
I0403 15:51:19.365442 20343 net.cpp:399] inception_4d/3x3 -> inception_4d/3x3
I0403 15:51:19.369989 20343 net.cpp:141] Setting up inception_4d/3x3
I0403 15:51:19.370025 20343 net.cpp:148] Top shape: 24 288 14 14 (1354752)
I0403 15:51:19.370044 20343 net.cpp:156] Memory required for data: 1126235424
I0403 15:51:19.370064 20343 layer_factory.hpp:77] Creating layer inception_4d/relu_3x3
I0403 15:51:19.370082 20343 net.cpp:91] Creating Layer inception_4d/relu_3x3
I0403 15:51:19.370100 20343 net.cpp:425] inception_4d/relu_3x3 <- inception_4d/3x3
I0403 15:51:19.370120 20343 net.cpp:386] inception_4d/relu_3x3 -> inception_4d/3x3 (in-place)
I0403 15:51:19.370317 20343 net.cpp:141] Setting up inception_4d/relu_3x3
I0403 15:51:19.370343 20343 net.cpp:148] Top shape: 24 288 14 14 (1354752)
I0403 15:51:19.370362 20343 net.cpp:156] Memory required for data: 1131654432
I0403 15:51:19.370376 20343 layer_factory.hpp:77] Creating layer inception_4d/5x5_reduce
I0403 15:51:19.370399 20343 net.cpp:91] Creating Layer inception_4d/5x5_reduce
I0403 15:51:19.370419 20343 net.cpp:425] inception_4d/5x5_reduce <- inception_4c/output_inception_4c/output_0_split_2
I0403 15:51:19.370440 20343 net.cpp:399] inception_4d/5x5_reduce -> inception_4d/5x5_reduce
I0403 15:51:19.371670 20343 net.cpp:141] Setting up inception_4d/5x5_reduce
I0403 15:51:19.371703 20343 net.cpp:148] Top shape: 24 32 14 14 (150528)
I0403 15:51:19.371721 20343 net.cpp:156] Memory required for data: 1132256544
I0403 15:51:19.371740 20343 layer_factory.hpp:77] Creating layer inception_4d/relu_5x5_reduce
I0403 15:51:19.371759 20343 net.cpp:91] Creating Layer inception_4d/relu_5x5_reduce
I0403 15:51:19.371776 20343 net.cpp:425] inception_4d/relu_5x5_reduce <- inception_4d/5x5_reduce
I0403 15:51:19.371794 20343 net.cpp:386] inception_4d/relu_5x5_reduce -> inception_4d/5x5_reduce (in-place)
I0403 15:51:19.371996 20343 net.cpp:141] Setting up inception_4d/relu_5x5_reduce
I0403 15:51:19.372026 20343 net.cpp:148] Top shape: 24 32 14 14 (150528)
I0403 15:51:19.372043 20343 net.cpp:156] Memory required for data: 1132858656
I0403 15:51:19.372058 20343 layer_factory.hpp:77] Creating layer inception_4d/5x5
I0403 15:51:19.372082 20343 net.cpp:91] Creating Layer inception_4d/5x5
I0403 15:51:19.372102 20343 net.cpp:425] inception_4d/5x5 <- inception_4d/5x5_reduce
I0403 15:51:19.372123 20343 net.cpp:399] inception_4d/5x5 -> inception_4d/5x5
I0403 15:51:19.373716 20343 net.cpp:141] Setting up inception_4d/5x5
I0403 15:51:19.373745 20343 net.cpp:148] Top shape: 24 64 14 14 (301056)
I0403 15:51:19.373761 20343 net.cpp:156] Memory required for data: 1134062880
I0403 15:51:19.373781 20343 layer_factory.hpp:77] Creating layer inception_4d/relu_5x5
I0403 15:51:19.373819 20343 net.cpp:91] Creating Layer inception_4d/relu_5x5
I0403 15:51:19.373838 20343 net.cpp:425] inception_4d/relu_5x5 <- inception_4d/5x5
I0403 15:51:19.373857 20343 net.cpp:386] inception_4d/relu_5x5 -> inception_4d/5x5 (in-place)
I0403 15:51:19.374181 20343 net.cpp:141] Setting up inception_4d/relu_5x5
I0403 15:51:19.374209 20343 net.cpp:148] Top shape: 24 64 14 14 (301056)
I0403 15:51:19.374225 20343 net.cpp:156] Memory required for data: 1135267104
I0403 15:51:19.374240 20343 layer_factory.hpp:77] Creating layer inception_4d/pool
I0403 15:51:19.374259 20343 net.cpp:91] Creating Layer inception_4d/pool
I0403 15:51:19.374279 20343 net.cpp:425] inception_4d/pool <- inception_4c/output_inception_4c/output_0_split_3
I0403 15:51:19.374299 20343 net.cpp:399] inception_4d/pool -> inception_4d/pool
I0403 15:51:19.374371 20343 net.cpp:141] Setting up inception_4d/pool
I0403 15:51:19.374395 20343 net.cpp:148] Top shape: 24 512 14 14 (2408448)
I0403 15:51:19.374410 20343 net.cpp:156] Memory required for data: 1144900896
I0403 15:51:19.374425 20343 layer_factory.hpp:77] Creating layer inception_4d/pool_proj
I0403 15:51:19.374449 20343 net.cpp:91] Creating Layer inception_4d/pool_proj
I0403 15:51:19.374466 20343 net.cpp:425] inception_4d/pool_proj <- inception_4d/pool
I0403 15:51:19.374488 20343 net.cpp:399] inception_4d/pool_proj -> inception_4d/pool_proj
I0403 15:51:19.376380 20343 net.cpp:141] Setting up inception_4d/pool_proj
I0403 15:51:19.376415 20343 net.cpp:148] Top shape: 24 64 14 14 (301056)
I0403 15:51:19.376431 20343 net.cpp:156] Memory required for data: 1146105120
I0403 15:51:19.376451 20343 layer_factory.hpp:77] Creating layer inception_4d/relu_pool_proj
I0403 15:51:19.376469 20343 net.cpp:91] Creating Layer inception_4d/relu_pool_proj
I0403 15:51:19.376487 20343 net.cpp:425] inception_4d/relu_pool_proj <- inception_4d/pool_proj
I0403 15:51:19.376507 20343 net.cpp:386] inception_4d/relu_pool_proj -> inception_4d/pool_proj (in-place)
I0403 15:51:19.376708 20343 net.cpp:141] Setting up inception_4d/relu_pool_proj
I0403 15:51:19.376734 20343 net.cpp:148] Top shape: 24 64 14 14 (301056)
I0403 15:51:19.376749 20343 net.cpp:156] Memory required for data: 1147309344
I0403 15:51:19.376765 20343 layer_factory.hpp:77] Creating layer inception_4d/output
I0403 15:51:19.376783 20343 net.cpp:91] Creating Layer inception_4d/output
I0403 15:51:19.376799 20343 net.cpp:425] inception_4d/output <- inception_4d/1x1
I0403 15:51:19.376816 20343 net.cpp:425] inception_4d/output <- inception_4d/3x3
I0403 15:51:19.376832 20343 net.cpp:425] inception_4d/output <- inception_4d/5x5
I0403 15:51:19.376848 20343 net.cpp:425] inception_4d/output <- inception_4d/pool_proj
I0403 15:51:19.376868 20343 net.cpp:399] inception_4d/output -> inception_4d/output
I0403 15:51:19.376919 20343 net.cpp:141] Setting up inception_4d/output
I0403 15:51:19.376945 20343 net.cpp:148] Top shape: 24 528 14 14 (2483712)
I0403 15:51:19.376961 20343 net.cpp:156] Memory required for data: 1157244192
I0403 15:51:19.376976 20343 layer_factory.hpp:77] Creating layer inception_4d/output_inception_4d/output_0_split
I0403 15:51:19.376996 20343 net.cpp:91] Creating Layer inception_4d/output_inception_4d/output_0_split
I0403 15:51:19.377012 20343 net.cpp:425] inception_4d/output_inception_4d/output_0_split <- inception_4d/output
I0403 15:51:19.377038 20343 net.cpp:399] inception_4d/output_inception_4d/output_0_split -> inception_4d/output_inception_4d/output_0_split_0
I0403 15:51:19.377061 20343 net.cpp:399] inception_4d/output_inception_4d/output_0_split -> inception_4d/output_inception_4d/output_0_split_1
I0403 15:51:19.377082 20343 net.cpp:399] inception_4d/output_inception_4d/output_0_split -> inception_4d/output_inception_4d/output_0_split_2
I0403 15:51:19.377104 20343 net.cpp:399] inception_4d/output_inception_4d/output_0_split -> inception_4d/output_inception_4d/output_0_split_3
I0403 15:51:19.377122 20343 net.cpp:399] inception_4d/output_inception_4d/output_0_split -> inception_4d/output_inception_4d/output_0_split_4
I0403 15:51:19.377233 20343 net.cpp:141] Setting up inception_4d/output_inception_4d/output_0_split
I0403 15:51:19.377274 20343 net.cpp:148] Top shape: 24 528 14 14 (2483712)
I0403 15:51:19.377293 20343 net.cpp:148] Top shape: 24 528 14 14 (2483712)
I0403 15:51:19.377310 20343 net.cpp:148] Top shape: 24 528 14 14 (2483712)
I0403 15:51:19.377326 20343 net.cpp:148] Top shape: 24 528 14 14 (2483712)
I0403 15:51:19.377342 20343 net.cpp:148] Top shape: 24 528 14 14 (2483712)
I0403 15:51:19.377357 20343 net.cpp:156] Memory required for data: 1206918432
I0403 15:51:19.377372 20343 layer_factory.hpp:77] Creating layer loss2/ave_pool
I0403 15:51:19.377390 20343 net.cpp:91] Creating Layer loss2/ave_pool
I0403 15:51:19.377406 20343 net.cpp:425] loss2/ave_pool <- inception_4d/output_inception_4d/output_0_split_0
I0403 15:51:19.377425 20343 net.cpp:399] loss2/ave_pool -> loss2/ave_pool
I0403 15:51:19.377768 20343 net.cpp:141] Setting up loss2/ave_pool
I0403 15:51:19.377797 20343 net.cpp:148] Top shape: 24 528 4 4 (202752)
I0403 15:51:19.377815 20343 net.cpp:156] Memory required for data: 1207729440
I0403 15:51:19.377830 20343 layer_factory.hpp:77] Creating layer loss2/conv
I0403 15:51:19.377852 20343 net.cpp:91] Creating Layer loss2/conv
I0403 15:51:19.377871 20343 net.cpp:425] loss2/conv <- loss2/ave_pool
I0403 15:51:19.377890 20343 net.cpp:399] loss2/conv -> loss2/conv
I0403 15:51:19.379925 20343 net.cpp:141] Setting up loss2/conv
I0403 15:51:19.379954 20343 net.cpp:148] Top shape: 24 128 4 4 (49152)
I0403 15:51:19.379971 20343 net.cpp:156] Memory required for data: 1207926048
I0403 15:51:19.379989 20343 layer_factory.hpp:77] Creating layer loss2/relu_conv
I0403 15:51:19.380010 20343 net.cpp:91] Creating Layer loss2/relu_conv
I0403 15:51:19.380034 20343 net.cpp:425] loss2/relu_conv <- loss2/conv
I0403 15:51:19.380053 20343 net.cpp:386] loss2/relu_conv -> loss2/conv (in-place)
I0403 15:51:19.380355 20343 net.cpp:141] Setting up loss2/relu_conv
I0403 15:51:19.380383 20343 net.cpp:148] Top shape: 24 128 4 4 (49152)
I0403 15:51:19.380398 20343 net.cpp:156] Memory required for data: 1208122656
I0403 15:51:19.380414 20343 layer_factory.hpp:77] Creating layer loss2/fc
I0403 15:51:19.380436 20343 net.cpp:91] Creating Layer loss2/fc
I0403 15:51:19.380455 20343 net.cpp:425] loss2/fc <- loss2/conv
I0403 15:51:19.380475 20343 net.cpp:399] loss2/fc -> loss2/fc
I0403 15:51:19.399226 20343 net.cpp:141] Setting up loss2/fc
I0403 15:51:19.399263 20343 net.cpp:148] Top shape: 24 1024 (24576)
I0403 15:51:19.399281 20343 net.cpp:156] Memory required for data: 1208220960
I0403 15:51:19.399299 20343 layer_factory.hpp:77] Creating layer loss2/relu_fc
I0403 15:51:19.399318 20343 net.cpp:91] Creating Layer loss2/relu_fc
I0403 15:51:19.399335 20343 net.cpp:425] loss2/relu_fc <- loss2/fc
I0403 15:51:19.399356 20343 net.cpp:386] loss2/relu_fc -> loss2/fc (in-place)
I0403 15:51:19.399672 20343 net.cpp:141] Setting up loss2/relu_fc
I0403 15:51:19.399699 20343 net.cpp:148] Top shape: 24 1024 (24576)
I0403 15:51:19.399715 20343 net.cpp:156] Memory required for data: 1208319264
I0403 15:51:19.399730 20343 layer_factory.hpp:77] Creating layer loss2/drop_fc
I0403 15:51:19.399749 20343 net.cpp:91] Creating Layer loss2/drop_fc
I0403 15:51:19.399766 20343 net.cpp:425] loss2/drop_fc <- loss2/fc
I0403 15:51:19.399787 20343 net.cpp:386] loss2/drop_fc -> loss2/fc (in-place)
I0403 15:51:19.399840 20343 net.cpp:141] Setting up loss2/drop_fc
I0403 15:51:19.399864 20343 net.cpp:148] Top shape: 24 1024 (24576)
I0403 15:51:19.399879 20343 net.cpp:156] Memory required for data: 1208417568
I0403 15:51:19.399894 20343 layer_factory.hpp:77] Creating layer loss2/classifier_plantvillage
I0403 15:51:19.399916 20343 net.cpp:91] Creating Layer loss2/classifier_plantvillage
I0403 15:51:19.399933 20343 net.cpp:425] loss2/classifier_plantvillage <- loss2/fc
I0403 15:51:19.399956 20343 net.cpp:399] loss2/classifier_plantvillage -> loss2/classifier_plantvillage
I0403 15:51:19.400396 20343 net.cpp:141] Setting up loss2/classifier_plantvillage
I0403 15:51:19.400423 20343 net.cpp:148] Top shape: 24 38 (912)
I0403 15:51:19.400456 20343 net.cpp:156] Memory required for data: 1208421216
I0403 15:51:19.400477 20343 layer_factory.hpp:77] Creating layer loss2/classifier_plantvillage_loss2/classifier_plantvillage_0_split
I0403 15:51:19.400496 20343 net.cpp:91] Creating Layer loss2/classifier_plantvillage_loss2/classifier_plantvillage_0_split
I0403 15:51:19.400513 20343 net.cpp:425] loss2/classifier_plantvillage_loss2/classifier_plantvillage_0_split <- loss2/classifier_plantvillage
I0403 15:51:19.400534 20343 net.cpp:399] loss2/classifier_plantvillage_loss2/classifier_plantvillage_0_split -> loss2/classifier_plantvillage_loss2/classifier_plantvillage_0_split_0
I0403 15:51:19.400555 20343 net.cpp:399] loss2/classifier_plantvillage_loss2/classifier_plantvillage_0_split -> loss2/classifier_plantvillage_loss2/classifier_plantvillage_0_split_1
I0403 15:51:19.400576 20343 net.cpp:399] loss2/classifier_plantvillage_loss2/classifier_plantvillage_0_split -> loss2/classifier_plantvillage_loss2/classifier_plantvillage_0_split_2
I0403 15:51:19.400660 20343 net.cpp:141] Setting up loss2/classifier_plantvillage_loss2/classifier_plantvillage_0_split
I0403 15:51:19.400683 20343 net.cpp:148] Top shape: 24 38 (912)
I0403 15:51:19.400701 20343 net.cpp:148] Top shape: 24 38 (912)
I0403 15:51:19.400717 20343 net.cpp:148] Top shape: 24 38 (912)
I0403 15:51:19.400732 20343 net.cpp:156] Memory required for data: 1208432160
I0403 15:51:19.400746 20343 layer_factory.hpp:77] Creating layer inception_4e/1x1
I0403 15:51:19.400770 20343 net.cpp:91] Creating Layer inception_4e/1x1
I0403 15:51:19.400789 20343 net.cpp:425] inception_4e/1x1 <- inception_4d/output_inception_4d/output_0_split_1
I0403 15:51:19.400809 20343 net.cpp:399] inception_4e/1x1 -> inception_4e/1x1
I0403 15:51:19.402755 20343 net.cpp:141] Setting up inception_4e/1x1
I0403 15:51:19.402783 20343 net.cpp:148] Top shape: 24 256 14 14 (1204224)
I0403 15:51:19.402801 20343 net.cpp:156] Memory required for data: 1213249056
I0403 15:51:19.402820 20343 layer_factory.hpp:77] Creating layer inception_4e/relu_1x1
I0403 15:51:19.402842 20343 net.cpp:91] Creating Layer inception_4e/relu_1x1
I0403 15:51:19.402859 20343 net.cpp:425] inception_4e/relu_1x1 <- inception_4e/1x1
I0403 15:51:19.402878 20343 net.cpp:386] inception_4e/relu_1x1 -> inception_4e/1x1 (in-place)
I0403 15:51:19.403194 20343 net.cpp:141] Setting up inception_4e/relu_1x1
I0403 15:51:19.403223 20343 net.cpp:148] Top shape: 24 256 14 14 (1204224)
I0403 15:51:19.403239 20343 net.cpp:156] Memory required for data: 1218065952
I0403 15:51:19.403255 20343 layer_factory.hpp:77] Creating layer inception_4e/3x3_reduce
I0403 15:51:19.403280 20343 net.cpp:91] Creating Layer inception_4e/3x3_reduce
I0403 15:51:19.403297 20343 net.cpp:425] inception_4e/3x3_reduce <- inception_4d/output_inception_4d/output_0_split_2
I0403 15:51:19.403321 20343 net.cpp:399] inception_4e/3x3_reduce -> inception_4e/3x3_reduce
I0403 15:51:19.405576 20343 net.cpp:141] Setting up inception_4e/3x3_reduce
I0403 15:51:19.405606 20343 net.cpp:148] Top shape: 24 160 14 14 (752640)
I0403 15:51:19.405623 20343 net.cpp:156] Memory required for data: 1221076512
I0403 15:51:19.405642 20343 layer_factory.hpp:77] Creating layer inception_4e/relu_3x3_reduce
I0403 15:51:19.405661 20343 net.cpp:91] Creating Layer inception_4e/relu_3x3_reduce
I0403 15:51:19.405678 20343 net.cpp:425] inception_4e/relu_3x3_reduce <- inception_4e/3x3_reduce
I0403 15:51:19.405699 20343 net.cpp:386] inception_4e/relu_3x3_reduce -> inception_4e/3x3_reduce (in-place)
I0403 15:51:19.405900 20343 net.cpp:141] Setting up inception_4e/relu_3x3_reduce
I0403 15:51:19.405926 20343 net.cpp:148] Top shape: 24 160 14 14 (752640)
I0403 15:51:19.405942 20343 net.cpp:156] Memory required for data: 1224087072
I0403 15:51:19.405957 20343 layer_factory.hpp:77] Creating layer inception_4e/3x3
I0403 15:51:19.405982 20343 net.cpp:91] Creating Layer inception_4e/3x3
I0403 15:51:19.405999 20343 net.cpp:425] inception_4e/3x3 <- inception_4e/3x3_reduce
I0403 15:51:19.406026 20343 net.cpp:399] inception_4e/3x3 -> inception_4e/3x3
I0403 15:51:19.411351 20343 net.cpp:141] Setting up inception_4e/3x3
I0403 15:51:19.411396 20343 net.cpp:148] Top shape: 24 320 14 14 (1505280)
I0403 15:51:19.411413 20343 net.cpp:156] Memory required for data: 1230108192
I0403 15:51:19.411433 20343 layer_factory.hpp:77] Creating layer inception_4e/relu_3x3
I0403 15:51:19.411454 20343 net.cpp:91] Creating Layer inception_4e/relu_3x3
I0403 15:51:19.411473 20343 net.cpp:425] inception_4e/relu_3x3 <- inception_4e/3x3
I0403 15:51:19.411490 20343 net.cpp:386] inception_4e/relu_3x3 -> inception_4e/3x3 (in-place)
I0403 15:51:19.411813 20343 net.cpp:141] Setting up inception_4e/relu_3x3
I0403 15:51:19.411844 20343 net.cpp:148] Top shape: 24 320 14 14 (1505280)
I0403 15:51:19.411860 20343 net.cpp:156] Memory required for data: 1236129312
I0403 15:51:19.411876 20343 layer_factory.hpp:77] Creating layer inception_4e/5x5_reduce
I0403 15:51:19.411901 20343 net.cpp:91] Creating Layer inception_4e/5x5_reduce
I0403 15:51:19.411921 20343 net.cpp:425] inception_4e/5x5_reduce <- inception_4d/output_inception_4d/output_0_split_3
I0403 15:51:19.411941 20343 net.cpp:399] inception_4e/5x5_reduce -> inception_4e/5x5_reduce
I0403 15:51:19.413101 20343 net.cpp:141] Setting up inception_4e/5x5_reduce
I0403 15:51:19.413130 20343 net.cpp:148] Top shape: 24 32 14 14 (150528)
I0403 15:51:19.413147 20343 net.cpp:156] Memory required for data: 1236731424
I0403 15:51:19.413166 20343 layer_factory.hpp:77] Creating layer inception_4e/relu_5x5_reduce
I0403 15:51:19.413188 20343 net.cpp:91] Creating Layer inception_4e/relu_5x5_reduce
I0403 15:51:19.413206 20343 net.cpp:425] inception_4e/relu_5x5_reduce <- inception_4e/5x5_reduce
I0403 15:51:19.413223 20343 net.cpp:386] inception_4e/relu_5x5_reduce -> inception_4e/5x5_reduce (in-place)
I0403 15:51:19.413538 20343 net.cpp:141] Setting up inception_4e/relu_5x5_reduce
I0403 15:51:19.413566 20343 net.cpp:148] Top shape: 24 32 14 14 (150528)
I0403 15:51:19.413583 20343 net.cpp:156] Memory required for data: 1237333536
I0403 15:51:19.413597 20343 layer_factory.hpp:77] Creating layer inception_4e/5x5
I0403 15:51:19.413637 20343 net.cpp:91] Creating Layer inception_4e/5x5
I0403 15:51:19.413660 20343 net.cpp:425] inception_4e/5x5 <- inception_4e/5x5_reduce
I0403 15:51:19.413679 20343 net.cpp:399] inception_4e/5x5 -> inception_4e/5x5
I0403 15:51:19.415655 20343 net.cpp:141] Setting up inception_4e/5x5
I0403 15:51:19.415688 20343 net.cpp:148] Top shape: 24 128 14 14 (602112)
I0403 15:51:19.415705 20343 net.cpp:156] Memory required for data: 1239741984
I0403 15:51:19.415725 20343 layer_factory.hpp:77] Creating layer inception_4e/relu_5x5
I0403 15:51:19.415745 20343 net.cpp:91] Creating Layer inception_4e/relu_5x5
I0403 15:51:19.415761 20343 net.cpp:425] inception_4e/relu_5x5 <- inception_4e/5x5
I0403 15:51:19.415782 20343 net.cpp:386] inception_4e/relu_5x5 -> inception_4e/5x5 (in-place)
I0403 15:51:19.415994 20343 net.cpp:141] Setting up inception_4e/relu_5x5
I0403 15:51:19.416025 20343 net.cpp:148] Top shape: 24 128 14 14 (602112)
I0403 15:51:19.416043 20343 net.cpp:156] Memory required for data: 1242150432
I0403 15:51:19.416059 20343 layer_factory.hpp:77] Creating layer inception_4e/pool
I0403 15:51:19.416077 20343 net.cpp:91] Creating Layer inception_4e/pool
I0403 15:51:19.416095 20343 net.cpp:425] inception_4e/pool <- inception_4d/output_inception_4d/output_0_split_4
I0403 15:51:19.416115 20343 net.cpp:399] inception_4e/pool -> inception_4e/pool
I0403 15:51:19.416193 20343 net.cpp:141] Setting up inception_4e/pool
I0403 15:51:19.416221 20343 net.cpp:148] Top shape: 24 528 14 14 (2483712)
I0403 15:51:19.416236 20343 net.cpp:156] Memory required for data: 1252085280
I0403 15:51:19.416251 20343 layer_factory.hpp:77] Creating layer inception_4e/pool_proj
I0403 15:51:19.416275 20343 net.cpp:91] Creating Layer inception_4e/pool_proj
I0403 15:51:19.416293 20343 net.cpp:425] inception_4e/pool_proj <- inception_4e/pool
I0403 15:51:19.416316 20343 net.cpp:399] inception_4e/pool_proj -> inception_4e/pool_proj
I0403 15:51:19.417924 20343 net.cpp:141] Setting up inception_4e/pool_proj
I0403 15:51:19.417968 20343 net.cpp:148] Top shape: 24 128 14 14 (602112)
I0403 15:51:19.417986 20343 net.cpp:156] Memory required for data: 1254493728
I0403 15:51:19.418006 20343 layer_factory.hpp:77] Creating layer inception_4e/relu_pool_proj
I0403 15:51:19.418031 20343 net.cpp:91] Creating Layer inception_4e/relu_pool_proj
I0403 15:51:19.418050 20343 net.cpp:425] inception_4e/relu_pool_proj <- inception_4e/pool_proj
I0403 15:51:19.418071 20343 net.cpp:386] inception_4e/relu_pool_proj -> inception_4e/pool_proj (in-place)
I0403 15:51:19.418380 20343 net.cpp:141] Setting up inception_4e/relu_pool_proj
I0403 15:51:19.418411 20343 net.cpp:148] Top shape: 24 128 14 14 (602112)
I0403 15:51:19.418427 20343 net.cpp:156] Memory required for data: 1256902176
I0403 15:51:19.418442 20343 layer_factory.hpp:77] Creating layer inception_4e/output
I0403 15:51:19.418460 20343 net.cpp:91] Creating Layer inception_4e/output
I0403 15:51:19.418478 20343 net.cpp:425] inception_4e/output <- inception_4e/1x1
I0403 15:51:19.418494 20343 net.cpp:425] inception_4e/output <- inception_4e/3x3
I0403 15:51:19.418511 20343 net.cpp:425] inception_4e/output <- inception_4e/5x5
I0403 15:51:19.418529 20343 net.cpp:425] inception_4e/output <- inception_4e/pool_proj
I0403 15:51:19.418548 20343 net.cpp:399] inception_4e/output -> inception_4e/output
I0403 15:51:19.418601 20343 net.cpp:141] Setting up inception_4e/output
I0403 15:51:19.418627 20343 net.cpp:148] Top shape: 24 832 14 14 (3913728)
I0403 15:51:19.418642 20343 net.cpp:156] Memory required for data: 1272557088
I0403 15:51:19.418658 20343 layer_factory.hpp:77] Creating layer pool4/3x3_s2
I0403 15:51:19.418678 20343 net.cpp:91] Creating Layer pool4/3x3_s2
I0403 15:51:19.418696 20343 net.cpp:425] pool4/3x3_s2 <- inception_4e/output
I0403 15:51:19.418715 20343 net.cpp:399] pool4/3x3_s2 -> pool4/3x3_s2
I0403 15:51:19.418792 20343 net.cpp:141] Setting up pool4/3x3_s2
I0403 15:51:19.418817 20343 net.cpp:148] Top shape: 24 832 7 7 (978432)
I0403 15:51:19.418833 20343 net.cpp:156] Memory required for data: 1276470816
I0403 15:51:19.418846 20343 layer_factory.hpp:77] Creating layer pool4/3x3_s2_pool4/3x3_s2_0_split
I0403 15:51:19.418865 20343 net.cpp:91] Creating Layer pool4/3x3_s2_pool4/3x3_s2_0_split
I0403 15:51:19.418881 20343 net.cpp:425] pool4/3x3_s2_pool4/3x3_s2_0_split <- pool4/3x3_s2
I0403 15:51:19.418902 20343 net.cpp:399] pool4/3x3_s2_pool4/3x3_s2_0_split -> pool4/3x3_s2_pool4/3x3_s2_0_split_0
I0403 15:51:19.418925 20343 net.cpp:399] pool4/3x3_s2_pool4/3x3_s2_0_split -> pool4/3x3_s2_pool4/3x3_s2_0_split_1
I0403 15:51:19.418946 20343 net.cpp:399] pool4/3x3_s2_pool4/3x3_s2_0_split -> pool4/3x3_s2_pool4/3x3_s2_0_split_2
I0403 15:51:19.418967 20343 net.cpp:399] pool4/3x3_s2_pool4/3x3_s2_0_split -> pool4/3x3_s2_pool4/3x3_s2_0_split_3
I0403 15:51:19.419080 20343 net.cpp:141] Setting up pool4/3x3_s2_pool4/3x3_s2_0_split
I0403 15:51:19.419106 20343 net.cpp:148] Top shape: 24 832 7 7 (978432)
I0403 15:51:19.419123 20343 net.cpp:148] Top shape: 24 832 7 7 (978432)
I0403 15:51:19.419140 20343 net.cpp:148] Top shape: 24 832 7 7 (978432)
I0403 15:51:19.419157 20343 net.cpp:148] Top shape: 24 832 7 7 (978432)
I0403 15:51:19.419170 20343 net.cpp:156] Memory required for data: 1292125728
I0403 15:51:19.419186 20343 layer_factory.hpp:77] Creating layer inception_5a/1x1
I0403 15:51:19.419209 20343 net.cpp:91] Creating Layer inception_5a/1x1
I0403 15:51:19.419229 20343 net.cpp:425] inception_5a/1x1 <- pool4/3x3_s2_pool4/3x3_s2_0_split_0
I0403 15:51:19.419255 20343 net.cpp:399] inception_5a/1x1 -> inception_5a/1x1
I0403 15:51:19.422304 20343 net.cpp:141] Setting up inception_5a/1x1
I0403 15:51:19.422335 20343 net.cpp:148] Top shape: 24 256 7 7 (301056)
I0403 15:51:19.422353 20343 net.cpp:156] Memory required for data: 1293329952
I0403 15:51:19.422374 20343 layer_factory.hpp:77] Creating layer inception_5a/relu_1x1
I0403 15:51:19.422392 20343 net.cpp:91] Creating Layer inception_5a/relu_1x1
I0403 15:51:19.422410 20343 net.cpp:425] inception_5a/relu_1x1 <- inception_5a/1x1
I0403 15:51:19.422430 20343 net.cpp:386] inception_5a/relu_1x1 -> inception_5a/1x1 (in-place)
I0403 15:51:19.422768 20343 net.cpp:141] Setting up inception_5a/relu_1x1
I0403 15:51:19.422796 20343 net.cpp:148] Top shape: 24 256 7 7 (301056)
I0403 15:51:19.422813 20343 net.cpp:156] Memory required for data: 1294534176
I0403 15:51:19.422828 20343 layer_factory.hpp:77] Creating layer inception_5a/3x3_reduce
I0403 15:51:19.422852 20343 net.cpp:91] Creating Layer inception_5a/3x3_reduce
I0403 15:51:19.422873 20343 net.cpp:425] inception_5a/3x3_reduce <- pool4/3x3_s2_pool4/3x3_s2_0_split_1
I0403 15:51:19.422894 20343 net.cpp:399] inception_5a/3x3_reduce -> inception_5a/3x3_reduce
I0403 15:51:19.425523 20343 net.cpp:141] Setting up inception_5a/3x3_reduce
I0403 15:51:19.425554 20343 net.cpp:148] Top shape: 24 160 7 7 (188160)
I0403 15:51:19.425570 20343 net.cpp:156] Memory required for data: 1295286816
I0403 15:51:19.425590 20343 layer_factory.hpp:77] Creating layer inception_5a/relu_3x3_reduce
I0403 15:51:19.425611 20343 net.cpp:91] Creating Layer inception_5a/relu_3x3_reduce
I0403 15:51:19.425631 20343 net.cpp:425] inception_5a/relu_3x3_reduce <- inception_5a/3x3_reduce
I0403 15:51:19.425648 20343 net.cpp:386] inception_5a/relu_3x3_reduce -> inception_5a/3x3_reduce (in-place)
I0403 15:51:19.425849 20343 net.cpp:141] Setting up inception_5a/relu_3x3_reduce
I0403 15:51:19.425875 20343 net.cpp:148] Top shape: 24 160 7 7 (188160)
I0403 15:51:19.425891 20343 net.cpp:156] Memory required for data: 1296039456
I0403 15:51:19.425906 20343 layer_factory.hpp:77] Creating layer inception_5a/3x3
I0403 15:51:19.425930 20343 net.cpp:91] Creating Layer inception_5a/3x3
I0403 15:51:19.425950 20343 net.cpp:425] inception_5a/3x3 <- inception_5a/3x3_reduce
I0403 15:51:19.425971 20343 net.cpp:399] inception_5a/3x3 -> inception_5a/3x3
I0403 15:51:19.431335 20343 net.cpp:141] Setting up inception_5a/3x3
I0403 15:51:19.431373 20343 net.cpp:148] Top shape: 24 320 7 7 (376320)
I0403 15:51:19.431391 20343 net.cpp:156] Memory required for data: 1297544736
I0403 15:51:19.431411 20343 layer_factory.hpp:77] Creating layer inception_5a/relu_3x3
I0403 15:51:19.431429 20343 net.cpp:91] Creating Layer inception_5a/relu_3x3
I0403 15:51:19.431447 20343 net.cpp:425] inception_5a/relu_3x3 <- inception_5a/3x3
I0403 15:51:19.431468 20343 net.cpp:386] inception_5a/relu_3x3 -> inception_5a/3x3 (in-place)
I0403 15:51:19.431780 20343 net.cpp:141] Setting up inception_5a/relu_3x3
I0403 15:51:19.431808 20343 net.cpp:148] Top shape: 24 320 7 7 (376320)
I0403 15:51:19.431824 20343 net.cpp:156] Memory required for data: 1299050016
I0403 15:51:19.431840 20343 layer_factory.hpp:77] Creating layer inception_5a/5x5_reduce
I0403 15:51:19.431864 20343 net.cpp:91] Creating Layer inception_5a/5x5_reduce
I0403 15:51:19.431885 20343 net.cpp:425] inception_5a/5x5_reduce <- pool4/3x3_s2_pool4/3x3_s2_0_split_2
I0403 15:51:19.431906 20343 net.cpp:399] inception_5a/5x5_reduce -> inception_5a/5x5_reduce
I0403 15:51:19.433178 20343 net.cpp:141] Setting up inception_5a/5x5_reduce
I0403 15:51:19.433207 20343 net.cpp:148] Top shape: 24 32 7 7 (37632)
I0403 15:51:19.433224 20343 net.cpp:156] Memory required for data: 1299200544
I0403 15:51:19.433243 20343 layer_factory.hpp:77] Creating layer inception_5a/relu_5x5_reduce
I0403 15:51:19.433262 20343 net.cpp:91] Creating Layer inception_5a/relu_5x5_reduce
I0403 15:51:19.433279 20343 net.cpp:425] inception_5a/relu_5x5_reduce <- inception_5a/5x5_reduce
I0403 15:51:19.433300 20343 net.cpp:386] inception_5a/relu_5x5_reduce -> inception_5a/5x5_reduce (in-place)
I0403 15:51:19.433616 20343 net.cpp:141] Setting up inception_5a/relu_5x5_reduce
I0403 15:51:19.433645 20343 net.cpp:148] Top shape: 24 32 7 7 (37632)
I0403 15:51:19.433660 20343 net.cpp:156] Memory required for data: 1299351072
I0403 15:51:19.433676 20343 layer_factory.hpp:77] Creating layer inception_5a/5x5
I0403 15:51:19.433699 20343 net.cpp:91] Creating Layer inception_5a/5x5
I0403 15:51:19.433719 20343 net.cpp:425] inception_5a/5x5 <- inception_5a/5x5_reduce
I0403 15:51:19.433742 20343 net.cpp:399] inception_5a/5x5 -> inception_5a/5x5
I0403 15:51:19.435591 20343 net.cpp:141] Setting up inception_5a/5x5
I0403 15:51:19.435637 20343 net.cpp:148] Top shape: 24 128 7 7 (150528)
I0403 15:51:19.435657 20343 net.cpp:156] Memory required for data: 1299953184
I0403 15:51:19.435675 20343 layer_factory.hpp:77] Creating layer inception_5a/relu_5x5
I0403 15:51:19.435694 20343 net.cpp:91] Creating Layer inception_5a/relu_5x5
I0403 15:51:19.435711 20343 net.cpp:425] inception_5a/relu_5x5 <- inception_5a/5x5
I0403 15:51:19.435735 20343 net.cpp:386] inception_5a/relu_5x5 -> inception_5a/5x5 (in-place)
I0403 15:51:19.435941 20343 net.cpp:141] Setting up inception_5a/relu_5x5
I0403 15:51:19.435968 20343 net.cpp:148] Top shape: 24 128 7 7 (150528)
I0403 15:51:19.435983 20343 net.cpp:156] Memory required for data: 1300555296
I0403 15:51:19.435998 20343 layer_factory.hpp:77] Creating layer inception_5a/pool
I0403 15:51:19.436022 20343 net.cpp:91] Creating Layer inception_5a/pool
I0403 15:51:19.436039 20343 net.cpp:425] inception_5a/pool <- pool4/3x3_s2_pool4/3x3_s2_0_split_3
I0403 15:51:19.436060 20343 net.cpp:399] inception_5a/pool -> inception_5a/pool
I0403 15:51:19.436139 20343 net.cpp:141] Setting up inception_5a/pool
I0403 15:51:19.436166 20343 net.cpp:148] Top shape: 24 832 7 7 (978432)
I0403 15:51:19.436180 20343 net.cpp:156] Memory required for data: 1304469024
I0403 15:51:19.436195 20343 layer_factory.hpp:77] Creating layer inception_5a/pool_proj
I0403 15:51:19.436218 20343 net.cpp:91] Creating Layer inception_5a/pool_proj
I0403 15:51:19.436238 20343 net.cpp:425] inception_5a/pool_proj <- inception_5a/pool
I0403 15:51:19.436259 20343 net.cpp:399] inception_5a/pool_proj -> inception_5a/pool_proj
I0403 15:51:19.438711 20343 net.cpp:141] Setting up inception_5a/pool_proj
I0403 15:51:19.438745 20343 net.cpp:148] Top shape: 24 128 7 7 (150528)
I0403 15:51:19.438761 20343 net.cpp:156] Memory required for data: 1305071136
I0403 15:51:19.438781 20343 layer_factory.hpp:77] Creating layer inception_5a/relu_pool_proj
I0403 15:51:19.438801 20343 net.cpp:91] Creating Layer inception_5a/relu_pool_proj
I0403 15:51:19.438817 20343 net.cpp:425] inception_5a/relu_pool_proj <- inception_5a/pool_proj
I0403 15:51:19.438838 20343 net.cpp:386] inception_5a/relu_pool_proj -> inception_5a/pool_proj (in-place)
I0403 15:51:19.439170 20343 net.cpp:141] Setting up inception_5a/relu_pool_proj
I0403 15:51:19.439204 20343 net.cpp:148] Top shape: 24 128 7 7 (150528)
I0403 15:51:19.439221 20343 net.cpp:156] Memory required for data: 1305673248
I0403 15:51:19.439237 20343 layer_factory.hpp:77] Creating layer inception_5a/output
I0403 15:51:19.439256 20343 net.cpp:91] Creating Layer inception_5a/output
I0403 15:51:19.439272 20343 net.cpp:425] inception_5a/output <- inception_5a/1x1
I0403 15:51:19.439291 20343 net.cpp:425] inception_5a/output <- inception_5a/3x3
I0403 15:51:19.439308 20343 net.cpp:425] inception_5a/output <- inception_5a/5x5
I0403 15:51:19.439324 20343 net.cpp:425] inception_5a/output <- inception_5a/pool_proj
I0403 15:51:19.439342 20343 net.cpp:399] inception_5a/output -> inception_5a/output
I0403 15:51:19.439399 20343 net.cpp:141] Setting up inception_5a/output
I0403 15:51:19.439424 20343 net.cpp:148] Top shape: 24 832 7 7 (978432)
I0403 15:51:19.439440 20343 net.cpp:156] Memory required for data: 1309586976
I0403 15:51:19.439455 20343 layer_factory.hpp:77] Creating layer inception_5a/output_inception_5a/output_0_split
I0403 15:51:19.439476 20343 net.cpp:91] Creating Layer inception_5a/output_inception_5a/output_0_split
I0403 15:51:19.439493 20343 net.cpp:425] inception_5a/output_inception_5a/output_0_split <- inception_5a/output
I0403 15:51:19.439512 20343 net.cpp:399] inception_5a/output_inception_5a/output_0_split -> inception_5a/output_inception_5a/output_0_split_0
I0403 15:51:19.439532 20343 net.cpp:399] inception_5a/output_inception_5a/output_0_split -> inception_5a/output_inception_5a/output_0_split_1
I0403 15:51:19.439553 20343 net.cpp:399] inception_5a/output_inception_5a/output_0_split -> inception_5a/output_inception_5a/output_0_split_2
I0403 15:51:19.439576 20343 net.cpp:399] inception_5a/output_inception_5a/output_0_split -> inception_5a/output_inception_5a/output_0_split_3
I0403 15:51:19.439700 20343 net.cpp:141] Setting up inception_5a/output_inception_5a/output_0_split
I0403 15:51:19.439724 20343 net.cpp:148] Top shape: 24 832 7 7 (978432)
I0403 15:51:19.439743 20343 net.cpp:148] Top shape: 24 832 7 7 (978432)
I0403 15:51:19.439759 20343 net.cpp:148] Top shape: 24 832 7 7 (978432)
I0403 15:51:19.439774 20343 net.cpp:148] Top shape: 24 832 7 7 (978432)
I0403 15:51:19.439788 20343 net.cpp:156] Memory required for data: 1325241888
I0403 15:51:19.439803 20343 layer_factory.hpp:77] Creating layer inception_5b/1x1
I0403 15:51:19.439826 20343 net.cpp:91] Creating Layer inception_5b/1x1
I0403 15:51:19.439846 20343 net.cpp:425] inception_5b/1x1 <- inception_5a/output_inception_5a/output_0_split_0
I0403 15:51:19.439868 20343 net.cpp:399] inception_5b/1x1 -> inception_5b/1x1
I0403 15:51:19.444587 20343 net.cpp:141] Setting up inception_5b/1x1
I0403 15:51:19.444623 20343 net.cpp:148] Top shape: 24 384 7 7 (451584)
I0403 15:51:19.444641 20343 net.cpp:156] Memory required for data: 1327048224
I0403 15:51:19.444660 20343 layer_factory.hpp:77] Creating layer inception_5b/relu_1x1
I0403 15:51:19.444682 20343 net.cpp:91] Creating Layer inception_5b/relu_1x1
I0403 15:51:19.444700 20343 net.cpp:425] inception_5b/relu_1x1 <- inception_5b/1x1
I0403 15:51:19.444718 20343 net.cpp:386] inception_5b/relu_1x1 -> inception_5b/1x1 (in-place)
I0403 15:51:19.445056 20343 net.cpp:141] Setting up inception_5b/relu_1x1
I0403 15:51:19.445085 20343 net.cpp:148] Top shape: 24 384 7 7 (451584)
I0403 15:51:19.445101 20343 net.cpp:156] Memory required for data: 1328854560
I0403 15:51:19.445116 20343 layer_factory.hpp:77] Creating layer inception_5b/3x3_reduce
I0403 15:51:19.445142 20343 net.cpp:91] Creating Layer inception_5b/3x3_reduce
I0403 15:51:19.445160 20343 net.cpp:425] inception_5b/3x3_reduce <- inception_5a/output_inception_5a/output_0_split_1
I0403 15:51:19.445181 20343 net.cpp:399] inception_5b/3x3_reduce -> inception_5b/3x3_reduce
I0403 15:51:19.448051 20343 net.cpp:141] Setting up inception_5b/3x3_reduce
I0403 15:51:19.448086 20343 net.cpp:148] Top shape: 24 192 7 7 (225792)
I0403 15:51:19.448104 20343 net.cpp:156] Memory required for data: 1329757728
I0403 15:51:19.448123 20343 layer_factory.hpp:77] Creating layer inception_5b/relu_3x3_reduce
I0403 15:51:19.448143 20343 net.cpp:91] Creating Layer inception_5b/relu_3x3_reduce
I0403 15:51:19.448160 20343 net.cpp:425] inception_5b/relu_3x3_reduce <- inception_5b/3x3_reduce
I0403 15:51:19.448179 20343 net.cpp:386] inception_5b/relu_3x3_reduce -> inception_5b/3x3_reduce (in-place)
I0403 15:51:19.448387 20343 net.cpp:141] Setting up inception_5b/relu_3x3_reduce
I0403 15:51:19.448413 20343 net.cpp:148] Top shape: 24 192 7 7 (225792)
I0403 15:51:19.448429 20343 net.cpp:156] Memory required for data: 1330660896
I0403 15:51:19.448446 20343 layer_factory.hpp:77] Creating layer inception_5b/3x3
I0403 15:51:19.448468 20343 net.cpp:91] Creating Layer inception_5b/3x3
I0403 15:51:19.448487 20343 net.cpp:425] inception_5b/3x3 <- inception_5b/3x3_reduce
I0403 15:51:19.448510 20343 net.cpp:399] inception_5b/3x3 -> inception_5b/3x3
I0403 15:51:19.455693 20343 net.cpp:141] Setting up inception_5b/3x3
I0403 15:51:19.455727 20343 net.cpp:148] Top shape: 24 384 7 7 (451584)
I0403 15:51:19.455744 20343 net.cpp:156] Memory required for data: 1332467232
I0403 15:51:19.455765 20343 layer_factory.hpp:77] Creating layer inception_5b/relu_3x3
I0403 15:51:19.455785 20343 net.cpp:91] Creating Layer inception_5b/relu_3x3
I0403 15:51:19.455801 20343 net.cpp:425] inception_5b/relu_3x3 <- inception_5b/3x3
I0403 15:51:19.455821 20343 net.cpp:386] inception_5b/relu_3x3 -> inception_5b/3x3 (in-place)
I0403 15:51:19.456146 20343 net.cpp:141] Setting up inception_5b/relu_3x3
I0403 15:51:19.456176 20343 net.cpp:148] Top shape: 24 384 7 7 (451584)
I0403 15:51:19.456192 20343 net.cpp:156] Memory required for data: 1334273568
I0403 15:51:19.456209 20343 layer_factory.hpp:77] Creating layer inception_5b/5x5_reduce
I0403 15:51:19.456253 20343 net.cpp:91] Creating Layer inception_5b/5x5_reduce
I0403 15:51:19.456272 20343 net.cpp:425] inception_5b/5x5_reduce <- inception_5a/output_inception_5a/output_0_split_2
I0403 15:51:19.456292 20343 net.cpp:399] inception_5b/5x5_reduce -> inception_5b/5x5_reduce
I0403 15:51:19.457658 20343 net.cpp:141] Setting up inception_5b/5x5_reduce
I0403 15:51:19.457691 20343 net.cpp:148] Top shape: 24 48 7 7 (56448)
I0403 15:51:19.457708 20343 net.cpp:156] Memory required for data: 1334499360
I0403 15:51:19.457727 20343 layer_factory.hpp:77] Creating layer inception_5b/relu_5x5_reduce
I0403 15:51:19.457749 20343 net.cpp:91] Creating Layer inception_5b/relu_5x5_reduce
I0403 15:51:19.457765 20343 net.cpp:425] inception_5b/relu_5x5_reduce <- inception_5b/5x5_reduce
I0403 15:51:19.457785 20343 net.cpp:386] inception_5b/relu_5x5_reduce -> inception_5b/5x5_reduce (in-place)
I0403 15:51:19.458175 20343 net.cpp:141] Setting up inception_5b/relu_5x5_reduce
I0403 15:51:19.458202 20343 net.cpp:148] Top shape: 24 48 7 7 (56448)
I0403 15:51:19.458219 20343 net.cpp:156] Memory required for data: 1334725152
I0403 15:51:19.458233 20343 layer_factory.hpp:77] Creating layer inception_5b/5x5
I0403 15:51:19.458255 20343 net.cpp:91] Creating Layer inception_5b/5x5
I0403 15:51:19.458272 20343 net.cpp:425] inception_5b/5x5 <- inception_5b/5x5_reduce
I0403 15:51:19.458292 20343 net.cpp:399] inception_5b/5x5 -> inception_5b/5x5
I0403 15:51:19.460455 20343 net.cpp:141] Setting up inception_5b/5x5
I0403 15:51:19.460485 20343 net.cpp:148] Top shape: 24 128 7 7 (150528)
I0403 15:51:19.460501 20343 net.cpp:156] Memory required for data: 1335327264
I0403 15:51:19.460520 20343 layer_factory.hpp:77] Creating layer inception_5b/relu_5x5
I0403 15:51:19.460538 20343 net.cpp:91] Creating Layer inception_5b/relu_5x5
I0403 15:51:19.460556 20343 net.cpp:425] inception_5b/relu_5x5 <- inception_5b/5x5
I0403 15:51:19.460575 20343 net.cpp:386] inception_5b/relu_5x5 -> inception_5b/5x5 (in-place)
I0403 15:51:19.460782 20343 net.cpp:141] Setting up inception_5b/relu_5x5
I0403 15:51:19.460808 20343 net.cpp:148] Top shape: 24 128 7 7 (150528)
I0403 15:51:19.460822 20343 net.cpp:156] Memory required for data: 1335929376
I0403 15:51:19.460837 20343 layer_factory.hpp:77] Creating layer inception_5b/pool
I0403 15:51:19.460857 20343 net.cpp:91] Creating Layer inception_5b/pool
I0403 15:51:19.460875 20343 net.cpp:425] inception_5b/pool <- inception_5a/output_inception_5a/output_0_split_3
I0403 15:51:19.460894 20343 net.cpp:399] inception_5b/pool -> inception_5b/pool
I0403 15:51:19.460970 20343 net.cpp:141] Setting up inception_5b/pool
I0403 15:51:19.460995 20343 net.cpp:148] Top shape: 24 832 7 7 (978432)
I0403 15:51:19.461010 20343 net.cpp:156] Memory required for data: 1339843104
I0403 15:51:19.461031 20343 layer_factory.hpp:77] Creating layer inception_5b/pool_proj
I0403 15:51:19.461055 20343 net.cpp:91] Creating Layer inception_5b/pool_proj
I0403 15:51:19.461072 20343 net.cpp:425] inception_5b/pool_proj <- inception_5b/pool
I0403 15:51:19.461093 20343 net.cpp:399] inception_5b/pool_proj -> inception_5b/pool_proj
I0403 15:51:19.463430 20343 net.cpp:141] Setting up inception_5b/pool_proj
I0403 15:51:19.463461 20343 net.cpp:148] Top shape: 24 128 7 7 (150528)
I0403 15:51:19.463479 20343 net.cpp:156] Memory required for data: 1340445216
I0403 15:51:19.463496 20343 layer_factory.hpp:77] Creating layer inception_5b/relu_pool_proj
I0403 15:51:19.463515 20343 net.cpp:91] Creating Layer inception_5b/relu_pool_proj
I0403 15:51:19.463531 20343 net.cpp:425] inception_5b/relu_pool_proj <- inception_5b/pool_proj
I0403 15:51:19.463551 20343 net.cpp:386] inception_5b/relu_pool_proj -> inception_5b/pool_proj (in-place)
I0403 15:51:19.463848 20343 net.cpp:141] Setting up inception_5b/relu_pool_proj
I0403 15:51:19.463878 20343 net.cpp:148] Top shape: 24 128 7 7 (150528)
I0403 15:51:19.463896 20343 net.cpp:156] Memory required for data: 1341047328
I0403 15:51:19.463910 20343 layer_factory.hpp:77] Creating layer inception_5b/output
I0403 15:51:19.463927 20343 net.cpp:91] Creating Layer inception_5b/output
I0403 15:51:19.463958 20343 net.cpp:425] inception_5b/output <- inception_5b/1x1
I0403 15:51:19.463976 20343 net.cpp:425] inception_5b/output <- inception_5b/3x3
I0403 15:51:19.463992 20343 net.cpp:425] inception_5b/output <- inception_5b/5x5
I0403 15:51:19.464007 20343 net.cpp:425] inception_5b/output <- inception_5b/pool_proj
I0403 15:51:19.464033 20343 net.cpp:399] inception_5b/output -> inception_5b/output
I0403 15:51:19.464087 20343 net.cpp:141] Setting up inception_5b/output
I0403 15:51:19.464110 20343 net.cpp:148] Top shape: 24 1024 7 7 (1204224)
I0403 15:51:19.464125 20343 net.cpp:156] Memory required for data: 1345864224
I0403 15:51:19.464139 20343 layer_factory.hpp:77] Creating layer pool5/7x7_s1
I0403 15:51:19.464160 20343 net.cpp:91] Creating Layer pool5/7x7_s1
I0403 15:51:19.464176 20343 net.cpp:425] pool5/7x7_s1 <- inception_5b/output
I0403 15:51:19.464195 20343 net.cpp:399] pool5/7x7_s1 -> pool5/7x7_s1
I0403 15:51:19.464413 20343 net.cpp:141] Setting up pool5/7x7_s1
I0403 15:51:19.464438 20343 net.cpp:148] Top shape: 24 1024 1 1 (24576)
I0403 15:51:19.464453 20343 net.cpp:156] Memory required for data: 1345962528
I0403 15:51:19.464468 20343 layer_factory.hpp:77] Creating layer pool5/drop_7x7_s1
I0403 15:51:19.464484 20343 net.cpp:91] Creating Layer pool5/drop_7x7_s1
I0403 15:51:19.464500 20343 net.cpp:425] pool5/drop_7x7_s1 <- pool5/7x7_s1
I0403 15:51:19.464519 20343 net.cpp:386] pool5/drop_7x7_s1 -> pool5/7x7_s1 (in-place)
I0403 15:51:19.464570 20343 net.cpp:141] Setting up pool5/drop_7x7_s1
I0403 15:51:19.464592 20343 net.cpp:148] Top shape: 24 1024 1 1 (24576)
I0403 15:51:19.464607 20343 net.cpp:156] Memory required for data: 1346060832
I0403 15:51:19.464620 20343 layer_factory.hpp:77] Creating layer loss3/classifier_plantvillage
I0403 15:51:19.464642 20343 net.cpp:91] Creating Layer loss3/classifier_plantvillage
I0403 15:51:19.464658 20343 net.cpp:425] loss3/classifier_plantvillage <- pool5/7x7_s1
I0403 15:51:19.464679 20343 net.cpp:399] loss3/classifier_plantvillage -> loss3/classifier_plantvillage
I0403 15:51:19.465113 20343 net.cpp:141] Setting up loss3/classifier_plantvillage
I0403 15:51:19.465140 20343 net.cpp:148] Top shape: 24 38 (912)
I0403 15:51:19.465157 20343 net.cpp:156] Memory required for data: 1346064480
I0403 15:51:19.465174 20343 layer_factory.hpp:77] Creating layer loss3/classifier_plantvillage_loss3/classifier_plantvillage_0_split
I0403 15:51:19.465193 20343 net.cpp:91] Creating Layer loss3/classifier_plantvillage_loss3/classifier_plantvillage_0_split
I0403 15:51:19.465209 20343 net.cpp:425] loss3/classifier_plantvillage_loss3/classifier_plantvillage_0_split <- loss3/classifier_plantvillage
I0403 15:51:19.465226 20343 net.cpp:399] loss3/classifier_plantvillage_loss3/classifier_plantvillage_0_split -> loss3/classifier_plantvillage_loss3/classifier_plantvillage_0_split_0
I0403 15:51:19.465245 20343 net.cpp:399] loss3/classifier_plantvillage_loss3/classifier_plantvillage_0_split -> loss3/classifier_plantvillage_loss3/classifier_plantvillage_0_split_1
I0403 15:51:19.465265 20343 net.cpp:399] loss3/classifier_plantvillage_loss3/classifier_plantvillage_0_split -> loss3/classifier_plantvillage_loss3/classifier_plantvillage_0_split_2
I0403 15:51:19.465287 20343 net.cpp:399] loss3/classifier_plantvillage_loss3/classifier_plantvillage_0_split -> loss3/classifier_plantvillage_loss3/classifier_plantvillage_0_split_3
I0403 15:51:19.465390 20343 net.cpp:141] Setting up loss3/classifier_plantvillage_loss3/classifier_plantvillage_0_split
I0403 15:51:19.465414 20343 net.cpp:148] Top shape: 24 38 (912)
I0403 15:51:19.465430 20343 net.cpp:148] Top shape: 24 38 (912)
I0403 15:51:19.465445 20343 net.cpp:148] Top shape: 24 38 (912)
I0403 15:51:19.465459 20343 net.cpp:148] Top shape: 24 38 (912)
I0403 15:51:19.465473 20343 net.cpp:156] Memory required for data: 1346079072
I0403 15:51:19.465487 20343 layer_factory.hpp:77] Creating layer loss1/loss
I0403 15:51:19.465508 20343 net.cpp:91] Creating Layer loss1/loss
I0403 15:51:19.465525 20343 net.cpp:425] loss1/loss <- loss1/classifier_plantvillage_loss1/classifier_plantvillage_0_split_0
I0403 15:51:19.465555 20343 net.cpp:425] loss1/loss <- label_data_1_split_0
…
