…
I0403 15:59:35.792341 20598 net.cpp:313] The NetState phase (1) differed from the phase (0) specified by a rule in layer data
I0403 15:59:35.793500 20598 net.cpp:49] Initializing net from parameters: 
state {
  phase: TEST
}
layer {
  name: "data"
  type: "Data"
  top: "data"
  top: "label"
  include {
    phase: TEST
  }
  transform_param {
    mirror: false
    crop_size: 224
    mean_file: "/home/mohanty/data/final_dataset/lmdb/grayscale-20-80/mean.binaryproto"
  }
  data_param {
    source: "/home/mohanty/data/final_dataset/lmdb/grayscale-20-80/test_db"
    batch_size: 24
    backend: LMDB
  }
}
layer {
  name: "conv1/7x7_s2"
  type: "Convolution"
  bottom: "data"
  top: "conv1/7x7_s2"
  param {
    lr_mult: 1
    decay_mult: 1
  }
  param {
    lr_mult: 2
    decay_mult: 0
  }
  convolution_param {
    num_output: 64
    pad: 3
    kernel_size: 7
    stride: 2
    weight_filler {
      type: "xavier"
      std: 0.1
    }
    bias_filler {
      type: "constant"
      value: 0.2
    }
  }
}
layer {
  name: "conv1/relu_7x7"
  type: "ReLU"
  bottom: "conv1/7x7_s2"
  top: "conv1/7x7_s2"
}
layer {
  name: "pool1/3x3_s2"
  type: "Pooling"
  bottom: "conv1/7x7_s2"
  top: "pool1/3x3_s2"
  pooling_param {
    pool: MAX
    kernel_size: 3
    stride: 2
  }
}
layer {
  name: "pool1/norm1"
  type: "LRN"
  bottom: "pool1/3x3_s2"
  top: "pool1/norm1"
  lrn_param {
    local_size: 5
    alpha: 0.0001
    beta: 0.75
  }
}
layer {
  name: "conv2/3x3_reduce"
  type: "Convolution"
  bottom: "pool1/norm1"
  top: "conv2/3x3_reduce"
  param {
    lr_mult: 1
    decay_mult: 1
  }
  param {
    lr_mult: 2
    decay_mult: 0
  }
  convolution_param {
    num_output: 64
    kernel_size: 1
    weight_filler {
      type: "xavier"
      std: 0.1
    }
    bias_filler {
      type: "constant"
      value: 0.2
    }
  }
}
layer {
  name: "conv2/relu_3x3_reduce"
  type: "ReLU"
  bottom: "conv2/3x3_reduce"
  top: "conv2/3x3_reduce"
}
layer {
  name: "conv2/3x3"
  type: "Convolution"
  bottom: "conv2/3x3_reduce"
  top: "conv2/3x3"
  param {
    lr_mult: 1
    decay_mult: 1
  }
  param {
    lr_mult: 2
    decay_mult: 0
  }
  convolution_param {
    num_output: 192
    pad: 1
    kernel_size: 3
    weight_filler {
      type: "xavier"
      std: 0.03
    }
    bias_filler {
      type: "constant"
      value: 0.2
    }
  }
}
layer {
  name: "conv2/relu_3x3"
  type: "ReLU"
  bottom: "conv2/3x3"
  top: "conv2/3x3"
}
layer {
  name: "conv2/norm2"
  type: "LRN"
  bottom: "conv2/3x3"
  top: "conv2/norm2"
  lrn_param {
    local_size: 5
    alpha: 0.0001
    beta: 0.75
  }
}
layer {
  name: "pool2/3x3_s2"
  type: "Pooling"
  bottom: "conv2/norm2"
  top: "pool2/3x3_s2"
  pooling_param {
    pool: MAX
    kernel_size: 3
    stride: 2
  }
}
layer {
  name: "inception_3a/1x1"
  type: "Convolution"
  bottom: "pool2/3x3_s2"
  top: "inception_3a/1x1"
  param {
    lr_mult: 1
    decay_mult: 1
  }
  param {
    lr_mult: 2
    decay_mult: 0
  }
  convolution_param {
    num_output: 64
    kernel_size: 1
    weight_filler {
      type: "xavier"
      std: 0.03
    }
    bias_filler {
      type: "constant"
      value: 0.2
    }
  }
}
layer {
  name: "inception_3a/relu_1x1"
  type: "ReLU"
  bottom: "inception_3a/1x1"
  top: "inception_3a/1x1"
}
layer {
  name: "inception_3a/3x3_reduce"
  type: "Convolution"
  bottom: "pool2/3x3_s2"
  top: "inception_3a/3x3_reduce"
  param {
    lr_mult: 1
    decay_mult: 1
  }
  param {
    lr_mult: 2
    decay_mult: 0
  }
  convolution_param {
    num_output: 96
    kernel_size: 1
    weight_filler {
      type: "xavier"
      std: 0.09
    }
    bias_filler {
      type: "constant"
      value: 0.2
    }
  }
}
layer {
  name: "inception_3a/relu_3x3_reduce"
  type: "ReLU"
  bottom: "inception_3a/3x3_reduce"
  top: "inception_3a/3x3_reduce"
}
layer {
  name: "inception_3a/3x3"
  type: "Convolution"
  bottom: "inception_3a/3x3_reduce"
  top: "inception_3a/3x3"
  param {
    lr_mult: 1
    decay_mult: 1
  }
  param {
    lr_mult: 2
    decay_mult: 0
  }
  convolution_param {
    num_output: 128
    pad: 1
    kernel_size: 3
    weight_filler {
      type: "xavier"
      std: 0.03
    }
    bias_filler {
      type: "constant"
      value: 0.2
    }
  }
}
layer {
  name: "inception_3a/relu_3x3"
  type: "ReLU"
  bottom: "inception_3a/3x3"
  top: "inception_3a/3x3"
}
layer {
  name: "inception_3a/5x5_reduce"
  type: "Convolution"
  bottom: "pool2/3x3_s2"
  top: "inception_3a/5x5_reduce"
  param {
    lr_mult: 1
    decay_mult: 1
  }
  param {
    lr_mult: 2
    decay_mult: 0
  }
  convolution_param {
    num_output: 16
    kernel_size: 1
    weight_filler {
      type: "xavier"
      std: 0.2
    }
    bias_filler {
      type: "constant"
      value: 0.2
    }
  }
}
layer {
  name: "inception_3a/relu_5x5_reduce"
  type: "ReLU"
  bottom: "inception_3a/5x5_reduce"
  top: "inception_3a/5x5_reduce"
}
layer {
  name: "inception_3a/5x5"
  type: "Convolution"
  bottom: "inception_3a/5x5_reduce"
  top: "inception_3a/5x5"
  param {
    lr_mult: 1
    decay_mult: 1
  }
  param {
    lr_mult: 2
    decay_mult: 0
  }
  convolution_param {
    num_output: 32
    pad: 2
    kernel_size: 5
    weight_filler {
      type: "xavier"
      std: 0.03
    }
    bias_filler {
      type: "constant"
      value: 0.2
    }
  }
}
layer {
  name: "inception_3a/relu_5x5"
  type: "ReLU"
  bottom: "inception_3a/5x5"
  top: "inception_3a/5x5"
}
layer {
  name: "inception_3a/pool"
  type: "Pooling"
  bottom: "pool2/3x3_s2"
  top: "inception_3a/pool"
  pooling_param {
    pool: MAX
    kernel_size: 3
    stride: 1
    pad: 1
  }
}
layer {
  name: "inception_3a/pool_proj"
  type: "Convolution"
  bottom: "inception_3a/pool"
  top: "inception_3a/pool_proj"
  param {
    lr_mult: 1
    decay_mult: 1
  }
  param {
    lr_mult: 2
    decay_mult: 0
  }
  convolution_param {
    num_output: 32
    kernel_size: 1
    weight_filler {
      type: "xavier"
      std: 0.1
    }
    bias_filler {
      type: "constant"
      value: 0.2
    }
  }
}
layer {
  name: "inception_3a/relu_pool_proj"
  type: "ReLU"
  bottom: "inception_3a/pool_proj"
  top: "inception_3a/pool_proj"
}
layer {
  name: "inception_3a/output"
  type: "Concat"
  bottom: "inception_3a/1x1"
  bottom: "inception_3a/3x3"
  bottom: "inception_3a/5x5"
  bottom: "inception_3a/pool_proj"
  top: "inception_3a/output"
}
layer {
  name: "inception_3b/1x1"
  type: "Convolution"
  bottom: "inception_3a/output"
  top: "inception_3b/1x1"
  param {
    lr_mult: 1
    decay_mult: 1
  }
  param {
    lr_mult: 2
    decay_mult: 0
  }
  convolution_param {
    num_output: 128
    kernel_size: 1
    weight_filler {
      type: "xavier"
      std: 0.03
    }
    bias_filler {
      type: "constant"
      value: 0.2
    }
  }
}
layer {
  name: "inception_3b/relu_1x1"
  type: "ReLU"
  bottom: "inception_3b/1x1"
  top: "inception_3b/1x1"
}
layer {
  name: "inception_3b/3x3_reduce"
  type: "Convolution"
  bottom: "inception_3a/output"
  top: "inception_3b/3x3_reduce"
  param {
    lr_mult: 1
    decay_mult: 1
  }
  param {
    lr_mult: 2
    decay_mult: 0
  }
  convolution_param {
    num_output: 128
    kernel_size: 1
    weight_filler {
      type: "xavier"
      std: 0.09
    }
    bias_filler {
      type: "constant"
      value: 0.2
    }
  }
}
layer {
  name: "inception_3b/relu_3x3_reduce"
  type: "ReLU"
  bottom: "inception_3b/3x3_reduce"
  top: "inception_3b/3x3_reduce"
}
layer {
  name: "inception_3b/3x3"
  type: "Convolution"
  bottom: "inception_3b/3x3_reduce"
  top: "inception_3b/3x3"
  param {
    lr_mult: 1
    decay_mult: 1
  }
  param {
    lr_mult: 2
    decay_mult: 0
  }
  convolution_param {
    num_output: 192
    pad: 1
    kernel_size: 3
    weight_filler {
      type: "xavier"
      std: 0.03
    }
    bias_filler {
      type: "constant"
      value: 0.2
    }
  }
}
layer {
  name: "inception_3b/relu_3x3"
  type: "ReLU"
  bottom: "inception_3b/3x3"
  top: "inception_3b/3x3"
}
layer {
  name: "inception_3b/5x5_reduce"
  type: "Convolution"
  bottom: "inception_3a/output"
  top: "inception_3b/5x5_reduce"
  param {
    lr_mult: 1
    decay_mult: 1
  }
  param {
    lr_mult: 2
    decay_mult: 0
  }
  convolution_param {
    num_output: 32
    kernel_size: 1
    weight_filler {
      type: "xavier"
      std: 0.2
    }
    bias_filler {
      type: "constant"
      value: 0.2
    }
  }
}
layer {
  name: "inception_3b/relu_5x5_reduce"
  type: "ReLU"
  bottom: "inception_3b/5x5_reduce"
  top: "inception_3b/5x5_reduce"
}
layer {
  name: "inception_3b/5x5"
  type: "Convolution"
  bottom: "inception_3b/5x5_reduce"
  top: "inception_3b/5x5"
  param {
    lr_mult: 1
    decay_mult: 1
  }
  param {
    lr_mult: 2
    decay_mult: 0
  }
  convolution_param {
    num_output: 96
    pad: 2
    kernel_size: 5
    weight_filler {
      type: "xavier"
      std: 0.03
    }
    bias_filler {
      type: "constant"
      value: 0.2
    }
  }
}
layer {
  name: "inception_3b/relu_5x5"
  type: "ReLU"
  bottom: "inception_3b/5x5"
  top: "inception_3b/5x5"
}
layer {
  name: "inception_3b/pool"
  type: "Pooling"
  bottom: "inception_3a/output"
  top: "inception_3b/pool"
  pooling_param {
    pool: MAX
    kernel_size: 3
    stride: 1
    pad: 1
  }
}
layer {
  name: "inception_3b/pool_proj"
  type: "Convolution"
  bottom: "inception_3b/pool"
  top: "inception_3b/pool_proj"
  param {
    lr_mult: 1
    decay_mult: 1
  }
  param {
    lr_mult: 2
    decay_mult: 0
  }
  convolution_param {
    num_output: 64
    kernel_size: 1
    weight_filler {
      type: "xavier"
      std: 0.1
    }
    bias_filler {
      type: "constant"
      value: 0.2
    }
  }
}
layer {
  name: "inception_3b/relu_pool_proj"
  type: "ReLU"
  bottom: "inception_3b/pool_proj"
  top: "inception_3b/pool_proj"
}
layer {
  name: "inception_3b/output"
  type: "Concat"
  bottom: "inception_3b/1x1"
  bottom: "inception_3b/3x3"
  bottom: "inception_3b/5x5"
  bottom: "inception_3b/pool_proj"
  top: "inception_3b/output"
}
layer {
  name: "pool3/3x3_s2"
  type: "Pooling"
  bottom: "inception_3b/output"
  top: "pool3/3x3_s2"
  pooling_param {
    pool: MAX
    kernel_size: 3
    stride: 2
  }
}
layer {
  name: "inception_4a/1x1"
  type: "Convolution"
  bottom: "pool3/3x3_s2"
  top: "inception_4a/1x1"
  param {
    lr_mult: 1
    decay_mult: 1
  }
  param {
    lr_mult: 2
    decay_mult: 0
  }
  convolution_param {
    num_output: 192
    kernel_size: 1
    weight_filler {
      type: "xavier"
      std: 0.03
    }
    bias_filler {
      type: "constant"
      value: 0.2
    }
  }
}
layer {
  name: "inception_4a/relu_1x1"
  type: "ReLU"
  bottom: "inception_4a/1x1"
  top: "inception_4a/1x1"
}
layer {
  name: "inception_4a/3x3_reduce"
  type: "Convolution"
  bottom: "pool3/3x3_s2"
  top: "inception_4a/3x3_reduce"
  param {
    lr_mult: 1
    decay_mult: 1
  }
  param {
    lr_mult: 2
    decay_mult: 0
  }
  convolution_param {
    num_output: 96
    kernel_size: 1
    weight_filler {
      type: "xavier"
      std: 0.09
    }
    bias_filler {
      type: "constant"
      value: 0.2
    }
  }
}
layer {
  name: "inception_4a/relu_3x3_reduce"
  type: "ReLU"
  bottom: "inception_4a/3x3_reduce"
  top: "inception_4a/3x3_reduce"
}
layer {
  name: "inception_4a/3x3"
  type: "Convolution"
  bottom: "inception_4a/3x3_reduce"
  top: "inception_4a/3x3"
  param {
    lr_mult: 1
    decay_mult: 1
  }
  param {
    lr_mult: 2
    decay_mult: 0
  }
  convolution_param {
    num_output: 208
    pad: 1
    kernel_size: 3
    weight_filler {
      type: "xavier"
      std: 0.03
    }
    bias_filler {
      type: "constant"
      value: 0.2
    }
  }
}
layer {
  name: "inception_4a/relu_3x3"
  type: "ReLU"
  bottom: "inception_4a/3x3"
  top: "inception_4a/3x3"
}
layer {
  name: "inception_4a/5x5_reduce"
  type: "Convolution"
  bottom: "pool3/3x3_s2"
  top: "inception_4a/5x5_reduce"
  param {
    lr_mult: 1
    decay_mult: 1
  }
  param {
    lr_mult: 2
    decay_mult: 0
  }
  convolution_param {
    num_output: 16
    kernel_size: 1
    weight_filler {
      type: "xavier"
      std: 0.2
    }
    bias_filler {
      type: "constant"
      value: 0.2
    }
  }
}
layer {
  name: "inception_4a/relu_5x5_reduce"
  type: "ReLU"
  bottom: "inception_4a/5x5_reduce"
  top: "inception_4a/5x5_reduce"
}
layer {
  name: "inception_4a/5x5"
  type: "Convolution"
  bottom: "inception_4a/5x5_reduce"
  top: "inception_4a/5x5"
  param {
    lr_mult: 1
    decay_mult: 1
  }
  param {
    lr_mult: 2
    decay_mult: 0
  }
  convolution_param {
    num_output: 48
    pad: 2
    kernel_size: 5
    weight_filler {
      type: "xavier"
      std: 0.03
    }
    bias_filler {
      type: "constant"
      value: 0.2
    }
  }
}
layer {
  name: "inception_4a/relu_5x5"
  type: "ReLU"
  bottom: "inception_4a/5x5"
  top: "inception_4a/5x5"
}
layer {
  name: "inception_4a/pool"
  type: "Pooling"
  bottom: "pool3/3x3_s2"
  top: "inception_4a/pool"
  pooling_param {
    pool: MAX
    kernel_size: 3
    stride: 1
    pad: 1
  }
}
layer {
  name: "inception_4a/pool_proj"
  type: "Convolution"
  bottom: "inception_4a/pool"
  top: "inception_4a/pool_proj"
  param {
    lr_mult: 1
    decay_mult: 1
  }
  param {
    lr_mult: 2
    decay_mult: 0
  }
  convolution_param {
    num_output: 64
    kernel_size: 1
    weight_filler {
      type: "xavier"
      std: 0.1
    }
    bias_filler {
      type: "constant"
      value: 0.2
    }
  }
}
layer {
  name: "inception_4a/relu_pool_proj"
  type: "ReLU"
  bottom: "inception_4a/pool_proj"
  top: "inception_4a/pool_proj"
}
layer {
  name: "inception_4a/output"
  type: "Concat"
  bottom: "inception_4a/1x1"
  bottom: "inception_4a/3x3"
  bottom: "inception_4a/5x5"
  bottom: "inception_4a/pool_proj"
  top: "inception_4a/output"
}
layer {
  name: "loss1/ave_pool"
  type: "Pooling"
  bottom: "inception_4a/output"
  top: "loss1/ave_pool"
  pooling_param {
    pool: AVE
    kernel_size: 5
    stride: 3
  }
}
layer {
  name: "loss1/conv"
  type: "Convolution"
  bottom: "loss1/ave_pool"
  top: "loss1/conv"
  param {
    lr_mult: 1
    decay_mult: 1
  }
  param {
    lr_mult: 2
    decay_mult: 0
  }
  convolution_param {
    num_output: 128
    kernel_size: 1
    weight_filler {
      type: "xavier"
      std: 0.08
    }
    bias_filler {
      type: "constant"
      value: 0.2
    }
  }
}
layer {
  name: "loss1/relu_conv"
  type: "ReLU"
  bottom: "loss1/conv"
  top: "loss1/conv"
}
layer {
  name: "loss1/fc"
  type: "InnerProduct"
  bottom: "loss1/conv"
  top: "loss1/fc"
  param {
    lr_mult: 1
    decay_mult: 1
  }
  param {
    lr_mult: 2
    decay_mult: 0
  }
  inner_product_param {
    num_output: 1024
    weight_filler {
      type: "xavier"
      std: 0.02
    }
    bias_filler {
      type: "constant"
      value: 0.2
    }
  }
}
layer {
  name: "loss1/relu_fc"
  type: "ReLU"
  bottom: "loss1/fc"
  top: "loss1/fc"
}
layer {
  name: "loss1/drop_fc"
  type: "Dropout"
  bottom: "loss1/fc"
  top: "loss1/fc"
  dropout_param {
    dropout_ratio: 0.7
  }
}
layer {
  name: "loss1/classifier_plantvillage"
  type: "InnerProduct"
  bottom: "loss1/fc"
  top: "loss1/classifier_plantvillage"
  param {
    lr_mult: 1
    decay_mult: 1
  }
  param {
    lr_mult: 2
    decay_mult: 0
  }
  inner_product_param {
    num_output: 38
    weight_filler {
      type: "xavier"
      std: 0.0009765625
    }
    bias_filler {
      type: "constant"
      value: 0
    }
  }
}
layer {
  name: "inception_4b/1x1"
  type: "Convolution"
  bottom: "inception_4a/output"
  top: "inception_4b/1x1"
  param {
    lr_mult: 1
    decay_mult: 1
  }
  param {
    lr_mult: 2
    decay_mult: 0
  }
  convolution_param {
    num_output: 160
    kernel_size: 1
    weight_filler {
      type: "xavier"
      std: 0.03
    }
    bias_filler {
      type: "constant"
      value: 0.2
    }
  }
}
layer {
  name: "inception_4b/relu_1x1"
  type: "ReLU"
  bottom: "inception_4b/1x1"
  top: "inception_4b/1x1"
}
layer {
  name: "inception_4b/3x3_reduce"
  type: "Convolution"
  bottom: "inception_4a/output"
  top: "inception_4b/3x3_reduce"
  param {
    lr_mult: 1
    decay_mult: 1
  }
  param {
    lr_mult: 2
    decay_mult: 0
  }
  convolution_param {
    num_output: 112
    kernel_size: 1
    weight_filler {
      type: "xavier"
      std: 0.09
    }
    bias_filler {
      type: "constant"
      value: 0.2
    }
  }
}
layer {
  name: "inception_4b/relu_3x3_reduce"
  type: "ReLU"
  bottom: "inception_4b/3x3_reduce"
  top: "inception_4b/3x3_reduce"
}
layer {
  name: "inception_4b/3x3"
  type: "Convolution"
  bottom: "inception_4b/3x3_reduce"
  top: "inception_4b/3x3"
  param {
    lr_mult: 1
    decay_mult: 1
  }
  param {
    lr_mult: 2
    decay_mult: 0
  }
  convolution_param {
    num_output: 224
    pad: 1
    kernel_size: 3
    weight_filler {
      type: "xavier"
      std: 0.03
    }
    bias_filler {
      type: "constant"
      value: 0.2
    }
  }
}
layer {
  name: "inception_4b/relu_3x3"
  type: "ReLU"
  bottom: "inception_4b/3x3"
  top: "inception_4b/3x3"
}
layer {
  name: "inception_4b/5x5_reduce"
  type: "Convolution"
  bottom: "inception_4a/output"
  top: "inception_4b/5x5_reduce"
  param {
    lr_mult: 1
    decay_mult: 1
  }
  param {
    lr_mult: 2
    decay_mult: 0
  }
  convolution_param {
    num_output: 24
    kernel_size: 1
    weight_filler {
      type: "xavier"
      std: 0.2
    }
    bias_filler {
      type: "constant"
      value: 0.2
    }
  }
}
layer {
  name: "inception_4b/relu_5x5_reduce"
  type: "ReLU"
  bottom: "inception_4b/5x5_reduce"
  top: "inception_4b/5x5_reduce"
}
layer {
  name: "inception_4b/5x5"
  type: "Convolution"
  bottom: "inception_4b/5x5_reduce"
  top: "inception_4b/5x5"
  param {
    lr_mult: 1
    decay_mult: 1
  }
  param {
    lr_mult: 2
    decay_mult: 0
  }
  convolution_param {
    num_output: 64
    pad: 2
    kernel_size: 5
    weight_filler {
      type: "xavier"
      std: 0.03
    }
    bias_filler {
      type: "constant"
      value: 0.2
    }
  }
}
layer {
  name: "inception_4b/relu_5x5"
  type: "ReLU"
  bottom: "inception_4b/5x5"
  top: "inception_4b/5x5"
}
layer {
  name: "inception_4b/pool"
  type: "Pooling"
  bottom: "inception_4a/output"
  top: "inception_4b/pool"
  pooling_param {
    pool: MAX
    kernel_size: 3
    stride: 1
    pad: 1
  }
}
layer {
  name: "inception_4b/pool_proj"
  type: "Convolution"
  bottom: "inception_4b/pool"
  top: "inception_4b/pool_proj"
  param {
    lr_mult: 1
    decay_mult: 1
  }
  param {
    lr_mult: 2
    decay_mult: 0
  }
  convolution_param {
    num_output: 64
    kernel_size: 1
    weight_filler {
      type: "xavier"
      std: 0.1
    }
    bias_filler {
      type: "constant"
      value: 0.2
    }
  }
}
layer {
  name: "inception_4b/relu_pool_proj"
  type: "ReLU"
  bottom: "inception_4b/pool_proj"
  top: "inception_4b/pool_proj"
}
layer {
  name: "inception_4b/output"
  type: "Concat"
  bottom: "inception_4b/1x1"
  bottom: "inception_4b/3x3"
  bottom: "inception_4b/5x5"
  bottom: "inception_4b/pool_proj"
  top: "inception_4b/output"
}
layer {
  name: "inception_4c/1x1"
  type: "Convolution"
  bottom: "inception_4b/output"
  top: "inception_4c/1x1"
  param {
    lr_mult: 1
    decay_mult: 1
  }
  param {
    lr_mult: 2
    decay_mult: 0
  }
  convolution_param {
    num_output: 128
    kernel_size: 1
    weight_filler {
      type: "xavier"
      std: 0.03
    }
    bias_filler {
      type: "constant"
      value: 0.2
    }
  }
}
layer {
  name: "inception_4c/relu_1x1"
  type: "ReLU"
  bottom: "inception_4c/1x1"
  top: "inception_4c/1x1"
}
layer {
  name: "inception_4c/3x3_reduce"
  type: "Convolution"
  bottom: "inception_4b/output"
  top: "inception_4c/3x3_reduce"
  param {
    lr_mult: 1
    decay_mult: 1
  }
  param {
    lr_mult: 2
    decay_mult: 0
  }
  convolution_param {
    num_output: 128
    kernel_size: 1
    weight_filler {
      type: "xavier"
      std: 0.09
    }
    bias_filler {
      type: "constant"
      value: 0.2
    }
  }
}
layer {
  name: "inception_4c/relu_3x3_reduce"
  type: "ReLU"
  bottom: "inception_4c/3x3_reduce"
  top: "inception_4c/3x3_reduce"
}
layer {
  name: "inception_4c/3x3"
  type: "Convolution"
  bottom: "inception_4c/3x3_reduce"
  top: "inception_4c/3x3"
  param {
    lr_mult: 1
    decay_mult: 1
  }
  param {
    lr_mult: 2
    decay_mult: 0
  }
  convolution_param {
    num_output: 256
    pad: 1
    kernel_size: 3
    weight_filler {
      type: "xavier"
      std: 0.03
    }
    bias_filler {
      type: "constant"
      value: 0.2
    }
  }
}
layer {
  name: "inception_4c/relu_3x3"
  type: "ReLU"
  bottom: "inception_4c/3x3"
  top: "inception_4c/3x3"
}
layer {
  name: "inception_4c/5x5_reduce"
  type: "Convolution"
  bottom: "inception_4b/output"
  top: "inception_4c/5x5_reduce"
  param {
    lr_mult: 1
    decay_mult: 1
  }
  param {
    lr_mult: 2
    decay_mult: 0
  }
  convolution_param {
    num_output: 24
    kernel_size: 1
    weight_filler {
      type: "xavier"
      std: 0.2
    }
    bias_filler {
      type: "constant"
      value: 0.2
    }
  }
}
layer {
  name: "inception_4c/relu_5x5_reduce"
  type: "ReLU"
  bottom: "inception_4c/5x5_reduce"
  top: "inception_4c/5x5_reduce"
}
layer {
  name: "inception_4c/5x5"
  type: "Convolution"
  bottom: "inception_4c/5x5_reduce"
  top: "inception_4c/5x5"
  param {
    lr_mult: 1
    decay_mult: 1
  }
  param {
    lr_mult: 2
    decay_mult: 0
  }
  convolution_param {
    num_output: 64
    pad: 2
    kernel_size: 5
    weight_filler {
      type: "xavier"
      std: 0.03
    }
    bias_filler {
      type: "constant"
      value: 0.2
    }
  }
}
layer {
  name: "inception_4c/relu_5x5"
  type: "ReLU"
  bottom: "inception_4c/5x5"
  top: "inception_4c/5x5"
}
layer {
  name: "inception_4c/pool"
  type: "Pooling"
  bottom: "inception_4b/output"
  top: "inception_4c/pool"
  pooling_param {
    pool: MAX
    kernel_size: 3
    stride: 1
    pad: 1
  }
}
layer {
  name: "inception_4c/pool_proj"
  type: "Convolution"
  bottom: "inception_4c/pool"
  top: "inception_4c/pool_proj"
  param {
    lr_mult: 1
    decay_mult: 1
  }
  param {
    lr_mult: 2
    decay_mult: 0
  }
  convolution_param {
    num_output: 64
    kernel_size: 1
    weight_filler {
      type: "xavier"
      std: 0.1
    }
    bias_filler {
      type: "constant"
      value: 0.2
    }
  }
}
layer {
  name: "inception_4c/relu_pool_proj"
  type: "ReLU"
  bottom: "inception_4c/pool_proj"
  top: "inception_4c/pool_proj"
}
layer {
  name: "inception_4c/output"
  type: "Concat"
  bottom: "inception_4c/1x1"
  bottom: "inception_4c/3x3"
  bottom: "inception_4c/5x5"
  bottom: "inception_4c/pool_proj"
  top: "inception_4c/output"
}
layer {
  name: "inception_4d/1x1"
  type: "Convolution"
  bottom: "inception_4c/output"
  top: "inception_4d/1x1"
  param {
    lr_mult: 1
    decay_mult: 1
  }
  param {
    lr_mult: 2
    decay_mult: 0
  }
  convolution_param {
    num_output: 112
    kernel_size: 1
    weight_filler {
      type: "xavier"
      std: 0.03
    }
    bias_filler {
      type: "constant"
      value: 0.2
    }
  }
}
layer {
  name: "inception_4d/relu_1x1"
  type: "ReLU"
  bottom: "inception_4d/1x1"
  top: "inception_4d/1x1"
}
layer {
  name: "inception_4d/3x3_reduce"
  type: "Convolution"
  bottom: "inception_4c/output"
  top: "inception_4d/3x3_reduce"
  param {
    lr_mult: 1
    decay_mult: 1
  }
  param {
    lr_mult: 2
    decay_mult: 0
  }
  convolution_param {
    num_output: 144
    kernel_size: 1
    weight_filler {
      type: "xavier"
      std: 0.09
    }
    bias_filler {
      type: "constant"
      value: 0.2
    }
  }
}
layer {
  name: "inception_4d/relu_3x3_reduce"
  type: "ReLU"
  bottom: "inception_4d/3x3_reduce"
  top: "inception_4d/3x3_reduce"
}
layer {
  name: "inception_4d/3x3"
  type: "Convolution"
  bottom: "inception_4d/3x3_reduce"
  top: "inception_4d/3x3"
  param {
    lr_mult: 1
    decay_mult: 1
  }
  param {
    lr_mult: 2
    decay_mult: 0
  }
  convolution_param {
    num_output: 288
    pad: 1
    kernel_size: 3
    weight_filler {
      type: "xavier"
      std: 0.03
    }
    bias_filler {
      type: "constant"
      value: 0.2
    }
  }
}
layer {
  name: "inception_4d/relu_3x3"
  type: "ReLU"
  bottom: "inception_4d/3x3"
  top: "inception_4d/3x3"
}
layer {
  name: "inception_4d/5x5_reduce"
  type: "Convolution"
  bottom: "inception_4c/output"
  top: "inception_4d/5x5_reduce"
  param {
    lr_mult: 1
    decay_mult: 1
  }
  param {
    lr_mult: 2
    decay_mult: 0
  }
  convolution_param {
    num_output: 32
    kernel_size: 1
    weight_filler {
      type: "xavier"
      std: 0.2
    }
    bias_filler {
      type: "constant"
      value: 0.2
    }
  }
}
layer {
  name: "inception_4d/relu_5x5_reduce"
  type: "ReLU"
  bottom: "inception_4d/5x5_reduce"
  top: "inception_4d/5x5_reduce"
}
layer {
  name: "inception_4d/5x5"
  type: "Convolution"
  bottom: "inception_4d/5x5_reduce"
  top: "inception_4d/5x5"
  param {
    lr_mult: 1
    decay_mult: 1
  }
  param {
    lr_mult: 2
    decay_mult: 0
  }
  convolution_param {
    num_output: 64
    pad: 2
    kernel_size: 5
    weight_filler {
      type: "xavier"
      std: 0.03
    }
    bias_filler {
      type: "constant"
      value: 0.2
    }
  }
}
layer {
  name: "inception_4d/relu_5x5"
  type: "ReLU"
  bottom: "inception_4d/5x5"
  top: "inception_4d/5x5"
}
layer {
  name: "inception_4d/pool"
  type: "Pooling"
  bottom: "inception_4c/output"
  top: "inception_4d/pool"
  pooling_param {
    pool: MAX
    kernel_size: 3
    stride: 1
    pad: 1
  }
}
layer {
  name: "inception_4d/pool_proj"
  type: "Convolution"
  bottom: "inception_4d/pool"
  top: "inception_4d/pool_proj"
  param {
    lr_mult: 1
    decay_mult: 1
  }
  param {
    lr_mult: 2
    decay_mult: 0
  }
  convolution_param {
    num_output: 64
    kernel_size: 1
    weight_filler {
      type: "xavier"
      std: 0.1
    }
    bias_filler {
      type: "constant"
      value: 0.2
    }
  }
}
layer {
  name: "inception_4d/relu_pool_proj"
  type: "ReLU"
  bottom: "inception_4d/pool_proj"
  top: "inception_4d/pool_proj"
}
layer {
  name: "inception_4d/output"
  type: "Concat"
  bottom: "inception_4d/1x1"
  bottom: "inception_4d/3x3"
  bottom: "inception_4d/5x5"
  bottom: "inception_4d/pool_proj"
  top: "inception_4d/output"
}
layer {
  name: "loss2/ave_pool"
  type: "Pooling"
  bottom: "inception_4d/output"
  top: "loss2/ave_pool"
  pooling_param {
    pool: AVE
    kernel_size: 5
    stride: 3
  }
}
layer {
  name: "loss2/conv"
  type: "Convolution"
  bottom: "loss2/ave_pool"
  top: "loss2/conv"
  param {
    lr_mult: 1
    decay_mult: 1
  }
  param {
    lr_mult: 2
    decay_mult: 0
  }
  convolution_param {
    num_output: 128
    kernel_size: 1
    weight_filler {
      type: "xavier"
      std: 0.08
    }
    bias_filler {
      type: "constant"
      value: 0.2
    }
  }
}
layer {
  name: "loss2/relu_conv"
  type: "ReLU"
  bottom: "loss2/conv"
  top: "loss2/conv"
}
layer {
  name: "loss2/fc"
  type: "InnerProduct"
  bottom: "loss2/conv"
  top: "loss2/fc"
  param {
    lr_mult: 1
    decay_mult: 1
  }
  param {
    lr_mult: 2
    decay_mult: 0
  }
  inner_product_param {
    num_output: 1024
    weight_filler {
      type: "xavier"
      std: 0.02
    }
    bias_filler {
      type: "constant"
      value: 0.2
    }
  }
}
layer {
  name: "loss2/relu_fc"
  type: "ReLU"
  bottom: "loss2/fc"
  top: "loss2/fc"
}
layer {
  name: "loss2/drop_fc"
  type: "Dropout"
  bottom: "loss2/fc"
  top: "loss2/fc"
  dropout_param {
    dropout_ratio: 0.7
  }
}
layer {
  name: "loss2/classifier_plantvillage"
  type: "InnerProduct"
  bottom: "loss2/fc"
  top: "loss2/classifier_plantvillage"
  param {
    lr_mult: 1
    decay_mult: 1
  }
  param {
    lr_mult: 2
    decay_mult: 0
  }
  inner_product_param {
    num_output: 38
    weight_filler {
      type: "xavier"
      std: 0.0009765625
    }
    bias_filler {
      type: "constant"
      value: 0
    }
  }
}
layer {
  name: "inception_4e/1x1"
  type: "Convolution"
  bottom: "inception_4d/output"
  top: "inception_4e/1x1"
  param {
    lr_mult: 1
    decay_mult: 1
  }
  param {
    lr_mult: 2
    decay_mult: 0
  }
  convolution_param {
    num_output: 256
    kernel_size: 1
    weight_filler {
      type: "xavier"
      std: 0.03
    }
    bias_filler {
      type: "constant"
      value: 0.2
    }
  }
}
layer {
  name: "inception_4e/relu_1x1"
  type: "ReLU"
  bottom: "inception_4e/1x1"
  top: "inception_4e/1x1"
}
layer {
  name: "inception_4e/3x3_reduce"
  type: "Convolution"
  bottom: "inception_4d/output"
  top: "inception_4e/3x3_reduce"
  param {
    lr_mult: 1
    decay_mult: 1
  }
  param {
    lr_mult: 2
    decay_mult: 0
  }
  convolution_param {
    num_output: 160
    kernel_size: 1
    weight_filler {
      type: "xavier"
      std: 0.09
    }
    bias_filler {
      type: "constant"
      value: 0.2
    }
  }
}
layer {
  name: "inception_4e/relu_3x3_reduce"
  type: "ReLU"
  bottom: "inception_4e/3x3_reduce"
  top: "inception_4e/3x3_reduce"
}
layer {
  name: "inception_4e/3x3"
  type: "Convolution"
  bottom: "inception_4e/3x3_reduce"
  top: "inception_4e/3x3"
  param {
    lr_mult: 1
    decay_mult: 1
  }
  param {
    lr_mult: 2
    decay_mult: 0
  }
  convolution_param {
    num_output: 320
    pad: 1
    kernel_size: 3
    weight_filler {
      type: "xavier"
      std: 0.03
    }
    bias_filler {
      type: "constant"
      value: 0.2
    }
  }
}
layer {
  name: "inception_4e/relu_3x3"
  type: "ReLU"
  bottom: "inception_4e/3x3"
  top: "inception_4e/3x3"
}
layer {
  name: "inception_4e/5x5_reduce"
  type: "Convolution"
  bottom: "inception_4d/output"
  top: "inception_4e/5x5_reduce"
  param {
    lr_mult: 1
    decay_mult: 1
  }
  param {
    lr_mult: 2
    decay_mult: 0
  }
  convolution_param {
    num_output: 32
    kernel_size: 1
    weight_filler {
      type: "xavier"
      std: 0.2
    }
    bias_filler {
      type: "constant"
      value: 0.2
    }
  }
}
layer {
  name: "inception_4e/relu_5x5_reduce"
  type: "ReLU"
  bottom: "inception_4e/5x5_reduce"
  top: "inception_4e/5x5_reduce"
}
layer {
  name: "inception_4e/5x5"
  type: "Convolution"
  bottom: "inception_4e/5x5_reduce"
  top: "inception_4e/
I0403 15:59:35.794725 20598 layer_factory.hpp:77] Creating layer data
I0403 15:59:35.795320 20598 net.cpp:91] Creating Layer data
I0403 15:59:35.795351 20598 net.cpp:399] data -> data
I0403 15:59:35.795402 20598 net.cpp:399] data -> label
I0403 15:59:35.795439 20598 data_transformer.cpp:25] Loading mean file from: /home/mohanty/data/final_dataset/lmdb/grayscale-20-80/mean.binaryproto
I0403 15:59:35.796644 20601 db_lmdb.cpp:38] Opened lmdb /home/mohanty/data/final_dataset/lmdb/grayscale-20-80/test_db
I0403 15:59:35.808346 20598 data_layer.cpp:41] output data size: 24,3,224,224
I0403 15:59:35.836086 20598 net.cpp:141] Setting up data
I0403 15:59:35.836186 20598 net.cpp:148] Top shape: 24 3 224 224 (3612672)
I0403 15:59:35.836210 20598 net.cpp:148] Top shape: 24 (24)
I0403 15:59:35.836225 20598 net.cpp:156] Memory required for data: 14450784
I0403 15:59:35.836253 20598 layer_factory.hpp:77] Creating layer label_data_1_split
I0403 15:59:35.836282 20598 net.cpp:91] Creating Layer label_data_1_split
I0403 15:59:35.836299 20598 net.cpp:425] label_data_1_split <- label
I0403 15:59:35.836333 20598 net.cpp:399] label_data_1_split -> label_data_1_split_0
I0403 15:59:35.836361 20598 net.cpp:399] label_data_1_split -> label_data_1_split_1
I0403 15:59:35.836383 20598 net.cpp:399] label_data_1_split -> label_data_1_split_2
I0403 15:59:35.836405 20598 net.cpp:399] label_data_1_split -> label_data_1_split_3
I0403 15:59:35.836426 20598 net.cpp:399] label_data_1_split -> label_data_1_split_4
I0403 15:59:35.836446 20598 net.cpp:399] label_data_1_split -> label_data_1_split_5
I0403 15:59:35.836467 20598 net.cpp:399] label_data_1_split -> label_data_1_split_6
I0403 15:59:35.836488 20598 net.cpp:399] label_data_1_split -> label_data_1_split_7
I0403 15:59:35.836508 20598 net.cpp:399] label_data_1_split -> label_data_1_split_8
I0403 15:59:35.836529 20598 net.cpp:399] label_data_1_split -> label_data_1_split_9
I0403 15:59:35.836647 20598 net.cpp:141] Setting up label_data_1_split
I0403 15:59:35.836671 20598 net.cpp:148] Top shape: 24 (24)
I0403 15:59:35.836688 20598 net.cpp:148] Top shape: 24 (24)
I0403 15:59:35.836705 20598 net.cpp:148] Top shape: 24 (24)
I0403 15:59:35.836722 20598 net.cpp:148] Top shape: 24 (24)
I0403 15:59:35.836738 20598 net.cpp:148] Top shape: 24 (24)
I0403 15:59:35.836755 20598 net.cpp:148] Top shape: 24 (24)
I0403 15:59:35.836771 20598 net.cpp:148] Top shape: 24 (24)
I0403 15:59:35.836786 20598 net.cpp:148] Top shape: 24 (24)
I0403 15:59:35.836802 20598 net.cpp:148] Top shape: 24 (24)
I0403 15:59:35.836819 20598 net.cpp:148] Top shape: 24 (24)
I0403 15:59:35.836865 20598 net.cpp:156] Memory required for data: 14451744
I0403 15:59:35.836882 20598 layer_factory.hpp:77] Creating layer conv1/7x7_s2
I0403 15:59:35.836915 20598 net.cpp:91] Creating Layer conv1/7x7_s2
I0403 15:59:35.836933 20598 net.cpp:425] conv1/7x7_s2 <- data
I0403 15:59:35.836953 20598 net.cpp:399] conv1/7x7_s2 -> conv1/7x7_s2
I0403 15:59:35.979063 20598 net.cpp:141] Setting up conv1/7x7_s2
I0403 15:59:35.979148 20598 net.cpp:148] Top shape: 24 64 112 112 (19267584)
I0403 15:59:35.979166 20598 net.cpp:156] Memory required for data: 91522080
I0403 15:59:35.979197 20598 layer_factory.hpp:77] Creating layer conv1/relu_7x7
I0403 15:59:35.979224 20598 net.cpp:91] Creating Layer conv1/relu_7x7
I0403 15:59:35.979244 20598 net.cpp:425] conv1/relu_7x7 <- conv1/7x7_s2
I0403 15:59:35.979264 20598 net.cpp:386] conv1/relu_7x7 -> conv1/7x7_s2 (in-place)
I0403 15:59:35.979555 20598 net.cpp:141] Setting up conv1/relu_7x7
I0403 15:59:35.979584 20598 net.cpp:148] Top shape: 24 64 112 112 (19267584)
I0403 15:59:35.979600 20598 net.cpp:156] Memory required for data: 168592416
I0403 15:59:35.979615 20598 layer_factory.hpp:77] Creating layer pool1/3x3_s2
I0403 15:59:35.979641 20598 net.cpp:91] Creating Layer pool1/3x3_s2
I0403 15:59:35.979660 20598 net.cpp:425] pool1/3x3_s2 <- conv1/7x7_s2
I0403 15:59:35.979678 20598 net.cpp:399] pool1/3x3_s2 -> pool1/3x3_s2
I0403 15:59:35.979754 20598 net.cpp:141] Setting up pool1/3x3_s2
I0403 15:59:35.979779 20598 net.cpp:148] Top shape: 24 64 56 56 (4816896)
I0403 15:59:35.979795 20598 net.cpp:156] Memory required for data: 187860000
I0403 15:59:35.979809 20598 layer_factory.hpp:77] Creating layer pool1/norm1
I0403 15:59:35.979835 20598 net.cpp:91] Creating Layer pool1/norm1
I0403 15:59:35.979853 20598 net.cpp:425] pool1/norm1 <- pool1/3x3_s2
I0403 15:59:35.979871 20598 net.cpp:399] pool1/norm1 -> pool1/norm1
I0403 15:59:35.980180 20598 net.cpp:141] Setting up pool1/norm1
I0403 15:59:35.980208 20598 net.cpp:148] Top shape: 24 64 56 56 (4816896)
I0403 15:59:35.980223 20598 net.cpp:156] Memory required for data: 207127584
I0403 15:59:35.980238 20598 layer_factory.hpp:77] Creating layer conv2/3x3_reduce
I0403 15:59:35.980267 20598 net.cpp:91] Creating Layer conv2/3x3_reduce
I0403 15:59:35.980284 20598 net.cpp:425] conv2/3x3_reduce <- pool1/norm1
I0403 15:59:35.980306 20598 net.cpp:399] conv2/3x3_reduce -> conv2/3x3_reduce
I0403 15:59:35.981812 20598 net.cpp:141] Setting up conv2/3x3_reduce
I0403 15:59:35.981845 20598 net.cpp:148] Top shape: 24 64 56 56 (4816896)
I0403 15:59:35.981863 20598 net.cpp:156] Memory required for data: 226395168
I0403 15:59:35.981886 20598 layer_factory.hpp:77] Creating layer conv2/relu_3x3_reduce
I0403 15:59:35.981909 20598 net.cpp:91] Creating Layer conv2/relu_3x3_reduce
I0403 15:59:35.981925 20598 net.cpp:425] conv2/relu_3x3_reduce <- conv2/3x3_reduce
I0403 15:59:35.981941 20598 net.cpp:386] conv2/relu_3x3_reduce -> conv2/3x3_reduce (in-place)
I0403 15:59:35.982223 20598 net.cpp:141] Setting up conv2/relu_3x3_reduce
I0403 15:59:35.982254 20598 net.cpp:148] Top shape: 24 64 56 56 (4816896)
I0403 15:59:35.982271 20598 net.cpp:156] Memory required for data: 245662752
I0403 15:59:35.982287 20598 layer_factory.hpp:77] Creating layer conv2/3x3
I0403 15:59:35.982311 20598 net.cpp:91] Creating Layer conv2/3x3
I0403 15:59:35.982331 20598 net.cpp:425] conv2/3x3 <- conv2/3x3_reduce
I0403 15:59:35.982350 20598 net.cpp:399] conv2/3x3 -> conv2/3x3
I0403 15:59:35.984735 20598 net.cpp:141] Setting up conv2/3x3
I0403 15:59:35.984768 20598 net.cpp:148] Top shape: 24 192 56 56 (14450688)
I0403 15:59:35.984786 20598 net.cpp:156] Memory required for data: 303465504
I0403 15:59:35.984808 20598 layer_factory.hpp:77] Creating layer conv2/relu_3x3
I0403 15:59:35.984828 20598 net.cpp:91] Creating Layer conv2/relu_3x3
I0403 15:59:35.984844 20598 net.cpp:425] conv2/relu_3x3 <- conv2/3x3
I0403 15:59:35.984863 20598 net.cpp:386] conv2/relu_3x3 -> conv2/3x3 (in-place)
I0403 15:59:35.985044 20598 net.cpp:141] Setting up conv2/relu_3x3
I0403 15:59:35.985075 20598 net.cpp:148] Top shape: 24 192 56 56 (14450688)
I0403 15:59:35.985123 20598 net.cpp:156] Memory required for data: 361268256
I0403 15:59:35.985141 20598 layer_factory.hpp:77] Creating layer conv2/norm2
I0403 15:59:35.985162 20598 net.cpp:91] Creating Layer conv2/norm2
I0403 15:59:35.985180 20598 net.cpp:425] conv2/norm2 <- conv2/3x3
I0403 15:59:35.985199 20598 net.cpp:399] conv2/norm2 -> conv2/norm2
I0403 15:59:35.985517 20598 net.cpp:141] Setting up conv2/norm2
I0403 15:59:35.985546 20598 net.cpp:148] Top shape: 24 192 56 56 (14450688)
I0403 15:59:35.985569 20598 net.cpp:156] Memory required for data: 419071008
I0403 15:59:35.985584 20598 layer_factory.hpp:77] Creating layer pool2/3x3_s2
I0403 15:59:35.985602 20598 net.cpp:91] Creating Layer pool2/3x3_s2
I0403 15:59:35.985618 20598 net.cpp:425] pool2/3x3_s2 <- conv2/norm2
I0403 15:59:35.985637 20598 net.cpp:399] pool2/3x3_s2 -> pool2/3x3_s2
I0403 15:59:35.985695 20598 net.cpp:141] Setting up pool2/3x3_s2
I0403 15:59:35.985719 20598 net.cpp:148] Top shape: 24 192 28 28 (3612672)
I0403 15:59:35.985735 20598 net.cpp:156] Memory required for data: 433521696
I0403 15:59:35.985750 20598 layer_factory.hpp:77] Creating layer pool2/3x3_s2_pool2/3x3_s2_0_split
I0403 15:59:35.985769 20598 net.cpp:91] Creating Layer pool2/3x3_s2_pool2/3x3_s2_0_split
I0403 15:59:35.985785 20598 net.cpp:425] pool2/3x3_s2_pool2/3x3_s2_0_split <- pool2/3x3_s2
I0403 15:59:35.985805 20598 net.cpp:399] pool2/3x3_s2_pool2/3x3_s2_0_split -> pool2/3x3_s2_pool2/3x3_s2_0_split_0
I0403 15:59:35.985826 20598 net.cpp:399] pool2/3x3_s2_pool2/3x3_s2_0_split -> pool2/3x3_s2_pool2/3x3_s2_0_split_1
I0403 15:59:35.985847 20598 net.cpp:399] pool2/3x3_s2_pool2/3x3_s2_0_split -> pool2/3x3_s2_pool2/3x3_s2_0_split_2
I0403 15:59:35.985868 20598 net.cpp:399] pool2/3x3_s2_pool2/3x3_s2_0_split -> pool2/3x3_s2_pool2/3x3_s2_0_split_3
I0403 15:59:35.985942 20598 net.cpp:141] Setting up pool2/3x3_s2_pool2/3x3_s2_0_split
I0403 15:59:35.985970 20598 net.cpp:148] Top shape: 24 192 28 28 (3612672)
I0403 15:59:35.985988 20598 net.cpp:148] Top shape: 24 192 28 28 (3612672)
I0403 15:59:35.986006 20598 net.cpp:148] Top shape: 24 192 28 28 (3612672)
I0403 15:59:35.986021 20598 net.cpp:148] Top shape: 24 192 28 28 (3612672)
I0403 15:59:35.986035 20598 net.cpp:156] Memory required for data: 491324448
I0403 15:59:35.986057 20598 layer_factory.hpp:77] Creating layer inception_3a/1x1
I0403 15:59:35.986083 20598 net.cpp:91] Creating Layer inception_3a/1x1
I0403 15:59:35.986102 20598 net.cpp:425] inception_3a/1x1 <- pool2/3x3_s2_pool2/3x3_s2_0_split_0
I0403 15:59:35.986124 20598 net.cpp:399] inception_3a/1x1 -> inception_3a/1x1
I0403 15:59:35.987699 20598 net.cpp:141] Setting up inception_3a/1x1
I0403 15:59:35.987730 20598 net.cpp:148] Top shape: 24 64 28 28 (1204224)
I0403 15:59:35.987747 20598 net.cpp:156] Memory required for data: 496141344
I0403 15:59:35.987771 20598 layer_factory.hpp:77] Creating layer inception_3a/relu_1x1
I0403 15:59:35.987790 20598 net.cpp:91] Creating Layer inception_3a/relu_1x1
I0403 15:59:35.987807 20598 net.cpp:425] inception_3a/relu_1x1 <- inception_3a/1x1
I0403 15:59:35.987825 20598 net.cpp:386] inception_3a/relu_1x1 -> inception_3a/1x1 (in-place)
I0403 15:59:35.988008 20598 net.cpp:141] Setting up inception_3a/relu_1x1
I0403 15:59:35.988034 20598 net.cpp:148] Top shape: 24 64 28 28 (1204224)
I0403 15:59:35.988059 20598 net.cpp:156] Memory required for data: 500958240
I0403 15:59:35.988078 20598 layer_factory.hpp:77] Creating layer inception_3a/3x3_reduce
I0403 15:59:35.988102 20598 net.cpp:91] Creating Layer inception_3a/3x3_reduce
I0403 15:59:35.988121 20598 net.cpp:425] inception_3a/3x3_reduce <- pool2/3x3_s2_pool2/3x3_s2_0_split_1
I0403 15:59:35.988143 20598 net.cpp:399] inception_3a/3x3_reduce -> inception_3a/3x3_reduce
I0403 15:59:35.989897 20598 net.cpp:141] Setting up inception_3a/3x3_reduce
I0403 15:59:35.989931 20598 net.cpp:148] Top shape: 24 96 28 28 (1806336)
I0403 15:59:35.989949 20598 net.cpp:156] Memory required for data: 508183584
I0403 15:59:35.989974 20598 layer_factory.hpp:77] Creating layer inception_3a/relu_3x3_reduce
I0403 15:59:35.990010 20598 net.cpp:91] Creating Layer inception_3a/relu_3x3_reduce
I0403 15:59:35.990028 20598 net.cpp:425] inception_3a/relu_3x3_reduce <- inception_3a/3x3_reduce
I0403 15:59:35.990053 20598 net.cpp:386] inception_3a/relu_3x3_reduce -> inception_3a/3x3_reduce (in-place)
I0403 15:59:35.990243 20598 net.cpp:141] Setting up inception_3a/relu_3x3_reduce
I0403 15:59:35.990270 20598 net.cpp:148] Top shape: 24 96 28 28 (1806336)
I0403 15:59:35.990285 20598 net.cpp:156] Memory required for data: 515408928
I0403 15:59:35.990300 20598 layer_factory.hpp:77] Creating layer inception_3a/3x3
I0403 15:59:35.990324 20598 net.cpp:91] Creating Layer inception_3a/3x3
I0403 15:59:35.990342 20598 net.cpp:425] inception_3a/3x3 <- inception_3a/3x3_reduce
I0403 15:59:35.990365 20598 net.cpp:399] inception_3a/3x3 -> inception_3a/3x3
I0403 15:59:35.992102 20598 net.cpp:141] Setting up inception_3a/3x3
I0403 15:59:35.992136 20598 net.cpp:148] Top shape: 24 128 28 28 (2408448)
I0403 15:59:35.992154 20598 net.cpp:156] Memory required for data: 525042720
I0403 15:59:35.992174 20598 layer_factory.hpp:77] Creating layer inception_3a/relu_3x3
I0403 15:59:35.992192 20598 net.cpp:91] Creating Layer inception_3a/relu_3x3
I0403 15:59:35.992209 20598 net.cpp:425] inception_3a/relu_3x3 <- inception_3a/3x3
I0403 15:59:35.992229 20598 net.cpp:386] inception_3a/relu_3x3 -> inception_3a/3x3 (in-place)
I0403 15:59:35.992517 20598 net.cpp:141] Setting up inception_3a/relu_3x3
I0403 15:59:35.992547 20598 net.cpp:148] Top shape: 24 128 28 28 (2408448)
I0403 15:59:35.992564 20598 net.cpp:156] Memory required for data: 534676512
I0403 15:59:35.992579 20598 layer_factory.hpp:77] Creating layer inception_3a/5x5_reduce
I0403 15:59:35.992602 20598 net.cpp:91] Creating Layer inception_3a/5x5_reduce
I0403 15:59:35.992620 20598 net.cpp:425] inception_3a/5x5_reduce <- pool2/3x3_s2_pool2/3x3_s2_0_split_2
I0403 15:59:35.992640 20598 net.cpp:399] inception_3a/5x5_reduce -> inception_3a/5x5_reduce
I0403 15:59:35.993651 20598 net.cpp:141] Setting up inception_3a/5x5_reduce
I0403 15:59:35.993680 20598 net.cpp:148] Top shape: 24 16 28 28 (301056)
I0403 15:59:35.993696 20598 net.cpp:156] Memory required for data: 535880736
I0403 15:59:35.993716 20598 layer_factory.hpp:77] Creating layer inception_3a/relu_5x5_reduce
I0403 15:59:35.993734 20598 net.cpp:91] Creating Layer inception_3a/relu_5x5_reduce
I0403 15:59:35.993751 20598 net.cpp:425] inception_3a/relu_5x5_reduce <- inception_3a/5x5_reduce
I0403 15:59:35.993773 20598 net.cpp:386] inception_3a/relu_5x5_reduce -> inception_3a/5x5_reduce (in-place)
I0403 15:59:35.994086 20598 net.cpp:141] Setting up inception_3a/relu_5x5_reduce
I0403 15:59:35.994112 20598 net.cpp:148] Top shape: 24 16 28 28 (301056)
I0403 15:59:35.994127 20598 net.cpp:156] Memory required for data: 537084960
I0403 15:59:35.994143 20598 layer_factory.hpp:77] Creating layer inception_3a/5x5
I0403 15:59:35.994166 20598 net.cpp:91] Creating Layer inception_3a/5x5
I0403 15:59:35.994184 20598 net.cpp:425] inception_3a/5x5 <- inception_3a/5x5_reduce
I0403 15:59:35.994206 20598 net.cpp:399] inception_3a/5x5 -> inception_3a/5x5
I0403 15:59:35.995260 20598 net.cpp:141] Setting up inception_3a/5x5
I0403 15:59:35.995292 20598 net.cpp:148] Top shape: 24 32 28 28 (602112)
I0403 15:59:35.995309 20598 net.cpp:156] Memory required for data: 539493408
I0403 15:59:35.995329 20598 layer_factory.hpp:77] Creating layer inception_3a/relu_5x5
I0403 15:59:35.995347 20598 net.cpp:91] Creating Layer inception_3a/relu_5x5
I0403 15:59:35.995364 20598 net.cpp:425] inception_3a/relu_5x5 <- inception_3a/5x5
I0403 15:59:35.995384 20598 net.cpp:386] inception_3a/relu_5x5 -> inception_3a/5x5 (in-place)
I0403 15:59:35.995570 20598 net.cpp:141] Setting up inception_3a/relu_5x5
I0403 15:59:35.995596 20598 net.cpp:148] Top shape: 24 32 28 28 (602112)
I0403 15:59:35.995611 20598 net.cpp:156] Memory required for data: 541901856
I0403 15:59:35.995626 20598 layer_factory.hpp:77] Creating layer inception_3a/pool
I0403 15:59:35.995645 20598 net.cpp:91] Creating Layer inception_3a/pool
I0403 15:59:35.995676 20598 net.cpp:425] inception_3a/pool <- pool2/3x3_s2_pool2/3x3_s2_0_split_3
I0403 15:59:35.995699 20598 net.cpp:399] inception_3a/pool -> inception_3a/pool
I0403 15:59:35.995760 20598 net.cpp:141] Setting up inception_3a/pool
I0403 15:59:35.995784 20598 net.cpp:148] Top shape: 24 192 28 28 (3612672)
I0403 15:59:35.995800 20598 net.cpp:156] Memory required for data: 556352544
I0403 15:59:35.995815 20598 layer_factory.hpp:77] Creating layer inception_3a/pool_proj
I0403 15:59:35.995841 20598 net.cpp:91] Creating Layer inception_3a/pool_proj
I0403 15:59:35.995859 20598 net.cpp:425] inception_3a/pool_proj <- inception_3a/pool
I0403 15:59:35.995879 20598 net.cpp:399] inception_3a/pool_proj -> inception_3a/pool_proj
I0403 15:59:35.996891 20598 net.cpp:141] Setting up inception_3a/pool_proj
I0403 15:59:35.996918 20598 net.cpp:148] Top shape: 24 32 28 28 (602112)
I0403 15:59:35.996935 20598 net.cpp:156] Memory required for data: 558760992
I0403 15:59:35.996960 20598 layer_factory.hpp:77] Creating layer inception_3a/relu_pool_proj
I0403 15:59:35.996980 20598 net.cpp:91] Creating Layer inception_3a/relu_pool_proj
I0403 15:59:35.997000 20598 net.cpp:425] inception_3a/relu_pool_proj <- inception_3a/pool_proj
I0403 15:59:35.997020 20598 net.cpp:386] inception_3a/relu_pool_proj -> inception_3a/pool_proj (in-place)
I0403 15:59:35.997308 20598 net.cpp:141] Setting up inception_3a/relu_pool_proj
I0403 15:59:35.997337 20598 net.cpp:148] Top shape: 24 32 28 28 (602112)
I0403 15:59:35.997354 20598 net.cpp:156] Memory required for data: 561169440
I0403 15:59:35.997370 20598 layer_factory.hpp:77] Creating layer inception_3a/output
I0403 15:59:35.997388 20598 net.cpp:91] Creating Layer inception_3a/output
I0403 15:59:35.997405 20598 net.cpp:425] inception_3a/output <- inception_3a/1x1
I0403 15:59:35.997421 20598 net.cpp:425] inception_3a/output <- inception_3a/3x3
I0403 15:59:35.997437 20598 net.cpp:425] inception_3a/output <- inception_3a/5x5
I0403 15:59:35.997454 20598 net.cpp:425] inception_3a/output <- inception_3a/pool_proj
I0403 15:59:35.997474 20598 net.cpp:399] inception_3a/output -> inception_3a/output
I0403 15:59:35.997524 20598 net.cpp:141] Setting up inception_3a/output
I0403 15:59:35.997547 20598 net.cpp:148] Top shape: 24 256 28 28 (4816896)
I0403 15:59:35.997563 20598 net.cpp:156] Memory required for data: 580437024
I0403 15:59:35.997577 20598 layer_factory.hpp:77] Creating layer inception_3a/output_inception_3a/output_0_split
I0403 15:59:35.997599 20598 net.cpp:91] Creating Layer inception_3a/output_inception_3a/output_0_split
I0403 15:59:35.997617 20598 net.cpp:425] inception_3a/output_inception_3a/output_0_split <- inception_3a/output
I0403 15:59:35.997635 20598 net.cpp:399] inception_3a/output_inception_3a/output_0_split -> inception_3a/output_inception_3a/output_0_split_0
I0403 15:59:35.997655 20598 net.cpp:399] inception_3a/output_inception_3a/output_0_split -> inception_3a/output_inception_3a/output_0_split_1
I0403 15:59:35.997681 20598 net.cpp:399] inception_3a/output_inception_3a/output_0_split -> inception_3a/output_inception_3a/output_0_split_2
I0403 15:59:35.997704 20598 net.cpp:399] inception_3a/output_inception_3a/output_0_split -> inception_3a/output_inception_3a/output_0_split_3
I0403 15:59:35.997779 20598 net.cpp:141] Setting up inception_3a/output_inception_3a/output_0_split
I0403 15:59:35.997805 20598 net.cpp:148] Top shape: 24 256 28 28 (4816896)
I0403 15:59:35.997823 20598 net.cpp:148] Top shape: 24 256 28 28 (4816896)
I0403 15:59:35.997839 20598 net.cpp:148] Top shape: 24 256 28 28 (4816896)
I0403 15:59:35.997855 20598 net.cpp:148] Top shape: 24 256 28 28 (4816896)
I0403 15:59:35.997870 20598 net.cpp:156] Memory required for data: 657507360
I0403 15:59:35.997885 20598 layer_factory.hpp:77] Creating layer inception_3b/1x1
I0403 15:59:35.997908 20598 net.cpp:91] Creating Layer inception_3b/1x1
I0403 15:59:35.997926 20598 net.cpp:425] inception_3b/1x1 <- inception_3a/output_inception_3a/output_0_split_0
I0403 15:59:35.997946 20598 net.cpp:399] inception_3b/1x1 -> inception_3b/1x1
I0403 15:59:35.999150 20598 net.cpp:141] Setting up inception_3b/1x1
I0403 15:59:35.999194 20598 net.cpp:148] Top shape: 24 128 28 28 (2408448)
I0403 15:59:35.999213 20598 net.cpp:156] Memory required for data: 667141152
I0403 15:59:35.999233 20598 layer_factory.hpp:77] Creating layer inception_3b/relu_1x1
I0403 15:59:35.999251 20598 net.cpp:91] Creating Layer inception_3b/relu_1x1
I0403 15:59:35.999269 20598 net.cpp:425] inception_3b/relu_1x1 <- inception_3b/1x1
I0403 15:59:35.999286 20598 net.cpp:386] inception_3b/relu_1x1 -> inception_3b/1x1 (in-place)
I0403 15:59:35.999475 20598 net.cpp:141] Setting up inception_3b/relu_1x1
I0403 15:59:35.999502 20598 net.cpp:148] Top shape: 24 128 28 28 (2408448)
I0403 15:59:35.999519 20598 net.cpp:156] Memory required for data: 676774944
I0403 15:59:35.999536 20598 layer_factory.hpp:77] Creating layer inception_3b/3x3_reduce
I0403 15:59:35.999559 20598 net.cpp:91] Creating Layer inception_3b/3x3_reduce
I0403 15:59:35.999577 20598 net.cpp:425] inception_3b/3x3_reduce <- inception_3a/output_inception_3a/output_0_split_1
I0403 15:59:35.999596 20598 net.cpp:399] inception_3b/3x3_reduce -> inception_3b/3x3_reduce
I0403 15:59:36.000787 20598 net.cpp:141] Setting up inception_3b/3x3_reduce
I0403 15:59:36.000816 20598 net.cpp:148] Top shape: 24 128 28 28 (2408448)
I0403 15:59:36.000833 20598 net.cpp:156] Memory required for data: 686408736
I0403 15:59:36.000852 20598 layer_factory.hpp:77] Creating layer inception_3b/relu_3x3_reduce
I0403 15:59:36.000874 20598 net.cpp:91] Creating Layer inception_3b/relu_3x3_reduce
I0403 15:59:36.000891 20598 net.cpp:425] inception_3b/relu_3x3_reduce <- inception_3b/3x3_reduce
I0403 15:59:36.000910 20598 net.cpp:386] inception_3b/relu_3x3_reduce -> inception_3b/3x3_reduce (in-place)
I0403 15:59:36.001098 20598 net.cpp:141] Setting up inception_3b/relu_3x3_reduce
I0403 15:59:36.001124 20598 net.cpp:148] Top shape: 24 128 28 28 (2408448)
I0403 15:59:36.001140 20598 net.cpp:156] Memory required for data: 696042528
I0403 15:59:36.001157 20598 layer_factory.hpp:77] Creating layer inception_3b/3x3
I0403 15:59:36.001183 20598 net.cpp:91] Creating Layer inception_3b/3x3
I0403 15:59:36.001201 20598 net.cpp:425] inception_3b/3x3 <- inception_3b/3x3_reduce
I0403 15:59:36.001224 20598 net.cpp:399] inception_3b/3x3 -> inception_3b/3x3
I0403 15:59:36.004274 20598 net.cpp:141] Setting up inception_3b/3x3
I0403 15:59:36.004307 20598 net.cpp:148] Top shape: 24 192 28 28 (3612672)
I0403 15:59:36.004325 20598 net.cpp:156] Memory required for data: 710493216
I0403 15:59:36.004344 20598 layer_factory.hpp:77] Creating layer inception_3b/relu_3x3
I0403 15:59:36.004362 20598 net.cpp:91] Creating Layer inception_3b/relu_3x3
I0403 15:59:36.004379 20598 net.cpp:425] inception_3b/relu_3x3 <- inception_3b/3x3
I0403 15:59:36.004400 20598 net.cpp:386] inception_3b/relu_3x3 -> inception_3b/3x3 (in-place)
I0403 15:59:36.004690 20598 net.cpp:141] Setting up inception_3b/relu_3x3
I0403 15:59:36.004720 20598 net.cpp:148] Top shape: 24 192 28 28 (3612672)
I0403 15:59:36.004737 20598 net.cpp:156] Memory required for data: 724943904
I0403 15:59:36.004753 20598 layer_factory.hpp:77] Creating layer inception_3b/5x5_reduce
I0403 15:59:36.004778 20598 net.cpp:91] Creating Layer inception_3b/5x5_reduce
I0403 15:59:36.004797 20598 net.cpp:425] inception_3b/5x5_reduce <- inception_3a/output_inception_3a/output_0_split_2
I0403 15:59:36.004820 20598 net.cpp:399] inception_3b/5x5_reduce -> inception_3b/5x5_reduce
I0403 15:59:36.005868 20598 net.cpp:141] Setting up inception_3b/5x5_reduce
I0403 15:59:36.005900 20598 net.cpp:148] Top shape: 24 32 28 28 (602112)
I0403 15:59:36.005918 20598 net.cpp:156] Memory required for data: 727352352
I0403 15:59:36.005938 20598 layer_factory.hpp:77] Creating layer inception_3b/relu_5x5_reduce
I0403 15:59:36.005956 20598 net.cpp:91] Creating Layer inception_3b/relu_5x5_reduce
I0403 15:59:36.005973 20598 net.cpp:425] inception_3b/relu_5x5_reduce <- inception_3b/5x5_reduce
I0403 15:59:36.005993 20598 net.cpp:386] inception_3b/relu_5x5_reduce -> inception_3b/5x5_reduce (in-place)
I0403 15:59:36.006198 20598 net.cpp:141] Setting up inception_3b/relu_5x5_reduce
I0403 15:59:36.006225 20598 net.cpp:148] Top shape: 24 32 28 28 (602112)
I0403 15:59:36.006242 20598 net.cpp:156] Memory required for data: 729760800
I0403 15:59:36.006256 20598 layer_factory.hpp:77] Creating layer inception_3b/5x5
I0403 15:59:36.006280 20598 net.cpp:91] Creating Layer inception_3b/5x5
I0403 15:59:36.006299 20598 net.cpp:425] inception_3b/5x5 <- inception_3b/5x5_reduce
I0403 15:59:36.006321 20598 net.cpp:399] inception_3b/5x5 -> inception_3b/5x5
I0403 15:59:36.008404 20598 net.cpp:141] Setting up inception_3b/5x5
I0403 15:59:36.008436 20598 net.cpp:148] Top shape: 24 96 28 28 (1806336)
I0403 15:59:36.008452 20598 net.cpp:156] Memory required for data: 736986144
I0403 15:59:36.008471 20598 layer_factory.hpp:77] Creating layer inception_3b/relu_5x5
I0403 15:59:36.008492 20598 net.cpp:91] Creating Layer inception_3b/relu_5x5
I0403 15:59:36.008510 20598 net.cpp:425] inception_3b/relu_5x5 <- inception_3b/5x5
I0403 15:59:36.008528 20598 net.cpp:386] inception_3b/relu_5x5 -> inception_3b/5x5 (in-place)
I0403 15:59:36.008730 20598 net.cpp:141] Setting up inception_3b/relu_5x5
I0403 15:59:36.008757 20598 net.cpp:148] Top shape: 24 96 28 28 (1806336)
I0403 15:59:36.008774 20598 net.cpp:156] Memory required for data: 744211488
I0403 15:59:36.008788 20598 layer_factory.hpp:77] Creating layer inception_3b/pool
I0403 15:59:36.008807 20598 net.cpp:91] Creating Layer inception_3b/pool
I0403 15:59:36.008824 20598 net.cpp:425] inception_3b/pool <- inception_3a/output_inception_3a/output_0_split_3
I0403 15:59:36.008842 20598 net.cpp:399] inception_3b/pool -> inception_3b/pool
I0403 15:59:36.008901 20598 net.cpp:141] Setting up inception_3b/pool
I0403 15:59:36.008925 20598 net.cpp:148] Top shape: 24 256 28 28 (4816896)
I0403 15:59:36.008940 20598 net.cpp:156] Memory required for data: 763479072
I0403 15:59:36.008956 20598 layer_factory.hpp:77] Creating layer inception_3b/pool_proj
I0403 15:59:36.008981 20598 net.cpp:91] Creating Layer inception_3b/pool_proj
I0403 15:59:36.008999 20598 net.cpp:425] inception_3b/pool_proj <- inception_3b/pool
I0403 15:59:36.009019 20598 net.cpp:399] inception_3b/pool_proj -> inception_3b/pool_proj
I0403 15:59:36.010128 20598 net.cpp:141] Setting up inception_3b/pool_proj
I0403 15:59:36.010156 20598 net.cpp:148] Top shape: 24 64 28 28 (1204224)
I0403 15:59:36.010172 20598 net.cpp:156] Memory required for data: 768295968
I0403 15:59:36.010191 20598 layer_factory.hpp:77] Creating layer inception_3b/relu_pool_proj
I0403 15:59:36.010212 20598 net.cpp:91] Creating Layer inception_3b/relu_pool_proj
I0403 15:59:36.010231 20598 net.cpp:425] inception_3b/relu_pool_proj <- inception_3b/pool_proj
I0403 15:59:36.010247 20598 net.cpp:386] inception_3b/relu_pool_proj -> inception_3b/pool_proj (in-place)
I0403 15:59:36.010663 20598 net.cpp:141] Setting up inception_3b/relu_pool_proj
I0403 15:59:36.010690 20598 net.cpp:148] Top shape: 24 64 28 28 (1204224)
I0403 15:59:36.010705 20598 net.cpp:156] Memory required for data: 773112864
I0403 15:59:36.010721 20598 layer_factory.hpp:77] Creating layer inception_3b/output
I0403 15:59:36.010740 20598 net.cpp:91] Creating Layer inception_3b/output
I0403 15:59:36.010756 20598 net.cpp:425] inception_3b/output <- inception_3b/1x1
I0403 15:59:36.010773 20598 net.cpp:425] inception_3b/output <- inception_3b/3x3
I0403 15:59:36.010789 20598 net.cpp:425] inception_3b/output <- inception_3b/5x5
I0403 15:59:36.010807 20598 net.cpp:425] inception_3b/output <- inception_3b/pool_proj
I0403 15:59:36.010826 20598 net.cpp:399] inception_3b/output -> inception_3b/output
I0403 15:59:36.010872 20598 net.cpp:141] Setting up inception_3b/output
I0403 15:59:36.010898 20598 net.cpp:148] Top shape: 24 480 28 28 (9031680)
I0403 15:59:36.010915 20598 net.cpp:156] Memory required for data: 809239584
I0403 15:59:36.010931 20598 layer_factory.hpp:77] Creating layer pool3/3x3_s2
I0403 15:59:36.010948 20598 net.cpp:91] Creating Layer pool3/3x3_s2
I0403 15:59:36.010965 20598 net.cpp:425] pool3/3x3_s2 <- inception_3b/output
I0403 15:59:36.011003 20598 net.cpp:399] pool3/3x3_s2 -> pool3/3x3_s2
I0403 15:59:36.011070 20598 net.cpp:141] Setting up pool3/3x3_s2
I0403 15:59:36.011093 20598 net.cpp:148] Top shape: 24 480 14 14 (2257920)
I0403 15:59:36.011108 20598 net.cpp:156] Memory required for data: 818271264
I0403 15:59:36.011123 20598 layer_factory.hpp:77] Creating layer pool3/3x3_s2_pool3/3x3_s2_0_split
I0403 15:59:36.011144 20598 net.cpp:91] Creating Layer pool3/3x3_s2_pool3/3x3_s2_0_split
I0403 15:59:36.011160 20598 net.cpp:425] pool3/3x3_s2_pool3/3x3_s2_0_split <- pool3/3x3_s2
I0403 15:59:36.011178 20598 net.cpp:399] pool3/3x3_s2_pool3/3x3_s2_0_split -> pool3/3x3_s2_pool3/3x3_s2_0_split_0
I0403 15:59:36.011198 20598 net.cpp:399] pool3/3x3_s2_pool3/3x3_s2_0_split -> pool3/3x3_s2_pool3/3x3_s2_0_split_1
I0403 15:59:36.011219 20598 net.cpp:399] pool3/3x3_s2_pool3/3x3_s2_0_split -> pool3/3x3_s2_pool3/3x3_s2_0_split_2
I0403 15:59:36.011239 20598 net.cpp:399] pool3/3x3_s2_pool3/3x3_s2_0_split -> pool3/3x3_s2_pool3/3x3_s2_0_split_3
I0403 15:59:36.011317 20598 net.cpp:141] Setting up pool3/3x3_s2_pool3/3x3_s2_0_split
I0403 15:59:36.011343 20598 net.cpp:148] Top shape: 24 480 14 14 (2257920)
I0403 15:59:36.011359 20598 net.cpp:148] Top shape: 24 480 14 14 (2257920)
I0403 15:59:36.011375 20598 net.cpp:148] Top shape: 24 480 14 14 (2257920)
I0403 15:59:36.011391 20598 net.cpp:148] Top shape: 24 480 14 14 (2257920)
I0403 15:59:36.011405 20598 net.cpp:156] Memory required for data: 854397984
I0403 15:59:36.011420 20598 layer_factory.hpp:77] Creating layer inception_4a/1x1
I0403 15:59:36.011443 20598 net.cpp:91] Creating Layer inception_4a/1x1
I0403 15:59:36.011461 20598 net.cpp:425] inception_4a/1x1 <- pool3/3x3_s2_pool3/3x3_s2_0_split_0
I0403 15:59:36.011483 20598 net.cpp:399] inception_4a/1x1 -> inception_4a/1x1
I0403 15:59:36.013136 20598 net.cpp:141] Setting up inception_4a/1x1
I0403 15:59:36.013166 20598 net.cpp:148] Top shape: 24 192 14 14 (903168)
I0403 15:59:36.013181 20598 net.cpp:156] Memory required for data: 858010656
I0403 15:59:36.013201 20598 layer_factory.hpp:77] Creating layer inception_4a/relu_1x1
I0403 15:59:36.013222 20598 net.cpp:91] Creating Layer inception_4a/relu_1x1
I0403 15:59:36.013241 20598 net.cpp:425] inception_4a/relu_1x1 <- inception_4a/1x1
I0403 15:59:36.013258 20598 net.cpp:386] inception_4a/relu_1x1 -> inception_4a/1x1 (in-place)
I0403 15:59:36.013443 20598 net.cpp:141] Setting up inception_4a/relu_1x1
I0403 15:59:36.013473 20598 net.cpp:148] Top shape: 24 192 14 14 (903168)
I0403 15:59:36.013489 20598 net.cpp:156] Memory required for data: 861623328
I0403 15:59:36.013505 20598 layer_factory.hpp:77] Creating layer inception_4a/3x3_reduce
I0403 15:59:36.013528 20598 net.cpp:91] Creating Layer inception_4a/3x3_reduce
I0403 15:59:36.013547 20598 net.cpp:425] inception_4a/3x3_reduce <- pool3/3x3_s2_pool3/3x3_s2_0_split_1
I0403 15:59:36.013567 20598 net.cpp:399] inception_4a/3x3_reduce -> inception_4a/3x3_reduce
I0403 15:59:36.014914 20598 net.cpp:141] Setting up inception_4a/3x3_reduce
I0403 15:59:36.014943 20598 net.cpp:148] Top shape: 24 96 14 14 (451584)
I0403 15:59:36.014961 20598 net.cpp:156] Memory required for data: 863429664
I0403 15:59:36.014987 20598 layer_factory.hpp:77] Creating layer inception_4a/relu_3x3_reduce
I0403 15:59:36.015008 20598 net.cpp:91] Creating Layer inception_4a/relu_3x3_reduce
I0403 15:59:36.015025 20598 net.cpp:425] inception_4a/relu_3x3_reduce <- inception_4a/3x3_reduce
I0403 15:59:36.015046 20598 net.cpp:386] inception_4a/relu_3x3_reduce -> inception_4a/3x3_reduce (in-place)
I0403 15:59:36.015239 20598 net.cpp:141] Setting up inception_4a/relu_3x3_reduce
I0403 15:59:36.015265 20598 net.cpp:148] Top shape: 24 96 14 14 (451584)
I0403 15:59:36.015280 20598 net.cpp:156] Memory required for data: 865236000
I0403 15:59:36.015296 20598 layer_factory.hpp:77] Creating layer inception_4a/3x3
I0403 15:59:36.015319 20598 net.cpp:91] Creating Layer inception_4a/3x3
I0403 15:59:36.015338 20598 net.cpp:425] inception_4a/3x3 <- inception_4a/3x3_reduce
I0403 15:59:36.015360 20598 net.cpp:399] inception_4a/3x3 -> inception_4a/3x3
I0403 15:59:36.018177 20598 net.cpp:141] Setting up inception_4a/3x3
I0403 15:59:36.018209 20598 net.cpp:148] Top shape: 24 208 14 14 (978432)
I0403 15:59:36.018225 20598 net.cpp:156] Memory required for data: 869149728
I0403 15:59:36.018245 20598 layer_factory.hpp:77] Creating layer inception_4a/relu_3x3
I0403 15:59:36.018266 20598 net.cpp:91] Creating Layer inception_4a/relu_3x3
I0403 15:59:36.018285 20598 net.cpp:425] inception_4a/relu_3x3 <- inception_4a/3x3
I0403 15:59:36.018303 20598 net.cpp:386] inception_4a/relu_3x3 -> inception_4a/3x3 (in-place)
I0403 15:59:36.018599 20598 net.cpp:141] Setting up inception_4a/relu_3x3
I0403 15:59:36.018626 20598 net.cpp:148] Top shape: 24 208 14 14 (978432)
I0403 15:59:36.018642 20598 net.cpp:156] Memory required for data: 873063456
I0403 15:59:36.018657 20598 layer_factory.hpp:77] Creating layer inception_4a/5x5_reduce
I0403 15:59:36.018683 20598 net.cpp:91] Creating Layer inception_4a/5x5_reduce
I0403 15:59:36.018702 20598 net.cpp:425] inception_4a/5x5_reduce <- pool3/3x3_s2_pool3/3x3_s2_0_split_2
I0403 15:59:36.018723 20598 net.cpp:399] inception_4a/5x5_reduce -> inception_4a/5x5_reduce
I0403 15:59:36.019791 20598 net.cpp:141] Setting up inception_4a/5x5_reduce
I0403 15:59:36.019824 20598 net.cpp:148] Top shape: 24 16 14 14 (75264)
I0403 15:59:36.019840 20598 net.cpp:156] Memory required for data: 873364512
I0403 15:59:36.019860 20598 layer_factory.hpp:77] Creating layer inception_4a/relu_5x5_reduce
I0403 15:59:36.019879 20598 net.cpp:91] Creating Layer inception_4a/relu_5x5_reduce
I0403 15:59:36.019896 20598 net.cpp:425] inception_4a/relu_5x5_reduce <- inception_4a/5x5_reduce
I0403 15:59:36.019917 20598 net.cpp:386] inception_4a/relu_5x5_reduce -> inception_4a/5x5_reduce (in-place)
I0403 15:59:36.020107 20598 net.cpp:141] Setting up inception_4a/relu_5x5_reduce
I0403 15:59:36.020133 20598 net.cpp:148] Top shape: 24 16 14 14 (75264)
I0403 15:59:36.020148 20598 net.cpp:156] Memory required for data: 873665568
I0403 15:59:36.020164 20598 layer_factory.hpp:77] Creating layer inception_4a/5x5
I0403 15:59:36.020189 20598 net.cpp:91] Creating Layer inception_4a/5x5
I0403 15:59:36.020206 20598 net.cpp:425] inception_4a/5x5 <- inception_4a/5x5_reduce
I0403 15:59:36.020228 20598 net.cpp:399] inception_4a/5x5 -> inception_4a/5x5
I0403 15:59:36.021378 20598 net.cpp:141] Setting up inception_4a/5x5
I0403 15:59:36.021407 20598 net.cpp:148] Top shape: 24 48 14 14 (225792)
I0403 15:59:36.021423 20598 net.cpp:156] Memory required for data: 874568736
I0403 15:59:36.021441 20598 layer_factory.hpp:77] Creating layer inception_4a/relu_5x5
I0403 15:59:36.021463 20598 net.cpp:91] Creating Layer inception_4a/relu_5x5
I0403 15:59:36.021481 20598 net.cpp:425] inception_4a/relu_5x5 <- inception_4a/5x5
I0403 15:59:36.021499 20598 net.cpp:386] inception_4a/relu_5x5 -> inception_4a/5x5 (in-place)
I0403 15:59:36.021687 20598 net.cpp:141] Setting up inception_4a/relu_5x5
I0403 15:59:36.021713 20598 net.cpp:148] Top shape: 24 48 14 14 (225792)
I0403 15:59:36.021728 20598 net.cpp:156] Memory required for data: 875471904
I0403 15:59:36.021744 20598 layer_factory.hpp:77] Creating layer inception_4a/pool
I0403 15:59:36.021765 20598 net.cpp:91] Creating Layer inception_4a/pool
I0403 15:59:36.021783 20598 net.cpp:425] inception_4a/pool <- pool3/3x3_s2_pool3/3x3_s2_0_split_3
I0403 15:59:36.021802 20598 net.cpp:399] inception_4a/pool -> inception_4a/pool
I0403 15:59:36.021868 20598 net.cpp:141] Setting up inception_4a/pool
I0403 15:59:36.021893 20598 net.cpp:148] Top shape: 24 480 14 14 (2257920)
I0403 15:59:36.021908 20598 net.cpp:156] Memory required for data: 884503584
I0403 15:59:36.021924 20598 layer_factory.hpp:77] Creating layer inception_4a/pool_proj
I0403 15:59:36.021946 20598 net.cpp:91] Creating Layer inception_4a/pool_proj
I0403 15:59:36.021966 20598 net.cpp:425] inception_4a/pool_proj <- inception_4a/pool
I0403 15:59:36.021987 20598 net.cpp:399] inception_4a/pool_proj -> inception_4a/pool_proj
I0403 15:59:36.023223 20598 net.cpp:141] Setting up inception_4a/pool_proj
I0403 15:59:36.023252 20598 net.cpp:148] Top shape: 24 64 14 14 (301056)
I0403 15:59:36.023284 20598 net.cpp:156] Memory required for data: 885707808
I0403 15:59:36.023305 20598 layer_factory.hpp:77] Creating layer inception_4a/relu_pool_proj
I0403 15:59:36.023327 20598 net.cpp:91] Creating Layer inception_4a/relu_pool_proj
I0403 15:59:36.023345 20598 net.cpp:425] inception_4a/relu_pool_proj <- inception_4a/pool_proj
I0403 15:59:36.023363 20598 net.cpp:386] inception_4a/relu_pool_proj -> inception_4a/pool_proj (in-place)
I0403 15:59:36.023663 20598 net.cpp:141] Setting up inception_4a/relu_pool_proj
I0403 15:59:36.023690 20598 net.cpp:148] Top shape: 24 64 14 14 (301056)
I0403 15:59:36.023706 20598 net.cpp:156] Memory required for data: 886912032
I0403 15:59:36.023721 20598 layer_factory.hpp:77] Creating layer inception_4a/output
I0403 15:59:36.023741 20598 net.cpp:91] Creating Layer inception_4a/output
I0403 15:59:36.023758 20598 net.cpp:425] inception_4a/output <- inception_4a/1x1
I0403 15:59:36.023777 20598 net.cpp:425] inception_4a/output <- inception_4a/3x3
I0403 15:59:36.023792 20598 net.cpp:425] inception_4a/output <- inception_4a/5x5
I0403 15:59:36.023808 20598 net.cpp:425] inception_4a/output <- inception_4a/pool_proj
I0403 15:59:36.023826 20598 net.cpp:399] inception_4a/output -> inception_4a/output
I0403 15:59:36.023872 20598 net.cpp:141] Setting up inception_4a/output
I0403 15:59:36.023898 20598 net.cpp:148] Top shape: 24 512 14 14 (2408448)
I0403 15:59:36.023915 20598 net.cpp:156] Memory required for data: 896545824
I0403 15:59:36.023931 20598 layer_factory.hpp:77] Creating layer inception_4a/output_inception_4a/output_0_split
I0403 15:59:36.023948 20598 net.cpp:91] Creating Layer inception_4a/output_inception_4a/output_0_split
I0403 15:59:36.023967 20598 net.cpp:425] inception_4a/output_inception_4a/output_0_split <- inception_4a/output
I0403 15:59:36.023988 20598 net.cpp:399] inception_4a/output_inception_4a/output_0_split -> inception_4a/output_inception_4a/output_0_split_0
I0403 15:59:36.024009 20598 net.cpp:399] inception_4a/output_inception_4a/output_0_split -> inception_4a/output_inception_4a/output_0_split_1
I0403 15:59:36.024031 20598 net.cpp:399] inception_4a/output_inception_4a/output_0_split -> inception_4a/output_inception_4a/output_0_split_2
I0403 15:59:36.024056 20598 net.cpp:399] inception_4a/output_inception_4a/output_0_split -> inception_4a/output_inception_4a/output_0_split_3
I0403 15:59:36.024078 20598 net.cpp:399] inception_4a/output_inception_4a/output_0_split -> inception_4a/output_inception_4a/output_0_split_4
I0403 15:59:36.024174 20598 net.cpp:141] Setting up inception_4a/output_inception_4a/output_0_split
I0403 15:59:36.024199 20598 net.cpp:148] Top shape: 24 512 14 14 (2408448)
I0403 15:59:36.024219 20598 net.cpp:148] Top shape: 24 512 14 14 (2408448)
I0403 15:59:36.024235 20598 net.cpp:148] Top shape: 24 512 14 14 (2408448)
I0403 15:59:36.024252 20598 net.cpp:148] Top shape: 24 512 14 14 (2408448)
I0403 15:59:36.024268 20598 net.cpp:148] Top shape: 24 512 14 14 (2408448)
I0403 15:59:36.024282 20598 net.cpp:156] Memory required for data: 944714784
I0403 15:59:36.024297 20598 layer_factory.hpp:77] Creating layer loss1/ave_pool
I0403 15:59:36.024315 20598 net.cpp:91] Creating Layer loss1/ave_pool
I0403 15:59:36.024332 20598 net.cpp:425] loss1/ave_pool <- inception_4a/output_inception_4a/output_0_split_0
I0403 15:59:36.024353 20598 net.cpp:399] loss1/ave_pool -> loss1/ave_pool
I0403 15:59:36.024569 20598 net.cpp:141] Setting up loss1/ave_pool
I0403 15:59:36.024595 20598 net.cpp:148] Top shape: 24 512 4 4 (196608)
I0403 15:59:36.024611 20598 net.cpp:156] Memory required for data: 945501216
I0403 15:59:36.024626 20598 layer_factory.hpp:77] Creating layer loss1/conv
I0403 15:59:36.024649 20598 net.cpp:91] Creating Layer loss1/conv
I0403 15:59:36.024667 20598 net.cpp:425] loss1/conv <- loss1/ave_pool
I0403 15:59:36.024691 20598 net.cpp:399] loss1/conv -> loss1/conv
I0403 15:59:36.026185 20598 net.cpp:141] Setting up loss1/conv
I0403 15:59:36.026214 20598 net.cpp:148] Top shape: 24 128 4 4 (49152)
I0403 15:59:36.026245 20598 net.cpp:156] Memory required for data: 945697824
I0403 15:59:36.026268 20598 layer_factory.hpp:77] Creating layer loss1/relu_conv
I0403 15:59:36.026289 20598 net.cpp:91] Creating Layer loss1/relu_conv
I0403 15:59:36.026305 20598 net.cpp:425] loss1/relu_conv <- loss1/conv
I0403 15:59:36.026324 20598 net.cpp:386] loss1/relu_conv -> loss1/conv (in-place)
I0403 15:59:36.026619 20598 net.cpp:141] Setting up loss1/relu_conv
I0403 15:59:36.026648 20598 net.cpp:148] Top shape: 24 128 4 4 (49152)
I0403 15:59:36.026664 20598 net.cpp:156] Memory required for data: 945894432
I0403 15:59:36.026679 20598 layer_factory.hpp:77] Creating layer loss1/fc
I0403 15:59:36.026705 20598 net.cpp:91] Creating Layer loss1/fc
I0403 15:59:36.026724 20598 net.cpp:425] loss1/fc <- loss1/conv
I0403 15:59:36.026747 20598 net.cpp:399] loss1/fc -> loss1/fc
I0403 15:59:36.045555 20598 net.cpp:141] Setting up loss1/fc
I0403 15:59:36.045598 20598 net.cpp:148] Top shape: 24 1024 (24576)
I0403 15:59:36.045614 20598 net.cpp:156] Memory required for data: 945992736
I0403 15:59:36.045635 20598 layer_factory.hpp:77] Creating layer loss1/relu_fc
I0403 15:59:36.045660 20598 net.cpp:91] Creating Layer loss1/relu_fc
I0403 15:59:36.045678 20598 net.cpp:425] loss1/relu_fc <- loss1/fc
I0403 15:59:36.045698 20598 net.cpp:386] loss1/relu_fc -> loss1/fc (in-place)
I0403 15:59:36.045917 20598 net.cpp:141] Setting up loss1/relu_fc
I0403 15:59:36.045945 20598 net.cpp:148] Top shape: 24 1024 (24576)
I0403 15:59:36.045964 20598 net.cpp:156] Memory required for data: 946091040
I0403 15:59:36.045979 20598 layer_factory.hpp:77] Creating layer loss1/drop_fc
I0403 15:59:36.046010 20598 net.cpp:91] Creating Layer loss1/drop_fc
I0403 15:59:36.046027 20598 net.cpp:425] loss1/drop_fc <- loss1/fc
I0403 15:59:36.046046 20598 net.cpp:386] loss1/drop_fc -> loss1/fc (in-place)
I0403 15:59:36.046113 20598 net.cpp:141] Setting up loss1/drop_fc
I0403 15:59:36.046138 20598 net.cpp:148] Top shape: 24 1024 (24576)
I0403 15:59:36.046152 20598 net.cpp:156] Memory required for data: 946189344
I0403 15:59:36.046169 20598 layer_factory.hpp:77] Creating layer loss1/classifier_plantvillage
I0403 15:59:36.046188 20598 net.cpp:91] Creating Layer loss1/classifier_plantvillage
I0403 15:59:36.046206 20598 net.cpp:425] loss1/classifier_plantvillage <- loss1/fc
I0403 15:59:36.046229 20598 net.cpp:399] loss1/classifier_plantvillage -> loss1/classifier_plantvillage
I0403 15:59:36.047220 20598 net.cpp:141] Setting up loss1/classifier_plantvillage
I0403 15:59:36.047250 20598 net.cpp:148] Top shape: 24 38 (912)
I0403 15:59:36.047267 20598 net.cpp:156] Memory required for data: 946192992
I0403 15:59:36.047286 20598 layer_factory.hpp:77] Creating layer loss1/classifier_plantvillage_loss1/classifier_plantvillage_0_split
I0403 15:59:36.047308 20598 net.cpp:91] Creating Layer loss1/classifier_plantvillage_loss1/classifier_plantvillage_0_split
I0403 15:59:36.047325 20598 net.cpp:425] loss1/classifier_plantvillage_loss1/classifier_plantvillage_0_split <- loss1/classifier_plantvillage
I0403 15:59:36.047343 20598 net.cpp:399] loss1/classifier_plantvillage_loss1/classifier_plantvillage_0_split -> loss1/classifier_plantvillage_loss1/classifier_plantvillage_0_split_0
I0403 15:59:36.047364 20598 net.cpp:399] loss1/classifier_plantvillage_loss1/classifier_plantvillage_0_split -> loss1/classifier_plantvillage_loss1/classifier_plantvillage_0_split_1
I0403 15:59:36.047386 20598 net.cpp:399] loss1/classifier_plantvillage_loss1/classifier_plantvillage_0_split -> loss1/classifier_plantvillage_loss1/classifier_plantvillage_0_split_2
I0403 15:59:36.047461 20598 net.cpp:141] Setting up loss1/classifier_plantvillage_loss1/classifier_plantvillage_0_split
I0403 15:59:36.047484 20598 net.cpp:148] Top shape: 24 38 (912)
I0403 15:59:36.047502 20598 net.cpp:148] Top shape: 24 38 (912)
I0403 15:59:36.047518 20598 net.cpp:148] Top shape: 24 38 (912)
I0403 15:59:36.047533 20598 net.cpp:156] Memory required for data: 946203936
I0403 15:59:36.047547 20598 layer_factory.hpp:77] Creating layer inception_4b/1x1
I0403 15:59:36.047572 20598 net.cpp:91] Creating Layer inception_4b/1x1
I0403 15:59:36.047612 20598 net.cpp:425] inception_4b/1x1 <- inception_4a/output_inception_4a/output_0_split_1
I0403 15:59:36.047633 20598 net.cpp:399] inception_4b/1x1 -> inception_4b/1x1
I0403 15:59:36.049413 20598 net.cpp:141] Setting up inception_4b/1x1
I0403 15:59:36.049446 20598 net.cpp:148] Top shape: 24 160 14 14 (752640)
I0403 15:59:36.049464 20598 net.cpp:156] Memory required for data: 949214496
I0403 15:59:36.049484 20598 layer_factory.hpp:77] Creating layer inception_4b/relu_1x1
I0403 15:59:36.049502 20598 net.cpp:91] Creating Layer inception_4b/relu_1x1
I0403 15:59:36.049520 20598 net.cpp:425] inception_4b/relu_1x1 <- inception_4b/1x1
I0403 15:59:36.049540 20598 net.cpp:386] inception_4b/relu_1x1 -> inception_4b/1x1 (in-place)
I0403 15:59:36.049728 20598 net.cpp:141] Setting up inception_4b/relu_1x1
I0403 15:59:36.049754 20598 net.cpp:148] Top shape: 24 160 14 14 (752640)
I0403 15:59:36.049770 20598 net.cpp:156] Memory required for data: 952225056
I0403 15:59:36.049785 20598 layer_factory.hpp:77] Creating layer inception_4b/3x3_reduce
I0403 15:59:36.049810 20598 net.cpp:91] Creating Layer inception_4b/3x3_reduce
I0403 15:59:36.049829 20598 net.cpp:425] inception_4b/3x3_reduce <- inception_4a/output_inception_4a/output_0_split_2
I0403 15:59:36.049851 20598 net.cpp:399] inception_4b/3x3_reduce -> inception_4b/3x3_reduce
I0403 15:59:36.051301 20598 net.cpp:141] Setting up inception_4b/3x3_reduce
I0403 15:59:36.051331 20598 net.cpp:148] Top shape: 24 112 14 14 (526848)
I0403 15:59:36.051347 20598 net.cpp:156] Memory required for data: 954332448
I0403 15:59:36.051367 20598 layer_factory.hpp:77] Creating layer inception_4b/relu_3x3_reduce
I0403 15:59:36.051384 20598 net.cpp:91] Creating Layer inception_4b/relu_3x3_reduce
I0403 15:59:36.051400 20598 net.cpp:425] inception_4b/relu_3x3_reduce <- inception_4b/3x3_reduce
I0403 15:59:36.051421 20598 net.cpp:386] inception_4b/relu_3x3_reduce -> inception_4b/3x3_reduce (in-place)
I0403 15:59:36.051722 20598 net.cpp:141] Setting up inception_4b/relu_3x3_reduce
I0403 15:59:36.051748 20598 net.cpp:148] Top shape: 24 112 14 14 (526848)
I0403 15:59:36.051764 20598 net.cpp:156] Memory required for data: 956439840
I0403 15:59:36.051779 20598 layer_factory.hpp:77] Creating layer inception_4b/3x3
I0403 15:59:36.051802 20598 net.cpp:91] Creating Layer inception_4b/3x3
I0403 15:59:36.051821 20598 net.cpp:425] inception_4b/3x3 <- inception_4b/3x3_reduce
I0403 15:59:36.051843 20598 net.cpp:399] inception_4b/3x3 -> inception_4b/3x3
I0403 15:59:36.054992 20598 net.cpp:141] Setting up inception_4b/3x3
I0403 15:59:36.055024 20598 net.cpp:148] Top shape: 24 224 14 14 (1053696)
I0403 15:59:36.055042 20598 net.cpp:156] Memory required for data: 960654624
I0403 15:59:36.055065 20598 layer_factory.hpp:77] Creating layer inception_4b/relu_3x3
I0403 15:59:36.055088 20598 net.cpp:91] Creating Layer inception_4b/relu_3x3
I0403 15:59:36.055105 20598 net.cpp:425] inception_4b/relu_3x3 <- inception_4b/3x3
I0403 15:59:36.055124 20598 net.cpp:386] inception_4b/relu_3x3 -> inception_4b/3x3 (in-place)
I0403 15:59:36.055316 20598 net.cpp:141] Setting up inception_4b/relu_3x3
I0403 15:59:36.055346 20598 net.cpp:148] Top shape: 24 224 14 14 (1053696)
I0403 15:59:36.055361 20598 net.cpp:156] Memory required for data: 964869408
I0403 15:59:36.055377 20598 layer_factory.hpp:77] Creating layer inception_4b/5x5_reduce
I0403 15:59:36.055402 20598 net.cpp:91] Creating Layer inception_4b/5x5_reduce
I0403 15:59:36.055420 20598 net.cpp:425] inception_4b/5x5_reduce <- inception_4a/output_inception_4a/output_0_split_3
I0403 15:59:36.055440 20598 net.cpp:399] inception_4b/5x5_reduce -> inception_4b/5x5_reduce
I0403 15:59:36.056586 20598 net.cpp:141] Setting up inception_4b/5x5_reduce
I0403 15:59:36.056618 20598 net.cpp:148] Top shape: 24 24 14 14 (112896)
I0403 15:59:36.056634 20598 net.cpp:156] Memory required for data: 965320992
I0403 15:59:36.056653 20598 layer_factory.hpp:77] Creating layer inception_4b/relu_5x5_reduce
I0403 15:59:36.056673 20598 net.cpp:91] Creating Layer inception_4b/relu_5x5_reduce
I0403 15:59:36.056704 20598 net.cpp:425] inception_4b/relu_5x5_reduce <- inception_4b/5x5_reduce
I0403 15:59:36.056726 20598 net.cpp:386] inception_4b/relu_5x5_reduce -> inception_4b/5x5_reduce (in-place)
I0403 15:59:36.056923 20598 net.cpp:141] Setting up inception_4b/relu_5x5_reduce
I0403 15:59:36.056949 20598 net.cpp:148] Top shape: 24 24 14 14 (112896)
I0403 15:59:36.056967 20598 net.cpp:156] Memory required for data: 965772576
I0403 15:59:36.056982 20598 layer_factory.hpp:77] Creating layer inception_4b/5x5
I0403 15:59:36.057005 20598 net.cpp:91] Creating Layer inception_4b/5x5
I0403 15:59:36.057024 20598 net.cpp:425] inception_4b/5x5 <- inception_4b/5x5_reduce
I0403 15:59:36.057046 20598 net.cpp:399] inception_4b/5x5 -> inception_4b/5x5
I0403 15:59:36.058336 20598 net.cpp:141] Setting up inception_4b/5x5
I0403 15:59:36.058368 20598 net.cpp:148] Top shape: 24 64 14 14 (301056)
I0403 15:59:36.058384 20598 net.cpp:156] Memory required for data: 966976800
I0403 15:59:36.058404 20598 layer_factory.hpp:77] Creating layer inception_4b/relu_5x5
I0403 15:59:36.058423 20598 net.cpp:91] Creating Layer inception_4b/relu_5x5
I0403 15:59:36.058439 20598 net.cpp:425] inception_4b/relu_5x5 <- inception_4b/5x5
I0403 15:59:36.058459 20598 net.cpp:386] inception_4b/relu_5x5 -> inception_4b/5x5 (in-place)
I0403 15:59:36.058753 20598 net.cpp:141] Setting up inception_4b/relu_5x5
I0403 15:59:36.058780 20598 net.cpp:148] Top shape: 24 64 14 14 (301056)
I0403 15:59:36.058797 20598 net.cpp:156] Memory required for data: 968181024
I0403 15:59:36.058812 20598 layer_factory.hpp:77] Creating layer inception_4b/pool
I0403 15:59:36.058831 20598 net.cpp:91] Creating Layer inception_4b/pool
I0403 15:59:36.058847 20598 net.cpp:425] inception_4b/pool <- inception_4a/output_inception_4a/output_0_split_4
I0403 15:59:36.058868 20598 net.cpp:399] inception_4b/pool -> inception_4b/pool
I0403 15:59:36.058934 20598 net.cpp:141] Setting up inception_4b/pool
I0403 15:59:36.058959 20598 net.cpp:148] Top shape: 24 512 14 14 (2408448)
I0403 15:59:36.058974 20598 net.cpp:156] Memory required for data: 977814816
I0403 15:59:36.058989 20598 layer_factory.hpp:77] Creating layer inception_4b/pool_proj
I0403 15:59:36.059011 20598 net.cpp:91] Creating Layer inception_4b/pool_proj
I0403 15:59:36.059028 20598 net.cpp:425] inception_4b/pool_proj <- inception_4b/pool
I0403 15:59:36.059053 20598 net.cpp:399] inception_4b/pool_proj -> inception_4b/pool_proj
I0403 15:59:36.060287 20598 net.cpp:141] Setting up inception_4b/pool_proj
I0403 15:59:36.060318 20598 net.cpp:148] Top shape: 24 64 14 14 (301056)
I0403 15:59:36.060335 20598 net.cpp:156] Memory required for data: 979019040
I0403 15:59:36.060354 20598 layer_factory.hpp:77] Creating layer inception_4b/relu_pool_proj
I0403 15:59:36.060371 20598 net.cpp:91] Creating Layer inception_4b/relu_pool_proj
I0403 15:59:36.060389 20598 net.cpp:425] inception_4b/relu_pool_proj <- inception_4b/pool_proj
I0403 15:59:36.060407 20598 net.cpp:386] inception_4b/relu_pool_proj -> inception_4b/pool_proj (in-place)
I0403 15:59:36.060593 20598 net.cpp:141] Setting up inception_4b/relu_pool_proj
I0403 15:59:36.060618 20598 net.cpp:148] Top shape: 24 64 14 14 (301056)
I0403 15:59:36.060633 20598 net.cpp:156] Memory required for data: 980223264
I0403 15:59:36.060648 20598 layer_factory.hpp:77] Creating layer inception_4b/output
I0403 15:59:36.060667 20598 net.cpp:91] Creating Layer inception_4b/output
I0403 15:59:36.060681 20598 net.cpp:425] inception_4b/output <- inception_4b/1x1
I0403 15:59:36.060698 20598 net.cpp:425] inception_4b/output <- inception_4b/3x3
I0403 15:59:36.060714 20598 net.cpp:425] inception_4b/output <- inception_4b/5x5
I0403 15:59:36.060729 20598 net.cpp:425] inception_4b/output <- inception_4b/pool_proj
I0403 15:59:36.060750 20598 net.cpp:399] inception_4b/output -> inception_4b/output
I0403 15:59:36.060796 20598 net.cpp:141] Setting up inception_4b/output
I0403 15:59:36.060822 20598 net.cpp:148] Top shape: 24 512 14 14 (2408448)
I0403 15:59:36.060837 20598 net.cpp:156] Memory required for data: 989857056
I0403 15:59:36.060866 20598 layer_factory.hpp:77] Creating layer inception_4b/output_inception_4b/output_0_split
I0403 15:59:36.060884 20598 net.cpp:91] Creating Layer inception_4b/output_inception_4b/output_0_split
I0403 15:59:36.060900 20598 net.cpp:425] inception_4b/output_inception_4b/output_0_split <- inception_4b/output
I0403 15:59:36.060919 20598 net.cpp:399] inception_4b/output_inception_4b/output_0_split -> inception_4b/output_inception_4b/output_0_split_0
I0403 15:59:36.060940 20598 net.cpp:399] inception_4b/output_inception_4b/output_0_split -> inception_4b/output_inception_4b/output_0_split_1
I0403 15:59:36.060964 20598 net.cpp:399] inception_4b/output_inception_4b/output_0_split -> inception_4b/output_inception_4b/output_0_split_2
I0403 15:59:36.060986 20598 net.cpp:399] inception_4b/output_inception_4b/output_0_split -> inception_4b/output_inception_4b/output_0_split_3
I0403 15:59:36.061077 20598 net.cpp:141] Setting up inception_4b/output_inception_4b/output_0_split
I0403 15:59:36.061101 20598 net.cpp:148] Top shape: 24 512 14 14 (2408448)
I0403 15:59:36.061118 20598 net.cpp:148] Top shape: 24 512 14 14 (2408448)
I0403 15:59:36.061134 20598 net.cpp:148] Top shape: 24 512 14 14 (2408448)
I0403 15:59:36.061149 20598 net.cpp:148] Top shape: 24 512 14 14 (2408448)
I0403 15:59:36.061163 20598 net.cpp:156] Memory required for data: 1028392224
I0403 15:59:36.061178 20598 layer_factory.hpp:77] Creating layer inception_4c/1x1
I0403 15:59:36.061202 20598 net.cpp:91] Creating Layer inception_4c/1x1
I0403 15:59:36.061219 20598 net.cpp:425] inception_4c/1x1 <- inception_4b/output_inception_4b/output_0_split_0
I0403 15:59:36.061239 20598 net.cpp:399] inception_4c/1x1 -> inception_4c/1x1
I0403 15:59:36.062716 20598 net.cpp:141] Setting up inception_4c/1x1
I0403 15:59:36.062744 20598 net.cpp:148] Top shape: 24 128 14 14 (602112)
I0403 15:59:36.062760 20598 net.cpp:156] Memory required for data: 1030800672
I0403 15:59:36.062778 20598 layer_factory.hpp:77] Creating layer inception_4c/relu_1x1
I0403 15:59:36.062799 20598 net.cpp:91] Creating Layer inception_4c/relu_1x1
I0403 15:59:36.062815 20598 net.cpp:425] inception_4c/relu_1x1 <- inception_4c/1x1
I0403 15:59:36.062834 20598 net.cpp:386] inception_4c/relu_1x1 -> inception_4c/1x1 (in-place)
I0403 15:59:36.063017 20598 net.cpp:141] Setting up inception_4c/relu_1x1
I0403 15:59:36.063045 20598 net.cpp:148] Top shape: 24 128 14 14 (602112)
I0403 15:59:36.063066 20598 net.cpp:156] Memory required for data: 1033209120
I0403 15:59:36.063081 20598 layer_factory.hpp:77] Creating layer inception_4c/3x3_reduce
I0403 15:59:36.063102 20598 net.cpp:91] Creating Layer inception_4c/3x3_reduce
I0403 15:59:36.063118 20598 net.cpp:425] inception_4c/3x3_reduce <- inception_4b/output_inception_4b/output_0_split_1
I0403 15:59:36.063140 20598 net.cpp:399] inception_4c/3x3_reduce -> inception_4c/3x3_reduce
I0403 15:59:36.065126 20598 net.cpp:141] Setting up inception_4c/3x3_reduce
I0403 15:59:36.065158 20598 net.cpp:148] Top shape: 24 128 14 14 (602112)
I0403 15:59:36.065176 20598 net.cpp:156] Memory required for data: 1035617568
I0403 15:59:36.065196 20598 layer_factory.hpp:77] Creating layer inception_4c/relu_3x3_reduce
I0403 15:59:36.065214 20598 net.cpp:91] Creating Layer inception_4c/relu_3x3_reduce
I0403 15:59:36.065230 20598 net.cpp:425] inception_4c/relu_3x3_reduce <- inception_4c/3x3_reduce
I0403 15:59:36.065248 20598 net.cpp:386] inception_4c/relu_3x3_reduce -> inception_4c/3x3_reduce (in-place)
I0403 15:59:36.065542 20598 net.cpp:141] Setting up inception_4c/relu_3x3_reduce
I0403 15:59:36.065572 20598 net.cpp:148] Top shape: 24 128 14 14 (602112)
I0403 15:59:36.065588 20598 net.cpp:156] Memory required for data: 1038026016
I0403 15:59:36.065603 20598 layer_factory.hpp:77] Creating layer inception_4c/3x3
I0403 15:59:36.065628 20598 net.cpp:91] Creating Layer inception_4c/3x3
I0403 15:59:36.065645 20598 net.cpp:425] inception_4c/3x3 <- inception_4c/3x3_reduce
I0403 15:59:36.065665 20598 net.cpp:399] inception_4c/3x3 -> inception_4c/3x3
I0403 15:59:36.069407 20598 net.cpp:141] Setting up inception_4c/3x3
I0403 15:59:36.069453 20598 net.cpp:148] Top shape: 24 256 14 14 (1204224)
I0403 15:59:36.069470 20598 net.cpp:156] Memory required for data: 1042842912
I0403 15:59:36.069504 20598 layer_factory.hpp:77] Creating layer inception_4c/relu_3x3
I0403 15:59:36.069525 20598 net.cpp:91] Creating Layer inception_4c/relu_3x3
I0403 15:59:36.069541 20598 net.cpp:425] inception_4c/relu_3x3 <- inception_4c/3x3
I0403 15:59:36.069561 20598 net.cpp:386] inception_4c/relu_3x3 -> inception_4c/3x3 (in-place)
I0403 15:59:36.069746 20598 net.cpp:141] Setting up inception_4c/relu_3x3
I0403 15:59:36.069772 20598 net.cpp:148] Top shape: 24 256 14 14 (1204224)
I0403 15:59:36.069787 20598 net.cpp:156] Memory required for data: 1047659808
I0403 15:59:36.069802 20598 layer_factory.hpp:77] Creating layer inception_4c/5x5_reduce
I0403 15:59:36.069824 20598 net.cpp:91] Creating Layer inception_4c/5x5_reduce
I0403 15:59:36.069844 20598 net.cpp:425] inception_4c/5x5_reduce <- inception_4b/output_inception_4b/output_0_split_2
I0403 15:59:36.069865 20598 net.cpp:399] inception_4c/5x5_reduce -> inception_4c/5x5_reduce
I0403 15:59:36.070991 20598 net.cpp:141] Setting up inception_4c/5x5_reduce
I0403 15:59:36.071022 20598 net.cpp:148] Top shape: 24 24 14 14 (112896)
I0403 15:59:36.071038 20598 net.cpp:156] Memory required for data: 1048111392
I0403 15:59:36.071061 20598 layer_factory.hpp:77] Creating layer inception_4c/relu_5x5_reduce
I0403 15:59:36.071080 20598 net.cpp:91] Creating Layer inception_4c/relu_5x5_reduce
I0403 15:59:36.071097 20598 net.cpp:425] inception_4c/relu_5x5_reduce <- inception_4c/5x5_reduce
I0403 15:59:36.071116 20598 net.cpp:386] inception_4c/relu_5x5_reduce -> inception_4c/5x5_reduce (in-place)
I0403 15:59:36.071307 20598 net.cpp:141] Setting up inception_4c/relu_5x5_reduce
I0403 15:59:36.071332 20598 net.cpp:148] Top shape: 24 24 14 14 (112896)
I0403 15:59:36.071349 20598 net.cpp:156] Memory required for data: 1048562976
I0403 15:59:36.071364 20598 layer_factory.hpp:77] Creating layer inception_4c/5x5
I0403 15:59:36.071387 20598 net.cpp:91] Creating Layer inception_4c/5x5
I0403 15:59:36.071405 20598 net.cpp:425] inception_4c/5x5 <- inception_4c/5x5_reduce
I0403 15:59:36.071426 20598 net.cpp:399] inception_4c/5x5 -> inception_4c/5x5
I0403 15:59:36.072732 20598 net.cpp:141] Setting up inception_4c/5x5
I0403 15:59:36.072762 20598 net.cpp:148] Top shape: 24 64 14 14 (301056)
I0403 15:59:36.072777 20598 net.cpp:156] Memory required for data: 1049767200
I0403 15:59:36.072796 20598 layer_factory.hpp:77] Creating layer inception_4c/relu_5x5
I0403 15:59:36.072815 20598 net.cpp:91] Creating Layer inception_4c/relu_5x5
I0403 15:59:36.072831 20598 net.cpp:425] inception_4c/relu_5x5 <- inception_4c/5x5
I0403 15:59:36.072851 20598 net.cpp:386] inception_4c/relu_5x5 -> inception_4c/5x5 (in-place)
I0403 15:59:36.073161 20598 net.cpp:141] Setting up inception_4c/relu_5x5
I0403 15:59:36.073189 20598 net.cpp:148] Top shape: 24 64 14 14 (301056)
I0403 15:59:36.073205 20598 net.cpp:156] Memory required for data: 1050971424
I0403 15:59:36.073220 20598 layer_factory.hpp:77] Creating layer inception_4c/pool
I0403 15:59:36.073238 20598 net.cpp:91] Creating Layer inception_4c/pool
I0403 15:59:36.073256 20598 net.cpp:425] inception_4c/pool <- inception_4b/output_inception_4b/output_0_split_3
I0403 15:59:36.073277 20598 net.cpp:399] inception_4c/pool -> inception_4c/pool
I0403 15:59:36.073348 20598 net.cpp:141] Setting up inception_4c/pool
I0403 15:59:36.073374 20598 net.cpp:148] Top shape: 24 512 14 14 (2408448)
I0403 15:59:36.073388 20598 net.cpp:156] Memory required for data: 1060605216
I0403 15:59:36.073405 20598 layer_factory.hpp:77] Creating layer inception_4c/pool_proj
I0403 15:59:36.073429 20598 net.cpp:91] Creating Layer inception_4c/pool_proj
I0403 15:59:36.073448 20598 net.cpp:425] inception_4c/pool_proj <- inception_4c/pool
I0403 15:59:36.073467 20598 net.cpp:399] inception_4c/pool_proj -> inception_4c/pool_proj
I0403 15:59:36.074767 20598 net.cpp:141] Setting up inception_4c/pool_proj
I0403 15:59:36.074800 20598 net.cpp:148] Top shape: 24 64 14 14 (301056)
I0403 15:59:36.074831 20598 net.cpp:156] Memory required for data: 1061809440
I0403 15:59:36.074851 20598 layer_factory.hpp:77] Creating layer inception_4c/relu_pool_proj
I0403 15:59:36.074870 20598 net.cpp:91] Creating Layer inception_4c/relu_pool_proj
I0403 15:59:36.074887 20598 net.cpp:425] inception_4c/relu_pool_proj <- inception_4c/pool_proj
I0403 15:59:36.074908 20598 net.cpp:386] inception_4c/relu_pool_proj -> inception_4c/pool_proj (in-place)
I0403 15:59:36.075106 20598 net.cpp:141] Setting up inception_4c/relu_pool_proj
I0403 15:59:36.075132 20598 net.cpp:148] Top shape: 24 64 14 14 (301056)
I0403 15:59:36.075147 20598 net.cpp:156] Memory required for data: 1063013664
I0403 15:59:36.075162 20598 layer_factory.hpp:77] Creating layer inception_4c/output
I0403 15:59:36.075179 20598 net.cpp:91] Creating Layer inception_4c/output
I0403 15:59:36.075196 20598 net.cpp:425] inception_4c/output <- inception_4c/1x1
I0403 15:59:36.075213 20598 net.cpp:425] inception_4c/output <- inception_4c/3x3
I0403 15:59:36.075230 20598 net.cpp:425] inception_4c/output <- inception_4c/5x5
I0403 15:59:36.075247 20598 net.cpp:425] inception_4c/output <- inception_4c/pool_proj
I0403 15:59:36.075266 20598 net.cpp:399] inception_4c/output -> inception_4c/output
I0403 15:59:36.075315 20598 net.cpp:141] Setting up inception_4c/output
I0403 15:59:36.075342 20598 net.cpp:148] Top shape: 24 512 14 14 (2408448)
I0403 15:59:36.075358 20598 net.cpp:156] Memory required for data: 1072647456
I0403 15:59:36.075373 20598 layer_factory.hpp:77] Creating layer inception_4c/output_inception_4c/output_0_split
I0403 15:59:36.075392 20598 net.cpp:91] Creating Layer inception_4c/output_inception_4c/output_0_split
I0403 15:59:36.075408 20598 net.cpp:425] inception_4c/output_inception_4c/output_0_split <- inception_4c/output
I0403 15:59:36.075425 20598 net.cpp:399] inception_4c/output_inception_4c/output_0_split -> inception_4c/output_inception_4c/output_0_split_0
I0403 15:59:36.075449 20598 net.cpp:399] inception_4c/output_inception_4c/output_0_split -> inception_4c/output_inception_4c/output_0_split_1
I0403 15:59:36.075471 20598 net.cpp:399] inception_4c/output_inception_4c/output_0_split -> inception_4c/output_inception_4c/output_0_split_2
I0403 15:59:36.075494 20598 net.cpp:399] inception_4c/output_inception_4c/output_0_split -> inception_4c/output_inception_4c/output_0_split_3
I0403 15:59:36.075584 20598 net.cpp:141] Setting up inception_4c/output_inception_4c/output_0_split
I0403 15:59:36.075609 20598 net.cpp:148] Top shape: 24 512 14 14 (2408448)
I0403 15:59:36.075626 20598 net.cpp:148] Top shape: 24 512 14 14 (2408448)
I0403 15:59:36.075642 20598 net.cpp:148] Top shape: 24 512 14 14 (2408448)
I0403 15:59:36.075659 20598 net.cpp:148] Top shape: 24 512 14 14 (2408448)
I0403 15:59:36.075673 20598 net.cpp:156] Memory required for data: 1111182624
I0403 15:59:36.075688 20598 layer_factory.hpp:77] Creating layer inception_4d/1x1
I0403 15:59:36.075712 20598 net.cpp:91] Creating Layer inception_4d/1x1
I0403 15:59:36.075731 20598 net.cpp:425] inception_4d/1x1 <- inception_4c/output_inception_4c/output_0_split_0
I0403 15:59:36.075752 20598 net.cpp:399] inception_4d/1x1 -> inception_4d/1x1
I0403 15:59:36.077222 20598 net.cpp:141] Setting up inception_4d/1x1
I0403 15:59:36.077252 20598 net.cpp:148] Top shape: 24 112 14 14 (526848)
I0403 15:59:36.077268 20598 net.cpp:156] Memory required for data: 1113290016
I0403 15:59:36.077287 20598 layer_factory.hpp:77] Creating layer inception_4d/relu_1x1
I0403 15:59:36.077309 20598 net.cpp:91] Creating Layer inception_4d/relu_1x1
I0403 15:59:36.077327 20598 net.cpp:425] inception_4d/relu_1x1 <- inception_4d/1x1
I0403 15:59:36.077345 20598 net.cpp:386] inception_4d/relu_1x1 -> inception_4d/1x1 (in-place)
I0403 15:59:36.077538 20598 net.cpp:141] Setting up inception_4d/relu_1x1
I0403 15:59:36.077566 20598 net.cpp:148] Top shape: 24 112 14 14 (526848)
I0403 15:59:36.077582 20598 net.cpp:156] Memory required for data: 1115397408
I0403 15:59:36.077599 20598 layer_factory.hpp:77] Creating layer inception_4d/3x3_reduce
I0403 15:59:36.077636 20598 net.cpp:91] Creating Layer inception_4d/3x3_reduce
I0403 15:59:36.077656 20598 net.cpp:425] inception_4d/3x3_reduce <- inception_4c/output_inception_4c/output_0_split_1
I0403 15:59:36.077675 20598 net.cpp:399] inception_4d/3x3_reduce -> inception_4d/3x3_reduce
I0403 15:59:36.079293 20598 net.cpp:141] Setting up inception_4d/3x3_reduce
I0403 15:59:36.079322 20598 net.cpp:148] Top shape: 24 144 14 14 (677376)
I0403 15:59:36.079339 20598 net.cpp:156] Memory required for data: 1118106912
I0403 15:59:36.079357 20598 layer_factory.hpp:77] Creating layer inception_4d/relu_3x3_reduce
I0403 15:59:36.079380 20598 net.cpp:91] Creating Layer inception_4d/relu_3x3_reduce
I0403 15:59:36.079397 20598 net.cpp:425] inception_4d/relu_3x3_reduce <- inception_4d/3x3_reduce
I0403 15:59:36.079416 20598 net.cpp:386] inception_4d/relu_3x3_reduce -> inception_4d/3x3_reduce (in-place)
I0403 15:59:36.079718 20598 net.cpp:141] Setting up inception_4d/relu_3x3_reduce
I0403 15:59:36.079746 20598 net.cpp:148] Top shape: 24 144 14 14 (677376)
I0403 15:59:36.079762 20598 net.cpp:156] Memory required for data: 1120816416
I0403 15:59:36.079777 20598 layer_factory.hpp:77] Creating layer inception_4d/3x3
I0403 15:59:36.079802 20598 net.cpp:91] Creating Layer inception_4d/3x3
I0403 15:59:36.079819 20598 net.cpp:425] inception_4d/3x3 <- inception_4d/3x3_reduce
I0403 15:59:36.079843 20598 net.cpp:399] inception_4d/3x3 -> inception_4d/3x3
I0403 15:59:36.084352 20598 net.cpp:141] Setting up inception_4d/3x3
I0403 15:59:36.084383 20598 net.cpp:148] Top shape: 24 288 14 14 (1354752)
I0403 15:59:36.084403 20598 net.cpp:156] Memory required for data: 1126235424
I0403 15:59:36.084422 20598 layer_factory.hpp:77] Creating layer inception_4d/relu_3x3
I0403 15:59:36.084441 20598 net.cpp:91] Creating Layer inception_4d/relu_3x3
I0403 15:59:36.084458 20598 net.cpp:425] inception_4d/relu_3x3 <- inception_4d/3x3
I0403 15:59:36.084475 20598 net.cpp:386] inception_4d/relu_3x3 -> inception_4d/3x3 (in-place)
I0403 15:59:36.084669 20598 net.cpp:141] Setting up inception_4d/relu_3x3
I0403 15:59:36.084697 20598 net.cpp:148] Top shape: 24 288 14 14 (1354752)
I0403 15:59:36.084713 20598 net.cpp:156] Memory required for data: 1131654432
I0403 15:59:36.084729 20598 layer_factory.hpp:77] Creating layer inception_4d/5x5_reduce
I0403 15:59:36.084753 20598 net.cpp:91] Creating Layer inception_4d/5x5_reduce
I0403 15:59:36.084771 20598 net.cpp:425] inception_4d/5x5_reduce <- inception_4c/output_inception_4c/output_0_split_2
I0403 15:59:36.084791 20598 net.cpp:399] inception_4d/5x5_reduce -> inception_4d/5x5_reduce
I0403 15:59:36.086001 20598 net.cpp:141] Setting up inception_4d/5x5_reduce
I0403 15:59:36.086030 20598 net.cpp:148] Top shape: 24 32 14 14 (150528)
I0403 15:59:36.086046 20598 net.cpp:156] Memory required for data: 1132256544
I0403 15:59:36.086076 20598 layer_factory.hpp:77] Creating layer inception_4d/relu_5x5_reduce
I0403 15:59:36.086097 20598 net.cpp:91] Creating Layer inception_4d/relu_5x5_reduce
I0403 15:59:36.086115 20598 net.cpp:425] inception_4d/relu_5x5_reduce <- inception_4d/5x5_reduce
I0403 15:59:36.086133 20598 net.cpp:386] inception_4d/relu_5x5_reduce -> inception_4d/5x5_reduce (in-place)
I0403 15:59:36.086331 20598 net.cpp:141] Setting up inception_4d/relu_5x5_reduce
I0403 15:59:36.086369 20598 net.cpp:148] Top shape: 24 32 14 14 (150528)
I0403 15:59:36.086383 20598 net.cpp:156] Memory required for data: 1132858656
I0403 15:59:36.086400 20598 layer_factory.hpp:77] Creating layer inception_4d/5x5
I0403 15:59:36.086422 20598 net.cpp:91] Creating Layer inception_4d/5x5
I0403 15:59:36.086441 20598 net.cpp:425] inception_4d/5x5 <- inception_4d/5x5_reduce
I0403 15:59:36.086462 20598 net.cpp:399] inception_4d/5x5 -> inception_4d/5x5
I0403 15:59:36.088022 20598 net.cpp:141] Setting up inception_4d/5x5
I0403 15:59:36.088062 20598 net.cpp:148] Top shape: 24 64 14 14 (301056)
I0403 15:59:36.088080 20598 net.cpp:156] Memory required for data: 1134062880
I0403 15:59:36.088100 20598 layer_factory.hpp:77] Creating layer inception_4d/relu_5x5
I0403 15:59:36.088135 20598 net.cpp:91] Creating Layer inception_4d/relu_5x5
I0403 15:59:36.088155 20598 net.cpp:425] inception_4d/relu_5x5 <- inception_4d/5x5
I0403 15:59:36.088174 20598 net.cpp:386] inception_4d/relu_5x5 -> inception_4d/5x5 (in-place)
I0403 15:59:36.088493 20598 net.cpp:141] Setting up inception_4d/relu_5x5
I0403 15:59:36.088521 20598 net.cpp:148] Top shape: 24 64 14 14 (301056)
I0403 15:59:36.088537 20598 net.cpp:156] Memory required for data: 1135267104
I0403 15:59:36.088553 20598 layer_factory.hpp:77] Creating layer inception_4d/pool
I0403 15:59:36.088572 20598 net.cpp:91] Creating Layer inception_4d/pool
I0403 15:59:36.088588 20598 net.cpp:425] inception_4d/pool <- inception_4c/output_inception_4c/output_0_split_3
I0403 15:59:36.088610 20598 net.cpp:399] inception_4d/pool -> inception_4d/pool
I0403 15:59:36.088682 20598 net.cpp:141] Setting up inception_4d/pool
I0403 15:59:36.088708 20598 net.cpp:148] Top shape: 24 512 14 14 (2408448)
I0403 15:59:36.088723 20598 net.cpp:156] Memory required for data: 1144900896
I0403 15:59:36.088739 20598 layer_factory.hpp:77] Creating layer inception_4d/pool_proj
I0403 15:59:36.088763 20598 net.cpp:91] Creating Layer inception_4d/pool_proj
I0403 15:59:36.088783 20598 net.cpp:425] inception_4d/pool_proj <- inception_4d/pool
I0403 15:59:36.088803 20598 net.cpp:399] inception_4d/pool_proj -> inception_4d/pool_proj
I0403 15:59:36.090667 20598 net.cpp:141] Setting up inception_4d/pool_proj
I0403 15:59:36.090699 20598 net.cpp:148] Top shape: 24 64 14 14 (301056)
I0403 15:59:36.090719 20598 net.cpp:156] Memory required for data: 1146105120
I0403 15:59:36.090739 20598 layer_factory.hpp:77] Creating layer inception_4d/relu_pool_proj
I0403 15:59:36.090757 20598 net.cpp:91] Creating Layer inception_4d/relu_pool_proj
I0403 15:59:36.090775 20598 net.cpp:425] inception_4d/relu_pool_proj <- inception_4d/pool_proj
I0403 15:59:36.090792 20598 net.cpp:386] inception_4d/relu_pool_proj -> inception_4d/pool_proj (in-place)
I0403 15:59:36.090991 20598 net.cpp:141] Setting up inception_4d/relu_pool_proj
I0403 15:59:36.091019 20598 net.cpp:148] Top shape: 24 64 14 14 (301056)
I0403 15:59:36.091035 20598 net.cpp:156] Memory required for data: 1147309344
I0403 15:59:36.091056 20598 layer_factory.hpp:77] Creating layer inception_4d/output
I0403 15:59:36.091075 20598 net.cpp:91] Creating Layer inception_4d/output
I0403 15:59:36.091092 20598 net.cpp:425] inception_4d/output <- inception_4d/1x1
I0403 15:59:36.091109 20598 net.cpp:425] inception_4d/output <- inception_4d/3x3
I0403 15:59:36.091125 20598 net.cpp:425] inception_4d/output <- inception_4d/5x5
I0403 15:59:36.091141 20598 net.cpp:425] inception_4d/output <- inception_4d/pool_proj
I0403 15:59:36.091162 20598 net.cpp:399] inception_4d/output -> inception_4d/output
I0403 15:59:36.091212 20598 net.cpp:141] Setting up inception_4d/output
I0403 15:59:36.091238 20598 net.cpp:148] Top shape: 24 528 14 14 (2483712)
I0403 15:59:36.091253 20598 net.cpp:156] Memory required for data: 1157244192
I0403 15:59:36.091267 20598 layer_factory.hpp:77] Creating layer inception_4d/output_inception_4d/output_0_split
I0403 15:59:36.091289 20598 net.cpp:91] Creating Layer inception_4d/output_inception_4d/output_0_split
I0403 15:59:36.091306 20598 net.cpp:425] inception_4d/output_inception_4d/output_0_split <- inception_4d/output
I0403 15:59:36.091325 20598 net.cpp:399] inception_4d/output_inception_4d/output_0_split -> inception_4d/output_inception_4d/output_0_split_0
I0403 15:59:36.091351 20598 net.cpp:399] inception_4d/output_inception_4d/output_0_split -> inception_4d/output_inception_4d/output_0_split_1
I0403 15:59:36.091374 20598 net.cpp:399] inception_4d/output_inception_4d/output_0_split -> inception_4d/output_inception_4d/output_0_split_2
I0403 15:59:36.091397 20598 net.cpp:399] inception_4d/output_inception_4d/output_0_split -> inception_4d/output_inception_4d/output_0_split_3
I0403 15:59:36.091418 20598 net.cpp:399] inception_4d/output_inception_4d/output_0_split -> inception_4d/output_inception_4d/output_0_split_4
I0403 15:59:36.091524 20598 net.cpp:141] Setting up inception_4d/output_inception_4d/output_0_split
I0403 15:59:36.091562 20598 net.cpp:148] Top shape: 24 528 14 14 (2483712)
I0403 15:59:36.091580 20598 net.cpp:148] Top shape: 24 528 14 14 (2483712)
I0403 15:59:36.091598 20598 net.cpp:148] Top shape: 24 528 14 14 (2483712)
I0403 15:59:36.091614 20598 net.cpp:148] Top shape: 24 528 14 14 (2483712)
I0403 15:59:36.091630 20598 net.cpp:148] Top shape: 24 528 14 14 (2483712)
I0403 15:59:36.091645 20598 net.cpp:156] Memory required for data: 1206918432
I0403 15:59:36.091660 20598 layer_factory.hpp:77] Creating layer loss2/ave_pool
I0403 15:59:36.091681 20598 net.cpp:91] Creating Layer loss2/ave_pool
I0403 15:59:36.091698 20598 net.cpp:425] loss2/ave_pool <- inception_4d/output_inception_4d/output_0_split_0
I0403 15:59:36.091718 20598 net.cpp:399] loss2/ave_pool -> loss2/ave_pool
I0403 15:59:36.092046 20598 net.cpp:141] Setting up loss2/ave_pool
I0403 15:59:36.092080 20598 net.cpp:148] Top shape: 24 528 4 4 (202752)
I0403 15:59:36.092097 20598 net.cpp:156] Memory required for data: 1207729440
I0403 15:59:36.092113 20598 layer_factory.hpp:77] Creating layer loss2/conv
I0403 15:59:36.092134 20598 net.cpp:91] Creating Layer loss2/conv
I0403 15:59:36.092152 20598 net.cpp:425] loss2/conv <- loss2/ave_pool
I0403 15:59:36.092175 20598 net.cpp:399] loss2/conv -> loss2/conv
I0403 15:59:36.094180 20598 net.cpp:141] Setting up loss2/conv
I0403 15:59:36.094211 20598 net.cpp:148] Top shape: 24 128 4 4 (49152)
I0403 15:59:36.094228 20598 net.cpp:156] Memory required for data: 1207926048
I0403 15:59:36.094247 20598 layer_factory.hpp:77] Creating layer loss2/relu_conv
I0403 15:59:36.094266 20598 net.cpp:91] Creating Layer loss2/relu_conv
I0403 15:59:36.094283 20598 net.cpp:425] loss2/relu_conv <- loss2/conv
I0403 15:59:36.094305 20598 net.cpp:386] loss2/relu_conv -> loss2/conv (in-place)
I0403 15:59:36.094606 20598 net.cpp:141] Setting up loss2/relu_conv
I0403 15:59:36.094635 20598 net.cpp:148] Top shape: 24 128 4 4 (49152)
I0403 15:59:36.094650 20598 net.cpp:156] Memory required for data: 1208122656
I0403 15:59:36.094666 20598 layer_factory.hpp:77] Creating layer loss2/fc
I0403 15:59:36.094686 20598 net.cpp:91] Creating Layer loss2/fc
I0403 15:59:36.094703 20598 net.cpp:425] loss2/fc <- loss2/conv
I0403 15:59:36.094727 20598 net.cpp:399] loss2/fc -> loss2/fc
I0403 15:59:36.113487 20598 net.cpp:141] Setting up loss2/fc
I0403 15:59:36.113545 20598 net.cpp:148] Top shape: 24 1024 (24576)
I0403 15:59:36.113561 20598 net.cpp:156] Memory required for data: 1208220960
I0403 15:59:36.113584 20598 layer_factory.hpp:77] Creating layer loss2/relu_fc
I0403 15:59:36.113610 20598 net.cpp:91] Creating Layer loss2/relu_fc
I0403 15:59:36.113629 20598 net.cpp:425] loss2/relu_fc <- loss2/fc
I0403 15:59:36.113648 20598 net.cpp:386] loss2/relu_fc -> loss2/fc (in-place)
I0403 15:59:36.114007 20598 net.cpp:141] Setting up loss2/relu_fc
I0403 15:59:36.114040 20598 net.cpp:148] Top shape: 24 1024 (24576)
I0403 15:59:36.114061 20598 net.cpp:156] Memory required for data: 1208319264
I0403 15:59:36.114078 20598 layer_factory.hpp:77] Creating layer loss2/drop_fc
I0403 15:59:36.114097 20598 net.cpp:91] Creating Layer loss2/drop_fc
I0403 15:59:36.114114 20598 net.cpp:425] loss2/drop_fc <- loss2/fc
I0403 15:59:36.114132 20598 net.cpp:386] loss2/drop_fc -> loss2/fc (in-place)
I0403 15:59:36.114189 20598 net.cpp:141] Setting up loss2/drop_fc
I0403 15:59:36.114214 20598 net.cpp:148] Top shape: 24 1024 (24576)
I0403 15:59:36.114230 20598 net.cpp:156] Memory required for data: 1208417568
I0403 15:59:36.114245 20598 layer_factory.hpp:77] Creating layer loss2/classifier_plantvillage
I0403 15:59:36.114269 20598 net.cpp:91] Creating Layer loss2/classifier_plantvillage
I0403 15:59:36.114287 20598 net.cpp:425] loss2/classifier_plantvillage <- loss2/fc
I0403 15:59:36.114307 20598 net.cpp:399] loss2/classifier_plantvillage -> loss2/classifier_plantvillage
I0403 15:59:36.114747 20598 net.cpp:141] Setting up loss2/classifier_plantvillage
I0403 15:59:36.114773 20598 net.cpp:148] Top shape: 24 38 (912)
I0403 15:59:36.114814 20598 net.cpp:156] Memory required for data: 1208421216
I0403 15:59:36.114835 20598 layer_factory.hpp:77] Creating layer loss2/classifier_plantvillage_loss2/classifier_plantvillage_0_split
I0403 15:59:36.114855 20598 net.cpp:91] Creating Layer loss2/classifier_plantvillage_loss2/classifier_plantvillage_0_split
I0403 15:59:36.114871 20598 net.cpp:425] loss2/classifier_plantvillage_loss2/classifier_plantvillage_0_split <- loss2/classifier_plantvillage
I0403 15:59:36.114892 20598 net.cpp:399] loss2/classifier_plantvillage_loss2/classifier_plantvillage_0_split -> loss2/classifier_plantvillage_loss2/classifier_plantvillage_0_split_0
I0403 15:59:36.114915 20598 net.cpp:399] loss2/classifier_plantvillage_loss2/classifier_plantvillage_0_split -> loss2/classifier_plantvillage_loss2/classifier_plantvillage_0_split_1
I0403 15:59:36.114938 20598 net.cpp:399] loss2/classifier_plantvillage_loss2/classifier_plantvillage_0_split -> loss2/classifier_plantvillage_loss2/classifier_plantvillage_0_split_2
I0403 15:59:36.115020 20598 net.cpp:141] Setting up loss2/classifier_plantvillage_loss2/classifier_plantvillage_0_split
I0403 15:59:36.115051 20598 net.cpp:148] Top shape: 24 38 (912)
I0403 15:59:36.115070 20598 net.cpp:148] Top shape: 24 38 (912)
I0403 15:59:36.115087 20598 net.cpp:148] Top shape: 24 38 (912)
I0403 15:59:36.115102 20598 net.cpp:156] Memory required for data: 1208432160
I0403 15:59:36.115116 20598 layer_factory.hpp:77] Creating layer inception_4e/1x1
I0403 15:59:36.115139 20598 net.cpp:91] Creating Layer inception_4e/1x1
I0403 15:59:36.115157 20598 net.cpp:425] inception_4e/1x1 <- inception_4d/output_inception_4d/output_0_split_1
I0403 15:59:36.115177 20598 net.cpp:399] inception_4e/1x1 -> inception_4e/1x1
I0403 15:59:36.117149 20598 net.cpp:141] Setting up inception_4e/1x1
I0403 15:59:36.117178 20598 net.cpp:148] Top shape: 24 256 14 14 (1204224)
I0403 15:59:36.117195 20598 net.cpp:156] Memory required for data: 1213249056
I0403 15:59:36.117213 20598 layer_factory.hpp:77] Creating layer inception_4e/relu_1x1
I0403 15:59:36.117233 20598 net.cpp:91] Creating Layer inception_4e/relu_1x1
I0403 15:59:36.117249 20598 net.cpp:425] inception_4e/relu_1x1 <- inception_4e/1x1
I0403 15:59:36.117270 20598 net.cpp:386] inception_4e/relu_1x1 -> inception_4e/1x1 (in-place)
I0403 15:59:36.117583 20598 net.cpp:141] Setting up inception_4e/relu_1x1
I0403 15:59:36.117611 20598 net.cpp:148] Top shape: 24 256 14 14 (1204224)
I0403 15:59:36.117627 20598 net.cpp:156] Memory required for data: 1218065952
I0403 15:59:36.117642 20598 layer_factory.hpp:77] Creating layer inception_4e/3x3_reduce
I0403 15:59:36.117666 20598 net.cpp:91] Creating Layer inception_4e/3x3_reduce
I0403 15:59:36.117684 20598 net.cpp:425] inception_4e/3x3_reduce <- inception_4d/output_inception_4d/output_0_split_2
I0403 15:59:36.117707 20598 net.cpp:399] inception_4e/3x3_reduce -> inception_4e/3x3_reduce
I0403 15:59:36.119994 20598 net.cpp:141] Setting up inception_4e/3x3_reduce
I0403 15:59:36.120028 20598 net.cpp:148] Top shape: 24 160 14 14 (752640)
I0403 15:59:36.120045 20598 net.cpp:156] Memory required for data: 1221076512
I0403 15:59:36.120070 20598 layer_factory.hpp:77] Creating layer inception_4e/relu_3x3_reduce
I0403 15:59:36.120090 20598 net.cpp:91] Creating Layer inception_4e/relu_3x3_reduce
I0403 15:59:36.120107 20598 net.cpp:425] inception_4e/relu_3x3_reduce <- inception_4e/3x3_reduce
I0403 15:59:36.120127 20598 net.cpp:386] inception_4e/relu_3x3_reduce -> inception_4e/3x3_reduce (in-place)
I0403 15:59:36.120326 20598 net.cpp:141] Setting up inception_4e/relu_3x3_reduce
I0403 15:59:36.120353 20598 net.cpp:148] Top shape: 24 160 14 14 (752640)
I0403 15:59:36.120368 20598 net.cpp:156] Memory required for data: 1224087072
I0403 15:59:36.120383 20598 layer_factory.hpp:77] Creating layer inception_4e/3x3
I0403 15:59:36.120407 20598 net.cpp:91] Creating Layer inception_4e/3x3
I0403 15:59:36.120426 20598 net.cpp:425] inception_4e/3x3 <- inception_4e/3x3_reduce
I0403 15:59:36.120448 20598 net.cpp:399] inception_4e/3x3 -> inception_4e/3x3
I0403 15:59:36.125756 20598 net.cpp:141] Setting up inception_4e/3x3
I0403 15:59:36.125800 20598 net.cpp:148] Top shape: 24 320 14 14 (1505280)
I0403 15:59:36.125818 20598 net.cpp:156] Memory required for data: 1230108192
I0403 15:59:36.125838 20598 layer_factory.hpp:77] Creating layer inception_4e/relu_3x3
I0403 15:59:36.125860 20598 net.cpp:91] Creating Layer inception_4e/relu_3x3
I0403 15:59:36.125879 20598 net.cpp:425] inception_4e/relu_3x3 <- inception_4e/3x3
I0403 15:59:36.125896 20598 net.cpp:386] inception_4e/relu_3x3 -> inception_4e/3x3 (in-place)
I0403 15:59:36.126220 20598 net.cpp:141] Setting up inception_4e/relu_3x3
I0403 15:59:36.126248 20598 net.cpp:148] Top shape: 24 320 14 14 (1505280)
I0403 15:59:36.126265 20598 net.cpp:156] Memory required for data: 1236129312
I0403 15:59:36.126281 20598 layer_factory.hpp:77] Creating layer inception_4e/5x5_reduce
I0403 15:59:36.126304 20598 net.cpp:91] Creating Layer inception_4e/5x5_reduce
I0403 15:59:36.126327 20598 net.cpp:425] inception_4e/5x5_reduce <- inception_4d/output_inception_4d/output_0_split_3
I0403 15:59:36.126348 20598 net.cpp:399] inception_4e/5x5_reduce -> inception_4e/5x5_reduce
I0403 15:59:36.127496 20598 net.cpp:141] Setting up inception_4e/5x5_reduce
I0403 15:59:36.127526 20598 net.cpp:148] Top shape: 24 32 14 14 (150528)
I0403 15:59:36.127542 20598 net.cpp:156] Memory required for data: 1236731424
I0403 15:59:36.127562 20598 layer_factory.hpp:77] Creating layer inception_4e/relu_5x5_reduce
I0403 15:59:36.127583 20598 net.cpp:91] Creating Layer inception_4e/relu_5x5_reduce
I0403 15:59:36.127600 20598 net.cpp:425] inception_4e/relu_5x5_reduce <- inception_4e/5x5_reduce
I0403 15:59:36.127620 20598 net.cpp:386] inception_4e/relu_5x5_reduce -> inception_4e/5x5_reduce (in-place)
I0403 15:59:36.127943 20598 net.cpp:141] Setting up inception_4e/relu_5x5_reduce
I0403 15:59:36.127974 20598 net.cpp:148] Top shape: 24 32 14 14 (150528)
I0403 15:59:36.127990 20598 net.cpp:156] Memory required for data: 1237333536
I0403 15:59:36.128005 20598 layer_factory.hpp:77] Creating layer inception_4e/5x5
I0403 15:59:36.128046 20598 net.cpp:91] Creating Layer inception_4e/5x5
I0403 15:59:36.128082 20598 net.cpp:425] inception_4e/5x5 <- inception_4e/5x5_reduce
I0403 15:59:36.128103 20598 net.cpp:399] inception_4e/5x5 -> inception_4e/5x5
I0403 15:59:36.130075 20598 net.cpp:141] Setting up inception_4e/5x5
I0403 15:59:36.130107 20598 net.cpp:148] Top shape: 24 128 14 14 (602112)
I0403 15:59:36.130125 20598 net.cpp:156] Memory required for data: 1239741984
I0403 15:59:36.130146 20598 layer_factory.hpp:77] Creating layer inception_4e/relu_5x5
I0403 15:59:36.130164 20598 net.cpp:91] Creating Layer inception_4e/relu_5x5
I0403 15:59:36.130182 20598 net.cpp:425] inception_4e/relu_5x5 <- inception_4e/5x5
I0403 15:59:36.130199 20598 net.cpp:386] inception_4e/relu_5x5 -> inception_4e/5x5 (in-place)
I0403 15:59:36.130409 20598 net.cpp:141] Setting up inception_4e/relu_5x5
I0403 15:59:36.130436 20598 net.cpp:148] Top shape: 24 128 14 14 (602112)
I0403 15:59:36.130451 20598 net.cpp:156] Memory required for data: 1242150432
I0403 15:59:36.130466 20598 layer_factory.hpp:77] Creating layer inception_4e/pool
I0403 15:59:36.130486 20598 net.cpp:91] Creating Layer inception_4e/pool
I0403 15:59:36.130502 20598 net.cpp:425] inception_4e/pool <- inception_4d/output_inception_4d/output_0_split_4
I0403 15:59:36.130524 20598 net.cpp:399] inception_4e/pool -> inception_4e/pool
I0403 15:59:36.130599 20598 net.cpp:141] Setting up inception_4e/pool
I0403 15:59:36.130626 20598 net.cpp:148] Top shape: 24 528 14 14 (2483712)
I0403 15:59:36.130643 20598 net.cpp:156] Memory required for data: 1252085280
I0403 15:59:36.130658 20598 layer_factory.hpp:77] Creating layer inception_4e/pool_proj
I0403 15:59:36.130682 20598 net.cpp:91] Creating Layer inception_4e/pool_proj
I0403 15:59:36.130700 20598 net.cpp:425] inception_4e/pool_proj <- inception_4e/pool
I0403 15:59:36.130719 20598 net.cpp:399] inception_4e/pool_proj -> inception_4e/pool_proj
I0403 15:59:36.132323 20598 net.cpp:141] Setting up inception_4e/pool_proj
I0403 15:59:36.132367 20598 net.cpp:148] Top shape: 24 128 14 14 (602112)
I0403 15:59:36.132385 20598 net.cpp:156] Memory required for data: 1254493728
I0403 15:59:36.132405 20598 layer_factory.hpp:77] Creating layer inception_4e/relu_pool_proj
I0403 15:59:36.132423 20598 net.cpp:91] Creating Layer inception_4e/relu_pool_proj
I0403 15:59:36.132441 20598 net.cpp:425] inception_4e/relu_pool_proj <- inception_4e/pool_proj
I0403 15:59:36.132459 20598 net.cpp:386] inception_4e/relu_pool_proj -> inception_4e/pool_proj (in-place)
I0403 15:59:36.132769 20598 net.cpp:141] Setting up inception_4e/relu_pool_proj
I0403 15:59:36.132799 20598 net.cpp:148] Top shape: 24 128 14 14 (602112)
I0403 15:59:36.132817 20598 net.cpp:156] Memory required for data: 1256902176
I0403 15:59:36.132834 20598 layer_factory.hpp:77] Creating layer inception_4e/output
I0403 15:59:36.132853 20598 net.cpp:91] Creating Layer inception_4e/output
I0403 15:59:36.132870 20598 net.cpp:425] inception_4e/output <- inception_4e/1x1
I0403 15:59:36.132887 20598 net.cpp:425] inception_4e/output <- inception_4e/3x3
I0403 15:59:36.132905 20598 net.cpp:425] inception_4e/output <- inception_4e/5x5
I0403 15:59:36.132921 20598 net.cpp:425] inception_4e/output <- inception_4e/pool_proj
I0403 15:59:36.132939 20598 net.cpp:399] inception_4e/output -> inception_4e/output
I0403 15:59:36.132995 20598 net.cpp:141] Setting up inception_4e/output
I0403 15:59:36.133019 20598 net.cpp:148] Top shape: 24 832 14 14 (3913728)
I0403 15:59:36.133038 20598 net.cpp:156] Memory required for data: 1272557088
I0403 15:59:36.133059 20598 layer_factory.hpp:77] Creating layer pool4/3x3_s2
I0403 15:59:36.133081 20598 net.cpp:91] Creating Layer pool4/3x3_s2
I0403 15:59:36.133098 20598 net.cpp:425] pool4/3x3_s2 <- inception_4e/output
I0403 15:59:36.133116 20598 net.cpp:399] pool4/3x3_s2 -> pool4/3x3_s2
I0403 15:59:36.133193 20598 net.cpp:141] Setting up pool4/3x3_s2
I0403 15:59:36.133219 20598 net.cpp:148] Top shape: 24 832 7 7 (978432)
I0403 15:59:36.133234 20598 net.cpp:156] Memory required for data: 1276470816
I0403 15:59:36.133249 20598 layer_factory.hpp:77] Creating layer pool4/3x3_s2_pool4/3x3_s2_0_split
I0403 15:59:36.133266 20598 net.cpp:91] Creating Layer pool4/3x3_s2_pool4/3x3_s2_0_split
I0403 15:59:36.133282 20598 net.cpp:425] pool4/3x3_s2_pool4/3x3_s2_0_split <- pool4/3x3_s2
I0403 15:59:36.133303 20598 net.cpp:399] pool4/3x3_s2_pool4/3x3_s2_0_split -> pool4/3x3_s2_pool4/3x3_s2_0_split_0
I0403 15:59:36.133325 20598 net.cpp:399] pool4/3x3_s2_pool4/3x3_s2_0_split -> pool4/3x3_s2_pool4/3x3_s2_0_split_1
I0403 15:59:36.133347 20598 net.cpp:399] pool4/3x3_s2_pool4/3x3_s2_0_split -> pool4/3x3_s2_pool4/3x3_s2_0_split_2
I0403 15:59:36.133368 20598 net.cpp:399] pool4/3x3_s2_pool4/3x3_s2_0_split -> pool4/3x3_s2_pool4/3x3_s2_0_split_3
I0403 15:59:36.133466 20598 net.cpp:141] Setting up pool4/3x3_s2_pool4/3x3_s2_0_split
I0403 15:59:36.133492 20598 net.cpp:148] Top shape: 24 832 7 7 (978432)
I0403 15:59:36.133510 20598 net.cpp:148] Top shape: 24 832 7 7 (978432)
I0403 15:59:36.133527 20598 net.cpp:148] Top shape: 24 832 7 7 (978432)
I0403 15:59:36.133544 20598 net.cpp:148] Top shape: 24 832 7 7 (978432)
I0403 15:59:36.133558 20598 net.cpp:156] Memory required for data: 1292125728
I0403 15:59:36.133574 20598 layer_factory.hpp:77] Creating layer inception_5a/1x1
I0403 15:59:36.133596 20598 net.cpp:91] Creating Layer inception_5a/1x1
I0403 15:59:36.133615 20598 net.cpp:425] inception_5a/1x1 <- pool4/3x3_s2_pool4/3x3_s2_0_split_0
I0403 15:59:36.133635 20598 net.cpp:399] inception_5a/1x1 -> inception_5a/1x1
I0403 15:59:36.136663 20598 net.cpp:141] Setting up inception_5a/1x1
I0403 15:59:36.136696 20598 net.cpp:148] Top shape: 24 256 7 7 (301056)
I0403 15:59:36.136714 20598 net.cpp:156] Memory required for data: 1293329952
I0403 15:59:36.136734 20598 layer_factory.hpp:77] Creating layer inception_5a/relu_1x1
I0403 15:59:36.136752 20598 net.cpp:91] Creating Layer inception_5a/relu_1x1
I0403 15:59:36.136768 20598 net.cpp:425] inception_5a/relu_1x1 <- inception_5a/1x1
I0403 15:59:36.136788 20598 net.cpp:386] inception_5a/relu_1x1 -> inception_5a/1x1 (in-place)
I0403 15:59:36.137112 20598 net.cpp:141] Setting up inception_5a/relu_1x1
I0403 15:59:36.137141 20598 net.cpp:148] Top shape: 24 256 7 7 (301056)
I0403 15:59:36.137157 20598 net.cpp:156] Memory required for data: 1294534176
I0403 15:59:36.137173 20598 layer_factory.hpp:77] Creating layer inception_5a/3x3_reduce
I0403 15:59:36.137197 20598 net.cpp:91] Creating Layer inception_5a/3x3_reduce
I0403 15:59:36.137214 20598 net.cpp:425] inception_5a/3x3_reduce <- pool4/3x3_s2_pool4/3x3_s2_0_split_1
I0403 15:59:36.137233 20598 net.cpp:399] inception_5a/3x3_reduce -> inception_5a/3x3_reduce
I0403 15:59:36.139775 20598 net.cpp:141] Setting up inception_5a/3x3_reduce
I0403 15:59:36.139806 20598 net.cpp:148] Top shape: 24 160 7 7 (188160)
I0403 15:59:36.139822 20598 net.cpp:156] Memory required for data: 1295286816
I0403 15:59:36.139840 20598 layer_factory.hpp:77] Creating layer inception_5a/relu_3x3_reduce
I0403 15:59:36.139861 20598 net.cpp:91] Creating Layer inception_5a/relu_3x3_reduce
I0403 15:59:36.139878 20598 net.cpp:425] inception_5a/relu_3x3_reduce <- inception_5a/3x3_reduce
I0403 15:59:36.139895 20598 net.cpp:386] inception_5a/relu_3x3_reduce -> inception_5a/3x3_reduce (in-place)
I0403 15:59:36.140096 20598 net.cpp:141] Setting up inception_5a/relu_3x3_reduce
I0403 15:59:36.140125 20598 net.cpp:148] Top shape: 24 160 7 7 (188160)
I0403 15:59:36.140141 20598 net.cpp:156] Memory required for data: 1296039456
I0403 15:59:36.140156 20598 layer_factory.hpp:77] Creating layer inception_5a/3x3
I0403 15:59:36.140177 20598 net.cpp:91] Creating Layer inception_5a/3x3
I0403 15:59:36.140197 20598 net.cpp:425] inception_5a/3x3 <- inception_5a/3x3_reduce
I0403 15:59:36.140215 20598 net.cpp:399] inception_5a/3x3 -> inception_5a/3x3
I0403 15:59:36.145426 20598 net.cpp:141] Setting up inception_5a/3x3
I0403 15:59:36.145459 20598 net.cpp:148] Top shape: 24 320 7 7 (376320)
I0403 15:59:36.145476 20598 net.cpp:156] Memory required for data: 1297544736
I0403 15:59:36.145495 20598 layer_factory.hpp:77] Creating layer inception_5a/relu_3x3
I0403 15:59:36.145514 20598 net.cpp:91] Creating Layer inception_5a/relu_3x3
I0403 15:59:36.145532 20598 net.cpp:425] inception_5a/relu_3x3 <- inception_5a/3x3
I0403 15:59:36.145550 20598 net.cpp:386] inception_5a/relu_3x3 -> inception_5a/3x3 (in-place)
I0403 15:59:36.145854 20598 net.cpp:141] Setting up inception_5a/relu_3x3
I0403 15:59:36.145884 20598 net.cpp:148] Top shape: 24 320 7 7 (376320)
I0403 15:59:36.145900 20598 net.cpp:156] Memory required for data: 1299050016
I0403 15:59:36.145915 20598 layer_factory.hpp:77] Creating layer inception_5a/5x5_reduce
I0403 15:59:36.145937 20598 net.cpp:91] Creating Layer inception_5a/5x5_reduce
I0403 15:59:36.145956 20598 net.cpp:425] inception_5a/5x5_reduce <- pool4/3x3_s2_pool4/3x3_s2_0_split_2
I0403 15:59:36.145975 20598 net.cpp:399] inception_5a/5x5_reduce -> inception_5a/5x5_reduce
I0403 15:59:36.147210 20598 net.cpp:141] Setting up inception_5a/5x5_reduce
I0403 15:59:36.147244 20598 net.cpp:148] Top shape: 24 32 7 7 (37632)
I0403 15:59:36.147261 20598 net.cpp:156] Memory required for data: 1299200544
I0403 15:59:36.147281 20598 layer_factory.hpp:77] Creating layer inception_5a/relu_5x5_reduce
I0403 15:59:36.147300 20598 net.cpp:91] Creating Layer inception_5a/relu_5x5_reduce
I0403 15:59:36.147316 20598 net.cpp:425] inception_5a/relu_5x5_reduce <- inception_5a/5x5_reduce
I0403 15:59:36.147337 20598 net.cpp:386] inception_5a/relu_5x5_reduce -> inception_5a/5x5_reduce (in-place)
I0403 15:59:36.147662 20598 net.cpp:141] Setting up inception_5a/relu_5x5_reduce
I0403 15:59:36.147689 20598 net.cpp:148] Top shape: 24 32 7 7 (37632)
I0403 15:59:36.147704 20598 net.cpp:156] Memory required for data: 1299351072
I0403 15:59:36.147721 20598 layer_factory.hpp:77] Creating layer inception_5a/5x5
I0403 15:59:36.147755 20598 net.cpp:91] Creating Layer inception_5a/5x5
I0403 15:59:36.147774 20598 net.cpp:425] inception_5a/5x5 <- inception_5a/5x5_reduce
I0403 15:59:36.147796 20598 net.cpp:399] inception_5a/5x5 -> inception_5a/5x5
I0403 15:59:36.149545 20598 net.cpp:141] Setting up inception_5a/5x5
I0403 15:59:36.149587 20598 net.cpp:148] Top shape: 24 128 7 7 (150528)
I0403 15:59:36.149605 20598 net.cpp:156] Memory required for data: 1299953184
I0403 15:59:36.149623 20598 layer_factory.hpp:77] Creating layer inception_5a/relu_5x5
I0403 15:59:36.149641 20598 net.cpp:91] Creating Layer inception_5a/relu_5x5
I0403 15:59:36.149657 20598 net.cpp:425] inception_5a/relu_5x5 <- inception_5a/5x5
I0403 15:59:36.149674 20598 net.cpp:386] inception_5a/relu_5x5 -> inception_5a/5x5 (in-place)
I0403 15:59:36.149868 20598 net.cpp:141] Setting up inception_5a/relu_5x5
I0403 15:59:36.149893 20598 net.cpp:148] Top shape: 24 128 7 7 (150528)
I0403 15:59:36.149907 20598 net.cpp:156] Memory required for data: 1300555296
I0403 15:59:36.149921 20598 layer_factory.hpp:77] Creating layer inception_5a/pool
I0403 15:59:36.149940 20598 net.cpp:91] Creating Layer inception_5a/pool
I0403 15:59:36.149955 20598 net.cpp:425] inception_5a/pool <- pool4/3x3_s2_pool4/3x3_s2_0_split_3
I0403 15:59:36.149976 20598 net.cpp:399] inception_5a/pool -> inception_5a/pool
I0403 15:59:36.150045 20598 net.cpp:141] Setting up inception_5a/pool
I0403 15:59:36.150084 20598 net.cpp:148] Top shape: 24 832 7 7 (978432)
I0403 15:59:36.150099 20598 net.cpp:156] Memory required for data: 1304469024
I0403 15:59:36.150113 20598 layer_factory.hpp:77] Creating layer inception_5a/pool_proj
I0403 15:59:36.150135 20598 net.cpp:91] Creating Layer inception_5a/pool_proj
I0403 15:59:36.150153 20598 net.cpp:425] inception_5a/pool_proj <- inception_5a/pool
I0403 15:59:36.150172 20598 net.cpp:399] inception_5a/pool_proj -> inception_5a/pool_proj
I0403 15:59:36.152458 20598 net.cpp:141] Setting up inception_5a/pool_proj
I0403 15:59:36.152487 20598 net.cpp:148] Top shape: 24 128 7 7 (150528)
I0403 15:59:36.152503 20598 net.cpp:156] Memory required for data: 1305071136
I0403 15:59:36.152521 20598 layer_factory.hpp:77] Creating layer inception_5a/relu_pool_proj
I0403 15:59:36.152541 20598 net.cpp:91] Creating Layer inception_5a/relu_pool_proj
I0403 15:59:36.152559 20598 net.cpp:425] inception_5a/relu_pool_proj <- inception_5a/pool_proj
I0403 15:59:36.152576 20598 net.cpp:386] inception_5a/relu_pool_proj -> inception_5a/pool_proj (in-place)
I0403 15:59:36.152876 20598 net.cpp:141] Setting up inception_5a/relu_pool_proj
I0403 15:59:36.152902 20598 net.cpp:148] Top shape: 24 128 7 7 (150528)
I0403 15:59:36.152917 20598 net.cpp:156] Memory required for data: 1305673248
I0403 15:59:36.152931 20598 layer_factory.hpp:77] Creating layer inception_5a/output
I0403 15:59:36.152951 20598 net.cpp:91] Creating Layer inception_5a/output
I0403 15:59:36.152969 20598 net.cpp:425] inception_5a/output <- inception_5a/1x1
I0403 15:59:36.152987 20598 net.cpp:425] inception_5a/output <- inception_5a/3x3
I0403 15:59:36.153002 20598 net.cpp:425] inception_5a/output <- inception_5a/5x5
I0403 15:59:36.153017 20598 net.cpp:425] inception_5a/output <- inception_5a/pool_proj
I0403 15:59:36.153034 20598 net.cpp:399] inception_5a/output -> inception_5a/output
I0403 15:59:36.153090 20598 net.cpp:141] Setting up inception_5a/output
I0403 15:59:36.153115 20598 net.cpp:148] Top shape: 24 832 7 7 (978432)
I0403 15:59:36.153129 20598 net.cpp:156] Memory required for data: 1309586976
I0403 15:59:36.153144 20598 layer_factory.hpp:77] Creating layer inception_5a/output_inception_5a/output_0_split
I0403 15:59:36.153162 20598 net.cpp:91] Creating Layer inception_5a/output_inception_5a/output_0_split
I0403 15:59:36.153177 20598 net.cpp:425] inception_5a/output_inception_5a/output_0_split <- inception_5a/output
I0403 15:59:36.153198 20598 net.cpp:399] inception_5a/output_inception_5a/output_0_split -> inception_5a/output_inception_5a/output_0_split_0
I0403 15:59:36.153220 20598 net.cpp:399] inception_5a/output_inception_5a/output_0_split -> inception_5a/output_inception_5a/output_0_split_1
I0403 15:59:36.153240 20598 net.cpp:399] inception_5a/output_inception_5a/output_0_split -> inception_5a/output_inception_5a/output_0_split_2
I0403 15:59:36.153261 20598 net.cpp:399] inception_5a/output_inception_5a/output_0_split -> inception_5a/output_inception_5a/output_0_split_3
I0403 15:59:36.153381 20598 net.cpp:141] Setting up inception_5a/output_inception_5a/output_0_split
I0403 15:59:36.153404 20598 net.cpp:148] Top shape: 24 832 7 7 (978432)
I0403 15:59:36.153421 20598 net.cpp:148] Top shape: 24 832 7 7 (978432)
I0403 15:59:36.153436 20598 net.cpp:148] Top shape: 24 832 7 7 (978432)
I0403 15:59:36.153452 20598 net.cpp:148] Top shape: 24 832 7 7 (978432)
I0403 15:59:36.153465 20598 net.cpp:156] Memory required for data: 1325241888
I0403 15:59:36.153481 20598 layer_factory.hpp:77] Creating layer inception_5b/1x1
I0403 15:59:36.153502 20598 net.cpp:91] Creating Layer inception_5b/1x1
I0403 15:59:36.153520 20598 net.cpp:425] inception_5b/1x1 <- inception_5a/output_inception_5a/output_0_split_0
I0403 15:59:36.153542 20598 net.cpp:399] inception_5b/1x1 -> inception_5b/1x1
I0403 15:59:36.157335 20598 net.cpp:141] Setting up inception_5b/1x1
I0403 15:59:36.157377 20598 net.cpp:148] Top shape: 24 384 7 7 (451584)
I0403 15:59:36.157393 20598 net.cpp:156] Memory required for data: 1327048224
I0403 15:59:36.157412 20598 layer_factory.hpp:77] Creating layer inception_5b/relu_1x1
I0403 15:59:36.157433 20598 net.cpp:91] Creating Layer inception_5b/relu_1x1
I0403 15:59:36.157449 20598 net.cpp:425] inception_5b/relu_1x1 <- inception_5b/1x1
I0403 15:59:36.157466 20598 net.cpp:386] inception_5b/relu_1x1 -> inception_5b/1x1 (in-place)
I0403 15:59:36.157776 20598 net.cpp:141] Setting up inception_5b/relu_1x1
I0403 15:59:36.157802 20598 net.cpp:148] Top shape: 24 384 7 7 (451584)
I0403 15:59:36.157817 20598 net.cpp:156] Memory required for data: 1328854560
I0403 15:59:36.157831 20598 layer_factory.hpp:77] Creating layer inception_5b/3x3_reduce
I0403 15:59:36.157853 20598 net.cpp:91] Creating Layer inception_5b/3x3_reduce
I0403 15:59:36.157871 20598 net.cpp:425] inception_5b/3x3_reduce <- inception_5a/output_inception_5a/output_0_split_1
I0403 15:59:36.157893 20598 net.cpp:399] inception_5b/3x3_reduce -> inception_5b/3x3_reduce
I0403 15:59:36.160593 20598 net.cpp:141] Setting up inception_5b/3x3_reduce
I0403 15:59:36.160622 20598 net.cpp:148] Top shape: 24 192 7 7 (225792)
I0403 15:59:36.160637 20598 net.cpp:156] Memory required for data: 1329757728
I0403 15:59:36.160655 20598 layer_factory.hpp:77] Creating layer inception_5b/relu_3x3_reduce
I0403 15:59:36.160676 20598 net.cpp:91] Creating Layer inception_5b/relu_3x3_reduce
I0403 15:59:36.160693 20598 net.cpp:425] inception_5b/relu_3x3_reduce <- inception_5b/3x3_reduce
I0403 15:59:36.160711 20598 net.cpp:386] inception_5b/relu_3x3_reduce -> inception_5b/3x3_reduce (in-place)
I0403 15:59:36.160903 20598 net.cpp:141] Setting up inception_5b/relu_3x3_reduce
I0403 15:59:36.160928 20598 net.cpp:148] Top shape: 24 192 7 7 (225792)
I0403 15:59:36.160954 20598 net.cpp:156] Memory required for data: 1330660896
I0403 15:59:36.160970 20598 layer_factory.hpp:77] Creating layer inception_5b/3x3
I0403 15:59:36.160992 20598 net.cpp:91] Creating Layer inception_5b/3x3
I0403 15:59:36.161010 20598 net.cpp:425] inception_5b/3x3 <- inception_5b/3x3_reduce
I0403 15:59:36.161032 20598 net.cpp:399] inception_5b/3x3 -> inception_5b/3x3
I0403 15:59:36.167856 20598 net.cpp:141] Setting up inception_5b/3x3
I0403 15:59:36.167886 20598 net.cpp:148] Top shape: 24 384 7 7 (451584)
I0403 15:59:36.167901 20598 net.cpp:156] Memory required for data: 1332467232
I0403 15:59:36.167919 20598 layer_factory.hpp:77] Creating layer inception_5b/relu_3x3
I0403 15:59:36.167939 20598 net.cpp:91] Creating Layer inception_5b/relu_3x3
I0403 15:59:36.167956 20598 net.cpp:425] inception_5b/relu_3x3 <- inception_5b/3x3
I0403 15:59:36.167973 20598 net.cpp:386] inception_5b/relu_3x3 -> inception_5b/3x3 (in-place)
I0403 15:59:36.168287 20598 net.cpp:141] Setting up inception_5b/relu_3x3
I0403 15:59:36.168313 20598 net.cpp:148] Top shape: 24 384 7 7 (451584)
I0403 15:59:36.168329 20598 net.cpp:156] Memory required for data: 1334273568
I0403 15:59:36.168342 20598 layer_factory.hpp:77] Creating layer inception_5b/5x5_reduce
I0403 15:59:36.168383 20598 net.cpp:91] Creating Layer inception_5b/5x5_reduce
I0403 15:59:36.168403 20598 net.cpp:425] inception_5b/5x5_reduce <- inception_5a/output_inception_5a/output_0_split_2
I0403 15:59:36.168421 20598 net.cpp:399] inception_5b/5x5_reduce -> inception_5b/5x5_reduce
I0403 15:59:36.169702 20598 net.cpp:141] Setting up inception_5b/5x5_reduce
I0403 15:59:36.169731 20598 net.cpp:148] Top shape: 24 48 7 7 (56448)
I0403 15:59:36.169747 20598 net.cpp:156] Memory required for data: 1334499360
I0403 15:59:36.169765 20598 layer_factory.hpp:77] Creating layer inception_5b/relu_5x5_reduce
I0403 15:59:36.169783 20598 net.cpp:91] Creating Layer inception_5b/relu_5x5_reduce
I0403 15:59:36.169800 20598 net.cpp:425] inception_5b/relu_5x5_reduce <- inception_5b/5x5_reduce
I0403 15:59:36.169817 20598 net.cpp:386] inception_5b/relu_5x5_reduce -> inception_5b/5x5_reduce (in-place)
I0403 15:59:36.170197 20598 net.cpp:141] Setting up inception_5b/relu_5x5_reduce
I0403 15:59:36.170223 20598 net.cpp:148] Top shape: 24 48 7 7 (56448)
I0403 15:59:36.170238 20598 net.cpp:156] Memory required for data: 1334725152
I0403 15:59:36.170253 20598 layer_factory.hpp:77] Creating layer inception_5b/5x5
I0403 15:59:36.170271 20598 net.cpp:91] Creating Layer inception_5b/5x5
I0403 15:59:36.170289 20598 net.cpp:425] inception_5b/5x5 <- inception_5b/5x5_reduce
I0403 15:59:36.170306 20598 net.cpp:399] inception_5b/5x5 -> inception_5b/5x5
I0403 15:59:36.172369 20598 net.cpp:141] Setting up inception_5b/5x5
I0403 15:59:36.172399 20598 net.cpp:148] Top shape: 24 128 7 7 (150528)
I0403 15:59:36.172415 20598 net.cpp:156] Memory required for data: 1335327264
I0403 15:59:36.172432 20598 layer_factory.hpp:77] Creating layer inception_5b/relu_5x5
I0403 15:59:36.172451 20598 net.cpp:91] Creating Layer inception_5b/relu_5x5
I0403 15:59:36.172467 20598 net.cpp:425] inception_5b/relu_5x5 <- inception_5b/5x5
I0403 15:59:36.172487 20598 net.cpp:386] inception_5b/relu_5x5 -> inception_5b/5x5 (in-place)
I0403 15:59:36.172682 20598 net.cpp:141] Setting up inception_5b/relu_5x5
I0403 15:59:36.172706 20598 net.cpp:148] Top shape: 24 128 7 7 (150528)
I0403 15:59:36.172721 20598 net.cpp:156] Memory required for data: 1335929376
I0403 15:59:36.172735 20598 layer_factory.hpp:77] Creating layer inception_5b/pool
I0403 15:59:36.172752 20598 net.cpp:91] Creating Layer inception_5b/pool
I0403 15:59:36.172768 20598 net.cpp:425] inception_5b/pool <- inception_5a/output_inception_5a/output_0_split_3
I0403 15:59:36.172790 20598 net.cpp:399] inception_5b/pool -> inception_5b/pool
I0403 15:59:36.172863 20598 net.cpp:141] Setting up inception_5b/pool
I0403 15:59:36.172886 20598 net.cpp:148] Top shape: 24 832 7 7 (978432)
I0403 15:59:36.172901 20598 net.cpp:156] Memory required for data: 1339843104
I0403 15:59:36.172915 20598 layer_factory.hpp:77] Creating layer inception_5b/pool_proj
I0403 15:59:36.172940 20598 net.cpp:91] Creating Layer inception_5b/pool_proj
I0403 15:59:36.172957 20598 net.cpp:425] inception_5b/pool_proj <- inception_5b/pool
I0403 15:59:36.172976 20598 net.cpp:399] inception_5b/pool_proj -> inception_5b/pool_proj
I0403 15:59:36.175328 20598 net.cpp:141] Setting up inception_5b/pool_proj
I0403 15:59:36.175374 20598 net.cpp:148] Top shape: 24 128 7 7 (150528)
I0403 15:59:36.175390 20598 net.cpp:156] Memory required for data: 1340445216
I0403 15:59:36.175407 20598 layer_factory.hpp:77] Creating layer inception_5b/relu_pool_proj
I0403 15:59:36.175426 20598 net.cpp:91] Creating Layer inception_5b/relu_pool_proj
I0403 15:59:36.175441 20598 net.cpp:425] inception_5b/relu_pool_proj <- inception_5b/pool_proj
I0403 15:59:36.175458 20598 net.cpp:386] inception_5b/relu_pool_proj -> inception_5b/pool_proj (in-place)
I0403 15:59:36.175765 20598 net.cpp:141] Setting up inception_5b/relu_pool_proj
I0403 15:59:36.175793 20598 net.cpp:148] Top shape: 24 128 7 7 (150528)
I0403 15:59:36.175809 20598 net.cpp:156] Memory required for data: 1341047328
I0403 15:59:36.175823 20598 layer_factory.hpp:77] Creating layer inception_5b/output
I0403 15:59:36.175840 20598 net.cpp:91] Creating Layer inception_5b/output
I0403 15:59:36.175871 20598 net.cpp:425] inception_5b/output <- inception_5b/1x1
I0403 15:59:36.175889 20598 net.cpp:425] inception_5b/output <- inception_5b/3x3
I0403 15:59:36.175905 20598 net.cpp:425] inception_5b/output <- inception_5b/5x5
I0403 15:59:36.175920 20598 net.cpp:425] inception_5b/output <- inception_5b/pool_proj
I0403 15:59:36.175937 20598 net.cpp:399] inception_5b/output -> inception_5b/output
I0403 15:59:36.175990 20598 net.cpp:141] Setting up inception_5b/output
I0403 15:59:36.176014 20598 net.cpp:148] Top shape: 24 1024 7 7 (1204224)
I0403 15:59:36.176028 20598 net.cpp:156] Memory required for data: 1345864224
I0403 15:59:36.176043 20598 layer_factory.hpp:77] Creating layer pool5/7x7_s1
I0403 15:59:36.176066 20598 net.cpp:91] Creating Layer pool5/7x7_s1
I0403 15:59:36.176084 20598 net.cpp:425] pool5/7x7_s1 <- inception_5b/output
I0403 15:59:36.176101 20598 net.cpp:399] pool5/7x7_s1 -> pool5/7x7_s1
I0403 15:59:36.176318 20598 net.cpp:141] Setting up pool5/7x7_s1
I0403 15:59:36.176345 20598 net.cpp:148] Top shape: 24 1024 1 1 (24576)
I0403 15:59:36.176360 20598 net.cpp:156] Memory required for data: 1345962528
I0403 15:59:36.176374 20598 layer_factory.hpp:77] Creating layer pool5/drop_7x7_s1
I0403 15:59:36.176393 20598 net.cpp:91] Creating Layer pool5/drop_7x7_s1
I0403 15:59:36.176409 20598 net.cpp:425] pool5/drop_7x7_s1 <- pool5/7x7_s1
I0403 15:59:36.176425 20598 net.cpp:386] pool5/drop_7x7_s1 -> pool5/7x7_s1 (in-place)
I0403 15:59:36.176477 20598 net.cpp:141] Setting up pool5/drop_7x7_s1
I0403 15:59:36.176501 20598 net.cpp:148] Top shape: 24 1024 1 1 (24576)
I0403 15:59:36.176514 20598 net.cpp:156] Memory required for data: 1346060832
I0403 15:59:36.176529 20598 layer_factory.hpp:77] Creating layer loss3/classifier_plantvillage
I0403 15:59:36.176549 20598 net.cpp:91] Creating Layer loss3/classifier_plantvillage
I0403 15:59:36.176566 20598 net.cpp:425] loss3/classifier_plantvillage <- pool5/7x7_s1
I0403 15:59:36.176599 20598 net.cpp:399] loss3/classifier_plantvillage -> loss3/classifier_plantvillage
I0403 15:59:36.177042 20598 net.cpp:141] Setting up loss3/classifier_plantvillage
I0403 15:59:36.177086 20598 net.cpp:148] Top shape: 24 38 (912)
I0403 15:59:36.177103 20598 net.cpp:156] Memory required for data: 1346064480
I0403 15:59:36.177121 20598 layer_factory.hpp:77] Creating layer loss3/classifier_plantvillage_loss3/classifier_plantvillage_0_split
I0403 15:59:36.177140 20598 net.cpp:91] Creating Layer loss3/classifier_plantvillage_loss3/classifier_plantvillage_0_split
I0403 15:59:36.177158 20598 net.cpp:425] loss3/classifier_plantvillage_loss3/classifier_plantvillage_0_split <- loss3/classifier_plantvillage
I0403 15:59:36.177181 20598 net.cpp:399] loss3/classifier_plantvillage_loss3/classifier_plantvillage_0_split -> loss3/classifier_plantvillage_loss3/classifier_plantvillage_0_split_0
I0403 15:59:36.177202 20598 net.cpp:399] loss3/classifier_plantvillage_loss3/classifier_plantvillage_0_split -> loss3/classifier_plantvillage_loss3/classifier_plantvillage_0_split_1
I0403 15:59:36.177224 20598 net.cpp:399] loss3/classifier_plantvillage_loss3/classifier_plantvillage_0_split -> loss3/classifier_plantvillage_loss3/classifier_plantvillage_0_split_2
I0403 15:59:36.177245 20598 net.cpp:399] loss3/classifier_plantvillage_loss3/classifier_plantvillage_0_split -> loss3/classifier_plantvillage_loss3/classifier_plantvillage_0_split_3
I0403 15:59:36.177361 20598 net.cpp:141] Setting up loss3/classifier_plantvillage_loss3/classifier_plantvillage_0_split
I0403 15:59:36.177386 20598 net.cpp:148] Top shape: 24 38 (912)
I0403 15:59:36.177402 20598 net.cpp:148] Top shape: 24 38 (912)
I0403 15:59:36.177418 20598 net.cpp:148] Top shape: 24 38 (912)
I0403 15:59:36.177434 20598 net.cpp:148] Top shape: 24 38 (912)
I0403 15:59:36.177448 20598 net.cpp:156] Memory required for data: 1346079072
I0403 15:59:36.177464 20598 layer_factory.hpp:77] Creating layer loss1/loss
I0403 15:59:36.177486 20598 net.cpp:91] Creating Layer loss1/loss
I0403 15:59:36.177505 20598 net.cpp:425] loss1/loss <- loss1/classifier_plantvillage_loss1/classifier_plantvillage_0_split_0
I0403 15:59:36.177537 20598 net.cpp:425] loss1/loss <- label_data_1_split_0
…
