…
I0403 15:56:49.731873 20559 net.cpp:313] The NetState phase (1) differed from the phase (0) specified by a rule in layer data
I0403 15:56:49.733075 20559 net.cpp:49] Initializing net from parameters: 
state {
  phase: TEST
}
layer {
  name: "data"
  type: "Data"
  top: "data"
  top: "label"
  include {
    phase: TEST
  }
  transform_param {
    mirror: false
    crop_size: 224
    mean_file: "/home/mohanty/data/final_dataset/lmdb/grayscale-20-80/mean.binaryproto"
  }
  data_param {
    source: "/home/mohanty/data/final_dataset/lmdb/grayscale-20-80/test_db"
    batch_size: 24
    backend: LMDB
  }
}
layer {
  name: "conv1/7x7_s2"
  type: "Convolution"
  bottom: "data"
  top: "conv1/7x7_s2"
  param {
    lr_mult: 1
    decay_mult: 1
  }
  param {
    lr_mult: 2
    decay_mult: 0
  }
  convolution_param {
    num_output: 64
    pad: 3
    kernel_size: 7
    stride: 2
    weight_filler {
      type: "xavier"
      std: 0.1
    }
    bias_filler {
      type: "constant"
      value: 0.2
    }
  }
}
layer {
  name: "conv1/relu_7x7"
  type: "ReLU"
  bottom: "conv1/7x7_s2"
  top: "conv1/7x7_s2"
}
layer {
  name: "pool1/3x3_s2"
  type: "Pooling"
  bottom: "conv1/7x7_s2"
  top: "pool1/3x3_s2"
  pooling_param {
    pool: MAX
    kernel_size: 3
    stride: 2
  }
}
layer {
  name: "pool1/norm1"
  type: "LRN"
  bottom: "pool1/3x3_s2"
  top: "pool1/norm1"
  lrn_param {
    local_size: 5
    alpha: 0.0001
    beta: 0.75
  }
}
layer {
  name: "conv2/3x3_reduce"
  type: "Convolution"
  bottom: "pool1/norm1"
  top: "conv2/3x3_reduce"
  param {
    lr_mult: 1
    decay_mult: 1
  }
  param {
    lr_mult: 2
    decay_mult: 0
  }
  convolution_param {
    num_output: 64
    kernel_size: 1
    weight_filler {
      type: "xavier"
      std: 0.1
    }
    bias_filler {
      type: "constant"
      value: 0.2
    }
  }
}
layer {
  name: "conv2/relu_3x3_reduce"
  type: "ReLU"
  bottom: "conv2/3x3_reduce"
  top: "conv2/3x3_reduce"
}
layer {
  name: "conv2/3x3"
  type: "Convolution"
  bottom: "conv2/3x3_reduce"
  top: "conv2/3x3"
  param {
    lr_mult: 1
    decay_mult: 1
  }
  param {
    lr_mult: 2
    decay_mult: 0
  }
  convolution_param {
    num_output: 192
    pad: 1
    kernel_size: 3
    weight_filler {
      type: "xavier"
      std: 0.03
    }
    bias_filler {
      type: "constant"
      value: 0.2
    }
  }
}
layer {
  name: "conv2/relu_3x3"
  type: "ReLU"
  bottom: "conv2/3x3"
  top: "conv2/3x3"
}
layer {
  name: "conv2/norm2"
  type: "LRN"
  bottom: "conv2/3x3"
  top: "conv2/norm2"
  lrn_param {
    local_size: 5
    alpha: 0.0001
    beta: 0.75
  }
}
layer {
  name: "pool2/3x3_s2"
  type: "Pooling"
  bottom: "conv2/norm2"
  top: "pool2/3x3_s2"
  pooling_param {
    pool: MAX
    kernel_size: 3
    stride: 2
  }
}
layer {
  name: "inception_3a/1x1"
  type: "Convolution"
  bottom: "pool2/3x3_s2"
  top: "inception_3a/1x1"
  param {
    lr_mult: 1
    decay_mult: 1
  }
  param {
    lr_mult: 2
    decay_mult: 0
  }
  convolution_param {
    num_output: 64
    kernel_size: 1
    weight_filler {
      type: "xavier"
      std: 0.03
    }
    bias_filler {
      type: "constant"
      value: 0.2
    }
  }
}
layer {
  name: "inception_3a/relu_1x1"
  type: "ReLU"
  bottom: "inception_3a/1x1"
  top: "inception_3a/1x1"
}
layer {
  name: "inception_3a/3x3_reduce"
  type: "Convolution"
  bottom: "pool2/3x3_s2"
  top: "inception_3a/3x3_reduce"
  param {
    lr_mult: 1
    decay_mult: 1
  }
  param {
    lr_mult: 2
    decay_mult: 0
  }
  convolution_param {
    num_output: 96
    kernel_size: 1
    weight_filler {
      type: "xavier"
      std: 0.09
    }
    bias_filler {
      type: "constant"
      value: 0.2
    }
  }
}
layer {
  name: "inception_3a/relu_3x3_reduce"
  type: "ReLU"
  bottom: "inception_3a/3x3_reduce"
  top: "inception_3a/3x3_reduce"
}
layer {
  name: "inception_3a/3x3"
  type: "Convolution"
  bottom: "inception_3a/3x3_reduce"
  top: "inception_3a/3x3"
  param {
    lr_mult: 1
    decay_mult: 1
  }
  param {
    lr_mult: 2
    decay_mult: 0
  }
  convolution_param {
    num_output: 128
    pad: 1
    kernel_size: 3
    weight_filler {
      type: "xavier"
      std: 0.03
    }
    bias_filler {
      type: "constant"
      value: 0.2
    }
  }
}
layer {
  name: "inception_3a/relu_3x3"
  type: "ReLU"
  bottom: "inception_3a/3x3"
  top: "inception_3a/3x3"
}
layer {
  name: "inception_3a/5x5_reduce"
  type: "Convolution"
  bottom: "pool2/3x3_s2"
  top: "inception_3a/5x5_reduce"
  param {
    lr_mult: 1
    decay_mult: 1
  }
  param {
    lr_mult: 2
    decay_mult: 0
  }
  convolution_param {
    num_output: 16
    kernel_size: 1
    weight_filler {
      type: "xavier"
      std: 0.2
    }
    bias_filler {
      type: "constant"
      value: 0.2
    }
  }
}
layer {
  name: "inception_3a/relu_5x5_reduce"
  type: "ReLU"
  bottom: "inception_3a/5x5_reduce"
  top: "inception_3a/5x5_reduce"
}
layer {
  name: "inception_3a/5x5"
  type: "Convolution"
  bottom: "inception_3a/5x5_reduce"
  top: "inception_3a/5x5"
  param {
    lr_mult: 1
    decay_mult: 1
  }
  param {
    lr_mult: 2
    decay_mult: 0
  }
  convolution_param {
    num_output: 32
    pad: 2
    kernel_size: 5
    weight_filler {
      type: "xavier"
      std: 0.03
    }
    bias_filler {
      type: "constant"
      value: 0.2
    }
  }
}
layer {
  name: "inception_3a/relu_5x5"
  type: "ReLU"
  bottom: "inception_3a/5x5"
  top: "inception_3a/5x5"
}
layer {
  name: "inception_3a/pool"
  type: "Pooling"
  bottom: "pool2/3x3_s2"
  top: "inception_3a/pool"
  pooling_param {
    pool: MAX
    kernel_size: 3
    stride: 1
    pad: 1
  }
}
layer {
  name: "inception_3a/pool_proj"
  type: "Convolution"
  bottom: "inception_3a/pool"
  top: "inception_3a/pool_proj"
  param {
    lr_mult: 1
    decay_mult: 1
  }
  param {
    lr_mult: 2
    decay_mult: 0
  }
  convolution_param {
    num_output: 32
    kernel_size: 1
    weight_filler {
      type: "xavier"
      std: 0.1
    }
    bias_filler {
      type: "constant"
      value: 0.2
    }
  }
}
layer {
  name: "inception_3a/relu_pool_proj"
  type: "ReLU"
  bottom: "inception_3a/pool_proj"
  top: "inception_3a/pool_proj"
}
layer {
  name: "inception_3a/output"
  type: "Concat"
  bottom: "inception_3a/1x1"
  bottom: "inception_3a/3x3"
  bottom: "inception_3a/5x5"
  bottom: "inception_3a/pool_proj"
  top: "inception_3a/output"
}
layer {
  name: "inception_3b/1x1"
  type: "Convolution"
  bottom: "inception_3a/output"
  top: "inception_3b/1x1"
  param {
    lr_mult: 1
    decay_mult: 1
  }
  param {
    lr_mult: 2
    decay_mult: 0
  }
  convolution_param {
    num_output: 128
    kernel_size: 1
    weight_filler {
      type: "xavier"
      std: 0.03
    }
    bias_filler {
      type: "constant"
      value: 0.2
    }
  }
}
layer {
  name: "inception_3b/relu_1x1"
  type: "ReLU"
  bottom: "inception_3b/1x1"
  top: "inception_3b/1x1"
}
layer {
  name: "inception_3b/3x3_reduce"
  type: "Convolution"
  bottom: "inception_3a/output"
  top: "inception_3b/3x3_reduce"
  param {
    lr_mult: 1
    decay_mult: 1
  }
  param {
    lr_mult: 2
    decay_mult: 0
  }
  convolution_param {
    num_output: 128
    kernel_size: 1
    weight_filler {
      type: "xavier"
      std: 0.09
    }
    bias_filler {
      type: "constant"
      value: 0.2
    }
  }
}
layer {
  name: "inception_3b/relu_3x3_reduce"
  type: "ReLU"
  bottom: "inception_3b/3x3_reduce"
  top: "inception_3b/3x3_reduce"
}
layer {
  name: "inception_3b/3x3"
  type: "Convolution"
  bottom: "inception_3b/3x3_reduce"
  top: "inception_3b/3x3"
  param {
    lr_mult: 1
    decay_mult: 1
  }
  param {
    lr_mult: 2
    decay_mult: 0
  }
  convolution_param {
    num_output: 192
    pad: 1
    kernel_size: 3
    weight_filler {
      type: "xavier"
      std: 0.03
    }
    bias_filler {
      type: "constant"
      value: 0.2
    }
  }
}
layer {
  name: "inception_3b/relu_3x3"
  type: "ReLU"
  bottom: "inception_3b/3x3"
  top: "inception_3b/3x3"
}
layer {
  name: "inception_3b/5x5_reduce"
  type: "Convolution"
  bottom: "inception_3a/output"
  top: "inception_3b/5x5_reduce"
  param {
    lr_mult: 1
    decay_mult: 1
  }
  param {
    lr_mult: 2
    decay_mult: 0
  }
  convolution_param {
    num_output: 32
    kernel_size: 1
    weight_filler {
      type: "xavier"
      std: 0.2
    }
    bias_filler {
      type: "constant"
      value: 0.2
    }
  }
}
layer {
  name: "inception_3b/relu_5x5_reduce"
  type: "ReLU"
  bottom: "inception_3b/5x5_reduce"
  top: "inception_3b/5x5_reduce"
}
layer {
  name: "inception_3b/5x5"
  type: "Convolution"
  bottom: "inception_3b/5x5_reduce"
  top: "inception_3b/5x5"
  param {
    lr_mult: 1
    decay_mult: 1
  }
  param {
    lr_mult: 2
    decay_mult: 0
  }
  convolution_param {
    num_output: 96
    pad: 2
    kernel_size: 5
    weight_filler {
      type: "xavier"
      std: 0.03
    }
    bias_filler {
      type: "constant"
      value: 0.2
    }
  }
}
layer {
  name: "inception_3b/relu_5x5"
  type: "ReLU"
  bottom: "inception_3b/5x5"
  top: "inception_3b/5x5"
}
layer {
  name: "inception_3b/pool"
  type: "Pooling"
  bottom: "inception_3a/output"
  top: "inception_3b/pool"
  pooling_param {
    pool: MAX
    kernel_size: 3
    stride: 1
    pad: 1
  }
}
layer {
  name: "inception_3b/pool_proj"
  type: "Convolution"
  bottom: "inception_3b/pool"
  top: "inception_3b/pool_proj"
  param {
    lr_mult: 1
    decay_mult: 1
  }
  param {
    lr_mult: 2
    decay_mult: 0
  }
  convolution_param {
    num_output: 64
    kernel_size: 1
    weight_filler {
      type: "xavier"
      std: 0.1
    }
    bias_filler {
      type: "constant"
      value: 0.2
    }
  }
}
layer {
  name: "inception_3b/relu_pool_proj"
  type: "ReLU"
  bottom: "inception_3b/pool_proj"
  top: "inception_3b/pool_proj"
}
layer {
  name: "inception_3b/output"
  type: "Concat"
  bottom: "inception_3b/1x1"
  bottom: "inception_3b/3x3"
  bottom: "inception_3b/5x5"
  bottom: "inception_3b/pool_proj"
  top: "inception_3b/output"
}
layer {
  name: "pool3/3x3_s2"
  type: "Pooling"
  bottom: "inception_3b/output"
  top: "pool3/3x3_s2"
  pooling_param {
    pool: MAX
    kernel_size: 3
    stride: 2
  }
}
layer {
  name: "inception_4a/1x1"
  type: "Convolution"
  bottom: "pool3/3x3_s2"
  top: "inception_4a/1x1"
  param {
    lr_mult: 1
    decay_mult: 1
  }
  param {
    lr_mult: 2
    decay_mult: 0
  }
  convolution_param {
    num_output: 192
    kernel_size: 1
    weight_filler {
      type: "xavier"
      std: 0.03
    }
    bias_filler {
      type: "constant"
      value: 0.2
    }
  }
}
layer {
  name: "inception_4a/relu_1x1"
  type: "ReLU"
  bottom: "inception_4a/1x1"
  top: "inception_4a/1x1"
}
layer {
  name: "inception_4a/3x3_reduce"
  type: "Convolution"
  bottom: "pool3/3x3_s2"
  top: "inception_4a/3x3_reduce"
  param {
    lr_mult: 1
    decay_mult: 1
  }
  param {
    lr_mult: 2
    decay_mult: 0
  }
  convolution_param {
    num_output: 96
    kernel_size: 1
    weight_filler {
      type: "xavier"
      std: 0.09
    }
    bias_filler {
      type: "constant"
      value: 0.2
    }
  }
}
layer {
  name: "inception_4a/relu_3x3_reduce"
  type: "ReLU"
  bottom: "inception_4a/3x3_reduce"
  top: "inception_4a/3x3_reduce"
}
layer {
  name: "inception_4a/3x3"
  type: "Convolution"
  bottom: "inception_4a/3x3_reduce"
  top: "inception_4a/3x3"
  param {
    lr_mult: 1
    decay_mult: 1
  }
  param {
    lr_mult: 2
    decay_mult: 0
  }
  convolution_param {
    num_output: 208
    pad: 1
    kernel_size: 3
    weight_filler {
      type: "xavier"
      std: 0.03
    }
    bias_filler {
      type: "constant"
      value: 0.2
    }
  }
}
layer {
  name: "inception_4a/relu_3x3"
  type: "ReLU"
  bottom: "inception_4a/3x3"
  top: "inception_4a/3x3"
}
layer {
  name: "inception_4a/5x5_reduce"
  type: "Convolution"
  bottom: "pool3/3x3_s2"
  top: "inception_4a/5x5_reduce"
  param {
    lr_mult: 1
    decay_mult: 1
  }
  param {
    lr_mult: 2
    decay_mult: 0
  }
  convolution_param {
    num_output: 16
    kernel_size: 1
    weight_filler {
      type: "xavier"
      std: 0.2
    }
    bias_filler {
      type: "constant"
      value: 0.2
    }
  }
}
layer {
  name: "inception_4a/relu_5x5_reduce"
  type: "ReLU"
  bottom: "inception_4a/5x5_reduce"
  top: "inception_4a/5x5_reduce"
}
layer {
  name: "inception_4a/5x5"
  type: "Convolution"
  bottom: "inception_4a/5x5_reduce"
  top: "inception_4a/5x5"
  param {
    lr_mult: 1
    decay_mult: 1
  }
  param {
    lr_mult: 2
    decay_mult: 0
  }
  convolution_param {
    num_output: 48
    pad: 2
    kernel_size: 5
    weight_filler {
      type: "xavier"
      std: 0.03
    }
    bias_filler {
      type: "constant"
      value: 0.2
    }
  }
}
layer {
  name: "inception_4a/relu_5x5"
  type: "ReLU"
  bottom: "inception_4a/5x5"
  top: "inception_4a/5x5"
}
layer {
  name: "inception_4a/pool"
  type: "Pooling"
  bottom: "pool3/3x3_s2"
  top: "inception_4a/pool"
  pooling_param {
    pool: MAX
    kernel_size: 3
    stride: 1
    pad: 1
  }
}
layer {
  name: "inception_4a/pool_proj"
  type: "Convolution"
  bottom: "inception_4a/pool"
  top: "inception_4a/pool_proj"
  param {
    lr_mult: 1
    decay_mult: 1
  }
  param {
    lr_mult: 2
    decay_mult: 0
  }
  convolution_param {
    num_output: 64
    kernel_size: 1
    weight_filler {
      type: "xavier"
      std: 0.1
    }
    bias_filler {
      type: "constant"
      value: 0.2
    }
  }
}
layer {
  name: "inception_4a/relu_pool_proj"
  type: "ReLU"
  bottom: "inception_4a/pool_proj"
  top: "inception_4a/pool_proj"
}
layer {
  name: "inception_4a/output"
  type: "Concat"
  bottom: "inception_4a/1x1"
  bottom: "inception_4a/3x3"
  bottom: "inception_4a/5x5"
  bottom: "inception_4a/pool_proj"
  top: "inception_4a/output"
}
layer {
  name: "loss1/ave_pool"
  type: "Pooling"
  bottom: "inception_4a/output"
  top: "loss1/ave_pool"
  pooling_param {
    pool: AVE
    kernel_size: 5
    stride: 3
  }
}
layer {
  name: "loss1/conv"
  type: "Convolution"
  bottom: "loss1/ave_pool"
  top: "loss1/conv"
  param {
    lr_mult: 1
    decay_mult: 1
  }
  param {
    lr_mult: 2
    decay_mult: 0
  }
  convolution_param {
    num_output: 128
    kernel_size: 1
    weight_filler {
      type: "xavier"
      std: 0.08
    }
    bias_filler {
      type: "constant"
      value: 0.2
    }
  }
}
layer {
  name: "loss1/relu_conv"
  type: "ReLU"
  bottom: "loss1/conv"
  top: "loss1/conv"
}
layer {
  name: "loss1/fc"
  type: "InnerProduct"
  bottom: "loss1/conv"
  top: "loss1/fc"
  param {
    lr_mult: 1
    decay_mult: 1
  }
  param {
    lr_mult: 2
    decay_mult: 0
  }
  inner_product_param {
    num_output: 1024
    weight_filler {
      type: "xavier"
      std: 0.02
    }
    bias_filler {
      type: "constant"
      value: 0.2
    }
  }
}
layer {
  name: "loss1/relu_fc"
  type: "ReLU"
  bottom: "loss1/fc"
  top: "loss1/fc"
}
layer {
  name: "loss1/drop_fc"
  type: "Dropout"
  bottom: "loss1/fc"
  top: "loss1/fc"
  dropout_param {
    dropout_ratio: 0.7
  }
}
layer {
  name: "loss1/classifier_plantvillage"
  type: "InnerProduct"
  bottom: "loss1/fc"
  top: "loss1/classifier_plantvillage"
  param {
    lr_mult: 1
    decay_mult: 1
  }
  param {
    lr_mult: 2
    decay_mult: 0
  }
  inner_product_param {
    num_output: 38
    weight_filler {
      type: "xavier"
      std: 0.0009765625
    }
    bias_filler {
      type: "constant"
      value: 0
    }
  }
}
layer {
  name: "inception_4b/1x1"
  type: "Convolution"
  bottom: "inception_4a/output"
  top: "inception_4b/1x1"
  param {
    lr_mult: 1
    decay_mult: 1
  }
  param {
    lr_mult: 2
    decay_mult: 0
  }
  convolution_param {
    num_output: 160
    kernel_size: 1
    weight_filler {
      type: "xavier"
      std: 0.03
    }
    bias_filler {
      type: "constant"
      value: 0.2
    }
  }
}
layer {
  name: "inception_4b/relu_1x1"
  type: "ReLU"
  bottom: "inception_4b/1x1"
  top: "inception_4b/1x1"
}
layer {
  name: "inception_4b/3x3_reduce"
  type: "Convolution"
  bottom: "inception_4a/output"
  top: "inception_4b/3x3_reduce"
  param {
    lr_mult: 1
    decay_mult: 1
  }
  param {
    lr_mult: 2
    decay_mult: 0
  }
  convolution_param {
    num_output: 112
    kernel_size: 1
    weight_filler {
      type: "xavier"
      std: 0.09
    }
    bias_filler {
      type: "constant"
      value: 0.2
    }
  }
}
layer {
  name: "inception_4b/relu_3x3_reduce"
  type: "ReLU"
  bottom: "inception_4b/3x3_reduce"
  top: "inception_4b/3x3_reduce"
}
layer {
  name: "inception_4b/3x3"
  type: "Convolution"
  bottom: "inception_4b/3x3_reduce"
  top: "inception_4b/3x3"
  param {
    lr_mult: 1
    decay_mult: 1
  }
  param {
    lr_mult: 2
    decay_mult: 0
  }
  convolution_param {
    num_output: 224
    pad: 1
    kernel_size: 3
    weight_filler {
      type: "xavier"
      std: 0.03
    }
    bias_filler {
      type: "constant"
      value: 0.2
    }
  }
}
layer {
  name: "inception_4b/relu_3x3"
  type: "ReLU"
  bottom: "inception_4b/3x3"
  top: "inception_4b/3x3"
}
layer {
  name: "inception_4b/5x5_reduce"
  type: "Convolution"
  bottom: "inception_4a/output"
  top: "inception_4b/5x5_reduce"
  param {
    lr_mult: 1
    decay_mult: 1
  }
  param {
    lr_mult: 2
    decay_mult: 0
  }
  convolution_param {
    num_output: 24
    kernel_size: 1
    weight_filler {
      type: "xavier"
      std: 0.2
    }
    bias_filler {
      type: "constant"
      value: 0.2
    }
  }
}
layer {
  name: "inception_4b/relu_5x5_reduce"
  type: "ReLU"
  bottom: "inception_4b/5x5_reduce"
  top: "inception_4b/5x5_reduce"
}
layer {
  name: "inception_4b/5x5"
  type: "Convolution"
  bottom: "inception_4b/5x5_reduce"
  top: "inception_4b/5x5"
  param {
    lr_mult: 1
    decay_mult: 1
  }
  param {
    lr_mult: 2
    decay_mult: 0
  }
  convolution_param {
    num_output: 64
    pad: 2
    kernel_size: 5
    weight_filler {
      type: "xavier"
      std: 0.03
    }
    bias_filler {
      type: "constant"
      value: 0.2
    }
  }
}
layer {
  name: "inception_4b/relu_5x5"
  type: "ReLU"
  bottom: "inception_4b/5x5"
  top: "inception_4b/5x5"
}
layer {
  name: "inception_4b/pool"
  type: "Pooling"
  bottom: "inception_4a/output"
  top: "inception_4b/pool"
  pooling_param {
    pool: MAX
    kernel_size: 3
    stride: 1
    pad: 1
  }
}
layer {
  name: "inception_4b/pool_proj"
  type: "Convolution"
  bottom: "inception_4b/pool"
  top: "inception_4b/pool_proj"
  param {
    lr_mult: 1
    decay_mult: 1
  }
  param {
    lr_mult: 2
    decay_mult: 0
  }
  convolution_param {
    num_output: 64
    kernel_size: 1
    weight_filler {
      type: "xavier"
      std: 0.1
    }
    bias_filler {
      type: "constant"
      value: 0.2
    }
  }
}
layer {
  name: "inception_4b/relu_pool_proj"
  type: "ReLU"
  bottom: "inception_4b/pool_proj"
  top: "inception_4b/pool_proj"
}
layer {
  name: "inception_4b/output"
  type: "Concat"
  bottom: "inception_4b/1x1"
  bottom: "inception_4b/3x3"
  bottom: "inception_4b/5x5"
  bottom: "inception_4b/pool_proj"
  top: "inception_4b/output"
}
layer {
  name: "inception_4c/1x1"
  type: "Convolution"
  bottom: "inception_4b/output"
  top: "inception_4c/1x1"
  param {
    lr_mult: 1
    decay_mult: 1
  }
  param {
    lr_mult: 2
    decay_mult: 0
  }
  convolution_param {
    num_output: 128
    kernel_size: 1
    weight_filler {
      type: "xavier"
      std: 0.03
    }
    bias_filler {
      type: "constant"
      value: 0.2
    }
  }
}
layer {
  name: "inception_4c/relu_1x1"
  type: "ReLU"
  bottom: "inception_4c/1x1"
  top: "inception_4c/1x1"
}
layer {
  name: "inception_4c/3x3_reduce"
  type: "Convolution"
  bottom: "inception_4b/output"
  top: "inception_4c/3x3_reduce"
  param {
    lr_mult: 1
    decay_mult: 1
  }
  param {
    lr_mult: 2
    decay_mult: 0
  }
  convolution_param {
    num_output: 128
    kernel_size: 1
    weight_filler {
      type: "xavier"
      std: 0.09
    }
    bias_filler {
      type: "constant"
      value: 0.2
    }
  }
}
layer {
  name: "inception_4c/relu_3x3_reduce"
  type: "ReLU"
  bottom: "inception_4c/3x3_reduce"
  top: "inception_4c/3x3_reduce"
}
layer {
  name: "inception_4c/3x3"
  type: "Convolution"
  bottom: "inception_4c/3x3_reduce"
  top: "inception_4c/3x3"
  param {
    lr_mult: 1
    decay_mult: 1
  }
  param {
    lr_mult: 2
    decay_mult: 0
  }
  convolution_param {
    num_output: 256
    pad: 1
    kernel_size: 3
    weight_filler {
      type: "xavier"
      std: 0.03
    }
    bias_filler {
      type: "constant"
      value: 0.2
    }
  }
}
layer {
  name: "inception_4c/relu_3x3"
  type: "ReLU"
  bottom: "inception_4c/3x3"
  top: "inception_4c/3x3"
}
layer {
  name: "inception_4c/5x5_reduce"
  type: "Convolution"
  bottom: "inception_4b/output"
  top: "inception_4c/5x5_reduce"
  param {
    lr_mult: 1
    decay_mult: 1
  }
  param {
    lr_mult: 2
    decay_mult: 0
  }
  convolution_param {
    num_output: 24
    kernel_size: 1
    weight_filler {
      type: "xavier"
      std: 0.2
    }
    bias_filler {
      type: "constant"
      value: 0.2
    }
  }
}
layer {
  name: "inception_4c/relu_5x5_reduce"
  type: "ReLU"
  bottom: "inception_4c/5x5_reduce"
  top: "inception_4c/5x5_reduce"
}
layer {
  name: "inception_4c/5x5"
  type: "Convolution"
  bottom: "inception_4c/5x5_reduce"
  top: "inception_4c/5x5"
  param {
    lr_mult: 1
    decay_mult: 1
  }
  param {
    lr_mult: 2
    decay_mult: 0
  }
  convolution_param {
    num_output: 64
    pad: 2
    kernel_size: 5
    weight_filler {
      type: "xavier"
      std: 0.03
    }
    bias_filler {
      type: "constant"
      value: 0.2
    }
  }
}
layer {
  name: "inception_4c/relu_5x5"
  type: "ReLU"
  bottom: "inception_4c/5x5"
  top: "inception_4c/5x5"
}
layer {
  name: "inception_4c/pool"
  type: "Pooling"
  bottom: "inception_4b/output"
  top: "inception_4c/pool"
  pooling_param {
    pool: MAX
    kernel_size: 3
    stride: 1
    pad: 1
  }
}
layer {
  name: "inception_4c/pool_proj"
  type: "Convolution"
  bottom: "inception_4c/pool"
  top: "inception_4c/pool_proj"
  param {
    lr_mult: 1
    decay_mult: 1
  }
  param {
    lr_mult: 2
    decay_mult: 0
  }
  convolution_param {
    num_output: 64
    kernel_size: 1
    weight_filler {
      type: "xavier"
      std: 0.1
    }
    bias_filler {
      type: "constant"
      value: 0.2
    }
  }
}
layer {
  name: "inception_4c/relu_pool_proj"
  type: "ReLU"
  bottom: "inception_4c/pool_proj"
  top: "inception_4c/pool_proj"
}
layer {
  name: "inception_4c/output"
  type: "Concat"
  bottom: "inception_4c/1x1"
  bottom: "inception_4c/3x3"
  bottom: "inception_4c/5x5"
  bottom: "inception_4c/pool_proj"
  top: "inception_4c/output"
}
layer {
  name: "inception_4d/1x1"
  type: "Convolution"
  bottom: "inception_4c/output"
  top: "inception_4d/1x1"
  param {
    lr_mult: 1
    decay_mult: 1
  }
  param {
    lr_mult: 2
    decay_mult: 0
  }
  convolution_param {
    num_output: 112
    kernel_size: 1
    weight_filler {
      type: "xavier"
      std: 0.03
    }
    bias_filler {
      type: "constant"
      value: 0.2
    }
  }
}
layer {
  name: "inception_4d/relu_1x1"
  type: "ReLU"
  bottom: "inception_4d/1x1"
  top: "inception_4d/1x1"
}
layer {
  name: "inception_4d/3x3_reduce"
  type: "Convolution"
  bottom: "inception_4c/output"
  top: "inception_4d/3x3_reduce"
  param {
    lr_mult: 1
    decay_mult: 1
  }
  param {
    lr_mult: 2
    decay_mult: 0
  }
  convolution_param {
    num_output: 144
    kernel_size: 1
    weight_filler {
      type: "xavier"
      std: 0.09
    }
    bias_filler {
      type: "constant"
      value: 0.2
    }
  }
}
layer {
  name: "inception_4d/relu_3x3_reduce"
  type: "ReLU"
  bottom: "inception_4d/3x3_reduce"
  top: "inception_4d/3x3_reduce"
}
layer {
  name: "inception_4d/3x3"
  type: "Convolution"
  bottom: "inception_4d/3x3_reduce"
  top: "inception_4d/3x3"
  param {
    lr_mult: 1
    decay_mult: 1
  }
  param {
    lr_mult: 2
    decay_mult: 0
  }
  convolution_param {
    num_output: 288
    pad: 1
    kernel_size: 3
    weight_filler {
      type: "xavier"
      std: 0.03
    }
    bias_filler {
      type: "constant"
      value: 0.2
    }
  }
}
layer {
  name: "inception_4d/relu_3x3"
  type: "ReLU"
  bottom: "inception_4d/3x3"
  top: "inception_4d/3x3"
}
layer {
  name: "inception_4d/5x5_reduce"
  type: "Convolution"
  bottom: "inception_4c/output"
  top: "inception_4d/5x5_reduce"
  param {
    lr_mult: 1
    decay_mult: 1
  }
  param {
    lr_mult: 2
    decay_mult: 0
  }
  convolution_param {
    num_output: 32
    kernel_size: 1
    weight_filler {
      type: "xavier"
      std: 0.2
    }
    bias_filler {
      type: "constant"
      value: 0.2
    }
  }
}
layer {
  name: "inception_4d/relu_5x5_reduce"
  type: "ReLU"
  bottom: "inception_4d/5x5_reduce"
  top: "inception_4d/5x5_reduce"
}
layer {
  name: "inception_4d/5x5"
  type: "Convolution"
  bottom: "inception_4d/5x5_reduce"
  top: "inception_4d/5x5"
  param {
    lr_mult: 1
    decay_mult: 1
  }
  param {
    lr_mult: 2
    decay_mult: 0
  }
  convolution_param {
    num_output: 64
    pad: 2
    kernel_size: 5
    weight_filler {
      type: "xavier"
      std: 0.03
    }
    bias_filler {
      type: "constant"
      value: 0.2
    }
  }
}
layer {
  name: "inception_4d/relu_5x5"
  type: "ReLU"
  bottom: "inception_4d/5x5"
  top: "inception_4d/5x5"
}
layer {
  name: "inception_4d/pool"
  type: "Pooling"
  bottom: "inception_4c/output"
  top: "inception_4d/pool"
  pooling_param {
    pool: MAX
    kernel_size: 3
    stride: 1
    pad: 1
  }
}
layer {
  name: "inception_4d/pool_proj"
  type: "Convolution"
  bottom: "inception_4d/pool"
  top: "inception_4d/pool_proj"
  param {
    lr_mult: 1
    decay_mult: 1
  }
  param {
    lr_mult: 2
    decay_mult: 0
  }
  convolution_param {
    num_output: 64
    kernel_size: 1
    weight_filler {
      type: "xavier"
      std: 0.1
    }
    bias_filler {
      type: "constant"
      value: 0.2
    }
  }
}
layer {
  name: "inception_4d/relu_pool_proj"
  type: "ReLU"
  bottom: "inception_4d/pool_proj"
  top: "inception_4d/pool_proj"
}
layer {
  name: "inception_4d/output"
  type: "Concat"
  bottom: "inception_4d/1x1"
  bottom: "inception_4d/3x3"
  bottom: "inception_4d/5x5"
  bottom: "inception_4d/pool_proj"
  top: "inception_4d/output"
}
layer {
  name: "loss2/ave_pool"
  type: "Pooling"
  bottom: "inception_4d/output"
  top: "loss2/ave_pool"
  pooling_param {
    pool: AVE
    kernel_size: 5
    stride: 3
  }
}
layer {
  name: "loss2/conv"
  type: "Convolution"
  bottom: "loss2/ave_pool"
  top: "loss2/conv"
  param {
    lr_mult: 1
    decay_mult: 1
  }
  param {
    lr_mult: 2
    decay_mult: 0
  }
  convolution_param {
    num_output: 128
    kernel_size: 1
    weight_filler {
      type: "xavier"
      std: 0.08
    }
    bias_filler {
      type: "constant"
      value: 0.2
    }
  }
}
layer {
  name: "loss2/relu_conv"
  type: "ReLU"
  bottom: "loss2/conv"
  top: "loss2/conv"
}
layer {
  name: "loss2/fc"
  type: "InnerProduct"
  bottom: "loss2/conv"
  top: "loss2/fc"
  param {
    lr_mult: 1
    decay_mult: 1
  }
  param {
    lr_mult: 2
    decay_mult: 0
  }
  inner_product_param {
    num_output: 1024
    weight_filler {
      type: "xavier"
      std: 0.02
    }
    bias_filler {
      type: "constant"
      value: 0.2
    }
  }
}
layer {
  name: "loss2/relu_fc"
  type: "ReLU"
  bottom: "loss2/fc"
  top: "loss2/fc"
}
layer {
  name: "loss2/drop_fc"
  type: "Dropout"
  bottom: "loss2/fc"
  top: "loss2/fc"
  dropout_param {
    dropout_ratio: 0.7
  }
}
layer {
  name: "loss2/classifier_plantvillage"
  type: "InnerProduct"
  bottom: "loss2/fc"
  top: "loss2/classifier_plantvillage"
  param {
    lr_mult: 1
    decay_mult: 1
  }
  param {
    lr_mult: 2
    decay_mult: 0
  }
  inner_product_param {
    num_output: 38
    weight_filler {
      type: "xavier"
      std: 0.0009765625
    }
    bias_filler {
      type: "constant"
      value: 0
    }
  }
}
layer {
  name: "inception_4e/1x1"
  type: "Convolution"
  bottom: "inception_4d/output"
  top: "inception_4e/1x1"
  param {
    lr_mult: 1
    decay_mult: 1
  }
  param {
    lr_mult: 2
    decay_mult: 0
  }
  convolution_param {
    num_output: 256
    kernel_size: 1
    weight_filler {
      type: "xavier"
      std: 0.03
    }
    bias_filler {
      type: "constant"
      value: 0.2
    }
  }
}
layer {
  name: "inception_4e/relu_1x1"
  type: "ReLU"
  bottom: "inception_4e/1x1"
  top: "inception_4e/1x1"
}
layer {
  name: "inception_4e/3x3_reduce"
  type: "Convolution"
  bottom: "inception_4d/output"
  top: "inception_4e/3x3_reduce"
  param {
    lr_mult: 1
    decay_mult: 1
  }
  param {
    lr_mult: 2
    decay_mult: 0
  }
  convolution_param {
    num_output: 160
    kernel_size: 1
    weight_filler {
      type: "xavier"
      std: 0.09
    }
    bias_filler {
      type: "constant"
      value: 0.2
    }
  }
}
layer {
  name: "inception_4e/relu_3x3_reduce"
  type: "ReLU"
  bottom: "inception_4e/3x3_reduce"
  top: "inception_4e/3x3_reduce"
}
layer {
  name: "inception_4e/3x3"
  type: "Convolution"
  bottom: "inception_4e/3x3_reduce"
  top: "inception_4e/3x3"
  param {
    lr_mult: 1
    decay_mult: 1
  }
  param {
    lr_mult: 2
    decay_mult: 0
  }
  convolution_param {
    num_output: 320
    pad: 1
    kernel_size: 3
    weight_filler {
      type: "xavier"
      std: 0.03
    }
    bias_filler {
      type: "constant"
      value: 0.2
    }
  }
}
layer {
  name: "inception_4e/relu_3x3"
  type: "ReLU"
  bottom: "inception_4e/3x3"
  top: "inception_4e/3x3"
}
layer {
  name: "inception_4e/5x5_reduce"
  type: "Convolution"
  bottom: "inception_4d/output"
  top: "inception_4e/5x5_reduce"
  param {
    lr_mult: 1
    decay_mult: 1
  }
  param {
    lr_mult: 2
    decay_mult: 0
  }
  convolution_param {
    num_output: 32
    kernel_size: 1
    weight_filler {
      type: "xavier"
      std: 0.2
    }
    bias_filler {
      type: "constant"
      value: 0.2
    }
  }
}
layer {
  name: "inception_4e/relu_5x5_reduce"
  type: "ReLU"
  bottom: "inception_4e/5x5_reduce"
  top: "inception_4e/5x5_reduce"
}
layer {
  name: "inception_4e/5x5"
  type: "Convolution"
  bottom: "inception_4e/5x5_reduce"
  top: "inception_4e/
I0403 15:56:49.734347 20559 layer_factory.hpp:77] Creating layer data
I0403 15:56:49.734959 20559 net.cpp:91] Creating Layer data
I0403 15:56:49.734992 20559 net.cpp:399] data -> data
I0403 15:56:49.735051 20559 net.cpp:399] data -> label
I0403 15:56:49.735090 20559 data_transformer.cpp:25] Loading mean file from: /home/mohanty/data/final_dataset/lmdb/grayscale-20-80/mean.binaryproto
I0403 15:56:49.736301 20564 db_lmdb.cpp:38] Opened lmdb /home/mohanty/data/final_dataset/lmdb/grayscale-20-80/test_db
I0403 15:56:49.748199 20559 data_layer.cpp:41] output data size: 24,3,224,224
I0403 15:56:49.776204 20559 net.cpp:141] Setting up data
I0403 15:56:49.776307 20559 net.cpp:148] Top shape: 24 3 224 224 (3612672)
I0403 15:56:49.776329 20559 net.cpp:148] Top shape: 24 (24)
I0403 15:56:49.776345 20559 net.cpp:156] Memory required for data: 14450784
I0403 15:56:49.776372 20559 layer_factory.hpp:77] Creating layer label_data_1_split
I0403 15:56:49.776399 20559 net.cpp:91] Creating Layer label_data_1_split
I0403 15:56:49.776417 20559 net.cpp:425] label_data_1_split <- label
I0403 15:56:49.776449 20559 net.cpp:399] label_data_1_split -> label_data_1_split_0
I0403 15:56:49.776478 20559 net.cpp:399] label_data_1_split -> label_data_1_split_1
I0403 15:56:49.776500 20559 net.cpp:399] label_data_1_split -> label_data_1_split_2
I0403 15:56:49.776522 20559 net.cpp:399] label_data_1_split -> label_data_1_split_3
I0403 15:56:49.776542 20559 net.cpp:399] label_data_1_split -> label_data_1_split_4
I0403 15:56:49.776561 20559 net.cpp:399] label_data_1_split -> label_data_1_split_5
I0403 15:56:49.776581 20559 net.cpp:399] label_data_1_split -> label_data_1_split_6
I0403 15:56:49.776602 20559 net.cpp:399] label_data_1_split -> label_data_1_split_7
I0403 15:56:49.776628 20559 net.cpp:399] label_data_1_split -> label_data_1_split_8
I0403 15:56:49.776648 20559 net.cpp:399] label_data_1_split -> label_data_1_split_9
I0403 15:56:49.776768 20559 net.cpp:141] Setting up label_data_1_split
I0403 15:56:49.776793 20559 net.cpp:148] Top shape: 24 (24)
I0403 15:56:49.776810 20559 net.cpp:148] Top shape: 24 (24)
I0403 15:56:49.776828 20559 net.cpp:148] Top shape: 24 (24)
I0403 15:56:49.776844 20559 net.cpp:148] Top shape: 24 (24)
I0403 15:56:49.776859 20559 net.cpp:148] Top shape: 24 (24)
I0403 15:56:49.776875 20559 net.cpp:148] Top shape: 24 (24)
I0403 15:56:49.776890 20559 net.cpp:148] Top shape: 24 (24)
I0403 15:56:49.776906 20559 net.cpp:148] Top shape: 24 (24)
I0403 15:56:49.776921 20559 net.cpp:148] Top shape: 24 (24)
I0403 15:56:49.776942 20559 net.cpp:148] Top shape: 24 (24)
I0403 15:56:49.776991 20559 net.cpp:156] Memory required for data: 14451744
I0403 15:56:49.777010 20559 layer_factory.hpp:77] Creating layer conv1/7x7_s2
I0403 15:56:49.777053 20559 net.cpp:91] Creating Layer conv1/7x7_s2
I0403 15:56:49.777078 20559 net.cpp:425] conv1/7x7_s2 <- data
I0403 15:56:49.777101 20559 net.cpp:399] conv1/7x7_s2 -> conv1/7x7_s2
I0403 15:56:49.915082 20559 net.cpp:141] Setting up conv1/7x7_s2
I0403 15:56:49.915172 20559 net.cpp:148] Top shape: 24 64 112 112 (19267584)
I0403 15:56:49.915201 20559 net.cpp:156] Memory required for data: 91522080
I0403 15:56:49.915232 20559 layer_factory.hpp:77] Creating layer conv1/relu_7x7
I0403 15:56:49.915258 20559 net.cpp:91] Creating Layer conv1/relu_7x7
I0403 15:56:49.915277 20559 net.cpp:425] conv1/relu_7x7 <- conv1/7x7_s2
I0403 15:56:49.915294 20559 net.cpp:386] conv1/relu_7x7 -> conv1/7x7_s2 (in-place)
I0403 15:56:49.915546 20559 net.cpp:141] Setting up conv1/relu_7x7
I0403 15:56:49.915573 20559 net.cpp:148] Top shape: 24 64 112 112 (19267584)
I0403 15:56:49.915590 20559 net.cpp:156] Memory required for data: 168592416
I0403 15:56:49.915603 20559 layer_factory.hpp:77] Creating layer pool1/3x3_s2
I0403 15:56:49.915627 20559 net.cpp:91] Creating Layer pool1/3x3_s2
I0403 15:56:49.915644 20559 net.cpp:425] pool1/3x3_s2 <- conv1/7x7_s2
I0403 15:56:49.915663 20559 net.cpp:399] pool1/3x3_s2 -> pool1/3x3_s2
I0403 15:56:49.915735 20559 net.cpp:141] Setting up pool1/3x3_s2
I0403 15:56:49.915760 20559 net.cpp:148] Top shape: 24 64 56 56 (4816896)
I0403 15:56:49.915773 20559 net.cpp:156] Memory required for data: 187860000
I0403 15:56:49.915788 20559 layer_factory.hpp:77] Creating layer pool1/norm1
I0403 15:56:49.915812 20559 net.cpp:91] Creating Layer pool1/norm1
I0403 15:56:49.915829 20559 net.cpp:425] pool1/norm1 <- pool1/3x3_s2
I0403 15:56:49.915846 20559 net.cpp:399] pool1/norm1 -> pool1/norm1
I0403 15:56:49.916139 20559 net.cpp:141] Setting up pool1/norm1
I0403 15:56:49.916167 20559 net.cpp:148] Top shape: 24 64 56 56 (4816896)
I0403 15:56:49.916182 20559 net.cpp:156] Memory required for data: 207127584
I0403 15:56:49.916198 20559 layer_factory.hpp:77] Creating layer conv2/3x3_reduce
I0403 15:56:49.916221 20559 net.cpp:91] Creating Layer conv2/3x3_reduce
I0403 15:56:49.916237 20559 net.cpp:425] conv2/3x3_reduce <- pool1/norm1
I0403 15:56:49.916254 20559 net.cpp:399] conv2/3x3_reduce -> conv2/3x3_reduce
I0403 15:56:49.917587 20559 net.cpp:141] Setting up conv2/3x3_reduce
I0403 15:56:49.917616 20559 net.cpp:148] Top shape: 24 64 56 56 (4816896)
I0403 15:56:49.917632 20559 net.cpp:156] Memory required for data: 226395168
I0403 15:56:49.917654 20559 layer_factory.hpp:77] Creating layer conv2/relu_3x3_reduce
I0403 15:56:49.917673 20559 net.cpp:91] Creating Layer conv2/relu_3x3_reduce
I0403 15:56:49.917690 20559 net.cpp:425] conv2/relu_3x3_reduce <- conv2/3x3_reduce
I0403 15:56:49.917706 20559 net.cpp:386] conv2/relu_3x3_reduce -> conv2/3x3_reduce (in-place)
I0403 15:56:49.917976 20559 net.cpp:141] Setting up conv2/relu_3x3_reduce
I0403 15:56:49.918005 20559 net.cpp:148] Top shape: 24 64 56 56 (4816896)
I0403 15:56:49.918033 20559 net.cpp:156] Memory required for data: 245662752
I0403 15:56:49.918052 20559 layer_factory.hpp:77] Creating layer conv2/3x3
I0403 15:56:49.918076 20559 net.cpp:91] Creating Layer conv2/3x3
I0403 15:56:49.918092 20559 net.cpp:425] conv2/3x3 <- conv2/3x3_reduce
I0403 15:56:49.918112 20559 net.cpp:399] conv2/3x3 -> conv2/3x3
I0403 15:56:49.920543 20559 net.cpp:141] Setting up conv2/3x3
I0403 15:56:49.920572 20559 net.cpp:148] Top shape: 24 192 56 56 (14450688)
I0403 15:56:49.920588 20559 net.cpp:156] Memory required for data: 303465504
I0403 15:56:49.920608 20559 layer_factory.hpp:77] Creating layer conv2/relu_3x3
I0403 15:56:49.920627 20559 net.cpp:91] Creating Layer conv2/relu_3x3
I0403 15:56:49.920644 20559 net.cpp:425] conv2/relu_3x3 <- conv2/3x3
I0403 15:56:49.920662 20559 net.cpp:386] conv2/relu_3x3 -> conv2/3x3 (in-place)
I0403 15:56:49.920841 20559 net.cpp:141] Setting up conv2/relu_3x3
I0403 15:56:49.920868 20559 net.cpp:148] Top shape: 24 192 56 56 (14450688)
I0403 15:56:49.920913 20559 net.cpp:156] Memory required for data: 361268256
I0403 15:56:49.920928 20559 layer_factory.hpp:77] Creating layer conv2/norm2
I0403 15:56:49.920948 20559 net.cpp:91] Creating Layer conv2/norm2
I0403 15:56:49.920964 20559 net.cpp:425] conv2/norm2 <- conv2/3x3
I0403 15:56:49.920984 20559 net.cpp:399] conv2/norm2 -> conv2/norm2
I0403 15:56:49.921295 20559 net.cpp:141] Setting up conv2/norm2
I0403 15:56:49.921322 20559 net.cpp:148] Top shape: 24 192 56 56 (14450688)
I0403 15:56:49.921337 20559 net.cpp:156] Memory required for data: 419071008
I0403 15:56:49.921352 20559 layer_factory.hpp:77] Creating layer pool2/3x3_s2
I0403 15:56:49.921370 20559 net.cpp:91] Creating Layer pool2/3x3_s2
I0403 15:56:49.921385 20559 net.cpp:425] pool2/3x3_s2 <- conv2/norm2
I0403 15:56:49.921403 20559 net.cpp:399] pool2/3x3_s2 -> pool2/3x3_s2
I0403 15:56:49.921455 20559 net.cpp:141] Setting up pool2/3x3_s2
I0403 15:56:49.921478 20559 net.cpp:148] Top shape: 24 192 28 28 (3612672)
I0403 15:56:49.921492 20559 net.cpp:156] Memory required for data: 433521696
I0403 15:56:49.921506 20559 layer_factory.hpp:77] Creating layer pool2/3x3_s2_pool2/3x3_s2_0_split
I0403 15:56:49.921525 20559 net.cpp:91] Creating Layer pool2/3x3_s2_pool2/3x3_s2_0_split
I0403 15:56:49.921541 20559 net.cpp:425] pool2/3x3_s2_pool2/3x3_s2_0_split <- pool2/3x3_s2
I0403 15:56:49.921557 20559 net.cpp:399] pool2/3x3_s2_pool2/3x3_s2_0_split -> pool2/3x3_s2_pool2/3x3_s2_0_split_0
I0403 15:56:49.921576 20559 net.cpp:399] pool2/3x3_s2_pool2/3x3_s2_0_split -> pool2/3x3_s2_pool2/3x3_s2_0_split_1
I0403 15:56:49.921598 20559 net.cpp:399] pool2/3x3_s2_pool2/3x3_s2_0_split -> pool2/3x3_s2_pool2/3x3_s2_0_split_2
I0403 15:56:49.921617 20559 net.cpp:399] pool2/3x3_s2_pool2/3x3_s2_0_split -> pool2/3x3_s2_pool2/3x3_s2_0_split_3
I0403 15:56:49.921686 20559 net.cpp:141] Setting up pool2/3x3_s2_pool2/3x3_s2_0_split
I0403 15:56:49.921708 20559 net.cpp:148] Top shape: 24 192 28 28 (3612672)
I0403 15:56:49.921723 20559 net.cpp:148] Top shape: 24 192 28 28 (3612672)
I0403 15:56:49.921738 20559 net.cpp:148] Top shape: 24 192 28 28 (3612672)
I0403 15:56:49.921753 20559 net.cpp:148] Top shape: 24 192 28 28 (3612672)
I0403 15:56:49.921766 20559 net.cpp:156] Memory required for data: 491324448
I0403 15:56:49.921780 20559 layer_factory.hpp:77] Creating layer inception_3a/1x1
I0403 15:56:49.921802 20559 net.cpp:91] Creating Layer inception_3a/1x1
I0403 15:56:49.921819 20559 net.cpp:425] inception_3a/1x1 <- pool2/3x3_s2_pool2/3x3_s2_0_split_0
I0403 15:56:49.921840 20559 net.cpp:399] inception_3a/1x1 -> inception_3a/1x1
I0403 15:56:49.923382 20559 net.cpp:141] Setting up inception_3a/1x1
I0403 15:56:49.923410 20559 net.cpp:148] Top shape: 24 64 28 28 (1204224)
I0403 15:56:49.923426 20559 net.cpp:156] Memory required for data: 496141344
I0403 15:56:49.923444 20559 layer_factory.hpp:77] Creating layer inception_3a/relu_1x1
I0403 15:56:49.923461 20559 net.cpp:91] Creating Layer inception_3a/relu_1x1
I0403 15:56:49.923476 20559 net.cpp:425] inception_3a/relu_1x1 <- inception_3a/1x1
I0403 15:56:49.923496 20559 net.cpp:386] inception_3a/relu_1x1 -> inception_3a/1x1 (in-place)
I0403 15:56:49.923667 20559 net.cpp:141] Setting up inception_3a/relu_1x1
I0403 15:56:49.923692 20559 net.cpp:148] Top shape: 24 64 28 28 (1204224)
I0403 15:56:49.923707 20559 net.cpp:156] Memory required for data: 500958240
I0403 15:56:49.923722 20559 layer_factory.hpp:77] Creating layer inception_3a/3x3_reduce
I0403 15:56:49.923743 20559 net.cpp:91] Creating Layer inception_3a/3x3_reduce
I0403 15:56:49.923759 20559 net.cpp:425] inception_3a/3x3_reduce <- pool2/3x3_s2_pool2/3x3_s2_0_split_1
I0403 15:56:49.923779 20559 net.cpp:399] inception_3a/3x3_reduce -> inception_3a/3x3_reduce
I0403 15:56:49.925467 20559 net.cpp:141] Setting up inception_3a/3x3_reduce
I0403 15:56:49.925495 20559 net.cpp:148] Top shape: 24 96 28 28 (1806336)
I0403 15:56:49.925511 20559 net.cpp:156] Memory required for data: 508183584
I0403 15:56:49.925532 20559 layer_factory.hpp:77] Creating layer inception_3a/relu_3x3_reduce
I0403 15:56:49.925570 20559 net.cpp:91] Creating Layer inception_3a/relu_3x3_reduce
I0403 15:56:49.925587 20559 net.cpp:425] inception_3a/relu_3x3_reduce <- inception_3a/3x3_reduce
I0403 15:56:49.925606 20559 net.cpp:386] inception_3a/relu_3x3_reduce -> inception_3a/3x3_reduce (in-place)
I0403 15:56:49.925787 20559 net.cpp:141] Setting up inception_3a/relu_3x3_reduce
I0403 15:56:49.925812 20559 net.cpp:148] Top shape: 24 96 28 28 (1806336)
I0403 15:56:49.925827 20559 net.cpp:156] Memory required for data: 515408928
I0403 15:56:49.925842 20559 layer_factory.hpp:77] Creating layer inception_3a/3x3
I0403 15:56:49.925864 20559 net.cpp:91] Creating Layer inception_3a/3x3
I0403 15:56:49.925880 20559 net.cpp:425] inception_3a/3x3 <- inception_3a/3x3_reduce
I0403 15:56:49.925901 20559 net.cpp:399] inception_3a/3x3 -> inception_3a/3x3
I0403 15:56:49.927541 20559 net.cpp:141] Setting up inception_3a/3x3
I0403 15:56:49.927569 20559 net.cpp:148] Top shape: 24 128 28 28 (2408448)
I0403 15:56:49.927584 20559 net.cpp:156] Memory required for data: 525042720
I0403 15:56:49.927603 20559 layer_factory.hpp:77] Creating layer inception_3a/relu_3x3
I0403 15:56:49.927623 20559 net.cpp:91] Creating Layer inception_3a/relu_3x3
I0403 15:56:49.927639 20559 net.cpp:425] inception_3a/relu_3x3 <- inception_3a/3x3
I0403 15:56:49.927657 20559 net.cpp:386] inception_3a/relu_3x3 -> inception_3a/3x3 (in-place)
I0403 15:56:49.927927 20559 net.cpp:141] Setting up inception_3a/relu_3x3
I0403 15:56:49.927953 20559 net.cpp:148] Top shape: 24 128 28 28 (2408448)
I0403 15:56:49.927968 20559 net.cpp:156] Memory required for data: 534676512
I0403 15:56:49.927981 20559 layer_factory.hpp:77] Creating layer inception_3a/5x5_reduce
I0403 15:56:49.928004 20559 net.cpp:91] Creating Layer inception_3a/5x5_reduce
I0403 15:56:49.928052 20559 net.cpp:425] inception_3a/5x5_reduce <- pool2/3x3_s2_pool2/3x3_s2_0_split_2
I0403 15:56:49.928077 20559 net.cpp:399] inception_3a/5x5_reduce -> inception_3a/5x5_reduce
I0403 15:56:49.929069 20559 net.cpp:141] Setting up inception_3a/5x5_reduce
I0403 15:56:49.929096 20559 net.cpp:148] Top shape: 24 16 28 28 (301056)
I0403 15:56:49.929112 20559 net.cpp:156] Memory required for data: 535880736
I0403 15:56:49.929131 20559 layer_factory.hpp:77] Creating layer inception_3a/relu_5x5_reduce
I0403 15:56:49.929152 20559 net.cpp:91] Creating Layer inception_3a/relu_5x5_reduce
I0403 15:56:49.929169 20559 net.cpp:425] inception_3a/relu_5x5_reduce <- inception_3a/5x5_reduce
I0403 15:56:49.929186 20559 net.cpp:386] inception_3a/relu_5x5_reduce -> inception_3a/5x5_reduce (in-place)
I0403 15:56:49.929496 20559 net.cpp:141] Setting up inception_3a/relu_5x5_reduce
I0403 15:56:49.929525 20559 net.cpp:148] Top shape: 24 16 28 28 (301056)
I0403 15:56:49.929541 20559 net.cpp:156] Memory required for data: 537084960
I0403 15:56:49.929556 20559 layer_factory.hpp:77] Creating layer inception_3a/5x5
I0403 15:56:49.929577 20559 net.cpp:91] Creating Layer inception_3a/5x5
I0403 15:56:49.929594 20559 net.cpp:425] inception_3a/5x5 <- inception_3a/5x5_reduce
I0403 15:56:49.929616 20559 net.cpp:399] inception_3a/5x5 -> inception_3a/5x5
I0403 15:56:49.930651 20559 net.cpp:141] Setting up inception_3a/5x5
I0403 15:56:49.930680 20559 net.cpp:148] Top shape: 24 32 28 28 (602112)
I0403 15:56:49.930694 20559 net.cpp:156] Memory required for data: 539493408
I0403 15:56:49.930712 20559 layer_factory.hpp:77] Creating layer inception_3a/relu_5x5
I0403 15:56:49.930733 20559 net.cpp:91] Creating Layer inception_3a/relu_5x5
I0403 15:56:49.930750 20559 net.cpp:425] inception_3a/relu_5x5 <- inception_3a/5x5
I0403 15:56:49.930768 20559 net.cpp:386] inception_3a/relu_5x5 -> inception_3a/5x5 (in-place)
I0403 15:56:49.930943 20559 net.cpp:141] Setting up inception_3a/relu_5x5
I0403 15:56:49.930970 20559 net.cpp:148] Top shape: 24 32 28 28 (602112)
I0403 15:56:49.930984 20559 net.cpp:156] Memory required for data: 541901856
I0403 15:56:49.930999 20559 layer_factory.hpp:77] Creating layer inception_3a/pool
I0403 15:56:49.931023 20559 net.cpp:91] Creating Layer inception_3a/pool
I0403 15:56:49.931054 20559 net.cpp:425] inception_3a/pool <- pool2/3x3_s2_pool2/3x3_s2_0_split_3
I0403 15:56:49.931074 20559 net.cpp:399] inception_3a/pool -> inception_3a/pool
I0403 15:56:49.931133 20559 net.cpp:141] Setting up inception_3a/pool
I0403 15:56:49.931156 20559 net.cpp:148] Top shape: 24 192 28 28 (3612672)
I0403 15:56:49.931171 20559 net.cpp:156] Memory required for data: 556352544
I0403 15:56:49.931185 20559 layer_factory.hpp:77] Creating layer inception_3a/pool_proj
I0403 15:56:49.931208 20559 net.cpp:91] Creating Layer inception_3a/pool_proj
I0403 15:56:49.931226 20559 net.cpp:425] inception_3a/pool_proj <- inception_3a/pool
I0403 15:56:49.931247 20559 net.cpp:399] inception_3a/pool_proj -> inception_3a/pool_proj
I0403 15:56:49.932245 20559 net.cpp:141] Setting up inception_3a/pool_proj
I0403 15:56:49.932276 20559 net.cpp:148] Top shape: 24 32 28 28 (602112)
I0403 15:56:49.932291 20559 net.cpp:156] Memory required for data: 558760992
I0403 15:56:49.932313 20559 layer_factory.hpp:77] Creating layer inception_3a/relu_pool_proj
I0403 15:56:49.932334 20559 net.cpp:91] Creating Layer inception_3a/relu_pool_proj
I0403 15:56:49.932351 20559 net.cpp:425] inception_3a/relu_pool_proj <- inception_3a/pool_proj
I0403 15:56:49.932369 20559 net.cpp:386] inception_3a/relu_pool_proj -> inception_3a/pool_proj (in-place)
I0403 15:56:49.932648 20559 net.cpp:141] Setting up inception_3a/relu_pool_proj
I0403 15:56:49.932674 20559 net.cpp:148] Top shape: 24 32 28 28 (602112)
I0403 15:56:49.932690 20559 net.cpp:156] Memory required for data: 561169440
I0403 15:56:49.932705 20559 layer_factory.hpp:77] Creating layer inception_3a/output
I0403 15:56:49.932723 20559 net.cpp:91] Creating Layer inception_3a/output
I0403 15:56:49.932739 20559 net.cpp:425] inception_3a/output <- inception_3a/1x1
I0403 15:56:49.932759 20559 net.cpp:425] inception_3a/output <- inception_3a/3x3
I0403 15:56:49.932775 20559 net.cpp:425] inception_3a/output <- inception_3a/5x5
I0403 15:56:49.932790 20559 net.cpp:425] inception_3a/output <- inception_3a/pool_proj
I0403 15:56:49.932806 20559 net.cpp:399] inception_3a/output -> inception_3a/output
I0403 15:56:49.932852 20559 net.cpp:141] Setting up inception_3a/output
I0403 15:56:49.932878 20559 net.cpp:148] Top shape: 24 256 28 28 (4816896)
I0403 15:56:49.932894 20559 net.cpp:156] Memory required for data: 580437024
I0403 15:56:49.932909 20559 layer_factory.hpp:77] Creating layer inception_3a/output_inception_3a/output_0_split
I0403 15:56:49.932926 20559 net.cpp:91] Creating Layer inception_3a/output_inception_3a/output_0_split
I0403 15:56:49.932941 20559 net.cpp:425] inception_3a/output_inception_3a/output_0_split <- inception_3a/output
I0403 15:56:49.932960 20559 net.cpp:399] inception_3a/output_inception_3a/output_0_split -> inception_3a/output_inception_3a/output_0_split_0
I0403 15:56:49.932981 20559 net.cpp:399] inception_3a/output_inception_3a/output_0_split -> inception_3a/output_inception_3a/output_0_split_1
I0403 15:56:49.933003 20559 net.cpp:399] inception_3a/output_inception_3a/output_0_split -> inception_3a/output_inception_3a/output_0_split_2
I0403 15:56:49.933028 20559 net.cpp:399] inception_3a/output_inception_3a/output_0_split -> inception_3a/output_inception_3a/output_0_split_3
I0403 15:56:49.933105 20559 net.cpp:141] Setting up inception_3a/output_inception_3a/output_0_split
I0403 15:56:49.933128 20559 net.cpp:148] Top shape: 24 256 28 28 (4816896)
I0403 15:56:49.933145 20559 net.cpp:148] Top shape: 24 256 28 28 (4816896)
I0403 15:56:49.933159 20559 net.cpp:148] Top shape: 24 256 28 28 (4816896)
I0403 15:56:49.933176 20559 net.cpp:148] Top shape: 24 256 28 28 (4816896)
I0403 15:56:49.933190 20559 net.cpp:156] Memory required for data: 657507360
I0403 15:56:49.933207 20559 layer_factory.hpp:77] Creating layer inception_3b/1x1
I0403 15:56:49.933229 20559 net.cpp:91] Creating Layer inception_3b/1x1
I0403 15:56:49.933246 20559 net.cpp:425] inception_3b/1x1 <- inception_3a/output_inception_3a/output_0_split_0
I0403 15:56:49.933267 20559 net.cpp:399] inception_3b/1x1 -> inception_3b/1x1
I0403 15:56:49.934448 20559 net.cpp:141] Setting up inception_3b/1x1
I0403 15:56:49.934489 20559 net.cpp:148] Top shape: 24 128 28 28 (2408448)
I0403 15:56:49.934505 20559 net.cpp:156] Memory required for data: 667141152
I0403 15:56:49.934525 20559 layer_factory.hpp:77] Creating layer inception_3b/relu_1x1
I0403 15:56:49.934543 20559 net.cpp:91] Creating Layer inception_3b/relu_1x1
I0403 15:56:49.934559 20559 net.cpp:425] inception_3b/relu_1x1 <- inception_3b/1x1
I0403 15:56:49.934578 20559 net.cpp:386] inception_3b/relu_1x1 -> inception_3b/1x1 (in-place)
I0403 15:56:49.934775 20559 net.cpp:141] Setting up inception_3b/relu_1x1
I0403 15:56:49.934800 20559 net.cpp:148] Top shape: 24 128 28 28 (2408448)
I0403 15:56:49.934815 20559 net.cpp:156] Memory required for data: 676774944
I0403 15:56:49.934830 20559 layer_factory.hpp:77] Creating layer inception_3b/3x3_reduce
I0403 15:56:49.934852 20559 net.cpp:91] Creating Layer inception_3b/3x3_reduce
I0403 15:56:49.934870 20559 net.cpp:425] inception_3b/3x3_reduce <- inception_3a/output_inception_3a/output_0_split_1
I0403 15:56:49.934891 20559 net.cpp:399] inception_3b/3x3_reduce -> inception_3b/3x3_reduce
I0403 15:56:49.936070 20559 net.cpp:141] Setting up inception_3b/3x3_reduce
I0403 15:56:49.936100 20559 net.cpp:148] Top shape: 24 128 28 28 (2408448)
I0403 15:56:49.936117 20559 net.cpp:156] Memory required for data: 686408736
I0403 15:56:49.936136 20559 layer_factory.hpp:77] Creating layer inception_3b/relu_3x3_reduce
I0403 15:56:49.936156 20559 net.cpp:91] Creating Layer inception_3b/relu_3x3_reduce
I0403 15:56:49.936172 20559 net.cpp:425] inception_3b/relu_3x3_reduce <- inception_3b/3x3_reduce
I0403 15:56:49.936190 20559 net.cpp:386] inception_3b/relu_3x3_reduce -> inception_3b/3x3_reduce (in-place)
I0403 15:56:49.936372 20559 net.cpp:141] Setting up inception_3b/relu_3x3_reduce
I0403 15:56:49.936398 20559 net.cpp:148] Top shape: 24 128 28 28 (2408448)
I0403 15:56:49.936414 20559 net.cpp:156] Memory required for data: 696042528
I0403 15:56:49.936427 20559 layer_factory.hpp:77] Creating layer inception_3b/3x3
I0403 15:56:49.936455 20559 net.cpp:91] Creating Layer inception_3b/3x3
I0403 15:56:49.936472 20559 net.cpp:425] inception_3b/3x3 <- inception_3b/3x3_reduce
I0403 15:56:49.936491 20559 net.cpp:399] inception_3b/3x3 -> inception_3b/3x3
I0403 15:56:49.939476 20559 net.cpp:141] Setting up inception_3b/3x3
I0403 15:56:49.939507 20559 net.cpp:148] Top shape: 24 192 28 28 (3612672)
I0403 15:56:49.939522 20559 net.cpp:156] Memory required for data: 710493216
I0403 15:56:49.939540 20559 layer_factory.hpp:77] Creating layer inception_3b/relu_3x3
I0403 15:56:49.939561 20559 net.cpp:91] Creating Layer inception_3b/relu_3x3
I0403 15:56:49.939579 20559 net.cpp:425] inception_3b/relu_3x3 <- inception_3b/3x3
I0403 15:56:49.939595 20559 net.cpp:386] inception_3b/relu_3x3 -> inception_3b/3x3 (in-place)
I0403 15:56:49.939878 20559 net.cpp:141] Setting up inception_3b/relu_3x3
I0403 15:56:49.939905 20559 net.cpp:148] Top shape: 24 192 28 28 (3612672)
I0403 15:56:49.939920 20559 net.cpp:156] Memory required for data: 724943904
I0403 15:56:49.939936 20559 layer_factory.hpp:77] Creating layer inception_3b/5x5_reduce
I0403 15:56:49.939960 20559 net.cpp:91] Creating Layer inception_3b/5x5_reduce
I0403 15:56:49.939976 20559 net.cpp:425] inception_3b/5x5_reduce <- inception_3a/output_inception_3a/output_0_split_2
I0403 15:56:49.939999 20559 net.cpp:399] inception_3b/5x5_reduce -> inception_3b/5x5_reduce
I0403 15:56:49.941032 20559 net.cpp:141] Setting up inception_3b/5x5_reduce
I0403 15:56:49.941061 20559 net.cpp:148] Top shape: 24 32 28 28 (602112)
I0403 15:56:49.941076 20559 net.cpp:156] Memory required for data: 727352352
I0403 15:56:49.941094 20559 layer_factory.hpp:77] Creating layer inception_3b/relu_5x5_reduce
I0403 15:56:49.941118 20559 net.cpp:91] Creating Layer inception_3b/relu_5x5_reduce
I0403 15:56:49.941134 20559 net.cpp:425] inception_3b/relu_5x5_reduce <- inception_3b/5x5_reduce
I0403 15:56:49.941151 20559 net.cpp:386] inception_3b/relu_5x5_reduce -> inception_3b/5x5_reduce (in-place)
I0403 15:56:49.941350 20559 net.cpp:141] Setting up inception_3b/relu_5x5_reduce
I0403 15:56:49.941376 20559 net.cpp:148] Top shape: 24 32 28 28 (602112)
I0403 15:56:49.941391 20559 net.cpp:156] Memory required for data: 729760800
I0403 15:56:49.941406 20559 layer_factory.hpp:77] Creating layer inception_3b/5x5
I0403 15:56:49.941429 20559 net.cpp:91] Creating Layer inception_3b/5x5
I0403 15:56:49.941447 20559 net.cpp:425] inception_3b/5x5 <- inception_3b/5x5_reduce
I0403 15:56:49.941467 20559 net.cpp:399] inception_3b/5x5 -> inception_3b/5x5
I0403 15:56:49.943482 20559 net.cpp:141] Setting up inception_3b/5x5
I0403 15:56:49.943514 20559 net.cpp:148] Top shape: 24 96 28 28 (1806336)
I0403 15:56:49.943531 20559 net.cpp:156] Memory required for data: 736986144
I0403 15:56:49.943549 20559 layer_factory.hpp:77] Creating layer inception_3b/relu_5x5
I0403 15:56:49.943567 20559 net.cpp:91] Creating Layer inception_3b/relu_5x5
I0403 15:56:49.943583 20559 net.cpp:425] inception_3b/relu_5x5 <- inception_3b/5x5
I0403 15:56:49.943603 20559 net.cpp:386] inception_3b/relu_5x5 -> inception_3b/5x5 (in-place)
I0403 15:56:49.943802 20559 net.cpp:141] Setting up inception_3b/relu_5x5
I0403 15:56:49.943828 20559 net.cpp:148] Top shape: 24 96 28 28 (1806336)
I0403 15:56:49.943843 20559 net.cpp:156] Memory required for data: 744211488
I0403 15:56:49.943857 20559 layer_factory.hpp:77] Creating layer inception_3b/pool
I0403 15:56:49.943876 20559 net.cpp:91] Creating Layer inception_3b/pool
I0403 15:56:49.943892 20559 net.cpp:425] inception_3b/pool <- inception_3a/output_inception_3a/output_0_split_3
I0403 15:56:49.943908 20559 net.cpp:399] inception_3b/pool -> inception_3b/pool
I0403 15:56:49.943965 20559 net.cpp:141] Setting up inception_3b/pool
I0403 15:56:49.943989 20559 net.cpp:148] Top shape: 24 256 28 28 (4816896)
I0403 15:56:49.944003 20559 net.cpp:156] Memory required for data: 763479072
I0403 15:56:49.944021 20559 layer_factory.hpp:77] Creating layer inception_3b/pool_proj
I0403 15:56:49.944051 20559 net.cpp:91] Creating Layer inception_3b/pool_proj
I0403 15:56:49.944069 20559 net.cpp:425] inception_3b/pool_proj <- inception_3b/pool
I0403 15:56:49.944087 20559 net.cpp:399] inception_3b/pool_proj -> inception_3b/pool_proj
I0403 15:56:49.945175 20559 net.cpp:141] Setting up inception_3b/pool_proj
I0403 15:56:49.945202 20559 net.cpp:148] Top shape: 24 64 28 28 (1204224)
I0403 15:56:49.945219 20559 net.cpp:156] Memory required for data: 768295968
I0403 15:56:49.945236 20559 layer_factory.hpp:77] Creating layer inception_3b/relu_pool_proj
I0403 15:56:49.945256 20559 net.cpp:91] Creating Layer inception_3b/relu_pool_proj
I0403 15:56:49.945273 20559 net.cpp:425] inception_3b/relu_pool_proj <- inception_3b/pool_proj
I0403 15:56:49.945291 20559 net.cpp:386] inception_3b/relu_pool_proj -> inception_3b/pool_proj (in-place)
I0403 15:56:49.945696 20559 net.cpp:141] Setting up inception_3b/relu_pool_proj
I0403 15:56:49.945724 20559 net.cpp:148] Top shape: 24 64 28 28 (1204224)
I0403 15:56:49.945739 20559 net.cpp:156] Memory required for data: 773112864
I0403 15:56:49.945754 20559 layer_factory.hpp:77] Creating layer inception_3b/output
I0403 15:56:49.945773 20559 net.cpp:91] Creating Layer inception_3b/output
I0403 15:56:49.945790 20559 net.cpp:425] inception_3b/output <- inception_3b/1x1
I0403 15:56:49.945806 20559 net.cpp:425] inception_3b/output <- inception_3b/3x3
I0403 15:56:49.945822 20559 net.cpp:425] inception_3b/output <- inception_3b/5x5
I0403 15:56:49.945837 20559 net.cpp:425] inception_3b/output <- inception_3b/pool_proj
I0403 15:56:49.945854 20559 net.cpp:399] inception_3b/output -> inception_3b/output
I0403 15:56:49.945899 20559 net.cpp:141] Setting up inception_3b/output
I0403 15:56:49.945924 20559 net.cpp:148] Top shape: 24 480 28 28 (9031680)
I0403 15:56:49.945937 20559 net.cpp:156] Memory required for data: 809239584
I0403 15:56:49.945951 20559 layer_factory.hpp:77] Creating layer pool3/3x3_s2
I0403 15:56:49.945971 20559 net.cpp:91] Creating Layer pool3/3x3_s2
I0403 15:56:49.945986 20559 net.cpp:425] pool3/3x3_s2 <- inception_3b/output
I0403 15:56:49.946025 20559 net.cpp:399] pool3/3x3_s2 -> pool3/3x3_s2
I0403 15:56:49.946087 20559 net.cpp:141] Setting up pool3/3x3_s2
I0403 15:56:49.946113 20559 net.cpp:148] Top shape: 24 480 14 14 (2257920)
I0403 15:56:49.946128 20559 net.cpp:156] Memory required for data: 818271264
I0403 15:56:49.946142 20559 layer_factory.hpp:77] Creating layer pool3/3x3_s2_pool3/3x3_s2_0_split
I0403 15:56:49.946159 20559 net.cpp:91] Creating Layer pool3/3x3_s2_pool3/3x3_s2_0_split
I0403 15:56:49.946173 20559 net.cpp:425] pool3/3x3_s2_pool3/3x3_s2_0_split <- pool3/3x3_s2
I0403 15:56:49.946190 20559 net.cpp:399] pool3/3x3_s2_pool3/3x3_s2_0_split -> pool3/3x3_s2_pool3/3x3_s2_0_split_0
I0403 15:56:49.946211 20559 net.cpp:399] pool3/3x3_s2_pool3/3x3_s2_0_split -> pool3/3x3_s2_pool3/3x3_s2_0_split_1
I0403 15:56:49.946231 20559 net.cpp:399] pool3/3x3_s2_pool3/3x3_s2_0_split -> pool3/3x3_s2_pool3/3x3_s2_0_split_2
I0403 15:56:49.946250 20559 net.cpp:399] pool3/3x3_s2_pool3/3x3_s2_0_split -> pool3/3x3_s2_pool3/3x3_s2_0_split_3
I0403 15:56:49.946328 20559 net.cpp:141] Setting up pool3/3x3_s2_pool3/3x3_s2_0_split
I0403 15:56:49.946352 20559 net.cpp:148] Top shape: 24 480 14 14 (2257920)
I0403 15:56:49.946367 20559 net.cpp:148] Top shape: 24 480 14 14 (2257920)
I0403 15:56:49.946382 20559 net.cpp:148] Top shape: 24 480 14 14 (2257920)
I0403 15:56:49.946398 20559 net.cpp:148] Top shape: 24 480 14 14 (2257920)
I0403 15:56:49.946411 20559 net.cpp:156] Memory required for data: 854397984
I0403 15:56:49.946425 20559 layer_factory.hpp:77] Creating layer inception_4a/1x1
I0403 15:56:49.946450 20559 net.cpp:91] Creating Layer inception_4a/1x1
I0403 15:56:49.946468 20559 net.cpp:425] inception_4a/1x1 <- pool3/3x3_s2_pool3/3x3_s2_0_split_0
I0403 15:56:49.946487 20559 net.cpp:399] inception_4a/1x1 -> inception_4a/1x1
I0403 15:56:49.948093 20559 net.cpp:141] Setting up inception_4a/1x1
I0403 15:56:49.948124 20559 net.cpp:148] Top shape: 24 192 14 14 (903168)
I0403 15:56:49.948140 20559 net.cpp:156] Memory required for data: 858010656
I0403 15:56:49.948158 20559 layer_factory.hpp:77] Creating layer inception_4a/relu_1x1
I0403 15:56:49.948176 20559 net.cpp:91] Creating Layer inception_4a/relu_1x1
I0403 15:56:49.948191 20559 net.cpp:425] inception_4a/relu_1x1 <- inception_4a/1x1
I0403 15:56:49.948210 20559 net.cpp:386] inception_4a/relu_1x1 -> inception_4a/1x1 (in-place)
I0403 15:56:49.948386 20559 net.cpp:141] Setting up inception_4a/relu_1x1
I0403 15:56:49.948411 20559 net.cpp:148] Top shape: 24 192 14 14 (903168)
I0403 15:56:49.948426 20559 net.cpp:156] Memory required for data: 861623328
I0403 15:56:49.948439 20559 layer_factory.hpp:77] Creating layer inception_4a/3x3_reduce
I0403 15:56:49.948462 20559 net.cpp:91] Creating Layer inception_4a/3x3_reduce
I0403 15:56:49.948479 20559 net.cpp:425] inception_4a/3x3_reduce <- pool3/3x3_s2_pool3/3x3_s2_0_split_1
I0403 15:56:49.948499 20559 net.cpp:399] inception_4a/3x3_reduce -> inception_4a/3x3_reduce
I0403 15:56:49.949782 20559 net.cpp:141] Setting up inception_4a/3x3_reduce
I0403 15:56:49.949812 20559 net.cpp:148] Top shape: 24 96 14 14 (451584)
I0403 15:56:49.949828 20559 net.cpp:156] Memory required for data: 863429664
I0403 15:56:49.949851 20559 layer_factory.hpp:77] Creating layer inception_4a/relu_3x3_reduce
I0403 15:56:49.949872 20559 net.cpp:91] Creating Layer inception_4a/relu_3x3_reduce
I0403 15:56:49.949889 20559 net.cpp:425] inception_4a/relu_3x3_reduce <- inception_4a/3x3_reduce
I0403 15:56:49.949905 20559 net.cpp:386] inception_4a/relu_3x3_reduce -> inception_4a/3x3_reduce (in-place)
I0403 15:56:49.950088 20559 net.cpp:141] Setting up inception_4a/relu_3x3_reduce
I0403 15:56:49.950112 20559 net.cpp:148] Top shape: 24 96 14 14 (451584)
I0403 15:56:49.950126 20559 net.cpp:156] Memory required for data: 865236000
I0403 15:56:49.950140 20559 layer_factory.hpp:77] Creating layer inception_4a/3x3
I0403 15:56:49.950162 20559 net.cpp:91] Creating Layer inception_4a/3x3
I0403 15:56:49.950179 20559 net.cpp:425] inception_4a/3x3 <- inception_4a/3x3_reduce
I0403 15:56:49.950199 20559 net.cpp:399] inception_4a/3x3 -> inception_4a/3x3
I0403 15:56:49.952883 20559 net.cpp:141] Setting up inception_4a/3x3
I0403 15:56:49.952913 20559 net.cpp:148] Top shape: 24 208 14 14 (978432)
I0403 15:56:49.952929 20559 net.cpp:156] Memory required for data: 869149728
I0403 15:56:49.952946 20559 layer_factory.hpp:77] Creating layer inception_4a/relu_3x3
I0403 15:56:49.952966 20559 net.cpp:91] Creating Layer inception_4a/relu_3x3
I0403 15:56:49.952981 20559 net.cpp:425] inception_4a/relu_3x3 <- inception_4a/3x3
I0403 15:56:49.952999 20559 net.cpp:386] inception_4a/relu_3x3 -> inception_4a/3x3 (in-place)
I0403 15:56:49.953287 20559 net.cpp:141] Setting up inception_4a/relu_3x3
I0403 15:56:49.953315 20559 net.cpp:148] Top shape: 24 208 14 14 (978432)
I0403 15:56:49.953331 20559 net.cpp:156] Memory required for data: 873063456
I0403 15:56:49.953346 20559 layer_factory.hpp:77] Creating layer inception_4a/5x5_reduce
I0403 15:56:49.953369 20559 net.cpp:91] Creating Layer inception_4a/5x5_reduce
I0403 15:56:49.953387 20559 net.cpp:425] inception_4a/5x5_reduce <- pool3/3x3_s2_pool3/3x3_s2_0_split_2
I0403 15:56:49.953407 20559 net.cpp:399] inception_4a/5x5_reduce -> inception_4a/5x5_reduce
I0403 15:56:49.954434 20559 net.cpp:141] Setting up inception_4a/5x5_reduce
I0403 15:56:49.954462 20559 net.cpp:148] Top shape: 24 16 14 14 (75264)
I0403 15:56:49.954476 20559 net.cpp:156] Memory required for data: 873364512
I0403 15:56:49.954495 20559 layer_factory.hpp:77] Creating layer inception_4a/relu_5x5_reduce
I0403 15:56:49.954515 20559 net.cpp:91] Creating Layer inception_4a/relu_5x5_reduce
I0403 15:56:49.954531 20559 net.cpp:425] inception_4a/relu_5x5_reduce <- inception_4a/5x5_reduce
I0403 15:56:49.954548 20559 net.cpp:386] inception_4a/relu_5x5_reduce -> inception_4a/5x5_reduce (in-place)
I0403 15:56:49.954725 20559 net.cpp:141] Setting up inception_4a/relu_5x5_reduce
I0403 15:56:49.954749 20559 net.cpp:148] Top shape: 24 16 14 14 (75264)
I0403 15:56:49.954763 20559 net.cpp:156] Memory required for data: 873665568
I0403 15:56:49.954778 20559 layer_factory.hpp:77] Creating layer inception_4a/5x5
I0403 15:56:49.954800 20559 net.cpp:91] Creating Layer inception_4a/5x5
I0403 15:56:49.954818 20559 net.cpp:425] inception_4a/5x5 <- inception_4a/5x5_reduce
I0403 15:56:49.954839 20559 net.cpp:399] inception_4a/5x5 -> inception_4a/5x5
I0403 15:56:49.955934 20559 net.cpp:141] Setting up inception_4a/5x5
I0403 15:56:49.955960 20559 net.cpp:148] Top shape: 24 48 14 14 (225792)
I0403 15:56:49.955976 20559 net.cpp:156] Memory required for data: 874568736
I0403 15:56:49.955994 20559 layer_factory.hpp:77] Creating layer inception_4a/relu_5x5
I0403 15:56:49.956013 20559 net.cpp:91] Creating Layer inception_4a/relu_5x5
I0403 15:56:49.956037 20559 net.cpp:425] inception_4a/relu_5x5 <- inception_4a/5x5
I0403 15:56:49.956055 20559 net.cpp:386] inception_4a/relu_5x5 -> inception_4a/5x5 (in-place)
I0403 15:56:49.956233 20559 net.cpp:141] Setting up inception_4a/relu_5x5
I0403 15:56:49.956262 20559 net.cpp:148] Top shape: 24 48 14 14 (225792)
I0403 15:56:49.956279 20559 net.cpp:156] Memory required for data: 875471904
I0403 15:56:49.956293 20559 layer_factory.hpp:77] Creating layer inception_4a/pool
I0403 15:56:49.956310 20559 net.cpp:91] Creating Layer inception_4a/pool
I0403 15:56:49.956326 20559 net.cpp:425] inception_4a/pool <- pool3/3x3_s2_pool3/3x3_s2_0_split_3
I0403 15:56:49.956346 20559 net.cpp:399] inception_4a/pool -> inception_4a/pool
I0403 15:56:49.956405 20559 net.cpp:141] Setting up inception_4a/pool
I0403 15:56:49.956429 20559 net.cpp:148] Top shape: 24 480 14 14 (2257920)
I0403 15:56:49.956444 20559 net.cpp:156] Memory required for data: 884503584
I0403 15:56:49.956457 20559 layer_factory.hpp:77] Creating layer inception_4a/pool_proj
I0403 15:56:49.956478 20559 net.cpp:91] Creating Layer inception_4a/pool_proj
I0403 15:56:49.956496 20559 net.cpp:425] inception_4a/pool_proj <- inception_4a/pool
I0403 15:56:49.956516 20559 net.cpp:399] inception_4a/pool_proj -> inception_4a/pool_proj
I0403 15:56:49.957687 20559 net.cpp:141] Setting up inception_4a/pool_proj
I0403 15:56:49.957718 20559 net.cpp:148] Top shape: 24 64 14 14 (301056)
I0403 15:56:49.957748 20559 net.cpp:156] Memory required for data: 885707808
I0403 15:56:49.957767 20559 layer_factory.hpp:77] Creating layer inception_4a/relu_pool_proj
I0403 15:56:49.957785 20559 net.cpp:91] Creating Layer inception_4a/relu_pool_proj
I0403 15:56:49.957800 20559 net.cpp:425] inception_4a/relu_pool_proj <- inception_4a/pool_proj
I0403 15:56:49.957818 20559 net.cpp:386] inception_4a/relu_pool_proj -> inception_4a/pool_proj (in-place)
I0403 15:56:49.958115 20559 net.cpp:141] Setting up inception_4a/relu_pool_proj
I0403 15:56:49.958145 20559 net.cpp:148] Top shape: 24 64 14 14 (301056)
I0403 15:56:49.958163 20559 net.cpp:156] Memory required for data: 886912032
I0403 15:56:49.958178 20559 layer_factory.hpp:77] Creating layer inception_4a/output
I0403 15:56:49.958195 20559 net.cpp:91] Creating Layer inception_4a/output
I0403 15:56:49.958210 20559 net.cpp:425] inception_4a/output <- inception_4a/1x1
I0403 15:56:49.958226 20559 net.cpp:425] inception_4a/output <- inception_4a/3x3
I0403 15:56:49.958241 20559 net.cpp:425] inception_4a/output <- inception_4a/5x5
I0403 15:56:49.958263 20559 net.cpp:425] inception_4a/output <- inception_4a/pool_proj
I0403 15:56:49.958279 20559 net.cpp:399] inception_4a/output -> inception_4a/output
I0403 15:56:49.958324 20559 net.cpp:141] Setting up inception_4a/output
I0403 15:56:49.958348 20559 net.cpp:148] Top shape: 24 512 14 14 (2408448)
I0403 15:56:49.958361 20559 net.cpp:156] Memory required for data: 896545824
I0403 15:56:49.958375 20559 layer_factory.hpp:77] Creating layer inception_4a/output_inception_4a/output_0_split
I0403 15:56:49.958398 20559 net.cpp:91] Creating Layer inception_4a/output_inception_4a/output_0_split
I0403 15:56:49.958413 20559 net.cpp:425] inception_4a/output_inception_4a/output_0_split <- inception_4a/output
I0403 15:56:49.958431 20559 net.cpp:399] inception_4a/output_inception_4a/output_0_split -> inception_4a/output_inception_4a/output_0_split_0
I0403 15:56:49.958449 20559 net.cpp:399] inception_4a/output_inception_4a/output_0_split -> inception_4a/output_inception_4a/output_0_split_1
I0403 15:56:49.958470 20559 net.cpp:399] inception_4a/output_inception_4a/output_0_split -> inception_4a/output_inception_4a/output_0_split_2
I0403 15:56:49.958489 20559 net.cpp:399] inception_4a/output_inception_4a/output_0_split -> inception_4a/output_inception_4a/output_0_split_3
I0403 15:56:49.958511 20559 net.cpp:399] inception_4a/output_inception_4a/output_0_split -> inception_4a/output_inception_4a/output_0_split_4
I0403 15:56:49.958609 20559 net.cpp:141] Setting up inception_4a/output_inception_4a/output_0_split
I0403 15:56:49.958633 20559 net.cpp:148] Top shape: 24 512 14 14 (2408448)
I0403 15:56:49.958649 20559 net.cpp:148] Top shape: 24 512 14 14 (2408448)
I0403 15:56:49.958665 20559 net.cpp:148] Top shape: 24 512 14 14 (2408448)
I0403 15:56:49.958680 20559 net.cpp:148] Top shape: 24 512 14 14 (2408448)
I0403 15:56:49.958695 20559 net.cpp:148] Top shape: 24 512 14 14 (2408448)
I0403 15:56:49.958709 20559 net.cpp:156] Memory required for data: 944714784
I0403 15:56:49.958724 20559 layer_factory.hpp:77] Creating layer loss1/ave_pool
I0403 15:56:49.958741 20559 net.cpp:91] Creating Layer loss1/ave_pool
I0403 15:56:49.958760 20559 net.cpp:425] loss1/ave_pool <- inception_4a/output_inception_4a/output_0_split_0
I0403 15:56:49.958777 20559 net.cpp:399] loss1/ave_pool -> loss1/ave_pool
I0403 15:56:49.958984 20559 net.cpp:141] Setting up loss1/ave_pool
I0403 15:56:49.959012 20559 net.cpp:148] Top shape: 24 512 4 4 (196608)
I0403 15:56:49.959051 20559 net.cpp:156] Memory required for data: 945501216
I0403 15:56:49.959066 20559 layer_factory.hpp:77] Creating layer loss1/conv
I0403 15:56:49.959095 20559 net.cpp:91] Creating Layer loss1/conv
I0403 15:56:49.959112 20559 net.cpp:425] loss1/conv <- loss1/ave_pool
I0403 15:56:49.959131 20559 net.cpp:399] loss1/conv -> loss1/conv
I0403 15:56:49.960602 20559 net.cpp:141] Setting up loss1/conv
I0403 15:56:49.960629 20559 net.cpp:148] Top shape: 24 128 4 4 (49152)
I0403 15:56:49.960660 20559 net.cpp:156] Memory required for data: 945697824
I0403 15:56:49.960681 20559 layer_factory.hpp:77] Creating layer loss1/relu_conv
I0403 15:56:49.960700 20559 net.cpp:91] Creating Layer loss1/relu_conv
I0403 15:56:49.960716 20559 net.cpp:425] loss1/relu_conv <- loss1/conv
I0403 15:56:49.960734 20559 net.cpp:386] loss1/relu_conv -> loss1/conv (in-place)
I0403 15:56:49.961036 20559 net.cpp:141] Setting up loss1/relu_conv
I0403 15:56:49.961063 20559 net.cpp:148] Top shape: 24 128 4 4 (49152)
I0403 15:56:49.961078 20559 net.cpp:156] Memory required for data: 945894432
I0403 15:56:49.961093 20559 layer_factory.hpp:77] Creating layer loss1/fc
I0403 15:56:49.961117 20559 net.cpp:91] Creating Layer loss1/fc
I0403 15:56:49.961134 20559 net.cpp:425] loss1/fc <- loss1/conv
I0403 15:56:49.961155 20559 net.cpp:399] loss1/fc -> loss1/fc
I0403 15:56:49.979110 20559 net.cpp:141] Setting up loss1/fc
I0403 15:56:49.979147 20559 net.cpp:148] Top shape: 24 1024 (24576)
I0403 15:56:49.979162 20559 net.cpp:156] Memory required for data: 945992736
I0403 15:56:49.979179 20559 layer_factory.hpp:77] Creating layer loss1/relu_fc
I0403 15:56:49.979199 20559 net.cpp:91] Creating Layer loss1/relu_fc
I0403 15:56:49.979214 20559 net.cpp:425] loss1/relu_fc <- loss1/fc
I0403 15:56:49.979231 20559 net.cpp:386] loss1/relu_fc -> loss1/fc (in-place)
I0403 15:56:49.979415 20559 net.cpp:141] Setting up loss1/relu_fc
I0403 15:56:49.979439 20559 net.cpp:148] Top shape: 24 1024 (24576)
I0403 15:56:49.979454 20559 net.cpp:156] Memory required for data: 946091040
I0403 15:56:49.979467 20559 layer_factory.hpp:77] Creating layer loss1/drop_fc
I0403 15:56:49.979493 20559 net.cpp:91] Creating Layer loss1/drop_fc
I0403 15:56:49.979511 20559 net.cpp:425] loss1/drop_fc <- loss1/fc
I0403 15:56:49.979529 20559 net.cpp:386] loss1/drop_fc -> loss1/fc (in-place)
I0403 15:56:49.979579 20559 net.cpp:141] Setting up loss1/drop_fc
I0403 15:56:49.979601 20559 net.cpp:148] Top shape: 24 1024 (24576)
I0403 15:56:49.979615 20559 net.cpp:156] Memory required for data: 946189344
I0403 15:56:49.979629 20559 layer_factory.hpp:77] Creating layer loss1/classifier_plantvillage
I0403 15:56:49.979651 20559 net.cpp:91] Creating Layer loss1/classifier_plantvillage
I0403 15:56:49.979667 20559 net.cpp:425] loss1/classifier_plantvillage <- loss1/fc
I0403 15:56:49.979687 20559 net.cpp:399] loss1/classifier_plantvillage -> loss1/classifier_plantvillage
I0403 15:56:49.980618 20559 net.cpp:141] Setting up loss1/classifier_plantvillage
I0403 15:56:49.980645 20559 net.cpp:148] Top shape: 24 38 (912)
I0403 15:56:49.980662 20559 net.cpp:156] Memory required for data: 946192992
I0403 15:56:49.980679 20559 layer_factory.hpp:77] Creating layer loss1/classifier_plantvillage_loss1/classifier_plantvillage_0_split
I0403 15:56:49.980696 20559 net.cpp:91] Creating Layer loss1/classifier_plantvillage_loss1/classifier_plantvillage_0_split
I0403 15:56:49.980711 20559 net.cpp:425] loss1/classifier_plantvillage_loss1/classifier_plantvillage_0_split <- loss1/classifier_plantvillage
I0403 15:56:49.980731 20559 net.cpp:399] loss1/classifier_plantvillage_loss1/classifier_plantvillage_0_split -> loss1/classifier_plantvillage_loss1/classifier_plantvillage_0_split_0
I0403 15:56:49.980751 20559 net.cpp:399] loss1/classifier_plantvillage_loss1/classifier_plantvillage_0_split -> loss1/classifier_plantvillage_loss1/classifier_plantvillage_0_split_1
I0403 15:56:49.980769 20559 net.cpp:399] loss1/classifier_plantvillage_loss1/classifier_plantvillage_0_split -> loss1/classifier_plantvillage_loss1/classifier_plantvillage_0_split_2
I0403 15:56:49.980831 20559 net.cpp:141] Setting up loss1/classifier_plantvillage_loss1/classifier_plantvillage_0_split
I0403 15:56:49.980854 20559 net.cpp:148] Top shape: 24 38 (912)
I0403 15:56:49.980870 20559 net.cpp:148] Top shape: 24 38 (912)
I0403 15:56:49.980883 20559 net.cpp:148] Top shape: 24 38 (912)
I0403 15:56:49.980897 20559 net.cpp:156] Memory required for data: 946203936
I0403 15:56:49.980911 20559 layer_factory.hpp:77] Creating layer inception_4b/1x1
I0403 15:56:49.980932 20559 net.cpp:91] Creating Layer inception_4b/1x1
I0403 15:56:49.980967 20559 net.cpp:425] inception_4b/1x1 <- inception_4a/output_inception_4a/output_0_split_1
I0403 15:56:49.980986 20559 net.cpp:399] inception_4b/1x1 -> inception_4b/1x1
I0403 15:56:49.982616 20559 net.cpp:141] Setting up inception_4b/1x1
I0403 15:56:49.982645 20559 net.cpp:148] Top shape: 24 160 14 14 (752640)
I0403 15:56:49.982659 20559 net.cpp:156] Memory required for data: 949214496
I0403 15:56:49.982676 20559 layer_factory.hpp:77] Creating layer inception_4b/relu_1x1
I0403 15:56:49.982695 20559 net.cpp:91] Creating Layer inception_4b/relu_1x1
I0403 15:56:49.982712 20559 net.cpp:425] inception_4b/relu_1x1 <- inception_4b/1x1
I0403 15:56:49.982728 20559 net.cpp:386] inception_4b/relu_1x1 -> inception_4b/1x1 (in-place)
I0403 15:56:49.982903 20559 net.cpp:141] Setting up inception_4b/relu_1x1
I0403 15:56:49.982928 20559 net.cpp:148] Top shape: 24 160 14 14 (752640)
I0403 15:56:49.982942 20559 net.cpp:156] Memory required for data: 952225056
I0403 15:56:49.982956 20559 layer_factory.hpp:77] Creating layer inception_4b/3x3_reduce
I0403 15:56:49.982976 20559 net.cpp:91] Creating Layer inception_4b/3x3_reduce
I0403 15:56:49.982993 20559 net.cpp:425] inception_4b/3x3_reduce <- inception_4a/output_inception_4a/output_0_split_2
I0403 15:56:49.983013 20559 net.cpp:399] inception_4b/3x3_reduce -> inception_4b/3x3_reduce
I0403 15:56:49.984340 20559 net.cpp:141] Setting up inception_4b/3x3_reduce
I0403 15:56:49.984366 20559 net.cpp:148] Top shape: 24 112 14 14 (526848)
I0403 15:56:49.984381 20559 net.cpp:156] Memory required for data: 954332448
I0403 15:56:49.984398 20559 layer_factory.hpp:77] Creating layer inception_4b/relu_3x3_reduce
I0403 15:56:49.984418 20559 net.cpp:91] Creating Layer inception_4b/relu_3x3_reduce
I0403 15:56:49.984434 20559 net.cpp:425] inception_4b/relu_3x3_reduce <- inception_4b/3x3_reduce
I0403 15:56:49.984450 20559 net.cpp:386] inception_4b/relu_3x3_reduce -> inception_4b/3x3_reduce (in-place)
I0403 15:56:49.984724 20559 net.cpp:141] Setting up inception_4b/relu_3x3_reduce
I0403 15:56:49.984748 20559 net.cpp:148] Top shape: 24 112 14 14 (526848)
I0403 15:56:49.984762 20559 net.cpp:156] Memory required for data: 956439840
I0403 15:56:49.984776 20559 layer_factory.hpp:77] Creating layer inception_4b/3x3
I0403 15:56:49.984797 20559 net.cpp:91] Creating Layer inception_4b/3x3
I0403 15:56:49.984814 20559 net.cpp:425] inception_4b/3x3 <- inception_4b/3x3_reduce
I0403 15:56:49.984834 20559 net.cpp:399] inception_4b/3x3 -> inception_4b/3x3
I0403 15:56:49.987732 20559 net.cpp:141] Setting up inception_4b/3x3
I0403 15:56:49.987762 20559 net.cpp:148] Top shape: 24 224 14 14 (1053696)
I0403 15:56:49.987778 20559 net.cpp:156] Memory required for data: 960654624
I0403 15:56:49.987797 20559 layer_factory.hpp:77] Creating layer inception_4b/relu_3x3
I0403 15:56:49.987813 20559 net.cpp:91] Creating Layer inception_4b/relu_3x3
I0403 15:56:49.987828 20559 net.cpp:425] inception_4b/relu_3x3 <- inception_4b/3x3
I0403 15:56:49.987848 20559 net.cpp:386] inception_4b/relu_3x3 -> inception_4b/3x3 (in-place)
I0403 15:56:49.988034 20559 net.cpp:141] Setting up inception_4b/relu_3x3
I0403 15:56:49.988059 20559 net.cpp:148] Top shape: 24 224 14 14 (1053696)
I0403 15:56:49.988073 20559 net.cpp:156] Memory required for data: 964869408
I0403 15:56:49.988087 20559 layer_factory.hpp:77] Creating layer inception_4b/5x5_reduce
I0403 15:56:49.988108 20559 net.cpp:91] Creating Layer inception_4b/5x5_reduce
I0403 15:56:49.988124 20559 net.cpp:425] inception_4b/5x5_reduce <- inception_4a/output_inception_4a/output_0_split_3
I0403 15:56:49.988147 20559 net.cpp:399] inception_4b/5x5_reduce -> inception_4b/5x5_reduce
I0403 15:56:49.989207 20559 net.cpp:141] Setting up inception_4b/5x5_reduce
I0403 15:56:49.989233 20559 net.cpp:148] Top shape: 24 24 14 14 (112896)
I0403 15:56:49.989249 20559 net.cpp:156] Memory required for data: 965320992
I0403 15:56:49.989267 20559 layer_factory.hpp:77] Creating layer inception_4b/relu_5x5_reduce
I0403 15:56:49.989286 20559 net.cpp:91] Creating Layer inception_4b/relu_5x5_reduce
I0403 15:56:49.989315 20559 net.cpp:425] inception_4b/relu_5x5_reduce <- inception_4b/5x5_reduce
I0403 15:56:49.989333 20559 net.cpp:386] inception_4b/relu_5x5_reduce -> inception_4b/5x5_reduce (in-place)
I0403 15:56:49.989509 20559 net.cpp:141] Setting up inception_4b/relu_5x5_reduce
I0403 15:56:49.989534 20559 net.cpp:148] Top shape: 24 24 14 14 (112896)
I0403 15:56:49.989549 20559 net.cpp:156] Memory required for data: 965772576
I0403 15:56:49.989562 20559 layer_factory.hpp:77] Creating layer inception_4b/5x5
I0403 15:56:49.989581 20559 net.cpp:91] Creating Layer inception_4b/5x5
I0403 15:56:49.989596 20559 net.cpp:425] inception_4b/5x5 <- inception_4b/5x5_reduce
I0403 15:56:49.989617 20559 net.cpp:399] inception_4b/5x5 -> inception_4b/5x5
I0403 15:56:49.990844 20559 net.cpp:141] Setting up inception_4b/5x5
I0403 15:56:49.990871 20559 net.cpp:148] Top shape: 24 64 14 14 (301056)
I0403 15:56:49.990885 20559 net.cpp:156] Memory required for data: 966976800
I0403 15:56:49.990902 20559 layer_factory.hpp:77] Creating layer inception_4b/relu_5x5
I0403 15:56:49.990921 20559 net.cpp:91] Creating Layer inception_4b/relu_5x5
I0403 15:56:49.990937 20559 net.cpp:425] inception_4b/relu_5x5 <- inception_4b/5x5
I0403 15:56:49.990953 20559 net.cpp:386] inception_4b/relu_5x5 -> inception_4b/5x5 (in-place)
I0403 15:56:49.991238 20559 net.cpp:141] Setting up inception_4b/relu_5x5
I0403 15:56:49.991263 20559 net.cpp:148] Top shape: 24 64 14 14 (301056)
I0403 15:56:49.991278 20559 net.cpp:156] Memory required for data: 968181024
I0403 15:56:49.991291 20559 layer_factory.hpp:77] Creating layer inception_4b/pool
I0403 15:56:49.991309 20559 net.cpp:91] Creating Layer inception_4b/pool
I0403 15:56:49.991327 20559 net.cpp:425] inception_4b/pool <- inception_4a/output_inception_4a/output_0_split_4
I0403 15:56:49.991345 20559 net.cpp:399] inception_4b/pool -> inception_4b/pool
I0403 15:56:49.991405 20559 net.cpp:141] Setting up inception_4b/pool
I0403 15:56:49.991430 20559 net.cpp:148] Top shape: 24 512 14 14 (2408448)
I0403 15:56:49.991446 20559 net.cpp:156] Memory required for data: 977814816
I0403 15:56:49.991459 20559 layer_factory.hpp:77] Creating layer inception_4b/pool_proj
I0403 15:56:49.991480 20559 net.cpp:91] Creating Layer inception_4b/pool_proj
I0403 15:56:49.991497 20559 net.cpp:425] inception_4b/pool_proj <- inception_4b/pool
I0403 15:56:49.991514 20559 net.cpp:399] inception_4b/pool_proj -> inception_4b/pool_proj
I0403 15:56:49.992698 20559 net.cpp:141] Setting up inception_4b/pool_proj
I0403 15:56:49.992724 20559 net.cpp:148] Top shape: 24 64 14 14 (301056)
I0403 15:56:49.992739 20559 net.cpp:156] Memory required for data: 979019040
I0403 15:56:49.992756 20559 layer_factory.hpp:77] Creating layer inception_4b/relu_pool_proj
I0403 15:56:49.992775 20559 net.cpp:91] Creating Layer inception_4b/relu_pool_proj
I0403 15:56:49.992791 20559 net.cpp:425] inception_4b/relu_pool_proj <- inception_4b/pool_proj
I0403 15:56:49.992808 20559 net.cpp:386] inception_4b/relu_pool_proj -> inception_4b/pool_proj (in-place)
I0403 15:56:49.992985 20559 net.cpp:141] Setting up inception_4b/relu_pool_proj
I0403 15:56:49.993008 20559 net.cpp:148] Top shape: 24 64 14 14 (301056)
I0403 15:56:49.993029 20559 net.cpp:156] Memory required for data: 980223264
I0403 15:56:49.993044 20559 layer_factory.hpp:77] Creating layer inception_4b/output
I0403 15:56:49.993063 20559 net.cpp:91] Creating Layer inception_4b/output
I0403 15:56:49.993078 20559 net.cpp:425] inception_4b/output <- inception_4b/1x1
I0403 15:56:49.993094 20559 net.cpp:425] inception_4b/output <- inception_4b/3x3
I0403 15:56:49.993109 20559 net.cpp:425] inception_4b/output <- inception_4b/5x5
I0403 15:56:49.993124 20559 net.cpp:425] inception_4b/output <- inception_4b/pool_proj
I0403 15:56:49.993140 20559 net.cpp:399] inception_4b/output -> inception_4b/output
I0403 15:56:49.993185 20559 net.cpp:141] Setting up inception_4b/output
I0403 15:56:49.993207 20559 net.cpp:148] Top shape: 24 512 14 14 (2408448)
I0403 15:56:49.993221 20559 net.cpp:156] Memory required for data: 989857056
I0403 15:56:49.993250 20559 layer_factory.hpp:77] Creating layer inception_4b/output_inception_4b/output_0_split
I0403 15:56:49.993268 20559 net.cpp:91] Creating Layer inception_4b/output_inception_4b/output_0_split
I0403 15:56:49.993283 20559 net.cpp:425] inception_4b/output_inception_4b/output_0_split <- inception_4b/output
I0403 15:56:49.993301 20559 net.cpp:399] inception_4b/output_inception_4b/output_0_split -> inception_4b/output_inception_4b/output_0_split_0
I0403 15:56:49.993321 20559 net.cpp:399] inception_4b/output_inception_4b/output_0_split -> inception_4b/output_inception_4b/output_0_split_1
I0403 15:56:49.993340 20559 net.cpp:399] inception_4b/output_inception_4b/output_0_split -> inception_4b/output_inception_4b/output_0_split_2
I0403 15:56:49.993360 20559 net.cpp:399] inception_4b/output_inception_4b/output_0_split -> inception_4b/output_inception_4b/output_0_split_3
I0403 15:56:49.993440 20559 net.cpp:141] Setting up inception_4b/output_inception_4b/output_0_split
I0403 15:56:49.993464 20559 net.cpp:148] Top shape: 24 512 14 14 (2408448)
I0403 15:56:49.993480 20559 net.cpp:148] Top shape: 24 512 14 14 (2408448)
I0403 15:56:49.993494 20559 net.cpp:148] Top shape: 24 512 14 14 (2408448)
I0403 15:56:49.993510 20559 net.cpp:148] Top shape: 24 512 14 14 (2408448)
I0403 15:56:49.993522 20559 net.cpp:156] Memory required for data: 1028392224
I0403 15:56:49.993536 20559 layer_factory.hpp:77] Creating layer inception_4c/1x1
I0403 15:56:49.993557 20559 net.cpp:91] Creating Layer inception_4c/1x1
I0403 15:56:49.993574 20559 net.cpp:425] inception_4c/1x1 <- inception_4b/output_inception_4b/output_0_split_0
I0403 15:56:49.993593 20559 net.cpp:399] inception_4c/1x1 -> inception_4c/1x1
I0403 15:56:49.994989 20559 net.cpp:141] Setting up inception_4c/1x1
I0403 15:56:49.995021 20559 net.cpp:148] Top shape: 24 128 14 14 (602112)
I0403 15:56:49.995038 20559 net.cpp:156] Memory required for data: 1030800672
I0403 15:56:49.995056 20559 layer_factory.hpp:77] Creating layer inception_4c/relu_1x1
I0403 15:56:49.995076 20559 net.cpp:91] Creating Layer inception_4c/relu_1x1
I0403 15:56:49.995092 20559 net.cpp:425] inception_4c/relu_1x1 <- inception_4c/1x1
I0403 15:56:49.995108 20559 net.cpp:386] inception_4c/relu_1x1 -> inception_4c/1x1 (in-place)
I0403 15:56:49.995285 20559 net.cpp:141] Setting up inception_4c/relu_1x1
I0403 15:56:49.995308 20559 net.cpp:148] Top shape: 24 128 14 14 (602112)
I0403 15:56:49.995322 20559 net.cpp:156] Memory required for data: 1033209120
I0403 15:56:49.995335 20559 layer_factory.hpp:77] Creating layer inception_4c/3x3_reduce
I0403 15:56:49.995357 20559 net.cpp:91] Creating Layer inception_4c/3x3_reduce
I0403 15:56:49.995373 20559 net.cpp:425] inception_4c/3x3_reduce <- inception_4b/output_inception_4b/output_0_split_1
I0403 15:56:49.995393 20559 net.cpp:399] inception_4c/3x3_reduce -> inception_4c/3x3_reduce
I0403 15:56:49.997309 20559 net.cpp:141] Setting up inception_4c/3x3_reduce
I0403 15:56:49.997339 20559 net.cpp:148] Top shape: 24 128 14 14 (602112)
I0403 15:56:49.997354 20559 net.cpp:156] Memory required for data: 1035617568
I0403 15:56:49.997370 20559 layer_factory.hpp:77] Creating layer inception_4c/relu_3x3_reduce
I0403 15:56:49.997387 20559 net.cpp:91] Creating Layer inception_4c/relu_3x3_reduce
I0403 15:56:49.997401 20559 net.cpp:425] inception_4c/relu_3x3_reduce <- inception_4c/3x3_reduce
I0403 15:56:49.997421 20559 net.cpp:386] inception_4c/relu_3x3_reduce -> inception_4c/3x3_reduce (in-place)
I0403 15:56:49.997704 20559 net.cpp:141] Setting up inception_4c/relu_3x3_reduce
I0403 15:56:49.997730 20559 net.cpp:148] Top shape: 24 128 14 14 (602112)
I0403 15:56:49.997743 20559 net.cpp:156] Memory required for data: 1038026016
I0403 15:56:49.997757 20559 layer_factory.hpp:77] Creating layer inception_4c/3x3
I0403 15:56:49.997781 20559 net.cpp:91] Creating Layer inception_4c/3x3
I0403 15:56:49.997797 20559 net.cpp:425] inception_4c/3x3 <- inception_4c/3x3_reduce
I0403 15:56:49.997817 20559 net.cpp:399] inception_4c/3x3 -> inception_4c/3x3
I0403 15:56:50.001328 20559 net.cpp:141] Setting up inception_4c/3x3
I0403 15:56:50.001369 20559 net.cpp:148] Top shape: 24 256 14 14 (1204224)
I0403 15:56:50.001385 20559 net.cpp:156] Memory required for data: 1042842912
I0403 15:56:50.001415 20559 layer_factory.hpp:77] Creating layer inception_4c/relu_3x3
I0403 15:56:50.001437 20559 net.cpp:91] Creating Layer inception_4c/relu_3x3
I0403 15:56:50.001453 20559 net.cpp:425] inception_4c/relu_3x3 <- inception_4c/3x3
I0403 15:56:50.001469 20559 net.cpp:386] inception_4c/relu_3x3 -> inception_4c/3x3 (in-place)
I0403 15:56:50.001646 20559 net.cpp:141] Setting up inception_4c/relu_3x3
I0403 15:56:50.001672 20559 net.cpp:148] Top shape: 24 256 14 14 (1204224)
I0403 15:56:50.001684 20559 net.cpp:156] Memory required for data: 1047659808
I0403 15:56:50.001698 20559 layer_factory.hpp:77] Creating layer inception_4c/5x5_reduce
I0403 15:56:50.001720 20559 net.cpp:91] Creating Layer inception_4c/5x5_reduce
I0403 15:56:50.001736 20559 net.cpp:425] inception_4c/5x5_reduce <- inception_4b/output_inception_4b/output_0_split_2
I0403 15:56:50.001757 20559 net.cpp:399] inception_4c/5x5_reduce -> inception_4c/5x5_reduce
I0403 15:56:50.002822 20559 net.cpp:141] Setting up inception_4c/5x5_reduce
I0403 15:56:50.002849 20559 net.cpp:148] Top shape: 24 24 14 14 (112896)
I0403 15:56:50.002864 20559 net.cpp:156] Memory required for data: 1048111392
I0403 15:56:50.002882 20559 layer_factory.hpp:77] Creating layer inception_4c/relu_5x5_reduce
I0403 15:56:50.002902 20559 net.cpp:91] Creating Layer inception_4c/relu_5x5_reduce
I0403 15:56:50.002918 20559 net.cpp:425] inception_4c/relu_5x5_reduce <- inception_4c/5x5_reduce
I0403 15:56:50.002933 20559 net.cpp:386] inception_4c/relu_5x5_reduce -> inception_4c/5x5_reduce (in-place)
I0403 15:56:50.003118 20559 net.cpp:141] Setting up inception_4c/relu_5x5_reduce
I0403 15:56:50.003142 20559 net.cpp:148] Top shape: 24 24 14 14 (112896)
I0403 15:56:50.003156 20559 net.cpp:156] Memory required for data: 1048562976
I0403 15:56:50.003170 20559 layer_factory.hpp:77] Creating layer inception_4c/5x5
I0403 15:56:50.003191 20559 net.cpp:91] Creating Layer inception_4c/5x5
I0403 15:56:50.003207 20559 net.cpp:425] inception_4c/5x5 <- inception_4c/5x5_reduce
I0403 15:56:50.003227 20559 net.cpp:399] inception_4c/5x5 -> inception_4c/5x5
I0403 15:56:50.004451 20559 net.cpp:141] Setting up inception_4c/5x5
I0403 15:56:50.004477 20559 net.cpp:148] Top shape: 24 64 14 14 (301056)
I0403 15:56:50.004492 20559 net.cpp:156] Memory required for data: 1049767200
I0403 15:56:50.004508 20559 layer_factory.hpp:77] Creating layer inception_4c/relu_5x5
I0403 15:56:50.004528 20559 net.cpp:91] Creating Layer inception_4c/relu_5x5
I0403 15:56:50.004544 20559 net.cpp:425] inception_4c/relu_5x5 <- inception_4c/5x5
I0403 15:56:50.004560 20559 net.cpp:386] inception_4c/relu_5x5 -> inception_4c/5x5 (in-place)
I0403 15:56:50.004843 20559 net.cpp:141] Setting up inception_4c/relu_5x5
I0403 15:56:50.004869 20559 net.cpp:148] Top shape: 24 64 14 14 (301056)
I0403 15:56:50.004883 20559 net.cpp:156] Memory required for data: 1050971424
I0403 15:56:50.004896 20559 layer_factory.hpp:77] Creating layer inception_4c/pool
I0403 15:56:50.004915 20559 net.cpp:91] Creating Layer inception_4c/pool
I0403 15:56:50.004931 20559 net.cpp:425] inception_4c/pool <- inception_4b/output_inception_4b/output_0_split_3
I0403 15:56:50.004950 20559 net.cpp:399] inception_4c/pool -> inception_4c/pool
I0403 15:56:50.005012 20559 net.cpp:141] Setting up inception_4c/pool
I0403 15:56:50.005043 20559 net.cpp:148] Top shape: 24 512 14 14 (2408448)
I0403 15:56:50.005056 20559 net.cpp:156] Memory required for data: 1060605216
I0403 15:56:50.005069 20559 layer_factory.hpp:77] Creating layer inception_4c/pool_proj
I0403 15:56:50.005091 20559 net.cpp:91] Creating Layer inception_4c/pool_proj
I0403 15:56:50.005108 20559 net.cpp:425] inception_4c/pool_proj <- inception_4c/pool
I0403 15:56:50.005127 20559 net.cpp:399] inception_4c/pool_proj -> inception_4c/pool_proj
I0403 15:56:50.006358 20559 net.cpp:141] Setting up inception_4c/pool_proj
I0403 15:56:50.006386 20559 net.cpp:148] Top shape: 24 64 14 14 (301056)
I0403 15:56:50.006415 20559 net.cpp:156] Memory required for data: 1061809440
I0403 15:56:50.006434 20559 layer_factory.hpp:77] Creating layer inception_4c/relu_pool_proj
I0403 15:56:50.006455 20559 net.cpp:91] Creating Layer inception_4c/relu_pool_proj
I0403 15:56:50.006472 20559 net.cpp:425] inception_4c/relu_pool_proj <- inception_4c/pool_proj
I0403 15:56:50.006489 20559 net.cpp:386] inception_4c/relu_pool_proj -> inception_4c/pool_proj (in-place)
I0403 15:56:50.006672 20559 net.cpp:141] Setting up inception_4c/relu_pool_proj
I0403 15:56:50.006696 20559 net.cpp:148] Top shape: 24 64 14 14 (301056)
I0403 15:56:50.006711 20559 net.cpp:156] Memory required for data: 1063013664
I0403 15:56:50.006726 20559 layer_factory.hpp:77] Creating layer inception_4c/output
I0403 15:56:50.006745 20559 net.cpp:91] Creating Layer inception_4c/output
I0403 15:56:50.006762 20559 net.cpp:425] inception_4c/output <- inception_4c/1x1
I0403 15:56:50.006778 20559 net.cpp:425] inception_4c/output <- inception_4c/3x3
I0403 15:56:50.006793 20559 net.cpp:425] inception_4c/output <- inception_4c/5x5
I0403 15:56:50.006808 20559 net.cpp:425] inception_4c/output <- inception_4c/pool_proj
I0403 15:56:50.006824 20559 net.cpp:399] inception_4c/output -> inception_4c/output
I0403 15:56:50.006871 20559 net.cpp:141] Setting up inception_4c/output
I0403 15:56:50.006896 20559 net.cpp:148] Top shape: 24 512 14 14 (2408448)
I0403 15:56:50.006909 20559 net.cpp:156] Memory required for data: 1072647456
I0403 15:56:50.006924 20559 layer_factory.hpp:77] Creating layer inception_4c/output_inception_4c/output_0_split
I0403 15:56:50.006940 20559 net.cpp:91] Creating Layer inception_4c/output_inception_4c/output_0_split
I0403 15:56:50.006956 20559 net.cpp:425] inception_4c/output_inception_4c/output_0_split <- inception_4c/output
I0403 15:56:50.006976 20559 net.cpp:399] inception_4c/output_inception_4c/output_0_split -> inception_4c/output_inception_4c/output_0_split_0
I0403 15:56:50.006997 20559 net.cpp:399] inception_4c/output_inception_4c/output_0_split -> inception_4c/output_inception_4c/output_0_split_1
I0403 15:56:50.007024 20559 net.cpp:399] inception_4c/output_inception_4c/output_0_split -> inception_4c/output_inception_4c/output_0_split_2
I0403 15:56:50.007058 20559 net.cpp:399] inception_4c/output_inception_4c/output_0_split -> inception_4c/output_inception_4c/output_0_split_3
I0403 15:56:50.007148 20559 net.cpp:141] Setting up inception_4c/output_inception_4c/output_0_split
I0403 15:56:50.007174 20559 net.cpp:148] Top shape: 24 512 14 14 (2408448)
I0403 15:56:50.007190 20559 net.cpp:148] Top shape: 24 512 14 14 (2408448)
I0403 15:56:50.007205 20559 net.cpp:148] Top shape: 24 512 14 14 (2408448)
I0403 15:56:50.007220 20559 net.cpp:148] Top shape: 24 512 14 14 (2408448)
I0403 15:56:50.007235 20559 net.cpp:156] Memory required for data: 1111182624
I0403 15:56:50.007248 20559 layer_factory.hpp:77] Creating layer inception_4d/1x1
I0403 15:56:50.007271 20559 net.cpp:91] Creating Layer inception_4d/1x1
I0403 15:56:50.007288 20559 net.cpp:425] inception_4d/1x1 <- inception_4c/output_inception_4c/output_0_split_0
I0403 15:56:50.007308 20559 net.cpp:399] inception_4d/1x1 -> inception_4d/1x1
I0403 15:56:50.008750 20559 net.cpp:141] Setting up inception_4d/1x1
I0403 15:56:50.008783 20559 net.cpp:148] Top shape: 24 112 14 14 (526848)
I0403 15:56:50.008800 20559 net.cpp:156] Memory required for data: 1113290016
I0403 15:56:50.008819 20559 layer_factory.hpp:77] Creating layer inception_4d/relu_1x1
I0403 15:56:50.008836 20559 net.cpp:91] Creating Layer inception_4d/relu_1x1
I0403 15:56:50.008852 20559 net.cpp:425] inception_4d/relu_1x1 <- inception_4d/1x1
I0403 15:56:50.008872 20559 net.cpp:386] inception_4d/relu_1x1 -> inception_4d/1x1 (in-place)
I0403 15:56:50.009068 20559 net.cpp:141] Setting up inception_4d/relu_1x1
I0403 15:56:50.009093 20559 net.cpp:148] Top shape: 24 112 14 14 (526848)
I0403 15:56:50.009109 20559 net.cpp:156] Memory required for data: 1115397408
I0403 15:56:50.009122 20559 layer_factory.hpp:77] Creating layer inception_4d/3x3_reduce
I0403 15:56:50.009160 20559 net.cpp:91] Creating Layer inception_4d/3x3_reduce
I0403 15:56:50.009178 20559 net.cpp:425] inception_4d/3x3_reduce <- inception_4c/output_inception_4c/output_0_split_1
I0403 15:56:50.009201 20559 net.cpp:399] inception_4d/3x3_reduce -> inception_4d/3x3_reduce
I0403 15:56:50.010792 20559 net.cpp:141] Setting up inception_4d/3x3_reduce
I0403 15:56:50.010821 20559 net.cpp:148] Top shape: 24 144 14 14 (677376)
I0403 15:56:50.010838 20559 net.cpp:156] Memory required for data: 1118106912
I0403 15:56:50.010857 20559 layer_factory.hpp:77] Creating layer inception_4d/relu_3x3_reduce
I0403 15:56:50.010875 20559 net.cpp:91] Creating Layer inception_4d/relu_3x3_reduce
I0403 15:56:50.010891 20559 net.cpp:425] inception_4d/relu_3x3_reduce <- inception_4d/3x3_reduce
I0403 15:56:50.010908 20559 net.cpp:386] inception_4d/relu_3x3_reduce -> inception_4d/3x3_reduce (in-place)
I0403 15:56:50.011214 20559 net.cpp:141] Setting up inception_4d/relu_3x3_reduce
I0403 15:56:50.011243 20559 net.cpp:148] Top shape: 24 144 14 14 (677376)
I0403 15:56:50.011260 20559 net.cpp:156] Memory required for data: 1120816416
I0403 15:56:50.011275 20559 layer_factory.hpp:77] Creating layer inception_4d/3x3
I0403 15:56:50.011296 20559 net.cpp:91] Creating Layer inception_4d/3x3
I0403 15:56:50.011314 20559 net.cpp:425] inception_4d/3x3 <- inception_4d/3x3_reduce
I0403 15:56:50.011333 20559 net.cpp:399] inception_4d/3x3 -> inception_4d/3x3
I0403 15:56:50.015722 20559 net.cpp:141] Setting up inception_4d/3x3
I0403 15:56:50.015753 20559 net.cpp:148] Top shape: 24 288 14 14 (1354752)
I0403 15:56:50.015769 20559 net.cpp:156] Memory required for data: 1126235424
I0403 15:56:50.015786 20559 layer_factory.hpp:77] Creating layer inception_4d/relu_3x3
I0403 15:56:50.015805 20559 net.cpp:91] Creating Layer inception_4d/relu_3x3
I0403 15:56:50.015821 20559 net.cpp:425] inception_4d/relu_3x3 <- inception_4d/3x3
I0403 15:56:50.015841 20559 net.cpp:386] inception_4d/relu_3x3 -> inception_4d/3x3 (in-place)
I0403 15:56:50.016037 20559 net.cpp:141] Setting up inception_4d/relu_3x3
I0403 15:56:50.016063 20559 net.cpp:148] Top shape: 24 288 14 14 (1354752)
I0403 15:56:50.016078 20559 net.cpp:156] Memory required for data: 1131654432
I0403 15:56:50.016093 20559 layer_factory.hpp:77] Creating layer inception_4d/5x5_reduce
I0403 15:56:50.016116 20559 net.cpp:91] Creating Layer inception_4d/5x5_reduce
I0403 15:56:50.016134 20559 net.cpp:425] inception_4d/5x5_reduce <- inception_4c/output_inception_4c/output_0_split_2
I0403 15:56:50.016155 20559 net.cpp:399] inception_4d/5x5_reduce -> inception_4d/5x5_reduce
I0403 15:56:50.017338 20559 net.cpp:141] Setting up inception_4d/5x5_reduce
I0403 15:56:50.017369 20559 net.cpp:148] Top shape: 24 32 14 14 (150528)
I0403 15:56:50.017385 20559 net.cpp:156] Memory required for data: 1132256544
I0403 15:56:50.017405 20559 layer_factory.hpp:77] Creating layer inception_4d/relu_5x5_reduce
I0403 15:56:50.017422 20559 net.cpp:91] Creating Layer inception_4d/relu_5x5_reduce
I0403 15:56:50.017438 20559 net.cpp:425] inception_4d/relu_5x5_reduce <- inception_4d/5x5_reduce
I0403 15:56:50.017458 20559 net.cpp:386] inception_4d/relu_5x5_reduce -> inception_4d/5x5_reduce (in-place)
I0403 15:56:50.017650 20559 net.cpp:141] Setting up inception_4d/relu_5x5_reduce
I0403 15:56:50.017676 20559 net.cpp:148] Top shape: 24 32 14 14 (150528)
I0403 15:56:50.017691 20559 net.cpp:156] Memory required for data: 1132858656
I0403 15:56:50.017705 20559 layer_factory.hpp:77] Creating layer inception_4d/5x5
I0403 15:56:50.017729 20559 net.cpp:91] Creating Layer inception_4d/5x5
I0403 15:56:50.017746 20559 net.cpp:425] inception_4d/5x5 <- inception_4d/5x5_reduce
I0403 15:56:50.017767 20559 net.cpp:399] inception_4d/5x5 -> inception_4d/5x5
I0403 15:56:50.019304 20559 net.cpp:141] Setting up inception_4d/5x5
I0403 15:56:50.019331 20559 net.cpp:148] Top shape: 24 64 14 14 (301056)
I0403 15:56:50.019347 20559 net.cpp:156] Memory required for data: 1134062880
I0403 15:56:50.019367 20559 layer_factory.hpp:77] Creating layer inception_4d/relu_5x5
I0403 15:56:50.019403 20559 net.cpp:91] Creating Layer inception_4d/relu_5x5
I0403 15:56:50.019423 20559 net.cpp:425] inception_4d/relu_5x5 <- inception_4d/5x5
I0403 15:56:50.019440 20559 net.cpp:386] inception_4d/relu_5x5 -> inception_4d/5x5 (in-place)
I0403 15:56:50.019747 20559 net.cpp:141] Setting up inception_4d/relu_5x5
I0403 15:56:50.019775 20559 net.cpp:148] Top shape: 24 64 14 14 (301056)
I0403 15:56:50.019790 20559 net.cpp:156] Memory required for data: 1135267104
I0403 15:56:50.019805 20559 layer_factory.hpp:77] Creating layer inception_4d/pool
I0403 15:56:50.019825 20559 net.cpp:91] Creating Layer inception_4d/pool
I0403 15:56:50.019843 20559 net.cpp:425] inception_4d/pool <- inception_4c/output_inception_4c/output_0_split_3
I0403 15:56:50.019861 20559 net.cpp:399] inception_4d/pool -> inception_4d/pool
I0403 15:56:50.019932 20559 net.cpp:141] Setting up inception_4d/pool
I0403 15:56:50.019956 20559 net.cpp:148] Top shape: 24 512 14 14 (2408448)
I0403 15:56:50.019970 20559 net.cpp:156] Memory required for data: 1144900896
I0403 15:56:50.019985 20559 layer_factory.hpp:77] Creating layer inception_4d/pool_proj
I0403 15:56:50.020007 20559 net.cpp:91] Creating Layer inception_4d/pool_proj
I0403 15:56:50.020031 20559 net.cpp:425] inception_4d/pool_proj <- inception_4d/pool
I0403 15:56:50.020053 20559 net.cpp:399] inception_4d/pool_proj -> inception_4d/pool_proj
I0403 15:56:50.021863 20559 net.cpp:141] Setting up inception_4d/pool_proj
I0403 15:56:50.021893 20559 net.cpp:148] Top shape: 24 64 14 14 (301056)
I0403 15:56:50.021909 20559 net.cpp:156] Memory required for data: 1146105120
I0403 15:56:50.021927 20559 layer_factory.hpp:77] Creating layer inception_4d/relu_pool_proj
I0403 15:56:50.021945 20559 net.cpp:91] Creating Layer inception_4d/relu_pool_proj
I0403 15:56:50.021962 20559 net.cpp:425] inception_4d/relu_pool_proj <- inception_4d/pool_proj
I0403 15:56:50.021983 20559 net.cpp:386] inception_4d/relu_pool_proj -> inception_4d/pool_proj (in-place)
I0403 15:56:50.022182 20559 net.cpp:141] Setting up inception_4d/relu_pool_proj
I0403 15:56:50.022208 20559 net.cpp:148] Top shape: 24 64 14 14 (301056)
I0403 15:56:50.022223 20559 net.cpp:156] Memory required for data: 1147309344
I0403 15:56:50.022238 20559 layer_factory.hpp:77] Creating layer inception_4d/output
I0403 15:56:50.022258 20559 net.cpp:91] Creating Layer inception_4d/output
I0403 15:56:50.022274 20559 net.cpp:425] inception_4d/output <- inception_4d/1x1
I0403 15:56:50.022291 20559 net.cpp:425] inception_4d/output <- inception_4d/3x3
I0403 15:56:50.022307 20559 net.cpp:425] inception_4d/output <- inception_4d/5x5
I0403 15:56:50.022323 20559 net.cpp:425] inception_4d/output <- inception_4d/pool_proj
I0403 15:56:50.022341 20559 net.cpp:399] inception_4d/output -> inception_4d/output
I0403 15:56:50.022387 20559 net.cpp:141] Setting up inception_4d/output
I0403 15:56:50.022413 20559 net.cpp:148] Top shape: 24 528 14 14 (2483712)
I0403 15:56:50.022429 20559 net.cpp:156] Memory required for data: 1157244192
I0403 15:56:50.022444 20559 layer_factory.hpp:77] Creating layer inception_4d/output_inception_4d/output_0_split
I0403 15:56:50.022461 20559 net.cpp:91] Creating Layer inception_4d/output_inception_4d/output_0_split
I0403 15:56:50.022477 20559 net.cpp:425] inception_4d/output_inception_4d/output_0_split <- inception_4d/output
I0403 15:56:50.022496 20559 net.cpp:399] inception_4d/output_inception_4d/output_0_split -> inception_4d/output_inception_4d/output_0_split_0
I0403 15:56:50.022518 20559 net.cpp:399] inception_4d/output_inception_4d/output_0_split -> inception_4d/output_inception_4d/output_0_split_1
I0403 15:56:50.022538 20559 net.cpp:399] inception_4d/output_inception_4d/output_0_split -> inception_4d/output_inception_4d/output_0_split_2
I0403 15:56:50.022558 20559 net.cpp:399] inception_4d/output_inception_4d/output_0_split -> inception_4d/output_inception_4d/output_0_split_3
I0403 15:56:50.022578 20559 net.cpp:399] inception_4d/output_inception_4d/output_0_split -> inception_4d/output_inception_4d/output_0_split_4
I0403 15:56:50.022683 20559 net.cpp:141] Setting up inception_4d/output_inception_4d/output_0_split
I0403 15:56:50.022719 20559 net.cpp:148] Top shape: 24 528 14 14 (2483712)
I0403 15:56:50.022739 20559 net.cpp:148] Top shape: 24 528 14 14 (2483712)
I0403 15:56:50.022756 20559 net.cpp:148] Top shape: 24 528 14 14 (2483712)
I0403 15:56:50.022773 20559 net.cpp:148] Top shape: 24 528 14 14 (2483712)
I0403 15:56:50.022788 20559 net.cpp:148] Top shape: 24 528 14 14 (2483712)
I0403 15:56:50.022801 20559 net.cpp:156] Memory required for data: 1206918432
I0403 15:56:50.022815 20559 layer_factory.hpp:77] Creating layer loss2/ave_pool
I0403 15:56:50.022833 20559 net.cpp:91] Creating Layer loss2/ave_pool
I0403 15:56:50.022850 20559 net.cpp:425] loss2/ave_pool <- inception_4d/output_inception_4d/output_0_split_0
I0403 15:56:50.022871 20559 net.cpp:399] loss2/ave_pool -> loss2/ave_pool
I0403 15:56:50.023207 20559 net.cpp:141] Setting up loss2/ave_pool
I0403 15:56:50.023234 20559 net.cpp:148] Top shape: 24 528 4 4 (202752)
I0403 15:56:50.023250 20559 net.cpp:156] Memory required for data: 1207729440
I0403 15:56:50.023265 20559 layer_factory.hpp:77] Creating layer loss2/conv
I0403 15:56:50.023288 20559 net.cpp:91] Creating Layer loss2/conv
I0403 15:56:50.023305 20559 net.cpp:425] loss2/conv <- loss2/ave_pool
I0403 15:56:50.023327 20559 net.cpp:399] loss2/conv -> loss2/conv
I0403 15:56:50.025286 20559 net.cpp:141] Setting up loss2/conv
I0403 15:56:50.025315 20559 net.cpp:148] Top shape: 24 128 4 4 (49152)
I0403 15:56:50.025331 20559 net.cpp:156] Memory required for data: 1207926048
I0403 15:56:50.025349 20559 layer_factory.hpp:77] Creating layer loss2/relu_conv
I0403 15:56:50.025369 20559 net.cpp:91] Creating Layer loss2/relu_conv
I0403 15:56:50.025395 20559 net.cpp:425] loss2/relu_conv <- loss2/conv
I0403 15:56:50.025413 20559 net.cpp:386] loss2/relu_conv -> loss2/conv (in-place)
I0403 15:56:50.025704 20559 net.cpp:141] Setting up loss2/relu_conv
I0403 15:56:50.025732 20559 net.cpp:148] Top shape: 24 128 4 4 (49152)
I0403 15:56:50.025745 20559 net.cpp:156] Memory required for data: 1208122656
I0403 15:56:50.025760 20559 layer_factory.hpp:77] Creating layer loss2/fc
I0403 15:56:50.025781 20559 net.cpp:91] Creating Layer loss2/fc
I0403 15:56:50.025799 20559 net.cpp:425] loss2/fc <- loss2/conv
I0403 15:56:50.025817 20559 net.cpp:399] loss2/fc -> loss2/fc
I0403 15:56:50.043525 20559 net.cpp:141] Setting up loss2/fc
I0403 15:56:50.043558 20559 net.cpp:148] Top shape: 24 1024 (24576)
I0403 15:56:50.043575 20559 net.cpp:156] Memory required for data: 1208220960
I0403 15:56:50.043593 20559 layer_factory.hpp:77] Creating layer loss2/relu_fc
I0403 15:56:50.043613 20559 net.cpp:91] Creating Layer loss2/relu_fc
I0403 15:56:50.043630 20559 net.cpp:425] loss2/relu_fc <- loss2/fc
I0403 15:56:50.043651 20559 net.cpp:386] loss2/relu_fc -> loss2/fc (in-place)
I0403 15:56:50.043999 20559 net.cpp:141] Setting up loss2/relu_fc
I0403 15:56:50.044031 20559 net.cpp:148] Top shape: 24 1024 (24576)
I0403 15:56:50.044049 20559 net.cpp:156] Memory required for data: 1208319264
I0403 15:56:50.044062 20559 layer_factory.hpp:77] Creating layer loss2/drop_fc
I0403 15:56:50.044080 20559 net.cpp:91] Creating Layer loss2/drop_fc
I0403 15:56:50.044096 20559 net.cpp:425] loss2/drop_fc <- loss2/fc
I0403 15:56:50.044116 20559 net.cpp:386] loss2/drop_fc -> loss2/fc (in-place)
I0403 15:56:50.044167 20559 net.cpp:141] Setting up loss2/drop_fc
I0403 15:56:50.044193 20559 net.cpp:148] Top shape: 24 1024 (24576)
I0403 15:56:50.044208 20559 net.cpp:156] Memory required for data: 1208417568
I0403 15:56:50.044221 20559 layer_factory.hpp:77] Creating layer loss2/classifier_plantvillage
I0403 15:56:50.044240 20559 net.cpp:91] Creating Layer loss2/classifier_plantvillage
I0403 15:56:50.044255 20559 net.cpp:425] loss2/classifier_plantvillage <- loss2/fc
I0403 15:56:50.044276 20559 net.cpp:399] loss2/classifier_plantvillage -> loss2/classifier_plantvillage
I0403 15:56:50.044713 20559 net.cpp:141] Setting up loss2/classifier_plantvillage
I0403 15:56:50.044741 20559 net.cpp:148] Top shape: 24 38 (912)
I0403 15:56:50.044773 20559 net.cpp:156] Memory required for data: 1208421216
I0403 15:56:50.044793 20559 layer_factory.hpp:77] Creating layer loss2/classifier_plantvillage_loss2/classifier_plantvillage_0_split
I0403 15:56:50.044811 20559 net.cpp:91] Creating Layer loss2/classifier_plantvillage_loss2/classifier_plantvillage_0_split
I0403 15:56:50.044827 20559 net.cpp:425] loss2/classifier_plantvillage_loss2/classifier_plantvillage_0_split <- loss2/classifier_plantvillage
I0403 15:56:50.044845 20559 net.cpp:399] loss2/classifier_plantvillage_loss2/classifier_plantvillage_0_split -> loss2/classifier_plantvillage_loss2/classifier_plantvillage_0_split_0
I0403 15:56:50.044865 20559 net.cpp:399] loss2/classifier_plantvillage_loss2/classifier_plantvillage_0_split -> loss2/classifier_plantvillage_loss2/classifier_plantvillage_0_split_1
I0403 15:56:50.044885 20559 net.cpp:399] loss2/classifier_plantvillage_loss2/classifier_plantvillage_0_split -> loss2/classifier_plantvillage_loss2/classifier_plantvillage_0_split_2
I0403 15:56:50.044965 20559 net.cpp:141] Setting up loss2/classifier_plantvillage_loss2/classifier_plantvillage_0_split
I0403 15:56:50.044989 20559 net.cpp:148] Top shape: 24 38 (912)
I0403 15:56:50.045006 20559 net.cpp:148] Top shape: 24 38 (912)
I0403 15:56:50.045038 20559 net.cpp:148] Top shape: 24 38 (912)
I0403 15:56:50.045053 20559 net.cpp:156] Memory required for data: 1208432160
I0403 15:56:50.045068 20559 layer_factory.hpp:77] Creating layer inception_4e/1x1
I0403 15:56:50.045088 20559 net.cpp:91] Creating Layer inception_4e/1x1
I0403 15:56:50.045105 20559 net.cpp:425] inception_4e/1x1 <- inception_4d/output_inception_4d/output_0_split_1
I0403 15:56:50.045126 20559 net.cpp:399] inception_4e/1x1 -> inception_4e/1x1
I0403 15:56:50.047020 20559 net.cpp:141] Setting up inception_4e/1x1
I0403 15:56:50.047049 20559 net.cpp:148] Top shape: 24 256 14 14 (1204224)
I0403 15:56:50.047065 20559 net.cpp:156] Memory required for data: 1213249056
I0403 15:56:50.047082 20559 layer_factory.hpp:77] Creating layer inception_4e/relu_1x1
I0403 15:56:50.047102 20559 net.cpp:91] Creating Layer inception_4e/relu_1x1
I0403 15:56:50.047118 20559 net.cpp:425] inception_4e/relu_1x1 <- inception_4e/1x1
I0403 15:56:50.047135 20559 net.cpp:386] inception_4e/relu_1x1 -> inception_4e/1x1 (in-place)
I0403 15:56:50.047433 20559 net.cpp:141] Setting up inception_4e/relu_1x1
I0403 15:56:50.047459 20559 net.cpp:148] Top shape: 24 256 14 14 (1204224)
I0403 15:56:50.047473 20559 net.cpp:156] Memory required for data: 1218065952
I0403 15:56:50.047488 20559 layer_factory.hpp:77] Creating layer inception_4e/3x3_reduce
I0403 15:56:50.047510 20559 net.cpp:91] Creating Layer inception_4e/3x3_reduce
I0403 15:56:50.047529 20559 net.cpp:425] inception_4e/3x3_reduce <- inception_4d/output_inception_4d/output_0_split_2
I0403 15:56:50.047549 20559 net.cpp:399] inception_4e/3x3_reduce -> inception_4e/3x3_reduce
I0403 15:56:50.049687 20559 net.cpp:141] Setting up inception_4e/3x3_reduce
I0403 15:56:50.049716 20559 net.cpp:148] Top shape: 24 160 14 14 (752640)
I0403 15:56:50.049731 20559 net.cpp:156] Memory required for data: 1221076512
I0403 15:56:50.049749 20559 layer_factory.hpp:77] Creating layer inception_4e/relu_3x3_reduce
I0403 15:56:50.049770 20559 net.cpp:91] Creating Layer inception_4e/relu_3x3_reduce
I0403 15:56:50.049787 20559 net.cpp:425] inception_4e/relu_3x3_reduce <- inception_4e/3x3_reduce
I0403 15:56:50.049803 20559 net.cpp:386] inception_4e/relu_3x3_reduce -> inception_4e/3x3_reduce (in-place)
I0403 15:56:50.049989 20559 net.cpp:141] Setting up inception_4e/relu_3x3_reduce
I0403 15:56:50.050014 20559 net.cpp:148] Top shape: 24 160 14 14 (752640)
I0403 15:56:50.050036 20559 net.cpp:156] Memory required for data: 1224087072
I0403 15:56:50.050051 20559 layer_factory.hpp:77] Creating layer inception_4e/3x3
I0403 15:56:50.050074 20559 net.cpp:91] Creating Layer inception_4e/3x3
I0403 15:56:50.050092 20559 net.cpp:425] inception_4e/3x3 <- inception_4e/3x3_reduce
I0403 15:56:50.050110 20559 net.cpp:399] inception_4e/3x3 -> inception_4e/3x3
I0403 15:56:50.055006 20559 net.cpp:141] Setting up inception_4e/3x3
I0403 15:56:50.055053 20559 net.cpp:148] Top shape: 24 320 14 14 (1505280)
I0403 15:56:50.055069 20559 net.cpp:156] Memory required for data: 1230108192
I0403 15:56:50.055088 20559 layer_factory.hpp:77] Creating layer inception_4e/relu_3x3
I0403 15:56:50.055107 20559 net.cpp:91] Creating Layer inception_4e/relu_3x3
I0403 15:56:50.055124 20559 net.cpp:425] inception_4e/relu_3x3 <- inception_4e/3x3
I0403 15:56:50.055140 20559 net.cpp:386] inception_4e/relu_3x3 -> inception_4e/3x3 (in-place)
I0403 15:56:50.055438 20559 net.cpp:141] Setting up inception_4e/relu_3x3
I0403 15:56:50.055464 20559 net.cpp:148] Top shape: 24 320 14 14 (1505280)
I0403 15:56:50.055480 20559 net.cpp:156] Memory required for data: 1236129312
I0403 15:56:50.055495 20559 layer_factory.hpp:77] Creating layer inception_4e/5x5_reduce
I0403 15:56:50.055516 20559 net.cpp:91] Creating Layer inception_4e/5x5_reduce
I0403 15:56:50.055534 20559 net.cpp:425] inception_4e/5x5_reduce <- inception_4d/output_inception_4d/output_0_split_3
I0403 15:56:50.055552 20559 net.cpp:399] inception_4e/5x5_reduce -> inception_4e/5x5_reduce
I0403 15:56:50.056608 20559 net.cpp:141] Setting up inception_4e/5x5_reduce
I0403 15:56:50.056635 20559 net.cpp:148] Top shape: 24 32 14 14 (150528)
I0403 15:56:50.056649 20559 net.cpp:156] Memory required for data: 1236731424
I0403 15:56:50.056668 20559 layer_factory.hpp:77] Creating layer inception_4e/relu_5x5_reduce
I0403 15:56:50.056687 20559 net.cpp:91] Creating Layer inception_4e/relu_5x5_reduce
I0403 15:56:50.056704 20559 net.cpp:425] inception_4e/relu_5x5_reduce <- inception_4e/5x5_reduce
I0403 15:56:50.056720 20559 net.cpp:386] inception_4e/relu_5x5_reduce -> inception_4e/5x5_reduce (in-place)
I0403 15:56:50.057032 20559 net.cpp:141] Setting up inception_4e/relu_5x5_reduce
I0403 15:56:50.057059 20559 net.cpp:148] Top shape: 24 32 14 14 (150528)
I0403 15:56:50.057072 20559 net.cpp:156] Memory required for data: 1237333536
I0403 15:56:50.057086 20559 layer_factory.hpp:77] Creating layer inception_4e/5x5
I0403 15:56:50.057123 20559 net.cpp:91] Creating Layer inception_4e/5x5
I0403 15:56:50.057142 20559 net.cpp:425] inception_4e/5x5 <- inception_4e/5x5_reduce
I0403 15:56:50.057163 20559 net.cpp:399] inception_4e/5x5 -> inception_4e/5x5
I0403 15:56:50.058995 20559 net.cpp:141] Setting up inception_4e/5x5
I0403 15:56:50.059028 20559 net.cpp:148] Top shape: 24 128 14 14 (602112)
I0403 15:56:50.059044 20559 net.cpp:156] Memory required for data: 1239741984
I0403 15:56:50.059062 20559 layer_factory.hpp:77] Creating layer inception_4e/relu_5x5
I0403 15:56:50.059080 20559 net.cpp:91] Creating Layer inception_4e/relu_5x5
I0403 15:56:50.059097 20559 net.cpp:425] inception_4e/relu_5x5 <- inception_4e/5x5
I0403 15:56:50.059114 20559 net.cpp:386] inception_4e/relu_5x5 -> inception_4e/5x5 (in-place)
I0403 15:56:50.059308 20559 net.cpp:141] Setting up inception_4e/relu_5x5
I0403 15:56:50.059330 20559 net.cpp:148] Top shape: 24 128 14 14 (602112)
I0403 15:56:50.059345 20559 net.cpp:156] Memory required for data: 1242150432
I0403 15:56:50.059360 20559 layer_factory.hpp:77] Creating layer inception_4e/pool
I0403 15:56:50.059378 20559 net.cpp:91] Creating Layer inception_4e/pool
I0403 15:56:50.059394 20559 net.cpp:425] inception_4e/pool <- inception_4d/output_inception_4d/output_0_split_4
I0403 15:56:50.059412 20559 net.cpp:399] inception_4e/pool -> inception_4e/pool
I0403 15:56:50.059480 20559 net.cpp:141] Setting up inception_4e/pool
I0403 15:56:50.059504 20559 net.cpp:148] Top shape: 24 528 14 14 (2483712)
I0403 15:56:50.059516 20559 net.cpp:156] Memory required for data: 1252085280
I0403 15:56:50.059530 20559 layer_factory.hpp:77] Creating layer inception_4e/pool_proj
I0403 15:56:50.059551 20559 net.cpp:91] Creating Layer inception_4e/pool_proj
I0403 15:56:50.059568 20559 net.cpp:425] inception_4e/pool_proj <- inception_4e/pool
I0403 15:56:50.059587 20559 net.cpp:399] inception_4e/pool_proj -> inception_4e/pool_proj
I0403 15:56:50.061064 20559 net.cpp:141] Setting up inception_4e/pool_proj
I0403 15:56:50.061102 20559 net.cpp:148] Top shape: 24 128 14 14 (602112)
I0403 15:56:50.061117 20559 net.cpp:156] Memory required for data: 1254493728
I0403 15:56:50.061134 20559 layer_factory.hpp:77] Creating layer inception_4e/relu_pool_proj
I0403 15:56:50.061151 20559 net.cpp:91] Creating Layer inception_4e/relu_pool_proj
I0403 15:56:50.061167 20559 net.cpp:425] inception_4e/relu_pool_proj <- inception_4e/pool_proj
I0403 15:56:50.061187 20559 net.cpp:386] inception_4e/relu_pool_proj -> inception_4e/pool_proj (in-place)
I0403 15:56:50.061476 20559 net.cpp:141] Setting up inception_4e/relu_pool_proj
I0403 15:56:50.061502 20559 net.cpp:148] Top shape: 24 128 14 14 (602112)
I0403 15:56:50.061517 20559 net.cpp:156] Memory required for data: 1256902176
I0403 15:56:50.061532 20559 layer_factory.hpp:77] Creating layer inception_4e/output
I0403 15:56:50.061548 20559 net.cpp:91] Creating Layer inception_4e/output
I0403 15:56:50.061563 20559 net.cpp:425] inception_4e/output <- inception_4e/1x1
I0403 15:56:50.061578 20559 net.cpp:425] inception_4e/output <- inception_4e/3x3
I0403 15:56:50.061594 20559 net.cpp:425] inception_4e/output <- inception_4e/5x5
I0403 15:56:50.061609 20559 net.cpp:425] inception_4e/output <- inception_4e/pool_proj
I0403 15:56:50.061630 20559 net.cpp:399] inception_4e/output -> inception_4e/output
I0403 15:56:50.061676 20559 net.cpp:141] Setting up inception_4e/output
I0403 15:56:50.061702 20559 net.cpp:148] Top shape: 24 832 14 14 (3913728)
I0403 15:56:50.061717 20559 net.cpp:156] Memory required for data: 1272557088
I0403 15:56:50.061731 20559 layer_factory.hpp:77] Creating layer pool4/3x3_s2
I0403 15:56:50.061748 20559 net.cpp:91] Creating Layer pool4/3x3_s2
I0403 15:56:50.061763 20559 net.cpp:425] pool4/3x3_s2 <- inception_4e/output
I0403 15:56:50.061779 20559 net.cpp:399] pool4/3x3_s2 -> pool4/3x3_s2
I0403 15:56:50.061844 20559 net.cpp:141] Setting up pool4/3x3_s2
I0403 15:56:50.061867 20559 net.cpp:148] Top shape: 24 832 7 7 (978432)
I0403 15:56:50.061882 20559 net.cpp:156] Memory required for data: 1276470816
I0403 15:56:50.061895 20559 layer_factory.hpp:77] Creating layer pool4/3x3_s2_pool4/3x3_s2_0_split
I0403 15:56:50.061911 20559 net.cpp:91] Creating Layer pool4/3x3_s2_pool4/3x3_s2_0_split
I0403 15:56:50.061926 20559 net.cpp:425] pool4/3x3_s2_pool4/3x3_s2_0_split <- pool4/3x3_s2
I0403 15:56:50.061944 20559 net.cpp:399] pool4/3x3_s2_pool4/3x3_s2_0_split -> pool4/3x3_s2_pool4/3x3_s2_0_split_0
I0403 15:56:50.061964 20559 net.cpp:399] pool4/3x3_s2_pool4/3x3_s2_0_split -> pool4/3x3_s2_pool4/3x3_s2_0_split_1
I0403 15:56:50.061983 20559 net.cpp:399] pool4/3x3_s2_pool4/3x3_s2_0_split -> pool4/3x3_s2_pool4/3x3_s2_0_split_2
I0403 15:56:50.062003 20559 net.cpp:399] pool4/3x3_s2_pool4/3x3_s2_0_split -> pool4/3x3_s2_pool4/3x3_s2_0_split_3
I0403 15:56:50.062116 20559 net.cpp:141] Setting up pool4/3x3_s2_pool4/3x3_s2_0_split
I0403 15:56:50.062140 20559 net.cpp:148] Top shape: 24 832 7 7 (978432)
I0403 15:56:50.062156 20559 net.cpp:148] Top shape: 24 832 7 7 (978432)
I0403 15:56:50.062170 20559 net.cpp:148] Top shape: 24 832 7 7 (978432)
I0403 15:56:50.062186 20559 net.cpp:148] Top shape: 24 832 7 7 (978432)
I0403 15:56:50.062198 20559 net.cpp:156] Memory required for data: 1292125728
I0403 15:56:50.062212 20559 layer_factory.hpp:77] Creating layer inception_5a/1x1
I0403 15:56:50.062234 20559 net.cpp:91] Creating Layer inception_5a/1x1
I0403 15:56:50.062252 20559 net.cpp:425] inception_5a/1x1 <- pool4/3x3_s2_pool4/3x3_s2_0_split_0
I0403 15:56:50.062273 20559 net.cpp:399] inception_5a/1x1 -> inception_5a/1x1
I0403 15:56:50.065150 20559 net.cpp:141] Setting up inception_5a/1x1
I0403 15:56:50.065178 20559 net.cpp:148] Top shape: 24 256 7 7 (301056)
I0403 15:56:50.065193 20559 net.cpp:156] Memory required for data: 1293329952
I0403 15:56:50.065212 20559 layer_factory.hpp:77] Creating layer inception_5a/relu_1x1
I0403 15:56:50.065232 20559 net.cpp:91] Creating Layer inception_5a/relu_1x1
I0403 15:56:50.065248 20559 net.cpp:425] inception_5a/relu_1x1 <- inception_5a/1x1
I0403 15:56:50.065265 20559 net.cpp:386] inception_5a/relu_1x1 -> inception_5a/1x1 (in-place)
I0403 15:56:50.065582 20559 net.cpp:141] Setting up inception_5a/relu_1x1
I0403 15:56:50.065609 20559 net.cpp:148] Top shape: 24 256 7 7 (301056)
I0403 15:56:50.065623 20559 net.cpp:156] Memory required for data: 1294534176
I0403 15:56:50.065639 20559 layer_factory.hpp:77] Creating layer inception_5a/3x3_reduce
I0403 15:56:50.065660 20559 net.cpp:91] Creating Layer inception_5a/3x3_reduce
I0403 15:56:50.065678 20559 net.cpp:425] inception_5a/3x3_reduce <- pool4/3x3_s2_pool4/3x3_s2_0_split_1
I0403 15:56:50.065699 20559 net.cpp:399] inception_5a/3x3_reduce -> inception_5a/3x3_reduce
I0403 15:56:50.068184 20559 net.cpp:141] Setting up inception_5a/3x3_reduce
I0403 15:56:50.068215 20559 net.cpp:148] Top shape: 24 160 7 7 (188160)
I0403 15:56:50.068231 20559 net.cpp:156] Memory required for data: 1295286816
I0403 15:56:50.068249 20559 layer_factory.hpp:77] Creating layer inception_5a/relu_3x3_reduce
I0403 15:56:50.068267 20559 net.cpp:91] Creating Layer inception_5a/relu_3x3_reduce
I0403 15:56:50.068282 20559 net.cpp:425] inception_5a/relu_3x3_reduce <- inception_5a/3x3_reduce
I0403 15:56:50.068302 20559 net.cpp:386] inception_5a/relu_3x3_reduce -> inception_5a/3x3_reduce (in-place)
I0403 15:56:50.068495 20559 net.cpp:141] Setting up inception_5a/relu_3x3_reduce
I0403 15:56:50.068519 20559 net.cpp:148] Top shape: 24 160 7 7 (188160)
I0403 15:56:50.068534 20559 net.cpp:156] Memory required for data: 1296039456
I0403 15:56:50.068549 20559 layer_factory.hpp:77] Creating layer inception_5a/3x3
I0403 15:56:50.068572 20559 net.cpp:91] Creating Layer inception_5a/3x3
I0403 15:56:50.068588 20559 net.cpp:425] inception_5a/3x3 <- inception_5a/3x3_reduce
I0403 15:56:50.068610 20559 net.cpp:399] inception_5a/3x3 -> inception_5a/3x3
I0403 15:56:50.073678 20559 net.cpp:141] Setting up inception_5a/3x3
I0403 15:56:50.073706 20559 net.cpp:148] Top shape: 24 320 7 7 (376320)
I0403 15:56:50.073722 20559 net.cpp:156] Memory required for data: 1297544736
I0403 15:56:50.073740 20559 layer_factory.hpp:77] Creating layer inception_5a/relu_3x3
I0403 15:56:50.073757 20559 net.cpp:91] Creating Layer inception_5a/relu_3x3
I0403 15:56:50.073773 20559 net.cpp:425] inception_5a/relu_3x3 <- inception_5a/3x3
I0403 15:56:50.073793 20559 net.cpp:386] inception_5a/relu_3x3 -> inception_5a/3x3 (in-place)
I0403 15:56:50.074105 20559 net.cpp:141] Setting up inception_5a/relu_3x3
I0403 15:56:50.074132 20559 net.cpp:148] Top shape: 24 320 7 7 (376320)
I0403 15:56:50.074146 20559 net.cpp:156] Memory required for data: 1299050016
I0403 15:56:50.074162 20559 layer_factory.hpp:77] Creating layer inception_5a/5x5_reduce
I0403 15:56:50.074182 20559 net.cpp:91] Creating Layer inception_5a/5x5_reduce
I0403 15:56:50.074200 20559 net.cpp:425] inception_5a/5x5_reduce <- pool4/3x3_s2_pool4/3x3_s2_0_split_2
I0403 15:56:50.074223 20559 net.cpp:399] inception_5a/5x5_reduce -> inception_5a/5x5_reduce
I0403 15:56:50.075404 20559 net.cpp:141] Setting up inception_5a/5x5_reduce
I0403 15:56:50.075435 20559 net.cpp:148] Top shape: 24 32 7 7 (37632)
I0403 15:56:50.075453 20559 net.cpp:156] Memory required for data: 1299200544
I0403 15:56:50.075470 20559 layer_factory.hpp:77] Creating layer inception_5a/relu_5x5_reduce
I0403 15:56:50.075489 20559 net.cpp:91] Creating Layer inception_5a/relu_5x5_reduce
I0403 15:56:50.075503 20559 net.cpp:425] inception_5a/relu_5x5_reduce <- inception_5a/5x5_reduce
I0403 15:56:50.075521 20559 net.cpp:386] inception_5a/relu_5x5_reduce -> inception_5a/5x5_reduce (in-place)
I0403 15:56:50.075820 20559 net.cpp:141] Setting up inception_5a/relu_5x5_reduce
I0403 15:56:50.075846 20559 net.cpp:148] Top shape: 24 32 7 7 (37632)
I0403 15:56:50.075860 20559 net.cpp:156] Memory required for data: 1299351072
I0403 15:56:50.075875 20559 layer_factory.hpp:77] Creating layer inception_5a/5x5
I0403 15:56:50.075896 20559 net.cpp:91] Creating Layer inception_5a/5x5
I0403 15:56:50.075914 20559 net.cpp:425] inception_5a/5x5 <- inception_5a/5x5_reduce
I0403 15:56:50.075935 20559 net.cpp:399] inception_5a/5x5 -> inception_5a/5x5
I0403 15:56:50.077685 20559 net.cpp:141] Setting up inception_5a/5x5
I0403 15:56:50.077724 20559 net.cpp:148] Top shape: 24 128 7 7 (150528)
I0403 15:56:50.077740 20559 net.cpp:156] Memory required for data: 1299953184
I0403 15:56:50.077759 20559 layer_factory.hpp:77] Creating layer inception_5a/relu_5x5
I0403 15:56:50.077775 20559 net.cpp:91] Creating Layer inception_5a/relu_5x5
I0403 15:56:50.077791 20559 net.cpp:425] inception_5a/relu_5x5 <- inception_5a/5x5
I0403 15:56:50.077811 20559 net.cpp:386] inception_5a/relu_5x5 -> inception_5a/5x5 (in-place)
I0403 15:56:50.078004 20559 net.cpp:141] Setting up inception_5a/relu_5x5
I0403 15:56:50.078042 20559 net.cpp:148] Top shape: 24 128 7 7 (150528)
I0403 15:56:50.078058 20559 net.cpp:156] Memory required for data: 1300555296
I0403 15:56:50.078073 20559 layer_factory.hpp:77] Creating layer inception_5a/pool
I0403 15:56:50.078091 20559 net.cpp:91] Creating Layer inception_5a/pool
I0403 15:56:50.078109 20559 net.cpp:425] inception_5a/pool <- pool4/3x3_s2_pool4/3x3_s2_0_split_3
I0403 15:56:50.078126 20559 net.cpp:399] inception_5a/pool -> inception_5a/pool
I0403 15:56:50.078197 20559 net.cpp:141] Setting up inception_5a/pool
I0403 15:56:50.078220 20559 net.cpp:148] Top shape: 24 832 7 7 (978432)
I0403 15:56:50.078234 20559 net.cpp:156] Memory required for data: 1304469024
I0403 15:56:50.078249 20559 layer_factory.hpp:77] Creating layer inception_5a/pool_proj
I0403 15:56:50.078271 20559 net.cpp:91] Creating Layer inception_5a/pool_proj
I0403 15:56:50.078289 20559 net.cpp:425] inception_5a/pool_proj <- inception_5a/pool
I0403 15:56:50.078310 20559 net.cpp:399] inception_5a/pool_proj -> inception_5a/pool_proj
I0403 15:56:50.080637 20559 net.cpp:141] Setting up inception_5a/pool_proj
I0403 15:56:50.080667 20559 net.cpp:148] Top shape: 24 128 7 7 (150528)
I0403 15:56:50.080682 20559 net.cpp:156] Memory required for data: 1305071136
I0403 15:56:50.080699 20559 layer_factory.hpp:77] Creating layer inception_5a/relu_pool_proj
I0403 15:56:50.080716 20559 net.cpp:91] Creating Layer inception_5a/relu_pool_proj
I0403 15:56:50.080731 20559 net.cpp:425] inception_5a/relu_pool_proj <- inception_5a/pool_proj
I0403 15:56:50.080751 20559 net.cpp:386] inception_5a/relu_pool_proj -> inception_5a/pool_proj (in-place)
I0403 15:56:50.081046 20559 net.cpp:141] Setting up inception_5a/relu_pool_proj
I0403 15:56:50.081073 20559 net.cpp:148] Top shape: 24 128 7 7 (150528)
I0403 15:56:50.081086 20559 net.cpp:156] Memory required for data: 1305673248
I0403 15:56:50.081100 20559 layer_factory.hpp:77] Creating layer inception_5a/output
I0403 15:56:50.081117 20559 net.cpp:91] Creating Layer inception_5a/output
I0403 15:56:50.081132 20559 net.cpp:425] inception_5a/output <- inception_5a/1x1
I0403 15:56:50.081148 20559 net.cpp:425] inception_5a/output <- inception_5a/3x3
I0403 15:56:50.081163 20559 net.cpp:425] inception_5a/output <- inception_5a/5x5
I0403 15:56:50.081178 20559 net.cpp:425] inception_5a/output <- inception_5a/pool_proj
I0403 15:56:50.081197 20559 net.cpp:399] inception_5a/output -> inception_5a/output
I0403 15:56:50.081245 20559 net.cpp:141] Setting up inception_5a/output
I0403 15:56:50.081269 20559 net.cpp:148] Top shape: 24 832 7 7 (978432)
I0403 15:56:50.081282 20559 net.cpp:156] Memory required for data: 1309586976
I0403 15:56:50.081296 20559 layer_factory.hpp:77] Creating layer inception_5a/output_inception_5a/output_0_split
I0403 15:56:50.081315 20559 net.cpp:91] Creating Layer inception_5a/output_inception_5a/output_0_split
I0403 15:56:50.081331 20559 net.cpp:425] inception_5a/output_inception_5a/output_0_split <- inception_5a/output
I0403 15:56:50.081346 20559 net.cpp:399] inception_5a/output_inception_5a/output_0_split -> inception_5a/output_inception_5a/output_0_split_0
I0403 15:56:50.081369 20559 net.cpp:399] inception_5a/output_inception_5a/output_0_split -> inception_5a/output_inception_5a/output_0_split_1
I0403 15:56:50.081389 20559 net.cpp:399] inception_5a/output_inception_5a/output_0_split -> inception_5a/output_inception_5a/output_0_split_2
I0403 15:56:50.081408 20559 net.cpp:399] inception_5a/output_inception_5a/output_0_split -> inception_5a/output_inception_5a/output_0_split_3
I0403 15:56:50.081516 20559 net.cpp:141] Setting up inception_5a/output_inception_5a/output_0_split
I0403 15:56:50.081539 20559 net.cpp:148] Top shape: 24 832 7 7 (978432)
I0403 15:56:50.081554 20559 net.cpp:148] Top shape: 24 832 7 7 (978432)
I0403 15:56:50.081569 20559 net.cpp:148] Top shape: 24 832 7 7 (978432)
I0403 15:56:50.081584 20559 net.cpp:148] Top shape: 24 832 7 7 (978432)
I0403 15:56:50.081596 20559 net.cpp:156] Memory required for data: 1325241888
I0403 15:56:50.081610 20559 layer_factory.hpp:77] Creating layer inception_5b/1x1
I0403 15:56:50.081631 20559 net.cpp:91] Creating Layer inception_5b/1x1
I0403 15:56:50.081650 20559 net.cpp:425] inception_5b/1x1 <- inception_5a/output_inception_5a/output_0_split_0
I0403 15:56:50.081668 20559 net.cpp:399] inception_5b/1x1 -> inception_5b/1x1
I0403 15:56:50.085345 20559 net.cpp:141] Setting up inception_5b/1x1
I0403 15:56:50.085378 20559 net.cpp:148] Top shape: 24 384 7 7 (451584)
I0403 15:56:50.085396 20559 net.cpp:156] Memory required for data: 1327048224
I0403 15:56:50.085413 20559 layer_factory.hpp:77] Creating layer inception_5b/relu_1x1
I0403 15:56:50.085430 20559 net.cpp:91] Creating Layer inception_5b/relu_1x1
I0403 15:56:50.085445 20559 net.cpp:425] inception_5b/relu_1x1 <- inception_5b/1x1
I0403 15:56:50.085464 20559 net.cpp:386] inception_5b/relu_1x1 -> inception_5b/1x1 (in-place)
I0403 15:56:50.085768 20559 net.cpp:141] Setting up inception_5b/relu_1x1
I0403 15:56:50.085795 20559 net.cpp:148] Top shape: 24 384 7 7 (451584)
I0403 15:56:50.085810 20559 net.cpp:156] Memory required for data: 1328854560
I0403 15:56:50.085824 20559 layer_factory.hpp:77] Creating layer inception_5b/3x3_reduce
I0403 15:56:50.085846 20559 net.cpp:91] Creating Layer inception_5b/3x3_reduce
I0403 15:56:50.085863 20559 net.cpp:425] inception_5b/3x3_reduce <- inception_5a/output_inception_5a/output_0_split_1
I0403 15:56:50.085885 20559 net.cpp:399] inception_5b/3x3_reduce -> inception_5b/3x3_reduce
I0403 15:56:50.088532 20559 net.cpp:141] Setting up inception_5b/3x3_reduce
I0403 15:56:50.088563 20559 net.cpp:148] Top shape: 24 192 7 7 (225792)
I0403 15:56:50.088580 20559 net.cpp:156] Memory required for data: 1329757728
I0403 15:56:50.088598 20559 layer_factory.hpp:77] Creating layer inception_5b/relu_3x3_reduce
I0403 15:56:50.088615 20559 net.cpp:91] Creating Layer inception_5b/relu_3x3_reduce
I0403 15:56:50.088630 20559 net.cpp:425] inception_5b/relu_3x3_reduce <- inception_5b/3x3_reduce
I0403 15:56:50.088649 20559 net.cpp:386] inception_5b/relu_3x3_reduce -> inception_5b/3x3_reduce (in-place)
I0403 15:56:50.088836 20559 net.cpp:141] Setting up inception_5b/relu_3x3_reduce
I0403 15:56:50.088860 20559 net.cpp:148] Top shape: 24 192 7 7 (225792)
I0403 15:56:50.088874 20559 net.cpp:156] Memory required for data: 1330660896
I0403 15:56:50.088888 20559 layer_factory.hpp:77] Creating layer inception_5b/3x3
I0403 15:56:50.088910 20559 net.cpp:91] Creating Layer inception_5b/3x3
I0403 15:56:50.088927 20559 net.cpp:425] inception_5b/3x3 <- inception_5b/3x3_reduce
I0403 15:56:50.088948 20559 net.cpp:399] inception_5b/3x3 -> inception_5b/3x3
I0403 15:56:50.095597 20559 net.cpp:141] Setting up inception_5b/3x3
I0403 15:56:50.095626 20559 net.cpp:148] Top shape: 24 384 7 7 (451584)
I0403 15:56:50.095641 20559 net.cpp:156] Memory required for data: 1332467232
I0403 15:56:50.095659 20559 layer_factory.hpp:77] Creating layer inception_5b/relu_3x3
I0403 15:56:50.095677 20559 net.cpp:91] Creating Layer inception_5b/relu_3x3
I0403 15:56:50.095693 20559 net.cpp:425] inception_5b/relu_3x3 <- inception_5b/3x3
I0403 15:56:50.095713 20559 net.cpp:386] inception_5b/relu_3x3 -> inception_5b/3x3 (in-place)
I0403 15:56:50.096015 20559 net.cpp:141] Setting up inception_5b/relu_3x3
I0403 15:56:50.096048 20559 net.cpp:148] Top shape: 24 384 7 7 (451584)
I0403 15:56:50.096063 20559 net.cpp:156] Memory required for data: 1334273568
I0403 15:56:50.096077 20559 layer_factory.hpp:77] Creating layer inception_5b/5x5_reduce
I0403 15:56:50.096115 20559 net.cpp:91] Creating Layer inception_5b/5x5_reduce
I0403 15:56:50.096134 20559 net.cpp:425] inception_5b/5x5_reduce <- inception_5a/output_inception_5a/output_0_split_2
I0403 15:56:50.096156 20559 net.cpp:399] inception_5b/5x5_reduce -> inception_5b/5x5_reduce
I0403 15:56:50.097446 20559 net.cpp:141] Setting up inception_5b/5x5_reduce
I0403 15:56:50.097475 20559 net.cpp:148] Top shape: 24 48 7 7 (56448)
I0403 15:56:50.097489 20559 net.cpp:156] Memory required for data: 1334499360
I0403 15:56:50.097507 20559 layer_factory.hpp:77] Creating layer inception_5b/relu_5x5_reduce
I0403 15:56:50.097525 20559 net.cpp:91] Creating Layer inception_5b/relu_5x5_reduce
I0403 15:56:50.097542 20559 net.cpp:425] inception_5b/relu_5x5_reduce <- inception_5b/5x5_reduce
I0403 15:56:50.097560 20559 net.cpp:386] inception_5b/relu_5x5_reduce -> inception_5b/5x5_reduce (in-place)
I0403 15:56:50.097936 20559 net.cpp:141] Setting up inception_5b/relu_5x5_reduce
I0403 15:56:50.097964 20559 net.cpp:148] Top shape: 24 48 7 7 (56448)
I0403 15:56:50.097977 20559 net.cpp:156] Memory required for data: 1334725152
I0403 15:56:50.097992 20559 layer_factory.hpp:77] Creating layer inception_5b/5x5
I0403 15:56:50.098012 20559 net.cpp:91] Creating Layer inception_5b/5x5
I0403 15:56:50.098043 20559 net.cpp:425] inception_5b/5x5 <- inception_5b/5x5_reduce
I0403 15:56:50.098063 20559 net.cpp:399] inception_5b/5x5 -> inception_5b/5x5
I0403 15:56:50.100144 20559 net.cpp:141] Setting up inception_5b/5x5
I0403 15:56:50.100172 20559 net.cpp:148] Top shape: 24 128 7 7 (150528)
I0403 15:56:50.100186 20559 net.cpp:156] Memory required for data: 1335327264
I0403 15:56:50.100205 20559 layer_factory.hpp:77] Creating layer inception_5b/relu_5x5
I0403 15:56:50.100224 20559 net.cpp:91] Creating Layer inception_5b/relu_5x5
I0403 15:56:50.100241 20559 net.cpp:425] inception_5b/relu_5x5 <- inception_5b/5x5
I0403 15:56:50.100258 20559 net.cpp:386] inception_5b/relu_5x5 -> inception_5b/5x5 (in-place)
I0403 15:56:50.100453 20559 net.cpp:141] Setting up inception_5b/relu_5x5
I0403 15:56:50.100478 20559 net.cpp:148] Top shape: 24 128 7 7 (150528)
I0403 15:56:50.100492 20559 net.cpp:156] Memory required for data: 1335929376
I0403 15:56:50.100507 20559 layer_factory.hpp:77] Creating layer inception_5b/pool
I0403 15:56:50.100527 20559 net.cpp:91] Creating Layer inception_5b/pool
I0403 15:56:50.100543 20559 net.cpp:425] inception_5b/pool <- inception_5a/output_inception_5a/output_0_split_3
I0403 15:56:50.100561 20559 net.cpp:399] inception_5b/pool -> inception_5b/pool
I0403 15:56:50.100635 20559 net.cpp:141] Setting up inception_5b/pool
I0403 15:56:50.100658 20559 net.cpp:148] Top shape: 24 832 7 7 (978432)
I0403 15:56:50.100672 20559 net.cpp:156] Memory required for data: 1339843104
I0403 15:56:50.100687 20559 layer_factory.hpp:77] Creating layer inception_5b/pool_proj
I0403 15:56:50.100708 20559 net.cpp:91] Creating Layer inception_5b/pool_proj
I0403 15:56:50.100725 20559 net.cpp:425] inception_5b/pool_proj <- inception_5b/pool
I0403 15:56:50.100745 20559 net.cpp:399] inception_5b/pool_proj -> inception_5b/pool_proj
I0403 15:56:50.103099 20559 net.cpp:141] Setting up inception_5b/pool_proj
I0403 15:56:50.103128 20559 net.cpp:148] Top shape: 24 128 7 7 (150528)
I0403 15:56:50.103145 20559 net.cpp:156] Memory required for data: 1340445216
I0403 15:56:50.103164 20559 layer_factory.hpp:77] Creating layer inception_5b/relu_pool_proj
I0403 15:56:50.103183 20559 net.cpp:91] Creating Layer inception_5b/relu_pool_proj
I0403 15:56:50.103199 20559 net.cpp:425] inception_5b/relu_pool_proj <- inception_5b/pool_proj
I0403 15:56:50.103217 20559 net.cpp:386] inception_5b/relu_pool_proj -> inception_5b/pool_proj (in-place)
I0403 15:56:50.103523 20559 net.cpp:141] Setting up inception_5b/relu_pool_proj
I0403 15:56:50.103549 20559 net.cpp:148] Top shape: 24 128 7 7 (150528)
I0403 15:56:50.103564 20559 net.cpp:156] Memory required for data: 1341047328
I0403 15:56:50.103579 20559 layer_factory.hpp:77] Creating layer inception_5b/output
I0403 15:56:50.103595 20559 net.cpp:91] Creating Layer inception_5b/output
I0403 15:56:50.103626 20559 net.cpp:425] inception_5b/output <- inception_5b/1x1
I0403 15:56:50.103643 20559 net.cpp:425] inception_5b/output <- inception_5b/3x3
I0403 15:56:50.103659 20559 net.cpp:425] inception_5b/output <- inception_5b/5x5
I0403 15:56:50.103675 20559 net.cpp:425] inception_5b/output <- inception_5b/pool_proj
I0403 15:56:50.103695 20559 net.cpp:399] inception_5b/output -> inception_5b/output
I0403 15:56:50.103746 20559 net.cpp:141] Setting up inception_5b/output
I0403 15:56:50.103772 20559 net.cpp:148] Top shape: 24 1024 7 7 (1204224)
I0403 15:56:50.103788 20559 net.cpp:156] Memory required for data: 1345864224
I0403 15:56:50.103802 20559 layer_factory.hpp:77] Creating layer pool5/7x7_s1
I0403 15:56:50.103819 20559 net.cpp:91] Creating Layer pool5/7x7_s1
I0403 15:56:50.103835 20559 net.cpp:425] pool5/7x7_s1 <- inception_5b/output
I0403 15:56:50.103852 20559 net.cpp:399] pool5/7x7_s1 -> pool5/7x7_s1
I0403 15:56:50.104080 20559 net.cpp:141] Setting up pool5/7x7_s1
I0403 15:56:50.104105 20559 net.cpp:148] Top shape: 24 1024 1 1 (24576)
I0403 15:56:50.104120 20559 net.cpp:156] Memory required for data: 1345962528
I0403 15:56:50.104133 20559 layer_factory.hpp:77] Creating layer pool5/drop_7x7_s1
I0403 15:56:50.104151 20559 net.cpp:91] Creating Layer pool5/drop_7x7_s1
I0403 15:56:50.104166 20559 net.cpp:425] pool5/drop_7x7_s1 <- pool5/7x7_s1
I0403 15:56:50.104185 20559 net.cpp:386] pool5/drop_7x7_s1 -> pool5/7x7_s1 (in-place)
I0403 15:56:50.104234 20559 net.cpp:141] Setting up pool5/drop_7x7_s1
I0403 15:56:50.104261 20559 net.cpp:148] Top shape: 24 1024 1 1 (24576)
I0403 15:56:50.104276 20559 net.cpp:156] Memory required for data: 1346060832
I0403 15:56:50.104291 20559 layer_factory.hpp:77] Creating layer loss3/classifier_plantvillage
I0403 15:56:50.104310 20559 net.cpp:91] Creating Layer loss3/classifier_plantvillage
I0403 15:56:50.104326 20559 net.cpp:425] loss3/classifier_plantvillage <- pool5/7x7_s1
I0403 15:56:50.104346 20559 net.cpp:399] loss3/classifier_plantvillage -> loss3/classifier_plantvillage
I0403 15:56:50.104776 20559 net.cpp:141] Setting up loss3/classifier_plantvillage
I0403 15:56:50.104804 20559 net.cpp:148] Top shape: 24 38 (912)
I0403 15:56:50.104818 20559 net.cpp:156] Memory required for data: 1346064480
I0403 15:56:50.104835 20559 layer_factory.hpp:77] Creating layer loss3/classifier_plantvillage_loss3/classifier_plantvillage_0_split
I0403 15:56:50.104856 20559 net.cpp:91] Creating Layer loss3/classifier_plantvillage_loss3/classifier_plantvillage_0_split
I0403 15:56:50.104873 20559 net.cpp:425] loss3/classifier_plantvillage_loss3/classifier_plantvillage_0_split <- loss3/classifier_plantvillage
I0403 15:56:50.104890 20559 net.cpp:399] loss3/classifier_plantvillage_loss3/classifier_plantvillage_0_split -> loss3/classifier_plantvillage_loss3/classifier_plantvillage_0_split_0
I0403 15:56:50.104912 20559 net.cpp:399] loss3/classifier_plantvillage_loss3/classifier_plantvillage_0_split -> loss3/classifier_plantvillage_loss3/classifier_plantvillage_0_split_1
I0403 15:56:50.104933 20559 net.cpp:399] loss3/classifier_plantvillage_loss3/classifier_plantvillage_0_split -> loss3/classifier_plantvillage_loss3/classifier_plantvillage_0_split_2
I0403 15:56:50.104951 20559 net.cpp:399] loss3/classifier_plantvillage_loss3/classifier_plantvillage_0_split -> loss3/classifier_plantvillage_loss3/classifier_plantvillage_0_split_3
I0403 15:56:50.105059 20559 net.cpp:141] Setting up loss3/classifier_plantvillage_loss3/classifier_plantvillage_0_split
I0403 15:56:50.105083 20559 net.cpp:148] Top shape: 24 38 (912)
I0403 15:56:50.105098 20559 net.cpp:148] Top shape: 24 38 (912)
I0403 15:56:50.105113 20559 net.cpp:148] Top shape: 24 38 (912)
I0403 15:56:50.105128 20559 net.cpp:148] Top shape: 24 38 (912)
I0403 15:56:50.105141 20559 net.cpp:156] Memory required for data: 1346079072
I0403 15:56:50.105155 20559 layer_factory.hpp:77] Creating layer loss1/loss
I0403 15:56:50.105176 20559 net.cpp:91] Creating Layer loss1/loss
I0403 15:56:50.105193 20559 net.cpp:425] loss1/loss <- loss1/classifier_plantvillage_loss1/classifier_plantvillage_0_split_0
I0403 15:56:50.105224 20559 net.cpp:425] loss1/loss <- label_data_1_split_0
…
