…
I0403 15:48:31.085525 20284 net.cpp:313] The NetState phase (1) differed from the phase (0) specified by a rule in layer data
I0403 15:48:31.086730 20284 net.cpp:49] Initializing net from parameters: 
state {
  phase: TEST
}
layer {
  name: "data"
  type: "Data"
  top: "data"
  top: "label"
  include {
    phase: TEST
  }
  transform_param {
    mirror: false
    crop_size: 224
    mean_file: "/home/mohanty/data/final_dataset/lmdb/grayscale-20-80/mean.binaryproto"
  }
  data_param {
    source: "/home/mohanty/data/final_dataset/lmdb/grayscale-20-80/test_db"
    batch_size: 24
    backend: LMDB
  }
}
layer {
  name: "conv1/7x7_s2"
  type: "Convolution"
  bottom: "data"
  top: "conv1/7x7_s2"
  param {
    lr_mult: 1
    decay_mult: 1
  }
  param {
    lr_mult: 2
    decay_mult: 0
  }
  convolution_param {
    num_output: 64
    pad: 3
    kernel_size: 7
    stride: 2
    weight_filler {
      type: "xavier"
      std: 0.1
    }
    bias_filler {
      type: "constant"
      value: 0.2
    }
  }
}
layer {
  name: "conv1/relu_7x7"
  type: "ReLU"
  bottom: "conv1/7x7_s2"
  top: "conv1/7x7_s2"
}
layer {
  name: "pool1/3x3_s2"
  type: "Pooling"
  bottom: "conv1/7x7_s2"
  top: "pool1/3x3_s2"
  pooling_param {
    pool: MAX
    kernel_size: 3
    stride: 2
  }
}
layer {
  name: "pool1/norm1"
  type: "LRN"
  bottom: "pool1/3x3_s2"
  top: "pool1/norm1"
  lrn_param {
    local_size: 5
    alpha: 0.0001
    beta: 0.75
  }
}
layer {
  name: "conv2/3x3_reduce"
  type: "Convolution"
  bottom: "pool1/norm1"
  top: "conv2/3x3_reduce"
  param {
    lr_mult: 1
    decay_mult: 1
  }
  param {
    lr_mult: 2
    decay_mult: 0
  }
  convolution_param {
    num_output: 64
    kernel_size: 1
    weight_filler {
      type: "xavier"
      std: 0.1
    }
    bias_filler {
      type: "constant"
      value: 0.2
    }
  }
}
layer {
  name: "conv2/relu_3x3_reduce"
  type: "ReLU"
  bottom: "conv2/3x3_reduce"
  top: "conv2/3x3_reduce"
}
layer {
  name: "conv2/3x3"
  type: "Convolution"
  bottom: "conv2/3x3_reduce"
  top: "conv2/3x3"
  param {
    lr_mult: 1
    decay_mult: 1
  }
  param {
    lr_mult: 2
    decay_mult: 0
  }
  convolution_param {
    num_output: 192
    pad: 1
    kernel_size: 3
    weight_filler {
      type: "xavier"
      std: 0.03
    }
    bias_filler {
      type: "constant"
      value: 0.2
    }
  }
}
layer {
  name: "conv2/relu_3x3"
  type: "ReLU"
  bottom: "conv2/3x3"
  top: "conv2/3x3"
}
layer {
  name: "conv2/norm2"
  type: "LRN"
  bottom: "conv2/3x3"
  top: "conv2/norm2"
  lrn_param {
    local_size: 5
    alpha: 0.0001
    beta: 0.75
  }
}
layer {
  name: "pool2/3x3_s2"
  type: "Pooling"
  bottom: "conv2/norm2"
  top: "pool2/3x3_s2"
  pooling_param {
    pool: MAX
    kernel_size: 3
    stride: 2
  }
}
layer {
  name: "inception_3a/1x1"
  type: "Convolution"
  bottom: "pool2/3x3_s2"
  top: "inception_3a/1x1"
  param {
    lr_mult: 1
    decay_mult: 1
  }
  param {
    lr_mult: 2
    decay_mult: 0
  }
  convolution_param {
    num_output: 64
    kernel_size: 1
    weight_filler {
      type: "xavier"
      std: 0.03
    }
    bias_filler {
      type: "constant"
      value: 0.2
    }
  }
}
layer {
  name: "inception_3a/relu_1x1"
  type: "ReLU"
  bottom: "inception_3a/1x1"
  top: "inception_3a/1x1"
}
layer {
  name: "inception_3a/3x3_reduce"
  type: "Convolution"
  bottom: "pool2/3x3_s2"
  top: "inception_3a/3x3_reduce"
  param {
    lr_mult: 1
    decay_mult: 1
  }
  param {
    lr_mult: 2
    decay_mult: 0
  }
  convolution_param {
    num_output: 96
    kernel_size: 1
    weight_filler {
      type: "xavier"
      std: 0.09
    }
    bias_filler {
      type: "constant"
      value: 0.2
    }
  }
}
layer {
  name: "inception_3a/relu_3x3_reduce"
  type: "ReLU"
  bottom: "inception_3a/3x3_reduce"
  top: "inception_3a/3x3_reduce"
}
layer {
  name: "inception_3a/3x3"
  type: "Convolution"
  bottom: "inception_3a/3x3_reduce"
  top: "inception_3a/3x3"
  param {
    lr_mult: 1
    decay_mult: 1
  }
  param {
    lr_mult: 2
    decay_mult: 0
  }
  convolution_param {
    num_output: 128
    pad: 1
    kernel_size: 3
    weight_filler {
      type: "xavier"
      std: 0.03
    }
    bias_filler {
      type: "constant"
      value: 0.2
    }
  }
}
layer {
  name: "inception_3a/relu_3x3"
  type: "ReLU"
  bottom: "inception_3a/3x3"
  top: "inception_3a/3x3"
}
layer {
  name: "inception_3a/5x5_reduce"
  type: "Convolution"
  bottom: "pool2/3x3_s2"
  top: "inception_3a/5x5_reduce"
  param {
    lr_mult: 1
    decay_mult: 1
  }
  param {
    lr_mult: 2
    decay_mult: 0
  }
  convolution_param {
    num_output: 16
    kernel_size: 1
    weight_filler {
      type: "xavier"
      std: 0.2
    }
    bias_filler {
      type: "constant"
      value: 0.2
    }
  }
}
layer {
  name: "inception_3a/relu_5x5_reduce"
  type: "ReLU"
  bottom: "inception_3a/5x5_reduce"
  top: "inception_3a/5x5_reduce"
}
layer {
  name: "inception_3a/5x5"
  type: "Convolution"
  bottom: "inception_3a/5x5_reduce"
  top: "inception_3a/5x5"
  param {
    lr_mult: 1
    decay_mult: 1
  }
  param {
    lr_mult: 2
    decay_mult: 0
  }
  convolution_param {
    num_output: 32
    pad: 2
    kernel_size: 5
    weight_filler {
      type: "xavier"
      std: 0.03
    }
    bias_filler {
      type: "constant"
      value: 0.2
    }
  }
}
layer {
  name: "inception_3a/relu_5x5"
  type: "ReLU"
  bottom: "inception_3a/5x5"
  top: "inception_3a/5x5"
}
layer {
  name: "inception_3a/pool"
  type: "Pooling"
  bottom: "pool2/3x3_s2"
  top: "inception_3a/pool"
  pooling_param {
    pool: MAX
    kernel_size: 3
    stride: 1
    pad: 1
  }
}
layer {
  name: "inception_3a/pool_proj"
  type: "Convolution"
  bottom: "inception_3a/pool"
  top: "inception_3a/pool_proj"
  param {
    lr_mult: 1
    decay_mult: 1
  }
  param {
    lr_mult: 2
    decay_mult: 0
  }
  convolution_param {
    num_output: 32
    kernel_size: 1
    weight_filler {
      type: "xavier"
      std: 0.1
    }
    bias_filler {
      type: "constant"
      value: 0.2
    }
  }
}
layer {
  name: "inception_3a/relu_pool_proj"
  type: "ReLU"
  bottom: "inception_3a/pool_proj"
  top: "inception_3a/pool_proj"
}
layer {
  name: "inception_3a/output"
  type: "Concat"
  bottom: "inception_3a/1x1"
  bottom: "inception_3a/3x3"
  bottom: "inception_3a/5x5"
  bottom: "inception_3a/pool_proj"
  top: "inception_3a/output"
}
layer {
  name: "inception_3b/1x1"
  type: "Convolution"
  bottom: "inception_3a/output"
  top: "inception_3b/1x1"
  param {
    lr_mult: 1
    decay_mult: 1
  }
  param {
    lr_mult: 2
    decay_mult: 0
  }
  convolution_param {
    num_output: 128
    kernel_size: 1
    weight_filler {
      type: "xavier"
      std: 0.03
    }
    bias_filler {
      type: "constant"
      value: 0.2
    }
  }
}
layer {
  name: "inception_3b/relu_1x1"
  type: "ReLU"
  bottom: "inception_3b/1x1"
  top: "inception_3b/1x1"
}
layer {
  name: "inception_3b/3x3_reduce"
  type: "Convolution"
  bottom: "inception_3a/output"
  top: "inception_3b/3x3_reduce"
  param {
    lr_mult: 1
    decay_mult: 1
  }
  param {
    lr_mult: 2
    decay_mult: 0
  }
  convolution_param {
    num_output: 128
    kernel_size: 1
    weight_filler {
      type: "xavier"
      std: 0.09
    }
    bias_filler {
      type: "constant"
      value: 0.2
    }
  }
}
layer {
  name: "inception_3b/relu_3x3_reduce"
  type: "ReLU"
  bottom: "inception_3b/3x3_reduce"
  top: "inception_3b/3x3_reduce"
}
layer {
  name: "inception_3b/3x3"
  type: "Convolution"
  bottom: "inception_3b/3x3_reduce"
  top: "inception_3b/3x3"
  param {
    lr_mult: 1
    decay_mult: 1
  }
  param {
    lr_mult: 2
    decay_mult: 0
  }
  convolution_param {
    num_output: 192
    pad: 1
    kernel_size: 3
    weight_filler {
      type: "xavier"
      std: 0.03
    }
    bias_filler {
      type: "constant"
      value: 0.2
    }
  }
}
layer {
  name: "inception_3b/relu_3x3"
  type: "ReLU"
  bottom: "inception_3b/3x3"
  top: "inception_3b/3x3"
}
layer {
  name: "inception_3b/5x5_reduce"
  type: "Convolution"
  bottom: "inception_3a/output"
  top: "inception_3b/5x5_reduce"
  param {
    lr_mult: 1
    decay_mult: 1
  }
  param {
    lr_mult: 2
    decay_mult: 0
  }
  convolution_param {
    num_output: 32
    kernel_size: 1
    weight_filler {
      type: "xavier"
      std: 0.2
    }
    bias_filler {
      type: "constant"
      value: 0.2
    }
  }
}
layer {
  name: "inception_3b/relu_5x5_reduce"
  type: "ReLU"
  bottom: "inception_3b/5x5_reduce"
  top: "inception_3b/5x5_reduce"
}
layer {
  name: "inception_3b/5x5"
  type: "Convolution"
  bottom: "inception_3b/5x5_reduce"
  top: "inception_3b/5x5"
  param {
    lr_mult: 1
    decay_mult: 1
  }
  param {
    lr_mult: 2
    decay_mult: 0
  }
  convolution_param {
    num_output: 96
    pad: 2
    kernel_size: 5
    weight_filler {
      type: "xavier"
      std: 0.03
    }
    bias_filler {
      type: "constant"
      value: 0.2
    }
  }
}
layer {
  name: "inception_3b/relu_5x5"
  type: "ReLU"
  bottom: "inception_3b/5x5"
  top: "inception_3b/5x5"
}
layer {
  name: "inception_3b/pool"
  type: "Pooling"
  bottom: "inception_3a/output"
  top: "inception_3b/pool"
  pooling_param {
    pool: MAX
    kernel_size: 3
    stride: 1
    pad: 1
  }
}
layer {
  name: "inception_3b/pool_proj"
  type: "Convolution"
  bottom: "inception_3b/pool"
  top: "inception_3b/pool_proj"
  param {
    lr_mult: 1
    decay_mult: 1
  }
  param {
    lr_mult: 2
    decay_mult: 0
  }
  convolution_param {
    num_output: 64
    kernel_size: 1
    weight_filler {
      type: "xavier"
      std: 0.1
    }
    bias_filler {
      type: "constant"
      value: 0.2
    }
  }
}
layer {
  name: "inception_3b/relu_pool_proj"
  type: "ReLU"
  bottom: "inception_3b/pool_proj"
  top: "inception_3b/pool_proj"
}
layer {
  name: "inception_3b/output"
  type: "Concat"
  bottom: "inception_3b/1x1"
  bottom: "inception_3b/3x3"
  bottom: "inception_3b/5x5"
  bottom: "inception_3b/pool_proj"
  top: "inception_3b/output"
}
layer {
  name: "pool3/3x3_s2"
  type: "Pooling"
  bottom: "inception_3b/output"
  top: "pool3/3x3_s2"
  pooling_param {
    pool: MAX
    kernel_size: 3
    stride: 2
  }
}
layer {
  name: "inception_4a/1x1"
  type: "Convolution"
  bottom: "pool3/3x3_s2"
  top: "inception_4a/1x1"
  param {
    lr_mult: 1
    decay_mult: 1
  }
  param {
    lr_mult: 2
    decay_mult: 0
  }
  convolution_param {
    num_output: 192
    kernel_size: 1
    weight_filler {
      type: "xavier"
      std: 0.03
    }
    bias_filler {
      type: "constant"
      value: 0.2
    }
  }
}
layer {
  name: "inception_4a/relu_1x1"
  type: "ReLU"
  bottom: "inception_4a/1x1"
  top: "inception_4a/1x1"
}
layer {
  name: "inception_4a/3x3_reduce"
  type: "Convolution"
  bottom: "pool3/3x3_s2"
  top: "inception_4a/3x3_reduce"
  param {
    lr_mult: 1
    decay_mult: 1
  }
  param {
    lr_mult: 2
    decay_mult: 0
  }
  convolution_param {
    num_output: 96
    kernel_size: 1
    weight_filler {
      type: "xavier"
      std: 0.09
    }
    bias_filler {
      type: "constant"
      value: 0.2
    }
  }
}
layer {
  name: "inception_4a/relu_3x3_reduce"
  type: "ReLU"
  bottom: "inception_4a/3x3_reduce"
  top: "inception_4a/3x3_reduce"
}
layer {
  name: "inception_4a/3x3"
  type: "Convolution"
  bottom: "inception_4a/3x3_reduce"
  top: "inception_4a/3x3"
  param {
    lr_mult: 1
    decay_mult: 1
  }
  param {
    lr_mult: 2
    decay_mult: 0
  }
  convolution_param {
    num_output: 208
    pad: 1
    kernel_size: 3
    weight_filler {
      type: "xavier"
      std: 0.03
    }
    bias_filler {
      type: "constant"
      value: 0.2
    }
  }
}
layer {
  name: "inception_4a/relu_3x3"
  type: "ReLU"
  bottom: "inception_4a/3x3"
  top: "inception_4a/3x3"
}
layer {
  name: "inception_4a/5x5_reduce"
  type: "Convolution"
  bottom: "pool3/3x3_s2"
  top: "inception_4a/5x5_reduce"
  param {
    lr_mult: 1
    decay_mult: 1
  }
  param {
    lr_mult: 2
    decay_mult: 0
  }
  convolution_param {
    num_output: 16
    kernel_size: 1
    weight_filler {
      type: "xavier"
      std: 0.2
    }
    bias_filler {
      type: "constant"
      value: 0.2
    }
  }
}
layer {
  name: "inception_4a/relu_5x5_reduce"
  type: "ReLU"
  bottom: "inception_4a/5x5_reduce"
  top: "inception_4a/5x5_reduce"
}
layer {
  name: "inception_4a/5x5"
  type: "Convolution"
  bottom: "inception_4a/5x5_reduce"
  top: "inception_4a/5x5"
  param {
    lr_mult: 1
    decay_mult: 1
  }
  param {
    lr_mult: 2
    decay_mult: 0
  }
  convolution_param {
    num_output: 48
    pad: 2
    kernel_size: 5
    weight_filler {
      type: "xavier"
      std: 0.03
    }
    bias_filler {
      type: "constant"
      value: 0.2
    }
  }
}
layer {
  name: "inception_4a/relu_5x5"
  type: "ReLU"
  bottom: "inception_4a/5x5"
  top: "inception_4a/5x5"
}
layer {
  name: "inception_4a/pool"
  type: "Pooling"
  bottom: "pool3/3x3_s2"
  top: "inception_4a/pool"
  pooling_param {
    pool: MAX
    kernel_size: 3
    stride: 1
    pad: 1
  }
}
layer {
  name: "inception_4a/pool_proj"
  type: "Convolution"
  bottom: "inception_4a/pool"
  top: "inception_4a/pool_proj"
  param {
    lr_mult: 1
    decay_mult: 1
  }
  param {
    lr_mult: 2
    decay_mult: 0
  }
  convolution_param {
    num_output: 64
    kernel_size: 1
    weight_filler {
      type: "xavier"
      std: 0.1
    }
    bias_filler {
      type: "constant"
      value: 0.2
    }
  }
}
layer {
  name: "inception_4a/relu_pool_proj"
  type: "ReLU"
  bottom: "inception_4a/pool_proj"
  top: "inception_4a/pool_proj"
}
layer {
  name: "inception_4a/output"
  type: "Concat"
  bottom: "inception_4a/1x1"
  bottom: "inception_4a/3x3"
  bottom: "inception_4a/5x5"
  bottom: "inception_4a/pool_proj"
  top: "inception_4a/output"
}
layer {
  name: "loss1/ave_pool"
  type: "Pooling"
  bottom: "inception_4a/output"
  top: "loss1/ave_pool"
  pooling_param {
    pool: AVE
    kernel_size: 5
    stride: 3
  }
}
layer {
  name: "loss1/conv"
  type: "Convolution"
  bottom: "loss1/ave_pool"
  top: "loss1/conv"
  param {
    lr_mult: 1
    decay_mult: 1
  }
  param {
    lr_mult: 2
    decay_mult: 0
  }
  convolution_param {
    num_output: 128
    kernel_size: 1
    weight_filler {
      type: "xavier"
      std: 0.08
    }
    bias_filler {
      type: "constant"
      value: 0.2
    }
  }
}
layer {
  name: "loss1/relu_conv"
  type: "ReLU"
  bottom: "loss1/conv"
  top: "loss1/conv"
}
layer {
  name: "loss1/fc"
  type: "InnerProduct"
  bottom: "loss1/conv"
  top: "loss1/fc"
  param {
    lr_mult: 1
    decay_mult: 1
  }
  param {
    lr_mult: 2
    decay_mult: 0
  }
  inner_product_param {
    num_output: 1024
    weight_filler {
      type: "xavier"
      std: 0.02
    }
    bias_filler {
      type: "constant"
      value: 0.2
    }
  }
}
layer {
  name: "loss1/relu_fc"
  type: "ReLU"
  bottom: "loss1/fc"
  top: "loss1/fc"
}
layer {
  name: "loss1/drop_fc"
  type: "Dropout"
  bottom: "loss1/fc"
  top: "loss1/fc"
  dropout_param {
    dropout_ratio: 0.7
  }
}
layer {
  name: "loss1/classifier_plantvillage"
  type: "InnerProduct"
  bottom: "loss1/fc"
  top: "loss1/classifier_plantvillage"
  param {
    lr_mult: 1
    decay_mult: 1
  }
  param {
    lr_mult: 2
    decay_mult: 0
  }
  inner_product_param {
    num_output: 38
    weight_filler {
      type: "xavier"
      std: 0.0009765625
    }
    bias_filler {
      type: "constant"
      value: 0
    }
  }
}
layer {
  name: "inception_4b/1x1"
  type: "Convolution"
  bottom: "inception_4a/output"
  top: "inception_4b/1x1"
  param {
    lr_mult: 1
    decay_mult: 1
  }
  param {
    lr_mult: 2
    decay_mult: 0
  }
  convolution_param {
    num_output: 160
    kernel_size: 1
    weight_filler {
      type: "xavier"
      std: 0.03
    }
    bias_filler {
      type: "constant"
      value: 0.2
    }
  }
}
layer {
  name: "inception_4b/relu_1x1"
  type: "ReLU"
  bottom: "inception_4b/1x1"
  top: "inception_4b/1x1"
}
layer {
  name: "inception_4b/3x3_reduce"
  type: "Convolution"
  bottom: "inception_4a/output"
  top: "inception_4b/3x3_reduce"
  param {
    lr_mult: 1
    decay_mult: 1
  }
  param {
    lr_mult: 2
    decay_mult: 0
  }
  convolution_param {
    num_output: 112
    kernel_size: 1
    weight_filler {
      type: "xavier"
      std: 0.09
    }
    bias_filler {
      type: "constant"
      value: 0.2
    }
  }
}
layer {
  name: "inception_4b/relu_3x3_reduce"
  type: "ReLU"
  bottom: "inception_4b/3x3_reduce"
  top: "inception_4b/3x3_reduce"
}
layer {
  name: "inception_4b/3x3"
  type: "Convolution"
  bottom: "inception_4b/3x3_reduce"
  top: "inception_4b/3x3"
  param {
    lr_mult: 1
    decay_mult: 1
  }
  param {
    lr_mult: 2
    decay_mult: 0
  }
  convolution_param {
    num_output: 224
    pad: 1
    kernel_size: 3
    weight_filler {
      type: "xavier"
      std: 0.03
    }
    bias_filler {
      type: "constant"
      value: 0.2
    }
  }
}
layer {
  name: "inception_4b/relu_3x3"
  type: "ReLU"
  bottom: "inception_4b/3x3"
  top: "inception_4b/3x3"
}
layer {
  name: "inception_4b/5x5_reduce"
  type: "Convolution"
  bottom: "inception_4a/output"
  top: "inception_4b/5x5_reduce"
  param {
    lr_mult: 1
    decay_mult: 1
  }
  param {
    lr_mult: 2
    decay_mult: 0
  }
  convolution_param {
    num_output: 24
    kernel_size: 1
    weight_filler {
      type: "xavier"
      std: 0.2
    }
    bias_filler {
      type: "constant"
      value: 0.2
    }
  }
}
layer {
  name: "inception_4b/relu_5x5_reduce"
  type: "ReLU"
  bottom: "inception_4b/5x5_reduce"
  top: "inception_4b/5x5_reduce"
}
layer {
  name: "inception_4b/5x5"
  type: "Convolution"
  bottom: "inception_4b/5x5_reduce"
  top: "inception_4b/5x5"
  param {
    lr_mult: 1
    decay_mult: 1
  }
  param {
    lr_mult: 2
    decay_mult: 0
  }
  convolution_param {
    num_output: 64
    pad: 2
    kernel_size: 5
    weight_filler {
      type: "xavier"
      std: 0.03
    }
    bias_filler {
      type: "constant"
      value: 0.2
    }
  }
}
layer {
  name: "inception_4b/relu_5x5"
  type: "ReLU"
  bottom: "inception_4b/5x5"
  top: "inception_4b/5x5"
}
layer {
  name: "inception_4b/pool"
  type: "Pooling"
  bottom: "inception_4a/output"
  top: "inception_4b/pool"
  pooling_param {
    pool: MAX
    kernel_size: 3
    stride: 1
    pad: 1
  }
}
layer {
  name: "inception_4b/pool_proj"
  type: "Convolution"
  bottom: "inception_4b/pool"
  top: "inception_4b/pool_proj"
  param {
    lr_mult: 1
    decay_mult: 1
  }
  param {
    lr_mult: 2
    decay_mult: 0
  }
  convolution_param {
    num_output: 64
    kernel_size: 1
    weight_filler {
      type: "xavier"
      std: 0.1
    }
    bias_filler {
      type: "constant"
      value: 0.2
    }
  }
}
layer {
  name: "inception_4b/relu_pool_proj"
  type: "ReLU"
  bottom: "inception_4b/pool_proj"
  top: "inception_4b/pool_proj"
}
layer {
  name: "inception_4b/output"
  type: "Concat"
  bottom: "inception_4b/1x1"
  bottom: "inception_4b/3x3"
  bottom: "inception_4b/5x5"
  bottom: "inception_4b/pool_proj"
  top: "inception_4b/output"
}
layer {
  name: "inception_4c/1x1"
  type: "Convolution"
  bottom: "inception_4b/output"
  top: "inception_4c/1x1"
  param {
    lr_mult: 1
    decay_mult: 1
  }
  param {
    lr_mult: 2
    decay_mult: 0
  }
  convolution_param {
    num_output: 128
    kernel_size: 1
    weight_filler {
      type: "xavier"
      std: 0.03
    }
    bias_filler {
      type: "constant"
      value: 0.2
    }
  }
}
layer {
  name: "inception_4c/relu_1x1"
  type: "ReLU"
  bottom: "inception_4c/1x1"
  top: "inception_4c/1x1"
}
layer {
  name: "inception_4c/3x3_reduce"
  type: "Convolution"
  bottom: "inception_4b/output"
  top: "inception_4c/3x3_reduce"
  param {
    lr_mult: 1
    decay_mult: 1
  }
  param {
    lr_mult: 2
    decay_mult: 0
  }
  convolution_param {
    num_output: 128
    kernel_size: 1
    weight_filler {
      type: "xavier"
      std: 0.09
    }
    bias_filler {
      type: "constant"
      value: 0.2
    }
  }
}
layer {
  name: "inception_4c/relu_3x3_reduce"
  type: "ReLU"
  bottom: "inception_4c/3x3_reduce"
  top: "inception_4c/3x3_reduce"
}
layer {
  name: "inception_4c/3x3"
  type: "Convolution"
  bottom: "inception_4c/3x3_reduce"
  top: "inception_4c/3x3"
  param {
    lr_mult: 1
    decay_mult: 1
  }
  param {
    lr_mult: 2
    decay_mult: 0
  }
  convolution_param {
    num_output: 256
    pad: 1
    kernel_size: 3
    weight_filler {
      type: "xavier"
      std: 0.03
    }
    bias_filler {
      type: "constant"
      value: 0.2
    }
  }
}
layer {
  name: "inception_4c/relu_3x3"
  type: "ReLU"
  bottom: "inception_4c/3x3"
  top: "inception_4c/3x3"
}
layer {
  name: "inception_4c/5x5_reduce"
  type: "Convolution"
  bottom: "inception_4b/output"
  top: "inception_4c/5x5_reduce"
  param {
    lr_mult: 1
    decay_mult: 1
  }
  param {
    lr_mult: 2
    decay_mult: 0
  }
  convolution_param {
    num_output: 24
    kernel_size: 1
    weight_filler {
      type: "xavier"
      std: 0.2
    }
    bias_filler {
      type: "constant"
      value: 0.2
    }
  }
}
layer {
  name: "inception_4c/relu_5x5_reduce"
  type: "ReLU"
  bottom: "inception_4c/5x5_reduce"
  top: "inception_4c/5x5_reduce"
}
layer {
  name: "inception_4c/5x5"
  type: "Convolution"
  bottom: "inception_4c/5x5_reduce"
  top: "inception_4c/5x5"
  param {
    lr_mult: 1
    decay_mult: 1
  }
  param {
    lr_mult: 2
    decay_mult: 0
  }
  convolution_param {
    num_output: 64
    pad: 2
    kernel_size: 5
    weight_filler {
      type: "xavier"
      std: 0.03
    }
    bias_filler {
      type: "constant"
      value: 0.2
    }
  }
}
layer {
  name: "inception_4c/relu_5x5"
  type: "ReLU"
  bottom: "inception_4c/5x5"
  top: "inception_4c/5x5"
}
layer {
  name: "inception_4c/pool"
  type: "Pooling"
  bottom: "inception_4b/output"
  top: "inception_4c/pool"
  pooling_param {
    pool: MAX
    kernel_size: 3
    stride: 1
    pad: 1
  }
}
layer {
  name: "inception_4c/pool_proj"
  type: "Convolution"
  bottom: "inception_4c/pool"
  top: "inception_4c/pool_proj"
  param {
    lr_mult: 1
    decay_mult: 1
  }
  param {
    lr_mult: 2
    decay_mult: 0
  }
  convolution_param {
    num_output: 64
    kernel_size: 1
    weight_filler {
      type: "xavier"
      std: 0.1
    }
    bias_filler {
      type: "constant"
      value: 0.2
    }
  }
}
layer {
  name: "inception_4c/relu_pool_proj"
  type: "ReLU"
  bottom: "inception_4c/pool_proj"
  top: "inception_4c/pool_proj"
}
layer {
  name: "inception_4c/output"
  type: "Concat"
  bottom: "inception_4c/1x1"
  bottom: "inception_4c/3x3"
  bottom: "inception_4c/5x5"
  bottom: "inception_4c/pool_proj"
  top: "inception_4c/output"
}
layer {
  name: "inception_4d/1x1"
  type: "Convolution"
  bottom: "inception_4c/output"
  top: "inception_4d/1x1"
  param {
    lr_mult: 1
    decay_mult: 1
  }
  param {
    lr_mult: 2
    decay_mult: 0
  }
  convolution_param {
    num_output: 112
    kernel_size: 1
    weight_filler {
      type: "xavier"
      std: 0.03
    }
    bias_filler {
      type: "constant"
      value: 0.2
    }
  }
}
layer {
  name: "inception_4d/relu_1x1"
  type: "ReLU"
  bottom: "inception_4d/1x1"
  top: "inception_4d/1x1"
}
layer {
  name: "inception_4d/3x3_reduce"
  type: "Convolution"
  bottom: "inception_4c/output"
  top: "inception_4d/3x3_reduce"
  param {
    lr_mult: 1
    decay_mult: 1
  }
  param {
    lr_mult: 2
    decay_mult: 0
  }
  convolution_param {
    num_output: 144
    kernel_size: 1
    weight_filler {
      type: "xavier"
      std: 0.09
    }
    bias_filler {
      type: "constant"
      value: 0.2
    }
  }
}
layer {
  name: "inception_4d/relu_3x3_reduce"
  type: "ReLU"
  bottom: "inception_4d/3x3_reduce"
  top: "inception_4d/3x3_reduce"
}
layer {
  name: "inception_4d/3x3"
  type: "Convolution"
  bottom: "inception_4d/3x3_reduce"
  top: "inception_4d/3x3"
  param {
    lr_mult: 1
    decay_mult: 1
  }
  param {
    lr_mult: 2
    decay_mult: 0
  }
  convolution_param {
    num_output: 288
    pad: 1
    kernel_size: 3
    weight_filler {
      type: "xavier"
      std: 0.03
    }
    bias_filler {
      type: "constant"
      value: 0.2
    }
  }
}
layer {
  name: "inception_4d/relu_3x3"
  type: "ReLU"
  bottom: "inception_4d/3x3"
  top: "inception_4d/3x3"
}
layer {
  name: "inception_4d/5x5_reduce"
  type: "Convolution"
  bottom: "inception_4c/output"
  top: "inception_4d/5x5_reduce"
  param {
    lr_mult: 1
    decay_mult: 1
  }
  param {
    lr_mult: 2
    decay_mult: 0
  }
  convolution_param {
    num_output: 32
    kernel_size: 1
    weight_filler {
      type: "xavier"
      std: 0.2
    }
    bias_filler {
      type: "constant"
      value: 0.2
    }
  }
}
layer {
  name: "inception_4d/relu_5x5_reduce"
  type: "ReLU"
  bottom: "inception_4d/5x5_reduce"
  top: "inception_4d/5x5_reduce"
}
layer {
  name: "inception_4d/5x5"
  type: "Convolution"
  bottom: "inception_4d/5x5_reduce"
  top: "inception_4d/5x5"
  param {
    lr_mult: 1
    decay_mult: 1
  }
  param {
    lr_mult: 2
    decay_mult: 0
  }
  convolution_param {
    num_output: 64
    pad: 2
    kernel_size: 5
    weight_filler {
      type: "xavier"
      std: 0.03
    }
    bias_filler {
      type: "constant"
      value: 0.2
    }
  }
}
layer {
  name: "inception_4d/relu_5x5"
  type: "ReLU"
  bottom: "inception_4d/5x5"
  top: "inception_4d/5x5"
}
layer {
  name: "inception_4d/pool"
  type: "Pooling"
  bottom: "inception_4c/output"
  top: "inception_4d/pool"
  pooling_param {
    pool: MAX
    kernel_size: 3
    stride: 1
    pad: 1
  }
}
layer {
  name: "inception_4d/pool_proj"
  type: "Convolution"
  bottom: "inception_4d/pool"
  top: "inception_4d/pool_proj"
  param {
    lr_mult: 1
    decay_mult: 1
  }
  param {
    lr_mult: 2
    decay_mult: 0
  }
  convolution_param {
    num_output: 64
    kernel_size: 1
    weight_filler {
      type: "xavier"
      std: 0.1
    }
    bias_filler {
      type: "constant"
      value: 0.2
    }
  }
}
layer {
  name: "inception_4d/relu_pool_proj"
  type: "ReLU"
  bottom: "inception_4d/pool_proj"
  top: "inception_4d/pool_proj"
}
layer {
  name: "inception_4d/output"
  type: "Concat"
  bottom: "inception_4d/1x1"
  bottom: "inception_4d/3x3"
  bottom: "inception_4d/5x5"
  bottom: "inception_4d/pool_proj"
  top: "inception_4d/output"
}
layer {
  name: "loss2/ave_pool"
  type: "Pooling"
  bottom: "inception_4d/output"
  top: "loss2/ave_pool"
  pooling_param {
    pool: AVE
    kernel_size: 5
    stride: 3
  }
}
layer {
  name: "loss2/conv"
  type: "Convolution"
  bottom: "loss2/ave_pool"
  top: "loss2/conv"
  param {
    lr_mult: 1
    decay_mult: 1
  }
  param {
    lr_mult: 2
    decay_mult: 0
  }
  convolution_param {
    num_output: 128
    kernel_size: 1
    weight_filler {
      type: "xavier"
      std: 0.08
    }
    bias_filler {
      type: "constant"
      value: 0.2
    }
  }
}
layer {
  name: "loss2/relu_conv"
  type: "ReLU"
  bottom: "loss2/conv"
  top: "loss2/conv"
}
layer {
  name: "loss2/fc"
  type: "InnerProduct"
  bottom: "loss2/conv"
  top: "loss2/fc"
  param {
    lr_mult: 1
    decay_mult: 1
  }
  param {
    lr_mult: 2
    decay_mult: 0
  }
  inner_product_param {
    num_output: 1024
    weight_filler {
      type: "xavier"
      std: 0.02
    }
    bias_filler {
      type: "constant"
      value: 0.2
    }
  }
}
layer {
  name: "loss2/relu_fc"
  type: "ReLU"
  bottom: "loss2/fc"
  top: "loss2/fc"
}
layer {
  name: "loss2/drop_fc"
  type: "Dropout"
  bottom: "loss2/fc"
  top: "loss2/fc"
  dropout_param {
    dropout_ratio: 0.7
  }
}
layer {
  name: "loss2/classifier_plantvillage"
  type: "InnerProduct"
  bottom: "loss2/fc"
  top: "loss2/classifier_plantvillage"
  param {
    lr_mult: 1
    decay_mult: 1
  }
  param {
    lr_mult: 2
    decay_mult: 0
  }
  inner_product_param {
    num_output: 38
    weight_filler {
      type: "xavier"
      std: 0.0009765625
    }
    bias_filler {
      type: "constant"
      value: 0
    }
  }
}
layer {
  name: "inception_4e/1x1"
  type: "Convolution"
  bottom: "inception_4d/output"
  top: "inception_4e/1x1"
  param {
    lr_mult: 1
    decay_mult: 1
  }
  param {
    lr_mult: 2
    decay_mult: 0
  }
  convolution_param {
    num_output: 256
    kernel_size: 1
    weight_filler {
      type: "xavier"
      std: 0.03
    }
    bias_filler {
      type: "constant"
      value: 0.2
    }
  }
}
layer {
  name: "inception_4e/relu_1x1"
  type: "ReLU"
  bottom: "inception_4e/1x1"
  top: "inception_4e/1x1"
}
layer {
  name: "inception_4e/3x3_reduce"
  type: "Convolution"
  bottom: "inception_4d/output"
  top: "inception_4e/3x3_reduce"
  param {
    lr_mult: 1
    decay_mult: 1
  }
  param {
    lr_mult: 2
    decay_mult: 0
  }
  convolution_param {
    num_output: 160
    kernel_size: 1
    weight_filler {
      type: "xavier"
      std: 0.09
    }
    bias_filler {
      type: "constant"
      value: 0.2
    }
  }
}
layer {
  name: "inception_4e/relu_3x3_reduce"
  type: "ReLU"
  bottom: "inception_4e/3x3_reduce"
  top: "inception_4e/3x3_reduce"
}
layer {
  name: "inception_4e/3x3"
  type: "Convolution"
  bottom: "inception_4e/3x3_reduce"
  top: "inception_4e/3x3"
  param {
    lr_mult: 1
    decay_mult: 1
  }
  param {
    lr_mult: 2
    decay_mult: 0
  }
  convolution_param {
    num_output: 320
    pad: 1
    kernel_size: 3
    weight_filler {
      type: "xavier"
      std: 0.03
    }
    bias_filler {
      type: "constant"
      value: 0.2
    }
  }
}
layer {
  name: "inception_4e/relu_3x3"
  type: "ReLU"
  bottom: "inception_4e/3x3"
  top: "inception_4e/3x3"
}
layer {
  name: "inception_4e/5x5_reduce"
  type: "Convolution"
  bottom: "inception_4d/output"
  top: "inception_4e/5x5_reduce"
  param {
    lr_mult: 1
    decay_mult: 1
  }
  param {
    lr_mult: 2
    decay_mult: 0
  }
  convolution_param {
    num_output: 32
    kernel_size: 1
    weight_filler {
      type: "xavier"
      std: 0.2
    }
    bias_filler {
      type: "constant"
      value: 0.2
    }
  }
}
layer {
  name: "inception_4e/relu_5x5_reduce"
  type: "ReLU"
  bottom: "inception_4e/5x5_reduce"
  top: "inception_4e/5x5_reduce"
}
layer {
  name: "inception_4e/5x5"
  type: "Convolution"
  bottom: "inception_4e/5x5_reduce"
  top: "inception_4e/
I0403 15:48:31.087998 20284 layer_factory.hpp:77] Creating layer data
I0403 15:48:31.088634 20284 net.cpp:91] Creating Layer data
I0403 15:48:31.088667 20284 net.cpp:399] data -> data
I0403 15:48:31.088718 20284 net.cpp:399] data -> label
I0403 15:48:31.088755 20284 data_transformer.cpp:25] Loading mean file from: /home/mohanty/data/final_dataset/lmdb/grayscale-20-80/mean.binaryproto
I0403 15:48:31.089922 20287 db_lmdb.cpp:38] Opened lmdb /home/mohanty/data/final_dataset/lmdb/grayscale-20-80/test_db
I0403 15:48:31.101872 20284 data_layer.cpp:41] output data size: 24,3,224,224
I0403 15:48:31.129009 20284 net.cpp:141] Setting up data
I0403 15:48:31.129072 20284 net.cpp:148] Top shape: 24 3 224 224 (3612672)
I0403 15:48:31.129096 20284 net.cpp:148] Top shape: 24 (24)
I0403 15:48:31.129112 20284 net.cpp:156] Memory required for data: 14450784
I0403 15:48:31.129138 20284 layer_factory.hpp:77] Creating layer label_data_1_split
I0403 15:48:31.129165 20284 net.cpp:91] Creating Layer label_data_1_split
I0403 15:48:31.129182 20284 net.cpp:425] label_data_1_split <- label
I0403 15:48:31.129215 20284 net.cpp:399] label_data_1_split -> label_data_1_split_0
I0403 15:48:31.129243 20284 net.cpp:399] label_data_1_split -> label_data_1_split_1
I0403 15:48:31.129264 20284 net.cpp:399] label_data_1_split -> label_data_1_split_2
I0403 15:48:31.129286 20284 net.cpp:399] label_data_1_split -> label_data_1_split_3
I0403 15:48:31.129304 20284 net.cpp:399] label_data_1_split -> label_data_1_split_4
I0403 15:48:31.129324 20284 net.cpp:399] label_data_1_split -> label_data_1_split_5
I0403 15:48:31.129344 20284 net.cpp:399] label_data_1_split -> label_data_1_split_6
I0403 15:48:31.129364 20284 net.cpp:399] label_data_1_split -> label_data_1_split_7
I0403 15:48:31.129384 20284 net.cpp:399] label_data_1_split -> label_data_1_split_8
I0403 15:48:31.129403 20284 net.cpp:399] label_data_1_split -> label_data_1_split_9
I0403 15:48:31.129521 20284 net.cpp:141] Setting up label_data_1_split
I0403 15:48:31.129544 20284 net.cpp:148] Top shape: 24 (24)
I0403 15:48:31.129561 20284 net.cpp:148] Top shape: 24 (24)
I0403 15:48:31.129577 20284 net.cpp:148] Top shape: 24 (24)
I0403 15:48:31.129592 20284 net.cpp:148] Top shape: 24 (24)
I0403 15:48:31.129607 20284 net.cpp:148] Top shape: 24 (24)
I0403 15:48:31.129622 20284 net.cpp:148] Top shape: 24 (24)
I0403 15:48:31.129637 20284 net.cpp:148] Top shape: 24 (24)
I0403 15:48:31.129653 20284 net.cpp:148] Top shape: 24 (24)
I0403 15:48:31.129668 20284 net.cpp:148] Top shape: 24 (24)
I0403 15:48:31.129684 20284 net.cpp:148] Top shape: 24 (24)
I0403 15:48:31.129715 20284 net.cpp:156] Memory required for data: 14451744
I0403 15:48:31.129732 20284 layer_factory.hpp:77] Creating layer conv1/7x7_s2
I0403 15:48:31.129762 20284 net.cpp:91] Creating Layer conv1/7x7_s2
I0403 15:48:31.129781 20284 net.cpp:425] conv1/7x7_s2 <- data
I0403 15:48:31.129801 20284 net.cpp:399] conv1/7x7_s2 -> conv1/7x7_s2
I0403 15:48:31.267298 20284 net.cpp:141] Setting up conv1/7x7_s2
I0403 15:48:31.267388 20284 net.cpp:148] Top shape: 24 64 112 112 (19267584)
I0403 15:48:31.267406 20284 net.cpp:156] Memory required for data: 91522080
I0403 15:48:31.267436 20284 layer_factory.hpp:77] Creating layer conv1/relu_7x7
I0403 15:48:31.267463 20284 net.cpp:91] Creating Layer conv1/relu_7x7
I0403 15:48:31.267482 20284 net.cpp:425] conv1/relu_7x7 <- conv1/7x7_s2
I0403 15:48:31.267500 20284 net.cpp:386] conv1/relu_7x7 -> conv1/7x7_s2 (in-place)
I0403 15:48:31.267756 20284 net.cpp:141] Setting up conv1/relu_7x7
I0403 15:48:31.267783 20284 net.cpp:148] Top shape: 24 64 112 112 (19267584)
I0403 15:48:31.267799 20284 net.cpp:156] Memory required for data: 168592416
I0403 15:48:31.267814 20284 layer_factory.hpp:77] Creating layer pool1/3x3_s2
I0403 15:48:31.267838 20284 net.cpp:91] Creating Layer pool1/3x3_s2
I0403 15:48:31.267855 20284 net.cpp:425] pool1/3x3_s2 <- conv1/7x7_s2
I0403 15:48:31.267874 20284 net.cpp:399] pool1/3x3_s2 -> pool1/3x3_s2
I0403 15:48:31.267947 20284 net.cpp:141] Setting up pool1/3x3_s2
I0403 15:48:31.267972 20284 net.cpp:148] Top shape: 24 64 56 56 (4816896)
I0403 15:48:31.267987 20284 net.cpp:156] Memory required for data: 187860000
I0403 15:48:31.268002 20284 layer_factory.hpp:77] Creating layer pool1/norm1
I0403 15:48:31.268025 20284 net.cpp:91] Creating Layer pool1/norm1
I0403 15:48:31.268041 20284 net.cpp:425] pool1/norm1 <- pool1/3x3_s2
I0403 15:48:31.268071 20284 net.cpp:399] pool1/norm1 -> pool1/norm1
I0403 15:48:31.268383 20284 net.cpp:141] Setting up pool1/norm1
I0403 15:48:31.268409 20284 net.cpp:148] Top shape: 24 64 56 56 (4816896)
I0403 15:48:31.268425 20284 net.cpp:156] Memory required for data: 207127584
I0403 15:48:31.268440 20284 layer_factory.hpp:77] Creating layer conv2/3x3_reduce
I0403 15:48:31.268465 20284 net.cpp:91] Creating Layer conv2/3x3_reduce
I0403 15:48:31.268481 20284 net.cpp:425] conv2/3x3_reduce <- pool1/norm1
I0403 15:48:31.268510 20284 net.cpp:399] conv2/3x3_reduce -> conv2/3x3_reduce
I0403 15:48:31.269888 20284 net.cpp:141] Setting up conv2/3x3_reduce
I0403 15:48:31.269922 20284 net.cpp:148] Top shape: 24 64 56 56 (4816896)
I0403 15:48:31.269939 20284 net.cpp:156] Memory required for data: 226395168
I0403 15:48:31.269960 20284 layer_factory.hpp:77] Creating layer conv2/relu_3x3_reduce
I0403 15:48:31.269980 20284 net.cpp:91] Creating Layer conv2/relu_3x3_reduce
I0403 15:48:31.269996 20284 net.cpp:425] conv2/relu_3x3_reduce <- conv2/3x3_reduce
I0403 15:48:31.270015 20284 net.cpp:386] conv2/relu_3x3_reduce -> conv2/3x3_reduce (in-place)
I0403 15:48:31.270298 20284 net.cpp:141] Setting up conv2/relu_3x3_reduce
I0403 15:48:31.270328 20284 net.cpp:148] Top shape: 24 64 56 56 (4816896)
I0403 15:48:31.270345 20284 net.cpp:156] Memory required for data: 245662752
I0403 15:48:31.270362 20284 layer_factory.hpp:77] Creating layer conv2/3x3
I0403 15:48:31.270390 20284 net.cpp:91] Creating Layer conv2/3x3
I0403 15:48:31.270407 20284 net.cpp:425] conv2/3x3 <- conv2/3x3_reduce
I0403 15:48:31.270427 20284 net.cpp:399] conv2/3x3 -> conv2/3x3
I0403 15:48:31.272861 20284 net.cpp:141] Setting up conv2/3x3
I0403 15:48:31.272894 20284 net.cpp:148] Top shape: 24 192 56 56 (14450688)
I0403 15:48:31.272912 20284 net.cpp:156] Memory required for data: 303465504
I0403 15:48:31.272934 20284 layer_factory.hpp:77] Creating layer conv2/relu_3x3
I0403 15:48:31.272954 20284 net.cpp:91] Creating Layer conv2/relu_3x3
I0403 15:48:31.272971 20284 net.cpp:425] conv2/relu_3x3 <- conv2/3x3
I0403 15:48:31.272989 20284 net.cpp:386] conv2/relu_3x3 -> conv2/3x3 (in-place)
I0403 15:48:31.273177 20284 net.cpp:141] Setting up conv2/relu_3x3
I0403 15:48:31.273203 20284 net.cpp:148] Top shape: 24 192 56 56 (14450688)
I0403 15:48:31.273250 20284 net.cpp:156] Memory required for data: 361268256
I0403 15:48:31.273267 20284 layer_factory.hpp:77] Creating layer conv2/norm2
I0403 15:48:31.273288 20284 net.cpp:91] Creating Layer conv2/norm2
I0403 15:48:31.273304 20284 net.cpp:425] conv2/norm2 <- conv2/3x3
I0403 15:48:31.273322 20284 net.cpp:399] conv2/norm2 -> conv2/norm2
I0403 15:48:31.273632 20284 net.cpp:141] Setting up conv2/norm2
I0403 15:48:31.273658 20284 net.cpp:148] Top shape: 24 192 56 56 (14450688)
I0403 15:48:31.273674 20284 net.cpp:156] Memory required for data: 419071008
I0403 15:48:31.273689 20284 layer_factory.hpp:77] Creating layer pool2/3x3_s2
I0403 15:48:31.273710 20284 net.cpp:91] Creating Layer pool2/3x3_s2
I0403 15:48:31.273728 20284 net.cpp:425] pool2/3x3_s2 <- conv2/norm2
I0403 15:48:31.273746 20284 net.cpp:399] pool2/3x3_s2 -> pool2/3x3_s2
I0403 15:48:31.273799 20284 net.cpp:141] Setting up pool2/3x3_s2
I0403 15:48:31.273823 20284 net.cpp:148] Top shape: 24 192 28 28 (3612672)
I0403 15:48:31.273838 20284 net.cpp:156] Memory required for data: 433521696
I0403 15:48:31.273854 20284 layer_factory.hpp:77] Creating layer pool2/3x3_s2_pool2/3x3_s2_0_split
I0403 15:48:31.273871 20284 net.cpp:91] Creating Layer pool2/3x3_s2_pool2/3x3_s2_0_split
I0403 15:48:31.273885 20284 net.cpp:425] pool2/3x3_s2_pool2/3x3_s2_0_split <- pool2/3x3_s2
I0403 15:48:31.273905 20284 net.cpp:399] pool2/3x3_s2_pool2/3x3_s2_0_split -> pool2/3x3_s2_pool2/3x3_s2_0_split_0
I0403 15:48:31.273926 20284 net.cpp:399] pool2/3x3_s2_pool2/3x3_s2_0_split -> pool2/3x3_s2_pool2/3x3_s2_0_split_1
I0403 15:48:31.273947 20284 net.cpp:399] pool2/3x3_s2_pool2/3x3_s2_0_split -> pool2/3x3_s2_pool2/3x3_s2_0_split_2
I0403 15:48:31.273969 20284 net.cpp:399] pool2/3x3_s2_pool2/3x3_s2_0_split -> pool2/3x3_s2_pool2/3x3_s2_0_split_3
I0403 15:48:31.274044 20284 net.cpp:141] Setting up pool2/3x3_s2_pool2/3x3_s2_0_split
I0403 15:48:31.274073 20284 net.cpp:148] Top shape: 24 192 28 28 (3612672)
I0403 15:48:31.274091 20284 net.cpp:148] Top shape: 24 192 28 28 (3612672)
I0403 15:48:31.274107 20284 net.cpp:148] Top shape: 24 192 28 28 (3612672)
I0403 15:48:31.274123 20284 net.cpp:148] Top shape: 24 192 28 28 (3612672)
I0403 15:48:31.274137 20284 net.cpp:156] Memory required for data: 491324448
I0403 15:48:31.274152 20284 layer_factory.hpp:77] Creating layer inception_3a/1x1
I0403 15:48:31.274173 20284 net.cpp:91] Creating Layer inception_3a/1x1
I0403 15:48:31.274191 20284 net.cpp:425] inception_3a/1x1 <- pool2/3x3_s2_pool2/3x3_s2_0_split_0
I0403 15:48:31.274209 20284 net.cpp:399] inception_3a/1x1 -> inception_3a/1x1
I0403 15:48:31.275791 20284 net.cpp:141] Setting up inception_3a/1x1
I0403 15:48:31.275822 20284 net.cpp:148] Top shape: 24 64 28 28 (1204224)
I0403 15:48:31.275840 20284 net.cpp:156] Memory required for data: 496141344
I0403 15:48:31.275858 20284 layer_factory.hpp:77] Creating layer inception_3a/relu_1x1
I0403 15:48:31.275879 20284 net.cpp:91] Creating Layer inception_3a/relu_1x1
I0403 15:48:31.275897 20284 net.cpp:425] inception_3a/relu_1x1 <- inception_3a/1x1
I0403 15:48:31.275915 20284 net.cpp:386] inception_3a/relu_1x1 -> inception_3a/1x1 (in-place)
I0403 15:48:31.276103 20284 net.cpp:141] Setting up inception_3a/relu_1x1
I0403 15:48:31.276129 20284 net.cpp:148] Top shape: 24 64 28 28 (1204224)
I0403 15:48:31.276144 20284 net.cpp:156] Memory required for data: 500958240
I0403 15:48:31.276159 20284 layer_factory.hpp:77] Creating layer inception_3a/3x3_reduce
I0403 15:48:31.276181 20284 net.cpp:91] Creating Layer inception_3a/3x3_reduce
I0403 15:48:31.276199 20284 net.cpp:425] inception_3a/3x3_reduce <- pool2/3x3_s2_pool2/3x3_s2_0_split_1
I0403 15:48:31.276223 20284 net.cpp:399] inception_3a/3x3_reduce -> inception_3a/3x3_reduce
I0403 15:48:31.277977 20284 net.cpp:141] Setting up inception_3a/3x3_reduce
I0403 15:48:31.278010 20284 net.cpp:148] Top shape: 24 96 28 28 (1806336)
I0403 15:48:31.278029 20284 net.cpp:156] Memory required for data: 508183584
I0403 15:48:31.278064 20284 layer_factory.hpp:77] Creating layer inception_3a/relu_3x3_reduce
I0403 15:48:31.278103 20284 net.cpp:91] Creating Layer inception_3a/relu_3x3_reduce
I0403 15:48:31.278121 20284 net.cpp:425] inception_3a/relu_3x3_reduce <- inception_3a/3x3_reduce
I0403 15:48:31.278143 20284 net.cpp:386] inception_3a/relu_3x3_reduce -> inception_3a/3x3_reduce (in-place)
I0403 15:48:31.278339 20284 net.cpp:141] Setting up inception_3a/relu_3x3_reduce
I0403 15:48:31.278367 20284 net.cpp:148] Top shape: 24 96 28 28 (1806336)
I0403 15:48:31.278383 20284 net.cpp:156] Memory required for data: 515408928
I0403 15:48:31.278398 20284 layer_factory.hpp:77] Creating layer inception_3a/3x3
I0403 15:48:31.278421 20284 net.cpp:91] Creating Layer inception_3a/3x3
I0403 15:48:31.278440 20284 net.cpp:425] inception_3a/3x3 <- inception_3a/3x3_reduce
I0403 15:48:31.278463 20284 net.cpp:399] inception_3a/3x3 -> inception_3a/3x3
I0403 15:48:31.280215 20284 net.cpp:141] Setting up inception_3a/3x3
I0403 15:48:31.280246 20284 net.cpp:148] Top shape: 24 128 28 28 (2408448)
I0403 15:48:31.280264 20284 net.cpp:156] Memory required for data: 525042720
I0403 15:48:31.280282 20284 layer_factory.hpp:77] Creating layer inception_3a/relu_3x3
I0403 15:48:31.280300 20284 net.cpp:91] Creating Layer inception_3a/relu_3x3
I0403 15:48:31.280315 20284 net.cpp:425] inception_3a/relu_3x3 <- inception_3a/3x3
I0403 15:48:31.280335 20284 net.cpp:386] inception_3a/relu_3x3 -> inception_3a/3x3 (in-place)
I0403 15:48:31.280619 20284 net.cpp:141] Setting up inception_3a/relu_3x3
I0403 15:48:31.280648 20284 net.cpp:148] Top shape: 24 128 28 28 (2408448)
I0403 15:48:31.280665 20284 net.cpp:156] Memory required for data: 534676512
I0403 15:48:31.280680 20284 layer_factory.hpp:77] Creating layer inception_3a/5x5_reduce
I0403 15:48:31.280704 20284 net.cpp:91] Creating Layer inception_3a/5x5_reduce
I0403 15:48:31.280721 20284 net.cpp:425] inception_3a/5x5_reduce <- pool2/3x3_s2_pool2/3x3_s2_0_split_2
I0403 15:48:31.280740 20284 net.cpp:399] inception_3a/5x5_reduce -> inception_3a/5x5_reduce
I0403 15:48:31.281726 20284 net.cpp:141] Setting up inception_3a/5x5_reduce
I0403 15:48:31.281757 20284 net.cpp:148] Top shape: 24 16 28 28 (301056)
I0403 15:48:31.281774 20284 net.cpp:156] Memory required for data: 535880736
I0403 15:48:31.281793 20284 layer_factory.hpp:77] Creating layer inception_3a/relu_5x5_reduce
I0403 15:48:31.281811 20284 net.cpp:91] Creating Layer inception_3a/relu_5x5_reduce
I0403 15:48:31.281827 20284 net.cpp:425] inception_3a/relu_5x5_reduce <- inception_3a/5x5_reduce
I0403 15:48:31.281848 20284 net.cpp:386] inception_3a/relu_5x5_reduce -> inception_3a/5x5_reduce (in-place)
I0403 15:48:31.282156 20284 net.cpp:141] Setting up inception_3a/relu_5x5_reduce
I0403 15:48:31.282183 20284 net.cpp:148] Top shape: 24 16 28 28 (301056)
I0403 15:48:31.282198 20284 net.cpp:156] Memory required for data: 537084960
I0403 15:48:31.282214 20284 layer_factory.hpp:77] Creating layer inception_3a/5x5
I0403 15:48:31.282238 20284 net.cpp:91] Creating Layer inception_3a/5x5
I0403 15:48:31.282254 20284 net.cpp:425] inception_3a/5x5 <- inception_3a/5x5_reduce
I0403 15:48:31.282277 20284 net.cpp:399] inception_3a/5x5 -> inception_3a/5x5
I0403 15:48:31.283319 20284 net.cpp:141] Setting up inception_3a/5x5
I0403 15:48:31.283350 20284 net.cpp:148] Top shape: 24 32 28 28 (602112)
I0403 15:48:31.283367 20284 net.cpp:156] Memory required for data: 539493408
I0403 15:48:31.283385 20284 layer_factory.hpp:77] Creating layer inception_3a/relu_5x5
I0403 15:48:31.283403 20284 net.cpp:91] Creating Layer inception_3a/relu_5x5
I0403 15:48:31.283419 20284 net.cpp:425] inception_3a/relu_5x5 <- inception_3a/5x5
I0403 15:48:31.283438 20284 net.cpp:386] inception_3a/relu_5x5 -> inception_3a/5x5 (in-place)
I0403 15:48:31.283619 20284 net.cpp:141] Setting up inception_3a/relu_5x5
I0403 15:48:31.283644 20284 net.cpp:148] Top shape: 24 32 28 28 (602112)
I0403 15:48:31.283659 20284 net.cpp:156] Memory required for data: 541901856
I0403 15:48:31.283674 20284 layer_factory.hpp:77] Creating layer inception_3a/pool
I0403 15:48:31.283692 20284 net.cpp:91] Creating Layer inception_3a/pool
I0403 15:48:31.283722 20284 net.cpp:425] inception_3a/pool <- pool2/3x3_s2_pool2/3x3_s2_0_split_3
I0403 15:48:31.283745 20284 net.cpp:399] inception_3a/pool -> inception_3a/pool
I0403 15:48:31.283803 20284 net.cpp:141] Setting up inception_3a/pool
I0403 15:48:31.283826 20284 net.cpp:148] Top shape: 24 192 28 28 (3612672)
I0403 15:48:31.283841 20284 net.cpp:156] Memory required for data: 556352544
I0403 15:48:31.283856 20284 layer_factory.hpp:77] Creating layer inception_3a/pool_proj
I0403 15:48:31.283881 20284 net.cpp:91] Creating Layer inception_3a/pool_proj
I0403 15:48:31.283900 20284 net.cpp:425] inception_3a/pool_proj <- inception_3a/pool
I0403 15:48:31.283918 20284 net.cpp:399] inception_3a/pool_proj -> inception_3a/pool_proj
I0403 15:48:31.284903 20284 net.cpp:141] Setting up inception_3a/pool_proj
I0403 15:48:31.284931 20284 net.cpp:148] Top shape: 24 32 28 28 (602112)
I0403 15:48:31.284947 20284 net.cpp:156] Memory required for data: 558760992
I0403 15:48:31.284972 20284 layer_factory.hpp:77] Creating layer inception_3a/relu_pool_proj
I0403 15:48:31.284992 20284 net.cpp:91] Creating Layer inception_3a/relu_pool_proj
I0403 15:48:31.285008 20284 net.cpp:425] inception_3a/relu_pool_proj <- inception_3a/pool_proj
I0403 15:48:31.285028 20284 net.cpp:386] inception_3a/relu_pool_proj -> inception_3a/pool_proj (in-place)
I0403 15:48:31.285312 20284 net.cpp:141] Setting up inception_3a/relu_pool_proj
I0403 15:48:31.285341 20284 net.cpp:148] Top shape: 24 32 28 28 (602112)
I0403 15:48:31.285358 20284 net.cpp:156] Memory required for data: 561169440
I0403 15:48:31.285373 20284 layer_factory.hpp:77] Creating layer inception_3a/output
I0403 15:48:31.285392 20284 net.cpp:91] Creating Layer inception_3a/output
I0403 15:48:31.285408 20284 net.cpp:425] inception_3a/output <- inception_3a/1x1
I0403 15:48:31.285424 20284 net.cpp:425] inception_3a/output <- inception_3a/3x3
I0403 15:48:31.285440 20284 net.cpp:425] inception_3a/output <- inception_3a/5x5
I0403 15:48:31.285456 20284 net.cpp:425] inception_3a/output <- inception_3a/pool_proj
I0403 15:48:31.285476 20284 net.cpp:399] inception_3a/output -> inception_3a/output
I0403 15:48:31.285522 20284 net.cpp:141] Setting up inception_3a/output
I0403 15:48:31.285545 20284 net.cpp:148] Top shape: 24 256 28 28 (4816896)
I0403 15:48:31.285559 20284 net.cpp:156] Memory required for data: 580437024
I0403 15:48:31.285574 20284 layer_factory.hpp:77] Creating layer inception_3a/output_inception_3a/output_0_split
I0403 15:48:31.285595 20284 net.cpp:91] Creating Layer inception_3a/output_inception_3a/output_0_split
I0403 15:48:31.285610 20284 net.cpp:425] inception_3a/output_inception_3a/output_0_split <- inception_3a/output
I0403 15:48:31.285629 20284 net.cpp:399] inception_3a/output_inception_3a/output_0_split -> inception_3a/output_inception_3a/output_0_split_0
I0403 15:48:31.285648 20284 net.cpp:399] inception_3a/output_inception_3a/output_0_split -> inception_3a/output_inception_3a/output_0_split_1
I0403 15:48:31.285673 20284 net.cpp:399] inception_3a/output_inception_3a/output_0_split -> inception_3a/output_inception_3a/output_0_split_2
I0403 15:48:31.285694 20284 net.cpp:399] inception_3a/output_inception_3a/output_0_split -> inception_3a/output_inception_3a/output_0_split_3
I0403 15:48:31.285769 20284 net.cpp:141] Setting up inception_3a/output_inception_3a/output_0_split
I0403 15:48:31.285795 20284 net.cpp:148] Top shape: 24 256 28 28 (4816896)
I0403 15:48:31.285814 20284 net.cpp:148] Top shape: 24 256 28 28 (4816896)
I0403 15:48:31.285828 20284 net.cpp:148] Top shape: 24 256 28 28 (4816896)
I0403 15:48:31.285845 20284 net.cpp:148] Top shape: 24 256 28 28 (4816896)
I0403 15:48:31.285858 20284 net.cpp:156] Memory required for data: 657507360
I0403 15:48:31.285872 20284 layer_factory.hpp:77] Creating layer inception_3b/1x1
I0403 15:48:31.285894 20284 net.cpp:91] Creating Layer inception_3b/1x1
I0403 15:48:31.285912 20284 net.cpp:425] inception_3b/1x1 <- inception_3a/output_inception_3a/output_0_split_0
I0403 15:48:31.285931 20284 net.cpp:399] inception_3b/1x1 -> inception_3b/1x1
I0403 15:48:31.287137 20284 net.cpp:141] Setting up inception_3b/1x1
I0403 15:48:31.287178 20284 net.cpp:148] Top shape: 24 128 28 28 (2408448)
I0403 15:48:31.287196 20284 net.cpp:156] Memory required for data: 667141152
I0403 15:48:31.287215 20284 layer_factory.hpp:77] Creating layer inception_3b/relu_1x1
I0403 15:48:31.287240 20284 net.cpp:91] Creating Layer inception_3b/relu_1x1
I0403 15:48:31.287257 20284 net.cpp:425] inception_3b/relu_1x1 <- inception_3b/1x1
I0403 15:48:31.287287 20284 net.cpp:386] inception_3b/relu_1x1 -> inception_3b/1x1 (in-place)
I0403 15:48:31.287468 20284 net.cpp:141] Setting up inception_3b/relu_1x1
I0403 15:48:31.287497 20284 net.cpp:148] Top shape: 24 128 28 28 (2408448)
I0403 15:48:31.287511 20284 net.cpp:156] Memory required for data: 676774944
I0403 15:48:31.287528 20284 layer_factory.hpp:77] Creating layer inception_3b/3x3_reduce
I0403 15:48:31.287549 20284 net.cpp:91] Creating Layer inception_3b/3x3_reduce
I0403 15:48:31.287567 20284 net.cpp:425] inception_3b/3x3_reduce <- inception_3a/output_inception_3a/output_0_split_1
I0403 15:48:31.287586 20284 net.cpp:399] inception_3b/3x3_reduce -> inception_3b/3x3_reduce
I0403 15:48:31.288748 20284 net.cpp:141] Setting up inception_3b/3x3_reduce
I0403 15:48:31.288776 20284 net.cpp:148] Top shape: 24 128 28 28 (2408448)
I0403 15:48:31.288792 20284 net.cpp:156] Memory required for data: 686408736
I0403 15:48:31.288811 20284 layer_factory.hpp:77] Creating layer inception_3b/relu_3x3_reduce
I0403 15:48:31.288832 20284 net.cpp:91] Creating Layer inception_3b/relu_3x3_reduce
I0403 15:48:31.288849 20284 net.cpp:425] inception_3b/relu_3x3_reduce <- inception_3b/3x3_reduce
I0403 15:48:31.288867 20284 net.cpp:386] inception_3b/relu_3x3_reduce -> inception_3b/3x3_reduce (in-place)
I0403 15:48:31.289041 20284 net.cpp:141] Setting up inception_3b/relu_3x3_reduce
I0403 15:48:31.289072 20284 net.cpp:148] Top shape: 24 128 28 28 (2408448)
I0403 15:48:31.289088 20284 net.cpp:156] Memory required for data: 696042528
I0403 15:48:31.289103 20284 layer_factory.hpp:77] Creating layer inception_3b/3x3
I0403 15:48:31.289127 20284 net.cpp:91] Creating Layer inception_3b/3x3
I0403 15:48:31.289145 20284 net.cpp:425] inception_3b/3x3 <- inception_3b/3x3_reduce
I0403 15:48:31.289167 20284 net.cpp:399] inception_3b/3x3 -> inception_3b/3x3
I0403 15:48:31.292155 20284 net.cpp:141] Setting up inception_3b/3x3
I0403 15:48:31.292186 20284 net.cpp:148] Top shape: 24 192 28 28 (3612672)
I0403 15:48:31.292203 20284 net.cpp:156] Memory required for data: 710493216
I0403 15:48:31.292222 20284 layer_factory.hpp:77] Creating layer inception_3b/relu_3x3
I0403 15:48:31.292238 20284 net.cpp:91] Creating Layer inception_3b/relu_3x3
I0403 15:48:31.292254 20284 net.cpp:425] inception_3b/relu_3x3 <- inception_3b/3x3
I0403 15:48:31.292274 20284 net.cpp:386] inception_3b/relu_3x3 -> inception_3b/3x3 (in-place)
I0403 15:48:31.292552 20284 net.cpp:141] Setting up inception_3b/relu_3x3
I0403 15:48:31.292582 20284 net.cpp:148] Top shape: 24 192 28 28 (3612672)
I0403 15:48:31.292598 20284 net.cpp:156] Memory required for data: 724943904
I0403 15:48:31.292613 20284 layer_factory.hpp:77] Creating layer inception_3b/5x5_reduce
I0403 15:48:31.292636 20284 net.cpp:91] Creating Layer inception_3b/5x5_reduce
I0403 15:48:31.292654 20284 net.cpp:425] inception_3b/5x5_reduce <- inception_3a/output_inception_3a/output_0_split_2
I0403 15:48:31.292673 20284 net.cpp:399] inception_3b/5x5_reduce -> inception_3b/5x5_reduce
I0403 15:48:31.293663 20284 net.cpp:141] Setting up inception_3b/5x5_reduce
I0403 15:48:31.293694 20284 net.cpp:148] Top shape: 24 32 28 28 (602112)
I0403 15:48:31.293709 20284 net.cpp:156] Memory required for data: 727352352
I0403 15:48:31.293728 20284 layer_factory.hpp:77] Creating layer inception_3b/relu_5x5_reduce
I0403 15:48:31.293746 20284 net.cpp:91] Creating Layer inception_3b/relu_5x5_reduce
I0403 15:48:31.293763 20284 net.cpp:425] inception_3b/relu_5x5_reduce <- inception_3b/5x5_reduce
I0403 15:48:31.293782 20284 net.cpp:386] inception_3b/relu_5x5_reduce -> inception_3b/5x5_reduce (in-place)
I0403 15:48:31.293972 20284 net.cpp:141] Setting up inception_3b/relu_5x5_reduce
I0403 15:48:31.293997 20284 net.cpp:148] Top shape: 24 32 28 28 (602112)
I0403 15:48:31.294010 20284 net.cpp:156] Memory required for data: 729760800
I0403 15:48:31.294025 20284 layer_factory.hpp:77] Creating layer inception_3b/5x5
I0403 15:48:31.294046 20284 net.cpp:91] Creating Layer inception_3b/5x5
I0403 15:48:31.294069 20284 net.cpp:425] inception_3b/5x5 <- inception_3b/5x5_reduce
I0403 15:48:31.294093 20284 net.cpp:399] inception_3b/5x5 -> inception_3b/5x5
I0403 15:48:31.296061 20284 net.cpp:141] Setting up inception_3b/5x5
I0403 15:48:31.296089 20284 net.cpp:148] Top shape: 24 96 28 28 (1806336)
I0403 15:48:31.296105 20284 net.cpp:156] Memory required for data: 736986144
I0403 15:48:31.296123 20284 layer_factory.hpp:77] Creating layer inception_3b/relu_5x5
I0403 15:48:31.296144 20284 net.cpp:91] Creating Layer inception_3b/relu_5x5
I0403 15:48:31.296159 20284 net.cpp:425] inception_3b/relu_5x5 <- inception_3b/5x5
I0403 15:48:31.296177 20284 net.cpp:386] inception_3b/relu_5x5 -> inception_3b/5x5 (in-place)
I0403 15:48:31.296368 20284 net.cpp:141] Setting up inception_3b/relu_5x5
I0403 15:48:31.296393 20284 net.cpp:148] Top shape: 24 96 28 28 (1806336)
I0403 15:48:31.296407 20284 net.cpp:156] Memory required for data: 744211488
I0403 15:48:31.296422 20284 layer_factory.hpp:77] Creating layer inception_3b/pool
I0403 15:48:31.296438 20284 net.cpp:91] Creating Layer inception_3b/pool
I0403 15:48:31.296454 20284 net.cpp:425] inception_3b/pool <- inception_3a/output_inception_3a/output_0_split_3
I0403 15:48:31.296473 20284 net.cpp:399] inception_3b/pool -> inception_3b/pool
I0403 15:48:31.296528 20284 net.cpp:141] Setting up inception_3b/pool
I0403 15:48:31.296551 20284 net.cpp:148] Top shape: 24 256 28 28 (4816896)
I0403 15:48:31.296566 20284 net.cpp:156] Memory required for data: 763479072
I0403 15:48:31.296581 20284 layer_factory.hpp:77] Creating layer inception_3b/pool_proj
I0403 15:48:31.296602 20284 net.cpp:91] Creating Layer inception_3b/pool_proj
I0403 15:48:31.296622 20284 net.cpp:425] inception_3b/pool_proj <- inception_3b/pool
I0403 15:48:31.296639 20284 net.cpp:399] inception_3b/pool_proj -> inception_3b/pool_proj
I0403 15:48:31.297721 20284 net.cpp:141] Setting up inception_3b/pool_proj
I0403 15:48:31.297750 20284 net.cpp:148] Top shape: 24 64 28 28 (1204224)
I0403 15:48:31.297765 20284 net.cpp:156] Memory required for data: 768295968
I0403 15:48:31.297783 20284 layer_factory.hpp:77] Creating layer inception_3b/relu_pool_proj
I0403 15:48:31.297801 20284 net.cpp:91] Creating Layer inception_3b/relu_pool_proj
I0403 15:48:31.297817 20284 net.cpp:425] inception_3b/relu_pool_proj <- inception_3b/pool_proj
I0403 15:48:31.297837 20284 net.cpp:386] inception_3b/relu_pool_proj -> inception_3b/pool_proj (in-place)
I0403 15:48:31.298267 20284 net.cpp:141] Setting up inception_3b/relu_pool_proj
I0403 15:48:31.298295 20284 net.cpp:148] Top shape: 24 64 28 28 (1204224)
I0403 15:48:31.298310 20284 net.cpp:156] Memory required for data: 773112864
I0403 15:48:31.298323 20284 layer_factory.hpp:77] Creating layer inception_3b/output
I0403 15:48:31.298341 20284 net.cpp:91] Creating Layer inception_3b/output
I0403 15:48:31.298355 20284 net.cpp:425] inception_3b/output <- inception_3b/1x1
I0403 15:48:31.298372 20284 net.cpp:425] inception_3b/output <- inception_3b/3x3
I0403 15:48:31.298388 20284 net.cpp:425] inception_3b/output <- inception_3b/5x5
I0403 15:48:31.298403 20284 net.cpp:425] inception_3b/output <- inception_3b/pool_proj
I0403 15:48:31.298421 20284 net.cpp:399] inception_3b/output -> inception_3b/output
I0403 15:48:31.298465 20284 net.cpp:141] Setting up inception_3b/output
I0403 15:48:31.298491 20284 net.cpp:148] Top shape: 24 480 28 28 (9031680)
I0403 15:48:31.298506 20284 net.cpp:156] Memory required for data: 809239584
I0403 15:48:31.298521 20284 layer_factory.hpp:77] Creating layer pool3/3x3_s2
I0403 15:48:31.298538 20284 net.cpp:91] Creating Layer pool3/3x3_s2
I0403 15:48:31.298553 20284 net.cpp:425] pool3/3x3_s2 <- inception_3b/output
I0403 15:48:31.298588 20284 net.cpp:399] pool3/3x3_s2 -> pool3/3x3_s2
I0403 15:48:31.298646 20284 net.cpp:141] Setting up pool3/3x3_s2
I0403 15:48:31.298669 20284 net.cpp:148] Top shape: 24 480 14 14 (2257920)
I0403 15:48:31.298684 20284 net.cpp:156] Memory required for data: 818271264
I0403 15:48:31.298698 20284 layer_factory.hpp:77] Creating layer pool3/3x3_s2_pool3/3x3_s2_0_split
I0403 15:48:31.298717 20284 net.cpp:91] Creating Layer pool3/3x3_s2_pool3/3x3_s2_0_split
I0403 15:48:31.298732 20284 net.cpp:425] pool3/3x3_s2_pool3/3x3_s2_0_split <- pool3/3x3_s2
I0403 15:48:31.298749 20284 net.cpp:399] pool3/3x3_s2_pool3/3x3_s2_0_split -> pool3/3x3_s2_pool3/3x3_s2_0_split_0
I0403 15:48:31.298768 20284 net.cpp:399] pool3/3x3_s2_pool3/3x3_s2_0_split -> pool3/3x3_s2_pool3/3x3_s2_0_split_1
I0403 15:48:31.298786 20284 net.cpp:399] pool3/3x3_s2_pool3/3x3_s2_0_split -> pool3/3x3_s2_pool3/3x3_s2_0_split_2
I0403 15:48:31.298805 20284 net.cpp:399] pool3/3x3_s2_pool3/3x3_s2_0_split -> pool3/3x3_s2_pool3/3x3_s2_0_split_3
I0403 15:48:31.298882 20284 net.cpp:141] Setting up pool3/3x3_s2_pool3/3x3_s2_0_split
I0403 15:48:31.298905 20284 net.cpp:148] Top shape: 24 480 14 14 (2257920)
I0403 15:48:31.298921 20284 net.cpp:148] Top shape: 24 480 14 14 (2257920)
I0403 15:48:31.298936 20284 net.cpp:148] Top shape: 24 480 14 14 (2257920)
I0403 15:48:31.298959 20284 net.cpp:148] Top shape: 24 480 14 14 (2257920)
I0403 15:48:31.298974 20284 net.cpp:156] Memory required for data: 854397984
I0403 15:48:31.298987 20284 layer_factory.hpp:77] Creating layer inception_4a/1x1
I0403 15:48:31.299011 20284 net.cpp:91] Creating Layer inception_4a/1x1
I0403 15:48:31.299027 20284 net.cpp:425] inception_4a/1x1 <- pool3/3x3_s2_pool3/3x3_s2_0_split_0
I0403 15:48:31.299052 20284 net.cpp:399] inception_4a/1x1 -> inception_4a/1x1
I0403 15:48:31.300619 20284 net.cpp:141] Setting up inception_4a/1x1
I0403 15:48:31.300647 20284 net.cpp:148] Top shape: 24 192 14 14 (903168)
I0403 15:48:31.300662 20284 net.cpp:156] Memory required for data: 858010656
I0403 15:48:31.300680 20284 layer_factory.hpp:77] Creating layer inception_4a/relu_1x1
I0403 15:48:31.300700 20284 net.cpp:91] Creating Layer inception_4a/relu_1x1
I0403 15:48:31.300717 20284 net.cpp:425] inception_4a/relu_1x1 <- inception_4a/1x1
I0403 15:48:31.300737 20284 net.cpp:386] inception_4a/relu_1x1 -> inception_4a/1x1 (in-place)
I0403 15:48:31.300915 20284 net.cpp:141] Setting up inception_4a/relu_1x1
I0403 15:48:31.300942 20284 net.cpp:148] Top shape: 24 192 14 14 (903168)
I0403 15:48:31.300959 20284 net.cpp:156] Memory required for data: 861623328
I0403 15:48:31.300973 20284 layer_factory.hpp:77] Creating layer inception_4a/3x3_reduce
I0403 15:48:31.300993 20284 net.cpp:91] Creating Layer inception_4a/3x3_reduce
I0403 15:48:31.301009 20284 net.cpp:425] inception_4a/3x3_reduce <- pool3/3x3_s2_pool3/3x3_s2_0_split_1
I0403 15:48:31.301029 20284 net.cpp:399] inception_4a/3x3_reduce -> inception_4a/3x3_reduce
I0403 15:48:31.302320 20284 net.cpp:141] Setting up inception_4a/3x3_reduce
I0403 15:48:31.302347 20284 net.cpp:148] Top shape: 24 96 14 14 (451584)
I0403 15:48:31.302362 20284 net.cpp:156] Memory required for data: 863429664
I0403 15:48:31.302387 20284 layer_factory.hpp:77] Creating layer inception_4a/relu_3x3_reduce
I0403 15:48:31.302407 20284 net.cpp:91] Creating Layer inception_4a/relu_3x3_reduce
I0403 15:48:31.302423 20284 net.cpp:425] inception_4a/relu_3x3_reduce <- inception_4a/3x3_reduce
I0403 15:48:31.302443 20284 net.cpp:386] inception_4a/relu_3x3_reduce -> inception_4a/3x3_reduce (in-place)
I0403 15:48:31.302620 20284 net.cpp:141] Setting up inception_4a/relu_3x3_reduce
I0403 15:48:31.302645 20284 net.cpp:148] Top shape: 24 96 14 14 (451584)
I0403 15:48:31.302662 20284 net.cpp:156] Memory required for data: 865236000
I0403 15:48:31.302677 20284 layer_factory.hpp:77] Creating layer inception_4a/3x3
I0403 15:48:31.302698 20284 net.cpp:91] Creating Layer inception_4a/3x3
I0403 15:48:31.302716 20284 net.cpp:425] inception_4a/3x3 <- inception_4a/3x3_reduce
I0403 15:48:31.302738 20284 net.cpp:399] inception_4a/3x3 -> inception_4a/3x3
I0403 15:48:31.305510 20284 net.cpp:141] Setting up inception_4a/3x3
I0403 15:48:31.305541 20284 net.cpp:148] Top shape: 24 208 14 14 (978432)
I0403 15:48:31.305555 20284 net.cpp:156] Memory required for data: 869149728
I0403 15:48:31.305574 20284 layer_factory.hpp:77] Creating layer inception_4a/relu_3x3
I0403 15:48:31.305595 20284 net.cpp:91] Creating Layer inception_4a/relu_3x3
I0403 15:48:31.305618 20284 net.cpp:425] inception_4a/relu_3x3 <- inception_4a/3x3
I0403 15:48:31.305635 20284 net.cpp:386] inception_4a/relu_3x3 -> inception_4a/3x3 (in-place)
I0403 15:48:31.305949 20284 net.cpp:141] Setting up inception_4a/relu_3x3
I0403 15:48:31.305977 20284 net.cpp:148] Top shape: 24 208 14 14 (978432)
I0403 15:48:31.305994 20284 net.cpp:156] Memory required for data: 873063456
I0403 15:48:31.306008 20284 layer_factory.hpp:77] Creating layer inception_4a/5x5_reduce
I0403 15:48:31.306035 20284 net.cpp:91] Creating Layer inception_4a/5x5_reduce
I0403 15:48:31.306057 20284 net.cpp:425] inception_4a/5x5_reduce <- pool3/3x3_s2_pool3/3x3_s2_0_split_2
I0403 15:48:31.306080 20284 net.cpp:399] inception_4a/5x5_reduce -> inception_4a/5x5_reduce
I0403 15:48:31.307179 20284 net.cpp:141] Setting up inception_4a/5x5_reduce
I0403 15:48:31.307210 20284 net.cpp:148] Top shape: 24 16 14 14 (75264)
I0403 15:48:31.307229 20284 net.cpp:156] Memory required for data: 873364512
I0403 15:48:31.307247 20284 layer_factory.hpp:77] Creating layer inception_4a/relu_5x5_reduce
I0403 15:48:31.307266 20284 net.cpp:91] Creating Layer inception_4a/relu_5x5_reduce
I0403 15:48:31.307283 20284 net.cpp:425] inception_4a/relu_5x5_reduce <- inception_4a/5x5_reduce
I0403 15:48:31.307303 20284 net.cpp:386] inception_4a/relu_5x5_reduce -> inception_4a/5x5_reduce (in-place)
I0403 15:48:31.307505 20284 net.cpp:141] Setting up inception_4a/relu_5x5_reduce
I0403 15:48:31.307531 20284 net.cpp:148] Top shape: 24 16 14 14 (75264)
I0403 15:48:31.307546 20284 net.cpp:156] Memory required for data: 873665568
I0403 15:48:31.307561 20284 layer_factory.hpp:77] Creating layer inception_4a/5x5
I0403 15:48:31.307584 20284 net.cpp:91] Creating Layer inception_4a/5x5
I0403 15:48:31.307602 20284 net.cpp:425] inception_4a/5x5 <- inception_4a/5x5_reduce
I0403 15:48:31.307624 20284 net.cpp:399] inception_4a/5x5 -> inception_4a/5x5
I0403 15:48:31.308807 20284 net.cpp:141] Setting up inception_4a/5x5
I0403 15:48:31.308835 20284 net.cpp:148] Top shape: 24 48 14 14 (225792)
I0403 15:48:31.308852 20284 net.cpp:156] Memory required for data: 874568736
I0403 15:48:31.308871 20284 layer_factory.hpp:77] Creating layer inception_4a/relu_5x5
I0403 15:48:31.308889 20284 net.cpp:91] Creating Layer inception_4a/relu_5x5
I0403 15:48:31.308938 20284 net.cpp:425] inception_4a/relu_5x5 <- inception_4a/5x5
I0403 15:48:31.308956 20284 net.cpp:386] inception_4a/relu_5x5 -> inception_4a/5x5 (in-place)
I0403 15:48:31.309155 20284 net.cpp:141] Setting up inception_4a/relu_5x5
I0403 15:48:31.309181 20284 net.cpp:148] Top shape: 24 48 14 14 (225792)
I0403 15:48:31.309197 20284 net.cpp:156] Memory required for data: 875471904
I0403 15:48:31.309212 20284 layer_factory.hpp:77] Creating layer inception_4a/pool
I0403 15:48:31.309232 20284 net.cpp:91] Creating Layer inception_4a/pool
I0403 15:48:31.309249 20284 net.cpp:425] inception_4a/pool <- pool3/3x3_s2_pool3/3x3_s2_0_split_3
I0403 15:48:31.309268 20284 net.cpp:399] inception_4a/pool -> inception_4a/pool
I0403 15:48:31.309335 20284 net.cpp:141] Setting up inception_4a/pool
I0403 15:48:31.309360 20284 net.cpp:148] Top shape: 24 480 14 14 (2257920)
I0403 15:48:31.309376 20284 net.cpp:156] Memory required for data: 884503584
I0403 15:48:31.309391 20284 layer_factory.hpp:77] Creating layer inception_4a/pool_proj
I0403 15:48:31.309414 20284 net.cpp:91] Creating Layer inception_4a/pool_proj
I0403 15:48:31.309433 20284 net.cpp:425] inception_4a/pool_proj <- inception_4a/pool
I0403 15:48:31.309466 20284 net.cpp:399] inception_4a/pool_proj -> inception_4a/pool_proj
I0403 15:48:31.310705 20284 net.cpp:141] Setting up inception_4a/pool_proj
I0403 15:48:31.310734 20284 net.cpp:148] Top shape: 24 64 14 14 (301056)
I0403 15:48:31.310768 20284 net.cpp:156] Memory required for data: 885707808
I0403 15:48:31.310789 20284 layer_factory.hpp:77] Creating layer inception_4a/relu_pool_proj
I0403 15:48:31.310809 20284 net.cpp:91] Creating Layer inception_4a/relu_pool_proj
I0403 15:48:31.310827 20284 net.cpp:425] inception_4a/relu_pool_proj <- inception_4a/pool_proj
I0403 15:48:31.310844 20284 net.cpp:386] inception_4a/relu_pool_proj -> inception_4a/pool_proj (in-place)
I0403 15:48:31.311141 20284 net.cpp:141] Setting up inception_4a/relu_pool_proj
I0403 15:48:31.311179 20284 net.cpp:148] Top shape: 24 64 14 14 (301056)
I0403 15:48:31.311195 20284 net.cpp:156] Memory required for data: 886912032
I0403 15:48:31.311211 20284 layer_factory.hpp:77] Creating layer inception_4a/output
I0403 15:48:31.311229 20284 net.cpp:91] Creating Layer inception_4a/output
I0403 15:48:31.311246 20284 net.cpp:425] inception_4a/output <- inception_4a/1x1
I0403 15:48:31.311264 20284 net.cpp:425] inception_4a/output <- inception_4a/3x3
I0403 15:48:31.311285 20284 net.cpp:425] inception_4a/output <- inception_4a/5x5
I0403 15:48:31.311301 20284 net.cpp:425] inception_4a/output <- inception_4a/pool_proj
I0403 15:48:31.311319 20284 net.cpp:399] inception_4a/output -> inception_4a/output
I0403 15:48:31.311365 20284 net.cpp:141] Setting up inception_4a/output
I0403 15:48:31.311393 20284 net.cpp:148] Top shape: 24 512 14 14 (2408448)
I0403 15:48:31.311409 20284 net.cpp:156] Memory required for data: 896545824
I0403 15:48:31.311424 20284 layer_factory.hpp:77] Creating layer inception_4a/output_inception_4a/output_0_split
I0403 15:48:31.311455 20284 net.cpp:91] Creating Layer inception_4a/output_inception_4a/output_0_split
I0403 15:48:31.311471 20284 net.cpp:425] inception_4a/output_inception_4a/output_0_split <- inception_4a/output
I0403 15:48:31.311491 20284 net.cpp:399] inception_4a/output_inception_4a/output_0_split -> inception_4a/output_inception_4a/output_0_split_0
I0403 15:48:31.311512 20284 net.cpp:399] inception_4a/output_inception_4a/output_0_split -> inception_4a/output_inception_4a/output_0_split_1
I0403 15:48:31.311533 20284 net.cpp:399] inception_4a/output_inception_4a/output_0_split -> inception_4a/output_inception_4a/output_0_split_2
I0403 15:48:31.311554 20284 net.cpp:399] inception_4a/output_inception_4a/output_0_split -> inception_4a/output_inception_4a/output_0_split_3
I0403 15:48:31.311573 20284 net.cpp:399] inception_4a/output_inception_4a/output_0_split -> inception_4a/output_inception_4a/output_0_split_4
I0403 15:48:31.311668 20284 net.cpp:141] Setting up inception_4a/output_inception_4a/output_0_split
I0403 15:48:31.311692 20284 net.cpp:148] Top shape: 24 512 14 14 (2408448)
I0403 15:48:31.311714 20284 net.cpp:148] Top shape: 24 512 14 14 (2408448)
I0403 15:48:31.311733 20284 net.cpp:148] Top shape: 24 512 14 14 (2408448)
I0403 15:48:31.311748 20284 net.cpp:148] Top shape: 24 512 14 14 (2408448)
I0403 15:48:31.311764 20284 net.cpp:148] Top shape: 24 512 14 14 (2408448)
I0403 15:48:31.311779 20284 net.cpp:156] Memory required for data: 944714784
I0403 15:48:31.311792 20284 layer_factory.hpp:77] Creating layer loss1/ave_pool
I0403 15:48:31.311810 20284 net.cpp:91] Creating Layer loss1/ave_pool
I0403 15:48:31.311827 20284 net.cpp:425] loss1/ave_pool <- inception_4a/output_inception_4a/output_0_split_0
I0403 15:48:31.311847 20284 net.cpp:399] loss1/ave_pool -> loss1/ave_pool
I0403 15:48:31.312069 20284 net.cpp:141] Setting up loss1/ave_pool
I0403 15:48:31.312095 20284 net.cpp:148] Top shape: 24 512 4 4 (196608)
I0403 15:48:31.312110 20284 net.cpp:156] Memory required for data: 945501216
I0403 15:48:31.312125 20284 layer_factory.hpp:77] Creating layer loss1/conv
I0403 15:48:31.312147 20284 net.cpp:91] Creating Layer loss1/conv
I0403 15:48:31.312178 20284 net.cpp:425] loss1/conv <- loss1/ave_pool
I0403 15:48:31.312199 20284 net.cpp:399] loss1/conv -> loss1/conv
I0403 15:48:31.313717 20284 net.cpp:141] Setting up loss1/conv
I0403 15:48:31.313746 20284 net.cpp:148] Top shape: 24 128 4 4 (49152)
I0403 15:48:31.313776 20284 net.cpp:156] Memory required for data: 945697824
I0403 15:48:31.313796 20284 layer_factory.hpp:77] Creating layer loss1/relu_conv
I0403 15:48:31.313818 20284 net.cpp:91] Creating Layer loss1/relu_conv
I0403 15:48:31.313835 20284 net.cpp:425] loss1/relu_conv <- loss1/conv
I0403 15:48:31.313853 20284 net.cpp:386] loss1/relu_conv -> loss1/conv (in-place)
I0403 15:48:31.314147 20284 net.cpp:141] Setting up loss1/relu_conv
I0403 15:48:31.314174 20284 net.cpp:148] Top shape: 24 128 4 4 (49152)
I0403 15:48:31.314189 20284 net.cpp:156] Memory required for data: 945894432
I0403 15:48:31.314204 20284 layer_factory.hpp:77] Creating layer loss1/fc
I0403 15:48:31.314230 20284 net.cpp:91] Creating Layer loss1/fc
I0403 15:48:31.314249 20284 net.cpp:425] loss1/fc <- loss1/conv
I0403 15:48:31.314271 20284 net.cpp:399] loss1/fc -> loss1/fc
I0403 15:48:31.331737 20284 net.cpp:141] Setting up loss1/fc
I0403 15:48:31.331773 20284 net.cpp:148] Top shape: 24 1024 (24576)
I0403 15:48:31.331790 20284 net.cpp:156] Memory required for data: 945992736
I0403 15:48:31.331809 20284 layer_factory.hpp:77] Creating layer loss1/relu_fc
I0403 15:48:31.331825 20284 net.cpp:91] Creating Layer loss1/relu_fc
I0403 15:48:31.331841 20284 net.cpp:425] loss1/relu_fc <- loss1/fc
I0403 15:48:31.331861 20284 net.cpp:386] loss1/relu_fc -> loss1/fc (in-place)
I0403 15:48:31.332052 20284 net.cpp:141] Setting up loss1/relu_fc
I0403 15:48:31.332083 20284 net.cpp:148] Top shape: 24 1024 (24576)
I0403 15:48:31.332100 20284 net.cpp:156] Memory required for data: 946091040
I0403 15:48:31.332114 20284 layer_factory.hpp:77] Creating layer loss1/drop_fc
I0403 15:48:31.332142 20284 net.cpp:91] Creating Layer loss1/drop_fc
I0403 15:48:31.332159 20284 net.cpp:425] loss1/drop_fc <- loss1/fc
I0403 15:48:31.332176 20284 net.cpp:386] loss1/drop_fc -> loss1/fc (in-place)
I0403 15:48:31.332227 20284 net.cpp:141] Setting up loss1/drop_fc
I0403 15:48:31.332249 20284 net.cpp:148] Top shape: 24 1024 (24576)
I0403 15:48:31.332263 20284 net.cpp:156] Memory required for data: 946189344
I0403 15:48:31.332278 20284 layer_factory.hpp:77] Creating layer loss1/classifier_plantvillage
I0403 15:48:31.332295 20284 net.cpp:91] Creating Layer loss1/classifier_plantvillage
I0403 15:48:31.332309 20284 net.cpp:425] loss1/classifier_plantvillage <- loss1/fc
I0403 15:48:31.332330 20284 net.cpp:399] loss1/classifier_plantvillage -> loss1/classifier_plantvillage
I0403 15:48:31.333211 20284 net.cpp:141] Setting up loss1/classifier_plantvillage
I0403 15:48:31.333240 20284 net.cpp:148] Top shape: 24 38 (912)
I0403 15:48:31.333253 20284 net.cpp:156] Memory required for data: 946192992
I0403 15:48:31.333271 20284 layer_factory.hpp:77] Creating layer loss1/classifier_plantvillage_loss1/classifier_plantvillage_0_split
I0403 15:48:31.333289 20284 net.cpp:91] Creating Layer loss1/classifier_plantvillage_loss1/classifier_plantvillage_0_split
I0403 15:48:31.333305 20284 net.cpp:425] loss1/classifier_plantvillage_loss1/classifier_plantvillage_0_split <- loss1/classifier_plantvillage
I0403 15:48:31.333323 20284 net.cpp:399] loss1/classifier_plantvillage_loss1/classifier_plantvillage_0_split -> loss1/classifier_plantvillage_loss1/classifier_plantvillage_0_split_0
I0403 15:48:31.333343 20284 net.cpp:399] loss1/classifier_plantvillage_loss1/classifier_plantvillage_0_split -> loss1/classifier_plantvillage_loss1/classifier_plantvillage_0_split_1
I0403 15:48:31.333362 20284 net.cpp:399] loss1/classifier_plantvillage_loss1/classifier_plantvillage_0_split -> loss1/classifier_plantvillage_loss1/classifier_plantvillage_0_split_2
I0403 15:48:31.333427 20284 net.cpp:141] Setting up loss1/classifier_plantvillage_loss1/classifier_plantvillage_0_split
I0403 15:48:31.333451 20284 net.cpp:148] Top shape: 24 38 (912)
I0403 15:48:31.333466 20284 net.cpp:148] Top shape: 24 38 (912)
I0403 15:48:31.333480 20284 net.cpp:148] Top shape: 24 38 (912)
I0403 15:48:31.333494 20284 net.cpp:156] Memory required for data: 946203936
I0403 15:48:31.333508 20284 layer_factory.hpp:77] Creating layer inception_4b/1x1
I0403 15:48:31.333529 20284 net.cpp:91] Creating Layer inception_4b/1x1
I0403 15:48:31.333559 20284 net.cpp:425] inception_4b/1x1 <- inception_4a/output_inception_4a/output_0_split_1
I0403 15:48:31.333580 20284 net.cpp:399] inception_4b/1x1 -> inception_4b/1x1
I0403 15:48:31.335206 20284 net.cpp:141] Setting up inception_4b/1x1
I0403 15:48:31.335233 20284 net.cpp:148] Top shape: 24 160 14 14 (752640)
I0403 15:48:31.335248 20284 net.cpp:156] Memory required for data: 949214496
I0403 15:48:31.335265 20284 layer_factory.hpp:77] Creating layer inception_4b/relu_1x1
I0403 15:48:31.335284 20284 net.cpp:91] Creating Layer inception_4b/relu_1x1
I0403 15:48:31.335300 20284 net.cpp:425] inception_4b/relu_1x1 <- inception_4b/1x1
I0403 15:48:31.335317 20284 net.cpp:386] inception_4b/relu_1x1 -> inception_4b/1x1 (in-place)
I0403 15:48:31.335494 20284 net.cpp:141] Setting up inception_4b/relu_1x1
I0403 15:48:31.335518 20284 net.cpp:148] Top shape: 24 160 14 14 (752640)
I0403 15:48:31.335531 20284 net.cpp:156] Memory required for data: 952225056
I0403 15:48:31.335546 20284 layer_factory.hpp:77] Creating layer inception_4b/3x3_reduce
I0403 15:48:31.335571 20284 net.cpp:91] Creating Layer inception_4b/3x3_reduce
I0403 15:48:31.335588 20284 net.cpp:425] inception_4b/3x3_reduce <- inception_4a/output_inception_4a/output_0_split_2
I0403 15:48:31.335608 20284 net.cpp:399] inception_4b/3x3_reduce -> inception_4b/3x3_reduce
I0403 15:48:31.336967 20284 net.cpp:141] Setting up inception_4b/3x3_reduce
I0403 15:48:31.336994 20284 net.cpp:148] Top shape: 24 112 14 14 (526848)
I0403 15:48:31.337008 20284 net.cpp:156] Memory required for data: 954332448
I0403 15:48:31.337026 20284 layer_factory.hpp:77] Creating layer inception_4b/relu_3x3_reduce
I0403 15:48:31.337044 20284 net.cpp:91] Creating Layer inception_4b/relu_3x3_reduce
I0403 15:48:31.337064 20284 net.cpp:425] inception_4b/relu_3x3_reduce <- inception_4b/3x3_reduce
I0403 15:48:31.337083 20284 net.cpp:386] inception_4b/relu_3x3_reduce -> inception_4b/3x3_reduce (in-place)
I0403 15:48:31.337362 20284 net.cpp:141] Setting up inception_4b/relu_3x3_reduce
I0403 15:48:31.337386 20284 net.cpp:148] Top shape: 24 112 14 14 (526848)
I0403 15:48:31.337400 20284 net.cpp:156] Memory required for data: 956439840
I0403 15:48:31.337414 20284 layer_factory.hpp:77] Creating layer inception_4b/3x3
I0403 15:48:31.337435 20284 net.cpp:91] Creating Layer inception_4b/3x3
I0403 15:48:31.337452 20284 net.cpp:425] inception_4b/3x3 <- inception_4b/3x3_reduce
I0403 15:48:31.337473 20284 net.cpp:399] inception_4b/3x3 -> inception_4b/3x3
I0403 15:48:31.340402 20284 net.cpp:141] Setting up inception_4b/3x3
I0403 15:48:31.340431 20284 net.cpp:148] Top shape: 24 224 14 14 (1053696)
I0403 15:48:31.340445 20284 net.cpp:156] Memory required for data: 960654624
I0403 15:48:31.340463 20284 layer_factory.hpp:77] Creating layer inception_4b/relu_3x3
I0403 15:48:31.340482 20284 net.cpp:91] Creating Layer inception_4b/relu_3x3
I0403 15:48:31.340498 20284 net.cpp:425] inception_4b/relu_3x3 <- inception_4b/3x3
I0403 15:48:31.340514 20284 net.cpp:386] inception_4b/relu_3x3 -> inception_4b/3x3 (in-place)
I0403 15:48:31.340695 20284 net.cpp:141] Setting up inception_4b/relu_3x3
I0403 15:48:31.340721 20284 net.cpp:148] Top shape: 24 224 14 14 (1053696)
I0403 15:48:31.340736 20284 net.cpp:156] Memory required for data: 964869408
I0403 15:48:31.340750 20284 layer_factory.hpp:77] Creating layer inception_4b/5x5_reduce
I0403 15:48:31.340771 20284 net.cpp:91] Creating Layer inception_4b/5x5_reduce
I0403 15:48:31.340790 20284 net.cpp:425] inception_4b/5x5_reduce <- inception_4a/output_inception_4a/output_0_split_3
I0403 15:48:31.340807 20284 net.cpp:399] inception_4b/5x5_reduce -> inception_4b/5x5_reduce
I0403 15:48:31.341907 20284 net.cpp:141] Setting up inception_4b/5x5_reduce
I0403 15:48:31.341938 20284 net.cpp:148] Top shape: 24 24 14 14 (112896)
I0403 15:48:31.341953 20284 net.cpp:156] Memory required for data: 965320992
I0403 15:48:31.341970 20284 layer_factory.hpp:77] Creating layer inception_4b/relu_5x5_reduce
I0403 15:48:31.341989 20284 net.cpp:91] Creating Layer inception_4b/relu_5x5_reduce
I0403 15:48:31.342018 20284 net.cpp:425] inception_4b/relu_5x5_reduce <- inception_4b/5x5_reduce
I0403 15:48:31.342036 20284 net.cpp:386] inception_4b/relu_5x5_reduce -> inception_4b/5x5_reduce (in-place)
I0403 15:48:31.342221 20284 net.cpp:141] Setting up inception_4b/relu_5x5_reduce
I0403 15:48:31.342245 20284 net.cpp:148] Top shape: 24 24 14 14 (112896)
I0403 15:48:31.342259 20284 net.cpp:156] Memory required for data: 965772576
I0403 15:48:31.342273 20284 layer_factory.hpp:77] Creating layer inception_4b/5x5
I0403 15:48:31.342294 20284 net.cpp:91] Creating Layer inception_4b/5x5
I0403 15:48:31.342310 20284 net.cpp:425] inception_4b/5x5 <- inception_4b/5x5_reduce
I0403 15:48:31.342331 20284 net.cpp:399] inception_4b/5x5 -> inception_4b/5x5
I0403 15:48:31.343534 20284 net.cpp:141] Setting up inception_4b/5x5
I0403 15:48:31.343561 20284 net.cpp:148] Top shape: 24 64 14 14 (301056)
I0403 15:48:31.343576 20284 net.cpp:156] Memory required for data: 966976800
I0403 15:48:31.343593 20284 layer_factory.hpp:77] Creating layer inception_4b/relu_5x5
I0403 15:48:31.343613 20284 net.cpp:91] Creating Layer inception_4b/relu_5x5
I0403 15:48:31.343629 20284 net.cpp:425] inception_4b/relu_5x5 <- inception_4b/5x5
I0403 15:48:31.343646 20284 net.cpp:386] inception_4b/relu_5x5 -> inception_4b/5x5 (in-place)
I0403 15:48:31.343929 20284 net.cpp:141] Setting up inception_4b/relu_5x5
I0403 15:48:31.343953 20284 net.cpp:148] Top shape: 24 64 14 14 (301056)
I0403 15:48:31.343968 20284 net.cpp:156] Memory required for data: 968181024
I0403 15:48:31.343982 20284 layer_factory.hpp:77] Creating layer inception_4b/pool
I0403 15:48:31.344004 20284 net.cpp:91] Creating Layer inception_4b/pool
I0403 15:48:31.344022 20284 net.cpp:425] inception_4b/pool <- inception_4a/output_inception_4a/output_0_split_4
I0403 15:48:31.344041 20284 net.cpp:399] inception_4b/pool -> inception_4b/pool
I0403 15:48:31.344108 20284 net.cpp:141] Setting up inception_4b/pool
I0403 15:48:31.344130 20284 net.cpp:148] Top shape: 24 512 14 14 (2408448)
I0403 15:48:31.344144 20284 net.cpp:156] Memory required for data: 977814816
I0403 15:48:31.344158 20284 layer_factory.hpp:77] Creating layer inception_4b/pool_proj
I0403 15:48:31.344179 20284 net.cpp:91] Creating Layer inception_4b/pool_proj
I0403 15:48:31.344197 20284 net.cpp:425] inception_4b/pool_proj <- inception_4b/pool
I0403 15:48:31.344216 20284 net.cpp:399] inception_4b/pool_proj -> inception_4b/pool_proj
I0403 15:48:31.345393 20284 net.cpp:141] Setting up inception_4b/pool_proj
I0403 15:48:31.345422 20284 net.cpp:148] Top shape: 24 64 14 14 (301056)
I0403 15:48:31.345438 20284 net.cpp:156] Memory required for data: 979019040
I0403 15:48:31.345455 20284 layer_factory.hpp:77] Creating layer inception_4b/relu_pool_proj
I0403 15:48:31.345473 20284 net.cpp:91] Creating Layer inception_4b/relu_pool_proj
I0403 15:48:31.345487 20284 net.cpp:425] inception_4b/relu_pool_proj <- inception_4b/pool_proj
I0403 15:48:31.345506 20284 net.cpp:386] inception_4b/relu_pool_proj -> inception_4b/pool_proj (in-place)
I0403 15:48:31.345682 20284 net.cpp:141] Setting up inception_4b/relu_pool_proj
I0403 15:48:31.345706 20284 net.cpp:148] Top shape: 24 64 14 14 (301056)
I0403 15:48:31.345721 20284 net.cpp:156] Memory required for data: 980223264
I0403 15:48:31.345736 20284 layer_factory.hpp:77] Creating layer inception_4b/output
I0403 15:48:31.345752 20284 net.cpp:91] Creating Layer inception_4b/output
I0403 15:48:31.345767 20284 net.cpp:425] inception_4b/output <- inception_4b/1x1
I0403 15:48:31.345782 20284 net.cpp:425] inception_4b/output <- inception_4b/3x3
I0403 15:48:31.345798 20284 net.cpp:425] inception_4b/output <- inception_4b/5x5
I0403 15:48:31.345813 20284 net.cpp:425] inception_4b/output <- inception_4b/pool_proj
I0403 15:48:31.345831 20284 net.cpp:399] inception_4b/output -> inception_4b/output
I0403 15:48:31.345875 20284 net.cpp:141] Setting up inception_4b/output
I0403 15:48:31.345901 20284 net.cpp:148] Top shape: 24 512 14 14 (2408448)
I0403 15:48:31.345916 20284 net.cpp:156] Memory required for data: 989857056
I0403 15:48:31.345943 20284 layer_factory.hpp:77] Creating layer inception_4b/output_inception_4b/output_0_split
I0403 15:48:31.345963 20284 net.cpp:91] Creating Layer inception_4b/output_inception_4b/output_0_split
I0403 15:48:31.345978 20284 net.cpp:425] inception_4b/output_inception_4b/output_0_split <- inception_4b/output
I0403 15:48:31.345993 20284 net.cpp:399] inception_4b/output_inception_4b/output_0_split -> inception_4b/output_inception_4b/output_0_split_0
I0403 15:48:31.346015 20284 net.cpp:399] inception_4b/output_inception_4b/output_0_split -> inception_4b/output_inception_4b/output_0_split_1
I0403 15:48:31.346036 20284 net.cpp:399] inception_4b/output_inception_4b/output_0_split -> inception_4b/output_inception_4b/output_0_split_2
I0403 15:48:31.346060 20284 net.cpp:399] inception_4b/output_inception_4b/output_0_split -> inception_4b/output_inception_4b/output_0_split_3
I0403 15:48:31.346143 20284 net.cpp:141] Setting up inception_4b/output_inception_4b/output_0_split
I0403 15:48:31.346165 20284 net.cpp:148] Top shape: 24 512 14 14 (2408448)
I0403 15:48:31.346181 20284 net.cpp:148] Top shape: 24 512 14 14 (2408448)
I0403 15:48:31.346195 20284 net.cpp:148] Top shape: 24 512 14 14 (2408448)
I0403 15:48:31.346210 20284 net.cpp:148] Top shape: 24 512 14 14 (2408448)
I0403 15:48:31.346223 20284 net.cpp:156] Memory required for data: 1028392224
I0403 15:48:31.346236 20284 layer_factory.hpp:77] Creating layer inception_4c/1x1
I0403 15:48:31.346258 20284 net.cpp:91] Creating Layer inception_4c/1x1
I0403 15:48:31.346276 20284 net.cpp:425] inception_4c/1x1 <- inception_4b/output_inception_4b/output_0_split_0
I0403 15:48:31.346293 20284 net.cpp:399] inception_4c/1x1 -> inception_4c/1x1
I0403 15:48:31.347702 20284 net.cpp:141] Setting up inception_4c/1x1
I0403 15:48:31.347728 20284 net.cpp:148] Top shape: 24 128 14 14 (602112)
I0403 15:48:31.347743 20284 net.cpp:156] Memory required for data: 1030800672
I0403 15:48:31.347760 20284 layer_factory.hpp:77] Creating layer inception_4c/relu_1x1
I0403 15:48:31.347777 20284 net.cpp:91] Creating Layer inception_4c/relu_1x1
I0403 15:48:31.347792 20284 net.cpp:425] inception_4c/relu_1x1 <- inception_4c/1x1
I0403 15:48:31.347811 20284 net.cpp:386] inception_4c/relu_1x1 -> inception_4c/1x1 (in-place)
I0403 15:48:31.347988 20284 net.cpp:141] Setting up inception_4c/relu_1x1
I0403 15:48:31.348012 20284 net.cpp:148] Top shape: 24 128 14 14 (602112)
I0403 15:48:31.348026 20284 net.cpp:156] Memory required for data: 1033209120
I0403 15:48:31.348039 20284 layer_factory.hpp:77] Creating layer inception_4c/3x3_reduce
I0403 15:48:31.348073 20284 net.cpp:91] Creating Layer inception_4c/3x3_reduce
I0403 15:48:31.348091 20284 net.cpp:425] inception_4c/3x3_reduce <- inception_4b/output_inception_4b/output_0_split_1
I0403 15:48:31.348114 20284 net.cpp:399] inception_4c/3x3_reduce -> inception_4c/3x3_reduce
I0403 15:48:31.350023 20284 net.cpp:141] Setting up inception_4c/3x3_reduce
I0403 15:48:31.350055 20284 net.cpp:148] Top shape: 24 128 14 14 (602112)
I0403 15:48:31.350074 20284 net.cpp:156] Memory required for data: 1035617568
I0403 15:48:31.350091 20284 layer_factory.hpp:77] Creating layer inception_4c/relu_3x3_reduce
I0403 15:48:31.350109 20284 net.cpp:91] Creating Layer inception_4c/relu_3x3_reduce
I0403 15:48:31.350124 20284 net.cpp:425] inception_4c/relu_3x3_reduce <- inception_4c/3x3_reduce
I0403 15:48:31.350141 20284 net.cpp:386] inception_4c/relu_3x3_reduce -> inception_4c/3x3_reduce (in-place)
I0403 15:48:31.350430 20284 net.cpp:141] Setting up inception_4c/relu_3x3_reduce
I0403 15:48:31.350457 20284 net.cpp:148] Top shape: 24 128 14 14 (602112)
I0403 15:48:31.350472 20284 net.cpp:156] Memory required for data: 1038026016
I0403 15:48:31.350486 20284 layer_factory.hpp:77] Creating layer inception_4c/3x3
I0403 15:48:31.350505 20284 net.cpp:91] Creating Layer inception_4c/3x3
I0403 15:48:31.350522 20284 net.cpp:425] inception_4c/3x3 <- inception_4c/3x3_reduce
I0403 15:48:31.350543 20284 net.cpp:399] inception_4c/3x3 -> inception_4c/3x3
I0403 15:48:31.354217 20284 net.cpp:141] Setting up inception_4c/3x3
I0403 15:48:31.354260 20284 net.cpp:148] Top shape: 24 256 14 14 (1204224)
I0403 15:48:31.354277 20284 net.cpp:156] Memory required for data: 1042842912
I0403 15:48:31.354310 20284 layer_factory.hpp:77] Creating layer inception_4c/relu_3x3
I0403 15:48:31.354331 20284 net.cpp:91] Creating Layer inception_4c/relu_3x3
I0403 15:48:31.354346 20284 net.cpp:425] inception_4c/relu_3x3 <- inception_4c/3x3
I0403 15:48:31.354365 20284 net.cpp:386] inception_4c/relu_3x3 -> inception_4c/3x3 (in-place)
I0403 15:48:31.354549 20284 net.cpp:141] Setting up inception_4c/relu_3x3
I0403 15:48:31.354576 20284 net.cpp:148] Top shape: 24 256 14 14 (1204224)
I0403 15:48:31.354593 20284 net.cpp:156] Memory required for data: 1047659808
I0403 15:48:31.354607 20284 layer_factory.hpp:77] Creating layer inception_4c/5x5_reduce
I0403 15:48:31.354632 20284 net.cpp:91] Creating Layer inception_4c/5x5_reduce
I0403 15:48:31.354650 20284 net.cpp:425] inception_4c/5x5_reduce <- inception_4b/output_inception_4b/output_0_split_2
I0403 15:48:31.354670 20284 net.cpp:399] inception_4c/5x5_reduce -> inception_4c/5x5_reduce
I0403 15:48:31.355777 20284 net.cpp:141] Setting up inception_4c/5x5_reduce
I0403 15:48:31.355808 20284 net.cpp:148] Top shape: 24 24 14 14 (112896)
I0403 15:48:31.355823 20284 net.cpp:156] Memory required for data: 1048111392
I0403 15:48:31.355840 20284 layer_factory.hpp:77] Creating layer inception_4c/relu_5x5_reduce
I0403 15:48:31.355859 20284 net.cpp:91] Creating Layer inception_4c/relu_5x5_reduce
I0403 15:48:31.355873 20284 net.cpp:425] inception_4c/relu_5x5_reduce <- inception_4c/5x5_reduce
I0403 15:48:31.355890 20284 net.cpp:386] inception_4c/relu_5x5_reduce -> inception_4c/5x5_reduce (in-place)
I0403 15:48:31.356086 20284 net.cpp:141] Setting up inception_4c/relu_5x5_reduce
I0403 15:48:31.356109 20284 net.cpp:148] Top shape: 24 24 14 14 (112896)
I0403 15:48:31.356123 20284 net.cpp:156] Memory required for data: 1048562976
I0403 15:48:31.356138 20284 layer_factory.hpp:77] Creating layer inception_4c/5x5
I0403 15:48:31.356159 20284 net.cpp:91] Creating Layer inception_4c/5x5
I0403 15:48:31.356176 20284 net.cpp:425] inception_4c/5x5 <- inception_4c/5x5_reduce
I0403 15:48:31.356197 20284 net.cpp:399] inception_4c/5x5 -> inception_4c/5x5
I0403 15:48:31.357475 20284 net.cpp:141] Setting up inception_4c/5x5
I0403 15:48:31.357504 20284 net.cpp:148] Top shape: 24 64 14 14 (301056)
I0403 15:48:31.357520 20284 net.cpp:156] Memory required for data: 1049767200
I0403 15:48:31.357538 20284 layer_factory.hpp:77] Creating layer inception_4c/relu_5x5
I0403 15:48:31.357556 20284 net.cpp:91] Creating Layer inception_4c/relu_5x5
I0403 15:48:31.357573 20284 net.cpp:425] inception_4c/relu_5x5 <- inception_4c/5x5
I0403 15:48:31.357592 20284 net.cpp:386] inception_4c/relu_5x5 -> inception_4c/5x5 (in-place)
I0403 15:48:31.357894 20284 net.cpp:141] Setting up inception_4c/relu_5x5
I0403 15:48:31.357920 20284 net.cpp:148] Top shape: 24 64 14 14 (301056)
I0403 15:48:31.357936 20284 net.cpp:156] Memory required for data: 1050971424
I0403 15:48:31.357951 20284 layer_factory.hpp:77] Creating layer inception_4c/pool
I0403 15:48:31.357970 20284 net.cpp:91] Creating Layer inception_4c/pool
I0403 15:48:31.357986 20284 net.cpp:425] inception_4c/pool <- inception_4b/output_inception_4b/output_0_split_3
I0403 15:48:31.358008 20284 net.cpp:399] inception_4c/pool -> inception_4c/pool
I0403 15:48:31.358091 20284 net.cpp:141] Setting up inception_4c/pool
I0403 15:48:31.358116 20284 net.cpp:148] Top shape: 24 512 14 14 (2408448)
I0403 15:48:31.358131 20284 net.cpp:156] Memory required for data: 1060605216
I0403 15:48:31.358146 20284 layer_factory.hpp:77] Creating layer inception_4c/pool_proj
I0403 15:48:31.358173 20284 net.cpp:91] Creating Layer inception_4c/pool_proj
I0403 15:48:31.358191 20284 net.cpp:425] inception_4c/pool_proj <- inception_4c/pool
I0403 15:48:31.358211 20284 net.cpp:399] inception_4c/pool_proj -> inception_4c/pool_proj
I0403 15:48:31.359495 20284 net.cpp:141] Setting up inception_4c/pool_proj
I0403 15:48:31.359527 20284 net.cpp:148] Top shape: 24 64 14 14 (301056)
I0403 15:48:31.359557 20284 net.cpp:156] Memory required for data: 1061809440
I0403 15:48:31.359577 20284 layer_factory.hpp:77] Creating layer inception_4c/relu_pool_proj
I0403 15:48:31.359596 20284 net.cpp:91] Creating Layer inception_4c/relu_pool_proj
I0403 15:48:31.359612 20284 net.cpp:425] inception_4c/relu_pool_proj <- inception_4c/pool_proj
I0403 15:48:31.359632 20284 net.cpp:386] inception_4c/relu_pool_proj -> inception_4c/pool_proj (in-place)
I0403 15:48:31.359822 20284 net.cpp:141] Setting up inception_4c/relu_pool_proj
I0403 15:48:31.359848 20284 net.cpp:148] Top shape: 24 64 14 14 (301056)
I0403 15:48:31.359861 20284 net.cpp:156] Memory required for data: 1063013664
I0403 15:48:31.359876 20284 layer_factory.hpp:77] Creating layer inception_4c/output
I0403 15:48:31.359894 20284 net.cpp:91] Creating Layer inception_4c/output
I0403 15:48:31.359910 20284 net.cpp:425] inception_4c/output <- inception_4c/1x1
I0403 15:48:31.359925 20284 net.cpp:425] inception_4c/output <- inception_4c/3x3
I0403 15:48:31.359941 20284 net.cpp:425] inception_4c/output <- inception_4c/5x5
I0403 15:48:31.359958 20284 net.cpp:425] inception_4c/output <- inception_4c/pool_proj
I0403 15:48:31.359978 20284 net.cpp:399] inception_4c/output -> inception_4c/output
I0403 15:48:31.360026 20284 net.cpp:141] Setting up inception_4c/output
I0403 15:48:31.360056 20284 net.cpp:148] Top shape: 24 512 14 14 (2408448)
I0403 15:48:31.360074 20284 net.cpp:156] Memory required for data: 1072647456
I0403 15:48:31.360090 20284 layer_factory.hpp:77] Creating layer inception_4c/output_inception_4c/output_0_split
I0403 15:48:31.360106 20284 net.cpp:91] Creating Layer inception_4c/output_inception_4c/output_0_split
I0403 15:48:31.360122 20284 net.cpp:425] inception_4c/output_inception_4c/output_0_split <- inception_4c/output
I0403 15:48:31.360139 20284 net.cpp:399] inception_4c/output_inception_4c/output_0_split -> inception_4c/output_inception_4c/output_0_split_0
I0403 15:48:31.360162 20284 net.cpp:399] inception_4c/output_inception_4c/output_0_split -> inception_4c/output_inception_4c/output_0_split_1
I0403 15:48:31.360183 20284 net.cpp:399] inception_4c/output_inception_4c/output_0_split -> inception_4c/output_inception_4c/output_0_split_2
I0403 15:48:31.360203 20284 net.cpp:399] inception_4c/output_inception_4c/output_0_split -> inception_4c/output_inception_4c/output_0_split_3
I0403 15:48:31.360294 20284 net.cpp:141] Setting up inception_4c/output_inception_4c/output_0_split
I0403 15:48:31.360318 20284 net.cpp:148] Top shape: 24 512 14 14 (2408448)
I0403 15:48:31.360335 20284 net.cpp:148] Top shape: 24 512 14 14 (2408448)
I0403 15:48:31.360350 20284 net.cpp:148] Top shape: 24 512 14 14 (2408448)
I0403 15:48:31.360366 20284 net.cpp:148] Top shape: 24 512 14 14 (2408448)
I0403 15:48:31.360380 20284 net.cpp:156] Memory required for data: 1111182624
I0403 15:48:31.360394 20284 layer_factory.hpp:77] Creating layer inception_4d/1x1
I0403 15:48:31.360416 20284 net.cpp:91] Creating Layer inception_4d/1x1
I0403 15:48:31.360435 20284 net.cpp:425] inception_4d/1x1 <- inception_4c/output_inception_4c/output_0_split_0
I0403 15:48:31.360455 20284 net.cpp:399] inception_4d/1x1 -> inception_4d/1x1
I0403 15:48:31.361902 20284 net.cpp:141] Setting up inception_4d/1x1
I0403 15:48:31.361932 20284 net.cpp:148] Top shape: 24 112 14 14 (526848)
I0403 15:48:31.361946 20284 net.cpp:156] Memory required for data: 1113290016
I0403 15:48:31.361966 20284 layer_factory.hpp:77] Creating layer inception_4d/relu_1x1
I0403 15:48:31.361986 20284 net.cpp:91] Creating Layer inception_4d/relu_1x1
I0403 15:48:31.362004 20284 net.cpp:425] inception_4d/relu_1x1 <- inception_4d/1x1
I0403 15:48:31.362021 20284 net.cpp:386] inception_4d/relu_1x1 -> inception_4d/1x1 (in-place)
I0403 15:48:31.362217 20284 net.cpp:141] Setting up inception_4d/relu_1x1
I0403 15:48:31.362244 20284 net.cpp:148] Top shape: 24 112 14 14 (526848)
I0403 15:48:31.362260 20284 net.cpp:156] Memory required for data: 1115397408
I0403 15:48:31.362277 20284 layer_factory.hpp:77] Creating layer inception_4d/3x3_reduce
I0403 15:48:31.362315 20284 net.cpp:91] Creating Layer inception_4d/3x3_reduce
I0403 15:48:31.362335 20284 net.cpp:425] inception_4d/3x3_reduce <- inception_4c/output_inception_4c/output_0_split_1
I0403 15:48:31.362354 20284 net.cpp:399] inception_4d/3x3_reduce -> inception_4d/3x3_reduce
I0403 15:48:31.363932 20284 net.cpp:141] Setting up inception_4d/3x3_reduce
I0403 15:48:31.363963 20284 net.cpp:148] Top shape: 24 144 14 14 (677376)
I0403 15:48:31.363978 20284 net.cpp:156] Memory required for data: 1118106912
I0403 15:48:31.363997 20284 layer_factory.hpp:77] Creating layer inception_4d/relu_3x3_reduce
I0403 15:48:31.364017 20284 net.cpp:91] Creating Layer inception_4d/relu_3x3_reduce
I0403 15:48:31.364034 20284 net.cpp:425] inception_4d/relu_3x3_reduce <- inception_4d/3x3_reduce
I0403 15:48:31.364056 20284 net.cpp:386] inception_4d/relu_3x3_reduce -> inception_4d/3x3_reduce (in-place)
I0403 15:48:31.364358 20284 net.cpp:141] Setting up inception_4d/relu_3x3_reduce
I0403 15:48:31.364385 20284 net.cpp:148] Top shape: 24 144 14 14 (677376)
I0403 15:48:31.364400 20284 net.cpp:156] Memory required for data: 1120816416
I0403 15:48:31.364415 20284 layer_factory.hpp:77] Creating layer inception_4d/3x3
I0403 15:48:31.364439 20284 net.cpp:91] Creating Layer inception_4d/3x3
I0403 15:48:31.364456 20284 net.cpp:425] inception_4d/3x3 <- inception_4d/3x3_reduce
I0403 15:48:31.364478 20284 net.cpp:399] inception_4d/3x3 -> inception_4d/3x3
I0403 15:48:31.368911 20284 net.cpp:141] Setting up inception_4d/3x3
I0403 15:48:31.368940 20284 net.cpp:148] Top shape: 24 288 14 14 (1354752)
I0403 15:48:31.368957 20284 net.cpp:156] Memory required for data: 1126235424
I0403 15:48:31.368975 20284 layer_factory.hpp:77] Creating layer inception_4d/relu_3x3
I0403 15:48:31.368996 20284 net.cpp:91] Creating Layer inception_4d/relu_3x3
I0403 15:48:31.369014 20284 net.cpp:425] inception_4d/relu_3x3 <- inception_4d/3x3
I0403 15:48:31.369031 20284 net.cpp:386] inception_4d/relu_3x3 -> inception_4d/3x3 (in-place)
I0403 15:48:31.369245 20284 net.cpp:141] Setting up inception_4d/relu_3x3
I0403 15:48:31.369273 20284 net.cpp:148] Top shape: 24 288 14 14 (1354752)
I0403 15:48:31.369289 20284 net.cpp:156] Memory required for data: 1131654432
I0403 15:48:31.369307 20284 layer_factory.hpp:77] Creating layer inception_4d/5x5_reduce
I0403 15:48:31.369329 20284 net.cpp:91] Creating Layer inception_4d/5x5_reduce
I0403 15:48:31.369349 20284 net.cpp:425] inception_4d/5x5_reduce <- inception_4c/output_inception_4c/output_0_split_2
I0403 15:48:31.369369 20284 net.cpp:399] inception_4d/5x5_reduce -> inception_4d/5x5_reduce
I0403 15:48:31.370573 20284 net.cpp:141] Setting up inception_4d/5x5_reduce
I0403 15:48:31.370599 20284 net.cpp:148] Top shape: 24 32 14 14 (150528)
I0403 15:48:31.370615 20284 net.cpp:156] Memory required for data: 1132256544
I0403 15:48:31.370632 20284 layer_factory.hpp:77] Creating layer inception_4d/relu_5x5_reduce
I0403 15:48:31.370653 20284 net.cpp:91] Creating Layer inception_4d/relu_5x5_reduce
I0403 15:48:31.370669 20284 net.cpp:425] inception_4d/relu_5x5_reduce <- inception_4d/5x5_reduce
I0403 15:48:31.370687 20284 net.cpp:386] inception_4d/relu_5x5_reduce -> inception_4d/5x5_reduce (in-place)
I0403 15:48:31.370882 20284 net.cpp:141] Setting up inception_4d/relu_5x5_reduce
I0403 15:48:31.370910 20284 net.cpp:148] Top shape: 24 32 14 14 (150528)
I0403 15:48:31.370926 20284 net.cpp:156] Memory required for data: 1132858656
I0403 15:48:31.370940 20284 layer_factory.hpp:77] Creating layer inception_4d/5x5
I0403 15:48:31.370962 20284 net.cpp:91] Creating Layer inception_4d/5x5
I0403 15:48:31.370980 20284 net.cpp:425] inception_4d/5x5 <- inception_4d/5x5_reduce
I0403 15:48:31.370998 20284 net.cpp:399] inception_4d/5x5 -> inception_4d/5x5
I0403 15:48:31.372501 20284 net.cpp:141] Setting up inception_4d/5x5
I0403 15:48:31.372529 20284 net.cpp:148] Top shape: 24 64 14 14 (301056)
I0403 15:48:31.372545 20284 net.cpp:156] Memory required for data: 1134062880
I0403 15:48:31.372563 20284 layer_factory.hpp:77] Creating layer inception_4d/relu_5x5
I0403 15:48:31.372596 20284 net.cpp:91] Creating Layer inception_4d/relu_5x5
I0403 15:48:31.372611 20284 net.cpp:425] inception_4d/relu_5x5 <- inception_4d/5x5
I0403 15:48:31.372630 20284 net.cpp:386] inception_4d/relu_5x5 -> inception_4d/5x5 (in-place)
I0403 15:48:31.372936 20284 net.cpp:141] Setting up inception_4d/relu_5x5
I0403 15:48:31.372964 20284 net.cpp:148] Top shape: 24 64 14 14 (301056)
I0403 15:48:31.372979 20284 net.cpp:156] Memory required for data: 1135267104
I0403 15:48:31.372993 20284 layer_factory.hpp:77] Creating layer inception_4d/pool
I0403 15:48:31.373011 20284 net.cpp:91] Creating Layer inception_4d/pool
I0403 15:48:31.373028 20284 net.cpp:425] inception_4d/pool <- inception_4c/output_inception_4c/output_0_split_3
I0403 15:48:31.373052 20284 net.cpp:399] inception_4d/pool -> inception_4d/pool
I0403 15:48:31.373121 20284 net.cpp:141] Setting up inception_4d/pool
I0403 15:48:31.373145 20284 net.cpp:148] Top shape: 24 512 14 14 (2408448)
I0403 15:48:31.373160 20284 net.cpp:156] Memory required for data: 1144900896
I0403 15:48:31.373174 20284 layer_factory.hpp:77] Creating layer inception_4d/pool_proj
I0403 15:48:31.373198 20284 net.cpp:91] Creating Layer inception_4d/pool_proj
I0403 15:48:31.373217 20284 net.cpp:425] inception_4d/pool_proj <- inception_4d/pool
I0403 15:48:31.373235 20284 net.cpp:399] inception_4d/pool_proj -> inception_4d/pool_proj
I0403 15:48:31.375041 20284 net.cpp:141] Setting up inception_4d/pool_proj
I0403 15:48:31.375074 20284 net.cpp:148] Top shape: 24 64 14 14 (301056)
I0403 15:48:31.375090 20284 net.cpp:156] Memory required for data: 1146105120
I0403 15:48:31.375109 20284 layer_factory.hpp:77] Creating layer inception_4d/relu_pool_proj
I0403 15:48:31.375129 20284 net.cpp:91] Creating Layer inception_4d/relu_pool_proj
I0403 15:48:31.375146 20284 net.cpp:425] inception_4d/relu_pool_proj <- inception_4d/pool_proj
I0403 15:48:31.375164 20284 net.cpp:386] inception_4d/relu_pool_proj -> inception_4d/pool_proj (in-place)
I0403 15:48:31.375355 20284 net.cpp:141] Setting up inception_4d/relu_pool_proj
I0403 15:48:31.375381 20284 net.cpp:148] Top shape: 24 64 14 14 (301056)
I0403 15:48:31.375397 20284 net.cpp:156] Memory required for data: 1147309344
I0403 15:48:31.375412 20284 layer_factory.hpp:77] Creating layer inception_4d/output
I0403 15:48:31.375429 20284 net.cpp:91] Creating Layer inception_4d/output
I0403 15:48:31.375445 20284 net.cpp:425] inception_4d/output <- inception_4d/1x1
I0403 15:48:31.375461 20284 net.cpp:425] inception_4d/output <- inception_4d/3x3
I0403 15:48:31.375478 20284 net.cpp:425] inception_4d/output <- inception_4d/5x5
I0403 15:48:31.375494 20284 net.cpp:425] inception_4d/output <- inception_4d/pool_proj
I0403 15:48:31.375512 20284 net.cpp:399] inception_4d/output -> inception_4d/output
I0403 15:48:31.375560 20284 net.cpp:141] Setting up inception_4d/output
I0403 15:48:31.375583 20284 net.cpp:148] Top shape: 24 528 14 14 (2483712)
I0403 15:48:31.375597 20284 net.cpp:156] Memory required for data: 1157244192
I0403 15:48:31.375612 20284 layer_factory.hpp:77] Creating layer inception_4d/output_inception_4d/output_0_split
I0403 15:48:31.375632 20284 net.cpp:91] Creating Layer inception_4d/output_inception_4d/output_0_split
I0403 15:48:31.375648 20284 net.cpp:425] inception_4d/output_inception_4d/output_0_split <- inception_4d/output
I0403 15:48:31.375664 20284 net.cpp:399] inception_4d/output_inception_4d/output_0_split -> inception_4d/output_inception_4d/output_0_split_0
I0403 15:48:31.375684 20284 net.cpp:399] inception_4d/output_inception_4d/output_0_split -> inception_4d/output_inception_4d/output_0_split_1
I0403 15:48:31.375710 20284 net.cpp:399] inception_4d/output_inception_4d/output_0_split -> inception_4d/output_inception_4d/output_0_split_2
I0403 15:48:31.375730 20284 net.cpp:399] inception_4d/output_inception_4d/output_0_split -> inception_4d/output_inception_4d/output_0_split_3
I0403 15:48:31.375751 20284 net.cpp:399] inception_4d/output_inception_4d/output_0_split -> inception_4d/output_inception_4d/output_0_split_4
I0403 15:48:31.375852 20284 net.cpp:141] Setting up inception_4d/output_inception_4d/output_0_split
I0403 15:48:31.375888 20284 net.cpp:148] Top shape: 24 528 14 14 (2483712)
I0403 15:48:31.375905 20284 net.cpp:148] Top shape: 24 528 14 14 (2483712)
I0403 15:48:31.375921 20284 net.cpp:148] Top shape: 24 528 14 14 (2483712)
I0403 15:48:31.375936 20284 net.cpp:148] Top shape: 24 528 14 14 (2483712)
I0403 15:48:31.375952 20284 net.cpp:148] Top shape: 24 528 14 14 (2483712)
I0403 15:48:31.375967 20284 net.cpp:156] Memory required for data: 1206918432
I0403 15:48:31.375980 20284 layer_factory.hpp:77] Creating layer loss2/ave_pool
I0403 15:48:31.376000 20284 net.cpp:91] Creating Layer loss2/ave_pool
I0403 15:48:31.376018 20284 net.cpp:425] loss2/ave_pool <- inception_4d/output_inception_4d/output_0_split_0
I0403 15:48:31.376036 20284 net.cpp:399] loss2/ave_pool -> loss2/ave_pool
I0403 15:48:31.376358 20284 net.cpp:141] Setting up loss2/ave_pool
I0403 15:48:31.376384 20284 net.cpp:148] Top shape: 24 528 4 4 (202752)
I0403 15:48:31.376399 20284 net.cpp:156] Memory required for data: 1207729440
I0403 15:48:31.376413 20284 layer_factory.hpp:77] Creating layer loss2/conv
I0403 15:48:31.376435 20284 net.cpp:91] Creating Layer loss2/conv
I0403 15:48:31.376453 20284 net.cpp:425] loss2/conv <- loss2/ave_pool
I0403 15:48:31.376476 20284 net.cpp:399] loss2/conv -> loss2/conv
I0403 15:48:31.378414 20284 net.cpp:141] Setting up loss2/conv
I0403 15:48:31.378446 20284 net.cpp:148] Top shape: 24 128 4 4 (49152)
I0403 15:48:31.378466 20284 net.cpp:156] Memory required for data: 1207926048
I0403 15:48:31.378485 20284 layer_factory.hpp:77] Creating layer loss2/relu_conv
I0403 15:48:31.378504 20284 net.cpp:91] Creating Layer loss2/relu_conv
I0403 15:48:31.378520 20284 net.cpp:425] loss2/relu_conv <- loss2/conv
I0403 15:48:31.378538 20284 net.cpp:386] loss2/relu_conv -> loss2/conv (in-place)
I0403 15:48:31.378828 20284 net.cpp:141] Setting up loss2/relu_conv
I0403 15:48:31.378855 20284 net.cpp:148] Top shape: 24 128 4 4 (49152)
I0403 15:48:31.378871 20284 net.cpp:156] Memory required for data: 1208122656
I0403 15:48:31.378886 20284 layer_factory.hpp:77] Creating layer loss2/fc
I0403 15:48:31.378906 20284 net.cpp:91] Creating Layer loss2/fc
I0403 15:48:31.378922 20284 net.cpp:425] loss2/fc <- loss2/conv
I0403 15:48:31.378944 20284 net.cpp:399] loss2/fc -> loss2/fc
I0403 15:48:31.396606 20284 net.cpp:141] Setting up loss2/fc
I0403 15:48:31.396639 20284 net.cpp:148] Top shape: 24 1024 (24576)
I0403 15:48:31.396654 20284 net.cpp:156] Memory required for data: 1208220960
I0403 15:48:31.396673 20284 layer_factory.hpp:77] Creating layer loss2/relu_fc
I0403 15:48:31.396694 20284 net.cpp:91] Creating Layer loss2/relu_fc
I0403 15:48:31.396713 20284 net.cpp:425] loss2/relu_fc <- loss2/fc
I0403 15:48:31.396730 20284 net.cpp:386] loss2/relu_fc -> loss2/fc (in-place)
I0403 15:48:31.397079 20284 net.cpp:141] Setting up loss2/relu_fc
I0403 15:48:31.397105 20284 net.cpp:148] Top shape: 24 1024 (24576)
I0403 15:48:31.397120 20284 net.cpp:156] Memory required for data: 1208319264
I0403 15:48:31.397135 20284 layer_factory.hpp:77] Creating layer loss2/drop_fc
I0403 15:48:31.397156 20284 net.cpp:91] Creating Layer loss2/drop_fc
I0403 15:48:31.397172 20284 net.cpp:425] loss2/drop_fc <- loss2/fc
I0403 15:48:31.397189 20284 net.cpp:386] loss2/drop_fc -> loss2/fc (in-place)
I0403 15:48:31.397243 20284 net.cpp:141] Setting up loss2/drop_fc
I0403 15:48:31.397265 20284 net.cpp:148] Top shape: 24 1024 (24576)
I0403 15:48:31.397280 20284 net.cpp:156] Memory required for data: 1208417568
I0403 15:48:31.397294 20284 layer_factory.hpp:77] Creating layer loss2/classifier_plantvillage
I0403 15:48:31.397316 20284 net.cpp:91] Creating Layer loss2/classifier_plantvillage
I0403 15:48:31.397335 20284 net.cpp:425] loss2/classifier_plantvillage <- loss2/fc
I0403 15:48:31.397352 20284 net.cpp:399] loss2/classifier_plantvillage -> loss2/classifier_plantvillage
I0403 15:48:31.397766 20284 net.cpp:141] Setting up loss2/classifier_plantvillage
I0403 15:48:31.397791 20284 net.cpp:148] Top shape: 24 38 (912)
I0403 15:48:31.397833 20284 net.cpp:156] Memory required for data: 1208421216
I0403 15:48:31.397851 20284 layer_factory.hpp:77] Creating layer loss2/classifier_plantvillage_loss2/classifier_plantvillage_0_split
I0403 15:48:31.397871 20284 net.cpp:91] Creating Layer loss2/classifier_plantvillage_loss2/classifier_plantvillage_0_split
I0403 15:48:31.397886 20284 net.cpp:425] loss2/classifier_plantvillage_loss2/classifier_plantvillage_0_split <- loss2/classifier_plantvillage
I0403 15:48:31.397905 20284 net.cpp:399] loss2/classifier_plantvillage_loss2/classifier_plantvillage_0_split -> loss2/classifier_plantvillage_loss2/classifier_plantvillage_0_split_0
I0403 15:48:31.397927 20284 net.cpp:399] loss2/classifier_plantvillage_loss2/classifier_plantvillage_0_split -> loss2/classifier_plantvillage_loss2/classifier_plantvillage_0_split_1
I0403 15:48:31.397958 20284 net.cpp:399] loss2/classifier_plantvillage_loss2/classifier_plantvillage_0_split -> loss2/classifier_plantvillage_loss2/classifier_plantvillage_0_split_2
I0403 15:48:31.398035 20284 net.cpp:141] Setting up loss2/classifier_plantvillage_loss2/classifier_plantvillage_0_split
I0403 15:48:31.398071 20284 net.cpp:148] Top shape: 24 38 (912)
I0403 15:48:31.398089 20284 net.cpp:148] Top shape: 24 38 (912)
I0403 15:48:31.398104 20284 net.cpp:148] Top shape: 24 38 (912)
I0403 15:48:31.398118 20284 net.cpp:156] Memory required for data: 1208432160
I0403 15:48:31.398133 20284 layer_factory.hpp:77] Creating layer inception_4e/1x1
I0403 15:48:31.398154 20284 net.cpp:91] Creating Layer inception_4e/1x1
I0403 15:48:31.398171 20284 net.cpp:425] inception_4e/1x1 <- inception_4d/output_inception_4d/output_0_split_1
I0403 15:48:31.398190 20284 net.cpp:399] inception_4e/1x1 -> inception_4e/1x1
I0403 15:48:31.400074 20284 net.cpp:141] Setting up inception_4e/1x1
I0403 15:48:31.400101 20284 net.cpp:148] Top shape: 24 256 14 14 (1204224)
I0403 15:48:31.400117 20284 net.cpp:156] Memory required for data: 1213249056
I0403 15:48:31.400135 20284 layer_factory.hpp:77] Creating layer inception_4e/relu_1x1
I0403 15:48:31.400153 20284 net.cpp:91] Creating Layer inception_4e/relu_1x1
I0403 15:48:31.400169 20284 net.cpp:425] inception_4e/relu_1x1 <- inception_4e/1x1
I0403 15:48:31.400188 20284 net.cpp:386] inception_4e/relu_1x1 -> inception_4e/1x1 (in-place)
I0403 15:48:31.400493 20284 net.cpp:141] Setting up inception_4e/relu_1x1
I0403 15:48:31.400519 20284 net.cpp:148] Top shape: 24 256 14 14 (1204224)
I0403 15:48:31.400534 20284 net.cpp:156] Memory required for data: 1218065952
I0403 15:48:31.400549 20284 layer_factory.hpp:77] Creating layer inception_4e/3x3_reduce
I0403 15:48:31.400570 20284 net.cpp:91] Creating Layer inception_4e/3x3_reduce
I0403 15:48:31.400589 20284 net.cpp:425] inception_4e/3x3_reduce <- inception_4d/output_inception_4d/output_0_split_2
I0403 15:48:31.400610 20284 net.cpp:399] inception_4e/3x3_reduce -> inception_4e/3x3_reduce
I0403 15:48:31.402883 20284 net.cpp:141] Setting up inception_4e/3x3_reduce
I0403 15:48:31.402915 20284 net.cpp:148] Top shape: 24 160 14 14 (752640)
I0403 15:48:31.402931 20284 net.cpp:156] Memory required for data: 1221076512
I0403 15:48:31.402951 20284 layer_factory.hpp:77] Creating layer inception_4e/relu_3x3_reduce
I0403 15:48:31.402971 20284 net.cpp:91] Creating Layer inception_4e/relu_3x3_reduce
I0403 15:48:31.402987 20284 net.cpp:425] inception_4e/relu_3x3_reduce <- inception_4e/3x3_reduce
I0403 15:48:31.403019 20284 net.cpp:386] inception_4e/relu_3x3_reduce -> inception_4e/3x3_reduce (in-place)
I0403 15:48:31.403214 20284 net.cpp:141] Setting up inception_4e/relu_3x3_reduce
I0403 15:48:31.403239 20284 net.cpp:148] Top shape: 24 160 14 14 (752640)
I0403 15:48:31.403254 20284 net.cpp:156] Memory required for data: 1224087072
I0403 15:48:31.403269 20284 layer_factory.hpp:77] Creating layer inception_4e/3x3
I0403 15:48:31.403290 20284 net.cpp:91] Creating Layer inception_4e/3x3
I0403 15:48:31.403307 20284 net.cpp:425] inception_4e/3x3 <- inception_4e/3x3_reduce
I0403 15:48:31.403329 20284 net.cpp:399] inception_4e/3x3 -> inception_4e/3x3
I0403 15:48:31.408392 20284 net.cpp:141] Setting up inception_4e/3x3
I0403 15:48:31.408434 20284 net.cpp:148] Top shape: 24 320 14 14 (1505280)
I0403 15:48:31.408450 20284 net.cpp:156] Memory required for data: 1230108192
I0403 15:48:31.408469 20284 layer_factory.hpp:77] Creating layer inception_4e/relu_3x3
I0403 15:48:31.408488 20284 net.cpp:91] Creating Layer inception_4e/relu_3x3
I0403 15:48:31.408505 20284 net.cpp:425] inception_4e/relu_3x3 <- inception_4e/3x3
I0403 15:48:31.408522 20284 net.cpp:386] inception_4e/relu_3x3 -> inception_4e/3x3 (in-place)
I0403 15:48:31.408830 20284 net.cpp:141] Setting up inception_4e/relu_3x3
I0403 15:48:31.408856 20284 net.cpp:148] Top shape: 24 320 14 14 (1505280)
I0403 15:48:31.408871 20284 net.cpp:156] Memory required for data: 1236129312
I0403 15:48:31.408885 20284 layer_factory.hpp:77] Creating layer inception_4e/5x5_reduce
I0403 15:48:31.408910 20284 net.cpp:91] Creating Layer inception_4e/5x5_reduce
I0403 15:48:31.408927 20284 net.cpp:425] inception_4e/5x5_reduce <- inception_4d/output_inception_4d/output_0_split_3
I0403 15:48:31.408951 20284 net.cpp:399] inception_4e/5x5_reduce -> inception_4e/5x5_reduce
I0403 15:48:31.410054 20284 net.cpp:141] Setting up inception_4e/5x5_reduce
I0403 15:48:31.410082 20284 net.cpp:148] Top shape: 24 32 14 14 (150528)
I0403 15:48:31.410097 20284 net.cpp:156] Memory required for data: 1236731424
I0403 15:48:31.410115 20284 layer_factory.hpp:77] Creating layer inception_4e/relu_5x5_reduce
I0403 15:48:31.410133 20284 net.cpp:91] Creating Layer inception_4e/relu_5x5_reduce
I0403 15:48:31.410148 20284 net.cpp:425] inception_4e/relu_5x5_reduce <- inception_4e/5x5_reduce
I0403 15:48:31.410167 20284 net.cpp:386] inception_4e/relu_5x5_reduce -> inception_4e/5x5_reduce (in-place)
I0403 15:48:31.410470 20284 net.cpp:141] Setting up inception_4e/relu_5x5_reduce
I0403 15:48:31.410495 20284 net.cpp:148] Top shape: 24 32 14 14 (150528)
I0403 15:48:31.410511 20284 net.cpp:156] Memory required for data: 1237333536
I0403 15:48:31.410526 20284 layer_factory.hpp:77] Creating layer inception_4e/5x5
I0403 15:48:31.410563 20284 net.cpp:91] Creating Layer inception_4e/5x5
I0403 15:48:31.410583 20284 net.cpp:425] inception_4e/5x5 <- inception_4e/5x5_reduce
I0403 15:48:31.410603 20284 net.cpp:399] inception_4e/5x5 -> inception_4e/5x5
I0403 15:48:31.412523 20284 net.cpp:141] Setting up inception_4e/5x5
I0403 15:48:31.412554 20284 net.cpp:148] Top shape: 24 128 14 14 (602112)
I0403 15:48:31.412570 20284 net.cpp:156] Memory required for data: 1239741984
I0403 15:48:31.412590 20284 layer_factory.hpp:77] Creating layer inception_4e/relu_5x5
I0403 15:48:31.412607 20284 net.cpp:91] Creating Layer inception_4e/relu_5x5
I0403 15:48:31.412622 20284 net.cpp:425] inception_4e/relu_5x5 <- inception_4e/5x5
I0403 15:48:31.412639 20284 net.cpp:386] inception_4e/relu_5x5 -> inception_4e/5x5 (in-place)
I0403 15:48:31.412842 20284 net.cpp:141] Setting up inception_4e/relu_5x5
I0403 15:48:31.412866 20284 net.cpp:148] Top shape: 24 128 14 14 (602112)
I0403 15:48:31.412881 20284 net.cpp:156] Memory required for data: 1242150432
I0403 15:48:31.412895 20284 layer_factory.hpp:77] Creating layer inception_4e/pool
I0403 15:48:31.412914 20284 net.cpp:91] Creating Layer inception_4e/pool
I0403 15:48:31.412930 20284 net.cpp:425] inception_4e/pool <- inception_4d/output_inception_4d/output_0_split_4
I0403 15:48:31.412950 20284 net.cpp:399] inception_4e/pool -> inception_4e/pool
I0403 15:48:31.413022 20284 net.cpp:141] Setting up inception_4e/pool
I0403 15:48:31.413051 20284 net.cpp:148] Top shape: 24 528 14 14 (2483712)
I0403 15:48:31.413069 20284 net.cpp:156] Memory required for data: 1252085280
I0403 15:48:31.413082 20284 layer_factory.hpp:77] Creating layer inception_4e/pool_proj
I0403 15:48:31.413105 20284 net.cpp:91] Creating Layer inception_4e/pool_proj
I0403 15:48:31.413121 20284 net.cpp:425] inception_4e/pool_proj <- inception_4e/pool
I0403 15:48:31.413141 20284 net.cpp:399] inception_4e/pool_proj -> inception_4e/pool_proj
I0403 15:48:31.414682 20284 net.cpp:141] Setting up inception_4e/pool_proj
I0403 15:48:31.414721 20284 net.cpp:148] Top shape: 24 128 14 14 (602112)
I0403 15:48:31.414741 20284 net.cpp:156] Memory required for data: 1254493728
I0403 15:48:31.414759 20284 layer_factory.hpp:77] Creating layer inception_4e/relu_pool_proj
I0403 15:48:31.414777 20284 net.cpp:91] Creating Layer inception_4e/relu_pool_proj
I0403 15:48:31.414793 20284 net.cpp:425] inception_4e/relu_pool_proj <- inception_4e/pool_proj
I0403 15:48:31.414809 20284 net.cpp:386] inception_4e/relu_pool_proj -> inception_4e/pool_proj (in-place)
I0403 15:48:31.415112 20284 net.cpp:141] Setting up inception_4e/relu_pool_proj
I0403 15:48:31.415138 20284 net.cpp:148] Top shape: 24 128 14 14 (602112)
I0403 15:48:31.415156 20284 net.cpp:156] Memory required for data: 1256902176
I0403 15:48:31.415172 20284 layer_factory.hpp:77] Creating layer inception_4e/output
I0403 15:48:31.415189 20284 net.cpp:91] Creating Layer inception_4e/output
I0403 15:48:31.415205 20284 net.cpp:425] inception_4e/output <- inception_4e/1x1
I0403 15:48:31.415221 20284 net.cpp:425] inception_4e/output <- inception_4e/3x3
I0403 15:48:31.415238 20284 net.cpp:425] inception_4e/output <- inception_4e/5x5
I0403 15:48:31.415254 20284 net.cpp:425] inception_4e/output <- inception_4e/pool_proj
I0403 15:48:31.415271 20284 net.cpp:399] inception_4e/output -> inception_4e/output
I0403 15:48:31.415323 20284 net.cpp:141] Setting up inception_4e/output
I0403 15:48:31.415345 20284 net.cpp:148] Top shape: 24 832 14 14 (3913728)
I0403 15:48:31.415359 20284 net.cpp:156] Memory required for data: 1272557088
I0403 15:48:31.415374 20284 layer_factory.hpp:77] Creating layer pool4/3x3_s2
I0403 15:48:31.415390 20284 net.cpp:91] Creating Layer pool4/3x3_s2
I0403 15:48:31.415411 20284 net.cpp:425] pool4/3x3_s2 <- inception_4e/output
I0403 15:48:31.415429 20284 net.cpp:399] pool4/3x3_s2 -> pool4/3x3_s2
I0403 15:48:31.415498 20284 net.cpp:141] Setting up pool4/3x3_s2
I0403 15:48:31.415521 20284 net.cpp:148] Top shape: 24 832 7 7 (978432)
I0403 15:48:31.415536 20284 net.cpp:156] Memory required for data: 1276470816
I0403 15:48:31.415550 20284 layer_factory.hpp:77] Creating layer pool4/3x3_s2_pool4/3x3_s2_0_split
I0403 15:48:31.415567 20284 net.cpp:91] Creating Layer pool4/3x3_s2_pool4/3x3_s2_0_split
I0403 15:48:31.415582 20284 net.cpp:425] pool4/3x3_s2_pool4/3x3_s2_0_split <- pool4/3x3_s2
I0403 15:48:31.415602 20284 net.cpp:399] pool4/3x3_s2_pool4/3x3_s2_0_split -> pool4/3x3_s2_pool4/3x3_s2_0_split_0
I0403 15:48:31.415623 20284 net.cpp:399] pool4/3x3_s2_pool4/3x3_s2_0_split -> pool4/3x3_s2_pool4/3x3_s2_0_split_1
I0403 15:48:31.415642 20284 net.cpp:399] pool4/3x3_s2_pool4/3x3_s2_0_split -> pool4/3x3_s2_pool4/3x3_s2_0_split_2
I0403 15:48:31.415663 20284 net.cpp:399] pool4/3x3_s2_pool4/3x3_s2_0_split -> pool4/3x3_s2_pool4/3x3_s2_0_split_3
I0403 15:48:31.415755 20284 net.cpp:141] Setting up pool4/3x3_s2_pool4/3x3_s2_0_split
I0403 15:48:31.415777 20284 net.cpp:148] Top shape: 24 832 7 7 (978432)
I0403 15:48:31.415793 20284 net.cpp:148] Top shape: 24 832 7 7 (978432)
I0403 15:48:31.415808 20284 net.cpp:148] Top shape: 24 832 7 7 (978432)
I0403 15:48:31.415823 20284 net.cpp:148] Top shape: 24 832 7 7 (978432)
I0403 15:48:31.415837 20284 net.cpp:156] Memory required for data: 1292125728
I0403 15:48:31.415850 20284 layer_factory.hpp:77] Creating layer inception_5a/1x1
I0403 15:48:31.415874 20284 net.cpp:91] Creating Layer inception_5a/1x1
I0403 15:48:31.415891 20284 net.cpp:425] inception_5a/1x1 <- pool4/3x3_s2_pool4/3x3_s2_0_split_0
I0403 15:48:31.415911 20284 net.cpp:399] inception_5a/1x1 -> inception_5a/1x1
I0403 15:48:31.418817 20284 net.cpp:141] Setting up inception_5a/1x1
I0403 15:48:31.418851 20284 net.cpp:148] Top shape: 24 256 7 7 (301056)
I0403 15:48:31.418869 20284 net.cpp:156] Memory required for data: 1293329952
I0403 15:48:31.418887 20284 layer_factory.hpp:77] Creating layer inception_5a/relu_1x1
I0403 15:48:31.418906 20284 net.cpp:91] Creating Layer inception_5a/relu_1x1
I0403 15:48:31.418922 20284 net.cpp:425] inception_5a/relu_1x1 <- inception_5a/1x1
I0403 15:48:31.418943 20284 net.cpp:386] inception_5a/relu_1x1 -> inception_5a/1x1 (in-place)
I0403 15:48:31.419286 20284 net.cpp:141] Setting up inception_5a/relu_1x1
I0403 15:48:31.419314 20284 net.cpp:148] Top shape: 24 256 7 7 (301056)
I0403 15:48:31.419330 20284 net.cpp:156] Memory required for data: 1294534176
I0403 15:48:31.419345 20284 layer_factory.hpp:77] Creating layer inception_5a/3x3_reduce
I0403 15:48:31.419368 20284 net.cpp:91] Creating Layer inception_5a/3x3_reduce
I0403 15:48:31.419385 20284 net.cpp:425] inception_5a/3x3_reduce <- pool4/3x3_s2_pool4/3x3_s2_0_split_1
I0403 15:48:31.419404 20284 net.cpp:399] inception_5a/3x3_reduce -> inception_5a/3x3_reduce
I0403 15:48:31.421821 20284 net.cpp:141] Setting up inception_5a/3x3_reduce
I0403 15:48:31.421850 20284 net.cpp:148] Top shape: 24 160 7 7 (188160)
I0403 15:48:31.421865 20284 net.cpp:156] Memory required for data: 1295286816
I0403 15:48:31.421883 20284 layer_factory.hpp:77] Creating layer inception_5a/relu_3x3_reduce
I0403 15:48:31.421902 20284 net.cpp:91] Creating Layer inception_5a/relu_3x3_reduce
I0403 15:48:31.421918 20284 net.cpp:425] inception_5a/relu_3x3_reduce <- inception_5a/3x3_reduce
I0403 15:48:31.421936 20284 net.cpp:386] inception_5a/relu_3x3_reduce -> inception_5a/3x3_reduce (in-place)
I0403 15:48:31.422127 20284 net.cpp:141] Setting up inception_5a/relu_3x3_reduce
I0403 15:48:31.422153 20284 net.cpp:148] Top shape: 24 160 7 7 (188160)
I0403 15:48:31.422168 20284 net.cpp:156] Memory required for data: 1296039456
I0403 15:48:31.422183 20284 layer_factory.hpp:77] Creating layer inception_5a/3x3
I0403 15:48:31.422204 20284 net.cpp:91] Creating Layer inception_5a/3x3
I0403 15:48:31.422222 20284 net.cpp:425] inception_5a/3x3 <- inception_5a/3x3_reduce
I0403 15:48:31.422240 20284 net.cpp:399] inception_5a/3x3 -> inception_5a/3x3
I0403 15:48:31.427186 20284 net.cpp:141] Setting up inception_5a/3x3
I0403 15:48:31.427216 20284 net.cpp:148] Top shape: 24 320 7 7 (376320)
I0403 15:48:31.427232 20284 net.cpp:156] Memory required for data: 1297544736
I0403 15:48:31.427250 20284 layer_factory.hpp:77] Creating layer inception_5a/relu_3x3
I0403 15:48:31.427268 20284 net.cpp:91] Creating Layer inception_5a/relu_3x3
I0403 15:48:31.427284 20284 net.cpp:425] inception_5a/relu_3x3 <- inception_5a/3x3
I0403 15:48:31.427299 20284 net.cpp:386] inception_5a/relu_3x3 -> inception_5a/3x3 (in-place)
I0403 15:48:31.427599 20284 net.cpp:141] Setting up inception_5a/relu_3x3
I0403 15:48:31.427628 20284 net.cpp:148] Top shape: 24 320 7 7 (376320)
I0403 15:48:31.427642 20284 net.cpp:156] Memory required for data: 1299050016
I0403 15:48:31.427657 20284 layer_factory.hpp:77] Creating layer inception_5a/5x5_reduce
I0403 15:48:31.427680 20284 net.cpp:91] Creating Layer inception_5a/5x5_reduce
I0403 15:48:31.427696 20284 net.cpp:425] inception_5a/5x5_reduce <- pool4/3x3_s2_pool4/3x3_s2_0_split_2
I0403 15:48:31.427716 20284 net.cpp:399] inception_5a/5x5_reduce -> inception_5a/5x5_reduce
I0403 15:48:31.428899 20284 net.cpp:141] Setting up inception_5a/5x5_reduce
I0403 15:48:31.428928 20284 net.cpp:148] Top shape: 24 32 7 7 (37632)
I0403 15:48:31.428946 20284 net.cpp:156] Memory required for data: 1299200544
I0403 15:48:31.428964 20284 layer_factory.hpp:77] Creating layer inception_5a/relu_5x5_reduce
I0403 15:48:31.428982 20284 net.cpp:91] Creating Layer inception_5a/relu_5x5_reduce
I0403 15:48:31.428997 20284 net.cpp:425] inception_5a/relu_5x5_reduce <- inception_5a/5x5_reduce
I0403 15:48:31.429015 20284 net.cpp:386] inception_5a/relu_5x5_reduce -> inception_5a/5x5_reduce (in-place)
I0403 15:48:31.429322 20284 net.cpp:141] Setting up inception_5a/relu_5x5_reduce
I0403 15:48:31.429350 20284 net.cpp:148] Top shape: 24 32 7 7 (37632)
I0403 15:48:31.429365 20284 net.cpp:156] Memory required for data: 1299351072
I0403 15:48:31.429379 20284 layer_factory.hpp:77] Creating layer inception_5a/5x5
I0403 15:48:31.429400 20284 net.cpp:91] Creating Layer inception_5a/5x5
I0403 15:48:31.429417 20284 net.cpp:425] inception_5a/5x5 <- inception_5a/5x5_reduce
I0403 15:48:31.429438 20284 net.cpp:399] inception_5a/5x5 -> inception_5a/5x5
I0403 15:48:31.431138 20284 net.cpp:141] Setting up inception_5a/5x5
I0403 15:48:31.431179 20284 net.cpp:148] Top shape: 24 128 7 7 (150528)
I0403 15:48:31.431195 20284 net.cpp:156] Memory required for data: 1299953184
I0403 15:48:31.431212 20284 layer_factory.hpp:77] Creating layer inception_5a/relu_5x5
I0403 15:48:31.431229 20284 net.cpp:91] Creating Layer inception_5a/relu_5x5
I0403 15:48:31.431246 20284 net.cpp:425] inception_5a/relu_5x5 <- inception_5a/5x5
I0403 15:48:31.431262 20284 net.cpp:386] inception_5a/relu_5x5 -> inception_5a/5x5 (in-place)
I0403 15:48:31.431455 20284 net.cpp:141] Setting up inception_5a/relu_5x5
I0403 15:48:31.431478 20284 net.cpp:148] Top shape: 24 128 7 7 (150528)
I0403 15:48:31.431493 20284 net.cpp:156] Memory required for data: 1300555296
I0403 15:48:31.431507 20284 layer_factory.hpp:77] Creating layer inception_5a/pool
I0403 15:48:31.431524 20284 net.cpp:91] Creating Layer inception_5a/pool
I0403 15:48:31.431540 20284 net.cpp:425] inception_5a/pool <- pool4/3x3_s2_pool4/3x3_s2_0_split_3
I0403 15:48:31.431560 20284 net.cpp:399] inception_5a/pool -> inception_5a/pool
I0403 15:48:31.431627 20284 net.cpp:141] Setting up inception_5a/pool
I0403 15:48:31.431653 20284 net.cpp:148] Top shape: 24 832 7 7 (978432)
I0403 15:48:31.431668 20284 net.cpp:156] Memory required for data: 1304469024
I0403 15:48:31.431681 20284 layer_factory.hpp:77] Creating layer inception_5a/pool_proj
I0403 15:48:31.431702 20284 net.cpp:91] Creating Layer inception_5a/pool_proj
I0403 15:48:31.431720 20284 net.cpp:425] inception_5a/pool_proj <- inception_5a/pool
I0403 15:48:31.431737 20284 net.cpp:399] inception_5a/pool_proj -> inception_5a/pool_proj
I0403 15:48:31.433986 20284 net.cpp:141] Setting up inception_5a/pool_proj
I0403 15:48:31.434015 20284 net.cpp:148] Top shape: 24 128 7 7 (150528)
I0403 15:48:31.434031 20284 net.cpp:156] Memory required for data: 1305071136
I0403 15:48:31.434051 20284 layer_factory.hpp:77] Creating layer inception_5a/relu_pool_proj
I0403 15:48:31.434077 20284 net.cpp:91] Creating Layer inception_5a/relu_pool_proj
I0403 15:48:31.434093 20284 net.cpp:425] inception_5a/relu_pool_proj <- inception_5a/pool_proj
I0403 15:48:31.434110 20284 net.cpp:386] inception_5a/relu_pool_proj -> inception_5a/pool_proj (in-place)
I0403 15:48:31.434404 20284 net.cpp:141] Setting up inception_5a/relu_pool_proj
I0403 15:48:31.434429 20284 net.cpp:148] Top shape: 24 128 7 7 (150528)
I0403 15:48:31.434443 20284 net.cpp:156] Memory required for data: 1305673248
I0403 15:48:31.434458 20284 layer_factory.hpp:77] Creating layer inception_5a/output
I0403 15:48:31.434478 20284 net.cpp:91] Creating Layer inception_5a/output
I0403 15:48:31.434494 20284 net.cpp:425] inception_5a/output <- inception_5a/1x1
I0403 15:48:31.434509 20284 net.cpp:425] inception_5a/output <- inception_5a/3x3
I0403 15:48:31.434525 20284 net.cpp:425] inception_5a/output <- inception_5a/5x5
I0403 15:48:31.434540 20284 net.cpp:425] inception_5a/output <- inception_5a/pool_proj
I0403 15:48:31.434556 20284 net.cpp:399] inception_5a/output -> inception_5a/output
I0403 15:48:31.434607 20284 net.cpp:141] Setting up inception_5a/output
I0403 15:48:31.434629 20284 net.cpp:148] Top shape: 24 832 7 7 (978432)
I0403 15:48:31.434644 20284 net.cpp:156] Memory required for data: 1309586976
I0403 15:48:31.434658 20284 layer_factory.hpp:77] Creating layer inception_5a/output_inception_5a/output_0_split
I0403 15:48:31.434674 20284 net.cpp:91] Creating Layer inception_5a/output_inception_5a/output_0_split
I0403 15:48:31.434689 20284 net.cpp:425] inception_5a/output_inception_5a/output_0_split <- inception_5a/output
I0403 15:48:31.434707 20284 net.cpp:399] inception_5a/output_inception_5a/output_0_split -> inception_5a/output_inception_5a/output_0_split_0
I0403 15:48:31.434728 20284 net.cpp:399] inception_5a/output_inception_5a/output_0_split -> inception_5a/output_inception_5a/output_0_split_1
I0403 15:48:31.434747 20284 net.cpp:399] inception_5a/output_inception_5a/output_0_split -> inception_5a/output_inception_5a/output_0_split_2
I0403 15:48:31.434767 20284 net.cpp:399] inception_5a/output_inception_5a/output_0_split -> inception_5a/output_inception_5a/output_0_split_3
I0403 15:48:31.434878 20284 net.cpp:141] Setting up inception_5a/output_inception_5a/output_0_split
I0403 15:48:31.434903 20284 net.cpp:148] Top shape: 24 832 7 7 (978432)
I0403 15:48:31.434921 20284 net.cpp:148] Top shape: 24 832 7 7 (978432)
I0403 15:48:31.434936 20284 net.cpp:148] Top shape: 24 832 7 7 (978432)
I0403 15:48:31.434950 20284 net.cpp:148] Top shape: 24 832 7 7 (978432)
I0403 15:48:31.434964 20284 net.cpp:156] Memory required for data: 1325241888
I0403 15:48:31.434978 20284 layer_factory.hpp:77] Creating layer inception_5b/1x1
I0403 15:48:31.435000 20284 net.cpp:91] Creating Layer inception_5b/1x1
I0403 15:48:31.435016 20284 net.cpp:425] inception_5b/1x1 <- inception_5a/output_inception_5a/output_0_split_0
I0403 15:48:31.435037 20284 net.cpp:399] inception_5b/1x1 -> inception_5b/1x1
I0403 15:48:31.438789 20284 net.cpp:141] Setting up inception_5b/1x1
I0403 15:48:31.438818 20284 net.cpp:148] Top shape: 24 384 7 7 (451584)
I0403 15:48:31.438833 20284 net.cpp:156] Memory required for data: 1327048224
I0403 15:48:31.438851 20284 layer_factory.hpp:77] Creating layer inception_5b/relu_1x1
I0403 15:48:31.438870 20284 net.cpp:91] Creating Layer inception_5b/relu_1x1
I0403 15:48:31.438886 20284 net.cpp:425] inception_5b/relu_1x1 <- inception_5b/1x1
I0403 15:48:31.438904 20284 net.cpp:386] inception_5b/relu_1x1 -> inception_5b/1x1 (in-place)
I0403 15:48:31.439208 20284 net.cpp:141] Setting up inception_5b/relu_1x1
I0403 15:48:31.439234 20284 net.cpp:148] Top shape: 24 384 7 7 (451584)
I0403 15:48:31.439247 20284 net.cpp:156] Memory required for data: 1328854560
I0403 15:48:31.439262 20284 layer_factory.hpp:77] Creating layer inception_5b/3x3_reduce
I0403 15:48:31.439285 20284 net.cpp:91] Creating Layer inception_5b/3x3_reduce
I0403 15:48:31.439301 20284 net.cpp:425] inception_5b/3x3_reduce <- inception_5a/output_inception_5a/output_0_split_1
I0403 15:48:31.439324 20284 net.cpp:399] inception_5b/3x3_reduce -> inception_5b/3x3_reduce
I0403 15:48:31.441965 20284 net.cpp:141] Setting up inception_5b/3x3_reduce
I0403 15:48:31.441994 20284 net.cpp:148] Top shape: 24 192 7 7 (225792)
I0403 15:48:31.442009 20284 net.cpp:156] Memory required for data: 1329757728
I0403 15:48:31.442028 20284 layer_factory.hpp:77] Creating layer inception_5b/relu_3x3_reduce
I0403 15:48:31.442050 20284 net.cpp:91] Creating Layer inception_5b/relu_3x3_reduce
I0403 15:48:31.442068 20284 net.cpp:425] inception_5b/relu_3x3_reduce <- inception_5b/3x3_reduce
I0403 15:48:31.442085 20284 net.cpp:386] inception_5b/relu_3x3_reduce -> inception_5b/3x3_reduce (in-place)
I0403 15:48:31.442277 20284 net.cpp:141] Setting up inception_5b/relu_3x3_reduce
I0403 15:48:31.442304 20284 net.cpp:148] Top shape: 24 192 7 7 (225792)
I0403 15:48:31.442319 20284 net.cpp:156] Memory required for data: 1330660896
I0403 15:48:31.442333 20284 layer_factory.hpp:77] Creating layer inception_5b/3x3
I0403 15:48:31.442355 20284 net.cpp:91] Creating Layer inception_5b/3x3
I0403 15:48:31.442373 20284 net.cpp:425] inception_5b/3x3 <- inception_5b/3x3_reduce
I0403 15:48:31.442390 20284 net.cpp:399] inception_5b/3x3 -> inception_5b/3x3
I0403 15:48:31.449108 20284 net.cpp:141] Setting up inception_5b/3x3
I0403 15:48:31.449137 20284 net.cpp:148] Top shape: 24 384 7 7 (451584)
I0403 15:48:31.449153 20284 net.cpp:156] Memory required for data: 1332467232
I0403 15:48:31.449172 20284 layer_factory.hpp:77] Creating layer inception_5b/relu_3x3
I0403 15:48:31.449192 20284 net.cpp:91] Creating Layer inception_5b/relu_3x3
I0403 15:48:31.449208 20284 net.cpp:425] inception_5b/relu_3x3 <- inception_5b/3x3
I0403 15:48:31.449226 20284 net.cpp:386] inception_5b/relu_3x3 -> inception_5b/3x3 (in-place)
I0403 15:48:31.449535 20284 net.cpp:141] Setting up inception_5b/relu_3x3
I0403 15:48:31.449561 20284 net.cpp:148] Top shape: 24 384 7 7 (451584)
I0403 15:48:31.449576 20284 net.cpp:156] Memory required for data: 1334273568
I0403 15:48:31.449590 20284 layer_factory.hpp:77] Creating layer inception_5b/5x5_reduce
I0403 15:48:31.449630 20284 net.cpp:91] Creating Layer inception_5b/5x5_reduce
I0403 15:48:31.449650 20284 net.cpp:425] inception_5b/5x5_reduce <- inception_5a/output_inception_5a/output_0_split_2
I0403 15:48:31.449669 20284 net.cpp:399] inception_5b/5x5_reduce -> inception_5b/5x5_reduce
I0403 15:48:31.450970 20284 net.cpp:141] Setting up inception_5b/5x5_reduce
I0403 15:48:31.450999 20284 net.cpp:148] Top shape: 24 48 7 7 (56448)
I0403 15:48:31.451014 20284 net.cpp:156] Memory required for data: 1334499360
I0403 15:48:31.451032 20284 layer_factory.hpp:77] Creating layer inception_5b/relu_5x5_reduce
I0403 15:48:31.451058 20284 net.cpp:91] Creating Layer inception_5b/relu_5x5_reduce
I0403 15:48:31.451076 20284 net.cpp:425] inception_5b/relu_5x5_reduce <- inception_5b/5x5_reduce
I0403 15:48:31.451092 20284 net.cpp:386] inception_5b/relu_5x5_reduce -> inception_5b/5x5_reduce (in-place)
I0403 15:48:31.451474 20284 net.cpp:141] Setting up inception_5b/relu_5x5_reduce
I0403 15:48:31.451500 20284 net.cpp:148] Top shape: 24 48 7 7 (56448)
I0403 15:48:31.451515 20284 net.cpp:156] Memory required for data: 1334725152
I0403 15:48:31.451530 20284 layer_factory.hpp:77] Creating layer inception_5b/5x5
I0403 15:48:31.451551 20284 net.cpp:91] Creating Layer inception_5b/5x5
I0403 15:48:31.451568 20284 net.cpp:425] inception_5b/5x5 <- inception_5b/5x5_reduce
I0403 15:48:31.451587 20284 net.cpp:399] inception_5b/5x5 -> inception_5b/5x5
I0403 15:48:31.453677 20284 net.cpp:141] Setting up inception_5b/5x5
I0403 15:48:31.453708 20284 net.cpp:148] Top shape: 24 128 7 7 (150528)
I0403 15:48:31.453725 20284 net.cpp:156] Memory required for data: 1335327264
I0403 15:48:31.453744 20284 layer_factory.hpp:77] Creating layer inception_5b/relu_5x5
I0403 15:48:31.453763 20284 net.cpp:91] Creating Layer inception_5b/relu_5x5
I0403 15:48:31.453778 20284 net.cpp:425] inception_5b/relu_5x5 <- inception_5b/5x5
I0403 15:48:31.453799 20284 net.cpp:386] inception_5b/relu_5x5 -> inception_5b/5x5 (in-place)
I0403 15:48:31.453999 20284 net.cpp:141] Setting up inception_5b/relu_5x5
I0403 15:48:31.454023 20284 net.cpp:148] Top shape: 24 128 7 7 (150528)
I0403 15:48:31.454040 20284 net.cpp:156] Memory required for data: 1335929376
I0403 15:48:31.454058 20284 layer_factory.hpp:77] Creating layer inception_5b/pool
I0403 15:48:31.454077 20284 net.cpp:91] Creating Layer inception_5b/pool
I0403 15:48:31.454092 20284 net.cpp:425] inception_5b/pool <- inception_5a/output_inception_5a/output_0_split_3
I0403 15:48:31.454113 20284 net.cpp:399] inception_5b/pool -> inception_5b/pool
I0403 15:48:31.454188 20284 net.cpp:141] Setting up inception_5b/pool
I0403 15:48:31.454212 20284 net.cpp:148] Top shape: 24 832 7 7 (978432)
I0403 15:48:31.454226 20284 net.cpp:156] Memory required for data: 1339843104
I0403 15:48:31.454241 20284 layer_factory.hpp:77] Creating layer inception_5b/pool_proj
I0403 15:48:31.454264 20284 net.cpp:91] Creating Layer inception_5b/pool_proj
I0403 15:48:31.454282 20284 net.cpp:425] inception_5b/pool_proj <- inception_5b/pool
I0403 15:48:31.454301 20284 net.cpp:399] inception_5b/pool_proj -> inception_5b/pool_proj
I0403 15:48:31.456643 20284 net.cpp:141] Setting up inception_5b/pool_proj
I0403 15:48:31.456676 20284 net.cpp:148] Top shape: 24 128 7 7 (150528)
I0403 15:48:31.456692 20284 net.cpp:156] Memory required for data: 1340445216
I0403 15:48:31.456710 20284 layer_factory.hpp:77] Creating layer inception_5b/relu_pool_proj
I0403 15:48:31.456729 20284 net.cpp:91] Creating Layer inception_5b/relu_pool_proj
I0403 15:48:31.456745 20284 net.cpp:425] inception_5b/relu_pool_proj <- inception_5b/pool_proj
I0403 15:48:31.456763 20284 net.cpp:386] inception_5b/relu_pool_proj -> inception_5b/pool_proj (in-place)
I0403 15:48:31.457094 20284 net.cpp:141] Setting up inception_5b/relu_pool_proj
I0403 15:48:31.457135 20284 net.cpp:148] Top shape: 24 128 7 7 (150528)
I0403 15:48:31.457152 20284 net.cpp:156] Memory required for data: 1341047328
I0403 15:48:31.457168 20284 layer_factory.hpp:77] Creating layer inception_5b/output
I0403 15:48:31.457186 20284 net.cpp:91] Creating Layer inception_5b/output
I0403 15:48:31.457219 20284 net.cpp:425] inception_5b/output <- inception_5b/1x1
I0403 15:48:31.457238 20284 net.cpp:425] inception_5b/output <- inception_5b/3x3
I0403 15:48:31.457257 20284 net.cpp:425] inception_5b/output <- inception_5b/5x5
I0403 15:48:31.457273 20284 net.cpp:425] inception_5b/output <- inception_5b/pool_proj
I0403 15:48:31.457291 20284 net.cpp:399] inception_5b/output -> inception_5b/output
I0403 15:48:31.457347 20284 net.cpp:141] Setting up inception_5b/output
I0403 15:48:31.457376 20284 net.cpp:148] Top shape: 24 1024 7 7 (1204224)
I0403 15:48:31.457391 20284 net.cpp:156] Memory required for data: 1345864224
I0403 15:48:31.457418 20284 layer_factory.hpp:77] Creating layer pool5/7x7_s1
I0403 15:48:31.457439 20284 net.cpp:91] Creating Layer pool5/7x7_s1
I0403 15:48:31.457456 20284 net.cpp:425] pool5/7x7_s1 <- inception_5b/output
I0403 15:48:31.457475 20284 net.cpp:399] pool5/7x7_s1 -> pool5/7x7_s1
I0403 15:48:31.457703 20284 net.cpp:141] Setting up pool5/7x7_s1
I0403 15:48:31.457732 20284 net.cpp:148] Top shape: 24 1024 1 1 (24576)
I0403 15:48:31.457748 20284 net.cpp:156] Memory required for data: 1345962528
I0403 15:48:31.457764 20284 layer_factory.hpp:77] Creating layer pool5/drop_7x7_s1
I0403 15:48:31.457782 20284 net.cpp:91] Creating Layer pool5/drop_7x7_s1
I0403 15:48:31.457798 20284 net.cpp:425] pool5/drop_7x7_s1 <- pool5/7x7_s1
I0403 15:48:31.457815 20284 net.cpp:386] pool5/drop_7x7_s1 -> pool5/7x7_s1 (in-place)
I0403 15:48:31.457869 20284 net.cpp:141] Setting up pool5/drop_7x7_s1
I0403 15:48:31.457893 20284 net.cpp:148] Top shape: 24 1024 1 1 (24576)
I0403 15:48:31.457907 20284 net.cpp:156] Memory required for data: 1346060832
I0403 15:48:31.457922 20284 layer_factory.hpp:77] Creating layer loss3/classifier_plantvillage
I0403 15:48:31.457944 20284 net.cpp:91] Creating Layer loss3/classifier_plantvillage
I0403 15:48:31.457964 20284 net.cpp:425] loss3/classifier_plantvillage <- pool5/7x7_s1
I0403 15:48:31.457983 20284 net.cpp:399] loss3/classifier_plantvillage -> loss3/classifier_plantvillage
I0403 15:48:31.458441 20284 net.cpp:141] Setting up loss3/classifier_plantvillage
I0403 15:48:31.458466 20284 net.cpp:148] Top shape: 24 38 (912)
I0403 15:48:31.458480 20284 net.cpp:156] Memory required for data: 1346064480
I0403 15:48:31.458498 20284 layer_factory.hpp:77] Creating layer loss3/classifier_plantvillage_loss3/classifier_plantvillage_0_split
I0403 15:48:31.458518 20284 net.cpp:91] Creating Layer loss3/classifier_plantvillage_loss3/classifier_plantvillage_0_split
I0403 15:48:31.458534 20284 net.cpp:425] loss3/classifier_plantvillage_loss3/classifier_plantvillage_0_split <- loss3/classifier_plantvillage
I0403 15:48:31.458554 20284 net.cpp:399] loss3/classifier_plantvillage_loss3/classifier_plantvillage_0_split -> loss3/classifier_plantvillage_loss3/classifier_plantvillage_0_split_0
I0403 15:48:31.458577 20284 net.cpp:399] loss3/classifier_plantvillage_loss3/classifier_plantvillage_0_split -> loss3/classifier_plantvillage_loss3/classifier_plantvillage_0_split_1
I0403 15:48:31.458597 20284 net.cpp:399] loss3/classifier_plantvillage_loss3/classifier_plantvillage_0_split -> loss3/classifier_plantvillage_loss3/classifier_plantvillage_0_split_2
I0403 15:48:31.458618 20284 net.cpp:399] loss3/classifier_plantvillage_loss3/classifier_plantvillage_0_split -> loss3/classifier_plantvillage_loss3/classifier_plantvillage_0_split_3
I0403 15:48:31.458729 20284 net.cpp:141] Setting up loss3/classifier_plantvillage_loss3/classifier_plantvillage_0_split
I0403 15:48:31.458752 20284 net.cpp:148] Top shape: 24 38 (912)
I0403 15:48:31.458770 20284 net.cpp:148] Top shape: 24 38 (912)
I0403 15:48:31.458786 20284 net.cpp:148] Top shape: 24 38 (912)
I0403 15:48:31.458801 20284 net.cpp:148] Top shape: 24 38 (912)
I0403 15:48:31.458816 20284 net.cpp:156] Memory required for data: 1346079072
I0403 15:48:31.458830 20284 layer_factory.hpp:77] Creating layer loss1/loss
I0403 15:48:31.458852 20284 net.cpp:91] Creating Layer loss1/loss
I0403 15:48:31.458869 20284 net.cpp:425] loss1/loss <- loss1/classifier_plantvillage_loss1/classifier_plantvillage_0_split_0
I0403 15:48:31.458904 20284 net.cpp:425] loss1/loss <- label_data_1_split_0
…
