…
I0403 16:13:22.824686 20843 net.cpp:313] The NetState phase (1) differed from the phase (0) specified by a rule in layer data
I0403 16:13:22.825875 20843 net.cpp:49] Initializing net from parameters: 
state {
  phase: TEST
}
layer {
  name: "data"
  type: "Data"
  top: "data"
  top: "label"
  include {
    phase: TEST
  }
  transform_param {
    mirror: false
    crop_size: 224
    mean_file: "/home/mohanty/data/final_dataset/lmdb/grayscale-20-80/mean.binaryproto"
  }
  data_param {
    source: "/home/mohanty/data/final_dataset/lmdb/grayscale-20-80/test_db"
    batch_size: 24
    backend: LMDB
  }
}
layer {
  name: "conv1/7x7_s2"
  type: "Convolution"
  bottom: "data"
  top: "conv1/7x7_s2"
  param {
    lr_mult: 1
    decay_mult: 1
  }
  param {
    lr_mult: 2
    decay_mult: 0
  }
  convolution_param {
    num_output: 64
    pad: 3
    kernel_size: 7
    stride: 2
    weight_filler {
      type: "xavier"
      std: 0.1
    }
    bias_filler {
      type: "constant"
      value: 0.2
    }
  }
}
layer {
  name: "conv1/relu_7x7"
  type: "ReLU"
  bottom: "conv1/7x7_s2"
  top: "conv1/7x7_s2"
}
layer {
  name: "pool1/3x3_s2"
  type: "Pooling"
  bottom: "conv1/7x7_s2"
  top: "pool1/3x3_s2"
  pooling_param {
    pool: MAX
    kernel_size: 3
    stride: 2
  }
}
layer {
  name: "pool1/norm1"
  type: "LRN"
  bottom: "pool1/3x3_s2"
  top: "pool1/norm1"
  lrn_param {
    local_size: 5
    alpha: 0.0001
    beta: 0.75
  }
}
layer {
  name: "conv2/3x3_reduce"
  type: "Convolution"
  bottom: "pool1/norm1"
  top: "conv2/3x3_reduce"
  param {
    lr_mult: 1
    decay_mult: 1
  }
  param {
    lr_mult: 2
    decay_mult: 0
  }
  convolution_param {
    num_output: 64
    kernel_size: 1
    weight_filler {
      type: "xavier"
      std: 0.1
    }
    bias_filler {
      type: "constant"
      value: 0.2
    }
  }
}
layer {
  name: "conv2/relu_3x3_reduce"
  type: "ReLU"
  bottom: "conv2/3x3_reduce"
  top: "conv2/3x3_reduce"
}
layer {
  name: "conv2/3x3"
  type: "Convolution"
  bottom: "conv2/3x3_reduce"
  top: "conv2/3x3"
  param {
    lr_mult: 1
    decay_mult: 1
  }
  param {
    lr_mult: 2
    decay_mult: 0
  }
  convolution_param {
    num_output: 192
    pad: 1
    kernel_size: 3
    weight_filler {
      type: "xavier"
      std: 0.03
    }
    bias_filler {
      type: "constant"
      value: 0.2
    }
  }
}
layer {
  name: "conv2/relu_3x3"
  type: "ReLU"
  bottom: "conv2/3x3"
  top: "conv2/3x3"
}
layer {
  name: "conv2/norm2"
  type: "LRN"
  bottom: "conv2/3x3"
  top: "conv2/norm2"
  lrn_param {
    local_size: 5
    alpha: 0.0001
    beta: 0.75
  }
}
layer {
  name: "pool2/3x3_s2"
  type: "Pooling"
  bottom: "conv2/norm2"
  top: "pool2/3x3_s2"
  pooling_param {
    pool: MAX
    kernel_size: 3
    stride: 2
  }
}
layer {
  name: "inception_3a/1x1"
  type: "Convolution"
  bottom: "pool2/3x3_s2"
  top: "inception_3a/1x1"
  param {
    lr_mult: 1
    decay_mult: 1
  }
  param {
    lr_mult: 2
    decay_mult: 0
  }
  convolution_param {
    num_output: 64
    kernel_size: 1
    weight_filler {
      type: "xavier"
      std: 0.03
    }
    bias_filler {
      type: "constant"
      value: 0.2
    }
  }
}
layer {
  name: "inception_3a/relu_1x1"
  type: "ReLU"
  bottom: "inception_3a/1x1"
  top: "inception_3a/1x1"
}
layer {
  name: "inception_3a/3x3_reduce"
  type: "Convolution"
  bottom: "pool2/3x3_s2"
  top: "inception_3a/3x3_reduce"
  param {
    lr_mult: 1
    decay_mult: 1
  }
  param {
    lr_mult: 2
    decay_mult: 0
  }
  convolution_param {
    num_output: 96
    kernel_size: 1
    weight_filler {
      type: "xavier"
      std: 0.09
    }
    bias_filler {
      type: "constant"
      value: 0.2
    }
  }
}
layer {
  name: "inception_3a/relu_3x3_reduce"
  type: "ReLU"
  bottom: "inception_3a/3x3_reduce"
  top: "inception_3a/3x3_reduce"
}
layer {
  name: "inception_3a/3x3"
  type: "Convolution"
  bottom: "inception_3a/3x3_reduce"
  top: "inception_3a/3x3"
  param {
    lr_mult: 1
    decay_mult: 1
  }
  param {
    lr_mult: 2
    decay_mult: 0
  }
  convolution_param {
    num_output: 128
    pad: 1
    kernel_size: 3
    weight_filler {
      type: "xavier"
      std: 0.03
    }
    bias_filler {
      type: "constant"
      value: 0.2
    }
  }
}
layer {
  name: "inception_3a/relu_3x3"
  type: "ReLU"
  bottom: "inception_3a/3x3"
  top: "inception_3a/3x3"
}
layer {
  name: "inception_3a/5x5_reduce"
  type: "Convolution"
  bottom: "pool2/3x3_s2"
  top: "inception_3a/5x5_reduce"
  param {
    lr_mult: 1
    decay_mult: 1
  }
  param {
    lr_mult: 2
    decay_mult: 0
  }
  convolution_param {
    num_output: 16
    kernel_size: 1
    weight_filler {
      type: "xavier"
      std: 0.2
    }
    bias_filler {
      type: "constant"
      value: 0.2
    }
  }
}
layer {
  name: "inception_3a/relu_5x5_reduce"
  type: "ReLU"
  bottom: "inception_3a/5x5_reduce"
  top: "inception_3a/5x5_reduce"
}
layer {
  name: "inception_3a/5x5"
  type: "Convolution"
  bottom: "inception_3a/5x5_reduce"
  top: "inception_3a/5x5"
  param {
    lr_mult: 1
    decay_mult: 1
  }
  param {
    lr_mult: 2
    decay_mult: 0
  }
  convolution_param {
    num_output: 32
    pad: 2
    kernel_size: 5
    weight_filler {
      type: "xavier"
      std: 0.03
    }
    bias_filler {
      type: "constant"
      value: 0.2
    }
  }
}
layer {
  name: "inception_3a/relu_5x5"
  type: "ReLU"
  bottom: "inception_3a/5x5"
  top: "inception_3a/5x5"
}
layer {
  name: "inception_3a/pool"
  type: "Pooling"
  bottom: "pool2/3x3_s2"
  top: "inception_3a/pool"
  pooling_param {
    pool: MAX
    kernel_size: 3
    stride: 1
    pad: 1
  }
}
layer {
  name: "inception_3a/pool_proj"
  type: "Convolution"
  bottom: "inception_3a/pool"
  top: "inception_3a/pool_proj"
  param {
    lr_mult: 1
    decay_mult: 1
  }
  param {
    lr_mult: 2
    decay_mult: 0
  }
  convolution_param {
    num_output: 32
    kernel_size: 1
    weight_filler {
      type: "xavier"
      std: 0.1
    }
    bias_filler {
      type: "constant"
      value: 0.2
    }
  }
}
layer {
  name: "inception_3a/relu_pool_proj"
  type: "ReLU"
  bottom: "inception_3a/pool_proj"
  top: "inception_3a/pool_proj"
}
layer {
  name: "inception_3a/output"
  type: "Concat"
  bottom: "inception_3a/1x1"
  bottom: "inception_3a/3x3"
  bottom: "inception_3a/5x5"
  bottom: "inception_3a/pool_proj"
  top: "inception_3a/output"
}
layer {
  name: "inception_3b/1x1"
  type: "Convolution"
  bottom: "inception_3a/output"
  top: "inception_3b/1x1"
  param {
    lr_mult: 1
    decay_mult: 1
  }
  param {
    lr_mult: 2
    decay_mult: 0
  }
  convolution_param {
    num_output: 128
    kernel_size: 1
    weight_filler {
      type: "xavier"
      std: 0.03
    }
    bias_filler {
      type: "constant"
      value: 0.2
    }
  }
}
layer {
  name: "inception_3b/relu_1x1"
  type: "ReLU"
  bottom: "inception_3b/1x1"
  top: "inception_3b/1x1"
}
layer {
  name: "inception_3b/3x3_reduce"
  type: "Convolution"
  bottom: "inception_3a/output"
  top: "inception_3b/3x3_reduce"
  param {
    lr_mult: 1
    decay_mult: 1
  }
  param {
    lr_mult: 2
    decay_mult: 0
  }
  convolution_param {
    num_output: 128
    kernel_size: 1
    weight_filler {
      type: "xavier"
      std: 0.09
    }
    bias_filler {
      type: "constant"
      value: 0.2
    }
  }
}
layer {
  name: "inception_3b/relu_3x3_reduce"
  type: "ReLU"
  bottom: "inception_3b/3x3_reduce"
  top: "inception_3b/3x3_reduce"
}
layer {
  name: "inception_3b/3x3"
  type: "Convolution"
  bottom: "inception_3b/3x3_reduce"
  top: "inception_3b/3x3"
  param {
    lr_mult: 1
    decay_mult: 1
  }
  param {
    lr_mult: 2
    decay_mult: 0
  }
  convolution_param {
    num_output: 192
    pad: 1
    kernel_size: 3
    weight_filler {
      type: "xavier"
      std: 0.03
    }
    bias_filler {
      type: "constant"
      value: 0.2
    }
  }
}
layer {
  name: "inception_3b/relu_3x3"
  type: "ReLU"
  bottom: "inception_3b/3x3"
  top: "inception_3b/3x3"
}
layer {
  name: "inception_3b/5x5_reduce"
  type: "Convolution"
  bottom: "inception_3a/output"
  top: "inception_3b/5x5_reduce"
  param {
    lr_mult: 1
    decay_mult: 1
  }
  param {
    lr_mult: 2
    decay_mult: 0
  }
  convolution_param {
    num_output: 32
    kernel_size: 1
    weight_filler {
      type: "xavier"
      std: 0.2
    }
    bias_filler {
      type: "constant"
      value: 0.2
    }
  }
}
layer {
  name: "inception_3b/relu_5x5_reduce"
  type: "ReLU"
  bottom: "inception_3b/5x5_reduce"
  top: "inception_3b/5x5_reduce"
}
layer {
  name: "inception_3b/5x5"
  type: "Convolution"
  bottom: "inception_3b/5x5_reduce"
  top: "inception_3b/5x5"
  param {
    lr_mult: 1
    decay_mult: 1
  }
  param {
    lr_mult: 2
    decay_mult: 0
  }
  convolution_param {
    num_output: 96
    pad: 2
    kernel_size: 5
    weight_filler {
      type: "xavier"
      std: 0.03
    }
    bias_filler {
      type: "constant"
      value: 0.2
    }
  }
}
layer {
  name: "inception_3b/relu_5x5"
  type: "ReLU"
  bottom: "inception_3b/5x5"
  top: "inception_3b/5x5"
}
layer {
  name: "inception_3b/pool"
  type: "Pooling"
  bottom: "inception_3a/output"
  top: "inception_3b/pool"
  pooling_param {
    pool: MAX
    kernel_size: 3
    stride: 1
    pad: 1
  }
}
layer {
  name: "inception_3b/pool_proj"
  type: "Convolution"
  bottom: "inception_3b/pool"
  top: "inception_3b/pool_proj"
  param {
    lr_mult: 1
    decay_mult: 1
  }
  param {
    lr_mult: 2
    decay_mult: 0
  }
  convolution_param {
    num_output: 64
    kernel_size: 1
    weight_filler {
      type: "xavier"
      std: 0.1
    }
    bias_filler {
      type: "constant"
      value: 0.2
    }
  }
}
layer {
  name: "inception_3b/relu_pool_proj"
  type: "ReLU"
  bottom: "inception_3b/pool_proj"
  top: "inception_3b/pool_proj"
}
layer {
  name: "inception_3b/output"
  type: "Concat"
  bottom: "inception_3b/1x1"
  bottom: "inception_3b/3x3"
  bottom: "inception_3b/5x5"
  bottom: "inception_3b/pool_proj"
  top: "inception_3b/output"
}
layer {
  name: "pool3/3x3_s2"
  type: "Pooling"
  bottom: "inception_3b/output"
  top: "pool3/3x3_s2"
  pooling_param {
    pool: MAX
    kernel_size: 3
    stride: 2
  }
}
layer {
  name: "inception_4a/1x1"
  type: "Convolution"
  bottom: "pool3/3x3_s2"
  top: "inception_4a/1x1"
  param {
    lr_mult: 1
    decay_mult: 1
  }
  param {
    lr_mult: 2
    decay_mult: 0
  }
  convolution_param {
    num_output: 192
    kernel_size: 1
    weight_filler {
      type: "xavier"
      std: 0.03
    }
    bias_filler {
      type: "constant"
      value: 0.2
    }
  }
}
layer {
  name: "inception_4a/relu_1x1"
  type: "ReLU"
  bottom: "inception_4a/1x1"
  top: "inception_4a/1x1"
}
layer {
  name: "inception_4a/3x3_reduce"
  type: "Convolution"
  bottom: "pool3/3x3_s2"
  top: "inception_4a/3x3_reduce"
  param {
    lr_mult: 1
    decay_mult: 1
  }
  param {
    lr_mult: 2
    decay_mult: 0
  }
  convolution_param {
    num_output: 96
    kernel_size: 1
    weight_filler {
      type: "xavier"
      std: 0.09
    }
    bias_filler {
      type: "constant"
      value: 0.2
    }
  }
}
layer {
  name: "inception_4a/relu_3x3_reduce"
  type: "ReLU"
  bottom: "inception_4a/3x3_reduce"
  top: "inception_4a/3x3_reduce"
}
layer {
  name: "inception_4a/3x3"
  type: "Convolution"
  bottom: "inception_4a/3x3_reduce"
  top: "inception_4a/3x3"
  param {
    lr_mult: 1
    decay_mult: 1
  }
  param {
    lr_mult: 2
    decay_mult: 0
  }
  convolution_param {
    num_output: 208
    pad: 1
    kernel_size: 3
    weight_filler {
      type: "xavier"
      std: 0.03
    }
    bias_filler {
      type: "constant"
      value: 0.2
    }
  }
}
layer {
  name: "inception_4a/relu_3x3"
  type: "ReLU"
  bottom: "inception_4a/3x3"
  top: "inception_4a/3x3"
}
layer {
  name: "inception_4a/5x5_reduce"
  type: "Convolution"
  bottom: "pool3/3x3_s2"
  top: "inception_4a/5x5_reduce"
  param {
    lr_mult: 1
    decay_mult: 1
  }
  param {
    lr_mult: 2
    decay_mult: 0
  }
  convolution_param {
    num_output: 16
    kernel_size: 1
    weight_filler {
      type: "xavier"
      std: 0.2
    }
    bias_filler {
      type: "constant"
      value: 0.2
    }
  }
}
layer {
  name: "inception_4a/relu_5x5_reduce"
  type: "ReLU"
  bottom: "inception_4a/5x5_reduce"
  top: "inception_4a/5x5_reduce"
}
layer {
  name: "inception_4a/5x5"
  type: "Convolution"
  bottom: "inception_4a/5x5_reduce"
  top: "inception_4a/5x5"
  param {
    lr_mult: 1
    decay_mult: 1
  }
  param {
    lr_mult: 2
    decay_mult: 0
  }
  convolution_param {
    num_output: 48
    pad: 2
    kernel_size: 5
    weight_filler {
      type: "xavier"
      std: 0.03
    }
    bias_filler {
      type: "constant"
      value: 0.2
    }
  }
}
layer {
  name: "inception_4a/relu_5x5"
  type: "ReLU"
  bottom: "inception_4a/5x5"
  top: "inception_4a/5x5"
}
layer {
  name: "inception_4a/pool"
  type: "Pooling"
  bottom: "pool3/3x3_s2"
  top: "inception_4a/pool"
  pooling_param {
    pool: MAX
    kernel_size: 3
    stride: 1
    pad: 1
  }
}
layer {
  name: "inception_4a/pool_proj"
  type: "Convolution"
  bottom: "inception_4a/pool"
  top: "inception_4a/pool_proj"
  param {
    lr_mult: 1
    decay_mult: 1
  }
  param {
    lr_mult: 2
    decay_mult: 0
  }
  convolution_param {
    num_output: 64
    kernel_size: 1
    weight_filler {
      type: "xavier"
      std: 0.1
    }
    bias_filler {
      type: "constant"
      value: 0.2
    }
  }
}
layer {
  name: "inception_4a/relu_pool_proj"
  type: "ReLU"
  bottom: "inception_4a/pool_proj"
  top: "inception_4a/pool_proj"
}
layer {
  name: "inception_4a/output"
  type: "Concat"
  bottom: "inception_4a/1x1"
  bottom: "inception_4a/3x3"
  bottom: "inception_4a/5x5"
  bottom: "inception_4a/pool_proj"
  top: "inception_4a/output"
}
layer {
  name: "loss1/ave_pool"
  type: "Pooling"
  bottom: "inception_4a/output"
  top: "loss1/ave_pool"
  pooling_param {
    pool: AVE
    kernel_size: 5
    stride: 3
  }
}
layer {
  name: "loss1/conv"
  type: "Convolution"
  bottom: "loss1/ave_pool"
  top: "loss1/conv"
  param {
    lr_mult: 1
    decay_mult: 1
  }
  param {
    lr_mult: 2
    decay_mult: 0
  }
  convolution_param {
    num_output: 128
    kernel_size: 1
    weight_filler {
      type: "xavier"
      std: 0.08
    }
    bias_filler {
      type: "constant"
      value: 0.2
    }
  }
}
layer {
  name: "loss1/relu_conv"
  type: "ReLU"
  bottom: "loss1/conv"
  top: "loss1/conv"
}
layer {
  name: "loss1/fc"
  type: "InnerProduct"
  bottom: "loss1/conv"
  top: "loss1/fc"
  param {
    lr_mult: 1
    decay_mult: 1
  }
  param {
    lr_mult: 2
    decay_mult: 0
  }
  inner_product_param {
    num_output: 1024
    weight_filler {
      type: "xavier"
      std: 0.02
    }
    bias_filler {
      type: "constant"
      value: 0.2
    }
  }
}
layer {
  name: "loss1/relu_fc"
  type: "ReLU"
  bottom: "loss1/fc"
  top: "loss1/fc"
}
layer {
  name: "loss1/drop_fc"
  type: "Dropout"
  bottom: "loss1/fc"
  top: "loss1/fc"
  dropout_param {
    dropout_ratio: 0.7
  }
}
layer {
  name: "loss1/classifier_plantvillage"
  type: "InnerProduct"
  bottom: "loss1/fc"
  top: "loss1/classifier_plantvillage"
  param {
    lr_mult: 1
    decay_mult: 1
  }
  param {
    lr_mult: 2
    decay_mult: 0
  }
  inner_product_param {
    num_output: 38
    weight_filler {
      type: "xavier"
      std: 0.0009765625
    }
    bias_filler {
      type: "constant"
      value: 0
    }
  }
}
layer {
  name: "inception_4b/1x1"
  type: "Convolution"
  bottom: "inception_4a/output"
  top: "inception_4b/1x1"
  param {
    lr_mult: 1
    decay_mult: 1
  }
  param {
    lr_mult: 2
    decay_mult: 0
  }
  convolution_param {
    num_output: 160
    kernel_size: 1
    weight_filler {
      type: "xavier"
      std: 0.03
    }
    bias_filler {
      type: "constant"
      value: 0.2
    }
  }
}
layer {
  name: "inception_4b/relu_1x1"
  type: "ReLU"
  bottom: "inception_4b/1x1"
  top: "inception_4b/1x1"
}
layer {
  name: "inception_4b/3x3_reduce"
  type: "Convolution"
  bottom: "inception_4a/output"
  top: "inception_4b/3x3_reduce"
  param {
    lr_mult: 1
    decay_mult: 1
  }
  param {
    lr_mult: 2
    decay_mult: 0
  }
  convolution_param {
    num_output: 112
    kernel_size: 1
    weight_filler {
      type: "xavier"
      std: 0.09
    }
    bias_filler {
      type: "constant"
      value: 0.2
    }
  }
}
layer {
  name: "inception_4b/relu_3x3_reduce"
  type: "ReLU"
  bottom: "inception_4b/3x3_reduce"
  top: "inception_4b/3x3_reduce"
}
layer {
  name: "inception_4b/3x3"
  type: "Convolution"
  bottom: "inception_4b/3x3_reduce"
  top: "inception_4b/3x3"
  param {
    lr_mult: 1
    decay_mult: 1
  }
  param {
    lr_mult: 2
    decay_mult: 0
  }
  convolution_param {
    num_output: 224
    pad: 1
    kernel_size: 3
    weight_filler {
      type: "xavier"
      std: 0.03
    }
    bias_filler {
      type: "constant"
      value: 0.2
    }
  }
}
layer {
  name: "inception_4b/relu_3x3"
  type: "ReLU"
  bottom: "inception_4b/3x3"
  top: "inception_4b/3x3"
}
layer {
  name: "inception_4b/5x5_reduce"
  type: "Convolution"
  bottom: "inception_4a/output"
  top: "inception_4b/5x5_reduce"
  param {
    lr_mult: 1
    decay_mult: 1
  }
  param {
    lr_mult: 2
    decay_mult: 0
  }
  convolution_param {
    num_output: 24
    kernel_size: 1
    weight_filler {
      type: "xavier"
      std: 0.2
    }
    bias_filler {
      type: "constant"
      value: 0.2
    }
  }
}
layer {
  name: "inception_4b/relu_5x5_reduce"
  type: "ReLU"
  bottom: "inception_4b/5x5_reduce"
  top: "inception_4b/5x5_reduce"
}
layer {
  name: "inception_4b/5x5"
  type: "Convolution"
  bottom: "inception_4b/5x5_reduce"
  top: "inception_4b/5x5"
  param {
    lr_mult: 1
    decay_mult: 1
  }
  param {
    lr_mult: 2
    decay_mult: 0
  }
  convolution_param {
    num_output: 64
    pad: 2
    kernel_size: 5
    weight_filler {
      type: "xavier"
      std: 0.03
    }
    bias_filler {
      type: "constant"
      value: 0.2
    }
  }
}
layer {
  name: "inception_4b/relu_5x5"
  type: "ReLU"
  bottom: "inception_4b/5x5"
  top: "inception_4b/5x5"
}
layer {
  name: "inception_4b/pool"
  type: "Pooling"
  bottom: "inception_4a/output"
  top: "inception_4b/pool"
  pooling_param {
    pool: MAX
    kernel_size: 3
    stride: 1
    pad: 1
  }
}
layer {
  name: "inception_4b/pool_proj"
  type: "Convolution"
  bottom: "inception_4b/pool"
  top: "inception_4b/pool_proj"
  param {
    lr_mult: 1
    decay_mult: 1
  }
  param {
    lr_mult: 2
    decay_mult: 0
  }
  convolution_param {
    num_output: 64
    kernel_size: 1
    weight_filler {
      type: "xavier"
      std: 0.1
    }
    bias_filler {
      type: "constant"
      value: 0.2
    }
  }
}
layer {
  name: "inception_4b/relu_pool_proj"
  type: "ReLU"
  bottom: "inception_4b/pool_proj"
  top: "inception_4b/pool_proj"
}
layer {
  name: "inception_4b/output"
  type: "Concat"
  bottom: "inception_4b/1x1"
  bottom: "inception_4b/3x3"
  bottom: "inception_4b/5x5"
  bottom: "inception_4b/pool_proj"
  top: "inception_4b/output"
}
layer {
  name: "inception_4c/1x1"
  type: "Convolution"
  bottom: "inception_4b/output"
  top: "inception_4c/1x1"
  param {
    lr_mult: 1
    decay_mult: 1
  }
  param {
    lr_mult: 2
    decay_mult: 0
  }
  convolution_param {
    num_output: 128
    kernel_size: 1
    weight_filler {
      type: "xavier"
      std: 0.03
    }
    bias_filler {
      type: "constant"
      value: 0.2
    }
  }
}
layer {
  name: "inception_4c/relu_1x1"
  type: "ReLU"
  bottom: "inception_4c/1x1"
  top: "inception_4c/1x1"
}
layer {
  name: "inception_4c/3x3_reduce"
  type: "Convolution"
  bottom: "inception_4b/output"
  top: "inception_4c/3x3_reduce"
  param {
    lr_mult: 1
    decay_mult: 1
  }
  param {
    lr_mult: 2
    decay_mult: 0
  }
  convolution_param {
    num_output: 128
    kernel_size: 1
    weight_filler {
      type: "xavier"
      std: 0.09
    }
    bias_filler {
      type: "constant"
      value: 0.2
    }
  }
}
layer {
  name: "inception_4c/relu_3x3_reduce"
  type: "ReLU"
  bottom: "inception_4c/3x3_reduce"
  top: "inception_4c/3x3_reduce"
}
layer {
  name: "inception_4c/3x3"
  type: "Convolution"
  bottom: "inception_4c/3x3_reduce"
  top: "inception_4c/3x3"
  param {
    lr_mult: 1
    decay_mult: 1
  }
  param {
    lr_mult: 2
    decay_mult: 0
  }
  convolution_param {
    num_output: 256
    pad: 1
    kernel_size: 3
    weight_filler {
      type: "xavier"
      std: 0.03
    }
    bias_filler {
      type: "constant"
      value: 0.2
    }
  }
}
layer {
  name: "inception_4c/relu_3x3"
  type: "ReLU"
  bottom: "inception_4c/3x3"
  top: "inception_4c/3x3"
}
layer {
  name: "inception_4c/5x5_reduce"
  type: "Convolution"
  bottom: "inception_4b/output"
  top: "inception_4c/5x5_reduce"
  param {
    lr_mult: 1
    decay_mult: 1
  }
  param {
    lr_mult: 2
    decay_mult: 0
  }
  convolution_param {
    num_output: 24
    kernel_size: 1
    weight_filler {
      type: "xavier"
      std: 0.2
    }
    bias_filler {
      type: "constant"
      value: 0.2
    }
  }
}
layer {
  name: "inception_4c/relu_5x5_reduce"
  type: "ReLU"
  bottom: "inception_4c/5x5_reduce"
  top: "inception_4c/5x5_reduce"
}
layer {
  name: "inception_4c/5x5"
  type: "Convolution"
  bottom: "inception_4c/5x5_reduce"
  top: "inception_4c/5x5"
  param {
    lr_mult: 1
    decay_mult: 1
  }
  param {
    lr_mult: 2
    decay_mult: 0
  }
  convolution_param {
    num_output: 64
    pad: 2
    kernel_size: 5
    weight_filler {
      type: "xavier"
      std: 0.03
    }
    bias_filler {
      type: "constant"
      value: 0.2
    }
  }
}
layer {
  name: "inception_4c/relu_5x5"
  type: "ReLU"
  bottom: "inception_4c/5x5"
  top: "inception_4c/5x5"
}
layer {
  name: "inception_4c/pool"
  type: "Pooling"
  bottom: "inception_4b/output"
  top: "inception_4c/pool"
  pooling_param {
    pool: MAX
    kernel_size: 3
    stride: 1
    pad: 1
  }
}
layer {
  name: "inception_4c/pool_proj"
  type: "Convolution"
  bottom: "inception_4c/pool"
  top: "inception_4c/pool_proj"
  param {
    lr_mult: 1
    decay_mult: 1
  }
  param {
    lr_mult: 2
    decay_mult: 0
  }
  convolution_param {
    num_output: 64
    kernel_size: 1
    weight_filler {
      type: "xavier"
      std: 0.1
    }
    bias_filler {
      type: "constant"
      value: 0.2
    }
  }
}
layer {
  name: "inception_4c/relu_pool_proj"
  type: "ReLU"
  bottom: "inception_4c/pool_proj"
  top: "inception_4c/pool_proj"
}
layer {
  name: "inception_4c/output"
  type: "Concat"
  bottom: "inception_4c/1x1"
  bottom: "inception_4c/3x3"
  bottom: "inception_4c/5x5"
  bottom: "inception_4c/pool_proj"
  top: "inception_4c/output"
}
layer {
  name: "inception_4d/1x1"
  type: "Convolution"
  bottom: "inception_4c/output"
  top: "inception_4d/1x1"
  param {
    lr_mult: 1
    decay_mult: 1
  }
  param {
    lr_mult: 2
    decay_mult: 0
  }
  convolution_param {
    num_output: 112
    kernel_size: 1
    weight_filler {
      type: "xavier"
      std: 0.03
    }
    bias_filler {
      type: "constant"
      value: 0.2
    }
  }
}
layer {
  name: "inception_4d/relu_1x1"
  type: "ReLU"
  bottom: "inception_4d/1x1"
  top: "inception_4d/1x1"
}
layer {
  name: "inception_4d/3x3_reduce"
  type: "Convolution"
  bottom: "inception_4c/output"
  top: "inception_4d/3x3_reduce"
  param {
    lr_mult: 1
    decay_mult: 1
  }
  param {
    lr_mult: 2
    decay_mult: 0
  }
  convolution_param {
    num_output: 144
    kernel_size: 1
    weight_filler {
      type: "xavier"
      std: 0.09
    }
    bias_filler {
      type: "constant"
      value: 0.2
    }
  }
}
layer {
  name: "inception_4d/relu_3x3_reduce"
  type: "ReLU"
  bottom: "inception_4d/3x3_reduce"
  top: "inception_4d/3x3_reduce"
}
layer {
  name: "inception_4d/3x3"
  type: "Convolution"
  bottom: "inception_4d/3x3_reduce"
  top: "inception_4d/3x3"
  param {
    lr_mult: 1
    decay_mult: 1
  }
  param {
    lr_mult: 2
    decay_mult: 0
  }
  convolution_param {
    num_output: 288
    pad: 1
    kernel_size: 3
    weight_filler {
      type: "xavier"
      std: 0.03
    }
    bias_filler {
      type: "constant"
      value: 0.2
    }
  }
}
layer {
  name: "inception_4d/relu_3x3"
  type: "ReLU"
  bottom: "inception_4d/3x3"
  top: "inception_4d/3x3"
}
layer {
  name: "inception_4d/5x5_reduce"
  type: "Convolution"
  bottom: "inception_4c/output"
  top: "inception_4d/5x5_reduce"
  param {
    lr_mult: 1
    decay_mult: 1
  }
  param {
    lr_mult: 2
    decay_mult: 0
  }
  convolution_param {
    num_output: 32
    kernel_size: 1
    weight_filler {
      type: "xavier"
      std: 0.2
    }
    bias_filler {
      type: "constant"
      value: 0.2
    }
  }
}
layer {
  name: "inception_4d/relu_5x5_reduce"
  type: "ReLU"
  bottom: "inception_4d/5x5_reduce"
  top: "inception_4d/5x5_reduce"
}
layer {
  name: "inception_4d/5x5"
  type: "Convolution"
  bottom: "inception_4d/5x5_reduce"
  top: "inception_4d/5x5"
  param {
    lr_mult: 1
    decay_mult: 1
  }
  param {
    lr_mult: 2
    decay_mult: 0
  }
  convolution_param {
    num_output: 64
    pad: 2
    kernel_size: 5
    weight_filler {
      type: "xavier"
      std: 0.03
    }
    bias_filler {
      type: "constant"
      value: 0.2
    }
  }
}
layer {
  name: "inception_4d/relu_5x5"
  type: "ReLU"
  bottom: "inception_4d/5x5"
  top: "inception_4d/5x5"
}
layer {
  name: "inception_4d/pool"
  type: "Pooling"
  bottom: "inception_4c/output"
  top: "inception_4d/pool"
  pooling_param {
    pool: MAX
    kernel_size: 3
    stride: 1
    pad: 1
  }
}
layer {
  name: "inception_4d/pool_proj"
  type: "Convolution"
  bottom: "inception_4d/pool"
  top: "inception_4d/pool_proj"
  param {
    lr_mult: 1
    decay_mult: 1
  }
  param {
    lr_mult: 2
    decay_mult: 0
  }
  convolution_param {
    num_output: 64
    kernel_size: 1
    weight_filler {
      type: "xavier"
      std: 0.1
    }
    bias_filler {
      type: "constant"
      value: 0.2
    }
  }
}
layer {
  name: "inception_4d/relu_pool_proj"
  type: "ReLU"
  bottom: "inception_4d/pool_proj"
  top: "inception_4d/pool_proj"
}
layer {
  name: "inception_4d/output"
  type: "Concat"
  bottom: "inception_4d/1x1"
  bottom: "inception_4d/3x3"
  bottom: "inception_4d/5x5"
  bottom: "inception_4d/pool_proj"
  top: "inception_4d/output"
}
layer {
  name: "loss2/ave_pool"
  type: "Pooling"
  bottom: "inception_4d/output"
  top: "loss2/ave_pool"
  pooling_param {
    pool: AVE
    kernel_size: 5
    stride: 3
  }
}
layer {
  name: "loss2/conv"
  type: "Convolution"
  bottom: "loss2/ave_pool"
  top: "loss2/conv"
  param {
    lr_mult: 1
    decay_mult: 1
  }
  param {
    lr_mult: 2
    decay_mult: 0
  }
  convolution_param {
    num_output: 128
    kernel_size: 1
    weight_filler {
      type: "xavier"
      std: 0.08
    }
    bias_filler {
      type: "constant"
      value: 0.2
    }
  }
}
layer {
  name: "loss2/relu_conv"
  type: "ReLU"
  bottom: "loss2/conv"
  top: "loss2/conv"
}
layer {
  name: "loss2/fc"
  type: "InnerProduct"
  bottom: "loss2/conv"
  top: "loss2/fc"
  param {
    lr_mult: 1
    decay_mult: 1
  }
  param {
    lr_mult: 2
    decay_mult: 0
  }
  inner_product_param {
    num_output: 1024
    weight_filler {
      type: "xavier"
      std: 0.02
    }
    bias_filler {
      type: "constant"
      value: 0.2
    }
  }
}
layer {
  name: "loss2/relu_fc"
  type: "ReLU"
  bottom: "loss2/fc"
  top: "loss2/fc"
}
layer {
  name: "loss2/drop_fc"
  type: "Dropout"
  bottom: "loss2/fc"
  top: "loss2/fc"
  dropout_param {
    dropout_ratio: 0.7
  }
}
layer {
  name: "loss2/classifier_plantvillage"
  type: "InnerProduct"
  bottom: "loss2/fc"
  top: "loss2/classifier_plantvillage"
  param {
    lr_mult: 1
    decay_mult: 1
  }
  param {
    lr_mult: 2
    decay_mult: 0
  }
  inner_product_param {
    num_output: 38
    weight_filler {
      type: "xavier"
      std: 0.0009765625
    }
    bias_filler {
      type: "constant"
      value: 0
    }
  }
}
layer {
  name: "inception_4e/1x1"
  type: "Convolution"
  bottom: "inception_4d/output"
  top: "inception_4e/1x1"
  param {
    lr_mult: 1
    decay_mult: 1
  }
  param {
    lr_mult: 2
    decay_mult: 0
  }
  convolution_param {
    num_output: 256
    kernel_size: 1
    weight_filler {
      type: "xavier"
      std: 0.03
    }
    bias_filler {
      type: "constant"
      value: 0.2
    }
  }
}
layer {
  name: "inception_4e/relu_1x1"
  type: "ReLU"
  bottom: "inception_4e/1x1"
  top: "inception_4e/1x1"
}
layer {
  name: "inception_4e/3x3_reduce"
  type: "Convolution"
  bottom: "inception_4d/output"
  top: "inception_4e/3x3_reduce"
  param {
    lr_mult: 1
    decay_mult: 1
  }
  param {
    lr_mult: 2
    decay_mult: 0
  }
  convolution_param {
    num_output: 160
    kernel_size: 1
    weight_filler {
      type: "xavier"
      std: 0.09
    }
    bias_filler {
      type: "constant"
      value: 0.2
    }
  }
}
layer {
  name: "inception_4e/relu_3x3_reduce"
  type: "ReLU"
  bottom: "inception_4e/3x3_reduce"
  top: "inception_4e/3x3_reduce"
}
layer {
  name: "inception_4e/3x3"
  type: "Convolution"
  bottom: "inception_4e/3x3_reduce"
  top: "inception_4e/3x3"
  param {
    lr_mult: 1
    decay_mult: 1
  }
  param {
    lr_mult: 2
    decay_mult: 0
  }
  convolution_param {
    num_output: 320
    pad: 1
    kernel_size: 3
    weight_filler {
      type: "xavier"
      std: 0.03
    }
    bias_filler {
      type: "constant"
      value: 0.2
    }
  }
}
layer {
  name: "inception_4e/relu_3x3"
  type: "ReLU"
  bottom: "inception_4e/3x3"
  top: "inception_4e/3x3"
}
layer {
  name: "inception_4e/5x5_reduce"
  type: "Convolution"
  bottom: "inception_4d/output"
  top: "inception_4e/5x5_reduce"
  param {
    lr_mult: 1
    decay_mult: 1
  }
  param {
    lr_mult: 2
    decay_mult: 0
  }
  convolution_param {
    num_output: 32
    kernel_size: 1
    weight_filler {
      type: "xavier"
      std: 0.2
    }
    bias_filler {
      type: "constant"
      value: 0.2
    }
  }
}
layer {
  name: "inception_4e/relu_5x5_reduce"
  type: "ReLU"
  bottom: "inception_4e/5x5_reduce"
  top: "inception_4e/5x5_reduce"
}
layer {
  name: "inception_4e/5x5"
  type: "Convolution"
  bottom: "inception_4e/5x5_reduce"
  top: "inception_4e/
I0403 16:13:22.827237 20843 layer_factory.hpp:77] Creating layer data
I0403 16:13:22.827853 20843 net.cpp:91] Creating Layer data
I0403 16:13:22.827885 20843 net.cpp:399] data -> data
I0403 16:13:22.827937 20843 net.cpp:399] data -> label
I0403 16:13:22.827976 20843 data_transformer.cpp:25] Loading mean file from: /home/mohanty/data/final_dataset/lmdb/grayscale-20-80/mean.binaryproto
I0403 16:13:22.829243 20846 db_lmdb.cpp:38] Opened lmdb /home/mohanty/data/final_dataset/lmdb/grayscale-20-80/test_db
I0403 16:13:22.840898 20843 data_layer.cpp:41] output data size: 24,3,224,224
I0403 16:13:22.867635 20843 net.cpp:141] Setting up data
I0403 16:13:22.867715 20843 net.cpp:148] Top shape: 24 3 224 224 (3612672)
I0403 16:13:22.867738 20843 net.cpp:148] Top shape: 24 (24)
I0403 16:13:22.867753 20843 net.cpp:156] Memory required for data: 14450784
I0403 16:13:22.867779 20843 layer_factory.hpp:77] Creating layer label_data_1_split
I0403 16:13:22.867805 20843 net.cpp:91] Creating Layer label_data_1_split
I0403 16:13:22.867821 20843 net.cpp:425] label_data_1_split <- label
I0403 16:13:22.867851 20843 net.cpp:399] label_data_1_split -> label_data_1_split_0
I0403 16:13:22.867878 20843 net.cpp:399] label_data_1_split -> label_data_1_split_1
I0403 16:13:22.867899 20843 net.cpp:399] label_data_1_split -> label_data_1_split_2
I0403 16:13:22.867919 20843 net.cpp:399] label_data_1_split -> label_data_1_split_3
I0403 16:13:22.867938 20843 net.cpp:399] label_data_1_split -> label_data_1_split_4
I0403 16:13:22.867957 20843 net.cpp:399] label_data_1_split -> label_data_1_split_5
I0403 16:13:22.867975 20843 net.cpp:399] label_data_1_split -> label_data_1_split_6
I0403 16:13:22.867995 20843 net.cpp:399] label_data_1_split -> label_data_1_split_7
I0403 16:13:22.868015 20843 net.cpp:399] label_data_1_split -> label_data_1_split_8
I0403 16:13:22.868033 20843 net.cpp:399] label_data_1_split -> label_data_1_split_9
I0403 16:13:22.868171 20843 net.cpp:141] Setting up label_data_1_split
I0403 16:13:22.868196 20843 net.cpp:148] Top shape: 24 (24)
I0403 16:13:22.868213 20843 net.cpp:148] Top shape: 24 (24)
I0403 16:13:22.868230 20843 net.cpp:148] Top shape: 24 (24)
I0403 16:13:22.868247 20843 net.cpp:148] Top shape: 24 (24)
I0403 16:13:22.868262 20843 net.cpp:148] Top shape: 24 (24)
I0403 16:13:22.868278 20843 net.cpp:148] Top shape: 24 (24)
I0403 16:13:22.868294 20843 net.cpp:148] Top shape: 24 (24)
I0403 16:13:22.868309 20843 net.cpp:148] Top shape: 24 (24)
I0403 16:13:22.868324 20843 net.cpp:148] Top shape: 24 (24)
I0403 16:13:22.868340 20843 net.cpp:148] Top shape: 24 (24)
I0403 16:13:22.868396 20843 net.cpp:156] Memory required for data: 14451744
I0403 16:13:22.868410 20843 layer_factory.hpp:77] Creating layer conv1/7x7_s2
I0403 16:13:22.868440 20843 net.cpp:91] Creating Layer conv1/7x7_s2
I0403 16:13:22.868459 20843 net.cpp:425] conv1/7x7_s2 <- data
I0403 16:13:22.868477 20843 net.cpp:399] conv1/7x7_s2 -> conv1/7x7_s2
I0403 16:13:23.004951 20843 net.cpp:141] Setting up conv1/7x7_s2
I0403 16:13:23.005023 20843 net.cpp:148] Top shape: 24 64 112 112 (19267584)
I0403 16:13:23.005040 20843 net.cpp:156] Memory required for data: 91522080
I0403 16:13:23.005077 20843 layer_factory.hpp:77] Creating layer conv1/relu_7x7
I0403 16:13:23.005105 20843 net.cpp:91] Creating Layer conv1/relu_7x7
I0403 16:13:23.005125 20843 net.cpp:425] conv1/relu_7x7 <- conv1/7x7_s2
I0403 16:13:23.005144 20843 net.cpp:386] conv1/relu_7x7 -> conv1/7x7_s2 (in-place)
I0403 16:13:23.005409 20843 net.cpp:141] Setting up conv1/relu_7x7
I0403 16:13:23.005435 20843 net.cpp:148] Top shape: 24 64 112 112 (19267584)
I0403 16:13:23.005451 20843 net.cpp:156] Memory required for data: 168592416
I0403 16:13:23.005467 20843 layer_factory.hpp:77] Creating layer pool1/3x3_s2
I0403 16:13:23.005491 20843 net.cpp:91] Creating Layer pool1/3x3_s2
I0403 16:13:23.005509 20843 net.cpp:425] pool1/3x3_s2 <- conv1/7x7_s2
I0403 16:13:23.005528 20843 net.cpp:399] pool1/3x3_s2 -> pool1/3x3_s2
I0403 16:13:23.005604 20843 net.cpp:141] Setting up pool1/3x3_s2
I0403 16:13:23.005630 20843 net.cpp:148] Top shape: 24 64 56 56 (4816896)
I0403 16:13:23.005645 20843 net.cpp:156] Memory required for data: 187860000
I0403 16:13:23.005659 20843 layer_factory.hpp:77] Creating layer pool1/norm1
I0403 16:13:23.005683 20843 net.cpp:91] Creating Layer pool1/norm1
I0403 16:13:23.005702 20843 net.cpp:425] pool1/norm1 <- pool1/3x3_s2
I0403 16:13:23.005719 20843 net.cpp:399] pool1/norm1 -> pool1/norm1
I0403 16:13:23.006021 20843 net.cpp:141] Setting up pool1/norm1
I0403 16:13:23.006052 20843 net.cpp:148] Top shape: 24 64 56 56 (4816896)
I0403 16:13:23.006069 20843 net.cpp:156] Memory required for data: 207127584
I0403 16:13:23.006084 20843 layer_factory.hpp:77] Creating layer conv2/3x3_reduce
I0403 16:13:23.006108 20843 net.cpp:91] Creating Layer conv2/3x3_reduce
I0403 16:13:23.006124 20843 net.cpp:425] conv2/3x3_reduce <- pool1/norm1
I0403 16:13:23.006142 20843 net.cpp:399] conv2/3x3_reduce -> conv2/3x3_reduce
I0403 16:13:23.007457 20843 net.cpp:141] Setting up conv2/3x3_reduce
I0403 16:13:23.007486 20843 net.cpp:148] Top shape: 24 64 56 56 (4816896)
I0403 16:13:23.007503 20843 net.cpp:156] Memory required for data: 226395168
I0403 16:13:23.007524 20843 layer_factory.hpp:77] Creating layer conv2/relu_3x3_reduce
I0403 16:13:23.007542 20843 net.cpp:91] Creating Layer conv2/relu_3x3_reduce
I0403 16:13:23.007558 20843 net.cpp:425] conv2/relu_3x3_reduce <- conv2/3x3_reduce
I0403 16:13:23.007575 20843 net.cpp:386] conv2/relu_3x3_reduce -> conv2/3x3_reduce (in-place)
I0403 16:13:23.007828 20843 net.cpp:141] Setting up conv2/relu_3x3_reduce
I0403 16:13:23.007854 20843 net.cpp:148] Top shape: 24 64 56 56 (4816896)
I0403 16:13:23.007869 20843 net.cpp:156] Memory required for data: 245662752
I0403 16:13:23.007884 20843 layer_factory.hpp:77] Creating layer conv2/3x3
I0403 16:13:23.007905 20843 net.cpp:91] Creating Layer conv2/3x3
I0403 16:13:23.007922 20843 net.cpp:425] conv2/3x3 <- conv2/3x3_reduce
I0403 16:13:23.007941 20843 net.cpp:399] conv2/3x3 -> conv2/3x3
I0403 16:13:23.010154 20843 net.cpp:141] Setting up conv2/3x3
I0403 16:13:23.010185 20843 net.cpp:148] Top shape: 24 192 56 56 (14450688)
I0403 16:13:23.010200 20843 net.cpp:156] Memory required for data: 303465504
I0403 16:13:23.010221 20843 layer_factory.hpp:77] Creating layer conv2/relu_3x3
I0403 16:13:23.010241 20843 net.cpp:91] Creating Layer conv2/relu_3x3
I0403 16:13:23.010257 20843 net.cpp:425] conv2/relu_3x3 <- conv2/3x3
I0403 16:13:23.010273 20843 net.cpp:386] conv2/relu_3x3 -> conv2/3x3 (in-place)
I0403 16:13:23.010437 20843 net.cpp:141] Setting up conv2/relu_3x3
I0403 16:13:23.010460 20843 net.cpp:148] Top shape: 24 192 56 56 (14450688)
I0403 16:13:23.010507 20843 net.cpp:156] Memory required for data: 361268256
I0403 16:13:23.010524 20843 layer_factory.hpp:77] Creating layer conv2/norm2
I0403 16:13:23.010541 20843 net.cpp:91] Creating Layer conv2/norm2
I0403 16:13:23.010557 20843 net.cpp:425] conv2/norm2 <- conv2/3x3
I0403 16:13:23.010576 20843 net.cpp:399] conv2/norm2 -> conv2/norm2
I0403 16:13:23.010862 20843 net.cpp:141] Setting up conv2/norm2
I0403 16:13:23.010888 20843 net.cpp:148] Top shape: 24 192 56 56 (14450688)
I0403 16:13:23.010905 20843 net.cpp:156] Memory required for data: 419071008
I0403 16:13:23.010918 20843 layer_factory.hpp:77] Creating layer pool2/3x3_s2
I0403 16:13:23.010936 20843 net.cpp:91] Creating Layer pool2/3x3_s2
I0403 16:13:23.010951 20843 net.cpp:425] pool2/3x3_s2 <- conv2/norm2
I0403 16:13:23.010969 20843 net.cpp:399] pool2/3x3_s2 -> pool2/3x3_s2
I0403 16:13:23.011019 20843 net.cpp:141] Setting up pool2/3x3_s2
I0403 16:13:23.011041 20843 net.cpp:148] Top shape: 24 192 28 28 (3612672)
I0403 16:13:23.011061 20843 net.cpp:156] Memory required for data: 433521696
I0403 16:13:23.011077 20843 layer_factory.hpp:77] Creating layer pool2/3x3_s2_pool2/3x3_s2_0_split
I0403 16:13:23.011093 20843 net.cpp:91] Creating Layer pool2/3x3_s2_pool2/3x3_s2_0_split
I0403 16:13:23.011108 20843 net.cpp:425] pool2/3x3_s2_pool2/3x3_s2_0_split <- pool2/3x3_s2
I0403 16:13:23.011126 20843 net.cpp:399] pool2/3x3_s2_pool2/3x3_s2_0_split -> pool2/3x3_s2_pool2/3x3_s2_0_split_0
I0403 16:13:23.011144 20843 net.cpp:399] pool2/3x3_s2_pool2/3x3_s2_0_split -> pool2/3x3_s2_pool2/3x3_s2_0_split_1
I0403 16:13:23.011163 20843 net.cpp:399] pool2/3x3_s2_pool2/3x3_s2_0_split -> pool2/3x3_s2_pool2/3x3_s2_0_split_2
I0403 16:13:23.011183 20843 net.cpp:399] pool2/3x3_s2_pool2/3x3_s2_0_split -> pool2/3x3_s2_pool2/3x3_s2_0_split_3
I0403 16:13:23.011248 20843 net.cpp:141] Setting up pool2/3x3_s2_pool2/3x3_s2_0_split
I0403 16:13:23.011270 20843 net.cpp:148] Top shape: 24 192 28 28 (3612672)
I0403 16:13:23.011286 20843 net.cpp:148] Top shape: 24 192 28 28 (3612672)
I0403 16:13:23.011301 20843 net.cpp:148] Top shape: 24 192 28 28 (3612672)
I0403 16:13:23.011317 20843 net.cpp:148] Top shape: 24 192 28 28 (3612672)
I0403 16:13:23.011330 20843 net.cpp:156] Memory required for data: 491324448
I0403 16:13:23.011344 20843 layer_factory.hpp:77] Creating layer inception_3a/1x1
I0403 16:13:23.011364 20843 net.cpp:91] Creating Layer inception_3a/1x1
I0403 16:13:23.011380 20843 net.cpp:425] inception_3a/1x1 <- pool2/3x3_s2_pool2/3x3_s2_0_split_0
I0403 16:13:23.011399 20843 net.cpp:399] inception_3a/1x1 -> inception_3a/1x1
I0403 16:13:23.012859 20843 net.cpp:141] Setting up inception_3a/1x1
I0403 16:13:23.012888 20843 net.cpp:148] Top shape: 24 64 28 28 (1204224)
I0403 16:13:23.012904 20843 net.cpp:156] Memory required for data: 496141344
I0403 16:13:23.012923 20843 layer_factory.hpp:77] Creating layer inception_3a/relu_1x1
I0403 16:13:23.012943 20843 net.cpp:91] Creating Layer inception_3a/relu_1x1
I0403 16:13:23.012961 20843 net.cpp:425] inception_3a/relu_1x1 <- inception_3a/1x1
I0403 16:13:23.012979 20843 net.cpp:386] inception_3a/relu_1x1 -> inception_3a/1x1 (in-place)
I0403 16:13:23.013162 20843 net.cpp:141] Setting up inception_3a/relu_1x1
I0403 16:13:23.013187 20843 net.cpp:148] Top shape: 24 64 28 28 (1204224)
I0403 16:13:23.013201 20843 net.cpp:156] Memory required for data: 500958240
I0403 16:13:23.013216 20843 layer_factory.hpp:77] Creating layer inception_3a/3x3_reduce
I0403 16:13:23.013238 20843 net.cpp:91] Creating Layer inception_3a/3x3_reduce
I0403 16:13:23.013254 20843 net.cpp:425] inception_3a/3x3_reduce <- pool2/3x3_s2_pool2/3x3_s2_0_split_1
I0403 16:13:23.013275 20843 net.cpp:399] inception_3a/3x3_reduce -> inception_3a/3x3_reduce
I0403 16:13:23.014993 20843 net.cpp:141] Setting up inception_3a/3x3_reduce
I0403 16:13:23.015023 20843 net.cpp:148] Top shape: 24 96 28 28 (1806336)
I0403 16:13:23.015039 20843 net.cpp:156] Memory required for data: 508183584
I0403 16:13:23.015066 20843 layer_factory.hpp:77] Creating layer inception_3a/relu_3x3_reduce
I0403 16:13:23.015103 20843 net.cpp:91] Creating Layer inception_3a/relu_3x3_reduce
I0403 16:13:23.015121 20843 net.cpp:425] inception_3a/relu_3x3_reduce <- inception_3a/3x3_reduce
I0403 16:13:23.015138 20843 net.cpp:386] inception_3a/relu_3x3_reduce -> inception_3a/3x3_reduce (in-place)
I0403 16:13:23.015324 20843 net.cpp:141] Setting up inception_3a/relu_3x3_reduce
I0403 16:13:23.015348 20843 net.cpp:148] Top shape: 24 96 28 28 (1806336)
I0403 16:13:23.015363 20843 net.cpp:156] Memory required for data: 515408928
I0403 16:13:23.015377 20843 layer_factory.hpp:77] Creating layer inception_3a/3x3
I0403 16:13:23.015400 20843 net.cpp:91] Creating Layer inception_3a/3x3
I0403 16:13:23.015418 20843 net.cpp:425] inception_3a/3x3 <- inception_3a/3x3_reduce
I0403 16:13:23.015439 20843 net.cpp:399] inception_3a/3x3 -> inception_3a/3x3
I0403 16:13:23.017066 20843 net.cpp:141] Setting up inception_3a/3x3
I0403 16:13:23.017092 20843 net.cpp:148] Top shape: 24 128 28 28 (2408448)
I0403 16:13:23.017107 20843 net.cpp:156] Memory required for data: 525042720
I0403 16:13:23.017124 20843 layer_factory.hpp:77] Creating layer inception_3a/relu_3x3
I0403 16:13:23.017144 20843 net.cpp:91] Creating Layer inception_3a/relu_3x3
I0403 16:13:23.017160 20843 net.cpp:425] inception_3a/relu_3x3 <- inception_3a/3x3
I0403 16:13:23.017177 20843 net.cpp:386] inception_3a/relu_3x3 -> inception_3a/3x3 (in-place)
I0403 16:13:23.017447 20843 net.cpp:141] Setting up inception_3a/relu_3x3
I0403 16:13:23.017473 20843 net.cpp:148] Top shape: 24 128 28 28 (2408448)
I0403 16:13:23.017488 20843 net.cpp:156] Memory required for data: 534676512
I0403 16:13:23.017503 20843 layer_factory.hpp:77] Creating layer inception_3a/5x5_reduce
I0403 16:13:23.017524 20843 net.cpp:91] Creating Layer inception_3a/5x5_reduce
I0403 16:13:23.017540 20843 net.cpp:425] inception_3a/5x5_reduce <- pool2/3x3_s2_pool2/3x3_s2_0_split_2
I0403 16:13:23.017560 20843 net.cpp:399] inception_3a/5x5_reduce -> inception_3a/5x5_reduce
I0403 16:13:23.018514 20843 net.cpp:141] Setting up inception_3a/5x5_reduce
I0403 16:13:23.018542 20843 net.cpp:148] Top shape: 24 16 28 28 (301056)
I0403 16:13:23.018556 20843 net.cpp:156] Memory required for data: 535880736
I0403 16:13:23.018574 20843 layer_factory.hpp:77] Creating layer inception_3a/relu_5x5_reduce
I0403 16:13:23.018594 20843 net.cpp:91] Creating Layer inception_3a/relu_5x5_reduce
I0403 16:13:23.018610 20843 net.cpp:425] inception_3a/relu_5x5_reduce <- inception_3a/5x5_reduce
I0403 16:13:23.018627 20843 net.cpp:386] inception_3a/relu_5x5_reduce -> inception_3a/5x5_reduce (in-place)
I0403 16:13:23.018918 20843 net.cpp:141] Setting up inception_3a/relu_5x5_reduce
I0403 16:13:23.018945 20843 net.cpp:148] Top shape: 24 16 28 28 (301056)
I0403 16:13:23.018962 20843 net.cpp:156] Memory required for data: 537084960
I0403 16:13:23.018977 20843 layer_factory.hpp:77] Creating layer inception_3a/5x5
I0403 16:13:23.018998 20843 net.cpp:91] Creating Layer inception_3a/5x5
I0403 16:13:23.019016 20843 net.cpp:425] inception_3a/5x5 <- inception_3a/5x5_reduce
I0403 16:13:23.019033 20843 net.cpp:399] inception_3a/5x5 -> inception_3a/5x5
I0403 16:13:23.020018 20843 net.cpp:141] Setting up inception_3a/5x5
I0403 16:13:23.020045 20843 net.cpp:148] Top shape: 24 32 28 28 (602112)
I0403 16:13:23.020064 20843 net.cpp:156] Memory required for data: 539493408
I0403 16:13:23.020082 20843 layer_factory.hpp:77] Creating layer inception_3a/relu_5x5
I0403 16:13:23.020102 20843 net.cpp:91] Creating Layer inception_3a/relu_5x5
I0403 16:13:23.020118 20843 net.cpp:425] inception_3a/relu_5x5 <- inception_3a/5x5
I0403 16:13:23.020134 20843 net.cpp:386] inception_3a/relu_5x5 -> inception_3a/5x5 (in-place)
I0403 16:13:23.020303 20843 net.cpp:141] Setting up inception_3a/relu_5x5
I0403 16:13:23.020328 20843 net.cpp:148] Top shape: 24 32 28 28 (602112)
I0403 16:13:23.020342 20843 net.cpp:156] Memory required for data: 541901856
I0403 16:13:23.020356 20843 layer_factory.hpp:77] Creating layer inception_3a/pool
I0403 16:13:23.020375 20843 net.cpp:91] Creating Layer inception_3a/pool
I0403 16:13:23.020404 20843 net.cpp:425] inception_3a/pool <- pool2/3x3_s2_pool2/3x3_s2_0_split_3
I0403 16:13:23.020422 20843 net.cpp:399] inception_3a/pool -> inception_3a/pool
I0403 16:13:23.020478 20843 net.cpp:141] Setting up inception_3a/pool
I0403 16:13:23.020501 20843 net.cpp:148] Top shape: 24 192 28 28 (3612672)
I0403 16:13:23.020515 20843 net.cpp:156] Memory required for data: 556352544
I0403 16:13:23.020529 20843 layer_factory.hpp:77] Creating layer inception_3a/pool_proj
I0403 16:13:23.020550 20843 net.cpp:91] Creating Layer inception_3a/pool_proj
I0403 16:13:23.020566 20843 net.cpp:425] inception_3a/pool_proj <- inception_3a/pool
I0403 16:13:23.020586 20843 net.cpp:399] inception_3a/pool_proj -> inception_3a/pool_proj
I0403 16:13:23.021530 20843 net.cpp:141] Setting up inception_3a/pool_proj
I0403 16:13:23.021559 20843 net.cpp:148] Top shape: 24 32 28 28 (602112)
I0403 16:13:23.021575 20843 net.cpp:156] Memory required for data: 558760992
I0403 16:13:23.021596 20843 layer_factory.hpp:77] Creating layer inception_3a/relu_pool_proj
I0403 16:13:23.021617 20843 net.cpp:91] Creating Layer inception_3a/relu_pool_proj
I0403 16:13:23.021633 20843 net.cpp:425] inception_3a/relu_pool_proj <- inception_3a/pool_proj
I0403 16:13:23.021651 20843 net.cpp:386] inception_3a/relu_pool_proj -> inception_3a/pool_proj (in-place)
I0403 16:13:23.021919 20843 net.cpp:141] Setting up inception_3a/relu_pool_proj
I0403 16:13:23.021944 20843 net.cpp:148] Top shape: 24 32 28 28 (602112)
I0403 16:13:23.021958 20843 net.cpp:156] Memory required for data: 561169440
I0403 16:13:23.021972 20843 layer_factory.hpp:77] Creating layer inception_3a/output
I0403 16:13:23.021991 20843 net.cpp:91] Creating Layer inception_3a/output
I0403 16:13:23.022007 20843 net.cpp:425] inception_3a/output <- inception_3a/1x1
I0403 16:13:23.022023 20843 net.cpp:425] inception_3a/output <- inception_3a/3x3
I0403 16:13:23.022038 20843 net.cpp:425] inception_3a/output <- inception_3a/5x5
I0403 16:13:23.022058 20843 net.cpp:425] inception_3a/output <- inception_3a/pool_proj
I0403 16:13:23.022074 20843 net.cpp:399] inception_3a/output -> inception_3a/output
I0403 16:13:23.022119 20843 net.cpp:141] Setting up inception_3a/output
I0403 16:13:23.022143 20843 net.cpp:148] Top shape: 24 256 28 28 (4816896)
I0403 16:13:23.022159 20843 net.cpp:156] Memory required for data: 580437024
I0403 16:13:23.022173 20843 layer_factory.hpp:77] Creating layer inception_3a/output_inception_3a/output_0_split
I0403 16:13:23.022189 20843 net.cpp:91] Creating Layer inception_3a/output_inception_3a/output_0_split
I0403 16:13:23.022204 20843 net.cpp:425] inception_3a/output_inception_3a/output_0_split <- inception_3a/output
I0403 16:13:23.022222 20843 net.cpp:399] inception_3a/output_inception_3a/output_0_split -> inception_3a/output_inception_3a/output_0_split_0
I0403 16:13:23.022243 20843 net.cpp:399] inception_3a/output_inception_3a/output_0_split -> inception_3a/output_inception_3a/output_0_split_1
I0403 16:13:23.022264 20843 net.cpp:399] inception_3a/output_inception_3a/output_0_split -> inception_3a/output_inception_3a/output_0_split_2
I0403 16:13:23.022284 20843 net.cpp:399] inception_3a/output_inception_3a/output_0_split -> inception_3a/output_inception_3a/output_0_split_3
I0403 16:13:23.022357 20843 net.cpp:141] Setting up inception_3a/output_inception_3a/output_0_split
I0403 16:13:23.022379 20843 net.cpp:148] Top shape: 24 256 28 28 (4816896)
I0403 16:13:23.022395 20843 net.cpp:148] Top shape: 24 256 28 28 (4816896)
I0403 16:13:23.022410 20843 net.cpp:148] Top shape: 24 256 28 28 (4816896)
I0403 16:13:23.022425 20843 net.cpp:148] Top shape: 24 256 28 28 (4816896)
I0403 16:13:23.022439 20843 net.cpp:156] Memory required for data: 657507360
I0403 16:13:23.022452 20843 layer_factory.hpp:77] Creating layer inception_3b/1x1
I0403 16:13:23.022474 20843 net.cpp:91] Creating Layer inception_3b/1x1
I0403 16:13:23.022490 20843 net.cpp:425] inception_3b/1x1 <- inception_3a/output_inception_3a/output_0_split_0
I0403 16:13:23.022511 20843 net.cpp:399] inception_3b/1x1 -> inception_3b/1x1
I0403 16:13:23.023625 20843 net.cpp:141] Setting up inception_3b/1x1
I0403 16:13:23.023664 20843 net.cpp:148] Top shape: 24 128 28 28 (2408448)
I0403 16:13:23.023680 20843 net.cpp:156] Memory required for data: 667141152
I0403 16:13:23.023697 20843 layer_factory.hpp:77] Creating layer inception_3b/relu_1x1
I0403 16:13:23.023715 20843 net.cpp:91] Creating Layer inception_3b/relu_1x1
I0403 16:13:23.023730 20843 net.cpp:425] inception_3b/relu_1x1 <- inception_3b/1x1
I0403 16:13:23.023748 20843 net.cpp:386] inception_3b/relu_1x1 -> inception_3b/1x1 (in-place)
I0403 16:13:23.023923 20843 net.cpp:141] Setting up inception_3b/relu_1x1
I0403 16:13:23.023947 20843 net.cpp:148] Top shape: 24 128 28 28 (2408448)
I0403 16:13:23.023964 20843 net.cpp:156] Memory required for data: 676774944
I0403 16:13:23.023978 20843 layer_factory.hpp:77] Creating layer inception_3b/3x3_reduce
I0403 16:13:23.023998 20843 net.cpp:91] Creating Layer inception_3b/3x3_reduce
I0403 16:13:23.024015 20843 net.cpp:425] inception_3b/3x3_reduce <- inception_3a/output_inception_3a/output_0_split_1
I0403 16:13:23.024036 20843 net.cpp:399] inception_3b/3x3_reduce -> inception_3b/3x3_reduce
I0403 16:13:23.025149 20843 net.cpp:141] Setting up inception_3b/3x3_reduce
I0403 16:13:23.025178 20843 net.cpp:148] Top shape: 24 128 28 28 (2408448)
I0403 16:13:23.025194 20843 net.cpp:156] Memory required for data: 686408736
I0403 16:13:23.025213 20843 layer_factory.hpp:77] Creating layer inception_3b/relu_3x3_reduce
I0403 16:13:23.025229 20843 net.cpp:91] Creating Layer inception_3b/relu_3x3_reduce
I0403 16:13:23.025244 20843 net.cpp:425] inception_3b/relu_3x3_reduce <- inception_3b/3x3_reduce
I0403 16:13:23.025264 20843 net.cpp:386] inception_3b/relu_3x3_reduce -> inception_3b/3x3_reduce (in-place)
I0403 16:13:23.025436 20843 net.cpp:141] Setting up inception_3b/relu_3x3_reduce
I0403 16:13:23.025460 20843 net.cpp:148] Top shape: 24 128 28 28 (2408448)
I0403 16:13:23.025475 20843 net.cpp:156] Memory required for data: 696042528
I0403 16:13:23.025488 20843 layer_factory.hpp:77] Creating layer inception_3b/3x3
I0403 16:13:23.025513 20843 net.cpp:91] Creating Layer inception_3b/3x3
I0403 16:13:23.025530 20843 net.cpp:425] inception_3b/3x3 <- inception_3b/3x3_reduce
I0403 16:13:23.025548 20843 net.cpp:399] inception_3b/3x3 -> inception_3b/3x3
I0403 16:13:23.028363 20843 net.cpp:141] Setting up inception_3b/3x3
I0403 16:13:23.028391 20843 net.cpp:148] Top shape: 24 192 28 28 (3612672)
I0403 16:13:23.028406 20843 net.cpp:156] Memory required for data: 710493216
I0403 16:13:23.028424 20843 layer_factory.hpp:77] Creating layer inception_3b/relu_3x3
I0403 16:13:23.028445 20843 net.cpp:91] Creating Layer inception_3b/relu_3x3
I0403 16:13:23.028460 20843 net.cpp:425] inception_3b/relu_3x3 <- inception_3b/3x3
I0403 16:13:23.028477 20843 net.cpp:386] inception_3b/relu_3x3 -> inception_3b/3x3 (in-place)
I0403 16:13:23.028750 20843 net.cpp:141] Setting up inception_3b/relu_3x3
I0403 16:13:23.028775 20843 net.cpp:148] Top shape: 24 192 28 28 (3612672)
I0403 16:13:23.028789 20843 net.cpp:156] Memory required for data: 724943904
I0403 16:13:23.028803 20843 layer_factory.hpp:77] Creating layer inception_3b/5x5_reduce
I0403 16:13:23.028825 20843 net.cpp:91] Creating Layer inception_3b/5x5_reduce
I0403 16:13:23.028841 20843 net.cpp:425] inception_3b/5x5_reduce <- inception_3a/output_inception_3a/output_0_split_2
I0403 16:13:23.028861 20843 net.cpp:399] inception_3b/5x5_reduce -> inception_3b/5x5_reduce
I0403 16:13:23.029861 20843 net.cpp:141] Setting up inception_3b/5x5_reduce
I0403 16:13:23.029888 20843 net.cpp:148] Top shape: 24 32 28 28 (602112)
I0403 16:13:23.029903 20843 net.cpp:156] Memory required for data: 727352352
I0403 16:13:23.029920 20843 layer_factory.hpp:77] Creating layer inception_3b/relu_5x5_reduce
I0403 16:13:23.029940 20843 net.cpp:91] Creating Layer inception_3b/relu_5x5_reduce
I0403 16:13:23.029956 20843 net.cpp:425] inception_3b/relu_5x5_reduce <- inception_3b/5x5_reduce
I0403 16:13:23.029973 20843 net.cpp:386] inception_3b/relu_5x5_reduce -> inception_3b/5x5_reduce (in-place)
I0403 16:13:23.030169 20843 net.cpp:141] Setting up inception_3b/relu_5x5_reduce
I0403 16:13:23.030192 20843 net.cpp:148] Top shape: 24 32 28 28 (602112)
I0403 16:13:23.030208 20843 net.cpp:156] Memory required for data: 729760800
I0403 16:13:23.030222 20843 layer_factory.hpp:77] Creating layer inception_3b/5x5
I0403 16:13:23.030246 20843 net.cpp:91] Creating Layer inception_3b/5x5
I0403 16:13:23.030262 20843 net.cpp:425] inception_3b/5x5 <- inception_3b/5x5_reduce
I0403 16:13:23.030279 20843 net.cpp:399] inception_3b/5x5 -> inception_3b/5x5
I0403 16:13:23.032260 20843 net.cpp:141] Setting up inception_3b/5x5
I0403 16:13:23.032291 20843 net.cpp:148] Top shape: 24 96 28 28 (1806336)
I0403 16:13:23.032308 20843 net.cpp:156] Memory required for data: 736986144
I0403 16:13:23.032327 20843 layer_factory.hpp:77] Creating layer inception_3b/relu_5x5
I0403 16:13:23.032346 20843 net.cpp:91] Creating Layer inception_3b/relu_5x5
I0403 16:13:23.032361 20843 net.cpp:425] inception_3b/relu_5x5 <- inception_3b/5x5
I0403 16:13:23.032379 20843 net.cpp:386] inception_3b/relu_5x5 -> inception_3b/5x5 (in-place)
I0403 16:13:23.032575 20843 net.cpp:141] Setting up inception_3b/relu_5x5
I0403 16:13:23.032601 20843 net.cpp:148] Top shape: 24 96 28 28 (1806336)
I0403 16:13:23.032616 20843 net.cpp:156] Memory required for data: 744211488
I0403 16:13:23.032630 20843 layer_factory.hpp:77] Creating layer inception_3b/pool
I0403 16:13:23.032647 20843 net.cpp:91] Creating Layer inception_3b/pool
I0403 16:13:23.032662 20843 net.cpp:425] inception_3b/pool <- inception_3a/output_inception_3a/output_0_split_3
I0403 16:13:23.032680 20843 net.cpp:399] inception_3b/pool -> inception_3b/pool
I0403 16:13:23.032737 20843 net.cpp:141] Setting up inception_3b/pool
I0403 16:13:23.032762 20843 net.cpp:148] Top shape: 24 256 28 28 (4816896)
I0403 16:13:23.032775 20843 net.cpp:156] Memory required for data: 763479072
I0403 16:13:23.032789 20843 layer_factory.hpp:77] Creating layer inception_3b/pool_proj
I0403 16:13:23.032810 20843 net.cpp:91] Creating Layer inception_3b/pool_proj
I0403 16:13:23.032827 20843 net.cpp:425] inception_3b/pool_proj <- inception_3b/pool
I0403 16:13:23.032847 20843 net.cpp:399] inception_3b/pool_proj -> inception_3b/pool_proj
I0403 16:13:23.033951 20843 net.cpp:141] Setting up inception_3b/pool_proj
I0403 16:13:23.033978 20843 net.cpp:148] Top shape: 24 64 28 28 (1204224)
I0403 16:13:23.033993 20843 net.cpp:156] Memory required for data: 768295968
I0403 16:13:23.034011 20843 layer_factory.hpp:77] Creating layer inception_3b/relu_pool_proj
I0403 16:13:23.034031 20843 net.cpp:91] Creating Layer inception_3b/relu_pool_proj
I0403 16:13:23.034051 20843 net.cpp:425] inception_3b/relu_pool_proj <- inception_3b/pool_proj
I0403 16:13:23.034070 20843 net.cpp:386] inception_3b/relu_pool_proj -> inception_3b/pool_proj (in-place)
I0403 16:13:23.034471 20843 net.cpp:141] Setting up inception_3b/relu_pool_proj
I0403 16:13:23.034497 20843 net.cpp:148] Top shape: 24 64 28 28 (1204224)
I0403 16:13:23.034512 20843 net.cpp:156] Memory required for data: 773112864
I0403 16:13:23.034525 20843 layer_factory.hpp:77] Creating layer inception_3b/output
I0403 16:13:23.034544 20843 net.cpp:91] Creating Layer inception_3b/output
I0403 16:13:23.034560 20843 net.cpp:425] inception_3b/output <- inception_3b/1x1
I0403 16:13:23.034576 20843 net.cpp:425] inception_3b/output <- inception_3b/3x3
I0403 16:13:23.034592 20843 net.cpp:425] inception_3b/output <- inception_3b/5x5
I0403 16:13:23.034607 20843 net.cpp:425] inception_3b/output <- inception_3b/pool_proj
I0403 16:13:23.034623 20843 net.cpp:399] inception_3b/output -> inception_3b/output
I0403 16:13:23.034668 20843 net.cpp:141] Setting up inception_3b/output
I0403 16:13:23.034692 20843 net.cpp:148] Top shape: 24 480 28 28 (9031680)
I0403 16:13:23.034705 20843 net.cpp:156] Memory required for data: 809239584
I0403 16:13:23.034719 20843 layer_factory.hpp:77] Creating layer pool3/3x3_s2
I0403 16:13:23.034736 20843 net.cpp:91] Creating Layer pool3/3x3_s2
I0403 16:13:23.034751 20843 net.cpp:425] pool3/3x3_s2 <- inception_3b/output
I0403 16:13:23.034786 20843 net.cpp:399] pool3/3x3_s2 -> pool3/3x3_s2
I0403 16:13:23.034847 20843 net.cpp:141] Setting up pool3/3x3_s2
I0403 16:13:23.034869 20843 net.cpp:148] Top shape: 24 480 14 14 (2257920)
I0403 16:13:23.034883 20843 net.cpp:156] Memory required for data: 818271264
I0403 16:13:23.034898 20843 layer_factory.hpp:77] Creating layer pool3/3x3_s2_pool3/3x3_s2_0_split
I0403 16:13:23.034914 20843 net.cpp:91] Creating Layer pool3/3x3_s2_pool3/3x3_s2_0_split
I0403 16:13:23.034929 20843 net.cpp:425] pool3/3x3_s2_pool3/3x3_s2_0_split <- pool3/3x3_s2
I0403 16:13:23.034947 20843 net.cpp:399] pool3/3x3_s2_pool3/3x3_s2_0_split -> pool3/3x3_s2_pool3/3x3_s2_0_split_0
I0403 16:13:23.034967 20843 net.cpp:399] pool3/3x3_s2_pool3/3x3_s2_0_split -> pool3/3x3_s2_pool3/3x3_s2_0_split_1
I0403 16:13:23.034987 20843 net.cpp:399] pool3/3x3_s2_pool3/3x3_s2_0_split -> pool3/3x3_s2_pool3/3x3_s2_0_split_2
I0403 16:13:23.035006 20843 net.cpp:399] pool3/3x3_s2_pool3/3x3_s2_0_split -> pool3/3x3_s2_pool3/3x3_s2_0_split_3
I0403 16:13:23.035089 20843 net.cpp:141] Setting up pool3/3x3_s2_pool3/3x3_s2_0_split
I0403 16:13:23.035112 20843 net.cpp:148] Top shape: 24 480 14 14 (2257920)
I0403 16:13:23.035130 20843 net.cpp:148] Top shape: 24 480 14 14 (2257920)
I0403 16:13:23.035145 20843 net.cpp:148] Top shape: 24 480 14 14 (2257920)
I0403 16:13:23.035159 20843 net.cpp:148] Top shape: 24 480 14 14 (2257920)
I0403 16:13:23.035173 20843 net.cpp:156] Memory required for data: 854397984
I0403 16:13:23.035188 20843 layer_factory.hpp:77] Creating layer inception_4a/1x1
I0403 16:13:23.035212 20843 net.cpp:91] Creating Layer inception_4a/1x1
I0403 16:13:23.035228 20843 net.cpp:425] inception_4a/1x1 <- pool3/3x3_s2_pool3/3x3_s2_0_split_0
I0403 16:13:23.035248 20843 net.cpp:399] inception_4a/1x1 -> inception_4a/1x1
I0403 16:13:23.036824 20843 net.cpp:141] Setting up inception_4a/1x1
I0403 16:13:23.036854 20843 net.cpp:148] Top shape: 24 192 14 14 (903168)
I0403 16:13:23.036870 20843 net.cpp:156] Memory required for data: 858010656
I0403 16:13:23.036887 20843 layer_factory.hpp:77] Creating layer inception_4a/relu_1x1
I0403 16:13:23.036906 20843 net.cpp:91] Creating Layer inception_4a/relu_1x1
I0403 16:13:23.036921 20843 net.cpp:425] inception_4a/relu_1x1 <- inception_4a/1x1
I0403 16:13:23.036941 20843 net.cpp:386] inception_4a/relu_1x1 -> inception_4a/1x1 (in-place)
I0403 16:13:23.037140 20843 net.cpp:141] Setting up inception_4a/relu_1x1
I0403 16:13:23.037166 20843 net.cpp:148] Top shape: 24 192 14 14 (903168)
I0403 16:13:23.037181 20843 net.cpp:156] Memory required for data: 861623328
I0403 16:13:23.037195 20843 layer_factory.hpp:77] Creating layer inception_4a/3x3_reduce
I0403 16:13:23.037219 20843 net.cpp:91] Creating Layer inception_4a/3x3_reduce
I0403 16:13:23.037235 20843 net.cpp:425] inception_4a/3x3_reduce <- pool3/3x3_s2_pool3/3x3_s2_0_split_1
I0403 16:13:23.037257 20843 net.cpp:399] inception_4a/3x3_reduce -> inception_4a/3x3_reduce
I0403 16:13:23.038566 20843 net.cpp:141] Setting up inception_4a/3x3_reduce
I0403 16:13:23.038596 20843 net.cpp:148] Top shape: 24 96 14 14 (451584)
I0403 16:13:23.038612 20843 net.cpp:156] Memory required for data: 863429664
I0403 16:13:23.038635 20843 layer_factory.hpp:77] Creating layer inception_4a/relu_3x3_reduce
I0403 16:13:23.038656 20843 net.cpp:91] Creating Layer inception_4a/relu_3x3_reduce
I0403 16:13:23.038673 20843 net.cpp:425] inception_4a/relu_3x3_reduce <- inception_4a/3x3_reduce
I0403 16:13:23.038691 20843 net.cpp:386] inception_4a/relu_3x3_reduce -> inception_4a/3x3_reduce (in-place)
I0403 16:13:23.038869 20843 net.cpp:141] Setting up inception_4a/relu_3x3_reduce
I0403 16:13:23.038893 20843 net.cpp:148] Top shape: 24 96 14 14 (451584)
I0403 16:13:23.038908 20843 net.cpp:156] Memory required for data: 865236000
I0403 16:13:23.038923 20843 layer_factory.hpp:77] Creating layer inception_4a/3x3
I0403 16:13:23.038944 20843 net.cpp:91] Creating Layer inception_4a/3x3
I0403 16:13:23.038961 20843 net.cpp:425] inception_4a/3x3 <- inception_4a/3x3_reduce
I0403 16:13:23.038982 20843 net.cpp:399] inception_4a/3x3 -> inception_4a/3x3
I0403 16:13:23.041679 20843 net.cpp:141] Setting up inception_4a/3x3
I0403 16:13:23.041708 20843 net.cpp:148] Top shape: 24 208 14 14 (978432)
I0403 16:13:23.041724 20843 net.cpp:156] Memory required for data: 869149728
I0403 16:13:23.041743 20843 layer_factory.hpp:77] Creating layer inception_4a/relu_3x3
I0403 16:13:23.041760 20843 net.cpp:91] Creating Layer inception_4a/relu_3x3
I0403 16:13:23.041775 20843 net.cpp:425] inception_4a/relu_3x3 <- inception_4a/3x3
I0403 16:13:23.041795 20843 net.cpp:386] inception_4a/relu_3x3 -> inception_4a/3x3 (in-place)
I0403 16:13:23.042079 20843 net.cpp:141] Setting up inception_4a/relu_3x3
I0403 16:13:23.042105 20843 net.cpp:148] Top shape: 24 208 14 14 (978432)
I0403 16:13:23.042120 20843 net.cpp:156] Memory required for data: 873063456
I0403 16:13:23.042135 20843 layer_factory.hpp:77] Creating layer inception_4a/5x5_reduce
I0403 16:13:23.042157 20843 net.cpp:91] Creating Layer inception_4a/5x5_reduce
I0403 16:13:23.042174 20843 net.cpp:425] inception_4a/5x5_reduce <- pool3/3x3_s2_pool3/3x3_s2_0_split_2
I0403 16:13:23.042196 20843 net.cpp:399] inception_4a/5x5_reduce -> inception_4a/5x5_reduce
I0403 16:13:23.043221 20843 net.cpp:141] Setting up inception_4a/5x5_reduce
I0403 16:13:23.043248 20843 net.cpp:148] Top shape: 24 16 14 14 (75264)
I0403 16:13:23.043264 20843 net.cpp:156] Memory required for data: 873364512
I0403 16:13:23.043282 20843 layer_factory.hpp:77] Creating layer inception_4a/relu_5x5_reduce
I0403 16:13:23.043303 20843 net.cpp:91] Creating Layer inception_4a/relu_5x5_reduce
I0403 16:13:23.043319 20843 net.cpp:425] inception_4a/relu_5x5_reduce <- inception_4a/5x5_reduce
I0403 16:13:23.043336 20843 net.cpp:386] inception_4a/relu_5x5_reduce -> inception_4a/5x5_reduce (in-place)
I0403 16:13:23.043519 20843 net.cpp:141] Setting up inception_4a/relu_5x5_reduce
I0403 16:13:23.043545 20843 net.cpp:148] Top shape: 24 16 14 14 (75264)
I0403 16:13:23.043560 20843 net.cpp:156] Memory required for data: 873665568
I0403 16:13:23.043575 20843 layer_factory.hpp:77] Creating layer inception_4a/5x5
I0403 16:13:23.043597 20843 net.cpp:91] Creating Layer inception_4a/5x5
I0403 16:13:23.043614 20843 net.cpp:425] inception_4a/5x5 <- inception_4a/5x5_reduce
I0403 16:13:23.043633 20843 net.cpp:399] inception_4a/5x5 -> inception_4a/5x5
I0403 16:13:23.044731 20843 net.cpp:141] Setting up inception_4a/5x5
I0403 16:13:23.044759 20843 net.cpp:148] Top shape: 24 48 14 14 (225792)
I0403 16:13:23.044775 20843 net.cpp:156] Memory required for data: 874568736
I0403 16:13:23.044792 20843 layer_factory.hpp:77] Creating layer inception_4a/relu_5x5
I0403 16:13:23.044814 20843 net.cpp:91] Creating Layer inception_4a/relu_5x5
I0403 16:13:23.044829 20843 net.cpp:425] inception_4a/relu_5x5 <- inception_4a/5x5
I0403 16:13:23.044847 20843 net.cpp:386] inception_4a/relu_5x5 -> inception_4a/5x5 (in-place)
I0403 16:13:23.045029 20843 net.cpp:141] Setting up inception_4a/relu_5x5
I0403 16:13:23.045073 20843 net.cpp:148] Top shape: 24 48 14 14 (225792)
I0403 16:13:23.045090 20843 net.cpp:156] Memory required for data: 875471904
I0403 16:13:23.045106 20843 layer_factory.hpp:77] Creating layer inception_4a/pool
I0403 16:13:23.045123 20843 net.cpp:91] Creating Layer inception_4a/pool
I0403 16:13:23.045140 20843 net.cpp:425] inception_4a/pool <- pool3/3x3_s2_pool3/3x3_s2_0_split_3
I0403 16:13:23.045161 20843 net.cpp:399] inception_4a/pool -> inception_4a/pool
I0403 16:13:23.045222 20843 net.cpp:141] Setting up inception_4a/pool
I0403 16:13:23.045249 20843 net.cpp:148] Top shape: 24 480 14 14 (2257920)
I0403 16:13:23.045264 20843 net.cpp:156] Memory required for data: 884503584
I0403 16:13:23.045279 20843 layer_factory.hpp:77] Creating layer inception_4a/pool_proj
I0403 16:13:23.045300 20843 net.cpp:91] Creating Layer inception_4a/pool_proj
I0403 16:13:23.045315 20843 net.cpp:425] inception_4a/pool_proj <- inception_4a/pool
I0403 16:13:23.045336 20843 net.cpp:399] inception_4a/pool_proj -> inception_4a/pool_proj
I0403 16:13:23.046540 20843 net.cpp:141] Setting up inception_4a/pool_proj
I0403 16:13:23.046572 20843 net.cpp:148] Top shape: 24 64 14 14 (301056)
I0403 16:13:23.046602 20843 net.cpp:156] Memory required for data: 885707808
I0403 16:13:23.046622 20843 layer_factory.hpp:77] Creating layer inception_4a/relu_pool_proj
I0403 16:13:23.046641 20843 net.cpp:91] Creating Layer inception_4a/relu_pool_proj
I0403 16:13:23.046656 20843 net.cpp:425] inception_4a/relu_pool_proj <- inception_4a/pool_proj
I0403 16:13:23.046674 20843 net.cpp:386] inception_4a/relu_pool_proj -> inception_4a/pool_proj (in-place)
I0403 16:13:23.046964 20843 net.cpp:141] Setting up inception_4a/relu_pool_proj
I0403 16:13:23.046994 20843 net.cpp:148] Top shape: 24 64 14 14 (301056)
I0403 16:13:23.047010 20843 net.cpp:156] Memory required for data: 886912032
I0403 16:13:23.047025 20843 layer_factory.hpp:77] Creating layer inception_4a/output
I0403 16:13:23.047042 20843 net.cpp:91] Creating Layer inception_4a/output
I0403 16:13:23.047063 20843 net.cpp:425] inception_4a/output <- inception_4a/1x1
I0403 16:13:23.047080 20843 net.cpp:425] inception_4a/output <- inception_4a/3x3
I0403 16:13:23.047094 20843 net.cpp:425] inception_4a/output <- inception_4a/5x5
I0403 16:13:23.047109 20843 net.cpp:425] inception_4a/output <- inception_4a/pool_proj
I0403 16:13:23.047125 20843 net.cpp:399] inception_4a/output -> inception_4a/output
I0403 16:13:23.047173 20843 net.cpp:141] Setting up inception_4a/output
I0403 16:13:23.047195 20843 net.cpp:148] Top shape: 24 512 14 14 (2408448)
I0403 16:13:23.047210 20843 net.cpp:156] Memory required for data: 896545824
I0403 16:13:23.047224 20843 layer_factory.hpp:77] Creating layer inception_4a/output_inception_4a/output_0_split
I0403 16:13:23.047243 20843 net.cpp:91] Creating Layer inception_4a/output_inception_4a/output_0_split
I0403 16:13:23.047260 20843 net.cpp:425] inception_4a/output_inception_4a/output_0_split <- inception_4a/output
I0403 16:13:23.047276 20843 net.cpp:399] inception_4a/output_inception_4a/output_0_split -> inception_4a/output_inception_4a/output_0_split_0
I0403 16:13:23.047297 20843 net.cpp:399] inception_4a/output_inception_4a/output_0_split -> inception_4a/output_inception_4a/output_0_split_1
I0403 16:13:23.047317 20843 net.cpp:399] inception_4a/output_inception_4a/output_0_split -> inception_4a/output_inception_4a/output_0_split_2
I0403 16:13:23.047338 20843 net.cpp:399] inception_4a/output_inception_4a/output_0_split -> inception_4a/output_inception_4a/output_0_split_3
I0403 16:13:23.047358 20843 net.cpp:399] inception_4a/output_inception_4a/output_0_split -> inception_4a/output_inception_4a/output_0_split_4
I0403 16:13:23.047451 20843 net.cpp:141] Setting up inception_4a/output_inception_4a/output_0_split
I0403 16:13:23.047474 20843 net.cpp:148] Top shape: 24 512 14 14 (2408448)
I0403 16:13:23.047490 20843 net.cpp:148] Top shape: 24 512 14 14 (2408448)
I0403 16:13:23.047507 20843 net.cpp:148] Top shape: 24 512 14 14 (2408448)
I0403 16:13:23.047521 20843 net.cpp:148] Top shape: 24 512 14 14 (2408448)
I0403 16:13:23.047538 20843 net.cpp:148] Top shape: 24 512 14 14 (2408448)
I0403 16:13:23.047551 20843 net.cpp:156] Memory required for data: 944714784
I0403 16:13:23.047565 20843 layer_factory.hpp:77] Creating layer loss1/ave_pool
I0403 16:13:23.047585 20843 net.cpp:91] Creating Layer loss1/ave_pool
I0403 16:13:23.047601 20843 net.cpp:425] loss1/ave_pool <- inception_4a/output_inception_4a/output_0_split_0
I0403 16:13:23.047618 20843 net.cpp:399] loss1/ave_pool -> loss1/ave_pool
I0403 16:13:23.047842 20843 net.cpp:141] Setting up loss1/ave_pool
I0403 16:13:23.047869 20843 net.cpp:148] Top shape: 24 512 4 4 (196608)
I0403 16:13:23.047885 20843 net.cpp:156] Memory required for data: 945501216
I0403 16:13:23.047901 20843 layer_factory.hpp:77] Creating layer loss1/conv
I0403 16:13:23.047924 20843 net.cpp:91] Creating Layer loss1/conv
I0403 16:13:23.047941 20843 net.cpp:425] loss1/conv <- loss1/ave_pool
I0403 16:13:23.047960 20843 net.cpp:399] loss1/conv -> loss1/conv
I0403 16:13:23.049463 20843 net.cpp:141] Setting up loss1/conv
I0403 16:13:23.049494 20843 net.cpp:148] Top shape: 24 128 4 4 (49152)
I0403 16:13:23.049525 20843 net.cpp:156] Memory required for data: 945697824
I0403 16:13:23.049545 20843 layer_factory.hpp:77] Creating layer loss1/relu_conv
I0403 16:13:23.049566 20843 net.cpp:91] Creating Layer loss1/relu_conv
I0403 16:13:23.049583 20843 net.cpp:425] loss1/relu_conv <- loss1/conv
I0403 16:13:23.049600 20843 net.cpp:386] loss1/relu_conv -> loss1/conv (in-place)
I0403 16:13:23.049902 20843 net.cpp:141] Setting up loss1/relu_conv
I0403 16:13:23.049928 20843 net.cpp:148] Top shape: 24 128 4 4 (49152)
I0403 16:13:23.049943 20843 net.cpp:156] Memory required for data: 945894432
I0403 16:13:23.049959 20843 layer_factory.hpp:77] Creating layer loss1/fc
I0403 16:13:23.049984 20843 net.cpp:91] Creating Layer loss1/fc
I0403 16:13:23.050003 20843 net.cpp:425] loss1/fc <- loss1/conv
I0403 16:13:23.050021 20843 net.cpp:399] loss1/fc -> loss1/fc
I0403 16:13:23.067689 20843 net.cpp:141] Setting up loss1/fc
I0403 16:13:23.067745 20843 net.cpp:148] Top shape: 24 1024 (24576)
I0403 16:13:23.067760 20843 net.cpp:156] Memory required for data: 945992736
I0403 16:13:23.067792 20843 layer_factory.hpp:77] Creating layer loss1/relu_fc
I0403 16:13:23.067816 20843 net.cpp:91] Creating Layer loss1/relu_fc
I0403 16:13:23.067833 20843 net.cpp:425] loss1/relu_fc <- loss1/fc
I0403 16:13:23.067854 20843 net.cpp:386] loss1/relu_fc -> loss1/fc (in-place)
I0403 16:13:23.068095 20843 net.cpp:141] Setting up loss1/relu_fc
I0403 16:13:23.068120 20843 net.cpp:148] Top shape: 24 1024 (24576)
I0403 16:13:23.068135 20843 net.cpp:156] Memory required for data: 946091040
I0403 16:13:23.068150 20843 layer_factory.hpp:77] Creating layer loss1/drop_fc
I0403 16:13:23.068177 20843 net.cpp:91] Creating Layer loss1/drop_fc
I0403 16:13:23.068194 20843 net.cpp:425] loss1/drop_fc <- loss1/fc
I0403 16:13:23.068214 20843 net.cpp:386] loss1/drop_fc -> loss1/fc (in-place)
I0403 16:13:23.068264 20843 net.cpp:141] Setting up loss1/drop_fc
I0403 16:13:23.068286 20843 net.cpp:148] Top shape: 24 1024 (24576)
I0403 16:13:23.068301 20843 net.cpp:156] Memory required for data: 946189344
I0403 16:13:23.068316 20843 layer_factory.hpp:77] Creating layer loss1/classifier_plantvillage
I0403 16:13:23.068339 20843 net.cpp:91] Creating Layer loss1/classifier_plantvillage
I0403 16:13:23.068356 20843 net.cpp:425] loss1/classifier_plantvillage <- loss1/fc
I0403 16:13:23.068377 20843 net.cpp:399] loss1/classifier_plantvillage -> loss1/classifier_plantvillage
I0403 16:13:23.069298 20843 net.cpp:141] Setting up loss1/classifier_plantvillage
I0403 16:13:23.069329 20843 net.cpp:148] Top shape: 24 38 (912)
I0403 16:13:23.069345 20843 net.cpp:156] Memory required for data: 946192992
I0403 16:13:23.069365 20843 layer_factory.hpp:77] Creating layer loss1/classifier_plantvillage_loss1/classifier_plantvillage_0_split
I0403 16:13:23.069383 20843 net.cpp:91] Creating Layer loss1/classifier_plantvillage_loss1/classifier_plantvillage_0_split
I0403 16:13:23.069398 20843 net.cpp:425] loss1/classifier_plantvillage_loss1/classifier_plantvillage_0_split <- loss1/classifier_plantvillage
I0403 16:13:23.069418 20843 net.cpp:399] loss1/classifier_plantvillage_loss1/classifier_plantvillage_0_split -> loss1/classifier_plantvillage_loss1/classifier_plantvillage_0_split_0
I0403 16:13:23.069440 20843 net.cpp:399] loss1/classifier_plantvillage_loss1/classifier_plantvillage_0_split -> loss1/classifier_plantvillage_loss1/classifier_plantvillage_0_split_1
I0403 16:13:23.069460 20843 net.cpp:399] loss1/classifier_plantvillage_loss1/classifier_plantvillage_0_split -> loss1/classifier_plantvillage_loss1/classifier_plantvillage_0_split_2
I0403 16:13:23.069528 20843 net.cpp:141] Setting up loss1/classifier_plantvillage_loss1/classifier_plantvillage_0_split
I0403 16:13:23.069551 20843 net.cpp:148] Top shape: 24 38 (912)
I0403 16:13:23.069568 20843 net.cpp:148] Top shape: 24 38 (912)
I0403 16:13:23.069583 20843 net.cpp:148] Top shape: 24 38 (912)
I0403 16:13:23.069597 20843 net.cpp:156] Memory required for data: 946203936
I0403 16:13:23.069610 20843 layer_factory.hpp:77] Creating layer inception_4b/1x1
I0403 16:13:23.069633 20843 net.cpp:91] Creating Layer inception_4b/1x1
I0403 16:13:23.069677 20843 net.cpp:425] inception_4b/1x1 <- inception_4a/output_inception_4a/output_0_split_1
I0403 16:13:23.069697 20843 net.cpp:399] inception_4b/1x1 -> inception_4b/1x1
I0403 16:13:23.071387 20843 net.cpp:141] Setting up inception_4b/1x1
I0403 16:13:23.071415 20843 net.cpp:148] Top shape: 24 160 14 14 (752640)
I0403 16:13:23.071431 20843 net.cpp:156] Memory required for data: 949214496
I0403 16:13:23.071449 20843 layer_factory.hpp:77] Creating layer inception_4b/relu_1x1
I0403 16:13:23.071470 20843 net.cpp:91] Creating Layer inception_4b/relu_1x1
I0403 16:13:23.071486 20843 net.cpp:425] inception_4b/relu_1x1 <- inception_4b/1x1
I0403 16:13:23.071503 20843 net.cpp:386] inception_4b/relu_1x1 -> inception_4b/1x1 (in-place)
I0403 16:13:23.071686 20843 net.cpp:141] Setting up inception_4b/relu_1x1
I0403 16:13:23.071712 20843 net.cpp:148] Top shape: 24 160 14 14 (752640)
I0403 16:13:23.071727 20843 net.cpp:156] Memory required for data: 952225056
I0403 16:13:23.071740 20843 layer_factory.hpp:77] Creating layer inception_4b/3x3_reduce
I0403 16:13:23.071763 20843 net.cpp:91] Creating Layer inception_4b/3x3_reduce
I0403 16:13:23.071781 20843 net.cpp:425] inception_4b/3x3_reduce <- inception_4a/output_inception_4a/output_0_split_2
I0403 16:13:23.071800 20843 net.cpp:399] inception_4b/3x3_reduce -> inception_4b/3x3_reduce
I0403 16:13:23.073174 20843 net.cpp:141] Setting up inception_4b/3x3_reduce
I0403 16:13:23.073202 20843 net.cpp:148] Top shape: 24 112 14 14 (526848)
I0403 16:13:23.073217 20843 net.cpp:156] Memory required for data: 954332448
I0403 16:13:23.073236 20843 layer_factory.hpp:77] Creating layer inception_4b/relu_3x3_reduce
I0403 16:13:23.073256 20843 net.cpp:91] Creating Layer inception_4b/relu_3x3_reduce
I0403 16:13:23.073273 20843 net.cpp:425] inception_4b/relu_3x3_reduce <- inception_4b/3x3_reduce
I0403 16:13:23.073290 20843 net.cpp:386] inception_4b/relu_3x3_reduce -> inception_4b/3x3_reduce (in-place)
I0403 16:13:23.073577 20843 net.cpp:141] Setting up inception_4b/relu_3x3_reduce
I0403 16:13:23.073603 20843 net.cpp:148] Top shape: 24 112 14 14 (526848)
I0403 16:13:23.073618 20843 net.cpp:156] Memory required for data: 956439840
I0403 16:13:23.073633 20843 layer_factory.hpp:77] Creating layer inception_4b/3x3
I0403 16:13:23.073655 20843 net.cpp:91] Creating Layer inception_4b/3x3
I0403 16:13:23.073673 20843 net.cpp:425] inception_4b/3x3 <- inception_4b/3x3_reduce
I0403 16:13:23.073693 20843 net.cpp:399] inception_4b/3x3 -> inception_4b/3x3
I0403 16:13:23.076673 20843 net.cpp:141] Setting up inception_4b/3x3
I0403 16:13:23.076705 20843 net.cpp:148] Top shape: 24 224 14 14 (1053696)
I0403 16:13:23.076722 20843 net.cpp:156] Memory required for data: 960654624
I0403 16:13:23.076741 20843 layer_factory.hpp:77] Creating layer inception_4b/relu_3x3
I0403 16:13:23.076761 20843 net.cpp:91] Creating Layer inception_4b/relu_3x3
I0403 16:13:23.076776 20843 net.cpp:425] inception_4b/relu_3x3 <- inception_4b/3x3
I0403 16:13:23.076794 20843 net.cpp:386] inception_4b/relu_3x3 -> inception_4b/3x3 (in-place)
I0403 16:13:23.076982 20843 net.cpp:141] Setting up inception_4b/relu_3x3
I0403 16:13:23.077008 20843 net.cpp:148] Top shape: 24 224 14 14 (1053696)
I0403 16:13:23.077021 20843 net.cpp:156] Memory required for data: 964869408
I0403 16:13:23.077036 20843 layer_factory.hpp:77] Creating layer inception_4b/5x5_reduce
I0403 16:13:23.077062 20843 net.cpp:91] Creating Layer inception_4b/5x5_reduce
I0403 16:13:23.077080 20843 net.cpp:425] inception_4b/5x5_reduce <- inception_4a/output_inception_4a/output_0_split_3
I0403 16:13:23.077103 20843 net.cpp:399] inception_4b/5x5_reduce -> inception_4b/5x5_reduce
I0403 16:13:23.078215 20843 net.cpp:141] Setting up inception_4b/5x5_reduce
I0403 16:13:23.078243 20843 net.cpp:148] Top shape: 24 24 14 14 (112896)
I0403 16:13:23.078259 20843 net.cpp:156] Memory required for data: 965320992
I0403 16:13:23.078277 20843 layer_factory.hpp:77] Creating layer inception_4b/relu_5x5_reduce
I0403 16:13:23.078297 20843 net.cpp:91] Creating Layer inception_4b/relu_5x5_reduce
I0403 16:13:23.078328 20843 net.cpp:425] inception_4b/relu_5x5_reduce <- inception_4b/5x5_reduce
I0403 16:13:23.078346 20843 net.cpp:386] inception_4b/relu_5x5_reduce -> inception_4b/5x5_reduce (in-place)
I0403 16:13:23.078534 20843 net.cpp:141] Setting up inception_4b/relu_5x5_reduce
I0403 16:13:23.078562 20843 net.cpp:148] Top shape: 24 24 14 14 (112896)
I0403 16:13:23.078577 20843 net.cpp:156] Memory required for data: 965772576
I0403 16:13:23.078591 20843 layer_factory.hpp:77] Creating layer inception_4b/5x5
I0403 16:13:23.078614 20843 net.cpp:91] Creating Layer inception_4b/5x5
I0403 16:13:23.078631 20843 net.cpp:425] inception_4b/5x5 <- inception_4b/5x5_reduce
I0403 16:13:23.078650 20843 net.cpp:399] inception_4b/5x5 -> inception_4b/5x5
I0403 16:13:23.079941 20843 net.cpp:141] Setting up inception_4b/5x5
I0403 16:13:23.079972 20843 net.cpp:148] Top shape: 24 64 14 14 (301056)
I0403 16:13:23.079988 20843 net.cpp:156] Memory required for data: 966976800
I0403 16:13:23.080006 20843 layer_factory.hpp:77] Creating layer inception_4b/relu_5x5
I0403 16:13:23.080027 20843 net.cpp:91] Creating Layer inception_4b/relu_5x5
I0403 16:13:23.080044 20843 net.cpp:425] inception_4b/relu_5x5 <- inception_4b/5x5
I0403 16:13:23.080066 20843 net.cpp:386] inception_4b/relu_5x5 -> inception_4b/5x5 (in-place)
I0403 16:13:23.080364 20843 net.cpp:141] Setting up inception_4b/relu_5x5
I0403 16:13:23.080390 20843 net.cpp:148] Top shape: 24 64 14 14 (301056)
I0403 16:13:23.080406 20843 net.cpp:156] Memory required for data: 968181024
I0403 16:13:23.080421 20843 layer_factory.hpp:77] Creating layer inception_4b/pool
I0403 16:13:23.080440 20843 net.cpp:91] Creating Layer inception_4b/pool
I0403 16:13:23.080456 20843 net.cpp:425] inception_4b/pool <- inception_4a/output_inception_4a/output_0_split_4
I0403 16:13:23.080477 20843 net.cpp:399] inception_4b/pool -> inception_4b/pool
I0403 16:13:23.080545 20843 net.cpp:141] Setting up inception_4b/pool
I0403 16:13:23.080570 20843 net.cpp:148] Top shape: 24 512 14 14 (2408448)
I0403 16:13:23.080585 20843 net.cpp:156] Memory required for data: 977814816
I0403 16:13:23.080600 20843 layer_factory.hpp:77] Creating layer inception_4b/pool_proj
I0403 16:13:23.080622 20843 net.cpp:91] Creating Layer inception_4b/pool_proj
I0403 16:13:23.080641 20843 net.cpp:425] inception_4b/pool_proj <- inception_4b/pool
I0403 16:13:23.080662 20843 net.cpp:399] inception_4b/pool_proj -> inception_4b/pool_proj
I0403 16:13:23.081908 20843 net.cpp:141] Setting up inception_4b/pool_proj
I0403 16:13:23.081938 20843 net.cpp:148] Top shape: 24 64 14 14 (301056)
I0403 16:13:23.081954 20843 net.cpp:156] Memory required for data: 979019040
I0403 16:13:23.081972 20843 layer_factory.hpp:77] Creating layer inception_4b/relu_pool_proj
I0403 16:13:23.081993 20843 net.cpp:91] Creating Layer inception_4b/relu_pool_proj
I0403 16:13:23.082010 20843 net.cpp:425] inception_4b/relu_pool_proj <- inception_4b/pool_proj
I0403 16:13:23.082028 20843 net.cpp:386] inception_4b/relu_pool_proj -> inception_4b/pool_proj (in-place)
I0403 16:13:23.082222 20843 net.cpp:141] Setting up inception_4b/relu_pool_proj
I0403 16:13:23.082248 20843 net.cpp:148] Top shape: 24 64 14 14 (301056)
I0403 16:13:23.082263 20843 net.cpp:156] Memory required for data: 980223264
I0403 16:13:23.082278 20843 layer_factory.hpp:77] Creating layer inception_4b/output
I0403 16:13:23.082299 20843 net.cpp:91] Creating Layer inception_4b/output
I0403 16:13:23.082316 20843 net.cpp:425] inception_4b/output <- inception_4b/1x1
I0403 16:13:23.082332 20843 net.cpp:425] inception_4b/output <- inception_4b/3x3
I0403 16:13:23.082350 20843 net.cpp:425] inception_4b/output <- inception_4b/5x5
I0403 16:13:23.082365 20843 net.cpp:425] inception_4b/output <- inception_4b/pool_proj
I0403 16:13:23.082381 20843 net.cpp:399] inception_4b/output -> inception_4b/output
I0403 16:13:23.082429 20843 net.cpp:141] Setting up inception_4b/output
I0403 16:13:23.082453 20843 net.cpp:148] Top shape: 24 512 14 14 (2408448)
I0403 16:13:23.082468 20843 net.cpp:156] Memory required for data: 989857056
I0403 16:13:23.082497 20843 layer_factory.hpp:77] Creating layer inception_4b/output_inception_4b/output_0_split
I0403 16:13:23.082515 20843 net.cpp:91] Creating Layer inception_4b/output_inception_4b/output_0_split
I0403 16:13:23.082531 20843 net.cpp:425] inception_4b/output_inception_4b/output_0_split <- inception_4b/output
I0403 16:13:23.082551 20843 net.cpp:399] inception_4b/output_inception_4b/output_0_split -> inception_4b/output_inception_4b/output_0_split_0
I0403 16:13:23.082573 20843 net.cpp:399] inception_4b/output_inception_4b/output_0_split -> inception_4b/output_inception_4b/output_0_split_1
I0403 16:13:23.082594 20843 net.cpp:399] inception_4b/output_inception_4b/output_0_split -> inception_4b/output_inception_4b/output_0_split_2
I0403 16:13:23.082615 20843 net.cpp:399] inception_4b/output_inception_4b/output_0_split -> inception_4b/output_inception_4b/output_0_split_3
I0403 16:13:23.082705 20843 net.cpp:141] Setting up inception_4b/output_inception_4b/output_0_split
I0403 16:13:23.082729 20843 net.cpp:148] Top shape: 24 512 14 14 (2408448)
I0403 16:13:23.082746 20843 net.cpp:148] Top shape: 24 512 14 14 (2408448)
I0403 16:13:23.082762 20843 net.cpp:148] Top shape: 24 512 14 14 (2408448)
I0403 16:13:23.082778 20843 net.cpp:148] Top shape: 24 512 14 14 (2408448)
I0403 16:13:23.082792 20843 net.cpp:156] Memory required for data: 1028392224
I0403 16:13:23.082806 20843 layer_factory.hpp:77] Creating layer inception_4c/1x1
I0403 16:13:23.082829 20843 net.cpp:91] Creating Layer inception_4c/1x1
I0403 16:13:23.082846 20843 net.cpp:425] inception_4c/1x1 <- inception_4b/output_inception_4b/output_0_split_0
I0403 16:13:23.082869 20843 net.cpp:399] inception_4c/1x1 -> inception_4c/1x1
I0403 16:13:23.084370 20843 net.cpp:141] Setting up inception_4c/1x1
I0403 16:13:23.084399 20843 net.cpp:148] Top shape: 24 128 14 14 (602112)
I0403 16:13:23.084420 20843 net.cpp:156] Memory required for data: 1030800672
I0403 16:13:23.084445 20843 layer_factory.hpp:77] Creating layer inception_4c/relu_1x1
I0403 16:13:23.084465 20843 net.cpp:91] Creating Layer inception_4c/relu_1x1
I0403 16:13:23.084481 20843 net.cpp:425] inception_4c/relu_1x1 <- inception_4c/1x1
I0403 16:13:23.084499 20843 net.cpp:386] inception_4c/relu_1x1 -> inception_4c/1x1 (in-place)
I0403 16:13:23.084692 20843 net.cpp:141] Setting up inception_4c/relu_1x1
I0403 16:13:23.084717 20843 net.cpp:148] Top shape: 24 128 14 14 (602112)
I0403 16:13:23.084733 20843 net.cpp:156] Memory required for data: 1033209120
I0403 16:13:23.084748 20843 layer_factory.hpp:77] Creating layer inception_4c/3x3_reduce
I0403 16:13:23.084769 20843 net.cpp:91] Creating Layer inception_4c/3x3_reduce
I0403 16:13:23.084789 20843 net.cpp:425] inception_4c/3x3_reduce <- inception_4b/output_inception_4b/output_0_split_1
I0403 16:13:23.084810 20843 net.cpp:399] inception_4c/3x3_reduce -> inception_4c/3x3_reduce
I0403 16:13:23.086823 20843 net.cpp:141] Setting up inception_4c/3x3_reduce
I0403 16:13:23.086853 20843 net.cpp:148] Top shape: 24 128 14 14 (602112)
I0403 16:13:23.086869 20843 net.cpp:156] Memory required for data: 1035617568
I0403 16:13:23.086889 20843 layer_factory.hpp:77] Creating layer inception_4c/relu_3x3_reduce
I0403 16:13:23.086906 20843 net.cpp:91] Creating Layer inception_4c/relu_3x3_reduce
I0403 16:13:23.086923 20843 net.cpp:425] inception_4c/relu_3x3_reduce <- inception_4c/3x3_reduce
I0403 16:13:23.086942 20843 net.cpp:386] inception_4c/relu_3x3_reduce -> inception_4c/3x3_reduce (in-place)
I0403 16:13:23.087249 20843 net.cpp:141] Setting up inception_4c/relu_3x3_reduce
I0403 16:13:23.087275 20843 net.cpp:148] Top shape: 24 128 14 14 (602112)
I0403 16:13:23.087290 20843 net.cpp:156] Memory required for data: 1038026016
I0403 16:13:23.087306 20843 layer_factory.hpp:77] Creating layer inception_4c/3x3
I0403 16:13:23.087328 20843 net.cpp:91] Creating Layer inception_4c/3x3
I0403 16:13:23.087347 20843 net.cpp:425] inception_4c/3x3 <- inception_4c/3x3_reduce
I0403 16:13:23.087368 20843 net.cpp:399] inception_4c/3x3 -> inception_4c/3x3
I0403 16:13:23.091114 20843 net.cpp:141] Setting up inception_4c/3x3
I0403 16:13:23.091159 20843 net.cpp:148] Top shape: 24 256 14 14 (1204224)
I0403 16:13:23.091176 20843 net.cpp:156] Memory required for data: 1042842912
I0403 16:13:23.091209 20843 layer_factory.hpp:77] Creating layer inception_4c/relu_3x3
I0403 16:13:23.091234 20843 net.cpp:91] Creating Layer inception_4c/relu_3x3
I0403 16:13:23.091251 20843 net.cpp:425] inception_4c/relu_3x3 <- inception_4c/3x3
I0403 16:13:23.091269 20843 net.cpp:386] inception_4c/relu_3x3 -> inception_4c/3x3 (in-place)
I0403 16:13:23.091464 20843 net.cpp:141] Setting up inception_4c/relu_3x3
I0403 16:13:23.091490 20843 net.cpp:148] Top shape: 24 256 14 14 (1204224)
I0403 16:13:23.091505 20843 net.cpp:156] Memory required for data: 1047659808
I0403 16:13:23.091519 20843 layer_factory.hpp:77] Creating layer inception_4c/5x5_reduce
I0403 16:13:23.091542 20843 net.cpp:91] Creating Layer inception_4c/5x5_reduce
I0403 16:13:23.091560 20843 net.cpp:425] inception_4c/5x5_reduce <- inception_4b/output_inception_4b/output_0_split_2
I0403 16:13:23.091583 20843 net.cpp:399] inception_4c/5x5_reduce -> inception_4c/5x5_reduce
I0403 16:13:23.092731 20843 net.cpp:141] Setting up inception_4c/5x5_reduce
I0403 16:13:23.092761 20843 net.cpp:148] Top shape: 24 24 14 14 (112896)
I0403 16:13:23.092777 20843 net.cpp:156] Memory required for data: 1048111392
I0403 16:13:23.092795 20843 layer_factory.hpp:77] Creating layer inception_4c/relu_5x5_reduce
I0403 16:13:23.092816 20843 net.cpp:91] Creating Layer inception_4c/relu_5x5_reduce
I0403 16:13:23.092833 20843 net.cpp:425] inception_4c/relu_5x5_reduce <- inception_4c/5x5_reduce
I0403 16:13:23.092850 20843 net.cpp:386] inception_4c/relu_5x5_reduce -> inception_4c/5x5_reduce (in-place)
I0403 16:13:23.093045 20843 net.cpp:141] Setting up inception_4c/relu_5x5_reduce
I0403 16:13:23.093077 20843 net.cpp:148] Top shape: 24 24 14 14 (112896)
I0403 16:13:23.093093 20843 net.cpp:156] Memory required for data: 1048562976
I0403 16:13:23.093108 20843 layer_factory.hpp:77] Creating layer inception_4c/5x5
I0403 16:13:23.093127 20843 net.cpp:91] Creating Layer inception_4c/5x5
I0403 16:13:23.093144 20843 net.cpp:425] inception_4c/5x5 <- inception_4c/5x5_reduce
I0403 16:13:23.093166 20843 net.cpp:399] inception_4c/5x5 -> inception_4c/5x5
I0403 16:13:23.094471 20843 net.cpp:141] Setting up inception_4c/5x5
I0403 16:13:23.094501 20843 net.cpp:148] Top shape: 24 64 14 14 (301056)
I0403 16:13:23.094516 20843 net.cpp:156] Memory required for data: 1049767200
I0403 16:13:23.094535 20843 layer_factory.hpp:77] Creating layer inception_4c/relu_5x5
I0403 16:13:23.094569 20843 net.cpp:91] Creating Layer inception_4c/relu_5x5
I0403 16:13:23.094586 20843 net.cpp:425] inception_4c/relu_5x5 <- inception_4c/5x5
I0403 16:13:23.094604 20843 net.cpp:386] inception_4c/relu_5x5 -> inception_4c/5x5 (in-place)
I0403 16:13:23.094894 20843 net.cpp:141] Setting up inception_4c/relu_5x5
I0403 16:13:23.094920 20843 net.cpp:148] Top shape: 24 64 14 14 (301056)
I0403 16:13:23.094935 20843 net.cpp:156] Memory required for data: 1050971424
I0403 16:13:23.094950 20843 layer_factory.hpp:77] Creating layer inception_4c/pool
I0403 16:13:23.094970 20843 net.cpp:91] Creating Layer inception_4c/pool
I0403 16:13:23.094987 20843 net.cpp:425] inception_4c/pool <- inception_4b/output_inception_4b/output_0_split_3
I0403 16:13:23.095005 20843 net.cpp:399] inception_4c/pool -> inception_4c/pool
I0403 16:13:23.095078 20843 net.cpp:141] Setting up inception_4c/pool
I0403 16:13:23.095101 20843 net.cpp:148] Top shape: 24 512 14 14 (2408448)
I0403 16:13:23.095116 20843 net.cpp:156] Memory required for data: 1060605216
I0403 16:13:23.095129 20843 layer_factory.hpp:77] Creating layer inception_4c/pool_proj
I0403 16:13:23.095152 20843 net.cpp:91] Creating Layer inception_4c/pool_proj
I0403 16:13:23.095170 20843 net.cpp:425] inception_4c/pool_proj <- inception_4c/pool
I0403 16:13:23.095191 20843 net.cpp:399] inception_4c/pool_proj -> inception_4c/pool_proj
I0403 16:13:23.096434 20843 net.cpp:141] Setting up inception_4c/pool_proj
I0403 16:13:23.096462 20843 net.cpp:148] Top shape: 24 64 14 14 (301056)
I0403 16:13:23.096492 20843 net.cpp:156] Memory required for data: 1061809440
I0403 16:13:23.096511 20843 layer_factory.hpp:77] Creating layer inception_4c/relu_pool_proj
I0403 16:13:23.096532 20843 net.cpp:91] Creating Layer inception_4c/relu_pool_proj
I0403 16:13:23.096550 20843 net.cpp:425] inception_4c/relu_pool_proj <- inception_4c/pool_proj
I0403 16:13:23.096567 20843 net.cpp:386] inception_4c/relu_pool_proj -> inception_4c/pool_proj (in-place)
I0403 16:13:23.096755 20843 net.cpp:141] Setting up inception_4c/relu_pool_proj
I0403 16:13:23.096779 20843 net.cpp:148] Top shape: 24 64 14 14 (301056)
I0403 16:13:23.096794 20843 net.cpp:156] Memory required for data: 1063013664
I0403 16:13:23.096808 20843 layer_factory.hpp:77] Creating layer inception_4c/output
I0403 16:13:23.096827 20843 net.cpp:91] Creating Layer inception_4c/output
I0403 16:13:23.096843 20843 net.cpp:425] inception_4c/output <- inception_4c/1x1
I0403 16:13:23.096859 20843 net.cpp:425] inception_4c/output <- inception_4c/3x3
I0403 16:13:23.096874 20843 net.cpp:425] inception_4c/output <- inception_4c/5x5
I0403 16:13:23.096889 20843 net.cpp:425] inception_4c/output <- inception_4c/pool_proj
I0403 16:13:23.096906 20843 net.cpp:399] inception_4c/output -> inception_4c/output
I0403 16:13:23.096954 20843 net.cpp:141] Setting up inception_4c/output
I0403 16:13:23.096977 20843 net.cpp:148] Top shape: 24 512 14 14 (2408448)
I0403 16:13:23.096992 20843 net.cpp:156] Memory required for data: 1072647456
I0403 16:13:23.097005 20843 layer_factory.hpp:77] Creating layer inception_4c/output_inception_4c/output_0_split
I0403 16:13:23.097023 20843 net.cpp:91] Creating Layer inception_4c/output_inception_4c/output_0_split
I0403 16:13:23.097038 20843 net.cpp:425] inception_4c/output_inception_4c/output_0_split <- inception_4c/output
I0403 16:13:23.097074 20843 net.cpp:399] inception_4c/output_inception_4c/output_0_split -> inception_4c/output_inception_4c/output_0_split_0
I0403 16:13:23.097098 20843 net.cpp:399] inception_4c/output_inception_4c/output_0_split -> inception_4c/output_inception_4c/output_0_split_1
I0403 16:13:23.097118 20843 net.cpp:399] inception_4c/output_inception_4c/output_0_split -> inception_4c/output_inception_4c/output_0_split_2
I0403 16:13:23.097139 20843 net.cpp:399] inception_4c/output_inception_4c/output_0_split -> inception_4c/output_inception_4c/output_0_split_3
I0403 16:13:23.097229 20843 net.cpp:141] Setting up inception_4c/output_inception_4c/output_0_split
I0403 16:13:23.097256 20843 net.cpp:148] Top shape: 24 512 14 14 (2408448)
I0403 16:13:23.097275 20843 net.cpp:148] Top shape: 24 512 14 14 (2408448)
I0403 16:13:23.097290 20843 net.cpp:148] Top shape: 24 512 14 14 (2408448)
I0403 16:13:23.097306 20843 net.cpp:148] Top shape: 24 512 14 14 (2408448)
I0403 16:13:23.097321 20843 net.cpp:156] Memory required for data: 1111182624
I0403 16:13:23.097335 20843 layer_factory.hpp:77] Creating layer inception_4d/1x1
I0403 16:13:23.097369 20843 net.cpp:91] Creating Layer inception_4d/1x1
I0403 16:13:23.097386 20843 net.cpp:425] inception_4d/1x1 <- inception_4c/output_inception_4c/output_0_split_0
I0403 16:13:23.097407 20843 net.cpp:399] inception_4d/1x1 -> inception_4d/1x1
I0403 16:13:23.098814 20843 net.cpp:141] Setting up inception_4d/1x1
I0403 16:13:23.098844 20843 net.cpp:148] Top shape: 24 112 14 14 (526848)
I0403 16:13:23.098860 20843 net.cpp:156] Memory required for data: 1113290016
I0403 16:13:23.098876 20843 layer_factory.hpp:77] Creating layer inception_4d/relu_1x1
I0403 16:13:23.098894 20843 net.cpp:91] Creating Layer inception_4d/relu_1x1
I0403 16:13:23.098909 20843 net.cpp:425] inception_4d/relu_1x1 <- inception_4d/1x1
I0403 16:13:23.098927 20843 net.cpp:386] inception_4d/relu_1x1 -> inception_4d/1x1 (in-place)
I0403 16:13:23.099118 20843 net.cpp:141] Setting up inception_4d/relu_1x1
I0403 16:13:23.099143 20843 net.cpp:148] Top shape: 24 112 14 14 (526848)
I0403 16:13:23.099156 20843 net.cpp:156] Memory required for data: 1115397408
I0403 16:13:23.099171 20843 layer_factory.hpp:77] Creating layer inception_4d/3x3_reduce
I0403 16:13:23.099206 20843 net.cpp:91] Creating Layer inception_4d/3x3_reduce
I0403 16:13:23.099225 20843 net.cpp:425] inception_4d/3x3_reduce <- inception_4c/output_inception_4c/output_0_split_1
I0403 16:13:23.099246 20843 net.cpp:399] inception_4d/3x3_reduce -> inception_4d/3x3_reduce
I0403 16:13:23.100739 20843 net.cpp:141] Setting up inception_4d/3x3_reduce
I0403 16:13:23.100767 20843 net.cpp:148] Top shape: 24 144 14 14 (677376)
I0403 16:13:23.100783 20843 net.cpp:156] Memory required for data: 1118106912
I0403 16:13:23.100801 20843 layer_factory.hpp:77] Creating layer inception_4d/relu_3x3_reduce
I0403 16:13:23.100818 20843 net.cpp:91] Creating Layer inception_4d/relu_3x3_reduce
I0403 16:13:23.100834 20843 net.cpp:425] inception_4d/relu_3x3_reduce <- inception_4d/3x3_reduce
I0403 16:13:23.100850 20843 net.cpp:386] inception_4d/relu_3x3_reduce -> inception_4d/3x3_reduce (in-place)
I0403 16:13:23.101189 20843 net.cpp:141] Setting up inception_4d/relu_3x3_reduce
I0403 16:13:23.101219 20843 net.cpp:148] Top shape: 24 144 14 14 (677376)
I0403 16:13:23.101238 20843 net.cpp:156] Memory required for data: 1120816416
I0403 16:13:23.101264 20843 layer_factory.hpp:77] Creating layer inception_4d/3x3
I0403 16:13:23.101292 20843 net.cpp:91] Creating Layer inception_4d/3x3
I0403 16:13:23.101311 20843 net.cpp:425] inception_4d/3x3 <- inception_4d/3x3_reduce
I0403 16:13:23.101330 20843 net.cpp:399] inception_4d/3x3 -> inception_4d/3x3
I0403 16:13:23.105607 20843 net.cpp:141] Setting up inception_4d/3x3
I0403 16:13:23.105638 20843 net.cpp:148] Top shape: 24 288 14 14 (1354752)
I0403 16:13:23.105653 20843 net.cpp:156] Memory required for data: 1126235424
I0403 16:13:23.105669 20843 layer_factory.hpp:77] Creating layer inception_4d/relu_3x3
I0403 16:13:23.105687 20843 net.cpp:91] Creating Layer inception_4d/relu_3x3
I0403 16:13:23.105702 20843 net.cpp:425] inception_4d/relu_3x3 <- inception_4d/3x3
I0403 16:13:23.105721 20843 net.cpp:386] inception_4d/relu_3x3 -> inception_4d/3x3 (in-place)
I0403 16:13:23.105907 20843 net.cpp:141] Setting up inception_4d/relu_3x3
I0403 16:13:23.105931 20843 net.cpp:148] Top shape: 24 288 14 14 (1354752)
I0403 16:13:23.105945 20843 net.cpp:156] Memory required for data: 1131654432
I0403 16:13:23.105960 20843 layer_factory.hpp:77] Creating layer inception_4d/5x5_reduce
I0403 16:13:23.105981 20843 net.cpp:91] Creating Layer inception_4d/5x5_reduce
I0403 16:13:23.105998 20843 net.cpp:425] inception_4d/5x5_reduce <- inception_4c/output_inception_4c/output_0_split_2
I0403 16:13:23.106019 20843 net.cpp:399] inception_4d/5x5_reduce -> inception_4d/5x5_reduce
I0403 16:13:23.107200 20843 net.cpp:141] Setting up inception_4d/5x5_reduce
I0403 16:13:23.107230 20843 net.cpp:148] Top shape: 24 32 14 14 (150528)
I0403 16:13:23.107246 20843 net.cpp:156] Memory required for data: 1132256544
I0403 16:13:23.107264 20843 layer_factory.hpp:77] Creating layer inception_4d/relu_5x5_reduce
I0403 16:13:23.107282 20843 net.cpp:91] Creating Layer inception_4d/relu_5x5_reduce
I0403 16:13:23.107297 20843 net.cpp:425] inception_4d/relu_5x5_reduce <- inception_4d/5x5_reduce
I0403 16:13:23.107316 20843 net.cpp:386] inception_4d/relu_5x5_reduce -> inception_4d/5x5_reduce (in-place)
I0403 16:13:23.107506 20843 net.cpp:141] Setting up inception_4d/relu_5x5_reduce
I0403 16:13:23.107529 20843 net.cpp:148] Top shape: 24 32 14 14 (150528)
I0403 16:13:23.107544 20843 net.cpp:156] Memory required for data: 1132858656
I0403 16:13:23.107558 20843 layer_factory.hpp:77] Creating layer inception_4d/5x5
I0403 16:13:23.107579 20843 net.cpp:91] Creating Layer inception_4d/5x5
I0403 16:13:23.107595 20843 net.cpp:425] inception_4d/5x5 <- inception_4d/5x5_reduce
I0403 16:13:23.107615 20843 net.cpp:399] inception_4d/5x5 -> inception_4d/5x5
I0403 16:13:23.109107 20843 net.cpp:141] Setting up inception_4d/5x5
I0403 16:13:23.109134 20843 net.cpp:148] Top shape: 24 64 14 14 (301056)
I0403 16:13:23.109150 20843 net.cpp:156] Memory required for data: 1134062880
I0403 16:13:23.109169 20843 layer_factory.hpp:77] Creating layer inception_4d/relu_5x5
I0403 16:13:23.109203 20843 net.cpp:91] Creating Layer inception_4d/relu_5x5
I0403 16:13:23.109221 20843 net.cpp:425] inception_4d/relu_5x5 <- inception_4d/5x5
I0403 16:13:23.109238 20843 net.cpp:386] inception_4d/relu_5x5 -> inception_4d/5x5 (in-place)
I0403 16:13:23.109551 20843 net.cpp:141] Setting up inception_4d/relu_5x5
I0403 16:13:23.109576 20843 net.cpp:148] Top shape: 24 64 14 14 (301056)
I0403 16:13:23.109591 20843 net.cpp:156] Memory required for data: 1135267104
I0403 16:13:23.109606 20843 layer_factory.hpp:77] Creating layer inception_4d/pool
I0403 16:13:23.109625 20843 net.cpp:91] Creating Layer inception_4d/pool
I0403 16:13:23.109642 20843 net.cpp:425] inception_4d/pool <- inception_4c/output_inception_4c/output_0_split_3
I0403 16:13:23.109658 20843 net.cpp:399] inception_4d/pool -> inception_4d/pool
I0403 16:13:23.109725 20843 net.cpp:141] Setting up inception_4d/pool
I0403 16:13:23.109748 20843 net.cpp:148] Top shape: 24 512 14 14 (2408448)
I0403 16:13:23.109763 20843 net.cpp:156] Memory required for data: 1144900896
I0403 16:13:23.109777 20843 layer_factory.hpp:77] Creating layer inception_4d/pool_proj
I0403 16:13:23.109797 20843 net.cpp:91] Creating Layer inception_4d/pool_proj
I0403 16:13:23.109814 20843 net.cpp:425] inception_4d/pool_proj <- inception_4d/pool
I0403 16:13:23.109834 20843 net.cpp:399] inception_4d/pool_proj -> inception_4d/pool_proj
I0403 16:13:23.111562 20843 net.cpp:141] Setting up inception_4d/pool_proj
I0403 16:13:23.111590 20843 net.cpp:148] Top shape: 24 64 14 14 (301056)
I0403 16:13:23.111605 20843 net.cpp:156] Memory required for data: 1146105120
I0403 16:13:23.111624 20843 layer_factory.hpp:77] Creating layer inception_4d/relu_pool_proj
I0403 16:13:23.111641 20843 net.cpp:91] Creating Layer inception_4d/relu_pool_proj
I0403 16:13:23.111657 20843 net.cpp:425] inception_4d/relu_pool_proj <- inception_4d/pool_proj
I0403 16:13:23.111675 20843 net.cpp:386] inception_4d/relu_pool_proj -> inception_4d/pool_proj (in-place)
I0403 16:13:23.111860 20843 net.cpp:141] Setting up inception_4d/relu_pool_proj
I0403 16:13:23.111884 20843 net.cpp:148] Top shape: 24 64 14 14 (301056)
I0403 16:13:23.111898 20843 net.cpp:156] Memory required for data: 1147309344
I0403 16:13:23.111912 20843 layer_factory.hpp:77] Creating layer inception_4d/output
I0403 16:13:23.111932 20843 net.cpp:91] Creating Layer inception_4d/output
I0403 16:13:23.111948 20843 net.cpp:425] inception_4d/output <- inception_4d/1x1
I0403 16:13:23.111964 20843 net.cpp:425] inception_4d/output <- inception_4d/3x3
I0403 16:13:23.111979 20843 net.cpp:425] inception_4d/output <- inception_4d/5x5
I0403 16:13:23.111994 20843 net.cpp:425] inception_4d/output <- inception_4d/pool_proj
I0403 16:13:23.112010 20843 net.cpp:399] inception_4d/output -> inception_4d/output
I0403 16:13:23.112062 20843 net.cpp:141] Setting up inception_4d/output
I0403 16:13:23.112085 20843 net.cpp:148] Top shape: 24 528 14 14 (2483712)
I0403 16:13:23.112099 20843 net.cpp:156] Memory required for data: 1157244192
I0403 16:13:23.112113 20843 layer_factory.hpp:77] Creating layer inception_4d/output_inception_4d/output_0_split
I0403 16:13:23.112130 20843 net.cpp:91] Creating Layer inception_4d/output_inception_4d/output_0_split
I0403 16:13:23.112145 20843 net.cpp:425] inception_4d/output_inception_4d/output_0_split <- inception_4d/output
I0403 16:13:23.112164 20843 net.cpp:399] inception_4d/output_inception_4d/output_0_split -> inception_4d/output_inception_4d/output_0_split_0
I0403 16:13:23.112185 20843 net.cpp:399] inception_4d/output_inception_4d/output_0_split -> inception_4d/output_inception_4d/output_0_split_1
I0403 16:13:23.112205 20843 net.cpp:399] inception_4d/output_inception_4d/output_0_split -> inception_4d/output_inception_4d/output_0_split_2
I0403 16:13:23.112224 20843 net.cpp:399] inception_4d/output_inception_4d/output_0_split -> inception_4d/output_inception_4d/output_0_split_3
I0403 16:13:23.112243 20843 net.cpp:399] inception_4d/output_inception_4d/output_0_split -> inception_4d/output_inception_4d/output_0_split_4
I0403 16:13:23.112344 20843 net.cpp:141] Setting up inception_4d/output_inception_4d/output_0_split
I0403 16:13:23.112380 20843 net.cpp:148] Top shape: 24 528 14 14 (2483712)
I0403 16:13:23.112399 20843 net.cpp:148] Top shape: 24 528 14 14 (2483712)
I0403 16:13:23.112416 20843 net.cpp:148] Top shape: 24 528 14 14 (2483712)
I0403 16:13:23.112431 20843 net.cpp:148] Top shape: 24 528 14 14 (2483712)
I0403 16:13:23.112445 20843 net.cpp:148] Top shape: 24 528 14 14 (2483712)
I0403 16:13:23.112459 20843 net.cpp:156] Memory required for data: 1206918432
I0403 16:13:23.112473 20843 layer_factory.hpp:77] Creating layer loss2/ave_pool
I0403 16:13:23.112489 20843 net.cpp:91] Creating Layer loss2/ave_pool
I0403 16:13:23.112505 20843 net.cpp:425] loss2/ave_pool <- inception_4d/output_inception_4d/output_0_split_0
I0403 16:13:23.112526 20843 net.cpp:399] loss2/ave_pool -> loss2/ave_pool
I0403 16:13:23.112839 20843 net.cpp:141] Setting up loss2/ave_pool
I0403 16:13:23.112866 20843 net.cpp:148] Top shape: 24 528 4 4 (202752)
I0403 16:13:23.112881 20843 net.cpp:156] Memory required for data: 1207729440
I0403 16:13:23.112895 20843 layer_factory.hpp:77] Creating layer loss2/conv
I0403 16:13:23.112917 20843 net.cpp:91] Creating Layer loss2/conv
I0403 16:13:23.112934 20843 net.cpp:425] loss2/conv <- loss2/ave_pool
I0403 16:13:23.112956 20843 net.cpp:399] loss2/conv -> loss2/conv
I0403 16:13:23.114928 20843 net.cpp:141] Setting up loss2/conv
I0403 16:13:23.114956 20843 net.cpp:148] Top shape: 24 128 4 4 (49152)
I0403 16:13:23.114974 20843 net.cpp:156] Memory required for data: 1207926048
I0403 16:13:23.114994 20843 layer_factory.hpp:77] Creating layer loss2/relu_conv
I0403 16:13:23.115015 20843 net.cpp:91] Creating Layer loss2/relu_conv
I0403 16:13:23.115031 20843 net.cpp:425] loss2/relu_conv <- loss2/conv
I0403 16:13:23.115051 20843 net.cpp:386] loss2/relu_conv -> loss2/conv (in-place)
I0403 16:13:23.115347 20843 net.cpp:141] Setting up loss2/relu_conv
I0403 16:13:23.115375 20843 net.cpp:148] Top shape: 24 128 4 4 (49152)
I0403 16:13:23.115389 20843 net.cpp:156] Memory required for data: 1208122656
I0403 16:13:23.115403 20843 layer_factory.hpp:77] Creating layer loss2/fc
I0403 16:13:23.115424 20843 net.cpp:91] Creating Layer loss2/fc
I0403 16:13:23.115442 20843 net.cpp:425] loss2/fc <- loss2/conv
I0403 16:13:23.115459 20843 net.cpp:399] loss2/fc -> loss2/fc
I0403 16:13:23.133178 20843 net.cpp:141] Setting up loss2/fc
I0403 16:13:23.133216 20843 net.cpp:148] Top shape: 24 1024 (24576)
I0403 16:13:23.133232 20843 net.cpp:156] Memory required for data: 1208220960
I0403 16:13:23.133250 20843 layer_factory.hpp:77] Creating layer loss2/relu_fc
I0403 16:13:23.133270 20843 net.cpp:91] Creating Layer loss2/relu_fc
I0403 16:13:23.133285 20843 net.cpp:425] loss2/relu_fc <- loss2/fc
I0403 16:13:23.133306 20843 net.cpp:386] loss2/relu_fc -> loss2/fc (in-place)
I0403 16:13:23.133631 20843 net.cpp:141] Setting up loss2/relu_fc
I0403 16:13:23.133656 20843 net.cpp:148] Top shape: 24 1024 (24576)
I0403 16:13:23.133671 20843 net.cpp:156] Memory required for data: 1208319264
I0403 16:13:23.133685 20843 layer_factory.hpp:77] Creating layer loss2/drop_fc
I0403 16:13:23.133702 20843 net.cpp:91] Creating Layer loss2/drop_fc
I0403 16:13:23.133718 20843 net.cpp:425] loss2/drop_fc <- loss2/fc
I0403 16:13:23.133738 20843 net.cpp:386] loss2/drop_fc -> loss2/fc (in-place)
I0403 16:13:23.133785 20843 net.cpp:141] Setting up loss2/drop_fc
I0403 16:13:23.133812 20843 net.cpp:148] Top shape: 24 1024 (24576)
I0403 16:13:23.133828 20843 net.cpp:156] Memory required for data: 1208417568
I0403 16:13:23.133842 20843 layer_factory.hpp:77] Creating layer loss2/classifier_plantvillage
I0403 16:13:23.133862 20843 net.cpp:91] Creating Layer loss2/classifier_plantvillage
I0403 16:13:23.133877 20843 net.cpp:425] loss2/classifier_plantvillage <- loss2/fc
I0403 16:13:23.133898 20843 net.cpp:399] loss2/classifier_plantvillage -> loss2/classifier_plantvillage
I0403 16:13:23.134299 20843 net.cpp:141] Setting up loss2/classifier_plantvillage
I0403 16:13:23.134331 20843 net.cpp:148] Top shape: 24 38 (912)
I0403 16:13:23.134363 20843 net.cpp:156] Memory required for data: 1208421216
I0403 16:13:23.134382 20843 layer_factory.hpp:77] Creating layer loss2/classifier_plantvillage_loss2/classifier_plantvillage_0_split
I0403 16:13:23.134400 20843 net.cpp:91] Creating Layer loss2/classifier_plantvillage_loss2/classifier_plantvillage_0_split
I0403 16:13:23.134415 20843 net.cpp:425] loss2/classifier_plantvillage_loss2/classifier_plantvillage_0_split <- loss2/classifier_plantvillage
I0403 16:13:23.134433 20843 net.cpp:399] loss2/classifier_plantvillage_loss2/classifier_plantvillage_0_split -> loss2/classifier_plantvillage_loss2/classifier_plantvillage_0_split_0
I0403 16:13:23.134451 20843 net.cpp:399] loss2/classifier_plantvillage_loss2/classifier_plantvillage_0_split -> loss2/classifier_plantvillage_loss2/classifier_plantvillage_0_split_1
I0403 16:13:23.134474 20843 net.cpp:399] loss2/classifier_plantvillage_loss2/classifier_plantvillage_0_split -> loss2/classifier_plantvillage_loss2/classifier_plantvillage_0_split_2
I0403 16:13:23.134552 20843 net.cpp:141] Setting up loss2/classifier_plantvillage_loss2/classifier_plantvillage_0_split
I0403 16:13:23.134573 20843 net.cpp:148] Top shape: 24 38 (912)
I0403 16:13:23.134589 20843 net.cpp:148] Top shape: 24 38 (912)
I0403 16:13:23.134604 20843 net.cpp:148] Top shape: 24 38 (912)
I0403 16:13:23.134618 20843 net.cpp:156] Memory required for data: 1208432160
I0403 16:13:23.134631 20843 layer_factory.hpp:77] Creating layer inception_4e/1x1
I0403 16:13:23.134650 20843 net.cpp:91] Creating Layer inception_4e/1x1
I0403 16:13:23.134666 20843 net.cpp:425] inception_4e/1x1 <- inception_4d/output_inception_4d/output_0_split_1
I0403 16:13:23.134687 20843 net.cpp:399] inception_4e/1x1 -> inception_4e/1x1
I0403 16:13:23.136493 20843 net.cpp:141] Setting up inception_4e/1x1
I0403 16:13:23.136521 20843 net.cpp:148] Top shape: 24 256 14 14 (1204224)
I0403 16:13:23.136538 20843 net.cpp:156] Memory required for data: 1213249056
I0403 16:13:23.136555 20843 layer_factory.hpp:77] Creating layer inception_4e/relu_1x1
I0403 16:13:23.136576 20843 net.cpp:91] Creating Layer inception_4e/relu_1x1
I0403 16:13:23.136593 20843 net.cpp:425] inception_4e/relu_1x1 <- inception_4e/1x1
I0403 16:13:23.136611 20843 net.cpp:386] inception_4e/relu_1x1 -> inception_4e/1x1 (in-place)
I0403 16:13:23.136916 20843 net.cpp:141] Setting up inception_4e/relu_1x1
I0403 16:13:23.136942 20843 net.cpp:148] Top shape: 24 256 14 14 (1204224)
I0403 16:13:23.136960 20843 net.cpp:156] Memory required for data: 1218065952
I0403 16:13:23.136973 20843 layer_factory.hpp:77] Creating layer inception_4e/3x3_reduce
I0403 16:13:23.136996 20843 net.cpp:91] Creating Layer inception_4e/3x3_reduce
I0403 16:13:23.137014 20843 net.cpp:425] inception_4e/3x3_reduce <- inception_4d/output_inception_4d/output_0_split_2
I0403 16:13:23.137033 20843 net.cpp:399] inception_4e/3x3_reduce -> inception_4e/3x3_reduce
I0403 16:13:23.139364 20843 net.cpp:141] Setting up inception_4e/3x3_reduce
I0403 16:13:23.139394 20843 net.cpp:148] Top shape: 24 160 14 14 (752640)
I0403 16:13:23.139410 20843 net.cpp:156] Memory required for data: 1221076512
I0403 16:13:23.139428 20843 layer_factory.hpp:77] Creating layer inception_4e/relu_3x3_reduce
I0403 16:13:23.139448 20843 net.cpp:91] Creating Layer inception_4e/relu_3x3_reduce
I0403 16:13:23.139466 20843 net.cpp:425] inception_4e/relu_3x3_reduce <- inception_4e/3x3_reduce
I0403 16:13:23.139482 20843 net.cpp:386] inception_4e/relu_3x3_reduce -> inception_4e/3x3_reduce (in-place)
I0403 16:13:23.139672 20843 net.cpp:141] Setting up inception_4e/relu_3x3_reduce
I0403 16:13:23.139700 20843 net.cpp:148] Top shape: 24 160 14 14 (752640)
I0403 16:13:23.139715 20843 net.cpp:156] Memory required for data: 1224087072
I0403 16:13:23.139731 20843 layer_factory.hpp:77] Creating layer inception_4e/3x3
I0403 16:13:23.139752 20843 net.cpp:91] Creating Layer inception_4e/3x3
I0403 16:13:23.139770 20843 net.cpp:425] inception_4e/3x3 <- inception_4e/3x3_reduce
I0403 16:13:23.139789 20843 net.cpp:399] inception_4e/3x3 -> inception_4e/3x3
I0403 16:13:23.144806 20843 net.cpp:141] Setting up inception_4e/3x3
I0403 16:13:23.144851 20843 net.cpp:148] Top shape: 24 320 14 14 (1505280)
I0403 16:13:23.144870 20843 net.cpp:156] Memory required for data: 1230108192
I0403 16:13:23.144888 20843 layer_factory.hpp:77] Creating layer inception_4e/relu_3x3
I0403 16:13:23.144906 20843 net.cpp:91] Creating Layer inception_4e/relu_3x3
I0403 16:13:23.144924 20843 net.cpp:425] inception_4e/relu_3x3 <- inception_4e/3x3
I0403 16:13:23.144943 20843 net.cpp:386] inception_4e/relu_3x3 -> inception_4e/3x3 (in-place)
I0403 16:13:23.145252 20843 net.cpp:141] Setting up inception_4e/relu_3x3
I0403 16:13:23.145282 20843 net.cpp:148] Top shape: 24 320 14 14 (1505280)
I0403 16:13:23.145298 20843 net.cpp:156] Memory required for data: 1236129312
I0403 16:13:23.145311 20843 layer_factory.hpp:77] Creating layer inception_4e/5x5_reduce
I0403 16:13:23.145334 20843 net.cpp:91] Creating Layer inception_4e/5x5_reduce
I0403 16:13:23.145352 20843 net.cpp:425] inception_4e/5x5_reduce <- inception_4d/output_inception_4d/output_0_split_3
I0403 16:13:23.145372 20843 net.cpp:399] inception_4e/5x5_reduce -> inception_4e/5x5_reduce
I0403 16:13:23.146467 20843 net.cpp:141] Setting up inception_4e/5x5_reduce
I0403 16:13:23.146495 20843 net.cpp:148] Top shape: 24 32 14 14 (150528)
I0403 16:13:23.146510 20843 net.cpp:156] Memory required for data: 1236731424
I0403 16:13:23.146528 20843 layer_factory.hpp:77] Creating layer inception_4e/relu_5x5_reduce
I0403 16:13:23.146548 20843 net.cpp:91] Creating Layer inception_4e/relu_5x5_reduce
I0403 16:13:23.146569 20843 net.cpp:425] inception_4e/relu_5x5_reduce <- inception_4e/5x5_reduce
I0403 16:13:23.146586 20843 net.cpp:386] inception_4e/relu_5x5_reduce -> inception_4e/5x5_reduce (in-place)
I0403 16:13:23.146888 20843 net.cpp:141] Setting up inception_4e/relu_5x5_reduce
I0403 16:13:23.146914 20843 net.cpp:148] Top shape: 24 32 14 14 (150528)
I0403 16:13:23.146929 20843 net.cpp:156] Memory required for data: 1237333536
I0403 16:13:23.146956 20843 layer_factory.hpp:77] Creating layer inception_4e/5x5
I0403 16:13:23.146996 20843 net.cpp:91] Creating Layer inception_4e/5x5
I0403 16:13:23.147016 20843 net.cpp:425] inception_4e/5x5 <- inception_4e/5x5_reduce
I0403 16:13:23.147037 20843 net.cpp:399] inception_4e/5x5 -> inception_4e/5x5
I0403 16:13:23.148941 20843 net.cpp:141] Setting up inception_4e/5x5
I0403 16:13:23.148970 20843 net.cpp:148] Top shape: 24 128 14 14 (602112)
I0403 16:13:23.148986 20843 net.cpp:156] Memory required for data: 1239741984
I0403 16:13:23.149004 20843 layer_factory.hpp:77] Creating layer inception_4e/relu_5x5
I0403 16:13:23.149024 20843 net.cpp:91] Creating Layer inception_4e/relu_5x5
I0403 16:13:23.149039 20843 net.cpp:425] inception_4e/relu_5x5 <- inception_4e/5x5
I0403 16:13:23.149063 20843 net.cpp:386] inception_4e/relu_5x5 -> inception_4e/5x5 (in-place)
I0403 16:13:23.149267 20843 net.cpp:141] Setting up inception_4e/relu_5x5
I0403 16:13:23.149292 20843 net.cpp:148] Top shape: 24 128 14 14 (602112)
I0403 16:13:23.149307 20843 net.cpp:156] Memory required for data: 1242150432
I0403 16:13:23.149322 20843 layer_factory.hpp:77] Creating layer inception_4e/pool
I0403 16:13:23.149341 20843 net.cpp:91] Creating Layer inception_4e/pool
I0403 16:13:23.149358 20843 net.cpp:425] inception_4e/pool <- inception_4d/output_inception_4d/output_0_split_4
I0403 16:13:23.149375 20843 net.cpp:399] inception_4e/pool -> inception_4e/pool
I0403 16:13:23.149447 20843 net.cpp:141] Setting up inception_4e/pool
I0403 16:13:23.149471 20843 net.cpp:148] Top shape: 24 528 14 14 (2483712)
I0403 16:13:23.149485 20843 net.cpp:156] Memory required for data: 1252085280
I0403 16:13:23.149500 20843 layer_factory.hpp:77] Creating layer inception_4e/pool_proj
I0403 16:13:23.149521 20843 net.cpp:91] Creating Layer inception_4e/pool_proj
I0403 16:13:23.149539 20843 net.cpp:425] inception_4e/pool_proj <- inception_4e/pool
I0403 16:13:23.149559 20843 net.cpp:399] inception_4e/pool_proj -> inception_4e/pool_proj
I0403 16:13:23.151098 20843 net.cpp:141] Setting up inception_4e/pool_proj
I0403 16:13:23.151137 20843 net.cpp:148] Top shape: 24 128 14 14 (602112)
I0403 16:13:23.151154 20843 net.cpp:156] Memory required for data: 1254493728
I0403 16:13:23.151170 20843 layer_factory.hpp:77] Creating layer inception_4e/relu_pool_proj
I0403 16:13:23.151188 20843 net.cpp:91] Creating Layer inception_4e/relu_pool_proj
I0403 16:13:23.151206 20843 net.cpp:425] inception_4e/relu_pool_proj <- inception_4e/pool_proj
I0403 16:13:23.151224 20843 net.cpp:386] inception_4e/relu_pool_proj -> inception_4e/pool_proj (in-place)
I0403 16:13:23.151525 20843 net.cpp:141] Setting up inception_4e/relu_pool_proj
I0403 16:13:23.151551 20843 net.cpp:148] Top shape: 24 128 14 14 (602112)
I0403 16:13:23.151566 20843 net.cpp:156] Memory required for data: 1256902176
I0403 16:13:23.151582 20843 layer_factory.hpp:77] Creating layer inception_4e/output
I0403 16:13:23.151598 20843 net.cpp:91] Creating Layer inception_4e/output
I0403 16:13:23.151613 20843 net.cpp:425] inception_4e/output <- inception_4e/1x1
I0403 16:13:23.151630 20843 net.cpp:425] inception_4e/output <- inception_4e/3x3
I0403 16:13:23.151645 20843 net.cpp:425] inception_4e/output <- inception_4e/5x5
I0403 16:13:23.151660 20843 net.cpp:425] inception_4e/output <- inception_4e/pool_proj
I0403 16:13:23.151679 20843 net.cpp:399] inception_4e/output -> inception_4e/output
I0403 16:13:23.151728 20843 net.cpp:141] Setting up inception_4e/output
I0403 16:13:23.151754 20843 net.cpp:148] Top shape: 24 832 14 14 (3913728)
I0403 16:13:23.151772 20843 net.cpp:156] Memory required for data: 1272557088
I0403 16:13:23.151787 20843 layer_factory.hpp:77] Creating layer pool4/3x3_s2
I0403 16:13:23.151803 20843 net.cpp:91] Creating Layer pool4/3x3_s2
I0403 16:13:23.151819 20843 net.cpp:425] pool4/3x3_s2 <- inception_4e/output
I0403 16:13:23.151836 20843 net.cpp:399] pool4/3x3_s2 -> pool4/3x3_s2
I0403 16:13:23.151904 20843 net.cpp:141] Setting up pool4/3x3_s2
I0403 16:13:23.151928 20843 net.cpp:148] Top shape: 24 832 7 7 (978432)
I0403 16:13:23.151943 20843 net.cpp:156] Memory required for data: 1276470816
I0403 16:13:23.151959 20843 layer_factory.hpp:77] Creating layer pool4/3x3_s2_pool4/3x3_s2_0_split
I0403 16:13:23.151975 20843 net.cpp:91] Creating Layer pool4/3x3_s2_pool4/3x3_s2_0_split
I0403 16:13:23.151990 20843 net.cpp:425] pool4/3x3_s2_pool4/3x3_s2_0_split <- pool4/3x3_s2
I0403 16:13:23.152009 20843 net.cpp:399] pool4/3x3_s2_pool4/3x3_s2_0_split -> pool4/3x3_s2_pool4/3x3_s2_0_split_0
I0403 16:13:23.152030 20843 net.cpp:399] pool4/3x3_s2_pool4/3x3_s2_0_split -> pool4/3x3_s2_pool4/3x3_s2_0_split_1
I0403 16:13:23.152055 20843 net.cpp:399] pool4/3x3_s2_pool4/3x3_s2_0_split -> pool4/3x3_s2_pool4/3x3_s2_0_split_2
I0403 16:13:23.152078 20843 net.cpp:399] pool4/3x3_s2_pool4/3x3_s2_0_split -> pool4/3x3_s2_pool4/3x3_s2_0_split_3
I0403 16:13:23.152173 20843 net.cpp:141] Setting up pool4/3x3_s2_pool4/3x3_s2_0_split
I0403 16:13:23.152195 20843 net.cpp:148] Top shape: 24 832 7 7 (978432)
I0403 16:13:23.152211 20843 net.cpp:148] Top shape: 24 832 7 7 (978432)
I0403 16:13:23.152226 20843 net.cpp:148] Top shape: 24 832 7 7 (978432)
I0403 16:13:23.152242 20843 net.cpp:148] Top shape: 24 832 7 7 (978432)
I0403 16:13:23.152256 20843 net.cpp:156] Memory required for data: 1292125728
I0403 16:13:23.152271 20843 layer_factory.hpp:77] Creating layer inception_5a/1x1
I0403 16:13:23.152292 20843 net.cpp:91] Creating Layer inception_5a/1x1
I0403 16:13:23.152309 20843 net.cpp:425] inception_5a/1x1 <- pool4/3x3_s2_pool4/3x3_s2_0_split_0
I0403 16:13:23.152330 20843 net.cpp:399] inception_5a/1x1 -> inception_5a/1x1
I0403 16:13:23.155207 20843 net.cpp:141] Setting up inception_5a/1x1
I0403 16:13:23.155237 20843 net.cpp:148] Top shape: 24 256 7 7 (301056)
I0403 16:13:23.155253 20843 net.cpp:156] Memory required for data: 1293329952
I0403 16:13:23.155272 20843 layer_factory.hpp:77] Creating layer inception_5a/relu_1x1
I0403 16:13:23.155292 20843 net.cpp:91] Creating Layer inception_5a/relu_1x1
I0403 16:13:23.155308 20843 net.cpp:425] inception_5a/relu_1x1 <- inception_5a/1x1
I0403 16:13:23.155325 20843 net.cpp:386] inception_5a/relu_1x1 -> inception_5a/1x1 (in-place)
I0403 16:13:23.155652 20843 net.cpp:141] Setting up inception_5a/relu_1x1
I0403 16:13:23.155679 20843 net.cpp:148] Top shape: 24 256 7 7 (301056)
I0403 16:13:23.155694 20843 net.cpp:156] Memory required for data: 1294534176
I0403 16:13:23.155709 20843 layer_factory.hpp:77] Creating layer inception_5a/3x3_reduce
I0403 16:13:23.155730 20843 net.cpp:91] Creating Layer inception_5a/3x3_reduce
I0403 16:13:23.155747 20843 net.cpp:425] inception_5a/3x3_reduce <- pool4/3x3_s2_pool4/3x3_s2_0_split_1
I0403 16:13:23.155768 20843 net.cpp:399] inception_5a/3x3_reduce -> inception_5a/3x3_reduce
I0403 16:13:23.158257 20843 net.cpp:141] Setting up inception_5a/3x3_reduce
I0403 16:13:23.158289 20843 net.cpp:148] Top shape: 24 160 7 7 (188160)
I0403 16:13:23.158305 20843 net.cpp:156] Memory required for data: 1295286816
I0403 16:13:23.158324 20843 layer_factory.hpp:77] Creating layer inception_5a/relu_3x3_reduce
I0403 16:13:23.158344 20843 net.cpp:91] Creating Layer inception_5a/relu_3x3_reduce
I0403 16:13:23.158360 20843 net.cpp:425] inception_5a/relu_3x3_reduce <- inception_5a/3x3_reduce
I0403 16:13:23.158380 20843 net.cpp:386] inception_5a/relu_3x3_reduce -> inception_5a/3x3_reduce (in-place)
I0403 16:13:23.158576 20843 net.cpp:141] Setting up inception_5a/relu_3x3_reduce
I0403 16:13:23.158601 20843 net.cpp:148] Top shape: 24 160 7 7 (188160)
I0403 16:13:23.158615 20843 net.cpp:156] Memory required for data: 1296039456
I0403 16:13:23.158629 20843 layer_factory.hpp:77] Creating layer inception_5a/3x3
I0403 16:13:23.158654 20843 net.cpp:91] Creating Layer inception_5a/3x3
I0403 16:13:23.158671 20843 net.cpp:425] inception_5a/3x3 <- inception_5a/3x3_reduce
I0403 16:13:23.158692 20843 net.cpp:399] inception_5a/3x3 -> inception_5a/3x3
I0403 16:13:23.163774 20843 net.cpp:141] Setting up inception_5a/3x3
I0403 16:13:23.163803 20843 net.cpp:148] Top shape: 24 320 7 7 (376320)
I0403 16:13:23.163820 20843 net.cpp:156] Memory required for data: 1297544736
I0403 16:13:23.163837 20843 layer_factory.hpp:77] Creating layer inception_5a/relu_3x3
I0403 16:13:23.163857 20843 net.cpp:91] Creating Layer inception_5a/relu_3x3
I0403 16:13:23.163874 20843 net.cpp:425] inception_5a/relu_3x3 <- inception_5a/3x3
I0403 16:13:23.163892 20843 net.cpp:386] inception_5a/relu_3x3 -> inception_5a/3x3 (in-place)
I0403 16:13:23.164198 20843 net.cpp:141] Setting up inception_5a/relu_3x3
I0403 16:13:23.164224 20843 net.cpp:148] Top shape: 24 320 7 7 (376320)
I0403 16:13:23.164239 20843 net.cpp:156] Memory required for data: 1299050016
I0403 16:13:23.164253 20843 layer_factory.hpp:77] Creating layer inception_5a/5x5_reduce
I0403 16:13:23.164275 20843 net.cpp:91] Creating Layer inception_5a/5x5_reduce
I0403 16:13:23.164294 20843 net.cpp:425] inception_5a/5x5_reduce <- pool4/3x3_s2_pool4/3x3_s2_0_split_2
I0403 16:13:23.164316 20843 net.cpp:399] inception_5a/5x5_reduce -> inception_5a/5x5_reduce
I0403 16:13:23.165521 20843 net.cpp:141] Setting up inception_5a/5x5_reduce
I0403 16:13:23.165552 20843 net.cpp:148] Top shape: 24 32 7 7 (37632)
I0403 16:13:23.165570 20843 net.cpp:156] Memory required for data: 1299200544
I0403 16:13:23.165590 20843 layer_factory.hpp:77] Creating layer inception_5a/relu_5x5_reduce
I0403 16:13:23.165607 20843 net.cpp:91] Creating Layer inception_5a/relu_5x5_reduce
I0403 16:13:23.165622 20843 net.cpp:425] inception_5a/relu_5x5_reduce <- inception_5a/5x5_reduce
I0403 16:13:23.165638 20843 net.cpp:386] inception_5a/relu_5x5_reduce -> inception_5a/5x5_reduce (in-place)
I0403 16:13:23.165949 20843 net.cpp:141] Setting up inception_5a/relu_5x5_reduce
I0403 16:13:23.165976 20843 net.cpp:148] Top shape: 24 32 7 7 (37632)
I0403 16:13:23.165990 20843 net.cpp:156] Memory required for data: 1299351072
I0403 16:13:23.166005 20843 layer_factory.hpp:77] Creating layer inception_5a/5x5
I0403 16:13:23.166028 20843 net.cpp:91] Creating Layer inception_5a/5x5
I0403 16:13:23.166045 20843 net.cpp:425] inception_5a/5x5 <- inception_5a/5x5_reduce
I0403 16:13:23.166071 20843 net.cpp:399] inception_5a/5x5 -> inception_5a/5x5
I0403 16:13:23.167829 20843 net.cpp:141] Setting up inception_5a/5x5
I0403 16:13:23.167868 20843 net.cpp:148] Top shape: 24 128 7 7 (150528)
I0403 16:13:23.167886 20843 net.cpp:156] Memory required for data: 1299953184
I0403 16:13:23.167917 20843 layer_factory.hpp:77] Creating layer inception_5a/relu_5x5
I0403 16:13:23.167937 20843 net.cpp:91] Creating Layer inception_5a/relu_5x5
I0403 16:13:23.167955 20843 net.cpp:425] inception_5a/relu_5x5 <- inception_5a/5x5
I0403 16:13:23.167973 20843 net.cpp:386] inception_5a/relu_5x5 -> inception_5a/5x5 (in-place)
I0403 16:13:23.168190 20843 net.cpp:141] Setting up inception_5a/relu_5x5
I0403 16:13:23.168227 20843 net.cpp:148] Top shape: 24 128 7 7 (150528)
I0403 16:13:23.168246 20843 net.cpp:156] Memory required for data: 1300555296
I0403 16:13:23.168261 20843 layer_factory.hpp:77] Creating layer inception_5a/pool
I0403 16:13:23.168277 20843 net.cpp:91] Creating Layer inception_5a/pool
I0403 16:13:23.168292 20843 net.cpp:425] inception_5a/pool <- pool4/3x3_s2_pool4/3x3_s2_0_split_3
I0403 16:13:23.168310 20843 net.cpp:399] inception_5a/pool -> inception_5a/pool
I0403 16:13:23.168382 20843 net.cpp:141] Setting up inception_5a/pool
I0403 16:13:23.168407 20843 net.cpp:148] Top shape: 24 832 7 7 (978432)
I0403 16:13:23.168421 20843 net.cpp:156] Memory required for data: 1304469024
I0403 16:13:23.168436 20843 layer_factory.hpp:77] Creating layer inception_5a/pool_proj
I0403 16:13:23.168458 20843 net.cpp:91] Creating Layer inception_5a/pool_proj
I0403 16:13:23.168478 20843 net.cpp:425] inception_5a/pool_proj <- inception_5a/pool
I0403 16:13:23.168498 20843 net.cpp:399] inception_5a/pool_proj -> inception_5a/pool_proj
I0403 16:13:23.170822 20843 net.cpp:141] Setting up inception_5a/pool_proj
I0403 16:13:23.170852 20843 net.cpp:148] Top shape: 24 128 7 7 (150528)
I0403 16:13:23.170868 20843 net.cpp:156] Memory required for data: 1305071136
I0403 16:13:23.170886 20843 layer_factory.hpp:77] Creating layer inception_5a/relu_pool_proj
I0403 16:13:23.170904 20843 net.cpp:91] Creating Layer inception_5a/relu_pool_proj
I0403 16:13:23.170923 20843 net.cpp:425] inception_5a/relu_pool_proj <- inception_5a/pool_proj
I0403 16:13:23.170941 20843 net.cpp:386] inception_5a/relu_pool_proj -> inception_5a/pool_proj (in-place)
I0403 16:13:23.171249 20843 net.cpp:141] Setting up inception_5a/relu_pool_proj
I0403 16:13:23.171277 20843 net.cpp:148] Top shape: 24 128 7 7 (150528)
I0403 16:13:23.171291 20843 net.cpp:156] Memory required for data: 1305673248
I0403 16:13:23.171305 20843 layer_factory.hpp:77] Creating layer inception_5a/output
I0403 16:13:23.171322 20843 net.cpp:91] Creating Layer inception_5a/output
I0403 16:13:23.171337 20843 net.cpp:425] inception_5a/output <- inception_5a/1x1
I0403 16:13:23.171355 20843 net.cpp:425] inception_5a/output <- inception_5a/3x3
I0403 16:13:23.171370 20843 net.cpp:425] inception_5a/output <- inception_5a/5x5
I0403 16:13:23.171386 20843 net.cpp:425] inception_5a/output <- inception_5a/pool_proj
I0403 16:13:23.171404 20843 net.cpp:399] inception_5a/output -> inception_5a/output
I0403 16:13:23.171454 20843 net.cpp:141] Setting up inception_5a/output
I0403 16:13:23.171479 20843 net.cpp:148] Top shape: 24 832 7 7 (978432)
I0403 16:13:23.171494 20843 net.cpp:156] Memory required for data: 1309586976
I0403 16:13:23.171509 20843 layer_factory.hpp:77] Creating layer inception_5a/output_inception_5a/output_0_split
I0403 16:13:23.171525 20843 net.cpp:91] Creating Layer inception_5a/output_inception_5a/output_0_split
I0403 16:13:23.171540 20843 net.cpp:425] inception_5a/output_inception_5a/output_0_split <- inception_5a/output
I0403 16:13:23.171557 20843 net.cpp:399] inception_5a/output_inception_5a/output_0_split -> inception_5a/output_inception_5a/output_0_split_0
I0403 16:13:23.171581 20843 net.cpp:399] inception_5a/output_inception_5a/output_0_split -> inception_5a/output_inception_5a/output_0_split_1
I0403 16:13:23.171602 20843 net.cpp:399] inception_5a/output_inception_5a/output_0_split -> inception_5a/output_inception_5a/output_0_split_2
I0403 16:13:23.171622 20843 net.cpp:399] inception_5a/output_inception_5a/output_0_split -> inception_5a/output_inception_5a/output_0_split_3
I0403 16:13:23.171731 20843 net.cpp:141] Setting up inception_5a/output_inception_5a/output_0_split
I0403 16:13:23.171756 20843 net.cpp:148] Top shape: 24 832 7 7 (978432)
I0403 16:13:23.171772 20843 net.cpp:148] Top shape: 24 832 7 7 (978432)
I0403 16:13:23.171787 20843 net.cpp:148] Top shape: 24 832 7 7 (978432)
I0403 16:13:23.171802 20843 net.cpp:148] Top shape: 24 832 7 7 (978432)
I0403 16:13:23.171816 20843 net.cpp:156] Memory required for data: 1325241888
I0403 16:13:23.171830 20843 layer_factory.hpp:77] Creating layer inception_5b/1x1
I0403 16:13:23.171852 20843 net.cpp:91] Creating Layer inception_5b/1x1
I0403 16:13:23.171869 20843 net.cpp:425] inception_5b/1x1 <- inception_5a/output_inception_5a/output_0_split_0
I0403 16:13:23.171890 20843 net.cpp:399] inception_5b/1x1 -> inception_5b/1x1
I0403 16:13:23.175773 20843 net.cpp:141] Setting up inception_5b/1x1
I0403 16:13:23.175804 20843 net.cpp:148] Top shape: 24 384 7 7 (451584)
I0403 16:13:23.175822 20843 net.cpp:156] Memory required for data: 1327048224
I0403 16:13:23.175840 20843 layer_factory.hpp:77] Creating layer inception_5b/relu_1x1
I0403 16:13:23.175859 20843 net.cpp:91] Creating Layer inception_5b/relu_1x1
I0403 16:13:23.175875 20843 net.cpp:425] inception_5b/relu_1x1 <- inception_5b/1x1
I0403 16:13:23.175895 20843 net.cpp:386] inception_5b/relu_1x1 -> inception_5b/1x1 (in-place)
I0403 16:13:23.176224 20843 net.cpp:141] Setting up inception_5b/relu_1x1
I0403 16:13:23.176251 20843 net.cpp:148] Top shape: 24 384 7 7 (451584)
I0403 16:13:23.176267 20843 net.cpp:156] Memory required for data: 1328854560
I0403 16:13:23.176281 20843 layer_factory.hpp:77] Creating layer inception_5b/3x3_reduce
I0403 16:13:23.176304 20843 net.cpp:91] Creating Layer inception_5b/3x3_reduce
I0403 16:13:23.176322 20843 net.cpp:425] inception_5b/3x3_reduce <- inception_5a/output_inception_5a/output_0_split_1
I0403 16:13:23.176345 20843 net.cpp:399] inception_5b/3x3_reduce -> inception_5b/3x3_reduce
I0403 16:13:23.179131 20843 net.cpp:141] Setting up inception_5b/3x3_reduce
I0403 16:13:23.179164 20843 net.cpp:148] Top shape: 24 192 7 7 (225792)
I0403 16:13:23.179182 20843 net.cpp:156] Memory required for data: 1329757728
I0403 16:13:23.179201 20843 layer_factory.hpp:77] Creating layer inception_5b/relu_3x3_reduce
I0403 16:13:23.179219 20843 net.cpp:91] Creating Layer inception_5b/relu_3x3_reduce
I0403 16:13:23.179236 20843 net.cpp:425] inception_5b/relu_3x3_reduce <- inception_5b/3x3_reduce
I0403 16:13:23.179256 20843 net.cpp:386] inception_5b/relu_3x3_reduce -> inception_5b/3x3_reduce (in-place)
I0403 16:13:23.179464 20843 net.cpp:141] Setting up inception_5b/relu_3x3_reduce
I0403 16:13:23.179489 20843 net.cpp:148] Top shape: 24 192 7 7 (225792)
I0403 16:13:23.179504 20843 net.cpp:156] Memory required for data: 1330660896
I0403 16:13:23.179520 20843 layer_factory.hpp:77] Creating layer inception_5b/3x3
I0403 16:13:23.179543 20843 net.cpp:91] Creating Layer inception_5b/3x3
I0403 16:13:23.179561 20843 net.cpp:425] inception_5b/3x3 <- inception_5b/3x3_reduce
I0403 16:13:23.179584 20843 net.cpp:399] inception_5b/3x3 -> inception_5b/3x3
I0403 16:13:23.186408 20843 net.cpp:141] Setting up inception_5b/3x3
I0403 16:13:23.186439 20843 net.cpp:148] Top shape: 24 384 7 7 (451584)
I0403 16:13:23.186455 20843 net.cpp:156] Memory required for data: 1332467232
I0403 16:13:23.186472 20843 layer_factory.hpp:77] Creating layer inception_5b/relu_3x3
I0403 16:13:23.186491 20843 net.cpp:91] Creating Layer inception_5b/relu_3x3
I0403 16:13:23.186509 20843 net.cpp:425] inception_5b/relu_3x3 <- inception_5b/3x3
I0403 16:13:23.186527 20843 net.cpp:386] inception_5b/relu_3x3 -> inception_5b/3x3 (in-place)
I0403 16:13:23.186833 20843 net.cpp:141] Setting up inception_5b/relu_3x3
I0403 16:13:23.186859 20843 net.cpp:148] Top shape: 24 384 7 7 (451584)
I0403 16:13:23.186874 20843 net.cpp:156] Memory required for data: 1334273568
I0403 16:13:23.186889 20843 layer_factory.hpp:77] Creating layer inception_5b/5x5_reduce
I0403 16:13:23.186929 20843 net.cpp:91] Creating Layer inception_5b/5x5_reduce
I0403 16:13:23.186949 20843 net.cpp:425] inception_5b/5x5_reduce <- inception_5a/output_inception_5a/output_0_split_2
I0403 16:13:23.186970 20843 net.cpp:399] inception_5b/5x5_reduce -> inception_5b/5x5_reduce
I0403 16:13:23.188290 20843 net.cpp:141] Setting up inception_5b/5x5_reduce
I0403 16:13:23.188319 20843 net.cpp:148] Top shape: 24 48 7 7 (56448)
I0403 16:13:23.188335 20843 net.cpp:156] Memory required for data: 1334499360
I0403 16:13:23.188354 20843 layer_factory.hpp:77] Creating layer inception_5b/relu_5x5_reduce
I0403 16:13:23.188371 20843 net.cpp:91] Creating Layer inception_5b/relu_5x5_reduce
I0403 16:13:23.188387 20843 net.cpp:425] inception_5b/relu_5x5_reduce <- inception_5b/5x5_reduce
I0403 16:13:23.188406 20843 net.cpp:386] inception_5b/relu_5x5_reduce -> inception_5b/5x5_reduce (in-place)
I0403 16:13:23.188791 20843 net.cpp:141] Setting up inception_5b/relu_5x5_reduce
I0403 16:13:23.188817 20843 net.cpp:148] Top shape: 24 48 7 7 (56448)
I0403 16:13:23.188832 20843 net.cpp:156] Memory required for data: 1334725152
I0403 16:13:23.188848 20843 layer_factory.hpp:77] Creating layer inception_5b/5x5
I0403 16:13:23.188868 20843 net.cpp:91] Creating Layer inception_5b/5x5
I0403 16:13:23.188884 20843 net.cpp:425] inception_5b/5x5 <- inception_5b/5x5_reduce
I0403 16:13:23.188904 20843 net.cpp:399] inception_5b/5x5 -> inception_5b/5x5
I0403 16:13:23.191010 20843 net.cpp:141] Setting up inception_5b/5x5
I0403 16:13:23.191038 20843 net.cpp:148] Top shape: 24 128 7 7 (150528)
I0403 16:13:23.191059 20843 net.cpp:156] Memory required for data: 1335327264
I0403 16:13:23.191078 20843 layer_factory.hpp:77] Creating layer inception_5b/relu_5x5
I0403 16:13:23.191098 20843 net.cpp:91] Creating Layer inception_5b/relu_5x5
I0403 16:13:23.191117 20843 net.cpp:425] inception_5b/relu_5x5 <- inception_5b/5x5
I0403 16:13:23.191133 20843 net.cpp:386] inception_5b/relu_5x5 -> inception_5b/5x5 (in-place)
I0403 16:13:23.191355 20843 net.cpp:141] Setting up inception_5b/relu_5x5
I0403 16:13:23.191381 20843 net.cpp:148] Top shape: 24 128 7 7 (150528)
I0403 16:13:23.191397 20843 net.cpp:156] Memory required for data: 1335929376
I0403 16:13:23.191412 20843 layer_factory.hpp:77] Creating layer inception_5b/pool
I0403 16:13:23.191431 20843 net.cpp:91] Creating Layer inception_5b/pool
I0403 16:13:23.191449 20843 net.cpp:425] inception_5b/pool <- inception_5a/output_inception_5a/output_0_split_3
I0403 16:13:23.191468 20843 net.cpp:399] inception_5b/pool -> inception_5b/pool
I0403 16:13:23.191555 20843 net.cpp:141] Setting up inception_5b/pool
I0403 16:13:23.191578 20843 net.cpp:148] Top shape: 24 832 7 7 (978432)
I0403 16:13:23.191592 20843 net.cpp:156] Memory required for data: 1339843104
I0403 16:13:23.191607 20843 layer_factory.hpp:77] Creating layer inception_5b/pool_proj
I0403 16:13:23.191632 20843 net.cpp:91] Creating Layer inception_5b/pool_proj
I0403 16:13:23.191649 20843 net.cpp:425] inception_5b/pool_proj <- inception_5b/pool
I0403 16:13:23.191670 20843 net.cpp:399] inception_5b/pool_proj -> inception_5b/pool_proj
I0403 16:13:23.194028 20843 net.cpp:141] Setting up inception_5b/pool_proj
I0403 16:13:23.194061 20843 net.cpp:148] Top shape: 24 128 7 7 (150528)
I0403 16:13:23.194078 20843 net.cpp:156] Memory required for data: 1340445216
I0403 16:13:23.194097 20843 layer_factory.hpp:77] Creating layer inception_5b/relu_pool_proj
I0403 16:13:23.194113 20843 net.cpp:91] Creating Layer inception_5b/relu_pool_proj
I0403 16:13:23.194129 20843 net.cpp:425] inception_5b/relu_pool_proj <- inception_5b/pool_proj
I0403 16:13:23.194147 20843 net.cpp:386] inception_5b/relu_pool_proj -> inception_5b/pool_proj (in-place)
I0403 16:13:23.194445 20843 net.cpp:141] Setting up inception_5b/relu_pool_proj
I0403 16:13:23.194471 20843 net.cpp:148] Top shape: 24 128 7 7 (150528)
I0403 16:13:23.194485 20843 net.cpp:156] Memory required for data: 1341047328
I0403 16:13:23.194499 20843 layer_factory.hpp:77] Creating layer inception_5b/output
I0403 16:13:23.194516 20843 net.cpp:91] Creating Layer inception_5b/output
I0403 16:13:23.194546 20843 net.cpp:425] inception_5b/output <- inception_5b/1x1
I0403 16:13:23.194563 20843 net.cpp:425] inception_5b/output <- inception_5b/3x3
I0403 16:13:23.194579 20843 net.cpp:425] inception_5b/output <- inception_5b/5x5
I0403 16:13:23.194594 20843 net.cpp:425] inception_5b/output <- inception_5b/pool_proj
I0403 16:13:23.194613 20843 net.cpp:399] inception_5b/output -> inception_5b/output
I0403 16:13:23.194664 20843 net.cpp:141] Setting up inception_5b/output
I0403 16:13:23.194689 20843 net.cpp:148] Top shape: 24 1024 7 7 (1204224)
I0403 16:13:23.194705 20843 net.cpp:156] Memory required for data: 1345864224
I0403 16:13:23.194720 20843 layer_factory.hpp:77] Creating layer pool5/7x7_s1
I0403 16:13:23.194736 20843 net.cpp:91] Creating Layer pool5/7x7_s1
I0403 16:13:23.194751 20843 net.cpp:425] pool5/7x7_s1 <- inception_5b/output
I0403 16:13:23.194771 20843 net.cpp:399] pool5/7x7_s1 -> pool5/7x7_s1
I0403 16:13:23.194990 20843 net.cpp:141] Setting up pool5/7x7_s1
I0403 16:13:23.195015 20843 net.cpp:148] Top shape: 24 1024 1 1 (24576)
I0403 16:13:23.195029 20843 net.cpp:156] Memory required for data: 1345962528
I0403 16:13:23.195044 20843 layer_factory.hpp:77] Creating layer pool5/drop_7x7_s1
I0403 16:13:23.195065 20843 net.cpp:91] Creating Layer pool5/drop_7x7_s1
I0403 16:13:23.195081 20843 net.cpp:425] pool5/drop_7x7_s1 <- pool5/7x7_s1
I0403 16:13:23.195101 20843 net.cpp:386] pool5/drop_7x7_s1 -> pool5/7x7_s1 (in-place)
I0403 16:13:23.195152 20843 net.cpp:141] Setting up pool5/drop_7x7_s1
I0403 16:13:23.195175 20843 net.cpp:148] Top shape: 24 1024 1 1 (24576)
I0403 16:13:23.195189 20843 net.cpp:156] Memory required for data: 1346060832
I0403 16:13:23.195204 20843 layer_factory.hpp:77] Creating layer loss3/classifier_plantvillage
I0403 16:13:23.195221 20843 net.cpp:91] Creating Layer loss3/classifier_plantvillage
I0403 16:13:23.195237 20843 net.cpp:425] loss3/classifier_plantvillage <- pool5/7x7_s1
I0403 16:13:23.195257 20843 net.cpp:399] loss3/classifier_plantvillage -> loss3/classifier_plantvillage
I0403 16:13:23.195677 20843 net.cpp:141] Setting up loss3/classifier_plantvillage
I0403 16:13:23.195701 20843 net.cpp:148] Top shape: 24 38 (912)
I0403 16:13:23.195715 20843 net.cpp:156] Memory required for data: 1346064480
I0403 16:13:23.195734 20843 layer_factory.hpp:77] Creating layer loss3/classifier_plantvillage_loss3/classifier_plantvillage_0_split
I0403 16:13:23.195754 20843 net.cpp:91] Creating Layer loss3/classifier_plantvillage_loss3/classifier_plantvillage_0_split
I0403 16:13:23.195770 20843 net.cpp:425] loss3/classifier_plantvillage_loss3/classifier_plantvillage_0_split <- loss3/classifier_plantvillage
I0403 16:13:23.195788 20843 net.cpp:399] loss3/classifier_plantvillage_loss3/classifier_plantvillage_0_split -> loss3/classifier_plantvillage_loss3/classifier_plantvillage_0_split_0
I0403 16:13:23.195809 20843 net.cpp:399] loss3/classifier_plantvillage_loss3/classifier_plantvillage_0_split -> loss3/classifier_plantvillage_loss3/classifier_plantvillage_0_split_1
I0403 16:13:23.195828 20843 net.cpp:399] loss3/classifier_plantvillage_loss3/classifier_plantvillage_0_split -> loss3/classifier_plantvillage_loss3/classifier_plantvillage_0_split_2
I0403 16:13:23.195848 20843 net.cpp:399] loss3/classifier_plantvillage_loss3/classifier_plantvillage_0_split -> loss3/classifier_plantvillage_loss3/classifier_plantvillage_0_split_3
I0403 16:13:23.195950 20843 net.cpp:141] Setting up loss3/classifier_plantvillage_loss3/classifier_plantvillage_0_split
I0403 16:13:23.195972 20843 net.cpp:148] Top shape: 24 38 (912)
I0403 16:13:23.195988 20843 net.cpp:148] Top shape: 24 38 (912)
I0403 16:13:23.196002 20843 net.cpp:148] Top shape: 24 38 (912)
I0403 16:13:23.196017 20843 net.cpp:148] Top shape: 24 38 (912)
I0403 16:13:23.196030 20843 net.cpp:156] Memory required for data: 1346079072
I0403 16:13:23.196044 20843 layer_factory.hpp:77] Creating layer loss1/loss
I0403 16:13:23.196069 20843 net.cpp:91] Creating Layer loss1/loss
I0403 16:13:23.196087 20843 net.cpp:425] loss1/loss <- loss1/classifier_plantvillage_loss1/classifier_plantvillage_0_split_0
I0403 16:13:23.196116 20843 net.cpp:425] loss1/loss <- label_data_1_split_0
…
