…
I0403 16:16:06.515141 20888 net.cpp:313] The NetState phase (1) differed from the phase (0) specified by a rule in layer data
I0403 16:16:06.516271 20888 net.cpp:49] Initializing net from parameters: 
state {
  phase: TEST
}
layer {
  name: "data"
  type: "Data"
  top: "data"
  top: "label"
  include {
    phase: TEST
  }
  transform_param {
    mirror: false
    crop_size: 224
    mean_file: "/home/mohanty/data/final_dataset/lmdb/grayscale-20-80/mean.binaryproto"
  }
  data_param {
    source: "/home/mohanty/data/final_dataset/lmdb/grayscale-20-80/test_db"
    batch_size: 24
    backend: LMDB
  }
}
layer {
  name: "conv1/7x7_s2"
  type: "Convolution"
  bottom: "data"
  top: "conv1/7x7_s2"
  param {
    lr_mult: 1
    decay_mult: 1
  }
  param {
    lr_mult: 2
    decay_mult: 0
  }
  convolution_param {
    num_output: 64
    pad: 3
    kernel_size: 7
    stride: 2
    weight_filler {
      type: "xavier"
      std: 0.1
    }
    bias_filler {
      type: "constant"
      value: 0.2
    }
  }
}
layer {
  name: "conv1/relu_7x7"
  type: "ReLU"
  bottom: "conv1/7x7_s2"
  top: "conv1/7x7_s2"
}
layer {
  name: "pool1/3x3_s2"
  type: "Pooling"
  bottom: "conv1/7x7_s2"
  top: "pool1/3x3_s2"
  pooling_param {
    pool: MAX
    kernel_size: 3
    stride: 2
  }
}
layer {
  name: "pool1/norm1"
  type: "LRN"
  bottom: "pool1/3x3_s2"
  top: "pool1/norm1"
  lrn_param {
    local_size: 5
    alpha: 0.0001
    beta: 0.75
  }
}
layer {
  name: "conv2/3x3_reduce"
  type: "Convolution"
  bottom: "pool1/norm1"
  top: "conv2/3x3_reduce"
  param {
    lr_mult: 1
    decay_mult: 1
  }
  param {
    lr_mult: 2
    decay_mult: 0
  }
  convolution_param {
    num_output: 64
    kernel_size: 1
    weight_filler {
      type: "xavier"
      std: 0.1
    }
    bias_filler {
      type: "constant"
      value: 0.2
    }
  }
}
layer {
  name: "conv2/relu_3x3_reduce"
  type: "ReLU"
  bottom: "conv2/3x3_reduce"
  top: "conv2/3x3_reduce"
}
layer {
  name: "conv2/3x3"
  type: "Convolution"
  bottom: "conv2/3x3_reduce"
  top: "conv2/3x3"
  param {
    lr_mult: 1
    decay_mult: 1
  }
  param {
    lr_mult: 2
    decay_mult: 0
  }
  convolution_param {
    num_output: 192
    pad: 1
    kernel_size: 3
    weight_filler {
      type: "xavier"
      std: 0.03
    }
    bias_filler {
      type: "constant"
      value: 0.2
    }
  }
}
layer {
  name: "conv2/relu_3x3"
  type: "ReLU"
  bottom: "conv2/3x3"
  top: "conv2/3x3"
}
layer {
  name: "conv2/norm2"
  type: "LRN"
  bottom: "conv2/3x3"
  top: "conv2/norm2"
  lrn_param {
    local_size: 5
    alpha: 0.0001
    beta: 0.75
  }
}
layer {
  name: "pool2/3x3_s2"
  type: "Pooling"
  bottom: "conv2/norm2"
  top: "pool2/3x3_s2"
  pooling_param {
    pool: MAX
    kernel_size: 3
    stride: 2
  }
}
layer {
  name: "inception_3a/1x1"
  type: "Convolution"
  bottom: "pool2/3x3_s2"
  top: "inception_3a/1x1"
  param {
    lr_mult: 1
    decay_mult: 1
  }
  param {
    lr_mult: 2
    decay_mult: 0
  }
  convolution_param {
    num_output: 64
    kernel_size: 1
    weight_filler {
      type: "xavier"
      std: 0.03
    }
    bias_filler {
      type: "constant"
      value: 0.2
    }
  }
}
layer {
  name: "inception_3a/relu_1x1"
  type: "ReLU"
  bottom: "inception_3a/1x1"
  top: "inception_3a/1x1"
}
layer {
  name: "inception_3a/3x3_reduce"
  type: "Convolution"
  bottom: "pool2/3x3_s2"
  top: "inception_3a/3x3_reduce"
  param {
    lr_mult: 1
    decay_mult: 1
  }
  param {
    lr_mult: 2
    decay_mult: 0
  }
  convolution_param {
    num_output: 96
    kernel_size: 1
    weight_filler {
      type: "xavier"
      std: 0.09
    }
    bias_filler {
      type: "constant"
      value: 0.2
    }
  }
}
layer {
  name: "inception_3a/relu_3x3_reduce"
  type: "ReLU"
  bottom: "inception_3a/3x3_reduce"
  top: "inception_3a/3x3_reduce"
}
layer {
  name: "inception_3a/3x3"
  type: "Convolution"
  bottom: "inception_3a/3x3_reduce"
  top: "inception_3a/3x3"
  param {
    lr_mult: 1
    decay_mult: 1
  }
  param {
    lr_mult: 2
    decay_mult: 0
  }
  convolution_param {
    num_output: 128
    pad: 1
    kernel_size: 3
    weight_filler {
      type: "xavier"
      std: 0.03
    }
    bias_filler {
      type: "constant"
      value: 0.2
    }
  }
}
layer {
  name: "inception_3a/relu_3x3"
  type: "ReLU"
  bottom: "inception_3a/3x3"
  top: "inception_3a/3x3"
}
layer {
  name: "inception_3a/5x5_reduce"
  type: "Convolution"
  bottom: "pool2/3x3_s2"
  top: "inception_3a/5x5_reduce"
  param {
    lr_mult: 1
    decay_mult: 1
  }
  param {
    lr_mult: 2
    decay_mult: 0
  }
  convolution_param {
    num_output: 16
    kernel_size: 1
    weight_filler {
      type: "xavier"
      std: 0.2
    }
    bias_filler {
      type: "constant"
      value: 0.2
    }
  }
}
layer {
  name: "inception_3a/relu_5x5_reduce"
  type: "ReLU"
  bottom: "inception_3a/5x5_reduce"
  top: "inception_3a/5x5_reduce"
}
layer {
  name: "inception_3a/5x5"
  type: "Convolution"
  bottom: "inception_3a/5x5_reduce"
  top: "inception_3a/5x5"
  param {
    lr_mult: 1
    decay_mult: 1
  }
  param {
    lr_mult: 2
    decay_mult: 0
  }
  convolution_param {
    num_output: 32
    pad: 2
    kernel_size: 5
    weight_filler {
      type: "xavier"
      std: 0.03
    }
    bias_filler {
      type: "constant"
      value: 0.2
    }
  }
}
layer {
  name: "inception_3a/relu_5x5"
  type: "ReLU"
  bottom: "inception_3a/5x5"
  top: "inception_3a/5x5"
}
layer {
  name: "inception_3a/pool"
  type: "Pooling"
  bottom: "pool2/3x3_s2"
  top: "inception_3a/pool"
  pooling_param {
    pool: MAX
    kernel_size: 3
    stride: 1
    pad: 1
  }
}
layer {
  name: "inception_3a/pool_proj"
  type: "Convolution"
  bottom: "inception_3a/pool"
  top: "inception_3a/pool_proj"
  param {
    lr_mult: 1
    decay_mult: 1
  }
  param {
    lr_mult: 2
    decay_mult: 0
  }
  convolution_param {
    num_output: 32
    kernel_size: 1
    weight_filler {
      type: "xavier"
      std: 0.1
    }
    bias_filler {
      type: "constant"
      value: 0.2
    }
  }
}
layer {
  name: "inception_3a/relu_pool_proj"
  type: "ReLU"
  bottom: "inception_3a/pool_proj"
  top: "inception_3a/pool_proj"
}
layer {
  name: "inception_3a/output"
  type: "Concat"
  bottom: "inception_3a/1x1"
  bottom: "inception_3a/3x3"
  bottom: "inception_3a/5x5"
  bottom: "inception_3a/pool_proj"
  top: "inception_3a/output"
}
layer {
  name: "inception_3b/1x1"
  type: "Convolution"
  bottom: "inception_3a/output"
  top: "inception_3b/1x1"
  param {
    lr_mult: 1
    decay_mult: 1
  }
  param {
    lr_mult: 2
    decay_mult: 0
  }
  convolution_param {
    num_output: 128
    kernel_size: 1
    weight_filler {
      type: "xavier"
      std: 0.03
    }
    bias_filler {
      type: "constant"
      value: 0.2
    }
  }
}
layer {
  name: "inception_3b/relu_1x1"
  type: "ReLU"
  bottom: "inception_3b/1x1"
  top: "inception_3b/1x1"
}
layer {
  name: "inception_3b/3x3_reduce"
  type: "Convolution"
  bottom: "inception_3a/output"
  top: "inception_3b/3x3_reduce"
  param {
    lr_mult: 1
    decay_mult: 1
  }
  param {
    lr_mult: 2
    decay_mult: 0
  }
  convolution_param {
    num_output: 128
    kernel_size: 1
    weight_filler {
      type: "xavier"
      std: 0.09
    }
    bias_filler {
      type: "constant"
      value: 0.2
    }
  }
}
layer {
  name: "inception_3b/relu_3x3_reduce"
  type: "ReLU"
  bottom: "inception_3b/3x3_reduce"
  top: "inception_3b/3x3_reduce"
}
layer {
  name: "inception_3b/3x3"
  type: "Convolution"
  bottom: "inception_3b/3x3_reduce"
  top: "inception_3b/3x3"
  param {
    lr_mult: 1
    decay_mult: 1
  }
  param {
    lr_mult: 2
    decay_mult: 0
  }
  convolution_param {
    num_output: 192
    pad: 1
    kernel_size: 3
    weight_filler {
      type: "xavier"
      std: 0.03
    }
    bias_filler {
      type: "constant"
      value: 0.2
    }
  }
}
layer {
  name: "inception_3b/relu_3x3"
  type: "ReLU"
  bottom: "inception_3b/3x3"
  top: "inception_3b/3x3"
}
layer {
  name: "inception_3b/5x5_reduce"
  type: "Convolution"
  bottom: "inception_3a/output"
  top: "inception_3b/5x5_reduce"
  param {
    lr_mult: 1
    decay_mult: 1
  }
  param {
    lr_mult: 2
    decay_mult: 0
  }
  convolution_param {
    num_output: 32
    kernel_size: 1
    weight_filler {
      type: "xavier"
      std: 0.2
    }
    bias_filler {
      type: "constant"
      value: 0.2
    }
  }
}
layer {
  name: "inception_3b/relu_5x5_reduce"
  type: "ReLU"
  bottom: "inception_3b/5x5_reduce"
  top: "inception_3b/5x5_reduce"
}
layer {
  name: "inception_3b/5x5"
  type: "Convolution"
  bottom: "inception_3b/5x5_reduce"
  top: "inception_3b/5x5"
  param {
    lr_mult: 1
    decay_mult: 1
  }
  param {
    lr_mult: 2
    decay_mult: 0
  }
  convolution_param {
    num_output: 96
    pad: 2
    kernel_size: 5
    weight_filler {
      type: "xavier"
      std: 0.03
    }
    bias_filler {
      type: "constant"
      value: 0.2
    }
  }
}
layer {
  name: "inception_3b/relu_5x5"
  type: "ReLU"
  bottom: "inception_3b/5x5"
  top: "inception_3b/5x5"
}
layer {
  name: "inception_3b/pool"
  type: "Pooling"
  bottom: "inception_3a/output"
  top: "inception_3b/pool"
  pooling_param {
    pool: MAX
    kernel_size: 3
    stride: 1
    pad: 1
  }
}
layer {
  name: "inception_3b/pool_proj"
  type: "Convolution"
  bottom: "inception_3b/pool"
  top: "inception_3b/pool_proj"
  param {
    lr_mult: 1
    decay_mult: 1
  }
  param {
    lr_mult: 2
    decay_mult: 0
  }
  convolution_param {
    num_output: 64
    kernel_size: 1
    weight_filler {
      type: "xavier"
      std: 0.1
    }
    bias_filler {
      type: "constant"
      value: 0.2
    }
  }
}
layer {
  name: "inception_3b/relu_pool_proj"
  type: "ReLU"
  bottom: "inception_3b/pool_proj"
  top: "inception_3b/pool_proj"
}
layer {
  name: "inception_3b/output"
  type: "Concat"
  bottom: "inception_3b/1x1"
  bottom: "inception_3b/3x3"
  bottom: "inception_3b/5x5"
  bottom: "inception_3b/pool_proj"
  top: "inception_3b/output"
}
layer {
  name: "pool3/3x3_s2"
  type: "Pooling"
  bottom: "inception_3b/output"
  top: "pool3/3x3_s2"
  pooling_param {
    pool: MAX
    kernel_size: 3
    stride: 2
  }
}
layer {
  name: "inception_4a/1x1"
  type: "Convolution"
  bottom: "pool3/3x3_s2"
  top: "inception_4a/1x1"
  param {
    lr_mult: 1
    decay_mult: 1
  }
  param {
    lr_mult: 2
    decay_mult: 0
  }
  convolution_param {
    num_output: 192
    kernel_size: 1
    weight_filler {
      type: "xavier"
      std: 0.03
    }
    bias_filler {
      type: "constant"
      value: 0.2
    }
  }
}
layer {
  name: "inception_4a/relu_1x1"
  type: "ReLU"
  bottom: "inception_4a/1x1"
  top: "inception_4a/1x1"
}
layer {
  name: "inception_4a/3x3_reduce"
  type: "Convolution"
  bottom: "pool3/3x3_s2"
  top: "inception_4a/3x3_reduce"
  param {
    lr_mult: 1
    decay_mult: 1
  }
  param {
    lr_mult: 2
    decay_mult: 0
  }
  convolution_param {
    num_output: 96
    kernel_size: 1
    weight_filler {
      type: "xavier"
      std: 0.09
    }
    bias_filler {
      type: "constant"
      value: 0.2
    }
  }
}
layer {
  name: "inception_4a/relu_3x3_reduce"
  type: "ReLU"
  bottom: "inception_4a/3x3_reduce"
  top: "inception_4a/3x3_reduce"
}
layer {
  name: "inception_4a/3x3"
  type: "Convolution"
  bottom: "inception_4a/3x3_reduce"
  top: "inception_4a/3x3"
  param {
    lr_mult: 1
    decay_mult: 1
  }
  param {
    lr_mult: 2
    decay_mult: 0
  }
  convolution_param {
    num_output: 208
    pad: 1
    kernel_size: 3
    weight_filler {
      type: "xavier"
      std: 0.03
    }
    bias_filler {
      type: "constant"
      value: 0.2
    }
  }
}
layer {
  name: "inception_4a/relu_3x3"
  type: "ReLU"
  bottom: "inception_4a/3x3"
  top: "inception_4a/3x3"
}
layer {
  name: "inception_4a/5x5_reduce"
  type: "Convolution"
  bottom: "pool3/3x3_s2"
  top: "inception_4a/5x5_reduce"
  param {
    lr_mult: 1
    decay_mult: 1
  }
  param {
    lr_mult: 2
    decay_mult: 0
  }
  convolution_param {
    num_output: 16
    kernel_size: 1
    weight_filler {
      type: "xavier"
      std: 0.2
    }
    bias_filler {
      type: "constant"
      value: 0.2
    }
  }
}
layer {
  name: "inception_4a/relu_5x5_reduce"
  type: "ReLU"
  bottom: "inception_4a/5x5_reduce"
  top: "inception_4a/5x5_reduce"
}
layer {
  name: "inception_4a/5x5"
  type: "Convolution"
  bottom: "inception_4a/5x5_reduce"
  top: "inception_4a/5x5"
  param {
    lr_mult: 1
    decay_mult: 1
  }
  param {
    lr_mult: 2
    decay_mult: 0
  }
  convolution_param {
    num_output: 48
    pad: 2
    kernel_size: 5
    weight_filler {
      type: "xavier"
      std: 0.03
    }
    bias_filler {
      type: "constant"
      value: 0.2
    }
  }
}
layer {
  name: "inception_4a/relu_5x5"
  type: "ReLU"
  bottom: "inception_4a/5x5"
  top: "inception_4a/5x5"
}
layer {
  name: "inception_4a/pool"
  type: "Pooling"
  bottom: "pool3/3x3_s2"
  top: "inception_4a/pool"
  pooling_param {
    pool: MAX
    kernel_size: 3
    stride: 1
    pad: 1
  }
}
layer {
  name: "inception_4a/pool_proj"
  type: "Convolution"
  bottom: "inception_4a/pool"
  top: "inception_4a/pool_proj"
  param {
    lr_mult: 1
    decay_mult: 1
  }
  param {
    lr_mult: 2
    decay_mult: 0
  }
  convolution_param {
    num_output: 64
    kernel_size: 1
    weight_filler {
      type: "xavier"
      std: 0.1
    }
    bias_filler {
      type: "constant"
      value: 0.2
    }
  }
}
layer {
  name: "inception_4a/relu_pool_proj"
  type: "ReLU"
  bottom: "inception_4a/pool_proj"
  top: "inception_4a/pool_proj"
}
layer {
  name: "inception_4a/output"
  type: "Concat"
  bottom: "inception_4a/1x1"
  bottom: "inception_4a/3x3"
  bottom: "inception_4a/5x5"
  bottom: "inception_4a/pool_proj"
  top: "inception_4a/output"
}
layer {
  name: "loss1/ave_pool"
  type: "Pooling"
  bottom: "inception_4a/output"
  top: "loss1/ave_pool"
  pooling_param {
    pool: AVE
    kernel_size: 5
    stride: 3
  }
}
layer {
  name: "loss1/conv"
  type: "Convolution"
  bottom: "loss1/ave_pool"
  top: "loss1/conv"
  param {
    lr_mult: 1
    decay_mult: 1
  }
  param {
    lr_mult: 2
    decay_mult: 0
  }
  convolution_param {
    num_output: 128
    kernel_size: 1
    weight_filler {
      type: "xavier"
      std: 0.08
    }
    bias_filler {
      type: "constant"
      value: 0.2
    }
  }
}
layer {
  name: "loss1/relu_conv"
  type: "ReLU"
  bottom: "loss1/conv"
  top: "loss1/conv"
}
layer {
  name: "loss1/fc"
  type: "InnerProduct"
  bottom: "loss1/conv"
  top: "loss1/fc"
  param {
    lr_mult: 1
    decay_mult: 1
  }
  param {
    lr_mult: 2
    decay_mult: 0
  }
  inner_product_param {
    num_output: 1024
    weight_filler {
      type: "xavier"
      std: 0.02
    }
    bias_filler {
      type: "constant"
      value: 0.2
    }
  }
}
layer {
  name: "loss1/relu_fc"
  type: "ReLU"
  bottom: "loss1/fc"
  top: "loss1/fc"
}
layer {
  name: "loss1/drop_fc"
  type: "Dropout"
  bottom: "loss1/fc"
  top: "loss1/fc"
  dropout_param {
    dropout_ratio: 0.7
  }
}
layer {
  name: "loss1/classifier_plantvillage"
  type: "InnerProduct"
  bottom: "loss1/fc"
  top: "loss1/classifier_plantvillage"
  param {
    lr_mult: 1
    decay_mult: 1
  }
  param {
    lr_mult: 2
    decay_mult: 0
  }
  inner_product_param {
    num_output: 38
    weight_filler {
      type: "xavier"
      std: 0.0009765625
    }
    bias_filler {
      type: "constant"
      value: 0
    }
  }
}
layer {
  name: "inception_4b/1x1"
  type: "Convolution"
  bottom: "inception_4a/output"
  top: "inception_4b/1x1"
  param {
    lr_mult: 1
    decay_mult: 1
  }
  param {
    lr_mult: 2
    decay_mult: 0
  }
  convolution_param {
    num_output: 160
    kernel_size: 1
    weight_filler {
      type: "xavier"
      std: 0.03
    }
    bias_filler {
      type: "constant"
      value: 0.2
    }
  }
}
layer {
  name: "inception_4b/relu_1x1"
  type: "ReLU"
  bottom: "inception_4b/1x1"
  top: "inception_4b/1x1"
}
layer {
  name: "inception_4b/3x3_reduce"
  type: "Convolution"
  bottom: "inception_4a/output"
  top: "inception_4b/3x3_reduce"
  param {
    lr_mult: 1
    decay_mult: 1
  }
  param {
    lr_mult: 2
    decay_mult: 0
  }
  convolution_param {
    num_output: 112
    kernel_size: 1
    weight_filler {
      type: "xavier"
      std: 0.09
    }
    bias_filler {
      type: "constant"
      value: 0.2
    }
  }
}
layer {
  name: "inception_4b/relu_3x3_reduce"
  type: "ReLU"
  bottom: "inception_4b/3x3_reduce"
  top: "inception_4b/3x3_reduce"
}
layer {
  name: "inception_4b/3x3"
  type: "Convolution"
  bottom: "inception_4b/3x3_reduce"
  top: "inception_4b/3x3"
  param {
    lr_mult: 1
    decay_mult: 1
  }
  param {
    lr_mult: 2
    decay_mult: 0
  }
  convolution_param {
    num_output: 224
    pad: 1
    kernel_size: 3
    weight_filler {
      type: "xavier"
      std: 0.03
    }
    bias_filler {
      type: "constant"
      value: 0.2
    }
  }
}
layer {
  name: "inception_4b/relu_3x3"
  type: "ReLU"
  bottom: "inception_4b/3x3"
  top: "inception_4b/3x3"
}
layer {
  name: "inception_4b/5x5_reduce"
  type: "Convolution"
  bottom: "inception_4a/output"
  top: "inception_4b/5x5_reduce"
  param {
    lr_mult: 1
    decay_mult: 1
  }
  param {
    lr_mult: 2
    decay_mult: 0
  }
  convolution_param {
    num_output: 24
    kernel_size: 1
    weight_filler {
      type: "xavier"
      std: 0.2
    }
    bias_filler {
      type: "constant"
      value: 0.2
    }
  }
}
layer {
  name: "inception_4b/relu_5x5_reduce"
  type: "ReLU"
  bottom: "inception_4b/5x5_reduce"
  top: "inception_4b/5x5_reduce"
}
layer {
  name: "inception_4b/5x5"
  type: "Convolution"
  bottom: "inception_4b/5x5_reduce"
  top: "inception_4b/5x5"
  param {
    lr_mult: 1
    decay_mult: 1
  }
  param {
    lr_mult: 2
    decay_mult: 0
  }
  convolution_param {
    num_output: 64
    pad: 2
    kernel_size: 5
    weight_filler {
      type: "xavier"
      std: 0.03
    }
    bias_filler {
      type: "constant"
      value: 0.2
    }
  }
}
layer {
  name: "inception_4b/relu_5x5"
  type: "ReLU"
  bottom: "inception_4b/5x5"
  top: "inception_4b/5x5"
}
layer {
  name: "inception_4b/pool"
  type: "Pooling"
  bottom: "inception_4a/output"
  top: "inception_4b/pool"
  pooling_param {
    pool: MAX
    kernel_size: 3
    stride: 1
    pad: 1
  }
}
layer {
  name: "inception_4b/pool_proj"
  type: "Convolution"
  bottom: "inception_4b/pool"
  top: "inception_4b/pool_proj"
  param {
    lr_mult: 1
    decay_mult: 1
  }
  param {
    lr_mult: 2
    decay_mult: 0
  }
  convolution_param {
    num_output: 64
    kernel_size: 1
    weight_filler {
      type: "xavier"
      std: 0.1
    }
    bias_filler {
      type: "constant"
      value: 0.2
    }
  }
}
layer {
  name: "inception_4b/relu_pool_proj"
  type: "ReLU"
  bottom: "inception_4b/pool_proj"
  top: "inception_4b/pool_proj"
}
layer {
  name: "inception_4b/output"
  type: "Concat"
  bottom: "inception_4b/1x1"
  bottom: "inception_4b/3x3"
  bottom: "inception_4b/5x5"
  bottom: "inception_4b/pool_proj"
  top: "inception_4b/output"
}
layer {
  name: "inception_4c/1x1"
  type: "Convolution"
  bottom: "inception_4b/output"
  top: "inception_4c/1x1"
  param {
    lr_mult: 1
    decay_mult: 1
  }
  param {
    lr_mult: 2
    decay_mult: 0
  }
  convolution_param {
    num_output: 128
    kernel_size: 1
    weight_filler {
      type: "xavier"
      std: 0.03
    }
    bias_filler {
      type: "constant"
      value: 0.2
    }
  }
}
layer {
  name: "inception_4c/relu_1x1"
  type: "ReLU"
  bottom: "inception_4c/1x1"
  top: "inception_4c/1x1"
}
layer {
  name: "inception_4c/3x3_reduce"
  type: "Convolution"
  bottom: "inception_4b/output"
  top: "inception_4c/3x3_reduce"
  param {
    lr_mult: 1
    decay_mult: 1
  }
  param {
    lr_mult: 2
    decay_mult: 0
  }
  convolution_param {
    num_output: 128
    kernel_size: 1
    weight_filler {
      type: "xavier"
      std: 0.09
    }
    bias_filler {
      type: "constant"
      value: 0.2
    }
  }
}
layer {
  name: "inception_4c/relu_3x3_reduce"
  type: "ReLU"
  bottom: "inception_4c/3x3_reduce"
  top: "inception_4c/3x3_reduce"
}
layer {
  name: "inception_4c/3x3"
  type: "Convolution"
  bottom: "inception_4c/3x3_reduce"
  top: "inception_4c/3x3"
  param {
    lr_mult: 1
    decay_mult: 1
  }
  param {
    lr_mult: 2
    decay_mult: 0
  }
  convolution_param {
    num_output: 256
    pad: 1
    kernel_size: 3
    weight_filler {
      type: "xavier"
      std: 0.03
    }
    bias_filler {
      type: "constant"
      value: 0.2
    }
  }
}
layer {
  name: "inception_4c/relu_3x3"
  type: "ReLU"
  bottom: "inception_4c/3x3"
  top: "inception_4c/3x3"
}
layer {
  name: "inception_4c/5x5_reduce"
  type: "Convolution"
  bottom: "inception_4b/output"
  top: "inception_4c/5x5_reduce"
  param {
    lr_mult: 1
    decay_mult: 1
  }
  param {
    lr_mult: 2
    decay_mult: 0
  }
  convolution_param {
    num_output: 24
    kernel_size: 1
    weight_filler {
      type: "xavier"
      std: 0.2
    }
    bias_filler {
      type: "constant"
      value: 0.2
    }
  }
}
layer {
  name: "inception_4c/relu_5x5_reduce"
  type: "ReLU"
  bottom: "inception_4c/5x5_reduce"
  top: "inception_4c/5x5_reduce"
}
layer {
  name: "inception_4c/5x5"
  type: "Convolution"
  bottom: "inception_4c/5x5_reduce"
  top: "inception_4c/5x5"
  param {
    lr_mult: 1
    decay_mult: 1
  }
  param {
    lr_mult: 2
    decay_mult: 0
  }
  convolution_param {
    num_output: 64
    pad: 2
    kernel_size: 5
    weight_filler {
      type: "xavier"
      std: 0.03
    }
    bias_filler {
      type: "constant"
      value: 0.2
    }
  }
}
layer {
  name: "inception_4c/relu_5x5"
  type: "ReLU"
  bottom: "inception_4c/5x5"
  top: "inception_4c/5x5"
}
layer {
  name: "inception_4c/pool"
  type: "Pooling"
  bottom: "inception_4b/output"
  top: "inception_4c/pool"
  pooling_param {
    pool: MAX
    kernel_size: 3
    stride: 1
    pad: 1
  }
}
layer {
  name: "inception_4c/pool_proj"
  type: "Convolution"
  bottom: "inception_4c/pool"
  top: "inception_4c/pool_proj"
  param {
    lr_mult: 1
    decay_mult: 1
  }
  param {
    lr_mult: 2
    decay_mult: 0
  }
  convolution_param {
    num_output: 64
    kernel_size: 1
    weight_filler {
      type: "xavier"
      std: 0.1
    }
    bias_filler {
      type: "constant"
      value: 0.2
    }
  }
}
layer {
  name: "inception_4c/relu_pool_proj"
  type: "ReLU"
  bottom: "inception_4c/pool_proj"
  top: "inception_4c/pool_proj"
}
layer {
  name: "inception_4c/output"
  type: "Concat"
  bottom: "inception_4c/1x1"
  bottom: "inception_4c/3x3"
  bottom: "inception_4c/5x5"
  bottom: "inception_4c/pool_proj"
  top: "inception_4c/output"
}
layer {
  name: "inception_4d/1x1"
  type: "Convolution"
  bottom: "inception_4c/output"
  top: "inception_4d/1x1"
  param {
    lr_mult: 1
    decay_mult: 1
  }
  param {
    lr_mult: 2
    decay_mult: 0
  }
  convolution_param {
    num_output: 112
    kernel_size: 1
    weight_filler {
      type: "xavier"
      std: 0.03
    }
    bias_filler {
      type: "constant"
      value: 0.2
    }
  }
}
layer {
  name: "inception_4d/relu_1x1"
  type: "ReLU"
  bottom: "inception_4d/1x1"
  top: "inception_4d/1x1"
}
layer {
  name: "inception_4d/3x3_reduce"
  type: "Convolution"
  bottom: "inception_4c/output"
  top: "inception_4d/3x3_reduce"
  param {
    lr_mult: 1
    decay_mult: 1
  }
  param {
    lr_mult: 2
    decay_mult: 0
  }
  convolution_param {
    num_output: 144
    kernel_size: 1
    weight_filler {
      type: "xavier"
      std: 0.09
    }
    bias_filler {
      type: "constant"
      value: 0.2
    }
  }
}
layer {
  name: "inception_4d/relu_3x3_reduce"
  type: "ReLU"
  bottom: "inception_4d/3x3_reduce"
  top: "inception_4d/3x3_reduce"
}
layer {
  name: "inception_4d/3x3"
  type: "Convolution"
  bottom: "inception_4d/3x3_reduce"
  top: "inception_4d/3x3"
  param {
    lr_mult: 1
    decay_mult: 1
  }
  param {
    lr_mult: 2
    decay_mult: 0
  }
  convolution_param {
    num_output: 288
    pad: 1
    kernel_size: 3
    weight_filler {
      type: "xavier"
      std: 0.03
    }
    bias_filler {
      type: "constant"
      value: 0.2
    }
  }
}
layer {
  name: "inception_4d/relu_3x3"
  type: "ReLU"
  bottom: "inception_4d/3x3"
  top: "inception_4d/3x3"
}
layer {
  name: "inception_4d/5x5_reduce"
  type: "Convolution"
  bottom: "inception_4c/output"
  top: "inception_4d/5x5_reduce"
  param {
    lr_mult: 1
    decay_mult: 1
  }
  param {
    lr_mult: 2
    decay_mult: 0
  }
  convolution_param {
    num_output: 32
    kernel_size: 1
    weight_filler {
      type: "xavier"
      std: 0.2
    }
    bias_filler {
      type: "constant"
      value: 0.2
    }
  }
}
layer {
  name: "inception_4d/relu_5x5_reduce"
  type: "ReLU"
  bottom: "inception_4d/5x5_reduce"
  top: "inception_4d/5x5_reduce"
}
layer {
  name: "inception_4d/5x5"
  type: "Convolution"
  bottom: "inception_4d/5x5_reduce"
  top: "inception_4d/5x5"
  param {
    lr_mult: 1
    decay_mult: 1
  }
  param {
    lr_mult: 2
    decay_mult: 0
  }
  convolution_param {
    num_output: 64
    pad: 2
    kernel_size: 5
    weight_filler {
      type: "xavier"
      std: 0.03
    }
    bias_filler {
      type: "constant"
      value: 0.2
    }
  }
}
layer {
  name: "inception_4d/relu_5x5"
  type: "ReLU"
  bottom: "inception_4d/5x5"
  top: "inception_4d/5x5"
}
layer {
  name: "inception_4d/pool"
  type: "Pooling"
  bottom: "inception_4c/output"
  top: "inception_4d/pool"
  pooling_param {
    pool: MAX
    kernel_size: 3
    stride: 1
    pad: 1
  }
}
layer {
  name: "inception_4d/pool_proj"
  type: "Convolution"
  bottom: "inception_4d/pool"
  top: "inception_4d/pool_proj"
  param {
    lr_mult: 1
    decay_mult: 1
  }
  param {
    lr_mult: 2
    decay_mult: 0
  }
  convolution_param {
    num_output: 64
    kernel_size: 1
    weight_filler {
      type: "xavier"
      std: 0.1
    }
    bias_filler {
      type: "constant"
      value: 0.2
    }
  }
}
layer {
  name: "inception_4d/relu_pool_proj"
  type: "ReLU"
  bottom: "inception_4d/pool_proj"
  top: "inception_4d/pool_proj"
}
layer {
  name: "inception_4d/output"
  type: "Concat"
  bottom: "inception_4d/1x1"
  bottom: "inception_4d/3x3"
  bottom: "inception_4d/5x5"
  bottom: "inception_4d/pool_proj"
  top: "inception_4d/output"
}
layer {
  name: "loss2/ave_pool"
  type: "Pooling"
  bottom: "inception_4d/output"
  top: "loss2/ave_pool"
  pooling_param {
    pool: AVE
    kernel_size: 5
    stride: 3
  }
}
layer {
  name: "loss2/conv"
  type: "Convolution"
  bottom: "loss2/ave_pool"
  top: "loss2/conv"
  param {
    lr_mult: 1
    decay_mult: 1
  }
  param {
    lr_mult: 2
    decay_mult: 0
  }
  convolution_param {
    num_output: 128
    kernel_size: 1
    weight_filler {
      type: "xavier"
      std: 0.08
    }
    bias_filler {
      type: "constant"
      value: 0.2
    }
  }
}
layer {
  name: "loss2/relu_conv"
  type: "ReLU"
  bottom: "loss2/conv"
  top: "loss2/conv"
}
layer {
  name: "loss2/fc"
  type: "InnerProduct"
  bottom: "loss2/conv"
  top: "loss2/fc"
  param {
    lr_mult: 1
    decay_mult: 1
  }
  param {
    lr_mult: 2
    decay_mult: 0
  }
  inner_product_param {
    num_output: 1024
    weight_filler {
      type: "xavier"
      std: 0.02
    }
    bias_filler {
      type: "constant"
      value: 0.2
    }
  }
}
layer {
  name: "loss2/relu_fc"
  type: "ReLU"
  bottom: "loss2/fc"
  top: "loss2/fc"
}
layer {
  name: "loss2/drop_fc"
  type: "Dropout"
  bottom: "loss2/fc"
  top: "loss2/fc"
  dropout_param {
    dropout_ratio: 0.7
  }
}
layer {
  name: "loss2/classifier_plantvillage"
  type: "InnerProduct"
  bottom: "loss2/fc"
  top: "loss2/classifier_plantvillage"
  param {
    lr_mult: 1
    decay_mult: 1
  }
  param {
    lr_mult: 2
    decay_mult: 0
  }
  inner_product_param {
    num_output: 38
    weight_filler {
      type: "xavier"
      std: 0.0009765625
    }
    bias_filler {
      type: "constant"
      value: 0
    }
  }
}
layer {
  name: "inception_4e/1x1"
  type: "Convolution"
  bottom: "inception_4d/output"
  top: "inception_4e/1x1"
  param {
    lr_mult: 1
    decay_mult: 1
  }
  param {
    lr_mult: 2
    decay_mult: 0
  }
  convolution_param {
    num_output: 256
    kernel_size: 1
    weight_filler {
      type: "xavier"
      std: 0.03
    }
    bias_filler {
      type: "constant"
      value: 0.2
    }
  }
}
layer {
  name: "inception_4e/relu_1x1"
  type: "ReLU"
  bottom: "inception_4e/1x1"
  top: "inception_4e/1x1"
}
layer {
  name: "inception_4e/3x3_reduce"
  type: "Convolution"
  bottom: "inception_4d/output"
  top: "inception_4e/3x3_reduce"
  param {
    lr_mult: 1
    decay_mult: 1
  }
  param {
    lr_mult: 2
    decay_mult: 0
  }
  convolution_param {
    num_output: 160
    kernel_size: 1
    weight_filler {
      type: "xavier"
      std: 0.09
    }
    bias_filler {
      type: "constant"
      value: 0.2
    }
  }
}
layer {
  name: "inception_4e/relu_3x3_reduce"
  type: "ReLU"
  bottom: "inception_4e/3x3_reduce"
  top: "inception_4e/3x3_reduce"
}
layer {
  name: "inception_4e/3x3"
  type: "Convolution"
  bottom: "inception_4e/3x3_reduce"
  top: "inception_4e/3x3"
  param {
    lr_mult: 1
    decay_mult: 1
  }
  param {
    lr_mult: 2
    decay_mult: 0
  }
  convolution_param {
    num_output: 320
    pad: 1
    kernel_size: 3
    weight_filler {
      type: "xavier"
      std: 0.03
    }
    bias_filler {
      type: "constant"
      value: 0.2
    }
  }
}
layer {
  name: "inception_4e/relu_3x3"
  type: "ReLU"
  bottom: "inception_4e/3x3"
  top: "inception_4e/3x3"
}
layer {
  name: "inception_4e/5x5_reduce"
  type: "Convolution"
  bottom: "inception_4d/output"
  top: "inception_4e/5x5_reduce"
  param {
    lr_mult: 1
    decay_mult: 1
  }
  param {
    lr_mult: 2
    decay_mult: 0
  }
  convolution_param {
    num_output: 32
    kernel_size: 1
    weight_filler {
      type: "xavier"
      std: 0.2
    }
    bias_filler {
      type: "constant"
      value: 0.2
    }
  }
}
layer {
  name: "inception_4e/relu_5x5_reduce"
  type: "ReLU"
  bottom: "inception_4e/5x5_reduce"
  top: "inception_4e/5x5_reduce"
}
layer {
  name: "inception_4e/5x5"
  type: "Convolution"
  bottom: "inception_4e/5x5_reduce"
  top: "inception_4e/
I0403 16:16:06.517500 20888 layer_factory.hpp:77] Creating layer data
I0403 16:16:06.518091 20888 net.cpp:91] Creating Layer data
I0403 16:16:06.518123 20888 net.cpp:399] data -> data
I0403 16:16:06.518173 20888 net.cpp:399] data -> label
I0403 16:16:06.518211 20888 data_transformer.cpp:25] Loading mean file from: /home/mohanty/data/final_dataset/lmdb/grayscale-20-80/mean.binaryproto
I0403 16:16:06.519366 20893 db_lmdb.cpp:38] Opened lmdb /home/mohanty/data/final_dataset/lmdb/grayscale-20-80/test_db
I0403 16:16:06.531008 20888 data_layer.cpp:41] output data size: 24,3,224,224
I0403 16:16:06.557773 20888 net.cpp:141] Setting up data
I0403 16:16:06.557832 20888 net.cpp:148] Top shape: 24 3 224 224 (3612672)
I0403 16:16:06.557857 20888 net.cpp:148] Top shape: 24 (24)
I0403 16:16:06.557873 20888 net.cpp:156] Memory required for data: 14450784
I0403 16:16:06.557901 20888 layer_factory.hpp:77] Creating layer label_data_1_split
I0403 16:16:06.557931 20888 net.cpp:91] Creating Layer label_data_1_split
I0403 16:16:06.557955 20888 net.cpp:425] label_data_1_split <- label
I0403 16:16:06.557989 20888 net.cpp:399] label_data_1_split -> label_data_1_split_0
I0403 16:16:06.558020 20888 net.cpp:399] label_data_1_split -> label_data_1_split_1
I0403 16:16:06.558058 20888 net.cpp:399] label_data_1_split -> label_data_1_split_2
I0403 16:16:06.558087 20888 net.cpp:399] label_data_1_split -> label_data_1_split_3
I0403 16:16:06.558109 20888 net.cpp:399] label_data_1_split -> label_data_1_split_4
I0403 16:16:06.558130 20888 net.cpp:399] label_data_1_split -> label_data_1_split_5
I0403 16:16:06.558148 20888 net.cpp:399] label_data_1_split -> label_data_1_split_6
I0403 16:16:06.558169 20888 net.cpp:399] label_data_1_split -> label_data_1_split_7
I0403 16:16:06.558188 20888 net.cpp:399] label_data_1_split -> label_data_1_split_8
I0403 16:16:06.558208 20888 net.cpp:399] label_data_1_split -> label_data_1_split_9
I0403 16:16:06.558326 20888 net.cpp:141] Setting up label_data_1_split
I0403 16:16:06.558349 20888 net.cpp:148] Top shape: 24 (24)
I0403 16:16:06.558367 20888 net.cpp:148] Top shape: 24 (24)
I0403 16:16:06.558383 20888 net.cpp:148] Top shape: 24 (24)
I0403 16:16:06.558398 20888 net.cpp:148] Top shape: 24 (24)
I0403 16:16:06.558414 20888 net.cpp:148] Top shape: 24 (24)
I0403 16:16:06.558429 20888 net.cpp:148] Top shape: 24 (24)
I0403 16:16:06.558445 20888 net.cpp:148] Top shape: 24 (24)
I0403 16:16:06.558461 20888 net.cpp:148] Top shape: 24 (24)
I0403 16:16:06.558477 20888 net.cpp:148] Top shape: 24 (24)
I0403 16:16:06.558493 20888 net.cpp:148] Top shape: 24 (24)
I0403 16:16:06.558537 20888 net.cpp:156] Memory required for data: 14451744
I0403 16:16:06.558554 20888 layer_factory.hpp:77] Creating layer conv1/7x7_s2
I0403 16:16:06.558586 20888 net.cpp:91] Creating Layer conv1/7x7_s2
I0403 16:16:06.558604 20888 net.cpp:425] conv1/7x7_s2 <- data
I0403 16:16:06.558624 20888 net.cpp:399] conv1/7x7_s2 -> conv1/7x7_s2
I0403 16:16:06.695572 20888 net.cpp:141] Setting up conv1/7x7_s2
I0403 16:16:06.695653 20888 net.cpp:148] Top shape: 24 64 112 112 (19267584)
I0403 16:16:06.695672 20888 net.cpp:156] Memory required for data: 91522080
I0403 16:16:06.695701 20888 layer_factory.hpp:77] Creating layer conv1/relu_7x7
I0403 16:16:06.695730 20888 net.cpp:91] Creating Layer conv1/relu_7x7
I0403 16:16:06.695749 20888 net.cpp:425] conv1/relu_7x7 <- conv1/7x7_s2
I0403 16:16:06.695767 20888 net.cpp:386] conv1/relu_7x7 -> conv1/7x7_s2 (in-place)
I0403 16:16:06.696027 20888 net.cpp:141] Setting up conv1/relu_7x7
I0403 16:16:06.696058 20888 net.cpp:148] Top shape: 24 64 112 112 (19267584)
I0403 16:16:06.696075 20888 net.cpp:156] Memory required for data: 168592416
I0403 16:16:06.696091 20888 layer_factory.hpp:77] Creating layer pool1/3x3_s2
I0403 16:16:06.696117 20888 net.cpp:91] Creating Layer pool1/3x3_s2
I0403 16:16:06.696135 20888 net.cpp:425] pool1/3x3_s2 <- conv1/7x7_s2
I0403 16:16:06.696154 20888 net.cpp:399] pool1/3x3_s2 -> pool1/3x3_s2
I0403 16:16:06.696230 20888 net.cpp:141] Setting up pool1/3x3_s2
I0403 16:16:06.696254 20888 net.cpp:148] Top shape: 24 64 56 56 (4816896)
I0403 16:16:06.696270 20888 net.cpp:156] Memory required for data: 187860000
I0403 16:16:06.696285 20888 layer_factory.hpp:77] Creating layer pool1/norm1
I0403 16:16:06.696310 20888 net.cpp:91] Creating Layer pool1/norm1
I0403 16:16:06.696327 20888 net.cpp:425] pool1/norm1 <- pool1/3x3_s2
I0403 16:16:06.696344 20888 net.cpp:399] pool1/norm1 -> pool1/norm1
I0403 16:16:06.696658 20888 net.cpp:141] Setting up pool1/norm1
I0403 16:16:06.696686 20888 net.cpp:148] Top shape: 24 64 56 56 (4816896)
I0403 16:16:06.696702 20888 net.cpp:156] Memory required for data: 207127584
I0403 16:16:06.696717 20888 layer_factory.hpp:77] Creating layer conv2/3x3_reduce
I0403 16:16:06.696743 20888 net.cpp:91] Creating Layer conv2/3x3_reduce
I0403 16:16:06.696759 20888 net.cpp:425] conv2/3x3_reduce <- pool1/norm1
I0403 16:16:06.696777 20888 net.cpp:399] conv2/3x3_reduce -> conv2/3x3_reduce
I0403 16:16:06.698148 20888 net.cpp:141] Setting up conv2/3x3_reduce
I0403 16:16:06.698179 20888 net.cpp:148] Top shape: 24 64 56 56 (4816896)
I0403 16:16:06.698196 20888 net.cpp:156] Memory required for data: 226395168
I0403 16:16:06.698217 20888 layer_factory.hpp:77] Creating layer conv2/relu_3x3_reduce
I0403 16:16:06.698237 20888 net.cpp:91] Creating Layer conv2/relu_3x3_reduce
I0403 16:16:06.698256 20888 net.cpp:425] conv2/relu_3x3_reduce <- conv2/3x3_reduce
I0403 16:16:06.698277 20888 net.cpp:386] conv2/relu_3x3_reduce -> conv2/3x3_reduce (in-place)
I0403 16:16:06.698573 20888 net.cpp:141] Setting up conv2/relu_3x3_reduce
I0403 16:16:06.698602 20888 net.cpp:148] Top shape: 24 64 56 56 (4816896)
I0403 16:16:06.698618 20888 net.cpp:156] Memory required for data: 245662752
I0403 16:16:06.698635 20888 layer_factory.hpp:77] Creating layer conv2/3x3
I0403 16:16:06.698660 20888 net.cpp:91] Creating Layer conv2/3x3
I0403 16:16:06.698678 20888 net.cpp:425] conv2/3x3 <- conv2/3x3_reduce
I0403 16:16:06.698700 20888 net.cpp:399] conv2/3x3 -> conv2/3x3
I0403 16:16:06.701076 20888 net.cpp:141] Setting up conv2/3x3
I0403 16:16:06.701107 20888 net.cpp:148] Top shape: 24 192 56 56 (14450688)
I0403 16:16:06.701124 20888 net.cpp:156] Memory required for data: 303465504
I0403 16:16:06.701146 20888 layer_factory.hpp:77] Creating layer conv2/relu_3x3
I0403 16:16:06.701166 20888 net.cpp:91] Creating Layer conv2/relu_3x3
I0403 16:16:06.701184 20888 net.cpp:425] conv2/relu_3x3 <- conv2/3x3
I0403 16:16:06.701205 20888 net.cpp:386] conv2/relu_3x3 -> conv2/3x3 (in-place)
I0403 16:16:06.701381 20888 net.cpp:141] Setting up conv2/relu_3x3
I0403 16:16:06.701411 20888 net.cpp:148] Top shape: 24 192 56 56 (14450688)
I0403 16:16:06.701458 20888 net.cpp:156] Memory required for data: 361268256
I0403 16:16:06.701475 20888 layer_factory.hpp:77] Creating layer conv2/norm2
I0403 16:16:06.701498 20888 net.cpp:91] Creating Layer conv2/norm2
I0403 16:16:06.701515 20888 net.cpp:425] conv2/norm2 <- conv2/3x3
I0403 16:16:06.701534 20888 net.cpp:399] conv2/norm2 -> conv2/norm2
I0403 16:16:06.701880 20888 net.cpp:141] Setting up conv2/norm2
I0403 16:16:06.701911 20888 net.cpp:148] Top shape: 24 192 56 56 (14450688)
I0403 16:16:06.701927 20888 net.cpp:156] Memory required for data: 419071008
I0403 16:16:06.701943 20888 layer_factory.hpp:77] Creating layer pool2/3x3_s2
I0403 16:16:06.701962 20888 net.cpp:91] Creating Layer pool2/3x3_s2
I0403 16:16:06.701978 20888 net.cpp:425] pool2/3x3_s2 <- conv2/norm2
I0403 16:16:06.701997 20888 net.cpp:399] pool2/3x3_s2 -> pool2/3x3_s2
I0403 16:16:06.702057 20888 net.cpp:141] Setting up pool2/3x3_s2
I0403 16:16:06.702082 20888 net.cpp:148] Top shape: 24 192 28 28 (3612672)
I0403 16:16:06.702098 20888 net.cpp:156] Memory required for data: 433521696
I0403 16:16:06.702113 20888 layer_factory.hpp:77] Creating layer pool2/3x3_s2_pool2/3x3_s2_0_split
I0403 16:16:06.702133 20888 net.cpp:91] Creating Layer pool2/3x3_s2_pool2/3x3_s2_0_split
I0403 16:16:06.702153 20888 net.cpp:425] pool2/3x3_s2_pool2/3x3_s2_0_split <- pool2/3x3_s2
I0403 16:16:06.702172 20888 net.cpp:399] pool2/3x3_s2_pool2/3x3_s2_0_split -> pool2/3x3_s2_pool2/3x3_s2_0_split_0
I0403 16:16:06.702193 20888 net.cpp:399] pool2/3x3_s2_pool2/3x3_s2_0_split -> pool2/3x3_s2_pool2/3x3_s2_0_split_1
I0403 16:16:06.702214 20888 net.cpp:399] pool2/3x3_s2_pool2/3x3_s2_0_split -> pool2/3x3_s2_pool2/3x3_s2_0_split_2
I0403 16:16:06.702237 20888 net.cpp:399] pool2/3x3_s2_pool2/3x3_s2_0_split -> pool2/3x3_s2_pool2/3x3_s2_0_split_3
I0403 16:16:06.702311 20888 net.cpp:141] Setting up pool2/3x3_s2_pool2/3x3_s2_0_split
I0403 16:16:06.702337 20888 net.cpp:148] Top shape: 24 192 28 28 (3612672)
I0403 16:16:06.702353 20888 net.cpp:148] Top shape: 24 192 28 28 (3612672)
I0403 16:16:06.702369 20888 net.cpp:148] Top shape: 24 192 28 28 (3612672)
I0403 16:16:06.702386 20888 net.cpp:148] Top shape: 24 192 28 28 (3612672)
I0403 16:16:06.702401 20888 net.cpp:156] Memory required for data: 491324448
I0403 16:16:06.702417 20888 layer_factory.hpp:77] Creating layer inception_3a/1x1
I0403 16:16:06.702443 20888 net.cpp:91] Creating Layer inception_3a/1x1
I0403 16:16:06.702462 20888 net.cpp:425] inception_3a/1x1 <- pool2/3x3_s2_pool2/3x3_s2_0_split_0
I0403 16:16:06.702484 20888 net.cpp:399] inception_3a/1x1 -> inception_3a/1x1
I0403 16:16:06.704028 20888 net.cpp:141] Setting up inception_3a/1x1
I0403 16:16:06.704066 20888 net.cpp:148] Top shape: 24 64 28 28 (1204224)
I0403 16:16:06.704085 20888 net.cpp:156] Memory required for data: 496141344
I0403 16:16:06.704105 20888 layer_factory.hpp:77] Creating layer inception_3a/relu_1x1
I0403 16:16:06.704124 20888 net.cpp:91] Creating Layer inception_3a/relu_1x1
I0403 16:16:06.704140 20888 net.cpp:425] inception_3a/relu_1x1 <- inception_3a/1x1
I0403 16:16:06.704161 20888 net.cpp:386] inception_3a/relu_1x1 -> inception_3a/1x1 (in-place)
I0403 16:16:06.704332 20888 net.cpp:141] Setting up inception_3a/relu_1x1
I0403 16:16:06.704360 20888 net.cpp:148] Top shape: 24 64 28 28 (1204224)
I0403 16:16:06.704375 20888 net.cpp:156] Memory required for data: 500958240
I0403 16:16:06.704391 20888 layer_factory.hpp:77] Creating layer inception_3a/3x3_reduce
I0403 16:16:06.704411 20888 net.cpp:91] Creating Layer inception_3a/3x3_reduce
I0403 16:16:06.704429 20888 net.cpp:425] inception_3a/3x3_reduce <- pool2/3x3_s2_pool2/3x3_s2_0_split_1
I0403 16:16:06.704450 20888 net.cpp:399] inception_3a/3x3_reduce -> inception_3a/3x3_reduce
I0403 16:16:06.706115 20888 net.cpp:141] Setting up inception_3a/3x3_reduce
I0403 16:16:06.706146 20888 net.cpp:148] Top shape: 24 96 28 28 (1806336)
I0403 16:16:06.706161 20888 net.cpp:156] Memory required for data: 508183584
I0403 16:16:06.706183 20888 layer_factory.hpp:77] Creating layer inception_3a/relu_3x3_reduce
I0403 16:16:06.706221 20888 net.cpp:91] Creating Layer inception_3a/relu_3x3_reduce
I0403 16:16:06.706241 20888 net.cpp:425] inception_3a/relu_3x3_reduce <- inception_3a/3x3_reduce
I0403 16:16:06.706259 20888 net.cpp:386] inception_3a/relu_3x3_reduce -> inception_3a/3x3_reduce (in-place)
I0403 16:16:06.706441 20888 net.cpp:141] Setting up inception_3a/relu_3x3_reduce
I0403 16:16:06.706470 20888 net.cpp:148] Top shape: 24 96 28 28 (1806336)
I0403 16:16:06.706488 20888 net.cpp:156] Memory required for data: 515408928
I0403 16:16:06.706504 20888 layer_factory.hpp:77] Creating layer inception_3a/3x3
I0403 16:16:06.706527 20888 net.cpp:91] Creating Layer inception_3a/3x3
I0403 16:16:06.706545 20888 net.cpp:425] inception_3a/3x3 <- inception_3a/3x3_reduce
I0403 16:16:06.706565 20888 net.cpp:399] inception_3a/3x3 -> inception_3a/3x3
I0403 16:16:06.708201 20888 net.cpp:141] Setting up inception_3a/3x3
I0403 16:16:06.708230 20888 net.cpp:148] Top shape: 24 128 28 28 (2408448)
I0403 16:16:06.708247 20888 net.cpp:156] Memory required for data: 525042720
I0403 16:16:06.708266 20888 layer_factory.hpp:77] Creating layer inception_3a/relu_3x3
I0403 16:16:06.708284 20888 net.cpp:91] Creating Layer inception_3a/relu_3x3
I0403 16:16:06.708303 20888 net.cpp:425] inception_3a/relu_3x3 <- inception_3a/3x3
I0403 16:16:06.708322 20888 net.cpp:386] inception_3a/relu_3x3 -> inception_3a/3x3 (in-place)
I0403 16:16:06.708592 20888 net.cpp:141] Setting up inception_3a/relu_3x3
I0403 16:16:06.708618 20888 net.cpp:148] Top shape: 24 128 28 28 (2408448)
I0403 16:16:06.708633 20888 net.cpp:156] Memory required for data: 534676512
I0403 16:16:06.708648 20888 layer_factory.hpp:77] Creating layer inception_3a/5x5_reduce
I0403 16:16:06.708672 20888 net.cpp:91] Creating Layer inception_3a/5x5_reduce
I0403 16:16:06.708688 20888 net.cpp:425] inception_3a/5x5_reduce <- pool2/3x3_s2_pool2/3x3_s2_0_split_2
I0403 16:16:06.708710 20888 net.cpp:399] inception_3a/5x5_reduce -> inception_3a/5x5_reduce
I0403 16:16:06.709656 20888 net.cpp:141] Setting up inception_3a/5x5_reduce
I0403 16:16:06.709686 20888 net.cpp:148] Top shape: 24 16 28 28 (301056)
I0403 16:16:06.709702 20888 net.cpp:156] Memory required for data: 535880736
I0403 16:16:06.709720 20888 layer_factory.hpp:77] Creating layer inception_3a/relu_5x5_reduce
I0403 16:16:06.709739 20888 net.cpp:91] Creating Layer inception_3a/relu_5x5_reduce
I0403 16:16:06.709756 20888 net.cpp:425] inception_3a/relu_5x5_reduce <- inception_3a/5x5_reduce
I0403 16:16:06.709774 20888 net.cpp:386] inception_3a/relu_5x5_reduce -> inception_3a/5x5_reduce (in-place)
I0403 16:16:06.710067 20888 net.cpp:141] Setting up inception_3a/relu_5x5_reduce
I0403 16:16:06.710091 20888 net.cpp:148] Top shape: 24 16 28 28 (301056)
I0403 16:16:06.710106 20888 net.cpp:156] Memory required for data: 537084960
I0403 16:16:06.710121 20888 layer_factory.hpp:77] Creating layer inception_3a/5x5
I0403 16:16:06.710144 20888 net.cpp:91] Creating Layer inception_3a/5x5
I0403 16:16:06.710161 20888 net.cpp:425] inception_3a/5x5 <- inception_3a/5x5_reduce
I0403 16:16:06.710182 20888 net.cpp:399] inception_3a/5x5 -> inception_3a/5x5
I0403 16:16:06.711181 20888 net.cpp:141] Setting up inception_3a/5x5
I0403 16:16:06.711212 20888 net.cpp:148] Top shape: 24 32 28 28 (602112)
I0403 16:16:06.711230 20888 net.cpp:156] Memory required for data: 539493408
I0403 16:16:06.711249 20888 layer_factory.hpp:77] Creating layer inception_3a/relu_5x5
I0403 16:16:06.711271 20888 net.cpp:91] Creating Layer inception_3a/relu_5x5
I0403 16:16:06.711287 20888 net.cpp:425] inception_3a/relu_5x5 <- inception_3a/5x5
I0403 16:16:06.711307 20888 net.cpp:386] inception_3a/relu_5x5 -> inception_3a/5x5 (in-place)
I0403 16:16:06.711478 20888 net.cpp:141] Setting up inception_3a/relu_5x5
I0403 16:16:06.711505 20888 net.cpp:148] Top shape: 24 32 28 28 (602112)
I0403 16:16:06.711520 20888 net.cpp:156] Memory required for data: 541901856
I0403 16:16:06.711536 20888 layer_factory.hpp:77] Creating layer inception_3a/pool
I0403 16:16:06.711555 20888 net.cpp:91] Creating Layer inception_3a/pool
I0403 16:16:06.711586 20888 net.cpp:425] inception_3a/pool <- pool2/3x3_s2_pool2/3x3_s2_0_split_3
I0403 16:16:06.711607 20888 net.cpp:399] inception_3a/pool -> inception_3a/pool
I0403 16:16:06.711668 20888 net.cpp:141] Setting up inception_3a/pool
I0403 16:16:06.711691 20888 net.cpp:148] Top shape: 24 192 28 28 (3612672)
I0403 16:16:06.711706 20888 net.cpp:156] Memory required for data: 556352544
I0403 16:16:06.711720 20888 layer_factory.hpp:77] Creating layer inception_3a/pool_proj
I0403 16:16:06.711742 20888 net.cpp:91] Creating Layer inception_3a/pool_proj
I0403 16:16:06.711760 20888 net.cpp:425] inception_3a/pool_proj <- inception_3a/pool
I0403 16:16:06.711783 20888 net.cpp:399] inception_3a/pool_proj -> inception_3a/pool_proj
I0403 16:16:06.712733 20888 net.cpp:141] Setting up inception_3a/pool_proj
I0403 16:16:06.712762 20888 net.cpp:148] Top shape: 24 32 28 28 (602112)
I0403 16:16:06.712779 20888 net.cpp:156] Memory required for data: 558760992
I0403 16:16:06.712803 20888 layer_factory.hpp:77] Creating layer inception_3a/relu_pool_proj
I0403 16:16:06.712826 20888 net.cpp:91] Creating Layer inception_3a/relu_pool_proj
I0403 16:16:06.712844 20888 net.cpp:425] inception_3a/relu_pool_proj <- inception_3a/pool_proj
I0403 16:16:06.712862 20888 net.cpp:386] inception_3a/relu_pool_proj -> inception_3a/pool_proj (in-place)
I0403 16:16:06.713136 20888 net.cpp:141] Setting up inception_3a/relu_pool_proj
I0403 16:16:06.713163 20888 net.cpp:148] Top shape: 24 32 28 28 (602112)
I0403 16:16:06.713179 20888 net.cpp:156] Memory required for data: 561169440
I0403 16:16:06.713196 20888 layer_factory.hpp:77] Creating layer inception_3a/output
I0403 16:16:06.713213 20888 net.cpp:91] Creating Layer inception_3a/output
I0403 16:16:06.713229 20888 net.cpp:425] inception_3a/output <- inception_3a/1x1
I0403 16:16:06.713246 20888 net.cpp:425] inception_3a/output <- inception_3a/3x3
I0403 16:16:06.713263 20888 net.cpp:425] inception_3a/output <- inception_3a/5x5
I0403 16:16:06.713279 20888 net.cpp:425] inception_3a/output <- inception_3a/pool_proj
I0403 16:16:06.713297 20888 net.cpp:399] inception_3a/output -> inception_3a/output
I0403 16:16:06.713342 20888 net.cpp:141] Setting up inception_3a/output
I0403 16:16:06.713368 20888 net.cpp:148] Top shape: 24 256 28 28 (4816896)
I0403 16:16:06.713384 20888 net.cpp:156] Memory required for data: 580437024
I0403 16:16:06.713398 20888 layer_factory.hpp:77] Creating layer inception_3a/output_inception_3a/output_0_split
I0403 16:16:06.713415 20888 net.cpp:91] Creating Layer inception_3a/output_inception_3a/output_0_split
I0403 16:16:06.713430 20888 net.cpp:425] inception_3a/output_inception_3a/output_0_split <- inception_3a/output
I0403 16:16:06.713449 20888 net.cpp:399] inception_3a/output_inception_3a/output_0_split -> inception_3a/output_inception_3a/output_0_split_0
I0403 16:16:06.713471 20888 net.cpp:399] inception_3a/output_inception_3a/output_0_split -> inception_3a/output_inception_3a/output_0_split_1
I0403 16:16:06.713495 20888 net.cpp:399] inception_3a/output_inception_3a/output_0_split -> inception_3a/output_inception_3a/output_0_split_2
I0403 16:16:06.713515 20888 net.cpp:399] inception_3a/output_inception_3a/output_0_split -> inception_3a/output_inception_3a/output_0_split_3
I0403 16:16:06.713587 20888 net.cpp:141] Setting up inception_3a/output_inception_3a/output_0_split
I0403 16:16:06.713613 20888 net.cpp:148] Top shape: 24 256 28 28 (4816896)
I0403 16:16:06.713629 20888 net.cpp:148] Top shape: 24 256 28 28 (4816896)
I0403 16:16:06.713644 20888 net.cpp:148] Top shape: 24 256 28 28 (4816896)
I0403 16:16:06.713660 20888 net.cpp:148] Top shape: 24 256 28 28 (4816896)
I0403 16:16:06.713672 20888 net.cpp:156] Memory required for data: 657507360
I0403 16:16:06.713686 20888 layer_factory.hpp:77] Creating layer inception_3b/1x1
I0403 16:16:06.713708 20888 net.cpp:91] Creating Layer inception_3b/1x1
I0403 16:16:06.713726 20888 net.cpp:425] inception_3b/1x1 <- inception_3a/output_inception_3a/output_0_split_0
I0403 16:16:06.713747 20888 net.cpp:399] inception_3b/1x1 -> inception_3b/1x1
I0403 16:16:06.714859 20888 net.cpp:141] Setting up inception_3b/1x1
I0403 16:16:06.714902 20888 net.cpp:148] Top shape: 24 128 28 28 (2408448)
I0403 16:16:06.714920 20888 net.cpp:156] Memory required for data: 667141152
I0403 16:16:06.714938 20888 layer_factory.hpp:77] Creating layer inception_3b/relu_1x1
I0403 16:16:06.714957 20888 net.cpp:91] Creating Layer inception_3b/relu_1x1
I0403 16:16:06.714973 20888 net.cpp:425] inception_3b/relu_1x1 <- inception_3b/1x1
I0403 16:16:06.714990 20888 net.cpp:386] inception_3b/relu_1x1 -> inception_3b/1x1 (in-place)
I0403 16:16:06.715167 20888 net.cpp:141] Setting up inception_3b/relu_1x1
I0403 16:16:06.715193 20888 net.cpp:148] Top shape: 24 128 28 28 (2408448)
I0403 16:16:06.715207 20888 net.cpp:156] Memory required for data: 676774944
I0403 16:16:06.715222 20888 layer_factory.hpp:77] Creating layer inception_3b/3x3_reduce
I0403 16:16:06.715246 20888 net.cpp:91] Creating Layer inception_3b/3x3_reduce
I0403 16:16:06.715265 20888 net.cpp:425] inception_3b/3x3_reduce <- inception_3a/output_inception_3a/output_0_split_1
I0403 16:16:06.715284 20888 net.cpp:399] inception_3b/3x3_reduce -> inception_3b/3x3_reduce
I0403 16:16:06.716413 20888 net.cpp:141] Setting up inception_3b/3x3_reduce
I0403 16:16:06.716444 20888 net.cpp:148] Top shape: 24 128 28 28 (2408448)
I0403 16:16:06.716460 20888 net.cpp:156] Memory required for data: 686408736
I0403 16:16:06.716480 20888 layer_factory.hpp:77] Creating layer inception_3b/relu_3x3_reduce
I0403 16:16:06.716498 20888 net.cpp:91] Creating Layer inception_3b/relu_3x3_reduce
I0403 16:16:06.716516 20888 net.cpp:425] inception_3b/relu_3x3_reduce <- inception_3b/3x3_reduce
I0403 16:16:06.716536 20888 net.cpp:386] inception_3b/relu_3x3_reduce -> inception_3b/3x3_reduce (in-place)
I0403 16:16:06.716706 20888 net.cpp:141] Setting up inception_3b/relu_3x3_reduce
I0403 16:16:06.716732 20888 net.cpp:148] Top shape: 24 128 28 28 (2408448)
I0403 16:16:06.716747 20888 net.cpp:156] Memory required for data: 696042528
I0403 16:16:06.716763 20888 layer_factory.hpp:77] Creating layer inception_3b/3x3
I0403 16:16:06.716789 20888 net.cpp:91] Creating Layer inception_3b/3x3
I0403 16:16:06.716806 20888 net.cpp:425] inception_3b/3x3 <- inception_3b/3x3_reduce
I0403 16:16:06.716825 20888 net.cpp:399] inception_3b/3x3 -> inception_3b/3x3
I0403 16:16:06.719732 20888 net.cpp:141] Setting up inception_3b/3x3
I0403 16:16:06.719760 20888 net.cpp:148] Top shape: 24 192 28 28 (3612672)
I0403 16:16:06.719776 20888 net.cpp:156] Memory required for data: 710493216
I0403 16:16:06.719794 20888 layer_factory.hpp:77] Creating layer inception_3b/relu_3x3
I0403 16:16:06.719812 20888 net.cpp:91] Creating Layer inception_3b/relu_3x3
I0403 16:16:06.719831 20888 net.cpp:425] inception_3b/relu_3x3 <- inception_3b/3x3
I0403 16:16:06.719849 20888 net.cpp:386] inception_3b/relu_3x3 -> inception_3b/3x3 (in-place)
I0403 16:16:06.720125 20888 net.cpp:141] Setting up inception_3b/relu_3x3
I0403 16:16:06.720151 20888 net.cpp:148] Top shape: 24 192 28 28 (3612672)
I0403 16:16:06.720167 20888 net.cpp:156] Memory required for data: 724943904
I0403 16:16:06.720181 20888 layer_factory.hpp:77] Creating layer inception_3b/5x5_reduce
I0403 16:16:06.720206 20888 net.cpp:91] Creating Layer inception_3b/5x5_reduce
I0403 16:16:06.720224 20888 net.cpp:425] inception_3b/5x5_reduce <- inception_3a/output_inception_3a/output_0_split_2
I0403 16:16:06.720245 20888 net.cpp:399] inception_3b/5x5_reduce -> inception_3b/5x5_reduce
I0403 16:16:06.721216 20888 net.cpp:141] Setting up inception_3b/5x5_reduce
I0403 16:16:06.721246 20888 net.cpp:148] Top shape: 24 32 28 28 (602112)
I0403 16:16:06.721262 20888 net.cpp:156] Memory required for data: 727352352
I0403 16:16:06.721281 20888 layer_factory.hpp:77] Creating layer inception_3b/relu_5x5_reduce
I0403 16:16:06.721299 20888 net.cpp:91] Creating Layer inception_3b/relu_5x5_reduce
I0403 16:16:06.721318 20888 net.cpp:425] inception_3b/relu_5x5_reduce <- inception_3b/5x5_reduce
I0403 16:16:06.721341 20888 net.cpp:386] inception_3b/relu_5x5_reduce -> inception_3b/5x5_reduce (in-place)
I0403 16:16:06.721526 20888 net.cpp:141] Setting up inception_3b/relu_5x5_reduce
I0403 16:16:06.721551 20888 net.cpp:148] Top shape: 24 32 28 28 (602112)
I0403 16:16:06.721566 20888 net.cpp:156] Memory required for data: 729760800
I0403 16:16:06.721580 20888 layer_factory.hpp:77] Creating layer inception_3b/5x5
I0403 16:16:06.721601 20888 net.cpp:91] Creating Layer inception_3b/5x5
I0403 16:16:06.721619 20888 net.cpp:425] inception_3b/5x5 <- inception_3b/5x5_reduce
I0403 16:16:06.721640 20888 net.cpp:399] inception_3b/5x5 -> inception_3b/5x5
I0403 16:16:06.723584 20888 net.cpp:141] Setting up inception_3b/5x5
I0403 16:16:06.723616 20888 net.cpp:148] Top shape: 24 96 28 28 (1806336)
I0403 16:16:06.723634 20888 net.cpp:156] Memory required for data: 736986144
I0403 16:16:06.723654 20888 layer_factory.hpp:77] Creating layer inception_3b/relu_5x5
I0403 16:16:06.723672 20888 net.cpp:91] Creating Layer inception_3b/relu_5x5
I0403 16:16:06.723688 20888 net.cpp:425] inception_3b/relu_5x5 <- inception_3b/5x5
I0403 16:16:06.723708 20888 net.cpp:386] inception_3b/relu_5x5 -> inception_3b/5x5 (in-place)
I0403 16:16:06.723896 20888 net.cpp:141] Setting up inception_3b/relu_5x5
I0403 16:16:06.723922 20888 net.cpp:148] Top shape: 24 96 28 28 (1806336)
I0403 16:16:06.723937 20888 net.cpp:156] Memory required for data: 744211488
I0403 16:16:06.723953 20888 layer_factory.hpp:77] Creating layer inception_3b/pool
I0403 16:16:06.723971 20888 net.cpp:91] Creating Layer inception_3b/pool
I0403 16:16:06.723987 20888 net.cpp:425] inception_3b/pool <- inception_3a/output_inception_3a/output_0_split_3
I0403 16:16:06.724006 20888 net.cpp:399] inception_3b/pool -> inception_3b/pool
I0403 16:16:06.724066 20888 net.cpp:141] Setting up inception_3b/pool
I0403 16:16:06.724091 20888 net.cpp:148] Top shape: 24 256 28 28 (4816896)
I0403 16:16:06.724105 20888 net.cpp:156] Memory required for data: 763479072
I0403 16:16:06.724119 20888 layer_factory.hpp:77] Creating layer inception_3b/pool_proj
I0403 16:16:06.724143 20888 net.cpp:91] Creating Layer inception_3b/pool_proj
I0403 16:16:06.724161 20888 net.cpp:425] inception_3b/pool_proj <- inception_3b/pool
I0403 16:16:06.724180 20888 net.cpp:399] inception_3b/pool_proj -> inception_3b/pool_proj
I0403 16:16:06.725219 20888 net.cpp:141] Setting up inception_3b/pool_proj
I0403 16:16:06.725246 20888 net.cpp:148] Top shape: 24 64 28 28 (1204224)
I0403 16:16:06.725262 20888 net.cpp:156] Memory required for data: 768295968
I0403 16:16:06.725281 20888 layer_factory.hpp:77] Creating layer inception_3b/relu_pool_proj
I0403 16:16:06.725301 20888 net.cpp:91] Creating Layer inception_3b/relu_pool_proj
I0403 16:16:06.725320 20888 net.cpp:425] inception_3b/relu_pool_proj <- inception_3b/pool_proj
I0403 16:16:06.725338 20888 net.cpp:386] inception_3b/relu_pool_proj -> inception_3b/pool_proj (in-place)
I0403 16:16:06.725731 20888 net.cpp:141] Setting up inception_3b/relu_pool_proj
I0403 16:16:06.725757 20888 net.cpp:148] Top shape: 24 64 28 28 (1204224)
I0403 16:16:06.725772 20888 net.cpp:156] Memory required for data: 773112864
I0403 16:16:06.725787 20888 layer_factory.hpp:77] Creating layer inception_3b/output
I0403 16:16:06.725808 20888 net.cpp:91] Creating Layer inception_3b/output
I0403 16:16:06.725826 20888 net.cpp:425] inception_3b/output <- inception_3b/1x1
I0403 16:16:06.725843 20888 net.cpp:425] inception_3b/output <- inception_3b/3x3
I0403 16:16:06.725859 20888 net.cpp:425] inception_3b/output <- inception_3b/5x5
I0403 16:16:06.725874 20888 net.cpp:425] inception_3b/output <- inception_3b/pool_proj
I0403 16:16:06.725891 20888 net.cpp:399] inception_3b/output -> inception_3b/output
I0403 16:16:06.725934 20888 net.cpp:141] Setting up inception_3b/output
I0403 16:16:06.725958 20888 net.cpp:148] Top shape: 24 480 28 28 (9031680)
I0403 16:16:06.725975 20888 net.cpp:156] Memory required for data: 809239584
I0403 16:16:06.725989 20888 layer_factory.hpp:77] Creating layer pool3/3x3_s2
I0403 16:16:06.726006 20888 net.cpp:91] Creating Layer pool3/3x3_s2
I0403 16:16:06.726022 20888 net.cpp:425] pool3/3x3_s2 <- inception_3b/output
I0403 16:16:06.726061 20888 net.cpp:399] pool3/3x3_s2 -> pool3/3x3_s2
I0403 16:16:06.726121 20888 net.cpp:141] Setting up pool3/3x3_s2
I0403 16:16:06.726147 20888 net.cpp:148] Top shape: 24 480 14 14 (2257920)
I0403 16:16:06.726162 20888 net.cpp:156] Memory required for data: 818271264
I0403 16:16:06.726177 20888 layer_factory.hpp:77] Creating layer pool3/3x3_s2_pool3/3x3_s2_0_split
I0403 16:16:06.726196 20888 net.cpp:91] Creating Layer pool3/3x3_s2_pool3/3x3_s2_0_split
I0403 16:16:06.726210 20888 net.cpp:425] pool3/3x3_s2_pool3/3x3_s2_0_split <- pool3/3x3_s2
I0403 16:16:06.726227 20888 net.cpp:399] pool3/3x3_s2_pool3/3x3_s2_0_split -> pool3/3x3_s2_pool3/3x3_s2_0_split_0
I0403 16:16:06.726246 20888 net.cpp:399] pool3/3x3_s2_pool3/3x3_s2_0_split -> pool3/3x3_s2_pool3/3x3_s2_0_split_1
I0403 16:16:06.726269 20888 net.cpp:399] pool3/3x3_s2_pool3/3x3_s2_0_split -> pool3/3x3_s2_pool3/3x3_s2_0_split_2
I0403 16:16:06.726287 20888 net.cpp:399] pool3/3x3_s2_pool3/3x3_s2_0_split -> pool3/3x3_s2_pool3/3x3_s2_0_split_3
I0403 16:16:06.726363 20888 net.cpp:141] Setting up pool3/3x3_s2_pool3/3x3_s2_0_split
I0403 16:16:06.726387 20888 net.cpp:148] Top shape: 24 480 14 14 (2257920)
I0403 16:16:06.726402 20888 net.cpp:148] Top shape: 24 480 14 14 (2257920)
I0403 16:16:06.726418 20888 net.cpp:148] Top shape: 24 480 14 14 (2257920)
I0403 16:16:06.726433 20888 net.cpp:148] Top shape: 24 480 14 14 (2257920)
I0403 16:16:06.726447 20888 net.cpp:156] Memory required for data: 854397984
I0403 16:16:06.726461 20888 layer_factory.hpp:77] Creating layer inception_4a/1x1
I0403 16:16:06.726487 20888 net.cpp:91] Creating Layer inception_4a/1x1
I0403 16:16:06.726505 20888 net.cpp:425] inception_4a/1x1 <- pool3/3x3_s2_pool3/3x3_s2_0_split_0
I0403 16:16:06.726527 20888 net.cpp:399] inception_4a/1x1 -> inception_4a/1x1
I0403 16:16:06.728085 20888 net.cpp:141] Setting up inception_4a/1x1
I0403 16:16:06.728113 20888 net.cpp:148] Top shape: 24 192 14 14 (903168)
I0403 16:16:06.728129 20888 net.cpp:156] Memory required for data: 858010656
I0403 16:16:06.728147 20888 layer_factory.hpp:77] Creating layer inception_4a/relu_1x1
I0403 16:16:06.728168 20888 net.cpp:91] Creating Layer inception_4a/relu_1x1
I0403 16:16:06.728185 20888 net.cpp:425] inception_4a/relu_1x1 <- inception_4a/1x1
I0403 16:16:06.728204 20888 net.cpp:386] inception_4a/relu_1x1 -> inception_4a/1x1 (in-place)
I0403 16:16:06.728375 20888 net.cpp:141] Setting up inception_4a/relu_1x1
I0403 16:16:06.728404 20888 net.cpp:148] Top shape: 24 192 14 14 (903168)
I0403 16:16:06.728420 20888 net.cpp:156] Memory required for data: 861623328
I0403 16:16:06.728435 20888 layer_factory.hpp:77] Creating layer inception_4a/3x3_reduce
I0403 16:16:06.728457 20888 net.cpp:91] Creating Layer inception_4a/3x3_reduce
I0403 16:16:06.728476 20888 net.cpp:425] inception_4a/3x3_reduce <- pool3/3x3_s2_pool3/3x3_s2_0_split_1
I0403 16:16:06.728497 20888 net.cpp:399] inception_4a/3x3_reduce -> inception_4a/3x3_reduce
I0403 16:16:06.729746 20888 net.cpp:141] Setting up inception_4a/3x3_reduce
I0403 16:16:06.729775 20888 net.cpp:148] Top shape: 24 96 14 14 (451584)
I0403 16:16:06.729792 20888 net.cpp:156] Memory required for data: 863429664
I0403 16:16:06.729818 20888 layer_factory.hpp:77] Creating layer inception_4a/relu_3x3_reduce
I0403 16:16:06.729840 20888 net.cpp:91] Creating Layer inception_4a/relu_3x3_reduce
I0403 16:16:06.729857 20888 net.cpp:425] inception_4a/relu_3x3_reduce <- inception_4a/3x3_reduce
I0403 16:16:06.729876 20888 net.cpp:386] inception_4a/relu_3x3_reduce -> inception_4a/3x3_reduce (in-place)
I0403 16:16:06.730054 20888 net.cpp:141] Setting up inception_4a/relu_3x3_reduce
I0403 16:16:06.730083 20888 net.cpp:148] Top shape: 24 96 14 14 (451584)
I0403 16:16:06.730100 20888 net.cpp:156] Memory required for data: 865236000
I0403 16:16:06.730116 20888 layer_factory.hpp:77] Creating layer inception_4a/3x3
I0403 16:16:06.730140 20888 net.cpp:91] Creating Layer inception_4a/3x3
I0403 16:16:06.730157 20888 net.cpp:425] inception_4a/3x3 <- inception_4a/3x3_reduce
I0403 16:16:06.730177 20888 net.cpp:399] inception_4a/3x3 -> inception_4a/3x3
I0403 16:16:06.732823 20888 net.cpp:141] Setting up inception_4a/3x3
I0403 16:16:06.732854 20888 net.cpp:148] Top shape: 24 208 14 14 (978432)
I0403 16:16:06.732872 20888 net.cpp:156] Memory required for data: 869149728
I0403 16:16:06.732892 20888 layer_factory.hpp:77] Creating layer inception_4a/relu_3x3
I0403 16:16:06.732911 20888 net.cpp:91] Creating Layer inception_4a/relu_3x3
I0403 16:16:06.732928 20888 net.cpp:425] inception_4a/relu_3x3 <- inception_4a/3x3
I0403 16:16:06.732949 20888 net.cpp:386] inception_4a/relu_3x3 -> inception_4a/3x3 (in-place)
I0403 16:16:06.733230 20888 net.cpp:141] Setting up inception_4a/relu_3x3
I0403 16:16:06.733260 20888 net.cpp:148] Top shape: 24 208 14 14 (978432)
I0403 16:16:06.733278 20888 net.cpp:156] Memory required for data: 873063456
I0403 16:16:06.733294 20888 layer_factory.hpp:77] Creating layer inception_4a/5x5_reduce
I0403 16:16:06.733317 20888 net.cpp:91] Creating Layer inception_4a/5x5_reduce
I0403 16:16:06.733335 20888 net.cpp:425] inception_4a/5x5_reduce <- pool3/3x3_s2_pool3/3x3_s2_0_split_2
I0403 16:16:06.733355 20888 net.cpp:399] inception_4a/5x5_reduce -> inception_4a/5x5_reduce
I0403 16:16:06.734356 20888 net.cpp:141] Setting up inception_4a/5x5_reduce
I0403 16:16:06.734387 20888 net.cpp:148] Top shape: 24 16 14 14 (75264)
I0403 16:16:06.734405 20888 net.cpp:156] Memory required for data: 873364512
I0403 16:16:06.734424 20888 layer_factory.hpp:77] Creating layer inception_4a/relu_5x5_reduce
I0403 16:16:06.734442 20888 net.cpp:91] Creating Layer inception_4a/relu_5x5_reduce
I0403 16:16:06.734460 20888 net.cpp:425] inception_4a/relu_5x5_reduce <- inception_4a/5x5_reduce
I0403 16:16:06.734480 20888 net.cpp:386] inception_4a/relu_5x5_reduce -> inception_4a/5x5_reduce (in-place)
I0403 16:16:06.734653 20888 net.cpp:141] Setting up inception_4a/relu_5x5_reduce
I0403 16:16:06.734679 20888 net.cpp:148] Top shape: 24 16 14 14 (75264)
I0403 16:16:06.734694 20888 net.cpp:156] Memory required for data: 873665568
I0403 16:16:06.734709 20888 layer_factory.hpp:77] Creating layer inception_4a/5x5
I0403 16:16:06.734730 20888 net.cpp:91] Creating Layer inception_4a/5x5
I0403 16:16:06.734748 20888 net.cpp:425] inception_4a/5x5 <- inception_4a/5x5_reduce
I0403 16:16:06.734769 20888 net.cpp:399] inception_4a/5x5 -> inception_4a/5x5
I0403 16:16:06.735842 20888 net.cpp:141] Setting up inception_4a/5x5
I0403 16:16:06.735877 20888 net.cpp:148] Top shape: 24 48 14 14 (225792)
I0403 16:16:06.735901 20888 net.cpp:156] Memory required for data: 874568736
I0403 16:16:06.735927 20888 layer_factory.hpp:77] Creating layer inception_4a/relu_5x5
I0403 16:16:06.735955 20888 net.cpp:91] Creating Layer inception_4a/relu_5x5
I0403 16:16:06.735981 20888 net.cpp:425] inception_4a/relu_5x5 <- inception_4a/5x5
I0403 16:16:06.736006 20888 net.cpp:386] inception_4a/relu_5x5 -> inception_4a/5x5 (in-place)
I0403 16:16:06.736194 20888 net.cpp:141] Setting up inception_4a/relu_5x5
I0403 16:16:06.736219 20888 net.cpp:148] Top shape: 24 48 14 14 (225792)
I0403 16:16:06.736234 20888 net.cpp:156] Memory required for data: 875471904
I0403 16:16:06.736248 20888 layer_factory.hpp:77] Creating layer inception_4a/pool
I0403 16:16:06.736268 20888 net.cpp:91] Creating Layer inception_4a/pool
I0403 16:16:06.736285 20888 net.cpp:425] inception_4a/pool <- pool3/3x3_s2_pool3/3x3_s2_0_split_3
I0403 16:16:06.736304 20888 net.cpp:399] inception_4a/pool -> inception_4a/pool
I0403 16:16:06.736366 20888 net.cpp:141] Setting up inception_4a/pool
I0403 16:16:06.736390 20888 net.cpp:148] Top shape: 24 480 14 14 (2257920)
I0403 16:16:06.736404 20888 net.cpp:156] Memory required for data: 884503584
I0403 16:16:06.736418 20888 layer_factory.hpp:77] Creating layer inception_4a/pool_proj
I0403 16:16:06.736441 20888 net.cpp:91] Creating Layer inception_4a/pool_proj
I0403 16:16:06.736459 20888 net.cpp:425] inception_4a/pool_proj <- inception_4a/pool
I0403 16:16:06.736479 20888 net.cpp:399] inception_4a/pool_proj -> inception_4a/pool_proj
I0403 16:16:06.737628 20888 net.cpp:141] Setting up inception_4a/pool_proj
I0403 16:16:06.737658 20888 net.cpp:148] Top shape: 24 64 14 14 (301056)
I0403 16:16:06.737691 20888 net.cpp:156] Memory required for data: 885707808
I0403 16:16:06.737712 20888 layer_factory.hpp:77] Creating layer inception_4a/relu_pool_proj
I0403 16:16:06.737736 20888 net.cpp:91] Creating Layer inception_4a/relu_pool_proj
I0403 16:16:06.737754 20888 net.cpp:425] inception_4a/relu_pool_proj <- inception_4a/pool_proj
I0403 16:16:06.737771 20888 net.cpp:386] inception_4a/relu_pool_proj -> inception_4a/pool_proj (in-place)
I0403 16:16:06.738059 20888 net.cpp:141] Setting up inception_4a/relu_pool_proj
I0403 16:16:06.738085 20888 net.cpp:148] Top shape: 24 64 14 14 (301056)
I0403 16:16:06.738101 20888 net.cpp:156] Memory required for data: 886912032
I0403 16:16:06.738114 20888 layer_factory.hpp:77] Creating layer inception_4a/output
I0403 16:16:06.738134 20888 net.cpp:91] Creating Layer inception_4a/output
I0403 16:16:06.738150 20888 net.cpp:425] inception_4a/output <- inception_4a/1x1
I0403 16:16:06.738168 20888 net.cpp:425] inception_4a/output <- inception_4a/3x3
I0403 16:16:06.738183 20888 net.cpp:425] inception_4a/output <- inception_4a/5x5
I0403 16:16:06.738199 20888 net.cpp:425] inception_4a/output <- inception_4a/pool_proj
I0403 16:16:06.738216 20888 net.cpp:399] inception_4a/output -> inception_4a/output
I0403 16:16:06.738262 20888 net.cpp:141] Setting up inception_4a/output
I0403 16:16:06.738286 20888 net.cpp:148] Top shape: 24 512 14 14 (2408448)
I0403 16:16:06.738301 20888 net.cpp:156] Memory required for data: 896545824
I0403 16:16:06.738315 20888 layer_factory.hpp:77] Creating layer inception_4a/output_inception_4a/output_0_split
I0403 16:16:06.738333 20888 net.cpp:91] Creating Layer inception_4a/output_inception_4a/output_0_split
I0403 16:16:06.738348 20888 net.cpp:425] inception_4a/output_inception_4a/output_0_split <- inception_4a/output
I0403 16:16:06.738368 20888 net.cpp:399] inception_4a/output_inception_4a/output_0_split -> inception_4a/output_inception_4a/output_0_split_0
I0403 16:16:06.738389 20888 net.cpp:399] inception_4a/output_inception_4a/output_0_split -> inception_4a/output_inception_4a/output_0_split_1
I0403 16:16:06.738409 20888 net.cpp:399] inception_4a/output_inception_4a/output_0_split -> inception_4a/output_inception_4a/output_0_split_2
I0403 16:16:06.738428 20888 net.cpp:399] inception_4a/output_inception_4a/output_0_split -> inception_4a/output_inception_4a/output_0_split_3
I0403 16:16:06.738448 20888 net.cpp:399] inception_4a/output_inception_4a/output_0_split -> inception_4a/output_inception_4a/output_0_split_4
I0403 16:16:06.738540 20888 net.cpp:141] Setting up inception_4a/output_inception_4a/output_0_split
I0403 16:16:06.738564 20888 net.cpp:148] Top shape: 24 512 14 14 (2408448)
I0403 16:16:06.738580 20888 net.cpp:148] Top shape: 24 512 14 14 (2408448)
I0403 16:16:06.738595 20888 net.cpp:148] Top shape: 24 512 14 14 (2408448)
I0403 16:16:06.738611 20888 net.cpp:148] Top shape: 24 512 14 14 (2408448)
I0403 16:16:06.738626 20888 net.cpp:148] Top shape: 24 512 14 14 (2408448)
I0403 16:16:06.738641 20888 net.cpp:156] Memory required for data: 944714784
I0403 16:16:06.738654 20888 layer_factory.hpp:77] Creating layer loss1/ave_pool
I0403 16:16:06.738672 20888 net.cpp:91] Creating Layer loss1/ave_pool
I0403 16:16:06.738687 20888 net.cpp:425] loss1/ave_pool <- inception_4a/output_inception_4a/output_0_split_0
I0403 16:16:06.738708 20888 net.cpp:399] loss1/ave_pool -> loss1/ave_pool
I0403 16:16:06.738915 20888 net.cpp:141] Setting up loss1/ave_pool
I0403 16:16:06.738941 20888 net.cpp:148] Top shape: 24 512 4 4 (196608)
I0403 16:16:06.738957 20888 net.cpp:156] Memory required for data: 945501216
I0403 16:16:06.738972 20888 layer_factory.hpp:77] Creating layer loss1/conv
I0403 16:16:06.738994 20888 net.cpp:91] Creating Layer loss1/conv
I0403 16:16:06.739012 20888 net.cpp:425] loss1/conv <- loss1/ave_pool
I0403 16:16:06.739033 20888 net.cpp:399] loss1/conv -> loss1/conv
I0403 16:16:06.740440 20888 net.cpp:141] Setting up loss1/conv
I0403 16:16:06.740471 20888 net.cpp:148] Top shape: 24 128 4 4 (49152)
I0403 16:16:06.740502 20888 net.cpp:156] Memory required for data: 945697824
I0403 16:16:06.740523 20888 layer_factory.hpp:77] Creating layer loss1/relu_conv
I0403 16:16:06.740542 20888 net.cpp:91] Creating Layer loss1/relu_conv
I0403 16:16:06.740561 20888 net.cpp:425] loss1/relu_conv <- loss1/conv
I0403 16:16:06.740582 20888 net.cpp:386] loss1/relu_conv -> loss1/conv (in-place)
I0403 16:16:06.740861 20888 net.cpp:141] Setting up loss1/relu_conv
I0403 16:16:06.740890 20888 net.cpp:148] Top shape: 24 128 4 4 (49152)
I0403 16:16:06.740908 20888 net.cpp:156] Memory required for data: 945894432
I0403 16:16:06.740924 20888 layer_factory.hpp:77] Creating layer loss1/fc
I0403 16:16:06.740949 20888 net.cpp:91] Creating Layer loss1/fc
I0403 16:16:06.740969 20888 net.cpp:425] loss1/fc <- loss1/conv
I0403 16:16:06.740993 20888 net.cpp:399] loss1/fc -> loss1/fc
I0403 16:16:06.758190 20888 net.cpp:141] Setting up loss1/fc
I0403 16:16:06.758224 20888 net.cpp:148] Top shape: 24 1024 (24576)
I0403 16:16:06.758239 20888 net.cpp:156] Memory required for data: 945992736
I0403 16:16:06.758258 20888 layer_factory.hpp:77] Creating layer loss1/relu_fc
I0403 16:16:06.758278 20888 net.cpp:91] Creating Layer loss1/relu_fc
I0403 16:16:06.758296 20888 net.cpp:425] loss1/relu_fc <- loss1/fc
I0403 16:16:06.758313 20888 net.cpp:386] loss1/relu_fc -> loss1/fc (in-place)
I0403 16:16:06.758491 20888 net.cpp:141] Setting up loss1/relu_fc
I0403 16:16:06.758514 20888 net.cpp:148] Top shape: 24 1024 (24576)
I0403 16:16:06.758528 20888 net.cpp:156] Memory required for data: 946091040
I0403 16:16:06.758543 20888 layer_factory.hpp:77] Creating layer loss1/drop_fc
I0403 16:16:06.758569 20888 net.cpp:91] Creating Layer loss1/drop_fc
I0403 16:16:06.758586 20888 net.cpp:425] loss1/drop_fc <- loss1/fc
I0403 16:16:06.758605 20888 net.cpp:386] loss1/drop_fc -> loss1/fc (in-place)
I0403 16:16:06.758656 20888 net.cpp:141] Setting up loss1/drop_fc
I0403 16:16:06.758678 20888 net.cpp:148] Top shape: 24 1024 (24576)
I0403 16:16:06.758692 20888 net.cpp:156] Memory required for data: 946189344
I0403 16:16:06.758708 20888 layer_factory.hpp:77] Creating layer loss1/classifier_plantvillage
I0403 16:16:06.758728 20888 net.cpp:91] Creating Layer loss1/classifier_plantvillage
I0403 16:16:06.758745 20888 net.cpp:425] loss1/classifier_plantvillage <- loss1/fc
I0403 16:16:06.758764 20888 net.cpp:399] loss1/classifier_plantvillage -> loss1/classifier_plantvillage
I0403 16:16:06.759634 20888 net.cpp:141] Setting up loss1/classifier_plantvillage
I0403 16:16:06.759660 20888 net.cpp:148] Top shape: 24 38 (912)
I0403 16:16:06.759675 20888 net.cpp:156] Memory required for data: 946192992
I0403 16:16:06.759692 20888 layer_factory.hpp:77] Creating layer loss1/classifier_plantvillage_loss1/classifier_plantvillage_0_split
I0403 16:16:06.759713 20888 net.cpp:91] Creating Layer loss1/classifier_plantvillage_loss1/classifier_plantvillage_0_split
I0403 16:16:06.759729 20888 net.cpp:425] loss1/classifier_plantvillage_loss1/classifier_plantvillage_0_split <- loss1/classifier_plantvillage
I0403 16:16:06.759747 20888 net.cpp:399] loss1/classifier_plantvillage_loss1/classifier_plantvillage_0_split -> loss1/classifier_plantvillage_loss1/classifier_plantvillage_0_split_0
I0403 16:16:06.759768 20888 net.cpp:399] loss1/classifier_plantvillage_loss1/classifier_plantvillage_0_split -> loss1/classifier_plantvillage_loss1/classifier_plantvillage_0_split_1
I0403 16:16:06.759789 20888 net.cpp:399] loss1/classifier_plantvillage_loss1/classifier_plantvillage_0_split -> loss1/classifier_plantvillage_loss1/classifier_plantvillage_0_split_2
I0403 16:16:06.759853 20888 net.cpp:141] Setting up loss1/classifier_plantvillage_loss1/classifier_plantvillage_0_split
I0403 16:16:06.759876 20888 net.cpp:148] Top shape: 24 38 (912)
I0403 16:16:06.759892 20888 net.cpp:148] Top shape: 24 38 (912)
I0403 16:16:06.759907 20888 net.cpp:148] Top shape: 24 38 (912)
I0403 16:16:06.759920 20888 net.cpp:156] Memory required for data: 946203936
I0403 16:16:06.759934 20888 layer_factory.hpp:77] Creating layer inception_4b/1x1
I0403 16:16:06.759955 20888 net.cpp:91] Creating Layer inception_4b/1x1
I0403 16:16:06.759989 20888 net.cpp:425] inception_4b/1x1 <- inception_4a/output_inception_4a/output_0_split_1
I0403 16:16:06.760009 20888 net.cpp:399] inception_4b/1x1 -> inception_4b/1x1
I0403 16:16:06.761634 20888 net.cpp:141] Setting up inception_4b/1x1
I0403 16:16:06.761665 20888 net.cpp:148] Top shape: 24 160 14 14 (752640)
I0403 16:16:06.761682 20888 net.cpp:156] Memory required for data: 949214496
I0403 16:16:06.761700 20888 layer_factory.hpp:77] Creating layer inception_4b/relu_1x1
I0403 16:16:06.761718 20888 net.cpp:91] Creating Layer inception_4b/relu_1x1
I0403 16:16:06.761734 20888 net.cpp:425] inception_4b/relu_1x1 <- inception_4b/1x1
I0403 16:16:06.761752 20888 net.cpp:386] inception_4b/relu_1x1 -> inception_4b/1x1 (in-place)
I0403 16:16:06.761924 20888 net.cpp:141] Setting up inception_4b/relu_1x1
I0403 16:16:06.761947 20888 net.cpp:148] Top shape: 24 160 14 14 (752640)
I0403 16:16:06.761962 20888 net.cpp:156] Memory required for data: 952225056
I0403 16:16:06.761977 20888 layer_factory.hpp:77] Creating layer inception_4b/3x3_reduce
I0403 16:16:06.762001 20888 net.cpp:91] Creating Layer inception_4b/3x3_reduce
I0403 16:16:06.762018 20888 net.cpp:425] inception_4b/3x3_reduce <- inception_4a/output_inception_4a/output_0_split_2
I0403 16:16:06.762038 20888 net.cpp:399] inception_4b/3x3_reduce -> inception_4b/3x3_reduce
I0403 16:16:06.763350 20888 net.cpp:141] Setting up inception_4b/3x3_reduce
I0403 16:16:06.763376 20888 net.cpp:148] Top shape: 24 112 14 14 (526848)
I0403 16:16:06.763392 20888 net.cpp:156] Memory required for data: 954332448
I0403 16:16:06.763411 20888 layer_factory.hpp:77] Creating layer inception_4b/relu_3x3_reduce
I0403 16:16:06.763430 20888 net.cpp:91] Creating Layer inception_4b/relu_3x3_reduce
I0403 16:16:06.763448 20888 net.cpp:425] inception_4b/relu_3x3_reduce <- inception_4b/3x3_reduce
I0403 16:16:06.763465 20888 net.cpp:386] inception_4b/relu_3x3_reduce -> inception_4b/3x3_reduce (in-place)
I0403 16:16:06.763741 20888 net.cpp:141] Setting up inception_4b/relu_3x3_reduce
I0403 16:16:06.763768 20888 net.cpp:148] Top shape: 24 112 14 14 (526848)
I0403 16:16:06.763783 20888 net.cpp:156] Memory required for data: 956439840
I0403 16:16:06.763797 20888 layer_factory.hpp:77] Creating layer inception_4b/3x3
I0403 16:16:06.763820 20888 net.cpp:91] Creating Layer inception_4b/3x3
I0403 16:16:06.763838 20888 net.cpp:425] inception_4b/3x3 <- inception_4b/3x3_reduce
I0403 16:16:06.763859 20888 net.cpp:399] inception_4b/3x3 -> inception_4b/3x3
I0403 16:16:06.766726 20888 net.cpp:141] Setting up inception_4b/3x3
I0403 16:16:06.766757 20888 net.cpp:148] Top shape: 24 224 14 14 (1053696)
I0403 16:16:06.766772 20888 net.cpp:156] Memory required for data: 960654624
I0403 16:16:06.766790 20888 layer_factory.hpp:77] Creating layer inception_4b/relu_3x3
I0403 16:16:06.766810 20888 net.cpp:91] Creating Layer inception_4b/relu_3x3
I0403 16:16:06.766827 20888 net.cpp:425] inception_4b/relu_3x3 <- inception_4b/3x3
I0403 16:16:06.766844 20888 net.cpp:386] inception_4b/relu_3x3 -> inception_4b/3x3 (in-place)
I0403 16:16:06.767019 20888 net.cpp:141] Setting up inception_4b/relu_3x3
I0403 16:16:06.767045 20888 net.cpp:148] Top shape: 24 224 14 14 (1053696)
I0403 16:16:06.767065 20888 net.cpp:156] Memory required for data: 964869408
I0403 16:16:06.767078 20888 layer_factory.hpp:77] Creating layer inception_4b/5x5_reduce
I0403 16:16:06.767101 20888 net.cpp:91] Creating Layer inception_4b/5x5_reduce
I0403 16:16:06.767118 20888 net.cpp:425] inception_4b/5x5_reduce <- inception_4a/output_inception_4a/output_0_split_3
I0403 16:16:06.767140 20888 net.cpp:399] inception_4b/5x5_reduce -> inception_4b/5x5_reduce
I0403 16:16:06.768200 20888 net.cpp:141] Setting up inception_4b/5x5_reduce
I0403 16:16:06.768229 20888 net.cpp:148] Top shape: 24 24 14 14 (112896)
I0403 16:16:06.768245 20888 net.cpp:156] Memory required for data: 965320992
I0403 16:16:06.768265 20888 layer_factory.hpp:77] Creating layer inception_4b/relu_5x5_reduce
I0403 16:16:06.768282 20888 net.cpp:91] Creating Layer inception_4b/relu_5x5_reduce
I0403 16:16:06.768311 20888 net.cpp:425] inception_4b/relu_5x5_reduce <- inception_4b/5x5_reduce
I0403 16:16:06.768332 20888 net.cpp:386] inception_4b/relu_5x5_reduce -> inception_4b/5x5_reduce (in-place)
I0403 16:16:06.768508 20888 net.cpp:141] Setting up inception_4b/relu_5x5_reduce
I0403 16:16:06.768533 20888 net.cpp:148] Top shape: 24 24 14 14 (112896)
I0403 16:16:06.768548 20888 net.cpp:156] Memory required for data: 965772576
I0403 16:16:06.768561 20888 layer_factory.hpp:77] Creating layer inception_4b/5x5
I0403 16:16:06.768584 20888 net.cpp:91] Creating Layer inception_4b/5x5
I0403 16:16:06.768600 20888 net.cpp:425] inception_4b/5x5 <- inception_4b/5x5_reduce
I0403 16:16:06.768620 20888 net.cpp:399] inception_4b/5x5 -> inception_4b/5x5
I0403 16:16:06.769804 20888 net.cpp:141] Setting up inception_4b/5x5
I0403 16:16:06.769834 20888 net.cpp:148] Top shape: 24 64 14 14 (301056)
I0403 16:16:06.769850 20888 net.cpp:156] Memory required for data: 966976800
I0403 16:16:06.769868 20888 layer_factory.hpp:77] Creating layer inception_4b/relu_5x5
I0403 16:16:06.769887 20888 net.cpp:91] Creating Layer inception_4b/relu_5x5
I0403 16:16:06.769903 20888 net.cpp:425] inception_4b/relu_5x5 <- inception_4b/5x5
I0403 16:16:06.769923 20888 net.cpp:386] inception_4b/relu_5x5 -> inception_4b/5x5 (in-place)
I0403 16:16:06.770201 20888 net.cpp:141] Setting up inception_4b/relu_5x5
I0403 16:16:06.770231 20888 net.cpp:148] Top shape: 24 64 14 14 (301056)
I0403 16:16:06.770246 20888 net.cpp:156] Memory required for data: 968181024
I0403 16:16:06.770262 20888 layer_factory.hpp:77] Creating layer inception_4b/pool
I0403 16:16:06.770280 20888 net.cpp:91] Creating Layer inception_4b/pool
I0403 16:16:06.770298 20888 net.cpp:425] inception_4b/pool <- inception_4a/output_inception_4a/output_0_split_4
I0403 16:16:06.770318 20888 net.cpp:399] inception_4b/pool -> inception_4b/pool
I0403 16:16:06.770382 20888 net.cpp:141] Setting up inception_4b/pool
I0403 16:16:06.770409 20888 net.cpp:148] Top shape: 24 512 14 14 (2408448)
I0403 16:16:06.770426 20888 net.cpp:156] Memory required for data: 977814816
I0403 16:16:06.770439 20888 layer_factory.hpp:77] Creating layer inception_4b/pool_proj
I0403 16:16:06.770459 20888 net.cpp:91] Creating Layer inception_4b/pool_proj
I0403 16:16:06.770475 20888 net.cpp:425] inception_4b/pool_proj <- inception_4b/pool
I0403 16:16:06.770495 20888 net.cpp:399] inception_4b/pool_proj -> inception_4b/pool_proj
I0403 16:16:06.771656 20888 net.cpp:141] Setting up inception_4b/pool_proj
I0403 16:16:06.771683 20888 net.cpp:148] Top shape: 24 64 14 14 (301056)
I0403 16:16:06.771698 20888 net.cpp:156] Memory required for data: 979019040
I0403 16:16:06.771716 20888 layer_factory.hpp:77] Creating layer inception_4b/relu_pool_proj
I0403 16:16:06.771733 20888 net.cpp:91] Creating Layer inception_4b/relu_pool_proj
I0403 16:16:06.771752 20888 net.cpp:425] inception_4b/relu_pool_proj <- inception_4b/pool_proj
I0403 16:16:06.771770 20888 net.cpp:386] inception_4b/relu_pool_proj -> inception_4b/pool_proj (in-place)
I0403 16:16:06.771941 20888 net.cpp:141] Setting up inception_4b/relu_pool_proj
I0403 16:16:06.771966 20888 net.cpp:148] Top shape: 24 64 14 14 (301056)
I0403 16:16:06.771981 20888 net.cpp:156] Memory required for data: 980223264
I0403 16:16:06.771996 20888 layer_factory.hpp:77] Creating layer inception_4b/output
I0403 16:16:06.772012 20888 net.cpp:91] Creating Layer inception_4b/output
I0403 16:16:06.772027 20888 net.cpp:425] inception_4b/output <- inception_4b/1x1
I0403 16:16:06.772044 20888 net.cpp:425] inception_4b/output <- inception_4b/3x3
I0403 16:16:06.772068 20888 net.cpp:425] inception_4b/output <- inception_4b/5x5
I0403 16:16:06.772083 20888 net.cpp:425] inception_4b/output <- inception_4b/pool_proj
I0403 16:16:06.772099 20888 net.cpp:399] inception_4b/output -> inception_4b/output
I0403 16:16:06.772145 20888 net.cpp:141] Setting up inception_4b/output
I0403 16:16:06.772167 20888 net.cpp:148] Top shape: 24 512 14 14 (2408448)
I0403 16:16:06.772181 20888 net.cpp:156] Memory required for data: 989857056
I0403 16:16:06.772208 20888 layer_factory.hpp:77] Creating layer inception_4b/output_inception_4b/output_0_split
I0403 16:16:06.772227 20888 net.cpp:91] Creating Layer inception_4b/output_inception_4b/output_0_split
I0403 16:16:06.772241 20888 net.cpp:425] inception_4b/output_inception_4b/output_0_split <- inception_4b/output
I0403 16:16:06.772261 20888 net.cpp:399] inception_4b/output_inception_4b/output_0_split -> inception_4b/output_inception_4b/output_0_split_0
I0403 16:16:06.772282 20888 net.cpp:399] inception_4b/output_inception_4b/output_0_split -> inception_4b/output_inception_4b/output_0_split_1
I0403 16:16:06.772301 20888 net.cpp:399] inception_4b/output_inception_4b/output_0_split -> inception_4b/output_inception_4b/output_0_split_2
I0403 16:16:06.772320 20888 net.cpp:399] inception_4b/output_inception_4b/output_0_split -> inception_4b/output_inception_4b/output_0_split_3
I0403 16:16:06.772402 20888 net.cpp:141] Setting up inception_4b/output_inception_4b/output_0_split
I0403 16:16:06.772425 20888 net.cpp:148] Top shape: 24 512 14 14 (2408448)
I0403 16:16:06.772442 20888 net.cpp:148] Top shape: 24 512 14 14 (2408448)
I0403 16:16:06.772457 20888 net.cpp:148] Top shape: 24 512 14 14 (2408448)
I0403 16:16:06.772472 20888 net.cpp:148] Top shape: 24 512 14 14 (2408448)
I0403 16:16:06.772485 20888 net.cpp:156] Memory required for data: 1028392224
I0403 16:16:06.772500 20888 layer_factory.hpp:77] Creating layer inception_4c/1x1
I0403 16:16:06.772521 20888 net.cpp:91] Creating Layer inception_4c/1x1
I0403 16:16:06.772537 20888 net.cpp:425] inception_4c/1x1 <- inception_4b/output_inception_4b/output_0_split_0
I0403 16:16:06.772557 20888 net.cpp:399] inception_4c/1x1 -> inception_4c/1x1
I0403 16:16:06.773936 20888 net.cpp:141] Setting up inception_4c/1x1
I0403 16:16:06.773964 20888 net.cpp:148] Top shape: 24 128 14 14 (602112)
I0403 16:16:06.773980 20888 net.cpp:156] Memory required for data: 1030800672
I0403 16:16:06.773998 20888 layer_factory.hpp:77] Creating layer inception_4c/relu_1x1
I0403 16:16:06.774019 20888 net.cpp:91] Creating Layer inception_4c/relu_1x1
I0403 16:16:06.774039 20888 net.cpp:425] inception_4c/relu_1x1 <- inception_4c/1x1
I0403 16:16:06.774061 20888 net.cpp:386] inception_4c/relu_1x1 -> inception_4c/1x1 (in-place)
I0403 16:16:06.774237 20888 net.cpp:141] Setting up inception_4c/relu_1x1
I0403 16:16:06.774265 20888 net.cpp:148] Top shape: 24 128 14 14 (602112)
I0403 16:16:06.774279 20888 net.cpp:156] Memory required for data: 1033209120
I0403 16:16:06.774294 20888 layer_factory.hpp:77] Creating layer inception_4c/3x3_reduce
I0403 16:16:06.774317 20888 net.cpp:91] Creating Layer inception_4c/3x3_reduce
I0403 16:16:06.774333 20888 net.cpp:425] inception_4c/3x3_reduce <- inception_4b/output_inception_4b/output_0_split_1
I0403 16:16:06.774353 20888 net.cpp:399] inception_4c/3x3_reduce -> inception_4c/3x3_reduce
I0403 16:16:06.776250 20888 net.cpp:141] Setting up inception_4c/3x3_reduce
I0403 16:16:06.776279 20888 net.cpp:148] Top shape: 24 128 14 14 (602112)
I0403 16:16:06.776294 20888 net.cpp:156] Memory required for data: 1035617568
I0403 16:16:06.776312 20888 layer_factory.hpp:77] Creating layer inception_4c/relu_3x3_reduce
I0403 16:16:06.776329 20888 net.cpp:91] Creating Layer inception_4c/relu_3x3_reduce
I0403 16:16:06.776345 20888 net.cpp:425] inception_4c/relu_3x3_reduce <- inception_4c/3x3_reduce
I0403 16:16:06.776363 20888 net.cpp:386] inception_4c/relu_3x3_reduce -> inception_4c/3x3_reduce (in-place)
I0403 16:16:06.776643 20888 net.cpp:141] Setting up inception_4c/relu_3x3_reduce
I0403 16:16:06.776669 20888 net.cpp:148] Top shape: 24 128 14 14 (602112)
I0403 16:16:06.776684 20888 net.cpp:156] Memory required for data: 1038026016
I0403 16:16:06.776698 20888 layer_factory.hpp:77] Creating layer inception_4c/3x3
I0403 16:16:06.776721 20888 net.cpp:91] Creating Layer inception_4c/3x3
I0403 16:16:06.776738 20888 net.cpp:425] inception_4c/3x3 <- inception_4c/3x3_reduce
I0403 16:16:06.776759 20888 net.cpp:399] inception_4c/3x3 -> inception_4c/3x3
I0403 16:16:06.780320 20888 net.cpp:141] Setting up inception_4c/3x3
I0403 16:16:06.780362 20888 net.cpp:148] Top shape: 24 256 14 14 (1204224)
I0403 16:16:06.780380 20888 net.cpp:156] Memory required for data: 1042842912
I0403 16:16:06.780411 20888 layer_factory.hpp:77] Creating layer inception_4c/relu_3x3
I0403 16:16:06.780431 20888 net.cpp:91] Creating Layer inception_4c/relu_3x3
I0403 16:16:06.780448 20888 net.cpp:425] inception_4c/relu_3x3 <- inception_4c/3x3
I0403 16:16:06.780468 20888 net.cpp:386] inception_4c/relu_3x3 -> inception_4c/3x3 (in-place)
I0403 16:16:06.780642 20888 net.cpp:141] Setting up inception_4c/relu_3x3
I0403 16:16:06.780666 20888 net.cpp:148] Top shape: 24 256 14 14 (1204224)
I0403 16:16:06.780680 20888 net.cpp:156] Memory required for data: 1047659808
I0403 16:16:06.780694 20888 layer_factory.hpp:77] Creating layer inception_4c/5x5_reduce
I0403 16:16:06.780716 20888 net.cpp:91] Creating Layer inception_4c/5x5_reduce
I0403 16:16:06.780735 20888 net.cpp:425] inception_4c/5x5_reduce <- inception_4b/output_inception_4b/output_0_split_2
I0403 16:16:06.780755 20888 net.cpp:399] inception_4c/5x5_reduce -> inception_4c/5x5_reduce
I0403 16:16:06.781823 20888 net.cpp:141] Setting up inception_4c/5x5_reduce
I0403 16:16:06.781852 20888 net.cpp:148] Top shape: 24 24 14 14 (112896)
I0403 16:16:06.781867 20888 net.cpp:156] Memory required for data: 1048111392
I0403 16:16:06.781885 20888 layer_factory.hpp:77] Creating layer inception_4c/relu_5x5_reduce
I0403 16:16:06.781903 20888 net.cpp:91] Creating Layer inception_4c/relu_5x5_reduce
I0403 16:16:06.781919 20888 net.cpp:425] inception_4c/relu_5x5_reduce <- inception_4c/5x5_reduce
I0403 16:16:06.781939 20888 net.cpp:386] inception_4c/relu_5x5_reduce -> inception_4c/5x5_reduce (in-place)
I0403 16:16:06.782136 20888 net.cpp:141] Setting up inception_4c/relu_5x5_reduce
I0403 16:16:06.782161 20888 net.cpp:148] Top shape: 24 24 14 14 (112896)
I0403 16:16:06.782176 20888 net.cpp:156] Memory required for data: 1048562976
I0403 16:16:06.782189 20888 layer_factory.hpp:77] Creating layer inception_4c/5x5
I0403 16:16:06.782210 20888 net.cpp:91] Creating Layer inception_4c/5x5
I0403 16:16:06.782228 20888 net.cpp:425] inception_4c/5x5 <- inception_4c/5x5_reduce
I0403 16:16:06.782248 20888 net.cpp:399] inception_4c/5x5 -> inception_4c/5x5
I0403 16:16:06.783511 20888 net.cpp:141] Setting up inception_4c/5x5
I0403 16:16:06.783540 20888 net.cpp:148] Top shape: 24 64 14 14 (301056)
I0403 16:16:06.783555 20888 net.cpp:156] Memory required for data: 1049767200
I0403 16:16:06.783571 20888 layer_factory.hpp:77] Creating layer inception_4c/relu_5x5
I0403 16:16:06.783591 20888 net.cpp:91] Creating Layer inception_4c/relu_5x5
I0403 16:16:06.783607 20888 net.cpp:425] inception_4c/relu_5x5 <- inception_4c/5x5
I0403 16:16:06.783624 20888 net.cpp:386] inception_4c/relu_5x5 -> inception_4c/5x5 (in-place)
I0403 16:16:06.783903 20888 net.cpp:141] Setting up inception_4c/relu_5x5
I0403 16:16:06.783929 20888 net.cpp:148] Top shape: 24 64 14 14 (301056)
I0403 16:16:06.783943 20888 net.cpp:156] Memory required for data: 1050971424
I0403 16:16:06.783958 20888 layer_factory.hpp:77] Creating layer inception_4c/pool
I0403 16:16:06.783977 20888 net.cpp:91] Creating Layer inception_4c/pool
I0403 16:16:06.783993 20888 net.cpp:425] inception_4c/pool <- inception_4b/output_inception_4b/output_0_split_3
I0403 16:16:06.784011 20888 net.cpp:399] inception_4c/pool -> inception_4c/pool
I0403 16:16:06.784080 20888 net.cpp:141] Setting up inception_4c/pool
I0403 16:16:06.784104 20888 net.cpp:148] Top shape: 24 512 14 14 (2408448)
I0403 16:16:06.784117 20888 net.cpp:156] Memory required for data: 1060605216
I0403 16:16:06.784132 20888 layer_factory.hpp:77] Creating layer inception_4c/pool_proj
I0403 16:16:06.784153 20888 net.cpp:91] Creating Layer inception_4c/pool_proj
I0403 16:16:06.784169 20888 net.cpp:425] inception_4c/pool_proj <- inception_4c/pool
I0403 16:16:06.784189 20888 net.cpp:399] inception_4c/pool_proj -> inception_4c/pool_proj
I0403 16:16:06.785398 20888 net.cpp:141] Setting up inception_4c/pool_proj
I0403 16:16:06.785425 20888 net.cpp:148] Top shape: 24 64 14 14 (301056)
I0403 16:16:06.785455 20888 net.cpp:156] Memory required for data: 1061809440
I0403 16:16:06.785487 20888 layer_factory.hpp:77] Creating layer inception_4c/relu_pool_proj
I0403 16:16:06.785506 20888 net.cpp:91] Creating Layer inception_4c/relu_pool_proj
I0403 16:16:06.785522 20888 net.cpp:425] inception_4c/relu_pool_proj <- inception_4c/pool_proj
I0403 16:16:06.785542 20888 net.cpp:386] inception_4c/relu_pool_proj -> inception_4c/pool_proj (in-place)
I0403 16:16:06.785723 20888 net.cpp:141] Setting up inception_4c/relu_pool_proj
I0403 16:16:06.785749 20888 net.cpp:148] Top shape: 24 64 14 14 (301056)
I0403 16:16:06.785776 20888 net.cpp:156] Memory required for data: 1063013664
I0403 16:16:06.785791 20888 layer_factory.hpp:77] Creating layer inception_4c/output
I0403 16:16:06.785809 20888 net.cpp:91] Creating Layer inception_4c/output
I0403 16:16:06.785825 20888 net.cpp:425] inception_4c/output <- inception_4c/1x1
I0403 16:16:06.785840 20888 net.cpp:425] inception_4c/output <- inception_4c/3x3
I0403 16:16:06.785856 20888 net.cpp:425] inception_4c/output <- inception_4c/5x5
I0403 16:16:06.785871 20888 net.cpp:425] inception_4c/output <- inception_4c/pool_proj
I0403 16:16:06.785888 20888 net.cpp:399] inception_4c/output -> inception_4c/output
I0403 16:16:06.785936 20888 net.cpp:141] Setting up inception_4c/output
I0403 16:16:06.785959 20888 net.cpp:148] Top shape: 24 512 14 14 (2408448)
I0403 16:16:06.785972 20888 net.cpp:156] Memory required for data: 1072647456
I0403 16:16:06.785986 20888 layer_factory.hpp:77] Creating layer inception_4c/output_inception_4c/output_0_split
I0403 16:16:06.786003 20888 net.cpp:91] Creating Layer inception_4c/output_inception_4c/output_0_split
I0403 16:16:06.786018 20888 net.cpp:425] inception_4c/output_inception_4c/output_0_split <- inception_4c/output
I0403 16:16:06.786036 20888 net.cpp:399] inception_4c/output_inception_4c/output_0_split -> inception_4c/output_inception_4c/output_0_split_0
I0403 16:16:06.786062 20888 net.cpp:399] inception_4c/output_inception_4c/output_0_split -> inception_4c/output_inception_4c/output_0_split_1
I0403 16:16:06.786082 20888 net.cpp:399] inception_4c/output_inception_4c/output_0_split -> inception_4c/output_inception_4c/output_0_split_2
I0403 16:16:06.786101 20888 net.cpp:399] inception_4c/output_inception_4c/output_0_split -> inception_4c/output_inception_4c/output_0_split_3
I0403 16:16:06.786185 20888 net.cpp:141] Setting up inception_4c/output_inception_4c/output_0_split
I0403 16:16:06.786211 20888 net.cpp:148] Top shape: 24 512 14 14 (2408448)
I0403 16:16:06.786227 20888 net.cpp:148] Top shape: 24 512 14 14 (2408448)
I0403 16:16:06.786242 20888 net.cpp:148] Top shape: 24 512 14 14 (2408448)
I0403 16:16:06.786257 20888 net.cpp:148] Top shape: 24 512 14 14 (2408448)
I0403 16:16:06.786269 20888 net.cpp:156] Memory required for data: 1111182624
I0403 16:16:06.786283 20888 layer_factory.hpp:77] Creating layer inception_4d/1x1
I0403 16:16:06.786304 20888 net.cpp:91] Creating Layer inception_4d/1x1
I0403 16:16:06.786321 20888 net.cpp:425] inception_4d/1x1 <- inception_4c/output_inception_4c/output_0_split_0
I0403 16:16:06.786339 20888 net.cpp:399] inception_4d/1x1 -> inception_4d/1x1
I0403 16:16:06.787684 20888 net.cpp:141] Setting up inception_4d/1x1
I0403 16:16:06.787714 20888 net.cpp:148] Top shape: 24 112 14 14 (526848)
I0403 16:16:06.787729 20888 net.cpp:156] Memory required for data: 1113290016
I0403 16:16:06.787750 20888 layer_factory.hpp:77] Creating layer inception_4d/relu_1x1
I0403 16:16:06.787768 20888 net.cpp:91] Creating Layer inception_4d/relu_1x1
I0403 16:16:06.787786 20888 net.cpp:425] inception_4d/relu_1x1 <- inception_4d/1x1
I0403 16:16:06.787803 20888 net.cpp:386] inception_4d/relu_1x1 -> inception_4d/1x1 (in-place)
I0403 16:16:06.787989 20888 net.cpp:141] Setting up inception_4d/relu_1x1
I0403 16:16:06.788017 20888 net.cpp:148] Top shape: 24 112 14 14 (526848)
I0403 16:16:06.788031 20888 net.cpp:156] Memory required for data: 1115397408
I0403 16:16:06.788058 20888 layer_factory.hpp:77] Creating layer inception_4d/3x3_reduce
I0403 16:16:06.788097 20888 net.cpp:91] Creating Layer inception_4d/3x3_reduce
I0403 16:16:06.788118 20888 net.cpp:425] inception_4d/3x3_reduce <- inception_4c/output_inception_4c/output_0_split_1
I0403 16:16:06.788141 20888 net.cpp:399] inception_4d/3x3_reduce -> inception_4d/3x3_reduce
I0403 16:16:06.789649 20888 net.cpp:141] Setting up inception_4d/3x3_reduce
I0403 16:16:06.789679 20888 net.cpp:148] Top shape: 24 144 14 14 (677376)
I0403 16:16:06.789695 20888 net.cpp:156] Memory required for data: 1118106912
I0403 16:16:06.789715 20888 layer_factory.hpp:77] Creating layer inception_4d/relu_3x3_reduce
I0403 16:16:06.789736 20888 net.cpp:91] Creating Layer inception_4d/relu_3x3_reduce
I0403 16:16:06.789753 20888 net.cpp:425] inception_4d/relu_3x3_reduce <- inception_4d/3x3_reduce
I0403 16:16:06.789772 20888 net.cpp:386] inception_4d/relu_3x3_reduce -> inception_4d/3x3_reduce (in-place)
I0403 16:16:06.790066 20888 net.cpp:141] Setting up inception_4d/relu_3x3_reduce
I0403 16:16:06.790093 20888 net.cpp:148] Top shape: 24 144 14 14 (677376)
I0403 16:16:06.790109 20888 net.cpp:156] Memory required for data: 1120816416
I0403 16:16:06.790125 20888 layer_factory.hpp:77] Creating layer inception_4d/3x3
I0403 16:16:06.790148 20888 net.cpp:91] Creating Layer inception_4d/3x3
I0403 16:16:06.790166 20888 net.cpp:425] inception_4d/3x3 <- inception_4d/3x3_reduce
I0403 16:16:06.790189 20888 net.cpp:399] inception_4d/3x3 -> inception_4d/3x3
I0403 16:16:06.794467 20888 net.cpp:141] Setting up inception_4d/3x3
I0403 16:16:06.794500 20888 net.cpp:148] Top shape: 24 288 14 14 (1354752)
I0403 16:16:06.794519 20888 net.cpp:156] Memory required for data: 1126235424
I0403 16:16:06.794538 20888 layer_factory.hpp:77] Creating layer inception_4d/relu_3x3
I0403 16:16:06.794558 20888 net.cpp:91] Creating Layer inception_4d/relu_3x3
I0403 16:16:06.794574 20888 net.cpp:425] inception_4d/relu_3x3 <- inception_4d/3x3
I0403 16:16:06.794592 20888 net.cpp:386] inception_4d/relu_3x3 -> inception_4d/3x3 (in-place)
I0403 16:16:06.794777 20888 net.cpp:141] Setting up inception_4d/relu_3x3
I0403 16:16:06.794805 20888 net.cpp:148] Top shape: 24 288 14 14 (1354752)
I0403 16:16:06.794821 20888 net.cpp:156] Memory required for data: 1131654432
I0403 16:16:06.794836 20888 layer_factory.hpp:77] Creating layer inception_4d/5x5_reduce
I0403 16:16:06.794859 20888 net.cpp:91] Creating Layer inception_4d/5x5_reduce
I0403 16:16:06.794878 20888 net.cpp:425] inception_4d/5x5_reduce <- inception_4c/output_inception_4c/output_0_split_2
I0403 16:16:06.794901 20888 net.cpp:399] inception_4d/5x5_reduce -> inception_4d/5x5_reduce
I0403 16:16:06.796043 20888 net.cpp:141] Setting up inception_4d/5x5_reduce
I0403 16:16:06.796079 20888 net.cpp:148] Top shape: 24 32 14 14 (150528)
I0403 16:16:06.796097 20888 net.cpp:156] Memory required for data: 1132256544
I0403 16:16:06.796118 20888 layer_factory.hpp:77] Creating layer inception_4d/relu_5x5_reduce
I0403 16:16:06.796135 20888 net.cpp:91] Creating Layer inception_4d/relu_5x5_reduce
I0403 16:16:06.796152 20888 net.cpp:425] inception_4d/relu_5x5_reduce <- inception_4d/5x5_reduce
I0403 16:16:06.796175 20888 net.cpp:386] inception_4d/relu_5x5_reduce -> inception_4d/5x5_reduce (in-place)
I0403 16:16:06.796362 20888 net.cpp:141] Setting up inception_4d/relu_5x5_reduce
I0403 16:16:06.796387 20888 net.cpp:148] Top shape: 24 32 14 14 (150528)
I0403 16:16:06.796402 20888 net.cpp:156] Memory required for data: 1132858656
I0403 16:16:06.796417 20888 layer_factory.hpp:77] Creating layer inception_4d/5x5
I0403 16:16:06.796440 20888 net.cpp:91] Creating Layer inception_4d/5x5
I0403 16:16:06.796458 20888 net.cpp:425] inception_4d/5x5 <- inception_4d/5x5_reduce
I0403 16:16:06.796479 20888 net.cpp:399] inception_4d/5x5 -> inception_4d/5x5
I0403 16:16:06.797950 20888 net.cpp:141] Setting up inception_4d/5x5
I0403 16:16:06.797978 20888 net.cpp:148] Top shape: 24 64 14 14 (301056)
I0403 16:16:06.797994 20888 net.cpp:156] Memory required for data: 1134062880
I0403 16:16:06.798014 20888 layer_factory.hpp:77] Creating layer inception_4d/relu_5x5
I0403 16:16:06.798060 20888 net.cpp:91] Creating Layer inception_4d/relu_5x5
I0403 16:16:06.798082 20888 net.cpp:425] inception_4d/relu_5x5 <- inception_4d/5x5
I0403 16:16:06.798104 20888 net.cpp:386] inception_4d/relu_5x5 -> inception_4d/5x5 (in-place)
I0403 16:16:06.798403 20888 net.cpp:141] Setting up inception_4d/relu_5x5
I0403 16:16:06.798430 20888 net.cpp:148] Top shape: 24 64 14 14 (301056)
I0403 16:16:06.798446 20888 net.cpp:156] Memory required for data: 1135267104
I0403 16:16:06.798461 20888 layer_factory.hpp:77] Creating layer inception_4d/pool
I0403 16:16:06.798480 20888 net.cpp:91] Creating Layer inception_4d/pool
I0403 16:16:06.798496 20888 net.cpp:425] inception_4d/pool <- inception_4c/output_inception_4c/output_0_split_3
I0403 16:16:06.798516 20888 net.cpp:399] inception_4d/pool -> inception_4d/pool
I0403 16:16:06.798584 20888 net.cpp:141] Setting up inception_4d/pool
I0403 16:16:06.798609 20888 net.cpp:148] Top shape: 24 512 14 14 (2408448)
I0403 16:16:06.798624 20888 net.cpp:156] Memory required for data: 1144900896
I0403 16:16:06.798638 20888 layer_factory.hpp:77] Creating layer inception_4d/pool_proj
I0403 16:16:06.798662 20888 net.cpp:91] Creating Layer inception_4d/pool_proj
I0403 16:16:06.798681 20888 net.cpp:425] inception_4d/pool_proj <- inception_4d/pool
I0403 16:16:06.798699 20888 net.cpp:399] inception_4d/pool_proj -> inception_4d/pool_proj
I0403 16:16:06.800457 20888 net.cpp:141] Setting up inception_4d/pool_proj
I0403 16:16:06.800492 20888 net.cpp:148] Top shape: 24 64 14 14 (301056)
I0403 16:16:06.800508 20888 net.cpp:156] Memory required for data: 1146105120
I0403 16:16:06.800526 20888 layer_factory.hpp:77] Creating layer inception_4d/relu_pool_proj
I0403 16:16:06.800544 20888 net.cpp:91] Creating Layer inception_4d/relu_pool_proj
I0403 16:16:06.800561 20888 net.cpp:425] inception_4d/relu_pool_proj <- inception_4d/pool_proj
I0403 16:16:06.800578 20888 net.cpp:386] inception_4d/relu_pool_proj -> inception_4d/pool_proj (in-place)
I0403 16:16:06.800766 20888 net.cpp:141] Setting up inception_4d/relu_pool_proj
I0403 16:16:06.800791 20888 net.cpp:148] Top shape: 24 64 14 14 (301056)
I0403 16:16:06.800806 20888 net.cpp:156] Memory required for data: 1147309344
I0403 16:16:06.800822 20888 layer_factory.hpp:77] Creating layer inception_4d/output
I0403 16:16:06.800838 20888 net.cpp:91] Creating Layer inception_4d/output
I0403 16:16:06.800854 20888 net.cpp:425] inception_4d/output <- inception_4d/1x1
I0403 16:16:06.800871 20888 net.cpp:425] inception_4d/output <- inception_4d/3x3
I0403 16:16:06.800887 20888 net.cpp:425] inception_4d/output <- inception_4d/5x5
I0403 16:16:06.800904 20888 net.cpp:425] inception_4d/output <- inception_4d/pool_proj
I0403 16:16:06.800923 20888 net.cpp:399] inception_4d/output -> inception_4d/output
I0403 16:16:06.800971 20888 net.cpp:141] Setting up inception_4d/output
I0403 16:16:06.800995 20888 net.cpp:148] Top shape: 24 528 14 14 (2483712)
I0403 16:16:06.801012 20888 net.cpp:156] Memory required for data: 1157244192
I0403 16:16:06.801025 20888 layer_factory.hpp:77] Creating layer inception_4d/output_inception_4d/output_0_split
I0403 16:16:06.801043 20888 net.cpp:91] Creating Layer inception_4d/output_inception_4d/output_0_split
I0403 16:16:06.801064 20888 net.cpp:425] inception_4d/output_inception_4d/output_0_split <- inception_4d/output
I0403 16:16:06.801087 20888 net.cpp:399] inception_4d/output_inception_4d/output_0_split -> inception_4d/output_inception_4d/output_0_split_0
I0403 16:16:06.801108 20888 net.cpp:399] inception_4d/output_inception_4d/output_0_split -> inception_4d/output_inception_4d/output_0_split_1
I0403 16:16:06.801129 20888 net.cpp:399] inception_4d/output_inception_4d/output_0_split -> inception_4d/output_inception_4d/output_0_split_2
I0403 16:16:06.801149 20888 net.cpp:399] inception_4d/output_inception_4d/output_0_split -> inception_4d/output_inception_4d/output_0_split_3
I0403 16:16:06.801168 20888 net.cpp:399] inception_4d/output_inception_4d/output_0_split -> inception_4d/output_inception_4d/output_0_split_4
I0403 16:16:06.801270 20888 net.cpp:141] Setting up inception_4d/output_inception_4d/output_0_split
I0403 16:16:06.801306 20888 net.cpp:148] Top shape: 24 528 14 14 (2483712)
I0403 16:16:06.801323 20888 net.cpp:148] Top shape: 24 528 14 14 (2483712)
I0403 16:16:06.801339 20888 net.cpp:148] Top shape: 24 528 14 14 (2483712)
I0403 16:16:06.801355 20888 net.cpp:148] Top shape: 24 528 14 14 (2483712)
I0403 16:16:06.801372 20888 net.cpp:148] Top shape: 24 528 14 14 (2483712)
I0403 16:16:06.801384 20888 net.cpp:156] Memory required for data: 1206918432
I0403 16:16:06.801399 20888 layer_factory.hpp:77] Creating layer loss2/ave_pool
I0403 16:16:06.801419 20888 net.cpp:91] Creating Layer loss2/ave_pool
I0403 16:16:06.801436 20888 net.cpp:425] loss2/ave_pool <- inception_4d/output_inception_4d/output_0_split_0
I0403 16:16:06.801455 20888 net.cpp:399] loss2/ave_pool -> loss2/ave_pool
I0403 16:16:06.801766 20888 net.cpp:141] Setting up loss2/ave_pool
I0403 16:16:06.801795 20888 net.cpp:148] Top shape: 24 528 4 4 (202752)
I0403 16:16:06.801810 20888 net.cpp:156] Memory required for data: 1207729440
I0403 16:16:06.801826 20888 layer_factory.hpp:77] Creating layer loss2/conv
I0403 16:16:06.801847 20888 net.cpp:91] Creating Layer loss2/conv
I0403 16:16:06.801864 20888 net.cpp:425] loss2/conv <- loss2/ave_pool
I0403 16:16:06.801883 20888 net.cpp:399] loss2/conv -> loss2/conv
I0403 16:16:06.803773 20888 net.cpp:141] Setting up loss2/conv
I0403 16:16:06.803803 20888 net.cpp:148] Top shape: 24 128 4 4 (49152)
I0403 16:16:06.803819 20888 net.cpp:156] Memory required for data: 1207926048
I0403 16:16:06.803838 20888 layer_factory.hpp:77] Creating layer loss2/relu_conv
I0403 16:16:06.803861 20888 net.cpp:91] Creating Layer loss2/relu_conv
I0403 16:16:06.803881 20888 net.cpp:425] loss2/relu_conv <- loss2/conv
I0403 16:16:06.803899 20888 net.cpp:386] loss2/relu_conv -> loss2/conv (in-place)
I0403 16:16:06.804188 20888 net.cpp:141] Setting up loss2/relu_conv
I0403 16:16:06.804214 20888 net.cpp:148] Top shape: 24 128 4 4 (49152)
I0403 16:16:06.804229 20888 net.cpp:156] Memory required for data: 1208122656
I0403 16:16:06.804244 20888 layer_factory.hpp:77] Creating layer loss2/fc
I0403 16:16:06.804266 20888 net.cpp:91] Creating Layer loss2/fc
I0403 16:16:06.804283 20888 net.cpp:425] loss2/fc <- loss2/conv
I0403 16:16:06.804302 20888 net.cpp:399] loss2/fc -> loss2/fc
I0403 16:16:06.821948 20888 net.cpp:141] Setting up loss2/fc
I0403 16:16:06.822015 20888 net.cpp:148] Top shape: 24 1024 (24576)
I0403 16:16:06.822031 20888 net.cpp:156] Memory required for data: 1208220960
I0403 16:16:06.822055 20888 layer_factory.hpp:77] Creating layer loss2/relu_fc
I0403 16:16:06.822077 20888 net.cpp:91] Creating Layer loss2/relu_fc
I0403 16:16:06.822096 20888 net.cpp:425] loss2/relu_fc <- loss2/fc
I0403 16:16:06.822119 20888 net.cpp:386] loss2/relu_fc -> loss2/fc (in-place)
I0403 16:16:06.822476 20888 net.cpp:141] Setting up loss2/relu_fc
I0403 16:16:06.822507 20888 net.cpp:148] Top shape: 24 1024 (24576)
I0403 16:16:06.822523 20888 net.cpp:156] Memory required for data: 1208319264
I0403 16:16:06.822551 20888 layer_factory.hpp:77] Creating layer loss2/drop_fc
I0403 16:16:06.822568 20888 net.cpp:91] Creating Layer loss2/drop_fc
I0403 16:16:06.822585 20888 net.cpp:425] loss2/drop_fc <- loss2/fc
I0403 16:16:06.822621 20888 net.cpp:386] loss2/drop_fc -> loss2/fc (in-place)
I0403 16:16:06.822674 20888 net.cpp:141] Setting up loss2/drop_fc
I0403 16:16:06.822697 20888 net.cpp:148] Top shape: 24 1024 (24576)
I0403 16:16:06.822713 20888 net.cpp:156] Memory required for data: 1208417568
I0403 16:16:06.822728 20888 layer_factory.hpp:77] Creating layer loss2/classifier_plantvillage
I0403 16:16:06.822751 20888 net.cpp:91] Creating Layer loss2/classifier_plantvillage
I0403 16:16:06.822772 20888 net.cpp:425] loss2/classifier_plantvillage <- loss2/fc
I0403 16:16:06.822794 20888 net.cpp:399] loss2/classifier_plantvillage -> loss2/classifier_plantvillage
I0403 16:16:06.823237 20888 net.cpp:141] Setting up loss2/classifier_plantvillage
I0403 16:16:06.823262 20888 net.cpp:148] Top shape: 24 38 (912)
I0403 16:16:06.823300 20888 net.cpp:156] Memory required for data: 1208421216
I0403 16:16:06.823319 20888 layer_factory.hpp:77] Creating layer loss2/classifier_plantvillage_loss2/classifier_plantvillage_0_split
I0403 16:16:06.823343 20888 net.cpp:91] Creating Layer loss2/classifier_plantvillage_loss2/classifier_plantvillage_0_split
I0403 16:16:06.823360 20888 net.cpp:425] loss2/classifier_plantvillage_loss2/classifier_plantvillage_0_split <- loss2/classifier_plantvillage
I0403 16:16:06.823379 20888 net.cpp:399] loss2/classifier_plantvillage_loss2/classifier_plantvillage_0_split -> loss2/classifier_plantvillage_loss2/classifier_plantvillage_0_split_0
I0403 16:16:06.823397 20888 net.cpp:399] loss2/classifier_plantvillage_loss2/classifier_plantvillage_0_split -> loss2/classifier_plantvillage_loss2/classifier_plantvillage_0_split_1
I0403 16:16:06.823417 20888 net.cpp:399] loss2/classifier_plantvillage_loss2/classifier_plantvillage_0_split -> loss2/classifier_plantvillage_loss2/classifier_plantvillage_0_split_2
I0403 16:16:06.823498 20888 net.cpp:141] Setting up loss2/classifier_plantvillage_loss2/classifier_plantvillage_0_split
I0403 16:16:06.823520 20888 net.cpp:148] Top shape: 24 38 (912)
I0403 16:16:06.823536 20888 net.cpp:148] Top shape: 24 38 (912)
I0403 16:16:06.823551 20888 net.cpp:148] Top shape: 24 38 (912)
I0403 16:16:06.823565 20888 net.cpp:156] Memory required for data: 1208432160
I0403 16:16:06.823580 20888 layer_factory.hpp:77] Creating layer inception_4e/1x1
I0403 16:16:06.823601 20888 net.cpp:91] Creating Layer inception_4e/1x1
I0403 16:16:06.823618 20888 net.cpp:425] inception_4e/1x1 <- inception_4d/output_inception_4d/output_0_split_1
I0403 16:16:06.823639 20888 net.cpp:399] inception_4e/1x1 -> inception_4e/1x1
I0403 16:16:06.825501 20888 net.cpp:141] Setting up inception_4e/1x1
I0403 16:16:06.825531 20888 net.cpp:148] Top shape: 24 256 14 14 (1204224)
I0403 16:16:06.825546 20888 net.cpp:156] Memory required for data: 1213249056
I0403 16:16:06.825567 20888 layer_factory.hpp:77] Creating layer inception_4e/relu_1x1
I0403 16:16:06.825587 20888 net.cpp:91] Creating Layer inception_4e/relu_1x1
I0403 16:16:06.825609 20888 net.cpp:425] inception_4e/relu_1x1 <- inception_4e/1x1
I0403 16:16:06.825628 20888 net.cpp:386] inception_4e/relu_1x1 -> inception_4e/1x1 (in-place)
I0403 16:16:06.825924 20888 net.cpp:141] Setting up inception_4e/relu_1x1
I0403 16:16:06.825950 20888 net.cpp:148] Top shape: 24 256 14 14 (1204224)
I0403 16:16:06.825965 20888 net.cpp:156] Memory required for data: 1218065952
I0403 16:16:06.825980 20888 layer_factory.hpp:77] Creating layer inception_4e/3x3_reduce
I0403 16:16:06.826004 20888 net.cpp:91] Creating Layer inception_4e/3x3_reduce
I0403 16:16:06.826022 20888 net.cpp:425] inception_4e/3x3_reduce <- inception_4d/output_inception_4d/output_0_split_2
I0403 16:16:06.826043 20888 net.cpp:399] inception_4e/3x3_reduce -> inception_4e/3x3_reduce
I0403 16:16:06.828192 20888 net.cpp:141] Setting up inception_4e/3x3_reduce
I0403 16:16:06.828223 20888 net.cpp:148] Top shape: 24 160 14 14 (752640)
I0403 16:16:06.828239 20888 net.cpp:156] Memory required for data: 1221076512
I0403 16:16:06.828258 20888 layer_factory.hpp:77] Creating layer inception_4e/relu_3x3_reduce
I0403 16:16:06.828279 20888 net.cpp:91] Creating Layer inception_4e/relu_3x3_reduce
I0403 16:16:06.828296 20888 net.cpp:425] inception_4e/relu_3x3_reduce <- inception_4e/3x3_reduce
I0403 16:16:06.828313 20888 net.cpp:386] inception_4e/relu_3x3_reduce -> inception_4e/3x3_reduce (in-place)
I0403 16:16:06.828500 20888 net.cpp:141] Setting up inception_4e/relu_3x3_reduce
I0403 16:16:06.828526 20888 net.cpp:148] Top shape: 24 160 14 14 (752640)
I0403 16:16:06.828541 20888 net.cpp:156] Memory required for data: 1224087072
I0403 16:16:06.828554 20888 layer_factory.hpp:77] Creating layer inception_4e/3x3
I0403 16:16:06.828577 20888 net.cpp:91] Creating Layer inception_4e/3x3
I0403 16:16:06.828594 20888 net.cpp:425] inception_4e/3x3 <- inception_4e/3x3_reduce
I0403 16:16:06.828615 20888 net.cpp:399] inception_4e/3x3 -> inception_4e/3x3
I0403 16:16:06.833672 20888 net.cpp:141] Setting up inception_4e/3x3
I0403 16:16:06.833715 20888 net.cpp:148] Top shape: 24 320 14 14 (1505280)
I0403 16:16:06.833732 20888 net.cpp:156] Memory required for data: 1230108192
I0403 16:16:06.833751 20888 layer_factory.hpp:77] Creating layer inception_4e/relu_3x3
I0403 16:16:06.833771 20888 net.cpp:91] Creating Layer inception_4e/relu_3x3
I0403 16:16:06.833788 20888 net.cpp:425] inception_4e/relu_3x3 <- inception_4e/3x3
I0403 16:16:06.833806 20888 net.cpp:386] inception_4e/relu_3x3 -> inception_4e/3x3 (in-place)
I0403 16:16:06.834115 20888 net.cpp:141] Setting up inception_4e/relu_3x3
I0403 16:16:06.834144 20888 net.cpp:148] Top shape: 24 320 14 14 (1505280)
I0403 16:16:06.834159 20888 net.cpp:156] Memory required for data: 1236129312
I0403 16:16:06.834174 20888 layer_factory.hpp:77] Creating layer inception_4e/5x5_reduce
I0403 16:16:06.834198 20888 net.cpp:91] Creating Layer inception_4e/5x5_reduce
I0403 16:16:06.834216 20888 net.cpp:425] inception_4e/5x5_reduce <- inception_4d/output_inception_4d/output_0_split_3
I0403 16:16:06.834235 20888 net.cpp:399] inception_4e/5x5_reduce -> inception_4e/5x5_reduce
I0403 16:16:06.835319 20888 net.cpp:141] Setting up inception_4e/5x5_reduce
I0403 16:16:06.835346 20888 net.cpp:148] Top shape: 24 32 14 14 (150528)
I0403 16:16:06.835361 20888 net.cpp:156] Memory required for data: 1236731424
I0403 16:16:06.835378 20888 layer_factory.hpp:77] Creating layer inception_4e/relu_5x5_reduce
I0403 16:16:06.835397 20888 net.cpp:91] Creating Layer inception_4e/relu_5x5_reduce
I0403 16:16:06.835412 20888 net.cpp:425] inception_4e/relu_5x5_reduce <- inception_4e/5x5_reduce
I0403 16:16:06.835432 20888 net.cpp:386] inception_4e/relu_5x5_reduce -> inception_4e/5x5_reduce (in-place)
I0403 16:16:06.835722 20888 net.cpp:141] Setting up inception_4e/relu_5x5_reduce
I0403 16:16:06.835747 20888 net.cpp:148] Top shape: 24 32 14 14 (150528)
I0403 16:16:06.835762 20888 net.cpp:156] Memory required for data: 1237333536
I0403 16:16:06.835775 20888 layer_factory.hpp:77] Creating layer inception_4e/5x5
I0403 16:16:06.835814 20888 net.cpp:91] Creating Layer inception_4e/5x5
I0403 16:16:06.835832 20888 net.cpp:425] inception_4e/5x5 <- inception_4e/5x5_reduce
I0403 16:16:06.835851 20888 net.cpp:399] inception_4e/5x5 -> inception_4e/5x5
I0403 16:16:06.837836 20888 net.cpp:141] Setting up inception_4e/5x5
I0403 16:16:06.837864 20888 net.cpp:148] Top shape: 24 128 14 14 (602112)
I0403 16:16:06.837880 20888 net.cpp:156] Memory required for data: 1239741984
I0403 16:16:06.837899 20888 layer_factory.hpp:77] Creating layer inception_4e/relu_5x5
I0403 16:16:06.837918 20888 net.cpp:91] Creating Layer inception_4e/relu_5x5
I0403 16:16:06.837935 20888 net.cpp:425] inception_4e/relu_5x5 <- inception_4e/5x5
I0403 16:16:06.837954 20888 net.cpp:386] inception_4e/relu_5x5 -> inception_4e/5x5 (in-place)
I0403 16:16:06.838162 20888 net.cpp:141] Setting up inception_4e/relu_5x5
I0403 16:16:06.838187 20888 net.cpp:148] Top shape: 24 128 14 14 (602112)
I0403 16:16:06.838202 20888 net.cpp:156] Memory required for data: 1242150432
I0403 16:16:06.838217 20888 layer_factory.hpp:77] Creating layer inception_4e/pool
I0403 16:16:06.838238 20888 net.cpp:91] Creating Layer inception_4e/pool
I0403 16:16:06.838253 20888 net.cpp:425] inception_4e/pool <- inception_4d/output_inception_4d/output_0_split_4
I0403 16:16:06.838271 20888 net.cpp:399] inception_4e/pool -> inception_4e/pool
I0403 16:16:06.838341 20888 net.cpp:141] Setting up inception_4e/pool
I0403 16:16:06.838364 20888 net.cpp:148] Top shape: 24 528 14 14 (2483712)
I0403 16:16:06.838379 20888 net.cpp:156] Memory required for data: 1252085280
I0403 16:16:06.838405 20888 layer_factory.hpp:77] Creating layer inception_4e/pool_proj
I0403 16:16:06.838428 20888 net.cpp:91] Creating Layer inception_4e/pool_proj
I0403 16:16:06.838445 20888 net.cpp:425] inception_4e/pool_proj <- inception_4e/pool
I0403 16:16:06.838465 20888 net.cpp:399] inception_4e/pool_proj -> inception_4e/pool_proj
I0403 16:16:06.839997 20888 net.cpp:141] Setting up inception_4e/pool_proj
I0403 16:16:06.840039 20888 net.cpp:148] Top shape: 24 128 14 14 (602112)
I0403 16:16:06.840061 20888 net.cpp:156] Memory required for data: 1254493728
I0403 16:16:06.840080 20888 layer_factory.hpp:77] Creating layer inception_4e/relu_pool_proj
I0403 16:16:06.840098 20888 net.cpp:91] Creating Layer inception_4e/relu_pool_proj
I0403 16:16:06.840114 20888 net.cpp:425] inception_4e/relu_pool_proj <- inception_4e/pool_proj
I0403 16:16:06.840134 20888 net.cpp:386] inception_4e/relu_pool_proj -> inception_4e/pool_proj (in-place)
I0403 16:16:06.840423 20888 net.cpp:141] Setting up inception_4e/relu_pool_proj
I0403 16:16:06.840452 20888 net.cpp:148] Top shape: 24 128 14 14 (602112)
I0403 16:16:06.840469 20888 net.cpp:156] Memory required for data: 1256902176
I0403 16:16:06.840484 20888 layer_factory.hpp:77] Creating layer inception_4e/output
I0403 16:16:06.840502 20888 net.cpp:91] Creating Layer inception_4e/output
I0403 16:16:06.840518 20888 net.cpp:425] inception_4e/output <- inception_4e/1x1
I0403 16:16:06.840535 20888 net.cpp:425] inception_4e/output <- inception_4e/3x3
I0403 16:16:06.840553 20888 net.cpp:425] inception_4e/output <- inception_4e/5x5
I0403 16:16:06.840569 20888 net.cpp:425] inception_4e/output <- inception_4e/pool_proj
I0403 16:16:06.840585 20888 net.cpp:399] inception_4e/output -> inception_4e/output
I0403 16:16:06.840636 20888 net.cpp:141] Setting up inception_4e/output
I0403 16:16:06.840662 20888 net.cpp:148] Top shape: 24 832 14 14 (3913728)
I0403 16:16:06.840677 20888 net.cpp:156] Memory required for data: 1272557088
I0403 16:16:06.840692 20888 layer_factory.hpp:77] Creating layer pool4/3x3_s2
I0403 16:16:06.840711 20888 net.cpp:91] Creating Layer pool4/3x3_s2
I0403 16:16:06.840729 20888 net.cpp:425] pool4/3x3_s2 <- inception_4e/output
I0403 16:16:06.840747 20888 net.cpp:399] pool4/3x3_s2 -> pool4/3x3_s2
I0403 16:16:06.840814 20888 net.cpp:141] Setting up pool4/3x3_s2
I0403 16:16:06.840837 20888 net.cpp:148] Top shape: 24 832 7 7 (978432)
I0403 16:16:06.840852 20888 net.cpp:156] Memory required for data: 1276470816
I0403 16:16:06.840865 20888 layer_factory.hpp:77] Creating layer pool4/3x3_s2_pool4/3x3_s2_0_split
I0403 16:16:06.840883 20888 net.cpp:91] Creating Layer pool4/3x3_s2_pool4/3x3_s2_0_split
I0403 16:16:06.840898 20888 net.cpp:425] pool4/3x3_s2_pool4/3x3_s2_0_split <- pool4/3x3_s2
I0403 16:16:06.840916 20888 net.cpp:399] pool4/3x3_s2_pool4/3x3_s2_0_split -> pool4/3x3_s2_pool4/3x3_s2_0_split_0
I0403 16:16:06.840936 20888 net.cpp:399] pool4/3x3_s2_pool4/3x3_s2_0_split -> pool4/3x3_s2_pool4/3x3_s2_0_split_1
I0403 16:16:06.840956 20888 net.cpp:399] pool4/3x3_s2_pool4/3x3_s2_0_split -> pool4/3x3_s2_pool4/3x3_s2_0_split_2
I0403 16:16:06.840975 20888 net.cpp:399] pool4/3x3_s2_pool4/3x3_s2_0_split -> pool4/3x3_s2_pool4/3x3_s2_0_split_3
I0403 16:16:06.841069 20888 net.cpp:141] Setting up pool4/3x3_s2_pool4/3x3_s2_0_split
I0403 16:16:06.841094 20888 net.cpp:148] Top shape: 24 832 7 7 (978432)
I0403 16:16:06.841110 20888 net.cpp:148] Top shape: 24 832 7 7 (978432)
I0403 16:16:06.841125 20888 net.cpp:148] Top shape: 24 832 7 7 (978432)
I0403 16:16:06.841140 20888 net.cpp:148] Top shape: 24 832 7 7 (978432)
I0403 16:16:06.841153 20888 net.cpp:156] Memory required for data: 1292125728
I0403 16:16:06.841167 20888 layer_factory.hpp:77] Creating layer inception_5a/1x1
I0403 16:16:06.841189 20888 net.cpp:91] Creating Layer inception_5a/1x1
I0403 16:16:06.841207 20888 net.cpp:425] inception_5a/1x1 <- pool4/3x3_s2_pool4/3x3_s2_0_split_0
I0403 16:16:06.841225 20888 net.cpp:399] inception_5a/1x1 -> inception_5a/1x1
I0403 16:16:06.844008 20888 net.cpp:141] Setting up inception_5a/1x1
I0403 16:16:06.844038 20888 net.cpp:148] Top shape: 24 256 7 7 (301056)
I0403 16:16:06.844058 20888 net.cpp:156] Memory required for data: 1293329952
I0403 16:16:06.844077 20888 layer_factory.hpp:77] Creating layer inception_5a/relu_1x1
I0403 16:16:06.844096 20888 net.cpp:91] Creating Layer inception_5a/relu_1x1
I0403 16:16:06.844113 20888 net.cpp:425] inception_5a/relu_1x1 <- inception_5a/1x1
I0403 16:16:06.844133 20888 net.cpp:386] inception_5a/relu_1x1 -> inception_5a/1x1 (in-place)
I0403 16:16:06.844441 20888 net.cpp:141] Setting up inception_5a/relu_1x1
I0403 16:16:06.844468 20888 net.cpp:148] Top shape: 24 256 7 7 (301056)
I0403 16:16:06.844483 20888 net.cpp:156] Memory required for data: 1294534176
I0403 16:16:06.844498 20888 layer_factory.hpp:77] Creating layer inception_5a/3x3_reduce
I0403 16:16:06.844521 20888 net.cpp:91] Creating Layer inception_5a/3x3_reduce
I0403 16:16:06.844539 20888 net.cpp:425] inception_5a/3x3_reduce <- pool4/3x3_s2_pool4/3x3_s2_0_split_1
I0403 16:16:06.844561 20888 net.cpp:399] inception_5a/3x3_reduce -> inception_5a/3x3_reduce
I0403 16:16:06.846946 20888 net.cpp:141] Setting up inception_5a/3x3_reduce
I0403 16:16:06.846978 20888 net.cpp:148] Top shape: 24 160 7 7 (188160)
I0403 16:16:06.846994 20888 net.cpp:156] Memory required for data: 1295286816
I0403 16:16:06.847013 20888 layer_factory.hpp:77] Creating layer inception_5a/relu_3x3_reduce
I0403 16:16:06.847033 20888 net.cpp:91] Creating Layer inception_5a/relu_3x3_reduce
I0403 16:16:06.847053 20888 net.cpp:425] inception_5a/relu_3x3_reduce <- inception_5a/3x3_reduce
I0403 16:16:06.847072 20888 net.cpp:386] inception_5a/relu_3x3_reduce -> inception_5a/3x3_reduce (in-place)
I0403 16:16:06.847257 20888 net.cpp:141] Setting up inception_5a/relu_3x3_reduce
I0403 16:16:06.847285 20888 net.cpp:148] Top shape: 24 160 7 7 (188160)
I0403 16:16:06.847298 20888 net.cpp:156] Memory required for data: 1296039456
I0403 16:16:06.847313 20888 layer_factory.hpp:77] Creating layer inception_5a/3x3
I0403 16:16:06.847334 20888 net.cpp:91] Creating Layer inception_5a/3x3
I0403 16:16:06.847352 20888 net.cpp:425] inception_5a/3x3 <- inception_5a/3x3_reduce
I0403 16:16:06.847373 20888 net.cpp:399] inception_5a/3x3 -> inception_5a/3x3
I0403 16:16:06.852344 20888 net.cpp:141] Setting up inception_5a/3x3
I0403 16:16:06.852373 20888 net.cpp:148] Top shape: 24 320 7 7 (376320)
I0403 16:16:06.852391 20888 net.cpp:156] Memory required for data: 1297544736
I0403 16:16:06.852408 20888 layer_factory.hpp:77] Creating layer inception_5a/relu_3x3
I0403 16:16:06.852427 20888 net.cpp:91] Creating Layer inception_5a/relu_3x3
I0403 16:16:06.852445 20888 net.cpp:425] inception_5a/relu_3x3 <- inception_5a/3x3
I0403 16:16:06.852464 20888 net.cpp:386] inception_5a/relu_3x3 -> inception_5a/3x3 (in-place)
I0403 16:16:06.852761 20888 net.cpp:141] Setting up inception_5a/relu_3x3
I0403 16:16:06.852787 20888 net.cpp:148] Top shape: 24 320 7 7 (376320)
I0403 16:16:06.852802 20888 net.cpp:156] Memory required for data: 1299050016
I0403 16:16:06.852816 20888 layer_factory.hpp:77] Creating layer inception_5a/5x5_reduce
I0403 16:16:06.852838 20888 net.cpp:91] Creating Layer inception_5a/5x5_reduce
I0403 16:16:06.852855 20888 net.cpp:425] inception_5a/5x5_reduce <- pool4/3x3_s2_pool4/3x3_s2_0_split_2
I0403 16:16:06.852875 20888 net.cpp:399] inception_5a/5x5_reduce -> inception_5a/5x5_reduce
I0403 16:16:06.854024 20888 net.cpp:141] Setting up inception_5a/5x5_reduce
I0403 16:16:06.854060 20888 net.cpp:148] Top shape: 24 32 7 7 (37632)
I0403 16:16:06.854079 20888 net.cpp:156] Memory required for data: 1299200544
I0403 16:16:06.854097 20888 layer_factory.hpp:77] Creating layer inception_5a/relu_5x5_reduce
I0403 16:16:06.854118 20888 net.cpp:91] Creating Layer inception_5a/relu_5x5_reduce
I0403 16:16:06.854136 20888 net.cpp:425] inception_5a/relu_5x5_reduce <- inception_5a/5x5_reduce
I0403 16:16:06.854152 20888 net.cpp:386] inception_5a/relu_5x5_reduce -> inception_5a/5x5_reduce (in-place)
I0403 16:16:06.854449 20888 net.cpp:141] Setting up inception_5a/relu_5x5_reduce
I0403 16:16:06.854475 20888 net.cpp:148] Top shape: 24 32 7 7 (37632)
I0403 16:16:06.854492 20888 net.cpp:156] Memory required for data: 1299351072
I0403 16:16:06.854507 20888 layer_factory.hpp:77] Creating layer inception_5a/5x5
I0403 16:16:06.854531 20888 net.cpp:91] Creating Layer inception_5a/5x5
I0403 16:16:06.854549 20888 net.cpp:425] inception_5a/5x5 <- inception_5a/5x5_reduce
I0403 16:16:06.854571 20888 net.cpp:399] inception_5a/5x5 -> inception_5a/5x5
I0403 16:16:06.856415 20888 net.cpp:141] Setting up inception_5a/5x5
I0403 16:16:06.856456 20888 net.cpp:148] Top shape: 24 128 7 7 (150528)
I0403 16:16:06.856473 20888 net.cpp:156] Memory required for data: 1299953184
I0403 16:16:06.856492 20888 layer_factory.hpp:77] Creating layer inception_5a/relu_5x5
I0403 16:16:06.856510 20888 net.cpp:91] Creating Layer inception_5a/relu_5x5
I0403 16:16:06.856526 20888 net.cpp:425] inception_5a/relu_5x5 <- inception_5a/5x5
I0403 16:16:06.856545 20888 net.cpp:386] inception_5a/relu_5x5 -> inception_5a/5x5 (in-place)
I0403 16:16:06.856734 20888 net.cpp:141] Setting up inception_5a/relu_5x5
I0403 16:16:06.856758 20888 net.cpp:148] Top shape: 24 128 7 7 (150528)
I0403 16:16:06.856773 20888 net.cpp:156] Memory required for data: 1300555296
I0403 16:16:06.856787 20888 layer_factory.hpp:77] Creating layer inception_5a/pool
I0403 16:16:06.856806 20888 net.cpp:91] Creating Layer inception_5a/pool
I0403 16:16:06.856823 20888 net.cpp:425] inception_5a/pool <- pool4/3x3_s2_pool4/3x3_s2_0_split_3
I0403 16:16:06.856842 20888 net.cpp:399] inception_5a/pool -> inception_5a/pool
I0403 16:16:06.856911 20888 net.cpp:141] Setting up inception_5a/pool
I0403 16:16:06.856935 20888 net.cpp:148] Top shape: 24 832 7 7 (978432)
I0403 16:16:06.856948 20888 net.cpp:156] Memory required for data: 1304469024
I0403 16:16:06.856963 20888 layer_factory.hpp:77] Creating layer inception_5a/pool_proj
I0403 16:16:06.856984 20888 net.cpp:91] Creating Layer inception_5a/pool_proj
I0403 16:16:06.857002 20888 net.cpp:425] inception_5a/pool_proj <- inception_5a/pool
I0403 16:16:06.857023 20888 net.cpp:399] inception_5a/pool_proj -> inception_5a/pool_proj
I0403 16:16:06.859294 20888 net.cpp:141] Setting up inception_5a/pool_proj
I0403 16:16:06.859328 20888 net.cpp:148] Top shape: 24 128 7 7 (150528)
I0403 16:16:06.859344 20888 net.cpp:156] Memory required for data: 1305071136
I0403 16:16:06.859364 20888 layer_factory.hpp:77] Creating layer inception_5a/relu_pool_proj
I0403 16:16:06.859381 20888 net.cpp:91] Creating Layer inception_5a/relu_pool_proj
I0403 16:16:06.859398 20888 net.cpp:425] inception_5a/relu_pool_proj <- inception_5a/pool_proj
I0403 16:16:06.859418 20888 net.cpp:386] inception_5a/relu_pool_proj -> inception_5a/pool_proj (in-place)
I0403 16:16:06.859704 20888 net.cpp:141] Setting up inception_5a/relu_pool_proj
I0403 16:16:06.859732 20888 net.cpp:148] Top shape: 24 128 7 7 (150528)
I0403 16:16:06.859750 20888 net.cpp:156] Memory required for data: 1305673248
I0403 16:16:06.859763 20888 layer_factory.hpp:77] Creating layer inception_5a/output
I0403 16:16:06.859781 20888 net.cpp:91] Creating Layer inception_5a/output
I0403 16:16:06.859797 20888 net.cpp:425] inception_5a/output <- inception_5a/1x1
I0403 16:16:06.859814 20888 net.cpp:425] inception_5a/output <- inception_5a/3x3
I0403 16:16:06.859830 20888 net.cpp:425] inception_5a/output <- inception_5a/5x5
I0403 16:16:06.859845 20888 net.cpp:425] inception_5a/output <- inception_5a/pool_proj
I0403 16:16:06.859869 20888 net.cpp:399] inception_5a/output -> inception_5a/output
I0403 16:16:06.859917 20888 net.cpp:141] Setting up inception_5a/output
I0403 16:16:06.859942 20888 net.cpp:148] Top shape: 24 832 7 7 (978432)
I0403 16:16:06.859956 20888 net.cpp:156] Memory required for data: 1309586976
I0403 16:16:06.859972 20888 layer_factory.hpp:77] Creating layer inception_5a/output_inception_5a/output_0_split
I0403 16:16:06.859992 20888 net.cpp:91] Creating Layer inception_5a/output_inception_5a/output_0_split
I0403 16:16:06.860008 20888 net.cpp:425] inception_5a/output_inception_5a/output_0_split <- inception_5a/output
I0403 16:16:06.860025 20888 net.cpp:399] inception_5a/output_inception_5a/output_0_split -> inception_5a/output_inception_5a/output_0_split_0
I0403 16:16:06.860045 20888 net.cpp:399] inception_5a/output_inception_5a/output_0_split -> inception_5a/output_inception_5a/output_0_split_1
I0403 16:16:06.860070 20888 net.cpp:399] inception_5a/output_inception_5a/output_0_split -> inception_5a/output_inception_5a/output_0_split_2
I0403 16:16:06.860095 20888 net.cpp:399] inception_5a/output_inception_5a/output_0_split -> inception_5a/output_inception_5a/output_0_split_3
I0403 16:16:06.860204 20888 net.cpp:141] Setting up inception_5a/output_inception_5a/output_0_split
I0403 16:16:06.860229 20888 net.cpp:148] Top shape: 24 832 7 7 (978432)
I0403 16:16:06.860244 20888 net.cpp:148] Top shape: 24 832 7 7 (978432)
I0403 16:16:06.860260 20888 net.cpp:148] Top shape: 24 832 7 7 (978432)
I0403 16:16:06.860275 20888 net.cpp:148] Top shape: 24 832 7 7 (978432)
I0403 16:16:06.860287 20888 net.cpp:156] Memory required for data: 1325241888
I0403 16:16:06.860301 20888 layer_factory.hpp:77] Creating layer inception_5b/1x1
I0403 16:16:06.860323 20888 net.cpp:91] Creating Layer inception_5b/1x1
I0403 16:16:06.860340 20888 net.cpp:425] inception_5b/1x1 <- inception_5a/output_inception_5a/output_0_split_0
I0403 16:16:06.860362 20888 net.cpp:399] inception_5b/1x1 -> inception_5b/1x1
I0403 16:16:06.864019 20888 net.cpp:141] Setting up inception_5b/1x1
I0403 16:16:06.864055 20888 net.cpp:148] Top shape: 24 384 7 7 (451584)
I0403 16:16:06.864073 20888 net.cpp:156] Memory required for data: 1327048224
I0403 16:16:06.864091 20888 layer_factory.hpp:77] Creating layer inception_5b/relu_1x1
I0403 16:16:06.864109 20888 net.cpp:91] Creating Layer inception_5b/relu_1x1
I0403 16:16:06.864125 20888 net.cpp:425] inception_5b/relu_1x1 <- inception_5b/1x1
I0403 16:16:06.864142 20888 net.cpp:386] inception_5b/relu_1x1 -> inception_5b/1x1 (in-place)
I0403 16:16:06.864439 20888 net.cpp:141] Setting up inception_5b/relu_1x1
I0403 16:16:06.864467 20888 net.cpp:148] Top shape: 24 384 7 7 (451584)
I0403 16:16:06.864482 20888 net.cpp:156] Memory required for data: 1328854560
I0403 16:16:06.864497 20888 layer_factory.hpp:77] Creating layer inception_5b/3x3_reduce
I0403 16:16:06.864519 20888 net.cpp:91] Creating Layer inception_5b/3x3_reduce
I0403 16:16:06.864537 20888 net.cpp:425] inception_5b/3x3_reduce <- inception_5a/output_inception_5a/output_0_split_1
I0403 16:16:06.864557 20888 net.cpp:399] inception_5b/3x3_reduce -> inception_5b/3x3_reduce
I0403 16:16:06.867241 20888 net.cpp:141] Setting up inception_5b/3x3_reduce
I0403 16:16:06.867272 20888 net.cpp:148] Top shape: 24 192 7 7 (225792)
I0403 16:16:06.867288 20888 net.cpp:156] Memory required for data: 1329757728
I0403 16:16:06.867306 20888 layer_factory.hpp:77] Creating layer inception_5b/relu_3x3_reduce
I0403 16:16:06.867324 20888 net.cpp:91] Creating Layer inception_5b/relu_3x3_reduce
I0403 16:16:06.867352 20888 net.cpp:425] inception_5b/relu_3x3_reduce <- inception_5b/3x3_reduce
I0403 16:16:06.867372 20888 net.cpp:386] inception_5b/relu_3x3_reduce -> inception_5b/3x3_reduce (in-place)
I0403 16:16:06.867580 20888 net.cpp:141] Setting up inception_5b/relu_3x3_reduce
I0403 16:16:06.867606 20888 net.cpp:148] Top shape: 24 192 7 7 (225792)
I0403 16:16:06.867620 20888 net.cpp:156] Memory required for data: 1330660896
I0403 16:16:06.867648 20888 layer_factory.hpp:77] Creating layer inception_5b/3x3
I0403 16:16:06.867671 20888 net.cpp:91] Creating Layer inception_5b/3x3
I0403 16:16:06.867687 20888 net.cpp:425] inception_5b/3x3 <- inception_5b/3x3_reduce
I0403 16:16:06.867720 20888 net.cpp:399] inception_5b/3x3 -> inception_5b/3x3
I0403 16:16:06.874341 20888 net.cpp:141] Setting up inception_5b/3x3
I0403 16:16:06.874373 20888 net.cpp:148] Top shape: 24 384 7 7 (451584)
I0403 16:16:06.874390 20888 net.cpp:156] Memory required for data: 1332467232
I0403 16:16:06.874408 20888 layer_factory.hpp:77] Creating layer inception_5b/relu_3x3
I0403 16:16:06.874426 20888 net.cpp:91] Creating Layer inception_5b/relu_3x3
I0403 16:16:06.874441 20888 net.cpp:425] inception_5b/relu_3x3 <- inception_5b/3x3
I0403 16:16:06.874460 20888 net.cpp:386] inception_5b/relu_3x3 -> inception_5b/3x3 (in-place)
I0403 16:16:06.874750 20888 net.cpp:141] Setting up inception_5b/relu_3x3
I0403 16:16:06.874778 20888 net.cpp:148] Top shape: 24 384 7 7 (451584)
I0403 16:16:06.874794 20888 net.cpp:156] Memory required for data: 1334273568
I0403 16:16:06.874809 20888 layer_factory.hpp:77] Creating layer inception_5b/5x5_reduce
I0403 16:16:06.874846 20888 net.cpp:91] Creating Layer inception_5b/5x5_reduce
I0403 16:16:06.874866 20888 net.cpp:425] inception_5b/5x5_reduce <- inception_5a/output_inception_5a/output_0_split_2
I0403 16:16:06.874883 20888 net.cpp:399] inception_5b/5x5_reduce -> inception_5b/5x5_reduce
I0403 16:16:06.876162 20888 net.cpp:141] Setting up inception_5b/5x5_reduce
I0403 16:16:06.876194 20888 net.cpp:148] Top shape: 24 48 7 7 (56448)
I0403 16:16:06.876210 20888 net.cpp:156] Memory required for data: 1334499360
I0403 16:16:06.876230 20888 layer_factory.hpp:77] Creating layer inception_5b/relu_5x5_reduce
I0403 16:16:06.876248 20888 net.cpp:91] Creating Layer inception_5b/relu_5x5_reduce
I0403 16:16:06.876266 20888 net.cpp:425] inception_5b/relu_5x5_reduce <- inception_5b/5x5_reduce
I0403 16:16:06.876283 20888 net.cpp:386] inception_5b/relu_5x5_reduce -> inception_5b/5x5_reduce (in-place)
I0403 16:16:06.876665 20888 net.cpp:141] Setting up inception_5b/relu_5x5_reduce
I0403 16:16:06.876693 20888 net.cpp:148] Top shape: 24 48 7 7 (56448)
I0403 16:16:06.876709 20888 net.cpp:156] Memory required for data: 1334725152
I0403 16:16:06.876725 20888 layer_factory.hpp:77] Creating layer inception_5b/5x5
I0403 16:16:06.876746 20888 net.cpp:91] Creating Layer inception_5b/5x5
I0403 16:16:06.876765 20888 net.cpp:425] inception_5b/5x5 <- inception_5b/5x5_reduce
I0403 16:16:06.876785 20888 net.cpp:399] inception_5b/5x5 -> inception_5b/5x5
I0403 16:16:06.878887 20888 net.cpp:141] Setting up inception_5b/5x5
I0403 16:16:06.878916 20888 net.cpp:148] Top shape: 24 128 7 7 (150528)
I0403 16:16:06.878933 20888 net.cpp:156] Memory required for data: 1335327264
I0403 16:16:06.878952 20888 layer_factory.hpp:77] Creating layer inception_5b/relu_5x5
I0403 16:16:06.878971 20888 net.cpp:91] Creating Layer inception_5b/relu_5x5
I0403 16:16:06.878988 20888 net.cpp:425] inception_5b/relu_5x5 <- inception_5b/5x5
I0403 16:16:06.879009 20888 net.cpp:386] inception_5b/relu_5x5 -> inception_5b/5x5 (in-place)
I0403 16:16:06.879214 20888 net.cpp:141] Setting up inception_5b/relu_5x5
I0403 16:16:06.879240 20888 net.cpp:148] Top shape: 24 128 7 7 (150528)
I0403 16:16:06.879254 20888 net.cpp:156] Memory required for data: 1335929376
I0403 16:16:06.879268 20888 layer_factory.hpp:77] Creating layer inception_5b/pool
I0403 16:16:06.879288 20888 net.cpp:91] Creating Layer inception_5b/pool
I0403 16:16:06.879305 20888 net.cpp:425] inception_5b/pool <- inception_5a/output_inception_5a/output_0_split_3
I0403 16:16:06.879324 20888 net.cpp:399] inception_5b/pool -> inception_5b/pool
I0403 16:16:06.879398 20888 net.cpp:141] Setting up inception_5b/pool
I0403 16:16:06.879421 20888 net.cpp:148] Top shape: 24 832 7 7 (978432)
I0403 16:16:06.879436 20888 net.cpp:156] Memory required for data: 1339843104
I0403 16:16:06.879451 20888 layer_factory.hpp:77] Creating layer inception_5b/pool_proj
I0403 16:16:06.879472 20888 net.cpp:91] Creating Layer inception_5b/pool_proj
I0403 16:16:06.879490 20888 net.cpp:425] inception_5b/pool_proj <- inception_5b/pool
I0403 16:16:06.879511 20888 net.cpp:399] inception_5b/pool_proj -> inception_5b/pool_proj
I0403 16:16:06.881886 20888 net.cpp:141] Setting up inception_5b/pool_proj
I0403 16:16:06.881921 20888 net.cpp:148] Top shape: 24 128 7 7 (150528)
I0403 16:16:06.881937 20888 net.cpp:156] Memory required for data: 1340445216
I0403 16:16:06.881955 20888 layer_factory.hpp:77] Creating layer inception_5b/relu_pool_proj
I0403 16:16:06.881974 20888 net.cpp:91] Creating Layer inception_5b/relu_pool_proj
I0403 16:16:06.881990 20888 net.cpp:425] inception_5b/relu_pool_proj <- inception_5b/pool_proj
I0403 16:16:06.882010 20888 net.cpp:386] inception_5b/relu_pool_proj -> inception_5b/pool_proj (in-place)
I0403 16:16:06.882333 20888 net.cpp:141] Setting up inception_5b/relu_pool_proj
I0403 16:16:06.882361 20888 net.cpp:148] Top shape: 24 128 7 7 (150528)
I0403 16:16:06.882376 20888 net.cpp:156] Memory required for data: 1341047328
I0403 16:16:06.882416 20888 layer_factory.hpp:77] Creating layer inception_5b/output
I0403 16:16:06.882443 20888 net.cpp:91] Creating Layer inception_5b/output
I0403 16:16:06.882475 20888 net.cpp:425] inception_5b/output <- inception_5b/1x1
I0403 16:16:06.882494 20888 net.cpp:425] inception_5b/output <- inception_5b/3x3
I0403 16:16:06.882510 20888 net.cpp:425] inception_5b/output <- inception_5b/5x5
I0403 16:16:06.882526 20888 net.cpp:425] inception_5b/output <- inception_5b/pool_proj
I0403 16:16:06.882544 20888 net.cpp:399] inception_5b/output -> inception_5b/output
I0403 16:16:06.882612 20888 net.cpp:141] Setting up inception_5b/output
I0403 16:16:06.882637 20888 net.cpp:148] Top shape: 24 1024 7 7 (1204224)
I0403 16:16:06.882652 20888 net.cpp:156] Memory required for data: 1345864224
I0403 16:16:06.882666 20888 layer_factory.hpp:77] Creating layer pool5/7x7_s1
I0403 16:16:06.882685 20888 net.cpp:91] Creating Layer pool5/7x7_s1
I0403 16:16:06.882702 20888 net.cpp:425] pool5/7x7_s1 <- inception_5b/output
I0403 16:16:06.882720 20888 net.cpp:399] pool5/7x7_s1 -> pool5/7x7_s1
I0403 16:16:06.882941 20888 net.cpp:141] Setting up pool5/7x7_s1
I0403 16:16:06.882968 20888 net.cpp:148] Top shape: 24 1024 1 1 (24576)
I0403 16:16:06.882983 20888 net.cpp:156] Memory required for data: 1345962528
I0403 16:16:06.882997 20888 layer_factory.hpp:77] Creating layer pool5/drop_7x7_s1
I0403 16:16:06.883014 20888 net.cpp:91] Creating Layer pool5/drop_7x7_s1
I0403 16:16:06.883031 20888 net.cpp:425] pool5/drop_7x7_s1 <- pool5/7x7_s1
I0403 16:16:06.883054 20888 net.cpp:386] pool5/drop_7x7_s1 -> pool5/7x7_s1 (in-place)
I0403 16:16:06.883107 20888 net.cpp:141] Setting up pool5/drop_7x7_s1
I0403 16:16:06.883133 20888 net.cpp:148] Top shape: 24 1024 1 1 (24576)
I0403 16:16:06.883148 20888 net.cpp:156] Memory required for data: 1346060832
I0403 16:16:06.883163 20888 layer_factory.hpp:77] Creating layer loss3/classifier_plantvillage
I0403 16:16:06.883182 20888 net.cpp:91] Creating Layer loss3/classifier_plantvillage
I0403 16:16:06.883198 20888 net.cpp:425] loss3/classifier_plantvillage <- pool5/7x7_s1
I0403 16:16:06.883219 20888 net.cpp:399] loss3/classifier_plantvillage -> loss3/classifier_plantvillage
I0403 16:16:06.883649 20888 net.cpp:141] Setting up loss3/classifier_plantvillage
I0403 16:16:06.883674 20888 net.cpp:148] Top shape: 24 38 (912)
I0403 16:16:06.883688 20888 net.cpp:156] Memory required for data: 1346064480
I0403 16:16:06.883707 20888 layer_factory.hpp:77] Creating layer loss3/classifier_plantvillage_loss3/classifier_plantvillage_0_split
I0403 16:16:06.883728 20888 net.cpp:91] Creating Layer loss3/classifier_plantvillage_loss3/classifier_plantvillage_0_split
I0403 16:16:06.883744 20888 net.cpp:425] loss3/classifier_plantvillage_loss3/classifier_plantvillage_0_split <- loss3/classifier_plantvillage
I0403 16:16:06.883764 20888 net.cpp:399] loss3/classifier_plantvillage_loss3/classifier_plantvillage_0_split -> loss3/classifier_plantvillage_loss3/classifier_plantvillage_0_split_0
I0403 16:16:06.883782 20888 net.cpp:399] loss3/classifier_plantvillage_loss3/classifier_plantvillage_0_split -> loss3/classifier_plantvillage_loss3/classifier_plantvillage_0_split_1
I0403 16:16:06.883805 20888 net.cpp:399] loss3/classifier_plantvillage_loss3/classifier_plantvillage_0_split -> loss3/classifier_plantvillage_loss3/classifier_plantvillage_0_split_2
I0403 16:16:06.883826 20888 net.cpp:399] loss3/classifier_plantvillage_loss3/classifier_plantvillage_0_split -> loss3/classifier_plantvillage_loss3/classifier_plantvillage_0_split_3
I0403 16:16:06.883925 20888 net.cpp:141] Setting up loss3/classifier_plantvillage_loss3/classifier_plantvillage_0_split
I0403 16:16:06.883949 20888 net.cpp:148] Top shape: 24 38 (912)
I0403 16:16:06.883966 20888 net.cpp:148] Top shape: 24 38 (912)
I0403 16:16:06.883981 20888 net.cpp:148] Top shape: 24 38 (912)
I0403 16:16:06.883997 20888 net.cpp:148] Top shape: 24 38 (912)
I0403 16:16:06.884011 20888 net.cpp:156] Memory required for data: 1346079072
I0403 16:16:06.884024 20888 layer_factory.hpp:77] Creating layer loss1/loss
I0403 16:16:06.884045 20888 net.cpp:91] Creating Layer loss1/loss
I0403 16:16:06.884068 20888 net.cpp:425] loss1/loss <- loss1/classifier_plantvillage_loss1/classifier_plantvillage_0_split_0
I0403 16:16:06.884099 20888 net.cpp:425] loss1/loss <- label_data_1_split_0
…
