…
I0403 15:43:03.417582 20196 net.cpp:313] The NetState phase (1) differed from the phase (0) specified by a rule in layer data
I0403 15:43:03.418704 20196 net.cpp:49] Initializing net from parameters: 
state {
  phase: TEST
}
layer {
  name: "data"
  type: "Data"
  top: "data"
  top: "label"
  include {
    phase: TEST
  }
  transform_param {
    mirror: false
    crop_size: 224
    mean_file: "/home/mohanty/data/final_dataset/lmdb/grayscale-20-80/mean.binaryproto"
  }
  data_param {
    source: "/home/mohanty/data/final_dataset/lmdb/grayscale-20-80/test_db"
    batch_size: 24
    backend: LMDB
  }
}
layer {
  name: "conv1/7x7_s2"
  type: "Convolution"
  bottom: "data"
  top: "conv1/7x7_s2"
  param {
    lr_mult: 1
    decay_mult: 1
  }
  param {
    lr_mult: 2
    decay_mult: 0
  }
  convolution_param {
    num_output: 64
    pad: 3
    kernel_size: 7
    stride: 2
    weight_filler {
      type: "xavier"
      std: 0.1
    }
    bias_filler {
      type: "constant"
      value: 0.2
    }
  }
}
layer {
  name: "conv1/relu_7x7"
  type: "ReLU"
  bottom: "conv1/7x7_s2"
  top: "conv1/7x7_s2"
}
layer {
  name: "pool1/3x3_s2"
  type: "Pooling"
  bottom: "conv1/7x7_s2"
  top: "pool1/3x3_s2"
  pooling_param {
    pool: MAX
    kernel_size: 3
    stride: 2
  }
}
layer {
  name: "pool1/norm1"
  type: "LRN"
  bottom: "pool1/3x3_s2"
  top: "pool1/norm1"
  lrn_param {
    local_size: 5
    alpha: 0.0001
    beta: 0.75
  }
}
layer {
  name: "conv2/3x3_reduce"
  type: "Convolution"
  bottom: "pool1/norm1"
  top: "conv2/3x3_reduce"
  param {
    lr_mult: 1
    decay_mult: 1
  }
  param {
    lr_mult: 2
    decay_mult: 0
  }
  convolution_param {
    num_output: 64
    kernel_size: 1
    weight_filler {
      type: "xavier"
      std: 0.1
    }
    bias_filler {
      type: "constant"
      value: 0.2
    }
  }
}
layer {
  name: "conv2/relu_3x3_reduce"
  type: "ReLU"
  bottom: "conv2/3x3_reduce"
  top: "conv2/3x3_reduce"
}
layer {
  name: "conv2/3x3"
  type: "Convolution"
  bottom: "conv2/3x3_reduce"
  top: "conv2/3x3"
  param {
    lr_mult: 1
    decay_mult: 1
  }
  param {
    lr_mult: 2
    decay_mult: 0
  }
  convolution_param {
    num_output: 192
    pad: 1
    kernel_size: 3
    weight_filler {
      type: "xavier"
      std: 0.03
    }
    bias_filler {
      type: "constant"
      value: 0.2
    }
  }
}
layer {
  name: "conv2/relu_3x3"
  type: "ReLU"
  bottom: "conv2/3x3"
  top: "conv2/3x3"
}
layer {
  name: "conv2/norm2"
  type: "LRN"
  bottom: "conv2/3x3"
  top: "conv2/norm2"
  lrn_param {
    local_size: 5
    alpha: 0.0001
    beta: 0.75
  }
}
layer {
  name: "pool2/3x3_s2"
  type: "Pooling"
  bottom: "conv2/norm2"
  top: "pool2/3x3_s2"
  pooling_param {
    pool: MAX
    kernel_size: 3
    stride: 2
  }
}
layer {
  name: "inception_3a/1x1"
  type: "Convolution"
  bottom: "pool2/3x3_s2"
  top: "inception_3a/1x1"
  param {
    lr_mult: 1
    decay_mult: 1
  }
  param {
    lr_mult: 2
    decay_mult: 0
  }
  convolution_param {
    num_output: 64
    kernel_size: 1
    weight_filler {
      type: "xavier"
      std: 0.03
    }
    bias_filler {
      type: "constant"
      value: 0.2
    }
  }
}
layer {
  name: "inception_3a/relu_1x1"
  type: "ReLU"
  bottom: "inception_3a/1x1"
  top: "inception_3a/1x1"
}
layer {
  name: "inception_3a/3x3_reduce"
  type: "Convolution"
  bottom: "pool2/3x3_s2"
  top: "inception_3a/3x3_reduce"
  param {
    lr_mult: 1
    decay_mult: 1
  }
  param {
    lr_mult: 2
    decay_mult: 0
  }
  convolution_param {
    num_output: 96
    kernel_size: 1
    weight_filler {
      type: "xavier"
      std: 0.09
    }
    bias_filler {
      type: "constant"
      value: 0.2
    }
  }
}
layer {
  name: "inception_3a/relu_3x3_reduce"
  type: "ReLU"
  bottom: "inception_3a/3x3_reduce"
  top: "inception_3a/3x3_reduce"
}
layer {
  name: "inception_3a/3x3"
  type: "Convolution"
  bottom: "inception_3a/3x3_reduce"
  top: "inception_3a/3x3"
  param {
    lr_mult: 1
    decay_mult: 1
  }
  param {
    lr_mult: 2
    decay_mult: 0
  }
  convolution_param {
    num_output: 128
    pad: 1
    kernel_size: 3
    weight_filler {
      type: "xavier"
      std: 0.03
    }
    bias_filler {
      type: "constant"
      value: 0.2
    }
  }
}
layer {
  name: "inception_3a/relu_3x3"
  type: "ReLU"
  bottom: "inception_3a/3x3"
  top: "inception_3a/3x3"
}
layer {
  name: "inception_3a/5x5_reduce"
  type: "Convolution"
  bottom: "pool2/3x3_s2"
  top: "inception_3a/5x5_reduce"
  param {
    lr_mult: 1
    decay_mult: 1
  }
  param {
    lr_mult: 2
    decay_mult: 0
  }
  convolution_param {
    num_output: 16
    kernel_size: 1
    weight_filler {
      type: "xavier"
      std: 0.2
    }
    bias_filler {
      type: "constant"
      value: 0.2
    }
  }
}
layer {
  name: "inception_3a/relu_5x5_reduce"
  type: "ReLU"
  bottom: "inception_3a/5x5_reduce"
  top: "inception_3a/5x5_reduce"
}
layer {
  name: "inception_3a/5x5"
  type: "Convolution"
  bottom: "inception_3a/5x5_reduce"
  top: "inception_3a/5x5"
  param {
    lr_mult: 1
    decay_mult: 1
  }
  param {
    lr_mult: 2
    decay_mult: 0
  }
  convolution_param {
    num_output: 32
    pad: 2
    kernel_size: 5
    weight_filler {
      type: "xavier"
      std: 0.03
    }
    bias_filler {
      type: "constant"
      value: 0.2
    }
  }
}
layer {
  name: "inception_3a/relu_5x5"
  type: "ReLU"
  bottom: "inception_3a/5x5"
  top: "inception_3a/5x5"
}
layer {
  name: "inception_3a/pool"
  type: "Pooling"
  bottom: "pool2/3x3_s2"
  top: "inception_3a/pool"
  pooling_param {
    pool: MAX
    kernel_size: 3
    stride: 1
    pad: 1
  }
}
layer {
  name: "inception_3a/pool_proj"
  type: "Convolution"
  bottom: "inception_3a/pool"
  top: "inception_3a/pool_proj"
  param {
    lr_mult: 1
    decay_mult: 1
  }
  param {
    lr_mult: 2
    decay_mult: 0
  }
  convolution_param {
    num_output: 32
    kernel_size: 1
    weight_filler {
      type: "xavier"
      std: 0.1
    }
    bias_filler {
      type: "constant"
      value: 0.2
    }
  }
}
layer {
  name: "inception_3a/relu_pool_proj"
  type: "ReLU"
  bottom: "inception_3a/pool_proj"
  top: "inception_3a/pool_proj"
}
layer {
  name: "inception_3a/output"
  type: "Concat"
  bottom: "inception_3a/1x1"
  bottom: "inception_3a/3x3"
  bottom: "inception_3a/5x5"
  bottom: "inception_3a/pool_proj"
  top: "inception_3a/output"
}
layer {
  name: "inception_3b/1x1"
  type: "Convolution"
  bottom: "inception_3a/output"
  top: "inception_3b/1x1"
  param {
    lr_mult: 1
    decay_mult: 1
  }
  param {
    lr_mult: 2
    decay_mult: 0
  }
  convolution_param {
    num_output: 128
    kernel_size: 1
    weight_filler {
      type: "xavier"
      std: 0.03
    }
    bias_filler {
      type: "constant"
      value: 0.2
    }
  }
}
layer {
  name: "inception_3b/relu_1x1"
  type: "ReLU"
  bottom: "inception_3b/1x1"
  top: "inception_3b/1x1"
}
layer {
  name: "inception_3b/3x3_reduce"
  type: "Convolution"
  bottom: "inception_3a/output"
  top: "inception_3b/3x3_reduce"
  param {
    lr_mult: 1
    decay_mult: 1
  }
  param {
    lr_mult: 2
    decay_mult: 0
  }
  convolution_param {
    num_output: 128
    kernel_size: 1
    weight_filler {
      type: "xavier"
      std: 0.09
    }
    bias_filler {
      type: "constant"
      value: 0.2
    }
  }
}
layer {
  name: "inception_3b/relu_3x3_reduce"
  type: "ReLU"
  bottom: "inception_3b/3x3_reduce"
  top: "inception_3b/3x3_reduce"
}
layer {
  name: "inception_3b/3x3"
  type: "Convolution"
  bottom: "inception_3b/3x3_reduce"
  top: "inception_3b/3x3"
  param {
    lr_mult: 1
    decay_mult: 1
  }
  param {
    lr_mult: 2
    decay_mult: 0
  }
  convolution_param {
    num_output: 192
    pad: 1
    kernel_size: 3
    weight_filler {
      type: "xavier"
      std: 0.03
    }
    bias_filler {
      type: "constant"
      value: 0.2
    }
  }
}
layer {
  name: "inception_3b/relu_3x3"
  type: "ReLU"
  bottom: "inception_3b/3x3"
  top: "inception_3b/3x3"
}
layer {
  name: "inception_3b/5x5_reduce"
  type: "Convolution"
  bottom: "inception_3a/output"
  top: "inception_3b/5x5_reduce"
  param {
    lr_mult: 1
    decay_mult: 1
  }
  param {
    lr_mult: 2
    decay_mult: 0
  }
  convolution_param {
    num_output: 32
    kernel_size: 1
    weight_filler {
      type: "xavier"
      std: 0.2
    }
    bias_filler {
      type: "constant"
      value: 0.2
    }
  }
}
layer {
  name: "inception_3b/relu_5x5_reduce"
  type: "ReLU"
  bottom: "inception_3b/5x5_reduce"
  top: "inception_3b/5x5_reduce"
}
layer {
  name: "inception_3b/5x5"
  type: "Convolution"
  bottom: "inception_3b/5x5_reduce"
  top: "inception_3b/5x5"
  param {
    lr_mult: 1
    decay_mult: 1
  }
  param {
    lr_mult: 2
    decay_mult: 0
  }
  convolution_param {
    num_output: 96
    pad: 2
    kernel_size: 5
    weight_filler {
      type: "xavier"
      std: 0.03
    }
    bias_filler {
      type: "constant"
      value: 0.2
    }
  }
}
layer {
  name: "inception_3b/relu_5x5"
  type: "ReLU"
  bottom: "inception_3b/5x5"
  top: "inception_3b/5x5"
}
layer {
  name: "inception_3b/pool"
  type: "Pooling"
  bottom: "inception_3a/output"
  top: "inception_3b/pool"
  pooling_param {
    pool: MAX
    kernel_size: 3
    stride: 1
    pad: 1
  }
}
layer {
  name: "inception_3b/pool_proj"
  type: "Convolution"
  bottom: "inception_3b/pool"
  top: "inception_3b/pool_proj"
  param {
    lr_mult: 1
    decay_mult: 1
  }
  param {
    lr_mult: 2
    decay_mult: 0
  }
  convolution_param {
    num_output: 64
    kernel_size: 1
    weight_filler {
      type: "xavier"
      std: 0.1
    }
    bias_filler {
      type: "constant"
      value: 0.2
    }
  }
}
layer {
  name: "inception_3b/relu_pool_proj"
  type: "ReLU"
  bottom: "inception_3b/pool_proj"
  top: "inception_3b/pool_proj"
}
layer {
  name: "inception_3b/output"
  type: "Concat"
  bottom: "inception_3b/1x1"
  bottom: "inception_3b/3x3"
  bottom: "inception_3b/5x5"
  bottom: "inception_3b/pool_proj"
  top: "inception_3b/output"
}
layer {
  name: "pool3/3x3_s2"
  type: "Pooling"
  bottom: "inception_3b/output"
  top: "pool3/3x3_s2"
  pooling_param {
    pool: MAX
    kernel_size: 3
    stride: 2
  }
}
layer {
  name: "inception_4a/1x1"
  type: "Convolution"
  bottom: "pool3/3x3_s2"
  top: "inception_4a/1x1"
  param {
    lr_mult: 1
    decay_mult: 1
  }
  param {
    lr_mult: 2
    decay_mult: 0
  }
  convolution_param {
    num_output: 192
    kernel_size: 1
    weight_filler {
      type: "xavier"
      std: 0.03
    }
    bias_filler {
      type: "constant"
      value: 0.2
    }
  }
}
layer {
  name: "inception_4a/relu_1x1"
  type: "ReLU"
  bottom: "inception_4a/1x1"
  top: "inception_4a/1x1"
}
layer {
  name: "inception_4a/3x3_reduce"
  type: "Convolution"
  bottom: "pool3/3x3_s2"
  top: "inception_4a/3x3_reduce"
  param {
    lr_mult: 1
    decay_mult: 1
  }
  param {
    lr_mult: 2
    decay_mult: 0
  }
  convolution_param {
    num_output: 96
    kernel_size: 1
    weight_filler {
      type: "xavier"
      std: 0.09
    }
    bias_filler {
      type: "constant"
      value: 0.2
    }
  }
}
layer {
  name: "inception_4a/relu_3x3_reduce"
  type: "ReLU"
  bottom: "inception_4a/3x3_reduce"
  top: "inception_4a/3x3_reduce"
}
layer {
  name: "inception_4a/3x3"
  type: "Convolution"
  bottom: "inception_4a/3x3_reduce"
  top: "inception_4a/3x3"
  param {
    lr_mult: 1
    decay_mult: 1
  }
  param {
    lr_mult: 2
    decay_mult: 0
  }
  convolution_param {
    num_output: 208
    pad: 1
    kernel_size: 3
    weight_filler {
      type: "xavier"
      std: 0.03
    }
    bias_filler {
      type: "constant"
      value: 0.2
    }
  }
}
layer {
  name: "inception_4a/relu_3x3"
  type: "ReLU"
  bottom: "inception_4a/3x3"
  top: "inception_4a/3x3"
}
layer {
  name: "inception_4a/5x5_reduce"
  type: "Convolution"
  bottom: "pool3/3x3_s2"
  top: "inception_4a/5x5_reduce"
  param {
    lr_mult: 1
    decay_mult: 1
  }
  param {
    lr_mult: 2
    decay_mult: 0
  }
  convolution_param {
    num_output: 16
    kernel_size: 1
    weight_filler {
      type: "xavier"
      std: 0.2
    }
    bias_filler {
      type: "constant"
      value: 0.2
    }
  }
}
layer {
  name: "inception_4a/relu_5x5_reduce"
  type: "ReLU"
  bottom: "inception_4a/5x5_reduce"
  top: "inception_4a/5x5_reduce"
}
layer {
  name: "inception_4a/5x5"
  type: "Convolution"
  bottom: "inception_4a/5x5_reduce"
  top: "inception_4a/5x5"
  param {
    lr_mult: 1
    decay_mult: 1
  }
  param {
    lr_mult: 2
    decay_mult: 0
  }
  convolution_param {
    num_output: 48
    pad: 2
    kernel_size: 5
    weight_filler {
      type: "xavier"
      std: 0.03
    }
    bias_filler {
      type: "constant"
      value: 0.2
    }
  }
}
layer {
  name: "inception_4a/relu_5x5"
  type: "ReLU"
  bottom: "inception_4a/5x5"
  top: "inception_4a/5x5"
}
layer {
  name: "inception_4a/pool"
  type: "Pooling"
  bottom: "pool3/3x3_s2"
  top: "inception_4a/pool"
  pooling_param {
    pool: MAX
    kernel_size: 3
    stride: 1
    pad: 1
  }
}
layer {
  name: "inception_4a/pool_proj"
  type: "Convolution"
  bottom: "inception_4a/pool"
  top: "inception_4a/pool_proj"
  param {
    lr_mult: 1
    decay_mult: 1
  }
  param {
    lr_mult: 2
    decay_mult: 0
  }
  convolution_param {
    num_output: 64
    kernel_size: 1
    weight_filler {
      type: "xavier"
      std: 0.1
    }
    bias_filler {
      type: "constant"
      value: 0.2
    }
  }
}
layer {
  name: "inception_4a/relu_pool_proj"
  type: "ReLU"
  bottom: "inception_4a/pool_proj"
  top: "inception_4a/pool_proj"
}
layer {
  name: "inception_4a/output"
  type: "Concat"
  bottom: "inception_4a/1x1"
  bottom: "inception_4a/3x3"
  bottom: "inception_4a/5x5"
  bottom: "inception_4a/pool_proj"
  top: "inception_4a/output"
}
layer {
  name: "loss1/ave_pool"
  type: "Pooling"
  bottom: "inception_4a/output"
  top: "loss1/ave_pool"
  pooling_param {
    pool: AVE
    kernel_size: 5
    stride: 3
  }
}
layer {
  name: "loss1/conv"
  type: "Convolution"
  bottom: "loss1/ave_pool"
  top: "loss1/conv"
  param {
    lr_mult: 1
    decay_mult: 1
  }
  param {
    lr_mult: 2
    decay_mult: 0
  }
  convolution_param {
    num_output: 128
    kernel_size: 1
    weight_filler {
      type: "xavier"
      std: 0.08
    }
    bias_filler {
      type: "constant"
      value: 0.2
    }
  }
}
layer {
  name: "loss1/relu_conv"
  type: "ReLU"
  bottom: "loss1/conv"
  top: "loss1/conv"
}
layer {
  name: "loss1/fc"
  type: "InnerProduct"
  bottom: "loss1/conv"
  top: "loss1/fc"
  param {
    lr_mult: 1
    decay_mult: 1
  }
  param {
    lr_mult: 2
    decay_mult: 0
  }
  inner_product_param {
    num_output: 1024
    weight_filler {
      type: "xavier"
      std: 0.02
    }
    bias_filler {
      type: "constant"
      value: 0.2
    }
  }
}
layer {
  name: "loss1/relu_fc"
  type: "ReLU"
  bottom: "loss1/fc"
  top: "loss1/fc"
}
layer {
  name: "loss1/drop_fc"
  type: "Dropout"
  bottom: "loss1/fc"
  top: "loss1/fc"
  dropout_param {
    dropout_ratio: 0.7
  }
}
layer {
  name: "loss1/classifier_plantvillage"
  type: "InnerProduct"
  bottom: "loss1/fc"
  top: "loss1/classifier_plantvillage"
  param {
    lr_mult: 1
    decay_mult: 1
  }
  param {
    lr_mult: 2
    decay_mult: 0
  }
  inner_product_param {
    num_output: 38
    weight_filler {
      type: "xavier"
      std: 0.0009765625
    }
    bias_filler {
      type: "constant"
      value: 0
    }
  }
}
layer {
  name: "inception_4b/1x1"
  type: "Convolution"
  bottom: "inception_4a/output"
  top: "inception_4b/1x1"
  param {
    lr_mult: 1
    decay_mult: 1
  }
  param {
    lr_mult: 2
    decay_mult: 0
  }
  convolution_param {
    num_output: 160
    kernel_size: 1
    weight_filler {
      type: "xavier"
      std: 0.03
    }
    bias_filler {
      type: "constant"
      value: 0.2
    }
  }
}
layer {
  name: "inception_4b/relu_1x1"
  type: "ReLU"
  bottom: "inception_4b/1x1"
  top: "inception_4b/1x1"
}
layer {
  name: "inception_4b/3x3_reduce"
  type: "Convolution"
  bottom: "inception_4a/output"
  top: "inception_4b/3x3_reduce"
  param {
    lr_mult: 1
    decay_mult: 1
  }
  param {
    lr_mult: 2
    decay_mult: 0
  }
  convolution_param {
    num_output: 112
    kernel_size: 1
    weight_filler {
      type: "xavier"
      std: 0.09
    }
    bias_filler {
      type: "constant"
      value: 0.2
    }
  }
}
layer {
  name: "inception_4b/relu_3x3_reduce"
  type: "ReLU"
  bottom: "inception_4b/3x3_reduce"
  top: "inception_4b/3x3_reduce"
}
layer {
  name: "inception_4b/3x3"
  type: "Convolution"
  bottom: "inception_4b/3x3_reduce"
  top: "inception_4b/3x3"
  param {
    lr_mult: 1
    decay_mult: 1
  }
  param {
    lr_mult: 2
    decay_mult: 0
  }
  convolution_param {
    num_output: 224
    pad: 1
    kernel_size: 3
    weight_filler {
      type: "xavier"
      std: 0.03
    }
    bias_filler {
      type: "constant"
      value: 0.2
    }
  }
}
layer {
  name: "inception_4b/relu_3x3"
  type: "ReLU"
  bottom: "inception_4b/3x3"
  top: "inception_4b/3x3"
}
layer {
  name: "inception_4b/5x5_reduce"
  type: "Convolution"
  bottom: "inception_4a/output"
  top: "inception_4b/5x5_reduce"
  param {
    lr_mult: 1
    decay_mult: 1
  }
  param {
    lr_mult: 2
    decay_mult: 0
  }
  convolution_param {
    num_output: 24
    kernel_size: 1
    weight_filler {
      type: "xavier"
      std: 0.2
    }
    bias_filler {
      type: "constant"
      value: 0.2
    }
  }
}
layer {
  name: "inception_4b/relu_5x5_reduce"
  type: "ReLU"
  bottom: "inception_4b/5x5_reduce"
  top: "inception_4b/5x5_reduce"
}
layer {
  name: "inception_4b/5x5"
  type: "Convolution"
  bottom: "inception_4b/5x5_reduce"
  top: "inception_4b/5x5"
  param {
    lr_mult: 1
    decay_mult: 1
  }
  param {
    lr_mult: 2
    decay_mult: 0
  }
  convolution_param {
    num_output: 64
    pad: 2
    kernel_size: 5
    weight_filler {
      type: "xavier"
      std: 0.03
    }
    bias_filler {
      type: "constant"
      value: 0.2
    }
  }
}
layer {
  name: "inception_4b/relu_5x5"
  type: "ReLU"
  bottom: "inception_4b/5x5"
  top: "inception_4b/5x5"
}
layer {
  name: "inception_4b/pool"
  type: "Pooling"
  bottom: "inception_4a/output"
  top: "inception_4b/pool"
  pooling_param {
    pool: MAX
    kernel_size: 3
    stride: 1
    pad: 1
  }
}
layer {
  name: "inception_4b/pool_proj"
  type: "Convolution"
  bottom: "inception_4b/pool"
  top: "inception_4b/pool_proj"
  param {
    lr_mult: 1
    decay_mult: 1
  }
  param {
    lr_mult: 2
    decay_mult: 0
  }
  convolution_param {
    num_output: 64
    kernel_size: 1
    weight_filler {
      type: "xavier"
      std: 0.1
    }
    bias_filler {
      type: "constant"
      value: 0.2
    }
  }
}
layer {
  name: "inception_4b/relu_pool_proj"
  type: "ReLU"
  bottom: "inception_4b/pool_proj"
  top: "inception_4b/pool_proj"
}
layer {
  name: "inception_4b/output"
  type: "Concat"
  bottom: "inception_4b/1x1"
  bottom: "inception_4b/3x3"
  bottom: "inception_4b/5x5"
  bottom: "inception_4b/pool_proj"
  top: "inception_4b/output"
}
layer {
  name: "inception_4c/1x1"
  type: "Convolution"
  bottom: "inception_4b/output"
  top: "inception_4c/1x1"
  param {
    lr_mult: 1
    decay_mult: 1
  }
  param {
    lr_mult: 2
    decay_mult: 0
  }
  convolution_param {
    num_output: 128
    kernel_size: 1
    weight_filler {
      type: "xavier"
      std: 0.03
    }
    bias_filler {
      type: "constant"
      value: 0.2
    }
  }
}
layer {
  name: "inception_4c/relu_1x1"
  type: "ReLU"
  bottom: "inception_4c/1x1"
  top: "inception_4c/1x1"
}
layer {
  name: "inception_4c/3x3_reduce"
  type: "Convolution"
  bottom: "inception_4b/output"
  top: "inception_4c/3x3_reduce"
  param {
    lr_mult: 1
    decay_mult: 1
  }
  param {
    lr_mult: 2
    decay_mult: 0
  }
  convolution_param {
    num_output: 128
    kernel_size: 1
    weight_filler {
      type: "xavier"
      std: 0.09
    }
    bias_filler {
      type: "constant"
      value: 0.2
    }
  }
}
layer {
  name: "inception_4c/relu_3x3_reduce"
  type: "ReLU"
  bottom: "inception_4c/3x3_reduce"
  top: "inception_4c/3x3_reduce"
}
layer {
  name: "inception_4c/3x3"
  type: "Convolution"
  bottom: "inception_4c/3x3_reduce"
  top: "inception_4c/3x3"
  param {
    lr_mult: 1
    decay_mult: 1
  }
  param {
    lr_mult: 2
    decay_mult: 0
  }
  convolution_param {
    num_output: 256
    pad: 1
    kernel_size: 3
    weight_filler {
      type: "xavier"
      std: 0.03
    }
    bias_filler {
      type: "constant"
      value: 0.2
    }
  }
}
layer {
  name: "inception_4c/relu_3x3"
  type: "ReLU"
  bottom: "inception_4c/3x3"
  top: "inception_4c/3x3"
}
layer {
  name: "inception_4c/5x5_reduce"
  type: "Convolution"
  bottom: "inception_4b/output"
  top: "inception_4c/5x5_reduce"
  param {
    lr_mult: 1
    decay_mult: 1
  }
  param {
    lr_mult: 2
    decay_mult: 0
  }
  convolution_param {
    num_output: 24
    kernel_size: 1
    weight_filler {
      type: "xavier"
      std: 0.2
    }
    bias_filler {
      type: "constant"
      value: 0.2
    }
  }
}
layer {
  name: "inception_4c/relu_5x5_reduce"
  type: "ReLU"
  bottom: "inception_4c/5x5_reduce"
  top: "inception_4c/5x5_reduce"
}
layer {
  name: "inception_4c/5x5"
  type: "Convolution"
  bottom: "inception_4c/5x5_reduce"
  top: "inception_4c/5x5"
  param {
    lr_mult: 1
    decay_mult: 1
  }
  param {
    lr_mult: 2
    decay_mult: 0
  }
  convolution_param {
    num_output: 64
    pad: 2
    kernel_size: 5
    weight_filler {
      type: "xavier"
      std: 0.03
    }
    bias_filler {
      type: "constant"
      value: 0.2
    }
  }
}
layer {
  name: "inception_4c/relu_5x5"
  type: "ReLU"
  bottom: "inception_4c/5x5"
  top: "inception_4c/5x5"
}
layer {
  name: "inception_4c/pool"
  type: "Pooling"
  bottom: "inception_4b/output"
  top: "inception_4c/pool"
  pooling_param {
    pool: MAX
    kernel_size: 3
    stride: 1
    pad: 1
  }
}
layer {
  name: "inception_4c/pool_proj"
  type: "Convolution"
  bottom: "inception_4c/pool"
  top: "inception_4c/pool_proj"
  param {
    lr_mult: 1
    decay_mult: 1
  }
  param {
    lr_mult: 2
    decay_mult: 0
  }
  convolution_param {
    num_output: 64
    kernel_size: 1
    weight_filler {
      type: "xavier"
      std: 0.1
    }
    bias_filler {
      type: "constant"
      value: 0.2
    }
  }
}
layer {
  name: "inception_4c/relu_pool_proj"
  type: "ReLU"
  bottom: "inception_4c/pool_proj"
  top: "inception_4c/pool_proj"
}
layer {
  name: "inception_4c/output"
  type: "Concat"
  bottom: "inception_4c/1x1"
  bottom: "inception_4c/3x3"
  bottom: "inception_4c/5x5"
  bottom: "inception_4c/pool_proj"
  top: "inception_4c/output"
}
layer {
  name: "inception_4d/1x1"
  type: "Convolution"
  bottom: "inception_4c/output"
  top: "inception_4d/1x1"
  param {
    lr_mult: 1
    decay_mult: 1
  }
  param {
    lr_mult: 2
    decay_mult: 0
  }
  convolution_param {
    num_output: 112
    kernel_size: 1
    weight_filler {
      type: "xavier"
      std: 0.03
    }
    bias_filler {
      type: "constant"
      value: 0.2
    }
  }
}
layer {
  name: "inception_4d/relu_1x1"
  type: "ReLU"
  bottom: "inception_4d/1x1"
  top: "inception_4d/1x1"
}
layer {
  name: "inception_4d/3x3_reduce"
  type: "Convolution"
  bottom: "inception_4c/output"
  top: "inception_4d/3x3_reduce"
  param {
    lr_mult: 1
    decay_mult: 1
  }
  param {
    lr_mult: 2
    decay_mult: 0
  }
  convolution_param {
    num_output: 144
    kernel_size: 1
    weight_filler {
      type: "xavier"
      std: 0.09
    }
    bias_filler {
      type: "constant"
      value: 0.2
    }
  }
}
layer {
  name: "inception_4d/relu_3x3_reduce"
  type: "ReLU"
  bottom: "inception_4d/3x3_reduce"
  top: "inception_4d/3x3_reduce"
}
layer {
  name: "inception_4d/3x3"
  type: "Convolution"
  bottom: "inception_4d/3x3_reduce"
  top: "inception_4d/3x3"
  param {
    lr_mult: 1
    decay_mult: 1
  }
  param {
    lr_mult: 2
    decay_mult: 0
  }
  convolution_param {
    num_output: 288
    pad: 1
    kernel_size: 3
    weight_filler {
      type: "xavier"
      std: 0.03
    }
    bias_filler {
      type: "constant"
      value: 0.2
    }
  }
}
layer {
  name: "inception_4d/relu_3x3"
  type: "ReLU"
  bottom: "inception_4d/3x3"
  top: "inception_4d/3x3"
}
layer {
  name: "inception_4d/5x5_reduce"
  type: "Convolution"
  bottom: "inception_4c/output"
  top: "inception_4d/5x5_reduce"
  param {
    lr_mult: 1
    decay_mult: 1
  }
  param {
    lr_mult: 2
    decay_mult: 0
  }
  convolution_param {
    num_output: 32
    kernel_size: 1
    weight_filler {
      type: "xavier"
      std: 0.2
    }
    bias_filler {
      type: "constant"
      value: 0.2
    }
  }
}
layer {
  name: "inception_4d/relu_5x5_reduce"
  type: "ReLU"
  bottom: "inception_4d/5x5_reduce"
  top: "inception_4d/5x5_reduce"
}
layer {
  name: "inception_4d/5x5"
  type: "Convolution"
  bottom: "inception_4d/5x5_reduce"
  top: "inception_4d/5x5"
  param {
    lr_mult: 1
    decay_mult: 1
  }
  param {
    lr_mult: 2
    decay_mult: 0
  }
  convolution_param {
    num_output: 64
    pad: 2
    kernel_size: 5
    weight_filler {
      type: "xavier"
      std: 0.03
    }
    bias_filler {
      type: "constant"
      value: 0.2
    }
  }
}
layer {
  name: "inception_4d/relu_5x5"
  type: "ReLU"
  bottom: "inception_4d/5x5"
  top: "inception_4d/5x5"
}
layer {
  name: "inception_4d/pool"
  type: "Pooling"
  bottom: "inception_4c/output"
  top: "inception_4d/pool"
  pooling_param {
    pool: MAX
    kernel_size: 3
    stride: 1
    pad: 1
  }
}
layer {
  name: "inception_4d/pool_proj"
  type: "Convolution"
  bottom: "inception_4d/pool"
  top: "inception_4d/pool_proj"
  param {
    lr_mult: 1
    decay_mult: 1
  }
  param {
    lr_mult: 2
    decay_mult: 0
  }
  convolution_param {
    num_output: 64
    kernel_size: 1
    weight_filler {
      type: "xavier"
      std: 0.1
    }
    bias_filler {
      type: "constant"
      value: 0.2
    }
  }
}
layer {
  name: "inception_4d/relu_pool_proj"
  type: "ReLU"
  bottom: "inception_4d/pool_proj"
  top: "inception_4d/pool_proj"
}
layer {
  name: "inception_4d/output"
  type: "Concat"
  bottom: "inception_4d/1x1"
  bottom: "inception_4d/3x3"
  bottom: "inception_4d/5x5"
  bottom: "inception_4d/pool_proj"
  top: "inception_4d/output"
}
layer {
  name: "loss2/ave_pool"
  type: "Pooling"
  bottom: "inception_4d/output"
  top: "loss2/ave_pool"
  pooling_param {
    pool: AVE
    kernel_size: 5
    stride: 3
  }
}
layer {
  name: "loss2/conv"
  type: "Convolution"
  bottom: "loss2/ave_pool"
  top: "loss2/conv"
  param {
    lr_mult: 1
    decay_mult: 1
  }
  param {
    lr_mult: 2
    decay_mult: 0
  }
  convolution_param {
    num_output: 128
    kernel_size: 1
    weight_filler {
      type: "xavier"
      std: 0.08
    }
    bias_filler {
      type: "constant"
      value: 0.2
    }
  }
}
layer {
  name: "loss2/relu_conv"
  type: "ReLU"
  bottom: "loss2/conv"
  top: "loss2/conv"
}
layer {
  name: "loss2/fc"
  type: "InnerProduct"
  bottom: "loss2/conv"
  top: "loss2/fc"
  param {
    lr_mult: 1
    decay_mult: 1
  }
  param {
    lr_mult: 2
    decay_mult: 0
  }
  inner_product_param {
    num_output: 1024
    weight_filler {
      type: "xavier"
      std: 0.02
    }
    bias_filler {
      type: "constant"
      value: 0.2
    }
  }
}
layer {
  name: "loss2/relu_fc"
  type: "ReLU"
  bottom: "loss2/fc"
  top: "loss2/fc"
}
layer {
  name: "loss2/drop_fc"
  type: "Dropout"
  bottom: "loss2/fc"
  top: "loss2/fc"
  dropout_param {
    dropout_ratio: 0.7
  }
}
layer {
  name: "loss2/classifier_plantvillage"
  type: "InnerProduct"
  bottom: "loss2/fc"
  top: "loss2/classifier_plantvillage"
  param {
    lr_mult: 1
    decay_mult: 1
  }
  param {
    lr_mult: 2
    decay_mult: 0
  }
  inner_product_param {
    num_output: 38
    weight_filler {
      type: "xavier"
      std: 0.0009765625
    }
    bias_filler {
      type: "constant"
      value: 0
    }
  }
}
layer {
  name: "inception_4e/1x1"
  type: "Convolution"
  bottom: "inception_4d/output"
  top: "inception_4e/1x1"
  param {
    lr_mult: 1
    decay_mult: 1
  }
  param {
    lr_mult: 2
    decay_mult: 0
  }
  convolution_param {
    num_output: 256
    kernel_size: 1
    weight_filler {
      type: "xavier"
      std: 0.03
    }
    bias_filler {
      type: "constant"
      value: 0.2
    }
  }
}
layer {
  name: "inception_4e/relu_1x1"
  type: "ReLU"
  bottom: "inception_4e/1x1"
  top: "inception_4e/1x1"
}
layer {
  name: "inception_4e/3x3_reduce"
  type: "Convolution"
  bottom: "inception_4d/output"
  top: "inception_4e/3x3_reduce"
  param {
    lr_mult: 1
    decay_mult: 1
  }
  param {
    lr_mult: 2
    decay_mult: 0
  }
  convolution_param {
    num_output: 160
    kernel_size: 1
    weight_filler {
      type: "xavier"
      std: 0.09
    }
    bias_filler {
      type: "constant"
      value: 0.2
    }
  }
}
layer {
  name: "inception_4e/relu_3x3_reduce"
  type: "ReLU"
  bottom: "inception_4e/3x3_reduce"
  top: "inception_4e/3x3_reduce"
}
layer {
  name: "inception_4e/3x3"
  type: "Convolution"
  bottom: "inception_4e/3x3_reduce"
  top: "inception_4e/3x3"
  param {
    lr_mult: 1
    decay_mult: 1
  }
  param {
    lr_mult: 2
    decay_mult: 0
  }
  convolution_param {
    num_output: 320
    pad: 1
    kernel_size: 3
    weight_filler {
      type: "xavier"
      std: 0.03
    }
    bias_filler {
      type: "constant"
      value: 0.2
    }
  }
}
layer {
  name: "inception_4e/relu_3x3"
  type: "ReLU"
  bottom: "inception_4e/3x3"
  top: "inception_4e/3x3"
}
layer {
  name: "inception_4e/5x5_reduce"
  type: "Convolution"
  bottom: "inception_4d/output"
  top: "inception_4e/5x5_reduce"
  param {
    lr_mult: 1
    decay_mult: 1
  }
  param {
    lr_mult: 2
    decay_mult: 0
  }
  convolution_param {
    num_output: 32
    kernel_size: 1
    weight_filler {
      type: "xavier"
      std: 0.2
    }
    bias_filler {
      type: "constant"
      value: 0.2
    }
  }
}
layer {
  name: "inception_4e/relu_5x5_reduce"
  type: "ReLU"
  bottom: "inception_4e/5x5_reduce"
  top: "inception_4e/5x5_reduce"
}
layer {
  name: "inception_4e/5x5"
  type: "Convolution"
  bottom: "inception_4e/5x5_reduce"
  top: "inception_4e/
I0403 15:43:03.419870 20196 layer_factory.hpp:77] Creating layer data
I0403 15:43:03.420469 20196 net.cpp:91] Creating Layer data
I0403 15:43:03.420502 20196 net.cpp:399] data -> data
I0403 15:43:03.420552 20196 net.cpp:399] data -> label
I0403 15:43:03.420588 20196 data_transformer.cpp:25] Loading mean file from: /home/mohanty/data/final_dataset/lmdb/grayscale-20-80/mean.binaryproto
I0403 15:43:03.421794 20201 db_lmdb.cpp:38] Opened lmdb /home/mohanty/data/final_dataset/lmdb/grayscale-20-80/test_db
I0403 15:43:03.433715 20196 data_layer.cpp:41] output data size: 24,3,224,224
I0403 15:43:03.460912 20196 net.cpp:141] Setting up data
I0403 15:43:03.460969 20196 net.cpp:148] Top shape: 24 3 224 224 (3612672)
I0403 15:43:03.460991 20196 net.cpp:148] Top shape: 24 (24)
I0403 15:43:03.461006 20196 net.cpp:156] Memory required for data: 14450784
I0403 15:43:03.461035 20196 layer_factory.hpp:77] Creating layer label_data_1_split
I0403 15:43:03.461063 20196 net.cpp:91] Creating Layer label_data_1_split
I0403 15:43:03.461082 20196 net.cpp:425] label_data_1_split <- label
I0403 15:43:03.461114 20196 net.cpp:399] label_data_1_split -> label_data_1_split_0
I0403 15:43:03.461141 20196 net.cpp:399] label_data_1_split -> label_data_1_split_1
I0403 15:43:03.461163 20196 net.cpp:399] label_data_1_split -> label_data_1_split_2
I0403 15:43:03.461184 20196 net.cpp:399] label_data_1_split -> label_data_1_split_3
I0403 15:43:03.461202 20196 net.cpp:399] label_data_1_split -> label_data_1_split_4
I0403 15:43:03.461222 20196 net.cpp:399] label_data_1_split -> label_data_1_split_5
I0403 15:43:03.461241 20196 net.cpp:399] label_data_1_split -> label_data_1_split_6
I0403 15:43:03.461261 20196 net.cpp:399] label_data_1_split -> label_data_1_split_7
I0403 15:43:03.461282 20196 net.cpp:399] label_data_1_split -> label_data_1_split_8
I0403 15:43:03.461302 20196 net.cpp:399] label_data_1_split -> label_data_1_split_9
I0403 15:43:03.461418 20196 net.cpp:141] Setting up label_data_1_split
I0403 15:43:03.461441 20196 net.cpp:148] Top shape: 24 (24)
I0403 15:43:03.461458 20196 net.cpp:148] Top shape: 24 (24)
I0403 15:43:03.461474 20196 net.cpp:148] Top shape: 24 (24)
I0403 15:43:03.461490 20196 net.cpp:148] Top shape: 24 (24)
I0403 15:43:03.461506 20196 net.cpp:148] Top shape: 24 (24)
I0403 15:43:03.461522 20196 net.cpp:148] Top shape: 24 (24)
I0403 15:43:03.461537 20196 net.cpp:148] Top shape: 24 (24)
I0403 15:43:03.461554 20196 net.cpp:148] Top shape: 24 (24)
I0403 15:43:03.461570 20196 net.cpp:148] Top shape: 24 (24)
I0403 15:43:03.461585 20196 net.cpp:148] Top shape: 24 (24)
I0403 15:43:03.461629 20196 net.cpp:156] Memory required for data: 14451744
I0403 15:43:03.461645 20196 layer_factory.hpp:77] Creating layer conv1/7x7_s2
I0403 15:43:03.461676 20196 net.cpp:91] Creating Layer conv1/7x7_s2
I0403 15:43:03.461694 20196 net.cpp:425] conv1/7x7_s2 <- data
I0403 15:43:03.461714 20196 net.cpp:399] conv1/7x7_s2 -> conv1/7x7_s2
I0403 15:43:03.594846 20196 net.cpp:141] Setting up conv1/7x7_s2
I0403 15:43:03.594935 20196 net.cpp:148] Top shape: 24 64 112 112 (19267584)
I0403 15:43:03.594954 20196 net.cpp:156] Memory required for data: 91522080
I0403 15:43:03.594983 20196 layer_factory.hpp:77] Creating layer conv1/relu_7x7
I0403 15:43:03.595010 20196 net.cpp:91] Creating Layer conv1/relu_7x7
I0403 15:43:03.595028 20196 net.cpp:425] conv1/relu_7x7 <- conv1/7x7_s2
I0403 15:43:03.595057 20196 net.cpp:386] conv1/relu_7x7 -> conv1/7x7_s2 (in-place)
I0403 15:43:03.595324 20196 net.cpp:141] Setting up conv1/relu_7x7
I0403 15:43:03.595350 20196 net.cpp:148] Top shape: 24 64 112 112 (19267584)
I0403 15:43:03.595366 20196 net.cpp:156] Memory required for data: 168592416
I0403 15:43:03.595381 20196 layer_factory.hpp:77] Creating layer pool1/3x3_s2
I0403 15:43:03.595407 20196 net.cpp:91] Creating Layer pool1/3x3_s2
I0403 15:43:03.595424 20196 net.cpp:425] pool1/3x3_s2 <- conv1/7x7_s2
I0403 15:43:03.595446 20196 net.cpp:399] pool1/3x3_s2 -> pool1/3x3_s2
I0403 15:43:03.595526 20196 net.cpp:141] Setting up pool1/3x3_s2
I0403 15:43:03.595552 20196 net.cpp:148] Top shape: 24 64 56 56 (4816896)
I0403 15:43:03.595567 20196 net.cpp:156] Memory required for data: 187860000
I0403 15:43:03.595582 20196 layer_factory.hpp:77] Creating layer pool1/norm1
I0403 15:43:03.595607 20196 net.cpp:91] Creating Layer pool1/norm1
I0403 15:43:03.595624 20196 net.cpp:425] pool1/norm1 <- pool1/3x3_s2
I0403 15:43:03.595650 20196 net.cpp:399] pool1/norm1 -> pool1/norm1
I0403 15:43:03.595960 20196 net.cpp:141] Setting up pool1/norm1
I0403 15:43:03.595988 20196 net.cpp:148] Top shape: 24 64 56 56 (4816896)
I0403 15:43:03.596004 20196 net.cpp:156] Memory required for data: 207127584
I0403 15:43:03.596019 20196 layer_factory.hpp:77] Creating layer conv2/3x3_reduce
I0403 15:43:03.596045 20196 net.cpp:91] Creating Layer conv2/3x3_reduce
I0403 15:43:03.596068 20196 net.cpp:425] conv2/3x3_reduce <- pool1/norm1
I0403 15:43:03.596091 20196 net.cpp:399] conv2/3x3_reduce -> conv2/3x3_reduce
I0403 15:43:03.597559 20196 net.cpp:141] Setting up conv2/3x3_reduce
I0403 15:43:03.597590 20196 net.cpp:148] Top shape: 24 64 56 56 (4816896)
I0403 15:43:03.597607 20196 net.cpp:156] Memory required for data: 226395168
I0403 15:43:03.597630 20196 layer_factory.hpp:77] Creating layer conv2/relu_3x3_reduce
I0403 15:43:03.597651 20196 net.cpp:91] Creating Layer conv2/relu_3x3_reduce
I0403 15:43:03.597669 20196 net.cpp:425] conv2/relu_3x3_reduce <- conv2/3x3_reduce
I0403 15:43:03.597687 20196 net.cpp:386] conv2/relu_3x3_reduce -> conv2/3x3_reduce (in-place)
I0403 15:43:03.597971 20196 net.cpp:141] Setting up conv2/relu_3x3_reduce
I0403 15:43:03.598000 20196 net.cpp:148] Top shape: 24 64 56 56 (4816896)
I0403 15:43:03.598016 20196 net.cpp:156] Memory required for data: 245662752
I0403 15:43:03.598031 20196 layer_factory.hpp:77] Creating layer conv2/3x3
I0403 15:43:03.598062 20196 net.cpp:91] Creating Layer conv2/3x3
I0403 15:43:03.598083 20196 net.cpp:425] conv2/3x3 <- conv2/3x3_reduce
I0403 15:43:03.598103 20196 net.cpp:399] conv2/3x3 -> conv2/3x3
I0403 15:43:03.600518 20196 net.cpp:141] Setting up conv2/3x3
I0403 15:43:03.600553 20196 net.cpp:148] Top shape: 24 192 56 56 (14450688)
I0403 15:43:03.600571 20196 net.cpp:156] Memory required for data: 303465504
I0403 15:43:03.600594 20196 layer_factory.hpp:77] Creating layer conv2/relu_3x3
I0403 15:43:03.600615 20196 net.cpp:91] Creating Layer conv2/relu_3x3
I0403 15:43:03.600631 20196 net.cpp:425] conv2/relu_3x3 <- conv2/3x3
I0403 15:43:03.600651 20196 net.cpp:386] conv2/relu_3x3 -> conv2/3x3 (in-place)
I0403 15:43:03.600837 20196 net.cpp:141] Setting up conv2/relu_3x3
I0403 15:43:03.600864 20196 net.cpp:148] Top shape: 24 192 56 56 (14450688)
I0403 15:43:03.600910 20196 net.cpp:156] Memory required for data: 361268256
I0403 15:43:03.600926 20196 layer_factory.hpp:77] Creating layer conv2/norm2
I0403 15:43:03.600949 20196 net.cpp:91] Creating Layer conv2/norm2
I0403 15:43:03.600966 20196 net.cpp:425] conv2/norm2 <- conv2/3x3
I0403 15:43:03.600985 20196 net.cpp:399] conv2/norm2 -> conv2/norm2
I0403 15:43:03.601312 20196 net.cpp:141] Setting up conv2/norm2
I0403 15:43:03.601341 20196 net.cpp:148] Top shape: 24 192 56 56 (14450688)
I0403 15:43:03.601356 20196 net.cpp:156] Memory required for data: 419071008
I0403 15:43:03.601372 20196 layer_factory.hpp:77] Creating layer pool2/3x3_s2
I0403 15:43:03.601392 20196 net.cpp:91] Creating Layer pool2/3x3_s2
I0403 15:43:03.601409 20196 net.cpp:425] pool2/3x3_s2 <- conv2/norm2
I0403 15:43:03.601428 20196 net.cpp:399] pool2/3x3_s2 -> pool2/3x3_s2
I0403 15:43:03.601485 20196 net.cpp:141] Setting up pool2/3x3_s2
I0403 15:43:03.601510 20196 net.cpp:148] Top shape: 24 192 28 28 (3612672)
I0403 15:43:03.601524 20196 net.cpp:156] Memory required for data: 433521696
I0403 15:43:03.601541 20196 layer_factory.hpp:77] Creating layer pool2/3x3_s2_pool2/3x3_s2_0_split
I0403 15:43:03.601559 20196 net.cpp:91] Creating Layer pool2/3x3_s2_pool2/3x3_s2_0_split
I0403 15:43:03.601575 20196 net.cpp:425] pool2/3x3_s2_pool2/3x3_s2_0_split <- pool2/3x3_s2
I0403 15:43:03.601595 20196 net.cpp:399] pool2/3x3_s2_pool2/3x3_s2_0_split -> pool2/3x3_s2_pool2/3x3_s2_0_split_0
I0403 15:43:03.601618 20196 net.cpp:399] pool2/3x3_s2_pool2/3x3_s2_0_split -> pool2/3x3_s2_pool2/3x3_s2_0_split_1
I0403 15:43:03.601637 20196 net.cpp:399] pool2/3x3_s2_pool2/3x3_s2_0_split -> pool2/3x3_s2_pool2/3x3_s2_0_split_2
I0403 15:43:03.601657 20196 net.cpp:399] pool2/3x3_s2_pool2/3x3_s2_0_split -> pool2/3x3_s2_pool2/3x3_s2_0_split_3
I0403 15:43:03.601732 20196 net.cpp:141] Setting up pool2/3x3_s2_pool2/3x3_s2_0_split
I0403 15:43:03.601757 20196 net.cpp:148] Top shape: 24 192 28 28 (3612672)
I0403 15:43:03.601773 20196 net.cpp:148] Top shape: 24 192 28 28 (3612672)
I0403 15:43:03.601790 20196 net.cpp:148] Top shape: 24 192 28 28 (3612672)
I0403 15:43:03.601806 20196 net.cpp:148] Top shape: 24 192 28 28 (3612672)
I0403 15:43:03.601821 20196 net.cpp:156] Memory required for data: 491324448
I0403 15:43:03.601836 20196 layer_factory.hpp:77] Creating layer inception_3a/1x1
I0403 15:43:03.601861 20196 net.cpp:91] Creating Layer inception_3a/1x1
I0403 15:43:03.601878 20196 net.cpp:425] inception_3a/1x1 <- pool2/3x3_s2_pool2/3x3_s2_0_split_0
I0403 15:43:03.601902 20196 net.cpp:399] inception_3a/1x1 -> inception_3a/1x1
I0403 15:43:03.603508 20196 net.cpp:141] Setting up inception_3a/1x1
I0403 15:43:03.603543 20196 net.cpp:148] Top shape: 24 64 28 28 (1204224)
I0403 15:43:03.603559 20196 net.cpp:156] Memory required for data: 496141344
I0403 15:43:03.603579 20196 layer_factory.hpp:77] Creating layer inception_3a/relu_1x1
I0403 15:43:03.603598 20196 net.cpp:91] Creating Layer inception_3a/relu_1x1
I0403 15:43:03.603615 20196 net.cpp:425] inception_3a/relu_1x1 <- inception_3a/1x1
I0403 15:43:03.603633 20196 net.cpp:386] inception_3a/relu_1x1 -> inception_3a/1x1 (in-place)
I0403 15:43:03.603814 20196 net.cpp:141] Setting up inception_3a/relu_1x1
I0403 15:43:03.603843 20196 net.cpp:148] Top shape: 24 64 28 28 (1204224)
I0403 15:43:03.603859 20196 net.cpp:156] Memory required for data: 500958240
I0403 15:43:03.603874 20196 layer_factory.hpp:77] Creating layer inception_3a/3x3_reduce
I0403 15:43:03.603899 20196 net.cpp:91] Creating Layer inception_3a/3x3_reduce
I0403 15:43:03.603916 20196 net.cpp:425] inception_3a/3x3_reduce <- pool2/3x3_s2_pool2/3x3_s2_0_split_1
I0403 15:43:03.603938 20196 net.cpp:399] inception_3a/3x3_reduce -> inception_3a/3x3_reduce
I0403 15:43:03.605705 20196 net.cpp:141] Setting up inception_3a/3x3_reduce
I0403 15:43:03.605736 20196 net.cpp:148] Top shape: 24 96 28 28 (1806336)
I0403 15:43:03.605751 20196 net.cpp:156] Memory required for data: 508183584
I0403 15:43:03.605777 20196 layer_factory.hpp:77] Creating layer inception_3a/relu_3x3_reduce
I0403 15:43:03.605815 20196 net.cpp:91] Creating Layer inception_3a/relu_3x3_reduce
I0403 15:43:03.605844 20196 net.cpp:425] inception_3a/relu_3x3_reduce <- inception_3a/3x3_reduce
I0403 15:43:03.605875 20196 net.cpp:386] inception_3a/relu_3x3_reduce -> inception_3a/3x3_reduce (in-place)
I0403 15:43:03.606076 20196 net.cpp:141] Setting up inception_3a/relu_3x3_reduce
I0403 15:43:03.606101 20196 net.cpp:148] Top shape: 24 96 28 28 (1806336)
I0403 15:43:03.606117 20196 net.cpp:156] Memory required for data: 515408928
I0403 15:43:03.606132 20196 layer_factory.hpp:77] Creating layer inception_3a/3x3
I0403 15:43:03.606154 20196 net.cpp:91] Creating Layer inception_3a/3x3
I0403 15:43:03.606173 20196 net.cpp:425] inception_3a/3x3 <- inception_3a/3x3_reduce
I0403 15:43:03.606194 20196 net.cpp:399] inception_3a/3x3 -> inception_3a/3x3
I0403 15:43:03.607882 20196 net.cpp:141] Setting up inception_3a/3x3
I0403 15:43:03.607913 20196 net.cpp:148] Top shape: 24 128 28 28 (2408448)
I0403 15:43:03.607929 20196 net.cpp:156] Memory required for data: 525042720
I0403 15:43:03.607947 20196 layer_factory.hpp:77] Creating layer inception_3a/relu_3x3
I0403 15:43:03.607966 20196 net.cpp:91] Creating Layer inception_3a/relu_3x3
I0403 15:43:03.607983 20196 net.cpp:425] inception_3a/relu_3x3 <- inception_3a/3x3
I0403 15:43:03.608003 20196 net.cpp:386] inception_3a/relu_3x3 -> inception_3a/3x3 (in-place)
I0403 15:43:03.608289 20196 net.cpp:141] Setting up inception_3a/relu_3x3
I0403 15:43:03.608316 20196 net.cpp:148] Top shape: 24 128 28 28 (2408448)
I0403 15:43:03.608332 20196 net.cpp:156] Memory required for data: 534676512
I0403 15:43:03.608347 20196 layer_factory.hpp:77] Creating layer inception_3a/5x5_reduce
I0403 15:43:03.608369 20196 net.cpp:91] Creating Layer inception_3a/5x5_reduce
I0403 15:43:03.608386 20196 net.cpp:425] inception_3a/5x5_reduce <- pool2/3x3_s2_pool2/3x3_s2_0_split_2
I0403 15:43:03.608407 20196 net.cpp:399] inception_3a/5x5_reduce -> inception_3a/5x5_reduce
I0403 15:43:03.609357 20196 net.cpp:141] Setting up inception_3a/5x5_reduce
I0403 15:43:03.609386 20196 net.cpp:148] Top shape: 24 16 28 28 (301056)
I0403 15:43:03.609401 20196 net.cpp:156] Memory required for data: 535880736
I0403 15:43:03.609419 20196 layer_factory.hpp:77] Creating layer inception_3a/relu_5x5_reduce
I0403 15:43:03.609437 20196 net.cpp:91] Creating Layer inception_3a/relu_5x5_reduce
I0403 15:43:03.609452 20196 net.cpp:425] inception_3a/relu_5x5_reduce <- inception_3a/5x5_reduce
I0403 15:43:03.609472 20196 net.cpp:386] inception_3a/relu_5x5_reduce -> inception_3a/5x5_reduce (in-place)
I0403 15:43:03.609765 20196 net.cpp:141] Setting up inception_3a/relu_5x5_reduce
I0403 15:43:03.609791 20196 net.cpp:148] Top shape: 24 16 28 28 (301056)
I0403 15:43:03.609804 20196 net.cpp:156] Memory required for data: 537084960
I0403 15:43:03.609819 20196 layer_factory.hpp:77] Creating layer inception_3a/5x5
I0403 15:43:03.609841 20196 net.cpp:91] Creating Layer inception_3a/5x5
I0403 15:43:03.609858 20196 net.cpp:425] inception_3a/5x5 <- inception_3a/5x5_reduce
I0403 15:43:03.609879 20196 net.cpp:399] inception_3a/5x5 -> inception_3a/5x5
I0403 15:43:03.610869 20196 net.cpp:141] Setting up inception_3a/5x5
I0403 15:43:03.610899 20196 net.cpp:148] Top shape: 24 32 28 28 (602112)
I0403 15:43:03.610915 20196 net.cpp:156] Memory required for data: 539493408
I0403 15:43:03.610934 20196 layer_factory.hpp:77] Creating layer inception_3a/relu_5x5
I0403 15:43:03.610951 20196 net.cpp:91] Creating Layer inception_3a/relu_5x5
I0403 15:43:03.610967 20196 net.cpp:425] inception_3a/relu_5x5 <- inception_3a/5x5
I0403 15:43:03.610985 20196 net.cpp:386] inception_3a/relu_5x5 -> inception_3a/5x5 (in-place)
I0403 15:43:03.611158 20196 net.cpp:141] Setting up inception_3a/relu_5x5
I0403 15:43:03.611183 20196 net.cpp:148] Top shape: 24 32 28 28 (602112)
I0403 15:43:03.611197 20196 net.cpp:156] Memory required for data: 541901856
I0403 15:43:03.611215 20196 layer_factory.hpp:77] Creating layer inception_3a/pool
I0403 15:43:03.611232 20196 net.cpp:91] Creating Layer inception_3a/pool
I0403 15:43:03.611265 20196 net.cpp:425] inception_3a/pool <- pool2/3x3_s2_pool2/3x3_s2_0_split_3
I0403 15:43:03.611287 20196 net.cpp:399] inception_3a/pool -> inception_3a/pool
I0403 15:43:03.611345 20196 net.cpp:141] Setting up inception_3a/pool
I0403 15:43:03.611371 20196 net.cpp:148] Top shape: 24 192 28 28 (3612672)
I0403 15:43:03.611387 20196 net.cpp:156] Memory required for data: 556352544
I0403 15:43:03.611402 20196 layer_factory.hpp:77] Creating layer inception_3a/pool_proj
I0403 15:43:03.611423 20196 net.cpp:91] Creating Layer inception_3a/pool_proj
I0403 15:43:03.611440 20196 net.cpp:425] inception_3a/pool_proj <- inception_3a/pool
I0403 15:43:03.611459 20196 net.cpp:399] inception_3a/pool_proj -> inception_3a/pool_proj
I0403 15:43:03.612416 20196 net.cpp:141] Setting up inception_3a/pool_proj
I0403 15:43:03.612443 20196 net.cpp:148] Top shape: 24 32 28 28 (602112)
I0403 15:43:03.612458 20196 net.cpp:156] Memory required for data: 558760992
I0403 15:43:03.612483 20196 layer_factory.hpp:77] Creating layer inception_3a/relu_pool_proj
I0403 15:43:03.612503 20196 net.cpp:91] Creating Layer inception_3a/relu_pool_proj
I0403 15:43:03.612517 20196 net.cpp:425] inception_3a/relu_pool_proj <- inception_3a/pool_proj
I0403 15:43:03.612536 20196 net.cpp:386] inception_3a/relu_pool_proj -> inception_3a/pool_proj (in-place)
I0403 15:43:03.612808 20196 net.cpp:141] Setting up inception_3a/relu_pool_proj
I0403 15:43:03.612838 20196 net.cpp:148] Top shape: 24 32 28 28 (602112)
I0403 15:43:03.612854 20196 net.cpp:156] Memory required for data: 561169440
I0403 15:43:03.612869 20196 layer_factory.hpp:77] Creating layer inception_3a/output
I0403 15:43:03.612886 20196 net.cpp:91] Creating Layer inception_3a/output
I0403 15:43:03.612901 20196 net.cpp:425] inception_3a/output <- inception_3a/1x1
I0403 15:43:03.612917 20196 net.cpp:425] inception_3a/output <- inception_3a/3x3
I0403 15:43:03.612932 20196 net.cpp:425] inception_3a/output <- inception_3a/5x5
I0403 15:43:03.612948 20196 net.cpp:425] inception_3a/output <- inception_3a/pool_proj
I0403 15:43:03.612965 20196 net.cpp:399] inception_3a/output -> inception_3a/output
I0403 15:43:03.613013 20196 net.cpp:141] Setting up inception_3a/output
I0403 15:43:03.613035 20196 net.cpp:148] Top shape: 24 256 28 28 (4816896)
I0403 15:43:03.613054 20196 net.cpp:156] Memory required for data: 580437024
I0403 15:43:03.613070 20196 layer_factory.hpp:77] Creating layer inception_3a/output_inception_3a/output_0_split
I0403 15:43:03.613090 20196 net.cpp:91] Creating Layer inception_3a/output_inception_3a/output_0_split
I0403 15:43:03.613104 20196 net.cpp:425] inception_3a/output_inception_3a/output_0_split <- inception_3a/output
I0403 15:43:03.613122 20196 net.cpp:399] inception_3a/output_inception_3a/output_0_split -> inception_3a/output_inception_3a/output_0_split_0
I0403 15:43:03.613142 20196 net.cpp:399] inception_3a/output_inception_3a/output_0_split -> inception_3a/output_inception_3a/output_0_split_1
I0403 15:43:03.613165 20196 net.cpp:399] inception_3a/output_inception_3a/output_0_split -> inception_3a/output_inception_3a/output_0_split_2
I0403 15:43:03.613188 20196 net.cpp:399] inception_3a/output_inception_3a/output_0_split -> inception_3a/output_inception_3a/output_0_split_3
I0403 15:43:03.613260 20196 net.cpp:141] Setting up inception_3a/output_inception_3a/output_0_split
I0403 15:43:03.613283 20196 net.cpp:148] Top shape: 24 256 28 28 (4816896)
I0403 15:43:03.613299 20196 net.cpp:148] Top shape: 24 256 28 28 (4816896)
I0403 15:43:03.613314 20196 net.cpp:148] Top shape: 24 256 28 28 (4816896)
I0403 15:43:03.613329 20196 net.cpp:148] Top shape: 24 256 28 28 (4816896)
I0403 15:43:03.613343 20196 net.cpp:156] Memory required for data: 657507360
I0403 15:43:03.613358 20196 layer_factory.hpp:77] Creating layer inception_3b/1x1
I0403 15:43:03.613381 20196 net.cpp:91] Creating Layer inception_3b/1x1
I0403 15:43:03.613399 20196 net.cpp:425] inception_3b/1x1 <- inception_3a/output_inception_3a/output_0_split_0
I0403 15:43:03.613417 20196 net.cpp:399] inception_3b/1x1 -> inception_3b/1x1
I0403 15:43:03.614542 20196 net.cpp:141] Setting up inception_3b/1x1
I0403 15:43:03.614584 20196 net.cpp:148] Top shape: 24 128 28 28 (2408448)
I0403 15:43:03.614600 20196 net.cpp:156] Memory required for data: 667141152
I0403 15:43:03.614619 20196 layer_factory.hpp:77] Creating layer inception_3b/relu_1x1
I0403 15:43:03.614639 20196 net.cpp:91] Creating Layer inception_3b/relu_1x1
I0403 15:43:03.614657 20196 net.cpp:425] inception_3b/relu_1x1 <- inception_3b/1x1
I0403 15:43:03.614675 20196 net.cpp:386] inception_3b/relu_1x1 -> inception_3b/1x1 (in-place)
I0403 15:43:03.614848 20196 net.cpp:141] Setting up inception_3b/relu_1x1
I0403 15:43:03.614874 20196 net.cpp:148] Top shape: 24 128 28 28 (2408448)
I0403 15:43:03.614898 20196 net.cpp:156] Memory required for data: 676774944
I0403 15:43:03.614913 20196 layer_factory.hpp:77] Creating layer inception_3b/3x3_reduce
I0403 15:43:03.614935 20196 net.cpp:91] Creating Layer inception_3b/3x3_reduce
I0403 15:43:03.614953 20196 net.cpp:425] inception_3b/3x3_reduce <- inception_3a/output_inception_3a/output_0_split_1
I0403 15:43:03.614974 20196 net.cpp:399] inception_3b/3x3_reduce -> inception_3b/3x3_reduce
I0403 15:43:03.616107 20196 net.cpp:141] Setting up inception_3b/3x3_reduce
I0403 15:43:03.616135 20196 net.cpp:148] Top shape: 24 128 28 28 (2408448)
I0403 15:43:03.616150 20196 net.cpp:156] Memory required for data: 686408736
I0403 15:43:03.616169 20196 layer_factory.hpp:77] Creating layer inception_3b/relu_3x3_reduce
I0403 15:43:03.616190 20196 net.cpp:91] Creating Layer inception_3b/relu_3x3_reduce
I0403 15:43:03.616210 20196 net.cpp:425] inception_3b/relu_3x3_reduce <- inception_3b/3x3_reduce
I0403 15:43:03.616226 20196 net.cpp:386] inception_3b/relu_3x3_reduce -> inception_3b/3x3_reduce (in-place)
I0403 15:43:03.616395 20196 net.cpp:141] Setting up inception_3b/relu_3x3_reduce
I0403 15:43:03.616421 20196 net.cpp:148] Top shape: 24 128 28 28 (2408448)
I0403 15:43:03.616437 20196 net.cpp:156] Memory required for data: 696042528
I0403 15:43:03.616451 20196 layer_factory.hpp:77] Creating layer inception_3b/3x3
I0403 15:43:03.616477 20196 net.cpp:91] Creating Layer inception_3b/3x3
I0403 15:43:03.616494 20196 net.cpp:425] inception_3b/3x3 <- inception_3b/3x3_reduce
I0403 15:43:03.616514 20196 net.cpp:399] inception_3b/3x3 -> inception_3b/3x3
I0403 15:43:03.619393 20196 net.cpp:141] Setting up inception_3b/3x3
I0403 15:43:03.619424 20196 net.cpp:148] Top shape: 24 192 28 28 (3612672)
I0403 15:43:03.619441 20196 net.cpp:156] Memory required for data: 710493216
I0403 15:43:03.619459 20196 layer_factory.hpp:77] Creating layer inception_3b/relu_3x3
I0403 15:43:03.619477 20196 net.cpp:91] Creating Layer inception_3b/relu_3x3
I0403 15:43:03.619493 20196 net.cpp:425] inception_3b/relu_3x3 <- inception_3b/3x3
I0403 15:43:03.619513 20196 net.cpp:386] inception_3b/relu_3x3 -> inception_3b/3x3 (in-place)
I0403 15:43:03.619787 20196 net.cpp:141] Setting up inception_3b/relu_3x3
I0403 15:43:03.619815 20196 net.cpp:148] Top shape: 24 192 28 28 (3612672)
I0403 15:43:03.619832 20196 net.cpp:156] Memory required for data: 724943904
I0403 15:43:03.619845 20196 layer_factory.hpp:77] Creating layer inception_3b/5x5_reduce
I0403 15:43:03.619868 20196 net.cpp:91] Creating Layer inception_3b/5x5_reduce
I0403 15:43:03.619884 20196 net.cpp:425] inception_3b/5x5_reduce <- inception_3a/output_inception_3a/output_0_split_2
I0403 15:43:03.619904 20196 net.cpp:399] inception_3b/5x5_reduce -> inception_3b/5x5_reduce
I0403 15:43:03.620879 20196 net.cpp:141] Setting up inception_3b/5x5_reduce
I0403 15:43:03.620909 20196 net.cpp:148] Top shape: 24 32 28 28 (602112)
I0403 15:43:03.620925 20196 net.cpp:156] Memory required for data: 727352352
I0403 15:43:03.620944 20196 layer_factory.hpp:77] Creating layer inception_3b/relu_5x5_reduce
I0403 15:43:03.620961 20196 net.cpp:91] Creating Layer inception_3b/relu_5x5_reduce
I0403 15:43:03.620977 20196 net.cpp:425] inception_3b/relu_5x5_reduce <- inception_3b/5x5_reduce
I0403 15:43:03.620993 20196 net.cpp:386] inception_3b/relu_5x5_reduce -> inception_3b/5x5_reduce (in-place)
I0403 15:43:03.621189 20196 net.cpp:141] Setting up inception_3b/relu_5x5_reduce
I0403 15:43:03.621215 20196 net.cpp:148] Top shape: 24 32 28 28 (602112)
I0403 15:43:03.621230 20196 net.cpp:156] Memory required for data: 729760800
I0403 15:43:03.621244 20196 layer_factory.hpp:77] Creating layer inception_3b/5x5
I0403 15:43:03.621268 20196 net.cpp:91] Creating Layer inception_3b/5x5
I0403 15:43:03.621286 20196 net.cpp:425] inception_3b/5x5 <- inception_3b/5x5_reduce
I0403 15:43:03.621307 20196 net.cpp:399] inception_3b/5x5 -> inception_3b/5x5
I0403 15:43:03.623252 20196 net.cpp:141] Setting up inception_3b/5x5
I0403 15:43:03.623281 20196 net.cpp:148] Top shape: 24 96 28 28 (1806336)
I0403 15:43:03.623296 20196 net.cpp:156] Memory required for data: 736986144
I0403 15:43:03.623314 20196 layer_factory.hpp:77] Creating layer inception_3b/relu_5x5
I0403 15:43:03.623335 20196 net.cpp:91] Creating Layer inception_3b/relu_5x5
I0403 15:43:03.623352 20196 net.cpp:425] inception_3b/relu_5x5 <- inception_3b/5x5
I0403 15:43:03.623369 20196 net.cpp:386] inception_3b/relu_5x5 -> inception_3b/5x5 (in-place)
I0403 15:43:03.623558 20196 net.cpp:141] Setting up inception_3b/relu_5x5
I0403 15:43:03.623584 20196 net.cpp:148] Top shape: 24 96 28 28 (1806336)
I0403 15:43:03.623597 20196 net.cpp:156] Memory required for data: 744211488
I0403 15:43:03.623612 20196 layer_factory.hpp:77] Creating layer inception_3b/pool
I0403 15:43:03.623631 20196 net.cpp:91] Creating Layer inception_3b/pool
I0403 15:43:03.623646 20196 net.cpp:425] inception_3b/pool <- inception_3a/output_inception_3a/output_0_split_3
I0403 15:43:03.623663 20196 net.cpp:399] inception_3b/pool -> inception_3b/pool
I0403 15:43:03.623718 20196 net.cpp:141] Setting up inception_3b/pool
I0403 15:43:03.623739 20196 net.cpp:148] Top shape: 24 256 28 28 (4816896)
I0403 15:43:03.623754 20196 net.cpp:156] Memory required for data: 763479072
I0403 15:43:03.623769 20196 layer_factory.hpp:77] Creating layer inception_3b/pool_proj
I0403 15:43:03.623790 20196 net.cpp:91] Creating Layer inception_3b/pool_proj
I0403 15:43:03.623807 20196 net.cpp:425] inception_3b/pool_proj <- inception_3b/pool
I0403 15:43:03.623827 20196 net.cpp:399] inception_3b/pool_proj -> inception_3b/pool_proj
I0403 15:43:03.624868 20196 net.cpp:141] Setting up inception_3b/pool_proj
I0403 15:43:03.624896 20196 net.cpp:148] Top shape: 24 64 28 28 (1204224)
I0403 15:43:03.624910 20196 net.cpp:156] Memory required for data: 768295968
I0403 15:43:03.624929 20196 layer_factory.hpp:77] Creating layer inception_3b/relu_pool_proj
I0403 15:43:03.624949 20196 net.cpp:91] Creating Layer inception_3b/relu_pool_proj
I0403 15:43:03.624966 20196 net.cpp:425] inception_3b/relu_pool_proj <- inception_3b/pool_proj
I0403 15:43:03.624986 20196 net.cpp:386] inception_3b/relu_pool_proj -> inception_3b/pool_proj (in-place)
I0403 15:43:03.625382 20196 net.cpp:141] Setting up inception_3b/relu_pool_proj
I0403 15:43:03.625408 20196 net.cpp:148] Top shape: 24 64 28 28 (1204224)
I0403 15:43:03.625423 20196 net.cpp:156] Memory required for data: 773112864
I0403 15:43:03.625437 20196 layer_factory.hpp:77] Creating layer inception_3b/output
I0403 15:43:03.625454 20196 net.cpp:91] Creating Layer inception_3b/output
I0403 15:43:03.625471 20196 net.cpp:425] inception_3b/output <- inception_3b/1x1
I0403 15:43:03.625488 20196 net.cpp:425] inception_3b/output <- inception_3b/3x3
I0403 15:43:03.625504 20196 net.cpp:425] inception_3b/output <- inception_3b/5x5
I0403 15:43:03.625519 20196 net.cpp:425] inception_3b/output <- inception_3b/pool_proj
I0403 15:43:03.625538 20196 net.cpp:399] inception_3b/output -> inception_3b/output
I0403 15:43:03.625581 20196 net.cpp:141] Setting up inception_3b/output
I0403 15:43:03.625608 20196 net.cpp:148] Top shape: 24 480 28 28 (9031680)
I0403 15:43:03.625623 20196 net.cpp:156] Memory required for data: 809239584
I0403 15:43:03.625638 20196 layer_factory.hpp:77] Creating layer pool3/3x3_s2
I0403 15:43:03.625655 20196 net.cpp:91] Creating Layer pool3/3x3_s2
I0403 15:43:03.625671 20196 net.cpp:425] pool3/3x3_s2 <- inception_3b/output
I0403 15:43:03.625704 20196 net.cpp:399] pool3/3x3_s2 -> pool3/3x3_s2
I0403 15:43:03.625762 20196 net.cpp:141] Setting up pool3/3x3_s2
I0403 15:43:03.625787 20196 net.cpp:148] Top shape: 24 480 14 14 (2257920)
I0403 15:43:03.625800 20196 net.cpp:156] Memory required for data: 818271264
I0403 15:43:03.625814 20196 layer_factory.hpp:77] Creating layer pool3/3x3_s2_pool3/3x3_s2_0_split
I0403 15:43:03.625831 20196 net.cpp:91] Creating Layer pool3/3x3_s2_pool3/3x3_s2_0_split
I0403 15:43:03.625846 20196 net.cpp:425] pool3/3x3_s2_pool3/3x3_s2_0_split <- pool3/3x3_s2
I0403 15:43:03.625864 20196 net.cpp:399] pool3/3x3_s2_pool3/3x3_s2_0_split -> pool3/3x3_s2_pool3/3x3_s2_0_split_0
I0403 15:43:03.625885 20196 net.cpp:399] pool3/3x3_s2_pool3/3x3_s2_0_split -> pool3/3x3_s2_pool3/3x3_s2_0_split_1
I0403 15:43:03.625905 20196 net.cpp:399] pool3/3x3_s2_pool3/3x3_s2_0_split -> pool3/3x3_s2_pool3/3x3_s2_0_split_2
I0403 15:43:03.625926 20196 net.cpp:399] pool3/3x3_s2_pool3/3x3_s2_0_split -> pool3/3x3_s2_pool3/3x3_s2_0_split_3
I0403 15:43:03.626003 20196 net.cpp:141] Setting up pool3/3x3_s2_pool3/3x3_s2_0_split
I0403 15:43:03.626025 20196 net.cpp:148] Top shape: 24 480 14 14 (2257920)
I0403 15:43:03.626041 20196 net.cpp:148] Top shape: 24 480 14 14 (2257920)
I0403 15:43:03.626061 20196 net.cpp:148] Top shape: 24 480 14 14 (2257920)
I0403 15:43:03.626077 20196 net.cpp:148] Top shape: 24 480 14 14 (2257920)
I0403 15:43:03.626091 20196 net.cpp:156] Memory required for data: 854397984
I0403 15:43:03.626106 20196 layer_factory.hpp:77] Creating layer inception_4a/1x1
I0403 15:43:03.626128 20196 net.cpp:91] Creating Layer inception_4a/1x1
I0403 15:43:03.626144 20196 net.cpp:425] inception_4a/1x1 <- pool3/3x3_s2_pool3/3x3_s2_0_split_0
I0403 15:43:03.626165 20196 net.cpp:399] inception_4a/1x1 -> inception_4a/1x1
I0403 15:43:03.627765 20196 net.cpp:141] Setting up inception_4a/1x1
I0403 15:43:03.627794 20196 net.cpp:148] Top shape: 24 192 14 14 (903168)
I0403 15:43:03.627809 20196 net.cpp:156] Memory required for data: 858010656
I0403 15:43:03.627826 20196 layer_factory.hpp:77] Creating layer inception_4a/relu_1x1
I0403 15:43:03.627847 20196 net.cpp:91] Creating Layer inception_4a/relu_1x1
I0403 15:43:03.627866 20196 net.cpp:425] inception_4a/relu_1x1 <- inception_4a/1x1
I0403 15:43:03.627882 20196 net.cpp:386] inception_4a/relu_1x1 -> inception_4a/1x1 (in-place)
I0403 15:43:03.628067 20196 net.cpp:141] Setting up inception_4a/relu_1x1
I0403 15:43:03.628093 20196 net.cpp:148] Top shape: 24 192 14 14 (903168)
I0403 15:43:03.628108 20196 net.cpp:156] Memory required for data: 861623328
I0403 15:43:03.628123 20196 layer_factory.hpp:77] Creating layer inception_4a/3x3_reduce
I0403 15:43:03.628147 20196 net.cpp:91] Creating Layer inception_4a/3x3_reduce
I0403 15:43:03.628165 20196 net.cpp:425] inception_4a/3x3_reduce <- pool3/3x3_s2_pool3/3x3_s2_0_split_1
I0403 15:43:03.628185 20196 net.cpp:399] inception_4a/3x3_reduce -> inception_4a/3x3_reduce
I0403 15:43:03.629498 20196 net.cpp:141] Setting up inception_4a/3x3_reduce
I0403 15:43:03.629526 20196 net.cpp:148] Top shape: 24 96 14 14 (451584)
I0403 15:43:03.629541 20196 net.cpp:156] Memory required for data: 863429664
I0403 15:43:03.629567 20196 layer_factory.hpp:77] Creating layer inception_4a/relu_3x3_reduce
I0403 15:43:03.629587 20196 net.cpp:91] Creating Layer inception_4a/relu_3x3_reduce
I0403 15:43:03.629603 20196 net.cpp:425] inception_4a/relu_3x3_reduce <- inception_4a/3x3_reduce
I0403 15:43:03.629623 20196 net.cpp:386] inception_4a/relu_3x3_reduce -> inception_4a/3x3_reduce (in-place)
I0403 15:43:03.629806 20196 net.cpp:141] Setting up inception_4a/relu_3x3_reduce
I0403 15:43:03.629832 20196 net.cpp:148] Top shape: 24 96 14 14 (451584)
I0403 15:43:03.629847 20196 net.cpp:156] Memory required for data: 865236000
I0403 15:43:03.629860 20196 layer_factory.hpp:77] Creating layer inception_4a/3x3
I0403 15:43:03.629884 20196 net.cpp:91] Creating Layer inception_4a/3x3
I0403 15:43:03.629901 20196 net.cpp:425] inception_4a/3x3 <- inception_4a/3x3_reduce
I0403 15:43:03.629922 20196 net.cpp:399] inception_4a/3x3 -> inception_4a/3x3
I0403 15:43:03.632679 20196 net.cpp:141] Setting up inception_4a/3x3
I0403 15:43:03.632709 20196 net.cpp:148] Top shape: 24 208 14 14 (978432)
I0403 15:43:03.632727 20196 net.cpp:156] Memory required for data: 869149728
I0403 15:43:03.632746 20196 layer_factory.hpp:77] Creating layer inception_4a/relu_3x3
I0403 15:43:03.632766 20196 net.cpp:91] Creating Layer inception_4a/relu_3x3
I0403 15:43:03.632781 20196 net.cpp:425] inception_4a/relu_3x3 <- inception_4a/3x3
I0403 15:43:03.632798 20196 net.cpp:386] inception_4a/relu_3x3 -> inception_4a/3x3 (in-place)
I0403 15:43:03.633090 20196 net.cpp:141] Setting up inception_4a/relu_3x3
I0403 15:43:03.633117 20196 net.cpp:148] Top shape: 24 208 14 14 (978432)
I0403 15:43:03.633136 20196 net.cpp:156] Memory required for data: 873063456
I0403 15:43:03.633152 20196 layer_factory.hpp:77] Creating layer inception_4a/5x5_reduce
I0403 15:43:03.633172 20196 net.cpp:91] Creating Layer inception_4a/5x5_reduce
I0403 15:43:03.633189 20196 net.cpp:425] inception_4a/5x5_reduce <- pool3/3x3_s2_pool3/3x3_s2_0_split_2
I0403 15:43:03.633211 20196 net.cpp:399] inception_4a/5x5_reduce -> inception_4a/5x5_reduce
I0403 15:43:03.634254 20196 net.cpp:141] Setting up inception_4a/5x5_reduce
I0403 15:43:03.634284 20196 net.cpp:148] Top shape: 24 16 14 14 (75264)
I0403 15:43:03.634301 20196 net.cpp:156] Memory required for data: 873364512
I0403 15:43:03.634320 20196 layer_factory.hpp:77] Creating layer inception_4a/relu_5x5_reduce
I0403 15:43:03.634340 20196 net.cpp:91] Creating Layer inception_4a/relu_5x5_reduce
I0403 15:43:03.634356 20196 net.cpp:425] inception_4a/relu_5x5_reduce <- inception_4a/5x5_reduce
I0403 15:43:03.634373 20196 net.cpp:386] inception_4a/relu_5x5_reduce -> inception_4a/5x5_reduce (in-place)
I0403 15:43:03.634557 20196 net.cpp:141] Setting up inception_4a/relu_5x5_reduce
I0403 15:43:03.634582 20196 net.cpp:148] Top shape: 24 16 14 14 (75264)
I0403 15:43:03.634598 20196 net.cpp:156] Memory required for data: 873665568
I0403 15:43:03.634613 20196 layer_factory.hpp:77] Creating layer inception_4a/5x5
I0403 15:43:03.634635 20196 net.cpp:91] Creating Layer inception_4a/5x5
I0403 15:43:03.634654 20196 net.cpp:425] inception_4a/5x5 <- inception_4a/5x5_reduce
I0403 15:43:03.634675 20196 net.cpp:399] inception_4a/5x5 -> inception_4a/5x5
I0403 15:43:03.635773 20196 net.cpp:141] Setting up inception_4a/5x5
I0403 15:43:03.635802 20196 net.cpp:148] Top shape: 24 48 14 14 (225792)
I0403 15:43:03.635818 20196 net.cpp:156] Memory required for data: 874568736
I0403 15:43:03.635836 20196 layer_factory.hpp:77] Creating layer inception_4a/relu_5x5
I0403 15:43:03.635854 20196 net.cpp:91] Creating Layer inception_4a/relu_5x5
I0403 15:43:03.635870 20196 net.cpp:425] inception_4a/relu_5x5 <- inception_4a/5x5
I0403 15:43:03.635890 20196 net.cpp:386] inception_4a/relu_5x5 -> inception_4a/5x5 (in-place)
I0403 15:43:03.636075 20196 net.cpp:141] Setting up inception_4a/relu_5x5
I0403 15:43:03.636101 20196 net.cpp:148] Top shape: 24 48 14 14 (225792)
I0403 15:43:03.636116 20196 net.cpp:156] Memory required for data: 875471904
I0403 15:43:03.636131 20196 layer_factory.hpp:77] Creating layer inception_4a/pool
I0403 15:43:03.636150 20196 net.cpp:91] Creating Layer inception_4a/pool
I0403 15:43:03.636168 20196 net.cpp:425] inception_4a/pool <- pool3/3x3_s2_pool3/3x3_s2_0_split_3
I0403 15:43:03.636186 20196 net.cpp:399] inception_4a/pool -> inception_4a/pool
I0403 15:43:03.636248 20196 net.cpp:141] Setting up inception_4a/pool
I0403 15:43:03.636273 20196 net.cpp:148] Top shape: 24 480 14 14 (2257920)
I0403 15:43:03.636288 20196 net.cpp:156] Memory required for data: 884503584
I0403 15:43:03.636302 20196 layer_factory.hpp:77] Creating layer inception_4a/pool_proj
I0403 15:43:03.636324 20196 net.cpp:91] Creating Layer inception_4a/pool_proj
I0403 15:43:03.636343 20196 net.cpp:425] inception_4a/pool_proj <- inception_4a/pool
I0403 15:43:03.636363 20196 net.cpp:399] inception_4a/pool_proj -> inception_4a/pool_proj
I0403 15:43:03.637562 20196 net.cpp:141] Setting up inception_4a/pool_proj
I0403 15:43:03.637591 20196 net.cpp:148] Top shape: 24 64 14 14 (301056)
I0403 15:43:03.637621 20196 net.cpp:156] Memory required for data: 885707808
I0403 15:43:03.637641 20196 layer_factory.hpp:77] Creating layer inception_4a/relu_pool_proj
I0403 15:43:03.637665 20196 net.cpp:91] Creating Layer inception_4a/relu_pool_proj
I0403 15:43:03.637681 20196 net.cpp:425] inception_4a/relu_pool_proj <- inception_4a/pool_proj
I0403 15:43:03.637699 20196 net.cpp:386] inception_4a/relu_pool_proj -> inception_4a/pool_proj (in-place)
I0403 15:43:03.637987 20196 net.cpp:141] Setting up inception_4a/relu_pool_proj
I0403 15:43:03.638015 20196 net.cpp:148] Top shape: 24 64 14 14 (301056)
I0403 15:43:03.638031 20196 net.cpp:156] Memory required for data: 886912032
I0403 15:43:03.638046 20196 layer_factory.hpp:77] Creating layer inception_4a/output
I0403 15:43:03.638069 20196 net.cpp:91] Creating Layer inception_4a/output
I0403 15:43:03.638085 20196 net.cpp:425] inception_4a/output <- inception_4a/1x1
I0403 15:43:03.638103 20196 net.cpp:425] inception_4a/output <- inception_4a/3x3
I0403 15:43:03.638118 20196 net.cpp:425] inception_4a/output <- inception_4a/5x5
I0403 15:43:03.638134 20196 net.cpp:425] inception_4a/output <- inception_4a/pool_proj
I0403 15:43:03.638154 20196 net.cpp:399] inception_4a/output -> inception_4a/output
I0403 15:43:03.638202 20196 net.cpp:141] Setting up inception_4a/output
I0403 15:43:03.638227 20196 net.cpp:148] Top shape: 24 512 14 14 (2408448)
I0403 15:43:03.638242 20196 net.cpp:156] Memory required for data: 896545824
I0403 15:43:03.638257 20196 layer_factory.hpp:77] Creating layer inception_4a/output_inception_4a/output_0_split
I0403 15:43:03.638274 20196 net.cpp:91] Creating Layer inception_4a/output_inception_4a/output_0_split
I0403 15:43:03.638289 20196 net.cpp:425] inception_4a/output_inception_4a/output_0_split <- inception_4a/output
I0403 15:43:03.638310 20196 net.cpp:399] inception_4a/output_inception_4a/output_0_split -> inception_4a/output_inception_4a/output_0_split_0
I0403 15:43:03.638331 20196 net.cpp:399] inception_4a/output_inception_4a/output_0_split -> inception_4a/output_inception_4a/output_0_split_1
I0403 15:43:03.638352 20196 net.cpp:399] inception_4a/output_inception_4a/output_0_split -> inception_4a/output_inception_4a/output_0_split_2
I0403 15:43:03.638373 20196 net.cpp:399] inception_4a/output_inception_4a/output_0_split -> inception_4a/output_inception_4a/output_0_split_3
I0403 15:43:03.638393 20196 net.cpp:399] inception_4a/output_inception_4a/output_0_split -> inception_4a/output_inception_4a/output_0_split_4
I0403 15:43:03.638487 20196 net.cpp:141] Setting up inception_4a/output_inception_4a/output_0_split
I0403 15:43:03.638514 20196 net.cpp:148] Top shape: 24 512 14 14 (2408448)
I0403 15:43:03.638531 20196 net.cpp:148] Top shape: 24 512 14 14 (2408448)
I0403 15:43:03.638546 20196 net.cpp:148] Top shape: 24 512 14 14 (2408448)
I0403 15:43:03.638562 20196 net.cpp:148] Top shape: 24 512 14 14 (2408448)
I0403 15:43:03.638578 20196 net.cpp:148] Top shape: 24 512 14 14 (2408448)
I0403 15:43:03.638592 20196 net.cpp:156] Memory required for data: 944714784
I0403 15:43:03.638607 20196 layer_factory.hpp:77] Creating layer loss1/ave_pool
I0403 15:43:03.638624 20196 net.cpp:91] Creating Layer loss1/ave_pool
I0403 15:43:03.638640 20196 net.cpp:425] loss1/ave_pool <- inception_4a/output_inception_4a/output_0_split_0
I0403 15:43:03.638659 20196 net.cpp:399] loss1/ave_pool -> loss1/ave_pool
I0403 15:43:03.638871 20196 net.cpp:141] Setting up loss1/ave_pool
I0403 15:43:03.638897 20196 net.cpp:148] Top shape: 24 512 4 4 (196608)
I0403 15:43:03.638912 20196 net.cpp:156] Memory required for data: 945501216
I0403 15:43:03.638927 20196 layer_factory.hpp:77] Creating layer loss1/conv
I0403 15:43:03.638950 20196 net.cpp:91] Creating Layer loss1/conv
I0403 15:43:03.638968 20196 net.cpp:425] loss1/conv <- loss1/ave_pool
I0403 15:43:03.638989 20196 net.cpp:399] loss1/conv -> loss1/conv
I0403 15:43:03.640442 20196 net.cpp:141] Setting up loss1/conv
I0403 15:43:03.640473 20196 net.cpp:148] Top shape: 24 128 4 4 (49152)
I0403 15:43:03.640504 20196 net.cpp:156] Memory required for data: 945697824
I0403 15:43:03.640523 20196 layer_factory.hpp:77] Creating layer loss1/relu_conv
I0403 15:43:03.640543 20196 net.cpp:91] Creating Layer loss1/relu_conv
I0403 15:43:03.640558 20196 net.cpp:425] loss1/relu_conv <- loss1/conv
I0403 15:43:03.640575 20196 net.cpp:386] loss1/relu_conv -> loss1/conv (in-place)
I0403 15:43:03.640862 20196 net.cpp:141] Setting up loss1/relu_conv
I0403 15:43:03.640892 20196 net.cpp:148] Top shape: 24 128 4 4 (49152)
I0403 15:43:03.640908 20196 net.cpp:156] Memory required for data: 945894432
I0403 15:43:03.640923 20196 layer_factory.hpp:77] Creating layer loss1/fc
I0403 15:43:03.640949 20196 net.cpp:91] Creating Layer loss1/fc
I0403 15:43:03.640965 20196 net.cpp:425] loss1/fc <- loss1/conv
I0403 15:43:03.640987 20196 net.cpp:399] loss1/fc -> loss1/fc
I0403 15:43:03.658463 20196 net.cpp:141] Setting up loss1/fc
I0403 15:43:03.658495 20196 net.cpp:148] Top shape: 24 1024 (24576)
I0403 15:43:03.658510 20196 net.cpp:156] Memory required for data: 945992736
I0403 15:43:03.658529 20196 layer_factory.hpp:77] Creating layer loss1/relu_fc
I0403 15:43:03.658548 20196 net.cpp:91] Creating Layer loss1/relu_fc
I0403 15:43:03.658565 20196 net.cpp:425] loss1/relu_fc <- loss1/fc
I0403 15:43:03.658581 20196 net.cpp:386] loss1/relu_fc -> loss1/fc (in-place)
I0403 15:43:03.658764 20196 net.cpp:141] Setting up loss1/relu_fc
I0403 15:43:03.658788 20196 net.cpp:148] Top shape: 24 1024 (24576)
I0403 15:43:03.658802 20196 net.cpp:156] Memory required for data: 946091040
I0403 15:43:03.658818 20196 layer_factory.hpp:77] Creating layer loss1/drop_fc
I0403 15:43:03.658845 20196 net.cpp:91] Creating Layer loss1/drop_fc
I0403 15:43:03.658862 20196 net.cpp:425] loss1/drop_fc <- loss1/fc
I0403 15:43:03.658879 20196 net.cpp:386] loss1/drop_fc -> loss1/fc (in-place)
I0403 15:43:03.658931 20196 net.cpp:141] Setting up loss1/drop_fc
I0403 15:43:03.658953 20196 net.cpp:148] Top shape: 24 1024 (24576)
I0403 15:43:03.658967 20196 net.cpp:156] Memory required for data: 946189344
I0403 15:43:03.658982 20196 layer_factory.hpp:77] Creating layer loss1/classifier_plantvillage
I0403 15:43:03.658998 20196 net.cpp:91] Creating Layer loss1/classifier_plantvillage
I0403 15:43:03.659013 20196 net.cpp:425] loss1/classifier_plantvillage <- loss1/fc
I0403 15:43:03.659034 20196 net.cpp:399] loss1/classifier_plantvillage -> loss1/classifier_plantvillage
I0403 15:43:03.659919 20196 net.cpp:141] Setting up loss1/classifier_plantvillage
I0403 15:43:03.659948 20196 net.cpp:148] Top shape: 24 38 (912)
I0403 15:43:03.659965 20196 net.cpp:156] Memory required for data: 946192992
I0403 15:43:03.659981 20196 layer_factory.hpp:77] Creating layer loss1/classifier_plantvillage_loss1/classifier_plantvillage_0_split
I0403 15:43:03.659999 20196 net.cpp:91] Creating Layer loss1/classifier_plantvillage_loss1/classifier_plantvillage_0_split
I0403 15:43:03.660014 20196 net.cpp:425] loss1/classifier_plantvillage_loss1/classifier_plantvillage_0_split <- loss1/classifier_plantvillage
I0403 15:43:03.660032 20196 net.cpp:399] loss1/classifier_plantvillage_loss1/classifier_plantvillage_0_split -> loss1/classifier_plantvillage_loss1/classifier_plantvillage_0_split_0
I0403 15:43:03.660054 20196 net.cpp:399] loss1/classifier_plantvillage_loss1/classifier_plantvillage_0_split -> loss1/classifier_plantvillage_loss1/classifier_plantvillage_0_split_1
I0403 15:43:03.660075 20196 net.cpp:399] loss1/classifier_plantvillage_loss1/classifier_plantvillage_0_split -> loss1/classifier_plantvillage_loss1/classifier_plantvillage_0_split_2
I0403 15:43:03.660140 20196 net.cpp:141] Setting up loss1/classifier_plantvillage_loss1/classifier_plantvillage_0_split
I0403 15:43:03.660163 20196 net.cpp:148] Top shape: 24 38 (912)
I0403 15:43:03.660178 20196 net.cpp:148] Top shape: 24 38 (912)
I0403 15:43:03.660193 20196 net.cpp:148] Top shape: 24 38 (912)
I0403 15:43:03.660208 20196 net.cpp:156] Memory required for data: 946203936
I0403 15:43:03.660223 20196 layer_factory.hpp:77] Creating layer inception_4b/1x1
I0403 15:43:03.660241 20196 net.cpp:91] Creating Layer inception_4b/1x1
I0403 15:43:03.660274 20196 net.cpp:425] inception_4b/1x1 <- inception_4a/output_inception_4a/output_0_split_1
I0403 15:43:03.660296 20196 net.cpp:399] inception_4b/1x1 -> inception_4b/1x1
I0403 15:43:03.661906 20196 net.cpp:141] Setting up inception_4b/1x1
I0403 15:43:03.661936 20196 net.cpp:148] Top shape: 24 160 14 14 (752640)
I0403 15:43:03.661952 20196 net.cpp:156] Memory required for data: 949214496
I0403 15:43:03.661970 20196 layer_factory.hpp:77] Creating layer inception_4b/relu_1x1
I0403 15:43:03.661988 20196 net.cpp:91] Creating Layer inception_4b/relu_1x1
I0403 15:43:03.662003 20196 net.cpp:425] inception_4b/relu_1x1 <- inception_4b/1x1
I0403 15:43:03.662019 20196 net.cpp:386] inception_4b/relu_1x1 -> inception_4b/1x1 (in-place)
I0403 15:43:03.662195 20196 net.cpp:141] Setting up inception_4b/relu_1x1
I0403 15:43:03.662221 20196 net.cpp:148] Top shape: 24 160 14 14 (752640)
I0403 15:43:03.662235 20196 net.cpp:156] Memory required for data: 952225056
I0403 15:43:03.662248 20196 layer_factory.hpp:77] Creating layer inception_4b/3x3_reduce
I0403 15:43:03.662271 20196 net.cpp:91] Creating Layer inception_4b/3x3_reduce
I0403 15:43:03.662287 20196 net.cpp:425] inception_4b/3x3_reduce <- inception_4a/output_inception_4a/output_0_split_2
I0403 15:43:03.662307 20196 net.cpp:399] inception_4b/3x3_reduce -> inception_4b/3x3_reduce
I0403 15:43:03.663611 20196 net.cpp:141] Setting up inception_4b/3x3_reduce
I0403 15:43:03.663641 20196 net.cpp:148] Top shape: 24 112 14 14 (526848)
I0403 15:43:03.663657 20196 net.cpp:156] Memory required for data: 954332448
I0403 15:43:03.663674 20196 layer_factory.hpp:77] Creating layer inception_4b/relu_3x3_reduce
I0403 15:43:03.663692 20196 net.cpp:91] Creating Layer inception_4b/relu_3x3_reduce
I0403 15:43:03.663707 20196 net.cpp:425] inception_4b/relu_3x3_reduce <- inception_4b/3x3_reduce
I0403 15:43:03.663727 20196 net.cpp:386] inception_4b/relu_3x3_reduce -> inception_4b/3x3_reduce (in-place)
I0403 15:43:03.663998 20196 net.cpp:141] Setting up inception_4b/relu_3x3_reduce
I0403 15:43:03.664026 20196 net.cpp:148] Top shape: 24 112 14 14 (526848)
I0403 15:43:03.664041 20196 net.cpp:156] Memory required for data: 956439840
I0403 15:43:03.664060 20196 layer_factory.hpp:77] Creating layer inception_4b/3x3
I0403 15:43:03.664083 20196 net.cpp:91] Creating Layer inception_4b/3x3
I0403 15:43:03.664099 20196 net.cpp:425] inception_4b/3x3 <- inception_4b/3x3_reduce
I0403 15:43:03.664119 20196 net.cpp:399] inception_4b/3x3 -> inception_4b/3x3
I0403 15:43:03.666996 20196 net.cpp:141] Setting up inception_4b/3x3
I0403 15:43:03.667024 20196 net.cpp:148] Top shape: 24 224 14 14 (1053696)
I0403 15:43:03.667038 20196 net.cpp:156] Memory required for data: 960654624
I0403 15:43:03.667060 20196 layer_factory.hpp:77] Creating layer inception_4b/relu_3x3
I0403 15:43:03.667081 20196 net.cpp:91] Creating Layer inception_4b/relu_3x3
I0403 15:43:03.667098 20196 net.cpp:425] inception_4b/relu_3x3 <- inception_4b/3x3
I0403 15:43:03.667115 20196 net.cpp:386] inception_4b/relu_3x3 -> inception_4b/3x3 (in-place)
I0403 15:43:03.667289 20196 net.cpp:141] Setting up inception_4b/relu_3x3
I0403 15:43:03.667312 20196 net.cpp:148] Top shape: 24 224 14 14 (1053696)
I0403 15:43:03.667326 20196 net.cpp:156] Memory required for data: 964869408
I0403 15:43:03.667340 20196 layer_factory.hpp:77] Creating layer inception_4b/5x5_reduce
I0403 15:43:03.667364 20196 net.cpp:91] Creating Layer inception_4b/5x5_reduce
I0403 15:43:03.667381 20196 net.cpp:425] inception_4b/5x5_reduce <- inception_4a/output_inception_4a/output_0_split_3
I0403 15:43:03.667398 20196 net.cpp:399] inception_4b/5x5_reduce -> inception_4b/5x5_reduce
I0403 15:43:03.668443 20196 net.cpp:141] Setting up inception_4b/5x5_reduce
I0403 15:43:03.668473 20196 net.cpp:148] Top shape: 24 24 14 14 (112896)
I0403 15:43:03.668488 20196 net.cpp:156] Memory required for data: 965320992
I0403 15:43:03.668505 20196 layer_factory.hpp:77] Creating layer inception_4b/relu_5x5_reduce
I0403 15:43:03.668522 20196 net.cpp:91] Creating Layer inception_4b/relu_5x5_reduce
I0403 15:43:03.668555 20196 net.cpp:425] inception_4b/relu_5x5_reduce <- inception_4b/5x5_reduce
I0403 15:43:03.668575 20196 net.cpp:386] inception_4b/relu_5x5_reduce -> inception_4b/5x5_reduce (in-place)
I0403 15:43:03.668751 20196 net.cpp:141] Setting up inception_4b/relu_5x5_reduce
I0403 15:43:03.668776 20196 net.cpp:148] Top shape: 24 24 14 14 (112896)
I0403 15:43:03.668788 20196 net.cpp:156] Memory required for data: 965772576
I0403 15:43:03.668802 20196 layer_factory.hpp:77] Creating layer inception_4b/5x5
I0403 15:43:03.668824 20196 net.cpp:91] Creating Layer inception_4b/5x5
I0403 15:43:03.668843 20196 net.cpp:425] inception_4b/5x5 <- inception_4b/5x5_reduce
I0403 15:43:03.668861 20196 net.cpp:399] inception_4b/5x5 -> inception_4b/5x5
I0403 15:43:03.670058 20196 net.cpp:141] Setting up inception_4b/5x5
I0403 15:43:03.670086 20196 net.cpp:148] Top shape: 24 64 14 14 (301056)
I0403 15:43:03.670101 20196 net.cpp:156] Memory required for data: 966976800
I0403 15:43:03.670120 20196 layer_factory.hpp:77] Creating layer inception_4b/relu_5x5
I0403 15:43:03.670137 20196 net.cpp:91] Creating Layer inception_4b/relu_5x5
I0403 15:43:03.670152 20196 net.cpp:425] inception_4b/relu_5x5 <- inception_4b/5x5
I0403 15:43:03.670168 20196 net.cpp:386] inception_4b/relu_5x5 -> inception_4b/5x5 (in-place)
I0403 15:43:03.670442 20196 net.cpp:141] Setting up inception_4b/relu_5x5
I0403 15:43:03.670469 20196 net.cpp:148] Top shape: 24 64 14 14 (301056)
I0403 15:43:03.670485 20196 net.cpp:156] Memory required for data: 968181024
I0403 15:43:03.670498 20196 layer_factory.hpp:77] Creating layer inception_4b/pool
I0403 15:43:03.670516 20196 net.cpp:91] Creating Layer inception_4b/pool
I0403 15:43:03.670531 20196 net.cpp:425] inception_4b/pool <- inception_4a/output_inception_4a/output_0_split_4
I0403 15:43:03.670548 20196 net.cpp:399] inception_4b/pool -> inception_4b/pool
I0403 15:43:03.670613 20196 net.cpp:141] Setting up inception_4b/pool
I0403 15:43:03.670635 20196 net.cpp:148] Top shape: 24 512 14 14 (2408448)
I0403 15:43:03.670650 20196 net.cpp:156] Memory required for data: 977814816
I0403 15:43:03.670662 20196 layer_factory.hpp:77] Creating layer inception_4b/pool_proj
I0403 15:43:03.670683 20196 net.cpp:91] Creating Layer inception_4b/pool_proj
I0403 15:43:03.670701 20196 net.cpp:425] inception_4b/pool_proj <- inception_4b/pool
I0403 15:43:03.670720 20196 net.cpp:399] inception_4b/pool_proj -> inception_4b/pool_proj
I0403 15:43:03.671885 20196 net.cpp:141] Setting up inception_4b/pool_proj
I0403 15:43:03.671916 20196 net.cpp:148] Top shape: 24 64 14 14 (301056)
I0403 15:43:03.671931 20196 net.cpp:156] Memory required for data: 979019040
I0403 15:43:03.671947 20196 layer_factory.hpp:77] Creating layer inception_4b/relu_pool_proj
I0403 15:43:03.671967 20196 net.cpp:91] Creating Layer inception_4b/relu_pool_proj
I0403 15:43:03.671983 20196 net.cpp:425] inception_4b/relu_pool_proj <- inception_4b/pool_proj
I0403 15:43:03.671999 20196 net.cpp:386] inception_4b/relu_pool_proj -> inception_4b/pool_proj (in-place)
I0403 15:43:03.672183 20196 net.cpp:141] Setting up inception_4b/relu_pool_proj
I0403 15:43:03.672206 20196 net.cpp:148] Top shape: 24 64 14 14 (301056)
I0403 15:43:03.672220 20196 net.cpp:156] Memory required for data: 980223264
I0403 15:43:03.672235 20196 layer_factory.hpp:77] Creating layer inception_4b/output
I0403 15:43:03.672251 20196 net.cpp:91] Creating Layer inception_4b/output
I0403 15:43:03.672266 20196 net.cpp:425] inception_4b/output <- inception_4b/1x1
I0403 15:43:03.672281 20196 net.cpp:425] inception_4b/output <- inception_4b/3x3
I0403 15:43:03.672296 20196 net.cpp:425] inception_4b/output <- inception_4b/5x5
I0403 15:43:03.672310 20196 net.cpp:425] inception_4b/output <- inception_4b/pool_proj
I0403 15:43:03.672328 20196 net.cpp:399] inception_4b/output -> inception_4b/output
I0403 15:43:03.672372 20196 net.cpp:141] Setting up inception_4b/output
I0403 15:43:03.672397 20196 net.cpp:148] Top shape: 24 512 14 14 (2408448)
I0403 15:43:03.672413 20196 net.cpp:156] Memory required for data: 989857056
I0403 15:43:03.672441 20196 layer_factory.hpp:77] Creating layer inception_4b/output_inception_4b/output_0_split
I0403 15:43:03.672458 20196 net.cpp:91] Creating Layer inception_4b/output_inception_4b/output_0_split
I0403 15:43:03.672472 20196 net.cpp:425] inception_4b/output_inception_4b/output_0_split <- inception_4b/output
I0403 15:43:03.672492 20196 net.cpp:399] inception_4b/output_inception_4b/output_0_split -> inception_4b/output_inception_4b/output_0_split_0
I0403 15:43:03.672513 20196 net.cpp:399] inception_4b/output_inception_4b/output_0_split -> inception_4b/output_inception_4b/output_0_split_1
I0403 15:43:03.672533 20196 net.cpp:399] inception_4b/output_inception_4b/output_0_split -> inception_4b/output_inception_4b/output_0_split_2
I0403 15:43:03.672552 20196 net.cpp:399] inception_4b/output_inception_4b/output_0_split -> inception_4b/output_inception_4b/output_0_split_3
I0403 15:43:03.672631 20196 net.cpp:141] Setting up inception_4b/output_inception_4b/output_0_split
I0403 15:43:03.672654 20196 net.cpp:148] Top shape: 24 512 14 14 (2408448)
I0403 15:43:03.672669 20196 net.cpp:148] Top shape: 24 512 14 14 (2408448)
I0403 15:43:03.672685 20196 net.cpp:148] Top shape: 24 512 14 14 (2408448)
I0403 15:43:03.672699 20196 net.cpp:148] Top shape: 24 512 14 14 (2408448)
I0403 15:43:03.672713 20196 net.cpp:156] Memory required for data: 1028392224
I0403 15:43:03.672726 20196 layer_factory.hpp:77] Creating layer inception_4c/1x1
I0403 15:43:03.672747 20196 net.cpp:91] Creating Layer inception_4c/1x1
I0403 15:43:03.672765 20196 net.cpp:425] inception_4c/1x1 <- inception_4b/output_inception_4b/output_0_split_0
I0403 15:43:03.672785 20196 net.cpp:399] inception_4c/1x1 -> inception_4c/1x1
I0403 15:43:03.674247 20196 net.cpp:141] Setting up inception_4c/1x1
I0403 15:43:03.674274 20196 net.cpp:148] Top shape: 24 128 14 14 (602112)
I0403 15:43:03.674290 20196 net.cpp:156] Memory required for data: 1030800672
I0403 15:43:03.674309 20196 layer_factory.hpp:77] Creating layer inception_4c/relu_1x1
I0403 15:43:03.674330 20196 net.cpp:91] Creating Layer inception_4c/relu_1x1
I0403 15:43:03.674347 20196 net.cpp:425] inception_4c/relu_1x1 <- inception_4c/1x1
I0403 15:43:03.674376 20196 net.cpp:386] inception_4c/relu_1x1 -> inception_4c/1x1 (in-place)
I0403 15:43:03.674557 20196 net.cpp:141] Setting up inception_4c/relu_1x1
I0403 15:43:03.674582 20196 net.cpp:148] Top shape: 24 128 14 14 (602112)
I0403 15:43:03.674597 20196 net.cpp:156] Memory required for data: 1033209120
I0403 15:43:03.674610 20196 layer_factory.hpp:77] Creating layer inception_4c/3x3_reduce
I0403 15:43:03.674633 20196 net.cpp:91] Creating Layer inception_4c/3x3_reduce
I0403 15:43:03.674651 20196 net.cpp:425] inception_4c/3x3_reduce <- inception_4b/output_inception_4b/output_0_split_1
I0403 15:43:03.674670 20196 net.cpp:399] inception_4c/3x3_reduce -> inception_4c/3x3_reduce
I0403 15:43:03.676651 20196 net.cpp:141] Setting up inception_4c/3x3_reduce
I0403 15:43:03.676679 20196 net.cpp:148] Top shape: 24 128 14 14 (602112)
I0403 15:43:03.676694 20196 net.cpp:156] Memory required for data: 1035617568
I0403 15:43:03.676712 20196 layer_factory.hpp:77] Creating layer inception_4c/relu_3x3_reduce
I0403 15:43:03.676733 20196 net.cpp:91] Creating Layer inception_4c/relu_3x3_reduce
I0403 15:43:03.676750 20196 net.cpp:425] inception_4c/relu_3x3_reduce <- inception_4c/3x3_reduce
I0403 15:43:03.676769 20196 net.cpp:386] inception_4c/relu_3x3_reduce -> inception_4c/3x3_reduce (in-place)
I0403 15:43:03.677062 20196 net.cpp:141] Setting up inception_4c/relu_3x3_reduce
I0403 15:43:03.677088 20196 net.cpp:148] Top shape: 24 128 14 14 (602112)
I0403 15:43:03.677103 20196 net.cpp:156] Memory required for data: 1038026016
I0403 15:43:03.677117 20196 layer_factory.hpp:77] Creating layer inception_4c/3x3
I0403 15:43:03.677142 20196 net.cpp:91] Creating Layer inception_4c/3x3
I0403 15:43:03.677160 20196 net.cpp:425] inception_4c/3x3 <- inception_4c/3x3_reduce
I0403 15:43:03.677178 20196 net.cpp:399] inception_4c/3x3 -> inception_4c/3x3
I0403 15:43:03.680770 20196 net.cpp:141] Setting up inception_4c/3x3
I0403 15:43:03.680814 20196 net.cpp:148] Top shape: 24 256 14 14 (1204224)
I0403 15:43:03.680830 20196 net.cpp:156] Memory required for data: 1042842912
I0403 15:43:03.680861 20196 layer_factory.hpp:77] Creating layer inception_4c/relu_3x3
I0403 15:43:03.680881 20196 net.cpp:91] Creating Layer inception_4c/relu_3x3
I0403 15:43:03.680897 20196 net.cpp:425] inception_4c/relu_3x3 <- inception_4c/3x3
I0403 15:43:03.680913 20196 net.cpp:386] inception_4c/relu_3x3 -> inception_4c/3x3 (in-place)
I0403 15:43:03.681098 20196 net.cpp:141] Setting up inception_4c/relu_3x3
I0403 15:43:03.681125 20196 net.cpp:148] Top shape: 24 256 14 14 (1204224)
I0403 15:43:03.681141 20196 net.cpp:156] Memory required for data: 1047659808
I0403 15:43:03.681155 20196 layer_factory.hpp:77] Creating layer inception_4c/5x5_reduce
I0403 15:43:03.681179 20196 net.cpp:91] Creating Layer inception_4c/5x5_reduce
I0403 15:43:03.681196 20196 net.cpp:425] inception_4c/5x5_reduce <- inception_4b/output_inception_4b/output_0_split_2
I0403 15:43:03.681216 20196 net.cpp:399] inception_4c/5x5_reduce -> inception_4c/5x5_reduce
I0403 15:43:03.682296 20196 net.cpp:141] Setting up inception_4c/5x5_reduce
I0403 15:43:03.682327 20196 net.cpp:148] Top shape: 24 24 14 14 (112896)
I0403 15:43:03.682343 20196 net.cpp:156] Memory required for data: 1048111392
I0403 15:43:03.682360 20196 layer_factory.hpp:77] Creating layer inception_4c/relu_5x5_reduce
I0403 15:43:03.682379 20196 net.cpp:91] Creating Layer inception_4c/relu_5x5_reduce
I0403 15:43:03.682394 20196 net.cpp:425] inception_4c/relu_5x5_reduce <- inception_4c/5x5_reduce
I0403 15:43:03.682413 20196 net.cpp:386] inception_4c/relu_5x5_reduce -> inception_4c/5x5_reduce (in-place)
I0403 15:43:03.682596 20196 net.cpp:141] Setting up inception_4c/relu_5x5_reduce
I0403 15:43:03.682621 20196 net.cpp:148] Top shape: 24 24 14 14 (112896)
I0403 15:43:03.682636 20196 net.cpp:156] Memory required for data: 1048562976
I0403 15:43:03.682651 20196 layer_factory.hpp:77] Creating layer inception_4c/5x5
I0403 15:43:03.682672 20196 net.cpp:91] Creating Layer inception_4c/5x5
I0403 15:43:03.682689 20196 net.cpp:425] inception_4c/5x5 <- inception_4c/5x5_reduce
I0403 15:43:03.682710 20196 net.cpp:399] inception_4c/5x5 -> inception_4c/5x5
I0403 15:43:03.683948 20196 net.cpp:141] Setting up inception_4c/5x5
I0403 15:43:03.683975 20196 net.cpp:148] Top shape: 24 64 14 14 (301056)
I0403 15:43:03.683990 20196 net.cpp:156] Memory required for data: 1049767200
I0403 15:43:03.684007 20196 layer_factory.hpp:77] Creating layer inception_4c/relu_5x5
I0403 15:43:03.684028 20196 net.cpp:91] Creating Layer inception_4c/relu_5x5
I0403 15:43:03.684044 20196 net.cpp:425] inception_4c/relu_5x5 <- inception_4c/5x5
I0403 15:43:03.684067 20196 net.cpp:386] inception_4c/relu_5x5 -> inception_4c/5x5 (in-place)
I0403 15:43:03.684355 20196 net.cpp:141] Setting up inception_4c/relu_5x5
I0403 15:43:03.684381 20196 net.cpp:148] Top shape: 24 64 14 14 (301056)
I0403 15:43:03.684396 20196 net.cpp:156] Memory required for data: 1050971424
I0403 15:43:03.684409 20196 layer_factory.hpp:77] Creating layer inception_4c/pool
I0403 15:43:03.684427 20196 net.cpp:91] Creating Layer inception_4c/pool
I0403 15:43:03.684442 20196 net.cpp:425] inception_4c/pool <- inception_4b/output_inception_4b/output_0_split_3
I0403 15:43:03.684463 20196 net.cpp:399] inception_4c/pool -> inception_4c/pool
I0403 15:43:03.684526 20196 net.cpp:141] Setting up inception_4c/pool
I0403 15:43:03.684551 20196 net.cpp:148] Top shape: 24 512 14 14 (2408448)
I0403 15:43:03.684566 20196 net.cpp:156] Memory required for data: 1060605216
I0403 15:43:03.684581 20196 layer_factory.hpp:77] Creating layer inception_4c/pool_proj
I0403 15:43:03.684602 20196 net.cpp:91] Creating Layer inception_4c/pool_proj
I0403 15:43:03.684619 20196 net.cpp:425] inception_4c/pool_proj <- inception_4c/pool
I0403 15:43:03.684638 20196 net.cpp:399] inception_4c/pool_proj -> inception_4c/pool_proj
I0403 15:43:03.685889 20196 net.cpp:141] Setting up inception_4c/pool_proj
I0403 15:43:03.685921 20196 net.cpp:148] Top shape: 24 64 14 14 (301056)
I0403 15:43:03.685951 20196 net.cpp:156] Memory required for data: 1061809440
I0403 15:43:03.685971 20196 layer_factory.hpp:77] Creating layer inception_4c/relu_pool_proj
I0403 15:43:03.685991 20196 net.cpp:91] Creating Layer inception_4c/relu_pool_proj
I0403 15:43:03.686007 20196 net.cpp:425] inception_4c/relu_pool_proj <- inception_4c/pool_proj
I0403 15:43:03.686023 20196 net.cpp:386] inception_4c/relu_pool_proj -> inception_4c/pool_proj (in-place)
I0403 15:43:03.686218 20196 net.cpp:141] Setting up inception_4c/relu_pool_proj
I0403 15:43:03.686245 20196 net.cpp:148] Top shape: 24 64 14 14 (301056)
I0403 15:43:03.686259 20196 net.cpp:156] Memory required for data: 1063013664
I0403 15:43:03.686275 20196 layer_factory.hpp:77] Creating layer inception_4c/output
I0403 15:43:03.686292 20196 net.cpp:91] Creating Layer inception_4c/output
I0403 15:43:03.686308 20196 net.cpp:425] inception_4c/output <- inception_4c/1x1
I0403 15:43:03.686326 20196 net.cpp:425] inception_4c/output <- inception_4c/3x3
I0403 15:43:03.686342 20196 net.cpp:425] inception_4c/output <- inception_4c/5x5
I0403 15:43:03.686357 20196 net.cpp:425] inception_4c/output <- inception_4c/pool_proj
I0403 15:43:03.686378 20196 net.cpp:399] inception_4c/output -> inception_4c/output
I0403 15:43:03.686424 20196 net.cpp:141] Setting up inception_4c/output
I0403 15:43:03.686450 20196 net.cpp:148] Top shape: 24 512 14 14 (2408448)
I0403 15:43:03.686466 20196 net.cpp:156] Memory required for data: 1072647456
I0403 15:43:03.686481 20196 layer_factory.hpp:77] Creating layer inception_4c/output_inception_4c/output_0_split
I0403 15:43:03.686498 20196 net.cpp:91] Creating Layer inception_4c/output_inception_4c/output_0_split
I0403 15:43:03.686513 20196 net.cpp:425] inception_4c/output_inception_4c/output_0_split <- inception_4c/output
I0403 15:43:03.686532 20196 net.cpp:399] inception_4c/output_inception_4c/output_0_split -> inception_4c/output_inception_4c/output_0_split_0
I0403 15:43:03.686555 20196 net.cpp:399] inception_4c/output_inception_4c/output_0_split -> inception_4c/output_inception_4c/output_0_split_1
I0403 15:43:03.686576 20196 net.cpp:399] inception_4c/output_inception_4c/output_0_split -> inception_4c/output_inception_4c/output_0_split_2
I0403 15:43:03.686596 20196 net.cpp:399] inception_4c/output_inception_4c/output_0_split -> inception_4c/output_inception_4c/output_0_split_3
I0403 15:43:03.686683 20196 net.cpp:141] Setting up inception_4c/output_inception_4c/output_0_split
I0403 15:43:03.686707 20196 net.cpp:148] Top shape: 24 512 14 14 (2408448)
I0403 15:43:03.686723 20196 net.cpp:148] Top shape: 24 512 14 14 (2408448)
I0403 15:43:03.686739 20196 net.cpp:148] Top shape: 24 512 14 14 (2408448)
I0403 15:43:03.686755 20196 net.cpp:148] Top shape: 24 512 14 14 (2408448)
I0403 15:43:03.686769 20196 net.cpp:156] Memory required for data: 1111182624
I0403 15:43:03.686784 20196 layer_factory.hpp:77] Creating layer inception_4d/1x1
I0403 15:43:03.686807 20196 net.cpp:91] Creating Layer inception_4d/1x1
I0403 15:43:03.686825 20196 net.cpp:425] inception_4d/1x1 <- inception_4c/output_inception_4c/output_0_split_0
I0403 15:43:03.686846 20196 net.cpp:399] inception_4d/1x1 -> inception_4d/1x1
I0403 15:43:03.688277 20196 net.cpp:141] Setting up inception_4d/1x1
I0403 15:43:03.688305 20196 net.cpp:148] Top shape: 24 112 14 14 (526848)
I0403 15:43:03.688320 20196 net.cpp:156] Memory required for data: 1113290016
I0403 15:43:03.688339 20196 layer_factory.hpp:77] Creating layer inception_4d/relu_1x1
I0403 15:43:03.688361 20196 net.cpp:91] Creating Layer inception_4d/relu_1x1
I0403 15:43:03.688379 20196 net.cpp:425] inception_4d/relu_1x1 <- inception_4d/1x1
I0403 15:43:03.688396 20196 net.cpp:386] inception_4d/relu_1x1 -> inception_4d/1x1 (in-place)
I0403 15:43:03.688585 20196 net.cpp:141] Setting up inception_4d/relu_1x1
I0403 15:43:03.688613 20196 net.cpp:148] Top shape: 24 112 14 14 (526848)
I0403 15:43:03.688628 20196 net.cpp:156] Memory required for data: 1115397408
I0403 15:43:03.688643 20196 layer_factory.hpp:77] Creating layer inception_4d/3x3_reduce
I0403 15:43:03.688680 20196 net.cpp:91] Creating Layer inception_4d/3x3_reduce
I0403 15:43:03.688700 20196 net.cpp:425] inception_4d/3x3_reduce <- inception_4c/output_inception_4c/output_0_split_1
I0403 15:43:03.688719 20196 net.cpp:399] inception_4d/3x3_reduce -> inception_4d/3x3_reduce
I0403 15:43:03.690289 20196 net.cpp:141] Setting up inception_4d/3x3_reduce
I0403 15:43:03.690317 20196 net.cpp:148] Top shape: 24 144 14 14 (677376)
I0403 15:43:03.690333 20196 net.cpp:156] Memory required for data: 1118106912
I0403 15:43:03.690352 20196 layer_factory.hpp:77] Creating layer inception_4d/relu_3x3_reduce
I0403 15:43:03.690371 20196 net.cpp:91] Creating Layer inception_4d/relu_3x3_reduce
I0403 15:43:03.690387 20196 net.cpp:425] inception_4d/relu_3x3_reduce <- inception_4d/3x3_reduce
I0403 15:43:03.690407 20196 net.cpp:386] inception_4d/relu_3x3_reduce -> inception_4d/3x3_reduce (in-place)
I0403 15:43:03.690709 20196 net.cpp:141] Setting up inception_4d/relu_3x3_reduce
I0403 15:43:03.690737 20196 net.cpp:148] Top shape: 24 144 14 14 (677376)
I0403 15:43:03.690752 20196 net.cpp:156] Memory required for data: 1120816416
I0403 15:43:03.690768 20196 layer_factory.hpp:77] Creating layer inception_4d/3x3
I0403 15:43:03.690790 20196 net.cpp:91] Creating Layer inception_4d/3x3
I0403 15:43:03.690809 20196 net.cpp:425] inception_4d/3x3 <- inception_4d/3x3_reduce
I0403 15:43:03.690829 20196 net.cpp:399] inception_4d/3x3 -> inception_4d/3x3
I0403 15:43:03.695112 20196 net.cpp:141] Setting up inception_4d/3x3
I0403 15:43:03.695142 20196 net.cpp:148] Top shape: 24 288 14 14 (1354752)
I0403 15:43:03.695157 20196 net.cpp:156] Memory required for data: 1126235424
I0403 15:43:03.695174 20196 layer_factory.hpp:77] Creating layer inception_4d/relu_3x3
I0403 15:43:03.695194 20196 net.cpp:91] Creating Layer inception_4d/relu_3x3
I0403 15:43:03.695214 20196 net.cpp:425] inception_4d/relu_3x3 <- inception_4d/3x3
I0403 15:43:03.695231 20196 net.cpp:386] inception_4d/relu_3x3 -> inception_4d/3x3 (in-place)
I0403 15:43:03.695411 20196 net.cpp:141] Setting up inception_4d/relu_3x3
I0403 15:43:03.695438 20196 net.cpp:148] Top shape: 24 288 14 14 (1354752)
I0403 15:43:03.695453 20196 net.cpp:156] Memory required for data: 1131654432
I0403 15:43:03.695468 20196 layer_factory.hpp:77] Creating layer inception_4d/5x5_reduce
I0403 15:43:03.695489 20196 net.cpp:91] Creating Layer inception_4d/5x5_reduce
I0403 15:43:03.695508 20196 net.cpp:425] inception_4d/5x5_reduce <- inception_4c/output_inception_4c/output_0_split_2
I0403 15:43:03.695528 20196 net.cpp:399] inception_4d/5x5_reduce -> inception_4d/5x5_reduce
I0403 15:43:03.696674 20196 net.cpp:141] Setting up inception_4d/5x5_reduce
I0403 15:43:03.696702 20196 net.cpp:148] Top shape: 24 32 14 14 (150528)
I0403 15:43:03.696717 20196 net.cpp:156] Memory required for data: 1132256544
I0403 15:43:03.696734 20196 layer_factory.hpp:77] Creating layer inception_4d/relu_5x5_reduce
I0403 15:43:03.696754 20196 net.cpp:91] Creating Layer inception_4d/relu_5x5_reduce
I0403 15:43:03.696771 20196 net.cpp:425] inception_4d/relu_5x5_reduce <- inception_4d/5x5_reduce
I0403 15:43:03.696789 20196 net.cpp:386] inception_4d/relu_5x5_reduce -> inception_4d/5x5_reduce (in-place)
I0403 15:43:03.696974 20196 net.cpp:141] Setting up inception_4d/relu_5x5_reduce
I0403 15:43:03.697001 20196 net.cpp:148] Top shape: 24 32 14 14 (150528)
I0403 15:43:03.697016 20196 net.cpp:156] Memory required for data: 1132858656
I0403 15:43:03.697031 20196 layer_factory.hpp:77] Creating layer inception_4d/5x5
I0403 15:43:03.697057 20196 net.cpp:91] Creating Layer inception_4d/5x5
I0403 15:43:03.697074 20196 net.cpp:425] inception_4d/5x5 <- inception_4d/5x5_reduce
I0403 15:43:03.697093 20196 net.cpp:399] inception_4d/5x5 -> inception_4d/5x5
I0403 15:43:03.698566 20196 net.cpp:141] Setting up inception_4d/5x5
I0403 15:43:03.698596 20196 net.cpp:148] Top shape: 24 64 14 14 (301056)
I0403 15:43:03.698612 20196 net.cpp:156] Memory required for data: 1134062880
I0403 15:43:03.698632 20196 layer_factory.hpp:77] Creating layer inception_4d/relu_5x5
I0403 15:43:03.698664 20196 net.cpp:91] Creating Layer inception_4d/relu_5x5
I0403 15:43:03.698681 20196 net.cpp:425] inception_4d/relu_5x5 <- inception_4d/5x5
I0403 15:43:03.698703 20196 net.cpp:386] inception_4d/relu_5x5 -> inception_4d/5x5 (in-place)
I0403 15:43:03.699002 20196 net.cpp:141] Setting up inception_4d/relu_5x5
I0403 15:43:03.699029 20196 net.cpp:148] Top shape: 24 64 14 14 (301056)
I0403 15:43:03.699045 20196 net.cpp:156] Memory required for data: 1135267104
I0403 15:43:03.699072 20196 layer_factory.hpp:77] Creating layer inception_4d/pool
I0403 15:43:03.699090 20196 net.cpp:91] Creating Layer inception_4d/pool
I0403 15:43:03.699106 20196 net.cpp:425] inception_4d/pool <- inception_4c/output_inception_4c/output_0_split_3
I0403 15:43:03.699126 20196 net.cpp:399] inception_4d/pool -> inception_4d/pool
I0403 15:43:03.699193 20196 net.cpp:141] Setting up inception_4d/pool
I0403 15:43:03.699219 20196 net.cpp:148] Top shape: 24 512 14 14 (2408448)
I0403 15:43:03.699237 20196 net.cpp:156] Memory required for data: 1144900896
I0403 15:43:03.699251 20196 layer_factory.hpp:77] Creating layer inception_4d/pool_proj
I0403 15:43:03.699273 20196 net.cpp:91] Creating Layer inception_4d/pool_proj
I0403 15:43:03.699290 20196 net.cpp:425] inception_4d/pool_proj <- inception_4d/pool
I0403 15:43:03.699309 20196 net.cpp:399] inception_4d/pool_proj -> inception_4d/pool_proj
I0403 15:43:03.701072 20196 net.cpp:141] Setting up inception_4d/pool_proj
I0403 15:43:03.701102 20196 net.cpp:148] Top shape: 24 64 14 14 (301056)
I0403 15:43:03.701117 20196 net.cpp:156] Memory required for data: 1146105120
I0403 15:43:03.701134 20196 layer_factory.hpp:77] Creating layer inception_4d/relu_pool_proj
I0403 15:43:03.701155 20196 net.cpp:91] Creating Layer inception_4d/relu_pool_proj
I0403 15:43:03.701172 20196 net.cpp:425] inception_4d/relu_pool_proj <- inception_4d/pool_proj
I0403 15:43:03.701189 20196 net.cpp:386] inception_4d/relu_pool_proj -> inception_4d/pool_proj (in-place)
I0403 15:43:03.701372 20196 net.cpp:141] Setting up inception_4d/relu_pool_proj
I0403 15:43:03.701401 20196 net.cpp:148] Top shape: 24 64 14 14 (301056)
I0403 15:43:03.701416 20196 net.cpp:156] Memory required for data: 1147309344
I0403 15:43:03.701431 20196 layer_factory.hpp:77] Creating layer inception_4d/output
I0403 15:43:03.701447 20196 net.cpp:91] Creating Layer inception_4d/output
I0403 15:43:03.701463 20196 net.cpp:425] inception_4d/output <- inception_4d/1x1
I0403 15:43:03.701479 20196 net.cpp:425] inception_4d/output <- inception_4d/3x3
I0403 15:43:03.701495 20196 net.cpp:425] inception_4d/output <- inception_4d/5x5
I0403 15:43:03.701510 20196 net.cpp:425] inception_4d/output <- inception_4d/pool_proj
I0403 15:43:03.701527 20196 net.cpp:399] inception_4d/output -> inception_4d/output
I0403 15:43:03.701575 20196 net.cpp:141] Setting up inception_4d/output
I0403 15:43:03.701599 20196 net.cpp:148] Top shape: 24 528 14 14 (2483712)
I0403 15:43:03.701614 20196 net.cpp:156] Memory required for data: 1157244192
I0403 15:43:03.701628 20196 layer_factory.hpp:77] Creating layer inception_4d/output_inception_4d/output_0_split
I0403 15:43:03.701648 20196 net.cpp:91] Creating Layer inception_4d/output_inception_4d/output_0_split
I0403 15:43:03.701665 20196 net.cpp:425] inception_4d/output_inception_4d/output_0_split <- inception_4d/output
I0403 15:43:03.701683 20196 net.cpp:399] inception_4d/output_inception_4d/output_0_split -> inception_4d/output_inception_4d/output_0_split_0
I0403 15:43:03.701702 20196 net.cpp:399] inception_4d/output_inception_4d/output_0_split -> inception_4d/output_inception_4d/output_0_split_1
I0403 15:43:03.701725 20196 net.cpp:399] inception_4d/output_inception_4d/output_0_split -> inception_4d/output_inception_4d/output_0_split_2
I0403 15:43:03.701746 20196 net.cpp:399] inception_4d/output_inception_4d/output_0_split -> inception_4d/output_inception_4d/output_0_split_3
I0403 15:43:03.701766 20196 net.cpp:399] inception_4d/output_inception_4d/output_0_split -> inception_4d/output_inception_4d/output_0_split_4
I0403 15:43:03.701867 20196 net.cpp:141] Setting up inception_4d/output_inception_4d/output_0_split
I0403 15:43:03.701902 20196 net.cpp:148] Top shape: 24 528 14 14 (2483712)
I0403 15:43:03.701920 20196 net.cpp:148] Top shape: 24 528 14 14 (2483712)
I0403 15:43:03.701935 20196 net.cpp:148] Top shape: 24 528 14 14 (2483712)
I0403 15:43:03.701951 20196 net.cpp:148] Top shape: 24 528 14 14 (2483712)
I0403 15:43:03.701966 20196 net.cpp:148] Top shape: 24 528 14 14 (2483712)
I0403 15:43:03.701978 20196 net.cpp:156] Memory required for data: 1206918432
I0403 15:43:03.701992 20196 layer_factory.hpp:77] Creating layer loss2/ave_pool
I0403 15:43:03.702013 20196 net.cpp:91] Creating Layer loss2/ave_pool
I0403 15:43:03.702028 20196 net.cpp:425] loss2/ave_pool <- inception_4d/output_inception_4d/output_0_split_0
I0403 15:43:03.702050 20196 net.cpp:399] loss2/ave_pool -> loss2/ave_pool
I0403 15:43:03.702364 20196 net.cpp:141] Setting up loss2/ave_pool
I0403 15:43:03.702391 20196 net.cpp:148] Top shape: 24 528 4 4 (202752)
I0403 15:43:03.702406 20196 net.cpp:156] Memory required for data: 1207729440
I0403 15:43:03.702421 20196 layer_factory.hpp:77] Creating layer loss2/conv
I0403 15:43:03.702445 20196 net.cpp:91] Creating Layer loss2/conv
I0403 15:43:03.702462 20196 net.cpp:425] loss2/conv <- loss2/ave_pool
I0403 15:43:03.702481 20196 net.cpp:399] loss2/conv -> loss2/conv
I0403 15:43:03.704380 20196 net.cpp:141] Setting up loss2/conv
I0403 15:43:03.704408 20196 net.cpp:148] Top shape: 24 128 4 4 (49152)
I0403 15:43:03.704424 20196 net.cpp:156] Memory required for data: 1207926048
I0403 15:43:03.704442 20196 layer_factory.hpp:77] Creating layer loss2/relu_conv
I0403 15:43:03.704460 20196 net.cpp:91] Creating Layer loss2/relu_conv
I0403 15:43:03.704476 20196 net.cpp:425] loss2/relu_conv <- loss2/conv
I0403 15:43:03.704496 20196 net.cpp:386] loss2/relu_conv -> loss2/conv (in-place)
I0403 15:43:03.704787 20196 net.cpp:141] Setting up loss2/relu_conv
I0403 15:43:03.704813 20196 net.cpp:148] Top shape: 24 128 4 4 (49152)
I0403 15:43:03.704828 20196 net.cpp:156] Memory required for data: 1208122656
I0403 15:43:03.704843 20196 layer_factory.hpp:77] Creating layer loss2/fc
I0403 15:43:03.704860 20196 net.cpp:91] Creating Layer loss2/fc
I0403 15:43:03.704876 20196 net.cpp:425] loss2/fc <- loss2/conv
I0403 15:43:03.704897 20196 net.cpp:399] loss2/fc -> loss2/fc
I0403 15:43:03.722540 20196 net.cpp:141] Setting up loss2/fc
I0403 15:43:03.722578 20196 net.cpp:148] Top shape: 24 1024 (24576)
I0403 15:43:03.722594 20196 net.cpp:156] Memory required for data: 1208220960
I0403 15:43:03.722615 20196 layer_factory.hpp:77] Creating layer loss2/relu_fc
I0403 15:43:03.722635 20196 net.cpp:91] Creating Layer loss2/relu_fc
I0403 15:43:03.722651 20196 net.cpp:425] loss2/relu_fc <- loss2/fc
I0403 15:43:03.722669 20196 net.cpp:386] loss2/relu_fc -> loss2/fc (in-place)
I0403 15:43:03.723003 20196 net.cpp:141] Setting up loss2/relu_fc
I0403 15:43:03.723031 20196 net.cpp:148] Top shape: 24 1024 (24576)
I0403 15:43:03.723053 20196 net.cpp:156] Memory required for data: 1208319264
I0403 15:43:03.723083 20196 layer_factory.hpp:77] Creating layer loss2/drop_fc
I0403 15:43:03.723101 20196 net.cpp:91] Creating Layer loss2/drop_fc
I0403 15:43:03.723126 20196 net.cpp:425] loss2/drop_fc <- loss2/fc
I0403 15:43:03.723145 20196 net.cpp:386] loss2/drop_fc -> loss2/fc (in-place)
I0403 15:43:03.723199 20196 net.cpp:141] Setting up loss2/drop_fc
I0403 15:43:03.723223 20196 net.cpp:148] Top shape: 24 1024 (24576)
I0403 15:43:03.723237 20196 net.cpp:156] Memory required for data: 1208417568
I0403 15:43:03.723253 20196 layer_factory.hpp:77] Creating layer loss2/classifier_plantvillage
I0403 15:43:03.723273 20196 net.cpp:91] Creating Layer loss2/classifier_plantvillage
I0403 15:43:03.723291 20196 net.cpp:425] loss2/classifier_plantvillage <- loss2/fc
I0403 15:43:03.723310 20196 net.cpp:399] loss2/classifier_plantvillage -> loss2/classifier_plantvillage
I0403 15:43:03.723749 20196 net.cpp:141] Setting up loss2/classifier_plantvillage
I0403 15:43:03.723774 20196 net.cpp:148] Top shape: 24 38 (912)
I0403 15:43:03.723816 20196 net.cpp:156] Memory required for data: 1208421216
I0403 15:43:03.723835 20196 layer_factory.hpp:77] Creating layer loss2/classifier_plantvillage_loss2/classifier_plantvillage_0_split
I0403 15:43:03.723855 20196 net.cpp:91] Creating Layer loss2/classifier_plantvillage_loss2/classifier_plantvillage_0_split
I0403 15:43:03.723870 20196 net.cpp:425] loss2/classifier_plantvillage_loss2/classifier_plantvillage_0_split <- loss2/classifier_plantvillage
I0403 15:43:03.723891 20196 net.cpp:399] loss2/classifier_plantvillage_loss2/classifier_plantvillage_0_split -> loss2/classifier_plantvillage_loss2/classifier_plantvillage_0_split_0
I0403 15:43:03.723912 20196 net.cpp:399] loss2/classifier_plantvillage_loss2/classifier_plantvillage_0_split -> loss2/classifier_plantvillage_loss2/classifier_plantvillage_0_split_1
I0403 15:43:03.723934 20196 net.cpp:399] loss2/classifier_plantvillage_loss2/classifier_plantvillage_0_split -> loss2/classifier_plantvillage_loss2/classifier_plantvillage_0_split_2
I0403 15:43:03.724017 20196 net.cpp:141] Setting up loss2/classifier_plantvillage_loss2/classifier_plantvillage_0_split
I0403 15:43:03.724042 20196 net.cpp:148] Top shape: 24 38 (912)
I0403 15:43:03.724064 20196 net.cpp:148] Top shape: 24 38 (912)
I0403 15:43:03.724081 20196 net.cpp:148] Top shape: 24 38 (912)
I0403 15:43:03.724094 20196 net.cpp:156] Memory required for data: 1208432160
I0403 15:43:03.724109 20196 layer_factory.hpp:77] Creating layer inception_4e/1x1
I0403 15:43:03.724133 20196 net.cpp:91] Creating Layer inception_4e/1x1
I0403 15:43:03.724153 20196 net.cpp:425] inception_4e/1x1 <- inception_4d/output_inception_4d/output_0_split_1
I0403 15:43:03.724172 20196 net.cpp:399] inception_4e/1x1 -> inception_4e/1x1
I0403 15:43:03.726086 20196 net.cpp:141] Setting up inception_4e/1x1
I0403 15:43:03.726114 20196 net.cpp:148] Top shape: 24 256 14 14 (1204224)
I0403 15:43:03.726130 20196 net.cpp:156] Memory required for data: 1213249056
I0403 15:43:03.726148 20196 layer_factory.hpp:77] Creating layer inception_4e/relu_1x1
I0403 15:43:03.726166 20196 net.cpp:91] Creating Layer inception_4e/relu_1x1
I0403 15:43:03.726187 20196 net.cpp:425] inception_4e/relu_1x1 <- inception_4e/1x1
I0403 15:43:03.726204 20196 net.cpp:386] inception_4e/relu_1x1 -> inception_4e/1x1 (in-place)
I0403 15:43:03.726507 20196 net.cpp:141] Setting up inception_4e/relu_1x1
I0403 15:43:03.726534 20196 net.cpp:148] Top shape: 24 256 14 14 (1204224)
I0403 15:43:03.726550 20196 net.cpp:156] Memory required for data: 1218065952
I0403 15:43:03.726565 20196 layer_factory.hpp:77] Creating layer inception_4e/3x3_reduce
I0403 15:43:03.726588 20196 net.cpp:91] Creating Layer inception_4e/3x3_reduce
I0403 15:43:03.726606 20196 net.cpp:425] inception_4e/3x3_reduce <- inception_4d/output_inception_4d/output_0_split_2
I0403 15:43:03.726629 20196 net.cpp:399] inception_4e/3x3_reduce -> inception_4e/3x3_reduce
I0403 15:43:03.728832 20196 net.cpp:141] Setting up inception_4e/3x3_reduce
I0403 15:43:03.728864 20196 net.cpp:148] Top shape: 24 160 14 14 (752640)
I0403 15:43:03.728880 20196 net.cpp:156] Memory required for data: 1221076512
I0403 15:43:03.728899 20196 layer_factory.hpp:77] Creating layer inception_4e/relu_3x3_reduce
I0403 15:43:03.728919 20196 net.cpp:91] Creating Layer inception_4e/relu_3x3_reduce
I0403 15:43:03.728935 20196 net.cpp:425] inception_4e/relu_3x3_reduce <- inception_4e/3x3_reduce
I0403 15:43:03.728955 20196 net.cpp:386] inception_4e/relu_3x3_reduce -> inception_4e/3x3_reduce (in-place)
I0403 15:43:03.729154 20196 net.cpp:141] Setting up inception_4e/relu_3x3_reduce
I0403 15:43:03.729179 20196 net.cpp:148] Top shape: 24 160 14 14 (752640)
I0403 15:43:03.729194 20196 net.cpp:156] Memory required for data: 1224087072
I0403 15:43:03.729209 20196 layer_factory.hpp:77] Creating layer inception_4e/3x3
I0403 15:43:03.729233 20196 net.cpp:91] Creating Layer inception_4e/3x3
I0403 15:43:03.729249 20196 net.cpp:425] inception_4e/3x3 <- inception_4e/3x3_reduce
I0403 15:43:03.729271 20196 net.cpp:399] inception_4e/3x3 -> inception_4e/3x3
I0403 15:43:03.734338 20196 net.cpp:141] Setting up inception_4e/3x3
I0403 15:43:03.734379 20196 net.cpp:148] Top shape: 24 320 14 14 (1505280)
I0403 15:43:03.734395 20196 net.cpp:156] Memory required for data: 1230108192
I0403 15:43:03.734412 20196 layer_factory.hpp:77] Creating layer inception_4e/relu_3x3
I0403 15:43:03.734432 20196 net.cpp:91] Creating Layer inception_4e/relu_3x3
I0403 15:43:03.734450 20196 net.cpp:425] inception_4e/relu_3x3 <- inception_4e/3x3
I0403 15:43:03.734467 20196 net.cpp:386] inception_4e/relu_3x3 -> inception_4e/3x3 (in-place)
I0403 15:43:03.734774 20196 net.cpp:141] Setting up inception_4e/relu_3x3
I0403 15:43:03.734800 20196 net.cpp:148] Top shape: 24 320 14 14 (1505280)
I0403 15:43:03.734815 20196 net.cpp:156] Memory required for data: 1236129312
I0403 15:43:03.734830 20196 layer_factory.hpp:77] Creating layer inception_4e/5x5_reduce
I0403 15:43:03.734853 20196 net.cpp:91] Creating Layer inception_4e/5x5_reduce
I0403 15:43:03.734870 20196 net.cpp:425] inception_4e/5x5_reduce <- inception_4d/output_inception_4d/output_0_split_3
I0403 15:43:03.734890 20196 net.cpp:399] inception_4e/5x5_reduce -> inception_4e/5x5_reduce
I0403 15:43:03.735970 20196 net.cpp:141] Setting up inception_4e/5x5_reduce
I0403 15:43:03.735998 20196 net.cpp:148] Top shape: 24 32 14 14 (150528)
I0403 15:43:03.736014 20196 net.cpp:156] Memory required for data: 1236731424
I0403 15:43:03.736032 20196 layer_factory.hpp:77] Creating layer inception_4e/relu_5x5_reduce
I0403 15:43:03.736053 20196 net.cpp:91] Creating Layer inception_4e/relu_5x5_reduce
I0403 15:43:03.736070 20196 net.cpp:425] inception_4e/relu_5x5_reduce <- inception_4e/5x5_reduce
I0403 15:43:03.736089 20196 net.cpp:386] inception_4e/relu_5x5_reduce -> inception_4e/5x5_reduce (in-place)
I0403 15:43:03.736392 20196 net.cpp:141] Setting up inception_4e/relu_5x5_reduce
I0403 15:43:03.736418 20196 net.cpp:148] Top shape: 24 32 14 14 (150528)
I0403 15:43:03.736434 20196 net.cpp:156] Memory required for data: 1237333536
I0403 15:43:03.736449 20196 layer_factory.hpp:77] Creating layer inception_4e/5x5
I0403 15:43:03.736490 20196 net.cpp:91] Creating Layer inception_4e/5x5
I0403 15:43:03.736508 20196 net.cpp:425] inception_4e/5x5 <- inception_4e/5x5_reduce
I0403 15:43:03.736527 20196 net.cpp:399] inception_4e/5x5 -> inception_4e/5x5
I0403 15:43:03.738381 20196 net.cpp:141] Setting up inception_4e/5x5
I0403 15:43:03.738409 20196 net.cpp:148] Top shape: 24 128 14 14 (602112)
I0403 15:43:03.738425 20196 net.cpp:156] Memory required for data: 1239741984
I0403 15:43:03.738443 20196 layer_factory.hpp:77] Creating layer inception_4e/relu_5x5
I0403 15:43:03.738463 20196 net.cpp:91] Creating Layer inception_4e/relu_5x5
I0403 15:43:03.738481 20196 net.cpp:425] inception_4e/relu_5x5 <- inception_4e/5x5
I0403 15:43:03.738498 20196 net.cpp:386] inception_4e/relu_5x5 -> inception_4e/5x5 (in-place)
I0403 15:43:03.738698 20196 net.cpp:141] Setting up inception_4e/relu_5x5
I0403 15:43:03.738723 20196 net.cpp:148] Top shape: 24 128 14 14 (602112)
I0403 15:43:03.738739 20196 net.cpp:156] Memory required for data: 1242150432
I0403 15:43:03.738752 20196 layer_factory.hpp:77] Creating layer inception_4e/pool
I0403 15:43:03.738770 20196 net.cpp:91] Creating Layer inception_4e/pool
I0403 15:43:03.738786 20196 net.cpp:425] inception_4e/pool <- inception_4d/output_inception_4d/output_0_split_4
I0403 15:43:03.738807 20196 net.cpp:399] inception_4e/pool -> inception_4e/pool
I0403 15:43:03.738878 20196 net.cpp:141] Setting up inception_4e/pool
I0403 15:43:03.738900 20196 net.cpp:148] Top shape: 24 528 14 14 (2483712)
I0403 15:43:03.738914 20196 net.cpp:156] Memory required for data: 1252085280
I0403 15:43:03.738929 20196 layer_factory.hpp:77] Creating layer inception_4e/pool_proj
I0403 15:43:03.738952 20196 net.cpp:91] Creating Layer inception_4e/pool_proj
I0403 15:43:03.738970 20196 net.cpp:425] inception_4e/pool_proj <- inception_4e/pool
I0403 15:43:03.738989 20196 net.cpp:399] inception_4e/pool_proj -> inception_4e/pool_proj
I0403 15:43:03.740495 20196 net.cpp:141] Setting up inception_4e/pool_proj
I0403 15:43:03.740533 20196 net.cpp:148] Top shape: 24 128 14 14 (602112)
I0403 15:43:03.740550 20196 net.cpp:156] Memory required for data: 1254493728
I0403 15:43:03.740568 20196 layer_factory.hpp:77] Creating layer inception_4e/relu_pool_proj
I0403 15:43:03.740588 20196 net.cpp:91] Creating Layer inception_4e/relu_pool_proj
I0403 15:43:03.740607 20196 net.cpp:425] inception_4e/relu_pool_proj <- inception_4e/pool_proj
I0403 15:43:03.740622 20196 net.cpp:386] inception_4e/relu_pool_proj -> inception_4e/pool_proj (in-place)
I0403 15:43:03.740916 20196 net.cpp:141] Setting up inception_4e/relu_pool_proj
I0403 15:43:03.740942 20196 net.cpp:148] Top shape: 24 128 14 14 (602112)
I0403 15:43:03.740957 20196 net.cpp:156] Memory required for data: 1256902176
I0403 15:43:03.740972 20196 layer_factory.hpp:77] Creating layer inception_4e/output
I0403 15:43:03.740990 20196 net.cpp:91] Creating Layer inception_4e/output
I0403 15:43:03.741008 20196 net.cpp:425] inception_4e/output <- inception_4e/1x1
I0403 15:43:03.741024 20196 net.cpp:425] inception_4e/output <- inception_4e/3x3
I0403 15:43:03.741040 20196 net.cpp:425] inception_4e/output <- inception_4e/5x5
I0403 15:43:03.741060 20196 net.cpp:425] inception_4e/output <- inception_4e/pool_proj
I0403 15:43:03.741078 20196 net.cpp:399] inception_4e/output -> inception_4e/output
I0403 15:43:03.741129 20196 net.cpp:141] Setting up inception_4e/output
I0403 15:43:03.741164 20196 net.cpp:148] Top shape: 24 832 14 14 (3913728)
I0403 15:43:03.741178 20196 net.cpp:156] Memory required for data: 1272557088
I0403 15:43:03.741194 20196 layer_factory.hpp:77] Creating layer pool4/3x3_s2
I0403 15:43:03.741209 20196 net.cpp:91] Creating Layer pool4/3x3_s2
I0403 15:43:03.741225 20196 net.cpp:425] pool4/3x3_s2 <- inception_4e/output
I0403 15:43:03.741245 20196 net.cpp:399] pool4/3x3_s2 -> pool4/3x3_s2
I0403 15:43:03.741309 20196 net.cpp:141] Setting up pool4/3x3_s2
I0403 15:43:03.741333 20196 net.cpp:148] Top shape: 24 832 7 7 (978432)
I0403 15:43:03.741348 20196 net.cpp:156] Memory required for data: 1276470816
I0403 15:43:03.741361 20196 layer_factory.hpp:77] Creating layer pool4/3x3_s2_pool4/3x3_s2_0_split
I0403 15:43:03.741380 20196 net.cpp:91] Creating Layer pool4/3x3_s2_pool4/3x3_s2_0_split
I0403 15:43:03.741396 20196 net.cpp:425] pool4/3x3_s2_pool4/3x3_s2_0_split <- pool4/3x3_s2
I0403 15:43:03.741415 20196 net.cpp:399] pool4/3x3_s2_pool4/3x3_s2_0_split -> pool4/3x3_s2_pool4/3x3_s2_0_split_0
I0403 15:43:03.741443 20196 net.cpp:399] pool4/3x3_s2_pool4/3x3_s2_0_split -> pool4/3x3_s2_pool4/3x3_s2_0_split_1
I0403 15:43:03.741463 20196 net.cpp:399] pool4/3x3_s2_pool4/3x3_s2_0_split -> pool4/3x3_s2_pool4/3x3_s2_0_split_2
I0403 15:43:03.741482 20196 net.cpp:399] pool4/3x3_s2_pool4/3x3_s2_0_split -> pool4/3x3_s2_pool4/3x3_s2_0_split_3
I0403 15:43:03.741569 20196 net.cpp:141] Setting up pool4/3x3_s2_pool4/3x3_s2_0_split
I0403 15:43:03.741593 20196 net.cpp:148] Top shape: 24 832 7 7 (978432)
I0403 15:43:03.741610 20196 net.cpp:148] Top shape: 24 832 7 7 (978432)
I0403 15:43:03.741626 20196 net.cpp:148] Top shape: 24 832 7 7 (978432)
I0403 15:43:03.741641 20196 net.cpp:148] Top shape: 24 832 7 7 (978432)
I0403 15:43:03.741653 20196 net.cpp:156] Memory required for data: 1292125728
I0403 15:43:03.741667 20196 layer_factory.hpp:77] Creating layer inception_5a/1x1
I0403 15:43:03.741689 20196 net.cpp:91] Creating Layer inception_5a/1x1
I0403 15:43:03.741706 20196 net.cpp:425] inception_5a/1x1 <- pool4/3x3_s2_pool4/3x3_s2_0_split_0
I0403 15:43:03.741724 20196 net.cpp:399] inception_5a/1x1 -> inception_5a/1x1
I0403 15:43:03.744501 20196 net.cpp:141] Setting up inception_5a/1x1
I0403 15:43:03.744530 20196 net.cpp:148] Top shape: 24 256 7 7 (301056)
I0403 15:43:03.744546 20196 net.cpp:156] Memory required for data: 1293329952
I0403 15:43:03.744563 20196 layer_factory.hpp:77] Creating layer inception_5a/relu_1x1
I0403 15:43:03.744581 20196 net.cpp:91] Creating Layer inception_5a/relu_1x1
I0403 15:43:03.744596 20196 net.cpp:425] inception_5a/relu_1x1 <- inception_5a/1x1
I0403 15:43:03.744613 20196 net.cpp:386] inception_5a/relu_1x1 -> inception_5a/1x1 (in-place)
I0403 15:43:03.744917 20196 net.cpp:141] Setting up inception_5a/relu_1x1
I0403 15:43:03.744946 20196 net.cpp:148] Top shape: 24 256 7 7 (301056)
I0403 15:43:03.744962 20196 net.cpp:156] Memory required for data: 1294534176
I0403 15:43:03.744976 20196 layer_factory.hpp:77] Creating layer inception_5a/3x3_reduce
I0403 15:43:03.744998 20196 net.cpp:91] Creating Layer inception_5a/3x3_reduce
I0403 15:43:03.745015 20196 net.cpp:425] inception_5a/3x3_reduce <- pool4/3x3_s2_pool4/3x3_s2_0_split_1
I0403 15:43:03.745034 20196 net.cpp:399] inception_5a/3x3_reduce -> inception_5a/3x3_reduce
I0403 15:43:03.747421 20196 net.cpp:141] Setting up inception_5a/3x3_reduce
I0403 15:43:03.747447 20196 net.cpp:148] Top shape: 24 160 7 7 (188160)
I0403 15:43:03.747462 20196 net.cpp:156] Memory required for data: 1295286816
I0403 15:43:03.747479 20196 layer_factory.hpp:77] Creating layer inception_5a/relu_3x3_reduce
I0403 15:43:03.747499 20196 net.cpp:91] Creating Layer inception_5a/relu_3x3_reduce
I0403 15:43:03.747516 20196 net.cpp:425] inception_5a/relu_3x3_reduce <- inception_5a/3x3_reduce
I0403 15:43:03.747534 20196 net.cpp:386] inception_5a/relu_3x3_reduce -> inception_5a/3x3_reduce (in-place)
I0403 15:43:03.747715 20196 net.cpp:141] Setting up inception_5a/relu_3x3_reduce
I0403 15:43:03.747741 20196 net.cpp:148] Top shape: 24 160 7 7 (188160)
I0403 15:43:03.747756 20196 net.cpp:156] Memory required for data: 1296039456
I0403 15:43:03.747771 20196 layer_factory.hpp:77] Creating layer inception_5a/3x3
I0403 15:43:03.747792 20196 net.cpp:91] Creating Layer inception_5a/3x3
I0403 15:43:03.747809 20196 net.cpp:425] inception_5a/3x3 <- inception_5a/3x3_reduce
I0403 15:43:03.747828 20196 net.cpp:399] inception_5a/3x3 -> inception_5a/3x3
I0403 15:43:03.752794 20196 net.cpp:141] Setting up inception_5a/3x3
I0403 15:43:03.752825 20196 net.cpp:148] Top shape: 24 320 7 7 (376320)
I0403 15:43:03.752840 20196 net.cpp:156] Memory required for data: 1297544736
I0403 15:43:03.752857 20196 layer_factory.hpp:77] Creating layer inception_5a/relu_3x3
I0403 15:43:03.752876 20196 net.cpp:91] Creating Layer inception_5a/relu_3x3
I0403 15:43:03.752890 20196 net.cpp:425] inception_5a/relu_3x3 <- inception_5a/3x3
I0403 15:43:03.752908 20196 net.cpp:386] inception_5a/relu_3x3 -> inception_5a/3x3 (in-place)
I0403 15:43:03.753213 20196 net.cpp:141] Setting up inception_5a/relu_3x3
I0403 15:43:03.753242 20196 net.cpp:148] Top shape: 24 320 7 7 (376320)
I0403 15:43:03.753257 20196 net.cpp:156] Memory required for data: 1299050016
I0403 15:43:03.753273 20196 layer_factory.hpp:77] Creating layer inception_5a/5x5_reduce
I0403 15:43:03.753295 20196 net.cpp:91] Creating Layer inception_5a/5x5_reduce
I0403 15:43:03.753314 20196 net.cpp:425] inception_5a/5x5_reduce <- pool4/3x3_s2_pool4/3x3_s2_0_split_2
I0403 15:43:03.753334 20196 net.cpp:399] inception_5a/5x5_reduce -> inception_5a/5x5_reduce
I0403 15:43:03.754511 20196 net.cpp:141] Setting up inception_5a/5x5_reduce
I0403 15:43:03.754540 20196 net.cpp:148] Top shape: 24 32 7 7 (37632)
I0403 15:43:03.754556 20196 net.cpp:156] Memory required for data: 1299200544
I0403 15:43:03.754575 20196 layer_factory.hpp:77] Creating layer inception_5a/relu_5x5_reduce
I0403 15:43:03.754591 20196 net.cpp:91] Creating Layer inception_5a/relu_5x5_reduce
I0403 15:43:03.754606 20196 net.cpp:425] inception_5a/relu_5x5_reduce <- inception_5a/5x5_reduce
I0403 15:43:03.754626 20196 net.cpp:386] inception_5a/relu_5x5_reduce -> inception_5a/5x5_reduce (in-place)
I0403 15:43:03.754919 20196 net.cpp:141] Setting up inception_5a/relu_5x5_reduce
I0403 15:43:03.754945 20196 net.cpp:148] Top shape: 24 32 7 7 (37632)
I0403 15:43:03.754961 20196 net.cpp:156] Memory required for data: 1299351072
I0403 15:43:03.754974 20196 layer_factory.hpp:77] Creating layer inception_5a/5x5
I0403 15:43:03.754997 20196 net.cpp:91] Creating Layer inception_5a/5x5
I0403 15:43:03.755014 20196 net.cpp:425] inception_5a/5x5 <- inception_5a/5x5_reduce
I0403 15:43:03.755034 20196 net.cpp:399] inception_5a/5x5 -> inception_5a/5x5
I0403 15:43:03.756777 20196 net.cpp:141] Setting up inception_5a/5x5
I0403 15:43:03.756816 20196 net.cpp:148] Top shape: 24 128 7 7 (150528)
I0403 15:43:03.756834 20196 net.cpp:156] Memory required for data: 1299953184
I0403 15:43:03.756850 20196 layer_factory.hpp:77] Creating layer inception_5a/relu_5x5
I0403 15:43:03.756868 20196 net.cpp:91] Creating Layer inception_5a/relu_5x5
I0403 15:43:03.756883 20196 net.cpp:425] inception_5a/relu_5x5 <- inception_5a/5x5
I0403 15:43:03.756902 20196 net.cpp:386] inception_5a/relu_5x5 -> inception_5a/5x5 (in-place)
I0403 15:43:03.757096 20196 net.cpp:141] Setting up inception_5a/relu_5x5
I0403 15:43:03.757133 20196 net.cpp:148] Top shape: 24 128 7 7 (150528)
I0403 15:43:03.757146 20196 net.cpp:156] Memory required for data: 1300555296
I0403 15:43:03.757161 20196 layer_factory.hpp:77] Creating layer inception_5a/pool
I0403 15:43:03.757179 20196 net.cpp:91] Creating Layer inception_5a/pool
I0403 15:43:03.757194 20196 net.cpp:425] inception_5a/pool <- pool4/3x3_s2_pool4/3x3_s2_0_split_3
I0403 15:43:03.757215 20196 net.cpp:399] inception_5a/pool -> inception_5a/pool
I0403 15:43:03.757284 20196 net.cpp:141] Setting up inception_5a/pool
I0403 15:43:03.757308 20196 net.cpp:148] Top shape: 24 832 7 7 (978432)
I0403 15:43:03.757323 20196 net.cpp:156] Memory required for data: 1304469024
I0403 15:43:03.757338 20196 layer_factory.hpp:77] Creating layer inception_5a/pool_proj
I0403 15:43:03.757361 20196 net.cpp:91] Creating Layer inception_5a/pool_proj
I0403 15:43:03.757380 20196 net.cpp:425] inception_5a/pool_proj <- inception_5a/pool
I0403 15:43:03.757397 20196 net.cpp:399] inception_5a/pool_proj -> inception_5a/pool_proj
I0403 15:43:03.759699 20196 net.cpp:141] Setting up inception_5a/pool_proj
I0403 15:43:03.759727 20196 net.cpp:148] Top shape: 24 128 7 7 (150528)
I0403 15:43:03.759745 20196 net.cpp:156] Memory required for data: 1305071136
I0403 15:43:03.759763 20196 layer_factory.hpp:77] Creating layer inception_5a/relu_pool_proj
I0403 15:43:03.759781 20196 net.cpp:91] Creating Layer inception_5a/relu_pool_proj
I0403 15:43:03.759798 20196 net.cpp:425] inception_5a/relu_pool_proj <- inception_5a/pool_proj
I0403 15:43:03.759814 20196 net.cpp:386] inception_5a/relu_pool_proj -> inception_5a/pool_proj (in-place)
I0403 15:43:03.760105 20196 net.cpp:141] Setting up inception_5a/relu_pool_proj
I0403 15:43:03.760143 20196 net.cpp:148] Top shape: 24 128 7 7 (150528)
I0403 15:43:03.760160 20196 net.cpp:156] Memory required for data: 1305673248
I0403 15:43:03.760175 20196 layer_factory.hpp:77] Creating layer inception_5a/output
I0403 15:43:03.760192 20196 net.cpp:91] Creating Layer inception_5a/output
I0403 15:43:03.760208 20196 net.cpp:425] inception_5a/output <- inception_5a/1x1
I0403 15:43:03.760224 20196 net.cpp:425] inception_5a/output <- inception_5a/3x3
I0403 15:43:03.760241 20196 net.cpp:425] inception_5a/output <- inception_5a/5x5
I0403 15:43:03.760256 20196 net.cpp:425] inception_5a/output <- inception_5a/pool_proj
I0403 15:43:03.760272 20196 net.cpp:399] inception_5a/output -> inception_5a/output
I0403 15:43:03.760324 20196 net.cpp:141] Setting up inception_5a/output
I0403 15:43:03.760347 20196 net.cpp:148] Top shape: 24 832 7 7 (978432)
I0403 15:43:03.760361 20196 net.cpp:156] Memory required for data: 1309586976
I0403 15:43:03.760375 20196 layer_factory.hpp:77] Creating layer inception_5a/output_inception_5a/output_0_split
I0403 15:43:03.760392 20196 net.cpp:91] Creating Layer inception_5a/output_inception_5a/output_0_split
I0403 15:43:03.760407 20196 net.cpp:425] inception_5a/output_inception_5a/output_0_split <- inception_5a/output
I0403 15:43:03.760438 20196 net.cpp:399] inception_5a/output_inception_5a/output_0_split -> inception_5a/output_inception_5a/output_0_split_0
I0403 15:43:03.760459 20196 net.cpp:399] inception_5a/output_inception_5a/output_0_split -> inception_5a/output_inception_5a/output_0_split_1
I0403 15:43:03.760478 20196 net.cpp:399] inception_5a/output_inception_5a/output_0_split -> inception_5a/output_inception_5a/output_0_split_2
I0403 15:43:03.760498 20196 net.cpp:399] inception_5a/output_inception_5a/output_0_split -> inception_5a/output_inception_5a/output_0_split_3
I0403 15:43:03.760608 20196 net.cpp:141] Setting up inception_5a/output_inception_5a/output_0_split
I0403 15:43:03.760632 20196 net.cpp:148] Top shape: 24 832 7 7 (978432)
I0403 15:43:03.760646 20196 net.cpp:148] Top shape: 24 832 7 7 (978432)
I0403 15:43:03.760661 20196 net.cpp:148] Top shape: 24 832 7 7 (978432)
I0403 15:43:03.760676 20196 net.cpp:148] Top shape: 24 832 7 7 (978432)
I0403 15:43:03.760689 20196 net.cpp:156] Memory required for data: 1325241888
I0403 15:43:03.760702 20196 layer_factory.hpp:77] Creating layer inception_5b/1x1
I0403 15:43:03.760723 20196 net.cpp:91] Creating Layer inception_5b/1x1
I0403 15:43:03.760741 20196 net.cpp:425] inception_5b/1x1 <- inception_5a/output_inception_5a/output_0_split_0
I0403 15:43:03.760761 20196 net.cpp:399] inception_5b/1x1 -> inception_5b/1x1
I0403 15:43:03.764441 20196 net.cpp:141] Setting up inception_5b/1x1
I0403 15:43:03.764469 20196 net.cpp:148] Top shape: 24 384 7 7 (451584)
I0403 15:43:03.764484 20196 net.cpp:156] Memory required for data: 1327048224
I0403 15:43:03.764503 20196 layer_factory.hpp:77] Creating layer inception_5b/relu_1x1
I0403 15:43:03.764523 20196 net.cpp:91] Creating Layer inception_5b/relu_1x1
I0403 15:43:03.764539 20196 net.cpp:425] inception_5b/relu_1x1 <- inception_5b/1x1
I0403 15:43:03.764555 20196 net.cpp:386] inception_5b/relu_1x1 -> inception_5b/1x1 (in-place)
I0403 15:43:03.764853 20196 net.cpp:141] Setting up inception_5b/relu_1x1
I0403 15:43:03.764878 20196 net.cpp:148] Top shape: 24 384 7 7 (451584)
I0403 15:43:03.764892 20196 net.cpp:156] Memory required for data: 1328854560
I0403 15:43:03.764907 20196 layer_factory.hpp:77] Creating layer inception_5b/3x3_reduce
I0403 15:43:03.764928 20196 net.cpp:91] Creating Layer inception_5b/3x3_reduce
I0403 15:43:03.764946 20196 net.cpp:425] inception_5b/3x3_reduce <- inception_5a/output_inception_5a/output_0_split_1
I0403 15:43:03.764971 20196 net.cpp:399] inception_5b/3x3_reduce -> inception_5b/3x3_reduce
I0403 15:43:03.767580 20196 net.cpp:141] Setting up inception_5b/3x3_reduce
I0403 15:43:03.767609 20196 net.cpp:148] Top shape: 24 192 7 7 (225792)
I0403 15:43:03.767624 20196 net.cpp:156] Memory required for data: 1329757728
I0403 15:43:03.767642 20196 layer_factory.hpp:77] Creating layer inception_5b/relu_3x3_reduce
I0403 15:43:03.767662 20196 net.cpp:91] Creating Layer inception_5b/relu_3x3_reduce
I0403 15:43:03.767678 20196 net.cpp:425] inception_5b/relu_3x3_reduce <- inception_5b/3x3_reduce
I0403 15:43:03.767693 20196 net.cpp:386] inception_5b/relu_3x3_reduce -> inception_5b/3x3_reduce (in-place)
I0403 15:43:03.767879 20196 net.cpp:141] Setting up inception_5b/relu_3x3_reduce
I0403 15:43:03.767904 20196 net.cpp:148] Top shape: 24 192 7 7 (225792)
I0403 15:43:03.767920 20196 net.cpp:156] Memory required for data: 1330660896
I0403 15:43:03.767933 20196 layer_factory.hpp:77] Creating layer inception_5b/3x3
I0403 15:43:03.767956 20196 net.cpp:91] Creating Layer inception_5b/3x3
I0403 15:43:03.767972 20196 net.cpp:425] inception_5b/3x3 <- inception_5b/3x3_reduce
I0403 15:43:03.767990 20196 net.cpp:399] inception_5b/3x3 -> inception_5b/3x3
I0403 15:43:03.774600 20196 net.cpp:141] Setting up inception_5b/3x3
I0403 15:43:03.774628 20196 net.cpp:148] Top shape: 24 384 7 7 (451584)
I0403 15:43:03.774646 20196 net.cpp:156] Memory required for data: 1332467232
I0403 15:43:03.774665 20196 layer_factory.hpp:77] Creating layer inception_5b/relu_3x3
I0403 15:43:03.774685 20196 net.cpp:91] Creating Layer inception_5b/relu_3x3
I0403 15:43:03.774701 20196 net.cpp:425] inception_5b/relu_3x3 <- inception_5b/3x3
I0403 15:43:03.774719 20196 net.cpp:386] inception_5b/relu_3x3 -> inception_5b/3x3 (in-place)
I0403 15:43:03.775017 20196 net.cpp:141] Setting up inception_5b/relu_3x3
I0403 15:43:03.775044 20196 net.cpp:148] Top shape: 24 384 7 7 (451584)
I0403 15:43:03.775081 20196 net.cpp:156] Memory required for data: 1334273568
I0403 15:43:03.775097 20196 layer_factory.hpp:77] Creating layer inception_5b/5x5_reduce
I0403 15:43:03.775135 20196 net.cpp:91] Creating Layer inception_5b/5x5_reduce
I0403 15:43:03.775154 20196 net.cpp:425] inception_5b/5x5_reduce <- inception_5a/output_inception_5a/output_0_split_2
I0403 15:43:03.775177 20196 net.cpp:399] inception_5b/5x5_reduce -> inception_5b/5x5_reduce
I0403 15:43:03.776491 20196 net.cpp:141] Setting up inception_5b/5x5_reduce
I0403 15:43:03.776520 20196 net.cpp:148] Top shape: 24 48 7 7 (56448)
I0403 15:43:03.776535 20196 net.cpp:156] Memory required for data: 1334499360
I0403 15:43:03.776554 20196 layer_factory.hpp:77] Creating layer inception_5b/relu_5x5_reduce
I0403 15:43:03.776576 20196 net.cpp:91] Creating Layer inception_5b/relu_5x5_reduce
I0403 15:43:03.776592 20196 net.cpp:425] inception_5b/relu_5x5_reduce <- inception_5b/5x5_reduce
I0403 15:43:03.776610 20196 net.cpp:386] inception_5b/relu_5x5_reduce -> inception_5b/5x5_reduce (in-place)
I0403 15:43:03.776998 20196 net.cpp:141] Setting up inception_5b/relu_5x5_reduce
I0403 15:43:03.777024 20196 net.cpp:148] Top shape: 24 48 7 7 (56448)
I0403 15:43:03.777040 20196 net.cpp:156] Memory required for data: 1334725152
I0403 15:43:03.777060 20196 layer_factory.hpp:77] Creating layer inception_5b/5x5
I0403 15:43:03.777082 20196 net.cpp:91] Creating Layer inception_5b/5x5
I0403 15:43:03.777101 20196 net.cpp:425] inception_5b/5x5 <- inception_5b/5x5_reduce
I0403 15:43:03.777119 20196 net.cpp:399] inception_5b/5x5 -> inception_5b/5x5
I0403 15:43:03.779249 20196 net.cpp:141] Setting up inception_5b/5x5
I0403 15:43:03.779289 20196 net.cpp:148] Top shape: 24 128 7 7 (150528)
I0403 15:43:03.779306 20196 net.cpp:156] Memory required for data: 1335327264
I0403 15:43:03.779325 20196 layer_factory.hpp:77] Creating layer inception_5b/relu_5x5
I0403 15:43:03.779343 20196 net.cpp:91] Creating Layer inception_5b/relu_5x5
I0403 15:43:03.779359 20196 net.cpp:425] inception_5b/relu_5x5 <- inception_5b/5x5
I0403 15:43:03.779377 20196 net.cpp:386] inception_5b/relu_5x5 -> inception_5b/5x5 (in-place)
I0403 15:43:03.779582 20196 net.cpp:141] Setting up inception_5b/relu_5x5
I0403 15:43:03.779608 20196 net.cpp:148] Top shape: 24 128 7 7 (150528)
I0403 15:43:03.779621 20196 net.cpp:156] Memory required for data: 1335929376
I0403 15:43:03.779636 20196 layer_factory.hpp:77] Creating layer inception_5b/pool
I0403 15:43:03.779654 20196 net.cpp:91] Creating Layer inception_5b/pool
I0403 15:43:03.779670 20196 net.cpp:425] inception_5b/pool <- inception_5a/output_inception_5a/output_0_split_3
I0403 15:43:03.779691 20196 net.cpp:399] inception_5b/pool -> inception_5b/pool
I0403 15:43:03.779765 20196 net.cpp:141] Setting up inception_5b/pool
I0403 15:43:03.779791 20196 net.cpp:148] Top shape: 24 832 7 7 (978432)
I0403 15:43:03.779806 20196 net.cpp:156] Memory required for data: 1339843104
I0403 15:43:03.779820 20196 layer_factory.hpp:77] Creating layer inception_5b/pool_proj
I0403 15:43:03.779844 20196 net.cpp:91] Creating Layer inception_5b/pool_proj
I0403 15:43:03.779861 20196 net.cpp:425] inception_5b/pool_proj <- inception_5b/pool
I0403 15:43:03.779881 20196 net.cpp:399] inception_5b/pool_proj -> inception_5b/pool_proj
I0403 15:43:03.782282 20196 net.cpp:141] Setting up inception_5b/pool_proj
I0403 15:43:03.782312 20196 net.cpp:148] Top shape: 24 128 7 7 (150528)
I0403 15:43:03.782328 20196 net.cpp:156] Memory required for data: 1340445216
I0403 15:43:03.782347 20196 layer_factory.hpp:77] Creating layer inception_5b/relu_pool_proj
I0403 15:43:03.782368 20196 net.cpp:91] Creating Layer inception_5b/relu_pool_proj
I0403 15:43:03.782387 20196 net.cpp:425] inception_5b/relu_pool_proj <- inception_5b/pool_proj
I0403 15:43:03.782404 20196 net.cpp:386] inception_5b/relu_pool_proj -> inception_5b/pool_proj (in-place)
I0403 15:43:03.782718 20196 net.cpp:141] Setting up inception_5b/relu_pool_proj
I0403 15:43:03.782745 20196 net.cpp:148] Top shape: 24 128 7 7 (150528)
I0403 15:43:03.782760 20196 net.cpp:156] Memory required for data: 1341047328
I0403 15:43:03.782776 20196 layer_factory.hpp:77] Creating layer inception_5b/output
I0403 15:43:03.782796 20196 net.cpp:91] Creating Layer inception_5b/output
I0403 15:43:03.782827 20196 net.cpp:425] inception_5b/output <- inception_5b/1x1
I0403 15:43:03.782846 20196 net.cpp:425] inception_5b/output <- inception_5b/3x3
I0403 15:43:03.782863 20196 net.cpp:425] inception_5b/output <- inception_5b/5x5
I0403 15:43:03.782878 20196 net.cpp:425] inception_5b/output <- inception_5b/pool_proj
I0403 15:43:03.782896 20196 net.cpp:399] inception_5b/output -> inception_5b/output
I0403 15:43:03.782951 20196 net.cpp:141] Setting up inception_5b/output
I0403 15:43:03.782975 20196 net.cpp:148] Top shape: 24 1024 7 7 (1204224)
I0403 15:43:03.782990 20196 net.cpp:156] Memory required for data: 1345864224
I0403 15:43:03.783005 20196 layer_factory.hpp:77] Creating layer pool5/7x7_s1
I0403 15:43:03.783023 20196 net.cpp:91] Creating Layer pool5/7x7_s1
I0403 15:43:03.783040 20196 net.cpp:425] pool5/7x7_s1 <- inception_5b/output
I0403 15:43:03.783067 20196 net.cpp:399] pool5/7x7_s1 -> pool5/7x7_s1
I0403 15:43:03.783293 20196 net.cpp:141] Setting up pool5/7x7_s1
I0403 15:43:03.783320 20196 net.cpp:148] Top shape: 24 1024 1 1 (24576)
I0403 15:43:03.783336 20196 net.cpp:156] Memory required for data: 1345962528
I0403 15:43:03.783352 20196 layer_factory.hpp:77] Creating layer pool5/drop_7x7_s1
I0403 15:43:03.783370 20196 net.cpp:91] Creating Layer pool5/drop_7x7_s1
I0403 15:43:03.783386 20196 net.cpp:425] pool5/drop_7x7_s1 <- pool5/7x7_s1
I0403 15:43:03.783406 20196 net.cpp:386] pool5/drop_7x7_s1 -> pool5/7x7_s1 (in-place)
I0403 15:43:03.783458 20196 net.cpp:141] Setting up pool5/drop_7x7_s1
I0403 15:43:03.783483 20196 net.cpp:148] Top shape: 24 1024 1 1 (24576)
I0403 15:43:03.783496 20196 net.cpp:156] Memory required for data: 1346060832
I0403 15:43:03.783511 20196 layer_factory.hpp:77] Creating layer loss3/classifier_plantvillage
I0403 15:43:03.783532 20196 net.cpp:91] Creating Layer loss3/classifier_plantvillage
I0403 15:43:03.783550 20196 net.cpp:425] loss3/classifier_plantvillage <- pool5/7x7_s1
I0403 15:43:03.783571 20196 net.cpp:399] loss3/classifier_plantvillage -> loss3/classifier_plantvillage
I0403 15:43:03.784010 20196 net.cpp:141] Setting up loss3/classifier_plantvillage
I0403 15:43:03.784035 20196 net.cpp:148] Top shape: 24 38 (912)
I0403 15:43:03.784054 20196 net.cpp:156] Memory required for data: 1346064480
I0403 15:43:03.784075 20196 layer_factory.hpp:77] Creating layer loss3/classifier_plantvillage_loss3/classifier_plantvillage_0_split
I0403 15:43:03.784093 20196 net.cpp:91] Creating Layer loss3/classifier_plantvillage_loss3/classifier_plantvillage_0_split
I0403 15:43:03.784114 20196 net.cpp:425] loss3/classifier_plantvillage_loss3/classifier_plantvillage_0_split <- loss3/classifier_plantvillage
I0403 15:43:03.784133 20196 net.cpp:399] loss3/classifier_plantvillage_loss3/classifier_plantvillage_0_split -> loss3/classifier_plantvillage_loss3/classifier_plantvillage_0_split_0
I0403 15:43:03.784153 20196 net.cpp:399] loss3/classifier_plantvillage_loss3/classifier_plantvillage_0_split -> loss3/classifier_plantvillage_loss3/classifier_plantvillage_0_split_1
I0403 15:43:03.784173 20196 net.cpp:399] loss3/classifier_plantvillage_loss3/classifier_plantvillage_0_split -> loss3/classifier_plantvillage_loss3/classifier_plantvillage_0_split_2
I0403 15:43:03.784194 20196 net.cpp:399] loss3/classifier_plantvillage_loss3/classifier_plantvillage_0_split -> loss3/classifier_plantvillage_loss3/classifier_plantvillage_0_split_3
I0403 15:43:03.784298 20196 net.cpp:141] Setting up loss3/classifier_plantvillage_loss3/classifier_plantvillage_0_split
I0403 15:43:03.784322 20196 net.cpp:148] Top shape: 24 38 (912)
I0403 15:43:03.784339 20196 net.cpp:148] Top shape: 24 38 (912)
I0403 15:43:03.784355 20196 net.cpp:148] Top shape: 24 38 (912)
I0403 15:43:03.784371 20196 net.cpp:148] Top shape: 24 38 (912)
I0403 15:43:03.784384 20196 net.cpp:156] Memory required for data: 1346079072
I0403 15:43:03.784399 20196 layer_factory.hpp:77] Creating layer loss1/loss
I0403 15:43:03.784421 20196 net.cpp:91] Creating Layer loss1/loss
I0403 15:43:03.784438 20196 net.cpp:425] loss1/loss <- loss1/classifier_plantvillage_loss1/classifier_plantvillage_0_split_0
I0403 15:43:03.784471 20196 net.cpp:425] loss1/loss <- label_data_1_split_0
…
