…
I0403 16:21:38.842990 20994 net.cpp:313] The NetState phase (1) differed from the phase (0) specified by a rule in layer data
I0403 16:21:38.844204 20994 net.cpp:49] Initializing net from parameters: 
state {
  phase: TEST
}
layer {
  name: "data"
  type: "Data"
  top: "data"
  top: "label"
  include {
    phase: TEST
  }
  transform_param {
    mirror: false
    crop_size: 224
    mean_file: "/home/mohanty/data/final_dataset/lmdb/grayscale-20-80/mean.binaryproto"
  }
  data_param {
    source: "/home/mohanty/data/final_dataset/lmdb/grayscale-20-80/test_db"
    batch_size: 24
    backend: LMDB
  }
}
layer {
  name: "conv1/7x7_s2"
  type: "Convolution"
  bottom: "data"
  top: "conv1/7x7_s2"
  param {
    lr_mult: 1
    decay_mult: 1
  }
  param {
    lr_mult: 2
    decay_mult: 0
  }
  convolution_param {
    num_output: 64
    pad: 3
    kernel_size: 7
    stride: 2
    weight_filler {
      type: "xavier"
      std: 0.1
    }
    bias_filler {
      type: "constant"
      value: 0.2
    }
  }
}
layer {
  name: "conv1/relu_7x7"
  type: "ReLU"
  bottom: "conv1/7x7_s2"
  top: "conv1/7x7_s2"
}
layer {
  name: "pool1/3x3_s2"
  type: "Pooling"
  bottom: "conv1/7x7_s2"
  top: "pool1/3x3_s2"
  pooling_param {
    pool: MAX
    kernel_size: 3
    stride: 2
  }
}
layer {
  name: "pool1/norm1"
  type: "LRN"
  bottom: "pool1/3x3_s2"
  top: "pool1/norm1"
  lrn_param {
    local_size: 5
    alpha: 0.0001
    beta: 0.75
  }
}
layer {
  name: "conv2/3x3_reduce"
  type: "Convolution"
  bottom: "pool1/norm1"
  top: "conv2/3x3_reduce"
  param {
    lr_mult: 1
    decay_mult: 1
  }
  param {
    lr_mult: 2
    decay_mult: 0
  }
  convolution_param {
    num_output: 64
    kernel_size: 1
    weight_filler {
      type: "xavier"
      std: 0.1
    }
    bias_filler {
      type: "constant"
      value: 0.2
    }
  }
}
layer {
  name: "conv2/relu_3x3_reduce"
  type: "ReLU"
  bottom: "conv2/3x3_reduce"
  top: "conv2/3x3_reduce"
}
layer {
  name: "conv2/3x3"
  type: "Convolution"
  bottom: "conv2/3x3_reduce"
  top: "conv2/3x3"
  param {
    lr_mult: 1
    decay_mult: 1
  }
  param {
    lr_mult: 2
    decay_mult: 0
  }
  convolution_param {
    num_output: 192
    pad: 1
    kernel_size: 3
    weight_filler {
      type: "xavier"
      std: 0.03
    }
    bias_filler {
      type: "constant"
      value: 0.2
    }
  }
}
layer {
  name: "conv2/relu_3x3"
  type: "ReLU"
  bottom: "conv2/3x3"
  top: "conv2/3x3"
}
layer {
  name: "conv2/norm2"
  type: "LRN"
  bottom: "conv2/3x3"
  top: "conv2/norm2"
  lrn_param {
    local_size: 5
    alpha: 0.0001
    beta: 0.75
  }
}
layer {
  name: "pool2/3x3_s2"
  type: "Pooling"
  bottom: "conv2/norm2"
  top: "pool2/3x3_s2"
  pooling_param {
    pool: MAX
    kernel_size: 3
    stride: 2
  }
}
layer {
  name: "inception_3a/1x1"
  type: "Convolution"
  bottom: "pool2/3x3_s2"
  top: "inception_3a/1x1"
  param {
    lr_mult: 1
    decay_mult: 1
  }
  param {
    lr_mult: 2
    decay_mult: 0
  }
  convolution_param {
    num_output: 64
    kernel_size: 1
    weight_filler {
      type: "xavier"
      std: 0.03
    }
    bias_filler {
      type: "constant"
      value: 0.2
    }
  }
}
layer {
  name: "inception_3a/relu_1x1"
  type: "ReLU"
  bottom: "inception_3a/1x1"
  top: "inception_3a/1x1"
}
layer {
  name: "inception_3a/3x3_reduce"
  type: "Convolution"
  bottom: "pool2/3x3_s2"
  top: "inception_3a/3x3_reduce"
  param {
    lr_mult: 1
    decay_mult: 1
  }
  param {
    lr_mult: 2
    decay_mult: 0
  }
  convolution_param {
    num_output: 96
    kernel_size: 1
    weight_filler {
      type: "xavier"
      std: 0.09
    }
    bias_filler {
      type: "constant"
      value: 0.2
    }
  }
}
layer {
  name: "inception_3a/relu_3x3_reduce"
  type: "ReLU"
  bottom: "inception_3a/3x3_reduce"
  top: "inception_3a/3x3_reduce"
}
layer {
  name: "inception_3a/3x3"
  type: "Convolution"
  bottom: "inception_3a/3x3_reduce"
  top: "inception_3a/3x3"
  param {
    lr_mult: 1
    decay_mult: 1
  }
  param {
    lr_mult: 2
    decay_mult: 0
  }
  convolution_param {
    num_output: 128
    pad: 1
    kernel_size: 3
    weight_filler {
      type: "xavier"
      std: 0.03
    }
    bias_filler {
      type: "constant"
      value: 0.2
    }
  }
}
layer {
  name: "inception_3a/relu_3x3"
  type: "ReLU"
  bottom: "inception_3a/3x3"
  top: "inception_3a/3x3"
}
layer {
  name: "inception_3a/5x5_reduce"
  type: "Convolution"
  bottom: "pool2/3x3_s2"
  top: "inception_3a/5x5_reduce"
  param {
    lr_mult: 1
    decay_mult: 1
  }
  param {
    lr_mult: 2
    decay_mult: 0
  }
  convolution_param {
    num_output: 16
    kernel_size: 1
    weight_filler {
      type: "xavier"
      std: 0.2
    }
    bias_filler {
      type: "constant"
      value: 0.2
    }
  }
}
layer {
  name: "inception_3a/relu_5x5_reduce"
  type: "ReLU"
  bottom: "inception_3a/5x5_reduce"
  top: "inception_3a/5x5_reduce"
}
layer {
  name: "inception_3a/5x5"
  type: "Convolution"
  bottom: "inception_3a/5x5_reduce"
  top: "inception_3a/5x5"
  param {
    lr_mult: 1
    decay_mult: 1
  }
  param {
    lr_mult: 2
    decay_mult: 0
  }
  convolution_param {
    num_output: 32
    pad: 2
    kernel_size: 5
    weight_filler {
      type: "xavier"
      std: 0.03
    }
    bias_filler {
      type: "constant"
      value: 0.2
    }
  }
}
layer {
  name: "inception_3a/relu_5x5"
  type: "ReLU"
  bottom: "inception_3a/5x5"
  top: "inception_3a/5x5"
}
layer {
  name: "inception_3a/pool"
  type: "Pooling"
  bottom: "pool2/3x3_s2"
  top: "inception_3a/pool"
  pooling_param {
    pool: MAX
    kernel_size: 3
    stride: 1
    pad: 1
  }
}
layer {
  name: "inception_3a/pool_proj"
  type: "Convolution"
  bottom: "inception_3a/pool"
  top: "inception_3a/pool_proj"
  param {
    lr_mult: 1
    decay_mult: 1
  }
  param {
    lr_mult: 2
    decay_mult: 0
  }
  convolution_param {
    num_output: 32
    kernel_size: 1
    weight_filler {
      type: "xavier"
      std: 0.1
    }
    bias_filler {
      type: "constant"
      value: 0.2
    }
  }
}
layer {
  name: "inception_3a/relu_pool_proj"
  type: "ReLU"
  bottom: "inception_3a/pool_proj"
  top: "inception_3a/pool_proj"
}
layer {
  name: "inception_3a/output"
  type: "Concat"
  bottom: "inception_3a/1x1"
  bottom: "inception_3a/3x3"
  bottom: "inception_3a/5x5"
  bottom: "inception_3a/pool_proj"
  top: "inception_3a/output"
}
layer {
  name: "inception_3b/1x1"
  type: "Convolution"
  bottom: "inception_3a/output"
  top: "inception_3b/1x1"
  param {
    lr_mult: 1
    decay_mult: 1
  }
  param {
    lr_mult: 2
    decay_mult: 0
  }
  convolution_param {
    num_output: 128
    kernel_size: 1
    weight_filler {
      type: "xavier"
      std: 0.03
    }
    bias_filler {
      type: "constant"
      value: 0.2
    }
  }
}
layer {
  name: "inception_3b/relu_1x1"
  type: "ReLU"
  bottom: "inception_3b/1x1"
  top: "inception_3b/1x1"
}
layer {
  name: "inception_3b/3x3_reduce"
  type: "Convolution"
  bottom: "inception_3a/output"
  top: "inception_3b/3x3_reduce"
  param {
    lr_mult: 1
    decay_mult: 1
  }
  param {
    lr_mult: 2
    decay_mult: 0
  }
  convolution_param {
    num_output: 128
    kernel_size: 1
    weight_filler {
      type: "xavier"
      std: 0.09
    }
    bias_filler {
      type: "constant"
      value: 0.2
    }
  }
}
layer {
  name: "inception_3b/relu_3x3_reduce"
  type: "ReLU"
  bottom: "inception_3b/3x3_reduce"
  top: "inception_3b/3x3_reduce"
}
layer {
  name: "inception_3b/3x3"
  type: "Convolution"
  bottom: "inception_3b/3x3_reduce"
  top: "inception_3b/3x3"
  param {
    lr_mult: 1
    decay_mult: 1
  }
  param {
    lr_mult: 2
    decay_mult: 0
  }
  convolution_param {
    num_output: 192
    pad: 1
    kernel_size: 3
    weight_filler {
      type: "xavier"
      std: 0.03
    }
    bias_filler {
      type: "constant"
      value: 0.2
    }
  }
}
layer {
  name: "inception_3b/relu_3x3"
  type: "ReLU"
  bottom: "inception_3b/3x3"
  top: "inception_3b/3x3"
}
layer {
  name: "inception_3b/5x5_reduce"
  type: "Convolution"
  bottom: "inception_3a/output"
  top: "inception_3b/5x5_reduce"
  param {
    lr_mult: 1
    decay_mult: 1
  }
  param {
    lr_mult: 2
    decay_mult: 0
  }
  convolution_param {
    num_output: 32
    kernel_size: 1
    weight_filler {
      type: "xavier"
      std: 0.2
    }
    bias_filler {
      type: "constant"
      value: 0.2
    }
  }
}
layer {
  name: "inception_3b/relu_5x5_reduce"
  type: "ReLU"
  bottom: "inception_3b/5x5_reduce"
  top: "inception_3b/5x5_reduce"
}
layer {
  name: "inception_3b/5x5"
  type: "Convolution"
  bottom: "inception_3b/5x5_reduce"
  top: "inception_3b/5x5"
  param {
    lr_mult: 1
    decay_mult: 1
  }
  param {
    lr_mult: 2
    decay_mult: 0
  }
  convolution_param {
    num_output: 96
    pad: 2
    kernel_size: 5
    weight_filler {
      type: "xavier"
      std: 0.03
    }
    bias_filler {
      type: "constant"
      value: 0.2
    }
  }
}
layer {
  name: "inception_3b/relu_5x5"
  type: "ReLU"
  bottom: "inception_3b/5x5"
  top: "inception_3b/5x5"
}
layer {
  name: "inception_3b/pool"
  type: "Pooling"
  bottom: "inception_3a/output"
  top: "inception_3b/pool"
  pooling_param {
    pool: MAX
    kernel_size: 3
    stride: 1
    pad: 1
  }
}
layer {
  name: "inception_3b/pool_proj"
  type: "Convolution"
  bottom: "inception_3b/pool"
  top: "inception_3b/pool_proj"
  param {
    lr_mult: 1
    decay_mult: 1
  }
  param {
    lr_mult: 2
    decay_mult: 0
  }
  convolution_param {
    num_output: 64
    kernel_size: 1
    weight_filler {
      type: "xavier"
      std: 0.1
    }
    bias_filler {
      type: "constant"
      value: 0.2
    }
  }
}
layer {
  name: "inception_3b/relu_pool_proj"
  type: "ReLU"
  bottom: "inception_3b/pool_proj"
  top: "inception_3b/pool_proj"
}
layer {
  name: "inception_3b/output"
  type: "Concat"
  bottom: "inception_3b/1x1"
  bottom: "inception_3b/3x3"
  bottom: "inception_3b/5x5"
  bottom: "inception_3b/pool_proj"
  top: "inception_3b/output"
}
layer {
  name: "pool3/3x3_s2"
  type: "Pooling"
  bottom: "inception_3b/output"
  top: "pool3/3x3_s2"
  pooling_param {
    pool: MAX
    kernel_size: 3
    stride: 2
  }
}
layer {
  name: "inception_4a/1x1"
  type: "Convolution"
  bottom: "pool3/3x3_s2"
  top: "inception_4a/1x1"
  param {
    lr_mult: 1
    decay_mult: 1
  }
  param {
    lr_mult: 2
    decay_mult: 0
  }
  convolution_param {
    num_output: 192
    kernel_size: 1
    weight_filler {
      type: "xavier"
      std: 0.03
    }
    bias_filler {
      type: "constant"
      value: 0.2
    }
  }
}
layer {
  name: "inception_4a/relu_1x1"
  type: "ReLU"
  bottom: "inception_4a/1x1"
  top: "inception_4a/1x1"
}
layer {
  name: "inception_4a/3x3_reduce"
  type: "Convolution"
  bottom: "pool3/3x3_s2"
  top: "inception_4a/3x3_reduce"
  param {
    lr_mult: 1
    decay_mult: 1
  }
  param {
    lr_mult: 2
    decay_mult: 0
  }
  convolution_param {
    num_output: 96
    kernel_size: 1
    weight_filler {
      type: "xavier"
      std: 0.09
    }
    bias_filler {
      type: "constant"
      value: 0.2
    }
  }
}
layer {
  name: "inception_4a/relu_3x3_reduce"
  type: "ReLU"
  bottom: "inception_4a/3x3_reduce"
  top: "inception_4a/3x3_reduce"
}
layer {
  name: "inception_4a/3x3"
  type: "Convolution"
  bottom: "inception_4a/3x3_reduce"
  top: "inception_4a/3x3"
  param {
    lr_mult: 1
    decay_mult: 1
  }
  param {
    lr_mult: 2
    decay_mult: 0
  }
  convolution_param {
    num_output: 208
    pad: 1
    kernel_size: 3
    weight_filler {
      type: "xavier"
      std: 0.03
    }
    bias_filler {
      type: "constant"
      value: 0.2
    }
  }
}
layer {
  name: "inception_4a/relu_3x3"
  type: "ReLU"
  bottom: "inception_4a/3x3"
  top: "inception_4a/3x3"
}
layer {
  name: "inception_4a/5x5_reduce"
  type: "Convolution"
  bottom: "pool3/3x3_s2"
  top: "inception_4a/5x5_reduce"
  param {
    lr_mult: 1
    decay_mult: 1
  }
  param {
    lr_mult: 2
    decay_mult: 0
  }
  convolution_param {
    num_output: 16
    kernel_size: 1
    weight_filler {
      type: "xavier"
      std: 0.2
    }
    bias_filler {
      type: "constant"
      value: 0.2
    }
  }
}
layer {
  name: "inception_4a/relu_5x5_reduce"
  type: "ReLU"
  bottom: "inception_4a/5x5_reduce"
  top: "inception_4a/5x5_reduce"
}
layer {
  name: "inception_4a/5x5"
  type: "Convolution"
  bottom: "inception_4a/5x5_reduce"
  top: "inception_4a/5x5"
  param {
    lr_mult: 1
    decay_mult: 1
  }
  param {
    lr_mult: 2
    decay_mult: 0
  }
  convolution_param {
    num_output: 48
    pad: 2
    kernel_size: 5
    weight_filler {
      type: "xavier"
      std: 0.03
    }
    bias_filler {
      type: "constant"
      value: 0.2
    }
  }
}
layer {
  name: "inception_4a/relu_5x5"
  type: "ReLU"
  bottom: "inception_4a/5x5"
  top: "inception_4a/5x5"
}
layer {
  name: "inception_4a/pool"
  type: "Pooling"
  bottom: "pool3/3x3_s2"
  top: "inception_4a/pool"
  pooling_param {
    pool: MAX
    kernel_size: 3
    stride: 1
    pad: 1
  }
}
layer {
  name: "inception_4a/pool_proj"
  type: "Convolution"
  bottom: "inception_4a/pool"
  top: "inception_4a/pool_proj"
  param {
    lr_mult: 1
    decay_mult: 1
  }
  param {
    lr_mult: 2
    decay_mult: 0
  }
  convolution_param {
    num_output: 64
    kernel_size: 1
    weight_filler {
      type: "xavier"
      std: 0.1
    }
    bias_filler {
      type: "constant"
      value: 0.2
    }
  }
}
layer {
  name: "inception_4a/relu_pool_proj"
  type: "ReLU"
  bottom: "inception_4a/pool_proj"
  top: "inception_4a/pool_proj"
}
layer {
  name: "inception_4a/output"
  type: "Concat"
  bottom: "inception_4a/1x1"
  bottom: "inception_4a/3x3"
  bottom: "inception_4a/5x5"
  bottom: "inception_4a/pool_proj"
  top: "inception_4a/output"
}
layer {
  name: "loss1/ave_pool"
  type: "Pooling"
  bottom: "inception_4a/output"
  top: "loss1/ave_pool"
  pooling_param {
    pool: AVE
    kernel_size: 5
    stride: 3
  }
}
layer {
  name: "loss1/conv"
  type: "Convolution"
  bottom: "loss1/ave_pool"
  top: "loss1/conv"
  param {
    lr_mult: 1
    decay_mult: 1
  }
  param {
    lr_mult: 2
    decay_mult: 0
  }
  convolution_param {
    num_output: 128
    kernel_size: 1
    weight_filler {
      type: "xavier"
      std: 0.08
    }
    bias_filler {
      type: "constant"
      value: 0.2
    }
  }
}
layer {
  name: "loss1/relu_conv"
  type: "ReLU"
  bottom: "loss1/conv"
  top: "loss1/conv"
}
layer {
  name: "loss1/fc"
  type: "InnerProduct"
  bottom: "loss1/conv"
  top: "loss1/fc"
  param {
    lr_mult: 1
    decay_mult: 1
  }
  param {
    lr_mult: 2
    decay_mult: 0
  }
  inner_product_param {
    num_output: 1024
    weight_filler {
      type: "xavier"
      std: 0.02
    }
    bias_filler {
      type: "constant"
      value: 0.2
    }
  }
}
layer {
  name: "loss1/relu_fc"
  type: "ReLU"
  bottom: "loss1/fc"
  top: "loss1/fc"
}
layer {
  name: "loss1/drop_fc"
  type: "Dropout"
  bottom: "loss1/fc"
  top: "loss1/fc"
  dropout_param {
    dropout_ratio: 0.7
  }
}
layer {
  name: "loss1/classifier_plantvillage"
  type: "InnerProduct"
  bottom: "loss1/fc"
  top: "loss1/classifier_plantvillage"
  param {
    lr_mult: 1
    decay_mult: 1
  }
  param {
    lr_mult: 2
    decay_mult: 0
  }
  inner_product_param {
    num_output: 38
    weight_filler {
      type: "xavier"
      std: 0.0009765625
    }
    bias_filler {
      type: "constant"
      value: 0
    }
  }
}
layer {
  name: "inception_4b/1x1"
  type: "Convolution"
  bottom: "inception_4a/output"
  top: "inception_4b/1x1"
  param {
    lr_mult: 1
    decay_mult: 1
  }
  param {
    lr_mult: 2
    decay_mult: 0
  }
  convolution_param {
    num_output: 160
    kernel_size: 1
    weight_filler {
      type: "xavier"
      std: 0.03
    }
    bias_filler {
      type: "constant"
      value: 0.2
    }
  }
}
layer {
  name: "inception_4b/relu_1x1"
  type: "ReLU"
  bottom: "inception_4b/1x1"
  top: "inception_4b/1x1"
}
layer {
  name: "inception_4b/3x3_reduce"
  type: "Convolution"
  bottom: "inception_4a/output"
  top: "inception_4b/3x3_reduce"
  param {
    lr_mult: 1
    decay_mult: 1
  }
  param {
    lr_mult: 2
    decay_mult: 0
  }
  convolution_param {
    num_output: 112
    kernel_size: 1
    weight_filler {
      type: "xavier"
      std: 0.09
    }
    bias_filler {
      type: "constant"
      value: 0.2
    }
  }
}
layer {
  name: "inception_4b/relu_3x3_reduce"
  type: "ReLU"
  bottom: "inception_4b/3x3_reduce"
  top: "inception_4b/3x3_reduce"
}
layer {
  name: "inception_4b/3x3"
  type: "Convolution"
  bottom: "inception_4b/3x3_reduce"
  top: "inception_4b/3x3"
  param {
    lr_mult: 1
    decay_mult: 1
  }
  param {
    lr_mult: 2
    decay_mult: 0
  }
  convolution_param {
    num_output: 224
    pad: 1
    kernel_size: 3
    weight_filler {
      type: "xavier"
      std: 0.03
    }
    bias_filler {
      type: "constant"
      value: 0.2
    }
  }
}
layer {
  name: "inception_4b/relu_3x3"
  type: "ReLU"
  bottom: "inception_4b/3x3"
  top: "inception_4b/3x3"
}
layer {
  name: "inception_4b/5x5_reduce"
  type: "Convolution"
  bottom: "inception_4a/output"
  top: "inception_4b/5x5_reduce"
  param {
    lr_mult: 1
    decay_mult: 1
  }
  param {
    lr_mult: 2
    decay_mult: 0
  }
  convolution_param {
    num_output: 24
    kernel_size: 1
    weight_filler {
      type: "xavier"
      std: 0.2
    }
    bias_filler {
      type: "constant"
      value: 0.2
    }
  }
}
layer {
  name: "inception_4b/relu_5x5_reduce"
  type: "ReLU"
  bottom: "inception_4b/5x5_reduce"
  top: "inception_4b/5x5_reduce"
}
layer {
  name: "inception_4b/5x5"
  type: "Convolution"
  bottom: "inception_4b/5x5_reduce"
  top: "inception_4b/5x5"
  param {
    lr_mult: 1
    decay_mult: 1
  }
  param {
    lr_mult: 2
    decay_mult: 0
  }
  convolution_param {
    num_output: 64
    pad: 2
    kernel_size: 5
    weight_filler {
      type: "xavier"
      std: 0.03
    }
    bias_filler {
      type: "constant"
      value: 0.2
    }
  }
}
layer {
  name: "inception_4b/relu_5x5"
  type: "ReLU"
  bottom: "inception_4b/5x5"
  top: "inception_4b/5x5"
}
layer {
  name: "inception_4b/pool"
  type: "Pooling"
  bottom: "inception_4a/output"
  top: "inception_4b/pool"
  pooling_param {
    pool: MAX
    kernel_size: 3
    stride: 1
    pad: 1
  }
}
layer {
  name: "inception_4b/pool_proj"
  type: "Convolution"
  bottom: "inception_4b/pool"
  top: "inception_4b/pool_proj"
  param {
    lr_mult: 1
    decay_mult: 1
  }
  param {
    lr_mult: 2
    decay_mult: 0
  }
  convolution_param {
    num_output: 64
    kernel_size: 1
    weight_filler {
      type: "xavier"
      std: 0.1
    }
    bias_filler {
      type: "constant"
      value: 0.2
    }
  }
}
layer {
  name: "inception_4b/relu_pool_proj"
  type: "ReLU"
  bottom: "inception_4b/pool_proj"
  top: "inception_4b/pool_proj"
}
layer {
  name: "inception_4b/output"
  type: "Concat"
  bottom: "inception_4b/1x1"
  bottom: "inception_4b/3x3"
  bottom: "inception_4b/5x5"
  bottom: "inception_4b/pool_proj"
  top: "inception_4b/output"
}
layer {
  name: "inception_4c/1x1"
  type: "Convolution"
  bottom: "inception_4b/output"
  top: "inception_4c/1x1"
  param {
    lr_mult: 1
    decay_mult: 1
  }
  param {
    lr_mult: 2
    decay_mult: 0
  }
  convolution_param {
    num_output: 128
    kernel_size: 1
    weight_filler {
      type: "xavier"
      std: 0.03
    }
    bias_filler {
      type: "constant"
      value: 0.2
    }
  }
}
layer {
  name: "inception_4c/relu_1x1"
  type: "ReLU"
  bottom: "inception_4c/1x1"
  top: "inception_4c/1x1"
}
layer {
  name: "inception_4c/3x3_reduce"
  type: "Convolution"
  bottom: "inception_4b/output"
  top: "inception_4c/3x3_reduce"
  param {
    lr_mult: 1
    decay_mult: 1
  }
  param {
    lr_mult: 2
    decay_mult: 0
  }
  convolution_param {
    num_output: 128
    kernel_size: 1
    weight_filler {
      type: "xavier"
      std: 0.09
    }
    bias_filler {
      type: "constant"
      value: 0.2
    }
  }
}
layer {
  name: "inception_4c/relu_3x3_reduce"
  type: "ReLU"
  bottom: "inception_4c/3x3_reduce"
  top: "inception_4c/3x3_reduce"
}
layer {
  name: "inception_4c/3x3"
  type: "Convolution"
  bottom: "inception_4c/3x3_reduce"
  top: "inception_4c/3x3"
  param {
    lr_mult: 1
    decay_mult: 1
  }
  param {
    lr_mult: 2
    decay_mult: 0
  }
  convolution_param {
    num_output: 256
    pad: 1
    kernel_size: 3
    weight_filler {
      type: "xavier"
      std: 0.03
    }
    bias_filler {
      type: "constant"
      value: 0.2
    }
  }
}
layer {
  name: "inception_4c/relu_3x3"
  type: "ReLU"
  bottom: "inception_4c/3x3"
  top: "inception_4c/3x3"
}
layer {
  name: "inception_4c/5x5_reduce"
  type: "Convolution"
  bottom: "inception_4b/output"
  top: "inception_4c/5x5_reduce"
  param {
    lr_mult: 1
    decay_mult: 1
  }
  param {
    lr_mult: 2
    decay_mult: 0
  }
  convolution_param {
    num_output: 24
    kernel_size: 1
    weight_filler {
      type: "xavier"
      std: 0.2
    }
    bias_filler {
      type: "constant"
      value: 0.2
    }
  }
}
layer {
  name: "inception_4c/relu_5x5_reduce"
  type: "ReLU"
  bottom: "inception_4c/5x5_reduce"
  top: "inception_4c/5x5_reduce"
}
layer {
  name: "inception_4c/5x5"
  type: "Convolution"
  bottom: "inception_4c/5x5_reduce"
  top: "inception_4c/5x5"
  param {
    lr_mult: 1
    decay_mult: 1
  }
  param {
    lr_mult: 2
    decay_mult: 0
  }
  convolution_param {
    num_output: 64
    pad: 2
    kernel_size: 5
    weight_filler {
      type: "xavier"
      std: 0.03
    }
    bias_filler {
      type: "constant"
      value: 0.2
    }
  }
}
layer {
  name: "inception_4c/relu_5x5"
  type: "ReLU"
  bottom: "inception_4c/5x5"
  top: "inception_4c/5x5"
}
layer {
  name: "inception_4c/pool"
  type: "Pooling"
  bottom: "inception_4b/output"
  top: "inception_4c/pool"
  pooling_param {
    pool: MAX
    kernel_size: 3
    stride: 1
    pad: 1
  }
}
layer {
  name: "inception_4c/pool_proj"
  type: "Convolution"
  bottom: "inception_4c/pool"
  top: "inception_4c/pool_proj"
  param {
    lr_mult: 1
    decay_mult: 1
  }
  param {
    lr_mult: 2
    decay_mult: 0
  }
  convolution_param {
    num_output: 64
    kernel_size: 1
    weight_filler {
      type: "xavier"
      std: 0.1
    }
    bias_filler {
      type: "constant"
      value: 0.2
    }
  }
}
layer {
  name: "inception_4c/relu_pool_proj"
  type: "ReLU"
  bottom: "inception_4c/pool_proj"
  top: "inception_4c/pool_proj"
}
layer {
  name: "inception_4c/output"
  type: "Concat"
  bottom: "inception_4c/1x1"
  bottom: "inception_4c/3x3"
  bottom: "inception_4c/5x5"
  bottom: "inception_4c/pool_proj"
  top: "inception_4c/output"
}
layer {
  name: "inception_4d/1x1"
  type: "Convolution"
  bottom: "inception_4c/output"
  top: "inception_4d/1x1"
  param {
    lr_mult: 1
    decay_mult: 1
  }
  param {
    lr_mult: 2
    decay_mult: 0
  }
  convolution_param {
    num_output: 112
    kernel_size: 1
    weight_filler {
      type: "xavier"
      std: 0.03
    }
    bias_filler {
      type: "constant"
      value: 0.2
    }
  }
}
layer {
  name: "inception_4d/relu_1x1"
  type: "ReLU"
  bottom: "inception_4d/1x1"
  top: "inception_4d/1x1"
}
layer {
  name: "inception_4d/3x3_reduce"
  type: "Convolution"
  bottom: "inception_4c/output"
  top: "inception_4d/3x3_reduce"
  param {
    lr_mult: 1
    decay_mult: 1
  }
  param {
    lr_mult: 2
    decay_mult: 0
  }
  convolution_param {
    num_output: 144
    kernel_size: 1
    weight_filler {
      type: "xavier"
      std: 0.09
    }
    bias_filler {
      type: "constant"
      value: 0.2
    }
  }
}
layer {
  name: "inception_4d/relu_3x3_reduce"
  type: "ReLU"
  bottom: "inception_4d/3x3_reduce"
  top: "inception_4d/3x3_reduce"
}
layer {
  name: "inception_4d/3x3"
  type: "Convolution"
  bottom: "inception_4d/3x3_reduce"
  top: "inception_4d/3x3"
  param {
    lr_mult: 1
    decay_mult: 1
  }
  param {
    lr_mult: 2
    decay_mult: 0
  }
  convolution_param {
    num_output: 288
    pad: 1
    kernel_size: 3
    weight_filler {
      type: "xavier"
      std: 0.03
    }
    bias_filler {
      type: "constant"
      value: 0.2
    }
  }
}
layer {
  name: "inception_4d/relu_3x3"
  type: "ReLU"
  bottom: "inception_4d/3x3"
  top: "inception_4d/3x3"
}
layer {
  name: "inception_4d/5x5_reduce"
  type: "Convolution"
  bottom: "inception_4c/output"
  top: "inception_4d/5x5_reduce"
  param {
    lr_mult: 1
    decay_mult: 1
  }
  param {
    lr_mult: 2
    decay_mult: 0
  }
  convolution_param {
    num_output: 32
    kernel_size: 1
    weight_filler {
      type: "xavier"
      std: 0.2
    }
    bias_filler {
      type: "constant"
      value: 0.2
    }
  }
}
layer {
  name: "inception_4d/relu_5x5_reduce"
  type: "ReLU"
  bottom: "inception_4d/5x5_reduce"
  top: "inception_4d/5x5_reduce"
}
layer {
  name: "inception_4d/5x5"
  type: "Convolution"
  bottom: "inception_4d/5x5_reduce"
  top: "inception_4d/5x5"
  param {
    lr_mult: 1
    decay_mult: 1
  }
  param {
    lr_mult: 2
    decay_mult: 0
  }
  convolution_param {
    num_output: 64
    pad: 2
    kernel_size: 5
    weight_filler {
      type: "xavier"
      std: 0.03
    }
    bias_filler {
      type: "constant"
      value: 0.2
    }
  }
}
layer {
  name: "inception_4d/relu_5x5"
  type: "ReLU"
  bottom: "inception_4d/5x5"
  top: "inception_4d/5x5"
}
layer {
  name: "inception_4d/pool"
  type: "Pooling"
  bottom: "inception_4c/output"
  top: "inception_4d/pool"
  pooling_param {
    pool: MAX
    kernel_size: 3
    stride: 1
    pad: 1
  }
}
layer {
  name: "inception_4d/pool_proj"
  type: "Convolution"
  bottom: "inception_4d/pool"
  top: "inception_4d/pool_proj"
  param {
    lr_mult: 1
    decay_mult: 1
  }
  param {
    lr_mult: 2
    decay_mult: 0
  }
  convolution_param {
    num_output: 64
    kernel_size: 1
    weight_filler {
      type: "xavier"
      std: 0.1
    }
    bias_filler {
      type: "constant"
      value: 0.2
    }
  }
}
layer {
  name: "inception_4d/relu_pool_proj"
  type: "ReLU"
  bottom: "inception_4d/pool_proj"
  top: "inception_4d/pool_proj"
}
layer {
  name: "inception_4d/output"
  type: "Concat"
  bottom: "inception_4d/1x1"
  bottom: "inception_4d/3x3"
  bottom: "inception_4d/5x5"
  bottom: "inception_4d/pool_proj"
  top: "inception_4d/output"
}
layer {
  name: "loss2/ave_pool"
  type: "Pooling"
  bottom: "inception_4d/output"
  top: "loss2/ave_pool"
  pooling_param {
    pool: AVE
    kernel_size: 5
    stride: 3
  }
}
layer {
  name: "loss2/conv"
  type: "Convolution"
  bottom: "loss2/ave_pool"
  top: "loss2/conv"
  param {
    lr_mult: 1
    decay_mult: 1
  }
  param {
    lr_mult: 2
    decay_mult: 0
  }
  convolution_param {
    num_output: 128
    kernel_size: 1
    weight_filler {
      type: "xavier"
      std: 0.08
    }
    bias_filler {
      type: "constant"
      value: 0.2
    }
  }
}
layer {
  name: "loss2/relu_conv"
  type: "ReLU"
  bottom: "loss2/conv"
  top: "loss2/conv"
}
layer {
  name: "loss2/fc"
  type: "InnerProduct"
  bottom: "loss2/conv"
  top: "loss2/fc"
  param {
    lr_mult: 1
    decay_mult: 1
  }
  param {
    lr_mult: 2
    decay_mult: 0
  }
  inner_product_param {
    num_output: 1024
    weight_filler {
      type: "xavier"
      std: 0.02
    }
    bias_filler {
      type: "constant"
      value: 0.2
    }
  }
}
layer {
  name: "loss2/relu_fc"
  type: "ReLU"
  bottom: "loss2/fc"
  top: "loss2/fc"
}
layer {
  name: "loss2/drop_fc"
  type: "Dropout"
  bottom: "loss2/fc"
  top: "loss2/fc"
  dropout_param {
    dropout_ratio: 0.7
  }
}
layer {
  name: "loss2/classifier_plantvillage"
  type: "InnerProduct"
  bottom: "loss2/fc"
  top: "loss2/classifier_plantvillage"
  param {
    lr_mult: 1
    decay_mult: 1
  }
  param {
    lr_mult: 2
    decay_mult: 0
  }
  inner_product_param {
    num_output: 38
    weight_filler {
      type: "xavier"
      std: 0.0009765625
    }
    bias_filler {
      type: "constant"
      value: 0
    }
  }
}
layer {
  name: "inception_4e/1x1"
  type: "Convolution"
  bottom: "inception_4d/output"
  top: "inception_4e/1x1"
  param {
    lr_mult: 1
    decay_mult: 1
  }
  param {
    lr_mult: 2
    decay_mult: 0
  }
  convolution_param {
    num_output: 256
    kernel_size: 1
    weight_filler {
      type: "xavier"
      std: 0.03
    }
    bias_filler {
      type: "constant"
      value: 0.2
    }
  }
}
layer {
  name: "inception_4e/relu_1x1"
  type: "ReLU"
  bottom: "inception_4e/1x1"
  top: "inception_4e/1x1"
}
layer {
  name: "inception_4e/3x3_reduce"
  type: "Convolution"
  bottom: "inception_4d/output"
  top: "inception_4e/3x3_reduce"
  param {
    lr_mult: 1
    decay_mult: 1
  }
  param {
    lr_mult: 2
    decay_mult: 0
  }
  convolution_param {
    num_output: 160
    kernel_size: 1
    weight_filler {
      type: "xavier"
      std: 0.09
    }
    bias_filler {
      type: "constant"
      value: 0.2
    }
  }
}
layer {
  name: "inception_4e/relu_3x3_reduce"
  type: "ReLU"
  bottom: "inception_4e/3x3_reduce"
  top: "inception_4e/3x3_reduce"
}
layer {
  name: "inception_4e/3x3"
  type: "Convolution"
  bottom: "inception_4e/3x3_reduce"
  top: "inception_4e/3x3"
  param {
    lr_mult: 1
    decay_mult: 1
  }
  param {
    lr_mult: 2
    decay_mult: 0
  }
  convolution_param {
    num_output: 320
    pad: 1
    kernel_size: 3
    weight_filler {
      type: "xavier"
      std: 0.03
    }
    bias_filler {
      type: "constant"
      value: 0.2
    }
  }
}
layer {
  name: "inception_4e/relu_3x3"
  type: "ReLU"
  bottom: "inception_4e/3x3"
  top: "inception_4e/3x3"
}
layer {
  name: "inception_4e/5x5_reduce"
  type: "Convolution"
  bottom: "inception_4d/output"
  top: "inception_4e/5x5_reduce"
  param {
    lr_mult: 1
    decay_mult: 1
  }
  param {
    lr_mult: 2
    decay_mult: 0
  }
  convolution_param {
    num_output: 32
    kernel_size: 1
    weight_filler {
      type: "xavier"
      std: 0.2
    }
    bias_filler {
      type: "constant"
      value: 0.2
    }
  }
}
layer {
  name: "inception_4e/relu_5x5_reduce"
  type: "ReLU"
  bottom: "inception_4e/5x5_reduce"
  top: "inception_4e/5x5_reduce"
}
layer {
  name: "inception_4e/5x5"
  type: "Convolution"
  bottom: "inception_4e/5x5_reduce"
  top: "inception_4e/
I0403 16:21:38.845466 20994 layer_factory.hpp:77] Creating layer data
I0403 16:21:38.846076 20994 net.cpp:91] Creating Layer data
I0403 16:21:38.846107 20994 net.cpp:399] data -> data
I0403 16:21:38.846158 20994 net.cpp:399] data -> label
I0403 16:21:38.846194 20994 data_transformer.cpp:25] Loading mean file from: /home/mohanty/data/final_dataset/lmdb/grayscale-20-80/mean.binaryproto
I0403 16:21:38.847407 20997 db_lmdb.cpp:38] Opened lmdb /home/mohanty/data/final_dataset/lmdb/grayscale-20-80/test_db
I0403 16:21:38.859128 20994 data_layer.cpp:41] output data size: 24,3,224,224
I0403 16:21:38.885629 20994 net.cpp:141] Setting up data
I0403 16:21:38.885713 20994 net.cpp:148] Top shape: 24 3 224 224 (3612672)
I0403 16:21:38.885740 20994 net.cpp:148] Top shape: 24 (24)
I0403 16:21:38.885754 20994 net.cpp:156] Memory required for data: 14450784
I0403 16:21:38.885782 20994 layer_factory.hpp:77] Creating layer label_data_1_split
I0403 16:21:38.885810 20994 net.cpp:91] Creating Layer label_data_1_split
I0403 16:21:38.885828 20994 net.cpp:425] label_data_1_split <- label
I0403 16:21:38.885861 20994 net.cpp:399] label_data_1_split -> label_data_1_split_0
I0403 16:21:38.885891 20994 net.cpp:399] label_data_1_split -> label_data_1_split_1
I0403 16:21:38.885913 20994 net.cpp:399] label_data_1_split -> label_data_1_split_2
I0403 16:21:38.885936 20994 net.cpp:399] label_data_1_split -> label_data_1_split_3
I0403 16:21:38.885956 20994 net.cpp:399] label_data_1_split -> label_data_1_split_4
I0403 16:21:38.885977 20994 net.cpp:399] label_data_1_split -> label_data_1_split_5
I0403 16:21:38.885998 20994 net.cpp:399] label_data_1_split -> label_data_1_split_6
I0403 16:21:38.886023 20994 net.cpp:399] label_data_1_split -> label_data_1_split_7
I0403 16:21:38.886044 20994 net.cpp:399] label_data_1_split -> label_data_1_split_8
I0403 16:21:38.886066 20994 net.cpp:399] label_data_1_split -> label_data_1_split_9
I0403 16:21:38.886179 20994 net.cpp:141] Setting up label_data_1_split
I0403 16:21:38.886204 20994 net.cpp:148] Top shape: 24 (24)
I0403 16:21:38.886221 20994 net.cpp:148] Top shape: 24 (24)
I0403 16:21:38.886239 20994 net.cpp:148] Top shape: 24 (24)
I0403 16:21:38.886255 20994 net.cpp:148] Top shape: 24 (24)
I0403 16:21:38.886270 20994 net.cpp:148] Top shape: 24 (24)
I0403 16:21:38.886286 20994 net.cpp:148] Top shape: 24 (24)
I0403 16:21:38.886302 20994 net.cpp:148] Top shape: 24 (24)
I0403 16:21:38.886318 20994 net.cpp:148] Top shape: 24 (24)
I0403 16:21:38.886334 20994 net.cpp:148] Top shape: 24 (24)
I0403 16:21:38.886350 20994 net.cpp:148] Top shape: 24 (24)
I0403 16:21:38.886395 20994 net.cpp:156] Memory required for data: 14451744
I0403 16:21:38.886412 20994 layer_factory.hpp:77] Creating layer conv1/7x7_s2
I0403 16:21:38.886445 20994 net.cpp:91] Creating Layer conv1/7x7_s2
I0403 16:21:38.886463 20994 net.cpp:425] conv1/7x7_s2 <- data
I0403 16:21:38.886483 20994 net.cpp:399] conv1/7x7_s2 -> conv1/7x7_s2
I0403 16:21:39.022367 20994 net.cpp:141] Setting up conv1/7x7_s2
I0403 16:21:39.022450 20994 net.cpp:148] Top shape: 24 64 112 112 (19267584)
I0403 16:21:39.022469 20994 net.cpp:156] Memory required for data: 91522080
I0403 16:21:39.022498 20994 layer_factory.hpp:77] Creating layer conv1/relu_7x7
I0403 16:21:39.022526 20994 net.cpp:91] Creating Layer conv1/relu_7x7
I0403 16:21:39.022543 20994 net.cpp:425] conv1/relu_7x7 <- conv1/7x7_s2
I0403 16:21:39.022562 20994 net.cpp:386] conv1/relu_7x7 -> conv1/7x7_s2 (in-place)
I0403 16:21:39.022817 20994 net.cpp:141] Setting up conv1/relu_7x7
I0403 16:21:39.022845 20994 net.cpp:148] Top shape: 24 64 112 112 (19267584)
I0403 16:21:39.022861 20994 net.cpp:156] Memory required for data: 168592416
I0403 16:21:39.022876 20994 layer_factory.hpp:77] Creating layer pool1/3x3_s2
I0403 16:21:39.022900 20994 net.cpp:91] Creating Layer pool1/3x3_s2
I0403 16:21:39.022918 20994 net.cpp:425] pool1/3x3_s2 <- conv1/7x7_s2
I0403 16:21:39.022936 20994 net.cpp:399] pool1/3x3_s2 -> pool1/3x3_s2
I0403 16:21:39.023010 20994 net.cpp:141] Setting up pool1/3x3_s2
I0403 16:21:39.023038 20994 net.cpp:148] Top shape: 24 64 56 56 (4816896)
I0403 16:21:39.023054 20994 net.cpp:156] Memory required for data: 187860000
I0403 16:21:39.023069 20994 layer_factory.hpp:77] Creating layer pool1/norm1
I0403 16:21:39.023093 20994 net.cpp:91] Creating Layer pool1/norm1
I0403 16:21:39.023111 20994 net.cpp:425] pool1/norm1 <- pool1/3x3_s2
I0403 16:21:39.023129 20994 net.cpp:399] pool1/norm1 -> pool1/norm1
I0403 16:21:39.023406 20994 net.cpp:141] Setting up pool1/norm1
I0403 16:21:39.023433 20994 net.cpp:148] Top shape: 24 64 56 56 (4816896)
I0403 16:21:39.023449 20994 net.cpp:156] Memory required for data: 207127584
I0403 16:21:39.023464 20994 layer_factory.hpp:77] Creating layer conv2/3x3_reduce
I0403 16:21:39.023488 20994 net.cpp:91] Creating Layer conv2/3x3_reduce
I0403 16:21:39.023505 20994 net.cpp:425] conv2/3x3_reduce <- pool1/norm1
I0403 16:21:39.023524 20994 net.cpp:399] conv2/3x3_reduce -> conv2/3x3_reduce
I0403 16:21:39.024828 20994 net.cpp:141] Setting up conv2/3x3_reduce
I0403 16:21:39.024858 20994 net.cpp:148] Top shape: 24 64 56 56 (4816896)
I0403 16:21:39.024875 20994 net.cpp:156] Memory required for data: 226395168
I0403 16:21:39.024896 20994 layer_factory.hpp:77] Creating layer conv2/relu_3x3_reduce
I0403 16:21:39.024915 20994 net.cpp:91] Creating Layer conv2/relu_3x3_reduce
I0403 16:21:39.024932 20994 net.cpp:425] conv2/relu_3x3_reduce <- conv2/3x3_reduce
I0403 16:21:39.024950 20994 net.cpp:386] conv2/relu_3x3_reduce -> conv2/3x3_reduce (in-place)
I0403 16:21:39.025199 20994 net.cpp:141] Setting up conv2/relu_3x3_reduce
I0403 16:21:39.025228 20994 net.cpp:148] Top shape: 24 64 56 56 (4816896)
I0403 16:21:39.025243 20994 net.cpp:156] Memory required for data: 245662752
I0403 16:21:39.025259 20994 layer_factory.hpp:77] Creating layer conv2/3x3
I0403 16:21:39.025281 20994 net.cpp:91] Creating Layer conv2/3x3
I0403 16:21:39.025297 20994 net.cpp:425] conv2/3x3 <- conv2/3x3_reduce
I0403 16:21:39.025316 20994 net.cpp:399] conv2/3x3 -> conv2/3x3
I0403 16:21:39.027495 20994 net.cpp:141] Setting up conv2/3x3
I0403 16:21:39.027528 20994 net.cpp:148] Top shape: 24 192 56 56 (14450688)
I0403 16:21:39.027545 20994 net.cpp:156] Memory required for data: 303465504
I0403 16:21:39.027567 20994 layer_factory.hpp:77] Creating layer conv2/relu_3x3
I0403 16:21:39.027587 20994 net.cpp:91] Creating Layer conv2/relu_3x3
I0403 16:21:39.027603 20994 net.cpp:425] conv2/relu_3x3 <- conv2/3x3
I0403 16:21:39.027622 20994 net.cpp:386] conv2/relu_3x3 -> conv2/3x3 (in-place)
I0403 16:21:39.027783 20994 net.cpp:141] Setting up conv2/relu_3x3
I0403 16:21:39.027809 20994 net.cpp:148] Top shape: 24 192 56 56 (14450688)
I0403 16:21:39.027856 20994 net.cpp:156] Memory required for data: 361268256
I0403 16:21:39.027873 20994 layer_factory.hpp:77] Creating layer conv2/norm2
I0403 16:21:39.027890 20994 net.cpp:91] Creating Layer conv2/norm2
I0403 16:21:39.027906 20994 net.cpp:425] conv2/norm2 <- conv2/3x3
I0403 16:21:39.027925 20994 net.cpp:399] conv2/norm2 -> conv2/norm2
I0403 16:21:39.028233 20994 net.cpp:141] Setting up conv2/norm2
I0403 16:21:39.028259 20994 net.cpp:148] Top shape: 24 192 56 56 (14450688)
I0403 16:21:39.028275 20994 net.cpp:156] Memory required for data: 419071008
I0403 16:21:39.028290 20994 layer_factory.hpp:77] Creating layer pool2/3x3_s2
I0403 16:21:39.028309 20994 net.cpp:91] Creating Layer pool2/3x3_s2
I0403 16:21:39.028326 20994 net.cpp:425] pool2/3x3_s2 <- conv2/norm2
I0403 16:21:39.028343 20994 net.cpp:399] pool2/3x3_s2 -> pool2/3x3_s2
I0403 16:21:39.028398 20994 net.cpp:141] Setting up pool2/3x3_s2
I0403 16:21:39.028420 20994 net.cpp:148] Top shape: 24 192 28 28 (3612672)
I0403 16:21:39.028435 20994 net.cpp:156] Memory required for data: 433521696
I0403 16:21:39.028450 20994 layer_factory.hpp:77] Creating layer pool2/3x3_s2_pool2/3x3_s2_0_split
I0403 16:21:39.028467 20994 net.cpp:91] Creating Layer pool2/3x3_s2_pool2/3x3_s2_0_split
I0403 16:21:39.028482 20994 net.cpp:425] pool2/3x3_s2_pool2/3x3_s2_0_split <- pool2/3x3_s2
I0403 16:21:39.028501 20994 net.cpp:399] pool2/3x3_s2_pool2/3x3_s2_0_split -> pool2/3x3_s2_pool2/3x3_s2_0_split_0
I0403 16:21:39.028520 20994 net.cpp:399] pool2/3x3_s2_pool2/3x3_s2_0_split -> pool2/3x3_s2_pool2/3x3_s2_0_split_1
I0403 16:21:39.028539 20994 net.cpp:399] pool2/3x3_s2_pool2/3x3_s2_0_split -> pool2/3x3_s2_pool2/3x3_s2_0_split_2
I0403 16:21:39.028558 20994 net.cpp:399] pool2/3x3_s2_pool2/3x3_s2_0_split -> pool2/3x3_s2_pool2/3x3_s2_0_split_3
I0403 16:21:39.028625 20994 net.cpp:141] Setting up pool2/3x3_s2_pool2/3x3_s2_0_split
I0403 16:21:39.028650 20994 net.cpp:148] Top shape: 24 192 28 28 (3612672)
I0403 16:21:39.028667 20994 net.cpp:148] Top shape: 24 192 28 28 (3612672)
I0403 16:21:39.028682 20994 net.cpp:148] Top shape: 24 192 28 28 (3612672)
I0403 16:21:39.028698 20994 net.cpp:148] Top shape: 24 192 28 28 (3612672)
I0403 16:21:39.028712 20994 net.cpp:156] Memory required for data: 491324448
I0403 16:21:39.028728 20994 layer_factory.hpp:77] Creating layer inception_3a/1x1
I0403 16:21:39.028751 20994 net.cpp:91] Creating Layer inception_3a/1x1
I0403 16:21:39.028769 20994 net.cpp:425] inception_3a/1x1 <- pool2/3x3_s2_pool2/3x3_s2_0_split_0
I0403 16:21:39.028787 20994 net.cpp:399] inception_3a/1x1 -> inception_3a/1x1
I0403 16:21:39.030308 20994 net.cpp:141] Setting up inception_3a/1x1
I0403 16:21:39.030339 20994 net.cpp:148] Top shape: 24 64 28 28 (1204224)
I0403 16:21:39.030355 20994 net.cpp:156] Memory required for data: 496141344
I0403 16:21:39.030375 20994 layer_factory.hpp:77] Creating layer inception_3a/relu_1x1
I0403 16:21:39.030397 20994 net.cpp:91] Creating Layer inception_3a/relu_1x1
I0403 16:21:39.030416 20994 net.cpp:425] inception_3a/relu_1x1 <- inception_3a/1x1
I0403 16:21:39.030433 20994 net.cpp:386] inception_3a/relu_1x1 -> inception_3a/1x1 (in-place)
I0403 16:21:39.030616 20994 net.cpp:141] Setting up inception_3a/relu_1x1
I0403 16:21:39.030643 20994 net.cpp:148] Top shape: 24 64 28 28 (1204224)
I0403 16:21:39.030658 20994 net.cpp:156] Memory required for data: 500958240
I0403 16:21:39.030674 20994 layer_factory.hpp:77] Creating layer inception_3a/3x3_reduce
I0403 16:21:39.030696 20994 net.cpp:91] Creating Layer inception_3a/3x3_reduce
I0403 16:21:39.030714 20994 net.cpp:425] inception_3a/3x3_reduce <- pool2/3x3_s2_pool2/3x3_s2_0_split_1
I0403 16:21:39.030732 20994 net.cpp:399] inception_3a/3x3_reduce -> inception_3a/3x3_reduce
I0403 16:21:39.032361 20994 net.cpp:141] Setting up inception_3a/3x3_reduce
I0403 16:21:39.032388 20994 net.cpp:148] Top shape: 24 96 28 28 (1806336)
I0403 16:21:39.032404 20994 net.cpp:156] Memory required for data: 508183584
I0403 16:21:39.032425 20994 layer_factory.hpp:77] Creating layer inception_3a/relu_3x3_reduce
I0403 16:21:39.032462 20994 net.cpp:91] Creating Layer inception_3a/relu_3x3_reduce
I0403 16:21:39.032480 20994 net.cpp:425] inception_3a/relu_3x3_reduce <- inception_3a/3x3_reduce
I0403 16:21:39.032500 20994 net.cpp:386] inception_3a/relu_3x3_reduce -> inception_3a/3x3_reduce (in-place)
I0403 16:21:39.032675 20994 net.cpp:141] Setting up inception_3a/relu_3x3_reduce
I0403 16:21:39.032699 20994 net.cpp:148] Top shape: 24 96 28 28 (1806336)
I0403 16:21:39.032713 20994 net.cpp:156] Memory required for data: 515408928
I0403 16:21:39.032728 20994 layer_factory.hpp:77] Creating layer inception_3a/3x3
I0403 16:21:39.032752 20994 net.cpp:91] Creating Layer inception_3a/3x3
I0403 16:21:39.032768 20994 net.cpp:425] inception_3a/3x3 <- inception_3a/3x3_reduce
I0403 16:21:39.032789 20994 net.cpp:399] inception_3a/3x3 -> inception_3a/3x3
I0403 16:21:39.034368 20994 net.cpp:141] Setting up inception_3a/3x3
I0403 16:21:39.034399 20994 net.cpp:148] Top shape: 24 128 28 28 (2408448)
I0403 16:21:39.034415 20994 net.cpp:156] Memory required for data: 525042720
I0403 16:21:39.034433 20994 layer_factory.hpp:77] Creating layer inception_3a/relu_3x3
I0403 16:21:39.034452 20994 net.cpp:91] Creating Layer inception_3a/relu_3x3
I0403 16:21:39.034467 20994 net.cpp:425] inception_3a/relu_3x3 <- inception_3a/3x3
I0403 16:21:39.034484 20994 net.cpp:386] inception_3a/relu_3x3 -> inception_3a/3x3 (in-place)
I0403 16:21:39.034756 20994 net.cpp:141] Setting up inception_3a/relu_3x3
I0403 16:21:39.034785 20994 net.cpp:148] Top shape: 24 128 28 28 (2408448)
I0403 16:21:39.034802 20994 net.cpp:156] Memory required for data: 534676512
I0403 16:21:39.034818 20994 layer_factory.hpp:77] Creating layer inception_3a/5x5_reduce
I0403 16:21:39.034840 20994 net.cpp:91] Creating Layer inception_3a/5x5_reduce
I0403 16:21:39.034859 20994 net.cpp:425] inception_3a/5x5_reduce <- pool2/3x3_s2_pool2/3x3_s2_0_split_2
I0403 16:21:39.034878 20994 net.cpp:399] inception_3a/5x5_reduce -> inception_3a/5x5_reduce
I0403 16:21:39.035809 20994 net.cpp:141] Setting up inception_3a/5x5_reduce
I0403 16:21:39.035841 20994 net.cpp:148] Top shape: 24 16 28 28 (301056)
I0403 16:21:39.035859 20994 net.cpp:156] Memory required for data: 535880736
I0403 16:21:39.035878 20994 layer_factory.hpp:77] Creating layer inception_3a/relu_5x5_reduce
I0403 16:21:39.035897 20994 net.cpp:91] Creating Layer inception_3a/relu_5x5_reduce
I0403 16:21:39.035912 20994 net.cpp:425] inception_3a/relu_5x5_reduce <- inception_3a/5x5_reduce
I0403 16:21:39.035930 20994 net.cpp:386] inception_3a/relu_5x5_reduce -> inception_3a/5x5_reduce (in-place)
I0403 16:21:39.036243 20994 net.cpp:141] Setting up inception_3a/relu_5x5_reduce
I0403 16:21:39.036270 20994 net.cpp:148] Top shape: 24 16 28 28 (301056)
I0403 16:21:39.036285 20994 net.cpp:156] Memory required for data: 537084960
I0403 16:21:39.036300 20994 layer_factory.hpp:77] Creating layer inception_3a/5x5
I0403 16:21:39.036334 20994 net.cpp:91] Creating Layer inception_3a/5x5
I0403 16:21:39.036351 20994 net.cpp:425] inception_3a/5x5 <- inception_3a/5x5_reduce
I0403 16:21:39.036371 20994 net.cpp:399] inception_3a/5x5 -> inception_3a/5x5
I0403 16:21:39.037353 20994 net.cpp:141] Setting up inception_3a/5x5
I0403 16:21:39.037380 20994 net.cpp:148] Top shape: 24 32 28 28 (602112)
I0403 16:21:39.037400 20994 net.cpp:156] Memory required for data: 539493408
I0403 16:21:39.037417 20994 layer_factory.hpp:77] Creating layer inception_3a/relu_5x5
I0403 16:21:39.037436 20994 net.cpp:91] Creating Layer inception_3a/relu_5x5
I0403 16:21:39.037452 20994 net.cpp:425] inception_3a/relu_5x5 <- inception_3a/5x5
I0403 16:21:39.037469 20994 net.cpp:386] inception_3a/relu_5x5 -> inception_3a/5x5 (in-place)
I0403 16:21:39.037639 20994 net.cpp:141] Setting up inception_3a/relu_5x5
I0403 16:21:39.037665 20994 net.cpp:148] Top shape: 24 32 28 28 (602112)
I0403 16:21:39.037681 20994 net.cpp:156] Memory required for data: 541901856
I0403 16:21:39.037695 20994 layer_factory.hpp:77] Creating layer inception_3a/pool
I0403 16:21:39.037714 20994 net.cpp:91] Creating Layer inception_3a/pool
I0403 16:21:39.037742 20994 net.cpp:425] inception_3a/pool <- pool2/3x3_s2_pool2/3x3_s2_0_split_3
I0403 16:21:39.037763 20994 net.cpp:399] inception_3a/pool -> inception_3a/pool
I0403 16:21:39.037819 20994 net.cpp:141] Setting up inception_3a/pool
I0403 16:21:39.037845 20994 net.cpp:148] Top shape: 24 192 28 28 (3612672)
I0403 16:21:39.037860 20994 net.cpp:156] Memory required for data: 556352544
I0403 16:21:39.037874 20994 layer_factory.hpp:77] Creating layer inception_3a/pool_proj
I0403 16:21:39.037894 20994 net.cpp:91] Creating Layer inception_3a/pool_proj
I0403 16:21:39.037910 20994 net.cpp:425] inception_3a/pool_proj <- inception_3a/pool
I0403 16:21:39.037932 20994 net.cpp:399] inception_3a/pool_proj -> inception_3a/pool_proj
I0403 16:21:39.038873 20994 net.cpp:141] Setting up inception_3a/pool_proj
I0403 16:21:39.038902 20994 net.cpp:148] Top shape: 24 32 28 28 (602112)
I0403 16:21:39.038918 20994 net.cpp:156] Memory required for data: 558760992
I0403 16:21:39.038941 20994 layer_factory.hpp:77] Creating layer inception_3a/relu_pool_proj
I0403 16:21:39.038960 20994 net.cpp:91] Creating Layer inception_3a/relu_pool_proj
I0403 16:21:39.038977 20994 net.cpp:425] inception_3a/relu_pool_proj <- inception_3a/pool_proj
I0403 16:21:39.038997 20994 net.cpp:386] inception_3a/relu_pool_proj -> inception_3a/pool_proj (in-place)
I0403 16:21:39.039263 20994 net.cpp:141] Setting up inception_3a/relu_pool_proj
I0403 16:21:39.039290 20994 net.cpp:148] Top shape: 24 32 28 28 (602112)
I0403 16:21:39.039305 20994 net.cpp:156] Memory required for data: 561169440
I0403 16:21:39.039320 20994 layer_factory.hpp:77] Creating layer inception_3a/output
I0403 16:21:39.039338 20994 net.cpp:91] Creating Layer inception_3a/output
I0403 16:21:39.039355 20994 net.cpp:425] inception_3a/output <- inception_3a/1x1
I0403 16:21:39.039369 20994 net.cpp:425] inception_3a/output <- inception_3a/3x3
I0403 16:21:39.039386 20994 net.cpp:425] inception_3a/output <- inception_3a/5x5
I0403 16:21:39.039400 20994 net.cpp:425] inception_3a/output <- inception_3a/pool_proj
I0403 16:21:39.039417 20994 net.cpp:399] inception_3a/output -> inception_3a/output
I0403 16:21:39.039463 20994 net.cpp:141] Setting up inception_3a/output
I0403 16:21:39.039485 20994 net.cpp:148] Top shape: 24 256 28 28 (4816896)
I0403 16:21:39.039513 20994 net.cpp:156] Memory required for data: 580437024
I0403 16:21:39.039528 20994 layer_factory.hpp:77] Creating layer inception_3a/output_inception_3a/output_0_split
I0403 16:21:39.039548 20994 net.cpp:91] Creating Layer inception_3a/output_inception_3a/output_0_split
I0403 16:21:39.039566 20994 net.cpp:425] inception_3a/output_inception_3a/output_0_split <- inception_3a/output
I0403 16:21:39.039583 20994 net.cpp:399] inception_3a/output_inception_3a/output_0_split -> inception_3a/output_inception_3a/output_0_split_0
I0403 16:21:39.039603 20994 net.cpp:399] inception_3a/output_inception_3a/output_0_split -> inception_3a/output_inception_3a/output_0_split_1
I0403 16:21:39.039628 20994 net.cpp:399] inception_3a/output_inception_3a/output_0_split -> inception_3a/output_inception_3a/output_0_split_2
I0403 16:21:39.039649 20994 net.cpp:399] inception_3a/output_inception_3a/output_0_split -> inception_3a/output_inception_3a/output_0_split_3
I0403 16:21:39.039722 20994 net.cpp:141] Setting up inception_3a/output_inception_3a/output_0_split
I0403 16:21:39.039746 20994 net.cpp:148] Top shape: 24 256 28 28 (4816896)
I0403 16:21:39.039762 20994 net.cpp:148] Top shape: 24 256 28 28 (4816896)
I0403 16:21:39.039777 20994 net.cpp:148] Top shape: 24 256 28 28 (4816896)
I0403 16:21:39.039793 20994 net.cpp:148] Top shape: 24 256 28 28 (4816896)
I0403 16:21:39.039808 20994 net.cpp:156] Memory required for data: 657507360
I0403 16:21:39.039834 20994 layer_factory.hpp:77] Creating layer inception_3b/1x1
I0403 16:21:39.039855 20994 net.cpp:91] Creating Layer inception_3b/1x1
I0403 16:21:39.039873 20994 net.cpp:425] inception_3b/1x1 <- inception_3a/output_inception_3a/output_0_split_0
I0403 16:21:39.039892 20994 net.cpp:399] inception_3b/1x1 -> inception_3b/1x1
I0403 16:21:39.040993 20994 net.cpp:141] Setting up inception_3b/1x1
I0403 16:21:39.041038 20994 net.cpp:148] Top shape: 24 128 28 28 (2408448)
I0403 16:21:39.041054 20994 net.cpp:156] Memory required for data: 667141152
I0403 16:21:39.041072 20994 layer_factory.hpp:77] Creating layer inception_3b/relu_1x1
I0403 16:21:39.041093 20994 net.cpp:91] Creating Layer inception_3b/relu_1x1
I0403 16:21:39.041111 20994 net.cpp:425] inception_3b/relu_1x1 <- inception_3b/1x1
I0403 16:21:39.041131 20994 net.cpp:386] inception_3b/relu_1x1 -> inception_3b/1x1 (in-place)
I0403 16:21:39.041302 20994 net.cpp:141] Setting up inception_3b/relu_1x1
I0403 16:21:39.041329 20994 net.cpp:148] Top shape: 24 128 28 28 (2408448)
I0403 16:21:39.041345 20994 net.cpp:156] Memory required for data: 676774944
I0403 16:21:39.041360 20994 layer_factory.hpp:77] Creating layer inception_3b/3x3_reduce
I0403 16:21:39.041384 20994 net.cpp:91] Creating Layer inception_3b/3x3_reduce
I0403 16:21:39.041404 20994 net.cpp:425] inception_3b/3x3_reduce <- inception_3a/output_inception_3a/output_0_split_1
I0403 16:21:39.041424 20994 net.cpp:399] inception_3b/3x3_reduce -> inception_3b/3x3_reduce
I0403 16:21:39.042513 20994 net.cpp:141] Setting up inception_3b/3x3_reduce
I0403 16:21:39.042541 20994 net.cpp:148] Top shape: 24 128 28 28 (2408448)
I0403 16:21:39.042557 20994 net.cpp:156] Memory required for data: 686408736
I0403 16:21:39.042577 20994 layer_factory.hpp:77] Creating layer inception_3b/relu_3x3_reduce
I0403 16:21:39.042596 20994 net.cpp:91] Creating Layer inception_3b/relu_3x3_reduce
I0403 16:21:39.042614 20994 net.cpp:425] inception_3b/relu_3x3_reduce <- inception_3b/3x3_reduce
I0403 16:21:39.042632 20994 net.cpp:386] inception_3b/relu_3x3_reduce -> inception_3b/3x3_reduce (in-place)
I0403 16:21:39.042798 20994 net.cpp:141] Setting up inception_3b/relu_3x3_reduce
I0403 16:21:39.042824 20994 net.cpp:148] Top shape: 24 128 28 28 (2408448)
I0403 16:21:39.042840 20994 net.cpp:156] Memory required for data: 696042528
I0403 16:21:39.042855 20994 layer_factory.hpp:77] Creating layer inception_3b/3x3
I0403 16:21:39.042878 20994 net.cpp:91] Creating Layer inception_3b/3x3
I0403 16:21:39.042896 20994 net.cpp:425] inception_3b/3x3 <- inception_3b/3x3_reduce
I0403 16:21:39.042917 20994 net.cpp:399] inception_3b/3x3 -> inception_3b/3x3
I0403 16:21:39.045706 20994 net.cpp:141] Setting up inception_3b/3x3
I0403 16:21:39.045737 20994 net.cpp:148] Top shape: 24 192 28 28 (3612672)
I0403 16:21:39.045755 20994 net.cpp:156] Memory required for data: 710493216
I0403 16:21:39.045774 20994 layer_factory.hpp:77] Creating layer inception_3b/relu_3x3
I0403 16:21:39.045791 20994 net.cpp:91] Creating Layer inception_3b/relu_3x3
I0403 16:21:39.045807 20994 net.cpp:425] inception_3b/relu_3x3 <- inception_3b/3x3
I0403 16:21:39.045825 20994 net.cpp:386] inception_3b/relu_3x3 -> inception_3b/3x3 (in-place)
I0403 16:21:39.046092 20994 net.cpp:141] Setting up inception_3b/relu_3x3
I0403 16:21:39.046121 20994 net.cpp:148] Top shape: 24 192 28 28 (3612672)
I0403 16:21:39.046138 20994 net.cpp:156] Memory required for data: 724943904
I0403 16:21:39.046152 20994 layer_factory.hpp:77] Creating layer inception_3b/5x5_reduce
I0403 16:21:39.046175 20994 net.cpp:91] Creating Layer inception_3b/5x5_reduce
I0403 16:21:39.046192 20994 net.cpp:425] inception_3b/5x5_reduce <- inception_3a/output_inception_3a/output_0_split_2
I0403 16:21:39.046212 20994 net.cpp:399] inception_3b/5x5_reduce -> inception_3b/5x5_reduce
I0403 16:21:39.047175 20994 net.cpp:141] Setting up inception_3b/5x5_reduce
I0403 16:21:39.047207 20994 net.cpp:148] Top shape: 24 32 28 28 (602112)
I0403 16:21:39.047224 20994 net.cpp:156] Memory required for data: 727352352
I0403 16:21:39.047245 20994 layer_factory.hpp:77] Creating layer inception_3b/relu_5x5_reduce
I0403 16:21:39.047265 20994 net.cpp:91] Creating Layer inception_3b/relu_5x5_reduce
I0403 16:21:39.047282 20994 net.cpp:425] inception_3b/relu_5x5_reduce <- inception_3b/5x5_reduce
I0403 16:21:39.047300 20994 net.cpp:386] inception_3b/relu_5x5_reduce -> inception_3b/5x5_reduce (in-place)
I0403 16:21:39.047497 20994 net.cpp:141] Setting up inception_3b/relu_5x5_reduce
I0403 16:21:39.047524 20994 net.cpp:148] Top shape: 24 32 28 28 (602112)
I0403 16:21:39.047541 20994 net.cpp:156] Memory required for data: 729760800
I0403 16:21:39.047555 20994 layer_factory.hpp:77] Creating layer inception_3b/5x5
I0403 16:21:39.047577 20994 net.cpp:91] Creating Layer inception_3b/5x5
I0403 16:21:39.047596 20994 net.cpp:425] inception_3b/5x5 <- inception_3b/5x5_reduce
I0403 16:21:39.047616 20994 net.cpp:399] inception_3b/5x5 -> inception_3b/5x5
I0403 16:21:39.049578 20994 net.cpp:141] Setting up inception_3b/5x5
I0403 16:21:39.049608 20994 net.cpp:148] Top shape: 24 96 28 28 (1806336)
I0403 16:21:39.049624 20994 net.cpp:156] Memory required for data: 736986144
I0403 16:21:39.049654 20994 layer_factory.hpp:77] Creating layer inception_3b/relu_5x5
I0403 16:21:39.049674 20994 net.cpp:91] Creating Layer inception_3b/relu_5x5
I0403 16:21:39.049691 20994 net.cpp:425] inception_3b/relu_5x5 <- inception_3b/5x5
I0403 16:21:39.049708 20994 net.cpp:386] inception_3b/relu_5x5 -> inception_3b/5x5 (in-place)
I0403 16:21:39.049893 20994 net.cpp:141] Setting up inception_3b/relu_5x5
I0403 16:21:39.049918 20994 net.cpp:148] Top shape: 24 96 28 28 (1806336)
I0403 16:21:39.049933 20994 net.cpp:156] Memory required for data: 744211488
I0403 16:21:39.049947 20994 layer_factory.hpp:77] Creating layer inception_3b/pool
I0403 16:21:39.049965 20994 net.cpp:91] Creating Layer inception_3b/pool
I0403 16:21:39.049980 20994 net.cpp:425] inception_3b/pool <- inception_3a/output_inception_3a/output_0_split_3
I0403 16:21:39.049999 20994 net.cpp:399] inception_3b/pool -> inception_3b/pool
I0403 16:21:39.050056 20994 net.cpp:141] Setting up inception_3b/pool
I0403 16:21:39.050081 20994 net.cpp:148] Top shape: 24 256 28 28 (4816896)
I0403 16:21:39.050094 20994 net.cpp:156] Memory required for data: 763479072
I0403 16:21:39.050108 20994 layer_factory.hpp:77] Creating layer inception_3b/pool_proj
I0403 16:21:39.050129 20994 net.cpp:91] Creating Layer inception_3b/pool_proj
I0403 16:21:39.050146 20994 net.cpp:425] inception_3b/pool_proj <- inception_3b/pool
I0403 16:21:39.050168 20994 net.cpp:399] inception_3b/pool_proj -> inception_3b/pool_proj
I0403 16:21:39.051193 20994 net.cpp:141] Setting up inception_3b/pool_proj
I0403 16:21:39.051220 20994 net.cpp:148] Top shape: 24 64 28 28 (1204224)
I0403 16:21:39.051235 20994 net.cpp:156] Memory required for data: 768295968
I0403 16:21:39.051254 20994 layer_factory.hpp:77] Creating layer inception_3b/relu_pool_proj
I0403 16:21:39.051271 20994 net.cpp:91] Creating Layer inception_3b/relu_pool_proj
I0403 16:21:39.051287 20994 net.cpp:425] inception_3b/relu_pool_proj <- inception_3b/pool_proj
I0403 16:21:39.051306 20994 net.cpp:386] inception_3b/relu_pool_proj -> inception_3b/pool_proj (in-place)
I0403 16:21:39.051699 20994 net.cpp:141] Setting up inception_3b/relu_pool_proj
I0403 16:21:39.051728 20994 net.cpp:148] Top shape: 24 64 28 28 (1204224)
I0403 16:21:39.051743 20994 net.cpp:156] Memory required for data: 773112864
I0403 16:21:39.051758 20994 layer_factory.hpp:77] Creating layer inception_3b/output
I0403 16:21:39.051774 20994 net.cpp:91] Creating Layer inception_3b/output
I0403 16:21:39.051789 20994 net.cpp:425] inception_3b/output <- inception_3b/1x1
I0403 16:21:39.051806 20994 net.cpp:425] inception_3b/output <- inception_3b/3x3
I0403 16:21:39.051821 20994 net.cpp:425] inception_3b/output <- inception_3b/5x5
I0403 16:21:39.051837 20994 net.cpp:425] inception_3b/output <- inception_3b/pool_proj
I0403 16:21:39.051853 20994 net.cpp:399] inception_3b/output -> inception_3b/output
I0403 16:21:39.051898 20994 net.cpp:141] Setting up inception_3b/output
I0403 16:21:39.051920 20994 net.cpp:148] Top shape: 24 480 28 28 (9031680)
I0403 16:21:39.051934 20994 net.cpp:156] Memory required for data: 809239584
I0403 16:21:39.051949 20994 layer_factory.hpp:77] Creating layer pool3/3x3_s2
I0403 16:21:39.051969 20994 net.cpp:91] Creating Layer pool3/3x3_s2
I0403 16:21:39.051985 20994 net.cpp:425] pool3/3x3_s2 <- inception_3b/output
I0403 16:21:39.052021 20994 net.cpp:399] pool3/3x3_s2 -> pool3/3x3_s2
I0403 16:21:39.052081 20994 net.cpp:141] Setting up pool3/3x3_s2
I0403 16:21:39.052104 20994 net.cpp:148] Top shape: 24 480 14 14 (2257920)
I0403 16:21:39.052119 20994 net.cpp:156] Memory required for data: 818271264
I0403 16:21:39.052134 20994 layer_factory.hpp:77] Creating layer pool3/3x3_s2_pool3/3x3_s2_0_split
I0403 16:21:39.052150 20994 net.cpp:91] Creating Layer pool3/3x3_s2_pool3/3x3_s2_0_split
I0403 16:21:39.052165 20994 net.cpp:425] pool3/3x3_s2_pool3/3x3_s2_0_split <- pool3/3x3_s2
I0403 16:21:39.052183 20994 net.cpp:399] pool3/3x3_s2_pool3/3x3_s2_0_split -> pool3/3x3_s2_pool3/3x3_s2_0_split_0
I0403 16:21:39.052203 20994 net.cpp:399] pool3/3x3_s2_pool3/3x3_s2_0_split -> pool3/3x3_s2_pool3/3x3_s2_0_split_1
I0403 16:21:39.052222 20994 net.cpp:399] pool3/3x3_s2_pool3/3x3_s2_0_split -> pool3/3x3_s2_pool3/3x3_s2_0_split_2
I0403 16:21:39.052242 20994 net.cpp:399] pool3/3x3_s2_pool3/3x3_s2_0_split -> pool3/3x3_s2_pool3/3x3_s2_0_split_3
I0403 16:21:39.052315 20994 net.cpp:141] Setting up pool3/3x3_s2_pool3/3x3_s2_0_split
I0403 16:21:39.052340 20994 net.cpp:148] Top shape: 24 480 14 14 (2257920)
I0403 16:21:39.052356 20994 net.cpp:148] Top shape: 24 480 14 14 (2257920)
I0403 16:21:39.052371 20994 net.cpp:148] Top shape: 24 480 14 14 (2257920)
I0403 16:21:39.052386 20994 net.cpp:148] Top shape: 24 480 14 14 (2257920)
I0403 16:21:39.052399 20994 net.cpp:156] Memory required for data: 854397984
I0403 16:21:39.052413 20994 layer_factory.hpp:77] Creating layer inception_4a/1x1
I0403 16:21:39.052435 20994 net.cpp:91] Creating Layer inception_4a/1x1
I0403 16:21:39.052451 20994 net.cpp:425] inception_4a/1x1 <- pool3/3x3_s2_pool3/3x3_s2_0_split_0
I0403 16:21:39.052472 20994 net.cpp:399] inception_4a/1x1 -> inception_4a/1x1
I0403 16:21:39.053990 20994 net.cpp:141] Setting up inception_4a/1x1
I0403 16:21:39.054023 20994 net.cpp:148] Top shape: 24 192 14 14 (903168)
I0403 16:21:39.054040 20994 net.cpp:156] Memory required for data: 858010656
I0403 16:21:39.054059 20994 layer_factory.hpp:77] Creating layer inception_4a/relu_1x1
I0403 16:21:39.054081 20994 net.cpp:91] Creating Layer inception_4a/relu_1x1
I0403 16:21:39.054098 20994 net.cpp:425] inception_4a/relu_1x1 <- inception_4a/1x1
I0403 16:21:39.054117 20994 net.cpp:386] inception_4a/relu_1x1 -> inception_4a/1x1 (in-place)
I0403 16:21:39.054286 20994 net.cpp:141] Setting up inception_4a/relu_1x1
I0403 16:21:39.054311 20994 net.cpp:148] Top shape: 24 192 14 14 (903168)
I0403 16:21:39.054324 20994 net.cpp:156] Memory required for data: 861623328
I0403 16:21:39.054338 20994 layer_factory.hpp:77] Creating layer inception_4a/3x3_reduce
I0403 16:21:39.054361 20994 net.cpp:91] Creating Layer inception_4a/3x3_reduce
I0403 16:21:39.054378 20994 net.cpp:425] inception_4a/3x3_reduce <- pool3/3x3_s2_pool3/3x3_s2_0_split_1
I0403 16:21:39.054399 20994 net.cpp:399] inception_4a/3x3_reduce -> inception_4a/3x3_reduce
I0403 16:21:39.055616 20994 net.cpp:141] Setting up inception_4a/3x3_reduce
I0403 16:21:39.055644 20994 net.cpp:148] Top shape: 24 96 14 14 (451584)
I0403 16:21:39.055660 20994 net.cpp:156] Memory required for data: 863429664
I0403 16:21:39.055685 20994 layer_factory.hpp:77] Creating layer inception_4a/relu_3x3_reduce
I0403 16:21:39.055704 20994 net.cpp:91] Creating Layer inception_4a/relu_3x3_reduce
I0403 16:21:39.055721 20994 net.cpp:425] inception_4a/relu_3x3_reduce <- inception_4a/3x3_reduce
I0403 16:21:39.055740 20994 net.cpp:386] inception_4a/relu_3x3_reduce -> inception_4a/3x3_reduce (in-place)
I0403 16:21:39.055909 20994 net.cpp:141] Setting up inception_4a/relu_3x3_reduce
I0403 16:21:39.055933 20994 net.cpp:148] Top shape: 24 96 14 14 (451584)
I0403 16:21:39.055948 20994 net.cpp:156] Memory required for data: 865236000
I0403 16:21:39.055963 20994 layer_factory.hpp:77] Creating layer inception_4a/3x3
I0403 16:21:39.055984 20994 net.cpp:91] Creating Layer inception_4a/3x3
I0403 16:21:39.056002 20994 net.cpp:425] inception_4a/3x3 <- inception_4a/3x3_reduce
I0403 16:21:39.056027 20994 net.cpp:399] inception_4a/3x3 -> inception_4a/3x3
I0403 16:21:39.058642 20994 net.cpp:141] Setting up inception_4a/3x3
I0403 16:21:39.058671 20994 net.cpp:148] Top shape: 24 208 14 14 (978432)
I0403 16:21:39.058687 20994 net.cpp:156] Memory required for data: 869149728
I0403 16:21:39.058706 20994 layer_factory.hpp:77] Creating layer inception_4a/relu_3x3
I0403 16:21:39.058725 20994 net.cpp:91] Creating Layer inception_4a/relu_3x3
I0403 16:21:39.058743 20994 net.cpp:425] inception_4a/relu_3x3 <- inception_4a/3x3
I0403 16:21:39.058759 20994 net.cpp:386] inception_4a/relu_3x3 -> inception_4a/3x3 (in-place)
I0403 16:21:39.059032 20994 net.cpp:141] Setting up inception_4a/relu_3x3
I0403 16:21:39.059057 20994 net.cpp:148] Top shape: 24 208 14 14 (978432)
I0403 16:21:39.059072 20994 net.cpp:156] Memory required for data: 873063456
I0403 16:21:39.059087 20994 layer_factory.hpp:77] Creating layer inception_4a/5x5_reduce
I0403 16:21:39.059109 20994 net.cpp:91] Creating Layer inception_4a/5x5_reduce
I0403 16:21:39.059128 20994 net.cpp:425] inception_4a/5x5_reduce <- pool3/3x3_s2_pool3/3x3_s2_0_split_2
I0403 16:21:39.059149 20994 net.cpp:399] inception_4a/5x5_reduce -> inception_4a/5x5_reduce
I0403 16:21:39.060142 20994 net.cpp:141] Setting up inception_4a/5x5_reduce
I0403 16:21:39.060169 20994 net.cpp:148] Top shape: 24 16 14 14 (75264)
I0403 16:21:39.060185 20994 net.cpp:156] Memory required for data: 873364512
I0403 16:21:39.060204 20994 layer_factory.hpp:77] Creating layer inception_4a/relu_5x5_reduce
I0403 16:21:39.060226 20994 net.cpp:91] Creating Layer inception_4a/relu_5x5_reduce
I0403 16:21:39.060242 20994 net.cpp:425] inception_4a/relu_5x5_reduce <- inception_4a/5x5_reduce
I0403 16:21:39.060259 20994 net.cpp:386] inception_4a/relu_5x5_reduce -> inception_4a/5x5_reduce (in-place)
I0403 16:21:39.060428 20994 net.cpp:141] Setting up inception_4a/relu_5x5_reduce
I0403 16:21:39.060454 20994 net.cpp:148] Top shape: 24 16 14 14 (75264)
I0403 16:21:39.060470 20994 net.cpp:156] Memory required for data: 873665568
I0403 16:21:39.060485 20994 layer_factory.hpp:77] Creating layer inception_4a/5x5
I0403 16:21:39.060506 20994 net.cpp:91] Creating Layer inception_4a/5x5
I0403 16:21:39.060523 20994 net.cpp:425] inception_4a/5x5 <- inception_4a/5x5_reduce
I0403 16:21:39.060540 20994 net.cpp:399] inception_4a/5x5 -> inception_4a/5x5
I0403 16:21:39.061609 20994 net.cpp:141] Setting up inception_4a/5x5
I0403 16:21:39.061637 20994 net.cpp:148] Top shape: 24 48 14 14 (225792)
I0403 16:21:39.061653 20994 net.cpp:156] Memory required for data: 874568736
I0403 16:21:39.061672 20994 layer_factory.hpp:77] Creating layer inception_4a/relu_5x5
I0403 16:21:39.061691 20994 net.cpp:91] Creating Layer inception_4a/relu_5x5
I0403 16:21:39.061708 20994 net.cpp:425] inception_4a/relu_5x5 <- inception_4a/5x5
I0403 16:21:39.061728 20994 net.cpp:386] inception_4a/relu_5x5 -> inception_4a/5x5 (in-place)
I0403 16:21:39.061904 20994 net.cpp:141] Setting up inception_4a/relu_5x5
I0403 16:21:39.061930 20994 net.cpp:148] Top shape: 24 48 14 14 (225792)
I0403 16:21:39.061946 20994 net.cpp:156] Memory required for data: 875471904
I0403 16:21:39.061961 20994 layer_factory.hpp:77] Creating layer inception_4a/pool
I0403 16:21:39.061985 20994 net.cpp:91] Creating Layer inception_4a/pool
I0403 16:21:39.062002 20994 net.cpp:425] inception_4a/pool <- pool3/3x3_s2_pool3/3x3_s2_0_split_3
I0403 16:21:39.062026 20994 net.cpp:399] inception_4a/pool -> inception_4a/pool
I0403 16:21:39.062090 20994 net.cpp:141] Setting up inception_4a/pool
I0403 16:21:39.062116 20994 net.cpp:148] Top shape: 24 480 14 14 (2257920)
I0403 16:21:39.062131 20994 net.cpp:156] Memory required for data: 884503584
I0403 16:21:39.062147 20994 layer_factory.hpp:77] Creating layer inception_4a/pool_proj
I0403 16:21:39.062170 20994 net.cpp:91] Creating Layer inception_4a/pool_proj
I0403 16:21:39.062188 20994 net.cpp:425] inception_4a/pool_proj <- inception_4a/pool
I0403 16:21:39.062211 20994 net.cpp:399] inception_4a/pool_proj -> inception_4a/pool_proj
I0403 16:21:39.063362 20994 net.cpp:141] Setting up inception_4a/pool_proj
I0403 16:21:39.063391 20994 net.cpp:148] Top shape: 24 64 14 14 (301056)
I0403 16:21:39.063423 20994 net.cpp:156] Memory required for data: 885707808
I0403 16:21:39.063443 20994 layer_factory.hpp:77] Creating layer inception_4a/relu_pool_proj
I0403 16:21:39.063463 20994 net.cpp:91] Creating Layer inception_4a/relu_pool_proj
I0403 16:21:39.063480 20994 net.cpp:425] inception_4a/relu_pool_proj <- inception_4a/pool_proj
I0403 16:21:39.063501 20994 net.cpp:386] inception_4a/relu_pool_proj -> inception_4a/pool_proj (in-place)
I0403 16:21:39.063784 20994 net.cpp:141] Setting up inception_4a/relu_pool_proj
I0403 16:21:39.063812 20994 net.cpp:148] Top shape: 24 64 14 14 (301056)
I0403 16:21:39.063828 20994 net.cpp:156] Memory required for data: 886912032
I0403 16:21:39.063844 20994 layer_factory.hpp:77] Creating layer inception_4a/output
I0403 16:21:39.063863 20994 net.cpp:91] Creating Layer inception_4a/output
I0403 16:21:39.063879 20994 net.cpp:425] inception_4a/output <- inception_4a/1x1
I0403 16:21:39.063896 20994 net.cpp:425] inception_4a/output <- inception_4a/3x3
I0403 16:21:39.063915 20994 net.cpp:425] inception_4a/output <- inception_4a/5x5
I0403 16:21:39.063931 20994 net.cpp:425] inception_4a/output <- inception_4a/pool_proj
I0403 16:21:39.063951 20994 net.cpp:399] inception_4a/output -> inception_4a/output
I0403 16:21:39.063997 20994 net.cpp:141] Setting up inception_4a/output
I0403 16:21:39.064028 20994 net.cpp:148] Top shape: 24 512 14 14 (2408448)
I0403 16:21:39.064046 20994 net.cpp:156] Memory required for data: 896545824
I0403 16:21:39.064062 20994 layer_factory.hpp:77] Creating layer inception_4a/output_inception_4a/output_0_split
I0403 16:21:39.064080 20994 net.cpp:91] Creating Layer inception_4a/output_inception_4a/output_0_split
I0403 16:21:39.064096 20994 net.cpp:425] inception_4a/output_inception_4a/output_0_split <- inception_4a/output
I0403 16:21:39.064116 20994 net.cpp:399] inception_4a/output_inception_4a/output_0_split -> inception_4a/output_inception_4a/output_0_split_0
I0403 16:21:39.064139 20994 net.cpp:399] inception_4a/output_inception_4a/output_0_split -> inception_4a/output_inception_4a/output_0_split_1
I0403 16:21:39.064162 20994 net.cpp:399] inception_4a/output_inception_4a/output_0_split -> inception_4a/output_inception_4a/output_0_split_2
I0403 16:21:39.064184 20994 net.cpp:399] inception_4a/output_inception_4a/output_0_split -> inception_4a/output_inception_4a/output_0_split_3
I0403 16:21:39.064204 20994 net.cpp:399] inception_4a/output_inception_4a/output_0_split -> inception_4a/output_inception_4a/output_0_split_4
I0403 16:21:39.064297 20994 net.cpp:141] Setting up inception_4a/output_inception_4a/output_0_split
I0403 16:21:39.064322 20994 net.cpp:148] Top shape: 24 512 14 14 (2408448)
I0403 16:21:39.064342 20994 net.cpp:148] Top shape: 24 512 14 14 (2408448)
I0403 16:21:39.064358 20994 net.cpp:148] Top shape: 24 512 14 14 (2408448)
I0403 16:21:39.064375 20994 net.cpp:148] Top shape: 24 512 14 14 (2408448)
I0403 16:21:39.064391 20994 net.cpp:148] Top shape: 24 512 14 14 (2408448)
I0403 16:21:39.064406 20994 net.cpp:156] Memory required for data: 944714784
I0403 16:21:39.064421 20994 layer_factory.hpp:77] Creating layer loss1/ave_pool
I0403 16:21:39.064440 20994 net.cpp:91] Creating Layer loss1/ave_pool
I0403 16:21:39.064456 20994 net.cpp:425] loss1/ave_pool <- inception_4a/output_inception_4a/output_0_split_0
I0403 16:21:39.064474 20994 net.cpp:399] loss1/ave_pool -> loss1/ave_pool
I0403 16:21:39.064677 20994 net.cpp:141] Setting up loss1/ave_pool
I0403 16:21:39.064703 20994 net.cpp:148] Top shape: 24 512 4 4 (196608)
I0403 16:21:39.064718 20994 net.cpp:156] Memory required for data: 945501216
I0403 16:21:39.064733 20994 layer_factory.hpp:77] Creating layer loss1/conv
I0403 16:21:39.064755 20994 net.cpp:91] Creating Layer loss1/conv
I0403 16:21:39.064774 20994 net.cpp:425] loss1/conv <- loss1/ave_pool
I0403 16:21:39.064797 20994 net.cpp:399] loss1/conv -> loss1/conv
I0403 16:21:39.066187 20994 net.cpp:141] Setting up loss1/conv
I0403 16:21:39.066216 20994 net.cpp:148] Top shape: 24 128 4 4 (49152)
I0403 16:21:39.066248 20994 net.cpp:156] Memory required for data: 945697824
I0403 16:21:39.066269 20994 layer_factory.hpp:77] Creating layer loss1/relu_conv
I0403 16:21:39.066292 20994 net.cpp:91] Creating Layer loss1/relu_conv
I0403 16:21:39.066309 20994 net.cpp:425] loss1/relu_conv <- loss1/conv
I0403 16:21:39.066329 20994 net.cpp:386] loss1/relu_conv -> loss1/conv (in-place)
I0403 16:21:39.066612 20994 net.cpp:141] Setting up loss1/relu_conv
I0403 16:21:39.066638 20994 net.cpp:148] Top shape: 24 128 4 4 (49152)
I0403 16:21:39.066653 20994 net.cpp:156] Memory required for data: 945894432
I0403 16:21:39.066668 20994 layer_factory.hpp:77] Creating layer loss1/fc
I0403 16:21:39.066695 20994 net.cpp:91] Creating Layer loss1/fc
I0403 16:21:39.066715 20994 net.cpp:425] loss1/fc <- loss1/conv
I0403 16:21:39.066735 20994 net.cpp:399] loss1/fc -> loss1/fc
I0403 16:21:39.084552 20994 net.cpp:141] Setting up loss1/fc
I0403 16:21:39.084611 20994 net.cpp:148] Top shape: 24 1024 (24576)
I0403 16:21:39.084628 20994 net.cpp:156] Memory required for data: 945992736
I0403 16:21:39.084648 20994 layer_factory.hpp:77] Creating layer loss1/relu_fc
I0403 16:21:39.084671 20994 net.cpp:91] Creating Layer loss1/relu_fc
I0403 16:21:39.084688 20994 net.cpp:425] loss1/relu_fc <- loss1/fc
I0403 16:21:39.084708 20994 net.cpp:386] loss1/relu_fc -> loss1/fc (in-place)
I0403 16:21:39.084915 20994 net.cpp:141] Setting up loss1/relu_fc
I0403 16:21:39.084941 20994 net.cpp:148] Top shape: 24 1024 (24576)
I0403 16:21:39.084957 20994 net.cpp:156] Memory required for data: 946091040
I0403 16:21:39.084974 20994 layer_factory.hpp:77] Creating layer loss1/drop_fc
I0403 16:21:39.085005 20994 net.cpp:91] Creating Layer loss1/drop_fc
I0403 16:21:39.085029 20994 net.cpp:425] loss1/drop_fc <- loss1/fc
I0403 16:21:39.085048 20994 net.cpp:386] loss1/drop_fc -> loss1/fc (in-place)
I0403 16:21:39.085101 20994 net.cpp:141] Setting up loss1/drop_fc
I0403 16:21:39.085132 20994 net.cpp:148] Top shape: 24 1024 (24576)
I0403 16:21:39.085149 20994 net.cpp:156] Memory required for data: 946189344
I0403 16:21:39.085165 20994 layer_factory.hpp:77] Creating layer loss1/classifier_plantvillage
I0403 16:21:39.085183 20994 net.cpp:91] Creating Layer loss1/classifier_plantvillage
I0403 16:21:39.085199 20994 net.cpp:425] loss1/classifier_plantvillage <- loss1/fc
I0403 16:21:39.085219 20994 net.cpp:399] loss1/classifier_plantvillage -> loss1/classifier_plantvillage
I0403 16:21:39.086132 20994 net.cpp:141] Setting up loss1/classifier_plantvillage
I0403 16:21:39.086159 20994 net.cpp:148] Top shape: 24 38 (912)
I0403 16:21:39.086176 20994 net.cpp:156] Memory required for data: 946192992
I0403 16:21:39.086195 20994 layer_factory.hpp:77] Creating layer loss1/classifier_plantvillage_loss1/classifier_plantvillage_0_split
I0403 16:21:39.086220 20994 net.cpp:91] Creating Layer loss1/classifier_plantvillage_loss1/classifier_plantvillage_0_split
I0403 16:21:39.086236 20994 net.cpp:425] loss1/classifier_plantvillage_loss1/classifier_plantvillage_0_split <- loss1/classifier_plantvillage
I0403 16:21:39.086256 20994 net.cpp:399] loss1/classifier_plantvillage_loss1/classifier_plantvillage_0_split -> loss1/classifier_plantvillage_loss1/classifier_plantvillage_0_split_0
I0403 16:21:39.086275 20994 net.cpp:399] loss1/classifier_plantvillage_loss1/classifier_plantvillage_0_split -> loss1/classifier_plantvillage_loss1/classifier_plantvillage_0_split_1
I0403 16:21:39.086297 20994 net.cpp:399] loss1/classifier_plantvillage_loss1/classifier_plantvillage_0_split -> loss1/classifier_plantvillage_loss1/classifier_plantvillage_0_split_2
I0403 16:21:39.086364 20994 net.cpp:141] Setting up loss1/classifier_plantvillage_loss1/classifier_plantvillage_0_split
I0403 16:21:39.086388 20994 net.cpp:148] Top shape: 24 38 (912)
I0403 16:21:39.086405 20994 net.cpp:148] Top shape: 24 38 (912)
I0403 16:21:39.086421 20994 net.cpp:148] Top shape: 24 38 (912)
I0403 16:21:39.086434 20994 net.cpp:156] Memory required for data: 946203936
I0403 16:21:39.086449 20994 layer_factory.hpp:77] Creating layer inception_4b/1x1
I0403 16:21:39.086470 20994 net.cpp:91] Creating Layer inception_4b/1x1
I0403 16:21:39.086513 20994 net.cpp:425] inception_4b/1x1 <- inception_4a/output_inception_4a/output_0_split_1
I0403 16:21:39.086536 20994 net.cpp:399] inception_4b/1x1 -> inception_4b/1x1
I0403 16:21:39.088227 20994 net.cpp:141] Setting up inception_4b/1x1
I0403 16:21:39.088258 20994 net.cpp:148] Top shape: 24 160 14 14 (752640)
I0403 16:21:39.088275 20994 net.cpp:156] Memory required for data: 949214496
I0403 16:21:39.088295 20994 layer_factory.hpp:77] Creating layer inception_4b/relu_1x1
I0403 16:21:39.088328 20994 net.cpp:91] Creating Layer inception_4b/relu_1x1
I0403 16:21:39.088346 20994 net.cpp:425] inception_4b/relu_1x1 <- inception_4b/1x1
I0403 16:21:39.088364 20994 net.cpp:386] inception_4b/relu_1x1 -> inception_4b/1x1 (in-place)
I0403 16:21:39.088541 20994 net.cpp:141] Setting up inception_4b/relu_1x1
I0403 16:21:39.088568 20994 net.cpp:148] Top shape: 24 160 14 14 (752640)
I0403 16:21:39.088584 20994 net.cpp:156] Memory required for data: 952225056
I0403 16:21:39.088599 20994 layer_factory.hpp:77] Creating layer inception_4b/3x3_reduce
I0403 16:21:39.088621 20994 net.cpp:91] Creating Layer inception_4b/3x3_reduce
I0403 16:21:39.088639 20994 net.cpp:425] inception_4b/3x3_reduce <- inception_4a/output_inception_4a/output_0_split_2
I0403 16:21:39.088660 20994 net.cpp:399] inception_4b/3x3_reduce -> inception_4b/3x3_reduce
I0403 16:21:39.090001 20994 net.cpp:141] Setting up inception_4b/3x3_reduce
I0403 16:21:39.090039 20994 net.cpp:148] Top shape: 24 112 14 14 (526848)
I0403 16:21:39.090057 20994 net.cpp:156] Memory required for data: 954332448
I0403 16:21:39.090076 20994 layer_factory.hpp:77] Creating layer inception_4b/relu_3x3_reduce
I0403 16:21:39.090095 20994 net.cpp:91] Creating Layer inception_4b/relu_3x3_reduce
I0403 16:21:39.090113 20994 net.cpp:425] inception_4b/relu_3x3_reduce <- inception_4b/3x3_reduce
I0403 16:21:39.090134 20994 net.cpp:386] inception_4b/relu_3x3_reduce -> inception_4b/3x3_reduce (in-place)
I0403 16:21:39.090412 20994 net.cpp:141] Setting up inception_4b/relu_3x3_reduce
I0403 16:21:39.090442 20994 net.cpp:148] Top shape: 24 112 14 14 (526848)
I0403 16:21:39.090459 20994 net.cpp:156] Memory required for data: 956439840
I0403 16:21:39.090476 20994 layer_factory.hpp:77] Creating layer inception_4b/3x3
I0403 16:21:39.090498 20994 net.cpp:91] Creating Layer inception_4b/3x3
I0403 16:21:39.090515 20994 net.cpp:425] inception_4b/3x3 <- inception_4b/3x3_reduce
I0403 16:21:39.090536 20994 net.cpp:399] inception_4b/3x3 -> inception_4b/3x3
I0403 16:21:39.093524 20994 net.cpp:141] Setting up inception_4b/3x3
I0403 16:21:39.093554 20994 net.cpp:148] Top shape: 24 224 14 14 (1053696)
I0403 16:21:39.093571 20994 net.cpp:156] Memory required for data: 960654624
I0403 16:21:39.093590 20994 layer_factory.hpp:77] Creating layer inception_4b/relu_3x3
I0403 16:21:39.093611 20994 net.cpp:91] Creating Layer inception_4b/relu_3x3
I0403 16:21:39.093629 20994 net.cpp:425] inception_4b/relu_3x3 <- inception_4b/3x3
I0403 16:21:39.093647 20994 net.cpp:386] inception_4b/relu_3x3 -> inception_4b/3x3 (in-place)
I0403 16:21:39.093827 20994 net.cpp:141] Setting up inception_4b/relu_3x3
I0403 16:21:39.093852 20994 net.cpp:148] Top shape: 24 224 14 14 (1053696)
I0403 16:21:39.093868 20994 net.cpp:156] Memory required for data: 964869408
I0403 16:21:39.093881 20994 layer_factory.hpp:77] Creating layer inception_4b/5x5_reduce
I0403 16:21:39.093906 20994 net.cpp:91] Creating Layer inception_4b/5x5_reduce
I0403 16:21:39.093924 20994 net.cpp:425] inception_4b/5x5_reduce <- inception_4a/output_inception_4a/output_0_split_3
I0403 16:21:39.093943 20994 net.cpp:399] inception_4b/5x5_reduce -> inception_4b/5x5_reduce
I0403 16:21:39.095021 20994 net.cpp:141] Setting up inception_4b/5x5_reduce
I0403 16:21:39.095049 20994 net.cpp:148] Top shape: 24 24 14 14 (112896)
I0403 16:21:39.095067 20994 net.cpp:156] Memory required for data: 965320992
I0403 16:21:39.095085 20994 layer_factory.hpp:77] Creating layer inception_4b/relu_5x5_reduce
I0403 16:21:39.095108 20994 net.cpp:91] Creating Layer inception_4b/relu_5x5_reduce
I0403 16:21:39.095141 20994 net.cpp:425] inception_4b/relu_5x5_reduce <- inception_4b/5x5_reduce
I0403 16:21:39.095160 20994 net.cpp:386] inception_4b/relu_5x5_reduce -> inception_4b/5x5_reduce (in-place)
I0403 16:21:39.095345 20994 net.cpp:141] Setting up inception_4b/relu_5x5_reduce
I0403 16:21:39.095371 20994 net.cpp:148] Top shape: 24 24 14 14 (112896)
I0403 16:21:39.095388 20994 net.cpp:156] Memory required for data: 965772576
I0403 16:21:39.095403 20994 layer_factory.hpp:77] Creating layer inception_4b/5x5
I0403 16:21:39.095427 20994 net.cpp:91] Creating Layer inception_4b/5x5
I0403 16:21:39.095443 20994 net.cpp:425] inception_4b/5x5 <- inception_4b/5x5_reduce
I0403 16:21:39.095465 20994 net.cpp:399] inception_4b/5x5 -> inception_4b/5x5
I0403 16:21:39.096716 20994 net.cpp:141] Setting up inception_4b/5x5
I0403 16:21:39.096745 20994 net.cpp:148] Top shape: 24 64 14 14 (301056)
I0403 16:21:39.096760 20994 net.cpp:156] Memory required for data: 966976800
I0403 16:21:39.096778 20994 layer_factory.hpp:77] Creating layer inception_4b/relu_5x5
I0403 16:21:39.096801 20994 net.cpp:91] Creating Layer inception_4b/relu_5x5
I0403 16:21:39.096817 20994 net.cpp:425] inception_4b/relu_5x5 <- inception_4b/5x5
I0403 16:21:39.096837 20994 net.cpp:386] inception_4b/relu_5x5 -> inception_4b/5x5 (in-place)
I0403 16:21:39.097126 20994 net.cpp:141] Setting up inception_4b/relu_5x5
I0403 16:21:39.097152 20994 net.cpp:148] Top shape: 24 64 14 14 (301056)
I0403 16:21:39.097167 20994 net.cpp:156] Memory required for data: 968181024
I0403 16:21:39.097182 20994 layer_factory.hpp:77] Creating layer inception_4b/pool
I0403 16:21:39.097204 20994 net.cpp:91] Creating Layer inception_4b/pool
I0403 16:21:39.097223 20994 net.cpp:425] inception_4b/pool <- inception_4a/output_inception_4a/output_0_split_4
I0403 16:21:39.097240 20994 net.cpp:399] inception_4b/pool -> inception_4b/pool
I0403 16:21:39.097308 20994 net.cpp:141] Setting up inception_4b/pool
I0403 16:21:39.097332 20994 net.cpp:148] Top shape: 24 512 14 14 (2408448)
I0403 16:21:39.097347 20994 net.cpp:156] Memory required for data: 977814816
I0403 16:21:39.097362 20994 layer_factory.hpp:77] Creating layer inception_4b/pool_proj
I0403 16:21:39.097384 20994 net.cpp:91] Creating Layer inception_4b/pool_proj
I0403 16:21:39.097401 20994 net.cpp:425] inception_4b/pool_proj <- inception_4b/pool
I0403 16:21:39.097422 20994 net.cpp:399] inception_4b/pool_proj -> inception_4b/pool_proj
I0403 16:21:39.098634 20994 net.cpp:141] Setting up inception_4b/pool_proj
I0403 16:21:39.098665 20994 net.cpp:148] Top shape: 24 64 14 14 (301056)
I0403 16:21:39.098682 20994 net.cpp:156] Memory required for data: 979019040
I0403 16:21:39.098701 20994 layer_factory.hpp:77] Creating layer inception_4b/relu_pool_proj
I0403 16:21:39.098721 20994 net.cpp:91] Creating Layer inception_4b/relu_pool_proj
I0403 16:21:39.098737 20994 net.cpp:425] inception_4b/relu_pool_proj <- inception_4b/pool_proj
I0403 16:21:39.098754 20994 net.cpp:386] inception_4b/relu_pool_proj -> inception_4b/pool_proj (in-place)
I0403 16:21:39.098935 20994 net.cpp:141] Setting up inception_4b/relu_pool_proj
I0403 16:21:39.098960 20994 net.cpp:148] Top shape: 24 64 14 14 (301056)
I0403 16:21:39.098975 20994 net.cpp:156] Memory required for data: 980223264
I0403 16:21:39.098991 20994 layer_factory.hpp:77] Creating layer inception_4b/output
I0403 16:21:39.099009 20994 net.cpp:91] Creating Layer inception_4b/output
I0403 16:21:39.099030 20994 net.cpp:425] inception_4b/output <- inception_4b/1x1
I0403 16:21:39.099047 20994 net.cpp:425] inception_4b/output <- inception_4b/3x3
I0403 16:21:39.099064 20994 net.cpp:425] inception_4b/output <- inception_4b/5x5
I0403 16:21:39.099081 20994 net.cpp:425] inception_4b/output <- inception_4b/pool_proj
I0403 16:21:39.099100 20994 net.cpp:399] inception_4b/output -> inception_4b/output
I0403 16:21:39.099145 20994 net.cpp:141] Setting up inception_4b/output
I0403 16:21:39.099169 20994 net.cpp:148] Top shape: 24 512 14 14 (2408448)
I0403 16:21:39.099184 20994 net.cpp:156] Memory required for data: 989857056
I0403 16:21:39.099213 20994 layer_factory.hpp:77] Creating layer inception_4b/output_inception_4b/output_0_split
I0403 16:21:39.099234 20994 net.cpp:91] Creating Layer inception_4b/output_inception_4b/output_0_split
I0403 16:21:39.099251 20994 net.cpp:425] inception_4b/output_inception_4b/output_0_split <- inception_4b/output
I0403 16:21:39.099269 20994 net.cpp:399] inception_4b/output_inception_4b/output_0_split -> inception_4b/output_inception_4b/output_0_split_0
I0403 16:21:39.099292 20994 net.cpp:399] inception_4b/output_inception_4b/output_0_split -> inception_4b/output_inception_4b/output_0_split_1
I0403 16:21:39.099313 20994 net.cpp:399] inception_4b/output_inception_4b/output_0_split -> inception_4b/output_inception_4b/output_0_split_2
I0403 16:21:39.099333 20994 net.cpp:399] inception_4b/output_inception_4b/output_0_split -> inception_4b/output_inception_4b/output_0_split_3
I0403 16:21:39.099416 20994 net.cpp:141] Setting up inception_4b/output_inception_4b/output_0_split
I0403 16:21:39.099441 20994 net.cpp:148] Top shape: 24 512 14 14 (2408448)
I0403 16:21:39.099457 20994 net.cpp:148] Top shape: 24 512 14 14 (2408448)
I0403 16:21:39.099472 20994 net.cpp:148] Top shape: 24 512 14 14 (2408448)
I0403 16:21:39.099488 20994 net.cpp:148] Top shape: 24 512 14 14 (2408448)
I0403 16:21:39.099501 20994 net.cpp:156] Memory required for data: 1028392224
I0403 16:21:39.099516 20994 layer_factory.hpp:77] Creating layer inception_4c/1x1
I0403 16:21:39.099539 20994 net.cpp:91] Creating Layer inception_4c/1x1
I0403 16:21:39.099556 20994 net.cpp:425] inception_4c/1x1 <- inception_4b/output_inception_4b/output_0_split_0
I0403 16:21:39.099577 20994 net.cpp:399] inception_4c/1x1 -> inception_4c/1x1
I0403 16:21:39.101045 20994 net.cpp:141] Setting up inception_4c/1x1
I0403 16:21:39.101075 20994 net.cpp:148] Top shape: 24 128 14 14 (602112)
I0403 16:21:39.101091 20994 net.cpp:156] Memory required for data: 1030800672
I0403 16:21:39.101111 20994 layer_factory.hpp:77] Creating layer inception_4c/relu_1x1
I0403 16:21:39.101130 20994 net.cpp:91] Creating Layer inception_4c/relu_1x1
I0403 16:21:39.101176 20994 net.cpp:425] inception_4c/relu_1x1 <- inception_4c/1x1
I0403 16:21:39.101194 20994 net.cpp:386] inception_4c/relu_1x1 -> inception_4c/1x1 (in-place)
I0403 16:21:39.101377 20994 net.cpp:141] Setting up inception_4c/relu_1x1
I0403 16:21:39.101404 20994 net.cpp:148] Top shape: 24 128 14 14 (602112)
I0403 16:21:39.101419 20994 net.cpp:156] Memory required for data: 1033209120
I0403 16:21:39.101446 20994 layer_factory.hpp:77] Creating layer inception_4c/3x3_reduce
I0403 16:21:39.101469 20994 net.cpp:91] Creating Layer inception_4c/3x3_reduce
I0403 16:21:39.101487 20994 net.cpp:425] inception_4c/3x3_reduce <- inception_4b/output_inception_4b/output_0_split_1
I0403 16:21:39.101510 20994 net.cpp:399] inception_4c/3x3_reduce -> inception_4c/3x3_reduce
I0403 16:21:39.103440 20994 net.cpp:141] Setting up inception_4c/3x3_reduce
I0403 16:21:39.103469 20994 net.cpp:148] Top shape: 24 128 14 14 (602112)
I0403 16:21:39.103487 20994 net.cpp:156] Memory required for data: 1035617568
I0403 16:21:39.103505 20994 layer_factory.hpp:77] Creating layer inception_4c/relu_3x3_reduce
I0403 16:21:39.103526 20994 net.cpp:91] Creating Layer inception_4c/relu_3x3_reduce
I0403 16:21:39.103544 20994 net.cpp:425] inception_4c/relu_3x3_reduce <- inception_4c/3x3_reduce
I0403 16:21:39.103562 20994 net.cpp:386] inception_4c/relu_3x3_reduce -> inception_4c/3x3_reduce (in-place)
I0403 16:21:39.103848 20994 net.cpp:141] Setting up inception_4c/relu_3x3_reduce
I0403 16:21:39.103876 20994 net.cpp:148] Top shape: 24 128 14 14 (602112)
I0403 16:21:39.103893 20994 net.cpp:156] Memory required for data: 1038026016
I0403 16:21:39.103909 20994 layer_factory.hpp:77] Creating layer inception_4c/3x3
I0403 16:21:39.103932 20994 net.cpp:91] Creating Layer inception_4c/3x3
I0403 16:21:39.103955 20994 net.cpp:425] inception_4c/3x3 <- inception_4c/3x3_reduce
I0403 16:21:39.103974 20994 net.cpp:399] inception_4c/3x3 -> inception_4c/3x3
I0403 16:21:39.107635 20994 net.cpp:141] Setting up inception_4c/3x3
I0403 16:21:39.107681 20994 net.cpp:148] Top shape: 24 256 14 14 (1204224)
I0403 16:21:39.107698 20994 net.cpp:156] Memory required for data: 1042842912
I0403 16:21:39.107738 20994 layer_factory.hpp:77] Creating layer inception_4c/relu_3x3
I0403 16:21:39.107759 20994 net.cpp:91] Creating Layer inception_4c/relu_3x3
I0403 16:21:39.107777 20994 net.cpp:425] inception_4c/relu_3x3 <- inception_4c/3x3
I0403 16:21:39.107795 20994 net.cpp:386] inception_4c/relu_3x3 -> inception_4c/3x3 (in-place)
I0403 16:21:39.107985 20994 net.cpp:141] Setting up inception_4c/relu_3x3
I0403 16:21:39.108011 20994 net.cpp:148] Top shape: 24 256 14 14 (1204224)
I0403 16:21:39.108059 20994 net.cpp:156] Memory required for data: 1047659808
I0403 16:21:39.108077 20994 layer_factory.hpp:77] Creating layer inception_4c/5x5_reduce
I0403 16:21:39.108100 20994 net.cpp:91] Creating Layer inception_4c/5x5_reduce
I0403 16:21:39.108119 20994 net.cpp:425] inception_4c/5x5_reduce <- inception_4b/output_inception_4b/output_0_split_2
I0403 16:21:39.108139 20994 net.cpp:399] inception_4c/5x5_reduce -> inception_4c/5x5_reduce
I0403 16:21:39.109206 20994 net.cpp:141] Setting up inception_4c/5x5_reduce
I0403 16:21:39.109235 20994 net.cpp:148] Top shape: 24 24 14 14 (112896)
I0403 16:21:39.109249 20994 net.cpp:156] Memory required for data: 1048111392
I0403 16:21:39.109267 20994 layer_factory.hpp:77] Creating layer inception_4c/relu_5x5_reduce
I0403 16:21:39.109287 20994 net.cpp:91] Creating Layer inception_4c/relu_5x5_reduce
I0403 16:21:39.109304 20994 net.cpp:425] inception_4c/relu_5x5_reduce <- inception_4c/5x5_reduce
I0403 16:21:39.109321 20994 net.cpp:386] inception_4c/relu_5x5_reduce -> inception_4c/5x5_reduce (in-place)
I0403 16:21:39.109498 20994 net.cpp:141] Setting up inception_4c/relu_5x5_reduce
I0403 16:21:39.109522 20994 net.cpp:148] Top shape: 24 24 14 14 (112896)
I0403 16:21:39.109536 20994 net.cpp:156] Memory required for data: 1048562976
I0403 16:21:39.109550 20994 layer_factory.hpp:77] Creating layer inception_4c/5x5
I0403 16:21:39.109572 20994 net.cpp:91] Creating Layer inception_4c/5x5
I0403 16:21:39.109589 20994 net.cpp:425] inception_4c/5x5 <- inception_4c/5x5_reduce
I0403 16:21:39.109609 20994 net.cpp:399] inception_4c/5x5 -> inception_4c/5x5
I0403 16:21:39.110818 20994 net.cpp:141] Setting up inception_4c/5x5
I0403 16:21:39.110848 20994 net.cpp:148] Top shape: 24 64 14 14 (301056)
I0403 16:21:39.110865 20994 net.cpp:156] Memory required for data: 1049767200
I0403 16:21:39.110884 20994 layer_factory.hpp:77] Creating layer inception_4c/relu_5x5
I0403 16:21:39.110903 20994 net.cpp:91] Creating Layer inception_4c/relu_5x5
I0403 16:21:39.110919 20994 net.cpp:425] inception_4c/relu_5x5 <- inception_4c/5x5
I0403 16:21:39.110939 20994 net.cpp:386] inception_4c/relu_5x5 -> inception_4c/5x5 (in-place)
I0403 16:21:39.111225 20994 net.cpp:141] Setting up inception_4c/relu_5x5
I0403 16:21:39.111251 20994 net.cpp:148] Top shape: 24 64 14 14 (301056)
I0403 16:21:39.111266 20994 net.cpp:156] Memory required for data: 1050971424
I0403 16:21:39.111281 20994 layer_factory.hpp:77] Creating layer inception_4c/pool
I0403 16:21:39.111299 20994 net.cpp:91] Creating Layer inception_4c/pool
I0403 16:21:39.111315 20994 net.cpp:425] inception_4c/pool <- inception_4b/output_inception_4b/output_0_split_3
I0403 16:21:39.111335 20994 net.cpp:399] inception_4c/pool -> inception_4c/pool
I0403 16:21:39.111397 20994 net.cpp:141] Setting up inception_4c/pool
I0403 16:21:39.111423 20994 net.cpp:148] Top shape: 24 512 14 14 (2408448)
I0403 16:21:39.111438 20994 net.cpp:156] Memory required for data: 1060605216
I0403 16:21:39.111452 20994 layer_factory.hpp:77] Creating layer inception_4c/pool_proj
I0403 16:21:39.111474 20994 net.cpp:91] Creating Layer inception_4c/pool_proj
I0403 16:21:39.111491 20994 net.cpp:425] inception_4c/pool_proj <- inception_4c/pool
I0403 16:21:39.111510 20994 net.cpp:399] inception_4c/pool_proj -> inception_4c/pool_proj
I0403 16:21:39.112718 20994 net.cpp:141] Setting up inception_4c/pool_proj
I0403 16:21:39.112752 20994 net.cpp:148] Top shape: 24 64 14 14 (301056)
I0403 16:21:39.112782 20994 net.cpp:156] Memory required for data: 1061809440
I0403 16:21:39.112802 20994 layer_factory.hpp:77] Creating layer inception_4c/relu_pool_proj
I0403 16:21:39.112819 20994 net.cpp:91] Creating Layer inception_4c/relu_pool_proj
I0403 16:21:39.112836 20994 net.cpp:425] inception_4c/relu_pool_proj <- inception_4c/pool_proj
I0403 16:21:39.112854 20994 net.cpp:386] inception_4c/relu_pool_proj -> inception_4c/pool_proj (in-place)
I0403 16:21:39.113036 20994 net.cpp:141] Setting up inception_4c/relu_pool_proj
I0403 16:21:39.113065 20994 net.cpp:148] Top shape: 24 64 14 14 (301056)
I0403 16:21:39.113081 20994 net.cpp:156] Memory required for data: 1063013664
I0403 16:21:39.113096 20994 layer_factory.hpp:77] Creating layer inception_4c/output
I0403 16:21:39.113114 20994 net.cpp:91] Creating Layer inception_4c/output
I0403 16:21:39.113131 20994 net.cpp:425] inception_4c/output <- inception_4c/1x1
I0403 16:21:39.113148 20994 net.cpp:425] inception_4c/output <- inception_4c/3x3
I0403 16:21:39.113164 20994 net.cpp:425] inception_4c/output <- inception_4c/5x5
I0403 16:21:39.113180 20994 net.cpp:425] inception_4c/output <- inception_4c/pool_proj
I0403 16:21:39.113198 20994 net.cpp:399] inception_4c/output -> inception_4c/output
I0403 16:21:39.113245 20994 net.cpp:141] Setting up inception_4c/output
I0403 16:21:39.113267 20994 net.cpp:148] Top shape: 24 512 14 14 (2408448)
I0403 16:21:39.113282 20994 net.cpp:156] Memory required for data: 1072647456
I0403 16:21:39.113296 20994 layer_factory.hpp:77] Creating layer inception_4c/output_inception_4c/output_0_split
I0403 16:21:39.113317 20994 net.cpp:91] Creating Layer inception_4c/output_inception_4c/output_0_split
I0403 16:21:39.113332 20994 net.cpp:425] inception_4c/output_inception_4c/output_0_split <- inception_4c/output
I0403 16:21:39.113349 20994 net.cpp:399] inception_4c/output_inception_4c/output_0_split -> inception_4c/output_inception_4c/output_0_split_0
I0403 16:21:39.113368 20994 net.cpp:399] inception_4c/output_inception_4c/output_0_split -> inception_4c/output_inception_4c/output_0_split_1
I0403 16:21:39.113392 20994 net.cpp:399] inception_4c/output_inception_4c/output_0_split -> inception_4c/output_inception_4c/output_0_split_2
I0403 16:21:39.113412 20994 net.cpp:399] inception_4c/output_inception_4c/output_0_split -> inception_4c/output_inception_4c/output_0_split_3
I0403 16:21:39.113493 20994 net.cpp:141] Setting up inception_4c/output_inception_4c/output_0_split
I0403 16:21:39.113517 20994 net.cpp:148] Top shape: 24 512 14 14 (2408448)
I0403 16:21:39.113533 20994 net.cpp:148] Top shape: 24 512 14 14 (2408448)
I0403 16:21:39.113548 20994 net.cpp:148] Top shape: 24 512 14 14 (2408448)
I0403 16:21:39.113562 20994 net.cpp:148] Top shape: 24 512 14 14 (2408448)
I0403 16:21:39.113575 20994 net.cpp:156] Memory required for data: 1111182624
I0403 16:21:39.113590 20994 layer_factory.hpp:77] Creating layer inception_4d/1x1
I0403 16:21:39.113611 20994 net.cpp:91] Creating Layer inception_4d/1x1
I0403 16:21:39.113628 20994 net.cpp:425] inception_4d/1x1 <- inception_4c/output_inception_4c/output_0_split_0
I0403 16:21:39.113648 20994 net.cpp:399] inception_4d/1x1 -> inception_4d/1x1
I0403 16:21:39.114984 20994 net.cpp:141] Setting up inception_4d/1x1
I0403 16:21:39.115011 20994 net.cpp:148] Top shape: 24 112 14 14 (526848)
I0403 16:21:39.115032 20994 net.cpp:156] Memory required for data: 1113290016
I0403 16:21:39.115051 20994 layer_factory.hpp:77] Creating layer inception_4d/relu_1x1
I0403 16:21:39.115072 20994 net.cpp:91] Creating Layer inception_4d/relu_1x1
I0403 16:21:39.115089 20994 net.cpp:425] inception_4d/relu_1x1 <- inception_4d/1x1
I0403 16:21:39.115108 20994 net.cpp:386] inception_4d/relu_1x1 -> inception_4d/1x1 (in-place)
I0403 16:21:39.115285 20994 net.cpp:141] Setting up inception_4d/relu_1x1
I0403 16:21:39.115309 20994 net.cpp:148] Top shape: 24 112 14 14 (526848)
I0403 16:21:39.115324 20994 net.cpp:156] Memory required for data: 1115397408
I0403 16:21:39.115339 20994 layer_factory.hpp:77] Creating layer inception_4d/3x3_reduce
I0403 16:21:39.115377 20994 net.cpp:91] Creating Layer inception_4d/3x3_reduce
I0403 16:21:39.115396 20994 net.cpp:425] inception_4d/3x3_reduce <- inception_4c/output_inception_4c/output_0_split_1
I0403 16:21:39.115417 20994 net.cpp:399] inception_4d/3x3_reduce -> inception_4d/3x3_reduce
I0403 16:21:39.116907 20994 net.cpp:141] Setting up inception_4d/3x3_reduce
I0403 16:21:39.116935 20994 net.cpp:148] Top shape: 24 144 14 14 (677376)
I0403 16:21:39.116951 20994 net.cpp:156] Memory required for data: 1118106912
I0403 16:21:39.116969 20994 layer_factory.hpp:77] Creating layer inception_4d/relu_3x3_reduce
I0403 16:21:39.116988 20994 net.cpp:91] Creating Layer inception_4d/relu_3x3_reduce
I0403 16:21:39.117003 20994 net.cpp:425] inception_4d/relu_3x3_reduce <- inception_4d/3x3_reduce
I0403 16:21:39.117027 20994 net.cpp:386] inception_4d/relu_3x3_reduce -> inception_4d/3x3_reduce (in-place)
I0403 16:21:39.117311 20994 net.cpp:141] Setting up inception_4d/relu_3x3_reduce
I0403 16:21:39.117336 20994 net.cpp:148] Top shape: 24 144 14 14 (677376)
I0403 16:21:39.117350 20994 net.cpp:156] Memory required for data: 1120816416
I0403 16:21:39.117365 20994 layer_factory.hpp:77] Creating layer inception_4d/3x3
I0403 16:21:39.117388 20994 net.cpp:91] Creating Layer inception_4d/3x3
I0403 16:21:39.117405 20994 net.cpp:425] inception_4d/3x3 <- inception_4d/3x3_reduce
I0403 16:21:39.117426 20994 net.cpp:399] inception_4d/3x3 -> inception_4d/3x3
I0403 16:21:39.121578 20994 net.cpp:141] Setting up inception_4d/3x3
I0403 16:21:39.121608 20994 net.cpp:148] Top shape: 24 288 14 14 (1354752)
I0403 16:21:39.121624 20994 net.cpp:156] Memory required for data: 1126235424
I0403 16:21:39.121644 20994 layer_factory.hpp:77] Creating layer inception_4d/relu_3x3
I0403 16:21:39.121665 20994 net.cpp:91] Creating Layer inception_4d/relu_3x3
I0403 16:21:39.121683 20994 net.cpp:425] inception_4d/relu_3x3 <- inception_4d/3x3
I0403 16:21:39.121702 20994 net.cpp:386] inception_4d/relu_3x3 -> inception_4d/3x3 (in-place)
I0403 16:21:39.121881 20994 net.cpp:141] Setting up inception_4d/relu_3x3
I0403 16:21:39.121907 20994 net.cpp:148] Top shape: 24 288 14 14 (1354752)
I0403 16:21:39.121924 20994 net.cpp:156] Memory required for data: 1131654432
I0403 16:21:39.121939 20994 layer_factory.hpp:77] Creating layer inception_4d/5x5_reduce
I0403 16:21:39.121963 20994 net.cpp:91] Creating Layer inception_4d/5x5_reduce
I0403 16:21:39.121979 20994 net.cpp:425] inception_4d/5x5_reduce <- inception_4c/output_inception_4c/output_0_split_2
I0403 16:21:39.122001 20994 net.cpp:399] inception_4d/5x5_reduce -> inception_4d/5x5_reduce
I0403 16:21:39.123119 20994 net.cpp:141] Setting up inception_4d/5x5_reduce
I0403 16:21:39.123148 20994 net.cpp:148] Top shape: 24 32 14 14 (150528)
I0403 16:21:39.123164 20994 net.cpp:156] Memory required for data: 1132256544
I0403 16:21:39.123183 20994 layer_factory.hpp:77] Creating layer inception_4d/relu_5x5_reduce
I0403 16:21:39.123204 20994 net.cpp:91] Creating Layer inception_4d/relu_5x5_reduce
I0403 16:21:39.123221 20994 net.cpp:425] inception_4d/relu_5x5_reduce <- inception_4d/5x5_reduce
I0403 16:21:39.123239 20994 net.cpp:386] inception_4d/relu_5x5_reduce -> inception_4d/5x5_reduce (in-place)
I0403 16:21:39.123423 20994 net.cpp:141] Setting up inception_4d/relu_5x5_reduce
I0403 16:21:39.123450 20994 net.cpp:148] Top shape: 24 32 14 14 (150528)
I0403 16:21:39.123464 20994 net.cpp:156] Memory required for data: 1132858656
I0403 16:21:39.123481 20994 layer_factory.hpp:77] Creating layer inception_4d/5x5
I0403 16:21:39.123502 20994 net.cpp:91] Creating Layer inception_4d/5x5
I0403 16:21:39.123518 20994 net.cpp:425] inception_4d/5x5 <- inception_4d/5x5_reduce
I0403 16:21:39.123538 20994 net.cpp:399] inception_4d/5x5 -> inception_4d/5x5
I0403 16:21:39.125028 20994 net.cpp:141] Setting up inception_4d/5x5
I0403 16:21:39.125058 20994 net.cpp:148] Top shape: 24 64 14 14 (301056)
I0403 16:21:39.125075 20994 net.cpp:156] Memory required for data: 1134062880
I0403 16:21:39.125095 20994 layer_factory.hpp:77] Creating layer inception_4d/relu_5x5
I0403 16:21:39.125128 20994 net.cpp:91] Creating Layer inception_4d/relu_5x5
I0403 16:21:39.125146 20994 net.cpp:425] inception_4d/relu_5x5 <- inception_4d/5x5
I0403 16:21:39.125166 20994 net.cpp:386] inception_4d/relu_5x5 -> inception_4d/5x5 (in-place)
I0403 16:21:39.125458 20994 net.cpp:141] Setting up inception_4d/relu_5x5
I0403 16:21:39.125486 20994 net.cpp:148] Top shape: 24 64 14 14 (301056)
I0403 16:21:39.125502 20994 net.cpp:156] Memory required for data: 1135267104
I0403 16:21:39.125519 20994 layer_factory.hpp:77] Creating layer inception_4d/pool
I0403 16:21:39.125536 20994 net.cpp:91] Creating Layer inception_4d/pool
I0403 16:21:39.125552 20994 net.cpp:425] inception_4d/pool <- inception_4c/output_inception_4c/output_0_split_3
I0403 16:21:39.125572 20994 net.cpp:399] inception_4d/pool -> inception_4d/pool
I0403 16:21:39.125638 20994 net.cpp:141] Setting up inception_4d/pool
I0403 16:21:39.125663 20994 net.cpp:148] Top shape: 24 512 14 14 (2408448)
I0403 16:21:39.125676 20994 net.cpp:156] Memory required for data: 1144900896
I0403 16:21:39.125690 20994 layer_factory.hpp:77] Creating layer inception_4d/pool_proj
I0403 16:21:39.125711 20994 net.cpp:91] Creating Layer inception_4d/pool_proj
I0403 16:21:39.125730 20994 net.cpp:425] inception_4d/pool_proj <- inception_4d/pool
I0403 16:21:39.125751 20994 net.cpp:399] inception_4d/pool_proj -> inception_4d/pool_proj
I0403 16:21:39.127476 20994 net.cpp:141] Setting up inception_4d/pool_proj
I0403 16:21:39.127506 20994 net.cpp:148] Top shape: 24 64 14 14 (301056)
I0403 16:21:39.127523 20994 net.cpp:156] Memory required for data: 1146105120
I0403 16:21:39.127542 20994 layer_factory.hpp:77] Creating layer inception_4d/relu_pool_proj
I0403 16:21:39.127563 20994 net.cpp:91] Creating Layer inception_4d/relu_pool_proj
I0403 16:21:39.127583 20994 net.cpp:425] inception_4d/relu_pool_proj <- inception_4d/pool_proj
I0403 16:21:39.127601 20994 net.cpp:386] inception_4d/relu_pool_proj -> inception_4d/pool_proj (in-place)
I0403 16:21:39.127779 20994 net.cpp:141] Setting up inception_4d/relu_pool_proj
I0403 16:21:39.127807 20994 net.cpp:148] Top shape: 24 64 14 14 (301056)
I0403 16:21:39.127823 20994 net.cpp:156] Memory required for data: 1147309344
I0403 16:21:39.127837 20994 layer_factory.hpp:77] Creating layer inception_4d/output
I0403 16:21:39.127856 20994 net.cpp:91] Creating Layer inception_4d/output
I0403 16:21:39.127871 20994 net.cpp:425] inception_4d/output <- inception_4d/1x1
I0403 16:21:39.127887 20994 net.cpp:425] inception_4d/output <- inception_4d/3x3
I0403 16:21:39.127902 20994 net.cpp:425] inception_4d/output <- inception_4d/5x5
I0403 16:21:39.127918 20994 net.cpp:425] inception_4d/output <- inception_4d/pool_proj
I0403 16:21:39.127935 20994 net.cpp:399] inception_4d/output -> inception_4d/output
I0403 16:21:39.127982 20994 net.cpp:141] Setting up inception_4d/output
I0403 16:21:39.128006 20994 net.cpp:148] Top shape: 24 528 14 14 (2483712)
I0403 16:21:39.128043 20994 net.cpp:156] Memory required for data: 1157244192
I0403 16:21:39.128062 20994 layer_factory.hpp:77] Creating layer inception_4d/output_inception_4d/output_0_split
I0403 16:21:39.128082 20994 net.cpp:91] Creating Layer inception_4d/output_inception_4d/output_0_split
I0403 16:21:39.128099 20994 net.cpp:425] inception_4d/output_inception_4d/output_0_split <- inception_4d/output
I0403 16:21:39.128118 20994 net.cpp:399] inception_4d/output_inception_4d/output_0_split -> inception_4d/output_inception_4d/output_0_split_0
I0403 16:21:39.128139 20994 net.cpp:399] inception_4d/output_inception_4d/output_0_split -> inception_4d/output_inception_4d/output_0_split_1
I0403 16:21:39.128159 20994 net.cpp:399] inception_4d/output_inception_4d/output_0_split -> inception_4d/output_inception_4d/output_0_split_2
I0403 16:21:39.128183 20994 net.cpp:399] inception_4d/output_inception_4d/output_0_split -> inception_4d/output_inception_4d/output_0_split_3
I0403 16:21:39.128204 20994 net.cpp:399] inception_4d/output_inception_4d/output_0_split -> inception_4d/output_inception_4d/output_0_split_4
I0403 16:21:39.128319 20994 net.cpp:141] Setting up inception_4d/output_inception_4d/output_0_split
I0403 16:21:39.128353 20994 net.cpp:148] Top shape: 24 528 14 14 (2483712)
I0403 16:21:39.128371 20994 net.cpp:148] Top shape: 24 528 14 14 (2483712)
I0403 16:21:39.128387 20994 net.cpp:148] Top shape: 24 528 14 14 (2483712)
I0403 16:21:39.128402 20994 net.cpp:148] Top shape: 24 528 14 14 (2483712)
I0403 16:21:39.128417 20994 net.cpp:148] Top shape: 24 528 14 14 (2483712)
I0403 16:21:39.128432 20994 net.cpp:156] Memory required for data: 1206918432
I0403 16:21:39.128445 20994 layer_factory.hpp:77] Creating layer loss2/ave_pool
I0403 16:21:39.128465 20994 net.cpp:91] Creating Layer loss2/ave_pool
I0403 16:21:39.128482 20994 net.cpp:425] loss2/ave_pool <- inception_4d/output_inception_4d/output_0_split_0
I0403 16:21:39.128501 20994 net.cpp:399] loss2/ave_pool -> loss2/ave_pool
I0403 16:21:39.128808 20994 net.cpp:141] Setting up loss2/ave_pool
I0403 16:21:39.128834 20994 net.cpp:148] Top shape: 24 528 4 4 (202752)
I0403 16:21:39.128847 20994 net.cpp:156] Memory required for data: 1207729440
I0403 16:21:39.128862 20994 layer_factory.hpp:77] Creating layer loss2/conv
I0403 16:21:39.128885 20994 net.cpp:91] Creating Layer loss2/conv
I0403 16:21:39.128901 20994 net.cpp:425] loss2/conv <- loss2/ave_pool
I0403 16:21:39.128922 20994 net.cpp:399] loss2/conv -> loss2/conv
I0403 16:21:39.130766 20994 net.cpp:141] Setting up loss2/conv
I0403 16:21:39.130797 20994 net.cpp:148] Top shape: 24 128 4 4 (49152)
I0403 16:21:39.130815 20994 net.cpp:156] Memory required for data: 1207926048
I0403 16:21:39.130833 20994 layer_factory.hpp:77] Creating layer loss2/relu_conv
I0403 16:21:39.130851 20994 net.cpp:91] Creating Layer loss2/relu_conv
I0403 16:21:39.130869 20994 net.cpp:425] loss2/relu_conv <- loss2/conv
I0403 16:21:39.130889 20994 net.cpp:386] loss2/relu_conv -> loss2/conv (in-place)
I0403 16:21:39.131171 20994 net.cpp:141] Setting up loss2/relu_conv
I0403 16:21:39.131199 20994 net.cpp:148] Top shape: 24 128 4 4 (49152)
I0403 16:21:39.131216 20994 net.cpp:156] Memory required for data: 1208122656
I0403 16:21:39.131230 20994 layer_factory.hpp:77] Creating layer loss2/fc
I0403 16:21:39.131249 20994 net.cpp:91] Creating Layer loss2/fc
I0403 16:21:39.131265 20994 net.cpp:425] loss2/fc <- loss2/conv
I0403 16:21:39.131286 20994 net.cpp:399] loss2/fc -> loss2/fc
I0403 16:21:39.148562 20994 net.cpp:141] Setting up loss2/fc
I0403 16:21:39.148597 20994 net.cpp:148] Top shape: 24 1024 (24576)
I0403 16:21:39.148614 20994 net.cpp:156] Memory required for data: 1208220960
I0403 16:21:39.148633 20994 layer_factory.hpp:77] Creating layer loss2/relu_fc
I0403 16:21:39.148653 20994 net.cpp:91] Creating Layer loss2/relu_fc
I0403 16:21:39.148669 20994 net.cpp:425] loss2/relu_fc <- loss2/fc
I0403 16:21:39.148687 20994 net.cpp:386] loss2/relu_fc -> loss2/fc (in-place)
I0403 16:21:39.148975 20994 net.cpp:141] Setting up loss2/relu_fc
I0403 16:21:39.149003 20994 net.cpp:148] Top shape: 24 1024 (24576)
I0403 16:21:39.149021 20994 net.cpp:156] Memory required for data: 1208319264
I0403 16:21:39.149037 20994 layer_factory.hpp:77] Creating layer loss2/drop_fc
I0403 16:21:39.149057 20994 net.cpp:91] Creating Layer loss2/drop_fc
I0403 16:21:39.149075 20994 net.cpp:425] loss2/drop_fc <- loss2/fc
I0403 16:21:39.149092 20994 net.cpp:386] loss2/drop_fc -> loss2/fc (in-place)
I0403 16:21:39.149143 20994 net.cpp:141] Setting up loss2/drop_fc
I0403 16:21:39.149165 20994 net.cpp:148] Top shape: 24 1024 (24576)
I0403 16:21:39.149179 20994 net.cpp:156] Memory required for data: 1208417568
I0403 16:21:39.149194 20994 layer_factory.hpp:77] Creating layer loss2/classifier_plantvillage
I0403 16:21:39.149214 20994 net.cpp:91] Creating Layer loss2/classifier_plantvillage
I0403 16:21:39.149231 20994 net.cpp:425] loss2/classifier_plantvillage <- loss2/fc
I0403 16:21:39.149250 20994 net.cpp:399] loss2/classifier_plantvillage -> loss2/classifier_plantvillage
I0403 16:21:39.149653 20994 net.cpp:141] Setting up loss2/classifier_plantvillage
I0403 16:21:39.149678 20994 net.cpp:148] Top shape: 24 38 (912)
I0403 16:21:39.149708 20994 net.cpp:156] Memory required for data: 1208421216
I0403 16:21:39.149726 20994 layer_factory.hpp:77] Creating layer loss2/classifier_plantvillage_loss2/classifier_plantvillage_0_split
I0403 16:21:39.149745 20994 net.cpp:91] Creating Layer loss2/classifier_plantvillage_loss2/classifier_plantvillage_0_split
I0403 16:21:39.149761 20994 net.cpp:425] loss2/classifier_plantvillage_loss2/classifier_plantvillage_0_split <- loss2/classifier_plantvillage
I0403 16:21:39.149781 20994 net.cpp:399] loss2/classifier_plantvillage_loss2/classifier_plantvillage_0_split -> loss2/classifier_plantvillage_loss2/classifier_plantvillage_0_split_0
I0403 16:21:39.149804 20994 net.cpp:399] loss2/classifier_plantvillage_loss2/classifier_plantvillage_0_split -> loss2/classifier_plantvillage_loss2/classifier_plantvillage_0_split_1
I0403 16:21:39.149824 20994 net.cpp:399] loss2/classifier_plantvillage_loss2/classifier_plantvillage_0_split -> loss2/classifier_plantvillage_loss2/classifier_plantvillage_0_split_2
I0403 16:21:39.149900 20994 net.cpp:141] Setting up loss2/classifier_plantvillage_loss2/classifier_plantvillage_0_split
I0403 16:21:39.149926 20994 net.cpp:148] Top shape: 24 38 (912)
I0403 16:21:39.149943 20994 net.cpp:148] Top shape: 24 38 (912)
I0403 16:21:39.149960 20994 net.cpp:148] Top shape: 24 38 (912)
I0403 16:21:39.149973 20994 net.cpp:156] Memory required for data: 1208432160
I0403 16:21:39.149988 20994 layer_factory.hpp:77] Creating layer inception_4e/1x1
I0403 16:21:39.150009 20994 net.cpp:91] Creating Layer inception_4e/1x1
I0403 16:21:39.150032 20994 net.cpp:425] inception_4e/1x1 <- inception_4d/output_inception_4d/output_0_split_1
I0403 16:21:39.150053 20994 net.cpp:399] inception_4e/1x1 -> inception_4e/1x1
I0403 16:21:39.151859 20994 net.cpp:141] Setting up inception_4e/1x1
I0403 16:21:39.151890 20994 net.cpp:148] Top shape: 24 256 14 14 (1204224)
I0403 16:21:39.151907 20994 net.cpp:156] Memory required for data: 1213249056
I0403 16:21:39.151926 20994 layer_factory.hpp:77] Creating layer inception_4e/relu_1x1
I0403 16:21:39.151945 20994 net.cpp:91] Creating Layer inception_4e/relu_1x1
I0403 16:21:39.151962 20994 net.cpp:425] inception_4e/relu_1x1 <- inception_4e/1x1
I0403 16:21:39.151983 20994 net.cpp:386] inception_4e/relu_1x1 -> inception_4e/1x1 (in-place)
I0403 16:21:39.152302 20994 net.cpp:141] Setting up inception_4e/relu_1x1
I0403 16:21:39.152344 20994 net.cpp:148] Top shape: 24 256 14 14 (1204224)
I0403 16:21:39.152362 20994 net.cpp:156] Memory required for data: 1218065952
I0403 16:21:39.152379 20994 layer_factory.hpp:77] Creating layer inception_4e/3x3_reduce
I0403 16:21:39.152401 20994 net.cpp:91] Creating Layer inception_4e/3x3_reduce
I0403 16:21:39.152420 20994 net.cpp:425] inception_4e/3x3_reduce <- inception_4d/output_inception_4d/output_0_split_2
I0403 16:21:39.152439 20994 net.cpp:399] inception_4e/3x3_reduce -> inception_4e/3x3_reduce
I0403 16:21:39.154546 20994 net.cpp:141] Setting up inception_4e/3x3_reduce
I0403 16:21:39.154579 20994 net.cpp:148] Top shape: 24 160 14 14 (752640)
I0403 16:21:39.154597 20994 net.cpp:156] Memory required for data: 1221076512
I0403 16:21:39.154616 20994 layer_factory.hpp:77] Creating layer inception_4e/relu_3x3_reduce
I0403 16:21:39.154634 20994 net.cpp:91] Creating Layer inception_4e/relu_3x3_reduce
I0403 16:21:39.154651 20994 net.cpp:425] inception_4e/relu_3x3_reduce <- inception_4e/3x3_reduce
I0403 16:21:39.154670 20994 net.cpp:386] inception_4e/relu_3x3_reduce -> inception_4e/3x3_reduce (in-place)
I0403 16:21:39.154860 20994 net.cpp:141] Setting up inception_4e/relu_3x3_reduce
I0403 16:21:39.154886 20994 net.cpp:148] Top shape: 24 160 14 14 (752640)
I0403 16:21:39.154901 20994 net.cpp:156] Memory required for data: 1224087072
I0403 16:21:39.154917 20994 layer_factory.hpp:77] Creating layer inception_4e/3x3
I0403 16:21:39.154939 20994 net.cpp:91] Creating Layer inception_4e/3x3
I0403 16:21:39.154958 20994 net.cpp:425] inception_4e/3x3 <- inception_4e/3x3_reduce
I0403 16:21:39.154981 20994 net.cpp:399] inception_4e/3x3 -> inception_4e/3x3
I0403 16:21:39.160001 20994 net.cpp:141] Setting up inception_4e/3x3
I0403 16:21:39.160061 20994 net.cpp:148] Top shape: 24 320 14 14 (1505280)
I0403 16:21:39.160079 20994 net.cpp:156] Memory required for data: 1230108192
I0403 16:21:39.160099 20994 layer_factory.hpp:77] Creating layer inception_4e/relu_3x3
I0403 16:21:39.160120 20994 net.cpp:91] Creating Layer inception_4e/relu_3x3
I0403 16:21:39.160140 20994 net.cpp:425] inception_4e/relu_3x3 <- inception_4e/3x3
I0403 16:21:39.160159 20994 net.cpp:386] inception_4e/relu_3x3 -> inception_4e/3x3 (in-place)
I0403 16:21:39.160472 20994 net.cpp:141] Setting up inception_4e/relu_3x3
I0403 16:21:39.160500 20994 net.cpp:148] Top shape: 24 320 14 14 (1505280)
I0403 16:21:39.160516 20994 net.cpp:156] Memory required for data: 1236129312
I0403 16:21:39.160531 20994 layer_factory.hpp:77] Creating layer inception_4e/5x5_reduce
I0403 16:21:39.160554 20994 net.cpp:91] Creating Layer inception_4e/5x5_reduce
I0403 16:21:39.160573 20994 net.cpp:425] inception_4e/5x5_reduce <- inception_4d/output_inception_4d/output_0_split_3
I0403 16:21:39.160593 20994 net.cpp:399] inception_4e/5x5_reduce -> inception_4e/5x5_reduce
I0403 16:21:39.161664 20994 net.cpp:141] Setting up inception_4e/5x5_reduce
I0403 16:21:39.161695 20994 net.cpp:148] Top shape: 24 32 14 14 (150528)
I0403 16:21:39.161712 20994 net.cpp:156] Memory required for data: 1236731424
I0403 16:21:39.161731 20994 layer_factory.hpp:77] Creating layer inception_4e/relu_5x5_reduce
I0403 16:21:39.161751 20994 net.cpp:91] Creating Layer inception_4e/relu_5x5_reduce
I0403 16:21:39.161767 20994 net.cpp:425] inception_4e/relu_5x5_reduce <- inception_4e/5x5_reduce
I0403 16:21:39.161787 20994 net.cpp:386] inception_4e/relu_5x5_reduce -> inception_4e/5x5_reduce (in-place)
I0403 16:21:39.162091 20994 net.cpp:141] Setting up inception_4e/relu_5x5_reduce
I0403 16:21:39.162118 20994 net.cpp:148] Top shape: 24 32 14 14 (150528)
I0403 16:21:39.162135 20994 net.cpp:156] Memory required for data: 1237333536
I0403 16:21:39.162150 20994 layer_factory.hpp:77] Creating layer inception_4e/5x5
I0403 16:21:39.162190 20994 net.cpp:91] Creating Layer inception_4e/5x5
I0403 16:21:39.162209 20994 net.cpp:425] inception_4e/5x5 <- inception_4e/5x5_reduce
I0403 16:21:39.162230 20994 net.cpp:399] inception_4e/5x5 -> inception_4e/5x5
I0403 16:21:39.164096 20994 net.cpp:141] Setting up inception_4e/5x5
I0403 16:21:39.164126 20994 net.cpp:148] Top shape: 24 128 14 14 (602112)
I0403 16:21:39.164144 20994 net.cpp:156] Memory required for data: 1239741984
I0403 16:21:39.164163 20994 layer_factory.hpp:77] Creating layer inception_4e/relu_5x5
I0403 16:21:39.164186 20994 net.cpp:91] Creating Layer inception_4e/relu_5x5
I0403 16:21:39.164204 20994 net.cpp:425] inception_4e/relu_5x5 <- inception_4e/5x5
I0403 16:21:39.164223 20994 net.cpp:386] inception_4e/relu_5x5 -> inception_4e/5x5 (in-place)
I0403 16:21:39.164433 20994 net.cpp:141] Setting up inception_4e/relu_5x5
I0403 16:21:39.164460 20994 net.cpp:148] Top shape: 24 128 14 14 (602112)
I0403 16:21:39.164476 20994 net.cpp:156] Memory required for data: 1242150432
I0403 16:21:39.164492 20994 layer_factory.hpp:77] Creating layer inception_4e/pool
I0403 16:21:39.164511 20994 net.cpp:91] Creating Layer inception_4e/pool
I0403 16:21:39.164530 20994 net.cpp:425] inception_4e/pool <- inception_4d/output_inception_4d/output_0_split_4
I0403 16:21:39.164551 20994 net.cpp:399] inception_4e/pool -> inception_4e/pool
I0403 16:21:39.164623 20994 net.cpp:141] Setting up inception_4e/pool
I0403 16:21:39.164649 20994 net.cpp:148] Top shape: 24 528 14 14 (2483712)
I0403 16:21:39.164665 20994 net.cpp:156] Memory required for data: 1252085280
I0403 16:21:39.164681 20994 layer_factory.hpp:77] Creating layer inception_4e/pool_proj
I0403 16:21:39.164705 20994 net.cpp:91] Creating Layer inception_4e/pool_proj
I0403 16:21:39.164724 20994 net.cpp:425] inception_4e/pool_proj <- inception_4e/pool
I0403 16:21:39.164743 20994 net.cpp:399] inception_4e/pool_proj -> inception_4e/pool_proj
I0403 16:21:39.166363 20994 net.cpp:141] Setting up inception_4e/pool_proj
I0403 16:21:39.166404 20994 net.cpp:148] Top shape: 24 128 14 14 (602112)
I0403 16:21:39.166420 20994 net.cpp:156] Memory required for data: 1254493728
I0403 16:21:39.166440 20994 layer_factory.hpp:77] Creating layer inception_4e/relu_pool_proj
I0403 16:21:39.166461 20994 net.cpp:91] Creating Layer inception_4e/relu_pool_proj
I0403 16:21:39.166478 20994 net.cpp:425] inception_4e/relu_pool_proj <- inception_4e/pool_proj
I0403 16:21:39.166496 20994 net.cpp:386] inception_4e/relu_pool_proj -> inception_4e/pool_proj (in-place)
I0403 16:21:39.166790 20994 net.cpp:141] Setting up inception_4e/relu_pool_proj
I0403 16:21:39.166818 20994 net.cpp:148] Top shape: 24 128 14 14 (602112)
I0403 16:21:39.166834 20994 net.cpp:156] Memory required for data: 1256902176
I0403 16:21:39.166849 20994 layer_factory.hpp:77] Creating layer inception_4e/output
I0403 16:21:39.166870 20994 net.cpp:91] Creating Layer inception_4e/output
I0403 16:21:39.166887 20994 net.cpp:425] inception_4e/output <- inception_4e/1x1
I0403 16:21:39.166904 20994 net.cpp:425] inception_4e/output <- inception_4e/3x3
I0403 16:21:39.166920 20994 net.cpp:425] inception_4e/output <- inception_4e/5x5
I0403 16:21:39.166936 20994 net.cpp:425] inception_4e/output <- inception_4e/pool_proj
I0403 16:21:39.166954 20994 net.cpp:399] inception_4e/output -> inception_4e/output
I0403 16:21:39.167006 20994 net.cpp:141] Setting up inception_4e/output
I0403 16:21:39.167033 20994 net.cpp:148] Top shape: 24 832 14 14 (3913728)
I0403 16:21:39.167049 20994 net.cpp:156] Memory required for data: 1272557088
I0403 16:21:39.167064 20994 layer_factory.hpp:77] Creating layer pool4/3x3_s2
I0403 16:21:39.167083 20994 net.cpp:91] Creating Layer pool4/3x3_s2
I0403 16:21:39.167098 20994 net.cpp:425] pool4/3x3_s2 <- inception_4e/output
I0403 16:21:39.167119 20994 net.cpp:399] pool4/3x3_s2 -> pool4/3x3_s2
I0403 16:21:39.167187 20994 net.cpp:141] Setting up pool4/3x3_s2
I0403 16:21:39.167212 20994 net.cpp:148] Top shape: 24 832 7 7 (978432)
I0403 16:21:39.167227 20994 net.cpp:156] Memory required for data: 1276470816
I0403 16:21:39.167242 20994 layer_factory.hpp:77] Creating layer pool4/3x3_s2_pool4/3x3_s2_0_split
I0403 16:21:39.167264 20994 net.cpp:91] Creating Layer pool4/3x3_s2_pool4/3x3_s2_0_split
I0403 16:21:39.167281 20994 net.cpp:425] pool4/3x3_s2_pool4/3x3_s2_0_split <- pool4/3x3_s2
I0403 16:21:39.167302 20994 net.cpp:399] pool4/3x3_s2_pool4/3x3_s2_0_split -> pool4/3x3_s2_pool4/3x3_s2_0_split_0
I0403 16:21:39.167323 20994 net.cpp:399] pool4/3x3_s2_pool4/3x3_s2_0_split -> pool4/3x3_s2_pool4/3x3_s2_0_split_1
I0403 16:21:39.167343 20994 net.cpp:399] pool4/3x3_s2_pool4/3x3_s2_0_split -> pool4/3x3_s2_pool4/3x3_s2_0_split_2
I0403 16:21:39.167363 20994 net.cpp:399] pool4/3x3_s2_pool4/3x3_s2_0_split -> pool4/3x3_s2_pool4/3x3_s2_0_split_3
I0403 16:21:39.167454 20994 net.cpp:141] Setting up pool4/3x3_s2_pool4/3x3_s2_0_split
I0403 16:21:39.167479 20994 net.cpp:148] Top shape: 24 832 7 7 (978432)
I0403 16:21:39.167495 20994 net.cpp:148] Top shape: 24 832 7 7 (978432)
I0403 16:21:39.167510 20994 net.cpp:148] Top shape: 24 832 7 7 (978432)
I0403 16:21:39.167526 20994 net.cpp:148] Top shape: 24 832 7 7 (978432)
I0403 16:21:39.167539 20994 net.cpp:156] Memory required for data: 1292125728
I0403 16:21:39.167553 20994 layer_factory.hpp:77] Creating layer inception_5a/1x1
I0403 16:21:39.167577 20994 net.cpp:91] Creating Layer inception_5a/1x1
I0403 16:21:39.167594 20994 net.cpp:425] inception_5a/1x1 <- pool4/3x3_s2_pool4/3x3_s2_0_split_0
I0403 16:21:39.167616 20994 net.cpp:399] inception_5a/1x1 -> inception_5a/1x1
I0403 16:21:39.170512 20994 net.cpp:141] Setting up inception_5a/1x1
I0403 16:21:39.170545 20994 net.cpp:148] Top shape: 24 256 7 7 (301056)
I0403 16:21:39.170564 20994 net.cpp:156] Memory required for data: 1293329952
I0403 16:21:39.170584 20994 layer_factory.hpp:77] Creating layer inception_5a/relu_1x1
I0403 16:21:39.170603 20994 net.cpp:91] Creating Layer inception_5a/relu_1x1
I0403 16:21:39.170621 20994 net.cpp:425] inception_5a/relu_1x1 <- inception_5a/1x1
I0403 16:21:39.170639 20994 net.cpp:386] inception_5a/relu_1x1 -> inception_5a/1x1 (in-place)
I0403 16:21:39.170955 20994 net.cpp:141] Setting up inception_5a/relu_1x1
I0403 16:21:39.170985 20994 net.cpp:148] Top shape: 24 256 7 7 (301056)
I0403 16:21:39.171003 20994 net.cpp:156] Memory required for data: 1294534176
I0403 16:21:39.171022 20994 layer_factory.hpp:77] Creating layer inception_5a/3x3_reduce
I0403 16:21:39.171046 20994 net.cpp:91] Creating Layer inception_5a/3x3_reduce
I0403 16:21:39.171066 20994 net.cpp:425] inception_5a/3x3_reduce <- pool4/3x3_s2_pool4/3x3_s2_0_split_1
I0403 16:21:39.171085 20994 net.cpp:399] inception_5a/3x3_reduce -> inception_5a/3x3_reduce
I0403 16:21:39.173590 20994 net.cpp:141] Setting up inception_5a/3x3_reduce
I0403 16:21:39.173621 20994 net.cpp:148] Top shape: 24 160 7 7 (188160)
I0403 16:21:39.173638 20994 net.cpp:156] Memory required for data: 1295286816
I0403 16:21:39.173657 20994 layer_factory.hpp:77] Creating layer inception_5a/relu_3x3_reduce
I0403 16:21:39.173679 20994 net.cpp:91] Creating Layer inception_5a/relu_3x3_reduce
I0403 16:21:39.173698 20994 net.cpp:425] inception_5a/relu_3x3_reduce <- inception_5a/3x3_reduce
I0403 16:21:39.173717 20994 net.cpp:386] inception_5a/relu_3x3_reduce -> inception_5a/3x3_reduce (in-place)
I0403 16:21:39.173905 20994 net.cpp:141] Setting up inception_5a/relu_3x3_reduce
I0403 16:21:39.173934 20994 net.cpp:148] Top shape: 24 160 7 7 (188160)
I0403 16:21:39.173951 20994 net.cpp:156] Memory required for data: 1296039456
I0403 16:21:39.173969 20994 layer_factory.hpp:77] Creating layer inception_5a/3x3
I0403 16:21:39.173990 20994 net.cpp:91] Creating Layer inception_5a/3x3
I0403 16:21:39.174007 20994 net.cpp:425] inception_5a/3x3 <- inception_5a/3x3_reduce
I0403 16:21:39.174036 20994 net.cpp:399] inception_5a/3x3 -> inception_5a/3x3
I0403 16:21:39.179144 20994 net.cpp:141] Setting up inception_5a/3x3
I0403 16:21:39.179177 20994 net.cpp:148] Top shape: 24 320 7 7 (376320)
I0403 16:21:39.179195 20994 net.cpp:156] Memory required for data: 1297544736
I0403 16:21:39.179215 20994 layer_factory.hpp:77] Creating layer inception_5a/relu_3x3
I0403 16:21:39.179235 20994 net.cpp:91] Creating Layer inception_5a/relu_3x3
I0403 16:21:39.179253 20994 net.cpp:425] inception_5a/relu_3x3 <- inception_5a/3x3
I0403 16:21:39.179272 20994 net.cpp:386] inception_5a/relu_3x3 -> inception_5a/3x3 (in-place)
I0403 16:21:39.179568 20994 net.cpp:141] Setting up inception_5a/relu_3x3
I0403 16:21:39.179594 20994 net.cpp:148] Top shape: 24 320 7 7 (376320)
I0403 16:21:39.179608 20994 net.cpp:156] Memory required for data: 1299050016
I0403 16:21:39.179625 20994 layer_factory.hpp:77] Creating layer inception_5a/5x5_reduce
I0403 16:21:39.179648 20994 net.cpp:91] Creating Layer inception_5a/5x5_reduce
I0403 16:21:39.179666 20994 net.cpp:425] inception_5a/5x5_reduce <- pool4/3x3_s2_pool4/3x3_s2_0_split_2
I0403 16:21:39.179687 20994 net.cpp:399] inception_5a/5x5_reduce -> inception_5a/5x5_reduce
I0403 16:21:39.180901 20994 net.cpp:141] Setting up inception_5a/5x5_reduce
I0403 16:21:39.180932 20994 net.cpp:148] Top shape: 24 32 7 7 (37632)
I0403 16:21:39.180950 20994 net.cpp:156] Memory required for data: 1299200544
I0403 16:21:39.180971 20994 layer_factory.hpp:77] Creating layer inception_5a/relu_5x5_reduce
I0403 16:21:39.180989 20994 net.cpp:91] Creating Layer inception_5a/relu_5x5_reduce
I0403 16:21:39.181006 20994 net.cpp:425] inception_5a/relu_5x5_reduce <- inception_5a/5x5_reduce
I0403 16:21:39.181030 20994 net.cpp:386] inception_5a/relu_5x5_reduce -> inception_5a/5x5_reduce (in-place)
I0403 16:21:39.181334 20994 net.cpp:141] Setting up inception_5a/relu_5x5_reduce
I0403 16:21:39.181362 20994 net.cpp:148] Top shape: 24 32 7 7 (37632)
I0403 16:21:39.181378 20994 net.cpp:156] Memory required for data: 1299351072
I0403 16:21:39.181393 20994 layer_factory.hpp:77] Creating layer inception_5a/5x5
I0403 16:21:39.181416 20994 net.cpp:91] Creating Layer inception_5a/5x5
I0403 16:21:39.181433 20994 net.cpp:425] inception_5a/5x5 <- inception_5a/5x5_reduce
I0403 16:21:39.181457 20994 net.cpp:399] inception_5a/5x5 -> inception_5a/5x5
I0403 16:21:39.183187 20994 net.cpp:141] Setting up inception_5a/5x5
I0403 16:21:39.183228 20994 net.cpp:148] Top shape: 24 128 7 7 (150528)
I0403 16:21:39.183246 20994 net.cpp:156] Memory required for data: 1299953184
I0403 16:21:39.183264 20994 layer_factory.hpp:77] Creating layer inception_5a/relu_5x5
I0403 16:21:39.183285 20994 net.cpp:91] Creating Layer inception_5a/relu_5x5
I0403 16:21:39.183303 20994 net.cpp:425] inception_5a/relu_5x5 <- inception_5a/5x5
I0403 16:21:39.183320 20994 net.cpp:386] inception_5a/relu_5x5 -> inception_5a/5x5 (in-place)
I0403 16:21:39.183511 20994 net.cpp:141] Setting up inception_5a/relu_5x5
I0403 16:21:39.183537 20994 net.cpp:148] Top shape: 24 128 7 7 (150528)
I0403 16:21:39.183552 20994 net.cpp:156] Memory required for data: 1300555296
I0403 16:21:39.183567 20994 layer_factory.hpp:77] Creating layer inception_5a/pool
I0403 16:21:39.183584 20994 net.cpp:91] Creating Layer inception_5a/pool
I0403 16:21:39.183600 20994 net.cpp:425] inception_5a/pool <- pool4/3x3_s2_pool4/3x3_s2_0_split_3
I0403 16:21:39.183621 20994 net.cpp:399] inception_5a/pool -> inception_5a/pool
I0403 16:21:39.183693 20994 net.cpp:141] Setting up inception_5a/pool
I0403 16:21:39.183717 20994 net.cpp:148] Top shape: 24 832 7 7 (978432)
I0403 16:21:39.183732 20994 net.cpp:156] Memory required for data: 1304469024
I0403 16:21:39.183747 20994 layer_factory.hpp:77] Creating layer inception_5a/pool_proj
I0403 16:21:39.183771 20994 net.cpp:91] Creating Layer inception_5a/pool_proj
I0403 16:21:39.183789 20994 net.cpp:425] inception_5a/pool_proj <- inception_5a/pool
I0403 16:21:39.183809 20994 net.cpp:399] inception_5a/pool_proj -> inception_5a/pool_proj
I0403 16:21:39.186125 20994 net.cpp:141] Setting up inception_5a/pool_proj
I0403 16:21:39.186162 20994 net.cpp:148] Top shape: 24 128 7 7 (150528)
I0403 16:21:39.186178 20994 net.cpp:156] Memory required for data: 1305071136
I0403 16:21:39.186200 20994 layer_factory.hpp:77] Creating layer inception_5a/relu_pool_proj
I0403 16:21:39.186221 20994 net.cpp:91] Creating Layer inception_5a/relu_pool_proj
I0403 16:21:39.186239 20994 net.cpp:425] inception_5a/relu_pool_proj <- inception_5a/pool_proj
I0403 16:21:39.186257 20994 net.cpp:386] inception_5a/relu_pool_proj -> inception_5a/pool_proj (in-place)
I0403 16:21:39.186560 20994 net.cpp:141] Setting up inception_5a/relu_pool_proj
I0403 16:21:39.186588 20994 net.cpp:148] Top shape: 24 128 7 7 (150528)
I0403 16:21:39.186602 20994 net.cpp:156] Memory required for data: 1305673248
I0403 16:21:39.186619 20994 layer_factory.hpp:77] Creating layer inception_5a/output
I0403 16:21:39.186638 20994 net.cpp:91] Creating Layer inception_5a/output
I0403 16:21:39.186655 20994 net.cpp:425] inception_5a/output <- inception_5a/1x1
I0403 16:21:39.186672 20994 net.cpp:425] inception_5a/output <- inception_5a/3x3
I0403 16:21:39.186689 20994 net.cpp:425] inception_5a/output <- inception_5a/5x5
I0403 16:21:39.186705 20994 net.cpp:425] inception_5a/output <- inception_5a/pool_proj
I0403 16:21:39.186723 20994 net.cpp:399] inception_5a/output -> inception_5a/output
I0403 16:21:39.186775 20994 net.cpp:141] Setting up inception_5a/output
I0403 16:21:39.186800 20994 net.cpp:148] Top shape: 24 832 7 7 (978432)
I0403 16:21:39.186815 20994 net.cpp:156] Memory required for data: 1309586976
I0403 16:21:39.186830 20994 layer_factory.hpp:77] Creating layer inception_5a/output_inception_5a/output_0_split
I0403 16:21:39.186846 20994 net.cpp:91] Creating Layer inception_5a/output_inception_5a/output_0_split
I0403 16:21:39.186862 20994 net.cpp:425] inception_5a/output_inception_5a/output_0_split <- inception_5a/output
I0403 16:21:39.186882 20994 net.cpp:399] inception_5a/output_inception_5a/output_0_split -> inception_5a/output_inception_5a/output_0_split_0
I0403 16:21:39.186903 20994 net.cpp:399] inception_5a/output_inception_5a/output_0_split -> inception_5a/output_inception_5a/output_0_split_1
I0403 16:21:39.186923 20994 net.cpp:399] inception_5a/output_inception_5a/output_0_split -> inception_5a/output_inception_5a/output_0_split_2
I0403 16:21:39.186944 20994 net.cpp:399] inception_5a/output_inception_5a/output_0_split -> inception_5a/output_inception_5a/output_0_split_3
I0403 16:21:39.187062 20994 net.cpp:141] Setting up inception_5a/output_inception_5a/output_0_split
I0403 16:21:39.187088 20994 net.cpp:148] Top shape: 24 832 7 7 (978432)
I0403 16:21:39.187106 20994 net.cpp:148] Top shape: 24 832 7 7 (978432)
I0403 16:21:39.187122 20994 net.cpp:148] Top shape: 24 832 7 7 (978432)
I0403 16:21:39.187137 20994 net.cpp:148] Top shape: 24 832 7 7 (978432)
I0403 16:21:39.187151 20994 net.cpp:156] Memory required for data: 1325241888
I0403 16:21:39.187166 20994 layer_factory.hpp:77] Creating layer inception_5b/1x1
I0403 16:21:39.187189 20994 net.cpp:91] Creating Layer inception_5b/1x1
I0403 16:21:39.187207 20994 net.cpp:425] inception_5b/1x1 <- inception_5a/output_inception_5a/output_0_split_0
I0403 16:21:39.187227 20994 net.cpp:399] inception_5b/1x1 -> inception_5b/1x1
I0403 16:21:39.191051 20994 net.cpp:141] Setting up inception_5b/1x1
I0403 16:21:39.191083 20994 net.cpp:148] Top shape: 24 384 7 7 (451584)
I0403 16:21:39.191100 20994 net.cpp:156] Memory required for data: 1327048224
I0403 16:21:39.191120 20994 layer_factory.hpp:77] Creating layer inception_5b/relu_1x1
I0403 16:21:39.191141 20994 net.cpp:91] Creating Layer inception_5b/relu_1x1
I0403 16:21:39.191159 20994 net.cpp:425] inception_5b/relu_1x1 <- inception_5b/1x1
I0403 16:21:39.191177 20994 net.cpp:386] inception_5b/relu_1x1 -> inception_5b/1x1 (in-place)
I0403 16:21:39.191483 20994 net.cpp:141] Setting up inception_5b/relu_1x1
I0403 16:21:39.191510 20994 net.cpp:148] Top shape: 24 384 7 7 (451584)
I0403 16:21:39.191526 20994 net.cpp:156] Memory required for data: 1328854560
I0403 16:21:39.191540 20994 layer_factory.hpp:77] Creating layer inception_5b/3x3_reduce
I0403 16:21:39.191563 20994 net.cpp:91] Creating Layer inception_5b/3x3_reduce
I0403 16:21:39.191581 20994 net.cpp:425] inception_5b/3x3_reduce <- inception_5a/output_inception_5a/output_0_split_1
I0403 16:21:39.191604 20994 net.cpp:399] inception_5b/3x3_reduce -> inception_5b/3x3_reduce
I0403 16:21:39.194329 20994 net.cpp:141] Setting up inception_5b/3x3_reduce
I0403 16:21:39.194360 20994 net.cpp:148] Top shape: 24 192 7 7 (225792)
I0403 16:21:39.194375 20994 net.cpp:156] Memory required for data: 1329757728
I0403 16:21:39.194394 20994 layer_factory.hpp:77] Creating layer inception_5b/relu_3x3_reduce
I0403 16:21:39.194416 20994 net.cpp:91] Creating Layer inception_5b/relu_3x3_reduce
I0403 16:21:39.194432 20994 net.cpp:425] inception_5b/relu_3x3_reduce <- inception_5b/3x3_reduce
I0403 16:21:39.194449 20994 net.cpp:386] inception_5b/relu_3x3_reduce -> inception_5b/3x3_reduce (in-place)
I0403 16:21:39.194653 20994 net.cpp:141] Setting up inception_5b/relu_3x3_reduce
I0403 16:21:39.194679 20994 net.cpp:148] Top shape: 24 192 7 7 (225792)
I0403 16:21:39.194695 20994 net.cpp:156] Memory required for data: 1330660896
I0403 16:21:39.194710 20994 layer_factory.hpp:77] Creating layer inception_5b/3x3
I0403 16:21:39.194731 20994 net.cpp:91] Creating Layer inception_5b/3x3
I0403 16:21:39.194748 20994 net.cpp:425] inception_5b/3x3 <- inception_5b/3x3_reduce
I0403 16:21:39.194767 20994 net.cpp:399] inception_5b/3x3 -> inception_5b/3x3
I0403 16:21:39.201454 20994 net.cpp:141] Setting up inception_5b/3x3
I0403 16:21:39.201485 20994 net.cpp:148] Top shape: 24 384 7 7 (451584)
I0403 16:21:39.201501 20994 net.cpp:156] Memory required for data: 1332467232
I0403 16:21:39.201519 20994 layer_factory.hpp:77] Creating layer inception_5b/relu_3x3
I0403 16:21:39.201541 20994 net.cpp:91] Creating Layer inception_5b/relu_3x3
I0403 16:21:39.201558 20994 net.cpp:425] inception_5b/relu_3x3 <- inception_5b/3x3
I0403 16:21:39.201575 20994 net.cpp:386] inception_5b/relu_3x3 -> inception_5b/3x3 (in-place)
I0403 16:21:39.201876 20994 net.cpp:141] Setting up inception_5b/relu_3x3
I0403 16:21:39.201903 20994 net.cpp:148] Top shape: 24 384 7 7 (451584)
I0403 16:21:39.201918 20994 net.cpp:156] Memory required for data: 1334273568
I0403 16:21:39.201933 20994 layer_factory.hpp:77] Creating layer inception_5b/5x5_reduce
I0403 16:21:39.201972 20994 net.cpp:91] Creating Layer inception_5b/5x5_reduce
I0403 16:21:39.201992 20994 net.cpp:425] inception_5b/5x5_reduce <- inception_5a/output_inception_5a/output_0_split_2
I0403 16:21:39.202014 20994 net.cpp:399] inception_5b/5x5_reduce -> inception_5b/5x5_reduce
I0403 16:21:39.203263 20994 net.cpp:141] Setting up inception_5b/5x5_reduce
I0403 16:21:39.203290 20994 net.cpp:148] Top shape: 24 48 7 7 (56448)
I0403 16:21:39.203307 20994 net.cpp:156] Memory required for data: 1334499360
I0403 16:21:39.203325 20994 layer_factory.hpp:77] Creating layer inception_5b/relu_5x5_reduce
I0403 16:21:39.203346 20994 net.cpp:91] Creating Layer inception_5b/relu_5x5_reduce
I0403 16:21:39.203364 20994 net.cpp:425] inception_5b/relu_5x5_reduce <- inception_5b/5x5_reduce
I0403 16:21:39.203383 20994 net.cpp:386] inception_5b/relu_5x5_reduce -> inception_5b/5x5_reduce (in-place)
I0403 16:21:39.203749 20994 net.cpp:141] Setting up inception_5b/relu_5x5_reduce
I0403 16:21:39.203776 20994 net.cpp:148] Top shape: 24 48 7 7 (56448)
I0403 16:21:39.203793 20994 net.cpp:156] Memory required for data: 1334725152
I0403 16:21:39.203809 20994 layer_factory.hpp:77] Creating layer inception_5b/5x5
I0403 16:21:39.203830 20994 net.cpp:91] Creating Layer inception_5b/5x5
I0403 16:21:39.203846 20994 net.cpp:425] inception_5b/5x5 <- inception_5b/5x5_reduce
I0403 16:21:39.203865 20994 net.cpp:399] inception_5b/5x5 -> inception_5b/5x5
I0403 16:21:39.205916 20994 net.cpp:141] Setting up inception_5b/5x5
I0403 16:21:39.205947 20994 net.cpp:148] Top shape: 24 128 7 7 (150528)
I0403 16:21:39.205965 20994 net.cpp:156] Memory required for data: 1335327264
I0403 16:21:39.205983 20994 layer_factory.hpp:77] Creating layer inception_5b/relu_5x5
I0403 16:21:39.206002 20994 net.cpp:91] Creating Layer inception_5b/relu_5x5
I0403 16:21:39.206022 20994 net.cpp:425] inception_5b/relu_5x5 <- inception_5b/5x5
I0403 16:21:39.206040 20994 net.cpp:386] inception_5b/relu_5x5 -> inception_5b/5x5 (in-place)
I0403 16:21:39.206230 20994 net.cpp:141] Setting up inception_5b/relu_5x5
I0403 16:21:39.206259 20994 net.cpp:148] Top shape: 24 128 7 7 (150528)
I0403 16:21:39.206276 20994 net.cpp:156] Memory required for data: 1335929376
I0403 16:21:39.206291 20994 layer_factory.hpp:77] Creating layer inception_5b/pool
I0403 16:21:39.206310 20994 net.cpp:91] Creating Layer inception_5b/pool
I0403 16:21:39.206326 20994 net.cpp:425] inception_5b/pool <- inception_5a/output_inception_5a/output_0_split_3
I0403 16:21:39.206347 20994 net.cpp:399] inception_5b/pool -> inception_5b/pool
I0403 16:21:39.206418 20994 net.cpp:141] Setting up inception_5b/pool
I0403 16:21:39.206445 20994 net.cpp:148] Top shape: 24 832 7 7 (978432)
I0403 16:21:39.206461 20994 net.cpp:156] Memory required for data: 1339843104
I0403 16:21:39.206477 20994 layer_factory.hpp:77] Creating layer inception_5b/pool_proj
I0403 16:21:39.206501 20994 net.cpp:91] Creating Layer inception_5b/pool_proj
I0403 16:21:39.206531 20994 net.cpp:425] inception_5b/pool_proj <- inception_5b/pool
I0403 16:21:39.206550 20994 net.cpp:399] inception_5b/pool_proj -> inception_5b/pool_proj
I0403 16:21:39.208843 20994 net.cpp:141] Setting up inception_5b/pool_proj
I0403 16:21:39.208873 20994 net.cpp:148] Top shape: 24 128 7 7 (150528)
I0403 16:21:39.208889 20994 net.cpp:156] Memory required for data: 1340445216
I0403 16:21:39.208907 20994 layer_factory.hpp:77] Creating layer inception_5b/relu_pool_proj
I0403 16:21:39.208927 20994 net.cpp:91] Creating Layer inception_5b/relu_pool_proj
I0403 16:21:39.208945 20994 net.cpp:425] inception_5b/relu_pool_proj <- inception_5b/pool_proj
I0403 16:21:39.208961 20994 net.cpp:386] inception_5b/relu_pool_proj -> inception_5b/pool_proj (in-place)
I0403 16:21:39.209260 20994 net.cpp:141] Setting up inception_5b/relu_pool_proj
I0403 16:21:39.209285 20994 net.cpp:148] Top shape: 24 128 7 7 (150528)
I0403 16:21:39.209300 20994 net.cpp:156] Memory required for data: 1341047328
I0403 16:21:39.209316 20994 layer_factory.hpp:77] Creating layer inception_5b/output
I0403 16:21:39.209334 20994 net.cpp:91] Creating Layer inception_5b/output
I0403 16:21:39.209364 20994 net.cpp:425] inception_5b/output <- inception_5b/1x1
I0403 16:21:39.209383 20994 net.cpp:425] inception_5b/output <- inception_5b/3x3
I0403 16:21:39.209399 20994 net.cpp:425] inception_5b/output <- inception_5b/5x5
I0403 16:21:39.209414 20994 net.cpp:425] inception_5b/output <- inception_5b/pool_proj
I0403 16:21:39.209431 20994 net.cpp:399] inception_5b/output -> inception_5b/output
I0403 16:21:39.209483 20994 net.cpp:141] Setting up inception_5b/output
I0403 16:21:39.209506 20994 net.cpp:148] Top shape: 24 1024 7 7 (1204224)
I0403 16:21:39.209522 20994 net.cpp:156] Memory required for data: 1345864224
I0403 16:21:39.209537 20994 layer_factory.hpp:77] Creating layer pool5/7x7_s1
I0403 16:21:39.209553 20994 net.cpp:91] Creating Layer pool5/7x7_s1
I0403 16:21:39.209569 20994 net.cpp:425] pool5/7x7_s1 <- inception_5b/output
I0403 16:21:39.209589 20994 net.cpp:399] pool5/7x7_s1 -> pool5/7x7_s1
I0403 16:21:39.209800 20994 net.cpp:141] Setting up pool5/7x7_s1
I0403 16:21:39.209825 20994 net.cpp:148] Top shape: 24 1024 1 1 (24576)
I0403 16:21:39.209839 20994 net.cpp:156] Memory required for data: 1345962528
I0403 16:21:39.209854 20994 layer_factory.hpp:77] Creating layer pool5/drop_7x7_s1
I0403 16:21:39.209874 20994 net.cpp:91] Creating Layer pool5/drop_7x7_s1
I0403 16:21:39.209892 20994 net.cpp:425] pool5/drop_7x7_s1 <- pool5/7x7_s1
I0403 16:21:39.209908 20994 net.cpp:386] pool5/drop_7x7_s1 -> pool5/7x7_s1 (in-place)
I0403 16:21:39.209959 20994 net.cpp:141] Setting up pool5/drop_7x7_s1
I0403 16:21:39.209982 20994 net.cpp:148] Top shape: 24 1024 1 1 (24576)
I0403 16:21:39.209997 20994 net.cpp:156] Memory required for data: 1346060832
I0403 16:21:39.210012 20994 layer_factory.hpp:77] Creating layer loss3/classifier_plantvillage
I0403 16:21:39.210038 20994 net.cpp:91] Creating Layer loss3/classifier_plantvillage
I0403 16:21:39.210057 20994 net.cpp:425] loss3/classifier_plantvillage <- pool5/7x7_s1
I0403 16:21:39.210075 20994 net.cpp:399] loss3/classifier_plantvillage -> loss3/classifier_plantvillage
I0403 16:21:39.210492 20994 net.cpp:141] Setting up loss3/classifier_plantvillage
I0403 16:21:39.210517 20994 net.cpp:148] Top shape: 24 38 (912)
I0403 16:21:39.210532 20994 net.cpp:156] Memory required for data: 1346064480
I0403 16:21:39.210551 20994 layer_factory.hpp:77] Creating layer loss3/classifier_plantvillage_loss3/classifier_plantvillage_0_split
I0403 16:21:39.210568 20994 net.cpp:91] Creating Layer loss3/classifier_plantvillage_loss3/classifier_plantvillage_0_split
I0403 16:21:39.210584 20994 net.cpp:425] loss3/classifier_plantvillage_loss3/classifier_plantvillage_0_split <- loss3/classifier_plantvillage
I0403 16:21:39.210605 20994 net.cpp:399] loss3/classifier_plantvillage_loss3/classifier_plantvillage_0_split -> loss3/classifier_plantvillage_loss3/classifier_plantvillage_0_split_0
I0403 16:21:39.210626 20994 net.cpp:399] loss3/classifier_plantvillage_loss3/classifier_plantvillage_0_split -> loss3/classifier_plantvillage_loss3/classifier_plantvillage_0_split_1
I0403 16:21:39.210646 20994 net.cpp:399] loss3/classifier_plantvillage_loss3/classifier_plantvillage_0_split -> loss3/classifier_plantvillage_loss3/classifier_plantvillage_0_split_2
I0403 16:21:39.210665 20994 net.cpp:399] loss3/classifier_plantvillage_loss3/classifier_plantvillage_0_split -> loss3/classifier_plantvillage_loss3/classifier_plantvillage_0_split_3
I0403 16:21:39.210763 20994 net.cpp:141] Setting up loss3/classifier_plantvillage_loss3/classifier_plantvillage_0_split
I0403 16:21:39.210785 20994 net.cpp:148] Top shape: 24 38 (912)
I0403 16:21:39.210801 20994 net.cpp:148] Top shape: 24 38 (912)
I0403 16:21:39.210816 20994 net.cpp:148] Top shape: 24 38 (912)
I0403 16:21:39.210831 20994 net.cpp:148] Top shape: 24 38 (912)
I0403 16:21:39.210845 20994 net.cpp:156] Memory required for data: 1346079072
I0403 16:21:39.210860 20994 layer_factory.hpp:77] Creating layer loss1/loss
I0403 16:21:39.210881 20994 net.cpp:91] Creating Layer loss1/loss
I0403 16:21:39.210898 20994 net.cpp:425] loss1/loss <- loss1/classifier_plantvillage_loss1/classifier_plantvillage_0_split_0
I0403 16:21:39.210928 20994 net.cpp:425] loss1/loss <- label_data_1_split_0
…
