…
I0403 16:49:13.851253 21474 net.cpp:313] The NetState phase (1) differed from the phase (0) specified by a rule in layer data
I0403 16:49:13.852388 21474 net.cpp:49] Initializing net from parameters: 
state {
  phase: TEST
}
layer {
  name: "data"
  type: "Data"
  top: "data"
  top: "label"
  include {
    phase: TEST
  }
  transform_param {
    mirror: false
    crop_size: 224
    mean_file: "/home/mohanty/data/final_dataset/lmdb/grayscale-20-80/mean.binaryproto"
  }
  data_param {
    source: "/home/mohanty/data/final_dataset/lmdb/grayscale-20-80/test_db"
    batch_size: 24
    backend: LMDB
  }
}
layer {
  name: "conv1/7x7_s2"
  type: "Convolution"
  bottom: "data"
  top: "conv1/7x7_s2"
  param {
    lr_mult: 1
    decay_mult: 1
  }
  param {
    lr_mult: 2
    decay_mult: 0
  }
  convolution_param {
    num_output: 64
    pad: 3
    kernel_size: 7
    stride: 2
    weight_filler {
      type: "xavier"
      std: 0.1
    }
    bias_filler {
      type: "constant"
      value: 0.2
    }
  }
}
layer {
  name: "conv1/relu_7x7"
  type: "ReLU"
  bottom: "conv1/7x7_s2"
  top: "conv1/7x7_s2"
}
layer {
  name: "pool1/3x3_s2"
  type: "Pooling"
  bottom: "conv1/7x7_s2"
  top: "pool1/3x3_s2"
  pooling_param {
    pool: MAX
    kernel_size: 3
    stride: 2
  }
}
layer {
  name: "pool1/norm1"
  type: "LRN"
  bottom: "pool1/3x3_s2"
  top: "pool1/norm1"
  lrn_param {
    local_size: 5
    alpha: 0.0001
    beta: 0.75
  }
}
layer {
  name: "conv2/3x3_reduce"
  type: "Convolution"
  bottom: "pool1/norm1"
  top: "conv2/3x3_reduce"
  param {
    lr_mult: 1
    decay_mult: 1
  }
  param {
    lr_mult: 2
    decay_mult: 0
  }
  convolution_param {
    num_output: 64
    kernel_size: 1
    weight_filler {
      type: "xavier"
      std: 0.1
    }
    bias_filler {
      type: "constant"
      value: 0.2
    }
  }
}
layer {
  name: "conv2/relu_3x3_reduce"
  type: "ReLU"
  bottom: "conv2/3x3_reduce"
  top: "conv2/3x3_reduce"
}
layer {
  name: "conv2/3x3"
  type: "Convolution"
  bottom: "conv2/3x3_reduce"
  top: "conv2/3x3"
  param {
    lr_mult: 1
    decay_mult: 1
  }
  param {
    lr_mult: 2
    decay_mult: 0
  }
  convolution_param {
    num_output: 192
    pad: 1
    kernel_size: 3
    weight_filler {
      type: "xavier"
      std: 0.03
    }
    bias_filler {
      type: "constant"
      value: 0.2
    }
  }
}
layer {
  name: "conv2/relu_3x3"
  type: "ReLU"
  bottom: "conv2/3x3"
  top: "conv2/3x3"
}
layer {
  name: "conv2/norm2"
  type: "LRN"
  bottom: "conv2/3x3"
  top: "conv2/norm2"
  lrn_param {
    local_size: 5
    alpha: 0.0001
    beta: 0.75
  }
}
layer {
  name: "pool2/3x3_s2"
  type: "Pooling"
  bottom: "conv2/norm2"
  top: "pool2/3x3_s2"
  pooling_param {
    pool: MAX
    kernel_size: 3
    stride: 2
  }
}
layer {
  name: "inception_3a/1x1"
  type: "Convolution"
  bottom: "pool2/3x3_s2"
  top: "inception_3a/1x1"
  param {
    lr_mult: 1
    decay_mult: 1
  }
  param {
    lr_mult: 2
    decay_mult: 0
  }
  convolution_param {
    num_output: 64
    kernel_size: 1
    weight_filler {
      type: "xavier"
      std: 0.03
    }
    bias_filler {
      type: "constant"
      value: 0.2
    }
  }
}
layer {
  name: "inception_3a/relu_1x1"
  type: "ReLU"
  bottom: "inception_3a/1x1"
  top: "inception_3a/1x1"
}
layer {
  name: "inception_3a/3x3_reduce"
  type: "Convolution"
  bottom: "pool2/3x3_s2"
  top: "inception_3a/3x3_reduce"
  param {
    lr_mult: 1
    decay_mult: 1
  }
  param {
    lr_mult: 2
    decay_mult: 0
  }
  convolution_param {
    num_output: 96
    kernel_size: 1
    weight_filler {
      type: "xavier"
      std: 0.09
    }
    bias_filler {
      type: "constant"
      value: 0.2
    }
  }
}
layer {
  name: "inception_3a/relu_3x3_reduce"
  type: "ReLU"
  bottom: "inception_3a/3x3_reduce"
  top: "inception_3a/3x3_reduce"
}
layer {
  name: "inception_3a/3x3"
  type: "Convolution"
  bottom: "inception_3a/3x3_reduce"
  top: "inception_3a/3x3"
  param {
    lr_mult: 1
    decay_mult: 1
  }
  param {
    lr_mult: 2
    decay_mult: 0
  }
  convolution_param {
    num_output: 128
    pad: 1
    kernel_size: 3
    weight_filler {
      type: "xavier"
      std: 0.03
    }
    bias_filler {
      type: "constant"
      value: 0.2
    }
  }
}
layer {
  name: "inception_3a/relu_3x3"
  type: "ReLU"
  bottom: "inception_3a/3x3"
  top: "inception_3a/3x3"
}
layer {
  name: "inception_3a/5x5_reduce"
  type: "Convolution"
  bottom: "pool2/3x3_s2"
  top: "inception_3a/5x5_reduce"
  param {
    lr_mult: 1
    decay_mult: 1
  }
  param {
    lr_mult: 2
    decay_mult: 0
  }
  convolution_param {
    num_output: 16
    kernel_size: 1
    weight_filler {
      type: "xavier"
      std: 0.2
    }
    bias_filler {
      type: "constant"
      value: 0.2
    }
  }
}
layer {
  name: "inception_3a/relu_5x5_reduce"
  type: "ReLU"
  bottom: "inception_3a/5x5_reduce"
  top: "inception_3a/5x5_reduce"
}
layer {
  name: "inception_3a/5x5"
  type: "Convolution"
  bottom: "inception_3a/5x5_reduce"
  top: "inception_3a/5x5"
  param {
    lr_mult: 1
    decay_mult: 1
  }
  param {
    lr_mult: 2
    decay_mult: 0
  }
  convolution_param {
    num_output: 32
    pad: 2
    kernel_size: 5
    weight_filler {
      type: "xavier"
      std: 0.03
    }
    bias_filler {
      type: "constant"
      value: 0.2
    }
  }
}
layer {
  name: "inception_3a/relu_5x5"
  type: "ReLU"
  bottom: "inception_3a/5x5"
  top: "inception_3a/5x5"
}
layer {
  name: "inception_3a/pool"
  type: "Pooling"
  bottom: "pool2/3x3_s2"
  top: "inception_3a/pool"
  pooling_param {
    pool: MAX
    kernel_size: 3
    stride: 1
    pad: 1
  }
}
layer {
  name: "inception_3a/pool_proj"
  type: "Convolution"
  bottom: "inception_3a/pool"
  top: "inception_3a/pool_proj"
  param {
    lr_mult: 1
    decay_mult: 1
  }
  param {
    lr_mult: 2
    decay_mult: 0
  }
  convolution_param {
    num_output: 32
    kernel_size: 1
    weight_filler {
      type: "xavier"
      std: 0.1
    }
    bias_filler {
      type: "constant"
      value: 0.2
    }
  }
}
layer {
  name: "inception_3a/relu_pool_proj"
  type: "ReLU"
  bottom: "inception_3a/pool_proj"
  top: "inception_3a/pool_proj"
}
layer {
  name: "inception_3a/output"
  type: "Concat"
  bottom: "inception_3a/1x1"
  bottom: "inception_3a/3x3"
  bottom: "inception_3a/5x5"
  bottom: "inception_3a/pool_proj"
  top: "inception_3a/output"
}
layer {
  name: "inception_3b/1x1"
  type: "Convolution"
  bottom: "inception_3a/output"
  top: "inception_3b/1x1"
  param {
    lr_mult: 1
    decay_mult: 1
  }
  param {
    lr_mult: 2
    decay_mult: 0
  }
  convolution_param {
    num_output: 128
    kernel_size: 1
    weight_filler {
      type: "xavier"
      std: 0.03
    }
    bias_filler {
      type: "constant"
      value: 0.2
    }
  }
}
layer {
  name: "inception_3b/relu_1x1"
  type: "ReLU"
  bottom: "inception_3b/1x1"
  top: "inception_3b/1x1"
}
layer {
  name: "inception_3b/3x3_reduce"
  type: "Convolution"
  bottom: "inception_3a/output"
  top: "inception_3b/3x3_reduce"
  param {
    lr_mult: 1
    decay_mult: 1
  }
  param {
    lr_mult: 2
    decay_mult: 0
  }
  convolution_param {
    num_output: 128
    kernel_size: 1
    weight_filler {
      type: "xavier"
      std: 0.09
    }
    bias_filler {
      type: "constant"
      value: 0.2
    }
  }
}
layer {
  name: "inception_3b/relu_3x3_reduce"
  type: "ReLU"
  bottom: "inception_3b/3x3_reduce"
  top: "inception_3b/3x3_reduce"
}
layer {
  name: "inception_3b/3x3"
  type: "Convolution"
  bottom: "inception_3b/3x3_reduce"
  top: "inception_3b/3x3"
  param {
    lr_mult: 1
    decay_mult: 1
  }
  param {
    lr_mult: 2
    decay_mult: 0
  }
  convolution_param {
    num_output: 192
    pad: 1
    kernel_size: 3
    weight_filler {
      type: "xavier"
      std: 0.03
    }
    bias_filler {
      type: "constant"
      value: 0.2
    }
  }
}
layer {
  name: "inception_3b/relu_3x3"
  type: "ReLU"
  bottom: "inception_3b/3x3"
  top: "inception_3b/3x3"
}
layer {
  name: "inception_3b/5x5_reduce"
  type: "Convolution"
  bottom: "inception_3a/output"
  top: "inception_3b/5x5_reduce"
  param {
    lr_mult: 1
    decay_mult: 1
  }
  param {
    lr_mult: 2
    decay_mult: 0
  }
  convolution_param {
    num_output: 32
    kernel_size: 1
    weight_filler {
      type: "xavier"
      std: 0.2
    }
    bias_filler {
      type: "constant"
      value: 0.2
    }
  }
}
layer {
  name: "inception_3b/relu_5x5_reduce"
  type: "ReLU"
  bottom: "inception_3b/5x5_reduce"
  top: "inception_3b/5x5_reduce"
}
layer {
  name: "inception_3b/5x5"
  type: "Convolution"
  bottom: "inception_3b/5x5_reduce"
  top: "inception_3b/5x5"
  param {
    lr_mult: 1
    decay_mult: 1
  }
  param {
    lr_mult: 2
    decay_mult: 0
  }
  convolution_param {
    num_output: 96
    pad: 2
    kernel_size: 5
    weight_filler {
      type: "xavier"
      std: 0.03
    }
    bias_filler {
      type: "constant"
      value: 0.2
    }
  }
}
layer {
  name: "inception_3b/relu_5x5"
  type: "ReLU"
  bottom: "inception_3b/5x5"
  top: "inception_3b/5x5"
}
layer {
  name: "inception_3b/pool"
  type: "Pooling"
  bottom: "inception_3a/output"
  top: "inception_3b/pool"
  pooling_param {
    pool: MAX
    kernel_size: 3
    stride: 1
    pad: 1
  }
}
layer {
  name: "inception_3b/pool_proj"
  type: "Convolution"
  bottom: "inception_3b/pool"
  top: "inception_3b/pool_proj"
  param {
    lr_mult: 1
    decay_mult: 1
  }
  param {
    lr_mult: 2
    decay_mult: 0
  }
  convolution_param {
    num_output: 64
    kernel_size: 1
    weight_filler {
      type: "xavier"
      std: 0.1
    }
    bias_filler {
      type: "constant"
      value: 0.2
    }
  }
}
layer {
  name: "inception_3b/relu_pool_proj"
  type: "ReLU"
  bottom: "inception_3b/pool_proj"
  top: "inception_3b/pool_proj"
}
layer {
  name: "inception_3b/output"
  type: "Concat"
  bottom: "inception_3b/1x1"
  bottom: "inception_3b/3x3"
  bottom: "inception_3b/5x5"
  bottom: "inception_3b/pool_proj"
  top: "inception_3b/output"
}
layer {
  name: "pool3/3x3_s2"
  type: "Pooling"
  bottom: "inception_3b/output"
  top: "pool3/3x3_s2"
  pooling_param {
    pool: MAX
    kernel_size: 3
    stride: 2
  }
}
layer {
  name: "inception_4a/1x1"
  type: "Convolution"
  bottom: "pool3/3x3_s2"
  top: "inception_4a/1x1"
  param {
    lr_mult: 1
    decay_mult: 1
  }
  param {
    lr_mult: 2
    decay_mult: 0
  }
  convolution_param {
    num_output: 192
    kernel_size: 1
    weight_filler {
      type: "xavier"
      std: 0.03
    }
    bias_filler {
      type: "constant"
      value: 0.2
    }
  }
}
layer {
  name: "inception_4a/relu_1x1"
  type: "ReLU"
  bottom: "inception_4a/1x1"
  top: "inception_4a/1x1"
}
layer {
  name: "inception_4a/3x3_reduce"
  type: "Convolution"
  bottom: "pool3/3x3_s2"
  top: "inception_4a/3x3_reduce"
  param {
    lr_mult: 1
    decay_mult: 1
  }
  param {
    lr_mult: 2
    decay_mult: 0
  }
  convolution_param {
    num_output: 96
    kernel_size: 1
    weight_filler {
      type: "xavier"
      std: 0.09
    }
    bias_filler {
      type: "constant"
      value: 0.2
    }
  }
}
layer {
  name: "inception_4a/relu_3x3_reduce"
  type: "ReLU"
  bottom: "inception_4a/3x3_reduce"
  top: "inception_4a/3x3_reduce"
}
layer {
  name: "inception_4a/3x3"
  type: "Convolution"
  bottom: "inception_4a/3x3_reduce"
  top: "inception_4a/3x3"
  param {
    lr_mult: 1
    decay_mult: 1
  }
  param {
    lr_mult: 2
    decay_mult: 0
  }
  convolution_param {
    num_output: 208
    pad: 1
    kernel_size: 3
    weight_filler {
      type: "xavier"
      std: 0.03
    }
    bias_filler {
      type: "constant"
      value: 0.2
    }
  }
}
layer {
  name: "inception_4a/relu_3x3"
  type: "ReLU"
  bottom: "inception_4a/3x3"
  top: "inception_4a/3x3"
}
layer {
  name: "inception_4a/5x5_reduce"
  type: "Convolution"
  bottom: "pool3/3x3_s2"
  top: "inception_4a/5x5_reduce"
  param {
    lr_mult: 1
    decay_mult: 1
  }
  param {
    lr_mult: 2
    decay_mult: 0
  }
  convolution_param {
    num_output: 16
    kernel_size: 1
    weight_filler {
      type: "xavier"
      std: 0.2
    }
    bias_filler {
      type: "constant"
      value: 0.2
    }
  }
}
layer {
  name: "inception_4a/relu_5x5_reduce"
  type: "ReLU"
  bottom: "inception_4a/5x5_reduce"
  top: "inception_4a/5x5_reduce"
}
layer {
  name: "inception_4a/5x5"
  type: "Convolution"
  bottom: "inception_4a/5x5_reduce"
  top: "inception_4a/5x5"
  param {
    lr_mult: 1
    decay_mult: 1
  }
  param {
    lr_mult: 2
    decay_mult: 0
  }
  convolution_param {
    num_output: 48
    pad: 2
    kernel_size: 5
    weight_filler {
      type: "xavier"
      std: 0.03
    }
    bias_filler {
      type: "constant"
      value: 0.2
    }
  }
}
layer {
  name: "inception_4a/relu_5x5"
  type: "ReLU"
  bottom: "inception_4a/5x5"
  top: "inception_4a/5x5"
}
layer {
  name: "inception_4a/pool"
  type: "Pooling"
  bottom: "pool3/3x3_s2"
  top: "inception_4a/pool"
  pooling_param {
    pool: MAX
    kernel_size: 3
    stride: 1
    pad: 1
  }
}
layer {
  name: "inception_4a/pool_proj"
  type: "Convolution"
  bottom: "inception_4a/pool"
  top: "inception_4a/pool_proj"
  param {
    lr_mult: 1
    decay_mult: 1
  }
  param {
    lr_mult: 2
    decay_mult: 0
  }
  convolution_param {
    num_output: 64
    kernel_size: 1
    weight_filler {
      type: "xavier"
      std: 0.1
    }
    bias_filler {
      type: "constant"
      value: 0.2
    }
  }
}
layer {
  name: "inception_4a/relu_pool_proj"
  type: "ReLU"
  bottom: "inception_4a/pool_proj"
  top: "inception_4a/pool_proj"
}
layer {
  name: "inception_4a/output"
  type: "Concat"
  bottom: "inception_4a/1x1"
  bottom: "inception_4a/3x3"
  bottom: "inception_4a/5x5"
  bottom: "inception_4a/pool_proj"
  top: "inception_4a/output"
}
layer {
  name: "loss1/ave_pool"
  type: "Pooling"
  bottom: "inception_4a/output"
  top: "loss1/ave_pool"
  pooling_param {
    pool: AVE
    kernel_size: 5
    stride: 3
  }
}
layer {
  name: "loss1/conv"
  type: "Convolution"
  bottom: "loss1/ave_pool"
  top: "loss1/conv"
  param {
    lr_mult: 1
    decay_mult: 1
  }
  param {
    lr_mult: 2
    decay_mult: 0
  }
  convolution_param {
    num_output: 128
    kernel_size: 1
    weight_filler {
      type: "xavier"
      std: 0.08
    }
    bias_filler {
      type: "constant"
      value: 0.2
    }
  }
}
layer {
  name: "loss1/relu_conv"
  type: "ReLU"
  bottom: "loss1/conv"
  top: "loss1/conv"
}
layer {
  name: "loss1/fc"
  type: "InnerProduct"
  bottom: "loss1/conv"
  top: "loss1/fc"
  param {
    lr_mult: 1
    decay_mult: 1
  }
  param {
    lr_mult: 2
    decay_mult: 0
  }
  inner_product_param {
    num_output: 1024
    weight_filler {
      type: "xavier"
      std: 0.02
    }
    bias_filler {
      type: "constant"
      value: 0.2
    }
  }
}
layer {
  name: "loss1/relu_fc"
  type: "ReLU"
  bottom: "loss1/fc"
  top: "loss1/fc"
}
layer {
  name: "loss1/drop_fc"
  type: "Dropout"
  bottom: "loss1/fc"
  top: "loss1/fc"
  dropout_param {
    dropout_ratio: 0.7
  }
}
layer {
  name: "loss1/classifier_plantvillage"
  type: "InnerProduct"
  bottom: "loss1/fc"
  top: "loss1/classifier_plantvillage"
  param {
    lr_mult: 1
    decay_mult: 1
  }
  param {
    lr_mult: 2
    decay_mult: 0
  }
  inner_product_param {
    num_output: 38
    weight_filler {
      type: "xavier"
      std: 0.0009765625
    }
    bias_filler {
      type: "constant"
      value: 0
    }
  }
}
layer {
  name: "inception_4b/1x1"
  type: "Convolution"
  bottom: "inception_4a/output"
  top: "inception_4b/1x1"
  param {
    lr_mult: 1
    decay_mult: 1
  }
  param {
    lr_mult: 2
    decay_mult: 0
  }
  convolution_param {
    num_output: 160
    kernel_size: 1
    weight_filler {
      type: "xavier"
      std: 0.03
    }
    bias_filler {
      type: "constant"
      value: 0.2
    }
  }
}
layer {
  name: "inception_4b/relu_1x1"
  type: "ReLU"
  bottom: "inception_4b/1x1"
  top: "inception_4b/1x1"
}
layer {
  name: "inception_4b/3x3_reduce"
  type: "Convolution"
  bottom: "inception_4a/output"
  top: "inception_4b/3x3_reduce"
  param {
    lr_mult: 1
    decay_mult: 1
  }
  param {
    lr_mult: 2
    decay_mult: 0
  }
  convolution_param {
    num_output: 112
    kernel_size: 1
    weight_filler {
      type: "xavier"
      std: 0.09
    }
    bias_filler {
      type: "constant"
      value: 0.2
    }
  }
}
layer {
  name: "inception_4b/relu_3x3_reduce"
  type: "ReLU"
  bottom: "inception_4b/3x3_reduce"
  top: "inception_4b/3x3_reduce"
}
layer {
  name: "inception_4b/3x3"
  type: "Convolution"
  bottom: "inception_4b/3x3_reduce"
  top: "inception_4b/3x3"
  param {
    lr_mult: 1
    decay_mult: 1
  }
  param {
    lr_mult: 2
    decay_mult: 0
  }
  convolution_param {
    num_output: 224
    pad: 1
    kernel_size: 3
    weight_filler {
      type: "xavier"
      std: 0.03
    }
    bias_filler {
      type: "constant"
      value: 0.2
    }
  }
}
layer {
  name: "inception_4b/relu_3x3"
  type: "ReLU"
  bottom: "inception_4b/3x3"
  top: "inception_4b/3x3"
}
layer {
  name: "inception_4b/5x5_reduce"
  type: "Convolution"
  bottom: "inception_4a/output"
  top: "inception_4b/5x5_reduce"
  param {
    lr_mult: 1
    decay_mult: 1
  }
  param {
    lr_mult: 2
    decay_mult: 0
  }
  convolution_param {
    num_output: 24
    kernel_size: 1
    weight_filler {
      type: "xavier"
      std: 0.2
    }
    bias_filler {
      type: "constant"
      value: 0.2
    }
  }
}
layer {
  name: "inception_4b/relu_5x5_reduce"
  type: "ReLU"
  bottom: "inception_4b/5x5_reduce"
  top: "inception_4b/5x5_reduce"
}
layer {
  name: "inception_4b/5x5"
  type: "Convolution"
  bottom: "inception_4b/5x5_reduce"
  top: "inception_4b/5x5"
  param {
    lr_mult: 1
    decay_mult: 1
  }
  param {
    lr_mult: 2
    decay_mult: 0
  }
  convolution_param {
    num_output: 64
    pad: 2
    kernel_size: 5
    weight_filler {
      type: "xavier"
      std: 0.03
    }
    bias_filler {
      type: "constant"
      value: 0.2
    }
  }
}
layer {
  name: "inception_4b/relu_5x5"
  type: "ReLU"
  bottom: "inception_4b/5x5"
  top: "inception_4b/5x5"
}
layer {
  name: "inception_4b/pool"
  type: "Pooling"
  bottom: "inception_4a/output"
  top: "inception_4b/pool"
  pooling_param {
    pool: MAX
    kernel_size: 3
    stride: 1
    pad: 1
  }
}
layer {
  name: "inception_4b/pool_proj"
  type: "Convolution"
  bottom: "inception_4b/pool"
  top: "inception_4b/pool_proj"
  param {
    lr_mult: 1
    decay_mult: 1
  }
  param {
    lr_mult: 2
    decay_mult: 0
  }
  convolution_param {
    num_output: 64
    kernel_size: 1
    weight_filler {
      type: "xavier"
      std: 0.1
    }
    bias_filler {
      type: "constant"
      value: 0.2
    }
  }
}
layer {
  name: "inception_4b/relu_pool_proj"
  type: "ReLU"
  bottom: "inception_4b/pool_proj"
  top: "inception_4b/pool_proj"
}
layer {
  name: "inception_4b/output"
  type: "Concat"
  bottom: "inception_4b/1x1"
  bottom: "inception_4b/3x3"
  bottom: "inception_4b/5x5"
  bottom: "inception_4b/pool_proj"
  top: "inception_4b/output"
}
layer {
  name: "inception_4c/1x1"
  type: "Convolution"
  bottom: "inception_4b/output"
  top: "inception_4c/1x1"
  param {
    lr_mult: 1
    decay_mult: 1
  }
  param {
    lr_mult: 2
    decay_mult: 0
  }
  convolution_param {
    num_output: 128
    kernel_size: 1
    weight_filler {
      type: "xavier"
      std: 0.03
    }
    bias_filler {
      type: "constant"
      value: 0.2
    }
  }
}
layer {
  name: "inception_4c/relu_1x1"
  type: "ReLU"
  bottom: "inception_4c/1x1"
  top: "inception_4c/1x1"
}
layer {
  name: "inception_4c/3x3_reduce"
  type: "Convolution"
  bottom: "inception_4b/output"
  top: "inception_4c/3x3_reduce"
  param {
    lr_mult: 1
    decay_mult: 1
  }
  param {
    lr_mult: 2
    decay_mult: 0
  }
  convolution_param {
    num_output: 128
    kernel_size: 1
    weight_filler {
      type: "xavier"
      std: 0.09
    }
    bias_filler {
      type: "constant"
      value: 0.2
    }
  }
}
layer {
  name: "inception_4c/relu_3x3_reduce"
  type: "ReLU"
  bottom: "inception_4c/3x3_reduce"
  top: "inception_4c/3x3_reduce"
}
layer {
  name: "inception_4c/3x3"
  type: "Convolution"
  bottom: "inception_4c/3x3_reduce"
  top: "inception_4c/3x3"
  param {
    lr_mult: 1
    decay_mult: 1
  }
  param {
    lr_mult: 2
    decay_mult: 0
  }
  convolution_param {
    num_output: 256
    pad: 1
    kernel_size: 3
    weight_filler {
      type: "xavier"
      std: 0.03
    }
    bias_filler {
      type: "constant"
      value: 0.2
    }
  }
}
layer {
  name: "inception_4c/relu_3x3"
  type: "ReLU"
  bottom: "inception_4c/3x3"
  top: "inception_4c/3x3"
}
layer {
  name: "inception_4c/5x5_reduce"
  type: "Convolution"
  bottom: "inception_4b/output"
  top: "inception_4c/5x5_reduce"
  param {
    lr_mult: 1
    decay_mult: 1
  }
  param {
    lr_mult: 2
    decay_mult: 0
  }
  convolution_param {
    num_output: 24
    kernel_size: 1
    weight_filler {
      type: "xavier"
      std: 0.2
    }
    bias_filler {
      type: "constant"
      value: 0.2
    }
  }
}
layer {
  name: "inception_4c/relu_5x5_reduce"
  type: "ReLU"
  bottom: "inception_4c/5x5_reduce"
  top: "inception_4c/5x5_reduce"
}
layer {
  name: "inception_4c/5x5"
  type: "Convolution"
  bottom: "inception_4c/5x5_reduce"
  top: "inception_4c/5x5"
  param {
    lr_mult: 1
    decay_mult: 1
  }
  param {
    lr_mult: 2
    decay_mult: 0
  }
  convolution_param {
    num_output: 64
    pad: 2
    kernel_size: 5
    weight_filler {
      type: "xavier"
      std: 0.03
    }
    bias_filler {
      type: "constant"
      value: 0.2
    }
  }
}
layer {
  name: "inception_4c/relu_5x5"
  type: "ReLU"
  bottom: "inception_4c/5x5"
  top: "inception_4c/5x5"
}
layer {
  name: "inception_4c/pool"
  type: "Pooling"
  bottom: "inception_4b/output"
  top: "inception_4c/pool"
  pooling_param {
    pool: MAX
    kernel_size: 3
    stride: 1
    pad: 1
  }
}
layer {
  name: "inception_4c/pool_proj"
  type: "Convolution"
  bottom: "inception_4c/pool"
  top: "inception_4c/pool_proj"
  param {
    lr_mult: 1
    decay_mult: 1
  }
  param {
    lr_mult: 2
    decay_mult: 0
  }
  convolution_param {
    num_output: 64
    kernel_size: 1
    weight_filler {
      type: "xavier"
      std: 0.1
    }
    bias_filler {
      type: "constant"
      value: 0.2
    }
  }
}
layer {
  name: "inception_4c/relu_pool_proj"
  type: "ReLU"
  bottom: "inception_4c/pool_proj"
  top: "inception_4c/pool_proj"
}
layer {
  name: "inception_4c/output"
  type: "Concat"
  bottom: "inception_4c/1x1"
  bottom: "inception_4c/3x3"
  bottom: "inception_4c/5x5"
  bottom: "inception_4c/pool_proj"
  top: "inception_4c/output"
}
layer {
  name: "inception_4d/1x1"
  type: "Convolution"
  bottom: "inception_4c/output"
  top: "inception_4d/1x1"
  param {
    lr_mult: 1
    decay_mult: 1
  }
  param {
    lr_mult: 2
    decay_mult: 0
  }
  convolution_param {
    num_output: 112
    kernel_size: 1
    weight_filler {
      type: "xavier"
      std: 0.03
    }
    bias_filler {
      type: "constant"
      value: 0.2
    }
  }
}
layer {
  name: "inception_4d/relu_1x1"
  type: "ReLU"
  bottom: "inception_4d/1x1"
  top: "inception_4d/1x1"
}
layer {
  name: "inception_4d/3x3_reduce"
  type: "Convolution"
  bottom: "inception_4c/output"
  top: "inception_4d/3x3_reduce"
  param {
    lr_mult: 1
    decay_mult: 1
  }
  param {
    lr_mult: 2
    decay_mult: 0
  }
  convolution_param {
    num_output: 144
    kernel_size: 1
    weight_filler {
      type: "xavier"
      std: 0.09
    }
    bias_filler {
      type: "constant"
      value: 0.2
    }
  }
}
layer {
  name: "inception_4d/relu_3x3_reduce"
  type: "ReLU"
  bottom: "inception_4d/3x3_reduce"
  top: "inception_4d/3x3_reduce"
}
layer {
  name: "inception_4d/3x3"
  type: "Convolution"
  bottom: "inception_4d/3x3_reduce"
  top: "inception_4d/3x3"
  param {
    lr_mult: 1
    decay_mult: 1
  }
  param {
    lr_mult: 2
    decay_mult: 0
  }
  convolution_param {
    num_output: 288
    pad: 1
    kernel_size: 3
    weight_filler {
      type: "xavier"
      std: 0.03
    }
    bias_filler {
      type: "constant"
      value: 0.2
    }
  }
}
layer {
  name: "inception_4d/relu_3x3"
  type: "ReLU"
  bottom: "inception_4d/3x3"
  top: "inception_4d/3x3"
}
layer {
  name: "inception_4d/5x5_reduce"
  type: "Convolution"
  bottom: "inception_4c/output"
  top: "inception_4d/5x5_reduce"
  param {
    lr_mult: 1
    decay_mult: 1
  }
  param {
    lr_mult: 2
    decay_mult: 0
  }
  convolution_param {
    num_output: 32
    kernel_size: 1
    weight_filler {
      type: "xavier"
      std: 0.2
    }
    bias_filler {
      type: "constant"
      value: 0.2
    }
  }
}
layer {
  name: "inception_4d/relu_5x5_reduce"
  type: "ReLU"
  bottom: "inception_4d/5x5_reduce"
  top: "inception_4d/5x5_reduce"
}
layer {
  name: "inception_4d/5x5"
  type: "Convolution"
  bottom: "inception_4d/5x5_reduce"
  top: "inception_4d/5x5"
  param {
    lr_mult: 1
    decay_mult: 1
  }
  param {
    lr_mult: 2
    decay_mult: 0
  }
  convolution_param {
    num_output: 64
    pad: 2
    kernel_size: 5
    weight_filler {
      type: "xavier"
      std: 0.03
    }
    bias_filler {
      type: "constant"
      value: 0.2
    }
  }
}
layer {
  name: "inception_4d/relu_5x5"
  type: "ReLU"
  bottom: "inception_4d/5x5"
  top: "inception_4d/5x5"
}
layer {
  name: "inception_4d/pool"
  type: "Pooling"
  bottom: "inception_4c/output"
  top: "inception_4d/pool"
  pooling_param {
    pool: MAX
    kernel_size: 3
    stride: 1
    pad: 1
  }
}
layer {
  name: "inception_4d/pool_proj"
  type: "Convolution"
  bottom: "inception_4d/pool"
  top: "inception_4d/pool_proj"
  param {
    lr_mult: 1
    decay_mult: 1
  }
  param {
    lr_mult: 2
    decay_mult: 0
  }
  convolution_param {
    num_output: 64
    kernel_size: 1
    weight_filler {
      type: "xavier"
      std: 0.1
    }
    bias_filler {
      type: "constant"
      value: 0.2
    }
  }
}
layer {
  name: "inception_4d/relu_pool_proj"
  type: "ReLU"
  bottom: "inception_4d/pool_proj"
  top: "inception_4d/pool_proj"
}
layer {
  name: "inception_4d/output"
  type: "Concat"
  bottom: "inception_4d/1x1"
  bottom: "inception_4d/3x3"
  bottom: "inception_4d/5x5"
  bottom: "inception_4d/pool_proj"
  top: "inception_4d/output"
}
layer {
  name: "loss2/ave_pool"
  type: "Pooling"
  bottom: "inception_4d/output"
  top: "loss2/ave_pool"
  pooling_param {
    pool: AVE
    kernel_size: 5
    stride: 3
  }
}
layer {
  name: "loss2/conv"
  type: "Convolution"
  bottom: "loss2/ave_pool"
  top: "loss2/conv"
  param {
    lr_mult: 1
    decay_mult: 1
  }
  param {
    lr_mult: 2
    decay_mult: 0
  }
  convolution_param {
    num_output: 128
    kernel_size: 1
    weight_filler {
      type: "xavier"
      std: 0.08
    }
    bias_filler {
      type: "constant"
      value: 0.2
    }
  }
}
layer {
  name: "loss2/relu_conv"
  type: "ReLU"
  bottom: "loss2/conv"
  top: "loss2/conv"
}
layer {
  name: "loss2/fc"
  type: "InnerProduct"
  bottom: "loss2/conv"
  top: "loss2/fc"
  param {
    lr_mult: 1
    decay_mult: 1
  }
  param {
    lr_mult: 2
    decay_mult: 0
  }
  inner_product_param {
    num_output: 1024
    weight_filler {
      type: "xavier"
      std: 0.02
    }
    bias_filler {
      type: "constant"
      value: 0.2
    }
  }
}
layer {
  name: "loss2/relu_fc"
  type: "ReLU"
  bottom: "loss2/fc"
  top: "loss2/fc"
}
layer {
  name: "loss2/drop_fc"
  type: "Dropout"
  bottom: "loss2/fc"
  top: "loss2/fc"
  dropout_param {
    dropout_ratio: 0.7
  }
}
layer {
  name: "loss2/classifier_plantvillage"
  type: "InnerProduct"
  bottom: "loss2/fc"
  top: "loss2/classifier_plantvillage"
  param {
    lr_mult: 1
    decay_mult: 1
  }
  param {
    lr_mult: 2
    decay_mult: 0
  }
  inner_product_param {
    num_output: 38
    weight_filler {
      type: "xavier"
      std: 0.0009765625
    }
    bias_filler {
      type: "constant"
      value: 0
    }
  }
}
layer {
  name: "inception_4e/1x1"
  type: "Convolution"
  bottom: "inception_4d/output"
  top: "inception_4e/1x1"
  param {
    lr_mult: 1
    decay_mult: 1
  }
  param {
    lr_mult: 2
    decay_mult: 0
  }
  convolution_param {
    num_output: 256
    kernel_size: 1
    weight_filler {
      type: "xavier"
      std: 0.03
    }
    bias_filler {
      type: "constant"
      value: 0.2
    }
  }
}
layer {
  name: "inception_4e/relu_1x1"
  type: "ReLU"
  bottom: "inception_4e/1x1"
  top: "inception_4e/1x1"
}
layer {
  name: "inception_4e/3x3_reduce"
  type: "Convolution"
  bottom: "inception_4d/output"
  top: "inception_4e/3x3_reduce"
  param {
    lr_mult: 1
    decay_mult: 1
  }
  param {
    lr_mult: 2
    decay_mult: 0
  }
  convolution_param {
    num_output: 160
    kernel_size: 1
    weight_filler {
      type: "xavier"
      std: 0.09
    }
    bias_filler {
      type: "constant"
      value: 0.2
    }
  }
}
layer {
  name: "inception_4e/relu_3x3_reduce"
  type: "ReLU"
  bottom: "inception_4e/3x3_reduce"
  top: "inception_4e/3x3_reduce"
}
layer {
  name: "inception_4e/3x3"
  type: "Convolution"
  bottom: "inception_4e/3x3_reduce"
  top: "inception_4e/3x3"
  param {
    lr_mult: 1
    decay_mult: 1
  }
  param {
    lr_mult: 2
    decay_mult: 0
  }
  convolution_param {
    num_output: 320
    pad: 1
    kernel_size: 3
    weight_filler {
      type: "xavier"
      std: 0.03
    }
    bias_filler {
      type: "constant"
      value: 0.2
    }
  }
}
layer {
  name: "inception_4e/relu_3x3"
  type: "ReLU"
  bottom: "inception_4e/3x3"
  top: "inception_4e/3x3"
}
layer {
  name: "inception_4e/5x5_reduce"
  type: "Convolution"
  bottom: "inception_4d/output"
  top: "inception_4e/5x5_reduce"
  param {
    lr_mult: 1
    decay_mult: 1
  }
  param {
    lr_mult: 2
    decay_mult: 0
  }
  convolution_param {
    num_output: 32
    kernel_size: 1
    weight_filler {
      type: "xavier"
      std: 0.2
    }
    bias_filler {
      type: "constant"
      value: 0.2
    }
  }
}
layer {
  name: "inception_4e/relu_5x5_reduce"
  type: "ReLU"
  bottom: "inception_4e/5x5_reduce"
  top: "inception_4e/5x5_reduce"
}
layer {
  name: "inception_4e/5x5"
  type: "Convolution"
  bottom: "inception_4e/5x5_reduce"
  top: "inception_4e/
I0403 16:49:13.853585 21474 layer_factory.hpp:77] Creating layer data
I0403 16:49:13.854166 21474 net.cpp:91] Creating Layer data
I0403 16:49:13.854198 21474 net.cpp:399] data -> data
I0403 16:49:13.854249 21474 net.cpp:399] data -> label
I0403 16:49:13.854282 21474 data_transformer.cpp:25] Loading mean file from: /home/mohanty/data/final_dataset/lmdb/grayscale-20-80/mean.binaryproto
I0403 16:49:13.855460 21477 db_lmdb.cpp:38] Opened lmdb /home/mohanty/data/final_dataset/lmdb/grayscale-20-80/test_db
I0403 16:49:13.869640 21474 data_layer.cpp:41] output data size: 24,3,224,224
I0403 16:49:13.897375 21474 net.cpp:141] Setting up data
I0403 16:49:13.897460 21474 net.cpp:148] Top shape: 24 3 224 224 (3612672)
I0403 16:49:13.897483 21474 net.cpp:148] Top shape: 24 (24)
I0403 16:49:13.897498 21474 net.cpp:156] Memory required for data: 14450784
I0403 16:49:13.897526 21474 layer_factory.hpp:77] Creating layer label_data_1_split
I0403 16:49:13.897552 21474 net.cpp:91] Creating Layer label_data_1_split
I0403 16:49:13.897569 21474 net.cpp:425] label_data_1_split <- label
I0403 16:49:13.897603 21474 net.cpp:399] label_data_1_split -> label_data_1_split_0
I0403 16:49:13.897630 21474 net.cpp:399] label_data_1_split -> label_data_1_split_1
I0403 16:49:13.897651 21474 net.cpp:399] label_data_1_split -> label_data_1_split_2
I0403 16:49:13.897672 21474 net.cpp:399] label_data_1_split -> label_data_1_split_3
I0403 16:49:13.897692 21474 net.cpp:399] label_data_1_split -> label_data_1_split_4
I0403 16:49:13.897711 21474 net.cpp:399] label_data_1_split -> label_data_1_split_5
I0403 16:49:13.897730 21474 net.cpp:399] label_data_1_split -> label_data_1_split_6
I0403 16:49:13.897750 21474 net.cpp:399] label_data_1_split -> label_data_1_split_7
I0403 16:49:13.897769 21474 net.cpp:399] label_data_1_split -> label_data_1_split_8
I0403 16:49:13.897789 21474 net.cpp:399] label_data_1_split -> label_data_1_split_9
I0403 16:49:13.897904 21474 net.cpp:141] Setting up label_data_1_split
I0403 16:49:13.897927 21474 net.cpp:148] Top shape: 24 (24)
I0403 16:49:13.897945 21474 net.cpp:148] Top shape: 24 (24)
I0403 16:49:13.897961 21474 net.cpp:148] Top shape: 24 (24)
I0403 16:49:13.897976 21474 net.cpp:148] Top shape: 24 (24)
I0403 16:49:13.897991 21474 net.cpp:148] Top shape: 24 (24)
I0403 16:49:13.898006 21474 net.cpp:148] Top shape: 24 (24)
I0403 16:49:13.898033 21474 net.cpp:148] Top shape: 24 (24)
I0403 16:49:13.898051 21474 net.cpp:148] Top shape: 24 (24)
I0403 16:49:13.898067 21474 net.cpp:148] Top shape: 24 (24)
I0403 16:49:13.898082 21474 net.cpp:148] Top shape: 24 (24)
I0403 16:49:13.898128 21474 net.cpp:156] Memory required for data: 14451744
I0403 16:49:13.898144 21474 layer_factory.hpp:77] Creating layer conv1/7x7_s2
I0403 16:49:13.898175 21474 net.cpp:91] Creating Layer conv1/7x7_s2
I0403 16:49:13.898193 21474 net.cpp:425] conv1/7x7_s2 <- data
I0403 16:49:13.898213 21474 net.cpp:399] conv1/7x7_s2 -> conv1/7x7_s2
I0403 16:49:14.032150 21474 net.cpp:141] Setting up conv1/7x7_s2
I0403 16:49:14.032240 21474 net.cpp:148] Top shape: 24 64 112 112 (19267584)
I0403 16:49:14.032258 21474 net.cpp:156] Memory required for data: 91522080
I0403 16:49:14.032286 21474 layer_factory.hpp:77] Creating layer conv1/relu_7x7
I0403 16:49:14.032312 21474 net.cpp:91] Creating Layer conv1/relu_7x7
I0403 16:49:14.032330 21474 net.cpp:425] conv1/relu_7x7 <- conv1/7x7_s2
I0403 16:49:14.032348 21474 net.cpp:386] conv1/relu_7x7 -> conv1/7x7_s2 (in-place)
I0403 16:49:14.032616 21474 net.cpp:141] Setting up conv1/relu_7x7
I0403 16:49:14.032645 21474 net.cpp:148] Top shape: 24 64 112 112 (19267584)
I0403 16:49:14.032661 21474 net.cpp:156] Memory required for data: 168592416
I0403 16:49:14.032676 21474 layer_factory.hpp:77] Creating layer pool1/3x3_s2
I0403 16:49:14.032701 21474 net.cpp:91] Creating Layer pool1/3x3_s2
I0403 16:49:14.032717 21474 net.cpp:425] pool1/3x3_s2 <- conv1/7x7_s2
I0403 16:49:14.032735 21474 net.cpp:399] pool1/3x3_s2 -> pool1/3x3_s2
I0403 16:49:14.032814 21474 net.cpp:141] Setting up pool1/3x3_s2
I0403 16:49:14.032837 21474 net.cpp:148] Top shape: 24 64 56 56 (4816896)
I0403 16:49:14.032851 21474 net.cpp:156] Memory required for data: 187860000
I0403 16:49:14.032866 21474 layer_factory.hpp:77] Creating layer pool1/norm1
I0403 16:49:14.032891 21474 net.cpp:91] Creating Layer pool1/norm1
I0403 16:49:14.032908 21474 net.cpp:425] pool1/norm1 <- pool1/3x3_s2
I0403 16:49:14.032930 21474 net.cpp:399] pool1/norm1 -> pool1/norm1
I0403 16:49:14.033234 21474 net.cpp:141] Setting up pool1/norm1
I0403 16:49:14.033262 21474 net.cpp:148] Top shape: 24 64 56 56 (4816896)
I0403 16:49:14.033279 21474 net.cpp:156] Memory required for data: 207127584
I0403 16:49:14.033293 21474 layer_factory.hpp:77] Creating layer conv2/3x3_reduce
I0403 16:49:14.033319 21474 net.cpp:91] Creating Layer conv2/3x3_reduce
I0403 16:49:14.033336 21474 net.cpp:425] conv2/3x3_reduce <- pool1/norm1
I0403 16:49:14.033355 21474 net.cpp:399] conv2/3x3_reduce -> conv2/3x3_reduce
I0403 16:49:14.034795 21474 net.cpp:141] Setting up conv2/3x3_reduce
I0403 16:49:14.034826 21474 net.cpp:148] Top shape: 24 64 56 56 (4816896)
I0403 16:49:14.034845 21474 net.cpp:156] Memory required for data: 226395168
I0403 16:49:14.034868 21474 layer_factory.hpp:77] Creating layer conv2/relu_3x3_reduce
I0403 16:49:14.034889 21474 net.cpp:91] Creating Layer conv2/relu_3x3_reduce
I0403 16:49:14.034906 21474 net.cpp:425] conv2/relu_3x3_reduce <- conv2/3x3_reduce
I0403 16:49:14.034924 21474 net.cpp:386] conv2/relu_3x3_reduce -> conv2/3x3_reduce (in-place)
I0403 16:49:14.035213 21474 net.cpp:141] Setting up conv2/relu_3x3_reduce
I0403 16:49:14.035239 21474 net.cpp:148] Top shape: 24 64 56 56 (4816896)
I0403 16:49:14.035254 21474 net.cpp:156] Memory required for data: 245662752
I0403 16:49:14.035269 21474 layer_factory.hpp:77] Creating layer conv2/3x3
I0403 16:49:14.035293 21474 net.cpp:91] Creating Layer conv2/3x3
I0403 16:49:14.035310 21474 net.cpp:425] conv2/3x3 <- conv2/3x3_reduce
I0403 16:49:14.035333 21474 net.cpp:399] conv2/3x3 -> conv2/3x3
I0403 16:49:14.037621 21474 net.cpp:141] Setting up conv2/3x3
I0403 16:49:14.037652 21474 net.cpp:148] Top shape: 24 192 56 56 (14450688)
I0403 16:49:14.037668 21474 net.cpp:156] Memory required for data: 303465504
I0403 16:49:14.037693 21474 layer_factory.hpp:77] Creating layer conv2/relu_3x3
I0403 16:49:14.037711 21474 net.cpp:91] Creating Layer conv2/relu_3x3
I0403 16:49:14.037727 21474 net.cpp:425] conv2/relu_3x3 <- conv2/3x3
I0403 16:49:14.037744 21474 net.cpp:386] conv2/relu_3x3 -> conv2/3x3 (in-place)
I0403 16:49:14.037916 21474 net.cpp:141] Setting up conv2/relu_3x3
I0403 16:49:14.037943 21474 net.cpp:148] Top shape: 24 192 56 56 (14450688)
I0403 16:49:14.037988 21474 net.cpp:156] Memory required for data: 361268256
I0403 16:49:14.038004 21474 layer_factory.hpp:77] Creating layer conv2/norm2
I0403 16:49:14.038033 21474 net.cpp:91] Creating Layer conv2/norm2
I0403 16:49:14.038051 21474 net.cpp:425] conv2/norm2 <- conv2/3x3
I0403 16:49:14.038072 21474 net.cpp:399] conv2/norm2 -> conv2/norm2
I0403 16:49:14.038373 21474 net.cpp:141] Setting up conv2/norm2
I0403 16:49:14.038400 21474 net.cpp:148] Top shape: 24 192 56 56 (14450688)
I0403 16:49:14.038415 21474 net.cpp:156] Memory required for data: 419071008
I0403 16:49:14.038430 21474 layer_factory.hpp:77] Creating layer pool2/3x3_s2
I0403 16:49:14.038449 21474 net.cpp:91] Creating Layer pool2/3x3_s2
I0403 16:49:14.038463 21474 net.cpp:425] pool2/3x3_s2 <- conv2/norm2
I0403 16:49:14.038482 21474 net.cpp:399] pool2/3x3_s2 -> pool2/3x3_s2
I0403 16:49:14.038537 21474 net.cpp:141] Setting up pool2/3x3_s2
I0403 16:49:14.038563 21474 net.cpp:148] Top shape: 24 192 28 28 (3612672)
I0403 16:49:14.038578 21474 net.cpp:156] Memory required for data: 433521696
I0403 16:49:14.038592 21474 layer_factory.hpp:77] Creating layer pool2/3x3_s2_pool2/3x3_s2_0_split
I0403 16:49:14.038609 21474 net.cpp:91] Creating Layer pool2/3x3_s2_pool2/3x3_s2_0_split
I0403 16:49:14.038625 21474 net.cpp:425] pool2/3x3_s2_pool2/3x3_s2_0_split <- pool2/3x3_s2
I0403 16:49:14.038640 21474 net.cpp:399] pool2/3x3_s2_pool2/3x3_s2_0_split -> pool2/3x3_s2_pool2/3x3_s2_0_split_0
I0403 16:49:14.038662 21474 net.cpp:399] pool2/3x3_s2_pool2/3x3_s2_0_split -> pool2/3x3_s2_pool2/3x3_s2_0_split_1
I0403 16:49:14.038684 21474 net.cpp:399] pool2/3x3_s2_pool2/3x3_s2_0_split -> pool2/3x3_s2_pool2/3x3_s2_0_split_2
I0403 16:49:14.038703 21474 net.cpp:399] pool2/3x3_s2_pool2/3x3_s2_0_split -> pool2/3x3_s2_pool2/3x3_s2_0_split_3
I0403 16:49:14.038774 21474 net.cpp:141] Setting up pool2/3x3_s2_pool2/3x3_s2_0_split
I0403 16:49:14.038797 21474 net.cpp:148] Top shape: 24 192 28 28 (3612672)
I0403 16:49:14.038815 21474 net.cpp:148] Top shape: 24 192 28 28 (3612672)
I0403 16:49:14.038830 21474 net.cpp:148] Top shape: 24 192 28 28 (3612672)
I0403 16:49:14.038846 21474 net.cpp:148] Top shape: 24 192 28 28 (3612672)
I0403 16:49:14.038858 21474 net.cpp:156] Memory required for data: 491324448
I0403 16:49:14.038872 21474 layer_factory.hpp:77] Creating layer inception_3a/1x1
I0403 16:49:14.038897 21474 net.cpp:91] Creating Layer inception_3a/1x1
I0403 16:49:14.038913 21474 net.cpp:425] inception_3a/1x1 <- pool2/3x3_s2_pool2/3x3_s2_0_split_0
I0403 16:49:14.038931 21474 net.cpp:399] inception_3a/1x1 -> inception_3a/1x1
I0403 16:49:14.040489 21474 net.cpp:141] Setting up inception_3a/1x1
I0403 16:49:14.040519 21474 net.cpp:148] Top shape: 24 64 28 28 (1204224)
I0403 16:49:14.040536 21474 net.cpp:156] Memory required for data: 496141344
I0403 16:49:14.040556 21474 layer_factory.hpp:77] Creating layer inception_3a/relu_1x1
I0403 16:49:14.040577 21474 net.cpp:91] Creating Layer inception_3a/relu_1x1
I0403 16:49:14.040594 21474 net.cpp:425] inception_3a/relu_1x1 <- inception_3a/1x1
I0403 16:49:14.040611 21474 net.cpp:386] inception_3a/relu_1x1 -> inception_3a/1x1 (in-place)
I0403 16:49:14.040787 21474 net.cpp:141] Setting up inception_3a/relu_1x1
I0403 16:49:14.040815 21474 net.cpp:148] Top shape: 24 64 28 28 (1204224)
I0403 16:49:14.040832 21474 net.cpp:156] Memory required for data: 500958240
I0403 16:49:14.040846 21474 layer_factory.hpp:77] Creating layer inception_3a/3x3_reduce
I0403 16:49:14.040866 21474 net.cpp:91] Creating Layer inception_3a/3x3_reduce
I0403 16:49:14.040884 21474 net.cpp:425] inception_3a/3x3_reduce <- pool2/3x3_s2_pool2/3x3_s2_0_split_1
I0403 16:49:14.040905 21474 net.cpp:399] inception_3a/3x3_reduce -> inception_3a/3x3_reduce
I0403 16:49:14.042618 21474 net.cpp:141] Setting up inception_3a/3x3_reduce
I0403 16:49:14.042647 21474 net.cpp:148] Top shape: 24 96 28 28 (1806336)
I0403 16:49:14.042664 21474 net.cpp:156] Memory required for data: 508183584
I0403 16:49:14.042687 21474 layer_factory.hpp:77] Creating layer inception_3a/relu_3x3_reduce
I0403 16:49:14.042722 21474 net.cpp:91] Creating Layer inception_3a/relu_3x3_reduce
I0403 16:49:14.042740 21474 net.cpp:425] inception_3a/relu_3x3_reduce <- inception_3a/3x3_reduce
I0403 16:49:14.042757 21474 net.cpp:386] inception_3a/relu_3x3_reduce -> inception_3a/3x3_reduce (in-place)
I0403 16:49:14.042940 21474 net.cpp:141] Setting up inception_3a/relu_3x3_reduce
I0403 16:49:14.042969 21474 net.cpp:148] Top shape: 24 96 28 28 (1806336)
I0403 16:49:14.042984 21474 net.cpp:156] Memory required for data: 515408928
I0403 16:49:14.042999 21474 layer_factory.hpp:77] Creating layer inception_3a/3x3
I0403 16:49:14.043026 21474 net.cpp:91] Creating Layer inception_3a/3x3
I0403 16:49:14.043045 21474 net.cpp:425] inception_3a/3x3 <- inception_3a/3x3_reduce
I0403 16:49:14.043066 21474 net.cpp:399] inception_3a/3x3 -> inception_3a/3x3
I0403 16:49:14.044749 21474 net.cpp:141] Setting up inception_3a/3x3
I0403 16:49:14.044778 21474 net.cpp:148] Top shape: 24 128 28 28 (2408448)
I0403 16:49:14.044793 21474 net.cpp:156] Memory required for data: 525042720
I0403 16:49:14.044812 21474 layer_factory.hpp:77] Creating layer inception_3a/relu_3x3
I0403 16:49:14.044836 21474 net.cpp:91] Creating Layer inception_3a/relu_3x3
I0403 16:49:14.044852 21474 net.cpp:425] inception_3a/relu_3x3 <- inception_3a/3x3
I0403 16:49:14.044870 21474 net.cpp:386] inception_3a/relu_3x3 -> inception_3a/3x3 (in-place)
I0403 16:49:14.045157 21474 net.cpp:141] Setting up inception_3a/relu_3x3
I0403 16:49:14.045184 21474 net.cpp:148] Top shape: 24 128 28 28 (2408448)
I0403 16:49:14.045199 21474 net.cpp:156] Memory required for data: 534676512
I0403 16:49:14.045215 21474 layer_factory.hpp:77] Creating layer inception_3a/5x5_reduce
I0403 16:49:14.045238 21474 net.cpp:91] Creating Layer inception_3a/5x5_reduce
I0403 16:49:14.045256 21474 net.cpp:425] inception_3a/5x5_reduce <- pool2/3x3_s2_pool2/3x3_s2_0_split_2
I0403 16:49:14.045277 21474 net.cpp:399] inception_3a/5x5_reduce -> inception_3a/5x5_reduce
I0403 16:49:14.046249 21474 net.cpp:141] Setting up inception_3a/5x5_reduce
I0403 16:49:14.046277 21474 net.cpp:148] Top shape: 24 16 28 28 (301056)
I0403 16:49:14.046293 21474 net.cpp:156] Memory required for data: 535880736
I0403 16:49:14.046310 21474 layer_factory.hpp:77] Creating layer inception_3a/relu_5x5_reduce
I0403 16:49:14.046330 21474 net.cpp:91] Creating Layer inception_3a/relu_5x5_reduce
I0403 16:49:14.046346 21474 net.cpp:425] inception_3a/relu_5x5_reduce <- inception_3a/5x5_reduce
I0403 16:49:14.046363 21474 net.cpp:386] inception_3a/relu_5x5_reduce -> inception_3a/5x5_reduce (in-place)
I0403 16:49:14.046655 21474 net.cpp:141] Setting up inception_3a/relu_5x5_reduce
I0403 16:49:14.046684 21474 net.cpp:148] Top shape: 24 16 28 28 (301056)
I0403 16:49:14.046700 21474 net.cpp:156] Memory required for data: 537084960
I0403 16:49:14.046715 21474 layer_factory.hpp:77] Creating layer inception_3a/5x5
I0403 16:49:14.046737 21474 net.cpp:91] Creating Layer inception_3a/5x5
I0403 16:49:14.046754 21474 net.cpp:425] inception_3a/5x5 <- inception_3a/5x5_reduce
I0403 16:49:14.046773 21474 net.cpp:399] inception_3a/5x5 -> inception_3a/5x5
I0403 16:49:14.047767 21474 net.cpp:141] Setting up inception_3a/5x5
I0403 16:49:14.047796 21474 net.cpp:148] Top shape: 24 32 28 28 (602112)
I0403 16:49:14.047811 21474 net.cpp:156] Memory required for data: 539493408
I0403 16:49:14.047828 21474 layer_factory.hpp:77] Creating layer inception_3a/relu_5x5
I0403 16:49:14.047848 21474 net.cpp:91] Creating Layer inception_3a/relu_5x5
I0403 16:49:14.047864 21474 net.cpp:425] inception_3a/relu_5x5 <- inception_3a/5x5
I0403 16:49:14.047880 21474 net.cpp:386] inception_3a/relu_5x5 -> inception_3a/5x5 (in-place)
I0403 16:49:14.048063 21474 net.cpp:141] Setting up inception_3a/relu_5x5
I0403 16:49:14.048090 21474 net.cpp:148] Top shape: 24 32 28 28 (602112)
I0403 16:49:14.048105 21474 net.cpp:156] Memory required for data: 541901856
I0403 16:49:14.048120 21474 layer_factory.hpp:77] Creating layer inception_3a/pool
I0403 16:49:14.048138 21474 net.cpp:91] Creating Layer inception_3a/pool
I0403 16:49:14.048167 21474 net.cpp:425] inception_3a/pool <- pool2/3x3_s2_pool2/3x3_s2_0_split_3
I0403 16:49:14.048187 21474 net.cpp:399] inception_3a/pool -> inception_3a/pool
I0403 16:49:14.048244 21474 net.cpp:141] Setting up inception_3a/pool
I0403 16:49:14.048266 21474 net.cpp:148] Top shape: 24 192 28 28 (3612672)
I0403 16:49:14.048280 21474 net.cpp:156] Memory required for data: 556352544
I0403 16:49:14.048295 21474 layer_factory.hpp:77] Creating layer inception_3a/pool_proj
I0403 16:49:14.048316 21474 net.cpp:91] Creating Layer inception_3a/pool_proj
I0403 16:49:14.048333 21474 net.cpp:425] inception_3a/pool_proj <- inception_3a/pool
I0403 16:49:14.048355 21474 net.cpp:399] inception_3a/pool_proj -> inception_3a/pool_proj
I0403 16:49:14.049306 21474 net.cpp:141] Setting up inception_3a/pool_proj
I0403 16:49:14.049335 21474 net.cpp:148] Top shape: 24 32 28 28 (602112)
I0403 16:49:14.049348 21474 net.cpp:156] Memory required for data: 558760992
I0403 16:49:14.049371 21474 layer_factory.hpp:77] Creating layer inception_3a/relu_pool_proj
I0403 16:49:14.049391 21474 net.cpp:91] Creating Layer inception_3a/relu_pool_proj
I0403 16:49:14.049407 21474 net.cpp:425] inception_3a/relu_pool_proj <- inception_3a/pool_proj
I0403 16:49:14.049424 21474 net.cpp:386] inception_3a/relu_pool_proj -> inception_3a/pool_proj (in-place)
I0403 16:49:14.049695 21474 net.cpp:141] Setting up inception_3a/relu_pool_proj
I0403 16:49:14.049721 21474 net.cpp:148] Top shape: 24 32 28 28 (602112)
I0403 16:49:14.049736 21474 net.cpp:156] Memory required for data: 561169440
I0403 16:49:14.049751 21474 layer_factory.hpp:77] Creating layer inception_3a/output
I0403 16:49:14.049770 21474 net.cpp:91] Creating Layer inception_3a/output
I0403 16:49:14.049787 21474 net.cpp:425] inception_3a/output <- inception_3a/1x1
I0403 16:49:14.049803 21474 net.cpp:425] inception_3a/output <- inception_3a/3x3
I0403 16:49:14.049818 21474 net.cpp:425] inception_3a/output <- inception_3a/5x5
I0403 16:49:14.049834 21474 net.cpp:425] inception_3a/output <- inception_3a/pool_proj
I0403 16:49:14.049849 21474 net.cpp:399] inception_3a/output -> inception_3a/output
I0403 16:49:14.049896 21474 net.cpp:141] Setting up inception_3a/output
I0403 16:49:14.049919 21474 net.cpp:148] Top shape: 24 256 28 28 (4816896)
I0403 16:49:14.049933 21474 net.cpp:156] Memory required for data: 580437024
I0403 16:49:14.049947 21474 layer_factory.hpp:77] Creating layer inception_3a/output_inception_3a/output_0_split
I0403 16:49:14.049967 21474 net.cpp:91] Creating Layer inception_3a/output_inception_3a/output_0_split
I0403 16:49:14.049981 21474 net.cpp:425] inception_3a/output_inception_3a/output_0_split <- inception_3a/output
I0403 16:49:14.049999 21474 net.cpp:399] inception_3a/output_inception_3a/output_0_split -> inception_3a/output_inception_3a/output_0_split_0
I0403 16:49:14.050024 21474 net.cpp:399] inception_3a/output_inception_3a/output_0_split -> inception_3a/output_inception_3a/output_0_split_1
I0403 16:49:14.050065 21474 net.cpp:399] inception_3a/output_inception_3a/output_0_split -> inception_3a/output_inception_3a/output_0_split_2
I0403 16:49:14.050086 21474 net.cpp:399] inception_3a/output_inception_3a/output_0_split -> inception_3a/output_inception_3a/output_0_split_3
I0403 16:49:14.050163 21474 net.cpp:141] Setting up inception_3a/output_inception_3a/output_0_split
I0403 16:49:14.050185 21474 net.cpp:148] Top shape: 24 256 28 28 (4816896)
I0403 16:49:14.050201 21474 net.cpp:148] Top shape: 24 256 28 28 (4816896)
I0403 16:49:14.050217 21474 net.cpp:148] Top shape: 24 256 28 28 (4816896)
I0403 16:49:14.050233 21474 net.cpp:148] Top shape: 24 256 28 28 (4816896)
I0403 16:49:14.050247 21474 net.cpp:156] Memory required for data: 657507360
I0403 16:49:14.050261 21474 layer_factory.hpp:77] Creating layer inception_3b/1x1
I0403 16:49:14.050285 21474 net.cpp:91] Creating Layer inception_3b/1x1
I0403 16:49:14.050303 21474 net.cpp:425] inception_3b/1x1 <- inception_3a/output_inception_3a/output_0_split_0
I0403 16:49:14.050336 21474 net.cpp:399] inception_3b/1x1 -> inception_3b/1x1
I0403 16:49:14.051468 21474 net.cpp:141] Setting up inception_3b/1x1
I0403 16:49:14.051508 21474 net.cpp:148] Top shape: 24 128 28 28 (2408448)
I0403 16:49:14.051524 21474 net.cpp:156] Memory required for data: 667141152
I0403 16:49:14.051542 21474 layer_factory.hpp:77] Creating layer inception_3b/relu_1x1
I0403 16:49:14.051563 21474 net.cpp:91] Creating Layer inception_3b/relu_1x1
I0403 16:49:14.051580 21474 net.cpp:425] inception_3b/relu_1x1 <- inception_3b/1x1
I0403 16:49:14.051597 21474 net.cpp:386] inception_3b/relu_1x1 -> inception_3b/1x1 (in-place)
I0403 16:49:14.051764 21474 net.cpp:141] Setting up inception_3b/relu_1x1
I0403 16:49:14.051789 21474 net.cpp:148] Top shape: 24 128 28 28 (2408448)
I0403 16:49:14.051805 21474 net.cpp:156] Memory required for data: 676774944
I0403 16:49:14.051818 21474 layer_factory.hpp:77] Creating layer inception_3b/3x3_reduce
I0403 16:49:14.051841 21474 net.cpp:91] Creating Layer inception_3b/3x3_reduce
I0403 16:49:14.051859 21474 net.cpp:425] inception_3b/3x3_reduce <- inception_3a/output_inception_3a/output_0_split_1
I0403 16:49:14.051878 21474 net.cpp:399] inception_3b/3x3_reduce -> inception_3b/3x3_reduce
I0403 16:49:14.053001 21474 net.cpp:141] Setting up inception_3b/3x3_reduce
I0403 16:49:14.053033 21474 net.cpp:148] Top shape: 24 128 28 28 (2408448)
I0403 16:49:14.053048 21474 net.cpp:156] Memory required for data: 686408736
I0403 16:49:14.053066 21474 layer_factory.hpp:77] Creating layer inception_3b/relu_3x3_reduce
I0403 16:49:14.053084 21474 net.cpp:91] Creating Layer inception_3b/relu_3x3_reduce
I0403 16:49:14.053100 21474 net.cpp:425] inception_3b/relu_3x3_reduce <- inception_3b/3x3_reduce
I0403 16:49:14.053119 21474 net.cpp:386] inception_3b/relu_3x3_reduce -> inception_3b/3x3_reduce (in-place)
I0403 16:49:14.053289 21474 net.cpp:141] Setting up inception_3b/relu_3x3_reduce
I0403 16:49:14.053314 21474 net.cpp:148] Top shape: 24 128 28 28 (2408448)
I0403 16:49:14.053328 21474 net.cpp:156] Memory required for data: 696042528
I0403 16:49:14.053344 21474 layer_factory.hpp:77] Creating layer inception_3b/3x3
I0403 16:49:14.053369 21474 net.cpp:91] Creating Layer inception_3b/3x3
I0403 16:49:14.053386 21474 net.cpp:425] inception_3b/3x3 <- inception_3b/3x3_reduce
I0403 16:49:14.053408 21474 net.cpp:399] inception_3b/3x3 -> inception_3b/3x3
I0403 16:49:14.056303 21474 net.cpp:141] Setting up inception_3b/3x3
I0403 16:49:14.056331 21474 net.cpp:148] Top shape: 24 192 28 28 (3612672)
I0403 16:49:14.056346 21474 net.cpp:156] Memory required for data: 710493216
I0403 16:49:14.056365 21474 layer_factory.hpp:77] Creating layer inception_3b/relu_3x3
I0403 16:49:14.056385 21474 net.cpp:91] Creating Layer inception_3b/relu_3x3
I0403 16:49:14.056401 21474 net.cpp:425] inception_3b/relu_3x3 <- inception_3b/3x3
I0403 16:49:14.056417 21474 net.cpp:386] inception_3b/relu_3x3 -> inception_3b/3x3 (in-place)
I0403 16:49:14.056687 21474 net.cpp:141] Setting up inception_3b/relu_3x3
I0403 16:49:14.056713 21474 net.cpp:148] Top shape: 24 192 28 28 (3612672)
I0403 16:49:14.056728 21474 net.cpp:156] Memory required for data: 724943904
I0403 16:49:14.056743 21474 layer_factory.hpp:77] Creating layer inception_3b/5x5_reduce
I0403 16:49:14.056766 21474 net.cpp:91] Creating Layer inception_3b/5x5_reduce
I0403 16:49:14.056783 21474 net.cpp:425] inception_3b/5x5_reduce <- inception_3a/output_inception_3a/output_0_split_2
I0403 16:49:14.056804 21474 net.cpp:399] inception_3b/5x5_reduce -> inception_3b/5x5_reduce
I0403 16:49:14.057785 21474 net.cpp:141] Setting up inception_3b/5x5_reduce
I0403 16:49:14.057813 21474 net.cpp:148] Top shape: 24 32 28 28 (602112)
I0403 16:49:14.057831 21474 net.cpp:156] Memory required for data: 727352352
I0403 16:49:14.057848 21474 layer_factory.hpp:77] Creating layer inception_3b/relu_5x5_reduce
I0403 16:49:14.057880 21474 net.cpp:91] Creating Layer inception_3b/relu_5x5_reduce
I0403 16:49:14.057905 21474 net.cpp:425] inception_3b/relu_5x5_reduce <- inception_3b/5x5_reduce
I0403 16:49:14.057931 21474 net.cpp:386] inception_3b/relu_5x5_reduce -> inception_3b/5x5_reduce (in-place)
I0403 16:49:14.058152 21474 net.cpp:141] Setting up inception_3b/relu_5x5_reduce
I0403 16:49:14.058181 21474 net.cpp:148] Top shape: 24 32 28 28 (602112)
I0403 16:49:14.058195 21474 net.cpp:156] Memory required for data: 729760800
I0403 16:49:14.058223 21474 layer_factory.hpp:77] Creating layer inception_3b/5x5
I0403 16:49:14.058245 21474 net.cpp:91] Creating Layer inception_3b/5x5
I0403 16:49:14.058264 21474 net.cpp:425] inception_3b/5x5 <- inception_3b/5x5_reduce
I0403 16:49:14.058282 21474 net.cpp:399] inception_3b/5x5 -> inception_3b/5x5
I0403 16:49:14.060226 21474 net.cpp:141] Setting up inception_3b/5x5
I0403 16:49:14.060256 21474 net.cpp:148] Top shape: 24 96 28 28 (1806336)
I0403 16:49:14.060272 21474 net.cpp:156] Memory required for data: 736986144
I0403 16:49:14.060292 21474 layer_factory.hpp:77] Creating layer inception_3b/relu_5x5
I0403 16:49:14.060309 21474 net.cpp:91] Creating Layer inception_3b/relu_5x5
I0403 16:49:14.060325 21474 net.cpp:425] inception_3b/relu_5x5 <- inception_3b/5x5
I0403 16:49:14.060344 21474 net.cpp:386] inception_3b/relu_5x5 -> inception_3b/5x5 (in-place)
I0403 16:49:14.060534 21474 net.cpp:141] Setting up inception_3b/relu_5x5
I0403 16:49:14.060559 21474 net.cpp:148] Top shape: 24 96 28 28 (1806336)
I0403 16:49:14.060572 21474 net.cpp:156] Memory required for data: 744211488
I0403 16:49:14.060587 21474 layer_factory.hpp:77] Creating layer inception_3b/pool
I0403 16:49:14.060606 21474 net.cpp:91] Creating Layer inception_3b/pool
I0403 16:49:14.060621 21474 net.cpp:425] inception_3b/pool <- inception_3a/output_inception_3a/output_0_split_3
I0403 16:49:14.060639 21474 net.cpp:399] inception_3b/pool -> inception_3b/pool
I0403 16:49:14.060694 21474 net.cpp:141] Setting up inception_3b/pool
I0403 16:49:14.060717 21474 net.cpp:148] Top shape: 24 256 28 28 (4816896)
I0403 16:49:14.060732 21474 net.cpp:156] Memory required for data: 763479072
I0403 16:49:14.060747 21474 layer_factory.hpp:77] Creating layer inception_3b/pool_proj
I0403 16:49:14.060770 21474 net.cpp:91] Creating Layer inception_3b/pool_proj
I0403 16:49:14.060787 21474 net.cpp:425] inception_3b/pool_proj <- inception_3b/pool
I0403 16:49:14.060808 21474 net.cpp:399] inception_3b/pool_proj -> inception_3b/pool_proj
I0403 16:49:14.061844 21474 net.cpp:141] Setting up inception_3b/pool_proj
I0403 16:49:14.061877 21474 net.cpp:148] Top shape: 24 64 28 28 (1204224)
I0403 16:49:14.061892 21474 net.cpp:156] Memory required for data: 768295968
I0403 16:49:14.061911 21474 layer_factory.hpp:77] Creating layer inception_3b/relu_pool_proj
I0403 16:49:14.061929 21474 net.cpp:91] Creating Layer inception_3b/relu_pool_proj
I0403 16:49:14.061946 21474 net.cpp:425] inception_3b/relu_pool_proj <- inception_3b/pool_proj
I0403 16:49:14.061965 21474 net.cpp:386] inception_3b/relu_pool_proj -> inception_3b/pool_proj (in-place)
I0403 16:49:14.062360 21474 net.cpp:141] Setting up inception_3b/relu_pool_proj
I0403 16:49:14.062386 21474 net.cpp:148] Top shape: 24 64 28 28 (1204224)
I0403 16:49:14.062402 21474 net.cpp:156] Memory required for data: 773112864
I0403 16:49:14.062417 21474 layer_factory.hpp:77] Creating layer inception_3b/output
I0403 16:49:14.062436 21474 net.cpp:91] Creating Layer inception_3b/output
I0403 16:49:14.062453 21474 net.cpp:425] inception_3b/output <- inception_3b/1x1
I0403 16:49:14.062469 21474 net.cpp:425] inception_3b/output <- inception_3b/3x3
I0403 16:49:14.062484 21474 net.cpp:425] inception_3b/output <- inception_3b/5x5
I0403 16:49:14.062500 21474 net.cpp:425] inception_3b/output <- inception_3b/pool_proj
I0403 16:49:14.062516 21474 net.cpp:399] inception_3b/output -> inception_3b/output
I0403 16:49:14.062561 21474 net.cpp:141] Setting up inception_3b/output
I0403 16:49:14.062583 21474 net.cpp:148] Top shape: 24 480 28 28 (9031680)
I0403 16:49:14.062597 21474 net.cpp:156] Memory required for data: 809239584
I0403 16:49:14.062613 21474 layer_factory.hpp:77] Creating layer pool3/3x3_s2
I0403 16:49:14.062629 21474 net.cpp:91] Creating Layer pool3/3x3_s2
I0403 16:49:14.062644 21474 net.cpp:425] pool3/3x3_s2 <- inception_3b/output
I0403 16:49:14.062681 21474 net.cpp:399] pool3/3x3_s2 -> pool3/3x3_s2
I0403 16:49:14.062741 21474 net.cpp:141] Setting up pool3/3x3_s2
I0403 16:49:14.062764 21474 net.cpp:148] Top shape: 24 480 14 14 (2257920)
I0403 16:49:14.062778 21474 net.cpp:156] Memory required for data: 818271264
I0403 16:49:14.062793 21474 layer_factory.hpp:77] Creating layer pool3/3x3_s2_pool3/3x3_s2_0_split
I0403 16:49:14.062809 21474 net.cpp:91] Creating Layer pool3/3x3_s2_pool3/3x3_s2_0_split
I0403 16:49:14.062824 21474 net.cpp:425] pool3/3x3_s2_pool3/3x3_s2_0_split <- pool3/3x3_s2
I0403 16:49:14.062844 21474 net.cpp:399] pool3/3x3_s2_pool3/3x3_s2_0_split -> pool3/3x3_s2_pool3/3x3_s2_0_split_0
I0403 16:49:14.062865 21474 net.cpp:399] pool3/3x3_s2_pool3/3x3_s2_0_split -> pool3/3x3_s2_pool3/3x3_s2_0_split_1
I0403 16:49:14.062885 21474 net.cpp:399] pool3/3x3_s2_pool3/3x3_s2_0_split -> pool3/3x3_s2_pool3/3x3_s2_0_split_2
I0403 16:49:14.062906 21474 net.cpp:399] pool3/3x3_s2_pool3/3x3_s2_0_split -> pool3/3x3_s2_pool3/3x3_s2_0_split_3
I0403 16:49:14.062979 21474 net.cpp:141] Setting up pool3/3x3_s2_pool3/3x3_s2_0_split
I0403 16:49:14.063005 21474 net.cpp:148] Top shape: 24 480 14 14 (2257920)
I0403 16:49:14.063027 21474 net.cpp:148] Top shape: 24 480 14 14 (2257920)
I0403 16:49:14.063045 21474 net.cpp:148] Top shape: 24 480 14 14 (2257920)
I0403 16:49:14.063060 21474 net.cpp:148] Top shape: 24 480 14 14 (2257920)
I0403 16:49:14.063073 21474 net.cpp:156] Memory required for data: 854397984
I0403 16:49:14.063087 21474 layer_factory.hpp:77] Creating layer inception_4a/1x1
I0403 16:49:14.063110 21474 net.cpp:91] Creating Layer inception_4a/1x1
I0403 16:49:14.063127 21474 net.cpp:425] inception_4a/1x1 <- pool3/3x3_s2_pool3/3x3_s2_0_split_0
I0403 16:49:14.063146 21474 net.cpp:399] inception_4a/1x1 -> inception_4a/1x1
I0403 16:49:14.064687 21474 net.cpp:141] Setting up inception_4a/1x1
I0403 16:49:14.064715 21474 net.cpp:148] Top shape: 24 192 14 14 (903168)
I0403 16:49:14.064733 21474 net.cpp:156] Memory required for data: 858010656
I0403 16:49:14.064750 21474 layer_factory.hpp:77] Creating layer inception_4a/relu_1x1
I0403 16:49:14.064769 21474 net.cpp:91] Creating Layer inception_4a/relu_1x1
I0403 16:49:14.064784 21474 net.cpp:425] inception_4a/relu_1x1 <- inception_4a/1x1
I0403 16:49:14.064802 21474 net.cpp:386] inception_4a/relu_1x1 -> inception_4a/1x1 (in-place)
I0403 16:49:14.064976 21474 net.cpp:141] Setting up inception_4a/relu_1x1
I0403 16:49:14.065001 21474 net.cpp:148] Top shape: 24 192 14 14 (903168)
I0403 16:49:14.065014 21474 net.cpp:156] Memory required for data: 861623328
I0403 16:49:14.065034 21474 layer_factory.hpp:77] Creating layer inception_4a/3x3_reduce
I0403 16:49:14.065057 21474 net.cpp:91] Creating Layer inception_4a/3x3_reduce
I0403 16:49:14.065073 21474 net.cpp:425] inception_4a/3x3_reduce <- pool3/3x3_s2_pool3/3x3_s2_0_split_1
I0403 16:49:14.065095 21474 net.cpp:399] inception_4a/3x3_reduce -> inception_4a/3x3_reduce
I0403 16:49:14.066391 21474 net.cpp:141] Setting up inception_4a/3x3_reduce
I0403 16:49:14.066421 21474 net.cpp:148] Top shape: 24 96 14 14 (451584)
I0403 16:49:14.066438 21474 net.cpp:156] Memory required for data: 863429664
I0403 16:49:14.066462 21474 layer_factory.hpp:77] Creating layer inception_4a/relu_3x3_reduce
I0403 16:49:14.066481 21474 net.cpp:91] Creating Layer inception_4a/relu_3x3_reduce
I0403 16:49:14.066498 21474 net.cpp:425] inception_4a/relu_3x3_reduce <- inception_4a/3x3_reduce
I0403 16:49:14.066514 21474 net.cpp:386] inception_4a/relu_3x3_reduce -> inception_4a/3x3_reduce (in-place)
I0403 16:49:14.066686 21474 net.cpp:141] Setting up inception_4a/relu_3x3_reduce
I0403 16:49:14.066711 21474 net.cpp:148] Top shape: 24 96 14 14 (451584)
I0403 16:49:14.066725 21474 net.cpp:156] Memory required for data: 865236000
I0403 16:49:14.066740 21474 layer_factory.hpp:77] Creating layer inception_4a/3x3
I0403 16:49:14.066762 21474 net.cpp:91] Creating Layer inception_4a/3x3
I0403 16:49:14.066779 21474 net.cpp:425] inception_4a/3x3 <- inception_4a/3x3_reduce
I0403 16:49:14.066800 21474 net.cpp:399] inception_4a/3x3 -> inception_4a/3x3
I0403 16:49:14.069453 21474 net.cpp:141] Setting up inception_4a/3x3
I0403 16:49:14.069483 21474 net.cpp:148] Top shape: 24 208 14 14 (978432)
I0403 16:49:14.069497 21474 net.cpp:156] Memory required for data: 869149728
I0403 16:49:14.069515 21474 layer_factory.hpp:77] Creating layer inception_4a/relu_3x3
I0403 16:49:14.069533 21474 net.cpp:91] Creating Layer inception_4a/relu_3x3
I0403 16:49:14.069550 21474 net.cpp:425] inception_4a/relu_3x3 <- inception_4a/3x3
I0403 16:49:14.069568 21474 net.cpp:386] inception_4a/relu_3x3 -> inception_4a/3x3 (in-place)
I0403 16:49:14.069846 21474 net.cpp:141] Setting up inception_4a/relu_3x3
I0403 16:49:14.069872 21474 net.cpp:148] Top shape: 24 208 14 14 (978432)
I0403 16:49:14.069887 21474 net.cpp:156] Memory required for data: 873063456
I0403 16:49:14.069901 21474 layer_factory.hpp:77] Creating layer inception_4a/5x5_reduce
I0403 16:49:14.069924 21474 net.cpp:91] Creating Layer inception_4a/5x5_reduce
I0403 16:49:14.069941 21474 net.cpp:425] inception_4a/5x5_reduce <- pool3/3x3_s2_pool3/3x3_s2_0_split_2
I0403 16:49:14.069963 21474 net.cpp:399] inception_4a/5x5_reduce -> inception_4a/5x5_reduce
I0403 16:49:14.071038 21474 net.cpp:141] Setting up inception_4a/5x5_reduce
I0403 16:49:14.071065 21474 net.cpp:148] Top shape: 24 16 14 14 (75264)
I0403 16:49:14.071082 21474 net.cpp:156] Memory required for data: 873364512
I0403 16:49:14.071101 21474 layer_factory.hpp:77] Creating layer inception_4a/relu_5x5_reduce
I0403 16:49:14.071121 21474 net.cpp:91] Creating Layer inception_4a/relu_5x5_reduce
I0403 16:49:14.071138 21474 net.cpp:425] inception_4a/relu_5x5_reduce <- inception_4a/5x5_reduce
I0403 16:49:14.071156 21474 net.cpp:386] inception_4a/relu_5x5_reduce -> inception_4a/5x5_reduce (in-place)
I0403 16:49:14.071336 21474 net.cpp:141] Setting up inception_4a/relu_5x5_reduce
I0403 16:49:14.071364 21474 net.cpp:148] Top shape: 24 16 14 14 (75264)
I0403 16:49:14.071382 21474 net.cpp:156] Memory required for data: 873665568
I0403 16:49:14.071395 21474 layer_factory.hpp:77] Creating layer inception_4a/5x5
I0403 16:49:14.071419 21474 net.cpp:91] Creating Layer inception_4a/5x5
I0403 16:49:14.071436 21474 net.cpp:425] inception_4a/5x5 <- inception_4a/5x5_reduce
I0403 16:49:14.071456 21474 net.cpp:399] inception_4a/5x5 -> inception_4a/5x5
I0403 16:49:14.072563 21474 net.cpp:141] Setting up inception_4a/5x5
I0403 16:49:14.072594 21474 net.cpp:148] Top shape: 24 48 14 14 (225792)
I0403 16:49:14.072613 21474 net.cpp:156] Memory required for data: 874568736
I0403 16:49:14.072633 21474 layer_factory.hpp:77] Creating layer inception_4a/relu_5x5
I0403 16:49:14.072650 21474 net.cpp:91] Creating Layer inception_4a/relu_5x5
I0403 16:49:14.072666 21474 net.cpp:425] inception_4a/relu_5x5 <- inception_4a/5x5
I0403 16:49:14.072685 21474 net.cpp:386] inception_4a/relu_5x5 -> inception_4a/5x5 (in-place)
I0403 16:49:14.072870 21474 net.cpp:141] Setting up inception_4a/relu_5x5
I0403 16:49:14.072895 21474 net.cpp:148] Top shape: 24 48 14 14 (225792)
I0403 16:49:14.072909 21474 net.cpp:156] Memory required for data: 875471904
I0403 16:49:14.072924 21474 layer_factory.hpp:77] Creating layer inception_4a/pool
I0403 16:49:14.072944 21474 net.cpp:91] Creating Layer inception_4a/pool
I0403 16:49:14.072962 21474 net.cpp:425] inception_4a/pool <- pool3/3x3_s2_pool3/3x3_s2_0_split_3
I0403 16:49:14.072983 21474 net.cpp:399] inception_4a/pool -> inception_4a/pool
I0403 16:49:14.073050 21474 net.cpp:141] Setting up inception_4a/pool
I0403 16:49:14.073076 21474 net.cpp:148] Top shape: 24 480 14 14 (2257920)
I0403 16:49:14.073091 21474 net.cpp:156] Memory required for data: 884503584
I0403 16:49:14.073106 21474 layer_factory.hpp:77] Creating layer inception_4a/pool_proj
I0403 16:49:14.073129 21474 net.cpp:91] Creating Layer inception_4a/pool_proj
I0403 16:49:14.073146 21474 net.cpp:425] inception_4a/pool_proj <- inception_4a/pool
I0403 16:49:14.073165 21474 net.cpp:399] inception_4a/pool_proj -> inception_4a/pool_proj
I0403 16:49:14.074390 21474 net.cpp:141] Setting up inception_4a/pool_proj
I0403 16:49:14.074421 21474 net.cpp:148] Top shape: 24 64 14 14 (301056)
I0403 16:49:14.074452 21474 net.cpp:156] Memory required for data: 885707808
I0403 16:49:14.074472 21474 layer_factory.hpp:77] Creating layer inception_4a/relu_pool_proj
I0403 16:49:14.074491 21474 net.cpp:91] Creating Layer inception_4a/relu_pool_proj
I0403 16:49:14.074507 21474 net.cpp:425] inception_4a/relu_pool_proj <- inception_4a/pool_proj
I0403 16:49:14.074528 21474 net.cpp:386] inception_4a/relu_pool_proj -> inception_4a/pool_proj (in-place)
I0403 16:49:14.074820 21474 net.cpp:141] Setting up inception_4a/relu_pool_proj
I0403 16:49:14.074849 21474 net.cpp:148] Top shape: 24 64 14 14 (301056)
I0403 16:49:14.074865 21474 net.cpp:156] Memory required for data: 886912032
I0403 16:49:14.074880 21474 layer_factory.hpp:77] Creating layer inception_4a/output
I0403 16:49:14.074898 21474 net.cpp:91] Creating Layer inception_4a/output
I0403 16:49:14.074913 21474 net.cpp:425] inception_4a/output <- inception_4a/1x1
I0403 16:49:14.074929 21474 net.cpp:425] inception_4a/output <- inception_4a/3x3
I0403 16:49:14.074945 21474 net.cpp:425] inception_4a/output <- inception_4a/5x5
I0403 16:49:14.074965 21474 net.cpp:425] inception_4a/output <- inception_4a/pool_proj
I0403 16:49:14.074983 21474 net.cpp:399] inception_4a/output -> inception_4a/output
I0403 16:49:14.075033 21474 net.cpp:141] Setting up inception_4a/output
I0403 16:49:14.075057 21474 net.cpp:148] Top shape: 24 512 14 14 (2408448)
I0403 16:49:14.075072 21474 net.cpp:156] Memory required for data: 896545824
I0403 16:49:14.075086 21474 layer_factory.hpp:77] Creating layer inception_4a/output_inception_4a/output_0_split
I0403 16:49:14.075108 21474 net.cpp:91] Creating Layer inception_4a/output_inception_4a/output_0_split
I0403 16:49:14.075124 21474 net.cpp:425] inception_4a/output_inception_4a/output_0_split <- inception_4a/output
I0403 16:49:14.075142 21474 net.cpp:399] inception_4a/output_inception_4a/output_0_split -> inception_4a/output_inception_4a/output_0_split_0
I0403 16:49:14.075162 21474 net.cpp:399] inception_4a/output_inception_4a/output_0_split -> inception_4a/output_inception_4a/output_0_split_1
I0403 16:49:14.075186 21474 net.cpp:399] inception_4a/output_inception_4a/output_0_split -> inception_4a/output_inception_4a/output_0_split_2
I0403 16:49:14.075207 21474 net.cpp:399] inception_4a/output_inception_4a/output_0_split -> inception_4a/output_inception_4a/output_0_split_3
I0403 16:49:14.075227 21474 net.cpp:399] inception_4a/output_inception_4a/output_0_split -> inception_4a/output_inception_4a/output_0_split_4
I0403 16:49:14.075321 21474 net.cpp:141] Setting up inception_4a/output_inception_4a/output_0_split
I0403 16:49:14.075345 21474 net.cpp:148] Top shape: 24 512 14 14 (2408448)
I0403 16:49:14.075361 21474 net.cpp:148] Top shape: 24 512 14 14 (2408448)
I0403 16:49:14.075376 21474 net.cpp:148] Top shape: 24 512 14 14 (2408448)
I0403 16:49:14.075392 21474 net.cpp:148] Top shape: 24 512 14 14 (2408448)
I0403 16:49:14.075407 21474 net.cpp:148] Top shape: 24 512 14 14 (2408448)
I0403 16:49:14.075422 21474 net.cpp:156] Memory required for data: 944714784
I0403 16:49:14.075436 21474 layer_factory.hpp:77] Creating layer loss1/ave_pool
I0403 16:49:14.075455 21474 net.cpp:91] Creating Layer loss1/ave_pool
I0403 16:49:14.075472 21474 net.cpp:425] loss1/ave_pool <- inception_4a/output_inception_4a/output_0_split_0
I0403 16:49:14.075490 21474 net.cpp:399] loss1/ave_pool -> loss1/ave_pool
I0403 16:49:14.075702 21474 net.cpp:141] Setting up loss1/ave_pool
I0403 16:49:14.075731 21474 net.cpp:148] Top shape: 24 512 4 4 (196608)
I0403 16:49:14.075747 21474 net.cpp:156] Memory required for data: 945501216
I0403 16:49:14.075762 21474 layer_factory.hpp:77] Creating layer loss1/conv
I0403 16:49:14.075783 21474 net.cpp:91] Creating Layer loss1/conv
I0403 16:49:14.075800 21474 net.cpp:425] loss1/conv <- loss1/ave_pool
I0403 16:49:14.075819 21474 net.cpp:399] loss1/conv -> loss1/conv
I0403 16:49:14.077275 21474 net.cpp:141] Setting up loss1/conv
I0403 16:49:14.077303 21474 net.cpp:148] Top shape: 24 128 4 4 (49152)
I0403 16:49:14.077333 21474 net.cpp:156] Memory required for data: 945697824
I0403 16:49:14.077353 21474 layer_factory.hpp:77] Creating layer loss1/relu_conv
I0403 16:49:14.077374 21474 net.cpp:91] Creating Layer loss1/relu_conv
I0403 16:49:14.077391 21474 net.cpp:425] loss1/relu_conv <- loss1/conv
I0403 16:49:14.077409 21474 net.cpp:386] loss1/relu_conv -> loss1/conv (in-place)
I0403 16:49:14.077697 21474 net.cpp:141] Setting up loss1/relu_conv
I0403 16:49:14.077724 21474 net.cpp:148] Top shape: 24 128 4 4 (49152)
I0403 16:49:14.077739 21474 net.cpp:156] Memory required for data: 945894432
I0403 16:49:14.077754 21474 layer_factory.hpp:77] Creating layer loss1/fc
I0403 16:49:14.077780 21474 net.cpp:91] Creating Layer loss1/fc
I0403 16:49:14.077798 21474 net.cpp:425] loss1/fc <- loss1/conv
I0403 16:49:14.077816 21474 net.cpp:399] loss1/fc -> loss1/fc
I0403 16:49:14.095944 21474 net.cpp:141] Setting up loss1/fc
I0403 16:49:14.096005 21474 net.cpp:148] Top shape: 24 1024 (24576)
I0403 16:49:14.096037 21474 net.cpp:156] Memory required for data: 945992736
I0403 16:49:14.096058 21474 layer_factory.hpp:77] Creating layer loss1/relu_fc
I0403 16:49:14.096078 21474 net.cpp:91] Creating Layer loss1/relu_fc
I0403 16:49:14.096096 21474 net.cpp:425] loss1/relu_fc <- loss1/fc
I0403 16:49:14.096117 21474 net.cpp:386] loss1/relu_fc -> loss1/fc (in-place)
I0403 16:49:14.096343 21474 net.cpp:141] Setting up loss1/relu_fc
I0403 16:49:14.096367 21474 net.cpp:148] Top shape: 24 1024 (24576)
I0403 16:49:14.096382 21474 net.cpp:156] Memory required for data: 946091040
I0403 16:49:14.096396 21474 layer_factory.hpp:77] Creating layer loss1/drop_fc
I0403 16:49:14.096426 21474 net.cpp:91] Creating Layer loss1/drop_fc
I0403 16:49:14.096444 21474 net.cpp:425] loss1/drop_fc <- loss1/fc
I0403 16:49:14.096463 21474 net.cpp:386] loss1/drop_fc -> loss1/fc (in-place)
I0403 16:49:14.096516 21474 net.cpp:141] Setting up loss1/drop_fc
I0403 16:49:14.096544 21474 net.cpp:148] Top shape: 24 1024 (24576)
I0403 16:49:14.096559 21474 net.cpp:156] Memory required for data: 946189344
I0403 16:49:14.096575 21474 layer_factory.hpp:77] Creating layer loss1/classifier_plantvillage
I0403 16:49:14.096593 21474 net.cpp:91] Creating Layer loss1/classifier_plantvillage
I0403 16:49:14.096609 21474 net.cpp:425] loss1/classifier_plantvillage <- loss1/fc
I0403 16:49:14.096629 21474 net.cpp:399] loss1/classifier_plantvillage -> loss1/classifier_plantvillage
I0403 16:49:14.097555 21474 net.cpp:141] Setting up loss1/classifier_plantvillage
I0403 16:49:14.097584 21474 net.cpp:148] Top shape: 24 38 (912)
I0403 16:49:14.097600 21474 net.cpp:156] Memory required for data: 946192992
I0403 16:49:14.097618 21474 layer_factory.hpp:77] Creating layer loss1/classifier_plantvillage_loss1/classifier_plantvillage_0_split
I0403 16:49:14.097636 21474 net.cpp:91] Creating Layer loss1/classifier_plantvillage_loss1/classifier_plantvillage_0_split
I0403 16:49:14.097651 21474 net.cpp:425] loss1/classifier_plantvillage_loss1/classifier_plantvillage_0_split <- loss1/classifier_plantvillage
I0403 16:49:14.097671 21474 net.cpp:399] loss1/classifier_plantvillage_loss1/classifier_plantvillage_0_split -> loss1/classifier_plantvillage_loss1/classifier_plantvillage_0_split_0
I0403 16:49:14.097692 21474 net.cpp:399] loss1/classifier_plantvillage_loss1/classifier_plantvillage_0_split -> loss1/classifier_plantvillage_loss1/classifier_plantvillage_0_split_1
I0403 16:49:14.097712 21474 net.cpp:399] loss1/classifier_plantvillage_loss1/classifier_plantvillage_0_split -> loss1/classifier_plantvillage_loss1/classifier_plantvillage_0_split_2
I0403 16:49:14.097781 21474 net.cpp:141] Setting up loss1/classifier_plantvillage_loss1/classifier_plantvillage_0_split
I0403 16:49:14.097803 21474 net.cpp:148] Top shape: 24 38 (912)
I0403 16:49:14.097820 21474 net.cpp:148] Top shape: 24 38 (912)
I0403 16:49:14.097834 21474 net.cpp:148] Top shape: 24 38 (912)
I0403 16:49:14.097848 21474 net.cpp:156] Memory required for data: 946203936
I0403 16:49:14.097862 21474 layer_factory.hpp:77] Creating layer inception_4b/1x1
I0403 16:49:14.097885 21474 net.cpp:91] Creating Layer inception_4b/1x1
I0403 16:49:14.097926 21474 net.cpp:425] inception_4b/1x1 <- inception_4a/output_inception_4a/output_0_split_1
I0403 16:49:14.097946 21474 net.cpp:399] inception_4b/1x1 -> inception_4b/1x1
I0403 16:49:14.099678 21474 net.cpp:141] Setting up inception_4b/1x1
I0403 16:49:14.099709 21474 net.cpp:148] Top shape: 24 160 14 14 (752640)
I0403 16:49:14.099723 21474 net.cpp:156] Memory required for data: 949214496
I0403 16:49:14.099742 21474 layer_factory.hpp:77] Creating layer inception_4b/relu_1x1
I0403 16:49:14.099763 21474 net.cpp:91] Creating Layer inception_4b/relu_1x1
I0403 16:49:14.099792 21474 net.cpp:425] inception_4b/relu_1x1 <- inception_4b/1x1
I0403 16:49:14.099808 21474 net.cpp:386] inception_4b/relu_1x1 -> inception_4b/1x1 (in-place)
I0403 16:49:14.099988 21474 net.cpp:141] Setting up inception_4b/relu_1x1
I0403 16:49:14.100020 21474 net.cpp:148] Top shape: 24 160 14 14 (752640)
I0403 16:49:14.100049 21474 net.cpp:156] Memory required for data: 952225056
I0403 16:49:14.100064 21474 layer_factory.hpp:77] Creating layer inception_4b/3x3_reduce
I0403 16:49:14.100091 21474 net.cpp:91] Creating Layer inception_4b/3x3_reduce
I0403 16:49:14.100111 21474 net.cpp:425] inception_4b/3x3_reduce <- inception_4a/output_inception_4a/output_0_split_2
I0403 16:49:14.100129 21474 net.cpp:399] inception_4b/3x3_reduce -> inception_4b/3x3_reduce
I0403 16:49:14.101500 21474 net.cpp:141] Setting up inception_4b/3x3_reduce
I0403 16:49:14.101526 21474 net.cpp:148] Top shape: 24 112 14 14 (526848)
I0403 16:49:14.101547 21474 net.cpp:156] Memory required for data: 954332448
I0403 16:49:14.101563 21474 layer_factory.hpp:77] Creating layer inception_4b/relu_3x3_reduce
I0403 16:49:14.101580 21474 net.cpp:91] Creating Layer inception_4b/relu_3x3_reduce
I0403 16:49:14.101596 21474 net.cpp:425] inception_4b/relu_3x3_reduce <- inception_4b/3x3_reduce
I0403 16:49:14.101613 21474 net.cpp:386] inception_4b/relu_3x3_reduce -> inception_4b/3x3_reduce (in-place)
I0403 16:49:14.101886 21474 net.cpp:141] Setting up inception_4b/relu_3x3_reduce
I0403 16:49:14.101912 21474 net.cpp:148] Top shape: 24 112 14 14 (526848)
I0403 16:49:14.101928 21474 net.cpp:156] Memory required for data: 956439840
I0403 16:49:14.101943 21474 layer_factory.hpp:77] Creating layer inception_4b/3x3
I0403 16:49:14.101961 21474 net.cpp:91] Creating Layer inception_4b/3x3
I0403 16:49:14.101979 21474 net.cpp:425] inception_4b/3x3 <- inception_4b/3x3_reduce
I0403 16:49:14.101999 21474 net.cpp:399] inception_4b/3x3 -> inception_4b/3x3
I0403 16:49:14.104921 21474 net.cpp:141] Setting up inception_4b/3x3
I0403 16:49:14.104950 21474 net.cpp:148] Top shape: 24 224 14 14 (1053696)
I0403 16:49:14.104966 21474 net.cpp:156] Memory required for data: 960654624
I0403 16:49:14.104984 21474 layer_factory.hpp:77] Creating layer inception_4b/relu_3x3
I0403 16:49:14.105001 21474 net.cpp:91] Creating Layer inception_4b/relu_3x3
I0403 16:49:14.105020 21474 net.cpp:425] inception_4b/relu_3x3 <- inception_4b/3x3
I0403 16:49:14.105041 21474 net.cpp:386] inception_4b/relu_3x3 -> inception_4b/3x3 (in-place)
I0403 16:49:14.105221 21474 net.cpp:141] Setting up inception_4b/relu_3x3
I0403 16:49:14.105244 21474 net.cpp:148] Top shape: 24 224 14 14 (1053696)
I0403 16:49:14.105258 21474 net.cpp:156] Memory required for data: 964869408
I0403 16:49:14.105273 21474 layer_factory.hpp:77] Creating layer inception_4b/5x5_reduce
I0403 16:49:14.105294 21474 net.cpp:91] Creating Layer inception_4b/5x5_reduce
I0403 16:49:14.105311 21474 net.cpp:425] inception_4b/5x5_reduce <- inception_4a/output_inception_4a/output_0_split_3
I0403 16:49:14.105332 21474 net.cpp:399] inception_4b/5x5_reduce -> inception_4b/5x5_reduce
I0403 16:49:14.106422 21474 net.cpp:141] Setting up inception_4b/5x5_reduce
I0403 16:49:14.106449 21474 net.cpp:148] Top shape: 24 24 14 14 (112896)
I0403 16:49:14.106464 21474 net.cpp:156] Memory required for data: 965320992
I0403 16:49:14.106482 21474 layer_factory.hpp:77] Creating layer inception_4b/relu_5x5_reduce
I0403 16:49:14.106500 21474 net.cpp:91] Creating Layer inception_4b/relu_5x5_reduce
I0403 16:49:14.106530 21474 net.cpp:425] inception_4b/relu_5x5_reduce <- inception_4b/5x5_reduce
I0403 16:49:14.106549 21474 net.cpp:386] inception_4b/relu_5x5_reduce -> inception_4b/5x5_reduce (in-place)
I0403 16:49:14.106725 21474 net.cpp:141] Setting up inception_4b/relu_5x5_reduce
I0403 16:49:14.106751 21474 net.cpp:148] Top shape: 24 24 14 14 (112896)
I0403 16:49:14.106767 21474 net.cpp:156] Memory required for data: 965772576
I0403 16:49:14.106781 21474 layer_factory.hpp:77] Creating layer inception_4b/5x5
I0403 16:49:14.106803 21474 net.cpp:91] Creating Layer inception_4b/5x5
I0403 16:49:14.106820 21474 net.cpp:425] inception_4b/5x5 <- inception_4b/5x5_reduce
I0403 16:49:14.106838 21474 net.cpp:399] inception_4b/5x5 -> inception_4b/5x5
I0403 16:49:14.108052 21474 net.cpp:141] Setting up inception_4b/5x5
I0403 16:49:14.108078 21474 net.cpp:148] Top shape: 24 64 14 14 (301056)
I0403 16:49:14.108093 21474 net.cpp:156] Memory required for data: 966976800
I0403 16:49:14.108111 21474 layer_factory.hpp:77] Creating layer inception_4b/relu_5x5
I0403 16:49:14.108132 21474 net.cpp:91] Creating Layer inception_4b/relu_5x5
I0403 16:49:14.108150 21474 net.cpp:425] inception_4b/relu_5x5 <- inception_4b/5x5
I0403 16:49:14.108166 21474 net.cpp:386] inception_4b/relu_5x5 -> inception_4b/5x5 (in-place)
I0403 16:49:14.108459 21474 net.cpp:141] Setting up inception_4b/relu_5x5
I0403 16:49:14.108484 21474 net.cpp:148] Top shape: 24 64 14 14 (301056)
I0403 16:49:14.108499 21474 net.cpp:156] Memory required for data: 968181024
I0403 16:49:14.108512 21474 layer_factory.hpp:77] Creating layer inception_4b/pool
I0403 16:49:14.108530 21474 net.cpp:91] Creating Layer inception_4b/pool
I0403 16:49:14.108546 21474 net.cpp:425] inception_4b/pool <- inception_4a/output_inception_4a/output_0_split_4
I0403 16:49:14.108566 21474 net.cpp:399] inception_4b/pool -> inception_4b/pool
I0403 16:49:14.108629 21474 net.cpp:141] Setting up inception_4b/pool
I0403 16:49:14.108652 21474 net.cpp:148] Top shape: 24 512 14 14 (2408448)
I0403 16:49:14.108666 21474 net.cpp:156] Memory required for data: 977814816
I0403 16:49:14.108680 21474 layer_factory.hpp:77] Creating layer inception_4b/pool_proj
I0403 16:49:14.108701 21474 net.cpp:91] Creating Layer inception_4b/pool_proj
I0403 16:49:14.108718 21474 net.cpp:425] inception_4b/pool_proj <- inception_4b/pool
I0403 16:49:14.108738 21474 net.cpp:399] inception_4b/pool_proj -> inception_4b/pool_proj
I0403 16:49:14.109932 21474 net.cpp:141] Setting up inception_4b/pool_proj
I0403 16:49:14.109959 21474 net.cpp:148] Top shape: 24 64 14 14 (301056)
I0403 16:49:14.109975 21474 net.cpp:156] Memory required for data: 979019040
I0403 16:49:14.109993 21474 layer_factory.hpp:77] Creating layer inception_4b/relu_pool_proj
I0403 16:49:14.110014 21474 net.cpp:91] Creating Layer inception_4b/relu_pool_proj
I0403 16:49:14.110036 21474 net.cpp:425] inception_4b/relu_pool_proj <- inception_4b/pool_proj
I0403 16:49:14.110054 21474 net.cpp:386] inception_4b/relu_pool_proj -> inception_4b/pool_proj (in-place)
I0403 16:49:14.110232 21474 net.cpp:141] Setting up inception_4b/relu_pool_proj
I0403 16:49:14.110260 21474 net.cpp:148] Top shape: 24 64 14 14 (301056)
I0403 16:49:14.110275 21474 net.cpp:156] Memory required for data: 980223264
I0403 16:49:14.110290 21474 layer_factory.hpp:77] Creating layer inception_4b/output
I0403 16:49:14.110307 21474 net.cpp:91] Creating Layer inception_4b/output
I0403 16:49:14.110322 21474 net.cpp:425] inception_4b/output <- inception_4b/1x1
I0403 16:49:14.110339 21474 net.cpp:425] inception_4b/output <- inception_4b/3x3
I0403 16:49:14.110354 21474 net.cpp:425] inception_4b/output <- inception_4b/5x5
I0403 16:49:14.110370 21474 net.cpp:425] inception_4b/output <- inception_4b/pool_proj
I0403 16:49:14.110385 21474 net.cpp:399] inception_4b/output -> inception_4b/output
I0403 16:49:14.110433 21474 net.cpp:141] Setting up inception_4b/output
I0403 16:49:14.110456 21474 net.cpp:148] Top shape: 24 512 14 14 (2408448)
I0403 16:49:14.110471 21474 net.cpp:156] Memory required for data: 989857056
I0403 16:49:14.110498 21474 layer_factory.hpp:77] Creating layer inception_4b/output_inception_4b/output_0_split
I0403 16:49:14.110518 21474 net.cpp:91] Creating Layer inception_4b/output_inception_4b/output_0_split
I0403 16:49:14.110535 21474 net.cpp:425] inception_4b/output_inception_4b/output_0_split <- inception_4b/output
I0403 16:49:14.110553 21474 net.cpp:399] inception_4b/output_inception_4b/output_0_split -> inception_4b/output_inception_4b/output_0_split_0
I0403 16:49:14.110572 21474 net.cpp:399] inception_4b/output_inception_4b/output_0_split -> inception_4b/output_inception_4b/output_0_split_1
I0403 16:49:14.110592 21474 net.cpp:399] inception_4b/output_inception_4b/output_0_split -> inception_4b/output_inception_4b/output_0_split_2
I0403 16:49:14.110611 21474 net.cpp:399] inception_4b/output_inception_4b/output_0_split -> inception_4b/output_inception_4b/output_0_split_3
I0403 16:49:14.110697 21474 net.cpp:141] Setting up inception_4b/output_inception_4b/output_0_split
I0403 16:49:14.110718 21474 net.cpp:148] Top shape: 24 512 14 14 (2408448)
I0403 16:49:14.110734 21474 net.cpp:148] Top shape: 24 512 14 14 (2408448)
I0403 16:49:14.110749 21474 net.cpp:148] Top shape: 24 512 14 14 (2408448)
I0403 16:49:14.110764 21474 net.cpp:148] Top shape: 24 512 14 14 (2408448)
I0403 16:49:14.110777 21474 net.cpp:156] Memory required for data: 1028392224
I0403 16:49:14.110791 21474 layer_factory.hpp:77] Creating layer inception_4c/1x1
I0403 16:49:14.110815 21474 net.cpp:91] Creating Layer inception_4c/1x1
I0403 16:49:14.110831 21474 net.cpp:425] inception_4c/1x1 <- inception_4b/output_inception_4b/output_0_split_0
I0403 16:49:14.110852 21474 net.cpp:399] inception_4c/1x1 -> inception_4c/1x1
I0403 16:49:14.112339 21474 net.cpp:141] Setting up inception_4c/1x1
I0403 16:49:14.112370 21474 net.cpp:148] Top shape: 24 128 14 14 (602112)
I0403 16:49:14.112385 21474 net.cpp:156] Memory required for data: 1030800672
I0403 16:49:14.112402 21474 layer_factory.hpp:77] Creating layer inception_4c/relu_1x1
I0403 16:49:14.112421 21474 net.cpp:91] Creating Layer inception_4c/relu_1x1
I0403 16:49:14.112435 21474 net.cpp:425] inception_4c/relu_1x1 <- inception_4c/1x1
I0403 16:49:14.112454 21474 net.cpp:386] inception_4c/relu_1x1 -> inception_4c/1x1 (in-place)
I0403 16:49:14.112632 21474 net.cpp:141] Setting up inception_4c/relu_1x1
I0403 16:49:14.112655 21474 net.cpp:148] Top shape: 24 128 14 14 (602112)
I0403 16:49:14.112669 21474 net.cpp:156] Memory required for data: 1033209120
I0403 16:49:14.112684 21474 layer_factory.hpp:77] Creating layer inception_4c/3x3_reduce
I0403 16:49:14.112705 21474 net.cpp:91] Creating Layer inception_4c/3x3_reduce
I0403 16:49:14.112722 21474 net.cpp:425] inception_4c/3x3_reduce <- inception_4b/output_inception_4b/output_0_split_1
I0403 16:49:14.112743 21474 net.cpp:399] inception_4c/3x3_reduce -> inception_4c/3x3_reduce
I0403 16:49:14.114662 21474 net.cpp:141] Setting up inception_4c/3x3_reduce
I0403 16:49:14.114691 21474 net.cpp:148] Top shape: 24 128 14 14 (602112)
I0403 16:49:14.114706 21474 net.cpp:156] Memory required for data: 1035617568
I0403 16:49:14.114724 21474 layer_factory.hpp:77] Creating layer inception_4c/relu_3x3_reduce
I0403 16:49:14.114743 21474 net.cpp:91] Creating Layer inception_4c/relu_3x3_reduce
I0403 16:49:14.114759 21474 net.cpp:425] inception_4c/relu_3x3_reduce <- inception_4c/3x3_reduce
I0403 16:49:14.114775 21474 net.cpp:386] inception_4c/relu_3x3_reduce -> inception_4c/3x3_reduce (in-place)
I0403 16:49:14.115058 21474 net.cpp:141] Setting up inception_4c/relu_3x3_reduce
I0403 16:49:14.115083 21474 net.cpp:148] Top shape: 24 128 14 14 (602112)
I0403 16:49:14.115097 21474 net.cpp:156] Memory required for data: 1038026016
I0403 16:49:14.115113 21474 layer_factory.hpp:77] Creating layer inception_4c/3x3
I0403 16:49:14.115134 21474 net.cpp:91] Creating Layer inception_4c/3x3
I0403 16:49:14.115151 21474 net.cpp:425] inception_4c/3x3 <- inception_4c/3x3_reduce
I0403 16:49:14.115171 21474 net.cpp:399] inception_4c/3x3 -> inception_4c/3x3
I0403 16:49:14.118700 21474 net.cpp:141] Setting up inception_4c/3x3
I0403 16:49:14.118741 21474 net.cpp:148] Top shape: 24 256 14 14 (1204224)
I0403 16:49:14.118757 21474 net.cpp:156] Memory required for data: 1042842912
I0403 16:49:14.118787 21474 layer_factory.hpp:77] Creating layer inception_4c/relu_3x3
I0403 16:49:14.118808 21474 net.cpp:91] Creating Layer inception_4c/relu_3x3
I0403 16:49:14.118824 21474 net.cpp:425] inception_4c/relu_3x3 <- inception_4c/3x3
I0403 16:49:14.118841 21474 net.cpp:386] inception_4c/relu_3x3 -> inception_4c/3x3 (in-place)
I0403 16:49:14.119019 21474 net.cpp:141] Setting up inception_4c/relu_3x3
I0403 16:49:14.119045 21474 net.cpp:148] Top shape: 24 256 14 14 (1204224)
I0403 16:49:14.119058 21474 net.cpp:156] Memory required for data: 1047659808
I0403 16:49:14.119072 21474 layer_factory.hpp:77] Creating layer inception_4c/5x5_reduce
I0403 16:49:14.119094 21474 net.cpp:91] Creating Layer inception_4c/5x5_reduce
I0403 16:49:14.119112 21474 net.cpp:425] inception_4c/5x5_reduce <- inception_4b/output_inception_4b/output_0_split_2
I0403 16:49:14.119135 21474 net.cpp:399] inception_4c/5x5_reduce -> inception_4c/5x5_reduce
I0403 16:49:14.120209 21474 net.cpp:141] Setting up inception_4c/5x5_reduce
I0403 16:49:14.120237 21474 net.cpp:148] Top shape: 24 24 14 14 (112896)
I0403 16:49:14.120252 21474 net.cpp:156] Memory required for data: 1048111392
I0403 16:49:14.120270 21474 layer_factory.hpp:77] Creating layer inception_4c/relu_5x5_reduce
I0403 16:49:14.120290 21474 net.cpp:91] Creating Layer inception_4c/relu_5x5_reduce
I0403 16:49:14.120307 21474 net.cpp:425] inception_4c/relu_5x5_reduce <- inception_4c/5x5_reduce
I0403 16:49:14.120335 21474 net.cpp:386] inception_4c/relu_5x5_reduce -> inception_4c/5x5_reduce (in-place)
I0403 16:49:14.120512 21474 net.cpp:141] Setting up inception_4c/relu_5x5_reduce
I0403 16:49:14.120539 21474 net.cpp:148] Top shape: 24 24 14 14 (112896)
I0403 16:49:14.120554 21474 net.cpp:156] Memory required for data: 1048562976
I0403 16:49:14.120568 21474 layer_factory.hpp:77] Creating layer inception_4c/5x5
I0403 16:49:14.120589 21474 net.cpp:91] Creating Layer inception_4c/5x5
I0403 16:49:14.120606 21474 net.cpp:425] inception_4c/5x5 <- inception_4c/5x5_reduce
I0403 16:49:14.120625 21474 net.cpp:399] inception_4c/5x5 -> inception_4c/5x5
I0403 16:49:14.121881 21474 net.cpp:141] Setting up inception_4c/5x5
I0403 16:49:14.121912 21474 net.cpp:148] Top shape: 24 64 14 14 (301056)
I0403 16:49:14.121927 21474 net.cpp:156] Memory required for data: 1049767200
I0403 16:49:14.121947 21474 layer_factory.hpp:77] Creating layer inception_4c/relu_5x5
I0403 16:49:14.121965 21474 net.cpp:91] Creating Layer inception_4c/relu_5x5
I0403 16:49:14.121981 21474 net.cpp:425] inception_4c/relu_5x5 <- inception_4c/5x5
I0403 16:49:14.121999 21474 net.cpp:386] inception_4c/relu_5x5 -> inception_4c/5x5 (in-place)
I0403 16:49:14.122305 21474 net.cpp:141] Setting up inception_4c/relu_5x5
I0403 16:49:14.122334 21474 net.cpp:148] Top shape: 24 64 14 14 (301056)
I0403 16:49:14.122349 21474 net.cpp:156] Memory required for data: 1050971424
I0403 16:49:14.122364 21474 layer_factory.hpp:77] Creating layer inception_4c/pool
I0403 16:49:14.122381 21474 net.cpp:91] Creating Layer inception_4c/pool
I0403 16:49:14.122397 21474 net.cpp:425] inception_4c/pool <- inception_4b/output_inception_4b/output_0_split_3
I0403 16:49:14.122416 21474 net.cpp:399] inception_4c/pool -> inception_4c/pool
I0403 16:49:14.122479 21474 net.cpp:141] Setting up inception_4c/pool
I0403 16:49:14.122503 21474 net.cpp:148] Top shape: 24 512 14 14 (2408448)
I0403 16:49:14.122517 21474 net.cpp:156] Memory required for data: 1060605216
I0403 16:49:14.122531 21474 layer_factory.hpp:77] Creating layer inception_4c/pool_proj
I0403 16:49:14.122552 21474 net.cpp:91] Creating Layer inception_4c/pool_proj
I0403 16:49:14.122570 21474 net.cpp:425] inception_4c/pool_proj <- inception_4c/pool
I0403 16:49:14.122592 21474 net.cpp:399] inception_4c/pool_proj -> inception_4c/pool_proj
I0403 16:49:14.123816 21474 net.cpp:141] Setting up inception_4c/pool_proj
I0403 16:49:14.123844 21474 net.cpp:148] Top shape: 24 64 14 14 (301056)
I0403 16:49:14.123873 21474 net.cpp:156] Memory required for data: 1061809440
I0403 16:49:14.123893 21474 layer_factory.hpp:77] Creating layer inception_4c/relu_pool_proj
I0403 16:49:14.123914 21474 net.cpp:91] Creating Layer inception_4c/relu_pool_proj
I0403 16:49:14.123930 21474 net.cpp:425] inception_4c/relu_pool_proj <- inception_4c/pool_proj
I0403 16:49:14.123947 21474 net.cpp:386] inception_4c/relu_pool_proj -> inception_4c/pool_proj (in-place)
I0403 16:49:14.124151 21474 net.cpp:141] Setting up inception_4c/relu_pool_proj
I0403 16:49:14.124179 21474 net.cpp:148] Top shape: 24 64 14 14 (301056)
I0403 16:49:14.124196 21474 net.cpp:156] Memory required for data: 1063013664
I0403 16:49:14.124210 21474 layer_factory.hpp:77] Creating layer inception_4c/output
I0403 16:49:14.124228 21474 net.cpp:91] Creating Layer inception_4c/output
I0403 16:49:14.124243 21474 net.cpp:425] inception_4c/output <- inception_4c/1x1
I0403 16:49:14.124260 21474 net.cpp:425] inception_4c/output <- inception_4c/3x3
I0403 16:49:14.124276 21474 net.cpp:425] inception_4c/output <- inception_4c/5x5
I0403 16:49:14.124292 21474 net.cpp:425] inception_4c/output <- inception_4c/pool_proj
I0403 16:49:14.124310 21474 net.cpp:399] inception_4c/output -> inception_4c/output
I0403 16:49:14.124368 21474 net.cpp:141] Setting up inception_4c/output
I0403 16:49:14.124392 21474 net.cpp:148] Top shape: 24 512 14 14 (2408448)
I0403 16:49:14.124405 21474 net.cpp:156] Memory required for data: 1072647456
I0403 16:49:14.124419 21474 layer_factory.hpp:77] Creating layer inception_4c/output_inception_4c/output_0_split
I0403 16:49:14.124439 21474 net.cpp:91] Creating Layer inception_4c/output_inception_4c/output_0_split
I0403 16:49:14.124455 21474 net.cpp:425] inception_4c/output_inception_4c/output_0_split <- inception_4c/output
I0403 16:49:14.124474 21474 net.cpp:399] inception_4c/output_inception_4c/output_0_split -> inception_4c/output_inception_4c/output_0_split_0
I0403 16:49:14.124492 21474 net.cpp:399] inception_4c/output_inception_4c/output_0_split -> inception_4c/output_inception_4c/output_0_split_1
I0403 16:49:14.124511 21474 net.cpp:399] inception_4c/output_inception_4c/output_0_split -> inception_4c/output_inception_4c/output_0_split_2
I0403 16:49:14.124531 21474 net.cpp:399] inception_4c/output_inception_4c/output_0_split -> inception_4c/output_inception_4c/output_0_split_3
I0403 16:49:14.124619 21474 net.cpp:141] Setting up inception_4c/output_inception_4c/output_0_split
I0403 16:49:14.124641 21474 net.cpp:148] Top shape: 24 512 14 14 (2408448)
I0403 16:49:14.124657 21474 net.cpp:148] Top shape: 24 512 14 14 (2408448)
I0403 16:49:14.124672 21474 net.cpp:148] Top shape: 24 512 14 14 (2408448)
I0403 16:49:14.124687 21474 net.cpp:148] Top shape: 24 512 14 14 (2408448)
I0403 16:49:14.124701 21474 net.cpp:156] Memory required for data: 1111182624
I0403 16:49:14.124713 21474 layer_factory.hpp:77] Creating layer inception_4d/1x1
I0403 16:49:14.124735 21474 net.cpp:91] Creating Layer inception_4d/1x1
I0403 16:49:14.124753 21474 net.cpp:425] inception_4d/1x1 <- inception_4c/output_inception_4c/output_0_split_0
I0403 16:49:14.124774 21474 net.cpp:399] inception_4d/1x1 -> inception_4d/1x1
I0403 16:49:14.126165 21474 net.cpp:141] Setting up inception_4d/1x1
I0403 16:49:14.126194 21474 net.cpp:148] Top shape: 24 112 14 14 (526848)
I0403 16:49:14.126209 21474 net.cpp:156] Memory required for data: 1113290016
I0403 16:49:14.126226 21474 layer_factory.hpp:77] Creating layer inception_4d/relu_1x1
I0403 16:49:14.126245 21474 net.cpp:91] Creating Layer inception_4d/relu_1x1
I0403 16:49:14.126260 21474 net.cpp:425] inception_4d/relu_1x1 <- inception_4d/1x1
I0403 16:49:14.126281 21474 net.cpp:386] inception_4d/relu_1x1 -> inception_4d/1x1 (in-place)
I0403 16:49:14.126466 21474 net.cpp:141] Setting up inception_4d/relu_1x1
I0403 16:49:14.126489 21474 net.cpp:148] Top shape: 24 112 14 14 (526848)
I0403 16:49:14.126504 21474 net.cpp:156] Memory required for data: 1115397408
I0403 16:49:14.126518 21474 layer_factory.hpp:77] Creating layer inception_4d/3x3_reduce
I0403 16:49:14.126554 21474 net.cpp:91] Creating Layer inception_4d/3x3_reduce
I0403 16:49:14.126574 21474 net.cpp:425] inception_4d/3x3_reduce <- inception_4c/output_inception_4c/output_0_split_1
I0403 16:49:14.126596 21474 net.cpp:399] inception_4d/3x3_reduce -> inception_4d/3x3_reduce
I0403 16:49:14.128137 21474 net.cpp:141] Setting up inception_4d/3x3_reduce
I0403 16:49:14.128167 21474 net.cpp:148] Top shape: 24 144 14 14 (677376)
I0403 16:49:14.128183 21474 net.cpp:156] Memory required for data: 1118106912
I0403 16:49:14.128201 21474 layer_factory.hpp:77] Creating layer inception_4d/relu_3x3_reduce
I0403 16:49:14.128219 21474 net.cpp:91] Creating Layer inception_4d/relu_3x3_reduce
I0403 16:49:14.128235 21474 net.cpp:425] inception_4d/relu_3x3_reduce <- inception_4d/3x3_reduce
I0403 16:49:14.128254 21474 net.cpp:386] inception_4d/relu_3x3_reduce -> inception_4d/3x3_reduce (in-place)
I0403 16:49:14.128550 21474 net.cpp:141] Setting up inception_4d/relu_3x3_reduce
I0403 16:49:14.128577 21474 net.cpp:148] Top shape: 24 144 14 14 (677376)
I0403 16:49:14.128593 21474 net.cpp:156] Memory required for data: 1120816416
I0403 16:49:14.128607 21474 layer_factory.hpp:77] Creating layer inception_4d/3x3
I0403 16:49:14.128630 21474 net.cpp:91] Creating Layer inception_4d/3x3
I0403 16:49:14.128648 21474 net.cpp:425] inception_4d/3x3 <- inception_4d/3x3_reduce
I0403 16:49:14.128666 21474 net.cpp:399] inception_4d/3x3 -> inception_4d/3x3
I0403 16:49:14.132901 21474 net.cpp:141] Setting up inception_4d/3x3
I0403 16:49:14.132930 21474 net.cpp:148] Top shape: 24 288 14 14 (1354752)
I0403 16:49:14.132946 21474 net.cpp:156] Memory required for data: 1126235424
I0403 16:49:14.132966 21474 layer_factory.hpp:77] Creating layer inception_4d/relu_3x3
I0403 16:49:14.132985 21474 net.cpp:91] Creating Layer inception_4d/relu_3x3
I0403 16:49:14.133002 21474 net.cpp:425] inception_4d/relu_3x3 <- inception_4d/3x3
I0403 16:49:14.133023 21474 net.cpp:386] inception_4d/relu_3x3 -> inception_4d/3x3 (in-place)
I0403 16:49:14.133206 21474 net.cpp:141] Setting up inception_4d/relu_3x3
I0403 16:49:14.133231 21474 net.cpp:148] Top shape: 24 288 14 14 (1354752)
I0403 16:49:14.133246 21474 net.cpp:156] Memory required for data: 1131654432
I0403 16:49:14.133260 21474 layer_factory.hpp:77] Creating layer inception_4d/5x5_reduce
I0403 16:49:14.133283 21474 net.cpp:91] Creating Layer inception_4d/5x5_reduce
I0403 16:49:14.133301 21474 net.cpp:425] inception_4d/5x5_reduce <- inception_4c/output_inception_4c/output_0_split_2
I0403 16:49:14.133323 21474 net.cpp:399] inception_4d/5x5_reduce -> inception_4d/5x5_reduce
I0403 16:49:14.134470 21474 net.cpp:141] Setting up inception_4d/5x5_reduce
I0403 16:49:14.134498 21474 net.cpp:148] Top shape: 24 32 14 14 (150528)
I0403 16:49:14.134513 21474 net.cpp:156] Memory required for data: 1132256544
I0403 16:49:14.134531 21474 layer_factory.hpp:77] Creating layer inception_4d/relu_5x5_reduce
I0403 16:49:14.134549 21474 net.cpp:91] Creating Layer inception_4d/relu_5x5_reduce
I0403 16:49:14.134565 21474 net.cpp:425] inception_4d/relu_5x5_reduce <- inception_4d/5x5_reduce
I0403 16:49:14.134584 21474 net.cpp:386] inception_4d/relu_5x5_reduce -> inception_4d/5x5_reduce (in-place)
I0403 16:49:14.134771 21474 net.cpp:141] Setting up inception_4d/relu_5x5_reduce
I0403 16:49:14.134796 21474 net.cpp:148] Top shape: 24 32 14 14 (150528)
I0403 16:49:14.134811 21474 net.cpp:156] Memory required for data: 1132858656
I0403 16:49:14.134825 21474 layer_factory.hpp:77] Creating layer inception_4d/5x5
I0403 16:49:14.134847 21474 net.cpp:91] Creating Layer inception_4d/5x5
I0403 16:49:14.134865 21474 net.cpp:425] inception_4d/5x5 <- inception_4d/5x5_reduce
I0403 16:49:14.134886 21474 net.cpp:399] inception_4d/5x5 -> inception_4d/5x5
I0403 16:49:14.136365 21474 net.cpp:141] Setting up inception_4d/5x5
I0403 16:49:14.136392 21474 net.cpp:148] Top shape: 24 64 14 14 (301056)
I0403 16:49:14.136407 21474 net.cpp:156] Memory required for data: 1134062880
I0403 16:49:14.136426 21474 layer_factory.hpp:77] Creating layer inception_4d/relu_5x5
I0403 16:49:14.136461 21474 net.cpp:91] Creating Layer inception_4d/relu_5x5
I0403 16:49:14.136477 21474 net.cpp:425] inception_4d/relu_5x5 <- inception_4d/5x5
I0403 16:49:14.136494 21474 net.cpp:386] inception_4d/relu_5x5 -> inception_4d/5x5 (in-place)
I0403 16:49:14.136795 21474 net.cpp:141] Setting up inception_4d/relu_5x5
I0403 16:49:14.136821 21474 net.cpp:148] Top shape: 24 64 14 14 (301056)
I0403 16:49:14.136837 21474 net.cpp:156] Memory required for data: 1135267104
I0403 16:49:14.136852 21474 layer_factory.hpp:77] Creating layer inception_4d/pool
I0403 16:49:14.136870 21474 net.cpp:91] Creating Layer inception_4d/pool
I0403 16:49:14.136888 21474 net.cpp:425] inception_4d/pool <- inception_4c/output_inception_4c/output_0_split_3
I0403 16:49:14.136904 21474 net.cpp:399] inception_4d/pool -> inception_4d/pool
I0403 16:49:14.136972 21474 net.cpp:141] Setting up inception_4d/pool
I0403 16:49:14.136996 21474 net.cpp:148] Top shape: 24 512 14 14 (2408448)
I0403 16:49:14.137011 21474 net.cpp:156] Memory required for data: 1144900896
I0403 16:49:14.137030 21474 layer_factory.hpp:77] Creating layer inception_4d/pool_proj
I0403 16:49:14.137053 21474 net.cpp:91] Creating Layer inception_4d/pool_proj
I0403 16:49:14.137071 21474 net.cpp:425] inception_4d/pool_proj <- inception_4d/pool
I0403 16:49:14.137091 21474 net.cpp:399] inception_4d/pool_proj -> inception_4d/pool_proj
I0403 16:49:14.138881 21474 net.cpp:141] Setting up inception_4d/pool_proj
I0403 16:49:14.138911 21474 net.cpp:148] Top shape: 24 64 14 14 (301056)
I0403 16:49:14.138926 21474 net.cpp:156] Memory required for data: 1146105120
I0403 16:49:14.138945 21474 layer_factory.hpp:77] Creating layer inception_4d/relu_pool_proj
I0403 16:49:14.138967 21474 net.cpp:91] Creating Layer inception_4d/relu_pool_proj
I0403 16:49:14.138983 21474 net.cpp:425] inception_4d/relu_pool_proj <- inception_4d/pool_proj
I0403 16:49:14.139000 21474 net.cpp:386] inception_4d/relu_pool_proj -> inception_4d/pool_proj (in-place)
I0403 16:49:14.139197 21474 net.cpp:141] Setting up inception_4d/relu_pool_proj
I0403 16:49:14.139222 21474 net.cpp:148] Top shape: 24 64 14 14 (301056)
I0403 16:49:14.139237 21474 net.cpp:156] Memory required for data: 1147309344
I0403 16:49:14.139252 21474 layer_factory.hpp:77] Creating layer inception_4d/output
I0403 16:49:14.139272 21474 net.cpp:91] Creating Layer inception_4d/output
I0403 16:49:14.139289 21474 net.cpp:425] inception_4d/output <- inception_4d/1x1
I0403 16:49:14.139305 21474 net.cpp:425] inception_4d/output <- inception_4d/3x3
I0403 16:49:14.139322 21474 net.cpp:425] inception_4d/output <- inception_4d/5x5
I0403 16:49:14.139336 21474 net.cpp:425] inception_4d/output <- inception_4d/pool_proj
I0403 16:49:14.139353 21474 net.cpp:399] inception_4d/output -> inception_4d/output
I0403 16:49:14.139401 21474 net.cpp:141] Setting up inception_4d/output
I0403 16:49:14.139425 21474 net.cpp:148] Top shape: 24 528 14 14 (2483712)
I0403 16:49:14.139438 21474 net.cpp:156] Memory required for data: 1157244192
I0403 16:49:14.139464 21474 layer_factory.hpp:77] Creating layer inception_4d/output_inception_4d/output_0_split
I0403 16:49:14.139482 21474 net.cpp:91] Creating Layer inception_4d/output_inception_4d/output_0_split
I0403 16:49:14.139497 21474 net.cpp:425] inception_4d/output_inception_4d/output_0_split <- inception_4d/output
I0403 16:49:14.139514 21474 net.cpp:399] inception_4d/output_inception_4d/output_0_split -> inception_4d/output_inception_4d/output_0_split_0
I0403 16:49:14.139534 21474 net.cpp:399] inception_4d/output_inception_4d/output_0_split -> inception_4d/output_inception_4d/output_0_split_1
I0403 16:49:14.139554 21474 net.cpp:399] inception_4d/output_inception_4d/output_0_split -> inception_4d/output_inception_4d/output_0_split_2
I0403 16:49:14.139574 21474 net.cpp:399] inception_4d/output_inception_4d/output_0_split -> inception_4d/output_inception_4d/output_0_split_3
I0403 16:49:14.139592 21474 net.cpp:399] inception_4d/output_inception_4d/output_0_split -> inception_4d/output_inception_4d/output_0_split_4
I0403 16:49:14.139694 21474 net.cpp:141] Setting up inception_4d/output_inception_4d/output_0_split
I0403 16:49:14.139732 21474 net.cpp:148] Top shape: 24 528 14 14 (2483712)
I0403 16:49:14.139749 21474 net.cpp:148] Top shape: 24 528 14 14 (2483712)
I0403 16:49:14.139763 21474 net.cpp:148] Top shape: 24 528 14 14 (2483712)
I0403 16:49:14.139777 21474 net.cpp:148] Top shape: 24 528 14 14 (2483712)
I0403 16:49:14.139791 21474 net.cpp:148] Top shape: 24 528 14 14 (2483712)
I0403 16:49:14.139804 21474 net.cpp:156] Memory required for data: 1206918432
I0403 16:49:14.139818 21474 layer_factory.hpp:77] Creating layer loss2/ave_pool
I0403 16:49:14.139835 21474 net.cpp:91] Creating Layer loss2/ave_pool
I0403 16:49:14.139850 21474 net.cpp:425] loss2/ave_pool <- inception_4d/output_inception_4d/output_0_split_0
I0403 16:49:14.139869 21474 net.cpp:399] loss2/ave_pool -> loss2/ave_pool
I0403 16:49:14.140177 21474 net.cpp:141] Setting up loss2/ave_pool
I0403 16:49:14.140202 21474 net.cpp:148] Top shape: 24 528 4 4 (202752)
I0403 16:49:14.140218 21474 net.cpp:156] Memory required for data: 1207729440
I0403 16:49:14.140231 21474 layer_factory.hpp:77] Creating layer loss2/conv
I0403 16:49:14.140254 21474 net.cpp:91] Creating Layer loss2/conv
I0403 16:49:14.140271 21474 net.cpp:425] loss2/conv <- loss2/ave_pool
I0403 16:49:14.140291 21474 net.cpp:399] loss2/conv -> loss2/conv
I0403 16:49:14.142134 21474 net.cpp:141] Setting up loss2/conv
I0403 16:49:14.142163 21474 net.cpp:148] Top shape: 24 128 4 4 (49152)
I0403 16:49:14.142176 21474 net.cpp:156] Memory required for data: 1207926048
I0403 16:49:14.142194 21474 layer_factory.hpp:77] Creating layer loss2/relu_conv
I0403 16:49:14.142215 21474 net.cpp:91] Creating Layer loss2/relu_conv
I0403 16:49:14.142230 21474 net.cpp:425] loss2/relu_conv <- loss2/conv
I0403 16:49:14.142247 21474 net.cpp:386] loss2/relu_conv -> loss2/conv (in-place)
I0403 16:49:14.142529 21474 net.cpp:141] Setting up loss2/relu_conv
I0403 16:49:14.142554 21474 net.cpp:148] Top shape: 24 128 4 4 (49152)
I0403 16:49:14.142568 21474 net.cpp:156] Memory required for data: 1208122656
I0403 16:49:14.142582 21474 layer_factory.hpp:77] Creating layer loss2/fc
I0403 16:49:14.142602 21474 net.cpp:91] Creating Layer loss2/fc
I0403 16:49:14.142618 21474 net.cpp:425] loss2/fc <- loss2/conv
I0403 16:49:14.142638 21474 net.cpp:399] loss2/fc -> loss2/fc
I0403 16:49:14.160228 21474 net.cpp:141] Setting up loss2/fc
I0403 16:49:14.160264 21474 net.cpp:148] Top shape: 24 1024 (24576)
I0403 16:49:14.160279 21474 net.cpp:156] Memory required for data: 1208220960
I0403 16:49:14.160298 21474 layer_factory.hpp:77] Creating layer loss2/relu_fc
I0403 16:49:14.160317 21474 net.cpp:91] Creating Layer loss2/relu_fc
I0403 16:49:14.160334 21474 net.cpp:425] loss2/relu_fc <- loss2/fc
I0403 16:49:14.160353 21474 net.cpp:386] loss2/relu_fc -> loss2/fc (in-place)
I0403 16:49:14.160676 21474 net.cpp:141] Setting up loss2/relu_fc
I0403 16:49:14.160701 21474 net.cpp:148] Top shape: 24 1024 (24576)
I0403 16:49:14.160715 21474 net.cpp:156] Memory required for data: 1208319264
I0403 16:49:14.160732 21474 layer_factory.hpp:77] Creating layer loss2/drop_fc
I0403 16:49:14.160749 21474 net.cpp:91] Creating Layer loss2/drop_fc
I0403 16:49:14.160765 21474 net.cpp:425] loss2/drop_fc <- loss2/fc
I0403 16:49:14.160784 21474 net.cpp:386] loss2/drop_fc -> loss2/fc (in-place)
I0403 16:49:14.160836 21474 net.cpp:141] Setting up loss2/drop_fc
I0403 16:49:14.160859 21474 net.cpp:148] Top shape: 24 1024 (24576)
I0403 16:49:14.160874 21474 net.cpp:156] Memory required for data: 1208417568
I0403 16:49:14.160888 21474 layer_factory.hpp:77] Creating layer loss2/classifier_plantvillage
I0403 16:49:14.160907 21474 net.cpp:91] Creating Layer loss2/classifier_plantvillage
I0403 16:49:14.160923 21474 net.cpp:425] loss2/classifier_plantvillage <- loss2/fc
I0403 16:49:14.160944 21474 net.cpp:399] loss2/classifier_plantvillage -> loss2/classifier_plantvillage
I0403 16:49:14.161363 21474 net.cpp:141] Setting up loss2/classifier_plantvillage
I0403 16:49:14.161388 21474 net.cpp:148] Top shape: 24 38 (912)
I0403 16:49:14.161427 21474 net.cpp:156] Memory required for data: 1208421216
I0403 16:49:14.161447 21474 layer_factory.hpp:77] Creating layer loss2/classifier_plantvillage_loss2/classifier_plantvillage_0_split
I0403 16:49:14.161468 21474 net.cpp:91] Creating Layer loss2/classifier_plantvillage_loss2/classifier_plantvillage_0_split
I0403 16:49:14.161484 21474 net.cpp:425] loss2/classifier_plantvillage_loss2/classifier_plantvillage_0_split <- loss2/classifier_plantvillage
I0403 16:49:14.161501 21474 net.cpp:399] loss2/classifier_plantvillage_loss2/classifier_plantvillage_0_split -> loss2/classifier_plantvillage_loss2/classifier_plantvillage_0_split_0
I0403 16:49:14.161523 21474 net.cpp:399] loss2/classifier_plantvillage_loss2/classifier_plantvillage_0_split -> loss2/classifier_plantvillage_loss2/classifier_plantvillage_0_split_1
I0403 16:49:14.161545 21474 net.cpp:399] loss2/classifier_plantvillage_loss2/classifier_plantvillage_0_split -> loss2/classifier_plantvillage_loss2/classifier_plantvillage_0_split_2
I0403 16:49:14.161622 21474 net.cpp:141] Setting up loss2/classifier_plantvillage_loss2/classifier_plantvillage_0_split
I0403 16:49:14.161644 21474 net.cpp:148] Top shape: 24 38 (912)
I0403 16:49:14.161660 21474 net.cpp:148] Top shape: 24 38 (912)
I0403 16:49:14.161675 21474 net.cpp:148] Top shape: 24 38 (912)
I0403 16:49:14.161689 21474 net.cpp:156] Memory required for data: 1208432160
I0403 16:49:14.161702 21474 layer_factory.hpp:77] Creating layer inception_4e/1x1
I0403 16:49:14.161725 21474 net.cpp:91] Creating Layer inception_4e/1x1
I0403 16:49:14.161743 21474 net.cpp:425] inception_4e/1x1 <- inception_4d/output_inception_4d/output_0_split_1
I0403 16:49:14.161762 21474 net.cpp:399] inception_4e/1x1 -> inception_4e/1x1
I0403 16:49:14.163640 21474 net.cpp:141] Setting up inception_4e/1x1
I0403 16:49:14.163669 21474 net.cpp:148] Top shape: 24 256 14 14 (1204224)
I0403 16:49:14.163686 21474 net.cpp:156] Memory required for data: 1213249056
I0403 16:49:14.163703 21474 layer_factory.hpp:77] Creating layer inception_4e/relu_1x1
I0403 16:49:14.163722 21474 net.cpp:91] Creating Layer inception_4e/relu_1x1
I0403 16:49:14.163738 21474 net.cpp:425] inception_4e/relu_1x1 <- inception_4e/1x1
I0403 16:49:14.163755 21474 net.cpp:386] inception_4e/relu_1x1 -> inception_4e/1x1 (in-place)
I0403 16:49:14.164057 21474 net.cpp:141] Setting up inception_4e/relu_1x1
I0403 16:49:14.164084 21474 net.cpp:148] Top shape: 24 256 14 14 (1204224)
I0403 16:49:14.164100 21474 net.cpp:156] Memory required for data: 1218065952
I0403 16:49:14.164115 21474 layer_factory.hpp:77] Creating layer inception_4e/3x3_reduce
I0403 16:49:14.164137 21474 net.cpp:91] Creating Layer inception_4e/3x3_reduce
I0403 16:49:14.164155 21474 net.cpp:425] inception_4e/3x3_reduce <- inception_4d/output_inception_4d/output_0_split_2
I0403 16:49:14.164175 21474 net.cpp:399] inception_4e/3x3_reduce -> inception_4e/3x3_reduce
I0403 16:49:14.166332 21474 net.cpp:141] Setting up inception_4e/3x3_reduce
I0403 16:49:14.166360 21474 net.cpp:148] Top shape: 24 160 14 14 (752640)
I0403 16:49:14.166376 21474 net.cpp:156] Memory required for data: 1221076512
I0403 16:49:14.166393 21474 layer_factory.hpp:77] Creating layer inception_4e/relu_3x3_reduce
I0403 16:49:14.166414 21474 net.cpp:91] Creating Layer inception_4e/relu_3x3_reduce
I0403 16:49:14.166431 21474 net.cpp:425] inception_4e/relu_3x3_reduce <- inception_4e/3x3_reduce
I0403 16:49:14.166448 21474 net.cpp:386] inception_4e/relu_3x3_reduce -> inception_4e/3x3_reduce (in-place)
I0403 16:49:14.166631 21474 net.cpp:141] Setting up inception_4e/relu_3x3_reduce
I0403 16:49:14.166659 21474 net.cpp:148] Top shape: 24 160 14 14 (752640)
I0403 16:49:14.166674 21474 net.cpp:156] Memory required for data: 1224087072
I0403 16:49:14.166688 21474 layer_factory.hpp:77] Creating layer inception_4e/3x3
I0403 16:49:14.166712 21474 net.cpp:91] Creating Layer inception_4e/3x3
I0403 16:49:14.166729 21474 net.cpp:425] inception_4e/3x3 <- inception_4e/3x3_reduce
I0403 16:49:14.166748 21474 net.cpp:399] inception_4e/3x3 -> inception_4e/3x3
I0403 16:49:14.171783 21474 net.cpp:141] Setting up inception_4e/3x3
I0403 16:49:14.171826 21474 net.cpp:148] Top shape: 24 320 14 14 (1505280)
I0403 16:49:14.171844 21474 net.cpp:156] Memory required for data: 1230108192
I0403 16:49:14.171862 21474 layer_factory.hpp:77] Creating layer inception_4e/relu_3x3
I0403 16:49:14.171880 21474 net.cpp:91] Creating Layer inception_4e/relu_3x3
I0403 16:49:14.171895 21474 net.cpp:425] inception_4e/relu_3x3 <- inception_4e/3x3
I0403 16:49:14.171913 21474 net.cpp:386] inception_4e/relu_3x3 -> inception_4e/3x3 (in-place)
I0403 16:49:14.172224 21474 net.cpp:141] Setting up inception_4e/relu_3x3
I0403 16:49:14.172251 21474 net.cpp:148] Top shape: 24 320 14 14 (1505280)
I0403 16:49:14.172266 21474 net.cpp:156] Memory required for data: 1236129312
I0403 16:49:14.172281 21474 layer_factory.hpp:77] Creating layer inception_4e/5x5_reduce
I0403 16:49:14.172304 21474 net.cpp:91] Creating Layer inception_4e/5x5_reduce
I0403 16:49:14.172322 21474 net.cpp:425] inception_4e/5x5_reduce <- inception_4d/output_inception_4d/output_0_split_3
I0403 16:49:14.172343 21474 net.cpp:399] inception_4e/5x5_reduce -> inception_4e/5x5_reduce
I0403 16:49:14.173418 21474 net.cpp:141] Setting up inception_4e/5x5_reduce
I0403 16:49:14.173444 21474 net.cpp:148] Top shape: 24 32 14 14 (150528)
I0403 16:49:14.173460 21474 net.cpp:156] Memory required for data: 1236731424
I0403 16:49:14.173477 21474 layer_factory.hpp:77] Creating layer inception_4e/relu_5x5_reduce
I0403 16:49:14.173498 21474 net.cpp:91] Creating Layer inception_4e/relu_5x5_reduce
I0403 16:49:14.173516 21474 net.cpp:425] inception_4e/relu_5x5_reduce <- inception_4e/5x5_reduce
I0403 16:49:14.173533 21474 net.cpp:386] inception_4e/relu_5x5_reduce -> inception_4e/5x5_reduce (in-place)
I0403 16:49:14.173836 21474 net.cpp:141] Setting up inception_4e/relu_5x5_reduce
I0403 16:49:14.173861 21474 net.cpp:148] Top shape: 24 32 14 14 (150528)
I0403 16:49:14.173877 21474 net.cpp:156] Memory required for data: 1237333536
I0403 16:49:14.173892 21474 layer_factory.hpp:77] Creating layer inception_4e/5x5
I0403 16:49:14.173931 21474 net.cpp:91] Creating Layer inception_4e/5x5
I0403 16:49:14.173950 21474 net.cpp:425] inception_4e/5x5 <- inception_4e/5x5_reduce
I0403 16:49:14.173974 21474 net.cpp:399] inception_4e/5x5 -> inception_4e/5x5
I0403 16:49:14.175936 21474 net.cpp:141] Setting up inception_4e/5x5
I0403 16:49:14.175964 21474 net.cpp:148] Top shape: 24 128 14 14 (602112)
I0403 16:49:14.175981 21474 net.cpp:156] Memory required for data: 1239741984
I0403 16:49:14.176000 21474 layer_factory.hpp:77] Creating layer inception_4e/relu_5x5
I0403 16:49:14.176024 21474 net.cpp:91] Creating Layer inception_4e/relu_5x5
I0403 16:49:14.176043 21474 net.cpp:425] inception_4e/relu_5x5 <- inception_4e/5x5
I0403 16:49:14.176060 21474 net.cpp:386] inception_4e/relu_5x5 -> inception_4e/5x5 (in-place)
I0403 16:49:14.176262 21474 net.cpp:141] Setting up inception_4e/relu_5x5
I0403 16:49:14.176288 21474 net.cpp:148] Top shape: 24 128 14 14 (602112)
I0403 16:49:14.176302 21474 net.cpp:156] Memory required for data: 1242150432
I0403 16:49:14.176317 21474 layer_factory.hpp:77] Creating layer inception_4e/pool
I0403 16:49:14.176338 21474 net.cpp:91] Creating Layer inception_4e/pool
I0403 16:49:14.176355 21474 net.cpp:425] inception_4e/pool <- inception_4d/output_inception_4d/output_0_split_4
I0403 16:49:14.176373 21474 net.cpp:399] inception_4e/pool -> inception_4e/pool
I0403 16:49:14.176446 21474 net.cpp:141] Setting up inception_4e/pool
I0403 16:49:14.176471 21474 net.cpp:148] Top shape: 24 528 14 14 (2483712)
I0403 16:49:14.176486 21474 net.cpp:156] Memory required for data: 1252085280
I0403 16:49:14.176501 21474 layer_factory.hpp:77] Creating layer inception_4e/pool_proj
I0403 16:49:14.176524 21474 net.cpp:91] Creating Layer inception_4e/pool_proj
I0403 16:49:14.176542 21474 net.cpp:425] inception_4e/pool_proj <- inception_4e/pool
I0403 16:49:14.176564 21474 net.cpp:399] inception_4e/pool_proj -> inception_4e/pool_proj
I0403 16:49:14.178138 21474 net.cpp:141] Setting up inception_4e/pool_proj
I0403 16:49:14.178180 21474 net.cpp:148] Top shape: 24 128 14 14 (602112)
I0403 16:49:14.178196 21474 net.cpp:156] Memory required for data: 1254493728
I0403 16:49:14.178216 21474 layer_factory.hpp:77] Creating layer inception_4e/relu_pool_proj
I0403 16:49:14.178238 21474 net.cpp:91] Creating Layer inception_4e/relu_pool_proj
I0403 16:49:14.178256 21474 net.cpp:425] inception_4e/relu_pool_proj <- inception_4e/pool_proj
I0403 16:49:14.178274 21474 net.cpp:386] inception_4e/relu_pool_proj -> inception_4e/pool_proj (in-place)
I0403 16:49:14.178586 21474 net.cpp:141] Setting up inception_4e/relu_pool_proj
I0403 16:49:14.178612 21474 net.cpp:148] Top shape: 24 128 14 14 (602112)
I0403 16:49:14.178628 21474 net.cpp:156] Memory required for data: 1256902176
I0403 16:49:14.178643 21474 layer_factory.hpp:77] Creating layer inception_4e/output
I0403 16:49:14.178663 21474 net.cpp:91] Creating Layer inception_4e/output
I0403 16:49:14.178679 21474 net.cpp:425] inception_4e/output <- inception_4e/1x1
I0403 16:49:14.178696 21474 net.cpp:425] inception_4e/output <- inception_4e/3x3
I0403 16:49:14.178714 21474 net.cpp:425] inception_4e/output <- inception_4e/5x5
I0403 16:49:14.178730 21474 net.cpp:425] inception_4e/output <- inception_4e/pool_proj
I0403 16:49:14.178748 21474 net.cpp:399] inception_4e/output -> inception_4e/output
I0403 16:49:14.178799 21474 net.cpp:141] Setting up inception_4e/output
I0403 16:49:14.178828 21474 net.cpp:148] Top shape: 24 832 14 14 (3913728)
I0403 16:49:14.178844 21474 net.cpp:156] Memory required for data: 1272557088
I0403 16:49:14.178858 21474 layer_factory.hpp:77] Creating layer pool4/3x3_s2
I0403 16:49:14.178876 21474 net.cpp:91] Creating Layer pool4/3x3_s2
I0403 16:49:14.178892 21474 net.cpp:425] pool4/3x3_s2 <- inception_4e/output
I0403 16:49:14.178915 21474 net.cpp:399] pool4/3x3_s2 -> pool4/3x3_s2
I0403 16:49:14.178983 21474 net.cpp:141] Setting up pool4/3x3_s2
I0403 16:49:14.179008 21474 net.cpp:148] Top shape: 24 832 7 7 (978432)
I0403 16:49:14.179028 21474 net.cpp:156] Memory required for data: 1276470816
I0403 16:49:14.179044 21474 layer_factory.hpp:77] Creating layer pool4/3x3_s2_pool4/3x3_s2_0_split
I0403 16:49:14.179064 21474 net.cpp:91] Creating Layer pool4/3x3_s2_pool4/3x3_s2_0_split
I0403 16:49:14.179081 21474 net.cpp:425] pool4/3x3_s2_pool4/3x3_s2_0_split <- pool4/3x3_s2
I0403 16:49:14.179098 21474 net.cpp:399] pool4/3x3_s2_pool4/3x3_s2_0_split -> pool4/3x3_s2_pool4/3x3_s2_0_split_0
I0403 16:49:14.179118 21474 net.cpp:399] pool4/3x3_s2_pool4/3x3_s2_0_split -> pool4/3x3_s2_pool4/3x3_s2_0_split_1
I0403 16:49:14.179139 21474 net.cpp:399] pool4/3x3_s2_pool4/3x3_s2_0_split -> pool4/3x3_s2_pool4/3x3_s2_0_split_2
I0403 16:49:14.179162 21474 net.cpp:399] pool4/3x3_s2_pool4/3x3_s2_0_split -> pool4/3x3_s2_pool4/3x3_s2_0_split_3
I0403 16:49:14.179258 21474 net.cpp:141] Setting up pool4/3x3_s2_pool4/3x3_s2_0_split
I0403 16:49:14.179282 21474 net.cpp:148] Top shape: 24 832 7 7 (978432)
I0403 16:49:14.179298 21474 net.cpp:148] Top shape: 24 832 7 7 (978432)
I0403 16:49:14.179314 21474 net.cpp:148] Top shape: 24 832 7 7 (978432)
I0403 16:49:14.179329 21474 net.cpp:148] Top shape: 24 832 7 7 (978432)
I0403 16:49:14.179343 21474 net.cpp:156] Memory required for data: 1292125728
I0403 16:49:14.179358 21474 layer_factory.hpp:77] Creating layer inception_5a/1x1
I0403 16:49:14.179380 21474 net.cpp:91] Creating Layer inception_5a/1x1
I0403 16:49:14.179397 21474 net.cpp:425] inception_5a/1x1 <- pool4/3x3_s2_pool4/3x3_s2_0_split_0
I0403 16:49:14.179419 21474 net.cpp:399] inception_5a/1x1 -> inception_5a/1x1
I0403 16:49:14.182356 21474 net.cpp:141] Setting up inception_5a/1x1
I0403 16:49:14.182386 21474 net.cpp:148] Top shape: 24 256 7 7 (301056)
I0403 16:49:14.182402 21474 net.cpp:156] Memory required for data: 1293329952
I0403 16:49:14.182421 21474 layer_factory.hpp:77] Creating layer inception_5a/relu_1x1
I0403 16:49:14.182441 21474 net.cpp:91] Creating Layer inception_5a/relu_1x1
I0403 16:49:14.182458 21474 net.cpp:425] inception_5a/relu_1x1 <- inception_5a/1x1
I0403 16:49:14.182476 21474 net.cpp:386] inception_5a/relu_1x1 -> inception_5a/1x1 (in-place)
I0403 16:49:14.182796 21474 net.cpp:141] Setting up inception_5a/relu_1x1
I0403 16:49:14.182822 21474 net.cpp:148] Top shape: 24 256 7 7 (301056)
I0403 16:49:14.182838 21474 net.cpp:156] Memory required for data: 1294534176
I0403 16:49:14.182853 21474 layer_factory.hpp:77] Creating layer inception_5a/3x3_reduce
I0403 16:49:14.182876 21474 net.cpp:91] Creating Layer inception_5a/3x3_reduce
I0403 16:49:14.182894 21474 net.cpp:425] inception_5a/3x3_reduce <- pool4/3x3_s2_pool4/3x3_s2_0_split_1
I0403 16:49:14.182916 21474 net.cpp:399] inception_5a/3x3_reduce -> inception_5a/3x3_reduce
I0403 16:49:14.185456 21474 net.cpp:141] Setting up inception_5a/3x3_reduce
I0403 16:49:14.185489 21474 net.cpp:148] Top shape: 24 160 7 7 (188160)
I0403 16:49:14.185506 21474 net.cpp:156] Memory required for data: 1295286816
I0403 16:49:14.185525 21474 layer_factory.hpp:77] Creating layer inception_5a/relu_3x3_reduce
I0403 16:49:14.185544 21474 net.cpp:91] Creating Layer inception_5a/relu_3x3_reduce
I0403 16:49:14.185561 21474 net.cpp:425] inception_5a/relu_3x3_reduce <- inception_5a/3x3_reduce
I0403 16:49:14.185581 21474 net.cpp:386] inception_5a/relu_3x3_reduce -> inception_5a/3x3_reduce (in-place)
I0403 16:49:14.185772 21474 net.cpp:141] Setting up inception_5a/relu_3x3_reduce
I0403 16:49:14.185798 21474 net.cpp:148] Top shape: 24 160 7 7 (188160)
I0403 16:49:14.185812 21474 net.cpp:156] Memory required for data: 1296039456
I0403 16:49:14.185827 21474 layer_factory.hpp:77] Creating layer inception_5a/3x3
I0403 16:49:14.185850 21474 net.cpp:91] Creating Layer inception_5a/3x3
I0403 16:49:14.185868 21474 net.cpp:425] inception_5a/3x3 <- inception_5a/3x3_reduce
I0403 16:49:14.185891 21474 net.cpp:399] inception_5a/3x3 -> inception_5a/3x3
I0403 16:49:14.191038 21474 net.cpp:141] Setting up inception_5a/3x3
I0403 16:49:14.191068 21474 net.cpp:148] Top shape: 24 320 7 7 (376320)
I0403 16:49:14.191083 21474 net.cpp:156] Memory required for data: 1297544736
I0403 16:49:14.191102 21474 layer_factory.hpp:77] Creating layer inception_5a/relu_3x3
I0403 16:49:14.191123 21474 net.cpp:91] Creating Layer inception_5a/relu_3x3
I0403 16:49:14.191140 21474 net.cpp:425] inception_5a/relu_3x3 <- inception_5a/3x3
I0403 16:49:14.191159 21474 net.cpp:386] inception_5a/relu_3x3 -> inception_5a/3x3 (in-place)
I0403 16:49:14.191452 21474 net.cpp:141] Setting up inception_5a/relu_3x3
I0403 16:49:14.191478 21474 net.cpp:148] Top shape: 24 320 7 7 (376320)
I0403 16:49:14.191493 21474 net.cpp:156] Memory required for data: 1299050016
I0403 16:49:14.191509 21474 layer_factory.hpp:77] Creating layer inception_5a/5x5_reduce
I0403 16:49:14.191530 21474 net.cpp:91] Creating Layer inception_5a/5x5_reduce
I0403 16:49:14.191548 21474 net.cpp:425] inception_5a/5x5_reduce <- pool4/3x3_s2_pool4/3x3_s2_0_split_2
I0403 16:49:14.191570 21474 net.cpp:399] inception_5a/5x5_reduce -> inception_5a/5x5_reduce
I0403 16:49:14.192745 21474 net.cpp:141] Setting up inception_5a/5x5_reduce
I0403 16:49:14.192773 21474 net.cpp:148] Top shape: 24 32 7 7 (37632)
I0403 16:49:14.192790 21474 net.cpp:156] Memory required for data: 1299200544
I0403 16:49:14.192808 21474 layer_factory.hpp:77] Creating layer inception_5a/relu_5x5_reduce
I0403 16:49:14.192841 21474 net.cpp:91] Creating Layer inception_5a/relu_5x5_reduce
I0403 16:49:14.192857 21474 net.cpp:425] inception_5a/relu_5x5_reduce <- inception_5a/5x5_reduce
I0403 16:49:14.192873 21474 net.cpp:386] inception_5a/relu_5x5_reduce -> inception_5a/5x5_reduce (in-place)
I0403 16:49:14.193171 21474 net.cpp:141] Setting up inception_5a/relu_5x5_reduce
I0403 16:49:14.193197 21474 net.cpp:148] Top shape: 24 32 7 7 (37632)
I0403 16:49:14.193210 21474 net.cpp:156] Memory required for data: 1299351072
I0403 16:49:14.193224 21474 layer_factory.hpp:77] Creating layer inception_5a/5x5
I0403 16:49:14.193248 21474 net.cpp:91] Creating Layer inception_5a/5x5
I0403 16:49:14.193265 21474 net.cpp:425] inception_5a/5x5 <- inception_5a/5x5_reduce
I0403 16:49:14.193284 21474 net.cpp:399] inception_5a/5x5 -> inception_5a/5x5
I0403 16:49:14.194962 21474 net.cpp:141] Setting up inception_5a/5x5
I0403 16:49:14.195000 21474 net.cpp:148] Top shape: 24 128 7 7 (150528)
I0403 16:49:14.195019 21474 net.cpp:156] Memory required for data: 1299953184
I0403 16:49:14.195039 21474 layer_factory.hpp:77] Creating layer inception_5a/relu_5x5
I0403 16:49:14.195058 21474 net.cpp:91] Creating Layer inception_5a/relu_5x5
I0403 16:49:14.195075 21474 net.cpp:425] inception_5a/relu_5x5 <- inception_5a/5x5
I0403 16:49:14.195091 21474 net.cpp:386] inception_5a/relu_5x5 -> inception_5a/5x5 (in-place)
I0403 16:49:14.195276 21474 net.cpp:141] Setting up inception_5a/relu_5x5
I0403 16:49:14.195300 21474 net.cpp:148] Top shape: 24 128 7 7 (150528)
I0403 16:49:14.195314 21474 net.cpp:156] Memory required for data: 1300555296
I0403 16:49:14.195328 21474 layer_factory.hpp:77] Creating layer inception_5a/pool
I0403 16:49:14.195348 21474 net.cpp:91] Creating Layer inception_5a/pool
I0403 16:49:14.195364 21474 net.cpp:425] inception_5a/pool <- pool4/3x3_s2_pool4/3x3_s2_0_split_3
I0403 16:49:14.195384 21474 net.cpp:399] inception_5a/pool -> inception_5a/pool
I0403 16:49:14.195452 21474 net.cpp:141] Setting up inception_5a/pool
I0403 16:49:14.195475 21474 net.cpp:148] Top shape: 24 832 7 7 (978432)
I0403 16:49:14.195488 21474 net.cpp:156] Memory required for data: 1304469024
I0403 16:49:14.195502 21474 layer_factory.hpp:77] Creating layer inception_5a/pool_proj
I0403 16:49:14.195523 21474 net.cpp:91] Creating Layer inception_5a/pool_proj
I0403 16:49:14.195540 21474 net.cpp:425] inception_5a/pool_proj <- inception_5a/pool
I0403 16:49:14.195560 21474 net.cpp:399] inception_5a/pool_proj -> inception_5a/pool_proj
I0403 16:49:14.197782 21474 net.cpp:141] Setting up inception_5a/pool_proj
I0403 16:49:14.197813 21474 net.cpp:148] Top shape: 24 128 7 7 (150528)
I0403 16:49:14.197827 21474 net.cpp:156] Memory required for data: 1305071136
I0403 16:49:14.197846 21474 layer_factory.hpp:77] Creating layer inception_5a/relu_pool_proj
I0403 16:49:14.197863 21474 net.cpp:91] Creating Layer inception_5a/relu_pool_proj
I0403 16:49:14.197880 21474 net.cpp:425] inception_5a/relu_pool_proj <- inception_5a/pool_proj
I0403 16:49:14.197901 21474 net.cpp:386] inception_5a/relu_pool_proj -> inception_5a/pool_proj (in-place)
I0403 16:49:14.198210 21474 net.cpp:141] Setting up inception_5a/relu_pool_proj
I0403 16:49:14.198236 21474 net.cpp:148] Top shape: 24 128 7 7 (150528)
I0403 16:49:14.198251 21474 net.cpp:156] Memory required for data: 1305673248
I0403 16:49:14.198266 21474 layer_factory.hpp:77] Creating layer inception_5a/output
I0403 16:49:14.198283 21474 net.cpp:91] Creating Layer inception_5a/output
I0403 16:49:14.198298 21474 net.cpp:425] inception_5a/output <- inception_5a/1x1
I0403 16:49:14.198315 21474 net.cpp:425] inception_5a/output <- inception_5a/3x3
I0403 16:49:14.198331 21474 net.cpp:425] inception_5a/output <- inception_5a/5x5
I0403 16:49:14.198346 21474 net.cpp:425] inception_5a/output <- inception_5a/pool_proj
I0403 16:49:14.198364 21474 net.cpp:399] inception_5a/output -> inception_5a/output
I0403 16:49:14.198415 21474 net.cpp:141] Setting up inception_5a/output
I0403 16:49:14.198442 21474 net.cpp:148] Top shape: 24 832 7 7 (978432)
I0403 16:49:14.198457 21474 net.cpp:156] Memory required for data: 1309586976
I0403 16:49:14.198472 21474 layer_factory.hpp:77] Creating layer inception_5a/output_inception_5a/output_0_split
I0403 16:49:14.198488 21474 net.cpp:91] Creating Layer inception_5a/output_inception_5a/output_0_split
I0403 16:49:14.198503 21474 net.cpp:425] inception_5a/output_inception_5a/output_0_split <- inception_5a/output
I0403 16:49:14.198521 21474 net.cpp:399] inception_5a/output_inception_5a/output_0_split -> inception_5a/output_inception_5a/output_0_split_0
I0403 16:49:14.198542 21474 net.cpp:399] inception_5a/output_inception_5a/output_0_split -> inception_5a/output_inception_5a/output_0_split_1
I0403 16:49:14.198565 21474 net.cpp:399] inception_5a/output_inception_5a/output_0_split -> inception_5a/output_inception_5a/output_0_split_2
I0403 16:49:14.198585 21474 net.cpp:399] inception_5a/output_inception_5a/output_0_split -> inception_5a/output_inception_5a/output_0_split_3
I0403 16:49:14.198699 21474 net.cpp:141] Setting up inception_5a/output_inception_5a/output_0_split
I0403 16:49:14.198724 21474 net.cpp:148] Top shape: 24 832 7 7 (978432)
I0403 16:49:14.198740 21474 net.cpp:148] Top shape: 24 832 7 7 (978432)
I0403 16:49:14.198755 21474 net.cpp:148] Top shape: 24 832 7 7 (978432)
I0403 16:49:14.198770 21474 net.cpp:148] Top shape: 24 832 7 7 (978432)
I0403 16:49:14.198782 21474 net.cpp:156] Memory required for data: 1325241888
I0403 16:49:14.198797 21474 layer_factory.hpp:77] Creating layer inception_5b/1x1
I0403 16:49:14.198822 21474 net.cpp:91] Creating Layer inception_5b/1x1
I0403 16:49:14.198838 21474 net.cpp:425] inception_5b/1x1 <- inception_5a/output_inception_5a/output_0_split_0
I0403 16:49:14.198858 21474 net.cpp:399] inception_5b/1x1 -> inception_5b/1x1
I0403 16:49:14.202669 21474 net.cpp:141] Setting up inception_5b/1x1
I0403 16:49:14.202698 21474 net.cpp:148] Top shape: 24 384 7 7 (451584)
I0403 16:49:14.202713 21474 net.cpp:156] Memory required for data: 1327048224
I0403 16:49:14.202731 21474 layer_factory.hpp:77] Creating layer inception_5b/relu_1x1
I0403 16:49:14.202749 21474 net.cpp:91] Creating Layer inception_5b/relu_1x1
I0403 16:49:14.202764 21474 net.cpp:425] inception_5b/relu_1x1 <- inception_5b/1x1
I0403 16:49:14.202785 21474 net.cpp:386] inception_5b/relu_1x1 -> inception_5b/1x1 (in-place)
I0403 16:49:14.203086 21474 net.cpp:141] Setting up inception_5b/relu_1x1
I0403 16:49:14.203117 21474 net.cpp:148] Top shape: 24 384 7 7 (451584)
I0403 16:49:14.203131 21474 net.cpp:156] Memory required for data: 1328854560
I0403 16:49:14.203145 21474 layer_factory.hpp:77] Creating layer inception_5b/3x3_reduce
I0403 16:49:14.203168 21474 net.cpp:91] Creating Layer inception_5b/3x3_reduce
I0403 16:49:14.203186 21474 net.cpp:425] inception_5b/3x3_reduce <- inception_5a/output_inception_5a/output_0_split_1
I0403 16:49:14.203208 21474 net.cpp:399] inception_5b/3x3_reduce -> inception_5b/3x3_reduce
I0403 16:49:14.205837 21474 net.cpp:141] Setting up inception_5b/3x3_reduce
I0403 16:49:14.205865 21474 net.cpp:148] Top shape: 24 192 7 7 (225792)
I0403 16:49:14.205881 21474 net.cpp:156] Memory required for data: 1329757728
I0403 16:49:14.205899 21474 layer_factory.hpp:77] Creating layer inception_5b/relu_3x3_reduce
I0403 16:49:14.205916 21474 net.cpp:91] Creating Layer inception_5b/relu_3x3_reduce
I0403 16:49:14.205932 21474 net.cpp:425] inception_5b/relu_3x3_reduce <- inception_5b/3x3_reduce
I0403 16:49:14.205951 21474 net.cpp:386] inception_5b/relu_3x3_reduce -> inception_5b/3x3_reduce (in-place)
I0403 16:49:14.206158 21474 net.cpp:141] Setting up inception_5b/relu_3x3_reduce
I0403 16:49:14.206183 21474 net.cpp:148] Top shape: 24 192 7 7 (225792)
I0403 16:49:14.206198 21474 net.cpp:156] Memory required for data: 1330660896
I0403 16:49:14.206212 21474 layer_factory.hpp:77] Creating layer inception_5b/3x3
I0403 16:49:14.206234 21474 net.cpp:91] Creating Layer inception_5b/3x3
I0403 16:49:14.206253 21474 net.cpp:425] inception_5b/3x3 <- inception_5b/3x3_reduce
I0403 16:49:14.206272 21474 net.cpp:399] inception_5b/3x3 -> inception_5b/3x3
I0403 16:49:14.212838 21474 net.cpp:141] Setting up inception_5b/3x3
I0403 16:49:14.212865 21474 net.cpp:148] Top shape: 24 384 7 7 (451584)
I0403 16:49:14.212880 21474 net.cpp:156] Memory required for data: 1332467232
I0403 16:49:14.212898 21474 layer_factory.hpp:77] Creating layer inception_5b/relu_3x3
I0403 16:49:14.212915 21474 net.cpp:91] Creating Layer inception_5b/relu_3x3
I0403 16:49:14.212931 21474 net.cpp:425] inception_5b/relu_3x3 <- inception_5b/3x3
I0403 16:49:14.212949 21474 net.cpp:386] inception_5b/relu_3x3 -> inception_5b/3x3 (in-place)
I0403 16:49:14.216044 21474 net.cpp:141] Setting up inception_5b/relu_3x3
I0403 16:49:14.216078 21474 net.cpp:148] Top shape: 24 384 7 7 (451584)
I0403 16:49:14.216092 21474 net.cpp:156] Memory required for data: 1334273568
I0403 16:49:14.216107 21474 layer_factory.hpp:77] Creating layer inception_5b/5x5_reduce
I0403 16:49:14.216146 21474 net.cpp:91] Creating Layer inception_5b/5x5_reduce
I0403 16:49:14.216166 21474 net.cpp:425] inception_5b/5x5_reduce <- inception_5a/output_inception_5a/output_0_split_2
I0403 16:49:14.216187 21474 net.cpp:399] inception_5b/5x5_reduce -> inception_5b/5x5_reduce
I0403 16:49:14.217450 21474 net.cpp:141] Setting up inception_5b/5x5_reduce
I0403 16:49:14.217478 21474 net.cpp:148] Top shape: 24 48 7 7 (56448)
I0403 16:49:14.217494 21474 net.cpp:156] Memory required for data: 1334499360
I0403 16:49:14.217511 21474 layer_factory.hpp:77] Creating layer inception_5b/relu_5x5_reduce
I0403 16:49:14.217532 21474 net.cpp:91] Creating Layer inception_5b/relu_5x5_reduce
I0403 16:49:14.217548 21474 net.cpp:425] inception_5b/relu_5x5_reduce <- inception_5b/5x5_reduce
I0403 16:49:14.217566 21474 net.cpp:386] inception_5b/relu_5x5_reduce -> inception_5b/5x5_reduce (in-place)
I0403 16:49:14.217937 21474 net.cpp:141] Setting up inception_5b/relu_5x5_reduce
I0403 16:49:14.217965 21474 net.cpp:148] Top shape: 24 48 7 7 (56448)
I0403 16:49:14.217980 21474 net.cpp:156] Memory required for data: 1334725152
I0403 16:49:14.217994 21474 layer_factory.hpp:77] Creating layer inception_5b/5x5
I0403 16:49:14.218015 21474 net.cpp:91] Creating Layer inception_5b/5x5
I0403 16:49:14.218047 21474 net.cpp:425] inception_5b/5x5 <- inception_5b/5x5_reduce
I0403 16:49:14.218067 21474 net.cpp:399] inception_5b/5x5 -> inception_5b/5x5
I0403 16:49:14.220118 21474 net.cpp:141] Setting up inception_5b/5x5
I0403 16:49:14.220144 21474 net.cpp:148] Top shape: 24 128 7 7 (150528)
I0403 16:49:14.220160 21474 net.cpp:156] Memory required for data: 1335327264
I0403 16:49:14.220176 21474 layer_factory.hpp:77] Creating layer inception_5b/relu_5x5
I0403 16:49:14.220196 21474 net.cpp:91] Creating Layer inception_5b/relu_5x5
I0403 16:49:14.220213 21474 net.cpp:425] inception_5b/relu_5x5 <- inception_5b/5x5
I0403 16:49:14.220230 21474 net.cpp:386] inception_5b/relu_5x5 -> inception_5b/5x5 (in-place)
I0403 16:49:14.220419 21474 net.cpp:141] Setting up inception_5b/relu_5x5
I0403 16:49:14.220445 21474 net.cpp:148] Top shape: 24 128 7 7 (150528)
I0403 16:49:14.220460 21474 net.cpp:156] Memory required for data: 1335929376
I0403 16:49:14.220474 21474 layer_factory.hpp:77] Creating layer inception_5b/pool
I0403 16:49:14.220491 21474 net.cpp:91] Creating Layer inception_5b/pool
I0403 16:49:14.220506 21474 net.cpp:425] inception_5b/pool <- inception_5a/output_inception_5a/output_0_split_3
I0403 16:49:14.220523 21474 net.cpp:399] inception_5b/pool -> inception_5b/pool
I0403 16:49:14.220597 21474 net.cpp:141] Setting up inception_5b/pool
I0403 16:49:14.220619 21474 net.cpp:148] Top shape: 24 832 7 7 (978432)
I0403 16:49:14.220633 21474 net.cpp:156] Memory required for data: 1339843104
I0403 16:49:14.220648 21474 layer_factory.hpp:77] Creating layer inception_5b/pool_proj
I0403 16:49:14.220669 21474 net.cpp:91] Creating Layer inception_5b/pool_proj
I0403 16:49:14.220686 21474 net.cpp:425] inception_5b/pool_proj <- inception_5b/pool
I0403 16:49:14.220706 21474 net.cpp:399] inception_5b/pool_proj -> inception_5b/pool_proj
I0403 16:49:14.223022 21474 net.cpp:141] Setting up inception_5b/pool_proj
I0403 16:49:14.223052 21474 net.cpp:148] Top shape: 24 128 7 7 (150528)
I0403 16:49:14.223067 21474 net.cpp:156] Memory required for data: 1340445216
I0403 16:49:14.223085 21474 layer_factory.hpp:77] Creating layer inception_5b/relu_pool_proj
I0403 16:49:14.223107 21474 net.cpp:91] Creating Layer inception_5b/relu_pool_proj
I0403 16:49:14.223124 21474 net.cpp:425] inception_5b/relu_pool_proj <- inception_5b/pool_proj
I0403 16:49:14.223140 21474 net.cpp:386] inception_5b/relu_pool_proj -> inception_5b/pool_proj (in-place)
I0403 16:49:14.223428 21474 net.cpp:141] Setting up inception_5b/relu_pool_proj
I0403 16:49:14.223454 21474 net.cpp:148] Top shape: 24 128 7 7 (150528)
I0403 16:49:14.223469 21474 net.cpp:156] Memory required for data: 1341047328
I0403 16:49:14.223482 21474 layer_factory.hpp:77] Creating layer inception_5b/output
I0403 16:49:14.223500 21474 net.cpp:91] Creating Layer inception_5b/output
I0403 16:49:14.223529 21474 net.cpp:425] inception_5b/output <- inception_5b/1x1
I0403 16:49:14.223546 21474 net.cpp:425] inception_5b/output <- inception_5b/3x3
I0403 16:49:14.223565 21474 net.cpp:425] inception_5b/output <- inception_5b/5x5
I0403 16:49:14.223580 21474 net.cpp:425] inception_5b/output <- inception_5b/pool_proj
I0403 16:49:14.223598 21474 net.cpp:399] inception_5b/output -> inception_5b/output
I0403 16:49:14.223646 21474 net.cpp:141] Setting up inception_5b/output
I0403 16:49:14.223671 21474 net.cpp:148] Top shape: 24 1024 7 7 (1204224)
I0403 16:49:14.223686 21474 net.cpp:156] Memory required for data: 1345864224
I0403 16:49:14.223701 21474 layer_factory.hpp:77] Creating layer pool5/7x7_s1
I0403 16:49:14.223717 21474 net.cpp:91] Creating Layer pool5/7x7_s1
I0403 16:49:14.223731 21474 net.cpp:425] pool5/7x7_s1 <- inception_5b/output
I0403 16:49:14.223752 21474 net.cpp:399] pool5/7x7_s1 -> pool5/7x7_s1
I0403 16:49:14.223959 21474 net.cpp:141] Setting up pool5/7x7_s1
I0403 16:49:14.223984 21474 net.cpp:148] Top shape: 24 1024 1 1 (24576)
I0403 16:49:14.223997 21474 net.cpp:156] Memory required for data: 1345962528
I0403 16:49:14.224011 21474 layer_factory.hpp:77] Creating layer pool5/drop_7x7_s1
I0403 16:49:14.224036 21474 net.cpp:91] Creating Layer pool5/drop_7x7_s1
I0403 16:49:14.224052 21474 net.cpp:425] pool5/drop_7x7_s1 <- pool5/7x7_s1
I0403 16:49:14.224069 21474 net.cpp:386] pool5/drop_7x7_s1 -> pool5/7x7_s1 (in-place)
I0403 16:49:14.224120 21474 net.cpp:141] Setting up pool5/drop_7x7_s1
I0403 16:49:14.224143 21474 net.cpp:148] Top shape: 24 1024 1 1 (24576)
I0403 16:49:14.224156 21474 net.cpp:156] Memory required for data: 1346060832
I0403 16:49:14.224170 21474 layer_factory.hpp:77] Creating layer loss3/classifier_plantvillage
I0403 16:49:14.224189 21474 net.cpp:91] Creating Layer loss3/classifier_plantvillage
I0403 16:49:14.224205 21474 net.cpp:425] loss3/classifier_plantvillage <- pool5/7x7_s1
I0403 16:49:14.224225 21474 net.cpp:399] loss3/classifier_plantvillage -> loss3/classifier_plantvillage
I0403 16:49:14.224647 21474 net.cpp:141] Setting up loss3/classifier_plantvillage
I0403 16:49:14.224670 21474 net.cpp:148] Top shape: 24 38 (912)
I0403 16:49:14.224684 21474 net.cpp:156] Memory required for data: 1346064480
I0403 16:49:14.224701 21474 layer_factory.hpp:77] Creating layer loss3/classifier_plantvillage_loss3/classifier_plantvillage_0_split
I0403 16:49:14.224717 21474 net.cpp:91] Creating Layer loss3/classifier_plantvillage_loss3/classifier_plantvillage_0_split
I0403 16:49:14.224732 21474 net.cpp:425] loss3/classifier_plantvillage_loss3/classifier_plantvillage_0_split <- loss3/classifier_plantvillage
I0403 16:49:14.224752 21474 net.cpp:399] loss3/classifier_plantvillage_loss3/classifier_plantvillage_0_split -> loss3/classifier_plantvillage_loss3/classifier_plantvillage_0_split_0
I0403 16:49:14.224772 21474 net.cpp:399] loss3/classifier_plantvillage_loss3/classifier_plantvillage_0_split -> loss3/classifier_plantvillage_loss3/classifier_plantvillage_0_split_1
I0403 16:49:14.224792 21474 net.cpp:399] loss3/classifier_plantvillage_loss3/classifier_plantvillage_0_split -> loss3/classifier_plantvillage_loss3/classifier_plantvillage_0_split_2
I0403 16:49:14.224812 21474 net.cpp:399] loss3/classifier_plantvillage_loss3/classifier_plantvillage_0_split -> loss3/classifier_plantvillage_loss3/classifier_plantvillage_0_split_3
I0403 16:49:14.224913 21474 net.cpp:141] Setting up loss3/classifier_plantvillage_loss3/classifier_plantvillage_0_split
I0403 16:49:14.224936 21474 net.cpp:148] Top shape: 24 38 (912)
I0403 16:49:14.224951 21474 net.cpp:148] Top shape: 24 38 (912)
I0403 16:49:14.224966 21474 net.cpp:148] Top shape: 24 38 (912)
I0403 16:49:14.224980 21474 net.cpp:148] Top shape: 24 38 (912)
I0403 16:49:14.224993 21474 net.cpp:156] Memory required for data: 1346079072
I0403 16:49:14.225006 21474 layer_factory.hpp:77] Creating layer loss1/loss
I0403 16:49:14.225047 21474 net.cpp:91] Creating Layer loss1/loss
I0403 16:49:14.225066 21474 net.cpp:425] loss1/loss <- loss1/classifier_plantvillage_loss1/classifier_plantvillage_0_split_0
I0403 16:49:14.225108 21474 net.cpp:425] loss1/loss <- label_data_1_split_0
…
