…
I0403 15:34:48.970284 20059 net.cpp:313] The NetState phase (1) differed from the phase (0) specified by a rule in layer data
I0403 15:34:48.971457 20059 net.cpp:49] Initializing net from parameters: 
state {
  phase: TEST
}
layer {
  name: "data"
  type: "Data"
  top: "data"
  top: "label"
  include {
    phase: TEST
  }
  transform_param {
    mirror: false
    crop_size: 224
    mean_file: "/home/mohanty/data/final_dataset/lmdb/grayscale-20-80/mean.binaryproto"
  }
  data_param {
    source: "/home/mohanty/data/final_dataset/lmdb/grayscale-20-80/test_db"
    batch_size: 24
    backend: LMDB
  }
}
layer {
  name: "conv1/7x7_s2"
  type: "Convolution"
  bottom: "data"
  top: "conv1/7x7_s2"
  param {
    lr_mult: 1
    decay_mult: 1
  }
  param {
    lr_mult: 2
    decay_mult: 0
  }
  convolution_param {
    num_output: 64
    pad: 3
    kernel_size: 7
    stride: 2
    weight_filler {
      type: "xavier"
      std: 0.1
    }
    bias_filler {
      type: "constant"
      value: 0.2
    }
  }
}
layer {
  name: "conv1/relu_7x7"
  type: "ReLU"
  bottom: "conv1/7x7_s2"
  top: "conv1/7x7_s2"
}
layer {
  name: "pool1/3x3_s2"
  type: "Pooling"
  bottom: "conv1/7x7_s2"
  top: "pool1/3x3_s2"
  pooling_param {
    pool: MAX
    kernel_size: 3
    stride: 2
  }
}
layer {
  name: "pool1/norm1"
  type: "LRN"
  bottom: "pool1/3x3_s2"
  top: "pool1/norm1"
  lrn_param {
    local_size: 5
    alpha: 0.0001
    beta: 0.75
  }
}
layer {
  name: "conv2/3x3_reduce"
  type: "Convolution"
  bottom: "pool1/norm1"
  top: "conv2/3x3_reduce"
  param {
    lr_mult: 1
    decay_mult: 1
  }
  param {
    lr_mult: 2
    decay_mult: 0
  }
  convolution_param {
    num_output: 64
    kernel_size: 1
    weight_filler {
      type: "xavier"
      std: 0.1
    }
    bias_filler {
      type: "constant"
      value: 0.2
    }
  }
}
layer {
  name: "conv2/relu_3x3_reduce"
  type: "ReLU"
  bottom: "conv2/3x3_reduce"
  top: "conv2/3x3_reduce"
}
layer {
  name: "conv2/3x3"
  type: "Convolution"
  bottom: "conv2/3x3_reduce"
  top: "conv2/3x3"
  param {
    lr_mult: 1
    decay_mult: 1
  }
  param {
    lr_mult: 2
    decay_mult: 0
  }
  convolution_param {
    num_output: 192
    pad: 1
    kernel_size: 3
    weight_filler {
      type: "xavier"
      std: 0.03
    }
    bias_filler {
      type: "constant"
      value: 0.2
    }
  }
}
layer {
  name: "conv2/relu_3x3"
  type: "ReLU"
  bottom: "conv2/3x3"
  top: "conv2/3x3"
}
layer {
  name: "conv2/norm2"
  type: "LRN"
  bottom: "conv2/3x3"
  top: "conv2/norm2"
  lrn_param {
    local_size: 5
    alpha: 0.0001
    beta: 0.75
  }
}
layer {
  name: "pool2/3x3_s2"
  type: "Pooling"
  bottom: "conv2/norm2"
  top: "pool2/3x3_s2"
  pooling_param {
    pool: MAX
    kernel_size: 3
    stride: 2
  }
}
layer {
  name: "inception_3a/1x1"
  type: "Convolution"
  bottom: "pool2/3x3_s2"
  top: "inception_3a/1x1"
  param {
    lr_mult: 1
    decay_mult: 1
  }
  param {
    lr_mult: 2
    decay_mult: 0
  }
  convolution_param {
    num_output: 64
    kernel_size: 1
    weight_filler {
      type: "xavier"
      std: 0.03
    }
    bias_filler {
      type: "constant"
      value: 0.2
    }
  }
}
layer {
  name: "inception_3a/relu_1x1"
  type: "ReLU"
  bottom: "inception_3a/1x1"
  top: "inception_3a/1x1"
}
layer {
  name: "inception_3a/3x3_reduce"
  type: "Convolution"
  bottom: "pool2/3x3_s2"
  top: "inception_3a/3x3_reduce"
  param {
    lr_mult: 1
    decay_mult: 1
  }
  param {
    lr_mult: 2
    decay_mult: 0
  }
  convolution_param {
    num_output: 96
    kernel_size: 1
    weight_filler {
      type: "xavier"
      std: 0.09
    }
    bias_filler {
      type: "constant"
      value: 0.2
    }
  }
}
layer {
  name: "inception_3a/relu_3x3_reduce"
  type: "ReLU"
  bottom: "inception_3a/3x3_reduce"
  top: "inception_3a/3x3_reduce"
}
layer {
  name: "inception_3a/3x3"
  type: "Convolution"
  bottom: "inception_3a/3x3_reduce"
  top: "inception_3a/3x3"
  param {
    lr_mult: 1
    decay_mult: 1
  }
  param {
    lr_mult: 2
    decay_mult: 0
  }
  convolution_param {
    num_output: 128
    pad: 1
    kernel_size: 3
    weight_filler {
      type: "xavier"
      std: 0.03
    }
    bias_filler {
      type: "constant"
      value: 0.2
    }
  }
}
layer {
  name: "inception_3a/relu_3x3"
  type: "ReLU"
  bottom: "inception_3a/3x3"
  top: "inception_3a/3x3"
}
layer {
  name: "inception_3a/5x5_reduce"
  type: "Convolution"
  bottom: "pool2/3x3_s2"
  top: "inception_3a/5x5_reduce"
  param {
    lr_mult: 1
    decay_mult: 1
  }
  param {
    lr_mult: 2
    decay_mult: 0
  }
  convolution_param {
    num_output: 16
    kernel_size: 1
    weight_filler {
      type: "xavier"
      std: 0.2
    }
    bias_filler {
      type: "constant"
      value: 0.2
    }
  }
}
layer {
  name: "inception_3a/relu_5x5_reduce"
  type: "ReLU"
  bottom: "inception_3a/5x5_reduce"
  top: "inception_3a/5x5_reduce"
}
layer {
  name: "inception_3a/5x5"
  type: "Convolution"
  bottom: "inception_3a/5x5_reduce"
  top: "inception_3a/5x5"
  param {
    lr_mult: 1
    decay_mult: 1
  }
  param {
    lr_mult: 2
    decay_mult: 0
  }
  convolution_param {
    num_output: 32
    pad: 2
    kernel_size: 5
    weight_filler {
      type: "xavier"
      std: 0.03
    }
    bias_filler {
      type: "constant"
      value: 0.2
    }
  }
}
layer {
  name: "inception_3a/relu_5x5"
  type: "ReLU"
  bottom: "inception_3a/5x5"
  top: "inception_3a/5x5"
}
layer {
  name: "inception_3a/pool"
  type: "Pooling"
  bottom: "pool2/3x3_s2"
  top: "inception_3a/pool"
  pooling_param {
    pool: MAX
    kernel_size: 3
    stride: 1
    pad: 1
  }
}
layer {
  name: "inception_3a/pool_proj"
  type: "Convolution"
  bottom: "inception_3a/pool"
  top: "inception_3a/pool_proj"
  param {
    lr_mult: 1
    decay_mult: 1
  }
  param {
    lr_mult: 2
    decay_mult: 0
  }
  convolution_param {
    num_output: 32
    kernel_size: 1
    weight_filler {
      type: "xavier"
      std: 0.1
    }
    bias_filler {
      type: "constant"
      value: 0.2
    }
  }
}
layer {
  name: "inception_3a/relu_pool_proj"
  type: "ReLU"
  bottom: "inception_3a/pool_proj"
  top: "inception_3a/pool_proj"
}
layer {
  name: "inception_3a/output"
  type: "Concat"
  bottom: "inception_3a/1x1"
  bottom: "inception_3a/3x3"
  bottom: "inception_3a/5x5"
  bottom: "inception_3a/pool_proj"
  top: "inception_3a/output"
}
layer {
  name: "inception_3b/1x1"
  type: "Convolution"
  bottom: "inception_3a/output"
  top: "inception_3b/1x1"
  param {
    lr_mult: 1
    decay_mult: 1
  }
  param {
    lr_mult: 2
    decay_mult: 0
  }
  convolution_param {
    num_output: 128
    kernel_size: 1
    weight_filler {
      type: "xavier"
      std: 0.03
    }
    bias_filler {
      type: "constant"
      value: 0.2
    }
  }
}
layer {
  name: "inception_3b/relu_1x1"
  type: "ReLU"
  bottom: "inception_3b/1x1"
  top: "inception_3b/1x1"
}
layer {
  name: "inception_3b/3x3_reduce"
  type: "Convolution"
  bottom: "inception_3a/output"
  top: "inception_3b/3x3_reduce"
  param {
    lr_mult: 1
    decay_mult: 1
  }
  param {
    lr_mult: 2
    decay_mult: 0
  }
  convolution_param {
    num_output: 128
    kernel_size: 1
    weight_filler {
      type: "xavier"
      std: 0.09
    }
    bias_filler {
      type: "constant"
      value: 0.2
    }
  }
}
layer {
  name: "inception_3b/relu_3x3_reduce"
  type: "ReLU"
  bottom: "inception_3b/3x3_reduce"
  top: "inception_3b/3x3_reduce"
}
layer {
  name: "inception_3b/3x3"
  type: "Convolution"
  bottom: "inception_3b/3x3_reduce"
  top: "inception_3b/3x3"
  param {
    lr_mult: 1
    decay_mult: 1
  }
  param {
    lr_mult: 2
    decay_mult: 0
  }
  convolution_param {
    num_output: 192
    pad: 1
    kernel_size: 3
    weight_filler {
      type: "xavier"
      std: 0.03
    }
    bias_filler {
      type: "constant"
      value: 0.2
    }
  }
}
layer {
  name: "inception_3b/relu_3x3"
  type: "ReLU"
  bottom: "inception_3b/3x3"
  top: "inception_3b/3x3"
}
layer {
  name: "inception_3b/5x5_reduce"
  type: "Convolution"
  bottom: "inception_3a/output"
  top: "inception_3b/5x5_reduce"
  param {
    lr_mult: 1
    decay_mult: 1
  }
  param {
    lr_mult: 2
    decay_mult: 0
  }
  convolution_param {
    num_output: 32
    kernel_size: 1
    weight_filler {
      type: "xavier"
      std: 0.2
    }
    bias_filler {
      type: "constant"
      value: 0.2
    }
  }
}
layer {
  name: "inception_3b/relu_5x5_reduce"
  type: "ReLU"
  bottom: "inception_3b/5x5_reduce"
  top: "inception_3b/5x5_reduce"
}
layer {
  name: "inception_3b/5x5"
  type: "Convolution"
  bottom: "inception_3b/5x5_reduce"
  top: "inception_3b/5x5"
  param {
    lr_mult: 1
    decay_mult: 1
  }
  param {
    lr_mult: 2
    decay_mult: 0
  }
  convolution_param {
    num_output: 96
    pad: 2
    kernel_size: 5
    weight_filler {
      type: "xavier"
      std: 0.03
    }
    bias_filler {
      type: "constant"
      value: 0.2
    }
  }
}
layer {
  name: "inception_3b/relu_5x5"
  type: "ReLU"
  bottom: "inception_3b/5x5"
  top: "inception_3b/5x5"
}
layer {
  name: "inception_3b/pool"
  type: "Pooling"
  bottom: "inception_3a/output"
  top: "inception_3b/pool"
  pooling_param {
    pool: MAX
    kernel_size: 3
    stride: 1
    pad: 1
  }
}
layer {
  name: "inception_3b/pool_proj"
  type: "Convolution"
  bottom: "inception_3b/pool"
  top: "inception_3b/pool_proj"
  param {
    lr_mult: 1
    decay_mult: 1
  }
  param {
    lr_mult: 2
    decay_mult: 0
  }
  convolution_param {
    num_output: 64
    kernel_size: 1
    weight_filler {
      type: "xavier"
      std: 0.1
    }
    bias_filler {
      type: "constant"
      value: 0.2
    }
  }
}
layer {
  name: "inception_3b/relu_pool_proj"
  type: "ReLU"
  bottom: "inception_3b/pool_proj"
  top: "inception_3b/pool_proj"
}
layer {
  name: "inception_3b/output"
  type: "Concat"
  bottom: "inception_3b/1x1"
  bottom: "inception_3b/3x3"
  bottom: "inception_3b/5x5"
  bottom: "inception_3b/pool_proj"
  top: "inception_3b/output"
}
layer {
  name: "pool3/3x3_s2"
  type: "Pooling"
  bottom: "inception_3b/output"
  top: "pool3/3x3_s2"
  pooling_param {
    pool: MAX
    kernel_size: 3
    stride: 2
  }
}
layer {
  name: "inception_4a/1x1"
  type: "Convolution"
  bottom: "pool3/3x3_s2"
  top: "inception_4a/1x1"
  param {
    lr_mult: 1
    decay_mult: 1
  }
  param {
    lr_mult: 2
    decay_mult: 0
  }
  convolution_param {
    num_output: 192
    kernel_size: 1
    weight_filler {
      type: "xavier"
      std: 0.03
    }
    bias_filler {
      type: "constant"
      value: 0.2
    }
  }
}
layer {
  name: "inception_4a/relu_1x1"
  type: "ReLU"
  bottom: "inception_4a/1x1"
  top: "inception_4a/1x1"
}
layer {
  name: "inception_4a/3x3_reduce"
  type: "Convolution"
  bottom: "pool3/3x3_s2"
  top: "inception_4a/3x3_reduce"
  param {
    lr_mult: 1
    decay_mult: 1
  }
  param {
    lr_mult: 2
    decay_mult: 0
  }
  convolution_param {
    num_output: 96
    kernel_size: 1
    weight_filler {
      type: "xavier"
      std: 0.09
    }
    bias_filler {
      type: "constant"
      value: 0.2
    }
  }
}
layer {
  name: "inception_4a/relu_3x3_reduce"
  type: "ReLU"
  bottom: "inception_4a/3x3_reduce"
  top: "inception_4a/3x3_reduce"
}
layer {
  name: "inception_4a/3x3"
  type: "Convolution"
  bottom: "inception_4a/3x3_reduce"
  top: "inception_4a/3x3"
  param {
    lr_mult: 1
    decay_mult: 1
  }
  param {
    lr_mult: 2
    decay_mult: 0
  }
  convolution_param {
    num_output: 208
    pad: 1
    kernel_size: 3
    weight_filler {
      type: "xavier"
      std: 0.03
    }
    bias_filler {
      type: "constant"
      value: 0.2
    }
  }
}
layer {
  name: "inception_4a/relu_3x3"
  type: "ReLU"
  bottom: "inception_4a/3x3"
  top: "inception_4a/3x3"
}
layer {
  name: "inception_4a/5x5_reduce"
  type: "Convolution"
  bottom: "pool3/3x3_s2"
  top: "inception_4a/5x5_reduce"
  param {
    lr_mult: 1
    decay_mult: 1
  }
  param {
    lr_mult: 2
    decay_mult: 0
  }
  convolution_param {
    num_output: 16
    kernel_size: 1
    weight_filler {
      type: "xavier"
      std: 0.2
    }
    bias_filler {
      type: "constant"
      value: 0.2
    }
  }
}
layer {
  name: "inception_4a/relu_5x5_reduce"
  type: "ReLU"
  bottom: "inception_4a/5x5_reduce"
  top: "inception_4a/5x5_reduce"
}
layer {
  name: "inception_4a/5x5"
  type: "Convolution"
  bottom: "inception_4a/5x5_reduce"
  top: "inception_4a/5x5"
  param {
    lr_mult: 1
    decay_mult: 1
  }
  param {
    lr_mult: 2
    decay_mult: 0
  }
  convolution_param {
    num_output: 48
    pad: 2
    kernel_size: 5
    weight_filler {
      type: "xavier"
      std: 0.03
    }
    bias_filler {
      type: "constant"
      value: 0.2
    }
  }
}
layer {
  name: "inception_4a/relu_5x5"
  type: "ReLU"
  bottom: "inception_4a/5x5"
  top: "inception_4a/5x5"
}
layer {
  name: "inception_4a/pool"
  type: "Pooling"
  bottom: "pool3/3x3_s2"
  top: "inception_4a/pool"
  pooling_param {
    pool: MAX
    kernel_size: 3
    stride: 1
    pad: 1
  }
}
layer {
  name: "inception_4a/pool_proj"
  type: "Convolution"
  bottom: "inception_4a/pool"
  top: "inception_4a/pool_proj"
  param {
    lr_mult: 1
    decay_mult: 1
  }
  param {
    lr_mult: 2
    decay_mult: 0
  }
  convolution_param {
    num_output: 64
    kernel_size: 1
    weight_filler {
      type: "xavier"
      std: 0.1
    }
    bias_filler {
      type: "constant"
      value: 0.2
    }
  }
}
layer {
  name: "inception_4a/relu_pool_proj"
  type: "ReLU"
  bottom: "inception_4a/pool_proj"
  top: "inception_4a/pool_proj"
}
layer {
  name: "inception_4a/output"
  type: "Concat"
  bottom: "inception_4a/1x1"
  bottom: "inception_4a/3x3"
  bottom: "inception_4a/5x5"
  bottom: "inception_4a/pool_proj"
  top: "inception_4a/output"
}
layer {
  name: "loss1/ave_pool"
  type: "Pooling"
  bottom: "inception_4a/output"
  top: "loss1/ave_pool"
  pooling_param {
    pool: AVE
    kernel_size: 5
    stride: 3
  }
}
layer {
  name: "loss1/conv"
  type: "Convolution"
  bottom: "loss1/ave_pool"
  top: "loss1/conv"
  param {
    lr_mult: 1
    decay_mult: 1
  }
  param {
    lr_mult: 2
    decay_mult: 0
  }
  convolution_param {
    num_output: 128
    kernel_size: 1
    weight_filler {
      type: "xavier"
      std: 0.08
    }
    bias_filler {
      type: "constant"
      value: 0.2
    }
  }
}
layer {
  name: "loss1/relu_conv"
  type: "ReLU"
  bottom: "loss1/conv"
  top: "loss1/conv"
}
layer {
  name: "loss1/fc"
  type: "InnerProduct"
  bottom: "loss1/conv"
  top: "loss1/fc"
  param {
    lr_mult: 1
    decay_mult: 1
  }
  param {
    lr_mult: 2
    decay_mult: 0
  }
  inner_product_param {
    num_output: 1024
    weight_filler {
      type: "xavier"
      std: 0.02
    }
    bias_filler {
      type: "constant"
      value: 0.2
    }
  }
}
layer {
  name: "loss1/relu_fc"
  type: "ReLU"
  bottom: "loss1/fc"
  top: "loss1/fc"
}
layer {
  name: "loss1/drop_fc"
  type: "Dropout"
  bottom: "loss1/fc"
  top: "loss1/fc"
  dropout_param {
    dropout_ratio: 0.7
  }
}
layer {
  name: "loss1/classifier_plantvillage"
  type: "InnerProduct"
  bottom: "loss1/fc"
  top: "loss1/classifier_plantvillage"
  param {
    lr_mult: 1
    decay_mult: 1
  }
  param {
    lr_mult: 2
    decay_mult: 0
  }
  inner_product_param {
    num_output: 38
    weight_filler {
      type: "xavier"
      std: 0.0009765625
    }
    bias_filler {
      type: "constant"
      value: 0
    }
  }
}
layer {
  name: "inception_4b/1x1"
  type: "Convolution"
  bottom: "inception_4a/output"
  top: "inception_4b/1x1"
  param {
    lr_mult: 1
    decay_mult: 1
  }
  param {
    lr_mult: 2
    decay_mult: 0
  }
  convolution_param {
    num_output: 160
    kernel_size: 1
    weight_filler {
      type: "xavier"
      std: 0.03
    }
    bias_filler {
      type: "constant"
      value: 0.2
    }
  }
}
layer {
  name: "inception_4b/relu_1x1"
  type: "ReLU"
  bottom: "inception_4b/1x1"
  top: "inception_4b/1x1"
}
layer {
  name: "inception_4b/3x3_reduce"
  type: "Convolution"
  bottom: "inception_4a/output"
  top: "inception_4b/3x3_reduce"
  param {
    lr_mult: 1
    decay_mult: 1
  }
  param {
    lr_mult: 2
    decay_mult: 0
  }
  convolution_param {
    num_output: 112
    kernel_size: 1
    weight_filler {
      type: "xavier"
      std: 0.09
    }
    bias_filler {
      type: "constant"
      value: 0.2
    }
  }
}
layer {
  name: "inception_4b/relu_3x3_reduce"
  type: "ReLU"
  bottom: "inception_4b/3x3_reduce"
  top: "inception_4b/3x3_reduce"
}
layer {
  name: "inception_4b/3x3"
  type: "Convolution"
  bottom: "inception_4b/3x3_reduce"
  top: "inception_4b/3x3"
  param {
    lr_mult: 1
    decay_mult: 1
  }
  param {
    lr_mult: 2
    decay_mult: 0
  }
  convolution_param {
    num_output: 224
    pad: 1
    kernel_size: 3
    weight_filler {
      type: "xavier"
      std: 0.03
    }
    bias_filler {
      type: "constant"
      value: 0.2
    }
  }
}
layer {
  name: "inception_4b/relu_3x3"
  type: "ReLU"
  bottom: "inception_4b/3x3"
  top: "inception_4b/3x3"
}
layer {
  name: "inception_4b/5x5_reduce"
  type: "Convolution"
  bottom: "inception_4a/output"
  top: "inception_4b/5x5_reduce"
  param {
    lr_mult: 1
    decay_mult: 1
  }
  param {
    lr_mult: 2
    decay_mult: 0
  }
  convolution_param {
    num_output: 24
    kernel_size: 1
    weight_filler {
      type: "xavier"
      std: 0.2
    }
    bias_filler {
      type: "constant"
      value: 0.2
    }
  }
}
layer {
  name: "inception_4b/relu_5x5_reduce"
  type: "ReLU"
  bottom: "inception_4b/5x5_reduce"
  top: "inception_4b/5x5_reduce"
}
layer {
  name: "inception_4b/5x5"
  type: "Convolution"
  bottom: "inception_4b/5x5_reduce"
  top: "inception_4b/5x5"
  param {
    lr_mult: 1
    decay_mult: 1
  }
  param {
    lr_mult: 2
    decay_mult: 0
  }
  convolution_param {
    num_output: 64
    pad: 2
    kernel_size: 5
    weight_filler {
      type: "xavier"
      std: 0.03
    }
    bias_filler {
      type: "constant"
      value: 0.2
    }
  }
}
layer {
  name: "inception_4b/relu_5x5"
  type: "ReLU"
  bottom: "inception_4b/5x5"
  top: "inception_4b/5x5"
}
layer {
  name: "inception_4b/pool"
  type: "Pooling"
  bottom: "inception_4a/output"
  top: "inception_4b/pool"
  pooling_param {
    pool: MAX
    kernel_size: 3
    stride: 1
    pad: 1
  }
}
layer {
  name: "inception_4b/pool_proj"
  type: "Convolution"
  bottom: "inception_4b/pool"
  top: "inception_4b/pool_proj"
  param {
    lr_mult: 1
    decay_mult: 1
  }
  param {
    lr_mult: 2
    decay_mult: 0
  }
  convolution_param {
    num_output: 64
    kernel_size: 1
    weight_filler {
      type: "xavier"
      std: 0.1
    }
    bias_filler {
      type: "constant"
      value: 0.2
    }
  }
}
layer {
  name: "inception_4b/relu_pool_proj"
  type: "ReLU"
  bottom: "inception_4b/pool_proj"
  top: "inception_4b/pool_proj"
}
layer {
  name: "inception_4b/output"
  type: "Concat"
  bottom: "inception_4b/1x1"
  bottom: "inception_4b/3x3"
  bottom: "inception_4b/5x5"
  bottom: "inception_4b/pool_proj"
  top: "inception_4b/output"
}
layer {
  name: "inception_4c/1x1"
  type: "Convolution"
  bottom: "inception_4b/output"
  top: "inception_4c/1x1"
  param {
    lr_mult: 1
    decay_mult: 1
  }
  param {
    lr_mult: 2
    decay_mult: 0
  }
  convolution_param {
    num_output: 128
    kernel_size: 1
    weight_filler {
      type: "xavier"
      std: 0.03
    }
    bias_filler {
      type: "constant"
      value: 0.2
    }
  }
}
layer {
  name: "inception_4c/relu_1x1"
  type: "ReLU"
  bottom: "inception_4c/1x1"
  top: "inception_4c/1x1"
}
layer {
  name: "inception_4c/3x3_reduce"
  type: "Convolution"
  bottom: "inception_4b/output"
  top: "inception_4c/3x3_reduce"
  param {
    lr_mult: 1
    decay_mult: 1
  }
  param {
    lr_mult: 2
    decay_mult: 0
  }
  convolution_param {
    num_output: 128
    kernel_size: 1
    weight_filler {
      type: "xavier"
      std: 0.09
    }
    bias_filler {
      type: "constant"
      value: 0.2
    }
  }
}
layer {
  name: "inception_4c/relu_3x3_reduce"
  type: "ReLU"
  bottom: "inception_4c/3x3_reduce"
  top: "inception_4c/3x3_reduce"
}
layer {
  name: "inception_4c/3x3"
  type: "Convolution"
  bottom: "inception_4c/3x3_reduce"
  top: "inception_4c/3x3"
  param {
    lr_mult: 1
    decay_mult: 1
  }
  param {
    lr_mult: 2
    decay_mult: 0
  }
  convolution_param {
    num_output: 256
    pad: 1
    kernel_size: 3
    weight_filler {
      type: "xavier"
      std: 0.03
    }
    bias_filler {
      type: "constant"
      value: 0.2
    }
  }
}
layer {
  name: "inception_4c/relu_3x3"
  type: "ReLU"
  bottom: "inception_4c/3x3"
  top: "inception_4c/3x3"
}
layer {
  name: "inception_4c/5x5_reduce"
  type: "Convolution"
  bottom: "inception_4b/output"
  top: "inception_4c/5x5_reduce"
  param {
    lr_mult: 1
    decay_mult: 1
  }
  param {
    lr_mult: 2
    decay_mult: 0
  }
  convolution_param {
    num_output: 24
    kernel_size: 1
    weight_filler {
      type: "xavier"
      std: 0.2
    }
    bias_filler {
      type: "constant"
      value: 0.2
    }
  }
}
layer {
  name: "inception_4c/relu_5x5_reduce"
  type: "ReLU"
  bottom: "inception_4c/5x5_reduce"
  top: "inception_4c/5x5_reduce"
}
layer {
  name: "inception_4c/5x5"
  type: "Convolution"
  bottom: "inception_4c/5x5_reduce"
  top: "inception_4c/5x5"
  param {
    lr_mult: 1
    decay_mult: 1
  }
  param {
    lr_mult: 2
    decay_mult: 0
  }
  convolution_param {
    num_output: 64
    pad: 2
    kernel_size: 5
    weight_filler {
      type: "xavier"
      std: 0.03
    }
    bias_filler {
      type: "constant"
      value: 0.2
    }
  }
}
layer {
  name: "inception_4c/relu_5x5"
  type: "ReLU"
  bottom: "inception_4c/5x5"
  top: "inception_4c/5x5"
}
layer {
  name: "inception_4c/pool"
  type: "Pooling"
  bottom: "inception_4b/output"
  top: "inception_4c/pool"
  pooling_param {
    pool: MAX
    kernel_size: 3
    stride: 1
    pad: 1
  }
}
layer {
  name: "inception_4c/pool_proj"
  type: "Convolution"
  bottom: "inception_4c/pool"
  top: "inception_4c/pool_proj"
  param {
    lr_mult: 1
    decay_mult: 1
  }
  param {
    lr_mult: 2
    decay_mult: 0
  }
  convolution_param {
    num_output: 64
    kernel_size: 1
    weight_filler {
      type: "xavier"
      std: 0.1
    }
    bias_filler {
      type: "constant"
      value: 0.2
    }
  }
}
layer {
  name: "inception_4c/relu_pool_proj"
  type: "ReLU"
  bottom: "inception_4c/pool_proj"
  top: "inception_4c/pool_proj"
}
layer {
  name: "inception_4c/output"
  type: "Concat"
  bottom: "inception_4c/1x1"
  bottom: "inception_4c/3x3"
  bottom: "inception_4c/5x5"
  bottom: "inception_4c/pool_proj"
  top: "inception_4c/output"
}
layer {
  name: "inception_4d/1x1"
  type: "Convolution"
  bottom: "inception_4c/output"
  top: "inception_4d/1x1"
  param {
    lr_mult: 1
    decay_mult: 1
  }
  param {
    lr_mult: 2
    decay_mult: 0
  }
  convolution_param {
    num_output: 112
    kernel_size: 1
    weight_filler {
      type: "xavier"
      std: 0.03
    }
    bias_filler {
      type: "constant"
      value: 0.2
    }
  }
}
layer {
  name: "inception_4d/relu_1x1"
  type: "ReLU"
  bottom: "inception_4d/1x1"
  top: "inception_4d/1x1"
}
layer {
  name: "inception_4d/3x3_reduce"
  type: "Convolution"
  bottom: "inception_4c/output"
  top: "inception_4d/3x3_reduce"
  param {
    lr_mult: 1
    decay_mult: 1
  }
  param {
    lr_mult: 2
    decay_mult: 0
  }
  convolution_param {
    num_output: 144
    kernel_size: 1
    weight_filler {
      type: "xavier"
      std: 0.09
    }
    bias_filler {
      type: "constant"
      value: 0.2
    }
  }
}
layer {
  name: "inception_4d/relu_3x3_reduce"
  type: "ReLU"
  bottom: "inception_4d/3x3_reduce"
  top: "inception_4d/3x3_reduce"
}
layer {
  name: "inception_4d/3x3"
  type: "Convolution"
  bottom: "inception_4d/3x3_reduce"
  top: "inception_4d/3x3"
  param {
    lr_mult: 1
    decay_mult: 1
  }
  param {
    lr_mult: 2
    decay_mult: 0
  }
  convolution_param {
    num_output: 288
    pad: 1
    kernel_size: 3
    weight_filler {
      type: "xavier"
      std: 0.03
    }
    bias_filler {
      type: "constant"
      value: 0.2
    }
  }
}
layer {
  name: "inception_4d/relu_3x3"
  type: "ReLU"
  bottom: "inception_4d/3x3"
  top: "inception_4d/3x3"
}
layer {
  name: "inception_4d/5x5_reduce"
  type: "Convolution"
  bottom: "inception_4c/output"
  top: "inception_4d/5x5_reduce"
  param {
    lr_mult: 1
    decay_mult: 1
  }
  param {
    lr_mult: 2
    decay_mult: 0
  }
  convolution_param {
    num_output: 32
    kernel_size: 1
    weight_filler {
      type: "xavier"
      std: 0.2
    }
    bias_filler {
      type: "constant"
      value: 0.2
    }
  }
}
layer {
  name: "inception_4d/relu_5x5_reduce"
  type: "ReLU"
  bottom: "inception_4d/5x5_reduce"
  top: "inception_4d/5x5_reduce"
}
layer {
  name: "inception_4d/5x5"
  type: "Convolution"
  bottom: "inception_4d/5x5_reduce"
  top: "inception_4d/5x5"
  param {
    lr_mult: 1
    decay_mult: 1
  }
  param {
    lr_mult: 2
    decay_mult: 0
  }
  convolution_param {
    num_output: 64
    pad: 2
    kernel_size: 5
    weight_filler {
      type: "xavier"
      std: 0.03
    }
    bias_filler {
      type: "constant"
      value: 0.2
    }
  }
}
layer {
  name: "inception_4d/relu_5x5"
  type: "ReLU"
  bottom: "inception_4d/5x5"
  top: "inception_4d/5x5"
}
layer {
  name: "inception_4d/pool"
  type: "Pooling"
  bottom: "inception_4c/output"
  top: "inception_4d/pool"
  pooling_param {
    pool: MAX
    kernel_size: 3
    stride: 1
    pad: 1
  }
}
layer {
  name: "inception_4d/pool_proj"
  type: "Convolution"
  bottom: "inception_4d/pool"
  top: "inception_4d/pool_proj"
  param {
    lr_mult: 1
    decay_mult: 1
  }
  param {
    lr_mult: 2
    decay_mult: 0
  }
  convolution_param {
    num_output: 64
    kernel_size: 1
    weight_filler {
      type: "xavier"
      std: 0.1
    }
    bias_filler {
      type: "constant"
      value: 0.2
    }
  }
}
layer {
  name: "inception_4d/relu_pool_proj"
  type: "ReLU"
  bottom: "inception_4d/pool_proj"
  top: "inception_4d/pool_proj"
}
layer {
  name: "inception_4d/output"
  type: "Concat"
  bottom: "inception_4d/1x1"
  bottom: "inception_4d/3x3"
  bottom: "inception_4d/5x5"
  bottom: "inception_4d/pool_proj"
  top: "inception_4d/output"
}
layer {
  name: "loss2/ave_pool"
  type: "Pooling"
  bottom: "inception_4d/output"
  top: "loss2/ave_pool"
  pooling_param {
    pool: AVE
    kernel_size: 5
    stride: 3
  }
}
layer {
  name: "loss2/conv"
  type: "Convolution"
  bottom: "loss2/ave_pool"
  top: "loss2/conv"
  param {
    lr_mult: 1
    decay_mult: 1
  }
  param {
    lr_mult: 2
    decay_mult: 0
  }
  convolution_param {
    num_output: 128
    kernel_size: 1
    weight_filler {
      type: "xavier"
      std: 0.08
    }
    bias_filler {
      type: "constant"
      value: 0.2
    }
  }
}
layer {
  name: "loss2/relu_conv"
  type: "ReLU"
  bottom: "loss2/conv"
  top: "loss2/conv"
}
layer {
  name: "loss2/fc"
  type: "InnerProduct"
  bottom: "loss2/conv"
  top: "loss2/fc"
  param {
    lr_mult: 1
    decay_mult: 1
  }
  param {
    lr_mult: 2
    decay_mult: 0
  }
  inner_product_param {
    num_output: 1024
    weight_filler {
      type: "xavier"
      std: 0.02
    }
    bias_filler {
      type: "constant"
      value: 0.2
    }
  }
}
layer {
  name: "loss2/relu_fc"
  type: "ReLU"
  bottom: "loss2/fc"
  top: "loss2/fc"
}
layer {
  name: "loss2/drop_fc"
  type: "Dropout"
  bottom: "loss2/fc"
  top: "loss2/fc"
  dropout_param {
    dropout_ratio: 0.7
  }
}
layer {
  name: "loss2/classifier_plantvillage"
  type: "InnerProduct"
  bottom: "loss2/fc"
  top: "loss2/classifier_plantvillage"
  param {
    lr_mult: 1
    decay_mult: 1
  }
  param {
    lr_mult: 2
    decay_mult: 0
  }
  inner_product_param {
    num_output: 38
    weight_filler {
      type: "xavier"
      std: 0.0009765625
    }
    bias_filler {
      type: "constant"
      value: 0
    }
  }
}
layer {
  name: "inception_4e/1x1"
  type: "Convolution"
  bottom: "inception_4d/output"
  top: "inception_4e/1x1"
  param {
    lr_mult: 1
    decay_mult: 1
  }
  param {
    lr_mult: 2
    decay_mult: 0
  }
  convolution_param {
    num_output: 256
    kernel_size: 1
    weight_filler {
      type: "xavier"
      std: 0.03
    }
    bias_filler {
      type: "constant"
      value: 0.2
    }
  }
}
layer {
  name: "inception_4e/relu_1x1"
  type: "ReLU"
  bottom: "inception_4e/1x1"
  top: "inception_4e/1x1"
}
layer {
  name: "inception_4e/3x3_reduce"
  type: "Convolution"
  bottom: "inception_4d/output"
  top: "inception_4e/3x3_reduce"
  param {
    lr_mult: 1
    decay_mult: 1
  }
  param {
    lr_mult: 2
    decay_mult: 0
  }
  convolution_param {
    num_output: 160
    kernel_size: 1
    weight_filler {
      type: "xavier"
      std: 0.09
    }
    bias_filler {
      type: "constant"
      value: 0.2
    }
  }
}
layer {
  name: "inception_4e/relu_3x3_reduce"
  type: "ReLU"
  bottom: "inception_4e/3x3_reduce"
  top: "inception_4e/3x3_reduce"
}
layer {
  name: "inception_4e/3x3"
  type: "Convolution"
  bottom: "inception_4e/3x3_reduce"
  top: "inception_4e/3x3"
  param {
    lr_mult: 1
    decay_mult: 1
  }
  param {
    lr_mult: 2
    decay_mult: 0
  }
  convolution_param {
    num_output: 320
    pad: 1
    kernel_size: 3
    weight_filler {
      type: "xavier"
      std: 0.03
    }
    bias_filler {
      type: "constant"
      value: 0.2
    }
  }
}
layer {
  name: "inception_4e/relu_3x3"
  type: "ReLU"
  bottom: "inception_4e/3x3"
  top: "inception_4e/3x3"
}
layer {
  name: "inception_4e/5x5_reduce"
  type: "Convolution"
  bottom: "inception_4d/output"
  top: "inception_4e/5x5_reduce"
  param {
    lr_mult: 1
    decay_mult: 1
  }
  param {
    lr_mult: 2
    decay_mult: 0
  }
  convolution_param {
    num_output: 32
    kernel_size: 1
    weight_filler {
      type: "xavier"
      std: 0.2
    }
    bias_filler {
      type: "constant"
      value: 0.2
    }
  }
}
layer {
  name: "inception_4e/relu_5x5_reduce"
  type: "ReLU"
  bottom: "inception_4e/5x5_reduce"
  top: "inception_4e/5x5_reduce"
}
layer {
  name: "inception_4e/5x5"
  type: "Convolution"
  bottom: "inception_4e/5x5_reduce"
  top: "inception_4e/
I0403 15:34:48.972694 20059 layer_factory.hpp:77] Creating layer data
I0403 15:34:48.973310 20059 net.cpp:91] Creating Layer data
I0403 15:34:48.973341 20059 net.cpp:399] data -> data
I0403 15:34:48.973392 20059 net.cpp:399] data -> label
I0403 15:34:48.973433 20059 data_transformer.cpp:25] Loading mean file from: /home/mohanty/data/final_dataset/lmdb/grayscale-20-80/mean.binaryproto
I0403 15:34:49.041357 20062 db_lmdb.cpp:38] Opened lmdb /home/mohanty/data/final_dataset/lmdb/grayscale-20-80/test_db
I0403 15:34:49.073703 20059 data_layer.cpp:41] output data size: 24,3,224,224
I0403 15:34:49.142702 20059 net.cpp:141] Setting up data
I0403 15:34:49.142781 20059 net.cpp:148] Top shape: 24 3 224 224 (3612672)
I0403 15:34:49.142820 20059 net.cpp:148] Top shape: 24 (24)
I0403 15:34:49.142848 20059 net.cpp:156] Memory required for data: 14450784
I0403 15:34:49.142889 20059 layer_factory.hpp:77] Creating layer label_data_1_split
I0403 15:34:49.142927 20059 net.cpp:91] Creating Layer label_data_1_split
I0403 15:34:49.142951 20059 net.cpp:425] label_data_1_split <- label
I0403 15:34:49.143000 20059 net.cpp:399] label_data_1_split -> label_data_1_split_0
I0403 15:34:49.143033 20059 net.cpp:399] label_data_1_split -> label_data_1_split_1
I0403 15:34:49.143076 20059 net.cpp:399] label_data_1_split -> label_data_1_split_2
I0403 15:34:49.143120 20059 net.cpp:399] label_data_1_split -> label_data_1_split_3
I0403 15:34:49.143147 20059 net.cpp:399] label_data_1_split -> label_data_1_split_4
I0403 15:34:49.143168 20059 net.cpp:399] label_data_1_split -> label_data_1_split_5
I0403 15:34:49.143198 20059 net.cpp:399] label_data_1_split -> label_data_1_split_6
I0403 15:34:49.143226 20059 net.cpp:399] label_data_1_split -> label_data_1_split_7
I0403 15:34:49.143249 20059 net.cpp:399] label_data_1_split -> label_data_1_split_8
I0403 15:34:49.143276 20059 net.cpp:399] label_data_1_split -> label_data_1_split_9
I0403 15:34:49.143414 20059 net.cpp:141] Setting up label_data_1_split
I0403 15:34:49.143440 20059 net.cpp:148] Top shape: 24 (24)
I0403 15:34:49.143457 20059 net.cpp:148] Top shape: 24 (24)
I0403 15:34:49.143473 20059 net.cpp:148] Top shape: 24 (24)
I0403 15:34:49.143489 20059 net.cpp:148] Top shape: 24 (24)
I0403 15:34:49.143506 20059 net.cpp:148] Top shape: 24 (24)
I0403 15:34:49.143522 20059 net.cpp:148] Top shape: 24 (24)
I0403 15:34:49.143537 20059 net.cpp:148] Top shape: 24 (24)
I0403 15:34:49.143553 20059 net.cpp:148] Top shape: 24 (24)
I0403 15:34:49.143568 20059 net.cpp:148] Top shape: 24 (24)
I0403 15:34:49.143584 20059 net.cpp:148] Top shape: 24 (24)
I0403 15:34:49.143622 20059 net.cpp:156] Memory required for data: 14451744
I0403 15:34:49.143649 20059 layer_factory.hpp:77] Creating layer conv1/7x7_s2
I0403 15:34:49.143682 20059 net.cpp:91] Creating Layer conv1/7x7_s2
I0403 15:34:49.143700 20059 net.cpp:425] conv1/7x7_s2 <- data
I0403 15:34:49.143721 20059 net.cpp:399] conv1/7x7_s2 -> conv1/7x7_s2
I0403 15:34:49.287166 20059 net.cpp:141] Setting up conv1/7x7_s2
I0403 15:34:49.287237 20059 net.cpp:148] Top shape: 24 64 112 112 (19267584)
I0403 15:34:49.287256 20059 net.cpp:156] Memory required for data: 91522080
I0403 15:34:49.287286 20059 layer_factory.hpp:77] Creating layer conv1/relu_7x7
I0403 15:34:49.287313 20059 net.cpp:91] Creating Layer conv1/relu_7x7
I0403 15:34:49.287333 20059 net.cpp:425] conv1/relu_7x7 <- conv1/7x7_s2
I0403 15:34:49.287351 20059 net.cpp:386] conv1/relu_7x7 -> conv1/7x7_s2 (in-place)
I0403 15:34:49.287616 20059 net.cpp:141] Setting up conv1/relu_7x7
I0403 15:34:49.287644 20059 net.cpp:148] Top shape: 24 64 112 112 (19267584)
I0403 15:34:49.287662 20059 net.cpp:156] Memory required for data: 168592416
I0403 15:34:49.287678 20059 layer_factory.hpp:77] Creating layer pool1/3x3_s2
I0403 15:34:49.287703 20059 net.cpp:91] Creating Layer pool1/3x3_s2
I0403 15:34:49.287720 20059 net.cpp:425] pool1/3x3_s2 <- conv1/7x7_s2
I0403 15:34:49.287739 20059 net.cpp:399] pool1/3x3_s2 -> pool1/3x3_s2
I0403 15:34:49.287817 20059 net.cpp:141] Setting up pool1/3x3_s2
I0403 15:34:49.287842 20059 net.cpp:148] Top shape: 24 64 56 56 (4816896)
I0403 15:34:49.287856 20059 net.cpp:156] Memory required for data: 187860000
I0403 15:34:49.287871 20059 layer_factory.hpp:77] Creating layer pool1/norm1
I0403 15:34:49.287896 20059 net.cpp:91] Creating Layer pool1/norm1
I0403 15:34:49.287914 20059 net.cpp:425] pool1/norm1 <- pool1/3x3_s2
I0403 15:34:49.287932 20059 net.cpp:399] pool1/norm1 -> pool1/norm1
I0403 15:34:49.288233 20059 net.cpp:141] Setting up pool1/norm1
I0403 15:34:49.288260 20059 net.cpp:148] Top shape: 24 64 56 56 (4816896)
I0403 15:34:49.288276 20059 net.cpp:156] Memory required for data: 207127584
I0403 15:34:49.288292 20059 layer_factory.hpp:77] Creating layer conv2/3x3_reduce
I0403 15:34:49.288317 20059 net.cpp:91] Creating Layer conv2/3x3_reduce
I0403 15:34:49.288336 20059 net.cpp:425] conv2/3x3_reduce <- pool1/norm1
I0403 15:34:49.288354 20059 net.cpp:399] conv2/3x3_reduce -> conv2/3x3_reduce
I0403 15:34:49.289844 20059 net.cpp:141] Setting up conv2/3x3_reduce
I0403 15:34:49.289875 20059 net.cpp:148] Top shape: 24 64 56 56 (4816896)
I0403 15:34:49.289892 20059 net.cpp:156] Memory required for data: 226395168
I0403 15:34:49.289913 20059 layer_factory.hpp:77] Creating layer conv2/relu_3x3_reduce
I0403 15:34:49.289935 20059 net.cpp:91] Creating Layer conv2/relu_3x3_reduce
I0403 15:34:49.289952 20059 net.cpp:425] conv2/relu_3x3_reduce <- conv2/3x3_reduce
I0403 15:34:49.289970 20059 net.cpp:386] conv2/relu_3x3_reduce -> conv2/3x3_reduce (in-place)
I0403 15:34:49.290325 20059 net.cpp:141] Setting up conv2/relu_3x3_reduce
I0403 15:34:49.290352 20059 net.cpp:148] Top shape: 24 64 56 56 (4816896)
I0403 15:34:49.290367 20059 net.cpp:156] Memory required for data: 245662752
I0403 15:34:49.290383 20059 layer_factory.hpp:77] Creating layer conv2/3x3
I0403 15:34:49.290410 20059 net.cpp:91] Creating Layer conv2/3x3
I0403 15:34:49.290428 20059 net.cpp:425] conv2/3x3 <- conv2/3x3_reduce
I0403 15:34:49.290447 20059 net.cpp:399] conv2/3x3 -> conv2/3x3
I0403 15:34:49.292922 20059 net.cpp:141] Setting up conv2/3x3
I0403 15:34:49.292953 20059 net.cpp:148] Top shape: 24 192 56 56 (14450688)
I0403 15:34:49.292970 20059 net.cpp:156] Memory required for data: 303465504
I0403 15:34:49.292992 20059 layer_factory.hpp:77] Creating layer conv2/relu_3x3
I0403 15:34:49.293015 20059 net.cpp:91] Creating Layer conv2/relu_3x3
I0403 15:34:49.293037 20059 net.cpp:425] conv2/relu_3x3 <- conv2/3x3
I0403 15:34:49.293056 20059 net.cpp:386] conv2/relu_3x3 -> conv2/3x3 (in-place)
I0403 15:34:49.293243 20059 net.cpp:141] Setting up conv2/relu_3x3
I0403 15:34:49.293270 20059 net.cpp:148] Top shape: 24 192 56 56 (14450688)
I0403 15:34:49.293318 20059 net.cpp:156] Memory required for data: 361268256
I0403 15:34:49.293334 20059 layer_factory.hpp:77] Creating layer conv2/norm2
I0403 15:34:49.293352 20059 net.cpp:91] Creating Layer conv2/norm2
I0403 15:34:49.293370 20059 net.cpp:425] conv2/norm2 <- conv2/3x3
I0403 15:34:49.293390 20059 net.cpp:399] conv2/norm2 -> conv2/norm2
I0403 15:34:49.293781 20059 net.cpp:141] Setting up conv2/norm2
I0403 15:34:49.293808 20059 net.cpp:148] Top shape: 24 192 56 56 (14450688)
I0403 15:34:49.293825 20059 net.cpp:156] Memory required for data: 419071008
I0403 15:34:49.293840 20059 layer_factory.hpp:77] Creating layer pool2/3x3_s2
I0403 15:34:49.293859 20059 net.cpp:91] Creating Layer pool2/3x3_s2
I0403 15:34:49.293875 20059 net.cpp:425] pool2/3x3_s2 <- conv2/norm2
I0403 15:34:49.293898 20059 net.cpp:399] pool2/3x3_s2 -> pool2/3x3_s2
I0403 15:34:49.293956 20059 net.cpp:141] Setting up pool2/3x3_s2
I0403 15:34:49.293978 20059 net.cpp:148] Top shape: 24 192 28 28 (3612672)
I0403 15:34:49.293993 20059 net.cpp:156] Memory required for data: 433521696
I0403 15:34:49.294008 20059 layer_factory.hpp:77] Creating layer pool2/3x3_s2_pool2/3x3_s2_0_split
I0403 15:34:49.294033 20059 net.cpp:91] Creating Layer pool2/3x3_s2_pool2/3x3_s2_0_split
I0403 15:34:49.294049 20059 net.cpp:425] pool2/3x3_s2_pool2/3x3_s2_0_split <- pool2/3x3_s2
I0403 15:34:49.294070 20059 net.cpp:399] pool2/3x3_s2_pool2/3x3_s2_0_split -> pool2/3x3_s2_pool2/3x3_s2_0_split_0
I0403 15:34:49.294091 20059 net.cpp:399] pool2/3x3_s2_pool2/3x3_s2_0_split -> pool2/3x3_s2_pool2/3x3_s2_0_split_1
I0403 15:34:49.294111 20059 net.cpp:399] pool2/3x3_s2_pool2/3x3_s2_0_split -> pool2/3x3_s2_pool2/3x3_s2_0_split_2
I0403 15:34:49.294131 20059 net.cpp:399] pool2/3x3_s2_pool2/3x3_s2_0_split -> pool2/3x3_s2_pool2/3x3_s2_0_split_3
I0403 15:34:49.294203 20059 net.cpp:141] Setting up pool2/3x3_s2_pool2/3x3_s2_0_split
I0403 15:34:49.294229 20059 net.cpp:148] Top shape: 24 192 28 28 (3612672)
I0403 15:34:49.294248 20059 net.cpp:148] Top shape: 24 192 28 28 (3612672)
I0403 15:34:49.294265 20059 net.cpp:148] Top shape: 24 192 28 28 (3612672)
I0403 15:34:49.294281 20059 net.cpp:148] Top shape: 24 192 28 28 (3612672)
I0403 15:34:49.294296 20059 net.cpp:156] Memory required for data: 491324448
I0403 15:34:49.294309 20059 layer_factory.hpp:77] Creating layer inception_3a/1x1
I0403 15:34:49.294333 20059 net.cpp:91] Creating Layer inception_3a/1x1
I0403 15:34:49.294351 20059 net.cpp:425] inception_3a/1x1 <- pool2/3x3_s2_pool2/3x3_s2_0_split_0
I0403 15:34:49.294370 20059 net.cpp:399] inception_3a/1x1 -> inception_3a/1x1
I0403 15:34:49.296056 20059 net.cpp:141] Setting up inception_3a/1x1
I0403 15:34:49.296088 20059 net.cpp:148] Top shape: 24 64 28 28 (1204224)
I0403 15:34:49.296104 20059 net.cpp:156] Memory required for data: 496141344
I0403 15:34:49.296124 20059 layer_factory.hpp:77] Creating layer inception_3a/relu_1x1
I0403 15:34:49.296146 20059 net.cpp:91] Creating Layer inception_3a/relu_1x1
I0403 15:34:49.296164 20059 net.cpp:425] inception_3a/relu_1x1 <- inception_3a/1x1
I0403 15:34:49.296181 20059 net.cpp:386] inception_3a/relu_1x1 -> inception_3a/1x1 (in-place)
I0403 15:34:49.296365 20059 net.cpp:141] Setting up inception_3a/relu_1x1
I0403 15:34:49.296393 20059 net.cpp:148] Top shape: 24 64 28 28 (1204224)
I0403 15:34:49.296409 20059 net.cpp:156] Memory required for data: 500958240
I0403 15:34:49.296425 20059 layer_factory.hpp:77] Creating layer inception_3a/3x3_reduce
I0403 15:34:49.296448 20059 net.cpp:91] Creating Layer inception_3a/3x3_reduce
I0403 15:34:49.296466 20059 net.cpp:425] inception_3a/3x3_reduce <- pool2/3x3_s2_pool2/3x3_s2_0_split_1
I0403 15:34:49.296485 20059 net.cpp:399] inception_3a/3x3_reduce -> inception_3a/3x3_reduce
I0403 15:34:49.298259 20059 net.cpp:141] Setting up inception_3a/3x3_reduce
I0403 15:34:49.298290 20059 net.cpp:148] Top shape: 24 96 28 28 (1806336)
I0403 15:34:49.298306 20059 net.cpp:156] Memory required for data: 508183584
I0403 15:34:49.298329 20059 layer_factory.hpp:77] Creating layer inception_3a/relu_3x3_reduce
I0403 15:34:49.298369 20059 net.cpp:91] Creating Layer inception_3a/relu_3x3_reduce
I0403 15:34:49.298388 20059 net.cpp:425] inception_3a/relu_3x3_reduce <- inception_3a/3x3_reduce
I0403 15:34:49.298409 20059 net.cpp:386] inception_3a/relu_3x3_reduce -> inception_3a/3x3_reduce (in-place)
I0403 15:34:49.298599 20059 net.cpp:141] Setting up inception_3a/relu_3x3_reduce
I0403 15:34:49.298626 20059 net.cpp:148] Top shape: 24 96 28 28 (1806336)
I0403 15:34:49.298641 20059 net.cpp:156] Memory required for data: 515408928
I0403 15:34:49.298656 20059 layer_factory.hpp:77] Creating layer inception_3a/3x3
I0403 15:34:49.298679 20059 net.cpp:91] Creating Layer inception_3a/3x3
I0403 15:34:49.298698 20059 net.cpp:425] inception_3a/3x3 <- inception_3a/3x3_reduce
I0403 15:34:49.298722 20059 net.cpp:399] inception_3a/3x3 -> inception_3a/3x3
I0403 15:34:49.300448 20059 net.cpp:141] Setting up inception_3a/3x3
I0403 15:34:49.300480 20059 net.cpp:148] Top shape: 24 128 28 28 (2408448)
I0403 15:34:49.300498 20059 net.cpp:156] Memory required for data: 525042720
I0403 15:34:49.300516 20059 layer_factory.hpp:77] Creating layer inception_3a/relu_3x3
I0403 15:34:49.300535 20059 net.cpp:91] Creating Layer inception_3a/relu_3x3
I0403 15:34:49.300552 20059 net.cpp:425] inception_3a/relu_3x3 <- inception_3a/3x3
I0403 15:34:49.300570 20059 net.cpp:386] inception_3a/relu_3x3 -> inception_3a/3x3 (in-place)
I0403 15:34:49.300854 20059 net.cpp:141] Setting up inception_3a/relu_3x3
I0403 15:34:49.300885 20059 net.cpp:148] Top shape: 24 128 28 28 (2408448)
I0403 15:34:49.300901 20059 net.cpp:156] Memory required for data: 534676512
I0403 15:34:49.300916 20059 layer_factory.hpp:77] Creating layer inception_3a/5x5_reduce
I0403 15:34:49.300937 20059 net.cpp:91] Creating Layer inception_3a/5x5_reduce
I0403 15:34:49.300956 20059 net.cpp:425] inception_3a/5x5_reduce <- pool2/3x3_s2_pool2/3x3_s2_0_split_2
I0403 15:34:49.300978 20059 net.cpp:399] inception_3a/5x5_reduce -> inception_3a/5x5_reduce
I0403 15:34:49.301972 20059 net.cpp:141] Setting up inception_3a/5x5_reduce
I0403 15:34:49.302005 20059 net.cpp:148] Top shape: 24 16 28 28 (301056)
I0403 15:34:49.302026 20059 net.cpp:156] Memory required for data: 535880736
I0403 15:34:49.302047 20059 layer_factory.hpp:77] Creating layer inception_3a/relu_5x5_reduce
I0403 15:34:49.302065 20059 net.cpp:91] Creating Layer inception_3a/relu_5x5_reduce
I0403 15:34:49.302083 20059 net.cpp:425] inception_3a/relu_5x5_reduce <- inception_3a/5x5_reduce
I0403 15:34:49.302099 20059 net.cpp:386] inception_3a/relu_5x5_reduce -> inception_3a/5x5_reduce (in-place)
I0403 15:34:49.302407 20059 net.cpp:141] Setting up inception_3a/relu_5x5_reduce
I0403 15:34:49.302434 20059 net.cpp:148] Top shape: 24 16 28 28 (301056)
I0403 15:34:49.302450 20059 net.cpp:156] Memory required for data: 537084960
I0403 15:34:49.302466 20059 layer_factory.hpp:77] Creating layer inception_3a/5x5
I0403 15:34:49.302489 20059 net.cpp:91] Creating Layer inception_3a/5x5
I0403 15:34:49.302508 20059 net.cpp:425] inception_3a/5x5 <- inception_3a/5x5_reduce
I0403 15:34:49.302531 20059 net.cpp:399] inception_3a/5x5 -> inception_3a/5x5
I0403 15:34:49.303581 20059 net.cpp:141] Setting up inception_3a/5x5
I0403 15:34:49.303611 20059 net.cpp:148] Top shape: 24 32 28 28 (602112)
I0403 15:34:49.303627 20059 net.cpp:156] Memory required for data: 539493408
I0403 15:34:49.303645 20059 layer_factory.hpp:77] Creating layer inception_3a/relu_5x5
I0403 15:34:49.303666 20059 net.cpp:91] Creating Layer inception_3a/relu_5x5
I0403 15:34:49.303684 20059 net.cpp:425] inception_3a/relu_5x5 <- inception_3a/5x5
I0403 15:34:49.303702 20059 net.cpp:386] inception_3a/relu_5x5 -> inception_3a/5x5 (in-place)
I0403 15:34:49.303884 20059 net.cpp:141] Setting up inception_3a/relu_5x5
I0403 15:34:49.303912 20059 net.cpp:148] Top shape: 24 32 28 28 (602112)
I0403 15:34:49.303928 20059 net.cpp:156] Memory required for data: 541901856
I0403 15:34:49.303943 20059 layer_factory.hpp:77] Creating layer inception_3a/pool
I0403 15:34:49.303962 20059 net.cpp:91] Creating Layer inception_3a/pool
I0403 15:34:49.303993 20059 net.cpp:425] inception_3a/pool <- pool2/3x3_s2_pool2/3x3_s2_0_split_3
I0403 15:34:49.304015 20059 net.cpp:399] inception_3a/pool -> inception_3a/pool
I0403 15:34:49.304080 20059 net.cpp:141] Setting up inception_3a/pool
I0403 15:34:49.304105 20059 net.cpp:148] Top shape: 24 192 28 28 (3612672)
I0403 15:34:49.304121 20059 net.cpp:156] Memory required for data: 556352544
I0403 15:34:49.304136 20059 layer_factory.hpp:77] Creating layer inception_3a/pool_proj
I0403 15:34:49.304158 20059 net.cpp:91] Creating Layer inception_3a/pool_proj
I0403 15:34:49.304177 20059 net.cpp:425] inception_3a/pool_proj <- inception_3a/pool
I0403 15:34:49.304198 20059 net.cpp:399] inception_3a/pool_proj -> inception_3a/pool_proj
I0403 15:34:49.305205 20059 net.cpp:141] Setting up inception_3a/pool_proj
I0403 15:34:49.305233 20059 net.cpp:148] Top shape: 24 32 28 28 (602112)
I0403 15:34:49.305249 20059 net.cpp:156] Memory required for data: 558760992
I0403 15:34:49.305274 20059 layer_factory.hpp:77] Creating layer inception_3a/relu_pool_proj
I0403 15:34:49.305295 20059 net.cpp:91] Creating Layer inception_3a/relu_pool_proj
I0403 15:34:49.305311 20059 net.cpp:425] inception_3a/relu_pool_proj <- inception_3a/pool_proj
I0403 15:34:49.305330 20059 net.cpp:386] inception_3a/relu_pool_proj -> inception_3a/pool_proj (in-place)
I0403 15:34:49.305616 20059 net.cpp:141] Setting up inception_3a/relu_pool_proj
I0403 15:34:49.305646 20059 net.cpp:148] Top shape: 24 32 28 28 (602112)
I0403 15:34:49.305663 20059 net.cpp:156] Memory required for data: 561169440
I0403 15:34:49.305678 20059 layer_factory.hpp:77] Creating layer inception_3a/output
I0403 15:34:49.305696 20059 net.cpp:91] Creating Layer inception_3a/output
I0403 15:34:49.305713 20059 net.cpp:425] inception_3a/output <- inception_3a/1x1
I0403 15:34:49.305730 20059 net.cpp:425] inception_3a/output <- inception_3a/3x3
I0403 15:34:49.305747 20059 net.cpp:425] inception_3a/output <- inception_3a/5x5
I0403 15:34:49.305763 20059 net.cpp:425] inception_3a/output <- inception_3a/pool_proj
I0403 15:34:49.305780 20059 net.cpp:399] inception_3a/output -> inception_3a/output
I0403 15:34:49.305829 20059 net.cpp:141] Setting up inception_3a/output
I0403 15:34:49.305852 20059 net.cpp:148] Top shape: 24 256 28 28 (4816896)
I0403 15:34:49.305867 20059 net.cpp:156] Memory required for data: 580437024
I0403 15:34:49.305883 20059 layer_factory.hpp:77] Creating layer inception_3a/output_inception_3a/output_0_split
I0403 15:34:49.305901 20059 net.cpp:91] Creating Layer inception_3a/output_inception_3a/output_0_split
I0403 15:34:49.305919 20059 net.cpp:425] inception_3a/output_inception_3a/output_0_split <- inception_3a/output
I0403 15:34:49.305938 20059 net.cpp:399] inception_3a/output_inception_3a/output_0_split -> inception_3a/output_inception_3a/output_0_split_0
I0403 15:34:49.305958 20059 net.cpp:399] inception_3a/output_inception_3a/output_0_split -> inception_3a/output_inception_3a/output_0_split_1
I0403 15:34:49.305982 20059 net.cpp:399] inception_3a/output_inception_3a/output_0_split -> inception_3a/output_inception_3a/output_0_split_2
I0403 15:34:49.306005 20059 net.cpp:399] inception_3a/output_inception_3a/output_0_split -> inception_3a/output_inception_3a/output_0_split_3
I0403 15:34:49.306087 20059 net.cpp:141] Setting up inception_3a/output_inception_3a/output_0_split
I0403 15:34:49.306112 20059 net.cpp:148] Top shape: 24 256 28 28 (4816896)
I0403 15:34:49.306128 20059 net.cpp:148] Top shape: 24 256 28 28 (4816896)
I0403 15:34:49.306144 20059 net.cpp:148] Top shape: 24 256 28 28 (4816896)
I0403 15:34:49.306162 20059 net.cpp:148] Top shape: 24 256 28 28 (4816896)
I0403 15:34:49.306176 20059 net.cpp:156] Memory required for data: 657507360
I0403 15:34:49.306191 20059 layer_factory.hpp:77] Creating layer inception_3b/1x1
I0403 15:34:49.306215 20059 net.cpp:91] Creating Layer inception_3b/1x1
I0403 15:34:49.306232 20059 net.cpp:425] inception_3b/1x1 <- inception_3a/output_inception_3a/output_0_split_0
I0403 15:34:49.306254 20059 net.cpp:399] inception_3b/1x1 -> inception_3b/1x1
I0403 15:34:49.307437 20059 net.cpp:141] Setting up inception_3b/1x1
I0403 15:34:49.307478 20059 net.cpp:148] Top shape: 24 128 28 28 (2408448)
I0403 15:34:49.307495 20059 net.cpp:156] Memory required for data: 667141152
I0403 15:34:49.307514 20059 layer_factory.hpp:77] Creating layer inception_3b/relu_1x1
I0403 15:34:49.307536 20059 net.cpp:91] Creating Layer inception_3b/relu_1x1
I0403 15:34:49.307554 20059 net.cpp:425] inception_3b/relu_1x1 <- inception_3b/1x1
I0403 15:34:49.307571 20059 net.cpp:386] inception_3b/relu_1x1 -> inception_3b/1x1 (in-place)
I0403 15:34:49.307752 20059 net.cpp:141] Setting up inception_3b/relu_1x1
I0403 15:34:49.307781 20059 net.cpp:148] Top shape: 24 128 28 28 (2408448)
I0403 15:34:49.307797 20059 net.cpp:156] Memory required for data: 676774944
I0403 15:34:49.307812 20059 layer_factory.hpp:77] Creating layer inception_3b/3x3_reduce
I0403 15:34:49.307837 20059 net.cpp:91] Creating Layer inception_3b/3x3_reduce
I0403 15:34:49.307853 20059 net.cpp:425] inception_3b/3x3_reduce <- inception_3a/output_inception_3a/output_0_split_1
I0403 15:34:49.307873 20059 net.cpp:399] inception_3b/3x3_reduce -> inception_3b/3x3_reduce
I0403 15:34:49.309064 20059 net.cpp:141] Setting up inception_3b/3x3_reduce
I0403 15:34:49.309093 20059 net.cpp:148] Top shape: 24 128 28 28 (2408448)
I0403 15:34:49.309109 20059 net.cpp:156] Memory required for data: 686408736
I0403 15:34:49.309128 20059 layer_factory.hpp:77] Creating layer inception_3b/relu_3x3_reduce
I0403 15:34:49.309150 20059 net.cpp:91] Creating Layer inception_3b/relu_3x3_reduce
I0403 15:34:49.309167 20059 net.cpp:425] inception_3b/relu_3x3_reduce <- inception_3b/3x3_reduce
I0403 15:34:49.309185 20059 net.cpp:386] inception_3b/relu_3x3_reduce -> inception_3b/3x3_reduce (in-place)
I0403 15:34:49.309366 20059 net.cpp:141] Setting up inception_3b/relu_3x3_reduce
I0403 15:34:49.309392 20059 net.cpp:148] Top shape: 24 128 28 28 (2408448)
I0403 15:34:49.309406 20059 net.cpp:156] Memory required for data: 696042528
I0403 15:34:49.309422 20059 layer_factory.hpp:77] Creating layer inception_3b/3x3
I0403 15:34:49.309448 20059 net.cpp:91] Creating Layer inception_3b/3x3
I0403 15:34:49.309468 20059 net.cpp:425] inception_3b/3x3 <- inception_3b/3x3_reduce
I0403 15:34:49.309489 20059 net.cpp:399] inception_3b/3x3 -> inception_3b/3x3
I0403 15:34:49.312554 20059 net.cpp:141] Setting up inception_3b/3x3
I0403 15:34:49.312587 20059 net.cpp:148] Top shape: 24 192 28 28 (3612672)
I0403 15:34:49.312604 20059 net.cpp:156] Memory required for data: 710493216
I0403 15:34:49.312623 20059 layer_factory.hpp:77] Creating layer inception_3b/relu_3x3
I0403 15:34:49.312643 20059 net.cpp:91] Creating Layer inception_3b/relu_3x3
I0403 15:34:49.312659 20059 net.cpp:425] inception_3b/relu_3x3 <- inception_3b/3x3
I0403 15:34:49.312676 20059 net.cpp:386] inception_3b/relu_3x3 -> inception_3b/3x3 (in-place)
I0403 15:34:49.312963 20059 net.cpp:141] Setting up inception_3b/relu_3x3
I0403 15:34:49.312993 20059 net.cpp:148] Top shape: 24 192 28 28 (3612672)
I0403 15:34:49.313009 20059 net.cpp:156] Memory required for data: 724943904
I0403 15:34:49.313030 20059 layer_factory.hpp:77] Creating layer inception_3b/5x5_reduce
I0403 15:34:49.313051 20059 net.cpp:91] Creating Layer inception_3b/5x5_reduce
I0403 15:34:49.313071 20059 net.cpp:425] inception_3b/5x5_reduce <- inception_3a/output_inception_3a/output_0_split_2
I0403 15:34:49.313092 20059 net.cpp:399] inception_3b/5x5_reduce -> inception_3b/5x5_reduce
I0403 15:34:49.314121 20059 net.cpp:141] Setting up inception_3b/5x5_reduce
I0403 15:34:49.314149 20059 net.cpp:148] Top shape: 24 32 28 28 (602112)
I0403 15:34:49.314165 20059 net.cpp:156] Memory required for data: 727352352
I0403 15:34:49.314183 20059 layer_factory.hpp:77] Creating layer inception_3b/relu_5x5_reduce
I0403 15:34:49.314206 20059 net.cpp:91] Creating Layer inception_3b/relu_5x5_reduce
I0403 15:34:49.314224 20059 net.cpp:425] inception_3b/relu_5x5_reduce <- inception_3b/5x5_reduce
I0403 15:34:49.314240 20059 net.cpp:386] inception_3b/relu_5x5_reduce -> inception_3b/5x5_reduce (in-place)
I0403 15:34:49.314437 20059 net.cpp:141] Setting up inception_3b/relu_5x5_reduce
I0403 15:34:49.314466 20059 net.cpp:148] Top shape: 24 32 28 28 (602112)
I0403 15:34:49.314482 20059 net.cpp:156] Memory required for data: 729760800
I0403 15:34:49.314497 20059 layer_factory.hpp:77] Creating layer inception_3b/5x5
I0403 15:34:49.314520 20059 net.cpp:91] Creating Layer inception_3b/5x5
I0403 15:34:49.314538 20059 net.cpp:425] inception_3b/5x5 <- inception_3b/5x5_reduce
I0403 15:34:49.314558 20059 net.cpp:399] inception_3b/5x5 -> inception_3b/5x5
I0403 15:34:49.316615 20059 net.cpp:141] Setting up inception_3b/5x5
I0403 15:34:49.316647 20059 net.cpp:148] Top shape: 24 96 28 28 (1806336)
I0403 15:34:49.316663 20059 net.cpp:156] Memory required for data: 736986144
I0403 15:34:49.316681 20059 layer_factory.hpp:77] Creating layer inception_3b/relu_5x5
I0403 15:34:49.316704 20059 net.cpp:91] Creating Layer inception_3b/relu_5x5
I0403 15:34:49.316720 20059 net.cpp:425] inception_3b/relu_5x5 <- inception_3b/5x5
I0403 15:34:49.316738 20059 net.cpp:386] inception_3b/relu_5x5 -> inception_3b/5x5 (in-place)
I0403 15:34:49.316941 20059 net.cpp:141] Setting up inception_3b/relu_5x5
I0403 15:34:49.316967 20059 net.cpp:148] Top shape: 24 96 28 28 (1806336)
I0403 15:34:49.316983 20059 net.cpp:156] Memory required for data: 744211488
I0403 15:34:49.316998 20059 layer_factory.hpp:77] Creating layer inception_3b/pool
I0403 15:34:49.317020 20059 net.cpp:91] Creating Layer inception_3b/pool
I0403 15:34:49.317039 20059 net.cpp:425] inception_3b/pool <- inception_3a/output_inception_3a/output_0_split_3
I0403 15:34:49.317057 20059 net.cpp:399] inception_3b/pool -> inception_3b/pool
I0403 15:34:49.317116 20059 net.cpp:141] Setting up inception_3b/pool
I0403 15:34:49.317140 20059 net.cpp:148] Top shape: 24 256 28 28 (4816896)
I0403 15:34:49.317155 20059 net.cpp:156] Memory required for data: 763479072
I0403 15:34:49.317170 20059 layer_factory.hpp:77] Creating layer inception_3b/pool_proj
I0403 15:34:49.317193 20059 net.cpp:91] Creating Layer inception_3b/pool_proj
I0403 15:34:49.317212 20059 net.cpp:425] inception_3b/pool_proj <- inception_3b/pool
I0403 15:34:49.317234 20059 net.cpp:399] inception_3b/pool_proj -> inception_3b/pool_proj
I0403 15:34:49.318330 20059 net.cpp:141] Setting up inception_3b/pool_proj
I0403 15:34:49.318361 20059 net.cpp:148] Top shape: 24 64 28 28 (1204224)
I0403 15:34:49.318377 20059 net.cpp:156] Memory required for data: 768295968
I0403 15:34:49.318397 20059 layer_factory.hpp:77] Creating layer inception_3b/relu_pool_proj
I0403 15:34:49.318415 20059 net.cpp:91] Creating Layer inception_3b/relu_pool_proj
I0403 15:34:49.318431 20059 net.cpp:425] inception_3b/relu_pool_proj <- inception_3b/pool_proj
I0403 15:34:49.318452 20059 net.cpp:386] inception_3b/relu_pool_proj -> inception_3b/pool_proj (in-place)
I0403 15:34:49.318866 20059 net.cpp:141] Setting up inception_3b/relu_pool_proj
I0403 15:34:49.318897 20059 net.cpp:148] Top shape: 24 64 28 28 (1204224)
I0403 15:34:49.318912 20059 net.cpp:156] Memory required for data: 773112864
I0403 15:34:49.318928 20059 layer_factory.hpp:77] Creating layer inception_3b/output
I0403 15:34:49.318946 20059 net.cpp:91] Creating Layer inception_3b/output
I0403 15:34:49.318964 20059 net.cpp:425] inception_3b/output <- inception_3b/1x1
I0403 15:34:49.318980 20059 net.cpp:425] inception_3b/output <- inception_3b/3x3
I0403 15:34:49.318997 20059 net.cpp:425] inception_3b/output <- inception_3b/5x5
I0403 15:34:49.319013 20059 net.cpp:425] inception_3b/output <- inception_3b/pool_proj
I0403 15:34:49.319044 20059 net.cpp:399] inception_3b/output -> inception_3b/output
I0403 15:34:49.319095 20059 net.cpp:141] Setting up inception_3b/output
I0403 15:34:49.319120 20059 net.cpp:148] Top shape: 24 480 28 28 (9031680)
I0403 15:34:49.319135 20059 net.cpp:156] Memory required for data: 809239584
I0403 15:34:49.319150 20059 layer_factory.hpp:77] Creating layer pool3/3x3_s2
I0403 15:34:49.319171 20059 net.cpp:91] Creating Layer pool3/3x3_s2
I0403 15:34:49.319187 20059 net.cpp:425] pool3/3x3_s2 <- inception_3b/output
I0403 15:34:49.319222 20059 net.cpp:399] pool3/3x3_s2 -> pool3/3x3_s2
I0403 15:34:49.319286 20059 net.cpp:141] Setting up pool3/3x3_s2
I0403 15:34:49.319310 20059 net.cpp:148] Top shape: 24 480 14 14 (2257920)
I0403 15:34:49.319325 20059 net.cpp:156] Memory required for data: 818271264
I0403 15:34:49.319340 20059 layer_factory.hpp:77] Creating layer pool3/3x3_s2_pool3/3x3_s2_0_split
I0403 15:34:49.319358 20059 net.cpp:91] Creating Layer pool3/3x3_s2_pool3/3x3_s2_0_split
I0403 15:34:49.319375 20059 net.cpp:425] pool3/3x3_s2_pool3/3x3_s2_0_split <- pool3/3x3_s2
I0403 15:34:49.319394 20059 net.cpp:399] pool3/3x3_s2_pool3/3x3_s2_0_split -> pool3/3x3_s2_pool3/3x3_s2_0_split_0
I0403 15:34:49.319416 20059 net.cpp:399] pool3/3x3_s2_pool3/3x3_s2_0_split -> pool3/3x3_s2_pool3/3x3_s2_0_split_1
I0403 15:34:49.319435 20059 net.cpp:399] pool3/3x3_s2_pool3/3x3_s2_0_split -> pool3/3x3_s2_pool3/3x3_s2_0_split_2
I0403 15:34:49.319461 20059 net.cpp:399] pool3/3x3_s2_pool3/3x3_s2_0_split -> pool3/3x3_s2_pool3/3x3_s2_0_split_3
I0403 15:34:49.319543 20059 net.cpp:141] Setting up pool3/3x3_s2_pool3/3x3_s2_0_split
I0403 15:34:49.319569 20059 net.cpp:148] Top shape: 24 480 14 14 (2257920)
I0403 15:34:49.319588 20059 net.cpp:148] Top shape: 24 480 14 14 (2257920)
I0403 15:34:49.319607 20059 net.cpp:148] Top shape: 24 480 14 14 (2257920)
I0403 15:34:49.319623 20059 net.cpp:148] Top shape: 24 480 14 14 (2257920)
I0403 15:34:49.319638 20059 net.cpp:156] Memory required for data: 854397984
I0403 15:34:49.319658 20059 layer_factory.hpp:77] Creating layer inception_4a/1x1
I0403 15:34:49.319682 20059 net.cpp:91] Creating Layer inception_4a/1x1
I0403 15:34:49.319701 20059 net.cpp:425] inception_4a/1x1 <- pool3/3x3_s2_pool3/3x3_s2_0_split_0
I0403 15:34:49.319720 20059 net.cpp:399] inception_4a/1x1 -> inception_4a/1x1
I0403 15:34:49.321373 20059 net.cpp:141] Setting up inception_4a/1x1
I0403 15:34:49.321403 20059 net.cpp:148] Top shape: 24 192 14 14 (903168)
I0403 15:34:49.321419 20059 net.cpp:156] Memory required for data: 858010656
I0403 15:34:49.321439 20059 layer_factory.hpp:77] Creating layer inception_4a/relu_1x1
I0403 15:34:49.321456 20059 net.cpp:91] Creating Layer inception_4a/relu_1x1
I0403 15:34:49.321480 20059 net.cpp:425] inception_4a/relu_1x1 <- inception_4a/1x1
I0403 15:34:49.321498 20059 net.cpp:386] inception_4a/relu_1x1 -> inception_4a/1x1 (in-place)
I0403 15:34:49.321682 20059 net.cpp:141] Setting up inception_4a/relu_1x1
I0403 15:34:49.321708 20059 net.cpp:148] Top shape: 24 192 14 14 (903168)
I0403 15:34:49.321724 20059 net.cpp:156] Memory required for data: 861623328
I0403 15:34:49.321739 20059 layer_factory.hpp:77] Creating layer inception_4a/3x3_reduce
I0403 15:34:49.321763 20059 net.cpp:91] Creating Layer inception_4a/3x3_reduce
I0403 15:34:49.321780 20059 net.cpp:425] inception_4a/3x3_reduce <- pool3/3x3_s2_pool3/3x3_s2_0_split_1
I0403 15:34:49.321804 20059 net.cpp:399] inception_4a/3x3_reduce -> inception_4a/3x3_reduce
I0403 15:34:49.323145 20059 net.cpp:141] Setting up inception_4a/3x3_reduce
I0403 15:34:49.323174 20059 net.cpp:148] Top shape: 24 96 14 14 (451584)
I0403 15:34:49.323190 20059 net.cpp:156] Memory required for data: 863429664
I0403 15:34:49.323216 20059 layer_factory.hpp:77] Creating layer inception_4a/relu_3x3_reduce
I0403 15:34:49.323237 20059 net.cpp:91] Creating Layer inception_4a/relu_3x3_reduce
I0403 15:34:49.323253 20059 net.cpp:425] inception_4a/relu_3x3_reduce <- inception_4a/3x3_reduce
I0403 15:34:49.323274 20059 net.cpp:386] inception_4a/relu_3x3_reduce -> inception_4a/3x3_reduce (in-place)
I0403 15:34:49.323465 20059 net.cpp:141] Setting up inception_4a/relu_3x3_reduce
I0403 15:34:49.323492 20059 net.cpp:148] Top shape: 24 96 14 14 (451584)
I0403 15:34:49.323506 20059 net.cpp:156] Memory required for data: 865236000
I0403 15:34:49.323521 20059 layer_factory.hpp:77] Creating layer inception_4a/3x3
I0403 15:34:49.323545 20059 net.cpp:91] Creating Layer inception_4a/3x3
I0403 15:34:49.323562 20059 net.cpp:425] inception_4a/3x3 <- inception_4a/3x3_reduce
I0403 15:34:49.323585 20059 net.cpp:399] inception_4a/3x3 -> inception_4a/3x3
I0403 15:34:49.326406 20059 net.cpp:141] Setting up inception_4a/3x3
I0403 15:34:49.326436 20059 net.cpp:148] Top shape: 24 208 14 14 (978432)
I0403 15:34:49.326452 20059 net.cpp:156] Memory required for data: 869149728
I0403 15:34:49.326472 20059 layer_factory.hpp:77] Creating layer inception_4a/relu_3x3
I0403 15:34:49.326493 20059 net.cpp:91] Creating Layer inception_4a/relu_3x3
I0403 15:34:49.326510 20059 net.cpp:425] inception_4a/relu_3x3 <- inception_4a/3x3
I0403 15:34:49.326529 20059 net.cpp:386] inception_4a/relu_3x3 -> inception_4a/3x3 (in-place)
I0403 15:34:49.326817 20059 net.cpp:141] Setting up inception_4a/relu_3x3
I0403 15:34:49.326844 20059 net.cpp:148] Top shape: 24 208 14 14 (978432)
I0403 15:34:49.326860 20059 net.cpp:156] Memory required for data: 873063456
I0403 15:34:49.326876 20059 layer_factory.hpp:77] Creating layer inception_4a/5x5_reduce
I0403 15:34:49.326900 20059 net.cpp:91] Creating Layer inception_4a/5x5_reduce
I0403 15:34:49.326917 20059 net.cpp:425] inception_4a/5x5_reduce <- pool3/3x3_s2_pool3/3x3_s2_0_split_2
I0403 15:34:49.326939 20059 net.cpp:399] inception_4a/5x5_reduce -> inception_4a/5x5_reduce
I0403 15:34:49.328012 20059 net.cpp:141] Setting up inception_4a/5x5_reduce
I0403 15:34:49.328045 20059 net.cpp:148] Top shape: 24 16 14 14 (75264)
I0403 15:34:49.328061 20059 net.cpp:156] Memory required for data: 873364512
I0403 15:34:49.328080 20059 layer_factory.hpp:77] Creating layer inception_4a/relu_5x5_reduce
I0403 15:34:49.328105 20059 net.cpp:91] Creating Layer inception_4a/relu_5x5_reduce
I0403 15:34:49.328124 20059 net.cpp:425] inception_4a/relu_5x5_reduce <- inception_4a/5x5_reduce
I0403 15:34:49.328141 20059 net.cpp:386] inception_4a/relu_5x5_reduce -> inception_4a/5x5_reduce (in-place)
I0403 15:34:49.328328 20059 net.cpp:141] Setting up inception_4a/relu_5x5_reduce
I0403 15:34:49.328356 20059 net.cpp:148] Top shape: 24 16 14 14 (75264)
I0403 15:34:49.328372 20059 net.cpp:156] Memory required for data: 873665568
I0403 15:34:49.328387 20059 layer_factory.hpp:77] Creating layer inception_4a/5x5
I0403 15:34:49.328410 20059 net.cpp:91] Creating Layer inception_4a/5x5
I0403 15:34:49.328429 20059 net.cpp:425] inception_4a/5x5 <- inception_4a/5x5_reduce
I0403 15:34:49.328449 20059 net.cpp:399] inception_4a/5x5 -> inception_4a/5x5
I0403 15:34:49.329596 20059 net.cpp:141] Setting up inception_4a/5x5
I0403 15:34:49.329627 20059 net.cpp:148] Top shape: 24 48 14 14 (225792)
I0403 15:34:49.329644 20059 net.cpp:156] Memory required for data: 874568736
I0403 15:34:49.329663 20059 layer_factory.hpp:77] Creating layer inception_4a/relu_5x5
I0403 15:34:49.329681 20059 net.cpp:91] Creating Layer inception_4a/relu_5x5
I0403 15:34:49.329697 20059 net.cpp:425] inception_4a/relu_5x5 <- inception_4a/5x5
I0403 15:34:49.329717 20059 net.cpp:386] inception_4a/relu_5x5 -> inception_4a/5x5 (in-place)
I0403 15:34:49.329907 20059 net.cpp:141] Setting up inception_4a/relu_5x5
I0403 15:34:49.329933 20059 net.cpp:148] Top shape: 24 48 14 14 (225792)
I0403 15:34:49.329948 20059 net.cpp:156] Memory required for data: 875471904
I0403 15:34:49.329963 20059 layer_factory.hpp:77] Creating layer inception_4a/pool
I0403 15:34:49.329982 20059 net.cpp:91] Creating Layer inception_4a/pool
I0403 15:34:49.330001 20059 net.cpp:425] inception_4a/pool <- pool3/3x3_s2_pool3/3x3_s2_0_split_3
I0403 15:34:49.330024 20059 net.cpp:399] inception_4a/pool -> inception_4a/pool
I0403 15:34:49.330090 20059 net.cpp:141] Setting up inception_4a/pool
I0403 15:34:49.330114 20059 net.cpp:148] Top shape: 24 480 14 14 (2257920)
I0403 15:34:49.330129 20059 net.cpp:156] Memory required for data: 884503584
I0403 15:34:49.330144 20059 layer_factory.hpp:77] Creating layer inception_4a/pool_proj
I0403 15:34:49.330168 20059 net.cpp:91] Creating Layer inception_4a/pool_proj
I0403 15:34:49.330186 20059 net.cpp:425] inception_4a/pool_proj <- inception_4a/pool
I0403 15:34:49.330207 20059 net.cpp:399] inception_4a/pool_proj -> inception_4a/pool_proj
I0403 15:34:49.331428 20059 net.cpp:141] Setting up inception_4a/pool_proj
I0403 15:34:49.331456 20059 net.cpp:148] Top shape: 24 64 14 14 (301056)
I0403 15:34:49.331488 20059 net.cpp:156] Memory required for data: 885707808
I0403 15:34:49.331508 20059 layer_factory.hpp:77] Creating layer inception_4a/relu_pool_proj
I0403 15:34:49.331527 20059 net.cpp:91] Creating Layer inception_4a/relu_pool_proj
I0403 15:34:49.331544 20059 net.cpp:425] inception_4a/relu_pool_proj <- inception_4a/pool_proj
I0403 15:34:49.331569 20059 net.cpp:386] inception_4a/relu_pool_proj -> inception_4a/pool_proj (in-place)
I0403 15:34:49.331866 20059 net.cpp:141] Setting up inception_4a/relu_pool_proj
I0403 15:34:49.331892 20059 net.cpp:148] Top shape: 24 64 14 14 (301056)
I0403 15:34:49.331908 20059 net.cpp:156] Memory required for data: 886912032
I0403 15:34:49.331923 20059 layer_factory.hpp:77] Creating layer inception_4a/output
I0403 15:34:49.331941 20059 net.cpp:91] Creating Layer inception_4a/output
I0403 15:34:49.331957 20059 net.cpp:425] inception_4a/output <- inception_4a/1x1
I0403 15:34:49.331975 20059 net.cpp:425] inception_4a/output <- inception_4a/3x3
I0403 15:34:49.331991 20059 net.cpp:425] inception_4a/output <- inception_4a/5x5
I0403 15:34:49.332007 20059 net.cpp:425] inception_4a/output <- inception_4a/pool_proj
I0403 15:34:49.332033 20059 net.cpp:399] inception_4a/output -> inception_4a/output
I0403 15:34:49.332082 20059 net.cpp:141] Setting up inception_4a/output
I0403 15:34:49.332108 20059 net.cpp:148] Top shape: 24 512 14 14 (2408448)
I0403 15:34:49.332124 20059 net.cpp:156] Memory required for data: 896545824
I0403 15:34:49.332139 20059 layer_factory.hpp:77] Creating layer inception_4a/output_inception_4a/output_0_split
I0403 15:34:49.332157 20059 net.cpp:91] Creating Layer inception_4a/output_inception_4a/output_0_split
I0403 15:34:49.332173 20059 net.cpp:425] inception_4a/output_inception_4a/output_0_split <- inception_4a/output
I0403 15:34:49.332191 20059 net.cpp:399] inception_4a/output_inception_4a/output_0_split -> inception_4a/output_inception_4a/output_0_split_0
I0403 15:34:49.332214 20059 net.cpp:399] inception_4a/output_inception_4a/output_0_split -> inception_4a/output_inception_4a/output_0_split_1
I0403 15:34:49.332237 20059 net.cpp:399] inception_4a/output_inception_4a/output_0_split -> inception_4a/output_inception_4a/output_0_split_2
I0403 15:34:49.332257 20059 net.cpp:399] inception_4a/output_inception_4a/output_0_split -> inception_4a/output_inception_4a/output_0_split_3
I0403 15:34:49.332278 20059 net.cpp:399] inception_4a/output_inception_4a/output_0_split -> inception_4a/output_inception_4a/output_0_split_4
I0403 15:34:49.332373 20059 net.cpp:141] Setting up inception_4a/output_inception_4a/output_0_split
I0403 15:34:49.332397 20059 net.cpp:148] Top shape: 24 512 14 14 (2408448)
I0403 15:34:49.332414 20059 net.cpp:148] Top shape: 24 512 14 14 (2408448)
I0403 15:34:49.332434 20059 net.cpp:148] Top shape: 24 512 14 14 (2408448)
I0403 15:34:49.332450 20059 net.cpp:148] Top shape: 24 512 14 14 (2408448)
I0403 15:34:49.332466 20059 net.cpp:148] Top shape: 24 512 14 14 (2408448)
I0403 15:34:49.332480 20059 net.cpp:156] Memory required for data: 944714784
I0403 15:34:49.332496 20059 layer_factory.hpp:77] Creating layer loss1/ave_pool
I0403 15:34:49.332515 20059 net.cpp:91] Creating Layer loss1/ave_pool
I0403 15:34:49.332531 20059 net.cpp:425] loss1/ave_pool <- inception_4a/output_inception_4a/output_0_split_0
I0403 15:34:49.332550 20059 net.cpp:399] loss1/ave_pool -> loss1/ave_pool
I0403 15:34:49.332768 20059 net.cpp:141] Setting up loss1/ave_pool
I0403 15:34:49.332795 20059 net.cpp:148] Top shape: 24 512 4 4 (196608)
I0403 15:34:49.332810 20059 net.cpp:156] Memory required for data: 945501216
I0403 15:34:49.332825 20059 layer_factory.hpp:77] Creating layer loss1/conv
I0403 15:34:49.332849 20059 net.cpp:91] Creating Layer loss1/conv
I0403 15:34:49.332867 20059 net.cpp:425] loss1/conv <- loss1/ave_pool
I0403 15:34:49.332890 20059 net.cpp:399] loss1/conv -> loss1/conv
I0403 15:34:49.334386 20059 net.cpp:141] Setting up loss1/conv
I0403 15:34:49.334415 20059 net.cpp:148] Top shape: 24 128 4 4 (49152)
I0403 15:34:49.334446 20059 net.cpp:156] Memory required for data: 945697824
I0403 15:34:49.334466 20059 layer_factory.hpp:77] Creating layer loss1/relu_conv
I0403 15:34:49.334488 20059 net.cpp:91] Creating Layer loss1/relu_conv
I0403 15:34:49.334506 20059 net.cpp:425] loss1/relu_conv <- loss1/conv
I0403 15:34:49.334523 20059 net.cpp:386] loss1/relu_conv -> loss1/conv (in-place)
I0403 15:34:49.334827 20059 net.cpp:141] Setting up loss1/relu_conv
I0403 15:34:49.334854 20059 net.cpp:148] Top shape: 24 128 4 4 (49152)
I0403 15:34:49.334870 20059 net.cpp:156] Memory required for data: 945894432
I0403 15:34:49.334885 20059 layer_factory.hpp:77] Creating layer loss1/fc
I0403 15:34:49.334913 20059 net.cpp:91] Creating Layer loss1/fc
I0403 15:34:49.334933 20059 net.cpp:425] loss1/fc <- loss1/conv
I0403 15:34:49.334951 20059 net.cpp:399] loss1/fc -> loss1/fc
I0403 15:34:49.353786 20059 net.cpp:141] Setting up loss1/fc
I0403 15:34:49.353847 20059 net.cpp:148] Top shape: 24 1024 (24576)
I0403 15:34:49.353863 20059 net.cpp:156] Memory required for data: 945992736
I0403 15:34:49.353883 20059 layer_factory.hpp:77] Creating layer loss1/relu_fc
I0403 15:34:49.353904 20059 net.cpp:91] Creating Layer loss1/relu_fc
I0403 15:34:49.353922 20059 net.cpp:425] loss1/relu_fc <- loss1/fc
I0403 15:34:49.353943 20059 net.cpp:386] loss1/relu_fc -> loss1/fc (in-place)
I0403 15:34:49.354176 20059 net.cpp:141] Setting up loss1/relu_fc
I0403 15:34:49.354203 20059 net.cpp:148] Top shape: 24 1024 (24576)
I0403 15:34:49.354218 20059 net.cpp:156] Memory required for data: 946091040
I0403 15:34:49.354234 20059 layer_factory.hpp:77] Creating layer loss1/drop_fc
I0403 15:34:49.354266 20059 net.cpp:91] Creating Layer loss1/drop_fc
I0403 15:34:49.354285 20059 net.cpp:425] loss1/drop_fc <- loss1/fc
I0403 15:34:49.354303 20059 net.cpp:386] loss1/drop_fc -> loss1/fc (in-place)
I0403 15:34:49.354358 20059 net.cpp:141] Setting up loss1/drop_fc
I0403 15:34:49.354387 20059 net.cpp:148] Top shape: 24 1024 (24576)
I0403 15:34:49.354403 20059 net.cpp:156] Memory required for data: 946189344
I0403 15:34:49.354419 20059 layer_factory.hpp:77] Creating layer loss1/classifier_plantvillage
I0403 15:34:49.354439 20059 net.cpp:91] Creating Layer loss1/classifier_plantvillage
I0403 15:34:49.354454 20059 net.cpp:425] loss1/classifier_plantvillage <- loss1/fc
I0403 15:34:49.354476 20059 net.cpp:399] loss1/classifier_plantvillage -> loss1/classifier_plantvillage
I0403 15:34:49.355460 20059 net.cpp:141] Setting up loss1/classifier_plantvillage
I0403 15:34:49.355490 20059 net.cpp:148] Top shape: 24 38 (912)
I0403 15:34:49.355506 20059 net.cpp:156] Memory required for data: 946192992
I0403 15:34:49.355525 20059 layer_factory.hpp:77] Creating layer loss1/classifier_plantvillage_loss1/classifier_plantvillage_0_split
I0403 15:34:49.355546 20059 net.cpp:91] Creating Layer loss1/classifier_plantvillage_loss1/classifier_plantvillage_0_split
I0403 15:34:49.355564 20059 net.cpp:425] loss1/classifier_plantvillage_loss1/classifier_plantvillage_0_split <- loss1/classifier_plantvillage
I0403 15:34:49.355582 20059 net.cpp:399] loss1/classifier_plantvillage_loss1/classifier_plantvillage_0_split -> loss1/classifier_plantvillage_loss1/classifier_plantvillage_0_split_0
I0403 15:34:49.355603 20059 net.cpp:399] loss1/classifier_plantvillage_loss1/classifier_plantvillage_0_split -> loss1/classifier_plantvillage_loss1/classifier_plantvillage_0_split_1
I0403 15:34:49.355624 20059 net.cpp:399] loss1/classifier_plantvillage_loss1/classifier_plantvillage_0_split -> loss1/classifier_plantvillage_loss1/classifier_plantvillage_0_split_2
I0403 15:34:49.355693 20059 net.cpp:141] Setting up loss1/classifier_plantvillage_loss1/classifier_plantvillage_0_split
I0403 15:34:49.355720 20059 net.cpp:148] Top shape: 24 38 (912)
I0403 15:34:49.355737 20059 net.cpp:148] Top shape: 24 38 (912)
I0403 15:34:49.355754 20059 net.cpp:148] Top shape: 24 38 (912)
I0403 15:34:49.355768 20059 net.cpp:156] Memory required for data: 946203936
I0403 15:34:49.355783 20059 layer_factory.hpp:77] Creating layer inception_4b/1x1
I0403 15:34:49.355805 20059 net.cpp:91] Creating Layer inception_4b/1x1
I0403 15:34:49.355844 20059 net.cpp:425] inception_4b/1x1 <- inception_4a/output_inception_4a/output_0_split_1
I0403 15:34:49.355865 20059 net.cpp:399] inception_4b/1x1 -> inception_4b/1x1
I0403 15:34:49.357645 20059 net.cpp:141] Setting up inception_4b/1x1
I0403 15:34:49.357676 20059 net.cpp:148] Top shape: 24 160 14 14 (752640)
I0403 15:34:49.357692 20059 net.cpp:156] Memory required for data: 949214496
I0403 15:34:49.357709 20059 layer_factory.hpp:77] Creating layer inception_4b/relu_1x1
I0403 15:34:49.357731 20059 net.cpp:91] Creating Layer inception_4b/relu_1x1
I0403 15:34:49.357748 20059 net.cpp:425] inception_4b/relu_1x1 <- inception_4b/1x1
I0403 15:34:49.357766 20059 net.cpp:386] inception_4b/relu_1x1 -> inception_4b/1x1 (in-place)
I0403 15:34:49.357959 20059 net.cpp:141] Setting up inception_4b/relu_1x1
I0403 15:34:49.357987 20059 net.cpp:148] Top shape: 24 160 14 14 (752640)
I0403 15:34:49.358005 20059 net.cpp:156] Memory required for data: 952225056
I0403 15:34:49.358023 20059 layer_factory.hpp:77] Creating layer inception_4b/3x3_reduce
I0403 15:34:49.358048 20059 net.cpp:91] Creating Layer inception_4b/3x3_reduce
I0403 15:34:49.358067 20059 net.cpp:425] inception_4b/3x3_reduce <- inception_4a/output_inception_4a/output_0_split_2
I0403 15:34:49.358088 20059 net.cpp:399] inception_4b/3x3_reduce -> inception_4b/3x3_reduce
I0403 15:34:49.359524 20059 net.cpp:141] Setting up inception_4b/3x3_reduce
I0403 15:34:49.359555 20059 net.cpp:148] Top shape: 24 112 14 14 (526848)
I0403 15:34:49.359572 20059 net.cpp:156] Memory required for data: 954332448
I0403 15:34:49.359591 20059 layer_factory.hpp:77] Creating layer inception_4b/relu_3x3_reduce
I0403 15:34:49.359611 20059 net.cpp:91] Creating Layer inception_4b/relu_3x3_reduce
I0403 15:34:49.359627 20059 net.cpp:425] inception_4b/relu_3x3_reduce <- inception_4b/3x3_reduce
I0403 15:34:49.359648 20059 net.cpp:386] inception_4b/relu_3x3_reduce -> inception_4b/3x3_reduce (in-place)
I0403 15:34:49.359946 20059 net.cpp:141] Setting up inception_4b/relu_3x3_reduce
I0403 15:34:49.359974 20059 net.cpp:148] Top shape: 24 112 14 14 (526848)
I0403 15:34:49.359992 20059 net.cpp:156] Memory required for data: 956439840
I0403 15:34:49.360007 20059 layer_factory.hpp:77] Creating layer inception_4b/3x3
I0403 15:34:49.360035 20059 net.cpp:91] Creating Layer inception_4b/3x3
I0403 15:34:49.360055 20059 net.cpp:425] inception_4b/3x3 <- inception_4b/3x3_reduce
I0403 15:34:49.360074 20059 net.cpp:399] inception_4b/3x3 -> inception_4b/3x3
I0403 15:34:49.363222 20059 net.cpp:141] Setting up inception_4b/3x3
I0403 15:34:49.363255 20059 net.cpp:148] Top shape: 24 224 14 14 (1053696)
I0403 15:34:49.363271 20059 net.cpp:156] Memory required for data: 960654624
I0403 15:34:49.363291 20059 layer_factory.hpp:77] Creating layer inception_4b/relu_3x3
I0403 15:34:49.363312 20059 net.cpp:91] Creating Layer inception_4b/relu_3x3
I0403 15:34:49.363330 20059 net.cpp:425] inception_4b/relu_3x3 <- inception_4b/3x3
I0403 15:34:49.363348 20059 net.cpp:386] inception_4b/relu_3x3 -> inception_4b/3x3 (in-place)
I0403 15:34:49.363536 20059 net.cpp:141] Setting up inception_4b/relu_3x3
I0403 15:34:49.363562 20059 net.cpp:148] Top shape: 24 224 14 14 (1053696)
I0403 15:34:49.363579 20059 net.cpp:156] Memory required for data: 964869408
I0403 15:34:49.363593 20059 layer_factory.hpp:77] Creating layer inception_4b/5x5_reduce
I0403 15:34:49.363616 20059 net.cpp:91] Creating Layer inception_4b/5x5_reduce
I0403 15:34:49.363636 20059 net.cpp:425] inception_4b/5x5_reduce <- inception_4a/output_inception_4a/output_0_split_3
I0403 15:34:49.363659 20059 net.cpp:399] inception_4b/5x5_reduce -> inception_4b/5x5_reduce
I0403 15:34:49.364812 20059 net.cpp:141] Setting up inception_4b/5x5_reduce
I0403 15:34:49.364841 20059 net.cpp:148] Top shape: 24 24 14 14 (112896)
I0403 15:34:49.364857 20059 net.cpp:156] Memory required for data: 965320992
I0403 15:34:49.364876 20059 layer_factory.hpp:77] Creating layer inception_4b/relu_5x5_reduce
I0403 15:34:49.364899 20059 net.cpp:91] Creating Layer inception_4b/relu_5x5_reduce
I0403 15:34:49.364931 20059 net.cpp:425] inception_4b/relu_5x5_reduce <- inception_4b/5x5_reduce
I0403 15:34:49.364951 20059 net.cpp:386] inception_4b/relu_5x5_reduce -> inception_4b/5x5_reduce (in-place)
I0403 15:34:49.365150 20059 net.cpp:141] Setting up inception_4b/relu_5x5_reduce
I0403 15:34:49.365176 20059 net.cpp:148] Top shape: 24 24 14 14 (112896)
I0403 15:34:49.365191 20059 net.cpp:156] Memory required for data: 965772576
I0403 15:34:49.365206 20059 layer_factory.hpp:77] Creating layer inception_4b/5x5
I0403 15:34:49.365229 20059 net.cpp:91] Creating Layer inception_4b/5x5
I0403 15:34:49.365249 20059 net.cpp:425] inception_4b/5x5 <- inception_4b/5x5_reduce
I0403 15:34:49.365272 20059 net.cpp:399] inception_4b/5x5 -> inception_4b/5x5
I0403 15:34:49.366569 20059 net.cpp:141] Setting up inception_4b/5x5
I0403 15:34:49.366596 20059 net.cpp:148] Top shape: 24 64 14 14 (301056)
I0403 15:34:49.366612 20059 net.cpp:156] Memory required for data: 966976800
I0403 15:34:49.366631 20059 layer_factory.hpp:77] Creating layer inception_4b/relu_5x5
I0403 15:34:49.366652 20059 net.cpp:91] Creating Layer inception_4b/relu_5x5
I0403 15:34:49.366667 20059 net.cpp:425] inception_4b/relu_5x5 <- inception_4b/5x5
I0403 15:34:49.366685 20059 net.cpp:386] inception_4b/relu_5x5 -> inception_4b/5x5 (in-place)
I0403 15:34:49.366979 20059 net.cpp:141] Setting up inception_4b/relu_5x5
I0403 15:34:49.367005 20059 net.cpp:148] Top shape: 24 64 14 14 (301056)
I0403 15:34:49.367025 20059 net.cpp:156] Memory required for data: 968181024
I0403 15:34:49.367041 20059 layer_factory.hpp:77] Creating layer inception_4b/pool
I0403 15:34:49.367063 20059 net.cpp:91] Creating Layer inception_4b/pool
I0403 15:34:49.367080 20059 net.cpp:425] inception_4b/pool <- inception_4a/output_inception_4a/output_0_split_4
I0403 15:34:49.367099 20059 net.cpp:399] inception_4b/pool -> inception_4b/pool
I0403 15:34:49.367164 20059 net.cpp:141] Setting up inception_4b/pool
I0403 15:34:49.367188 20059 net.cpp:148] Top shape: 24 512 14 14 (2408448)
I0403 15:34:49.367202 20059 net.cpp:156] Memory required for data: 977814816
I0403 15:34:49.367218 20059 layer_factory.hpp:77] Creating layer inception_4b/pool_proj
I0403 15:34:49.367239 20059 net.cpp:91] Creating Layer inception_4b/pool_proj
I0403 15:34:49.367257 20059 net.cpp:425] inception_4b/pool_proj <- inception_4b/pool
I0403 15:34:49.367279 20059 net.cpp:399] inception_4b/pool_proj -> inception_4b/pool_proj
I0403 15:34:49.368513 20059 net.cpp:141] Setting up inception_4b/pool_proj
I0403 15:34:49.368543 20059 net.cpp:148] Top shape: 24 64 14 14 (301056)
I0403 15:34:49.368561 20059 net.cpp:156] Memory required for data: 979019040
I0403 15:34:49.368579 20059 layer_factory.hpp:77] Creating layer inception_4b/relu_pool_proj
I0403 15:34:49.368597 20059 net.cpp:91] Creating Layer inception_4b/relu_pool_proj
I0403 15:34:49.368613 20059 net.cpp:425] inception_4b/relu_pool_proj <- inception_4b/pool_proj
I0403 15:34:49.368630 20059 net.cpp:386] inception_4b/relu_pool_proj -> inception_4b/pool_proj (in-place)
I0403 15:34:49.368818 20059 net.cpp:141] Setting up inception_4b/relu_pool_proj
I0403 15:34:49.368845 20059 net.cpp:148] Top shape: 24 64 14 14 (301056)
I0403 15:34:49.368861 20059 net.cpp:156] Memory required for data: 980223264
I0403 15:34:49.368876 20059 layer_factory.hpp:77] Creating layer inception_4b/output
I0403 15:34:49.368893 20059 net.cpp:91] Creating Layer inception_4b/output
I0403 15:34:49.368909 20059 net.cpp:425] inception_4b/output <- inception_4b/1x1
I0403 15:34:49.368926 20059 net.cpp:425] inception_4b/output <- inception_4b/3x3
I0403 15:34:49.368942 20059 net.cpp:425] inception_4b/output <- inception_4b/5x5
I0403 15:34:49.368958 20059 net.cpp:425] inception_4b/output <- inception_4b/pool_proj
I0403 15:34:49.368978 20059 net.cpp:399] inception_4b/output -> inception_4b/output
I0403 15:34:49.369035 20059 net.cpp:141] Setting up inception_4b/output
I0403 15:34:49.369060 20059 net.cpp:148] Top shape: 24 512 14 14 (2408448)
I0403 15:34:49.369073 20059 net.cpp:156] Memory required for data: 989857056
I0403 15:34:49.369102 20059 layer_factory.hpp:77] Creating layer inception_4b/output_inception_4b/output_0_split
I0403 15:34:49.369123 20059 net.cpp:91] Creating Layer inception_4b/output_inception_4b/output_0_split
I0403 15:34:49.369140 20059 net.cpp:425] inception_4b/output_inception_4b/output_0_split <- inception_4b/output
I0403 15:34:49.369158 20059 net.cpp:399] inception_4b/output_inception_4b/output_0_split -> inception_4b/output_inception_4b/output_0_split_0
I0403 15:34:49.369179 20059 net.cpp:399] inception_4b/output_inception_4b/output_0_split -> inception_4b/output_inception_4b/output_0_split_1
I0403 15:34:49.369201 20059 net.cpp:399] inception_4b/output_inception_4b/output_0_split -> inception_4b/output_inception_4b/output_0_split_2
I0403 15:34:49.369221 20059 net.cpp:399] inception_4b/output_inception_4b/output_0_split -> inception_4b/output_inception_4b/output_0_split_3
I0403 15:34:49.369307 20059 net.cpp:141] Setting up inception_4b/output_inception_4b/output_0_split
I0403 15:34:49.369329 20059 net.cpp:148] Top shape: 24 512 14 14 (2408448)
I0403 15:34:49.369346 20059 net.cpp:148] Top shape: 24 512 14 14 (2408448)
I0403 15:34:49.369361 20059 net.cpp:148] Top shape: 24 512 14 14 (2408448)
I0403 15:34:49.369377 20059 net.cpp:148] Top shape: 24 512 14 14 (2408448)
I0403 15:34:49.369391 20059 net.cpp:156] Memory required for data: 1028392224
I0403 15:34:49.369405 20059 layer_factory.hpp:77] Creating layer inception_4c/1x1
I0403 15:34:49.369427 20059 net.cpp:91] Creating Layer inception_4c/1x1
I0403 15:34:49.369446 20059 net.cpp:425] inception_4c/1x1 <- inception_4b/output_inception_4b/output_0_split_0
I0403 15:34:49.369467 20059 net.cpp:399] inception_4c/1x1 -> inception_4c/1x1
I0403 15:34:49.370936 20059 net.cpp:141] Setting up inception_4c/1x1
I0403 15:34:49.370968 20059 net.cpp:148] Top shape: 24 128 14 14 (602112)
I0403 15:34:49.370985 20059 net.cpp:156] Memory required for data: 1030800672
I0403 15:34:49.371003 20059 layer_factory.hpp:77] Creating layer inception_4c/relu_1x1
I0403 15:34:49.371026 20059 net.cpp:91] Creating Layer inception_4c/relu_1x1
I0403 15:34:49.371043 20059 net.cpp:425] inception_4c/relu_1x1 <- inception_4c/1x1
I0403 15:34:49.371064 20059 net.cpp:386] inception_4c/relu_1x1 -> inception_4c/1x1 (in-place)
I0403 15:34:49.371251 20059 net.cpp:141] Setting up inception_4c/relu_1x1
I0403 15:34:49.371276 20059 net.cpp:148] Top shape: 24 128 14 14 (602112)
I0403 15:34:49.371291 20059 net.cpp:156] Memory required for data: 1033209120
I0403 15:34:49.371306 20059 layer_factory.hpp:77] Creating layer inception_4c/3x3_reduce
I0403 15:34:49.371341 20059 net.cpp:91] Creating Layer inception_4c/3x3_reduce
I0403 15:34:49.371359 20059 net.cpp:425] inception_4c/3x3_reduce <- inception_4b/output_inception_4b/output_0_split_1
I0403 15:34:49.371383 20059 net.cpp:399] inception_4c/3x3_reduce -> inception_4c/3x3_reduce
I0403 15:34:49.373440 20059 net.cpp:141] Setting up inception_4c/3x3_reduce
I0403 15:34:49.373471 20059 net.cpp:148] Top shape: 24 128 14 14 (602112)
I0403 15:34:49.373486 20059 net.cpp:156] Memory required for data: 1035617568
I0403 15:34:49.373507 20059 layer_factory.hpp:77] Creating layer inception_4c/relu_3x3_reduce
I0403 15:34:49.373528 20059 net.cpp:91] Creating Layer inception_4c/relu_3x3_reduce
I0403 15:34:49.373545 20059 net.cpp:425] inception_4c/relu_3x3_reduce <- inception_4c/3x3_reduce
I0403 15:34:49.373564 20059 net.cpp:386] inception_4c/relu_3x3_reduce -> inception_4c/3x3_reduce (in-place)
I0403 15:34:49.373865 20059 net.cpp:141] Setting up inception_4c/relu_3x3_reduce
I0403 15:34:49.373893 20059 net.cpp:148] Top shape: 24 128 14 14 (602112)
I0403 15:34:49.373908 20059 net.cpp:156] Memory required for data: 1038026016
I0403 15:34:49.373922 20059 layer_factory.hpp:77] Creating layer inception_4c/3x3
I0403 15:34:49.373946 20059 net.cpp:91] Creating Layer inception_4c/3x3
I0403 15:34:49.373965 20059 net.cpp:425] inception_4c/3x3 <- inception_4c/3x3_reduce
I0403 15:34:49.373988 20059 net.cpp:399] inception_4c/3x3 -> inception_4c/3x3
I0403 15:34:49.379243 20059 net.cpp:141] Setting up inception_4c/3x3
I0403 15:34:49.379287 20059 net.cpp:148] Top shape: 24 256 14 14 (1204224)
I0403 15:34:49.379303 20059 net.cpp:156] Memory required for data: 1042842912
I0403 15:34:49.379336 20059 layer_factory.hpp:77] Creating layer inception_4c/relu_3x3
I0403 15:34:49.379359 20059 net.cpp:91] Creating Layer inception_4c/relu_3x3
I0403 15:34:49.379376 20059 net.cpp:425] inception_4c/relu_3x3 <- inception_4c/3x3
I0403 15:34:49.379393 20059 net.cpp:386] inception_4c/relu_3x3 -> inception_4c/3x3 (in-place)
I0403 15:34:49.379578 20059 net.cpp:141] Setting up inception_4c/relu_3x3
I0403 15:34:49.379603 20059 net.cpp:148] Top shape: 24 256 14 14 (1204224)
I0403 15:34:49.379618 20059 net.cpp:156] Memory required for data: 1047659808
I0403 15:34:49.379634 20059 layer_factory.hpp:77] Creating layer inception_4c/5x5_reduce
I0403 15:34:49.379658 20059 net.cpp:91] Creating Layer inception_4c/5x5_reduce
I0403 15:34:49.379676 20059 net.cpp:425] inception_4c/5x5_reduce <- inception_4b/output_inception_4b/output_0_split_2
I0403 15:34:49.379696 20059 net.cpp:399] inception_4c/5x5_reduce -> inception_4c/5x5_reduce
I0403 15:34:49.380817 20059 net.cpp:141] Setting up inception_4c/5x5_reduce
I0403 15:34:49.380846 20059 net.cpp:148] Top shape: 24 24 14 14 (112896)
I0403 15:34:49.380861 20059 net.cpp:156] Memory required for data: 1048111392
I0403 15:34:49.380879 20059 layer_factory.hpp:77] Creating layer inception_4c/relu_5x5_reduce
I0403 15:34:49.380900 20059 net.cpp:91] Creating Layer inception_4c/relu_5x5_reduce
I0403 15:34:49.380918 20059 net.cpp:425] inception_4c/relu_5x5_reduce <- inception_4c/5x5_reduce
I0403 15:34:49.380935 20059 net.cpp:386] inception_4c/relu_5x5_reduce -> inception_4c/5x5_reduce (in-place)
I0403 15:34:49.381129 20059 net.cpp:141] Setting up inception_4c/relu_5x5_reduce
I0403 15:34:49.381155 20059 net.cpp:148] Top shape: 24 24 14 14 (112896)
I0403 15:34:49.381170 20059 net.cpp:156] Memory required for data: 1048562976
I0403 15:34:49.381184 20059 layer_factory.hpp:77] Creating layer inception_4c/5x5
I0403 15:34:49.381207 20059 net.cpp:91] Creating Layer inception_4c/5x5
I0403 15:34:49.381225 20059 net.cpp:425] inception_4c/5x5 <- inception_4c/5x5_reduce
I0403 15:34:49.381247 20059 net.cpp:399] inception_4c/5x5 -> inception_4c/5x5
I0403 15:34:49.382532 20059 net.cpp:141] Setting up inception_4c/5x5
I0403 15:34:49.382563 20059 net.cpp:148] Top shape: 24 64 14 14 (301056)
I0403 15:34:49.382580 20059 net.cpp:156] Memory required for data: 1049767200
I0403 15:34:49.382598 20059 layer_factory.hpp:77] Creating layer inception_4c/relu_5x5
I0403 15:34:49.382616 20059 net.cpp:91] Creating Layer inception_4c/relu_5x5
I0403 15:34:49.382632 20059 net.cpp:425] inception_4c/relu_5x5 <- inception_4c/5x5
I0403 15:34:49.382652 20059 net.cpp:386] inception_4c/relu_5x5 -> inception_4c/5x5 (in-place)
I0403 15:34:49.382952 20059 net.cpp:141] Setting up inception_4c/relu_5x5
I0403 15:34:49.382982 20059 net.cpp:148] Top shape: 24 64 14 14 (301056)
I0403 15:34:49.382999 20059 net.cpp:156] Memory required for data: 1050971424
I0403 15:34:49.383014 20059 layer_factory.hpp:77] Creating layer inception_4c/pool
I0403 15:34:49.383038 20059 net.cpp:91] Creating Layer inception_4c/pool
I0403 15:34:49.383054 20059 net.cpp:425] inception_4c/pool <- inception_4b/output_inception_4b/output_0_split_3
I0403 15:34:49.383074 20059 net.cpp:399] inception_4c/pool -> inception_4c/pool
I0403 15:34:49.383141 20059 net.cpp:141] Setting up inception_4c/pool
I0403 15:34:49.383168 20059 net.cpp:148] Top shape: 24 512 14 14 (2408448)
I0403 15:34:49.383184 20059 net.cpp:156] Memory required for data: 1060605216
I0403 15:34:49.383199 20059 layer_factory.hpp:77] Creating layer inception_4c/pool_proj
I0403 15:34:49.383219 20059 net.cpp:91] Creating Layer inception_4c/pool_proj
I0403 15:34:49.383236 20059 net.cpp:425] inception_4c/pool_proj <- inception_4c/pool
I0403 15:34:49.383258 20059 net.cpp:399] inception_4c/pool_proj -> inception_4c/pool_proj
I0403 15:34:49.384510 20059 net.cpp:141] Setting up inception_4c/pool_proj
I0403 15:34:49.384538 20059 net.cpp:148] Top shape: 24 64 14 14 (301056)
I0403 15:34:49.384567 20059 net.cpp:156] Memory required for data: 1061809440
I0403 15:34:49.384588 20059 layer_factory.hpp:77] Creating layer inception_4c/relu_pool_proj
I0403 15:34:49.384610 20059 net.cpp:91] Creating Layer inception_4c/relu_pool_proj
I0403 15:34:49.384629 20059 net.cpp:425] inception_4c/relu_pool_proj <- inception_4c/pool_proj
I0403 15:34:49.384645 20059 net.cpp:386] inception_4c/relu_pool_proj -> inception_4c/pool_proj (in-place)
I0403 15:34:49.384835 20059 net.cpp:141] Setting up inception_4c/relu_pool_proj
I0403 15:34:49.384862 20059 net.cpp:148] Top shape: 24 64 14 14 (301056)
I0403 15:34:49.384878 20059 net.cpp:156] Memory required for data: 1063013664
I0403 15:34:49.384893 20059 layer_factory.hpp:77] Creating layer inception_4c/output
I0403 15:34:49.384912 20059 net.cpp:91] Creating Layer inception_4c/output
I0403 15:34:49.384927 20059 net.cpp:425] inception_4c/output <- inception_4c/1x1
I0403 15:34:49.384943 20059 net.cpp:425] inception_4c/output <- inception_4c/3x3
I0403 15:34:49.384958 20059 net.cpp:425] inception_4c/output <- inception_4c/5x5
I0403 15:34:49.384975 20059 net.cpp:425] inception_4c/output <- inception_4c/pool_proj
I0403 15:34:49.384997 20059 net.cpp:399] inception_4c/output -> inception_4c/output
I0403 15:34:49.385063 20059 net.cpp:141] Setting up inception_4c/output
I0403 15:34:49.385088 20059 net.cpp:148] Top shape: 24 512 14 14 (2408448)
I0403 15:34:49.385103 20059 net.cpp:156] Memory required for data: 1072647456
I0403 15:34:49.385118 20059 layer_factory.hpp:77] Creating layer inception_4c/output_inception_4c/output_0_split
I0403 15:34:49.385139 20059 net.cpp:91] Creating Layer inception_4c/output_inception_4c/output_0_split
I0403 15:34:49.385155 20059 net.cpp:425] inception_4c/output_inception_4c/output_0_split <- inception_4c/output
I0403 15:34:49.385174 20059 net.cpp:399] inception_4c/output_inception_4c/output_0_split -> inception_4c/output_inception_4c/output_0_split_0
I0403 15:34:49.385195 20059 net.cpp:399] inception_4c/output_inception_4c/output_0_split -> inception_4c/output_inception_4c/output_0_split_1
I0403 15:34:49.385218 20059 net.cpp:399] inception_4c/output_inception_4c/output_0_split -> inception_4c/output_inception_4c/output_0_split_2
I0403 15:34:49.385241 20059 net.cpp:399] inception_4c/output_inception_4c/output_0_split -> inception_4c/output_inception_4c/output_0_split_3
I0403 15:34:49.385330 20059 net.cpp:141] Setting up inception_4c/output_inception_4c/output_0_split
I0403 15:34:49.385354 20059 net.cpp:148] Top shape: 24 512 14 14 (2408448)
I0403 15:34:49.385371 20059 net.cpp:148] Top shape: 24 512 14 14 (2408448)
I0403 15:34:49.385387 20059 net.cpp:148] Top shape: 24 512 14 14 (2408448)
I0403 15:34:49.385403 20059 net.cpp:148] Top shape: 24 512 14 14 (2408448)
I0403 15:34:49.385417 20059 net.cpp:156] Memory required for data: 1111182624
I0403 15:34:49.385432 20059 layer_factory.hpp:77] Creating layer inception_4d/1x1
I0403 15:34:49.385455 20059 net.cpp:91] Creating Layer inception_4d/1x1
I0403 15:34:49.385474 20059 net.cpp:425] inception_4d/1x1 <- inception_4c/output_inception_4c/output_0_split_0
I0403 15:34:49.385496 20059 net.cpp:399] inception_4d/1x1 -> inception_4d/1x1
I0403 15:34:49.386956 20059 net.cpp:141] Setting up inception_4d/1x1
I0403 15:34:49.386986 20059 net.cpp:148] Top shape: 24 112 14 14 (526848)
I0403 15:34:49.387002 20059 net.cpp:156] Memory required for data: 1113290016
I0403 15:34:49.387025 20059 layer_factory.hpp:77] Creating layer inception_4d/relu_1x1
I0403 15:34:49.387048 20059 net.cpp:91] Creating Layer inception_4d/relu_1x1
I0403 15:34:49.387066 20059 net.cpp:425] inception_4d/relu_1x1 <- inception_4d/1x1
I0403 15:34:49.387084 20059 net.cpp:386] inception_4d/relu_1x1 -> inception_4d/1x1 (in-place)
I0403 15:34:49.387277 20059 net.cpp:141] Setting up inception_4d/relu_1x1
I0403 15:34:49.387303 20059 net.cpp:148] Top shape: 24 112 14 14 (526848)
I0403 15:34:49.387320 20059 net.cpp:156] Memory required for data: 1115397408
I0403 15:34:49.387334 20059 layer_factory.hpp:77] Creating layer inception_4d/3x3_reduce
I0403 15:34:49.387373 20059 net.cpp:91] Creating Layer inception_4d/3x3_reduce
I0403 15:34:49.387392 20059 net.cpp:425] inception_4d/3x3_reduce <- inception_4c/output_inception_4c/output_0_split_1
I0403 15:34:49.387413 20059 net.cpp:399] inception_4d/3x3_reduce -> inception_4d/3x3_reduce
I0403 15:34:49.389013 20059 net.cpp:141] Setting up inception_4d/3x3_reduce
I0403 15:34:49.389046 20059 net.cpp:148] Top shape: 24 144 14 14 (677376)
I0403 15:34:49.389062 20059 net.cpp:156] Memory required for data: 1118106912
I0403 15:34:49.389081 20059 layer_factory.hpp:77] Creating layer inception_4d/relu_3x3_reduce
I0403 15:34:49.389099 20059 net.cpp:91] Creating Layer inception_4d/relu_3x3_reduce
I0403 15:34:49.389117 20059 net.cpp:425] inception_4d/relu_3x3_reduce <- inception_4d/3x3_reduce
I0403 15:34:49.389137 20059 net.cpp:386] inception_4d/relu_3x3_reduce -> inception_4d/3x3_reduce (in-place)
I0403 15:34:49.389442 20059 net.cpp:141] Setting up inception_4d/relu_3x3_reduce
I0403 15:34:49.389469 20059 net.cpp:148] Top shape: 24 144 14 14 (677376)
I0403 15:34:49.389485 20059 net.cpp:156] Memory required for data: 1120816416
I0403 15:34:49.389500 20059 layer_factory.hpp:77] Creating layer inception_4d/3x3
I0403 15:34:49.389524 20059 net.cpp:91] Creating Layer inception_4d/3x3
I0403 15:34:49.389542 20059 net.cpp:425] inception_4d/3x3 <- inception_4d/3x3_reduce
I0403 15:34:49.389565 20059 net.cpp:399] inception_4d/3x3 -> inception_4d/3x3
I0403 15:34:49.394076 20059 net.cpp:141] Setting up inception_4d/3x3
I0403 15:34:49.394107 20059 net.cpp:148] Top shape: 24 288 14 14 (1354752)
I0403 15:34:49.394122 20059 net.cpp:156] Memory required for data: 1126235424
I0403 15:34:49.394142 20059 layer_factory.hpp:77] Creating layer inception_4d/relu_3x3
I0403 15:34:49.394165 20059 net.cpp:91] Creating Layer inception_4d/relu_3x3
I0403 15:34:49.394181 20059 net.cpp:425] inception_4d/relu_3x3 <- inception_4d/3x3
I0403 15:34:49.394199 20059 net.cpp:386] inception_4d/relu_3x3 -> inception_4d/3x3 (in-place)
I0403 15:34:49.394392 20059 net.cpp:141] Setting up inception_4d/relu_3x3
I0403 15:34:49.394420 20059 net.cpp:148] Top shape: 24 288 14 14 (1354752)
I0403 15:34:49.394436 20059 net.cpp:156] Memory required for data: 1131654432
I0403 15:34:49.394451 20059 layer_factory.hpp:77] Creating layer inception_4d/5x5_reduce
I0403 15:34:49.394472 20059 net.cpp:91] Creating Layer inception_4d/5x5_reduce
I0403 15:34:49.394490 20059 net.cpp:425] inception_4d/5x5_reduce <- inception_4c/output_inception_4c/output_0_split_2
I0403 15:34:49.394512 20059 net.cpp:399] inception_4d/5x5_reduce -> inception_4d/5x5_reduce
I0403 15:34:49.395721 20059 net.cpp:141] Setting up inception_4d/5x5_reduce
I0403 15:34:49.395750 20059 net.cpp:148] Top shape: 24 32 14 14 (150528)
I0403 15:34:49.395766 20059 net.cpp:156] Memory required for data: 1132256544
I0403 15:34:49.395784 20059 layer_factory.hpp:77] Creating layer inception_4d/relu_5x5_reduce
I0403 15:34:49.395805 20059 net.cpp:91] Creating Layer inception_4d/relu_5x5_reduce
I0403 15:34:49.395823 20059 net.cpp:425] inception_4d/relu_5x5_reduce <- inception_4d/5x5_reduce
I0403 15:34:49.395841 20059 net.cpp:386] inception_4d/relu_5x5_reduce -> inception_4d/5x5_reduce (in-place)
I0403 15:34:49.396044 20059 net.cpp:141] Setting up inception_4d/relu_5x5_reduce
I0403 15:34:49.396070 20059 net.cpp:148] Top shape: 24 32 14 14 (150528)
I0403 15:34:49.396085 20059 net.cpp:156] Memory required for data: 1132858656
I0403 15:34:49.396100 20059 layer_factory.hpp:77] Creating layer inception_4d/5x5
I0403 15:34:49.396126 20059 net.cpp:91] Creating Layer inception_4d/5x5
I0403 15:34:49.396143 20059 net.cpp:425] inception_4d/5x5 <- inception_4d/5x5_reduce
I0403 15:34:49.396163 20059 net.cpp:399] inception_4d/5x5 -> inception_4d/5x5
I0403 15:34:49.397724 20059 net.cpp:141] Setting up inception_4d/5x5
I0403 15:34:49.397755 20059 net.cpp:148] Top shape: 24 64 14 14 (301056)
I0403 15:34:49.397773 20059 net.cpp:156] Memory required for data: 1134062880
I0403 15:34:49.397791 20059 layer_factory.hpp:77] Creating layer inception_4d/relu_5x5
I0403 15:34:49.397828 20059 net.cpp:91] Creating Layer inception_4d/relu_5x5
I0403 15:34:49.397846 20059 net.cpp:425] inception_4d/relu_5x5 <- inception_4d/5x5
I0403 15:34:49.397867 20059 net.cpp:386] inception_4d/relu_5x5 -> inception_4d/5x5 (in-place)
I0403 15:34:49.398196 20059 net.cpp:141] Setting up inception_4d/relu_5x5
I0403 15:34:49.398227 20059 net.cpp:148] Top shape: 24 64 14 14 (301056)
I0403 15:34:49.398243 20059 net.cpp:156] Memory required for data: 1135267104
I0403 15:34:49.398258 20059 layer_factory.hpp:77] Creating layer inception_4d/pool
I0403 15:34:49.398277 20059 net.cpp:91] Creating Layer inception_4d/pool
I0403 15:34:49.398293 20059 net.cpp:425] inception_4d/pool <- inception_4c/output_inception_4c/output_0_split_3
I0403 15:34:49.398314 20059 net.cpp:399] inception_4d/pool -> inception_4d/pool
I0403 15:34:49.398386 20059 net.cpp:141] Setting up inception_4d/pool
I0403 15:34:49.398411 20059 net.cpp:148] Top shape: 24 512 14 14 (2408448)
I0403 15:34:49.398425 20059 net.cpp:156] Memory required for data: 1144900896
I0403 15:34:49.398440 20059 layer_factory.hpp:77] Creating layer inception_4d/pool_proj
I0403 15:34:49.398464 20059 net.cpp:91] Creating Layer inception_4d/pool_proj
I0403 15:34:49.398483 20059 net.cpp:425] inception_4d/pool_proj <- inception_4d/pool
I0403 15:34:49.398504 20059 net.cpp:399] inception_4d/pool_proj -> inception_4d/pool_proj
I0403 15:34:49.400369 20059 net.cpp:141] Setting up inception_4d/pool_proj
I0403 15:34:49.400399 20059 net.cpp:148] Top shape: 24 64 14 14 (301056)
I0403 15:34:49.400415 20059 net.cpp:156] Memory required for data: 1146105120
I0403 15:34:49.400434 20059 layer_factory.hpp:77] Creating layer inception_4d/relu_pool_proj
I0403 15:34:49.400456 20059 net.cpp:91] Creating Layer inception_4d/relu_pool_proj
I0403 15:34:49.400473 20059 net.cpp:425] inception_4d/relu_pool_proj <- inception_4d/pool_proj
I0403 15:34:49.400491 20059 net.cpp:386] inception_4d/relu_pool_proj -> inception_4d/pool_proj (in-place)
I0403 15:34:49.400691 20059 net.cpp:141] Setting up inception_4d/relu_pool_proj
I0403 15:34:49.400719 20059 net.cpp:148] Top shape: 24 64 14 14 (301056)
I0403 15:34:49.400735 20059 net.cpp:156] Memory required for data: 1147309344
I0403 15:34:49.400751 20059 layer_factory.hpp:77] Creating layer inception_4d/output
I0403 15:34:49.400769 20059 net.cpp:91] Creating Layer inception_4d/output
I0403 15:34:49.400785 20059 net.cpp:425] inception_4d/output <- inception_4d/1x1
I0403 15:34:49.400801 20059 net.cpp:425] inception_4d/output <- inception_4d/3x3
I0403 15:34:49.400818 20059 net.cpp:425] inception_4d/output <- inception_4d/5x5
I0403 15:34:49.400835 20059 net.cpp:425] inception_4d/output <- inception_4d/pool_proj
I0403 15:34:49.400852 20059 net.cpp:399] inception_4d/output -> inception_4d/output
I0403 15:34:49.400904 20059 net.cpp:141] Setting up inception_4d/output
I0403 15:34:49.400928 20059 net.cpp:148] Top shape: 24 528 14 14 (2483712)
I0403 15:34:49.400943 20059 net.cpp:156] Memory required for data: 1157244192
I0403 15:34:49.400959 20059 layer_factory.hpp:77] Creating layer inception_4d/output_inception_4d/output_0_split
I0403 15:34:49.400979 20059 net.cpp:91] Creating Layer inception_4d/output_inception_4d/output_0_split
I0403 15:34:49.400998 20059 net.cpp:425] inception_4d/output_inception_4d/output_0_split <- inception_4d/output
I0403 15:34:49.401021 20059 net.cpp:399] inception_4d/output_inception_4d/output_0_split -> inception_4d/output_inception_4d/output_0_split_0
I0403 15:34:49.401044 20059 net.cpp:399] inception_4d/output_inception_4d/output_0_split -> inception_4d/output_inception_4d/output_0_split_1
I0403 15:34:49.401067 20059 net.cpp:399] inception_4d/output_inception_4d/output_0_split -> inception_4d/output_inception_4d/output_0_split_2
I0403 15:34:49.401087 20059 net.cpp:399] inception_4d/output_inception_4d/output_0_split -> inception_4d/output_inception_4d/output_0_split_3
I0403 15:34:49.401110 20059 net.cpp:399] inception_4d/output_inception_4d/output_0_split -> inception_4d/output_inception_4d/output_0_split_4
I0403 15:34:49.401221 20059 net.cpp:141] Setting up inception_4d/output_inception_4d/output_0_split
I0403 15:34:49.401258 20059 net.cpp:148] Top shape: 24 528 14 14 (2483712)
I0403 15:34:49.401276 20059 net.cpp:148] Top shape: 24 528 14 14 (2483712)
I0403 15:34:49.401293 20059 net.cpp:148] Top shape: 24 528 14 14 (2483712)
I0403 15:34:49.401309 20059 net.cpp:148] Top shape: 24 528 14 14 (2483712)
I0403 15:34:49.401324 20059 net.cpp:148] Top shape: 24 528 14 14 (2483712)
I0403 15:34:49.401338 20059 net.cpp:156] Memory required for data: 1206918432
I0403 15:34:49.401353 20059 layer_factory.hpp:77] Creating layer loss2/ave_pool
I0403 15:34:49.401371 20059 net.cpp:91] Creating Layer loss2/ave_pool
I0403 15:34:49.401388 20059 net.cpp:425] loss2/ave_pool <- inception_4d/output_inception_4d/output_0_split_0
I0403 15:34:49.401409 20059 net.cpp:399] loss2/ave_pool -> loss2/ave_pool
I0403 15:34:49.401736 20059 net.cpp:141] Setting up loss2/ave_pool
I0403 15:34:49.401763 20059 net.cpp:148] Top shape: 24 528 4 4 (202752)
I0403 15:34:49.401779 20059 net.cpp:156] Memory required for data: 1207729440
I0403 15:34:49.401795 20059 layer_factory.hpp:77] Creating layer loss2/conv
I0403 15:34:49.401818 20059 net.cpp:91] Creating Layer loss2/conv
I0403 15:34:49.401837 20059 net.cpp:425] loss2/conv <- loss2/ave_pool
I0403 15:34:49.401859 20059 net.cpp:399] loss2/conv -> loss2/conv
I0403 15:34:49.403863 20059 net.cpp:141] Setting up loss2/conv
I0403 15:34:49.403897 20059 net.cpp:148] Top shape: 24 128 4 4 (49152)
I0403 15:34:49.403913 20059 net.cpp:156] Memory required for data: 1207926048
I0403 15:34:49.403933 20059 layer_factory.hpp:77] Creating layer loss2/relu_conv
I0403 15:34:49.403951 20059 net.cpp:91] Creating Layer loss2/relu_conv
I0403 15:34:49.403969 20059 net.cpp:425] loss2/relu_conv <- loss2/conv
I0403 15:34:49.403986 20059 net.cpp:386] loss2/relu_conv -> loss2/conv (in-place)
I0403 15:34:49.404292 20059 net.cpp:141] Setting up loss2/relu_conv
I0403 15:34:49.404322 20059 net.cpp:148] Top shape: 24 128 4 4 (49152)
I0403 15:34:49.404338 20059 net.cpp:156] Memory required for data: 1208122656
I0403 15:34:49.404355 20059 layer_factory.hpp:77] Creating layer loss2/fc
I0403 15:34:49.404373 20059 net.cpp:91] Creating Layer loss2/fc
I0403 15:34:49.404391 20059 net.cpp:425] loss2/fc <- loss2/conv
I0403 15:34:49.404412 20059 net.cpp:399] loss2/fc -> loss2/fc
I0403 15:34:49.423205 20059 net.cpp:141] Setting up loss2/fc
I0403 15:34:49.423244 20059 net.cpp:148] Top shape: 24 1024 (24576)
I0403 15:34:49.423260 20059 net.cpp:156] Memory required for data: 1208220960
I0403 15:34:49.423280 20059 layer_factory.hpp:77] Creating layer loss2/relu_fc
I0403 15:34:49.423305 20059 net.cpp:91] Creating Layer loss2/relu_fc
I0403 15:34:49.423322 20059 net.cpp:425] loss2/relu_fc <- loss2/fc
I0403 15:34:49.423341 20059 net.cpp:386] loss2/relu_fc -> loss2/fc (in-place)
I0403 15:34:49.423687 20059 net.cpp:141] Setting up loss2/relu_fc
I0403 15:34:49.423715 20059 net.cpp:148] Top shape: 24 1024 (24576)
I0403 15:34:49.423730 20059 net.cpp:156] Memory required for data: 1208319264
I0403 15:34:49.423745 20059 layer_factory.hpp:77] Creating layer loss2/drop_fc
I0403 15:34:49.423766 20059 net.cpp:91] Creating Layer loss2/drop_fc
I0403 15:34:49.423784 20059 net.cpp:425] loss2/drop_fc <- loss2/fc
I0403 15:34:49.423802 20059 net.cpp:386] loss2/drop_fc -> loss2/fc (in-place)
I0403 15:34:49.423857 20059 net.cpp:141] Setting up loss2/drop_fc
I0403 15:34:49.423882 20059 net.cpp:148] Top shape: 24 1024 (24576)
I0403 15:34:49.423897 20059 net.cpp:156] Memory required for data: 1208417568
I0403 15:34:49.423912 20059 layer_factory.hpp:77] Creating layer loss2/classifier_plantvillage
I0403 15:34:49.423931 20059 net.cpp:91] Creating Layer loss2/classifier_plantvillage
I0403 15:34:49.423951 20059 net.cpp:425] loss2/classifier_plantvillage <- loss2/fc
I0403 15:34:49.423972 20059 net.cpp:399] loss2/classifier_plantvillage -> loss2/classifier_plantvillage
I0403 15:34:49.424415 20059 net.cpp:141] Setting up loss2/classifier_plantvillage
I0403 15:34:49.424442 20059 net.cpp:148] Top shape: 24 38 (912)
I0403 15:34:49.424480 20059 net.cpp:156] Memory required for data: 1208421216
I0403 15:34:49.424500 20059 layer_factory.hpp:77] Creating layer loss2/classifier_plantvillage_loss2/classifier_plantvillage_0_split
I0403 15:34:49.424520 20059 net.cpp:91] Creating Layer loss2/classifier_plantvillage_loss2/classifier_plantvillage_0_split
I0403 15:34:49.424535 20059 net.cpp:425] loss2/classifier_plantvillage_loss2/classifier_plantvillage_0_split <- loss2/classifier_plantvillage
I0403 15:34:49.424557 20059 net.cpp:399] loss2/classifier_plantvillage_loss2/classifier_plantvillage_0_split -> loss2/classifier_plantvillage_loss2/classifier_plantvillage_0_split_0
I0403 15:34:49.424579 20059 net.cpp:399] loss2/classifier_plantvillage_loss2/classifier_plantvillage_0_split -> loss2/classifier_plantvillage_loss2/classifier_plantvillage_0_split_1
I0403 15:34:49.424600 20059 net.cpp:399] loss2/classifier_plantvillage_loss2/classifier_plantvillage_0_split -> loss2/classifier_plantvillage_loss2/classifier_plantvillage_0_split_2
I0403 15:34:49.424684 20059 net.cpp:141] Setting up loss2/classifier_plantvillage_loss2/classifier_plantvillage_0_split
I0403 15:34:49.424711 20059 net.cpp:148] Top shape: 24 38 (912)
I0403 15:34:49.424728 20059 net.cpp:148] Top shape: 24 38 (912)
I0403 15:34:49.424744 20059 net.cpp:148] Top shape: 24 38 (912)
I0403 15:34:49.424759 20059 net.cpp:156] Memory required for data: 1208432160
I0403 15:34:49.424774 20059 layer_factory.hpp:77] Creating layer inception_4e/1x1
I0403 15:34:49.424798 20059 net.cpp:91] Creating Layer inception_4e/1x1
I0403 15:34:49.424818 20059 net.cpp:425] inception_4e/1x1 <- inception_4d/output_inception_4d/output_0_split_1
I0403 15:34:49.424837 20059 net.cpp:399] inception_4e/1x1 -> inception_4e/1x1
I0403 15:34:49.426798 20059 net.cpp:141] Setting up inception_4e/1x1
I0403 15:34:49.426831 20059 net.cpp:148] Top shape: 24 256 14 14 (1204224)
I0403 15:34:49.426847 20059 net.cpp:156] Memory required for data: 1213249056
I0403 15:34:49.426867 20059 layer_factory.hpp:77] Creating layer inception_4e/relu_1x1
I0403 15:34:49.426884 20059 net.cpp:91] Creating Layer inception_4e/relu_1x1
I0403 15:34:49.426901 20059 net.cpp:425] inception_4e/relu_1x1 <- inception_4e/1x1
I0403 15:34:49.426921 20059 net.cpp:386] inception_4e/relu_1x1 -> inception_4e/1x1 (in-place)
I0403 15:34:49.427239 20059 net.cpp:141] Setting up inception_4e/relu_1x1
I0403 15:34:49.427270 20059 net.cpp:148] Top shape: 24 256 14 14 (1204224)
I0403 15:34:49.427286 20059 net.cpp:156] Memory required for data: 1218065952
I0403 15:34:49.427301 20059 layer_factory.hpp:77] Creating layer inception_4e/3x3_reduce
I0403 15:34:49.427325 20059 net.cpp:91] Creating Layer inception_4e/3x3_reduce
I0403 15:34:49.427343 20059 net.cpp:425] inception_4e/3x3_reduce <- inception_4d/output_inception_4d/output_0_split_2
I0403 15:34:49.427363 20059 net.cpp:399] inception_4e/3x3_reduce -> inception_4e/3x3_reduce
I0403 15:34:49.429636 20059 net.cpp:141] Setting up inception_4e/3x3_reduce
I0403 15:34:49.429669 20059 net.cpp:148] Top shape: 24 160 14 14 (752640)
I0403 15:34:49.429687 20059 net.cpp:156] Memory required for data: 1221076512
I0403 15:34:49.429705 20059 layer_factory.hpp:77] Creating layer inception_4e/relu_3x3_reduce
I0403 15:34:49.429723 20059 net.cpp:91] Creating Layer inception_4e/relu_3x3_reduce
I0403 15:34:49.429740 20059 net.cpp:425] inception_4e/relu_3x3_reduce <- inception_4e/3x3_reduce
I0403 15:34:49.429757 20059 net.cpp:386] inception_4e/relu_3x3_reduce -> inception_4e/3x3_reduce (in-place)
I0403 15:34:49.429957 20059 net.cpp:141] Setting up inception_4e/relu_3x3_reduce
I0403 15:34:49.429986 20059 net.cpp:148] Top shape: 24 160 14 14 (752640)
I0403 15:34:49.430002 20059 net.cpp:156] Memory required for data: 1224087072
I0403 15:34:49.430022 20059 layer_factory.hpp:77] Creating layer inception_4e/3x3
I0403 15:34:49.430047 20059 net.cpp:91] Creating Layer inception_4e/3x3
I0403 15:34:49.430065 20059 net.cpp:425] inception_4e/3x3 <- inception_4e/3x3_reduce
I0403 15:34:49.430088 20059 net.cpp:399] inception_4e/3x3 -> inception_4e/3x3
I0403 15:34:49.435416 20059 net.cpp:141] Setting up inception_4e/3x3
I0403 15:34:49.435461 20059 net.cpp:148] Top shape: 24 320 14 14 (1505280)
I0403 15:34:49.435477 20059 net.cpp:156] Memory required for data: 1230108192
I0403 15:34:49.435497 20059 layer_factory.hpp:77] Creating layer inception_4e/relu_3x3
I0403 15:34:49.435515 20059 net.cpp:91] Creating Layer inception_4e/relu_3x3
I0403 15:34:49.435533 20059 net.cpp:425] inception_4e/relu_3x3 <- inception_4e/3x3
I0403 15:34:49.435552 20059 net.cpp:386] inception_4e/relu_3x3 -> inception_4e/3x3 (in-place)
I0403 15:34:49.435870 20059 net.cpp:141] Setting up inception_4e/relu_3x3
I0403 15:34:49.435899 20059 net.cpp:148] Top shape: 24 320 14 14 (1505280)
I0403 15:34:49.435914 20059 net.cpp:156] Memory required for data: 1236129312
I0403 15:34:49.435928 20059 layer_factory.hpp:77] Creating layer inception_4e/5x5_reduce
I0403 15:34:49.435952 20059 net.cpp:91] Creating Layer inception_4e/5x5_reduce
I0403 15:34:49.435971 20059 net.cpp:425] inception_4e/5x5_reduce <- inception_4d/output_inception_4d/output_0_split_3
I0403 15:34:49.435994 20059 net.cpp:399] inception_4e/5x5_reduce -> inception_4e/5x5_reduce
I0403 15:34:49.437134 20059 net.cpp:141] Setting up inception_4e/5x5_reduce
I0403 15:34:49.437165 20059 net.cpp:148] Top shape: 24 32 14 14 (150528)
I0403 15:34:49.437182 20059 net.cpp:156] Memory required for data: 1236731424
I0403 15:34:49.437202 20059 layer_factory.hpp:77] Creating layer inception_4e/relu_5x5_reduce
I0403 15:34:49.437222 20059 net.cpp:91] Creating Layer inception_4e/relu_5x5_reduce
I0403 15:34:49.437238 20059 net.cpp:425] inception_4e/relu_5x5_reduce <- inception_4e/5x5_reduce
I0403 15:34:49.437259 20059 net.cpp:386] inception_4e/relu_5x5_reduce -> inception_4e/5x5_reduce (in-place)
I0403 15:34:49.437572 20059 net.cpp:141] Setting up inception_4e/relu_5x5_reduce
I0403 15:34:49.437600 20059 net.cpp:148] Top shape: 24 32 14 14 (150528)
I0403 15:34:49.437618 20059 net.cpp:156] Memory required for data: 1237333536
I0403 15:34:49.437633 20059 layer_factory.hpp:77] Creating layer inception_4e/5x5
I0403 15:34:49.437675 20059 net.cpp:91] Creating Layer inception_4e/5x5
I0403 15:34:49.437695 20059 net.cpp:425] inception_4e/5x5 <- inception_4e/5x5_reduce
I0403 15:34:49.437716 20059 net.cpp:399] inception_4e/5x5 -> inception_4e/5x5
I0403 15:34:49.439676 20059 net.cpp:141] Setting up inception_4e/5x5
I0403 15:34:49.439704 20059 net.cpp:148] Top shape: 24 128 14 14 (602112)
I0403 15:34:49.439720 20059 net.cpp:156] Memory required for data: 1239741984
I0403 15:34:49.439739 20059 layer_factory.hpp:77] Creating layer inception_4e/relu_5x5
I0403 15:34:49.439761 20059 net.cpp:91] Creating Layer inception_4e/relu_5x5
I0403 15:34:49.439779 20059 net.cpp:425] inception_4e/relu_5x5 <- inception_4e/5x5
I0403 15:34:49.439796 20059 net.cpp:386] inception_4e/relu_5x5 -> inception_4e/5x5 (in-place)
I0403 15:34:49.440004 20059 net.cpp:141] Setting up inception_4e/relu_5x5
I0403 15:34:49.440038 20059 net.cpp:148] Top shape: 24 128 14 14 (602112)
I0403 15:34:49.440055 20059 net.cpp:156] Memory required for data: 1242150432
I0403 15:34:49.440070 20059 layer_factory.hpp:77] Creating layer inception_4e/pool
I0403 15:34:49.440089 20059 net.cpp:91] Creating Layer inception_4e/pool
I0403 15:34:49.440106 20059 net.cpp:425] inception_4e/pool <- inception_4d/output_inception_4d/output_0_split_4
I0403 15:34:49.440127 20059 net.cpp:399] inception_4e/pool -> inception_4e/pool
I0403 15:34:49.440201 20059 net.cpp:141] Setting up inception_4e/pool
I0403 15:34:49.440227 20059 net.cpp:148] Top shape: 24 528 14 14 (2483712)
I0403 15:34:49.440243 20059 net.cpp:156] Memory required for data: 1252085280
I0403 15:34:49.440258 20059 layer_factory.hpp:77] Creating layer inception_4e/pool_proj
I0403 15:34:49.440281 20059 net.cpp:91] Creating Layer inception_4e/pool_proj
I0403 15:34:49.440300 20059 net.cpp:425] inception_4e/pool_proj <- inception_4e/pool
I0403 15:34:49.440322 20059 net.cpp:399] inception_4e/pool_proj -> inception_4e/pool_proj
I0403 15:34:49.441923 20059 net.cpp:141] Setting up inception_4e/pool_proj
I0403 15:34:49.441967 20059 net.cpp:148] Top shape: 24 128 14 14 (602112)
I0403 15:34:49.441983 20059 net.cpp:156] Memory required for data: 1254493728
I0403 15:34:49.442005 20059 layer_factory.hpp:77] Creating layer inception_4e/relu_pool_proj
I0403 15:34:49.442031 20059 net.cpp:91] Creating Layer inception_4e/relu_pool_proj
I0403 15:34:49.442050 20059 net.cpp:425] inception_4e/relu_pool_proj <- inception_4e/pool_proj
I0403 15:34:49.442070 20059 net.cpp:386] inception_4e/relu_pool_proj -> inception_4e/pool_proj (in-place)
I0403 15:34:49.442378 20059 net.cpp:141] Setting up inception_4e/relu_pool_proj
I0403 15:34:49.442406 20059 net.cpp:148] Top shape: 24 128 14 14 (602112)
I0403 15:34:49.442421 20059 net.cpp:156] Memory required for data: 1256902176
I0403 15:34:49.442436 20059 layer_factory.hpp:77] Creating layer inception_4e/output
I0403 15:34:49.442456 20059 net.cpp:91] Creating Layer inception_4e/output
I0403 15:34:49.442471 20059 net.cpp:425] inception_4e/output <- inception_4e/1x1
I0403 15:34:49.442489 20059 net.cpp:425] inception_4e/output <- inception_4e/3x3
I0403 15:34:49.442505 20059 net.cpp:425] inception_4e/output <- inception_4e/5x5
I0403 15:34:49.442524 20059 net.cpp:425] inception_4e/output <- inception_4e/pool_proj
I0403 15:34:49.442544 20059 net.cpp:399] inception_4e/output -> inception_4e/output
I0403 15:34:49.442600 20059 net.cpp:141] Setting up inception_4e/output
I0403 15:34:49.442623 20059 net.cpp:148] Top shape: 24 832 14 14 (3913728)
I0403 15:34:49.442639 20059 net.cpp:156] Memory required for data: 1272557088
I0403 15:34:49.442654 20059 layer_factory.hpp:77] Creating layer pool4/3x3_s2
I0403 15:34:49.442672 20059 net.cpp:91] Creating Layer pool4/3x3_s2
I0403 15:34:49.442689 20059 net.cpp:425] pool4/3x3_s2 <- inception_4e/output
I0403 15:34:49.442710 20059 net.cpp:399] pool4/3x3_s2 -> pool4/3x3_s2
I0403 15:34:49.442780 20059 net.cpp:141] Setting up pool4/3x3_s2
I0403 15:34:49.442805 20059 net.cpp:148] Top shape: 24 832 7 7 (978432)
I0403 15:34:49.442819 20059 net.cpp:156] Memory required for data: 1276470816
I0403 15:34:49.442836 20059 layer_factory.hpp:77] Creating layer pool4/3x3_s2_pool4/3x3_s2_0_split
I0403 15:34:49.442857 20059 net.cpp:91] Creating Layer pool4/3x3_s2_pool4/3x3_s2_0_split
I0403 15:34:49.442874 20059 net.cpp:425] pool4/3x3_s2_pool4/3x3_s2_0_split <- pool4/3x3_s2
I0403 15:34:49.442893 20059 net.cpp:399] pool4/3x3_s2_pool4/3x3_s2_0_split -> pool4/3x3_s2_pool4/3x3_s2_0_split_0
I0403 15:34:49.442915 20059 net.cpp:399] pool4/3x3_s2_pool4/3x3_s2_0_split -> pool4/3x3_s2_pool4/3x3_s2_0_split_1
I0403 15:34:49.442937 20059 net.cpp:399] pool4/3x3_s2_pool4/3x3_s2_0_split -> pool4/3x3_s2_pool4/3x3_s2_0_split_2
I0403 15:34:49.442957 20059 net.cpp:399] pool4/3x3_s2_pool4/3x3_s2_0_split -> pool4/3x3_s2_pool4/3x3_s2_0_split_3
I0403 15:34:49.443063 20059 net.cpp:141] Setting up pool4/3x3_s2_pool4/3x3_s2_0_split
I0403 15:34:49.443087 20059 net.cpp:148] Top shape: 24 832 7 7 (978432)
I0403 15:34:49.443104 20059 net.cpp:148] Top shape: 24 832 7 7 (978432)
I0403 15:34:49.443120 20059 net.cpp:148] Top shape: 24 832 7 7 (978432)
I0403 15:34:49.443136 20059 net.cpp:148] Top shape: 24 832 7 7 (978432)
I0403 15:34:49.443150 20059 net.cpp:156] Memory required for data: 1292125728
I0403 15:34:49.443166 20059 layer_factory.hpp:77] Creating layer inception_5a/1x1
I0403 15:34:49.443189 20059 net.cpp:91] Creating Layer inception_5a/1x1
I0403 15:34:49.443208 20059 net.cpp:425] inception_5a/1x1 <- pool4/3x3_s2_pool4/3x3_s2_0_split_0
I0403 15:34:49.443230 20059 net.cpp:399] inception_5a/1x1 -> inception_5a/1x1
I0403 15:34:49.446280 20059 net.cpp:141] Setting up inception_5a/1x1
I0403 15:34:49.446311 20059 net.cpp:148] Top shape: 24 256 7 7 (301056)
I0403 15:34:49.446331 20059 net.cpp:156] Memory required for data: 1293329952
I0403 15:34:49.446351 20059 layer_factory.hpp:77] Creating layer inception_5a/relu_1x1
I0403 15:34:49.446369 20059 net.cpp:91] Creating Layer inception_5a/relu_1x1
I0403 15:34:49.446387 20059 net.cpp:425] inception_5a/relu_1x1 <- inception_5a/1x1
I0403 15:34:49.446404 20059 net.cpp:386] inception_5a/relu_1x1 -> inception_5a/1x1 (in-place)
I0403 15:34:49.446732 20059 net.cpp:141] Setting up inception_5a/relu_1x1
I0403 15:34:49.446759 20059 net.cpp:148] Top shape: 24 256 7 7 (301056)
I0403 15:34:49.446779 20059 net.cpp:156] Memory required for data: 1294534176
I0403 15:34:49.446794 20059 layer_factory.hpp:77] Creating layer inception_5a/3x3_reduce
I0403 15:34:49.446815 20059 net.cpp:91] Creating Layer inception_5a/3x3_reduce
I0403 15:34:49.446832 20059 net.cpp:425] inception_5a/3x3_reduce <- pool4/3x3_s2_pool4/3x3_s2_0_split_1
I0403 15:34:49.446854 20059 net.cpp:399] inception_5a/3x3_reduce -> inception_5a/3x3_reduce
I0403 15:34:49.449481 20059 net.cpp:141] Setting up inception_5a/3x3_reduce
I0403 15:34:49.449511 20059 net.cpp:148] Top shape: 24 160 7 7 (188160)
I0403 15:34:49.449527 20059 net.cpp:156] Memory required for data: 1295286816
I0403 15:34:49.449545 20059 layer_factory.hpp:77] Creating layer inception_5a/relu_3x3_reduce
I0403 15:34:49.449565 20059 net.cpp:91] Creating Layer inception_5a/relu_3x3_reduce
I0403 15:34:49.449581 20059 net.cpp:425] inception_5a/relu_3x3_reduce <- inception_5a/3x3_reduce
I0403 15:34:49.449602 20059 net.cpp:386] inception_5a/relu_3x3_reduce -> inception_5a/3x3_reduce (in-place)
I0403 15:34:49.449802 20059 net.cpp:141] Setting up inception_5a/relu_3x3_reduce
I0403 15:34:49.449832 20059 net.cpp:148] Top shape: 24 160 7 7 (188160)
I0403 15:34:49.449847 20059 net.cpp:156] Memory required for data: 1296039456
I0403 15:34:49.449862 20059 layer_factory.hpp:77] Creating layer inception_5a/3x3
I0403 15:34:49.449887 20059 net.cpp:91] Creating Layer inception_5a/3x3
I0403 15:34:49.449904 20059 net.cpp:425] inception_5a/3x3 <- inception_5a/3x3_reduce
I0403 15:34:49.449928 20059 net.cpp:399] inception_5a/3x3 -> inception_5a/3x3
I0403 15:34:49.455294 20059 net.cpp:141] Setting up inception_5a/3x3
I0403 15:34:49.455327 20059 net.cpp:148] Top shape: 24 320 7 7 (376320)
I0403 15:34:49.455343 20059 net.cpp:156] Memory required for data: 1297544736
I0403 15:34:49.455361 20059 layer_factory.hpp:77] Creating layer inception_5a/relu_3x3
I0403 15:34:49.455384 20059 net.cpp:91] Creating Layer inception_5a/relu_3x3
I0403 15:34:49.455401 20059 net.cpp:425] inception_5a/relu_3x3 <- inception_5a/3x3
I0403 15:34:49.455420 20059 net.cpp:386] inception_5a/relu_3x3 -> inception_5a/3x3 (in-place)
I0403 15:34:49.455737 20059 net.cpp:141] Setting up inception_5a/relu_3x3
I0403 15:34:49.455765 20059 net.cpp:148] Top shape: 24 320 7 7 (376320)
I0403 15:34:49.455780 20059 net.cpp:156] Memory required for data: 1299050016
I0403 15:34:49.455796 20059 layer_factory.hpp:77] Creating layer inception_5a/5x5_reduce
I0403 15:34:49.455823 20059 net.cpp:91] Creating Layer inception_5a/5x5_reduce
I0403 15:34:49.455842 20059 net.cpp:425] inception_5a/5x5_reduce <- pool4/3x3_s2_pool4/3x3_s2_0_split_2
I0403 15:34:49.455863 20059 net.cpp:399] inception_5a/5x5_reduce -> inception_5a/5x5_reduce
I0403 15:34:49.457123 20059 net.cpp:141] Setting up inception_5a/5x5_reduce
I0403 15:34:49.457155 20059 net.cpp:148] Top shape: 24 32 7 7 (37632)
I0403 15:34:49.457172 20059 net.cpp:156] Memory required for data: 1299200544
I0403 15:34:49.457191 20059 layer_factory.hpp:77] Creating layer inception_5a/relu_5x5_reduce
I0403 15:34:49.457211 20059 net.cpp:91] Creating Layer inception_5a/relu_5x5_reduce
I0403 15:34:49.457226 20059 net.cpp:425] inception_5a/relu_5x5_reduce <- inception_5a/5x5_reduce
I0403 15:34:49.457244 20059 net.cpp:386] inception_5a/relu_5x5_reduce -> inception_5a/5x5_reduce (in-place)
I0403 15:34:49.457607 20059 net.cpp:141] Setting up inception_5a/relu_5x5_reduce
I0403 15:34:49.457636 20059 net.cpp:148] Top shape: 24 32 7 7 (37632)
I0403 15:34:49.457653 20059 net.cpp:156] Memory required for data: 1299351072
I0403 15:34:49.457669 20059 layer_factory.hpp:77] Creating layer inception_5a/5x5
I0403 15:34:49.457692 20059 net.cpp:91] Creating Layer inception_5a/5x5
I0403 15:34:49.457711 20059 net.cpp:425] inception_5a/5x5 <- inception_5a/5x5_reduce
I0403 15:34:49.457731 20059 net.cpp:399] inception_5a/5x5 -> inception_5a/5x5
I0403 15:34:49.459581 20059 net.cpp:141] Setting up inception_5a/5x5
I0403 15:34:49.459625 20059 net.cpp:148] Top shape: 24 128 7 7 (150528)
I0403 15:34:49.459640 20059 net.cpp:156] Memory required for data: 1299953184
I0403 15:34:49.459659 20059 layer_factory.hpp:77] Creating layer inception_5a/relu_5x5
I0403 15:34:49.459681 20059 net.cpp:91] Creating Layer inception_5a/relu_5x5
I0403 15:34:49.459698 20059 net.cpp:425] inception_5a/relu_5x5 <- inception_5a/5x5
I0403 15:34:49.459717 20059 net.cpp:386] inception_5a/relu_5x5 -> inception_5a/5x5 (in-place)
I0403 15:34:49.459923 20059 net.cpp:141] Setting up inception_5a/relu_5x5
I0403 15:34:49.459950 20059 net.cpp:148] Top shape: 24 128 7 7 (150528)
I0403 15:34:49.459967 20059 net.cpp:156] Memory required for data: 1300555296
I0403 15:34:49.459982 20059 layer_factory.hpp:77] Creating layer inception_5a/pool
I0403 15:34:49.460002 20059 net.cpp:91] Creating Layer inception_5a/pool
I0403 15:34:49.460022 20059 net.cpp:425] inception_5a/pool <- pool4/3x3_s2_pool4/3x3_s2_0_split_3
I0403 15:34:49.460046 20059 net.cpp:399] inception_5a/pool -> inception_5a/pool
I0403 15:34:49.460122 20059 net.cpp:141] Setting up inception_5a/pool
I0403 15:34:49.460147 20059 net.cpp:148] Top shape: 24 832 7 7 (978432)
I0403 15:34:49.460161 20059 net.cpp:156] Memory required for data: 1304469024
I0403 15:34:49.460177 20059 layer_factory.hpp:77] Creating layer inception_5a/pool_proj
I0403 15:34:49.460201 20059 net.cpp:91] Creating Layer inception_5a/pool_proj
I0403 15:34:49.460221 20059 net.cpp:425] inception_5a/pool_proj <- inception_5a/pool
I0403 15:34:49.460240 20059 net.cpp:399] inception_5a/pool_proj -> inception_5a/pool_proj
I0403 15:34:49.462682 20059 net.cpp:141] Setting up inception_5a/pool_proj
I0403 15:34:49.462712 20059 net.cpp:148] Top shape: 24 128 7 7 (150528)
I0403 15:34:49.462728 20059 net.cpp:156] Memory required for data: 1305071136
I0403 15:34:49.462746 20059 layer_factory.hpp:77] Creating layer inception_5a/relu_pool_proj
I0403 15:34:49.462767 20059 net.cpp:91] Creating Layer inception_5a/relu_pool_proj
I0403 15:34:49.462785 20059 net.cpp:425] inception_5a/relu_pool_proj <- inception_5a/pool_proj
I0403 15:34:49.462801 20059 net.cpp:386] inception_5a/relu_pool_proj -> inception_5a/pool_proj (in-place)
I0403 15:34:49.463110 20059 net.cpp:141] Setting up inception_5a/relu_pool_proj
I0403 15:34:49.463136 20059 net.cpp:148] Top shape: 24 128 7 7 (150528)
I0403 15:34:49.463152 20059 net.cpp:156] Memory required for data: 1305673248
I0403 15:34:49.463167 20059 layer_factory.hpp:77] Creating layer inception_5a/output
I0403 15:34:49.463187 20059 net.cpp:91] Creating Layer inception_5a/output
I0403 15:34:49.463207 20059 net.cpp:425] inception_5a/output <- inception_5a/1x1
I0403 15:34:49.463222 20059 net.cpp:425] inception_5a/output <- inception_5a/3x3
I0403 15:34:49.463239 20059 net.cpp:425] inception_5a/output <- inception_5a/5x5
I0403 15:34:49.463256 20059 net.cpp:425] inception_5a/output <- inception_5a/pool_proj
I0403 15:34:49.463273 20059 net.cpp:399] inception_5a/output -> inception_5a/output
I0403 15:34:49.463325 20059 net.cpp:141] Setting up inception_5a/output
I0403 15:34:49.463349 20059 net.cpp:148] Top shape: 24 832 7 7 (978432)
I0403 15:34:49.463364 20059 net.cpp:156] Memory required for data: 1309586976
I0403 15:34:49.463379 20059 layer_factory.hpp:77] Creating layer inception_5a/output_inception_5a/output_0_split
I0403 15:34:49.463397 20059 net.cpp:91] Creating Layer inception_5a/output_inception_5a/output_0_split
I0403 15:34:49.463412 20059 net.cpp:425] inception_5a/output_inception_5a/output_0_split <- inception_5a/output
I0403 15:34:49.463434 20059 net.cpp:399] inception_5a/output_inception_5a/output_0_split -> inception_5a/output_inception_5a/output_0_split_0
I0403 15:34:49.463455 20059 net.cpp:399] inception_5a/output_inception_5a/output_0_split -> inception_5a/output_inception_5a/output_0_split_1
I0403 15:34:49.463476 20059 net.cpp:399] inception_5a/output_inception_5a/output_0_split -> inception_5a/output_inception_5a/output_0_split_2
I0403 15:34:49.463497 20059 net.cpp:399] inception_5a/output_inception_5a/output_0_split -> inception_5a/output_inception_5a/output_0_split_3
I0403 15:34:49.463613 20059 net.cpp:141] Setting up inception_5a/output_inception_5a/output_0_split
I0403 15:34:49.463639 20059 net.cpp:148] Top shape: 24 832 7 7 (978432)
I0403 15:34:49.463657 20059 net.cpp:148] Top shape: 24 832 7 7 (978432)
I0403 15:34:49.463672 20059 net.cpp:148] Top shape: 24 832 7 7 (978432)
I0403 15:34:49.463688 20059 net.cpp:148] Top shape: 24 832 7 7 (978432)
I0403 15:34:49.463702 20059 net.cpp:156] Memory required for data: 1325241888
I0403 15:34:49.463717 20059 layer_factory.hpp:77] Creating layer inception_5b/1x1
I0403 15:34:49.463740 20059 net.cpp:91] Creating Layer inception_5b/1x1
I0403 15:34:49.463757 20059 net.cpp:425] inception_5b/1x1 <- inception_5a/output_inception_5a/output_0_split_0
I0403 15:34:49.463776 20059 net.cpp:399] inception_5b/1x1 -> inception_5b/1x1
I0403 15:34:49.467707 20059 net.cpp:141] Setting up inception_5b/1x1
I0403 15:34:49.467738 20059 net.cpp:148] Top shape: 24 384 7 7 (451584)
I0403 15:34:49.467753 20059 net.cpp:156] Memory required for data: 1327048224
I0403 15:34:49.467772 20059 layer_factory.hpp:77] Creating layer inception_5b/relu_1x1
I0403 15:34:49.467790 20059 net.cpp:91] Creating Layer inception_5b/relu_1x1
I0403 15:34:49.467806 20059 net.cpp:425] inception_5b/relu_1x1 <- inception_5b/1x1
I0403 15:34:49.467825 20059 net.cpp:386] inception_5b/relu_1x1 -> inception_5b/1x1 (in-place)
I0403 15:34:49.468150 20059 net.cpp:141] Setting up inception_5b/relu_1x1
I0403 15:34:49.468178 20059 net.cpp:148] Top shape: 24 384 7 7 (451584)
I0403 15:34:49.468192 20059 net.cpp:156] Memory required for data: 1328854560
I0403 15:34:49.468207 20059 layer_factory.hpp:77] Creating layer inception_5b/3x3_reduce
I0403 15:34:49.468230 20059 net.cpp:91] Creating Layer inception_5b/3x3_reduce
I0403 15:34:49.468248 20059 net.cpp:425] inception_5b/3x3_reduce <- inception_5a/output_inception_5a/output_0_split_1
I0403 15:34:49.468271 20059 net.cpp:399] inception_5b/3x3_reduce -> inception_5b/3x3_reduce
I0403 15:34:49.471030 20059 net.cpp:141] Setting up inception_5b/3x3_reduce
I0403 15:34:49.471060 20059 net.cpp:148] Top shape: 24 192 7 7 (225792)
I0403 15:34:49.471076 20059 net.cpp:156] Memory required for data: 1329757728
I0403 15:34:49.471094 20059 layer_factory.hpp:77] Creating layer inception_5b/relu_3x3_reduce
I0403 15:34:49.471115 20059 net.cpp:91] Creating Layer inception_5b/relu_3x3_reduce
I0403 15:34:49.471132 20059 net.cpp:425] inception_5b/relu_3x3_reduce <- inception_5b/3x3_reduce
I0403 15:34:49.471149 20059 net.cpp:386] inception_5b/relu_3x3_reduce -> inception_5b/3x3_reduce (in-place)
I0403 15:34:49.471345 20059 net.cpp:141] Setting up inception_5b/relu_3x3_reduce
I0403 15:34:49.471371 20059 net.cpp:148] Top shape: 24 192 7 7 (225792)
I0403 15:34:49.471386 20059 net.cpp:156] Memory required for data: 1330660896
I0403 15:34:49.471400 20059 layer_factory.hpp:77] Creating layer inception_5b/3x3
I0403 15:34:49.471426 20059 net.cpp:91] Creating Layer inception_5b/3x3
I0403 15:34:49.471443 20059 net.cpp:425] inception_5b/3x3 <- inception_5b/3x3_reduce
I0403 15:34:49.471463 20059 net.cpp:399] inception_5b/3x3 -> inception_5b/3x3
I0403 15:34:49.478421 20059 net.cpp:141] Setting up inception_5b/3x3
I0403 15:34:49.478451 20059 net.cpp:148] Top shape: 24 384 7 7 (451584)
I0403 15:34:49.478466 20059 net.cpp:156] Memory required for data: 1332467232
I0403 15:34:49.478484 20059 layer_factory.hpp:77] Creating layer inception_5b/relu_3x3
I0403 15:34:49.478505 20059 net.cpp:91] Creating Layer inception_5b/relu_3x3
I0403 15:34:49.478523 20059 net.cpp:425] inception_5b/relu_3x3 <- inception_5b/3x3
I0403 15:34:49.478540 20059 net.cpp:386] inception_5b/relu_3x3 -> inception_5b/3x3 (in-place)
I0403 15:34:49.478845 20059 net.cpp:141] Setting up inception_5b/relu_3x3
I0403 15:34:49.478873 20059 net.cpp:148] Top shape: 24 384 7 7 (451584)
I0403 15:34:49.478888 20059 net.cpp:156] Memory required for data: 1334273568
I0403 15:34:49.478902 20059 layer_factory.hpp:77] Creating layer inception_5b/5x5_reduce
I0403 15:34:49.478941 20059 net.cpp:91] Creating Layer inception_5b/5x5_reduce
I0403 15:34:49.478960 20059 net.cpp:425] inception_5b/5x5_reduce <- inception_5a/output_inception_5a/output_0_split_2
I0403 15:34:49.478982 20059 net.cpp:399] inception_5b/5x5_reduce -> inception_5b/5x5_reduce
I0403 15:34:49.480303 20059 net.cpp:141] Setting up inception_5b/5x5_reduce
I0403 15:34:49.480330 20059 net.cpp:148] Top shape: 24 48 7 7 (56448)
I0403 15:34:49.480346 20059 net.cpp:156] Memory required for data: 1334499360
I0403 15:34:49.480365 20059 layer_factory.hpp:77] Creating layer inception_5b/relu_5x5_reduce
I0403 15:34:49.480384 20059 net.cpp:91] Creating Layer inception_5b/relu_5x5_reduce
I0403 15:34:49.480401 20059 net.cpp:425] inception_5b/relu_5x5_reduce <- inception_5b/5x5_reduce
I0403 15:34:49.480419 20059 net.cpp:386] inception_5b/relu_5x5_reduce -> inception_5b/5x5_reduce (in-place)
I0403 15:34:49.480804 20059 net.cpp:141] Setting up inception_5b/relu_5x5_reduce
I0403 15:34:49.480831 20059 net.cpp:148] Top shape: 24 48 7 7 (56448)
I0403 15:34:49.480846 20059 net.cpp:156] Memory required for data: 1334725152
I0403 15:34:49.480861 20059 layer_factory.hpp:77] Creating layer inception_5b/5x5
I0403 15:34:49.480881 20059 net.cpp:91] Creating Layer inception_5b/5x5
I0403 15:34:49.480898 20059 net.cpp:425] inception_5b/5x5 <- inception_5b/5x5_reduce
I0403 15:34:49.480916 20059 net.cpp:399] inception_5b/5x5 -> inception_5b/5x5
I0403 15:34:49.483036 20059 net.cpp:141] Setting up inception_5b/5x5
I0403 15:34:49.483064 20059 net.cpp:148] Top shape: 24 128 7 7 (150528)
I0403 15:34:49.483083 20059 net.cpp:156] Memory required for data: 1335327264
I0403 15:34:49.483101 20059 layer_factory.hpp:77] Creating layer inception_5b/relu_5x5
I0403 15:34:49.483119 20059 net.cpp:91] Creating Layer inception_5b/relu_5x5
I0403 15:34:49.483135 20059 net.cpp:425] inception_5b/relu_5x5 <- inception_5b/5x5
I0403 15:34:49.483153 20059 net.cpp:386] inception_5b/relu_5x5 -> inception_5b/5x5 (in-place)
I0403 15:34:49.483355 20059 net.cpp:141] Setting up inception_5b/relu_5x5
I0403 15:34:49.483382 20059 net.cpp:148] Top shape: 24 128 7 7 (150528)
I0403 15:34:49.483398 20059 net.cpp:156] Memory required for data: 1335929376
I0403 15:34:49.483413 20059 layer_factory.hpp:77] Creating layer inception_5b/pool
I0403 15:34:49.483431 20059 net.cpp:91] Creating Layer inception_5b/pool
I0403 15:34:49.483448 20059 net.cpp:425] inception_5b/pool <- inception_5a/output_inception_5a/output_0_split_3
I0403 15:34:49.483469 20059 net.cpp:399] inception_5b/pool -> inception_5b/pool
I0403 15:34:49.483543 20059 net.cpp:141] Setting up inception_5b/pool
I0403 15:34:49.483569 20059 net.cpp:148] Top shape: 24 832 7 7 (978432)
I0403 15:34:49.483585 20059 net.cpp:156] Memory required for data: 1339843104
I0403 15:34:49.483600 20059 layer_factory.hpp:77] Creating layer inception_5b/pool_proj
I0403 15:34:49.483620 20059 net.cpp:91] Creating Layer inception_5b/pool_proj
I0403 15:34:49.483638 20059 net.cpp:425] inception_5b/pool_proj <- inception_5b/pool
I0403 15:34:49.483659 20059 net.cpp:399] inception_5b/pool_proj -> inception_5b/pool_proj
I0403 15:34:49.486042 20059 net.cpp:141] Setting up inception_5b/pool_proj
I0403 15:34:49.486071 20059 net.cpp:148] Top shape: 24 128 7 7 (150528)
I0403 15:34:49.486088 20059 net.cpp:156] Memory required for data: 1340445216
I0403 15:34:49.486105 20059 layer_factory.hpp:77] Creating layer inception_5b/relu_pool_proj
I0403 15:34:49.486127 20059 net.cpp:91] Creating Layer inception_5b/relu_pool_proj
I0403 15:34:49.486145 20059 net.cpp:425] inception_5b/relu_pool_proj <- inception_5b/pool_proj
I0403 15:34:49.486163 20059 net.cpp:386] inception_5b/relu_pool_proj -> inception_5b/pool_proj (in-place)
I0403 15:34:49.486472 20059 net.cpp:141] Setting up inception_5b/relu_pool_proj
I0403 15:34:49.486500 20059 net.cpp:148] Top shape: 24 128 7 7 (150528)
I0403 15:34:49.486515 20059 net.cpp:156] Memory required for data: 1341047328
I0403 15:34:49.486529 20059 layer_factory.hpp:77] Creating layer inception_5b/output
I0403 15:34:49.486548 20059 net.cpp:91] Creating Layer inception_5b/output
I0403 15:34:49.486580 20059 net.cpp:425] inception_5b/output <- inception_5b/1x1
I0403 15:34:49.486598 20059 net.cpp:425] inception_5b/output <- inception_5b/3x3
I0403 15:34:49.486615 20059 net.cpp:425] inception_5b/output <- inception_5b/5x5
I0403 15:34:49.486631 20059 net.cpp:425] inception_5b/output <- inception_5b/pool_proj
I0403 15:34:49.486649 20059 net.cpp:399] inception_5b/output -> inception_5b/output
I0403 15:34:49.486706 20059 net.cpp:141] Setting up inception_5b/output
I0403 15:34:49.486731 20059 net.cpp:148] Top shape: 24 1024 7 7 (1204224)
I0403 15:34:49.486745 20059 net.cpp:156] Memory required for data: 1345864224
I0403 15:34:49.486759 20059 layer_factory.hpp:77] Creating layer pool5/7x7_s1
I0403 15:34:49.486778 20059 net.cpp:91] Creating Layer pool5/7x7_s1
I0403 15:34:49.486793 20059 net.cpp:425] pool5/7x7_s1 <- inception_5b/output
I0403 15:34:49.486814 20059 net.cpp:399] pool5/7x7_s1 -> pool5/7x7_s1
I0403 15:34:49.487038 20059 net.cpp:141] Setting up pool5/7x7_s1
I0403 15:34:49.487064 20059 net.cpp:148] Top shape: 24 1024 1 1 (24576)
I0403 15:34:49.487079 20059 net.cpp:156] Memory required for data: 1345962528
I0403 15:34:49.487094 20059 layer_factory.hpp:77] Creating layer pool5/drop_7x7_s1
I0403 15:34:49.487114 20059 net.cpp:91] Creating Layer pool5/drop_7x7_s1
I0403 15:34:49.487131 20059 net.cpp:425] pool5/drop_7x7_s1 <- pool5/7x7_s1
I0403 15:34:49.487149 20059 net.cpp:386] pool5/drop_7x7_s1 -> pool5/7x7_s1 (in-place)
I0403 15:34:49.487201 20059 net.cpp:141] Setting up pool5/drop_7x7_s1
I0403 15:34:49.487226 20059 net.cpp:148] Top shape: 24 1024 1 1 (24576)
I0403 15:34:49.487241 20059 net.cpp:156] Memory required for data: 1346060832
I0403 15:34:49.487254 20059 layer_factory.hpp:77] Creating layer loss3/classifier_plantvillage
I0403 15:34:49.487274 20059 net.cpp:91] Creating Layer loss3/classifier_plantvillage
I0403 15:34:49.487290 20059 net.cpp:425] loss3/classifier_plantvillage <- pool5/7x7_s1
I0403 15:34:49.487313 20059 net.cpp:399] loss3/classifier_plantvillage -> loss3/classifier_plantvillage
I0403 15:34:49.487758 20059 net.cpp:141] Setting up loss3/classifier_plantvillage
I0403 15:34:49.487783 20059 net.cpp:148] Top shape: 24 38 (912)
I0403 15:34:49.487798 20059 net.cpp:156] Memory required for data: 1346064480
I0403 15:34:49.487817 20059 layer_factory.hpp:77] Creating layer loss3/classifier_plantvillage_loss3/classifier_plantvillage_0_split
I0403 15:34:49.487834 20059 net.cpp:91] Creating Layer loss3/classifier_plantvillage_loss3/classifier_plantvillage_0_split
I0403 15:34:49.487850 20059 net.cpp:425] loss3/classifier_plantvillage_loss3/classifier_plantvillage_0_split <- loss3/classifier_plantvillage
I0403 15:34:49.487871 20059 net.cpp:399] loss3/classifier_plantvillage_loss3/classifier_plantvillage_0_split -> loss3/classifier_plantvillage_loss3/classifier_plantvillage_0_split_0
I0403 15:34:49.487891 20059 net.cpp:399] loss3/classifier_plantvillage_loss3/classifier_plantvillage_0_split -> loss3/classifier_plantvillage_loss3/classifier_plantvillage_0_split_1
I0403 15:34:49.487911 20059 net.cpp:399] loss3/classifier_plantvillage_loss3/classifier_plantvillage_0_split -> loss3/classifier_plantvillage_loss3/classifier_plantvillage_0_split_2
I0403 15:34:49.487931 20059 net.cpp:399] loss3/classifier_plantvillage_loss3/classifier_plantvillage_0_split -> loss3/classifier_plantvillage_loss3/classifier_plantvillage_0_split_3
I0403 15:34:49.488047 20059 net.cpp:141] Setting up loss3/classifier_plantvillage_loss3/classifier_plantvillage_0_split
I0403 15:34:49.488072 20059 net.cpp:148] Top shape: 24 38 (912)
I0403 15:34:49.488088 20059 net.cpp:148] Top shape: 24 38 (912)
I0403 15:34:49.488104 20059 net.cpp:148] Top shape: 24 38 (912)
I0403 15:34:49.488119 20059 net.cpp:148] Top shape: 24 38 (912)
I0403 15:34:49.488133 20059 net.cpp:156] Memory required for data: 1346079072
I0403 15:34:49.488147 20059 layer_factory.hpp:77] Creating layer loss1/loss
I0403 15:34:49.488169 20059 net.cpp:91] Creating Layer loss1/loss
I0403 15:34:49.488186 20059 net.cpp:425] loss1/loss <- loss1/classifier_plantvillage_loss1/classifier_plantvillage_0_split_0
I0403 15:34:49.488217 20059 net.cpp:425] loss1/loss <- label_data_1_split_0
…
