…
I0403 16:02:21.923334 20664 net.cpp:313] The NetState phase (1) differed from the phase (0) specified by a rule in layer data
I0403 16:02:21.924520 20664 net.cpp:49] Initializing net from parameters: 
state {
  phase: TEST
}
layer {
  name: "data"
  type: "Data"
  top: "data"
  top: "label"
  include {
    phase: TEST
  }
  transform_param {
    mirror: false
    crop_size: 224
    mean_file: "/home/mohanty/data/final_dataset/lmdb/grayscale-20-80/mean.binaryproto"
  }
  data_param {
    source: "/home/mohanty/data/final_dataset/lmdb/grayscale-20-80/test_db"
    batch_size: 24
    backend: LMDB
  }
}
layer {
  name: "conv1/7x7_s2"
  type: "Convolution"
  bottom: "data"
  top: "conv1/7x7_s2"
  param {
    lr_mult: 1
    decay_mult: 1
  }
  param {
    lr_mult: 2
    decay_mult: 0
  }
  convolution_param {
    num_output: 64
    pad: 3
    kernel_size: 7
    stride: 2
    weight_filler {
      type: "xavier"
      std: 0.1
    }
    bias_filler {
      type: "constant"
      value: 0.2
    }
  }
}
layer {
  name: "conv1/relu_7x7"
  type: "ReLU"
  bottom: "conv1/7x7_s2"
  top: "conv1/7x7_s2"
}
layer {
  name: "pool1/3x3_s2"
  type: "Pooling"
  bottom: "conv1/7x7_s2"
  top: "pool1/3x3_s2"
  pooling_param {
    pool: MAX
    kernel_size: 3
    stride: 2
  }
}
layer {
  name: "pool1/norm1"
  type: "LRN"
  bottom: "pool1/3x3_s2"
  top: "pool1/norm1"
  lrn_param {
    local_size: 5
    alpha: 0.0001
    beta: 0.75
  }
}
layer {
  name: "conv2/3x3_reduce"
  type: "Convolution"
  bottom: "pool1/norm1"
  top: "conv2/3x3_reduce"
  param {
    lr_mult: 1
    decay_mult: 1
  }
  param {
    lr_mult: 2
    decay_mult: 0
  }
  convolution_param {
    num_output: 64
    kernel_size: 1
    weight_filler {
      type: "xavier"
      std: 0.1
    }
    bias_filler {
      type: "constant"
      value: 0.2
    }
  }
}
layer {
  name: "conv2/relu_3x3_reduce"
  type: "ReLU"
  bottom: "conv2/3x3_reduce"
  top: "conv2/3x3_reduce"
}
layer {
  name: "conv2/3x3"
  type: "Convolution"
  bottom: "conv2/3x3_reduce"
  top: "conv2/3x3"
  param {
    lr_mult: 1
    decay_mult: 1
  }
  param {
    lr_mult: 2
    decay_mult: 0
  }
  convolution_param {
    num_output: 192
    pad: 1
    kernel_size: 3
    weight_filler {
      type: "xavier"
      std: 0.03
    }
    bias_filler {
      type: "constant"
      value: 0.2
    }
  }
}
layer {
  name: "conv2/relu_3x3"
  type: "ReLU"
  bottom: "conv2/3x3"
  top: "conv2/3x3"
}
layer {
  name: "conv2/norm2"
  type: "LRN"
  bottom: "conv2/3x3"
  top: "conv2/norm2"
  lrn_param {
    local_size: 5
    alpha: 0.0001
    beta: 0.75
  }
}
layer {
  name: "pool2/3x3_s2"
  type: "Pooling"
  bottom: "conv2/norm2"
  top: "pool2/3x3_s2"
  pooling_param {
    pool: MAX
    kernel_size: 3
    stride: 2
  }
}
layer {
  name: "inception_3a/1x1"
  type: "Convolution"
  bottom: "pool2/3x3_s2"
  top: "inception_3a/1x1"
  param {
    lr_mult: 1
    decay_mult: 1
  }
  param {
    lr_mult: 2
    decay_mult: 0
  }
  convolution_param {
    num_output: 64
    kernel_size: 1
    weight_filler {
      type: "xavier"
      std: 0.03
    }
    bias_filler {
      type: "constant"
      value: 0.2
    }
  }
}
layer {
  name: "inception_3a/relu_1x1"
  type: "ReLU"
  bottom: "inception_3a/1x1"
  top: "inception_3a/1x1"
}
layer {
  name: "inception_3a/3x3_reduce"
  type: "Convolution"
  bottom: "pool2/3x3_s2"
  top: "inception_3a/3x3_reduce"
  param {
    lr_mult: 1
    decay_mult: 1
  }
  param {
    lr_mult: 2
    decay_mult: 0
  }
  convolution_param {
    num_output: 96
    kernel_size: 1
    weight_filler {
      type: "xavier"
      std: 0.09
    }
    bias_filler {
      type: "constant"
      value: 0.2
    }
  }
}
layer {
  name: "inception_3a/relu_3x3_reduce"
  type: "ReLU"
  bottom: "inception_3a/3x3_reduce"
  top: "inception_3a/3x3_reduce"
}
layer {
  name: "inception_3a/3x3"
  type: "Convolution"
  bottom: "inception_3a/3x3_reduce"
  top: "inception_3a/3x3"
  param {
    lr_mult: 1
    decay_mult: 1
  }
  param {
    lr_mult: 2
    decay_mult: 0
  }
  convolution_param {
    num_output: 128
    pad: 1
    kernel_size: 3
    weight_filler {
      type: "xavier"
      std: 0.03
    }
    bias_filler {
      type: "constant"
      value: 0.2
    }
  }
}
layer {
  name: "inception_3a/relu_3x3"
  type: "ReLU"
  bottom: "inception_3a/3x3"
  top: "inception_3a/3x3"
}
layer {
  name: "inception_3a/5x5_reduce"
  type: "Convolution"
  bottom: "pool2/3x3_s2"
  top: "inception_3a/5x5_reduce"
  param {
    lr_mult: 1
    decay_mult: 1
  }
  param {
    lr_mult: 2
    decay_mult: 0
  }
  convolution_param {
    num_output: 16
    kernel_size: 1
    weight_filler {
      type: "xavier"
      std: 0.2
    }
    bias_filler {
      type: "constant"
      value: 0.2
    }
  }
}
layer {
  name: "inception_3a/relu_5x5_reduce"
  type: "ReLU"
  bottom: "inception_3a/5x5_reduce"
  top: "inception_3a/5x5_reduce"
}
layer {
  name: "inception_3a/5x5"
  type: "Convolution"
  bottom: "inception_3a/5x5_reduce"
  top: "inception_3a/5x5"
  param {
    lr_mult: 1
    decay_mult: 1
  }
  param {
    lr_mult: 2
    decay_mult: 0
  }
  convolution_param {
    num_output: 32
    pad: 2
    kernel_size: 5
    weight_filler {
      type: "xavier"
      std: 0.03
    }
    bias_filler {
      type: "constant"
      value: 0.2
    }
  }
}
layer {
  name: "inception_3a/relu_5x5"
  type: "ReLU"
  bottom: "inception_3a/5x5"
  top: "inception_3a/5x5"
}
layer {
  name: "inception_3a/pool"
  type: "Pooling"
  bottom: "pool2/3x3_s2"
  top: "inception_3a/pool"
  pooling_param {
    pool: MAX
    kernel_size: 3
    stride: 1
    pad: 1
  }
}
layer {
  name: "inception_3a/pool_proj"
  type: "Convolution"
  bottom: "inception_3a/pool"
  top: "inception_3a/pool_proj"
  param {
    lr_mult: 1
    decay_mult: 1
  }
  param {
    lr_mult: 2
    decay_mult: 0
  }
  convolution_param {
    num_output: 32
    kernel_size: 1
    weight_filler {
      type: "xavier"
      std: 0.1
    }
    bias_filler {
      type: "constant"
      value: 0.2
    }
  }
}
layer {
  name: "inception_3a/relu_pool_proj"
  type: "ReLU"
  bottom: "inception_3a/pool_proj"
  top: "inception_3a/pool_proj"
}
layer {
  name: "inception_3a/output"
  type: "Concat"
  bottom: "inception_3a/1x1"
  bottom: "inception_3a/3x3"
  bottom: "inception_3a/5x5"
  bottom: "inception_3a/pool_proj"
  top: "inception_3a/output"
}
layer {
  name: "inception_3b/1x1"
  type: "Convolution"
  bottom: "inception_3a/output"
  top: "inception_3b/1x1"
  param {
    lr_mult: 1
    decay_mult: 1
  }
  param {
    lr_mult: 2
    decay_mult: 0
  }
  convolution_param {
    num_output: 128
    kernel_size: 1
    weight_filler {
      type: "xavier"
      std: 0.03
    }
    bias_filler {
      type: "constant"
      value: 0.2
    }
  }
}
layer {
  name: "inception_3b/relu_1x1"
  type: "ReLU"
  bottom: "inception_3b/1x1"
  top: "inception_3b/1x1"
}
layer {
  name: "inception_3b/3x3_reduce"
  type: "Convolution"
  bottom: "inception_3a/output"
  top: "inception_3b/3x3_reduce"
  param {
    lr_mult: 1
    decay_mult: 1
  }
  param {
    lr_mult: 2
    decay_mult: 0
  }
  convolution_param {
    num_output: 128
    kernel_size: 1
    weight_filler {
      type: "xavier"
      std: 0.09
    }
    bias_filler {
      type: "constant"
      value: 0.2
    }
  }
}
layer {
  name: "inception_3b/relu_3x3_reduce"
  type: "ReLU"
  bottom: "inception_3b/3x3_reduce"
  top: "inception_3b/3x3_reduce"
}
layer {
  name: "inception_3b/3x3"
  type: "Convolution"
  bottom: "inception_3b/3x3_reduce"
  top: "inception_3b/3x3"
  param {
    lr_mult: 1
    decay_mult: 1
  }
  param {
    lr_mult: 2
    decay_mult: 0
  }
  convolution_param {
    num_output: 192
    pad: 1
    kernel_size: 3
    weight_filler {
      type: "xavier"
      std: 0.03
    }
    bias_filler {
      type: "constant"
      value: 0.2
    }
  }
}
layer {
  name: "inception_3b/relu_3x3"
  type: "ReLU"
  bottom: "inception_3b/3x3"
  top: "inception_3b/3x3"
}
layer {
  name: "inception_3b/5x5_reduce"
  type: "Convolution"
  bottom: "inception_3a/output"
  top: "inception_3b/5x5_reduce"
  param {
    lr_mult: 1
    decay_mult: 1
  }
  param {
    lr_mult: 2
    decay_mult: 0
  }
  convolution_param {
    num_output: 32
    kernel_size: 1
    weight_filler {
      type: "xavier"
      std: 0.2
    }
    bias_filler {
      type: "constant"
      value: 0.2
    }
  }
}
layer {
  name: "inception_3b/relu_5x5_reduce"
  type: "ReLU"
  bottom: "inception_3b/5x5_reduce"
  top: "inception_3b/5x5_reduce"
}
layer {
  name: "inception_3b/5x5"
  type: "Convolution"
  bottom: "inception_3b/5x5_reduce"
  top: "inception_3b/5x5"
  param {
    lr_mult: 1
    decay_mult: 1
  }
  param {
    lr_mult: 2
    decay_mult: 0
  }
  convolution_param {
    num_output: 96
    pad: 2
    kernel_size: 5
    weight_filler {
      type: "xavier"
      std: 0.03
    }
    bias_filler {
      type: "constant"
      value: 0.2
    }
  }
}
layer {
  name: "inception_3b/relu_5x5"
  type: "ReLU"
  bottom: "inception_3b/5x5"
  top: "inception_3b/5x5"
}
layer {
  name: "inception_3b/pool"
  type: "Pooling"
  bottom: "inception_3a/output"
  top: "inception_3b/pool"
  pooling_param {
    pool: MAX
    kernel_size: 3
    stride: 1
    pad: 1
  }
}
layer {
  name: "inception_3b/pool_proj"
  type: "Convolution"
  bottom: "inception_3b/pool"
  top: "inception_3b/pool_proj"
  param {
    lr_mult: 1
    decay_mult: 1
  }
  param {
    lr_mult: 2
    decay_mult: 0
  }
  convolution_param {
    num_output: 64
    kernel_size: 1
    weight_filler {
      type: "xavier"
      std: 0.1
    }
    bias_filler {
      type: "constant"
      value: 0.2
    }
  }
}
layer {
  name: "inception_3b/relu_pool_proj"
  type: "ReLU"
  bottom: "inception_3b/pool_proj"
  top: "inception_3b/pool_proj"
}
layer {
  name: "inception_3b/output"
  type: "Concat"
  bottom: "inception_3b/1x1"
  bottom: "inception_3b/3x3"
  bottom: "inception_3b/5x5"
  bottom: "inception_3b/pool_proj"
  top: "inception_3b/output"
}
layer {
  name: "pool3/3x3_s2"
  type: "Pooling"
  bottom: "inception_3b/output"
  top: "pool3/3x3_s2"
  pooling_param {
    pool: MAX
    kernel_size: 3
    stride: 2
  }
}
layer {
  name: "inception_4a/1x1"
  type: "Convolution"
  bottom: "pool3/3x3_s2"
  top: "inception_4a/1x1"
  param {
    lr_mult: 1
    decay_mult: 1
  }
  param {
    lr_mult: 2
    decay_mult: 0
  }
  convolution_param {
    num_output: 192
    kernel_size: 1
    weight_filler {
      type: "xavier"
      std: 0.03
    }
    bias_filler {
      type: "constant"
      value: 0.2
    }
  }
}
layer {
  name: "inception_4a/relu_1x1"
  type: "ReLU"
  bottom: "inception_4a/1x1"
  top: "inception_4a/1x1"
}
layer {
  name: "inception_4a/3x3_reduce"
  type: "Convolution"
  bottom: "pool3/3x3_s2"
  top: "inception_4a/3x3_reduce"
  param {
    lr_mult: 1
    decay_mult: 1
  }
  param {
    lr_mult: 2
    decay_mult: 0
  }
  convolution_param {
    num_output: 96
    kernel_size: 1
    weight_filler {
      type: "xavier"
      std: 0.09
    }
    bias_filler {
      type: "constant"
      value: 0.2
    }
  }
}
layer {
  name: "inception_4a/relu_3x3_reduce"
  type: "ReLU"
  bottom: "inception_4a/3x3_reduce"
  top: "inception_4a/3x3_reduce"
}
layer {
  name: "inception_4a/3x3"
  type: "Convolution"
  bottom: "inception_4a/3x3_reduce"
  top: "inception_4a/3x3"
  param {
    lr_mult: 1
    decay_mult: 1
  }
  param {
    lr_mult: 2
    decay_mult: 0
  }
  convolution_param {
    num_output: 208
    pad: 1
    kernel_size: 3
    weight_filler {
      type: "xavier"
      std: 0.03
    }
    bias_filler {
      type: "constant"
      value: 0.2
    }
  }
}
layer {
  name: "inception_4a/relu_3x3"
  type: "ReLU"
  bottom: "inception_4a/3x3"
  top: "inception_4a/3x3"
}
layer {
  name: "inception_4a/5x5_reduce"
  type: "Convolution"
  bottom: "pool3/3x3_s2"
  top: "inception_4a/5x5_reduce"
  param {
    lr_mult: 1
    decay_mult: 1
  }
  param {
    lr_mult: 2
    decay_mult: 0
  }
  convolution_param {
    num_output: 16
    kernel_size: 1
    weight_filler {
      type: "xavier"
      std: 0.2
    }
    bias_filler {
      type: "constant"
      value: 0.2
    }
  }
}
layer {
  name: "inception_4a/relu_5x5_reduce"
  type: "ReLU"
  bottom: "inception_4a/5x5_reduce"
  top: "inception_4a/5x5_reduce"
}
layer {
  name: "inception_4a/5x5"
  type: "Convolution"
  bottom: "inception_4a/5x5_reduce"
  top: "inception_4a/5x5"
  param {
    lr_mult: 1
    decay_mult: 1
  }
  param {
    lr_mult: 2
    decay_mult: 0
  }
  convolution_param {
    num_output: 48
    pad: 2
    kernel_size: 5
    weight_filler {
      type: "xavier"
      std: 0.03
    }
    bias_filler {
      type: "constant"
      value: 0.2
    }
  }
}
layer {
  name: "inception_4a/relu_5x5"
  type: "ReLU"
  bottom: "inception_4a/5x5"
  top: "inception_4a/5x5"
}
layer {
  name: "inception_4a/pool"
  type: "Pooling"
  bottom: "pool3/3x3_s2"
  top: "inception_4a/pool"
  pooling_param {
    pool: MAX
    kernel_size: 3
    stride: 1
    pad: 1
  }
}
layer {
  name: "inception_4a/pool_proj"
  type: "Convolution"
  bottom: "inception_4a/pool"
  top: "inception_4a/pool_proj"
  param {
    lr_mult: 1
    decay_mult: 1
  }
  param {
    lr_mult: 2
    decay_mult: 0
  }
  convolution_param {
    num_output: 64
    kernel_size: 1
    weight_filler {
      type: "xavier"
      std: 0.1
    }
    bias_filler {
      type: "constant"
      value: 0.2
    }
  }
}
layer {
  name: "inception_4a/relu_pool_proj"
  type: "ReLU"
  bottom: "inception_4a/pool_proj"
  top: "inception_4a/pool_proj"
}
layer {
  name: "inception_4a/output"
  type: "Concat"
  bottom: "inception_4a/1x1"
  bottom: "inception_4a/3x3"
  bottom: "inception_4a/5x5"
  bottom: "inception_4a/pool_proj"
  top: "inception_4a/output"
}
layer {
  name: "loss1/ave_pool"
  type: "Pooling"
  bottom: "inception_4a/output"
  top: "loss1/ave_pool"
  pooling_param {
    pool: AVE
    kernel_size: 5
    stride: 3
  }
}
layer {
  name: "loss1/conv"
  type: "Convolution"
  bottom: "loss1/ave_pool"
  top: "loss1/conv"
  param {
    lr_mult: 1
    decay_mult: 1
  }
  param {
    lr_mult: 2
    decay_mult: 0
  }
  convolution_param {
    num_output: 128
    kernel_size: 1
    weight_filler {
      type: "xavier"
      std: 0.08
    }
    bias_filler {
      type: "constant"
      value: 0.2
    }
  }
}
layer {
  name: "loss1/relu_conv"
  type: "ReLU"
  bottom: "loss1/conv"
  top: "loss1/conv"
}
layer {
  name: "loss1/fc"
  type: "InnerProduct"
  bottom: "loss1/conv"
  top: "loss1/fc"
  param {
    lr_mult: 1
    decay_mult: 1
  }
  param {
    lr_mult: 2
    decay_mult: 0
  }
  inner_product_param {
    num_output: 1024
    weight_filler {
      type: "xavier"
      std: 0.02
    }
    bias_filler {
      type: "constant"
      value: 0.2
    }
  }
}
layer {
  name: "loss1/relu_fc"
  type: "ReLU"
  bottom: "loss1/fc"
  top: "loss1/fc"
}
layer {
  name: "loss1/drop_fc"
  type: "Dropout"
  bottom: "loss1/fc"
  top: "loss1/fc"
  dropout_param {
    dropout_ratio: 0.7
  }
}
layer {
  name: "loss1/classifier_plantvillage"
  type: "InnerProduct"
  bottom: "loss1/fc"
  top: "loss1/classifier_plantvillage"
  param {
    lr_mult: 1
    decay_mult: 1
  }
  param {
    lr_mult: 2
    decay_mult: 0
  }
  inner_product_param {
    num_output: 38
    weight_filler {
      type: "xavier"
      std: 0.0009765625
    }
    bias_filler {
      type: "constant"
      value: 0
    }
  }
}
layer {
  name: "inception_4b/1x1"
  type: "Convolution"
  bottom: "inception_4a/output"
  top: "inception_4b/1x1"
  param {
    lr_mult: 1
    decay_mult: 1
  }
  param {
    lr_mult: 2
    decay_mult: 0
  }
  convolution_param {
    num_output: 160
    kernel_size: 1
    weight_filler {
      type: "xavier"
      std: 0.03
    }
    bias_filler {
      type: "constant"
      value: 0.2
    }
  }
}
layer {
  name: "inception_4b/relu_1x1"
  type: "ReLU"
  bottom: "inception_4b/1x1"
  top: "inception_4b/1x1"
}
layer {
  name: "inception_4b/3x3_reduce"
  type: "Convolution"
  bottom: "inception_4a/output"
  top: "inception_4b/3x3_reduce"
  param {
    lr_mult: 1
    decay_mult: 1
  }
  param {
    lr_mult: 2
    decay_mult: 0
  }
  convolution_param {
    num_output: 112
    kernel_size: 1
    weight_filler {
      type: "xavier"
      std: 0.09
    }
    bias_filler {
      type: "constant"
      value: 0.2
    }
  }
}
layer {
  name: "inception_4b/relu_3x3_reduce"
  type: "ReLU"
  bottom: "inception_4b/3x3_reduce"
  top: "inception_4b/3x3_reduce"
}
layer {
  name: "inception_4b/3x3"
  type: "Convolution"
  bottom: "inception_4b/3x3_reduce"
  top: "inception_4b/3x3"
  param {
    lr_mult: 1
    decay_mult: 1
  }
  param {
    lr_mult: 2
    decay_mult: 0
  }
  convolution_param {
    num_output: 224
    pad: 1
    kernel_size: 3
    weight_filler {
      type: "xavier"
      std: 0.03
    }
    bias_filler {
      type: "constant"
      value: 0.2
    }
  }
}
layer {
  name: "inception_4b/relu_3x3"
  type: "ReLU"
  bottom: "inception_4b/3x3"
  top: "inception_4b/3x3"
}
layer {
  name: "inception_4b/5x5_reduce"
  type: "Convolution"
  bottom: "inception_4a/output"
  top: "inception_4b/5x5_reduce"
  param {
    lr_mult: 1
    decay_mult: 1
  }
  param {
    lr_mult: 2
    decay_mult: 0
  }
  convolution_param {
    num_output: 24
    kernel_size: 1
    weight_filler {
      type: "xavier"
      std: 0.2
    }
    bias_filler {
      type: "constant"
      value: 0.2
    }
  }
}
layer {
  name: "inception_4b/relu_5x5_reduce"
  type: "ReLU"
  bottom: "inception_4b/5x5_reduce"
  top: "inception_4b/5x5_reduce"
}
layer {
  name: "inception_4b/5x5"
  type: "Convolution"
  bottom: "inception_4b/5x5_reduce"
  top: "inception_4b/5x5"
  param {
    lr_mult: 1
    decay_mult: 1
  }
  param {
    lr_mult: 2
    decay_mult: 0
  }
  convolution_param {
    num_output: 64
    pad: 2
    kernel_size: 5
    weight_filler {
      type: "xavier"
      std: 0.03
    }
    bias_filler {
      type: "constant"
      value: 0.2
    }
  }
}
layer {
  name: "inception_4b/relu_5x5"
  type: "ReLU"
  bottom: "inception_4b/5x5"
  top: "inception_4b/5x5"
}
layer {
  name: "inception_4b/pool"
  type: "Pooling"
  bottom: "inception_4a/output"
  top: "inception_4b/pool"
  pooling_param {
    pool: MAX
    kernel_size: 3
    stride: 1
    pad: 1
  }
}
layer {
  name: "inception_4b/pool_proj"
  type: "Convolution"
  bottom: "inception_4b/pool"
  top: "inception_4b/pool_proj"
  param {
    lr_mult: 1
    decay_mult: 1
  }
  param {
    lr_mult: 2
    decay_mult: 0
  }
  convolution_param {
    num_output: 64
    kernel_size: 1
    weight_filler {
      type: "xavier"
      std: 0.1
    }
    bias_filler {
      type: "constant"
      value: 0.2
    }
  }
}
layer {
  name: "inception_4b/relu_pool_proj"
  type: "ReLU"
  bottom: "inception_4b/pool_proj"
  top: "inception_4b/pool_proj"
}
layer {
  name: "inception_4b/output"
  type: "Concat"
  bottom: "inception_4b/1x1"
  bottom: "inception_4b/3x3"
  bottom: "inception_4b/5x5"
  bottom: "inception_4b/pool_proj"
  top: "inception_4b/output"
}
layer {
  name: "inception_4c/1x1"
  type: "Convolution"
  bottom: "inception_4b/output"
  top: "inception_4c/1x1"
  param {
    lr_mult: 1
    decay_mult: 1
  }
  param {
    lr_mult: 2
    decay_mult: 0
  }
  convolution_param {
    num_output: 128
    kernel_size: 1
    weight_filler {
      type: "xavier"
      std: 0.03
    }
    bias_filler {
      type: "constant"
      value: 0.2
    }
  }
}
layer {
  name: "inception_4c/relu_1x1"
  type: "ReLU"
  bottom: "inception_4c/1x1"
  top: "inception_4c/1x1"
}
layer {
  name: "inception_4c/3x3_reduce"
  type: "Convolution"
  bottom: "inception_4b/output"
  top: "inception_4c/3x3_reduce"
  param {
    lr_mult: 1
    decay_mult: 1
  }
  param {
    lr_mult: 2
    decay_mult: 0
  }
  convolution_param {
    num_output: 128
    kernel_size: 1
    weight_filler {
      type: "xavier"
      std: 0.09
    }
    bias_filler {
      type: "constant"
      value: 0.2
    }
  }
}
layer {
  name: "inception_4c/relu_3x3_reduce"
  type: "ReLU"
  bottom: "inception_4c/3x3_reduce"
  top: "inception_4c/3x3_reduce"
}
layer {
  name: "inception_4c/3x3"
  type: "Convolution"
  bottom: "inception_4c/3x3_reduce"
  top: "inception_4c/3x3"
  param {
    lr_mult: 1
    decay_mult: 1
  }
  param {
    lr_mult: 2
    decay_mult: 0
  }
  convolution_param {
    num_output: 256
    pad: 1
    kernel_size: 3
    weight_filler {
      type: "xavier"
      std: 0.03
    }
    bias_filler {
      type: "constant"
      value: 0.2
    }
  }
}
layer {
  name: "inception_4c/relu_3x3"
  type: "ReLU"
  bottom: "inception_4c/3x3"
  top: "inception_4c/3x3"
}
layer {
  name: "inception_4c/5x5_reduce"
  type: "Convolution"
  bottom: "inception_4b/output"
  top: "inception_4c/5x5_reduce"
  param {
    lr_mult: 1
    decay_mult: 1
  }
  param {
    lr_mult: 2
    decay_mult: 0
  }
  convolution_param {
    num_output: 24
    kernel_size: 1
    weight_filler {
      type: "xavier"
      std: 0.2
    }
    bias_filler {
      type: "constant"
      value: 0.2
    }
  }
}
layer {
  name: "inception_4c/relu_5x5_reduce"
  type: "ReLU"
  bottom: "inception_4c/5x5_reduce"
  top: "inception_4c/5x5_reduce"
}
layer {
  name: "inception_4c/5x5"
  type: "Convolution"
  bottom: "inception_4c/5x5_reduce"
  top: "inception_4c/5x5"
  param {
    lr_mult: 1
    decay_mult: 1
  }
  param {
    lr_mult: 2
    decay_mult: 0
  }
  convolution_param {
    num_output: 64
    pad: 2
    kernel_size: 5
    weight_filler {
      type: "xavier"
      std: 0.03
    }
    bias_filler {
      type: "constant"
      value: 0.2
    }
  }
}
layer {
  name: "inception_4c/relu_5x5"
  type: "ReLU"
  bottom: "inception_4c/5x5"
  top: "inception_4c/5x5"
}
layer {
  name: "inception_4c/pool"
  type: "Pooling"
  bottom: "inception_4b/output"
  top: "inception_4c/pool"
  pooling_param {
    pool: MAX
    kernel_size: 3
    stride: 1
    pad: 1
  }
}
layer {
  name: "inception_4c/pool_proj"
  type: "Convolution"
  bottom: "inception_4c/pool"
  top: "inception_4c/pool_proj"
  param {
    lr_mult: 1
    decay_mult: 1
  }
  param {
    lr_mult: 2
    decay_mult: 0
  }
  convolution_param {
    num_output: 64
    kernel_size: 1
    weight_filler {
      type: "xavier"
      std: 0.1
    }
    bias_filler {
      type: "constant"
      value: 0.2
    }
  }
}
layer {
  name: "inception_4c/relu_pool_proj"
  type: "ReLU"
  bottom: "inception_4c/pool_proj"
  top: "inception_4c/pool_proj"
}
layer {
  name: "inception_4c/output"
  type: "Concat"
  bottom: "inception_4c/1x1"
  bottom: "inception_4c/3x3"
  bottom: "inception_4c/5x5"
  bottom: "inception_4c/pool_proj"
  top: "inception_4c/output"
}
layer {
  name: "inception_4d/1x1"
  type: "Convolution"
  bottom: "inception_4c/output"
  top: "inception_4d/1x1"
  param {
    lr_mult: 1
    decay_mult: 1
  }
  param {
    lr_mult: 2
    decay_mult: 0
  }
  convolution_param {
    num_output: 112
    kernel_size: 1
    weight_filler {
      type: "xavier"
      std: 0.03
    }
    bias_filler {
      type: "constant"
      value: 0.2
    }
  }
}
layer {
  name: "inception_4d/relu_1x1"
  type: "ReLU"
  bottom: "inception_4d/1x1"
  top: "inception_4d/1x1"
}
layer {
  name: "inception_4d/3x3_reduce"
  type: "Convolution"
  bottom: "inception_4c/output"
  top: "inception_4d/3x3_reduce"
  param {
    lr_mult: 1
    decay_mult: 1
  }
  param {
    lr_mult: 2
    decay_mult: 0
  }
  convolution_param {
    num_output: 144
    kernel_size: 1
    weight_filler {
      type: "xavier"
      std: 0.09
    }
    bias_filler {
      type: "constant"
      value: 0.2
    }
  }
}
layer {
  name: "inception_4d/relu_3x3_reduce"
  type: "ReLU"
  bottom: "inception_4d/3x3_reduce"
  top: "inception_4d/3x3_reduce"
}
layer {
  name: "inception_4d/3x3"
  type: "Convolution"
  bottom: "inception_4d/3x3_reduce"
  top: "inception_4d/3x3"
  param {
    lr_mult: 1
    decay_mult: 1
  }
  param {
    lr_mult: 2
    decay_mult: 0
  }
  convolution_param {
    num_output: 288
    pad: 1
    kernel_size: 3
    weight_filler {
      type: "xavier"
      std: 0.03
    }
    bias_filler {
      type: "constant"
      value: 0.2
    }
  }
}
layer {
  name: "inception_4d/relu_3x3"
  type: "ReLU"
  bottom: "inception_4d/3x3"
  top: "inception_4d/3x3"
}
layer {
  name: "inception_4d/5x5_reduce"
  type: "Convolution"
  bottom: "inception_4c/output"
  top: "inception_4d/5x5_reduce"
  param {
    lr_mult: 1
    decay_mult: 1
  }
  param {
    lr_mult: 2
    decay_mult: 0
  }
  convolution_param {
    num_output: 32
    kernel_size: 1
    weight_filler {
      type: "xavier"
      std: 0.2
    }
    bias_filler {
      type: "constant"
      value: 0.2
    }
  }
}
layer {
  name: "inception_4d/relu_5x5_reduce"
  type: "ReLU"
  bottom: "inception_4d/5x5_reduce"
  top: "inception_4d/5x5_reduce"
}
layer {
  name: "inception_4d/5x5"
  type: "Convolution"
  bottom: "inception_4d/5x5_reduce"
  top: "inception_4d/5x5"
  param {
    lr_mult: 1
    decay_mult: 1
  }
  param {
    lr_mult: 2
    decay_mult: 0
  }
  convolution_param {
    num_output: 64
    pad: 2
    kernel_size: 5
    weight_filler {
      type: "xavier"
      std: 0.03
    }
    bias_filler {
      type: "constant"
      value: 0.2
    }
  }
}
layer {
  name: "inception_4d/relu_5x5"
  type: "ReLU"
  bottom: "inception_4d/5x5"
  top: "inception_4d/5x5"
}
layer {
  name: "inception_4d/pool"
  type: "Pooling"
  bottom: "inception_4c/output"
  top: "inception_4d/pool"
  pooling_param {
    pool: MAX
    kernel_size: 3
    stride: 1
    pad: 1
  }
}
layer {
  name: "inception_4d/pool_proj"
  type: "Convolution"
  bottom: "inception_4d/pool"
  top: "inception_4d/pool_proj"
  param {
    lr_mult: 1
    decay_mult: 1
  }
  param {
    lr_mult: 2
    decay_mult: 0
  }
  convolution_param {
    num_output: 64
    kernel_size: 1
    weight_filler {
      type: "xavier"
      std: 0.1
    }
    bias_filler {
      type: "constant"
      value: 0.2
    }
  }
}
layer {
  name: "inception_4d/relu_pool_proj"
  type: "ReLU"
  bottom: "inception_4d/pool_proj"
  top: "inception_4d/pool_proj"
}
layer {
  name: "inception_4d/output"
  type: "Concat"
  bottom: "inception_4d/1x1"
  bottom: "inception_4d/3x3"
  bottom: "inception_4d/5x5"
  bottom: "inception_4d/pool_proj"
  top: "inception_4d/output"
}
layer {
  name: "loss2/ave_pool"
  type: "Pooling"
  bottom: "inception_4d/output"
  top: "loss2/ave_pool"
  pooling_param {
    pool: AVE
    kernel_size: 5
    stride: 3
  }
}
layer {
  name: "loss2/conv"
  type: "Convolution"
  bottom: "loss2/ave_pool"
  top: "loss2/conv"
  param {
    lr_mult: 1
    decay_mult: 1
  }
  param {
    lr_mult: 2
    decay_mult: 0
  }
  convolution_param {
    num_output: 128
    kernel_size: 1
    weight_filler {
      type: "xavier"
      std: 0.08
    }
    bias_filler {
      type: "constant"
      value: 0.2
    }
  }
}
layer {
  name: "loss2/relu_conv"
  type: "ReLU"
  bottom: "loss2/conv"
  top: "loss2/conv"
}
layer {
  name: "loss2/fc"
  type: "InnerProduct"
  bottom: "loss2/conv"
  top: "loss2/fc"
  param {
    lr_mult: 1
    decay_mult: 1
  }
  param {
    lr_mult: 2
    decay_mult: 0
  }
  inner_product_param {
    num_output: 1024
    weight_filler {
      type: "xavier"
      std: 0.02
    }
    bias_filler {
      type: "constant"
      value: 0.2
    }
  }
}
layer {
  name: "loss2/relu_fc"
  type: "ReLU"
  bottom: "loss2/fc"
  top: "loss2/fc"
}
layer {
  name: "loss2/drop_fc"
  type: "Dropout"
  bottom: "loss2/fc"
  top: "loss2/fc"
  dropout_param {
    dropout_ratio: 0.7
  }
}
layer {
  name: "loss2/classifier_plantvillage"
  type: "InnerProduct"
  bottom: "loss2/fc"
  top: "loss2/classifier_plantvillage"
  param {
    lr_mult: 1
    decay_mult: 1
  }
  param {
    lr_mult: 2
    decay_mult: 0
  }
  inner_product_param {
    num_output: 38
    weight_filler {
      type: "xavier"
      std: 0.0009765625
    }
    bias_filler {
      type: "constant"
      value: 0
    }
  }
}
layer {
  name: "inception_4e/1x1"
  type: "Convolution"
  bottom: "inception_4d/output"
  top: "inception_4e/1x1"
  param {
    lr_mult: 1
    decay_mult: 1
  }
  param {
    lr_mult: 2
    decay_mult: 0
  }
  convolution_param {
    num_output: 256
    kernel_size: 1
    weight_filler {
      type: "xavier"
      std: 0.03
    }
    bias_filler {
      type: "constant"
      value: 0.2
    }
  }
}
layer {
  name: "inception_4e/relu_1x1"
  type: "ReLU"
  bottom: "inception_4e/1x1"
  top: "inception_4e/1x1"
}
layer {
  name: "inception_4e/3x3_reduce"
  type: "Convolution"
  bottom: "inception_4d/output"
  top: "inception_4e/3x3_reduce"
  param {
    lr_mult: 1
    decay_mult: 1
  }
  param {
    lr_mult: 2
    decay_mult: 0
  }
  convolution_param {
    num_output: 160
    kernel_size: 1
    weight_filler {
      type: "xavier"
      std: 0.09
    }
    bias_filler {
      type: "constant"
      value: 0.2
    }
  }
}
layer {
  name: "inception_4e/relu_3x3_reduce"
  type: "ReLU"
  bottom: "inception_4e/3x3_reduce"
  top: "inception_4e/3x3_reduce"
}
layer {
  name: "inception_4e/3x3"
  type: "Convolution"
  bottom: "inception_4e/3x3_reduce"
  top: "inception_4e/3x3"
  param {
    lr_mult: 1
    decay_mult: 1
  }
  param {
    lr_mult: 2
    decay_mult: 0
  }
  convolution_param {
    num_output: 320
    pad: 1
    kernel_size: 3
    weight_filler {
      type: "xavier"
      std: 0.03
    }
    bias_filler {
      type: "constant"
      value: 0.2
    }
  }
}
layer {
  name: "inception_4e/relu_3x3"
  type: "ReLU"
  bottom: "inception_4e/3x3"
  top: "inception_4e/3x3"
}
layer {
  name: "inception_4e/5x5_reduce"
  type: "Convolution"
  bottom: "inception_4d/output"
  top: "inception_4e/5x5_reduce"
  param {
    lr_mult: 1
    decay_mult: 1
  }
  param {
    lr_mult: 2
    decay_mult: 0
  }
  convolution_param {
    num_output: 32
    kernel_size: 1
    weight_filler {
      type: "xavier"
      std: 0.2
    }
    bias_filler {
      type: "constant"
      value: 0.2
    }
  }
}
layer {
  name: "inception_4e/relu_5x5_reduce"
  type: "ReLU"
  bottom: "inception_4e/5x5_reduce"
  top: "inception_4e/5x5_reduce"
}
layer {
  name: "inception_4e/5x5"
  type: "Convolution"
  bottom: "inception_4e/5x5_reduce"
  top: "inception_4e/
I0403 16:02:21.927443 20664 layer_factory.hpp:77] Creating layer data
I0403 16:02:21.928072 20664 net.cpp:91] Creating Layer data
I0403 16:02:21.928107 20664 net.cpp:399] data -> data
I0403 16:02:21.928159 20664 net.cpp:399] data -> label
I0403 16:02:21.928197 20664 data_transformer.cpp:25] Loading mean file from: /home/mohanty/data/final_dataset/lmdb/grayscale-20-80/mean.binaryproto
I0403 16:02:21.929412 20667 db_lmdb.cpp:38] Opened lmdb /home/mohanty/data/final_dataset/lmdb/grayscale-20-80/test_db
I0403 16:02:21.941354 20664 data_layer.cpp:41] output data size: 24,3,224,224
I0403 16:02:21.968199 20664 net.cpp:141] Setting up data
I0403 16:02:21.968281 20664 net.cpp:148] Top shape: 24 3 224 224 (3612672)
I0403 16:02:21.968305 20664 net.cpp:148] Top shape: 24 (24)
I0403 16:02:21.968322 20664 net.cpp:156] Memory required for data: 14450784
I0403 16:02:21.968351 20664 layer_factory.hpp:77] Creating layer label_data_1_split
I0403 16:02:21.968379 20664 net.cpp:91] Creating Layer label_data_1_split
I0403 16:02:21.968397 20664 net.cpp:425] label_data_1_split <- label
I0403 16:02:21.968430 20664 net.cpp:399] label_data_1_split -> label_data_1_split_0
I0403 16:02:21.968457 20664 net.cpp:399] label_data_1_split -> label_data_1_split_1
I0403 16:02:21.968479 20664 net.cpp:399] label_data_1_split -> label_data_1_split_2
I0403 16:02:21.968502 20664 net.cpp:399] label_data_1_split -> label_data_1_split_3
I0403 16:02:21.968520 20664 net.cpp:399] label_data_1_split -> label_data_1_split_4
I0403 16:02:21.968541 20664 net.cpp:399] label_data_1_split -> label_data_1_split_5
I0403 16:02:21.968561 20664 net.cpp:399] label_data_1_split -> label_data_1_split_6
I0403 16:02:21.968582 20664 net.cpp:399] label_data_1_split -> label_data_1_split_7
I0403 16:02:21.968601 20664 net.cpp:399] label_data_1_split -> label_data_1_split_8
I0403 16:02:21.968622 20664 net.cpp:399] label_data_1_split -> label_data_1_split_9
I0403 16:02:21.968740 20664 net.cpp:141] Setting up label_data_1_split
I0403 16:02:21.968765 20664 net.cpp:148] Top shape: 24 (24)
I0403 16:02:21.968782 20664 net.cpp:148] Top shape: 24 (24)
I0403 16:02:21.968798 20664 net.cpp:148] Top shape: 24 (24)
I0403 16:02:21.968814 20664 net.cpp:148] Top shape: 24 (24)
I0403 16:02:21.968830 20664 net.cpp:148] Top shape: 24 (24)
I0403 16:02:21.968847 20664 net.cpp:148] Top shape: 24 (24)
I0403 16:02:21.968863 20664 net.cpp:148] Top shape: 24 (24)
I0403 16:02:21.968878 20664 net.cpp:148] Top shape: 24 (24)
I0403 16:02:21.968894 20664 net.cpp:148] Top shape: 24 (24)
I0403 16:02:21.968911 20664 net.cpp:148] Top shape: 24 (24)
I0403 16:02:21.968958 20664 net.cpp:156] Memory required for data: 14451744
I0403 16:02:21.968976 20664 layer_factory.hpp:77] Creating layer conv1/7x7_s2
I0403 16:02:21.969007 20664 net.cpp:91] Creating Layer conv1/7x7_s2
I0403 16:02:21.969034 20664 net.cpp:425] conv1/7x7_s2 <- data
I0403 16:02:21.969055 20664 net.cpp:399] conv1/7x7_s2 -> conv1/7x7_s2
I0403 16:02:22.106950 20664 net.cpp:141] Setting up conv1/7x7_s2
I0403 16:02:22.106994 20664 net.cpp:148] Top shape: 24 64 112 112 (19267584)
I0403 16:02:22.107012 20664 net.cpp:156] Memory required for data: 91522080
I0403 16:02:22.107050 20664 layer_factory.hpp:77] Creating layer conv1/relu_7x7
I0403 16:02:22.107081 20664 net.cpp:91] Creating Layer conv1/relu_7x7
I0403 16:02:22.107101 20664 net.cpp:425] conv1/relu_7x7 <- conv1/7x7_s2
I0403 16:02:22.107121 20664 net.cpp:386] conv1/relu_7x7 -> conv1/7x7_s2 (in-place)
I0403 16:02:22.107383 20664 net.cpp:141] Setting up conv1/relu_7x7
I0403 16:02:22.107412 20664 net.cpp:148] Top shape: 24 64 112 112 (19267584)
I0403 16:02:22.107427 20664 net.cpp:156] Memory required for data: 168592416
I0403 16:02:22.107445 20664 layer_factory.hpp:77] Creating layer pool1/3x3_s2
I0403 16:02:22.107472 20664 net.cpp:91] Creating Layer pool1/3x3_s2
I0403 16:02:22.107496 20664 net.cpp:425] pool1/3x3_s2 <- conv1/7x7_s2
I0403 16:02:22.107523 20664 net.cpp:399] pool1/3x3_s2 -> pool1/3x3_s2
I0403 16:02:22.107607 20664 net.cpp:141] Setting up pool1/3x3_s2
I0403 16:02:22.107632 20664 net.cpp:148] Top shape: 24 64 56 56 (4816896)
I0403 16:02:22.107647 20664 net.cpp:156] Memory required for data: 187860000
I0403 16:02:22.107661 20664 layer_factory.hpp:77] Creating layer pool1/norm1
I0403 16:02:22.107686 20664 net.cpp:91] Creating Layer pool1/norm1
I0403 16:02:22.107704 20664 net.cpp:425] pool1/norm1 <- pool1/3x3_s2
I0403 16:02:22.107722 20664 net.cpp:399] pool1/norm1 -> pool1/norm1
I0403 16:02:22.108011 20664 net.cpp:141] Setting up pool1/norm1
I0403 16:02:22.108052 20664 net.cpp:148] Top shape: 24 64 56 56 (4816896)
I0403 16:02:22.108067 20664 net.cpp:156] Memory required for data: 207127584
I0403 16:02:22.108083 20664 layer_factory.hpp:77] Creating layer conv2/3x3_reduce
I0403 16:02:22.108108 20664 net.cpp:91] Creating Layer conv2/3x3_reduce
I0403 16:02:22.108124 20664 net.cpp:425] conv2/3x3_reduce <- pool1/norm1
I0403 16:02:22.108144 20664 net.cpp:399] conv2/3x3_reduce -> conv2/3x3_reduce
I0403 16:02:22.109514 20664 net.cpp:141] Setting up conv2/3x3_reduce
I0403 16:02:22.109544 20664 net.cpp:148] Top shape: 24 64 56 56 (4816896)
I0403 16:02:22.109560 20664 net.cpp:156] Memory required for data: 226395168
I0403 16:02:22.109581 20664 layer_factory.hpp:77] Creating layer conv2/relu_3x3_reduce
I0403 16:02:22.109601 20664 net.cpp:91] Creating Layer conv2/relu_3x3_reduce
I0403 16:02:22.109616 20664 net.cpp:425] conv2/relu_3x3_reduce <- conv2/3x3_reduce
I0403 16:02:22.109634 20664 net.cpp:386] conv2/relu_3x3_reduce -> conv2/3x3_reduce (in-place)
I0403 16:02:22.109889 20664 net.cpp:141] Setting up conv2/relu_3x3_reduce
I0403 16:02:22.109915 20664 net.cpp:148] Top shape: 24 64 56 56 (4816896)
I0403 16:02:22.109931 20664 net.cpp:156] Memory required for data: 245662752
I0403 16:02:22.109946 20664 layer_factory.hpp:77] Creating layer conv2/3x3
I0403 16:02:22.109969 20664 net.cpp:91] Creating Layer conv2/3x3
I0403 16:02:22.109987 20664 net.cpp:425] conv2/3x3 <- conv2/3x3_reduce
I0403 16:02:22.110007 20664 net.cpp:399] conv2/3x3 -> conv2/3x3
I0403 16:02:22.112344 20664 net.cpp:141] Setting up conv2/3x3
I0403 16:02:22.112373 20664 net.cpp:148] Top shape: 24 192 56 56 (14450688)
I0403 16:02:22.112390 20664 net.cpp:156] Memory required for data: 303465504
I0403 16:02:22.112411 20664 layer_factory.hpp:77] Creating layer conv2/relu_3x3
I0403 16:02:22.112432 20664 net.cpp:91] Creating Layer conv2/relu_3x3
I0403 16:02:22.112449 20664 net.cpp:425] conv2/relu_3x3 <- conv2/3x3
I0403 16:02:22.112468 20664 net.cpp:386] conv2/relu_3x3 -> conv2/3x3 (in-place)
I0403 16:02:22.112648 20664 net.cpp:141] Setting up conv2/relu_3x3
I0403 16:02:22.112675 20664 net.cpp:148] Top shape: 24 192 56 56 (14450688)
I0403 16:02:22.112723 20664 net.cpp:156] Memory required for data: 361268256
I0403 16:02:22.112740 20664 layer_factory.hpp:77] Creating layer conv2/norm2
I0403 16:02:22.112759 20664 net.cpp:91] Creating Layer conv2/norm2
I0403 16:02:22.112776 20664 net.cpp:425] conv2/norm2 <- conv2/3x3
I0403 16:02:22.112797 20664 net.cpp:399] conv2/norm2 -> conv2/norm2
I0403 16:02:22.113114 20664 net.cpp:141] Setting up conv2/norm2
I0403 16:02:22.113142 20664 net.cpp:148] Top shape: 24 192 56 56 (14450688)
I0403 16:02:22.113157 20664 net.cpp:156] Memory required for data: 419071008
I0403 16:02:22.113175 20664 layer_factory.hpp:77] Creating layer pool2/3x3_s2
I0403 16:02:22.113193 20664 net.cpp:91] Creating Layer pool2/3x3_s2
I0403 16:02:22.113209 20664 net.cpp:425] pool2/3x3_s2 <- conv2/norm2
I0403 16:02:22.113230 20664 net.cpp:399] pool2/3x3_s2 -> pool2/3x3_s2
I0403 16:02:22.113286 20664 net.cpp:141] Setting up pool2/3x3_s2
I0403 16:02:22.113311 20664 net.cpp:148] Top shape: 24 192 28 28 (3612672)
I0403 16:02:22.113324 20664 net.cpp:156] Memory required for data: 433521696
I0403 16:02:22.113339 20664 layer_factory.hpp:77] Creating layer pool2/3x3_s2_pool2/3x3_s2_0_split
I0403 16:02:22.113360 20664 net.cpp:91] Creating Layer pool2/3x3_s2_pool2/3x3_s2_0_split
I0403 16:02:22.113376 20664 net.cpp:425] pool2/3x3_s2_pool2/3x3_s2_0_split <- pool2/3x3_s2
I0403 16:02:22.113394 20664 net.cpp:399] pool2/3x3_s2_pool2/3x3_s2_0_split -> pool2/3x3_s2_pool2/3x3_s2_0_split_0
I0403 16:02:22.113416 20664 net.cpp:399] pool2/3x3_s2_pool2/3x3_s2_0_split -> pool2/3x3_s2_pool2/3x3_s2_0_split_1
I0403 16:02:22.113437 20664 net.cpp:399] pool2/3x3_s2_pool2/3x3_s2_0_split -> pool2/3x3_s2_pool2/3x3_s2_0_split_2
I0403 16:02:22.113456 20664 net.cpp:399] pool2/3x3_s2_pool2/3x3_s2_0_split -> pool2/3x3_s2_pool2/3x3_s2_0_split_3
I0403 16:02:22.113528 20664 net.cpp:141] Setting up pool2/3x3_s2_pool2/3x3_s2_0_split
I0403 16:02:22.113550 20664 net.cpp:148] Top shape: 24 192 28 28 (3612672)
I0403 16:02:22.113567 20664 net.cpp:148] Top shape: 24 192 28 28 (3612672)
I0403 16:02:22.113582 20664 net.cpp:148] Top shape: 24 192 28 28 (3612672)
I0403 16:02:22.113597 20664 net.cpp:148] Top shape: 24 192 28 28 (3612672)
I0403 16:02:22.113611 20664 net.cpp:156] Memory required for data: 491324448
I0403 16:02:22.113626 20664 layer_factory.hpp:77] Creating layer inception_3a/1x1
I0403 16:02:22.113648 20664 net.cpp:91] Creating Layer inception_3a/1x1
I0403 16:02:22.113665 20664 net.cpp:425] inception_3a/1x1 <- pool2/3x3_s2_pool2/3x3_s2_0_split_0
I0403 16:02:22.113688 20664 net.cpp:399] inception_3a/1x1 -> inception_3a/1x1
I0403 16:02:22.116091 20664 net.cpp:141] Setting up inception_3a/1x1
I0403 16:02:22.116120 20664 net.cpp:148] Top shape: 24 64 28 28 (1204224)
I0403 16:02:22.116137 20664 net.cpp:156] Memory required for data: 496141344
I0403 16:02:22.116156 20664 layer_factory.hpp:77] Creating layer inception_3a/relu_1x1
I0403 16:02:22.116178 20664 net.cpp:91] Creating Layer inception_3a/relu_1x1
I0403 16:02:22.116194 20664 net.cpp:425] inception_3a/relu_1x1 <- inception_3a/1x1
I0403 16:02:22.116211 20664 net.cpp:386] inception_3a/relu_1x1 -> inception_3a/1x1 (in-place)
I0403 16:02:22.116392 20664 net.cpp:141] Setting up inception_3a/relu_1x1
I0403 16:02:22.116417 20664 net.cpp:148] Top shape: 24 64 28 28 (1204224)
I0403 16:02:22.116432 20664 net.cpp:156] Memory required for data: 500958240
I0403 16:02:22.116447 20664 layer_factory.hpp:77] Creating layer inception_3a/3x3_reduce
I0403 16:02:22.116471 20664 net.cpp:91] Creating Layer inception_3a/3x3_reduce
I0403 16:02:22.116487 20664 net.cpp:425] inception_3a/3x3_reduce <- pool2/3x3_s2_pool2/3x3_s2_0_split_1
I0403 16:02:22.116508 20664 net.cpp:399] inception_3a/3x3_reduce -> inception_3a/3x3_reduce
I0403 16:02:22.119485 20664 net.cpp:141] Setting up inception_3a/3x3_reduce
I0403 16:02:22.119514 20664 net.cpp:148] Top shape: 24 96 28 28 (1806336)
I0403 16:02:22.119530 20664 net.cpp:156] Memory required for data: 508183584
I0403 16:02:22.119551 20664 layer_factory.hpp:77] Creating layer inception_3a/relu_3x3_reduce
I0403 16:02:22.119588 20664 net.cpp:91] Creating Layer inception_3a/relu_3x3_reduce
I0403 16:02:22.119606 20664 net.cpp:425] inception_3a/relu_3x3_reduce <- inception_3a/3x3_reduce
I0403 16:02:22.119623 20664 net.cpp:386] inception_3a/relu_3x3_reduce -> inception_3a/3x3_reduce (in-place)
I0403 16:02:22.119802 20664 net.cpp:141] Setting up inception_3a/relu_3x3_reduce
I0403 16:02:22.119827 20664 net.cpp:148] Top shape: 24 96 28 28 (1806336)
I0403 16:02:22.119842 20664 net.cpp:156] Memory required for data: 515408928
I0403 16:02:22.119855 20664 layer_factory.hpp:77] Creating layer inception_3a/3x3
I0403 16:02:22.119877 20664 net.cpp:91] Creating Layer inception_3a/3x3
I0403 16:02:22.119896 20664 net.cpp:425] inception_3a/3x3 <- inception_3a/3x3_reduce
I0403 16:02:22.119920 20664 net.cpp:399] inception_3a/3x3 -> inception_3a/3x3
I0403 16:02:22.121544 20664 net.cpp:141] Setting up inception_3a/3x3
I0403 16:02:22.121572 20664 net.cpp:148] Top shape: 24 128 28 28 (2408448)
I0403 16:02:22.121589 20664 net.cpp:156] Memory required for data: 525042720
I0403 16:02:22.121608 20664 layer_factory.hpp:77] Creating layer inception_3a/relu_3x3
I0403 16:02:22.121628 20664 net.cpp:91] Creating Layer inception_3a/relu_3x3
I0403 16:02:22.121644 20664 net.cpp:425] inception_3a/relu_3x3 <- inception_3a/3x3
I0403 16:02:22.121661 20664 net.cpp:386] inception_3a/relu_3x3 -> inception_3a/3x3 (in-place)
I0403 16:02:22.121930 20664 net.cpp:141] Setting up inception_3a/relu_3x3
I0403 16:02:22.121955 20664 net.cpp:148] Top shape: 24 128 28 28 (2408448)
I0403 16:02:22.121970 20664 net.cpp:156] Memory required for data: 534676512
I0403 16:02:22.121986 20664 layer_factory.hpp:77] Creating layer inception_3a/5x5_reduce
I0403 16:02:22.122009 20664 net.cpp:91] Creating Layer inception_3a/5x5_reduce
I0403 16:02:22.122030 20664 net.cpp:425] inception_3a/5x5_reduce <- pool2/3x3_s2_pool2/3x3_s2_0_split_2
I0403 16:02:22.122051 20664 net.cpp:399] inception_3a/5x5_reduce -> inception_3a/5x5_reduce
I0403 16:02:22.122995 20664 net.cpp:141] Setting up inception_3a/5x5_reduce
I0403 16:02:22.123028 20664 net.cpp:148] Top shape: 24 16 28 28 (301056)
I0403 16:02:22.123044 20664 net.cpp:156] Memory required for data: 535880736
I0403 16:02:22.123062 20664 layer_factory.hpp:77] Creating layer inception_3a/relu_5x5_reduce
I0403 16:02:22.123082 20664 net.cpp:91] Creating Layer inception_3a/relu_5x5_reduce
I0403 16:02:22.123100 20664 net.cpp:425] inception_3a/relu_5x5_reduce <- inception_3a/5x5_reduce
I0403 16:02:22.123118 20664 net.cpp:386] inception_3a/relu_5x5_reduce -> inception_3a/5x5_reduce (in-place)
I0403 16:02:22.123414 20664 net.cpp:141] Setting up inception_3a/relu_5x5_reduce
I0403 16:02:22.123442 20664 net.cpp:148] Top shape: 24 16 28 28 (301056)
I0403 16:02:22.123459 20664 net.cpp:156] Memory required for data: 537084960
I0403 16:02:22.123473 20664 layer_factory.hpp:77] Creating layer inception_3a/5x5
I0403 16:02:22.123495 20664 net.cpp:91] Creating Layer inception_3a/5x5
I0403 16:02:22.123512 20664 net.cpp:425] inception_3a/5x5 <- inception_3a/5x5_reduce
I0403 16:02:22.123530 20664 net.cpp:399] inception_3a/5x5 -> inception_3a/5x5
I0403 16:02:22.124529 20664 net.cpp:141] Setting up inception_3a/5x5
I0403 16:02:22.124557 20664 net.cpp:148] Top shape: 24 32 28 28 (602112)
I0403 16:02:22.124573 20664 net.cpp:156] Memory required for data: 539493408
I0403 16:02:22.124591 20664 layer_factory.hpp:77] Creating layer inception_3a/relu_5x5
I0403 16:02:22.124611 20664 net.cpp:91] Creating Layer inception_3a/relu_5x5
I0403 16:02:22.124629 20664 net.cpp:425] inception_3a/relu_5x5 <- inception_3a/5x5
I0403 16:02:22.124646 20664 net.cpp:386] inception_3a/relu_5x5 -> inception_3a/5x5 (in-place)
I0403 16:02:22.124814 20664 net.cpp:141] Setting up inception_3a/relu_5x5
I0403 16:02:22.124838 20664 net.cpp:148] Top shape: 24 32 28 28 (602112)
I0403 16:02:22.124852 20664 net.cpp:156] Memory required for data: 541901856
I0403 16:02:22.124867 20664 layer_factory.hpp:77] Creating layer inception_3a/pool
I0403 16:02:22.124886 20664 net.cpp:91] Creating Layer inception_3a/pool
I0403 16:02:22.124915 20664 net.cpp:425] inception_3a/pool <- pool2/3x3_s2_pool2/3x3_s2_0_split_3
I0403 16:02:22.124934 20664 net.cpp:399] inception_3a/pool -> inception_3a/pool
I0403 16:02:22.124992 20664 net.cpp:141] Setting up inception_3a/pool
I0403 16:02:22.125015 20664 net.cpp:148] Top shape: 24 192 28 28 (3612672)
I0403 16:02:22.125036 20664 net.cpp:156] Memory required for data: 556352544
I0403 16:02:22.125051 20664 layer_factory.hpp:77] Creating layer inception_3a/pool_proj
I0403 16:02:22.125072 20664 net.cpp:91] Creating Layer inception_3a/pool_proj
I0403 16:02:22.125090 20664 net.cpp:425] inception_3a/pool_proj <- inception_3a/pool
I0403 16:02:22.125113 20664 net.cpp:399] inception_3a/pool_proj -> inception_3a/pool_proj
I0403 16:02:22.126082 20664 net.cpp:141] Setting up inception_3a/pool_proj
I0403 16:02:22.126113 20664 net.cpp:148] Top shape: 24 32 28 28 (602112)
I0403 16:02:22.126130 20664 net.cpp:156] Memory required for data: 558760992
I0403 16:02:22.126152 20664 layer_factory.hpp:77] Creating layer inception_3a/relu_pool_proj
I0403 16:02:22.126173 20664 net.cpp:91] Creating Layer inception_3a/relu_pool_proj
I0403 16:02:22.126193 20664 net.cpp:425] inception_3a/relu_pool_proj <- inception_3a/pool_proj
I0403 16:02:22.126210 20664 net.cpp:386] inception_3a/relu_pool_proj -> inception_3a/pool_proj (in-place)
I0403 16:02:22.126492 20664 net.cpp:141] Setting up inception_3a/relu_pool_proj
I0403 16:02:22.126518 20664 net.cpp:148] Top shape: 24 32 28 28 (602112)
I0403 16:02:22.126533 20664 net.cpp:156] Memory required for data: 561169440
I0403 16:02:22.126546 20664 layer_factory.hpp:77] Creating layer inception_3a/output
I0403 16:02:22.126566 20664 net.cpp:91] Creating Layer inception_3a/output
I0403 16:02:22.126582 20664 net.cpp:425] inception_3a/output <- inception_3a/1x1
I0403 16:02:22.126598 20664 net.cpp:425] inception_3a/output <- inception_3a/3x3
I0403 16:02:22.126615 20664 net.cpp:425] inception_3a/output <- inception_3a/5x5
I0403 16:02:22.126629 20664 net.cpp:425] inception_3a/output <- inception_3a/pool_proj
I0403 16:02:22.126646 20664 net.cpp:399] inception_3a/output -> inception_3a/output
I0403 16:02:22.126690 20664 net.cpp:141] Setting up inception_3a/output
I0403 16:02:22.126715 20664 net.cpp:148] Top shape: 24 256 28 28 (4816896)
I0403 16:02:22.126730 20664 net.cpp:156] Memory required for data: 580437024
I0403 16:02:22.126745 20664 layer_factory.hpp:77] Creating layer inception_3a/output_inception_3a/output_0_split
I0403 16:02:22.126761 20664 net.cpp:91] Creating Layer inception_3a/output_inception_3a/output_0_split
I0403 16:02:22.126776 20664 net.cpp:425] inception_3a/output_inception_3a/output_0_split <- inception_3a/output
I0403 16:02:22.126797 20664 net.cpp:399] inception_3a/output_inception_3a/output_0_split -> inception_3a/output_inception_3a/output_0_split_0
I0403 16:02:22.126817 20664 net.cpp:399] inception_3a/output_inception_3a/output_0_split -> inception_3a/output_inception_3a/output_0_split_1
I0403 16:02:22.126839 20664 net.cpp:399] inception_3a/output_inception_3a/output_0_split -> inception_3a/output_inception_3a/output_0_split_2
I0403 16:02:22.126859 20664 net.cpp:399] inception_3a/output_inception_3a/output_0_split -> inception_3a/output_inception_3a/output_0_split_3
I0403 16:02:22.126935 20664 net.cpp:141] Setting up inception_3a/output_inception_3a/output_0_split
I0403 16:02:22.126957 20664 net.cpp:148] Top shape: 24 256 28 28 (4816896)
I0403 16:02:22.126973 20664 net.cpp:148] Top shape: 24 256 28 28 (4816896)
I0403 16:02:22.126988 20664 net.cpp:148] Top shape: 24 256 28 28 (4816896)
I0403 16:02:22.127002 20664 net.cpp:148] Top shape: 24 256 28 28 (4816896)
I0403 16:02:22.127019 20664 net.cpp:156] Memory required for data: 657507360
I0403 16:02:22.127035 20664 layer_factory.hpp:77] Creating layer inception_3b/1x1
I0403 16:02:22.127058 20664 net.cpp:91] Creating Layer inception_3b/1x1
I0403 16:02:22.127074 20664 net.cpp:425] inception_3b/1x1 <- inception_3a/output_inception_3a/output_0_split_0
I0403 16:02:22.127094 20664 net.cpp:399] inception_3b/1x1 -> inception_3b/1x1
I0403 16:02:22.128255 20664 net.cpp:141] Setting up inception_3b/1x1
I0403 16:02:22.128294 20664 net.cpp:148] Top shape: 24 128 28 28 (2408448)
I0403 16:02:22.128310 20664 net.cpp:156] Memory required for data: 667141152
I0403 16:02:22.128329 20664 layer_factory.hpp:77] Creating layer inception_3b/relu_1x1
I0403 16:02:22.128346 20664 net.cpp:91] Creating Layer inception_3b/relu_1x1
I0403 16:02:22.128362 20664 net.cpp:425] inception_3b/relu_1x1 <- inception_3b/1x1
I0403 16:02:22.128381 20664 net.cpp:386] inception_3b/relu_1x1 -> inception_3b/1x1 (in-place)
I0403 16:02:22.128554 20664 net.cpp:141] Setting up inception_3b/relu_1x1
I0403 16:02:22.128578 20664 net.cpp:148] Top shape: 24 128 28 28 (2408448)
I0403 16:02:22.128592 20664 net.cpp:156] Memory required for data: 676774944
I0403 16:02:22.128607 20664 layer_factory.hpp:77] Creating layer inception_3b/3x3_reduce
I0403 16:02:22.128629 20664 net.cpp:91] Creating Layer inception_3b/3x3_reduce
I0403 16:02:22.128646 20664 net.cpp:425] inception_3b/3x3_reduce <- inception_3a/output_inception_3a/output_0_split_1
I0403 16:02:22.128667 20664 net.cpp:399] inception_3b/3x3_reduce -> inception_3b/3x3_reduce
I0403 16:02:22.129801 20664 net.cpp:141] Setting up inception_3b/3x3_reduce
I0403 16:02:22.129829 20664 net.cpp:148] Top shape: 24 128 28 28 (2408448)
I0403 16:02:22.129844 20664 net.cpp:156] Memory required for data: 686408736
I0403 16:02:22.129863 20664 layer_factory.hpp:77] Creating layer inception_3b/relu_3x3_reduce
I0403 16:02:22.129880 20664 net.cpp:91] Creating Layer inception_3b/relu_3x3_reduce
I0403 16:02:22.129895 20664 net.cpp:425] inception_3b/relu_3x3_reduce <- inception_3b/3x3_reduce
I0403 16:02:22.129915 20664 net.cpp:386] inception_3b/relu_3x3_reduce -> inception_3b/3x3_reduce (in-place)
I0403 16:02:22.130098 20664 net.cpp:141] Setting up inception_3b/relu_3x3_reduce
I0403 16:02:22.130123 20664 net.cpp:148] Top shape: 24 128 28 28 (2408448)
I0403 16:02:22.130137 20664 net.cpp:156] Memory required for data: 696042528
I0403 16:02:22.130151 20664 layer_factory.hpp:77] Creating layer inception_3b/3x3
I0403 16:02:22.130177 20664 net.cpp:91] Creating Layer inception_3b/3x3
I0403 16:02:22.130195 20664 net.cpp:425] inception_3b/3x3 <- inception_3b/3x3_reduce
I0403 16:02:22.130214 20664 net.cpp:399] inception_3b/3x3 -> inception_3b/3x3
I0403 16:02:22.133121 20664 net.cpp:141] Setting up inception_3b/3x3
I0403 16:02:22.133149 20664 net.cpp:148] Top shape: 24 192 28 28 (3612672)
I0403 16:02:22.133165 20664 net.cpp:156] Memory required for data: 710493216
I0403 16:02:22.133183 20664 layer_factory.hpp:77] Creating layer inception_3b/relu_3x3
I0403 16:02:22.133204 20664 net.cpp:91] Creating Layer inception_3b/relu_3x3
I0403 16:02:22.133221 20664 net.cpp:425] inception_3b/relu_3x3 <- inception_3b/3x3
I0403 16:02:22.133239 20664 net.cpp:386] inception_3b/relu_3x3 -> inception_3b/3x3 (in-place)
I0403 16:02:22.133517 20664 net.cpp:141] Setting up inception_3b/relu_3x3
I0403 16:02:22.133541 20664 net.cpp:148] Top shape: 24 192 28 28 (3612672)
I0403 16:02:22.133555 20664 net.cpp:156] Memory required for data: 724943904
I0403 16:02:22.133569 20664 layer_factory.hpp:77] Creating layer inception_3b/5x5_reduce
I0403 16:02:22.133591 20664 net.cpp:91] Creating Layer inception_3b/5x5_reduce
I0403 16:02:22.133608 20664 net.cpp:425] inception_3b/5x5_reduce <- inception_3a/output_inception_3a/output_0_split_2
I0403 16:02:22.133630 20664 net.cpp:399] inception_3b/5x5_reduce -> inception_3b/5x5_reduce
I0403 16:02:22.134598 20664 net.cpp:141] Setting up inception_3b/5x5_reduce
I0403 16:02:22.134624 20664 net.cpp:148] Top shape: 24 32 28 28 (602112)
I0403 16:02:22.134639 20664 net.cpp:156] Memory required for data: 727352352
I0403 16:02:22.134655 20664 layer_factory.hpp:77] Creating layer inception_3b/relu_5x5_reduce
I0403 16:02:22.134675 20664 net.cpp:91] Creating Layer inception_3b/relu_5x5_reduce
I0403 16:02:22.134690 20664 net.cpp:425] inception_3b/relu_5x5_reduce <- inception_3b/5x5_reduce
I0403 16:02:22.134707 20664 net.cpp:386] inception_3b/relu_5x5_reduce -> inception_3b/5x5_reduce (in-place)
I0403 16:02:22.134893 20664 net.cpp:141] Setting up inception_3b/relu_5x5_reduce
I0403 16:02:22.134917 20664 net.cpp:148] Top shape: 24 32 28 28 (602112)
I0403 16:02:22.134932 20664 net.cpp:156] Memory required for data: 729760800
I0403 16:02:22.134945 20664 layer_factory.hpp:77] Creating layer inception_3b/5x5
I0403 16:02:22.134969 20664 net.cpp:91] Creating Layer inception_3b/5x5
I0403 16:02:22.134986 20664 net.cpp:425] inception_3b/5x5 <- inception_3b/5x5_reduce
I0403 16:02:22.135004 20664 net.cpp:399] inception_3b/5x5 -> inception_3b/5x5
I0403 16:02:22.136888 20664 net.cpp:141] Setting up inception_3b/5x5
I0403 16:02:22.136916 20664 net.cpp:148] Top shape: 24 96 28 28 (1806336)
I0403 16:02:22.136932 20664 net.cpp:156] Memory required for data: 736986144
I0403 16:02:22.136950 20664 layer_factory.hpp:77] Creating layer inception_3b/relu_5x5
I0403 16:02:22.136968 20664 net.cpp:91] Creating Layer inception_3b/relu_5x5
I0403 16:02:22.136983 20664 net.cpp:425] inception_3b/relu_5x5 <- inception_3b/5x5
I0403 16:02:22.137002 20664 net.cpp:386] inception_3b/relu_5x5 -> inception_3b/5x5 (in-place)
I0403 16:02:22.137192 20664 net.cpp:141] Setting up inception_3b/relu_5x5
I0403 16:02:22.137217 20664 net.cpp:148] Top shape: 24 96 28 28 (1806336)
I0403 16:02:22.137230 20664 net.cpp:156] Memory required for data: 744211488
I0403 16:02:22.137244 20664 layer_factory.hpp:77] Creating layer inception_3b/pool
I0403 16:02:22.137261 20664 net.cpp:91] Creating Layer inception_3b/pool
I0403 16:02:22.137277 20664 net.cpp:425] inception_3b/pool <- inception_3a/output_inception_3a/output_0_split_3
I0403 16:02:22.137295 20664 net.cpp:399] inception_3b/pool -> inception_3b/pool
I0403 16:02:22.137351 20664 net.cpp:141] Setting up inception_3b/pool
I0403 16:02:22.137373 20664 net.cpp:148] Top shape: 24 256 28 28 (4816896)
I0403 16:02:22.137387 20664 net.cpp:156] Memory required for data: 763479072
I0403 16:02:22.137401 20664 layer_factory.hpp:77] Creating layer inception_3b/pool_proj
I0403 16:02:22.137423 20664 net.cpp:91] Creating Layer inception_3b/pool_proj
I0403 16:02:22.137439 20664 net.cpp:425] inception_3b/pool_proj <- inception_3b/pool
I0403 16:02:22.137459 20664 net.cpp:399] inception_3b/pool_proj -> inception_3b/pool_proj
I0403 16:02:22.138490 20664 net.cpp:141] Setting up inception_3b/pool_proj
I0403 16:02:22.138516 20664 net.cpp:148] Top shape: 24 64 28 28 (1204224)
I0403 16:02:22.138531 20664 net.cpp:156] Memory required for data: 768295968
I0403 16:02:22.138548 20664 layer_factory.hpp:77] Creating layer inception_3b/relu_pool_proj
I0403 16:02:22.138567 20664 net.cpp:91] Creating Layer inception_3b/relu_pool_proj
I0403 16:02:22.138583 20664 net.cpp:425] inception_3b/relu_pool_proj <- inception_3b/pool_proj
I0403 16:02:22.138600 20664 net.cpp:386] inception_3b/relu_pool_proj -> inception_3b/pool_proj (in-place)
I0403 16:02:22.138984 20664 net.cpp:141] Setting up inception_3b/relu_pool_proj
I0403 16:02:22.139009 20664 net.cpp:148] Top shape: 24 64 28 28 (1204224)
I0403 16:02:22.139029 20664 net.cpp:156] Memory required for data: 773112864
I0403 16:02:22.139044 20664 layer_factory.hpp:77] Creating layer inception_3b/output
I0403 16:02:22.139062 20664 net.cpp:91] Creating Layer inception_3b/output
I0403 16:02:22.139077 20664 net.cpp:425] inception_3b/output <- inception_3b/1x1
I0403 16:02:22.139093 20664 net.cpp:425] inception_3b/output <- inception_3b/3x3
I0403 16:02:22.139109 20664 net.cpp:425] inception_3b/output <- inception_3b/5x5
I0403 16:02:22.139124 20664 net.cpp:425] inception_3b/output <- inception_3b/pool_proj
I0403 16:02:22.139140 20664 net.cpp:399] inception_3b/output -> inception_3b/output
I0403 16:02:22.139183 20664 net.cpp:141] Setting up inception_3b/output
I0403 16:02:22.139205 20664 net.cpp:148] Top shape: 24 480 28 28 (9031680)
I0403 16:02:22.139219 20664 net.cpp:156] Memory required for data: 809239584
I0403 16:02:22.139233 20664 layer_factory.hpp:77] Creating layer pool3/3x3_s2
I0403 16:02:22.139250 20664 net.cpp:91] Creating Layer pool3/3x3_s2
I0403 16:02:22.139264 20664 net.cpp:425] pool3/3x3_s2 <- inception_3b/output
I0403 16:02:22.139325 20664 net.cpp:399] pool3/3x3_s2 -> pool3/3x3_s2
I0403 16:02:22.139384 20664 net.cpp:141] Setting up pool3/3x3_s2
I0403 16:02:22.139406 20664 net.cpp:148] Top shape: 24 480 14 14 (2257920)
I0403 16:02:22.139420 20664 net.cpp:156] Memory required for data: 818271264
I0403 16:02:22.139435 20664 layer_factory.hpp:77] Creating layer pool3/3x3_s2_pool3/3x3_s2_0_split
I0403 16:02:22.139451 20664 net.cpp:91] Creating Layer pool3/3x3_s2_pool3/3x3_s2_0_split
I0403 16:02:22.139467 20664 net.cpp:425] pool3/3x3_s2_pool3/3x3_s2_0_split <- pool3/3x3_s2
I0403 16:02:22.139484 20664 net.cpp:399] pool3/3x3_s2_pool3/3x3_s2_0_split -> pool3/3x3_s2_pool3/3x3_s2_0_split_0
I0403 16:02:22.139504 20664 net.cpp:399] pool3/3x3_s2_pool3/3x3_s2_0_split -> pool3/3x3_s2_pool3/3x3_s2_0_split_1
I0403 16:02:22.139523 20664 net.cpp:399] pool3/3x3_s2_pool3/3x3_s2_0_split -> pool3/3x3_s2_pool3/3x3_s2_0_split_2
I0403 16:02:22.139541 20664 net.cpp:399] pool3/3x3_s2_pool3/3x3_s2_0_split -> pool3/3x3_s2_pool3/3x3_s2_0_split_3
I0403 16:02:22.139628 20664 net.cpp:141] Setting up pool3/3x3_s2_pool3/3x3_s2_0_split
I0403 16:02:22.139649 20664 net.cpp:148] Top shape: 24 480 14 14 (2257920)
I0403 16:02:22.139664 20664 net.cpp:148] Top shape: 24 480 14 14 (2257920)
I0403 16:02:22.139678 20664 net.cpp:148] Top shape: 24 480 14 14 (2257920)
I0403 16:02:22.139693 20664 net.cpp:148] Top shape: 24 480 14 14 (2257920)
I0403 16:02:22.139719 20664 net.cpp:156] Memory required for data: 854397984
I0403 16:02:22.139732 20664 layer_factory.hpp:77] Creating layer inception_4a/1x1
I0403 16:02:22.139755 20664 net.cpp:91] Creating Layer inception_4a/1x1
I0403 16:02:22.139772 20664 net.cpp:425] inception_4a/1x1 <- pool3/3x3_s2_pool3/3x3_s2_0_split_0
I0403 16:02:22.139791 20664 net.cpp:399] inception_4a/1x1 -> inception_4a/1x1
I0403 16:02:22.141331 20664 net.cpp:141] Setting up inception_4a/1x1
I0403 16:02:22.141360 20664 net.cpp:148] Top shape: 24 192 14 14 (903168)
I0403 16:02:22.141376 20664 net.cpp:156] Memory required for data: 858010656
I0403 16:02:22.141393 20664 layer_factory.hpp:77] Creating layer inception_4a/relu_1x1
I0403 16:02:22.141410 20664 net.cpp:91] Creating Layer inception_4a/relu_1x1
I0403 16:02:22.141425 20664 net.cpp:425] inception_4a/relu_1x1 <- inception_4a/1x1
I0403 16:02:22.141444 20664 net.cpp:386] inception_4a/relu_1x1 -> inception_4a/1x1 (in-place)
I0403 16:02:22.141618 20664 net.cpp:141] Setting up inception_4a/relu_1x1
I0403 16:02:22.141641 20664 net.cpp:148] Top shape: 24 192 14 14 (903168)
I0403 16:02:22.141655 20664 net.cpp:156] Memory required for data: 861623328
I0403 16:02:22.141669 20664 layer_factory.hpp:77] Creating layer inception_4a/3x3_reduce
I0403 16:02:22.141690 20664 net.cpp:91] Creating Layer inception_4a/3x3_reduce
I0403 16:02:22.141707 20664 net.cpp:425] inception_4a/3x3_reduce <- pool3/3x3_s2_pool3/3x3_s2_0_split_1
I0403 16:02:22.141727 20664 net.cpp:399] inception_4a/3x3_reduce -> inception_4a/3x3_reduce
I0403 16:02:22.142952 20664 net.cpp:141] Setting up inception_4a/3x3_reduce
I0403 16:02:22.142982 20664 net.cpp:148] Top shape: 24 96 14 14 (451584)
I0403 16:02:22.142998 20664 net.cpp:156] Memory required for data: 863429664
I0403 16:02:22.143023 20664 layer_factory.hpp:77] Creating layer inception_4a/relu_3x3_reduce
I0403 16:02:22.143045 20664 net.cpp:91] Creating Layer inception_4a/relu_3x3_reduce
I0403 16:02:22.143061 20664 net.cpp:425] inception_4a/relu_3x3_reduce <- inception_4a/3x3_reduce
I0403 16:02:22.143077 20664 net.cpp:386] inception_4a/relu_3x3_reduce -> inception_4a/3x3_reduce (in-place)
I0403 16:02:22.143247 20664 net.cpp:141] Setting up inception_4a/relu_3x3_reduce
I0403 16:02:22.143271 20664 net.cpp:148] Top shape: 24 96 14 14 (451584)
I0403 16:02:22.143285 20664 net.cpp:156] Memory required for data: 865236000
I0403 16:02:22.143299 20664 layer_factory.hpp:77] Creating layer inception_4a/3x3
I0403 16:02:22.143321 20664 net.cpp:91] Creating Layer inception_4a/3x3
I0403 16:02:22.143337 20664 net.cpp:425] inception_4a/3x3 <- inception_4a/3x3_reduce
I0403 16:02:22.143357 20664 net.cpp:399] inception_4a/3x3 -> inception_4a/3x3
I0403 16:02:22.145970 20664 net.cpp:141] Setting up inception_4a/3x3
I0403 16:02:22.145998 20664 net.cpp:148] Top shape: 24 208 14 14 (978432)
I0403 16:02:22.146013 20664 net.cpp:156] Memory required for data: 869149728
I0403 16:02:22.146034 20664 layer_factory.hpp:77] Creating layer inception_4a/relu_3x3
I0403 16:02:22.146052 20664 net.cpp:91] Creating Layer inception_4a/relu_3x3
I0403 16:02:22.146069 20664 net.cpp:425] inception_4a/relu_3x3 <- inception_4a/3x3
I0403 16:02:22.146086 20664 net.cpp:386] inception_4a/relu_3x3 -> inception_4a/3x3 (in-place)
I0403 16:02:22.146363 20664 net.cpp:141] Setting up inception_4a/relu_3x3
I0403 16:02:22.146387 20664 net.cpp:148] Top shape: 24 208 14 14 (978432)
I0403 16:02:22.146401 20664 net.cpp:156] Memory required for data: 873063456
I0403 16:02:22.146415 20664 layer_factory.hpp:77] Creating layer inception_4a/5x5_reduce
I0403 16:02:22.146437 20664 net.cpp:91] Creating Layer inception_4a/5x5_reduce
I0403 16:02:22.146455 20664 net.cpp:425] inception_4a/5x5_reduce <- pool3/3x3_s2_pool3/3x3_s2_0_split_2
I0403 16:02:22.146474 20664 net.cpp:399] inception_4a/5x5_reduce -> inception_4a/5x5_reduce
I0403 16:02:22.147472 20664 net.cpp:141] Setting up inception_4a/5x5_reduce
I0403 16:02:22.147498 20664 net.cpp:148] Top shape: 24 16 14 14 (75264)
I0403 16:02:22.147512 20664 net.cpp:156] Memory required for data: 873364512
I0403 16:02:22.147529 20664 layer_factory.hpp:77] Creating layer inception_4a/relu_5x5_reduce
I0403 16:02:22.147549 20664 net.cpp:91] Creating Layer inception_4a/relu_5x5_reduce
I0403 16:02:22.147565 20664 net.cpp:425] inception_4a/relu_5x5_reduce <- inception_4a/5x5_reduce
I0403 16:02:22.147581 20664 net.cpp:386] inception_4a/relu_5x5_reduce -> inception_4a/5x5_reduce (in-place)
I0403 16:02:22.147755 20664 net.cpp:141] Setting up inception_4a/relu_5x5_reduce
I0403 16:02:22.147778 20664 net.cpp:148] Top shape: 24 16 14 14 (75264)
I0403 16:02:22.147792 20664 net.cpp:156] Memory required for data: 873665568
I0403 16:02:22.147806 20664 layer_factory.hpp:77] Creating layer inception_4a/5x5
I0403 16:02:22.147828 20664 net.cpp:91] Creating Layer inception_4a/5x5
I0403 16:02:22.147845 20664 net.cpp:425] inception_4a/5x5 <- inception_4a/5x5_reduce
I0403 16:02:22.147863 20664 net.cpp:399] inception_4a/5x5 -> inception_4a/5x5
I0403 16:02:22.148924 20664 net.cpp:141] Setting up inception_4a/5x5
I0403 16:02:22.148950 20664 net.cpp:148] Top shape: 24 48 14 14 (225792)
I0403 16:02:22.148967 20664 net.cpp:156] Memory required for data: 874568736
I0403 16:02:22.148983 20664 layer_factory.hpp:77] Creating layer inception_4a/relu_5x5
I0403 16:02:22.149004 20664 net.cpp:91] Creating Layer inception_4a/relu_5x5
I0403 16:02:22.149024 20664 net.cpp:425] inception_4a/relu_5x5 <- inception_4a/5x5
I0403 16:02:22.149040 20664 net.cpp:386] inception_4a/relu_5x5 -> inception_4a/5x5 (in-place)
I0403 16:02:22.149215 20664 net.cpp:141] Setting up inception_4a/relu_5x5
I0403 16:02:22.149241 20664 net.cpp:148] Top shape: 24 48 14 14 (225792)
I0403 16:02:22.149257 20664 net.cpp:156] Memory required for data: 875471904
I0403 16:02:22.149272 20664 layer_factory.hpp:77] Creating layer inception_4a/pool
I0403 16:02:22.149289 20664 net.cpp:91] Creating Layer inception_4a/pool
I0403 16:02:22.149305 20664 net.cpp:425] inception_4a/pool <- pool3/3x3_s2_pool3/3x3_s2_0_split_3
I0403 16:02:22.149324 20664 net.cpp:399] inception_4a/pool -> inception_4a/pool
I0403 16:02:22.149382 20664 net.cpp:141] Setting up inception_4a/pool
I0403 16:02:22.149407 20664 net.cpp:148] Top shape: 24 480 14 14 (2257920)
I0403 16:02:22.149422 20664 net.cpp:156] Memory required for data: 884503584
I0403 16:02:22.149435 20664 layer_factory.hpp:77] Creating layer inception_4a/pool_proj
I0403 16:02:22.149454 20664 net.cpp:91] Creating Layer inception_4a/pool_proj
I0403 16:02:22.149471 20664 net.cpp:425] inception_4a/pool_proj <- inception_4a/pool
I0403 16:02:22.149492 20664 net.cpp:399] inception_4a/pool_proj -> inception_4a/pool_proj
I0403 16:02:22.150681 20664 net.cpp:141] Setting up inception_4a/pool_proj
I0403 16:02:22.150712 20664 net.cpp:148] Top shape: 24 64 14 14 (301056)
I0403 16:02:22.150740 20664 net.cpp:156] Memory required for data: 885707808
I0403 16:02:22.150758 20664 layer_factory.hpp:77] Creating layer inception_4a/relu_pool_proj
I0403 16:02:22.150776 20664 net.cpp:91] Creating Layer inception_4a/relu_pool_proj
I0403 16:02:22.150792 20664 net.cpp:425] inception_4a/relu_pool_proj <- inception_4a/pool_proj
I0403 16:02:22.150809 20664 net.cpp:386] inception_4a/relu_pool_proj -> inception_4a/pool_proj (in-place)
I0403 16:02:22.151098 20664 net.cpp:141] Setting up inception_4a/relu_pool_proj
I0403 16:02:22.151125 20664 net.cpp:148] Top shape: 24 64 14 14 (301056)
I0403 16:02:22.151141 20664 net.cpp:156] Memory required for data: 886912032
I0403 16:02:22.151156 20664 layer_factory.hpp:77] Creating layer inception_4a/output
I0403 16:02:22.151172 20664 net.cpp:91] Creating Layer inception_4a/output
I0403 16:02:22.151188 20664 net.cpp:425] inception_4a/output <- inception_4a/1x1
I0403 16:02:22.151204 20664 net.cpp:425] inception_4a/output <- inception_4a/3x3
I0403 16:02:22.151219 20664 net.cpp:425] inception_4a/output <- inception_4a/5x5
I0403 16:02:22.151234 20664 net.cpp:425] inception_4a/output <- inception_4a/pool_proj
I0403 16:02:22.151252 20664 net.cpp:399] inception_4a/output -> inception_4a/output
I0403 16:02:22.151298 20664 net.cpp:141] Setting up inception_4a/output
I0403 16:02:22.151319 20664 net.cpp:148] Top shape: 24 512 14 14 (2408448)
I0403 16:02:22.151334 20664 net.cpp:156] Memory required for data: 896545824
I0403 16:02:22.151347 20664 layer_factory.hpp:77] Creating layer inception_4a/output_inception_4a/output_0_split
I0403 16:02:22.151367 20664 net.cpp:91] Creating Layer inception_4a/output_inception_4a/output_0_split
I0403 16:02:22.151383 20664 net.cpp:425] inception_4a/output_inception_4a/output_0_split <- inception_4a/output
I0403 16:02:22.151401 20664 net.cpp:399] inception_4a/output_inception_4a/output_0_split -> inception_4a/output_inception_4a/output_0_split_0
I0403 16:02:22.151419 20664 net.cpp:399] inception_4a/output_inception_4a/output_0_split -> inception_4a/output_inception_4a/output_0_split_1
I0403 16:02:22.151439 20664 net.cpp:399] inception_4a/output_inception_4a/output_0_split -> inception_4a/output_inception_4a/output_0_split_2
I0403 16:02:22.151463 20664 net.cpp:399] inception_4a/output_inception_4a/output_0_split -> inception_4a/output_inception_4a/output_0_split_3
I0403 16:02:22.151482 20664 net.cpp:399] inception_4a/output_inception_4a/output_0_split -> inception_4a/output_inception_4a/output_0_split_4
I0403 16:02:22.151577 20664 net.cpp:141] Setting up inception_4a/output_inception_4a/output_0_split
I0403 16:02:22.151600 20664 net.cpp:148] Top shape: 24 512 14 14 (2408448)
I0403 16:02:22.151617 20664 net.cpp:148] Top shape: 24 512 14 14 (2408448)
I0403 16:02:22.151631 20664 net.cpp:148] Top shape: 24 512 14 14 (2408448)
I0403 16:02:22.151646 20664 net.cpp:148] Top shape: 24 512 14 14 (2408448)
I0403 16:02:22.151662 20664 net.cpp:148] Top shape: 24 512 14 14 (2408448)
I0403 16:02:22.151675 20664 net.cpp:156] Memory required for data: 944714784
I0403 16:02:22.151689 20664 layer_factory.hpp:77] Creating layer loss1/ave_pool
I0403 16:02:22.151707 20664 net.cpp:91] Creating Layer loss1/ave_pool
I0403 16:02:22.151723 20664 net.cpp:425] loss1/ave_pool <- inception_4a/output_inception_4a/output_0_split_0
I0403 16:02:22.151741 20664 net.cpp:399] loss1/ave_pool -> loss1/ave_pool
I0403 16:02:22.151944 20664 net.cpp:141] Setting up loss1/ave_pool
I0403 16:02:22.151973 20664 net.cpp:148] Top shape: 24 512 4 4 (196608)
I0403 16:02:22.151988 20664 net.cpp:156] Memory required for data: 945501216
I0403 16:02:22.152003 20664 layer_factory.hpp:77] Creating layer loss1/conv
I0403 16:02:22.152029 20664 net.cpp:91] Creating Layer loss1/conv
I0403 16:02:22.152046 20664 net.cpp:425] loss1/conv <- loss1/ave_pool
I0403 16:02:22.152077 20664 net.cpp:399] loss1/conv -> loss1/conv
I0403 16:02:22.153509 20664 net.cpp:141] Setting up loss1/conv
I0403 16:02:22.153537 20664 net.cpp:148] Top shape: 24 128 4 4 (49152)
I0403 16:02:22.153566 20664 net.cpp:156] Memory required for data: 945697824
I0403 16:02:22.153584 20664 layer_factory.hpp:77] Creating layer loss1/relu_conv
I0403 16:02:22.153604 20664 net.cpp:91] Creating Layer loss1/relu_conv
I0403 16:02:22.153622 20664 net.cpp:425] loss1/relu_conv <- loss1/conv
I0403 16:02:22.153640 20664 net.cpp:386] loss1/relu_conv -> loss1/conv (in-place)
I0403 16:02:22.153918 20664 net.cpp:141] Setting up loss1/relu_conv
I0403 16:02:22.153942 20664 net.cpp:148] Top shape: 24 128 4 4 (49152)
I0403 16:02:22.153959 20664 net.cpp:156] Memory required for data: 945894432
I0403 16:02:22.153973 20664 layer_factory.hpp:77] Creating layer loss1/fc
I0403 16:02:22.153995 20664 net.cpp:91] Creating Layer loss1/fc
I0403 16:02:22.154019 20664 net.cpp:425] loss1/fc <- loss1/conv
I0403 16:02:22.154041 20664 net.cpp:399] loss1/fc -> loss1/fc
I0403 16:02:22.171996 20664 net.cpp:141] Setting up loss1/fc
I0403 16:02:22.172054 20664 net.cpp:148] Top shape: 24 1024 (24576)
I0403 16:02:22.172070 20664 net.cpp:156] Memory required for data: 945992736
I0403 16:02:22.172087 20664 layer_factory.hpp:77] Creating layer loss1/relu_fc
I0403 16:02:22.172108 20664 net.cpp:91] Creating Layer loss1/relu_fc
I0403 16:02:22.172127 20664 net.cpp:425] loss1/relu_fc <- loss1/fc
I0403 16:02:22.172144 20664 net.cpp:386] loss1/relu_fc -> loss1/fc (in-place)
I0403 16:02:22.172348 20664 net.cpp:141] Setting up loss1/relu_fc
I0403 16:02:22.172371 20664 net.cpp:148] Top shape: 24 1024 (24576)
I0403 16:02:22.172385 20664 net.cpp:156] Memory required for data: 946091040
I0403 16:02:22.172400 20664 layer_factory.hpp:77] Creating layer loss1/drop_fc
I0403 16:02:22.172427 20664 net.cpp:91] Creating Layer loss1/drop_fc
I0403 16:02:22.172444 20664 net.cpp:425] loss1/drop_fc <- loss1/fc
I0403 16:02:22.172463 20664 net.cpp:386] loss1/drop_fc -> loss1/fc (in-place)
I0403 16:02:22.172513 20664 net.cpp:141] Setting up loss1/drop_fc
I0403 16:02:22.172535 20664 net.cpp:148] Top shape: 24 1024 (24576)
I0403 16:02:22.172549 20664 net.cpp:156] Memory required for data: 946189344
I0403 16:02:22.172564 20664 layer_factory.hpp:77] Creating layer loss1/classifier_plantvillage
I0403 16:02:22.172586 20664 net.cpp:91] Creating Layer loss1/classifier_plantvillage
I0403 16:02:22.172603 20664 net.cpp:425] loss1/classifier_plantvillage <- loss1/fc
I0403 16:02:22.172622 20664 net.cpp:399] loss1/classifier_plantvillage -> loss1/classifier_plantvillage
I0403 16:02:22.173553 20664 net.cpp:141] Setting up loss1/classifier_plantvillage
I0403 16:02:22.173583 20664 net.cpp:148] Top shape: 24 38 (912)
I0403 16:02:22.173599 20664 net.cpp:156] Memory required for data: 946192992
I0403 16:02:22.173617 20664 layer_factory.hpp:77] Creating layer loss1/classifier_plantvillage_loss1/classifier_plantvillage_0_split
I0403 16:02:22.173635 20664 net.cpp:91] Creating Layer loss1/classifier_plantvillage_loss1/classifier_plantvillage_0_split
I0403 16:02:22.173651 20664 net.cpp:425] loss1/classifier_plantvillage_loss1/classifier_plantvillage_0_split <- loss1/classifier_plantvillage
I0403 16:02:22.173671 20664 net.cpp:399] loss1/classifier_plantvillage_loss1/classifier_plantvillage_0_split -> loss1/classifier_plantvillage_loss1/classifier_plantvillage_0_split_0
I0403 16:02:22.173692 20664 net.cpp:399] loss1/classifier_plantvillage_loss1/classifier_plantvillage_0_split -> loss1/classifier_plantvillage_loss1/classifier_plantvillage_0_split_1
I0403 16:02:22.173712 20664 net.cpp:399] loss1/classifier_plantvillage_loss1/classifier_plantvillage_0_split -> loss1/classifier_plantvillage_loss1/classifier_plantvillage_0_split_2
I0403 16:02:22.173777 20664 net.cpp:141] Setting up loss1/classifier_plantvillage_loss1/classifier_plantvillage_0_split
I0403 16:02:22.173800 20664 net.cpp:148] Top shape: 24 38 (912)
I0403 16:02:22.173816 20664 net.cpp:148] Top shape: 24 38 (912)
I0403 16:02:22.173831 20664 net.cpp:148] Top shape: 24 38 (912)
I0403 16:02:22.173845 20664 net.cpp:156] Memory required for data: 946203936
I0403 16:02:22.173858 20664 layer_factory.hpp:77] Creating layer inception_4b/1x1
I0403 16:02:22.173880 20664 net.cpp:91] Creating Layer inception_4b/1x1
I0403 16:02:22.173914 20664 net.cpp:425] inception_4b/1x1 <- inception_4a/output_inception_4a/output_0_split_1
I0403 16:02:22.173935 20664 net.cpp:399] inception_4b/1x1 -> inception_4b/1x1
I0403 16:02:22.175616 20664 net.cpp:141] Setting up inception_4b/1x1
I0403 16:02:22.175645 20664 net.cpp:148] Top shape: 24 160 14 14 (752640)
I0403 16:02:22.175662 20664 net.cpp:156] Memory required for data: 949214496
I0403 16:02:22.175678 20664 layer_factory.hpp:77] Creating layer inception_4b/relu_1x1
I0403 16:02:22.175698 20664 net.cpp:91] Creating Layer inception_4b/relu_1x1
I0403 16:02:22.175715 20664 net.cpp:425] inception_4b/relu_1x1 <- inception_4b/1x1
I0403 16:02:22.175732 20664 net.cpp:386] inception_4b/relu_1x1 -> inception_4b/1x1 (in-place)
I0403 16:02:22.175914 20664 net.cpp:141] Setting up inception_4b/relu_1x1
I0403 16:02:22.175938 20664 net.cpp:148] Top shape: 24 160 14 14 (752640)
I0403 16:02:22.175952 20664 net.cpp:156] Memory required for data: 952225056
I0403 16:02:22.175968 20664 layer_factory.hpp:77] Creating layer inception_4b/3x3_reduce
I0403 16:02:22.175990 20664 net.cpp:91] Creating Layer inception_4b/3x3_reduce
I0403 16:02:22.176009 20664 net.cpp:425] inception_4b/3x3_reduce <- inception_4a/output_inception_4a/output_0_split_2
I0403 16:02:22.176033 20664 net.cpp:399] inception_4b/3x3_reduce -> inception_4b/3x3_reduce
I0403 16:02:22.177391 20664 net.cpp:141] Setting up inception_4b/3x3_reduce
I0403 16:02:22.177417 20664 net.cpp:148] Top shape: 24 112 14 14 (526848)
I0403 16:02:22.177433 20664 net.cpp:156] Memory required for data: 954332448
I0403 16:02:22.177450 20664 layer_factory.hpp:77] Creating layer inception_4b/relu_3x3_reduce
I0403 16:02:22.177470 20664 net.cpp:91] Creating Layer inception_4b/relu_3x3_reduce
I0403 16:02:22.177500 20664 net.cpp:425] inception_4b/relu_3x3_reduce <- inception_4b/3x3_reduce
I0403 16:02:22.177516 20664 net.cpp:386] inception_4b/relu_3x3_reduce -> inception_4b/3x3_reduce (in-place)
I0403 16:02:22.177820 20664 net.cpp:141] Setting up inception_4b/relu_3x3_reduce
I0403 16:02:22.177846 20664 net.cpp:148] Top shape: 24 112 14 14 (526848)
I0403 16:02:22.177860 20664 net.cpp:156] Memory required for data: 956439840
I0403 16:02:22.177875 20664 layer_factory.hpp:77] Creating layer inception_4b/3x3
I0403 16:02:22.177898 20664 net.cpp:91] Creating Layer inception_4b/3x3
I0403 16:02:22.177916 20664 net.cpp:425] inception_4b/3x3 <- inception_4b/3x3_reduce
I0403 16:02:22.177937 20664 net.cpp:399] inception_4b/3x3 -> inception_4b/3x3
I0403 16:02:22.180985 20664 net.cpp:141] Setting up inception_4b/3x3
I0403 16:02:22.181021 20664 net.cpp:148] Top shape: 24 224 14 14 (1053696)
I0403 16:02:22.181040 20664 net.cpp:156] Memory required for data: 960654624
I0403 16:02:22.181057 20664 layer_factory.hpp:77] Creating layer inception_4b/relu_3x3
I0403 16:02:22.181077 20664 net.cpp:91] Creating Layer inception_4b/relu_3x3
I0403 16:02:22.181092 20664 net.cpp:425] inception_4b/relu_3x3 <- inception_4b/3x3
I0403 16:02:22.181113 20664 net.cpp:386] inception_4b/relu_3x3 -> inception_4b/3x3 (in-place)
I0403 16:02:22.181294 20664 net.cpp:141] Setting up inception_4b/relu_3x3
I0403 16:02:22.181318 20664 net.cpp:148] Top shape: 24 224 14 14 (1053696)
I0403 16:02:22.181334 20664 net.cpp:156] Memory required for data: 964869408
I0403 16:02:22.181347 20664 layer_factory.hpp:77] Creating layer inception_4b/5x5_reduce
I0403 16:02:22.181370 20664 net.cpp:91] Creating Layer inception_4b/5x5_reduce
I0403 16:02:22.181386 20664 net.cpp:425] inception_4b/5x5_reduce <- inception_4a/output_inception_4a/output_0_split_3
I0403 16:02:22.181408 20664 net.cpp:399] inception_4b/5x5_reduce -> inception_4b/5x5_reduce
I0403 16:02:22.182518 20664 net.cpp:141] Setting up inception_4b/5x5_reduce
I0403 16:02:22.182545 20664 net.cpp:148] Top shape: 24 24 14 14 (112896)
I0403 16:02:22.182559 20664 net.cpp:156] Memory required for data: 965320992
I0403 16:02:22.182577 20664 layer_factory.hpp:77] Creating layer inception_4b/relu_5x5_reduce
I0403 16:02:22.182596 20664 net.cpp:91] Creating Layer inception_4b/relu_5x5_reduce
I0403 16:02:22.182627 20664 net.cpp:425] inception_4b/relu_5x5_reduce <- inception_4b/5x5_reduce
I0403 16:02:22.182646 20664 net.cpp:386] inception_4b/relu_5x5_reduce -> inception_4b/5x5_reduce (in-place)
I0403 16:02:22.182826 20664 net.cpp:141] Setting up inception_4b/relu_5x5_reduce
I0403 16:02:22.182854 20664 net.cpp:148] Top shape: 24 24 14 14 (112896)
I0403 16:02:22.182869 20664 net.cpp:156] Memory required for data: 965772576
I0403 16:02:22.182883 20664 layer_factory.hpp:77] Creating layer inception_4b/5x5
I0403 16:02:22.182904 20664 net.cpp:91] Creating Layer inception_4b/5x5
I0403 16:02:22.182922 20664 net.cpp:425] inception_4b/5x5 <- inception_4b/5x5_reduce
I0403 16:02:22.182940 20664 net.cpp:399] inception_4b/5x5 -> inception_4b/5x5
I0403 16:02:22.184175 20664 net.cpp:141] Setting up inception_4b/5x5
I0403 16:02:22.184202 20664 net.cpp:148] Top shape: 24 64 14 14 (301056)
I0403 16:02:22.184216 20664 net.cpp:156] Memory required for data: 966976800
I0403 16:02:22.184234 20664 layer_factory.hpp:77] Creating layer inception_4b/relu_5x5
I0403 16:02:22.184254 20664 net.cpp:91] Creating Layer inception_4b/relu_5x5
I0403 16:02:22.184272 20664 net.cpp:425] inception_4b/relu_5x5 <- inception_4b/5x5
I0403 16:02:22.184288 20664 net.cpp:386] inception_4b/relu_5x5 -> inception_4b/5x5 (in-place)
I0403 16:02:22.184576 20664 net.cpp:141] Setting up inception_4b/relu_5x5
I0403 16:02:22.184602 20664 net.cpp:148] Top shape: 24 64 14 14 (301056)
I0403 16:02:22.184615 20664 net.cpp:156] Memory required for data: 968181024
I0403 16:02:22.184630 20664 layer_factory.hpp:77] Creating layer inception_4b/pool
I0403 16:02:22.184649 20664 net.cpp:91] Creating Layer inception_4b/pool
I0403 16:02:22.184664 20664 net.cpp:425] inception_4b/pool <- inception_4a/output_inception_4a/output_0_split_4
I0403 16:02:22.184684 20664 net.cpp:399] inception_4b/pool -> inception_4b/pool
I0403 16:02:22.184748 20664 net.cpp:141] Setting up inception_4b/pool
I0403 16:02:22.184772 20664 net.cpp:148] Top shape: 24 512 14 14 (2408448)
I0403 16:02:22.184787 20664 net.cpp:156] Memory required for data: 977814816
I0403 16:02:22.184800 20664 layer_factory.hpp:77] Creating layer inception_4b/pool_proj
I0403 16:02:22.184821 20664 net.cpp:91] Creating Layer inception_4b/pool_proj
I0403 16:02:22.184839 20664 net.cpp:425] inception_4b/pool_proj <- inception_4b/pool
I0403 16:02:22.184859 20664 net.cpp:399] inception_4b/pool_proj -> inception_4b/pool_proj
I0403 16:02:22.186058 20664 net.cpp:141] Setting up inception_4b/pool_proj
I0403 16:02:22.186084 20664 net.cpp:148] Top shape: 24 64 14 14 (301056)
I0403 16:02:22.186100 20664 net.cpp:156] Memory required for data: 979019040
I0403 16:02:22.186117 20664 layer_factory.hpp:77] Creating layer inception_4b/relu_pool_proj
I0403 16:02:22.186138 20664 net.cpp:91] Creating Layer inception_4b/relu_pool_proj
I0403 16:02:22.186154 20664 net.cpp:425] inception_4b/relu_pool_proj <- inception_4b/pool_proj
I0403 16:02:22.186172 20664 net.cpp:386] inception_4b/relu_pool_proj -> inception_4b/pool_proj (in-place)
I0403 16:02:22.186352 20664 net.cpp:141] Setting up inception_4b/relu_pool_proj
I0403 16:02:22.186377 20664 net.cpp:148] Top shape: 24 64 14 14 (301056)
I0403 16:02:22.186390 20664 net.cpp:156] Memory required for data: 980223264
I0403 16:02:22.186405 20664 layer_factory.hpp:77] Creating layer inception_4b/output
I0403 16:02:22.186424 20664 net.cpp:91] Creating Layer inception_4b/output
I0403 16:02:22.186440 20664 net.cpp:425] inception_4b/output <- inception_4b/1x1
I0403 16:02:22.186457 20664 net.cpp:425] inception_4b/output <- inception_4b/3x3
I0403 16:02:22.186473 20664 net.cpp:425] inception_4b/output <- inception_4b/5x5
I0403 16:02:22.186488 20664 net.cpp:425] inception_4b/output <- inception_4b/pool_proj
I0403 16:02:22.186506 20664 net.cpp:399] inception_4b/output -> inception_4b/output
I0403 16:02:22.186553 20664 net.cpp:141] Setting up inception_4b/output
I0403 16:02:22.186575 20664 net.cpp:148] Top shape: 24 512 14 14 (2408448)
I0403 16:02:22.186590 20664 net.cpp:156] Memory required for data: 989857056
I0403 16:02:22.186619 20664 layer_factory.hpp:77] Creating layer inception_4b/output_inception_4b/output_0_split
I0403 16:02:22.186635 20664 net.cpp:91] Creating Layer inception_4b/output_inception_4b/output_0_split
I0403 16:02:22.186651 20664 net.cpp:425] inception_4b/output_inception_4b/output_0_split <- inception_4b/output
I0403 16:02:22.186671 20664 net.cpp:399] inception_4b/output_inception_4b/output_0_split -> inception_4b/output_inception_4b/output_0_split_0
I0403 16:02:22.186691 20664 net.cpp:399] inception_4b/output_inception_4b/output_0_split -> inception_4b/output_inception_4b/output_0_split_1
I0403 16:02:22.186712 20664 net.cpp:399] inception_4b/output_inception_4b/output_0_split -> inception_4b/output_inception_4b/output_0_split_2
I0403 16:02:22.186731 20664 net.cpp:399] inception_4b/output_inception_4b/output_0_split -> inception_4b/output_inception_4b/output_0_split_3
I0403 16:02:22.186817 20664 net.cpp:141] Setting up inception_4b/output_inception_4b/output_0_split
I0403 16:02:22.186841 20664 net.cpp:148] Top shape: 24 512 14 14 (2408448)
I0403 16:02:22.186856 20664 net.cpp:148] Top shape: 24 512 14 14 (2408448)
I0403 16:02:22.186872 20664 net.cpp:148] Top shape: 24 512 14 14 (2408448)
I0403 16:02:22.186887 20664 net.cpp:148] Top shape: 24 512 14 14 (2408448)
I0403 16:02:22.186900 20664 net.cpp:156] Memory required for data: 1028392224
I0403 16:02:22.186914 20664 layer_factory.hpp:77] Creating layer inception_4c/1x1
I0403 16:02:22.186935 20664 net.cpp:91] Creating Layer inception_4c/1x1
I0403 16:02:22.186952 20664 net.cpp:425] inception_4c/1x1 <- inception_4b/output_inception_4b/output_0_split_0
I0403 16:02:22.186974 20664 net.cpp:399] inception_4c/1x1 -> inception_4c/1x1
I0403 16:02:22.188418 20664 net.cpp:141] Setting up inception_4c/1x1
I0403 16:02:22.188446 20664 net.cpp:148] Top shape: 24 128 14 14 (602112)
I0403 16:02:22.188460 20664 net.cpp:156] Memory required for data: 1030800672
I0403 16:02:22.188478 20664 layer_factory.hpp:77] Creating layer inception_4c/relu_1x1
I0403 16:02:22.188499 20664 net.cpp:91] Creating Layer inception_4c/relu_1x1
I0403 16:02:22.188516 20664 net.cpp:425] inception_4c/relu_1x1 <- inception_4c/1x1
I0403 16:02:22.188534 20664 net.cpp:386] inception_4c/relu_1x1 -> inception_4c/1x1 (in-place)
I0403 16:02:22.188714 20664 net.cpp:141] Setting up inception_4c/relu_1x1
I0403 16:02:22.188740 20664 net.cpp:148] Top shape: 24 128 14 14 (602112)
I0403 16:02:22.188753 20664 net.cpp:156] Memory required for data: 1033209120
I0403 16:02:22.188767 20664 layer_factory.hpp:77] Creating layer inception_4c/3x3_reduce
I0403 16:02:22.188788 20664 net.cpp:91] Creating Layer inception_4c/3x3_reduce
I0403 16:02:22.188807 20664 net.cpp:425] inception_4c/3x3_reduce <- inception_4b/output_inception_4b/output_0_split_1
I0403 16:02:22.188827 20664 net.cpp:399] inception_4c/3x3_reduce -> inception_4c/3x3_reduce
I0403 16:02:22.190846 20664 net.cpp:141] Setting up inception_4c/3x3_reduce
I0403 16:02:22.190876 20664 net.cpp:148] Top shape: 24 128 14 14 (602112)
I0403 16:02:22.190891 20664 net.cpp:156] Memory required for data: 1035617568
I0403 16:02:22.190908 20664 layer_factory.hpp:77] Creating layer inception_4c/relu_3x3_reduce
I0403 16:02:22.190927 20664 net.cpp:91] Creating Layer inception_4c/relu_3x3_reduce
I0403 16:02:22.190943 20664 net.cpp:425] inception_4c/relu_3x3_reduce <- inception_4c/3x3_reduce
I0403 16:02:22.190961 20664 net.cpp:386] inception_4c/relu_3x3_reduce -> inception_4c/3x3_reduce (in-place)
I0403 16:02:22.191256 20664 net.cpp:141] Setting up inception_4c/relu_3x3_reduce
I0403 16:02:22.191282 20664 net.cpp:148] Top shape: 24 128 14 14 (602112)
I0403 16:02:22.191298 20664 net.cpp:156] Memory required for data: 1038026016
I0403 16:02:22.191311 20664 layer_factory.hpp:77] Creating layer inception_4c/3x3
I0403 16:02:22.191334 20664 net.cpp:91] Creating Layer inception_4c/3x3
I0403 16:02:22.191351 20664 net.cpp:425] inception_4c/3x3 <- inception_4c/3x3_reduce
I0403 16:02:22.191372 20664 net.cpp:399] inception_4c/3x3 -> inception_4c/3x3
I0403 16:02:22.194960 20664 net.cpp:141] Setting up inception_4c/3x3
I0403 16:02:22.195001 20664 net.cpp:148] Top shape: 24 256 14 14 (1204224)
I0403 16:02:22.195020 20664 net.cpp:156] Memory required for data: 1042842912
I0403 16:02:22.195055 20664 layer_factory.hpp:77] Creating layer inception_4c/relu_3x3
I0403 16:02:22.195076 20664 net.cpp:91] Creating Layer inception_4c/relu_3x3
I0403 16:02:22.195093 20664 net.cpp:425] inception_4c/relu_3x3 <- inception_4c/3x3
I0403 16:02:22.195111 20664 net.cpp:386] inception_4c/relu_3x3 -> inception_4c/3x3 (in-place)
I0403 16:02:22.195297 20664 net.cpp:141] Setting up inception_4c/relu_3x3
I0403 16:02:22.195322 20664 net.cpp:148] Top shape: 24 256 14 14 (1204224)
I0403 16:02:22.195335 20664 net.cpp:156] Memory required for data: 1047659808
I0403 16:02:22.195349 20664 layer_factory.hpp:77] Creating layer inception_4c/5x5_reduce
I0403 16:02:22.195371 20664 net.cpp:91] Creating Layer inception_4c/5x5_reduce
I0403 16:02:22.195389 20664 net.cpp:425] inception_4c/5x5_reduce <- inception_4b/output_inception_4b/output_0_split_2
I0403 16:02:22.195410 20664 net.cpp:399] inception_4c/5x5_reduce -> inception_4c/5x5_reduce
I0403 16:02:22.196504 20664 net.cpp:141] Setting up inception_4c/5x5_reduce
I0403 16:02:22.196532 20664 net.cpp:148] Top shape: 24 24 14 14 (112896)
I0403 16:02:22.196547 20664 net.cpp:156] Memory required for data: 1048111392
I0403 16:02:22.196563 20664 layer_factory.hpp:77] Creating layer inception_4c/relu_5x5_reduce
I0403 16:02:22.196583 20664 net.cpp:91] Creating Layer inception_4c/relu_5x5_reduce
I0403 16:02:22.196601 20664 net.cpp:425] inception_4c/relu_5x5_reduce <- inception_4c/5x5_reduce
I0403 16:02:22.196619 20664 net.cpp:386] inception_4c/relu_5x5_reduce -> inception_4c/5x5_reduce (in-place)
I0403 16:02:22.196801 20664 net.cpp:141] Setting up inception_4c/relu_5x5_reduce
I0403 16:02:22.196828 20664 net.cpp:148] Top shape: 24 24 14 14 (112896)
I0403 16:02:22.196843 20664 net.cpp:156] Memory required for data: 1048562976
I0403 16:02:22.196857 20664 layer_factory.hpp:77] Creating layer inception_4c/5x5
I0403 16:02:22.196877 20664 net.cpp:91] Creating Layer inception_4c/5x5
I0403 16:02:22.196894 20664 net.cpp:425] inception_4c/5x5 <- inception_4c/5x5_reduce
I0403 16:02:22.196914 20664 net.cpp:399] inception_4c/5x5 -> inception_4c/5x5
I0403 16:02:22.198185 20664 net.cpp:141] Setting up inception_4c/5x5
I0403 16:02:22.198213 20664 net.cpp:148] Top shape: 24 64 14 14 (301056)
I0403 16:02:22.198227 20664 net.cpp:156] Memory required for data: 1049767200
I0403 16:02:22.198246 20664 layer_factory.hpp:77] Creating layer inception_4c/relu_5x5
I0403 16:02:22.198266 20664 net.cpp:91] Creating Layer inception_4c/relu_5x5
I0403 16:02:22.198283 20664 net.cpp:425] inception_4c/relu_5x5 <- inception_4c/5x5
I0403 16:02:22.198302 20664 net.cpp:386] inception_4c/relu_5x5 -> inception_4c/5x5 (in-place)
I0403 16:02:22.198595 20664 net.cpp:141] Setting up inception_4c/relu_5x5
I0403 16:02:22.198621 20664 net.cpp:148] Top shape: 24 64 14 14 (301056)
I0403 16:02:22.198637 20664 net.cpp:156] Memory required for data: 1050971424
I0403 16:02:22.198652 20664 layer_factory.hpp:77] Creating layer inception_4c/pool
I0403 16:02:22.198671 20664 net.cpp:91] Creating Layer inception_4c/pool
I0403 16:02:22.198688 20664 net.cpp:425] inception_4c/pool <- inception_4b/output_inception_4b/output_0_split_3
I0403 16:02:22.198705 20664 net.cpp:399] inception_4c/pool -> inception_4c/pool
I0403 16:02:22.198771 20664 net.cpp:141] Setting up inception_4c/pool
I0403 16:02:22.198796 20664 net.cpp:148] Top shape: 24 512 14 14 (2408448)
I0403 16:02:22.198809 20664 net.cpp:156] Memory required for data: 1060605216
I0403 16:02:22.198823 20664 layer_factory.hpp:77] Creating layer inception_4c/pool_proj
I0403 16:02:22.198844 20664 net.cpp:91] Creating Layer inception_4c/pool_proj
I0403 16:02:22.198861 20664 net.cpp:425] inception_4c/pool_proj <- inception_4c/pool
I0403 16:02:22.198882 20664 net.cpp:399] inception_4c/pool_proj -> inception_4c/pool_proj
I0403 16:02:22.200160 20664 net.cpp:141] Setting up inception_4c/pool_proj
I0403 16:02:22.200187 20664 net.cpp:148] Top shape: 24 64 14 14 (301056)
I0403 16:02:22.200217 20664 net.cpp:156] Memory required for data: 1061809440
I0403 16:02:22.200237 20664 layer_factory.hpp:77] Creating layer inception_4c/relu_pool_proj
I0403 16:02:22.200258 20664 net.cpp:91] Creating Layer inception_4c/relu_pool_proj
I0403 16:02:22.200275 20664 net.cpp:425] inception_4c/relu_pool_proj <- inception_4c/pool_proj
I0403 16:02:22.200294 20664 net.cpp:386] inception_4c/relu_pool_proj -> inception_4c/pool_proj (in-place)
I0403 16:02:22.200482 20664 net.cpp:141] Setting up inception_4c/relu_pool_proj
I0403 16:02:22.200507 20664 net.cpp:148] Top shape: 24 64 14 14 (301056)
I0403 16:02:22.200522 20664 net.cpp:156] Memory required for data: 1063013664
I0403 16:02:22.200536 20664 layer_factory.hpp:77] Creating layer inception_4c/output
I0403 16:02:22.200556 20664 net.cpp:91] Creating Layer inception_4c/output
I0403 16:02:22.200572 20664 net.cpp:425] inception_4c/output <- inception_4c/1x1
I0403 16:02:22.200589 20664 net.cpp:425] inception_4c/output <- inception_4c/3x3
I0403 16:02:22.200605 20664 net.cpp:425] inception_4c/output <- inception_4c/5x5
I0403 16:02:22.200621 20664 net.cpp:425] inception_4c/output <- inception_4c/pool_proj
I0403 16:02:22.200639 20664 net.cpp:399] inception_4c/output -> inception_4c/output
I0403 16:02:22.200688 20664 net.cpp:141] Setting up inception_4c/output
I0403 16:02:22.200712 20664 net.cpp:148] Top shape: 24 512 14 14 (2408448)
I0403 16:02:22.200726 20664 net.cpp:156] Memory required for data: 1072647456
I0403 16:02:22.200742 20664 layer_factory.hpp:77] Creating layer inception_4c/output_inception_4c/output_0_split
I0403 16:02:22.200757 20664 net.cpp:91] Creating Layer inception_4c/output_inception_4c/output_0_split
I0403 16:02:22.200773 20664 net.cpp:425] inception_4c/output_inception_4c/output_0_split <- inception_4c/output
I0403 16:02:22.200793 20664 net.cpp:399] inception_4c/output_inception_4c/output_0_split -> inception_4c/output_inception_4c/output_0_split_0
I0403 16:02:22.200815 20664 net.cpp:399] inception_4c/output_inception_4c/output_0_split -> inception_4c/output_inception_4c/output_0_split_1
I0403 16:02:22.200835 20664 net.cpp:399] inception_4c/output_inception_4c/output_0_split -> inception_4c/output_inception_4c/output_0_split_2
I0403 16:02:22.200855 20664 net.cpp:399] inception_4c/output_inception_4c/output_0_split -> inception_4c/output_inception_4c/output_0_split_3
I0403 16:02:22.200943 20664 net.cpp:141] Setting up inception_4c/output_inception_4c/output_0_split
I0403 16:02:22.200971 20664 net.cpp:148] Top shape: 24 512 14 14 (2408448)
I0403 16:02:22.200989 20664 net.cpp:148] Top shape: 24 512 14 14 (2408448)
I0403 16:02:22.201004 20664 net.cpp:148] Top shape: 24 512 14 14 (2408448)
I0403 16:02:22.201023 20664 net.cpp:148] Top shape: 24 512 14 14 (2408448)
I0403 16:02:22.201038 20664 net.cpp:156] Memory required for data: 1111182624
I0403 16:02:22.201053 20664 layer_factory.hpp:77] Creating layer inception_4d/1x1
I0403 16:02:22.201076 20664 net.cpp:91] Creating Layer inception_4d/1x1
I0403 16:02:22.201093 20664 net.cpp:425] inception_4d/1x1 <- inception_4c/output_inception_4c/output_0_split_0
I0403 16:02:22.201114 20664 net.cpp:399] inception_4d/1x1 -> inception_4d/1x1
I0403 16:02:22.202543 20664 net.cpp:141] Setting up inception_4d/1x1
I0403 16:02:22.202572 20664 net.cpp:148] Top shape: 24 112 14 14 (526848)
I0403 16:02:22.202589 20664 net.cpp:156] Memory required for data: 1113290016
I0403 16:02:22.202607 20664 layer_factory.hpp:77] Creating layer inception_4d/relu_1x1
I0403 16:02:22.202625 20664 net.cpp:91] Creating Layer inception_4d/relu_1x1
I0403 16:02:22.202641 20664 net.cpp:425] inception_4d/relu_1x1 <- inception_4d/1x1
I0403 16:02:22.202661 20664 net.cpp:386] inception_4d/relu_1x1 -> inception_4d/1x1 (in-place)
I0403 16:02:22.202855 20664 net.cpp:141] Setting up inception_4d/relu_1x1
I0403 16:02:22.202880 20664 net.cpp:148] Top shape: 24 112 14 14 (526848)
I0403 16:02:22.202895 20664 net.cpp:156] Memory required for data: 1115397408
I0403 16:02:22.202909 20664 layer_factory.hpp:77] Creating layer inception_4d/3x3_reduce
I0403 16:02:22.202947 20664 net.cpp:91] Creating Layer inception_4d/3x3_reduce
I0403 16:02:22.202968 20664 net.cpp:425] inception_4d/3x3_reduce <- inception_4c/output_inception_4c/output_0_split_1
I0403 16:02:22.202991 20664 net.cpp:399] inception_4d/3x3_reduce -> inception_4d/3x3_reduce
I0403 16:02:22.204555 20664 net.cpp:141] Setting up inception_4d/3x3_reduce
I0403 16:02:22.204586 20664 net.cpp:148] Top shape: 24 144 14 14 (677376)
I0403 16:02:22.204602 20664 net.cpp:156] Memory required for data: 1118106912
I0403 16:02:22.204619 20664 layer_factory.hpp:77] Creating layer inception_4d/relu_3x3_reduce
I0403 16:02:22.204638 20664 net.cpp:91] Creating Layer inception_4d/relu_3x3_reduce
I0403 16:02:22.204653 20664 net.cpp:425] inception_4d/relu_3x3_reduce <- inception_4d/3x3_reduce
I0403 16:02:22.204669 20664 net.cpp:386] inception_4d/relu_3x3_reduce -> inception_4d/3x3_reduce (in-place)
I0403 16:02:22.204964 20664 net.cpp:141] Setting up inception_4d/relu_3x3_reduce
I0403 16:02:22.204993 20664 net.cpp:148] Top shape: 24 144 14 14 (677376)
I0403 16:02:22.205008 20664 net.cpp:156] Memory required for data: 1120816416
I0403 16:02:22.205027 20664 layer_factory.hpp:77] Creating layer inception_4d/3x3
I0403 16:02:22.205050 20664 net.cpp:91] Creating Layer inception_4d/3x3
I0403 16:02:22.205068 20664 net.cpp:425] inception_4d/3x3 <- inception_4d/3x3_reduce
I0403 16:02:22.205087 20664 net.cpp:399] inception_4d/3x3 -> inception_4d/3x3
I0403 16:02:22.209384 20664 net.cpp:141] Setting up inception_4d/3x3
I0403 16:02:22.209414 20664 net.cpp:148] Top shape: 24 288 14 14 (1354752)
I0403 16:02:22.209429 20664 net.cpp:156] Memory required for data: 1126235424
I0403 16:02:22.209446 20664 layer_factory.hpp:77] Creating layer inception_4d/relu_3x3
I0403 16:02:22.209465 20664 net.cpp:91] Creating Layer inception_4d/relu_3x3
I0403 16:02:22.209480 20664 net.cpp:425] inception_4d/relu_3x3 <- inception_4d/3x3
I0403 16:02:22.209498 20664 net.cpp:386] inception_4d/relu_3x3 -> inception_4d/3x3 (in-place)
I0403 16:02:22.209684 20664 net.cpp:141] Setting up inception_4d/relu_3x3
I0403 16:02:22.209709 20664 net.cpp:148] Top shape: 24 288 14 14 (1354752)
I0403 16:02:22.209723 20664 net.cpp:156] Memory required for data: 1131654432
I0403 16:02:22.209738 20664 layer_factory.hpp:77] Creating layer inception_4d/5x5_reduce
I0403 16:02:22.209758 20664 net.cpp:91] Creating Layer inception_4d/5x5_reduce
I0403 16:02:22.209775 20664 net.cpp:425] inception_4d/5x5_reduce <- inception_4c/output_inception_4c/output_0_split_2
I0403 16:02:22.209796 20664 net.cpp:399] inception_4d/5x5_reduce -> inception_4d/5x5_reduce
I0403 16:02:22.210959 20664 net.cpp:141] Setting up inception_4d/5x5_reduce
I0403 16:02:22.210988 20664 net.cpp:148] Top shape: 24 32 14 14 (150528)
I0403 16:02:22.211004 20664 net.cpp:156] Memory required for data: 1132256544
I0403 16:02:22.211026 20664 layer_factory.hpp:77] Creating layer inception_4d/relu_5x5_reduce
I0403 16:02:22.211045 20664 net.cpp:91] Creating Layer inception_4d/relu_5x5_reduce
I0403 16:02:22.211061 20664 net.cpp:425] inception_4d/relu_5x5_reduce <- inception_4d/5x5_reduce
I0403 16:02:22.211079 20664 net.cpp:386] inception_4d/relu_5x5_reduce -> inception_4d/5x5_reduce (in-place)
I0403 16:02:22.211269 20664 net.cpp:141] Setting up inception_4d/relu_5x5_reduce
I0403 16:02:22.211294 20664 net.cpp:148] Top shape: 24 32 14 14 (150528)
I0403 16:02:22.211308 20664 net.cpp:156] Memory required for data: 1132858656
I0403 16:02:22.211323 20664 layer_factory.hpp:77] Creating layer inception_4d/5x5
I0403 16:02:22.211344 20664 net.cpp:91] Creating Layer inception_4d/5x5
I0403 16:02:22.211361 20664 net.cpp:425] inception_4d/5x5 <- inception_4d/5x5_reduce
I0403 16:02:22.211382 20664 net.cpp:399] inception_4d/5x5 -> inception_4d/5x5
I0403 16:02:22.212877 20664 net.cpp:141] Setting up inception_4d/5x5
I0403 16:02:22.212904 20664 net.cpp:148] Top shape: 24 64 14 14 (301056)
I0403 16:02:22.212919 20664 net.cpp:156] Memory required for data: 1134062880
I0403 16:02:22.212937 20664 layer_factory.hpp:77] Creating layer inception_4d/relu_5x5
I0403 16:02:22.212973 20664 net.cpp:91] Creating Layer inception_4d/relu_5x5
I0403 16:02:22.212991 20664 net.cpp:425] inception_4d/relu_5x5 <- inception_4d/5x5
I0403 16:02:22.213009 20664 net.cpp:386] inception_4d/relu_5x5 -> inception_4d/5x5 (in-place)
I0403 16:02:22.213318 20664 net.cpp:141] Setting up inception_4d/relu_5x5
I0403 16:02:22.213345 20664 net.cpp:148] Top shape: 24 64 14 14 (301056)
I0403 16:02:22.213359 20664 net.cpp:156] Memory required for data: 1135267104
I0403 16:02:22.213373 20664 layer_factory.hpp:77] Creating layer inception_4d/pool
I0403 16:02:22.213393 20664 net.cpp:91] Creating Layer inception_4d/pool
I0403 16:02:22.213409 20664 net.cpp:425] inception_4d/pool <- inception_4c/output_inception_4c/output_0_split_3
I0403 16:02:22.213428 20664 net.cpp:399] inception_4d/pool -> inception_4d/pool
I0403 16:02:22.213495 20664 net.cpp:141] Setting up inception_4d/pool
I0403 16:02:22.213518 20664 net.cpp:148] Top shape: 24 512 14 14 (2408448)
I0403 16:02:22.213532 20664 net.cpp:156] Memory required for data: 1144900896
I0403 16:02:22.213546 20664 layer_factory.hpp:77] Creating layer inception_4d/pool_proj
I0403 16:02:22.213567 20664 net.cpp:91] Creating Layer inception_4d/pool_proj
I0403 16:02:22.213584 20664 net.cpp:425] inception_4d/pool_proj <- inception_4d/pool
I0403 16:02:22.213608 20664 net.cpp:399] inception_4d/pool_proj -> inception_4d/pool_proj
I0403 16:02:22.215451 20664 net.cpp:141] Setting up inception_4d/pool_proj
I0403 16:02:22.215482 20664 net.cpp:148] Top shape: 24 64 14 14 (301056)
I0403 16:02:22.215498 20664 net.cpp:156] Memory required for data: 1146105120
I0403 16:02:22.215518 20664 layer_factory.hpp:77] Creating layer inception_4d/relu_pool_proj
I0403 16:02:22.215548 20664 net.cpp:91] Creating Layer inception_4d/relu_pool_proj
I0403 16:02:22.215564 20664 net.cpp:425] inception_4d/relu_pool_proj <- inception_4d/pool_proj
I0403 16:02:22.215584 20664 net.cpp:386] inception_4d/relu_pool_proj -> inception_4d/pool_proj (in-place)
I0403 16:02:22.215786 20664 net.cpp:141] Setting up inception_4d/relu_pool_proj
I0403 16:02:22.215811 20664 net.cpp:148] Top shape: 24 64 14 14 (301056)
I0403 16:02:22.215826 20664 net.cpp:156] Memory required for data: 1147309344
I0403 16:02:22.215840 20664 layer_factory.hpp:77] Creating layer inception_4d/output
I0403 16:02:22.215859 20664 net.cpp:91] Creating Layer inception_4d/output
I0403 16:02:22.215875 20664 net.cpp:425] inception_4d/output <- inception_4d/1x1
I0403 16:02:22.215891 20664 net.cpp:425] inception_4d/output <- inception_4d/3x3
I0403 16:02:22.215908 20664 net.cpp:425] inception_4d/output <- inception_4d/5x5
I0403 16:02:22.215924 20664 net.cpp:425] inception_4d/output <- inception_4d/pool_proj
I0403 16:02:22.215939 20664 net.cpp:399] inception_4d/output -> inception_4d/output
I0403 16:02:22.215987 20664 net.cpp:141] Setting up inception_4d/output
I0403 16:02:22.216011 20664 net.cpp:148] Top shape: 24 528 14 14 (2483712)
I0403 16:02:22.216029 20664 net.cpp:156] Memory required for data: 1157244192
I0403 16:02:22.216044 20664 layer_factory.hpp:77] Creating layer inception_4d/output_inception_4d/output_0_split
I0403 16:02:22.216061 20664 net.cpp:91] Creating Layer inception_4d/output_inception_4d/output_0_split
I0403 16:02:22.216075 20664 net.cpp:425] inception_4d/output_inception_4d/output_0_split <- inception_4d/output
I0403 16:02:22.216095 20664 net.cpp:399] inception_4d/output_inception_4d/output_0_split -> inception_4d/output_inception_4d/output_0_split_0
I0403 16:02:22.216116 20664 net.cpp:399] inception_4d/output_inception_4d/output_0_split -> inception_4d/output_inception_4d/output_0_split_1
I0403 16:02:22.216136 20664 net.cpp:399] inception_4d/output_inception_4d/output_0_split -> inception_4d/output_inception_4d/output_0_split_2
I0403 16:02:22.216156 20664 net.cpp:399] inception_4d/output_inception_4d/output_0_split -> inception_4d/output_inception_4d/output_0_split_3
I0403 16:02:22.216176 20664 net.cpp:399] inception_4d/output_inception_4d/output_0_split -> inception_4d/output_inception_4d/output_0_split_4
I0403 16:02:22.216279 20664 net.cpp:141] Setting up inception_4d/output_inception_4d/output_0_split
I0403 16:02:22.216313 20664 net.cpp:148] Top shape: 24 528 14 14 (2483712)
I0403 16:02:22.216332 20664 net.cpp:148] Top shape: 24 528 14 14 (2483712)
I0403 16:02:22.216348 20664 net.cpp:148] Top shape: 24 528 14 14 (2483712)
I0403 16:02:22.216364 20664 net.cpp:148] Top shape: 24 528 14 14 (2483712)
I0403 16:02:22.216379 20664 net.cpp:148] Top shape: 24 528 14 14 (2483712)
I0403 16:02:22.216393 20664 net.cpp:156] Memory required for data: 1206918432
I0403 16:02:22.216408 20664 layer_factory.hpp:77] Creating layer loss2/ave_pool
I0403 16:02:22.216424 20664 net.cpp:91] Creating Layer loss2/ave_pool
I0403 16:02:22.216440 20664 net.cpp:425] loss2/ave_pool <- inception_4d/output_inception_4d/output_0_split_0
I0403 16:02:22.216460 20664 net.cpp:399] loss2/ave_pool -> loss2/ave_pool
I0403 16:02:22.216780 20664 net.cpp:141] Setting up loss2/ave_pool
I0403 16:02:22.216806 20664 net.cpp:148] Top shape: 24 528 4 4 (202752)
I0403 16:02:22.216821 20664 net.cpp:156] Memory required for data: 1207729440
I0403 16:02:22.216836 20664 layer_factory.hpp:77] Creating layer loss2/conv
I0403 16:02:22.216857 20664 net.cpp:91] Creating Layer loss2/conv
I0403 16:02:22.216876 20664 net.cpp:425] loss2/conv <- loss2/ave_pool
I0403 16:02:22.216895 20664 net.cpp:399] loss2/conv -> loss2/conv
I0403 16:02:22.218804 20664 net.cpp:141] Setting up loss2/conv
I0403 16:02:22.218832 20664 net.cpp:148] Top shape: 24 128 4 4 (49152)
I0403 16:02:22.218859 20664 net.cpp:156] Memory required for data: 1207926048
I0403 16:02:22.218878 20664 layer_factory.hpp:77] Creating layer loss2/relu_conv
I0403 16:02:22.218897 20664 net.cpp:91] Creating Layer loss2/relu_conv
I0403 16:02:22.218914 20664 net.cpp:425] loss2/relu_conv <- loss2/conv
I0403 16:02:22.218931 20664 net.cpp:386] loss2/relu_conv -> loss2/conv (in-place)
I0403 16:02:22.219236 20664 net.cpp:141] Setting up loss2/relu_conv
I0403 16:02:22.219261 20664 net.cpp:148] Top shape: 24 128 4 4 (49152)
I0403 16:02:22.219276 20664 net.cpp:156] Memory required for data: 1208122656
I0403 16:02:22.219290 20664 layer_factory.hpp:77] Creating layer loss2/fc
I0403 16:02:22.219310 20664 net.cpp:91] Creating Layer loss2/fc
I0403 16:02:22.219327 20664 net.cpp:425] loss2/fc <- loss2/conv
I0403 16:02:22.219344 20664 net.cpp:399] loss2/fc -> loss2/fc
I0403 16:02:22.236784 20664 net.cpp:141] Setting up loss2/fc
I0403 16:02:22.236814 20664 net.cpp:148] Top shape: 24 1024 (24576)
I0403 16:02:22.236829 20664 net.cpp:156] Memory required for data: 1208220960
I0403 16:02:22.236846 20664 layer_factory.hpp:77] Creating layer loss2/relu_fc
I0403 16:02:22.236863 20664 net.cpp:91] Creating Layer loss2/relu_fc
I0403 16:02:22.236879 20664 net.cpp:425] loss2/relu_fc <- loss2/fc
I0403 16:02:22.236898 20664 net.cpp:386] loss2/relu_fc -> loss2/fc (in-place)
I0403 16:02:22.237198 20664 net.cpp:141] Setting up loss2/relu_fc
I0403 16:02:22.237224 20664 net.cpp:148] Top shape: 24 1024 (24576)
I0403 16:02:22.237238 20664 net.cpp:156] Memory required for data: 1208319264
I0403 16:02:22.237253 20664 layer_factory.hpp:77] Creating layer loss2/drop_fc
I0403 16:02:22.237270 20664 net.cpp:91] Creating Layer loss2/drop_fc
I0403 16:02:22.237285 20664 net.cpp:425] loss2/drop_fc <- loss2/fc
I0403 16:02:22.237304 20664 net.cpp:386] loss2/drop_fc -> loss2/fc (in-place)
I0403 16:02:22.237351 20664 net.cpp:141] Setting up loss2/drop_fc
I0403 16:02:22.237376 20664 net.cpp:148] Top shape: 24 1024 (24576)
I0403 16:02:22.237391 20664 net.cpp:156] Memory required for data: 1208417568
I0403 16:02:22.237406 20664 layer_factory.hpp:77] Creating layer loss2/classifier_plantvillage
I0403 16:02:22.237421 20664 net.cpp:91] Creating Layer loss2/classifier_plantvillage
I0403 16:02:22.237437 20664 net.cpp:425] loss2/classifier_plantvillage <- loss2/fc
I0403 16:02:22.237457 20664 net.cpp:399] loss2/classifier_plantvillage -> loss2/classifier_plantvillage
I0403 16:02:22.237845 20664 net.cpp:141] Setting up loss2/classifier_plantvillage
I0403 16:02:22.237872 20664 net.cpp:148] Top shape: 24 38 (912)
I0403 16:02:22.237901 20664 net.cpp:156] Memory required for data: 1208421216
I0403 16:02:22.237920 20664 layer_factory.hpp:77] Creating layer loss2/classifier_plantvillage_loss2/classifier_plantvillage_0_split
I0403 16:02:22.237936 20664 net.cpp:91] Creating Layer loss2/classifier_plantvillage_loss2/classifier_plantvillage_0_split
I0403 16:02:22.237951 20664 net.cpp:425] loss2/classifier_plantvillage_loss2/classifier_plantvillage_0_split <- loss2/classifier_plantvillage
I0403 16:02:22.237970 20664 net.cpp:399] loss2/classifier_plantvillage_loss2/classifier_plantvillage_0_split -> loss2/classifier_plantvillage_loss2/classifier_plantvillage_0_split_0
I0403 16:02:22.237989 20664 net.cpp:399] loss2/classifier_plantvillage_loss2/classifier_plantvillage_0_split -> loss2/classifier_plantvillage_loss2/classifier_plantvillage_0_split_1
I0403 16:02:22.238011 20664 net.cpp:399] loss2/classifier_plantvillage_loss2/classifier_plantvillage_0_split -> loss2/classifier_plantvillage_loss2/classifier_plantvillage_0_split_2
I0403 16:02:22.238100 20664 net.cpp:141] Setting up loss2/classifier_plantvillage_loss2/classifier_plantvillage_0_split
I0403 16:02:22.238122 20664 net.cpp:148] Top shape: 24 38 (912)
I0403 16:02:22.238137 20664 net.cpp:148] Top shape: 24 38 (912)
I0403 16:02:22.238152 20664 net.cpp:148] Top shape: 24 38 (912)
I0403 16:02:22.238165 20664 net.cpp:156] Memory required for data: 1208432160
I0403 16:02:22.238178 20664 layer_factory.hpp:77] Creating layer inception_4e/1x1
I0403 16:02:22.238198 20664 net.cpp:91] Creating Layer inception_4e/1x1
I0403 16:02:22.238212 20664 net.cpp:425] inception_4e/1x1 <- inception_4d/output_inception_4d/output_0_split_1
I0403 16:02:22.238232 20664 net.cpp:399] inception_4e/1x1 -> inception_4e/1x1
I0403 16:02:22.239996 20664 net.cpp:141] Setting up inception_4e/1x1
I0403 16:02:22.240027 20664 net.cpp:148] Top shape: 24 256 14 14 (1204224)
I0403 16:02:22.240042 20664 net.cpp:156] Memory required for data: 1213249056
I0403 16:02:22.240061 20664 layer_factory.hpp:77] Creating layer inception_4e/relu_1x1
I0403 16:02:22.240079 20664 net.cpp:91] Creating Layer inception_4e/relu_1x1
I0403 16:02:22.240095 20664 net.cpp:425] inception_4e/relu_1x1 <- inception_4e/1x1
I0403 16:02:22.240111 20664 net.cpp:386] inception_4e/relu_1x1 -> inception_4e/1x1 (in-place)
I0403 16:02:22.240399 20664 net.cpp:141] Setting up inception_4e/relu_1x1
I0403 16:02:22.240424 20664 net.cpp:148] Top shape: 24 256 14 14 (1204224)
I0403 16:02:22.240438 20664 net.cpp:156] Memory required for data: 1218065952
I0403 16:02:22.240453 20664 layer_factory.hpp:77] Creating layer inception_4e/3x3_reduce
I0403 16:02:22.240478 20664 net.cpp:91] Creating Layer inception_4e/3x3_reduce
I0403 16:02:22.240494 20664 net.cpp:425] inception_4e/3x3_reduce <- inception_4d/output_inception_4d/output_0_split_2
I0403 16:02:22.240512 20664 net.cpp:399] inception_4e/3x3_reduce -> inception_4e/3x3_reduce
I0403 16:02:22.242566 20664 net.cpp:141] Setting up inception_4e/3x3_reduce
I0403 16:02:22.242594 20664 net.cpp:148] Top shape: 24 160 14 14 (752640)
I0403 16:02:22.242609 20664 net.cpp:156] Memory required for data: 1221076512
I0403 16:02:22.242625 20664 layer_factory.hpp:77] Creating layer inception_4e/relu_3x3_reduce
I0403 16:02:22.242645 20664 net.cpp:91] Creating Layer inception_4e/relu_3x3_reduce
I0403 16:02:22.242661 20664 net.cpp:425] inception_4e/relu_3x3_reduce <- inception_4e/3x3_reduce
I0403 16:02:22.242678 20664 net.cpp:386] inception_4e/relu_3x3_reduce -> inception_4e/3x3_reduce (in-place)
I0403 16:02:22.242862 20664 net.cpp:141] Setting up inception_4e/relu_3x3_reduce
I0403 16:02:22.242888 20664 net.cpp:148] Top shape: 24 160 14 14 (752640)
I0403 16:02:22.242902 20664 net.cpp:156] Memory required for data: 1224087072
I0403 16:02:22.242918 20664 layer_factory.hpp:77] Creating layer inception_4e/3x3
I0403 16:02:22.242938 20664 net.cpp:91] Creating Layer inception_4e/3x3
I0403 16:02:22.242954 20664 net.cpp:425] inception_4e/3x3 <- inception_4e/3x3_reduce
I0403 16:02:22.242972 20664 net.cpp:399] inception_4e/3x3 -> inception_4e/3x3
I0403 16:02:22.248137 20664 net.cpp:141] Setting up inception_4e/3x3
I0403 16:02:22.248196 20664 net.cpp:148] Top shape: 24 320 14 14 (1505280)
I0403 16:02:22.248214 20664 net.cpp:156] Memory required for data: 1230108192
I0403 16:02:22.248234 20664 layer_factory.hpp:77] Creating layer inception_4e/relu_3x3
I0403 16:02:22.248251 20664 net.cpp:91] Creating Layer inception_4e/relu_3x3
I0403 16:02:22.248267 20664 net.cpp:425] inception_4e/relu_3x3 <- inception_4e/3x3
I0403 16:02:22.248287 20664 net.cpp:386] inception_4e/relu_3x3 -> inception_4e/3x3 (in-place)
I0403 16:02:22.248597 20664 net.cpp:141] Setting up inception_4e/relu_3x3
I0403 16:02:22.248627 20664 net.cpp:148] Top shape: 24 320 14 14 (1505280)
I0403 16:02:22.248643 20664 net.cpp:156] Memory required for data: 1236129312
I0403 16:02:22.248658 20664 layer_factory.hpp:77] Creating layer inception_4e/5x5_reduce
I0403 16:02:22.248693 20664 net.cpp:91] Creating Layer inception_4e/5x5_reduce
I0403 16:02:22.248711 20664 net.cpp:425] inception_4e/5x5_reduce <- inception_4d/output_inception_4d/output_0_split_3
I0403 16:02:22.248730 20664 net.cpp:399] inception_4e/5x5_reduce -> inception_4e/5x5_reduce
I0403 16:02:22.249814 20664 net.cpp:141] Setting up inception_4e/5x5_reduce
I0403 16:02:22.249841 20664 net.cpp:148] Top shape: 24 32 14 14 (150528)
I0403 16:02:22.249856 20664 net.cpp:156] Memory required for data: 1236731424
I0403 16:02:22.249874 20664 layer_factory.hpp:77] Creating layer inception_4e/relu_5x5_reduce
I0403 16:02:22.249894 20664 net.cpp:91] Creating Layer inception_4e/relu_5x5_reduce
I0403 16:02:22.249912 20664 net.cpp:425] inception_4e/relu_5x5_reduce <- inception_4e/5x5_reduce
I0403 16:02:22.249928 20664 net.cpp:386] inception_4e/relu_5x5_reduce -> inception_4e/5x5_reduce (in-place)
I0403 16:02:22.250239 20664 net.cpp:141] Setting up inception_4e/relu_5x5_reduce
I0403 16:02:22.250265 20664 net.cpp:148] Top shape: 24 32 14 14 (150528)
I0403 16:02:22.250280 20664 net.cpp:156] Memory required for data: 1237333536
I0403 16:02:22.250295 20664 layer_factory.hpp:77] Creating layer inception_4e/5x5
I0403 16:02:22.250332 20664 net.cpp:91] Creating Layer inception_4e/5x5
I0403 16:02:22.250351 20664 net.cpp:425] inception_4e/5x5 <- inception_4e/5x5_reduce
I0403 16:02:22.250372 20664 net.cpp:399] inception_4e/5x5 -> inception_4e/5x5
I0403 16:02:22.252246 20664 net.cpp:141] Setting up inception_4e/5x5
I0403 16:02:22.252274 20664 net.cpp:148] Top shape: 24 128 14 14 (602112)
I0403 16:02:22.252290 20664 net.cpp:156] Memory required for data: 1239741984
I0403 16:02:22.252307 20664 layer_factory.hpp:77] Creating layer inception_4e/relu_5x5
I0403 16:02:22.252326 20664 net.cpp:91] Creating Layer inception_4e/relu_5x5
I0403 16:02:22.252341 20664 net.cpp:425] inception_4e/relu_5x5 <- inception_4e/5x5
I0403 16:02:22.252360 20664 net.cpp:386] inception_4e/relu_5x5 -> inception_4e/5x5 (in-place)
I0403 16:02:22.252563 20664 net.cpp:141] Setting up inception_4e/relu_5x5
I0403 16:02:22.252588 20664 net.cpp:148] Top shape: 24 128 14 14 (602112)
I0403 16:02:22.252604 20664 net.cpp:156] Memory required for data: 1242150432
I0403 16:02:22.252617 20664 layer_factory.hpp:77] Creating layer inception_4e/pool
I0403 16:02:22.252637 20664 net.cpp:91] Creating Layer inception_4e/pool
I0403 16:02:22.252655 20664 net.cpp:425] inception_4e/pool <- inception_4d/output_inception_4d/output_0_split_4
I0403 16:02:22.252671 20664 net.cpp:399] inception_4e/pool -> inception_4e/pool
I0403 16:02:22.252742 20664 net.cpp:141] Setting up inception_4e/pool
I0403 16:02:22.252766 20664 net.cpp:148] Top shape: 24 528 14 14 (2483712)
I0403 16:02:22.252780 20664 net.cpp:156] Memory required for data: 1252085280
I0403 16:02:22.252794 20664 layer_factory.hpp:77] Creating layer inception_4e/pool_proj
I0403 16:02:22.252816 20664 net.cpp:91] Creating Layer inception_4e/pool_proj
I0403 16:02:22.252835 20664 net.cpp:425] inception_4e/pool_proj <- inception_4e/pool
I0403 16:02:22.252856 20664 net.cpp:399] inception_4e/pool_proj -> inception_4e/pool_proj
I0403 16:02:22.254469 20664 net.cpp:141] Setting up inception_4e/pool_proj
I0403 16:02:22.254510 20664 net.cpp:148] Top shape: 24 128 14 14 (602112)
I0403 16:02:22.254528 20664 net.cpp:156] Memory required for data: 1254493728
I0403 16:02:22.254545 20664 layer_factory.hpp:77] Creating layer inception_4e/relu_pool_proj
I0403 16:02:22.254565 20664 net.cpp:91] Creating Layer inception_4e/relu_pool_proj
I0403 16:02:22.254581 20664 net.cpp:425] inception_4e/relu_pool_proj <- inception_4e/pool_proj
I0403 16:02:22.254602 20664 net.cpp:386] inception_4e/relu_pool_proj -> inception_4e/pool_proj (in-place)
I0403 16:02:22.254909 20664 net.cpp:141] Setting up inception_4e/relu_pool_proj
I0403 16:02:22.254935 20664 net.cpp:148] Top shape: 24 128 14 14 (602112)
I0403 16:02:22.254951 20664 net.cpp:156] Memory required for data: 1256902176
I0403 16:02:22.254967 20664 layer_factory.hpp:77] Creating layer inception_4e/output
I0403 16:02:22.254986 20664 net.cpp:91] Creating Layer inception_4e/output
I0403 16:02:22.255002 20664 net.cpp:425] inception_4e/output <- inception_4e/1x1
I0403 16:02:22.255022 20664 net.cpp:425] inception_4e/output <- inception_4e/3x3
I0403 16:02:22.255039 20664 net.cpp:425] inception_4e/output <- inception_4e/5x5
I0403 16:02:22.255055 20664 net.cpp:425] inception_4e/output <- inception_4e/pool_proj
I0403 16:02:22.255075 20664 net.cpp:399] inception_4e/output -> inception_4e/output
I0403 16:02:22.255125 20664 net.cpp:141] Setting up inception_4e/output
I0403 16:02:22.255152 20664 net.cpp:148] Top shape: 24 832 14 14 (3913728)
I0403 16:02:22.255167 20664 net.cpp:156] Memory required for data: 1272557088
I0403 16:02:22.255182 20664 layer_factory.hpp:77] Creating layer pool4/3x3_s2
I0403 16:02:22.255199 20664 net.cpp:91] Creating Layer pool4/3x3_s2
I0403 16:02:22.255215 20664 net.cpp:425] pool4/3x3_s2 <- inception_4e/output
I0403 16:02:22.255234 20664 net.cpp:399] pool4/3x3_s2 -> pool4/3x3_s2
I0403 16:02:22.255303 20664 net.cpp:141] Setting up pool4/3x3_s2
I0403 16:02:22.255327 20664 net.cpp:148] Top shape: 24 832 7 7 (978432)
I0403 16:02:22.255342 20664 net.cpp:156] Memory required for data: 1276470816
I0403 16:02:22.255357 20664 layer_factory.hpp:77] Creating layer pool4/3x3_s2_pool4/3x3_s2_0_split
I0403 16:02:22.255373 20664 net.cpp:91] Creating Layer pool4/3x3_s2_pool4/3x3_s2_0_split
I0403 16:02:22.255389 20664 net.cpp:425] pool4/3x3_s2_pool4/3x3_s2_0_split <- pool4/3x3_s2
I0403 16:02:22.255409 20664 net.cpp:399] pool4/3x3_s2_pool4/3x3_s2_0_split -> pool4/3x3_s2_pool4/3x3_s2_0_split_0
I0403 16:02:22.255429 20664 net.cpp:399] pool4/3x3_s2_pool4/3x3_s2_0_split -> pool4/3x3_s2_pool4/3x3_s2_0_split_1
I0403 16:02:22.255450 20664 net.cpp:399] pool4/3x3_s2_pool4/3x3_s2_0_split -> pool4/3x3_s2_pool4/3x3_s2_0_split_2
I0403 16:02:22.255472 20664 net.cpp:399] pool4/3x3_s2_pool4/3x3_s2_0_split -> pool4/3x3_s2_pool4/3x3_s2_0_split_3
I0403 16:02:22.255568 20664 net.cpp:141] Setting up pool4/3x3_s2_pool4/3x3_s2_0_split
I0403 16:02:22.255592 20664 net.cpp:148] Top shape: 24 832 7 7 (978432)
I0403 16:02:22.255609 20664 net.cpp:148] Top shape: 24 832 7 7 (978432)
I0403 16:02:22.255625 20664 net.cpp:148] Top shape: 24 832 7 7 (978432)
I0403 16:02:22.255640 20664 net.cpp:148] Top shape: 24 832 7 7 (978432)
I0403 16:02:22.255653 20664 net.cpp:156] Memory required for data: 1292125728
I0403 16:02:22.255668 20664 layer_factory.hpp:77] Creating layer inception_5a/1x1
I0403 16:02:22.255691 20664 net.cpp:91] Creating Layer inception_5a/1x1
I0403 16:02:22.255708 20664 net.cpp:425] inception_5a/1x1 <- pool4/3x3_s2_pool4/3x3_s2_0_split_0
I0403 16:02:22.255729 20664 net.cpp:399] inception_5a/1x1 -> inception_5a/1x1
I0403 16:02:22.258687 20664 net.cpp:141] Setting up inception_5a/1x1
I0403 16:02:22.258718 20664 net.cpp:148] Top shape: 24 256 7 7 (301056)
I0403 16:02:22.258733 20664 net.cpp:156] Memory required for data: 1293329952
I0403 16:02:22.258752 20664 layer_factory.hpp:77] Creating layer inception_5a/relu_1x1
I0403 16:02:22.258774 20664 net.cpp:91] Creating Layer inception_5a/relu_1x1
I0403 16:02:22.258791 20664 net.cpp:425] inception_5a/relu_1x1 <- inception_5a/1x1
I0403 16:02:22.258808 20664 net.cpp:386] inception_5a/relu_1x1 -> inception_5a/1x1 (in-place)
I0403 16:02:22.259138 20664 net.cpp:141] Setting up inception_5a/relu_1x1
I0403 16:02:22.259165 20664 net.cpp:148] Top shape: 24 256 7 7 (301056)
I0403 16:02:22.259181 20664 net.cpp:156] Memory required for data: 1294534176
I0403 16:02:22.259196 20664 layer_factory.hpp:77] Creating layer inception_5a/3x3_reduce
I0403 16:02:22.259217 20664 net.cpp:91] Creating Layer inception_5a/3x3_reduce
I0403 16:02:22.259237 20664 net.cpp:425] inception_5a/3x3_reduce <- pool4/3x3_s2_pool4/3x3_s2_0_split_1
I0403 16:02:22.259258 20664 net.cpp:399] inception_5a/3x3_reduce -> inception_5a/3x3_reduce
I0403 16:02:22.261831 20664 net.cpp:141] Setting up inception_5a/3x3_reduce
I0403 16:02:22.261862 20664 net.cpp:148] Top shape: 24 160 7 7 (188160)
I0403 16:02:22.261878 20664 net.cpp:156] Memory required for data: 1295286816
I0403 16:02:22.261895 20664 layer_factory.hpp:77] Creating layer inception_5a/relu_3x3_reduce
I0403 16:02:22.261914 20664 net.cpp:91] Creating Layer inception_5a/relu_3x3_reduce
I0403 16:02:22.261930 20664 net.cpp:425] inception_5a/relu_3x3_reduce <- inception_5a/3x3_reduce
I0403 16:02:22.261950 20664 net.cpp:386] inception_5a/relu_3x3_reduce -> inception_5a/3x3_reduce (in-place)
I0403 16:02:22.262156 20664 net.cpp:141] Setting up inception_5a/relu_3x3_reduce
I0403 16:02:22.262182 20664 net.cpp:148] Top shape: 24 160 7 7 (188160)
I0403 16:02:22.262197 20664 net.cpp:156] Memory required for data: 1296039456
I0403 16:02:22.262212 20664 layer_factory.hpp:77] Creating layer inception_5a/3x3
I0403 16:02:22.262236 20664 net.cpp:91] Creating Layer inception_5a/3x3
I0403 16:02:22.262254 20664 net.cpp:425] inception_5a/3x3 <- inception_5a/3x3_reduce
I0403 16:02:22.262276 20664 net.cpp:399] inception_5a/3x3 -> inception_5a/3x3
I0403 16:02:22.267510 20664 net.cpp:141] Setting up inception_5a/3x3
I0403 16:02:22.267541 20664 net.cpp:148] Top shape: 24 320 7 7 (376320)
I0403 16:02:22.267557 20664 net.cpp:156] Memory required for data: 1297544736
I0403 16:02:22.267575 20664 layer_factory.hpp:77] Creating layer inception_5a/relu_3x3
I0403 16:02:22.267596 20664 net.cpp:91] Creating Layer inception_5a/relu_3x3
I0403 16:02:22.267614 20664 net.cpp:425] inception_5a/relu_3x3 <- inception_5a/3x3
I0403 16:02:22.267632 20664 net.cpp:386] inception_5a/relu_3x3 -> inception_5a/3x3 (in-place)
I0403 16:02:22.267943 20664 net.cpp:141] Setting up inception_5a/relu_3x3
I0403 16:02:22.267972 20664 net.cpp:148] Top shape: 24 320 7 7 (376320)
I0403 16:02:22.267987 20664 net.cpp:156] Memory required for data: 1299050016
I0403 16:02:22.268003 20664 layer_factory.hpp:77] Creating layer inception_5a/5x5_reduce
I0403 16:02:22.268035 20664 net.cpp:91] Creating Layer inception_5a/5x5_reduce
I0403 16:02:22.268056 20664 net.cpp:425] inception_5a/5x5_reduce <- pool4/3x3_s2_pool4/3x3_s2_0_split_2
I0403 16:02:22.268079 20664 net.cpp:399] inception_5a/5x5_reduce -> inception_5a/5x5_reduce
I0403 16:02:22.269310 20664 net.cpp:141] Setting up inception_5a/5x5_reduce
I0403 16:02:22.269343 20664 net.cpp:148] Top shape: 24 32 7 7 (37632)
I0403 16:02:22.269361 20664 net.cpp:156] Memory required for data: 1299200544
I0403 16:02:22.269379 20664 layer_factory.hpp:77] Creating layer inception_5a/relu_5x5_reduce
I0403 16:02:22.269397 20664 net.cpp:91] Creating Layer inception_5a/relu_5x5_reduce
I0403 16:02:22.269412 20664 net.cpp:425] inception_5a/relu_5x5_reduce <- inception_5a/5x5_reduce
I0403 16:02:22.269430 20664 net.cpp:386] inception_5a/relu_5x5_reduce -> inception_5a/5x5_reduce (in-place)
I0403 16:02:22.269742 20664 net.cpp:141] Setting up inception_5a/relu_5x5_reduce
I0403 16:02:22.269767 20664 net.cpp:148] Top shape: 24 32 7 7 (37632)
I0403 16:02:22.269783 20664 net.cpp:156] Memory required for data: 1299351072
I0403 16:02:22.269798 20664 layer_factory.hpp:77] Creating layer inception_5a/5x5
I0403 16:02:22.269820 20664 net.cpp:91] Creating Layer inception_5a/5x5
I0403 16:02:22.269839 20664 net.cpp:425] inception_5a/5x5 <- inception_5a/5x5_reduce
I0403 16:02:22.269860 20664 net.cpp:399] inception_5a/5x5 -> inception_5a/5x5
I0403 16:02:22.271702 20664 net.cpp:141] Setting up inception_5a/5x5
I0403 16:02:22.271740 20664 net.cpp:148] Top shape: 24 128 7 7 (150528)
I0403 16:02:22.271756 20664 net.cpp:156] Memory required for data: 1299953184
I0403 16:02:22.271775 20664 layer_factory.hpp:77] Creating layer inception_5a/relu_5x5
I0403 16:02:22.271795 20664 net.cpp:91] Creating Layer inception_5a/relu_5x5
I0403 16:02:22.271811 20664 net.cpp:425] inception_5a/relu_5x5 <- inception_5a/5x5
I0403 16:02:22.271829 20664 net.cpp:386] inception_5a/relu_5x5 -> inception_5a/5x5 (in-place)
I0403 16:02:22.272027 20664 net.cpp:141] Setting up inception_5a/relu_5x5
I0403 16:02:22.272053 20664 net.cpp:148] Top shape: 24 128 7 7 (150528)
I0403 16:02:22.272068 20664 net.cpp:156] Memory required for data: 1300555296
I0403 16:02:22.272083 20664 layer_factory.hpp:77] Creating layer inception_5a/pool
I0403 16:02:22.272102 20664 net.cpp:91] Creating Layer inception_5a/pool
I0403 16:02:22.272119 20664 net.cpp:425] inception_5a/pool <- pool4/3x3_s2_pool4/3x3_s2_0_split_3
I0403 16:02:22.272136 20664 net.cpp:399] inception_5a/pool -> inception_5a/pool
I0403 16:02:22.272207 20664 net.cpp:141] Setting up inception_5a/pool
I0403 16:02:22.272231 20664 net.cpp:148] Top shape: 24 832 7 7 (978432)
I0403 16:02:22.272245 20664 net.cpp:156] Memory required for data: 1304469024
I0403 16:02:22.272260 20664 layer_factory.hpp:77] Creating layer inception_5a/pool_proj
I0403 16:02:22.272281 20664 net.cpp:91] Creating Layer inception_5a/pool_proj
I0403 16:02:22.272300 20664 net.cpp:425] inception_5a/pool_proj <- inception_5a/pool
I0403 16:02:22.272320 20664 net.cpp:399] inception_5a/pool_proj -> inception_5a/pool_proj
I0403 16:02:22.274623 20664 net.cpp:141] Setting up inception_5a/pool_proj
I0403 16:02:22.274652 20664 net.cpp:148] Top shape: 24 128 7 7 (150528)
I0403 16:02:22.274667 20664 net.cpp:156] Memory required for data: 1305071136
I0403 16:02:22.274685 20664 layer_factory.hpp:77] Creating layer inception_5a/relu_pool_proj
I0403 16:02:22.274703 20664 net.cpp:91] Creating Layer inception_5a/relu_pool_proj
I0403 16:02:22.274718 20664 net.cpp:425] inception_5a/relu_pool_proj <- inception_5a/pool_proj
I0403 16:02:22.274739 20664 net.cpp:386] inception_5a/relu_pool_proj -> inception_5a/pool_proj (in-place)
I0403 16:02:22.275040 20664 net.cpp:141] Setting up inception_5a/relu_pool_proj
I0403 16:02:22.275066 20664 net.cpp:148] Top shape: 24 128 7 7 (150528)
I0403 16:02:22.275081 20664 net.cpp:156] Memory required for data: 1305673248
I0403 16:02:22.275096 20664 layer_factory.hpp:77] Creating layer inception_5a/output
I0403 16:02:22.275113 20664 net.cpp:91] Creating Layer inception_5a/output
I0403 16:02:22.275130 20664 net.cpp:425] inception_5a/output <- inception_5a/1x1
I0403 16:02:22.275146 20664 net.cpp:425] inception_5a/output <- inception_5a/3x3
I0403 16:02:22.275161 20664 net.cpp:425] inception_5a/output <- inception_5a/5x5
I0403 16:02:22.275177 20664 net.cpp:425] inception_5a/output <- inception_5a/pool_proj
I0403 16:02:22.275197 20664 net.cpp:399] inception_5a/output -> inception_5a/output
I0403 16:02:22.275245 20664 net.cpp:141] Setting up inception_5a/output
I0403 16:02:22.275270 20664 net.cpp:148] Top shape: 24 832 7 7 (978432)
I0403 16:02:22.275285 20664 net.cpp:156] Memory required for data: 1309586976
I0403 16:02:22.275300 20664 layer_factory.hpp:77] Creating layer inception_5a/output_inception_5a/output_0_split
I0403 16:02:22.275317 20664 net.cpp:91] Creating Layer inception_5a/output_inception_5a/output_0_split
I0403 16:02:22.275332 20664 net.cpp:425] inception_5a/output_inception_5a/output_0_split <- inception_5a/output
I0403 16:02:22.275351 20664 net.cpp:399] inception_5a/output_inception_5a/output_0_split -> inception_5a/output_inception_5a/output_0_split_0
I0403 16:02:22.275374 20664 net.cpp:399] inception_5a/output_inception_5a/output_0_split -> inception_5a/output_inception_5a/output_0_split_1
I0403 16:02:22.275394 20664 net.cpp:399] inception_5a/output_inception_5a/output_0_split -> inception_5a/output_inception_5a/output_0_split_2
I0403 16:02:22.275414 20664 net.cpp:399] inception_5a/output_inception_5a/output_0_split -> inception_5a/output_inception_5a/output_0_split_3
I0403 16:02:22.275526 20664 net.cpp:141] Setting up inception_5a/output_inception_5a/output_0_split
I0403 16:02:22.275549 20664 net.cpp:148] Top shape: 24 832 7 7 (978432)
I0403 16:02:22.275565 20664 net.cpp:148] Top shape: 24 832 7 7 (978432)
I0403 16:02:22.275580 20664 net.cpp:148] Top shape: 24 832 7 7 (978432)
I0403 16:02:22.275595 20664 net.cpp:148] Top shape: 24 832 7 7 (978432)
I0403 16:02:22.275609 20664 net.cpp:156] Memory required for data: 1325241888
I0403 16:02:22.275622 20664 layer_factory.hpp:77] Creating layer inception_5b/1x1
I0403 16:02:22.275645 20664 net.cpp:91] Creating Layer inception_5b/1x1
I0403 16:02:22.275661 20664 net.cpp:425] inception_5b/1x1 <- inception_5a/output_inception_5a/output_0_split_0
I0403 16:02:22.275682 20664 net.cpp:399] inception_5b/1x1 -> inception_5b/1x1
I0403 16:02:22.279491 20664 net.cpp:141] Setting up inception_5b/1x1
I0403 16:02:22.279521 20664 net.cpp:148] Top shape: 24 384 7 7 (451584)
I0403 16:02:22.279537 20664 net.cpp:156] Memory required for data: 1327048224
I0403 16:02:22.279556 20664 layer_factory.hpp:77] Creating layer inception_5b/relu_1x1
I0403 16:02:22.279572 20664 net.cpp:91] Creating Layer inception_5b/relu_1x1
I0403 16:02:22.279588 20664 net.cpp:425] inception_5b/relu_1x1 <- inception_5b/1x1
I0403 16:02:22.279608 20664 net.cpp:386] inception_5b/relu_1x1 -> inception_5b/1x1 (in-place)
I0403 16:02:22.279920 20664 net.cpp:141] Setting up inception_5b/relu_1x1
I0403 16:02:22.279947 20664 net.cpp:148] Top shape: 24 384 7 7 (451584)
I0403 16:02:22.279963 20664 net.cpp:156] Memory required for data: 1328854560
I0403 16:02:22.279978 20664 layer_factory.hpp:77] Creating layer inception_5b/3x3_reduce
I0403 16:02:22.279999 20664 net.cpp:91] Creating Layer inception_5b/3x3_reduce
I0403 16:02:22.280021 20664 net.cpp:425] inception_5b/3x3_reduce <- inception_5a/output_inception_5a/output_0_split_1
I0403 16:02:22.280045 20664 net.cpp:399] inception_5b/3x3_reduce -> inception_5b/3x3_reduce
I0403 16:02:22.282759 20664 net.cpp:141] Setting up inception_5b/3x3_reduce
I0403 16:02:22.282790 20664 net.cpp:148] Top shape: 24 192 7 7 (225792)
I0403 16:02:22.282806 20664 net.cpp:156] Memory required for data: 1329757728
I0403 16:02:22.282825 20664 layer_factory.hpp:77] Creating layer inception_5b/relu_3x3_reduce
I0403 16:02:22.282842 20664 net.cpp:91] Creating Layer inception_5b/relu_3x3_reduce
I0403 16:02:22.282860 20664 net.cpp:425] inception_5b/relu_3x3_reduce <- inception_5b/3x3_reduce
I0403 16:02:22.282878 20664 net.cpp:386] inception_5b/relu_3x3_reduce -> inception_5b/3x3_reduce (in-place)
I0403 16:02:22.283076 20664 net.cpp:141] Setting up inception_5b/relu_3x3_reduce
I0403 16:02:22.283100 20664 net.cpp:148] Top shape: 24 192 7 7 (225792)
I0403 16:02:22.283115 20664 net.cpp:156] Memory required for data: 1330660896
I0403 16:02:22.283129 20664 layer_factory.hpp:77] Creating layer inception_5b/3x3
I0403 16:02:22.283151 20664 net.cpp:91] Creating Layer inception_5b/3x3
I0403 16:02:22.283169 20664 net.cpp:425] inception_5b/3x3 <- inception_5b/3x3_reduce
I0403 16:02:22.283191 20664 net.cpp:399] inception_5b/3x3 -> inception_5b/3x3
I0403 16:02:22.290225 20664 net.cpp:141] Setting up inception_5b/3x3
I0403 16:02:22.290254 20664 net.cpp:148] Top shape: 24 384 7 7 (451584)
I0403 16:02:22.290271 20664 net.cpp:156] Memory required for data: 1332467232
I0403 16:02:22.290288 20664 layer_factory.hpp:77] Creating layer inception_5b/relu_3x3
I0403 16:02:22.290307 20664 net.cpp:91] Creating Layer inception_5b/relu_3x3
I0403 16:02:22.290352 20664 net.cpp:425] inception_5b/relu_3x3 <- inception_5b/3x3
I0403 16:02:22.290370 20664 net.cpp:386] inception_5b/relu_3x3 -> inception_5b/3x3 (in-place)
I0403 16:02:22.290689 20664 net.cpp:141] Setting up inception_5b/relu_3x3
I0403 16:02:22.290716 20664 net.cpp:148] Top shape: 24 384 7 7 (451584)
I0403 16:02:22.290730 20664 net.cpp:156] Memory required for data: 1334273568
I0403 16:02:22.290745 20664 layer_factory.hpp:77] Creating layer inception_5b/5x5_reduce
I0403 16:02:22.290784 20664 net.cpp:91] Creating Layer inception_5b/5x5_reduce
I0403 16:02:22.290802 20664 net.cpp:425] inception_5b/5x5_reduce <- inception_5a/output_inception_5a/output_0_split_2
I0403 16:02:22.290825 20664 net.cpp:399] inception_5b/5x5_reduce -> inception_5b/5x5_reduce
I0403 16:02:22.292170 20664 net.cpp:141] Setting up inception_5b/5x5_reduce
I0403 16:02:22.292197 20664 net.cpp:148] Top shape: 24 48 7 7 (56448)
I0403 16:02:22.292214 20664 net.cpp:156] Memory required for data: 1334499360
I0403 16:02:22.292233 20664 layer_factory.hpp:77] Creating layer inception_5b/relu_5x5_reduce
I0403 16:02:22.292251 20664 net.cpp:91] Creating Layer inception_5b/relu_5x5_reduce
I0403 16:02:22.292268 20664 net.cpp:425] inception_5b/relu_5x5_reduce <- inception_5b/5x5_reduce
I0403 16:02:22.292289 20664 net.cpp:386] inception_5b/relu_5x5_reduce -> inception_5b/5x5_reduce (in-place)
I0403 16:02:22.292680 20664 net.cpp:141] Setting up inception_5b/relu_5x5_reduce
I0403 16:02:22.292706 20664 net.cpp:148] Top shape: 24 48 7 7 (56448)
I0403 16:02:22.292721 20664 net.cpp:156] Memory required for data: 1334725152
I0403 16:02:22.292737 20664 layer_factory.hpp:77] Creating layer inception_5b/5x5
I0403 16:02:22.292757 20664 net.cpp:91] Creating Layer inception_5b/5x5
I0403 16:02:22.292773 20664 net.cpp:425] inception_5b/5x5 <- inception_5b/5x5_reduce
I0403 16:02:22.292791 20664 net.cpp:399] inception_5b/5x5 -> inception_5b/5x5
I0403 16:02:22.294864 20664 net.cpp:141] Setting up inception_5b/5x5
I0403 16:02:22.294891 20664 net.cpp:148] Top shape: 24 128 7 7 (150528)
I0403 16:02:22.294905 20664 net.cpp:156] Memory required for data: 1335327264
I0403 16:02:22.294924 20664 layer_factory.hpp:77] Creating layer inception_5b/relu_5x5
I0403 16:02:22.294942 20664 net.cpp:91] Creating Layer inception_5b/relu_5x5
I0403 16:02:22.294960 20664 net.cpp:425] inception_5b/relu_5x5 <- inception_5b/5x5
I0403 16:02:22.294977 20664 net.cpp:386] inception_5b/relu_5x5 -> inception_5b/5x5 (in-place)
I0403 16:02:22.295174 20664 net.cpp:141] Setting up inception_5b/relu_5x5
I0403 16:02:22.295198 20664 net.cpp:148] Top shape: 24 128 7 7 (150528)
I0403 16:02:22.295212 20664 net.cpp:156] Memory required for data: 1335929376
I0403 16:02:22.295227 20664 layer_factory.hpp:77] Creating layer inception_5b/pool
I0403 16:02:22.295245 20664 net.cpp:91] Creating Layer inception_5b/pool
I0403 16:02:22.295261 20664 net.cpp:425] inception_5b/pool <- inception_5a/output_inception_5a/output_0_split_3
I0403 16:02:22.295279 20664 net.cpp:399] inception_5b/pool -> inception_5b/pool
I0403 16:02:22.295351 20664 net.cpp:141] Setting up inception_5b/pool
I0403 16:02:22.295374 20664 net.cpp:148] Top shape: 24 832 7 7 (978432)
I0403 16:02:22.295388 20664 net.cpp:156] Memory required for data: 1339843104
I0403 16:02:22.295403 20664 layer_factory.hpp:77] Creating layer inception_5b/pool_proj
I0403 16:02:22.295423 20664 net.cpp:91] Creating Layer inception_5b/pool_proj
I0403 16:02:22.295439 20664 net.cpp:425] inception_5b/pool_proj <- inception_5b/pool
I0403 16:02:22.295459 20664 net.cpp:399] inception_5b/pool_proj -> inception_5b/pool_proj
I0403 16:02:22.297737 20664 net.cpp:141] Setting up inception_5b/pool_proj
I0403 16:02:22.297765 20664 net.cpp:148] Top shape: 24 128 7 7 (150528)
I0403 16:02:22.297780 20664 net.cpp:156] Memory required for data: 1340445216
I0403 16:02:22.297797 20664 layer_factory.hpp:77] Creating layer inception_5b/relu_pool_proj
I0403 16:02:22.297814 20664 net.cpp:91] Creating Layer inception_5b/relu_pool_proj
I0403 16:02:22.297830 20664 net.cpp:425] inception_5b/relu_pool_proj <- inception_5b/pool_proj
I0403 16:02:22.297849 20664 net.cpp:386] inception_5b/relu_pool_proj -> inception_5b/pool_proj (in-place)
I0403 16:02:22.298158 20664 net.cpp:141] Setting up inception_5b/relu_pool_proj
I0403 16:02:22.298184 20664 net.cpp:148] Top shape: 24 128 7 7 (150528)
I0403 16:02:22.298199 20664 net.cpp:156] Memory required for data: 1341047328
I0403 16:02:22.298213 20664 layer_factory.hpp:77] Creating layer inception_5b/output
I0403 16:02:22.298229 20664 net.cpp:91] Creating Layer inception_5b/output
I0403 16:02:22.298259 20664 net.cpp:425] inception_5b/output <- inception_5b/1x1
I0403 16:02:22.298276 20664 net.cpp:425] inception_5b/output <- inception_5b/3x3
I0403 16:02:22.298291 20664 net.cpp:425] inception_5b/output <- inception_5b/5x5
I0403 16:02:22.298306 20664 net.cpp:425] inception_5b/output <- inception_5b/pool_proj
I0403 16:02:22.298326 20664 net.cpp:399] inception_5b/output -> inception_5b/output
I0403 16:02:22.298374 20664 net.cpp:141] Setting up inception_5b/output
I0403 16:02:22.298400 20664 net.cpp:148] Top shape: 24 1024 7 7 (1204224)
I0403 16:02:22.298414 20664 net.cpp:156] Memory required for data: 1345864224
I0403 16:02:22.298429 20664 layer_factory.hpp:77] Creating layer pool5/7x7_s1
I0403 16:02:22.298445 20664 net.cpp:91] Creating Layer pool5/7x7_s1
I0403 16:02:22.298461 20664 net.cpp:425] pool5/7x7_s1 <- inception_5b/output
I0403 16:02:22.298480 20664 net.cpp:399] pool5/7x7_s1 -> pool5/7x7_s1
I0403 16:02:22.298691 20664 net.cpp:141] Setting up pool5/7x7_s1
I0403 16:02:22.298717 20664 net.cpp:148] Top shape: 24 1024 1 1 (24576)
I0403 16:02:22.298730 20664 net.cpp:156] Memory required for data: 1345962528
I0403 16:02:22.298744 20664 layer_factory.hpp:77] Creating layer pool5/drop_7x7_s1
I0403 16:02:22.298760 20664 net.cpp:91] Creating Layer pool5/drop_7x7_s1
I0403 16:02:22.298775 20664 net.cpp:425] pool5/drop_7x7_s1 <- pool5/7x7_s1
I0403 16:02:22.298794 20664 net.cpp:386] pool5/drop_7x7_s1 -> pool5/7x7_s1 (in-place)
I0403 16:02:22.298846 20664 net.cpp:141] Setting up pool5/drop_7x7_s1
I0403 16:02:22.298868 20664 net.cpp:148] Top shape: 24 1024 1 1 (24576)
I0403 16:02:22.298882 20664 net.cpp:156] Memory required for data: 1346060832
I0403 16:02:22.298897 20664 layer_factory.hpp:77] Creating layer loss3/classifier_plantvillage
I0403 16:02:22.298914 20664 net.cpp:91] Creating Layer loss3/classifier_plantvillage
I0403 16:02:22.298929 20664 net.cpp:425] loss3/classifier_plantvillage <- pool5/7x7_s1
I0403 16:02:22.298949 20664 net.cpp:399] loss3/classifier_plantvillage -> loss3/classifier_plantvillage
I0403 16:02:22.299376 20664 net.cpp:141] Setting up loss3/classifier_plantvillage
I0403 16:02:22.299399 20664 net.cpp:148] Top shape: 24 38 (912)
I0403 16:02:22.299413 20664 net.cpp:156] Memory required for data: 1346064480
I0403 16:02:22.299430 20664 layer_factory.hpp:77] Creating layer loss3/classifier_plantvillage_loss3/classifier_plantvillage_0_split
I0403 16:02:22.299451 20664 net.cpp:91] Creating Layer loss3/classifier_plantvillage_loss3/classifier_plantvillage_0_split
I0403 16:02:22.299468 20664 net.cpp:425] loss3/classifier_plantvillage_loss3/classifier_plantvillage_0_split <- loss3/classifier_plantvillage
I0403 16:02:22.299484 20664 net.cpp:399] loss3/classifier_plantvillage_loss3/classifier_plantvillage_0_split -> loss3/classifier_plantvillage_loss3/classifier_plantvillage_0_split_0
I0403 16:02:22.299506 20664 net.cpp:399] loss3/classifier_plantvillage_loss3/classifier_plantvillage_0_split -> loss3/classifier_plantvillage_loss3/classifier_plantvillage_0_split_1
I0403 16:02:22.299527 20664 net.cpp:399] loss3/classifier_plantvillage_loss3/classifier_plantvillage_0_split -> loss3/classifier_plantvillage_loss3/classifier_plantvillage_0_split_2
I0403 16:02:22.299546 20664 net.cpp:399] loss3/classifier_plantvillage_loss3/classifier_plantvillage_0_split -> loss3/classifier_plantvillage_loss3/classifier_plantvillage_0_split_3
I0403 16:02:22.299645 20664 net.cpp:141] Setting up loss3/classifier_plantvillage_loss3/classifier_plantvillage_0_split
I0403 16:02:22.299667 20664 net.cpp:148] Top shape: 24 38 (912)
I0403 16:02:22.299685 20664 net.cpp:148] Top shape: 24 38 (912)
I0403 16:02:22.299700 20664 net.cpp:148] Top shape: 24 38 (912)
I0403 16:02:22.299715 20664 net.cpp:148] Top shape: 24 38 (912)
I0403 16:02:22.299727 20664 net.cpp:156] Memory required for data: 1346079072
I0403 16:02:22.299741 20664 layer_factory.hpp:77] Creating layer loss1/loss
I0403 16:02:22.299762 20664 net.cpp:91] Creating Layer loss1/loss
I0403 16:02:22.299778 20664 net.cpp:425] loss1/loss <- loss1/classifier_plantvillage_loss1/classifier_plantvillage_0_split_0
I0403 16:02:22.299808 20664 net.cpp:425] loss1/loss <- label_data_1_split_0
…
