…
I0403 16:05:05.951716 20711 net.cpp:313] The NetState phase (1) differed from the phase (0) specified by a rule in layer data
I0403 16:05:05.952947 20711 net.cpp:49] Initializing net from parameters: 
state {
  phase: TEST
}
layer {
  name: "data"
  type: "Data"
  top: "data"
  top: "label"
  include {
    phase: TEST
  }
  transform_param {
    mirror: false
    crop_size: 224
    mean_file: "/home/mohanty/data/final_dataset/lmdb/grayscale-20-80/mean.binaryproto"
  }
  data_param {
    source: "/home/mohanty/data/final_dataset/lmdb/grayscale-20-80/test_db"
    batch_size: 24
    backend: LMDB
  }
}
layer {
  name: "conv1/7x7_s2"
  type: "Convolution"
  bottom: "data"
  top: "conv1/7x7_s2"
  param {
    lr_mult: 1
    decay_mult: 1
  }
  param {
    lr_mult: 2
    decay_mult: 0
  }
  convolution_param {
    num_output: 64
    pad: 3
    kernel_size: 7
    stride: 2
    weight_filler {
      type: "xavier"
      std: 0.1
    }
    bias_filler {
      type: "constant"
      value: 0.2
    }
  }
}
layer {
  name: "conv1/relu_7x7"
  type: "ReLU"
  bottom: "conv1/7x7_s2"
  top: "conv1/7x7_s2"
}
layer {
  name: "pool1/3x3_s2"
  type: "Pooling"
  bottom: "conv1/7x7_s2"
  top: "pool1/3x3_s2"
  pooling_param {
    pool: MAX
    kernel_size: 3
    stride: 2
  }
}
layer {
  name: "pool1/norm1"
  type: "LRN"
  bottom: "pool1/3x3_s2"
  top: "pool1/norm1"
  lrn_param {
    local_size: 5
    alpha: 0.0001
    beta: 0.75
  }
}
layer {
  name: "conv2/3x3_reduce"
  type: "Convolution"
  bottom: "pool1/norm1"
  top: "conv2/3x3_reduce"
  param {
    lr_mult: 1
    decay_mult: 1
  }
  param {
    lr_mult: 2
    decay_mult: 0
  }
  convolution_param {
    num_output: 64
    kernel_size: 1
    weight_filler {
      type: "xavier"
      std: 0.1
    }
    bias_filler {
      type: "constant"
      value: 0.2
    }
  }
}
layer {
  name: "conv2/relu_3x3_reduce"
  type: "ReLU"
  bottom: "conv2/3x3_reduce"
  top: "conv2/3x3_reduce"
}
layer {
  name: "conv2/3x3"
  type: "Convolution"
  bottom: "conv2/3x3_reduce"
  top: "conv2/3x3"
  param {
    lr_mult: 1
    decay_mult: 1
  }
  param {
    lr_mult: 2
    decay_mult: 0
  }
  convolution_param {
    num_output: 192
    pad: 1
    kernel_size: 3
    weight_filler {
      type: "xavier"
      std: 0.03
    }
    bias_filler {
      type: "constant"
      value: 0.2
    }
  }
}
layer {
  name: "conv2/relu_3x3"
  type: "ReLU"
  bottom: "conv2/3x3"
  top: "conv2/3x3"
}
layer {
  name: "conv2/norm2"
  type: "LRN"
  bottom: "conv2/3x3"
  top: "conv2/norm2"
  lrn_param {
    local_size: 5
    alpha: 0.0001
    beta: 0.75
  }
}
layer {
  name: "pool2/3x3_s2"
  type: "Pooling"
  bottom: "conv2/norm2"
  top: "pool2/3x3_s2"
  pooling_param {
    pool: MAX
    kernel_size: 3
    stride: 2
  }
}
layer {
  name: "inception_3a/1x1"
  type: "Convolution"
  bottom: "pool2/3x3_s2"
  top: "inception_3a/1x1"
  param {
    lr_mult: 1
    decay_mult: 1
  }
  param {
    lr_mult: 2
    decay_mult: 0
  }
  convolution_param {
    num_output: 64
    kernel_size: 1
    weight_filler {
      type: "xavier"
      std: 0.03
    }
    bias_filler {
      type: "constant"
      value: 0.2
    }
  }
}
layer {
  name: "inception_3a/relu_1x1"
  type: "ReLU"
  bottom: "inception_3a/1x1"
  top: "inception_3a/1x1"
}
layer {
  name: "inception_3a/3x3_reduce"
  type: "Convolution"
  bottom: "pool2/3x3_s2"
  top: "inception_3a/3x3_reduce"
  param {
    lr_mult: 1
    decay_mult: 1
  }
  param {
    lr_mult: 2
    decay_mult: 0
  }
  convolution_param {
    num_output: 96
    kernel_size: 1
    weight_filler {
      type: "xavier"
      std: 0.09
    }
    bias_filler {
      type: "constant"
      value: 0.2
    }
  }
}
layer {
  name: "inception_3a/relu_3x3_reduce"
  type: "ReLU"
  bottom: "inception_3a/3x3_reduce"
  top: "inception_3a/3x3_reduce"
}
layer {
  name: "inception_3a/3x3"
  type: "Convolution"
  bottom: "inception_3a/3x3_reduce"
  top: "inception_3a/3x3"
  param {
    lr_mult: 1
    decay_mult: 1
  }
  param {
    lr_mult: 2
    decay_mult: 0
  }
  convolution_param {
    num_output: 128
    pad: 1
    kernel_size: 3
    weight_filler {
      type: "xavier"
      std: 0.03
    }
    bias_filler {
      type: "constant"
      value: 0.2
    }
  }
}
layer {
  name: "inception_3a/relu_3x3"
  type: "ReLU"
  bottom: "inception_3a/3x3"
  top: "inception_3a/3x3"
}
layer {
  name: "inception_3a/5x5_reduce"
  type: "Convolution"
  bottom: "pool2/3x3_s2"
  top: "inception_3a/5x5_reduce"
  param {
    lr_mult: 1
    decay_mult: 1
  }
  param {
    lr_mult: 2
    decay_mult: 0
  }
  convolution_param {
    num_output: 16
    kernel_size: 1
    weight_filler {
      type: "xavier"
      std: 0.2
    }
    bias_filler {
      type: "constant"
      value: 0.2
    }
  }
}
layer {
  name: "inception_3a/relu_5x5_reduce"
  type: "ReLU"
  bottom: "inception_3a/5x5_reduce"
  top: "inception_3a/5x5_reduce"
}
layer {
  name: "inception_3a/5x5"
  type: "Convolution"
  bottom: "inception_3a/5x5_reduce"
  top: "inception_3a/5x5"
  param {
    lr_mult: 1
    decay_mult: 1
  }
  param {
    lr_mult: 2
    decay_mult: 0
  }
  convolution_param {
    num_output: 32
    pad: 2
    kernel_size: 5
    weight_filler {
      type: "xavier"
      std: 0.03
    }
    bias_filler {
      type: "constant"
      value: 0.2
    }
  }
}
layer {
  name: "inception_3a/relu_5x5"
  type: "ReLU"
  bottom: "inception_3a/5x5"
  top: "inception_3a/5x5"
}
layer {
  name: "inception_3a/pool"
  type: "Pooling"
  bottom: "pool2/3x3_s2"
  top: "inception_3a/pool"
  pooling_param {
    pool: MAX
    kernel_size: 3
    stride: 1
    pad: 1
  }
}
layer {
  name: "inception_3a/pool_proj"
  type: "Convolution"
  bottom: "inception_3a/pool"
  top: "inception_3a/pool_proj"
  param {
    lr_mult: 1
    decay_mult: 1
  }
  param {
    lr_mult: 2
    decay_mult: 0
  }
  convolution_param {
    num_output: 32
    kernel_size: 1
    weight_filler {
      type: "xavier"
      std: 0.1
    }
    bias_filler {
      type: "constant"
      value: 0.2
    }
  }
}
layer {
  name: "inception_3a/relu_pool_proj"
  type: "ReLU"
  bottom: "inception_3a/pool_proj"
  top: "inception_3a/pool_proj"
}
layer {
  name: "inception_3a/output"
  type: "Concat"
  bottom: "inception_3a/1x1"
  bottom: "inception_3a/3x3"
  bottom: "inception_3a/5x5"
  bottom: "inception_3a/pool_proj"
  top: "inception_3a/output"
}
layer {
  name: "inception_3b/1x1"
  type: "Convolution"
  bottom: "inception_3a/output"
  top: "inception_3b/1x1"
  param {
    lr_mult: 1
    decay_mult: 1
  }
  param {
    lr_mult: 2
    decay_mult: 0
  }
  convolution_param {
    num_output: 128
    kernel_size: 1
    weight_filler {
      type: "xavier"
      std: 0.03
    }
    bias_filler {
      type: "constant"
      value: 0.2
    }
  }
}
layer {
  name: "inception_3b/relu_1x1"
  type: "ReLU"
  bottom: "inception_3b/1x1"
  top: "inception_3b/1x1"
}
layer {
  name: "inception_3b/3x3_reduce"
  type: "Convolution"
  bottom: "inception_3a/output"
  top: "inception_3b/3x3_reduce"
  param {
    lr_mult: 1
    decay_mult: 1
  }
  param {
    lr_mult: 2
    decay_mult: 0
  }
  convolution_param {
    num_output: 128
    kernel_size: 1
    weight_filler {
      type: "xavier"
      std: 0.09
    }
    bias_filler {
      type: "constant"
      value: 0.2
    }
  }
}
layer {
  name: "inception_3b/relu_3x3_reduce"
  type: "ReLU"
  bottom: "inception_3b/3x3_reduce"
  top: "inception_3b/3x3_reduce"
}
layer {
  name: "inception_3b/3x3"
  type: "Convolution"
  bottom: "inception_3b/3x3_reduce"
  top: "inception_3b/3x3"
  param {
    lr_mult: 1
    decay_mult: 1
  }
  param {
    lr_mult: 2
    decay_mult: 0
  }
  convolution_param {
    num_output: 192
    pad: 1
    kernel_size: 3
    weight_filler {
      type: "xavier"
      std: 0.03
    }
    bias_filler {
      type: "constant"
      value: 0.2
    }
  }
}
layer {
  name: "inception_3b/relu_3x3"
  type: "ReLU"
  bottom: "inception_3b/3x3"
  top: "inception_3b/3x3"
}
layer {
  name: "inception_3b/5x5_reduce"
  type: "Convolution"
  bottom: "inception_3a/output"
  top: "inception_3b/5x5_reduce"
  param {
    lr_mult: 1
    decay_mult: 1
  }
  param {
    lr_mult: 2
    decay_mult: 0
  }
  convolution_param {
    num_output: 32
    kernel_size: 1
    weight_filler {
      type: "xavier"
      std: 0.2
    }
    bias_filler {
      type: "constant"
      value: 0.2
    }
  }
}
layer {
  name: "inception_3b/relu_5x5_reduce"
  type: "ReLU"
  bottom: "inception_3b/5x5_reduce"
  top: "inception_3b/5x5_reduce"
}
layer {
  name: "inception_3b/5x5"
  type: "Convolution"
  bottom: "inception_3b/5x5_reduce"
  top: "inception_3b/5x5"
  param {
    lr_mult: 1
    decay_mult: 1
  }
  param {
    lr_mult: 2
    decay_mult: 0
  }
  convolution_param {
    num_output: 96
    pad: 2
    kernel_size: 5
    weight_filler {
      type: "xavier"
      std: 0.03
    }
    bias_filler {
      type: "constant"
      value: 0.2
    }
  }
}
layer {
  name: "inception_3b/relu_5x5"
  type: "ReLU"
  bottom: "inception_3b/5x5"
  top: "inception_3b/5x5"
}
layer {
  name: "inception_3b/pool"
  type: "Pooling"
  bottom: "inception_3a/output"
  top: "inception_3b/pool"
  pooling_param {
    pool: MAX
    kernel_size: 3
    stride: 1
    pad: 1
  }
}
layer {
  name: "inception_3b/pool_proj"
  type: "Convolution"
  bottom: "inception_3b/pool"
  top: "inception_3b/pool_proj"
  param {
    lr_mult: 1
    decay_mult: 1
  }
  param {
    lr_mult: 2
    decay_mult: 0
  }
  convolution_param {
    num_output: 64
    kernel_size: 1
    weight_filler {
      type: "xavier"
      std: 0.1
    }
    bias_filler {
      type: "constant"
      value: 0.2
    }
  }
}
layer {
  name: "inception_3b/relu_pool_proj"
  type: "ReLU"
  bottom: "inception_3b/pool_proj"
  top: "inception_3b/pool_proj"
}
layer {
  name: "inception_3b/output"
  type: "Concat"
  bottom: "inception_3b/1x1"
  bottom: "inception_3b/3x3"
  bottom: "inception_3b/5x5"
  bottom: "inception_3b/pool_proj"
  top: "inception_3b/output"
}
layer {
  name: "pool3/3x3_s2"
  type: "Pooling"
  bottom: "inception_3b/output"
  top: "pool3/3x3_s2"
  pooling_param {
    pool: MAX
    kernel_size: 3
    stride: 2
  }
}
layer {
  name: "inception_4a/1x1"
  type: "Convolution"
  bottom: "pool3/3x3_s2"
  top: "inception_4a/1x1"
  param {
    lr_mult: 1
    decay_mult: 1
  }
  param {
    lr_mult: 2
    decay_mult: 0
  }
  convolution_param {
    num_output: 192
    kernel_size: 1
    weight_filler {
      type: "xavier"
      std: 0.03
    }
    bias_filler {
      type: "constant"
      value: 0.2
    }
  }
}
layer {
  name: "inception_4a/relu_1x1"
  type: "ReLU"
  bottom: "inception_4a/1x1"
  top: "inception_4a/1x1"
}
layer {
  name: "inception_4a/3x3_reduce"
  type: "Convolution"
  bottom: "pool3/3x3_s2"
  top: "inception_4a/3x3_reduce"
  param {
    lr_mult: 1
    decay_mult: 1
  }
  param {
    lr_mult: 2
    decay_mult: 0
  }
  convolution_param {
    num_output: 96
    kernel_size: 1
    weight_filler {
      type: "xavier"
      std: 0.09
    }
    bias_filler {
      type: "constant"
      value: 0.2
    }
  }
}
layer {
  name: "inception_4a/relu_3x3_reduce"
  type: "ReLU"
  bottom: "inception_4a/3x3_reduce"
  top: "inception_4a/3x3_reduce"
}
layer {
  name: "inception_4a/3x3"
  type: "Convolution"
  bottom: "inception_4a/3x3_reduce"
  top: "inception_4a/3x3"
  param {
    lr_mult: 1
    decay_mult: 1
  }
  param {
    lr_mult: 2
    decay_mult: 0
  }
  convolution_param {
    num_output: 208
    pad: 1
    kernel_size: 3
    weight_filler {
      type: "xavier"
      std: 0.03
    }
    bias_filler {
      type: "constant"
      value: 0.2
    }
  }
}
layer {
  name: "inception_4a/relu_3x3"
  type: "ReLU"
  bottom: "inception_4a/3x3"
  top: "inception_4a/3x3"
}
layer {
  name: "inception_4a/5x5_reduce"
  type: "Convolution"
  bottom: "pool3/3x3_s2"
  top: "inception_4a/5x5_reduce"
  param {
    lr_mult: 1
    decay_mult: 1
  }
  param {
    lr_mult: 2
    decay_mult: 0
  }
  convolution_param {
    num_output: 16
    kernel_size: 1
    weight_filler {
      type: "xavier"
      std: 0.2
    }
    bias_filler {
      type: "constant"
      value: 0.2
    }
  }
}
layer {
  name: "inception_4a/relu_5x5_reduce"
  type: "ReLU"
  bottom: "inception_4a/5x5_reduce"
  top: "inception_4a/5x5_reduce"
}
layer {
  name: "inception_4a/5x5"
  type: "Convolution"
  bottom: "inception_4a/5x5_reduce"
  top: "inception_4a/5x5"
  param {
    lr_mult: 1
    decay_mult: 1
  }
  param {
    lr_mult: 2
    decay_mult: 0
  }
  convolution_param {
    num_output: 48
    pad: 2
    kernel_size: 5
    weight_filler {
      type: "xavier"
      std: 0.03
    }
    bias_filler {
      type: "constant"
      value: 0.2
    }
  }
}
layer {
  name: "inception_4a/relu_5x5"
  type: "ReLU"
  bottom: "inception_4a/5x5"
  top: "inception_4a/5x5"
}
layer {
  name: "inception_4a/pool"
  type: "Pooling"
  bottom: "pool3/3x3_s2"
  top: "inception_4a/pool"
  pooling_param {
    pool: MAX
    kernel_size: 3
    stride: 1
    pad: 1
  }
}
layer {
  name: "inception_4a/pool_proj"
  type: "Convolution"
  bottom: "inception_4a/pool"
  top: "inception_4a/pool_proj"
  param {
    lr_mult: 1
    decay_mult: 1
  }
  param {
    lr_mult: 2
    decay_mult: 0
  }
  convolution_param {
    num_output: 64
    kernel_size: 1
    weight_filler {
      type: "xavier"
      std: 0.1
    }
    bias_filler {
      type: "constant"
      value: 0.2
    }
  }
}
layer {
  name: "inception_4a/relu_pool_proj"
  type: "ReLU"
  bottom: "inception_4a/pool_proj"
  top: "inception_4a/pool_proj"
}
layer {
  name: "inception_4a/output"
  type: "Concat"
  bottom: "inception_4a/1x1"
  bottom: "inception_4a/3x3"
  bottom: "inception_4a/5x5"
  bottom: "inception_4a/pool_proj"
  top: "inception_4a/output"
}
layer {
  name: "loss1/ave_pool"
  type: "Pooling"
  bottom: "inception_4a/output"
  top: "loss1/ave_pool"
  pooling_param {
    pool: AVE
    kernel_size: 5
    stride: 3
  }
}
layer {
  name: "loss1/conv"
  type: "Convolution"
  bottom: "loss1/ave_pool"
  top: "loss1/conv"
  param {
    lr_mult: 1
    decay_mult: 1
  }
  param {
    lr_mult: 2
    decay_mult: 0
  }
  convolution_param {
    num_output: 128
    kernel_size: 1
    weight_filler {
      type: "xavier"
      std: 0.08
    }
    bias_filler {
      type: "constant"
      value: 0.2
    }
  }
}
layer {
  name: "loss1/relu_conv"
  type: "ReLU"
  bottom: "loss1/conv"
  top: "loss1/conv"
}
layer {
  name: "loss1/fc"
  type: "InnerProduct"
  bottom: "loss1/conv"
  top: "loss1/fc"
  param {
    lr_mult: 1
    decay_mult: 1
  }
  param {
    lr_mult: 2
    decay_mult: 0
  }
  inner_product_param {
    num_output: 1024
    weight_filler {
      type: "xavier"
      std: 0.02
    }
    bias_filler {
      type: "constant"
      value: 0.2
    }
  }
}
layer {
  name: "loss1/relu_fc"
  type: "ReLU"
  bottom: "loss1/fc"
  top: "loss1/fc"
}
layer {
  name: "loss1/drop_fc"
  type: "Dropout"
  bottom: "loss1/fc"
  top: "loss1/fc"
  dropout_param {
    dropout_ratio: 0.7
  }
}
layer {
  name: "loss1/classifier_plantvillage"
  type: "InnerProduct"
  bottom: "loss1/fc"
  top: "loss1/classifier_plantvillage"
  param {
    lr_mult: 1
    decay_mult: 1
  }
  param {
    lr_mult: 2
    decay_mult: 0
  }
  inner_product_param {
    num_output: 38
    weight_filler {
      type: "xavier"
      std: 0.0009765625
    }
    bias_filler {
      type: "constant"
      value: 0
    }
  }
}
layer {
  name: "inception_4b/1x1"
  type: "Convolution"
  bottom: "inception_4a/output"
  top: "inception_4b/1x1"
  param {
    lr_mult: 1
    decay_mult: 1
  }
  param {
    lr_mult: 2
    decay_mult: 0
  }
  convolution_param {
    num_output: 160
    kernel_size: 1
    weight_filler {
      type: "xavier"
      std: 0.03
    }
    bias_filler {
      type: "constant"
      value: 0.2
    }
  }
}
layer {
  name: "inception_4b/relu_1x1"
  type: "ReLU"
  bottom: "inception_4b/1x1"
  top: "inception_4b/1x1"
}
layer {
  name: "inception_4b/3x3_reduce"
  type: "Convolution"
  bottom: "inception_4a/output"
  top: "inception_4b/3x3_reduce"
  param {
    lr_mult: 1
    decay_mult: 1
  }
  param {
    lr_mult: 2
    decay_mult: 0
  }
  convolution_param {
    num_output: 112
    kernel_size: 1
    weight_filler {
      type: "xavier"
      std: 0.09
    }
    bias_filler {
      type: "constant"
      value: 0.2
    }
  }
}
layer {
  name: "inception_4b/relu_3x3_reduce"
  type: "ReLU"
  bottom: "inception_4b/3x3_reduce"
  top: "inception_4b/3x3_reduce"
}
layer {
  name: "inception_4b/3x3"
  type: "Convolution"
  bottom: "inception_4b/3x3_reduce"
  top: "inception_4b/3x3"
  param {
    lr_mult: 1
    decay_mult: 1
  }
  param {
    lr_mult: 2
    decay_mult: 0
  }
  convolution_param {
    num_output: 224
    pad: 1
    kernel_size: 3
    weight_filler {
      type: "xavier"
      std: 0.03
    }
    bias_filler {
      type: "constant"
      value: 0.2
    }
  }
}
layer {
  name: "inception_4b/relu_3x3"
  type: "ReLU"
  bottom: "inception_4b/3x3"
  top: "inception_4b/3x3"
}
layer {
  name: "inception_4b/5x5_reduce"
  type: "Convolution"
  bottom: "inception_4a/output"
  top: "inception_4b/5x5_reduce"
  param {
    lr_mult: 1
    decay_mult: 1
  }
  param {
    lr_mult: 2
    decay_mult: 0
  }
  convolution_param {
    num_output: 24
    kernel_size: 1
    weight_filler {
      type: "xavier"
      std: 0.2
    }
    bias_filler {
      type: "constant"
      value: 0.2
    }
  }
}
layer {
  name: "inception_4b/relu_5x5_reduce"
  type: "ReLU"
  bottom: "inception_4b/5x5_reduce"
  top: "inception_4b/5x5_reduce"
}
layer {
  name: "inception_4b/5x5"
  type: "Convolution"
  bottom: "inception_4b/5x5_reduce"
  top: "inception_4b/5x5"
  param {
    lr_mult: 1
    decay_mult: 1
  }
  param {
    lr_mult: 2
    decay_mult: 0
  }
  convolution_param {
    num_output: 64
    pad: 2
    kernel_size: 5
    weight_filler {
      type: "xavier"
      std: 0.03
    }
    bias_filler {
      type: "constant"
      value: 0.2
    }
  }
}
layer {
  name: "inception_4b/relu_5x5"
  type: "ReLU"
  bottom: "inception_4b/5x5"
  top: "inception_4b/5x5"
}
layer {
  name: "inception_4b/pool"
  type: "Pooling"
  bottom: "inception_4a/output"
  top: "inception_4b/pool"
  pooling_param {
    pool: MAX
    kernel_size: 3
    stride: 1
    pad: 1
  }
}
layer {
  name: "inception_4b/pool_proj"
  type: "Convolution"
  bottom: "inception_4b/pool"
  top: "inception_4b/pool_proj"
  param {
    lr_mult: 1
    decay_mult: 1
  }
  param {
    lr_mult: 2
    decay_mult: 0
  }
  convolution_param {
    num_output: 64
    kernel_size: 1
    weight_filler {
      type: "xavier"
      std: 0.1
    }
    bias_filler {
      type: "constant"
      value: 0.2
    }
  }
}
layer {
  name: "inception_4b/relu_pool_proj"
  type: "ReLU"
  bottom: "inception_4b/pool_proj"
  top: "inception_4b/pool_proj"
}
layer {
  name: "inception_4b/output"
  type: "Concat"
  bottom: "inception_4b/1x1"
  bottom: "inception_4b/3x3"
  bottom: "inception_4b/5x5"
  bottom: "inception_4b/pool_proj"
  top: "inception_4b/output"
}
layer {
  name: "inception_4c/1x1"
  type: "Convolution"
  bottom: "inception_4b/output"
  top: "inception_4c/1x1"
  param {
    lr_mult: 1
    decay_mult: 1
  }
  param {
    lr_mult: 2
    decay_mult: 0
  }
  convolution_param {
    num_output: 128
    kernel_size: 1
    weight_filler {
      type: "xavier"
      std: 0.03
    }
    bias_filler {
      type: "constant"
      value: 0.2
    }
  }
}
layer {
  name: "inception_4c/relu_1x1"
  type: "ReLU"
  bottom: "inception_4c/1x1"
  top: "inception_4c/1x1"
}
layer {
  name: "inception_4c/3x3_reduce"
  type: "Convolution"
  bottom: "inception_4b/output"
  top: "inception_4c/3x3_reduce"
  param {
    lr_mult: 1
    decay_mult: 1
  }
  param {
    lr_mult: 2
    decay_mult: 0
  }
  convolution_param {
    num_output: 128
    kernel_size: 1
    weight_filler {
      type: "xavier"
      std: 0.09
    }
    bias_filler {
      type: "constant"
      value: 0.2
    }
  }
}
layer {
  name: "inception_4c/relu_3x3_reduce"
  type: "ReLU"
  bottom: "inception_4c/3x3_reduce"
  top: "inception_4c/3x3_reduce"
}
layer {
  name: "inception_4c/3x3"
  type: "Convolution"
  bottom: "inception_4c/3x3_reduce"
  top: "inception_4c/3x3"
  param {
    lr_mult: 1
    decay_mult: 1
  }
  param {
    lr_mult: 2
    decay_mult: 0
  }
  convolution_param {
    num_output: 256
    pad: 1
    kernel_size: 3
    weight_filler {
      type: "xavier"
      std: 0.03
    }
    bias_filler {
      type: "constant"
      value: 0.2
    }
  }
}
layer {
  name: "inception_4c/relu_3x3"
  type: "ReLU"
  bottom: "inception_4c/3x3"
  top: "inception_4c/3x3"
}
layer {
  name: "inception_4c/5x5_reduce"
  type: "Convolution"
  bottom: "inception_4b/output"
  top: "inception_4c/5x5_reduce"
  param {
    lr_mult: 1
    decay_mult: 1
  }
  param {
    lr_mult: 2
    decay_mult: 0
  }
  convolution_param {
    num_output: 24
    kernel_size: 1
    weight_filler {
      type: "xavier"
      std: 0.2
    }
    bias_filler {
      type: "constant"
      value: 0.2
    }
  }
}
layer {
  name: "inception_4c/relu_5x5_reduce"
  type: "ReLU"
  bottom: "inception_4c/5x5_reduce"
  top: "inception_4c/5x5_reduce"
}
layer {
  name: "inception_4c/5x5"
  type: "Convolution"
  bottom: "inception_4c/5x5_reduce"
  top: "inception_4c/5x5"
  param {
    lr_mult: 1
    decay_mult: 1
  }
  param {
    lr_mult: 2
    decay_mult: 0
  }
  convolution_param {
    num_output: 64
    pad: 2
    kernel_size: 5
    weight_filler {
      type: "xavier"
      std: 0.03
    }
    bias_filler {
      type: "constant"
      value: 0.2
    }
  }
}
layer {
  name: "inception_4c/relu_5x5"
  type: "ReLU"
  bottom: "inception_4c/5x5"
  top: "inception_4c/5x5"
}
layer {
  name: "inception_4c/pool"
  type: "Pooling"
  bottom: "inception_4b/output"
  top: "inception_4c/pool"
  pooling_param {
    pool: MAX
    kernel_size: 3
    stride: 1
    pad: 1
  }
}
layer {
  name: "inception_4c/pool_proj"
  type: "Convolution"
  bottom: "inception_4c/pool"
  top: "inception_4c/pool_proj"
  param {
    lr_mult: 1
    decay_mult: 1
  }
  param {
    lr_mult: 2
    decay_mult: 0
  }
  convolution_param {
    num_output: 64
    kernel_size: 1
    weight_filler {
      type: "xavier"
      std: 0.1
    }
    bias_filler {
      type: "constant"
      value: 0.2
    }
  }
}
layer {
  name: "inception_4c/relu_pool_proj"
  type: "ReLU"
  bottom: "inception_4c/pool_proj"
  top: "inception_4c/pool_proj"
}
layer {
  name: "inception_4c/output"
  type: "Concat"
  bottom: "inception_4c/1x1"
  bottom: "inception_4c/3x3"
  bottom: "inception_4c/5x5"
  bottom: "inception_4c/pool_proj"
  top: "inception_4c/output"
}
layer {
  name: "inception_4d/1x1"
  type: "Convolution"
  bottom: "inception_4c/output"
  top: "inception_4d/1x1"
  param {
    lr_mult: 1
    decay_mult: 1
  }
  param {
    lr_mult: 2
    decay_mult: 0
  }
  convolution_param {
    num_output: 112
    kernel_size: 1
    weight_filler {
      type: "xavier"
      std: 0.03
    }
    bias_filler {
      type: "constant"
      value: 0.2
    }
  }
}
layer {
  name: "inception_4d/relu_1x1"
  type: "ReLU"
  bottom: "inception_4d/1x1"
  top: "inception_4d/1x1"
}
layer {
  name: "inception_4d/3x3_reduce"
  type: "Convolution"
  bottom: "inception_4c/output"
  top: "inception_4d/3x3_reduce"
  param {
    lr_mult: 1
    decay_mult: 1
  }
  param {
    lr_mult: 2
    decay_mult: 0
  }
  convolution_param {
    num_output: 144
    kernel_size: 1
    weight_filler {
      type: "xavier"
      std: 0.09
    }
    bias_filler {
      type: "constant"
      value: 0.2
    }
  }
}
layer {
  name: "inception_4d/relu_3x3_reduce"
  type: "ReLU"
  bottom: "inception_4d/3x3_reduce"
  top: "inception_4d/3x3_reduce"
}
layer {
  name: "inception_4d/3x3"
  type: "Convolution"
  bottom: "inception_4d/3x3_reduce"
  top: "inception_4d/3x3"
  param {
    lr_mult: 1
    decay_mult: 1
  }
  param {
    lr_mult: 2
    decay_mult: 0
  }
  convolution_param {
    num_output: 288
    pad: 1
    kernel_size: 3
    weight_filler {
      type: "xavier"
      std: 0.03
    }
    bias_filler {
      type: "constant"
      value: 0.2
    }
  }
}
layer {
  name: "inception_4d/relu_3x3"
  type: "ReLU"
  bottom: "inception_4d/3x3"
  top: "inception_4d/3x3"
}
layer {
  name: "inception_4d/5x5_reduce"
  type: "Convolution"
  bottom: "inception_4c/output"
  top: "inception_4d/5x5_reduce"
  param {
    lr_mult: 1
    decay_mult: 1
  }
  param {
    lr_mult: 2
    decay_mult: 0
  }
  convolution_param {
    num_output: 32
    kernel_size: 1
    weight_filler {
      type: "xavier"
      std: 0.2
    }
    bias_filler {
      type: "constant"
      value: 0.2
    }
  }
}
layer {
  name: "inception_4d/relu_5x5_reduce"
  type: "ReLU"
  bottom: "inception_4d/5x5_reduce"
  top: "inception_4d/5x5_reduce"
}
layer {
  name: "inception_4d/5x5"
  type: "Convolution"
  bottom: "inception_4d/5x5_reduce"
  top: "inception_4d/5x5"
  param {
    lr_mult: 1
    decay_mult: 1
  }
  param {
    lr_mult: 2
    decay_mult: 0
  }
  convolution_param {
    num_output: 64
    pad: 2
    kernel_size: 5
    weight_filler {
      type: "xavier"
      std: 0.03
    }
    bias_filler {
      type: "constant"
      value: 0.2
    }
  }
}
layer {
  name: "inception_4d/relu_5x5"
  type: "ReLU"
  bottom: "inception_4d/5x5"
  top: "inception_4d/5x5"
}
layer {
  name: "inception_4d/pool"
  type: "Pooling"
  bottom: "inception_4c/output"
  top: "inception_4d/pool"
  pooling_param {
    pool: MAX
    kernel_size: 3
    stride: 1
    pad: 1
  }
}
layer {
  name: "inception_4d/pool_proj"
  type: "Convolution"
  bottom: "inception_4d/pool"
  top: "inception_4d/pool_proj"
  param {
    lr_mult: 1
    decay_mult: 1
  }
  param {
    lr_mult: 2
    decay_mult: 0
  }
  convolution_param {
    num_output: 64
    kernel_size: 1
    weight_filler {
      type: "xavier"
      std: 0.1
    }
    bias_filler {
      type: "constant"
      value: 0.2
    }
  }
}
layer {
  name: "inception_4d/relu_pool_proj"
  type: "ReLU"
  bottom: "inception_4d/pool_proj"
  top: "inception_4d/pool_proj"
}
layer {
  name: "inception_4d/output"
  type: "Concat"
  bottom: "inception_4d/1x1"
  bottom: "inception_4d/3x3"
  bottom: "inception_4d/5x5"
  bottom: "inception_4d/pool_proj"
  top: "inception_4d/output"
}
layer {
  name: "loss2/ave_pool"
  type: "Pooling"
  bottom: "inception_4d/output"
  top: "loss2/ave_pool"
  pooling_param {
    pool: AVE
    kernel_size: 5
    stride: 3
  }
}
layer {
  name: "loss2/conv"
  type: "Convolution"
  bottom: "loss2/ave_pool"
  top: "loss2/conv"
  param {
    lr_mult: 1
    decay_mult: 1
  }
  param {
    lr_mult: 2
    decay_mult: 0
  }
  convolution_param {
    num_output: 128
    kernel_size: 1
    weight_filler {
      type: "xavier"
      std: 0.08
    }
    bias_filler {
      type: "constant"
      value: 0.2
    }
  }
}
layer {
  name: "loss2/relu_conv"
  type: "ReLU"
  bottom: "loss2/conv"
  top: "loss2/conv"
}
layer {
  name: "loss2/fc"
  type: "InnerProduct"
  bottom: "loss2/conv"
  top: "loss2/fc"
  param {
    lr_mult: 1
    decay_mult: 1
  }
  param {
    lr_mult: 2
    decay_mult: 0
  }
  inner_product_param {
    num_output: 1024
    weight_filler {
      type: "xavier"
      std: 0.02
    }
    bias_filler {
      type: "constant"
      value: 0.2
    }
  }
}
layer {
  name: "loss2/relu_fc"
  type: "ReLU"
  bottom: "loss2/fc"
  top: "loss2/fc"
}
layer {
  name: "loss2/drop_fc"
  type: "Dropout"
  bottom: "loss2/fc"
  top: "loss2/fc"
  dropout_param {
    dropout_ratio: 0.7
  }
}
layer {
  name: "loss2/classifier_plantvillage"
  type: "InnerProduct"
  bottom: "loss2/fc"
  top: "loss2/classifier_plantvillage"
  param {
    lr_mult: 1
    decay_mult: 1
  }
  param {
    lr_mult: 2
    decay_mult: 0
  }
  inner_product_param {
    num_output: 38
    weight_filler {
      type: "xavier"
      std: 0.0009765625
    }
    bias_filler {
      type: "constant"
      value: 0
    }
  }
}
layer {
  name: "inception_4e/1x1"
  type: "Convolution"
  bottom: "inception_4d/output"
  top: "inception_4e/1x1"
  param {
    lr_mult: 1
    decay_mult: 1
  }
  param {
    lr_mult: 2
    decay_mult: 0
  }
  convolution_param {
    num_output: 256
    kernel_size: 1
    weight_filler {
      type: "xavier"
      std: 0.03
    }
    bias_filler {
      type: "constant"
      value: 0.2
    }
  }
}
layer {
  name: "inception_4e/relu_1x1"
  type: "ReLU"
  bottom: "inception_4e/1x1"
  top: "inception_4e/1x1"
}
layer {
  name: "inception_4e/3x3_reduce"
  type: "Convolution"
  bottom: "inception_4d/output"
  top: "inception_4e/3x3_reduce"
  param {
    lr_mult: 1
    decay_mult: 1
  }
  param {
    lr_mult: 2
    decay_mult: 0
  }
  convolution_param {
    num_output: 160
    kernel_size: 1
    weight_filler {
      type: "xavier"
      std: 0.09
    }
    bias_filler {
      type: "constant"
      value: 0.2
    }
  }
}
layer {
  name: "inception_4e/relu_3x3_reduce"
  type: "ReLU"
  bottom: "inception_4e/3x3_reduce"
  top: "inception_4e/3x3_reduce"
}
layer {
  name: "inception_4e/3x3"
  type: "Convolution"
  bottom: "inception_4e/3x3_reduce"
  top: "inception_4e/3x3"
  param {
    lr_mult: 1
    decay_mult: 1
  }
  param {
    lr_mult: 2
    decay_mult: 0
  }
  convolution_param {
    num_output: 320
    pad: 1
    kernel_size: 3
    weight_filler {
      type: "xavier"
      std: 0.03
    }
    bias_filler {
      type: "constant"
      value: 0.2
    }
  }
}
layer {
  name: "inception_4e/relu_3x3"
  type: "ReLU"
  bottom: "inception_4e/3x3"
  top: "inception_4e/3x3"
}
layer {
  name: "inception_4e/5x5_reduce"
  type: "Convolution"
  bottom: "inception_4d/output"
  top: "inception_4e/5x5_reduce"
  param {
    lr_mult: 1
    decay_mult: 1
  }
  param {
    lr_mult: 2
    decay_mult: 0
  }
  convolution_param {
    num_output: 32
    kernel_size: 1
    weight_filler {
      type: "xavier"
      std: 0.2
    }
    bias_filler {
      type: "constant"
      value: 0.2
    }
  }
}
layer {
  name: "inception_4e/relu_5x5_reduce"
  type: "ReLU"
  bottom: "inception_4e/5x5_reduce"
  top: "inception_4e/5x5_reduce"
}
layer {
  name: "inception_4e/5x5"
  type: "Convolution"
  bottom: "inception_4e/5x5_reduce"
  top: "inception_4e/
I0403 16:05:05.954205 20711 layer_factory.hpp:77] Creating layer data
I0403 16:05:05.954840 20711 net.cpp:91] Creating Layer data
I0403 16:05:05.954874 20711 net.cpp:399] data -> data
I0403 16:05:05.954924 20711 net.cpp:399] data -> label
I0403 16:05:05.954963 20711 data_transformer.cpp:25] Loading mean file from: /home/mohanty/data/final_dataset/lmdb/grayscale-20-80/mean.binaryproto
I0403 16:05:05.956156 20714 db_lmdb.cpp:38] Opened lmdb /home/mohanty/data/final_dataset/lmdb/grayscale-20-80/test_db
I0403 16:05:05.968422 20711 data_layer.cpp:41] output data size: 24,3,224,224
I0403 16:05:05.996024 20711 net.cpp:141] Setting up data
I0403 16:05:05.996106 20711 net.cpp:148] Top shape: 24 3 224 224 (3612672)
I0403 16:05:05.996129 20711 net.cpp:148] Top shape: 24 (24)
I0403 16:05:05.996145 20711 net.cpp:156] Memory required for data: 14450784
I0403 16:05:05.996170 20711 layer_factory.hpp:77] Creating layer label_data_1_split
I0403 16:05:05.996196 20711 net.cpp:91] Creating Layer label_data_1_split
I0403 16:05:05.996215 20711 net.cpp:425] label_data_1_split <- label
I0403 16:05:05.996256 20711 net.cpp:399] label_data_1_split -> label_data_1_split_0
I0403 16:05:05.996284 20711 net.cpp:399] label_data_1_split -> label_data_1_split_1
I0403 16:05:05.996306 20711 net.cpp:399] label_data_1_split -> label_data_1_split_2
I0403 16:05:05.996327 20711 net.cpp:399] label_data_1_split -> label_data_1_split_3
I0403 16:05:05.996347 20711 net.cpp:399] label_data_1_split -> label_data_1_split_4
I0403 16:05:05.996367 20711 net.cpp:399] label_data_1_split -> label_data_1_split_5
I0403 16:05:05.996387 20711 net.cpp:399] label_data_1_split -> label_data_1_split_6
I0403 16:05:05.996407 20711 net.cpp:399] label_data_1_split -> label_data_1_split_7
I0403 16:05:05.996428 20711 net.cpp:399] label_data_1_split -> label_data_1_split_8
I0403 16:05:05.996448 20711 net.cpp:399] label_data_1_split -> label_data_1_split_9
I0403 16:05:05.996567 20711 net.cpp:141] Setting up label_data_1_split
I0403 16:05:05.996592 20711 net.cpp:148] Top shape: 24 (24)
I0403 16:05:05.996609 20711 net.cpp:148] Top shape: 24 (24)
I0403 16:05:05.996625 20711 net.cpp:148] Top shape: 24 (24)
I0403 16:05:05.996644 20711 net.cpp:148] Top shape: 24 (24)
I0403 16:05:05.996659 20711 net.cpp:148] Top shape: 24 (24)
I0403 16:05:05.996675 20711 net.cpp:148] Top shape: 24 (24)
I0403 16:05:05.996691 20711 net.cpp:148] Top shape: 24 (24)
I0403 16:05:05.996706 20711 net.cpp:148] Top shape: 24 (24)
I0403 16:05:05.996722 20711 net.cpp:148] Top shape: 24 (24)
I0403 16:05:05.996739 20711 net.cpp:148] Top shape: 24 (24)
I0403 16:05:05.996779 20711 net.cpp:156] Memory required for data: 14451744
I0403 16:05:05.996795 20711 layer_factory.hpp:77] Creating layer conv1/7x7_s2
I0403 16:05:05.996827 20711 net.cpp:91] Creating Layer conv1/7x7_s2
I0403 16:05:05.996846 20711 net.cpp:425] conv1/7x7_s2 <- data
I0403 16:05:05.996866 20711 net.cpp:399] conv1/7x7_s2 -> conv1/7x7_s2
I0403 16:05:06.134804 20711 net.cpp:141] Setting up conv1/7x7_s2
I0403 16:05:06.134896 20711 net.cpp:148] Top shape: 24 64 112 112 (19267584)
I0403 16:05:06.134917 20711 net.cpp:156] Memory required for data: 91522080
I0403 16:05:06.134950 20711 layer_factory.hpp:77] Creating layer conv1/relu_7x7
I0403 16:05:06.134977 20711 net.cpp:91] Creating Layer conv1/relu_7x7
I0403 16:05:06.134996 20711 net.cpp:425] conv1/relu_7x7 <- conv1/7x7_s2
I0403 16:05:06.135020 20711 net.cpp:386] conv1/relu_7x7 -> conv1/7x7_s2 (in-place)
I0403 16:05:06.135295 20711 net.cpp:141] Setting up conv1/relu_7x7
I0403 16:05:06.135324 20711 net.cpp:148] Top shape: 24 64 112 112 (19267584)
I0403 16:05:06.135339 20711 net.cpp:156] Memory required for data: 168592416
I0403 16:05:06.135355 20711 layer_factory.hpp:77] Creating layer pool1/3x3_s2
I0403 16:05:06.135380 20711 net.cpp:91] Creating Layer pool1/3x3_s2
I0403 16:05:06.135398 20711 net.cpp:425] pool1/3x3_s2 <- conv1/7x7_s2
I0403 16:05:06.135417 20711 net.cpp:399] pool1/3x3_s2 -> pool1/3x3_s2
I0403 16:05:06.135495 20711 net.cpp:141] Setting up pool1/3x3_s2
I0403 16:05:06.135521 20711 net.cpp:148] Top shape: 24 64 56 56 (4816896)
I0403 16:05:06.135536 20711 net.cpp:156] Memory required for data: 187860000
I0403 16:05:06.135551 20711 layer_factory.hpp:77] Creating layer pool1/norm1
I0403 16:05:06.135576 20711 net.cpp:91] Creating Layer pool1/norm1
I0403 16:05:06.135593 20711 net.cpp:425] pool1/norm1 <- pool1/3x3_s2
I0403 16:05:06.135612 20711 net.cpp:399] pool1/norm1 -> pool1/norm1
I0403 16:05:06.135915 20711 net.cpp:141] Setting up pool1/norm1
I0403 16:05:06.135943 20711 net.cpp:148] Top shape: 24 64 56 56 (4816896)
I0403 16:05:06.135959 20711 net.cpp:156] Memory required for data: 207127584
I0403 16:05:06.135974 20711 layer_factory.hpp:77] Creating layer conv2/3x3_reduce
I0403 16:05:06.135999 20711 net.cpp:91] Creating Layer conv2/3x3_reduce
I0403 16:05:06.136021 20711 net.cpp:425] conv2/3x3_reduce <- pool1/norm1
I0403 16:05:06.136042 20711 net.cpp:399] conv2/3x3_reduce -> conv2/3x3_reduce
I0403 16:05:06.137418 20711 net.cpp:141] Setting up conv2/3x3_reduce
I0403 16:05:06.137447 20711 net.cpp:148] Top shape: 24 64 56 56 (4816896)
I0403 16:05:06.137465 20711 net.cpp:156] Memory required for data: 226395168
I0403 16:05:06.137486 20711 layer_factory.hpp:77] Creating layer conv2/relu_3x3_reduce
I0403 16:05:06.137506 20711 net.cpp:91] Creating Layer conv2/relu_3x3_reduce
I0403 16:05:06.137521 20711 net.cpp:425] conv2/relu_3x3_reduce <- conv2/3x3_reduce
I0403 16:05:06.137539 20711 net.cpp:386] conv2/relu_3x3_reduce -> conv2/3x3_reduce (in-place)
I0403 16:05:06.137804 20711 net.cpp:141] Setting up conv2/relu_3x3_reduce
I0403 16:05:06.137831 20711 net.cpp:148] Top shape: 24 64 56 56 (4816896)
I0403 16:05:06.137847 20711 net.cpp:156] Memory required for data: 245662752
I0403 16:05:06.137862 20711 layer_factory.hpp:77] Creating layer conv2/3x3
I0403 16:05:06.137886 20711 net.cpp:91] Creating Layer conv2/3x3
I0403 16:05:06.137902 20711 net.cpp:425] conv2/3x3 <- conv2/3x3_reduce
I0403 16:05:06.137922 20711 net.cpp:399] conv2/3x3 -> conv2/3x3
I0403 16:05:06.140260 20711 net.cpp:141] Setting up conv2/3x3
I0403 16:05:06.140292 20711 net.cpp:148] Top shape: 24 192 56 56 (14450688)
I0403 16:05:06.140310 20711 net.cpp:156] Memory required for data: 303465504
I0403 16:05:06.140331 20711 layer_factory.hpp:77] Creating layer conv2/relu_3x3
I0403 16:05:06.140353 20711 net.cpp:91] Creating Layer conv2/relu_3x3
I0403 16:05:06.140370 20711 net.cpp:425] conv2/relu_3x3 <- conv2/3x3
I0403 16:05:06.140390 20711 net.cpp:386] conv2/relu_3x3 -> conv2/3x3 (in-place)
I0403 16:05:06.140574 20711 net.cpp:141] Setting up conv2/relu_3x3
I0403 16:05:06.140604 20711 net.cpp:148] Top shape: 24 192 56 56 (14450688)
I0403 16:05:06.140652 20711 net.cpp:156] Memory required for data: 361268256
I0403 16:05:06.140669 20711 layer_factory.hpp:77] Creating layer conv2/norm2
I0403 16:05:06.140687 20711 net.cpp:91] Creating Layer conv2/norm2
I0403 16:05:06.140704 20711 net.cpp:425] conv2/norm2 <- conv2/3x3
I0403 16:05:06.140724 20711 net.cpp:399] conv2/norm2 -> conv2/norm2
I0403 16:05:06.141046 20711 net.cpp:141] Setting up conv2/norm2
I0403 16:05:06.141074 20711 net.cpp:148] Top shape: 24 192 56 56 (14450688)
I0403 16:05:06.141090 20711 net.cpp:156] Memory required for data: 419071008
I0403 16:05:06.141106 20711 layer_factory.hpp:77] Creating layer pool2/3x3_s2
I0403 16:05:06.141124 20711 net.cpp:91] Creating Layer pool2/3x3_s2
I0403 16:05:06.141141 20711 net.cpp:425] pool2/3x3_s2 <- conv2/norm2
I0403 16:05:06.141161 20711 net.cpp:399] pool2/3x3_s2 -> pool2/3x3_s2
I0403 16:05:06.141216 20711 net.cpp:141] Setting up pool2/3x3_s2
I0403 16:05:06.141240 20711 net.cpp:148] Top shape: 24 192 28 28 (3612672)
I0403 16:05:06.141255 20711 net.cpp:156] Memory required for data: 433521696
I0403 16:05:06.141270 20711 layer_factory.hpp:77] Creating layer pool2/3x3_s2_pool2/3x3_s2_0_split
I0403 16:05:06.141293 20711 net.cpp:91] Creating Layer pool2/3x3_s2_pool2/3x3_s2_0_split
I0403 16:05:06.141310 20711 net.cpp:425] pool2/3x3_s2_pool2/3x3_s2_0_split <- pool2/3x3_s2
I0403 16:05:06.141331 20711 net.cpp:399] pool2/3x3_s2_pool2/3x3_s2_0_split -> pool2/3x3_s2_pool2/3x3_s2_0_split_0
I0403 16:05:06.141353 20711 net.cpp:399] pool2/3x3_s2_pool2/3x3_s2_0_split -> pool2/3x3_s2_pool2/3x3_s2_0_split_1
I0403 16:05:06.141374 20711 net.cpp:399] pool2/3x3_s2_pool2/3x3_s2_0_split -> pool2/3x3_s2_pool2/3x3_s2_0_split_2
I0403 16:05:06.141394 20711 net.cpp:399] pool2/3x3_s2_pool2/3x3_s2_0_split -> pool2/3x3_s2_pool2/3x3_s2_0_split_3
I0403 16:05:06.141463 20711 net.cpp:141] Setting up pool2/3x3_s2_pool2/3x3_s2_0_split
I0403 16:05:06.141487 20711 net.cpp:148] Top shape: 24 192 28 28 (3612672)
I0403 16:05:06.141505 20711 net.cpp:148] Top shape: 24 192 28 28 (3612672)
I0403 16:05:06.141520 20711 net.cpp:148] Top shape: 24 192 28 28 (3612672)
I0403 16:05:06.141536 20711 net.cpp:148] Top shape: 24 192 28 28 (3612672)
I0403 16:05:06.141551 20711 net.cpp:156] Memory required for data: 491324448
I0403 16:05:06.141566 20711 layer_factory.hpp:77] Creating layer inception_3a/1x1
I0403 16:05:06.141587 20711 net.cpp:91] Creating Layer inception_3a/1x1
I0403 16:05:06.141605 20711 net.cpp:425] inception_3a/1x1 <- pool2/3x3_s2_pool2/3x3_s2_0_split_0
I0403 16:05:06.141626 20711 net.cpp:399] inception_3a/1x1 -> inception_3a/1x1
I0403 16:05:06.143218 20711 net.cpp:141] Setting up inception_3a/1x1
I0403 16:05:06.143251 20711 net.cpp:148] Top shape: 24 64 28 28 (1204224)
I0403 16:05:06.143267 20711 net.cpp:156] Memory required for data: 496141344
I0403 16:05:06.143287 20711 layer_factory.hpp:77] Creating layer inception_3a/relu_1x1
I0403 16:05:06.143309 20711 net.cpp:91] Creating Layer inception_3a/relu_1x1
I0403 16:05:06.143326 20711 net.cpp:425] inception_3a/relu_1x1 <- inception_3a/1x1
I0403 16:05:06.143344 20711 net.cpp:386] inception_3a/relu_1x1 -> inception_3a/1x1 (in-place)
I0403 16:05:06.143524 20711 net.cpp:141] Setting up inception_3a/relu_1x1
I0403 16:05:06.143550 20711 net.cpp:148] Top shape: 24 64 28 28 (1204224)
I0403 16:05:06.143565 20711 net.cpp:156] Memory required for data: 500958240
I0403 16:05:06.143580 20711 layer_factory.hpp:77] Creating layer inception_3a/3x3_reduce
I0403 16:05:06.143605 20711 net.cpp:91] Creating Layer inception_3a/3x3_reduce
I0403 16:05:06.143623 20711 net.cpp:425] inception_3a/3x3_reduce <- pool2/3x3_s2_pool2/3x3_s2_0_split_1
I0403 16:05:06.143642 20711 net.cpp:399] inception_3a/3x3_reduce -> inception_3a/3x3_reduce
I0403 16:05:06.145392 20711 net.cpp:141] Setting up inception_3a/3x3_reduce
I0403 16:05:06.145423 20711 net.cpp:148] Top shape: 24 96 28 28 (1806336)
I0403 16:05:06.145439 20711 net.cpp:156] Memory required for data: 508183584
I0403 16:05:06.145462 20711 layer_factory.hpp:77] Creating layer inception_3a/relu_3x3_reduce
I0403 16:05:06.145501 20711 net.cpp:91] Creating Layer inception_3a/relu_3x3_reduce
I0403 16:05:06.145520 20711 net.cpp:425] inception_3a/relu_3x3_reduce <- inception_3a/3x3_reduce
I0403 16:05:06.145539 20711 net.cpp:386] inception_3a/relu_3x3_reduce -> inception_3a/3x3_reduce (in-place)
I0403 16:05:06.145762 20711 net.cpp:141] Setting up inception_3a/relu_3x3_reduce
I0403 16:05:06.145789 20711 net.cpp:148] Top shape: 24 96 28 28 (1806336)
I0403 16:05:06.145805 20711 net.cpp:156] Memory required for data: 515408928
I0403 16:05:06.145822 20711 layer_factory.hpp:77] Creating layer inception_3a/3x3
I0403 16:05:06.145844 20711 net.cpp:91] Creating Layer inception_3a/3x3
I0403 16:05:06.145862 20711 net.cpp:425] inception_3a/3x3 <- inception_3a/3x3_reduce
I0403 16:05:06.145885 20711 net.cpp:399] inception_3a/3x3 -> inception_3a/3x3
I0403 16:05:06.147613 20711 net.cpp:141] Setting up inception_3a/3x3
I0403 16:05:06.147641 20711 net.cpp:148] Top shape: 24 128 28 28 (2408448)
I0403 16:05:06.147658 20711 net.cpp:156] Memory required for data: 525042720
I0403 16:05:06.147677 20711 layer_factory.hpp:77] Creating layer inception_3a/relu_3x3
I0403 16:05:06.147698 20711 net.cpp:91] Creating Layer inception_3a/relu_3x3
I0403 16:05:06.147716 20711 net.cpp:425] inception_3a/relu_3x3 <- inception_3a/3x3
I0403 16:05:06.147734 20711 net.cpp:386] inception_3a/relu_3x3 -> inception_3a/3x3 (in-place)
I0403 16:05:06.148025 20711 net.cpp:141] Setting up inception_3a/relu_3x3
I0403 16:05:06.148052 20711 net.cpp:148] Top shape: 24 128 28 28 (2408448)
I0403 16:05:06.148068 20711 net.cpp:156] Memory required for data: 534676512
I0403 16:05:06.148084 20711 layer_factory.hpp:77] Creating layer inception_3a/5x5_reduce
I0403 16:05:06.148108 20711 net.cpp:91] Creating Layer inception_3a/5x5_reduce
I0403 16:05:06.148125 20711 net.cpp:425] inception_3a/5x5_reduce <- pool2/3x3_s2_pool2/3x3_s2_0_split_2
I0403 16:05:06.148147 20711 net.cpp:399] inception_3a/5x5_reduce -> inception_3a/5x5_reduce
I0403 16:05:06.149158 20711 net.cpp:141] Setting up inception_3a/5x5_reduce
I0403 16:05:06.149188 20711 net.cpp:148] Top shape: 24 16 28 28 (301056)
I0403 16:05:06.149207 20711 net.cpp:156] Memory required for data: 535880736
I0403 16:05:06.149226 20711 layer_factory.hpp:77] Creating layer inception_3a/relu_5x5_reduce
I0403 16:05:06.149245 20711 net.cpp:91] Creating Layer inception_3a/relu_5x5_reduce
I0403 16:05:06.149262 20711 net.cpp:425] inception_3a/relu_5x5_reduce <- inception_3a/5x5_reduce
I0403 16:05:06.149281 20711 net.cpp:386] inception_3a/relu_5x5_reduce -> inception_3a/5x5_reduce (in-place)
I0403 16:05:06.149595 20711 net.cpp:141] Setting up inception_3a/relu_5x5_reduce
I0403 16:05:06.149626 20711 net.cpp:148] Top shape: 24 16 28 28 (301056)
I0403 16:05:06.149641 20711 net.cpp:156] Memory required for data: 537084960
I0403 16:05:06.149657 20711 layer_factory.hpp:77] Creating layer inception_3a/5x5
I0403 16:05:06.149680 20711 net.cpp:91] Creating Layer inception_3a/5x5
I0403 16:05:06.149698 20711 net.cpp:425] inception_3a/5x5 <- inception_3a/5x5_reduce
I0403 16:05:06.149718 20711 net.cpp:399] inception_3a/5x5 -> inception_3a/5x5
I0403 16:05:06.150789 20711 net.cpp:141] Setting up inception_3a/5x5
I0403 16:05:06.150817 20711 net.cpp:148] Top shape: 24 32 28 28 (602112)
I0403 16:05:06.150833 20711 net.cpp:156] Memory required for data: 539493408
I0403 16:05:06.150851 20711 layer_factory.hpp:77] Creating layer inception_3a/relu_5x5
I0403 16:05:06.150876 20711 net.cpp:91] Creating Layer inception_3a/relu_5x5
I0403 16:05:06.150893 20711 net.cpp:425] inception_3a/relu_5x5 <- inception_3a/5x5
I0403 16:05:06.150912 20711 net.cpp:386] inception_3a/relu_5x5 -> inception_3a/5x5 (in-place)
I0403 16:05:06.151098 20711 net.cpp:141] Setting up inception_3a/relu_5x5
I0403 16:05:06.151124 20711 net.cpp:148] Top shape: 24 32 28 28 (602112)
I0403 16:05:06.151139 20711 net.cpp:156] Memory required for data: 541901856
I0403 16:05:06.151154 20711 layer_factory.hpp:77] Creating layer inception_3a/pool
I0403 16:05:06.151175 20711 net.cpp:91] Creating Layer inception_3a/pool
I0403 16:05:06.151206 20711 net.cpp:425] inception_3a/pool <- pool2/3x3_s2_pool2/3x3_s2_0_split_3
I0403 16:05:06.151226 20711 net.cpp:399] inception_3a/pool -> inception_3a/pool
I0403 16:05:06.151290 20711 net.cpp:141] Setting up inception_3a/pool
I0403 16:05:06.151315 20711 net.cpp:148] Top shape: 24 192 28 28 (3612672)
I0403 16:05:06.151330 20711 net.cpp:156] Memory required for data: 556352544
I0403 16:05:06.151345 20711 layer_factory.hpp:77] Creating layer inception_3a/pool_proj
I0403 16:05:06.151368 20711 net.cpp:91] Creating Layer inception_3a/pool_proj
I0403 16:05:06.151387 20711 net.cpp:425] inception_3a/pool_proj <- inception_3a/pool
I0403 16:05:06.151409 20711 net.cpp:399] inception_3a/pool_proj -> inception_3a/pool_proj
I0403 16:05:06.152417 20711 net.cpp:141] Setting up inception_3a/pool_proj
I0403 16:05:06.152449 20711 net.cpp:148] Top shape: 24 32 28 28 (602112)
I0403 16:05:06.152467 20711 net.cpp:156] Memory required for data: 558760992
I0403 16:05:06.152492 20711 layer_factory.hpp:77] Creating layer inception_3a/relu_pool_proj
I0403 16:05:06.152511 20711 net.cpp:91] Creating Layer inception_3a/relu_pool_proj
I0403 16:05:06.152528 20711 net.cpp:425] inception_3a/relu_pool_proj <- inception_3a/pool_proj
I0403 16:05:06.152545 20711 net.cpp:386] inception_3a/relu_pool_proj -> inception_3a/pool_proj (in-place)
I0403 16:05:06.152835 20711 net.cpp:141] Setting up inception_3a/relu_pool_proj
I0403 16:05:06.152863 20711 net.cpp:148] Top shape: 24 32 28 28 (602112)
I0403 16:05:06.152879 20711 net.cpp:156] Memory required for data: 561169440
I0403 16:05:06.152895 20711 layer_factory.hpp:77] Creating layer inception_3a/output
I0403 16:05:06.152917 20711 net.cpp:91] Creating Layer inception_3a/output
I0403 16:05:06.152936 20711 net.cpp:425] inception_3a/output <- inception_3a/1x1
I0403 16:05:06.152954 20711 net.cpp:425] inception_3a/output <- inception_3a/3x3
I0403 16:05:06.152971 20711 net.cpp:425] inception_3a/output <- inception_3a/5x5
I0403 16:05:06.152992 20711 net.cpp:425] inception_3a/output <- inception_3a/pool_proj
I0403 16:05:06.153009 20711 net.cpp:399] inception_3a/output -> inception_3a/output
I0403 16:05:06.153074 20711 net.cpp:141] Setting up inception_3a/output
I0403 16:05:06.153100 20711 net.cpp:148] Top shape: 24 256 28 28 (4816896)
I0403 16:05:06.153115 20711 net.cpp:156] Memory required for data: 580437024
I0403 16:05:06.153131 20711 layer_factory.hpp:77] Creating layer inception_3a/output_inception_3a/output_0_split
I0403 16:05:06.153148 20711 net.cpp:91] Creating Layer inception_3a/output_inception_3a/output_0_split
I0403 16:05:06.153164 20711 net.cpp:425] inception_3a/output_inception_3a/output_0_split <- inception_3a/output
I0403 16:05:06.153184 20711 net.cpp:399] inception_3a/output_inception_3a/output_0_split -> inception_3a/output_inception_3a/output_0_split_0
I0403 16:05:06.153206 20711 net.cpp:399] inception_3a/output_inception_3a/output_0_split -> inception_3a/output_inception_3a/output_0_split_1
I0403 16:05:06.153228 20711 net.cpp:399] inception_3a/output_inception_3a/output_0_split -> inception_3a/output_inception_3a/output_0_split_2
I0403 16:05:06.153250 20711 net.cpp:399] inception_3a/output_inception_3a/output_0_split -> inception_3a/output_inception_3a/output_0_split_3
I0403 16:05:06.153331 20711 net.cpp:141] Setting up inception_3a/output_inception_3a/output_0_split
I0403 16:05:06.153363 20711 net.cpp:148] Top shape: 24 256 28 28 (4816896)
I0403 16:05:06.153389 20711 net.cpp:148] Top shape: 24 256 28 28 (4816896)
I0403 16:05:06.153414 20711 net.cpp:148] Top shape: 24 256 28 28 (4816896)
I0403 16:05:06.153440 20711 net.cpp:148] Top shape: 24 256 28 28 (4816896)
I0403 16:05:06.153465 20711 net.cpp:156] Memory required for data: 657507360
I0403 16:05:06.153481 20711 layer_factory.hpp:77] Creating layer inception_3b/1x1
I0403 16:05:06.153503 20711 net.cpp:91] Creating Layer inception_3b/1x1
I0403 16:05:06.153522 20711 net.cpp:425] inception_3b/1x1 <- inception_3a/output_inception_3a/output_0_split_0
I0403 16:05:06.153543 20711 net.cpp:399] inception_3b/1x1 -> inception_3b/1x1
I0403 16:05:06.154736 20711 net.cpp:141] Setting up inception_3b/1x1
I0403 16:05:06.154778 20711 net.cpp:148] Top shape: 24 128 28 28 (2408448)
I0403 16:05:06.154795 20711 net.cpp:156] Memory required for data: 667141152
I0403 16:05:06.154814 20711 layer_factory.hpp:77] Creating layer inception_3b/relu_1x1
I0403 16:05:06.154832 20711 net.cpp:91] Creating Layer inception_3b/relu_1x1
I0403 16:05:06.154849 20711 net.cpp:425] inception_3b/relu_1x1 <- inception_3b/1x1
I0403 16:05:06.154870 20711 net.cpp:386] inception_3b/relu_1x1 -> inception_3b/1x1 (in-place)
I0403 16:05:06.155056 20711 net.cpp:141] Setting up inception_3b/relu_1x1
I0403 16:05:06.155083 20711 net.cpp:148] Top shape: 24 128 28 28 (2408448)
I0403 16:05:06.155099 20711 net.cpp:156] Memory required for data: 676774944
I0403 16:05:06.155114 20711 layer_factory.hpp:77] Creating layer inception_3b/3x3_reduce
I0403 16:05:06.155136 20711 net.cpp:91] Creating Layer inception_3b/3x3_reduce
I0403 16:05:06.155155 20711 net.cpp:425] inception_3b/3x3_reduce <- inception_3a/output_inception_3a/output_0_split_1
I0403 16:05:06.155177 20711 net.cpp:399] inception_3b/3x3_reduce -> inception_3b/3x3_reduce
I0403 16:05:06.156364 20711 net.cpp:141] Setting up inception_3b/3x3_reduce
I0403 16:05:06.156394 20711 net.cpp:148] Top shape: 24 128 28 28 (2408448)
I0403 16:05:06.156410 20711 net.cpp:156] Memory required for data: 686408736
I0403 16:05:06.156429 20711 layer_factory.hpp:77] Creating layer inception_3b/relu_3x3_reduce
I0403 16:05:06.156450 20711 net.cpp:91] Creating Layer inception_3b/relu_3x3_reduce
I0403 16:05:06.156467 20711 net.cpp:425] inception_3b/relu_3x3_reduce <- inception_3b/3x3_reduce
I0403 16:05:06.156486 20711 net.cpp:386] inception_3b/relu_3x3_reduce -> inception_3b/3x3_reduce (in-place)
I0403 16:05:06.156668 20711 net.cpp:141] Setting up inception_3b/relu_3x3_reduce
I0403 16:05:06.156694 20711 net.cpp:148] Top shape: 24 128 28 28 (2408448)
I0403 16:05:06.156710 20711 net.cpp:156] Memory required for data: 696042528
I0403 16:05:06.156725 20711 layer_factory.hpp:77] Creating layer inception_3b/3x3
I0403 16:05:06.156751 20711 net.cpp:91] Creating Layer inception_3b/3x3
I0403 16:05:06.156770 20711 net.cpp:425] inception_3b/3x3 <- inception_3b/3x3_reduce
I0403 16:05:06.156790 20711 net.cpp:399] inception_3b/3x3 -> inception_3b/3x3
I0403 16:05:06.159837 20711 net.cpp:141] Setting up inception_3b/3x3
I0403 16:05:06.159868 20711 net.cpp:148] Top shape: 24 192 28 28 (3612672)
I0403 16:05:06.159883 20711 net.cpp:156] Memory required for data: 710493216
I0403 16:05:06.159903 20711 layer_factory.hpp:77] Creating layer inception_3b/relu_3x3
I0403 16:05:06.159924 20711 net.cpp:91] Creating Layer inception_3b/relu_3x3
I0403 16:05:06.159941 20711 net.cpp:425] inception_3b/relu_3x3 <- inception_3b/3x3
I0403 16:05:06.159960 20711 net.cpp:386] inception_3b/relu_3x3 -> inception_3b/3x3 (in-place)
I0403 16:05:06.160254 20711 net.cpp:141] Setting up inception_3b/relu_3x3
I0403 16:05:06.160281 20711 net.cpp:148] Top shape: 24 192 28 28 (3612672)
I0403 16:05:06.160297 20711 net.cpp:156] Memory required for data: 724943904
I0403 16:05:06.160313 20711 layer_factory.hpp:77] Creating layer inception_3b/5x5_reduce
I0403 16:05:06.160336 20711 net.cpp:91] Creating Layer inception_3b/5x5_reduce
I0403 16:05:06.160354 20711 net.cpp:425] inception_3b/5x5_reduce <- inception_3a/output_inception_3a/output_0_split_2
I0403 16:05:06.160377 20711 net.cpp:399] inception_3b/5x5_reduce -> inception_3b/5x5_reduce
I0403 16:05:06.161418 20711 net.cpp:141] Setting up inception_3b/5x5_reduce
I0403 16:05:06.161448 20711 net.cpp:148] Top shape: 24 32 28 28 (602112)
I0403 16:05:06.161464 20711 net.cpp:156] Memory required for data: 727352352
I0403 16:05:06.161483 20711 layer_factory.hpp:77] Creating layer inception_3b/relu_5x5_reduce
I0403 16:05:06.161504 20711 net.cpp:91] Creating Layer inception_3b/relu_5x5_reduce
I0403 16:05:06.161521 20711 net.cpp:425] inception_3b/relu_5x5_reduce <- inception_3b/5x5_reduce
I0403 16:05:06.161540 20711 net.cpp:386] inception_3b/relu_5x5_reduce -> inception_3b/5x5_reduce (in-place)
I0403 16:05:06.161739 20711 net.cpp:141] Setting up inception_3b/relu_5x5_reduce
I0403 16:05:06.161768 20711 net.cpp:148] Top shape: 24 32 28 28 (602112)
I0403 16:05:06.161784 20711 net.cpp:156] Memory required for data: 729760800
I0403 16:05:06.161799 20711 layer_factory.hpp:77] Creating layer inception_3b/5x5
I0403 16:05:06.161823 20711 net.cpp:91] Creating Layer inception_3b/5x5
I0403 16:05:06.161841 20711 net.cpp:425] inception_3b/5x5 <- inception_3b/5x5_reduce
I0403 16:05:06.161861 20711 net.cpp:399] inception_3b/5x5 -> inception_3b/5x5
I0403 16:05:06.163923 20711 net.cpp:141] Setting up inception_3b/5x5
I0403 16:05:06.163955 20711 net.cpp:148] Top shape: 24 96 28 28 (1806336)
I0403 16:05:06.163971 20711 net.cpp:156] Memory required for data: 736986144
I0403 16:05:06.163990 20711 layer_factory.hpp:77] Creating layer inception_3b/relu_5x5
I0403 16:05:06.164010 20711 net.cpp:91] Creating Layer inception_3b/relu_5x5
I0403 16:05:06.164034 20711 net.cpp:425] inception_3b/relu_5x5 <- inception_3b/5x5
I0403 16:05:06.164053 20711 net.cpp:386] inception_3b/relu_5x5 -> inception_3b/5x5 (in-place)
I0403 16:05:06.164255 20711 net.cpp:141] Setting up inception_3b/relu_5x5
I0403 16:05:06.164283 20711 net.cpp:148] Top shape: 24 96 28 28 (1806336)
I0403 16:05:06.164297 20711 net.cpp:156] Memory required for data: 744211488
I0403 16:05:06.164314 20711 layer_factory.hpp:77] Creating layer inception_3b/pool
I0403 16:05:06.164331 20711 net.cpp:91] Creating Layer inception_3b/pool
I0403 16:05:06.164348 20711 net.cpp:425] inception_3b/pool <- inception_3a/output_inception_3a/output_0_split_3
I0403 16:05:06.164367 20711 net.cpp:399] inception_3b/pool -> inception_3b/pool
I0403 16:05:06.164429 20711 net.cpp:141] Setting up inception_3b/pool
I0403 16:05:06.164453 20711 net.cpp:148] Top shape: 24 256 28 28 (4816896)
I0403 16:05:06.164469 20711 net.cpp:156] Memory required for data: 763479072
I0403 16:05:06.164482 20711 layer_factory.hpp:77] Creating layer inception_3b/pool_proj
I0403 16:05:06.164505 20711 net.cpp:91] Creating Layer inception_3b/pool_proj
I0403 16:05:06.164525 20711 net.cpp:425] inception_3b/pool_proj <- inception_3b/pool
I0403 16:05:06.164546 20711 net.cpp:399] inception_3b/pool_proj -> inception_3b/pool_proj
I0403 16:05:06.165652 20711 net.cpp:141] Setting up inception_3b/pool_proj
I0403 16:05:06.165683 20711 net.cpp:148] Top shape: 24 64 28 28 (1204224)
I0403 16:05:06.165699 20711 net.cpp:156] Memory required for data: 768295968
I0403 16:05:06.165719 20711 layer_factory.hpp:77] Creating layer inception_3b/relu_pool_proj
I0403 16:05:06.165737 20711 net.cpp:91] Creating Layer inception_3b/relu_pool_proj
I0403 16:05:06.165753 20711 net.cpp:425] inception_3b/relu_pool_proj <- inception_3b/pool_proj
I0403 16:05:06.165773 20711 net.cpp:386] inception_3b/relu_pool_proj -> inception_3b/pool_proj (in-place)
I0403 16:05:06.166195 20711 net.cpp:141] Setting up inception_3b/relu_pool_proj
I0403 16:05:06.166225 20711 net.cpp:148] Top shape: 24 64 28 28 (1204224)
I0403 16:05:06.166244 20711 net.cpp:156] Memory required for data: 773112864
I0403 16:05:06.166260 20711 layer_factory.hpp:77] Creating layer inception_3b/output
I0403 16:05:06.166278 20711 net.cpp:91] Creating Layer inception_3b/output
I0403 16:05:06.166295 20711 net.cpp:425] inception_3b/output <- inception_3b/1x1
I0403 16:05:06.166311 20711 net.cpp:425] inception_3b/output <- inception_3b/3x3
I0403 16:05:06.166328 20711 net.cpp:425] inception_3b/output <- inception_3b/5x5
I0403 16:05:06.166344 20711 net.cpp:425] inception_3b/output <- inception_3b/pool_proj
I0403 16:05:06.166363 20711 net.cpp:399] inception_3b/output -> inception_3b/output
I0403 16:05:06.166409 20711 net.cpp:141] Setting up inception_3b/output
I0403 16:05:06.166435 20711 net.cpp:148] Top shape: 24 480 28 28 (9031680)
I0403 16:05:06.166450 20711 net.cpp:156] Memory required for data: 809239584
I0403 16:05:06.166465 20711 layer_factory.hpp:77] Creating layer pool3/3x3_s2
I0403 16:05:06.166484 20711 net.cpp:91] Creating Layer pool3/3x3_s2
I0403 16:05:06.166502 20711 net.cpp:425] pool3/3x3_s2 <- inception_3b/output
I0403 16:05:06.166538 20711 net.cpp:399] pool3/3x3_s2 -> pool3/3x3_s2
I0403 16:05:06.166600 20711 net.cpp:141] Setting up pool3/3x3_s2
I0403 16:05:06.166625 20711 net.cpp:148] Top shape: 24 480 14 14 (2257920)
I0403 16:05:06.166640 20711 net.cpp:156] Memory required for data: 818271264
I0403 16:05:06.166656 20711 layer_factory.hpp:77] Creating layer pool3/3x3_s2_pool3/3x3_s2_0_split
I0403 16:05:06.166673 20711 net.cpp:91] Creating Layer pool3/3x3_s2_pool3/3x3_s2_0_split
I0403 16:05:06.166689 20711 net.cpp:425] pool3/3x3_s2_pool3/3x3_s2_0_split <- pool3/3x3_s2
I0403 16:05:06.166709 20711 net.cpp:399] pool3/3x3_s2_pool3/3x3_s2_0_split -> pool3/3x3_s2_pool3/3x3_s2_0_split_0
I0403 16:05:06.166730 20711 net.cpp:399] pool3/3x3_s2_pool3/3x3_s2_0_split -> pool3/3x3_s2_pool3/3x3_s2_0_split_1
I0403 16:05:06.166750 20711 net.cpp:399] pool3/3x3_s2_pool3/3x3_s2_0_split -> pool3/3x3_s2_pool3/3x3_s2_0_split_2
I0403 16:05:06.166770 20711 net.cpp:399] pool3/3x3_s2_pool3/3x3_s2_0_split -> pool3/3x3_s2_pool3/3x3_s2_0_split_3
I0403 16:05:06.166852 20711 net.cpp:141] Setting up pool3/3x3_s2_pool3/3x3_s2_0_split
I0403 16:05:06.166879 20711 net.cpp:148] Top shape: 24 480 14 14 (2257920)
I0403 16:05:06.166898 20711 net.cpp:148] Top shape: 24 480 14 14 (2257920)
I0403 16:05:06.166913 20711 net.cpp:148] Top shape: 24 480 14 14 (2257920)
I0403 16:05:06.166929 20711 net.cpp:148] Top shape: 24 480 14 14 (2257920)
I0403 16:05:06.166944 20711 net.cpp:156] Memory required for data: 854397984
I0403 16:05:06.166959 20711 layer_factory.hpp:77] Creating layer inception_4a/1x1
I0403 16:05:06.166983 20711 net.cpp:91] Creating Layer inception_4a/1x1
I0403 16:05:06.167001 20711 net.cpp:425] inception_4a/1x1 <- pool3/3x3_s2_pool3/3x3_s2_0_split_0
I0403 16:05:06.167026 20711 net.cpp:399] inception_4a/1x1 -> inception_4a/1x1
I0403 16:05:06.168695 20711 net.cpp:141] Setting up inception_4a/1x1
I0403 16:05:06.168726 20711 net.cpp:148] Top shape: 24 192 14 14 (903168)
I0403 16:05:06.168745 20711 net.cpp:156] Memory required for data: 858010656
I0403 16:05:06.168763 20711 layer_factory.hpp:77] Creating layer inception_4a/relu_1x1
I0403 16:05:06.168782 20711 net.cpp:91] Creating Layer inception_4a/relu_1x1
I0403 16:05:06.168798 20711 net.cpp:425] inception_4a/relu_1x1 <- inception_4a/1x1
I0403 16:05:06.168818 20711 net.cpp:386] inception_4a/relu_1x1 -> inception_4a/1x1 (in-place)
I0403 16:05:06.169004 20711 net.cpp:141] Setting up inception_4a/relu_1x1
I0403 16:05:06.169039 20711 net.cpp:148] Top shape: 24 192 14 14 (903168)
I0403 16:05:06.169055 20711 net.cpp:156] Memory required for data: 861623328
I0403 16:05:06.169070 20711 layer_factory.hpp:77] Creating layer inception_4a/3x3_reduce
I0403 16:05:06.169093 20711 net.cpp:91] Creating Layer inception_4a/3x3_reduce
I0403 16:05:06.169111 20711 net.cpp:425] inception_4a/3x3_reduce <- pool3/3x3_s2_pool3/3x3_s2_0_split_1
I0403 16:05:06.169133 20711 net.cpp:399] inception_4a/3x3_reduce -> inception_4a/3x3_reduce
I0403 16:05:06.170477 20711 net.cpp:141] Setting up inception_4a/3x3_reduce
I0403 16:05:06.170509 20711 net.cpp:148] Top shape: 24 96 14 14 (451584)
I0403 16:05:06.170526 20711 net.cpp:156] Memory required for data: 863429664
I0403 16:05:06.170550 20711 layer_factory.hpp:77] Creating layer inception_4a/relu_3x3_reduce
I0403 16:05:06.170572 20711 net.cpp:91] Creating Layer inception_4a/relu_3x3_reduce
I0403 16:05:06.170590 20711 net.cpp:425] inception_4a/relu_3x3_reduce <- inception_4a/3x3_reduce
I0403 16:05:06.170608 20711 net.cpp:386] inception_4a/relu_3x3_reduce -> inception_4a/3x3_reduce (in-place)
I0403 16:05:06.170795 20711 net.cpp:141] Setting up inception_4a/relu_3x3_reduce
I0403 16:05:06.170821 20711 net.cpp:148] Top shape: 24 96 14 14 (451584)
I0403 16:05:06.170836 20711 net.cpp:156] Memory required for data: 865236000
I0403 16:05:06.170851 20711 layer_factory.hpp:77] Creating layer inception_4a/3x3
I0403 16:05:06.170876 20711 net.cpp:91] Creating Layer inception_4a/3x3
I0403 16:05:06.170894 20711 net.cpp:425] inception_4a/3x3 <- inception_4a/3x3_reduce
I0403 16:05:06.170917 20711 net.cpp:399] inception_4a/3x3 -> inception_4a/3x3
I0403 16:05:06.173734 20711 net.cpp:141] Setting up inception_4a/3x3
I0403 16:05:06.173763 20711 net.cpp:148] Top shape: 24 208 14 14 (978432)
I0403 16:05:06.173780 20711 net.cpp:156] Memory required for data: 869149728
I0403 16:05:06.173799 20711 layer_factory.hpp:77] Creating layer inception_4a/relu_3x3
I0403 16:05:06.173821 20711 net.cpp:91] Creating Layer inception_4a/relu_3x3
I0403 16:05:06.173838 20711 net.cpp:425] inception_4a/relu_3x3 <- inception_4a/3x3
I0403 16:05:06.173856 20711 net.cpp:386] inception_4a/relu_3x3 -> inception_4a/3x3 (in-place)
I0403 16:05:06.174151 20711 net.cpp:141] Setting up inception_4a/relu_3x3
I0403 16:05:06.174180 20711 net.cpp:148] Top shape: 24 208 14 14 (978432)
I0403 16:05:06.174196 20711 net.cpp:156] Memory required for data: 873063456
I0403 16:05:06.174211 20711 layer_factory.hpp:77] Creating layer inception_4a/5x5_reduce
I0403 16:05:06.174235 20711 net.cpp:91] Creating Layer inception_4a/5x5_reduce
I0403 16:05:06.174254 20711 net.cpp:425] inception_4a/5x5_reduce <- pool3/3x3_s2_pool3/3x3_s2_0_split_2
I0403 16:05:06.174276 20711 net.cpp:399] inception_4a/5x5_reduce -> inception_4a/5x5_reduce
I0403 16:05:06.175354 20711 net.cpp:141] Setting up inception_4a/5x5_reduce
I0403 16:05:06.175384 20711 net.cpp:148] Top shape: 24 16 14 14 (75264)
I0403 16:05:06.175400 20711 net.cpp:156] Memory required for data: 873364512
I0403 16:05:06.175420 20711 layer_factory.hpp:77] Creating layer inception_4a/relu_5x5_reduce
I0403 16:05:06.175439 20711 net.cpp:91] Creating Layer inception_4a/relu_5x5_reduce
I0403 16:05:06.175457 20711 net.cpp:425] inception_4a/relu_5x5_reduce <- inception_4a/5x5_reduce
I0403 16:05:06.175475 20711 net.cpp:386] inception_4a/relu_5x5_reduce -> inception_4a/5x5_reduce (in-place)
I0403 16:05:06.175665 20711 net.cpp:141] Setting up inception_4a/relu_5x5_reduce
I0403 16:05:06.175693 20711 net.cpp:148] Top shape: 24 16 14 14 (75264)
I0403 16:05:06.175707 20711 net.cpp:156] Memory required for data: 873665568
I0403 16:05:06.175724 20711 layer_factory.hpp:77] Creating layer inception_4a/5x5
I0403 16:05:06.175748 20711 net.cpp:91] Creating Layer inception_4a/5x5
I0403 16:05:06.175767 20711 net.cpp:425] inception_4a/5x5 <- inception_4a/5x5_reduce
I0403 16:05:06.175786 20711 net.cpp:399] inception_4a/5x5 -> inception_4a/5x5
I0403 16:05:06.176930 20711 net.cpp:141] Setting up inception_4a/5x5
I0403 16:05:06.176962 20711 net.cpp:148] Top shape: 24 48 14 14 (225792)
I0403 16:05:06.176980 20711 net.cpp:156] Memory required for data: 874568736
I0403 16:05:06.177000 20711 layer_factory.hpp:77] Creating layer inception_4a/relu_5x5
I0403 16:05:06.177021 20711 net.cpp:91] Creating Layer inception_4a/relu_5x5
I0403 16:05:06.177039 20711 net.cpp:425] inception_4a/relu_5x5 <- inception_4a/5x5
I0403 16:05:06.177057 20711 net.cpp:386] inception_4a/relu_5x5 -> inception_4a/5x5 (in-place)
I0403 16:05:06.177248 20711 net.cpp:141] Setting up inception_4a/relu_5x5
I0403 16:05:06.177275 20711 net.cpp:148] Top shape: 24 48 14 14 (225792)
I0403 16:05:06.177291 20711 net.cpp:156] Memory required for data: 875471904
I0403 16:05:06.177307 20711 layer_factory.hpp:77] Creating layer inception_4a/pool
I0403 16:05:06.177325 20711 net.cpp:91] Creating Layer inception_4a/pool
I0403 16:05:06.177341 20711 net.cpp:425] inception_4a/pool <- pool3/3x3_s2_pool3/3x3_s2_0_split_3
I0403 16:05:06.177362 20711 net.cpp:399] inception_4a/pool -> inception_4a/pool
I0403 16:05:06.177426 20711 net.cpp:141] Setting up inception_4a/pool
I0403 16:05:06.177454 20711 net.cpp:148] Top shape: 24 480 14 14 (2257920)
I0403 16:05:06.177469 20711 net.cpp:156] Memory required for data: 884503584
I0403 16:05:06.177484 20711 layer_factory.hpp:77] Creating layer inception_4a/pool_proj
I0403 16:05:06.177507 20711 net.cpp:91] Creating Layer inception_4a/pool_proj
I0403 16:05:06.177525 20711 net.cpp:425] inception_4a/pool_proj <- inception_4a/pool
I0403 16:05:06.177544 20711 net.cpp:399] inception_4a/pool_proj -> inception_4a/pool_proj
I0403 16:05:06.178772 20711 net.cpp:141] Setting up inception_4a/pool_proj
I0403 16:05:06.178805 20711 net.cpp:148] Top shape: 24 64 14 14 (301056)
I0403 16:05:06.178839 20711 net.cpp:156] Memory required for data: 885707808
I0403 16:05:06.178860 20711 layer_factory.hpp:77] Creating layer inception_4a/relu_pool_proj
I0403 16:05:06.178879 20711 net.cpp:91] Creating Layer inception_4a/relu_pool_proj
I0403 16:05:06.178896 20711 net.cpp:425] inception_4a/relu_pool_proj <- inception_4a/pool_proj
I0403 16:05:06.178917 20711 net.cpp:386] inception_4a/relu_pool_proj -> inception_4a/pool_proj (in-place)
I0403 16:05:06.179224 20711 net.cpp:141] Setting up inception_4a/relu_pool_proj
I0403 16:05:06.179256 20711 net.cpp:148] Top shape: 24 64 14 14 (301056)
I0403 16:05:06.179273 20711 net.cpp:156] Memory required for data: 886912032
I0403 16:05:06.179288 20711 layer_factory.hpp:77] Creating layer inception_4a/output
I0403 16:05:06.179306 20711 net.cpp:91] Creating Layer inception_4a/output
I0403 16:05:06.179323 20711 net.cpp:425] inception_4a/output <- inception_4a/1x1
I0403 16:05:06.179340 20711 net.cpp:425] inception_4a/output <- inception_4a/3x3
I0403 16:05:06.179358 20711 net.cpp:425] inception_4a/output <- inception_4a/5x5
I0403 16:05:06.179373 20711 net.cpp:425] inception_4a/output <- inception_4a/pool_proj
I0403 16:05:06.179391 20711 net.cpp:399] inception_4a/output -> inception_4a/output
I0403 16:05:06.179440 20711 net.cpp:141] Setting up inception_4a/output
I0403 16:05:06.179466 20711 net.cpp:148] Top shape: 24 512 14 14 (2408448)
I0403 16:05:06.179481 20711 net.cpp:156] Memory required for data: 896545824
I0403 16:05:06.179497 20711 layer_factory.hpp:77] Creating layer inception_4a/output_inception_4a/output_0_split
I0403 16:05:06.179517 20711 net.cpp:91] Creating Layer inception_4a/output_inception_4a/output_0_split
I0403 16:05:06.179533 20711 net.cpp:425] inception_4a/output_inception_4a/output_0_split <- inception_4a/output
I0403 16:05:06.179550 20711 net.cpp:399] inception_4a/output_inception_4a/output_0_split -> inception_4a/output_inception_4a/output_0_split_0
I0403 16:05:06.179571 20711 net.cpp:399] inception_4a/output_inception_4a/output_0_split -> inception_4a/output_inception_4a/output_0_split_1
I0403 16:05:06.179592 20711 net.cpp:399] inception_4a/output_inception_4a/output_0_split -> inception_4a/output_inception_4a/output_0_split_2
I0403 16:05:06.179616 20711 net.cpp:399] inception_4a/output_inception_4a/output_0_split -> inception_4a/output_inception_4a/output_0_split_3
I0403 16:05:06.179637 20711 net.cpp:399] inception_4a/output_inception_4a/output_0_split -> inception_4a/output_inception_4a/output_0_split_4
I0403 16:05:06.179735 20711 net.cpp:141] Setting up inception_4a/output_inception_4a/output_0_split
I0403 16:05:06.179759 20711 net.cpp:148] Top shape: 24 512 14 14 (2408448)
I0403 16:05:06.179777 20711 net.cpp:148] Top shape: 24 512 14 14 (2408448)
I0403 16:05:06.179793 20711 net.cpp:148] Top shape: 24 512 14 14 (2408448)
I0403 16:05:06.179810 20711 net.cpp:148] Top shape: 24 512 14 14 (2408448)
I0403 16:05:06.179826 20711 net.cpp:148] Top shape: 24 512 14 14 (2408448)
I0403 16:05:06.179839 20711 net.cpp:156] Memory required for data: 944714784
I0403 16:05:06.179855 20711 layer_factory.hpp:77] Creating layer loss1/ave_pool
I0403 16:05:06.179877 20711 net.cpp:91] Creating Layer loss1/ave_pool
I0403 16:05:06.179893 20711 net.cpp:425] loss1/ave_pool <- inception_4a/output_inception_4a/output_0_split_0
I0403 16:05:06.179913 20711 net.cpp:399] loss1/ave_pool -> loss1/ave_pool
I0403 16:05:06.180137 20711 net.cpp:141] Setting up loss1/ave_pool
I0403 16:05:06.180166 20711 net.cpp:148] Top shape: 24 512 4 4 (196608)
I0403 16:05:06.180182 20711 net.cpp:156] Memory required for data: 945501216
I0403 16:05:06.180197 20711 layer_factory.hpp:77] Creating layer loss1/conv
I0403 16:05:06.180220 20711 net.cpp:91] Creating Layer loss1/conv
I0403 16:05:06.180238 20711 net.cpp:425] loss1/conv <- loss1/ave_pool
I0403 16:05:06.180259 20711 net.cpp:399] loss1/conv -> loss1/conv
I0403 16:05:06.181757 20711 net.cpp:141] Setting up loss1/conv
I0403 16:05:06.181787 20711 net.cpp:148] Top shape: 24 128 4 4 (49152)
I0403 16:05:06.181818 20711 net.cpp:156] Memory required for data: 945697824
I0403 16:05:06.181838 20711 layer_factory.hpp:77] Creating layer loss1/relu_conv
I0403 16:05:06.181859 20711 net.cpp:91] Creating Layer loss1/relu_conv
I0403 16:05:06.181875 20711 net.cpp:425] loss1/relu_conv <- loss1/conv
I0403 16:05:06.181893 20711 net.cpp:386] loss1/relu_conv -> loss1/conv (in-place)
I0403 16:05:06.182199 20711 net.cpp:141] Setting up loss1/relu_conv
I0403 16:05:06.182226 20711 net.cpp:148] Top shape: 24 128 4 4 (49152)
I0403 16:05:06.182243 20711 net.cpp:156] Memory required for data: 945894432
I0403 16:05:06.182260 20711 layer_factory.hpp:77] Creating layer loss1/fc
I0403 16:05:06.182287 20711 net.cpp:91] Creating Layer loss1/fc
I0403 16:05:06.182307 20711 net.cpp:425] loss1/fc <- loss1/conv
I0403 16:05:06.182327 20711 net.cpp:399] loss1/fc -> loss1/fc
I0403 16:05:06.201038 20711 net.cpp:141] Setting up loss1/fc
I0403 16:05:06.201092 20711 net.cpp:148] Top shape: 24 1024 (24576)
I0403 16:05:06.201108 20711 net.cpp:156] Memory required for data: 945992736
I0403 16:05:06.201129 20711 layer_factory.hpp:77] Creating layer loss1/relu_fc
I0403 16:05:06.201149 20711 net.cpp:91] Creating Layer loss1/relu_fc
I0403 16:05:06.201167 20711 net.cpp:425] loss1/relu_fc <- loss1/fc
I0403 16:05:06.201189 20711 net.cpp:386] loss1/relu_fc -> loss1/fc (in-place)
I0403 16:05:06.201406 20711 net.cpp:141] Setting up loss1/relu_fc
I0403 16:05:06.201432 20711 net.cpp:148] Top shape: 24 1024 (24576)
I0403 16:05:06.201447 20711 net.cpp:156] Memory required for data: 946091040
I0403 16:05:06.201463 20711 layer_factory.hpp:77] Creating layer loss1/drop_fc
I0403 16:05:06.201493 20711 net.cpp:91] Creating Layer loss1/drop_fc
I0403 16:05:06.201514 20711 net.cpp:425] loss1/drop_fc <- loss1/fc
I0403 16:05:06.201532 20711 net.cpp:386] loss1/drop_fc -> loss1/fc (in-place)
I0403 16:05:06.201587 20711 net.cpp:141] Setting up loss1/drop_fc
I0403 16:05:06.201612 20711 net.cpp:148] Top shape: 24 1024 (24576)
I0403 16:05:06.201628 20711 net.cpp:156] Memory required for data: 946189344
I0403 16:05:06.201644 20711 layer_factory.hpp:77] Creating layer loss1/classifier_plantvillage
I0403 16:05:06.201668 20711 net.cpp:91] Creating Layer loss1/classifier_plantvillage
I0403 16:05:06.201686 20711 net.cpp:425] loss1/classifier_plantvillage <- loss1/fc
I0403 16:05:06.201707 20711 net.cpp:399] loss1/classifier_plantvillage -> loss1/classifier_plantvillage
I0403 16:05:06.202672 20711 net.cpp:141] Setting up loss1/classifier_plantvillage
I0403 16:05:06.202702 20711 net.cpp:148] Top shape: 24 38 (912)
I0403 16:05:06.202718 20711 net.cpp:156] Memory required for data: 946192992
I0403 16:05:06.202738 20711 layer_factory.hpp:77] Creating layer loss1/classifier_plantvillage_loss1/classifier_plantvillage_0_split
I0403 16:05:06.202756 20711 net.cpp:91] Creating Layer loss1/classifier_plantvillage_loss1/classifier_plantvillage_0_split
I0403 16:05:06.202774 20711 net.cpp:425] loss1/classifier_plantvillage_loss1/classifier_plantvillage_0_split <- loss1/classifier_plantvillage
I0403 16:05:06.202796 20711 net.cpp:399] loss1/classifier_plantvillage_loss1/classifier_plantvillage_0_split -> loss1/classifier_plantvillage_loss1/classifier_plantvillage_0_split_0
I0403 16:05:06.202819 20711 net.cpp:399] loss1/classifier_plantvillage_loss1/classifier_plantvillage_0_split -> loss1/classifier_plantvillage_loss1/classifier_plantvillage_0_split_1
I0403 16:05:06.202841 20711 net.cpp:399] loss1/classifier_plantvillage_loss1/classifier_plantvillage_0_split -> loss1/classifier_plantvillage_loss1/classifier_plantvillage_0_split_2
I0403 16:05:06.202911 20711 net.cpp:141] Setting up loss1/classifier_plantvillage_loss1/classifier_plantvillage_0_split
I0403 16:05:06.202937 20711 net.cpp:148] Top shape: 24 38 (912)
I0403 16:05:06.202955 20711 net.cpp:148] Top shape: 24 38 (912)
I0403 16:05:06.202972 20711 net.cpp:148] Top shape: 24 38 (912)
I0403 16:05:06.202986 20711 net.cpp:156] Memory required for data: 946203936
I0403 16:05:06.203001 20711 layer_factory.hpp:77] Creating layer inception_4b/1x1
I0403 16:05:06.203027 20711 net.cpp:91] Creating Layer inception_4b/1x1
I0403 16:05:06.203068 20711 net.cpp:425] inception_4b/1x1 <- inception_4a/output_inception_4a/output_0_split_1
I0403 16:05:06.203088 20711 net.cpp:399] inception_4b/1x1 -> inception_4b/1x1
I0403 16:05:06.204864 20711 net.cpp:141] Setting up inception_4b/1x1
I0403 16:05:06.204893 20711 net.cpp:148] Top shape: 24 160 14 14 (752640)
I0403 16:05:06.204910 20711 net.cpp:156] Memory required for data: 949214496
I0403 16:05:06.204929 20711 layer_factory.hpp:77] Creating layer inception_4b/relu_1x1
I0403 16:05:06.204951 20711 net.cpp:91] Creating Layer inception_4b/relu_1x1
I0403 16:05:06.204968 20711 net.cpp:425] inception_4b/relu_1x1 <- inception_4b/1x1
I0403 16:05:06.204987 20711 net.cpp:386] inception_4b/relu_1x1 -> inception_4b/1x1 (in-place)
I0403 16:05:06.205181 20711 net.cpp:141] Setting up inception_4b/relu_1x1
I0403 16:05:06.205207 20711 net.cpp:148] Top shape: 24 160 14 14 (752640)
I0403 16:05:06.205224 20711 net.cpp:156] Memory required for data: 952225056
I0403 16:05:06.205240 20711 layer_factory.hpp:77] Creating layer inception_4b/3x3_reduce
I0403 16:05:06.205265 20711 net.cpp:91] Creating Layer inception_4b/3x3_reduce
I0403 16:05:06.205283 20711 net.cpp:425] inception_4b/3x3_reduce <- inception_4a/output_inception_4a/output_0_split_2
I0403 16:05:06.205303 20711 net.cpp:399] inception_4b/3x3_reduce -> inception_4b/3x3_reduce
I0403 16:05:06.206738 20711 net.cpp:141] Setting up inception_4b/3x3_reduce
I0403 16:05:06.206766 20711 net.cpp:148] Top shape: 24 112 14 14 (526848)
I0403 16:05:06.206784 20711 net.cpp:156] Memory required for data: 954332448
I0403 16:05:06.206802 20711 layer_factory.hpp:77] Creating layer inception_4b/relu_3x3_reduce
I0403 16:05:06.206825 20711 net.cpp:91] Creating Layer inception_4b/relu_3x3_reduce
I0403 16:05:06.206842 20711 net.cpp:425] inception_4b/relu_3x3_reduce <- inception_4b/3x3_reduce
I0403 16:05:06.206861 20711 net.cpp:386] inception_4b/relu_3x3_reduce -> inception_4b/3x3_reduce (in-place)
I0403 16:05:06.207164 20711 net.cpp:141] Setting up inception_4b/relu_3x3_reduce
I0403 16:05:06.207191 20711 net.cpp:148] Top shape: 24 112 14 14 (526848)
I0403 16:05:06.207206 20711 net.cpp:156] Memory required for data: 956439840
I0403 16:05:06.207222 20711 layer_factory.hpp:77] Creating layer inception_4b/3x3
I0403 16:05:06.207247 20711 net.cpp:91] Creating Layer inception_4b/3x3
I0403 16:05:06.207267 20711 net.cpp:425] inception_4b/3x3 <- inception_4b/3x3_reduce
I0403 16:05:06.207285 20711 net.cpp:399] inception_4b/3x3 -> inception_4b/3x3
I0403 16:05:06.210443 20711 net.cpp:141] Setting up inception_4b/3x3
I0403 16:05:06.210476 20711 net.cpp:148] Top shape: 24 224 14 14 (1053696)
I0403 16:05:06.210494 20711 net.cpp:156] Memory required for data: 960654624
I0403 16:05:06.210513 20711 layer_factory.hpp:77] Creating layer inception_4b/relu_3x3
I0403 16:05:06.210531 20711 net.cpp:91] Creating Layer inception_4b/relu_3x3
I0403 16:05:06.210548 20711 net.cpp:425] inception_4b/relu_3x3 <- inception_4b/3x3
I0403 16:05:06.210568 20711 net.cpp:386] inception_4b/relu_3x3 -> inception_4b/3x3 (in-place)
I0403 16:05:06.210762 20711 net.cpp:141] Setting up inception_4b/relu_3x3
I0403 16:05:06.210788 20711 net.cpp:148] Top shape: 24 224 14 14 (1053696)
I0403 16:05:06.210803 20711 net.cpp:156] Memory required for data: 964869408
I0403 16:05:06.210819 20711 layer_factory.hpp:77] Creating layer inception_4b/5x5_reduce
I0403 16:05:06.210841 20711 net.cpp:91] Creating Layer inception_4b/5x5_reduce
I0403 16:05:06.210860 20711 net.cpp:425] inception_4b/5x5_reduce <- inception_4a/output_inception_4a/output_0_split_3
I0403 16:05:06.210883 20711 net.cpp:399] inception_4b/5x5_reduce -> inception_4b/5x5_reduce
I0403 16:05:06.212038 20711 net.cpp:141] Setting up inception_4b/5x5_reduce
I0403 16:05:06.212066 20711 net.cpp:148] Top shape: 24 24 14 14 (112896)
I0403 16:05:06.212083 20711 net.cpp:156] Memory required for data: 965320992
I0403 16:05:06.212102 20711 layer_factory.hpp:77] Creating layer inception_4b/relu_5x5_reduce
I0403 16:05:06.212123 20711 net.cpp:91] Creating Layer inception_4b/relu_5x5_reduce
I0403 16:05:06.212157 20711 net.cpp:425] inception_4b/relu_5x5_reduce <- inception_4b/5x5_reduce
I0403 16:05:06.212175 20711 net.cpp:386] inception_4b/relu_5x5_reduce -> inception_4b/5x5_reduce (in-place)
I0403 16:05:06.212370 20711 net.cpp:141] Setting up inception_4b/relu_5x5_reduce
I0403 16:05:06.212399 20711 net.cpp:148] Top shape: 24 24 14 14 (112896)
I0403 16:05:06.212415 20711 net.cpp:156] Memory required for data: 965772576
I0403 16:05:06.212430 20711 layer_factory.hpp:77] Creating layer inception_4b/5x5
I0403 16:05:06.212453 20711 net.cpp:91] Creating Layer inception_4b/5x5
I0403 16:05:06.212472 20711 net.cpp:425] inception_4b/5x5 <- inception_4b/5x5_reduce
I0403 16:05:06.212491 20711 net.cpp:399] inception_4b/5x5 -> inception_4b/5x5
I0403 16:05:06.213793 20711 net.cpp:141] Setting up inception_4b/5x5
I0403 16:05:06.213822 20711 net.cpp:148] Top shape: 24 64 14 14 (301056)
I0403 16:05:06.213838 20711 net.cpp:156] Memory required for data: 966976800
I0403 16:05:06.213858 20711 layer_factory.hpp:77] Creating layer inception_4b/relu_5x5
I0403 16:05:06.213878 20711 net.cpp:91] Creating Layer inception_4b/relu_5x5
I0403 16:05:06.213896 20711 net.cpp:425] inception_4b/relu_5x5 <- inception_4b/5x5
I0403 16:05:06.213913 20711 net.cpp:386] inception_4b/relu_5x5 -> inception_4b/5x5 (in-place)
I0403 16:05:06.214221 20711 net.cpp:141] Setting up inception_4b/relu_5x5
I0403 16:05:06.214249 20711 net.cpp:148] Top shape: 24 64 14 14 (301056)
I0403 16:05:06.214265 20711 net.cpp:156] Memory required for data: 968181024
I0403 16:05:06.214282 20711 layer_factory.hpp:77] Creating layer inception_4b/pool
I0403 16:05:06.214303 20711 net.cpp:91] Creating Layer inception_4b/pool
I0403 16:05:06.214320 20711 net.cpp:425] inception_4b/pool <- inception_4a/output_inception_4a/output_0_split_4
I0403 16:05:06.214339 20711 net.cpp:399] inception_4b/pool -> inception_4b/pool
I0403 16:05:06.214408 20711 net.cpp:141] Setting up inception_4b/pool
I0403 16:05:06.214434 20711 net.cpp:148] Top shape: 24 512 14 14 (2408448)
I0403 16:05:06.214449 20711 net.cpp:156] Memory required for data: 977814816
I0403 16:05:06.214464 20711 layer_factory.hpp:77] Creating layer inception_4b/pool_proj
I0403 16:05:06.214488 20711 net.cpp:91] Creating Layer inception_4b/pool_proj
I0403 16:05:06.214506 20711 net.cpp:425] inception_4b/pool_proj <- inception_4b/pool
I0403 16:05:06.214529 20711 net.cpp:399] inception_4b/pool_proj -> inception_4b/pool_proj
I0403 16:05:06.215801 20711 net.cpp:141] Setting up inception_4b/pool_proj
I0403 16:05:06.215831 20711 net.cpp:148] Top shape: 24 64 14 14 (301056)
I0403 16:05:06.215847 20711 net.cpp:156] Memory required for data: 979019040
I0403 16:05:06.215867 20711 layer_factory.hpp:77] Creating layer inception_4b/relu_pool_proj
I0403 16:05:06.215889 20711 net.cpp:91] Creating Layer inception_4b/relu_pool_proj
I0403 16:05:06.215906 20711 net.cpp:425] inception_4b/relu_pool_proj <- inception_4b/pool_proj
I0403 16:05:06.215924 20711 net.cpp:386] inception_4b/relu_pool_proj -> inception_4b/pool_proj (in-place)
I0403 16:05:06.216121 20711 net.cpp:141] Setting up inception_4b/relu_pool_proj
I0403 16:05:06.216150 20711 net.cpp:148] Top shape: 24 64 14 14 (301056)
I0403 16:05:06.216166 20711 net.cpp:156] Memory required for data: 980223264
I0403 16:05:06.216181 20711 layer_factory.hpp:77] Creating layer inception_4b/output
I0403 16:05:06.216199 20711 net.cpp:91] Creating Layer inception_4b/output
I0403 16:05:06.216217 20711 net.cpp:425] inception_4b/output <- inception_4b/1x1
I0403 16:05:06.216233 20711 net.cpp:425] inception_4b/output <- inception_4b/3x3
I0403 16:05:06.216250 20711 net.cpp:425] inception_4b/output <- inception_4b/5x5
I0403 16:05:06.216266 20711 net.cpp:425] inception_4b/output <- inception_4b/pool_proj
I0403 16:05:06.216284 20711 net.cpp:399] inception_4b/output -> inception_4b/output
I0403 16:05:06.216333 20711 net.cpp:141] Setting up inception_4b/output
I0403 16:05:06.216358 20711 net.cpp:148] Top shape: 24 512 14 14 (2408448)
I0403 16:05:06.216373 20711 net.cpp:156] Memory required for data: 989857056
I0403 16:05:06.216404 20711 layer_factory.hpp:77] Creating layer inception_4b/output_inception_4b/output_0_split
I0403 16:05:06.216423 20711 net.cpp:91] Creating Layer inception_4b/output_inception_4b/output_0_split
I0403 16:05:06.216439 20711 net.cpp:425] inception_4b/output_inception_4b/output_0_split <- inception_4b/output
I0403 16:05:06.216459 20711 net.cpp:399] inception_4b/output_inception_4b/output_0_split -> inception_4b/output_inception_4b/output_0_split_0
I0403 16:05:06.216480 20711 net.cpp:399] inception_4b/output_inception_4b/output_0_split -> inception_4b/output_inception_4b/output_0_split_1
I0403 16:05:06.216502 20711 net.cpp:399] inception_4b/output_inception_4b/output_0_split -> inception_4b/output_inception_4b/output_0_split_2
I0403 16:05:06.216526 20711 net.cpp:399] inception_4b/output_inception_4b/output_0_split -> inception_4b/output_inception_4b/output_0_split_3
I0403 16:05:06.216615 20711 net.cpp:141] Setting up inception_4b/output_inception_4b/output_0_split
I0403 16:05:06.216640 20711 net.cpp:148] Top shape: 24 512 14 14 (2408448)
I0403 16:05:06.216657 20711 net.cpp:148] Top shape: 24 512 14 14 (2408448)
I0403 16:05:06.216673 20711 net.cpp:148] Top shape: 24 512 14 14 (2408448)
I0403 16:05:06.216689 20711 net.cpp:148] Top shape: 24 512 14 14 (2408448)
I0403 16:05:06.216704 20711 net.cpp:156] Memory required for data: 1028392224
I0403 16:05:06.216719 20711 layer_factory.hpp:77] Creating layer inception_4c/1x1
I0403 16:05:06.216742 20711 net.cpp:91] Creating Layer inception_4c/1x1
I0403 16:05:06.216760 20711 net.cpp:425] inception_4c/1x1 <- inception_4b/output_inception_4b/output_0_split_0
I0403 16:05:06.216781 20711 net.cpp:399] inception_4c/1x1 -> inception_4c/1x1
I0403 16:05:06.218300 20711 net.cpp:141] Setting up inception_4c/1x1
I0403 16:05:06.218334 20711 net.cpp:148] Top shape: 24 128 14 14 (602112)
I0403 16:05:06.218351 20711 net.cpp:156] Memory required for data: 1030800672
I0403 16:05:06.218370 20711 layer_factory.hpp:77] Creating layer inception_4c/relu_1x1
I0403 16:05:06.218389 20711 net.cpp:91] Creating Layer inception_4c/relu_1x1
I0403 16:05:06.218406 20711 net.cpp:425] inception_4c/relu_1x1 <- inception_4c/1x1
I0403 16:05:06.218426 20711 net.cpp:386] inception_4c/relu_1x1 -> inception_4c/1x1 (in-place)
I0403 16:05:06.218621 20711 net.cpp:141] Setting up inception_4c/relu_1x1
I0403 16:05:06.218647 20711 net.cpp:148] Top shape: 24 128 14 14 (602112)
I0403 16:05:06.218662 20711 net.cpp:156] Memory required for data: 1033209120
I0403 16:05:06.218677 20711 layer_factory.hpp:77] Creating layer inception_4c/3x3_reduce
I0403 16:05:06.218700 20711 net.cpp:91] Creating Layer inception_4c/3x3_reduce
I0403 16:05:06.218719 20711 net.cpp:425] inception_4c/3x3_reduce <- inception_4b/output_inception_4b/output_0_split_1
I0403 16:05:06.218742 20711 net.cpp:399] inception_4c/3x3_reduce -> inception_4c/3x3_reduce
I0403 16:05:06.220782 20711 net.cpp:141] Setting up inception_4c/3x3_reduce
I0403 16:05:06.220813 20711 net.cpp:148] Top shape: 24 128 14 14 (602112)
I0403 16:05:06.220829 20711 net.cpp:156] Memory required for data: 1035617568
I0403 16:05:06.220849 20711 layer_factory.hpp:77] Creating layer inception_4c/relu_3x3_reduce
I0403 16:05:06.220870 20711 net.cpp:91] Creating Layer inception_4c/relu_3x3_reduce
I0403 16:05:06.220887 20711 net.cpp:425] inception_4c/relu_3x3_reduce <- inception_4c/3x3_reduce
I0403 16:05:06.220906 20711 net.cpp:386] inception_4c/relu_3x3_reduce -> inception_4c/3x3_reduce (in-place)
I0403 16:05:06.221210 20711 net.cpp:141] Setting up inception_4c/relu_3x3_reduce
I0403 16:05:06.221237 20711 net.cpp:148] Top shape: 24 128 14 14 (602112)
I0403 16:05:06.221253 20711 net.cpp:156] Memory required for data: 1038026016
I0403 16:05:06.221268 20711 layer_factory.hpp:77] Creating layer inception_4c/3x3
I0403 16:05:06.221292 20711 net.cpp:91] Creating Layer inception_4c/3x3
I0403 16:05:06.221310 20711 net.cpp:425] inception_4c/3x3 <- inception_4c/3x3_reduce
I0403 16:05:06.221333 20711 net.cpp:399] inception_4c/3x3 -> inception_4c/3x3
I0403 16:05:06.225159 20711 net.cpp:141] Setting up inception_4c/3x3
I0403 16:05:06.225203 20711 net.cpp:148] Top shape: 24 256 14 14 (1204224)
I0403 16:05:06.225219 20711 net.cpp:156] Memory required for data: 1042842912
I0403 16:05:06.225252 20711 layer_factory.hpp:77] Creating layer inception_4c/relu_3x3
I0403 16:05:06.225276 20711 net.cpp:91] Creating Layer inception_4c/relu_3x3
I0403 16:05:06.225294 20711 net.cpp:425] inception_4c/relu_3x3 <- inception_4c/3x3
I0403 16:05:06.225311 20711 net.cpp:386] inception_4c/relu_3x3 -> inception_4c/3x3 (in-place)
I0403 16:05:06.225507 20711 net.cpp:141] Setting up inception_4c/relu_3x3
I0403 16:05:06.225533 20711 net.cpp:148] Top shape: 24 256 14 14 (1204224)
I0403 16:05:06.225548 20711 net.cpp:156] Memory required for data: 1047659808
I0403 16:05:06.225564 20711 layer_factory.hpp:77] Creating layer inception_4c/5x5_reduce
I0403 16:05:06.225587 20711 net.cpp:91] Creating Layer inception_4c/5x5_reduce
I0403 16:05:06.225606 20711 net.cpp:425] inception_4c/5x5_reduce <- inception_4b/output_inception_4b/output_0_split_2
I0403 16:05:06.225630 20711 net.cpp:399] inception_4c/5x5_reduce -> inception_4c/5x5_reduce
I0403 16:05:06.226783 20711 net.cpp:141] Setting up inception_4c/5x5_reduce
I0403 16:05:06.226814 20711 net.cpp:148] Top shape: 24 24 14 14 (112896)
I0403 16:05:06.226830 20711 net.cpp:156] Memory required for data: 1048111392
I0403 16:05:06.226848 20711 layer_factory.hpp:77] Creating layer inception_4c/relu_5x5_reduce
I0403 16:05:06.226871 20711 net.cpp:91] Creating Layer inception_4c/relu_5x5_reduce
I0403 16:05:06.226887 20711 net.cpp:425] inception_4c/relu_5x5_reduce <- inception_4c/5x5_reduce
I0403 16:05:06.226905 20711 net.cpp:386] inception_4c/relu_5x5_reduce -> inception_4c/5x5_reduce (in-place)
I0403 16:05:06.227105 20711 net.cpp:141] Setting up inception_4c/relu_5x5_reduce
I0403 16:05:06.227134 20711 net.cpp:148] Top shape: 24 24 14 14 (112896)
I0403 16:05:06.227150 20711 net.cpp:156] Memory required for data: 1048562976
I0403 16:05:06.227166 20711 layer_factory.hpp:77] Creating layer inception_4c/5x5
I0403 16:05:06.227188 20711 net.cpp:91] Creating Layer inception_4c/5x5
I0403 16:05:06.227207 20711 net.cpp:425] inception_4c/5x5 <- inception_4c/5x5_reduce
I0403 16:05:06.227227 20711 net.cpp:399] inception_4c/5x5 -> inception_4c/5x5
I0403 16:05:06.228549 20711 net.cpp:141] Setting up inception_4c/5x5
I0403 16:05:06.228581 20711 net.cpp:148] Top shape: 24 64 14 14 (301056)
I0403 16:05:06.228598 20711 net.cpp:156] Memory required for data: 1049767200
I0403 16:05:06.228617 20711 layer_factory.hpp:77] Creating layer inception_4c/relu_5x5
I0403 16:05:06.228636 20711 net.cpp:91] Creating Layer inception_4c/relu_5x5
I0403 16:05:06.228652 20711 net.cpp:425] inception_4c/relu_5x5 <- inception_4c/5x5
I0403 16:05:06.228673 20711 net.cpp:386] inception_4c/relu_5x5 -> inception_4c/5x5 (in-place)
I0403 16:05:06.228982 20711 net.cpp:141] Setting up inception_4c/relu_5x5
I0403 16:05:06.229012 20711 net.cpp:148] Top shape: 24 64 14 14 (301056)
I0403 16:05:06.229041 20711 net.cpp:156] Memory required for data: 1050971424
I0403 16:05:06.229058 20711 layer_factory.hpp:77] Creating layer inception_4c/pool
I0403 16:05:06.229076 20711 net.cpp:91] Creating Layer inception_4c/pool
I0403 16:05:06.229094 20711 net.cpp:425] inception_4c/pool <- inception_4b/output_inception_4b/output_0_split_3
I0403 16:05:06.229115 20711 net.cpp:399] inception_4c/pool -> inception_4c/pool
I0403 16:05:06.229184 20711 net.cpp:141] Setting up inception_4c/pool
I0403 16:05:06.229209 20711 net.cpp:148] Top shape: 24 512 14 14 (2408448)
I0403 16:05:06.229224 20711 net.cpp:156] Memory required for data: 1060605216
I0403 16:05:06.229241 20711 layer_factory.hpp:77] Creating layer inception_4c/pool_proj
I0403 16:05:06.229264 20711 net.cpp:91] Creating Layer inception_4c/pool_proj
I0403 16:05:06.229282 20711 net.cpp:425] inception_4c/pool_proj <- inception_4c/pool
I0403 16:05:06.229303 20711 net.cpp:399] inception_4c/pool_proj -> inception_4c/pool_proj
I0403 16:05:06.230603 20711 net.cpp:141] Setting up inception_4c/pool_proj
I0403 16:05:06.230633 20711 net.cpp:148] Top shape: 24 64 14 14 (301056)
I0403 16:05:06.230664 20711 net.cpp:156] Memory required for data: 1061809440
I0403 16:05:06.230685 20711 layer_factory.hpp:77] Creating layer inception_4c/relu_pool_proj
I0403 16:05:06.230707 20711 net.cpp:91] Creating Layer inception_4c/relu_pool_proj
I0403 16:05:06.230726 20711 net.cpp:425] inception_4c/relu_pool_proj <- inception_4c/pool_proj
I0403 16:05:06.230744 20711 net.cpp:386] inception_4c/relu_pool_proj -> inception_4c/pool_proj (in-place)
I0403 16:05:06.230937 20711 net.cpp:141] Setting up inception_4c/relu_pool_proj
I0403 16:05:06.230964 20711 net.cpp:148] Top shape: 24 64 14 14 (301056)
I0403 16:05:06.230980 20711 net.cpp:156] Memory required for data: 1063013664
I0403 16:05:06.230998 20711 layer_factory.hpp:77] Creating layer inception_4c/output
I0403 16:05:06.231022 20711 net.cpp:91] Creating Layer inception_4c/output
I0403 16:05:06.231041 20711 net.cpp:425] inception_4c/output <- inception_4c/1x1
I0403 16:05:06.231058 20711 net.cpp:425] inception_4c/output <- inception_4c/3x3
I0403 16:05:06.231075 20711 net.cpp:425] inception_4c/output <- inception_4c/5x5
I0403 16:05:06.231091 20711 net.cpp:425] inception_4c/output <- inception_4c/pool_proj
I0403 16:05:06.231107 20711 net.cpp:399] inception_4c/output -> inception_4c/output
I0403 16:05:06.231160 20711 net.cpp:141] Setting up inception_4c/output
I0403 16:05:06.231186 20711 net.cpp:148] Top shape: 24 512 14 14 (2408448)
I0403 16:05:06.231201 20711 net.cpp:156] Memory required for data: 1072647456
I0403 16:05:06.231215 20711 layer_factory.hpp:77] Creating layer inception_4c/output_inception_4c/output_0_split
I0403 16:05:06.231233 20711 net.cpp:91] Creating Layer inception_4c/output_inception_4c/output_0_split
I0403 16:05:06.231250 20711 net.cpp:425] inception_4c/output_inception_4c/output_0_split <- inception_4c/output
I0403 16:05:06.231269 20711 net.cpp:399] inception_4c/output_inception_4c/output_0_split -> inception_4c/output_inception_4c/output_0_split_0
I0403 16:05:06.231290 20711 net.cpp:399] inception_4c/output_inception_4c/output_0_split -> inception_4c/output_inception_4c/output_0_split_1
I0403 16:05:06.231312 20711 net.cpp:399] inception_4c/output_inception_4c/output_0_split -> inception_4c/output_inception_4c/output_0_split_2
I0403 16:05:06.231333 20711 net.cpp:399] inception_4c/output_inception_4c/output_0_split -> inception_4c/output_inception_4c/output_0_split_3
I0403 16:05:06.231431 20711 net.cpp:141] Setting up inception_4c/output_inception_4c/output_0_split
I0403 16:05:06.231456 20711 net.cpp:148] Top shape: 24 512 14 14 (2408448)
I0403 16:05:06.231472 20711 net.cpp:148] Top shape: 24 512 14 14 (2408448)
I0403 16:05:06.231489 20711 net.cpp:148] Top shape: 24 512 14 14 (2408448)
I0403 16:05:06.231505 20711 net.cpp:148] Top shape: 24 512 14 14 (2408448)
I0403 16:05:06.231520 20711 net.cpp:156] Memory required for data: 1111182624
I0403 16:05:06.231534 20711 layer_factory.hpp:77] Creating layer inception_4d/1x1
I0403 16:05:06.231559 20711 net.cpp:91] Creating Layer inception_4d/1x1
I0403 16:05:06.231576 20711 net.cpp:425] inception_4d/1x1 <- inception_4c/output_inception_4c/output_0_split_0
I0403 16:05:06.231598 20711 net.cpp:399] inception_4d/1x1 -> inception_4d/1x1
I0403 16:05:06.233063 20711 net.cpp:141] Setting up inception_4d/1x1
I0403 16:05:06.233093 20711 net.cpp:148] Top shape: 24 112 14 14 (526848)
I0403 16:05:06.233109 20711 net.cpp:156] Memory required for data: 1113290016
I0403 16:05:06.233129 20711 layer_factory.hpp:77] Creating layer inception_4d/relu_1x1
I0403 16:05:06.233147 20711 net.cpp:91] Creating Layer inception_4d/relu_1x1
I0403 16:05:06.233165 20711 net.cpp:425] inception_4d/relu_1x1 <- inception_4d/1x1
I0403 16:05:06.233185 20711 net.cpp:386] inception_4d/relu_1x1 -> inception_4d/1x1 (in-place)
I0403 16:05:06.233379 20711 net.cpp:141] Setting up inception_4d/relu_1x1
I0403 16:05:06.233405 20711 net.cpp:148] Top shape: 24 112 14 14 (526848)
I0403 16:05:06.233422 20711 net.cpp:156] Memory required for data: 1115397408
I0403 16:05:06.233436 20711 layer_factory.hpp:77] Creating layer inception_4d/3x3_reduce
I0403 16:05:06.233474 20711 net.cpp:91] Creating Layer inception_4d/3x3_reduce
I0403 16:05:06.233494 20711 net.cpp:425] inception_4d/3x3_reduce <- inception_4c/output_inception_4c/output_0_split_1
I0403 16:05:06.233516 20711 net.cpp:399] inception_4d/3x3_reduce -> inception_4d/3x3_reduce
I0403 16:05:06.235116 20711 net.cpp:141] Setting up inception_4d/3x3_reduce
I0403 16:05:06.235148 20711 net.cpp:148] Top shape: 24 144 14 14 (677376)
I0403 16:05:06.235165 20711 net.cpp:156] Memory required for data: 1118106912
I0403 16:05:06.235184 20711 layer_factory.hpp:77] Creating layer inception_4d/relu_3x3_reduce
I0403 16:05:06.235203 20711 net.cpp:91] Creating Layer inception_4d/relu_3x3_reduce
I0403 16:05:06.235219 20711 net.cpp:425] inception_4d/relu_3x3_reduce <- inception_4d/3x3_reduce
I0403 16:05:06.235236 20711 net.cpp:386] inception_4d/relu_3x3_reduce -> inception_4d/3x3_reduce (in-place)
I0403 16:05:06.235543 20711 net.cpp:141] Setting up inception_4d/relu_3x3_reduce
I0403 16:05:06.235574 20711 net.cpp:148] Top shape: 24 144 14 14 (677376)
I0403 16:05:06.235590 20711 net.cpp:156] Memory required for data: 1120816416
I0403 16:05:06.235605 20711 layer_factory.hpp:77] Creating layer inception_4d/3x3
I0403 16:05:06.235628 20711 net.cpp:91] Creating Layer inception_4d/3x3
I0403 16:05:06.235647 20711 net.cpp:425] inception_4d/3x3 <- inception_4d/3x3_reduce
I0403 16:05:06.235666 20711 net.cpp:399] inception_4d/3x3 -> inception_4d/3x3
I0403 16:05:06.240157 20711 net.cpp:141] Setting up inception_4d/3x3
I0403 16:05:06.240188 20711 net.cpp:148] Top shape: 24 288 14 14 (1354752)
I0403 16:05:06.240206 20711 net.cpp:156] Memory required for data: 1126235424
I0403 16:05:06.240224 20711 layer_factory.hpp:77] Creating layer inception_4d/relu_3x3
I0403 16:05:06.240243 20711 net.cpp:91] Creating Layer inception_4d/relu_3x3
I0403 16:05:06.240260 20711 net.cpp:425] inception_4d/relu_3x3 <- inception_4d/3x3
I0403 16:05:06.240280 20711 net.cpp:386] inception_4d/relu_3x3 -> inception_4d/3x3 (in-place)
I0403 16:05:06.240479 20711 net.cpp:141] Setting up inception_4d/relu_3x3
I0403 16:05:06.240505 20711 net.cpp:148] Top shape: 24 288 14 14 (1354752)
I0403 16:05:06.240520 20711 net.cpp:156] Memory required for data: 1131654432
I0403 16:05:06.240536 20711 layer_factory.hpp:77] Creating layer inception_4d/5x5_reduce
I0403 16:05:06.240559 20711 net.cpp:91] Creating Layer inception_4d/5x5_reduce
I0403 16:05:06.240577 20711 net.cpp:425] inception_4d/5x5_reduce <- inception_4c/output_inception_4c/output_0_split_2
I0403 16:05:06.240599 20711 net.cpp:399] inception_4d/5x5_reduce -> inception_4d/5x5_reduce
I0403 16:05:06.241816 20711 net.cpp:141] Setting up inception_4d/5x5_reduce
I0403 16:05:06.241852 20711 net.cpp:148] Top shape: 24 32 14 14 (150528)
I0403 16:05:06.241868 20711 net.cpp:156] Memory required for data: 1132256544
I0403 16:05:06.241891 20711 layer_factory.hpp:77] Creating layer inception_4d/relu_5x5_reduce
I0403 16:05:06.241912 20711 net.cpp:91] Creating Layer inception_4d/relu_5x5_reduce
I0403 16:05:06.241935 20711 net.cpp:425] inception_4d/relu_5x5_reduce <- inception_4d/5x5_reduce
I0403 16:05:06.241956 20711 net.cpp:386] inception_4d/relu_5x5_reduce -> inception_4d/5x5_reduce (in-place)
I0403 16:05:06.242172 20711 net.cpp:141] Setting up inception_4d/relu_5x5_reduce
I0403 16:05:06.242197 20711 net.cpp:148] Top shape: 24 32 14 14 (150528)
I0403 16:05:06.242213 20711 net.cpp:156] Memory required for data: 1132858656
I0403 16:05:06.242228 20711 layer_factory.hpp:77] Creating layer inception_4d/5x5
I0403 16:05:06.242251 20711 net.cpp:91] Creating Layer inception_4d/5x5
I0403 16:05:06.242270 20711 net.cpp:425] inception_4d/5x5 <- inception_4d/5x5_reduce
I0403 16:05:06.242292 20711 net.cpp:399] inception_4d/5x5 -> inception_4d/5x5
I0403 16:05:06.243872 20711 net.cpp:141] Setting up inception_4d/5x5
I0403 16:05:06.243902 20711 net.cpp:148] Top shape: 24 64 14 14 (301056)
I0403 16:05:06.243918 20711 net.cpp:156] Memory required for data: 1134062880
I0403 16:05:06.243937 20711 layer_factory.hpp:77] Creating layer inception_4d/relu_5x5
I0403 16:05:06.243978 20711 net.cpp:91] Creating Layer inception_4d/relu_5x5
I0403 16:05:06.243996 20711 net.cpp:425] inception_4d/relu_5x5 <- inception_4d/5x5
I0403 16:05:06.244014 20711 net.cpp:386] inception_4d/relu_5x5 -> inception_4d/5x5 (in-place)
I0403 16:05:06.244343 20711 net.cpp:141] Setting up inception_4d/relu_5x5
I0403 16:05:06.244371 20711 net.cpp:148] Top shape: 24 64 14 14 (301056)
I0403 16:05:06.244387 20711 net.cpp:156] Memory required for data: 1135267104
I0403 16:05:06.244402 20711 layer_factory.hpp:77] Creating layer inception_4d/pool
I0403 16:05:06.244423 20711 net.cpp:91] Creating Layer inception_4d/pool
I0403 16:05:06.244441 20711 net.cpp:425] inception_4d/pool <- inception_4c/output_inception_4c/output_0_split_3
I0403 16:05:06.244460 20711 net.cpp:399] inception_4d/pool -> inception_4d/pool
I0403 16:05:06.244532 20711 net.cpp:141] Setting up inception_4d/pool
I0403 16:05:06.244557 20711 net.cpp:148] Top shape: 24 512 14 14 (2408448)
I0403 16:05:06.244573 20711 net.cpp:156] Memory required for data: 1144900896
I0403 16:05:06.244588 20711 layer_factory.hpp:77] Creating layer inception_4d/pool_proj
I0403 16:05:06.244611 20711 net.cpp:91] Creating Layer inception_4d/pool_proj
I0403 16:05:06.244629 20711 net.cpp:425] inception_4d/pool_proj <- inception_4d/pool
I0403 16:05:06.244652 20711 net.cpp:399] inception_4d/pool_proj -> inception_4d/pool_proj
I0403 16:05:06.246526 20711 net.cpp:141] Setting up inception_4d/pool_proj
I0403 16:05:06.246556 20711 net.cpp:148] Top shape: 24 64 14 14 (301056)
I0403 16:05:06.246572 20711 net.cpp:156] Memory required for data: 1146105120
I0403 16:05:06.246592 20711 layer_factory.hpp:77] Creating layer inception_4d/relu_pool_proj
I0403 16:05:06.246610 20711 net.cpp:91] Creating Layer inception_4d/relu_pool_proj
I0403 16:05:06.246626 20711 net.cpp:425] inception_4d/relu_pool_proj <- inception_4d/pool_proj
I0403 16:05:06.246646 20711 net.cpp:386] inception_4d/relu_pool_proj -> inception_4d/pool_proj (in-place)
I0403 16:05:06.246837 20711 net.cpp:141] Setting up inception_4d/relu_pool_proj
I0403 16:05:06.246863 20711 net.cpp:148] Top shape: 24 64 14 14 (301056)
I0403 16:05:06.246878 20711 net.cpp:156] Memory required for data: 1147309344
I0403 16:05:06.246892 20711 layer_factory.hpp:77] Creating layer inception_4d/output
I0403 16:05:06.246912 20711 net.cpp:91] Creating Layer inception_4d/output
I0403 16:05:06.246929 20711 net.cpp:425] inception_4d/output <- inception_4d/1x1
I0403 16:05:06.246947 20711 net.cpp:425] inception_4d/output <- inception_4d/3x3
I0403 16:05:06.246965 20711 net.cpp:425] inception_4d/output <- inception_4d/5x5
I0403 16:05:06.246980 20711 net.cpp:425] inception_4d/output <- inception_4d/pool_proj
I0403 16:05:06.246997 20711 net.cpp:399] inception_4d/output -> inception_4d/output
I0403 16:05:06.247051 20711 net.cpp:141] Setting up inception_4d/output
I0403 16:05:06.247076 20711 net.cpp:148] Top shape: 24 528 14 14 (2483712)
I0403 16:05:06.247090 20711 net.cpp:156] Memory required for data: 1157244192
I0403 16:05:06.247105 20711 layer_factory.hpp:77] Creating layer inception_4d/output_inception_4d/output_0_split
I0403 16:05:06.247123 20711 net.cpp:91] Creating Layer inception_4d/output_inception_4d/output_0_split
I0403 16:05:06.247138 20711 net.cpp:425] inception_4d/output_inception_4d/output_0_split <- inception_4d/output
I0403 16:05:06.247159 20711 net.cpp:399] inception_4d/output_inception_4d/output_0_split -> inception_4d/output_inception_4d/output_0_split_0
I0403 16:05:06.247180 20711 net.cpp:399] inception_4d/output_inception_4d/output_0_split -> inception_4d/output_inception_4d/output_0_split_1
I0403 16:05:06.247201 20711 net.cpp:399] inception_4d/output_inception_4d/output_0_split -> inception_4d/output_inception_4d/output_0_split_2
I0403 16:05:06.247221 20711 net.cpp:399] inception_4d/output_inception_4d/output_0_split -> inception_4d/output_inception_4d/output_0_split_3
I0403 16:05:06.247241 20711 net.cpp:399] inception_4d/output_inception_4d/output_0_split -> inception_4d/output_inception_4d/output_0_split_4
I0403 16:05:06.247349 20711 net.cpp:141] Setting up inception_4d/output_inception_4d/output_0_split
I0403 16:05:06.247388 20711 net.cpp:148] Top shape: 24 528 14 14 (2483712)
I0403 16:05:06.247407 20711 net.cpp:148] Top shape: 24 528 14 14 (2483712)
I0403 16:05:06.247424 20711 net.cpp:148] Top shape: 24 528 14 14 (2483712)
I0403 16:05:06.247440 20711 net.cpp:148] Top shape: 24 528 14 14 (2483712)
I0403 16:05:06.247457 20711 net.cpp:148] Top shape: 24 528 14 14 (2483712)
I0403 16:05:06.247469 20711 net.cpp:156] Memory required for data: 1206918432
I0403 16:05:06.247483 20711 layer_factory.hpp:77] Creating layer loss2/ave_pool
I0403 16:05:06.247501 20711 net.cpp:91] Creating Layer loss2/ave_pool
I0403 16:05:06.247517 20711 net.cpp:425] loss2/ave_pool <- inception_4d/output_inception_4d/output_0_split_0
I0403 16:05:06.247539 20711 net.cpp:399] loss2/ave_pool -> loss2/ave_pool
I0403 16:05:06.247860 20711 net.cpp:141] Setting up loss2/ave_pool
I0403 16:05:06.247889 20711 net.cpp:148] Top shape: 24 528 4 4 (202752)
I0403 16:05:06.247903 20711 net.cpp:156] Memory required for data: 1207729440
I0403 16:05:06.247918 20711 layer_factory.hpp:77] Creating layer loss2/conv
I0403 16:05:06.247941 20711 net.cpp:91] Creating Layer loss2/conv
I0403 16:05:06.247961 20711 net.cpp:425] loss2/conv <- loss2/ave_pool
I0403 16:05:06.247982 20711 net.cpp:399] loss2/conv -> loss2/conv
I0403 16:05:06.249927 20711 net.cpp:141] Setting up loss2/conv
I0403 16:05:06.249956 20711 net.cpp:148] Top shape: 24 128 4 4 (49152)
I0403 16:05:06.249972 20711 net.cpp:156] Memory required for data: 1207926048
I0403 16:05:06.249991 20711 layer_factory.hpp:77] Creating layer loss2/relu_conv
I0403 16:05:06.250013 20711 net.cpp:91] Creating Layer loss2/relu_conv
I0403 16:05:06.250035 20711 net.cpp:425] loss2/relu_conv <- loss2/conv
I0403 16:05:06.250052 20711 net.cpp:386] loss2/relu_conv -> loss2/conv (in-place)
I0403 16:05:06.250346 20711 net.cpp:141] Setting up loss2/relu_conv
I0403 16:05:06.250373 20711 net.cpp:148] Top shape: 24 128 4 4 (49152)
I0403 16:05:06.250393 20711 net.cpp:156] Memory required for data: 1208122656
I0403 16:05:06.250409 20711 layer_factory.hpp:77] Creating layer loss2/fc
I0403 16:05:06.250428 20711 net.cpp:91] Creating Layer loss2/fc
I0403 16:05:06.250445 20711 net.cpp:425] loss2/fc <- loss2/conv
I0403 16:05:06.250466 20711 net.cpp:399] loss2/fc -> loss2/fc
I0403 16:05:06.268077 20711 net.cpp:141] Setting up loss2/fc
I0403 16:05:06.268134 20711 net.cpp:148] Top shape: 24 1024 (24576)
I0403 16:05:06.268149 20711 net.cpp:156] Memory required for data: 1208220960
I0403 16:05:06.268168 20711 layer_factory.hpp:77] Creating layer loss2/relu_fc
I0403 16:05:06.268187 20711 net.cpp:91] Creating Layer loss2/relu_fc
I0403 16:05:06.268208 20711 net.cpp:425] loss2/relu_fc <- loss2/fc
I0403 16:05:06.268225 20711 net.cpp:386] loss2/relu_fc -> loss2/fc (in-place)
I0403 16:05:06.268559 20711 net.cpp:141] Setting up loss2/relu_fc
I0403 16:05:06.268586 20711 net.cpp:148] Top shape: 24 1024 (24576)
I0403 16:05:06.268601 20711 net.cpp:156] Memory required for data: 1208319264
I0403 16:05:06.268615 20711 layer_factory.hpp:77] Creating layer loss2/drop_fc
I0403 16:05:06.268633 20711 net.cpp:91] Creating Layer loss2/drop_fc
I0403 16:05:06.268652 20711 net.cpp:425] loss2/drop_fc <- loss2/fc
I0403 16:05:06.268671 20711 net.cpp:386] loss2/drop_fc -> loss2/fc (in-place)
I0403 16:05:06.268723 20711 net.cpp:141] Setting up loss2/drop_fc
I0403 16:05:06.268749 20711 net.cpp:148] Top shape: 24 1024 (24576)
I0403 16:05:06.268764 20711 net.cpp:156] Memory required for data: 1208417568
I0403 16:05:06.268779 20711 layer_factory.hpp:77] Creating layer loss2/classifier_plantvillage
I0403 16:05:06.268797 20711 net.cpp:91] Creating Layer loss2/classifier_plantvillage
I0403 16:05:06.268813 20711 net.cpp:425] loss2/classifier_plantvillage <- loss2/fc
I0403 16:05:06.268832 20711 net.cpp:399] loss2/classifier_plantvillage -> loss2/classifier_plantvillage
I0403 16:05:06.269248 20711 net.cpp:141] Setting up loss2/classifier_plantvillage
I0403 16:05:06.269275 20711 net.cpp:148] Top shape: 24 38 (912)
I0403 16:05:06.269316 20711 net.cpp:156] Memory required for data: 1208421216
I0403 16:05:06.269335 20711 layer_factory.hpp:77] Creating layer loss2/classifier_plantvillage_loss2/classifier_plantvillage_0_split
I0403 16:05:06.269354 20711 net.cpp:91] Creating Layer loss2/classifier_plantvillage_loss2/classifier_plantvillage_0_split
I0403 16:05:06.269371 20711 net.cpp:425] loss2/classifier_plantvillage_loss2/classifier_plantvillage_0_split <- loss2/classifier_plantvillage
I0403 16:05:06.269387 20711 net.cpp:399] loss2/classifier_plantvillage_loss2/classifier_plantvillage_0_split -> loss2/classifier_plantvillage_loss2/classifier_plantvillage_0_split_0
I0403 16:05:06.269405 20711 net.cpp:399] loss2/classifier_plantvillage_loss2/classifier_plantvillage_0_split -> loss2/classifier_plantvillage_loss2/classifier_plantvillage_0_split_1
I0403 16:05:06.269428 20711 net.cpp:399] loss2/classifier_plantvillage_loss2/classifier_plantvillage_0_split -> loss2/classifier_plantvillage_loss2/classifier_plantvillage_0_split_2
I0403 16:05:06.269506 20711 net.cpp:141] Setting up loss2/classifier_plantvillage_loss2/classifier_plantvillage_0_split
I0403 16:05:06.269531 20711 net.cpp:148] Top shape: 24 38 (912)
I0403 16:05:06.269546 20711 net.cpp:148] Top shape: 24 38 (912)
I0403 16:05:06.269562 20711 net.cpp:148] Top shape: 24 38 (912)
I0403 16:05:06.269574 20711 net.cpp:156] Memory required for data: 1208432160
I0403 16:05:06.269587 20711 layer_factory.hpp:77] Creating layer inception_4e/1x1
I0403 16:05:06.269611 20711 net.cpp:91] Creating Layer inception_4e/1x1
I0403 16:05:06.269629 20711 net.cpp:425] inception_4e/1x1 <- inception_4d/output_inception_4d/output_0_split_1
I0403 16:05:06.269650 20711 net.cpp:399] inception_4e/1x1 -> inception_4e/1x1
I0403 16:05:06.271507 20711 net.cpp:141] Setting up inception_4e/1x1
I0403 16:05:06.271535 20711 net.cpp:148] Top shape: 24 256 14 14 (1204224)
I0403 16:05:06.271550 20711 net.cpp:156] Memory required for data: 1213249056
I0403 16:05:06.271567 20711 layer_factory.hpp:77] Creating layer inception_4e/relu_1x1
I0403 16:05:06.271589 20711 net.cpp:91] Creating Layer inception_4e/relu_1x1
I0403 16:05:06.271605 20711 net.cpp:425] inception_4e/relu_1x1 <- inception_4e/1x1
I0403 16:05:06.271621 20711 net.cpp:386] inception_4e/relu_1x1 -> inception_4e/1x1 (in-place)
I0403 16:05:06.271921 20711 net.cpp:141] Setting up inception_4e/relu_1x1
I0403 16:05:06.271947 20711 net.cpp:148] Top shape: 24 256 14 14 (1204224)
I0403 16:05:06.271965 20711 net.cpp:156] Memory required for data: 1218065952
I0403 16:05:06.271978 20711 layer_factory.hpp:77] Creating layer inception_4e/3x3_reduce
I0403 16:05:06.272001 20711 net.cpp:91] Creating Layer inception_4e/3x3_reduce
I0403 16:05:06.272022 20711 net.cpp:425] inception_4e/3x3_reduce <- inception_4d/output_inception_4d/output_0_split_2
I0403 16:05:06.272042 20711 net.cpp:399] inception_4e/3x3_reduce -> inception_4e/3x3_reduce
I0403 16:05:06.274178 20711 net.cpp:141] Setting up inception_4e/3x3_reduce
I0403 16:05:06.274206 20711 net.cpp:148] Top shape: 24 160 14 14 (752640)
I0403 16:05:06.274222 20711 net.cpp:156] Memory required for data: 1221076512
I0403 16:05:06.274241 20711 layer_factory.hpp:77] Creating layer inception_4e/relu_3x3_reduce
I0403 16:05:06.274261 20711 net.cpp:91] Creating Layer inception_4e/relu_3x3_reduce
I0403 16:05:06.274277 20711 net.cpp:425] inception_4e/relu_3x3_reduce <- inception_4e/3x3_reduce
I0403 16:05:06.274294 20711 net.cpp:386] inception_4e/relu_3x3_reduce -> inception_4e/3x3_reduce (in-place)
I0403 16:05:06.274482 20711 net.cpp:141] Setting up inception_4e/relu_3x3_reduce
I0403 16:05:06.274508 20711 net.cpp:148] Top shape: 24 160 14 14 (752640)
I0403 16:05:06.274524 20711 net.cpp:156] Memory required for data: 1224087072
I0403 16:05:06.274538 20711 layer_factory.hpp:77] Creating layer inception_4e/3x3
I0403 16:05:06.274560 20711 net.cpp:91] Creating Layer inception_4e/3x3
I0403 16:05:06.274577 20711 net.cpp:425] inception_4e/3x3 <- inception_4e/3x3_reduce
I0403 16:05:06.274596 20711 net.cpp:399] inception_4e/3x3 -> inception_4e/3x3
I0403 16:05:06.279604 20711 net.cpp:141] Setting up inception_4e/3x3
I0403 16:05:06.279647 20711 net.cpp:148] Top shape: 24 320 14 14 (1505280)
I0403 16:05:06.279665 20711 net.cpp:156] Memory required for data: 1230108192
I0403 16:05:06.279683 20711 layer_factory.hpp:77] Creating layer inception_4e/relu_3x3
I0403 16:05:06.279700 20711 net.cpp:91] Creating Layer inception_4e/relu_3x3
I0403 16:05:06.279716 20711 net.cpp:425] inception_4e/relu_3x3 <- inception_4e/3x3
I0403 16:05:06.279736 20711 net.cpp:386] inception_4e/relu_3x3 -> inception_4e/3x3 (in-place)
I0403 16:05:06.280040 20711 net.cpp:141] Setting up inception_4e/relu_3x3
I0403 16:05:06.280066 20711 net.cpp:148] Top shape: 24 320 14 14 (1505280)
I0403 16:05:06.280081 20711 net.cpp:156] Memory required for data: 1236129312
I0403 16:05:06.280095 20711 layer_factory.hpp:77] Creating layer inception_4e/5x5_reduce
I0403 16:05:06.280117 20711 net.cpp:91] Creating Layer inception_4e/5x5_reduce
I0403 16:05:06.280134 20711 net.cpp:425] inception_4e/5x5_reduce <- inception_4d/output_inception_4d/output_0_split_3
I0403 16:05:06.280155 20711 net.cpp:399] inception_4e/5x5_reduce -> inception_4e/5x5_reduce
I0403 16:05:06.281234 20711 net.cpp:141] Setting up inception_4e/5x5_reduce
I0403 16:05:06.281261 20711 net.cpp:148] Top shape: 24 32 14 14 (150528)
I0403 16:05:06.281277 20711 net.cpp:156] Memory required for data: 1236731424
I0403 16:05:06.281296 20711 layer_factory.hpp:77] Creating layer inception_4e/relu_5x5_reduce
I0403 16:05:06.281316 20711 net.cpp:91] Creating Layer inception_4e/relu_5x5_reduce
I0403 16:05:06.281332 20711 net.cpp:425] inception_4e/relu_5x5_reduce <- inception_4e/5x5_reduce
I0403 16:05:06.281349 20711 net.cpp:386] inception_4e/relu_5x5_reduce -> inception_4e/5x5_reduce (in-place)
I0403 16:05:06.281646 20711 net.cpp:141] Setting up inception_4e/relu_5x5_reduce
I0403 16:05:06.281672 20711 net.cpp:148] Top shape: 24 32 14 14 (150528)
I0403 16:05:06.281687 20711 net.cpp:156] Memory required for data: 1237333536
I0403 16:05:06.281702 20711 layer_factory.hpp:77] Creating layer inception_4e/5x5
I0403 16:05:06.281739 20711 net.cpp:91] Creating Layer inception_4e/5x5
I0403 16:05:06.281759 20711 net.cpp:425] inception_4e/5x5 <- inception_4e/5x5_reduce
I0403 16:05:06.281779 20711 net.cpp:399] inception_4e/5x5 -> inception_4e/5x5
I0403 16:05:06.283632 20711 net.cpp:141] Setting up inception_4e/5x5
I0403 16:05:06.283659 20711 net.cpp:148] Top shape: 24 128 14 14 (602112)
I0403 16:05:06.283675 20711 net.cpp:156] Memory required for data: 1239741984
I0403 16:05:06.283694 20711 layer_factory.hpp:77] Creating layer inception_4e/relu_5x5
I0403 16:05:06.283715 20711 net.cpp:91] Creating Layer inception_4e/relu_5x5
I0403 16:05:06.283730 20711 net.cpp:425] inception_4e/relu_5x5 <- inception_4e/5x5
I0403 16:05:06.283747 20711 net.cpp:386] inception_4e/relu_5x5 -> inception_4e/5x5 (in-place)
I0403 16:05:06.283944 20711 net.cpp:141] Setting up inception_4e/relu_5x5
I0403 16:05:06.283972 20711 net.cpp:148] Top shape: 24 128 14 14 (602112)
I0403 16:05:06.283987 20711 net.cpp:156] Memory required for data: 1242150432
I0403 16:05:06.284001 20711 layer_factory.hpp:77] Creating layer inception_4e/pool
I0403 16:05:06.284024 20711 net.cpp:91] Creating Layer inception_4e/pool
I0403 16:05:06.284040 20711 net.cpp:425] inception_4e/pool <- inception_4d/output_inception_4d/output_0_split_4
I0403 16:05:06.284060 20711 net.cpp:399] inception_4e/pool -> inception_4e/pool
I0403 16:05:06.284132 20711 net.cpp:141] Setting up inception_4e/pool
I0403 16:05:06.284155 20711 net.cpp:148] Top shape: 24 528 14 14 (2483712)
I0403 16:05:06.284169 20711 net.cpp:156] Memory required for data: 1252085280
I0403 16:05:06.284184 20711 layer_factory.hpp:77] Creating layer inception_4e/pool_proj
I0403 16:05:06.284205 20711 net.cpp:91] Creating Layer inception_4e/pool_proj
I0403 16:05:06.284224 20711 net.cpp:425] inception_4e/pool_proj <- inception_4e/pool
I0403 16:05:06.284243 20711 net.cpp:399] inception_4e/pool_proj -> inception_4e/pool_proj
I0403 16:05:06.285737 20711 net.cpp:141] Setting up inception_4e/pool_proj
I0403 16:05:06.285774 20711 net.cpp:148] Top shape: 24 128 14 14 (602112)
I0403 16:05:06.285789 20711 net.cpp:156] Memory required for data: 1254493728
I0403 16:05:06.285807 20711 layer_factory.hpp:77] Creating layer inception_4e/relu_pool_proj
I0403 16:05:06.285825 20711 net.cpp:91] Creating Layer inception_4e/relu_pool_proj
I0403 16:05:06.285840 20711 net.cpp:425] inception_4e/relu_pool_proj <- inception_4e/pool_proj
I0403 16:05:06.285858 20711 net.cpp:386] inception_4e/relu_pool_proj -> inception_4e/pool_proj (in-place)
I0403 16:05:06.286149 20711 net.cpp:141] Setting up inception_4e/relu_pool_proj
I0403 16:05:06.286175 20711 net.cpp:148] Top shape: 24 128 14 14 (602112)
I0403 16:05:06.286190 20711 net.cpp:156] Memory required for data: 1256902176
I0403 16:05:06.286203 20711 layer_factory.hpp:77] Creating layer inception_4e/output
I0403 16:05:06.286221 20711 net.cpp:91] Creating Layer inception_4e/output
I0403 16:05:06.286237 20711 net.cpp:425] inception_4e/output <- inception_4e/1x1
I0403 16:05:06.286252 20711 net.cpp:425] inception_4e/output <- inception_4e/3x3
I0403 16:05:06.286267 20711 net.cpp:425] inception_4e/output <- inception_4e/5x5
I0403 16:05:06.286283 20711 net.cpp:425] inception_4e/output <- inception_4e/pool_proj
I0403 16:05:06.286300 20711 net.cpp:399] inception_4e/output -> inception_4e/output
I0403 16:05:06.286350 20711 net.cpp:141] Setting up inception_4e/output
I0403 16:05:06.286375 20711 net.cpp:148] Top shape: 24 832 14 14 (3913728)
I0403 16:05:06.286391 20711 net.cpp:156] Memory required for data: 1272557088
I0403 16:05:06.286403 20711 layer_factory.hpp:77] Creating layer pool4/3x3_s2
I0403 16:05:06.286420 20711 net.cpp:91] Creating Layer pool4/3x3_s2
I0403 16:05:06.286435 20711 net.cpp:425] pool4/3x3_s2 <- inception_4e/output
I0403 16:05:06.286455 20711 net.cpp:399] pool4/3x3_s2 -> pool4/3x3_s2
I0403 16:05:06.286521 20711 net.cpp:141] Setting up pool4/3x3_s2
I0403 16:05:06.286545 20711 net.cpp:148] Top shape: 24 832 7 7 (978432)
I0403 16:05:06.286558 20711 net.cpp:156] Memory required for data: 1276470816
I0403 16:05:06.286572 20711 layer_factory.hpp:77] Creating layer pool4/3x3_s2_pool4/3x3_s2_0_split
I0403 16:05:06.286591 20711 net.cpp:91] Creating Layer pool4/3x3_s2_pool4/3x3_s2_0_split
I0403 16:05:06.286607 20711 net.cpp:425] pool4/3x3_s2_pool4/3x3_s2_0_split <- pool4/3x3_s2
I0403 16:05:06.286623 20711 net.cpp:399] pool4/3x3_s2_pool4/3x3_s2_0_split -> pool4/3x3_s2_pool4/3x3_s2_0_split_0
I0403 16:05:06.286641 20711 net.cpp:399] pool4/3x3_s2_pool4/3x3_s2_0_split -> pool4/3x3_s2_pool4/3x3_s2_0_split_1
I0403 16:05:06.286662 20711 net.cpp:399] pool4/3x3_s2_pool4/3x3_s2_0_split -> pool4/3x3_s2_pool4/3x3_s2_0_split_2
I0403 16:05:06.286682 20711 net.cpp:399] pool4/3x3_s2_pool4/3x3_s2_0_split -> pool4/3x3_s2_pool4/3x3_s2_0_split_3
I0403 16:05:06.286772 20711 net.cpp:141] Setting up pool4/3x3_s2_pool4/3x3_s2_0_split
I0403 16:05:06.286794 20711 net.cpp:148] Top shape: 24 832 7 7 (978432)
I0403 16:05:06.286810 20711 net.cpp:148] Top shape: 24 832 7 7 (978432)
I0403 16:05:06.286824 20711 net.cpp:148] Top shape: 24 832 7 7 (978432)
I0403 16:05:06.286839 20711 net.cpp:148] Top shape: 24 832 7 7 (978432)
I0403 16:05:06.286851 20711 net.cpp:156] Memory required for data: 1292125728
I0403 16:05:06.286864 20711 layer_factory.hpp:77] Creating layer inception_5a/1x1
I0403 16:05:06.286885 20711 net.cpp:91] Creating Layer inception_5a/1x1
I0403 16:05:06.286902 20711 net.cpp:425] inception_5a/1x1 <- pool4/3x3_s2_pool4/3x3_s2_0_split_0
I0403 16:05:06.286922 20711 net.cpp:399] inception_5a/1x1 -> inception_5a/1x1
I0403 16:05:06.289822 20711 net.cpp:141] Setting up inception_5a/1x1
I0403 16:05:06.289851 20711 net.cpp:148] Top shape: 24 256 7 7 (301056)
I0403 16:05:06.289867 20711 net.cpp:156] Memory required for data: 1293329952
I0403 16:05:06.289885 20711 layer_factory.hpp:77] Creating layer inception_5a/relu_1x1
I0403 16:05:06.289904 20711 net.cpp:91] Creating Layer inception_5a/relu_1x1
I0403 16:05:06.289921 20711 net.cpp:425] inception_5a/relu_1x1 <- inception_5a/1x1
I0403 16:05:06.289938 20711 net.cpp:386] inception_5a/relu_1x1 -> inception_5a/1x1 (in-place)
I0403 16:05:06.290261 20711 net.cpp:141] Setting up inception_5a/relu_1x1
I0403 16:05:06.290287 20711 net.cpp:148] Top shape: 24 256 7 7 (301056)
I0403 16:05:06.290302 20711 net.cpp:156] Memory required for data: 1294534176
I0403 16:05:06.290318 20711 layer_factory.hpp:77] Creating layer inception_5a/3x3_reduce
I0403 16:05:06.290338 20711 net.cpp:91] Creating Layer inception_5a/3x3_reduce
I0403 16:05:06.290356 20711 net.cpp:425] inception_5a/3x3_reduce <- pool4/3x3_s2_pool4/3x3_s2_0_split_1
I0403 16:05:06.290376 20711 net.cpp:399] inception_5a/3x3_reduce -> inception_5a/3x3_reduce
I0403 16:05:06.292826 20711 net.cpp:141] Setting up inception_5a/3x3_reduce
I0403 16:05:06.292855 20711 net.cpp:148] Top shape: 24 160 7 7 (188160)
I0403 16:05:06.292871 20711 net.cpp:156] Memory required for data: 1295286816
I0403 16:05:06.292891 20711 layer_factory.hpp:77] Creating layer inception_5a/relu_3x3_reduce
I0403 16:05:06.292907 20711 net.cpp:91] Creating Layer inception_5a/relu_3x3_reduce
I0403 16:05:06.292923 20711 net.cpp:425] inception_5a/relu_3x3_reduce <- inception_5a/3x3_reduce
I0403 16:05:06.292943 20711 net.cpp:386] inception_5a/relu_3x3_reduce -> inception_5a/3x3_reduce (in-place)
I0403 16:05:06.293135 20711 net.cpp:141] Setting up inception_5a/relu_3x3_reduce
I0403 16:05:06.293160 20711 net.cpp:148] Top shape: 24 160 7 7 (188160)
I0403 16:05:06.293174 20711 net.cpp:156] Memory required for data: 1296039456
I0403 16:05:06.293189 20711 layer_factory.hpp:77] Creating layer inception_5a/3x3
I0403 16:05:06.293212 20711 net.cpp:91] Creating Layer inception_5a/3x3
I0403 16:05:06.293231 20711 net.cpp:425] inception_5a/3x3 <- inception_5a/3x3_reduce
I0403 16:05:06.293251 20711 net.cpp:399] inception_5a/3x3 -> inception_5a/3x3
I0403 16:05:06.298384 20711 net.cpp:141] Setting up inception_5a/3x3
I0403 16:05:06.298414 20711 net.cpp:148] Top shape: 24 320 7 7 (376320)
I0403 16:05:06.298430 20711 net.cpp:156] Memory required for data: 1297544736
I0403 16:05:06.298447 20711 layer_factory.hpp:77] Creating layer inception_5a/relu_3x3
I0403 16:05:06.298468 20711 net.cpp:91] Creating Layer inception_5a/relu_3x3
I0403 16:05:06.298485 20711 net.cpp:425] inception_5a/relu_3x3 <- inception_5a/3x3
I0403 16:05:06.298502 20711 net.cpp:386] inception_5a/relu_3x3 -> inception_5a/3x3 (in-place)
I0403 16:05:06.298796 20711 net.cpp:141] Setting up inception_5a/relu_3x3
I0403 16:05:06.298823 20711 net.cpp:148] Top shape: 24 320 7 7 (376320)
I0403 16:05:06.298838 20711 net.cpp:156] Memory required for data: 1299050016
I0403 16:05:06.298852 20711 layer_factory.hpp:77] Creating layer inception_5a/5x5_reduce
I0403 16:05:06.298877 20711 net.cpp:91] Creating Layer inception_5a/5x5_reduce
I0403 16:05:06.298894 20711 net.cpp:425] inception_5a/5x5_reduce <- pool4/3x3_s2_pool4/3x3_s2_0_split_2
I0403 16:05:06.298916 20711 net.cpp:399] inception_5a/5x5_reduce -> inception_5a/5x5_reduce
I0403 16:05:06.300098 20711 net.cpp:141] Setting up inception_5a/5x5_reduce
I0403 16:05:06.300129 20711 net.cpp:148] Top shape: 24 32 7 7 (37632)
I0403 16:05:06.300145 20711 net.cpp:156] Memory required for data: 1299200544
I0403 16:05:06.300163 20711 layer_factory.hpp:77] Creating layer inception_5a/relu_5x5_reduce
I0403 16:05:06.300181 20711 net.cpp:91] Creating Layer inception_5a/relu_5x5_reduce
I0403 16:05:06.300197 20711 net.cpp:425] inception_5a/relu_5x5_reduce <- inception_5a/5x5_reduce
I0403 16:05:06.300215 20711 net.cpp:386] inception_5a/relu_5x5_reduce -> inception_5a/5x5_reduce (in-place)
I0403 16:05:06.300515 20711 net.cpp:141] Setting up inception_5a/relu_5x5_reduce
I0403 16:05:06.300540 20711 net.cpp:148] Top shape: 24 32 7 7 (37632)
I0403 16:05:06.300559 20711 net.cpp:156] Memory required for data: 1299351072
I0403 16:05:06.300573 20711 layer_factory.hpp:77] Creating layer inception_5a/5x5
I0403 16:05:06.300593 20711 net.cpp:91] Creating Layer inception_5a/5x5
I0403 16:05:06.300609 20711 net.cpp:425] inception_5a/5x5 <- inception_5a/5x5_reduce
I0403 16:05:06.300631 20711 net.cpp:399] inception_5a/5x5 -> inception_5a/5x5
I0403 16:05:06.302367 20711 net.cpp:141] Setting up inception_5a/5x5
I0403 16:05:06.302407 20711 net.cpp:148] Top shape: 24 128 7 7 (150528)
I0403 16:05:06.302423 20711 net.cpp:156] Memory required for data: 1299953184
I0403 16:05:06.302440 20711 layer_factory.hpp:77] Creating layer inception_5a/relu_5x5
I0403 16:05:06.302460 20711 net.cpp:91] Creating Layer inception_5a/relu_5x5
I0403 16:05:06.302477 20711 net.cpp:425] inception_5a/relu_5x5 <- inception_5a/5x5
I0403 16:05:06.302495 20711 net.cpp:386] inception_5a/relu_5x5 -> inception_5a/5x5 (in-place)
I0403 16:05:06.302683 20711 net.cpp:141] Setting up inception_5a/relu_5x5
I0403 16:05:06.302711 20711 net.cpp:148] Top shape: 24 128 7 7 (150528)
I0403 16:05:06.302726 20711 net.cpp:156] Memory required for data: 1300555296
I0403 16:05:06.302741 20711 layer_factory.hpp:77] Creating layer inception_5a/pool
I0403 16:05:06.302757 20711 net.cpp:91] Creating Layer inception_5a/pool
I0403 16:05:06.302773 20711 net.cpp:425] inception_5a/pool <- pool4/3x3_s2_pool4/3x3_s2_0_split_3
I0403 16:05:06.302790 20711 net.cpp:399] inception_5a/pool -> inception_5a/pool
I0403 16:05:06.302863 20711 net.cpp:141] Setting up inception_5a/pool
I0403 16:05:06.302887 20711 net.cpp:148] Top shape: 24 832 7 7 (978432)
I0403 16:05:06.302901 20711 net.cpp:156] Memory required for data: 1304469024
I0403 16:05:06.302917 20711 layer_factory.hpp:77] Creating layer inception_5a/pool_proj
I0403 16:05:06.302938 20711 net.cpp:91] Creating Layer inception_5a/pool_proj
I0403 16:05:06.302956 20711 net.cpp:425] inception_5a/pool_proj <- inception_5a/pool
I0403 16:05:06.302978 20711 net.cpp:399] inception_5a/pool_proj -> inception_5a/pool_proj
I0403 16:05:06.305325 20711 net.cpp:141] Setting up inception_5a/pool_proj
I0403 16:05:06.305366 20711 net.cpp:148] Top shape: 24 128 7 7 (150528)
I0403 16:05:06.305382 20711 net.cpp:156] Memory required for data: 1305071136
I0403 16:05:06.305411 20711 layer_factory.hpp:77] Creating layer inception_5a/relu_pool_proj
I0403 16:05:06.305431 20711 net.cpp:91] Creating Layer inception_5a/relu_pool_proj
I0403 16:05:06.305449 20711 net.cpp:425] inception_5a/relu_pool_proj <- inception_5a/pool_proj
I0403 16:05:06.305474 20711 net.cpp:386] inception_5a/relu_pool_proj -> inception_5a/pool_proj (in-place)
I0403 16:05:06.305789 20711 net.cpp:141] Setting up inception_5a/relu_pool_proj
I0403 16:05:06.305815 20711 net.cpp:148] Top shape: 24 128 7 7 (150528)
I0403 16:05:06.305830 20711 net.cpp:156] Memory required for data: 1305673248
I0403 16:05:06.305845 20711 layer_factory.hpp:77] Creating layer inception_5a/output
I0403 16:05:06.305860 20711 net.cpp:91] Creating Layer inception_5a/output
I0403 16:05:06.305876 20711 net.cpp:425] inception_5a/output <- inception_5a/1x1
I0403 16:05:06.305891 20711 net.cpp:425] inception_5a/output <- inception_5a/3x3
I0403 16:05:06.305905 20711 net.cpp:425] inception_5a/output <- inception_5a/5x5
I0403 16:05:06.305920 20711 net.cpp:425] inception_5a/output <- inception_5a/pool_proj
I0403 16:05:06.305938 20711 net.cpp:399] inception_5a/output -> inception_5a/output
I0403 16:05:06.305987 20711 net.cpp:141] Setting up inception_5a/output
I0403 16:05:06.306012 20711 net.cpp:148] Top shape: 24 832 7 7 (978432)
I0403 16:05:06.306032 20711 net.cpp:156] Memory required for data: 1309586976
I0403 16:05:06.306047 20711 layer_factory.hpp:77] Creating layer inception_5a/output_inception_5a/output_0_split
I0403 16:05:06.306063 20711 net.cpp:91] Creating Layer inception_5a/output_inception_5a/output_0_split
I0403 16:05:06.306079 20711 net.cpp:425] inception_5a/output_inception_5a/output_0_split <- inception_5a/output
I0403 16:05:06.306099 20711 net.cpp:399] inception_5a/output_inception_5a/output_0_split -> inception_5a/output_inception_5a/output_0_split_0
I0403 16:05:06.306120 20711 net.cpp:399] inception_5a/output_inception_5a/output_0_split -> inception_5a/output_inception_5a/output_0_split_1
I0403 16:05:06.306139 20711 net.cpp:399] inception_5a/output_inception_5a/output_0_split -> inception_5a/output_inception_5a/output_0_split_2
I0403 16:05:06.306159 20711 net.cpp:399] inception_5a/output_inception_5a/output_0_split -> inception_5a/output_inception_5a/output_0_split_3
I0403 16:05:06.306267 20711 net.cpp:141] Setting up inception_5a/output_inception_5a/output_0_split
I0403 16:05:06.306290 20711 net.cpp:148] Top shape: 24 832 7 7 (978432)
I0403 16:05:06.306305 20711 net.cpp:148] Top shape: 24 832 7 7 (978432)
I0403 16:05:06.306319 20711 net.cpp:148] Top shape: 24 832 7 7 (978432)
I0403 16:05:06.306334 20711 net.cpp:148] Top shape: 24 832 7 7 (978432)
I0403 16:05:06.306347 20711 net.cpp:156] Memory required for data: 1325241888
I0403 16:05:06.306361 20711 layer_factory.hpp:77] Creating layer inception_5b/1x1
I0403 16:05:06.306382 20711 net.cpp:91] Creating Layer inception_5b/1x1
I0403 16:05:06.306399 20711 net.cpp:425] inception_5b/1x1 <- inception_5a/output_inception_5a/output_0_split_0
I0403 16:05:06.306419 20711 net.cpp:399] inception_5b/1x1 -> inception_5b/1x1
I0403 16:05:06.310102 20711 net.cpp:141] Setting up inception_5b/1x1
I0403 16:05:06.310130 20711 net.cpp:148] Top shape: 24 384 7 7 (451584)
I0403 16:05:06.310147 20711 net.cpp:156] Memory required for data: 1327048224
I0403 16:05:06.310163 20711 layer_factory.hpp:77] Creating layer inception_5b/relu_1x1
I0403 16:05:06.310180 20711 net.cpp:91] Creating Layer inception_5b/relu_1x1
I0403 16:05:06.310196 20711 net.cpp:425] inception_5b/relu_1x1 <- inception_5b/1x1
I0403 16:05:06.310215 20711 net.cpp:386] inception_5b/relu_1x1 -> inception_5b/1x1 (in-place)
I0403 16:05:06.310514 20711 net.cpp:141] Setting up inception_5b/relu_1x1
I0403 16:05:06.310540 20711 net.cpp:148] Top shape: 24 384 7 7 (451584)
I0403 16:05:06.310554 20711 net.cpp:156] Memory required for data: 1328854560
I0403 16:05:06.310570 20711 layer_factory.hpp:77] Creating layer inception_5b/3x3_reduce
I0403 16:05:06.310590 20711 net.cpp:91] Creating Layer inception_5b/3x3_reduce
I0403 16:05:06.310608 20711 net.cpp:425] inception_5b/3x3_reduce <- inception_5a/output_inception_5a/output_0_split_1
I0403 16:05:06.310629 20711 net.cpp:399] inception_5b/3x3_reduce -> inception_5b/3x3_reduce
I0403 16:05:06.313246 20711 net.cpp:141] Setting up inception_5b/3x3_reduce
I0403 16:05:06.313276 20711 net.cpp:148] Top shape: 24 192 7 7 (225792)
I0403 16:05:06.313290 20711 net.cpp:156] Memory required for data: 1329757728
I0403 16:05:06.313308 20711 layer_factory.hpp:77] Creating layer inception_5b/relu_3x3_reduce
I0403 16:05:06.313325 20711 net.cpp:91] Creating Layer inception_5b/relu_3x3_reduce
I0403 16:05:06.313344 20711 net.cpp:425] inception_5b/relu_3x3_reduce <- inception_5b/3x3_reduce
I0403 16:05:06.313360 20711 net.cpp:386] inception_5b/relu_3x3_reduce -> inception_5b/3x3_reduce (in-place)
I0403 16:05:06.313545 20711 net.cpp:141] Setting up inception_5b/relu_3x3_reduce
I0403 16:05:06.313570 20711 net.cpp:148] Top shape: 24 192 7 7 (225792)
I0403 16:05:06.313585 20711 net.cpp:156] Memory required for data: 1330660896
I0403 16:05:06.313597 20711 layer_factory.hpp:77] Creating layer inception_5b/3x3
I0403 16:05:06.313619 20711 net.cpp:91] Creating Layer inception_5b/3x3
I0403 16:05:06.313635 20711 net.cpp:425] inception_5b/3x3 <- inception_5b/3x3_reduce
I0403 16:05:06.313657 20711 net.cpp:399] inception_5b/3x3 -> inception_5b/3x3
I0403 16:05:06.320189 20711 net.cpp:141] Setting up inception_5b/3x3
I0403 16:05:06.320226 20711 net.cpp:148] Top shape: 24 384 7 7 (451584)
I0403 16:05:06.320241 20711 net.cpp:156] Memory required for data: 1332467232
I0403 16:05:06.320258 20711 layer_factory.hpp:77] Creating layer inception_5b/relu_3x3
I0403 16:05:06.320278 20711 net.cpp:91] Creating Layer inception_5b/relu_3x3
I0403 16:05:06.320296 20711 net.cpp:425] inception_5b/relu_3x3 <- inception_5b/3x3
I0403 16:05:06.320312 20711 net.cpp:386] inception_5b/relu_3x3 -> inception_5b/3x3 (in-place)
I0403 16:05:06.320605 20711 net.cpp:141] Setting up inception_5b/relu_3x3
I0403 16:05:06.320631 20711 net.cpp:148] Top shape: 24 384 7 7 (451584)
I0403 16:05:06.320646 20711 net.cpp:156] Memory required for data: 1334273568
I0403 16:05:06.320659 20711 layer_factory.hpp:77] Creating layer inception_5b/5x5_reduce
I0403 16:05:06.320696 20711 net.cpp:91] Creating Layer inception_5b/5x5_reduce
I0403 16:05:06.320714 20711 net.cpp:425] inception_5b/5x5_reduce <- inception_5a/output_inception_5a/output_0_split_2
I0403 16:05:06.320736 20711 net.cpp:399] inception_5b/5x5_reduce -> inception_5b/5x5_reduce
I0403 16:05:06.321976 20711 net.cpp:141] Setting up inception_5b/5x5_reduce
I0403 16:05:06.322003 20711 net.cpp:148] Top shape: 24 48 7 7 (56448)
I0403 16:05:06.322022 20711 net.cpp:156] Memory required for data: 1334499360
I0403 16:05:06.322041 20711 layer_factory.hpp:77] Creating layer inception_5b/relu_5x5_reduce
I0403 16:05:06.322058 20711 net.cpp:91] Creating Layer inception_5b/relu_5x5_reduce
I0403 16:05:06.322074 20711 net.cpp:425] inception_5b/relu_5x5_reduce <- inception_5b/5x5_reduce
I0403 16:05:06.322093 20711 net.cpp:386] inception_5b/relu_5x5_reduce -> inception_5b/5x5_reduce (in-place)
I0403 16:05:06.322456 20711 net.cpp:141] Setting up inception_5b/relu_5x5_reduce
I0403 16:05:06.322482 20711 net.cpp:148] Top shape: 24 48 7 7 (56448)
I0403 16:05:06.322496 20711 net.cpp:156] Memory required for data: 1334725152
I0403 16:05:06.322510 20711 layer_factory.hpp:77] Creating layer inception_5b/5x5
I0403 16:05:06.322530 20711 net.cpp:91] Creating Layer inception_5b/5x5
I0403 16:05:06.322546 20711 net.cpp:425] inception_5b/5x5 <- inception_5b/5x5_reduce
I0403 16:05:06.322564 20711 net.cpp:399] inception_5b/5x5 -> inception_5b/5x5
I0403 16:05:06.324565 20711 net.cpp:141] Setting up inception_5b/5x5
I0403 16:05:06.324592 20711 net.cpp:148] Top shape: 24 128 7 7 (150528)
I0403 16:05:06.324607 20711 net.cpp:156] Memory required for data: 1335327264
I0403 16:05:06.324625 20711 layer_factory.hpp:77] Creating layer inception_5b/relu_5x5
I0403 16:05:06.324643 20711 net.cpp:91] Creating Layer inception_5b/relu_5x5
I0403 16:05:06.324661 20711 net.cpp:425] inception_5b/relu_5x5 <- inception_5b/5x5
I0403 16:05:06.324677 20711 net.cpp:386] inception_5b/relu_5x5 -> inception_5b/5x5 (in-place)
I0403 16:05:06.324867 20711 net.cpp:141] Setting up inception_5b/relu_5x5
I0403 16:05:06.324892 20711 net.cpp:148] Top shape: 24 128 7 7 (150528)
I0403 16:05:06.324908 20711 net.cpp:156] Memory required for data: 1335929376
I0403 16:05:06.324921 20711 layer_factory.hpp:77] Creating layer inception_5b/pool
I0403 16:05:06.324939 20711 net.cpp:91] Creating Layer inception_5b/pool
I0403 16:05:06.324954 20711 net.cpp:425] inception_5b/pool <- inception_5a/output_inception_5a/output_0_split_3
I0403 16:05:06.324973 20711 net.cpp:399] inception_5b/pool -> inception_5b/pool
I0403 16:05:06.325052 20711 net.cpp:141] Setting up inception_5b/pool
I0403 16:05:06.325076 20711 net.cpp:148] Top shape: 24 832 7 7 (978432)
I0403 16:05:06.325090 20711 net.cpp:156] Memory required for data: 1339843104
I0403 16:05:06.325104 20711 layer_factory.hpp:77] Creating layer inception_5b/pool_proj
I0403 16:05:06.325124 20711 net.cpp:91] Creating Layer inception_5b/pool_proj
I0403 16:05:06.325141 20711 net.cpp:425] inception_5b/pool_proj <- inception_5b/pool
I0403 16:05:06.325160 20711 net.cpp:399] inception_5b/pool_proj -> inception_5b/pool_proj
I0403 16:05:06.327399 20711 net.cpp:141] Setting up inception_5b/pool_proj
I0403 16:05:06.327427 20711 net.cpp:148] Top shape: 24 128 7 7 (150528)
I0403 16:05:06.327442 20711 net.cpp:156] Memory required for data: 1340445216
I0403 16:05:06.327460 20711 layer_factory.hpp:77] Creating layer inception_5b/relu_pool_proj
I0403 16:05:06.327479 20711 net.cpp:91] Creating Layer inception_5b/relu_pool_proj
I0403 16:05:06.327496 20711 net.cpp:425] inception_5b/relu_pool_proj <- inception_5b/pool_proj
I0403 16:05:06.327512 20711 net.cpp:386] inception_5b/relu_pool_proj -> inception_5b/pool_proj (in-place)
I0403 16:05:06.327803 20711 net.cpp:141] Setting up inception_5b/relu_pool_proj
I0403 16:05:06.327829 20711 net.cpp:148] Top shape: 24 128 7 7 (150528)
I0403 16:05:06.327844 20711 net.cpp:156] Memory required for data: 1341047328
I0403 16:05:06.327858 20711 layer_factory.hpp:77] Creating layer inception_5b/output
I0403 16:05:06.327874 20711 net.cpp:91] Creating Layer inception_5b/output
I0403 16:05:06.327903 20711 net.cpp:425] inception_5b/output <- inception_5b/1x1
I0403 16:05:06.327921 20711 net.cpp:425] inception_5b/output <- inception_5b/3x3
I0403 16:05:06.327936 20711 net.cpp:425] inception_5b/output <- inception_5b/5x5
I0403 16:05:06.327951 20711 net.cpp:425] inception_5b/output <- inception_5b/pool_proj
I0403 16:05:06.327970 20711 net.cpp:399] inception_5b/output -> inception_5b/output
I0403 16:05:06.328030 20711 net.cpp:141] Setting up inception_5b/output
I0403 16:05:06.328057 20711 net.cpp:148] Top shape: 24 1024 7 7 (1204224)
I0403 16:05:06.328070 20711 net.cpp:156] Memory required for data: 1345864224
I0403 16:05:06.328085 20711 layer_factory.hpp:77] Creating layer pool5/7x7_s1
I0403 16:05:06.328102 20711 net.cpp:91] Creating Layer pool5/7x7_s1
I0403 16:05:06.328117 20711 net.cpp:425] pool5/7x7_s1 <- inception_5b/output
I0403 16:05:06.328136 20711 net.cpp:399] pool5/7x7_s1 -> pool5/7x7_s1
I0403 16:05:06.328348 20711 net.cpp:141] Setting up pool5/7x7_s1
I0403 16:05:06.328373 20711 net.cpp:148] Top shape: 24 1024 1 1 (24576)
I0403 16:05:06.328387 20711 net.cpp:156] Memory required for data: 1345962528
I0403 16:05:06.328402 20711 layer_factory.hpp:77] Creating layer pool5/drop_7x7_s1
I0403 16:05:06.328418 20711 net.cpp:91] Creating Layer pool5/drop_7x7_s1
I0403 16:05:06.328433 20711 net.cpp:425] pool5/drop_7x7_s1 <- pool5/7x7_s1
I0403 16:05:06.328451 20711 net.cpp:386] pool5/drop_7x7_s1 -> pool5/7x7_s1 (in-place)
I0403 16:05:06.328502 20711 net.cpp:141] Setting up pool5/drop_7x7_s1
I0403 16:05:06.328526 20711 net.cpp:148] Top shape: 24 1024 1 1 (24576)
I0403 16:05:06.328538 20711 net.cpp:156] Memory required for data: 1346060832
I0403 16:05:06.328552 20711 layer_factory.hpp:77] Creating layer loss3/classifier_plantvillage
I0403 16:05:06.328569 20711 net.cpp:91] Creating Layer loss3/classifier_plantvillage
I0403 16:05:06.328584 20711 net.cpp:425] loss3/classifier_plantvillage <- pool5/7x7_s1
I0403 16:05:06.328605 20711 net.cpp:399] loss3/classifier_plantvillage -> loss3/classifier_plantvillage
I0403 16:05:06.329025 20711 net.cpp:141] Setting up loss3/classifier_plantvillage
I0403 16:05:06.329049 20711 net.cpp:148] Top shape: 24 38 (912)
I0403 16:05:06.329063 20711 net.cpp:156] Memory required for data: 1346064480
I0403 16:05:06.329080 20711 layer_factory.hpp:77] Creating layer loss3/classifier_plantvillage_loss3/classifier_plantvillage_0_split
I0403 16:05:06.329102 20711 net.cpp:91] Creating Layer loss3/classifier_plantvillage_loss3/classifier_plantvillage_0_split
I0403 16:05:06.329118 20711 net.cpp:425] loss3/classifier_plantvillage_loss3/classifier_plantvillage_0_split <- loss3/classifier_plantvillage
I0403 16:05:06.329136 20711 net.cpp:399] loss3/classifier_plantvillage_loss3/classifier_plantvillage_0_split -> loss3/classifier_plantvillage_loss3/classifier_plantvillage_0_split_0
I0403 16:05:06.329155 20711 net.cpp:399] loss3/classifier_plantvillage_loss3/classifier_plantvillage_0_split -> loss3/classifier_plantvillage_loss3/classifier_plantvillage_0_split_1
I0403 16:05:06.329175 20711 net.cpp:399] loss3/classifier_plantvillage_loss3/classifier_plantvillage_0_split -> loss3/classifier_plantvillage_loss3/classifier_plantvillage_0_split_2
I0403 16:05:06.329195 20711 net.cpp:399] loss3/classifier_plantvillage_loss3/classifier_plantvillage_0_split -> loss3/classifier_plantvillage_loss3/classifier_plantvillage_0_split_3
I0403 16:05:06.329293 20711 net.cpp:141] Setting up loss3/classifier_plantvillage_loss3/classifier_plantvillage_0_split
I0403 16:05:06.329315 20711 net.cpp:148] Top shape: 24 38 (912)
I0403 16:05:06.329331 20711 net.cpp:148] Top shape: 24 38 (912)
I0403 16:05:06.329345 20711 net.cpp:148] Top shape: 24 38 (912)
I0403 16:05:06.329360 20711 net.cpp:148] Top shape: 24 38 (912)
I0403 16:05:06.329373 20711 net.cpp:156] Memory required for data: 1346079072
I0403 16:05:06.329387 20711 layer_factory.hpp:77] Creating layer loss1/loss
I0403 16:05:06.329408 20711 net.cpp:91] Creating Layer loss1/loss
I0403 16:05:06.329426 20711 net.cpp:425] loss1/loss <- loss1/classifier_plantvillage_loss1/classifier_plantvillage_0_split_0
I0403 16:05:06.329455 20711 net.cpp:425] loss1/loss <- label_data_1_split_0
…
