…
I0403 15:40:17.261339 20149 net.cpp:313] The NetState phase (1) differed from the phase (0) specified by a rule in layer data
I0403 15:40:17.262503 20149 net.cpp:49] Initializing net from parameters: 
state {
  phase: TEST
}
layer {
  name: "data"
  type: "Data"
  top: "data"
  top: "label"
  include {
    phase: TEST
  }
  transform_param {
    mirror: false
    crop_size: 224
    mean_file: "/home/mohanty/data/final_dataset/lmdb/grayscale-20-80/mean.binaryproto"
  }
  data_param {
    source: "/home/mohanty/data/final_dataset/lmdb/grayscale-20-80/test_db"
    batch_size: 24
    backend: LMDB
  }
}
layer {
  name: "conv1/7x7_s2"
  type: "Convolution"
  bottom: "data"
  top: "conv1/7x7_s2"
  param {
    lr_mult: 1
    decay_mult: 1
  }
  param {
    lr_mult: 2
    decay_mult: 0
  }
  convolution_param {
    num_output: 64
    pad: 3
    kernel_size: 7
    stride: 2
    weight_filler {
      type: "xavier"
      std: 0.1
    }
    bias_filler {
      type: "constant"
      value: 0.2
    }
  }
}
layer {
  name: "conv1/relu_7x7"
  type: "ReLU"
  bottom: "conv1/7x7_s2"
  top: "conv1/7x7_s2"
}
layer {
  name: "pool1/3x3_s2"
  type: "Pooling"
  bottom: "conv1/7x7_s2"
  top: "pool1/3x3_s2"
  pooling_param {
    pool: MAX
    kernel_size: 3
    stride: 2
  }
}
layer {
  name: "pool1/norm1"
  type: "LRN"
  bottom: "pool1/3x3_s2"
  top: "pool1/norm1"
  lrn_param {
    local_size: 5
    alpha: 0.0001
    beta: 0.75
  }
}
layer {
  name: "conv2/3x3_reduce"
  type: "Convolution"
  bottom: "pool1/norm1"
  top: "conv2/3x3_reduce"
  param {
    lr_mult: 1
    decay_mult: 1
  }
  param {
    lr_mult: 2
    decay_mult: 0
  }
  convolution_param {
    num_output: 64
    kernel_size: 1
    weight_filler {
      type: "xavier"
      std: 0.1
    }
    bias_filler {
      type: "constant"
      value: 0.2
    }
  }
}
layer {
  name: "conv2/relu_3x3_reduce"
  type: "ReLU"
  bottom: "conv2/3x3_reduce"
  top: "conv2/3x3_reduce"
}
layer {
  name: "conv2/3x3"
  type: "Convolution"
  bottom: "conv2/3x3_reduce"
  top: "conv2/3x3"
  param {
    lr_mult: 1
    decay_mult: 1
  }
  param {
    lr_mult: 2
    decay_mult: 0
  }
  convolution_param {
    num_output: 192
    pad: 1
    kernel_size: 3
    weight_filler {
      type: "xavier"
      std: 0.03
    }
    bias_filler {
      type: "constant"
      value: 0.2
    }
  }
}
layer {
  name: "conv2/relu_3x3"
  type: "ReLU"
  bottom: "conv2/3x3"
  top: "conv2/3x3"
}
layer {
  name: "conv2/norm2"
  type: "LRN"
  bottom: "conv2/3x3"
  top: "conv2/norm2"
  lrn_param {
    local_size: 5
    alpha: 0.0001
    beta: 0.75
  }
}
layer {
  name: "pool2/3x3_s2"
  type: "Pooling"
  bottom: "conv2/norm2"
  top: "pool2/3x3_s2"
  pooling_param {
    pool: MAX
    kernel_size: 3
    stride: 2
  }
}
layer {
  name: "inception_3a/1x1"
  type: "Convolution"
  bottom: "pool2/3x3_s2"
  top: "inception_3a/1x1"
  param {
    lr_mult: 1
    decay_mult: 1
  }
  param {
    lr_mult: 2
    decay_mult: 0
  }
  convolution_param {
    num_output: 64
    kernel_size: 1
    weight_filler {
      type: "xavier"
      std: 0.03
    }
    bias_filler {
      type: "constant"
      value: 0.2
    }
  }
}
layer {
  name: "inception_3a/relu_1x1"
  type: "ReLU"
  bottom: "inception_3a/1x1"
  top: "inception_3a/1x1"
}
layer {
  name: "inception_3a/3x3_reduce"
  type: "Convolution"
  bottom: "pool2/3x3_s2"
  top: "inception_3a/3x3_reduce"
  param {
    lr_mult: 1
    decay_mult: 1
  }
  param {
    lr_mult: 2
    decay_mult: 0
  }
  convolution_param {
    num_output: 96
    kernel_size: 1
    weight_filler {
      type: "xavier"
      std: 0.09
    }
    bias_filler {
      type: "constant"
      value: 0.2
    }
  }
}
layer {
  name: "inception_3a/relu_3x3_reduce"
  type: "ReLU"
  bottom: "inception_3a/3x3_reduce"
  top: "inception_3a/3x3_reduce"
}
layer {
  name: "inception_3a/3x3"
  type: "Convolution"
  bottom: "inception_3a/3x3_reduce"
  top: "inception_3a/3x3"
  param {
    lr_mult: 1
    decay_mult: 1
  }
  param {
    lr_mult: 2
    decay_mult: 0
  }
  convolution_param {
    num_output: 128
    pad: 1
    kernel_size: 3
    weight_filler {
      type: "xavier"
      std: 0.03
    }
    bias_filler {
      type: "constant"
      value: 0.2
    }
  }
}
layer {
  name: "inception_3a/relu_3x3"
  type: "ReLU"
  bottom: "inception_3a/3x3"
  top: "inception_3a/3x3"
}
layer {
  name: "inception_3a/5x5_reduce"
  type: "Convolution"
  bottom: "pool2/3x3_s2"
  top: "inception_3a/5x5_reduce"
  param {
    lr_mult: 1
    decay_mult: 1
  }
  param {
    lr_mult: 2
    decay_mult: 0
  }
  convolution_param {
    num_output: 16
    kernel_size: 1
    weight_filler {
      type: "xavier"
      std: 0.2
    }
    bias_filler {
      type: "constant"
      value: 0.2
    }
  }
}
layer {
  name: "inception_3a/relu_5x5_reduce"
  type: "ReLU"
  bottom: "inception_3a/5x5_reduce"
  top: "inception_3a/5x5_reduce"
}
layer {
  name: "inception_3a/5x5"
  type: "Convolution"
  bottom: "inception_3a/5x5_reduce"
  top: "inception_3a/5x5"
  param {
    lr_mult: 1
    decay_mult: 1
  }
  param {
    lr_mult: 2
    decay_mult: 0
  }
  convolution_param {
    num_output: 32
    pad: 2
    kernel_size: 5
    weight_filler {
      type: "xavier"
      std: 0.03
    }
    bias_filler {
      type: "constant"
      value: 0.2
    }
  }
}
layer {
  name: "inception_3a/relu_5x5"
  type: "ReLU"
  bottom: "inception_3a/5x5"
  top: "inception_3a/5x5"
}
layer {
  name: "inception_3a/pool"
  type: "Pooling"
  bottom: "pool2/3x3_s2"
  top: "inception_3a/pool"
  pooling_param {
    pool: MAX
    kernel_size: 3
    stride: 1
    pad: 1
  }
}
layer {
  name: "inception_3a/pool_proj"
  type: "Convolution"
  bottom: "inception_3a/pool"
  top: "inception_3a/pool_proj"
  param {
    lr_mult: 1
    decay_mult: 1
  }
  param {
    lr_mult: 2
    decay_mult: 0
  }
  convolution_param {
    num_output: 32
    kernel_size: 1
    weight_filler {
      type: "xavier"
      std: 0.1
    }
    bias_filler {
      type: "constant"
      value: 0.2
    }
  }
}
layer {
  name: "inception_3a/relu_pool_proj"
  type: "ReLU"
  bottom: "inception_3a/pool_proj"
  top: "inception_3a/pool_proj"
}
layer {
  name: "inception_3a/output"
  type: "Concat"
  bottom: "inception_3a/1x1"
  bottom: "inception_3a/3x3"
  bottom: "inception_3a/5x5"
  bottom: "inception_3a/pool_proj"
  top: "inception_3a/output"
}
layer {
  name: "inception_3b/1x1"
  type: "Convolution"
  bottom: "inception_3a/output"
  top: "inception_3b/1x1"
  param {
    lr_mult: 1
    decay_mult: 1
  }
  param {
    lr_mult: 2
    decay_mult: 0
  }
  convolution_param {
    num_output: 128
    kernel_size: 1
    weight_filler {
      type: "xavier"
      std: 0.03
    }
    bias_filler {
      type: "constant"
      value: 0.2
    }
  }
}
layer {
  name: "inception_3b/relu_1x1"
  type: "ReLU"
  bottom: "inception_3b/1x1"
  top: "inception_3b/1x1"
}
layer {
  name: "inception_3b/3x3_reduce"
  type: "Convolution"
  bottom: "inception_3a/output"
  top: "inception_3b/3x3_reduce"
  param {
    lr_mult: 1
    decay_mult: 1
  }
  param {
    lr_mult: 2
    decay_mult: 0
  }
  convolution_param {
    num_output: 128
    kernel_size: 1
    weight_filler {
      type: "xavier"
      std: 0.09
    }
    bias_filler {
      type: "constant"
      value: 0.2
    }
  }
}
layer {
  name: "inception_3b/relu_3x3_reduce"
  type: "ReLU"
  bottom: "inception_3b/3x3_reduce"
  top: "inception_3b/3x3_reduce"
}
layer {
  name: "inception_3b/3x3"
  type: "Convolution"
  bottom: "inception_3b/3x3_reduce"
  top: "inception_3b/3x3"
  param {
    lr_mult: 1
    decay_mult: 1
  }
  param {
    lr_mult: 2
    decay_mult: 0
  }
  convolution_param {
    num_output: 192
    pad: 1
    kernel_size: 3
    weight_filler {
      type: "xavier"
      std: 0.03
    }
    bias_filler {
      type: "constant"
      value: 0.2
    }
  }
}
layer {
  name: "inception_3b/relu_3x3"
  type: "ReLU"
  bottom: "inception_3b/3x3"
  top: "inception_3b/3x3"
}
layer {
  name: "inception_3b/5x5_reduce"
  type: "Convolution"
  bottom: "inception_3a/output"
  top: "inception_3b/5x5_reduce"
  param {
    lr_mult: 1
    decay_mult: 1
  }
  param {
    lr_mult: 2
    decay_mult: 0
  }
  convolution_param {
    num_output: 32
    kernel_size: 1
    weight_filler {
      type: "xavier"
      std: 0.2
    }
    bias_filler {
      type: "constant"
      value: 0.2
    }
  }
}
layer {
  name: "inception_3b/relu_5x5_reduce"
  type: "ReLU"
  bottom: "inception_3b/5x5_reduce"
  top: "inception_3b/5x5_reduce"
}
layer {
  name: "inception_3b/5x5"
  type: "Convolution"
  bottom: "inception_3b/5x5_reduce"
  top: "inception_3b/5x5"
  param {
    lr_mult: 1
    decay_mult: 1
  }
  param {
    lr_mult: 2
    decay_mult: 0
  }
  convolution_param {
    num_output: 96
    pad: 2
    kernel_size: 5
    weight_filler {
      type: "xavier"
      std: 0.03
    }
    bias_filler {
      type: "constant"
      value: 0.2
    }
  }
}
layer {
  name: "inception_3b/relu_5x5"
  type: "ReLU"
  bottom: "inception_3b/5x5"
  top: "inception_3b/5x5"
}
layer {
  name: "inception_3b/pool"
  type: "Pooling"
  bottom: "inception_3a/output"
  top: "inception_3b/pool"
  pooling_param {
    pool: MAX
    kernel_size: 3
    stride: 1
    pad: 1
  }
}
layer {
  name: "inception_3b/pool_proj"
  type: "Convolution"
  bottom: "inception_3b/pool"
  top: "inception_3b/pool_proj"
  param {
    lr_mult: 1
    decay_mult: 1
  }
  param {
    lr_mult: 2
    decay_mult: 0
  }
  convolution_param {
    num_output: 64
    kernel_size: 1
    weight_filler {
      type: "xavier"
      std: 0.1
    }
    bias_filler {
      type: "constant"
      value: 0.2
    }
  }
}
layer {
  name: "inception_3b/relu_pool_proj"
  type: "ReLU"
  bottom: "inception_3b/pool_proj"
  top: "inception_3b/pool_proj"
}
layer {
  name: "inception_3b/output"
  type: "Concat"
  bottom: "inception_3b/1x1"
  bottom: "inception_3b/3x3"
  bottom: "inception_3b/5x5"
  bottom: "inception_3b/pool_proj"
  top: "inception_3b/output"
}
layer {
  name: "pool3/3x3_s2"
  type: "Pooling"
  bottom: "inception_3b/output"
  top: "pool3/3x3_s2"
  pooling_param {
    pool: MAX
    kernel_size: 3
    stride: 2
  }
}
layer {
  name: "inception_4a/1x1"
  type: "Convolution"
  bottom: "pool3/3x3_s2"
  top: "inception_4a/1x1"
  param {
    lr_mult: 1
    decay_mult: 1
  }
  param {
    lr_mult: 2
    decay_mult: 0
  }
  convolution_param {
    num_output: 192
    kernel_size: 1
    weight_filler {
      type: "xavier"
      std: 0.03
    }
    bias_filler {
      type: "constant"
      value: 0.2
    }
  }
}
layer {
  name: "inception_4a/relu_1x1"
  type: "ReLU"
  bottom: "inception_4a/1x1"
  top: "inception_4a/1x1"
}
layer {
  name: "inception_4a/3x3_reduce"
  type: "Convolution"
  bottom: "pool3/3x3_s2"
  top: "inception_4a/3x3_reduce"
  param {
    lr_mult: 1
    decay_mult: 1
  }
  param {
    lr_mult: 2
    decay_mult: 0
  }
  convolution_param {
    num_output: 96
    kernel_size: 1
    weight_filler {
      type: "xavier"
      std: 0.09
    }
    bias_filler {
      type: "constant"
      value: 0.2
    }
  }
}
layer {
  name: "inception_4a/relu_3x3_reduce"
  type: "ReLU"
  bottom: "inception_4a/3x3_reduce"
  top: "inception_4a/3x3_reduce"
}
layer {
  name: "inception_4a/3x3"
  type: "Convolution"
  bottom: "inception_4a/3x3_reduce"
  top: "inception_4a/3x3"
  param {
    lr_mult: 1
    decay_mult: 1
  }
  param {
    lr_mult: 2
    decay_mult: 0
  }
  convolution_param {
    num_output: 208
    pad: 1
    kernel_size: 3
    weight_filler {
      type: "xavier"
      std: 0.03
    }
    bias_filler {
      type: "constant"
      value: 0.2
    }
  }
}
layer {
  name: "inception_4a/relu_3x3"
  type: "ReLU"
  bottom: "inception_4a/3x3"
  top: "inception_4a/3x3"
}
layer {
  name: "inception_4a/5x5_reduce"
  type: "Convolution"
  bottom: "pool3/3x3_s2"
  top: "inception_4a/5x5_reduce"
  param {
    lr_mult: 1
    decay_mult: 1
  }
  param {
    lr_mult: 2
    decay_mult: 0
  }
  convolution_param {
    num_output: 16
    kernel_size: 1
    weight_filler {
      type: "xavier"
      std: 0.2
    }
    bias_filler {
      type: "constant"
      value: 0.2
    }
  }
}
layer {
  name: "inception_4a/relu_5x5_reduce"
  type: "ReLU"
  bottom: "inception_4a/5x5_reduce"
  top: "inception_4a/5x5_reduce"
}
layer {
  name: "inception_4a/5x5"
  type: "Convolution"
  bottom: "inception_4a/5x5_reduce"
  top: "inception_4a/5x5"
  param {
    lr_mult: 1
    decay_mult: 1
  }
  param {
    lr_mult: 2
    decay_mult: 0
  }
  convolution_param {
    num_output: 48
    pad: 2
    kernel_size: 5
    weight_filler {
      type: "xavier"
      std: 0.03
    }
    bias_filler {
      type: "constant"
      value: 0.2
    }
  }
}
layer {
  name: "inception_4a/relu_5x5"
  type: "ReLU"
  bottom: "inception_4a/5x5"
  top: "inception_4a/5x5"
}
layer {
  name: "inception_4a/pool"
  type: "Pooling"
  bottom: "pool3/3x3_s2"
  top: "inception_4a/pool"
  pooling_param {
    pool: MAX
    kernel_size: 3
    stride: 1
    pad: 1
  }
}
layer {
  name: "inception_4a/pool_proj"
  type: "Convolution"
  bottom: "inception_4a/pool"
  top: "inception_4a/pool_proj"
  param {
    lr_mult: 1
    decay_mult: 1
  }
  param {
    lr_mult: 2
    decay_mult: 0
  }
  convolution_param {
    num_output: 64
    kernel_size: 1
    weight_filler {
      type: "xavier"
      std: 0.1
    }
    bias_filler {
      type: "constant"
      value: 0.2
    }
  }
}
layer {
  name: "inception_4a/relu_pool_proj"
  type: "ReLU"
  bottom: "inception_4a/pool_proj"
  top: "inception_4a/pool_proj"
}
layer {
  name: "inception_4a/output"
  type: "Concat"
  bottom: "inception_4a/1x1"
  bottom: "inception_4a/3x3"
  bottom: "inception_4a/5x5"
  bottom: "inception_4a/pool_proj"
  top: "inception_4a/output"
}
layer {
  name: "loss1/ave_pool"
  type: "Pooling"
  bottom: "inception_4a/output"
  top: "loss1/ave_pool"
  pooling_param {
    pool: AVE
    kernel_size: 5
    stride: 3
  }
}
layer {
  name: "loss1/conv"
  type: "Convolution"
  bottom: "loss1/ave_pool"
  top: "loss1/conv"
  param {
    lr_mult: 1
    decay_mult: 1
  }
  param {
    lr_mult: 2
    decay_mult: 0
  }
  convolution_param {
    num_output: 128
    kernel_size: 1
    weight_filler {
      type: "xavier"
      std: 0.08
    }
    bias_filler {
      type: "constant"
      value: 0.2
    }
  }
}
layer {
  name: "loss1/relu_conv"
  type: "ReLU"
  bottom: "loss1/conv"
  top: "loss1/conv"
}
layer {
  name: "loss1/fc"
  type: "InnerProduct"
  bottom: "loss1/conv"
  top: "loss1/fc"
  param {
    lr_mult: 1
    decay_mult: 1
  }
  param {
    lr_mult: 2
    decay_mult: 0
  }
  inner_product_param {
    num_output: 1024
    weight_filler {
      type: "xavier"
      std: 0.02
    }
    bias_filler {
      type: "constant"
      value: 0.2
    }
  }
}
layer {
  name: "loss1/relu_fc"
  type: "ReLU"
  bottom: "loss1/fc"
  top: "loss1/fc"
}
layer {
  name: "loss1/drop_fc"
  type: "Dropout"
  bottom: "loss1/fc"
  top: "loss1/fc"
  dropout_param {
    dropout_ratio: 0.7
  }
}
layer {
  name: "loss1/classifier_plantvillage"
  type: "InnerProduct"
  bottom: "loss1/fc"
  top: "loss1/classifier_plantvillage"
  param {
    lr_mult: 1
    decay_mult: 1
  }
  param {
    lr_mult: 2
    decay_mult: 0
  }
  inner_product_param {
    num_output: 38
    weight_filler {
      type: "xavier"
      std: 0.0009765625
    }
    bias_filler {
      type: "constant"
      value: 0
    }
  }
}
layer {
  name: "inception_4b/1x1"
  type: "Convolution"
  bottom: "inception_4a/output"
  top: "inception_4b/1x1"
  param {
    lr_mult: 1
    decay_mult: 1
  }
  param {
    lr_mult: 2
    decay_mult: 0
  }
  convolution_param {
    num_output: 160
    kernel_size: 1
    weight_filler {
      type: "xavier"
      std: 0.03
    }
    bias_filler {
      type: "constant"
      value: 0.2
    }
  }
}
layer {
  name: "inception_4b/relu_1x1"
  type: "ReLU"
  bottom: "inception_4b/1x1"
  top: "inception_4b/1x1"
}
layer {
  name: "inception_4b/3x3_reduce"
  type: "Convolution"
  bottom: "inception_4a/output"
  top: "inception_4b/3x3_reduce"
  param {
    lr_mult: 1
    decay_mult: 1
  }
  param {
    lr_mult: 2
    decay_mult: 0
  }
  convolution_param {
    num_output: 112
    kernel_size: 1
    weight_filler {
      type: "xavier"
      std: 0.09
    }
    bias_filler {
      type: "constant"
      value: 0.2
    }
  }
}
layer {
  name: "inception_4b/relu_3x3_reduce"
  type: "ReLU"
  bottom: "inception_4b/3x3_reduce"
  top: "inception_4b/3x3_reduce"
}
layer {
  name: "inception_4b/3x3"
  type: "Convolution"
  bottom: "inception_4b/3x3_reduce"
  top: "inception_4b/3x3"
  param {
    lr_mult: 1
    decay_mult: 1
  }
  param {
    lr_mult: 2
    decay_mult: 0
  }
  convolution_param {
    num_output: 224
    pad: 1
    kernel_size: 3
    weight_filler {
      type: "xavier"
      std: 0.03
    }
    bias_filler {
      type: "constant"
      value: 0.2
    }
  }
}
layer {
  name: "inception_4b/relu_3x3"
  type: "ReLU"
  bottom: "inception_4b/3x3"
  top: "inception_4b/3x3"
}
layer {
  name: "inception_4b/5x5_reduce"
  type: "Convolution"
  bottom: "inception_4a/output"
  top: "inception_4b/5x5_reduce"
  param {
    lr_mult: 1
    decay_mult: 1
  }
  param {
    lr_mult: 2
    decay_mult: 0
  }
  convolution_param {
    num_output: 24
    kernel_size: 1
    weight_filler {
      type: "xavier"
      std: 0.2
    }
    bias_filler {
      type: "constant"
      value: 0.2
    }
  }
}
layer {
  name: "inception_4b/relu_5x5_reduce"
  type: "ReLU"
  bottom: "inception_4b/5x5_reduce"
  top: "inception_4b/5x5_reduce"
}
layer {
  name: "inception_4b/5x5"
  type: "Convolution"
  bottom: "inception_4b/5x5_reduce"
  top: "inception_4b/5x5"
  param {
    lr_mult: 1
    decay_mult: 1
  }
  param {
    lr_mult: 2
    decay_mult: 0
  }
  convolution_param {
    num_output: 64
    pad: 2
    kernel_size: 5
    weight_filler {
      type: "xavier"
      std: 0.03
    }
    bias_filler {
      type: "constant"
      value: 0.2
    }
  }
}
layer {
  name: "inception_4b/relu_5x5"
  type: "ReLU"
  bottom: "inception_4b/5x5"
  top: "inception_4b/5x5"
}
layer {
  name: "inception_4b/pool"
  type: "Pooling"
  bottom: "inception_4a/output"
  top: "inception_4b/pool"
  pooling_param {
    pool: MAX
    kernel_size: 3
    stride: 1
    pad: 1
  }
}
layer {
  name: "inception_4b/pool_proj"
  type: "Convolution"
  bottom: "inception_4b/pool"
  top: "inception_4b/pool_proj"
  param {
    lr_mult: 1
    decay_mult: 1
  }
  param {
    lr_mult: 2
    decay_mult: 0
  }
  convolution_param {
    num_output: 64
    kernel_size: 1
    weight_filler {
      type: "xavier"
      std: 0.1
    }
    bias_filler {
      type: "constant"
      value: 0.2
    }
  }
}
layer {
  name: "inception_4b/relu_pool_proj"
  type: "ReLU"
  bottom: "inception_4b/pool_proj"
  top: "inception_4b/pool_proj"
}
layer {
  name: "inception_4b/output"
  type: "Concat"
  bottom: "inception_4b/1x1"
  bottom: "inception_4b/3x3"
  bottom: "inception_4b/5x5"
  bottom: "inception_4b/pool_proj"
  top: "inception_4b/output"
}
layer {
  name: "inception_4c/1x1"
  type: "Convolution"
  bottom: "inception_4b/output"
  top: "inception_4c/1x1"
  param {
    lr_mult: 1
    decay_mult: 1
  }
  param {
    lr_mult: 2
    decay_mult: 0
  }
  convolution_param {
    num_output: 128
    kernel_size: 1
    weight_filler {
      type: "xavier"
      std: 0.03
    }
    bias_filler {
      type: "constant"
      value: 0.2
    }
  }
}
layer {
  name: "inception_4c/relu_1x1"
  type: "ReLU"
  bottom: "inception_4c/1x1"
  top: "inception_4c/1x1"
}
layer {
  name: "inception_4c/3x3_reduce"
  type: "Convolution"
  bottom: "inception_4b/output"
  top: "inception_4c/3x3_reduce"
  param {
    lr_mult: 1
    decay_mult: 1
  }
  param {
    lr_mult: 2
    decay_mult: 0
  }
  convolution_param {
    num_output: 128
    kernel_size: 1
    weight_filler {
      type: "xavier"
      std: 0.09
    }
    bias_filler {
      type: "constant"
      value: 0.2
    }
  }
}
layer {
  name: "inception_4c/relu_3x3_reduce"
  type: "ReLU"
  bottom: "inception_4c/3x3_reduce"
  top: "inception_4c/3x3_reduce"
}
layer {
  name: "inception_4c/3x3"
  type: "Convolution"
  bottom: "inception_4c/3x3_reduce"
  top: "inception_4c/3x3"
  param {
    lr_mult: 1
    decay_mult: 1
  }
  param {
    lr_mult: 2
    decay_mult: 0
  }
  convolution_param {
    num_output: 256
    pad: 1
    kernel_size: 3
    weight_filler {
      type: "xavier"
      std: 0.03
    }
    bias_filler {
      type: "constant"
      value: 0.2
    }
  }
}
layer {
  name: "inception_4c/relu_3x3"
  type: "ReLU"
  bottom: "inception_4c/3x3"
  top: "inception_4c/3x3"
}
layer {
  name: "inception_4c/5x5_reduce"
  type: "Convolution"
  bottom: "inception_4b/output"
  top: "inception_4c/5x5_reduce"
  param {
    lr_mult: 1
    decay_mult: 1
  }
  param {
    lr_mult: 2
    decay_mult: 0
  }
  convolution_param {
    num_output: 24
    kernel_size: 1
    weight_filler {
      type: "xavier"
      std: 0.2
    }
    bias_filler {
      type: "constant"
      value: 0.2
    }
  }
}
layer {
  name: "inception_4c/relu_5x5_reduce"
  type: "ReLU"
  bottom: "inception_4c/5x5_reduce"
  top: "inception_4c/5x5_reduce"
}
layer {
  name: "inception_4c/5x5"
  type: "Convolution"
  bottom: "inception_4c/5x5_reduce"
  top: "inception_4c/5x5"
  param {
    lr_mult: 1
    decay_mult: 1
  }
  param {
    lr_mult: 2
    decay_mult: 0
  }
  convolution_param {
    num_output: 64
    pad: 2
    kernel_size: 5
    weight_filler {
      type: "xavier"
      std: 0.03
    }
    bias_filler {
      type: "constant"
      value: 0.2
    }
  }
}
layer {
  name: "inception_4c/relu_5x5"
  type: "ReLU"
  bottom: "inception_4c/5x5"
  top: "inception_4c/5x5"
}
layer {
  name: "inception_4c/pool"
  type: "Pooling"
  bottom: "inception_4b/output"
  top: "inception_4c/pool"
  pooling_param {
    pool: MAX
    kernel_size: 3
    stride: 1
    pad: 1
  }
}
layer {
  name: "inception_4c/pool_proj"
  type: "Convolution"
  bottom: "inception_4c/pool"
  top: "inception_4c/pool_proj"
  param {
    lr_mult: 1
    decay_mult: 1
  }
  param {
    lr_mult: 2
    decay_mult: 0
  }
  convolution_param {
    num_output: 64
    kernel_size: 1
    weight_filler {
      type: "xavier"
      std: 0.1
    }
    bias_filler {
      type: "constant"
      value: 0.2
    }
  }
}
layer {
  name: "inception_4c/relu_pool_proj"
  type: "ReLU"
  bottom: "inception_4c/pool_proj"
  top: "inception_4c/pool_proj"
}
layer {
  name: "inception_4c/output"
  type: "Concat"
  bottom: "inception_4c/1x1"
  bottom: "inception_4c/3x3"
  bottom: "inception_4c/5x5"
  bottom: "inception_4c/pool_proj"
  top: "inception_4c/output"
}
layer {
  name: "inception_4d/1x1"
  type: "Convolution"
  bottom: "inception_4c/output"
  top: "inception_4d/1x1"
  param {
    lr_mult: 1
    decay_mult: 1
  }
  param {
    lr_mult: 2
    decay_mult: 0
  }
  convolution_param {
    num_output: 112
    kernel_size: 1
    weight_filler {
      type: "xavier"
      std: 0.03
    }
    bias_filler {
      type: "constant"
      value: 0.2
    }
  }
}
layer {
  name: "inception_4d/relu_1x1"
  type: "ReLU"
  bottom: "inception_4d/1x1"
  top: "inception_4d/1x1"
}
layer {
  name: "inception_4d/3x3_reduce"
  type: "Convolution"
  bottom: "inception_4c/output"
  top: "inception_4d/3x3_reduce"
  param {
    lr_mult: 1
    decay_mult: 1
  }
  param {
    lr_mult: 2
    decay_mult: 0
  }
  convolution_param {
    num_output: 144
    kernel_size: 1
    weight_filler {
      type: "xavier"
      std: 0.09
    }
    bias_filler {
      type: "constant"
      value: 0.2
    }
  }
}
layer {
  name: "inception_4d/relu_3x3_reduce"
  type: "ReLU"
  bottom: "inception_4d/3x3_reduce"
  top: "inception_4d/3x3_reduce"
}
layer {
  name: "inception_4d/3x3"
  type: "Convolution"
  bottom: "inception_4d/3x3_reduce"
  top: "inception_4d/3x3"
  param {
    lr_mult: 1
    decay_mult: 1
  }
  param {
    lr_mult: 2
    decay_mult: 0
  }
  convolution_param {
    num_output: 288
    pad: 1
    kernel_size: 3
    weight_filler {
      type: "xavier"
      std: 0.03
    }
    bias_filler {
      type: "constant"
      value: 0.2
    }
  }
}
layer {
  name: "inception_4d/relu_3x3"
  type: "ReLU"
  bottom: "inception_4d/3x3"
  top: "inception_4d/3x3"
}
layer {
  name: "inception_4d/5x5_reduce"
  type: "Convolution"
  bottom: "inception_4c/output"
  top: "inception_4d/5x5_reduce"
  param {
    lr_mult: 1
    decay_mult: 1
  }
  param {
    lr_mult: 2
    decay_mult: 0
  }
  convolution_param {
    num_output: 32
    kernel_size: 1
    weight_filler {
      type: "xavier"
      std: 0.2
    }
    bias_filler {
      type: "constant"
      value: 0.2
    }
  }
}
layer {
  name: "inception_4d/relu_5x5_reduce"
  type: "ReLU"
  bottom: "inception_4d/5x5_reduce"
  top: "inception_4d/5x5_reduce"
}
layer {
  name: "inception_4d/5x5"
  type: "Convolution"
  bottom: "inception_4d/5x5_reduce"
  top: "inception_4d/5x5"
  param {
    lr_mult: 1
    decay_mult: 1
  }
  param {
    lr_mult: 2
    decay_mult: 0
  }
  convolution_param {
    num_output: 64
    pad: 2
    kernel_size: 5
    weight_filler {
      type: "xavier"
      std: 0.03
    }
    bias_filler {
      type: "constant"
      value: 0.2
    }
  }
}
layer {
  name: "inception_4d/relu_5x5"
  type: "ReLU"
  bottom: "inception_4d/5x5"
  top: "inception_4d/5x5"
}
layer {
  name: "inception_4d/pool"
  type: "Pooling"
  bottom: "inception_4c/output"
  top: "inception_4d/pool"
  pooling_param {
    pool: MAX
    kernel_size: 3
    stride: 1
    pad: 1
  }
}
layer {
  name: "inception_4d/pool_proj"
  type: "Convolution"
  bottom: "inception_4d/pool"
  top: "inception_4d/pool_proj"
  param {
    lr_mult: 1
    decay_mult: 1
  }
  param {
    lr_mult: 2
    decay_mult: 0
  }
  convolution_param {
    num_output: 64
    kernel_size: 1
    weight_filler {
      type: "xavier"
      std: 0.1
    }
    bias_filler {
      type: "constant"
      value: 0.2
    }
  }
}
layer {
  name: "inception_4d/relu_pool_proj"
  type: "ReLU"
  bottom: "inception_4d/pool_proj"
  top: "inception_4d/pool_proj"
}
layer {
  name: "inception_4d/output"
  type: "Concat"
  bottom: "inception_4d/1x1"
  bottom: "inception_4d/3x3"
  bottom: "inception_4d/5x5"
  bottom: "inception_4d/pool_proj"
  top: "inception_4d/output"
}
layer {
  name: "loss2/ave_pool"
  type: "Pooling"
  bottom: "inception_4d/output"
  top: "loss2/ave_pool"
  pooling_param {
    pool: AVE
    kernel_size: 5
    stride: 3
  }
}
layer {
  name: "loss2/conv"
  type: "Convolution"
  bottom: "loss2/ave_pool"
  top: "loss2/conv"
  param {
    lr_mult: 1
    decay_mult: 1
  }
  param {
    lr_mult: 2
    decay_mult: 0
  }
  convolution_param {
    num_output: 128
    kernel_size: 1
    weight_filler {
      type: "xavier"
      std: 0.08
    }
    bias_filler {
      type: "constant"
      value: 0.2
    }
  }
}
layer {
  name: "loss2/relu_conv"
  type: "ReLU"
  bottom: "loss2/conv"
  top: "loss2/conv"
}
layer {
  name: "loss2/fc"
  type: "InnerProduct"
  bottom: "loss2/conv"
  top: "loss2/fc"
  param {
    lr_mult: 1
    decay_mult: 1
  }
  param {
    lr_mult: 2
    decay_mult: 0
  }
  inner_product_param {
    num_output: 1024
    weight_filler {
      type: "xavier"
      std: 0.02
    }
    bias_filler {
      type: "constant"
      value: 0.2
    }
  }
}
layer {
  name: "loss2/relu_fc"
  type: "ReLU"
  bottom: "loss2/fc"
  top: "loss2/fc"
}
layer {
  name: "loss2/drop_fc"
  type: "Dropout"
  bottom: "loss2/fc"
  top: "loss2/fc"
  dropout_param {
    dropout_ratio: 0.7
  }
}
layer {
  name: "loss2/classifier_plantvillage"
  type: "InnerProduct"
  bottom: "loss2/fc"
  top: "loss2/classifier_plantvillage"
  param {
    lr_mult: 1
    decay_mult: 1
  }
  param {
    lr_mult: 2
    decay_mult: 0
  }
  inner_product_param {
    num_output: 38
    weight_filler {
      type: "xavier"
      std: 0.0009765625
    }
    bias_filler {
      type: "constant"
      value: 0
    }
  }
}
layer {
  name: "inception_4e/1x1"
  type: "Convolution"
  bottom: "inception_4d/output"
  top: "inception_4e/1x1"
  param {
    lr_mult: 1
    decay_mult: 1
  }
  param {
    lr_mult: 2
    decay_mult: 0
  }
  convolution_param {
    num_output: 256
    kernel_size: 1
    weight_filler {
      type: "xavier"
      std: 0.03
    }
    bias_filler {
      type: "constant"
      value: 0.2
    }
  }
}
layer {
  name: "inception_4e/relu_1x1"
  type: "ReLU"
  bottom: "inception_4e/1x1"
  top: "inception_4e/1x1"
}
layer {
  name: "inception_4e/3x3_reduce"
  type: "Convolution"
  bottom: "inception_4d/output"
  top: "inception_4e/3x3_reduce"
  param {
    lr_mult: 1
    decay_mult: 1
  }
  param {
    lr_mult: 2
    decay_mult: 0
  }
  convolution_param {
    num_output: 160
    kernel_size: 1
    weight_filler {
      type: "xavier"
      std: 0.09
    }
    bias_filler {
      type: "constant"
      value: 0.2
    }
  }
}
layer {
  name: "inception_4e/relu_3x3_reduce"
  type: "ReLU"
  bottom: "inception_4e/3x3_reduce"
  top: "inception_4e/3x3_reduce"
}
layer {
  name: "inception_4e/3x3"
  type: "Convolution"
  bottom: "inception_4e/3x3_reduce"
  top: "inception_4e/3x3"
  param {
    lr_mult: 1
    decay_mult: 1
  }
  param {
    lr_mult: 2
    decay_mult: 0
  }
  convolution_param {
    num_output: 320
    pad: 1
    kernel_size: 3
    weight_filler {
      type: "xavier"
      std: 0.03
    }
    bias_filler {
      type: "constant"
      value: 0.2
    }
  }
}
layer {
  name: "inception_4e/relu_3x3"
  type: "ReLU"
  bottom: "inception_4e/3x3"
  top: "inception_4e/3x3"
}
layer {
  name: "inception_4e/5x5_reduce"
  type: "Convolution"
  bottom: "inception_4d/output"
  top: "inception_4e/5x5_reduce"
  param {
    lr_mult: 1
    decay_mult: 1
  }
  param {
    lr_mult: 2
    decay_mult: 0
  }
  convolution_param {
    num_output: 32
    kernel_size: 1
    weight_filler {
      type: "xavier"
      std: 0.2
    }
    bias_filler {
      type: "constant"
      value: 0.2
    }
  }
}
layer {
  name: "inception_4e/relu_5x5_reduce"
  type: "ReLU"
  bottom: "inception_4e/5x5_reduce"
  top: "inception_4e/5x5_reduce"
}
layer {
  name: "inception_4e/5x5"
  type: "Convolution"
  bottom: "inception_4e/5x5_reduce"
  top: "inception_4e/
I0403 15:40:17.263803 20149 layer_factory.hpp:77] Creating layer data
I0403 15:40:17.264410 20149 net.cpp:91] Creating Layer data
I0403 15:40:17.264441 20149 net.cpp:399] data -> data
I0403 15:40:17.264493 20149 net.cpp:399] data -> label
I0403 15:40:17.264530 20149 data_transformer.cpp:25] Loading mean file from: /home/mohanty/data/final_dataset/lmdb/grayscale-20-80/mean.binaryproto
I0403 15:40:17.265782 20154 db_lmdb.cpp:38] Opened lmdb /home/mohanty/data/final_dataset/lmdb/grayscale-20-80/test_db
I0403 15:40:17.277837 20149 data_layer.cpp:41] output data size: 24,3,224,224
I0403 15:40:17.306174 20149 net.cpp:141] Setting up data
I0403 15:40:17.306279 20149 net.cpp:148] Top shape: 24 3 224 224 (3612672)
I0403 15:40:17.306303 20149 net.cpp:148] Top shape: 24 (24)
I0403 15:40:17.306319 20149 net.cpp:156] Memory required for data: 14450784
I0403 15:40:17.306347 20149 layer_factory.hpp:77] Creating layer label_data_1_split
I0403 15:40:17.306375 20149 net.cpp:91] Creating Layer label_data_1_split
I0403 15:40:17.306394 20149 net.cpp:425] label_data_1_split <- label
I0403 15:40:17.306428 20149 net.cpp:399] label_data_1_split -> label_data_1_split_0
I0403 15:40:17.306457 20149 net.cpp:399] label_data_1_split -> label_data_1_split_1
I0403 15:40:17.306479 20149 net.cpp:399] label_data_1_split -> label_data_1_split_2
I0403 15:40:17.306501 20149 net.cpp:399] label_data_1_split -> label_data_1_split_3
I0403 15:40:17.306521 20149 net.cpp:399] label_data_1_split -> label_data_1_split_4
I0403 15:40:17.306542 20149 net.cpp:399] label_data_1_split -> label_data_1_split_5
I0403 15:40:17.306562 20149 net.cpp:399] label_data_1_split -> label_data_1_split_6
I0403 15:40:17.306583 20149 net.cpp:399] label_data_1_split -> label_data_1_split_7
I0403 15:40:17.306604 20149 net.cpp:399] label_data_1_split -> label_data_1_split_8
I0403 15:40:17.306624 20149 net.cpp:399] label_data_1_split -> label_data_1_split_9
I0403 15:40:17.306746 20149 net.cpp:141] Setting up label_data_1_split
I0403 15:40:17.306771 20149 net.cpp:148] Top shape: 24 (24)
I0403 15:40:17.306788 20149 net.cpp:148] Top shape: 24 (24)
I0403 15:40:17.306804 20149 net.cpp:148] Top shape: 24 (24)
I0403 15:40:17.306821 20149 net.cpp:148] Top shape: 24 (24)
I0403 15:40:17.306838 20149 net.cpp:148] Top shape: 24 (24)
I0403 15:40:17.306854 20149 net.cpp:148] Top shape: 24 (24)
I0403 15:40:17.306870 20149 net.cpp:148] Top shape: 24 (24)
I0403 15:40:17.306886 20149 net.cpp:148] Top shape: 24 (24)
I0403 15:40:17.306902 20149 net.cpp:148] Top shape: 24 (24)
I0403 15:40:17.306920 20149 net.cpp:148] Top shape: 24 (24)
I0403 15:40:17.306965 20149 net.cpp:156] Memory required for data: 14451744
I0403 15:40:17.306982 20149 layer_factory.hpp:77] Creating layer conv1/7x7_s2
I0403 15:40:17.307015 20149 net.cpp:91] Creating Layer conv1/7x7_s2
I0403 15:40:17.307039 20149 net.cpp:425] conv1/7x7_s2 <- data
I0403 15:40:17.307061 20149 net.cpp:399] conv1/7x7_s2 -> conv1/7x7_s2
I0403 15:40:17.448088 20149 net.cpp:141] Setting up conv1/7x7_s2
I0403 15:40:17.448179 20149 net.cpp:148] Top shape: 24 64 112 112 (19267584)
I0403 15:40:17.448195 20149 net.cpp:156] Memory required for data: 91522080
I0403 15:40:17.448227 20149 layer_factory.hpp:77] Creating layer conv1/relu_7x7
I0403 15:40:17.448256 20149 net.cpp:91] Creating Layer conv1/relu_7x7
I0403 15:40:17.448273 20149 net.cpp:425] conv1/relu_7x7 <- conv1/7x7_s2
I0403 15:40:17.448292 20149 net.cpp:386] conv1/relu_7x7 -> conv1/7x7_s2 (in-place)
I0403 15:40:17.448554 20149 net.cpp:141] Setting up conv1/relu_7x7
I0403 15:40:17.448582 20149 net.cpp:148] Top shape: 24 64 112 112 (19267584)
I0403 15:40:17.448598 20149 net.cpp:156] Memory required for data: 168592416
I0403 15:40:17.448613 20149 layer_factory.hpp:77] Creating layer pool1/3x3_s2
I0403 15:40:17.448638 20149 net.cpp:91] Creating Layer pool1/3x3_s2
I0403 15:40:17.448657 20149 net.cpp:425] pool1/3x3_s2 <- conv1/7x7_s2
I0403 15:40:17.448675 20149 net.cpp:399] pool1/3x3_s2 -> pool1/3x3_s2
I0403 15:40:17.448751 20149 net.cpp:141] Setting up pool1/3x3_s2
I0403 15:40:17.448776 20149 net.cpp:148] Top shape: 24 64 56 56 (4816896)
I0403 15:40:17.448791 20149 net.cpp:156] Memory required for data: 187860000
I0403 15:40:17.448807 20149 layer_factory.hpp:77] Creating layer pool1/norm1
I0403 15:40:17.448830 20149 net.cpp:91] Creating Layer pool1/norm1
I0403 15:40:17.448848 20149 net.cpp:425] pool1/norm1 <- pool1/3x3_s2
I0403 15:40:17.448866 20149 net.cpp:399] pool1/norm1 -> pool1/norm1
I0403 15:40:17.449170 20149 net.cpp:141] Setting up pool1/norm1
I0403 15:40:17.449198 20149 net.cpp:148] Top shape: 24 64 56 56 (4816896)
I0403 15:40:17.449216 20149 net.cpp:156] Memory required for data: 207127584
I0403 15:40:17.449232 20149 layer_factory.hpp:77] Creating layer conv2/3x3_reduce
I0403 15:40:17.449257 20149 net.cpp:91] Creating Layer conv2/3x3_reduce
I0403 15:40:17.449275 20149 net.cpp:425] conv2/3x3_reduce <- pool1/norm1
I0403 15:40:17.449293 20149 net.cpp:399] conv2/3x3_reduce -> conv2/3x3_reduce
I0403 15:40:17.450655 20149 net.cpp:141] Setting up conv2/3x3_reduce
I0403 15:40:17.450685 20149 net.cpp:148] Top shape: 24 64 56 56 (4816896)
I0403 15:40:17.450702 20149 net.cpp:156] Memory required for data: 226395168
I0403 15:40:17.450723 20149 layer_factory.hpp:77] Creating layer conv2/relu_3x3_reduce
I0403 15:40:17.450742 20149 net.cpp:91] Creating Layer conv2/relu_3x3_reduce
I0403 15:40:17.450759 20149 net.cpp:425] conv2/relu_3x3_reduce <- conv2/3x3_reduce
I0403 15:40:17.450776 20149 net.cpp:386] conv2/relu_3x3_reduce -> conv2/3x3_reduce (in-place)
I0403 15:40:17.451040 20149 net.cpp:141] Setting up conv2/relu_3x3_reduce
I0403 15:40:17.451069 20149 net.cpp:148] Top shape: 24 64 56 56 (4816896)
I0403 15:40:17.451086 20149 net.cpp:156] Memory required for data: 245662752
I0403 15:40:17.451105 20149 layer_factory.hpp:77] Creating layer conv2/3x3
I0403 15:40:17.451128 20149 net.cpp:91] Creating Layer conv2/3x3
I0403 15:40:17.451153 20149 net.cpp:425] conv2/3x3 <- conv2/3x3_reduce
I0403 15:40:17.451172 20149 net.cpp:399] conv2/3x3 -> conv2/3x3
I0403 15:40:17.453639 20149 net.cpp:141] Setting up conv2/3x3
I0403 15:40:17.453673 20149 net.cpp:148] Top shape: 24 192 56 56 (14450688)
I0403 15:40:17.453691 20149 net.cpp:156] Memory required for data: 303465504
I0403 15:40:17.453713 20149 layer_factory.hpp:77] Creating layer conv2/relu_3x3
I0403 15:40:17.453737 20149 net.cpp:91] Creating Layer conv2/relu_3x3
I0403 15:40:17.453754 20149 net.cpp:425] conv2/relu_3x3 <- conv2/3x3
I0403 15:40:17.453773 20149 net.cpp:386] conv2/relu_3x3 -> conv2/3x3 (in-place)
I0403 15:40:17.453955 20149 net.cpp:141] Setting up conv2/relu_3x3
I0403 15:40:17.453985 20149 net.cpp:148] Top shape: 24 192 56 56 (14450688)
I0403 15:40:17.454040 20149 net.cpp:156] Memory required for data: 361268256
I0403 15:40:17.454056 20149 layer_factory.hpp:77] Creating layer conv2/norm2
I0403 15:40:17.454077 20149 net.cpp:91] Creating Layer conv2/norm2
I0403 15:40:17.454094 20149 net.cpp:425] conv2/norm2 <- conv2/3x3
I0403 15:40:17.454116 20149 net.cpp:399] conv2/norm2 -> conv2/norm2
I0403 15:40:17.454435 20149 net.cpp:141] Setting up conv2/norm2
I0403 15:40:17.454464 20149 net.cpp:148] Top shape: 24 192 56 56 (14450688)
I0403 15:40:17.454480 20149 net.cpp:156] Memory required for data: 419071008
I0403 15:40:17.454496 20149 layer_factory.hpp:77] Creating layer pool2/3x3_s2
I0403 15:40:17.454515 20149 net.cpp:91] Creating Layer pool2/3x3_s2
I0403 15:40:17.454532 20149 net.cpp:425] pool2/3x3_s2 <- conv2/norm2
I0403 15:40:17.454555 20149 net.cpp:399] pool2/3x3_s2 -> pool2/3x3_s2
I0403 15:40:17.454610 20149 net.cpp:141] Setting up pool2/3x3_s2
I0403 15:40:17.454638 20149 net.cpp:148] Top shape: 24 192 28 28 (3612672)
I0403 15:40:17.454655 20149 net.cpp:156] Memory required for data: 433521696
I0403 15:40:17.454670 20149 layer_factory.hpp:77] Creating layer pool2/3x3_s2_pool2/3x3_s2_0_split
I0403 15:40:17.454691 20149 net.cpp:91] Creating Layer pool2/3x3_s2_pool2/3x3_s2_0_split
I0403 15:40:17.454709 20149 net.cpp:425] pool2/3x3_s2_pool2/3x3_s2_0_split <- pool2/3x3_s2
I0403 15:40:17.454728 20149 net.cpp:399] pool2/3x3_s2_pool2/3x3_s2_0_split -> pool2/3x3_s2_pool2/3x3_s2_0_split_0
I0403 15:40:17.454751 20149 net.cpp:399] pool2/3x3_s2_pool2/3x3_s2_0_split -> pool2/3x3_s2_pool2/3x3_s2_0_split_1
I0403 15:40:17.454771 20149 net.cpp:399] pool2/3x3_s2_pool2/3x3_s2_0_split -> pool2/3x3_s2_pool2/3x3_s2_0_split_2
I0403 15:40:17.454792 20149 net.cpp:399] pool2/3x3_s2_pool2/3x3_s2_0_split -> pool2/3x3_s2_pool2/3x3_s2_0_split_3
I0403 15:40:17.454864 20149 net.cpp:141] Setting up pool2/3x3_s2_pool2/3x3_s2_0_split
I0403 15:40:17.454888 20149 net.cpp:148] Top shape: 24 192 28 28 (3612672)
I0403 15:40:17.454906 20149 net.cpp:148] Top shape: 24 192 28 28 (3612672)
I0403 15:40:17.454923 20149 net.cpp:148] Top shape: 24 192 28 28 (3612672)
I0403 15:40:17.454941 20149 net.cpp:148] Top shape: 24 192 28 28 (3612672)
I0403 15:40:17.454954 20149 net.cpp:156] Memory required for data: 491324448
I0403 15:40:17.454970 20149 layer_factory.hpp:77] Creating layer inception_3a/1x1
I0403 15:40:17.454994 20149 net.cpp:91] Creating Layer inception_3a/1x1
I0403 15:40:17.455013 20149 net.cpp:425] inception_3a/1x1 <- pool2/3x3_s2_pool2/3x3_s2_0_split_0
I0403 15:40:17.455040 20149 net.cpp:399] inception_3a/1x1 -> inception_3a/1x1
I0403 15:40:17.456676 20149 net.cpp:141] Setting up inception_3a/1x1
I0403 15:40:17.456707 20149 net.cpp:148] Top shape: 24 64 28 28 (1204224)
I0403 15:40:17.456725 20149 net.cpp:156] Memory required for data: 496141344
I0403 15:40:17.456746 20149 layer_factory.hpp:77] Creating layer inception_3a/relu_1x1
I0403 15:40:17.456769 20149 net.cpp:91] Creating Layer inception_3a/relu_1x1
I0403 15:40:17.456789 20149 net.cpp:425] inception_3a/relu_1x1 <- inception_3a/1x1
I0403 15:40:17.456806 20149 net.cpp:386] inception_3a/relu_1x1 -> inception_3a/1x1 (in-place)
I0403 15:40:17.456991 20149 net.cpp:141] Setting up inception_3a/relu_1x1
I0403 15:40:17.457022 20149 net.cpp:148] Top shape: 24 64 28 28 (1204224)
I0403 15:40:17.457041 20149 net.cpp:156] Memory required for data: 500958240
I0403 15:40:17.457056 20149 layer_factory.hpp:77] Creating layer inception_3a/3x3_reduce
I0403 15:40:17.457082 20149 net.cpp:91] Creating Layer inception_3a/3x3_reduce
I0403 15:40:17.457099 20149 net.cpp:425] inception_3a/3x3_reduce <- pool2/3x3_s2_pool2/3x3_s2_0_split_1
I0403 15:40:17.457119 20149 net.cpp:399] inception_3a/3x3_reduce -> inception_3a/3x3_reduce
I0403 15:40:17.458894 20149 net.cpp:141] Setting up inception_3a/3x3_reduce
I0403 15:40:17.458926 20149 net.cpp:148] Top shape: 24 96 28 28 (1806336)
I0403 15:40:17.458945 20149 net.cpp:156] Memory required for data: 508183584
I0403 15:40:17.458969 20149 layer_factory.hpp:77] Creating layer inception_3a/relu_3x3_reduce
I0403 15:40:17.459009 20149 net.cpp:91] Creating Layer inception_3a/relu_3x3_reduce
I0403 15:40:17.459041 20149 net.cpp:425] inception_3a/relu_3x3_reduce <- inception_3a/3x3_reduce
I0403 15:40:17.459064 20149 net.cpp:386] inception_3a/relu_3x3_reduce -> inception_3a/3x3_reduce (in-place)
I0403 15:40:17.459257 20149 net.cpp:141] Setting up inception_3a/relu_3x3_reduce
I0403 15:40:17.459285 20149 net.cpp:148] Top shape: 24 96 28 28 (1806336)
I0403 15:40:17.459300 20149 net.cpp:156] Memory required for data: 515408928
I0403 15:40:17.459316 20149 layer_factory.hpp:77] Creating layer inception_3a/3x3
I0403 15:40:17.459342 20149 net.cpp:91] Creating Layer inception_3a/3x3
I0403 15:40:17.459362 20149 net.cpp:425] inception_3a/3x3 <- inception_3a/3x3_reduce
I0403 15:40:17.459385 20149 net.cpp:399] inception_3a/3x3 -> inception_3a/3x3
I0403 15:40:17.461127 20149 net.cpp:141] Setting up inception_3a/3x3
I0403 15:40:17.461159 20149 net.cpp:148] Top shape: 24 128 28 28 (2408448)
I0403 15:40:17.461177 20149 net.cpp:156] Memory required for data: 525042720
I0403 15:40:17.461196 20149 layer_factory.hpp:77] Creating layer inception_3a/relu_3x3
I0403 15:40:17.461220 20149 net.cpp:91] Creating Layer inception_3a/relu_3x3
I0403 15:40:17.461239 20149 net.cpp:425] inception_3a/relu_3x3 <- inception_3a/3x3
I0403 15:40:17.461259 20149 net.cpp:386] inception_3a/relu_3x3 -> inception_3a/3x3 (in-place)
I0403 15:40:17.461549 20149 net.cpp:141] Setting up inception_3a/relu_3x3
I0403 15:40:17.461577 20149 net.cpp:148] Top shape: 24 128 28 28 (2408448)
I0403 15:40:17.461596 20149 net.cpp:156] Memory required for data: 534676512
I0403 15:40:17.461611 20149 layer_factory.hpp:77] Creating layer inception_3a/5x5_reduce
I0403 15:40:17.461635 20149 net.cpp:91] Creating Layer inception_3a/5x5_reduce
I0403 15:40:17.461657 20149 net.cpp:425] inception_3a/5x5_reduce <- pool2/3x3_s2_pool2/3x3_s2_0_split_2
I0403 15:40:17.461680 20149 net.cpp:399] inception_3a/5x5_reduce -> inception_3a/5x5_reduce
I0403 15:40:17.462692 20149 net.cpp:141] Setting up inception_3a/5x5_reduce
I0403 15:40:17.462723 20149 net.cpp:148] Top shape: 24 16 28 28 (301056)
I0403 15:40:17.462744 20149 net.cpp:156] Memory required for data: 535880736
I0403 15:40:17.462764 20149 layer_factory.hpp:77] Creating layer inception_3a/relu_5x5_reduce
I0403 15:40:17.462782 20149 net.cpp:91] Creating Layer inception_3a/relu_5x5_reduce
I0403 15:40:17.462800 20149 net.cpp:425] inception_3a/relu_5x5_reduce <- inception_3a/5x5_reduce
I0403 15:40:17.462817 20149 net.cpp:386] inception_3a/relu_5x5_reduce -> inception_3a/5x5_reduce (in-place)
I0403 15:40:17.463137 20149 net.cpp:141] Setting up inception_3a/relu_5x5_reduce
I0403 15:40:17.463167 20149 net.cpp:148] Top shape: 24 16 28 28 (301056)
I0403 15:40:17.463186 20149 net.cpp:156] Memory required for data: 537084960
I0403 15:40:17.463201 20149 layer_factory.hpp:77] Creating layer inception_3a/5x5
I0403 15:40:17.463229 20149 net.cpp:91] Creating Layer inception_3a/5x5
I0403 15:40:17.463248 20149 net.cpp:425] inception_3a/5x5 <- inception_3a/5x5_reduce
I0403 15:40:17.463268 20149 net.cpp:399] inception_3a/5x5 -> inception_3a/5x5
I0403 15:40:17.464339 20149 net.cpp:141] Setting up inception_3a/5x5
I0403 15:40:17.464370 20149 net.cpp:148] Top shape: 24 32 28 28 (602112)
I0403 15:40:17.464388 20149 net.cpp:156] Memory required for data: 539493408
I0403 15:40:17.464408 20149 layer_factory.hpp:77] Creating layer inception_3a/relu_5x5
I0403 15:40:17.464431 20149 net.cpp:91] Creating Layer inception_3a/relu_5x5
I0403 15:40:17.464449 20149 net.cpp:425] inception_3a/relu_5x5 <- inception_3a/5x5
I0403 15:40:17.464469 20149 net.cpp:386] inception_3a/relu_5x5 -> inception_3a/5x5 (in-place)
I0403 15:40:17.464656 20149 net.cpp:141] Setting up inception_3a/relu_5x5
I0403 15:40:17.464682 20149 net.cpp:148] Top shape: 24 32 28 28 (602112)
I0403 15:40:17.464699 20149 net.cpp:156] Memory required for data: 541901856
I0403 15:40:17.464715 20149 layer_factory.hpp:77] Creating layer inception_3a/pool
I0403 15:40:17.464735 20149 net.cpp:91] Creating Layer inception_3a/pool
I0403 15:40:17.464767 20149 net.cpp:425] inception_3a/pool <- pool2/3x3_s2_pool2/3x3_s2_0_split_3
I0403 15:40:17.464787 20149 net.cpp:399] inception_3a/pool -> inception_3a/pool
I0403 15:40:17.464851 20149 net.cpp:141] Setting up inception_3a/pool
I0403 15:40:17.464876 20149 net.cpp:148] Top shape: 24 192 28 28 (3612672)
I0403 15:40:17.464892 20149 net.cpp:156] Memory required for data: 556352544
I0403 15:40:17.464907 20149 layer_factory.hpp:77] Creating layer inception_3a/pool_proj
I0403 15:40:17.464931 20149 net.cpp:91] Creating Layer inception_3a/pool_proj
I0403 15:40:17.464951 20149 net.cpp:425] inception_3a/pool_proj <- inception_3a/pool
I0403 15:40:17.464974 20149 net.cpp:399] inception_3a/pool_proj -> inception_3a/pool_proj
I0403 15:40:17.465991 20149 net.cpp:141] Setting up inception_3a/pool_proj
I0403 15:40:17.466027 20149 net.cpp:148] Top shape: 24 32 28 28 (602112)
I0403 15:40:17.466048 20149 net.cpp:156] Memory required for data: 558760992
I0403 15:40:17.466074 20149 layer_factory.hpp:77] Creating layer inception_3a/relu_pool_proj
I0403 15:40:17.466097 20149 net.cpp:91] Creating Layer inception_3a/relu_pool_proj
I0403 15:40:17.466115 20149 net.cpp:425] inception_3a/relu_pool_proj <- inception_3a/pool_proj
I0403 15:40:17.466135 20149 net.cpp:386] inception_3a/relu_pool_proj -> inception_3a/pool_proj (in-place)
I0403 15:40:17.466424 20149 net.cpp:141] Setting up inception_3a/relu_pool_proj
I0403 15:40:17.466454 20149 net.cpp:148] Top shape: 24 32 28 28 (602112)
I0403 15:40:17.466471 20149 net.cpp:156] Memory required for data: 561169440
I0403 15:40:17.466488 20149 layer_factory.hpp:77] Creating layer inception_3a/output
I0403 15:40:17.466511 20149 net.cpp:91] Creating Layer inception_3a/output
I0403 15:40:17.466527 20149 net.cpp:425] inception_3a/output <- inception_3a/1x1
I0403 15:40:17.466544 20149 net.cpp:425] inception_3a/output <- inception_3a/3x3
I0403 15:40:17.466562 20149 net.cpp:425] inception_3a/output <- inception_3a/5x5
I0403 15:40:17.466578 20149 net.cpp:425] inception_3a/output <- inception_3a/pool_proj
I0403 15:40:17.466595 20149 net.cpp:399] inception_3a/output -> inception_3a/output
I0403 15:40:17.466648 20149 net.cpp:141] Setting up inception_3a/output
I0403 15:40:17.466673 20149 net.cpp:148] Top shape: 24 256 28 28 (4816896)
I0403 15:40:17.466688 20149 net.cpp:156] Memory required for data: 580437024
I0403 15:40:17.466704 20149 layer_factory.hpp:77] Creating layer inception_3a/output_inception_3a/output_0_split
I0403 15:40:17.466722 20149 net.cpp:91] Creating Layer inception_3a/output_inception_3a/output_0_split
I0403 15:40:17.466738 20149 net.cpp:425] inception_3a/output_inception_3a/output_0_split <- inception_3a/output
I0403 15:40:17.466758 20149 net.cpp:399] inception_3a/output_inception_3a/output_0_split -> inception_3a/output_inception_3a/output_0_split_0
I0403 15:40:17.466780 20149 net.cpp:399] inception_3a/output_inception_3a/output_0_split -> inception_3a/output_inception_3a/output_0_split_1
I0403 15:40:17.466804 20149 net.cpp:399] inception_3a/output_inception_3a/output_0_split -> inception_3a/output_inception_3a/output_0_split_2
I0403 15:40:17.466826 20149 net.cpp:399] inception_3a/output_inception_3a/output_0_split -> inception_3a/output_inception_3a/output_0_split_3
I0403 15:40:17.466907 20149 net.cpp:141] Setting up inception_3a/output_inception_3a/output_0_split
I0403 15:40:17.466929 20149 net.cpp:148] Top shape: 24 256 28 28 (4816896)
I0403 15:40:17.466948 20149 net.cpp:148] Top shape: 24 256 28 28 (4816896)
I0403 15:40:17.466964 20149 net.cpp:148] Top shape: 24 256 28 28 (4816896)
I0403 15:40:17.466981 20149 net.cpp:148] Top shape: 24 256 28 28 (4816896)
I0403 15:40:17.466996 20149 net.cpp:156] Memory required for data: 657507360
I0403 15:40:17.467011 20149 layer_factory.hpp:77] Creating layer inception_3b/1x1
I0403 15:40:17.467041 20149 net.cpp:91] Creating Layer inception_3b/1x1
I0403 15:40:17.467061 20149 net.cpp:425] inception_3b/1x1 <- inception_3a/output_inception_3a/output_0_split_0
I0403 15:40:17.467082 20149 net.cpp:399] inception_3b/1x1 -> inception_3b/1x1
I0403 15:40:17.468283 20149 net.cpp:141] Setting up inception_3b/1x1
I0403 15:40:17.468327 20149 net.cpp:148] Top shape: 24 128 28 28 (2408448)
I0403 15:40:17.468345 20149 net.cpp:156] Memory required for data: 667141152
I0403 15:40:17.468366 20149 layer_factory.hpp:77] Creating layer inception_3b/relu_1x1
I0403 15:40:17.468386 20149 net.cpp:91] Creating Layer inception_3b/relu_1x1
I0403 15:40:17.468403 20149 net.cpp:425] inception_3b/relu_1x1 <- inception_3b/1x1
I0403 15:40:17.468425 20149 net.cpp:386] inception_3b/relu_1x1 -> inception_3b/1x1 (in-place)
I0403 15:40:17.468612 20149 net.cpp:141] Setting up inception_3b/relu_1x1
I0403 15:40:17.468639 20149 net.cpp:148] Top shape: 24 128 28 28 (2408448)
I0403 15:40:17.468657 20149 net.cpp:156] Memory required for data: 676774944
I0403 15:40:17.468672 20149 layer_factory.hpp:77] Creating layer inception_3b/3x3_reduce
I0403 15:40:17.468696 20149 net.cpp:91] Creating Layer inception_3b/3x3_reduce
I0403 15:40:17.468715 20149 net.cpp:425] inception_3b/3x3_reduce <- inception_3a/output_inception_3a/output_0_split_1
I0403 15:40:17.468739 20149 net.cpp:399] inception_3b/3x3_reduce -> inception_3b/3x3_reduce
I0403 15:40:17.469947 20149 net.cpp:141] Setting up inception_3b/3x3_reduce
I0403 15:40:17.469979 20149 net.cpp:148] Top shape: 24 128 28 28 (2408448)
I0403 15:40:17.469997 20149 net.cpp:156] Memory required for data: 686408736
I0403 15:40:17.470022 20149 layer_factory.hpp:77] Creating layer inception_3b/relu_3x3_reduce
I0403 15:40:17.470046 20149 net.cpp:91] Creating Layer inception_3b/relu_3x3_reduce
I0403 15:40:17.470064 20149 net.cpp:425] inception_3b/relu_3x3_reduce <- inception_3b/3x3_reduce
I0403 15:40:17.470083 20149 net.cpp:386] inception_3b/relu_3x3_reduce -> inception_3b/3x3_reduce (in-place)
I0403 15:40:17.470268 20149 net.cpp:141] Setting up inception_3b/relu_3x3_reduce
I0403 15:40:17.470295 20149 net.cpp:148] Top shape: 24 128 28 28 (2408448)
I0403 15:40:17.470312 20149 net.cpp:156] Memory required for data: 696042528
I0403 15:40:17.470329 20149 layer_factory.hpp:77] Creating layer inception_3b/3x3
I0403 15:40:17.470360 20149 net.cpp:91] Creating Layer inception_3b/3x3
I0403 15:40:17.470378 20149 net.cpp:425] inception_3b/3x3 <- inception_3b/3x3_reduce
I0403 15:40:17.470398 20149 net.cpp:399] inception_3b/3x3 -> inception_3b/3x3
I0403 15:40:17.473477 20149 net.cpp:141] Setting up inception_3b/3x3
I0403 15:40:17.473510 20149 net.cpp:148] Top shape: 24 192 28 28 (3612672)
I0403 15:40:17.473527 20149 net.cpp:156] Memory required for data: 710493216
I0403 15:40:17.473546 20149 layer_factory.hpp:77] Creating layer inception_3b/relu_3x3
I0403 15:40:17.473568 20149 net.cpp:91] Creating Layer inception_3b/relu_3x3
I0403 15:40:17.473587 20149 net.cpp:425] inception_3b/relu_3x3 <- inception_3b/3x3
I0403 15:40:17.473606 20149 net.cpp:386] inception_3b/relu_3x3 -> inception_3b/3x3 (in-place)
I0403 15:40:17.473901 20149 net.cpp:141] Setting up inception_3b/relu_3x3
I0403 15:40:17.473929 20149 net.cpp:148] Top shape: 24 192 28 28 (3612672)
I0403 15:40:17.473945 20149 net.cpp:156] Memory required for data: 724943904
I0403 15:40:17.473961 20149 layer_factory.hpp:77] Creating layer inception_3b/5x5_reduce
I0403 15:40:17.473985 20149 net.cpp:91] Creating Layer inception_3b/5x5_reduce
I0403 15:40:17.474004 20149 net.cpp:425] inception_3b/5x5_reduce <- inception_3a/output_inception_3a/output_0_split_2
I0403 15:40:17.474032 20149 net.cpp:399] inception_3b/5x5_reduce -> inception_3b/5x5_reduce
I0403 15:40:17.475086 20149 net.cpp:141] Setting up inception_3b/5x5_reduce
I0403 15:40:17.475114 20149 net.cpp:148] Top shape: 24 32 28 28 (602112)
I0403 15:40:17.475131 20149 net.cpp:156] Memory required for data: 727352352
I0403 15:40:17.475150 20149 layer_factory.hpp:77] Creating layer inception_3b/relu_5x5_reduce
I0403 15:40:17.475170 20149 net.cpp:91] Creating Layer inception_3b/relu_5x5_reduce
I0403 15:40:17.475188 20149 net.cpp:425] inception_3b/relu_5x5_reduce <- inception_3b/5x5_reduce
I0403 15:40:17.475206 20149 net.cpp:386] inception_3b/relu_5x5_reduce -> inception_3b/5x5_reduce (in-place)
I0403 15:40:17.475409 20149 net.cpp:141] Setting up inception_3b/relu_5x5_reduce
I0403 15:40:17.475437 20149 net.cpp:148] Top shape: 24 32 28 28 (602112)
I0403 15:40:17.475455 20149 net.cpp:156] Memory required for data: 729760800
I0403 15:40:17.475471 20149 layer_factory.hpp:77] Creating layer inception_3b/5x5
I0403 15:40:17.475493 20149 net.cpp:91] Creating Layer inception_3b/5x5
I0403 15:40:17.475512 20149 net.cpp:425] inception_3b/5x5 <- inception_3b/5x5_reduce
I0403 15:40:17.475531 20149 net.cpp:399] inception_3b/5x5 -> inception_3b/5x5
I0403 15:40:17.477536 20149 net.cpp:141] Setting up inception_3b/5x5
I0403 15:40:17.477568 20149 net.cpp:148] Top shape: 24 96 28 28 (1806336)
I0403 15:40:17.477586 20149 net.cpp:156] Memory required for data: 736986144
I0403 15:40:17.477605 20149 layer_factory.hpp:77] Creating layer inception_3b/relu_5x5
I0403 15:40:17.477628 20149 net.cpp:91] Creating Layer inception_3b/relu_5x5
I0403 15:40:17.477650 20149 net.cpp:425] inception_3b/relu_5x5 <- inception_3b/5x5
I0403 15:40:17.477670 20149 net.cpp:386] inception_3b/relu_5x5 -> inception_3b/5x5 (in-place)
I0403 15:40:17.477867 20149 net.cpp:141] Setting up inception_3b/relu_5x5
I0403 15:40:17.477895 20149 net.cpp:148] Top shape: 24 96 28 28 (1806336)
I0403 15:40:17.477912 20149 net.cpp:156] Memory required for data: 744211488
I0403 15:40:17.477927 20149 layer_factory.hpp:77] Creating layer inception_3b/pool
I0403 15:40:17.477946 20149 net.cpp:91] Creating Layer inception_3b/pool
I0403 15:40:17.477962 20149 net.cpp:425] inception_3b/pool <- inception_3a/output_inception_3a/output_0_split_3
I0403 15:40:17.477982 20149 net.cpp:399] inception_3b/pool -> inception_3b/pool
I0403 15:40:17.478046 20149 net.cpp:141] Setting up inception_3b/pool
I0403 15:40:17.478070 20149 net.cpp:148] Top shape: 24 256 28 28 (4816896)
I0403 15:40:17.478085 20149 net.cpp:156] Memory required for data: 763479072
I0403 15:40:17.478101 20149 layer_factory.hpp:77] Creating layer inception_3b/pool_proj
I0403 15:40:17.478123 20149 net.cpp:91] Creating Layer inception_3b/pool_proj
I0403 15:40:17.478142 20149 net.cpp:425] inception_3b/pool_proj <- inception_3b/pool
I0403 15:40:17.478163 20149 net.cpp:399] inception_3b/pool_proj -> inception_3b/pool_proj
I0403 15:40:17.479259 20149 net.cpp:141] Setting up inception_3b/pool_proj
I0403 15:40:17.479290 20149 net.cpp:148] Top shape: 24 64 28 28 (1204224)
I0403 15:40:17.479310 20149 net.cpp:156] Memory required for data: 768295968
I0403 15:40:17.479329 20149 layer_factory.hpp:77] Creating layer inception_3b/relu_pool_proj
I0403 15:40:17.479349 20149 net.cpp:91] Creating Layer inception_3b/relu_pool_proj
I0403 15:40:17.479367 20149 net.cpp:425] inception_3b/relu_pool_proj <- inception_3b/pool_proj
I0403 15:40:17.479388 20149 net.cpp:386] inception_3b/relu_pool_proj -> inception_3b/pool_proj (in-place)
I0403 15:40:17.479792 20149 net.cpp:141] Setting up inception_3b/relu_pool_proj
I0403 15:40:17.479823 20149 net.cpp:148] Top shape: 24 64 28 28 (1204224)
I0403 15:40:17.479841 20149 net.cpp:156] Memory required for data: 773112864
I0403 15:40:17.479857 20149 layer_factory.hpp:77] Creating layer inception_3b/output
I0403 15:40:17.479876 20149 net.cpp:91] Creating Layer inception_3b/output
I0403 15:40:17.479894 20149 net.cpp:425] inception_3b/output <- inception_3b/1x1
I0403 15:40:17.479912 20149 net.cpp:425] inception_3b/output <- inception_3b/3x3
I0403 15:40:17.479928 20149 net.cpp:425] inception_3b/output <- inception_3b/5x5
I0403 15:40:17.479944 20149 net.cpp:425] inception_3b/output <- inception_3b/pool_proj
I0403 15:40:17.479961 20149 net.cpp:399] inception_3b/output -> inception_3b/output
I0403 15:40:17.480008 20149 net.cpp:141] Setting up inception_3b/output
I0403 15:40:17.480037 20149 net.cpp:148] Top shape: 24 480 28 28 (9031680)
I0403 15:40:17.480053 20149 net.cpp:156] Memory required for data: 809239584
I0403 15:40:17.480068 20149 layer_factory.hpp:77] Creating layer pool3/3x3_s2
I0403 15:40:17.480088 20149 net.cpp:91] Creating Layer pool3/3x3_s2
I0403 15:40:17.480106 20149 net.cpp:425] pool3/3x3_s2 <- inception_3b/output
I0403 15:40:17.480139 20149 net.cpp:399] pool3/3x3_s2 -> pool3/3x3_s2
I0403 15:40:17.480201 20149 net.cpp:141] Setting up pool3/3x3_s2
I0403 15:40:17.480226 20149 net.cpp:148] Top shape: 24 480 14 14 (2257920)
I0403 15:40:17.480242 20149 net.cpp:156] Memory required for data: 818271264
I0403 15:40:17.480255 20149 layer_factory.hpp:77] Creating layer pool3/3x3_s2_pool3/3x3_s2_0_split
I0403 15:40:17.480273 20149 net.cpp:91] Creating Layer pool3/3x3_s2_pool3/3x3_s2_0_split
I0403 15:40:17.480289 20149 net.cpp:425] pool3/3x3_s2_pool3/3x3_s2_0_split <- pool3/3x3_s2
I0403 15:40:17.480309 20149 net.cpp:399] pool3/3x3_s2_pool3/3x3_s2_0_split -> pool3/3x3_s2_pool3/3x3_s2_0_split_0
I0403 15:40:17.480329 20149 net.cpp:399] pool3/3x3_s2_pool3/3x3_s2_0_split -> pool3/3x3_s2_pool3/3x3_s2_0_split_1
I0403 15:40:17.480350 20149 net.cpp:399] pool3/3x3_s2_pool3/3x3_s2_0_split -> pool3/3x3_s2_pool3/3x3_s2_0_split_2
I0403 15:40:17.480368 20149 net.cpp:399] pool3/3x3_s2_pool3/3x3_s2_0_split -> pool3/3x3_s2_pool3/3x3_s2_0_split_3
I0403 15:40:17.480446 20149 net.cpp:141] Setting up pool3/3x3_s2_pool3/3x3_s2_0_split
I0403 15:40:17.480473 20149 net.cpp:148] Top shape: 24 480 14 14 (2257920)
I0403 15:40:17.480490 20149 net.cpp:148] Top shape: 24 480 14 14 (2257920)
I0403 15:40:17.480507 20149 net.cpp:148] Top shape: 24 480 14 14 (2257920)
I0403 15:40:17.480523 20149 net.cpp:148] Top shape: 24 480 14 14 (2257920)
I0403 15:40:17.480537 20149 net.cpp:156] Memory required for data: 854397984
I0403 15:40:17.480552 20149 layer_factory.hpp:77] Creating layer inception_4a/1x1
I0403 15:40:17.480574 20149 net.cpp:91] Creating Layer inception_4a/1x1
I0403 15:40:17.480592 20149 net.cpp:425] inception_4a/1x1 <- pool3/3x3_s2_pool3/3x3_s2_0_split_0
I0403 15:40:17.480612 20149 net.cpp:399] inception_4a/1x1 -> inception_4a/1x1
I0403 15:40:17.482228 20149 net.cpp:141] Setting up inception_4a/1x1
I0403 15:40:17.482259 20149 net.cpp:148] Top shape: 24 192 14 14 (903168)
I0403 15:40:17.482280 20149 net.cpp:156] Memory required for data: 858010656
I0403 15:40:17.482300 20149 layer_factory.hpp:77] Creating layer inception_4a/relu_1x1
I0403 15:40:17.482319 20149 net.cpp:91] Creating Layer inception_4a/relu_1x1
I0403 15:40:17.482336 20149 net.cpp:425] inception_4a/relu_1x1 <- inception_4a/1x1
I0403 15:40:17.482357 20149 net.cpp:386] inception_4a/relu_1x1 -> inception_4a/1x1 (in-place)
I0403 15:40:17.482542 20149 net.cpp:141] Setting up inception_4a/relu_1x1
I0403 15:40:17.482568 20149 net.cpp:148] Top shape: 24 192 14 14 (903168)
I0403 15:40:17.482583 20149 net.cpp:156] Memory required for data: 861623328
I0403 15:40:17.482597 20149 layer_factory.hpp:77] Creating layer inception_4a/3x3_reduce
I0403 15:40:17.482620 20149 net.cpp:91] Creating Layer inception_4a/3x3_reduce
I0403 15:40:17.482640 20149 net.cpp:425] inception_4a/3x3_reduce <- pool3/3x3_s2_pool3/3x3_s2_0_split_1
I0403 15:40:17.482661 20149 net.cpp:399] inception_4a/3x3_reduce -> inception_4a/3x3_reduce
I0403 15:40:17.483999 20149 net.cpp:141] Setting up inception_4a/3x3_reduce
I0403 15:40:17.484035 20149 net.cpp:148] Top shape: 24 96 14 14 (451584)
I0403 15:40:17.484055 20149 net.cpp:156] Memory required for data: 863429664
I0403 15:40:17.484079 20149 layer_factory.hpp:77] Creating layer inception_4a/relu_3x3_reduce
I0403 15:40:17.484102 20149 net.cpp:91] Creating Layer inception_4a/relu_3x3_reduce
I0403 15:40:17.484122 20149 net.cpp:425] inception_4a/relu_3x3_reduce <- inception_4a/3x3_reduce
I0403 15:40:17.484140 20149 net.cpp:386] inception_4a/relu_3x3_reduce -> inception_4a/3x3_reduce (in-place)
I0403 15:40:17.484319 20149 net.cpp:141] Setting up inception_4a/relu_3x3_reduce
I0403 15:40:17.484345 20149 net.cpp:148] Top shape: 24 96 14 14 (451584)
I0403 15:40:17.484361 20149 net.cpp:156] Memory required for data: 865236000
I0403 15:40:17.484375 20149 layer_factory.hpp:77] Creating layer inception_4a/3x3
I0403 15:40:17.484398 20149 net.cpp:91] Creating Layer inception_4a/3x3
I0403 15:40:17.484417 20149 net.cpp:425] inception_4a/3x3 <- inception_4a/3x3_reduce
I0403 15:40:17.484438 20149 net.cpp:399] inception_4a/3x3 -> inception_4a/3x3
I0403 15:40:17.487185 20149 net.cpp:141] Setting up inception_4a/3x3
I0403 15:40:17.487216 20149 net.cpp:148] Top shape: 24 208 14 14 (978432)
I0403 15:40:17.487234 20149 net.cpp:156] Memory required for data: 869149728
I0403 15:40:17.487254 20149 layer_factory.hpp:77] Creating layer inception_4a/relu_3x3
I0403 15:40:17.487277 20149 net.cpp:91] Creating Layer inception_4a/relu_3x3
I0403 15:40:17.487293 20149 net.cpp:425] inception_4a/relu_3x3 <- inception_4a/3x3
I0403 15:40:17.487313 20149 net.cpp:386] inception_4a/relu_3x3 -> inception_4a/3x3 (in-place)
I0403 15:40:17.487607 20149 net.cpp:141] Setting up inception_4a/relu_3x3
I0403 15:40:17.487637 20149 net.cpp:148] Top shape: 24 208 14 14 (978432)
I0403 15:40:17.487653 20149 net.cpp:156] Memory required for data: 873063456
I0403 15:40:17.487668 20149 layer_factory.hpp:77] Creating layer inception_4a/5x5_reduce
I0403 15:40:17.487694 20149 net.cpp:91] Creating Layer inception_4a/5x5_reduce
I0403 15:40:17.487714 20149 net.cpp:425] inception_4a/5x5_reduce <- pool3/3x3_s2_pool3/3x3_s2_0_split_2
I0403 15:40:17.487735 20149 net.cpp:399] inception_4a/5x5_reduce -> inception_4a/5x5_reduce
I0403 15:40:17.488786 20149 net.cpp:141] Setting up inception_4a/5x5_reduce
I0403 15:40:17.488816 20149 net.cpp:148] Top shape: 24 16 14 14 (75264)
I0403 15:40:17.488834 20149 net.cpp:156] Memory required for data: 873364512
I0403 15:40:17.488855 20149 layer_factory.hpp:77] Creating layer inception_4a/relu_5x5_reduce
I0403 15:40:17.488878 20149 net.cpp:91] Creating Layer inception_4a/relu_5x5_reduce
I0403 15:40:17.488896 20149 net.cpp:425] inception_4a/relu_5x5_reduce <- inception_4a/5x5_reduce
I0403 15:40:17.488914 20149 net.cpp:386] inception_4a/relu_5x5_reduce -> inception_4a/5x5_reduce (in-place)
I0403 15:40:17.489109 20149 net.cpp:141] Setting up inception_4a/relu_5x5_reduce
I0403 15:40:17.489136 20149 net.cpp:148] Top shape: 24 16 14 14 (75264)
I0403 15:40:17.489153 20149 net.cpp:156] Memory required for data: 873665568
I0403 15:40:17.489168 20149 layer_factory.hpp:77] Creating layer inception_4a/5x5
I0403 15:40:17.489193 20149 net.cpp:91] Creating Layer inception_4a/5x5
I0403 15:40:17.489214 20149 net.cpp:425] inception_4a/5x5 <- inception_4a/5x5_reduce
I0403 15:40:17.489234 20149 net.cpp:399] inception_4a/5x5 -> inception_4a/5x5
I0403 15:40:17.490341 20149 net.cpp:141] Setting up inception_4a/5x5
I0403 15:40:17.490373 20149 net.cpp:148] Top shape: 24 48 14 14 (225792)
I0403 15:40:17.490397 20149 net.cpp:156] Memory required for data: 874568736
I0403 15:40:17.490417 20149 layer_factory.hpp:77] Creating layer inception_4a/relu_5x5
I0403 15:40:17.490437 20149 net.cpp:91] Creating Layer inception_4a/relu_5x5
I0403 15:40:17.490453 20149 net.cpp:425] inception_4a/relu_5x5 <- inception_4a/5x5
I0403 15:40:17.490473 20149 net.cpp:386] inception_4a/relu_5x5 -> inception_4a/5x5 (in-place)
I0403 15:40:17.490655 20149 net.cpp:141] Setting up inception_4a/relu_5x5
I0403 15:40:17.490681 20149 net.cpp:148] Top shape: 24 48 14 14 (225792)
I0403 15:40:17.490696 20149 net.cpp:156] Memory required for data: 875471904
I0403 15:40:17.490711 20149 layer_factory.hpp:77] Creating layer inception_4a/pool
I0403 15:40:17.490730 20149 net.cpp:91] Creating Layer inception_4a/pool
I0403 15:40:17.490746 20149 net.cpp:425] inception_4a/pool <- pool3/3x3_s2_pool3/3x3_s2_0_split_3
I0403 15:40:17.490767 20149 net.cpp:399] inception_4a/pool -> inception_4a/pool
I0403 15:40:17.490830 20149 net.cpp:141] Setting up inception_4a/pool
I0403 15:40:17.490856 20149 net.cpp:148] Top shape: 24 480 14 14 (2257920)
I0403 15:40:17.490872 20149 net.cpp:156] Memory required for data: 884503584
I0403 15:40:17.490887 20149 layer_factory.hpp:77] Creating layer inception_4a/pool_proj
I0403 15:40:17.490911 20149 net.cpp:91] Creating Layer inception_4a/pool_proj
I0403 15:40:17.490928 20149 net.cpp:425] inception_4a/pool_proj <- inception_4a/pool
I0403 15:40:17.490948 20149 net.cpp:399] inception_4a/pool_proj -> inception_4a/pool_proj
I0403 15:40:17.492144 20149 net.cpp:141] Setting up inception_4a/pool_proj
I0403 15:40:17.492178 20149 net.cpp:148] Top shape: 24 64 14 14 (301056)
I0403 15:40:17.492213 20149 net.cpp:156] Memory required for data: 885707808
I0403 15:40:17.492233 20149 layer_factory.hpp:77] Creating layer inception_4a/relu_pool_proj
I0403 15:40:17.492252 20149 net.cpp:91] Creating Layer inception_4a/relu_pool_proj
I0403 15:40:17.492270 20149 net.cpp:425] inception_4a/relu_pool_proj <- inception_4a/pool_proj
I0403 15:40:17.492291 20149 net.cpp:386] inception_4a/relu_pool_proj -> inception_4a/pool_proj (in-place)
I0403 15:40:17.492578 20149 net.cpp:141] Setting up inception_4a/relu_pool_proj
I0403 15:40:17.492609 20149 net.cpp:148] Top shape: 24 64 14 14 (301056)
I0403 15:40:17.492625 20149 net.cpp:156] Memory required for data: 886912032
I0403 15:40:17.492640 20149 layer_factory.hpp:77] Creating layer inception_4a/output
I0403 15:40:17.492658 20149 net.cpp:91] Creating Layer inception_4a/output
I0403 15:40:17.492674 20149 net.cpp:425] inception_4a/output <- inception_4a/1x1
I0403 15:40:17.492691 20149 net.cpp:425] inception_4a/output <- inception_4a/3x3
I0403 15:40:17.492708 20149 net.cpp:425] inception_4a/output <- inception_4a/5x5
I0403 15:40:17.492723 20149 net.cpp:425] inception_4a/output <- inception_4a/pool_proj
I0403 15:40:17.492740 20149 net.cpp:399] inception_4a/output -> inception_4a/output
I0403 15:40:17.492789 20149 net.cpp:141] Setting up inception_4a/output
I0403 15:40:17.492812 20149 net.cpp:148] Top shape: 24 512 14 14 (2408448)
I0403 15:40:17.492827 20149 net.cpp:156] Memory required for data: 896545824
I0403 15:40:17.492842 20149 layer_factory.hpp:77] Creating layer inception_4a/output_inception_4a/output_0_split
I0403 15:40:17.492863 20149 net.cpp:91] Creating Layer inception_4a/output_inception_4a/output_0_split
I0403 15:40:17.492880 20149 net.cpp:425] inception_4a/output_inception_4a/output_0_split <- inception_4a/output
I0403 15:40:17.492898 20149 net.cpp:399] inception_4a/output_inception_4a/output_0_split -> inception_4a/output_inception_4a/output_0_split_0
I0403 15:40:17.492919 20149 net.cpp:399] inception_4a/output_inception_4a/output_0_split -> inception_4a/output_inception_4a/output_0_split_1
I0403 15:40:17.492940 20149 net.cpp:399] inception_4a/output_inception_4a/output_0_split -> inception_4a/output_inception_4a/output_0_split_2
I0403 15:40:17.492964 20149 net.cpp:399] inception_4a/output_inception_4a/output_0_split -> inception_4a/output_inception_4a/output_0_split_3
I0403 15:40:17.492985 20149 net.cpp:399] inception_4a/output_inception_4a/output_0_split -> inception_4a/output_inception_4a/output_0_split_4
I0403 15:40:17.493086 20149 net.cpp:141] Setting up inception_4a/output_inception_4a/output_0_split
I0403 15:40:17.493111 20149 net.cpp:148] Top shape: 24 512 14 14 (2408448)
I0403 15:40:17.493129 20149 net.cpp:148] Top shape: 24 512 14 14 (2408448)
I0403 15:40:17.493145 20149 net.cpp:148] Top shape: 24 512 14 14 (2408448)
I0403 15:40:17.493161 20149 net.cpp:148] Top shape: 24 512 14 14 (2408448)
I0403 15:40:17.493178 20149 net.cpp:148] Top shape: 24 512 14 14 (2408448)
I0403 15:40:17.493192 20149 net.cpp:156] Memory required for data: 944714784
I0403 15:40:17.493207 20149 layer_factory.hpp:77] Creating layer loss1/ave_pool
I0403 15:40:17.493227 20149 net.cpp:91] Creating Layer loss1/ave_pool
I0403 15:40:17.493244 20149 net.cpp:425] loss1/ave_pool <- inception_4a/output_inception_4a/output_0_split_0
I0403 15:40:17.493263 20149 net.cpp:399] loss1/ave_pool -> loss1/ave_pool
I0403 15:40:17.493476 20149 net.cpp:141] Setting up loss1/ave_pool
I0403 15:40:17.493505 20149 net.cpp:148] Top shape: 24 512 4 4 (196608)
I0403 15:40:17.493520 20149 net.cpp:156] Memory required for data: 945501216
I0403 15:40:17.493535 20149 layer_factory.hpp:77] Creating layer loss1/conv
I0403 15:40:17.493561 20149 net.cpp:91] Creating Layer loss1/conv
I0403 15:40:17.493579 20149 net.cpp:425] loss1/conv <- loss1/ave_pool
I0403 15:40:17.493600 20149 net.cpp:399] loss1/conv -> loss1/conv
I0403 15:40:17.495054 20149 net.cpp:141] Setting up loss1/conv
I0403 15:40:17.495084 20149 net.cpp:148] Top shape: 24 128 4 4 (49152)
I0403 15:40:17.495115 20149 net.cpp:156] Memory required for data: 945697824
I0403 15:40:17.495136 20149 layer_factory.hpp:77] Creating layer loss1/relu_conv
I0403 15:40:17.495159 20149 net.cpp:91] Creating Layer loss1/relu_conv
I0403 15:40:17.495177 20149 net.cpp:425] loss1/relu_conv <- loss1/conv
I0403 15:40:17.495196 20149 net.cpp:386] loss1/relu_conv -> loss1/conv (in-place)
I0403 15:40:17.495489 20149 net.cpp:141] Setting up loss1/relu_conv
I0403 15:40:17.495518 20149 net.cpp:148] Top shape: 24 128 4 4 (49152)
I0403 15:40:17.495548 20149 net.cpp:156] Memory required for data: 945894432
I0403 15:40:17.495563 20149 layer_factory.hpp:77] Creating layer loss1/fc
I0403 15:40:17.495589 20149 net.cpp:91] Creating Layer loss1/fc
I0403 15:40:17.495609 20149 net.cpp:425] loss1/fc <- loss1/conv
I0403 15:40:17.495627 20149 net.cpp:399] loss1/fc -> loss1/fc
I0403 15:40:17.513481 20149 net.cpp:141] Setting up loss1/fc
I0403 15:40:17.513520 20149 net.cpp:148] Top shape: 24 1024 (24576)
I0403 15:40:17.513536 20149 net.cpp:156] Memory required for data: 945992736
I0403 15:40:17.513556 20149 layer_factory.hpp:77] Creating layer loss1/relu_fc
I0403 15:40:17.513574 20149 net.cpp:91] Creating Layer loss1/relu_fc
I0403 15:40:17.513592 20149 net.cpp:425] loss1/relu_fc <- loss1/fc
I0403 15:40:17.513612 20149 net.cpp:386] loss1/relu_fc -> loss1/fc (in-place)
I0403 15:40:17.513802 20149 net.cpp:141] Setting up loss1/relu_fc
I0403 15:40:17.513828 20149 net.cpp:148] Top shape: 24 1024 (24576)
I0403 15:40:17.513844 20149 net.cpp:156] Memory required for data: 946091040
I0403 15:40:17.513859 20149 layer_factory.hpp:77] Creating layer loss1/drop_fc
I0403 15:40:17.513885 20149 net.cpp:91] Creating Layer loss1/drop_fc
I0403 15:40:17.513905 20149 net.cpp:425] loss1/drop_fc <- loss1/fc
I0403 15:40:17.513922 20149 net.cpp:386] loss1/drop_fc -> loss1/fc (in-place)
I0403 15:40:17.513972 20149 net.cpp:141] Setting up loss1/drop_fc
I0403 15:40:17.513995 20149 net.cpp:148] Top shape: 24 1024 (24576)
I0403 15:40:17.514010 20149 net.cpp:156] Memory required for data: 946189344
I0403 15:40:17.514030 20149 layer_factory.hpp:77] Creating layer loss1/classifier_plantvillage
I0403 15:40:17.514053 20149 net.cpp:91] Creating Layer loss1/classifier_plantvillage
I0403 15:40:17.514070 20149 net.cpp:425] loss1/classifier_plantvillage <- loss1/fc
I0403 15:40:17.514092 20149 net.cpp:399] loss1/classifier_plantvillage -> loss1/classifier_plantvillage
I0403 15:40:17.515010 20149 net.cpp:141] Setting up loss1/classifier_plantvillage
I0403 15:40:17.515044 20149 net.cpp:148] Top shape: 24 38 (912)
I0403 15:40:17.515072 20149 net.cpp:156] Memory required for data: 946192992
I0403 15:40:17.515091 20149 layer_factory.hpp:77] Creating layer loss1/classifier_plantvillage_loss1/classifier_plantvillage_0_split
I0403 15:40:17.515110 20149 net.cpp:91] Creating Layer loss1/classifier_plantvillage_loss1/classifier_plantvillage_0_split
I0403 15:40:17.515125 20149 net.cpp:425] loss1/classifier_plantvillage_loss1/classifier_plantvillage_0_split <- loss1/classifier_plantvillage
I0403 15:40:17.515146 20149 net.cpp:399] loss1/classifier_plantvillage_loss1/classifier_plantvillage_0_split -> loss1/classifier_plantvillage_loss1/classifier_plantvillage_0_split_0
I0403 15:40:17.515167 20149 net.cpp:399] loss1/classifier_plantvillage_loss1/classifier_plantvillage_0_split -> loss1/classifier_plantvillage_loss1/classifier_plantvillage_0_split_1
I0403 15:40:17.515187 20149 net.cpp:399] loss1/classifier_plantvillage_loss1/classifier_plantvillage_0_split -> loss1/classifier_plantvillage_loss1/classifier_plantvillage_0_split_2
I0403 15:40:17.515252 20149 net.cpp:141] Setting up loss1/classifier_plantvillage_loss1/classifier_plantvillage_0_split
I0403 15:40:17.515278 20149 net.cpp:148] Top shape: 24 38 (912)
I0403 15:40:17.515296 20149 net.cpp:148] Top shape: 24 38 (912)
I0403 15:40:17.515312 20149 net.cpp:148] Top shape: 24 38 (912)
I0403 15:40:17.515326 20149 net.cpp:156] Memory required for data: 946203936
I0403 15:40:17.515341 20149 layer_factory.hpp:77] Creating layer inception_4b/1x1
I0403 15:40:17.515362 20149 net.cpp:91] Creating Layer inception_4b/1x1
I0403 15:40:17.515393 20149 net.cpp:425] inception_4b/1x1 <- inception_4a/output_inception_4a/output_0_split_1
I0403 15:40:17.515413 20149 net.cpp:399] inception_4b/1x1 -> inception_4b/1x1
I0403 15:40:17.517066 20149 net.cpp:141] Setting up inception_4b/1x1
I0403 15:40:17.517096 20149 net.cpp:148] Top shape: 24 160 14 14 (752640)
I0403 15:40:17.517113 20149 net.cpp:156] Memory required for data: 949214496
I0403 15:40:17.517133 20149 layer_factory.hpp:77] Creating layer inception_4b/relu_1x1
I0403 15:40:17.517155 20149 net.cpp:91] Creating Layer inception_4b/relu_1x1
I0403 15:40:17.517171 20149 net.cpp:425] inception_4b/relu_1x1 <- inception_4b/1x1
I0403 15:40:17.517189 20149 net.cpp:386] inception_4b/relu_1x1 -> inception_4b/1x1 (in-place)
I0403 15:40:17.517371 20149 net.cpp:141] Setting up inception_4b/relu_1x1
I0403 15:40:17.517396 20149 net.cpp:148] Top shape: 24 160 14 14 (752640)
I0403 15:40:17.517411 20149 net.cpp:156] Memory required for data: 952225056
I0403 15:40:17.517426 20149 layer_factory.hpp:77] Creating layer inception_4b/3x3_reduce
I0403 15:40:17.517451 20149 net.cpp:91] Creating Layer inception_4b/3x3_reduce
I0403 15:40:17.517468 20149 net.cpp:425] inception_4b/3x3_reduce <- inception_4a/output_inception_4a/output_0_split_2
I0403 15:40:17.517488 20149 net.cpp:399] inception_4b/3x3_reduce -> inception_4b/3x3_reduce
I0403 15:40:17.518887 20149 net.cpp:141] Setting up inception_4b/3x3_reduce
I0403 15:40:17.518915 20149 net.cpp:148] Top shape: 24 112 14 14 (526848)
I0403 15:40:17.518932 20149 net.cpp:156] Memory required for data: 954332448
I0403 15:40:17.518951 20149 layer_factory.hpp:77] Creating layer inception_4b/relu_3x3_reduce
I0403 15:40:17.518975 20149 net.cpp:91] Creating Layer inception_4b/relu_3x3_reduce
I0403 15:40:17.518993 20149 net.cpp:425] inception_4b/relu_3x3_reduce <- inception_4b/3x3_reduce
I0403 15:40:17.519011 20149 net.cpp:386] inception_4b/relu_3x3_reduce -> inception_4b/3x3_reduce (in-place)
I0403 15:40:17.519301 20149 net.cpp:141] Setting up inception_4b/relu_3x3_reduce
I0403 15:40:17.519328 20149 net.cpp:148] Top shape: 24 112 14 14 (526848)
I0403 15:40:17.519343 20149 net.cpp:156] Memory required for data: 956439840
I0403 15:40:17.519358 20149 layer_factory.hpp:77] Creating layer inception_4b/3x3
I0403 15:40:17.519382 20149 net.cpp:91] Creating Layer inception_4b/3x3
I0403 15:40:17.519399 20149 net.cpp:425] inception_4b/3x3 <- inception_4b/3x3_reduce
I0403 15:40:17.519419 20149 net.cpp:399] inception_4b/3x3 -> inception_4b/3x3
I0403 15:40:17.522387 20149 net.cpp:141] Setting up inception_4b/3x3
I0403 15:40:17.522419 20149 net.cpp:148] Top shape: 24 224 14 14 (1053696)
I0403 15:40:17.522438 20149 net.cpp:156] Memory required for data: 960654624
I0403 15:40:17.522456 20149 layer_factory.hpp:77] Creating layer inception_4b/relu_3x3
I0403 15:40:17.522475 20149 net.cpp:91] Creating Layer inception_4b/relu_3x3
I0403 15:40:17.522490 20149 net.cpp:425] inception_4b/relu_3x3 <- inception_4b/3x3
I0403 15:40:17.522510 20149 net.cpp:386] inception_4b/relu_3x3 -> inception_4b/3x3 (in-place)
I0403 15:40:17.522691 20149 net.cpp:141] Setting up inception_4b/relu_3x3
I0403 15:40:17.522716 20149 net.cpp:148] Top shape: 24 224 14 14 (1053696)
I0403 15:40:17.522732 20149 net.cpp:156] Memory required for data: 964869408
I0403 15:40:17.522747 20149 layer_factory.hpp:77] Creating layer inception_4b/5x5_reduce
I0403 15:40:17.522768 20149 net.cpp:91] Creating Layer inception_4b/5x5_reduce
I0403 15:40:17.522786 20149 net.cpp:425] inception_4b/5x5_reduce <- inception_4a/output_inception_4a/output_0_split_3
I0403 15:40:17.522809 20149 net.cpp:399] inception_4b/5x5_reduce -> inception_4b/5x5_reduce
I0403 15:40:17.523891 20149 net.cpp:141] Setting up inception_4b/5x5_reduce
I0403 15:40:17.523921 20149 net.cpp:148] Top shape: 24 24 14 14 (112896)
I0403 15:40:17.523937 20149 net.cpp:156] Memory required for data: 965320992
I0403 15:40:17.523957 20149 layer_factory.hpp:77] Creating layer inception_4b/relu_5x5_reduce
I0403 15:40:17.523977 20149 net.cpp:91] Creating Layer inception_4b/relu_5x5_reduce
I0403 15:40:17.524006 20149 net.cpp:425] inception_4b/relu_5x5_reduce <- inception_4b/5x5_reduce
I0403 15:40:17.524031 20149 net.cpp:386] inception_4b/relu_5x5_reduce -> inception_4b/5x5_reduce (in-place)
I0403 15:40:17.524211 20149 net.cpp:141] Setting up inception_4b/relu_5x5_reduce
I0403 15:40:17.524238 20149 net.cpp:148] Top shape: 24 24 14 14 (112896)
I0403 15:40:17.524255 20149 net.cpp:156] Memory required for data: 965772576
I0403 15:40:17.524269 20149 layer_factory.hpp:77] Creating layer inception_4b/5x5
I0403 15:40:17.524291 20149 net.cpp:91] Creating Layer inception_4b/5x5
I0403 15:40:17.524309 20149 net.cpp:425] inception_4b/5x5 <- inception_4b/5x5_reduce
I0403 15:40:17.524328 20149 net.cpp:399] inception_4b/5x5 -> inception_4b/5x5
I0403 15:40:17.525547 20149 net.cpp:141] Setting up inception_4b/5x5
I0403 15:40:17.525576 20149 net.cpp:148] Top shape: 24 64 14 14 (301056)
I0403 15:40:17.525593 20149 net.cpp:156] Memory required for data: 966976800
I0403 15:40:17.525612 20149 layer_factory.hpp:77] Creating layer inception_4b/relu_5x5
I0403 15:40:17.525635 20149 net.cpp:91] Creating Layer inception_4b/relu_5x5
I0403 15:40:17.525653 20149 net.cpp:425] inception_4b/relu_5x5 <- inception_4b/5x5
I0403 15:40:17.525671 20149 net.cpp:386] inception_4b/relu_5x5 -> inception_4b/5x5 (in-place)
I0403 15:40:17.525959 20149 net.cpp:141] Setting up inception_4b/relu_5x5
I0403 15:40:17.525986 20149 net.cpp:148] Top shape: 24 64 14 14 (301056)
I0403 15:40:17.526001 20149 net.cpp:156] Memory required for data: 968181024
I0403 15:40:17.526021 20149 layer_factory.hpp:77] Creating layer inception_4b/pool
I0403 15:40:17.526044 20149 net.cpp:91] Creating Layer inception_4b/pool
I0403 15:40:17.526062 20149 net.cpp:425] inception_4b/pool <- inception_4a/output_inception_4a/output_0_split_4
I0403 15:40:17.526080 20149 net.cpp:399] inception_4b/pool -> inception_4b/pool
I0403 15:40:17.526145 20149 net.cpp:141] Setting up inception_4b/pool
I0403 15:40:17.526170 20149 net.cpp:148] Top shape: 24 512 14 14 (2408448)
I0403 15:40:17.526185 20149 net.cpp:156] Memory required for data: 977814816
I0403 15:40:17.526199 20149 layer_factory.hpp:77] Creating layer inception_4b/pool_proj
I0403 15:40:17.526221 20149 net.cpp:91] Creating Layer inception_4b/pool_proj
I0403 15:40:17.526239 20149 net.cpp:425] inception_4b/pool_proj <- inception_4b/pool
I0403 15:40:17.526262 20149 net.cpp:399] inception_4b/pool_proj -> inception_4b/pool_proj
I0403 15:40:17.527493 20149 net.cpp:141] Setting up inception_4b/pool_proj
I0403 15:40:17.527520 20149 net.cpp:148] Top shape: 24 64 14 14 (301056)
I0403 15:40:17.527536 20149 net.cpp:156] Memory required for data: 979019040
I0403 15:40:17.527554 20149 layer_factory.hpp:77] Creating layer inception_4b/relu_pool_proj
I0403 15:40:17.527575 20149 net.cpp:91] Creating Layer inception_4b/relu_pool_proj
I0403 15:40:17.527593 20149 net.cpp:425] inception_4b/relu_pool_proj <- inception_4b/pool_proj
I0403 15:40:17.527611 20149 net.cpp:386] inception_4b/relu_pool_proj -> inception_4b/pool_proj (in-place)
I0403 15:40:17.527791 20149 net.cpp:141] Setting up inception_4b/relu_pool_proj
I0403 15:40:17.527817 20149 net.cpp:148] Top shape: 24 64 14 14 (301056)
I0403 15:40:17.527833 20149 net.cpp:156] Memory required for data: 980223264
I0403 15:40:17.527848 20149 layer_factory.hpp:77] Creating layer inception_4b/output
I0403 15:40:17.527866 20149 net.cpp:91] Creating Layer inception_4b/output
I0403 15:40:17.527881 20149 net.cpp:425] inception_4b/output <- inception_4b/1x1
I0403 15:40:17.527897 20149 net.cpp:425] inception_4b/output <- inception_4b/3x3
I0403 15:40:17.527914 20149 net.cpp:425] inception_4b/output <- inception_4b/5x5
I0403 15:40:17.527928 20149 net.cpp:425] inception_4b/output <- inception_4b/pool_proj
I0403 15:40:17.527945 20149 net.cpp:399] inception_4b/output -> inception_4b/output
I0403 15:40:17.527994 20149 net.cpp:141] Setting up inception_4b/output
I0403 15:40:17.528022 20149 net.cpp:148] Top shape: 24 512 14 14 (2408448)
I0403 15:40:17.528038 20149 net.cpp:156] Memory required for data: 989857056
I0403 15:40:17.528067 20149 layer_factory.hpp:77] Creating layer inception_4b/output_inception_4b/output_0_split
I0403 15:40:17.528085 20149 net.cpp:91] Creating Layer inception_4b/output_inception_4b/output_0_split
I0403 15:40:17.528101 20149 net.cpp:425] inception_4b/output_inception_4b/output_0_split <- inception_4b/output
I0403 15:40:17.528122 20149 net.cpp:399] inception_4b/output_inception_4b/output_0_split -> inception_4b/output_inception_4b/output_0_split_0
I0403 15:40:17.528143 20149 net.cpp:399] inception_4b/output_inception_4b/output_0_split -> inception_4b/output_inception_4b/output_0_split_1
I0403 15:40:17.528163 20149 net.cpp:399] inception_4b/output_inception_4b/output_0_split -> inception_4b/output_inception_4b/output_0_split_2
I0403 15:40:17.528188 20149 net.cpp:399] inception_4b/output_inception_4b/output_0_split -> inception_4b/output_inception_4b/output_0_split_3
I0403 15:40:17.528273 20149 net.cpp:141] Setting up inception_4b/output_inception_4b/output_0_split
I0403 15:40:17.528297 20149 net.cpp:148] Top shape: 24 512 14 14 (2408448)
I0403 15:40:17.528313 20149 net.cpp:148] Top shape: 24 512 14 14 (2408448)
I0403 15:40:17.528331 20149 net.cpp:148] Top shape: 24 512 14 14 (2408448)
I0403 15:40:17.528345 20149 net.cpp:148] Top shape: 24 512 14 14 (2408448)
I0403 15:40:17.528370 20149 net.cpp:156] Memory required for data: 1028392224
I0403 15:40:17.528384 20149 layer_factory.hpp:77] Creating layer inception_4c/1x1
I0403 15:40:17.528406 20149 net.cpp:91] Creating Layer inception_4c/1x1
I0403 15:40:17.528424 20149 net.cpp:425] inception_4c/1x1 <- inception_4b/output_inception_4b/output_0_split_0
I0403 15:40:17.528444 20149 net.cpp:399] inception_4c/1x1 -> inception_4c/1x1
I0403 15:40:17.529837 20149 net.cpp:141] Setting up inception_4c/1x1
I0403 15:40:17.529870 20149 net.cpp:148] Top shape: 24 128 14 14 (602112)
I0403 15:40:17.529887 20149 net.cpp:156] Memory required for data: 1030800672
I0403 15:40:17.529907 20149 layer_factory.hpp:77] Creating layer inception_4c/relu_1x1
I0403 15:40:17.529925 20149 net.cpp:91] Creating Layer inception_4c/relu_1x1
I0403 15:40:17.529942 20149 net.cpp:425] inception_4c/relu_1x1 <- inception_4c/1x1
I0403 15:40:17.529963 20149 net.cpp:386] inception_4c/relu_1x1 -> inception_4c/1x1 (in-place)
I0403 15:40:17.530143 20149 net.cpp:141] Setting up inception_4c/relu_1x1
I0403 15:40:17.530167 20149 net.cpp:148] Top shape: 24 128 14 14 (602112)
I0403 15:40:17.530184 20149 net.cpp:156] Memory required for data: 1033209120
I0403 15:40:17.530199 20149 layer_factory.hpp:77] Creating layer inception_4c/3x3_reduce
I0403 15:40:17.530222 20149 net.cpp:91] Creating Layer inception_4c/3x3_reduce
I0403 15:40:17.530242 20149 net.cpp:425] inception_4c/3x3_reduce <- inception_4b/output_inception_4b/output_0_split_1
I0403 15:40:17.530263 20149 net.cpp:399] inception_4c/3x3_reduce -> inception_4c/3x3_reduce
I0403 15:40:17.532151 20149 net.cpp:141] Setting up inception_4c/3x3_reduce
I0403 15:40:17.532182 20149 net.cpp:148] Top shape: 24 128 14 14 (602112)
I0403 15:40:17.532212 20149 net.cpp:156] Memory required for data: 1035617568
I0403 15:40:17.532232 20149 layer_factory.hpp:77] Creating layer inception_4c/relu_3x3_reduce
I0403 15:40:17.532253 20149 net.cpp:91] Creating Layer inception_4c/relu_3x3_reduce
I0403 15:40:17.532272 20149 net.cpp:425] inception_4c/relu_3x3_reduce <- inception_4c/3x3_reduce
I0403 15:40:17.532289 20149 net.cpp:386] inception_4c/relu_3x3_reduce -> inception_4c/3x3_reduce (in-place)
I0403 15:40:17.532590 20149 net.cpp:141] Setting up inception_4c/relu_3x3_reduce
I0403 15:40:17.532618 20149 net.cpp:148] Top shape: 24 128 14 14 (602112)
I0403 15:40:17.532634 20149 net.cpp:156] Memory required for data: 1038026016
I0403 15:40:17.532649 20149 layer_factory.hpp:77] Creating layer inception_4c/3x3
I0403 15:40:17.532670 20149 net.cpp:91] Creating Layer inception_4c/3x3
I0403 15:40:17.532687 20149 net.cpp:425] inception_4c/3x3 <- inception_4c/3x3_reduce
I0403 15:40:17.532709 20149 net.cpp:399] inception_4c/3x3 -> inception_4c/3x3
I0403 15:40:17.536240 20149 net.cpp:141] Setting up inception_4c/3x3
I0403 15:40:17.536281 20149 net.cpp:148] Top shape: 24 256 14 14 (1204224)
I0403 15:40:17.536299 20149 net.cpp:156] Memory required for data: 1042842912
I0403 15:40:17.536331 20149 layer_factory.hpp:77] Creating layer inception_4c/relu_3x3
I0403 15:40:17.536356 20149 net.cpp:91] Creating Layer inception_4c/relu_3x3
I0403 15:40:17.536375 20149 net.cpp:425] inception_4c/relu_3x3 <- inception_4c/3x3
I0403 15:40:17.536392 20149 net.cpp:386] inception_4c/relu_3x3 -> inception_4c/3x3 (in-place)
I0403 15:40:17.536571 20149 net.cpp:141] Setting up inception_4c/relu_3x3
I0403 15:40:17.536597 20149 net.cpp:148] Top shape: 24 256 14 14 (1204224)
I0403 15:40:17.536612 20149 net.cpp:156] Memory required for data: 1047659808
I0403 15:40:17.536628 20149 layer_factory.hpp:77] Creating layer inception_4c/5x5_reduce
I0403 15:40:17.536649 20149 net.cpp:91] Creating Layer inception_4c/5x5_reduce
I0403 15:40:17.536666 20149 net.cpp:425] inception_4c/5x5_reduce <- inception_4b/output_inception_4b/output_0_split_2
I0403 15:40:17.536687 20149 net.cpp:399] inception_4c/5x5_reduce -> inception_4c/5x5_reduce
I0403 15:40:17.537765 20149 net.cpp:141] Setting up inception_4c/5x5_reduce
I0403 15:40:17.537793 20149 net.cpp:148] Top shape: 24 24 14 14 (112896)
I0403 15:40:17.537822 20149 net.cpp:156] Memory required for data: 1048111392
I0403 15:40:17.537839 20149 layer_factory.hpp:77] Creating layer inception_4c/relu_5x5_reduce
I0403 15:40:17.537858 20149 net.cpp:91] Creating Layer inception_4c/relu_5x5_reduce
I0403 15:40:17.537875 20149 net.cpp:425] inception_4c/relu_5x5_reduce <- inception_4c/5x5_reduce
I0403 15:40:17.537894 20149 net.cpp:386] inception_4c/relu_5x5_reduce -> inception_4c/5x5_reduce (in-place)
I0403 15:40:17.538075 20149 net.cpp:141] Setting up inception_4c/relu_5x5_reduce
I0403 15:40:17.538102 20149 net.cpp:148] Top shape: 24 24 14 14 (112896)
I0403 15:40:17.538118 20149 net.cpp:156] Memory required for data: 1048562976
I0403 15:40:17.538133 20149 layer_factory.hpp:77] Creating layer inception_4c/5x5
I0403 15:40:17.538154 20149 net.cpp:91] Creating Layer inception_4c/5x5
I0403 15:40:17.538172 20149 net.cpp:425] inception_4c/5x5 <- inception_4c/5x5_reduce
I0403 15:40:17.538192 20149 net.cpp:399] inception_4c/5x5 -> inception_4c/5x5
I0403 15:40:17.539403 20149 net.cpp:141] Setting up inception_4c/5x5
I0403 15:40:17.539433 20149 net.cpp:148] Top shape: 24 64 14 14 (301056)
I0403 15:40:17.539449 20149 net.cpp:156] Memory required for data: 1049767200
I0403 15:40:17.539469 20149 layer_factory.hpp:77] Creating layer inception_4c/relu_5x5
I0403 15:40:17.539486 20149 net.cpp:91] Creating Layer inception_4c/relu_5x5
I0403 15:40:17.539502 20149 net.cpp:425] inception_4c/relu_5x5 <- inception_4c/5x5
I0403 15:40:17.539523 20149 net.cpp:386] inception_4c/relu_5x5 -> inception_4c/5x5 (in-place)
I0403 15:40:17.539806 20149 net.cpp:141] Setting up inception_4c/relu_5x5
I0403 15:40:17.539835 20149 net.cpp:148] Top shape: 24 64 14 14 (301056)
I0403 15:40:17.539850 20149 net.cpp:156] Memory required for data: 1050971424
I0403 15:40:17.539865 20149 layer_factory.hpp:77] Creating layer inception_4c/pool
I0403 15:40:17.539882 20149 net.cpp:91] Creating Layer inception_4c/pool
I0403 15:40:17.539898 20149 net.cpp:425] inception_4c/pool <- inception_4b/output_inception_4b/output_0_split_3
I0403 15:40:17.539917 20149 net.cpp:399] inception_4c/pool -> inception_4c/pool
I0403 15:40:17.539981 20149 net.cpp:141] Setting up inception_4c/pool
I0403 15:40:17.540007 20149 net.cpp:148] Top shape: 24 512 14 14 (2408448)
I0403 15:40:17.540031 20149 net.cpp:156] Memory required for data: 1060605216
I0403 15:40:17.540053 20149 layer_factory.hpp:77] Creating layer inception_4c/pool_proj
I0403 15:40:17.540082 20149 net.cpp:91] Creating Layer inception_4c/pool_proj
I0403 15:40:17.540102 20149 net.cpp:425] inception_4c/pool_proj <- inception_4c/pool
I0403 15:40:17.540125 20149 net.cpp:399] inception_4c/pool_proj -> inception_4c/pool_proj
I0403 15:40:17.541374 20149 net.cpp:141] Setting up inception_4c/pool_proj
I0403 15:40:17.541404 20149 net.cpp:148] Top shape: 24 64 14 14 (301056)
I0403 15:40:17.541435 20149 net.cpp:156] Memory required for data: 1061809440
I0403 15:40:17.541455 20149 layer_factory.hpp:77] Creating layer inception_4c/relu_pool_proj
I0403 15:40:17.541477 20149 net.cpp:91] Creating Layer inception_4c/relu_pool_proj
I0403 15:40:17.541496 20149 net.cpp:425] inception_4c/relu_pool_proj <- inception_4c/pool_proj
I0403 15:40:17.541512 20149 net.cpp:386] inception_4c/relu_pool_proj -> inception_4c/pool_proj (in-place)
I0403 15:40:17.541695 20149 net.cpp:141] Setting up inception_4c/relu_pool_proj
I0403 15:40:17.541723 20149 net.cpp:148] Top shape: 24 64 14 14 (301056)
I0403 15:40:17.541739 20149 net.cpp:156] Memory required for data: 1063013664
I0403 15:40:17.541755 20149 layer_factory.hpp:77] Creating layer inception_4c/output
I0403 15:40:17.541772 20149 net.cpp:91] Creating Layer inception_4c/output
I0403 15:40:17.541788 20149 net.cpp:425] inception_4c/output <- inception_4c/1x1
I0403 15:40:17.541805 20149 net.cpp:425] inception_4c/output <- inception_4c/3x3
I0403 15:40:17.541821 20149 net.cpp:425] inception_4c/output <- inception_4c/5x5
I0403 15:40:17.541836 20149 net.cpp:425] inception_4c/output <- inception_4c/pool_proj
I0403 15:40:17.541854 20149 net.cpp:399] inception_4c/output -> inception_4c/output
I0403 15:40:17.541903 20149 net.cpp:141] Setting up inception_4c/output
I0403 15:40:17.541928 20149 net.cpp:148] Top shape: 24 512 14 14 (2408448)
I0403 15:40:17.541941 20149 net.cpp:156] Memory required for data: 1072647456
I0403 15:40:17.541956 20149 layer_factory.hpp:77] Creating layer inception_4c/output_inception_4c/output_0_split
I0403 15:40:17.541972 20149 net.cpp:91] Creating Layer inception_4c/output_inception_4c/output_0_split
I0403 15:40:17.541988 20149 net.cpp:425] inception_4c/output_inception_4c/output_0_split <- inception_4c/output
I0403 15:40:17.542007 20149 net.cpp:399] inception_4c/output_inception_4c/output_0_split -> inception_4c/output_inception_4c/output_0_split_0
I0403 15:40:17.542033 20149 net.cpp:399] inception_4c/output_inception_4c/output_0_split -> inception_4c/output_inception_4c/output_0_split_1
I0403 15:40:17.542055 20149 net.cpp:399] inception_4c/output_inception_4c/output_0_split -> inception_4c/output_inception_4c/output_0_split_2
I0403 15:40:17.542078 20149 net.cpp:399] inception_4c/output_inception_4c/output_0_split -> inception_4c/output_inception_4c/output_0_split_3
I0403 15:40:17.542165 20149 net.cpp:141] Setting up inception_4c/output_inception_4c/output_0_split
I0403 15:40:17.542189 20149 net.cpp:148] Top shape: 24 512 14 14 (2408448)
I0403 15:40:17.542206 20149 net.cpp:148] Top shape: 24 512 14 14 (2408448)
I0403 15:40:17.542220 20149 net.cpp:148] Top shape: 24 512 14 14 (2408448)
I0403 15:40:17.542237 20149 net.cpp:148] Top shape: 24 512 14 14 (2408448)
I0403 15:40:17.542249 20149 net.cpp:156] Memory required for data: 1111182624
I0403 15:40:17.542264 20149 layer_factory.hpp:77] Creating layer inception_4d/1x1
I0403 15:40:17.542285 20149 net.cpp:91] Creating Layer inception_4d/1x1
I0403 15:40:17.542304 20149 net.cpp:425] inception_4d/1x1 <- inception_4c/output_inception_4c/output_0_split_0
I0403 15:40:17.542323 20149 net.cpp:399] inception_4d/1x1 -> inception_4d/1x1
I0403 15:40:17.543704 20149 net.cpp:141] Setting up inception_4d/1x1
I0403 15:40:17.543735 20149 net.cpp:148] Top shape: 24 112 14 14 (526848)
I0403 15:40:17.543751 20149 net.cpp:156] Memory required for data: 1113290016
I0403 15:40:17.543771 20149 layer_factory.hpp:77] Creating layer inception_4d/relu_1x1
I0403 15:40:17.543789 20149 net.cpp:91] Creating Layer inception_4d/relu_1x1
I0403 15:40:17.543807 20149 net.cpp:425] inception_4d/relu_1x1 <- inception_4d/1x1
I0403 15:40:17.543826 20149 net.cpp:386] inception_4d/relu_1x1 -> inception_4d/1x1 (in-place)
I0403 15:40:17.544013 20149 net.cpp:141] Setting up inception_4d/relu_1x1
I0403 15:40:17.544042 20149 net.cpp:148] Top shape: 24 112 14 14 (526848)
I0403 15:40:17.544059 20149 net.cpp:156] Memory required for data: 1115397408
I0403 15:40:17.544075 20149 layer_factory.hpp:77] Creating layer inception_4d/3x3_reduce
I0403 15:40:17.544112 20149 net.cpp:91] Creating Layer inception_4d/3x3_reduce
I0403 15:40:17.544132 20149 net.cpp:425] inception_4d/3x3_reduce <- inception_4c/output_inception_4c/output_0_split_1
I0403 15:40:17.544154 20149 net.cpp:399] inception_4d/3x3_reduce -> inception_4d/3x3_reduce
I0403 15:40:17.545667 20149 net.cpp:141] Setting up inception_4d/3x3_reduce
I0403 15:40:17.545699 20149 net.cpp:148] Top shape: 24 144 14 14 (677376)
I0403 15:40:17.545717 20149 net.cpp:156] Memory required for data: 1118106912
I0403 15:40:17.545737 20149 layer_factory.hpp:77] Creating layer inception_4d/relu_3x3_reduce
I0403 15:40:17.545755 20149 net.cpp:91] Creating Layer inception_4d/relu_3x3_reduce
I0403 15:40:17.545771 20149 net.cpp:425] inception_4d/relu_3x3_reduce <- inception_4d/3x3_reduce
I0403 15:40:17.545789 20149 net.cpp:386] inception_4d/relu_3x3_reduce -> inception_4d/3x3_reduce (in-place)
I0403 15:40:17.546080 20149 net.cpp:141] Setting up inception_4d/relu_3x3_reduce
I0403 15:40:17.546109 20149 net.cpp:148] Top shape: 24 144 14 14 (677376)
I0403 15:40:17.546125 20149 net.cpp:156] Memory required for data: 1120816416
I0403 15:40:17.546141 20149 layer_factory.hpp:77] Creating layer inception_4d/3x3
I0403 15:40:17.546164 20149 net.cpp:91] Creating Layer inception_4d/3x3
I0403 15:40:17.546181 20149 net.cpp:425] inception_4d/3x3 <- inception_4d/3x3_reduce
I0403 15:40:17.546200 20149 net.cpp:399] inception_4d/3x3 -> inception_4d/3x3
I0403 15:40:17.550473 20149 net.cpp:141] Setting up inception_4d/3x3
I0403 15:40:17.550505 20149 net.cpp:148] Top shape: 24 288 14 14 (1354752)
I0403 15:40:17.550523 20149 net.cpp:156] Memory required for data: 1126235424
I0403 15:40:17.550541 20149 layer_factory.hpp:77] Creating layer inception_4d/relu_3x3
I0403 15:40:17.550560 20149 net.cpp:91] Creating Layer inception_4d/relu_3x3
I0403 15:40:17.550577 20149 net.cpp:425] inception_4d/relu_3x3 <- inception_4d/3x3
I0403 15:40:17.550597 20149 net.cpp:386] inception_4d/relu_3x3 -> inception_4d/3x3 (in-place)
I0403 15:40:17.550784 20149 net.cpp:141] Setting up inception_4d/relu_3x3
I0403 15:40:17.550812 20149 net.cpp:148] Top shape: 24 288 14 14 (1354752)
I0403 15:40:17.550827 20149 net.cpp:156] Memory required for data: 1131654432
I0403 15:40:17.550843 20149 layer_factory.hpp:77] Creating layer inception_4d/5x5_reduce
I0403 15:40:17.550866 20149 net.cpp:91] Creating Layer inception_4d/5x5_reduce
I0403 15:40:17.550885 20149 net.cpp:425] inception_4d/5x5_reduce <- inception_4c/output_inception_4c/output_0_split_2
I0403 15:40:17.550909 20149 net.cpp:399] inception_4d/5x5_reduce -> inception_4d/5x5_reduce
I0403 15:40:17.552104 20149 net.cpp:141] Setting up inception_4d/5x5_reduce
I0403 15:40:17.552134 20149 net.cpp:148] Top shape: 24 32 14 14 (150528)
I0403 15:40:17.552152 20149 net.cpp:156] Memory required for data: 1132256544
I0403 15:40:17.552171 20149 layer_factory.hpp:77] Creating layer inception_4d/relu_5x5_reduce
I0403 15:40:17.552193 20149 net.cpp:91] Creating Layer inception_4d/relu_5x5_reduce
I0403 15:40:17.552214 20149 net.cpp:425] inception_4d/relu_5x5_reduce <- inception_4d/5x5_reduce
I0403 15:40:17.552233 20149 net.cpp:386] inception_4d/relu_5x5_reduce -> inception_4d/5x5_reduce (in-place)
I0403 15:40:17.552423 20149 net.cpp:141] Setting up inception_4d/relu_5x5_reduce
I0403 15:40:17.552448 20149 net.cpp:148] Top shape: 24 32 14 14 (150528)
I0403 15:40:17.552464 20149 net.cpp:156] Memory required for data: 1132858656
I0403 15:40:17.552477 20149 layer_factory.hpp:77] Creating layer inception_4d/5x5
I0403 15:40:17.552500 20149 net.cpp:91] Creating Layer inception_4d/5x5
I0403 15:40:17.552517 20149 net.cpp:425] inception_4d/5x5 <- inception_4d/5x5_reduce
I0403 15:40:17.552539 20149 net.cpp:399] inception_4d/5x5 -> inception_4d/5x5
I0403 15:40:17.554025 20149 net.cpp:141] Setting up inception_4d/5x5
I0403 15:40:17.554054 20149 net.cpp:148] Top shape: 24 64 14 14 (301056)
I0403 15:40:17.554071 20149 net.cpp:156] Memory required for data: 1134062880
I0403 15:40:17.554090 20149 layer_factory.hpp:77] Creating layer inception_4d/relu_5x5
I0403 15:40:17.554127 20149 net.cpp:91] Creating Layer inception_4d/relu_5x5
I0403 15:40:17.554147 20149 net.cpp:425] inception_4d/relu_5x5 <- inception_4d/5x5
I0403 15:40:17.554165 20149 net.cpp:386] inception_4d/relu_5x5 -> inception_4d/5x5 (in-place)
I0403 15:40:17.554471 20149 net.cpp:141] Setting up inception_4d/relu_5x5
I0403 15:40:17.554498 20149 net.cpp:148] Top shape: 24 64 14 14 (301056)
I0403 15:40:17.554515 20149 net.cpp:156] Memory required for data: 1135267104
I0403 15:40:17.554532 20149 layer_factory.hpp:77] Creating layer inception_4d/pool
I0403 15:40:17.554551 20149 net.cpp:91] Creating Layer inception_4d/pool
I0403 15:40:17.554570 20149 net.cpp:425] inception_4d/pool <- inception_4c/output_inception_4c/output_0_split_3
I0403 15:40:17.554590 20149 net.cpp:399] inception_4d/pool -> inception_4d/pool
I0403 15:40:17.554659 20149 net.cpp:141] Setting up inception_4d/pool
I0403 15:40:17.554685 20149 net.cpp:148] Top shape: 24 512 14 14 (2408448)
I0403 15:40:17.554702 20149 net.cpp:156] Memory required for data: 1144900896
I0403 15:40:17.554716 20149 layer_factory.hpp:77] Creating layer inception_4d/pool_proj
I0403 15:40:17.554743 20149 net.cpp:91] Creating Layer inception_4d/pool_proj
I0403 15:40:17.554762 20149 net.cpp:425] inception_4d/pool_proj <- inception_4d/pool
I0403 15:40:17.554785 20149 net.cpp:399] inception_4d/pool_proj -> inception_4d/pool_proj
I0403 15:40:17.556553 20149 net.cpp:141] Setting up inception_4d/pool_proj
I0403 15:40:17.556584 20149 net.cpp:148] Top shape: 24 64 14 14 (301056)
I0403 15:40:17.556602 20149 net.cpp:156] Memory required for data: 1146105120
I0403 15:40:17.556620 20149 layer_factory.hpp:77] Creating layer inception_4d/relu_pool_proj
I0403 15:40:17.556640 20149 net.cpp:91] Creating Layer inception_4d/relu_pool_proj
I0403 15:40:17.556658 20149 net.cpp:425] inception_4d/relu_pool_proj <- inception_4d/pool_proj
I0403 15:40:17.556679 20149 net.cpp:386] inception_4d/relu_pool_proj -> inception_4d/pool_proj (in-place)
I0403 15:40:17.556867 20149 net.cpp:141] Setting up inception_4d/relu_pool_proj
I0403 15:40:17.556893 20149 net.cpp:148] Top shape: 24 64 14 14 (301056)
I0403 15:40:17.556910 20149 net.cpp:156] Memory required for data: 1147309344
I0403 15:40:17.556923 20149 layer_factory.hpp:77] Creating layer inception_4d/output
I0403 15:40:17.556944 20149 net.cpp:91] Creating Layer inception_4d/output
I0403 15:40:17.556962 20149 net.cpp:425] inception_4d/output <- inception_4d/1x1
I0403 15:40:17.556979 20149 net.cpp:425] inception_4d/output <- inception_4d/3x3
I0403 15:40:17.556998 20149 net.cpp:425] inception_4d/output <- inception_4d/5x5
I0403 15:40:17.557015 20149 net.cpp:425] inception_4d/output <- inception_4d/pool_proj
I0403 15:40:17.557037 20149 net.cpp:399] inception_4d/output -> inception_4d/output
I0403 15:40:17.557090 20149 net.cpp:141] Setting up inception_4d/output
I0403 15:40:17.557116 20149 net.cpp:148] Top shape: 24 528 14 14 (2483712)
I0403 15:40:17.557132 20149 net.cpp:156] Memory required for data: 1157244192
I0403 15:40:17.557149 20149 layer_factory.hpp:77] Creating layer inception_4d/output_inception_4d/output_0_split
I0403 15:40:17.557166 20149 net.cpp:91] Creating Layer inception_4d/output_inception_4d/output_0_split
I0403 15:40:17.557181 20149 net.cpp:425] inception_4d/output_inception_4d/output_0_split <- inception_4d/output
I0403 15:40:17.557201 20149 net.cpp:399] inception_4d/output_inception_4d/output_0_split -> inception_4d/output_inception_4d/output_0_split_0
I0403 15:40:17.557224 20149 net.cpp:399] inception_4d/output_inception_4d/output_0_split -> inception_4d/output_inception_4d/output_0_split_1
I0403 15:40:17.557245 20149 net.cpp:399] inception_4d/output_inception_4d/output_0_split -> inception_4d/output_inception_4d/output_0_split_2
I0403 15:40:17.557265 20149 net.cpp:399] inception_4d/output_inception_4d/output_0_split -> inception_4d/output_inception_4d/output_0_split_3
I0403 15:40:17.557286 20149 net.cpp:399] inception_4d/output_inception_4d/output_0_split -> inception_4d/output_inception_4d/output_0_split_4
I0403 15:40:17.557390 20149 net.cpp:141] Setting up inception_4d/output_inception_4d/output_0_split
I0403 15:40:17.557426 20149 net.cpp:148] Top shape: 24 528 14 14 (2483712)
I0403 15:40:17.557446 20149 net.cpp:148] Top shape: 24 528 14 14 (2483712)
I0403 15:40:17.557463 20149 net.cpp:148] Top shape: 24 528 14 14 (2483712)
I0403 15:40:17.557479 20149 net.cpp:148] Top shape: 24 528 14 14 (2483712)
I0403 15:40:17.557495 20149 net.cpp:148] Top shape: 24 528 14 14 (2483712)
I0403 15:40:17.557508 20149 net.cpp:156] Memory required for data: 1206918432
I0403 15:40:17.557523 20149 layer_factory.hpp:77] Creating layer loss2/ave_pool
I0403 15:40:17.557540 20149 net.cpp:91] Creating Layer loss2/ave_pool
I0403 15:40:17.557556 20149 net.cpp:425] loss2/ave_pool <- inception_4d/output_inception_4d/output_0_split_0
I0403 15:40:17.557577 20149 net.cpp:399] loss2/ave_pool -> loss2/ave_pool
I0403 15:40:17.557895 20149 net.cpp:141] Setting up loss2/ave_pool
I0403 15:40:17.557921 20149 net.cpp:148] Top shape: 24 528 4 4 (202752)
I0403 15:40:17.557937 20149 net.cpp:156] Memory required for data: 1207729440
I0403 15:40:17.557951 20149 layer_factory.hpp:77] Creating layer loss2/conv
I0403 15:40:17.557974 20149 net.cpp:91] Creating Layer loss2/conv
I0403 15:40:17.557992 20149 net.cpp:425] loss2/conv <- loss2/ave_pool
I0403 15:40:17.558013 20149 net.cpp:399] loss2/conv -> loss2/conv
I0403 15:40:17.559947 20149 net.cpp:141] Setting up loss2/conv
I0403 15:40:17.559976 20149 net.cpp:148] Top shape: 24 128 4 4 (49152)
I0403 15:40:17.559995 20149 net.cpp:156] Memory required for data: 1207926048
I0403 15:40:17.560014 20149 layer_factory.hpp:77] Creating layer loss2/relu_conv
I0403 15:40:17.560037 20149 net.cpp:91] Creating Layer loss2/relu_conv
I0403 15:40:17.560053 20149 net.cpp:425] loss2/relu_conv <- loss2/conv
I0403 15:40:17.560070 20149 net.cpp:386] loss2/relu_conv -> loss2/conv (in-place)
I0403 15:40:17.560358 20149 net.cpp:141] Setting up loss2/relu_conv
I0403 15:40:17.560387 20149 net.cpp:148] Top shape: 24 128 4 4 (49152)
I0403 15:40:17.560405 20149 net.cpp:156] Memory required for data: 1208122656
I0403 15:40:17.560420 20149 layer_factory.hpp:77] Creating layer loss2/fc
I0403 15:40:17.560439 20149 net.cpp:91] Creating Layer loss2/fc
I0403 15:40:17.560456 20149 net.cpp:425] loss2/fc <- loss2/conv
I0403 15:40:17.560477 20149 net.cpp:399] loss2/fc -> loss2/fc
I0403 15:40:17.578574 20149 net.cpp:141] Setting up loss2/fc
I0403 15:40:17.578629 20149 net.cpp:148] Top shape: 24 1024 (24576)
I0403 15:40:17.578646 20149 net.cpp:156] Memory required for data: 1208220960
I0403 15:40:17.578666 20149 layer_factory.hpp:77] Creating layer loss2/relu_fc
I0403 15:40:17.578691 20149 net.cpp:91] Creating Layer loss2/relu_fc
I0403 15:40:17.578709 20149 net.cpp:425] loss2/relu_fc <- loss2/fc
I0403 15:40:17.578729 20149 net.cpp:386] loss2/relu_fc -> loss2/fc (in-place)
I0403 15:40:17.579089 20149 net.cpp:141] Setting up loss2/relu_fc
I0403 15:40:17.579118 20149 net.cpp:148] Top shape: 24 1024 (24576)
I0403 15:40:17.579145 20149 net.cpp:156] Memory required for data: 1208319264
I0403 15:40:17.579161 20149 layer_factory.hpp:77] Creating layer loss2/drop_fc
I0403 15:40:17.579183 20149 net.cpp:91] Creating Layer loss2/drop_fc
I0403 15:40:17.579200 20149 net.cpp:425] loss2/drop_fc <- loss2/fc
I0403 15:40:17.579219 20149 net.cpp:386] loss2/drop_fc -> loss2/fc (in-place)
I0403 15:40:17.579272 20149 net.cpp:141] Setting up loss2/drop_fc
I0403 15:40:17.579299 20149 net.cpp:148] Top shape: 24 1024 (24576)
I0403 15:40:17.579315 20149 net.cpp:156] Memory required for data: 1208417568
I0403 15:40:17.579331 20149 layer_factory.hpp:77] Creating layer loss2/classifier_plantvillage
I0403 15:40:17.579350 20149 net.cpp:91] Creating Layer loss2/classifier_plantvillage
I0403 15:40:17.579367 20149 net.cpp:425] loss2/classifier_plantvillage <- loss2/fc
I0403 15:40:17.579390 20149 net.cpp:399] loss2/classifier_plantvillage -> loss2/classifier_plantvillage
I0403 15:40:17.579828 20149 net.cpp:141] Setting up loss2/classifier_plantvillage
I0403 15:40:17.579855 20149 net.cpp:148] Top shape: 24 38 (912)
I0403 15:40:17.579895 20149 net.cpp:156] Memory required for data: 1208421216
I0403 15:40:17.579916 20149 layer_factory.hpp:77] Creating layer loss2/classifier_plantvillage_loss2/classifier_plantvillage_0_split
I0403 15:40:17.579934 20149 net.cpp:91] Creating Layer loss2/classifier_plantvillage_loss2/classifier_plantvillage_0_split
I0403 15:40:17.579955 20149 net.cpp:425] loss2/classifier_plantvillage_loss2/classifier_plantvillage_0_split <- loss2/classifier_plantvillage
I0403 15:40:17.579973 20149 net.cpp:399] loss2/classifier_plantvillage_loss2/classifier_plantvillage_0_split -> loss2/classifier_plantvillage_loss2/classifier_plantvillage_0_split_0
I0403 15:40:17.579996 20149 net.cpp:399] loss2/classifier_plantvillage_loss2/classifier_plantvillage_0_split -> loss2/classifier_plantvillage_loss2/classifier_plantvillage_0_split_1
I0403 15:40:17.580024 20149 net.cpp:399] loss2/classifier_plantvillage_loss2/classifier_plantvillage_0_split -> loss2/classifier_plantvillage_loss2/classifier_plantvillage_0_split_2
I0403 15:40:17.580106 20149 net.cpp:141] Setting up loss2/classifier_plantvillage_loss2/classifier_plantvillage_0_split
I0403 15:40:17.580129 20149 net.cpp:148] Top shape: 24 38 (912)
I0403 15:40:17.580145 20149 net.cpp:148] Top shape: 24 38 (912)
I0403 15:40:17.580162 20149 net.cpp:148] Top shape: 24 38 (912)
I0403 15:40:17.580175 20149 net.cpp:156] Memory required for data: 1208432160
I0403 15:40:17.580190 20149 layer_factory.hpp:77] Creating layer inception_4e/1x1
I0403 15:40:17.580214 20149 net.cpp:91] Creating Layer inception_4e/1x1
I0403 15:40:17.580232 20149 net.cpp:425] inception_4e/1x1 <- inception_4d/output_inception_4d/output_0_split_1
I0403 15:40:17.580255 20149 net.cpp:399] inception_4e/1x1 -> inception_4e/1x1
I0403 15:40:17.582207 20149 net.cpp:141] Setting up inception_4e/1x1
I0403 15:40:17.582237 20149 net.cpp:148] Top shape: 24 256 14 14 (1204224)
I0403 15:40:17.582255 20149 net.cpp:156] Memory required for data: 1213249056
I0403 15:40:17.582274 20149 layer_factory.hpp:77] Creating layer inception_4e/relu_1x1
I0403 15:40:17.582296 20149 net.cpp:91] Creating Layer inception_4e/relu_1x1
I0403 15:40:17.582315 20149 net.cpp:425] inception_4e/relu_1x1 <- inception_4e/1x1
I0403 15:40:17.582334 20149 net.cpp:386] inception_4e/relu_1x1 -> inception_4e/1x1 (in-place)
I0403 15:40:17.582643 20149 net.cpp:141] Setting up inception_4e/relu_1x1
I0403 15:40:17.582671 20149 net.cpp:148] Top shape: 24 256 14 14 (1204224)
I0403 15:40:17.582687 20149 net.cpp:156] Memory required for data: 1218065952
I0403 15:40:17.582701 20149 layer_factory.hpp:77] Creating layer inception_4e/3x3_reduce
I0403 15:40:17.582728 20149 net.cpp:91] Creating Layer inception_4e/3x3_reduce
I0403 15:40:17.582748 20149 net.cpp:425] inception_4e/3x3_reduce <- inception_4d/output_inception_4d/output_0_split_2
I0403 15:40:17.582769 20149 net.cpp:399] inception_4e/3x3_reduce -> inception_4e/3x3_reduce
I0403 15:40:17.584939 20149 net.cpp:141] Setting up inception_4e/3x3_reduce
I0403 15:40:17.584970 20149 net.cpp:148] Top shape: 24 160 14 14 (752640)
I0403 15:40:17.584988 20149 net.cpp:156] Memory required for data: 1221076512
I0403 15:40:17.585008 20149 layer_factory.hpp:77] Creating layer inception_4e/relu_3x3_reduce
I0403 15:40:17.585036 20149 net.cpp:91] Creating Layer inception_4e/relu_3x3_reduce
I0403 15:40:17.585054 20149 net.cpp:425] inception_4e/relu_3x3_reduce <- inception_4e/3x3_reduce
I0403 15:40:17.585073 20149 net.cpp:386] inception_4e/relu_3x3_reduce -> inception_4e/3x3_reduce (in-place)
I0403 15:40:17.585261 20149 net.cpp:141] Setting up inception_4e/relu_3x3_reduce
I0403 15:40:17.585289 20149 net.cpp:148] Top shape: 24 160 14 14 (752640)
I0403 15:40:17.585305 20149 net.cpp:156] Memory required for data: 1224087072
I0403 15:40:17.585320 20149 layer_factory.hpp:77] Creating layer inception_4e/3x3
I0403 15:40:17.585342 20149 net.cpp:91] Creating Layer inception_4e/3x3
I0403 15:40:17.585361 20149 net.cpp:425] inception_4e/3x3 <- inception_4e/3x3_reduce
I0403 15:40:17.585379 20149 net.cpp:399] inception_4e/3x3 -> inception_4e/3x3
I0403 15:40:17.590610 20149 net.cpp:141] Setting up inception_4e/3x3
I0403 15:40:17.590654 20149 net.cpp:148] Top shape: 24 320 14 14 (1505280)
I0403 15:40:17.590674 20149 net.cpp:156] Memory required for data: 1230108192
I0403 15:40:17.590694 20149 layer_factory.hpp:77] Creating layer inception_4e/relu_3x3
I0403 15:40:17.590714 20149 net.cpp:91] Creating Layer inception_4e/relu_3x3
I0403 15:40:17.590733 20149 net.cpp:425] inception_4e/relu_3x3 <- inception_4e/3x3
I0403 15:40:17.590754 20149 net.cpp:386] inception_4e/relu_3x3 -> inception_4e/3x3 (in-place)
I0403 15:40:17.591063 20149 net.cpp:141] Setting up inception_4e/relu_3x3
I0403 15:40:17.591090 20149 net.cpp:148] Top shape: 24 320 14 14 (1505280)
I0403 15:40:17.591106 20149 net.cpp:156] Memory required for data: 1236129312
I0403 15:40:17.591121 20149 layer_factory.hpp:77] Creating layer inception_4e/5x5_reduce
I0403 15:40:17.591145 20149 net.cpp:91] Creating Layer inception_4e/5x5_reduce
I0403 15:40:17.591164 20149 net.cpp:425] inception_4e/5x5_reduce <- inception_4d/output_inception_4d/output_0_split_3
I0403 15:40:17.591186 20149 net.cpp:399] inception_4e/5x5_reduce -> inception_4e/5x5_reduce
I0403 15:40:17.592272 20149 net.cpp:141] Setting up inception_4e/5x5_reduce
I0403 15:40:17.592301 20149 net.cpp:148] Top shape: 24 32 14 14 (150528)
I0403 15:40:17.592319 20149 net.cpp:156] Memory required for data: 1236731424
I0403 15:40:17.592337 20149 layer_factory.hpp:77] Creating layer inception_4e/relu_5x5_reduce
I0403 15:40:17.592360 20149 net.cpp:91] Creating Layer inception_4e/relu_5x5_reduce
I0403 15:40:17.592377 20149 net.cpp:425] inception_4e/relu_5x5_reduce <- inception_4e/5x5_reduce
I0403 15:40:17.592396 20149 net.cpp:386] inception_4e/relu_5x5_reduce -> inception_4e/5x5_reduce (in-place)
I0403 15:40:17.592700 20149 net.cpp:141] Setting up inception_4e/relu_5x5_reduce
I0403 15:40:17.592727 20149 net.cpp:148] Top shape: 24 32 14 14 (150528)
I0403 15:40:17.592743 20149 net.cpp:156] Memory required for data: 1237333536
I0403 15:40:17.592761 20149 layer_factory.hpp:77] Creating layer inception_4e/5x5
I0403 15:40:17.592800 20149 net.cpp:91] Creating Layer inception_4e/5x5
I0403 15:40:17.592821 20149 net.cpp:425] inception_4e/5x5 <- inception_4e/5x5_reduce
I0403 15:40:17.592841 20149 net.cpp:399] inception_4e/5x5 -> inception_4e/5x5
I0403 15:40:17.594730 20149 net.cpp:141] Setting up inception_4e/5x5
I0403 15:40:17.594758 20149 net.cpp:148] Top shape: 24 128 14 14 (602112)
I0403 15:40:17.594772 20149 net.cpp:156] Memory required for data: 1239741984
I0403 15:40:17.594791 20149 layer_factory.hpp:77] Creating layer inception_4e/relu_5x5
I0403 15:40:17.594812 20149 net.cpp:91] Creating Layer inception_4e/relu_5x5
I0403 15:40:17.594830 20149 net.cpp:425] inception_4e/relu_5x5 <- inception_4e/5x5
I0403 15:40:17.594846 20149 net.cpp:386] inception_4e/relu_5x5 -> inception_4e/5x5 (in-place)
I0403 15:40:17.595041 20149 net.cpp:141] Setting up inception_4e/relu_5x5
I0403 15:40:17.595068 20149 net.cpp:148] Top shape: 24 128 14 14 (602112)
I0403 15:40:17.595084 20149 net.cpp:156] Memory required for data: 1242150432
I0403 15:40:17.595098 20149 layer_factory.hpp:77] Creating layer inception_4e/pool
I0403 15:40:17.595116 20149 net.cpp:91] Creating Layer inception_4e/pool
I0403 15:40:17.595132 20149 net.cpp:425] inception_4e/pool <- inception_4d/output_inception_4d/output_0_split_4
I0403 15:40:17.595149 20149 net.cpp:399] inception_4e/pool -> inception_4e/pool
I0403 15:40:17.595219 20149 net.cpp:141] Setting up inception_4e/pool
I0403 15:40:17.595243 20149 net.cpp:148] Top shape: 24 528 14 14 (2483712)
I0403 15:40:17.595257 20149 net.cpp:156] Memory required for data: 1252085280
I0403 15:40:17.595273 20149 layer_factory.hpp:77] Creating layer inception_4e/pool_proj
I0403 15:40:17.595293 20149 net.cpp:91] Creating Layer inception_4e/pool_proj
I0403 15:40:17.595310 20149 net.cpp:425] inception_4e/pool_proj <- inception_4e/pool
I0403 15:40:17.595331 20149 net.cpp:399] inception_4e/pool_proj -> inception_4e/pool_proj
I0403 15:40:17.596797 20149 net.cpp:141] Setting up inception_4e/pool_proj
I0403 15:40:17.596837 20149 net.cpp:148] Top shape: 24 128 14 14 (602112)
I0403 15:40:17.596853 20149 net.cpp:156] Memory required for data: 1254493728
I0403 15:40:17.596873 20149 layer_factory.hpp:77] Creating layer inception_4e/relu_pool_proj
I0403 15:40:17.596892 20149 net.cpp:91] Creating Layer inception_4e/relu_pool_proj
I0403 15:40:17.596909 20149 net.cpp:425] inception_4e/relu_pool_proj <- inception_4e/pool_proj
I0403 15:40:17.596928 20149 net.cpp:386] inception_4e/relu_pool_proj -> inception_4e/pool_proj (in-place)
I0403 15:40:17.597226 20149 net.cpp:141] Setting up inception_4e/relu_pool_proj
I0403 15:40:17.597254 20149 net.cpp:148] Top shape: 24 128 14 14 (602112)
I0403 15:40:17.597270 20149 net.cpp:156] Memory required for data: 1256902176
I0403 15:40:17.597287 20149 layer_factory.hpp:77] Creating layer inception_4e/output
I0403 15:40:17.597304 20149 net.cpp:91] Creating Layer inception_4e/output
I0403 15:40:17.597321 20149 net.cpp:425] inception_4e/output <- inception_4e/1x1
I0403 15:40:17.597337 20149 net.cpp:425] inception_4e/output <- inception_4e/3x3
I0403 15:40:17.597354 20149 net.cpp:425] inception_4e/output <- inception_4e/5x5
I0403 15:40:17.597370 20149 net.cpp:425] inception_4e/output <- inception_4e/pool_proj
I0403 15:40:17.597389 20149 net.cpp:399] inception_4e/output -> inception_4e/output
I0403 15:40:17.597439 20149 net.cpp:141] Setting up inception_4e/output
I0403 15:40:17.597465 20149 net.cpp:148] Top shape: 24 832 14 14 (3913728)
I0403 15:40:17.597481 20149 net.cpp:156] Memory required for data: 1272557088
I0403 15:40:17.597497 20149 layer_factory.hpp:77] Creating layer pool4/3x3_s2
I0403 15:40:17.597514 20149 net.cpp:91] Creating Layer pool4/3x3_s2
I0403 15:40:17.597532 20149 net.cpp:425] pool4/3x3_s2 <- inception_4e/output
I0403 15:40:17.597550 20149 net.cpp:399] pool4/3x3_s2 -> pool4/3x3_s2
I0403 15:40:17.597617 20149 net.cpp:141] Setting up pool4/3x3_s2
I0403 15:40:17.597640 20149 net.cpp:148] Top shape: 24 832 7 7 (978432)
I0403 15:40:17.597656 20149 net.cpp:156] Memory required for data: 1276470816
I0403 15:40:17.597669 20149 layer_factory.hpp:77] Creating layer pool4/3x3_s2_pool4/3x3_s2_0_split
I0403 15:40:17.597687 20149 net.cpp:91] Creating Layer pool4/3x3_s2_pool4/3x3_s2_0_split
I0403 15:40:17.597703 20149 net.cpp:425] pool4/3x3_s2_pool4/3x3_s2_0_split <- pool4/3x3_s2
I0403 15:40:17.597720 20149 net.cpp:399] pool4/3x3_s2_pool4/3x3_s2_0_split -> pool4/3x3_s2_pool4/3x3_s2_0_split_0
I0403 15:40:17.597740 20149 net.cpp:399] pool4/3x3_s2_pool4/3x3_s2_0_split -> pool4/3x3_s2_pool4/3x3_s2_0_split_1
I0403 15:40:17.597762 20149 net.cpp:399] pool4/3x3_s2_pool4/3x3_s2_0_split -> pool4/3x3_s2_pool4/3x3_s2_0_split_2
I0403 15:40:17.597784 20149 net.cpp:399] pool4/3x3_s2_pool4/3x3_s2_0_split -> pool4/3x3_s2_pool4/3x3_s2_0_split_3
I0403 15:40:17.597870 20149 net.cpp:141] Setting up pool4/3x3_s2_pool4/3x3_s2_0_split
I0403 15:40:17.597893 20149 net.cpp:148] Top shape: 24 832 7 7 (978432)
I0403 15:40:17.597909 20149 net.cpp:148] Top shape: 24 832 7 7 (978432)
I0403 15:40:17.597924 20149 net.cpp:148] Top shape: 24 832 7 7 (978432)
I0403 15:40:17.597939 20149 net.cpp:148] Top shape: 24 832 7 7 (978432)
I0403 15:40:17.597954 20149 net.cpp:156] Memory required for data: 1292125728
I0403 15:40:17.597967 20149 layer_factory.hpp:77] Creating layer inception_5a/1x1
I0403 15:40:17.597988 20149 net.cpp:91] Creating Layer inception_5a/1x1
I0403 15:40:17.598006 20149 net.cpp:425] inception_5a/1x1 <- pool4/3x3_s2_pool4/3x3_s2_0_split_0
I0403 15:40:17.598031 20149 net.cpp:399] inception_5a/1x1 -> inception_5a/1x1
I0403 15:40:17.600877 20149 net.cpp:141] Setting up inception_5a/1x1
I0403 15:40:17.600908 20149 net.cpp:148] Top shape: 24 256 7 7 (301056)
I0403 15:40:17.600924 20149 net.cpp:156] Memory required for data: 1293329952
I0403 15:40:17.600944 20149 layer_factory.hpp:77] Creating layer inception_5a/relu_1x1
I0403 15:40:17.600965 20149 net.cpp:91] Creating Layer inception_5a/relu_1x1
I0403 15:40:17.600983 20149 net.cpp:425] inception_5a/relu_1x1 <- inception_5a/1x1
I0403 15:40:17.601001 20149 net.cpp:386] inception_5a/relu_1x1 -> inception_5a/1x1 (in-place)
I0403 15:40:17.601316 20149 net.cpp:141] Setting up inception_5a/relu_1x1
I0403 15:40:17.601344 20149 net.cpp:148] Top shape: 24 256 7 7 (301056)
I0403 15:40:17.601359 20149 net.cpp:156] Memory required for data: 1294534176
I0403 15:40:17.601374 20149 layer_factory.hpp:77] Creating layer inception_5a/3x3_reduce
I0403 15:40:17.601397 20149 net.cpp:91] Creating Layer inception_5a/3x3_reduce
I0403 15:40:17.601413 20149 net.cpp:425] inception_5a/3x3_reduce <- pool4/3x3_s2_pool4/3x3_s2_0_split_1
I0403 15:40:17.601433 20149 net.cpp:399] inception_5a/3x3_reduce -> inception_5a/3x3_reduce
I0403 15:40:17.603849 20149 net.cpp:141] Setting up inception_5a/3x3_reduce
I0403 15:40:17.603880 20149 net.cpp:148] Top shape: 24 160 7 7 (188160)
I0403 15:40:17.603899 20149 net.cpp:156] Memory required for data: 1295286816
I0403 15:40:17.603917 20149 layer_factory.hpp:77] Creating layer inception_5a/relu_3x3_reduce
I0403 15:40:17.603946 20149 net.cpp:91] Creating Layer inception_5a/relu_3x3_reduce
I0403 15:40:17.603963 20149 net.cpp:425] inception_5a/relu_3x3_reduce <- inception_5a/3x3_reduce
I0403 15:40:17.603984 20149 net.cpp:386] inception_5a/relu_3x3_reduce -> inception_5a/3x3_reduce (in-place)
I0403 15:40:17.604179 20149 net.cpp:141] Setting up inception_5a/relu_3x3_reduce
I0403 15:40:17.604205 20149 net.cpp:148] Top shape: 24 160 7 7 (188160)
I0403 15:40:17.604220 20149 net.cpp:156] Memory required for data: 1296039456
I0403 15:40:17.604235 20149 layer_factory.hpp:77] Creating layer inception_5a/3x3
I0403 15:40:17.604269 20149 net.cpp:91] Creating Layer inception_5a/3x3
I0403 15:40:17.604285 20149 net.cpp:425] inception_5a/3x3 <- inception_5a/3x3_reduce
I0403 15:40:17.604307 20149 net.cpp:399] inception_5a/3x3 -> inception_5a/3x3
I0403 15:40:17.609287 20149 net.cpp:141] Setting up inception_5a/3x3
I0403 15:40:17.609318 20149 net.cpp:148] Top shape: 24 320 7 7 (376320)
I0403 15:40:17.609333 20149 net.cpp:156] Memory required for data: 1297544736
I0403 15:40:17.609352 20149 layer_factory.hpp:77] Creating layer inception_5a/relu_3x3
I0403 15:40:17.609374 20149 net.cpp:91] Creating Layer inception_5a/relu_3x3
I0403 15:40:17.609391 20149 net.cpp:425] inception_5a/relu_3x3 <- inception_5a/3x3
I0403 15:40:17.609408 20149 net.cpp:386] inception_5a/relu_3x3 -> inception_5a/3x3 (in-place)
I0403 15:40:17.609697 20149 net.cpp:141] Setting up inception_5a/relu_3x3
I0403 15:40:17.609724 20149 net.cpp:148] Top shape: 24 320 7 7 (376320)
I0403 15:40:17.609738 20149 net.cpp:156] Memory required for data: 1299050016
I0403 15:40:17.609752 20149 layer_factory.hpp:77] Creating layer inception_5a/5x5_reduce
I0403 15:40:17.609774 20149 net.cpp:91] Creating Layer inception_5a/5x5_reduce
I0403 15:40:17.609792 20149 net.cpp:425] inception_5a/5x5_reduce <- pool4/3x3_s2_pool4/3x3_s2_0_split_2
I0403 15:40:17.609814 20149 net.cpp:399] inception_5a/5x5_reduce -> inception_5a/5x5_reduce
I0403 15:40:17.610970 20149 net.cpp:141] Setting up inception_5a/5x5_reduce
I0403 15:40:17.611006 20149 net.cpp:148] Top shape: 24 32 7 7 (37632)
I0403 15:40:17.611027 20149 net.cpp:156] Memory required for data: 1299200544
I0403 15:40:17.611047 20149 layer_factory.hpp:77] Creating layer inception_5a/relu_5x5_reduce
I0403 15:40:17.611066 20149 net.cpp:91] Creating Layer inception_5a/relu_5x5_reduce
I0403 15:40:17.611084 20149 net.cpp:425] inception_5a/relu_5x5_reduce <- inception_5a/5x5_reduce
I0403 15:40:17.611101 20149 net.cpp:386] inception_5a/relu_5x5_reduce -> inception_5a/5x5_reduce (in-place)
I0403 15:40:17.611397 20149 net.cpp:141] Setting up inception_5a/relu_5x5_reduce
I0403 15:40:17.611424 20149 net.cpp:148] Top shape: 24 32 7 7 (37632)
I0403 15:40:17.611440 20149 net.cpp:156] Memory required for data: 1299351072
I0403 15:40:17.611455 20149 layer_factory.hpp:77] Creating layer inception_5a/5x5
I0403 15:40:17.611474 20149 net.cpp:91] Creating Layer inception_5a/5x5
I0403 15:40:17.611490 20149 net.cpp:425] inception_5a/5x5 <- inception_5a/5x5_reduce
I0403 15:40:17.611511 20149 net.cpp:399] inception_5a/5x5 -> inception_5a/5x5
I0403 15:40:17.613251 20149 net.cpp:141] Setting up inception_5a/5x5
I0403 15:40:17.613292 20149 net.cpp:148] Top shape: 24 128 7 7 (150528)
I0403 15:40:17.613309 20149 net.cpp:156] Memory required for data: 1299953184
I0403 15:40:17.613329 20149 layer_factory.hpp:77] Creating layer inception_5a/relu_5x5
I0403 15:40:17.613349 20149 net.cpp:91] Creating Layer inception_5a/relu_5x5
I0403 15:40:17.613365 20149 net.cpp:425] inception_5a/relu_5x5 <- inception_5a/5x5
I0403 15:40:17.613382 20149 net.cpp:386] inception_5a/relu_5x5 -> inception_5a/5x5 (in-place)
I0403 15:40:17.613569 20149 net.cpp:141] Setting up inception_5a/relu_5x5
I0403 15:40:17.613596 20149 net.cpp:148] Top shape: 24 128 7 7 (150528)
I0403 15:40:17.613611 20149 net.cpp:156] Memory required for data: 1300555296
I0403 15:40:17.613626 20149 layer_factory.hpp:77] Creating layer inception_5a/pool
I0403 15:40:17.613643 20149 net.cpp:91] Creating Layer inception_5a/pool
I0403 15:40:17.613658 20149 net.cpp:425] inception_5a/pool <- pool4/3x3_s2_pool4/3x3_s2_0_split_3
I0403 15:40:17.613677 20149 net.cpp:399] inception_5a/pool -> inception_5a/pool
I0403 15:40:17.613746 20149 net.cpp:141] Setting up inception_5a/pool
I0403 15:40:17.613770 20149 net.cpp:148] Top shape: 24 832 7 7 (978432)
I0403 15:40:17.613785 20149 net.cpp:156] Memory required for data: 1304469024
I0403 15:40:17.613798 20149 layer_factory.hpp:77] Creating layer inception_5a/pool_proj
I0403 15:40:17.613819 20149 net.cpp:91] Creating Layer inception_5a/pool_proj
I0403 15:40:17.613837 20149 net.cpp:425] inception_5a/pool_proj <- inception_5a/pool
I0403 15:40:17.613857 20149 net.cpp:399] inception_5a/pool_proj -> inception_5a/pool_proj
I0403 15:40:17.616132 20149 net.cpp:141] Setting up inception_5a/pool_proj
I0403 15:40:17.616161 20149 net.cpp:148] Top shape: 24 128 7 7 (150528)
I0403 15:40:17.616178 20149 net.cpp:156] Memory required for data: 1305071136
I0403 15:40:17.616196 20149 layer_factory.hpp:77] Creating layer inception_5a/relu_pool_proj
I0403 15:40:17.616219 20149 net.cpp:91] Creating Layer inception_5a/relu_pool_proj
I0403 15:40:17.616236 20149 net.cpp:425] inception_5a/relu_pool_proj <- inception_5a/pool_proj
I0403 15:40:17.616255 20149 net.cpp:386] inception_5a/relu_pool_proj -> inception_5a/pool_proj (in-place)
I0403 15:40:17.616546 20149 net.cpp:141] Setting up inception_5a/relu_pool_proj
I0403 15:40:17.616574 20149 net.cpp:148] Top shape: 24 128 7 7 (150528)
I0403 15:40:17.616590 20149 net.cpp:156] Memory required for data: 1305673248
I0403 15:40:17.616603 20149 layer_factory.hpp:77] Creating layer inception_5a/output
I0403 15:40:17.616621 20149 net.cpp:91] Creating Layer inception_5a/output
I0403 15:40:17.616636 20149 net.cpp:425] inception_5a/output <- inception_5a/1x1
I0403 15:40:17.616653 20149 net.cpp:425] inception_5a/output <- inception_5a/3x3
I0403 15:40:17.616669 20149 net.cpp:425] inception_5a/output <- inception_5a/5x5
I0403 15:40:17.616684 20149 net.cpp:425] inception_5a/output <- inception_5a/pool_proj
I0403 15:40:17.616703 20149 net.cpp:399] inception_5a/output -> inception_5a/output
I0403 15:40:17.616753 20149 net.cpp:141] Setting up inception_5a/output
I0403 15:40:17.616778 20149 net.cpp:148] Top shape: 24 832 7 7 (978432)
I0403 15:40:17.616794 20149 net.cpp:156] Memory required for data: 1309586976
I0403 15:40:17.616808 20149 layer_factory.hpp:77] Creating layer inception_5a/output_inception_5a/output_0_split
I0403 15:40:17.616825 20149 net.cpp:91] Creating Layer inception_5a/output_inception_5a/output_0_split
I0403 15:40:17.616840 20149 net.cpp:425] inception_5a/output_inception_5a/output_0_split <- inception_5a/output
I0403 15:40:17.616860 20149 net.cpp:399] inception_5a/output_inception_5a/output_0_split -> inception_5a/output_inception_5a/output_0_split_0
I0403 15:40:17.616881 20149 net.cpp:399] inception_5a/output_inception_5a/output_0_split -> inception_5a/output_inception_5a/output_0_split_1
I0403 15:40:17.616901 20149 net.cpp:399] inception_5a/output_inception_5a/output_0_split -> inception_5a/output_inception_5a/output_0_split_2
I0403 15:40:17.616920 20149 net.cpp:399] inception_5a/output_inception_5a/output_0_split -> inception_5a/output_inception_5a/output_0_split_3
I0403 15:40:17.617033 20149 net.cpp:141] Setting up inception_5a/output_inception_5a/output_0_split
I0403 15:40:17.617058 20149 net.cpp:148] Top shape: 24 832 7 7 (978432)
I0403 15:40:17.617076 20149 net.cpp:148] Top shape: 24 832 7 7 (978432)
I0403 15:40:17.617091 20149 net.cpp:148] Top shape: 24 832 7 7 (978432)
I0403 15:40:17.617107 20149 net.cpp:148] Top shape: 24 832 7 7 (978432)
I0403 15:40:17.617120 20149 net.cpp:156] Memory required for data: 1325241888
I0403 15:40:17.617135 20149 layer_factory.hpp:77] Creating layer inception_5b/1x1
I0403 15:40:17.617153 20149 net.cpp:91] Creating Layer inception_5b/1x1
I0403 15:40:17.617169 20149 net.cpp:425] inception_5b/1x1 <- inception_5a/output_inception_5a/output_0_split_0
I0403 15:40:17.617189 20149 net.cpp:399] inception_5b/1x1 -> inception_5b/1x1
I0403 15:40:17.620937 20149 net.cpp:141] Setting up inception_5b/1x1
I0403 15:40:17.620968 20149 net.cpp:148] Top shape: 24 384 7 7 (451584)
I0403 15:40:17.620985 20149 net.cpp:156] Memory required for data: 1327048224
I0403 15:40:17.621004 20149 layer_factory.hpp:77] Creating layer inception_5b/relu_1x1
I0403 15:40:17.621026 20149 net.cpp:91] Creating Layer inception_5b/relu_1x1
I0403 15:40:17.621043 20149 net.cpp:425] inception_5b/relu_1x1 <- inception_5b/1x1
I0403 15:40:17.621064 20149 net.cpp:386] inception_5b/relu_1x1 -> inception_5b/1x1 (in-place)
I0403 15:40:17.621369 20149 net.cpp:141] Setting up inception_5b/relu_1x1
I0403 15:40:17.621395 20149 net.cpp:148] Top shape: 24 384 7 7 (451584)
I0403 15:40:17.621410 20149 net.cpp:156] Memory required for data: 1328854560
I0403 15:40:17.621425 20149 layer_factory.hpp:77] Creating layer inception_5b/3x3_reduce
I0403 15:40:17.621446 20149 net.cpp:91] Creating Layer inception_5b/3x3_reduce
I0403 15:40:17.621464 20149 net.cpp:425] inception_5b/3x3_reduce <- inception_5a/output_inception_5a/output_0_split_1
I0403 15:40:17.621486 20149 net.cpp:399] inception_5b/3x3_reduce -> inception_5b/3x3_reduce
I0403 15:40:17.624104 20149 net.cpp:141] Setting up inception_5b/3x3_reduce
I0403 15:40:17.624135 20149 net.cpp:148] Top shape: 24 192 7 7 (225792)
I0403 15:40:17.624151 20149 net.cpp:156] Memory required for data: 1329757728
I0403 15:40:17.624171 20149 layer_factory.hpp:77] Creating layer inception_5b/relu_3x3_reduce
I0403 15:40:17.624192 20149 net.cpp:91] Creating Layer inception_5b/relu_3x3_reduce
I0403 15:40:17.624212 20149 net.cpp:425] inception_5b/relu_3x3_reduce <- inception_5b/3x3_reduce
I0403 15:40:17.624230 20149 net.cpp:386] inception_5b/relu_3x3_reduce -> inception_5b/3x3_reduce (in-place)
I0403 15:40:17.624416 20149 net.cpp:141] Setting up inception_5b/relu_3x3_reduce
I0403 15:40:17.624440 20149 net.cpp:148] Top shape: 24 192 7 7 (225792)
I0403 15:40:17.624454 20149 net.cpp:156] Memory required for data: 1330660896
I0403 15:40:17.624469 20149 layer_factory.hpp:77] Creating layer inception_5b/3x3
I0403 15:40:17.624490 20149 net.cpp:91] Creating Layer inception_5b/3x3
I0403 15:40:17.624507 20149 net.cpp:425] inception_5b/3x3 <- inception_5b/3x3_reduce
I0403 15:40:17.624531 20149 net.cpp:399] inception_5b/3x3 -> inception_5b/3x3
I0403 15:40:17.631220 20149 net.cpp:141] Setting up inception_5b/3x3
I0403 15:40:17.631252 20149 net.cpp:148] Top shape: 24 384 7 7 (451584)
I0403 15:40:17.631268 20149 net.cpp:156] Memory required for data: 1332467232
I0403 15:40:17.631288 20149 layer_factory.hpp:77] Creating layer inception_5b/relu_3x3
I0403 15:40:17.631309 20149 net.cpp:91] Creating Layer inception_5b/relu_3x3
I0403 15:40:17.631328 20149 net.cpp:425] inception_5b/relu_3x3 <- inception_5b/3x3
I0403 15:40:17.631346 20149 net.cpp:386] inception_5b/relu_3x3 -> inception_5b/3x3 (in-place)
I0403 15:40:17.631649 20149 net.cpp:141] Setting up inception_5b/relu_3x3
I0403 15:40:17.631676 20149 net.cpp:148] Top shape: 24 384 7 7 (451584)
I0403 15:40:17.631691 20149 net.cpp:156] Memory required for data: 1334273568
I0403 15:40:17.631706 20149 layer_factory.hpp:77] Creating layer inception_5b/5x5_reduce
I0403 15:40:17.631747 20149 net.cpp:91] Creating Layer inception_5b/5x5_reduce
I0403 15:40:17.631767 20149 net.cpp:425] inception_5b/5x5_reduce <- inception_5a/output_inception_5a/output_0_split_2
I0403 15:40:17.631789 20149 net.cpp:399] inception_5b/5x5_reduce -> inception_5b/5x5_reduce
I0403 15:40:17.633080 20149 net.cpp:141] Setting up inception_5b/5x5_reduce
I0403 15:40:17.633111 20149 net.cpp:148] Top shape: 24 48 7 7 (56448)
I0403 15:40:17.633126 20149 net.cpp:156] Memory required for data: 1334499360
I0403 15:40:17.633147 20149 layer_factory.hpp:77] Creating layer inception_5b/relu_5x5_reduce
I0403 15:40:17.633165 20149 net.cpp:91] Creating Layer inception_5b/relu_5x5_reduce
I0403 15:40:17.633183 20149 net.cpp:425] inception_5b/relu_5x5_reduce <- inception_5b/5x5_reduce
I0403 15:40:17.633203 20149 net.cpp:386] inception_5b/relu_5x5_reduce -> inception_5b/5x5_reduce (in-place)
I0403 15:40:17.633580 20149 net.cpp:141] Setting up inception_5b/relu_5x5_reduce
I0403 15:40:17.633607 20149 net.cpp:148] Top shape: 24 48 7 7 (56448)
I0403 15:40:17.633622 20149 net.cpp:156] Memory required for data: 1334725152
I0403 15:40:17.633637 20149 layer_factory.hpp:77] Creating layer inception_5b/5x5
I0403 15:40:17.633657 20149 net.cpp:91] Creating Layer inception_5b/5x5
I0403 15:40:17.633676 20149 net.cpp:425] inception_5b/5x5 <- inception_5b/5x5_reduce
I0403 15:40:17.633693 20149 net.cpp:399] inception_5b/5x5 -> inception_5b/5x5
I0403 15:40:17.635809 20149 net.cpp:141] Setting up inception_5b/5x5
I0403 15:40:17.635839 20149 net.cpp:148] Top shape: 24 128 7 7 (150528)
I0403 15:40:17.635856 20149 net.cpp:156] Memory required for data: 1335327264
I0403 15:40:17.635875 20149 layer_factory.hpp:77] Creating layer inception_5b/relu_5x5
I0403 15:40:17.635897 20149 net.cpp:91] Creating Layer inception_5b/relu_5x5
I0403 15:40:17.635915 20149 net.cpp:425] inception_5b/relu_5x5 <- inception_5b/5x5
I0403 15:40:17.635934 20149 net.cpp:386] inception_5b/relu_5x5 -> inception_5b/5x5 (in-place)
I0403 15:40:17.636138 20149 net.cpp:141] Setting up inception_5b/relu_5x5
I0403 15:40:17.636165 20149 net.cpp:148] Top shape: 24 128 7 7 (150528)
I0403 15:40:17.636181 20149 net.cpp:156] Memory required for data: 1335929376
I0403 15:40:17.636195 20149 layer_factory.hpp:77] Creating layer inception_5b/pool
I0403 15:40:17.636215 20149 net.cpp:91] Creating Layer inception_5b/pool
I0403 15:40:17.636231 20149 net.cpp:425] inception_5b/pool <- inception_5a/output_inception_5a/output_0_split_3
I0403 15:40:17.636252 20149 net.cpp:399] inception_5b/pool -> inception_5b/pool
I0403 15:40:17.636325 20149 net.cpp:141] Setting up inception_5b/pool
I0403 15:40:17.636349 20149 net.cpp:148] Top shape: 24 832 7 7 (978432)
I0403 15:40:17.636363 20149 net.cpp:156] Memory required for data: 1339843104
I0403 15:40:17.636378 20149 layer_factory.hpp:77] Creating layer inception_5b/pool_proj
I0403 15:40:17.636399 20149 net.cpp:91] Creating Layer inception_5b/pool_proj
I0403 15:40:17.636417 20149 net.cpp:425] inception_5b/pool_proj <- inception_5b/pool
I0403 15:40:17.636437 20149 net.cpp:399] inception_5b/pool_proj -> inception_5b/pool_proj
I0403 15:40:17.638783 20149 net.cpp:141] Setting up inception_5b/pool_proj
I0403 15:40:17.638814 20149 net.cpp:148] Top shape: 24 128 7 7 (150528)
I0403 15:40:17.638831 20149 net.cpp:156] Memory required for data: 1340445216
I0403 15:40:17.638851 20149 layer_factory.hpp:77] Creating layer inception_5b/relu_pool_proj
I0403 15:40:17.638871 20149 net.cpp:91] Creating Layer inception_5b/relu_pool_proj
I0403 15:40:17.638890 20149 net.cpp:425] inception_5b/relu_pool_proj <- inception_5b/pool_proj
I0403 15:40:17.638907 20149 net.cpp:386] inception_5b/relu_pool_proj -> inception_5b/pool_proj (in-place)
I0403 15:40:17.639225 20149 net.cpp:141] Setting up inception_5b/relu_pool_proj
I0403 15:40:17.639252 20149 net.cpp:148] Top shape: 24 128 7 7 (150528)
I0403 15:40:17.639268 20149 net.cpp:156] Memory required for data: 1341047328
I0403 15:40:17.639282 20149 layer_factory.hpp:77] Creating layer inception_5b/output
I0403 15:40:17.639300 20149 net.cpp:91] Creating Layer inception_5b/output
I0403 15:40:17.639331 20149 net.cpp:425] inception_5b/output <- inception_5b/1x1
I0403 15:40:17.639348 20149 net.cpp:425] inception_5b/output <- inception_5b/3x3
I0403 15:40:17.639364 20149 net.cpp:425] inception_5b/output <- inception_5b/5x5
I0403 15:40:17.639380 20149 net.cpp:425] inception_5b/output <- inception_5b/pool_proj
I0403 15:40:17.639400 20149 net.cpp:399] inception_5b/output -> inception_5b/output
I0403 15:40:17.639456 20149 net.cpp:141] Setting up inception_5b/output
I0403 15:40:17.639479 20149 net.cpp:148] Top shape: 24 1024 7 7 (1204224)
I0403 15:40:17.639494 20149 net.cpp:156] Memory required for data: 1345864224
I0403 15:40:17.639508 20149 layer_factory.hpp:77] Creating layer pool5/7x7_s1
I0403 15:40:17.639526 20149 net.cpp:91] Creating Layer pool5/7x7_s1
I0403 15:40:17.639541 20149 net.cpp:425] pool5/7x7_s1 <- inception_5b/output
I0403 15:40:17.639561 20149 net.cpp:399] pool5/7x7_s1 -> pool5/7x7_s1
I0403 15:40:17.639780 20149 net.cpp:141] Setting up pool5/7x7_s1
I0403 15:40:17.639806 20149 net.cpp:148] Top shape: 24 1024 1 1 (24576)
I0403 15:40:17.639822 20149 net.cpp:156] Memory required for data: 1345962528
I0403 15:40:17.639837 20149 layer_factory.hpp:77] Creating layer pool5/drop_7x7_s1
I0403 15:40:17.639855 20149 net.cpp:91] Creating Layer pool5/drop_7x7_s1
I0403 15:40:17.639873 20149 net.cpp:425] pool5/drop_7x7_s1 <- pool5/7x7_s1
I0403 15:40:17.639891 20149 net.cpp:386] pool5/drop_7x7_s1 -> pool5/7x7_s1 (in-place)
I0403 15:40:17.639945 20149 net.cpp:141] Setting up pool5/drop_7x7_s1
I0403 15:40:17.639967 20149 net.cpp:148] Top shape: 24 1024 1 1 (24576)
I0403 15:40:17.639982 20149 net.cpp:156] Memory required for data: 1346060832
I0403 15:40:17.639997 20149 layer_factory.hpp:77] Creating layer loss3/classifier_plantvillage
I0403 15:40:17.640015 20149 net.cpp:91] Creating Layer loss3/classifier_plantvillage
I0403 15:40:17.640036 20149 net.cpp:425] loss3/classifier_plantvillage <- pool5/7x7_s1
I0403 15:40:17.640058 20149 net.cpp:399] loss3/classifier_plantvillage -> loss3/classifier_plantvillage
I0403 15:40:17.640496 20149 net.cpp:141] Setting up loss3/classifier_plantvillage
I0403 15:40:17.640521 20149 net.cpp:148] Top shape: 24 38 (912)
I0403 15:40:17.640535 20149 net.cpp:156] Memory required for data: 1346064480
I0403 15:40:17.640552 20149 layer_factory.hpp:77] Creating layer loss3/classifier_plantvillage_loss3/classifier_plantvillage_0_split
I0403 15:40:17.640573 20149 net.cpp:91] Creating Layer loss3/classifier_plantvillage_loss3/classifier_plantvillage_0_split
I0403 15:40:17.640590 20149 net.cpp:425] loss3/classifier_plantvillage_loss3/classifier_plantvillage_0_split <- loss3/classifier_plantvillage
I0403 15:40:17.640610 20149 net.cpp:399] loss3/classifier_plantvillage_loss3/classifier_plantvillage_0_split -> loss3/classifier_plantvillage_loss3/classifier_plantvillage_0_split_0
I0403 15:40:17.640631 20149 net.cpp:399] loss3/classifier_plantvillage_loss3/classifier_plantvillage_0_split -> loss3/classifier_plantvillage_loss3/classifier_plantvillage_0_split_1
I0403 15:40:17.640651 20149 net.cpp:399] loss3/classifier_plantvillage_loss3/classifier_plantvillage_0_split -> loss3/classifier_plantvillage_loss3/classifier_plantvillage_0_split_2
I0403 15:40:17.640672 20149 net.cpp:399] loss3/classifier_plantvillage_loss3/classifier_plantvillage_0_split -> loss3/classifier_plantvillage_loss3/classifier_plantvillage_0_split_3
I0403 15:40:17.640774 20149 net.cpp:141] Setting up loss3/classifier_plantvillage_loss3/classifier_plantvillage_0_split
I0403 15:40:17.640797 20149 net.cpp:148] Top shape: 24 38 (912)
I0403 15:40:17.640813 20149 net.cpp:148] Top shape: 24 38 (912)
I0403 15:40:17.640830 20149 net.cpp:148] Top shape: 24 38 (912)
I0403 15:40:17.640846 20149 net.cpp:148] Top shape: 24 38 (912)
I0403 15:40:17.640858 20149 net.cpp:156] Memory required for data: 1346079072
I0403 15:40:17.640872 20149 layer_factory.hpp:77] Creating layer loss1/loss
I0403 15:40:17.640893 20149 net.cpp:91] Creating Layer loss1/loss
I0403 15:40:17.640910 20149 net.cpp:425] loss1/loss <- loss1/classifier_plantvillage_loss1/classifier_plantvillage_0_split_0
I0403 15:40:17.640940 20149 net.cpp:425] loss1/loss <- label_data_1_split_0
…
