…
I0403 16:10:38.243489 20805 net.cpp:313] The NetState phase (1) differed from the phase (0) specified by a rule in layer data
I0403 16:10:38.244726 20805 net.cpp:49] Initializing net from parameters: 
state {
  phase: TEST
}
layer {
  name: "data"
  type: "Data"
  top: "data"
  top: "label"
  include {
    phase: TEST
  }
  transform_param {
    mirror: false
    crop_size: 224
    mean_file: "/home/mohanty/data/final_dataset/lmdb/grayscale-20-80/mean.binaryproto"
  }
  data_param {
    source: "/home/mohanty/data/final_dataset/lmdb/grayscale-20-80/test_db"
    batch_size: 24
    backend: LMDB
  }
}
layer {
  name: "conv1/7x7_s2"
  type: "Convolution"
  bottom: "data"
  top: "conv1/7x7_s2"
  param {
    lr_mult: 1
    decay_mult: 1
  }
  param {
    lr_mult: 2
    decay_mult: 0
  }
  convolution_param {
    num_output: 64
    pad: 3
    kernel_size: 7
    stride: 2
    weight_filler {
      type: "xavier"
      std: 0.1
    }
    bias_filler {
      type: "constant"
      value: 0.2
    }
  }
}
layer {
  name: "conv1/relu_7x7"
  type: "ReLU"
  bottom: "conv1/7x7_s2"
  top: "conv1/7x7_s2"
}
layer {
  name: "pool1/3x3_s2"
  type: "Pooling"
  bottom: "conv1/7x7_s2"
  top: "pool1/3x3_s2"
  pooling_param {
    pool: MAX
    kernel_size: 3
    stride: 2
  }
}
layer {
  name: "pool1/norm1"
  type: "LRN"
  bottom: "pool1/3x3_s2"
  top: "pool1/norm1"
  lrn_param {
    local_size: 5
    alpha: 0.0001
    beta: 0.75
  }
}
layer {
  name: "conv2/3x3_reduce"
  type: "Convolution"
  bottom: "pool1/norm1"
  top: "conv2/3x3_reduce"
  param {
    lr_mult: 1
    decay_mult: 1
  }
  param {
    lr_mult: 2
    decay_mult: 0
  }
  convolution_param {
    num_output: 64
    kernel_size: 1
    weight_filler {
      type: "xavier"
      std: 0.1
    }
    bias_filler {
      type: "constant"
      value: 0.2
    }
  }
}
layer {
  name: "conv2/relu_3x3_reduce"
  type: "ReLU"
  bottom: "conv2/3x3_reduce"
  top: "conv2/3x3_reduce"
}
layer {
  name: "conv2/3x3"
  type: "Convolution"
  bottom: "conv2/3x3_reduce"
  top: "conv2/3x3"
  param {
    lr_mult: 1
    decay_mult: 1
  }
  param {
    lr_mult: 2
    decay_mult: 0
  }
  convolution_param {
    num_output: 192
    pad: 1
    kernel_size: 3
    weight_filler {
      type: "xavier"
      std: 0.03
    }
    bias_filler {
      type: "constant"
      value: 0.2
    }
  }
}
layer {
  name: "conv2/relu_3x3"
  type: "ReLU"
  bottom: "conv2/3x3"
  top: "conv2/3x3"
}
layer {
  name: "conv2/norm2"
  type: "LRN"
  bottom: "conv2/3x3"
  top: "conv2/norm2"
  lrn_param {
    local_size: 5
    alpha: 0.0001
    beta: 0.75
  }
}
layer {
  name: "pool2/3x3_s2"
  type: "Pooling"
  bottom: "conv2/norm2"
  top: "pool2/3x3_s2"
  pooling_param {
    pool: MAX
    kernel_size: 3
    stride: 2
  }
}
layer {
  name: "inception_3a/1x1"
  type: "Convolution"
  bottom: "pool2/3x3_s2"
  top: "inception_3a/1x1"
  param {
    lr_mult: 1
    decay_mult: 1
  }
  param {
    lr_mult: 2
    decay_mult: 0
  }
  convolution_param {
    num_output: 64
    kernel_size: 1
    weight_filler {
      type: "xavier"
      std: 0.03
    }
    bias_filler {
      type: "constant"
      value: 0.2
    }
  }
}
layer {
  name: "inception_3a/relu_1x1"
  type: "ReLU"
  bottom: "inception_3a/1x1"
  top: "inception_3a/1x1"
}
layer {
  name: "inception_3a/3x3_reduce"
  type: "Convolution"
  bottom: "pool2/3x3_s2"
  top: "inception_3a/3x3_reduce"
  param {
    lr_mult: 1
    decay_mult: 1
  }
  param {
    lr_mult: 2
    decay_mult: 0
  }
  convolution_param {
    num_output: 96
    kernel_size: 1
    weight_filler {
      type: "xavier"
      std: 0.09
    }
    bias_filler {
      type: "constant"
      value: 0.2
    }
  }
}
layer {
  name: "inception_3a/relu_3x3_reduce"
  type: "ReLU"
  bottom: "inception_3a/3x3_reduce"
  top: "inception_3a/3x3_reduce"
}
layer {
  name: "inception_3a/3x3"
  type: "Convolution"
  bottom: "inception_3a/3x3_reduce"
  top: "inception_3a/3x3"
  param {
    lr_mult: 1
    decay_mult: 1
  }
  param {
    lr_mult: 2
    decay_mult: 0
  }
  convolution_param {
    num_output: 128
    pad: 1
    kernel_size: 3
    weight_filler {
      type: "xavier"
      std: 0.03
    }
    bias_filler {
      type: "constant"
      value: 0.2
    }
  }
}
layer {
  name: "inception_3a/relu_3x3"
  type: "ReLU"
  bottom: "inception_3a/3x3"
  top: "inception_3a/3x3"
}
layer {
  name: "inception_3a/5x5_reduce"
  type: "Convolution"
  bottom: "pool2/3x3_s2"
  top: "inception_3a/5x5_reduce"
  param {
    lr_mult: 1
    decay_mult: 1
  }
  param {
    lr_mult: 2
    decay_mult: 0
  }
  convolution_param {
    num_output: 16
    kernel_size: 1
    weight_filler {
      type: "xavier"
      std: 0.2
    }
    bias_filler {
      type: "constant"
      value: 0.2
    }
  }
}
layer {
  name: "inception_3a/relu_5x5_reduce"
  type: "ReLU"
  bottom: "inception_3a/5x5_reduce"
  top: "inception_3a/5x5_reduce"
}
layer {
  name: "inception_3a/5x5"
  type: "Convolution"
  bottom: "inception_3a/5x5_reduce"
  top: "inception_3a/5x5"
  param {
    lr_mult: 1
    decay_mult: 1
  }
  param {
    lr_mult: 2
    decay_mult: 0
  }
  convolution_param {
    num_output: 32
    pad: 2
    kernel_size: 5
    weight_filler {
      type: "xavier"
      std: 0.03
    }
    bias_filler {
      type: "constant"
      value: 0.2
    }
  }
}
layer {
  name: "inception_3a/relu_5x5"
  type: "ReLU"
  bottom: "inception_3a/5x5"
  top: "inception_3a/5x5"
}
layer {
  name: "inception_3a/pool"
  type: "Pooling"
  bottom: "pool2/3x3_s2"
  top: "inception_3a/pool"
  pooling_param {
    pool: MAX
    kernel_size: 3
    stride: 1
    pad: 1
  }
}
layer {
  name: "inception_3a/pool_proj"
  type: "Convolution"
  bottom: "inception_3a/pool"
  top: "inception_3a/pool_proj"
  param {
    lr_mult: 1
    decay_mult: 1
  }
  param {
    lr_mult: 2
    decay_mult: 0
  }
  convolution_param {
    num_output: 32
    kernel_size: 1
    weight_filler {
      type: "xavier"
      std: 0.1
    }
    bias_filler {
      type: "constant"
      value: 0.2
    }
  }
}
layer {
  name: "inception_3a/relu_pool_proj"
  type: "ReLU"
  bottom: "inception_3a/pool_proj"
  top: "inception_3a/pool_proj"
}
layer {
  name: "inception_3a/output"
  type: "Concat"
  bottom: "inception_3a/1x1"
  bottom: "inception_3a/3x3"
  bottom: "inception_3a/5x5"
  bottom: "inception_3a/pool_proj"
  top: "inception_3a/output"
}
layer {
  name: "inception_3b/1x1"
  type: "Convolution"
  bottom: "inception_3a/output"
  top: "inception_3b/1x1"
  param {
    lr_mult: 1
    decay_mult: 1
  }
  param {
    lr_mult: 2
    decay_mult: 0
  }
  convolution_param {
    num_output: 128
    kernel_size: 1
    weight_filler {
      type: "xavier"
      std: 0.03
    }
    bias_filler {
      type: "constant"
      value: 0.2
    }
  }
}
layer {
  name: "inception_3b/relu_1x1"
  type: "ReLU"
  bottom: "inception_3b/1x1"
  top: "inception_3b/1x1"
}
layer {
  name: "inception_3b/3x3_reduce"
  type: "Convolution"
  bottom: "inception_3a/output"
  top: "inception_3b/3x3_reduce"
  param {
    lr_mult: 1
    decay_mult: 1
  }
  param {
    lr_mult: 2
    decay_mult: 0
  }
  convolution_param {
    num_output: 128
    kernel_size: 1
    weight_filler {
      type: "xavier"
      std: 0.09
    }
    bias_filler {
      type: "constant"
      value: 0.2
    }
  }
}
layer {
  name: "inception_3b/relu_3x3_reduce"
  type: "ReLU"
  bottom: "inception_3b/3x3_reduce"
  top: "inception_3b/3x3_reduce"
}
layer {
  name: "inception_3b/3x3"
  type: "Convolution"
  bottom: "inception_3b/3x3_reduce"
  top: "inception_3b/3x3"
  param {
    lr_mult: 1
    decay_mult: 1
  }
  param {
    lr_mult: 2
    decay_mult: 0
  }
  convolution_param {
    num_output: 192
    pad: 1
    kernel_size: 3
    weight_filler {
      type: "xavier"
      std: 0.03
    }
    bias_filler {
      type: "constant"
      value: 0.2
    }
  }
}
layer {
  name: "inception_3b/relu_3x3"
  type: "ReLU"
  bottom: "inception_3b/3x3"
  top: "inception_3b/3x3"
}
layer {
  name: "inception_3b/5x5_reduce"
  type: "Convolution"
  bottom: "inception_3a/output"
  top: "inception_3b/5x5_reduce"
  param {
    lr_mult: 1
    decay_mult: 1
  }
  param {
    lr_mult: 2
    decay_mult: 0
  }
  convolution_param {
    num_output: 32
    kernel_size: 1
    weight_filler {
      type: "xavier"
      std: 0.2
    }
    bias_filler {
      type: "constant"
      value: 0.2
    }
  }
}
layer {
  name: "inception_3b/relu_5x5_reduce"
  type: "ReLU"
  bottom: "inception_3b/5x5_reduce"
  top: "inception_3b/5x5_reduce"
}
layer {
  name: "inception_3b/5x5"
  type: "Convolution"
  bottom: "inception_3b/5x5_reduce"
  top: "inception_3b/5x5"
  param {
    lr_mult: 1
    decay_mult: 1
  }
  param {
    lr_mult: 2
    decay_mult: 0
  }
  convolution_param {
    num_output: 96
    pad: 2
    kernel_size: 5
    weight_filler {
      type: "xavier"
      std: 0.03
    }
    bias_filler {
      type: "constant"
      value: 0.2
    }
  }
}
layer {
  name: "inception_3b/relu_5x5"
  type: "ReLU"
  bottom: "inception_3b/5x5"
  top: "inception_3b/5x5"
}
layer {
  name: "inception_3b/pool"
  type: "Pooling"
  bottom: "inception_3a/output"
  top: "inception_3b/pool"
  pooling_param {
    pool: MAX
    kernel_size: 3
    stride: 1
    pad: 1
  }
}
layer {
  name: "inception_3b/pool_proj"
  type: "Convolution"
  bottom: "inception_3b/pool"
  top: "inception_3b/pool_proj"
  param {
    lr_mult: 1
    decay_mult: 1
  }
  param {
    lr_mult: 2
    decay_mult: 0
  }
  convolution_param {
    num_output: 64
    kernel_size: 1
    weight_filler {
      type: "xavier"
      std: 0.1
    }
    bias_filler {
      type: "constant"
      value: 0.2
    }
  }
}
layer {
  name: "inception_3b/relu_pool_proj"
  type: "ReLU"
  bottom: "inception_3b/pool_proj"
  top: "inception_3b/pool_proj"
}
layer {
  name: "inception_3b/output"
  type: "Concat"
  bottom: "inception_3b/1x1"
  bottom: "inception_3b/3x3"
  bottom: "inception_3b/5x5"
  bottom: "inception_3b/pool_proj"
  top: "inception_3b/output"
}
layer {
  name: "pool3/3x3_s2"
  type: "Pooling"
  bottom: "inception_3b/output"
  top: "pool3/3x3_s2"
  pooling_param {
    pool: MAX
    kernel_size: 3
    stride: 2
  }
}
layer {
  name: "inception_4a/1x1"
  type: "Convolution"
  bottom: "pool3/3x3_s2"
  top: "inception_4a/1x1"
  param {
    lr_mult: 1
    decay_mult: 1
  }
  param {
    lr_mult: 2
    decay_mult: 0
  }
  convolution_param {
    num_output: 192
    kernel_size: 1
    weight_filler {
      type: "xavier"
      std: 0.03
    }
    bias_filler {
      type: "constant"
      value: 0.2
    }
  }
}
layer {
  name: "inception_4a/relu_1x1"
  type: "ReLU"
  bottom: "inception_4a/1x1"
  top: "inception_4a/1x1"
}
layer {
  name: "inception_4a/3x3_reduce"
  type: "Convolution"
  bottom: "pool3/3x3_s2"
  top: "inception_4a/3x3_reduce"
  param {
    lr_mult: 1
    decay_mult: 1
  }
  param {
    lr_mult: 2
    decay_mult: 0
  }
  convolution_param {
    num_output: 96
    kernel_size: 1
    weight_filler {
      type: "xavier"
      std: 0.09
    }
    bias_filler {
      type: "constant"
      value: 0.2
    }
  }
}
layer {
  name: "inception_4a/relu_3x3_reduce"
  type: "ReLU"
  bottom: "inception_4a/3x3_reduce"
  top: "inception_4a/3x3_reduce"
}
layer {
  name: "inception_4a/3x3"
  type: "Convolution"
  bottom: "inception_4a/3x3_reduce"
  top: "inception_4a/3x3"
  param {
    lr_mult: 1
    decay_mult: 1
  }
  param {
    lr_mult: 2
    decay_mult: 0
  }
  convolution_param {
    num_output: 208
    pad: 1
    kernel_size: 3
    weight_filler {
      type: "xavier"
      std: 0.03
    }
    bias_filler {
      type: "constant"
      value: 0.2
    }
  }
}
layer {
  name: "inception_4a/relu_3x3"
  type: "ReLU"
  bottom: "inception_4a/3x3"
  top: "inception_4a/3x3"
}
layer {
  name: "inception_4a/5x5_reduce"
  type: "Convolution"
  bottom: "pool3/3x3_s2"
  top: "inception_4a/5x5_reduce"
  param {
    lr_mult: 1
    decay_mult: 1
  }
  param {
    lr_mult: 2
    decay_mult: 0
  }
  convolution_param {
    num_output: 16
    kernel_size: 1
    weight_filler {
      type: "xavier"
      std: 0.2
    }
    bias_filler {
      type: "constant"
      value: 0.2
    }
  }
}
layer {
  name: "inception_4a/relu_5x5_reduce"
  type: "ReLU"
  bottom: "inception_4a/5x5_reduce"
  top: "inception_4a/5x5_reduce"
}
layer {
  name: "inception_4a/5x5"
  type: "Convolution"
  bottom: "inception_4a/5x5_reduce"
  top: "inception_4a/5x5"
  param {
    lr_mult: 1
    decay_mult: 1
  }
  param {
    lr_mult: 2
    decay_mult: 0
  }
  convolution_param {
    num_output: 48
    pad: 2
    kernel_size: 5
    weight_filler {
      type: "xavier"
      std: 0.03
    }
    bias_filler {
      type: "constant"
      value: 0.2
    }
  }
}
layer {
  name: "inception_4a/relu_5x5"
  type: "ReLU"
  bottom: "inception_4a/5x5"
  top: "inception_4a/5x5"
}
layer {
  name: "inception_4a/pool"
  type: "Pooling"
  bottom: "pool3/3x3_s2"
  top: "inception_4a/pool"
  pooling_param {
    pool: MAX
    kernel_size: 3
    stride: 1
    pad: 1
  }
}
layer {
  name: "inception_4a/pool_proj"
  type: "Convolution"
  bottom: "inception_4a/pool"
  top: "inception_4a/pool_proj"
  param {
    lr_mult: 1
    decay_mult: 1
  }
  param {
    lr_mult: 2
    decay_mult: 0
  }
  convolution_param {
    num_output: 64
    kernel_size: 1
    weight_filler {
      type: "xavier"
      std: 0.1
    }
    bias_filler {
      type: "constant"
      value: 0.2
    }
  }
}
layer {
  name: "inception_4a/relu_pool_proj"
  type: "ReLU"
  bottom: "inception_4a/pool_proj"
  top: "inception_4a/pool_proj"
}
layer {
  name: "inception_4a/output"
  type: "Concat"
  bottom: "inception_4a/1x1"
  bottom: "inception_4a/3x3"
  bottom: "inception_4a/5x5"
  bottom: "inception_4a/pool_proj"
  top: "inception_4a/output"
}
layer {
  name: "loss1/ave_pool"
  type: "Pooling"
  bottom: "inception_4a/output"
  top: "loss1/ave_pool"
  pooling_param {
    pool: AVE
    kernel_size: 5
    stride: 3
  }
}
layer {
  name: "loss1/conv"
  type: "Convolution"
  bottom: "loss1/ave_pool"
  top: "loss1/conv"
  param {
    lr_mult: 1
    decay_mult: 1
  }
  param {
    lr_mult: 2
    decay_mult: 0
  }
  convolution_param {
    num_output: 128
    kernel_size: 1
    weight_filler {
      type: "xavier"
      std: 0.08
    }
    bias_filler {
      type: "constant"
      value: 0.2
    }
  }
}
layer {
  name: "loss1/relu_conv"
  type: "ReLU"
  bottom: "loss1/conv"
  top: "loss1/conv"
}
layer {
  name: "loss1/fc"
  type: "InnerProduct"
  bottom: "loss1/conv"
  top: "loss1/fc"
  param {
    lr_mult: 1
    decay_mult: 1
  }
  param {
    lr_mult: 2
    decay_mult: 0
  }
  inner_product_param {
    num_output: 1024
    weight_filler {
      type: "xavier"
      std: 0.02
    }
    bias_filler {
      type: "constant"
      value: 0.2
    }
  }
}
layer {
  name: "loss1/relu_fc"
  type: "ReLU"
  bottom: "loss1/fc"
  top: "loss1/fc"
}
layer {
  name: "loss1/drop_fc"
  type: "Dropout"
  bottom: "loss1/fc"
  top: "loss1/fc"
  dropout_param {
    dropout_ratio: 0.7
  }
}
layer {
  name: "loss1/classifier_plantvillage"
  type: "InnerProduct"
  bottom: "loss1/fc"
  top: "loss1/classifier_plantvillage"
  param {
    lr_mult: 1
    decay_mult: 1
  }
  param {
    lr_mult: 2
    decay_mult: 0
  }
  inner_product_param {
    num_output: 38
    weight_filler {
      type: "xavier"
      std: 0.0009765625
    }
    bias_filler {
      type: "constant"
      value: 0
    }
  }
}
layer {
  name: "inception_4b/1x1"
  type: "Convolution"
  bottom: "inception_4a/output"
  top: "inception_4b/1x1"
  param {
    lr_mult: 1
    decay_mult: 1
  }
  param {
    lr_mult: 2
    decay_mult: 0
  }
  convolution_param {
    num_output: 160
    kernel_size: 1
    weight_filler {
      type: "xavier"
      std: 0.03
    }
    bias_filler {
      type: "constant"
      value: 0.2
    }
  }
}
layer {
  name: "inception_4b/relu_1x1"
  type: "ReLU"
  bottom: "inception_4b/1x1"
  top: "inception_4b/1x1"
}
layer {
  name: "inception_4b/3x3_reduce"
  type: "Convolution"
  bottom: "inception_4a/output"
  top: "inception_4b/3x3_reduce"
  param {
    lr_mult: 1
    decay_mult: 1
  }
  param {
    lr_mult: 2
    decay_mult: 0
  }
  convolution_param {
    num_output: 112
    kernel_size: 1
    weight_filler {
      type: "xavier"
      std: 0.09
    }
    bias_filler {
      type: "constant"
      value: 0.2
    }
  }
}
layer {
  name: "inception_4b/relu_3x3_reduce"
  type: "ReLU"
  bottom: "inception_4b/3x3_reduce"
  top: "inception_4b/3x3_reduce"
}
layer {
  name: "inception_4b/3x3"
  type: "Convolution"
  bottom: "inception_4b/3x3_reduce"
  top: "inception_4b/3x3"
  param {
    lr_mult: 1
    decay_mult: 1
  }
  param {
    lr_mult: 2
    decay_mult: 0
  }
  convolution_param {
    num_output: 224
    pad: 1
    kernel_size: 3
    weight_filler {
      type: "xavier"
      std: 0.03
    }
    bias_filler {
      type: "constant"
      value: 0.2
    }
  }
}
layer {
  name: "inception_4b/relu_3x3"
  type: "ReLU"
  bottom: "inception_4b/3x3"
  top: "inception_4b/3x3"
}
layer {
  name: "inception_4b/5x5_reduce"
  type: "Convolution"
  bottom: "inception_4a/output"
  top: "inception_4b/5x5_reduce"
  param {
    lr_mult: 1
    decay_mult: 1
  }
  param {
    lr_mult: 2
    decay_mult: 0
  }
  convolution_param {
    num_output: 24
    kernel_size: 1
    weight_filler {
      type: "xavier"
      std: 0.2
    }
    bias_filler {
      type: "constant"
      value: 0.2
    }
  }
}
layer {
  name: "inception_4b/relu_5x5_reduce"
  type: "ReLU"
  bottom: "inception_4b/5x5_reduce"
  top: "inception_4b/5x5_reduce"
}
layer {
  name: "inception_4b/5x5"
  type: "Convolution"
  bottom: "inception_4b/5x5_reduce"
  top: "inception_4b/5x5"
  param {
    lr_mult: 1
    decay_mult: 1
  }
  param {
    lr_mult: 2
    decay_mult: 0
  }
  convolution_param {
    num_output: 64
    pad: 2
    kernel_size: 5
    weight_filler {
      type: "xavier"
      std: 0.03
    }
    bias_filler {
      type: "constant"
      value: 0.2
    }
  }
}
layer {
  name: "inception_4b/relu_5x5"
  type: "ReLU"
  bottom: "inception_4b/5x5"
  top: "inception_4b/5x5"
}
layer {
  name: "inception_4b/pool"
  type: "Pooling"
  bottom: "inception_4a/output"
  top: "inception_4b/pool"
  pooling_param {
    pool: MAX
    kernel_size: 3
    stride: 1
    pad: 1
  }
}
layer {
  name: "inception_4b/pool_proj"
  type: "Convolution"
  bottom: "inception_4b/pool"
  top: "inception_4b/pool_proj"
  param {
    lr_mult: 1
    decay_mult: 1
  }
  param {
    lr_mult: 2
    decay_mult: 0
  }
  convolution_param {
    num_output: 64
    kernel_size: 1
    weight_filler {
      type: "xavier"
      std: 0.1
    }
    bias_filler {
      type: "constant"
      value: 0.2
    }
  }
}
layer {
  name: "inception_4b/relu_pool_proj"
  type: "ReLU"
  bottom: "inception_4b/pool_proj"
  top: "inception_4b/pool_proj"
}
layer {
  name: "inception_4b/output"
  type: "Concat"
  bottom: "inception_4b/1x1"
  bottom: "inception_4b/3x3"
  bottom: "inception_4b/5x5"
  bottom: "inception_4b/pool_proj"
  top: "inception_4b/output"
}
layer {
  name: "inception_4c/1x1"
  type: "Convolution"
  bottom: "inception_4b/output"
  top: "inception_4c/1x1"
  param {
    lr_mult: 1
    decay_mult: 1
  }
  param {
    lr_mult: 2
    decay_mult: 0
  }
  convolution_param {
    num_output: 128
    kernel_size: 1
    weight_filler {
      type: "xavier"
      std: 0.03
    }
    bias_filler {
      type: "constant"
      value: 0.2
    }
  }
}
layer {
  name: "inception_4c/relu_1x1"
  type: "ReLU"
  bottom: "inception_4c/1x1"
  top: "inception_4c/1x1"
}
layer {
  name: "inception_4c/3x3_reduce"
  type: "Convolution"
  bottom: "inception_4b/output"
  top: "inception_4c/3x3_reduce"
  param {
    lr_mult: 1
    decay_mult: 1
  }
  param {
    lr_mult: 2
    decay_mult: 0
  }
  convolution_param {
    num_output: 128
    kernel_size: 1
    weight_filler {
      type: "xavier"
      std: 0.09
    }
    bias_filler {
      type: "constant"
      value: 0.2
    }
  }
}
layer {
  name: "inception_4c/relu_3x3_reduce"
  type: "ReLU"
  bottom: "inception_4c/3x3_reduce"
  top: "inception_4c/3x3_reduce"
}
layer {
  name: "inception_4c/3x3"
  type: "Convolution"
  bottom: "inception_4c/3x3_reduce"
  top: "inception_4c/3x3"
  param {
    lr_mult: 1
    decay_mult: 1
  }
  param {
    lr_mult: 2
    decay_mult: 0
  }
  convolution_param {
    num_output: 256
    pad: 1
    kernel_size: 3
    weight_filler {
      type: "xavier"
      std: 0.03
    }
    bias_filler {
      type: "constant"
      value: 0.2
    }
  }
}
layer {
  name: "inception_4c/relu_3x3"
  type: "ReLU"
  bottom: "inception_4c/3x3"
  top: "inception_4c/3x3"
}
layer {
  name: "inception_4c/5x5_reduce"
  type: "Convolution"
  bottom: "inception_4b/output"
  top: "inception_4c/5x5_reduce"
  param {
    lr_mult: 1
    decay_mult: 1
  }
  param {
    lr_mult: 2
    decay_mult: 0
  }
  convolution_param {
    num_output: 24
    kernel_size: 1
    weight_filler {
      type: "xavier"
      std: 0.2
    }
    bias_filler {
      type: "constant"
      value: 0.2
    }
  }
}
layer {
  name: "inception_4c/relu_5x5_reduce"
  type: "ReLU"
  bottom: "inception_4c/5x5_reduce"
  top: "inception_4c/5x5_reduce"
}
layer {
  name: "inception_4c/5x5"
  type: "Convolution"
  bottom: "inception_4c/5x5_reduce"
  top: "inception_4c/5x5"
  param {
    lr_mult: 1
    decay_mult: 1
  }
  param {
    lr_mult: 2
    decay_mult: 0
  }
  convolution_param {
    num_output: 64
    pad: 2
    kernel_size: 5
    weight_filler {
      type: "xavier"
      std: 0.03
    }
    bias_filler {
      type: "constant"
      value: 0.2
    }
  }
}
layer {
  name: "inception_4c/relu_5x5"
  type: "ReLU"
  bottom: "inception_4c/5x5"
  top: "inception_4c/5x5"
}
layer {
  name: "inception_4c/pool"
  type: "Pooling"
  bottom: "inception_4b/output"
  top: "inception_4c/pool"
  pooling_param {
    pool: MAX
    kernel_size: 3
    stride: 1
    pad: 1
  }
}
layer {
  name: "inception_4c/pool_proj"
  type: "Convolution"
  bottom: "inception_4c/pool"
  top: "inception_4c/pool_proj"
  param {
    lr_mult: 1
    decay_mult: 1
  }
  param {
    lr_mult: 2
    decay_mult: 0
  }
  convolution_param {
    num_output: 64
    kernel_size: 1
    weight_filler {
      type: "xavier"
      std: 0.1
    }
    bias_filler {
      type: "constant"
      value: 0.2
    }
  }
}
layer {
  name: "inception_4c/relu_pool_proj"
  type: "ReLU"
  bottom: "inception_4c/pool_proj"
  top: "inception_4c/pool_proj"
}
layer {
  name: "inception_4c/output"
  type: "Concat"
  bottom: "inception_4c/1x1"
  bottom: "inception_4c/3x3"
  bottom: "inception_4c/5x5"
  bottom: "inception_4c/pool_proj"
  top: "inception_4c/output"
}
layer {
  name: "inception_4d/1x1"
  type: "Convolution"
  bottom: "inception_4c/output"
  top: "inception_4d/1x1"
  param {
    lr_mult: 1
    decay_mult: 1
  }
  param {
    lr_mult: 2
    decay_mult: 0
  }
  convolution_param {
    num_output: 112
    kernel_size: 1
    weight_filler {
      type: "xavier"
      std: 0.03
    }
    bias_filler {
      type: "constant"
      value: 0.2
    }
  }
}
layer {
  name: "inception_4d/relu_1x1"
  type: "ReLU"
  bottom: "inception_4d/1x1"
  top: "inception_4d/1x1"
}
layer {
  name: "inception_4d/3x3_reduce"
  type: "Convolution"
  bottom: "inception_4c/output"
  top: "inception_4d/3x3_reduce"
  param {
    lr_mult: 1
    decay_mult: 1
  }
  param {
    lr_mult: 2
    decay_mult: 0
  }
  convolution_param {
    num_output: 144
    kernel_size: 1
    weight_filler {
      type: "xavier"
      std: 0.09
    }
    bias_filler {
      type: "constant"
      value: 0.2
    }
  }
}
layer {
  name: "inception_4d/relu_3x3_reduce"
  type: "ReLU"
  bottom: "inception_4d/3x3_reduce"
  top: "inception_4d/3x3_reduce"
}
layer {
  name: "inception_4d/3x3"
  type: "Convolution"
  bottom: "inception_4d/3x3_reduce"
  top: "inception_4d/3x3"
  param {
    lr_mult: 1
    decay_mult: 1
  }
  param {
    lr_mult: 2
    decay_mult: 0
  }
  convolution_param {
    num_output: 288
    pad: 1
    kernel_size: 3
    weight_filler {
      type: "xavier"
      std: 0.03
    }
    bias_filler {
      type: "constant"
      value: 0.2
    }
  }
}
layer {
  name: "inception_4d/relu_3x3"
  type: "ReLU"
  bottom: "inception_4d/3x3"
  top: "inception_4d/3x3"
}
layer {
  name: "inception_4d/5x5_reduce"
  type: "Convolution"
  bottom: "inception_4c/output"
  top: "inception_4d/5x5_reduce"
  param {
    lr_mult: 1
    decay_mult: 1
  }
  param {
    lr_mult: 2
    decay_mult: 0
  }
  convolution_param {
    num_output: 32
    kernel_size: 1
    weight_filler {
      type: "xavier"
      std: 0.2
    }
    bias_filler {
      type: "constant"
      value: 0.2
    }
  }
}
layer {
  name: "inception_4d/relu_5x5_reduce"
  type: "ReLU"
  bottom: "inception_4d/5x5_reduce"
  top: "inception_4d/5x5_reduce"
}
layer {
  name: "inception_4d/5x5"
  type: "Convolution"
  bottom: "inception_4d/5x5_reduce"
  top: "inception_4d/5x5"
  param {
    lr_mult: 1
    decay_mult: 1
  }
  param {
    lr_mult: 2
    decay_mult: 0
  }
  convolution_param {
    num_output: 64
    pad: 2
    kernel_size: 5
    weight_filler {
      type: "xavier"
      std: 0.03
    }
    bias_filler {
      type: "constant"
      value: 0.2
    }
  }
}
layer {
  name: "inception_4d/relu_5x5"
  type: "ReLU"
  bottom: "inception_4d/5x5"
  top: "inception_4d/5x5"
}
layer {
  name: "inception_4d/pool"
  type: "Pooling"
  bottom: "inception_4c/output"
  top: "inception_4d/pool"
  pooling_param {
    pool: MAX
    kernel_size: 3
    stride: 1
    pad: 1
  }
}
layer {
  name: "inception_4d/pool_proj"
  type: "Convolution"
  bottom: "inception_4d/pool"
  top: "inception_4d/pool_proj"
  param {
    lr_mult: 1
    decay_mult: 1
  }
  param {
    lr_mult: 2
    decay_mult: 0
  }
  convolution_param {
    num_output: 64
    kernel_size: 1
    weight_filler {
      type: "xavier"
      std: 0.1
    }
    bias_filler {
      type: "constant"
      value: 0.2
    }
  }
}
layer {
  name: "inception_4d/relu_pool_proj"
  type: "ReLU"
  bottom: "inception_4d/pool_proj"
  top: "inception_4d/pool_proj"
}
layer {
  name: "inception_4d/output"
  type: "Concat"
  bottom: "inception_4d/1x1"
  bottom: "inception_4d/3x3"
  bottom: "inception_4d/5x5"
  bottom: "inception_4d/pool_proj"
  top: "inception_4d/output"
}
layer {
  name: "loss2/ave_pool"
  type: "Pooling"
  bottom: "inception_4d/output"
  top: "loss2/ave_pool"
  pooling_param {
    pool: AVE
    kernel_size: 5
    stride: 3
  }
}
layer {
  name: "loss2/conv"
  type: "Convolution"
  bottom: "loss2/ave_pool"
  top: "loss2/conv"
  param {
    lr_mult: 1
    decay_mult: 1
  }
  param {
    lr_mult: 2
    decay_mult: 0
  }
  convolution_param {
    num_output: 128
    kernel_size: 1
    weight_filler {
      type: "xavier"
      std: 0.08
    }
    bias_filler {
      type: "constant"
      value: 0.2
    }
  }
}
layer {
  name: "loss2/relu_conv"
  type: "ReLU"
  bottom: "loss2/conv"
  top: "loss2/conv"
}
layer {
  name: "loss2/fc"
  type: "InnerProduct"
  bottom: "loss2/conv"
  top: "loss2/fc"
  param {
    lr_mult: 1
    decay_mult: 1
  }
  param {
    lr_mult: 2
    decay_mult: 0
  }
  inner_product_param {
    num_output: 1024
    weight_filler {
      type: "xavier"
      std: 0.02
    }
    bias_filler {
      type: "constant"
      value: 0.2
    }
  }
}
layer {
  name: "loss2/relu_fc"
  type: "ReLU"
  bottom: "loss2/fc"
  top: "loss2/fc"
}
layer {
  name: "loss2/drop_fc"
  type: "Dropout"
  bottom: "loss2/fc"
  top: "loss2/fc"
  dropout_param {
    dropout_ratio: 0.7
  }
}
layer {
  name: "loss2/classifier_plantvillage"
  type: "InnerProduct"
  bottom: "loss2/fc"
  top: "loss2/classifier_plantvillage"
  param {
    lr_mult: 1
    decay_mult: 1
  }
  param {
    lr_mult: 2
    decay_mult: 0
  }
  inner_product_param {
    num_output: 38
    weight_filler {
      type: "xavier"
      std: 0.0009765625
    }
    bias_filler {
      type: "constant"
      value: 0
    }
  }
}
layer {
  name: "inception_4e/1x1"
  type: "Convolution"
  bottom: "inception_4d/output"
  top: "inception_4e/1x1"
  param {
    lr_mult: 1
    decay_mult: 1
  }
  param {
    lr_mult: 2
    decay_mult: 0
  }
  convolution_param {
    num_output: 256
    kernel_size: 1
    weight_filler {
      type: "xavier"
      std: 0.03
    }
    bias_filler {
      type: "constant"
      value: 0.2
    }
  }
}
layer {
  name: "inception_4e/relu_1x1"
  type: "ReLU"
  bottom: "inception_4e/1x1"
  top: "inception_4e/1x1"
}
layer {
  name: "inception_4e/3x3_reduce"
  type: "Convolution"
  bottom: "inception_4d/output"
  top: "inception_4e/3x3_reduce"
  param {
    lr_mult: 1
    decay_mult: 1
  }
  param {
    lr_mult: 2
    decay_mult: 0
  }
  convolution_param {
    num_output: 160
    kernel_size: 1
    weight_filler {
      type: "xavier"
      std: 0.09
    }
    bias_filler {
      type: "constant"
      value: 0.2
    }
  }
}
layer {
  name: "inception_4e/relu_3x3_reduce"
  type: "ReLU"
  bottom: "inception_4e/3x3_reduce"
  top: "inception_4e/3x3_reduce"
}
layer {
  name: "inception_4e/3x3"
  type: "Convolution"
  bottom: "inception_4e/3x3_reduce"
  top: "inception_4e/3x3"
  param {
    lr_mult: 1
    decay_mult: 1
  }
  param {
    lr_mult: 2
    decay_mult: 0
  }
  convolution_param {
    num_output: 320
    pad: 1
    kernel_size: 3
    weight_filler {
      type: "xavier"
      std: 0.03
    }
    bias_filler {
      type: "constant"
      value: 0.2
    }
  }
}
layer {
  name: "inception_4e/relu_3x3"
  type: "ReLU"
  bottom: "inception_4e/3x3"
  top: "inception_4e/3x3"
}
layer {
  name: "inception_4e/5x5_reduce"
  type: "Convolution"
  bottom: "inception_4d/output"
  top: "inception_4e/5x5_reduce"
  param {
    lr_mult: 1
    decay_mult: 1
  }
  param {
    lr_mult: 2
    decay_mult: 0
  }
  convolution_param {
    num_output: 32
    kernel_size: 1
    weight_filler {
      type: "xavier"
      std: 0.2
    }
    bias_filler {
      type: "constant"
      value: 0.2
    }
  }
}
layer {
  name: "inception_4e/relu_5x5_reduce"
  type: "ReLU"
  bottom: "inception_4e/5x5_reduce"
  top: "inception_4e/5x5_reduce"
}
layer {
  name: "inception_4e/5x5"
  type: "Convolution"
  bottom: "inception_4e/5x5_reduce"
  top: "inception_4e/
I0403 16:10:38.245985 20805 layer_factory.hpp:77] Creating layer data
I0403 16:10:38.246603 20805 net.cpp:91] Creating Layer data
I0403 16:10:38.246636 20805 net.cpp:399] data -> data
I0403 16:10:38.246690 20805 net.cpp:399] data -> label
I0403 16:10:38.246726 20805 data_transformer.cpp:25] Loading mean file from: /home/mohanty/data/final_dataset/lmdb/grayscale-20-80/mean.binaryproto
I0403 16:10:38.247966 20809 db_lmdb.cpp:38] Opened lmdb /home/mohanty/data/final_dataset/lmdb/grayscale-20-80/test_db
I0403 16:10:38.259614 20805 data_layer.cpp:41] output data size: 24,3,224,224
I0403 16:10:38.285845 20805 net.cpp:141] Setting up data
I0403 16:10:38.285923 20805 net.cpp:148] Top shape: 24 3 224 224 (3612672)
I0403 16:10:38.285953 20805 net.cpp:148] Top shape: 24 (24)
I0403 16:10:38.285970 20805 net.cpp:156] Memory required for data: 14450784
I0403 16:10:38.285996 20805 layer_factory.hpp:77] Creating layer label_data_1_split
I0403 16:10:38.286026 20805 net.cpp:91] Creating Layer label_data_1_split
I0403 16:10:38.286046 20805 net.cpp:425] label_data_1_split <- label
I0403 16:10:38.286077 20805 net.cpp:399] label_data_1_split -> label_data_1_split_0
I0403 16:10:38.286105 20805 net.cpp:399] label_data_1_split -> label_data_1_split_1
I0403 16:10:38.286128 20805 net.cpp:399] label_data_1_split -> label_data_1_split_2
I0403 16:10:38.286147 20805 net.cpp:399] label_data_1_split -> label_data_1_split_3
I0403 16:10:38.286167 20805 net.cpp:399] label_data_1_split -> label_data_1_split_4
I0403 16:10:38.286186 20805 net.cpp:399] label_data_1_split -> label_data_1_split_5
I0403 16:10:38.286206 20805 net.cpp:399] label_data_1_split -> label_data_1_split_6
I0403 16:10:38.286226 20805 net.cpp:399] label_data_1_split -> label_data_1_split_7
I0403 16:10:38.286245 20805 net.cpp:399] label_data_1_split -> label_data_1_split_8
I0403 16:10:38.286265 20805 net.cpp:399] label_data_1_split -> label_data_1_split_9
I0403 16:10:38.286375 20805 net.cpp:141] Setting up label_data_1_split
I0403 16:10:38.286398 20805 net.cpp:148] Top shape: 24 (24)
I0403 16:10:38.286415 20805 net.cpp:148] Top shape: 24 (24)
I0403 16:10:38.286432 20805 net.cpp:148] Top shape: 24 (24)
I0403 16:10:38.286448 20805 net.cpp:148] Top shape: 24 (24)
I0403 16:10:38.286463 20805 net.cpp:148] Top shape: 24 (24)
I0403 16:10:38.286478 20805 net.cpp:148] Top shape: 24 (24)
I0403 16:10:38.286494 20805 net.cpp:148] Top shape: 24 (24)
I0403 16:10:38.286509 20805 net.cpp:148] Top shape: 24 (24)
I0403 16:10:38.286523 20805 net.cpp:148] Top shape: 24 (24)
I0403 16:10:38.286540 20805 net.cpp:148] Top shape: 24 (24)
I0403 16:10:38.286583 20805 net.cpp:156] Memory required for data: 14451744
I0403 16:10:38.286599 20805 layer_factory.hpp:77] Creating layer conv1/7x7_s2
I0403 16:10:38.286629 20805 net.cpp:91] Creating Layer conv1/7x7_s2
I0403 16:10:38.286648 20805 net.cpp:425] conv1/7x7_s2 <- data
I0403 16:10:38.286667 20805 net.cpp:399] conv1/7x7_s2 -> conv1/7x7_s2
I0403 16:10:38.421538 20805 net.cpp:141] Setting up conv1/7x7_s2
I0403 16:10:38.421632 20805 net.cpp:148] Top shape: 24 64 112 112 (19267584)
I0403 16:10:38.421649 20805 net.cpp:156] Memory required for data: 91522080
I0403 16:10:38.421680 20805 layer_factory.hpp:77] Creating layer conv1/relu_7x7
I0403 16:10:38.421707 20805 net.cpp:91] Creating Layer conv1/relu_7x7
I0403 16:10:38.421726 20805 net.cpp:425] conv1/relu_7x7 <- conv1/7x7_s2
I0403 16:10:38.421746 20805 net.cpp:386] conv1/relu_7x7 -> conv1/7x7_s2 (in-place)
I0403 16:10:38.422003 20805 net.cpp:141] Setting up conv1/relu_7x7
I0403 16:10:38.422035 20805 net.cpp:148] Top shape: 24 64 112 112 (19267584)
I0403 16:10:38.422052 20805 net.cpp:156] Memory required for data: 168592416
I0403 16:10:38.422067 20805 layer_factory.hpp:77] Creating layer pool1/3x3_s2
I0403 16:10:38.422093 20805 net.cpp:91] Creating Layer pool1/3x3_s2
I0403 16:10:38.422111 20805 net.cpp:425] pool1/3x3_s2 <- conv1/7x7_s2
I0403 16:10:38.422128 20805 net.cpp:399] pool1/3x3_s2 -> pool1/3x3_s2
I0403 16:10:38.422204 20805 net.cpp:141] Setting up pool1/3x3_s2
I0403 16:10:38.422230 20805 net.cpp:148] Top shape: 24 64 56 56 (4816896)
I0403 16:10:38.422245 20805 net.cpp:156] Memory required for data: 187860000
I0403 16:10:38.422260 20805 layer_factory.hpp:77] Creating layer pool1/norm1
I0403 16:10:38.422283 20805 net.cpp:91] Creating Layer pool1/norm1
I0403 16:10:38.422300 20805 net.cpp:425] pool1/norm1 <- pool1/3x3_s2
I0403 16:10:38.422318 20805 net.cpp:399] pool1/norm1 -> pool1/norm1
I0403 16:10:38.422605 20805 net.cpp:141] Setting up pool1/norm1
I0403 16:10:38.422633 20805 net.cpp:148] Top shape: 24 64 56 56 (4816896)
I0403 16:10:38.422649 20805 net.cpp:156] Memory required for data: 207127584
I0403 16:10:38.422664 20805 layer_factory.hpp:77] Creating layer conv2/3x3_reduce
I0403 16:10:38.422689 20805 net.cpp:91] Creating Layer conv2/3x3_reduce
I0403 16:10:38.422705 20805 net.cpp:425] conv2/3x3_reduce <- pool1/norm1
I0403 16:10:38.422724 20805 net.cpp:399] conv2/3x3_reduce -> conv2/3x3_reduce
I0403 16:10:38.424084 20805 net.cpp:141] Setting up conv2/3x3_reduce
I0403 16:10:38.424114 20805 net.cpp:148] Top shape: 24 64 56 56 (4816896)
I0403 16:10:38.424131 20805 net.cpp:156] Memory required for data: 226395168
I0403 16:10:38.424152 20805 layer_factory.hpp:77] Creating layer conv2/relu_3x3_reduce
I0403 16:10:38.424171 20805 net.cpp:91] Creating Layer conv2/relu_3x3_reduce
I0403 16:10:38.424186 20805 net.cpp:425] conv2/relu_3x3_reduce <- conv2/3x3_reduce
I0403 16:10:38.424204 20805 net.cpp:386] conv2/relu_3x3_reduce -> conv2/3x3_reduce (in-place)
I0403 16:10:38.424473 20805 net.cpp:141] Setting up conv2/relu_3x3_reduce
I0403 16:10:38.424502 20805 net.cpp:148] Top shape: 24 64 56 56 (4816896)
I0403 16:10:38.424523 20805 net.cpp:156] Memory required for data: 245662752
I0403 16:10:38.424542 20805 layer_factory.hpp:77] Creating layer conv2/3x3
I0403 16:10:38.424567 20805 net.cpp:91] Creating Layer conv2/3x3
I0403 16:10:38.424585 20805 net.cpp:425] conv2/3x3 <- conv2/3x3_reduce
I0403 16:10:38.424612 20805 net.cpp:399] conv2/3x3 -> conv2/3x3
I0403 16:10:38.426962 20805 net.cpp:141] Setting up conv2/3x3
I0403 16:10:38.426995 20805 net.cpp:148] Top shape: 24 192 56 56 (14450688)
I0403 16:10:38.427012 20805 net.cpp:156] Memory required for data: 303465504
I0403 16:10:38.427039 20805 layer_factory.hpp:77] Creating layer conv2/relu_3x3
I0403 16:10:38.427060 20805 net.cpp:91] Creating Layer conv2/relu_3x3
I0403 16:10:38.427078 20805 net.cpp:425] conv2/relu_3x3 <- conv2/3x3
I0403 16:10:38.427098 20805 net.cpp:386] conv2/relu_3x3 -> conv2/3x3 (in-place)
I0403 16:10:38.427278 20805 net.cpp:141] Setting up conv2/relu_3x3
I0403 16:10:38.427302 20805 net.cpp:148] Top shape: 24 192 56 56 (14450688)
I0403 16:10:38.427347 20805 net.cpp:156] Memory required for data: 361268256
I0403 16:10:38.427363 20805 layer_factory.hpp:77] Creating layer conv2/norm2
I0403 16:10:38.427386 20805 net.cpp:91] Creating Layer conv2/norm2
I0403 16:10:38.427402 20805 net.cpp:425] conv2/norm2 <- conv2/3x3
I0403 16:10:38.427419 20805 net.cpp:399] conv2/norm2 -> conv2/norm2
I0403 16:10:38.427728 20805 net.cpp:141] Setting up conv2/norm2
I0403 16:10:38.427757 20805 net.cpp:148] Top shape: 24 192 56 56 (14450688)
I0403 16:10:38.427775 20805 net.cpp:156] Memory required for data: 419071008
I0403 16:10:38.427790 20805 layer_factory.hpp:77] Creating layer pool2/3x3_s2
I0403 16:10:38.427809 20805 net.cpp:91] Creating Layer pool2/3x3_s2
I0403 16:10:38.427825 20805 net.cpp:425] pool2/3x3_s2 <- conv2/norm2
I0403 16:10:38.427844 20805 net.cpp:399] pool2/3x3_s2 -> pool2/3x3_s2
I0403 16:10:38.427897 20805 net.cpp:141] Setting up pool2/3x3_s2
I0403 16:10:38.427922 20805 net.cpp:148] Top shape: 24 192 28 28 (3612672)
I0403 16:10:38.427937 20805 net.cpp:156] Memory required for data: 433521696
I0403 16:10:38.427952 20805 layer_factory.hpp:77] Creating layer pool2/3x3_s2_pool2/3x3_s2_0_split
I0403 16:10:38.427969 20805 net.cpp:91] Creating Layer pool2/3x3_s2_pool2/3x3_s2_0_split
I0403 16:10:38.427985 20805 net.cpp:425] pool2/3x3_s2_pool2/3x3_s2_0_split <- pool2/3x3_s2
I0403 16:10:38.428006 20805 net.cpp:399] pool2/3x3_s2_pool2/3x3_s2_0_split -> pool2/3x3_s2_pool2/3x3_s2_0_split_0
I0403 16:10:38.428040 20805 net.cpp:399] pool2/3x3_s2_pool2/3x3_s2_0_split -> pool2/3x3_s2_pool2/3x3_s2_0_split_1
I0403 16:10:38.428063 20805 net.cpp:399] pool2/3x3_s2_pool2/3x3_s2_0_split -> pool2/3x3_s2_pool2/3x3_s2_0_split_2
I0403 16:10:38.428084 20805 net.cpp:399] pool2/3x3_s2_pool2/3x3_s2_0_split -> pool2/3x3_s2_pool2/3x3_s2_0_split_3
I0403 16:10:38.428159 20805 net.cpp:141] Setting up pool2/3x3_s2_pool2/3x3_s2_0_split
I0403 16:10:38.428184 20805 net.cpp:148] Top shape: 24 192 28 28 (3612672)
I0403 16:10:38.428200 20805 net.cpp:148] Top shape: 24 192 28 28 (3612672)
I0403 16:10:38.428215 20805 net.cpp:148] Top shape: 24 192 28 28 (3612672)
I0403 16:10:38.428231 20805 net.cpp:148] Top shape: 24 192 28 28 (3612672)
I0403 16:10:38.428246 20805 net.cpp:156] Memory required for data: 491324448
I0403 16:10:38.428261 20805 layer_factory.hpp:77] Creating layer inception_3a/1x1
I0403 16:10:38.428283 20805 net.cpp:91] Creating Layer inception_3a/1x1
I0403 16:10:38.428302 20805 net.cpp:425] inception_3a/1x1 <- pool2/3x3_s2_pool2/3x3_s2_0_split_0
I0403 16:10:38.428323 20805 net.cpp:399] inception_3a/1x1 -> inception_3a/1x1
I0403 16:10:38.429883 20805 net.cpp:141] Setting up inception_3a/1x1
I0403 16:10:38.429915 20805 net.cpp:148] Top shape: 24 64 28 28 (1204224)
I0403 16:10:38.429934 20805 net.cpp:156] Memory required for data: 496141344
I0403 16:10:38.429954 20805 layer_factory.hpp:77] Creating layer inception_3a/relu_1x1
I0403 16:10:38.429972 20805 net.cpp:91] Creating Layer inception_3a/relu_1x1
I0403 16:10:38.429991 20805 net.cpp:425] inception_3a/relu_1x1 <- inception_3a/1x1
I0403 16:10:38.430009 20805 net.cpp:386] inception_3a/relu_1x1 -> inception_3a/1x1 (in-place)
I0403 16:10:38.430197 20805 net.cpp:141] Setting up inception_3a/relu_1x1
I0403 16:10:38.430223 20805 net.cpp:148] Top shape: 24 64 28 28 (1204224)
I0403 16:10:38.430238 20805 net.cpp:156] Memory required for data: 500958240
I0403 16:10:38.430256 20805 layer_factory.hpp:77] Creating layer inception_3a/3x3_reduce
I0403 16:10:38.430279 20805 net.cpp:91] Creating Layer inception_3a/3x3_reduce
I0403 16:10:38.430297 20805 net.cpp:425] inception_3a/3x3_reduce <- pool2/3x3_s2_pool2/3x3_s2_0_split_1
I0403 16:10:38.430318 20805 net.cpp:399] inception_3a/3x3_reduce -> inception_3a/3x3_reduce
I0403 16:10:38.432041 20805 net.cpp:141] Setting up inception_3a/3x3_reduce
I0403 16:10:38.432075 20805 net.cpp:148] Top shape: 24 96 28 28 (1806336)
I0403 16:10:38.432090 20805 net.cpp:156] Memory required for data: 508183584
I0403 16:10:38.432113 20805 layer_factory.hpp:77] Creating layer inception_3a/relu_3x3_reduce
I0403 16:10:38.432150 20805 net.cpp:91] Creating Layer inception_3a/relu_3x3_reduce
I0403 16:10:38.432169 20805 net.cpp:425] inception_3a/relu_3x3_reduce <- inception_3a/3x3_reduce
I0403 16:10:38.432190 20805 net.cpp:386] inception_3a/relu_3x3_reduce -> inception_3a/3x3_reduce (in-place)
I0403 16:10:38.432376 20805 net.cpp:141] Setting up inception_3a/relu_3x3_reduce
I0403 16:10:38.432402 20805 net.cpp:148] Top shape: 24 96 28 28 (1806336)
I0403 16:10:38.432420 20805 net.cpp:156] Memory required for data: 515408928
I0403 16:10:38.432436 20805 layer_factory.hpp:77] Creating layer inception_3a/3x3
I0403 16:10:38.432457 20805 net.cpp:91] Creating Layer inception_3a/3x3
I0403 16:10:38.432476 20805 net.cpp:425] inception_3a/3x3 <- inception_3a/3x3_reduce
I0403 16:10:38.432500 20805 net.cpp:399] inception_3a/3x3 -> inception_3a/3x3
I0403 16:10:38.434255 20805 net.cpp:141] Setting up inception_3a/3x3
I0403 16:10:38.434285 20805 net.cpp:148] Top shape: 24 128 28 28 (2408448)
I0403 16:10:38.434303 20805 net.cpp:156] Memory required for data: 525042720
I0403 16:10:38.434321 20805 layer_factory.hpp:77] Creating layer inception_3a/relu_3x3
I0403 16:10:38.434340 20805 net.cpp:91] Creating Layer inception_3a/relu_3x3
I0403 16:10:38.434357 20805 net.cpp:425] inception_3a/relu_3x3 <- inception_3a/3x3
I0403 16:10:38.434377 20805 net.cpp:386] inception_3a/relu_3x3 -> inception_3a/3x3 (in-place)
I0403 16:10:38.434654 20805 net.cpp:141] Setting up inception_3a/relu_3x3
I0403 16:10:38.434684 20805 net.cpp:148] Top shape: 24 128 28 28 (2408448)
I0403 16:10:38.434700 20805 net.cpp:156] Memory required for data: 534676512
I0403 16:10:38.434715 20805 layer_factory.hpp:77] Creating layer inception_3a/5x5_reduce
I0403 16:10:38.434738 20805 net.cpp:91] Creating Layer inception_3a/5x5_reduce
I0403 16:10:38.434756 20805 net.cpp:425] inception_3a/5x5_reduce <- pool2/3x3_s2_pool2/3x3_s2_0_split_2
I0403 16:10:38.434774 20805 net.cpp:399] inception_3a/5x5_reduce -> inception_3a/5x5_reduce
I0403 16:10:38.435757 20805 net.cpp:141] Setting up inception_3a/5x5_reduce
I0403 16:10:38.435786 20805 net.cpp:148] Top shape: 24 16 28 28 (301056)
I0403 16:10:38.435802 20805 net.cpp:156] Memory required for data: 535880736
I0403 16:10:38.435822 20805 layer_factory.hpp:77] Creating layer inception_3a/relu_5x5_reduce
I0403 16:10:38.435839 20805 net.cpp:91] Creating Layer inception_3a/relu_5x5_reduce
I0403 16:10:38.435860 20805 net.cpp:425] inception_3a/relu_5x5_reduce <- inception_3a/5x5_reduce
I0403 16:10:38.435878 20805 net.cpp:386] inception_3a/relu_5x5_reduce -> inception_3a/5x5_reduce (in-place)
I0403 16:10:38.436182 20805 net.cpp:141] Setting up inception_3a/relu_5x5_reduce
I0403 16:10:38.436208 20805 net.cpp:148] Top shape: 24 16 28 28 (301056)
I0403 16:10:38.436223 20805 net.cpp:156] Memory required for data: 537084960
I0403 16:10:38.436239 20805 layer_factory.hpp:77] Creating layer inception_3a/5x5
I0403 16:10:38.436261 20805 net.cpp:91] Creating Layer inception_3a/5x5
I0403 16:10:38.436280 20805 net.cpp:425] inception_3a/5x5 <- inception_3a/5x5_reduce
I0403 16:10:38.436302 20805 net.cpp:399] inception_3a/5x5 -> inception_3a/5x5
I0403 16:10:38.437342 20805 net.cpp:141] Setting up inception_3a/5x5
I0403 16:10:38.437372 20805 net.cpp:148] Top shape: 24 32 28 28 (602112)
I0403 16:10:38.437389 20805 net.cpp:156] Memory required for data: 539493408
I0403 16:10:38.437409 20805 layer_factory.hpp:77] Creating layer inception_3a/relu_5x5
I0403 16:10:38.437427 20805 net.cpp:91] Creating Layer inception_3a/relu_5x5
I0403 16:10:38.437444 20805 net.cpp:425] inception_3a/relu_5x5 <- inception_3a/5x5
I0403 16:10:38.437464 20805 net.cpp:386] inception_3a/relu_5x5 -> inception_3a/5x5 (in-place)
I0403 16:10:38.437643 20805 net.cpp:141] Setting up inception_3a/relu_5x5
I0403 16:10:38.437669 20805 net.cpp:148] Top shape: 24 32 28 28 (602112)
I0403 16:10:38.437685 20805 net.cpp:156] Memory required for data: 541901856
I0403 16:10:38.437700 20805 layer_factory.hpp:77] Creating layer inception_3a/pool
I0403 16:10:38.437718 20805 net.cpp:91] Creating Layer inception_3a/pool
I0403 16:10:38.437748 20805 net.cpp:425] inception_3a/pool <- pool2/3x3_s2_pool2/3x3_s2_0_split_3
I0403 16:10:38.437772 20805 net.cpp:399] inception_3a/pool -> inception_3a/pool
I0403 16:10:38.437832 20805 net.cpp:141] Setting up inception_3a/pool
I0403 16:10:38.437856 20805 net.cpp:148] Top shape: 24 192 28 28 (3612672)
I0403 16:10:38.437871 20805 net.cpp:156] Memory required for data: 556352544
I0403 16:10:38.437886 20805 layer_factory.hpp:77] Creating layer inception_3a/pool_proj
I0403 16:10:38.437911 20805 net.cpp:91] Creating Layer inception_3a/pool_proj
I0403 16:10:38.437932 20805 net.cpp:425] inception_3a/pool_proj <- inception_3a/pool
I0403 16:10:38.437950 20805 net.cpp:399] inception_3a/pool_proj -> inception_3a/pool_proj
I0403 16:10:38.438951 20805 net.cpp:141] Setting up inception_3a/pool_proj
I0403 16:10:38.438978 20805 net.cpp:148] Top shape: 24 32 28 28 (602112)
I0403 16:10:38.438995 20805 net.cpp:156] Memory required for data: 558760992
I0403 16:10:38.439025 20805 layer_factory.hpp:77] Creating layer inception_3a/relu_pool_proj
I0403 16:10:38.439048 20805 net.cpp:91] Creating Layer inception_3a/relu_pool_proj
I0403 16:10:38.439066 20805 net.cpp:425] inception_3a/relu_pool_proj <- inception_3a/pool_proj
I0403 16:10:38.439085 20805 net.cpp:386] inception_3a/relu_pool_proj -> inception_3a/pool_proj (in-place)
I0403 16:10:38.439365 20805 net.cpp:141] Setting up inception_3a/relu_pool_proj
I0403 16:10:38.439396 20805 net.cpp:148] Top shape: 24 32 28 28 (602112)
I0403 16:10:38.439412 20805 net.cpp:156] Memory required for data: 561169440
I0403 16:10:38.439427 20805 layer_factory.hpp:77] Creating layer inception_3a/output
I0403 16:10:38.439446 20805 net.cpp:91] Creating Layer inception_3a/output
I0403 16:10:38.439462 20805 net.cpp:425] inception_3a/output <- inception_3a/1x1
I0403 16:10:38.439481 20805 net.cpp:425] inception_3a/output <- inception_3a/3x3
I0403 16:10:38.439496 20805 net.cpp:425] inception_3a/output <- inception_3a/5x5
I0403 16:10:38.439513 20805 net.cpp:425] inception_3a/output <- inception_3a/pool_proj
I0403 16:10:38.439533 20805 net.cpp:399] inception_3a/output -> inception_3a/output
I0403 16:10:38.439580 20805 net.cpp:141] Setting up inception_3a/output
I0403 16:10:38.439605 20805 net.cpp:148] Top shape: 24 256 28 28 (4816896)
I0403 16:10:38.439621 20805 net.cpp:156] Memory required for data: 580437024
I0403 16:10:38.439635 20805 layer_factory.hpp:77] Creating layer inception_3a/output_inception_3a/output_0_split
I0403 16:10:38.439656 20805 net.cpp:91] Creating Layer inception_3a/output_inception_3a/output_0_split
I0403 16:10:38.439673 20805 net.cpp:425] inception_3a/output_inception_3a/output_0_split <- inception_3a/output
I0403 16:10:38.439692 20805 net.cpp:399] inception_3a/output_inception_3a/output_0_split -> inception_3a/output_inception_3a/output_0_split_0
I0403 16:10:38.439713 20805 net.cpp:399] inception_3a/output_inception_3a/output_0_split -> inception_3a/output_inception_3a/output_0_split_1
I0403 16:10:38.439740 20805 net.cpp:399] inception_3a/output_inception_3a/output_0_split -> inception_3a/output_inception_3a/output_0_split_2
I0403 16:10:38.439761 20805 net.cpp:399] inception_3a/output_inception_3a/output_0_split -> inception_3a/output_inception_3a/output_0_split_3
I0403 16:10:38.439836 20805 net.cpp:141] Setting up inception_3a/output_inception_3a/output_0_split
I0403 16:10:38.439864 20805 net.cpp:148] Top shape: 24 256 28 28 (4816896)
I0403 16:10:38.439882 20805 net.cpp:148] Top shape: 24 256 28 28 (4816896)
I0403 16:10:38.439898 20805 net.cpp:148] Top shape: 24 256 28 28 (4816896)
I0403 16:10:38.439914 20805 net.cpp:148] Top shape: 24 256 28 28 (4816896)
I0403 16:10:38.439929 20805 net.cpp:156] Memory required for data: 657507360
I0403 16:10:38.439944 20805 layer_factory.hpp:77] Creating layer inception_3b/1x1
I0403 16:10:38.439966 20805 net.cpp:91] Creating Layer inception_3b/1x1
I0403 16:10:38.439985 20805 net.cpp:425] inception_3b/1x1 <- inception_3a/output_inception_3a/output_0_split_0
I0403 16:10:38.440004 20805 net.cpp:399] inception_3b/1x1 -> inception_3b/1x1
I0403 16:10:38.441174 20805 net.cpp:141] Setting up inception_3b/1x1
I0403 16:10:38.441216 20805 net.cpp:148] Top shape: 24 128 28 28 (2408448)
I0403 16:10:38.441233 20805 net.cpp:156] Memory required for data: 667141152
I0403 16:10:38.441251 20805 layer_factory.hpp:77] Creating layer inception_3b/relu_1x1
I0403 16:10:38.441272 20805 net.cpp:91] Creating Layer inception_3b/relu_1x1
I0403 16:10:38.441290 20805 net.cpp:425] inception_3b/relu_1x1 <- inception_3b/1x1
I0403 16:10:38.441309 20805 net.cpp:386] inception_3b/relu_1x1 -> inception_3b/1x1 (in-place)
I0403 16:10:38.441489 20805 net.cpp:141] Setting up inception_3b/relu_1x1
I0403 16:10:38.441516 20805 net.cpp:148] Top shape: 24 128 28 28 (2408448)
I0403 16:10:38.441532 20805 net.cpp:156] Memory required for data: 676774944
I0403 16:10:38.441547 20805 layer_factory.hpp:77] Creating layer inception_3b/3x3_reduce
I0403 16:10:38.441571 20805 net.cpp:91] Creating Layer inception_3b/3x3_reduce
I0403 16:10:38.441591 20805 net.cpp:425] inception_3b/3x3_reduce <- inception_3a/output_inception_3a/output_0_split_1
I0403 16:10:38.441609 20805 net.cpp:399] inception_3b/3x3_reduce -> inception_3b/3x3_reduce
I0403 16:10:38.445695 20805 net.cpp:141] Setting up inception_3b/3x3_reduce
I0403 16:10:38.445770 20805 net.cpp:148] Top shape: 24 128 28 28 (2408448)
I0403 16:10:38.445793 20805 net.cpp:156] Memory required for data: 686408736
I0403 16:10:38.445812 20805 layer_factory.hpp:77] Creating layer inception_3b/relu_3x3_reduce
I0403 16:10:38.445833 20805 net.cpp:91] Creating Layer inception_3b/relu_3x3_reduce
I0403 16:10:38.445852 20805 net.cpp:425] inception_3b/relu_3x3_reduce <- inception_3b/3x3_reduce
I0403 16:10:38.445869 20805 net.cpp:386] inception_3b/relu_3x3_reduce -> inception_3b/3x3_reduce (in-place)
I0403 16:10:38.446056 20805 net.cpp:141] Setting up inception_3b/relu_3x3_reduce
I0403 16:10:38.446084 20805 net.cpp:148] Top shape: 24 128 28 28 (2408448)
I0403 16:10:38.446100 20805 net.cpp:156] Memory required for data: 696042528
I0403 16:10:38.446115 20805 layer_factory.hpp:77] Creating layer inception_3b/3x3
I0403 16:10:38.446141 20805 net.cpp:91] Creating Layer inception_3b/3x3
I0403 16:10:38.446161 20805 net.cpp:425] inception_3b/3x3 <- inception_3b/3x3_reduce
I0403 16:10:38.446183 20805 net.cpp:399] inception_3b/3x3 -> inception_3b/3x3
I0403 16:10:38.449193 20805 net.cpp:141] Setting up inception_3b/3x3
I0403 16:10:38.449223 20805 net.cpp:148] Top shape: 24 192 28 28 (3612672)
I0403 16:10:38.449239 20805 net.cpp:156] Memory required for data: 710493216
I0403 16:10:38.449259 20805 layer_factory.hpp:77] Creating layer inception_3b/relu_3x3
I0403 16:10:38.449280 20805 net.cpp:91] Creating Layer inception_3b/relu_3x3
I0403 16:10:38.449297 20805 net.cpp:425] inception_3b/relu_3x3 <- inception_3b/3x3
I0403 16:10:38.449345 20805 net.cpp:386] inception_3b/relu_3x3 -> inception_3b/3x3 (in-place)
I0403 16:10:38.449635 20805 net.cpp:141] Setting up inception_3b/relu_3x3
I0403 16:10:38.449663 20805 net.cpp:148] Top shape: 24 192 28 28 (3612672)
I0403 16:10:38.449678 20805 net.cpp:156] Memory required for data: 724943904
I0403 16:10:38.449694 20805 layer_factory.hpp:77] Creating layer inception_3b/5x5_reduce
I0403 16:10:38.449719 20805 net.cpp:91] Creating Layer inception_3b/5x5_reduce
I0403 16:10:38.449738 20805 net.cpp:425] inception_3b/5x5_reduce <- inception_3a/output_inception_3a/output_0_split_2
I0403 16:10:38.449759 20805 net.cpp:399] inception_3b/5x5_reduce -> inception_3b/5x5_reduce
I0403 16:10:38.450778 20805 net.cpp:141] Setting up inception_3b/5x5_reduce
I0403 16:10:38.450806 20805 net.cpp:148] Top shape: 24 32 28 28 (602112)
I0403 16:10:38.450822 20805 net.cpp:156] Memory required for data: 727352352
I0403 16:10:38.450841 20805 layer_factory.hpp:77] Creating layer inception_3b/relu_5x5_reduce
I0403 16:10:38.450862 20805 net.cpp:91] Creating Layer inception_3b/relu_5x5_reduce
I0403 16:10:38.450881 20805 net.cpp:425] inception_3b/relu_5x5_reduce <- inception_3b/5x5_reduce
I0403 16:10:38.450898 20805 net.cpp:386] inception_3b/relu_5x5_reduce -> inception_3b/5x5_reduce (in-place)
I0403 16:10:38.451123 20805 net.cpp:141] Setting up inception_3b/relu_5x5_reduce
I0403 16:10:38.451150 20805 net.cpp:148] Top shape: 24 32 28 28 (602112)
I0403 16:10:38.451165 20805 net.cpp:156] Memory required for data: 729760800
I0403 16:10:38.451181 20805 layer_factory.hpp:77] Creating layer inception_3b/5x5
I0403 16:10:38.451203 20805 net.cpp:91] Creating Layer inception_3b/5x5
I0403 16:10:38.451221 20805 net.cpp:425] inception_3b/5x5 <- inception_3b/5x5_reduce
I0403 16:10:38.451243 20805 net.cpp:399] inception_3b/5x5 -> inception_3b/5x5
I0403 16:10:38.453325 20805 net.cpp:141] Setting up inception_3b/5x5
I0403 16:10:38.453354 20805 net.cpp:148] Top shape: 24 96 28 28 (1806336)
I0403 16:10:38.453371 20805 net.cpp:156] Memory required for data: 736986144
I0403 16:10:38.453388 20805 layer_factory.hpp:77] Creating layer inception_3b/relu_5x5
I0403 16:10:38.453408 20805 net.cpp:91] Creating Layer inception_3b/relu_5x5
I0403 16:10:38.453428 20805 net.cpp:425] inception_3b/relu_5x5 <- inception_3b/5x5
I0403 16:10:38.453445 20805 net.cpp:386] inception_3b/relu_5x5 -> inception_3b/5x5 (in-place)
I0403 16:10:38.453640 20805 net.cpp:141] Setting up inception_3b/relu_5x5
I0403 16:10:38.453665 20805 net.cpp:148] Top shape: 24 96 28 28 (1806336)
I0403 16:10:38.453680 20805 net.cpp:156] Memory required for data: 744211488
I0403 16:10:38.453696 20805 layer_factory.hpp:77] Creating layer inception_3b/pool
I0403 16:10:38.453713 20805 net.cpp:91] Creating Layer inception_3b/pool
I0403 16:10:38.453728 20805 net.cpp:425] inception_3b/pool <- inception_3a/output_inception_3a/output_0_split_3
I0403 16:10:38.453747 20805 net.cpp:399] inception_3b/pool -> inception_3b/pool
I0403 16:10:38.453802 20805 net.cpp:141] Setting up inception_3b/pool
I0403 16:10:38.453825 20805 net.cpp:148] Top shape: 24 256 28 28 (4816896)
I0403 16:10:38.453841 20805 net.cpp:156] Memory required for data: 763479072
I0403 16:10:38.453856 20805 layer_factory.hpp:77] Creating layer inception_3b/pool_proj
I0403 16:10:38.453878 20805 net.cpp:91] Creating Layer inception_3b/pool_proj
I0403 16:10:38.453896 20805 net.cpp:425] inception_3b/pool_proj <- inception_3b/pool
I0403 16:10:38.453917 20805 net.cpp:399] inception_3b/pool_proj -> inception_3b/pool_proj
I0403 16:10:38.455013 20805 net.cpp:141] Setting up inception_3b/pool_proj
I0403 16:10:38.455044 20805 net.cpp:148] Top shape: 24 64 28 28 (1204224)
I0403 16:10:38.455060 20805 net.cpp:156] Memory required for data: 768295968
I0403 16:10:38.455078 20805 layer_factory.hpp:77] Creating layer inception_3b/relu_pool_proj
I0403 16:10:38.455096 20805 net.cpp:91] Creating Layer inception_3b/relu_pool_proj
I0403 16:10:38.455113 20805 net.cpp:425] inception_3b/relu_pool_proj <- inception_3b/pool_proj
I0403 16:10:38.455133 20805 net.cpp:386] inception_3b/relu_pool_proj -> inception_3b/pool_proj (in-place)
I0403 16:10:38.455543 20805 net.cpp:141] Setting up inception_3b/relu_pool_proj
I0403 16:10:38.455571 20805 net.cpp:148] Top shape: 24 64 28 28 (1204224)
I0403 16:10:38.455588 20805 net.cpp:156] Memory required for data: 773112864
I0403 16:10:38.455605 20805 layer_factory.hpp:77] Creating layer inception_3b/output
I0403 16:10:38.455621 20805 net.cpp:91] Creating Layer inception_3b/output
I0403 16:10:38.455637 20805 net.cpp:425] inception_3b/output <- inception_3b/1x1
I0403 16:10:38.455654 20805 net.cpp:425] inception_3b/output <- inception_3b/3x3
I0403 16:10:38.455670 20805 net.cpp:425] inception_3b/output <- inception_3b/5x5
I0403 16:10:38.455687 20805 net.cpp:425] inception_3b/output <- inception_3b/pool_proj
I0403 16:10:38.455708 20805 net.cpp:399] inception_3b/output -> inception_3b/output
I0403 16:10:38.455751 20805 net.cpp:141] Setting up inception_3b/output
I0403 16:10:38.455775 20805 net.cpp:148] Top shape: 24 480 28 28 (9031680)
I0403 16:10:38.455788 20805 net.cpp:156] Memory required for data: 809239584
I0403 16:10:38.455803 20805 layer_factory.hpp:77] Creating layer pool3/3x3_s2
I0403 16:10:38.455824 20805 net.cpp:91] Creating Layer pool3/3x3_s2
I0403 16:10:38.455842 20805 net.cpp:425] pool3/3x3_s2 <- inception_3b/output
I0403 16:10:38.455876 20805 net.cpp:399] pool3/3x3_s2 -> pool3/3x3_s2
I0403 16:10:38.455960 20805 net.cpp:141] Setting up pool3/3x3_s2
I0403 16:10:38.455984 20805 net.cpp:148] Top shape: 24 480 14 14 (2257920)
I0403 16:10:38.455999 20805 net.cpp:156] Memory required for data: 818271264
I0403 16:10:38.456013 20805 layer_factory.hpp:77] Creating layer pool3/3x3_s2_pool3/3x3_s2_0_split
I0403 16:10:38.456037 20805 net.cpp:91] Creating Layer pool3/3x3_s2_pool3/3x3_s2_0_split
I0403 16:10:38.456054 20805 net.cpp:425] pool3/3x3_s2_pool3/3x3_s2_0_split <- pool3/3x3_s2
I0403 16:10:38.456074 20805 net.cpp:399] pool3/3x3_s2_pool3/3x3_s2_0_split -> pool3/3x3_s2_pool3/3x3_s2_0_split_0
I0403 16:10:38.456094 20805 net.cpp:399] pool3/3x3_s2_pool3/3x3_s2_0_split -> pool3/3x3_s2_pool3/3x3_s2_0_split_1
I0403 16:10:38.456115 20805 net.cpp:399] pool3/3x3_s2_pool3/3x3_s2_0_split -> pool3/3x3_s2_pool3/3x3_s2_0_split_2
I0403 16:10:38.456133 20805 net.cpp:399] pool3/3x3_s2_pool3/3x3_s2_0_split -> pool3/3x3_s2_pool3/3x3_s2_0_split_3
I0403 16:10:38.456213 20805 net.cpp:141] Setting up pool3/3x3_s2_pool3/3x3_s2_0_split
I0403 16:10:38.456238 20805 net.cpp:148] Top shape: 24 480 14 14 (2257920)
I0403 16:10:38.456254 20805 net.cpp:148] Top shape: 24 480 14 14 (2257920)
I0403 16:10:38.456269 20805 net.cpp:148] Top shape: 24 480 14 14 (2257920)
I0403 16:10:38.456285 20805 net.cpp:148] Top shape: 24 480 14 14 (2257920)
I0403 16:10:38.456298 20805 net.cpp:156] Memory required for data: 854397984
I0403 16:10:38.456313 20805 layer_factory.hpp:77] Creating layer inception_4a/1x1
I0403 16:10:38.456336 20805 net.cpp:91] Creating Layer inception_4a/1x1
I0403 16:10:38.456353 20805 net.cpp:425] inception_4a/1x1 <- pool3/3x3_s2_pool3/3x3_s2_0_split_0
I0403 16:10:38.456375 20805 net.cpp:399] inception_4a/1x1 -> inception_4a/1x1
I0403 16:10:38.457942 20805 net.cpp:141] Setting up inception_4a/1x1
I0403 16:10:38.457969 20805 net.cpp:148] Top shape: 24 192 14 14 (903168)
I0403 16:10:38.457984 20805 net.cpp:156] Memory required for data: 858010656
I0403 16:10:38.458003 20805 layer_factory.hpp:77] Creating layer inception_4a/relu_1x1
I0403 16:10:38.458034 20805 net.cpp:91] Creating Layer inception_4a/relu_1x1
I0403 16:10:38.458052 20805 net.cpp:425] inception_4a/relu_1x1 <- inception_4a/1x1
I0403 16:10:38.458072 20805 net.cpp:386] inception_4a/relu_1x1 -> inception_4a/1x1 (in-place)
I0403 16:10:38.458245 20805 net.cpp:141] Setting up inception_4a/relu_1x1
I0403 16:10:38.458268 20805 net.cpp:148] Top shape: 24 192 14 14 (903168)
I0403 16:10:38.458282 20805 net.cpp:156] Memory required for data: 861623328
I0403 16:10:38.458297 20805 layer_factory.hpp:77] Creating layer inception_4a/3x3_reduce
I0403 16:10:38.458318 20805 net.cpp:91] Creating Layer inception_4a/3x3_reduce
I0403 16:10:38.458334 20805 net.cpp:425] inception_4a/3x3_reduce <- pool3/3x3_s2_pool3/3x3_s2_0_split_1
I0403 16:10:38.458354 20805 net.cpp:399] inception_4a/3x3_reduce -> inception_4a/3x3_reduce
I0403 16:10:38.459589 20805 net.cpp:141] Setting up inception_4a/3x3_reduce
I0403 16:10:38.459615 20805 net.cpp:148] Top shape: 24 96 14 14 (451584)
I0403 16:10:38.459630 20805 net.cpp:156] Memory required for data: 863429664
I0403 16:10:38.459656 20805 layer_factory.hpp:77] Creating layer inception_4a/relu_3x3_reduce
I0403 16:10:38.459674 20805 net.cpp:91] Creating Layer inception_4a/relu_3x3_reduce
I0403 16:10:38.459691 20805 net.cpp:425] inception_4a/relu_3x3_reduce <- inception_4a/3x3_reduce
I0403 16:10:38.459708 20805 net.cpp:386] inception_4a/relu_3x3_reduce -> inception_4a/3x3_reduce (in-place)
I0403 16:10:38.459878 20805 net.cpp:141] Setting up inception_4a/relu_3x3_reduce
I0403 16:10:38.459902 20805 net.cpp:148] Top shape: 24 96 14 14 (451584)
I0403 16:10:38.459915 20805 net.cpp:156] Memory required for data: 865236000
I0403 16:10:38.459929 20805 layer_factory.hpp:77] Creating layer inception_4a/3x3
I0403 16:10:38.459951 20805 net.cpp:91] Creating Layer inception_4a/3x3
I0403 16:10:38.459969 20805 net.cpp:425] inception_4a/3x3 <- inception_4a/3x3_reduce
I0403 16:10:38.459990 20805 net.cpp:399] inception_4a/3x3 -> inception_4a/3x3
I0403 16:10:38.462571 20805 net.cpp:141] Setting up inception_4a/3x3
I0403 16:10:38.462599 20805 net.cpp:148] Top shape: 24 208 14 14 (978432)
I0403 16:10:38.462613 20805 net.cpp:156] Memory required for data: 869149728
I0403 16:10:38.462631 20805 layer_factory.hpp:77] Creating layer inception_4a/relu_3x3
I0403 16:10:38.462651 20805 net.cpp:91] Creating Layer inception_4a/relu_3x3
I0403 16:10:38.462668 20805 net.cpp:425] inception_4a/relu_3x3 <- inception_4a/3x3
I0403 16:10:38.462685 20805 net.cpp:386] inception_4a/relu_3x3 -> inception_4a/3x3 (in-place)
I0403 16:10:38.462951 20805 net.cpp:141] Setting up inception_4a/relu_3x3
I0403 16:10:38.462980 20805 net.cpp:148] Top shape: 24 208 14 14 (978432)
I0403 16:10:38.462996 20805 net.cpp:156] Memory required for data: 873063456
I0403 16:10:38.463011 20805 layer_factory.hpp:77] Creating layer inception_4a/5x5_reduce
I0403 16:10:38.463038 20805 net.cpp:91] Creating Layer inception_4a/5x5_reduce
I0403 16:10:38.463057 20805 net.cpp:425] inception_4a/5x5_reduce <- pool3/3x3_s2_pool3/3x3_s2_0_split_2
I0403 16:10:38.463078 20805 net.cpp:399] inception_4a/5x5_reduce -> inception_4a/5x5_reduce
I0403 16:10:38.464068 20805 net.cpp:141] Setting up inception_4a/5x5_reduce
I0403 16:10:38.464095 20805 net.cpp:148] Top shape: 24 16 14 14 (75264)
I0403 16:10:38.464110 20805 net.cpp:156] Memory required for data: 873364512
I0403 16:10:38.464128 20805 layer_factory.hpp:77] Creating layer inception_4a/relu_5x5_reduce
I0403 16:10:38.464146 20805 net.cpp:91] Creating Layer inception_4a/relu_5x5_reduce
I0403 16:10:38.464164 20805 net.cpp:425] inception_4a/relu_5x5_reduce <- inception_4a/5x5_reduce
I0403 16:10:38.464179 20805 net.cpp:386] inception_4a/relu_5x5_reduce -> inception_4a/5x5_reduce (in-place)
I0403 16:10:38.464350 20805 net.cpp:141] Setting up inception_4a/relu_5x5_reduce
I0403 16:10:38.464376 20805 net.cpp:148] Top shape: 24 16 14 14 (75264)
I0403 16:10:38.464391 20805 net.cpp:156] Memory required for data: 873665568
I0403 16:10:38.464406 20805 layer_factory.hpp:77] Creating layer inception_4a/5x5
I0403 16:10:38.464426 20805 net.cpp:91] Creating Layer inception_4a/5x5
I0403 16:10:38.464443 20805 net.cpp:425] inception_4a/5x5 <- inception_4a/5x5_reduce
I0403 16:10:38.464464 20805 net.cpp:399] inception_4a/5x5 -> inception_4a/5x5
I0403 16:10:38.465515 20805 net.cpp:141] Setting up inception_4a/5x5
I0403 16:10:38.465543 20805 net.cpp:148] Top shape: 24 48 14 14 (225792)
I0403 16:10:38.465559 20805 net.cpp:156] Memory required for data: 874568736
I0403 16:10:38.465576 20805 layer_factory.hpp:77] Creating layer inception_4a/relu_5x5
I0403 16:10:38.465595 20805 net.cpp:91] Creating Layer inception_4a/relu_5x5
I0403 16:10:38.465611 20805 net.cpp:425] inception_4a/relu_5x5 <- inception_4a/5x5
I0403 16:10:38.465631 20805 net.cpp:386] inception_4a/relu_5x5 -> inception_4a/5x5 (in-place)
I0403 16:10:38.465803 20805 net.cpp:141] Setting up inception_4a/relu_5x5
I0403 16:10:38.465826 20805 net.cpp:148] Top shape: 24 48 14 14 (225792)
I0403 16:10:38.465840 20805 net.cpp:156] Memory required for data: 875471904
I0403 16:10:38.465854 20805 layer_factory.hpp:77] Creating layer inception_4a/pool
I0403 16:10:38.465872 20805 net.cpp:91] Creating Layer inception_4a/pool
I0403 16:10:38.465886 20805 net.cpp:425] inception_4a/pool <- pool3/3x3_s2_pool3/3x3_s2_0_split_3
I0403 16:10:38.465905 20805 net.cpp:399] inception_4a/pool -> inception_4a/pool
I0403 16:10:38.465965 20805 net.cpp:141] Setting up inception_4a/pool
I0403 16:10:38.465987 20805 net.cpp:148] Top shape: 24 480 14 14 (2257920)
I0403 16:10:38.466001 20805 net.cpp:156] Memory required for data: 884503584
I0403 16:10:38.466014 20805 layer_factory.hpp:77] Creating layer inception_4a/pool_proj
I0403 16:10:38.466043 20805 net.cpp:91] Creating Layer inception_4a/pool_proj
I0403 16:10:38.466060 20805 net.cpp:425] inception_4a/pool_proj <- inception_4a/pool
I0403 16:10:38.466078 20805 net.cpp:399] inception_4a/pool_proj -> inception_4a/pool_proj
I0403 16:10:38.467262 20805 net.cpp:141] Setting up inception_4a/pool_proj
I0403 16:10:38.467289 20805 net.cpp:148] Top shape: 24 64 14 14 (301056)
I0403 16:10:38.467319 20805 net.cpp:156] Memory required for data: 885707808
I0403 16:10:38.467339 20805 layer_factory.hpp:77] Creating layer inception_4a/relu_pool_proj
I0403 16:10:38.467357 20805 net.cpp:91] Creating Layer inception_4a/relu_pool_proj
I0403 16:10:38.467376 20805 net.cpp:425] inception_4a/relu_pool_proj <- inception_4a/pool_proj
I0403 16:10:38.467393 20805 net.cpp:386] inception_4a/relu_pool_proj -> inception_4a/pool_proj (in-place)
I0403 16:10:38.467695 20805 net.cpp:141] Setting up inception_4a/relu_pool_proj
I0403 16:10:38.467721 20805 net.cpp:148] Top shape: 24 64 14 14 (301056)
I0403 16:10:38.467736 20805 net.cpp:156] Memory required for data: 886912032
I0403 16:10:38.467751 20805 layer_factory.hpp:77] Creating layer inception_4a/output
I0403 16:10:38.467769 20805 net.cpp:91] Creating Layer inception_4a/output
I0403 16:10:38.467784 20805 net.cpp:425] inception_4a/output <- inception_4a/1x1
I0403 16:10:38.467802 20805 net.cpp:425] inception_4a/output <- inception_4a/3x3
I0403 16:10:38.467818 20805 net.cpp:425] inception_4a/output <- inception_4a/5x5
I0403 16:10:38.467834 20805 net.cpp:425] inception_4a/output <- inception_4a/pool_proj
I0403 16:10:38.467854 20805 net.cpp:399] inception_4a/output -> inception_4a/output
I0403 16:10:38.467898 20805 net.cpp:141] Setting up inception_4a/output
I0403 16:10:38.467924 20805 net.cpp:148] Top shape: 24 512 14 14 (2408448)
I0403 16:10:38.467941 20805 net.cpp:156] Memory required for data: 896545824
I0403 16:10:38.467954 20805 layer_factory.hpp:77] Creating layer inception_4a/output_inception_4a/output_0_split
I0403 16:10:38.467972 20805 net.cpp:91] Creating Layer inception_4a/output_inception_4a/output_0_split
I0403 16:10:38.467988 20805 net.cpp:425] inception_4a/output_inception_4a/output_0_split <- inception_4a/output
I0403 16:10:38.468008 20805 net.cpp:399] inception_4a/output_inception_4a/output_0_split -> inception_4a/output_inception_4a/output_0_split_0
I0403 16:10:38.468053 20805 net.cpp:399] inception_4a/output_inception_4a/output_0_split -> inception_4a/output_inception_4a/output_0_split_1
I0403 16:10:38.468086 20805 net.cpp:399] inception_4a/output_inception_4a/output_0_split -> inception_4a/output_inception_4a/output_0_split_2
I0403 16:10:38.468107 20805 net.cpp:399] inception_4a/output_inception_4a/output_0_split -> inception_4a/output_inception_4a/output_0_split_3
I0403 16:10:38.468128 20805 net.cpp:399] inception_4a/output_inception_4a/output_0_split -> inception_4a/output_inception_4a/output_0_split_4
I0403 16:10:38.468237 20805 net.cpp:141] Setting up inception_4a/output_inception_4a/output_0_split
I0403 16:10:38.468261 20805 net.cpp:148] Top shape: 24 512 14 14 (2408448)
I0403 16:10:38.468276 20805 net.cpp:148] Top shape: 24 512 14 14 (2408448)
I0403 16:10:38.468291 20805 net.cpp:148] Top shape: 24 512 14 14 (2408448)
I0403 16:10:38.468307 20805 net.cpp:148] Top shape: 24 512 14 14 (2408448)
I0403 16:10:38.468322 20805 net.cpp:148] Top shape: 24 512 14 14 (2408448)
I0403 16:10:38.468336 20805 net.cpp:156] Memory required for data: 944714784
I0403 16:10:38.468360 20805 layer_factory.hpp:77] Creating layer loss1/ave_pool
I0403 16:10:38.468380 20805 net.cpp:91] Creating Layer loss1/ave_pool
I0403 16:10:38.468397 20805 net.cpp:425] loss1/ave_pool <- inception_4a/output_inception_4a/output_0_split_0
I0403 16:10:38.468415 20805 net.cpp:399] loss1/ave_pool -> loss1/ave_pool
I0403 16:10:38.468626 20805 net.cpp:141] Setting up loss1/ave_pool
I0403 16:10:38.468652 20805 net.cpp:148] Top shape: 24 512 4 4 (196608)
I0403 16:10:38.468665 20805 net.cpp:156] Memory required for data: 945501216
I0403 16:10:38.468680 20805 layer_factory.hpp:77] Creating layer loss1/conv
I0403 16:10:38.468701 20805 net.cpp:91] Creating Layer loss1/conv
I0403 16:10:38.468719 20805 net.cpp:425] loss1/conv <- loss1/ave_pool
I0403 16:10:38.468739 20805 net.cpp:399] loss1/conv -> loss1/conv
I0403 16:10:38.470165 20805 net.cpp:141] Setting up loss1/conv
I0403 16:10:38.470192 20805 net.cpp:148] Top shape: 24 128 4 4 (49152)
I0403 16:10:38.470221 20805 net.cpp:156] Memory required for data: 945697824
I0403 16:10:38.470242 20805 layer_factory.hpp:77] Creating layer loss1/relu_conv
I0403 16:10:38.470263 20805 net.cpp:91] Creating Layer loss1/relu_conv
I0403 16:10:38.470278 20805 net.cpp:425] loss1/relu_conv <- loss1/conv
I0403 16:10:38.470295 20805 net.cpp:386] loss1/relu_conv -> loss1/conv (in-place)
I0403 16:10:38.470580 20805 net.cpp:141] Setting up loss1/relu_conv
I0403 16:10:38.470607 20805 net.cpp:148] Top shape: 24 128 4 4 (49152)
I0403 16:10:38.470621 20805 net.cpp:156] Memory required for data: 945894432
I0403 16:10:38.470635 20805 layer_factory.hpp:77] Creating layer loss1/fc
I0403 16:10:38.470664 20805 net.cpp:91] Creating Layer loss1/fc
I0403 16:10:38.470681 20805 net.cpp:425] loss1/fc <- loss1/conv
I0403 16:10:38.470702 20805 net.cpp:399] loss1/fc -> loss1/fc
I0403 16:10:38.488675 20805 net.cpp:141] Setting up loss1/fc
I0403 16:10:38.488723 20805 net.cpp:148] Top shape: 24 1024 (24576)
I0403 16:10:38.488739 20805 net.cpp:156] Memory required for data: 945992736
I0403 16:10:38.488757 20805 layer_factory.hpp:77] Creating layer loss1/relu_fc
I0403 16:10:38.488777 20805 net.cpp:91] Creating Layer loss1/relu_fc
I0403 16:10:38.488793 20805 net.cpp:425] loss1/relu_fc <- loss1/fc
I0403 16:10:38.488813 20805 net.cpp:386] loss1/relu_fc -> loss1/fc (in-place)
I0403 16:10:38.489007 20805 net.cpp:141] Setting up loss1/relu_fc
I0403 16:10:38.489035 20805 net.cpp:148] Top shape: 24 1024 (24576)
I0403 16:10:38.489050 20805 net.cpp:156] Memory required for data: 946091040
I0403 16:10:38.489065 20805 layer_factory.hpp:77] Creating layer loss1/drop_fc
I0403 16:10:38.489094 20805 net.cpp:91] Creating Layer loss1/drop_fc
I0403 16:10:38.489111 20805 net.cpp:425] loss1/drop_fc <- loss1/fc
I0403 16:10:38.489128 20805 net.cpp:386] loss1/drop_fc -> loss1/fc (in-place)
I0403 16:10:38.489181 20805 net.cpp:141] Setting up loss1/drop_fc
I0403 16:10:38.489205 20805 net.cpp:148] Top shape: 24 1024 (24576)
I0403 16:10:38.489220 20805 net.cpp:156] Memory required for data: 946189344
I0403 16:10:38.489235 20805 layer_factory.hpp:77] Creating layer loss1/classifier_plantvillage
I0403 16:10:38.489254 20805 net.cpp:91] Creating Layer loss1/classifier_plantvillage
I0403 16:10:38.489269 20805 net.cpp:425] loss1/classifier_plantvillage <- loss1/fc
I0403 16:10:38.489290 20805 net.cpp:399] loss1/classifier_plantvillage -> loss1/classifier_plantvillage
I0403 16:10:38.490218 20805 net.cpp:141] Setting up loss1/classifier_plantvillage
I0403 16:10:38.490247 20805 net.cpp:148] Top shape: 24 38 (912)
I0403 16:10:38.490262 20805 net.cpp:156] Memory required for data: 946192992
I0403 16:10:38.490280 20805 layer_factory.hpp:77] Creating layer loss1/classifier_plantvillage_loss1/classifier_plantvillage_0_split
I0403 16:10:38.490298 20805 net.cpp:91] Creating Layer loss1/classifier_plantvillage_loss1/classifier_plantvillage_0_split
I0403 16:10:38.490314 20805 net.cpp:425] loss1/classifier_plantvillage_loss1/classifier_plantvillage_0_split <- loss1/classifier_plantvillage
I0403 16:10:38.490335 20805 net.cpp:399] loss1/classifier_plantvillage_loss1/classifier_plantvillage_0_split -> loss1/classifier_plantvillage_loss1/classifier_plantvillage_0_split_0
I0403 16:10:38.490357 20805 net.cpp:399] loss1/classifier_plantvillage_loss1/classifier_plantvillage_0_split -> loss1/classifier_plantvillage_loss1/classifier_plantvillage_0_split_1
I0403 16:10:38.490377 20805 net.cpp:399] loss1/classifier_plantvillage_loss1/classifier_plantvillage_0_split -> loss1/classifier_plantvillage_loss1/classifier_plantvillage_0_split_2
I0403 16:10:38.490447 20805 net.cpp:141] Setting up loss1/classifier_plantvillage_loss1/classifier_plantvillage_0_split
I0403 16:10:38.490470 20805 net.cpp:148] Top shape: 24 38 (912)
I0403 16:10:38.490488 20805 net.cpp:148] Top shape: 24 38 (912)
I0403 16:10:38.490502 20805 net.cpp:148] Top shape: 24 38 (912)
I0403 16:10:38.490516 20805 net.cpp:156] Memory required for data: 946203936
I0403 16:10:38.490530 20805 layer_factory.hpp:77] Creating layer inception_4b/1x1
I0403 16:10:38.490555 20805 net.cpp:91] Creating Layer inception_4b/1x1
I0403 16:10:38.490592 20805 net.cpp:425] inception_4b/1x1 <- inception_4a/output_inception_4a/output_0_split_1
I0403 16:10:38.490612 20805 net.cpp:399] inception_4b/1x1 -> inception_4b/1x1
I0403 16:10:38.492276 20805 net.cpp:141] Setting up inception_4b/1x1
I0403 16:10:38.492305 20805 net.cpp:148] Top shape: 24 160 14 14 (752640)
I0403 16:10:38.492321 20805 net.cpp:156] Memory required for data: 949214496
I0403 16:10:38.492341 20805 layer_factory.hpp:77] Creating layer inception_4b/relu_1x1
I0403 16:10:38.492360 20805 net.cpp:91] Creating Layer inception_4b/relu_1x1
I0403 16:10:38.492377 20805 net.cpp:425] inception_4b/relu_1x1 <- inception_4b/1x1
I0403 16:10:38.492393 20805 net.cpp:386] inception_4b/relu_1x1 -> inception_4b/1x1 (in-place)
I0403 16:10:38.492570 20805 net.cpp:141] Setting up inception_4b/relu_1x1
I0403 16:10:38.492597 20805 net.cpp:148] Top shape: 24 160 14 14 (752640)
I0403 16:10:38.492614 20805 net.cpp:156] Memory required for data: 952225056
I0403 16:10:38.492627 20805 layer_factory.hpp:77] Creating layer inception_4b/3x3_reduce
I0403 16:10:38.492651 20805 net.cpp:91] Creating Layer inception_4b/3x3_reduce
I0403 16:10:38.492669 20805 net.cpp:425] inception_4b/3x3_reduce <- inception_4a/output_inception_4a/output_0_split_2
I0403 16:10:38.492691 20805 net.cpp:399] inception_4b/3x3_reduce -> inception_4b/3x3_reduce
I0403 16:10:38.494043 20805 net.cpp:141] Setting up inception_4b/3x3_reduce
I0403 16:10:38.494073 20805 net.cpp:148] Top shape: 24 112 14 14 (526848)
I0403 16:10:38.494092 20805 net.cpp:156] Memory required for data: 954332448
I0403 16:10:38.494110 20805 layer_factory.hpp:77] Creating layer inception_4b/relu_3x3_reduce
I0403 16:10:38.494128 20805 net.cpp:91] Creating Layer inception_4b/relu_3x3_reduce
I0403 16:10:38.494144 20805 net.cpp:425] inception_4b/relu_3x3_reduce <- inception_4b/3x3_reduce
I0403 16:10:38.494163 20805 net.cpp:386] inception_4b/relu_3x3_reduce -> inception_4b/3x3_reduce (in-place)
I0403 16:10:38.494442 20805 net.cpp:141] Setting up inception_4b/relu_3x3_reduce
I0403 16:10:38.494470 20805 net.cpp:148] Top shape: 24 112 14 14 (526848)
I0403 16:10:38.494485 20805 net.cpp:156] Memory required for data: 956439840
I0403 16:10:38.494500 20805 layer_factory.hpp:77] Creating layer inception_4b/3x3
I0403 16:10:38.494523 20805 net.cpp:91] Creating Layer inception_4b/3x3
I0403 16:10:38.494539 20805 net.cpp:425] inception_4b/3x3 <- inception_4b/3x3_reduce
I0403 16:10:38.494559 20805 net.cpp:399] inception_4b/3x3 -> inception_4b/3x3
I0403 16:10:38.497611 20805 net.cpp:141] Setting up inception_4b/3x3
I0403 16:10:38.497638 20805 net.cpp:148] Top shape: 24 224 14 14 (1053696)
I0403 16:10:38.497654 20805 net.cpp:156] Memory required for data: 960654624
I0403 16:10:38.497673 20805 layer_factory.hpp:77] Creating layer inception_4b/relu_3x3
I0403 16:10:38.497692 20805 net.cpp:91] Creating Layer inception_4b/relu_3x3
I0403 16:10:38.497709 20805 net.cpp:425] inception_4b/relu_3x3 <- inception_4b/3x3
I0403 16:10:38.497727 20805 net.cpp:386] inception_4b/relu_3x3 -> inception_4b/3x3 (in-place)
I0403 16:10:38.497908 20805 net.cpp:141] Setting up inception_4b/relu_3x3
I0403 16:10:38.497933 20805 net.cpp:148] Top shape: 24 224 14 14 (1053696)
I0403 16:10:38.497948 20805 net.cpp:156] Memory required for data: 964869408
I0403 16:10:38.497962 20805 layer_factory.hpp:77] Creating layer inception_4b/5x5_reduce
I0403 16:10:38.497984 20805 net.cpp:91] Creating Layer inception_4b/5x5_reduce
I0403 16:10:38.498003 20805 net.cpp:425] inception_4b/5x5_reduce <- inception_4a/output_inception_4a/output_0_split_3
I0403 16:10:38.498034 20805 net.cpp:399] inception_4b/5x5_reduce -> inception_4b/5x5_reduce
I0403 16:10:38.499136 20805 net.cpp:141] Setting up inception_4b/5x5_reduce
I0403 16:10:38.499166 20805 net.cpp:148] Top shape: 24 24 14 14 (112896)
I0403 16:10:38.499182 20805 net.cpp:156] Memory required for data: 965320992
I0403 16:10:38.499200 20805 layer_factory.hpp:77] Creating layer inception_4b/relu_5x5_reduce
I0403 16:10:38.499218 20805 net.cpp:91] Creating Layer inception_4b/relu_5x5_reduce
I0403 16:10:38.499249 20805 net.cpp:425] inception_4b/relu_5x5_reduce <- inception_4b/5x5_reduce
I0403 16:10:38.499269 20805 net.cpp:386] inception_4b/relu_5x5_reduce -> inception_4b/5x5_reduce (in-place)
I0403 16:10:38.499455 20805 net.cpp:141] Setting up inception_4b/relu_5x5_reduce
I0403 16:10:38.499485 20805 net.cpp:148] Top shape: 24 24 14 14 (112896)
I0403 16:10:38.499500 20805 net.cpp:156] Memory required for data: 965772576
I0403 16:10:38.499516 20805 layer_factory.hpp:77] Creating layer inception_4b/5x5
I0403 16:10:38.499537 20805 net.cpp:91] Creating Layer inception_4b/5x5
I0403 16:10:38.499554 20805 net.cpp:425] inception_4b/5x5 <- inception_4b/5x5_reduce
I0403 16:10:38.499575 20805 net.cpp:399] inception_4b/5x5 -> inception_4b/5x5
I0403 16:10:38.500802 20805 net.cpp:141] Setting up inception_4b/5x5
I0403 16:10:38.500828 20805 net.cpp:148] Top shape: 24 64 14 14 (301056)
I0403 16:10:38.500844 20805 net.cpp:156] Memory required for data: 966976800
I0403 16:10:38.500862 20805 layer_factory.hpp:77] Creating layer inception_4b/relu_5x5
I0403 16:10:38.500882 20805 net.cpp:91] Creating Layer inception_4b/relu_5x5
I0403 16:10:38.500900 20805 net.cpp:425] inception_4b/relu_5x5 <- inception_4b/5x5
I0403 16:10:38.500916 20805 net.cpp:386] inception_4b/relu_5x5 -> inception_4b/5x5 (in-place)
I0403 16:10:38.501204 20805 net.cpp:141] Setting up inception_4b/relu_5x5
I0403 16:10:38.501230 20805 net.cpp:148] Top shape: 24 64 14 14 (301056)
I0403 16:10:38.501245 20805 net.cpp:156] Memory required for data: 968181024
I0403 16:10:38.501260 20805 layer_factory.hpp:77] Creating layer inception_4b/pool
I0403 16:10:38.501281 20805 net.cpp:91] Creating Layer inception_4b/pool
I0403 16:10:38.501297 20805 net.cpp:425] inception_4b/pool <- inception_4a/output_inception_4a/output_0_split_4
I0403 16:10:38.501315 20805 net.cpp:399] inception_4b/pool -> inception_4b/pool
I0403 16:10:38.501380 20805 net.cpp:141] Setting up inception_4b/pool
I0403 16:10:38.501405 20805 net.cpp:148] Top shape: 24 512 14 14 (2408448)
I0403 16:10:38.501418 20805 net.cpp:156] Memory required for data: 977814816
I0403 16:10:38.501432 20805 layer_factory.hpp:77] Creating layer inception_4b/pool_proj
I0403 16:10:38.501454 20805 net.cpp:91] Creating Layer inception_4b/pool_proj
I0403 16:10:38.501472 20805 net.cpp:425] inception_4b/pool_proj <- inception_4b/pool
I0403 16:10:38.501493 20805 net.cpp:399] inception_4b/pool_proj -> inception_4b/pool_proj
I0403 16:10:38.502732 20805 net.cpp:141] Setting up inception_4b/pool_proj
I0403 16:10:38.502758 20805 net.cpp:148] Top shape: 24 64 14 14 (301056)
I0403 16:10:38.502774 20805 net.cpp:156] Memory required for data: 979019040
I0403 16:10:38.502792 20805 layer_factory.hpp:77] Creating layer inception_4b/relu_pool_proj
I0403 16:10:38.502813 20805 net.cpp:91] Creating Layer inception_4b/relu_pool_proj
I0403 16:10:38.502830 20805 net.cpp:425] inception_4b/relu_pool_proj <- inception_4b/pool_proj
I0403 16:10:38.502848 20805 net.cpp:386] inception_4b/relu_pool_proj -> inception_4b/pool_proj (in-place)
I0403 16:10:38.503033 20805 net.cpp:141] Setting up inception_4b/relu_pool_proj
I0403 16:10:38.503059 20805 net.cpp:148] Top shape: 24 64 14 14 (301056)
I0403 16:10:38.503074 20805 net.cpp:156] Memory required for data: 980223264
I0403 16:10:38.503088 20805 layer_factory.hpp:77] Creating layer inception_4b/output
I0403 16:10:38.503105 20805 net.cpp:91] Creating Layer inception_4b/output
I0403 16:10:38.503121 20805 net.cpp:425] inception_4b/output <- inception_4b/1x1
I0403 16:10:38.503137 20805 net.cpp:425] inception_4b/output <- inception_4b/3x3
I0403 16:10:38.503154 20805 net.cpp:425] inception_4b/output <- inception_4b/5x5
I0403 16:10:38.503168 20805 net.cpp:425] inception_4b/output <- inception_4b/pool_proj
I0403 16:10:38.503187 20805 net.cpp:399] inception_4b/output -> inception_4b/output
I0403 16:10:38.503233 20805 net.cpp:141] Setting up inception_4b/output
I0403 16:10:38.503258 20805 net.cpp:148] Top shape: 24 512 14 14 (2408448)
I0403 16:10:38.503273 20805 net.cpp:156] Memory required for data: 989857056
I0403 16:10:38.503303 20805 layer_factory.hpp:77] Creating layer inception_4b/output_inception_4b/output_0_split
I0403 16:10:38.503319 20805 net.cpp:91] Creating Layer inception_4b/output_inception_4b/output_0_split
I0403 16:10:38.503334 20805 net.cpp:425] inception_4b/output_inception_4b/output_0_split <- inception_4b/output
I0403 16:10:38.503352 20805 net.cpp:399] inception_4b/output_inception_4b/output_0_split -> inception_4b/output_inception_4b/output_0_split_0
I0403 16:10:38.503372 20805 net.cpp:399] inception_4b/output_inception_4b/output_0_split -> inception_4b/output_inception_4b/output_0_split_1
I0403 16:10:38.503396 20805 net.cpp:399] inception_4b/output_inception_4b/output_0_split -> inception_4b/output_inception_4b/output_0_split_2
I0403 16:10:38.503417 20805 net.cpp:399] inception_4b/output_inception_4b/output_0_split -> inception_4b/output_inception_4b/output_0_split_3
I0403 16:10:38.503501 20805 net.cpp:141] Setting up inception_4b/output_inception_4b/output_0_split
I0403 16:10:38.503525 20805 net.cpp:148] Top shape: 24 512 14 14 (2408448)
I0403 16:10:38.503540 20805 net.cpp:148] Top shape: 24 512 14 14 (2408448)
I0403 16:10:38.503556 20805 net.cpp:148] Top shape: 24 512 14 14 (2408448)
I0403 16:10:38.503571 20805 net.cpp:148] Top shape: 24 512 14 14 (2408448)
I0403 16:10:38.503583 20805 net.cpp:156] Memory required for data: 1028392224
I0403 16:10:38.503598 20805 layer_factory.hpp:77] Creating layer inception_4c/1x1
I0403 16:10:38.503620 20805 net.cpp:91] Creating Layer inception_4c/1x1
I0403 16:10:38.503638 20805 net.cpp:425] inception_4c/1x1 <- inception_4b/output_inception_4b/output_0_split_0
I0403 16:10:38.503659 20805 net.cpp:399] inception_4c/1x1 -> inception_4c/1x1
I0403 16:10:38.505095 20805 net.cpp:141] Setting up inception_4c/1x1
I0403 16:10:38.505123 20805 net.cpp:148] Top shape: 24 128 14 14 (602112)
I0403 16:10:38.505138 20805 net.cpp:156] Memory required for data: 1030800672
I0403 16:10:38.505156 20805 layer_factory.hpp:77] Creating layer inception_4c/relu_1x1
I0403 16:10:38.505174 20805 net.cpp:91] Creating Layer inception_4c/relu_1x1
I0403 16:10:38.505190 20805 net.cpp:425] inception_4c/relu_1x1 <- inception_4c/1x1
I0403 16:10:38.505209 20805 net.cpp:386] inception_4c/relu_1x1 -> inception_4c/1x1 (in-place)
I0403 16:10:38.505393 20805 net.cpp:141] Setting up inception_4c/relu_1x1
I0403 16:10:38.505416 20805 net.cpp:148] Top shape: 24 128 14 14 (602112)
I0403 16:10:38.505431 20805 net.cpp:156] Memory required for data: 1033209120
I0403 16:10:38.505446 20805 layer_factory.hpp:77] Creating layer inception_4c/3x3_reduce
I0403 16:10:38.505468 20805 net.cpp:91] Creating Layer inception_4c/3x3_reduce
I0403 16:10:38.505486 20805 net.cpp:425] inception_4c/3x3_reduce <- inception_4b/output_inception_4b/output_0_split_1
I0403 16:10:38.505506 20805 net.cpp:399] inception_4c/3x3_reduce -> inception_4c/3x3_reduce
I0403 16:10:38.507447 20805 net.cpp:141] Setting up inception_4c/3x3_reduce
I0403 16:10:38.507475 20805 net.cpp:148] Top shape: 24 128 14 14 (602112)
I0403 16:10:38.507491 20805 net.cpp:156] Memory required for data: 1035617568
I0403 16:10:38.507509 20805 layer_factory.hpp:77] Creating layer inception_4c/relu_3x3_reduce
I0403 16:10:38.507530 20805 net.cpp:91] Creating Layer inception_4c/relu_3x3_reduce
I0403 16:10:38.507547 20805 net.cpp:425] inception_4c/relu_3x3_reduce <- inception_4c/3x3_reduce
I0403 16:10:38.507565 20805 net.cpp:386] inception_4c/relu_3x3_reduce -> inception_4c/3x3_reduce (in-place)
I0403 16:10:38.507850 20805 net.cpp:141] Setting up inception_4c/relu_3x3_reduce
I0403 16:10:38.507876 20805 net.cpp:148] Top shape: 24 128 14 14 (602112)
I0403 16:10:38.507891 20805 net.cpp:156] Memory required for data: 1038026016
I0403 16:10:38.507905 20805 layer_factory.hpp:77] Creating layer inception_4c/3x3
I0403 16:10:38.507928 20805 net.cpp:91] Creating Layer inception_4c/3x3
I0403 16:10:38.507946 20805 net.cpp:425] inception_4c/3x3 <- inception_4c/3x3_reduce
I0403 16:10:38.507966 20805 net.cpp:399] inception_4c/3x3 -> inception_4c/3x3
I0403 16:10:38.511590 20805 net.cpp:141] Setting up inception_4c/3x3
I0403 16:10:38.511631 20805 net.cpp:148] Top shape: 24 256 14 14 (1204224)
I0403 16:10:38.511648 20805 net.cpp:156] Memory required for data: 1042842912
I0403 16:10:38.511682 20805 layer_factory.hpp:77] Creating layer inception_4c/relu_3x3
I0403 16:10:38.511704 20805 net.cpp:91] Creating Layer inception_4c/relu_3x3
I0403 16:10:38.511721 20805 net.cpp:425] inception_4c/relu_3x3 <- inception_4c/3x3
I0403 16:10:38.511739 20805 net.cpp:386] inception_4c/relu_3x3 -> inception_4c/3x3 (in-place)
I0403 16:10:38.511920 20805 net.cpp:141] Setting up inception_4c/relu_3x3
I0403 16:10:38.511947 20805 net.cpp:148] Top shape: 24 256 14 14 (1204224)
I0403 16:10:38.511962 20805 net.cpp:156] Memory required for data: 1047659808
I0403 16:10:38.511977 20805 layer_factory.hpp:77] Creating layer inception_4c/5x5_reduce
I0403 16:10:38.512002 20805 net.cpp:91] Creating Layer inception_4c/5x5_reduce
I0403 16:10:38.512024 20805 net.cpp:425] inception_4c/5x5_reduce <- inception_4b/output_inception_4b/output_0_split_2
I0403 16:10:38.512045 20805 net.cpp:399] inception_4c/5x5_reduce -> inception_4c/5x5_reduce
I0403 16:10:38.513141 20805 net.cpp:141] Setting up inception_4c/5x5_reduce
I0403 16:10:38.513173 20805 net.cpp:148] Top shape: 24 24 14 14 (112896)
I0403 16:10:38.513195 20805 net.cpp:156] Memory required for data: 1048111392
I0403 16:10:38.513219 20805 layer_factory.hpp:77] Creating layer inception_4c/relu_5x5_reduce
I0403 16:10:38.513247 20805 net.cpp:91] Creating Layer inception_4c/relu_5x5_reduce
I0403 16:10:38.513272 20805 net.cpp:425] inception_4c/relu_5x5_reduce <- inception_4c/5x5_reduce
I0403 16:10:38.513298 20805 net.cpp:386] inception_4c/relu_5x5_reduce -> inception_4c/5x5_reduce (in-place)
I0403 16:10:38.513489 20805 net.cpp:141] Setting up inception_4c/relu_5x5_reduce
I0403 16:10:38.513516 20805 net.cpp:148] Top shape: 24 24 14 14 (112896)
I0403 16:10:38.513531 20805 net.cpp:156] Memory required for data: 1048562976
I0403 16:10:38.513545 20805 layer_factory.hpp:77] Creating layer inception_4c/5x5
I0403 16:10:38.513567 20805 net.cpp:91] Creating Layer inception_4c/5x5
I0403 16:10:38.513586 20805 net.cpp:425] inception_4c/5x5 <- inception_4c/5x5_reduce
I0403 16:10:38.513603 20805 net.cpp:399] inception_4c/5x5 -> inception_4c/5x5
I0403 16:10:38.514865 20805 net.cpp:141] Setting up inception_4c/5x5
I0403 16:10:38.514894 20805 net.cpp:148] Top shape: 24 64 14 14 (301056)
I0403 16:10:38.514909 20805 net.cpp:156] Memory required for data: 1049767200
I0403 16:10:38.514926 20805 layer_factory.hpp:77] Creating layer inception_4c/relu_5x5
I0403 16:10:38.514943 20805 net.cpp:91] Creating Layer inception_4c/relu_5x5
I0403 16:10:38.514961 20805 net.cpp:425] inception_4c/relu_5x5 <- inception_4c/5x5
I0403 16:10:38.514979 20805 net.cpp:386] inception_4c/relu_5x5 -> inception_4c/5x5 (in-place)
I0403 16:10:38.515282 20805 net.cpp:141] Setting up inception_4c/relu_5x5
I0403 16:10:38.515310 20805 net.cpp:148] Top shape: 24 64 14 14 (301056)
I0403 16:10:38.515323 20805 net.cpp:156] Memory required for data: 1050971424
I0403 16:10:38.515338 20805 layer_factory.hpp:77] Creating layer inception_4c/pool
I0403 16:10:38.515357 20805 net.cpp:91] Creating Layer inception_4c/pool
I0403 16:10:38.515372 20805 net.cpp:425] inception_4c/pool <- inception_4b/output_inception_4b/output_0_split_3
I0403 16:10:38.515393 20805 net.cpp:399] inception_4c/pool -> inception_4c/pool
I0403 16:10:38.515460 20805 net.cpp:141] Setting up inception_4c/pool
I0403 16:10:38.515483 20805 net.cpp:148] Top shape: 24 512 14 14 (2408448)
I0403 16:10:38.515497 20805 net.cpp:156] Memory required for data: 1060605216
I0403 16:10:38.515511 20805 layer_factory.hpp:77] Creating layer inception_4c/pool_proj
I0403 16:10:38.515534 20805 net.cpp:91] Creating Layer inception_4c/pool_proj
I0403 16:10:38.515552 20805 net.cpp:425] inception_4c/pool_proj <- inception_4c/pool
I0403 16:10:38.515571 20805 net.cpp:399] inception_4c/pool_proj -> inception_4c/pool_proj
I0403 16:10:38.516808 20805 net.cpp:141] Setting up inception_4c/pool_proj
I0403 16:10:38.516835 20805 net.cpp:148] Top shape: 24 64 14 14 (301056)
I0403 16:10:38.516865 20805 net.cpp:156] Memory required for data: 1061809440
I0403 16:10:38.516885 20805 layer_factory.hpp:77] Creating layer inception_4c/relu_pool_proj
I0403 16:10:38.516904 20805 net.cpp:91] Creating Layer inception_4c/relu_pool_proj
I0403 16:10:38.516921 20805 net.cpp:425] inception_4c/relu_pool_proj <- inception_4c/pool_proj
I0403 16:10:38.516940 20805 net.cpp:386] inception_4c/relu_pool_proj -> inception_4c/pool_proj (in-place)
I0403 16:10:38.517130 20805 net.cpp:141] Setting up inception_4c/relu_pool_proj
I0403 16:10:38.517155 20805 net.cpp:148] Top shape: 24 64 14 14 (301056)
I0403 16:10:38.517169 20805 net.cpp:156] Memory required for data: 1063013664
I0403 16:10:38.517185 20805 layer_factory.hpp:77] Creating layer inception_4c/output
I0403 16:10:38.517204 20805 net.cpp:91] Creating Layer inception_4c/output
I0403 16:10:38.517218 20805 net.cpp:425] inception_4c/output <- inception_4c/1x1
I0403 16:10:38.517235 20805 net.cpp:425] inception_4c/output <- inception_4c/3x3
I0403 16:10:38.517251 20805 net.cpp:425] inception_4c/output <- inception_4c/5x5
I0403 16:10:38.517267 20805 net.cpp:425] inception_4c/output <- inception_4c/pool_proj
I0403 16:10:38.517285 20805 net.cpp:399] inception_4c/output -> inception_4c/output
I0403 16:10:38.517331 20805 net.cpp:141] Setting up inception_4c/output
I0403 16:10:38.517354 20805 net.cpp:148] Top shape: 24 512 14 14 (2408448)
I0403 16:10:38.517372 20805 net.cpp:156] Memory required for data: 1072647456
I0403 16:10:38.517386 20805 layer_factory.hpp:77] Creating layer inception_4c/output_inception_4c/output_0_split
I0403 16:10:38.517403 20805 net.cpp:91] Creating Layer inception_4c/output_inception_4c/output_0_split
I0403 16:10:38.517419 20805 net.cpp:425] inception_4c/output_inception_4c/output_0_split <- inception_4c/output
I0403 16:10:38.517436 20805 net.cpp:399] inception_4c/output_inception_4c/output_0_split -> inception_4c/output_inception_4c/output_0_split_0
I0403 16:10:38.517455 20805 net.cpp:399] inception_4c/output_inception_4c/output_0_split -> inception_4c/output_inception_4c/output_0_split_1
I0403 16:10:38.517475 20805 net.cpp:399] inception_4c/output_inception_4c/output_0_split -> inception_4c/output_inception_4c/output_0_split_2
I0403 16:10:38.517498 20805 net.cpp:399] inception_4c/output_inception_4c/output_0_split -> inception_4c/output_inception_4c/output_0_split_3
I0403 16:10:38.517588 20805 net.cpp:141] Setting up inception_4c/output_inception_4c/output_0_split
I0403 16:10:38.517611 20805 net.cpp:148] Top shape: 24 512 14 14 (2408448)
I0403 16:10:38.517627 20805 net.cpp:148] Top shape: 24 512 14 14 (2408448)
I0403 16:10:38.517642 20805 net.cpp:148] Top shape: 24 512 14 14 (2408448)
I0403 16:10:38.517657 20805 net.cpp:148] Top shape: 24 512 14 14 (2408448)
I0403 16:10:38.517670 20805 net.cpp:156] Memory required for data: 1111182624
I0403 16:10:38.517684 20805 layer_factory.hpp:77] Creating layer inception_4d/1x1
I0403 16:10:38.517707 20805 net.cpp:91] Creating Layer inception_4d/1x1
I0403 16:10:38.517724 20805 net.cpp:425] inception_4d/1x1 <- inception_4c/output_inception_4c/output_0_split_0
I0403 16:10:38.517745 20805 net.cpp:399] inception_4d/1x1 -> inception_4d/1x1
I0403 16:10:38.519196 20805 net.cpp:141] Setting up inception_4d/1x1
I0403 16:10:38.519225 20805 net.cpp:148] Top shape: 24 112 14 14 (526848)
I0403 16:10:38.519242 20805 net.cpp:156] Memory required for data: 1113290016
I0403 16:10:38.519260 20805 layer_factory.hpp:77] Creating layer inception_4d/relu_1x1
I0403 16:10:38.519281 20805 net.cpp:91] Creating Layer inception_4d/relu_1x1
I0403 16:10:38.519299 20805 net.cpp:425] inception_4d/relu_1x1 <- inception_4d/1x1
I0403 16:10:38.519316 20805 net.cpp:386] inception_4d/relu_1x1 -> inception_4d/1x1 (in-place)
I0403 16:10:38.519510 20805 net.cpp:141] Setting up inception_4d/relu_1x1
I0403 16:10:38.519536 20805 net.cpp:148] Top shape: 24 112 14 14 (526848)
I0403 16:10:38.519553 20805 net.cpp:156] Memory required for data: 1115397408
I0403 16:10:38.519568 20805 layer_factory.hpp:77] Creating layer inception_4d/3x3_reduce
I0403 16:10:38.519603 20805 net.cpp:91] Creating Layer inception_4d/3x3_reduce
I0403 16:10:38.519623 20805 net.cpp:425] inception_4d/3x3_reduce <- inception_4c/output_inception_4c/output_0_split_1
I0403 16:10:38.519644 20805 net.cpp:399] inception_4d/3x3_reduce -> inception_4d/3x3_reduce
I0403 16:10:38.521220 20805 net.cpp:141] Setting up inception_4d/3x3_reduce
I0403 16:10:38.521250 20805 net.cpp:148] Top shape: 24 144 14 14 (677376)
I0403 16:10:38.521265 20805 net.cpp:156] Memory required for data: 1118106912
I0403 16:10:38.521284 20805 layer_factory.hpp:77] Creating layer inception_4d/relu_3x3_reduce
I0403 16:10:38.521302 20805 net.cpp:91] Creating Layer inception_4d/relu_3x3_reduce
I0403 16:10:38.521319 20805 net.cpp:425] inception_4d/relu_3x3_reduce <- inception_4d/3x3_reduce
I0403 16:10:38.521339 20805 net.cpp:386] inception_4d/relu_3x3_reduce -> inception_4d/3x3_reduce (in-place)
I0403 16:10:38.521638 20805 net.cpp:141] Setting up inception_4d/relu_3x3_reduce
I0403 16:10:38.521666 20805 net.cpp:148] Top shape: 24 144 14 14 (677376)
I0403 16:10:38.521680 20805 net.cpp:156] Memory required for data: 1120816416
I0403 16:10:38.521697 20805 layer_factory.hpp:77] Creating layer inception_4d/3x3
I0403 16:10:38.521719 20805 net.cpp:91] Creating Layer inception_4d/3x3
I0403 16:10:38.521738 20805 net.cpp:425] inception_4d/3x3 <- inception_4d/3x3_reduce
I0403 16:10:38.521759 20805 net.cpp:399] inception_4d/3x3 -> inception_4d/3x3
I0403 16:10:38.526072 20805 net.cpp:141] Setting up inception_4d/3x3
I0403 16:10:38.526100 20805 net.cpp:148] Top shape: 24 288 14 14 (1354752)
I0403 16:10:38.526116 20805 net.cpp:156] Memory required for data: 1126235424
I0403 16:10:38.526134 20805 layer_factory.hpp:77] Creating layer inception_4d/relu_3x3
I0403 16:10:38.526155 20805 net.cpp:91] Creating Layer inception_4d/relu_3x3
I0403 16:10:38.526172 20805 net.cpp:425] inception_4d/relu_3x3 <- inception_4d/3x3
I0403 16:10:38.526190 20805 net.cpp:386] inception_4d/relu_3x3 -> inception_4d/3x3 (in-place)
I0403 16:10:38.526376 20805 net.cpp:141] Setting up inception_4d/relu_3x3
I0403 16:10:38.526401 20805 net.cpp:148] Top shape: 24 288 14 14 (1354752)
I0403 16:10:38.526417 20805 net.cpp:156] Memory required for data: 1131654432
I0403 16:10:38.526432 20805 layer_factory.hpp:77] Creating layer inception_4d/5x5_reduce
I0403 16:10:38.526454 20805 net.cpp:91] Creating Layer inception_4d/5x5_reduce
I0403 16:10:38.526473 20805 net.cpp:425] inception_4d/5x5_reduce <- inception_4c/output_inception_4c/output_0_split_2
I0403 16:10:38.526491 20805 net.cpp:399] inception_4d/5x5_reduce -> inception_4d/5x5_reduce
I0403 16:10:38.527653 20805 net.cpp:141] Setting up inception_4d/5x5_reduce
I0403 16:10:38.527681 20805 net.cpp:148] Top shape: 24 32 14 14 (150528)
I0403 16:10:38.527696 20805 net.cpp:156] Memory required for data: 1132256544
I0403 16:10:38.527714 20805 layer_factory.hpp:77] Creating layer inception_4d/relu_5x5_reduce
I0403 16:10:38.527734 20805 net.cpp:91] Creating Layer inception_4d/relu_5x5_reduce
I0403 16:10:38.527751 20805 net.cpp:425] inception_4d/relu_5x5_reduce <- inception_4d/5x5_reduce
I0403 16:10:38.527770 20805 net.cpp:386] inception_4d/relu_5x5_reduce -> inception_4d/5x5_reduce (in-place)
I0403 16:10:38.527956 20805 net.cpp:141] Setting up inception_4d/relu_5x5_reduce
I0403 16:10:38.527983 20805 net.cpp:148] Top shape: 24 32 14 14 (150528)
I0403 16:10:38.527999 20805 net.cpp:156] Memory required for data: 1132858656
I0403 16:10:38.528014 20805 layer_factory.hpp:77] Creating layer inception_4d/5x5
I0403 16:10:38.528050 20805 net.cpp:91] Creating Layer inception_4d/5x5
I0403 16:10:38.528069 20805 net.cpp:425] inception_4d/5x5 <- inception_4d/5x5_reduce
I0403 16:10:38.528089 20805 net.cpp:399] inception_4d/5x5 -> inception_4d/5x5
I0403 16:10:38.529600 20805 net.cpp:141] Setting up inception_4d/5x5
I0403 16:10:38.529630 20805 net.cpp:148] Top shape: 24 64 14 14 (301056)
I0403 16:10:38.529646 20805 net.cpp:156] Memory required for data: 1134062880
I0403 16:10:38.529666 20805 layer_factory.hpp:77] Creating layer inception_4d/relu_5x5
I0403 16:10:38.529700 20805 net.cpp:91] Creating Layer inception_4d/relu_5x5
I0403 16:10:38.529716 20805 net.cpp:425] inception_4d/relu_5x5 <- inception_4d/5x5
I0403 16:10:38.529734 20805 net.cpp:386] inception_4d/relu_5x5 -> inception_4d/5x5 (in-place)
I0403 16:10:38.530061 20805 net.cpp:141] Setting up inception_4d/relu_5x5
I0403 16:10:38.530089 20805 net.cpp:148] Top shape: 24 64 14 14 (301056)
I0403 16:10:38.530104 20805 net.cpp:156] Memory required for data: 1135267104
I0403 16:10:38.530119 20805 layer_factory.hpp:77] Creating layer inception_4d/pool
I0403 16:10:38.530138 20805 net.cpp:91] Creating Layer inception_4d/pool
I0403 16:10:38.530153 20805 net.cpp:425] inception_4d/pool <- inception_4c/output_inception_4c/output_0_split_3
I0403 16:10:38.530170 20805 net.cpp:399] inception_4d/pool -> inception_4d/pool
I0403 16:10:38.530239 20805 net.cpp:141] Setting up inception_4d/pool
I0403 16:10:38.530263 20805 net.cpp:148] Top shape: 24 512 14 14 (2408448)
I0403 16:10:38.530277 20805 net.cpp:156] Memory required for data: 1144900896
I0403 16:10:38.530292 20805 layer_factory.hpp:77] Creating layer inception_4d/pool_proj
I0403 16:10:38.530313 20805 net.cpp:91] Creating Layer inception_4d/pool_proj
I0403 16:10:38.530331 20805 net.cpp:425] inception_4d/pool_proj <- inception_4d/pool
I0403 16:10:38.530351 20805 net.cpp:399] inception_4d/pool_proj -> inception_4d/pool_proj
I0403 16:10:38.532136 20805 net.cpp:141] Setting up inception_4d/pool_proj
I0403 16:10:38.532167 20805 net.cpp:148] Top shape: 24 64 14 14 (301056)
I0403 16:10:38.532183 20805 net.cpp:156] Memory required for data: 1146105120
I0403 16:10:38.532202 20805 layer_factory.hpp:77] Creating layer inception_4d/relu_pool_proj
I0403 16:10:38.532222 20805 net.cpp:91] Creating Layer inception_4d/relu_pool_proj
I0403 16:10:38.532239 20805 net.cpp:425] inception_4d/relu_pool_proj <- inception_4d/pool_proj
I0403 16:10:38.532258 20805 net.cpp:386] inception_4d/relu_pool_proj -> inception_4d/pool_proj (in-place)
I0403 16:10:38.532444 20805 net.cpp:141] Setting up inception_4d/relu_pool_proj
I0403 16:10:38.532469 20805 net.cpp:148] Top shape: 24 64 14 14 (301056)
I0403 16:10:38.532485 20805 net.cpp:156] Memory required for data: 1147309344
I0403 16:10:38.532500 20805 layer_factory.hpp:77] Creating layer inception_4d/output
I0403 16:10:38.532518 20805 net.cpp:91] Creating Layer inception_4d/output
I0403 16:10:38.532536 20805 net.cpp:425] inception_4d/output <- inception_4d/1x1
I0403 16:10:38.532552 20805 net.cpp:425] inception_4d/output <- inception_4d/3x3
I0403 16:10:38.532568 20805 net.cpp:425] inception_4d/output <- inception_4d/5x5
I0403 16:10:38.532583 20805 net.cpp:425] inception_4d/output <- inception_4d/pool_proj
I0403 16:10:38.532599 20805 net.cpp:399] inception_4d/output -> inception_4d/output
I0403 16:10:38.532649 20805 net.cpp:141] Setting up inception_4d/output
I0403 16:10:38.532673 20805 net.cpp:148] Top shape: 24 528 14 14 (2483712)
I0403 16:10:38.532687 20805 net.cpp:156] Memory required for data: 1157244192
I0403 16:10:38.532701 20805 layer_factory.hpp:77] Creating layer inception_4d/output_inception_4d/output_0_split
I0403 16:10:38.532719 20805 net.cpp:91] Creating Layer inception_4d/output_inception_4d/output_0_split
I0403 16:10:38.532735 20805 net.cpp:425] inception_4d/output_inception_4d/output_0_split <- inception_4d/output
I0403 16:10:38.532754 20805 net.cpp:399] inception_4d/output_inception_4d/output_0_split -> inception_4d/output_inception_4d/output_0_split_0
I0403 16:10:38.532776 20805 net.cpp:399] inception_4d/output_inception_4d/output_0_split -> inception_4d/output_inception_4d/output_0_split_1
I0403 16:10:38.532796 20805 net.cpp:399] inception_4d/output_inception_4d/output_0_split -> inception_4d/output_inception_4d/output_0_split_2
I0403 16:10:38.532820 20805 net.cpp:399] inception_4d/output_inception_4d/output_0_split -> inception_4d/output_inception_4d/output_0_split_3
I0403 16:10:38.532841 20805 net.cpp:399] inception_4d/output_inception_4d/output_0_split -> inception_4d/output_inception_4d/output_0_split_4
I0403 16:10:38.532946 20805 net.cpp:141] Setting up inception_4d/output_inception_4d/output_0_split
I0403 16:10:38.532982 20805 net.cpp:148] Top shape: 24 528 14 14 (2483712)
I0403 16:10:38.533001 20805 net.cpp:148] Top shape: 24 528 14 14 (2483712)
I0403 16:10:38.533020 20805 net.cpp:148] Top shape: 24 528 14 14 (2483712)
I0403 16:10:38.533038 20805 net.cpp:148] Top shape: 24 528 14 14 (2483712)
I0403 16:10:38.533053 20805 net.cpp:148] Top shape: 24 528 14 14 (2483712)
I0403 16:10:38.533067 20805 net.cpp:156] Memory required for data: 1206918432
I0403 16:10:38.533082 20805 layer_factory.hpp:77] Creating layer loss2/ave_pool
I0403 16:10:38.533098 20805 net.cpp:91] Creating Layer loss2/ave_pool
I0403 16:10:38.533114 20805 net.cpp:425] loss2/ave_pool <- inception_4d/output_inception_4d/output_0_split_0
I0403 16:10:38.533135 20805 net.cpp:399] loss2/ave_pool -> loss2/ave_pool
I0403 16:10:38.533449 20805 net.cpp:141] Setting up loss2/ave_pool
I0403 16:10:38.533475 20805 net.cpp:148] Top shape: 24 528 4 4 (202752)
I0403 16:10:38.533490 20805 net.cpp:156] Memory required for data: 1207729440
I0403 16:10:38.533505 20805 layer_factory.hpp:77] Creating layer loss2/conv
I0403 16:10:38.533527 20805 net.cpp:91] Creating Layer loss2/conv
I0403 16:10:38.533545 20805 net.cpp:425] loss2/conv <- loss2/ave_pool
I0403 16:10:38.533565 20805 net.cpp:399] loss2/conv -> loss2/conv
I0403 16:10:38.535475 20805 net.cpp:141] Setting up loss2/conv
I0403 16:10:38.535506 20805 net.cpp:148] Top shape: 24 128 4 4 (49152)
I0403 16:10:38.535521 20805 net.cpp:156] Memory required for data: 1207926048
I0403 16:10:38.535540 20805 layer_factory.hpp:77] Creating layer loss2/relu_conv
I0403 16:10:38.535559 20805 net.cpp:91] Creating Layer loss2/relu_conv
I0403 16:10:38.535574 20805 net.cpp:425] loss2/relu_conv <- loss2/conv
I0403 16:10:38.535594 20805 net.cpp:386] loss2/relu_conv -> loss2/conv (in-place)
I0403 16:10:38.535884 20805 net.cpp:141] Setting up loss2/relu_conv
I0403 16:10:38.535913 20805 net.cpp:148] Top shape: 24 128 4 4 (49152)
I0403 16:10:38.535929 20805 net.cpp:156] Memory required for data: 1208122656
I0403 16:10:38.535944 20805 layer_factory.hpp:77] Creating layer loss2/fc
I0403 16:10:38.535964 20805 net.cpp:91] Creating Layer loss2/fc
I0403 16:10:38.535979 20805 net.cpp:425] loss2/fc <- loss2/conv
I0403 16:10:38.536003 20805 net.cpp:399] loss2/fc -> loss2/fc
I0403 16:10:38.553108 20805 net.cpp:141] Setting up loss2/fc
I0403 16:10:38.553138 20805 net.cpp:148] Top shape: 24 1024 (24576)
I0403 16:10:38.553153 20805 net.cpp:156] Memory required for data: 1208220960
I0403 16:10:38.553170 20805 layer_factory.hpp:77] Creating layer loss2/relu_fc
I0403 16:10:38.553190 20805 net.cpp:91] Creating Layer loss2/relu_fc
I0403 16:10:38.553206 20805 net.cpp:425] loss2/relu_fc <- loss2/fc
I0403 16:10:38.553223 20805 net.cpp:386] loss2/relu_fc -> loss2/fc (in-place)
I0403 16:10:38.553515 20805 net.cpp:141] Setting up loss2/relu_fc
I0403 16:10:38.553540 20805 net.cpp:148] Top shape: 24 1024 (24576)
I0403 16:10:38.553555 20805 net.cpp:156] Memory required for data: 1208319264
I0403 16:10:38.553568 20805 layer_factory.hpp:77] Creating layer loss2/drop_fc
I0403 16:10:38.553588 20805 net.cpp:91] Creating Layer loss2/drop_fc
I0403 16:10:38.553606 20805 net.cpp:425] loss2/drop_fc <- loss2/fc
I0403 16:10:38.553622 20805 net.cpp:386] loss2/drop_fc -> loss2/fc (in-place)
I0403 16:10:38.553673 20805 net.cpp:141] Setting up loss2/drop_fc
I0403 16:10:38.553695 20805 net.cpp:148] Top shape: 24 1024 (24576)
I0403 16:10:38.553709 20805 net.cpp:156] Memory required for data: 1208417568
I0403 16:10:38.553722 20805 layer_factory.hpp:77] Creating layer loss2/classifier_plantvillage
I0403 16:10:38.553740 20805 net.cpp:91] Creating Layer loss2/classifier_plantvillage
I0403 16:10:38.553755 20805 net.cpp:425] loss2/classifier_plantvillage <- loss2/fc
I0403 16:10:38.553776 20805 net.cpp:399] loss2/classifier_plantvillage -> loss2/classifier_plantvillage
I0403 16:10:38.554175 20805 net.cpp:141] Setting up loss2/classifier_plantvillage
I0403 16:10:38.554199 20805 net.cpp:148] Top shape: 24 38 (912)
I0403 16:10:38.554229 20805 net.cpp:156] Memory required for data: 1208421216
I0403 16:10:38.554247 20805 layer_factory.hpp:77] Creating layer loss2/classifier_plantvillage_loss2/classifier_plantvillage_0_split
I0403 16:10:38.554265 20805 net.cpp:91] Creating Layer loss2/classifier_plantvillage_loss2/classifier_plantvillage_0_split
I0403 16:10:38.554280 20805 net.cpp:425] loss2/classifier_plantvillage_loss2/classifier_plantvillage_0_split <- loss2/classifier_plantvillage
I0403 16:10:38.554299 20805 net.cpp:399] loss2/classifier_plantvillage_loss2/classifier_plantvillage_0_split -> loss2/classifier_plantvillage_loss2/classifier_plantvillage_0_split_0
I0403 16:10:38.554321 20805 net.cpp:399] loss2/classifier_plantvillage_loss2/classifier_plantvillage_0_split -> loss2/classifier_plantvillage_loss2/classifier_plantvillage_0_split_1
I0403 16:10:38.554340 20805 net.cpp:399] loss2/classifier_plantvillage_loss2/classifier_plantvillage_0_split -> loss2/classifier_plantvillage_loss2/classifier_plantvillage_0_split_2
I0403 16:10:38.554414 20805 net.cpp:141] Setting up loss2/classifier_plantvillage_loss2/classifier_plantvillage_0_split
I0403 16:10:38.554437 20805 net.cpp:148] Top shape: 24 38 (912)
I0403 16:10:38.554452 20805 net.cpp:148] Top shape: 24 38 (912)
I0403 16:10:38.554467 20805 net.cpp:148] Top shape: 24 38 (912)
I0403 16:10:38.554481 20805 net.cpp:156] Memory required for data: 1208432160
I0403 16:10:38.554494 20805 layer_factory.hpp:77] Creating layer inception_4e/1x1
I0403 16:10:38.554515 20805 net.cpp:91] Creating Layer inception_4e/1x1
I0403 16:10:38.554533 20805 net.cpp:425] inception_4e/1x1 <- inception_4d/output_inception_4d/output_0_split_1
I0403 16:10:38.554550 20805 net.cpp:399] inception_4e/1x1 -> inception_4e/1x1
I0403 16:10:38.556326 20805 net.cpp:141] Setting up inception_4e/1x1
I0403 16:10:38.556355 20805 net.cpp:148] Top shape: 24 256 14 14 (1204224)
I0403 16:10:38.556370 20805 net.cpp:156] Memory required for data: 1213249056
I0403 16:10:38.556388 20805 layer_factory.hpp:77] Creating layer inception_4e/relu_1x1
I0403 16:10:38.556406 20805 net.cpp:91] Creating Layer inception_4e/relu_1x1
I0403 16:10:38.556421 20805 net.cpp:425] inception_4e/relu_1x1 <- inception_4e/1x1
I0403 16:10:38.556440 20805 net.cpp:386] inception_4e/relu_1x1 -> inception_4e/1x1 (in-place)
I0403 16:10:38.556733 20805 net.cpp:141] Setting up inception_4e/relu_1x1
I0403 16:10:38.556761 20805 net.cpp:148] Top shape: 24 256 14 14 (1204224)
I0403 16:10:38.556776 20805 net.cpp:156] Memory required for data: 1218065952
I0403 16:10:38.556789 20805 layer_factory.hpp:77] Creating layer inception_4e/3x3_reduce
I0403 16:10:38.556810 20805 net.cpp:91] Creating Layer inception_4e/3x3_reduce
I0403 16:10:38.556828 20805 net.cpp:425] inception_4e/3x3_reduce <- inception_4d/output_inception_4d/output_0_split_2
I0403 16:10:38.556849 20805 net.cpp:399] inception_4e/3x3_reduce -> inception_4e/3x3_reduce
I0403 16:10:38.558928 20805 net.cpp:141] Setting up inception_4e/3x3_reduce
I0403 16:10:38.558954 20805 net.cpp:148] Top shape: 24 160 14 14 (752640)
I0403 16:10:38.558970 20805 net.cpp:156] Memory required for data: 1221076512
I0403 16:10:38.558990 20805 layer_factory.hpp:77] Creating layer inception_4e/relu_3x3_reduce
I0403 16:10:38.559008 20805 net.cpp:91] Creating Layer inception_4e/relu_3x3_reduce
I0403 16:10:38.559029 20805 net.cpp:425] inception_4e/relu_3x3_reduce <- inception_4e/3x3_reduce
I0403 16:10:38.559047 20805 net.cpp:386] inception_4e/relu_3x3_reduce -> inception_4e/3x3_reduce (in-place)
I0403 16:10:38.559232 20805 net.cpp:141] Setting up inception_4e/relu_3x3_reduce
I0403 16:10:38.559257 20805 net.cpp:148] Top shape: 24 160 14 14 (752640)
I0403 16:10:38.559272 20805 net.cpp:156] Memory required for data: 1224087072
I0403 16:10:38.559285 20805 layer_factory.hpp:77] Creating layer inception_4e/3x3
I0403 16:10:38.559308 20805 net.cpp:91] Creating Layer inception_4e/3x3
I0403 16:10:38.559324 20805 net.cpp:425] inception_4e/3x3 <- inception_4e/3x3_reduce
I0403 16:10:38.559345 20805 net.cpp:399] inception_4e/3x3 -> inception_4e/3x3
I0403 16:10:38.564214 20805 net.cpp:141] Setting up inception_4e/3x3
I0403 16:10:38.564254 20805 net.cpp:148] Top shape: 24 320 14 14 (1505280)
I0403 16:10:38.564270 20805 net.cpp:156] Memory required for data: 1230108192
I0403 16:10:38.564287 20805 layer_factory.hpp:77] Creating layer inception_4e/relu_3x3
I0403 16:10:38.564304 20805 net.cpp:91] Creating Layer inception_4e/relu_3x3
I0403 16:10:38.564321 20805 net.cpp:425] inception_4e/relu_3x3 <- inception_4e/3x3
I0403 16:10:38.564339 20805 net.cpp:386] inception_4e/relu_3x3 -> inception_4e/3x3 (in-place)
I0403 16:10:38.564646 20805 net.cpp:141] Setting up inception_4e/relu_3x3
I0403 16:10:38.564672 20805 net.cpp:148] Top shape: 24 320 14 14 (1505280)
I0403 16:10:38.564687 20805 net.cpp:156] Memory required for data: 1236129312
I0403 16:10:38.564702 20805 layer_factory.hpp:77] Creating layer inception_4e/5x5_reduce
I0403 16:10:38.564726 20805 net.cpp:91] Creating Layer inception_4e/5x5_reduce
I0403 16:10:38.564744 20805 net.cpp:425] inception_4e/5x5_reduce <- inception_4d/output_inception_4d/output_0_split_3
I0403 16:10:38.564766 20805 net.cpp:399] inception_4e/5x5_reduce -> inception_4e/5x5_reduce
I0403 16:10:38.565857 20805 net.cpp:141] Setting up inception_4e/5x5_reduce
I0403 16:10:38.565887 20805 net.cpp:148] Top shape: 24 32 14 14 (150528)
I0403 16:10:38.565903 20805 net.cpp:156] Memory required for data: 1236731424
I0403 16:10:38.565922 20805 layer_factory.hpp:77] Creating layer inception_4e/relu_5x5_reduce
I0403 16:10:38.565939 20805 net.cpp:91] Creating Layer inception_4e/relu_5x5_reduce
I0403 16:10:38.565956 20805 net.cpp:425] inception_4e/relu_5x5_reduce <- inception_4e/5x5_reduce
I0403 16:10:38.565973 20805 net.cpp:386] inception_4e/relu_5x5_reduce -> inception_4e/5x5_reduce (in-place)
I0403 16:10:38.566280 20805 net.cpp:141] Setting up inception_4e/relu_5x5_reduce
I0403 16:10:38.566308 20805 net.cpp:148] Top shape: 24 32 14 14 (150528)
I0403 16:10:38.566324 20805 net.cpp:156] Memory required for data: 1237333536
I0403 16:10:38.566339 20805 layer_factory.hpp:77] Creating layer inception_4e/5x5
I0403 16:10:38.566380 20805 net.cpp:91] Creating Layer inception_4e/5x5
I0403 16:10:38.566398 20805 net.cpp:425] inception_4e/5x5 <- inception_4e/5x5_reduce
I0403 16:10:38.566419 20805 net.cpp:399] inception_4e/5x5 -> inception_4e/5x5
I0403 16:10:38.568295 20805 net.cpp:141] Setting up inception_4e/5x5
I0403 16:10:38.568322 20805 net.cpp:148] Top shape: 24 128 14 14 (602112)
I0403 16:10:38.568337 20805 net.cpp:156] Memory required for data: 1239741984
I0403 16:10:38.568356 20805 layer_factory.hpp:77] Creating layer inception_4e/relu_5x5
I0403 16:10:38.568377 20805 net.cpp:91] Creating Layer inception_4e/relu_5x5
I0403 16:10:38.568394 20805 net.cpp:425] inception_4e/relu_5x5 <- inception_4e/5x5
I0403 16:10:38.568411 20805 net.cpp:386] inception_4e/relu_5x5 -> inception_4e/5x5 (in-place)
I0403 16:10:38.568613 20805 net.cpp:141] Setting up inception_4e/relu_5x5
I0403 16:10:38.568639 20805 net.cpp:148] Top shape: 24 128 14 14 (602112)
I0403 16:10:38.568655 20805 net.cpp:156] Memory required for data: 1242150432
I0403 16:10:38.568670 20805 layer_factory.hpp:77] Creating layer inception_4e/pool
I0403 16:10:38.568687 20805 net.cpp:91] Creating Layer inception_4e/pool
I0403 16:10:38.568703 20805 net.cpp:425] inception_4e/pool <- inception_4d/output_inception_4d/output_0_split_4
I0403 16:10:38.568723 20805 net.cpp:399] inception_4e/pool -> inception_4e/pool
I0403 16:10:38.568794 20805 net.cpp:141] Setting up inception_4e/pool
I0403 16:10:38.568817 20805 net.cpp:148] Top shape: 24 528 14 14 (2483712)
I0403 16:10:38.568831 20805 net.cpp:156] Memory required for data: 1252085280
I0403 16:10:38.568845 20805 layer_factory.hpp:77] Creating layer inception_4e/pool_proj
I0403 16:10:38.568867 20805 net.cpp:91] Creating Layer inception_4e/pool_proj
I0403 16:10:38.568886 20805 net.cpp:425] inception_4e/pool_proj <- inception_4e/pool
I0403 16:10:38.568907 20805 net.cpp:399] inception_4e/pool_proj -> inception_4e/pool_proj
I0403 16:10:38.570439 20805 net.cpp:141] Setting up inception_4e/pool_proj
I0403 16:10:38.570478 20805 net.cpp:148] Top shape: 24 128 14 14 (602112)
I0403 16:10:38.570494 20805 net.cpp:156] Memory required for data: 1254493728
I0403 16:10:38.570513 20805 layer_factory.hpp:77] Creating layer inception_4e/relu_pool_proj
I0403 16:10:38.570533 20805 net.cpp:91] Creating Layer inception_4e/relu_pool_proj
I0403 16:10:38.570550 20805 net.cpp:425] inception_4e/relu_pool_proj <- inception_4e/pool_proj
I0403 16:10:38.570567 20805 net.cpp:386] inception_4e/relu_pool_proj -> inception_4e/pool_proj (in-place)
I0403 16:10:38.570863 20805 net.cpp:141] Setting up inception_4e/relu_pool_proj
I0403 16:10:38.570889 20805 net.cpp:148] Top shape: 24 128 14 14 (602112)
I0403 16:10:38.570904 20805 net.cpp:156] Memory required for data: 1256902176
I0403 16:10:38.570919 20805 layer_factory.hpp:77] Creating layer inception_4e/output
I0403 16:10:38.570940 20805 net.cpp:91] Creating Layer inception_4e/output
I0403 16:10:38.570955 20805 net.cpp:425] inception_4e/output <- inception_4e/1x1
I0403 16:10:38.570973 20805 net.cpp:425] inception_4e/output <- inception_4e/3x3
I0403 16:10:38.570989 20805 net.cpp:425] inception_4e/output <- inception_4e/5x5
I0403 16:10:38.571005 20805 net.cpp:425] inception_4e/output <- inception_4e/pool_proj
I0403 16:10:38.571027 20805 net.cpp:399] inception_4e/output -> inception_4e/output
I0403 16:10:38.571080 20805 net.cpp:141] Setting up inception_4e/output
I0403 16:10:38.571105 20805 net.cpp:148] Top shape: 24 832 14 14 (3913728)
I0403 16:10:38.571120 20805 net.cpp:156] Memory required for data: 1272557088
I0403 16:10:38.571135 20805 layer_factory.hpp:77] Creating layer pool4/3x3_s2
I0403 16:10:38.571151 20805 net.cpp:91] Creating Layer pool4/3x3_s2
I0403 16:10:38.571166 20805 net.cpp:425] pool4/3x3_s2 <- inception_4e/output
I0403 16:10:38.571187 20805 net.cpp:399] pool4/3x3_s2 -> pool4/3x3_s2
I0403 16:10:38.571259 20805 net.cpp:141] Setting up pool4/3x3_s2
I0403 16:10:38.571285 20805 net.cpp:148] Top shape: 24 832 7 7 (978432)
I0403 16:10:38.571300 20805 net.cpp:156] Memory required for data: 1276470816
I0403 16:10:38.571315 20805 layer_factory.hpp:77] Creating layer pool4/3x3_s2_pool4/3x3_s2_0_split
I0403 16:10:38.571331 20805 net.cpp:91] Creating Layer pool4/3x3_s2_pool4/3x3_s2_0_split
I0403 16:10:38.571346 20805 net.cpp:425] pool4/3x3_s2_pool4/3x3_s2_0_split <- pool4/3x3_s2
I0403 16:10:38.571363 20805 net.cpp:399] pool4/3x3_s2_pool4/3x3_s2_0_split -> pool4/3x3_s2_pool4/3x3_s2_0_split_0
I0403 16:10:38.571383 20805 net.cpp:399] pool4/3x3_s2_pool4/3x3_s2_0_split -> pool4/3x3_s2_pool4/3x3_s2_0_split_1
I0403 16:10:38.571406 20805 net.cpp:399] pool4/3x3_s2_pool4/3x3_s2_0_split -> pool4/3x3_s2_pool4/3x3_s2_0_split_2
I0403 16:10:38.571427 20805 net.cpp:399] pool4/3x3_s2_pool4/3x3_s2_0_split -> pool4/3x3_s2_pool4/3x3_s2_0_split_3
I0403 16:10:38.571522 20805 net.cpp:141] Setting up pool4/3x3_s2_pool4/3x3_s2_0_split
I0403 16:10:38.571547 20805 net.cpp:148] Top shape: 24 832 7 7 (978432)
I0403 16:10:38.571563 20805 net.cpp:148] Top shape: 24 832 7 7 (978432)
I0403 16:10:38.571578 20805 net.cpp:148] Top shape: 24 832 7 7 (978432)
I0403 16:10:38.571594 20805 net.cpp:148] Top shape: 24 832 7 7 (978432)
I0403 16:10:38.571607 20805 net.cpp:156] Memory required for data: 1292125728
I0403 16:10:38.571621 20805 layer_factory.hpp:77] Creating layer inception_5a/1x1
I0403 16:10:38.571643 20805 net.cpp:91] Creating Layer inception_5a/1x1
I0403 16:10:38.571662 20805 net.cpp:425] inception_5a/1x1 <- pool4/3x3_s2_pool4/3x3_s2_0_split_0
I0403 16:10:38.571683 20805 net.cpp:399] inception_5a/1x1 -> inception_5a/1x1
I0403 16:10:38.574683 20805 net.cpp:141] Setting up inception_5a/1x1
I0403 16:10:38.574712 20805 net.cpp:148] Top shape: 24 256 7 7 (301056)
I0403 16:10:38.574728 20805 net.cpp:156] Memory required for data: 1293329952
I0403 16:10:38.574748 20805 layer_factory.hpp:77] Creating layer inception_5a/relu_1x1
I0403 16:10:38.574767 20805 net.cpp:91] Creating Layer inception_5a/relu_1x1
I0403 16:10:38.574784 20805 net.cpp:425] inception_5a/relu_1x1 <- inception_5a/1x1
I0403 16:10:38.574802 20805 net.cpp:386] inception_5a/relu_1x1 -> inception_5a/1x1 (in-place)
I0403 16:10:38.575144 20805 net.cpp:141] Setting up inception_5a/relu_1x1
I0403 16:10:38.575170 20805 net.cpp:148] Top shape: 24 256 7 7 (301056)
I0403 16:10:38.575186 20805 net.cpp:156] Memory required for data: 1294534176
I0403 16:10:38.575201 20805 layer_factory.hpp:77] Creating layer inception_5a/3x3_reduce
I0403 16:10:38.575225 20805 net.cpp:91] Creating Layer inception_5a/3x3_reduce
I0403 16:10:38.575243 20805 net.cpp:425] inception_5a/3x3_reduce <- pool4/3x3_s2_pool4/3x3_s2_0_split_1
I0403 16:10:38.575263 20805 net.cpp:399] inception_5a/3x3_reduce -> inception_5a/3x3_reduce
I0403 16:10:38.577852 20805 net.cpp:141] Setting up inception_5a/3x3_reduce
I0403 16:10:38.577880 20805 net.cpp:148] Top shape: 24 160 7 7 (188160)
I0403 16:10:38.577898 20805 net.cpp:156] Memory required for data: 1295286816
I0403 16:10:38.577915 20805 layer_factory.hpp:77] Creating layer inception_5a/relu_3x3_reduce
I0403 16:10:38.577936 20805 net.cpp:91] Creating Layer inception_5a/relu_3x3_reduce
I0403 16:10:38.577955 20805 net.cpp:425] inception_5a/relu_3x3_reduce <- inception_5a/3x3_reduce
I0403 16:10:38.577972 20805 net.cpp:386] inception_5a/relu_3x3_reduce -> inception_5a/3x3_reduce (in-place)
I0403 16:10:38.578186 20805 net.cpp:141] Setting up inception_5a/relu_3x3_reduce
I0403 16:10:38.578212 20805 net.cpp:148] Top shape: 24 160 7 7 (188160)
I0403 16:10:38.578227 20805 net.cpp:156] Memory required for data: 1296039456
I0403 16:10:38.578243 20805 layer_factory.hpp:77] Creating layer inception_5a/3x3
I0403 16:10:38.578268 20805 net.cpp:91] Creating Layer inception_5a/3x3
I0403 16:10:38.578285 20805 net.cpp:425] inception_5a/3x3 <- inception_5a/3x3_reduce
I0403 16:10:38.578305 20805 net.cpp:399] inception_5a/3x3 -> inception_5a/3x3
I0403 16:10:38.583536 20805 net.cpp:141] Setting up inception_5a/3x3
I0403 16:10:38.583567 20805 net.cpp:148] Top shape: 24 320 7 7 (376320)
I0403 16:10:38.583586 20805 net.cpp:156] Memory required for data: 1297544736
I0403 16:10:38.583606 20805 layer_factory.hpp:77] Creating layer inception_5a/relu_3x3
I0403 16:10:38.583624 20805 net.cpp:91] Creating Layer inception_5a/relu_3x3
I0403 16:10:38.583642 20805 net.cpp:425] inception_5a/relu_3x3 <- inception_5a/3x3
I0403 16:10:38.583658 20805 net.cpp:386] inception_5a/relu_3x3 -> inception_5a/3x3 (in-place)
I0403 16:10:38.583968 20805 net.cpp:141] Setting up inception_5a/relu_3x3
I0403 16:10:38.583997 20805 net.cpp:148] Top shape: 24 320 7 7 (376320)
I0403 16:10:38.584022 20805 net.cpp:156] Memory required for data: 1299050016
I0403 16:10:38.584039 20805 layer_factory.hpp:77] Creating layer inception_5a/5x5_reduce
I0403 16:10:38.584063 20805 net.cpp:91] Creating Layer inception_5a/5x5_reduce
I0403 16:10:38.584080 20805 net.cpp:425] inception_5a/5x5_reduce <- pool4/3x3_s2_pool4/3x3_s2_0_split_2
I0403 16:10:38.584102 20805 net.cpp:399] inception_5a/5x5_reduce -> inception_5a/5x5_reduce
I0403 16:10:38.585336 20805 net.cpp:141] Setting up inception_5a/5x5_reduce
I0403 16:10:38.585369 20805 net.cpp:148] Top shape: 24 32 7 7 (37632)
I0403 16:10:38.585386 20805 net.cpp:156] Memory required for data: 1299200544
I0403 16:10:38.585405 20805 layer_factory.hpp:77] Creating layer inception_5a/relu_5x5_reduce
I0403 16:10:38.585423 20805 net.cpp:91] Creating Layer inception_5a/relu_5x5_reduce
I0403 16:10:38.585440 20805 net.cpp:425] inception_5a/relu_5x5_reduce <- inception_5a/5x5_reduce
I0403 16:10:38.585460 20805 net.cpp:386] inception_5a/relu_5x5_reduce -> inception_5a/5x5_reduce (in-place)
I0403 16:10:38.585774 20805 net.cpp:141] Setting up inception_5a/relu_5x5_reduce
I0403 16:10:38.585804 20805 net.cpp:148] Top shape: 24 32 7 7 (37632)
I0403 16:10:38.585821 20805 net.cpp:156] Memory required for data: 1299351072
I0403 16:10:38.585836 20805 layer_factory.hpp:77] Creating layer inception_5a/5x5
I0403 16:10:38.585860 20805 net.cpp:91] Creating Layer inception_5a/5x5
I0403 16:10:38.585878 20805 net.cpp:425] inception_5a/5x5 <- inception_5a/5x5_reduce
I0403 16:10:38.585898 20805 net.cpp:399] inception_5a/5x5 -> inception_5a/5x5
I0403 16:10:38.587707 20805 net.cpp:141] Setting up inception_5a/5x5
I0403 16:10:38.587749 20805 net.cpp:148] Top shape: 24 128 7 7 (150528)
I0403 16:10:38.587766 20805 net.cpp:156] Memory required for data: 1299953184
I0403 16:10:38.587785 20805 layer_factory.hpp:77] Creating layer inception_5a/relu_5x5
I0403 16:10:38.587807 20805 net.cpp:91] Creating Layer inception_5a/relu_5x5
I0403 16:10:38.587824 20805 net.cpp:425] inception_5a/relu_5x5 <- inception_5a/5x5
I0403 16:10:38.587841 20805 net.cpp:386] inception_5a/relu_5x5 -> inception_5a/5x5 (in-place)
I0403 16:10:38.588057 20805 net.cpp:141] Setting up inception_5a/relu_5x5
I0403 16:10:38.588084 20805 net.cpp:148] Top shape: 24 128 7 7 (150528)
I0403 16:10:38.588101 20805 net.cpp:156] Memory required for data: 1300555296
I0403 16:10:38.588116 20805 layer_factory.hpp:77] Creating layer inception_5a/pool
I0403 16:10:38.588135 20805 net.cpp:91] Creating Layer inception_5a/pool
I0403 16:10:38.588151 20805 net.cpp:425] inception_5a/pool <- pool4/3x3_s2_pool4/3x3_s2_0_split_3
I0403 16:10:38.588174 20805 net.cpp:399] inception_5a/pool -> inception_5a/pool
I0403 16:10:38.588248 20805 net.cpp:141] Setting up inception_5a/pool
I0403 16:10:38.588273 20805 net.cpp:148] Top shape: 24 832 7 7 (978432)
I0403 16:10:38.588287 20805 net.cpp:156] Memory required for data: 1304469024
I0403 16:10:38.588302 20805 layer_factory.hpp:77] Creating layer inception_5a/pool_proj
I0403 16:10:38.588325 20805 net.cpp:91] Creating Layer inception_5a/pool_proj
I0403 16:10:38.588342 20805 net.cpp:425] inception_5a/pool_proj <- inception_5a/pool
I0403 16:10:38.588363 20805 net.cpp:399] inception_5a/pool_proj -> inception_5a/pool_proj
I0403 16:10:38.590764 20805 net.cpp:141] Setting up inception_5a/pool_proj
I0403 16:10:38.590793 20805 net.cpp:148] Top shape: 24 128 7 7 (150528)
I0403 16:10:38.590809 20805 net.cpp:156] Memory required for data: 1305071136
I0403 16:10:38.590828 20805 layer_factory.hpp:77] Creating layer inception_5a/relu_pool_proj
I0403 16:10:38.590848 20805 net.cpp:91] Creating Layer inception_5a/relu_pool_proj
I0403 16:10:38.590865 20805 net.cpp:425] inception_5a/relu_pool_proj <- inception_5a/pool_proj
I0403 16:10:38.590883 20805 net.cpp:386] inception_5a/relu_pool_proj -> inception_5a/pool_proj (in-place)
I0403 16:10:38.591190 20805 net.cpp:141] Setting up inception_5a/relu_pool_proj
I0403 16:10:38.591217 20805 net.cpp:148] Top shape: 24 128 7 7 (150528)
I0403 16:10:38.591231 20805 net.cpp:156] Memory required for data: 1305673248
I0403 16:10:38.591246 20805 layer_factory.hpp:77] Creating layer inception_5a/output
I0403 16:10:38.591264 20805 net.cpp:91] Creating Layer inception_5a/output
I0403 16:10:38.591280 20805 net.cpp:425] inception_5a/output <- inception_5a/1x1
I0403 16:10:38.591300 20805 net.cpp:425] inception_5a/output <- inception_5a/3x3
I0403 16:10:38.591316 20805 net.cpp:425] inception_5a/output <- inception_5a/5x5
I0403 16:10:38.591333 20805 net.cpp:425] inception_5a/output <- inception_5a/pool_proj
I0403 16:10:38.591351 20805 net.cpp:399] inception_5a/output -> inception_5a/output
I0403 16:10:38.591403 20805 net.cpp:141] Setting up inception_5a/output
I0403 16:10:38.591426 20805 net.cpp:148] Top shape: 24 832 7 7 (978432)
I0403 16:10:38.591440 20805 net.cpp:156] Memory required for data: 1309586976
I0403 16:10:38.591454 20805 layer_factory.hpp:77] Creating layer inception_5a/output_inception_5a/output_0_split
I0403 16:10:38.591472 20805 net.cpp:91] Creating Layer inception_5a/output_inception_5a/output_0_split
I0403 16:10:38.591488 20805 net.cpp:425] inception_5a/output_inception_5a/output_0_split <- inception_5a/output
I0403 16:10:38.591508 20805 net.cpp:399] inception_5a/output_inception_5a/output_0_split -> inception_5a/output_inception_5a/output_0_split_0
I0403 16:10:38.591529 20805 net.cpp:399] inception_5a/output_inception_5a/output_0_split -> inception_5a/output_inception_5a/output_0_split_1
I0403 16:10:38.591549 20805 net.cpp:399] inception_5a/output_inception_5a/output_0_split -> inception_5a/output_inception_5a/output_0_split_2
I0403 16:10:38.591570 20805 net.cpp:399] inception_5a/output_inception_5a/output_0_split -> inception_5a/output_inception_5a/output_0_split_3
I0403 16:10:38.591687 20805 net.cpp:141] Setting up inception_5a/output_inception_5a/output_0_split
I0403 16:10:38.591713 20805 net.cpp:148] Top shape: 24 832 7 7 (978432)
I0403 16:10:38.591730 20805 net.cpp:148] Top shape: 24 832 7 7 (978432)
I0403 16:10:38.591747 20805 net.cpp:148] Top shape: 24 832 7 7 (978432)
I0403 16:10:38.591763 20805 net.cpp:148] Top shape: 24 832 7 7 (978432)
I0403 16:10:38.591775 20805 net.cpp:156] Memory required for data: 1325241888
I0403 16:10:38.591789 20805 layer_factory.hpp:77] Creating layer inception_5b/1x1
I0403 16:10:38.591814 20805 net.cpp:91] Creating Layer inception_5b/1x1
I0403 16:10:38.591832 20805 net.cpp:425] inception_5b/1x1 <- inception_5a/output_inception_5a/output_0_split_0
I0403 16:10:38.591851 20805 net.cpp:399] inception_5b/1x1 -> inception_5b/1x1
I0403 16:10:38.595657 20805 net.cpp:141] Setting up inception_5b/1x1
I0403 16:10:38.595686 20805 net.cpp:148] Top shape: 24 384 7 7 (451584)
I0403 16:10:38.595702 20805 net.cpp:156] Memory required for data: 1327048224
I0403 16:10:38.595721 20805 layer_factory.hpp:77] Creating layer inception_5b/relu_1x1
I0403 16:10:38.595741 20805 net.cpp:91] Creating Layer inception_5b/relu_1x1
I0403 16:10:38.595757 20805 net.cpp:425] inception_5b/relu_1x1 <- inception_5b/1x1
I0403 16:10:38.595775 20805 net.cpp:386] inception_5b/relu_1x1 -> inception_5b/1x1 (in-place)
I0403 16:10:38.596088 20805 net.cpp:141] Setting up inception_5b/relu_1x1
I0403 16:10:38.596113 20805 net.cpp:148] Top shape: 24 384 7 7 (451584)
I0403 16:10:38.596129 20805 net.cpp:156] Memory required for data: 1328854560
I0403 16:10:38.596144 20805 layer_factory.hpp:77] Creating layer inception_5b/3x3_reduce
I0403 16:10:38.596166 20805 net.cpp:91] Creating Layer inception_5b/3x3_reduce
I0403 16:10:38.596184 20805 net.cpp:425] inception_5b/3x3_reduce <- inception_5a/output_inception_5a/output_0_split_1
I0403 16:10:38.596207 20805 net.cpp:399] inception_5b/3x3_reduce -> inception_5b/3x3_reduce
I0403 16:10:38.598901 20805 net.cpp:141] Setting up inception_5b/3x3_reduce
I0403 16:10:38.598930 20805 net.cpp:148] Top shape: 24 192 7 7 (225792)
I0403 16:10:38.598947 20805 net.cpp:156] Memory required for data: 1329757728
I0403 16:10:38.598965 20805 layer_factory.hpp:77] Creating layer inception_5b/relu_3x3_reduce
I0403 16:10:38.598985 20805 net.cpp:91] Creating Layer inception_5b/relu_3x3_reduce
I0403 16:10:38.599002 20805 net.cpp:425] inception_5b/relu_3x3_reduce <- inception_5b/3x3_reduce
I0403 16:10:38.599025 20805 net.cpp:386] inception_5b/relu_3x3_reduce -> inception_5b/3x3_reduce (in-place)
I0403 16:10:38.599221 20805 net.cpp:141] Setting up inception_5b/relu_3x3_reduce
I0403 16:10:38.599249 20805 net.cpp:148] Top shape: 24 192 7 7 (225792)
I0403 16:10:38.599264 20805 net.cpp:156] Memory required for data: 1330660896
I0403 16:10:38.599279 20805 layer_factory.hpp:77] Creating layer inception_5b/3x3
I0403 16:10:38.599303 20805 net.cpp:91] Creating Layer inception_5b/3x3
I0403 16:10:38.599321 20805 net.cpp:425] inception_5b/3x3 <- inception_5b/3x3_reduce
I0403 16:10:38.599340 20805 net.cpp:399] inception_5b/3x3 -> inception_5b/3x3
I0403 16:10:38.606134 20805 net.cpp:141] Setting up inception_5b/3x3
I0403 16:10:38.606163 20805 net.cpp:148] Top shape: 24 384 7 7 (451584)
I0403 16:10:38.606178 20805 net.cpp:156] Memory required for data: 1332467232
I0403 16:10:38.606197 20805 layer_factory.hpp:77] Creating layer inception_5b/relu_3x3
I0403 16:10:38.606217 20805 net.cpp:91] Creating Layer inception_5b/relu_3x3
I0403 16:10:38.606235 20805 net.cpp:425] inception_5b/relu_3x3 <- inception_5b/3x3
I0403 16:10:38.606252 20805 net.cpp:386] inception_5b/relu_3x3 -> inception_5b/3x3 (in-place)
I0403 16:10:38.606556 20805 net.cpp:141] Setting up inception_5b/relu_3x3
I0403 16:10:38.606582 20805 net.cpp:148] Top shape: 24 384 7 7 (451584)
I0403 16:10:38.606597 20805 net.cpp:156] Memory required for data: 1334273568
I0403 16:10:38.606611 20805 layer_factory.hpp:77] Creating layer inception_5b/5x5_reduce
I0403 16:10:38.606650 20805 net.cpp:91] Creating Layer inception_5b/5x5_reduce
I0403 16:10:38.606669 20805 net.cpp:425] inception_5b/5x5_reduce <- inception_5a/output_inception_5a/output_0_split_2
I0403 16:10:38.606693 20805 net.cpp:399] inception_5b/5x5_reduce -> inception_5b/5x5_reduce
I0403 16:10:38.607996 20805 net.cpp:141] Setting up inception_5b/5x5_reduce
I0403 16:10:38.608034 20805 net.cpp:148] Top shape: 24 48 7 7 (56448)
I0403 16:10:38.608052 20805 net.cpp:156] Memory required for data: 1334499360
I0403 16:10:38.608070 20805 layer_factory.hpp:77] Creating layer inception_5b/relu_5x5_reduce
I0403 16:10:38.608091 20805 net.cpp:91] Creating Layer inception_5b/relu_5x5_reduce
I0403 16:10:38.608108 20805 net.cpp:425] inception_5b/relu_5x5_reduce <- inception_5b/5x5_reduce
I0403 16:10:38.608125 20805 net.cpp:386] inception_5b/relu_5x5_reduce -> inception_5b/5x5_reduce (in-place)
I0403 16:10:38.608505 20805 net.cpp:141] Setting up inception_5b/relu_5x5_reduce
I0403 16:10:38.608531 20805 net.cpp:148] Top shape: 24 48 7 7 (56448)
I0403 16:10:38.608546 20805 net.cpp:156] Memory required for data: 1334725152
I0403 16:10:38.608561 20805 layer_factory.hpp:77] Creating layer inception_5b/5x5
I0403 16:10:38.608582 20805 net.cpp:91] Creating Layer inception_5b/5x5
I0403 16:10:38.608599 20805 net.cpp:425] inception_5b/5x5 <- inception_5b/5x5_reduce
I0403 16:10:38.608618 20805 net.cpp:399] inception_5b/5x5 -> inception_5b/5x5
I0403 16:10:38.610707 20805 net.cpp:141] Setting up inception_5b/5x5
I0403 16:10:38.610734 20805 net.cpp:148] Top shape: 24 128 7 7 (150528)
I0403 16:10:38.610749 20805 net.cpp:156] Memory required for data: 1335327264
I0403 16:10:38.610767 20805 layer_factory.hpp:77] Creating layer inception_5b/relu_5x5
I0403 16:10:38.610787 20805 net.cpp:91] Creating Layer inception_5b/relu_5x5
I0403 16:10:38.610803 20805 net.cpp:425] inception_5b/relu_5x5 <- inception_5b/5x5
I0403 16:10:38.610821 20805 net.cpp:386] inception_5b/relu_5x5 -> inception_5b/5x5 (in-place)
I0403 16:10:38.611012 20805 net.cpp:141] Setting up inception_5b/relu_5x5
I0403 16:10:38.611039 20805 net.cpp:148] Top shape: 24 128 7 7 (150528)
I0403 16:10:38.611054 20805 net.cpp:156] Memory required for data: 1335929376
I0403 16:10:38.611068 20805 layer_factory.hpp:77] Creating layer inception_5b/pool
I0403 16:10:38.611086 20805 net.cpp:91] Creating Layer inception_5b/pool
I0403 16:10:38.611102 20805 net.cpp:425] inception_5b/pool <- inception_5a/output_inception_5a/output_0_split_3
I0403 16:10:38.611122 20805 net.cpp:399] inception_5b/pool -> inception_5b/pool
I0403 16:10:38.611196 20805 net.cpp:141] Setting up inception_5b/pool
I0403 16:10:38.611219 20805 net.cpp:148] Top shape: 24 832 7 7 (978432)
I0403 16:10:38.611233 20805 net.cpp:156] Memory required for data: 1339843104
I0403 16:10:38.611248 20805 layer_factory.hpp:77] Creating layer inception_5b/pool_proj
I0403 16:10:38.611270 20805 net.cpp:91] Creating Layer inception_5b/pool_proj
I0403 16:10:38.611287 20805 net.cpp:425] inception_5b/pool_proj <- inception_5b/pool
I0403 16:10:38.611306 20805 net.cpp:399] inception_5b/pool_proj -> inception_5b/pool_proj
I0403 16:10:38.613575 20805 net.cpp:141] Setting up inception_5b/pool_proj
I0403 16:10:38.613603 20805 net.cpp:148] Top shape: 24 128 7 7 (150528)
I0403 16:10:38.613620 20805 net.cpp:156] Memory required for data: 1340445216
I0403 16:10:38.613636 20805 layer_factory.hpp:77] Creating layer inception_5b/relu_pool_proj
I0403 16:10:38.613657 20805 net.cpp:91] Creating Layer inception_5b/relu_pool_proj
I0403 16:10:38.613673 20805 net.cpp:425] inception_5b/relu_pool_proj <- inception_5b/pool_proj
I0403 16:10:38.613690 20805 net.cpp:386] inception_5b/relu_pool_proj -> inception_5b/pool_proj (in-place)
I0403 16:10:38.613983 20805 net.cpp:141] Setting up inception_5b/relu_pool_proj
I0403 16:10:38.614009 20805 net.cpp:148] Top shape: 24 128 7 7 (150528)
I0403 16:10:38.614028 20805 net.cpp:156] Memory required for data: 1341047328
I0403 16:10:38.614044 20805 layer_factory.hpp:77] Creating layer inception_5b/output
I0403 16:10:38.614063 20805 net.cpp:91] Creating Layer inception_5b/output
I0403 16:10:38.614092 20805 net.cpp:425] inception_5b/output <- inception_5b/1x1
I0403 16:10:38.614110 20805 net.cpp:425] inception_5b/output <- inception_5b/3x3
I0403 16:10:38.614125 20805 net.cpp:425] inception_5b/output <- inception_5b/5x5
I0403 16:10:38.614141 20805 net.cpp:425] inception_5b/output <- inception_5b/pool_proj
I0403 16:10:38.614158 20805 net.cpp:399] inception_5b/output -> inception_5b/output
I0403 16:10:38.614210 20805 net.cpp:141] Setting up inception_5b/output
I0403 16:10:38.614234 20805 net.cpp:148] Top shape: 24 1024 7 7 (1204224)
I0403 16:10:38.614248 20805 net.cpp:156] Memory required for data: 1345864224
I0403 16:10:38.614262 20805 layer_factory.hpp:77] Creating layer pool5/7x7_s1
I0403 16:10:38.614280 20805 net.cpp:91] Creating Layer pool5/7x7_s1
I0403 16:10:38.614295 20805 net.cpp:425] pool5/7x7_s1 <- inception_5b/output
I0403 16:10:38.614316 20805 net.cpp:399] pool5/7x7_s1 -> pool5/7x7_s1
I0403 16:10:38.614534 20805 net.cpp:141] Setting up pool5/7x7_s1
I0403 16:10:38.614562 20805 net.cpp:148] Top shape: 24 1024 1 1 (24576)
I0403 16:10:38.614576 20805 net.cpp:156] Memory required for data: 1345962528
I0403 16:10:38.614590 20805 layer_factory.hpp:77] Creating layer pool5/drop_7x7_s1
I0403 16:10:38.614609 20805 net.cpp:91] Creating Layer pool5/drop_7x7_s1
I0403 16:10:38.614624 20805 net.cpp:425] pool5/drop_7x7_s1 <- pool5/7x7_s1
I0403 16:10:38.614640 20805 net.cpp:386] pool5/drop_7x7_s1 -> pool5/7x7_s1 (in-place)
I0403 16:10:38.614691 20805 net.cpp:141] Setting up pool5/drop_7x7_s1
I0403 16:10:38.614713 20805 net.cpp:148] Top shape: 24 1024 1 1 (24576)
I0403 16:10:38.614727 20805 net.cpp:156] Memory required for data: 1346060832
I0403 16:10:38.614742 20805 layer_factory.hpp:77] Creating layer loss3/classifier_plantvillage
I0403 16:10:38.614763 20805 net.cpp:91] Creating Layer loss3/classifier_plantvillage
I0403 16:10:38.614778 20805 net.cpp:425] loss3/classifier_plantvillage <- pool5/7x7_s1
I0403 16:10:38.614796 20805 net.cpp:399] loss3/classifier_plantvillage -> loss3/classifier_plantvillage
I0403 16:10:38.615221 20805 net.cpp:141] Setting up loss3/classifier_plantvillage
I0403 16:10:38.615245 20805 net.cpp:148] Top shape: 24 38 (912)
I0403 16:10:38.615258 20805 net.cpp:156] Memory required for data: 1346064480
I0403 16:10:38.615277 20805 layer_factory.hpp:77] Creating layer loss3/classifier_plantvillage_loss3/classifier_plantvillage_0_split
I0403 16:10:38.615293 20805 net.cpp:91] Creating Layer loss3/classifier_plantvillage_loss3/classifier_plantvillage_0_split
I0403 16:10:38.615309 20805 net.cpp:425] loss3/classifier_plantvillage_loss3/classifier_plantvillage_0_split <- loss3/classifier_plantvillage
I0403 16:10:38.615329 20805 net.cpp:399] loss3/classifier_plantvillage_loss3/classifier_plantvillage_0_split -> loss3/classifier_plantvillage_loss3/classifier_plantvillage_0_split_0
I0403 16:10:38.615350 20805 net.cpp:399] loss3/classifier_plantvillage_loss3/classifier_plantvillage_0_split -> loss3/classifier_plantvillage_loss3/classifier_plantvillage_0_split_1
I0403 16:10:38.615370 20805 net.cpp:399] loss3/classifier_plantvillage_loss3/classifier_plantvillage_0_split -> loss3/classifier_plantvillage_loss3/classifier_plantvillage_0_split_2
I0403 16:10:38.615389 20805 net.cpp:399] loss3/classifier_plantvillage_loss3/classifier_plantvillage_0_split -> loss3/classifier_plantvillage_loss3/classifier_plantvillage_0_split_3
I0403 16:10:38.615494 20805 net.cpp:141] Setting up loss3/classifier_plantvillage_loss3/classifier_plantvillage_0_split
I0403 16:10:38.615519 20805 net.cpp:148] Top shape: 24 38 (912)
I0403 16:10:38.615535 20805 net.cpp:148] Top shape: 24 38 (912)
I0403 16:10:38.615550 20805 net.cpp:148] Top shape: 24 38 (912)
I0403 16:10:38.615564 20805 net.cpp:148] Top shape: 24 38 (912)
I0403 16:10:38.615577 20805 net.cpp:156] Memory required for data: 1346079072
I0403 16:10:38.615592 20805 layer_factory.hpp:77] Creating layer loss1/loss
I0403 16:10:38.615612 20805 net.cpp:91] Creating Layer loss1/loss
I0403 16:10:38.615628 20805 net.cpp:425] loss1/loss <- loss1/classifier_plantvillage_loss1/classifier_plantvillage_0_split_0
I0403 16:10:38.615658 20805 net.cpp:425] loss1/loss <- label_data_1_split_0
…
