…
I0403 16:43:41.527415 21388 net.cpp:313] The NetState phase (1) differed from the phase (0) specified by a rule in layer data
I0403 16:43:41.528589 21388 net.cpp:49] Initializing net from parameters: 
state {
  phase: TEST
}
layer {
  name: "data"
  type: "Data"
  top: "data"
  top: "label"
  include {
    phase: TEST
  }
  transform_param {
    mirror: false
    crop_size: 224
    mean_file: "/home/mohanty/data/final_dataset/lmdb/grayscale-20-80/mean.binaryproto"
  }
  data_param {
    source: "/home/mohanty/data/final_dataset/lmdb/grayscale-20-80/test_db"
    batch_size: 24
    backend: LMDB
  }
}
layer {
  name: "conv1/7x7_s2"
  type: "Convolution"
  bottom: "data"
  top: "conv1/7x7_s2"
  param {
    lr_mult: 1
    decay_mult: 1
  }
  param {
    lr_mult: 2
    decay_mult: 0
  }
  convolution_param {
    num_output: 64
    pad: 3
    kernel_size: 7
    stride: 2
    weight_filler {
      type: "xavier"
      std: 0.1
    }
    bias_filler {
      type: "constant"
      value: 0.2
    }
  }
}
layer {
  name: "conv1/relu_7x7"
  type: "ReLU"
  bottom: "conv1/7x7_s2"
  top: "conv1/7x7_s2"
}
layer {
  name: "pool1/3x3_s2"
  type: "Pooling"
  bottom: "conv1/7x7_s2"
  top: "pool1/3x3_s2"
  pooling_param {
    pool: MAX
    kernel_size: 3
    stride: 2
  }
}
layer {
  name: "pool1/norm1"
  type: "LRN"
  bottom: "pool1/3x3_s2"
  top: "pool1/norm1"
  lrn_param {
    local_size: 5
    alpha: 0.0001
    beta: 0.75
  }
}
layer {
  name: "conv2/3x3_reduce"
  type: "Convolution"
  bottom: "pool1/norm1"
  top: "conv2/3x3_reduce"
  param {
    lr_mult: 1
    decay_mult: 1
  }
  param {
    lr_mult: 2
    decay_mult: 0
  }
  convolution_param {
    num_output: 64
    kernel_size: 1
    weight_filler {
      type: "xavier"
      std: 0.1
    }
    bias_filler {
      type: "constant"
      value: 0.2
    }
  }
}
layer {
  name: "conv2/relu_3x3_reduce"
  type: "ReLU"
  bottom: "conv2/3x3_reduce"
  top: "conv2/3x3_reduce"
}
layer {
  name: "conv2/3x3"
  type: "Convolution"
  bottom: "conv2/3x3_reduce"
  top: "conv2/3x3"
  param {
    lr_mult: 1
    decay_mult: 1
  }
  param {
    lr_mult: 2
    decay_mult: 0
  }
  convolution_param {
    num_output: 192
    pad: 1
    kernel_size: 3
    weight_filler {
      type: "xavier"
      std: 0.03
    }
    bias_filler {
      type: "constant"
      value: 0.2
    }
  }
}
layer {
  name: "conv2/relu_3x3"
  type: "ReLU"
  bottom: "conv2/3x3"
  top: "conv2/3x3"
}
layer {
  name: "conv2/norm2"
  type: "LRN"
  bottom: "conv2/3x3"
  top: "conv2/norm2"
  lrn_param {
    local_size: 5
    alpha: 0.0001
    beta: 0.75
  }
}
layer {
  name: "pool2/3x3_s2"
  type: "Pooling"
  bottom: "conv2/norm2"
  top: "pool2/3x3_s2"
  pooling_param {
    pool: MAX
    kernel_size: 3
    stride: 2
  }
}
layer {
  name: "inception_3a/1x1"
  type: "Convolution"
  bottom: "pool2/3x3_s2"
  top: "inception_3a/1x1"
  param {
    lr_mult: 1
    decay_mult: 1
  }
  param {
    lr_mult: 2
    decay_mult: 0
  }
  convolution_param {
    num_output: 64
    kernel_size: 1
    weight_filler {
      type: "xavier"
      std: 0.03
    }
    bias_filler {
      type: "constant"
      value: 0.2
    }
  }
}
layer {
  name: "inception_3a/relu_1x1"
  type: "ReLU"
  bottom: "inception_3a/1x1"
  top: "inception_3a/1x1"
}
layer {
  name: "inception_3a/3x3_reduce"
  type: "Convolution"
  bottom: "pool2/3x3_s2"
  top: "inception_3a/3x3_reduce"
  param {
    lr_mult: 1
    decay_mult: 1
  }
  param {
    lr_mult: 2
    decay_mult: 0
  }
  convolution_param {
    num_output: 96
    kernel_size: 1
    weight_filler {
      type: "xavier"
      std: 0.09
    }
    bias_filler {
      type: "constant"
      value: 0.2
    }
  }
}
layer {
  name: "inception_3a/relu_3x3_reduce"
  type: "ReLU"
  bottom: "inception_3a/3x3_reduce"
  top: "inception_3a/3x3_reduce"
}
layer {
  name: "inception_3a/3x3"
  type: "Convolution"
  bottom: "inception_3a/3x3_reduce"
  top: "inception_3a/3x3"
  param {
    lr_mult: 1
    decay_mult: 1
  }
  param {
    lr_mult: 2
    decay_mult: 0
  }
  convolution_param {
    num_output: 128
    pad: 1
    kernel_size: 3
    weight_filler {
      type: "xavier"
      std: 0.03
    }
    bias_filler {
      type: "constant"
      value: 0.2
    }
  }
}
layer {
  name: "inception_3a/relu_3x3"
  type: "ReLU"
  bottom: "inception_3a/3x3"
  top: "inception_3a/3x3"
}
layer {
  name: "inception_3a/5x5_reduce"
  type: "Convolution"
  bottom: "pool2/3x3_s2"
  top: "inception_3a/5x5_reduce"
  param {
    lr_mult: 1
    decay_mult: 1
  }
  param {
    lr_mult: 2
    decay_mult: 0
  }
  convolution_param {
    num_output: 16
    kernel_size: 1
    weight_filler {
      type: "xavier"
      std: 0.2
    }
    bias_filler {
      type: "constant"
      value: 0.2
    }
  }
}
layer {
  name: "inception_3a/relu_5x5_reduce"
  type: "ReLU"
  bottom: "inception_3a/5x5_reduce"
  top: "inception_3a/5x5_reduce"
}
layer {
  name: "inception_3a/5x5"
  type: "Convolution"
  bottom: "inception_3a/5x5_reduce"
  top: "inception_3a/5x5"
  param {
    lr_mult: 1
    decay_mult: 1
  }
  param {
    lr_mult: 2
    decay_mult: 0
  }
  convolution_param {
    num_output: 32
    pad: 2
    kernel_size: 5
    weight_filler {
      type: "xavier"
      std: 0.03
    }
    bias_filler {
      type: "constant"
      value: 0.2
    }
  }
}
layer {
  name: "inception_3a/relu_5x5"
  type: "ReLU"
  bottom: "inception_3a/5x5"
  top: "inception_3a/5x5"
}
layer {
  name: "inception_3a/pool"
  type: "Pooling"
  bottom: "pool2/3x3_s2"
  top: "inception_3a/pool"
  pooling_param {
    pool: MAX
    kernel_size: 3
    stride: 1
    pad: 1
  }
}
layer {
  name: "inception_3a/pool_proj"
  type: "Convolution"
  bottom: "inception_3a/pool"
  top: "inception_3a/pool_proj"
  param {
    lr_mult: 1
    decay_mult: 1
  }
  param {
    lr_mult: 2
    decay_mult: 0
  }
  convolution_param {
    num_output: 32
    kernel_size: 1
    weight_filler {
      type: "xavier"
      std: 0.1
    }
    bias_filler {
      type: "constant"
      value: 0.2
    }
  }
}
layer {
  name: "inception_3a/relu_pool_proj"
  type: "ReLU"
  bottom: "inception_3a/pool_proj"
  top: "inception_3a/pool_proj"
}
layer {
  name: "inception_3a/output"
  type: "Concat"
  bottom: "inception_3a/1x1"
  bottom: "inception_3a/3x3"
  bottom: "inception_3a/5x5"
  bottom: "inception_3a/pool_proj"
  top: "inception_3a/output"
}
layer {
  name: "inception_3b/1x1"
  type: "Convolution"
  bottom: "inception_3a/output"
  top: "inception_3b/1x1"
  param {
    lr_mult: 1
    decay_mult: 1
  }
  param {
    lr_mult: 2
    decay_mult: 0
  }
  convolution_param {
    num_output: 128
    kernel_size: 1
    weight_filler {
      type: "xavier"
      std: 0.03
    }
    bias_filler {
      type: "constant"
      value: 0.2
    }
  }
}
layer {
  name: "inception_3b/relu_1x1"
  type: "ReLU"
  bottom: "inception_3b/1x1"
  top: "inception_3b/1x1"
}
layer {
  name: "inception_3b/3x3_reduce"
  type: "Convolution"
  bottom: "inception_3a/output"
  top: "inception_3b/3x3_reduce"
  param {
    lr_mult: 1
    decay_mult: 1
  }
  param {
    lr_mult: 2
    decay_mult: 0
  }
  convolution_param {
    num_output: 128
    kernel_size: 1
    weight_filler {
      type: "xavier"
      std: 0.09
    }
    bias_filler {
      type: "constant"
      value: 0.2
    }
  }
}
layer {
  name: "inception_3b/relu_3x3_reduce"
  type: "ReLU"
  bottom: "inception_3b/3x3_reduce"
  top: "inception_3b/3x3_reduce"
}
layer {
  name: "inception_3b/3x3"
  type: "Convolution"
  bottom: "inception_3b/3x3_reduce"
  top: "inception_3b/3x3"
  param {
    lr_mult: 1
    decay_mult: 1
  }
  param {
    lr_mult: 2
    decay_mult: 0
  }
  convolution_param {
    num_output: 192
    pad: 1
    kernel_size: 3
    weight_filler {
      type: "xavier"
      std: 0.03
    }
    bias_filler {
      type: "constant"
      value: 0.2
    }
  }
}
layer {
  name: "inception_3b/relu_3x3"
  type: "ReLU"
  bottom: "inception_3b/3x3"
  top: "inception_3b/3x3"
}
layer {
  name: "inception_3b/5x5_reduce"
  type: "Convolution"
  bottom: "inception_3a/output"
  top: "inception_3b/5x5_reduce"
  param {
    lr_mult: 1
    decay_mult: 1
  }
  param {
    lr_mult: 2
    decay_mult: 0
  }
  convolution_param {
    num_output: 32
    kernel_size: 1
    weight_filler {
      type: "xavier"
      std: 0.2
    }
    bias_filler {
      type: "constant"
      value: 0.2
    }
  }
}
layer {
  name: "inception_3b/relu_5x5_reduce"
  type: "ReLU"
  bottom: "inception_3b/5x5_reduce"
  top: "inception_3b/5x5_reduce"
}
layer {
  name: "inception_3b/5x5"
  type: "Convolution"
  bottom: "inception_3b/5x5_reduce"
  top: "inception_3b/5x5"
  param {
    lr_mult: 1
    decay_mult: 1
  }
  param {
    lr_mult: 2
    decay_mult: 0
  }
  convolution_param {
    num_output: 96
    pad: 2
    kernel_size: 5
    weight_filler {
      type: "xavier"
      std: 0.03
    }
    bias_filler {
      type: "constant"
      value: 0.2
    }
  }
}
layer {
  name: "inception_3b/relu_5x5"
  type: "ReLU"
  bottom: "inception_3b/5x5"
  top: "inception_3b/5x5"
}
layer {
  name: "inception_3b/pool"
  type: "Pooling"
  bottom: "inception_3a/output"
  top: "inception_3b/pool"
  pooling_param {
    pool: MAX
    kernel_size: 3
    stride: 1
    pad: 1
  }
}
layer {
  name: "inception_3b/pool_proj"
  type: "Convolution"
  bottom: "inception_3b/pool"
  top: "inception_3b/pool_proj"
  param {
    lr_mult: 1
    decay_mult: 1
  }
  param {
    lr_mult: 2
    decay_mult: 0
  }
  convolution_param {
    num_output: 64
    kernel_size: 1
    weight_filler {
      type: "xavier"
      std: 0.1
    }
    bias_filler {
      type: "constant"
      value: 0.2
    }
  }
}
layer {
  name: "inception_3b/relu_pool_proj"
  type: "ReLU"
  bottom: "inception_3b/pool_proj"
  top: "inception_3b/pool_proj"
}
layer {
  name: "inception_3b/output"
  type: "Concat"
  bottom: "inception_3b/1x1"
  bottom: "inception_3b/3x3"
  bottom: "inception_3b/5x5"
  bottom: "inception_3b/pool_proj"
  top: "inception_3b/output"
}
layer {
  name: "pool3/3x3_s2"
  type: "Pooling"
  bottom: "inception_3b/output"
  top: "pool3/3x3_s2"
  pooling_param {
    pool: MAX
    kernel_size: 3
    stride: 2
  }
}
layer {
  name: "inception_4a/1x1"
  type: "Convolution"
  bottom: "pool3/3x3_s2"
  top: "inception_4a/1x1"
  param {
    lr_mult: 1
    decay_mult: 1
  }
  param {
    lr_mult: 2
    decay_mult: 0
  }
  convolution_param {
    num_output: 192
    kernel_size: 1
    weight_filler {
      type: "xavier"
      std: 0.03
    }
    bias_filler {
      type: "constant"
      value: 0.2
    }
  }
}
layer {
  name: "inception_4a/relu_1x1"
  type: "ReLU"
  bottom: "inception_4a/1x1"
  top: "inception_4a/1x1"
}
layer {
  name: "inception_4a/3x3_reduce"
  type: "Convolution"
  bottom: "pool3/3x3_s2"
  top: "inception_4a/3x3_reduce"
  param {
    lr_mult: 1
    decay_mult: 1
  }
  param {
    lr_mult: 2
    decay_mult: 0
  }
  convolution_param {
    num_output: 96
    kernel_size: 1
    weight_filler {
      type: "xavier"
      std: 0.09
    }
    bias_filler {
      type: "constant"
      value: 0.2
    }
  }
}
layer {
  name: "inception_4a/relu_3x3_reduce"
  type: "ReLU"
  bottom: "inception_4a/3x3_reduce"
  top: "inception_4a/3x3_reduce"
}
layer {
  name: "inception_4a/3x3"
  type: "Convolution"
  bottom: "inception_4a/3x3_reduce"
  top: "inception_4a/3x3"
  param {
    lr_mult: 1
    decay_mult: 1
  }
  param {
    lr_mult: 2
    decay_mult: 0
  }
  convolution_param {
    num_output: 208
    pad: 1
    kernel_size: 3
    weight_filler {
      type: "xavier"
      std: 0.03
    }
    bias_filler {
      type: "constant"
      value: 0.2
    }
  }
}
layer {
  name: "inception_4a/relu_3x3"
  type: "ReLU"
  bottom: "inception_4a/3x3"
  top: "inception_4a/3x3"
}
layer {
  name: "inception_4a/5x5_reduce"
  type: "Convolution"
  bottom: "pool3/3x3_s2"
  top: "inception_4a/5x5_reduce"
  param {
    lr_mult: 1
    decay_mult: 1
  }
  param {
    lr_mult: 2
    decay_mult: 0
  }
  convolution_param {
    num_output: 16
    kernel_size: 1
    weight_filler {
      type: "xavier"
      std: 0.2
    }
    bias_filler {
      type: "constant"
      value: 0.2
    }
  }
}
layer {
  name: "inception_4a/relu_5x5_reduce"
  type: "ReLU"
  bottom: "inception_4a/5x5_reduce"
  top: "inception_4a/5x5_reduce"
}
layer {
  name: "inception_4a/5x5"
  type: "Convolution"
  bottom: "inception_4a/5x5_reduce"
  top: "inception_4a/5x5"
  param {
    lr_mult: 1
    decay_mult: 1
  }
  param {
    lr_mult: 2
    decay_mult: 0
  }
  convolution_param {
    num_output: 48
    pad: 2
    kernel_size: 5
    weight_filler {
      type: "xavier"
      std: 0.03
    }
    bias_filler {
      type: "constant"
      value: 0.2
    }
  }
}
layer {
  name: "inception_4a/relu_5x5"
  type: "ReLU"
  bottom: "inception_4a/5x5"
  top: "inception_4a/5x5"
}
layer {
  name: "inception_4a/pool"
  type: "Pooling"
  bottom: "pool3/3x3_s2"
  top: "inception_4a/pool"
  pooling_param {
    pool: MAX
    kernel_size: 3
    stride: 1
    pad: 1
  }
}
layer {
  name: "inception_4a/pool_proj"
  type: "Convolution"
  bottom: "inception_4a/pool"
  top: "inception_4a/pool_proj"
  param {
    lr_mult: 1
    decay_mult: 1
  }
  param {
    lr_mult: 2
    decay_mult: 0
  }
  convolution_param {
    num_output: 64
    kernel_size: 1
    weight_filler {
      type: "xavier"
      std: 0.1
    }
    bias_filler {
      type: "constant"
      value: 0.2
    }
  }
}
layer {
  name: "inception_4a/relu_pool_proj"
  type: "ReLU"
  bottom: "inception_4a/pool_proj"
  top: "inception_4a/pool_proj"
}
layer {
  name: "inception_4a/output"
  type: "Concat"
  bottom: "inception_4a/1x1"
  bottom: "inception_4a/3x3"
  bottom: "inception_4a/5x5"
  bottom: "inception_4a/pool_proj"
  top: "inception_4a/output"
}
layer {
  name: "loss1/ave_pool"
  type: "Pooling"
  bottom: "inception_4a/output"
  top: "loss1/ave_pool"
  pooling_param {
    pool: AVE
    kernel_size: 5
    stride: 3
  }
}
layer {
  name: "loss1/conv"
  type: "Convolution"
  bottom: "loss1/ave_pool"
  top: "loss1/conv"
  param {
    lr_mult: 1
    decay_mult: 1
  }
  param {
    lr_mult: 2
    decay_mult: 0
  }
  convolution_param {
    num_output: 128
    kernel_size: 1
    weight_filler {
      type: "xavier"
      std: 0.08
    }
    bias_filler {
      type: "constant"
      value: 0.2
    }
  }
}
layer {
  name: "loss1/relu_conv"
  type: "ReLU"
  bottom: "loss1/conv"
  top: "loss1/conv"
}
layer {
  name: "loss1/fc"
  type: "InnerProduct"
  bottom: "loss1/conv"
  top: "loss1/fc"
  param {
    lr_mult: 1
    decay_mult: 1
  }
  param {
    lr_mult: 2
    decay_mult: 0
  }
  inner_product_param {
    num_output: 1024
    weight_filler {
      type: "xavier"
      std: 0.02
    }
    bias_filler {
      type: "constant"
      value: 0.2
    }
  }
}
layer {
  name: "loss1/relu_fc"
  type: "ReLU"
  bottom: "loss1/fc"
  top: "loss1/fc"
}
layer {
  name: "loss1/drop_fc"
  type: "Dropout"
  bottom: "loss1/fc"
  top: "loss1/fc"
  dropout_param {
    dropout_ratio: 0.7
  }
}
layer {
  name: "loss1/classifier_plantvillage"
  type: "InnerProduct"
  bottom: "loss1/fc"
  top: "loss1/classifier_plantvillage"
  param {
    lr_mult: 1
    decay_mult: 1
  }
  param {
    lr_mult: 2
    decay_mult: 0
  }
  inner_product_param {
    num_output: 38
    weight_filler {
      type: "xavier"
      std: 0.0009765625
    }
    bias_filler {
      type: "constant"
      value: 0
    }
  }
}
layer {
  name: "inception_4b/1x1"
  type: "Convolution"
  bottom: "inception_4a/output"
  top: "inception_4b/1x1"
  param {
    lr_mult: 1
    decay_mult: 1
  }
  param {
    lr_mult: 2
    decay_mult: 0
  }
  convolution_param {
    num_output: 160
    kernel_size: 1
    weight_filler {
      type: "xavier"
      std: 0.03
    }
    bias_filler {
      type: "constant"
      value: 0.2
    }
  }
}
layer {
  name: "inception_4b/relu_1x1"
  type: "ReLU"
  bottom: "inception_4b/1x1"
  top: "inception_4b/1x1"
}
layer {
  name: "inception_4b/3x3_reduce"
  type: "Convolution"
  bottom: "inception_4a/output"
  top: "inception_4b/3x3_reduce"
  param {
    lr_mult: 1
    decay_mult: 1
  }
  param {
    lr_mult: 2
    decay_mult: 0
  }
  convolution_param {
    num_output: 112
    kernel_size: 1
    weight_filler {
      type: "xavier"
      std: 0.09
    }
    bias_filler {
      type: "constant"
      value: 0.2
    }
  }
}
layer {
  name: "inception_4b/relu_3x3_reduce"
  type: "ReLU"
  bottom: "inception_4b/3x3_reduce"
  top: "inception_4b/3x3_reduce"
}
layer {
  name: "inception_4b/3x3"
  type: "Convolution"
  bottom: "inception_4b/3x3_reduce"
  top: "inception_4b/3x3"
  param {
    lr_mult: 1
    decay_mult: 1
  }
  param {
    lr_mult: 2
    decay_mult: 0
  }
  convolution_param {
    num_output: 224
    pad: 1
    kernel_size: 3
    weight_filler {
      type: "xavier"
      std: 0.03
    }
    bias_filler {
      type: "constant"
      value: 0.2
    }
  }
}
layer {
  name: "inception_4b/relu_3x3"
  type: "ReLU"
  bottom: "inception_4b/3x3"
  top: "inception_4b/3x3"
}
layer {
  name: "inception_4b/5x5_reduce"
  type: "Convolution"
  bottom: "inception_4a/output"
  top: "inception_4b/5x5_reduce"
  param {
    lr_mult: 1
    decay_mult: 1
  }
  param {
    lr_mult: 2
    decay_mult: 0
  }
  convolution_param {
    num_output: 24
    kernel_size: 1
    weight_filler {
      type: "xavier"
      std: 0.2
    }
    bias_filler {
      type: "constant"
      value: 0.2
    }
  }
}
layer {
  name: "inception_4b/relu_5x5_reduce"
  type: "ReLU"
  bottom: "inception_4b/5x5_reduce"
  top: "inception_4b/5x5_reduce"
}
layer {
  name: "inception_4b/5x5"
  type: "Convolution"
  bottom: "inception_4b/5x5_reduce"
  top: "inception_4b/5x5"
  param {
    lr_mult: 1
    decay_mult: 1
  }
  param {
    lr_mult: 2
    decay_mult: 0
  }
  convolution_param {
    num_output: 64
    pad: 2
    kernel_size: 5
    weight_filler {
      type: "xavier"
      std: 0.03
    }
    bias_filler {
      type: "constant"
      value: 0.2
    }
  }
}
layer {
  name: "inception_4b/relu_5x5"
  type: "ReLU"
  bottom: "inception_4b/5x5"
  top: "inception_4b/5x5"
}
layer {
  name: "inception_4b/pool"
  type: "Pooling"
  bottom: "inception_4a/output"
  top: "inception_4b/pool"
  pooling_param {
    pool: MAX
    kernel_size: 3
    stride: 1
    pad: 1
  }
}
layer {
  name: "inception_4b/pool_proj"
  type: "Convolution"
  bottom: "inception_4b/pool"
  top: "inception_4b/pool_proj"
  param {
    lr_mult: 1
    decay_mult: 1
  }
  param {
    lr_mult: 2
    decay_mult: 0
  }
  convolution_param {
    num_output: 64
    kernel_size: 1
    weight_filler {
      type: "xavier"
      std: 0.1
    }
    bias_filler {
      type: "constant"
      value: 0.2
    }
  }
}
layer {
  name: "inception_4b/relu_pool_proj"
  type: "ReLU"
  bottom: "inception_4b/pool_proj"
  top: "inception_4b/pool_proj"
}
layer {
  name: "inception_4b/output"
  type: "Concat"
  bottom: "inception_4b/1x1"
  bottom: "inception_4b/3x3"
  bottom: "inception_4b/5x5"
  bottom: "inception_4b/pool_proj"
  top: "inception_4b/output"
}
layer {
  name: "inception_4c/1x1"
  type: "Convolution"
  bottom: "inception_4b/output"
  top: "inception_4c/1x1"
  param {
    lr_mult: 1
    decay_mult: 1
  }
  param {
    lr_mult: 2
    decay_mult: 0
  }
  convolution_param {
    num_output: 128
    kernel_size: 1
    weight_filler {
      type: "xavier"
      std: 0.03
    }
    bias_filler {
      type: "constant"
      value: 0.2
    }
  }
}
layer {
  name: "inception_4c/relu_1x1"
  type: "ReLU"
  bottom: "inception_4c/1x1"
  top: "inception_4c/1x1"
}
layer {
  name: "inception_4c/3x3_reduce"
  type: "Convolution"
  bottom: "inception_4b/output"
  top: "inception_4c/3x3_reduce"
  param {
    lr_mult: 1
    decay_mult: 1
  }
  param {
    lr_mult: 2
    decay_mult: 0
  }
  convolution_param {
    num_output: 128
    kernel_size: 1
    weight_filler {
      type: "xavier"
      std: 0.09
    }
    bias_filler {
      type: "constant"
      value: 0.2
    }
  }
}
layer {
  name: "inception_4c/relu_3x3_reduce"
  type: "ReLU"
  bottom: "inception_4c/3x3_reduce"
  top: "inception_4c/3x3_reduce"
}
layer {
  name: "inception_4c/3x3"
  type: "Convolution"
  bottom: "inception_4c/3x3_reduce"
  top: "inception_4c/3x3"
  param {
    lr_mult: 1
    decay_mult: 1
  }
  param {
    lr_mult: 2
    decay_mult: 0
  }
  convolution_param {
    num_output: 256
    pad: 1
    kernel_size: 3
    weight_filler {
      type: "xavier"
      std: 0.03
    }
    bias_filler {
      type: "constant"
      value: 0.2
    }
  }
}
layer {
  name: "inception_4c/relu_3x3"
  type: "ReLU"
  bottom: "inception_4c/3x3"
  top: "inception_4c/3x3"
}
layer {
  name: "inception_4c/5x5_reduce"
  type: "Convolution"
  bottom: "inception_4b/output"
  top: "inception_4c/5x5_reduce"
  param {
    lr_mult: 1
    decay_mult: 1
  }
  param {
    lr_mult: 2
    decay_mult: 0
  }
  convolution_param {
    num_output: 24
    kernel_size: 1
    weight_filler {
      type: "xavier"
      std: 0.2
    }
    bias_filler {
      type: "constant"
      value: 0.2
    }
  }
}
layer {
  name: "inception_4c/relu_5x5_reduce"
  type: "ReLU"
  bottom: "inception_4c/5x5_reduce"
  top: "inception_4c/5x5_reduce"
}
layer {
  name: "inception_4c/5x5"
  type: "Convolution"
  bottom: "inception_4c/5x5_reduce"
  top: "inception_4c/5x5"
  param {
    lr_mult: 1
    decay_mult: 1
  }
  param {
    lr_mult: 2
    decay_mult: 0
  }
  convolution_param {
    num_output: 64
    pad: 2
    kernel_size: 5
    weight_filler {
      type: "xavier"
      std: 0.03
    }
    bias_filler {
      type: "constant"
      value: 0.2
    }
  }
}
layer {
  name: "inception_4c/relu_5x5"
  type: "ReLU"
  bottom: "inception_4c/5x5"
  top: "inception_4c/5x5"
}
layer {
  name: "inception_4c/pool"
  type: "Pooling"
  bottom: "inception_4b/output"
  top: "inception_4c/pool"
  pooling_param {
    pool: MAX
    kernel_size: 3
    stride: 1
    pad: 1
  }
}
layer {
  name: "inception_4c/pool_proj"
  type: "Convolution"
  bottom: "inception_4c/pool"
  top: "inception_4c/pool_proj"
  param {
    lr_mult: 1
    decay_mult: 1
  }
  param {
    lr_mult: 2
    decay_mult: 0
  }
  convolution_param {
    num_output: 64
    kernel_size: 1
    weight_filler {
      type: "xavier"
      std: 0.1
    }
    bias_filler {
      type: "constant"
      value: 0.2
    }
  }
}
layer {
  name: "inception_4c/relu_pool_proj"
  type: "ReLU"
  bottom: "inception_4c/pool_proj"
  top: "inception_4c/pool_proj"
}
layer {
  name: "inception_4c/output"
  type: "Concat"
  bottom: "inception_4c/1x1"
  bottom: "inception_4c/3x3"
  bottom: "inception_4c/5x5"
  bottom: "inception_4c/pool_proj"
  top: "inception_4c/output"
}
layer {
  name: "inception_4d/1x1"
  type: "Convolution"
  bottom: "inception_4c/output"
  top: "inception_4d/1x1"
  param {
    lr_mult: 1
    decay_mult: 1
  }
  param {
    lr_mult: 2
    decay_mult: 0
  }
  convolution_param {
    num_output: 112
    kernel_size: 1
    weight_filler {
      type: "xavier"
      std: 0.03
    }
    bias_filler {
      type: "constant"
      value: 0.2
    }
  }
}
layer {
  name: "inception_4d/relu_1x1"
  type: "ReLU"
  bottom: "inception_4d/1x1"
  top: "inception_4d/1x1"
}
layer {
  name: "inception_4d/3x3_reduce"
  type: "Convolution"
  bottom: "inception_4c/output"
  top: "inception_4d/3x3_reduce"
  param {
    lr_mult: 1
    decay_mult: 1
  }
  param {
    lr_mult: 2
    decay_mult: 0
  }
  convolution_param {
    num_output: 144
    kernel_size: 1
    weight_filler {
      type: "xavier"
      std: 0.09
    }
    bias_filler {
      type: "constant"
      value: 0.2
    }
  }
}
layer {
  name: "inception_4d/relu_3x3_reduce"
  type: "ReLU"
  bottom: "inception_4d/3x3_reduce"
  top: "inception_4d/3x3_reduce"
}
layer {
  name: "inception_4d/3x3"
  type: "Convolution"
  bottom: "inception_4d/3x3_reduce"
  top: "inception_4d/3x3"
  param {
    lr_mult: 1
    decay_mult: 1
  }
  param {
    lr_mult: 2
    decay_mult: 0
  }
  convolution_param {
    num_output: 288
    pad: 1
    kernel_size: 3
    weight_filler {
      type: "xavier"
      std: 0.03
    }
    bias_filler {
      type: "constant"
      value: 0.2
    }
  }
}
layer {
  name: "inception_4d/relu_3x3"
  type: "ReLU"
  bottom: "inception_4d/3x3"
  top: "inception_4d/3x3"
}
layer {
  name: "inception_4d/5x5_reduce"
  type: "Convolution"
  bottom: "inception_4c/output"
  top: "inception_4d/5x5_reduce"
  param {
    lr_mult: 1
    decay_mult: 1
  }
  param {
    lr_mult: 2
    decay_mult: 0
  }
  convolution_param {
    num_output: 32
    kernel_size: 1
    weight_filler {
      type: "xavier"
      std: 0.2
    }
    bias_filler {
      type: "constant"
      value: 0.2
    }
  }
}
layer {
  name: "inception_4d/relu_5x5_reduce"
  type: "ReLU"
  bottom: "inception_4d/5x5_reduce"
  top: "inception_4d/5x5_reduce"
}
layer {
  name: "inception_4d/5x5"
  type: "Convolution"
  bottom: "inception_4d/5x5_reduce"
  top: "inception_4d/5x5"
  param {
    lr_mult: 1
    decay_mult: 1
  }
  param {
    lr_mult: 2
    decay_mult: 0
  }
  convolution_param {
    num_output: 64
    pad: 2
    kernel_size: 5
    weight_filler {
      type: "xavier"
      std: 0.03
    }
    bias_filler {
      type: "constant"
      value: 0.2
    }
  }
}
layer {
  name: "inception_4d/relu_5x5"
  type: "ReLU"
  bottom: "inception_4d/5x5"
  top: "inception_4d/5x5"
}
layer {
  name: "inception_4d/pool"
  type: "Pooling"
  bottom: "inception_4c/output"
  top: "inception_4d/pool"
  pooling_param {
    pool: MAX
    kernel_size: 3
    stride: 1
    pad: 1
  }
}
layer {
  name: "inception_4d/pool_proj"
  type: "Convolution"
  bottom: "inception_4d/pool"
  top: "inception_4d/pool_proj"
  param {
    lr_mult: 1
    decay_mult: 1
  }
  param {
    lr_mult: 2
    decay_mult: 0
  }
  convolution_param {
    num_output: 64
    kernel_size: 1
    weight_filler {
      type: "xavier"
      std: 0.1
    }
    bias_filler {
      type: "constant"
      value: 0.2
    }
  }
}
layer {
  name: "inception_4d/relu_pool_proj"
  type: "ReLU"
  bottom: "inception_4d/pool_proj"
  top: "inception_4d/pool_proj"
}
layer {
  name: "inception_4d/output"
  type: "Concat"
  bottom: "inception_4d/1x1"
  bottom: "inception_4d/3x3"
  bottom: "inception_4d/5x5"
  bottom: "inception_4d/pool_proj"
  top: "inception_4d/output"
}
layer {
  name: "loss2/ave_pool"
  type: "Pooling"
  bottom: "inception_4d/output"
  top: "loss2/ave_pool"
  pooling_param {
    pool: AVE
    kernel_size: 5
    stride: 3
  }
}
layer {
  name: "loss2/conv"
  type: "Convolution"
  bottom: "loss2/ave_pool"
  top: "loss2/conv"
  param {
    lr_mult: 1
    decay_mult: 1
  }
  param {
    lr_mult: 2
    decay_mult: 0
  }
  convolution_param {
    num_output: 128
    kernel_size: 1
    weight_filler {
      type: "xavier"
      std: 0.08
    }
    bias_filler {
      type: "constant"
      value: 0.2
    }
  }
}
layer {
  name: "loss2/relu_conv"
  type: "ReLU"
  bottom: "loss2/conv"
  top: "loss2/conv"
}
layer {
  name: "loss2/fc"
  type: "InnerProduct"
  bottom: "loss2/conv"
  top: "loss2/fc"
  param {
    lr_mult: 1
    decay_mult: 1
  }
  param {
    lr_mult: 2
    decay_mult: 0
  }
  inner_product_param {
    num_output: 1024
    weight_filler {
      type: "xavier"
      std: 0.02
    }
    bias_filler {
      type: "constant"
      value: 0.2
    }
  }
}
layer {
  name: "loss2/relu_fc"
  type: "ReLU"
  bottom: "loss2/fc"
  top: "loss2/fc"
}
layer {
  name: "loss2/drop_fc"
  type: "Dropout"
  bottom: "loss2/fc"
  top: "loss2/fc"
  dropout_param {
    dropout_ratio: 0.7
  }
}
layer {
  name: "loss2/classifier_plantvillage"
  type: "InnerProduct"
  bottom: "loss2/fc"
  top: "loss2/classifier_plantvillage"
  param {
    lr_mult: 1
    decay_mult: 1
  }
  param {
    lr_mult: 2
    decay_mult: 0
  }
  inner_product_param {
    num_output: 38
    weight_filler {
      type: "xavier"
      std: 0.0009765625
    }
    bias_filler {
      type: "constant"
      value: 0
    }
  }
}
layer {
  name: "inception_4e/1x1"
  type: "Convolution"
  bottom: "inception_4d/output"
  top: "inception_4e/1x1"
  param {
    lr_mult: 1
    decay_mult: 1
  }
  param {
    lr_mult: 2
    decay_mult: 0
  }
  convolution_param {
    num_output: 256
    kernel_size: 1
    weight_filler {
      type: "xavier"
      std: 0.03
    }
    bias_filler {
      type: "constant"
      value: 0.2
    }
  }
}
layer {
  name: "inception_4e/relu_1x1"
  type: "ReLU"
  bottom: "inception_4e/1x1"
  top: "inception_4e/1x1"
}
layer {
  name: "inception_4e/3x3_reduce"
  type: "Convolution"
  bottom: "inception_4d/output"
  top: "inception_4e/3x3_reduce"
  param {
    lr_mult: 1
    decay_mult: 1
  }
  param {
    lr_mult: 2
    decay_mult: 0
  }
  convolution_param {
    num_output: 160
    kernel_size: 1
    weight_filler {
      type: "xavier"
      std: 0.09
    }
    bias_filler {
      type: "constant"
      value: 0.2
    }
  }
}
layer {
  name: "inception_4e/relu_3x3_reduce"
  type: "ReLU"
  bottom: "inception_4e/3x3_reduce"
  top: "inception_4e/3x3_reduce"
}
layer {
  name: "inception_4e/3x3"
  type: "Convolution"
  bottom: "inception_4e/3x3_reduce"
  top: "inception_4e/3x3"
  param {
    lr_mult: 1
    decay_mult: 1
  }
  param {
    lr_mult: 2
    decay_mult: 0
  }
  convolution_param {
    num_output: 320
    pad: 1
    kernel_size: 3
    weight_filler {
      type: "xavier"
      std: 0.03
    }
    bias_filler {
      type: "constant"
      value: 0.2
    }
  }
}
layer {
  name: "inception_4e/relu_3x3"
  type: "ReLU"
  bottom: "inception_4e/3x3"
  top: "inception_4e/3x3"
}
layer {
  name: "inception_4e/5x5_reduce"
  type: "Convolution"
  bottom: "inception_4d/output"
  top: "inception_4e/5x5_reduce"
  param {
    lr_mult: 1
    decay_mult: 1
  }
  param {
    lr_mult: 2
    decay_mult: 0
  }
  convolution_param {
    num_output: 32
    kernel_size: 1
    weight_filler {
      type: "xavier"
      std: 0.2
    }
    bias_filler {
      type: "constant"
      value: 0.2
    }
  }
}
layer {
  name: "inception_4e/relu_5x5_reduce"
  type: "ReLU"
  bottom: "inception_4e/5x5_reduce"
  top: "inception_4e/5x5_reduce"
}
layer {
  name: "inception_4e/5x5"
  type: "Convolution"
  bottom: "inception_4e/5x5_reduce"
  top: "inception_4e/
I0403 16:43:41.529795 21388 layer_factory.hpp:77] Creating layer data
I0403 16:43:41.530388 21388 net.cpp:91] Creating Layer data
I0403 16:43:41.530423 21388 net.cpp:399] data -> data
I0403 16:43:41.530472 21388 net.cpp:399] data -> label
I0403 16:43:41.530508 21388 data_transformer.cpp:25] Loading mean file from: /home/mohanty/data/final_dataset/lmdb/grayscale-20-80/mean.binaryproto
I0403 16:43:41.535217 21391 db_lmdb.cpp:38] Opened lmdb /home/mohanty/data/final_dataset/lmdb/grayscale-20-80/test_db
I0403 16:43:41.545538 21388 data_layer.cpp:41] output data size: 24,3,224,224
I0403 16:43:41.572674 21388 net.cpp:141] Setting up data
I0403 16:43:41.572779 21388 net.cpp:148] Top shape: 24 3 224 224 (3612672)
I0403 16:43:41.572801 21388 net.cpp:148] Top shape: 24 (24)
I0403 16:43:41.572816 21388 net.cpp:156] Memory required for data: 14450784
I0403 16:43:41.572844 21388 layer_factory.hpp:77] Creating layer label_data_1_split
I0403 16:43:41.572870 21388 net.cpp:91] Creating Layer label_data_1_split
I0403 16:43:41.572888 21388 net.cpp:425] label_data_1_split <- label
I0403 16:43:41.572921 21388 net.cpp:399] label_data_1_split -> label_data_1_split_0
I0403 16:43:41.572948 21388 net.cpp:399] label_data_1_split -> label_data_1_split_1
I0403 16:43:41.572970 21388 net.cpp:399] label_data_1_split -> label_data_1_split_2
I0403 16:43:41.572991 21388 net.cpp:399] label_data_1_split -> label_data_1_split_3
I0403 16:43:41.573010 21388 net.cpp:399] label_data_1_split -> label_data_1_split_4
I0403 16:43:41.573036 21388 net.cpp:399] label_data_1_split -> label_data_1_split_5
I0403 16:43:41.573056 21388 net.cpp:399] label_data_1_split -> label_data_1_split_6
I0403 16:43:41.573079 21388 net.cpp:399] label_data_1_split -> label_data_1_split_7
I0403 16:43:41.573099 21388 net.cpp:399] label_data_1_split -> label_data_1_split_8
I0403 16:43:41.573119 21388 net.cpp:399] label_data_1_split -> label_data_1_split_9
I0403 16:43:41.573237 21388 net.cpp:141] Setting up label_data_1_split
I0403 16:43:41.573261 21388 net.cpp:148] Top shape: 24 (24)
I0403 16:43:41.573277 21388 net.cpp:148] Top shape: 24 (24)
I0403 16:43:41.573293 21388 net.cpp:148] Top shape: 24 (24)
I0403 16:43:41.573309 21388 net.cpp:148] Top shape: 24 (24)
I0403 16:43:41.573325 21388 net.cpp:148] Top shape: 24 (24)
I0403 16:43:41.573340 21388 net.cpp:148] Top shape: 24 (24)
I0403 16:43:41.573356 21388 net.cpp:148] Top shape: 24 (24)
I0403 16:43:41.573371 21388 net.cpp:148] Top shape: 24 (24)
I0403 16:43:41.573386 21388 net.cpp:148] Top shape: 24 (24)
I0403 16:43:41.573402 21388 net.cpp:148] Top shape: 24 (24)
I0403 16:43:41.573447 21388 net.cpp:156] Memory required for data: 14451744
I0403 16:43:41.573463 21388 layer_factory.hpp:77] Creating layer conv1/7x7_s2
I0403 16:43:41.573494 21388 net.cpp:91] Creating Layer conv1/7x7_s2
I0403 16:43:41.573513 21388 net.cpp:425] conv1/7x7_s2 <- data
I0403 16:43:41.573534 21388 net.cpp:399] conv1/7x7_s2 -> conv1/7x7_s2
I0403 16:43:41.706563 21388 net.cpp:141] Setting up conv1/7x7_s2
I0403 16:43:41.706653 21388 net.cpp:148] Top shape: 24 64 112 112 (19267584)
I0403 16:43:41.706670 21388 net.cpp:156] Memory required for data: 91522080
I0403 16:43:41.706701 21388 layer_factory.hpp:77] Creating layer conv1/relu_7x7
I0403 16:43:41.706727 21388 net.cpp:91] Creating Layer conv1/relu_7x7
I0403 16:43:41.706744 21388 net.cpp:425] conv1/relu_7x7 <- conv1/7x7_s2
I0403 16:43:41.706763 21388 net.cpp:386] conv1/relu_7x7 -> conv1/7x7_s2 (in-place)
I0403 16:43:41.707022 21388 net.cpp:141] Setting up conv1/relu_7x7
I0403 16:43:41.707051 21388 net.cpp:148] Top shape: 24 64 112 112 (19267584)
I0403 16:43:41.707067 21388 net.cpp:156] Memory required for data: 168592416
I0403 16:43:41.707080 21388 layer_factory.hpp:77] Creating layer pool1/3x3_s2
I0403 16:43:41.707105 21388 net.cpp:91] Creating Layer pool1/3x3_s2
I0403 16:43:41.707123 21388 net.cpp:425] pool1/3x3_s2 <- conv1/7x7_s2
I0403 16:43:41.707141 21388 net.cpp:399] pool1/3x3_s2 -> pool1/3x3_s2
I0403 16:43:41.707214 21388 net.cpp:141] Setting up pool1/3x3_s2
I0403 16:43:41.707238 21388 net.cpp:148] Top shape: 24 64 56 56 (4816896)
I0403 16:43:41.707252 21388 net.cpp:156] Memory required for data: 187860000
I0403 16:43:41.707267 21388 layer_factory.hpp:77] Creating layer pool1/norm1
I0403 16:43:41.707291 21388 net.cpp:91] Creating Layer pool1/norm1
I0403 16:43:41.707309 21388 net.cpp:425] pool1/norm1 <- pool1/3x3_s2
I0403 16:43:41.707326 21388 net.cpp:399] pool1/norm1 -> pool1/norm1
I0403 16:43:41.707608 21388 net.cpp:141] Setting up pool1/norm1
I0403 16:43:41.707635 21388 net.cpp:148] Top shape: 24 64 56 56 (4816896)
I0403 16:43:41.707649 21388 net.cpp:156] Memory required for data: 207127584
I0403 16:43:41.707664 21388 layer_factory.hpp:77] Creating layer conv2/3x3_reduce
I0403 16:43:41.707689 21388 net.cpp:91] Creating Layer conv2/3x3_reduce
I0403 16:43:41.707705 21388 net.cpp:425] conv2/3x3_reduce <- pool1/norm1
I0403 16:43:41.707722 21388 net.cpp:399] conv2/3x3_reduce -> conv2/3x3_reduce
I0403 16:43:41.709116 21388 net.cpp:141] Setting up conv2/3x3_reduce
I0403 16:43:41.709149 21388 net.cpp:148] Top shape: 24 64 56 56 (4816896)
I0403 16:43:41.709166 21388 net.cpp:156] Memory required for data: 226395168
I0403 16:43:41.709187 21388 layer_factory.hpp:77] Creating layer conv2/relu_3x3_reduce
I0403 16:43:41.709208 21388 net.cpp:91] Creating Layer conv2/relu_3x3_reduce
I0403 16:43:41.709223 21388 net.cpp:425] conv2/relu_3x3_reduce <- conv2/3x3_reduce
I0403 16:43:41.709241 21388 net.cpp:386] conv2/relu_3x3_reduce -> conv2/3x3_reduce (in-place)
I0403 16:43:41.709511 21388 net.cpp:141] Setting up conv2/relu_3x3_reduce
I0403 16:43:41.709539 21388 net.cpp:148] Top shape: 24 64 56 56 (4816896)
I0403 16:43:41.709555 21388 net.cpp:156] Memory required for data: 245662752
I0403 16:43:41.709571 21388 layer_factory.hpp:77] Creating layer conv2/3x3
I0403 16:43:41.709594 21388 net.cpp:91] Creating Layer conv2/3x3
I0403 16:43:41.709612 21388 net.cpp:425] conv2/3x3 <- conv2/3x3_reduce
I0403 16:43:41.709631 21388 net.cpp:399] conv2/3x3 -> conv2/3x3
I0403 16:43:41.712028 21388 net.cpp:141] Setting up conv2/3x3
I0403 16:43:41.712064 21388 net.cpp:148] Top shape: 24 192 56 56 (14450688)
I0403 16:43:41.712080 21388 net.cpp:156] Memory required for data: 303465504
I0403 16:43:41.712102 21388 layer_factory.hpp:77] Creating layer conv2/relu_3x3
I0403 16:43:41.712121 21388 net.cpp:91] Creating Layer conv2/relu_3x3
I0403 16:43:41.712137 21388 net.cpp:425] conv2/relu_3x3 <- conv2/3x3
I0403 16:43:41.712158 21388 net.cpp:386] conv2/relu_3x3 -> conv2/3x3 (in-place)
I0403 16:43:41.712352 21388 net.cpp:141] Setting up conv2/relu_3x3
I0403 16:43:41.712378 21388 net.cpp:148] Top shape: 24 192 56 56 (14450688)
I0403 16:43:41.712425 21388 net.cpp:156] Memory required for data: 361268256
I0403 16:43:41.712442 21388 layer_factory.hpp:77] Creating layer conv2/norm2
I0403 16:43:41.712463 21388 net.cpp:91] Creating Layer conv2/norm2
I0403 16:43:41.712481 21388 net.cpp:425] conv2/norm2 <- conv2/3x3
I0403 16:43:41.712501 21388 net.cpp:399] conv2/norm2 -> conv2/norm2
I0403 16:43:41.712815 21388 net.cpp:141] Setting up conv2/norm2
I0403 16:43:41.712846 21388 net.cpp:148] Top shape: 24 192 56 56 (14450688)
I0403 16:43:41.712862 21388 net.cpp:156] Memory required for data: 419071008
I0403 16:43:41.712880 21388 layer_factory.hpp:77] Creating layer pool2/3x3_s2
I0403 16:43:41.712899 21388 net.cpp:91] Creating Layer pool2/3x3_s2
I0403 16:43:41.712916 21388 net.cpp:425] pool2/3x3_s2 <- conv2/norm2
I0403 16:43:41.712934 21388 net.cpp:399] pool2/3x3_s2 -> pool2/3x3_s2
I0403 16:43:41.712991 21388 net.cpp:141] Setting up pool2/3x3_s2
I0403 16:43:41.713014 21388 net.cpp:148] Top shape: 24 192 28 28 (3612672)
I0403 16:43:41.713035 21388 net.cpp:156] Memory required for data: 433521696
I0403 16:43:41.713050 21388 layer_factory.hpp:77] Creating layer pool2/3x3_s2_pool2/3x3_s2_0_split
I0403 16:43:41.713068 21388 net.cpp:91] Creating Layer pool2/3x3_s2_pool2/3x3_s2_0_split
I0403 16:43:41.713084 21388 net.cpp:425] pool2/3x3_s2_pool2/3x3_s2_0_split <- pool2/3x3_s2
I0403 16:43:41.713104 21388 net.cpp:399] pool2/3x3_s2_pool2/3x3_s2_0_split -> pool2/3x3_s2_pool2/3x3_s2_0_split_0
I0403 16:43:41.713125 21388 net.cpp:399] pool2/3x3_s2_pool2/3x3_s2_0_split -> pool2/3x3_s2_pool2/3x3_s2_0_split_1
I0403 16:43:41.713145 21388 net.cpp:399] pool2/3x3_s2_pool2/3x3_s2_0_split -> pool2/3x3_s2_pool2/3x3_s2_0_split_2
I0403 16:43:41.713170 21388 net.cpp:399] pool2/3x3_s2_pool2/3x3_s2_0_split -> pool2/3x3_s2_pool2/3x3_s2_0_split_3
I0403 16:43:41.713245 21388 net.cpp:141] Setting up pool2/3x3_s2_pool2/3x3_s2_0_split
I0403 16:43:41.713269 21388 net.cpp:148] Top shape: 24 192 28 28 (3612672)
I0403 16:43:41.713286 21388 net.cpp:148] Top shape: 24 192 28 28 (3612672)
I0403 16:43:41.713302 21388 net.cpp:148] Top shape: 24 192 28 28 (3612672)
I0403 16:43:41.713317 21388 net.cpp:148] Top shape: 24 192 28 28 (3612672)
I0403 16:43:41.713331 21388 net.cpp:156] Memory required for data: 491324448
I0403 16:43:41.713346 21388 layer_factory.hpp:77] Creating layer inception_3a/1x1
I0403 16:43:41.713369 21388 net.cpp:91] Creating Layer inception_3a/1x1
I0403 16:43:41.713387 21388 net.cpp:425] inception_3a/1x1 <- pool2/3x3_s2_pool2/3x3_s2_0_split_0
I0403 16:43:41.713410 21388 net.cpp:399] inception_3a/1x1 -> inception_3a/1x1
I0403 16:43:41.714987 21388 net.cpp:141] Setting up inception_3a/1x1
I0403 16:43:41.715024 21388 net.cpp:148] Top shape: 24 64 28 28 (1204224)
I0403 16:43:41.715044 21388 net.cpp:156] Memory required for data: 496141344
I0403 16:43:41.715064 21388 layer_factory.hpp:77] Creating layer inception_3a/relu_1x1
I0403 16:43:41.715082 21388 net.cpp:91] Creating Layer inception_3a/relu_1x1
I0403 16:43:41.715098 21388 net.cpp:425] inception_3a/relu_1x1 <- inception_3a/1x1
I0403 16:43:41.715118 21388 net.cpp:386] inception_3a/relu_1x1 -> inception_3a/1x1 (in-place)
I0403 16:43:41.715301 21388 net.cpp:141] Setting up inception_3a/relu_1x1
I0403 16:43:41.715328 21388 net.cpp:148] Top shape: 24 64 28 28 (1204224)
I0403 16:43:41.715343 21388 net.cpp:156] Memory required for data: 500958240
I0403 16:43:41.715359 21388 layer_factory.hpp:77] Creating layer inception_3a/3x3_reduce
I0403 16:43:41.715383 21388 net.cpp:91] Creating Layer inception_3a/3x3_reduce
I0403 16:43:41.715401 21388 net.cpp:425] inception_3a/3x3_reduce <- pool2/3x3_s2_pool2/3x3_s2_0_split_1
I0403 16:43:41.715423 21388 net.cpp:399] inception_3a/3x3_reduce -> inception_3a/3x3_reduce
I0403 16:43:41.717175 21388 net.cpp:141] Setting up inception_3a/3x3_reduce
I0403 16:43:41.717207 21388 net.cpp:148] Top shape: 24 96 28 28 (1806336)
I0403 16:43:41.717223 21388 net.cpp:156] Memory required for data: 508183584
I0403 16:43:41.717245 21388 layer_factory.hpp:77] Creating layer inception_3a/relu_3x3_reduce
I0403 16:43:41.717283 21388 net.cpp:91] Creating Layer inception_3a/relu_3x3_reduce
I0403 16:43:41.717301 21388 net.cpp:425] inception_3a/relu_3x3_reduce <- inception_3a/3x3_reduce
I0403 16:43:41.717322 21388 net.cpp:386] inception_3a/relu_3x3_reduce -> inception_3a/3x3_reduce (in-place)
I0403 16:43:41.717514 21388 net.cpp:141] Setting up inception_3a/relu_3x3_reduce
I0403 16:43:41.717541 21388 net.cpp:148] Top shape: 24 96 28 28 (1806336)
I0403 16:43:41.717558 21388 net.cpp:156] Memory required for data: 515408928
I0403 16:43:41.717573 21388 layer_factory.hpp:77] Creating layer inception_3a/3x3
I0403 16:43:41.717597 21388 net.cpp:91] Creating Layer inception_3a/3x3
I0403 16:43:41.717614 21388 net.cpp:425] inception_3a/3x3 <- inception_3a/3x3_reduce
I0403 16:43:41.717634 21388 net.cpp:399] inception_3a/3x3 -> inception_3a/3x3
I0403 16:43:41.719391 21388 net.cpp:141] Setting up inception_3a/3x3
I0403 16:43:41.719421 21388 net.cpp:148] Top shape: 24 128 28 28 (2408448)
I0403 16:43:41.719439 21388 net.cpp:156] Memory required for data: 525042720
I0403 16:43:41.719457 21388 layer_factory.hpp:77] Creating layer inception_3a/relu_3x3
I0403 16:43:41.719476 21388 net.cpp:91] Creating Layer inception_3a/relu_3x3
I0403 16:43:41.719492 21388 net.cpp:425] inception_3a/relu_3x3 <- inception_3a/3x3
I0403 16:43:41.719513 21388 net.cpp:386] inception_3a/relu_3x3 -> inception_3a/3x3 (in-place)
I0403 16:43:41.719799 21388 net.cpp:141] Setting up inception_3a/relu_3x3
I0403 16:43:41.719827 21388 net.cpp:148] Top shape: 24 128 28 28 (2408448)
I0403 16:43:41.719842 21388 net.cpp:156] Memory required for data: 534676512
I0403 16:43:41.719858 21388 layer_factory.hpp:77] Creating layer inception_3a/5x5_reduce
I0403 16:43:41.719882 21388 net.cpp:91] Creating Layer inception_3a/5x5_reduce
I0403 16:43:41.719900 21388 net.cpp:425] inception_3a/5x5_reduce <- pool2/3x3_s2_pool2/3x3_s2_0_split_2
I0403 16:43:41.719923 21388 net.cpp:399] inception_3a/5x5_reduce -> inception_3a/5x5_reduce
I0403 16:43:41.720929 21388 net.cpp:141] Setting up inception_3a/5x5_reduce
I0403 16:43:41.720959 21388 net.cpp:148] Top shape: 24 16 28 28 (301056)
I0403 16:43:41.720974 21388 net.cpp:156] Memory required for data: 535880736
I0403 16:43:41.720993 21388 layer_factory.hpp:77] Creating layer inception_3a/relu_5x5_reduce
I0403 16:43:41.721015 21388 net.cpp:91] Creating Layer inception_3a/relu_5x5_reduce
I0403 16:43:41.721038 21388 net.cpp:425] inception_3a/relu_5x5_reduce <- inception_3a/5x5_reduce
I0403 16:43:41.721056 21388 net.cpp:386] inception_3a/relu_5x5_reduce -> inception_3a/5x5_reduce (in-place)
I0403 16:43:41.721369 21388 net.cpp:141] Setting up inception_3a/relu_5x5_reduce
I0403 16:43:41.721397 21388 net.cpp:148] Top shape: 24 16 28 28 (301056)
I0403 16:43:41.721413 21388 net.cpp:156] Memory required for data: 537084960
I0403 16:43:41.721428 21388 layer_factory.hpp:77] Creating layer inception_3a/5x5
I0403 16:43:41.721452 21388 net.cpp:91] Creating Layer inception_3a/5x5
I0403 16:43:41.721470 21388 net.cpp:425] inception_3a/5x5 <- inception_3a/5x5_reduce
I0403 16:43:41.721493 21388 net.cpp:399] inception_3a/5x5 -> inception_3a/5x5
I0403 16:43:41.722589 21388 net.cpp:141] Setting up inception_3a/5x5
I0403 16:43:41.722621 21388 net.cpp:148] Top shape: 24 32 28 28 (602112)
I0403 16:43:41.722638 21388 net.cpp:156] Memory required for data: 539493408
I0403 16:43:41.722658 21388 layer_factory.hpp:77] Creating layer inception_3a/relu_5x5
I0403 16:43:41.722676 21388 net.cpp:91] Creating Layer inception_3a/relu_5x5
I0403 16:43:41.722694 21388 net.cpp:425] inception_3a/relu_5x5 <- inception_3a/5x5
I0403 16:43:41.722714 21388 net.cpp:386] inception_3a/relu_5x5 -> inception_3a/5x5 (in-place)
I0403 16:43:41.722899 21388 net.cpp:141] Setting up inception_3a/relu_5x5
I0403 16:43:41.722925 21388 net.cpp:148] Top shape: 24 32 28 28 (602112)
I0403 16:43:41.722940 21388 net.cpp:156] Memory required for data: 541901856
I0403 16:43:41.722955 21388 layer_factory.hpp:77] Creating layer inception_3a/pool
I0403 16:43:41.722975 21388 net.cpp:91] Creating Layer inception_3a/pool
I0403 16:43:41.723006 21388 net.cpp:425] inception_3a/pool <- pool2/3x3_s2_pool2/3x3_s2_0_split_3
I0403 16:43:41.723034 21388 net.cpp:399] inception_3a/pool -> inception_3a/pool
I0403 16:43:41.723098 21388 net.cpp:141] Setting up inception_3a/pool
I0403 16:43:41.723121 21388 net.cpp:148] Top shape: 24 192 28 28 (3612672)
I0403 16:43:41.723137 21388 net.cpp:156] Memory required for data: 556352544
I0403 16:43:41.723152 21388 layer_factory.hpp:77] Creating layer inception_3a/pool_proj
I0403 16:43:41.723177 21388 net.cpp:91] Creating Layer inception_3a/pool_proj
I0403 16:43:41.723196 21388 net.cpp:425] inception_3a/pool_proj <- inception_3a/pool
I0403 16:43:41.723218 21388 net.cpp:399] inception_3a/pool_proj -> inception_3a/pool_proj
I0403 16:43:41.724225 21388 net.cpp:141] Setting up inception_3a/pool_proj
I0403 16:43:41.724253 21388 net.cpp:148] Top shape: 24 32 28 28 (602112)
I0403 16:43:41.724268 21388 net.cpp:156] Memory required for data: 558760992
I0403 16:43:41.724293 21388 layer_factory.hpp:77] Creating layer inception_3a/relu_pool_proj
I0403 16:43:41.724316 21388 net.cpp:91] Creating Layer inception_3a/relu_pool_proj
I0403 16:43:41.724333 21388 net.cpp:425] inception_3a/relu_pool_proj <- inception_3a/pool_proj
I0403 16:43:41.724349 21388 net.cpp:386] inception_3a/relu_pool_proj -> inception_3a/pool_proj (in-place)
I0403 16:43:41.724630 21388 net.cpp:141] Setting up inception_3a/relu_pool_proj
I0403 16:43:41.724658 21388 net.cpp:148] Top shape: 24 32 28 28 (602112)
I0403 16:43:41.724673 21388 net.cpp:156] Memory required for data: 561169440
I0403 16:43:41.724688 21388 layer_factory.hpp:77] Creating layer inception_3a/output
I0403 16:43:41.724705 21388 net.cpp:91] Creating Layer inception_3a/output
I0403 16:43:41.724720 21388 net.cpp:425] inception_3a/output <- inception_3a/1x1
I0403 16:43:41.724737 21388 net.cpp:425] inception_3a/output <- inception_3a/3x3
I0403 16:43:41.724752 21388 net.cpp:425] inception_3a/output <- inception_3a/5x5
I0403 16:43:41.724768 21388 net.cpp:425] inception_3a/output <- inception_3a/pool_proj
I0403 16:43:41.724788 21388 net.cpp:399] inception_3a/output -> inception_3a/output
I0403 16:43:41.724835 21388 net.cpp:141] Setting up inception_3a/output
I0403 16:43:41.724859 21388 net.cpp:148] Top shape: 24 256 28 28 (4816896)
I0403 16:43:41.724874 21388 net.cpp:156] Memory required for data: 580437024
I0403 16:43:41.724887 21388 layer_factory.hpp:77] Creating layer inception_3a/output_inception_3a/output_0_split
I0403 16:43:41.724907 21388 net.cpp:91] Creating Layer inception_3a/output_inception_3a/output_0_split
I0403 16:43:41.724923 21388 net.cpp:425] inception_3a/output_inception_3a/output_0_split <- inception_3a/output
I0403 16:43:41.724941 21388 net.cpp:399] inception_3a/output_inception_3a/output_0_split -> inception_3a/output_inception_3a/output_0_split_0
I0403 16:43:41.724963 21388 net.cpp:399] inception_3a/output_inception_3a/output_0_split -> inception_3a/output_inception_3a/output_0_split_1
I0403 16:43:41.724987 21388 net.cpp:399] inception_3a/output_inception_3a/output_0_split -> inception_3a/output_inception_3a/output_0_split_2
I0403 16:43:41.725008 21388 net.cpp:399] inception_3a/output_inception_3a/output_0_split -> inception_3a/output_inception_3a/output_0_split_3
I0403 16:43:41.725087 21388 net.cpp:141] Setting up inception_3a/output_inception_3a/output_0_split
I0403 16:43:41.725113 21388 net.cpp:148] Top shape: 24 256 28 28 (4816896)
I0403 16:43:41.725131 21388 net.cpp:148] Top shape: 24 256 28 28 (4816896)
I0403 16:43:41.725147 21388 net.cpp:148] Top shape: 24 256 28 28 (4816896)
I0403 16:43:41.725162 21388 net.cpp:148] Top shape: 24 256 28 28 (4816896)
I0403 16:43:41.725177 21388 net.cpp:156] Memory required for data: 657507360
I0403 16:43:41.725190 21388 layer_factory.hpp:77] Creating layer inception_3b/1x1
I0403 16:43:41.725213 21388 net.cpp:91] Creating Layer inception_3b/1x1
I0403 16:43:41.725229 21388 net.cpp:425] inception_3b/1x1 <- inception_3a/output_inception_3a/output_0_split_0
I0403 16:43:41.725250 21388 net.cpp:399] inception_3b/1x1 -> inception_3b/1x1
I0403 16:43:41.726440 21388 net.cpp:141] Setting up inception_3b/1x1
I0403 16:43:41.726483 21388 net.cpp:148] Top shape: 24 128 28 28 (2408448)
I0403 16:43:41.726500 21388 net.cpp:156] Memory required for data: 667141152
I0403 16:43:41.726518 21388 layer_factory.hpp:77] Creating layer inception_3b/relu_1x1
I0403 16:43:41.726536 21388 net.cpp:91] Creating Layer inception_3b/relu_1x1
I0403 16:43:41.726552 21388 net.cpp:425] inception_3b/relu_1x1 <- inception_3b/1x1
I0403 16:43:41.726569 21388 net.cpp:386] inception_3b/relu_1x1 -> inception_3b/1x1 (in-place)
I0403 16:43:41.726748 21388 net.cpp:141] Setting up inception_3b/relu_1x1
I0403 16:43:41.726774 21388 net.cpp:148] Top shape: 24 128 28 28 (2408448)
I0403 16:43:41.726789 21388 net.cpp:156] Memory required for data: 676774944
I0403 16:43:41.726804 21388 layer_factory.hpp:77] Creating layer inception_3b/3x3_reduce
I0403 16:43:41.726826 21388 net.cpp:91] Creating Layer inception_3b/3x3_reduce
I0403 16:43:41.726845 21388 net.cpp:425] inception_3b/3x3_reduce <- inception_3a/output_inception_3a/output_0_split_1
I0403 16:43:41.726866 21388 net.cpp:399] inception_3b/3x3_reduce -> inception_3b/3x3_reduce
I0403 16:43:41.728049 21388 net.cpp:141] Setting up inception_3b/3x3_reduce
I0403 16:43:41.728080 21388 net.cpp:148] Top shape: 24 128 28 28 (2408448)
I0403 16:43:41.728096 21388 net.cpp:156] Memory required for data: 686408736
I0403 16:43:41.728114 21388 layer_factory.hpp:77] Creating layer inception_3b/relu_3x3_reduce
I0403 16:43:41.728132 21388 net.cpp:91] Creating Layer inception_3b/relu_3x3_reduce
I0403 16:43:41.728147 21388 net.cpp:425] inception_3b/relu_3x3_reduce <- inception_3b/3x3_reduce
I0403 16:43:41.728166 21388 net.cpp:386] inception_3b/relu_3x3_reduce -> inception_3b/3x3_reduce (in-place)
I0403 16:43:41.728338 21388 net.cpp:141] Setting up inception_3b/relu_3x3_reduce
I0403 16:43:41.728363 21388 net.cpp:148] Top shape: 24 128 28 28 (2408448)
I0403 16:43:41.728377 21388 net.cpp:156] Memory required for data: 696042528
I0403 16:43:41.728391 21388 layer_factory.hpp:77] Creating layer inception_3b/3x3
I0403 16:43:41.728417 21388 net.cpp:91] Creating Layer inception_3b/3x3
I0403 16:43:41.728435 21388 net.cpp:425] inception_3b/3x3 <- inception_3b/3x3_reduce
I0403 16:43:41.728453 21388 net.cpp:399] inception_3b/3x3 -> inception_3b/3x3
I0403 16:43:41.731324 21388 net.cpp:141] Setting up inception_3b/3x3
I0403 16:43:41.731354 21388 net.cpp:148] Top shape: 24 192 28 28 (3612672)
I0403 16:43:41.731370 21388 net.cpp:156] Memory required for data: 710493216
I0403 16:43:41.731389 21388 layer_factory.hpp:77] Creating layer inception_3b/relu_3x3
I0403 16:43:41.731405 21388 net.cpp:91] Creating Layer inception_3b/relu_3x3
I0403 16:43:41.731421 21388 net.cpp:425] inception_3b/relu_3x3 <- inception_3b/3x3
I0403 16:43:41.731442 21388 net.cpp:386] inception_3b/relu_3x3 -> inception_3b/3x3 (in-place)
I0403 16:43:41.731712 21388 net.cpp:141] Setting up inception_3b/relu_3x3
I0403 16:43:41.731739 21388 net.cpp:148] Top shape: 24 192 28 28 (3612672)
I0403 16:43:41.731755 21388 net.cpp:156] Memory required for data: 724943904
I0403 16:43:41.731768 21388 layer_factory.hpp:77] Creating layer inception_3b/5x5_reduce
I0403 16:43:41.731791 21388 net.cpp:91] Creating Layer inception_3b/5x5_reduce
I0403 16:43:41.731809 21388 net.cpp:425] inception_3b/5x5_reduce <- inception_3a/output_inception_3a/output_0_split_2
I0403 16:43:41.731830 21388 net.cpp:399] inception_3b/5x5_reduce -> inception_3b/5x5_reduce
I0403 16:43:41.732800 21388 net.cpp:141] Setting up inception_3b/5x5_reduce
I0403 16:43:41.732830 21388 net.cpp:148] Top shape: 24 32 28 28 (602112)
I0403 16:43:41.732846 21388 net.cpp:156] Memory required for data: 727352352
I0403 16:43:41.732863 21388 layer_factory.hpp:77] Creating layer inception_3b/relu_5x5_reduce
I0403 16:43:41.732882 21388 net.cpp:91] Creating Layer inception_3b/relu_5x5_reduce
I0403 16:43:41.732897 21388 net.cpp:425] inception_3b/relu_5x5_reduce <- inception_3b/5x5_reduce
I0403 16:43:41.732916 21388 net.cpp:386] inception_3b/relu_5x5_reduce -> inception_3b/5x5_reduce (in-place)
I0403 16:43:41.733108 21388 net.cpp:141] Setting up inception_3b/relu_5x5_reduce
I0403 16:43:41.733132 21388 net.cpp:148] Top shape: 24 32 28 28 (602112)
I0403 16:43:41.733147 21388 net.cpp:156] Memory required for data: 729760800
I0403 16:43:41.733161 21388 layer_factory.hpp:77] Creating layer inception_3b/5x5
I0403 16:43:41.733183 21388 net.cpp:91] Creating Layer inception_3b/5x5
I0403 16:43:41.733201 21388 net.cpp:425] inception_3b/5x5 <- inception_3b/5x5_reduce
I0403 16:43:41.733220 21388 net.cpp:399] inception_3b/5x5 -> inception_3b/5x5
I0403 16:43:41.735160 21388 net.cpp:141] Setting up inception_3b/5x5
I0403 16:43:41.735189 21388 net.cpp:148] Top shape: 24 96 28 28 (1806336)
I0403 16:43:41.735204 21388 net.cpp:156] Memory required for data: 736986144
I0403 16:43:41.735225 21388 layer_factory.hpp:77] Creating layer inception_3b/relu_5x5
I0403 16:43:41.735244 21388 net.cpp:91] Creating Layer inception_3b/relu_5x5
I0403 16:43:41.735260 21388 net.cpp:425] inception_3b/relu_5x5 <- inception_3b/5x5
I0403 16:43:41.735276 21388 net.cpp:386] inception_3b/relu_5x5 -> inception_3b/5x5 (in-place)
I0403 16:43:41.735466 21388 net.cpp:141] Setting up inception_3b/relu_5x5
I0403 16:43:41.735491 21388 net.cpp:148] Top shape: 24 96 28 28 (1806336)
I0403 16:43:41.735505 21388 net.cpp:156] Memory required for data: 744211488
I0403 16:43:41.735519 21388 layer_factory.hpp:77] Creating layer inception_3b/pool
I0403 16:43:41.735537 21388 net.cpp:91] Creating Layer inception_3b/pool
I0403 16:43:41.735551 21388 net.cpp:425] inception_3b/pool <- inception_3a/output_inception_3a/output_0_split_3
I0403 16:43:41.735569 21388 net.cpp:399] inception_3b/pool -> inception_3b/pool
I0403 16:43:41.735625 21388 net.cpp:141] Setting up inception_3b/pool
I0403 16:43:41.735647 21388 net.cpp:148] Top shape: 24 256 28 28 (4816896)
I0403 16:43:41.735661 21388 net.cpp:156] Memory required for data: 763479072
I0403 16:43:41.735676 21388 layer_factory.hpp:77] Creating layer inception_3b/pool_proj
I0403 16:43:41.735697 21388 net.cpp:91] Creating Layer inception_3b/pool_proj
I0403 16:43:41.735715 21388 net.cpp:425] inception_3b/pool_proj <- inception_3b/pool
I0403 16:43:41.735733 21388 net.cpp:399] inception_3b/pool_proj -> inception_3b/pool_proj
I0403 16:43:41.736773 21388 net.cpp:141] Setting up inception_3b/pool_proj
I0403 16:43:41.736800 21388 net.cpp:148] Top shape: 24 64 28 28 (1204224)
I0403 16:43:41.736816 21388 net.cpp:156] Memory required for data: 768295968
I0403 16:43:41.736835 21388 layer_factory.hpp:77] Creating layer inception_3b/relu_pool_proj
I0403 16:43:41.736855 21388 net.cpp:91] Creating Layer inception_3b/relu_pool_proj
I0403 16:43:41.736871 21388 net.cpp:425] inception_3b/relu_pool_proj <- inception_3b/pool_proj
I0403 16:43:41.736888 21388 net.cpp:386] inception_3b/relu_pool_proj -> inception_3b/pool_proj (in-place)
I0403 16:43:41.737294 21388 net.cpp:141] Setting up inception_3b/relu_pool_proj
I0403 16:43:41.737320 21388 net.cpp:148] Top shape: 24 64 28 28 (1204224)
I0403 16:43:41.737334 21388 net.cpp:156] Memory required for data: 773112864
I0403 16:43:41.737349 21388 layer_factory.hpp:77] Creating layer inception_3b/output
I0403 16:43:41.737365 21388 net.cpp:91] Creating Layer inception_3b/output
I0403 16:43:41.737381 21388 net.cpp:425] inception_3b/output <- inception_3b/1x1
I0403 16:43:41.737397 21388 net.cpp:425] inception_3b/output <- inception_3b/3x3
I0403 16:43:41.737416 21388 net.cpp:425] inception_3b/output <- inception_3b/5x5
I0403 16:43:41.737432 21388 net.cpp:425] inception_3b/output <- inception_3b/pool_proj
I0403 16:43:41.737449 21388 net.cpp:399] inception_3b/output -> inception_3b/output
I0403 16:43:41.737491 21388 net.cpp:141] Setting up inception_3b/output
I0403 16:43:41.737517 21388 net.cpp:148] Top shape: 24 480 28 28 (9031680)
I0403 16:43:41.737532 21388 net.cpp:156] Memory required for data: 809239584
I0403 16:43:41.737548 21388 layer_factory.hpp:77] Creating layer pool3/3x3_s2
I0403 16:43:41.737565 21388 net.cpp:91] Creating Layer pool3/3x3_s2
I0403 16:43:41.737581 21388 net.cpp:425] pool3/3x3_s2 <- inception_3b/output
I0403 16:43:41.737617 21388 net.cpp:399] pool3/3x3_s2 -> pool3/3x3_s2
I0403 16:43:41.737675 21388 net.cpp:141] Setting up pool3/3x3_s2
I0403 16:43:41.737700 21388 net.cpp:148] Top shape: 24 480 14 14 (2257920)
I0403 16:43:41.737715 21388 net.cpp:156] Memory required for data: 818271264
I0403 16:43:41.737730 21388 layer_factory.hpp:77] Creating layer pool3/3x3_s2_pool3/3x3_s2_0_split
I0403 16:43:41.737746 21388 net.cpp:91] Creating Layer pool3/3x3_s2_pool3/3x3_s2_0_split
I0403 16:43:41.737761 21388 net.cpp:425] pool3/3x3_s2_pool3/3x3_s2_0_split <- pool3/3x3_s2
I0403 16:43:41.737777 21388 net.cpp:399] pool3/3x3_s2_pool3/3x3_s2_0_split -> pool3/3x3_s2_pool3/3x3_s2_0_split_0
I0403 16:43:41.737797 21388 net.cpp:399] pool3/3x3_s2_pool3/3x3_s2_0_split -> pool3/3x3_s2_pool3/3x3_s2_0_split_1
I0403 16:43:41.737814 21388 net.cpp:399] pool3/3x3_s2_pool3/3x3_s2_0_split -> pool3/3x3_s2_pool3/3x3_s2_0_split_2
I0403 16:43:41.737835 21388 net.cpp:399] pool3/3x3_s2_pool3/3x3_s2_0_split -> pool3/3x3_s2_pool3/3x3_s2_0_split_3
I0403 16:43:41.737912 21388 net.cpp:141] Setting up pool3/3x3_s2_pool3/3x3_s2_0_split
I0403 16:43:41.737934 21388 net.cpp:148] Top shape: 24 480 14 14 (2257920)
I0403 16:43:41.737951 21388 net.cpp:148] Top shape: 24 480 14 14 (2257920)
I0403 16:43:41.737967 21388 net.cpp:148] Top shape: 24 480 14 14 (2257920)
I0403 16:43:41.737982 21388 net.cpp:148] Top shape: 24 480 14 14 (2257920)
I0403 16:43:41.737996 21388 net.cpp:156] Memory required for data: 854397984
I0403 16:43:41.738010 21388 layer_factory.hpp:77] Creating layer inception_4a/1x1
I0403 16:43:41.738059 21388 net.cpp:91] Creating Layer inception_4a/1x1
I0403 16:43:41.738077 21388 net.cpp:425] inception_4a/1x1 <- pool3/3x3_s2_pool3/3x3_s2_0_split_0
I0403 16:43:41.738100 21388 net.cpp:399] inception_4a/1x1 -> inception_4a/1x1
I0403 16:43:41.739702 21388 net.cpp:141] Setting up inception_4a/1x1
I0403 16:43:41.739730 21388 net.cpp:148] Top shape: 24 192 14 14 (903168)
I0403 16:43:41.739747 21388 net.cpp:156] Memory required for data: 858010656
I0403 16:43:41.739765 21388 layer_factory.hpp:77] Creating layer inception_4a/relu_1x1
I0403 16:43:41.739785 21388 net.cpp:91] Creating Layer inception_4a/relu_1x1
I0403 16:43:41.739801 21388 net.cpp:425] inception_4a/relu_1x1 <- inception_4a/1x1
I0403 16:43:41.739820 21388 net.cpp:386] inception_4a/relu_1x1 -> inception_4a/1x1 (in-place)
I0403 16:43:41.739996 21388 net.cpp:141] Setting up inception_4a/relu_1x1
I0403 16:43:41.740030 21388 net.cpp:148] Top shape: 24 192 14 14 (903168)
I0403 16:43:41.740046 21388 net.cpp:156] Memory required for data: 861623328
I0403 16:43:41.740061 21388 layer_factory.hpp:77] Creating layer inception_4a/3x3_reduce
I0403 16:43:41.740082 21388 net.cpp:91] Creating Layer inception_4a/3x3_reduce
I0403 16:43:41.740100 21388 net.cpp:425] inception_4a/3x3_reduce <- pool3/3x3_s2_pool3/3x3_s2_0_split_1
I0403 16:43:41.740118 21388 net.cpp:399] inception_4a/3x3_reduce -> inception_4a/3x3_reduce
I0403 16:43:41.741461 21388 net.cpp:141] Setting up inception_4a/3x3_reduce
I0403 16:43:41.741488 21388 net.cpp:148] Top shape: 24 96 14 14 (451584)
I0403 16:43:41.741504 21388 net.cpp:156] Memory required for data: 863429664
I0403 16:43:41.741530 21388 layer_factory.hpp:77] Creating layer inception_4a/relu_3x3_reduce
I0403 16:43:41.741550 21388 net.cpp:91] Creating Layer inception_4a/relu_3x3_reduce
I0403 16:43:41.741566 21388 net.cpp:425] inception_4a/relu_3x3_reduce <- inception_4a/3x3_reduce
I0403 16:43:41.741585 21388 net.cpp:386] inception_4a/relu_3x3_reduce -> inception_4a/3x3_reduce (in-place)
I0403 16:43:41.741770 21388 net.cpp:141] Setting up inception_4a/relu_3x3_reduce
I0403 16:43:41.741796 21388 net.cpp:148] Top shape: 24 96 14 14 (451584)
I0403 16:43:41.741811 21388 net.cpp:156] Memory required for data: 865236000
I0403 16:43:41.741827 21388 layer_factory.hpp:77] Creating layer inception_4a/3x3
I0403 16:43:41.741848 21388 net.cpp:91] Creating Layer inception_4a/3x3
I0403 16:43:41.741866 21388 net.cpp:425] inception_4a/3x3 <- inception_4a/3x3_reduce
I0403 16:43:41.741885 21388 net.cpp:399] inception_4a/3x3 -> inception_4a/3x3
I0403 16:43:41.744650 21388 net.cpp:141] Setting up inception_4a/3x3
I0403 16:43:41.744683 21388 net.cpp:148] Top shape: 24 208 14 14 (978432)
I0403 16:43:41.744699 21388 net.cpp:156] Memory required for data: 869149728
I0403 16:43:41.744719 21388 layer_factory.hpp:77] Creating layer inception_4a/relu_3x3
I0403 16:43:41.744736 21388 net.cpp:91] Creating Layer inception_4a/relu_3x3
I0403 16:43:41.744753 21388 net.cpp:425] inception_4a/relu_3x3 <- inception_4a/3x3
I0403 16:43:41.744773 21388 net.cpp:386] inception_4a/relu_3x3 -> inception_4a/3x3 (in-place)
I0403 16:43:41.745075 21388 net.cpp:141] Setting up inception_4a/relu_3x3
I0403 16:43:41.745107 21388 net.cpp:148] Top shape: 24 208 14 14 (978432)
I0403 16:43:41.745124 21388 net.cpp:156] Memory required for data: 873063456
I0403 16:43:41.745141 21388 layer_factory.hpp:77] Creating layer inception_4a/5x5_reduce
I0403 16:43:41.745164 21388 net.cpp:91] Creating Layer inception_4a/5x5_reduce
I0403 16:43:41.745183 21388 net.cpp:425] inception_4a/5x5_reduce <- pool3/3x3_s2_pool3/3x3_s2_0_split_2
I0403 16:43:41.745203 21388 net.cpp:399] inception_4a/5x5_reduce -> inception_4a/5x5_reduce
I0403 16:43:41.746261 21388 net.cpp:141] Setting up inception_4a/5x5_reduce
I0403 16:43:41.746292 21388 net.cpp:148] Top shape: 24 16 14 14 (75264)
I0403 16:43:41.746309 21388 net.cpp:156] Memory required for data: 873364512
I0403 16:43:41.746326 21388 layer_factory.hpp:77] Creating layer inception_4a/relu_5x5_reduce
I0403 16:43:41.746345 21388 net.cpp:91] Creating Layer inception_4a/relu_5x5_reduce
I0403 16:43:41.746361 21388 net.cpp:425] inception_4a/relu_5x5_reduce <- inception_4a/5x5_reduce
I0403 16:43:41.746381 21388 net.cpp:386] inception_4a/relu_5x5_reduce -> inception_4a/5x5_reduce (in-place)
I0403 16:43:41.746565 21388 net.cpp:141] Setting up inception_4a/relu_5x5_reduce
I0403 16:43:41.746592 21388 net.cpp:148] Top shape: 24 16 14 14 (75264)
I0403 16:43:41.746605 21388 net.cpp:156] Memory required for data: 873665568
I0403 16:43:41.746620 21388 layer_factory.hpp:77] Creating layer inception_4a/5x5
I0403 16:43:41.746642 21388 net.cpp:91] Creating Layer inception_4a/5x5
I0403 16:43:41.746659 21388 net.cpp:425] inception_4a/5x5 <- inception_4a/5x5_reduce
I0403 16:43:41.746680 21388 net.cpp:399] inception_4a/5x5 -> inception_4a/5x5
I0403 16:43:41.747797 21388 net.cpp:141] Setting up inception_4a/5x5
I0403 16:43:41.747827 21388 net.cpp:148] Top shape: 24 48 14 14 (225792)
I0403 16:43:41.747841 21388 net.cpp:156] Memory required for data: 874568736
I0403 16:43:41.747859 21388 layer_factory.hpp:77] Creating layer inception_4a/relu_5x5
I0403 16:43:41.747879 21388 net.cpp:91] Creating Layer inception_4a/relu_5x5
I0403 16:43:41.747896 21388 net.cpp:425] inception_4a/relu_5x5 <- inception_4a/5x5
I0403 16:43:41.747915 21388 net.cpp:386] inception_4a/relu_5x5 -> inception_4a/5x5 (in-place)
I0403 16:43:41.748109 21388 net.cpp:141] Setting up inception_4a/relu_5x5
I0403 16:43:41.748136 21388 net.cpp:148] Top shape: 24 48 14 14 (225792)
I0403 16:43:41.748149 21388 net.cpp:156] Memory required for data: 875471904
I0403 16:43:41.748164 21388 layer_factory.hpp:77] Creating layer inception_4a/pool
I0403 16:43:41.748184 21388 net.cpp:91] Creating Layer inception_4a/pool
I0403 16:43:41.748200 21388 net.cpp:425] inception_4a/pool <- pool3/3x3_s2_pool3/3x3_s2_0_split_3
I0403 16:43:41.748219 21388 net.cpp:399] inception_4a/pool -> inception_4a/pool
I0403 16:43:41.748281 21388 net.cpp:141] Setting up inception_4a/pool
I0403 16:43:41.748306 21388 net.cpp:148] Top shape: 24 480 14 14 (2257920)
I0403 16:43:41.748319 21388 net.cpp:156] Memory required for data: 884503584
I0403 16:43:41.748334 21388 layer_factory.hpp:77] Creating layer inception_4a/pool_proj
I0403 16:43:41.748358 21388 net.cpp:91] Creating Layer inception_4a/pool_proj
I0403 16:43:41.748376 21388 net.cpp:425] inception_4a/pool_proj <- inception_4a/pool
I0403 16:43:41.748397 21388 net.cpp:399] inception_4a/pool_proj -> inception_4a/pool_proj
I0403 16:43:41.749620 21388 net.cpp:141] Setting up inception_4a/pool_proj
I0403 16:43:41.749650 21388 net.cpp:148] Top shape: 24 64 14 14 (301056)
I0403 16:43:41.749680 21388 net.cpp:156] Memory required for data: 885707808
I0403 16:43:41.749699 21388 layer_factory.hpp:77] Creating layer inception_4a/relu_pool_proj
I0403 16:43:41.749722 21388 net.cpp:91] Creating Layer inception_4a/relu_pool_proj
I0403 16:43:41.749738 21388 net.cpp:425] inception_4a/relu_pool_proj <- inception_4a/pool_proj
I0403 16:43:41.749757 21388 net.cpp:386] inception_4a/relu_pool_proj -> inception_4a/pool_proj (in-place)
I0403 16:43:41.750049 21388 net.cpp:141] Setting up inception_4a/relu_pool_proj
I0403 16:43:41.750077 21388 net.cpp:148] Top shape: 24 64 14 14 (301056)
I0403 16:43:41.750090 21388 net.cpp:156] Memory required for data: 886912032
I0403 16:43:41.750105 21388 layer_factory.hpp:77] Creating layer inception_4a/output
I0403 16:43:41.750125 21388 net.cpp:91] Creating Layer inception_4a/output
I0403 16:43:41.750141 21388 net.cpp:425] inception_4a/output <- inception_4a/1x1
I0403 16:43:41.750159 21388 net.cpp:425] inception_4a/output <- inception_4a/3x3
I0403 16:43:41.750174 21388 net.cpp:425] inception_4a/output <- inception_4a/5x5
I0403 16:43:41.750190 21388 net.cpp:425] inception_4a/output <- inception_4a/pool_proj
I0403 16:43:41.750207 21388 net.cpp:399] inception_4a/output -> inception_4a/output
I0403 16:43:41.750255 21388 net.cpp:141] Setting up inception_4a/output
I0403 16:43:41.750279 21388 net.cpp:148] Top shape: 24 512 14 14 (2408448)
I0403 16:43:41.750293 21388 net.cpp:156] Memory required for data: 896545824
I0403 16:43:41.750308 21388 layer_factory.hpp:77] Creating layer inception_4a/output_inception_4a/output_0_split
I0403 16:43:41.750325 21388 net.cpp:91] Creating Layer inception_4a/output_inception_4a/output_0_split
I0403 16:43:41.750341 21388 net.cpp:425] inception_4a/output_inception_4a/output_0_split <- inception_4a/output
I0403 16:43:41.750362 21388 net.cpp:399] inception_4a/output_inception_4a/output_0_split -> inception_4a/output_inception_4a/output_0_split_0
I0403 16:43:41.750383 21388 net.cpp:399] inception_4a/output_inception_4a/output_0_split -> inception_4a/output_inception_4a/output_0_split_1
I0403 16:43:41.750404 21388 net.cpp:399] inception_4a/output_inception_4a/output_0_split -> inception_4a/output_inception_4a/output_0_split_2
I0403 16:43:41.750424 21388 net.cpp:399] inception_4a/output_inception_4a/output_0_split -> inception_4a/output_inception_4a/output_0_split_3
I0403 16:43:41.750444 21388 net.cpp:399] inception_4a/output_inception_4a/output_0_split -> inception_4a/output_inception_4a/output_0_split_4
I0403 16:43:41.750538 21388 net.cpp:141] Setting up inception_4a/output_inception_4a/output_0_split
I0403 16:43:41.750562 21388 net.cpp:148] Top shape: 24 512 14 14 (2408448)
I0403 16:43:41.750581 21388 net.cpp:148] Top shape: 24 512 14 14 (2408448)
I0403 16:43:41.750597 21388 net.cpp:148] Top shape: 24 512 14 14 (2408448)
I0403 16:43:41.750613 21388 net.cpp:148] Top shape: 24 512 14 14 (2408448)
I0403 16:43:41.750628 21388 net.cpp:148] Top shape: 24 512 14 14 (2408448)
I0403 16:43:41.750643 21388 net.cpp:156] Memory required for data: 944714784
I0403 16:43:41.750658 21388 layer_factory.hpp:77] Creating layer loss1/ave_pool
I0403 16:43:41.750674 21388 net.cpp:91] Creating Layer loss1/ave_pool
I0403 16:43:41.750690 21388 net.cpp:425] loss1/ave_pool <- inception_4a/output_inception_4a/output_0_split_0
I0403 16:43:41.750710 21388 net.cpp:399] loss1/ave_pool -> loss1/ave_pool
I0403 16:43:41.750924 21388 net.cpp:141] Setting up loss1/ave_pool
I0403 16:43:41.750951 21388 net.cpp:148] Top shape: 24 512 4 4 (196608)
I0403 16:43:41.750967 21388 net.cpp:156] Memory required for data: 945501216
I0403 16:43:41.750982 21388 layer_factory.hpp:77] Creating layer loss1/conv
I0403 16:43:41.751004 21388 net.cpp:91] Creating Layer loss1/conv
I0403 16:43:41.751025 21388 net.cpp:425] loss1/conv <- loss1/ave_pool
I0403 16:43:41.751049 21388 net.cpp:399] loss1/conv -> loss1/conv
I0403 16:43:41.752508 21388 net.cpp:141] Setting up loss1/conv
I0403 16:43:41.752540 21388 net.cpp:148] Top shape: 24 128 4 4 (49152)
I0403 16:43:41.752570 21388 net.cpp:156] Memory required for data: 945697824
I0403 16:43:41.752589 21388 layer_factory.hpp:77] Creating layer loss1/relu_conv
I0403 16:43:41.752609 21388 net.cpp:91] Creating Layer loss1/relu_conv
I0403 16:43:41.752624 21388 net.cpp:425] loss1/relu_conv <- loss1/conv
I0403 16:43:41.752645 21388 net.cpp:386] loss1/relu_conv -> loss1/conv (in-place)
I0403 16:43:41.752950 21388 net.cpp:141] Setting up loss1/relu_conv
I0403 16:43:41.752977 21388 net.cpp:148] Top shape: 24 128 4 4 (49152)
I0403 16:43:41.752995 21388 net.cpp:156] Memory required for data: 945894432
I0403 16:43:41.753010 21388 layer_factory.hpp:77] Creating layer loss1/fc
I0403 16:43:41.753051 21388 net.cpp:91] Creating Layer loss1/fc
I0403 16:43:41.753070 21388 net.cpp:425] loss1/fc <- loss1/conv
I0403 16:43:41.753092 21388 net.cpp:399] loss1/fc -> loss1/fc
I0403 16:43:41.770593 21388 net.cpp:141] Setting up loss1/fc
I0403 16:43:41.770627 21388 net.cpp:148] Top shape: 24 1024 (24576)
I0403 16:43:41.770642 21388 net.cpp:156] Memory required for data: 945992736
I0403 16:43:41.770660 21388 layer_factory.hpp:77] Creating layer loss1/relu_fc
I0403 16:43:41.770679 21388 net.cpp:91] Creating Layer loss1/relu_fc
I0403 16:43:41.770695 21388 net.cpp:425] loss1/relu_fc <- loss1/fc
I0403 16:43:41.770712 21388 net.cpp:386] loss1/relu_fc -> loss1/fc (in-place)
I0403 16:43:41.770889 21388 net.cpp:141] Setting up loss1/relu_fc
I0403 16:43:41.770915 21388 net.cpp:148] Top shape: 24 1024 (24576)
I0403 16:43:41.770930 21388 net.cpp:156] Memory required for data: 946091040
I0403 16:43:41.770944 21388 layer_factory.hpp:77] Creating layer loss1/drop_fc
I0403 16:43:41.770972 21388 net.cpp:91] Creating Layer loss1/drop_fc
I0403 16:43:41.770988 21388 net.cpp:425] loss1/drop_fc <- loss1/fc
I0403 16:43:41.771005 21388 net.cpp:386] loss1/drop_fc -> loss1/fc (in-place)
I0403 16:43:41.771059 21388 net.cpp:141] Setting up loss1/drop_fc
I0403 16:43:41.771081 21388 net.cpp:148] Top shape: 24 1024 (24576)
I0403 16:43:41.771095 21388 net.cpp:156] Memory required for data: 946189344
I0403 16:43:41.771109 21388 layer_factory.hpp:77] Creating layer loss1/classifier_plantvillage
I0403 16:43:41.771131 21388 net.cpp:91] Creating Layer loss1/classifier_plantvillage
I0403 16:43:41.771147 21388 net.cpp:425] loss1/classifier_plantvillage <- loss1/fc
I0403 16:43:41.771164 21388 net.cpp:399] loss1/classifier_plantvillage -> loss1/classifier_plantvillage
I0403 16:43:41.772034 21388 net.cpp:141] Setting up loss1/classifier_plantvillage
I0403 16:43:41.772061 21388 net.cpp:148] Top shape: 24 38 (912)
I0403 16:43:41.772076 21388 net.cpp:156] Memory required for data: 946192992
I0403 16:43:41.772094 21388 layer_factory.hpp:77] Creating layer loss1/classifier_plantvillage_loss1/classifier_plantvillage_0_split
I0403 16:43:41.772114 21388 net.cpp:91] Creating Layer loss1/classifier_plantvillage_loss1/classifier_plantvillage_0_split
I0403 16:43:41.772128 21388 net.cpp:425] loss1/classifier_plantvillage_loss1/classifier_plantvillage_0_split <- loss1/classifier_plantvillage
I0403 16:43:41.772145 21388 net.cpp:399] loss1/classifier_plantvillage_loss1/classifier_plantvillage_0_split -> loss1/classifier_plantvillage_loss1/classifier_plantvillage_0_split_0
I0403 16:43:41.772164 21388 net.cpp:399] loss1/classifier_plantvillage_loss1/classifier_plantvillage_0_split -> loss1/classifier_plantvillage_loss1/classifier_plantvillage_0_split_1
I0403 16:43:41.772187 21388 net.cpp:399] loss1/classifier_plantvillage_loss1/classifier_plantvillage_0_split -> loss1/classifier_plantvillage_loss1/classifier_plantvillage_0_split_2
I0403 16:43:41.772251 21388 net.cpp:141] Setting up loss1/classifier_plantvillage_loss1/classifier_plantvillage_0_split
I0403 16:43:41.772274 21388 net.cpp:148] Top shape: 24 38 (912)
I0403 16:43:41.772289 21388 net.cpp:148] Top shape: 24 38 (912)
I0403 16:43:41.772302 21388 net.cpp:148] Top shape: 24 38 (912)
I0403 16:43:41.772315 21388 net.cpp:156] Memory required for data: 946203936
I0403 16:43:41.772330 21388 layer_factory.hpp:77] Creating layer inception_4b/1x1
I0403 16:43:41.772351 21388 net.cpp:91] Creating Layer inception_4b/1x1
I0403 16:43:41.772383 21388 net.cpp:425] inception_4b/1x1 <- inception_4a/output_inception_4a/output_0_split_1
I0403 16:43:41.772403 21388 net.cpp:399] inception_4b/1x1 -> inception_4b/1x1
I0403 16:43:41.774029 21388 net.cpp:141] Setting up inception_4b/1x1
I0403 16:43:41.774057 21388 net.cpp:148] Top shape: 24 160 14 14 (752640)
I0403 16:43:41.774073 21388 net.cpp:156] Memory required for data: 949214496
I0403 16:43:41.774091 21388 layer_factory.hpp:77] Creating layer inception_4b/relu_1x1
I0403 16:43:41.774108 21388 net.cpp:91] Creating Layer inception_4b/relu_1x1
I0403 16:43:41.774122 21388 net.cpp:425] inception_4b/relu_1x1 <- inception_4b/1x1
I0403 16:43:41.774140 21388 net.cpp:386] inception_4b/relu_1x1 -> inception_4b/1x1 (in-place)
I0403 16:43:41.774314 21388 net.cpp:141] Setting up inception_4b/relu_1x1
I0403 16:43:41.774338 21388 net.cpp:148] Top shape: 24 160 14 14 (752640)
I0403 16:43:41.774353 21388 net.cpp:156] Memory required for data: 952225056
I0403 16:43:41.774366 21388 layer_factory.hpp:77] Creating layer inception_4b/3x3_reduce
I0403 16:43:41.774389 21388 net.cpp:91] Creating Layer inception_4b/3x3_reduce
I0403 16:43:41.774405 21388 net.cpp:425] inception_4b/3x3_reduce <- inception_4a/output_inception_4a/output_0_split_2
I0403 16:43:41.774426 21388 net.cpp:399] inception_4b/3x3_reduce -> inception_4b/3x3_reduce
I0403 16:43:41.775729 21388 net.cpp:141] Setting up inception_4b/3x3_reduce
I0403 16:43:41.775755 21388 net.cpp:148] Top shape: 24 112 14 14 (526848)
I0403 16:43:41.775770 21388 net.cpp:156] Memory required for data: 954332448
I0403 16:43:41.775787 21388 layer_factory.hpp:77] Creating layer inception_4b/relu_3x3_reduce
I0403 16:43:41.775804 21388 net.cpp:91] Creating Layer inception_4b/relu_3x3_reduce
I0403 16:43:41.775820 21388 net.cpp:425] inception_4b/relu_3x3_reduce <- inception_4b/3x3_reduce
I0403 16:43:41.775837 21388 net.cpp:386] inception_4b/relu_3x3_reduce -> inception_4b/3x3_reduce (in-place)
I0403 16:43:41.776135 21388 net.cpp:141] Setting up inception_4b/relu_3x3_reduce
I0403 16:43:41.776161 21388 net.cpp:148] Top shape: 24 112 14 14 (526848)
I0403 16:43:41.776176 21388 net.cpp:156] Memory required for data: 956439840
I0403 16:43:41.776191 21388 layer_factory.hpp:77] Creating layer inception_4b/3x3
I0403 16:43:41.776213 21388 net.cpp:91] Creating Layer inception_4b/3x3
I0403 16:43:41.776242 21388 net.cpp:425] inception_4b/3x3 <- inception_4b/3x3_reduce
I0403 16:43:41.776264 21388 net.cpp:399] inception_4b/3x3 -> inception_4b/3x3
I0403 16:43:41.779165 21388 net.cpp:141] Setting up inception_4b/3x3
I0403 16:43:41.779194 21388 net.cpp:148] Top shape: 24 224 14 14 (1053696)
I0403 16:43:41.779208 21388 net.cpp:156] Memory required for data: 960654624
I0403 16:43:41.779225 21388 layer_factory.hpp:77] Creating layer inception_4b/relu_3x3
I0403 16:43:41.779245 21388 net.cpp:91] Creating Layer inception_4b/relu_3x3
I0403 16:43:41.779261 21388 net.cpp:425] inception_4b/relu_3x3 <- inception_4b/3x3
I0403 16:43:41.779278 21388 net.cpp:386] inception_4b/relu_3x3 -> inception_4b/3x3 (in-place)
I0403 16:43:41.779450 21388 net.cpp:141] Setting up inception_4b/relu_3x3
I0403 16:43:41.779476 21388 net.cpp:148] Top shape: 24 224 14 14 (1053696)
I0403 16:43:41.779490 21388 net.cpp:156] Memory required for data: 964869408
I0403 16:43:41.779505 21388 layer_factory.hpp:77] Creating layer inception_4b/5x5_reduce
I0403 16:43:41.779527 21388 net.cpp:91] Creating Layer inception_4b/5x5_reduce
I0403 16:43:41.779544 21388 net.cpp:425] inception_4b/5x5_reduce <- inception_4a/output_inception_4a/output_0_split_3
I0403 16:43:41.779567 21388 net.cpp:399] inception_4b/5x5_reduce -> inception_4b/5x5_reduce
I0403 16:43:41.780643 21388 net.cpp:141] Setting up inception_4b/5x5_reduce
I0403 16:43:41.780669 21388 net.cpp:148] Top shape: 24 24 14 14 (112896)
I0403 16:43:41.780684 21388 net.cpp:156] Memory required for data: 965320992
I0403 16:43:41.780701 21388 layer_factory.hpp:77] Creating layer inception_4b/relu_5x5_reduce
I0403 16:43:41.780719 21388 net.cpp:91] Creating Layer inception_4b/relu_5x5_reduce
I0403 16:43:41.780747 21388 net.cpp:425] inception_4b/relu_5x5_reduce <- inception_4b/5x5_reduce
I0403 16:43:41.780768 21388 net.cpp:386] inception_4b/relu_5x5_reduce -> inception_4b/5x5_reduce (in-place)
I0403 16:43:41.780944 21388 net.cpp:141] Setting up inception_4b/relu_5x5_reduce
I0403 16:43:41.780968 21388 net.cpp:148] Top shape: 24 24 14 14 (112896)
I0403 16:43:41.780982 21388 net.cpp:156] Memory required for data: 965772576
I0403 16:43:41.780997 21388 layer_factory.hpp:77] Creating layer inception_4b/5x5
I0403 16:43:41.781023 21388 net.cpp:91] Creating Layer inception_4b/5x5
I0403 16:43:41.781052 21388 net.cpp:425] inception_4b/5x5 <- inception_4b/5x5_reduce
I0403 16:43:41.781074 21388 net.cpp:399] inception_4b/5x5 -> inception_4b/5x5
I0403 16:43:41.782289 21388 net.cpp:141] Setting up inception_4b/5x5
I0403 16:43:41.782317 21388 net.cpp:148] Top shape: 24 64 14 14 (301056)
I0403 16:43:41.782332 21388 net.cpp:156] Memory required for data: 966976800
I0403 16:43:41.782351 21388 layer_factory.hpp:77] Creating layer inception_4b/relu_5x5
I0403 16:43:41.782367 21388 net.cpp:91] Creating Layer inception_4b/relu_5x5
I0403 16:43:41.782382 21388 net.cpp:425] inception_4b/relu_5x5 <- inception_4b/5x5
I0403 16:43:41.782402 21388 net.cpp:386] inception_4b/relu_5x5 -> inception_4b/5x5 (in-place)
I0403 16:43:41.782680 21388 net.cpp:141] Setting up inception_4b/relu_5x5
I0403 16:43:41.782706 21388 net.cpp:148] Top shape: 24 64 14 14 (301056)
I0403 16:43:41.782721 21388 net.cpp:156] Memory required for data: 968181024
I0403 16:43:41.782735 21388 layer_factory.hpp:77] Creating layer inception_4b/pool
I0403 16:43:41.782752 21388 net.cpp:91] Creating Layer inception_4b/pool
I0403 16:43:41.782768 21388 net.cpp:425] inception_4b/pool <- inception_4a/output_inception_4a/output_0_split_4
I0403 16:43:41.782788 21388 net.cpp:399] inception_4b/pool -> inception_4b/pool
I0403 16:43:41.782848 21388 net.cpp:141] Setting up inception_4b/pool
I0403 16:43:41.782871 21388 net.cpp:148] Top shape: 24 512 14 14 (2408448)
I0403 16:43:41.782886 21388 net.cpp:156] Memory required for data: 977814816
I0403 16:43:41.782899 21388 layer_factory.hpp:77] Creating layer inception_4b/pool_proj
I0403 16:43:41.782922 21388 net.cpp:91] Creating Layer inception_4b/pool_proj
I0403 16:43:41.782938 21388 net.cpp:425] inception_4b/pool_proj <- inception_4b/pool
I0403 16:43:41.782958 21388 net.cpp:399] inception_4b/pool_proj -> inception_4b/pool_proj
I0403 16:43:41.784164 21388 net.cpp:141] Setting up inception_4b/pool_proj
I0403 16:43:41.784194 21388 net.cpp:148] Top shape: 24 64 14 14 (301056)
I0403 16:43:41.784210 21388 net.cpp:156] Memory required for data: 979019040
I0403 16:43:41.784229 21388 layer_factory.hpp:77] Creating layer inception_4b/relu_pool_proj
I0403 16:43:41.784245 21388 net.cpp:91] Creating Layer inception_4b/relu_pool_proj
I0403 16:43:41.784260 21388 net.cpp:425] inception_4b/relu_pool_proj <- inception_4b/pool_proj
I0403 16:43:41.784279 21388 net.cpp:386] inception_4b/relu_pool_proj -> inception_4b/pool_proj (in-place)
I0403 16:43:41.784451 21388 net.cpp:141] Setting up inception_4b/relu_pool_proj
I0403 16:43:41.784476 21388 net.cpp:148] Top shape: 24 64 14 14 (301056)
I0403 16:43:41.784490 21388 net.cpp:156] Memory required for data: 980223264
I0403 16:43:41.784503 21388 layer_factory.hpp:77] Creating layer inception_4b/output
I0403 16:43:41.784521 21388 net.cpp:91] Creating Layer inception_4b/output
I0403 16:43:41.784535 21388 net.cpp:425] inception_4b/output <- inception_4b/1x1
I0403 16:43:41.784551 21388 net.cpp:425] inception_4b/output <- inception_4b/3x3
I0403 16:43:41.784567 21388 net.cpp:425] inception_4b/output <- inception_4b/5x5
I0403 16:43:41.784582 21388 net.cpp:425] inception_4b/output <- inception_4b/pool_proj
I0403 16:43:41.784600 21388 net.cpp:399] inception_4b/output -> inception_4b/output
I0403 16:43:41.784647 21388 net.cpp:141] Setting up inception_4b/output
I0403 16:43:41.784670 21388 net.cpp:148] Top shape: 24 512 14 14 (2408448)
I0403 16:43:41.784683 21388 net.cpp:156] Memory required for data: 989857056
I0403 16:43:41.784711 21388 layer_factory.hpp:77] Creating layer inception_4b/output_inception_4b/output_0_split
I0403 16:43:41.784729 21388 net.cpp:91] Creating Layer inception_4b/output_inception_4b/output_0_split
I0403 16:43:41.784745 21388 net.cpp:425] inception_4b/output_inception_4b/output_0_split <- inception_4b/output
I0403 16:43:41.784765 21388 net.cpp:399] inception_4b/output_inception_4b/output_0_split -> inception_4b/output_inception_4b/output_0_split_0
I0403 16:43:41.784785 21388 net.cpp:399] inception_4b/output_inception_4b/output_0_split -> inception_4b/output_inception_4b/output_0_split_1
I0403 16:43:41.784804 21388 net.cpp:399] inception_4b/output_inception_4b/output_0_split -> inception_4b/output_inception_4b/output_0_split_2
I0403 16:43:41.784823 21388 net.cpp:399] inception_4b/output_inception_4b/output_0_split -> inception_4b/output_inception_4b/output_0_split_3
I0403 16:43:41.784905 21388 net.cpp:141] Setting up inception_4b/output_inception_4b/output_0_split
I0403 16:43:41.784929 21388 net.cpp:148] Top shape: 24 512 14 14 (2408448)
I0403 16:43:41.784945 21388 net.cpp:148] Top shape: 24 512 14 14 (2408448)
I0403 16:43:41.784960 21388 net.cpp:148] Top shape: 24 512 14 14 (2408448)
I0403 16:43:41.784975 21388 net.cpp:148] Top shape: 24 512 14 14 (2408448)
I0403 16:43:41.784988 21388 net.cpp:156] Memory required for data: 1028392224
I0403 16:43:41.785002 21388 layer_factory.hpp:77] Creating layer inception_4c/1x1
I0403 16:43:41.785042 21388 net.cpp:91] Creating Layer inception_4c/1x1
I0403 16:43:41.785061 21388 net.cpp:425] inception_4c/1x1 <- inception_4b/output_inception_4b/output_0_split_0
I0403 16:43:41.785080 21388 net.cpp:399] inception_4c/1x1 -> inception_4c/1x1
I0403 16:43:41.786531 21388 net.cpp:141] Setting up inception_4c/1x1
I0403 16:43:41.786559 21388 net.cpp:148] Top shape: 24 128 14 14 (602112)
I0403 16:43:41.786574 21388 net.cpp:156] Memory required for data: 1030800672
I0403 16:43:41.786593 21388 layer_factory.hpp:77] Creating layer inception_4c/relu_1x1
I0403 16:43:41.786614 21388 net.cpp:91] Creating Layer inception_4c/relu_1x1
I0403 16:43:41.786630 21388 net.cpp:425] inception_4c/relu_1x1 <- inception_4c/1x1
I0403 16:43:41.786648 21388 net.cpp:386] inception_4c/relu_1x1 -> inception_4c/1x1 (in-place)
I0403 16:43:41.786828 21388 net.cpp:141] Setting up inception_4c/relu_1x1
I0403 16:43:41.786854 21388 net.cpp:148] Top shape: 24 128 14 14 (602112)
I0403 16:43:41.786870 21388 net.cpp:156] Memory required for data: 1033209120
I0403 16:43:41.786885 21388 layer_factory.hpp:77] Creating layer inception_4c/3x3_reduce
I0403 16:43:41.786906 21388 net.cpp:91] Creating Layer inception_4c/3x3_reduce
I0403 16:43:41.786923 21388 net.cpp:425] inception_4c/3x3_reduce <- inception_4b/output_inception_4b/output_0_split_1
I0403 16:43:41.786942 21388 net.cpp:399] inception_4c/3x3_reduce -> inception_4c/3x3_reduce
I0403 16:43:41.788895 21388 net.cpp:141] Setting up inception_4c/3x3_reduce
I0403 16:43:41.788928 21388 net.cpp:148] Top shape: 24 128 14 14 (602112)
I0403 16:43:41.788944 21388 net.cpp:156] Memory required for data: 1035617568
I0403 16:43:41.788961 21388 layer_factory.hpp:77] Creating layer inception_4c/relu_3x3_reduce
I0403 16:43:41.788980 21388 net.cpp:91] Creating Layer inception_4c/relu_3x3_reduce
I0403 16:43:41.788995 21388 net.cpp:425] inception_4c/relu_3x3_reduce <- inception_4c/3x3_reduce
I0403 16:43:41.789016 21388 net.cpp:386] inception_4c/relu_3x3_reduce -> inception_4c/3x3_reduce (in-place)
I0403 16:43:41.789305 21388 net.cpp:141] Setting up inception_4c/relu_3x3_reduce
I0403 16:43:41.789333 21388 net.cpp:148] Top shape: 24 128 14 14 (602112)
I0403 16:43:41.789348 21388 net.cpp:156] Memory required for data: 1038026016
I0403 16:43:41.789363 21388 layer_factory.hpp:77] Creating layer inception_4c/3x3
I0403 16:43:41.789387 21388 net.cpp:91] Creating Layer inception_4c/3x3
I0403 16:43:41.789407 21388 net.cpp:425] inception_4c/3x3 <- inception_4c/3x3_reduce
I0403 16:43:41.789424 21388 net.cpp:399] inception_4c/3x3 -> inception_4c/3x3
I0403 16:43:41.793035 21388 net.cpp:141] Setting up inception_4c/3x3
I0403 16:43:41.793079 21388 net.cpp:148] Top shape: 24 256 14 14 (1204224)
I0403 16:43:41.793097 21388 net.cpp:156] Memory required for data: 1042842912
I0403 16:43:41.793131 21388 layer_factory.hpp:77] Creating layer inception_4c/relu_3x3
I0403 16:43:41.793153 21388 net.cpp:91] Creating Layer inception_4c/relu_3x3
I0403 16:43:41.793169 21388 net.cpp:425] inception_4c/relu_3x3 <- inception_4c/3x3
I0403 16:43:41.793187 21388 net.cpp:386] inception_4c/relu_3x3 -> inception_4c/3x3 (in-place)
I0403 16:43:41.793368 21388 net.cpp:141] Setting up inception_4c/relu_3x3
I0403 16:43:41.793393 21388 net.cpp:148] Top shape: 24 256 14 14 (1204224)
I0403 16:43:41.793408 21388 net.cpp:156] Memory required for data: 1047659808
I0403 16:43:41.793422 21388 layer_factory.hpp:77] Creating layer inception_4c/5x5_reduce
I0403 16:43:41.793444 21388 net.cpp:91] Creating Layer inception_4c/5x5_reduce
I0403 16:43:41.793462 21388 net.cpp:425] inception_4c/5x5_reduce <- inception_4b/output_inception_4b/output_0_split_2
I0403 16:43:41.793484 21388 net.cpp:399] inception_4c/5x5_reduce -> inception_4c/5x5_reduce
I0403 16:43:41.794572 21388 net.cpp:141] Setting up inception_4c/5x5_reduce
I0403 16:43:41.794600 21388 net.cpp:148] Top shape: 24 24 14 14 (112896)
I0403 16:43:41.794615 21388 net.cpp:156] Memory required for data: 1048111392
I0403 16:43:41.794633 21388 layer_factory.hpp:77] Creating layer inception_4c/relu_5x5_reduce
I0403 16:43:41.794651 21388 net.cpp:91] Creating Layer inception_4c/relu_5x5_reduce
I0403 16:43:41.794667 21388 net.cpp:425] inception_4c/relu_5x5_reduce <- inception_4c/5x5_reduce
I0403 16:43:41.794685 21388 net.cpp:386] inception_4c/relu_5x5_reduce -> inception_4c/5x5_reduce (in-place)
I0403 16:43:41.794870 21388 net.cpp:141] Setting up inception_4c/relu_5x5_reduce
I0403 16:43:41.794895 21388 net.cpp:148] Top shape: 24 24 14 14 (112896)
I0403 16:43:41.794909 21388 net.cpp:156] Memory required for data: 1048562976
I0403 16:43:41.794924 21388 layer_factory.hpp:77] Creating layer inception_4c/5x5
I0403 16:43:41.794946 21388 net.cpp:91] Creating Layer inception_4c/5x5
I0403 16:43:41.794963 21388 net.cpp:425] inception_4c/5x5 <- inception_4c/5x5_reduce
I0403 16:43:41.794983 21388 net.cpp:399] inception_4c/5x5 -> inception_4c/5x5
I0403 16:43:41.796226 21388 net.cpp:141] Setting up inception_4c/5x5
I0403 16:43:41.796254 21388 net.cpp:148] Top shape: 24 64 14 14 (301056)
I0403 16:43:41.796268 21388 net.cpp:156] Memory required for data: 1049767200
I0403 16:43:41.796286 21388 layer_factory.hpp:77] Creating layer inception_4c/relu_5x5
I0403 16:43:41.796306 21388 net.cpp:91] Creating Layer inception_4c/relu_5x5
I0403 16:43:41.796324 21388 net.cpp:425] inception_4c/relu_5x5 <- inception_4c/5x5
I0403 16:43:41.796340 21388 net.cpp:386] inception_4c/relu_5x5 -> inception_4c/5x5 (in-place)
I0403 16:43:41.796625 21388 net.cpp:141] Setting up inception_4c/relu_5x5
I0403 16:43:41.796651 21388 net.cpp:148] Top shape: 24 64 14 14 (301056)
I0403 16:43:41.796666 21388 net.cpp:156] Memory required for data: 1050971424
I0403 16:43:41.796680 21388 layer_factory.hpp:77] Creating layer inception_4c/pool
I0403 16:43:41.796697 21388 net.cpp:91] Creating Layer inception_4c/pool
I0403 16:43:41.796713 21388 net.cpp:425] inception_4c/pool <- inception_4b/output_inception_4b/output_0_split_3
I0403 16:43:41.796733 21388 net.cpp:399] inception_4c/pool -> inception_4c/pool
I0403 16:43:41.796800 21388 net.cpp:141] Setting up inception_4c/pool
I0403 16:43:41.796828 21388 net.cpp:148] Top shape: 24 512 14 14 (2408448)
I0403 16:43:41.796843 21388 net.cpp:156] Memory required for data: 1060605216
I0403 16:43:41.796856 21388 layer_factory.hpp:77] Creating layer inception_4c/pool_proj
I0403 16:43:41.796879 21388 net.cpp:91] Creating Layer inception_4c/pool_proj
I0403 16:43:41.796895 21388 net.cpp:425] inception_4c/pool_proj <- inception_4c/pool
I0403 16:43:41.796916 21388 net.cpp:399] inception_4c/pool_proj -> inception_4c/pool_proj
I0403 16:43:41.798187 21388 net.cpp:141] Setting up inception_4c/pool_proj
I0403 16:43:41.798218 21388 net.cpp:148] Top shape: 24 64 14 14 (301056)
I0403 16:43:41.798249 21388 net.cpp:156] Memory required for data: 1061809440
I0403 16:43:41.798269 21388 layer_factory.hpp:77] Creating layer inception_4c/relu_pool_proj
I0403 16:43:41.798288 21388 net.cpp:91] Creating Layer inception_4c/relu_pool_proj
I0403 16:43:41.798305 21388 net.cpp:425] inception_4c/relu_pool_proj <- inception_4c/pool_proj
I0403 16:43:41.798324 21388 net.cpp:386] inception_4c/relu_pool_proj -> inception_4c/pool_proj (in-place)
I0403 16:43:41.798512 21388 net.cpp:141] Setting up inception_4c/relu_pool_proj
I0403 16:43:41.798538 21388 net.cpp:148] Top shape: 24 64 14 14 (301056)
I0403 16:43:41.798553 21388 net.cpp:156] Memory required for data: 1063013664
I0403 16:43:41.798568 21388 layer_factory.hpp:77] Creating layer inception_4c/output
I0403 16:43:41.798585 21388 net.cpp:91] Creating Layer inception_4c/output
I0403 16:43:41.798600 21388 net.cpp:425] inception_4c/output <- inception_4c/1x1
I0403 16:43:41.798617 21388 net.cpp:425] inception_4c/output <- inception_4c/3x3
I0403 16:43:41.798635 21388 net.cpp:425] inception_4c/output <- inception_4c/5x5
I0403 16:43:41.798650 21388 net.cpp:425] inception_4c/output <- inception_4c/pool_proj
I0403 16:43:41.798669 21388 net.cpp:399] inception_4c/output -> inception_4c/output
I0403 16:43:41.798719 21388 net.cpp:141] Setting up inception_4c/output
I0403 16:43:41.798743 21388 net.cpp:148] Top shape: 24 512 14 14 (2408448)
I0403 16:43:41.798758 21388 net.cpp:156] Memory required for data: 1072647456
I0403 16:43:41.798773 21388 layer_factory.hpp:77] Creating layer inception_4c/output_inception_4c/output_0_split
I0403 16:43:41.798789 21388 net.cpp:91] Creating Layer inception_4c/output_inception_4c/output_0_split
I0403 16:43:41.798805 21388 net.cpp:425] inception_4c/output_inception_4c/output_0_split <- inception_4c/output
I0403 16:43:41.798825 21388 net.cpp:399] inception_4c/output_inception_4c/output_0_split -> inception_4c/output_inception_4c/output_0_split_0
I0403 16:43:41.798847 21388 net.cpp:399] inception_4c/output_inception_4c/output_0_split -> inception_4c/output_inception_4c/output_0_split_1
I0403 16:43:41.798868 21388 net.cpp:399] inception_4c/output_inception_4c/output_0_split -> inception_4c/output_inception_4c/output_0_split_2
I0403 16:43:41.798888 21388 net.cpp:399] inception_4c/output_inception_4c/output_0_split -> inception_4c/output_inception_4c/output_0_split_3
I0403 16:43:41.798979 21388 net.cpp:141] Setting up inception_4c/output_inception_4c/output_0_split
I0403 16:43:41.799002 21388 net.cpp:148] Top shape: 24 512 14 14 (2408448)
I0403 16:43:41.799023 21388 net.cpp:148] Top shape: 24 512 14 14 (2408448)
I0403 16:43:41.799041 21388 net.cpp:148] Top shape: 24 512 14 14 (2408448)
I0403 16:43:41.799055 21388 net.cpp:148] Top shape: 24 512 14 14 (2408448)
I0403 16:43:41.799069 21388 net.cpp:156] Memory required for data: 1111182624
I0403 16:43:41.799084 21388 layer_factory.hpp:77] Creating layer inception_4d/1x1
I0403 16:43:41.799108 21388 net.cpp:91] Creating Layer inception_4d/1x1
I0403 16:43:41.799125 21388 net.cpp:425] inception_4d/1x1 <- inception_4c/output_inception_4c/output_0_split_0
I0403 16:43:41.799144 21388 net.cpp:399] inception_4d/1x1 -> inception_4d/1x1
I0403 16:43:41.800570 21388 net.cpp:141] Setting up inception_4d/1x1
I0403 16:43:41.800597 21388 net.cpp:148] Top shape: 24 112 14 14 (526848)
I0403 16:43:41.800613 21388 net.cpp:156] Memory required for data: 1113290016
I0403 16:43:41.800631 21388 layer_factory.hpp:77] Creating layer inception_4d/relu_1x1
I0403 16:43:41.800652 21388 net.cpp:91] Creating Layer inception_4d/relu_1x1
I0403 16:43:41.800669 21388 net.cpp:425] inception_4d/relu_1x1 <- inception_4d/1x1
I0403 16:43:41.800688 21388 net.cpp:386] inception_4d/relu_1x1 -> inception_4d/1x1 (in-place)
I0403 16:43:41.800876 21388 net.cpp:141] Setting up inception_4d/relu_1x1
I0403 16:43:41.800901 21388 net.cpp:148] Top shape: 24 112 14 14 (526848)
I0403 16:43:41.800916 21388 net.cpp:156] Memory required for data: 1115397408
I0403 16:43:41.800931 21388 layer_factory.hpp:77] Creating layer inception_4d/3x3_reduce
I0403 16:43:41.800969 21388 net.cpp:91] Creating Layer inception_4d/3x3_reduce
I0403 16:43:41.800987 21388 net.cpp:425] inception_4d/3x3_reduce <- inception_4c/output_inception_4c/output_0_split_1
I0403 16:43:41.801009 21388 net.cpp:399] inception_4d/3x3_reduce -> inception_4d/3x3_reduce
I0403 16:43:41.802572 21388 net.cpp:141] Setting up inception_4d/3x3_reduce
I0403 16:43:41.802600 21388 net.cpp:148] Top shape: 24 144 14 14 (677376)
I0403 16:43:41.802615 21388 net.cpp:156] Memory required for data: 1118106912
I0403 16:43:41.802634 21388 layer_factory.hpp:77] Creating layer inception_4d/relu_3x3_reduce
I0403 16:43:41.802655 21388 net.cpp:91] Creating Layer inception_4d/relu_3x3_reduce
I0403 16:43:41.802672 21388 net.cpp:425] inception_4d/relu_3x3_reduce <- inception_4d/3x3_reduce
I0403 16:43:41.802690 21388 net.cpp:386] inception_4d/relu_3x3_reduce -> inception_4d/3x3_reduce (in-place)
I0403 16:43:41.802988 21388 net.cpp:141] Setting up inception_4d/relu_3x3_reduce
I0403 16:43:41.803014 21388 net.cpp:148] Top shape: 24 144 14 14 (677376)
I0403 16:43:41.803035 21388 net.cpp:156] Memory required for data: 1120816416
I0403 16:43:41.803062 21388 layer_factory.hpp:77] Creating layer inception_4d/3x3
I0403 16:43:41.803084 21388 net.cpp:91] Creating Layer inception_4d/3x3
I0403 16:43:41.803102 21388 net.cpp:425] inception_4d/3x3 <- inception_4d/3x3_reduce
I0403 16:43:41.803123 21388 net.cpp:399] inception_4d/3x3 -> inception_4d/3x3
I0403 16:43:41.807448 21388 net.cpp:141] Setting up inception_4d/3x3
I0403 16:43:41.807482 21388 net.cpp:148] Top shape: 24 288 14 14 (1354752)
I0403 16:43:41.807497 21388 net.cpp:156] Memory required for data: 1126235424
I0403 16:43:41.807515 21388 layer_factory.hpp:77] Creating layer inception_4d/relu_3x3
I0403 16:43:41.807533 21388 net.cpp:91] Creating Layer inception_4d/relu_3x3
I0403 16:43:41.807549 21388 net.cpp:425] inception_4d/relu_3x3 <- inception_4d/3x3
I0403 16:43:41.807566 21388 net.cpp:386] inception_4d/relu_3x3 -> inception_4d/3x3 (in-place)
I0403 16:43:41.807750 21388 net.cpp:141] Setting up inception_4d/relu_3x3
I0403 16:43:41.807776 21388 net.cpp:148] Top shape: 24 288 14 14 (1354752)
I0403 16:43:41.807790 21388 net.cpp:156] Memory required for data: 1131654432
I0403 16:43:41.807806 21388 layer_factory.hpp:77] Creating layer inception_4d/5x5_reduce
I0403 16:43:41.807826 21388 net.cpp:91] Creating Layer inception_4d/5x5_reduce
I0403 16:43:41.807844 21388 net.cpp:425] inception_4d/5x5_reduce <- inception_4c/output_inception_4c/output_0_split_2
I0403 16:43:41.807868 21388 net.cpp:399] inception_4d/5x5_reduce -> inception_4d/5x5_reduce
I0403 16:43:41.809057 21388 net.cpp:141] Setting up inception_4d/5x5_reduce
I0403 16:43:41.809087 21388 net.cpp:148] Top shape: 24 32 14 14 (150528)
I0403 16:43:41.809101 21388 net.cpp:156] Memory required for data: 1132256544
I0403 16:43:41.809119 21388 layer_factory.hpp:77] Creating layer inception_4d/relu_5x5_reduce
I0403 16:43:41.809139 21388 net.cpp:91] Creating Layer inception_4d/relu_5x5_reduce
I0403 16:43:41.809156 21388 net.cpp:425] inception_4d/relu_5x5_reduce <- inception_4d/5x5_reduce
I0403 16:43:41.809173 21388 net.cpp:386] inception_4d/relu_5x5_reduce -> inception_4d/5x5_reduce (in-place)
I0403 16:43:41.809362 21388 net.cpp:141] Setting up inception_4d/relu_5x5_reduce
I0403 16:43:41.809386 21388 net.cpp:148] Top shape: 24 32 14 14 (150528)
I0403 16:43:41.809401 21388 net.cpp:156] Memory required for data: 1132858656
I0403 16:43:41.809415 21388 layer_factory.hpp:77] Creating layer inception_4d/5x5
I0403 16:43:41.809437 21388 net.cpp:91] Creating Layer inception_4d/5x5
I0403 16:43:41.809455 21388 net.cpp:425] inception_4d/5x5 <- inception_4d/5x5_reduce
I0403 16:43:41.809478 21388 net.cpp:399] inception_4d/5x5 -> inception_4d/5x5
I0403 16:43:41.810951 21388 net.cpp:141] Setting up inception_4d/5x5
I0403 16:43:41.810979 21388 net.cpp:148] Top shape: 24 64 14 14 (301056)
I0403 16:43:41.810993 21388 net.cpp:156] Memory required for data: 1134062880
I0403 16:43:41.811012 21388 layer_factory.hpp:77] Creating layer inception_4d/relu_5x5
I0403 16:43:41.811050 21388 net.cpp:91] Creating Layer inception_4d/relu_5x5
I0403 16:43:41.811067 21388 net.cpp:425] inception_4d/relu_5x5 <- inception_4d/5x5
I0403 16:43:41.811087 21388 net.cpp:386] inception_4d/relu_5x5 -> inception_4d/5x5 (in-place)
I0403 16:43:41.811386 21388 net.cpp:141] Setting up inception_4d/relu_5x5
I0403 16:43:41.811413 21388 net.cpp:148] Top shape: 24 64 14 14 (301056)
I0403 16:43:41.811427 21388 net.cpp:156] Memory required for data: 1135267104
I0403 16:43:41.811442 21388 layer_factory.hpp:77] Creating layer inception_4d/pool
I0403 16:43:41.811460 21388 net.cpp:91] Creating Layer inception_4d/pool
I0403 16:43:41.811475 21388 net.cpp:425] inception_4d/pool <- inception_4c/output_inception_4c/output_0_split_3
I0403 16:43:41.811496 21388 net.cpp:399] inception_4d/pool -> inception_4d/pool
I0403 16:43:41.811564 21388 net.cpp:141] Setting up inception_4d/pool
I0403 16:43:41.811588 21388 net.cpp:148] Top shape: 24 512 14 14 (2408448)
I0403 16:43:41.811601 21388 net.cpp:156] Memory required for data: 1144900896
I0403 16:43:41.811616 21388 layer_factory.hpp:77] Creating layer inception_4d/pool_proj
I0403 16:43:41.811640 21388 net.cpp:91] Creating Layer inception_4d/pool_proj
I0403 16:43:41.811656 21388 net.cpp:425] inception_4d/pool_proj <- inception_4d/pool
I0403 16:43:41.811676 21388 net.cpp:399] inception_4d/pool_proj -> inception_4d/pool_proj
I0403 16:43:41.813490 21388 net.cpp:141] Setting up inception_4d/pool_proj
I0403 16:43:41.813522 21388 net.cpp:148] Top shape: 24 64 14 14 (301056)
I0403 16:43:41.813539 21388 net.cpp:156] Memory required for data: 1146105120
I0403 16:43:41.813557 21388 layer_factory.hpp:77] Creating layer inception_4d/relu_pool_proj
I0403 16:43:41.813575 21388 net.cpp:91] Creating Layer inception_4d/relu_pool_proj
I0403 16:43:41.813591 21388 net.cpp:425] inception_4d/relu_pool_proj <- inception_4d/pool_proj
I0403 16:43:41.813608 21388 net.cpp:386] inception_4d/relu_pool_proj -> inception_4d/pool_proj (in-place)
I0403 16:43:41.813797 21388 net.cpp:141] Setting up inception_4d/relu_pool_proj
I0403 16:43:41.813822 21388 net.cpp:148] Top shape: 24 64 14 14 (301056)
I0403 16:43:41.813837 21388 net.cpp:156] Memory required for data: 1147309344
I0403 16:43:41.813851 21388 layer_factory.hpp:77] Creating layer inception_4d/output
I0403 16:43:41.813868 21388 net.cpp:91] Creating Layer inception_4d/output
I0403 16:43:41.813884 21388 net.cpp:425] inception_4d/output <- inception_4d/1x1
I0403 16:43:41.813899 21388 net.cpp:425] inception_4d/output <- inception_4d/3x3
I0403 16:43:41.813915 21388 net.cpp:425] inception_4d/output <- inception_4d/5x5
I0403 16:43:41.813930 21388 net.cpp:425] inception_4d/output <- inception_4d/pool_proj
I0403 16:43:41.813951 21388 net.cpp:399] inception_4d/output -> inception_4d/output
I0403 16:43:41.813998 21388 net.cpp:141] Setting up inception_4d/output
I0403 16:43:41.814024 21388 net.cpp:148] Top shape: 24 528 14 14 (2483712)
I0403 16:43:41.814040 21388 net.cpp:156] Memory required for data: 1157244192
I0403 16:43:41.814054 21388 layer_factory.hpp:77] Creating layer inception_4d/output_inception_4d/output_0_split
I0403 16:43:41.814074 21388 net.cpp:91] Creating Layer inception_4d/output_inception_4d/output_0_split
I0403 16:43:41.814088 21388 net.cpp:425] inception_4d/output_inception_4d/output_0_split <- inception_4d/output
I0403 16:43:41.814110 21388 net.cpp:399] inception_4d/output_inception_4d/output_0_split -> inception_4d/output_inception_4d/output_0_split_0
I0403 16:43:41.814131 21388 net.cpp:399] inception_4d/output_inception_4d/output_0_split -> inception_4d/output_inception_4d/output_0_split_1
I0403 16:43:41.814151 21388 net.cpp:399] inception_4d/output_inception_4d/output_0_split -> inception_4d/output_inception_4d/output_0_split_2
I0403 16:43:41.814169 21388 net.cpp:399] inception_4d/output_inception_4d/output_0_split -> inception_4d/output_inception_4d/output_0_split_3
I0403 16:43:41.814188 21388 net.cpp:399] inception_4d/output_inception_4d/output_0_split -> inception_4d/output_inception_4d/output_0_split_4
I0403 16:43:41.814291 21388 net.cpp:141] Setting up inception_4d/output_inception_4d/output_0_split
I0403 16:43:41.814327 21388 net.cpp:148] Top shape: 24 528 14 14 (2483712)
I0403 16:43:41.814343 21388 net.cpp:148] Top shape: 24 528 14 14 (2483712)
I0403 16:43:41.814358 21388 net.cpp:148] Top shape: 24 528 14 14 (2483712)
I0403 16:43:41.814373 21388 net.cpp:148] Top shape: 24 528 14 14 (2483712)
I0403 16:43:41.814388 21388 net.cpp:148] Top shape: 24 528 14 14 (2483712)
I0403 16:43:41.814400 21388 net.cpp:156] Memory required for data: 1206918432
I0403 16:43:41.814415 21388 layer_factory.hpp:77] Creating layer loss2/ave_pool
I0403 16:43:41.814435 21388 net.cpp:91] Creating Layer loss2/ave_pool
I0403 16:43:41.814451 21388 net.cpp:425] loss2/ave_pool <- inception_4d/output_inception_4d/output_0_split_0
I0403 16:43:41.814470 21388 net.cpp:399] loss2/ave_pool -> loss2/ave_pool
I0403 16:43:41.814785 21388 net.cpp:141] Setting up loss2/ave_pool
I0403 16:43:41.814815 21388 net.cpp:148] Top shape: 24 528 4 4 (202752)
I0403 16:43:41.814829 21388 net.cpp:156] Memory required for data: 1207729440
I0403 16:43:41.814844 21388 layer_factory.hpp:77] Creating layer loss2/conv
I0403 16:43:41.814867 21388 net.cpp:91] Creating Layer loss2/conv
I0403 16:43:41.814883 21388 net.cpp:425] loss2/conv <- loss2/ave_pool
I0403 16:43:41.814903 21388 net.cpp:399] loss2/conv -> loss2/conv
I0403 16:43:41.816804 21388 net.cpp:141] Setting up loss2/conv
I0403 16:43:41.816833 21388 net.cpp:148] Top shape: 24 128 4 4 (49152)
I0403 16:43:41.816848 21388 net.cpp:156] Memory required for data: 1207926048
I0403 16:43:41.816867 21388 layer_factory.hpp:77] Creating layer loss2/relu_conv
I0403 16:43:41.816887 21388 net.cpp:91] Creating Layer loss2/relu_conv
I0403 16:43:41.816905 21388 net.cpp:425] loss2/relu_conv <- loss2/conv
I0403 16:43:41.816921 21388 net.cpp:386] loss2/relu_conv -> loss2/conv (in-place)
I0403 16:43:41.817247 21388 net.cpp:141] Setting up loss2/relu_conv
I0403 16:43:41.817276 21388 net.cpp:148] Top shape: 24 128 4 4 (49152)
I0403 16:43:41.817292 21388 net.cpp:156] Memory required for data: 1208122656
I0403 16:43:41.817307 21388 layer_factory.hpp:77] Creating layer loss2/fc
I0403 16:43:41.817342 21388 net.cpp:91] Creating Layer loss2/fc
I0403 16:43:41.817360 21388 net.cpp:425] loss2/fc <- loss2/conv
I0403 16:43:41.817392 21388 net.cpp:399] loss2/fc -> loss2/fc
I0403 16:43:41.836364 21388 net.cpp:141] Setting up loss2/fc
I0403 16:43:41.836431 21388 net.cpp:148] Top shape: 24 1024 (24576)
I0403 16:43:41.836447 21388 net.cpp:156] Memory required for data: 1208220960
I0403 16:43:41.836467 21388 layer_factory.hpp:77] Creating layer loss2/relu_fc
I0403 16:43:41.836488 21388 net.cpp:91] Creating Layer loss2/relu_fc
I0403 16:43:41.836506 21388 net.cpp:425] loss2/relu_fc <- loss2/fc
I0403 16:43:41.836529 21388 net.cpp:386] loss2/relu_fc -> loss2/fc (in-place)
I0403 16:43:41.836887 21388 net.cpp:141] Setting up loss2/relu_fc
I0403 16:43:41.836918 21388 net.cpp:148] Top shape: 24 1024 (24576)
I0403 16:43:41.836935 21388 net.cpp:156] Memory required for data: 1208319264
I0403 16:43:41.836949 21388 layer_factory.hpp:77] Creating layer loss2/drop_fc
I0403 16:43:41.836971 21388 net.cpp:91] Creating Layer loss2/drop_fc
I0403 16:43:41.836987 21388 net.cpp:425] loss2/drop_fc <- loss2/fc
I0403 16:43:41.837008 21388 net.cpp:386] loss2/drop_fc -> loss2/fc (in-place)
I0403 16:43:41.837069 21388 net.cpp:141] Setting up loss2/drop_fc
I0403 16:43:41.837093 21388 net.cpp:148] Top shape: 24 1024 (24576)
I0403 16:43:41.837108 21388 net.cpp:156] Memory required for data: 1208417568
I0403 16:43:41.837123 21388 layer_factory.hpp:77] Creating layer loss2/classifier_plantvillage
I0403 16:43:41.837146 21388 net.cpp:91] Creating Layer loss2/classifier_plantvillage
I0403 16:43:41.837164 21388 net.cpp:425] loss2/classifier_plantvillage <- loss2/fc
I0403 16:43:41.837187 21388 net.cpp:399] loss2/classifier_plantvillage -> loss2/classifier_plantvillage
I0403 16:43:41.837626 21388 net.cpp:141] Setting up loss2/classifier_plantvillage
I0403 16:43:41.837652 21388 net.cpp:148] Top shape: 24 38 (912)
I0403 16:43:41.837692 21388 net.cpp:156] Memory required for data: 1208421216
I0403 16:43:41.837713 21388 layer_factory.hpp:77] Creating layer loss2/classifier_plantvillage_loss2/classifier_plantvillage_0_split
I0403 16:43:41.837734 21388 net.cpp:91] Creating Layer loss2/classifier_plantvillage_loss2/classifier_plantvillage_0_split
I0403 16:43:41.837752 21388 net.cpp:425] loss2/classifier_plantvillage_loss2/classifier_plantvillage_0_split <- loss2/classifier_plantvillage
I0403 16:43:41.837771 21388 net.cpp:399] loss2/classifier_plantvillage_loss2/classifier_plantvillage_0_split -> loss2/classifier_plantvillage_loss2/classifier_plantvillage_0_split_0
I0403 16:43:41.837792 21388 net.cpp:399] loss2/classifier_plantvillage_loss2/classifier_plantvillage_0_split -> loss2/classifier_plantvillage_loss2/classifier_plantvillage_0_split_1
I0403 16:43:41.837815 21388 net.cpp:399] loss2/classifier_plantvillage_loss2/classifier_plantvillage_0_split -> loss2/classifier_plantvillage_loss2/classifier_plantvillage_0_split_2
I0403 16:43:41.837898 21388 net.cpp:141] Setting up loss2/classifier_plantvillage_loss2/classifier_plantvillage_0_split
I0403 16:43:41.837924 21388 net.cpp:148] Top shape: 24 38 (912)
I0403 16:43:41.837940 21388 net.cpp:148] Top shape: 24 38 (912)
I0403 16:43:41.837955 21388 net.cpp:148] Top shape: 24 38 (912)
I0403 16:43:41.837970 21388 net.cpp:156] Memory required for data: 1208432160
I0403 16:43:41.837985 21388 layer_factory.hpp:77] Creating layer inception_4e/1x1
I0403 16:43:41.838007 21388 net.cpp:91] Creating Layer inception_4e/1x1
I0403 16:43:41.838037 21388 net.cpp:425] inception_4e/1x1 <- inception_4d/output_inception_4d/output_0_split_1
I0403 16:43:41.838063 21388 net.cpp:399] inception_4e/1x1 -> inception_4e/1x1
I0403 16:43:41.840051 21388 net.cpp:141] Setting up inception_4e/1x1
I0403 16:43:41.840082 21388 net.cpp:148] Top shape: 24 256 14 14 (1204224)
I0403 16:43:41.840098 21388 net.cpp:156] Memory required for data: 1213249056
I0403 16:43:41.840117 21388 layer_factory.hpp:77] Creating layer inception_4e/relu_1x1
I0403 16:43:41.840139 21388 net.cpp:91] Creating Layer inception_4e/relu_1x1
I0403 16:43:41.840157 21388 net.cpp:425] inception_4e/relu_1x1 <- inception_4e/1x1
I0403 16:43:41.840175 21388 net.cpp:386] inception_4e/relu_1x1 -> inception_4e/1x1 (in-place)
I0403 16:43:41.840489 21388 net.cpp:141] Setting up inception_4e/relu_1x1
I0403 16:43:41.840517 21388 net.cpp:148] Top shape: 24 256 14 14 (1204224)
I0403 16:43:41.840533 21388 net.cpp:156] Memory required for data: 1218065952
I0403 16:43:41.840548 21388 layer_factory.hpp:77] Creating layer inception_4e/3x3_reduce
I0403 16:43:41.840571 21388 net.cpp:91] Creating Layer inception_4e/3x3_reduce
I0403 16:43:41.840590 21388 net.cpp:425] inception_4e/3x3_reduce <- inception_4d/output_inception_4d/output_0_split_2
I0403 16:43:41.840612 21388 net.cpp:399] inception_4e/3x3_reduce -> inception_4e/3x3_reduce
I0403 16:43:41.842881 21388 net.cpp:141] Setting up inception_4e/3x3_reduce
I0403 16:43:41.842911 21388 net.cpp:148] Top shape: 24 160 14 14 (752640)
I0403 16:43:41.842927 21388 net.cpp:156] Memory required for data: 1221076512
I0403 16:43:41.842947 21388 layer_factory.hpp:77] Creating layer inception_4e/relu_3x3_reduce
I0403 16:43:41.842967 21388 net.cpp:91] Creating Layer inception_4e/relu_3x3_reduce
I0403 16:43:41.842984 21388 net.cpp:425] inception_4e/relu_3x3_reduce <- inception_4e/3x3_reduce
I0403 16:43:41.843008 21388 net.cpp:386] inception_4e/relu_3x3_reduce -> inception_4e/3x3_reduce (in-place)
I0403 16:43:41.843210 21388 net.cpp:141] Setting up inception_4e/relu_3x3_reduce
I0403 16:43:41.843237 21388 net.cpp:148] Top shape: 24 160 14 14 (752640)
I0403 16:43:41.843252 21388 net.cpp:156] Memory required for data: 1224087072
I0403 16:43:41.843267 21388 layer_factory.hpp:77] Creating layer inception_4e/3x3
I0403 16:43:41.843291 21388 net.cpp:91] Creating Layer inception_4e/3x3
I0403 16:43:41.843309 21388 net.cpp:425] inception_4e/3x3 <- inception_4e/3x3_reduce
I0403 16:43:41.843333 21388 net.cpp:399] inception_4e/3x3 -> inception_4e/3x3
I0403 16:43:41.848637 21388 net.cpp:141] Setting up inception_4e/3x3
I0403 16:43:41.848682 21388 net.cpp:148] Top shape: 24 320 14 14 (1505280)
I0403 16:43:41.848700 21388 net.cpp:156] Memory required for data: 1230108192
I0403 16:43:41.848719 21388 layer_factory.hpp:77] Creating layer inception_4e/relu_3x3
I0403 16:43:41.848742 21388 net.cpp:91] Creating Layer inception_4e/relu_3x3
I0403 16:43:41.848760 21388 net.cpp:425] inception_4e/relu_3x3 <- inception_4e/3x3
I0403 16:43:41.848779 21388 net.cpp:386] inception_4e/relu_3x3 -> inception_4e/3x3 (in-place)
I0403 16:43:41.849110 21388 net.cpp:141] Setting up inception_4e/relu_3x3
I0403 16:43:41.849138 21388 net.cpp:148] Top shape: 24 320 14 14 (1505280)
I0403 16:43:41.849154 21388 net.cpp:156] Memory required for data: 1236129312
I0403 16:43:41.849170 21388 layer_factory.hpp:77] Creating layer inception_4e/5x5_reduce
I0403 16:43:41.849196 21388 net.cpp:91] Creating Layer inception_4e/5x5_reduce
I0403 16:43:41.849217 21388 net.cpp:425] inception_4e/5x5_reduce <- inception_4d/output_inception_4d/output_0_split_3
I0403 16:43:41.849238 21388 net.cpp:399] inception_4e/5x5_reduce -> inception_4e/5x5_reduce
I0403 16:43:41.850399 21388 net.cpp:141] Setting up inception_4e/5x5_reduce
I0403 16:43:41.850428 21388 net.cpp:148] Top shape: 24 32 14 14 (150528)
I0403 16:43:41.850445 21388 net.cpp:156] Memory required for data: 1236731424
I0403 16:43:41.850463 21388 layer_factory.hpp:77] Creating layer inception_4e/relu_5x5_reduce
I0403 16:43:41.850481 21388 net.cpp:91] Creating Layer inception_4e/relu_5x5_reduce
I0403 16:43:41.850498 21388 net.cpp:425] inception_4e/relu_5x5_reduce <- inception_4e/5x5_reduce
I0403 16:43:41.850519 21388 net.cpp:386] inception_4e/relu_5x5_reduce -> inception_4e/5x5_reduce (in-place)
I0403 16:43:41.850837 21388 net.cpp:141] Setting up inception_4e/relu_5x5_reduce
I0403 16:43:41.850864 21388 net.cpp:148] Top shape: 24 32 14 14 (150528)
I0403 16:43:41.850880 21388 net.cpp:156] Memory required for data: 1237333536
I0403 16:43:41.850895 21388 layer_factory.hpp:77] Creating layer inception_4e/5x5
I0403 16:43:41.850935 21388 net.cpp:91] Creating Layer inception_4e/5x5
I0403 16:43:41.850956 21388 net.cpp:425] inception_4e/5x5 <- inception_4e/5x5_reduce
I0403 16:43:41.850976 21388 net.cpp:399] inception_4e/5x5 -> inception_4e/5x5
I0403 16:43:41.852957 21388 net.cpp:141] Setting up inception_4e/5x5
I0403 16:43:41.852988 21388 net.cpp:148] Top shape: 24 128 14 14 (602112)
I0403 16:43:41.853004 21388 net.cpp:156] Memory required for data: 1239741984
I0403 16:43:41.853040 21388 layer_factory.hpp:77] Creating layer inception_4e/relu_5x5
I0403 16:43:41.853063 21388 net.cpp:91] Creating Layer inception_4e/relu_5x5
I0403 16:43:41.853080 21388 net.cpp:425] inception_4e/relu_5x5 <- inception_4e/5x5
I0403 16:43:41.853101 21388 net.cpp:386] inception_4e/relu_5x5 -> inception_4e/5x5 (in-place)
I0403 16:43:41.853315 21388 net.cpp:141] Setting up inception_4e/relu_5x5
I0403 16:43:41.853343 21388 net.cpp:148] Top shape: 24 128 14 14 (602112)
I0403 16:43:41.853358 21388 net.cpp:156] Memory required for data: 1242150432
I0403 16:43:41.853374 21388 layer_factory.hpp:77] Creating layer inception_4e/pool
I0403 16:43:41.853392 21388 net.cpp:91] Creating Layer inception_4e/pool
I0403 16:43:41.853412 21388 net.cpp:425] inception_4e/pool <- inception_4d/output_inception_4d/output_0_split_4
I0403 16:43:41.853431 21388 net.cpp:399] inception_4e/pool -> inception_4e/pool
I0403 16:43:41.853518 21388 net.cpp:141] Setting up inception_4e/pool
I0403 16:43:41.853543 21388 net.cpp:148] Top shape: 24 528 14 14 (2483712)
I0403 16:43:41.853557 21388 net.cpp:156] Memory required for data: 1252085280
I0403 16:43:41.853571 21388 layer_factory.hpp:77] Creating layer inception_4e/pool_proj
I0403 16:43:41.853593 21388 net.cpp:91] Creating Layer inception_4e/pool_proj
I0403 16:43:41.853611 21388 net.cpp:425] inception_4e/pool_proj <- inception_4e/pool
I0403 16:43:41.853633 21388 net.cpp:399] inception_4e/pool_proj -> inception_4e/pool_proj
I0403 16:43:41.855217 21388 net.cpp:141] Setting up inception_4e/pool_proj
I0403 16:43:41.855262 21388 net.cpp:148] Top shape: 24 128 14 14 (602112)
I0403 16:43:41.855279 21388 net.cpp:156] Memory required for data: 1254493728
I0403 16:43:41.855299 21388 layer_factory.hpp:77] Creating layer inception_4e/relu_pool_proj
I0403 16:43:41.855329 21388 net.cpp:91] Creating Layer inception_4e/relu_pool_proj
I0403 16:43:41.855345 21388 net.cpp:425] inception_4e/relu_pool_proj <- inception_4e/pool_proj
I0403 16:43:41.855363 21388 net.cpp:386] inception_4e/relu_pool_proj -> inception_4e/pool_proj (in-place)
I0403 16:43:41.855666 21388 net.cpp:141] Setting up inception_4e/relu_pool_proj
I0403 16:43:41.855695 21388 net.cpp:148] Top shape: 24 128 14 14 (602112)
I0403 16:43:41.855711 21388 net.cpp:156] Memory required for data: 1256902176
I0403 16:43:41.855726 21388 layer_factory.hpp:77] Creating layer inception_4e/output
I0403 16:43:41.855743 21388 net.cpp:91] Creating Layer inception_4e/output
I0403 16:43:41.855761 21388 net.cpp:425] inception_4e/output <- inception_4e/1x1
I0403 16:43:41.855777 21388 net.cpp:425] inception_4e/output <- inception_4e/3x3
I0403 16:43:41.855793 21388 net.cpp:425] inception_4e/output <- inception_4e/5x5
I0403 16:43:41.855809 21388 net.cpp:425] inception_4e/output <- inception_4e/pool_proj
I0403 16:43:41.855826 21388 net.cpp:399] inception_4e/output -> inception_4e/output
I0403 16:43:41.855880 21388 net.cpp:141] Setting up inception_4e/output
I0403 16:43:41.855903 21388 net.cpp:148] Top shape: 24 832 14 14 (3913728)
I0403 16:43:41.855918 21388 net.cpp:156] Memory required for data: 1272557088
I0403 16:43:41.855932 21388 layer_factory.hpp:77] Creating layer pool4/3x3_s2
I0403 16:43:41.855952 21388 net.cpp:91] Creating Layer pool4/3x3_s2
I0403 16:43:41.855969 21388 net.cpp:425] pool4/3x3_s2 <- inception_4e/output
I0403 16:43:41.855988 21388 net.cpp:399] pool4/3x3_s2 -> pool4/3x3_s2
I0403 16:43:41.856065 21388 net.cpp:141] Setting up pool4/3x3_s2
I0403 16:43:41.856088 21388 net.cpp:148] Top shape: 24 832 7 7 (978432)
I0403 16:43:41.856102 21388 net.cpp:156] Memory required for data: 1276470816
I0403 16:43:41.856117 21388 layer_factory.hpp:77] Creating layer pool4/3x3_s2_pool4/3x3_s2_0_split
I0403 16:43:41.856134 21388 net.cpp:91] Creating Layer pool4/3x3_s2_pool4/3x3_s2_0_split
I0403 16:43:41.856149 21388 net.cpp:425] pool4/3x3_s2_pool4/3x3_s2_0_split <- pool4/3x3_s2
I0403 16:43:41.856169 21388 net.cpp:399] pool4/3x3_s2_pool4/3x3_s2_0_split -> pool4/3x3_s2_pool4/3x3_s2_0_split_0
I0403 16:43:41.856190 21388 net.cpp:399] pool4/3x3_s2_pool4/3x3_s2_0_split -> pool4/3x3_s2_pool4/3x3_s2_0_split_1
I0403 16:43:41.856211 21388 net.cpp:399] pool4/3x3_s2_pool4/3x3_s2_0_split -> pool4/3x3_s2_pool4/3x3_s2_0_split_2
I0403 16:43:41.856231 21388 net.cpp:399] pool4/3x3_s2_pool4/3x3_s2_0_split -> pool4/3x3_s2_pool4/3x3_s2_0_split_3
I0403 16:43:41.856329 21388 net.cpp:141] Setting up pool4/3x3_s2_pool4/3x3_s2_0_split
I0403 16:43:41.856355 21388 net.cpp:148] Top shape: 24 832 7 7 (978432)
I0403 16:43:41.856372 21388 net.cpp:148] Top shape: 24 832 7 7 (978432)
I0403 16:43:41.856389 21388 net.cpp:148] Top shape: 24 832 7 7 (978432)
I0403 16:43:41.856403 21388 net.cpp:148] Top shape: 24 832 7 7 (978432)
I0403 16:43:41.856417 21388 net.cpp:156] Memory required for data: 1292125728
I0403 16:43:41.856431 21388 layer_factory.hpp:77] Creating layer inception_5a/1x1
I0403 16:43:41.856453 21388 net.cpp:91] Creating Layer inception_5a/1x1
I0403 16:43:41.856472 21388 net.cpp:425] inception_5a/1x1 <- pool4/3x3_s2_pool4/3x3_s2_0_split_0
I0403 16:43:41.856490 21388 net.cpp:399] inception_5a/1x1 -> inception_5a/1x1
I0403 16:43:41.859450 21388 net.cpp:141] Setting up inception_5a/1x1
I0403 16:43:41.859483 21388 net.cpp:148] Top shape: 24 256 7 7 (301056)
I0403 16:43:41.859500 21388 net.cpp:156] Memory required for data: 1293329952
I0403 16:43:41.859519 21388 layer_factory.hpp:77] Creating layer inception_5a/relu_1x1
I0403 16:43:41.859537 21388 net.cpp:91] Creating Layer inception_5a/relu_1x1
I0403 16:43:41.859555 21388 net.cpp:425] inception_5a/relu_1x1 <- inception_5a/1x1
I0403 16:43:41.859575 21388 net.cpp:386] inception_5a/relu_1x1 -> inception_5a/1x1 (in-place)
I0403 16:43:41.859901 21388 net.cpp:141] Setting up inception_5a/relu_1x1
I0403 16:43:41.859930 21388 net.cpp:148] Top shape: 24 256 7 7 (301056)
I0403 16:43:41.859946 21388 net.cpp:156] Memory required for data: 1294534176
I0403 16:43:41.859962 21388 layer_factory.hpp:77] Creating layer inception_5a/3x3_reduce
I0403 16:43:41.859984 21388 net.cpp:91] Creating Layer inception_5a/3x3_reduce
I0403 16:43:41.860002 21388 net.cpp:425] inception_5a/3x3_reduce <- pool4/3x3_s2_pool4/3x3_s2_0_split_1
I0403 16:43:41.860028 21388 net.cpp:399] inception_5a/3x3_reduce -> inception_5a/3x3_reduce
I0403 16:43:41.862571 21388 net.cpp:141] Setting up inception_5a/3x3_reduce
I0403 16:43:41.862601 21388 net.cpp:148] Top shape: 24 160 7 7 (188160)
I0403 16:43:41.862620 21388 net.cpp:156] Memory required for data: 1295286816
I0403 16:43:41.862639 21388 layer_factory.hpp:77] Creating layer inception_5a/relu_3x3_reduce
I0403 16:43:41.862658 21388 net.cpp:91] Creating Layer inception_5a/relu_3x3_reduce
I0403 16:43:41.862674 21388 net.cpp:425] inception_5a/relu_3x3_reduce <- inception_5a/3x3_reduce
I0403 16:43:41.862692 21388 net.cpp:386] inception_5a/relu_3x3_reduce -> inception_5a/3x3_reduce (in-place)
I0403 16:43:41.862885 21388 net.cpp:141] Setting up inception_5a/relu_3x3_reduce
I0403 16:43:41.862913 21388 net.cpp:148] Top shape: 24 160 7 7 (188160)
I0403 16:43:41.862928 21388 net.cpp:156] Memory required for data: 1296039456
I0403 16:43:41.862943 21388 layer_factory.hpp:77] Creating layer inception_5a/3x3
I0403 16:43:41.862967 21388 net.cpp:91] Creating Layer inception_5a/3x3
I0403 16:43:41.862983 21388 net.cpp:425] inception_5a/3x3 <- inception_5a/3x3_reduce
I0403 16:43:41.863003 21388 net.cpp:399] inception_5a/3x3 -> inception_5a/3x3
I0403 16:43:41.868177 21388 net.cpp:141] Setting up inception_5a/3x3
I0403 16:43:41.868207 21388 net.cpp:148] Top shape: 24 320 7 7 (376320)
I0403 16:43:41.868222 21388 net.cpp:156] Memory required for data: 1297544736
I0403 16:43:41.868240 21388 layer_factory.hpp:77] Creating layer inception_5a/relu_3x3
I0403 16:43:41.868258 21388 net.cpp:91] Creating Layer inception_5a/relu_3x3
I0403 16:43:41.868274 21388 net.cpp:425] inception_5a/relu_3x3 <- inception_5a/3x3
I0403 16:43:41.868294 21388 net.cpp:386] inception_5a/relu_3x3 -> inception_5a/3x3 (in-place)
I0403 16:43:41.868590 21388 net.cpp:141] Setting up inception_5a/relu_3x3
I0403 16:43:41.868615 21388 net.cpp:148] Top shape: 24 320 7 7 (376320)
I0403 16:43:41.868630 21388 net.cpp:156] Memory required for data: 1299050016
I0403 16:43:41.868644 21388 layer_factory.hpp:77] Creating layer inception_5a/5x5_reduce
I0403 16:43:41.868667 21388 net.cpp:91] Creating Layer inception_5a/5x5_reduce
I0403 16:43:41.868685 21388 net.cpp:425] inception_5a/5x5_reduce <- pool4/3x3_s2_pool4/3x3_s2_0_split_2
I0403 16:43:41.868707 21388 net.cpp:399] inception_5a/5x5_reduce -> inception_5a/5x5_reduce
I0403 16:43:41.869964 21388 net.cpp:141] Setting up inception_5a/5x5_reduce
I0403 16:43:41.869995 21388 net.cpp:148] Top shape: 24 32 7 7 (37632)
I0403 16:43:41.870012 21388 net.cpp:156] Memory required for data: 1299200544
I0403 16:43:41.870034 21388 layer_factory.hpp:77] Creating layer inception_5a/relu_5x5_reduce
I0403 16:43:41.870055 21388 net.cpp:91] Creating Layer inception_5a/relu_5x5_reduce
I0403 16:43:41.870072 21388 net.cpp:425] inception_5a/relu_5x5_reduce <- inception_5a/5x5_reduce
I0403 16:43:41.870090 21388 net.cpp:386] inception_5a/relu_5x5_reduce -> inception_5a/5x5_reduce (in-place)
I0403 16:43:41.870391 21388 net.cpp:141] Setting up inception_5a/relu_5x5_reduce
I0403 16:43:41.870417 21388 net.cpp:148] Top shape: 24 32 7 7 (37632)
I0403 16:43:41.870431 21388 net.cpp:156] Memory required for data: 1299351072
I0403 16:43:41.870446 21388 layer_factory.hpp:77] Creating layer inception_5a/5x5
I0403 16:43:41.870468 21388 net.cpp:91] Creating Layer inception_5a/5x5
I0403 16:43:41.870486 21388 net.cpp:425] inception_5a/5x5 <- inception_5a/5x5_reduce
I0403 16:43:41.870507 21388 net.cpp:399] inception_5a/5x5 -> inception_5a/5x5
I0403 16:43:41.872308 21388 net.cpp:141] Setting up inception_5a/5x5
I0403 16:43:41.872361 21388 net.cpp:148] Top shape: 24 128 7 7 (150528)
I0403 16:43:41.872377 21388 net.cpp:156] Memory required for data: 1299953184
I0403 16:43:41.872395 21388 layer_factory.hpp:77] Creating layer inception_5a/relu_5x5
I0403 16:43:41.872412 21388 net.cpp:91] Creating Layer inception_5a/relu_5x5
I0403 16:43:41.872428 21388 net.cpp:425] inception_5a/relu_5x5 <- inception_5a/5x5
I0403 16:43:41.872448 21388 net.cpp:386] inception_5a/relu_5x5 -> inception_5a/5x5 (in-place)
I0403 16:43:41.872642 21388 net.cpp:141] Setting up inception_5a/relu_5x5
I0403 16:43:41.872668 21388 net.cpp:148] Top shape: 24 128 7 7 (150528)
I0403 16:43:41.872683 21388 net.cpp:156] Memory required for data: 1300555296
I0403 16:43:41.872696 21388 layer_factory.hpp:77] Creating layer inception_5a/pool
I0403 16:43:41.872716 21388 net.cpp:91] Creating Layer inception_5a/pool
I0403 16:43:41.872733 21388 net.cpp:425] inception_5a/pool <- pool4/3x3_s2_pool4/3x3_s2_0_split_3
I0403 16:43:41.872751 21388 net.cpp:399] inception_5a/pool -> inception_5a/pool
I0403 16:43:41.872824 21388 net.cpp:141] Setting up inception_5a/pool
I0403 16:43:41.872848 21388 net.cpp:148] Top shape: 24 832 7 7 (978432)
I0403 16:43:41.872861 21388 net.cpp:156] Memory required for data: 1304469024
I0403 16:43:41.872876 21388 layer_factory.hpp:77] Creating layer inception_5a/pool_proj
I0403 16:43:41.872897 21388 net.cpp:91] Creating Layer inception_5a/pool_proj
I0403 16:43:41.872915 21388 net.cpp:425] inception_5a/pool_proj <- inception_5a/pool
I0403 16:43:41.872936 21388 net.cpp:399] inception_5a/pool_proj -> inception_5a/pool_proj
I0403 16:43:41.875413 21388 net.cpp:141] Setting up inception_5a/pool_proj
I0403 16:43:41.875445 21388 net.cpp:148] Top shape: 24 128 7 7 (150528)
I0403 16:43:41.875463 21388 net.cpp:156] Memory required for data: 1305071136
I0403 16:43:41.875480 21388 layer_factory.hpp:77] Creating layer inception_5a/relu_pool_proj
I0403 16:43:41.875497 21388 net.cpp:91] Creating Layer inception_5a/relu_pool_proj
I0403 16:43:41.875514 21388 net.cpp:425] inception_5a/relu_pool_proj <- inception_5a/pool_proj
I0403 16:43:41.875533 21388 net.cpp:386] inception_5a/relu_pool_proj -> inception_5a/pool_proj (in-place)
I0403 16:43:41.875834 21388 net.cpp:141] Setting up inception_5a/relu_pool_proj
I0403 16:43:41.875864 21388 net.cpp:148] Top shape: 24 128 7 7 (150528)
I0403 16:43:41.875879 21388 net.cpp:156] Memory required for data: 1305673248
I0403 16:43:41.875893 21388 layer_factory.hpp:77] Creating layer inception_5a/output
I0403 16:43:41.875910 21388 net.cpp:91] Creating Layer inception_5a/output
I0403 16:43:41.875926 21388 net.cpp:425] inception_5a/output <- inception_5a/1x1
I0403 16:43:41.875954 21388 net.cpp:425] inception_5a/output <- inception_5a/3x3
I0403 16:43:41.875970 21388 net.cpp:425] inception_5a/output <- inception_5a/5x5
I0403 16:43:41.875987 21388 net.cpp:425] inception_5a/output <- inception_5a/pool_proj
I0403 16:43:41.876003 21388 net.cpp:399] inception_5a/output -> inception_5a/output
I0403 16:43:41.876061 21388 net.cpp:141] Setting up inception_5a/output
I0403 16:43:41.876085 21388 net.cpp:148] Top shape: 24 832 7 7 (978432)
I0403 16:43:41.876101 21388 net.cpp:156] Memory required for data: 1309586976
I0403 16:43:41.876114 21388 layer_factory.hpp:77] Creating layer inception_5a/output_inception_5a/output_0_split
I0403 16:43:41.876132 21388 net.cpp:91] Creating Layer inception_5a/output_inception_5a/output_0_split
I0403 16:43:41.876147 21388 net.cpp:425] inception_5a/output_inception_5a/output_0_split <- inception_5a/output
I0403 16:43:41.876168 21388 net.cpp:399] inception_5a/output_inception_5a/output_0_split -> inception_5a/output_inception_5a/output_0_split_0
I0403 16:43:41.876189 21388 net.cpp:399] inception_5a/output_inception_5a/output_0_split -> inception_5a/output_inception_5a/output_0_split_1
I0403 16:43:41.876210 21388 net.cpp:399] inception_5a/output_inception_5a/output_0_split -> inception_5a/output_inception_5a/output_0_split_2
I0403 16:43:41.876245 21388 net.cpp:399] inception_5a/output_inception_5a/output_0_split -> inception_5a/output_inception_5a/output_0_split_3
I0403 16:43:41.876371 21388 net.cpp:141] Setting up inception_5a/output_inception_5a/output_0_split
I0403 16:43:41.876396 21388 net.cpp:148] Top shape: 24 832 7 7 (978432)
I0403 16:43:41.876412 21388 net.cpp:148] Top shape: 24 832 7 7 (978432)
I0403 16:43:41.876428 21388 net.cpp:148] Top shape: 24 832 7 7 (978432)
I0403 16:43:41.876443 21388 net.cpp:148] Top shape: 24 832 7 7 (978432)
I0403 16:43:41.876457 21388 net.cpp:156] Memory required for data: 1325241888
I0403 16:43:41.876472 21388 layer_factory.hpp:77] Creating layer inception_5b/1x1
I0403 16:43:41.876494 21388 net.cpp:91] Creating Layer inception_5b/1x1
I0403 16:43:41.876513 21388 net.cpp:425] inception_5b/1x1 <- inception_5a/output_inception_5a/output_0_split_0
I0403 16:43:41.876533 21388 net.cpp:399] inception_5b/1x1 -> inception_5b/1x1
I0403 16:43:41.880374 21388 net.cpp:141] Setting up inception_5b/1x1
I0403 16:43:41.880405 21388 net.cpp:148] Top shape: 24 384 7 7 (451584)
I0403 16:43:41.880424 21388 net.cpp:156] Memory required for data: 1327048224
I0403 16:43:41.880444 21388 layer_factory.hpp:77] Creating layer inception_5b/relu_1x1
I0403 16:43:41.880460 21388 net.cpp:91] Creating Layer inception_5b/relu_1x1
I0403 16:43:41.880476 21388 net.cpp:425] inception_5b/relu_1x1 <- inception_5b/1x1
I0403 16:43:41.880494 21388 net.cpp:386] inception_5b/relu_1x1 -> inception_5b/1x1 (in-place)
I0403 16:43:41.880800 21388 net.cpp:141] Setting up inception_5b/relu_1x1
I0403 16:43:41.880825 21388 net.cpp:148] Top shape: 24 384 7 7 (451584)
I0403 16:43:41.880842 21388 net.cpp:156] Memory required for data: 1328854560
I0403 16:43:41.880857 21388 layer_factory.hpp:77] Creating layer inception_5b/3x3_reduce
I0403 16:43:41.880877 21388 net.cpp:91] Creating Layer inception_5b/3x3_reduce
I0403 16:43:41.880893 21388 net.cpp:425] inception_5b/3x3_reduce <- inception_5a/output_inception_5a/output_0_split_1
I0403 16:43:41.880915 21388 net.cpp:399] inception_5b/3x3_reduce -> inception_5b/3x3_reduce
I0403 16:43:41.883703 21388 net.cpp:141] Setting up inception_5b/3x3_reduce
I0403 16:43:41.883733 21388 net.cpp:148] Top shape: 24 192 7 7 (225792)
I0403 16:43:41.883749 21388 net.cpp:156] Memory required for data: 1329757728
I0403 16:43:41.883769 21388 layer_factory.hpp:77] Creating layer inception_5b/relu_3x3_reduce
I0403 16:43:41.883790 21388 net.cpp:91] Creating Layer inception_5b/relu_3x3_reduce
I0403 16:43:41.883807 21388 net.cpp:425] inception_5b/relu_3x3_reduce <- inception_5b/3x3_reduce
I0403 16:43:41.883824 21388 net.cpp:386] inception_5b/relu_3x3_reduce -> inception_5b/3x3_reduce (in-place)
I0403 16:43:41.884040 21388 net.cpp:141] Setting up inception_5b/relu_3x3_reduce
I0403 16:43:41.884068 21388 net.cpp:148] Top shape: 24 192 7 7 (225792)
I0403 16:43:41.884083 21388 net.cpp:156] Memory required for data: 1330660896
I0403 16:43:41.884099 21388 layer_factory.hpp:77] Creating layer inception_5b/3x3
I0403 16:43:41.884120 21388 net.cpp:91] Creating Layer inception_5b/3x3
I0403 16:43:41.884140 21388 net.cpp:425] inception_5b/3x3 <- inception_5b/3x3_reduce
I0403 16:43:41.884163 21388 net.cpp:399] inception_5b/3x3 -> inception_5b/3x3
I0403 16:43:41.891510 21388 net.cpp:141] Setting up inception_5b/3x3
I0403 16:43:41.891543 21388 net.cpp:148] Top shape: 24 384 7 7 (451584)
I0403 16:43:41.891561 21388 net.cpp:156] Memory required for data: 1332467232
I0403 16:43:41.891584 21388 layer_factory.hpp:77] Creating layer inception_5b/relu_3x3
I0403 16:43:41.891603 21388 net.cpp:91] Creating Layer inception_5b/relu_3x3
I0403 16:43:41.891623 21388 net.cpp:425] inception_5b/relu_3x3 <- inception_5b/3x3
I0403 16:43:41.891655 21388 net.cpp:386] inception_5b/relu_3x3 -> inception_5b/3x3 (in-place)
I0403 16:43:41.891975 21388 net.cpp:141] Setting up inception_5b/relu_3x3
I0403 16:43:41.892005 21388 net.cpp:148] Top shape: 24 384 7 7 (451584)
I0403 16:43:41.892026 21388 net.cpp:156] Memory required for data: 1334273568
I0403 16:43:41.892052 21388 layer_factory.hpp:77] Creating layer inception_5b/5x5_reduce
I0403 16:43:41.892096 21388 net.cpp:91] Creating Layer inception_5b/5x5_reduce
I0403 16:43:41.892117 21388 net.cpp:425] inception_5b/5x5_reduce <- inception_5a/output_inception_5a/output_0_split_2
I0403 16:43:41.892138 21388 net.cpp:399] inception_5b/5x5_reduce -> inception_5b/5x5_reduce
I0403 16:43:41.893539 21388 net.cpp:141] Setting up inception_5b/5x5_reduce
I0403 16:43:41.893573 21388 net.cpp:148] Top shape: 24 48 7 7 (56448)
I0403 16:43:41.893589 21388 net.cpp:156] Memory required for data: 1334499360
I0403 16:43:41.893610 21388 layer_factory.hpp:77] Creating layer inception_5b/relu_5x5_reduce
I0403 16:43:41.893628 21388 net.cpp:91] Creating Layer inception_5b/relu_5x5_reduce
I0403 16:43:41.893646 21388 net.cpp:425] inception_5b/relu_5x5_reduce <- inception_5b/5x5_reduce
I0403 16:43:41.893664 21388 net.cpp:386] inception_5b/relu_5x5_reduce -> inception_5b/5x5_reduce (in-place)
I0403 16:43:41.894067 21388 net.cpp:141] Setting up inception_5b/relu_5x5_reduce
I0403 16:43:41.894096 21388 net.cpp:148] Top shape: 24 48 7 7 (56448)
I0403 16:43:41.894112 21388 net.cpp:156] Memory required for data: 1334725152
I0403 16:43:41.894127 21388 layer_factory.hpp:77] Creating layer inception_5b/5x5
I0403 16:43:41.894148 21388 net.cpp:91] Creating Layer inception_5b/5x5
I0403 16:43:41.894168 21388 net.cpp:425] inception_5b/5x5 <- inception_5b/5x5_reduce
I0403 16:43:41.894197 21388 net.cpp:399] inception_5b/5x5 -> inception_5b/5x5
I0403 16:43:41.896446 21388 net.cpp:141] Setting up inception_5b/5x5
I0403 16:43:41.896478 21388 net.cpp:148] Top shape: 24 128 7 7 (150528)
I0403 16:43:41.896497 21388 net.cpp:156] Memory required for data: 1335327264
I0403 16:43:41.896524 21388 layer_factory.hpp:77] Creating layer inception_5b/relu_5x5
I0403 16:43:41.896543 21388 net.cpp:91] Creating Layer inception_5b/relu_5x5
I0403 16:43:41.896561 21388 net.cpp:425] inception_5b/relu_5x5 <- inception_5b/5x5
I0403 16:43:41.896582 21388 net.cpp:386] inception_5b/relu_5x5 -> inception_5b/5x5 (in-place)
I0403 16:43:41.896795 21388 net.cpp:141] Setting up inception_5b/relu_5x5
I0403 16:43:41.896824 21388 net.cpp:148] Top shape: 24 128 7 7 (150528)
I0403 16:43:41.896845 21388 net.cpp:156] Memory required for data: 1335929376
I0403 16:43:41.896862 21388 layer_factory.hpp:77] Creating layer inception_5b/pool
I0403 16:43:41.896879 21388 net.cpp:91] Creating Layer inception_5b/pool
I0403 16:43:41.896898 21388 net.cpp:425] inception_5b/pool <- inception_5a/output_inception_5a/output_0_split_3
I0403 16:43:41.896919 21388 net.cpp:399] inception_5b/pool -> inception_5b/pool
I0403 16:43:41.897020 21388 net.cpp:141] Setting up inception_5b/pool
I0403 16:43:41.897055 21388 net.cpp:148] Top shape: 24 832 7 7 (978432)
I0403 16:43:41.897070 21388 net.cpp:156] Memory required for data: 1339843104
I0403 16:43:41.897086 21388 layer_factory.hpp:77] Creating layer inception_5b/pool_proj
I0403 16:43:41.897109 21388 net.cpp:91] Creating Layer inception_5b/pool_proj
I0403 16:43:41.897137 21388 net.cpp:425] inception_5b/pool_proj <- inception_5b/pool
I0403 16:43:41.897159 21388 net.cpp:399] inception_5b/pool_proj -> inception_5b/pool_proj
I0403 16:43:41.899677 21388 net.cpp:141] Setting up inception_5b/pool_proj
I0403 16:43:41.899713 21388 net.cpp:148] Top shape: 24 128 7 7 (150528)
I0403 16:43:41.899730 21388 net.cpp:156] Memory required for data: 1340445216
I0403 16:43:41.899750 21388 layer_factory.hpp:77] Creating layer inception_5b/relu_pool_proj
I0403 16:43:41.899770 21388 net.cpp:91] Creating Layer inception_5b/relu_pool_proj
I0403 16:43:41.899794 21388 net.cpp:425] inception_5b/relu_pool_proj <- inception_5b/pool_proj
I0403 16:43:41.899813 21388 net.cpp:386] inception_5b/relu_pool_proj -> inception_5b/pool_proj (in-place)
I0403 16:43:41.900138 21388 net.cpp:141] Setting up inception_5b/relu_pool_proj
I0403 16:43:41.900169 21388 net.cpp:148] Top shape: 24 128 7 7 (150528)
I0403 16:43:41.900185 21388 net.cpp:156] Memory required for data: 1341047328
I0403 16:43:41.900202 21388 layer_factory.hpp:77] Creating layer inception_5b/output
I0403 16:43:41.900221 21388 net.cpp:91] Creating Layer inception_5b/output
I0403 16:43:41.900255 21388 net.cpp:425] inception_5b/output <- inception_5b/1x1
I0403 16:43:41.900274 21388 net.cpp:425] inception_5b/output <- inception_5b/3x3
I0403 16:43:41.900292 21388 net.cpp:425] inception_5b/output <- inception_5b/5x5
I0403 16:43:41.900311 21388 net.cpp:425] inception_5b/output <- inception_5b/pool_proj
I0403 16:43:41.900341 21388 net.cpp:399] inception_5b/output -> inception_5b/output
I0403 16:43:41.900399 21388 net.cpp:141] Setting up inception_5b/output
I0403 16:43:41.900435 21388 net.cpp:148] Top shape: 24 1024 7 7 (1204224)
I0403 16:43:41.900450 21388 net.cpp:156] Memory required for data: 1345864224
I0403 16:43:41.900466 21388 layer_factory.hpp:77] Creating layer pool5/7x7_s1
I0403 16:43:41.900487 21388 net.cpp:91] Creating Layer pool5/7x7_s1
I0403 16:43:41.900506 21388 net.cpp:425] pool5/7x7_s1 <- inception_5b/output
I0403 16:43:41.900526 21388 net.cpp:399] pool5/7x7_s1 -> pool5/7x7_s1
I0403 16:43:41.900763 21388 net.cpp:141] Setting up pool5/7x7_s1
I0403 16:43:41.900790 21388 net.cpp:148] Top shape: 24 1024 1 1 (24576)
I0403 16:43:41.900805 21388 net.cpp:156] Memory required for data: 1345962528
I0403 16:43:41.900821 21388 layer_factory.hpp:77] Creating layer pool5/drop_7x7_s1
I0403 16:43:41.900840 21388 net.cpp:91] Creating Layer pool5/drop_7x7_s1
I0403 16:43:41.900858 21388 net.cpp:425] pool5/drop_7x7_s1 <- pool5/7x7_s1
I0403 16:43:41.900889 21388 net.cpp:386] pool5/drop_7x7_s1 -> pool5/7x7_s1 (in-place)
I0403 16:43:41.900944 21388 net.cpp:141] Setting up pool5/drop_7x7_s1
I0403 16:43:41.900979 21388 net.cpp:148] Top shape: 24 1024 1 1 (24576)
I0403 16:43:41.901000 21388 net.cpp:156] Memory required for data: 1346060832
I0403 16:43:41.901015 21388 layer_factory.hpp:77] Creating layer loss3/classifier_plantvillage
I0403 16:43:41.901042 21388 net.cpp:91] Creating Layer loss3/classifier_plantvillage
I0403 16:43:41.901065 21388 net.cpp:425] loss3/classifier_plantvillage <- pool5/7x7_s1
I0403 16:43:41.901087 21388 net.cpp:399] loss3/classifier_plantvillage -> loss3/classifier_plantvillage
I0403 16:43:41.901548 21388 net.cpp:141] Setting up loss3/classifier_plantvillage
I0403 16:43:41.901574 21388 net.cpp:148] Top shape: 24 38 (912)
I0403 16:43:41.901589 21388 net.cpp:156] Memory required for data: 1346064480
I0403 16:43:41.901613 21388 layer_factory.hpp:77] Creating layer loss3/classifier_plantvillage_loss3/classifier_plantvillage_0_split
I0403 16:43:41.901645 21388 net.cpp:91] Creating Layer loss3/classifier_plantvillage_loss3/classifier_plantvillage_0_split
I0403 16:43:41.901664 21388 net.cpp:425] loss3/classifier_plantvillage_loss3/classifier_plantvillage_0_split <- loss3/classifier_plantvillage
I0403 16:43:41.901684 21388 net.cpp:399] loss3/classifier_plantvillage_loss3/classifier_plantvillage_0_split -> loss3/classifier_plantvillage_loss3/classifier_plantvillage_0_split_0
I0403 16:43:41.901705 21388 net.cpp:399] loss3/classifier_plantvillage_loss3/classifier_plantvillage_0_split -> loss3/classifier_plantvillage_loss3/classifier_plantvillage_0_split_1
I0403 16:43:41.901726 21388 net.cpp:399] loss3/classifier_plantvillage_loss3/classifier_plantvillage_0_split -> loss3/classifier_plantvillage_loss3/classifier_plantvillage_0_split_2
I0403 16:43:41.901751 21388 net.cpp:399] loss3/classifier_plantvillage_loss3/classifier_plantvillage_0_split -> loss3/classifier_plantvillage_loss3/classifier_plantvillage_0_split_3
I0403 16:43:41.901862 21388 net.cpp:141] Setting up loss3/classifier_plantvillage_loss3/classifier_plantvillage_0_split
I0403 16:43:41.901895 21388 net.cpp:148] Top shape: 24 38 (912)
I0403 16:43:41.901914 21388 net.cpp:148] Top shape: 24 38 (912)
I0403 16:43:41.901933 21388 net.cpp:148] Top shape: 24 38 (912)
I0403 16:43:41.901949 21388 net.cpp:148] Top shape: 24 38 (912)
I0403 16:43:41.901968 21388 net.cpp:156] Memory required for data: 1346079072
I0403 16:43:41.901983 21388 layer_factory.hpp:77] Creating layer loss1/loss
I0403 16:43:41.902007 21388 net.cpp:91] Creating Layer loss1/loss
I0403 16:43:41.902041 21388 net.cpp:425] loss1/loss <- loss1/classifier_plantvillage_loss1/classifier_plantvillage_0_split_0
I0403 16:43:41.902084 21388 net.cpp:425] loss1/loss <- label_data_1_split_0
…
