…
I0403 16:51:57.598584 21531 net.cpp:313] The NetState phase (1) differed from the phase (0) specified by a rule in layer data
I0403 16:51:57.599689 21531 net.cpp:49] Initializing net from parameters: 
state {
  phase: TEST
}
layer {
  name: "data"
  type: "Data"
  top: "data"
  top: "label"
  include {
    phase: TEST
  }
  transform_param {
    mirror: false
    crop_size: 224
    mean_file: "/home/mohanty/data/final_dataset/lmdb/grayscale-20-80/mean.binaryproto"
  }
  data_param {
    source: "/home/mohanty/data/final_dataset/lmdb/grayscale-20-80/test_db"
    batch_size: 24
    backend: LMDB
  }
}
layer {
  name: "conv1/7x7_s2"
  type: "Convolution"
  bottom: "data"
  top: "conv1/7x7_s2"
  param {
    lr_mult: 1
    decay_mult: 1
  }
  param {
    lr_mult: 2
    decay_mult: 0
  }
  convolution_param {
    num_output: 64
    pad: 3
    kernel_size: 7
    stride: 2
    weight_filler {
      type: "xavier"
      std: 0.1
    }
    bias_filler {
      type: "constant"
      value: 0.2
    }
  }
}
layer {
  name: "conv1/relu_7x7"
  type: "ReLU"
  bottom: "conv1/7x7_s2"
  top: "conv1/7x7_s2"
}
layer {
  name: "pool1/3x3_s2"
  type: "Pooling"
  bottom: "conv1/7x7_s2"
  top: "pool1/3x3_s2"
  pooling_param {
    pool: MAX
    kernel_size: 3
    stride: 2
  }
}
layer {
  name: "pool1/norm1"
  type: "LRN"
  bottom: "pool1/3x3_s2"
  top: "pool1/norm1"
  lrn_param {
    local_size: 5
    alpha: 0.0001
    beta: 0.75
  }
}
layer {
  name: "conv2/3x3_reduce"
  type: "Convolution"
  bottom: "pool1/norm1"
  top: "conv2/3x3_reduce"
  param {
    lr_mult: 1
    decay_mult: 1
  }
  param {
    lr_mult: 2
    decay_mult: 0
  }
  convolution_param {
    num_output: 64
    kernel_size: 1
    weight_filler {
      type: "xavier"
      std: 0.1
    }
    bias_filler {
      type: "constant"
      value: 0.2
    }
  }
}
layer {
  name: "conv2/relu_3x3_reduce"
  type: "ReLU"
  bottom: "conv2/3x3_reduce"
  top: "conv2/3x3_reduce"
}
layer {
  name: "conv2/3x3"
  type: "Convolution"
  bottom: "conv2/3x3_reduce"
  top: "conv2/3x3"
  param {
    lr_mult: 1
    decay_mult: 1
  }
  param {
    lr_mult: 2
    decay_mult: 0
  }
  convolution_param {
    num_output: 192
    pad: 1
    kernel_size: 3
    weight_filler {
      type: "xavier"
      std: 0.03
    }
    bias_filler {
      type: "constant"
      value: 0.2
    }
  }
}
layer {
  name: "conv2/relu_3x3"
  type: "ReLU"
  bottom: "conv2/3x3"
  top: "conv2/3x3"
}
layer {
  name: "conv2/norm2"
  type: "LRN"
  bottom: "conv2/3x3"
  top: "conv2/norm2"
  lrn_param {
    local_size: 5
    alpha: 0.0001
    beta: 0.75
  }
}
layer {
  name: "pool2/3x3_s2"
  type: "Pooling"
  bottom: "conv2/norm2"
  top: "pool2/3x3_s2"
  pooling_param {
    pool: MAX
    kernel_size: 3
    stride: 2
  }
}
layer {
  name: "inception_3a/1x1"
  type: "Convolution"
  bottom: "pool2/3x3_s2"
  top: "inception_3a/1x1"
  param {
    lr_mult: 1
    decay_mult: 1
  }
  param {
    lr_mult: 2
    decay_mult: 0
  }
  convolution_param {
    num_output: 64
    kernel_size: 1
    weight_filler {
      type: "xavier"
      std: 0.03
    }
    bias_filler {
      type: "constant"
      value: 0.2
    }
  }
}
layer {
  name: "inception_3a/relu_1x1"
  type: "ReLU"
  bottom: "inception_3a/1x1"
  top: "inception_3a/1x1"
}
layer {
  name: "inception_3a/3x3_reduce"
  type: "Convolution"
  bottom: "pool2/3x3_s2"
  top: "inception_3a/3x3_reduce"
  param {
    lr_mult: 1
    decay_mult: 1
  }
  param {
    lr_mult: 2
    decay_mult: 0
  }
  convolution_param {
    num_output: 96
    kernel_size: 1
    weight_filler {
      type: "xavier"
      std: 0.09
    }
    bias_filler {
      type: "constant"
      value: 0.2
    }
  }
}
layer {
  name: "inception_3a/relu_3x3_reduce"
  type: "ReLU"
  bottom: "inception_3a/3x3_reduce"
  top: "inception_3a/3x3_reduce"
}
layer {
  name: "inception_3a/3x3"
  type: "Convolution"
  bottom: "inception_3a/3x3_reduce"
  top: "inception_3a/3x3"
  param {
    lr_mult: 1
    decay_mult: 1
  }
  param {
    lr_mult: 2
    decay_mult: 0
  }
  convolution_param {
    num_output: 128
    pad: 1
    kernel_size: 3
    weight_filler {
      type: "xavier"
      std: 0.03
    }
    bias_filler {
      type: "constant"
      value: 0.2
    }
  }
}
layer {
  name: "inception_3a/relu_3x3"
  type: "ReLU"
  bottom: "inception_3a/3x3"
  top: "inception_3a/3x3"
}
layer {
  name: "inception_3a/5x5_reduce"
  type: "Convolution"
  bottom: "pool2/3x3_s2"
  top: "inception_3a/5x5_reduce"
  param {
    lr_mult: 1
    decay_mult: 1
  }
  param {
    lr_mult: 2
    decay_mult: 0
  }
  convolution_param {
    num_output: 16
    kernel_size: 1
    weight_filler {
      type: "xavier"
      std: 0.2
    }
    bias_filler {
      type: "constant"
      value: 0.2
    }
  }
}
layer {
  name: "inception_3a/relu_5x5_reduce"
  type: "ReLU"
  bottom: "inception_3a/5x5_reduce"
  top: "inception_3a/5x5_reduce"
}
layer {
  name: "inception_3a/5x5"
  type: "Convolution"
  bottom: "inception_3a/5x5_reduce"
  top: "inception_3a/5x5"
  param {
    lr_mult: 1
    decay_mult: 1
  }
  param {
    lr_mult: 2
    decay_mult: 0
  }
  convolution_param {
    num_output: 32
    pad: 2
    kernel_size: 5
    weight_filler {
      type: "xavier"
      std: 0.03
    }
    bias_filler {
      type: "constant"
      value: 0.2
    }
  }
}
layer {
  name: "inception_3a/relu_5x5"
  type: "ReLU"
  bottom: "inception_3a/5x5"
  top: "inception_3a/5x5"
}
layer {
  name: "inception_3a/pool"
  type: "Pooling"
  bottom: "pool2/3x3_s2"
  top: "inception_3a/pool"
  pooling_param {
    pool: MAX
    kernel_size: 3
    stride: 1
    pad: 1
  }
}
layer {
  name: "inception_3a/pool_proj"
  type: "Convolution"
  bottom: "inception_3a/pool"
  top: "inception_3a/pool_proj"
  param {
    lr_mult: 1
    decay_mult: 1
  }
  param {
    lr_mult: 2
    decay_mult: 0
  }
  convolution_param {
    num_output: 32
    kernel_size: 1
    weight_filler {
      type: "xavier"
      std: 0.1
    }
    bias_filler {
      type: "constant"
      value: 0.2
    }
  }
}
layer {
  name: "inception_3a/relu_pool_proj"
  type: "ReLU"
  bottom: "inception_3a/pool_proj"
  top: "inception_3a/pool_proj"
}
layer {
  name: "inception_3a/output"
  type: "Concat"
  bottom: "inception_3a/1x1"
  bottom: "inception_3a/3x3"
  bottom: "inception_3a/5x5"
  bottom: "inception_3a/pool_proj"
  top: "inception_3a/output"
}
layer {
  name: "inception_3b/1x1"
  type: "Convolution"
  bottom: "inception_3a/output"
  top: "inception_3b/1x1"
  param {
    lr_mult: 1
    decay_mult: 1
  }
  param {
    lr_mult: 2
    decay_mult: 0
  }
  convolution_param {
    num_output: 128
    kernel_size: 1
    weight_filler {
      type: "xavier"
      std: 0.03
    }
    bias_filler {
      type: "constant"
      value: 0.2
    }
  }
}
layer {
  name: "inception_3b/relu_1x1"
  type: "ReLU"
  bottom: "inception_3b/1x1"
  top: "inception_3b/1x1"
}
layer {
  name: "inception_3b/3x3_reduce"
  type: "Convolution"
  bottom: "inception_3a/output"
  top: "inception_3b/3x3_reduce"
  param {
    lr_mult: 1
    decay_mult: 1
  }
  param {
    lr_mult: 2
    decay_mult: 0
  }
  convolution_param {
    num_output: 128
    kernel_size: 1
    weight_filler {
      type: "xavier"
      std: 0.09
    }
    bias_filler {
      type: "constant"
      value: 0.2
    }
  }
}
layer {
  name: "inception_3b/relu_3x3_reduce"
  type: "ReLU"
  bottom: "inception_3b/3x3_reduce"
  top: "inception_3b/3x3_reduce"
}
layer {
  name: "inception_3b/3x3"
  type: "Convolution"
  bottom: "inception_3b/3x3_reduce"
  top: "inception_3b/3x3"
  param {
    lr_mult: 1
    decay_mult: 1
  }
  param {
    lr_mult: 2
    decay_mult: 0
  }
  convolution_param {
    num_output: 192
    pad: 1
    kernel_size: 3
    weight_filler {
      type: "xavier"
      std: 0.03
    }
    bias_filler {
      type: "constant"
      value: 0.2
    }
  }
}
layer {
  name: "inception_3b/relu_3x3"
  type: "ReLU"
  bottom: "inception_3b/3x3"
  top: "inception_3b/3x3"
}
layer {
  name: "inception_3b/5x5_reduce"
  type: "Convolution"
  bottom: "inception_3a/output"
  top: "inception_3b/5x5_reduce"
  param {
    lr_mult: 1
    decay_mult: 1
  }
  param {
    lr_mult: 2
    decay_mult: 0
  }
  convolution_param {
    num_output: 32
    kernel_size: 1
    weight_filler {
      type: "xavier"
      std: 0.2
    }
    bias_filler {
      type: "constant"
      value: 0.2
    }
  }
}
layer {
  name: "inception_3b/relu_5x5_reduce"
  type: "ReLU"
  bottom: "inception_3b/5x5_reduce"
  top: "inception_3b/5x5_reduce"
}
layer {
  name: "inception_3b/5x5"
  type: "Convolution"
  bottom: "inception_3b/5x5_reduce"
  top: "inception_3b/5x5"
  param {
    lr_mult: 1
    decay_mult: 1
  }
  param {
    lr_mult: 2
    decay_mult: 0
  }
  convolution_param {
    num_output: 96
    pad: 2
    kernel_size: 5
    weight_filler {
      type: "xavier"
      std: 0.03
    }
    bias_filler {
      type: "constant"
      value: 0.2
    }
  }
}
layer {
  name: "inception_3b/relu_5x5"
  type: "ReLU"
  bottom: "inception_3b/5x5"
  top: "inception_3b/5x5"
}
layer {
  name: "inception_3b/pool"
  type: "Pooling"
  bottom: "inception_3a/output"
  top: "inception_3b/pool"
  pooling_param {
    pool: MAX
    kernel_size: 3
    stride: 1
    pad: 1
  }
}
layer {
  name: "inception_3b/pool_proj"
  type: "Convolution"
  bottom: "inception_3b/pool"
  top: "inception_3b/pool_proj"
  param {
    lr_mult: 1
    decay_mult: 1
  }
  param {
    lr_mult: 2
    decay_mult: 0
  }
  convolution_param {
    num_output: 64
    kernel_size: 1
    weight_filler {
      type: "xavier"
      std: 0.1
    }
    bias_filler {
      type: "constant"
      value: 0.2
    }
  }
}
layer {
  name: "inception_3b/relu_pool_proj"
  type: "ReLU"
  bottom: "inception_3b/pool_proj"
  top: "inception_3b/pool_proj"
}
layer {
  name: "inception_3b/output"
  type: "Concat"
  bottom: "inception_3b/1x1"
  bottom: "inception_3b/3x3"
  bottom: "inception_3b/5x5"
  bottom: "inception_3b/pool_proj"
  top: "inception_3b/output"
}
layer {
  name: "pool3/3x3_s2"
  type: "Pooling"
  bottom: "inception_3b/output"
  top: "pool3/3x3_s2"
  pooling_param {
    pool: MAX
    kernel_size: 3
    stride: 2
  }
}
layer {
  name: "inception_4a/1x1"
  type: "Convolution"
  bottom: "pool3/3x3_s2"
  top: "inception_4a/1x1"
  param {
    lr_mult: 1
    decay_mult: 1
  }
  param {
    lr_mult: 2
    decay_mult: 0
  }
  convolution_param {
    num_output: 192
    kernel_size: 1
    weight_filler {
      type: "xavier"
      std: 0.03
    }
    bias_filler {
      type: "constant"
      value: 0.2
    }
  }
}
layer {
  name: "inception_4a/relu_1x1"
  type: "ReLU"
  bottom: "inception_4a/1x1"
  top: "inception_4a/1x1"
}
layer {
  name: "inception_4a/3x3_reduce"
  type: "Convolution"
  bottom: "pool3/3x3_s2"
  top: "inception_4a/3x3_reduce"
  param {
    lr_mult: 1
    decay_mult: 1
  }
  param {
    lr_mult: 2
    decay_mult: 0
  }
  convolution_param {
    num_output: 96
    kernel_size: 1
    weight_filler {
      type: "xavier"
      std: 0.09
    }
    bias_filler {
      type: "constant"
      value: 0.2
    }
  }
}
layer {
  name: "inception_4a/relu_3x3_reduce"
  type: "ReLU"
  bottom: "inception_4a/3x3_reduce"
  top: "inception_4a/3x3_reduce"
}
layer {
  name: "inception_4a/3x3"
  type: "Convolution"
  bottom: "inception_4a/3x3_reduce"
  top: "inception_4a/3x3"
  param {
    lr_mult: 1
    decay_mult: 1
  }
  param {
    lr_mult: 2
    decay_mult: 0
  }
  convolution_param {
    num_output: 208
    pad: 1
    kernel_size: 3
    weight_filler {
      type: "xavier"
      std: 0.03
    }
    bias_filler {
      type: "constant"
      value: 0.2
    }
  }
}
layer {
  name: "inception_4a/relu_3x3"
  type: "ReLU"
  bottom: "inception_4a/3x3"
  top: "inception_4a/3x3"
}
layer {
  name: "inception_4a/5x5_reduce"
  type: "Convolution"
  bottom: "pool3/3x3_s2"
  top: "inception_4a/5x5_reduce"
  param {
    lr_mult: 1
    decay_mult: 1
  }
  param {
    lr_mult: 2
    decay_mult: 0
  }
  convolution_param {
    num_output: 16
    kernel_size: 1
    weight_filler {
      type: "xavier"
      std: 0.2
    }
    bias_filler {
      type: "constant"
      value: 0.2
    }
  }
}
layer {
  name: "inception_4a/relu_5x5_reduce"
  type: "ReLU"
  bottom: "inception_4a/5x5_reduce"
  top: "inception_4a/5x5_reduce"
}
layer {
  name: "inception_4a/5x5"
  type: "Convolution"
  bottom: "inception_4a/5x5_reduce"
  top: "inception_4a/5x5"
  param {
    lr_mult: 1
    decay_mult: 1
  }
  param {
    lr_mult: 2
    decay_mult: 0
  }
  convolution_param {
    num_output: 48
    pad: 2
    kernel_size: 5
    weight_filler {
      type: "xavier"
      std: 0.03
    }
    bias_filler {
      type: "constant"
      value: 0.2
    }
  }
}
layer {
  name: "inception_4a/relu_5x5"
  type: "ReLU"
  bottom: "inception_4a/5x5"
  top: "inception_4a/5x5"
}
layer {
  name: "inception_4a/pool"
  type: "Pooling"
  bottom: "pool3/3x3_s2"
  top: "inception_4a/pool"
  pooling_param {
    pool: MAX
    kernel_size: 3
    stride: 1
    pad: 1
  }
}
layer {
  name: "inception_4a/pool_proj"
  type: "Convolution"
  bottom: "inception_4a/pool"
  top: "inception_4a/pool_proj"
  param {
    lr_mult: 1
    decay_mult: 1
  }
  param {
    lr_mult: 2
    decay_mult: 0
  }
  convolution_param {
    num_output: 64
    kernel_size: 1
    weight_filler {
      type: "xavier"
      std: 0.1
    }
    bias_filler {
      type: "constant"
      value: 0.2
    }
  }
}
layer {
  name: "inception_4a/relu_pool_proj"
  type: "ReLU"
  bottom: "inception_4a/pool_proj"
  top: "inception_4a/pool_proj"
}
layer {
  name: "inception_4a/output"
  type: "Concat"
  bottom: "inception_4a/1x1"
  bottom: "inception_4a/3x3"
  bottom: "inception_4a/5x5"
  bottom: "inception_4a/pool_proj"
  top: "inception_4a/output"
}
layer {
  name: "loss1/ave_pool"
  type: "Pooling"
  bottom: "inception_4a/output"
  top: "loss1/ave_pool"
  pooling_param {
    pool: AVE
    kernel_size: 5
    stride: 3
  }
}
layer {
  name: "loss1/conv"
  type: "Convolution"
  bottom: "loss1/ave_pool"
  top: "loss1/conv"
  param {
    lr_mult: 1
    decay_mult: 1
  }
  param {
    lr_mult: 2
    decay_mult: 0
  }
  convolution_param {
    num_output: 128
    kernel_size: 1
    weight_filler {
      type: "xavier"
      std: 0.08
    }
    bias_filler {
      type: "constant"
      value: 0.2
    }
  }
}
layer {
  name: "loss1/relu_conv"
  type: "ReLU"
  bottom: "loss1/conv"
  top: "loss1/conv"
}
layer {
  name: "loss1/fc"
  type: "InnerProduct"
  bottom: "loss1/conv"
  top: "loss1/fc"
  param {
    lr_mult: 1
    decay_mult: 1
  }
  param {
    lr_mult: 2
    decay_mult: 0
  }
  inner_product_param {
    num_output: 1024
    weight_filler {
      type: "xavier"
      std: 0.02
    }
    bias_filler {
      type: "constant"
      value: 0.2
    }
  }
}
layer {
  name: "loss1/relu_fc"
  type: "ReLU"
  bottom: "loss1/fc"
  top: "loss1/fc"
}
layer {
  name: "loss1/drop_fc"
  type: "Dropout"
  bottom: "loss1/fc"
  top: "loss1/fc"
  dropout_param {
    dropout_ratio: 0.7
  }
}
layer {
  name: "loss1/classifier_plantvillage"
  type: "InnerProduct"
  bottom: "loss1/fc"
  top: "loss1/classifier_plantvillage"
  param {
    lr_mult: 1
    decay_mult: 1
  }
  param {
    lr_mult: 2
    decay_mult: 0
  }
  inner_product_param {
    num_output: 38
    weight_filler {
      type: "xavier"
      std: 0.0009765625
    }
    bias_filler {
      type: "constant"
      value: 0
    }
  }
}
layer {
  name: "inception_4b/1x1"
  type: "Convolution"
  bottom: "inception_4a/output"
  top: "inception_4b/1x1"
  param {
    lr_mult: 1
    decay_mult: 1
  }
  param {
    lr_mult: 2
    decay_mult: 0
  }
  convolution_param {
    num_output: 160
    kernel_size: 1
    weight_filler {
      type: "xavier"
      std: 0.03
    }
    bias_filler {
      type: "constant"
      value: 0.2
    }
  }
}
layer {
  name: "inception_4b/relu_1x1"
  type: "ReLU"
  bottom: "inception_4b/1x1"
  top: "inception_4b/1x1"
}
layer {
  name: "inception_4b/3x3_reduce"
  type: "Convolution"
  bottom: "inception_4a/output"
  top: "inception_4b/3x3_reduce"
  param {
    lr_mult: 1
    decay_mult: 1
  }
  param {
    lr_mult: 2
    decay_mult: 0
  }
  convolution_param {
    num_output: 112
    kernel_size: 1
    weight_filler {
      type: "xavier"
      std: 0.09
    }
    bias_filler {
      type: "constant"
      value: 0.2
    }
  }
}
layer {
  name: "inception_4b/relu_3x3_reduce"
  type: "ReLU"
  bottom: "inception_4b/3x3_reduce"
  top: "inception_4b/3x3_reduce"
}
layer {
  name: "inception_4b/3x3"
  type: "Convolution"
  bottom: "inception_4b/3x3_reduce"
  top: "inception_4b/3x3"
  param {
    lr_mult: 1
    decay_mult: 1
  }
  param {
    lr_mult: 2
    decay_mult: 0
  }
  convolution_param {
    num_output: 224
    pad: 1
    kernel_size: 3
    weight_filler {
      type: "xavier"
      std: 0.03
    }
    bias_filler {
      type: "constant"
      value: 0.2
    }
  }
}
layer {
  name: "inception_4b/relu_3x3"
  type: "ReLU"
  bottom: "inception_4b/3x3"
  top: "inception_4b/3x3"
}
layer {
  name: "inception_4b/5x5_reduce"
  type: "Convolution"
  bottom: "inception_4a/output"
  top: "inception_4b/5x5_reduce"
  param {
    lr_mult: 1
    decay_mult: 1
  }
  param {
    lr_mult: 2
    decay_mult: 0
  }
  convolution_param {
    num_output: 24
    kernel_size: 1
    weight_filler {
      type: "xavier"
      std: 0.2
    }
    bias_filler {
      type: "constant"
      value: 0.2
    }
  }
}
layer {
  name: "inception_4b/relu_5x5_reduce"
  type: "ReLU"
  bottom: "inception_4b/5x5_reduce"
  top: "inception_4b/5x5_reduce"
}
layer {
  name: "inception_4b/5x5"
  type: "Convolution"
  bottom: "inception_4b/5x5_reduce"
  top: "inception_4b/5x5"
  param {
    lr_mult: 1
    decay_mult: 1
  }
  param {
    lr_mult: 2
    decay_mult: 0
  }
  convolution_param {
    num_output: 64
    pad: 2
    kernel_size: 5
    weight_filler {
      type: "xavier"
      std: 0.03
    }
    bias_filler {
      type: "constant"
      value: 0.2
    }
  }
}
layer {
  name: "inception_4b/relu_5x5"
  type: "ReLU"
  bottom: "inception_4b/5x5"
  top: "inception_4b/5x5"
}
layer {
  name: "inception_4b/pool"
  type: "Pooling"
  bottom: "inception_4a/output"
  top: "inception_4b/pool"
  pooling_param {
    pool: MAX
    kernel_size: 3
    stride: 1
    pad: 1
  }
}
layer {
  name: "inception_4b/pool_proj"
  type: "Convolution"
  bottom: "inception_4b/pool"
  top: "inception_4b/pool_proj"
  param {
    lr_mult: 1
    decay_mult: 1
  }
  param {
    lr_mult: 2
    decay_mult: 0
  }
  convolution_param {
    num_output: 64
    kernel_size: 1
    weight_filler {
      type: "xavier"
      std: 0.1
    }
    bias_filler {
      type: "constant"
      value: 0.2
    }
  }
}
layer {
  name: "inception_4b/relu_pool_proj"
  type: "ReLU"
  bottom: "inception_4b/pool_proj"
  top: "inception_4b/pool_proj"
}
layer {
  name: "inception_4b/output"
  type: "Concat"
  bottom: "inception_4b/1x1"
  bottom: "inception_4b/3x3"
  bottom: "inception_4b/5x5"
  bottom: "inception_4b/pool_proj"
  top: "inception_4b/output"
}
layer {
  name: "inception_4c/1x1"
  type: "Convolution"
  bottom: "inception_4b/output"
  top: "inception_4c/1x1"
  param {
    lr_mult: 1
    decay_mult: 1
  }
  param {
    lr_mult: 2
    decay_mult: 0
  }
  convolution_param {
    num_output: 128
    kernel_size: 1
    weight_filler {
      type: "xavier"
      std: 0.03
    }
    bias_filler {
      type: "constant"
      value: 0.2
    }
  }
}
layer {
  name: "inception_4c/relu_1x1"
  type: "ReLU"
  bottom: "inception_4c/1x1"
  top: "inception_4c/1x1"
}
layer {
  name: "inception_4c/3x3_reduce"
  type: "Convolution"
  bottom: "inception_4b/output"
  top: "inception_4c/3x3_reduce"
  param {
    lr_mult: 1
    decay_mult: 1
  }
  param {
    lr_mult: 2
    decay_mult: 0
  }
  convolution_param {
    num_output: 128
    kernel_size: 1
    weight_filler {
      type: "xavier"
      std: 0.09
    }
    bias_filler {
      type: "constant"
      value: 0.2
    }
  }
}
layer {
  name: "inception_4c/relu_3x3_reduce"
  type: "ReLU"
  bottom: "inception_4c/3x3_reduce"
  top: "inception_4c/3x3_reduce"
}
layer {
  name: "inception_4c/3x3"
  type: "Convolution"
  bottom: "inception_4c/3x3_reduce"
  top: "inception_4c/3x3"
  param {
    lr_mult: 1
    decay_mult: 1
  }
  param {
    lr_mult: 2
    decay_mult: 0
  }
  convolution_param {
    num_output: 256
    pad: 1
    kernel_size: 3
    weight_filler {
      type: "xavier"
      std: 0.03
    }
    bias_filler {
      type: "constant"
      value: 0.2
    }
  }
}
layer {
  name: "inception_4c/relu_3x3"
  type: "ReLU"
  bottom: "inception_4c/3x3"
  top: "inception_4c/3x3"
}
layer {
  name: "inception_4c/5x5_reduce"
  type: "Convolution"
  bottom: "inception_4b/output"
  top: "inception_4c/5x5_reduce"
  param {
    lr_mult: 1
    decay_mult: 1
  }
  param {
    lr_mult: 2
    decay_mult: 0
  }
  convolution_param {
    num_output: 24
    kernel_size: 1
    weight_filler {
      type: "xavier"
      std: 0.2
    }
    bias_filler {
      type: "constant"
      value: 0.2
    }
  }
}
layer {
  name: "inception_4c/relu_5x5_reduce"
  type: "ReLU"
  bottom: "inception_4c/5x5_reduce"
  top: "inception_4c/5x5_reduce"
}
layer {
  name: "inception_4c/5x5"
  type: "Convolution"
  bottom: "inception_4c/5x5_reduce"
  top: "inception_4c/5x5"
  param {
    lr_mult: 1
    decay_mult: 1
  }
  param {
    lr_mult: 2
    decay_mult: 0
  }
  convolution_param {
    num_output: 64
    pad: 2
    kernel_size: 5
    weight_filler {
      type: "xavier"
      std: 0.03
    }
    bias_filler {
      type: "constant"
      value: 0.2
    }
  }
}
layer {
  name: "inception_4c/relu_5x5"
  type: "ReLU"
  bottom: "inception_4c/5x5"
  top: "inception_4c/5x5"
}
layer {
  name: "inception_4c/pool"
  type: "Pooling"
  bottom: "inception_4b/output"
  top: "inception_4c/pool"
  pooling_param {
    pool: MAX
    kernel_size: 3
    stride: 1
    pad: 1
  }
}
layer {
  name: "inception_4c/pool_proj"
  type: "Convolution"
  bottom: "inception_4c/pool"
  top: "inception_4c/pool_proj"
  param {
    lr_mult: 1
    decay_mult: 1
  }
  param {
    lr_mult: 2
    decay_mult: 0
  }
  convolution_param {
    num_output: 64
    kernel_size: 1
    weight_filler {
      type: "xavier"
      std: 0.1
    }
    bias_filler {
      type: "constant"
      value: 0.2
    }
  }
}
layer {
  name: "inception_4c/relu_pool_proj"
  type: "ReLU"
  bottom: "inception_4c/pool_proj"
  top: "inception_4c/pool_proj"
}
layer {
  name: "inception_4c/output"
  type: "Concat"
  bottom: "inception_4c/1x1"
  bottom: "inception_4c/3x3"
  bottom: "inception_4c/5x5"
  bottom: "inception_4c/pool_proj"
  top: "inception_4c/output"
}
layer {
  name: "inception_4d/1x1"
  type: "Convolution"
  bottom: "inception_4c/output"
  top: "inception_4d/1x1"
  param {
    lr_mult: 1
    decay_mult: 1
  }
  param {
    lr_mult: 2
    decay_mult: 0
  }
  convolution_param {
    num_output: 112
    kernel_size: 1
    weight_filler {
      type: "xavier"
      std: 0.03
    }
    bias_filler {
      type: "constant"
      value: 0.2
    }
  }
}
layer {
  name: "inception_4d/relu_1x1"
  type: "ReLU"
  bottom: "inception_4d/1x1"
  top: "inception_4d/1x1"
}
layer {
  name: "inception_4d/3x3_reduce"
  type: "Convolution"
  bottom: "inception_4c/output"
  top: "inception_4d/3x3_reduce"
  param {
    lr_mult: 1
    decay_mult: 1
  }
  param {
    lr_mult: 2
    decay_mult: 0
  }
  convolution_param {
    num_output: 144
    kernel_size: 1
    weight_filler {
      type: "xavier"
      std: 0.09
    }
    bias_filler {
      type: "constant"
      value: 0.2
    }
  }
}
layer {
  name: "inception_4d/relu_3x3_reduce"
  type: "ReLU"
  bottom: "inception_4d/3x3_reduce"
  top: "inception_4d/3x3_reduce"
}
layer {
  name: "inception_4d/3x3"
  type: "Convolution"
  bottom: "inception_4d/3x3_reduce"
  top: "inception_4d/3x3"
  param {
    lr_mult: 1
    decay_mult: 1
  }
  param {
    lr_mult: 2
    decay_mult: 0
  }
  convolution_param {
    num_output: 288
    pad: 1
    kernel_size: 3
    weight_filler {
      type: "xavier"
      std: 0.03
    }
    bias_filler {
      type: "constant"
      value: 0.2
    }
  }
}
layer {
  name: "inception_4d/relu_3x3"
  type: "ReLU"
  bottom: "inception_4d/3x3"
  top: "inception_4d/3x3"
}
layer {
  name: "inception_4d/5x5_reduce"
  type: "Convolution"
  bottom: "inception_4c/output"
  top: "inception_4d/5x5_reduce"
  param {
    lr_mult: 1
    decay_mult: 1
  }
  param {
    lr_mult: 2
    decay_mult: 0
  }
  convolution_param {
    num_output: 32
    kernel_size: 1
    weight_filler {
      type: "xavier"
      std: 0.2
    }
    bias_filler {
      type: "constant"
      value: 0.2
    }
  }
}
layer {
  name: "inception_4d/relu_5x5_reduce"
  type: "ReLU"
  bottom: "inception_4d/5x5_reduce"
  top: "inception_4d/5x5_reduce"
}
layer {
  name: "inception_4d/5x5"
  type: "Convolution"
  bottom: "inception_4d/5x5_reduce"
  top: "inception_4d/5x5"
  param {
    lr_mult: 1
    decay_mult: 1
  }
  param {
    lr_mult: 2
    decay_mult: 0
  }
  convolution_param {
    num_output: 64
    pad: 2
    kernel_size: 5
    weight_filler {
      type: "xavier"
      std: 0.03
    }
    bias_filler {
      type: "constant"
      value: 0.2
    }
  }
}
layer {
  name: "inception_4d/relu_5x5"
  type: "ReLU"
  bottom: "inception_4d/5x5"
  top: "inception_4d/5x5"
}
layer {
  name: "inception_4d/pool"
  type: "Pooling"
  bottom: "inception_4c/output"
  top: "inception_4d/pool"
  pooling_param {
    pool: MAX
    kernel_size: 3
    stride: 1
    pad: 1
  }
}
layer {
  name: "inception_4d/pool_proj"
  type: "Convolution"
  bottom: "inception_4d/pool"
  top: "inception_4d/pool_proj"
  param {
    lr_mult: 1
    decay_mult: 1
  }
  param {
    lr_mult: 2
    decay_mult: 0
  }
  convolution_param {
    num_output: 64
    kernel_size: 1
    weight_filler {
      type: "xavier"
      std: 0.1
    }
    bias_filler {
      type: "constant"
      value: 0.2
    }
  }
}
layer {
  name: "inception_4d/relu_pool_proj"
  type: "ReLU"
  bottom: "inception_4d/pool_proj"
  top: "inception_4d/pool_proj"
}
layer {
  name: "inception_4d/output"
  type: "Concat"
  bottom: "inception_4d/1x1"
  bottom: "inception_4d/3x3"
  bottom: "inception_4d/5x5"
  bottom: "inception_4d/pool_proj"
  top: "inception_4d/output"
}
layer {
  name: "loss2/ave_pool"
  type: "Pooling"
  bottom: "inception_4d/output"
  top: "loss2/ave_pool"
  pooling_param {
    pool: AVE
    kernel_size: 5
    stride: 3
  }
}
layer {
  name: "loss2/conv"
  type: "Convolution"
  bottom: "loss2/ave_pool"
  top: "loss2/conv"
  param {
    lr_mult: 1
    decay_mult: 1
  }
  param {
    lr_mult: 2
    decay_mult: 0
  }
  convolution_param {
    num_output: 128
    kernel_size: 1
    weight_filler {
      type: "xavier"
      std: 0.08
    }
    bias_filler {
      type: "constant"
      value: 0.2
    }
  }
}
layer {
  name: "loss2/relu_conv"
  type: "ReLU"
  bottom: "loss2/conv"
  top: "loss2/conv"
}
layer {
  name: "loss2/fc"
  type: "InnerProduct"
  bottom: "loss2/conv"
  top: "loss2/fc"
  param {
    lr_mult: 1
    decay_mult: 1
  }
  param {
    lr_mult: 2
    decay_mult: 0
  }
  inner_product_param {
    num_output: 1024
    weight_filler {
      type: "xavier"
      std: 0.02
    }
    bias_filler {
      type: "constant"
      value: 0.2
    }
  }
}
layer {
  name: "loss2/relu_fc"
  type: "ReLU"
  bottom: "loss2/fc"
  top: "loss2/fc"
}
layer {
  name: "loss2/drop_fc"
  type: "Dropout"
  bottom: "loss2/fc"
  top: "loss2/fc"
  dropout_param {
    dropout_ratio: 0.7
  }
}
layer {
  name: "loss2/classifier_plantvillage"
  type: "InnerProduct"
  bottom: "loss2/fc"
  top: "loss2/classifier_plantvillage"
  param {
    lr_mult: 1
    decay_mult: 1
  }
  param {
    lr_mult: 2
    decay_mult: 0
  }
  inner_product_param {
    num_output: 38
    weight_filler {
      type: "xavier"
      std: 0.0009765625
    }
    bias_filler {
      type: "constant"
      value: 0
    }
  }
}
layer {
  name: "inception_4e/1x1"
  type: "Convolution"
  bottom: "inception_4d/output"
  top: "inception_4e/1x1"
  param {
    lr_mult: 1
    decay_mult: 1
  }
  param {
    lr_mult: 2
    decay_mult: 0
  }
  convolution_param {
    num_output: 256
    kernel_size: 1
    weight_filler {
      type: "xavier"
      std: 0.03
    }
    bias_filler {
      type: "constant"
      value: 0.2
    }
  }
}
layer {
  name: "inception_4e/relu_1x1"
  type: "ReLU"
  bottom: "inception_4e/1x1"
  top: "inception_4e/1x1"
}
layer {
  name: "inception_4e/3x3_reduce"
  type: "Convolution"
  bottom: "inception_4d/output"
  top: "inception_4e/3x3_reduce"
  param {
    lr_mult: 1
    decay_mult: 1
  }
  param {
    lr_mult: 2
    decay_mult: 0
  }
  convolution_param {
    num_output: 160
    kernel_size: 1
    weight_filler {
      type: "xavier"
      std: 0.09
    }
    bias_filler {
      type: "constant"
      value: 0.2
    }
  }
}
layer {
  name: "inception_4e/relu_3x3_reduce"
  type: "ReLU"
  bottom: "inception_4e/3x3_reduce"
  top: "inception_4e/3x3_reduce"
}
layer {
  name: "inception_4e/3x3"
  type: "Convolution"
  bottom: "inception_4e/3x3_reduce"
  top: "inception_4e/3x3"
  param {
    lr_mult: 1
    decay_mult: 1
  }
  param {
    lr_mult: 2
    decay_mult: 0
  }
  convolution_param {
    num_output: 320
    pad: 1
    kernel_size: 3
    weight_filler {
      type: "xavier"
      std: 0.03
    }
    bias_filler {
      type: "constant"
      value: 0.2
    }
  }
}
layer {
  name: "inception_4e/relu_3x3"
  type: "ReLU"
  bottom: "inception_4e/3x3"
  top: "inception_4e/3x3"
}
layer {
  name: "inception_4e/5x5_reduce"
  type: "Convolution"
  bottom: "inception_4d/output"
  top: "inception_4e/5x5_reduce"
  param {
    lr_mult: 1
    decay_mult: 1
  }
  param {
    lr_mult: 2
    decay_mult: 0
  }
  convolution_param {
    num_output: 32
    kernel_size: 1
    weight_filler {
      type: "xavier"
      std: 0.2
    }
    bias_filler {
      type: "constant"
      value: 0.2
    }
  }
}
layer {
  name: "inception_4e/relu_5x5_reduce"
  type: "ReLU"
  bottom: "inception_4e/5x5_reduce"
  top: "inception_4e/5x5_reduce"
}
layer {
  name: "inception_4e/5x5"
  type: "Convolution"
  bottom: "inception_4e/5x5_reduce"
  top: "inception_4e/
I0403 16:51:57.600909 21531 layer_factory.hpp:77] Creating layer data
I0403 16:51:57.601505 21531 net.cpp:91] Creating Layer data
I0403 16:51:57.601538 21531 net.cpp:399] data -> data
I0403 16:51:57.601588 21531 net.cpp:399] data -> label
I0403 16:51:57.601629 21531 data_transformer.cpp:25] Loading mean file from: /home/mohanty/data/final_dataset/lmdb/grayscale-20-80/mean.binaryproto
I0403 16:51:57.602787 21535 db_lmdb.cpp:38] Opened lmdb /home/mohanty/data/final_dataset/lmdb/grayscale-20-80/test_db
I0403 16:51:57.614204 21531 data_layer.cpp:41] output data size: 24,3,224,224
I0403 16:51:57.640179 21531 net.cpp:141] Setting up data
I0403 16:51:57.640264 21531 net.cpp:148] Top shape: 24 3 224 224 (3612672)
I0403 16:51:57.640286 21531 net.cpp:148] Top shape: 24 (24)
I0403 16:51:57.640301 21531 net.cpp:156] Memory required for data: 14450784
I0403 16:51:57.640328 21531 layer_factory.hpp:77] Creating layer label_data_1_split
I0403 16:51:57.640355 21531 net.cpp:91] Creating Layer label_data_1_split
I0403 16:51:57.640372 21531 net.cpp:425] label_data_1_split <- label
I0403 16:51:57.640403 21531 net.cpp:399] label_data_1_split -> label_data_1_split_0
I0403 16:51:57.640429 21531 net.cpp:399] label_data_1_split -> label_data_1_split_1
I0403 16:51:57.640450 21531 net.cpp:399] label_data_1_split -> label_data_1_split_2
I0403 16:51:57.640470 21531 net.cpp:399] label_data_1_split -> label_data_1_split_3
I0403 16:51:57.640488 21531 net.cpp:399] label_data_1_split -> label_data_1_split_4
I0403 16:51:57.640507 21531 net.cpp:399] label_data_1_split -> label_data_1_split_5
I0403 16:51:57.640527 21531 net.cpp:399] label_data_1_split -> label_data_1_split_6
I0403 16:51:57.640547 21531 net.cpp:399] label_data_1_split -> label_data_1_split_7
I0403 16:51:57.640565 21531 net.cpp:399] label_data_1_split -> label_data_1_split_8
I0403 16:51:57.640584 21531 net.cpp:399] label_data_1_split -> label_data_1_split_9
I0403 16:51:57.640702 21531 net.cpp:141] Setting up label_data_1_split
I0403 16:51:57.640725 21531 net.cpp:148] Top shape: 24 (24)
I0403 16:51:57.640743 21531 net.cpp:148] Top shape: 24 (24)
I0403 16:51:57.640759 21531 net.cpp:148] Top shape: 24 (24)
I0403 16:51:57.640775 21531 net.cpp:148] Top shape: 24 (24)
I0403 16:51:57.640790 21531 net.cpp:148] Top shape: 24 (24)
I0403 16:51:57.640806 21531 net.cpp:148] Top shape: 24 (24)
I0403 16:51:57.640821 21531 net.cpp:148] Top shape: 24 (24)
I0403 16:51:57.640837 21531 net.cpp:148] Top shape: 24 (24)
I0403 16:51:57.640853 21531 net.cpp:148] Top shape: 24 (24)
I0403 16:51:57.640869 21531 net.cpp:148] Top shape: 24 (24)
I0403 16:51:57.640913 21531 net.cpp:156] Memory required for data: 14451744
I0403 16:51:57.640929 21531 layer_factory.hpp:77] Creating layer conv1/7x7_s2
I0403 16:51:57.640961 21531 net.cpp:91] Creating Layer conv1/7x7_s2
I0403 16:51:57.640980 21531 net.cpp:425] conv1/7x7_s2 <- data
I0403 16:51:57.641002 21531 net.cpp:399] conv1/7x7_s2 -> conv1/7x7_s2
I0403 16:51:57.776258 21531 net.cpp:141] Setting up conv1/7x7_s2
I0403 16:51:57.776340 21531 net.cpp:148] Top shape: 24 64 112 112 (19267584)
I0403 16:51:57.776358 21531 net.cpp:156] Memory required for data: 91522080
I0403 16:51:57.776389 21531 layer_factory.hpp:77] Creating layer conv1/relu_7x7
I0403 16:51:57.776417 21531 net.cpp:91] Creating Layer conv1/relu_7x7
I0403 16:51:57.776437 21531 net.cpp:425] conv1/relu_7x7 <- conv1/7x7_s2
I0403 16:51:57.776458 21531 net.cpp:386] conv1/relu_7x7 -> conv1/7x7_s2 (in-place)
I0403 16:51:57.776751 21531 net.cpp:141] Setting up conv1/relu_7x7
I0403 16:51:57.776782 21531 net.cpp:148] Top shape: 24 64 112 112 (19267584)
I0403 16:51:57.776798 21531 net.cpp:156] Memory required for data: 168592416
I0403 16:51:57.776813 21531 layer_factory.hpp:77] Creating layer pool1/3x3_s2
I0403 16:51:57.776839 21531 net.cpp:91] Creating Layer pool1/3x3_s2
I0403 16:51:57.776857 21531 net.cpp:425] pool1/3x3_s2 <- conv1/7x7_s2
I0403 16:51:57.776880 21531 net.cpp:399] pool1/3x3_s2 -> pool1/3x3_s2
I0403 16:51:57.776959 21531 net.cpp:141] Setting up pool1/3x3_s2
I0403 16:51:57.776996 21531 net.cpp:148] Top shape: 24 64 56 56 (4816896)
I0403 16:51:57.777011 21531 net.cpp:156] Memory required for data: 187860000
I0403 16:51:57.777025 21531 layer_factory.hpp:77] Creating layer pool1/norm1
I0403 16:51:57.777055 21531 net.cpp:91] Creating Layer pool1/norm1
I0403 16:51:57.777076 21531 net.cpp:425] pool1/norm1 <- pool1/3x3_s2
I0403 16:51:57.777093 21531 net.cpp:399] pool1/norm1 -> pool1/norm1
I0403 16:51:57.777395 21531 net.cpp:141] Setting up pool1/norm1
I0403 16:51:57.777422 21531 net.cpp:148] Top shape: 24 64 56 56 (4816896)
I0403 16:51:57.777436 21531 net.cpp:156] Memory required for data: 207127584
I0403 16:51:57.777451 21531 layer_factory.hpp:77] Creating layer conv2/3x3_reduce
I0403 16:51:57.777477 21531 net.cpp:91] Creating Layer conv2/3x3_reduce
I0403 16:51:57.777494 21531 net.cpp:425] conv2/3x3_reduce <- pool1/norm1
I0403 16:51:57.777515 21531 net.cpp:399] conv2/3x3_reduce -> conv2/3x3_reduce
I0403 16:51:57.778908 21531 net.cpp:141] Setting up conv2/3x3_reduce
I0403 16:51:57.778939 21531 net.cpp:148] Top shape: 24 64 56 56 (4816896)
I0403 16:51:57.778956 21531 net.cpp:156] Memory required for data: 226395168
I0403 16:51:57.778977 21531 layer_factory.hpp:77] Creating layer conv2/relu_3x3_reduce
I0403 16:51:57.778997 21531 net.cpp:91] Creating Layer conv2/relu_3x3_reduce
I0403 16:51:57.779013 21531 net.cpp:425] conv2/relu_3x3_reduce <- conv2/3x3_reduce
I0403 16:51:57.779031 21531 net.cpp:386] conv2/relu_3x3_reduce -> conv2/3x3_reduce (in-place)
I0403 16:51:57.779302 21531 net.cpp:141] Setting up conv2/relu_3x3_reduce
I0403 16:51:57.779331 21531 net.cpp:148] Top shape: 24 64 56 56 (4816896)
I0403 16:51:57.779347 21531 net.cpp:156] Memory required for data: 245662752
I0403 16:51:57.779362 21531 layer_factory.hpp:77] Creating layer conv2/3x3
I0403 16:51:57.779386 21531 net.cpp:91] Creating Layer conv2/3x3
I0403 16:51:57.779403 21531 net.cpp:425] conv2/3x3 <- conv2/3x3_reduce
I0403 16:51:57.779425 21531 net.cpp:399] conv2/3x3 -> conv2/3x3
I0403 16:51:57.781702 21531 net.cpp:141] Setting up conv2/3x3
I0403 16:51:57.781734 21531 net.cpp:148] Top shape: 24 192 56 56 (14450688)
I0403 16:51:57.781752 21531 net.cpp:156] Memory required for data: 303465504
I0403 16:51:57.781775 21531 layer_factory.hpp:77] Creating layer conv2/relu_3x3
I0403 16:51:57.781795 21531 net.cpp:91] Creating Layer conv2/relu_3x3
I0403 16:51:57.781810 21531 net.cpp:425] conv2/relu_3x3 <- conv2/3x3
I0403 16:51:57.781831 21531 net.cpp:386] conv2/relu_3x3 -> conv2/3x3 (in-place)
I0403 16:51:57.782011 21531 net.cpp:141] Setting up conv2/relu_3x3
I0403 16:51:57.782038 21531 net.cpp:148] Top shape: 24 192 56 56 (14450688)
I0403 16:51:57.782088 21531 net.cpp:156] Memory required for data: 361268256
I0403 16:51:57.782105 21531 layer_factory.hpp:77] Creating layer conv2/norm2
I0403 16:51:57.782125 21531 net.cpp:91] Creating Layer conv2/norm2
I0403 16:51:57.782142 21531 net.cpp:425] conv2/norm2 <- conv2/3x3
I0403 16:51:57.782160 21531 net.cpp:399] conv2/norm2 -> conv2/norm2
I0403 16:51:57.782465 21531 net.cpp:141] Setting up conv2/norm2
I0403 16:51:57.782495 21531 net.cpp:148] Top shape: 24 192 56 56 (14450688)
I0403 16:51:57.782510 21531 net.cpp:156] Memory required for data: 419071008
I0403 16:51:57.782524 21531 layer_factory.hpp:77] Creating layer pool2/3x3_s2
I0403 16:51:57.782542 21531 net.cpp:91] Creating Layer pool2/3x3_s2
I0403 16:51:57.782558 21531 net.cpp:425] pool2/3x3_s2 <- conv2/norm2
I0403 16:51:57.782577 21531 net.cpp:399] pool2/3x3_s2 -> pool2/3x3_s2
I0403 16:51:57.782629 21531 net.cpp:141] Setting up pool2/3x3_s2
I0403 16:51:57.782652 21531 net.cpp:148] Top shape: 24 192 28 28 (3612672)
I0403 16:51:57.782667 21531 net.cpp:156] Memory required for data: 433521696
I0403 16:51:57.782681 21531 layer_factory.hpp:77] Creating layer pool2/3x3_s2_pool2/3x3_s2_0_split
I0403 16:51:57.782699 21531 net.cpp:91] Creating Layer pool2/3x3_s2_pool2/3x3_s2_0_split
I0403 16:51:57.782714 21531 net.cpp:425] pool2/3x3_s2_pool2/3x3_s2_0_split <- pool2/3x3_s2
I0403 16:51:57.782734 21531 net.cpp:399] pool2/3x3_s2_pool2/3x3_s2_0_split -> pool2/3x3_s2_pool2/3x3_s2_0_split_0
I0403 16:51:57.782755 21531 net.cpp:399] pool2/3x3_s2_pool2/3x3_s2_0_split -> pool2/3x3_s2_pool2/3x3_s2_0_split_1
I0403 16:51:57.782775 21531 net.cpp:399] pool2/3x3_s2_pool2/3x3_s2_0_split -> pool2/3x3_s2_pool2/3x3_s2_0_split_2
I0403 16:51:57.782794 21531 net.cpp:399] pool2/3x3_s2_pool2/3x3_s2_0_split -> pool2/3x3_s2_pool2/3x3_s2_0_split_3
I0403 16:51:57.782867 21531 net.cpp:141] Setting up pool2/3x3_s2_pool2/3x3_s2_0_split
I0403 16:51:57.782891 21531 net.cpp:148] Top shape: 24 192 28 28 (3612672)
I0403 16:51:57.782907 21531 net.cpp:148] Top shape: 24 192 28 28 (3612672)
I0403 16:51:57.782922 21531 net.cpp:148] Top shape: 24 192 28 28 (3612672)
I0403 16:51:57.782938 21531 net.cpp:148] Top shape: 24 192 28 28 (3612672)
I0403 16:51:57.782951 21531 net.cpp:156] Memory required for data: 491324448
I0403 16:51:57.782965 21531 layer_factory.hpp:77] Creating layer inception_3a/1x1
I0403 16:51:57.782987 21531 net.cpp:91] Creating Layer inception_3a/1x1
I0403 16:51:57.783004 21531 net.cpp:425] inception_3a/1x1 <- pool2/3x3_s2_pool2/3x3_s2_0_split_0
I0403 16:51:57.783025 21531 net.cpp:399] inception_3a/1x1 -> inception_3a/1x1
I0403 16:51:57.784557 21531 net.cpp:141] Setting up inception_3a/1x1
I0403 16:51:57.784589 21531 net.cpp:148] Top shape: 24 64 28 28 (1204224)
I0403 16:51:57.784605 21531 net.cpp:156] Memory required for data: 496141344
I0403 16:51:57.784624 21531 layer_factory.hpp:77] Creating layer inception_3a/relu_1x1
I0403 16:51:57.784643 21531 net.cpp:91] Creating Layer inception_3a/relu_1x1
I0403 16:51:57.784658 21531 net.cpp:425] inception_3a/relu_1x1 <- inception_3a/1x1
I0403 16:51:57.784678 21531 net.cpp:386] inception_3a/relu_1x1 -> inception_3a/1x1 (in-place)
I0403 16:51:57.784876 21531 net.cpp:141] Setting up inception_3a/relu_1x1
I0403 16:51:57.784903 21531 net.cpp:148] Top shape: 24 64 28 28 (1204224)
I0403 16:51:57.784919 21531 net.cpp:156] Memory required for data: 500958240
I0403 16:51:57.784934 21531 layer_factory.hpp:77] Creating layer inception_3a/3x3_reduce
I0403 16:51:57.784963 21531 net.cpp:91] Creating Layer inception_3a/3x3_reduce
I0403 16:51:57.784982 21531 net.cpp:425] inception_3a/3x3_reduce <- pool2/3x3_s2_pool2/3x3_s2_0_split_1
I0403 16:51:57.785004 21531 net.cpp:399] inception_3a/3x3_reduce -> inception_3a/3x3_reduce
I0403 16:51:57.786743 21531 net.cpp:141] Setting up inception_3a/3x3_reduce
I0403 16:51:57.786777 21531 net.cpp:148] Top shape: 24 96 28 28 (1806336)
I0403 16:51:57.786795 21531 net.cpp:156] Memory required for data: 508183584
I0403 16:51:57.786816 21531 layer_factory.hpp:77] Creating layer inception_3a/relu_3x3_reduce
I0403 16:51:57.786851 21531 net.cpp:91] Creating Layer inception_3a/relu_3x3_reduce
I0403 16:51:57.786870 21531 net.cpp:425] inception_3a/relu_3x3_reduce <- inception_3a/3x3_reduce
I0403 16:51:57.786888 21531 net.cpp:386] inception_3a/relu_3x3_reduce -> inception_3a/3x3_reduce (in-place)
I0403 16:51:57.787072 21531 net.cpp:141] Setting up inception_3a/relu_3x3_reduce
I0403 16:51:57.787099 21531 net.cpp:148] Top shape: 24 96 28 28 (1806336)
I0403 16:51:57.787117 21531 net.cpp:156] Memory required for data: 515408928
I0403 16:51:57.787132 21531 layer_factory.hpp:77] Creating layer inception_3a/3x3
I0403 16:51:57.787152 21531 net.cpp:91] Creating Layer inception_3a/3x3
I0403 16:51:57.787169 21531 net.cpp:425] inception_3a/3x3 <- inception_3a/3x3_reduce
I0403 16:51:57.787191 21531 net.cpp:399] inception_3a/3x3 -> inception_3a/3x3
I0403 16:51:57.788795 21531 net.cpp:141] Setting up inception_3a/3x3
I0403 16:51:57.788826 21531 net.cpp:148] Top shape: 24 128 28 28 (2408448)
I0403 16:51:57.788843 21531 net.cpp:156] Memory required for data: 525042720
I0403 16:51:57.788861 21531 layer_factory.hpp:77] Creating layer inception_3a/relu_3x3
I0403 16:51:57.788879 21531 net.cpp:91] Creating Layer inception_3a/relu_3x3
I0403 16:51:57.788894 21531 net.cpp:425] inception_3a/relu_3x3 <- inception_3a/3x3
I0403 16:51:57.788913 21531 net.cpp:386] inception_3a/relu_3x3 -> inception_3a/3x3 (in-place)
I0403 16:51:57.789181 21531 net.cpp:141] Setting up inception_3a/relu_3x3
I0403 16:51:57.789208 21531 net.cpp:148] Top shape: 24 128 28 28 (2408448)
I0403 16:51:57.789224 21531 net.cpp:156] Memory required for data: 534676512
I0403 16:51:57.789238 21531 layer_factory.hpp:77] Creating layer inception_3a/5x5_reduce
I0403 16:51:57.789260 21531 net.cpp:91] Creating Layer inception_3a/5x5_reduce
I0403 16:51:57.789278 21531 net.cpp:425] inception_3a/5x5_reduce <- pool2/3x3_s2_pool2/3x3_s2_0_split_2
I0403 16:51:57.789295 21531 net.cpp:399] inception_3a/5x5_reduce -> inception_3a/5x5_reduce
I0403 16:51:57.790227 21531 net.cpp:141] Setting up inception_3a/5x5_reduce
I0403 16:51:57.790256 21531 net.cpp:148] Top shape: 24 16 28 28 (301056)
I0403 16:51:57.790271 21531 net.cpp:156] Memory required for data: 535880736
I0403 16:51:57.790288 21531 layer_factory.hpp:77] Creating layer inception_3a/relu_5x5_reduce
I0403 16:51:57.790307 21531 net.cpp:91] Creating Layer inception_3a/relu_5x5_reduce
I0403 16:51:57.790326 21531 net.cpp:425] inception_3a/relu_5x5_reduce <- inception_3a/5x5_reduce
I0403 16:51:57.790344 21531 net.cpp:386] inception_3a/relu_5x5_reduce -> inception_3a/5x5_reduce (in-place)
I0403 16:51:57.790632 21531 net.cpp:141] Setting up inception_3a/relu_5x5_reduce
I0403 16:51:57.790657 21531 net.cpp:148] Top shape: 24 16 28 28 (301056)
I0403 16:51:57.790673 21531 net.cpp:156] Memory required for data: 537084960
I0403 16:51:57.790686 21531 layer_factory.hpp:77] Creating layer inception_3a/5x5
I0403 16:51:57.790707 21531 net.cpp:91] Creating Layer inception_3a/5x5
I0403 16:51:57.790724 21531 net.cpp:425] inception_3a/5x5 <- inception_3a/5x5_reduce
I0403 16:51:57.790743 21531 net.cpp:399] inception_3a/5x5 -> inception_3a/5x5
I0403 16:51:57.791729 21531 net.cpp:141] Setting up inception_3a/5x5
I0403 16:51:57.791759 21531 net.cpp:148] Top shape: 24 32 28 28 (602112)
I0403 16:51:57.791775 21531 net.cpp:156] Memory required for data: 539493408
I0403 16:51:57.791793 21531 layer_factory.hpp:77] Creating layer inception_3a/relu_5x5
I0403 16:51:57.791812 21531 net.cpp:91] Creating Layer inception_3a/relu_5x5
I0403 16:51:57.791828 21531 net.cpp:425] inception_3a/relu_5x5 <- inception_3a/5x5
I0403 16:51:57.791847 21531 net.cpp:386] inception_3a/relu_5x5 -> inception_3a/5x5 (in-place)
I0403 16:51:57.792013 21531 net.cpp:141] Setting up inception_3a/relu_5x5
I0403 16:51:57.792037 21531 net.cpp:148] Top shape: 24 32 28 28 (602112)
I0403 16:51:57.792055 21531 net.cpp:156] Memory required for data: 541901856
I0403 16:51:57.792071 21531 layer_factory.hpp:77] Creating layer inception_3a/pool
I0403 16:51:57.792088 21531 net.cpp:91] Creating Layer inception_3a/pool
I0403 16:51:57.792116 21531 net.cpp:425] inception_3a/pool <- pool2/3x3_s2_pool2/3x3_s2_0_split_3
I0403 16:51:57.792137 21531 net.cpp:399] inception_3a/pool -> inception_3a/pool
I0403 16:51:57.792194 21531 net.cpp:141] Setting up inception_3a/pool
I0403 16:51:57.792217 21531 net.cpp:148] Top shape: 24 192 28 28 (3612672)
I0403 16:51:57.792230 21531 net.cpp:156] Memory required for data: 556352544
I0403 16:51:57.792245 21531 layer_factory.hpp:77] Creating layer inception_3a/pool_proj
I0403 16:51:57.792269 21531 net.cpp:91] Creating Layer inception_3a/pool_proj
I0403 16:51:57.792285 21531 net.cpp:425] inception_3a/pool_proj <- inception_3a/pool
I0403 16:51:57.792304 21531 net.cpp:399] inception_3a/pool_proj -> inception_3a/pool_proj
I0403 16:51:57.793246 21531 net.cpp:141] Setting up inception_3a/pool_proj
I0403 16:51:57.793274 21531 net.cpp:148] Top shape: 24 32 28 28 (602112)
I0403 16:51:57.793289 21531 net.cpp:156] Memory required for data: 558760992
I0403 16:51:57.793313 21531 layer_factory.hpp:77] Creating layer inception_3a/relu_pool_proj
I0403 16:51:57.793334 21531 net.cpp:91] Creating Layer inception_3a/relu_pool_proj
I0403 16:51:57.793349 21531 net.cpp:425] inception_3a/relu_pool_proj <- inception_3a/pool_proj
I0403 16:51:57.793366 21531 net.cpp:386] inception_3a/relu_pool_proj -> inception_3a/pool_proj (in-place)
I0403 16:51:57.793638 21531 net.cpp:141] Setting up inception_3a/relu_pool_proj
I0403 16:51:57.793665 21531 net.cpp:148] Top shape: 24 32 28 28 (602112)
I0403 16:51:57.793680 21531 net.cpp:156] Memory required for data: 561169440
I0403 16:51:57.793695 21531 layer_factory.hpp:77] Creating layer inception_3a/output
I0403 16:51:57.793712 21531 net.cpp:91] Creating Layer inception_3a/output
I0403 16:51:57.793727 21531 net.cpp:425] inception_3a/output <- inception_3a/1x1
I0403 16:51:57.793742 21531 net.cpp:425] inception_3a/output <- inception_3a/3x3
I0403 16:51:57.793757 21531 net.cpp:425] inception_3a/output <- inception_3a/5x5
I0403 16:51:57.793773 21531 net.cpp:425] inception_3a/output <- inception_3a/pool_proj
I0403 16:51:57.793792 21531 net.cpp:399] inception_3a/output -> inception_3a/output
I0403 16:51:57.793836 21531 net.cpp:141] Setting up inception_3a/output
I0403 16:51:57.793859 21531 net.cpp:148] Top shape: 24 256 28 28 (4816896)
I0403 16:51:57.793871 21531 net.cpp:156] Memory required for data: 580437024
I0403 16:51:57.793885 21531 layer_factory.hpp:77] Creating layer inception_3a/output_inception_3a/output_0_split
I0403 16:51:57.793905 21531 net.cpp:91] Creating Layer inception_3a/output_inception_3a/output_0_split
I0403 16:51:57.793920 21531 net.cpp:425] inception_3a/output_inception_3a/output_0_split <- inception_3a/output
I0403 16:51:57.793937 21531 net.cpp:399] inception_3a/output_inception_3a/output_0_split -> inception_3a/output_inception_3a/output_0_split_0
I0403 16:51:57.793956 21531 net.cpp:399] inception_3a/output_inception_3a/output_0_split -> inception_3a/output_inception_3a/output_0_split_1
I0403 16:51:57.793979 21531 net.cpp:399] inception_3a/output_inception_3a/output_0_split -> inception_3a/output_inception_3a/output_0_split_2
I0403 16:51:57.794001 21531 net.cpp:399] inception_3a/output_inception_3a/output_0_split -> inception_3a/output_inception_3a/output_0_split_3
I0403 16:51:57.794076 21531 net.cpp:141] Setting up inception_3a/output_inception_3a/output_0_split
I0403 16:51:57.794102 21531 net.cpp:148] Top shape: 24 256 28 28 (4816896)
I0403 16:51:57.794119 21531 net.cpp:148] Top shape: 24 256 28 28 (4816896)
I0403 16:51:57.794134 21531 net.cpp:148] Top shape: 24 256 28 28 (4816896)
I0403 16:51:57.794149 21531 net.cpp:148] Top shape: 24 256 28 28 (4816896)
I0403 16:51:57.794162 21531 net.cpp:156] Memory required for data: 657507360
I0403 16:51:57.794176 21531 layer_factory.hpp:77] Creating layer inception_3b/1x1
I0403 16:51:57.794198 21531 net.cpp:91] Creating Layer inception_3b/1x1
I0403 16:51:57.794214 21531 net.cpp:425] inception_3b/1x1 <- inception_3a/output_inception_3a/output_0_split_0
I0403 16:51:57.794232 21531 net.cpp:399] inception_3b/1x1 -> inception_3b/1x1
I0403 16:51:57.795332 21531 net.cpp:141] Setting up inception_3b/1x1
I0403 16:51:57.795377 21531 net.cpp:148] Top shape: 24 128 28 28 (2408448)
I0403 16:51:57.795392 21531 net.cpp:156] Memory required for data: 667141152
I0403 16:51:57.795410 21531 layer_factory.hpp:77] Creating layer inception_3b/relu_1x1
I0403 16:51:57.795428 21531 net.cpp:91] Creating Layer inception_3b/relu_1x1
I0403 16:51:57.795442 21531 net.cpp:425] inception_3b/relu_1x1 <- inception_3b/1x1
I0403 16:51:57.795459 21531 net.cpp:386] inception_3b/relu_1x1 -> inception_3b/1x1 (in-place)
I0403 16:51:57.795629 21531 net.cpp:141] Setting up inception_3b/relu_1x1
I0403 16:51:57.795655 21531 net.cpp:148] Top shape: 24 128 28 28 (2408448)
I0403 16:51:57.795671 21531 net.cpp:156] Memory required for data: 676774944
I0403 16:51:57.795686 21531 layer_factory.hpp:77] Creating layer inception_3b/3x3_reduce
I0403 16:51:57.795706 21531 net.cpp:91] Creating Layer inception_3b/3x3_reduce
I0403 16:51:57.795723 21531 net.cpp:425] inception_3b/3x3_reduce <- inception_3a/output_inception_3a/output_0_split_1
I0403 16:51:57.795743 21531 net.cpp:399] inception_3b/3x3_reduce -> inception_3b/3x3_reduce
I0403 16:51:57.796861 21531 net.cpp:141] Setting up inception_3b/3x3_reduce
I0403 16:51:57.796890 21531 net.cpp:148] Top shape: 24 128 28 28 (2408448)
I0403 16:51:57.796905 21531 net.cpp:156] Memory required for data: 686408736
I0403 16:51:57.796923 21531 layer_factory.hpp:77] Creating layer inception_3b/relu_3x3_reduce
I0403 16:51:57.796943 21531 net.cpp:91] Creating Layer inception_3b/relu_3x3_reduce
I0403 16:51:57.796959 21531 net.cpp:425] inception_3b/relu_3x3_reduce <- inception_3b/3x3_reduce
I0403 16:51:57.796975 21531 net.cpp:386] inception_3b/relu_3x3_reduce -> inception_3b/3x3_reduce (in-place)
I0403 16:51:57.797152 21531 net.cpp:141] Setting up inception_3b/relu_3x3_reduce
I0403 16:51:57.797175 21531 net.cpp:148] Top shape: 24 128 28 28 (2408448)
I0403 16:51:57.797190 21531 net.cpp:156] Memory required for data: 696042528
I0403 16:51:57.797204 21531 layer_factory.hpp:77] Creating layer inception_3b/3x3
I0403 16:51:57.797226 21531 net.cpp:91] Creating Layer inception_3b/3x3
I0403 16:51:57.797245 21531 net.cpp:425] inception_3b/3x3 <- inception_3b/3x3_reduce
I0403 16:51:57.797265 21531 net.cpp:399] inception_3b/3x3 -> inception_3b/3x3
I0403 16:51:57.800084 21531 net.cpp:141] Setting up inception_3b/3x3
I0403 16:51:57.800115 21531 net.cpp:148] Top shape: 24 192 28 28 (3612672)
I0403 16:51:57.800132 21531 net.cpp:156] Memory required for data: 710493216
I0403 16:51:57.800149 21531 layer_factory.hpp:77] Creating layer inception_3b/relu_3x3
I0403 16:51:57.800166 21531 net.cpp:91] Creating Layer inception_3b/relu_3x3
I0403 16:51:57.800181 21531 net.cpp:425] inception_3b/relu_3x3 <- inception_3b/3x3
I0403 16:51:57.800200 21531 net.cpp:386] inception_3b/relu_3x3 -> inception_3b/3x3 (in-place)
I0403 16:51:57.800472 21531 net.cpp:141] Setting up inception_3b/relu_3x3
I0403 16:51:57.800499 21531 net.cpp:148] Top shape: 24 192 28 28 (3612672)
I0403 16:51:57.800514 21531 net.cpp:156] Memory required for data: 724943904
I0403 16:51:57.800529 21531 layer_factory.hpp:77] Creating layer inception_3b/5x5_reduce
I0403 16:51:57.800554 21531 net.cpp:91] Creating Layer inception_3b/5x5_reduce
I0403 16:51:57.800570 21531 net.cpp:425] inception_3b/5x5_reduce <- inception_3a/output_inception_3a/output_0_split_2
I0403 16:51:57.800588 21531 net.cpp:399] inception_3b/5x5_reduce -> inception_3b/5x5_reduce
I0403 16:51:57.801563 21531 net.cpp:141] Setting up inception_3b/5x5_reduce
I0403 16:51:57.801594 21531 net.cpp:148] Top shape: 24 32 28 28 (602112)
I0403 16:51:57.801610 21531 net.cpp:156] Memory required for data: 727352352
I0403 16:51:57.801630 21531 layer_factory.hpp:77] Creating layer inception_3b/relu_5x5_reduce
I0403 16:51:57.801646 21531 net.cpp:91] Creating Layer inception_3b/relu_5x5_reduce
I0403 16:51:57.801662 21531 net.cpp:425] inception_3b/relu_5x5_reduce <- inception_3b/5x5_reduce
I0403 16:51:57.801681 21531 net.cpp:386] inception_3b/relu_5x5_reduce -> inception_3b/5x5_reduce (in-place)
I0403 16:51:57.801865 21531 net.cpp:141] Setting up inception_3b/relu_5x5_reduce
I0403 16:51:57.801889 21531 net.cpp:148] Top shape: 24 32 28 28 (602112)
I0403 16:51:57.801903 21531 net.cpp:156] Memory required for data: 729760800
I0403 16:51:57.801918 21531 layer_factory.hpp:77] Creating layer inception_3b/5x5
I0403 16:51:57.801947 21531 net.cpp:91] Creating Layer inception_3b/5x5
I0403 16:51:57.801965 21531 net.cpp:425] inception_3b/5x5 <- inception_3b/5x5_reduce
I0403 16:51:57.801985 21531 net.cpp:399] inception_3b/5x5 -> inception_3b/5x5
I0403 16:51:57.803889 21531 net.cpp:141] Setting up inception_3b/5x5
I0403 16:51:57.803917 21531 net.cpp:148] Top shape: 24 96 28 28 (1806336)
I0403 16:51:57.803933 21531 net.cpp:156] Memory required for data: 736986144
I0403 16:51:57.803951 21531 layer_factory.hpp:77] Creating layer inception_3b/relu_5x5
I0403 16:51:57.803971 21531 net.cpp:91] Creating Layer inception_3b/relu_5x5
I0403 16:51:57.803987 21531 net.cpp:425] inception_3b/relu_5x5 <- inception_3b/5x5
I0403 16:51:57.804003 21531 net.cpp:386] inception_3b/relu_5x5 -> inception_3b/5x5 (in-place)
I0403 16:51:57.804191 21531 net.cpp:141] Setting up inception_3b/relu_5x5
I0403 16:51:57.804216 21531 net.cpp:148] Top shape: 24 96 28 28 (1806336)
I0403 16:51:57.804230 21531 net.cpp:156] Memory required for data: 744211488
I0403 16:51:57.804244 21531 layer_factory.hpp:77] Creating layer inception_3b/pool
I0403 16:51:57.804261 21531 net.cpp:91] Creating Layer inception_3b/pool
I0403 16:51:57.804276 21531 net.cpp:425] inception_3b/pool <- inception_3a/output_inception_3a/output_0_split_3
I0403 16:51:57.804293 21531 net.cpp:399] inception_3b/pool -> inception_3b/pool
I0403 16:51:57.804347 21531 net.cpp:141] Setting up inception_3b/pool
I0403 16:51:57.804369 21531 net.cpp:148] Top shape: 24 256 28 28 (4816896)
I0403 16:51:57.804383 21531 net.cpp:156] Memory required for data: 763479072
I0403 16:51:57.804396 21531 layer_factory.hpp:77] Creating layer inception_3b/pool_proj
I0403 16:51:57.804419 21531 net.cpp:91] Creating Layer inception_3b/pool_proj
I0403 16:51:57.804436 21531 net.cpp:425] inception_3b/pool_proj <- inception_3b/pool
I0403 16:51:57.804455 21531 net.cpp:399] inception_3b/pool_proj -> inception_3b/pool_proj
I0403 16:51:57.805490 21531 net.cpp:141] Setting up inception_3b/pool_proj
I0403 16:51:57.805517 21531 net.cpp:148] Top shape: 24 64 28 28 (1204224)
I0403 16:51:57.805532 21531 net.cpp:156] Memory required for data: 768295968
I0403 16:51:57.805551 21531 layer_factory.hpp:77] Creating layer inception_3b/relu_pool_proj
I0403 16:51:57.805569 21531 net.cpp:91] Creating Layer inception_3b/relu_pool_proj
I0403 16:51:57.805585 21531 net.cpp:425] inception_3b/relu_pool_proj <- inception_3b/pool_proj
I0403 16:51:57.805603 21531 net.cpp:386] inception_3b/relu_pool_proj -> inception_3b/pool_proj (in-place)
I0403 16:51:57.805987 21531 net.cpp:141] Setting up inception_3b/relu_pool_proj
I0403 16:51:57.806013 21531 net.cpp:148] Top shape: 24 64 28 28 (1204224)
I0403 16:51:57.806027 21531 net.cpp:156] Memory required for data: 773112864
I0403 16:51:57.806042 21531 layer_factory.hpp:77] Creating layer inception_3b/output
I0403 16:51:57.806064 21531 net.cpp:91] Creating Layer inception_3b/output
I0403 16:51:57.806080 21531 net.cpp:425] inception_3b/output <- inception_3b/1x1
I0403 16:51:57.806097 21531 net.cpp:425] inception_3b/output <- inception_3b/3x3
I0403 16:51:57.806113 21531 net.cpp:425] inception_3b/output <- inception_3b/5x5
I0403 16:51:57.806128 21531 net.cpp:425] inception_3b/output <- inception_3b/pool_proj
I0403 16:51:57.806146 21531 net.cpp:399] inception_3b/output -> inception_3b/output
I0403 16:51:57.806188 21531 net.cpp:141] Setting up inception_3b/output
I0403 16:51:57.806213 21531 net.cpp:148] Top shape: 24 480 28 28 (9031680)
I0403 16:51:57.806228 21531 net.cpp:156] Memory required for data: 809239584
I0403 16:51:57.806243 21531 layer_factory.hpp:77] Creating layer pool3/3x3_s2
I0403 16:51:57.806259 21531 net.cpp:91] Creating Layer pool3/3x3_s2
I0403 16:51:57.806274 21531 net.cpp:425] pool3/3x3_s2 <- inception_3b/output
I0403 16:51:57.806308 21531 net.cpp:399] pool3/3x3_s2 -> pool3/3x3_s2
I0403 16:51:57.806365 21531 net.cpp:141] Setting up pool3/3x3_s2
I0403 16:51:57.806387 21531 net.cpp:148] Top shape: 24 480 14 14 (2257920)
I0403 16:51:57.806401 21531 net.cpp:156] Memory required for data: 818271264
I0403 16:51:57.806416 21531 layer_factory.hpp:77] Creating layer pool3/3x3_s2_pool3/3x3_s2_0_split
I0403 16:51:57.806437 21531 net.cpp:91] Creating Layer pool3/3x3_s2_pool3/3x3_s2_0_split
I0403 16:51:57.806452 21531 net.cpp:425] pool3/3x3_s2_pool3/3x3_s2_0_split <- pool3/3x3_s2
I0403 16:51:57.806468 21531 net.cpp:399] pool3/3x3_s2_pool3/3x3_s2_0_split -> pool3/3x3_s2_pool3/3x3_s2_0_split_0
I0403 16:51:57.806486 21531 net.cpp:399] pool3/3x3_s2_pool3/3x3_s2_0_split -> pool3/3x3_s2_pool3/3x3_s2_0_split_1
I0403 16:51:57.806504 21531 net.cpp:399] pool3/3x3_s2_pool3/3x3_s2_0_split -> pool3/3x3_s2_pool3/3x3_s2_0_split_2
I0403 16:51:57.806525 21531 net.cpp:399] pool3/3x3_s2_pool3/3x3_s2_0_split -> pool3/3x3_s2_pool3/3x3_s2_0_split_3
I0403 16:51:57.806599 21531 net.cpp:141] Setting up pool3/3x3_s2_pool3/3x3_s2_0_split
I0403 16:51:57.806622 21531 net.cpp:148] Top shape: 24 480 14 14 (2257920)
I0403 16:51:57.806638 21531 net.cpp:148] Top shape: 24 480 14 14 (2257920)
I0403 16:51:57.806653 21531 net.cpp:148] Top shape: 24 480 14 14 (2257920)
I0403 16:51:57.806666 21531 net.cpp:148] Top shape: 24 480 14 14 (2257920)
I0403 16:51:57.806679 21531 net.cpp:156] Memory required for data: 854397984
I0403 16:51:57.806694 21531 layer_factory.hpp:77] Creating layer inception_4a/1x1
I0403 16:51:57.806715 21531 net.cpp:91] Creating Layer inception_4a/1x1
I0403 16:51:57.806732 21531 net.cpp:425] inception_4a/1x1 <- pool3/3x3_s2_pool3/3x3_s2_0_split_0
I0403 16:51:57.806752 21531 net.cpp:399] inception_4a/1x1 -> inception_4a/1x1
I0403 16:51:57.808320 21531 net.cpp:141] Setting up inception_4a/1x1
I0403 16:51:57.808348 21531 net.cpp:148] Top shape: 24 192 14 14 (903168)
I0403 16:51:57.808364 21531 net.cpp:156] Memory required for data: 858010656
I0403 16:51:57.808383 21531 layer_factory.hpp:77] Creating layer inception_4a/relu_1x1
I0403 16:51:57.808403 21531 net.cpp:91] Creating Layer inception_4a/relu_1x1
I0403 16:51:57.808420 21531 net.cpp:425] inception_4a/relu_1x1 <- inception_4a/1x1
I0403 16:51:57.808439 21531 net.cpp:386] inception_4a/relu_1x1 -> inception_4a/1x1 (in-place)
I0403 16:51:57.808611 21531 net.cpp:141] Setting up inception_4a/relu_1x1
I0403 16:51:57.808639 21531 net.cpp:148] Top shape: 24 192 14 14 (903168)
I0403 16:51:57.808653 21531 net.cpp:156] Memory required for data: 861623328
I0403 16:51:57.808667 21531 layer_factory.hpp:77] Creating layer inception_4a/3x3_reduce
I0403 16:51:57.808688 21531 net.cpp:91] Creating Layer inception_4a/3x3_reduce
I0403 16:51:57.808706 21531 net.cpp:425] inception_4a/3x3_reduce <- pool3/3x3_s2_pool3/3x3_s2_0_split_1
I0403 16:51:57.808723 21531 net.cpp:399] inception_4a/3x3_reduce -> inception_4a/3x3_reduce
I0403 16:51:57.809950 21531 net.cpp:141] Setting up inception_4a/3x3_reduce
I0403 16:51:57.809978 21531 net.cpp:148] Top shape: 24 96 14 14 (451584)
I0403 16:51:57.809993 21531 net.cpp:156] Memory required for data: 863429664
I0403 16:51:57.810016 21531 layer_factory.hpp:77] Creating layer inception_4a/relu_3x3_reduce
I0403 16:51:57.810036 21531 net.cpp:91] Creating Layer inception_4a/relu_3x3_reduce
I0403 16:51:57.810055 21531 net.cpp:425] inception_4a/relu_3x3_reduce <- inception_4a/3x3_reduce
I0403 16:51:57.810075 21531 net.cpp:386] inception_4a/relu_3x3_reduce -> inception_4a/3x3_reduce (in-place)
I0403 16:51:57.810245 21531 net.cpp:141] Setting up inception_4a/relu_3x3_reduce
I0403 16:51:57.810269 21531 net.cpp:148] Top shape: 24 96 14 14 (451584)
I0403 16:51:57.810286 21531 net.cpp:156] Memory required for data: 865236000
I0403 16:51:57.810300 21531 layer_factory.hpp:77] Creating layer inception_4a/3x3
I0403 16:51:57.810319 21531 net.cpp:91] Creating Layer inception_4a/3x3
I0403 16:51:57.810335 21531 net.cpp:425] inception_4a/3x3 <- inception_4a/3x3_reduce
I0403 16:51:57.810356 21531 net.cpp:399] inception_4a/3x3 -> inception_4a/3x3
I0403 16:51:57.812927 21531 net.cpp:141] Setting up inception_4a/3x3
I0403 16:51:57.812957 21531 net.cpp:148] Top shape: 24 208 14 14 (978432)
I0403 16:51:57.812971 21531 net.cpp:156] Memory required for data: 869149728
I0403 16:51:57.812989 21531 layer_factory.hpp:77] Creating layer inception_4a/relu_3x3
I0403 16:51:57.813009 21531 net.cpp:91] Creating Layer inception_4a/relu_3x3
I0403 16:51:57.813025 21531 net.cpp:425] inception_4a/relu_3x3 <- inception_4a/3x3
I0403 16:51:57.813042 21531 net.cpp:386] inception_4a/relu_3x3 -> inception_4a/3x3 (in-place)
I0403 16:51:57.813328 21531 net.cpp:141] Setting up inception_4a/relu_3x3
I0403 16:51:57.813362 21531 net.cpp:148] Top shape: 24 208 14 14 (978432)
I0403 16:51:57.813376 21531 net.cpp:156] Memory required for data: 873063456
I0403 16:51:57.813390 21531 layer_factory.hpp:77] Creating layer inception_4a/5x5_reduce
I0403 16:51:57.813415 21531 net.cpp:91] Creating Layer inception_4a/5x5_reduce
I0403 16:51:57.813431 21531 net.cpp:425] inception_4a/5x5_reduce <- pool3/3x3_s2_pool3/3x3_s2_0_split_2
I0403 16:51:57.813451 21531 net.cpp:399] inception_4a/5x5_reduce -> inception_4a/5x5_reduce
I0403 16:51:57.814517 21531 net.cpp:141] Setting up inception_4a/5x5_reduce
I0403 16:51:57.814548 21531 net.cpp:148] Top shape: 24 16 14 14 (75264)
I0403 16:51:57.814563 21531 net.cpp:156] Memory required for data: 873364512
I0403 16:51:57.814582 21531 layer_factory.hpp:77] Creating layer inception_4a/relu_5x5_reduce
I0403 16:51:57.814600 21531 net.cpp:91] Creating Layer inception_4a/relu_5x5_reduce
I0403 16:51:57.814616 21531 net.cpp:425] inception_4a/relu_5x5_reduce <- inception_4a/5x5_reduce
I0403 16:51:57.814635 21531 net.cpp:386] inception_4a/relu_5x5_reduce -> inception_4a/5x5_reduce (in-place)
I0403 16:51:57.814815 21531 net.cpp:141] Setting up inception_4a/relu_5x5_reduce
I0403 16:51:57.814841 21531 net.cpp:148] Top shape: 24 16 14 14 (75264)
I0403 16:51:57.814854 21531 net.cpp:156] Memory required for data: 873665568
I0403 16:51:57.814868 21531 layer_factory.hpp:77] Creating layer inception_4a/5x5
I0403 16:51:57.814890 21531 net.cpp:91] Creating Layer inception_4a/5x5
I0403 16:51:57.814908 21531 net.cpp:425] inception_4a/5x5 <- inception_4a/5x5_reduce
I0403 16:51:57.814929 21531 net.cpp:399] inception_4a/5x5 -> inception_4a/5x5
I0403 16:51:57.816017 21531 net.cpp:141] Setting up inception_4a/5x5
I0403 16:51:57.816045 21531 net.cpp:148] Top shape: 24 48 14 14 (225792)
I0403 16:51:57.816067 21531 net.cpp:156] Memory required for data: 874568736
I0403 16:51:57.816087 21531 layer_factory.hpp:77] Creating layer inception_4a/relu_5x5
I0403 16:51:57.816107 21531 net.cpp:91] Creating Layer inception_4a/relu_5x5
I0403 16:51:57.816124 21531 net.cpp:425] inception_4a/relu_5x5 <- inception_4a/5x5
I0403 16:51:57.816143 21531 net.cpp:386] inception_4a/relu_5x5 -> inception_4a/5x5 (in-place)
I0403 16:51:57.816318 21531 net.cpp:141] Setting up inception_4a/relu_5x5
I0403 16:51:57.816344 21531 net.cpp:148] Top shape: 24 48 14 14 (225792)
I0403 16:51:57.816359 21531 net.cpp:156] Memory required for data: 875471904
I0403 16:51:57.816375 21531 layer_factory.hpp:77] Creating layer inception_4a/pool
I0403 16:51:57.816395 21531 net.cpp:91] Creating Layer inception_4a/pool
I0403 16:51:57.816413 21531 net.cpp:425] inception_4a/pool <- pool3/3x3_s2_pool3/3x3_s2_0_split_3
I0403 16:51:57.816432 21531 net.cpp:399] inception_4a/pool -> inception_4a/pool
I0403 16:51:57.816494 21531 net.cpp:141] Setting up inception_4a/pool
I0403 16:51:57.816519 21531 net.cpp:148] Top shape: 24 480 14 14 (2257920)
I0403 16:51:57.816535 21531 net.cpp:156] Memory required for data: 884503584
I0403 16:51:57.816550 21531 layer_factory.hpp:77] Creating layer inception_4a/pool_proj
I0403 16:51:57.816572 21531 net.cpp:91] Creating Layer inception_4a/pool_proj
I0403 16:51:57.816591 21531 net.cpp:425] inception_4a/pool_proj <- inception_4a/pool
I0403 16:51:57.816612 21531 net.cpp:399] inception_4a/pool_proj -> inception_4a/pool_proj
I0403 16:51:57.817803 21531 net.cpp:141] Setting up inception_4a/pool_proj
I0403 16:51:57.817831 21531 net.cpp:148] Top shape: 24 64 14 14 (301056)
I0403 16:51:57.817860 21531 net.cpp:156] Memory required for data: 885707808
I0403 16:51:57.817879 21531 layer_factory.hpp:77] Creating layer inception_4a/relu_pool_proj
I0403 16:51:57.817900 21531 net.cpp:91] Creating Layer inception_4a/relu_pool_proj
I0403 16:51:57.817916 21531 net.cpp:425] inception_4a/relu_pool_proj <- inception_4a/pool_proj
I0403 16:51:57.817934 21531 net.cpp:386] inception_4a/relu_pool_proj -> inception_4a/pool_proj (in-place)
I0403 16:51:57.818213 21531 net.cpp:141] Setting up inception_4a/relu_pool_proj
I0403 16:51:57.818238 21531 net.cpp:148] Top shape: 24 64 14 14 (301056)
I0403 16:51:57.818253 21531 net.cpp:156] Memory required for data: 886912032
I0403 16:51:57.818266 21531 layer_factory.hpp:77] Creating layer inception_4a/output
I0403 16:51:57.818285 21531 net.cpp:91] Creating Layer inception_4a/output
I0403 16:51:57.818301 21531 net.cpp:425] inception_4a/output <- inception_4a/1x1
I0403 16:51:57.818317 21531 net.cpp:425] inception_4a/output <- inception_4a/3x3
I0403 16:51:57.818333 21531 net.cpp:425] inception_4a/output <- inception_4a/5x5
I0403 16:51:57.818348 21531 net.cpp:425] inception_4a/output <- inception_4a/pool_proj
I0403 16:51:57.818364 21531 net.cpp:399] inception_4a/output -> inception_4a/output
I0403 16:51:57.818408 21531 net.cpp:141] Setting up inception_4a/output
I0403 16:51:57.818431 21531 net.cpp:148] Top shape: 24 512 14 14 (2408448)
I0403 16:51:57.818445 21531 net.cpp:156] Memory required for data: 896545824
I0403 16:51:57.818459 21531 layer_factory.hpp:77] Creating layer inception_4a/output_inception_4a/output_0_split
I0403 16:51:57.818476 21531 net.cpp:91] Creating Layer inception_4a/output_inception_4a/output_0_split
I0403 16:51:57.818491 21531 net.cpp:425] inception_4a/output_inception_4a/output_0_split <- inception_4a/output
I0403 16:51:57.818522 21531 net.cpp:399] inception_4a/output_inception_4a/output_0_split -> inception_4a/output_inception_4a/output_0_split_0
I0403 16:51:57.818543 21531 net.cpp:399] inception_4a/output_inception_4a/output_0_split -> inception_4a/output_inception_4a/output_0_split_1
I0403 16:51:57.818563 21531 net.cpp:399] inception_4a/output_inception_4a/output_0_split -> inception_4a/output_inception_4a/output_0_split_2
I0403 16:51:57.818583 21531 net.cpp:399] inception_4a/output_inception_4a/output_0_split -> inception_4a/output_inception_4a/output_0_split_3
I0403 16:51:57.818603 21531 net.cpp:399] inception_4a/output_inception_4a/output_0_split -> inception_4a/output_inception_4a/output_0_split_4
I0403 16:51:57.818694 21531 net.cpp:141] Setting up inception_4a/output_inception_4a/output_0_split
I0403 16:51:57.818717 21531 net.cpp:148] Top shape: 24 512 14 14 (2408448)
I0403 16:51:57.818735 21531 net.cpp:148] Top shape: 24 512 14 14 (2408448)
I0403 16:51:57.818753 21531 net.cpp:148] Top shape: 24 512 14 14 (2408448)
I0403 16:51:57.818768 21531 net.cpp:148] Top shape: 24 512 14 14 (2408448)
I0403 16:51:57.818783 21531 net.cpp:148] Top shape: 24 512 14 14 (2408448)
I0403 16:51:57.818796 21531 net.cpp:156] Memory required for data: 944714784
I0403 16:51:57.818822 21531 layer_factory.hpp:77] Creating layer loss1/ave_pool
I0403 16:51:57.818838 21531 net.cpp:91] Creating Layer loss1/ave_pool
I0403 16:51:57.818853 21531 net.cpp:425] loss1/ave_pool <- inception_4a/output_inception_4a/output_0_split_0
I0403 16:51:57.818872 21531 net.cpp:399] loss1/ave_pool -> loss1/ave_pool
I0403 16:51:57.819082 21531 net.cpp:141] Setting up loss1/ave_pool
I0403 16:51:57.819108 21531 net.cpp:148] Top shape: 24 512 4 4 (196608)
I0403 16:51:57.819121 21531 net.cpp:156] Memory required for data: 945501216
I0403 16:51:57.819135 21531 layer_factory.hpp:77] Creating layer loss1/conv
I0403 16:51:57.819156 21531 net.cpp:91] Creating Layer loss1/conv
I0403 16:51:57.819174 21531 net.cpp:425] loss1/conv <- loss1/ave_pool
I0403 16:51:57.819192 21531 net.cpp:399] loss1/conv -> loss1/conv
I0403 16:51:57.820582 21531 net.cpp:141] Setting up loss1/conv
I0403 16:51:57.820613 21531 net.cpp:148] Top shape: 24 128 4 4 (49152)
I0403 16:51:57.820643 21531 net.cpp:156] Memory required for data: 945697824
I0403 16:51:57.820663 21531 layer_factory.hpp:77] Creating layer loss1/relu_conv
I0403 16:51:57.820680 21531 net.cpp:91] Creating Layer loss1/relu_conv
I0403 16:51:57.820695 21531 net.cpp:425] loss1/relu_conv <- loss1/conv
I0403 16:51:57.820714 21531 net.cpp:386] loss1/relu_conv -> loss1/conv (in-place)
I0403 16:51:57.820983 21531 net.cpp:141] Setting up loss1/relu_conv
I0403 16:51:57.821012 21531 net.cpp:148] Top shape: 24 128 4 4 (49152)
I0403 16:51:57.821027 21531 net.cpp:156] Memory required for data: 945894432
I0403 16:51:57.821040 21531 layer_factory.hpp:77] Creating layer loss1/fc
I0403 16:51:57.821068 21531 net.cpp:91] Creating Layer loss1/fc
I0403 16:51:57.821085 21531 net.cpp:425] loss1/fc <- loss1/conv
I0403 16:51:57.821106 21531 net.cpp:399] loss1/fc -> loss1/fc
I0403 16:51:57.838500 21531 net.cpp:141] Setting up loss1/fc
I0403 16:51:57.838542 21531 net.cpp:148] Top shape: 24 1024 (24576)
I0403 16:51:57.838558 21531 net.cpp:156] Memory required for data: 945992736
I0403 16:51:57.838578 21531 layer_factory.hpp:77] Creating layer loss1/relu_fc
I0403 16:51:57.838599 21531 net.cpp:91] Creating Layer loss1/relu_fc
I0403 16:51:57.838616 21531 net.cpp:425] loss1/relu_fc <- loss1/fc
I0403 16:51:57.838634 21531 net.cpp:386] loss1/relu_fc -> loss1/fc (in-place)
I0403 16:51:57.838824 21531 net.cpp:141] Setting up loss1/relu_fc
I0403 16:51:57.838850 21531 net.cpp:148] Top shape: 24 1024 (24576)
I0403 16:51:57.838865 21531 net.cpp:156] Memory required for data: 946091040
I0403 16:51:57.838881 21531 layer_factory.hpp:77] Creating layer loss1/drop_fc
I0403 16:51:57.838907 21531 net.cpp:91] Creating Layer loss1/drop_fc
I0403 16:51:57.838924 21531 net.cpp:425] loss1/drop_fc <- loss1/fc
I0403 16:51:57.838943 21531 net.cpp:386] loss1/drop_fc -> loss1/fc (in-place)
I0403 16:51:57.838996 21531 net.cpp:141] Setting up loss1/drop_fc
I0403 16:51:57.839020 21531 net.cpp:148] Top shape: 24 1024 (24576)
I0403 16:51:57.839033 21531 net.cpp:156] Memory required for data: 946189344
I0403 16:51:57.839052 21531 layer_factory.hpp:77] Creating layer loss1/classifier_plantvillage
I0403 16:51:57.839072 21531 net.cpp:91] Creating Layer loss1/classifier_plantvillage
I0403 16:51:57.839088 21531 net.cpp:425] loss1/classifier_plantvillage <- loss1/fc
I0403 16:51:57.839109 21531 net.cpp:399] loss1/classifier_plantvillage -> loss1/classifier_plantvillage
I0403 16:51:57.840011 21531 net.cpp:141] Setting up loss1/classifier_plantvillage
I0403 16:51:57.840040 21531 net.cpp:148] Top shape: 24 38 (912)
I0403 16:51:57.840060 21531 net.cpp:156] Memory required for data: 946192992
I0403 16:51:57.840081 21531 layer_factory.hpp:77] Creating layer loss1/classifier_plantvillage_loss1/classifier_plantvillage_0_split
I0403 16:51:57.840102 21531 net.cpp:91] Creating Layer loss1/classifier_plantvillage_loss1/classifier_plantvillage_0_split
I0403 16:51:57.840118 21531 net.cpp:425] loss1/classifier_plantvillage_loss1/classifier_plantvillage_0_split <- loss1/classifier_plantvillage
I0403 16:51:57.840137 21531 net.cpp:399] loss1/classifier_plantvillage_loss1/classifier_plantvillage_0_split -> loss1/classifier_plantvillage_loss1/classifier_plantvillage_0_split_0
I0403 16:51:57.840157 21531 net.cpp:399] loss1/classifier_plantvillage_loss1/classifier_plantvillage_0_split -> loss1/classifier_plantvillage_loss1/classifier_plantvillage_0_split_1
I0403 16:51:57.840179 21531 net.cpp:399] loss1/classifier_plantvillage_loss1/classifier_plantvillage_0_split -> loss1/classifier_plantvillage_loss1/classifier_plantvillage_0_split_2
I0403 16:51:57.840247 21531 net.cpp:141] Setting up loss1/classifier_plantvillage_loss1/classifier_plantvillage_0_split
I0403 16:51:57.840270 21531 net.cpp:148] Top shape: 24 38 (912)
I0403 16:51:57.840286 21531 net.cpp:148] Top shape: 24 38 (912)
I0403 16:51:57.840301 21531 net.cpp:148] Top shape: 24 38 (912)
I0403 16:51:57.840315 21531 net.cpp:156] Memory required for data: 946203936
I0403 16:51:57.840330 21531 layer_factory.hpp:77] Creating layer inception_4b/1x1
I0403 16:51:57.840353 21531 net.cpp:91] Creating Layer inception_4b/1x1
I0403 16:51:57.840389 21531 net.cpp:425] inception_4b/1x1 <- inception_4a/output_inception_4a/output_0_split_1
I0403 16:51:57.840409 21531 net.cpp:399] inception_4b/1x1 -> inception_4b/1x1
I0403 16:51:57.842077 21531 net.cpp:141] Setting up inception_4b/1x1
I0403 16:51:57.842110 21531 net.cpp:148] Top shape: 24 160 14 14 (752640)
I0403 16:51:57.842128 21531 net.cpp:156] Memory required for data: 949214496
I0403 16:51:57.842146 21531 layer_factory.hpp:77] Creating layer inception_4b/relu_1x1
I0403 16:51:57.842165 21531 net.cpp:91] Creating Layer inception_4b/relu_1x1
I0403 16:51:57.842182 21531 net.cpp:425] inception_4b/relu_1x1 <- inception_4b/1x1
I0403 16:51:57.842205 21531 net.cpp:386] inception_4b/relu_1x1 -> inception_4b/1x1 (in-place)
I0403 16:51:57.842384 21531 net.cpp:141] Setting up inception_4b/relu_1x1
I0403 16:51:57.842411 21531 net.cpp:148] Top shape: 24 160 14 14 (752640)
I0403 16:51:57.842425 21531 net.cpp:156] Memory required for data: 952225056
I0403 16:51:57.842440 21531 layer_factory.hpp:77] Creating layer inception_4b/3x3_reduce
I0403 16:51:57.842463 21531 net.cpp:91] Creating Layer inception_4b/3x3_reduce
I0403 16:51:57.842483 21531 net.cpp:425] inception_4b/3x3_reduce <- inception_4a/output_inception_4a/output_0_split_2
I0403 16:51:57.842504 21531 net.cpp:399] inception_4b/3x3_reduce -> inception_4b/3x3_reduce
I0403 16:51:57.843859 21531 net.cpp:141] Setting up inception_4b/3x3_reduce
I0403 16:51:57.843888 21531 net.cpp:148] Top shape: 24 112 14 14 (526848)
I0403 16:51:57.843904 21531 net.cpp:156] Memory required for data: 954332448
I0403 16:51:57.843921 21531 layer_factory.hpp:77] Creating layer inception_4b/relu_3x3_reduce
I0403 16:51:57.843940 21531 net.cpp:91] Creating Layer inception_4b/relu_3x3_reduce
I0403 16:51:57.843955 21531 net.cpp:425] inception_4b/relu_3x3_reduce <- inception_4b/3x3_reduce
I0403 16:51:57.843974 21531 net.cpp:386] inception_4b/relu_3x3_reduce -> inception_4b/3x3_reduce (in-place)
I0403 16:51:57.844261 21531 net.cpp:141] Setting up inception_4b/relu_3x3_reduce
I0403 16:51:57.844288 21531 net.cpp:148] Top shape: 24 112 14 14 (526848)
I0403 16:51:57.844303 21531 net.cpp:156] Memory required for data: 956439840
I0403 16:51:57.844318 21531 layer_factory.hpp:77] Creating layer inception_4b/3x3
I0403 16:51:57.844341 21531 net.cpp:91] Creating Layer inception_4b/3x3
I0403 16:51:57.844358 21531 net.cpp:425] inception_4b/3x3 <- inception_4b/3x3_reduce
I0403 16:51:57.844380 21531 net.cpp:399] inception_4b/3x3 -> inception_4b/3x3
I0403 16:51:57.847359 21531 net.cpp:141] Setting up inception_4b/3x3
I0403 16:51:57.847389 21531 net.cpp:148] Top shape: 24 224 14 14 (1053696)
I0403 16:51:57.847406 21531 net.cpp:156] Memory required for data: 960654624
I0403 16:51:57.847426 21531 layer_factory.hpp:77] Creating layer inception_4b/relu_3x3
I0403 16:51:57.847447 21531 net.cpp:91] Creating Layer inception_4b/relu_3x3
I0403 16:51:57.847465 21531 net.cpp:425] inception_4b/relu_3x3 <- inception_4b/3x3
I0403 16:51:57.847482 21531 net.cpp:386] inception_4b/relu_3x3 -> inception_4b/3x3 (in-place)
I0403 16:51:57.847666 21531 net.cpp:141] Setting up inception_4b/relu_3x3
I0403 16:51:57.847693 21531 net.cpp:148] Top shape: 24 224 14 14 (1053696)
I0403 16:51:57.847709 21531 net.cpp:156] Memory required for data: 964869408
I0403 16:51:57.847723 21531 layer_factory.hpp:77] Creating layer inception_4b/5x5_reduce
I0403 16:51:57.847746 21531 net.cpp:91] Creating Layer inception_4b/5x5_reduce
I0403 16:51:57.847764 21531 net.cpp:425] inception_4b/5x5_reduce <- inception_4a/output_inception_4a/output_0_split_3
I0403 16:51:57.847784 21531 net.cpp:399] inception_4b/5x5_reduce -> inception_4b/5x5_reduce
I0403 16:51:57.848888 21531 net.cpp:141] Setting up inception_4b/5x5_reduce
I0403 16:51:57.848922 21531 net.cpp:148] Top shape: 24 24 14 14 (112896)
I0403 16:51:57.848938 21531 net.cpp:156] Memory required for data: 965320992
I0403 16:51:57.848959 21531 layer_factory.hpp:77] Creating layer inception_4b/relu_5x5_reduce
I0403 16:51:57.848980 21531 net.cpp:91] Creating Layer inception_4b/relu_5x5_reduce
I0403 16:51:57.849016 21531 net.cpp:425] inception_4b/relu_5x5_reduce <- inception_4b/5x5_reduce
I0403 16:51:57.849040 21531 net.cpp:386] inception_4b/relu_5x5_reduce -> inception_4b/5x5_reduce (in-place)
I0403 16:51:57.849232 21531 net.cpp:141] Setting up inception_4b/relu_5x5_reduce
I0403 16:51:57.849267 21531 net.cpp:148] Top shape: 24 24 14 14 (112896)
I0403 16:51:57.849282 21531 net.cpp:156] Memory required for data: 965772576
I0403 16:51:57.849298 21531 layer_factory.hpp:77] Creating layer inception_4b/5x5
I0403 16:51:57.849320 21531 net.cpp:91] Creating Layer inception_4b/5x5
I0403 16:51:57.849337 21531 net.cpp:425] inception_4b/5x5 <- inception_4b/5x5_reduce
I0403 16:51:57.849359 21531 net.cpp:399] inception_4b/5x5 -> inception_4b/5x5
I0403 16:51:57.850594 21531 net.cpp:141] Setting up inception_4b/5x5
I0403 16:51:57.850625 21531 net.cpp:148] Top shape: 24 64 14 14 (301056)
I0403 16:51:57.850642 21531 net.cpp:156] Memory required for data: 966976800
I0403 16:51:57.850661 21531 layer_factory.hpp:77] Creating layer inception_4b/relu_5x5
I0403 16:51:57.850678 21531 net.cpp:91] Creating Layer inception_4b/relu_5x5
I0403 16:51:57.850693 21531 net.cpp:425] inception_4b/relu_5x5 <- inception_4b/5x5
I0403 16:51:57.850713 21531 net.cpp:386] inception_4b/relu_5x5 -> inception_4b/5x5 (in-place)
I0403 16:51:57.850996 21531 net.cpp:141] Setting up inception_4b/relu_5x5
I0403 16:51:57.851025 21531 net.cpp:148] Top shape: 24 64 14 14 (301056)
I0403 16:51:57.851042 21531 net.cpp:156] Memory required for data: 968181024
I0403 16:51:57.851063 21531 layer_factory.hpp:77] Creating layer inception_4b/pool
I0403 16:51:57.851083 21531 net.cpp:91] Creating Layer inception_4b/pool
I0403 16:51:57.851099 21531 net.cpp:425] inception_4b/pool <- inception_4a/output_inception_4a/output_0_split_4
I0403 16:51:57.851119 21531 net.cpp:399] inception_4b/pool -> inception_4b/pool
I0403 16:51:57.851182 21531 net.cpp:141] Setting up inception_4b/pool
I0403 16:51:57.851205 21531 net.cpp:148] Top shape: 24 512 14 14 (2408448)
I0403 16:51:57.851222 21531 net.cpp:156] Memory required for data: 977814816
I0403 16:51:57.851236 21531 layer_factory.hpp:77] Creating layer inception_4b/pool_proj
I0403 16:51:57.851258 21531 net.cpp:91] Creating Layer inception_4b/pool_proj
I0403 16:51:57.851275 21531 net.cpp:425] inception_4b/pool_proj <- inception_4b/pool
I0403 16:51:57.851296 21531 net.cpp:399] inception_4b/pool_proj -> inception_4b/pool_proj
I0403 16:51:57.852514 21531 net.cpp:141] Setting up inception_4b/pool_proj
I0403 16:51:57.852545 21531 net.cpp:148] Top shape: 24 64 14 14 (301056)
I0403 16:51:57.852561 21531 net.cpp:156] Memory required for data: 979019040
I0403 16:51:57.852581 21531 layer_factory.hpp:77] Creating layer inception_4b/relu_pool_proj
I0403 16:51:57.852598 21531 net.cpp:91] Creating Layer inception_4b/relu_pool_proj
I0403 16:51:57.852614 21531 net.cpp:425] inception_4b/relu_pool_proj <- inception_4b/pool_proj
I0403 16:51:57.852634 21531 net.cpp:386] inception_4b/relu_pool_proj -> inception_4b/pool_proj (in-place)
I0403 16:51:57.852829 21531 net.cpp:141] Setting up inception_4b/relu_pool_proj
I0403 16:51:57.852854 21531 net.cpp:148] Top shape: 24 64 14 14 (301056)
I0403 16:51:57.852869 21531 net.cpp:156] Memory required for data: 980223264
I0403 16:51:57.852883 21531 layer_factory.hpp:77] Creating layer inception_4b/output
I0403 16:51:57.852900 21531 net.cpp:91] Creating Layer inception_4b/output
I0403 16:51:57.852916 21531 net.cpp:425] inception_4b/output <- inception_4b/1x1
I0403 16:51:57.852931 21531 net.cpp:425] inception_4b/output <- inception_4b/3x3
I0403 16:51:57.852947 21531 net.cpp:425] inception_4b/output <- inception_4b/5x5
I0403 16:51:57.852963 21531 net.cpp:425] inception_4b/output <- inception_4b/pool_proj
I0403 16:51:57.852982 21531 net.cpp:399] inception_4b/output -> inception_4b/output
I0403 16:51:57.853034 21531 net.cpp:141] Setting up inception_4b/output
I0403 16:51:57.853062 21531 net.cpp:148] Top shape: 24 512 14 14 (2408448)
I0403 16:51:57.853077 21531 net.cpp:156] Memory required for data: 989857056
I0403 16:51:57.853106 21531 layer_factory.hpp:77] Creating layer inception_4b/output_inception_4b/output_0_split
I0403 16:51:57.853124 21531 net.cpp:91] Creating Layer inception_4b/output_inception_4b/output_0_split
I0403 16:51:57.853140 21531 net.cpp:425] inception_4b/output_inception_4b/output_0_split <- inception_4b/output
I0403 16:51:57.853160 21531 net.cpp:399] inception_4b/output_inception_4b/output_0_split -> inception_4b/output_inception_4b/output_0_split_0
I0403 16:51:57.853181 21531 net.cpp:399] inception_4b/output_inception_4b/output_0_split -> inception_4b/output_inception_4b/output_0_split_1
I0403 16:51:57.853201 21531 net.cpp:399] inception_4b/output_inception_4b/output_0_split -> inception_4b/output_inception_4b/output_0_split_2
I0403 16:51:57.853220 21531 net.cpp:399] inception_4b/output_inception_4b/output_0_split -> inception_4b/output_inception_4b/output_0_split_3
I0403 16:51:57.853312 21531 net.cpp:141] Setting up inception_4b/output_inception_4b/output_0_split
I0403 16:51:57.853335 21531 net.cpp:148] Top shape: 24 512 14 14 (2408448)
I0403 16:51:57.853353 21531 net.cpp:148] Top shape: 24 512 14 14 (2408448)
I0403 16:51:57.853368 21531 net.cpp:148] Top shape: 24 512 14 14 (2408448)
I0403 16:51:57.853382 21531 net.cpp:148] Top shape: 24 512 14 14 (2408448)
I0403 16:51:57.853396 21531 net.cpp:156] Memory required for data: 1028392224
I0403 16:51:57.853410 21531 layer_factory.hpp:77] Creating layer inception_4c/1x1
I0403 16:51:57.853435 21531 net.cpp:91] Creating Layer inception_4c/1x1
I0403 16:51:57.853452 21531 net.cpp:425] inception_4c/1x1 <- inception_4b/output_inception_4b/output_0_split_0
I0403 16:51:57.853471 21531 net.cpp:399] inception_4c/1x1 -> inception_4c/1x1
I0403 16:51:57.854912 21531 net.cpp:141] Setting up inception_4c/1x1
I0403 16:51:57.854940 21531 net.cpp:148] Top shape: 24 128 14 14 (602112)
I0403 16:51:57.854957 21531 net.cpp:156] Memory required for data: 1030800672
I0403 16:51:57.854977 21531 layer_factory.hpp:77] Creating layer inception_4c/relu_1x1
I0403 16:51:57.854998 21531 net.cpp:91] Creating Layer inception_4c/relu_1x1
I0403 16:51:57.855015 21531 net.cpp:425] inception_4c/relu_1x1 <- inception_4c/1x1
I0403 16:51:57.855034 21531 net.cpp:386] inception_4c/relu_1x1 -> inception_4c/1x1 (in-place)
I0403 16:51:57.855216 21531 net.cpp:141] Setting up inception_4c/relu_1x1
I0403 16:51:57.855247 21531 net.cpp:148] Top shape: 24 128 14 14 (602112)
I0403 16:51:57.855262 21531 net.cpp:156] Memory required for data: 1033209120
I0403 16:51:57.855276 21531 layer_factory.hpp:77] Creating layer inception_4c/3x3_reduce
I0403 16:51:57.855300 21531 net.cpp:91] Creating Layer inception_4c/3x3_reduce
I0403 16:51:57.855319 21531 net.cpp:425] inception_4c/3x3_reduce <- inception_4b/output_inception_4b/output_0_split_1
I0403 16:51:57.855337 21531 net.cpp:399] inception_4c/3x3_reduce -> inception_4c/3x3_reduce
I0403 16:51:57.857281 21531 net.cpp:141] Setting up inception_4c/3x3_reduce
I0403 16:51:57.857313 21531 net.cpp:148] Top shape: 24 128 14 14 (602112)
I0403 16:51:57.857331 21531 net.cpp:156] Memory required for data: 1035617568
I0403 16:51:57.857350 21531 layer_factory.hpp:77] Creating layer inception_4c/relu_3x3_reduce
I0403 16:51:57.857368 21531 net.cpp:91] Creating Layer inception_4c/relu_3x3_reduce
I0403 16:51:57.857386 21531 net.cpp:425] inception_4c/relu_3x3_reduce <- inception_4c/3x3_reduce
I0403 16:51:57.857403 21531 net.cpp:386] inception_4c/relu_3x3_reduce -> inception_4c/3x3_reduce (in-place)
I0403 16:51:57.857688 21531 net.cpp:141] Setting up inception_4c/relu_3x3_reduce
I0403 16:51:57.857718 21531 net.cpp:148] Top shape: 24 128 14 14 (602112)
I0403 16:51:57.857735 21531 net.cpp:156] Memory required for data: 1038026016
I0403 16:51:57.857750 21531 layer_factory.hpp:77] Creating layer inception_4c/3x3
I0403 16:51:57.857774 21531 net.cpp:91] Creating Layer inception_4c/3x3
I0403 16:51:57.857791 21531 net.cpp:425] inception_4c/3x3 <- inception_4c/3x3_reduce
I0403 16:51:57.857810 21531 net.cpp:399] inception_4c/3x3 -> inception_4c/3x3
I0403 16:51:57.861482 21531 net.cpp:141] Setting up inception_4c/3x3
I0403 16:51:57.861526 21531 net.cpp:148] Top shape: 24 256 14 14 (1204224)
I0403 16:51:57.861548 21531 net.cpp:156] Memory required for data: 1042842912
I0403 16:51:57.861582 21531 layer_factory.hpp:77] Creating layer inception_4c/relu_3x3
I0403 16:51:57.861601 21531 net.cpp:91] Creating Layer inception_4c/relu_3x3
I0403 16:51:57.861618 21531 net.cpp:425] inception_4c/relu_3x3 <- inception_4c/3x3
I0403 16:51:57.861637 21531 net.cpp:386] inception_4c/relu_3x3 -> inception_4c/3x3 (in-place)
I0403 16:51:57.861819 21531 net.cpp:141] Setting up inception_4c/relu_3x3
I0403 16:51:57.861845 21531 net.cpp:148] Top shape: 24 256 14 14 (1204224)
I0403 16:51:57.861860 21531 net.cpp:156] Memory required for data: 1047659808
I0403 16:51:57.861874 21531 layer_factory.hpp:77] Creating layer inception_4c/5x5_reduce
I0403 16:51:57.861896 21531 net.cpp:91] Creating Layer inception_4c/5x5_reduce
I0403 16:51:57.861914 21531 net.cpp:425] inception_4c/5x5_reduce <- inception_4b/output_inception_4b/output_0_split_2
I0403 16:51:57.861935 21531 net.cpp:399] inception_4c/5x5_reduce -> inception_4c/5x5_reduce
I0403 16:51:57.863040 21531 net.cpp:141] Setting up inception_4c/5x5_reduce
I0403 16:51:57.863076 21531 net.cpp:148] Top shape: 24 24 14 14 (112896)
I0403 16:51:57.863093 21531 net.cpp:156] Memory required for data: 1048111392
I0403 16:51:57.863113 21531 layer_factory.hpp:77] Creating layer inception_4c/relu_5x5_reduce
I0403 16:51:57.863131 21531 net.cpp:91] Creating Layer inception_4c/relu_5x5_reduce
I0403 16:51:57.863147 21531 net.cpp:425] inception_4c/relu_5x5_reduce <- inception_4c/5x5_reduce
I0403 16:51:57.863168 21531 net.cpp:386] inception_4c/relu_5x5_reduce -> inception_4c/5x5_reduce (in-place)
I0403 16:51:57.863355 21531 net.cpp:141] Setting up inception_4c/relu_5x5_reduce
I0403 16:51:57.863382 21531 net.cpp:148] Top shape: 24 24 14 14 (112896)
I0403 16:51:57.863396 21531 net.cpp:156] Memory required for data: 1048562976
I0403 16:51:57.863411 21531 layer_factory.hpp:77] Creating layer inception_4c/5x5
I0403 16:51:57.863435 21531 net.cpp:91] Creating Layer inception_4c/5x5
I0403 16:51:57.863452 21531 net.cpp:425] inception_4c/5x5 <- inception_4c/5x5_reduce
I0403 16:51:57.863473 21531 net.cpp:399] inception_4c/5x5 -> inception_4c/5x5
I0403 16:51:57.864725 21531 net.cpp:141] Setting up inception_4c/5x5
I0403 16:51:57.864754 21531 net.cpp:148] Top shape: 24 64 14 14 (301056)
I0403 16:51:57.864774 21531 net.cpp:156] Memory required for data: 1049767200
I0403 16:51:57.864794 21531 layer_factory.hpp:77] Creating layer inception_4c/relu_5x5
I0403 16:51:57.864814 21531 net.cpp:91] Creating Layer inception_4c/relu_5x5
I0403 16:51:57.864832 21531 net.cpp:425] inception_4c/relu_5x5 <- inception_4c/5x5
I0403 16:51:57.864850 21531 net.cpp:386] inception_4c/relu_5x5 -> inception_4c/5x5 (in-place)
I0403 16:51:57.865149 21531 net.cpp:141] Setting up inception_4c/relu_5x5
I0403 16:51:57.865176 21531 net.cpp:148] Top shape: 24 64 14 14 (301056)
I0403 16:51:57.865192 21531 net.cpp:156] Memory required for data: 1050971424
I0403 16:51:57.865207 21531 layer_factory.hpp:77] Creating layer inception_4c/pool
I0403 16:51:57.865224 21531 net.cpp:91] Creating Layer inception_4c/pool
I0403 16:51:57.865242 21531 net.cpp:425] inception_4c/pool <- inception_4b/output_inception_4b/output_0_split_3
I0403 16:51:57.865270 21531 net.cpp:399] inception_4c/pool -> inception_4c/pool
I0403 16:51:57.865336 21531 net.cpp:141] Setting up inception_4c/pool
I0403 16:51:57.865360 21531 net.cpp:148] Top shape: 24 512 14 14 (2408448)
I0403 16:51:57.865375 21531 net.cpp:156] Memory required for data: 1060605216
I0403 16:51:57.865391 21531 layer_factory.hpp:77] Creating layer inception_4c/pool_proj
I0403 16:51:57.865413 21531 net.cpp:91] Creating Layer inception_4c/pool_proj
I0403 16:51:57.865432 21531 net.cpp:425] inception_4c/pool_proj <- inception_4c/pool
I0403 16:51:57.865449 21531 net.cpp:399] inception_4c/pool_proj -> inception_4c/pool_proj
I0403 16:51:57.866683 21531 net.cpp:141] Setting up inception_4c/pool_proj
I0403 16:51:57.866714 21531 net.cpp:148] Top shape: 24 64 14 14 (301056)
I0403 16:51:57.866744 21531 net.cpp:156] Memory required for data: 1061809440
I0403 16:51:57.866765 21531 layer_factory.hpp:77] Creating layer inception_4c/relu_pool_proj
I0403 16:51:57.866785 21531 net.cpp:91] Creating Layer inception_4c/relu_pool_proj
I0403 16:51:57.866801 21531 net.cpp:425] inception_4c/relu_pool_proj <- inception_4c/pool_proj
I0403 16:51:57.866822 21531 net.cpp:386] inception_4c/relu_pool_proj -> inception_4c/pool_proj (in-place)
I0403 16:51:57.867005 21531 net.cpp:141] Setting up inception_4c/relu_pool_proj
I0403 16:51:57.867032 21531 net.cpp:148] Top shape: 24 64 14 14 (301056)
I0403 16:51:57.867046 21531 net.cpp:156] Memory required for data: 1063013664
I0403 16:51:57.867066 21531 layer_factory.hpp:77] Creating layer inception_4c/output
I0403 16:51:57.867084 21531 net.cpp:91] Creating Layer inception_4c/output
I0403 16:51:57.867100 21531 net.cpp:425] inception_4c/output <- inception_4c/1x1
I0403 16:51:57.867116 21531 net.cpp:425] inception_4c/output <- inception_4c/3x3
I0403 16:51:57.867133 21531 net.cpp:425] inception_4c/output <- inception_4c/5x5
I0403 16:51:57.867151 21531 net.cpp:425] inception_4c/output <- inception_4c/pool_proj
I0403 16:51:57.867169 21531 net.cpp:399] inception_4c/output -> inception_4c/output
I0403 16:51:57.867218 21531 net.cpp:141] Setting up inception_4c/output
I0403 16:51:57.867245 21531 net.cpp:148] Top shape: 24 512 14 14 (2408448)
I0403 16:51:57.867259 21531 net.cpp:156] Memory required for data: 1072647456
I0403 16:51:57.867275 21531 layer_factory.hpp:77] Creating layer inception_4c/output_inception_4c/output_0_split
I0403 16:51:57.867292 21531 net.cpp:91] Creating Layer inception_4c/output_inception_4c/output_0_split
I0403 16:51:57.867308 21531 net.cpp:425] inception_4c/output_inception_4c/output_0_split <- inception_4c/output
I0403 16:51:57.867326 21531 net.cpp:399] inception_4c/output_inception_4c/output_0_split -> inception_4c/output_inception_4c/output_0_split_0
I0403 16:51:57.867347 21531 net.cpp:399] inception_4c/output_inception_4c/output_0_split -> inception_4c/output_inception_4c/output_0_split_1
I0403 16:51:57.867369 21531 net.cpp:399] inception_4c/output_inception_4c/output_0_split -> inception_4c/output_inception_4c/output_0_split_2
I0403 16:51:57.867390 21531 net.cpp:399] inception_4c/output_inception_4c/output_0_split -> inception_4c/output_inception_4c/output_0_split_3
I0403 16:51:57.867481 21531 net.cpp:141] Setting up inception_4c/output_inception_4c/output_0_split
I0403 16:51:57.867506 21531 net.cpp:148] Top shape: 24 512 14 14 (2408448)
I0403 16:51:57.867522 21531 net.cpp:148] Top shape: 24 512 14 14 (2408448)
I0403 16:51:57.867537 21531 net.cpp:148] Top shape: 24 512 14 14 (2408448)
I0403 16:51:57.867552 21531 net.cpp:148] Top shape: 24 512 14 14 (2408448)
I0403 16:51:57.867564 21531 net.cpp:156] Memory required for data: 1111182624
I0403 16:51:57.867578 21531 layer_factory.hpp:77] Creating layer inception_4d/1x1
I0403 16:51:57.867601 21531 net.cpp:91] Creating Layer inception_4d/1x1
I0403 16:51:57.867619 21531 net.cpp:425] inception_4d/1x1 <- inception_4c/output_inception_4c/output_0_split_0
I0403 16:51:57.867636 21531 net.cpp:399] inception_4d/1x1 -> inception_4d/1x1
I0403 16:51:57.869027 21531 net.cpp:141] Setting up inception_4d/1x1
I0403 16:51:57.869066 21531 net.cpp:148] Top shape: 24 112 14 14 (526848)
I0403 16:51:57.869086 21531 net.cpp:156] Memory required for data: 1113290016
I0403 16:51:57.869105 21531 layer_factory.hpp:77] Creating layer inception_4d/relu_1x1
I0403 16:51:57.869125 21531 net.cpp:91] Creating Layer inception_4d/relu_1x1
I0403 16:51:57.869143 21531 net.cpp:425] inception_4d/relu_1x1 <- inception_4d/1x1
I0403 16:51:57.869163 21531 net.cpp:386] inception_4d/relu_1x1 -> inception_4d/1x1 (in-place)
I0403 16:51:57.869359 21531 net.cpp:141] Setting up inception_4d/relu_1x1
I0403 16:51:57.869386 21531 net.cpp:148] Top shape: 24 112 14 14 (526848)
I0403 16:51:57.869400 21531 net.cpp:156] Memory required for data: 1115397408
I0403 16:51:57.869416 21531 layer_factory.hpp:77] Creating layer inception_4d/3x3_reduce
I0403 16:51:57.869454 21531 net.cpp:91] Creating Layer inception_4d/3x3_reduce
I0403 16:51:57.869473 21531 net.cpp:425] inception_4d/3x3_reduce <- inception_4c/output_inception_4c/output_0_split_1
I0403 16:51:57.869494 21531 net.cpp:399] inception_4d/3x3_reduce -> inception_4d/3x3_reduce
I0403 16:51:57.871018 21531 net.cpp:141] Setting up inception_4d/3x3_reduce
I0403 16:51:57.871050 21531 net.cpp:148] Top shape: 24 144 14 14 (677376)
I0403 16:51:57.871068 21531 net.cpp:156] Memory required for data: 1118106912
I0403 16:51:57.871088 21531 layer_factory.hpp:77] Creating layer inception_4d/relu_3x3_reduce
I0403 16:51:57.871109 21531 net.cpp:91] Creating Layer inception_4d/relu_3x3_reduce
I0403 16:51:57.871127 21531 net.cpp:425] inception_4d/relu_3x3_reduce <- inception_4d/3x3_reduce
I0403 16:51:57.871145 21531 net.cpp:386] inception_4d/relu_3x3_reduce -> inception_4d/3x3_reduce (in-place)
I0403 16:51:57.871436 21531 net.cpp:141] Setting up inception_4d/relu_3x3_reduce
I0403 16:51:57.871464 21531 net.cpp:148] Top shape: 24 144 14 14 (677376)
I0403 16:51:57.871479 21531 net.cpp:156] Memory required for data: 1120816416
I0403 16:51:57.871495 21531 layer_factory.hpp:77] Creating layer inception_4d/3x3
I0403 16:51:57.871520 21531 net.cpp:91] Creating Layer inception_4d/3x3
I0403 16:51:57.871536 21531 net.cpp:425] inception_4d/3x3 <- inception_4d/3x3_reduce
I0403 16:51:57.871558 21531 net.cpp:399] inception_4d/3x3 -> inception_4d/3x3
I0403 16:51:57.875757 21531 net.cpp:141] Setting up inception_4d/3x3
I0403 16:51:57.875788 21531 net.cpp:148] Top shape: 24 288 14 14 (1354752)
I0403 16:51:57.875805 21531 net.cpp:156] Memory required for data: 1126235424
I0403 16:51:57.875824 21531 layer_factory.hpp:77] Creating layer inception_4d/relu_3x3
I0403 16:51:57.875843 21531 net.cpp:91] Creating Layer inception_4d/relu_3x3
I0403 16:51:57.875859 21531 net.cpp:425] inception_4d/relu_3x3 <- inception_4d/3x3
I0403 16:51:57.875875 21531 net.cpp:386] inception_4d/relu_3x3 -> inception_4d/3x3 (in-place)
I0403 16:51:57.876061 21531 net.cpp:141] Setting up inception_4d/relu_3x3
I0403 16:51:57.876090 21531 net.cpp:148] Top shape: 24 288 14 14 (1354752)
I0403 16:51:57.876104 21531 net.cpp:156] Memory required for data: 1131654432
I0403 16:51:57.876118 21531 layer_factory.hpp:77] Creating layer inception_4d/5x5_reduce
I0403 16:51:57.876139 21531 net.cpp:91] Creating Layer inception_4d/5x5_reduce
I0403 16:51:57.876157 21531 net.cpp:425] inception_4d/5x5_reduce <- inception_4c/output_inception_4c/output_0_split_2
I0403 16:51:57.876178 21531 net.cpp:399] inception_4d/5x5_reduce -> inception_4d/5x5_reduce
I0403 16:51:57.877349 21531 net.cpp:141] Setting up inception_4d/5x5_reduce
I0403 16:51:57.877378 21531 net.cpp:148] Top shape: 24 32 14 14 (150528)
I0403 16:51:57.877393 21531 net.cpp:156] Memory required for data: 1132256544
I0403 16:51:57.877410 21531 layer_factory.hpp:77] Creating layer inception_4d/relu_5x5_reduce
I0403 16:51:57.877430 21531 net.cpp:91] Creating Layer inception_4d/relu_5x5_reduce
I0403 16:51:57.877447 21531 net.cpp:425] inception_4d/relu_5x5_reduce <- inception_4d/5x5_reduce
I0403 16:51:57.877465 21531 net.cpp:386] inception_4d/relu_5x5_reduce -> inception_4d/5x5_reduce (in-place)
I0403 16:51:57.877652 21531 net.cpp:141] Setting up inception_4d/relu_5x5_reduce
I0403 16:51:57.877677 21531 net.cpp:148] Top shape: 24 32 14 14 (150528)
I0403 16:51:57.877692 21531 net.cpp:156] Memory required for data: 1132858656
I0403 16:51:57.877707 21531 layer_factory.hpp:77] Creating layer inception_4d/5x5
I0403 16:51:57.877729 21531 net.cpp:91] Creating Layer inception_4d/5x5
I0403 16:51:57.877748 21531 net.cpp:425] inception_4d/5x5 <- inception_4d/5x5_reduce
I0403 16:51:57.877770 21531 net.cpp:399] inception_4d/5x5 -> inception_4d/5x5
I0403 16:51:57.879248 21531 net.cpp:141] Setting up inception_4d/5x5
I0403 16:51:57.879276 21531 net.cpp:148] Top shape: 24 64 14 14 (301056)
I0403 16:51:57.879304 21531 net.cpp:156] Memory required for data: 1134062880
I0403 16:51:57.879322 21531 layer_factory.hpp:77] Creating layer inception_4d/relu_5x5
I0403 16:51:57.879354 21531 net.cpp:91] Creating Layer inception_4d/relu_5x5
I0403 16:51:57.879369 21531 net.cpp:425] inception_4d/relu_5x5 <- inception_4d/5x5
I0403 16:51:57.879390 21531 net.cpp:386] inception_4d/relu_5x5 -> inception_4d/5x5 (in-place)
I0403 16:51:57.879688 21531 net.cpp:141] Setting up inception_4d/relu_5x5
I0403 16:51:57.879714 21531 net.cpp:148] Top shape: 24 64 14 14 (301056)
I0403 16:51:57.879727 21531 net.cpp:156] Memory required for data: 1135267104
I0403 16:51:57.879741 21531 layer_factory.hpp:77] Creating layer inception_4d/pool
I0403 16:51:57.879758 21531 net.cpp:91] Creating Layer inception_4d/pool
I0403 16:51:57.879775 21531 net.cpp:425] inception_4d/pool <- inception_4c/output_inception_4c/output_0_split_3
I0403 16:51:57.879793 21531 net.cpp:399] inception_4d/pool -> inception_4d/pool
I0403 16:51:57.879860 21531 net.cpp:141] Setting up inception_4d/pool
I0403 16:51:57.879884 21531 net.cpp:148] Top shape: 24 512 14 14 (2408448)
I0403 16:51:57.879897 21531 net.cpp:156] Memory required for data: 1144900896
I0403 16:51:57.879910 21531 layer_factory.hpp:77] Creating layer inception_4d/pool_proj
I0403 16:51:57.879933 21531 net.cpp:91] Creating Layer inception_4d/pool_proj
I0403 16:51:57.879951 21531 net.cpp:425] inception_4d/pool_proj <- inception_4d/pool
I0403 16:51:57.879967 21531 net.cpp:399] inception_4d/pool_proj -> inception_4d/pool_proj
I0403 16:51:57.881722 21531 net.cpp:141] Setting up inception_4d/pool_proj
I0403 16:51:57.881753 21531 net.cpp:148] Top shape: 24 64 14 14 (301056)
I0403 16:51:57.881770 21531 net.cpp:156] Memory required for data: 1146105120
I0403 16:51:57.881789 21531 layer_factory.hpp:77] Creating layer inception_4d/relu_pool_proj
I0403 16:51:57.881806 21531 net.cpp:91] Creating Layer inception_4d/relu_pool_proj
I0403 16:51:57.881821 21531 net.cpp:425] inception_4d/relu_pool_proj <- inception_4d/pool_proj
I0403 16:51:57.881837 21531 net.cpp:386] inception_4d/relu_pool_proj -> inception_4d/pool_proj (in-place)
I0403 16:51:57.882020 21531 net.cpp:141] Setting up inception_4d/relu_pool_proj
I0403 16:51:57.882046 21531 net.cpp:148] Top shape: 24 64 14 14 (301056)
I0403 16:51:57.882067 21531 net.cpp:156] Memory required for data: 1147309344
I0403 16:51:57.882081 21531 layer_factory.hpp:77] Creating layer inception_4d/output
I0403 16:51:57.882098 21531 net.cpp:91] Creating Layer inception_4d/output
I0403 16:51:57.882113 21531 net.cpp:425] inception_4d/output <- inception_4d/1x1
I0403 16:51:57.882129 21531 net.cpp:425] inception_4d/output <- inception_4d/3x3
I0403 16:51:57.882144 21531 net.cpp:425] inception_4d/output <- inception_4d/5x5
I0403 16:51:57.882159 21531 net.cpp:425] inception_4d/output <- inception_4d/pool_proj
I0403 16:51:57.882177 21531 net.cpp:399] inception_4d/output -> inception_4d/output
I0403 16:51:57.882223 21531 net.cpp:141] Setting up inception_4d/output
I0403 16:51:57.882247 21531 net.cpp:148] Top shape: 24 528 14 14 (2483712)
I0403 16:51:57.882261 21531 net.cpp:156] Memory required for data: 1157244192
I0403 16:51:57.882275 21531 layer_factory.hpp:77] Creating layer inception_4d/output_inception_4d/output_0_split
I0403 16:51:57.882294 21531 net.cpp:91] Creating Layer inception_4d/output_inception_4d/output_0_split
I0403 16:51:57.882310 21531 net.cpp:425] inception_4d/output_inception_4d/output_0_split <- inception_4d/output
I0403 16:51:57.882328 21531 net.cpp:399] inception_4d/output_inception_4d/output_0_split -> inception_4d/output_inception_4d/output_0_split_0
I0403 16:51:57.882352 21531 net.cpp:399] inception_4d/output_inception_4d/output_0_split -> inception_4d/output_inception_4d/output_0_split_1
I0403 16:51:57.882372 21531 net.cpp:399] inception_4d/output_inception_4d/output_0_split -> inception_4d/output_inception_4d/output_0_split_2
I0403 16:51:57.882391 21531 net.cpp:399] inception_4d/output_inception_4d/output_0_split -> inception_4d/output_inception_4d/output_0_split_3
I0403 16:51:57.882411 21531 net.cpp:399] inception_4d/output_inception_4d/output_0_split -> inception_4d/output_inception_4d/output_0_split_4
I0403 16:51:57.882513 21531 net.cpp:141] Setting up inception_4d/output_inception_4d/output_0_split
I0403 16:51:57.882549 21531 net.cpp:148] Top shape: 24 528 14 14 (2483712)
I0403 16:51:57.882565 21531 net.cpp:148] Top shape: 24 528 14 14 (2483712)
I0403 16:51:57.882580 21531 net.cpp:148] Top shape: 24 528 14 14 (2483712)
I0403 16:51:57.882594 21531 net.cpp:148] Top shape: 24 528 14 14 (2483712)
I0403 16:51:57.882609 21531 net.cpp:148] Top shape: 24 528 14 14 (2483712)
I0403 16:51:57.882634 21531 net.cpp:156] Memory required for data: 1206918432
I0403 16:51:57.882649 21531 layer_factory.hpp:77] Creating layer loss2/ave_pool
I0403 16:51:57.882669 21531 net.cpp:91] Creating Layer loss2/ave_pool
I0403 16:51:57.882685 21531 net.cpp:425] loss2/ave_pool <- inception_4d/output_inception_4d/output_0_split_0
I0403 16:51:57.882704 21531 net.cpp:399] loss2/ave_pool -> loss2/ave_pool
I0403 16:51:57.883028 21531 net.cpp:141] Setting up loss2/ave_pool
I0403 16:51:57.883060 21531 net.cpp:148] Top shape: 24 528 4 4 (202752)
I0403 16:51:57.883077 21531 net.cpp:156] Memory required for data: 1207729440
I0403 16:51:57.883091 21531 layer_factory.hpp:77] Creating layer loss2/conv
I0403 16:51:57.883112 21531 net.cpp:91] Creating Layer loss2/conv
I0403 16:51:57.883131 21531 net.cpp:425] loss2/conv <- loss2/ave_pool
I0403 16:51:57.883148 21531 net.cpp:399] loss2/conv -> loss2/conv
I0403 16:51:57.884989 21531 net.cpp:141] Setting up loss2/conv
I0403 16:51:57.885018 21531 net.cpp:148] Top shape: 24 128 4 4 (49152)
I0403 16:51:57.885035 21531 net.cpp:156] Memory required for data: 1207926048
I0403 16:51:57.885056 21531 layer_factory.hpp:77] Creating layer loss2/relu_conv
I0403 16:51:57.885076 21531 net.cpp:91] Creating Layer loss2/relu_conv
I0403 16:51:57.885097 21531 net.cpp:425] loss2/relu_conv <- loss2/conv
I0403 16:51:57.885114 21531 net.cpp:386] loss2/relu_conv -> loss2/conv (in-place)
I0403 16:51:57.885401 21531 net.cpp:141] Setting up loss2/relu_conv
I0403 16:51:57.885426 21531 net.cpp:148] Top shape: 24 128 4 4 (49152)
I0403 16:51:57.885442 21531 net.cpp:156] Memory required for data: 1208122656
I0403 16:51:57.885455 21531 layer_factory.hpp:77] Creating layer loss2/fc
I0403 16:51:57.885474 21531 net.cpp:91] Creating Layer loss2/fc
I0403 16:51:57.885495 21531 net.cpp:425] loss2/fc <- loss2/conv
I0403 16:51:57.885515 21531 net.cpp:399] loss2/fc -> loss2/fc
I0403 16:51:57.902786 21531 net.cpp:141] Setting up loss2/fc
I0403 16:51:57.902817 21531 net.cpp:148] Top shape: 24 1024 (24576)
I0403 16:51:57.902832 21531 net.cpp:156] Memory required for data: 1208220960
I0403 16:51:57.902851 21531 layer_factory.hpp:77] Creating layer loss2/relu_fc
I0403 16:51:57.902873 21531 net.cpp:91] Creating Layer loss2/relu_fc
I0403 16:51:57.902890 21531 net.cpp:425] loss2/relu_fc <- loss2/fc
I0403 16:51:57.902909 21531 net.cpp:386] loss2/relu_fc -> loss2/fc (in-place)
I0403 16:51:57.903215 21531 net.cpp:141] Setting up loss2/relu_fc
I0403 16:51:57.903246 21531 net.cpp:148] Top shape: 24 1024 (24576)
I0403 16:51:57.903264 21531 net.cpp:156] Memory required for data: 1208319264
I0403 16:51:57.903280 21531 layer_factory.hpp:77] Creating layer loss2/drop_fc
I0403 16:51:57.903298 21531 net.cpp:91] Creating Layer loss2/drop_fc
I0403 16:51:57.903314 21531 net.cpp:425] loss2/drop_fc <- loss2/fc
I0403 16:51:57.903336 21531 net.cpp:386] loss2/drop_fc -> loss2/fc (in-place)
I0403 16:51:57.903385 21531 net.cpp:141] Setting up loss2/drop_fc
I0403 16:51:57.903409 21531 net.cpp:148] Top shape: 24 1024 (24576)
I0403 16:51:57.903424 21531 net.cpp:156] Memory required for data: 1208417568
I0403 16:51:57.903439 21531 layer_factory.hpp:77] Creating layer loss2/classifier_plantvillage
I0403 16:51:57.903461 21531 net.cpp:91] Creating Layer loss2/classifier_plantvillage
I0403 16:51:57.903480 21531 net.cpp:425] loss2/classifier_plantvillage <- loss2/fc
I0403 16:51:57.903501 21531 net.cpp:399] loss2/classifier_plantvillage -> loss2/classifier_plantvillage
I0403 16:51:57.903906 21531 net.cpp:141] Setting up loss2/classifier_plantvillage
I0403 16:51:57.903930 21531 net.cpp:148] Top shape: 24 38 (912)
I0403 16:51:57.903961 21531 net.cpp:156] Memory required for data: 1208421216
I0403 16:51:57.903980 21531 layer_factory.hpp:77] Creating layer loss2/classifier_plantvillage_loss2/classifier_plantvillage_0_split
I0403 16:51:57.903998 21531 net.cpp:91] Creating Layer loss2/classifier_plantvillage_loss2/classifier_plantvillage_0_split
I0403 16:51:57.904016 21531 net.cpp:425] loss2/classifier_plantvillage_loss2/classifier_plantvillage_0_split <- loss2/classifier_plantvillage
I0403 16:51:57.904034 21531 net.cpp:399] loss2/classifier_plantvillage_loss2/classifier_plantvillage_0_split -> loss2/classifier_plantvillage_loss2/classifier_plantvillage_0_split_0
I0403 16:51:57.904059 21531 net.cpp:399] loss2/classifier_plantvillage_loss2/classifier_plantvillage_0_split -> loss2/classifier_plantvillage_loss2/classifier_plantvillage_0_split_1
I0403 16:51:57.904080 21531 net.cpp:399] loss2/classifier_plantvillage_loss2/classifier_plantvillage_0_split -> loss2/classifier_plantvillage_loss2/classifier_plantvillage_0_split_2
I0403 16:51:57.904160 21531 net.cpp:141] Setting up loss2/classifier_plantvillage_loss2/classifier_plantvillage_0_split
I0403 16:51:57.904186 21531 net.cpp:148] Top shape: 24 38 (912)
I0403 16:51:57.904203 21531 net.cpp:148] Top shape: 24 38 (912)
I0403 16:51:57.904218 21531 net.cpp:148] Top shape: 24 38 (912)
I0403 16:51:57.904232 21531 net.cpp:156] Memory required for data: 1208432160
I0403 16:51:57.904248 21531 layer_factory.hpp:77] Creating layer inception_4e/1x1
I0403 16:51:57.904268 21531 net.cpp:91] Creating Layer inception_4e/1x1
I0403 16:51:57.904284 21531 net.cpp:425] inception_4e/1x1 <- inception_4d/output_inception_4d/output_0_split_1
I0403 16:51:57.904305 21531 net.cpp:399] inception_4e/1x1 -> inception_4e/1x1
I0403 16:51:57.906146 21531 net.cpp:141] Setting up inception_4e/1x1
I0403 16:51:57.906175 21531 net.cpp:148] Top shape: 24 256 14 14 (1204224)
I0403 16:51:57.906191 21531 net.cpp:156] Memory required for data: 1213249056
I0403 16:51:57.906209 21531 layer_factory.hpp:77] Creating layer inception_4e/relu_1x1
I0403 16:51:57.906227 21531 net.cpp:91] Creating Layer inception_4e/relu_1x1
I0403 16:51:57.906244 21531 net.cpp:425] inception_4e/relu_1x1 <- inception_4e/1x1
I0403 16:51:57.906263 21531 net.cpp:386] inception_4e/relu_1x1 -> inception_4e/1x1 (in-place)
I0403 16:51:57.906571 21531 net.cpp:141] Setting up inception_4e/relu_1x1
I0403 16:51:57.906597 21531 net.cpp:148] Top shape: 24 256 14 14 (1204224)
I0403 16:51:57.906612 21531 net.cpp:156] Memory required for data: 1218065952
I0403 16:51:57.906627 21531 layer_factory.hpp:77] Creating layer inception_4e/3x3_reduce
I0403 16:51:57.906649 21531 net.cpp:91] Creating Layer inception_4e/3x3_reduce
I0403 16:51:57.906667 21531 net.cpp:425] inception_4e/3x3_reduce <- inception_4d/output_inception_4d/output_0_split_2
I0403 16:51:57.906688 21531 net.cpp:399] inception_4e/3x3_reduce -> inception_4e/3x3_reduce
I0403 16:51:57.908817 21531 net.cpp:141] Setting up inception_4e/3x3_reduce
I0403 16:51:57.908850 21531 net.cpp:148] Top shape: 24 160 14 14 (752640)
I0403 16:51:57.908867 21531 net.cpp:156] Memory required for data: 1221076512
I0403 16:51:57.908886 21531 layer_factory.hpp:77] Creating layer inception_4e/relu_3x3_reduce
I0403 16:51:57.908905 21531 net.cpp:91] Creating Layer inception_4e/relu_3x3_reduce
I0403 16:51:57.908922 21531 net.cpp:425] inception_4e/relu_3x3_reduce <- inception_4e/3x3_reduce
I0403 16:51:57.908943 21531 net.cpp:386] inception_4e/relu_3x3_reduce -> inception_4e/3x3_reduce (in-place)
I0403 16:51:57.909147 21531 net.cpp:141] Setting up inception_4e/relu_3x3_reduce
I0403 16:51:57.909174 21531 net.cpp:148] Top shape: 24 160 14 14 (752640)
I0403 16:51:57.909189 21531 net.cpp:156] Memory required for data: 1224087072
I0403 16:51:57.909204 21531 layer_factory.hpp:77] Creating layer inception_4e/3x3
I0403 16:51:57.909226 21531 net.cpp:91] Creating Layer inception_4e/3x3
I0403 16:51:57.909245 21531 net.cpp:425] inception_4e/3x3 <- inception_4e/3x3_reduce
I0403 16:51:57.909272 21531 net.cpp:399] inception_4e/3x3 -> inception_4e/3x3
I0403 16:51:57.914324 21531 net.cpp:141] Setting up inception_4e/3x3
I0403 16:51:57.914369 21531 net.cpp:148] Top shape: 24 320 14 14 (1505280)
I0403 16:51:57.914386 21531 net.cpp:156] Memory required for data: 1230108192
I0403 16:51:57.914404 21531 layer_factory.hpp:77] Creating layer inception_4e/relu_3x3
I0403 16:51:57.914425 21531 net.cpp:91] Creating Layer inception_4e/relu_3x3
I0403 16:51:57.914443 21531 net.cpp:425] inception_4e/relu_3x3 <- inception_4e/3x3
I0403 16:51:57.914460 21531 net.cpp:386] inception_4e/relu_3x3 -> inception_4e/3x3 (in-place)
I0403 16:51:57.914764 21531 net.cpp:141] Setting up inception_4e/relu_3x3
I0403 16:51:57.914791 21531 net.cpp:148] Top shape: 24 320 14 14 (1505280)
I0403 16:51:57.914805 21531 net.cpp:156] Memory required for data: 1236129312
I0403 16:51:57.914820 21531 layer_factory.hpp:77] Creating layer inception_4e/5x5_reduce
I0403 16:51:57.914846 21531 net.cpp:91] Creating Layer inception_4e/5x5_reduce
I0403 16:51:57.914865 21531 net.cpp:425] inception_4e/5x5_reduce <- inception_4d/output_inception_4d/output_0_split_3
I0403 16:51:57.914882 21531 net.cpp:399] inception_4e/5x5_reduce -> inception_4e/5x5_reduce
I0403 16:51:57.915979 21531 net.cpp:141] Setting up inception_4e/5x5_reduce
I0403 16:51:57.916008 21531 net.cpp:148] Top shape: 24 32 14 14 (150528)
I0403 16:51:57.916024 21531 net.cpp:156] Memory required for data: 1236731424
I0403 16:51:57.916043 21531 layer_factory.hpp:77] Creating layer inception_4e/relu_5x5_reduce
I0403 16:51:57.916067 21531 net.cpp:91] Creating Layer inception_4e/relu_5x5_reduce
I0403 16:51:57.916085 21531 net.cpp:425] inception_4e/relu_5x5_reduce <- inception_4e/5x5_reduce
I0403 16:51:57.916105 21531 net.cpp:386] inception_4e/relu_5x5_reduce -> inception_4e/5x5_reduce (in-place)
I0403 16:51:57.916411 21531 net.cpp:141] Setting up inception_4e/relu_5x5_reduce
I0403 16:51:57.916440 21531 net.cpp:148] Top shape: 24 32 14 14 (150528)
I0403 16:51:57.916455 21531 net.cpp:156] Memory required for data: 1237333536
I0403 16:51:57.916471 21531 layer_factory.hpp:77] Creating layer inception_4e/5x5
I0403 16:51:57.916508 21531 net.cpp:91] Creating Layer inception_4e/5x5
I0403 16:51:57.916528 21531 net.cpp:425] inception_4e/5x5 <- inception_4e/5x5_reduce
I0403 16:51:57.916551 21531 net.cpp:399] inception_4e/5x5 -> inception_4e/5x5
I0403 16:51:57.918427 21531 net.cpp:141] Setting up inception_4e/5x5
I0403 16:51:57.918459 21531 net.cpp:148] Top shape: 24 128 14 14 (602112)
I0403 16:51:57.918476 21531 net.cpp:156] Memory required for data: 1239741984
I0403 16:51:57.918496 21531 layer_factory.hpp:77] Creating layer inception_4e/relu_5x5
I0403 16:51:57.918515 21531 net.cpp:91] Creating Layer inception_4e/relu_5x5
I0403 16:51:57.918531 21531 net.cpp:425] inception_4e/relu_5x5 <- inception_4e/5x5
I0403 16:51:57.918550 21531 net.cpp:386] inception_4e/relu_5x5 -> inception_4e/5x5 (in-place)
I0403 16:51:57.918753 21531 net.cpp:141] Setting up inception_4e/relu_5x5
I0403 16:51:57.918779 21531 net.cpp:148] Top shape: 24 128 14 14 (602112)
I0403 16:51:57.918794 21531 net.cpp:156] Memory required for data: 1242150432
I0403 16:51:57.918809 21531 layer_factory.hpp:77] Creating layer inception_4e/pool
I0403 16:51:57.918830 21531 net.cpp:91] Creating Layer inception_4e/pool
I0403 16:51:57.918846 21531 net.cpp:425] inception_4e/pool <- inception_4d/output_inception_4d/output_0_split_4
I0403 16:51:57.918867 21531 net.cpp:399] inception_4e/pool -> inception_4e/pool
I0403 16:51:57.918937 21531 net.cpp:141] Setting up inception_4e/pool
I0403 16:51:57.918965 21531 net.cpp:148] Top shape: 24 528 14 14 (2483712)
I0403 16:51:57.918979 21531 net.cpp:156] Memory required for data: 1252085280
I0403 16:51:57.918993 21531 layer_factory.hpp:77] Creating layer inception_4e/pool_proj
I0403 16:51:57.919015 21531 net.cpp:91] Creating Layer inception_4e/pool_proj
I0403 16:51:57.919033 21531 net.cpp:425] inception_4e/pool_proj <- inception_4e/pool
I0403 16:51:57.919061 21531 net.cpp:399] inception_4e/pool_proj -> inception_4e/pool_proj
I0403 16:51:57.920606 21531 net.cpp:141] Setting up inception_4e/pool_proj
I0403 16:51:57.920650 21531 net.cpp:148] Top shape: 24 128 14 14 (602112)
I0403 16:51:57.920667 21531 net.cpp:156] Memory required for data: 1254493728
I0403 16:51:57.920686 21531 layer_factory.hpp:77] Creating layer inception_4e/relu_pool_proj
I0403 16:51:57.920703 21531 net.cpp:91] Creating Layer inception_4e/relu_pool_proj
I0403 16:51:57.920720 21531 net.cpp:425] inception_4e/relu_pool_proj <- inception_4e/pool_proj
I0403 16:51:57.920737 21531 net.cpp:386] inception_4e/relu_pool_proj -> inception_4e/pool_proj (in-place)
I0403 16:51:57.921037 21531 net.cpp:141] Setting up inception_4e/relu_pool_proj
I0403 16:51:57.921069 21531 net.cpp:148] Top shape: 24 128 14 14 (602112)
I0403 16:51:57.921087 21531 net.cpp:156] Memory required for data: 1256902176
I0403 16:51:57.921102 21531 layer_factory.hpp:77] Creating layer inception_4e/output
I0403 16:51:57.921119 21531 net.cpp:91] Creating Layer inception_4e/output
I0403 16:51:57.921134 21531 net.cpp:425] inception_4e/output <- inception_4e/1x1
I0403 16:51:57.921151 21531 net.cpp:425] inception_4e/output <- inception_4e/3x3
I0403 16:51:57.921166 21531 net.cpp:425] inception_4e/output <- inception_4e/5x5
I0403 16:51:57.921182 21531 net.cpp:425] inception_4e/output <- inception_4e/pool_proj
I0403 16:51:57.921200 21531 net.cpp:399] inception_4e/output -> inception_4e/output
I0403 16:51:57.921259 21531 net.cpp:141] Setting up inception_4e/output
I0403 16:51:57.921284 21531 net.cpp:148] Top shape: 24 832 14 14 (3913728)
I0403 16:51:57.921298 21531 net.cpp:156] Memory required for data: 1272557088
I0403 16:51:57.921313 21531 layer_factory.hpp:77] Creating layer pool4/3x3_s2
I0403 16:51:57.921332 21531 net.cpp:91] Creating Layer pool4/3x3_s2
I0403 16:51:57.921350 21531 net.cpp:425] pool4/3x3_s2 <- inception_4e/output
I0403 16:51:57.921367 21531 net.cpp:399] pool4/3x3_s2 -> pool4/3x3_s2
I0403 16:51:57.921437 21531 net.cpp:141] Setting up pool4/3x3_s2
I0403 16:51:57.921461 21531 net.cpp:148] Top shape: 24 832 7 7 (978432)
I0403 16:51:57.921475 21531 net.cpp:156] Memory required for data: 1276470816
I0403 16:51:57.921489 21531 layer_factory.hpp:77] Creating layer pool4/3x3_s2_pool4/3x3_s2_0_split
I0403 16:51:57.921506 21531 net.cpp:91] Creating Layer pool4/3x3_s2_pool4/3x3_s2_0_split
I0403 16:51:57.921521 21531 net.cpp:425] pool4/3x3_s2_pool4/3x3_s2_0_split <- pool4/3x3_s2
I0403 16:51:57.921564 21531 net.cpp:399] pool4/3x3_s2_pool4/3x3_s2_0_split -> pool4/3x3_s2_pool4/3x3_s2_0_split_0
I0403 16:51:57.921587 21531 net.cpp:399] pool4/3x3_s2_pool4/3x3_s2_0_split -> pool4/3x3_s2_pool4/3x3_s2_0_split_1
I0403 16:51:57.921608 21531 net.cpp:399] pool4/3x3_s2_pool4/3x3_s2_0_split -> pool4/3x3_s2_pool4/3x3_s2_0_split_2
I0403 16:51:57.921627 21531 net.cpp:399] pool4/3x3_s2_pool4/3x3_s2_0_split -> pool4/3x3_s2_pool4/3x3_s2_0_split_3
I0403 16:51:57.921721 21531 net.cpp:141] Setting up pool4/3x3_s2_pool4/3x3_s2_0_split
I0403 16:51:57.921747 21531 net.cpp:148] Top shape: 24 832 7 7 (978432)
I0403 16:51:57.921766 21531 net.cpp:148] Top shape: 24 832 7 7 (978432)
I0403 16:51:57.921780 21531 net.cpp:148] Top shape: 24 832 7 7 (978432)
I0403 16:51:57.921795 21531 net.cpp:148] Top shape: 24 832 7 7 (978432)
I0403 16:51:57.921808 21531 net.cpp:156] Memory required for data: 1292125728
I0403 16:51:57.921823 21531 layer_factory.hpp:77] Creating layer inception_5a/1x1
I0403 16:51:57.921844 21531 net.cpp:91] Creating Layer inception_5a/1x1
I0403 16:51:57.921862 21531 net.cpp:425] inception_5a/1x1 <- pool4/3x3_s2_pool4/3x3_s2_0_split_0
I0403 16:51:57.921881 21531 net.cpp:399] inception_5a/1x1 -> inception_5a/1x1
I0403 16:51:57.924753 21531 net.cpp:141] Setting up inception_5a/1x1
I0403 16:51:57.924789 21531 net.cpp:148] Top shape: 24 256 7 7 (301056)
I0403 16:51:57.924808 21531 net.cpp:156] Memory required for data: 1293329952
I0403 16:51:57.924828 21531 layer_factory.hpp:77] Creating layer inception_5a/relu_1x1
I0403 16:51:57.924846 21531 net.cpp:91] Creating Layer inception_5a/relu_1x1
I0403 16:51:57.924863 21531 net.cpp:425] inception_5a/relu_1x1 <- inception_5a/1x1
I0403 16:51:57.924882 21531 net.cpp:386] inception_5a/relu_1x1 -> inception_5a/1x1 (in-place)
I0403 16:51:57.925200 21531 net.cpp:141] Setting up inception_5a/relu_1x1
I0403 16:51:57.925230 21531 net.cpp:148] Top shape: 24 256 7 7 (301056)
I0403 16:51:57.925259 21531 net.cpp:156] Memory required for data: 1294534176
I0403 16:51:57.925274 21531 layer_factory.hpp:77] Creating layer inception_5a/3x3_reduce
I0403 16:51:57.925297 21531 net.cpp:91] Creating Layer inception_5a/3x3_reduce
I0403 16:51:57.925315 21531 net.cpp:425] inception_5a/3x3_reduce <- pool4/3x3_s2_pool4/3x3_s2_0_split_1
I0403 16:51:57.925334 21531 net.cpp:399] inception_5a/3x3_reduce -> inception_5a/3x3_reduce
I0403 16:51:57.927819 21531 net.cpp:141] Setting up inception_5a/3x3_reduce
I0403 16:51:57.927847 21531 net.cpp:148] Top shape: 24 160 7 7 (188160)
I0403 16:51:57.927863 21531 net.cpp:156] Memory required for data: 1295286816
I0403 16:51:57.927882 21531 layer_factory.hpp:77] Creating layer inception_5a/relu_3x3_reduce
I0403 16:51:57.927902 21531 net.cpp:91] Creating Layer inception_5a/relu_3x3_reduce
I0403 16:51:57.927919 21531 net.cpp:425] inception_5a/relu_3x3_reduce <- inception_5a/3x3_reduce
I0403 16:51:57.927937 21531 net.cpp:386] inception_5a/relu_3x3_reduce -> inception_5a/3x3_reduce (in-place)
I0403 16:51:57.928134 21531 net.cpp:141] Setting up inception_5a/relu_3x3_reduce
I0403 16:51:57.928164 21531 net.cpp:148] Top shape: 24 160 7 7 (188160)
I0403 16:51:57.928180 21531 net.cpp:156] Memory required for data: 1296039456
I0403 16:51:57.928196 21531 layer_factory.hpp:77] Creating layer inception_5a/3x3
I0403 16:51:57.928220 21531 net.cpp:91] Creating Layer inception_5a/3x3
I0403 16:51:57.928238 21531 net.cpp:425] inception_5a/3x3 <- inception_5a/3x3_reduce
I0403 16:51:57.928257 21531 net.cpp:399] inception_5a/3x3 -> inception_5a/3x3
I0403 16:51:57.933328 21531 net.cpp:141] Setting up inception_5a/3x3
I0403 16:51:57.933362 21531 net.cpp:148] Top shape: 24 320 7 7 (376320)
I0403 16:51:57.933379 21531 net.cpp:156] Memory required for data: 1297544736
I0403 16:51:57.933398 21531 layer_factory.hpp:77] Creating layer inception_5a/relu_3x3
I0403 16:51:57.933418 21531 net.cpp:91] Creating Layer inception_5a/relu_3x3
I0403 16:51:57.933434 21531 net.cpp:425] inception_5a/relu_3x3 <- inception_5a/3x3
I0403 16:51:57.933455 21531 net.cpp:386] inception_5a/relu_3x3 -> inception_5a/3x3 (in-place)
I0403 16:51:57.933765 21531 net.cpp:141] Setting up inception_5a/relu_3x3
I0403 16:51:57.933794 21531 net.cpp:148] Top shape: 24 320 7 7 (376320)
I0403 16:51:57.933809 21531 net.cpp:156] Memory required for data: 1299050016
I0403 16:51:57.933823 21531 layer_factory.hpp:77] Creating layer inception_5a/5x5_reduce
I0403 16:51:57.933845 21531 net.cpp:91] Creating Layer inception_5a/5x5_reduce
I0403 16:51:57.933864 21531 net.cpp:425] inception_5a/5x5_reduce <- pool4/3x3_s2_pool4/3x3_s2_0_split_2
I0403 16:51:57.933887 21531 net.cpp:399] inception_5a/5x5_reduce -> inception_5a/5x5_reduce
I0403 16:51:57.935091 21531 net.cpp:141] Setting up inception_5a/5x5_reduce
I0403 16:51:57.935124 21531 net.cpp:148] Top shape: 24 32 7 7 (37632)
I0403 16:51:57.935142 21531 net.cpp:156] Memory required for data: 1299200544
I0403 16:51:57.935160 21531 layer_factory.hpp:77] Creating layer inception_5a/relu_5x5_reduce
I0403 16:51:57.935179 21531 net.cpp:91] Creating Layer inception_5a/relu_5x5_reduce
I0403 16:51:57.935195 21531 net.cpp:425] inception_5a/relu_5x5_reduce <- inception_5a/5x5_reduce
I0403 16:51:57.935214 21531 net.cpp:386] inception_5a/relu_5x5_reduce -> inception_5a/5x5_reduce (in-place)
I0403 16:51:57.935525 21531 net.cpp:141] Setting up inception_5a/relu_5x5_reduce
I0403 16:51:57.935552 21531 net.cpp:148] Top shape: 24 32 7 7 (37632)
I0403 16:51:57.935569 21531 net.cpp:156] Memory required for data: 1299351072
I0403 16:51:57.935582 21531 layer_factory.hpp:77] Creating layer inception_5a/5x5
I0403 16:51:57.935606 21531 net.cpp:91] Creating Layer inception_5a/5x5
I0403 16:51:57.935626 21531 net.cpp:425] inception_5a/5x5 <- inception_5a/5x5_reduce
I0403 16:51:57.935648 21531 net.cpp:399] inception_5a/5x5 -> inception_5a/5x5
I0403 16:51:57.937436 21531 net.cpp:141] Setting up inception_5a/5x5
I0403 16:51:57.937479 21531 net.cpp:148] Top shape: 24 128 7 7 (150528)
I0403 16:51:57.937502 21531 net.cpp:156] Memory required for data: 1299953184
I0403 16:51:57.937532 21531 layer_factory.hpp:77] Creating layer inception_5a/relu_5x5
I0403 16:51:57.937556 21531 net.cpp:91] Creating Layer inception_5a/relu_5x5
I0403 16:51:57.937578 21531 net.cpp:425] inception_5a/relu_5x5 <- inception_5a/5x5
I0403 16:51:57.937614 21531 net.cpp:386] inception_5a/relu_5x5 -> inception_5a/5x5 (in-place)
I0403 16:51:57.937819 21531 net.cpp:141] Setting up inception_5a/relu_5x5
I0403 16:51:57.937845 21531 net.cpp:148] Top shape: 24 128 7 7 (150528)
I0403 16:51:57.937860 21531 net.cpp:156] Memory required for data: 1300555296
I0403 16:51:57.937875 21531 layer_factory.hpp:77] Creating layer inception_5a/pool
I0403 16:51:57.937892 21531 net.cpp:91] Creating Layer inception_5a/pool
I0403 16:51:57.937908 21531 net.cpp:425] inception_5a/pool <- pool4/3x3_s2_pool4/3x3_s2_0_split_3
I0403 16:51:57.937929 21531 net.cpp:399] inception_5a/pool -> inception_5a/pool
I0403 16:51:57.938011 21531 net.cpp:141] Setting up inception_5a/pool
I0403 16:51:57.938035 21531 net.cpp:148] Top shape: 24 832 7 7 (978432)
I0403 16:51:57.938053 21531 net.cpp:156] Memory required for data: 1304469024
I0403 16:51:57.938069 21531 layer_factory.hpp:77] Creating layer inception_5a/pool_proj
I0403 16:51:57.938091 21531 net.cpp:91] Creating Layer inception_5a/pool_proj
I0403 16:51:57.938108 21531 net.cpp:425] inception_5a/pool_proj <- inception_5a/pool
I0403 16:51:57.938129 21531 net.cpp:399] inception_5a/pool_proj -> inception_5a/pool_proj
I0403 16:51:57.940438 21531 net.cpp:141] Setting up inception_5a/pool_proj
I0403 16:51:57.940469 21531 net.cpp:148] Top shape: 24 128 7 7 (150528)
I0403 16:51:57.940486 21531 net.cpp:156] Memory required for data: 1305071136
I0403 16:51:57.940505 21531 layer_factory.hpp:77] Creating layer inception_5a/relu_pool_proj
I0403 16:51:57.940526 21531 net.cpp:91] Creating Layer inception_5a/relu_pool_proj
I0403 16:51:57.940544 21531 net.cpp:425] inception_5a/relu_pool_proj <- inception_5a/pool_proj
I0403 16:51:57.940564 21531 net.cpp:386] inception_5a/relu_pool_proj -> inception_5a/pool_proj (in-place)
I0403 16:51:57.940871 21531 net.cpp:141] Setting up inception_5a/relu_pool_proj
I0403 16:51:57.940899 21531 net.cpp:148] Top shape: 24 128 7 7 (150528)
I0403 16:51:57.940914 21531 net.cpp:156] Memory required for data: 1305673248
I0403 16:51:57.940928 21531 layer_factory.hpp:77] Creating layer inception_5a/output
I0403 16:51:57.940948 21531 net.cpp:91] Creating Layer inception_5a/output
I0403 16:51:57.940964 21531 net.cpp:425] inception_5a/output <- inception_5a/1x1
I0403 16:51:57.940981 21531 net.cpp:425] inception_5a/output <- inception_5a/3x3
I0403 16:51:57.940997 21531 net.cpp:425] inception_5a/output <- inception_5a/5x5
I0403 16:51:57.941012 21531 net.cpp:425] inception_5a/output <- inception_5a/pool_proj
I0403 16:51:57.941030 21531 net.cpp:399] inception_5a/output -> inception_5a/output
I0403 16:51:57.941084 21531 net.cpp:141] Setting up inception_5a/output
I0403 16:51:57.941109 21531 net.cpp:148] Top shape: 24 832 7 7 (978432)
I0403 16:51:57.941123 21531 net.cpp:156] Memory required for data: 1309586976
I0403 16:51:57.941138 21531 layer_factory.hpp:77] Creating layer inception_5a/output_inception_5a/output_0_split
I0403 16:51:57.941156 21531 net.cpp:91] Creating Layer inception_5a/output_inception_5a/output_0_split
I0403 16:51:57.941171 21531 net.cpp:425] inception_5a/output_inception_5a/output_0_split <- inception_5a/output
I0403 16:51:57.941191 21531 net.cpp:399] inception_5a/output_inception_5a/output_0_split -> inception_5a/output_inception_5a/output_0_split_0
I0403 16:51:57.941213 21531 net.cpp:399] inception_5a/output_inception_5a/output_0_split -> inception_5a/output_inception_5a/output_0_split_1
I0403 16:51:57.941233 21531 net.cpp:399] inception_5a/output_inception_5a/output_0_split -> inception_5a/output_inception_5a/output_0_split_2
I0403 16:51:57.941264 21531 net.cpp:399] inception_5a/output_inception_5a/output_0_split -> inception_5a/output_inception_5a/output_0_split_3
I0403 16:51:57.941383 21531 net.cpp:141] Setting up inception_5a/output_inception_5a/output_0_split
I0403 16:51:57.941408 21531 net.cpp:148] Top shape: 24 832 7 7 (978432)
I0403 16:51:57.941424 21531 net.cpp:148] Top shape: 24 832 7 7 (978432)
I0403 16:51:57.941439 21531 net.cpp:148] Top shape: 24 832 7 7 (978432)
I0403 16:51:57.941454 21531 net.cpp:148] Top shape: 24 832 7 7 (978432)
I0403 16:51:57.941468 21531 net.cpp:156] Memory required for data: 1325241888
I0403 16:51:57.941483 21531 layer_factory.hpp:77] Creating layer inception_5b/1x1
I0403 16:51:57.941505 21531 net.cpp:91] Creating Layer inception_5b/1x1
I0403 16:51:57.941522 21531 net.cpp:425] inception_5b/1x1 <- inception_5a/output_inception_5a/output_0_split_0
I0403 16:51:57.941545 21531 net.cpp:399] inception_5b/1x1 -> inception_5b/1x1
I0403 16:51:57.945327 21531 net.cpp:141] Setting up inception_5b/1x1
I0403 16:51:57.945356 21531 net.cpp:148] Top shape: 24 384 7 7 (451584)
I0403 16:51:57.945372 21531 net.cpp:156] Memory required for data: 1327048224
I0403 16:51:57.945391 21531 layer_factory.hpp:77] Creating layer inception_5b/relu_1x1
I0403 16:51:57.945411 21531 net.cpp:91] Creating Layer inception_5b/relu_1x1
I0403 16:51:57.945428 21531 net.cpp:425] inception_5b/relu_1x1 <- inception_5b/1x1
I0403 16:51:57.945446 21531 net.cpp:386] inception_5b/relu_1x1 -> inception_5b/1x1 (in-place)
I0403 16:51:57.945749 21531 net.cpp:141] Setting up inception_5b/relu_1x1
I0403 16:51:57.945775 21531 net.cpp:148] Top shape: 24 384 7 7 (451584)
I0403 16:51:57.945788 21531 net.cpp:156] Memory required for data: 1328854560
I0403 16:51:57.945803 21531 layer_factory.hpp:77] Creating layer inception_5b/3x3_reduce
I0403 16:51:57.945825 21531 net.cpp:91] Creating Layer inception_5b/3x3_reduce
I0403 16:51:57.945842 21531 net.cpp:425] inception_5b/3x3_reduce <- inception_5a/output_inception_5a/output_0_split_1
I0403 16:51:57.945863 21531 net.cpp:399] inception_5b/3x3_reduce -> inception_5b/3x3_reduce
I0403 16:51:57.948483 21531 net.cpp:141] Setting up inception_5b/3x3_reduce
I0403 16:51:57.948513 21531 net.cpp:148] Top shape: 24 192 7 7 (225792)
I0403 16:51:57.948529 21531 net.cpp:156] Memory required for data: 1329757728
I0403 16:51:57.948546 21531 layer_factory.hpp:77] Creating layer inception_5b/relu_3x3_reduce
I0403 16:51:57.948566 21531 net.cpp:91] Creating Layer inception_5b/relu_3x3_reduce
I0403 16:51:57.948582 21531 net.cpp:425] inception_5b/relu_3x3_reduce <- inception_5b/3x3_reduce
I0403 16:51:57.948599 21531 net.cpp:386] inception_5b/relu_3x3_reduce -> inception_5b/3x3_reduce (in-place)
I0403 16:51:57.948791 21531 net.cpp:141] Setting up inception_5b/relu_3x3_reduce
I0403 16:51:57.948814 21531 net.cpp:148] Top shape: 24 192 7 7 (225792)
I0403 16:51:57.948828 21531 net.cpp:156] Memory required for data: 1330660896
I0403 16:51:57.948843 21531 layer_factory.hpp:77] Creating layer inception_5b/3x3
I0403 16:51:57.948864 21531 net.cpp:91] Creating Layer inception_5b/3x3
I0403 16:51:57.948881 21531 net.cpp:425] inception_5b/3x3 <- inception_5b/3x3_reduce
I0403 16:51:57.948902 21531 net.cpp:399] inception_5b/3x3 -> inception_5b/3x3
I0403 16:51:57.955493 21531 net.cpp:141] Setting up inception_5b/3x3
I0403 16:51:57.955523 21531 net.cpp:148] Top shape: 24 384 7 7 (451584)
I0403 16:51:57.955539 21531 net.cpp:156] Memory required for data: 1332467232
I0403 16:51:57.955560 21531 layer_factory.hpp:77] Creating layer inception_5b/relu_3x3
I0403 16:51:57.955579 21531 net.cpp:91] Creating Layer inception_5b/relu_3x3
I0403 16:51:57.955597 21531 net.cpp:425] inception_5b/relu_3x3 <- inception_5b/3x3
I0403 16:51:57.955615 21531 net.cpp:386] inception_5b/relu_3x3 -> inception_5b/3x3 (in-place)
I0403 16:51:57.955914 21531 net.cpp:141] Setting up inception_5b/relu_3x3
I0403 16:51:57.955940 21531 net.cpp:148] Top shape: 24 384 7 7 (451584)
I0403 16:51:57.955955 21531 net.cpp:156] Memory required for data: 1334273568
I0403 16:51:57.955971 21531 layer_factory.hpp:77] Creating layer inception_5b/5x5_reduce
I0403 16:51:57.956009 21531 net.cpp:91] Creating Layer inception_5b/5x5_reduce
I0403 16:51:57.956029 21531 net.cpp:425] inception_5b/5x5_reduce <- inception_5a/output_inception_5a/output_0_split_2
I0403 16:51:57.956053 21531 net.cpp:399] inception_5b/5x5_reduce -> inception_5b/5x5_reduce
I0403 16:51:57.957376 21531 net.cpp:141] Setting up inception_5b/5x5_reduce
I0403 16:51:57.957406 21531 net.cpp:148] Top shape: 24 48 7 7 (56448)
I0403 16:51:57.957423 21531 net.cpp:156] Memory required for data: 1334499360
I0403 16:51:57.957440 21531 layer_factory.hpp:77] Creating layer inception_5b/relu_5x5_reduce
I0403 16:51:57.957459 21531 net.cpp:91] Creating Layer inception_5b/relu_5x5_reduce
I0403 16:51:57.957476 21531 net.cpp:425] inception_5b/relu_5x5_reduce <- inception_5b/5x5_reduce
I0403 16:51:57.957494 21531 net.cpp:386] inception_5b/relu_5x5_reduce -> inception_5b/5x5_reduce (in-place)
I0403 16:51:57.957864 21531 net.cpp:141] Setting up inception_5b/relu_5x5_reduce
I0403 16:51:57.957890 21531 net.cpp:148] Top shape: 24 48 7 7 (56448)
I0403 16:51:57.957906 21531 net.cpp:156] Memory required for data: 1334725152
I0403 16:51:57.957921 21531 layer_factory.hpp:77] Creating layer inception_5b/5x5
I0403 16:51:57.957940 21531 net.cpp:91] Creating Layer inception_5b/5x5
I0403 16:51:57.957957 21531 net.cpp:425] inception_5b/5x5 <- inception_5b/5x5_reduce
I0403 16:51:57.957975 21531 net.cpp:399] inception_5b/5x5 -> inception_5b/5x5
I0403 16:51:57.960024 21531 net.cpp:141] Setting up inception_5b/5x5
I0403 16:51:57.960062 21531 net.cpp:148] Top shape: 24 128 7 7 (150528)
I0403 16:51:57.960078 21531 net.cpp:156] Memory required for data: 1335327264
I0403 16:51:57.960096 21531 layer_factory.hpp:77] Creating layer inception_5b/relu_5x5
I0403 16:51:57.960114 21531 net.cpp:91] Creating Layer inception_5b/relu_5x5
I0403 16:51:57.960129 21531 net.cpp:425] inception_5b/relu_5x5 <- inception_5b/5x5
I0403 16:51:57.960147 21531 net.cpp:386] inception_5b/relu_5x5 -> inception_5b/5x5 (in-place)
I0403 16:51:57.960340 21531 net.cpp:141] Setting up inception_5b/relu_5x5
I0403 16:51:57.960363 21531 net.cpp:148] Top shape: 24 128 7 7 (150528)
I0403 16:51:57.960377 21531 net.cpp:156] Memory required for data: 1335929376
I0403 16:51:57.960391 21531 layer_factory.hpp:77] Creating layer inception_5b/pool
I0403 16:51:57.960408 21531 net.cpp:91] Creating Layer inception_5b/pool
I0403 16:51:57.960424 21531 net.cpp:425] inception_5b/pool <- inception_5a/output_inception_5a/output_0_split_3
I0403 16:51:57.960444 21531 net.cpp:399] inception_5b/pool -> inception_5b/pool
I0403 16:51:57.960517 21531 net.cpp:141] Setting up inception_5b/pool
I0403 16:51:57.960541 21531 net.cpp:148] Top shape: 24 832 7 7 (978432)
I0403 16:51:57.960554 21531 net.cpp:156] Memory required for data: 1339843104
I0403 16:51:57.960569 21531 layer_factory.hpp:77] Creating layer inception_5b/pool_proj
I0403 16:51:57.960592 21531 net.cpp:91] Creating Layer inception_5b/pool_proj
I0403 16:51:57.960621 21531 net.cpp:425] inception_5b/pool_proj <- inception_5b/pool
I0403 16:51:57.960639 21531 net.cpp:399] inception_5b/pool_proj -> inception_5b/pool_proj
I0403 16:51:57.963042 21531 net.cpp:141] Setting up inception_5b/pool_proj
I0403 16:51:57.963078 21531 net.cpp:148] Top shape: 24 128 7 7 (150528)
I0403 16:51:57.963096 21531 net.cpp:156] Memory required for data: 1340445216
I0403 16:51:57.963114 21531 layer_factory.hpp:77] Creating layer inception_5b/relu_pool_proj
I0403 16:51:57.963132 21531 net.cpp:91] Creating Layer inception_5b/relu_pool_proj
I0403 16:51:57.963150 21531 net.cpp:425] inception_5b/relu_pool_proj <- inception_5b/pool_proj
I0403 16:51:57.963166 21531 net.cpp:386] inception_5b/relu_pool_proj -> inception_5b/pool_proj (in-place)
I0403 16:51:57.963462 21531 net.cpp:141] Setting up inception_5b/relu_pool_proj
I0403 16:51:57.963490 21531 net.cpp:148] Top shape: 24 128 7 7 (150528)
I0403 16:51:57.963505 21531 net.cpp:156] Memory required for data: 1341047328
I0403 16:51:57.963520 21531 layer_factory.hpp:77] Creating layer inception_5b/output
I0403 16:51:57.963536 21531 net.cpp:91] Creating Layer inception_5b/output
I0403 16:51:57.963567 21531 net.cpp:425] inception_5b/output <- inception_5b/1x1
I0403 16:51:57.963583 21531 net.cpp:425] inception_5b/output <- inception_5b/3x3
I0403 16:51:57.963599 21531 net.cpp:425] inception_5b/output <- inception_5b/5x5
I0403 16:51:57.963613 21531 net.cpp:425] inception_5b/output <- inception_5b/pool_proj
I0403 16:51:57.963630 21531 net.cpp:399] inception_5b/output -> inception_5b/output
I0403 16:51:57.963682 21531 net.cpp:141] Setting up inception_5b/output
I0403 16:51:57.963706 21531 net.cpp:148] Top shape: 24 1024 7 7 (1204224)
I0403 16:51:57.963719 21531 net.cpp:156] Memory required for data: 1345864224
I0403 16:51:57.963733 21531 layer_factory.hpp:77] Creating layer pool5/7x7_s1
I0403 16:51:57.963752 21531 net.cpp:91] Creating Layer pool5/7x7_s1
I0403 16:51:57.963769 21531 net.cpp:425] pool5/7x7_s1 <- inception_5b/output
I0403 16:51:57.963786 21531 net.cpp:399] pool5/7x7_s1 -> pool5/7x7_s1
I0403 16:51:57.964009 21531 net.cpp:141] Setting up pool5/7x7_s1
I0403 16:51:57.964032 21531 net.cpp:148] Top shape: 24 1024 1 1 (24576)
I0403 16:51:57.964051 21531 net.cpp:156] Memory required for data: 1345962528
I0403 16:51:57.964066 21531 layer_factory.hpp:77] Creating layer pool5/drop_7x7_s1
I0403 16:51:57.964083 21531 net.cpp:91] Creating Layer pool5/drop_7x7_s1
I0403 16:51:57.964098 21531 net.cpp:425] pool5/drop_7x7_s1 <- pool5/7x7_s1
I0403 16:51:57.964118 21531 net.cpp:386] pool5/drop_7x7_s1 -> pool5/7x7_s1 (in-place)
I0403 16:51:57.964167 21531 net.cpp:141] Setting up pool5/drop_7x7_s1
I0403 16:51:57.964190 21531 net.cpp:148] Top shape: 24 1024 1 1 (24576)
I0403 16:51:57.964203 21531 net.cpp:156] Memory required for data: 1346060832
I0403 16:51:57.964217 21531 layer_factory.hpp:77] Creating layer loss3/classifier_plantvillage
I0403 16:51:57.964238 21531 net.cpp:91] Creating Layer loss3/classifier_plantvillage
I0403 16:51:57.964256 21531 net.cpp:425] loss3/classifier_plantvillage <- pool5/7x7_s1
I0403 16:51:57.964278 21531 net.cpp:399] loss3/classifier_plantvillage -> loss3/classifier_plantvillage
I0403 16:51:57.964700 21531 net.cpp:141] Setting up loss3/classifier_plantvillage
I0403 16:51:57.964725 21531 net.cpp:148] Top shape: 24 38 (912)
I0403 16:51:57.964740 21531 net.cpp:156] Memory required for data: 1346064480
I0403 16:51:57.964756 21531 layer_factory.hpp:77] Creating layer loss3/classifier_plantvillage_loss3/classifier_plantvillage_0_split
I0403 16:51:57.964774 21531 net.cpp:91] Creating Layer loss3/classifier_plantvillage_loss3/classifier_plantvillage_0_split
I0403 16:51:57.964790 21531 net.cpp:425] loss3/classifier_plantvillage_loss3/classifier_plantvillage_0_split <- loss3/classifier_plantvillage
I0403 16:51:57.964810 21531 net.cpp:399] loss3/classifier_plantvillage_loss3/classifier_plantvillage_0_split -> loss3/classifier_plantvillage_loss3/classifier_plantvillage_0_split_0
I0403 16:51:57.964830 21531 net.cpp:399] loss3/classifier_plantvillage_loss3/classifier_plantvillage_0_split -> loss3/classifier_plantvillage_loss3/classifier_plantvillage_0_split_1
I0403 16:51:57.964850 21531 net.cpp:399] loss3/classifier_plantvillage_loss3/classifier_plantvillage_0_split -> loss3/classifier_plantvillage_loss3/classifier_plantvillage_0_split_2
I0403 16:51:57.964871 21531 net.cpp:399] loss3/classifier_plantvillage_loss3/classifier_plantvillage_0_split -> loss3/classifier_plantvillage_loss3/classifier_plantvillage_0_split_3
I0403 16:51:57.964973 21531 net.cpp:141] Setting up loss3/classifier_plantvillage_loss3/classifier_plantvillage_0_split
I0403 16:51:57.964997 21531 net.cpp:148] Top shape: 24 38 (912)
I0403 16:51:57.965011 21531 net.cpp:148] Top shape: 24 38 (912)
I0403 16:51:57.965026 21531 net.cpp:148] Top shape: 24 38 (912)
I0403 16:51:57.965040 21531 net.cpp:148] Top shape: 24 38 (912)
I0403 16:51:57.965059 21531 net.cpp:156] Memory required for data: 1346079072
I0403 16:51:57.965075 21531 layer_factory.hpp:77] Creating layer loss1/loss
I0403 16:51:57.965095 21531 net.cpp:91] Creating Layer loss1/loss
I0403 16:51:57.965111 21531 net.cpp:425] loss1/loss <- loss1/classifier_plantvillage_loss1/classifier_plantvillage_0_split_0
I0403 16:51:57.965140 21531 net.cpp:425] loss1/loss <- label_data_1_split_0
…
