…
I0403 16:57:27.606914 21619 net.cpp:313] The NetState phase (1) differed from the phase (0) specified by a rule in layer data
I0403 16:57:27.608104 21619 net.cpp:49] Initializing net from parameters: 
state {
  phase: TEST
}
layer {
  name: "data"
  type: "Data"
  top: "data"
  top: "label"
  include {
    phase: TEST
  }
  transform_param {
    mirror: false
    crop_size: 224
    mean_file: "/home/mohanty/data/final_dataset/lmdb/grayscale-20-80/mean.binaryproto"
  }
  data_param {
    source: "/home/mohanty/data/final_dataset/lmdb/grayscale-20-80/test_db"
    batch_size: 24
    backend: LMDB
  }
}
layer {
  name: "conv1/7x7_s2"
  type: "Convolution"
  bottom: "data"
  top: "conv1/7x7_s2"
  param {
    lr_mult: 1
    decay_mult: 1
  }
  param {
    lr_mult: 2
    decay_mult: 0
  }
  convolution_param {
    num_output: 64
    pad: 3
    kernel_size: 7
    stride: 2
    weight_filler {
      type: "xavier"
      std: 0.1
    }
    bias_filler {
      type: "constant"
      value: 0.2
    }
  }
}
layer {
  name: "conv1/relu_7x7"
  type: "ReLU"
  bottom: "conv1/7x7_s2"
  top: "conv1/7x7_s2"
}
layer {
  name: "pool1/3x3_s2"
  type: "Pooling"
  bottom: "conv1/7x7_s2"
  top: "pool1/3x3_s2"
  pooling_param {
    pool: MAX
    kernel_size: 3
    stride: 2
  }
}
layer {
  name: "pool1/norm1"
  type: "LRN"
  bottom: "pool1/3x3_s2"
  top: "pool1/norm1"
  lrn_param {
    local_size: 5
    alpha: 0.0001
    beta: 0.75
  }
}
layer {
  name: "conv2/3x3_reduce"
  type: "Convolution"
  bottom: "pool1/norm1"
  top: "conv2/3x3_reduce"
  param {
    lr_mult: 1
    decay_mult: 1
  }
  param {
    lr_mult: 2
    decay_mult: 0
  }
  convolution_param {
    num_output: 64
    kernel_size: 1
    weight_filler {
      type: "xavier"
      std: 0.1
    }
    bias_filler {
      type: "constant"
      value: 0.2
    }
  }
}
layer {
  name: "conv2/relu_3x3_reduce"
  type: "ReLU"
  bottom: "conv2/3x3_reduce"
  top: "conv2/3x3_reduce"
}
layer {
  name: "conv2/3x3"
  type: "Convolution"
  bottom: "conv2/3x3_reduce"
  top: "conv2/3x3"
  param {
    lr_mult: 1
    decay_mult: 1
  }
  param {
    lr_mult: 2
    decay_mult: 0
  }
  convolution_param {
    num_output: 192
    pad: 1
    kernel_size: 3
    weight_filler {
      type: "xavier"
      std: 0.03
    }
    bias_filler {
      type: "constant"
      value: 0.2
    }
  }
}
layer {
  name: "conv2/relu_3x3"
  type: "ReLU"
  bottom: "conv2/3x3"
  top: "conv2/3x3"
}
layer {
  name: "conv2/norm2"
  type: "LRN"
  bottom: "conv2/3x3"
  top: "conv2/norm2"
  lrn_param {
    local_size: 5
    alpha: 0.0001
    beta: 0.75
  }
}
layer {
  name: "pool2/3x3_s2"
  type: "Pooling"
  bottom: "conv2/norm2"
  top: "pool2/3x3_s2"
  pooling_param {
    pool: MAX
    kernel_size: 3
    stride: 2
  }
}
layer {
  name: "inception_3a/1x1"
  type: "Convolution"
  bottom: "pool2/3x3_s2"
  top: "inception_3a/1x1"
  param {
    lr_mult: 1
    decay_mult: 1
  }
  param {
    lr_mult: 2
    decay_mult: 0
  }
  convolution_param {
    num_output: 64
    kernel_size: 1
    weight_filler {
      type: "xavier"
      std: 0.03
    }
    bias_filler {
      type: "constant"
      value: 0.2
    }
  }
}
layer {
  name: "inception_3a/relu_1x1"
  type: "ReLU"
  bottom: "inception_3a/1x1"
  top: "inception_3a/1x1"
}
layer {
  name: "inception_3a/3x3_reduce"
  type: "Convolution"
  bottom: "pool2/3x3_s2"
  top: "inception_3a/3x3_reduce"
  param {
    lr_mult: 1
    decay_mult: 1
  }
  param {
    lr_mult: 2
    decay_mult: 0
  }
  convolution_param {
    num_output: 96
    kernel_size: 1
    weight_filler {
      type: "xavier"
      std: 0.09
    }
    bias_filler {
      type: "constant"
      value: 0.2
    }
  }
}
layer {
  name: "inception_3a/relu_3x3_reduce"
  type: "ReLU"
  bottom: "inception_3a/3x3_reduce"
  top: "inception_3a/3x3_reduce"
}
layer {
  name: "inception_3a/3x3"
  type: "Convolution"
  bottom: "inception_3a/3x3_reduce"
  top: "inception_3a/3x3"
  param {
    lr_mult: 1
    decay_mult: 1
  }
  param {
    lr_mult: 2
    decay_mult: 0
  }
  convolution_param {
    num_output: 128
    pad: 1
    kernel_size: 3
    weight_filler {
      type: "xavier"
      std: 0.03
    }
    bias_filler {
      type: "constant"
      value: 0.2
    }
  }
}
layer {
  name: "inception_3a/relu_3x3"
  type: "ReLU"
  bottom: "inception_3a/3x3"
  top: "inception_3a/3x3"
}
layer {
  name: "inception_3a/5x5_reduce"
  type: "Convolution"
  bottom: "pool2/3x3_s2"
  top: "inception_3a/5x5_reduce"
  param {
    lr_mult: 1
    decay_mult: 1
  }
  param {
    lr_mult: 2
    decay_mult: 0
  }
  convolution_param {
    num_output: 16
    kernel_size: 1
    weight_filler {
      type: "xavier"
      std: 0.2
    }
    bias_filler {
      type: "constant"
      value: 0.2
    }
  }
}
layer {
  name: "inception_3a/relu_5x5_reduce"
  type: "ReLU"
  bottom: "inception_3a/5x5_reduce"
  top: "inception_3a/5x5_reduce"
}
layer {
  name: "inception_3a/5x5"
  type: "Convolution"
  bottom: "inception_3a/5x5_reduce"
  top: "inception_3a/5x5"
  param {
    lr_mult: 1
    decay_mult: 1
  }
  param {
    lr_mult: 2
    decay_mult: 0
  }
  convolution_param {
    num_output: 32
    pad: 2
    kernel_size: 5
    weight_filler {
      type: "xavier"
      std: 0.03
    }
    bias_filler {
      type: "constant"
      value: 0.2
    }
  }
}
layer {
  name: "inception_3a/relu_5x5"
  type: "ReLU"
  bottom: "inception_3a/5x5"
  top: "inception_3a/5x5"
}
layer {
  name: "inception_3a/pool"
  type: "Pooling"
  bottom: "pool2/3x3_s2"
  top: "inception_3a/pool"
  pooling_param {
    pool: MAX
    kernel_size: 3
    stride: 1
    pad: 1
  }
}
layer {
  name: "inception_3a/pool_proj"
  type: "Convolution"
  bottom: "inception_3a/pool"
  top: "inception_3a/pool_proj"
  param {
    lr_mult: 1
    decay_mult: 1
  }
  param {
    lr_mult: 2
    decay_mult: 0
  }
  convolution_param {
    num_output: 32
    kernel_size: 1
    weight_filler {
      type: "xavier"
      std: 0.1
    }
    bias_filler {
      type: "constant"
      value: 0.2
    }
  }
}
layer {
  name: "inception_3a/relu_pool_proj"
  type: "ReLU"
  bottom: "inception_3a/pool_proj"
  top: "inception_3a/pool_proj"
}
layer {
  name: "inception_3a/output"
  type: "Concat"
  bottom: "inception_3a/1x1"
  bottom: "inception_3a/3x3"
  bottom: "inception_3a/5x5"
  bottom: "inception_3a/pool_proj"
  top: "inception_3a/output"
}
layer {
  name: "inception_3b/1x1"
  type: "Convolution"
  bottom: "inception_3a/output"
  top: "inception_3b/1x1"
  param {
    lr_mult: 1
    decay_mult: 1
  }
  param {
    lr_mult: 2
    decay_mult: 0
  }
  convolution_param {
    num_output: 128
    kernel_size: 1
    weight_filler {
      type: "xavier"
      std: 0.03
    }
    bias_filler {
      type: "constant"
      value: 0.2
    }
  }
}
layer {
  name: "inception_3b/relu_1x1"
  type: "ReLU"
  bottom: "inception_3b/1x1"
  top: "inception_3b/1x1"
}
layer {
  name: "inception_3b/3x3_reduce"
  type: "Convolution"
  bottom: "inception_3a/output"
  top: "inception_3b/3x3_reduce"
  param {
    lr_mult: 1
    decay_mult: 1
  }
  param {
    lr_mult: 2
    decay_mult: 0
  }
  convolution_param {
    num_output: 128
    kernel_size: 1
    weight_filler {
      type: "xavier"
      std: 0.09
    }
    bias_filler {
      type: "constant"
      value: 0.2
    }
  }
}
layer {
  name: "inception_3b/relu_3x3_reduce"
  type: "ReLU"
  bottom: "inception_3b/3x3_reduce"
  top: "inception_3b/3x3_reduce"
}
layer {
  name: "inception_3b/3x3"
  type: "Convolution"
  bottom: "inception_3b/3x3_reduce"
  top: "inception_3b/3x3"
  param {
    lr_mult: 1
    decay_mult: 1
  }
  param {
    lr_mult: 2
    decay_mult: 0
  }
  convolution_param {
    num_output: 192
    pad: 1
    kernel_size: 3
    weight_filler {
      type: "xavier"
      std: 0.03
    }
    bias_filler {
      type: "constant"
      value: 0.2
    }
  }
}
layer {
  name: "inception_3b/relu_3x3"
  type: "ReLU"
  bottom: "inception_3b/3x3"
  top: "inception_3b/3x3"
}
layer {
  name: "inception_3b/5x5_reduce"
  type: "Convolution"
  bottom: "inception_3a/output"
  top: "inception_3b/5x5_reduce"
  param {
    lr_mult: 1
    decay_mult: 1
  }
  param {
    lr_mult: 2
    decay_mult: 0
  }
  convolution_param {
    num_output: 32
    kernel_size: 1
    weight_filler {
      type: "xavier"
      std: 0.2
    }
    bias_filler {
      type: "constant"
      value: 0.2
    }
  }
}
layer {
  name: "inception_3b/relu_5x5_reduce"
  type: "ReLU"
  bottom: "inception_3b/5x5_reduce"
  top: "inception_3b/5x5_reduce"
}
layer {
  name: "inception_3b/5x5"
  type: "Convolution"
  bottom: "inception_3b/5x5_reduce"
  top: "inception_3b/5x5"
  param {
    lr_mult: 1
    decay_mult: 1
  }
  param {
    lr_mult: 2
    decay_mult: 0
  }
  convolution_param {
    num_output: 96
    pad: 2
    kernel_size: 5
    weight_filler {
      type: "xavier"
      std: 0.03
    }
    bias_filler {
      type: "constant"
      value: 0.2
    }
  }
}
layer {
  name: "inception_3b/relu_5x5"
  type: "ReLU"
  bottom: "inception_3b/5x5"
  top: "inception_3b/5x5"
}
layer {
  name: "inception_3b/pool"
  type: "Pooling"
  bottom: "inception_3a/output"
  top: "inception_3b/pool"
  pooling_param {
    pool: MAX
    kernel_size: 3
    stride: 1
    pad: 1
  }
}
layer {
  name: "inception_3b/pool_proj"
  type: "Convolution"
  bottom: "inception_3b/pool"
  top: "inception_3b/pool_proj"
  param {
    lr_mult: 1
    decay_mult: 1
  }
  param {
    lr_mult: 2
    decay_mult: 0
  }
  convolution_param {
    num_output: 64
    kernel_size: 1
    weight_filler {
      type: "xavier"
      std: 0.1
    }
    bias_filler {
      type: "constant"
      value: 0.2
    }
  }
}
layer {
  name: "inception_3b/relu_pool_proj"
  type: "ReLU"
  bottom: "inception_3b/pool_proj"
  top: "inception_3b/pool_proj"
}
layer {
  name: "inception_3b/output"
  type: "Concat"
  bottom: "inception_3b/1x1"
  bottom: "inception_3b/3x3"
  bottom: "inception_3b/5x5"
  bottom: "inception_3b/pool_proj"
  top: "inception_3b/output"
}
layer {
  name: "pool3/3x3_s2"
  type: "Pooling"
  bottom: "inception_3b/output"
  top: "pool3/3x3_s2"
  pooling_param {
    pool: MAX
    kernel_size: 3
    stride: 2
  }
}
layer {
  name: "inception_4a/1x1"
  type: "Convolution"
  bottom: "pool3/3x3_s2"
  top: "inception_4a/1x1"
  param {
    lr_mult: 1
    decay_mult: 1
  }
  param {
    lr_mult: 2
    decay_mult: 0
  }
  convolution_param {
    num_output: 192
    kernel_size: 1
    weight_filler {
      type: "xavier"
      std: 0.03
    }
    bias_filler {
      type: "constant"
      value: 0.2
    }
  }
}
layer {
  name: "inception_4a/relu_1x1"
  type: "ReLU"
  bottom: "inception_4a/1x1"
  top: "inception_4a/1x1"
}
layer {
  name: "inception_4a/3x3_reduce"
  type: "Convolution"
  bottom: "pool3/3x3_s2"
  top: "inception_4a/3x3_reduce"
  param {
    lr_mult: 1
    decay_mult: 1
  }
  param {
    lr_mult: 2
    decay_mult: 0
  }
  convolution_param {
    num_output: 96
    kernel_size: 1
    weight_filler {
      type: "xavier"
      std: 0.09
    }
    bias_filler {
      type: "constant"
      value: 0.2
    }
  }
}
layer {
  name: "inception_4a/relu_3x3_reduce"
  type: "ReLU"
  bottom: "inception_4a/3x3_reduce"
  top: "inception_4a/3x3_reduce"
}
layer {
  name: "inception_4a/3x3"
  type: "Convolution"
  bottom: "inception_4a/3x3_reduce"
  top: "inception_4a/3x3"
  param {
    lr_mult: 1
    decay_mult: 1
  }
  param {
    lr_mult: 2
    decay_mult: 0
  }
  convolution_param {
    num_output: 208
    pad: 1
    kernel_size: 3
    weight_filler {
      type: "xavier"
      std: 0.03
    }
    bias_filler {
      type: "constant"
      value: 0.2
    }
  }
}
layer {
  name: "inception_4a/relu_3x3"
  type: "ReLU"
  bottom: "inception_4a/3x3"
  top: "inception_4a/3x3"
}
layer {
  name: "inception_4a/5x5_reduce"
  type: "Convolution"
  bottom: "pool3/3x3_s2"
  top: "inception_4a/5x5_reduce"
  param {
    lr_mult: 1
    decay_mult: 1
  }
  param {
    lr_mult: 2
    decay_mult: 0
  }
  convolution_param {
    num_output: 16
    kernel_size: 1
    weight_filler {
      type: "xavier"
      std: 0.2
    }
    bias_filler {
      type: "constant"
      value: 0.2
    }
  }
}
layer {
  name: "inception_4a/relu_5x5_reduce"
  type: "ReLU"
  bottom: "inception_4a/5x5_reduce"
  top: "inception_4a/5x5_reduce"
}
layer {
  name: "inception_4a/5x5"
  type: "Convolution"
  bottom: "inception_4a/5x5_reduce"
  top: "inception_4a/5x5"
  param {
    lr_mult: 1
    decay_mult: 1
  }
  param {
    lr_mult: 2
    decay_mult: 0
  }
  convolution_param {
    num_output: 48
    pad: 2
    kernel_size: 5
    weight_filler {
      type: "xavier"
      std: 0.03
    }
    bias_filler {
      type: "constant"
      value: 0.2
    }
  }
}
layer {
  name: "inception_4a/relu_5x5"
  type: "ReLU"
  bottom: "inception_4a/5x5"
  top: "inception_4a/5x5"
}
layer {
  name: "inception_4a/pool"
  type: "Pooling"
  bottom: "pool3/3x3_s2"
  top: "inception_4a/pool"
  pooling_param {
    pool: MAX
    kernel_size: 3
    stride: 1
    pad: 1
  }
}
layer {
  name: "inception_4a/pool_proj"
  type: "Convolution"
  bottom: "inception_4a/pool"
  top: "inception_4a/pool_proj"
  param {
    lr_mult: 1
    decay_mult: 1
  }
  param {
    lr_mult: 2
    decay_mult: 0
  }
  convolution_param {
    num_output: 64
    kernel_size: 1
    weight_filler {
      type: "xavier"
      std: 0.1
    }
    bias_filler {
      type: "constant"
      value: 0.2
    }
  }
}
layer {
  name: "inception_4a/relu_pool_proj"
  type: "ReLU"
  bottom: "inception_4a/pool_proj"
  top: "inception_4a/pool_proj"
}
layer {
  name: "inception_4a/output"
  type: "Concat"
  bottom: "inception_4a/1x1"
  bottom: "inception_4a/3x3"
  bottom: "inception_4a/5x5"
  bottom: "inception_4a/pool_proj"
  top: "inception_4a/output"
}
layer {
  name: "loss1/ave_pool"
  type: "Pooling"
  bottom: "inception_4a/output"
  top: "loss1/ave_pool"
  pooling_param {
    pool: AVE
    kernel_size: 5
    stride: 3
  }
}
layer {
  name: "loss1/conv"
  type: "Convolution"
  bottom: "loss1/ave_pool"
  top: "loss1/conv"
  param {
    lr_mult: 1
    decay_mult: 1
  }
  param {
    lr_mult: 2
    decay_mult: 0
  }
  convolution_param {
    num_output: 128
    kernel_size: 1
    weight_filler {
      type: "xavier"
      std: 0.08
    }
    bias_filler {
      type: "constant"
      value: 0.2
    }
  }
}
layer {
  name: "loss1/relu_conv"
  type: "ReLU"
  bottom: "loss1/conv"
  top: "loss1/conv"
}
layer {
  name: "loss1/fc"
  type: "InnerProduct"
  bottom: "loss1/conv"
  top: "loss1/fc"
  param {
    lr_mult: 1
    decay_mult: 1
  }
  param {
    lr_mult: 2
    decay_mult: 0
  }
  inner_product_param {
    num_output: 1024
    weight_filler {
      type: "xavier"
      std: 0.02
    }
    bias_filler {
      type: "constant"
      value: 0.2
    }
  }
}
layer {
  name: "loss1/relu_fc"
  type: "ReLU"
  bottom: "loss1/fc"
  top: "loss1/fc"
}
layer {
  name: "loss1/drop_fc"
  type: "Dropout"
  bottom: "loss1/fc"
  top: "loss1/fc"
  dropout_param {
    dropout_ratio: 0.7
  }
}
layer {
  name: "loss1/classifier_plantvillage"
  type: "InnerProduct"
  bottom: "loss1/fc"
  top: "loss1/classifier_plantvillage"
  param {
    lr_mult: 1
    decay_mult: 1
  }
  param {
    lr_mult: 2
    decay_mult: 0
  }
  inner_product_param {
    num_output: 38
    weight_filler {
      type: "xavier"
      std: 0.0009765625
    }
    bias_filler {
      type: "constant"
      value: 0
    }
  }
}
layer {
  name: "inception_4b/1x1"
  type: "Convolution"
  bottom: "inception_4a/output"
  top: "inception_4b/1x1"
  param {
    lr_mult: 1
    decay_mult: 1
  }
  param {
    lr_mult: 2
    decay_mult: 0
  }
  convolution_param {
    num_output: 160
    kernel_size: 1
    weight_filler {
      type: "xavier"
      std: 0.03
    }
    bias_filler {
      type: "constant"
      value: 0.2
    }
  }
}
layer {
  name: "inception_4b/relu_1x1"
  type: "ReLU"
  bottom: "inception_4b/1x1"
  top: "inception_4b/1x1"
}
layer {
  name: "inception_4b/3x3_reduce"
  type: "Convolution"
  bottom: "inception_4a/output"
  top: "inception_4b/3x3_reduce"
  param {
    lr_mult: 1
    decay_mult: 1
  }
  param {
    lr_mult: 2
    decay_mult: 0
  }
  convolution_param {
    num_output: 112
    kernel_size: 1
    weight_filler {
      type: "xavier"
      std: 0.09
    }
    bias_filler {
      type: "constant"
      value: 0.2
    }
  }
}
layer {
  name: "inception_4b/relu_3x3_reduce"
  type: "ReLU"
  bottom: "inception_4b/3x3_reduce"
  top: "inception_4b/3x3_reduce"
}
layer {
  name: "inception_4b/3x3"
  type: "Convolution"
  bottom: "inception_4b/3x3_reduce"
  top: "inception_4b/3x3"
  param {
    lr_mult: 1
    decay_mult: 1
  }
  param {
    lr_mult: 2
    decay_mult: 0
  }
  convolution_param {
    num_output: 224
    pad: 1
    kernel_size: 3
    weight_filler {
      type: "xavier"
      std: 0.03
    }
    bias_filler {
      type: "constant"
      value: 0.2
    }
  }
}
layer {
  name: "inception_4b/relu_3x3"
  type: "ReLU"
  bottom: "inception_4b/3x3"
  top: "inception_4b/3x3"
}
layer {
  name: "inception_4b/5x5_reduce"
  type: "Convolution"
  bottom: "inception_4a/output"
  top: "inception_4b/5x5_reduce"
  param {
    lr_mult: 1
    decay_mult: 1
  }
  param {
    lr_mult: 2
    decay_mult: 0
  }
  convolution_param {
    num_output: 24
    kernel_size: 1
    weight_filler {
      type: "xavier"
      std: 0.2
    }
    bias_filler {
      type: "constant"
      value: 0.2
    }
  }
}
layer {
  name: "inception_4b/relu_5x5_reduce"
  type: "ReLU"
  bottom: "inception_4b/5x5_reduce"
  top: "inception_4b/5x5_reduce"
}
layer {
  name: "inception_4b/5x5"
  type: "Convolution"
  bottom: "inception_4b/5x5_reduce"
  top: "inception_4b/5x5"
  param {
    lr_mult: 1
    decay_mult: 1
  }
  param {
    lr_mult: 2
    decay_mult: 0
  }
  convolution_param {
    num_output: 64
    pad: 2
    kernel_size: 5
    weight_filler {
      type: "xavier"
      std: 0.03
    }
    bias_filler {
      type: "constant"
      value: 0.2
    }
  }
}
layer {
  name: "inception_4b/relu_5x5"
  type: "ReLU"
  bottom: "inception_4b/5x5"
  top: "inception_4b/5x5"
}
layer {
  name: "inception_4b/pool"
  type: "Pooling"
  bottom: "inception_4a/output"
  top: "inception_4b/pool"
  pooling_param {
    pool: MAX
    kernel_size: 3
    stride: 1
    pad: 1
  }
}
layer {
  name: "inception_4b/pool_proj"
  type: "Convolution"
  bottom: "inception_4b/pool"
  top: "inception_4b/pool_proj"
  param {
    lr_mult: 1
    decay_mult: 1
  }
  param {
    lr_mult: 2
    decay_mult: 0
  }
  convolution_param {
    num_output: 64
    kernel_size: 1
    weight_filler {
      type: "xavier"
      std: 0.1
    }
    bias_filler {
      type: "constant"
      value: 0.2
    }
  }
}
layer {
  name: "inception_4b/relu_pool_proj"
  type: "ReLU"
  bottom: "inception_4b/pool_proj"
  top: "inception_4b/pool_proj"
}
layer {
  name: "inception_4b/output"
  type: "Concat"
  bottom: "inception_4b/1x1"
  bottom: "inception_4b/3x3"
  bottom: "inception_4b/5x5"
  bottom: "inception_4b/pool_proj"
  top: "inception_4b/output"
}
layer {
  name: "inception_4c/1x1"
  type: "Convolution"
  bottom: "inception_4b/output"
  top: "inception_4c/1x1"
  param {
    lr_mult: 1
    decay_mult: 1
  }
  param {
    lr_mult: 2
    decay_mult: 0
  }
  convolution_param {
    num_output: 128
    kernel_size: 1
    weight_filler {
      type: "xavier"
      std: 0.03
    }
    bias_filler {
      type: "constant"
      value: 0.2
    }
  }
}
layer {
  name: "inception_4c/relu_1x1"
  type: "ReLU"
  bottom: "inception_4c/1x1"
  top: "inception_4c/1x1"
}
layer {
  name: "inception_4c/3x3_reduce"
  type: "Convolution"
  bottom: "inception_4b/output"
  top: "inception_4c/3x3_reduce"
  param {
    lr_mult: 1
    decay_mult: 1
  }
  param {
    lr_mult: 2
    decay_mult: 0
  }
  convolution_param {
    num_output: 128
    kernel_size: 1
    weight_filler {
      type: "xavier"
      std: 0.09
    }
    bias_filler {
      type: "constant"
      value: 0.2
    }
  }
}
layer {
  name: "inception_4c/relu_3x3_reduce"
  type: "ReLU"
  bottom: "inception_4c/3x3_reduce"
  top: "inception_4c/3x3_reduce"
}
layer {
  name: "inception_4c/3x3"
  type: "Convolution"
  bottom: "inception_4c/3x3_reduce"
  top: "inception_4c/3x3"
  param {
    lr_mult: 1
    decay_mult: 1
  }
  param {
    lr_mult: 2
    decay_mult: 0
  }
  convolution_param {
    num_output: 256
    pad: 1
    kernel_size: 3
    weight_filler {
      type: "xavier"
      std: 0.03
    }
    bias_filler {
      type: "constant"
      value: 0.2
    }
  }
}
layer {
  name: "inception_4c/relu_3x3"
  type: "ReLU"
  bottom: "inception_4c/3x3"
  top: "inception_4c/3x3"
}
layer {
  name: "inception_4c/5x5_reduce"
  type: "Convolution"
  bottom: "inception_4b/output"
  top: "inception_4c/5x5_reduce"
  param {
    lr_mult: 1
    decay_mult: 1
  }
  param {
    lr_mult: 2
    decay_mult: 0
  }
  convolution_param {
    num_output: 24
    kernel_size: 1
    weight_filler {
      type: "xavier"
      std: 0.2
    }
    bias_filler {
      type: "constant"
      value: 0.2
    }
  }
}
layer {
  name: "inception_4c/relu_5x5_reduce"
  type: "ReLU"
  bottom: "inception_4c/5x5_reduce"
  top: "inception_4c/5x5_reduce"
}
layer {
  name: "inception_4c/5x5"
  type: "Convolution"
  bottom: "inception_4c/5x5_reduce"
  top: "inception_4c/5x5"
  param {
    lr_mult: 1
    decay_mult: 1
  }
  param {
    lr_mult: 2
    decay_mult: 0
  }
  convolution_param {
    num_output: 64
    pad: 2
    kernel_size: 5
    weight_filler {
      type: "xavier"
      std: 0.03
    }
    bias_filler {
      type: "constant"
      value: 0.2
    }
  }
}
layer {
  name: "inception_4c/relu_5x5"
  type: "ReLU"
  bottom: "inception_4c/5x5"
  top: "inception_4c/5x5"
}
layer {
  name: "inception_4c/pool"
  type: "Pooling"
  bottom: "inception_4b/output"
  top: "inception_4c/pool"
  pooling_param {
    pool: MAX
    kernel_size: 3
    stride: 1
    pad: 1
  }
}
layer {
  name: "inception_4c/pool_proj"
  type: "Convolution"
  bottom: "inception_4c/pool"
  top: "inception_4c/pool_proj"
  param {
    lr_mult: 1
    decay_mult: 1
  }
  param {
    lr_mult: 2
    decay_mult: 0
  }
  convolution_param {
    num_output: 64
    kernel_size: 1
    weight_filler {
      type: "xavier"
      std: 0.1
    }
    bias_filler {
      type: "constant"
      value: 0.2
    }
  }
}
layer {
  name: "inception_4c/relu_pool_proj"
  type: "ReLU"
  bottom: "inception_4c/pool_proj"
  top: "inception_4c/pool_proj"
}
layer {
  name: "inception_4c/output"
  type: "Concat"
  bottom: "inception_4c/1x1"
  bottom: "inception_4c/3x3"
  bottom: "inception_4c/5x5"
  bottom: "inception_4c/pool_proj"
  top: "inception_4c/output"
}
layer {
  name: "inception_4d/1x1"
  type: "Convolution"
  bottom: "inception_4c/output"
  top: "inception_4d/1x1"
  param {
    lr_mult: 1
    decay_mult: 1
  }
  param {
    lr_mult: 2
    decay_mult: 0
  }
  convolution_param {
    num_output: 112
    kernel_size: 1
    weight_filler {
      type: "xavier"
      std: 0.03
    }
    bias_filler {
      type: "constant"
      value: 0.2
    }
  }
}
layer {
  name: "inception_4d/relu_1x1"
  type: "ReLU"
  bottom: "inception_4d/1x1"
  top: "inception_4d/1x1"
}
layer {
  name: "inception_4d/3x3_reduce"
  type: "Convolution"
  bottom: "inception_4c/output"
  top: "inception_4d/3x3_reduce"
  param {
    lr_mult: 1
    decay_mult: 1
  }
  param {
    lr_mult: 2
    decay_mult: 0
  }
  convolution_param {
    num_output: 144
    kernel_size: 1
    weight_filler {
      type: "xavier"
      std: 0.09
    }
    bias_filler {
      type: "constant"
      value: 0.2
    }
  }
}
layer {
  name: "inception_4d/relu_3x3_reduce"
  type: "ReLU"
  bottom: "inception_4d/3x3_reduce"
  top: "inception_4d/3x3_reduce"
}
layer {
  name: "inception_4d/3x3"
  type: "Convolution"
  bottom: "inception_4d/3x3_reduce"
  top: "inception_4d/3x3"
  param {
    lr_mult: 1
    decay_mult: 1
  }
  param {
    lr_mult: 2
    decay_mult: 0
  }
  convolution_param {
    num_output: 288
    pad: 1
    kernel_size: 3
    weight_filler {
      type: "xavier"
      std: 0.03
    }
    bias_filler {
      type: "constant"
      value: 0.2
    }
  }
}
layer {
  name: "inception_4d/relu_3x3"
  type: "ReLU"
  bottom: "inception_4d/3x3"
  top: "inception_4d/3x3"
}
layer {
  name: "inception_4d/5x5_reduce"
  type: "Convolution"
  bottom: "inception_4c/output"
  top: "inception_4d/5x5_reduce"
  param {
    lr_mult: 1
    decay_mult: 1
  }
  param {
    lr_mult: 2
    decay_mult: 0
  }
  convolution_param {
    num_output: 32
    kernel_size: 1
    weight_filler {
      type: "xavier"
      std: 0.2
    }
    bias_filler {
      type: "constant"
      value: 0.2
    }
  }
}
layer {
  name: "inception_4d/relu_5x5_reduce"
  type: "ReLU"
  bottom: "inception_4d/5x5_reduce"
  top: "inception_4d/5x5_reduce"
}
layer {
  name: "inception_4d/5x5"
  type: "Convolution"
  bottom: "inception_4d/5x5_reduce"
  top: "inception_4d/5x5"
  param {
    lr_mult: 1
    decay_mult: 1
  }
  param {
    lr_mult: 2
    decay_mult: 0
  }
  convolution_param {
    num_output: 64
    pad: 2
    kernel_size: 5
    weight_filler {
      type: "xavier"
      std: 0.03
    }
    bias_filler {
      type: "constant"
      value: 0.2
    }
  }
}
layer {
  name: "inception_4d/relu_5x5"
  type: "ReLU"
  bottom: "inception_4d/5x5"
  top: "inception_4d/5x5"
}
layer {
  name: "inception_4d/pool"
  type: "Pooling"
  bottom: "inception_4c/output"
  top: "inception_4d/pool"
  pooling_param {
    pool: MAX
    kernel_size: 3
    stride: 1
    pad: 1
  }
}
layer {
  name: "inception_4d/pool_proj"
  type: "Convolution"
  bottom: "inception_4d/pool"
  top: "inception_4d/pool_proj"
  param {
    lr_mult: 1
    decay_mult: 1
  }
  param {
    lr_mult: 2
    decay_mult: 0
  }
  convolution_param {
    num_output: 64
    kernel_size: 1
    weight_filler {
      type: "xavier"
      std: 0.1
    }
    bias_filler {
      type: "constant"
      value: 0.2
    }
  }
}
layer {
  name: "inception_4d/relu_pool_proj"
  type: "ReLU"
  bottom: "inception_4d/pool_proj"
  top: "inception_4d/pool_proj"
}
layer {
  name: "inception_4d/output"
  type: "Concat"
  bottom: "inception_4d/1x1"
  bottom: "inception_4d/3x3"
  bottom: "inception_4d/5x5"
  bottom: "inception_4d/pool_proj"
  top: "inception_4d/output"
}
layer {
  name: "loss2/ave_pool"
  type: "Pooling"
  bottom: "inception_4d/output"
  top: "loss2/ave_pool"
  pooling_param {
    pool: AVE
    kernel_size: 5
    stride: 3
  }
}
layer {
  name: "loss2/conv"
  type: "Convolution"
  bottom: "loss2/ave_pool"
  top: "loss2/conv"
  param {
    lr_mult: 1
    decay_mult: 1
  }
  param {
    lr_mult: 2
    decay_mult: 0
  }
  convolution_param {
    num_output: 128
    kernel_size: 1
    weight_filler {
      type: "xavier"
      std: 0.08
    }
    bias_filler {
      type: "constant"
      value: 0.2
    }
  }
}
layer {
  name: "loss2/relu_conv"
  type: "ReLU"
  bottom: "loss2/conv"
  top: "loss2/conv"
}
layer {
  name: "loss2/fc"
  type: "InnerProduct"
  bottom: "loss2/conv"
  top: "loss2/fc"
  param {
    lr_mult: 1
    decay_mult: 1
  }
  param {
    lr_mult: 2
    decay_mult: 0
  }
  inner_product_param {
    num_output: 1024
    weight_filler {
      type: "xavier"
      std: 0.02
    }
    bias_filler {
      type: "constant"
      value: 0.2
    }
  }
}
layer {
  name: "loss2/relu_fc"
  type: "ReLU"
  bottom: "loss2/fc"
  top: "loss2/fc"
}
layer {
  name: "loss2/drop_fc"
  type: "Dropout"
  bottom: "loss2/fc"
  top: "loss2/fc"
  dropout_param {
    dropout_ratio: 0.7
  }
}
layer {
  name: "loss2/classifier_plantvillage"
  type: "InnerProduct"
  bottom: "loss2/fc"
  top: "loss2/classifier_plantvillage"
  param {
    lr_mult: 1
    decay_mult: 1
  }
  param {
    lr_mult: 2
    decay_mult: 0
  }
  inner_product_param {
    num_output: 38
    weight_filler {
      type: "xavier"
      std: 0.0009765625
    }
    bias_filler {
      type: "constant"
      value: 0
    }
  }
}
layer {
  name: "inception_4e/1x1"
  type: "Convolution"
  bottom: "inception_4d/output"
  top: "inception_4e/1x1"
  param {
    lr_mult: 1
    decay_mult: 1
  }
  param {
    lr_mult: 2
    decay_mult: 0
  }
  convolution_param {
    num_output: 256
    kernel_size: 1
    weight_filler {
      type: "xavier"
      std: 0.03
    }
    bias_filler {
      type: "constant"
      value: 0.2
    }
  }
}
layer {
  name: "inception_4e/relu_1x1"
  type: "ReLU"
  bottom: "inception_4e/1x1"
  top: "inception_4e/1x1"
}
layer {
  name: "inception_4e/3x3_reduce"
  type: "Convolution"
  bottom: "inception_4d/output"
  top: "inception_4e/3x3_reduce"
  param {
    lr_mult: 1
    decay_mult: 1
  }
  param {
    lr_mult: 2
    decay_mult: 0
  }
  convolution_param {
    num_output: 160
    kernel_size: 1
    weight_filler {
      type: "xavier"
      std: 0.09
    }
    bias_filler {
      type: "constant"
      value: 0.2
    }
  }
}
layer {
  name: "inception_4e/relu_3x3_reduce"
  type: "ReLU"
  bottom: "inception_4e/3x3_reduce"
  top: "inception_4e/3x3_reduce"
}
layer {
  name: "inception_4e/3x3"
  type: "Convolution"
  bottom: "inception_4e/3x3_reduce"
  top: "inception_4e/3x3"
  param {
    lr_mult: 1
    decay_mult: 1
  }
  param {
    lr_mult: 2
    decay_mult: 0
  }
  convolution_param {
    num_output: 320
    pad: 1
    kernel_size: 3
    weight_filler {
      type: "xavier"
      std: 0.03
    }
    bias_filler {
      type: "constant"
      value: 0.2
    }
  }
}
layer {
  name: "inception_4e/relu_3x3"
  type: "ReLU"
  bottom: "inception_4e/3x3"
  top: "inception_4e/3x3"
}
layer {
  name: "inception_4e/5x5_reduce"
  type: "Convolution"
  bottom: "inception_4d/output"
  top: "inception_4e/5x5_reduce"
  param {
    lr_mult: 1
    decay_mult: 1
  }
  param {
    lr_mult: 2
    decay_mult: 0
  }
  convolution_param {
    num_output: 32
    kernel_size: 1
    weight_filler {
      type: "xavier"
      std: 0.2
    }
    bias_filler {
      type: "constant"
      value: 0.2
    }
  }
}
layer {
  name: "inception_4e/relu_5x5_reduce"
  type: "ReLU"
  bottom: "inception_4e/5x5_reduce"
  top: "inception_4e/5x5_reduce"
}
layer {
  name: "inception_4e/5x5"
  type: "Convolution"
  bottom: "inception_4e/5x5_reduce"
  top: "inception_4e/
I0403 16:57:27.609393 21619 layer_factory.hpp:77] Creating layer data
I0403 16:57:27.610014 21619 net.cpp:91] Creating Layer data
I0403 16:57:27.610059 21619 net.cpp:399] data -> data
I0403 16:57:27.610110 21619 net.cpp:399] data -> label
I0403 16:57:27.610146 21619 data_transformer.cpp:25] Loading mean file from: /home/mohanty/data/final_dataset/lmdb/grayscale-20-80/mean.binaryproto
I0403 16:57:27.611390 21622 db_lmdb.cpp:38] Opened lmdb /home/mohanty/data/final_dataset/lmdb/grayscale-20-80/test_db
I0403 16:57:27.623196 21619 data_layer.cpp:41] output data size: 24,3,224,224
I0403 16:57:27.649821 21619 net.cpp:141] Setting up data
I0403 16:57:27.649878 21619 net.cpp:148] Top shape: 24 3 224 224 (3612672)
I0403 16:57:27.649900 21619 net.cpp:148] Top shape: 24 (24)
I0403 16:57:27.649915 21619 net.cpp:156] Memory required for data: 14450784
I0403 16:57:27.649941 21619 layer_factory.hpp:77] Creating layer label_data_1_split
I0403 16:57:27.649968 21619 net.cpp:91] Creating Layer label_data_1_split
I0403 16:57:27.649986 21619 net.cpp:425] label_data_1_split <- label
I0403 16:57:27.650023 21619 net.cpp:399] label_data_1_split -> label_data_1_split_0
I0403 16:57:27.650053 21619 net.cpp:399] label_data_1_split -> label_data_1_split_1
I0403 16:57:27.650074 21619 net.cpp:399] label_data_1_split -> label_data_1_split_2
I0403 16:57:27.650095 21619 net.cpp:399] label_data_1_split -> label_data_1_split_3
I0403 16:57:27.650115 21619 net.cpp:399] label_data_1_split -> label_data_1_split_4
I0403 16:57:27.650135 21619 net.cpp:399] label_data_1_split -> label_data_1_split_5
I0403 16:57:27.650154 21619 net.cpp:399] label_data_1_split -> label_data_1_split_6
I0403 16:57:27.650176 21619 net.cpp:399] label_data_1_split -> label_data_1_split_7
I0403 16:57:27.650195 21619 net.cpp:399] label_data_1_split -> label_data_1_split_8
I0403 16:57:27.650218 21619 net.cpp:399] label_data_1_split -> label_data_1_split_9
I0403 16:57:27.650336 21619 net.cpp:141] Setting up label_data_1_split
I0403 16:57:27.650360 21619 net.cpp:148] Top shape: 24 (24)
I0403 16:57:27.650378 21619 net.cpp:148] Top shape: 24 (24)
I0403 16:57:27.650394 21619 net.cpp:148] Top shape: 24 (24)
I0403 16:57:27.650410 21619 net.cpp:148] Top shape: 24 (24)
I0403 16:57:27.650426 21619 net.cpp:148] Top shape: 24 (24)
I0403 16:57:27.650442 21619 net.cpp:148] Top shape: 24 (24)
I0403 16:57:27.650460 21619 net.cpp:148] Top shape: 24 (24)
I0403 16:57:27.650475 21619 net.cpp:148] Top shape: 24 (24)
I0403 16:57:27.650490 21619 net.cpp:148] Top shape: 24 (24)
I0403 16:57:27.650506 21619 net.cpp:148] Top shape: 24 (24)
I0403 16:57:27.650552 21619 net.cpp:156] Memory required for data: 14451744
I0403 16:57:27.650568 21619 layer_factory.hpp:77] Creating layer conv1/7x7_s2
I0403 16:57:27.650599 21619 net.cpp:91] Creating Layer conv1/7x7_s2
I0403 16:57:27.650617 21619 net.cpp:425] conv1/7x7_s2 <- data
I0403 16:57:27.650637 21619 net.cpp:399] conv1/7x7_s2 -> conv1/7x7_s2
I0403 16:57:27.788808 21619 net.cpp:141] Setting up conv1/7x7_s2
I0403 16:57:27.788885 21619 net.cpp:148] Top shape: 24 64 112 112 (19267584)
I0403 16:57:27.788903 21619 net.cpp:156] Memory required for data: 91522080
I0403 16:57:27.788933 21619 layer_factory.hpp:77] Creating layer conv1/relu_7x7
I0403 16:57:27.788961 21619 net.cpp:91] Creating Layer conv1/relu_7x7
I0403 16:57:27.788980 21619 net.cpp:425] conv1/relu_7x7 <- conv1/7x7_s2
I0403 16:57:27.789000 21619 net.cpp:386] conv1/relu_7x7 -> conv1/7x7_s2 (in-place)
I0403 16:57:27.789275 21619 net.cpp:141] Setting up conv1/relu_7x7
I0403 16:57:27.789304 21619 net.cpp:148] Top shape: 24 64 112 112 (19267584)
I0403 16:57:27.789319 21619 net.cpp:156] Memory required for data: 168592416
I0403 16:57:27.789335 21619 layer_factory.hpp:77] Creating layer pool1/3x3_s2
I0403 16:57:27.789360 21619 net.cpp:91] Creating Layer pool1/3x3_s2
I0403 16:57:27.789377 21619 net.cpp:425] pool1/3x3_s2 <- conv1/7x7_s2
I0403 16:57:27.789397 21619 net.cpp:399] pool1/3x3_s2 -> pool1/3x3_s2
I0403 16:57:27.789471 21619 net.cpp:141] Setting up pool1/3x3_s2
I0403 16:57:27.789496 21619 net.cpp:148] Top shape: 24 64 56 56 (4816896)
I0403 16:57:27.789512 21619 net.cpp:156] Memory required for data: 187860000
I0403 16:57:27.789526 21619 layer_factory.hpp:77] Creating layer pool1/norm1
I0403 16:57:27.789551 21619 net.cpp:91] Creating Layer pool1/norm1
I0403 16:57:27.789569 21619 net.cpp:425] pool1/norm1 <- pool1/3x3_s2
I0403 16:57:27.789588 21619 net.cpp:399] pool1/norm1 -> pool1/norm1
I0403 16:57:27.789881 21619 net.cpp:141] Setting up pool1/norm1
I0403 16:57:27.789909 21619 net.cpp:148] Top shape: 24 64 56 56 (4816896)
I0403 16:57:27.789926 21619 net.cpp:156] Memory required for data: 207127584
I0403 16:57:27.789942 21619 layer_factory.hpp:77] Creating layer conv2/3x3_reduce
I0403 16:57:27.789966 21619 net.cpp:91] Creating Layer conv2/3x3_reduce
I0403 16:57:27.789984 21619 net.cpp:425] conv2/3x3_reduce <- pool1/norm1
I0403 16:57:27.790004 21619 net.cpp:399] conv2/3x3_reduce -> conv2/3x3_reduce
I0403 16:57:27.791362 21619 net.cpp:141] Setting up conv2/3x3_reduce
I0403 16:57:27.791393 21619 net.cpp:148] Top shape: 24 64 56 56 (4816896)
I0403 16:57:27.791409 21619 net.cpp:156] Memory required for data: 226395168
I0403 16:57:27.791430 21619 layer_factory.hpp:77] Creating layer conv2/relu_3x3_reduce
I0403 16:57:27.791450 21619 net.cpp:91] Creating Layer conv2/relu_3x3_reduce
I0403 16:57:27.791465 21619 net.cpp:425] conv2/relu_3x3_reduce <- conv2/3x3_reduce
I0403 16:57:27.791483 21619 net.cpp:386] conv2/relu_3x3_reduce -> conv2/3x3_reduce (in-place)
I0403 16:57:27.791749 21619 net.cpp:141] Setting up conv2/relu_3x3_reduce
I0403 16:57:27.791776 21619 net.cpp:148] Top shape: 24 64 56 56 (4816896)
I0403 16:57:27.791792 21619 net.cpp:156] Memory required for data: 245662752
I0403 16:57:27.791807 21619 layer_factory.hpp:77] Creating layer conv2/3x3
I0403 16:57:27.791831 21619 net.cpp:91] Creating Layer conv2/3x3
I0403 16:57:27.791848 21619 net.cpp:425] conv2/3x3 <- conv2/3x3_reduce
I0403 16:57:27.791867 21619 net.cpp:399] conv2/3x3 -> conv2/3x3
I0403 16:57:27.794214 21619 net.cpp:141] Setting up conv2/3x3
I0403 16:57:27.794252 21619 net.cpp:148] Top shape: 24 192 56 56 (14450688)
I0403 16:57:27.794268 21619 net.cpp:156] Memory required for data: 303465504
I0403 16:57:27.794289 21619 layer_factory.hpp:77] Creating layer conv2/relu_3x3
I0403 16:57:27.794308 21619 net.cpp:91] Creating Layer conv2/relu_3x3
I0403 16:57:27.794324 21619 net.cpp:425] conv2/relu_3x3 <- conv2/3x3
I0403 16:57:27.794342 21619 net.cpp:386] conv2/relu_3x3 -> conv2/3x3 (in-place)
I0403 16:57:27.794502 21619 net.cpp:141] Setting up conv2/relu_3x3
I0403 16:57:27.794528 21619 net.cpp:148] Top shape: 24 192 56 56 (14450688)
I0403 16:57:27.794575 21619 net.cpp:156] Memory required for data: 361268256
I0403 16:57:27.794591 21619 layer_factory.hpp:77] Creating layer conv2/norm2
I0403 16:57:27.794610 21619 net.cpp:91] Creating Layer conv2/norm2
I0403 16:57:27.794625 21619 net.cpp:425] conv2/norm2 <- conv2/3x3
I0403 16:57:27.794643 21619 net.cpp:399] conv2/norm2 -> conv2/norm2
I0403 16:57:27.794937 21619 net.cpp:141] Setting up conv2/norm2
I0403 16:57:27.794965 21619 net.cpp:148] Top shape: 24 192 56 56 (14450688)
I0403 16:57:27.794980 21619 net.cpp:156] Memory required for data: 419071008
I0403 16:57:27.794994 21619 layer_factory.hpp:77] Creating layer pool2/3x3_s2
I0403 16:57:27.795011 21619 net.cpp:91] Creating Layer pool2/3x3_s2
I0403 16:57:27.795032 21619 net.cpp:425] pool2/3x3_s2 <- conv2/norm2
I0403 16:57:27.795052 21619 net.cpp:399] pool2/3x3_s2 -> pool2/3x3_s2
I0403 16:57:27.795101 21619 net.cpp:141] Setting up pool2/3x3_s2
I0403 16:57:27.795123 21619 net.cpp:148] Top shape: 24 192 28 28 (3612672)
I0403 16:57:27.795138 21619 net.cpp:156] Memory required for data: 433521696
I0403 16:57:27.795153 21619 layer_factory.hpp:77] Creating layer pool2/3x3_s2_pool2/3x3_s2_0_split
I0403 16:57:27.795171 21619 net.cpp:91] Creating Layer pool2/3x3_s2_pool2/3x3_s2_0_split
I0403 16:57:27.795186 21619 net.cpp:425] pool2/3x3_s2_pool2/3x3_s2_0_split <- pool2/3x3_s2
I0403 16:57:27.795204 21619 net.cpp:399] pool2/3x3_s2_pool2/3x3_s2_0_split -> pool2/3x3_s2_pool2/3x3_s2_0_split_0
I0403 16:57:27.795223 21619 net.cpp:399] pool2/3x3_s2_pool2/3x3_s2_0_split -> pool2/3x3_s2_pool2/3x3_s2_0_split_1
I0403 16:57:27.795243 21619 net.cpp:399] pool2/3x3_s2_pool2/3x3_s2_0_split -> pool2/3x3_s2_pool2/3x3_s2_0_split_2
I0403 16:57:27.795264 21619 net.cpp:399] pool2/3x3_s2_pool2/3x3_s2_0_split -> pool2/3x3_s2_pool2/3x3_s2_0_split_3
I0403 16:57:27.795325 21619 net.cpp:141] Setting up pool2/3x3_s2_pool2/3x3_s2_0_split
I0403 16:57:27.795347 21619 net.cpp:148] Top shape: 24 192 28 28 (3612672)
I0403 16:57:27.795364 21619 net.cpp:148] Top shape: 24 192 28 28 (3612672)
I0403 16:57:27.795379 21619 net.cpp:148] Top shape: 24 192 28 28 (3612672)
I0403 16:57:27.795394 21619 net.cpp:148] Top shape: 24 192 28 28 (3612672)
I0403 16:57:27.795408 21619 net.cpp:156] Memory required for data: 491324448
I0403 16:57:27.795423 21619 layer_factory.hpp:77] Creating layer inception_3a/1x1
I0403 16:57:27.795442 21619 net.cpp:91] Creating Layer inception_3a/1x1
I0403 16:57:27.795459 21619 net.cpp:425] inception_3a/1x1 <- pool2/3x3_s2_pool2/3x3_s2_0_split_0
I0403 16:57:27.795477 21619 net.cpp:399] inception_3a/1x1 -> inception_3a/1x1
I0403 16:57:27.796983 21619 net.cpp:141] Setting up inception_3a/1x1
I0403 16:57:27.797011 21619 net.cpp:148] Top shape: 24 64 28 28 (1204224)
I0403 16:57:27.797032 21619 net.cpp:156] Memory required for data: 496141344
I0403 16:57:27.797052 21619 layer_factory.hpp:77] Creating layer inception_3a/relu_1x1
I0403 16:57:27.797070 21619 net.cpp:91] Creating Layer inception_3a/relu_1x1
I0403 16:57:27.797086 21619 net.cpp:425] inception_3a/relu_1x1 <- inception_3a/1x1
I0403 16:57:27.797106 21619 net.cpp:386] inception_3a/relu_1x1 -> inception_3a/1x1 (in-place)
I0403 16:57:27.797284 21619 net.cpp:141] Setting up inception_3a/relu_1x1
I0403 16:57:27.797309 21619 net.cpp:148] Top shape: 24 64 28 28 (1204224)
I0403 16:57:27.797324 21619 net.cpp:156] Memory required for data: 500958240
I0403 16:57:27.797338 21619 layer_factory.hpp:77] Creating layer inception_3a/3x3_reduce
I0403 16:57:27.797361 21619 net.cpp:91] Creating Layer inception_3a/3x3_reduce
I0403 16:57:27.797379 21619 net.cpp:425] inception_3a/3x3_reduce <- pool2/3x3_s2_pool2/3x3_s2_0_split_1
I0403 16:57:27.797399 21619 net.cpp:399] inception_3a/3x3_reduce -> inception_3a/3x3_reduce
I0403 16:57:27.799115 21619 net.cpp:141] Setting up inception_3a/3x3_reduce
I0403 16:57:27.799145 21619 net.cpp:148] Top shape: 24 96 28 28 (1806336)
I0403 16:57:27.799161 21619 net.cpp:156] Memory required for data: 508183584
I0403 16:57:27.799182 21619 layer_factory.hpp:77] Creating layer inception_3a/relu_3x3_reduce
I0403 16:57:27.799221 21619 net.cpp:91] Creating Layer inception_3a/relu_3x3_reduce
I0403 16:57:27.799239 21619 net.cpp:425] inception_3a/relu_3x3_reduce <- inception_3a/3x3_reduce
I0403 16:57:27.799257 21619 net.cpp:386] inception_3a/relu_3x3_reduce -> inception_3a/3x3_reduce (in-place)
I0403 16:57:27.799440 21619 net.cpp:141] Setting up inception_3a/relu_3x3_reduce
I0403 16:57:27.799469 21619 net.cpp:148] Top shape: 24 96 28 28 (1806336)
I0403 16:57:27.799484 21619 net.cpp:156] Memory required for data: 515408928
I0403 16:57:27.799499 21619 layer_factory.hpp:77] Creating layer inception_3a/3x3
I0403 16:57:27.799523 21619 net.cpp:91] Creating Layer inception_3a/3x3
I0403 16:57:27.799541 21619 net.cpp:425] inception_3a/3x3 <- inception_3a/3x3_reduce
I0403 16:57:27.799561 21619 net.cpp:399] inception_3a/3x3 -> inception_3a/3x3
I0403 16:57:27.801236 21619 net.cpp:141] Setting up inception_3a/3x3
I0403 16:57:27.801265 21619 net.cpp:148] Top shape: 24 128 28 28 (2408448)
I0403 16:57:27.801280 21619 net.cpp:156] Memory required for data: 525042720
I0403 16:57:27.801298 21619 layer_factory.hpp:77] Creating layer inception_3a/relu_3x3
I0403 16:57:27.801319 21619 net.cpp:91] Creating Layer inception_3a/relu_3x3
I0403 16:57:27.801337 21619 net.cpp:425] inception_3a/relu_3x3 <- inception_3a/3x3
I0403 16:57:27.801354 21619 net.cpp:386] inception_3a/relu_3x3 -> inception_3a/3x3 (in-place)
I0403 16:57:27.801632 21619 net.cpp:141] Setting up inception_3a/relu_3x3
I0403 16:57:27.801659 21619 net.cpp:148] Top shape: 24 128 28 28 (2408448)
I0403 16:57:27.801674 21619 net.cpp:156] Memory required for data: 534676512
I0403 16:57:27.801688 21619 layer_factory.hpp:77] Creating layer inception_3a/5x5_reduce
I0403 16:57:27.801713 21619 net.cpp:91] Creating Layer inception_3a/5x5_reduce
I0403 16:57:27.801731 21619 net.cpp:425] inception_3a/5x5_reduce <- pool2/3x3_s2_pool2/3x3_s2_0_split_2
I0403 16:57:27.801753 21619 net.cpp:399] inception_3a/5x5_reduce -> inception_3a/5x5_reduce
I0403 16:57:27.802731 21619 net.cpp:141] Setting up inception_3a/5x5_reduce
I0403 16:57:27.802760 21619 net.cpp:148] Top shape: 24 16 28 28 (301056)
I0403 16:57:27.802775 21619 net.cpp:156] Memory required for data: 535880736
I0403 16:57:27.802794 21619 layer_factory.hpp:77] Creating layer inception_3a/relu_5x5_reduce
I0403 16:57:27.802814 21619 net.cpp:91] Creating Layer inception_3a/relu_5x5_reduce
I0403 16:57:27.802832 21619 net.cpp:425] inception_3a/relu_5x5_reduce <- inception_3a/5x5_reduce
I0403 16:57:27.802850 21619 net.cpp:386] inception_3a/relu_5x5_reduce -> inception_3a/5x5_reduce (in-place)
I0403 16:57:27.803153 21619 net.cpp:141] Setting up inception_3a/relu_5x5_reduce
I0403 16:57:27.803179 21619 net.cpp:148] Top shape: 24 16 28 28 (301056)
I0403 16:57:27.803194 21619 net.cpp:156] Memory required for data: 537084960
I0403 16:57:27.803211 21619 layer_factory.hpp:77] Creating layer inception_3a/5x5
I0403 16:57:27.803236 21619 net.cpp:91] Creating Layer inception_3a/5x5
I0403 16:57:27.803253 21619 net.cpp:425] inception_3a/5x5 <- inception_3a/5x5_reduce
I0403 16:57:27.803272 21619 net.cpp:399] inception_3a/5x5 -> inception_3a/5x5
I0403 16:57:27.804299 21619 net.cpp:141] Setting up inception_3a/5x5
I0403 16:57:27.804328 21619 net.cpp:148] Top shape: 24 32 28 28 (602112)
I0403 16:57:27.804344 21619 net.cpp:156] Memory required for data: 539493408
I0403 16:57:27.804363 21619 layer_factory.hpp:77] Creating layer inception_3a/relu_5x5
I0403 16:57:27.804380 21619 net.cpp:91] Creating Layer inception_3a/relu_5x5
I0403 16:57:27.804397 21619 net.cpp:425] inception_3a/relu_5x5 <- inception_3a/5x5
I0403 16:57:27.804416 21619 net.cpp:386] inception_3a/relu_5x5 -> inception_3a/5x5 (in-place)
I0403 16:57:27.804591 21619 net.cpp:141] Setting up inception_3a/relu_5x5
I0403 16:57:27.804616 21619 net.cpp:148] Top shape: 24 32 28 28 (602112)
I0403 16:57:27.804631 21619 net.cpp:156] Memory required for data: 541901856
I0403 16:57:27.804646 21619 layer_factory.hpp:77] Creating layer inception_3a/pool
I0403 16:57:27.804667 21619 net.cpp:91] Creating Layer inception_3a/pool
I0403 16:57:27.804697 21619 net.cpp:425] inception_3a/pool <- pool2/3x3_s2_pool2/3x3_s2_0_split_3
I0403 16:57:27.804716 21619 net.cpp:399] inception_3a/pool -> inception_3a/pool
I0403 16:57:27.804777 21619 net.cpp:141] Setting up inception_3a/pool
I0403 16:57:27.804801 21619 net.cpp:148] Top shape: 24 192 28 28 (3612672)
I0403 16:57:27.804816 21619 net.cpp:156] Memory required for data: 556352544
I0403 16:57:27.804831 21619 layer_factory.hpp:77] Creating layer inception_3a/pool_proj
I0403 16:57:27.804853 21619 net.cpp:91] Creating Layer inception_3a/pool_proj
I0403 16:57:27.804870 21619 net.cpp:425] inception_3a/pool_proj <- inception_3a/pool
I0403 16:57:27.804893 21619 net.cpp:399] inception_3a/pool_proj -> inception_3a/pool_proj
I0403 16:57:27.805871 21619 net.cpp:141] Setting up inception_3a/pool_proj
I0403 16:57:27.805902 21619 net.cpp:148] Top shape: 24 32 28 28 (602112)
I0403 16:57:27.805917 21619 net.cpp:156] Memory required for data: 558760992
I0403 16:57:27.805939 21619 layer_factory.hpp:77] Creating layer inception_3a/relu_pool_proj
I0403 16:57:27.805960 21619 net.cpp:91] Creating Layer inception_3a/relu_pool_proj
I0403 16:57:27.805977 21619 net.cpp:425] inception_3a/relu_pool_proj <- inception_3a/pool_proj
I0403 16:57:27.805995 21619 net.cpp:386] inception_3a/relu_pool_proj -> inception_3a/pool_proj (in-place)
I0403 16:57:27.806296 21619 net.cpp:141] Setting up inception_3a/relu_pool_proj
I0403 16:57:27.806324 21619 net.cpp:148] Top shape: 24 32 28 28 (602112)
I0403 16:57:27.806340 21619 net.cpp:156] Memory required for data: 561169440
I0403 16:57:27.806355 21619 layer_factory.hpp:77] Creating layer inception_3a/output
I0403 16:57:27.806385 21619 net.cpp:91] Creating Layer inception_3a/output
I0403 16:57:27.806401 21619 net.cpp:425] inception_3a/output <- inception_3a/1x1
I0403 16:57:27.806417 21619 net.cpp:425] inception_3a/output <- inception_3a/3x3
I0403 16:57:27.806433 21619 net.cpp:425] inception_3a/output <- inception_3a/5x5
I0403 16:57:27.806449 21619 net.cpp:425] inception_3a/output <- inception_3a/pool_proj
I0403 16:57:27.806468 21619 net.cpp:399] inception_3a/output -> inception_3a/output
I0403 16:57:27.806517 21619 net.cpp:141] Setting up inception_3a/output
I0403 16:57:27.806541 21619 net.cpp:148] Top shape: 24 256 28 28 (4816896)
I0403 16:57:27.806555 21619 net.cpp:156] Memory required for data: 580437024
I0403 16:57:27.806571 21619 layer_factory.hpp:77] Creating layer inception_3a/output_inception_3a/output_0_split
I0403 16:57:27.806587 21619 net.cpp:91] Creating Layer inception_3a/output_inception_3a/output_0_split
I0403 16:57:27.806602 21619 net.cpp:425] inception_3a/output_inception_3a/output_0_split <- inception_3a/output
I0403 16:57:27.806622 21619 net.cpp:399] inception_3a/output_inception_3a/output_0_split -> inception_3a/output_inception_3a/output_0_split_0
I0403 16:57:27.806644 21619 net.cpp:399] inception_3a/output_inception_3a/output_0_split -> inception_3a/output_inception_3a/output_0_split_1
I0403 16:57:27.806666 21619 net.cpp:399] inception_3a/output_inception_3a/output_0_split -> inception_3a/output_inception_3a/output_0_split_2
I0403 16:57:27.806687 21619 net.cpp:399] inception_3a/output_inception_3a/output_0_split -> inception_3a/output_inception_3a/output_0_split_3
I0403 16:57:27.806764 21619 net.cpp:141] Setting up inception_3a/output_inception_3a/output_0_split
I0403 16:57:27.806787 21619 net.cpp:148] Top shape: 24 256 28 28 (4816896)
I0403 16:57:27.806803 21619 net.cpp:148] Top shape: 24 256 28 28 (4816896)
I0403 16:57:27.806818 21619 net.cpp:148] Top shape: 24 256 28 28 (4816896)
I0403 16:57:27.806834 21619 net.cpp:148] Top shape: 24 256 28 28 (4816896)
I0403 16:57:27.806848 21619 net.cpp:156] Memory required for data: 657507360
I0403 16:57:27.806862 21619 layer_factory.hpp:77] Creating layer inception_3b/1x1
I0403 16:57:27.806885 21619 net.cpp:91] Creating Layer inception_3b/1x1
I0403 16:57:27.806902 21619 net.cpp:425] inception_3b/1x1 <- inception_3a/output_inception_3a/output_0_split_0
I0403 16:57:27.806923 21619 net.cpp:399] inception_3b/1x1 -> inception_3b/1x1
I0403 16:57:27.808099 21619 net.cpp:141] Setting up inception_3b/1x1
I0403 16:57:27.808141 21619 net.cpp:148] Top shape: 24 128 28 28 (2408448)
I0403 16:57:27.808158 21619 net.cpp:156] Memory required for data: 667141152
I0403 16:57:27.808177 21619 layer_factory.hpp:77] Creating layer inception_3b/relu_1x1
I0403 16:57:27.808195 21619 net.cpp:91] Creating Layer inception_3b/relu_1x1
I0403 16:57:27.808212 21619 net.cpp:425] inception_3b/relu_1x1 <- inception_3b/1x1
I0403 16:57:27.808233 21619 net.cpp:386] inception_3b/relu_1x1 -> inception_3b/1x1 (in-place)
I0403 16:57:27.808411 21619 net.cpp:141] Setting up inception_3b/relu_1x1
I0403 16:57:27.808436 21619 net.cpp:148] Top shape: 24 128 28 28 (2408448)
I0403 16:57:27.808451 21619 net.cpp:156] Memory required for data: 676774944
I0403 16:57:27.808466 21619 layer_factory.hpp:77] Creating layer inception_3b/3x3_reduce
I0403 16:57:27.808488 21619 net.cpp:91] Creating Layer inception_3b/3x3_reduce
I0403 16:57:27.808506 21619 net.cpp:425] inception_3b/3x3_reduce <- inception_3a/output_inception_3a/output_0_split_1
I0403 16:57:27.808527 21619 net.cpp:399] inception_3b/3x3_reduce -> inception_3b/3x3_reduce
I0403 16:57:27.809694 21619 net.cpp:141] Setting up inception_3b/3x3_reduce
I0403 16:57:27.809722 21619 net.cpp:148] Top shape: 24 128 28 28 (2408448)
I0403 16:57:27.809737 21619 net.cpp:156] Memory required for data: 686408736
I0403 16:57:27.809756 21619 layer_factory.hpp:77] Creating layer inception_3b/relu_3x3_reduce
I0403 16:57:27.809774 21619 net.cpp:91] Creating Layer inception_3b/relu_3x3_reduce
I0403 16:57:27.809790 21619 net.cpp:425] inception_3b/relu_3x3_reduce <- inception_3b/3x3_reduce
I0403 16:57:27.809810 21619 net.cpp:386] inception_3b/relu_3x3_reduce -> inception_3b/3x3_reduce (in-place)
I0403 16:57:27.809983 21619 net.cpp:141] Setting up inception_3b/relu_3x3_reduce
I0403 16:57:27.810009 21619 net.cpp:148] Top shape: 24 128 28 28 (2408448)
I0403 16:57:27.810029 21619 net.cpp:156] Memory required for data: 696042528
I0403 16:57:27.810044 21619 layer_factory.hpp:77] Creating layer inception_3b/3x3
I0403 16:57:27.810070 21619 net.cpp:91] Creating Layer inception_3b/3x3
I0403 16:57:27.810088 21619 net.cpp:425] inception_3b/3x3 <- inception_3b/3x3_reduce
I0403 16:57:27.810107 21619 net.cpp:399] inception_3b/3x3 -> inception_3b/3x3
I0403 16:57:27.813055 21619 net.cpp:141] Setting up inception_3b/3x3
I0403 16:57:27.813083 21619 net.cpp:148] Top shape: 24 192 28 28 (3612672)
I0403 16:57:27.813099 21619 net.cpp:156] Memory required for data: 710493216
I0403 16:57:27.813117 21619 layer_factory.hpp:77] Creating layer inception_3b/relu_3x3
I0403 16:57:27.813140 21619 net.cpp:91] Creating Layer inception_3b/relu_3x3
I0403 16:57:27.813158 21619 net.cpp:425] inception_3b/relu_3x3 <- inception_3b/3x3
I0403 16:57:27.813175 21619 net.cpp:386] inception_3b/relu_3x3 -> inception_3b/3x3 (in-place)
I0403 16:57:27.813457 21619 net.cpp:141] Setting up inception_3b/relu_3x3
I0403 16:57:27.813483 21619 net.cpp:148] Top shape: 24 192 28 28 (3612672)
I0403 16:57:27.813498 21619 net.cpp:156] Memory required for data: 724943904
I0403 16:57:27.813513 21619 layer_factory.hpp:77] Creating layer inception_3b/5x5_reduce
I0403 16:57:27.813537 21619 net.cpp:91] Creating Layer inception_3b/5x5_reduce
I0403 16:57:27.813555 21619 net.cpp:425] inception_3b/5x5_reduce <- inception_3a/output_inception_3a/output_0_split_2
I0403 16:57:27.813577 21619 net.cpp:399] inception_3b/5x5_reduce -> inception_3b/5x5_reduce
I0403 16:57:27.814615 21619 net.cpp:141] Setting up inception_3b/5x5_reduce
I0403 16:57:27.814642 21619 net.cpp:148] Top shape: 24 32 28 28 (602112)
I0403 16:57:27.814657 21619 net.cpp:156] Memory required for data: 727352352
I0403 16:57:27.814676 21619 layer_factory.hpp:77] Creating layer inception_3b/relu_5x5_reduce
I0403 16:57:27.814693 21619 net.cpp:91] Creating Layer inception_3b/relu_5x5_reduce
I0403 16:57:27.814710 21619 net.cpp:425] inception_3b/relu_5x5_reduce <- inception_3b/5x5_reduce
I0403 16:57:27.814729 21619 net.cpp:386] inception_3b/relu_5x5_reduce -> inception_3b/5x5_reduce (in-place)
I0403 16:57:27.814921 21619 net.cpp:141] Setting up inception_3b/relu_5x5_reduce
I0403 16:57:27.814946 21619 net.cpp:148] Top shape: 24 32 28 28 (602112)
I0403 16:57:27.814960 21619 net.cpp:156] Memory required for data: 729760800
I0403 16:57:27.814975 21619 layer_factory.hpp:77] Creating layer inception_3b/5x5
I0403 16:57:27.814998 21619 net.cpp:91] Creating Layer inception_3b/5x5
I0403 16:57:27.815016 21619 net.cpp:425] inception_3b/5x5 <- inception_3b/5x5_reduce
I0403 16:57:27.815042 21619 net.cpp:399] inception_3b/5x5 -> inception_3b/5x5
I0403 16:57:27.817052 21619 net.cpp:141] Setting up inception_3b/5x5
I0403 16:57:27.817082 21619 net.cpp:148] Top shape: 24 96 28 28 (1806336)
I0403 16:57:27.817098 21619 net.cpp:156] Memory required for data: 736986144
I0403 16:57:27.817117 21619 layer_factory.hpp:77] Creating layer inception_3b/relu_5x5
I0403 16:57:27.817134 21619 net.cpp:91] Creating Layer inception_3b/relu_5x5
I0403 16:57:27.817152 21619 net.cpp:425] inception_3b/relu_5x5 <- inception_3b/5x5
I0403 16:57:27.817172 21619 net.cpp:386] inception_3b/relu_5x5 -> inception_3b/5x5 (in-place)
I0403 16:57:27.817384 21619 net.cpp:141] Setting up inception_3b/relu_5x5
I0403 16:57:27.817409 21619 net.cpp:148] Top shape: 24 96 28 28 (1806336)
I0403 16:57:27.817425 21619 net.cpp:156] Memory required for data: 744211488
I0403 16:57:27.817440 21619 layer_factory.hpp:77] Creating layer inception_3b/pool
I0403 16:57:27.817457 21619 net.cpp:91] Creating Layer inception_3b/pool
I0403 16:57:27.817473 21619 net.cpp:425] inception_3b/pool <- inception_3a/output_inception_3a/output_0_split_3
I0403 16:57:27.817492 21619 net.cpp:399] inception_3b/pool -> inception_3b/pool
I0403 16:57:27.817550 21619 net.cpp:141] Setting up inception_3b/pool
I0403 16:57:27.817575 21619 net.cpp:148] Top shape: 24 256 28 28 (4816896)
I0403 16:57:27.817590 21619 net.cpp:156] Memory required for data: 763479072
I0403 16:57:27.817605 21619 layer_factory.hpp:77] Creating layer inception_3b/pool_proj
I0403 16:57:27.817626 21619 net.cpp:91] Creating Layer inception_3b/pool_proj
I0403 16:57:27.817644 21619 net.cpp:425] inception_3b/pool_proj <- inception_3b/pool
I0403 16:57:27.817665 21619 net.cpp:399] inception_3b/pool_proj -> inception_3b/pool_proj
I0403 16:57:27.820839 21619 net.cpp:141] Setting up inception_3b/pool_proj
I0403 16:57:27.820873 21619 net.cpp:148] Top shape: 24 64 28 28 (1204224)
I0403 16:57:27.820893 21619 net.cpp:156] Memory required for data: 768295968
I0403 16:57:27.820911 21619 layer_factory.hpp:77] Creating layer inception_3b/relu_pool_proj
I0403 16:57:27.820935 21619 net.cpp:91] Creating Layer inception_3b/relu_pool_proj
I0403 16:57:27.820953 21619 net.cpp:425] inception_3b/relu_pool_proj <- inception_3b/pool_proj
I0403 16:57:27.820971 21619 net.cpp:386] inception_3b/relu_pool_proj -> inception_3b/pool_proj (in-place)
I0403 16:57:27.821398 21619 net.cpp:141] Setting up inception_3b/relu_pool_proj
I0403 16:57:27.821430 21619 net.cpp:148] Top shape: 24 64 28 28 (1204224)
I0403 16:57:27.821454 21619 net.cpp:156] Memory required for data: 773112864
I0403 16:57:27.821478 21619 layer_factory.hpp:77] Creating layer inception_3b/output
I0403 16:57:27.821509 21619 net.cpp:91] Creating Layer inception_3b/output
I0403 16:57:27.821532 21619 net.cpp:425] inception_3b/output <- inception_3b/1x1
I0403 16:57:27.821555 21619 net.cpp:425] inception_3b/output <- inception_3b/3x3
I0403 16:57:27.821573 21619 net.cpp:425] inception_3b/output <- inception_3b/5x5
I0403 16:57:27.821588 21619 net.cpp:425] inception_3b/output <- inception_3b/pool_proj
I0403 16:57:27.821604 21619 net.cpp:399] inception_3b/output -> inception_3b/output
I0403 16:57:27.821651 21619 net.cpp:141] Setting up inception_3b/output
I0403 16:57:27.821676 21619 net.cpp:148] Top shape: 24 480 28 28 (9031680)
I0403 16:57:27.821691 21619 net.cpp:156] Memory required for data: 809239584
I0403 16:57:27.821705 21619 layer_factory.hpp:77] Creating layer pool3/3x3_s2
I0403 16:57:27.821723 21619 net.cpp:91] Creating Layer pool3/3x3_s2
I0403 16:57:27.821739 21619 net.cpp:425] pool3/3x3_s2 <- inception_3b/output
I0403 16:57:27.821789 21619 net.cpp:399] pool3/3x3_s2 -> pool3/3x3_s2
I0403 16:57:27.821853 21619 net.cpp:141] Setting up pool3/3x3_s2
I0403 16:57:27.821878 21619 net.cpp:148] Top shape: 24 480 14 14 (2257920)
I0403 16:57:27.821894 21619 net.cpp:156] Memory required for data: 818271264
I0403 16:57:27.821909 21619 layer_factory.hpp:77] Creating layer pool3/3x3_s2_pool3/3x3_s2_0_split
I0403 16:57:27.821929 21619 net.cpp:91] Creating Layer pool3/3x3_s2_pool3/3x3_s2_0_split
I0403 16:57:27.821946 21619 net.cpp:425] pool3/3x3_s2_pool3/3x3_s2_0_split <- pool3/3x3_s2
I0403 16:57:27.821967 21619 net.cpp:399] pool3/3x3_s2_pool3/3x3_s2_0_split -> pool3/3x3_s2_pool3/3x3_s2_0_split_0
I0403 16:57:27.821988 21619 net.cpp:399] pool3/3x3_s2_pool3/3x3_s2_0_split -> pool3/3x3_s2_pool3/3x3_s2_0_split_1
I0403 16:57:27.822010 21619 net.cpp:399] pool3/3x3_s2_pool3/3x3_s2_0_split -> pool3/3x3_s2_pool3/3x3_s2_0_split_2
I0403 16:57:27.822039 21619 net.cpp:399] pool3/3x3_s2_pool3/3x3_s2_0_split -> pool3/3x3_s2_pool3/3x3_s2_0_split_3
I0403 16:57:27.822127 21619 net.cpp:141] Setting up pool3/3x3_s2_pool3/3x3_s2_0_split
I0403 16:57:27.822152 21619 net.cpp:148] Top shape: 24 480 14 14 (2257920)
I0403 16:57:27.822170 21619 net.cpp:148] Top shape: 24 480 14 14 (2257920)
I0403 16:57:27.822185 21619 net.cpp:148] Top shape: 24 480 14 14 (2257920)
I0403 16:57:27.822201 21619 net.cpp:148] Top shape: 24 480 14 14 (2257920)
I0403 16:57:27.822216 21619 net.cpp:156] Memory required for data: 854397984
I0403 16:57:27.822230 21619 layer_factory.hpp:77] Creating layer inception_4a/1x1
I0403 16:57:27.822264 21619 net.cpp:91] Creating Layer inception_4a/1x1
I0403 16:57:27.822286 21619 net.cpp:425] inception_4a/1x1 <- pool3/3x3_s2_pool3/3x3_s2_0_split_0
I0403 16:57:27.822309 21619 net.cpp:399] inception_4a/1x1 -> inception_4a/1x1
I0403 16:57:27.823972 21619 net.cpp:141] Setting up inception_4a/1x1
I0403 16:57:27.824005 21619 net.cpp:148] Top shape: 24 192 14 14 (903168)
I0403 16:57:27.824028 21619 net.cpp:156] Memory required for data: 858010656
I0403 16:57:27.824048 21619 layer_factory.hpp:77] Creating layer inception_4a/relu_1x1
I0403 16:57:27.824066 21619 net.cpp:91] Creating Layer inception_4a/relu_1x1
I0403 16:57:27.824082 21619 net.cpp:425] inception_4a/relu_1x1 <- inception_4a/1x1
I0403 16:57:27.824100 21619 net.cpp:386] inception_4a/relu_1x1 -> inception_4a/1x1 (in-place)
I0403 16:57:27.824288 21619 net.cpp:141] Setting up inception_4a/relu_1x1
I0403 16:57:27.824316 21619 net.cpp:148] Top shape: 24 192 14 14 (903168)
I0403 16:57:27.824331 21619 net.cpp:156] Memory required for data: 861623328
I0403 16:57:27.824345 21619 layer_factory.hpp:77] Creating layer inception_4a/3x3_reduce
I0403 16:57:27.824368 21619 net.cpp:91] Creating Layer inception_4a/3x3_reduce
I0403 16:57:27.824386 21619 net.cpp:425] inception_4a/3x3_reduce <- pool3/3x3_s2_pool3/3x3_s2_0_split_1
I0403 16:57:27.824409 21619 net.cpp:399] inception_4a/3x3_reduce -> inception_4a/3x3_reduce
I0403 16:57:27.825747 21619 net.cpp:141] Setting up inception_4a/3x3_reduce
I0403 16:57:27.825778 21619 net.cpp:148] Top shape: 24 96 14 14 (451584)
I0403 16:57:27.825793 21619 net.cpp:156] Memory required for data: 863429664
I0403 16:57:27.825821 21619 layer_factory.hpp:77] Creating layer inception_4a/relu_3x3_reduce
I0403 16:57:27.825842 21619 net.cpp:91] Creating Layer inception_4a/relu_3x3_reduce
I0403 16:57:27.825858 21619 net.cpp:425] inception_4a/relu_3x3_reduce <- inception_4a/3x3_reduce
I0403 16:57:27.825876 21619 net.cpp:386] inception_4a/relu_3x3_reduce -> inception_4a/3x3_reduce (in-place)
I0403 16:57:27.826066 21619 net.cpp:141] Setting up inception_4a/relu_3x3_reduce
I0403 16:57:27.826095 21619 net.cpp:148] Top shape: 24 96 14 14 (451584)
I0403 16:57:27.826112 21619 net.cpp:156] Memory required for data: 865236000
I0403 16:57:27.826127 21619 layer_factory.hpp:77] Creating layer inception_4a/3x3
I0403 16:57:27.826149 21619 net.cpp:91] Creating Layer inception_4a/3x3
I0403 16:57:27.826167 21619 net.cpp:425] inception_4a/3x3 <- inception_4a/3x3_reduce
I0403 16:57:27.826187 21619 net.cpp:399] inception_4a/3x3 -> inception_4a/3x3
I0403 16:57:27.828918 21619 net.cpp:141] Setting up inception_4a/3x3
I0403 16:57:27.828948 21619 net.cpp:148] Top shape: 24 208 14 14 (978432)
I0403 16:57:27.828963 21619 net.cpp:156] Memory required for data: 869149728
I0403 16:57:27.828981 21619 layer_factory.hpp:77] Creating layer inception_4a/relu_3x3
I0403 16:57:27.828999 21619 net.cpp:91] Creating Layer inception_4a/relu_3x3
I0403 16:57:27.829025 21619 net.cpp:425] inception_4a/relu_3x3 <- inception_4a/3x3
I0403 16:57:27.829049 21619 net.cpp:386] inception_4a/relu_3x3 -> inception_4a/3x3 (in-place)
I0403 16:57:27.829334 21619 net.cpp:141] Setting up inception_4a/relu_3x3
I0403 16:57:27.829361 21619 net.cpp:148] Top shape: 24 208 14 14 (978432)
I0403 16:57:27.829376 21619 net.cpp:156] Memory required for data: 873063456
I0403 16:57:27.829391 21619 layer_factory.hpp:77] Creating layer inception_4a/5x5_reduce
I0403 16:57:27.829416 21619 net.cpp:91] Creating Layer inception_4a/5x5_reduce
I0403 16:57:27.829433 21619 net.cpp:425] inception_4a/5x5_reduce <- pool3/3x3_s2_pool3/3x3_s2_0_split_2
I0403 16:57:27.829457 21619 net.cpp:399] inception_4a/5x5_reduce -> inception_4a/5x5_reduce
I0403 16:57:27.830497 21619 net.cpp:141] Setting up inception_4a/5x5_reduce
I0403 16:57:27.830526 21619 net.cpp:148] Top shape: 24 16 14 14 (75264)
I0403 16:57:27.830541 21619 net.cpp:156] Memory required for data: 873364512
I0403 16:57:27.830560 21619 layer_factory.hpp:77] Creating layer inception_4a/relu_5x5_reduce
I0403 16:57:27.830577 21619 net.cpp:91] Creating Layer inception_4a/relu_5x5_reduce
I0403 16:57:27.830593 21619 net.cpp:425] inception_4a/relu_5x5_reduce <- inception_4a/5x5_reduce
I0403 16:57:27.830613 21619 net.cpp:386] inception_4a/relu_5x5_reduce -> inception_4a/5x5_reduce (in-place)
I0403 16:57:27.830796 21619 net.cpp:141] Setting up inception_4a/relu_5x5_reduce
I0403 16:57:27.830821 21619 net.cpp:148] Top shape: 24 16 14 14 (75264)
I0403 16:57:27.830837 21619 net.cpp:156] Memory required for data: 873665568
I0403 16:57:27.830852 21619 layer_factory.hpp:77] Creating layer inception_4a/5x5
I0403 16:57:27.830873 21619 net.cpp:91] Creating Layer inception_4a/5x5
I0403 16:57:27.830891 21619 net.cpp:425] inception_4a/5x5 <- inception_4a/5x5_reduce
I0403 16:57:27.830912 21619 net.cpp:399] inception_4a/5x5 -> inception_4a/5x5
I0403 16:57:27.832022 21619 net.cpp:141] Setting up inception_4a/5x5
I0403 16:57:27.832051 21619 net.cpp:148] Top shape: 24 48 14 14 (225792)
I0403 16:57:27.832067 21619 net.cpp:156] Memory required for data: 874568736
I0403 16:57:27.832085 21619 layer_factory.hpp:77] Creating layer inception_4a/relu_5x5
I0403 16:57:27.832106 21619 net.cpp:91] Creating Layer inception_4a/relu_5x5
I0403 16:57:27.832123 21619 net.cpp:425] inception_4a/relu_5x5 <- inception_4a/5x5
I0403 16:57:27.832140 21619 net.cpp:386] inception_4a/relu_5x5 -> inception_4a/5x5 (in-place)
I0403 16:57:27.832321 21619 net.cpp:141] Setting up inception_4a/relu_5x5
I0403 16:57:27.832350 21619 net.cpp:148] Top shape: 24 48 14 14 (225792)
I0403 16:57:27.832365 21619 net.cpp:156] Memory required for data: 875471904
I0403 16:57:27.832379 21619 layer_factory.hpp:77] Creating layer inception_4a/pool
I0403 16:57:27.832397 21619 net.cpp:91] Creating Layer inception_4a/pool
I0403 16:57:27.832413 21619 net.cpp:425] inception_4a/pool <- pool3/3x3_s2_pool3/3x3_s2_0_split_3
I0403 16:57:27.832433 21619 net.cpp:399] inception_4a/pool -> inception_4a/pool
I0403 16:57:27.832495 21619 net.cpp:141] Setting up inception_4a/pool
I0403 16:57:27.832520 21619 net.cpp:148] Top shape: 24 480 14 14 (2257920)
I0403 16:57:27.832535 21619 net.cpp:156] Memory required for data: 884503584
I0403 16:57:27.832548 21619 layer_factory.hpp:77] Creating layer inception_4a/pool_proj
I0403 16:57:27.832571 21619 net.cpp:91] Creating Layer inception_4a/pool_proj
I0403 16:57:27.832592 21619 net.cpp:425] inception_4a/pool_proj <- inception_4a/pool
I0403 16:57:27.832609 21619 net.cpp:399] inception_4a/pool_proj -> inception_4a/pool_proj
I0403 16:57:27.833811 21619 net.cpp:141] Setting up inception_4a/pool_proj
I0403 16:57:27.833842 21619 net.cpp:148] Top shape: 24 64 14 14 (301056)
I0403 16:57:27.833873 21619 net.cpp:156] Memory required for data: 885707808
I0403 16:57:27.833892 21619 layer_factory.hpp:77] Creating layer inception_4a/relu_pool_proj
I0403 16:57:27.833914 21619 net.cpp:91] Creating Layer inception_4a/relu_pool_proj
I0403 16:57:27.833930 21619 net.cpp:425] inception_4a/relu_pool_proj <- inception_4a/pool_proj
I0403 16:57:27.833948 21619 net.cpp:386] inception_4a/relu_pool_proj -> inception_4a/pool_proj (in-place)
I0403 16:57:27.834240 21619 net.cpp:141] Setting up inception_4a/relu_pool_proj
I0403 16:57:27.834267 21619 net.cpp:148] Top shape: 24 64 14 14 (301056)
I0403 16:57:27.834282 21619 net.cpp:156] Memory required for data: 886912032
I0403 16:57:27.834297 21619 layer_factory.hpp:77] Creating layer inception_4a/output
I0403 16:57:27.834316 21619 net.cpp:91] Creating Layer inception_4a/output
I0403 16:57:27.834333 21619 net.cpp:425] inception_4a/output <- inception_4a/1x1
I0403 16:57:27.834350 21619 net.cpp:425] inception_4a/output <- inception_4a/3x3
I0403 16:57:27.834367 21619 net.cpp:425] inception_4a/output <- inception_4a/5x5
I0403 16:57:27.834383 21619 net.cpp:425] inception_4a/output <- inception_4a/pool_proj
I0403 16:57:27.834398 21619 net.cpp:399] inception_4a/output -> inception_4a/output
I0403 16:57:27.834445 21619 net.cpp:141] Setting up inception_4a/output
I0403 16:57:27.834470 21619 net.cpp:148] Top shape: 24 512 14 14 (2408448)
I0403 16:57:27.834483 21619 net.cpp:156] Memory required for data: 896545824
I0403 16:57:27.834498 21619 layer_factory.hpp:77] Creating layer inception_4a/output_inception_4a/output_0_split
I0403 16:57:27.834516 21619 net.cpp:91] Creating Layer inception_4a/output_inception_4a/output_0_split
I0403 16:57:27.834530 21619 net.cpp:425] inception_4a/output_inception_4a/output_0_split <- inception_4a/output
I0403 16:57:27.834550 21619 net.cpp:399] inception_4a/output_inception_4a/output_0_split -> inception_4a/output_inception_4a/output_0_split_0
I0403 16:57:27.834573 21619 net.cpp:399] inception_4a/output_inception_4a/output_0_split -> inception_4a/output_inception_4a/output_0_split_1
I0403 16:57:27.834594 21619 net.cpp:399] inception_4a/output_inception_4a/output_0_split -> inception_4a/output_inception_4a/output_0_split_2
I0403 16:57:27.834615 21619 net.cpp:399] inception_4a/output_inception_4a/output_0_split -> inception_4a/output_inception_4a/output_0_split_3
I0403 16:57:27.834636 21619 net.cpp:399] inception_4a/output_inception_4a/output_0_split -> inception_4a/output_inception_4a/output_0_split_4
I0403 16:57:27.834730 21619 net.cpp:141] Setting up inception_4a/output_inception_4a/output_0_split
I0403 16:57:27.834754 21619 net.cpp:148] Top shape: 24 512 14 14 (2408448)
I0403 16:57:27.834771 21619 net.cpp:148] Top shape: 24 512 14 14 (2408448)
I0403 16:57:27.834786 21619 net.cpp:148] Top shape: 24 512 14 14 (2408448)
I0403 16:57:27.834801 21619 net.cpp:148] Top shape: 24 512 14 14 (2408448)
I0403 16:57:27.834817 21619 net.cpp:148] Top shape: 24 512 14 14 (2408448)
I0403 16:57:27.834830 21619 net.cpp:156] Memory required for data: 944714784
I0403 16:57:27.834846 21619 layer_factory.hpp:77] Creating layer loss1/ave_pool
I0403 16:57:27.834863 21619 net.cpp:91] Creating Layer loss1/ave_pool
I0403 16:57:27.834878 21619 net.cpp:425] loss1/ave_pool <- inception_4a/output_inception_4a/output_0_split_0
I0403 16:57:27.834899 21619 net.cpp:399] loss1/ave_pool -> loss1/ave_pool
I0403 16:57:27.835114 21619 net.cpp:141] Setting up loss1/ave_pool
I0403 16:57:27.835140 21619 net.cpp:148] Top shape: 24 512 4 4 (196608)
I0403 16:57:27.835155 21619 net.cpp:156] Memory required for data: 945501216
I0403 16:57:27.835170 21619 layer_factory.hpp:77] Creating layer loss1/conv
I0403 16:57:27.835194 21619 net.cpp:91] Creating Layer loss1/conv
I0403 16:57:27.835212 21619 net.cpp:425] loss1/conv <- loss1/ave_pool
I0403 16:57:27.835232 21619 net.cpp:399] loss1/conv -> loss1/conv
I0403 16:57:27.836669 21619 net.cpp:141] Setting up loss1/conv
I0403 16:57:27.836699 21619 net.cpp:148] Top shape: 24 128 4 4 (49152)
I0403 16:57:27.836729 21619 net.cpp:156] Memory required for data: 945697824
I0403 16:57:27.836748 21619 layer_factory.hpp:77] Creating layer loss1/relu_conv
I0403 16:57:27.836766 21619 net.cpp:91] Creating Layer loss1/relu_conv
I0403 16:57:27.836783 21619 net.cpp:425] loss1/relu_conv <- loss1/conv
I0403 16:57:27.836802 21619 net.cpp:386] loss1/relu_conv -> loss1/conv (in-place)
I0403 16:57:27.837103 21619 net.cpp:141] Setting up loss1/relu_conv
I0403 16:57:27.837129 21619 net.cpp:148] Top shape: 24 128 4 4 (49152)
I0403 16:57:27.837146 21619 net.cpp:156] Memory required for data: 945894432
I0403 16:57:27.837160 21619 layer_factory.hpp:77] Creating layer loss1/fc
I0403 16:57:27.837183 21619 net.cpp:91] Creating Layer loss1/fc
I0403 16:57:27.837201 21619 net.cpp:425] loss1/fc <- loss1/conv
I0403 16:57:27.837224 21619 net.cpp:399] loss1/fc -> loss1/fc
I0403 16:57:27.854974 21619 net.cpp:141] Setting up loss1/fc
I0403 16:57:27.855041 21619 net.cpp:148] Top shape: 24 1024 (24576)
I0403 16:57:27.855069 21619 net.cpp:156] Memory required for data: 945992736
I0403 16:57:27.855092 21619 layer_factory.hpp:77] Creating layer loss1/relu_fc
I0403 16:57:27.855111 21619 net.cpp:91] Creating Layer loss1/relu_fc
I0403 16:57:27.855129 21619 net.cpp:425] loss1/relu_fc <- loss1/fc
I0403 16:57:27.855147 21619 net.cpp:386] loss1/relu_fc -> loss1/fc (in-place)
I0403 16:57:27.855376 21619 net.cpp:141] Setting up loss1/relu_fc
I0403 16:57:27.855401 21619 net.cpp:148] Top shape: 24 1024 (24576)
I0403 16:57:27.855414 21619 net.cpp:156] Memory required for data: 946091040
I0403 16:57:27.855429 21619 layer_factory.hpp:77] Creating layer loss1/drop_fc
I0403 16:57:27.855458 21619 net.cpp:91] Creating Layer loss1/drop_fc
I0403 16:57:27.855473 21619 net.cpp:425] loss1/drop_fc <- loss1/fc
I0403 16:57:27.855492 21619 net.cpp:386] loss1/drop_fc -> loss1/fc (in-place)
I0403 16:57:27.855545 21619 net.cpp:141] Setting up loss1/drop_fc
I0403 16:57:27.855567 21619 net.cpp:148] Top shape: 24 1024 (24576)
I0403 16:57:27.855581 21619 net.cpp:156] Memory required for data: 946189344
I0403 16:57:27.855597 21619 layer_factory.hpp:77] Creating layer loss1/classifier_plantvillage
I0403 16:57:27.855619 21619 net.cpp:91] Creating Layer loss1/classifier_plantvillage
I0403 16:57:27.855635 21619 net.cpp:425] loss1/classifier_plantvillage <- loss1/fc
I0403 16:57:27.855653 21619 net.cpp:399] loss1/classifier_plantvillage -> loss1/classifier_plantvillage
I0403 16:57:27.856564 21619 net.cpp:141] Setting up loss1/classifier_plantvillage
I0403 16:57:27.856595 21619 net.cpp:148] Top shape: 24 38 (912)
I0403 16:57:27.856611 21619 net.cpp:156] Memory required for data: 946192992
I0403 16:57:27.856628 21619 layer_factory.hpp:77] Creating layer loss1/classifier_plantvillage_loss1/classifier_plantvillage_0_split
I0403 16:57:27.856647 21619 net.cpp:91] Creating Layer loss1/classifier_plantvillage_loss1/classifier_plantvillage_0_split
I0403 16:57:27.856662 21619 net.cpp:425] loss1/classifier_plantvillage_loss1/classifier_plantvillage_0_split <- loss1/classifier_plantvillage
I0403 16:57:27.856679 21619 net.cpp:399] loss1/classifier_plantvillage_loss1/classifier_plantvillage_0_split -> loss1/classifier_plantvillage_loss1/classifier_plantvillage_0_split_0
I0403 16:57:27.856703 21619 net.cpp:399] loss1/classifier_plantvillage_loss1/classifier_plantvillage_0_split -> loss1/classifier_plantvillage_loss1/classifier_plantvillage_0_split_1
I0403 16:57:27.856724 21619 net.cpp:399] loss1/classifier_plantvillage_loss1/classifier_plantvillage_0_split -> loss1/classifier_plantvillage_loss1/classifier_plantvillage_0_split_2
I0403 16:57:27.856791 21619 net.cpp:141] Setting up loss1/classifier_plantvillage_loss1/classifier_plantvillage_0_split
I0403 16:57:27.856814 21619 net.cpp:148] Top shape: 24 38 (912)
I0403 16:57:27.856830 21619 net.cpp:148] Top shape: 24 38 (912)
I0403 16:57:27.856847 21619 net.cpp:148] Top shape: 24 38 (912)
I0403 16:57:27.856859 21619 net.cpp:156] Memory required for data: 946203936
I0403 16:57:27.856873 21619 layer_factory.hpp:77] Creating layer inception_4b/1x1
I0403 16:57:27.856894 21619 net.cpp:91] Creating Layer inception_4b/1x1
I0403 16:57:27.856935 21619 net.cpp:425] inception_4b/1x1 <- inception_4a/output_inception_4a/output_0_split_1
I0403 16:57:27.856957 21619 net.cpp:399] inception_4b/1x1 -> inception_4b/1x1
I0403 16:57:27.858639 21619 net.cpp:141] Setting up inception_4b/1x1
I0403 16:57:27.858667 21619 net.cpp:148] Top shape: 24 160 14 14 (752640)
I0403 16:57:27.858682 21619 net.cpp:156] Memory required for data: 949214496
I0403 16:57:27.858700 21619 layer_factory.hpp:77] Creating layer inception_4b/relu_1x1
I0403 16:57:27.858718 21619 net.cpp:91] Creating Layer inception_4b/relu_1x1
I0403 16:57:27.858733 21619 net.cpp:425] inception_4b/relu_1x1 <- inception_4b/1x1
I0403 16:57:27.858752 21619 net.cpp:386] inception_4b/relu_1x1 -> inception_4b/1x1 (in-place)
I0403 16:57:27.858933 21619 net.cpp:141] Setting up inception_4b/relu_1x1
I0403 16:57:27.858958 21619 net.cpp:148] Top shape: 24 160 14 14 (752640)
I0403 16:57:27.858973 21619 net.cpp:156] Memory required for data: 952225056
I0403 16:57:27.858986 21619 layer_factory.hpp:77] Creating layer inception_4b/3x3_reduce
I0403 16:57:27.859009 21619 net.cpp:91] Creating Layer inception_4b/3x3_reduce
I0403 16:57:27.859037 21619 net.cpp:425] inception_4b/3x3_reduce <- inception_4a/output_inception_4a/output_0_split_2
I0403 16:57:27.859063 21619 net.cpp:399] inception_4b/3x3_reduce -> inception_4b/3x3_reduce
I0403 16:57:27.860416 21619 net.cpp:141] Setting up inception_4b/3x3_reduce
I0403 16:57:27.860445 21619 net.cpp:148] Top shape: 24 112 14 14 (526848)
I0403 16:57:27.860460 21619 net.cpp:156] Memory required for data: 954332448
I0403 16:57:27.860477 21619 layer_factory.hpp:77] Creating layer inception_4b/relu_3x3_reduce
I0403 16:57:27.860498 21619 net.cpp:91] Creating Layer inception_4b/relu_3x3_reduce
I0403 16:57:27.860515 21619 net.cpp:425] inception_4b/relu_3x3_reduce <- inception_4b/3x3_reduce
I0403 16:57:27.860532 21619 net.cpp:386] inception_4b/relu_3x3_reduce -> inception_4b/3x3_reduce (in-place)
I0403 16:57:27.860817 21619 net.cpp:141] Setting up inception_4b/relu_3x3_reduce
I0403 16:57:27.860844 21619 net.cpp:148] Top shape: 24 112 14 14 (526848)
I0403 16:57:27.860858 21619 net.cpp:156] Memory required for data: 956439840
I0403 16:57:27.860872 21619 layer_factory.hpp:77] Creating layer inception_4b/3x3
I0403 16:57:27.860895 21619 net.cpp:91] Creating Layer inception_4b/3x3
I0403 16:57:27.860913 21619 net.cpp:425] inception_4b/3x3 <- inception_4b/3x3_reduce
I0403 16:57:27.860934 21619 net.cpp:399] inception_4b/3x3 -> inception_4b/3x3
I0403 16:57:27.863896 21619 net.cpp:141] Setting up inception_4b/3x3
I0403 16:57:27.863927 21619 net.cpp:148] Top shape: 24 224 14 14 (1053696)
I0403 16:57:27.863945 21619 net.cpp:156] Memory required for data: 960654624
I0403 16:57:27.863962 21619 layer_factory.hpp:77] Creating layer inception_4b/relu_3x3
I0403 16:57:27.863979 21619 net.cpp:91] Creating Layer inception_4b/relu_3x3
I0403 16:57:27.863994 21619 net.cpp:425] inception_4b/relu_3x3 <- inception_4b/3x3
I0403 16:57:27.864012 21619 net.cpp:386] inception_4b/relu_3x3 -> inception_4b/3x3 (in-place)
I0403 16:57:27.864200 21619 net.cpp:141] Setting up inception_4b/relu_3x3
I0403 16:57:27.864225 21619 net.cpp:148] Top shape: 24 224 14 14 (1053696)
I0403 16:57:27.864240 21619 net.cpp:156] Memory required for data: 964869408
I0403 16:57:27.864254 21619 layer_factory.hpp:77] Creating layer inception_4b/5x5_reduce
I0403 16:57:27.864279 21619 net.cpp:91] Creating Layer inception_4b/5x5_reduce
I0403 16:57:27.864297 21619 net.cpp:425] inception_4b/5x5_reduce <- inception_4a/output_inception_4a/output_0_split_3
I0403 16:57:27.864318 21619 net.cpp:399] inception_4b/5x5_reduce -> inception_4b/5x5_reduce
I0403 16:57:27.865396 21619 net.cpp:141] Setting up inception_4b/5x5_reduce
I0403 16:57:27.865424 21619 net.cpp:148] Top shape: 24 24 14 14 (112896)
I0403 16:57:27.865438 21619 net.cpp:156] Memory required for data: 965320992
I0403 16:57:27.865456 21619 layer_factory.hpp:77] Creating layer inception_4b/relu_5x5_reduce
I0403 16:57:27.865476 21619 net.cpp:91] Creating Layer inception_4b/relu_5x5_reduce
I0403 16:57:27.865506 21619 net.cpp:425] inception_4b/relu_5x5_reduce <- inception_4b/5x5_reduce
I0403 16:57:27.865525 21619 net.cpp:386] inception_4b/relu_5x5_reduce -> inception_4b/5x5_reduce (in-place)
I0403 16:57:27.865732 21619 net.cpp:141] Setting up inception_4b/relu_5x5_reduce
I0403 16:57:27.865757 21619 net.cpp:148] Top shape: 24 24 14 14 (112896)
I0403 16:57:27.865772 21619 net.cpp:156] Memory required for data: 965772576
I0403 16:57:27.865785 21619 layer_factory.hpp:77] Creating layer inception_4b/5x5
I0403 16:57:27.865808 21619 net.cpp:91] Creating Layer inception_4b/5x5
I0403 16:57:27.865825 21619 net.cpp:425] inception_4b/5x5 <- inception_4b/5x5_reduce
I0403 16:57:27.865844 21619 net.cpp:399] inception_4b/5x5 -> inception_4b/5x5
I0403 16:57:27.867051 21619 net.cpp:141] Setting up inception_4b/5x5
I0403 16:57:27.867077 21619 net.cpp:148] Top shape: 24 64 14 14 (301056)
I0403 16:57:27.867092 21619 net.cpp:156] Memory required for data: 966976800
I0403 16:57:27.867110 21619 layer_factory.hpp:77] Creating layer inception_4b/relu_5x5
I0403 16:57:27.867126 21619 net.cpp:91] Creating Layer inception_4b/relu_5x5
I0403 16:57:27.867142 21619 net.cpp:425] inception_4b/relu_5x5 <- inception_4b/5x5
I0403 16:57:27.867161 21619 net.cpp:386] inception_4b/relu_5x5 -> inception_4b/5x5 (in-place)
I0403 16:57:27.867444 21619 net.cpp:141] Setting up inception_4b/relu_5x5
I0403 16:57:27.867468 21619 net.cpp:148] Top shape: 24 64 14 14 (301056)
I0403 16:57:27.867482 21619 net.cpp:156] Memory required for data: 968181024
I0403 16:57:27.867496 21619 layer_factory.hpp:77] Creating layer inception_4b/pool
I0403 16:57:27.867514 21619 net.cpp:91] Creating Layer inception_4b/pool
I0403 16:57:27.867529 21619 net.cpp:425] inception_4b/pool <- inception_4a/output_inception_4a/output_0_split_4
I0403 16:57:27.867549 21619 net.cpp:399] inception_4b/pool -> inception_4b/pool
I0403 16:57:27.867614 21619 net.cpp:141] Setting up inception_4b/pool
I0403 16:57:27.867636 21619 net.cpp:148] Top shape: 24 512 14 14 (2408448)
I0403 16:57:27.867650 21619 net.cpp:156] Memory required for data: 977814816
I0403 16:57:27.867663 21619 layer_factory.hpp:77] Creating layer inception_4b/pool_proj
I0403 16:57:27.867687 21619 net.cpp:91] Creating Layer inception_4b/pool_proj
I0403 16:57:27.867704 21619 net.cpp:425] inception_4b/pool_proj <- inception_4b/pool
I0403 16:57:27.867722 21619 net.cpp:399] inception_4b/pool_proj -> inception_4b/pool_proj
I0403 16:57:27.868927 21619 net.cpp:141] Setting up inception_4b/pool_proj
I0403 16:57:27.868953 21619 net.cpp:148] Top shape: 24 64 14 14 (301056)
I0403 16:57:27.868968 21619 net.cpp:156] Memory required for data: 979019040
I0403 16:57:27.868984 21619 layer_factory.hpp:77] Creating layer inception_4b/relu_pool_proj
I0403 16:57:27.869001 21619 net.cpp:91] Creating Layer inception_4b/relu_pool_proj
I0403 16:57:27.869040 21619 net.cpp:425] inception_4b/relu_pool_proj <- inception_4b/pool_proj
I0403 16:57:27.869065 21619 net.cpp:386] inception_4b/relu_pool_proj -> inception_4b/pool_proj (in-place)
I0403 16:57:27.869254 21619 net.cpp:141] Setting up inception_4b/relu_pool_proj
I0403 16:57:27.869279 21619 net.cpp:148] Top shape: 24 64 14 14 (301056)
I0403 16:57:27.869293 21619 net.cpp:156] Memory required for data: 980223264
I0403 16:57:27.869307 21619 layer_factory.hpp:77] Creating layer inception_4b/output
I0403 16:57:27.869326 21619 net.cpp:91] Creating Layer inception_4b/output
I0403 16:57:27.869343 21619 net.cpp:425] inception_4b/output <- inception_4b/1x1
I0403 16:57:27.869359 21619 net.cpp:425] inception_4b/output <- inception_4b/3x3
I0403 16:57:27.869381 21619 net.cpp:425] inception_4b/output <- inception_4b/5x5
I0403 16:57:27.869396 21619 net.cpp:425] inception_4b/output <- inception_4b/pool_proj
I0403 16:57:27.869412 21619 net.cpp:399] inception_4b/output -> inception_4b/output
I0403 16:57:27.869458 21619 net.cpp:141] Setting up inception_4b/output
I0403 16:57:27.869482 21619 net.cpp:148] Top shape: 24 512 14 14 (2408448)
I0403 16:57:27.869495 21619 net.cpp:156] Memory required for data: 989857056
I0403 16:57:27.869524 21619 layer_factory.hpp:77] Creating layer inception_4b/output_inception_4b/output_0_split
I0403 16:57:27.869541 21619 net.cpp:91] Creating Layer inception_4b/output_inception_4b/output_0_split
I0403 16:57:27.869556 21619 net.cpp:425] inception_4b/output_inception_4b/output_0_split <- inception_4b/output
I0403 16:57:27.869576 21619 net.cpp:399] inception_4b/output_inception_4b/output_0_split -> inception_4b/output_inception_4b/output_0_split_0
I0403 16:57:27.869596 21619 net.cpp:399] inception_4b/output_inception_4b/output_0_split -> inception_4b/output_inception_4b/output_0_split_1
I0403 16:57:27.869616 21619 net.cpp:399] inception_4b/output_inception_4b/output_0_split -> inception_4b/output_inception_4b/output_0_split_2
I0403 16:57:27.869635 21619 net.cpp:399] inception_4b/output_inception_4b/output_0_split -> inception_4b/output_inception_4b/output_0_split_3
I0403 16:57:27.869719 21619 net.cpp:141] Setting up inception_4b/output_inception_4b/output_0_split
I0403 16:57:27.869741 21619 net.cpp:148] Top shape: 24 512 14 14 (2408448)
I0403 16:57:27.869757 21619 net.cpp:148] Top shape: 24 512 14 14 (2408448)
I0403 16:57:27.869772 21619 net.cpp:148] Top shape: 24 512 14 14 (2408448)
I0403 16:57:27.869787 21619 net.cpp:148] Top shape: 24 512 14 14 (2408448)
I0403 16:57:27.869801 21619 net.cpp:156] Memory required for data: 1028392224
I0403 16:57:27.869814 21619 layer_factory.hpp:77] Creating layer inception_4c/1x1
I0403 16:57:27.869837 21619 net.cpp:91] Creating Layer inception_4c/1x1
I0403 16:57:27.869853 21619 net.cpp:425] inception_4c/1x1 <- inception_4b/output_inception_4b/output_0_split_0
I0403 16:57:27.869874 21619 net.cpp:399] inception_4c/1x1 -> inception_4c/1x1
I0403 16:57:27.871309 21619 net.cpp:141] Setting up inception_4c/1x1
I0403 16:57:27.871340 21619 net.cpp:148] Top shape: 24 128 14 14 (602112)
I0403 16:57:27.871357 21619 net.cpp:156] Memory required for data: 1030800672
I0403 16:57:27.871374 21619 layer_factory.hpp:77] Creating layer inception_4c/relu_1x1
I0403 16:57:27.871392 21619 net.cpp:91] Creating Layer inception_4c/relu_1x1
I0403 16:57:27.871408 21619 net.cpp:425] inception_4c/relu_1x1 <- inception_4c/1x1
I0403 16:57:27.871425 21619 net.cpp:386] inception_4c/relu_1x1 -> inception_4c/1x1 (in-place)
I0403 16:57:27.871609 21619 net.cpp:141] Setting up inception_4c/relu_1x1
I0403 16:57:27.871635 21619 net.cpp:148] Top shape: 24 128 14 14 (602112)
I0403 16:57:27.871650 21619 net.cpp:156] Memory required for data: 1033209120
I0403 16:57:27.871665 21619 layer_factory.hpp:77] Creating layer inception_4c/3x3_reduce
I0403 16:57:27.871686 21619 net.cpp:91] Creating Layer inception_4c/3x3_reduce
I0403 16:57:27.871703 21619 net.cpp:425] inception_4c/3x3_reduce <- inception_4b/output_inception_4b/output_0_split_1
I0403 16:57:27.871722 21619 net.cpp:399] inception_4c/3x3_reduce -> inception_4c/3x3_reduce
I0403 16:57:27.873670 21619 net.cpp:141] Setting up inception_4c/3x3_reduce
I0403 16:57:27.873699 21619 net.cpp:148] Top shape: 24 128 14 14 (602112)
I0403 16:57:27.873715 21619 net.cpp:156] Memory required for data: 1035617568
I0403 16:57:27.873733 21619 layer_factory.hpp:77] Creating layer inception_4c/relu_3x3_reduce
I0403 16:57:27.873751 21619 net.cpp:91] Creating Layer inception_4c/relu_3x3_reduce
I0403 16:57:27.873767 21619 net.cpp:425] inception_4c/relu_3x3_reduce <- inception_4c/3x3_reduce
I0403 16:57:27.873787 21619 net.cpp:386] inception_4c/relu_3x3_reduce -> inception_4c/3x3_reduce (in-place)
I0403 16:57:27.874089 21619 net.cpp:141] Setting up inception_4c/relu_3x3_reduce
I0403 16:57:27.874115 21619 net.cpp:148] Top shape: 24 128 14 14 (602112)
I0403 16:57:27.874130 21619 net.cpp:156] Memory required for data: 1038026016
I0403 16:57:27.874145 21619 layer_factory.hpp:77] Creating layer inception_4c/3x3
I0403 16:57:27.874171 21619 net.cpp:91] Creating Layer inception_4c/3x3
I0403 16:57:27.874189 21619 net.cpp:425] inception_4c/3x3 <- inception_4c/3x3_reduce
I0403 16:57:27.874212 21619 net.cpp:399] inception_4c/3x3 -> inception_4c/3x3
I0403 16:57:27.877862 21619 net.cpp:141] Setting up inception_4c/3x3
I0403 16:57:27.877903 21619 net.cpp:148] Top shape: 24 256 14 14 (1204224)
I0403 16:57:27.877919 21619 net.cpp:156] Memory required for data: 1042842912
I0403 16:57:27.877951 21619 layer_factory.hpp:77] Creating layer inception_4c/relu_3x3
I0403 16:57:27.877971 21619 net.cpp:91] Creating Layer inception_4c/relu_3x3
I0403 16:57:27.877987 21619 net.cpp:425] inception_4c/relu_3x3 <- inception_4c/3x3
I0403 16:57:27.878006 21619 net.cpp:386] inception_4c/relu_3x3 -> inception_4c/3x3 (in-place)
I0403 16:57:27.878196 21619 net.cpp:141] Setting up inception_4c/relu_3x3
I0403 16:57:27.878221 21619 net.cpp:148] Top shape: 24 256 14 14 (1204224)
I0403 16:57:27.878235 21619 net.cpp:156] Memory required for data: 1047659808
I0403 16:57:27.878250 21619 layer_factory.hpp:77] Creating layer inception_4c/5x5_reduce
I0403 16:57:27.878271 21619 net.cpp:91] Creating Layer inception_4c/5x5_reduce
I0403 16:57:27.878289 21619 net.cpp:425] inception_4c/5x5_reduce <- inception_4b/output_inception_4b/output_0_split_2
I0403 16:57:27.878311 21619 net.cpp:399] inception_4c/5x5_reduce -> inception_4c/5x5_reduce
I0403 16:57:27.879407 21619 net.cpp:141] Setting up inception_4c/5x5_reduce
I0403 16:57:27.879436 21619 net.cpp:148] Top shape: 24 24 14 14 (112896)
I0403 16:57:27.879451 21619 net.cpp:156] Memory required for data: 1048111392
I0403 16:57:27.879468 21619 layer_factory.hpp:77] Creating layer inception_4c/relu_5x5_reduce
I0403 16:57:27.879487 21619 net.cpp:91] Creating Layer inception_4c/relu_5x5_reduce
I0403 16:57:27.879504 21619 net.cpp:425] inception_4c/relu_5x5_reduce <- inception_4c/5x5_reduce
I0403 16:57:27.879521 21619 net.cpp:386] inception_4c/relu_5x5_reduce -> inception_4c/5x5_reduce (in-place)
I0403 16:57:27.879708 21619 net.cpp:141] Setting up inception_4c/relu_5x5_reduce
I0403 16:57:27.879731 21619 net.cpp:148] Top shape: 24 24 14 14 (112896)
I0403 16:57:27.879746 21619 net.cpp:156] Memory required for data: 1048562976
I0403 16:57:27.879760 21619 layer_factory.hpp:77] Creating layer inception_4c/5x5
I0403 16:57:27.879782 21619 net.cpp:91] Creating Layer inception_4c/5x5
I0403 16:57:27.879801 21619 net.cpp:425] inception_4c/5x5 <- inception_4c/5x5_reduce
I0403 16:57:27.879819 21619 net.cpp:399] inception_4c/5x5 -> inception_4c/5x5
I0403 16:57:27.881064 21619 net.cpp:141] Setting up inception_4c/5x5
I0403 16:57:27.881091 21619 net.cpp:148] Top shape: 24 64 14 14 (301056)
I0403 16:57:27.881106 21619 net.cpp:156] Memory required for data: 1049767200
I0403 16:57:27.881124 21619 layer_factory.hpp:77] Creating layer inception_4c/relu_5x5
I0403 16:57:27.881145 21619 net.cpp:91] Creating Layer inception_4c/relu_5x5
I0403 16:57:27.881160 21619 net.cpp:425] inception_4c/relu_5x5 <- inception_4c/5x5
I0403 16:57:27.881178 21619 net.cpp:386] inception_4c/relu_5x5 -> inception_4c/5x5 (in-place)
I0403 16:57:27.881465 21619 net.cpp:141] Setting up inception_4c/relu_5x5
I0403 16:57:27.881491 21619 net.cpp:148] Top shape: 24 64 14 14 (301056)
I0403 16:57:27.881507 21619 net.cpp:156] Memory required for data: 1050971424
I0403 16:57:27.881522 21619 layer_factory.hpp:77] Creating layer inception_4c/pool
I0403 16:57:27.881542 21619 net.cpp:91] Creating Layer inception_4c/pool
I0403 16:57:27.881559 21619 net.cpp:425] inception_4c/pool <- inception_4b/output_inception_4b/output_0_split_3
I0403 16:57:27.881578 21619 net.cpp:399] inception_4c/pool -> inception_4c/pool
I0403 16:57:27.881644 21619 net.cpp:141] Setting up inception_4c/pool
I0403 16:57:27.881667 21619 net.cpp:148] Top shape: 24 512 14 14 (2408448)
I0403 16:57:27.881695 21619 net.cpp:156] Memory required for data: 1060605216
I0403 16:57:27.881710 21619 layer_factory.hpp:77] Creating layer inception_4c/pool_proj
I0403 16:57:27.881731 21619 net.cpp:91] Creating Layer inception_4c/pool_proj
I0403 16:57:27.881749 21619 net.cpp:425] inception_4c/pool_proj <- inception_4c/pool
I0403 16:57:27.881770 21619 net.cpp:399] inception_4c/pool_proj -> inception_4c/pool_proj
I0403 16:57:27.883024 21619 net.cpp:141] Setting up inception_4c/pool_proj
I0403 16:57:27.883052 21619 net.cpp:148] Top shape: 24 64 14 14 (301056)
I0403 16:57:27.883081 21619 net.cpp:156] Memory required for data: 1061809440
I0403 16:57:27.883100 21619 layer_factory.hpp:77] Creating layer inception_4c/relu_pool_proj
I0403 16:57:27.883117 21619 net.cpp:91] Creating Layer inception_4c/relu_pool_proj
I0403 16:57:27.883133 21619 net.cpp:425] inception_4c/relu_pool_proj <- inception_4c/pool_proj
I0403 16:57:27.883153 21619 net.cpp:386] inception_4c/relu_pool_proj -> inception_4c/pool_proj (in-place)
I0403 16:57:27.883338 21619 net.cpp:141] Setting up inception_4c/relu_pool_proj
I0403 16:57:27.883363 21619 net.cpp:148] Top shape: 24 64 14 14 (301056)
I0403 16:57:27.883378 21619 net.cpp:156] Memory required for data: 1063013664
I0403 16:57:27.883391 21619 layer_factory.hpp:77] Creating layer inception_4c/output
I0403 16:57:27.883410 21619 net.cpp:91] Creating Layer inception_4c/output
I0403 16:57:27.883427 21619 net.cpp:425] inception_4c/output <- inception_4c/1x1
I0403 16:57:27.883442 21619 net.cpp:425] inception_4c/output <- inception_4c/3x3
I0403 16:57:27.883458 21619 net.cpp:425] inception_4c/output <- inception_4c/5x5
I0403 16:57:27.883473 21619 net.cpp:425] inception_4c/output <- inception_4c/pool_proj
I0403 16:57:27.883489 21619 net.cpp:399] inception_4c/output -> inception_4c/output
I0403 16:57:27.883538 21619 net.cpp:141] Setting up inception_4c/output
I0403 16:57:27.883560 21619 net.cpp:148] Top shape: 24 512 14 14 (2408448)
I0403 16:57:27.883574 21619 net.cpp:156] Memory required for data: 1072647456
I0403 16:57:27.883589 21619 layer_factory.hpp:77] Creating layer inception_4c/output_inception_4c/output_0_split
I0403 16:57:27.883605 21619 net.cpp:91] Creating Layer inception_4c/output_inception_4c/output_0_split
I0403 16:57:27.883620 21619 net.cpp:425] inception_4c/output_inception_4c/output_0_split <- inception_4c/output
I0403 16:57:27.883638 21619 net.cpp:399] inception_4c/output_inception_4c/output_0_split -> inception_4c/output_inception_4c/output_0_split_0
I0403 16:57:27.883659 21619 net.cpp:399] inception_4c/output_inception_4c/output_0_split -> inception_4c/output_inception_4c/output_0_split_1
I0403 16:57:27.883679 21619 net.cpp:399] inception_4c/output_inception_4c/output_0_split -> inception_4c/output_inception_4c/output_0_split_2
I0403 16:57:27.883698 21619 net.cpp:399] inception_4c/output_inception_4c/output_0_split -> inception_4c/output_inception_4c/output_0_split_3
I0403 16:57:27.883782 21619 net.cpp:141] Setting up inception_4c/output_inception_4c/output_0_split
I0403 16:57:27.883806 21619 net.cpp:148] Top shape: 24 512 14 14 (2408448)
I0403 16:57:27.883822 21619 net.cpp:148] Top shape: 24 512 14 14 (2408448)
I0403 16:57:27.883837 21619 net.cpp:148] Top shape: 24 512 14 14 (2408448)
I0403 16:57:27.883852 21619 net.cpp:148] Top shape: 24 512 14 14 (2408448)
I0403 16:57:27.883864 21619 net.cpp:156] Memory required for data: 1111182624
I0403 16:57:27.883878 21619 layer_factory.hpp:77] Creating layer inception_4d/1x1
I0403 16:57:27.883900 21619 net.cpp:91] Creating Layer inception_4d/1x1
I0403 16:57:27.883919 21619 net.cpp:425] inception_4d/1x1 <- inception_4c/output_inception_4c/output_0_split_0
I0403 16:57:27.883939 21619 net.cpp:399] inception_4d/1x1 -> inception_4d/1x1
I0403 16:57:27.885326 21619 net.cpp:141] Setting up inception_4d/1x1
I0403 16:57:27.885356 21619 net.cpp:148] Top shape: 24 112 14 14 (526848)
I0403 16:57:27.885372 21619 net.cpp:156] Memory required for data: 1113290016
I0403 16:57:27.885390 21619 layer_factory.hpp:77] Creating layer inception_4d/relu_1x1
I0403 16:57:27.885407 21619 net.cpp:91] Creating Layer inception_4d/relu_1x1
I0403 16:57:27.885423 21619 net.cpp:425] inception_4d/relu_1x1 <- inception_4d/1x1
I0403 16:57:27.885442 21619 net.cpp:386] inception_4d/relu_1x1 -> inception_4d/1x1 (in-place)
I0403 16:57:27.885628 21619 net.cpp:141] Setting up inception_4d/relu_1x1
I0403 16:57:27.885653 21619 net.cpp:148] Top shape: 24 112 14 14 (526848)
I0403 16:57:27.885668 21619 net.cpp:156] Memory required for data: 1115397408
I0403 16:57:27.885681 21619 layer_factory.hpp:77] Creating layer inception_4d/3x3_reduce
I0403 16:57:27.885718 21619 net.cpp:91] Creating Layer inception_4d/3x3_reduce
I0403 16:57:27.885736 21619 net.cpp:425] inception_4d/3x3_reduce <- inception_4c/output_inception_4c/output_0_split_1
I0403 16:57:27.885757 21619 net.cpp:399] inception_4d/3x3_reduce -> inception_4d/3x3_reduce
I0403 16:57:27.887272 21619 net.cpp:141] Setting up inception_4d/3x3_reduce
I0403 16:57:27.887300 21619 net.cpp:148] Top shape: 24 144 14 14 (677376)
I0403 16:57:27.887315 21619 net.cpp:156] Memory required for data: 1118106912
I0403 16:57:27.887333 21619 layer_factory.hpp:77] Creating layer inception_4d/relu_3x3_reduce
I0403 16:57:27.887353 21619 net.cpp:91] Creating Layer inception_4d/relu_3x3_reduce
I0403 16:57:27.887370 21619 net.cpp:425] inception_4d/relu_3x3_reduce <- inception_4d/3x3_reduce
I0403 16:57:27.887387 21619 net.cpp:386] inception_4d/relu_3x3_reduce -> inception_4d/3x3_reduce (in-place)
I0403 16:57:27.887676 21619 net.cpp:141] Setting up inception_4d/relu_3x3_reduce
I0403 16:57:27.887702 21619 net.cpp:148] Top shape: 24 144 14 14 (677376)
I0403 16:57:27.887717 21619 net.cpp:156] Memory required for data: 1120816416
I0403 16:57:27.887742 21619 layer_factory.hpp:77] Creating layer inception_4d/3x3
I0403 16:57:27.887765 21619 net.cpp:91] Creating Layer inception_4d/3x3
I0403 16:57:27.887784 21619 net.cpp:425] inception_4d/3x3 <- inception_4d/3x3_reduce
I0403 16:57:27.887801 21619 net.cpp:399] inception_4d/3x3 -> inception_4d/3x3
I0403 16:57:27.891929 21619 net.cpp:141] Setting up inception_4d/3x3
I0403 16:57:27.891959 21619 net.cpp:148] Top shape: 24 288 14 14 (1354752)
I0403 16:57:27.891974 21619 net.cpp:156] Memory required for data: 1126235424
I0403 16:57:27.891993 21619 layer_factory.hpp:77] Creating layer inception_4d/relu_3x3
I0403 16:57:27.892009 21619 net.cpp:91] Creating Layer inception_4d/relu_3x3
I0403 16:57:27.892029 21619 net.cpp:425] inception_4d/relu_3x3 <- inception_4d/3x3
I0403 16:57:27.892050 21619 net.cpp:386] inception_4d/relu_3x3 -> inception_4d/3x3 (in-place)
I0403 16:57:27.892227 21619 net.cpp:141] Setting up inception_4d/relu_3x3
I0403 16:57:27.892252 21619 net.cpp:148] Top shape: 24 288 14 14 (1354752)
I0403 16:57:27.892266 21619 net.cpp:156] Memory required for data: 1131654432
I0403 16:57:27.892280 21619 layer_factory.hpp:77] Creating layer inception_4d/5x5_reduce
I0403 16:57:27.892302 21619 net.cpp:91] Creating Layer inception_4d/5x5_reduce
I0403 16:57:27.892318 21619 net.cpp:425] inception_4d/5x5_reduce <- inception_4c/output_inception_4c/output_0_split_2
I0403 16:57:27.892339 21619 net.cpp:399] inception_4d/5x5_reduce -> inception_4d/5x5_reduce
I0403 16:57:27.893455 21619 net.cpp:141] Setting up inception_4d/5x5_reduce
I0403 16:57:27.893484 21619 net.cpp:148] Top shape: 24 32 14 14 (150528)
I0403 16:57:27.893498 21619 net.cpp:156] Memory required for data: 1132256544
I0403 16:57:27.893515 21619 layer_factory.hpp:77] Creating layer inception_4d/relu_5x5_reduce
I0403 16:57:27.893532 21619 net.cpp:91] Creating Layer inception_4d/relu_5x5_reduce
I0403 16:57:27.893548 21619 net.cpp:425] inception_4d/relu_5x5_reduce <- inception_4d/5x5_reduce
I0403 16:57:27.893568 21619 net.cpp:386] inception_4d/relu_5x5_reduce -> inception_4d/5x5_reduce (in-place)
I0403 16:57:27.893749 21619 net.cpp:141] Setting up inception_4d/relu_5x5_reduce
I0403 16:57:27.893774 21619 net.cpp:148] Top shape: 24 32 14 14 (150528)
I0403 16:57:27.893787 21619 net.cpp:156] Memory required for data: 1132858656
I0403 16:57:27.893801 21619 layer_factory.hpp:77] Creating layer inception_4d/5x5
I0403 16:57:27.893822 21619 net.cpp:91] Creating Layer inception_4d/5x5
I0403 16:57:27.893838 21619 net.cpp:425] inception_4d/5x5 <- inception_4d/5x5_reduce
I0403 16:57:27.893862 21619 net.cpp:399] inception_4d/5x5 -> inception_4d/5x5
I0403 16:57:27.895292 21619 net.cpp:141] Setting up inception_4d/5x5
I0403 16:57:27.895318 21619 net.cpp:148] Top shape: 24 64 14 14 (301056)
I0403 16:57:27.895333 21619 net.cpp:156] Memory required for data: 1134062880
I0403 16:57:27.895349 21619 layer_factory.hpp:77] Creating layer inception_4d/relu_5x5
I0403 16:57:27.895385 21619 net.cpp:91] Creating Layer inception_4d/relu_5x5
I0403 16:57:27.895401 21619 net.cpp:425] inception_4d/relu_5x5 <- inception_4d/5x5
I0403 16:57:27.895418 21619 net.cpp:386] inception_4d/relu_5x5 -> inception_4d/5x5 (in-place)
I0403 16:57:27.895709 21619 net.cpp:141] Setting up inception_4d/relu_5x5
I0403 16:57:27.895735 21619 net.cpp:148] Top shape: 24 64 14 14 (301056)
I0403 16:57:27.895750 21619 net.cpp:156] Memory required for data: 1135267104
I0403 16:57:27.895763 21619 layer_factory.hpp:77] Creating layer inception_4d/pool
I0403 16:57:27.895783 21619 net.cpp:91] Creating Layer inception_4d/pool
I0403 16:57:27.895799 21619 net.cpp:425] inception_4d/pool <- inception_4c/output_inception_4c/output_0_split_3
I0403 16:57:27.895817 21619 net.cpp:399] inception_4d/pool -> inception_4d/pool
I0403 16:57:27.895881 21619 net.cpp:141] Setting up inception_4d/pool
I0403 16:57:27.895905 21619 net.cpp:148] Top shape: 24 512 14 14 (2408448)
I0403 16:57:27.895918 21619 net.cpp:156] Memory required for data: 1144900896
I0403 16:57:27.895932 21619 layer_factory.hpp:77] Creating layer inception_4d/pool_proj
I0403 16:57:27.895953 21619 net.cpp:91] Creating Layer inception_4d/pool_proj
I0403 16:57:27.895969 21619 net.cpp:425] inception_4d/pool_proj <- inception_4d/pool
I0403 16:57:27.895989 21619 net.cpp:399] inception_4d/pool_proj -> inception_4d/pool_proj
I0403 16:57:27.897701 21619 net.cpp:141] Setting up inception_4d/pool_proj
I0403 16:57:27.897732 21619 net.cpp:148] Top shape: 24 64 14 14 (301056)
I0403 16:57:27.897747 21619 net.cpp:156] Memory required for data: 1146105120
I0403 16:57:27.897765 21619 layer_factory.hpp:77] Creating layer inception_4d/relu_pool_proj
I0403 16:57:27.897783 21619 net.cpp:91] Creating Layer inception_4d/relu_pool_proj
I0403 16:57:27.897797 21619 net.cpp:425] inception_4d/relu_pool_proj <- inception_4d/pool_proj
I0403 16:57:27.897816 21619 net.cpp:386] inception_4d/relu_pool_proj -> inception_4d/pool_proj (in-place)
I0403 16:57:27.897996 21619 net.cpp:141] Setting up inception_4d/relu_pool_proj
I0403 16:57:27.898025 21619 net.cpp:148] Top shape: 24 64 14 14 (301056)
I0403 16:57:27.898041 21619 net.cpp:156] Memory required for data: 1147309344
I0403 16:57:27.898054 21619 layer_factory.hpp:77] Creating layer inception_4d/output
I0403 16:57:27.898071 21619 net.cpp:91] Creating Layer inception_4d/output
I0403 16:57:27.898085 21619 net.cpp:425] inception_4d/output <- inception_4d/1x1
I0403 16:57:27.898102 21619 net.cpp:425] inception_4d/output <- inception_4d/3x3
I0403 16:57:27.898116 21619 net.cpp:425] inception_4d/output <- inception_4d/5x5
I0403 16:57:27.898131 21619 net.cpp:425] inception_4d/output <- inception_4d/pool_proj
I0403 16:57:27.898149 21619 net.cpp:399] inception_4d/output -> inception_4d/output
I0403 16:57:27.898197 21619 net.cpp:141] Setting up inception_4d/output
I0403 16:57:27.898221 21619 net.cpp:148] Top shape: 24 528 14 14 (2483712)
I0403 16:57:27.898236 21619 net.cpp:156] Memory required for data: 1157244192
I0403 16:57:27.898248 21619 layer_factory.hpp:77] Creating layer inception_4d/output_inception_4d/output_0_split
I0403 16:57:27.898265 21619 net.cpp:91] Creating Layer inception_4d/output_inception_4d/output_0_split
I0403 16:57:27.898280 21619 net.cpp:425] inception_4d/output_inception_4d/output_0_split <- inception_4d/output
I0403 16:57:27.898300 21619 net.cpp:399] inception_4d/output_inception_4d/output_0_split -> inception_4d/output_inception_4d/output_0_split_0
I0403 16:57:27.898321 21619 net.cpp:399] inception_4d/output_inception_4d/output_0_split -> inception_4d/output_inception_4d/output_0_split_1
I0403 16:57:27.898341 21619 net.cpp:399] inception_4d/output_inception_4d/output_0_split -> inception_4d/output_inception_4d/output_0_split_2
I0403 16:57:27.898360 21619 net.cpp:399] inception_4d/output_inception_4d/output_0_split -> inception_4d/output_inception_4d/output_0_split_3
I0403 16:57:27.898380 21619 net.cpp:399] inception_4d/output_inception_4d/output_0_split -> inception_4d/output_inception_4d/output_0_split_4
I0403 16:57:27.898476 21619 net.cpp:141] Setting up inception_4d/output_inception_4d/output_0_split
I0403 16:57:27.898514 21619 net.cpp:148] Top shape: 24 528 14 14 (2483712)
I0403 16:57:27.898530 21619 net.cpp:148] Top shape: 24 528 14 14 (2483712)
I0403 16:57:27.898545 21619 net.cpp:148] Top shape: 24 528 14 14 (2483712)
I0403 16:57:27.898560 21619 net.cpp:148] Top shape: 24 528 14 14 (2483712)
I0403 16:57:27.898574 21619 net.cpp:148] Top shape: 24 528 14 14 (2483712)
I0403 16:57:27.898587 21619 net.cpp:156] Memory required for data: 1206918432
I0403 16:57:27.898602 21619 layer_factory.hpp:77] Creating layer loss2/ave_pool
I0403 16:57:27.898617 21619 net.cpp:91] Creating Layer loss2/ave_pool
I0403 16:57:27.898633 21619 net.cpp:425] loss2/ave_pool <- inception_4d/output_inception_4d/output_0_split_0
I0403 16:57:27.898650 21619 net.cpp:399] loss2/ave_pool -> loss2/ave_pool
I0403 16:57:27.898957 21619 net.cpp:141] Setting up loss2/ave_pool
I0403 16:57:27.898985 21619 net.cpp:148] Top shape: 24 528 4 4 (202752)
I0403 16:57:27.899000 21619 net.cpp:156] Memory required for data: 1207729440
I0403 16:57:27.899014 21619 layer_factory.hpp:77] Creating layer loss2/conv
I0403 16:57:27.899049 21619 net.cpp:91] Creating Layer loss2/conv
I0403 16:57:27.899065 21619 net.cpp:425] loss2/conv <- loss2/ave_pool
I0403 16:57:27.899085 21619 net.cpp:399] loss2/conv -> loss2/conv
I0403 16:57:27.900931 21619 net.cpp:141] Setting up loss2/conv
I0403 16:57:27.900960 21619 net.cpp:148] Top shape: 24 128 4 4 (49152)
I0403 16:57:27.900975 21619 net.cpp:156] Memory required for data: 1207926048
I0403 16:57:27.900992 21619 layer_factory.hpp:77] Creating layer loss2/relu_conv
I0403 16:57:27.901011 21619 net.cpp:91] Creating Layer loss2/relu_conv
I0403 16:57:27.901033 21619 net.cpp:425] loss2/relu_conv <- loss2/conv
I0403 16:57:27.901052 21619 net.cpp:386] loss2/relu_conv -> loss2/conv (in-place)
I0403 16:57:27.901336 21619 net.cpp:141] Setting up loss2/relu_conv
I0403 16:57:27.901362 21619 net.cpp:148] Top shape: 24 128 4 4 (49152)
I0403 16:57:27.901378 21619 net.cpp:156] Memory required for data: 1208122656
I0403 16:57:27.901393 21619 layer_factory.hpp:77] Creating layer loss2/fc
I0403 16:57:27.901413 21619 net.cpp:91] Creating Layer loss2/fc
I0403 16:57:27.901430 21619 net.cpp:425] loss2/fc <- loss2/conv
I0403 16:57:27.901448 21619 net.cpp:399] loss2/fc -> loss2/fc
I0403 16:57:27.919075 21619 net.cpp:141] Setting up loss2/fc
I0403 16:57:27.919107 21619 net.cpp:148] Top shape: 24 1024 (24576)
I0403 16:57:27.919124 21619 net.cpp:156] Memory required for data: 1208220960
I0403 16:57:27.919143 21619 layer_factory.hpp:77] Creating layer loss2/relu_fc
I0403 16:57:27.919162 21619 net.cpp:91] Creating Layer loss2/relu_fc
I0403 16:57:27.919179 21619 net.cpp:425] loss2/relu_fc <- loss2/fc
I0403 16:57:27.919200 21619 net.cpp:386] loss2/relu_fc -> loss2/fc (in-place)
I0403 16:57:27.919529 21619 net.cpp:141] Setting up loss2/relu_fc
I0403 16:57:27.919556 21619 net.cpp:148] Top shape: 24 1024 (24576)
I0403 16:57:27.919571 21619 net.cpp:156] Memory required for data: 1208319264
I0403 16:57:27.919586 21619 layer_factory.hpp:77] Creating layer loss2/drop_fc
I0403 16:57:27.919603 21619 net.cpp:91] Creating Layer loss2/drop_fc
I0403 16:57:27.919620 21619 net.cpp:425] loss2/drop_fc <- loss2/fc
I0403 16:57:27.919639 21619 net.cpp:386] loss2/drop_fc -> loss2/fc (in-place)
I0403 16:57:27.919692 21619 net.cpp:141] Setting up loss2/drop_fc
I0403 16:57:27.919718 21619 net.cpp:148] Top shape: 24 1024 (24576)
I0403 16:57:27.919733 21619 net.cpp:156] Memory required for data: 1208417568
I0403 16:57:27.919747 21619 layer_factory.hpp:77] Creating layer loss2/classifier_plantvillage
I0403 16:57:27.919766 21619 net.cpp:91] Creating Layer loss2/classifier_plantvillage
I0403 16:57:27.919783 21619 net.cpp:425] loss2/classifier_plantvillage <- loss2/fc
I0403 16:57:27.919805 21619 net.cpp:399] loss2/classifier_plantvillage -> loss2/classifier_plantvillage
I0403 16:57:27.920230 21619 net.cpp:141] Setting up loss2/classifier_plantvillage
I0403 16:57:27.920256 21619 net.cpp:148] Top shape: 24 38 (912)
I0403 16:57:27.920294 21619 net.cpp:156] Memory required for data: 1208421216
I0403 16:57:27.920312 21619 layer_factory.hpp:77] Creating layer loss2/classifier_plantvillage_loss2/classifier_plantvillage_0_split
I0403 16:57:27.920333 21619 net.cpp:91] Creating Layer loss2/classifier_plantvillage_loss2/classifier_plantvillage_0_split
I0403 16:57:27.920351 21619 net.cpp:425] loss2/classifier_plantvillage_loss2/classifier_plantvillage_0_split <- loss2/classifier_plantvillage
I0403 16:57:27.920369 21619 net.cpp:399] loss2/classifier_plantvillage_loss2/classifier_plantvillage_0_split -> loss2/classifier_plantvillage_loss2/classifier_plantvillage_0_split_0
I0403 16:57:27.920389 21619 net.cpp:399] loss2/classifier_plantvillage_loss2/classifier_plantvillage_0_split -> loss2/classifier_plantvillage_loss2/classifier_plantvillage_0_split_1
I0403 16:57:27.920413 21619 net.cpp:399] loss2/classifier_plantvillage_loss2/classifier_plantvillage_0_split -> loss2/classifier_plantvillage_loss2/classifier_plantvillage_0_split_2
I0403 16:57:27.920492 21619 net.cpp:141] Setting up loss2/classifier_plantvillage_loss2/classifier_plantvillage_0_split
I0403 16:57:27.920516 21619 net.cpp:148] Top shape: 24 38 (912)
I0403 16:57:27.920532 21619 net.cpp:148] Top shape: 24 38 (912)
I0403 16:57:27.920547 21619 net.cpp:148] Top shape: 24 38 (912)
I0403 16:57:27.920560 21619 net.cpp:156] Memory required for data: 1208432160
I0403 16:57:27.920575 21619 layer_factory.hpp:77] Creating layer inception_4e/1x1
I0403 16:57:27.920598 21619 net.cpp:91] Creating Layer inception_4e/1x1
I0403 16:57:27.920615 21619 net.cpp:425] inception_4e/1x1 <- inception_4d/output_inception_4d/output_0_split_1
I0403 16:57:27.920635 21619 net.cpp:399] inception_4e/1x1 -> inception_4e/1x1
I0403 16:57:27.922533 21619 net.cpp:141] Setting up inception_4e/1x1
I0403 16:57:27.922562 21619 net.cpp:148] Top shape: 24 256 14 14 (1204224)
I0403 16:57:27.922579 21619 net.cpp:156] Memory required for data: 1213249056
I0403 16:57:27.922596 21619 layer_factory.hpp:77] Creating layer inception_4e/relu_1x1
I0403 16:57:27.922617 21619 net.cpp:91] Creating Layer inception_4e/relu_1x1
I0403 16:57:27.922634 21619 net.cpp:425] inception_4e/relu_1x1 <- inception_4e/1x1
I0403 16:57:27.922652 21619 net.cpp:386] inception_4e/relu_1x1 -> inception_4e/1x1 (in-place)
I0403 16:57:27.922955 21619 net.cpp:141] Setting up inception_4e/relu_1x1
I0403 16:57:27.922982 21619 net.cpp:148] Top shape: 24 256 14 14 (1204224)
I0403 16:57:27.922997 21619 net.cpp:156] Memory required for data: 1218065952
I0403 16:57:27.923012 21619 layer_factory.hpp:77] Creating layer inception_4e/3x3_reduce
I0403 16:57:27.923039 21619 net.cpp:91] Creating Layer inception_4e/3x3_reduce
I0403 16:57:27.923058 21619 net.cpp:425] inception_4e/3x3_reduce <- inception_4d/output_inception_4d/output_0_split_2
I0403 16:57:27.923080 21619 net.cpp:399] inception_4e/3x3_reduce -> inception_4e/3x3_reduce
I0403 16:57:27.925249 21619 net.cpp:141] Setting up inception_4e/3x3_reduce
I0403 16:57:27.925278 21619 net.cpp:148] Top shape: 24 160 14 14 (752640)
I0403 16:57:27.925293 21619 net.cpp:156] Memory required for data: 1221076512
I0403 16:57:27.925312 21619 layer_factory.hpp:77] Creating layer inception_4e/relu_3x3_reduce
I0403 16:57:27.925333 21619 net.cpp:91] Creating Layer inception_4e/relu_3x3_reduce
I0403 16:57:27.925349 21619 net.cpp:425] inception_4e/relu_3x3_reduce <- inception_4e/3x3_reduce
I0403 16:57:27.925367 21619 net.cpp:386] inception_4e/relu_3x3_reduce -> inception_4e/3x3_reduce (in-place)
I0403 16:57:27.925561 21619 net.cpp:141] Setting up inception_4e/relu_3x3_reduce
I0403 16:57:27.925590 21619 net.cpp:148] Top shape: 24 160 14 14 (752640)
I0403 16:57:27.925604 21619 net.cpp:156] Memory required for data: 1224087072
I0403 16:57:27.925619 21619 layer_factory.hpp:77] Creating layer inception_4e/3x3
I0403 16:57:27.925639 21619 net.cpp:91] Creating Layer inception_4e/3x3
I0403 16:57:27.925657 21619 net.cpp:425] inception_4e/3x3 <- inception_4e/3x3_reduce
I0403 16:57:27.925678 21619 net.cpp:399] inception_4e/3x3 -> inception_4e/3x3
I0403 16:57:27.930817 21619 net.cpp:141] Setting up inception_4e/3x3
I0403 16:57:27.930865 21619 net.cpp:148] Top shape: 24 320 14 14 (1505280)
I0403 16:57:27.930881 21619 net.cpp:156] Memory required for data: 1230108192
I0403 16:57:27.930899 21619 layer_factory.hpp:77] Creating layer inception_4e/relu_3x3
I0403 16:57:27.930917 21619 net.cpp:91] Creating Layer inception_4e/relu_3x3
I0403 16:57:27.930933 21619 net.cpp:425] inception_4e/relu_3x3 <- inception_4e/3x3
I0403 16:57:27.930950 21619 net.cpp:386] inception_4e/relu_3x3 -> inception_4e/3x3 (in-place)
I0403 16:57:27.931413 21619 net.cpp:141] Setting up inception_4e/relu_3x3
I0403 16:57:27.931443 21619 net.cpp:148] Top shape: 24 320 14 14 (1505280)
I0403 16:57:27.931458 21619 net.cpp:156] Memory required for data: 1236129312
I0403 16:57:27.931473 21619 layer_factory.hpp:77] Creating layer inception_4e/5x5_reduce
I0403 16:57:27.931496 21619 net.cpp:91] Creating Layer inception_4e/5x5_reduce
I0403 16:57:27.931514 21619 net.cpp:425] inception_4e/5x5_reduce <- inception_4d/output_inception_4d/output_0_split_3
I0403 16:57:27.931532 21619 net.cpp:399] inception_4e/5x5_reduce -> inception_4e/5x5_reduce
I0403 16:57:27.932605 21619 net.cpp:141] Setting up inception_4e/5x5_reduce
I0403 16:57:27.932633 21619 net.cpp:148] Top shape: 24 32 14 14 (150528)
I0403 16:57:27.932648 21619 net.cpp:156] Memory required for data: 1236731424
I0403 16:57:27.932667 21619 layer_factory.hpp:77] Creating layer inception_4e/relu_5x5_reduce
I0403 16:57:27.932687 21619 net.cpp:91] Creating Layer inception_4e/relu_5x5_reduce
I0403 16:57:27.932704 21619 net.cpp:425] inception_4e/relu_5x5_reduce <- inception_4e/5x5_reduce
I0403 16:57:27.932721 21619 net.cpp:386] inception_4e/relu_5x5_reduce -> inception_4e/5x5_reduce (in-place)
I0403 16:57:27.933023 21619 net.cpp:141] Setting up inception_4e/relu_5x5_reduce
I0403 16:57:27.933049 21619 net.cpp:148] Top shape: 24 32 14 14 (150528)
I0403 16:57:27.933064 21619 net.cpp:156] Memory required for data: 1237333536
I0403 16:57:27.933079 21619 layer_factory.hpp:77] Creating layer inception_4e/5x5
I0403 16:57:27.933117 21619 net.cpp:91] Creating Layer inception_4e/5x5
I0403 16:57:27.933136 21619 net.cpp:425] inception_4e/5x5 <- inception_4e/5x5_reduce
I0403 16:57:27.933156 21619 net.cpp:399] inception_4e/5x5 -> inception_4e/5x5
I0403 16:57:27.935004 21619 net.cpp:141] Setting up inception_4e/5x5
I0403 16:57:27.935036 21619 net.cpp:148] Top shape: 24 128 14 14 (602112)
I0403 16:57:27.935053 21619 net.cpp:156] Memory required for data: 1239741984
I0403 16:57:27.935072 21619 layer_factory.hpp:77] Creating layer inception_4e/relu_5x5
I0403 16:57:27.935089 21619 net.cpp:91] Creating Layer inception_4e/relu_5x5
I0403 16:57:27.935106 21619 net.cpp:425] inception_4e/relu_5x5 <- inception_4e/5x5
I0403 16:57:27.935125 21619 net.cpp:386] inception_4e/relu_5x5 -> inception_4e/5x5 (in-place)
I0403 16:57:27.935322 21619 net.cpp:141] Setting up inception_4e/relu_5x5
I0403 16:57:27.935346 21619 net.cpp:148] Top shape: 24 128 14 14 (602112)
I0403 16:57:27.935361 21619 net.cpp:156] Memory required for data: 1242150432
I0403 16:57:27.935375 21619 layer_factory.hpp:77] Creating layer inception_4e/pool
I0403 16:57:27.935395 21619 net.cpp:91] Creating Layer inception_4e/pool
I0403 16:57:27.935411 21619 net.cpp:425] inception_4e/pool <- inception_4d/output_inception_4d/output_0_split_4
I0403 16:57:27.935430 21619 net.cpp:399] inception_4e/pool -> inception_4e/pool
I0403 16:57:27.935502 21619 net.cpp:141] Setting up inception_4e/pool
I0403 16:57:27.935525 21619 net.cpp:148] Top shape: 24 528 14 14 (2483712)
I0403 16:57:27.935539 21619 net.cpp:156] Memory required for data: 1252085280
I0403 16:57:27.935552 21619 layer_factory.hpp:77] Creating layer inception_4e/pool_proj
I0403 16:57:27.935573 21619 net.cpp:91] Creating Layer inception_4e/pool_proj
I0403 16:57:27.935590 21619 net.cpp:425] inception_4e/pool_proj <- inception_4e/pool
I0403 16:57:27.935611 21619 net.cpp:399] inception_4e/pool_proj -> inception_4e/pool_proj
I0403 16:57:27.937111 21619 net.cpp:141] Setting up inception_4e/pool_proj
I0403 16:57:27.937152 21619 net.cpp:148] Top shape: 24 128 14 14 (602112)
I0403 16:57:27.937170 21619 net.cpp:156] Memory required for data: 1254493728
I0403 16:57:27.937186 21619 layer_factory.hpp:77] Creating layer inception_4e/relu_pool_proj
I0403 16:57:27.937204 21619 net.cpp:91] Creating Layer inception_4e/relu_pool_proj
I0403 16:57:27.937222 21619 net.cpp:425] inception_4e/relu_pool_proj <- inception_4e/pool_proj
I0403 16:57:27.937239 21619 net.cpp:386] inception_4e/relu_pool_proj -> inception_4e/pool_proj (in-place)
I0403 16:57:27.937530 21619 net.cpp:141] Setting up inception_4e/relu_pool_proj
I0403 16:57:27.937558 21619 net.cpp:148] Top shape: 24 128 14 14 (602112)
I0403 16:57:27.937573 21619 net.cpp:156] Memory required for data: 1256902176
I0403 16:57:27.937588 21619 layer_factory.hpp:77] Creating layer inception_4e/output
I0403 16:57:27.937605 21619 net.cpp:91] Creating Layer inception_4e/output
I0403 16:57:27.937621 21619 net.cpp:425] inception_4e/output <- inception_4e/1x1
I0403 16:57:27.937638 21619 net.cpp:425] inception_4e/output <- inception_4e/3x3
I0403 16:57:27.937654 21619 net.cpp:425] inception_4e/output <- inception_4e/5x5
I0403 16:57:27.937669 21619 net.cpp:425] inception_4e/output <- inception_4e/pool_proj
I0403 16:57:27.937686 21619 net.cpp:399] inception_4e/output -> inception_4e/output
I0403 16:57:27.937736 21619 net.cpp:141] Setting up inception_4e/output
I0403 16:57:27.937759 21619 net.cpp:148] Top shape: 24 832 14 14 (3913728)
I0403 16:57:27.937774 21619 net.cpp:156] Memory required for data: 1272557088
I0403 16:57:27.937788 21619 layer_factory.hpp:77] Creating layer pool4/3x3_s2
I0403 16:57:27.937808 21619 net.cpp:91] Creating Layer pool4/3x3_s2
I0403 16:57:27.937824 21619 net.cpp:425] pool4/3x3_s2 <- inception_4e/output
I0403 16:57:27.937842 21619 net.cpp:399] pool4/3x3_s2 -> pool4/3x3_s2
I0403 16:57:27.937911 21619 net.cpp:141] Setting up pool4/3x3_s2
I0403 16:57:27.937933 21619 net.cpp:148] Top shape: 24 832 7 7 (978432)
I0403 16:57:27.937947 21619 net.cpp:156] Memory required for data: 1276470816
I0403 16:57:27.937961 21619 layer_factory.hpp:77] Creating layer pool4/3x3_s2_pool4/3x3_s2_0_split
I0403 16:57:27.937978 21619 net.cpp:91] Creating Layer pool4/3x3_s2_pool4/3x3_s2_0_split
I0403 16:57:27.937996 21619 net.cpp:425] pool4/3x3_s2_pool4/3x3_s2_0_split <- pool4/3x3_s2
I0403 16:57:27.938014 21619 net.cpp:399] pool4/3x3_s2_pool4/3x3_s2_0_split -> pool4/3x3_s2_pool4/3x3_s2_0_split_0
I0403 16:57:27.938040 21619 net.cpp:399] pool4/3x3_s2_pool4/3x3_s2_0_split -> pool4/3x3_s2_pool4/3x3_s2_0_split_1
I0403 16:57:27.938060 21619 net.cpp:399] pool4/3x3_s2_pool4/3x3_s2_0_split -> pool4/3x3_s2_pool4/3x3_s2_0_split_2
I0403 16:57:27.938078 21619 net.cpp:399] pool4/3x3_s2_pool4/3x3_s2_0_split -> pool4/3x3_s2_pool4/3x3_s2_0_split_3
I0403 16:57:27.938170 21619 net.cpp:141] Setting up pool4/3x3_s2_pool4/3x3_s2_0_split
I0403 16:57:27.938194 21619 net.cpp:148] Top shape: 24 832 7 7 (978432)
I0403 16:57:27.938211 21619 net.cpp:148] Top shape: 24 832 7 7 (978432)
I0403 16:57:27.938226 21619 net.cpp:148] Top shape: 24 832 7 7 (978432)
I0403 16:57:27.938242 21619 net.cpp:148] Top shape: 24 832 7 7 (978432)
I0403 16:57:27.938256 21619 net.cpp:156] Memory required for data: 1292125728
I0403 16:57:27.938271 21619 layer_factory.hpp:77] Creating layer inception_5a/1x1
I0403 16:57:27.938293 21619 net.cpp:91] Creating Layer inception_5a/1x1
I0403 16:57:27.938311 21619 net.cpp:425] inception_5a/1x1 <- pool4/3x3_s2_pool4/3x3_s2_0_split_0
I0403 16:57:27.938333 21619 net.cpp:399] inception_5a/1x1 -> inception_5a/1x1
I0403 16:57:27.941220 21619 net.cpp:141] Setting up inception_5a/1x1
I0403 16:57:27.941249 21619 net.cpp:148] Top shape: 24 256 7 7 (301056)
I0403 16:57:27.941265 21619 net.cpp:156] Memory required for data: 1293329952
I0403 16:57:27.941283 21619 layer_factory.hpp:77] Creating layer inception_5a/relu_1x1
I0403 16:57:27.941301 21619 net.cpp:91] Creating Layer inception_5a/relu_1x1
I0403 16:57:27.941316 21619 net.cpp:425] inception_5a/relu_1x1 <- inception_5a/1x1
I0403 16:57:27.941336 21619 net.cpp:386] inception_5a/relu_1x1 -> inception_5a/1x1 (in-place)
I0403 16:57:27.941650 21619 net.cpp:141] Setting up inception_5a/relu_1x1
I0403 16:57:27.941676 21619 net.cpp:148] Top shape: 24 256 7 7 (301056)
I0403 16:57:27.941691 21619 net.cpp:156] Memory required for data: 1294534176
I0403 16:57:27.941706 21619 layer_factory.hpp:77] Creating layer inception_5a/3x3_reduce
I0403 16:57:27.941727 21619 net.cpp:91] Creating Layer inception_5a/3x3_reduce
I0403 16:57:27.941745 21619 net.cpp:425] inception_5a/3x3_reduce <- pool4/3x3_s2_pool4/3x3_s2_0_split_1
I0403 16:57:27.941767 21619 net.cpp:399] inception_5a/3x3_reduce -> inception_5a/3x3_reduce
I0403 16:57:27.944224 21619 net.cpp:141] Setting up inception_5a/3x3_reduce
I0403 16:57:27.944257 21619 net.cpp:148] Top shape: 24 160 7 7 (188160)
I0403 16:57:27.944272 21619 net.cpp:156] Memory required for data: 1295286816
I0403 16:57:27.944291 21619 layer_factory.hpp:77] Creating layer inception_5a/relu_3x3_reduce
I0403 16:57:27.944309 21619 net.cpp:91] Creating Layer inception_5a/relu_3x3_reduce
I0403 16:57:27.944325 21619 net.cpp:425] inception_5a/relu_3x3_reduce <- inception_5a/3x3_reduce
I0403 16:57:27.944344 21619 net.cpp:386] inception_5a/relu_3x3_reduce -> inception_5a/3x3_reduce (in-place)
I0403 16:57:27.944532 21619 net.cpp:141] Setting up inception_5a/relu_3x3_reduce
I0403 16:57:27.944557 21619 net.cpp:148] Top shape: 24 160 7 7 (188160)
I0403 16:57:27.944571 21619 net.cpp:156] Memory required for data: 1296039456
I0403 16:57:27.944586 21619 layer_factory.hpp:77] Creating layer inception_5a/3x3
I0403 16:57:27.944607 21619 net.cpp:91] Creating Layer inception_5a/3x3
I0403 16:57:27.944625 21619 net.cpp:425] inception_5a/3x3 <- inception_5a/3x3_reduce
I0403 16:57:27.944648 21619 net.cpp:399] inception_5a/3x3 -> inception_5a/3x3
I0403 16:57:27.949713 21619 net.cpp:141] Setting up inception_5a/3x3
I0403 16:57:27.949743 21619 net.cpp:148] Top shape: 24 320 7 7 (376320)
I0403 16:57:27.949759 21619 net.cpp:156] Memory required for data: 1297544736
I0403 16:57:27.949776 21619 layer_factory.hpp:77] Creating layer inception_5a/relu_3x3
I0403 16:57:27.949796 21619 net.cpp:91] Creating Layer inception_5a/relu_3x3
I0403 16:57:27.949812 21619 net.cpp:425] inception_5a/relu_3x3 <- inception_5a/3x3
I0403 16:57:27.949831 21619 net.cpp:386] inception_5a/relu_3x3 -> inception_5a/3x3 (in-place)
I0403 16:57:27.950129 21619 net.cpp:141] Setting up inception_5a/relu_3x3
I0403 16:57:27.950155 21619 net.cpp:148] Top shape: 24 320 7 7 (376320)
I0403 16:57:27.950170 21619 net.cpp:156] Memory required for data: 1299050016
I0403 16:57:27.950186 21619 layer_factory.hpp:77] Creating layer inception_5a/5x5_reduce
I0403 16:57:27.950208 21619 net.cpp:91] Creating Layer inception_5a/5x5_reduce
I0403 16:57:27.950225 21619 net.cpp:425] inception_5a/5x5_reduce <- pool4/3x3_s2_pool4/3x3_s2_0_split_2
I0403 16:57:27.950248 21619 net.cpp:399] inception_5a/5x5_reduce -> inception_5a/5x5_reduce
I0403 16:57:27.951416 21619 net.cpp:141] Setting up inception_5a/5x5_reduce
I0403 16:57:27.951443 21619 net.cpp:148] Top shape: 24 32 7 7 (37632)
I0403 16:57:27.951458 21619 net.cpp:156] Memory required for data: 1299200544
I0403 16:57:27.951477 21619 layer_factory.hpp:77] Creating layer inception_5a/relu_5x5_reduce
I0403 16:57:27.951496 21619 net.cpp:91] Creating Layer inception_5a/relu_5x5_reduce
I0403 16:57:27.951513 21619 net.cpp:425] inception_5a/relu_5x5_reduce <- inception_5a/5x5_reduce
I0403 16:57:27.951529 21619 net.cpp:386] inception_5a/relu_5x5_reduce -> inception_5a/5x5_reduce (in-place)
I0403 16:57:27.951829 21619 net.cpp:141] Setting up inception_5a/relu_5x5_reduce
I0403 16:57:27.951856 21619 net.cpp:148] Top shape: 24 32 7 7 (37632)
I0403 16:57:27.951870 21619 net.cpp:156] Memory required for data: 1299351072
I0403 16:57:27.951884 21619 layer_factory.hpp:77] Creating layer inception_5a/5x5
I0403 16:57:27.951907 21619 net.cpp:91] Creating Layer inception_5a/5x5
I0403 16:57:27.951925 21619 net.cpp:425] inception_5a/5x5 <- inception_5a/5x5_reduce
I0403 16:57:27.951946 21619 net.cpp:399] inception_5a/5x5 -> inception_5a/5x5
I0403 16:57:27.953676 21619 net.cpp:141] Setting up inception_5a/5x5
I0403 16:57:27.953716 21619 net.cpp:148] Top shape: 24 128 7 7 (150528)
I0403 16:57:27.953734 21619 net.cpp:156] Memory required for data: 1299953184
I0403 16:57:27.953752 21619 layer_factory.hpp:77] Creating layer inception_5a/relu_5x5
I0403 16:57:27.953771 21619 net.cpp:91] Creating Layer inception_5a/relu_5x5
I0403 16:57:27.953788 21619 net.cpp:425] inception_5a/relu_5x5 <- inception_5a/5x5
I0403 16:57:27.953805 21619 net.cpp:386] inception_5a/relu_5x5 -> inception_5a/5x5 (in-place)
I0403 16:57:27.953997 21619 net.cpp:141] Setting up inception_5a/relu_5x5
I0403 16:57:27.954037 21619 net.cpp:148] Top shape: 24 128 7 7 (150528)
I0403 16:57:27.954053 21619 net.cpp:156] Memory required for data: 1300555296
I0403 16:57:27.954067 21619 layer_factory.hpp:77] Creating layer inception_5a/pool
I0403 16:57:27.954087 21619 net.cpp:91] Creating Layer inception_5a/pool
I0403 16:57:27.954103 21619 net.cpp:425] inception_5a/pool <- pool4/3x3_s2_pool4/3x3_s2_0_split_3
I0403 16:57:27.954120 21619 net.cpp:399] inception_5a/pool -> inception_5a/pool
I0403 16:57:27.954190 21619 net.cpp:141] Setting up inception_5a/pool
I0403 16:57:27.954215 21619 net.cpp:148] Top shape: 24 832 7 7 (978432)
I0403 16:57:27.954227 21619 net.cpp:156] Memory required for data: 1304469024
I0403 16:57:27.954241 21619 layer_factory.hpp:77] Creating layer inception_5a/pool_proj
I0403 16:57:27.954262 21619 net.cpp:91] Creating Layer inception_5a/pool_proj
I0403 16:57:27.954279 21619 net.cpp:425] inception_5a/pool_proj <- inception_5a/pool
I0403 16:57:27.954299 21619 net.cpp:399] inception_5a/pool_proj -> inception_5a/pool_proj
I0403 16:57:27.956516 21619 net.cpp:141] Setting up inception_5a/pool_proj
I0403 16:57:27.956543 21619 net.cpp:148] Top shape: 24 128 7 7 (150528)
I0403 16:57:27.956558 21619 net.cpp:156] Memory required for data: 1305071136
I0403 16:57:27.956575 21619 layer_factory.hpp:77] Creating layer inception_5a/relu_pool_proj
I0403 16:57:27.956593 21619 net.cpp:91] Creating Layer inception_5a/relu_pool_proj
I0403 16:57:27.956607 21619 net.cpp:425] inception_5a/relu_pool_proj <- inception_5a/pool_proj
I0403 16:57:27.956627 21619 net.cpp:386] inception_5a/relu_pool_proj -> inception_5a/pool_proj (in-place)
I0403 16:57:27.956918 21619 net.cpp:141] Setting up inception_5a/relu_pool_proj
I0403 16:57:27.956943 21619 net.cpp:148] Top shape: 24 128 7 7 (150528)
I0403 16:57:27.956956 21619 net.cpp:156] Memory required for data: 1305673248
I0403 16:57:27.956970 21619 layer_factory.hpp:77] Creating layer inception_5a/output
I0403 16:57:27.956987 21619 net.cpp:91] Creating Layer inception_5a/output
I0403 16:57:27.957002 21619 net.cpp:425] inception_5a/output <- inception_5a/1x1
I0403 16:57:27.957021 21619 net.cpp:425] inception_5a/output <- inception_5a/3x3
I0403 16:57:27.957038 21619 net.cpp:425] inception_5a/output <- inception_5a/5x5
I0403 16:57:27.957054 21619 net.cpp:425] inception_5a/output <- inception_5a/pool_proj
I0403 16:57:27.957072 21619 net.cpp:399] inception_5a/output -> inception_5a/output
I0403 16:57:27.957120 21619 net.cpp:141] Setting up inception_5a/output
I0403 16:57:27.957146 21619 net.cpp:148] Top shape: 24 832 7 7 (978432)
I0403 16:57:27.957160 21619 net.cpp:156] Memory required for data: 1309586976
I0403 16:57:27.957175 21619 layer_factory.hpp:77] Creating layer inception_5a/output_inception_5a/output_0_split
I0403 16:57:27.957191 21619 net.cpp:91] Creating Layer inception_5a/output_inception_5a/output_0_split
I0403 16:57:27.957206 21619 net.cpp:425] inception_5a/output_inception_5a/output_0_split <- inception_5a/output
I0403 16:57:27.957223 21619 net.cpp:399] inception_5a/output_inception_5a/output_0_split -> inception_5a/output_inception_5a/output_0_split_0
I0403 16:57:27.957242 21619 net.cpp:399] inception_5a/output_inception_5a/output_0_split -> inception_5a/output_inception_5a/output_0_split_1
I0403 16:57:27.957264 21619 net.cpp:399] inception_5a/output_inception_5a/output_0_split -> inception_5a/output_inception_5a/output_0_split_2
I0403 16:57:27.957284 21619 net.cpp:399] inception_5a/output_inception_5a/output_0_split -> inception_5a/output_inception_5a/output_0_split_3
I0403 16:57:27.957393 21619 net.cpp:141] Setting up inception_5a/output_inception_5a/output_0_split
I0403 16:57:27.957417 21619 net.cpp:148] Top shape: 24 832 7 7 (978432)
I0403 16:57:27.957432 21619 net.cpp:148] Top shape: 24 832 7 7 (978432)
I0403 16:57:27.957447 21619 net.cpp:148] Top shape: 24 832 7 7 (978432)
I0403 16:57:27.957461 21619 net.cpp:148] Top shape: 24 832 7 7 (978432)
I0403 16:57:27.957474 21619 net.cpp:156] Memory required for data: 1325241888
I0403 16:57:27.957489 21619 layer_factory.hpp:77] Creating layer inception_5b/1x1
I0403 16:57:27.957509 21619 net.cpp:91] Creating Layer inception_5b/1x1
I0403 16:57:27.957525 21619 net.cpp:425] inception_5b/1x1 <- inception_5a/output_inception_5a/output_0_split_0
I0403 16:57:27.957545 21619 net.cpp:399] inception_5b/1x1 -> inception_5b/1x1
I0403 16:57:27.961230 21619 net.cpp:141] Setting up inception_5b/1x1
I0403 16:57:27.961261 21619 net.cpp:148] Top shape: 24 384 7 7 (451584)
I0403 16:57:27.961277 21619 net.cpp:156] Memory required for data: 1327048224
I0403 16:57:27.961293 21619 layer_factory.hpp:77] Creating layer inception_5b/relu_1x1
I0403 16:57:27.961310 21619 net.cpp:91] Creating Layer inception_5b/relu_1x1
I0403 16:57:27.961325 21619 net.cpp:425] inception_5b/relu_1x1 <- inception_5b/1x1
I0403 16:57:27.961344 21619 net.cpp:386] inception_5b/relu_1x1 -> inception_5b/1x1 (in-place)
I0403 16:57:27.961640 21619 net.cpp:141] Setting up inception_5b/relu_1x1
I0403 16:57:27.961668 21619 net.cpp:148] Top shape: 24 384 7 7 (451584)
I0403 16:57:27.961683 21619 net.cpp:156] Memory required for data: 1328854560
I0403 16:57:27.961697 21619 layer_factory.hpp:77] Creating layer inception_5b/3x3_reduce
I0403 16:57:27.961719 21619 net.cpp:91] Creating Layer inception_5b/3x3_reduce
I0403 16:57:27.961736 21619 net.cpp:425] inception_5b/3x3_reduce <- inception_5a/output_inception_5a/output_0_split_1
I0403 16:57:27.961755 21619 net.cpp:399] inception_5b/3x3_reduce -> inception_5b/3x3_reduce
I0403 16:57:27.964402 21619 net.cpp:141] Setting up inception_5b/3x3_reduce
I0403 16:57:27.964433 21619 net.cpp:148] Top shape: 24 192 7 7 (225792)
I0403 16:57:27.964448 21619 net.cpp:156] Memory required for data: 1329757728
I0403 16:57:27.964467 21619 layer_factory.hpp:77] Creating layer inception_5b/relu_3x3_reduce
I0403 16:57:27.964484 21619 net.cpp:91] Creating Layer inception_5b/relu_3x3_reduce
I0403 16:57:27.964499 21619 net.cpp:425] inception_5b/relu_3x3_reduce <- inception_5b/3x3_reduce
I0403 16:57:27.964520 21619 net.cpp:386] inception_5b/relu_3x3_reduce -> inception_5b/3x3_reduce (in-place)
I0403 16:57:27.964714 21619 net.cpp:141] Setting up inception_5b/relu_3x3_reduce
I0403 16:57:27.964738 21619 net.cpp:148] Top shape: 24 192 7 7 (225792)
I0403 16:57:27.964753 21619 net.cpp:156] Memory required for data: 1330660896
I0403 16:57:27.964767 21619 layer_factory.hpp:77] Creating layer inception_5b/3x3
I0403 16:57:27.964790 21619 net.cpp:91] Creating Layer inception_5b/3x3
I0403 16:57:27.964807 21619 net.cpp:425] inception_5b/3x3 <- inception_5b/3x3_reduce
I0403 16:57:27.964829 21619 net.cpp:399] inception_5b/3x3 -> inception_5b/3x3
I0403 16:57:27.971572 21619 net.cpp:141] Setting up inception_5b/3x3
I0403 16:57:27.971601 21619 net.cpp:148] Top shape: 24 384 7 7 (451584)
I0403 16:57:27.971616 21619 net.cpp:156] Memory required for data: 1332467232
I0403 16:57:27.971634 21619 layer_factory.hpp:77] Creating layer inception_5b/relu_3x3
I0403 16:57:27.971652 21619 net.cpp:91] Creating Layer inception_5b/relu_3x3
I0403 16:57:27.971668 21619 net.cpp:425] inception_5b/relu_3x3 <- inception_5b/3x3
I0403 16:57:27.971688 21619 net.cpp:386] inception_5b/relu_3x3 -> inception_5b/3x3 (in-place)
I0403 16:57:27.971987 21619 net.cpp:141] Setting up inception_5b/relu_3x3
I0403 16:57:27.972013 21619 net.cpp:148] Top shape: 24 384 7 7 (451584)
I0403 16:57:27.972033 21619 net.cpp:156] Memory required for data: 1334273568
I0403 16:57:27.972048 21619 layer_factory.hpp:77] Creating layer inception_5b/5x5_reduce
I0403 16:57:27.972085 21619 net.cpp:91] Creating Layer inception_5b/5x5_reduce
I0403 16:57:27.972105 21619 net.cpp:425] inception_5b/5x5_reduce <- inception_5a/output_inception_5a/output_0_split_2
I0403 16:57:27.972126 21619 net.cpp:399] inception_5b/5x5_reduce -> inception_5b/5x5_reduce
I0403 16:57:27.973407 21619 net.cpp:141] Setting up inception_5b/5x5_reduce
I0403 16:57:27.973436 21619 net.cpp:148] Top shape: 24 48 7 7 (56448)
I0403 16:57:27.973453 21619 net.cpp:156] Memory required for data: 1334499360
I0403 16:57:27.973470 21619 layer_factory.hpp:77] Creating layer inception_5b/relu_5x5_reduce
I0403 16:57:27.973487 21619 net.cpp:91] Creating Layer inception_5b/relu_5x5_reduce
I0403 16:57:27.973503 21619 net.cpp:425] inception_5b/relu_5x5_reduce <- inception_5b/5x5_reduce
I0403 16:57:27.973522 21619 net.cpp:386] inception_5b/relu_5x5_reduce -> inception_5b/5x5_reduce (in-place)
I0403 16:57:27.973898 21619 net.cpp:141] Setting up inception_5b/relu_5x5_reduce
I0403 16:57:27.973925 21619 net.cpp:148] Top shape: 24 48 7 7 (56448)
I0403 16:57:27.973940 21619 net.cpp:156] Memory required for data: 1334725152
I0403 16:57:27.973954 21619 layer_factory.hpp:77] Creating layer inception_5b/5x5
I0403 16:57:27.973974 21619 net.cpp:91] Creating Layer inception_5b/5x5
I0403 16:57:27.973991 21619 net.cpp:425] inception_5b/5x5 <- inception_5b/5x5_reduce
I0403 16:57:27.974009 21619 net.cpp:399] inception_5b/5x5 -> inception_5b/5x5
I0403 16:57:27.976080 21619 net.cpp:141] Setting up inception_5b/5x5
I0403 16:57:27.976109 21619 net.cpp:148] Top shape: 24 128 7 7 (150528)
I0403 16:57:27.976124 21619 net.cpp:156] Memory required for data: 1335327264
I0403 16:57:27.976141 21619 layer_factory.hpp:77] Creating layer inception_5b/relu_5x5
I0403 16:57:27.976160 21619 net.cpp:91] Creating Layer inception_5b/relu_5x5
I0403 16:57:27.976176 21619 net.cpp:425] inception_5b/relu_5x5 <- inception_5b/5x5
I0403 16:57:27.976194 21619 net.cpp:386] inception_5b/relu_5x5 -> inception_5b/5x5 (in-place)
I0403 16:57:27.976392 21619 net.cpp:141] Setting up inception_5b/relu_5x5
I0403 16:57:27.976416 21619 net.cpp:148] Top shape: 24 128 7 7 (150528)
I0403 16:57:27.976431 21619 net.cpp:156] Memory required for data: 1335929376
I0403 16:57:27.976445 21619 layer_factory.hpp:77] Creating layer inception_5b/pool
I0403 16:57:27.976465 21619 net.cpp:91] Creating Layer inception_5b/pool
I0403 16:57:27.976482 21619 net.cpp:425] inception_5b/pool <- inception_5a/output_inception_5a/output_0_split_3
I0403 16:57:27.976500 21619 net.cpp:399] inception_5b/pool -> inception_5b/pool
I0403 16:57:27.976573 21619 net.cpp:141] Setting up inception_5b/pool
I0403 16:57:27.976598 21619 net.cpp:148] Top shape: 24 832 7 7 (978432)
I0403 16:57:27.976611 21619 net.cpp:156] Memory required for data: 1339843104
I0403 16:57:27.976625 21619 layer_factory.hpp:77] Creating layer inception_5b/pool_proj
I0403 16:57:27.976646 21619 net.cpp:91] Creating Layer inception_5b/pool_proj
I0403 16:57:27.976665 21619 net.cpp:425] inception_5b/pool_proj <- inception_5b/pool
I0403 16:57:27.976685 21619 net.cpp:399] inception_5b/pool_proj -> inception_5b/pool_proj
I0403 16:57:27.978988 21619 net.cpp:141] Setting up inception_5b/pool_proj
I0403 16:57:27.979027 21619 net.cpp:148] Top shape: 24 128 7 7 (150528)
I0403 16:57:27.979045 21619 net.cpp:156] Memory required for data: 1340445216
I0403 16:57:27.979063 21619 layer_factory.hpp:77] Creating layer inception_5b/relu_pool_proj
I0403 16:57:27.979081 21619 net.cpp:91] Creating Layer inception_5b/relu_pool_proj
I0403 16:57:27.979097 21619 net.cpp:425] inception_5b/relu_pool_proj <- inception_5b/pool_proj
I0403 16:57:27.979117 21619 net.cpp:386] inception_5b/relu_pool_proj -> inception_5b/pool_proj (in-place)
I0403 16:57:27.979416 21619 net.cpp:141] Setting up inception_5b/relu_pool_proj
I0403 16:57:27.979444 21619 net.cpp:148] Top shape: 24 128 7 7 (150528)
I0403 16:57:27.979457 21619 net.cpp:156] Memory required for data: 1341047328
I0403 16:57:27.979471 21619 layer_factory.hpp:77] Creating layer inception_5b/output
I0403 16:57:27.979488 21619 net.cpp:91] Creating Layer inception_5b/output
I0403 16:57:27.979518 21619 net.cpp:425] inception_5b/output <- inception_5b/1x1
I0403 16:57:27.979535 21619 net.cpp:425] inception_5b/output <- inception_5b/3x3
I0403 16:57:27.979552 21619 net.cpp:425] inception_5b/output <- inception_5b/5x5
I0403 16:57:27.979568 21619 net.cpp:425] inception_5b/output <- inception_5b/pool_proj
I0403 16:57:27.979586 21619 net.cpp:399] inception_5b/output -> inception_5b/output
I0403 16:57:27.979638 21619 net.cpp:141] Setting up inception_5b/output
I0403 16:57:27.979662 21619 net.cpp:148] Top shape: 24 1024 7 7 (1204224)
I0403 16:57:27.979676 21619 net.cpp:156] Memory required for data: 1345864224
I0403 16:57:27.979691 21619 layer_factory.hpp:77] Creating layer pool5/7x7_s1
I0403 16:57:27.979710 21619 net.cpp:91] Creating Layer pool5/7x7_s1
I0403 16:57:27.979727 21619 net.cpp:425] pool5/7x7_s1 <- inception_5b/output
I0403 16:57:27.979748 21619 net.cpp:399] pool5/7x7_s1 -> pool5/7x7_s1
I0403 16:57:27.979964 21619 net.cpp:141] Setting up pool5/7x7_s1
I0403 16:57:27.979990 21619 net.cpp:148] Top shape: 24 1024 1 1 (24576)
I0403 16:57:27.980003 21619 net.cpp:156] Memory required for data: 1345962528
I0403 16:57:27.980021 21619 layer_factory.hpp:77] Creating layer pool5/drop_7x7_s1
I0403 16:57:27.980041 21619 net.cpp:91] Creating Layer pool5/drop_7x7_s1
I0403 16:57:27.980057 21619 net.cpp:425] pool5/drop_7x7_s1 <- pool5/7x7_s1
I0403 16:57:27.980075 21619 net.cpp:386] pool5/drop_7x7_s1 -> pool5/7x7_s1 (in-place)
I0403 16:57:27.980126 21619 net.cpp:141] Setting up pool5/drop_7x7_s1
I0403 16:57:27.980151 21619 net.cpp:148] Top shape: 24 1024 1 1 (24576)
I0403 16:57:27.980166 21619 net.cpp:156] Memory required for data: 1346060832
I0403 16:57:27.980180 21619 layer_factory.hpp:77] Creating layer loss3/classifier_plantvillage
I0403 16:57:27.980200 21619 net.cpp:91] Creating Layer loss3/classifier_plantvillage
I0403 16:57:27.980216 21619 net.cpp:425] loss3/classifier_plantvillage <- pool5/7x7_s1
I0403 16:57:27.980237 21619 net.cpp:399] loss3/classifier_plantvillage -> loss3/classifier_plantvillage
I0403 16:57:27.980664 21619 net.cpp:141] Setting up loss3/classifier_plantvillage
I0403 16:57:27.980691 21619 net.cpp:148] Top shape: 24 38 (912)
I0403 16:57:27.980706 21619 net.cpp:156] Memory required for data: 1346064480
I0403 16:57:27.980725 21619 layer_factory.hpp:77] Creating layer loss3/classifier_plantvillage_loss3/classifier_plantvillage_0_split
I0403 16:57:27.980742 21619 net.cpp:91] Creating Layer loss3/classifier_plantvillage_loss3/classifier_plantvillage_0_split
I0403 16:57:27.980757 21619 net.cpp:425] loss3/classifier_plantvillage_loss3/classifier_plantvillage_0_split <- loss3/classifier_plantvillage
I0403 16:57:27.980774 21619 net.cpp:399] loss3/classifier_plantvillage_loss3/classifier_plantvillage_0_split -> loss3/classifier_plantvillage_loss3/classifier_plantvillage_0_split_0
I0403 16:57:27.980794 21619 net.cpp:399] loss3/classifier_plantvillage_loss3/classifier_plantvillage_0_split -> loss3/classifier_plantvillage_loss3/classifier_plantvillage_0_split_1
I0403 16:57:27.980815 21619 net.cpp:399] loss3/classifier_plantvillage_loss3/classifier_plantvillage_0_split -> loss3/classifier_plantvillage_loss3/classifier_plantvillage_0_split_2
I0403 16:57:27.980835 21619 net.cpp:399] loss3/classifier_plantvillage_loss3/classifier_plantvillage_0_split -> loss3/classifier_plantvillage_loss3/classifier_plantvillage_0_split_3
I0403 16:57:27.980934 21619 net.cpp:141] Setting up loss3/classifier_plantvillage_loss3/classifier_plantvillage_0_split
I0403 16:57:27.980958 21619 net.cpp:148] Top shape: 24 38 (912)
I0403 16:57:27.980974 21619 net.cpp:148] Top shape: 24 38 (912)
I0403 16:57:27.980989 21619 net.cpp:148] Top shape: 24 38 (912)
I0403 16:57:27.981003 21619 net.cpp:148] Top shape: 24 38 (912)
I0403 16:57:27.981019 21619 net.cpp:156] Memory required for data: 1346079072
I0403 16:57:27.981035 21619 layer_factory.hpp:77] Creating layer loss1/loss
I0403 16:57:27.981058 21619 net.cpp:91] Creating Layer loss1/loss
I0403 16:57:27.981076 21619 net.cpp:425] loss1/loss <- loss1/classifier_plantvillage_loss1/classifier_plantvillage_0_split_0
I0403 16:57:27.981106 21619 net.cpp:425] loss1/loss <- label_data_1_split_0
…
