…
I0403 16:40:54.841606 21344 net.cpp:313] The NetState phase (1) differed from the phase (0) specified by a rule in layer data
I0403 16:40:54.842762 21344 net.cpp:49] Initializing net from parameters: 
state {
  phase: TEST
}
layer {
  name: "data"
  type: "Data"
  top: "data"
  top: "label"
  include {
    phase: TEST
  }
  transform_param {
    mirror: false
    crop_size: 224
    mean_file: "/home/mohanty/data/final_dataset/lmdb/grayscale-20-80/mean.binaryproto"
  }
  data_param {
    source: "/home/mohanty/data/final_dataset/lmdb/grayscale-20-80/test_db"
    batch_size: 24
    backend: LMDB
  }
}
layer {
  name: "conv1/7x7_s2"
  type: "Convolution"
  bottom: "data"
  top: "conv1/7x7_s2"
  param {
    lr_mult: 1
    decay_mult: 1
  }
  param {
    lr_mult: 2
    decay_mult: 0
  }
  convolution_param {
    num_output: 64
    pad: 3
    kernel_size: 7
    stride: 2
    weight_filler {
      type: "xavier"
      std: 0.1
    }
    bias_filler {
      type: "constant"
      value: 0.2
    }
  }
}
layer {
  name: "conv1/relu_7x7"
  type: "ReLU"
  bottom: "conv1/7x7_s2"
  top: "conv1/7x7_s2"
}
layer {
  name: "pool1/3x3_s2"
  type: "Pooling"
  bottom: "conv1/7x7_s2"
  top: "pool1/3x3_s2"
  pooling_param {
    pool: MAX
    kernel_size: 3
    stride: 2
  }
}
layer {
  name: "pool1/norm1"
  type: "LRN"
  bottom: "pool1/3x3_s2"
  top: "pool1/norm1"
  lrn_param {
    local_size: 5
    alpha: 0.0001
    beta: 0.75
  }
}
layer {
  name: "conv2/3x3_reduce"
  type: "Convolution"
  bottom: "pool1/norm1"
  top: "conv2/3x3_reduce"
  param {
    lr_mult: 1
    decay_mult: 1
  }
  param {
    lr_mult: 2
    decay_mult: 0
  }
  convolution_param {
    num_output: 64
    kernel_size: 1
    weight_filler {
      type: "xavier"
      std: 0.1
    }
    bias_filler {
      type: "constant"
      value: 0.2
    }
  }
}
layer {
  name: "conv2/relu_3x3_reduce"
  type: "ReLU"
  bottom: "conv2/3x3_reduce"
  top: "conv2/3x3_reduce"
}
layer {
  name: "conv2/3x3"
  type: "Convolution"
  bottom: "conv2/3x3_reduce"
  top: "conv2/3x3"
  param {
    lr_mult: 1
    decay_mult: 1
  }
  param {
    lr_mult: 2
    decay_mult: 0
  }
  convolution_param {
    num_output: 192
    pad: 1
    kernel_size: 3
    weight_filler {
      type: "xavier"
      std: 0.03
    }
    bias_filler {
      type: "constant"
      value: 0.2
    }
  }
}
layer {
  name: "conv2/relu_3x3"
  type: "ReLU"
  bottom: "conv2/3x3"
  top: "conv2/3x3"
}
layer {
  name: "conv2/norm2"
  type: "LRN"
  bottom: "conv2/3x3"
  top: "conv2/norm2"
  lrn_param {
    local_size: 5
    alpha: 0.0001
    beta: 0.75
  }
}
layer {
  name: "pool2/3x3_s2"
  type: "Pooling"
  bottom: "conv2/norm2"
  top: "pool2/3x3_s2"
  pooling_param {
    pool: MAX
    kernel_size: 3
    stride: 2
  }
}
layer {
  name: "inception_3a/1x1"
  type: "Convolution"
  bottom: "pool2/3x3_s2"
  top: "inception_3a/1x1"
  param {
    lr_mult: 1
    decay_mult: 1
  }
  param {
    lr_mult: 2
    decay_mult: 0
  }
  convolution_param {
    num_output: 64
    kernel_size: 1
    weight_filler {
      type: "xavier"
      std: 0.03
    }
    bias_filler {
      type: "constant"
      value: 0.2
    }
  }
}
layer {
  name: "inception_3a/relu_1x1"
  type: "ReLU"
  bottom: "inception_3a/1x1"
  top: "inception_3a/1x1"
}
layer {
  name: "inception_3a/3x3_reduce"
  type: "Convolution"
  bottom: "pool2/3x3_s2"
  top: "inception_3a/3x3_reduce"
  param {
    lr_mult: 1
    decay_mult: 1
  }
  param {
    lr_mult: 2
    decay_mult: 0
  }
  convolution_param {
    num_output: 96
    kernel_size: 1
    weight_filler {
      type: "xavier"
      std: 0.09
    }
    bias_filler {
      type: "constant"
      value: 0.2
    }
  }
}
layer {
  name: "inception_3a/relu_3x3_reduce"
  type: "ReLU"
  bottom: "inception_3a/3x3_reduce"
  top: "inception_3a/3x3_reduce"
}
layer {
  name: "inception_3a/3x3"
  type: "Convolution"
  bottom: "inception_3a/3x3_reduce"
  top: "inception_3a/3x3"
  param {
    lr_mult: 1
    decay_mult: 1
  }
  param {
    lr_mult: 2
    decay_mult: 0
  }
  convolution_param {
    num_output: 128
    pad: 1
    kernel_size: 3
    weight_filler {
      type: "xavier"
      std: 0.03
    }
    bias_filler {
      type: "constant"
      value: 0.2
    }
  }
}
layer {
  name: "inception_3a/relu_3x3"
  type: "ReLU"
  bottom: "inception_3a/3x3"
  top: "inception_3a/3x3"
}
layer {
  name: "inception_3a/5x5_reduce"
  type: "Convolution"
  bottom: "pool2/3x3_s2"
  top: "inception_3a/5x5_reduce"
  param {
    lr_mult: 1
    decay_mult: 1
  }
  param {
    lr_mult: 2
    decay_mult: 0
  }
  convolution_param {
    num_output: 16
    kernel_size: 1
    weight_filler {
      type: "xavier"
      std: 0.2
    }
    bias_filler {
      type: "constant"
      value: 0.2
    }
  }
}
layer {
  name: "inception_3a/relu_5x5_reduce"
  type: "ReLU"
  bottom: "inception_3a/5x5_reduce"
  top: "inception_3a/5x5_reduce"
}
layer {
  name: "inception_3a/5x5"
  type: "Convolution"
  bottom: "inception_3a/5x5_reduce"
  top: "inception_3a/5x5"
  param {
    lr_mult: 1
    decay_mult: 1
  }
  param {
    lr_mult: 2
    decay_mult: 0
  }
  convolution_param {
    num_output: 32
    pad: 2
    kernel_size: 5
    weight_filler {
      type: "xavier"
      std: 0.03
    }
    bias_filler {
      type: "constant"
      value: 0.2
    }
  }
}
layer {
  name: "inception_3a/relu_5x5"
  type: "ReLU"
  bottom: "inception_3a/5x5"
  top: "inception_3a/5x5"
}
layer {
  name: "inception_3a/pool"
  type: "Pooling"
  bottom: "pool2/3x3_s2"
  top: "inception_3a/pool"
  pooling_param {
    pool: MAX
    kernel_size: 3
    stride: 1
    pad: 1
  }
}
layer {
  name: "inception_3a/pool_proj"
  type: "Convolution"
  bottom: "inception_3a/pool"
  top: "inception_3a/pool_proj"
  param {
    lr_mult: 1
    decay_mult: 1
  }
  param {
    lr_mult: 2
    decay_mult: 0
  }
  convolution_param {
    num_output: 32
    kernel_size: 1
    weight_filler {
      type: "xavier"
      std: 0.1
    }
    bias_filler {
      type: "constant"
      value: 0.2
    }
  }
}
layer {
  name: "inception_3a/relu_pool_proj"
  type: "ReLU"
  bottom: "inception_3a/pool_proj"
  top: "inception_3a/pool_proj"
}
layer {
  name: "inception_3a/output"
  type: "Concat"
  bottom: "inception_3a/1x1"
  bottom: "inception_3a/3x3"
  bottom: "inception_3a/5x5"
  bottom: "inception_3a/pool_proj"
  top: "inception_3a/output"
}
layer {
  name: "inception_3b/1x1"
  type: "Convolution"
  bottom: "inception_3a/output"
  top: "inception_3b/1x1"
  param {
    lr_mult: 1
    decay_mult: 1
  }
  param {
    lr_mult: 2
    decay_mult: 0
  }
  convolution_param {
    num_output: 128
    kernel_size: 1
    weight_filler {
      type: "xavier"
      std: 0.03
    }
    bias_filler {
      type: "constant"
      value: 0.2
    }
  }
}
layer {
  name: "inception_3b/relu_1x1"
  type: "ReLU"
  bottom: "inception_3b/1x1"
  top: "inception_3b/1x1"
}
layer {
  name: "inception_3b/3x3_reduce"
  type: "Convolution"
  bottom: "inception_3a/output"
  top: "inception_3b/3x3_reduce"
  param {
    lr_mult: 1
    decay_mult: 1
  }
  param {
    lr_mult: 2
    decay_mult: 0
  }
  convolution_param {
    num_output: 128
    kernel_size: 1
    weight_filler {
      type: "xavier"
      std: 0.09
    }
    bias_filler {
      type: "constant"
      value: 0.2
    }
  }
}
layer {
  name: "inception_3b/relu_3x3_reduce"
  type: "ReLU"
  bottom: "inception_3b/3x3_reduce"
  top: "inception_3b/3x3_reduce"
}
layer {
  name: "inception_3b/3x3"
  type: "Convolution"
  bottom: "inception_3b/3x3_reduce"
  top: "inception_3b/3x3"
  param {
    lr_mult: 1
    decay_mult: 1
  }
  param {
    lr_mult: 2
    decay_mult: 0
  }
  convolution_param {
    num_output: 192
    pad: 1
    kernel_size: 3
    weight_filler {
      type: "xavier"
      std: 0.03
    }
    bias_filler {
      type: "constant"
      value: 0.2
    }
  }
}
layer {
  name: "inception_3b/relu_3x3"
  type: "ReLU"
  bottom: "inception_3b/3x3"
  top: "inception_3b/3x3"
}
layer {
  name: "inception_3b/5x5_reduce"
  type: "Convolution"
  bottom: "inception_3a/output"
  top: "inception_3b/5x5_reduce"
  param {
    lr_mult: 1
    decay_mult: 1
  }
  param {
    lr_mult: 2
    decay_mult: 0
  }
  convolution_param {
    num_output: 32
    kernel_size: 1
    weight_filler {
      type: "xavier"
      std: 0.2
    }
    bias_filler {
      type: "constant"
      value: 0.2
    }
  }
}
layer {
  name: "inception_3b/relu_5x5_reduce"
  type: "ReLU"
  bottom: "inception_3b/5x5_reduce"
  top: "inception_3b/5x5_reduce"
}
layer {
  name: "inception_3b/5x5"
  type: "Convolution"
  bottom: "inception_3b/5x5_reduce"
  top: "inception_3b/5x5"
  param {
    lr_mult: 1
    decay_mult: 1
  }
  param {
    lr_mult: 2
    decay_mult: 0
  }
  convolution_param {
    num_output: 96
    pad: 2
    kernel_size: 5
    weight_filler {
      type: "xavier"
      std: 0.03
    }
    bias_filler {
      type: "constant"
      value: 0.2
    }
  }
}
layer {
  name: "inception_3b/relu_5x5"
  type: "ReLU"
  bottom: "inception_3b/5x5"
  top: "inception_3b/5x5"
}
layer {
  name: "inception_3b/pool"
  type: "Pooling"
  bottom: "inception_3a/output"
  top: "inception_3b/pool"
  pooling_param {
    pool: MAX
    kernel_size: 3
    stride: 1
    pad: 1
  }
}
layer {
  name: "inception_3b/pool_proj"
  type: "Convolution"
  bottom: "inception_3b/pool"
  top: "inception_3b/pool_proj"
  param {
    lr_mult: 1
    decay_mult: 1
  }
  param {
    lr_mult: 2
    decay_mult: 0
  }
  convolution_param {
    num_output: 64
    kernel_size: 1
    weight_filler {
      type: "xavier"
      std: 0.1
    }
    bias_filler {
      type: "constant"
      value: 0.2
    }
  }
}
layer {
  name: "inception_3b/relu_pool_proj"
  type: "ReLU"
  bottom: "inception_3b/pool_proj"
  top: "inception_3b/pool_proj"
}
layer {
  name: "inception_3b/output"
  type: "Concat"
  bottom: "inception_3b/1x1"
  bottom: "inception_3b/3x3"
  bottom: "inception_3b/5x5"
  bottom: "inception_3b/pool_proj"
  top: "inception_3b/output"
}
layer {
  name: "pool3/3x3_s2"
  type: "Pooling"
  bottom: "inception_3b/output"
  top: "pool3/3x3_s2"
  pooling_param {
    pool: MAX
    kernel_size: 3
    stride: 2
  }
}
layer {
  name: "inception_4a/1x1"
  type: "Convolution"
  bottom: "pool3/3x3_s2"
  top: "inception_4a/1x1"
  param {
    lr_mult: 1
    decay_mult: 1
  }
  param {
    lr_mult: 2
    decay_mult: 0
  }
  convolution_param {
    num_output: 192
    kernel_size: 1
    weight_filler {
      type: "xavier"
      std: 0.03
    }
    bias_filler {
      type: "constant"
      value: 0.2
    }
  }
}
layer {
  name: "inception_4a/relu_1x1"
  type: "ReLU"
  bottom: "inception_4a/1x1"
  top: "inception_4a/1x1"
}
layer {
  name: "inception_4a/3x3_reduce"
  type: "Convolution"
  bottom: "pool3/3x3_s2"
  top: "inception_4a/3x3_reduce"
  param {
    lr_mult: 1
    decay_mult: 1
  }
  param {
    lr_mult: 2
    decay_mult: 0
  }
  convolution_param {
    num_output: 96
    kernel_size: 1
    weight_filler {
      type: "xavier"
      std: 0.09
    }
    bias_filler {
      type: "constant"
      value: 0.2
    }
  }
}
layer {
  name: "inception_4a/relu_3x3_reduce"
  type: "ReLU"
  bottom: "inception_4a/3x3_reduce"
  top: "inception_4a/3x3_reduce"
}
layer {
  name: "inception_4a/3x3"
  type: "Convolution"
  bottom: "inception_4a/3x3_reduce"
  top: "inception_4a/3x3"
  param {
    lr_mult: 1
    decay_mult: 1
  }
  param {
    lr_mult: 2
    decay_mult: 0
  }
  convolution_param {
    num_output: 208
    pad: 1
    kernel_size: 3
    weight_filler {
      type: "xavier"
      std: 0.03
    }
    bias_filler {
      type: "constant"
      value: 0.2
    }
  }
}
layer {
  name: "inception_4a/relu_3x3"
  type: "ReLU"
  bottom: "inception_4a/3x3"
  top: "inception_4a/3x3"
}
layer {
  name: "inception_4a/5x5_reduce"
  type: "Convolution"
  bottom: "pool3/3x3_s2"
  top: "inception_4a/5x5_reduce"
  param {
    lr_mult: 1
    decay_mult: 1
  }
  param {
    lr_mult: 2
    decay_mult: 0
  }
  convolution_param {
    num_output: 16
    kernel_size: 1
    weight_filler {
      type: "xavier"
      std: 0.2
    }
    bias_filler {
      type: "constant"
      value: 0.2
    }
  }
}
layer {
  name: "inception_4a/relu_5x5_reduce"
  type: "ReLU"
  bottom: "inception_4a/5x5_reduce"
  top: "inception_4a/5x5_reduce"
}
layer {
  name: "inception_4a/5x5"
  type: "Convolution"
  bottom: "inception_4a/5x5_reduce"
  top: "inception_4a/5x5"
  param {
    lr_mult: 1
    decay_mult: 1
  }
  param {
    lr_mult: 2
    decay_mult: 0
  }
  convolution_param {
    num_output: 48
    pad: 2
    kernel_size: 5
    weight_filler {
      type: "xavier"
      std: 0.03
    }
    bias_filler {
      type: "constant"
      value: 0.2
    }
  }
}
layer {
  name: "inception_4a/relu_5x5"
  type: "ReLU"
  bottom: "inception_4a/5x5"
  top: "inception_4a/5x5"
}
layer {
  name: "inception_4a/pool"
  type: "Pooling"
  bottom: "pool3/3x3_s2"
  top: "inception_4a/pool"
  pooling_param {
    pool: MAX
    kernel_size: 3
    stride: 1
    pad: 1
  }
}
layer {
  name: "inception_4a/pool_proj"
  type: "Convolution"
  bottom: "inception_4a/pool"
  top: "inception_4a/pool_proj"
  param {
    lr_mult: 1
    decay_mult: 1
  }
  param {
    lr_mult: 2
    decay_mult: 0
  }
  convolution_param {
    num_output: 64
    kernel_size: 1
    weight_filler {
      type: "xavier"
      std: 0.1
    }
    bias_filler {
      type: "constant"
      value: 0.2
    }
  }
}
layer {
  name: "inception_4a/relu_pool_proj"
  type: "ReLU"
  bottom: "inception_4a/pool_proj"
  top: "inception_4a/pool_proj"
}
layer {
  name: "inception_4a/output"
  type: "Concat"
  bottom: "inception_4a/1x1"
  bottom: "inception_4a/3x3"
  bottom: "inception_4a/5x5"
  bottom: "inception_4a/pool_proj"
  top: "inception_4a/output"
}
layer {
  name: "loss1/ave_pool"
  type: "Pooling"
  bottom: "inception_4a/output"
  top: "loss1/ave_pool"
  pooling_param {
    pool: AVE
    kernel_size: 5
    stride: 3
  }
}
layer {
  name: "loss1/conv"
  type: "Convolution"
  bottom: "loss1/ave_pool"
  top: "loss1/conv"
  param {
    lr_mult: 1
    decay_mult: 1
  }
  param {
    lr_mult: 2
    decay_mult: 0
  }
  convolution_param {
    num_output: 128
    kernel_size: 1
    weight_filler {
      type: "xavier"
      std: 0.08
    }
    bias_filler {
      type: "constant"
      value: 0.2
    }
  }
}
layer {
  name: "loss1/relu_conv"
  type: "ReLU"
  bottom: "loss1/conv"
  top: "loss1/conv"
}
layer {
  name: "loss1/fc"
  type: "InnerProduct"
  bottom: "loss1/conv"
  top: "loss1/fc"
  param {
    lr_mult: 1
    decay_mult: 1
  }
  param {
    lr_mult: 2
    decay_mult: 0
  }
  inner_product_param {
    num_output: 1024
    weight_filler {
      type: "xavier"
      std: 0.02
    }
    bias_filler {
      type: "constant"
      value: 0.2
    }
  }
}
layer {
  name: "loss1/relu_fc"
  type: "ReLU"
  bottom: "loss1/fc"
  top: "loss1/fc"
}
layer {
  name: "loss1/drop_fc"
  type: "Dropout"
  bottom: "loss1/fc"
  top: "loss1/fc"
  dropout_param {
    dropout_ratio: 0.7
  }
}
layer {
  name: "loss1/classifier_plantvillage"
  type: "InnerProduct"
  bottom: "loss1/fc"
  top: "loss1/classifier_plantvillage"
  param {
    lr_mult: 1
    decay_mult: 1
  }
  param {
    lr_mult: 2
    decay_mult: 0
  }
  inner_product_param {
    num_output: 38
    weight_filler {
      type: "xavier"
      std: 0.0009765625
    }
    bias_filler {
      type: "constant"
      value: 0
    }
  }
}
layer {
  name: "inception_4b/1x1"
  type: "Convolution"
  bottom: "inception_4a/output"
  top: "inception_4b/1x1"
  param {
    lr_mult: 1
    decay_mult: 1
  }
  param {
    lr_mult: 2
    decay_mult: 0
  }
  convolution_param {
    num_output: 160
    kernel_size: 1
    weight_filler {
      type: "xavier"
      std: 0.03
    }
    bias_filler {
      type: "constant"
      value: 0.2
    }
  }
}
layer {
  name: "inception_4b/relu_1x1"
  type: "ReLU"
  bottom: "inception_4b/1x1"
  top: "inception_4b/1x1"
}
layer {
  name: "inception_4b/3x3_reduce"
  type: "Convolution"
  bottom: "inception_4a/output"
  top: "inception_4b/3x3_reduce"
  param {
    lr_mult: 1
    decay_mult: 1
  }
  param {
    lr_mult: 2
    decay_mult: 0
  }
  convolution_param {
    num_output: 112
    kernel_size: 1
    weight_filler {
      type: "xavier"
      std: 0.09
    }
    bias_filler {
      type: "constant"
      value: 0.2
    }
  }
}
layer {
  name: "inception_4b/relu_3x3_reduce"
  type: "ReLU"
  bottom: "inception_4b/3x3_reduce"
  top: "inception_4b/3x3_reduce"
}
layer {
  name: "inception_4b/3x3"
  type: "Convolution"
  bottom: "inception_4b/3x3_reduce"
  top: "inception_4b/3x3"
  param {
    lr_mult: 1
    decay_mult: 1
  }
  param {
    lr_mult: 2
    decay_mult: 0
  }
  convolution_param {
    num_output: 224
    pad: 1
    kernel_size: 3
    weight_filler {
      type: "xavier"
      std: 0.03
    }
    bias_filler {
      type: "constant"
      value: 0.2
    }
  }
}
layer {
  name: "inception_4b/relu_3x3"
  type: "ReLU"
  bottom: "inception_4b/3x3"
  top: "inception_4b/3x3"
}
layer {
  name: "inception_4b/5x5_reduce"
  type: "Convolution"
  bottom: "inception_4a/output"
  top: "inception_4b/5x5_reduce"
  param {
    lr_mult: 1
    decay_mult: 1
  }
  param {
    lr_mult: 2
    decay_mult: 0
  }
  convolution_param {
    num_output: 24
    kernel_size: 1
    weight_filler {
      type: "xavier"
      std: 0.2
    }
    bias_filler {
      type: "constant"
      value: 0.2
    }
  }
}
layer {
  name: "inception_4b/relu_5x5_reduce"
  type: "ReLU"
  bottom: "inception_4b/5x5_reduce"
  top: "inception_4b/5x5_reduce"
}
layer {
  name: "inception_4b/5x5"
  type: "Convolution"
  bottom: "inception_4b/5x5_reduce"
  top: "inception_4b/5x5"
  param {
    lr_mult: 1
    decay_mult: 1
  }
  param {
    lr_mult: 2
    decay_mult: 0
  }
  convolution_param {
    num_output: 64
    pad: 2
    kernel_size: 5
    weight_filler {
      type: "xavier"
      std: 0.03
    }
    bias_filler {
      type: "constant"
      value: 0.2
    }
  }
}
layer {
  name: "inception_4b/relu_5x5"
  type: "ReLU"
  bottom: "inception_4b/5x5"
  top: "inception_4b/5x5"
}
layer {
  name: "inception_4b/pool"
  type: "Pooling"
  bottom: "inception_4a/output"
  top: "inception_4b/pool"
  pooling_param {
    pool: MAX
    kernel_size: 3
    stride: 1
    pad: 1
  }
}
layer {
  name: "inception_4b/pool_proj"
  type: "Convolution"
  bottom: "inception_4b/pool"
  top: "inception_4b/pool_proj"
  param {
    lr_mult: 1
    decay_mult: 1
  }
  param {
    lr_mult: 2
    decay_mult: 0
  }
  convolution_param {
    num_output: 64
    kernel_size: 1
    weight_filler {
      type: "xavier"
      std: 0.1
    }
    bias_filler {
      type: "constant"
      value: 0.2
    }
  }
}
layer {
  name: "inception_4b/relu_pool_proj"
  type: "ReLU"
  bottom: "inception_4b/pool_proj"
  top: "inception_4b/pool_proj"
}
layer {
  name: "inception_4b/output"
  type: "Concat"
  bottom: "inception_4b/1x1"
  bottom: "inception_4b/3x3"
  bottom: "inception_4b/5x5"
  bottom: "inception_4b/pool_proj"
  top: "inception_4b/output"
}
layer {
  name: "inception_4c/1x1"
  type: "Convolution"
  bottom: "inception_4b/output"
  top: "inception_4c/1x1"
  param {
    lr_mult: 1
    decay_mult: 1
  }
  param {
    lr_mult: 2
    decay_mult: 0
  }
  convolution_param {
    num_output: 128
    kernel_size: 1
    weight_filler {
      type: "xavier"
      std: 0.03
    }
    bias_filler {
      type: "constant"
      value: 0.2
    }
  }
}
layer {
  name: "inception_4c/relu_1x1"
  type: "ReLU"
  bottom: "inception_4c/1x1"
  top: "inception_4c/1x1"
}
layer {
  name: "inception_4c/3x3_reduce"
  type: "Convolution"
  bottom: "inception_4b/output"
  top: "inception_4c/3x3_reduce"
  param {
    lr_mult: 1
    decay_mult: 1
  }
  param {
    lr_mult: 2
    decay_mult: 0
  }
  convolution_param {
    num_output: 128
    kernel_size: 1
    weight_filler {
      type: "xavier"
      std: 0.09
    }
    bias_filler {
      type: "constant"
      value: 0.2
    }
  }
}
layer {
  name: "inception_4c/relu_3x3_reduce"
  type: "ReLU"
  bottom: "inception_4c/3x3_reduce"
  top: "inception_4c/3x3_reduce"
}
layer {
  name: "inception_4c/3x3"
  type: "Convolution"
  bottom: "inception_4c/3x3_reduce"
  top: "inception_4c/3x3"
  param {
    lr_mult: 1
    decay_mult: 1
  }
  param {
    lr_mult: 2
    decay_mult: 0
  }
  convolution_param {
    num_output: 256
    pad: 1
    kernel_size: 3
    weight_filler {
      type: "xavier"
      std: 0.03
    }
    bias_filler {
      type: "constant"
      value: 0.2
    }
  }
}
layer {
  name: "inception_4c/relu_3x3"
  type: "ReLU"
  bottom: "inception_4c/3x3"
  top: "inception_4c/3x3"
}
layer {
  name: "inception_4c/5x5_reduce"
  type: "Convolution"
  bottom: "inception_4b/output"
  top: "inception_4c/5x5_reduce"
  param {
    lr_mult: 1
    decay_mult: 1
  }
  param {
    lr_mult: 2
    decay_mult: 0
  }
  convolution_param {
    num_output: 24
    kernel_size: 1
    weight_filler {
      type: "xavier"
      std: 0.2
    }
    bias_filler {
      type: "constant"
      value: 0.2
    }
  }
}
layer {
  name: "inception_4c/relu_5x5_reduce"
  type: "ReLU"
  bottom: "inception_4c/5x5_reduce"
  top: "inception_4c/5x5_reduce"
}
layer {
  name: "inception_4c/5x5"
  type: "Convolution"
  bottom: "inception_4c/5x5_reduce"
  top: "inception_4c/5x5"
  param {
    lr_mult: 1
    decay_mult: 1
  }
  param {
    lr_mult: 2
    decay_mult: 0
  }
  convolution_param {
    num_output: 64
    pad: 2
    kernel_size: 5
    weight_filler {
      type: "xavier"
      std: 0.03
    }
    bias_filler {
      type: "constant"
      value: 0.2
    }
  }
}
layer {
  name: "inception_4c/relu_5x5"
  type: "ReLU"
  bottom: "inception_4c/5x5"
  top: "inception_4c/5x5"
}
layer {
  name: "inception_4c/pool"
  type: "Pooling"
  bottom: "inception_4b/output"
  top: "inception_4c/pool"
  pooling_param {
    pool: MAX
    kernel_size: 3
    stride: 1
    pad: 1
  }
}
layer {
  name: "inception_4c/pool_proj"
  type: "Convolution"
  bottom: "inception_4c/pool"
  top: "inception_4c/pool_proj"
  param {
    lr_mult: 1
    decay_mult: 1
  }
  param {
    lr_mult: 2
    decay_mult: 0
  }
  convolution_param {
    num_output: 64
    kernel_size: 1
    weight_filler {
      type: "xavier"
      std: 0.1
    }
    bias_filler {
      type: "constant"
      value: 0.2
    }
  }
}
layer {
  name: "inception_4c/relu_pool_proj"
  type: "ReLU"
  bottom: "inception_4c/pool_proj"
  top: "inception_4c/pool_proj"
}
layer {
  name: "inception_4c/output"
  type: "Concat"
  bottom: "inception_4c/1x1"
  bottom: "inception_4c/3x3"
  bottom: "inception_4c/5x5"
  bottom: "inception_4c/pool_proj"
  top: "inception_4c/output"
}
layer {
  name: "inception_4d/1x1"
  type: "Convolution"
  bottom: "inception_4c/output"
  top: "inception_4d/1x1"
  param {
    lr_mult: 1
    decay_mult: 1
  }
  param {
    lr_mult: 2
    decay_mult: 0
  }
  convolution_param {
    num_output: 112
    kernel_size: 1
    weight_filler {
      type: "xavier"
      std: 0.03
    }
    bias_filler {
      type: "constant"
      value: 0.2
    }
  }
}
layer {
  name: "inception_4d/relu_1x1"
  type: "ReLU"
  bottom: "inception_4d/1x1"
  top: "inception_4d/1x1"
}
layer {
  name: "inception_4d/3x3_reduce"
  type: "Convolution"
  bottom: "inception_4c/output"
  top: "inception_4d/3x3_reduce"
  param {
    lr_mult: 1
    decay_mult: 1
  }
  param {
    lr_mult: 2
    decay_mult: 0
  }
  convolution_param {
    num_output: 144
    kernel_size: 1
    weight_filler {
      type: "xavier"
      std: 0.09
    }
    bias_filler {
      type: "constant"
      value: 0.2
    }
  }
}
layer {
  name: "inception_4d/relu_3x3_reduce"
  type: "ReLU"
  bottom: "inception_4d/3x3_reduce"
  top: "inception_4d/3x3_reduce"
}
layer {
  name: "inception_4d/3x3"
  type: "Convolution"
  bottom: "inception_4d/3x3_reduce"
  top: "inception_4d/3x3"
  param {
    lr_mult: 1
    decay_mult: 1
  }
  param {
    lr_mult: 2
    decay_mult: 0
  }
  convolution_param {
    num_output: 288
    pad: 1
    kernel_size: 3
    weight_filler {
      type: "xavier"
      std: 0.03
    }
    bias_filler {
      type: "constant"
      value: 0.2
    }
  }
}
layer {
  name: "inception_4d/relu_3x3"
  type: "ReLU"
  bottom: "inception_4d/3x3"
  top: "inception_4d/3x3"
}
layer {
  name: "inception_4d/5x5_reduce"
  type: "Convolution"
  bottom: "inception_4c/output"
  top: "inception_4d/5x5_reduce"
  param {
    lr_mult: 1
    decay_mult: 1
  }
  param {
    lr_mult: 2
    decay_mult: 0
  }
  convolution_param {
    num_output: 32
    kernel_size: 1
    weight_filler {
      type: "xavier"
      std: 0.2
    }
    bias_filler {
      type: "constant"
      value: 0.2
    }
  }
}
layer {
  name: "inception_4d/relu_5x5_reduce"
  type: "ReLU"
  bottom: "inception_4d/5x5_reduce"
  top: "inception_4d/5x5_reduce"
}
layer {
  name: "inception_4d/5x5"
  type: "Convolution"
  bottom: "inception_4d/5x5_reduce"
  top: "inception_4d/5x5"
  param {
    lr_mult: 1
    decay_mult: 1
  }
  param {
    lr_mult: 2
    decay_mult: 0
  }
  convolution_param {
    num_output: 64
    pad: 2
    kernel_size: 5
    weight_filler {
      type: "xavier"
      std: 0.03
    }
    bias_filler {
      type: "constant"
      value: 0.2
    }
  }
}
layer {
  name: "inception_4d/relu_5x5"
  type: "ReLU"
  bottom: "inception_4d/5x5"
  top: "inception_4d/5x5"
}
layer {
  name: "inception_4d/pool"
  type: "Pooling"
  bottom: "inception_4c/output"
  top: "inception_4d/pool"
  pooling_param {
    pool: MAX
    kernel_size: 3
    stride: 1
    pad: 1
  }
}
layer {
  name: "inception_4d/pool_proj"
  type: "Convolution"
  bottom: "inception_4d/pool"
  top: "inception_4d/pool_proj"
  param {
    lr_mult: 1
    decay_mult: 1
  }
  param {
    lr_mult: 2
    decay_mult: 0
  }
  convolution_param {
    num_output: 64
    kernel_size: 1
    weight_filler {
      type: "xavier"
      std: 0.1
    }
    bias_filler {
      type: "constant"
      value: 0.2
    }
  }
}
layer {
  name: "inception_4d/relu_pool_proj"
  type: "ReLU"
  bottom: "inception_4d/pool_proj"
  top: "inception_4d/pool_proj"
}
layer {
  name: "inception_4d/output"
  type: "Concat"
  bottom: "inception_4d/1x1"
  bottom: "inception_4d/3x3"
  bottom: "inception_4d/5x5"
  bottom: "inception_4d/pool_proj"
  top: "inception_4d/output"
}
layer {
  name: "loss2/ave_pool"
  type: "Pooling"
  bottom: "inception_4d/output"
  top: "loss2/ave_pool"
  pooling_param {
    pool: AVE
    kernel_size: 5
    stride: 3
  }
}
layer {
  name: "loss2/conv"
  type: "Convolution"
  bottom: "loss2/ave_pool"
  top: "loss2/conv"
  param {
    lr_mult: 1
    decay_mult: 1
  }
  param {
    lr_mult: 2
    decay_mult: 0
  }
  convolution_param {
    num_output: 128
    kernel_size: 1
    weight_filler {
      type: "xavier"
      std: 0.08
    }
    bias_filler {
      type: "constant"
      value: 0.2
    }
  }
}
layer {
  name: "loss2/relu_conv"
  type: "ReLU"
  bottom: "loss2/conv"
  top: "loss2/conv"
}
layer {
  name: "loss2/fc"
  type: "InnerProduct"
  bottom: "loss2/conv"
  top: "loss2/fc"
  param {
    lr_mult: 1
    decay_mult: 1
  }
  param {
    lr_mult: 2
    decay_mult: 0
  }
  inner_product_param {
    num_output: 1024
    weight_filler {
      type: "xavier"
      std: 0.02
    }
    bias_filler {
      type: "constant"
      value: 0.2
    }
  }
}
layer {
  name: "loss2/relu_fc"
  type: "ReLU"
  bottom: "loss2/fc"
  top: "loss2/fc"
}
layer {
  name: "loss2/drop_fc"
  type: "Dropout"
  bottom: "loss2/fc"
  top: "loss2/fc"
  dropout_param {
    dropout_ratio: 0.7
  }
}
layer {
  name: "loss2/classifier_plantvillage"
  type: "InnerProduct"
  bottom: "loss2/fc"
  top: "loss2/classifier_plantvillage"
  param {
    lr_mult: 1
    decay_mult: 1
  }
  param {
    lr_mult: 2
    decay_mult: 0
  }
  inner_product_param {
    num_output: 38
    weight_filler {
      type: "xavier"
      std: 0.0009765625
    }
    bias_filler {
      type: "constant"
      value: 0
    }
  }
}
layer {
  name: "inception_4e/1x1"
  type: "Convolution"
  bottom: "inception_4d/output"
  top: "inception_4e/1x1"
  param {
    lr_mult: 1
    decay_mult: 1
  }
  param {
    lr_mult: 2
    decay_mult: 0
  }
  convolution_param {
    num_output: 256
    kernel_size: 1
    weight_filler {
      type: "xavier"
      std: 0.03
    }
    bias_filler {
      type: "constant"
      value: 0.2
    }
  }
}
layer {
  name: "inception_4e/relu_1x1"
  type: "ReLU"
  bottom: "inception_4e/1x1"
  top: "inception_4e/1x1"
}
layer {
  name: "inception_4e/3x3_reduce"
  type: "Convolution"
  bottom: "inception_4d/output"
  top: "inception_4e/3x3_reduce"
  param {
    lr_mult: 1
    decay_mult: 1
  }
  param {
    lr_mult: 2
    decay_mult: 0
  }
  convolution_param {
    num_output: 160
    kernel_size: 1
    weight_filler {
      type: "xavier"
      std: 0.09
    }
    bias_filler {
      type: "constant"
      value: 0.2
    }
  }
}
layer {
  name: "inception_4e/relu_3x3_reduce"
  type: "ReLU"
  bottom: "inception_4e/3x3_reduce"
  top: "inception_4e/3x3_reduce"
}
layer {
  name: "inception_4e/3x3"
  type: "Convolution"
  bottom: "inception_4e/3x3_reduce"
  top: "inception_4e/3x3"
  param {
    lr_mult: 1
    decay_mult: 1
  }
  param {
    lr_mult: 2
    decay_mult: 0
  }
  convolution_param {
    num_output: 320
    pad: 1
    kernel_size: 3
    weight_filler {
      type: "xavier"
      std: 0.03
    }
    bias_filler {
      type: "constant"
      value: 0.2
    }
  }
}
layer {
  name: "inception_4e/relu_3x3"
  type: "ReLU"
  bottom: "inception_4e/3x3"
  top: "inception_4e/3x3"
}
layer {
  name: "inception_4e/5x5_reduce"
  type: "Convolution"
  bottom: "inception_4d/output"
  top: "inception_4e/5x5_reduce"
  param {
    lr_mult: 1
    decay_mult: 1
  }
  param {
    lr_mult: 2
    decay_mult: 0
  }
  convolution_param {
    num_output: 32
    kernel_size: 1
    weight_filler {
      type: "xavier"
      std: 0.2
    }
    bias_filler {
      type: "constant"
      value: 0.2
    }
  }
}
layer {
  name: "inception_4e/relu_5x5_reduce"
  type: "ReLU"
  bottom: "inception_4e/5x5_reduce"
  top: "inception_4e/5x5_reduce"
}
layer {
  name: "inception_4e/5x5"
  type: "Convolution"
  bottom: "inception_4e/5x5_reduce"
  top: "inception_4e/
I0403 16:40:54.844038 21344 layer_factory.hpp:77] Creating layer data
I0403 16:40:54.844648 21344 net.cpp:91] Creating Layer data
I0403 16:40:54.844681 21344 net.cpp:399] data -> data
I0403 16:40:54.844733 21344 net.cpp:399] data -> label
I0403 16:40:54.844774 21344 data_transformer.cpp:25] Loading mean file from: /home/mohanty/data/final_dataset/lmdb/grayscale-20-80/mean.binaryproto
I0403 16:40:54.845949 21348 db_lmdb.cpp:38] Opened lmdb /home/mohanty/data/final_dataset/lmdb/grayscale-20-80/test_db
I0403 16:40:54.857584 21344 data_layer.cpp:41] output data size: 24,3,224,224
I0403 16:40:54.885597 21344 net.cpp:141] Setting up data
I0403 16:40:54.885695 21344 net.cpp:148] Top shape: 24 3 224 224 (3612672)
I0403 16:40:54.885720 21344 net.cpp:148] Top shape: 24 (24)
I0403 16:40:54.885737 21344 net.cpp:156] Memory required for data: 14450784
I0403 16:40:54.885768 21344 layer_factory.hpp:77] Creating layer label_data_1_split
I0403 16:40:54.885797 21344 net.cpp:91] Creating Layer label_data_1_split
I0403 16:40:54.885817 21344 net.cpp:425] label_data_1_split <- label
I0403 16:40:54.885850 21344 net.cpp:399] label_data_1_split -> label_data_1_split_0
I0403 16:40:54.885881 21344 net.cpp:399] label_data_1_split -> label_data_1_split_1
I0403 16:40:54.885905 21344 net.cpp:399] label_data_1_split -> label_data_1_split_2
I0403 16:40:54.885928 21344 net.cpp:399] label_data_1_split -> label_data_1_split_3
I0403 16:40:54.885951 21344 net.cpp:399] label_data_1_split -> label_data_1_split_4
I0403 16:40:54.885972 21344 net.cpp:399] label_data_1_split -> label_data_1_split_5
I0403 16:40:54.885993 21344 net.cpp:399] label_data_1_split -> label_data_1_split_6
I0403 16:40:54.886016 21344 net.cpp:399] label_data_1_split -> label_data_1_split_7
I0403 16:40:54.886037 21344 net.cpp:399] label_data_1_split -> label_data_1_split_8
I0403 16:40:54.886065 21344 net.cpp:399] label_data_1_split -> label_data_1_split_9
I0403 16:40:54.886188 21344 net.cpp:141] Setting up label_data_1_split
I0403 16:40:54.886219 21344 net.cpp:148] Top shape: 24 (24)
I0403 16:40:54.886237 21344 net.cpp:148] Top shape: 24 (24)
I0403 16:40:54.886255 21344 net.cpp:148] Top shape: 24 (24)
I0403 16:40:54.886271 21344 net.cpp:148] Top shape: 24 (24)
I0403 16:40:54.886289 21344 net.cpp:148] Top shape: 24 (24)
I0403 16:40:54.886307 21344 net.cpp:148] Top shape: 24 (24)
I0403 16:40:54.886324 21344 net.cpp:148] Top shape: 24 (24)
I0403 16:40:54.886342 21344 net.cpp:148] Top shape: 24 (24)
I0403 16:40:54.886358 21344 net.cpp:148] Top shape: 24 (24)
I0403 16:40:54.886375 21344 net.cpp:148] Top shape: 24 (24)
I0403 16:40:54.886421 21344 net.cpp:156] Memory required for data: 14451744
I0403 16:40:54.886440 21344 layer_factory.hpp:77] Creating layer conv1/7x7_s2
I0403 16:40:54.886472 21344 net.cpp:91] Creating Layer conv1/7x7_s2
I0403 16:40:54.886493 21344 net.cpp:425] conv1/7x7_s2 <- data
I0403 16:40:54.886513 21344 net.cpp:399] conv1/7x7_s2 -> conv1/7x7_s2
I0403 16:40:55.023835 21344 net.cpp:141] Setting up conv1/7x7_s2
I0403 16:40:55.023924 21344 net.cpp:148] Top shape: 24 64 112 112 (19267584)
I0403 16:40:55.023942 21344 net.cpp:156] Memory required for data: 91522080
I0403 16:40:55.023975 21344 layer_factory.hpp:77] Creating layer conv1/relu_7x7
I0403 16:40:55.024011 21344 net.cpp:91] Creating Layer conv1/relu_7x7
I0403 16:40:55.024032 21344 net.cpp:425] conv1/relu_7x7 <- conv1/7x7_s2
I0403 16:40:55.024057 21344 net.cpp:386] conv1/relu_7x7 -> conv1/7x7_s2 (in-place)
I0403 16:40:55.024338 21344 net.cpp:141] Setting up conv1/relu_7x7
I0403 16:40:55.024365 21344 net.cpp:148] Top shape: 24 64 112 112 (19267584)
I0403 16:40:55.024381 21344 net.cpp:156] Memory required for data: 168592416
I0403 16:40:55.024397 21344 layer_factory.hpp:77] Creating layer pool1/3x3_s2
I0403 16:40:55.024422 21344 net.cpp:91] Creating Layer pool1/3x3_s2
I0403 16:40:55.024441 21344 net.cpp:425] pool1/3x3_s2 <- conv1/7x7_s2
I0403 16:40:55.024459 21344 net.cpp:399] pool1/3x3_s2 -> pool1/3x3_s2
I0403 16:40:55.024535 21344 net.cpp:141] Setting up pool1/3x3_s2
I0403 16:40:55.024560 21344 net.cpp:148] Top shape: 24 64 56 56 (4816896)
I0403 16:40:55.024576 21344 net.cpp:156] Memory required for data: 187860000
I0403 16:40:55.024591 21344 layer_factory.hpp:77] Creating layer pool1/norm1
I0403 16:40:55.024616 21344 net.cpp:91] Creating Layer pool1/norm1
I0403 16:40:55.024634 21344 net.cpp:425] pool1/norm1 <- pool1/3x3_s2
I0403 16:40:55.024652 21344 net.cpp:399] pool1/norm1 -> pool1/norm1
I0403 16:40:55.024986 21344 net.cpp:141] Setting up pool1/norm1
I0403 16:40:55.025015 21344 net.cpp:148] Top shape: 24 64 56 56 (4816896)
I0403 16:40:55.025032 21344 net.cpp:156] Memory required for data: 207127584
I0403 16:40:55.025053 21344 layer_factory.hpp:77] Creating layer conv2/3x3_reduce
I0403 16:40:55.025082 21344 net.cpp:91] Creating Layer conv2/3x3_reduce
I0403 16:40:55.025101 21344 net.cpp:425] conv2/3x3_reduce <- pool1/norm1
I0403 16:40:55.025123 21344 net.cpp:399] conv2/3x3_reduce -> conv2/3x3_reduce
I0403 16:40:55.026557 21344 net.cpp:141] Setting up conv2/3x3_reduce
I0403 16:40:55.026588 21344 net.cpp:148] Top shape: 24 64 56 56 (4816896)
I0403 16:40:55.026607 21344 net.cpp:156] Memory required for data: 226395168
I0403 16:40:55.026629 21344 layer_factory.hpp:77] Creating layer conv2/relu_3x3_reduce
I0403 16:40:55.026649 21344 net.cpp:91] Creating Layer conv2/relu_3x3_reduce
I0403 16:40:55.026665 21344 net.cpp:425] conv2/relu_3x3_reduce <- conv2/3x3_reduce
I0403 16:40:55.026684 21344 net.cpp:386] conv2/relu_3x3_reduce -> conv2/3x3_reduce (in-place)
I0403 16:40:55.026955 21344 net.cpp:141] Setting up conv2/relu_3x3_reduce
I0403 16:40:55.026984 21344 net.cpp:148] Top shape: 24 64 56 56 (4816896)
I0403 16:40:55.027001 21344 net.cpp:156] Memory required for data: 245662752
I0403 16:40:55.027017 21344 layer_factory.hpp:77] Creating layer conv2/3x3
I0403 16:40:55.027042 21344 net.cpp:91] Creating Layer conv2/3x3
I0403 16:40:55.027065 21344 net.cpp:425] conv2/3x3 <- conv2/3x3_reduce
I0403 16:40:55.027086 21344 net.cpp:399] conv2/3x3 -> conv2/3x3
I0403 16:40:55.029449 21344 net.cpp:141] Setting up conv2/3x3
I0403 16:40:55.029484 21344 net.cpp:148] Top shape: 24 192 56 56 (14450688)
I0403 16:40:55.029505 21344 net.cpp:156] Memory required for data: 303465504
I0403 16:40:55.029527 21344 layer_factory.hpp:77] Creating layer conv2/relu_3x3
I0403 16:40:55.029547 21344 net.cpp:91] Creating Layer conv2/relu_3x3
I0403 16:40:55.029563 21344 net.cpp:425] conv2/relu_3x3 <- conv2/3x3
I0403 16:40:55.029580 21344 net.cpp:386] conv2/relu_3x3 -> conv2/3x3 (in-place)
I0403 16:40:55.029764 21344 net.cpp:141] Setting up conv2/relu_3x3
I0403 16:40:55.029790 21344 net.cpp:148] Top shape: 24 192 56 56 (14450688)
I0403 16:40:55.029836 21344 net.cpp:156] Memory required for data: 361268256
I0403 16:40:55.029853 21344 layer_factory.hpp:77] Creating layer conv2/norm2
I0403 16:40:55.029875 21344 net.cpp:91] Creating Layer conv2/norm2
I0403 16:40:55.029893 21344 net.cpp:425] conv2/norm2 <- conv2/3x3
I0403 16:40:55.029911 21344 net.cpp:399] conv2/norm2 -> conv2/norm2
I0403 16:40:55.030225 21344 net.cpp:141] Setting up conv2/norm2
I0403 16:40:55.030252 21344 net.cpp:148] Top shape: 24 192 56 56 (14450688)
I0403 16:40:55.030268 21344 net.cpp:156] Memory required for data: 419071008
I0403 16:40:55.030284 21344 layer_factory.hpp:77] Creating layer pool2/3x3_s2
I0403 16:40:55.030308 21344 net.cpp:91] Creating Layer pool2/3x3_s2
I0403 16:40:55.030325 21344 net.cpp:425] pool2/3x3_s2 <- conv2/norm2
I0403 16:40:55.030344 21344 net.cpp:399] pool2/3x3_s2 -> pool2/3x3_s2
I0403 16:40:55.030400 21344 net.cpp:141] Setting up pool2/3x3_s2
I0403 16:40:55.030424 21344 net.cpp:148] Top shape: 24 192 28 28 (3612672)
I0403 16:40:55.030441 21344 net.cpp:156] Memory required for data: 433521696
I0403 16:40:55.030457 21344 layer_factory.hpp:77] Creating layer pool2/3x3_s2_pool2/3x3_s2_0_split
I0403 16:40:55.030474 21344 net.cpp:91] Creating Layer pool2/3x3_s2_pool2/3x3_s2_0_split
I0403 16:40:55.030490 21344 net.cpp:425] pool2/3x3_s2_pool2/3x3_s2_0_split <- pool2/3x3_s2
I0403 16:40:55.030511 21344 net.cpp:399] pool2/3x3_s2_pool2/3x3_s2_0_split -> pool2/3x3_s2_pool2/3x3_s2_0_split_0
I0403 16:40:55.030534 21344 net.cpp:399] pool2/3x3_s2_pool2/3x3_s2_0_split -> pool2/3x3_s2_pool2/3x3_s2_0_split_1
I0403 16:40:55.030553 21344 net.cpp:399] pool2/3x3_s2_pool2/3x3_s2_0_split -> pool2/3x3_s2_pool2/3x3_s2_0_split_2
I0403 16:40:55.030573 21344 net.cpp:399] pool2/3x3_s2_pool2/3x3_s2_0_split -> pool2/3x3_s2_pool2/3x3_s2_0_split_3
I0403 16:40:55.030647 21344 net.cpp:141] Setting up pool2/3x3_s2_pool2/3x3_s2_0_split
I0403 16:40:55.030674 21344 net.cpp:148] Top shape: 24 192 28 28 (3612672)
I0403 16:40:55.030692 21344 net.cpp:148] Top shape: 24 192 28 28 (3612672)
I0403 16:40:55.030709 21344 net.cpp:148] Top shape: 24 192 28 28 (3612672)
I0403 16:40:55.030725 21344 net.cpp:148] Top shape: 24 192 28 28 (3612672)
I0403 16:40:55.030740 21344 net.cpp:156] Memory required for data: 491324448
I0403 16:40:55.030756 21344 layer_factory.hpp:77] Creating layer inception_3a/1x1
I0403 16:40:55.030779 21344 net.cpp:91] Creating Layer inception_3a/1x1
I0403 16:40:55.030798 21344 net.cpp:425] inception_3a/1x1 <- pool2/3x3_s2_pool2/3x3_s2_0_split_0
I0403 16:40:55.030817 21344 net.cpp:399] inception_3a/1x1 -> inception_3a/1x1
I0403 16:40:55.032366 21344 net.cpp:141] Setting up inception_3a/1x1
I0403 16:40:55.032397 21344 net.cpp:148] Top shape: 24 64 28 28 (1204224)
I0403 16:40:55.032413 21344 net.cpp:156] Memory required for data: 496141344
I0403 16:40:55.032433 21344 layer_factory.hpp:77] Creating layer inception_3a/relu_1x1
I0403 16:40:55.032454 21344 net.cpp:91] Creating Layer inception_3a/relu_1x1
I0403 16:40:55.032470 21344 net.cpp:425] inception_3a/relu_1x1 <- inception_3a/1x1
I0403 16:40:55.032488 21344 net.cpp:386] inception_3a/relu_1x1 -> inception_3a/1x1 (in-place)
I0403 16:40:55.032668 21344 net.cpp:141] Setting up inception_3a/relu_1x1
I0403 16:40:55.032698 21344 net.cpp:148] Top shape: 24 64 28 28 (1204224)
I0403 16:40:55.032714 21344 net.cpp:156] Memory required for data: 500958240
I0403 16:40:55.032732 21344 layer_factory.hpp:77] Creating layer inception_3a/3x3_reduce
I0403 16:40:55.032755 21344 net.cpp:91] Creating Layer inception_3a/3x3_reduce
I0403 16:40:55.032775 21344 net.cpp:425] inception_3a/3x3_reduce <- pool2/3x3_s2_pool2/3x3_s2_0_split_1
I0403 16:40:55.032799 21344 net.cpp:399] inception_3a/3x3_reduce -> inception_3a/3x3_reduce
I0403 16:40:55.034538 21344 net.cpp:141] Setting up inception_3a/3x3_reduce
I0403 16:40:55.034567 21344 net.cpp:148] Top shape: 24 96 28 28 (1806336)
I0403 16:40:55.034587 21344 net.cpp:156] Memory required for data: 508183584
I0403 16:40:55.034610 21344 layer_factory.hpp:77] Creating layer inception_3a/relu_3x3_reduce
I0403 16:40:55.034646 21344 net.cpp:91] Creating Layer inception_3a/relu_3x3_reduce
I0403 16:40:55.034665 21344 net.cpp:425] inception_3a/relu_3x3_reduce <- inception_3a/3x3_reduce
I0403 16:40:55.034685 21344 net.cpp:386] inception_3a/relu_3x3_reduce -> inception_3a/3x3_reduce (in-place)
I0403 16:40:55.034869 21344 net.cpp:141] Setting up inception_3a/relu_3x3_reduce
I0403 16:40:55.034894 21344 net.cpp:148] Top shape: 24 96 28 28 (1806336)
I0403 16:40:55.034910 21344 net.cpp:156] Memory required for data: 515408928
I0403 16:40:55.034925 21344 layer_factory.hpp:77] Creating layer inception_3a/3x3
I0403 16:40:55.034948 21344 net.cpp:91] Creating Layer inception_3a/3x3
I0403 16:40:55.034966 21344 net.cpp:425] inception_3a/3x3 <- inception_3a/3x3_reduce
I0403 16:40:55.034988 21344 net.cpp:399] inception_3a/3x3 -> inception_3a/3x3
I0403 16:40:55.036633 21344 net.cpp:141] Setting up inception_3a/3x3
I0403 16:40:55.036664 21344 net.cpp:148] Top shape: 24 128 28 28 (2408448)
I0403 16:40:55.036681 21344 net.cpp:156] Memory required for data: 525042720
I0403 16:40:55.036701 21344 layer_factory.hpp:77] Creating layer inception_3a/relu_3x3
I0403 16:40:55.036721 21344 net.cpp:91] Creating Layer inception_3a/relu_3x3
I0403 16:40:55.036737 21344 net.cpp:425] inception_3a/relu_3x3 <- inception_3a/3x3
I0403 16:40:55.036757 21344 net.cpp:386] inception_3a/relu_3x3 -> inception_3a/3x3 (in-place)
I0403 16:40:55.037035 21344 net.cpp:141] Setting up inception_3a/relu_3x3
I0403 16:40:55.037068 21344 net.cpp:148] Top shape: 24 128 28 28 (2408448)
I0403 16:40:55.037086 21344 net.cpp:156] Memory required for data: 534676512
I0403 16:40:55.037101 21344 layer_factory.hpp:77] Creating layer inception_3a/5x5_reduce
I0403 16:40:55.037123 21344 net.cpp:91] Creating Layer inception_3a/5x5_reduce
I0403 16:40:55.037140 21344 net.cpp:425] inception_3a/5x5_reduce <- pool2/3x3_s2_pool2/3x3_s2_0_split_2
I0403 16:40:55.037159 21344 net.cpp:399] inception_3a/5x5_reduce -> inception_3a/5x5_reduce
I0403 16:40:55.038130 21344 net.cpp:141] Setting up inception_3a/5x5_reduce
I0403 16:40:55.038161 21344 net.cpp:148] Top shape: 24 16 28 28 (301056)
I0403 16:40:55.038178 21344 net.cpp:156] Memory required for data: 535880736
I0403 16:40:55.038197 21344 layer_factory.hpp:77] Creating layer inception_3a/relu_5x5_reduce
I0403 16:40:55.038216 21344 net.cpp:91] Creating Layer inception_3a/relu_5x5_reduce
I0403 16:40:55.038233 21344 net.cpp:425] inception_3a/relu_5x5_reduce <- inception_3a/5x5_reduce
I0403 16:40:55.038254 21344 net.cpp:386] inception_3a/relu_5x5_reduce -> inception_3a/5x5_reduce (in-place)
I0403 16:40:55.038558 21344 net.cpp:141] Setting up inception_3a/relu_5x5_reduce
I0403 16:40:55.038584 21344 net.cpp:148] Top shape: 24 16 28 28 (301056)
I0403 16:40:55.038599 21344 net.cpp:156] Memory required for data: 537084960
I0403 16:40:55.038615 21344 layer_factory.hpp:77] Creating layer inception_3a/5x5
I0403 16:40:55.038637 21344 net.cpp:91] Creating Layer inception_3a/5x5
I0403 16:40:55.038655 21344 net.cpp:425] inception_3a/5x5 <- inception_3a/5x5_reduce
I0403 16:40:55.038676 21344 net.cpp:399] inception_3a/5x5 -> inception_3a/5x5
I0403 16:40:55.039688 21344 net.cpp:141] Setting up inception_3a/5x5
I0403 16:40:55.039716 21344 net.cpp:148] Top shape: 24 32 28 28 (602112)
I0403 16:40:55.039732 21344 net.cpp:156] Memory required for data: 539493408
I0403 16:40:55.039752 21344 layer_factory.hpp:77] Creating layer inception_3a/relu_5x5
I0403 16:40:55.039772 21344 net.cpp:91] Creating Layer inception_3a/relu_5x5
I0403 16:40:55.039789 21344 net.cpp:425] inception_3a/relu_5x5 <- inception_3a/5x5
I0403 16:40:55.039808 21344 net.cpp:386] inception_3a/relu_5x5 -> inception_3a/5x5 (in-place)
I0403 16:40:55.039985 21344 net.cpp:141] Setting up inception_3a/relu_5x5
I0403 16:40:55.040010 21344 net.cpp:148] Top shape: 24 32 28 28 (602112)
I0403 16:40:55.040025 21344 net.cpp:156] Memory required for data: 541901856
I0403 16:40:55.040041 21344 layer_factory.hpp:77] Creating layer inception_3a/pool
I0403 16:40:55.040073 21344 net.cpp:91] Creating Layer inception_3a/pool
I0403 16:40:55.040105 21344 net.cpp:425] inception_3a/pool <- pool2/3x3_s2_pool2/3x3_s2_0_split_3
I0403 16:40:55.040127 21344 net.cpp:399] inception_3a/pool -> inception_3a/pool
I0403 16:40:55.040185 21344 net.cpp:141] Setting up inception_3a/pool
I0403 16:40:55.040210 21344 net.cpp:148] Top shape: 24 192 28 28 (3612672)
I0403 16:40:55.040225 21344 net.cpp:156] Memory required for data: 556352544
I0403 16:40:55.040240 21344 layer_factory.hpp:77] Creating layer inception_3a/pool_proj
I0403 16:40:55.040264 21344 net.cpp:91] Creating Layer inception_3a/pool_proj
I0403 16:40:55.040282 21344 net.cpp:425] inception_3a/pool_proj <- inception_3a/pool
I0403 16:40:55.040302 21344 net.cpp:399] inception_3a/pool_proj -> inception_3a/pool_proj
I0403 16:40:55.041262 21344 net.cpp:141] Setting up inception_3a/pool_proj
I0403 16:40:55.041290 21344 net.cpp:148] Top shape: 24 32 28 28 (602112)
I0403 16:40:55.041306 21344 net.cpp:156] Memory required for data: 558760992
I0403 16:40:55.041331 21344 layer_factory.hpp:77] Creating layer inception_3a/relu_pool_proj
I0403 16:40:55.041350 21344 net.cpp:91] Creating Layer inception_3a/relu_pool_proj
I0403 16:40:55.041366 21344 net.cpp:425] inception_3a/relu_pool_proj <- inception_3a/pool_proj
I0403 16:40:55.041386 21344 net.cpp:386] inception_3a/relu_pool_proj -> inception_3a/pool_proj (in-place)
I0403 16:40:55.041657 21344 net.cpp:141] Setting up inception_3a/relu_pool_proj
I0403 16:40:55.041687 21344 net.cpp:148] Top shape: 24 32 28 28 (602112)
I0403 16:40:55.041702 21344 net.cpp:156] Memory required for data: 561169440
I0403 16:40:55.041718 21344 layer_factory.hpp:77] Creating layer inception_3a/output
I0403 16:40:55.041735 21344 net.cpp:91] Creating Layer inception_3a/output
I0403 16:40:55.041751 21344 net.cpp:425] inception_3a/output <- inception_3a/1x1
I0403 16:40:55.041769 21344 net.cpp:425] inception_3a/output <- inception_3a/3x3
I0403 16:40:55.041785 21344 net.cpp:425] inception_3a/output <- inception_3a/5x5
I0403 16:40:55.041800 21344 net.cpp:425] inception_3a/output <- inception_3a/pool_proj
I0403 16:40:55.041815 21344 net.cpp:399] inception_3a/output -> inception_3a/output
I0403 16:40:55.041863 21344 net.cpp:141] Setting up inception_3a/output
I0403 16:40:55.041887 21344 net.cpp:148] Top shape: 24 256 28 28 (4816896)
I0403 16:40:55.041901 21344 net.cpp:156] Memory required for data: 580437024
I0403 16:40:55.041915 21344 layer_factory.hpp:77] Creating layer inception_3a/output_inception_3a/output_0_split
I0403 16:40:55.041934 21344 net.cpp:91] Creating Layer inception_3a/output_inception_3a/output_0_split
I0403 16:40:55.041949 21344 net.cpp:425] inception_3a/output_inception_3a/output_0_split <- inception_3a/output
I0403 16:40:55.041970 21344 net.cpp:399] inception_3a/output_inception_3a/output_0_split -> inception_3a/output_inception_3a/output_0_split_0
I0403 16:40:55.041990 21344 net.cpp:399] inception_3a/output_inception_3a/output_0_split -> inception_3a/output_inception_3a/output_0_split_1
I0403 16:40:55.042016 21344 net.cpp:399] inception_3a/output_inception_3a/output_0_split -> inception_3a/output_inception_3a/output_0_split_2
I0403 16:40:55.042037 21344 net.cpp:399] inception_3a/output_inception_3a/output_0_split -> inception_3a/output_inception_3a/output_0_split_3
I0403 16:40:55.042124 21344 net.cpp:141] Setting up inception_3a/output_inception_3a/output_0_split
I0403 16:40:55.042147 21344 net.cpp:148] Top shape: 24 256 28 28 (4816896)
I0403 16:40:55.042166 21344 net.cpp:148] Top shape: 24 256 28 28 (4816896)
I0403 16:40:55.042183 21344 net.cpp:148] Top shape: 24 256 28 28 (4816896)
I0403 16:40:55.042199 21344 net.cpp:148] Top shape: 24 256 28 28 (4816896)
I0403 16:40:55.042213 21344 net.cpp:156] Memory required for data: 657507360
I0403 16:40:55.042228 21344 layer_factory.hpp:77] Creating layer inception_3b/1x1
I0403 16:40:55.042248 21344 net.cpp:91] Creating Layer inception_3b/1x1
I0403 16:40:55.042264 21344 net.cpp:425] inception_3b/1x1 <- inception_3a/output_inception_3a/output_0_split_0
I0403 16:40:55.042285 21344 net.cpp:399] inception_3b/1x1 -> inception_3b/1x1
I0403 16:40:55.043452 21344 net.cpp:141] Setting up inception_3b/1x1
I0403 16:40:55.043493 21344 net.cpp:148] Top shape: 24 128 28 28 (2408448)
I0403 16:40:55.043510 21344 net.cpp:156] Memory required for data: 667141152
I0403 16:40:55.043530 21344 layer_factory.hpp:77] Creating layer inception_3b/relu_1x1
I0403 16:40:55.043550 21344 net.cpp:91] Creating Layer inception_3b/relu_1x1
I0403 16:40:55.043567 21344 net.cpp:425] inception_3b/relu_1x1 <- inception_3b/1x1
I0403 16:40:55.043586 21344 net.cpp:386] inception_3b/relu_1x1 -> inception_3b/1x1 (in-place)
I0403 16:40:55.043773 21344 net.cpp:141] Setting up inception_3b/relu_1x1
I0403 16:40:55.043802 21344 net.cpp:148] Top shape: 24 128 28 28 (2408448)
I0403 16:40:55.043817 21344 net.cpp:156] Memory required for data: 676774944
I0403 16:40:55.043833 21344 layer_factory.hpp:77] Creating layer inception_3b/3x3_reduce
I0403 16:40:55.043856 21344 net.cpp:91] Creating Layer inception_3b/3x3_reduce
I0403 16:40:55.043874 21344 net.cpp:425] inception_3b/3x3_reduce <- inception_3a/output_inception_3a/output_0_split_1
I0403 16:40:55.043895 21344 net.cpp:399] inception_3b/3x3_reduce -> inception_3b/3x3_reduce
I0403 16:40:55.045054 21344 net.cpp:141] Setting up inception_3b/3x3_reduce
I0403 16:40:55.045084 21344 net.cpp:148] Top shape: 24 128 28 28 (2408448)
I0403 16:40:55.045101 21344 net.cpp:156] Memory required for data: 686408736
I0403 16:40:55.045121 21344 layer_factory.hpp:77] Creating layer inception_3b/relu_3x3_reduce
I0403 16:40:55.045143 21344 net.cpp:91] Creating Layer inception_3b/relu_3x3_reduce
I0403 16:40:55.045162 21344 net.cpp:425] inception_3b/relu_3x3_reduce <- inception_3b/3x3_reduce
I0403 16:40:55.045181 21344 net.cpp:386] inception_3b/relu_3x3_reduce -> inception_3b/3x3_reduce (in-place)
I0403 16:40:55.045359 21344 net.cpp:141] Setting up inception_3b/relu_3x3_reduce
I0403 16:40:55.045388 21344 net.cpp:148] Top shape: 24 128 28 28 (2408448)
I0403 16:40:55.045405 21344 net.cpp:156] Memory required for data: 696042528
I0403 16:40:55.045420 21344 layer_factory.hpp:77] Creating layer inception_3b/3x3
I0403 16:40:55.045445 21344 net.cpp:91] Creating Layer inception_3b/3x3
I0403 16:40:55.045466 21344 net.cpp:425] inception_3b/3x3 <- inception_3b/3x3_reduce
I0403 16:40:55.045490 21344 net.cpp:399] inception_3b/3x3 -> inception_3b/3x3
I0403 16:40:55.048475 21344 net.cpp:141] Setting up inception_3b/3x3
I0403 16:40:55.048508 21344 net.cpp:148] Top shape: 24 192 28 28 (3612672)
I0403 16:40:55.048527 21344 net.cpp:156] Memory required for data: 710493216
I0403 16:40:55.048547 21344 layer_factory.hpp:77] Creating layer inception_3b/relu_3x3
I0403 16:40:55.048565 21344 net.cpp:91] Creating Layer inception_3b/relu_3x3
I0403 16:40:55.048583 21344 net.cpp:425] inception_3b/relu_3x3 <- inception_3b/3x3
I0403 16:40:55.048602 21344 net.cpp:386] inception_3b/relu_3x3 -> inception_3b/3x3 (in-place)
I0403 16:40:55.048882 21344 net.cpp:141] Setting up inception_3b/relu_3x3
I0403 16:40:55.048913 21344 net.cpp:148] Top shape: 24 192 28 28 (3612672)
I0403 16:40:55.048931 21344 net.cpp:156] Memory required for data: 724943904
I0403 16:40:55.048948 21344 layer_factory.hpp:77] Creating layer inception_3b/5x5_reduce
I0403 16:40:55.048972 21344 net.cpp:91] Creating Layer inception_3b/5x5_reduce
I0403 16:40:55.048995 21344 net.cpp:425] inception_3b/5x5_reduce <- inception_3a/output_inception_3a/output_0_split_2
I0403 16:40:55.049016 21344 net.cpp:399] inception_3b/5x5_reduce -> inception_3b/5x5_reduce
I0403 16:40:55.050024 21344 net.cpp:141] Setting up inception_3b/5x5_reduce
I0403 16:40:55.050057 21344 net.cpp:148] Top shape: 24 32 28 28 (602112)
I0403 16:40:55.050077 21344 net.cpp:156] Memory required for data: 727352352
I0403 16:40:55.050101 21344 layer_factory.hpp:77] Creating layer inception_3b/relu_5x5_reduce
I0403 16:40:55.050122 21344 net.cpp:91] Creating Layer inception_3b/relu_5x5_reduce
I0403 16:40:55.050138 21344 net.cpp:425] inception_3b/relu_5x5_reduce <- inception_3b/5x5_reduce
I0403 16:40:55.050156 21344 net.cpp:386] inception_3b/relu_5x5_reduce -> inception_3b/5x5_reduce (in-place)
I0403 16:40:55.050361 21344 net.cpp:141] Setting up inception_3b/relu_5x5_reduce
I0403 16:40:55.050389 21344 net.cpp:148] Top shape: 24 32 28 28 (602112)
I0403 16:40:55.050403 21344 net.cpp:156] Memory required for data: 729760800
I0403 16:40:55.050420 21344 layer_factory.hpp:77] Creating layer inception_3b/5x5
I0403 16:40:55.050441 21344 net.cpp:91] Creating Layer inception_3b/5x5
I0403 16:40:55.050460 21344 net.cpp:425] inception_3b/5x5 <- inception_3b/5x5_reduce
I0403 16:40:55.050483 21344 net.cpp:399] inception_3b/5x5 -> inception_3b/5x5
I0403 16:40:55.052496 21344 net.cpp:141] Setting up inception_3b/5x5
I0403 16:40:55.052528 21344 net.cpp:148] Top shape: 24 96 28 28 (1806336)
I0403 16:40:55.052546 21344 net.cpp:156] Memory required for data: 736986144
I0403 16:40:55.052566 21344 layer_factory.hpp:77] Creating layer inception_3b/relu_5x5
I0403 16:40:55.052587 21344 net.cpp:91] Creating Layer inception_3b/relu_5x5
I0403 16:40:55.052605 21344 net.cpp:425] inception_3b/relu_5x5 <- inception_3b/5x5
I0403 16:40:55.052626 21344 net.cpp:386] inception_3b/relu_5x5 -> inception_3b/5x5 (in-place)
I0403 16:40:55.052824 21344 net.cpp:141] Setting up inception_3b/relu_5x5
I0403 16:40:55.052851 21344 net.cpp:148] Top shape: 24 96 28 28 (1806336)
I0403 16:40:55.052867 21344 net.cpp:156] Memory required for data: 744211488
I0403 16:40:55.052882 21344 layer_factory.hpp:77] Creating layer inception_3b/pool
I0403 16:40:55.052902 21344 net.cpp:91] Creating Layer inception_3b/pool
I0403 16:40:55.052919 21344 net.cpp:425] inception_3b/pool <- inception_3a/output_inception_3a/output_0_split_3
I0403 16:40:55.052939 21344 net.cpp:399] inception_3b/pool -> inception_3b/pool
I0403 16:40:55.052997 21344 net.cpp:141] Setting up inception_3b/pool
I0403 16:40:55.053021 21344 net.cpp:148] Top shape: 24 256 28 28 (4816896)
I0403 16:40:55.053037 21344 net.cpp:156] Memory required for data: 763479072
I0403 16:40:55.053057 21344 layer_factory.hpp:77] Creating layer inception_3b/pool_proj
I0403 16:40:55.053081 21344 net.cpp:91] Creating Layer inception_3b/pool_proj
I0403 16:40:55.053100 21344 net.cpp:425] inception_3b/pool_proj <- inception_3b/pool
I0403 16:40:55.053122 21344 net.cpp:399] inception_3b/pool_proj -> inception_3b/pool_proj
I0403 16:40:55.054208 21344 net.cpp:141] Setting up inception_3b/pool_proj
I0403 16:40:55.054237 21344 net.cpp:148] Top shape: 24 64 28 28 (1204224)
I0403 16:40:55.054255 21344 net.cpp:156] Memory required for data: 768295968
I0403 16:40:55.054276 21344 layer_factory.hpp:77] Creating layer inception_3b/relu_pool_proj
I0403 16:40:55.054296 21344 net.cpp:91] Creating Layer inception_3b/relu_pool_proj
I0403 16:40:55.054316 21344 net.cpp:425] inception_3b/relu_pool_proj <- inception_3b/pool_proj
I0403 16:40:55.054337 21344 net.cpp:386] inception_3b/relu_pool_proj -> inception_3b/pool_proj (in-place)
I0403 16:40:55.054764 21344 net.cpp:141] Setting up inception_3b/relu_pool_proj
I0403 16:40:55.054795 21344 net.cpp:148] Top shape: 24 64 28 28 (1204224)
I0403 16:40:55.054813 21344 net.cpp:156] Memory required for data: 773112864
I0403 16:40:55.054829 21344 layer_factory.hpp:77] Creating layer inception_3b/output
I0403 16:40:55.054849 21344 net.cpp:91] Creating Layer inception_3b/output
I0403 16:40:55.054867 21344 net.cpp:425] inception_3b/output <- inception_3b/1x1
I0403 16:40:55.054885 21344 net.cpp:425] inception_3b/output <- inception_3b/3x3
I0403 16:40:55.054903 21344 net.cpp:425] inception_3b/output <- inception_3b/5x5
I0403 16:40:55.054919 21344 net.cpp:425] inception_3b/output <- inception_3b/pool_proj
I0403 16:40:55.054939 21344 net.cpp:399] inception_3b/output -> inception_3b/output
I0403 16:40:55.054985 21344 net.cpp:141] Setting up inception_3b/output
I0403 16:40:55.055009 21344 net.cpp:148] Top shape: 24 480 28 28 (9031680)
I0403 16:40:55.055025 21344 net.cpp:156] Memory required for data: 809239584
I0403 16:40:55.055040 21344 layer_factory.hpp:77] Creating layer pool3/3x3_s2
I0403 16:40:55.055066 21344 net.cpp:91] Creating Layer pool3/3x3_s2
I0403 16:40:55.055085 21344 net.cpp:425] pool3/3x3_s2 <- inception_3b/output
I0403 16:40:55.055120 21344 net.cpp:399] pool3/3x3_s2 -> pool3/3x3_s2
I0403 16:40:55.055182 21344 net.cpp:141] Setting up pool3/3x3_s2
I0403 16:40:55.055207 21344 net.cpp:148] Top shape: 24 480 14 14 (2257920)
I0403 16:40:55.055222 21344 net.cpp:156] Memory required for data: 818271264
I0403 16:40:55.055238 21344 layer_factory.hpp:77] Creating layer pool3/3x3_s2_pool3/3x3_s2_0_split
I0403 16:40:55.055256 21344 net.cpp:91] Creating Layer pool3/3x3_s2_pool3/3x3_s2_0_split
I0403 16:40:55.055274 21344 net.cpp:425] pool3/3x3_s2_pool3/3x3_s2_0_split <- pool3/3x3_s2
I0403 16:40:55.055294 21344 net.cpp:399] pool3/3x3_s2_pool3/3x3_s2_0_split -> pool3/3x3_s2_pool3/3x3_s2_0_split_0
I0403 16:40:55.055313 21344 net.cpp:399] pool3/3x3_s2_pool3/3x3_s2_0_split -> pool3/3x3_s2_pool3/3x3_s2_0_split_1
I0403 16:40:55.055333 21344 net.cpp:399] pool3/3x3_s2_pool3/3x3_s2_0_split -> pool3/3x3_s2_pool3/3x3_s2_0_split_2
I0403 16:40:55.055353 21344 net.cpp:399] pool3/3x3_s2_pool3/3x3_s2_0_split -> pool3/3x3_s2_pool3/3x3_s2_0_split_3
I0403 16:40:55.055433 21344 net.cpp:141] Setting up pool3/3x3_s2_pool3/3x3_s2_0_split
I0403 16:40:55.055456 21344 net.cpp:148] Top shape: 24 480 14 14 (2257920)
I0403 16:40:55.055474 21344 net.cpp:148] Top shape: 24 480 14 14 (2257920)
I0403 16:40:55.055490 21344 net.cpp:148] Top shape: 24 480 14 14 (2257920)
I0403 16:40:55.055505 21344 net.cpp:148] Top shape: 24 480 14 14 (2257920)
I0403 16:40:55.055521 21344 net.cpp:156] Memory required for data: 854397984
I0403 16:40:55.055536 21344 layer_factory.hpp:77] Creating layer inception_4a/1x1
I0403 16:40:55.055559 21344 net.cpp:91] Creating Layer inception_4a/1x1
I0403 16:40:55.055577 21344 net.cpp:425] inception_4a/1x1 <- pool3/3x3_s2_pool3/3x3_s2_0_split_0
I0403 16:40:55.055598 21344 net.cpp:399] inception_4a/1x1 -> inception_4a/1x1
I0403 16:40:55.057209 21344 net.cpp:141] Setting up inception_4a/1x1
I0403 16:40:55.057238 21344 net.cpp:148] Top shape: 24 192 14 14 (903168)
I0403 16:40:55.057255 21344 net.cpp:156] Memory required for data: 858010656
I0403 16:40:55.057276 21344 layer_factory.hpp:77] Creating layer inception_4a/relu_1x1
I0403 16:40:55.057296 21344 net.cpp:91] Creating Layer inception_4a/relu_1x1
I0403 16:40:55.057312 21344 net.cpp:425] inception_4a/relu_1x1 <- inception_4a/1x1
I0403 16:40:55.057332 21344 net.cpp:386] inception_4a/relu_1x1 -> inception_4a/1x1 (in-place)
I0403 16:40:55.057514 21344 net.cpp:141] Setting up inception_4a/relu_1x1
I0403 16:40:55.057543 21344 net.cpp:148] Top shape: 24 192 14 14 (903168)
I0403 16:40:55.057571 21344 net.cpp:156] Memory required for data: 861623328
I0403 16:40:55.057588 21344 layer_factory.hpp:77] Creating layer inception_4a/3x3_reduce
I0403 16:40:55.057613 21344 net.cpp:91] Creating Layer inception_4a/3x3_reduce
I0403 16:40:55.057631 21344 net.cpp:425] inception_4a/3x3_reduce <- pool3/3x3_s2_pool3/3x3_s2_0_split_1
I0403 16:40:55.057654 21344 net.cpp:399] inception_4a/3x3_reduce -> inception_4a/3x3_reduce
I0403 16:40:55.059011 21344 net.cpp:141] Setting up inception_4a/3x3_reduce
I0403 16:40:55.059041 21344 net.cpp:148] Top shape: 24 96 14 14 (451584)
I0403 16:40:55.059063 21344 net.cpp:156] Memory required for data: 863429664
I0403 16:40:55.059090 21344 layer_factory.hpp:77] Creating layer inception_4a/relu_3x3_reduce
I0403 16:40:55.059113 21344 net.cpp:91] Creating Layer inception_4a/relu_3x3_reduce
I0403 16:40:55.059128 21344 net.cpp:425] inception_4a/relu_3x3_reduce <- inception_4a/3x3_reduce
I0403 16:40:55.059149 21344 net.cpp:386] inception_4a/relu_3x3_reduce -> inception_4a/3x3_reduce (in-place)
I0403 16:40:55.059329 21344 net.cpp:141] Setting up inception_4a/relu_3x3_reduce
I0403 16:40:55.059355 21344 net.cpp:148] Top shape: 24 96 14 14 (451584)
I0403 16:40:55.059370 21344 net.cpp:156] Memory required for data: 865236000
I0403 16:40:55.059386 21344 layer_factory.hpp:77] Creating layer inception_4a/3x3
I0403 16:40:55.059408 21344 net.cpp:91] Creating Layer inception_4a/3x3
I0403 16:40:55.059427 21344 net.cpp:425] inception_4a/3x3 <- inception_4a/3x3_reduce
I0403 16:40:55.059448 21344 net.cpp:399] inception_4a/3x3 -> inception_4a/3x3
I0403 16:40:55.062165 21344 net.cpp:141] Setting up inception_4a/3x3
I0403 16:40:55.062196 21344 net.cpp:148] Top shape: 24 208 14 14 (978432)
I0403 16:40:55.062213 21344 net.cpp:156] Memory required for data: 869149728
I0403 16:40:55.062232 21344 layer_factory.hpp:77] Creating layer inception_4a/relu_3x3
I0403 16:40:55.062254 21344 net.cpp:91] Creating Layer inception_4a/relu_3x3
I0403 16:40:55.062273 21344 net.cpp:425] inception_4a/relu_3x3 <- inception_4a/3x3
I0403 16:40:55.062291 21344 net.cpp:386] inception_4a/relu_3x3 -> inception_4a/3x3 (in-place)
I0403 16:40:55.062577 21344 net.cpp:141] Setting up inception_4a/relu_3x3
I0403 16:40:55.062605 21344 net.cpp:148] Top shape: 24 208 14 14 (978432)
I0403 16:40:55.062621 21344 net.cpp:156] Memory required for data: 873063456
I0403 16:40:55.062638 21344 layer_factory.hpp:77] Creating layer inception_4a/5x5_reduce
I0403 16:40:55.062662 21344 net.cpp:91] Creating Layer inception_4a/5x5_reduce
I0403 16:40:55.062683 21344 net.cpp:425] inception_4a/5x5_reduce <- pool3/3x3_s2_pool3/3x3_s2_0_split_2
I0403 16:40:55.062703 21344 net.cpp:399] inception_4a/5x5_reduce -> inception_4a/5x5_reduce
I0403 16:40:55.063745 21344 net.cpp:141] Setting up inception_4a/5x5_reduce
I0403 16:40:55.063773 21344 net.cpp:148] Top shape: 24 16 14 14 (75264)
I0403 16:40:55.063791 21344 net.cpp:156] Memory required for data: 873364512
I0403 16:40:55.063809 21344 layer_factory.hpp:77] Creating layer inception_4a/relu_5x5_reduce
I0403 16:40:55.063832 21344 net.cpp:91] Creating Layer inception_4a/relu_5x5_reduce
I0403 16:40:55.063849 21344 net.cpp:425] inception_4a/relu_5x5_reduce <- inception_4a/5x5_reduce
I0403 16:40:55.063869 21344 net.cpp:386] inception_4a/relu_5x5_reduce -> inception_4a/5x5_reduce (in-place)
I0403 16:40:55.064054 21344 net.cpp:141] Setting up inception_4a/relu_5x5_reduce
I0403 16:40:55.064081 21344 net.cpp:148] Top shape: 24 16 14 14 (75264)
I0403 16:40:55.064097 21344 net.cpp:156] Memory required for data: 873665568
I0403 16:40:55.064113 21344 layer_factory.hpp:77] Creating layer inception_4a/5x5
I0403 16:40:55.064137 21344 net.cpp:91] Creating Layer inception_4a/5x5
I0403 16:40:55.064157 21344 net.cpp:425] inception_4a/5x5 <- inception_4a/5x5_reduce
I0403 16:40:55.064179 21344 net.cpp:399] inception_4a/5x5 -> inception_4a/5x5
I0403 16:40:55.065284 21344 net.cpp:141] Setting up inception_4a/5x5
I0403 16:40:55.065316 21344 net.cpp:148] Top shape: 24 48 14 14 (225792)
I0403 16:40:55.065335 21344 net.cpp:156] Memory required for data: 874568736
I0403 16:40:55.065356 21344 layer_factory.hpp:77] Creating layer inception_4a/relu_5x5
I0403 16:40:55.065374 21344 net.cpp:91] Creating Layer inception_4a/relu_5x5
I0403 16:40:55.065392 21344 net.cpp:425] inception_4a/relu_5x5 <- inception_4a/5x5
I0403 16:40:55.065412 21344 net.cpp:386] inception_4a/relu_5x5 -> inception_4a/5x5 (in-place)
I0403 16:40:55.065596 21344 net.cpp:141] Setting up inception_4a/relu_5x5
I0403 16:40:55.065621 21344 net.cpp:148] Top shape: 24 48 14 14 (225792)
I0403 16:40:55.065637 21344 net.cpp:156] Memory required for data: 875471904
I0403 16:40:55.065652 21344 layer_factory.hpp:77] Creating layer inception_4a/pool
I0403 16:40:55.065673 21344 net.cpp:91] Creating Layer inception_4a/pool
I0403 16:40:55.065690 21344 net.cpp:425] inception_4a/pool <- pool3/3x3_s2_pool3/3x3_s2_0_split_3
I0403 16:40:55.065709 21344 net.cpp:399] inception_4a/pool -> inception_4a/pool
I0403 16:40:55.065774 21344 net.cpp:141] Setting up inception_4a/pool
I0403 16:40:55.065798 21344 net.cpp:148] Top shape: 24 480 14 14 (2257920)
I0403 16:40:55.065814 21344 net.cpp:156] Memory required for data: 884503584
I0403 16:40:55.065829 21344 layer_factory.hpp:77] Creating layer inception_4a/pool_proj
I0403 16:40:55.065851 21344 net.cpp:91] Creating Layer inception_4a/pool_proj
I0403 16:40:55.065871 21344 net.cpp:425] inception_4a/pool_proj <- inception_4a/pool
I0403 16:40:55.065891 21344 net.cpp:399] inception_4a/pool_proj -> inception_4a/pool_proj
I0403 16:40:55.067111 21344 net.cpp:141] Setting up inception_4a/pool_proj
I0403 16:40:55.067140 21344 net.cpp:148] Top shape: 24 64 14 14 (301056)
I0403 16:40:55.067174 21344 net.cpp:156] Memory required for data: 885707808
I0403 16:40:55.067194 21344 layer_factory.hpp:77] Creating layer inception_4a/relu_pool_proj
I0403 16:40:55.067216 21344 net.cpp:91] Creating Layer inception_4a/relu_pool_proj
I0403 16:40:55.067234 21344 net.cpp:425] inception_4a/relu_pool_proj <- inception_4a/pool_proj
I0403 16:40:55.067251 21344 net.cpp:386] inception_4a/relu_pool_proj -> inception_4a/pool_proj (in-place)
I0403 16:40:55.067545 21344 net.cpp:141] Setting up inception_4a/relu_pool_proj
I0403 16:40:55.067572 21344 net.cpp:148] Top shape: 24 64 14 14 (301056)
I0403 16:40:55.067589 21344 net.cpp:156] Memory required for data: 886912032
I0403 16:40:55.067605 21344 layer_factory.hpp:77] Creating layer inception_4a/output
I0403 16:40:55.067622 21344 net.cpp:91] Creating Layer inception_4a/output
I0403 16:40:55.067638 21344 net.cpp:425] inception_4a/output <- inception_4a/1x1
I0403 16:40:55.067656 21344 net.cpp:425] inception_4a/output <- inception_4a/3x3
I0403 16:40:55.067672 21344 net.cpp:425] inception_4a/output <- inception_4a/5x5
I0403 16:40:55.067688 21344 net.cpp:425] inception_4a/output <- inception_4a/pool_proj
I0403 16:40:55.067708 21344 net.cpp:399] inception_4a/output -> inception_4a/output
I0403 16:40:55.067754 21344 net.cpp:141] Setting up inception_4a/output
I0403 16:40:55.067780 21344 net.cpp:148] Top shape: 24 512 14 14 (2408448)
I0403 16:40:55.067796 21344 net.cpp:156] Memory required for data: 896545824
I0403 16:40:55.067811 21344 layer_factory.hpp:77] Creating layer inception_4a/output_inception_4a/output_0_split
I0403 16:40:55.067831 21344 net.cpp:91] Creating Layer inception_4a/output_inception_4a/output_0_split
I0403 16:40:55.067847 21344 net.cpp:425] inception_4a/output_inception_4a/output_0_split <- inception_4a/output
I0403 16:40:55.067867 21344 net.cpp:399] inception_4a/output_inception_4a/output_0_split -> inception_4a/output_inception_4a/output_0_split_0
I0403 16:40:55.067889 21344 net.cpp:399] inception_4a/output_inception_4a/output_0_split -> inception_4a/output_inception_4a/output_0_split_1
I0403 16:40:55.067910 21344 net.cpp:399] inception_4a/output_inception_4a/output_0_split -> inception_4a/output_inception_4a/output_0_split_2
I0403 16:40:55.067931 21344 net.cpp:399] inception_4a/output_inception_4a/output_0_split -> inception_4a/output_inception_4a/output_0_split_3
I0403 16:40:55.067951 21344 net.cpp:399] inception_4a/output_inception_4a/output_0_split -> inception_4a/output_inception_4a/output_0_split_4
I0403 16:40:55.068056 21344 net.cpp:141] Setting up inception_4a/output_inception_4a/output_0_split
I0403 16:40:55.068083 21344 net.cpp:148] Top shape: 24 512 14 14 (2408448)
I0403 16:40:55.068100 21344 net.cpp:148] Top shape: 24 512 14 14 (2408448)
I0403 16:40:55.068116 21344 net.cpp:148] Top shape: 24 512 14 14 (2408448)
I0403 16:40:55.068132 21344 net.cpp:148] Top shape: 24 512 14 14 (2408448)
I0403 16:40:55.068147 21344 net.cpp:148] Top shape: 24 512 14 14 (2408448)
I0403 16:40:55.068162 21344 net.cpp:156] Memory required for data: 944714784
I0403 16:40:55.068177 21344 layer_factory.hpp:77] Creating layer loss1/ave_pool
I0403 16:40:55.068198 21344 net.cpp:91] Creating Layer loss1/ave_pool
I0403 16:40:55.068217 21344 net.cpp:425] loss1/ave_pool <- inception_4a/output_inception_4a/output_0_split_0
I0403 16:40:55.068236 21344 net.cpp:399] loss1/ave_pool -> loss1/ave_pool
I0403 16:40:55.068449 21344 net.cpp:141] Setting up loss1/ave_pool
I0403 16:40:55.068476 21344 net.cpp:148] Top shape: 24 512 4 4 (196608)
I0403 16:40:55.068491 21344 net.cpp:156] Memory required for data: 945501216
I0403 16:40:55.068507 21344 layer_factory.hpp:77] Creating layer loss1/conv
I0403 16:40:55.068532 21344 net.cpp:91] Creating Layer loss1/conv
I0403 16:40:55.068552 21344 net.cpp:425] loss1/conv <- loss1/ave_pool
I0403 16:40:55.068573 21344 net.cpp:399] loss1/conv -> loss1/conv
I0403 16:40:55.070024 21344 net.cpp:141] Setting up loss1/conv
I0403 16:40:55.070060 21344 net.cpp:148] Top shape: 24 128 4 4 (49152)
I0403 16:40:55.070092 21344 net.cpp:156] Memory required for data: 945697824
I0403 16:40:55.070113 21344 layer_factory.hpp:77] Creating layer loss1/relu_conv
I0403 16:40:55.070137 21344 net.cpp:91] Creating Layer loss1/relu_conv
I0403 16:40:55.070155 21344 net.cpp:425] loss1/relu_conv <- loss1/conv
I0403 16:40:55.070174 21344 net.cpp:386] loss1/relu_conv -> loss1/conv (in-place)
I0403 16:40:55.070461 21344 net.cpp:141] Setting up loss1/relu_conv
I0403 16:40:55.070488 21344 net.cpp:148] Top shape: 24 128 4 4 (49152)
I0403 16:40:55.070505 21344 net.cpp:156] Memory required for data: 945894432
I0403 16:40:55.070523 21344 layer_factory.hpp:77] Creating layer loss1/fc
I0403 16:40:55.070549 21344 net.cpp:91] Creating Layer loss1/fc
I0403 16:40:55.070569 21344 net.cpp:425] loss1/fc <- loss1/conv
I0403 16:40:55.070592 21344 net.cpp:399] loss1/fc -> loss1/fc
I0403 16:40:55.088812 21344 net.cpp:141] Setting up loss1/fc
I0403 16:40:55.088853 21344 net.cpp:148] Top shape: 24 1024 (24576)
I0403 16:40:55.088871 21344 net.cpp:156] Memory required for data: 945992736
I0403 16:40:55.088892 21344 layer_factory.hpp:77] Creating layer loss1/relu_fc
I0403 16:40:55.088913 21344 net.cpp:91] Creating Layer loss1/relu_fc
I0403 16:40:55.088932 21344 net.cpp:425] loss1/relu_fc <- loss1/fc
I0403 16:40:55.088954 21344 net.cpp:386] loss1/relu_fc -> loss1/fc (in-place)
I0403 16:40:55.089189 21344 net.cpp:141] Setting up loss1/relu_fc
I0403 16:40:55.089215 21344 net.cpp:148] Top shape: 24 1024 (24576)
I0403 16:40:55.089234 21344 net.cpp:156] Memory required for data: 946091040
I0403 16:40:55.089251 21344 layer_factory.hpp:77] Creating layer loss1/drop_fc
I0403 16:40:55.089288 21344 net.cpp:91] Creating Layer loss1/drop_fc
I0403 16:40:55.089308 21344 net.cpp:425] loss1/drop_fc <- loss1/fc
I0403 16:40:55.089326 21344 net.cpp:386] loss1/drop_fc -> loss1/fc (in-place)
I0403 16:40:55.089388 21344 net.cpp:141] Setting up loss1/drop_fc
I0403 16:40:55.089413 21344 net.cpp:148] Top shape: 24 1024 (24576)
I0403 16:40:55.089429 21344 net.cpp:156] Memory required for data: 946189344
I0403 16:40:55.089445 21344 layer_factory.hpp:77] Creating layer loss1/classifier_plantvillage
I0403 16:40:55.089467 21344 net.cpp:91] Creating Layer loss1/classifier_plantvillage
I0403 16:40:55.089483 21344 net.cpp:425] loss1/classifier_plantvillage <- loss1/fc
I0403 16:40:55.089506 21344 net.cpp:399] loss1/classifier_plantvillage -> loss1/classifier_plantvillage
I0403 16:40:55.090481 21344 net.cpp:141] Setting up loss1/classifier_plantvillage
I0403 16:40:55.090509 21344 net.cpp:148] Top shape: 24 38 (912)
I0403 16:40:55.090525 21344 net.cpp:156] Memory required for data: 946192992
I0403 16:40:55.090544 21344 layer_factory.hpp:77] Creating layer loss1/classifier_plantvillage_loss1/classifier_plantvillage_0_split
I0403 16:40:55.090565 21344 net.cpp:91] Creating Layer loss1/classifier_plantvillage_loss1/classifier_plantvillage_0_split
I0403 16:40:55.090582 21344 net.cpp:425] loss1/classifier_plantvillage_loss1/classifier_plantvillage_0_split <- loss1/classifier_plantvillage
I0403 16:40:55.090600 21344 net.cpp:399] loss1/classifier_plantvillage_loss1/classifier_plantvillage_0_split -> loss1/classifier_plantvillage_loss1/classifier_plantvillage_0_split_0
I0403 16:40:55.090620 21344 net.cpp:399] loss1/classifier_plantvillage_loss1/classifier_plantvillage_0_split -> loss1/classifier_plantvillage_loss1/classifier_plantvillage_0_split_1
I0403 16:40:55.090641 21344 net.cpp:399] loss1/classifier_plantvillage_loss1/classifier_plantvillage_0_split -> loss1/classifier_plantvillage_loss1/classifier_plantvillage_0_split_2
I0403 16:40:55.090708 21344 net.cpp:141] Setting up loss1/classifier_plantvillage_loss1/classifier_plantvillage_0_split
I0403 16:40:55.090733 21344 net.cpp:148] Top shape: 24 38 (912)
I0403 16:40:55.090749 21344 net.cpp:148] Top shape: 24 38 (912)
I0403 16:40:55.090764 21344 net.cpp:148] Top shape: 24 38 (912)
I0403 16:40:55.090778 21344 net.cpp:156] Memory required for data: 946203936
I0403 16:40:55.090793 21344 layer_factory.hpp:77] Creating layer inception_4b/1x1
I0403 16:40:55.090816 21344 net.cpp:91] Creating Layer inception_4b/1x1
I0403 16:40:55.090853 21344 net.cpp:425] inception_4b/1x1 <- inception_4a/output_inception_4a/output_0_split_1
I0403 16:40:55.090873 21344 net.cpp:399] inception_4b/1x1 -> inception_4b/1x1
I0403 16:40:55.092551 21344 net.cpp:141] Setting up inception_4b/1x1
I0403 16:40:55.092582 21344 net.cpp:148] Top shape: 24 160 14 14 (752640)
I0403 16:40:55.092598 21344 net.cpp:156] Memory required for data: 949214496
I0403 16:40:55.092617 21344 layer_factory.hpp:77] Creating layer inception_4b/relu_1x1
I0403 16:40:55.092638 21344 net.cpp:91] Creating Layer inception_4b/relu_1x1
I0403 16:40:55.092658 21344 net.cpp:425] inception_4b/relu_1x1 <- inception_4b/1x1
I0403 16:40:55.092675 21344 net.cpp:386] inception_4b/relu_1x1 -> inception_4b/1x1 (in-place)
I0403 16:40:55.092859 21344 net.cpp:141] Setting up inception_4b/relu_1x1
I0403 16:40:55.092885 21344 net.cpp:148] Top shape: 24 160 14 14 (752640)
I0403 16:40:55.092900 21344 net.cpp:156] Memory required for data: 952225056
I0403 16:40:55.092914 21344 layer_factory.hpp:77] Creating layer inception_4b/3x3_reduce
I0403 16:40:55.092939 21344 net.cpp:91] Creating Layer inception_4b/3x3_reduce
I0403 16:40:55.092958 21344 net.cpp:425] inception_4b/3x3_reduce <- inception_4a/output_inception_4a/output_0_split_2
I0403 16:40:55.092979 21344 net.cpp:399] inception_4b/3x3_reduce -> inception_4b/3x3_reduce
I0403 16:40:55.094352 21344 net.cpp:141] Setting up inception_4b/3x3_reduce
I0403 16:40:55.094383 21344 net.cpp:148] Top shape: 24 112 14 14 (526848)
I0403 16:40:55.094399 21344 net.cpp:156] Memory required for data: 954332448
I0403 16:40:55.094419 21344 layer_factory.hpp:77] Creating layer inception_4b/relu_3x3_reduce
I0403 16:40:55.094437 21344 net.cpp:91] Creating Layer inception_4b/relu_3x3_reduce
I0403 16:40:55.094455 21344 net.cpp:425] inception_4b/relu_3x3_reduce <- inception_4b/3x3_reduce
I0403 16:40:55.094475 21344 net.cpp:386] inception_4b/relu_3x3_reduce -> inception_4b/3x3_reduce (in-place)
I0403 16:40:55.094756 21344 net.cpp:141] Setting up inception_4b/relu_3x3_reduce
I0403 16:40:55.094786 21344 net.cpp:148] Top shape: 24 112 14 14 (526848)
I0403 16:40:55.094802 21344 net.cpp:156] Memory required for data: 956439840
I0403 16:40:55.094817 21344 layer_factory.hpp:77] Creating layer inception_4b/3x3
I0403 16:40:55.094841 21344 net.cpp:91] Creating Layer inception_4b/3x3
I0403 16:40:55.094858 21344 net.cpp:425] inception_4b/3x3 <- inception_4b/3x3_reduce
I0403 16:40:55.094880 21344 net.cpp:399] inception_4b/3x3 -> inception_4b/3x3
I0403 16:40:55.097885 21344 net.cpp:141] Setting up inception_4b/3x3
I0403 16:40:55.097914 21344 net.cpp:148] Top shape: 24 224 14 14 (1053696)
I0403 16:40:55.097931 21344 net.cpp:156] Memory required for data: 960654624
I0403 16:40:55.097950 21344 layer_factory.hpp:77] Creating layer inception_4b/relu_3x3
I0403 16:40:55.097972 21344 net.cpp:91] Creating Layer inception_4b/relu_3x3
I0403 16:40:55.097995 21344 net.cpp:425] inception_4b/relu_3x3 <- inception_4b/3x3
I0403 16:40:55.098013 21344 net.cpp:386] inception_4b/relu_3x3 -> inception_4b/3x3 (in-place)
I0403 16:40:55.098217 21344 net.cpp:141] Setting up inception_4b/relu_3x3
I0403 16:40:55.098244 21344 net.cpp:148] Top shape: 24 224 14 14 (1053696)
I0403 16:40:55.098260 21344 net.cpp:156] Memory required for data: 964869408
I0403 16:40:55.098275 21344 layer_factory.hpp:77] Creating layer inception_4b/5x5_reduce
I0403 16:40:55.098295 21344 net.cpp:91] Creating Layer inception_4b/5x5_reduce
I0403 16:40:55.098314 21344 net.cpp:425] inception_4b/5x5_reduce <- inception_4a/output_inception_4a/output_0_split_3
I0403 16:40:55.098335 21344 net.cpp:399] inception_4b/5x5_reduce -> inception_4b/5x5_reduce
I0403 16:40:55.099442 21344 net.cpp:141] Setting up inception_4b/5x5_reduce
I0403 16:40:55.099473 21344 net.cpp:148] Top shape: 24 24 14 14 (112896)
I0403 16:40:55.099489 21344 net.cpp:156] Memory required for data: 965320992
I0403 16:40:55.099510 21344 layer_factory.hpp:77] Creating layer inception_4b/relu_5x5_reduce
I0403 16:40:55.099529 21344 net.cpp:91] Creating Layer inception_4b/relu_5x5_reduce
I0403 16:40:55.099560 21344 net.cpp:425] inception_4b/relu_5x5_reduce <- inception_4b/5x5_reduce
I0403 16:40:55.099578 21344 net.cpp:386] inception_4b/relu_5x5_reduce -> inception_4b/5x5_reduce (in-place)
I0403 16:40:55.099764 21344 net.cpp:141] Setting up inception_4b/relu_5x5_reduce
I0403 16:40:55.099789 21344 net.cpp:148] Top shape: 24 24 14 14 (112896)
I0403 16:40:55.099804 21344 net.cpp:156] Memory required for data: 965772576
I0403 16:40:55.099820 21344 layer_factory.hpp:77] Creating layer inception_4b/5x5
I0403 16:40:55.099843 21344 net.cpp:91] Creating Layer inception_4b/5x5
I0403 16:40:55.099859 21344 net.cpp:425] inception_4b/5x5 <- inception_4b/5x5_reduce
I0403 16:40:55.099881 21344 net.cpp:399] inception_4b/5x5 -> inception_4b/5x5
I0403 16:40:55.101116 21344 net.cpp:141] Setting up inception_4b/5x5
I0403 16:40:55.101145 21344 net.cpp:148] Top shape: 24 64 14 14 (301056)
I0403 16:40:55.101161 21344 net.cpp:156] Memory required for data: 966976800
I0403 16:40:55.101181 21344 layer_factory.hpp:77] Creating layer inception_4b/relu_5x5
I0403 16:40:55.101202 21344 net.cpp:91] Creating Layer inception_4b/relu_5x5
I0403 16:40:55.101222 21344 net.cpp:425] inception_4b/relu_5x5 <- inception_4b/5x5
I0403 16:40:55.101239 21344 net.cpp:386] inception_4b/relu_5x5 -> inception_4b/5x5 (in-place)
I0403 16:40:55.101527 21344 net.cpp:141] Setting up inception_4b/relu_5x5
I0403 16:40:55.101554 21344 net.cpp:148] Top shape: 24 64 14 14 (301056)
I0403 16:40:55.101572 21344 net.cpp:156] Memory required for data: 968181024
I0403 16:40:55.101588 21344 layer_factory.hpp:77] Creating layer inception_4b/pool
I0403 16:40:55.101609 21344 net.cpp:91] Creating Layer inception_4b/pool
I0403 16:40:55.101629 21344 net.cpp:425] inception_4b/pool <- inception_4a/output_inception_4a/output_0_split_4
I0403 16:40:55.101649 21344 net.cpp:399] inception_4b/pool -> inception_4b/pool
I0403 16:40:55.101713 21344 net.cpp:141] Setting up inception_4b/pool
I0403 16:40:55.101738 21344 net.cpp:148] Top shape: 24 512 14 14 (2408448)
I0403 16:40:55.101753 21344 net.cpp:156] Memory required for data: 977814816
I0403 16:40:55.101768 21344 layer_factory.hpp:77] Creating layer inception_4b/pool_proj
I0403 16:40:55.101790 21344 net.cpp:91] Creating Layer inception_4b/pool_proj
I0403 16:40:55.101807 21344 net.cpp:425] inception_4b/pool_proj <- inception_4b/pool
I0403 16:40:55.101830 21344 net.cpp:399] inception_4b/pool_proj -> inception_4b/pool_proj
I0403 16:40:55.103044 21344 net.cpp:141] Setting up inception_4b/pool_proj
I0403 16:40:55.103077 21344 net.cpp:148] Top shape: 24 64 14 14 (301056)
I0403 16:40:55.103094 21344 net.cpp:156] Memory required for data: 979019040
I0403 16:40:55.103113 21344 layer_factory.hpp:77] Creating layer inception_4b/relu_pool_proj
I0403 16:40:55.103132 21344 net.cpp:91] Creating Layer inception_4b/relu_pool_proj
I0403 16:40:55.103148 21344 net.cpp:425] inception_4b/relu_pool_proj <- inception_4b/pool_proj
I0403 16:40:55.103168 21344 net.cpp:386] inception_4b/relu_pool_proj -> inception_4b/pool_proj (in-place)
I0403 16:40:55.103350 21344 net.cpp:141] Setting up inception_4b/relu_pool_proj
I0403 16:40:55.103375 21344 net.cpp:148] Top shape: 24 64 14 14 (301056)
I0403 16:40:55.103390 21344 net.cpp:156] Memory required for data: 980223264
I0403 16:40:55.103405 21344 layer_factory.hpp:77] Creating layer inception_4b/output
I0403 16:40:55.103423 21344 net.cpp:91] Creating Layer inception_4b/output
I0403 16:40:55.103440 21344 net.cpp:425] inception_4b/output <- inception_4b/1x1
I0403 16:40:55.103457 21344 net.cpp:425] inception_4b/output <- inception_4b/3x3
I0403 16:40:55.103473 21344 net.cpp:425] inception_4b/output <- inception_4b/5x5
I0403 16:40:55.103489 21344 net.cpp:425] inception_4b/output <- inception_4b/pool_proj
I0403 16:40:55.103508 21344 net.cpp:399] inception_4b/output -> inception_4b/output
I0403 16:40:55.103554 21344 net.cpp:141] Setting up inception_4b/output
I0403 16:40:55.103580 21344 net.cpp:148] Top shape: 24 512 14 14 (2408448)
I0403 16:40:55.103596 21344 net.cpp:156] Memory required for data: 989857056
I0403 16:40:55.103626 21344 layer_factory.hpp:77] Creating layer inception_4b/output_inception_4b/output_0_split
I0403 16:40:55.103644 21344 net.cpp:91] Creating Layer inception_4b/output_inception_4b/output_0_split
I0403 16:40:55.103660 21344 net.cpp:425] inception_4b/output_inception_4b/output_0_split <- inception_4b/output
I0403 16:40:55.103677 21344 net.cpp:399] inception_4b/output_inception_4b/output_0_split -> inception_4b/output_inception_4b/output_0_split_0
I0403 16:40:55.103698 21344 net.cpp:399] inception_4b/output_inception_4b/output_0_split -> inception_4b/output_inception_4b/output_0_split_1
I0403 16:40:55.103720 21344 net.cpp:399] inception_4b/output_inception_4b/output_0_split -> inception_4b/output_inception_4b/output_0_split_2
I0403 16:40:55.103744 21344 net.cpp:399] inception_4b/output_inception_4b/output_0_split -> inception_4b/output_inception_4b/output_0_split_3
I0403 16:40:55.103827 21344 net.cpp:141] Setting up inception_4b/output_inception_4b/output_0_split
I0403 16:40:55.103852 21344 net.cpp:148] Top shape: 24 512 14 14 (2408448)
I0403 16:40:55.103868 21344 net.cpp:148] Top shape: 24 512 14 14 (2408448)
I0403 16:40:55.103883 21344 net.cpp:148] Top shape: 24 512 14 14 (2408448)
I0403 16:40:55.103899 21344 net.cpp:148] Top shape: 24 512 14 14 (2408448)
I0403 16:40:55.103914 21344 net.cpp:156] Memory required for data: 1028392224
I0403 16:40:55.103929 21344 layer_factory.hpp:77] Creating layer inception_4c/1x1
I0403 16:40:55.103951 21344 net.cpp:91] Creating Layer inception_4c/1x1
I0403 16:40:55.103970 21344 net.cpp:425] inception_4c/1x1 <- inception_4b/output_inception_4b/output_0_split_0
I0403 16:40:55.103991 21344 net.cpp:399] inception_4c/1x1 -> inception_4c/1x1
I0403 16:40:55.105432 21344 net.cpp:141] Setting up inception_4c/1x1
I0403 16:40:55.105461 21344 net.cpp:148] Top shape: 24 128 14 14 (602112)
I0403 16:40:55.105479 21344 net.cpp:156] Memory required for data: 1030800672
I0403 16:40:55.105497 21344 layer_factory.hpp:77] Creating layer inception_4c/relu_1x1
I0403 16:40:55.105517 21344 net.cpp:91] Creating Layer inception_4c/relu_1x1
I0403 16:40:55.105535 21344 net.cpp:425] inception_4c/relu_1x1 <- inception_4c/1x1
I0403 16:40:55.105556 21344 net.cpp:386] inception_4c/relu_1x1 -> inception_4c/1x1 (in-place)
I0403 16:40:55.105738 21344 net.cpp:141] Setting up inception_4c/relu_1x1
I0403 16:40:55.105765 21344 net.cpp:148] Top shape: 24 128 14 14 (602112)
I0403 16:40:55.105780 21344 net.cpp:156] Memory required for data: 1033209120
I0403 16:40:55.105797 21344 layer_factory.hpp:77] Creating layer inception_4c/3x3_reduce
I0403 16:40:55.105819 21344 net.cpp:91] Creating Layer inception_4c/3x3_reduce
I0403 16:40:55.105839 21344 net.cpp:425] inception_4c/3x3_reduce <- inception_4b/output_inception_4b/output_0_split_1
I0403 16:40:55.105861 21344 net.cpp:399] inception_4c/3x3_reduce -> inception_4c/3x3_reduce
I0403 16:40:55.107842 21344 net.cpp:141] Setting up inception_4c/3x3_reduce
I0403 16:40:55.107872 21344 net.cpp:148] Top shape: 24 128 14 14 (602112)
I0403 16:40:55.107890 21344 net.cpp:156] Memory required for data: 1035617568
I0403 16:40:55.107909 21344 layer_factory.hpp:77] Creating layer inception_4c/relu_3x3_reduce
I0403 16:40:55.107931 21344 net.cpp:91] Creating Layer inception_4c/relu_3x3_reduce
I0403 16:40:55.107950 21344 net.cpp:425] inception_4c/relu_3x3_reduce <- inception_4c/3x3_reduce
I0403 16:40:55.107969 21344 net.cpp:386] inception_4c/relu_3x3_reduce -> inception_4c/3x3_reduce (in-place)
I0403 16:40:55.108278 21344 net.cpp:141] Setting up inception_4c/relu_3x3_reduce
I0403 16:40:55.108306 21344 net.cpp:148] Top shape: 24 128 14 14 (602112)
I0403 16:40:55.108322 21344 net.cpp:156] Memory required for data: 1038026016
I0403 16:40:55.108338 21344 layer_factory.hpp:77] Creating layer inception_4c/3x3
I0403 16:40:55.108361 21344 net.cpp:91] Creating Layer inception_4c/3x3
I0403 16:40:55.108381 21344 net.cpp:425] inception_4c/3x3 <- inception_4c/3x3_reduce
I0403 16:40:55.108403 21344 net.cpp:399] inception_4c/3x3 -> inception_4c/3x3
I0403 16:40:55.112010 21344 net.cpp:141] Setting up inception_4c/3x3
I0403 16:40:55.112054 21344 net.cpp:148] Top shape: 24 256 14 14 (1204224)
I0403 16:40:55.112074 21344 net.cpp:156] Memory required for data: 1042842912
I0403 16:40:55.112107 21344 layer_factory.hpp:77] Creating layer inception_4c/relu_3x3
I0403 16:40:55.112131 21344 net.cpp:91] Creating Layer inception_4c/relu_3x3
I0403 16:40:55.112149 21344 net.cpp:425] inception_4c/relu_3x3 <- inception_4c/3x3
I0403 16:40:55.112167 21344 net.cpp:386] inception_4c/relu_3x3 -> inception_4c/3x3 (in-place)
I0403 16:40:55.112351 21344 net.cpp:141] Setting up inception_4c/relu_3x3
I0403 16:40:55.112380 21344 net.cpp:148] Top shape: 24 256 14 14 (1204224)
I0403 16:40:55.112397 21344 net.cpp:156] Memory required for data: 1047659808
I0403 16:40:55.112413 21344 layer_factory.hpp:77] Creating layer inception_4c/5x5_reduce
I0403 16:40:55.112437 21344 net.cpp:91] Creating Layer inception_4c/5x5_reduce
I0403 16:40:55.112457 21344 net.cpp:425] inception_4c/5x5_reduce <- inception_4b/output_inception_4b/output_0_split_2
I0403 16:40:55.112476 21344 net.cpp:399] inception_4c/5x5_reduce -> inception_4c/5x5_reduce
I0403 16:40:55.113603 21344 net.cpp:141] Setting up inception_4c/5x5_reduce
I0403 16:40:55.113636 21344 net.cpp:148] Top shape: 24 24 14 14 (112896)
I0403 16:40:55.113654 21344 net.cpp:156] Memory required for data: 1048111392
I0403 16:40:55.113673 21344 layer_factory.hpp:77] Creating layer inception_4c/relu_5x5_reduce
I0403 16:40:55.113693 21344 net.cpp:91] Creating Layer inception_4c/relu_5x5_reduce
I0403 16:40:55.113710 21344 net.cpp:425] inception_4c/relu_5x5_reduce <- inception_4c/5x5_reduce
I0403 16:40:55.113729 21344 net.cpp:386] inception_4c/relu_5x5_reduce -> inception_4c/5x5_reduce (in-place)
I0403 16:40:55.113921 21344 net.cpp:141] Setting up inception_4c/relu_5x5_reduce
I0403 16:40:55.113946 21344 net.cpp:148] Top shape: 24 24 14 14 (112896)
I0403 16:40:55.113962 21344 net.cpp:156] Memory required for data: 1048562976
I0403 16:40:55.113976 21344 layer_factory.hpp:77] Creating layer inception_4c/5x5
I0403 16:40:55.114001 21344 net.cpp:91] Creating Layer inception_4c/5x5
I0403 16:40:55.114018 21344 net.cpp:425] inception_4c/5x5 <- inception_4c/5x5_reduce
I0403 16:40:55.114039 21344 net.cpp:399] inception_4c/5x5 -> inception_4c/5x5
I0403 16:40:55.115317 21344 net.cpp:141] Setting up inception_4c/5x5
I0403 16:40:55.115347 21344 net.cpp:148] Top shape: 24 64 14 14 (301056)
I0403 16:40:55.115365 21344 net.cpp:156] Memory required for data: 1049767200
I0403 16:40:55.115382 21344 layer_factory.hpp:77] Creating layer inception_4c/relu_5x5
I0403 16:40:55.115401 21344 net.cpp:91] Creating Layer inception_4c/relu_5x5
I0403 16:40:55.115417 21344 net.cpp:425] inception_4c/relu_5x5 <- inception_4c/5x5
I0403 16:40:55.115437 21344 net.cpp:386] inception_4c/relu_5x5 -> inception_4c/5x5 (in-place)
I0403 16:40:55.115733 21344 net.cpp:141] Setting up inception_4c/relu_5x5
I0403 16:40:55.115759 21344 net.cpp:148] Top shape: 24 64 14 14 (301056)
I0403 16:40:55.115774 21344 net.cpp:156] Memory required for data: 1050971424
I0403 16:40:55.115790 21344 layer_factory.hpp:77] Creating layer inception_4c/pool
I0403 16:40:55.115808 21344 net.cpp:91] Creating Layer inception_4c/pool
I0403 16:40:55.115824 21344 net.cpp:425] inception_4c/pool <- inception_4b/output_inception_4b/output_0_split_3
I0403 16:40:55.115845 21344 net.cpp:399] inception_4c/pool -> inception_4c/pool
I0403 16:40:55.115916 21344 net.cpp:141] Setting up inception_4c/pool
I0403 16:40:55.115941 21344 net.cpp:148] Top shape: 24 512 14 14 (2408448)
I0403 16:40:55.115955 21344 net.cpp:156] Memory required for data: 1060605216
I0403 16:40:55.115970 21344 layer_factory.hpp:77] Creating layer inception_4c/pool_proj
I0403 16:40:55.115994 21344 net.cpp:91] Creating Layer inception_4c/pool_proj
I0403 16:40:55.116011 21344 net.cpp:425] inception_4c/pool_proj <- inception_4c/pool
I0403 16:40:55.116030 21344 net.cpp:399] inception_4c/pool_proj -> inception_4c/pool_proj
I0403 16:40:55.117264 21344 net.cpp:141] Setting up inception_4c/pool_proj
I0403 16:40:55.117292 21344 net.cpp:148] Top shape: 24 64 14 14 (301056)
I0403 16:40:55.117324 21344 net.cpp:156] Memory required for data: 1061809440
I0403 16:40:55.117344 21344 layer_factory.hpp:77] Creating layer inception_4c/relu_pool_proj
I0403 16:40:55.117367 21344 net.cpp:91] Creating Layer inception_4c/relu_pool_proj
I0403 16:40:55.117384 21344 net.cpp:425] inception_4c/relu_pool_proj <- inception_4c/pool_proj
I0403 16:40:55.117403 21344 net.cpp:386] inception_4c/relu_pool_proj -> inception_4c/pool_proj (in-place)
I0403 16:40:55.117593 21344 net.cpp:141] Setting up inception_4c/relu_pool_proj
I0403 16:40:55.117619 21344 net.cpp:148] Top shape: 24 64 14 14 (301056)
I0403 16:40:55.117635 21344 net.cpp:156] Memory required for data: 1063013664
I0403 16:40:55.117650 21344 layer_factory.hpp:77] Creating layer inception_4c/output
I0403 16:40:55.117669 21344 net.cpp:91] Creating Layer inception_4c/output
I0403 16:40:55.117686 21344 net.cpp:425] inception_4c/output <- inception_4c/1x1
I0403 16:40:55.117702 21344 net.cpp:425] inception_4c/output <- inception_4c/3x3
I0403 16:40:55.117718 21344 net.cpp:425] inception_4c/output <- inception_4c/5x5
I0403 16:40:55.117733 21344 net.cpp:425] inception_4c/output <- inception_4c/pool_proj
I0403 16:40:55.117753 21344 net.cpp:399] inception_4c/output -> inception_4c/output
I0403 16:40:55.117799 21344 net.cpp:141] Setting up inception_4c/output
I0403 16:40:55.117825 21344 net.cpp:148] Top shape: 24 512 14 14 (2408448)
I0403 16:40:55.117841 21344 net.cpp:156] Memory required for data: 1072647456
I0403 16:40:55.117856 21344 layer_factory.hpp:77] Creating layer inception_4c/output_inception_4c/output_0_split
I0403 16:40:55.117873 21344 net.cpp:91] Creating Layer inception_4c/output_inception_4c/output_0_split
I0403 16:40:55.117888 21344 net.cpp:425] inception_4c/output_inception_4c/output_0_split <- inception_4c/output
I0403 16:40:55.117907 21344 net.cpp:399] inception_4c/output_inception_4c/output_0_split -> inception_4c/output_inception_4c/output_0_split_0
I0403 16:40:55.117926 21344 net.cpp:399] inception_4c/output_inception_4c/output_0_split -> inception_4c/output_inception_4c/output_0_split_1
I0403 16:40:55.117949 21344 net.cpp:399] inception_4c/output_inception_4c/output_0_split -> inception_4c/output_inception_4c/output_0_split_2
I0403 16:40:55.117970 21344 net.cpp:399] inception_4c/output_inception_4c/output_0_split -> inception_4c/output_inception_4c/output_0_split_3
I0403 16:40:55.118075 21344 net.cpp:141] Setting up inception_4c/output_inception_4c/output_0_split
I0403 16:40:55.118100 21344 net.cpp:148] Top shape: 24 512 14 14 (2408448)
I0403 16:40:55.118118 21344 net.cpp:148] Top shape: 24 512 14 14 (2408448)
I0403 16:40:55.118134 21344 net.cpp:148] Top shape: 24 512 14 14 (2408448)
I0403 16:40:55.118149 21344 net.cpp:148] Top shape: 24 512 14 14 (2408448)
I0403 16:40:55.118162 21344 net.cpp:156] Memory required for data: 1111182624
I0403 16:40:55.118177 21344 layer_factory.hpp:77] Creating layer inception_4d/1x1
I0403 16:40:55.118199 21344 net.cpp:91] Creating Layer inception_4d/1x1
I0403 16:40:55.118217 21344 net.cpp:425] inception_4d/1x1 <- inception_4c/output_inception_4c/output_0_split_0
I0403 16:40:55.118239 21344 net.cpp:399] inception_4d/1x1 -> inception_4d/1x1
I0403 16:40:55.119632 21344 net.cpp:141] Setting up inception_4d/1x1
I0403 16:40:55.119663 21344 net.cpp:148] Top shape: 24 112 14 14 (526848)
I0403 16:40:55.119678 21344 net.cpp:156] Memory required for data: 1113290016
I0403 16:40:55.119698 21344 layer_factory.hpp:77] Creating layer inception_4d/relu_1x1
I0403 16:40:55.119719 21344 net.cpp:91] Creating Layer inception_4d/relu_1x1
I0403 16:40:55.119737 21344 net.cpp:425] inception_4d/relu_1x1 <- inception_4d/1x1
I0403 16:40:55.119755 21344 net.cpp:386] inception_4d/relu_1x1 -> inception_4d/1x1 (in-place)
I0403 16:40:55.119940 21344 net.cpp:141] Setting up inception_4d/relu_1x1
I0403 16:40:55.119968 21344 net.cpp:148] Top shape: 24 112 14 14 (526848)
I0403 16:40:55.119985 21344 net.cpp:156] Memory required for data: 1115397408
I0403 16:40:55.120002 21344 layer_factory.hpp:77] Creating layer inception_4d/3x3_reduce
I0403 16:40:55.120040 21344 net.cpp:91] Creating Layer inception_4d/3x3_reduce
I0403 16:40:55.120076 21344 net.cpp:425] inception_4d/3x3_reduce <- inception_4c/output_inception_4c/output_0_split_1
I0403 16:40:55.120100 21344 net.cpp:399] inception_4d/3x3_reduce -> inception_4d/3x3_reduce
I0403 16:40:55.121620 21344 net.cpp:141] Setting up inception_4d/3x3_reduce
I0403 16:40:55.121649 21344 net.cpp:148] Top shape: 24 144 14 14 (677376)
I0403 16:40:55.121666 21344 net.cpp:156] Memory required for data: 1118106912
I0403 16:40:55.121686 21344 layer_factory.hpp:77] Creating layer inception_4d/relu_3x3_reduce
I0403 16:40:55.121706 21344 net.cpp:91] Creating Layer inception_4d/relu_3x3_reduce
I0403 16:40:55.121723 21344 net.cpp:425] inception_4d/relu_3x3_reduce <- inception_4d/3x3_reduce
I0403 16:40:55.121740 21344 net.cpp:386] inception_4d/relu_3x3_reduce -> inception_4d/3x3_reduce (in-place)
I0403 16:40:55.122035 21344 net.cpp:141] Setting up inception_4d/relu_3x3_reduce
I0403 16:40:55.122073 21344 net.cpp:148] Top shape: 24 144 14 14 (677376)
I0403 16:40:55.122090 21344 net.cpp:156] Memory required for data: 1120816416
I0403 16:40:55.122107 21344 layer_factory.hpp:77] Creating layer inception_4d/3x3
I0403 16:40:55.122129 21344 net.cpp:91] Creating Layer inception_4d/3x3
I0403 16:40:55.122148 21344 net.cpp:425] inception_4d/3x3 <- inception_4d/3x3_reduce
I0403 16:40:55.122169 21344 net.cpp:399] inception_4d/3x3 -> inception_4d/3x3
I0403 16:40:55.126425 21344 net.cpp:141] Setting up inception_4d/3x3
I0403 16:40:55.126456 21344 net.cpp:148] Top shape: 24 288 14 14 (1354752)
I0403 16:40:55.126472 21344 net.cpp:156] Memory required for data: 1126235424
I0403 16:40:55.126492 21344 layer_factory.hpp:77] Creating layer inception_4d/relu_3x3
I0403 16:40:55.126513 21344 net.cpp:91] Creating Layer inception_4d/relu_3x3
I0403 16:40:55.126530 21344 net.cpp:425] inception_4d/relu_3x3 <- inception_4d/3x3
I0403 16:40:55.126549 21344 net.cpp:386] inception_4d/relu_3x3 -> inception_4d/3x3 (in-place)
I0403 16:40:55.126735 21344 net.cpp:141] Setting up inception_4d/relu_3x3
I0403 16:40:55.126765 21344 net.cpp:148] Top shape: 24 288 14 14 (1354752)
I0403 16:40:55.126781 21344 net.cpp:156] Memory required for data: 1131654432
I0403 16:40:55.126797 21344 layer_factory.hpp:77] Creating layer inception_4d/5x5_reduce
I0403 16:40:55.126821 21344 net.cpp:91] Creating Layer inception_4d/5x5_reduce
I0403 16:40:55.126840 21344 net.cpp:425] inception_4d/5x5_reduce <- inception_4c/output_inception_4c/output_0_split_2
I0403 16:40:55.126859 21344 net.cpp:399] inception_4d/5x5_reduce -> inception_4d/5x5_reduce
I0403 16:40:55.128024 21344 net.cpp:141] Setting up inception_4d/5x5_reduce
I0403 16:40:55.128063 21344 net.cpp:148] Top shape: 24 32 14 14 (150528)
I0403 16:40:55.128084 21344 net.cpp:156] Memory required for data: 1132256544
I0403 16:40:55.128103 21344 layer_factory.hpp:77] Creating layer inception_4d/relu_5x5_reduce
I0403 16:40:55.128125 21344 net.cpp:91] Creating Layer inception_4d/relu_5x5_reduce
I0403 16:40:55.128145 21344 net.cpp:425] inception_4d/relu_5x5_reduce <- inception_4d/5x5_reduce
I0403 16:40:55.128165 21344 net.cpp:386] inception_4d/relu_5x5_reduce -> inception_4d/5x5_reduce (in-place)
I0403 16:40:55.128357 21344 net.cpp:141] Setting up inception_4d/relu_5x5_reduce
I0403 16:40:55.128386 21344 net.cpp:148] Top shape: 24 32 14 14 (150528)
I0403 16:40:55.128402 21344 net.cpp:156] Memory required for data: 1132858656
I0403 16:40:55.128417 21344 layer_factory.hpp:77] Creating layer inception_4d/5x5
I0403 16:40:55.128439 21344 net.cpp:91] Creating Layer inception_4d/5x5
I0403 16:40:55.128458 21344 net.cpp:425] inception_4d/5x5 <- inception_4d/5x5_reduce
I0403 16:40:55.128476 21344 net.cpp:399] inception_4d/5x5 -> inception_4d/5x5
I0403 16:40:55.129966 21344 net.cpp:141] Setting up inception_4d/5x5
I0403 16:40:55.129999 21344 net.cpp:148] Top shape: 24 64 14 14 (301056)
I0403 16:40:55.130017 21344 net.cpp:156] Memory required for data: 1134062880
I0403 16:40:55.130038 21344 layer_factory.hpp:77] Creating layer inception_4d/relu_5x5
I0403 16:40:55.130076 21344 net.cpp:91] Creating Layer inception_4d/relu_5x5
I0403 16:40:55.130095 21344 net.cpp:425] inception_4d/relu_5x5 <- inception_4d/5x5
I0403 16:40:55.130116 21344 net.cpp:386] inception_4d/relu_5x5 -> inception_4d/5x5 (in-place)
I0403 16:40:55.130424 21344 net.cpp:141] Setting up inception_4d/relu_5x5
I0403 16:40:55.130453 21344 net.cpp:148] Top shape: 24 64 14 14 (301056)
I0403 16:40:55.130470 21344 net.cpp:156] Memory required for data: 1135267104
I0403 16:40:55.130484 21344 layer_factory.hpp:77] Creating layer inception_4d/pool
I0403 16:40:55.130503 21344 net.cpp:91] Creating Layer inception_4d/pool
I0403 16:40:55.130519 21344 net.cpp:425] inception_4d/pool <- inception_4c/output_inception_4c/output_0_split_3
I0403 16:40:55.130540 21344 net.cpp:399] inception_4d/pool -> inception_4d/pool
I0403 16:40:55.130607 21344 net.cpp:141] Setting up inception_4d/pool
I0403 16:40:55.130631 21344 net.cpp:148] Top shape: 24 512 14 14 (2408448)
I0403 16:40:55.130646 21344 net.cpp:156] Memory required for data: 1144900896
I0403 16:40:55.130662 21344 layer_factory.hpp:77] Creating layer inception_4d/pool_proj
I0403 16:40:55.130686 21344 net.cpp:91] Creating Layer inception_4d/pool_proj
I0403 16:40:55.130702 21344 net.cpp:425] inception_4d/pool_proj <- inception_4d/pool
I0403 16:40:55.130722 21344 net.cpp:399] inception_4d/pool_proj -> inception_4d/pool_proj
I0403 16:40:55.132515 21344 net.cpp:141] Setting up inception_4d/pool_proj
I0403 16:40:55.132545 21344 net.cpp:148] Top shape: 24 64 14 14 (301056)
I0403 16:40:55.132563 21344 net.cpp:156] Memory required for data: 1146105120
I0403 16:40:55.132583 21344 layer_factory.hpp:77] Creating layer inception_4d/relu_pool_proj
I0403 16:40:55.132606 21344 net.cpp:91] Creating Layer inception_4d/relu_pool_proj
I0403 16:40:55.132624 21344 net.cpp:425] inception_4d/relu_pool_proj <- inception_4d/pool_proj
I0403 16:40:55.132643 21344 net.cpp:386] inception_4d/relu_pool_proj -> inception_4d/pool_proj (in-place)
I0403 16:40:55.132838 21344 net.cpp:141] Setting up inception_4d/relu_pool_proj
I0403 16:40:55.132869 21344 net.cpp:148] Top shape: 24 64 14 14 (301056)
I0403 16:40:55.132885 21344 net.cpp:156] Memory required for data: 1147309344
I0403 16:40:55.132902 21344 layer_factory.hpp:77] Creating layer inception_4d/output
I0403 16:40:55.132921 21344 net.cpp:91] Creating Layer inception_4d/output
I0403 16:40:55.132938 21344 net.cpp:425] inception_4d/output <- inception_4d/1x1
I0403 16:40:55.132956 21344 net.cpp:425] inception_4d/output <- inception_4d/3x3
I0403 16:40:55.132973 21344 net.cpp:425] inception_4d/output <- inception_4d/5x5
I0403 16:40:55.132992 21344 net.cpp:425] inception_4d/output <- inception_4d/pool_proj
I0403 16:40:55.133011 21344 net.cpp:399] inception_4d/output -> inception_4d/output
I0403 16:40:55.133069 21344 net.cpp:141] Setting up inception_4d/output
I0403 16:40:55.133095 21344 net.cpp:148] Top shape: 24 528 14 14 (2483712)
I0403 16:40:55.133111 21344 net.cpp:156] Memory required for data: 1157244192
I0403 16:40:55.133126 21344 layer_factory.hpp:77] Creating layer inception_4d/output_inception_4d/output_0_split
I0403 16:40:55.133148 21344 net.cpp:91] Creating Layer inception_4d/output_inception_4d/output_0_split
I0403 16:40:55.133167 21344 net.cpp:425] inception_4d/output_inception_4d/output_0_split <- inception_4d/output
I0403 16:40:55.133188 21344 net.cpp:399] inception_4d/output_inception_4d/output_0_split -> inception_4d/output_inception_4d/output_0_split_0
I0403 16:40:55.133209 21344 net.cpp:399] inception_4d/output_inception_4d/output_0_split -> inception_4d/output_inception_4d/output_0_split_1
I0403 16:40:55.133235 21344 net.cpp:399] inception_4d/output_inception_4d/output_0_split -> inception_4d/output_inception_4d/output_0_split_2
I0403 16:40:55.133260 21344 net.cpp:399] inception_4d/output_inception_4d/output_0_split -> inception_4d/output_inception_4d/output_0_split_3
I0403 16:40:55.133281 21344 net.cpp:399] inception_4d/output_inception_4d/output_0_split -> inception_4d/output_inception_4d/output_0_split_4
I0403 16:40:55.133388 21344 net.cpp:141] Setting up inception_4d/output_inception_4d/output_0_split
I0403 16:40:55.133427 21344 net.cpp:148] Top shape: 24 528 14 14 (2483712)
I0403 16:40:55.133447 21344 net.cpp:148] Top shape: 24 528 14 14 (2483712)
I0403 16:40:55.133465 21344 net.cpp:148] Top shape: 24 528 14 14 (2483712)
I0403 16:40:55.133481 21344 net.cpp:148] Top shape: 24 528 14 14 (2483712)
I0403 16:40:55.133497 21344 net.cpp:148] Top shape: 24 528 14 14 (2483712)
I0403 16:40:55.133513 21344 net.cpp:156] Memory required for data: 1206918432
I0403 16:40:55.133529 21344 layer_factory.hpp:77] Creating layer loss2/ave_pool
I0403 16:40:55.133548 21344 net.cpp:91] Creating Layer loss2/ave_pool
I0403 16:40:55.133565 21344 net.cpp:425] loss2/ave_pool <- inception_4d/output_inception_4d/output_0_split_0
I0403 16:40:55.133587 21344 net.cpp:399] loss2/ave_pool -> loss2/ave_pool
I0403 16:40:55.133911 21344 net.cpp:141] Setting up loss2/ave_pool
I0403 16:40:55.133939 21344 net.cpp:148] Top shape: 24 528 4 4 (202752)
I0403 16:40:55.133956 21344 net.cpp:156] Memory required for data: 1207729440
I0403 16:40:55.133975 21344 layer_factory.hpp:77] Creating layer loss2/conv
I0403 16:40:55.134001 21344 net.cpp:91] Creating Layer loss2/conv
I0403 16:40:55.134019 21344 net.cpp:425] loss2/conv <- loss2/ave_pool
I0403 16:40:55.134042 21344 net.cpp:399] loss2/conv -> loss2/conv
I0403 16:40:55.135994 21344 net.cpp:141] Setting up loss2/conv
I0403 16:40:55.136028 21344 net.cpp:148] Top shape: 24 128 4 4 (49152)
I0403 16:40:55.136050 21344 net.cpp:156] Memory required for data: 1207926048
I0403 16:40:55.136072 21344 layer_factory.hpp:77] Creating layer loss2/relu_conv
I0403 16:40:55.136091 21344 net.cpp:91] Creating Layer loss2/relu_conv
I0403 16:40:55.136108 21344 net.cpp:425] loss2/relu_conv <- loss2/conv
I0403 16:40:55.136128 21344 net.cpp:386] loss2/relu_conv -> loss2/conv (in-place)
I0403 16:40:55.136425 21344 net.cpp:141] Setting up loss2/relu_conv
I0403 16:40:55.136456 21344 net.cpp:148] Top shape: 24 128 4 4 (49152)
I0403 16:40:55.136472 21344 net.cpp:156] Memory required for data: 1208122656
I0403 16:40:55.136487 21344 layer_factory.hpp:77] Creating layer loss2/fc
I0403 16:40:55.136507 21344 net.cpp:91] Creating Layer loss2/fc
I0403 16:40:55.136525 21344 net.cpp:425] loss2/fc <- loss2/conv
I0403 16:40:55.136548 21344 net.cpp:399] loss2/fc -> loss2/fc
I0403 16:40:55.154842 21344 net.cpp:141] Setting up loss2/fc
I0403 16:40:55.154907 21344 net.cpp:148] Top shape: 24 1024 (24576)
I0403 16:40:55.154924 21344 net.cpp:156] Memory required for data: 1208220960
I0403 16:40:55.154947 21344 layer_factory.hpp:77] Creating layer loss2/relu_fc
I0403 16:40:55.154969 21344 net.cpp:91] Creating Layer loss2/relu_fc
I0403 16:40:55.154990 21344 net.cpp:425] loss2/relu_fc <- loss2/fc
I0403 16:40:55.155011 21344 net.cpp:386] loss2/relu_fc -> loss2/fc (in-place)
I0403 16:40:55.155364 21344 net.cpp:141] Setting up loss2/relu_fc
I0403 16:40:55.155391 21344 net.cpp:148] Top shape: 24 1024 (24576)
I0403 16:40:55.155407 21344 net.cpp:156] Memory required for data: 1208319264
I0403 16:40:55.155423 21344 layer_factory.hpp:77] Creating layer loss2/drop_fc
I0403 16:40:55.155446 21344 net.cpp:91] Creating Layer loss2/drop_fc
I0403 16:40:55.155464 21344 net.cpp:425] loss2/drop_fc <- loss2/fc
I0403 16:40:55.155483 21344 net.cpp:386] loss2/drop_fc -> loss2/fc (in-place)
I0403 16:40:55.155537 21344 net.cpp:141] Setting up loss2/drop_fc
I0403 16:40:55.155561 21344 net.cpp:148] Top shape: 24 1024 (24576)
I0403 16:40:55.155577 21344 net.cpp:156] Memory required for data: 1208417568
I0403 16:40:55.155592 21344 layer_factory.hpp:77] Creating layer loss2/classifier_plantvillage
I0403 16:40:55.155612 21344 net.cpp:91] Creating Layer loss2/classifier_plantvillage
I0403 16:40:55.155629 21344 net.cpp:425] loss2/classifier_plantvillage <- loss2/fc
I0403 16:40:55.155652 21344 net.cpp:399] loss2/classifier_plantvillage -> loss2/classifier_plantvillage
I0403 16:40:55.156085 21344 net.cpp:141] Setting up loss2/classifier_plantvillage
I0403 16:40:55.156112 21344 net.cpp:148] Top shape: 24 38 (912)
I0403 16:40:55.156149 21344 net.cpp:156] Memory required for data: 1208421216
I0403 16:40:55.156169 21344 layer_factory.hpp:77] Creating layer loss2/classifier_plantvillage_loss2/classifier_plantvillage_0_split
I0403 16:40:55.156188 21344 net.cpp:91] Creating Layer loss2/classifier_plantvillage_loss2/classifier_plantvillage_0_split
I0403 16:40:55.156205 21344 net.cpp:425] loss2/classifier_plantvillage_loss2/classifier_plantvillage_0_split <- loss2/classifier_plantvillage
I0403 16:40:55.156226 21344 net.cpp:399] loss2/classifier_plantvillage_loss2/classifier_plantvillage_0_split -> loss2/classifier_plantvillage_loss2/classifier_plantvillage_0_split_0
I0403 16:40:55.156247 21344 net.cpp:399] loss2/classifier_plantvillage_loss2/classifier_plantvillage_0_split -> loss2/classifier_plantvillage_loss2/classifier_plantvillage_0_split_1
I0403 16:40:55.156270 21344 net.cpp:399] loss2/classifier_plantvillage_loss2/classifier_plantvillage_0_split -> loss2/classifier_plantvillage_loss2/classifier_plantvillage_0_split_2
I0403 16:40:55.156348 21344 net.cpp:141] Setting up loss2/classifier_plantvillage_loss2/classifier_plantvillage_0_split
I0403 16:40:55.156375 21344 net.cpp:148] Top shape: 24 38 (912)
I0403 16:40:55.156393 21344 net.cpp:148] Top shape: 24 38 (912)
I0403 16:40:55.156409 21344 net.cpp:148] Top shape: 24 38 (912)
I0403 16:40:55.156424 21344 net.cpp:156] Memory required for data: 1208432160
I0403 16:40:55.156440 21344 layer_factory.hpp:77] Creating layer inception_4e/1x1
I0403 16:40:55.156462 21344 net.cpp:91] Creating Layer inception_4e/1x1
I0403 16:40:55.156479 21344 net.cpp:425] inception_4e/1x1 <- inception_4d/output_inception_4d/output_0_split_1
I0403 16:40:55.156499 21344 net.cpp:399] inception_4e/1x1 -> inception_4e/1x1
I0403 16:40:55.158434 21344 net.cpp:141] Setting up inception_4e/1x1
I0403 16:40:55.158465 21344 net.cpp:148] Top shape: 24 256 14 14 (1204224)
I0403 16:40:55.158481 21344 net.cpp:156] Memory required for data: 1213249056
I0403 16:40:55.158501 21344 layer_factory.hpp:77] Creating layer inception_4e/relu_1x1
I0403 16:40:55.158521 21344 net.cpp:91] Creating Layer inception_4e/relu_1x1
I0403 16:40:55.158540 21344 net.cpp:425] inception_4e/relu_1x1 <- inception_4e/1x1
I0403 16:40:55.158560 21344 net.cpp:386] inception_4e/relu_1x1 -> inception_4e/1x1 (in-place)
I0403 16:40:55.158870 21344 net.cpp:141] Setting up inception_4e/relu_1x1
I0403 16:40:55.158900 21344 net.cpp:148] Top shape: 24 256 14 14 (1204224)
I0403 16:40:55.158916 21344 net.cpp:156] Memory required for data: 1218065952
I0403 16:40:55.158933 21344 layer_factory.hpp:77] Creating layer inception_4e/3x3_reduce
I0403 16:40:55.158957 21344 net.cpp:91] Creating Layer inception_4e/3x3_reduce
I0403 16:40:55.158977 21344 net.cpp:425] inception_4e/3x3_reduce <- inception_4d/output_inception_4d/output_0_split_2
I0403 16:40:55.159001 21344 net.cpp:399] inception_4e/3x3_reduce -> inception_4e/3x3_reduce
I0403 16:40:55.161223 21344 net.cpp:141] Setting up inception_4e/3x3_reduce
I0403 16:40:55.161257 21344 net.cpp:148] Top shape: 24 160 14 14 (752640)
I0403 16:40:55.161276 21344 net.cpp:156] Memory required for data: 1221076512
I0403 16:40:55.161296 21344 layer_factory.hpp:77] Creating layer inception_4e/relu_3x3_reduce
I0403 16:40:55.161316 21344 net.cpp:91] Creating Layer inception_4e/relu_3x3_reduce
I0403 16:40:55.161334 21344 net.cpp:425] inception_4e/relu_3x3_reduce <- inception_4e/3x3_reduce
I0403 16:40:55.161355 21344 net.cpp:386] inception_4e/relu_3x3_reduce -> inception_4e/3x3_reduce (in-place)
I0403 16:40:55.161551 21344 net.cpp:141] Setting up inception_4e/relu_3x3_reduce
I0403 16:40:55.161579 21344 net.cpp:148] Top shape: 24 160 14 14 (752640)
I0403 16:40:55.161595 21344 net.cpp:156] Memory required for data: 1224087072
I0403 16:40:55.161612 21344 layer_factory.hpp:77] Creating layer inception_4e/3x3
I0403 16:40:55.161633 21344 net.cpp:91] Creating Layer inception_4e/3x3
I0403 16:40:55.161653 21344 net.cpp:425] inception_4e/3x3 <- inception_4e/3x3_reduce
I0403 16:40:55.161675 21344 net.cpp:399] inception_4e/3x3 -> inception_4e/3x3
I0403 16:40:55.166841 21344 net.cpp:141] Setting up inception_4e/3x3
I0403 16:40:55.166887 21344 net.cpp:148] Top shape: 24 320 14 14 (1505280)
I0403 16:40:55.166904 21344 net.cpp:156] Memory required for data: 1230108192
I0403 16:40:55.166924 21344 layer_factory.hpp:77] Creating layer inception_4e/relu_3x3
I0403 16:40:55.166944 21344 net.cpp:91] Creating Layer inception_4e/relu_3x3
I0403 16:40:55.166961 21344 net.cpp:425] inception_4e/relu_3x3 <- inception_4e/3x3
I0403 16:40:55.166982 21344 net.cpp:386] inception_4e/relu_3x3 -> inception_4e/3x3 (in-place)
I0403 16:40:55.167300 21344 net.cpp:141] Setting up inception_4e/relu_3x3
I0403 16:40:55.167327 21344 net.cpp:148] Top shape: 24 320 14 14 (1505280)
I0403 16:40:55.167343 21344 net.cpp:156] Memory required for data: 1236129312
I0403 16:40:55.167359 21344 layer_factory.hpp:77] Creating layer inception_4e/5x5_reduce
I0403 16:40:55.167385 21344 net.cpp:91] Creating Layer inception_4e/5x5_reduce
I0403 16:40:55.167404 21344 net.cpp:425] inception_4e/5x5_reduce <- inception_4d/output_inception_4d/output_0_split_3
I0403 16:40:55.167428 21344 net.cpp:399] inception_4e/5x5_reduce -> inception_4e/5x5_reduce
I0403 16:40:55.168555 21344 net.cpp:141] Setting up inception_4e/5x5_reduce
I0403 16:40:55.168586 21344 net.cpp:148] Top shape: 24 32 14 14 (150528)
I0403 16:40:55.168604 21344 net.cpp:156] Memory required for data: 1236731424
I0403 16:40:55.168623 21344 layer_factory.hpp:77] Creating layer inception_4e/relu_5x5_reduce
I0403 16:40:55.168642 21344 net.cpp:91] Creating Layer inception_4e/relu_5x5_reduce
I0403 16:40:55.168659 21344 net.cpp:425] inception_4e/relu_5x5_reduce <- inception_4e/5x5_reduce
I0403 16:40:55.168680 21344 net.cpp:386] inception_4e/relu_5x5_reduce -> inception_4e/5x5_reduce (in-place)
I0403 16:40:55.168987 21344 net.cpp:141] Setting up inception_4e/relu_5x5_reduce
I0403 16:40:55.169016 21344 net.cpp:148] Top shape: 24 32 14 14 (150528)
I0403 16:40:55.169034 21344 net.cpp:156] Memory required for data: 1237333536
I0403 16:40:55.169054 21344 layer_factory.hpp:77] Creating layer inception_4e/5x5
I0403 16:40:55.169096 21344 net.cpp:91] Creating Layer inception_4e/5x5
I0403 16:40:55.169116 21344 net.cpp:425] inception_4e/5x5 <- inception_4e/5x5_reduce
I0403 16:40:55.169137 21344 net.cpp:399] inception_4e/5x5 -> inception_4e/5x5
I0403 16:40:55.171063 21344 net.cpp:141] Setting up inception_4e/5x5
I0403 16:40:55.171094 21344 net.cpp:148] Top shape: 24 128 14 14 (602112)
I0403 16:40:55.171114 21344 net.cpp:156] Memory required for data: 1239741984
I0403 16:40:55.171135 21344 layer_factory.hpp:77] Creating layer inception_4e/relu_5x5
I0403 16:40:55.171156 21344 net.cpp:91] Creating Layer inception_4e/relu_5x5
I0403 16:40:55.171175 21344 net.cpp:425] inception_4e/relu_5x5 <- inception_4e/5x5
I0403 16:40:55.171193 21344 net.cpp:386] inception_4e/relu_5x5 -> inception_4e/5x5 (in-place)
I0403 16:40:55.171401 21344 net.cpp:141] Setting up inception_4e/relu_5x5
I0403 16:40:55.171430 21344 net.cpp:148] Top shape: 24 128 14 14 (602112)
I0403 16:40:55.171448 21344 net.cpp:156] Memory required for data: 1242150432
I0403 16:40:55.171463 21344 layer_factory.hpp:77] Creating layer inception_4e/pool
I0403 16:40:55.171483 21344 net.cpp:91] Creating Layer inception_4e/pool
I0403 16:40:55.171501 21344 net.cpp:425] inception_4e/pool <- inception_4d/output_inception_4d/output_0_split_4
I0403 16:40:55.171522 21344 net.cpp:399] inception_4e/pool -> inception_4e/pool
I0403 16:40:55.171597 21344 net.cpp:141] Setting up inception_4e/pool
I0403 16:40:55.171623 21344 net.cpp:148] Top shape: 24 528 14 14 (2483712)
I0403 16:40:55.171639 21344 net.cpp:156] Memory required for data: 1252085280
I0403 16:40:55.171655 21344 layer_factory.hpp:77] Creating layer inception_4e/pool_proj
I0403 16:40:55.171675 21344 net.cpp:91] Creating Layer inception_4e/pool_proj
I0403 16:40:55.171694 21344 net.cpp:425] inception_4e/pool_proj <- inception_4e/pool
I0403 16:40:55.171715 21344 net.cpp:399] inception_4e/pool_proj -> inception_4e/pool_proj
I0403 16:40:55.173290 21344 net.cpp:141] Setting up inception_4e/pool_proj
I0403 16:40:55.173332 21344 net.cpp:148] Top shape: 24 128 14 14 (602112)
I0403 16:40:55.173349 21344 net.cpp:156] Memory required for data: 1254493728
I0403 16:40:55.173369 21344 layer_factory.hpp:77] Creating layer inception_4e/relu_pool_proj
I0403 16:40:55.173390 21344 net.cpp:91] Creating Layer inception_4e/relu_pool_proj
I0403 16:40:55.173410 21344 net.cpp:425] inception_4e/relu_pool_proj <- inception_4e/pool_proj
I0403 16:40:55.173429 21344 net.cpp:386] inception_4e/relu_pool_proj -> inception_4e/pool_proj (in-place)
I0403 16:40:55.173743 21344 net.cpp:141] Setting up inception_4e/relu_pool_proj
I0403 16:40:55.173770 21344 net.cpp:148] Top shape: 24 128 14 14 (602112)
I0403 16:40:55.173786 21344 net.cpp:156] Memory required for data: 1256902176
I0403 16:40:55.173804 21344 layer_factory.hpp:77] Creating layer inception_4e/output
I0403 16:40:55.173825 21344 net.cpp:91] Creating Layer inception_4e/output
I0403 16:40:55.173841 21344 net.cpp:425] inception_4e/output <- inception_4e/1x1
I0403 16:40:55.173858 21344 net.cpp:425] inception_4e/output <- inception_4e/3x3
I0403 16:40:55.173874 21344 net.cpp:425] inception_4e/output <- inception_4e/5x5
I0403 16:40:55.173892 21344 net.cpp:425] inception_4e/output <- inception_4e/pool_proj
I0403 16:40:55.173909 21344 net.cpp:399] inception_4e/output -> inception_4e/output
I0403 16:40:55.173962 21344 net.cpp:141] Setting up inception_4e/output
I0403 16:40:55.173987 21344 net.cpp:148] Top shape: 24 832 14 14 (3913728)
I0403 16:40:55.174003 21344 net.cpp:156] Memory required for data: 1272557088
I0403 16:40:55.174018 21344 layer_factory.hpp:77] Creating layer pool4/3x3_s2
I0403 16:40:55.174036 21344 net.cpp:91] Creating Layer pool4/3x3_s2
I0403 16:40:55.174058 21344 net.cpp:425] pool4/3x3_s2 <- inception_4e/output
I0403 16:40:55.174082 21344 net.cpp:399] pool4/3x3_s2 -> pool4/3x3_s2
I0403 16:40:55.174151 21344 net.cpp:141] Setting up pool4/3x3_s2
I0403 16:40:55.174181 21344 net.cpp:148] Top shape: 24 832 7 7 (978432)
I0403 16:40:55.174197 21344 net.cpp:156] Memory required for data: 1276470816
I0403 16:40:55.174212 21344 layer_factory.hpp:77] Creating layer pool4/3x3_s2_pool4/3x3_s2_0_split
I0403 16:40:55.174231 21344 net.cpp:91] Creating Layer pool4/3x3_s2_pool4/3x3_s2_0_split
I0403 16:40:55.174247 21344 net.cpp:425] pool4/3x3_s2_pool4/3x3_s2_0_split <- pool4/3x3_s2
I0403 16:40:55.174265 21344 net.cpp:399] pool4/3x3_s2_pool4/3x3_s2_0_split -> pool4/3x3_s2_pool4/3x3_s2_0_split_0
I0403 16:40:55.174288 21344 net.cpp:399] pool4/3x3_s2_pool4/3x3_s2_0_split -> pool4/3x3_s2_pool4/3x3_s2_0_split_1
I0403 16:40:55.174310 21344 net.cpp:399] pool4/3x3_s2_pool4/3x3_s2_0_split -> pool4/3x3_s2_pool4/3x3_s2_0_split_2
I0403 16:40:55.174331 21344 net.cpp:399] pool4/3x3_s2_pool4/3x3_s2_0_split -> pool4/3x3_s2_pool4/3x3_s2_0_split_3
I0403 16:40:55.174428 21344 net.cpp:141] Setting up pool4/3x3_s2_pool4/3x3_s2_0_split
I0403 16:40:55.174453 21344 net.cpp:148] Top shape: 24 832 7 7 (978432)
I0403 16:40:55.174469 21344 net.cpp:148] Top shape: 24 832 7 7 (978432)
I0403 16:40:55.174486 21344 net.cpp:148] Top shape: 24 832 7 7 (978432)
I0403 16:40:55.174502 21344 net.cpp:148] Top shape: 24 832 7 7 (978432)
I0403 16:40:55.174516 21344 net.cpp:156] Memory required for data: 1292125728
I0403 16:40:55.174531 21344 layer_factory.hpp:77] Creating layer inception_5a/1x1
I0403 16:40:55.174556 21344 net.cpp:91] Creating Layer inception_5a/1x1
I0403 16:40:55.174574 21344 net.cpp:425] inception_5a/1x1 <- pool4/3x3_s2_pool4/3x3_s2_0_split_0
I0403 16:40:55.174594 21344 net.cpp:399] inception_5a/1x1 -> inception_5a/1x1
I0403 16:40:55.177609 21344 net.cpp:141] Setting up inception_5a/1x1
I0403 16:40:55.177644 21344 net.cpp:148] Top shape: 24 256 7 7 (301056)
I0403 16:40:55.177662 21344 net.cpp:156] Memory required for data: 1293329952
I0403 16:40:55.177683 21344 layer_factory.hpp:77] Creating layer inception_5a/relu_1x1
I0403 16:40:55.177702 21344 net.cpp:91] Creating Layer inception_5a/relu_1x1
I0403 16:40:55.177718 21344 net.cpp:425] inception_5a/relu_1x1 <- inception_5a/1x1
I0403 16:40:55.177739 21344 net.cpp:386] inception_5a/relu_1x1 -> inception_5a/1x1 (in-place)
I0403 16:40:55.178074 21344 net.cpp:141] Setting up inception_5a/relu_1x1
I0403 16:40:55.178105 21344 net.cpp:148] Top shape: 24 256 7 7 (301056)
I0403 16:40:55.178123 21344 net.cpp:156] Memory required for data: 1294534176
I0403 16:40:55.178140 21344 layer_factory.hpp:77] Creating layer inception_5a/3x3_reduce
I0403 16:40:55.178164 21344 net.cpp:91] Creating Layer inception_5a/3x3_reduce
I0403 16:40:55.178184 21344 net.cpp:425] inception_5a/3x3_reduce <- pool4/3x3_s2_pool4/3x3_s2_0_split_1
I0403 16:40:55.178205 21344 net.cpp:399] inception_5a/3x3_reduce -> inception_5a/3x3_reduce
I0403 16:40:55.180708 21344 net.cpp:141] Setting up inception_5a/3x3_reduce
I0403 16:40:55.180739 21344 net.cpp:148] Top shape: 24 160 7 7 (188160)
I0403 16:40:55.180757 21344 net.cpp:156] Memory required for data: 1295286816
I0403 16:40:55.180778 21344 layer_factory.hpp:77] Creating layer inception_5a/relu_3x3_reduce
I0403 16:40:55.180799 21344 net.cpp:91] Creating Layer inception_5a/relu_3x3_reduce
I0403 16:40:55.180817 21344 net.cpp:425] inception_5a/relu_3x3_reduce <- inception_5a/3x3_reduce
I0403 16:40:55.180836 21344 net.cpp:386] inception_5a/relu_3x3_reduce -> inception_5a/3x3_reduce (in-place)
I0403 16:40:55.181030 21344 net.cpp:141] Setting up inception_5a/relu_3x3_reduce
I0403 16:40:55.181059 21344 net.cpp:148] Top shape: 24 160 7 7 (188160)
I0403 16:40:55.181076 21344 net.cpp:156] Memory required for data: 1296039456
I0403 16:40:55.181092 21344 layer_factory.hpp:77] Creating layer inception_5a/3x3
I0403 16:40:55.181116 21344 net.cpp:91] Creating Layer inception_5a/3x3
I0403 16:40:55.181134 21344 net.cpp:425] inception_5a/3x3 <- inception_5a/3x3_reduce
I0403 16:40:55.181154 21344 net.cpp:399] inception_5a/3x3 -> inception_5a/3x3
I0403 16:40:55.186203 21344 net.cpp:141] Setting up inception_5a/3x3
I0403 16:40:55.186235 21344 net.cpp:148] Top shape: 24 320 7 7 (376320)
I0403 16:40:55.186254 21344 net.cpp:156] Memory required for data: 1297544736
I0403 16:40:55.186274 21344 layer_factory.hpp:77] Creating layer inception_5a/relu_3x3
I0403 16:40:55.186291 21344 net.cpp:91] Creating Layer inception_5a/relu_3x3
I0403 16:40:55.186308 21344 net.cpp:425] inception_5a/relu_3x3 <- inception_5a/3x3
I0403 16:40:55.186327 21344 net.cpp:386] inception_5a/relu_3x3 -> inception_5a/3x3 (in-place)
I0403 16:40:55.186627 21344 net.cpp:141] Setting up inception_5a/relu_3x3
I0403 16:40:55.186657 21344 net.cpp:148] Top shape: 24 320 7 7 (376320)
I0403 16:40:55.186674 21344 net.cpp:156] Memory required for data: 1299050016
I0403 16:40:55.186691 21344 layer_factory.hpp:77] Creating layer inception_5a/5x5_reduce
I0403 16:40:55.186713 21344 net.cpp:91] Creating Layer inception_5a/5x5_reduce
I0403 16:40:55.186731 21344 net.cpp:425] inception_5a/5x5_reduce <- pool4/3x3_s2_pool4/3x3_s2_0_split_2
I0403 16:40:55.186751 21344 net.cpp:399] inception_5a/5x5_reduce -> inception_5a/5x5_reduce
I0403 16:40:55.187944 21344 net.cpp:141] Setting up inception_5a/5x5_reduce
I0403 16:40:55.187976 21344 net.cpp:148] Top shape: 24 32 7 7 (37632)
I0403 16:40:55.187997 21344 net.cpp:156] Memory required for data: 1299200544
I0403 16:40:55.188019 21344 layer_factory.hpp:77] Creating layer inception_5a/relu_5x5_reduce
I0403 16:40:55.188036 21344 net.cpp:91] Creating Layer inception_5a/relu_5x5_reduce
I0403 16:40:55.188066 21344 net.cpp:425] inception_5a/relu_5x5_reduce <- inception_5a/5x5_reduce
I0403 16:40:55.188091 21344 net.cpp:386] inception_5a/relu_5x5_reduce -> inception_5a/5x5_reduce (in-place)
I0403 16:40:55.188398 21344 net.cpp:141] Setting up inception_5a/relu_5x5_reduce
I0403 16:40:55.188428 21344 net.cpp:148] Top shape: 24 32 7 7 (37632)
I0403 16:40:55.188446 21344 net.cpp:156] Memory required for data: 1299351072
I0403 16:40:55.188462 21344 layer_factory.hpp:77] Creating layer inception_5a/5x5
I0403 16:40:55.188485 21344 net.cpp:91] Creating Layer inception_5a/5x5
I0403 16:40:55.188505 21344 net.cpp:425] inception_5a/5x5 <- inception_5a/5x5_reduce
I0403 16:40:55.188525 21344 net.cpp:399] inception_5a/5x5 -> inception_5a/5x5
I0403 16:40:55.190282 21344 net.cpp:141] Setting up inception_5a/5x5
I0403 16:40:55.190325 21344 net.cpp:148] Top shape: 24 128 7 7 (150528)
I0403 16:40:55.190343 21344 net.cpp:156] Memory required for data: 1299953184
I0403 16:40:55.190362 21344 layer_factory.hpp:77] Creating layer inception_5a/relu_5x5
I0403 16:40:55.190382 21344 net.cpp:91] Creating Layer inception_5a/relu_5x5
I0403 16:40:55.190399 21344 net.cpp:425] inception_5a/relu_5x5 <- inception_5a/5x5
I0403 16:40:55.190418 21344 net.cpp:386] inception_5a/relu_5x5 -> inception_5a/5x5 (in-place)
I0403 16:40:55.190614 21344 net.cpp:141] Setting up inception_5a/relu_5x5
I0403 16:40:55.190642 21344 net.cpp:148] Top shape: 24 128 7 7 (150528)
I0403 16:40:55.190659 21344 net.cpp:156] Memory required for data: 1300555296
I0403 16:40:55.190675 21344 layer_factory.hpp:77] Creating layer inception_5a/pool
I0403 16:40:55.190692 21344 net.cpp:91] Creating Layer inception_5a/pool
I0403 16:40:55.190708 21344 net.cpp:425] inception_5a/pool <- pool4/3x3_s2_pool4/3x3_s2_0_split_3
I0403 16:40:55.190729 21344 net.cpp:399] inception_5a/pool -> inception_5a/pool
I0403 16:40:55.190801 21344 net.cpp:141] Setting up inception_5a/pool
I0403 16:40:55.190829 21344 net.cpp:148] Top shape: 24 832 7 7 (978432)
I0403 16:40:55.190843 21344 net.cpp:156] Memory required for data: 1304469024
I0403 16:40:55.190860 21344 layer_factory.hpp:77] Creating layer inception_5a/pool_proj
I0403 16:40:55.190881 21344 net.cpp:91] Creating Layer inception_5a/pool_proj
I0403 16:40:55.190899 21344 net.cpp:425] inception_5a/pool_proj <- inception_5a/pool
I0403 16:40:55.190917 21344 net.cpp:399] inception_5a/pool_proj -> inception_5a/pool_proj
I0403 16:40:55.193236 21344 net.cpp:141] Setting up inception_5a/pool_proj
I0403 16:40:55.193276 21344 net.cpp:148] Top shape: 24 128 7 7 (150528)
I0403 16:40:55.193294 21344 net.cpp:156] Memory required for data: 1305071136
I0403 16:40:55.193325 21344 layer_factory.hpp:77] Creating layer inception_5a/relu_pool_proj
I0403 16:40:55.193346 21344 net.cpp:91] Creating Layer inception_5a/relu_pool_proj
I0403 16:40:55.193366 21344 net.cpp:425] inception_5a/relu_pool_proj <- inception_5a/pool_proj
I0403 16:40:55.193384 21344 net.cpp:386] inception_5a/relu_pool_proj -> inception_5a/pool_proj (in-place)
I0403 16:40:55.193716 21344 net.cpp:141] Setting up inception_5a/relu_pool_proj
I0403 16:40:55.193742 21344 net.cpp:148] Top shape: 24 128 7 7 (150528)
I0403 16:40:55.193758 21344 net.cpp:156] Memory required for data: 1305673248
I0403 16:40:55.193773 21344 layer_factory.hpp:77] Creating layer inception_5a/output
I0403 16:40:55.193794 21344 net.cpp:91] Creating Layer inception_5a/output
I0403 16:40:55.193812 21344 net.cpp:425] inception_5a/output <- inception_5a/1x1
I0403 16:40:55.193830 21344 net.cpp:425] inception_5a/output <- inception_5a/3x3
I0403 16:40:55.193847 21344 net.cpp:425] inception_5a/output <- inception_5a/5x5
I0403 16:40:55.193864 21344 net.cpp:425] inception_5a/output <- inception_5a/pool_proj
I0403 16:40:55.193881 21344 net.cpp:399] inception_5a/output -> inception_5a/output
I0403 16:40:55.193935 21344 net.cpp:141] Setting up inception_5a/output
I0403 16:40:55.193960 21344 net.cpp:148] Top shape: 24 832 7 7 (978432)
I0403 16:40:55.193975 21344 net.cpp:156] Memory required for data: 1309586976
I0403 16:40:55.193992 21344 layer_factory.hpp:77] Creating layer inception_5a/output_inception_5a/output_0_split
I0403 16:40:55.194010 21344 net.cpp:91] Creating Layer inception_5a/output_inception_5a/output_0_split
I0403 16:40:55.194027 21344 net.cpp:425] inception_5a/output_inception_5a/output_0_split <- inception_5a/output
I0403 16:40:55.194051 21344 net.cpp:399] inception_5a/output_inception_5a/output_0_split -> inception_5a/output_inception_5a/output_0_split_0
I0403 16:40:55.194075 21344 net.cpp:399] inception_5a/output_inception_5a/output_0_split -> inception_5a/output_inception_5a/output_0_split_1
I0403 16:40:55.194097 21344 net.cpp:399] inception_5a/output_inception_5a/output_0_split -> inception_5a/output_inception_5a/output_0_split_2
I0403 16:40:55.194118 21344 net.cpp:399] inception_5a/output_inception_5a/output_0_split -> inception_5a/output_inception_5a/output_0_split_3
I0403 16:40:55.194237 21344 net.cpp:141] Setting up inception_5a/output_inception_5a/output_0_split
I0403 16:40:55.194264 21344 net.cpp:148] Top shape: 24 832 7 7 (978432)
I0403 16:40:55.194283 21344 net.cpp:148] Top shape: 24 832 7 7 (978432)
I0403 16:40:55.194299 21344 net.cpp:148] Top shape: 24 832 7 7 (978432)
I0403 16:40:55.194315 21344 net.cpp:148] Top shape: 24 832 7 7 (978432)
I0403 16:40:55.194330 21344 net.cpp:156] Memory required for data: 1325241888
I0403 16:40:55.194345 21344 layer_factory.hpp:77] Creating layer inception_5b/1x1
I0403 16:40:55.194368 21344 net.cpp:91] Creating Layer inception_5b/1x1
I0403 16:40:55.194386 21344 net.cpp:425] inception_5b/1x1 <- inception_5a/output_inception_5a/output_0_split_0
I0403 16:40:55.194406 21344 net.cpp:399] inception_5b/1x1 -> inception_5b/1x1
I0403 16:40:55.198259 21344 net.cpp:141] Setting up inception_5b/1x1
I0403 16:40:55.198290 21344 net.cpp:148] Top shape: 24 384 7 7 (451584)
I0403 16:40:55.198307 21344 net.cpp:156] Memory required for data: 1327048224
I0403 16:40:55.198328 21344 layer_factory.hpp:77] Creating layer inception_5b/relu_1x1
I0403 16:40:55.198349 21344 net.cpp:91] Creating Layer inception_5b/relu_1x1
I0403 16:40:55.198367 21344 net.cpp:425] inception_5b/relu_1x1 <- inception_5b/1x1
I0403 16:40:55.198386 21344 net.cpp:386] inception_5b/relu_1x1 -> inception_5b/1x1 (in-place)
I0403 16:40:55.198693 21344 net.cpp:141] Setting up inception_5b/relu_1x1
I0403 16:40:55.198720 21344 net.cpp:148] Top shape: 24 384 7 7 (451584)
I0403 16:40:55.198736 21344 net.cpp:156] Memory required for data: 1328854560
I0403 16:40:55.198752 21344 layer_factory.hpp:77] Creating layer inception_5b/3x3_reduce
I0403 16:40:55.198776 21344 net.cpp:91] Creating Layer inception_5b/3x3_reduce
I0403 16:40:55.198793 21344 net.cpp:425] inception_5b/3x3_reduce <- inception_5a/output_inception_5a/output_0_split_1
I0403 16:40:55.198815 21344 net.cpp:399] inception_5b/3x3_reduce -> inception_5b/3x3_reduce
I0403 16:40:55.201500 21344 net.cpp:141] Setting up inception_5b/3x3_reduce
I0403 16:40:55.201531 21344 net.cpp:148] Top shape: 24 192 7 7 (225792)
I0403 16:40:55.201548 21344 net.cpp:156] Memory required for data: 1329757728
I0403 16:40:55.201567 21344 layer_factory.hpp:77] Creating layer inception_5b/relu_3x3_reduce
I0403 16:40:55.201588 21344 net.cpp:91] Creating Layer inception_5b/relu_3x3_reduce
I0403 16:40:55.201607 21344 net.cpp:425] inception_5b/relu_3x3_reduce <- inception_5b/3x3_reduce
I0403 16:40:55.201625 21344 net.cpp:386] inception_5b/relu_3x3_reduce -> inception_5b/3x3_reduce (in-place)
I0403 16:40:55.201822 21344 net.cpp:141] Setting up inception_5b/relu_3x3_reduce
I0403 16:40:55.201849 21344 net.cpp:148] Top shape: 24 192 7 7 (225792)
I0403 16:40:55.201866 21344 net.cpp:156] Memory required for data: 1330660896
I0403 16:40:55.201882 21344 layer_factory.hpp:77] Creating layer inception_5b/3x3
I0403 16:40:55.201905 21344 net.cpp:91] Creating Layer inception_5b/3x3
I0403 16:40:55.201923 21344 net.cpp:425] inception_5b/3x3 <- inception_5b/3x3_reduce
I0403 16:40:55.201944 21344 net.cpp:399] inception_5b/3x3 -> inception_5b/3x3
I0403 16:40:55.208674 21344 net.cpp:141] Setting up inception_5b/3x3
I0403 16:40:55.208703 21344 net.cpp:148] Top shape: 24 384 7 7 (451584)
I0403 16:40:55.208720 21344 net.cpp:156] Memory required for data: 1332467232
I0403 16:40:55.208739 21344 layer_factory.hpp:77] Creating layer inception_5b/relu_3x3
I0403 16:40:55.208760 21344 net.cpp:91] Creating Layer inception_5b/relu_3x3
I0403 16:40:55.208777 21344 net.cpp:425] inception_5b/relu_3x3 <- inception_5b/3x3
I0403 16:40:55.208796 21344 net.cpp:386] inception_5b/relu_3x3 -> inception_5b/3x3 (in-place)
I0403 16:40:55.209103 21344 net.cpp:141] Setting up inception_5b/relu_3x3
I0403 16:40:55.209130 21344 net.cpp:148] Top shape: 24 384 7 7 (451584)
I0403 16:40:55.209146 21344 net.cpp:156] Memory required for data: 1334273568
I0403 16:40:55.209161 21344 layer_factory.hpp:77] Creating layer inception_5b/5x5_reduce
I0403 16:40:55.209200 21344 net.cpp:91] Creating Layer inception_5b/5x5_reduce
I0403 16:40:55.209223 21344 net.cpp:425] inception_5b/5x5_reduce <- inception_5a/output_inception_5a/output_0_split_2
I0403 16:40:55.209244 21344 net.cpp:399] inception_5b/5x5_reduce -> inception_5b/5x5_reduce
I0403 16:40:55.210541 21344 net.cpp:141] Setting up inception_5b/5x5_reduce
I0403 16:40:55.210569 21344 net.cpp:148] Top shape: 24 48 7 7 (56448)
I0403 16:40:55.210585 21344 net.cpp:156] Memory required for data: 1334499360
I0403 16:40:55.210605 21344 layer_factory.hpp:77] Creating layer inception_5b/relu_5x5_reduce
I0403 16:40:55.210626 21344 net.cpp:91] Creating Layer inception_5b/relu_5x5_reduce
I0403 16:40:55.210644 21344 net.cpp:425] inception_5b/relu_5x5_reduce <- inception_5b/5x5_reduce
I0403 16:40:55.210662 21344 net.cpp:386] inception_5b/relu_5x5_reduce -> inception_5b/5x5_reduce (in-place)
I0403 16:40:55.211041 21344 net.cpp:141] Setting up inception_5b/relu_5x5_reduce
I0403 16:40:55.211073 21344 net.cpp:148] Top shape: 24 48 7 7 (56448)
I0403 16:40:55.211091 21344 net.cpp:156] Memory required for data: 1334725152
I0403 16:40:55.211107 21344 layer_factory.hpp:77] Creating layer inception_5b/5x5
I0403 16:40:55.211127 21344 net.cpp:91] Creating Layer inception_5b/5x5
I0403 16:40:55.211145 21344 net.cpp:425] inception_5b/5x5 <- inception_5b/5x5_reduce
I0403 16:40:55.211164 21344 net.cpp:399] inception_5b/5x5 -> inception_5b/5x5
I0403 16:40:55.213248 21344 net.cpp:141] Setting up inception_5b/5x5
I0403 16:40:55.213279 21344 net.cpp:148] Top shape: 24 128 7 7 (150528)
I0403 16:40:55.213296 21344 net.cpp:156] Memory required for data: 1335327264
I0403 16:40:55.213316 21344 layer_factory.hpp:77] Creating layer inception_5b/relu_5x5
I0403 16:40:55.213335 21344 net.cpp:91] Creating Layer inception_5b/relu_5x5
I0403 16:40:55.213353 21344 net.cpp:425] inception_5b/relu_5x5 <- inception_5b/5x5
I0403 16:40:55.213373 21344 net.cpp:386] inception_5b/relu_5x5 -> inception_5b/5x5 (in-place)
I0403 16:40:55.213574 21344 net.cpp:141] Setting up inception_5b/relu_5x5
I0403 16:40:55.213600 21344 net.cpp:148] Top shape: 24 128 7 7 (150528)
I0403 16:40:55.213618 21344 net.cpp:156] Memory required for data: 1335929376
I0403 16:40:55.213632 21344 layer_factory.hpp:77] Creating layer inception_5b/pool
I0403 16:40:55.213651 21344 net.cpp:91] Creating Layer inception_5b/pool
I0403 16:40:55.213667 21344 net.cpp:425] inception_5b/pool <- inception_5a/output_inception_5a/output_0_split_3
I0403 16:40:55.213690 21344 net.cpp:399] inception_5b/pool -> inception_5b/pool
I0403 16:40:55.213765 21344 net.cpp:141] Setting up inception_5b/pool
I0403 16:40:55.213790 21344 net.cpp:148] Top shape: 24 832 7 7 (978432)
I0403 16:40:55.213804 21344 net.cpp:156] Memory required for data: 1339843104
I0403 16:40:55.213819 21344 layer_factory.hpp:77] Creating layer inception_5b/pool_proj
I0403 16:40:55.213845 21344 net.cpp:91] Creating Layer inception_5b/pool_proj
I0403 16:40:55.213862 21344 net.cpp:425] inception_5b/pool_proj <- inception_5b/pool
I0403 16:40:55.213881 21344 net.cpp:399] inception_5b/pool_proj -> inception_5b/pool_proj
I0403 16:40:55.216248 21344 net.cpp:141] Setting up inception_5b/pool_proj
I0403 16:40:55.216277 21344 net.cpp:148] Top shape: 24 128 7 7 (150528)
I0403 16:40:55.216294 21344 net.cpp:156] Memory required for data: 1340445216
I0403 16:40:55.216312 21344 layer_factory.hpp:77] Creating layer inception_5b/relu_pool_proj
I0403 16:40:55.216336 21344 net.cpp:91] Creating Layer inception_5b/relu_pool_proj
I0403 16:40:55.216361 21344 net.cpp:425] inception_5b/relu_pool_proj <- inception_5b/pool_proj
I0403 16:40:55.216378 21344 net.cpp:386] inception_5b/relu_pool_proj -> inception_5b/pool_proj (in-place)
I0403 16:40:55.216688 21344 net.cpp:141] Setting up inception_5b/relu_pool_proj
I0403 16:40:55.216714 21344 net.cpp:148] Top shape: 24 128 7 7 (150528)
I0403 16:40:55.216732 21344 net.cpp:156] Memory required for data: 1341047328
I0403 16:40:55.216747 21344 layer_factory.hpp:77] Creating layer inception_5b/output
I0403 16:40:55.216765 21344 net.cpp:91] Creating Layer inception_5b/output
I0403 16:40:55.216796 21344 net.cpp:425] inception_5b/output <- inception_5b/1x1
I0403 16:40:55.216814 21344 net.cpp:425] inception_5b/output <- inception_5b/3x3
I0403 16:40:55.216830 21344 net.cpp:425] inception_5b/output <- inception_5b/5x5
I0403 16:40:55.216846 21344 net.cpp:425] inception_5b/output <- inception_5b/pool_proj
I0403 16:40:55.216864 21344 net.cpp:399] inception_5b/output -> inception_5b/output
I0403 16:40:55.216917 21344 net.cpp:141] Setting up inception_5b/output
I0403 16:40:55.216941 21344 net.cpp:148] Top shape: 24 1024 7 7 (1204224)
I0403 16:40:55.216956 21344 net.cpp:156] Memory required for data: 1345864224
I0403 16:40:55.216972 21344 layer_factory.hpp:77] Creating layer pool5/7x7_s1
I0403 16:40:55.216991 21344 net.cpp:91] Creating Layer pool5/7x7_s1
I0403 16:40:55.217010 21344 net.cpp:425] pool5/7x7_s1 <- inception_5b/output
I0403 16:40:55.217027 21344 net.cpp:399] pool5/7x7_s1 -> pool5/7x7_s1
I0403 16:40:55.217254 21344 net.cpp:141] Setting up pool5/7x7_s1
I0403 16:40:55.217283 21344 net.cpp:148] Top shape: 24 1024 1 1 (24576)
I0403 16:40:55.217298 21344 net.cpp:156] Memory required for data: 1345962528
I0403 16:40:55.217314 21344 layer_factory.hpp:77] Creating layer pool5/drop_7x7_s1
I0403 16:40:55.217331 21344 net.cpp:91] Creating Layer pool5/drop_7x7_s1
I0403 16:40:55.217349 21344 net.cpp:425] pool5/drop_7x7_s1 <- pool5/7x7_s1
I0403 16:40:55.217366 21344 net.cpp:386] pool5/drop_7x7_s1 -> pool5/7x7_s1 (in-place)
I0403 16:40:55.217418 21344 net.cpp:141] Setting up pool5/drop_7x7_s1
I0403 16:40:55.217442 21344 net.cpp:148] Top shape: 24 1024 1 1 (24576)
I0403 16:40:55.217458 21344 net.cpp:156] Memory required for data: 1346060832
I0403 16:40:55.217473 21344 layer_factory.hpp:77] Creating layer loss3/classifier_plantvillage
I0403 16:40:55.217494 21344 net.cpp:91] Creating Layer loss3/classifier_plantvillage
I0403 16:40:55.217511 21344 net.cpp:425] loss3/classifier_plantvillage <- pool5/7x7_s1
I0403 16:40:55.217530 21344 net.cpp:399] loss3/classifier_plantvillage -> loss3/classifier_plantvillage
I0403 16:40:55.217959 21344 net.cpp:141] Setting up loss3/classifier_plantvillage
I0403 16:40:55.217985 21344 net.cpp:148] Top shape: 24 38 (912)
I0403 16:40:55.218000 21344 net.cpp:156] Memory required for data: 1346064480
I0403 16:40:55.218019 21344 layer_factory.hpp:77] Creating layer loss3/classifier_plantvillage_loss3/classifier_plantvillage_0_split
I0403 16:40:55.218036 21344 net.cpp:91] Creating Layer loss3/classifier_plantvillage_loss3/classifier_plantvillage_0_split
I0403 16:40:55.218062 21344 net.cpp:425] loss3/classifier_plantvillage_loss3/classifier_plantvillage_0_split <- loss3/classifier_plantvillage
I0403 16:40:55.218087 21344 net.cpp:399] loss3/classifier_plantvillage_loss3/classifier_plantvillage_0_split -> loss3/classifier_plantvillage_loss3/classifier_plantvillage_0_split_0
I0403 16:40:55.218109 21344 net.cpp:399] loss3/classifier_plantvillage_loss3/classifier_plantvillage_0_split -> loss3/classifier_plantvillage_loss3/classifier_plantvillage_0_split_1
I0403 16:40:55.218130 21344 net.cpp:399] loss3/classifier_plantvillage_loss3/classifier_plantvillage_0_split -> loss3/classifier_plantvillage_loss3/classifier_plantvillage_0_split_2
I0403 16:40:55.218149 21344 net.cpp:399] loss3/classifier_plantvillage_loss3/classifier_plantvillage_0_split -> loss3/classifier_plantvillage_loss3/classifier_plantvillage_0_split_3
I0403 16:40:55.218255 21344 net.cpp:141] Setting up loss3/classifier_plantvillage_loss3/classifier_plantvillage_0_split
I0403 16:40:55.218281 21344 net.cpp:148] Top shape: 24 38 (912)
I0403 16:40:55.218297 21344 net.cpp:148] Top shape: 24 38 (912)
I0403 16:40:55.218314 21344 net.cpp:148] Top shape: 24 38 (912)
I0403 16:40:55.218329 21344 net.cpp:148] Top shape: 24 38 (912)
I0403 16:40:55.218343 21344 net.cpp:156] Memory required for data: 1346079072
I0403 16:40:55.218358 21344 layer_factory.hpp:77] Creating layer loss1/loss
I0403 16:40:55.218379 21344 net.cpp:91] Creating Layer loss1/loss
I0403 16:40:55.218399 21344 net.cpp:425] loss1/loss <- loss1/classifier_plantvillage_loss1/classifier_plantvillage_0_split_0
I0403 16:40:55.218430 21344 net.cpp:425] loss1/loss <- label_data_1_split_0
…
