…
I0403 16:35:27.362433 21250 net.cpp:313] The NetState phase (1) differed from the phase (0) specified by a rule in layer data
I0403 16:35:27.363611 21250 net.cpp:49] Initializing net from parameters: 
state {
  phase: TEST
}
layer {
  name: "data"
  type: "Data"
  top: "data"
  top: "label"
  include {
    phase: TEST
  }
  transform_param {
    mirror: false
    crop_size: 224
    mean_file: "/home/mohanty/data/final_dataset/lmdb/grayscale-20-80/mean.binaryproto"
  }
  data_param {
    source: "/home/mohanty/data/final_dataset/lmdb/grayscale-20-80/test_db"
    batch_size: 24
    backend: LMDB
  }
}
layer {
  name: "conv1/7x7_s2"
  type: "Convolution"
  bottom: "data"
  top: "conv1/7x7_s2"
  param {
    lr_mult: 1
    decay_mult: 1
  }
  param {
    lr_mult: 2
    decay_mult: 0
  }
  convolution_param {
    num_output: 64
    pad: 3
    kernel_size: 7
    stride: 2
    weight_filler {
      type: "xavier"
      std: 0.1
    }
    bias_filler {
      type: "constant"
      value: 0.2
    }
  }
}
layer {
  name: "conv1/relu_7x7"
  type: "ReLU"
  bottom: "conv1/7x7_s2"
  top: "conv1/7x7_s2"
}
layer {
  name: "pool1/3x3_s2"
  type: "Pooling"
  bottom: "conv1/7x7_s2"
  top: "pool1/3x3_s2"
  pooling_param {
    pool: MAX
    kernel_size: 3
    stride: 2
  }
}
layer {
  name: "pool1/norm1"
  type: "LRN"
  bottom: "pool1/3x3_s2"
  top: "pool1/norm1"
  lrn_param {
    local_size: 5
    alpha: 0.0001
    beta: 0.75
  }
}
layer {
  name: "conv2/3x3_reduce"
  type: "Convolution"
  bottom: "pool1/norm1"
  top: "conv2/3x3_reduce"
  param {
    lr_mult: 1
    decay_mult: 1
  }
  param {
    lr_mult: 2
    decay_mult: 0
  }
  convolution_param {
    num_output: 64
    kernel_size: 1
    weight_filler {
      type: "xavier"
      std: 0.1
    }
    bias_filler {
      type: "constant"
      value: 0.2
    }
  }
}
layer {
  name: "conv2/relu_3x3_reduce"
  type: "ReLU"
  bottom: "conv2/3x3_reduce"
  top: "conv2/3x3_reduce"
}
layer {
  name: "conv2/3x3"
  type: "Convolution"
  bottom: "conv2/3x3_reduce"
  top: "conv2/3x3"
  param {
    lr_mult: 1
    decay_mult: 1
  }
  param {
    lr_mult: 2
    decay_mult: 0
  }
  convolution_param {
    num_output: 192
    pad: 1
    kernel_size: 3
    weight_filler {
      type: "xavier"
      std: 0.03
    }
    bias_filler {
      type: "constant"
      value: 0.2
    }
  }
}
layer {
  name: "conv2/relu_3x3"
  type: "ReLU"
  bottom: "conv2/3x3"
  top: "conv2/3x3"
}
layer {
  name: "conv2/norm2"
  type: "LRN"
  bottom: "conv2/3x3"
  top: "conv2/norm2"
  lrn_param {
    local_size: 5
    alpha: 0.0001
    beta: 0.75
  }
}
layer {
  name: "pool2/3x3_s2"
  type: "Pooling"
  bottom: "conv2/norm2"
  top: "pool2/3x3_s2"
  pooling_param {
    pool: MAX
    kernel_size: 3
    stride: 2
  }
}
layer {
  name: "inception_3a/1x1"
  type: "Convolution"
  bottom: "pool2/3x3_s2"
  top: "inception_3a/1x1"
  param {
    lr_mult: 1
    decay_mult: 1
  }
  param {
    lr_mult: 2
    decay_mult: 0
  }
  convolution_param {
    num_output: 64
    kernel_size: 1
    weight_filler {
      type: "xavier"
      std: 0.03
    }
    bias_filler {
      type: "constant"
      value: 0.2
    }
  }
}
layer {
  name: "inception_3a/relu_1x1"
  type: "ReLU"
  bottom: "inception_3a/1x1"
  top: "inception_3a/1x1"
}
layer {
  name: "inception_3a/3x3_reduce"
  type: "Convolution"
  bottom: "pool2/3x3_s2"
  top: "inception_3a/3x3_reduce"
  param {
    lr_mult: 1
    decay_mult: 1
  }
  param {
    lr_mult: 2
    decay_mult: 0
  }
  convolution_param {
    num_output: 96
    kernel_size: 1
    weight_filler {
      type: "xavier"
      std: 0.09
    }
    bias_filler {
      type: "constant"
      value: 0.2
    }
  }
}
layer {
  name: "inception_3a/relu_3x3_reduce"
  type: "ReLU"
  bottom: "inception_3a/3x3_reduce"
  top: "inception_3a/3x3_reduce"
}
layer {
  name: "inception_3a/3x3"
  type: "Convolution"
  bottom: "inception_3a/3x3_reduce"
  top: "inception_3a/3x3"
  param {
    lr_mult: 1
    decay_mult: 1
  }
  param {
    lr_mult: 2
    decay_mult: 0
  }
  convolution_param {
    num_output: 128
    pad: 1
    kernel_size: 3
    weight_filler {
      type: "xavier"
      std: 0.03
    }
    bias_filler {
      type: "constant"
      value: 0.2
    }
  }
}
layer {
  name: "inception_3a/relu_3x3"
  type: "ReLU"
  bottom: "inception_3a/3x3"
  top: "inception_3a/3x3"
}
layer {
  name: "inception_3a/5x5_reduce"
  type: "Convolution"
  bottom: "pool2/3x3_s2"
  top: "inception_3a/5x5_reduce"
  param {
    lr_mult: 1
    decay_mult: 1
  }
  param {
    lr_mult: 2
    decay_mult: 0
  }
  convolution_param {
    num_output: 16
    kernel_size: 1
    weight_filler {
      type: "xavier"
      std: 0.2
    }
    bias_filler {
      type: "constant"
      value: 0.2
    }
  }
}
layer {
  name: "inception_3a/relu_5x5_reduce"
  type: "ReLU"
  bottom: "inception_3a/5x5_reduce"
  top: "inception_3a/5x5_reduce"
}
layer {
  name: "inception_3a/5x5"
  type: "Convolution"
  bottom: "inception_3a/5x5_reduce"
  top: "inception_3a/5x5"
  param {
    lr_mult: 1
    decay_mult: 1
  }
  param {
    lr_mult: 2
    decay_mult: 0
  }
  convolution_param {
    num_output: 32
    pad: 2
    kernel_size: 5
    weight_filler {
      type: "xavier"
      std: 0.03
    }
    bias_filler {
      type: "constant"
      value: 0.2
    }
  }
}
layer {
  name: "inception_3a/relu_5x5"
  type: "ReLU"
  bottom: "inception_3a/5x5"
  top: "inception_3a/5x5"
}
layer {
  name: "inception_3a/pool"
  type: "Pooling"
  bottom: "pool2/3x3_s2"
  top: "inception_3a/pool"
  pooling_param {
    pool: MAX
    kernel_size: 3
    stride: 1
    pad: 1
  }
}
layer {
  name: "inception_3a/pool_proj"
  type: "Convolution"
  bottom: "inception_3a/pool"
  top: "inception_3a/pool_proj"
  param {
    lr_mult: 1
    decay_mult: 1
  }
  param {
    lr_mult: 2
    decay_mult: 0
  }
  convolution_param {
    num_output: 32
    kernel_size: 1
    weight_filler {
      type: "xavier"
      std: 0.1
    }
    bias_filler {
      type: "constant"
      value: 0.2
    }
  }
}
layer {
  name: "inception_3a/relu_pool_proj"
  type: "ReLU"
  bottom: "inception_3a/pool_proj"
  top: "inception_3a/pool_proj"
}
layer {
  name: "inception_3a/output"
  type: "Concat"
  bottom: "inception_3a/1x1"
  bottom: "inception_3a/3x3"
  bottom: "inception_3a/5x5"
  bottom: "inception_3a/pool_proj"
  top: "inception_3a/output"
}
layer {
  name: "inception_3b/1x1"
  type: "Convolution"
  bottom: "inception_3a/output"
  top: "inception_3b/1x1"
  param {
    lr_mult: 1
    decay_mult: 1
  }
  param {
    lr_mult: 2
    decay_mult: 0
  }
  convolution_param {
    num_output: 128
    kernel_size: 1
    weight_filler {
      type: "xavier"
      std: 0.03
    }
    bias_filler {
      type: "constant"
      value: 0.2
    }
  }
}
layer {
  name: "inception_3b/relu_1x1"
  type: "ReLU"
  bottom: "inception_3b/1x1"
  top: "inception_3b/1x1"
}
layer {
  name: "inception_3b/3x3_reduce"
  type: "Convolution"
  bottom: "inception_3a/output"
  top: "inception_3b/3x3_reduce"
  param {
    lr_mult: 1
    decay_mult: 1
  }
  param {
    lr_mult: 2
    decay_mult: 0
  }
  convolution_param {
    num_output: 128
    kernel_size: 1
    weight_filler {
      type: "xavier"
      std: 0.09
    }
    bias_filler {
      type: "constant"
      value: 0.2
    }
  }
}
layer {
  name: "inception_3b/relu_3x3_reduce"
  type: "ReLU"
  bottom: "inception_3b/3x3_reduce"
  top: "inception_3b/3x3_reduce"
}
layer {
  name: "inception_3b/3x3"
  type: "Convolution"
  bottom: "inception_3b/3x3_reduce"
  top: "inception_3b/3x3"
  param {
    lr_mult: 1
    decay_mult: 1
  }
  param {
    lr_mult: 2
    decay_mult: 0
  }
  convolution_param {
    num_output: 192
    pad: 1
    kernel_size: 3
    weight_filler {
      type: "xavier"
      std: 0.03
    }
    bias_filler {
      type: "constant"
      value: 0.2
    }
  }
}
layer {
  name: "inception_3b/relu_3x3"
  type: "ReLU"
  bottom: "inception_3b/3x3"
  top: "inception_3b/3x3"
}
layer {
  name: "inception_3b/5x5_reduce"
  type: "Convolution"
  bottom: "inception_3a/output"
  top: "inception_3b/5x5_reduce"
  param {
    lr_mult: 1
    decay_mult: 1
  }
  param {
    lr_mult: 2
    decay_mult: 0
  }
  convolution_param {
    num_output: 32
    kernel_size: 1
    weight_filler {
      type: "xavier"
      std: 0.2
    }
    bias_filler {
      type: "constant"
      value: 0.2
    }
  }
}
layer {
  name: "inception_3b/relu_5x5_reduce"
  type: "ReLU"
  bottom: "inception_3b/5x5_reduce"
  top: "inception_3b/5x5_reduce"
}
layer {
  name: "inception_3b/5x5"
  type: "Convolution"
  bottom: "inception_3b/5x5_reduce"
  top: "inception_3b/5x5"
  param {
    lr_mult: 1
    decay_mult: 1
  }
  param {
    lr_mult: 2
    decay_mult: 0
  }
  convolution_param {
    num_output: 96
    pad: 2
    kernel_size: 5
    weight_filler {
      type: "xavier"
      std: 0.03
    }
    bias_filler {
      type: "constant"
      value: 0.2
    }
  }
}
layer {
  name: "inception_3b/relu_5x5"
  type: "ReLU"
  bottom: "inception_3b/5x5"
  top: "inception_3b/5x5"
}
layer {
  name: "inception_3b/pool"
  type: "Pooling"
  bottom: "inception_3a/output"
  top: "inception_3b/pool"
  pooling_param {
    pool: MAX
    kernel_size: 3
    stride: 1
    pad: 1
  }
}
layer {
  name: "inception_3b/pool_proj"
  type: "Convolution"
  bottom: "inception_3b/pool"
  top: "inception_3b/pool_proj"
  param {
    lr_mult: 1
    decay_mult: 1
  }
  param {
    lr_mult: 2
    decay_mult: 0
  }
  convolution_param {
    num_output: 64
    kernel_size: 1
    weight_filler {
      type: "xavier"
      std: 0.1
    }
    bias_filler {
      type: "constant"
      value: 0.2
    }
  }
}
layer {
  name: "inception_3b/relu_pool_proj"
  type: "ReLU"
  bottom: "inception_3b/pool_proj"
  top: "inception_3b/pool_proj"
}
layer {
  name: "inception_3b/output"
  type: "Concat"
  bottom: "inception_3b/1x1"
  bottom: "inception_3b/3x3"
  bottom: "inception_3b/5x5"
  bottom: "inception_3b/pool_proj"
  top: "inception_3b/output"
}
layer {
  name: "pool3/3x3_s2"
  type: "Pooling"
  bottom: "inception_3b/output"
  top: "pool3/3x3_s2"
  pooling_param {
    pool: MAX
    kernel_size: 3
    stride: 2
  }
}
layer {
  name: "inception_4a/1x1"
  type: "Convolution"
  bottom: "pool3/3x3_s2"
  top: "inception_4a/1x1"
  param {
    lr_mult: 1
    decay_mult: 1
  }
  param {
    lr_mult: 2
    decay_mult: 0
  }
  convolution_param {
    num_output: 192
    kernel_size: 1
    weight_filler {
      type: "xavier"
      std: 0.03
    }
    bias_filler {
      type: "constant"
      value: 0.2
    }
  }
}
layer {
  name: "inception_4a/relu_1x1"
  type: "ReLU"
  bottom: "inception_4a/1x1"
  top: "inception_4a/1x1"
}
layer {
  name: "inception_4a/3x3_reduce"
  type: "Convolution"
  bottom: "pool3/3x3_s2"
  top: "inception_4a/3x3_reduce"
  param {
    lr_mult: 1
    decay_mult: 1
  }
  param {
    lr_mult: 2
    decay_mult: 0
  }
  convolution_param {
    num_output: 96
    kernel_size: 1
    weight_filler {
      type: "xavier"
      std: 0.09
    }
    bias_filler {
      type: "constant"
      value: 0.2
    }
  }
}
layer {
  name: "inception_4a/relu_3x3_reduce"
  type: "ReLU"
  bottom: "inception_4a/3x3_reduce"
  top: "inception_4a/3x3_reduce"
}
layer {
  name: "inception_4a/3x3"
  type: "Convolution"
  bottom: "inception_4a/3x3_reduce"
  top: "inception_4a/3x3"
  param {
    lr_mult: 1
    decay_mult: 1
  }
  param {
    lr_mult: 2
    decay_mult: 0
  }
  convolution_param {
    num_output: 208
    pad: 1
    kernel_size: 3
    weight_filler {
      type: "xavier"
      std: 0.03
    }
    bias_filler {
      type: "constant"
      value: 0.2
    }
  }
}
layer {
  name: "inception_4a/relu_3x3"
  type: "ReLU"
  bottom: "inception_4a/3x3"
  top: "inception_4a/3x3"
}
layer {
  name: "inception_4a/5x5_reduce"
  type: "Convolution"
  bottom: "pool3/3x3_s2"
  top: "inception_4a/5x5_reduce"
  param {
    lr_mult: 1
    decay_mult: 1
  }
  param {
    lr_mult: 2
    decay_mult: 0
  }
  convolution_param {
    num_output: 16
    kernel_size: 1
    weight_filler {
      type: "xavier"
      std: 0.2
    }
    bias_filler {
      type: "constant"
      value: 0.2
    }
  }
}
layer {
  name: "inception_4a/relu_5x5_reduce"
  type: "ReLU"
  bottom: "inception_4a/5x5_reduce"
  top: "inception_4a/5x5_reduce"
}
layer {
  name: "inception_4a/5x5"
  type: "Convolution"
  bottom: "inception_4a/5x5_reduce"
  top: "inception_4a/5x5"
  param {
    lr_mult: 1
    decay_mult: 1
  }
  param {
    lr_mult: 2
    decay_mult: 0
  }
  convolution_param {
    num_output: 48
    pad: 2
    kernel_size: 5
    weight_filler {
      type: "xavier"
      std: 0.03
    }
    bias_filler {
      type: "constant"
      value: 0.2
    }
  }
}
layer {
  name: "inception_4a/relu_5x5"
  type: "ReLU"
  bottom: "inception_4a/5x5"
  top: "inception_4a/5x5"
}
layer {
  name: "inception_4a/pool"
  type: "Pooling"
  bottom: "pool3/3x3_s2"
  top: "inception_4a/pool"
  pooling_param {
    pool: MAX
    kernel_size: 3
    stride: 1
    pad: 1
  }
}
layer {
  name: "inception_4a/pool_proj"
  type: "Convolution"
  bottom: "inception_4a/pool"
  top: "inception_4a/pool_proj"
  param {
    lr_mult: 1
    decay_mult: 1
  }
  param {
    lr_mult: 2
    decay_mult: 0
  }
  convolution_param {
    num_output: 64
    kernel_size: 1
    weight_filler {
      type: "xavier"
      std: 0.1
    }
    bias_filler {
      type: "constant"
      value: 0.2
    }
  }
}
layer {
  name: "inception_4a/relu_pool_proj"
  type: "ReLU"
  bottom: "inception_4a/pool_proj"
  top: "inception_4a/pool_proj"
}
layer {
  name: "inception_4a/output"
  type: "Concat"
  bottom: "inception_4a/1x1"
  bottom: "inception_4a/3x3"
  bottom: "inception_4a/5x5"
  bottom: "inception_4a/pool_proj"
  top: "inception_4a/output"
}
layer {
  name: "loss1/ave_pool"
  type: "Pooling"
  bottom: "inception_4a/output"
  top: "loss1/ave_pool"
  pooling_param {
    pool: AVE
    kernel_size: 5
    stride: 3
  }
}
layer {
  name: "loss1/conv"
  type: "Convolution"
  bottom: "loss1/ave_pool"
  top: "loss1/conv"
  param {
    lr_mult: 1
    decay_mult: 1
  }
  param {
    lr_mult: 2
    decay_mult: 0
  }
  convolution_param {
    num_output: 128
    kernel_size: 1
    weight_filler {
      type: "xavier"
      std: 0.08
    }
    bias_filler {
      type: "constant"
      value: 0.2
    }
  }
}
layer {
  name: "loss1/relu_conv"
  type: "ReLU"
  bottom: "loss1/conv"
  top: "loss1/conv"
}
layer {
  name: "loss1/fc"
  type: "InnerProduct"
  bottom: "loss1/conv"
  top: "loss1/fc"
  param {
    lr_mult: 1
    decay_mult: 1
  }
  param {
    lr_mult: 2
    decay_mult: 0
  }
  inner_product_param {
    num_output: 1024
    weight_filler {
      type: "xavier"
      std: 0.02
    }
    bias_filler {
      type: "constant"
      value: 0.2
    }
  }
}
layer {
  name: "loss1/relu_fc"
  type: "ReLU"
  bottom: "loss1/fc"
  top: "loss1/fc"
}
layer {
  name: "loss1/drop_fc"
  type: "Dropout"
  bottom: "loss1/fc"
  top: "loss1/fc"
  dropout_param {
    dropout_ratio: 0.7
  }
}
layer {
  name: "loss1/classifier_plantvillage"
  type: "InnerProduct"
  bottom: "loss1/fc"
  top: "loss1/classifier_plantvillage"
  param {
    lr_mult: 1
    decay_mult: 1
  }
  param {
    lr_mult: 2
    decay_mult: 0
  }
  inner_product_param {
    num_output: 38
    weight_filler {
      type: "xavier"
      std: 0.0009765625
    }
    bias_filler {
      type: "constant"
      value: 0
    }
  }
}
layer {
  name: "inception_4b/1x1"
  type: "Convolution"
  bottom: "inception_4a/output"
  top: "inception_4b/1x1"
  param {
    lr_mult: 1
    decay_mult: 1
  }
  param {
    lr_mult: 2
    decay_mult: 0
  }
  convolution_param {
    num_output: 160
    kernel_size: 1
    weight_filler {
      type: "xavier"
      std: 0.03
    }
    bias_filler {
      type: "constant"
      value: 0.2
    }
  }
}
layer {
  name: "inception_4b/relu_1x1"
  type: "ReLU"
  bottom: "inception_4b/1x1"
  top: "inception_4b/1x1"
}
layer {
  name: "inception_4b/3x3_reduce"
  type: "Convolution"
  bottom: "inception_4a/output"
  top: "inception_4b/3x3_reduce"
  param {
    lr_mult: 1
    decay_mult: 1
  }
  param {
    lr_mult: 2
    decay_mult: 0
  }
  convolution_param {
    num_output: 112
    kernel_size: 1
    weight_filler {
      type: "xavier"
      std: 0.09
    }
    bias_filler {
      type: "constant"
      value: 0.2
    }
  }
}
layer {
  name: "inception_4b/relu_3x3_reduce"
  type: "ReLU"
  bottom: "inception_4b/3x3_reduce"
  top: "inception_4b/3x3_reduce"
}
layer {
  name: "inception_4b/3x3"
  type: "Convolution"
  bottom: "inception_4b/3x3_reduce"
  top: "inception_4b/3x3"
  param {
    lr_mult: 1
    decay_mult: 1
  }
  param {
    lr_mult: 2
    decay_mult: 0
  }
  convolution_param {
    num_output: 224
    pad: 1
    kernel_size: 3
    weight_filler {
      type: "xavier"
      std: 0.03
    }
    bias_filler {
      type: "constant"
      value: 0.2
    }
  }
}
layer {
  name: "inception_4b/relu_3x3"
  type: "ReLU"
  bottom: "inception_4b/3x3"
  top: "inception_4b/3x3"
}
layer {
  name: "inception_4b/5x5_reduce"
  type: "Convolution"
  bottom: "inception_4a/output"
  top: "inception_4b/5x5_reduce"
  param {
    lr_mult: 1
    decay_mult: 1
  }
  param {
    lr_mult: 2
    decay_mult: 0
  }
  convolution_param {
    num_output: 24
    kernel_size: 1
    weight_filler {
      type: "xavier"
      std: 0.2
    }
    bias_filler {
      type: "constant"
      value: 0.2
    }
  }
}
layer {
  name: "inception_4b/relu_5x5_reduce"
  type: "ReLU"
  bottom: "inception_4b/5x5_reduce"
  top: "inception_4b/5x5_reduce"
}
layer {
  name: "inception_4b/5x5"
  type: "Convolution"
  bottom: "inception_4b/5x5_reduce"
  top: "inception_4b/5x5"
  param {
    lr_mult: 1
    decay_mult: 1
  }
  param {
    lr_mult: 2
    decay_mult: 0
  }
  convolution_param {
    num_output: 64
    pad: 2
    kernel_size: 5
    weight_filler {
      type: "xavier"
      std: 0.03
    }
    bias_filler {
      type: "constant"
      value: 0.2
    }
  }
}
layer {
  name: "inception_4b/relu_5x5"
  type: "ReLU"
  bottom: "inception_4b/5x5"
  top: "inception_4b/5x5"
}
layer {
  name: "inception_4b/pool"
  type: "Pooling"
  bottom: "inception_4a/output"
  top: "inception_4b/pool"
  pooling_param {
    pool: MAX
    kernel_size: 3
    stride: 1
    pad: 1
  }
}
layer {
  name: "inception_4b/pool_proj"
  type: "Convolution"
  bottom: "inception_4b/pool"
  top: "inception_4b/pool_proj"
  param {
    lr_mult: 1
    decay_mult: 1
  }
  param {
    lr_mult: 2
    decay_mult: 0
  }
  convolution_param {
    num_output: 64
    kernel_size: 1
    weight_filler {
      type: "xavier"
      std: 0.1
    }
    bias_filler {
      type: "constant"
      value: 0.2
    }
  }
}
layer {
  name: "inception_4b/relu_pool_proj"
  type: "ReLU"
  bottom: "inception_4b/pool_proj"
  top: "inception_4b/pool_proj"
}
layer {
  name: "inception_4b/output"
  type: "Concat"
  bottom: "inception_4b/1x1"
  bottom: "inception_4b/3x3"
  bottom: "inception_4b/5x5"
  bottom: "inception_4b/pool_proj"
  top: "inception_4b/output"
}
layer {
  name: "inception_4c/1x1"
  type: "Convolution"
  bottom: "inception_4b/output"
  top: "inception_4c/1x1"
  param {
    lr_mult: 1
    decay_mult: 1
  }
  param {
    lr_mult: 2
    decay_mult: 0
  }
  convolution_param {
    num_output: 128
    kernel_size: 1
    weight_filler {
      type: "xavier"
      std: 0.03
    }
    bias_filler {
      type: "constant"
      value: 0.2
    }
  }
}
layer {
  name: "inception_4c/relu_1x1"
  type: "ReLU"
  bottom: "inception_4c/1x1"
  top: "inception_4c/1x1"
}
layer {
  name: "inception_4c/3x3_reduce"
  type: "Convolution"
  bottom: "inception_4b/output"
  top: "inception_4c/3x3_reduce"
  param {
    lr_mult: 1
    decay_mult: 1
  }
  param {
    lr_mult: 2
    decay_mult: 0
  }
  convolution_param {
    num_output: 128
    kernel_size: 1
    weight_filler {
      type: "xavier"
      std: 0.09
    }
    bias_filler {
      type: "constant"
      value: 0.2
    }
  }
}
layer {
  name: "inception_4c/relu_3x3_reduce"
  type: "ReLU"
  bottom: "inception_4c/3x3_reduce"
  top: "inception_4c/3x3_reduce"
}
layer {
  name: "inception_4c/3x3"
  type: "Convolution"
  bottom: "inception_4c/3x3_reduce"
  top: "inception_4c/3x3"
  param {
    lr_mult: 1
    decay_mult: 1
  }
  param {
    lr_mult: 2
    decay_mult: 0
  }
  convolution_param {
    num_output: 256
    pad: 1
    kernel_size: 3
    weight_filler {
      type: "xavier"
      std: 0.03
    }
    bias_filler {
      type: "constant"
      value: 0.2
    }
  }
}
layer {
  name: "inception_4c/relu_3x3"
  type: "ReLU"
  bottom: "inception_4c/3x3"
  top: "inception_4c/3x3"
}
layer {
  name: "inception_4c/5x5_reduce"
  type: "Convolution"
  bottom: "inception_4b/output"
  top: "inception_4c/5x5_reduce"
  param {
    lr_mult: 1
    decay_mult: 1
  }
  param {
    lr_mult: 2
    decay_mult: 0
  }
  convolution_param {
    num_output: 24
    kernel_size: 1
    weight_filler {
      type: "xavier"
      std: 0.2
    }
    bias_filler {
      type: "constant"
      value: 0.2
    }
  }
}
layer {
  name: "inception_4c/relu_5x5_reduce"
  type: "ReLU"
  bottom: "inception_4c/5x5_reduce"
  top: "inception_4c/5x5_reduce"
}
layer {
  name: "inception_4c/5x5"
  type: "Convolution"
  bottom: "inception_4c/5x5_reduce"
  top: "inception_4c/5x5"
  param {
    lr_mult: 1
    decay_mult: 1
  }
  param {
    lr_mult: 2
    decay_mult: 0
  }
  convolution_param {
    num_output: 64
    pad: 2
    kernel_size: 5
    weight_filler {
      type: "xavier"
      std: 0.03
    }
    bias_filler {
      type: "constant"
      value: 0.2
    }
  }
}
layer {
  name: "inception_4c/relu_5x5"
  type: "ReLU"
  bottom: "inception_4c/5x5"
  top: "inception_4c/5x5"
}
layer {
  name: "inception_4c/pool"
  type: "Pooling"
  bottom: "inception_4b/output"
  top: "inception_4c/pool"
  pooling_param {
    pool: MAX
    kernel_size: 3
    stride: 1
    pad: 1
  }
}
layer {
  name: "inception_4c/pool_proj"
  type: "Convolution"
  bottom: "inception_4c/pool"
  top: "inception_4c/pool_proj"
  param {
    lr_mult: 1
    decay_mult: 1
  }
  param {
    lr_mult: 2
    decay_mult: 0
  }
  convolution_param {
    num_output: 64
    kernel_size: 1
    weight_filler {
      type: "xavier"
      std: 0.1
    }
    bias_filler {
      type: "constant"
      value: 0.2
    }
  }
}
layer {
  name: "inception_4c/relu_pool_proj"
  type: "ReLU"
  bottom: "inception_4c/pool_proj"
  top: "inception_4c/pool_proj"
}
layer {
  name: "inception_4c/output"
  type: "Concat"
  bottom: "inception_4c/1x1"
  bottom: "inception_4c/3x3"
  bottom: "inception_4c/5x5"
  bottom: "inception_4c/pool_proj"
  top: "inception_4c/output"
}
layer {
  name: "inception_4d/1x1"
  type: "Convolution"
  bottom: "inception_4c/output"
  top: "inception_4d/1x1"
  param {
    lr_mult: 1
    decay_mult: 1
  }
  param {
    lr_mult: 2
    decay_mult: 0
  }
  convolution_param {
    num_output: 112
    kernel_size: 1
    weight_filler {
      type: "xavier"
      std: 0.03
    }
    bias_filler {
      type: "constant"
      value: 0.2
    }
  }
}
layer {
  name: "inception_4d/relu_1x1"
  type: "ReLU"
  bottom: "inception_4d/1x1"
  top: "inception_4d/1x1"
}
layer {
  name: "inception_4d/3x3_reduce"
  type: "Convolution"
  bottom: "inception_4c/output"
  top: "inception_4d/3x3_reduce"
  param {
    lr_mult: 1
    decay_mult: 1
  }
  param {
    lr_mult: 2
    decay_mult: 0
  }
  convolution_param {
    num_output: 144
    kernel_size: 1
    weight_filler {
      type: "xavier"
      std: 0.09
    }
    bias_filler {
      type: "constant"
      value: 0.2
    }
  }
}
layer {
  name: "inception_4d/relu_3x3_reduce"
  type: "ReLU"
  bottom: "inception_4d/3x3_reduce"
  top: "inception_4d/3x3_reduce"
}
layer {
  name: "inception_4d/3x3"
  type: "Convolution"
  bottom: "inception_4d/3x3_reduce"
  top: "inception_4d/3x3"
  param {
    lr_mult: 1
    decay_mult: 1
  }
  param {
    lr_mult: 2
    decay_mult: 0
  }
  convolution_param {
    num_output: 288
    pad: 1
    kernel_size: 3
    weight_filler {
      type: "xavier"
      std: 0.03
    }
    bias_filler {
      type: "constant"
      value: 0.2
    }
  }
}
layer {
  name: "inception_4d/relu_3x3"
  type: "ReLU"
  bottom: "inception_4d/3x3"
  top: "inception_4d/3x3"
}
layer {
  name: "inception_4d/5x5_reduce"
  type: "Convolution"
  bottom: "inception_4c/output"
  top: "inception_4d/5x5_reduce"
  param {
    lr_mult: 1
    decay_mult: 1
  }
  param {
    lr_mult: 2
    decay_mult: 0
  }
  convolution_param {
    num_output: 32
    kernel_size: 1
    weight_filler {
      type: "xavier"
      std: 0.2
    }
    bias_filler {
      type: "constant"
      value: 0.2
    }
  }
}
layer {
  name: "inception_4d/relu_5x5_reduce"
  type: "ReLU"
  bottom: "inception_4d/5x5_reduce"
  top: "inception_4d/5x5_reduce"
}
layer {
  name: "inception_4d/5x5"
  type: "Convolution"
  bottom: "inception_4d/5x5_reduce"
  top: "inception_4d/5x5"
  param {
    lr_mult: 1
    decay_mult: 1
  }
  param {
    lr_mult: 2
    decay_mult: 0
  }
  convolution_param {
    num_output: 64
    pad: 2
    kernel_size: 5
    weight_filler {
      type: "xavier"
      std: 0.03
    }
    bias_filler {
      type: "constant"
      value: 0.2
    }
  }
}
layer {
  name: "inception_4d/relu_5x5"
  type: "ReLU"
  bottom: "inception_4d/5x5"
  top: "inception_4d/5x5"
}
layer {
  name: "inception_4d/pool"
  type: "Pooling"
  bottom: "inception_4c/output"
  top: "inception_4d/pool"
  pooling_param {
    pool: MAX
    kernel_size: 3
    stride: 1
    pad: 1
  }
}
layer {
  name: "inception_4d/pool_proj"
  type: "Convolution"
  bottom: "inception_4d/pool"
  top: "inception_4d/pool_proj"
  param {
    lr_mult: 1
    decay_mult: 1
  }
  param {
    lr_mult: 2
    decay_mult: 0
  }
  convolution_param {
    num_output: 64
    kernel_size: 1
    weight_filler {
      type: "xavier"
      std: 0.1
    }
    bias_filler {
      type: "constant"
      value: 0.2
    }
  }
}
layer {
  name: "inception_4d/relu_pool_proj"
  type: "ReLU"
  bottom: "inception_4d/pool_proj"
  top: "inception_4d/pool_proj"
}
layer {
  name: "inception_4d/output"
  type: "Concat"
  bottom: "inception_4d/1x1"
  bottom: "inception_4d/3x3"
  bottom: "inception_4d/5x5"
  bottom: "inception_4d/pool_proj"
  top: "inception_4d/output"
}
layer {
  name: "loss2/ave_pool"
  type: "Pooling"
  bottom: "inception_4d/output"
  top: "loss2/ave_pool"
  pooling_param {
    pool: AVE
    kernel_size: 5
    stride: 3
  }
}
layer {
  name: "loss2/conv"
  type: "Convolution"
  bottom: "loss2/ave_pool"
  top: "loss2/conv"
  param {
    lr_mult: 1
    decay_mult: 1
  }
  param {
    lr_mult: 2
    decay_mult: 0
  }
  convolution_param {
    num_output: 128
    kernel_size: 1
    weight_filler {
      type: "xavier"
      std: 0.08
    }
    bias_filler {
      type: "constant"
      value: 0.2
    }
  }
}
layer {
  name: "loss2/relu_conv"
  type: "ReLU"
  bottom: "loss2/conv"
  top: "loss2/conv"
}
layer {
  name: "loss2/fc"
  type: "InnerProduct"
  bottom: "loss2/conv"
  top: "loss2/fc"
  param {
    lr_mult: 1
    decay_mult: 1
  }
  param {
    lr_mult: 2
    decay_mult: 0
  }
  inner_product_param {
    num_output: 1024
    weight_filler {
      type: "xavier"
      std: 0.02
    }
    bias_filler {
      type: "constant"
      value: 0.2
    }
  }
}
layer {
  name: "loss2/relu_fc"
  type: "ReLU"
  bottom: "loss2/fc"
  top: "loss2/fc"
}
layer {
  name: "loss2/drop_fc"
  type: "Dropout"
  bottom: "loss2/fc"
  top: "loss2/fc"
  dropout_param {
    dropout_ratio: 0.7
  }
}
layer {
  name: "loss2/classifier_plantvillage"
  type: "InnerProduct"
  bottom: "loss2/fc"
  top: "loss2/classifier_plantvillage"
  param {
    lr_mult: 1
    decay_mult: 1
  }
  param {
    lr_mult: 2
    decay_mult: 0
  }
  inner_product_param {
    num_output: 38
    weight_filler {
      type: "xavier"
      std: 0.0009765625
    }
    bias_filler {
      type: "constant"
      value: 0
    }
  }
}
layer {
  name: "inception_4e/1x1"
  type: "Convolution"
  bottom: "inception_4d/output"
  top: "inception_4e/1x1"
  param {
    lr_mult: 1
    decay_mult: 1
  }
  param {
    lr_mult: 2
    decay_mult: 0
  }
  convolution_param {
    num_output: 256
    kernel_size: 1
    weight_filler {
      type: "xavier"
      std: 0.03
    }
    bias_filler {
      type: "constant"
      value: 0.2
    }
  }
}
layer {
  name: "inception_4e/relu_1x1"
  type: "ReLU"
  bottom: "inception_4e/1x1"
  top: "inception_4e/1x1"
}
layer {
  name: "inception_4e/3x3_reduce"
  type: "Convolution"
  bottom: "inception_4d/output"
  top: "inception_4e/3x3_reduce"
  param {
    lr_mult: 1
    decay_mult: 1
  }
  param {
    lr_mult: 2
    decay_mult: 0
  }
  convolution_param {
    num_output: 160
    kernel_size: 1
    weight_filler {
      type: "xavier"
      std: 0.09
    }
    bias_filler {
      type: "constant"
      value: 0.2
    }
  }
}
layer {
  name: "inception_4e/relu_3x3_reduce"
  type: "ReLU"
  bottom: "inception_4e/3x3_reduce"
  top: "inception_4e/3x3_reduce"
}
layer {
  name: "inception_4e/3x3"
  type: "Convolution"
  bottom: "inception_4e/3x3_reduce"
  top: "inception_4e/3x3"
  param {
    lr_mult: 1
    decay_mult: 1
  }
  param {
    lr_mult: 2
    decay_mult: 0
  }
  convolution_param {
    num_output: 320
    pad: 1
    kernel_size: 3
    weight_filler {
      type: "xavier"
      std: 0.03
    }
    bias_filler {
      type: "constant"
      value: 0.2
    }
  }
}
layer {
  name: "inception_4e/relu_3x3"
  type: "ReLU"
  bottom: "inception_4e/3x3"
  top: "inception_4e/3x3"
}
layer {
  name: "inception_4e/5x5_reduce"
  type: "Convolution"
  bottom: "inception_4d/output"
  top: "inception_4e/5x5_reduce"
  param {
    lr_mult: 1
    decay_mult: 1
  }
  param {
    lr_mult: 2
    decay_mult: 0
  }
  convolution_param {
    num_output: 32
    kernel_size: 1
    weight_filler {
      type: "xavier"
      std: 0.2
    }
    bias_filler {
      type: "constant"
      value: 0.2
    }
  }
}
layer {
  name: "inception_4e/relu_5x5_reduce"
  type: "ReLU"
  bottom: "inception_4e/5x5_reduce"
  top: "inception_4e/5x5_reduce"
}
layer {
  name: "inception_4e/5x5"
  type: "Convolution"
  bottom: "inception_4e/5x5_reduce"
  top: "inception_4e/
I0403 16:35:27.364845 21250 layer_factory.hpp:77] Creating layer data
I0403 16:35:27.365459 21250 net.cpp:91] Creating Layer data
I0403 16:35:27.365492 21250 net.cpp:399] data -> data
I0403 16:35:27.365542 21250 net.cpp:399] data -> label
I0403 16:35:27.365578 21250 data_transformer.cpp:25] Loading mean file from: /home/mohanty/data/final_dataset/lmdb/grayscale-20-80/mean.binaryproto
I0403 16:35:27.366832 21253 db_lmdb.cpp:38] Opened lmdb /home/mohanty/data/final_dataset/lmdb/grayscale-20-80/test_db
I0403 16:35:27.378782 21250 data_layer.cpp:41] output data size: 24,3,224,224
I0403 16:35:27.405704 21250 net.cpp:141] Setting up data
I0403 16:35:27.405802 21250 net.cpp:148] Top shape: 24 3 224 224 (3612672)
I0403 16:35:27.405825 21250 net.cpp:148] Top shape: 24 (24)
I0403 16:35:27.405840 21250 net.cpp:156] Memory required for data: 14450784
I0403 16:35:27.405867 21250 layer_factory.hpp:77] Creating layer label_data_1_split
I0403 16:35:27.405894 21250 net.cpp:91] Creating Layer label_data_1_split
I0403 16:35:27.405912 21250 net.cpp:425] label_data_1_split <- label
I0403 16:35:27.405944 21250 net.cpp:399] label_data_1_split -> label_data_1_split_0
I0403 16:35:27.405975 21250 net.cpp:399] label_data_1_split -> label_data_1_split_1
I0403 16:35:27.405997 21250 net.cpp:399] label_data_1_split -> label_data_1_split_2
I0403 16:35:27.406021 21250 net.cpp:399] label_data_1_split -> label_data_1_split_3
I0403 16:35:27.406043 21250 net.cpp:399] label_data_1_split -> label_data_1_split_4
I0403 16:35:27.406062 21250 net.cpp:399] label_data_1_split -> label_data_1_split_5
I0403 16:35:27.406081 21250 net.cpp:399] label_data_1_split -> label_data_1_split_6
I0403 16:35:27.406102 21250 net.cpp:399] label_data_1_split -> label_data_1_split_7
I0403 16:35:27.406121 21250 net.cpp:399] label_data_1_split -> label_data_1_split_8
I0403 16:35:27.406141 21250 net.cpp:399] label_data_1_split -> label_data_1_split_9
I0403 16:35:27.406260 21250 net.cpp:141] Setting up label_data_1_split
I0403 16:35:27.406285 21250 net.cpp:148] Top shape: 24 (24)
I0403 16:35:27.406301 21250 net.cpp:148] Top shape: 24 (24)
I0403 16:35:27.406318 21250 net.cpp:148] Top shape: 24 (24)
I0403 16:35:27.406334 21250 net.cpp:148] Top shape: 24 (24)
I0403 16:35:27.406350 21250 net.cpp:148] Top shape: 24 (24)
I0403 16:35:27.406366 21250 net.cpp:148] Top shape: 24 (24)
I0403 16:35:27.406381 21250 net.cpp:148] Top shape: 24 (24)
I0403 16:35:27.406397 21250 net.cpp:148] Top shape: 24 (24)
I0403 16:35:27.406412 21250 net.cpp:148] Top shape: 24 (24)
I0403 16:35:27.406429 21250 net.cpp:148] Top shape: 24 (24)
I0403 16:35:27.406472 21250 net.cpp:156] Memory required for data: 14451744
I0403 16:35:27.406489 21250 layer_factory.hpp:77] Creating layer conv1/7x7_s2
I0403 16:35:27.406522 21250 net.cpp:91] Creating Layer conv1/7x7_s2
I0403 16:35:27.406539 21250 net.cpp:425] conv1/7x7_s2 <- data
I0403 16:35:27.406559 21250 net.cpp:399] conv1/7x7_s2 -> conv1/7x7_s2
I0403 16:35:27.543629 21250 net.cpp:141] Setting up conv1/7x7_s2
I0403 16:35:27.543714 21250 net.cpp:148] Top shape: 24 64 112 112 (19267584)
I0403 16:35:27.543730 21250 net.cpp:156] Memory required for data: 91522080
I0403 16:35:27.543761 21250 layer_factory.hpp:77] Creating layer conv1/relu_7x7
I0403 16:35:27.543788 21250 net.cpp:91] Creating Layer conv1/relu_7x7
I0403 16:35:27.543805 21250 net.cpp:425] conv1/relu_7x7 <- conv1/7x7_s2
I0403 16:35:27.543824 21250 net.cpp:386] conv1/relu_7x7 -> conv1/7x7_s2 (in-place)
I0403 16:35:27.544097 21250 net.cpp:141] Setting up conv1/relu_7x7
I0403 16:35:27.544124 21250 net.cpp:148] Top shape: 24 64 112 112 (19267584)
I0403 16:35:27.544140 21250 net.cpp:156] Memory required for data: 168592416
I0403 16:35:27.544154 21250 layer_factory.hpp:77] Creating layer pool1/3x3_s2
I0403 16:35:27.544179 21250 net.cpp:91] Creating Layer pool1/3x3_s2
I0403 16:35:27.544198 21250 net.cpp:425] pool1/3x3_s2 <- conv1/7x7_s2
I0403 16:35:27.544216 21250 net.cpp:399] pool1/3x3_s2 -> pool1/3x3_s2
I0403 16:35:27.544307 21250 net.cpp:141] Setting up pool1/3x3_s2
I0403 16:35:27.544332 21250 net.cpp:148] Top shape: 24 64 56 56 (4816896)
I0403 16:35:27.544348 21250 net.cpp:156] Memory required for data: 187860000
I0403 16:35:27.544363 21250 layer_factory.hpp:77] Creating layer pool1/norm1
I0403 16:35:27.544389 21250 net.cpp:91] Creating Layer pool1/norm1
I0403 16:35:27.544406 21250 net.cpp:425] pool1/norm1 <- pool1/3x3_s2
I0403 16:35:27.544425 21250 net.cpp:399] pool1/norm1 -> pool1/norm1
I0403 16:35:27.544734 21250 net.cpp:141] Setting up pool1/norm1
I0403 16:35:27.544762 21250 net.cpp:148] Top shape: 24 64 56 56 (4816896)
I0403 16:35:27.544777 21250 net.cpp:156] Memory required for data: 207127584
I0403 16:35:27.544792 21250 layer_factory.hpp:77] Creating layer conv2/3x3_reduce
I0403 16:35:27.544817 21250 net.cpp:91] Creating Layer conv2/3x3_reduce
I0403 16:35:27.544834 21250 net.cpp:425] conv2/3x3_reduce <- pool1/norm1
I0403 16:35:27.544854 21250 net.cpp:399] conv2/3x3_reduce -> conv2/3x3_reduce
I0403 16:35:27.546195 21250 net.cpp:141] Setting up conv2/3x3_reduce
I0403 16:35:27.546226 21250 net.cpp:148] Top shape: 24 64 56 56 (4816896)
I0403 16:35:27.546241 21250 net.cpp:156] Memory required for data: 226395168
I0403 16:35:27.546262 21250 layer_factory.hpp:77] Creating layer conv2/relu_3x3_reduce
I0403 16:35:27.546282 21250 net.cpp:91] Creating Layer conv2/relu_3x3_reduce
I0403 16:35:27.546298 21250 net.cpp:425] conv2/relu_3x3_reduce <- conv2/3x3_reduce
I0403 16:35:27.546314 21250 net.cpp:386] conv2/relu_3x3_reduce -> conv2/3x3_reduce (in-place)
I0403 16:35:27.546571 21250 net.cpp:141] Setting up conv2/relu_3x3_reduce
I0403 16:35:27.546598 21250 net.cpp:148] Top shape: 24 64 56 56 (4816896)
I0403 16:35:27.546613 21250 net.cpp:156] Memory required for data: 245662752
I0403 16:35:27.546629 21250 layer_factory.hpp:77] Creating layer conv2/3x3
I0403 16:35:27.546651 21250 net.cpp:91] Creating Layer conv2/3x3
I0403 16:35:27.546668 21250 net.cpp:425] conv2/3x3 <- conv2/3x3_reduce
I0403 16:35:27.546686 21250 net.cpp:399] conv2/3x3 -> conv2/3x3
I0403 16:35:27.549032 21250 net.cpp:141] Setting up conv2/3x3
I0403 16:35:27.549064 21250 net.cpp:148] Top shape: 24 192 56 56 (14450688)
I0403 16:35:27.549082 21250 net.cpp:156] Memory required for data: 303465504
I0403 16:35:27.549103 21250 layer_factory.hpp:77] Creating layer conv2/relu_3x3
I0403 16:35:27.549123 21250 net.cpp:91] Creating Layer conv2/relu_3x3
I0403 16:35:27.549139 21250 net.cpp:425] conv2/relu_3x3 <- conv2/3x3
I0403 16:35:27.549156 21250 net.cpp:386] conv2/relu_3x3 -> conv2/3x3 (in-place)
I0403 16:35:27.549326 21250 net.cpp:141] Setting up conv2/relu_3x3
I0403 16:35:27.549353 21250 net.cpp:148] Top shape: 24 192 56 56 (14450688)
I0403 16:35:27.549399 21250 net.cpp:156] Memory required for data: 361268256
I0403 16:35:27.549417 21250 layer_factory.hpp:77] Creating layer conv2/norm2
I0403 16:35:27.549435 21250 net.cpp:91] Creating Layer conv2/norm2
I0403 16:35:27.549451 21250 net.cpp:425] conv2/norm2 <- conv2/3x3
I0403 16:35:27.549470 21250 net.cpp:399] conv2/norm2 -> conv2/norm2
I0403 16:35:27.549768 21250 net.cpp:141] Setting up conv2/norm2
I0403 16:35:27.549796 21250 net.cpp:148] Top shape: 24 192 56 56 (14450688)
I0403 16:35:27.549811 21250 net.cpp:156] Memory required for data: 419071008
I0403 16:35:27.549826 21250 layer_factory.hpp:77] Creating layer pool2/3x3_s2
I0403 16:35:27.549845 21250 net.cpp:91] Creating Layer pool2/3x3_s2
I0403 16:35:27.549860 21250 net.cpp:425] pool2/3x3_s2 <- conv2/norm2
I0403 16:35:27.549880 21250 net.cpp:399] pool2/3x3_s2 -> pool2/3x3_s2
I0403 16:35:27.549931 21250 net.cpp:141] Setting up pool2/3x3_s2
I0403 16:35:27.549954 21250 net.cpp:148] Top shape: 24 192 28 28 (3612672)
I0403 16:35:27.549969 21250 net.cpp:156] Memory required for data: 433521696
I0403 16:35:27.549983 21250 layer_factory.hpp:77] Creating layer pool2/3x3_s2_pool2/3x3_s2_0_split
I0403 16:35:27.550001 21250 net.cpp:91] Creating Layer pool2/3x3_s2_pool2/3x3_s2_0_split
I0403 16:35:27.550021 21250 net.cpp:425] pool2/3x3_s2_pool2/3x3_s2_0_split <- pool2/3x3_s2
I0403 16:35:27.550040 21250 net.cpp:399] pool2/3x3_s2_pool2/3x3_s2_0_split -> pool2/3x3_s2_pool2/3x3_s2_0_split_0
I0403 16:35:27.550060 21250 net.cpp:399] pool2/3x3_s2_pool2/3x3_s2_0_split -> pool2/3x3_s2_pool2/3x3_s2_0_split_1
I0403 16:35:27.550079 21250 net.cpp:399] pool2/3x3_s2_pool2/3x3_s2_0_split -> pool2/3x3_s2_pool2/3x3_s2_0_split_2
I0403 16:35:27.550099 21250 net.cpp:399] pool2/3x3_s2_pool2/3x3_s2_0_split -> pool2/3x3_s2_pool2/3x3_s2_0_split_3
I0403 16:35:27.550165 21250 net.cpp:141] Setting up pool2/3x3_s2_pool2/3x3_s2_0_split
I0403 16:35:27.550189 21250 net.cpp:148] Top shape: 24 192 28 28 (3612672)
I0403 16:35:27.550205 21250 net.cpp:148] Top shape: 24 192 28 28 (3612672)
I0403 16:35:27.550220 21250 net.cpp:148] Top shape: 24 192 28 28 (3612672)
I0403 16:35:27.550236 21250 net.cpp:148] Top shape: 24 192 28 28 (3612672)
I0403 16:35:27.550251 21250 net.cpp:156] Memory required for data: 491324448
I0403 16:35:27.550266 21250 layer_factory.hpp:77] Creating layer inception_3a/1x1
I0403 16:35:27.550287 21250 net.cpp:91] Creating Layer inception_3a/1x1
I0403 16:35:27.550303 21250 net.cpp:425] inception_3a/1x1 <- pool2/3x3_s2_pool2/3x3_s2_0_split_0
I0403 16:35:27.550325 21250 net.cpp:399] inception_3a/1x1 -> inception_3a/1x1
I0403 16:35:27.551882 21250 net.cpp:141] Setting up inception_3a/1x1
I0403 16:35:27.551913 21250 net.cpp:148] Top shape: 24 64 28 28 (1204224)
I0403 16:35:27.551929 21250 net.cpp:156] Memory required for data: 496141344
I0403 16:35:27.551949 21250 layer_factory.hpp:77] Creating layer inception_3a/relu_1x1
I0403 16:35:27.551970 21250 net.cpp:91] Creating Layer inception_3a/relu_1x1
I0403 16:35:27.551987 21250 net.cpp:425] inception_3a/relu_1x1 <- inception_3a/1x1
I0403 16:35:27.552006 21250 net.cpp:386] inception_3a/relu_1x1 -> inception_3a/1x1 (in-place)
I0403 16:35:27.552199 21250 net.cpp:141] Setting up inception_3a/relu_1x1
I0403 16:35:27.552228 21250 net.cpp:148] Top shape: 24 64 28 28 (1204224)
I0403 16:35:27.552244 21250 net.cpp:156] Memory required for data: 500958240
I0403 16:35:27.552259 21250 layer_factory.hpp:77] Creating layer inception_3a/3x3_reduce
I0403 16:35:27.552283 21250 net.cpp:91] Creating Layer inception_3a/3x3_reduce
I0403 16:35:27.552299 21250 net.cpp:425] inception_3a/3x3_reduce <- pool2/3x3_s2_pool2/3x3_s2_0_split_1
I0403 16:35:27.552320 21250 net.cpp:399] inception_3a/3x3_reduce -> inception_3a/3x3_reduce
I0403 16:35:27.554072 21250 net.cpp:141] Setting up inception_3a/3x3_reduce
I0403 16:35:27.554103 21250 net.cpp:148] Top shape: 24 96 28 28 (1806336)
I0403 16:35:27.554119 21250 net.cpp:156] Memory required for data: 508183584
I0403 16:35:27.554142 21250 layer_factory.hpp:77] Creating layer inception_3a/relu_3x3_reduce
I0403 16:35:27.554182 21250 net.cpp:91] Creating Layer inception_3a/relu_3x3_reduce
I0403 16:35:27.554200 21250 net.cpp:425] inception_3a/relu_3x3_reduce <- inception_3a/3x3_reduce
I0403 16:35:27.554221 21250 net.cpp:386] inception_3a/relu_3x3_reduce -> inception_3a/3x3_reduce (in-place)
I0403 16:35:27.554414 21250 net.cpp:141] Setting up inception_3a/relu_3x3_reduce
I0403 16:35:27.554440 21250 net.cpp:148] Top shape: 24 96 28 28 (1806336)
I0403 16:35:27.554455 21250 net.cpp:156] Memory required for data: 515408928
I0403 16:35:27.554469 21250 layer_factory.hpp:77] Creating layer inception_3a/3x3
I0403 16:35:27.554492 21250 net.cpp:91] Creating Layer inception_3a/3x3
I0403 16:35:27.554510 21250 net.cpp:425] inception_3a/3x3 <- inception_3a/3x3_reduce
I0403 16:35:27.554533 21250 net.cpp:399] inception_3a/3x3 -> inception_3a/3x3
I0403 16:35:27.556267 21250 net.cpp:141] Setting up inception_3a/3x3
I0403 16:35:27.556301 21250 net.cpp:148] Top shape: 24 128 28 28 (2408448)
I0403 16:35:27.556318 21250 net.cpp:156] Memory required for data: 525042720
I0403 16:35:27.556337 21250 layer_factory.hpp:77] Creating layer inception_3a/relu_3x3
I0403 16:35:27.556355 21250 net.cpp:91] Creating Layer inception_3a/relu_3x3
I0403 16:35:27.556372 21250 net.cpp:425] inception_3a/relu_3x3 <- inception_3a/3x3
I0403 16:35:27.556390 21250 net.cpp:386] inception_3a/relu_3x3 -> inception_3a/3x3 (in-place)
I0403 16:35:27.556675 21250 net.cpp:141] Setting up inception_3a/relu_3x3
I0403 16:35:27.556705 21250 net.cpp:148] Top shape: 24 128 28 28 (2408448)
I0403 16:35:27.556722 21250 net.cpp:156] Memory required for data: 534676512
I0403 16:35:27.556737 21250 layer_factory.hpp:77] Creating layer inception_3a/5x5_reduce
I0403 16:35:27.556758 21250 net.cpp:91] Creating Layer inception_3a/5x5_reduce
I0403 16:35:27.556776 21250 net.cpp:425] inception_3a/5x5_reduce <- pool2/3x3_s2_pool2/3x3_s2_0_split_2
I0403 16:35:27.556797 21250 net.cpp:399] inception_3a/5x5_reduce -> inception_3a/5x5_reduce
I0403 16:35:27.557847 21250 net.cpp:141] Setting up inception_3a/5x5_reduce
I0403 16:35:27.557879 21250 net.cpp:148] Top shape: 24 16 28 28 (301056)
I0403 16:35:27.557896 21250 net.cpp:156] Memory required for data: 535880736
I0403 16:35:27.557915 21250 layer_factory.hpp:77] Creating layer inception_3a/relu_5x5_reduce
I0403 16:35:27.557934 21250 net.cpp:91] Creating Layer inception_3a/relu_5x5_reduce
I0403 16:35:27.557950 21250 net.cpp:425] inception_3a/relu_5x5_reduce <- inception_3a/5x5_reduce
I0403 16:35:27.557968 21250 net.cpp:386] inception_3a/relu_5x5_reduce -> inception_3a/5x5_reduce (in-place)
I0403 16:35:27.558303 21250 net.cpp:141] Setting up inception_3a/relu_5x5_reduce
I0403 16:35:27.558331 21250 net.cpp:148] Top shape: 24 16 28 28 (301056)
I0403 16:35:27.558347 21250 net.cpp:156] Memory required for data: 537084960
I0403 16:35:27.558362 21250 layer_factory.hpp:77] Creating layer inception_3a/5x5
I0403 16:35:27.558384 21250 net.cpp:91] Creating Layer inception_3a/5x5
I0403 16:35:27.558403 21250 net.cpp:425] inception_3a/5x5 <- inception_3a/5x5_reduce
I0403 16:35:27.558425 21250 net.cpp:399] inception_3a/5x5 -> inception_3a/5x5
I0403 16:35:27.559495 21250 net.cpp:141] Setting up inception_3a/5x5
I0403 16:35:27.559525 21250 net.cpp:148] Top shape: 24 32 28 28 (602112)
I0403 16:35:27.559540 21250 net.cpp:156] Memory required for data: 539493408
I0403 16:35:27.559558 21250 layer_factory.hpp:77] Creating layer inception_3a/relu_5x5
I0403 16:35:27.559579 21250 net.cpp:91] Creating Layer inception_3a/relu_5x5
I0403 16:35:27.559597 21250 net.cpp:425] inception_3a/relu_5x5 <- inception_3a/5x5
I0403 16:35:27.559614 21250 net.cpp:386] inception_3a/relu_5x5 -> inception_3a/5x5 (in-place)
I0403 16:35:27.559797 21250 net.cpp:141] Setting up inception_3a/relu_5x5
I0403 16:35:27.559825 21250 net.cpp:148] Top shape: 24 32 28 28 (602112)
I0403 16:35:27.559841 21250 net.cpp:156] Memory required for data: 541901856
I0403 16:35:27.559856 21250 layer_factory.hpp:77] Creating layer inception_3a/pool
I0403 16:35:27.559875 21250 net.cpp:91] Creating Layer inception_3a/pool
I0403 16:35:27.559906 21250 net.cpp:425] inception_3a/pool <- pool2/3x3_s2_pool2/3x3_s2_0_split_3
I0403 16:35:27.559927 21250 net.cpp:399] inception_3a/pool -> inception_3a/pool
I0403 16:35:27.559988 21250 net.cpp:141] Setting up inception_3a/pool
I0403 16:35:27.560014 21250 net.cpp:148] Top shape: 24 192 28 28 (3612672)
I0403 16:35:27.560034 21250 net.cpp:156] Memory required for data: 556352544
I0403 16:35:27.560048 21250 layer_factory.hpp:77] Creating layer inception_3a/pool_proj
I0403 16:35:27.560071 21250 net.cpp:91] Creating Layer inception_3a/pool_proj
I0403 16:35:27.560089 21250 net.cpp:425] inception_3a/pool_proj <- inception_3a/pool
I0403 16:35:27.560111 21250 net.cpp:399] inception_3a/pool_proj -> inception_3a/pool_proj
I0403 16:35:27.561125 21250 net.cpp:141] Setting up inception_3a/pool_proj
I0403 16:35:27.561153 21250 net.cpp:148] Top shape: 24 32 28 28 (602112)
I0403 16:35:27.561169 21250 net.cpp:156] Memory required for data: 558760992
I0403 16:35:27.561194 21250 layer_factory.hpp:77] Creating layer inception_3a/relu_pool_proj
I0403 16:35:27.561215 21250 net.cpp:91] Creating Layer inception_3a/relu_pool_proj
I0403 16:35:27.561233 21250 net.cpp:425] inception_3a/relu_pool_proj <- inception_3a/pool_proj
I0403 16:35:27.561249 21250 net.cpp:386] inception_3a/relu_pool_proj -> inception_3a/pool_proj (in-place)
I0403 16:35:27.561537 21250 net.cpp:141] Setting up inception_3a/relu_pool_proj
I0403 16:35:27.561566 21250 net.cpp:148] Top shape: 24 32 28 28 (602112)
I0403 16:35:27.561583 21250 net.cpp:156] Memory required for data: 561169440
I0403 16:35:27.561599 21250 layer_factory.hpp:77] Creating layer inception_3a/output
I0403 16:35:27.561617 21250 net.cpp:91] Creating Layer inception_3a/output
I0403 16:35:27.561633 21250 net.cpp:425] inception_3a/output <- inception_3a/1x1
I0403 16:35:27.561650 21250 net.cpp:425] inception_3a/output <- inception_3a/3x3
I0403 16:35:27.561666 21250 net.cpp:425] inception_3a/output <- inception_3a/5x5
I0403 16:35:27.561681 21250 net.cpp:425] inception_3a/output <- inception_3a/pool_proj
I0403 16:35:27.561699 21250 net.cpp:399] inception_3a/output -> inception_3a/output
I0403 16:35:27.561748 21250 net.cpp:141] Setting up inception_3a/output
I0403 16:35:27.561772 21250 net.cpp:148] Top shape: 24 256 28 28 (4816896)
I0403 16:35:27.561787 21250 net.cpp:156] Memory required for data: 580437024
I0403 16:35:27.561802 21250 layer_factory.hpp:77] Creating layer inception_3a/output_inception_3a/output_0_split
I0403 16:35:27.561820 21250 net.cpp:91] Creating Layer inception_3a/output_inception_3a/output_0_split
I0403 16:35:27.561839 21250 net.cpp:425] inception_3a/output_inception_3a/output_0_split <- inception_3a/output
I0403 16:35:27.561856 21250 net.cpp:399] inception_3a/output_inception_3a/output_0_split -> inception_3a/output_inception_3a/output_0_split_0
I0403 16:35:27.561877 21250 net.cpp:399] inception_3a/output_inception_3a/output_0_split -> inception_3a/output_inception_3a/output_0_split_1
I0403 16:35:27.561902 21250 net.cpp:399] inception_3a/output_inception_3a/output_0_split -> inception_3a/output_inception_3a/output_0_split_2
I0403 16:35:27.561924 21250 net.cpp:399] inception_3a/output_inception_3a/output_0_split -> inception_3a/output_inception_3a/output_0_split_3
I0403 16:35:27.562005 21250 net.cpp:141] Setting up inception_3a/output_inception_3a/output_0_split
I0403 16:35:27.562033 21250 net.cpp:148] Top shape: 24 256 28 28 (4816896)
I0403 16:35:27.562050 21250 net.cpp:148] Top shape: 24 256 28 28 (4816896)
I0403 16:35:27.562067 21250 net.cpp:148] Top shape: 24 256 28 28 (4816896)
I0403 16:35:27.562082 21250 net.cpp:148] Top shape: 24 256 28 28 (4816896)
I0403 16:35:27.562095 21250 net.cpp:156] Memory required for data: 657507360
I0403 16:35:27.562110 21250 layer_factory.hpp:77] Creating layer inception_3b/1x1
I0403 16:35:27.562132 21250 net.cpp:91] Creating Layer inception_3b/1x1
I0403 16:35:27.562150 21250 net.cpp:425] inception_3b/1x1 <- inception_3a/output_inception_3a/output_0_split_0
I0403 16:35:27.562172 21250 net.cpp:399] inception_3b/1x1 -> inception_3b/1x1
I0403 16:35:27.563360 21250 net.cpp:141] Setting up inception_3b/1x1
I0403 16:35:27.563401 21250 net.cpp:148] Top shape: 24 128 28 28 (2408448)
I0403 16:35:27.563429 21250 net.cpp:156] Memory required for data: 667141152
I0403 16:35:27.563448 21250 layer_factory.hpp:77] Creating layer inception_3b/relu_1x1
I0403 16:35:27.563468 21250 net.cpp:91] Creating Layer inception_3b/relu_1x1
I0403 16:35:27.563485 21250 net.cpp:425] inception_3b/relu_1x1 <- inception_3b/1x1
I0403 16:35:27.563503 21250 net.cpp:386] inception_3b/relu_1x1 -> inception_3b/1x1 (in-place)
I0403 16:35:27.563678 21250 net.cpp:141] Setting up inception_3b/relu_1x1
I0403 16:35:27.563706 21250 net.cpp:148] Top shape: 24 128 28 28 (2408448)
I0403 16:35:27.563721 21250 net.cpp:156] Memory required for data: 676774944
I0403 16:35:27.563736 21250 layer_factory.hpp:77] Creating layer inception_3b/3x3_reduce
I0403 16:35:27.563758 21250 net.cpp:91] Creating Layer inception_3b/3x3_reduce
I0403 16:35:27.563776 21250 net.cpp:425] inception_3b/3x3_reduce <- inception_3a/output_inception_3a/output_0_split_1
I0403 16:35:27.563794 21250 net.cpp:399] inception_3b/3x3_reduce -> inception_3b/3x3_reduce
I0403 16:35:27.564954 21250 net.cpp:141] Setting up inception_3b/3x3_reduce
I0403 16:35:27.564983 21250 net.cpp:148] Top shape: 24 128 28 28 (2408448)
I0403 16:35:27.564999 21250 net.cpp:156] Memory required for data: 686408736
I0403 16:35:27.565021 21250 layer_factory.hpp:77] Creating layer inception_3b/relu_3x3_reduce
I0403 16:35:27.565043 21250 net.cpp:91] Creating Layer inception_3b/relu_3x3_reduce
I0403 16:35:27.565060 21250 net.cpp:425] inception_3b/relu_3x3_reduce <- inception_3b/3x3_reduce
I0403 16:35:27.565076 21250 net.cpp:386] inception_3b/relu_3x3_reduce -> inception_3b/3x3_reduce (in-place)
I0403 16:35:27.565251 21250 net.cpp:141] Setting up inception_3b/relu_3x3_reduce
I0403 16:35:27.565276 21250 net.cpp:148] Top shape: 24 128 28 28 (2408448)
I0403 16:35:27.565291 21250 net.cpp:156] Memory required for data: 696042528
I0403 16:35:27.565305 21250 layer_factory.hpp:77] Creating layer inception_3b/3x3
I0403 16:35:27.565331 21250 net.cpp:91] Creating Layer inception_3b/3x3
I0403 16:35:27.565349 21250 net.cpp:425] inception_3b/3x3 <- inception_3b/3x3_reduce
I0403 16:35:27.565371 21250 net.cpp:399] inception_3b/3x3 -> inception_3b/3x3
I0403 16:35:27.568372 21250 net.cpp:141] Setting up inception_3b/3x3
I0403 16:35:27.568403 21250 net.cpp:148] Top shape: 24 192 28 28 (3612672)
I0403 16:35:27.568420 21250 net.cpp:156] Memory required for data: 710493216
I0403 16:35:27.568439 21250 layer_factory.hpp:77] Creating layer inception_3b/relu_3x3
I0403 16:35:27.568455 21250 net.cpp:91] Creating Layer inception_3b/relu_3x3
I0403 16:35:27.568470 21250 net.cpp:425] inception_3b/relu_3x3 <- inception_3b/3x3
I0403 16:35:27.568487 21250 net.cpp:386] inception_3b/relu_3x3 -> inception_3b/3x3 (in-place)
I0403 16:35:27.568768 21250 net.cpp:141] Setting up inception_3b/relu_3x3
I0403 16:35:27.568795 21250 net.cpp:148] Top shape: 24 192 28 28 (3612672)
I0403 16:35:27.568811 21250 net.cpp:156] Memory required for data: 724943904
I0403 16:35:27.568825 21250 layer_factory.hpp:77] Creating layer inception_3b/5x5_reduce
I0403 16:35:27.568845 21250 net.cpp:91] Creating Layer inception_3b/5x5_reduce
I0403 16:35:27.568861 21250 net.cpp:425] inception_3b/5x5_reduce <- inception_3a/output_inception_3a/output_0_split_2
I0403 16:35:27.568881 21250 net.cpp:399] inception_3b/5x5_reduce -> inception_3b/5x5_reduce
I0403 16:35:27.569867 21250 net.cpp:141] Setting up inception_3b/5x5_reduce
I0403 16:35:27.569895 21250 net.cpp:148] Top shape: 24 32 28 28 (602112)
I0403 16:35:27.569910 21250 net.cpp:156] Memory required for data: 727352352
I0403 16:35:27.569926 21250 layer_factory.hpp:77] Creating layer inception_3b/relu_5x5_reduce
I0403 16:35:27.569948 21250 net.cpp:91] Creating Layer inception_3b/relu_5x5_reduce
I0403 16:35:27.569963 21250 net.cpp:425] inception_3b/relu_5x5_reduce <- inception_3b/5x5_reduce
I0403 16:35:27.569980 21250 net.cpp:386] inception_3b/relu_5x5_reduce -> inception_3b/5x5_reduce (in-place)
I0403 16:35:27.570174 21250 net.cpp:141] Setting up inception_3b/relu_5x5_reduce
I0403 16:35:27.570201 21250 net.cpp:148] Top shape: 24 32 28 28 (602112)
I0403 16:35:27.570217 21250 net.cpp:156] Memory required for data: 729760800
I0403 16:35:27.570231 21250 layer_factory.hpp:77] Creating layer inception_3b/5x5
I0403 16:35:27.570253 21250 net.cpp:91] Creating Layer inception_3b/5x5
I0403 16:35:27.570269 21250 net.cpp:425] inception_3b/5x5 <- inception_3b/5x5_reduce
I0403 16:35:27.570288 21250 net.cpp:399] inception_3b/5x5 -> inception_3b/5x5
I0403 16:35:27.572223 21250 net.cpp:141] Setting up inception_3b/5x5
I0403 16:35:27.572252 21250 net.cpp:148] Top shape: 24 96 28 28 (1806336)
I0403 16:35:27.572268 21250 net.cpp:156] Memory required for data: 736986144
I0403 16:35:27.572285 21250 layer_factory.hpp:77] Creating layer inception_3b/relu_5x5
I0403 16:35:27.572305 21250 net.cpp:91] Creating Layer inception_3b/relu_5x5
I0403 16:35:27.572321 21250 net.cpp:425] inception_3b/relu_5x5 <- inception_3b/5x5
I0403 16:35:27.572338 21250 net.cpp:386] inception_3b/relu_5x5 -> inception_3b/5x5 (in-place)
I0403 16:35:27.572545 21250 net.cpp:141] Setting up inception_3b/relu_5x5
I0403 16:35:27.572569 21250 net.cpp:148] Top shape: 24 96 28 28 (1806336)
I0403 16:35:27.572584 21250 net.cpp:156] Memory required for data: 744211488
I0403 16:35:27.572599 21250 layer_factory.hpp:77] Creating layer inception_3b/pool
I0403 16:35:27.572616 21250 net.cpp:91] Creating Layer inception_3b/pool
I0403 16:35:27.572633 21250 net.cpp:425] inception_3b/pool <- inception_3a/output_inception_3a/output_0_split_3
I0403 16:35:27.572650 21250 net.cpp:399] inception_3b/pool -> inception_3b/pool
I0403 16:35:27.572705 21250 net.cpp:141] Setting up inception_3b/pool
I0403 16:35:27.572729 21250 net.cpp:148] Top shape: 24 256 28 28 (4816896)
I0403 16:35:27.572743 21250 net.cpp:156] Memory required for data: 763479072
I0403 16:35:27.572770 21250 layer_factory.hpp:77] Creating layer inception_3b/pool_proj
I0403 16:35:27.572794 21250 net.cpp:91] Creating Layer inception_3b/pool_proj
I0403 16:35:27.572811 21250 net.cpp:425] inception_3b/pool_proj <- inception_3b/pool
I0403 16:35:27.572831 21250 net.cpp:399] inception_3b/pool_proj -> inception_3b/pool_proj
I0403 16:35:27.573914 21250 net.cpp:141] Setting up inception_3b/pool_proj
I0403 16:35:27.573943 21250 net.cpp:148] Top shape: 24 64 28 28 (1204224)
I0403 16:35:27.573959 21250 net.cpp:156] Memory required for data: 768295968
I0403 16:35:27.573977 21250 layer_factory.hpp:77] Creating layer inception_3b/relu_pool_proj
I0403 16:35:27.573997 21250 net.cpp:91] Creating Layer inception_3b/relu_pool_proj
I0403 16:35:27.574012 21250 net.cpp:425] inception_3b/relu_pool_proj <- inception_3b/pool_proj
I0403 16:35:27.574036 21250 net.cpp:386] inception_3b/relu_pool_proj -> inception_3b/pool_proj (in-place)
I0403 16:35:27.574436 21250 net.cpp:141] Setting up inception_3b/relu_pool_proj
I0403 16:35:27.574465 21250 net.cpp:148] Top shape: 24 64 28 28 (1204224)
I0403 16:35:27.574481 21250 net.cpp:156] Memory required for data: 773112864
I0403 16:35:27.574496 21250 layer_factory.hpp:77] Creating layer inception_3b/output
I0403 16:35:27.574512 21250 net.cpp:91] Creating Layer inception_3b/output
I0403 16:35:27.574527 21250 net.cpp:425] inception_3b/output <- inception_3b/1x1
I0403 16:35:27.574543 21250 net.cpp:425] inception_3b/output <- inception_3b/3x3
I0403 16:35:27.574558 21250 net.cpp:425] inception_3b/output <- inception_3b/5x5
I0403 16:35:27.574573 21250 net.cpp:425] inception_3b/output <- inception_3b/pool_proj
I0403 16:35:27.574589 21250 net.cpp:399] inception_3b/output -> inception_3b/output
I0403 16:35:27.574633 21250 net.cpp:141] Setting up inception_3b/output
I0403 16:35:27.574656 21250 net.cpp:148] Top shape: 24 480 28 28 (9031680)
I0403 16:35:27.574671 21250 net.cpp:156] Memory required for data: 809239584
I0403 16:35:27.574684 21250 layer_factory.hpp:77] Creating layer pool3/3x3_s2
I0403 16:35:27.574702 21250 net.cpp:91] Creating Layer pool3/3x3_s2
I0403 16:35:27.574718 21250 net.cpp:425] pool3/3x3_s2 <- inception_3b/output
I0403 16:35:27.574750 21250 net.cpp:399] pool3/3x3_s2 -> pool3/3x3_s2
I0403 16:35:27.574810 21250 net.cpp:141] Setting up pool3/3x3_s2
I0403 16:35:27.574832 21250 net.cpp:148] Top shape: 24 480 14 14 (2257920)
I0403 16:35:27.574846 21250 net.cpp:156] Memory required for data: 818271264
I0403 16:35:27.574861 21250 layer_factory.hpp:77] Creating layer pool3/3x3_s2_pool3/3x3_s2_0_split
I0403 16:35:27.574877 21250 net.cpp:91] Creating Layer pool3/3x3_s2_pool3/3x3_s2_0_split
I0403 16:35:27.574890 21250 net.cpp:425] pool3/3x3_s2_pool3/3x3_s2_0_split <- pool3/3x3_s2
I0403 16:35:27.574909 21250 net.cpp:399] pool3/3x3_s2_pool3/3x3_s2_0_split -> pool3/3x3_s2_pool3/3x3_s2_0_split_0
I0403 16:35:27.574928 21250 net.cpp:399] pool3/3x3_s2_pool3/3x3_s2_0_split -> pool3/3x3_s2_pool3/3x3_s2_0_split_1
I0403 16:35:27.574947 21250 net.cpp:399] pool3/3x3_s2_pool3/3x3_s2_0_split -> pool3/3x3_s2_pool3/3x3_s2_0_split_2
I0403 16:35:27.574965 21250 net.cpp:399] pool3/3x3_s2_pool3/3x3_s2_0_split -> pool3/3x3_s2_pool3/3x3_s2_0_split_3
I0403 16:35:27.575045 21250 net.cpp:141] Setting up pool3/3x3_s2_pool3/3x3_s2_0_split
I0403 16:35:27.575070 21250 net.cpp:148] Top shape: 24 480 14 14 (2257920)
I0403 16:35:27.575086 21250 net.cpp:148] Top shape: 24 480 14 14 (2257920)
I0403 16:35:27.575103 21250 net.cpp:148] Top shape: 24 480 14 14 (2257920)
I0403 16:35:27.575117 21250 net.cpp:148] Top shape: 24 480 14 14 (2257920)
I0403 16:35:27.575130 21250 net.cpp:156] Memory required for data: 854397984
I0403 16:35:27.575144 21250 layer_factory.hpp:77] Creating layer inception_4a/1x1
I0403 16:35:27.575165 21250 net.cpp:91] Creating Layer inception_4a/1x1
I0403 16:35:27.575181 21250 net.cpp:425] inception_4a/1x1 <- pool3/3x3_s2_pool3/3x3_s2_0_split_0
I0403 16:35:27.575198 21250 net.cpp:399] inception_4a/1x1 -> inception_4a/1x1
I0403 16:35:27.576745 21250 net.cpp:141] Setting up inception_4a/1x1
I0403 16:35:27.576772 21250 net.cpp:148] Top shape: 24 192 14 14 (903168)
I0403 16:35:27.576787 21250 net.cpp:156] Memory required for data: 858010656
I0403 16:35:27.576805 21250 layer_factory.hpp:77] Creating layer inception_4a/relu_1x1
I0403 16:35:27.576822 21250 net.cpp:91] Creating Layer inception_4a/relu_1x1
I0403 16:35:27.576869 21250 net.cpp:425] inception_4a/relu_1x1 <- inception_4a/1x1
I0403 16:35:27.576886 21250 net.cpp:386] inception_4a/relu_1x1 -> inception_4a/1x1 (in-place)
I0403 16:35:27.577070 21250 net.cpp:141] Setting up inception_4a/relu_1x1
I0403 16:35:27.577096 21250 net.cpp:148] Top shape: 24 192 14 14 (903168)
I0403 16:35:27.577111 21250 net.cpp:156] Memory required for data: 861623328
I0403 16:35:27.577137 21250 layer_factory.hpp:77] Creating layer inception_4a/3x3_reduce
I0403 16:35:27.577159 21250 net.cpp:91] Creating Layer inception_4a/3x3_reduce
I0403 16:35:27.577177 21250 net.cpp:425] inception_4a/3x3_reduce <- pool3/3x3_s2_pool3/3x3_s2_0_split_1
I0403 16:35:27.577196 21250 net.cpp:399] inception_4a/3x3_reduce -> inception_4a/3x3_reduce
I0403 16:35:27.578459 21250 net.cpp:141] Setting up inception_4a/3x3_reduce
I0403 16:35:27.578486 21250 net.cpp:148] Top shape: 24 96 14 14 (451584)
I0403 16:35:27.578501 21250 net.cpp:156] Memory required for data: 863429664
I0403 16:35:27.578526 21250 layer_factory.hpp:77] Creating layer inception_4a/relu_3x3_reduce
I0403 16:35:27.578546 21250 net.cpp:91] Creating Layer inception_4a/relu_3x3_reduce
I0403 16:35:27.578562 21250 net.cpp:425] inception_4a/relu_3x3_reduce <- inception_4a/3x3_reduce
I0403 16:35:27.578579 21250 net.cpp:386] inception_4a/relu_3x3_reduce -> inception_4a/3x3_reduce (in-place)
I0403 16:35:27.578753 21250 net.cpp:141] Setting up inception_4a/relu_3x3_reduce
I0403 16:35:27.578778 21250 net.cpp:148] Top shape: 24 96 14 14 (451584)
I0403 16:35:27.578794 21250 net.cpp:156] Memory required for data: 865236000
I0403 16:35:27.578807 21250 layer_factory.hpp:77] Creating layer inception_4a/3x3
I0403 16:35:27.578829 21250 net.cpp:91] Creating Layer inception_4a/3x3
I0403 16:35:27.578845 21250 net.cpp:425] inception_4a/3x3 <- inception_4a/3x3_reduce
I0403 16:35:27.578866 21250 net.cpp:399] inception_4a/3x3 -> inception_4a/3x3
I0403 16:35:27.581609 21250 net.cpp:141] Setting up inception_4a/3x3
I0403 16:35:27.581637 21250 net.cpp:148] Top shape: 24 208 14 14 (978432)
I0403 16:35:27.581652 21250 net.cpp:156] Memory required for data: 869149728
I0403 16:35:27.581671 21250 layer_factory.hpp:77] Creating layer inception_4a/relu_3x3
I0403 16:35:27.581693 21250 net.cpp:91] Creating Layer inception_4a/relu_3x3
I0403 16:35:27.581710 21250 net.cpp:425] inception_4a/relu_3x3 <- inception_4a/3x3
I0403 16:35:27.581727 21250 net.cpp:386] inception_4a/relu_3x3 -> inception_4a/3x3 (in-place)
I0403 16:35:27.582007 21250 net.cpp:141] Setting up inception_4a/relu_3x3
I0403 16:35:27.582038 21250 net.cpp:148] Top shape: 24 208 14 14 (978432)
I0403 16:35:27.582053 21250 net.cpp:156] Memory required for data: 873063456
I0403 16:35:27.582068 21250 layer_factory.hpp:77] Creating layer inception_4a/5x5_reduce
I0403 16:35:27.582092 21250 net.cpp:91] Creating Layer inception_4a/5x5_reduce
I0403 16:35:27.582109 21250 net.cpp:425] inception_4a/5x5_reduce <- pool3/3x3_s2_pool3/3x3_s2_0_split_2
I0403 16:35:27.582130 21250 net.cpp:399] inception_4a/5x5_reduce -> inception_4a/5x5_reduce
I0403 16:35:27.583186 21250 net.cpp:141] Setting up inception_4a/5x5_reduce
I0403 16:35:27.583216 21250 net.cpp:148] Top shape: 24 16 14 14 (75264)
I0403 16:35:27.583232 21250 net.cpp:156] Memory required for data: 873364512
I0403 16:35:27.583250 21250 layer_factory.hpp:77] Creating layer inception_4a/relu_5x5_reduce
I0403 16:35:27.583271 21250 net.cpp:91] Creating Layer inception_4a/relu_5x5_reduce
I0403 16:35:27.583288 21250 net.cpp:425] inception_4a/relu_5x5_reduce <- inception_4a/5x5_reduce
I0403 16:35:27.583307 21250 net.cpp:386] inception_4a/relu_5x5_reduce -> inception_4a/5x5_reduce (in-place)
I0403 16:35:27.583492 21250 net.cpp:141] Setting up inception_4a/relu_5x5_reduce
I0403 16:35:27.583520 21250 net.cpp:148] Top shape: 24 16 14 14 (75264)
I0403 16:35:27.583536 21250 net.cpp:156] Memory required for data: 873665568
I0403 16:35:27.583551 21250 layer_factory.hpp:77] Creating layer inception_4a/5x5
I0403 16:35:27.583575 21250 net.cpp:91] Creating Layer inception_4a/5x5
I0403 16:35:27.583592 21250 net.cpp:425] inception_4a/5x5 <- inception_4a/5x5_reduce
I0403 16:35:27.583612 21250 net.cpp:399] inception_4a/5x5 -> inception_4a/5x5
I0403 16:35:27.584738 21250 net.cpp:141] Setting up inception_4a/5x5
I0403 16:35:27.584769 21250 net.cpp:148] Top shape: 24 48 14 14 (225792)
I0403 16:35:27.584784 21250 net.cpp:156] Memory required for data: 874568736
I0403 16:35:27.584805 21250 layer_factory.hpp:77] Creating layer inception_4a/relu_5x5
I0403 16:35:27.584822 21250 net.cpp:91] Creating Layer inception_4a/relu_5x5
I0403 16:35:27.584838 21250 net.cpp:425] inception_4a/relu_5x5 <- inception_4a/5x5
I0403 16:35:27.584858 21250 net.cpp:386] inception_4a/relu_5x5 -> inception_4a/5x5 (in-place)
I0403 16:35:27.585052 21250 net.cpp:141] Setting up inception_4a/relu_5x5
I0403 16:35:27.585078 21250 net.cpp:148] Top shape: 24 48 14 14 (225792)
I0403 16:35:27.585093 21250 net.cpp:156] Memory required for data: 875471904
I0403 16:35:27.585108 21250 layer_factory.hpp:77] Creating layer inception_4a/pool
I0403 16:35:27.585127 21250 net.cpp:91] Creating Layer inception_4a/pool
I0403 16:35:27.585147 21250 net.cpp:425] inception_4a/pool <- pool3/3x3_s2_pool3/3x3_s2_0_split_3
I0403 16:35:27.585166 21250 net.cpp:399] inception_4a/pool -> inception_4a/pool
I0403 16:35:27.585229 21250 net.cpp:141] Setting up inception_4a/pool
I0403 16:35:27.585254 21250 net.cpp:148] Top shape: 24 480 14 14 (2257920)
I0403 16:35:27.585268 21250 net.cpp:156] Memory required for data: 884503584
I0403 16:35:27.585283 21250 layer_factory.hpp:77] Creating layer inception_4a/pool_proj
I0403 16:35:27.585306 21250 net.cpp:91] Creating Layer inception_4a/pool_proj
I0403 16:35:27.585325 21250 net.cpp:425] inception_4a/pool_proj <- inception_4a/pool
I0403 16:35:27.585345 21250 net.cpp:399] inception_4a/pool_proj -> inception_4a/pool_proj
I0403 16:35:27.586557 21250 net.cpp:141] Setting up inception_4a/pool_proj
I0403 16:35:27.586587 21250 net.cpp:148] Top shape: 24 64 14 14 (301056)
I0403 16:35:27.586619 21250 net.cpp:156] Memory required for data: 885707808
I0403 16:35:27.586639 21250 layer_factory.hpp:77] Creating layer inception_4a/relu_pool_proj
I0403 16:35:27.586658 21250 net.cpp:91] Creating Layer inception_4a/relu_pool_proj
I0403 16:35:27.586674 21250 net.cpp:425] inception_4a/relu_pool_proj <- inception_4a/pool_proj
I0403 16:35:27.586696 21250 net.cpp:386] inception_4a/relu_pool_proj -> inception_4a/pool_proj (in-place)
I0403 16:35:27.586992 21250 net.cpp:141] Setting up inception_4a/relu_pool_proj
I0403 16:35:27.587023 21250 net.cpp:148] Top shape: 24 64 14 14 (301056)
I0403 16:35:27.587040 21250 net.cpp:156] Memory required for data: 886912032
I0403 16:35:27.587055 21250 layer_factory.hpp:77] Creating layer inception_4a/output
I0403 16:35:27.587074 21250 net.cpp:91] Creating Layer inception_4a/output
I0403 16:35:27.587090 21250 net.cpp:425] inception_4a/output <- inception_4a/1x1
I0403 16:35:27.587106 21250 net.cpp:425] inception_4a/output <- inception_4a/3x3
I0403 16:35:27.587123 21250 net.cpp:425] inception_4a/output <- inception_4a/5x5
I0403 16:35:27.587139 21250 net.cpp:425] inception_4a/output <- inception_4a/pool_proj
I0403 16:35:27.587158 21250 net.cpp:399] inception_4a/output -> inception_4a/output
I0403 16:35:27.587205 21250 net.cpp:141] Setting up inception_4a/output
I0403 16:35:27.587232 21250 net.cpp:148] Top shape: 24 512 14 14 (2408448)
I0403 16:35:27.587249 21250 net.cpp:156] Memory required for data: 896545824
I0403 16:35:27.587263 21250 layer_factory.hpp:77] Creating layer inception_4a/output_inception_4a/output_0_split
I0403 16:35:27.587281 21250 net.cpp:91] Creating Layer inception_4a/output_inception_4a/output_0_split
I0403 16:35:27.587297 21250 net.cpp:425] inception_4a/output_inception_4a/output_0_split <- inception_4a/output
I0403 16:35:27.587314 21250 net.cpp:399] inception_4a/output_inception_4a/output_0_split -> inception_4a/output_inception_4a/output_0_split_0
I0403 16:35:27.587337 21250 net.cpp:399] inception_4a/output_inception_4a/output_0_split -> inception_4a/output_inception_4a/output_0_split_1
I0403 16:35:27.587360 21250 net.cpp:399] inception_4a/output_inception_4a/output_0_split -> inception_4a/output_inception_4a/output_0_split_2
I0403 16:35:27.587380 21250 net.cpp:399] inception_4a/output_inception_4a/output_0_split -> inception_4a/output_inception_4a/output_0_split_3
I0403 16:35:27.587401 21250 net.cpp:399] inception_4a/output_inception_4a/output_0_split -> inception_4a/output_inception_4a/output_0_split_4
I0403 16:35:27.587496 21250 net.cpp:141] Setting up inception_4a/output_inception_4a/output_0_split
I0403 16:35:27.587520 21250 net.cpp:148] Top shape: 24 512 14 14 (2408448)
I0403 16:35:27.587538 21250 net.cpp:148] Top shape: 24 512 14 14 (2408448)
I0403 16:35:27.587553 21250 net.cpp:148] Top shape: 24 512 14 14 (2408448)
I0403 16:35:27.587568 21250 net.cpp:148] Top shape: 24 512 14 14 (2408448)
I0403 16:35:27.587584 21250 net.cpp:148] Top shape: 24 512 14 14 (2408448)
I0403 16:35:27.587599 21250 net.cpp:156] Memory required for data: 944714784
I0403 16:35:27.587612 21250 layer_factory.hpp:77] Creating layer loss1/ave_pool
I0403 16:35:27.587633 21250 net.cpp:91] Creating Layer loss1/ave_pool
I0403 16:35:27.587651 21250 net.cpp:425] loss1/ave_pool <- inception_4a/output_inception_4a/output_0_split_0
I0403 16:35:27.587669 21250 net.cpp:399] loss1/ave_pool -> loss1/ave_pool
I0403 16:35:27.587884 21250 net.cpp:141] Setting up loss1/ave_pool
I0403 16:35:27.587911 21250 net.cpp:148] Top shape: 24 512 4 4 (196608)
I0403 16:35:27.587926 21250 net.cpp:156] Memory required for data: 945501216
I0403 16:35:27.587941 21250 layer_factory.hpp:77] Creating layer loss1/conv
I0403 16:35:27.587965 21250 net.cpp:91] Creating Layer loss1/conv
I0403 16:35:27.587982 21250 net.cpp:425] loss1/conv <- loss1/ave_pool
I0403 16:35:27.588006 21250 net.cpp:399] loss1/conv -> loss1/conv
I0403 16:35:27.589507 21250 net.cpp:141] Setting up loss1/conv
I0403 16:35:27.589537 21250 net.cpp:148] Top shape: 24 128 4 4 (49152)
I0403 16:35:27.589575 21250 net.cpp:156] Memory required for data: 945697824
I0403 16:35:27.589596 21250 layer_factory.hpp:77] Creating layer loss1/relu_conv
I0403 16:35:27.589617 21250 net.cpp:91] Creating Layer loss1/relu_conv
I0403 16:35:27.589633 21250 net.cpp:425] loss1/relu_conv <- loss1/conv
I0403 16:35:27.589650 21250 net.cpp:386] loss1/relu_conv -> loss1/conv (in-place)
I0403 16:35:27.589951 21250 net.cpp:141] Setting up loss1/relu_conv
I0403 16:35:27.589979 21250 net.cpp:148] Top shape: 24 128 4 4 (49152)
I0403 16:35:27.589998 21250 net.cpp:156] Memory required for data: 945894432
I0403 16:35:27.590013 21250 layer_factory.hpp:77] Creating layer loss1/fc
I0403 16:35:27.590044 21250 net.cpp:91] Creating Layer loss1/fc
I0403 16:35:27.590064 21250 net.cpp:425] loss1/fc <- loss1/conv
I0403 16:35:27.590082 21250 net.cpp:399] loss1/fc -> loss1/fc
I0403 16:35:27.608520 21250 net.cpp:141] Setting up loss1/fc
I0403 16:35:27.608579 21250 net.cpp:148] Top shape: 24 1024 (24576)
I0403 16:35:27.608595 21250 net.cpp:156] Memory required for data: 945992736
I0403 16:35:27.608615 21250 layer_factory.hpp:77] Creating layer loss1/relu_fc
I0403 16:35:27.608635 21250 net.cpp:91] Creating Layer loss1/relu_fc
I0403 16:35:27.608651 21250 net.cpp:425] loss1/relu_fc <- loss1/fc
I0403 16:35:27.608674 21250 net.cpp:386] loss1/relu_fc -> loss1/fc (in-place)
I0403 16:35:27.608886 21250 net.cpp:141] Setting up loss1/relu_fc
I0403 16:35:27.608911 21250 net.cpp:148] Top shape: 24 1024 (24576)
I0403 16:35:27.608927 21250 net.cpp:156] Memory required for data: 946091040
I0403 16:35:27.608942 21250 layer_factory.hpp:77] Creating layer loss1/drop_fc
I0403 16:35:27.608971 21250 net.cpp:91] Creating Layer loss1/drop_fc
I0403 16:35:27.608989 21250 net.cpp:425] loss1/drop_fc <- loss1/fc
I0403 16:35:27.609006 21250 net.cpp:386] loss1/drop_fc -> loss1/fc (in-place)
I0403 16:35:27.609061 21250 net.cpp:141] Setting up loss1/drop_fc
I0403 16:35:27.609089 21250 net.cpp:148] Top shape: 24 1024 (24576)
I0403 16:35:27.609105 21250 net.cpp:156] Memory required for data: 946189344
I0403 16:35:27.609120 21250 layer_factory.hpp:77] Creating layer loss1/classifier_plantvillage
I0403 16:35:27.609139 21250 net.cpp:91] Creating Layer loss1/classifier_plantvillage
I0403 16:35:27.609155 21250 net.cpp:425] loss1/classifier_plantvillage <- loss1/fc
I0403 16:35:27.609175 21250 net.cpp:399] loss1/classifier_plantvillage -> loss1/classifier_plantvillage
I0403 16:35:27.610121 21250 net.cpp:141] Setting up loss1/classifier_plantvillage
I0403 16:35:27.610149 21250 net.cpp:148] Top shape: 24 38 (912)
I0403 16:35:27.610164 21250 net.cpp:156] Memory required for data: 946192992
I0403 16:35:27.610183 21250 layer_factory.hpp:77] Creating layer loss1/classifier_plantvillage_loss1/classifier_plantvillage_0_split
I0403 16:35:27.610204 21250 net.cpp:91] Creating Layer loss1/classifier_plantvillage_loss1/classifier_plantvillage_0_split
I0403 16:35:27.610221 21250 net.cpp:425] loss1/classifier_plantvillage_loss1/classifier_plantvillage_0_split <- loss1/classifier_plantvillage
I0403 16:35:27.610240 21250 net.cpp:399] loss1/classifier_plantvillage_loss1/classifier_plantvillage_0_split -> loss1/classifier_plantvillage_loss1/classifier_plantvillage_0_split_0
I0403 16:35:27.610260 21250 net.cpp:399] loss1/classifier_plantvillage_loss1/classifier_plantvillage_0_split -> loss1/classifier_plantvillage_loss1/classifier_plantvillage_0_split_1
I0403 16:35:27.610280 21250 net.cpp:399] loss1/classifier_plantvillage_loss1/classifier_plantvillage_0_split -> loss1/classifier_plantvillage_loss1/classifier_plantvillage_0_split_2
I0403 16:35:27.610347 21250 net.cpp:141] Setting up loss1/classifier_plantvillage_loss1/classifier_plantvillage_0_split
I0403 16:35:27.610373 21250 net.cpp:148] Top shape: 24 38 (912)
I0403 16:35:27.610389 21250 net.cpp:148] Top shape: 24 38 (912)
I0403 16:35:27.610405 21250 net.cpp:148] Top shape: 24 38 (912)
I0403 16:35:27.610419 21250 net.cpp:156] Memory required for data: 946203936
I0403 16:35:27.610433 21250 layer_factory.hpp:77] Creating layer inception_4b/1x1
I0403 16:35:27.610455 21250 net.cpp:91] Creating Layer inception_4b/1x1
I0403 16:35:27.610498 21250 net.cpp:425] inception_4b/1x1 <- inception_4a/output_inception_4a/output_0_split_1
I0403 16:35:27.610519 21250 net.cpp:399] inception_4b/1x1 -> inception_4b/1x1
I0403 16:35:27.612227 21250 net.cpp:141] Setting up inception_4b/1x1
I0403 16:35:27.612257 21250 net.cpp:148] Top shape: 24 160 14 14 (752640)
I0403 16:35:27.612272 21250 net.cpp:156] Memory required for data: 949214496
I0403 16:35:27.612290 21250 layer_factory.hpp:77] Creating layer inception_4b/relu_1x1
I0403 16:35:27.612311 21250 net.cpp:91] Creating Layer inception_4b/relu_1x1
I0403 16:35:27.612328 21250 net.cpp:425] inception_4b/relu_1x1 <- inception_4b/1x1
I0403 16:35:27.612345 21250 net.cpp:386] inception_4b/relu_1x1 -> inception_4b/1x1 (in-place)
I0403 16:35:27.612529 21250 net.cpp:141] Setting up inception_4b/relu_1x1
I0403 16:35:27.612557 21250 net.cpp:148] Top shape: 24 160 14 14 (752640)
I0403 16:35:27.612572 21250 net.cpp:156] Memory required for data: 952225056
I0403 16:35:27.612587 21250 layer_factory.hpp:77] Creating layer inception_4b/3x3_reduce
I0403 16:35:27.612610 21250 net.cpp:91] Creating Layer inception_4b/3x3_reduce
I0403 16:35:27.612627 21250 net.cpp:425] inception_4b/3x3_reduce <- inception_4a/output_inception_4a/output_0_split_2
I0403 16:35:27.612645 21250 net.cpp:399] inception_4b/3x3_reduce -> inception_4b/3x3_reduce
I0403 16:35:27.614035 21250 net.cpp:141] Setting up inception_4b/3x3_reduce
I0403 16:35:27.614068 21250 net.cpp:148] Top shape: 24 112 14 14 (526848)
I0403 16:35:27.614084 21250 net.cpp:156] Memory required for data: 954332448
I0403 16:35:27.614104 21250 layer_factory.hpp:77] Creating layer inception_4b/relu_3x3_reduce
I0403 16:35:27.614121 21250 net.cpp:91] Creating Layer inception_4b/relu_3x3_reduce
I0403 16:35:27.614137 21250 net.cpp:425] inception_4b/relu_3x3_reduce <- inception_4b/3x3_reduce
I0403 16:35:27.614156 21250 net.cpp:386] inception_4b/relu_3x3_reduce -> inception_4b/3x3_reduce (in-place)
I0403 16:35:27.614444 21250 net.cpp:141] Setting up inception_4b/relu_3x3_reduce
I0403 16:35:27.614472 21250 net.cpp:148] Top shape: 24 112 14 14 (526848)
I0403 16:35:27.614487 21250 net.cpp:156] Memory required for data: 956439840
I0403 16:35:27.614503 21250 layer_factory.hpp:77] Creating layer inception_4b/3x3
I0403 16:35:27.614526 21250 net.cpp:91] Creating Layer inception_4b/3x3
I0403 16:35:27.614543 21250 net.cpp:425] inception_4b/3x3 <- inception_4b/3x3_reduce
I0403 16:35:27.614562 21250 net.cpp:399] inception_4b/3x3 -> inception_4b/3x3
I0403 16:35:27.617619 21250 net.cpp:141] Setting up inception_4b/3x3
I0403 16:35:27.617648 21250 net.cpp:148] Top shape: 24 224 14 14 (1053696)
I0403 16:35:27.617665 21250 net.cpp:156] Memory required for data: 960654624
I0403 16:35:27.617682 21250 layer_factory.hpp:77] Creating layer inception_4b/relu_3x3
I0403 16:35:27.617703 21250 net.cpp:91] Creating Layer inception_4b/relu_3x3
I0403 16:35:27.617722 21250 net.cpp:425] inception_4b/relu_3x3 <- inception_4b/3x3
I0403 16:35:27.617739 21250 net.cpp:386] inception_4b/relu_3x3 -> inception_4b/3x3 (in-place)
I0403 16:35:27.617923 21250 net.cpp:141] Setting up inception_4b/relu_3x3
I0403 16:35:27.617947 21250 net.cpp:148] Top shape: 24 224 14 14 (1053696)
I0403 16:35:27.617962 21250 net.cpp:156] Memory required for data: 964869408
I0403 16:35:27.617976 21250 layer_factory.hpp:77] Creating layer inception_4b/5x5_reduce
I0403 16:35:27.618000 21250 net.cpp:91] Creating Layer inception_4b/5x5_reduce
I0403 16:35:27.618028 21250 net.cpp:425] inception_4b/5x5_reduce <- inception_4a/output_inception_4a/output_0_split_3
I0403 16:35:27.618054 21250 net.cpp:399] inception_4b/5x5_reduce -> inception_4b/5x5_reduce
I0403 16:35:27.619180 21250 net.cpp:141] Setting up inception_4b/5x5_reduce
I0403 16:35:27.619209 21250 net.cpp:148] Top shape: 24 24 14 14 (112896)
I0403 16:35:27.619225 21250 net.cpp:156] Memory required for data: 965320992
I0403 16:35:27.619242 21250 layer_factory.hpp:77] Creating layer inception_4b/relu_5x5_reduce
I0403 16:35:27.619262 21250 net.cpp:91] Creating Layer inception_4b/relu_5x5_reduce
I0403 16:35:27.619293 21250 net.cpp:425] inception_4b/relu_5x5_reduce <- inception_4b/5x5_reduce
I0403 16:35:27.619313 21250 net.cpp:386] inception_4b/relu_5x5_reduce -> inception_4b/5x5_reduce (in-place)
I0403 16:35:27.619503 21250 net.cpp:141] Setting up inception_4b/relu_5x5_reduce
I0403 16:35:27.619529 21250 net.cpp:148] Top shape: 24 24 14 14 (112896)
I0403 16:35:27.619544 21250 net.cpp:156] Memory required for data: 965772576
I0403 16:35:27.619559 21250 layer_factory.hpp:77] Creating layer inception_4b/5x5
I0403 16:35:27.619580 21250 net.cpp:91] Creating Layer inception_4b/5x5
I0403 16:35:27.619599 21250 net.cpp:425] inception_4b/5x5 <- inception_4b/5x5_reduce
I0403 16:35:27.619624 21250 net.cpp:399] inception_4b/5x5 -> inception_4b/5x5
I0403 16:35:27.620924 21250 net.cpp:141] Setting up inception_4b/5x5
I0403 16:35:27.620951 21250 net.cpp:148] Top shape: 24 64 14 14 (301056)
I0403 16:35:27.620966 21250 net.cpp:156] Memory required for data: 966976800
I0403 16:35:27.620985 21250 layer_factory.hpp:77] Creating layer inception_4b/relu_5x5
I0403 16:35:27.621006 21250 net.cpp:91] Creating Layer inception_4b/relu_5x5
I0403 16:35:27.621029 21250 net.cpp:425] inception_4b/relu_5x5 <- inception_4b/5x5
I0403 16:35:27.621047 21250 net.cpp:386] inception_4b/relu_5x5 -> inception_4b/5x5 (in-place)
I0403 16:35:27.621347 21250 net.cpp:141] Setting up inception_4b/relu_5x5
I0403 16:35:27.621374 21250 net.cpp:148] Top shape: 24 64 14 14 (301056)
I0403 16:35:27.621389 21250 net.cpp:156] Memory required for data: 968181024
I0403 16:35:27.621404 21250 layer_factory.hpp:77] Creating layer inception_4b/pool
I0403 16:35:27.621426 21250 net.cpp:91] Creating Layer inception_4b/pool
I0403 16:35:27.621443 21250 net.cpp:425] inception_4b/pool <- inception_4a/output_inception_4a/output_0_split_4
I0403 16:35:27.621461 21250 net.cpp:399] inception_4b/pool -> inception_4b/pool
I0403 16:35:27.621528 21250 net.cpp:141] Setting up inception_4b/pool
I0403 16:35:27.621552 21250 net.cpp:148] Top shape: 24 512 14 14 (2408448)
I0403 16:35:27.621567 21250 net.cpp:156] Memory required for data: 977814816
I0403 16:35:27.621582 21250 layer_factory.hpp:77] Creating layer inception_4b/pool_proj
I0403 16:35:27.621604 21250 net.cpp:91] Creating Layer inception_4b/pool_proj
I0403 16:35:27.621623 21250 net.cpp:425] inception_4b/pool_proj <- inception_4b/pool
I0403 16:35:27.621642 21250 net.cpp:399] inception_4b/pool_proj -> inception_4b/pool_proj
I0403 16:35:27.622876 21250 net.cpp:141] Setting up inception_4b/pool_proj
I0403 16:35:27.622905 21250 net.cpp:148] Top shape: 24 64 14 14 (301056)
I0403 16:35:27.622925 21250 net.cpp:156] Memory required for data: 979019040
I0403 16:35:27.622943 21250 layer_factory.hpp:77] Creating layer inception_4b/relu_pool_proj
I0403 16:35:27.622961 21250 net.cpp:91] Creating Layer inception_4b/relu_pool_proj
I0403 16:35:27.622980 21250 net.cpp:425] inception_4b/relu_pool_proj <- inception_4b/pool_proj
I0403 16:35:27.622998 21250 net.cpp:386] inception_4b/relu_pool_proj -> inception_4b/pool_proj (in-place)
I0403 16:35:27.623186 21250 net.cpp:141] Setting up inception_4b/relu_pool_proj
I0403 16:35:27.623215 21250 net.cpp:148] Top shape: 24 64 14 14 (301056)
I0403 16:35:27.623230 21250 net.cpp:156] Memory required for data: 980223264
I0403 16:35:27.623245 21250 layer_factory.hpp:77] Creating layer inception_4b/output
I0403 16:35:27.623263 21250 net.cpp:91] Creating Layer inception_4b/output
I0403 16:35:27.623278 21250 net.cpp:425] inception_4b/output <- inception_4b/1x1
I0403 16:35:27.623296 21250 net.cpp:425] inception_4b/output <- inception_4b/3x3
I0403 16:35:27.623311 21250 net.cpp:425] inception_4b/output <- inception_4b/5x5
I0403 16:35:27.623327 21250 net.cpp:425] inception_4b/output <- inception_4b/pool_proj
I0403 16:35:27.623347 21250 net.cpp:399] inception_4b/output -> inception_4b/output
I0403 16:35:27.623392 21250 net.cpp:141] Setting up inception_4b/output
I0403 16:35:27.623415 21250 net.cpp:148] Top shape: 24 512 14 14 (2408448)
I0403 16:35:27.623430 21250 net.cpp:156] Memory required for data: 989857056
I0403 16:35:27.623461 21250 layer_factory.hpp:77] Creating layer inception_4b/output_inception_4b/output_0_split
I0403 16:35:27.623481 21250 net.cpp:91] Creating Layer inception_4b/output_inception_4b/output_0_split
I0403 16:35:27.623497 21250 net.cpp:425] inception_4b/output_inception_4b/output_0_split <- inception_4b/output
I0403 16:35:27.623515 21250 net.cpp:399] inception_4b/output_inception_4b/output_0_split -> inception_4b/output_inception_4b/output_0_split_0
I0403 16:35:27.623535 21250 net.cpp:399] inception_4b/output_inception_4b/output_0_split -> inception_4b/output_inception_4b/output_0_split_1
I0403 16:35:27.623559 21250 net.cpp:399] inception_4b/output_inception_4b/output_0_split -> inception_4b/output_inception_4b/output_0_split_2
I0403 16:35:27.623580 21250 net.cpp:399] inception_4b/output_inception_4b/output_0_split -> inception_4b/output_inception_4b/output_0_split_3
I0403 16:35:27.623664 21250 net.cpp:141] Setting up inception_4b/output_inception_4b/output_0_split
I0403 16:35:27.623688 21250 net.cpp:148] Top shape: 24 512 14 14 (2408448)
I0403 16:35:27.623705 21250 net.cpp:148] Top shape: 24 512 14 14 (2408448)
I0403 16:35:27.623720 21250 net.cpp:148] Top shape: 24 512 14 14 (2408448)
I0403 16:35:27.623735 21250 net.cpp:148] Top shape: 24 512 14 14 (2408448)
I0403 16:35:27.623749 21250 net.cpp:156] Memory required for data: 1028392224
I0403 16:35:27.623764 21250 layer_factory.hpp:77] Creating layer inception_4c/1x1
I0403 16:35:27.623786 21250 net.cpp:91] Creating Layer inception_4c/1x1
I0403 16:35:27.623803 21250 net.cpp:425] inception_4c/1x1 <- inception_4b/output_inception_4b/output_0_split_0
I0403 16:35:27.623824 21250 net.cpp:399] inception_4c/1x1 -> inception_4c/1x1
I0403 16:35:27.625308 21250 net.cpp:141] Setting up inception_4c/1x1
I0403 16:35:27.625339 21250 net.cpp:148] Top shape: 24 128 14 14 (602112)
I0403 16:35:27.625355 21250 net.cpp:156] Memory required for data: 1030800672
I0403 16:35:27.625373 21250 layer_factory.hpp:77] Creating layer inception_4c/relu_1x1
I0403 16:35:27.625391 21250 net.cpp:91] Creating Layer inception_4c/relu_1x1
I0403 16:35:27.625406 21250 net.cpp:425] inception_4c/relu_1x1 <- inception_4c/1x1
I0403 16:35:27.625427 21250 net.cpp:386] inception_4c/relu_1x1 -> inception_4c/1x1 (in-place)
I0403 16:35:27.625612 21250 net.cpp:141] Setting up inception_4c/relu_1x1
I0403 16:35:27.625638 21250 net.cpp:148] Top shape: 24 128 14 14 (602112)
I0403 16:35:27.625653 21250 net.cpp:156] Memory required for data: 1033209120
I0403 16:35:27.625668 21250 layer_factory.hpp:77] Creating layer inception_4c/3x3_reduce
I0403 16:35:27.625689 21250 net.cpp:91] Creating Layer inception_4c/3x3_reduce
I0403 16:35:27.625706 21250 net.cpp:425] inception_4c/3x3_reduce <- inception_4b/output_inception_4b/output_0_split_1
I0403 16:35:27.625728 21250 net.cpp:399] inception_4c/3x3_reduce -> inception_4c/3x3_reduce
I0403 16:35:27.627750 21250 net.cpp:141] Setting up inception_4c/3x3_reduce
I0403 16:35:27.627780 21250 net.cpp:148] Top shape: 24 128 14 14 (602112)
I0403 16:35:27.627796 21250 net.cpp:156] Memory required for data: 1035617568
I0403 16:35:27.627816 21250 layer_factory.hpp:77] Creating layer inception_4c/relu_3x3_reduce
I0403 16:35:27.627838 21250 net.cpp:91] Creating Layer inception_4c/relu_3x3_reduce
I0403 16:35:27.627856 21250 net.cpp:425] inception_4c/relu_3x3_reduce <- inception_4c/3x3_reduce
I0403 16:35:27.627873 21250 net.cpp:386] inception_4c/relu_3x3_reduce -> inception_4c/3x3_reduce (in-place)
I0403 16:35:27.628196 21250 net.cpp:141] Setting up inception_4c/relu_3x3_reduce
I0403 16:35:27.628226 21250 net.cpp:148] Top shape: 24 128 14 14 (602112)
I0403 16:35:27.628242 21250 net.cpp:156] Memory required for data: 1038026016
I0403 16:35:27.628257 21250 layer_factory.hpp:77] Creating layer inception_4c/3x3
I0403 16:35:27.628280 21250 net.cpp:91] Creating Layer inception_4c/3x3
I0403 16:35:27.628298 21250 net.cpp:425] inception_4c/3x3 <- inception_4c/3x3_reduce
I0403 16:35:27.628321 21250 net.cpp:399] inception_4c/3x3 -> inception_4c/3x3
I0403 16:35:27.632117 21250 net.cpp:141] Setting up inception_4c/3x3
I0403 16:35:27.632160 21250 net.cpp:148] Top shape: 24 256 14 14 (1204224)
I0403 16:35:27.632177 21250 net.cpp:156] Memory required for data: 1042842912
I0403 16:35:27.632210 21250 layer_factory.hpp:77] Creating layer inception_4c/relu_3x3
I0403 16:35:27.632233 21250 net.cpp:91] Creating Layer inception_4c/relu_3x3
I0403 16:35:27.632251 21250 net.cpp:425] inception_4c/relu_3x3 <- inception_4c/3x3
I0403 16:35:27.632267 21250 net.cpp:386] inception_4c/relu_3x3 -> inception_4c/3x3 (in-place)
I0403 16:35:27.632455 21250 net.cpp:141] Setting up inception_4c/relu_3x3
I0403 16:35:27.632480 21250 net.cpp:148] Top shape: 24 256 14 14 (1204224)
I0403 16:35:27.632495 21250 net.cpp:156] Memory required for data: 1047659808
I0403 16:35:27.632509 21250 layer_factory.hpp:77] Creating layer inception_4c/5x5_reduce
I0403 16:35:27.632534 21250 net.cpp:91] Creating Layer inception_4c/5x5_reduce
I0403 16:35:27.632552 21250 net.cpp:425] inception_4c/5x5_reduce <- inception_4b/output_inception_4b/output_0_split_2
I0403 16:35:27.632571 21250 net.cpp:399] inception_4c/5x5_reduce -> inception_4c/5x5_reduce
I0403 16:35:27.633698 21250 net.cpp:141] Setting up inception_4c/5x5_reduce
I0403 16:35:27.633726 21250 net.cpp:148] Top shape: 24 24 14 14 (112896)
I0403 16:35:27.633741 21250 net.cpp:156] Memory required for data: 1048111392
I0403 16:35:27.633759 21250 layer_factory.hpp:77] Creating layer inception_4c/relu_5x5_reduce
I0403 16:35:27.633780 21250 net.cpp:91] Creating Layer inception_4c/relu_5x5_reduce
I0403 16:35:27.633797 21250 net.cpp:425] inception_4c/relu_5x5_reduce <- inception_4c/5x5_reduce
I0403 16:35:27.633816 21250 net.cpp:386] inception_4c/relu_5x5_reduce -> inception_4c/5x5_reduce (in-place)
I0403 16:35:27.634004 21250 net.cpp:141] Setting up inception_4c/relu_5x5_reduce
I0403 16:35:27.634035 21250 net.cpp:148] Top shape: 24 24 14 14 (112896)
I0403 16:35:27.634050 21250 net.cpp:156] Memory required for data: 1048562976
I0403 16:35:27.634065 21250 layer_factory.hpp:77] Creating layer inception_4c/5x5
I0403 16:35:27.634088 21250 net.cpp:91] Creating Layer inception_4c/5x5
I0403 16:35:27.634105 21250 net.cpp:425] inception_4c/5x5 <- inception_4c/5x5_reduce
I0403 16:35:27.634126 21250 net.cpp:399] inception_4c/5x5 -> inception_4c/5x5
I0403 16:35:27.635416 21250 net.cpp:141] Setting up inception_4c/5x5
I0403 16:35:27.635447 21250 net.cpp:148] Top shape: 24 64 14 14 (301056)
I0403 16:35:27.635462 21250 net.cpp:156] Memory required for data: 1049767200
I0403 16:35:27.635481 21250 layer_factory.hpp:77] Creating layer inception_4c/relu_5x5
I0403 16:35:27.635499 21250 net.cpp:91] Creating Layer inception_4c/relu_5x5
I0403 16:35:27.635515 21250 net.cpp:425] inception_4c/relu_5x5 <- inception_4c/5x5
I0403 16:35:27.635535 21250 net.cpp:386] inception_4c/relu_5x5 -> inception_4c/5x5 (in-place)
I0403 16:35:27.635838 21250 net.cpp:141] Setting up inception_4c/relu_5x5
I0403 16:35:27.635869 21250 net.cpp:148] Top shape: 24 64 14 14 (301056)
I0403 16:35:27.635885 21250 net.cpp:156] Memory required for data: 1050971424
I0403 16:35:27.635900 21250 layer_factory.hpp:77] Creating layer inception_4c/pool
I0403 16:35:27.635920 21250 net.cpp:91] Creating Layer inception_4c/pool
I0403 16:35:27.635936 21250 net.cpp:425] inception_4c/pool <- inception_4b/output_inception_4b/output_0_split_3
I0403 16:35:27.635956 21250 net.cpp:399] inception_4c/pool -> inception_4c/pool
I0403 16:35:27.636026 21250 net.cpp:141] Setting up inception_4c/pool
I0403 16:35:27.636054 21250 net.cpp:148] Top shape: 24 512 14 14 (2408448)
I0403 16:35:27.636070 21250 net.cpp:156] Memory required for data: 1060605216
I0403 16:35:27.636085 21250 layer_factory.hpp:77] Creating layer inception_4c/pool_proj
I0403 16:35:27.636104 21250 net.cpp:91] Creating Layer inception_4c/pool_proj
I0403 16:35:27.636121 21250 net.cpp:425] inception_4c/pool_proj <- inception_4c/pool
I0403 16:35:27.636142 21250 net.cpp:399] inception_4c/pool_proj -> inception_4c/pool_proj
I0403 16:35:27.637444 21250 net.cpp:141] Setting up inception_4c/pool_proj
I0403 16:35:27.637471 21250 net.cpp:148] Top shape: 24 64 14 14 (301056)
I0403 16:35:27.637501 21250 net.cpp:156] Memory required for data: 1061809440
I0403 16:35:27.637521 21250 layer_factory.hpp:77] Creating layer inception_4c/relu_pool_proj
I0403 16:35:27.637542 21250 net.cpp:91] Creating Layer inception_4c/relu_pool_proj
I0403 16:35:27.637558 21250 net.cpp:425] inception_4c/relu_pool_proj <- inception_4c/pool_proj
I0403 16:35:27.637575 21250 net.cpp:386] inception_4c/relu_pool_proj -> inception_4c/pool_proj (in-place)
I0403 16:35:27.637765 21250 net.cpp:141] Setting up inception_4c/relu_pool_proj
I0403 16:35:27.637792 21250 net.cpp:148] Top shape: 24 64 14 14 (301056)
I0403 16:35:27.637809 21250 net.cpp:156] Memory required for data: 1063013664
I0403 16:35:27.637822 21250 layer_factory.hpp:77] Creating layer inception_4c/output
I0403 16:35:27.637840 21250 net.cpp:91] Creating Layer inception_4c/output
I0403 16:35:27.637856 21250 net.cpp:425] inception_4c/output <- inception_4c/1x1
I0403 16:35:27.637871 21250 net.cpp:425] inception_4c/output <- inception_4c/3x3
I0403 16:35:27.637887 21250 net.cpp:425] inception_4c/output <- inception_4c/5x5
I0403 16:35:27.637903 21250 net.cpp:425] inception_4c/output <- inception_4c/pool_proj
I0403 16:35:27.637923 21250 net.cpp:399] inception_4c/output -> inception_4c/output
I0403 16:35:27.637970 21250 net.cpp:141] Setting up inception_4c/output
I0403 16:35:27.637996 21250 net.cpp:148] Top shape: 24 512 14 14 (2408448)
I0403 16:35:27.638010 21250 net.cpp:156] Memory required for data: 1072647456
I0403 16:35:27.638037 21250 layer_factory.hpp:77] Creating layer inception_4c/output_inception_4c/output_0_split
I0403 16:35:27.638058 21250 net.cpp:91] Creating Layer inception_4c/output_inception_4c/output_0_split
I0403 16:35:27.638075 21250 net.cpp:425] inception_4c/output_inception_4c/output_0_split <- inception_4c/output
I0403 16:35:27.638092 21250 net.cpp:399] inception_4c/output_inception_4c/output_0_split -> inception_4c/output_inception_4c/output_0_split_0
I0403 16:35:27.638113 21250 net.cpp:399] inception_4c/output_inception_4c/output_0_split -> inception_4c/output_inception_4c/output_0_split_1
I0403 16:35:27.638135 21250 net.cpp:399] inception_4c/output_inception_4c/output_0_split -> inception_4c/output_inception_4c/output_0_split_2
I0403 16:35:27.638156 21250 net.cpp:399] inception_4c/output_inception_4c/output_0_split -> inception_4c/output_inception_4c/output_0_split_3
I0403 16:35:27.638244 21250 net.cpp:141] Setting up inception_4c/output_inception_4c/output_0_split
I0403 16:35:27.638268 21250 net.cpp:148] Top shape: 24 512 14 14 (2408448)
I0403 16:35:27.638283 21250 net.cpp:148] Top shape: 24 512 14 14 (2408448)
I0403 16:35:27.638299 21250 net.cpp:148] Top shape: 24 512 14 14 (2408448)
I0403 16:35:27.638314 21250 net.cpp:148] Top shape: 24 512 14 14 (2408448)
I0403 16:35:27.638327 21250 net.cpp:156] Memory required for data: 1111182624
I0403 16:35:27.638341 21250 layer_factory.hpp:77] Creating layer inception_4d/1x1
I0403 16:35:27.638363 21250 net.cpp:91] Creating Layer inception_4d/1x1
I0403 16:35:27.638381 21250 net.cpp:425] inception_4d/1x1 <- inception_4c/output_inception_4c/output_0_split_0
I0403 16:35:27.638401 21250 net.cpp:399] inception_4d/1x1 -> inception_4d/1x1
I0403 16:35:27.639828 21250 net.cpp:141] Setting up inception_4d/1x1
I0403 16:35:27.639858 21250 net.cpp:148] Top shape: 24 112 14 14 (526848)
I0403 16:35:27.639873 21250 net.cpp:156] Memory required for data: 1113290016
I0403 16:35:27.639891 21250 layer_factory.hpp:77] Creating layer inception_4d/relu_1x1
I0403 16:35:27.639912 21250 net.cpp:91] Creating Layer inception_4d/relu_1x1
I0403 16:35:27.639928 21250 net.cpp:425] inception_4d/relu_1x1 <- inception_4d/1x1
I0403 16:35:27.639945 21250 net.cpp:386] inception_4d/relu_1x1 -> inception_4d/1x1 (in-place)
I0403 16:35:27.640141 21250 net.cpp:141] Setting up inception_4d/relu_1x1
I0403 16:35:27.640167 21250 net.cpp:148] Top shape: 24 112 14 14 (526848)
I0403 16:35:27.640182 21250 net.cpp:156] Memory required for data: 1115397408
I0403 16:35:27.640197 21250 layer_factory.hpp:77] Creating layer inception_4d/3x3_reduce
I0403 16:35:27.640233 21250 net.cpp:91] Creating Layer inception_4d/3x3_reduce
I0403 16:35:27.640254 21250 net.cpp:425] inception_4d/3x3_reduce <- inception_4c/output_inception_4c/output_0_split_1
I0403 16:35:27.640274 21250 net.cpp:399] inception_4d/3x3_reduce -> inception_4d/3x3_reduce
I0403 16:35:27.641830 21250 net.cpp:141] Setting up inception_4d/3x3_reduce
I0403 16:35:27.641858 21250 net.cpp:148] Top shape: 24 144 14 14 (677376)
I0403 16:35:27.641873 21250 net.cpp:156] Memory required for data: 1118106912
I0403 16:35:27.641891 21250 layer_factory.hpp:77] Creating layer inception_4d/relu_3x3_reduce
I0403 16:35:27.641911 21250 net.cpp:91] Creating Layer inception_4d/relu_3x3_reduce
I0403 16:35:27.641927 21250 net.cpp:425] inception_4d/relu_3x3_reduce <- inception_4d/3x3_reduce
I0403 16:35:27.641949 21250 net.cpp:386] inception_4d/relu_3x3_reduce -> inception_4d/3x3_reduce (in-place)
I0403 16:35:27.642258 21250 net.cpp:141] Setting up inception_4d/relu_3x3_reduce
I0403 16:35:27.642285 21250 net.cpp:148] Top shape: 24 144 14 14 (677376)
I0403 16:35:27.642300 21250 net.cpp:156] Memory required for data: 1120816416
I0403 16:35:27.642315 21250 layer_factory.hpp:77] Creating layer inception_4d/3x3
I0403 16:35:27.642338 21250 net.cpp:91] Creating Layer inception_4d/3x3
I0403 16:35:27.642355 21250 net.cpp:425] inception_4d/3x3 <- inception_4d/3x3_reduce
I0403 16:35:27.642376 21250 net.cpp:399] inception_4d/3x3 -> inception_4d/3x3
I0403 16:35:27.646797 21250 net.cpp:141] Setting up inception_4d/3x3
I0403 16:35:27.646827 21250 net.cpp:148] Top shape: 24 288 14 14 (1354752)
I0403 16:35:27.646852 21250 net.cpp:156] Memory required for data: 1126235424
I0403 16:35:27.646869 21250 layer_factory.hpp:77] Creating layer inception_4d/relu_3x3
I0403 16:35:27.646890 21250 net.cpp:91] Creating Layer inception_4d/relu_3x3
I0403 16:35:27.646915 21250 net.cpp:425] inception_4d/relu_3x3 <- inception_4d/3x3
I0403 16:35:27.646934 21250 net.cpp:386] inception_4d/relu_3x3 -> inception_4d/3x3 (in-place)
I0403 16:35:27.647137 21250 net.cpp:141] Setting up inception_4d/relu_3x3
I0403 16:35:27.647171 21250 net.cpp:148] Top shape: 24 288 14 14 (1354752)
I0403 16:35:27.647187 21250 net.cpp:156] Memory required for data: 1131654432
I0403 16:35:27.647202 21250 layer_factory.hpp:77] Creating layer inception_4d/5x5_reduce
I0403 16:35:27.647222 21250 net.cpp:91] Creating Layer inception_4d/5x5_reduce
I0403 16:35:27.647238 21250 net.cpp:425] inception_4d/5x5_reduce <- inception_4c/output_inception_4c/output_0_split_2
I0403 16:35:27.647258 21250 net.cpp:399] inception_4d/5x5_reduce -> inception_4d/5x5_reduce
I0403 16:35:27.648418 21250 net.cpp:141] Setting up inception_4d/5x5_reduce
I0403 16:35:27.648447 21250 net.cpp:148] Top shape: 24 32 14 14 (150528)
I0403 16:35:27.648461 21250 net.cpp:156] Memory required for data: 1132256544
I0403 16:35:27.648478 21250 layer_factory.hpp:77] Creating layer inception_4d/relu_5x5_reduce
I0403 16:35:27.648499 21250 net.cpp:91] Creating Layer inception_4d/relu_5x5_reduce
I0403 16:35:27.648515 21250 net.cpp:425] inception_4d/relu_5x5_reduce <- inception_4d/5x5_reduce
I0403 16:35:27.648532 21250 net.cpp:386] inception_4d/relu_5x5_reduce -> inception_4d/5x5_reduce (in-place)
I0403 16:35:27.648723 21250 net.cpp:141] Setting up inception_4d/relu_5x5_reduce
I0403 16:35:27.648748 21250 net.cpp:148] Top shape: 24 32 14 14 (150528)
I0403 16:35:27.648762 21250 net.cpp:156] Memory required for data: 1132858656
I0403 16:35:27.648777 21250 layer_factory.hpp:77] Creating layer inception_4d/5x5
I0403 16:35:27.648800 21250 net.cpp:91] Creating Layer inception_4d/5x5
I0403 16:35:27.648818 21250 net.cpp:425] inception_4d/5x5 <- inception_4d/5x5_reduce
I0403 16:35:27.648836 21250 net.cpp:399] inception_4d/5x5 -> inception_4d/5x5
I0403 16:35:27.650341 21250 net.cpp:141] Setting up inception_4d/5x5
I0403 16:35:27.650372 21250 net.cpp:148] Top shape: 24 64 14 14 (301056)
I0403 16:35:27.650388 21250 net.cpp:156] Memory required for data: 1134062880
I0403 16:35:27.650406 21250 layer_factory.hpp:77] Creating layer inception_4d/relu_5x5
I0403 16:35:27.650439 21250 net.cpp:91] Creating Layer inception_4d/relu_5x5
I0403 16:35:27.650455 21250 net.cpp:425] inception_4d/relu_5x5 <- inception_4d/5x5
I0403 16:35:27.650475 21250 net.cpp:386] inception_4d/relu_5x5 -> inception_4d/5x5 (in-place)
I0403 16:35:27.650792 21250 net.cpp:141] Setting up inception_4d/relu_5x5
I0403 16:35:27.650821 21250 net.cpp:148] Top shape: 24 64 14 14 (301056)
I0403 16:35:27.650837 21250 net.cpp:156] Memory required for data: 1135267104
I0403 16:35:27.650852 21250 layer_factory.hpp:77] Creating layer inception_4d/pool
I0403 16:35:27.650871 21250 net.cpp:91] Creating Layer inception_4d/pool
I0403 16:35:27.650887 21250 net.cpp:425] inception_4d/pool <- inception_4c/output_inception_4c/output_0_split_3
I0403 16:35:27.650907 21250 net.cpp:399] inception_4d/pool -> inception_4d/pool
I0403 16:35:27.650975 21250 net.cpp:141] Setting up inception_4d/pool
I0403 16:35:27.651000 21250 net.cpp:148] Top shape: 24 512 14 14 (2408448)
I0403 16:35:27.651015 21250 net.cpp:156] Memory required for data: 1144900896
I0403 16:35:27.651036 21250 layer_factory.hpp:77] Creating layer inception_4d/pool_proj
I0403 16:35:27.651069 21250 net.cpp:91] Creating Layer inception_4d/pool_proj
I0403 16:35:27.651087 21250 net.cpp:425] inception_4d/pool_proj <- inception_4d/pool
I0403 16:35:27.651106 21250 net.cpp:399] inception_4d/pool_proj -> inception_4d/pool_proj
I0403 16:35:27.652878 21250 net.cpp:141] Setting up inception_4d/pool_proj
I0403 16:35:27.652906 21250 net.cpp:148] Top shape: 24 64 14 14 (301056)
I0403 16:35:27.652922 21250 net.cpp:156] Memory required for data: 1146105120
I0403 16:35:27.652940 21250 layer_factory.hpp:77] Creating layer inception_4d/relu_pool_proj
I0403 16:35:27.652961 21250 net.cpp:91] Creating Layer inception_4d/relu_pool_proj
I0403 16:35:27.652977 21250 net.cpp:425] inception_4d/relu_pool_proj <- inception_4d/pool_proj
I0403 16:35:27.652995 21250 net.cpp:386] inception_4d/relu_pool_proj -> inception_4d/pool_proj (in-place)
I0403 16:35:27.653182 21250 net.cpp:141] Setting up inception_4d/relu_pool_proj
I0403 16:35:27.653209 21250 net.cpp:148] Top shape: 24 64 14 14 (301056)
I0403 16:35:27.653224 21250 net.cpp:156] Memory required for data: 1147309344
I0403 16:35:27.653239 21250 layer_factory.hpp:77] Creating layer inception_4d/output
I0403 16:35:27.653256 21250 net.cpp:91] Creating Layer inception_4d/output
I0403 16:35:27.653271 21250 net.cpp:425] inception_4d/output <- inception_4d/1x1
I0403 16:35:27.653287 21250 net.cpp:425] inception_4d/output <- inception_4d/3x3
I0403 16:35:27.653302 21250 net.cpp:425] inception_4d/output <- inception_4d/5x5
I0403 16:35:27.653317 21250 net.cpp:425] inception_4d/output <- inception_4d/pool_proj
I0403 16:35:27.653334 21250 net.cpp:399] inception_4d/output -> inception_4d/output
I0403 16:35:27.653383 21250 net.cpp:141] Setting up inception_4d/output
I0403 16:35:27.653405 21250 net.cpp:148] Top shape: 24 528 14 14 (2483712)
I0403 16:35:27.653419 21250 net.cpp:156] Memory required for data: 1157244192
I0403 16:35:27.653434 21250 layer_factory.hpp:77] Creating layer inception_4d/output_inception_4d/output_0_split
I0403 16:35:27.653453 21250 net.cpp:91] Creating Layer inception_4d/output_inception_4d/output_0_split
I0403 16:35:27.653470 21250 net.cpp:425] inception_4d/output_inception_4d/output_0_split <- inception_4d/output
I0403 16:35:27.653486 21250 net.cpp:399] inception_4d/output_inception_4d/output_0_split -> inception_4d/output_inception_4d/output_0_split_0
I0403 16:35:27.653506 21250 net.cpp:399] inception_4d/output_inception_4d/output_0_split -> inception_4d/output_inception_4d/output_0_split_1
I0403 16:35:27.653527 21250 net.cpp:399] inception_4d/output_inception_4d/output_0_split -> inception_4d/output_inception_4d/output_0_split_2
I0403 16:35:27.653547 21250 net.cpp:399] inception_4d/output_inception_4d/output_0_split -> inception_4d/output_inception_4d/output_0_split_3
I0403 16:35:27.653568 21250 net.cpp:399] inception_4d/output_inception_4d/output_0_split -> inception_4d/output_inception_4d/output_0_split_4
I0403 16:35:27.653672 21250 net.cpp:141] Setting up inception_4d/output_inception_4d/output_0_split
I0403 16:35:27.653708 21250 net.cpp:148] Top shape: 24 528 14 14 (2483712)
I0403 16:35:27.653725 21250 net.cpp:148] Top shape: 24 528 14 14 (2483712)
I0403 16:35:27.653740 21250 net.cpp:148] Top shape: 24 528 14 14 (2483712)
I0403 16:35:27.653755 21250 net.cpp:148] Top shape: 24 528 14 14 (2483712)
I0403 16:35:27.653770 21250 net.cpp:148] Top shape: 24 528 14 14 (2483712)
I0403 16:35:27.653784 21250 net.cpp:156] Memory required for data: 1206918432
I0403 16:35:27.653797 21250 layer_factory.hpp:77] Creating layer loss2/ave_pool
I0403 16:35:27.653813 21250 net.cpp:91] Creating Layer loss2/ave_pool
I0403 16:35:27.653830 21250 net.cpp:425] loss2/ave_pool <- inception_4d/output_inception_4d/output_0_split_0
I0403 16:35:27.653851 21250 net.cpp:399] loss2/ave_pool -> loss2/ave_pool
I0403 16:35:27.654167 21250 net.cpp:141] Setting up loss2/ave_pool
I0403 16:35:27.654193 21250 net.cpp:148] Top shape: 24 528 4 4 (202752)
I0403 16:35:27.654208 21250 net.cpp:156] Memory required for data: 1207729440
I0403 16:35:27.654222 21250 layer_factory.hpp:77] Creating layer loss2/conv
I0403 16:35:27.654244 21250 net.cpp:91] Creating Layer loss2/conv
I0403 16:35:27.654261 21250 net.cpp:425] loss2/conv <- loss2/ave_pool
I0403 16:35:27.654284 21250 net.cpp:399] loss2/conv -> loss2/conv
I0403 16:35:27.656169 21250 net.cpp:141] Setting up loss2/conv
I0403 16:35:27.656200 21250 net.cpp:148] Top shape: 24 128 4 4 (49152)
I0403 16:35:27.656216 21250 net.cpp:156] Memory required for data: 1207926048
I0403 16:35:27.656234 21250 layer_factory.hpp:77] Creating layer loss2/relu_conv
I0403 16:35:27.656252 21250 net.cpp:91] Creating Layer loss2/relu_conv
I0403 16:35:27.656268 21250 net.cpp:425] loss2/relu_conv <- loss2/conv
I0403 16:35:27.656285 21250 net.cpp:386] loss2/relu_conv -> loss2/conv (in-place)
I0403 16:35:27.656570 21250 net.cpp:141] Setting up loss2/relu_conv
I0403 16:35:27.656599 21250 net.cpp:148] Top shape: 24 128 4 4 (49152)
I0403 16:35:27.656615 21250 net.cpp:156] Memory required for data: 1208122656
I0403 16:35:27.656628 21250 layer_factory.hpp:77] Creating layer loss2/fc
I0403 16:35:27.656647 21250 net.cpp:91] Creating Layer loss2/fc
I0403 16:35:27.656662 21250 net.cpp:425] loss2/fc <- loss2/conv
I0403 16:35:27.656682 21250 net.cpp:399] loss2/fc -> loss2/fc
I0403 16:35:27.674430 21250 net.cpp:141] Setting up loss2/fc
I0403 16:35:27.674468 21250 net.cpp:148] Top shape: 24 1024 (24576)
I0403 16:35:27.674484 21250 net.cpp:156] Memory required for data: 1208220960
I0403 16:35:27.674504 21250 layer_factory.hpp:77] Creating layer loss2/relu_fc
I0403 16:35:27.674525 21250 net.cpp:91] Creating Layer loss2/relu_fc
I0403 16:35:27.674541 21250 net.cpp:425] loss2/relu_fc <- loss2/fc
I0403 16:35:27.674559 21250 net.cpp:386] loss2/relu_fc -> loss2/fc (in-place)
I0403 16:35:27.674871 21250 net.cpp:141] Setting up loss2/relu_fc
I0403 16:35:27.674898 21250 net.cpp:148] Top shape: 24 1024 (24576)
I0403 16:35:27.674913 21250 net.cpp:156] Memory required for data: 1208319264
I0403 16:35:27.674928 21250 layer_factory.hpp:77] Creating layer loss2/drop_fc
I0403 16:35:27.674949 21250 net.cpp:91] Creating Layer loss2/drop_fc
I0403 16:35:27.674965 21250 net.cpp:425] loss2/drop_fc <- loss2/fc
I0403 16:35:27.674983 21250 net.cpp:386] loss2/drop_fc -> loss2/fc (in-place)
I0403 16:35:27.675040 21250 net.cpp:141] Setting up loss2/drop_fc
I0403 16:35:27.675063 21250 net.cpp:148] Top shape: 24 1024 (24576)
I0403 16:35:27.675078 21250 net.cpp:156] Memory required for data: 1208417568
I0403 16:35:27.675093 21250 layer_factory.hpp:77] Creating layer loss2/classifier_plantvillage
I0403 16:35:27.675112 21250 net.cpp:91] Creating Layer loss2/classifier_plantvillage
I0403 16:35:27.675127 21250 net.cpp:425] loss2/classifier_plantvillage <- loss2/fc
I0403 16:35:27.675148 21250 net.cpp:399] loss2/classifier_plantvillage -> loss2/classifier_plantvillage
I0403 16:35:27.675566 21250 net.cpp:141] Setting up loss2/classifier_plantvillage
I0403 16:35:27.675591 21250 net.cpp:148] Top shape: 24 38 (912)
I0403 16:35:27.675623 21250 net.cpp:156] Memory required for data: 1208421216
I0403 16:35:27.675642 21250 layer_factory.hpp:77] Creating layer loss2/classifier_plantvillage_loss2/classifier_plantvillage_0_split
I0403 16:35:27.675660 21250 net.cpp:91] Creating Layer loss2/classifier_plantvillage_loss2/classifier_plantvillage_0_split
I0403 16:35:27.675676 21250 net.cpp:425] loss2/classifier_plantvillage_loss2/classifier_plantvillage_0_split <- loss2/classifier_plantvillage
I0403 16:35:27.675696 21250 net.cpp:399] loss2/classifier_plantvillage_loss2/classifier_plantvillage_0_split -> loss2/classifier_plantvillage_loss2/classifier_plantvillage_0_split_0
I0403 16:35:27.675719 21250 net.cpp:399] loss2/classifier_plantvillage_loss2/classifier_plantvillage_0_split -> loss2/classifier_plantvillage_loss2/classifier_plantvillage_0_split_1
I0403 16:35:27.675740 21250 net.cpp:399] loss2/classifier_plantvillage_loss2/classifier_plantvillage_0_split -> loss2/classifier_plantvillage_loss2/classifier_plantvillage_0_split_2
I0403 16:35:27.675818 21250 net.cpp:141] Setting up loss2/classifier_plantvillage_loss2/classifier_plantvillage_0_split
I0403 16:35:27.675845 21250 net.cpp:148] Top shape: 24 38 (912)
I0403 16:35:27.675863 21250 net.cpp:148] Top shape: 24 38 (912)
I0403 16:35:27.675878 21250 net.cpp:148] Top shape: 24 38 (912)
I0403 16:35:27.675890 21250 net.cpp:156] Memory required for data: 1208432160
I0403 16:35:27.675905 21250 layer_factory.hpp:77] Creating layer inception_4e/1x1
I0403 16:35:27.675925 21250 net.cpp:91] Creating Layer inception_4e/1x1
I0403 16:35:27.675943 21250 net.cpp:425] inception_4e/1x1 <- inception_4d/output_inception_4d/output_0_split_1
I0403 16:35:27.675964 21250 net.cpp:399] inception_4e/1x1 -> inception_4e/1x1
I0403 16:35:27.677862 21250 net.cpp:141] Setting up inception_4e/1x1
I0403 16:35:27.677894 21250 net.cpp:148] Top shape: 24 256 14 14 (1204224)
I0403 16:35:27.677911 21250 net.cpp:156] Memory required for data: 1213249056
I0403 16:35:27.677929 21250 layer_factory.hpp:77] Creating layer inception_4e/relu_1x1
I0403 16:35:27.677947 21250 net.cpp:91] Creating Layer inception_4e/relu_1x1
I0403 16:35:27.677963 21250 net.cpp:425] inception_4e/relu_1x1 <- inception_4e/1x1
I0403 16:35:27.677983 21250 net.cpp:386] inception_4e/relu_1x1 -> inception_4e/1x1 (in-place)
I0403 16:35:27.678306 21250 net.cpp:141] Setting up inception_4e/relu_1x1
I0403 16:35:27.678335 21250 net.cpp:148] Top shape: 24 256 14 14 (1204224)
I0403 16:35:27.678351 21250 net.cpp:156] Memory required for data: 1218065952
I0403 16:35:27.678366 21250 layer_factory.hpp:77] Creating layer inception_4e/3x3_reduce
I0403 16:35:27.678390 21250 net.cpp:91] Creating Layer inception_4e/3x3_reduce
I0403 16:35:27.678407 21250 net.cpp:425] inception_4e/3x3_reduce <- inception_4d/output_inception_4d/output_0_split_2
I0403 16:35:27.678426 21250 net.cpp:399] inception_4e/3x3_reduce -> inception_4e/3x3_reduce
I0403 16:35:27.680661 21250 net.cpp:141] Setting up inception_4e/3x3_reduce
I0403 16:35:27.680696 21250 net.cpp:148] Top shape: 24 160 14 14 (752640)
I0403 16:35:27.680712 21250 net.cpp:156] Memory required for data: 1221076512
I0403 16:35:27.680732 21250 layer_factory.hpp:77] Creating layer inception_4e/relu_3x3_reduce
I0403 16:35:27.680749 21250 net.cpp:91] Creating Layer inception_4e/relu_3x3_reduce
I0403 16:35:27.680765 21250 net.cpp:425] inception_4e/relu_3x3_reduce <- inception_4e/3x3_reduce
I0403 16:35:27.680783 21250 net.cpp:386] inception_4e/relu_3x3_reduce -> inception_4e/3x3_reduce (in-place)
I0403 16:35:27.680976 21250 net.cpp:141] Setting up inception_4e/relu_3x3_reduce
I0403 16:35:27.681006 21250 net.cpp:148] Top shape: 24 160 14 14 (752640)
I0403 16:35:27.681026 21250 net.cpp:156] Memory required for data: 1224087072
I0403 16:35:27.681042 21250 layer_factory.hpp:77] Creating layer inception_4e/3x3
I0403 16:35:27.681064 21250 net.cpp:91] Creating Layer inception_4e/3x3
I0403 16:35:27.681082 21250 net.cpp:425] inception_4e/3x3 <- inception_4e/3x3_reduce
I0403 16:35:27.681103 21250 net.cpp:399] inception_4e/3x3 -> inception_4e/3x3
I0403 16:35:27.686290 21250 net.cpp:141] Setting up inception_4e/3x3
I0403 16:35:27.686336 21250 net.cpp:148] Top shape: 24 320 14 14 (1505280)
I0403 16:35:27.686354 21250 net.cpp:156] Memory required for data: 1230108192
I0403 16:35:27.686373 21250 layer_factory.hpp:77] Creating layer inception_4e/relu_3x3
I0403 16:35:27.686393 21250 net.cpp:91] Creating Layer inception_4e/relu_3x3
I0403 16:35:27.686408 21250 net.cpp:425] inception_4e/relu_3x3 <- inception_4e/3x3
I0403 16:35:27.686429 21250 net.cpp:386] inception_4e/relu_3x3 -> inception_4e/3x3 (in-place)
I0403 16:35:27.686738 21250 net.cpp:141] Setting up inception_4e/relu_3x3
I0403 16:35:27.686765 21250 net.cpp:148] Top shape: 24 320 14 14 (1505280)
I0403 16:35:27.686780 21250 net.cpp:156] Memory required for data: 1236129312
I0403 16:35:27.686795 21250 layer_factory.hpp:77] Creating layer inception_4e/5x5_reduce
I0403 16:35:27.686817 21250 net.cpp:91] Creating Layer inception_4e/5x5_reduce
I0403 16:35:27.686836 21250 net.cpp:425] inception_4e/5x5_reduce <- inception_4d/output_inception_4d/output_0_split_3
I0403 16:35:27.686858 21250 net.cpp:399] inception_4e/5x5_reduce -> inception_4e/5x5_reduce
I0403 16:35:27.688035 21250 net.cpp:141] Setting up inception_4e/5x5_reduce
I0403 16:35:27.688065 21250 net.cpp:148] Top shape: 24 32 14 14 (150528)
I0403 16:35:27.688081 21250 net.cpp:156] Memory required for data: 1236731424
I0403 16:35:27.688102 21250 layer_factory.hpp:77] Creating layer inception_4e/relu_5x5_reduce
I0403 16:35:27.688122 21250 net.cpp:91] Creating Layer inception_4e/relu_5x5_reduce
I0403 16:35:27.688139 21250 net.cpp:425] inception_4e/relu_5x5_reduce <- inception_4e/5x5_reduce
I0403 16:35:27.688156 21250 net.cpp:386] inception_4e/relu_5x5_reduce -> inception_4e/5x5_reduce (in-place)
I0403 16:35:27.688475 21250 net.cpp:141] Setting up inception_4e/relu_5x5_reduce
I0403 16:35:27.688503 21250 net.cpp:148] Top shape: 24 32 14 14 (150528)
I0403 16:35:27.688519 21250 net.cpp:156] Memory required for data: 1237333536
I0403 16:35:27.688534 21250 layer_factory.hpp:77] Creating layer inception_4e/5x5
I0403 16:35:27.688575 21250 net.cpp:91] Creating Layer inception_4e/5x5
I0403 16:35:27.688596 21250 net.cpp:425] inception_4e/5x5 <- inception_4e/5x5_reduce
I0403 16:35:27.688616 21250 net.cpp:399] inception_4e/5x5 -> inception_4e/5x5
I0403 16:35:27.690582 21250 net.cpp:141] Setting up inception_4e/5x5
I0403 16:35:27.690611 21250 net.cpp:148] Top shape: 24 128 14 14 (602112)
I0403 16:35:27.690628 21250 net.cpp:156] Memory required for data: 1239741984
I0403 16:35:27.690647 21250 layer_factory.hpp:77] Creating layer inception_4e/relu_5x5
I0403 16:35:27.690668 21250 net.cpp:91] Creating Layer inception_4e/relu_5x5
I0403 16:35:27.690686 21250 net.cpp:425] inception_4e/relu_5x5 <- inception_4e/5x5
I0403 16:35:27.690704 21250 net.cpp:386] inception_4e/relu_5x5 -> inception_4e/5x5 (in-place)
I0403 16:35:27.690913 21250 net.cpp:141] Setting up inception_4e/relu_5x5
I0403 16:35:27.690943 21250 net.cpp:148] Top shape: 24 128 14 14 (602112)
I0403 16:35:27.690958 21250 net.cpp:156] Memory required for data: 1242150432
I0403 16:35:27.690974 21250 layer_factory.hpp:77] Creating layer inception_4e/pool
I0403 16:35:27.690994 21250 net.cpp:91] Creating Layer inception_4e/pool
I0403 16:35:27.691011 21250 net.cpp:425] inception_4e/pool <- inception_4d/output_inception_4d/output_0_split_4
I0403 16:35:27.691035 21250 net.cpp:399] inception_4e/pool -> inception_4e/pool
I0403 16:35:27.691112 21250 net.cpp:141] Setting up inception_4e/pool
I0403 16:35:27.691136 21250 net.cpp:148] Top shape: 24 528 14 14 (2483712)
I0403 16:35:27.691151 21250 net.cpp:156] Memory required for data: 1252085280
I0403 16:35:27.691165 21250 layer_factory.hpp:77] Creating layer inception_4e/pool_proj
I0403 16:35:27.691189 21250 net.cpp:91] Creating Layer inception_4e/pool_proj
I0403 16:35:27.691206 21250 net.cpp:425] inception_4e/pool_proj <- inception_4e/pool
I0403 16:35:27.691228 21250 net.cpp:399] inception_4e/pool_proj -> inception_4e/pool_proj
I0403 16:35:27.692823 21250 net.cpp:141] Setting up inception_4e/pool_proj
I0403 16:35:27.692865 21250 net.cpp:148] Top shape: 24 128 14 14 (602112)
I0403 16:35:27.692883 21250 net.cpp:156] Memory required for data: 1254493728
I0403 16:35:27.692901 21250 layer_factory.hpp:77] Creating layer inception_4e/relu_pool_proj
I0403 16:35:27.692922 21250 net.cpp:91] Creating Layer inception_4e/relu_pool_proj
I0403 16:35:27.692941 21250 net.cpp:425] inception_4e/relu_pool_proj <- inception_4e/pool_proj
I0403 16:35:27.692960 21250 net.cpp:386] inception_4e/relu_pool_proj -> inception_4e/pool_proj (in-place)
I0403 16:35:27.693279 21250 net.cpp:141] Setting up inception_4e/relu_pool_proj
I0403 16:35:27.693307 21250 net.cpp:148] Top shape: 24 128 14 14 (602112)
I0403 16:35:27.693322 21250 net.cpp:156] Memory required for data: 1256902176
I0403 16:35:27.693337 21250 layer_factory.hpp:77] Creating layer inception_4e/output
I0403 16:35:27.693356 21250 net.cpp:91] Creating Layer inception_4e/output
I0403 16:35:27.693372 21250 net.cpp:425] inception_4e/output <- inception_4e/1x1
I0403 16:35:27.693388 21250 net.cpp:425] inception_4e/output <- inception_4e/3x3
I0403 16:35:27.693404 21250 net.cpp:425] inception_4e/output <- inception_4e/5x5
I0403 16:35:27.693420 21250 net.cpp:425] inception_4e/output <- inception_4e/pool_proj
I0403 16:35:27.693440 21250 net.cpp:399] inception_4e/output -> inception_4e/output
I0403 16:35:27.693495 21250 net.cpp:141] Setting up inception_4e/output
I0403 16:35:27.693521 21250 net.cpp:148] Top shape: 24 832 14 14 (3913728)
I0403 16:35:27.693536 21250 net.cpp:156] Memory required for data: 1272557088
I0403 16:35:27.693550 21250 layer_factory.hpp:77] Creating layer pool4/3x3_s2
I0403 16:35:27.693568 21250 net.cpp:91] Creating Layer pool4/3x3_s2
I0403 16:35:27.693584 21250 net.cpp:425] pool4/3x3_s2 <- inception_4e/output
I0403 16:35:27.693605 21250 net.cpp:399] pool4/3x3_s2 -> pool4/3x3_s2
I0403 16:35:27.693676 21250 net.cpp:141] Setting up pool4/3x3_s2
I0403 16:35:27.693701 21250 net.cpp:148] Top shape: 24 832 7 7 (978432)
I0403 16:35:27.693717 21250 net.cpp:156] Memory required for data: 1276470816
I0403 16:35:27.693732 21250 layer_factory.hpp:77] Creating layer pool4/3x3_s2_pool4/3x3_s2_0_split
I0403 16:35:27.693753 21250 net.cpp:91] Creating Layer pool4/3x3_s2_pool4/3x3_s2_0_split
I0403 16:35:27.693770 21250 net.cpp:425] pool4/3x3_s2_pool4/3x3_s2_0_split <- pool4/3x3_s2
I0403 16:35:27.693788 21250 net.cpp:399] pool4/3x3_s2_pool4/3x3_s2_0_split -> pool4/3x3_s2_pool4/3x3_s2_0_split_0
I0403 16:35:27.693811 21250 net.cpp:399] pool4/3x3_s2_pool4/3x3_s2_0_split -> pool4/3x3_s2_pool4/3x3_s2_0_split_1
I0403 16:35:27.693833 21250 net.cpp:399] pool4/3x3_s2_pool4/3x3_s2_0_split -> pool4/3x3_s2_pool4/3x3_s2_0_split_2
I0403 16:35:27.693853 21250 net.cpp:399] pool4/3x3_s2_pool4/3x3_s2_0_split -> pool4/3x3_s2_pool4/3x3_s2_0_split_3
I0403 16:35:27.693948 21250 net.cpp:141] Setting up pool4/3x3_s2_pool4/3x3_s2_0_split
I0403 16:35:27.693974 21250 net.cpp:148] Top shape: 24 832 7 7 (978432)
I0403 16:35:27.693991 21250 net.cpp:148] Top shape: 24 832 7 7 (978432)
I0403 16:35:27.694007 21250 net.cpp:148] Top shape: 24 832 7 7 (978432)
I0403 16:35:27.694028 21250 net.cpp:148] Top shape: 24 832 7 7 (978432)
I0403 16:35:27.694043 21250 net.cpp:156] Memory required for data: 1292125728
I0403 16:35:27.694058 21250 layer_factory.hpp:77] Creating layer inception_5a/1x1
I0403 16:35:27.694082 21250 net.cpp:91] Creating Layer inception_5a/1x1
I0403 16:35:27.694099 21250 net.cpp:425] inception_5a/1x1 <- pool4/3x3_s2_pool4/3x3_s2_0_split_0
I0403 16:35:27.694121 21250 net.cpp:399] inception_5a/1x1 -> inception_5a/1x1
I0403 16:35:27.697180 21250 net.cpp:141] Setting up inception_5a/1x1
I0403 16:35:27.697211 21250 net.cpp:148] Top shape: 24 256 7 7 (301056)
I0403 16:35:27.697230 21250 net.cpp:156] Memory required for data: 1293329952
I0403 16:35:27.697250 21250 layer_factory.hpp:77] Creating layer inception_5a/relu_1x1
I0403 16:35:27.697270 21250 net.cpp:91] Creating Layer inception_5a/relu_1x1
I0403 16:35:27.697286 21250 net.cpp:425] inception_5a/relu_1x1 <- inception_5a/1x1
I0403 16:35:27.697304 21250 net.cpp:386] inception_5a/relu_1x1 -> inception_5a/1x1 (in-place)
I0403 16:35:27.697636 21250 net.cpp:141] Setting up inception_5a/relu_1x1
I0403 16:35:27.697664 21250 net.cpp:148] Top shape: 24 256 7 7 (301056)
I0403 16:35:27.697684 21250 net.cpp:156] Memory required for data: 1294534176
I0403 16:35:27.697698 21250 layer_factory.hpp:77] Creating layer inception_5a/3x3_reduce
I0403 16:35:27.697720 21250 net.cpp:91] Creating Layer inception_5a/3x3_reduce
I0403 16:35:27.697737 21250 net.cpp:425] inception_5a/3x3_reduce <- pool4/3x3_s2_pool4/3x3_s2_0_split_1
I0403 16:35:27.697759 21250 net.cpp:399] inception_5a/3x3_reduce -> inception_5a/3x3_reduce
I0403 16:35:27.700409 21250 net.cpp:141] Setting up inception_5a/3x3_reduce
I0403 16:35:27.700440 21250 net.cpp:148] Top shape: 24 160 7 7 (188160)
I0403 16:35:27.700456 21250 net.cpp:156] Memory required for data: 1295286816
I0403 16:35:27.700476 21250 layer_factory.hpp:77] Creating layer inception_5a/relu_3x3_reduce
I0403 16:35:27.700496 21250 net.cpp:91] Creating Layer inception_5a/relu_3x3_reduce
I0403 16:35:27.700512 21250 net.cpp:425] inception_5a/relu_3x3_reduce <- inception_5a/3x3_reduce
I0403 16:35:27.700533 21250 net.cpp:386] inception_5a/relu_3x3_reduce -> inception_5a/3x3_reduce (in-place)
I0403 16:35:27.700734 21250 net.cpp:141] Setting up inception_5a/relu_3x3_reduce
I0403 16:35:27.700760 21250 net.cpp:148] Top shape: 24 160 7 7 (188160)
I0403 16:35:27.700775 21250 net.cpp:156] Memory required for data: 1296039456
I0403 16:35:27.700791 21250 layer_factory.hpp:77] Creating layer inception_5a/3x3
I0403 16:35:27.700815 21250 net.cpp:91] Creating Layer inception_5a/3x3
I0403 16:35:27.700834 21250 net.cpp:425] inception_5a/3x3 <- inception_5a/3x3_reduce
I0403 16:35:27.700856 21250 net.cpp:399] inception_5a/3x3 -> inception_5a/3x3
I0403 16:35:27.706240 21250 net.cpp:141] Setting up inception_5a/3x3
I0403 16:35:27.706271 21250 net.cpp:148] Top shape: 24 320 7 7 (376320)
I0403 16:35:27.706289 21250 net.cpp:156] Memory required for data: 1297544736
I0403 16:35:27.706307 21250 layer_factory.hpp:77] Creating layer inception_5a/relu_3x3
I0403 16:35:27.706329 21250 net.cpp:91] Creating Layer inception_5a/relu_3x3
I0403 16:35:27.706347 21250 net.cpp:425] inception_5a/relu_3x3 <- inception_5a/3x3
I0403 16:35:27.706365 21250 net.cpp:386] inception_5a/relu_3x3 -> inception_5a/3x3 (in-place)
I0403 16:35:27.706681 21250 net.cpp:141] Setting up inception_5a/relu_3x3
I0403 16:35:27.706708 21250 net.cpp:148] Top shape: 24 320 7 7 (376320)
I0403 16:35:27.706724 21250 net.cpp:156] Memory required for data: 1299050016
I0403 16:35:27.706739 21250 layer_factory.hpp:77] Creating layer inception_5a/5x5_reduce
I0403 16:35:27.706761 21250 net.cpp:91] Creating Layer inception_5a/5x5_reduce
I0403 16:35:27.706784 21250 net.cpp:425] inception_5a/5x5_reduce <- pool4/3x3_s2_pool4/3x3_s2_0_split_2
I0403 16:35:27.706804 21250 net.cpp:399] inception_5a/5x5_reduce -> inception_5a/5x5_reduce
I0403 16:35:27.708014 21250 net.cpp:141] Setting up inception_5a/5x5_reduce
I0403 16:35:27.708055 21250 net.cpp:148] Top shape: 24 32 7 7 (37632)
I0403 16:35:27.708078 21250 net.cpp:156] Memory required for data: 1299200544
I0403 16:35:27.708097 21250 layer_factory.hpp:77] Creating layer inception_5a/relu_5x5_reduce
I0403 16:35:27.708115 21250 net.cpp:91] Creating Layer inception_5a/relu_5x5_reduce
I0403 16:35:27.708134 21250 net.cpp:425] inception_5a/relu_5x5_reduce <- inception_5a/5x5_reduce
I0403 16:35:27.708153 21250 net.cpp:386] inception_5a/relu_5x5_reduce -> inception_5a/5x5_reduce (in-place)
I0403 16:35:27.708477 21250 net.cpp:141] Setting up inception_5a/relu_5x5_reduce
I0403 16:35:27.708514 21250 net.cpp:148] Top shape: 24 32 7 7 (37632)
I0403 16:35:27.708533 21250 net.cpp:156] Memory required for data: 1299351072
I0403 16:35:27.708550 21250 layer_factory.hpp:77] Creating layer inception_5a/5x5
I0403 16:35:27.708577 21250 net.cpp:91] Creating Layer inception_5a/5x5
I0403 16:35:27.708595 21250 net.cpp:425] inception_5a/5x5 <- inception_5a/5x5_reduce
I0403 16:35:27.708616 21250 net.cpp:399] inception_5a/5x5 -> inception_5a/5x5
I0403 16:35:27.710439 21250 net.cpp:141] Setting up inception_5a/5x5
I0403 16:35:27.710480 21250 net.cpp:148] Top shape: 24 128 7 7 (150528)
I0403 16:35:27.710497 21250 net.cpp:156] Memory required for data: 1299953184
I0403 16:35:27.710515 21250 layer_factory.hpp:77] Creating layer inception_5a/relu_5x5
I0403 16:35:27.710537 21250 net.cpp:91] Creating Layer inception_5a/relu_5x5
I0403 16:35:27.710554 21250 net.cpp:425] inception_5a/relu_5x5 <- inception_5a/5x5
I0403 16:35:27.710572 21250 net.cpp:386] inception_5a/relu_5x5 -> inception_5a/5x5 (in-place)
I0403 16:35:27.710769 21250 net.cpp:141] Setting up inception_5a/relu_5x5
I0403 16:35:27.710798 21250 net.cpp:148] Top shape: 24 128 7 7 (150528)
I0403 16:35:27.710813 21250 net.cpp:156] Memory required for data: 1300555296
I0403 16:35:27.710829 21250 layer_factory.hpp:77] Creating layer inception_5a/pool
I0403 16:35:27.710846 21250 net.cpp:91] Creating Layer inception_5a/pool
I0403 16:35:27.710865 21250 net.cpp:425] inception_5a/pool <- pool4/3x3_s2_pool4/3x3_s2_0_split_3
I0403 16:35:27.710886 21250 net.cpp:399] inception_5a/pool -> inception_5a/pool
I0403 16:35:27.710959 21250 net.cpp:141] Setting up inception_5a/pool
I0403 16:35:27.710983 21250 net.cpp:148] Top shape: 24 832 7 7 (978432)
I0403 16:35:27.710999 21250 net.cpp:156] Memory required for data: 1304469024
I0403 16:35:27.711014 21250 layer_factory.hpp:77] Creating layer inception_5a/pool_proj
I0403 16:35:27.711041 21250 net.cpp:91] Creating Layer inception_5a/pool_proj
I0403 16:35:27.711061 21250 net.cpp:425] inception_5a/pool_proj <- inception_5a/pool
I0403 16:35:27.711081 21250 net.cpp:399] inception_5a/pool_proj -> inception_5a/pool_proj
I0403 16:35:27.713451 21250 net.cpp:141] Setting up inception_5a/pool_proj
I0403 16:35:27.713480 21250 net.cpp:148] Top shape: 24 128 7 7 (150528)
I0403 16:35:27.713496 21250 net.cpp:156] Memory required for data: 1305071136
I0403 16:35:27.713515 21250 layer_factory.hpp:77] Creating layer inception_5a/relu_pool_proj
I0403 16:35:27.713536 21250 net.cpp:91] Creating Layer inception_5a/relu_pool_proj
I0403 16:35:27.713553 21250 net.cpp:425] inception_5a/relu_pool_proj <- inception_5a/pool_proj
I0403 16:35:27.713570 21250 net.cpp:386] inception_5a/relu_pool_proj -> inception_5a/pool_proj (in-place)
I0403 16:35:27.713881 21250 net.cpp:141] Setting up inception_5a/relu_pool_proj
I0403 16:35:27.713908 21250 net.cpp:148] Top shape: 24 128 7 7 (150528)
I0403 16:35:27.713923 21250 net.cpp:156] Memory required for data: 1305673248
I0403 16:35:27.713938 21250 layer_factory.hpp:77] Creating layer inception_5a/output
I0403 16:35:27.713958 21250 net.cpp:91] Creating Layer inception_5a/output
I0403 16:35:27.713975 21250 net.cpp:425] inception_5a/output <- inception_5a/1x1
I0403 16:35:27.713994 21250 net.cpp:425] inception_5a/output <- inception_5a/3x3
I0403 16:35:27.714010 21250 net.cpp:425] inception_5a/output <- inception_5a/5x5
I0403 16:35:27.714031 21250 net.cpp:425] inception_5a/output <- inception_5a/pool_proj
I0403 16:35:27.714051 21250 net.cpp:399] inception_5a/output -> inception_5a/output
I0403 16:35:27.714102 21250 net.cpp:141] Setting up inception_5a/output
I0403 16:35:27.714128 21250 net.cpp:148] Top shape: 24 832 7 7 (978432)
I0403 16:35:27.714143 21250 net.cpp:156] Memory required for data: 1309586976
I0403 16:35:27.714157 21250 layer_factory.hpp:77] Creating layer inception_5a/output_inception_5a/output_0_split
I0403 16:35:27.714174 21250 net.cpp:91] Creating Layer inception_5a/output_inception_5a/output_0_split
I0403 16:35:27.714190 21250 net.cpp:425] inception_5a/output_inception_5a/output_0_split <- inception_5a/output
I0403 16:35:27.714210 21250 net.cpp:399] inception_5a/output_inception_5a/output_0_split -> inception_5a/output_inception_5a/output_0_split_0
I0403 16:35:27.714231 21250 net.cpp:399] inception_5a/output_inception_5a/output_0_split -> inception_5a/output_inception_5a/output_0_split_1
I0403 16:35:27.714251 21250 net.cpp:399] inception_5a/output_inception_5a/output_0_split -> inception_5a/output_inception_5a/output_0_split_2
I0403 16:35:27.714272 21250 net.cpp:399] inception_5a/output_inception_5a/output_0_split -> inception_5a/output_inception_5a/output_0_split_3
I0403 16:35:27.714387 21250 net.cpp:141] Setting up inception_5a/output_inception_5a/output_0_split
I0403 16:35:27.714414 21250 net.cpp:148] Top shape: 24 832 7 7 (978432)
I0403 16:35:27.714432 21250 net.cpp:148] Top shape: 24 832 7 7 (978432)
I0403 16:35:27.714447 21250 net.cpp:148] Top shape: 24 832 7 7 (978432)
I0403 16:35:27.714463 21250 net.cpp:148] Top shape: 24 832 7 7 (978432)
I0403 16:35:27.714476 21250 net.cpp:156] Memory required for data: 1325241888
I0403 16:35:27.714491 21250 layer_factory.hpp:77] Creating layer inception_5b/1x1
I0403 16:35:27.714514 21250 net.cpp:91] Creating Layer inception_5b/1x1
I0403 16:35:27.714532 21250 net.cpp:425] inception_5b/1x1 <- inception_5a/output_inception_5a/output_0_split_0
I0403 16:35:27.714550 21250 net.cpp:399] inception_5b/1x1 -> inception_5b/1x1
I0403 16:35:27.718484 21250 net.cpp:141] Setting up inception_5b/1x1
I0403 16:35:27.718514 21250 net.cpp:148] Top shape: 24 384 7 7 (451584)
I0403 16:35:27.718530 21250 net.cpp:156] Memory required for data: 1327048224
I0403 16:35:27.718549 21250 layer_factory.hpp:77] Creating layer inception_5b/relu_1x1
I0403 16:35:27.718566 21250 net.cpp:91] Creating Layer inception_5b/relu_1x1
I0403 16:35:27.718581 21250 net.cpp:425] inception_5b/relu_1x1 <- inception_5b/1x1
I0403 16:35:27.718601 21250 net.cpp:386] inception_5b/relu_1x1 -> inception_5b/1x1 (in-place)
I0403 16:35:27.718914 21250 net.cpp:141] Setting up inception_5b/relu_1x1
I0403 16:35:27.718940 21250 net.cpp:148] Top shape: 24 384 7 7 (451584)
I0403 16:35:27.718955 21250 net.cpp:156] Memory required for data: 1328854560
I0403 16:35:27.718969 21250 layer_factory.hpp:77] Creating layer inception_5b/3x3_reduce
I0403 16:35:27.718991 21250 net.cpp:91] Creating Layer inception_5b/3x3_reduce
I0403 16:35:27.719009 21250 net.cpp:425] inception_5b/3x3_reduce <- inception_5a/output_inception_5a/output_0_split_1
I0403 16:35:27.719036 21250 net.cpp:399] inception_5b/3x3_reduce -> inception_5b/3x3_reduce
I0403 16:35:27.721710 21250 net.cpp:141] Setting up inception_5b/3x3_reduce
I0403 16:35:27.721740 21250 net.cpp:148] Top shape: 24 192 7 7 (225792)
I0403 16:35:27.721755 21250 net.cpp:156] Memory required for data: 1329757728
I0403 16:35:27.721773 21250 layer_factory.hpp:77] Creating layer inception_5b/relu_3x3_reduce
I0403 16:35:27.721794 21250 net.cpp:91] Creating Layer inception_5b/relu_3x3_reduce
I0403 16:35:27.721812 21250 net.cpp:425] inception_5b/relu_3x3_reduce <- inception_5b/3x3_reduce
I0403 16:35:27.721828 21250 net.cpp:386] inception_5b/relu_3x3_reduce -> inception_5b/3x3_reduce (in-place)
I0403 16:35:27.722023 21250 net.cpp:141] Setting up inception_5b/relu_3x3_reduce
I0403 16:35:27.722048 21250 net.cpp:148] Top shape: 24 192 7 7 (225792)
I0403 16:35:27.722062 21250 net.cpp:156] Memory required for data: 1330660896
I0403 16:35:27.722077 21250 layer_factory.hpp:77] Creating layer inception_5b/3x3
I0403 16:35:27.722101 21250 net.cpp:91] Creating Layer inception_5b/3x3
I0403 16:35:27.722120 21250 net.cpp:425] inception_5b/3x3 <- inception_5b/3x3_reduce
I0403 16:35:27.722137 21250 net.cpp:399] inception_5b/3x3 -> inception_5b/3x3
I0403 16:35:27.728901 21250 net.cpp:141] Setting up inception_5b/3x3
I0403 16:35:27.728929 21250 net.cpp:148] Top shape: 24 384 7 7 (451584)
I0403 16:35:27.728945 21250 net.cpp:156] Memory required for data: 1332467232
I0403 16:35:27.728963 21250 layer_factory.hpp:77] Creating layer inception_5b/relu_3x3
I0403 16:35:27.728983 21250 net.cpp:91] Creating Layer inception_5b/relu_3x3
I0403 16:35:27.729001 21250 net.cpp:425] inception_5b/relu_3x3 <- inception_5b/3x3
I0403 16:35:27.729022 21250 net.cpp:386] inception_5b/relu_3x3 -> inception_5b/3x3 (in-place)
I0403 16:35:27.729327 21250 net.cpp:141] Setting up inception_5b/relu_3x3
I0403 16:35:27.729354 21250 net.cpp:148] Top shape: 24 384 7 7 (451584)
I0403 16:35:27.729369 21250 net.cpp:156] Memory required for data: 1334273568
I0403 16:35:27.729384 21250 layer_factory.hpp:77] Creating layer inception_5b/5x5_reduce
I0403 16:35:27.729423 21250 net.cpp:91] Creating Layer inception_5b/5x5_reduce
I0403 16:35:27.729440 21250 net.cpp:425] inception_5b/5x5_reduce <- inception_5a/output_inception_5a/output_0_split_2
I0403 16:35:27.729462 21250 net.cpp:399] inception_5b/5x5_reduce -> inception_5b/5x5_reduce
I0403 16:35:27.730753 21250 net.cpp:141] Setting up inception_5b/5x5_reduce
I0403 16:35:27.730780 21250 net.cpp:148] Top shape: 24 48 7 7 (56448)
I0403 16:35:27.730797 21250 net.cpp:156] Memory required for data: 1334499360
I0403 16:35:27.730814 21250 layer_factory.hpp:77] Creating layer inception_5b/relu_5x5_reduce
I0403 16:35:27.730834 21250 net.cpp:91] Creating Layer inception_5b/relu_5x5_reduce
I0403 16:35:27.730850 21250 net.cpp:425] inception_5b/relu_5x5_reduce <- inception_5b/5x5_reduce
I0403 16:35:27.730868 21250 net.cpp:386] inception_5b/relu_5x5_reduce -> inception_5b/5x5_reduce (in-place)
I0403 16:35:27.731247 21250 net.cpp:141] Setting up inception_5b/relu_5x5_reduce
I0403 16:35:27.731273 21250 net.cpp:148] Top shape: 24 48 7 7 (56448)
I0403 16:35:27.731288 21250 net.cpp:156] Memory required for data: 1334725152
I0403 16:35:27.731303 21250 layer_factory.hpp:77] Creating layer inception_5b/5x5
I0403 16:35:27.731323 21250 net.cpp:91] Creating Layer inception_5b/5x5
I0403 16:35:27.731340 21250 net.cpp:425] inception_5b/5x5 <- inception_5b/5x5_reduce
I0403 16:35:27.731359 21250 net.cpp:399] inception_5b/5x5 -> inception_5b/5x5
I0403 16:35:27.733433 21250 net.cpp:141] Setting up inception_5b/5x5
I0403 16:35:27.733461 21250 net.cpp:148] Top shape: 24 128 7 7 (150528)
I0403 16:35:27.733476 21250 net.cpp:156] Memory required for data: 1335327264
I0403 16:35:27.733494 21250 layer_factory.hpp:77] Creating layer inception_5b/relu_5x5
I0403 16:35:27.733515 21250 net.cpp:91] Creating Layer inception_5b/relu_5x5
I0403 16:35:27.733531 21250 net.cpp:425] inception_5b/relu_5x5 <- inception_5b/5x5
I0403 16:35:27.733547 21250 net.cpp:386] inception_5b/relu_5x5 -> inception_5b/5x5 (in-place)
I0403 16:35:27.733744 21250 net.cpp:141] Setting up inception_5b/relu_5x5
I0403 16:35:27.733770 21250 net.cpp:148] Top shape: 24 128 7 7 (150528)
I0403 16:35:27.733786 21250 net.cpp:156] Memory required for data: 1335929376
I0403 16:35:27.733801 21250 layer_factory.hpp:77] Creating layer inception_5b/pool
I0403 16:35:27.733819 21250 net.cpp:91] Creating Layer inception_5b/pool
I0403 16:35:27.733834 21250 net.cpp:425] inception_5b/pool <- inception_5a/output_inception_5a/output_0_split_3
I0403 16:35:27.733855 21250 net.cpp:399] inception_5b/pool -> inception_5b/pool
I0403 16:35:27.733927 21250 net.cpp:141] Setting up inception_5b/pool
I0403 16:35:27.733953 21250 net.cpp:148] Top shape: 24 832 7 7 (978432)
I0403 16:35:27.733968 21250 net.cpp:156] Memory required for data: 1339843104
I0403 16:35:27.733983 21250 layer_factory.hpp:77] Creating layer inception_5b/pool_proj
I0403 16:35:27.734004 21250 net.cpp:91] Creating Layer inception_5b/pool_proj
I0403 16:35:27.734025 21250 net.cpp:425] inception_5b/pool_proj <- inception_5b/pool
I0403 16:35:27.734046 21250 net.cpp:399] inception_5b/pool_proj -> inception_5b/pool_proj
I0403 16:35:27.736394 21250 net.cpp:141] Setting up inception_5b/pool_proj
I0403 16:35:27.736424 21250 net.cpp:148] Top shape: 24 128 7 7 (150528)
I0403 16:35:27.736440 21250 net.cpp:156] Memory required for data: 1340445216
I0403 16:35:27.736459 21250 layer_factory.hpp:77] Creating layer inception_5b/relu_pool_proj
I0403 16:35:27.736481 21250 net.cpp:91] Creating Layer inception_5b/relu_pool_proj
I0403 16:35:27.736500 21250 net.cpp:425] inception_5b/relu_pool_proj <- inception_5b/pool_proj
I0403 16:35:27.736516 21250 net.cpp:386] inception_5b/relu_pool_proj -> inception_5b/pool_proj (in-place)
I0403 16:35:27.736835 21250 net.cpp:141] Setting up inception_5b/relu_pool_proj
I0403 16:35:27.736860 21250 net.cpp:148] Top shape: 24 128 7 7 (150528)
I0403 16:35:27.736876 21250 net.cpp:156] Memory required for data: 1341047328
I0403 16:35:27.736889 21250 layer_factory.hpp:77] Creating layer inception_5b/output
I0403 16:35:27.736907 21250 net.cpp:91] Creating Layer inception_5b/output
I0403 16:35:27.736937 21250 net.cpp:425] inception_5b/output <- inception_5b/1x1
I0403 16:35:27.736956 21250 net.cpp:425] inception_5b/output <- inception_5b/3x3
I0403 16:35:27.736974 21250 net.cpp:425] inception_5b/output <- inception_5b/5x5
I0403 16:35:27.736991 21250 net.cpp:425] inception_5b/output <- inception_5b/pool_proj
I0403 16:35:27.737007 21250 net.cpp:399] inception_5b/output -> inception_5b/output
I0403 16:35:27.737090 21250 net.cpp:141] Setting up inception_5b/output
I0403 16:35:27.737114 21250 net.cpp:148] Top shape: 24 1024 7 7 (1204224)
I0403 16:35:27.737129 21250 net.cpp:156] Memory required for data: 1345864224
I0403 16:35:27.737143 21250 layer_factory.hpp:77] Creating layer pool5/7x7_s1
I0403 16:35:27.737161 21250 net.cpp:91] Creating Layer pool5/7x7_s1
I0403 16:35:27.737177 21250 net.cpp:425] pool5/7x7_s1 <- inception_5b/output
I0403 16:35:27.737197 21250 net.cpp:399] pool5/7x7_s1 -> pool5/7x7_s1
I0403 16:35:27.737426 21250 net.cpp:141] Setting up pool5/7x7_s1
I0403 16:35:27.737453 21250 net.cpp:148] Top shape: 24 1024 1 1 (24576)
I0403 16:35:27.737468 21250 net.cpp:156] Memory required for data: 1345962528
I0403 16:35:27.737483 21250 layer_factory.hpp:77] Creating layer pool5/drop_7x7_s1
I0403 16:35:27.737503 21250 net.cpp:91] Creating Layer pool5/drop_7x7_s1
I0403 16:35:27.737519 21250 net.cpp:425] pool5/drop_7x7_s1 <- pool5/7x7_s1
I0403 16:35:27.737536 21250 net.cpp:386] pool5/drop_7x7_s1 -> pool5/7x7_s1 (in-place)
I0403 16:35:27.737589 21250 net.cpp:141] Setting up pool5/drop_7x7_s1
I0403 16:35:27.737614 21250 net.cpp:148] Top shape: 24 1024 1 1 (24576)
I0403 16:35:27.737628 21250 net.cpp:156] Memory required for data: 1346060832
I0403 16:35:27.737643 21250 layer_factory.hpp:77] Creating layer loss3/classifier_plantvillage
I0403 16:35:27.737661 21250 net.cpp:91] Creating Layer loss3/classifier_plantvillage
I0403 16:35:27.737679 21250 net.cpp:425] loss3/classifier_plantvillage <- pool5/7x7_s1
I0403 16:35:27.737699 21250 net.cpp:399] loss3/classifier_plantvillage -> loss3/classifier_plantvillage
I0403 16:35:27.738157 21250 net.cpp:141] Setting up loss3/classifier_plantvillage
I0403 16:35:27.738183 21250 net.cpp:148] Top shape: 24 38 (912)
I0403 16:35:27.738196 21250 net.cpp:156] Memory required for data: 1346064480
I0403 16:35:27.738215 21250 layer_factory.hpp:77] Creating layer loss3/classifier_plantvillage_loss3/classifier_plantvillage_0_split
I0403 16:35:27.738234 21250 net.cpp:91] Creating Layer loss3/classifier_plantvillage_loss3/classifier_plantvillage_0_split
I0403 16:35:27.738250 21250 net.cpp:425] loss3/classifier_plantvillage_loss3/classifier_plantvillage_0_split <- loss3/classifier_plantvillage
I0403 16:35:27.738270 21250 net.cpp:399] loss3/classifier_plantvillage_loss3/classifier_plantvillage_0_split -> loss3/classifier_plantvillage_loss3/classifier_plantvillage_0_split_0
I0403 16:35:27.738291 21250 net.cpp:399] loss3/classifier_plantvillage_loss3/classifier_plantvillage_0_split -> loss3/classifier_plantvillage_loss3/classifier_plantvillage_0_split_1
I0403 16:35:27.738312 21250 net.cpp:399] loss3/classifier_plantvillage_loss3/classifier_plantvillage_0_split -> loss3/classifier_plantvillage_loss3/classifier_plantvillage_0_split_2
I0403 16:35:27.738332 21250 net.cpp:399] loss3/classifier_plantvillage_loss3/classifier_plantvillage_0_split -> loss3/classifier_plantvillage_loss3/classifier_plantvillage_0_split_3
I0403 16:35:27.738435 21250 net.cpp:141] Setting up loss3/classifier_plantvillage_loss3/classifier_plantvillage_0_split
I0403 16:35:27.738459 21250 net.cpp:148] Top shape: 24 38 (912)
I0403 16:35:27.738476 21250 net.cpp:148] Top shape: 24 38 (912)
I0403 16:35:27.738490 21250 net.cpp:148] Top shape: 24 38 (912)
I0403 16:35:27.738505 21250 net.cpp:148] Top shape: 24 38 (912)
I0403 16:35:27.738518 21250 net.cpp:156] Memory required for data: 1346079072
I0403 16:35:27.738533 21250 layer_factory.hpp:77] Creating layer loss1/loss
I0403 16:35:27.738554 21250 net.cpp:91] Creating Layer loss1/loss
I0403 16:35:27.738572 21250 net.cpp:425] loss1/loss <- loss1/classifier_plantvillage_loss1/classifier_plantvillage_0_split_0
I0403 16:35:27.738603 21250 net.cpp:425] loss1/loss <- label_data_1_split_0
…
