…
I0403 15:37:33.176429 20093 net.cpp:313] The NetState phase (1) differed from the phase (0) specified by a rule in layer data
I0403 15:37:33.177600 20093 net.cpp:49] Initializing net from parameters: 
state {
  phase: TEST
}
layer {
  name: "data"
  type: "Data"
  top: "data"
  top: "label"
  include {
    phase: TEST
  }
  transform_param {
    mirror: false
    crop_size: 224
    mean_file: "/home/mohanty/data/final_dataset/lmdb/grayscale-20-80/mean.binaryproto"
  }
  data_param {
    source: "/home/mohanty/data/final_dataset/lmdb/grayscale-20-80/test_db"
    batch_size: 24
    backend: LMDB
  }
}
layer {
  name: "conv1/7x7_s2"
  type: "Convolution"
  bottom: "data"
  top: "conv1/7x7_s2"
  param {
    lr_mult: 1
    decay_mult: 1
  }
  param {
    lr_mult: 2
    decay_mult: 0
  }
  convolution_param {
    num_output: 64
    pad: 3
    kernel_size: 7
    stride: 2
    weight_filler {
      type: "xavier"
      std: 0.1
    }
    bias_filler {
      type: "constant"
      value: 0.2
    }
  }
}
layer {
  name: "conv1/relu_7x7"
  type: "ReLU"
  bottom: "conv1/7x7_s2"
  top: "conv1/7x7_s2"
}
layer {
  name: "pool1/3x3_s2"
  type: "Pooling"
  bottom: "conv1/7x7_s2"
  top: "pool1/3x3_s2"
  pooling_param {
    pool: MAX
    kernel_size: 3
    stride: 2
  }
}
layer {
  name: "pool1/norm1"
  type: "LRN"
  bottom: "pool1/3x3_s2"
  top: "pool1/norm1"
  lrn_param {
    local_size: 5
    alpha: 0.0001
    beta: 0.75
  }
}
layer {
  name: "conv2/3x3_reduce"
  type: "Convolution"
  bottom: "pool1/norm1"
  top: "conv2/3x3_reduce"
  param {
    lr_mult: 1
    decay_mult: 1
  }
  param {
    lr_mult: 2
    decay_mult: 0
  }
  convolution_param {
    num_output: 64
    kernel_size: 1
    weight_filler {
      type: "xavier"
      std: 0.1
    }
    bias_filler {
      type: "constant"
      value: 0.2
    }
  }
}
layer {
  name: "conv2/relu_3x3_reduce"
  type: "ReLU"
  bottom: "conv2/3x3_reduce"
  top: "conv2/3x3_reduce"
}
layer {
  name: "conv2/3x3"
  type: "Convolution"
  bottom: "conv2/3x3_reduce"
  top: "conv2/3x3"
  param {
    lr_mult: 1
    decay_mult: 1
  }
  param {
    lr_mult: 2
    decay_mult: 0
  }
  convolution_param {
    num_output: 192
    pad: 1
    kernel_size: 3
    weight_filler {
      type: "xavier"
      std: 0.03
    }
    bias_filler {
      type: "constant"
      value: 0.2
    }
  }
}
layer {
  name: "conv2/relu_3x3"
  type: "ReLU"
  bottom: "conv2/3x3"
  top: "conv2/3x3"
}
layer {
  name: "conv2/norm2"
  type: "LRN"
  bottom: "conv2/3x3"
  top: "conv2/norm2"
  lrn_param {
    local_size: 5
    alpha: 0.0001
    beta: 0.75
  }
}
layer {
  name: "pool2/3x3_s2"
  type: "Pooling"
  bottom: "conv2/norm2"
  top: "pool2/3x3_s2"
  pooling_param {
    pool: MAX
    kernel_size: 3
    stride: 2
  }
}
layer {
  name: "inception_3a/1x1"
  type: "Convolution"
  bottom: "pool2/3x3_s2"
  top: "inception_3a/1x1"
  param {
    lr_mult: 1
    decay_mult: 1
  }
  param {
    lr_mult: 2
    decay_mult: 0
  }
  convolution_param {
    num_output: 64
    kernel_size: 1
    weight_filler {
      type: "xavier"
      std: 0.03
    }
    bias_filler {
      type: "constant"
      value: 0.2
    }
  }
}
layer {
  name: "inception_3a/relu_1x1"
  type: "ReLU"
  bottom: "inception_3a/1x1"
  top: "inception_3a/1x1"
}
layer {
  name: "inception_3a/3x3_reduce"
  type: "Convolution"
  bottom: "pool2/3x3_s2"
  top: "inception_3a/3x3_reduce"
  param {
    lr_mult: 1
    decay_mult: 1
  }
  param {
    lr_mult: 2
    decay_mult: 0
  }
  convolution_param {
    num_output: 96
    kernel_size: 1
    weight_filler {
      type: "xavier"
      std: 0.09
    }
    bias_filler {
      type: "constant"
      value: 0.2
    }
  }
}
layer {
  name: "inception_3a/relu_3x3_reduce"
  type: "ReLU"
  bottom: "inception_3a/3x3_reduce"
  top: "inception_3a/3x3_reduce"
}
layer {
  name: "inception_3a/3x3"
  type: "Convolution"
  bottom: "inception_3a/3x3_reduce"
  top: "inception_3a/3x3"
  param {
    lr_mult: 1
    decay_mult: 1
  }
  param {
    lr_mult: 2
    decay_mult: 0
  }
  convolution_param {
    num_output: 128
    pad: 1
    kernel_size: 3
    weight_filler {
      type: "xavier"
      std: 0.03
    }
    bias_filler {
      type: "constant"
      value: 0.2
    }
  }
}
layer {
  name: "inception_3a/relu_3x3"
  type: "ReLU"
  bottom: "inception_3a/3x3"
  top: "inception_3a/3x3"
}
layer {
  name: "inception_3a/5x5_reduce"
  type: "Convolution"
  bottom: "pool2/3x3_s2"
  top: "inception_3a/5x5_reduce"
  param {
    lr_mult: 1
    decay_mult: 1
  }
  param {
    lr_mult: 2
    decay_mult: 0
  }
  convolution_param {
    num_output: 16
    kernel_size: 1
    weight_filler {
      type: "xavier"
      std: 0.2
    }
    bias_filler {
      type: "constant"
      value: 0.2
    }
  }
}
layer {
  name: "inception_3a/relu_5x5_reduce"
  type: "ReLU"
  bottom: "inception_3a/5x5_reduce"
  top: "inception_3a/5x5_reduce"
}
layer {
  name: "inception_3a/5x5"
  type: "Convolution"
  bottom: "inception_3a/5x5_reduce"
  top: "inception_3a/5x5"
  param {
    lr_mult: 1
    decay_mult: 1
  }
  param {
    lr_mult: 2
    decay_mult: 0
  }
  convolution_param {
    num_output: 32
    pad: 2
    kernel_size: 5
    weight_filler {
      type: "xavier"
      std: 0.03
    }
    bias_filler {
      type: "constant"
      value: 0.2
    }
  }
}
layer {
  name: "inception_3a/relu_5x5"
  type: "ReLU"
  bottom: "inception_3a/5x5"
  top: "inception_3a/5x5"
}
layer {
  name: "inception_3a/pool"
  type: "Pooling"
  bottom: "pool2/3x3_s2"
  top: "inception_3a/pool"
  pooling_param {
    pool: MAX
    kernel_size: 3
    stride: 1
    pad: 1
  }
}
layer {
  name: "inception_3a/pool_proj"
  type: "Convolution"
  bottom: "inception_3a/pool"
  top: "inception_3a/pool_proj"
  param {
    lr_mult: 1
    decay_mult: 1
  }
  param {
    lr_mult: 2
    decay_mult: 0
  }
  convolution_param {
    num_output: 32
    kernel_size: 1
    weight_filler {
      type: "xavier"
      std: 0.1
    }
    bias_filler {
      type: "constant"
      value: 0.2
    }
  }
}
layer {
  name: "inception_3a/relu_pool_proj"
  type: "ReLU"
  bottom: "inception_3a/pool_proj"
  top: "inception_3a/pool_proj"
}
layer {
  name: "inception_3a/output"
  type: "Concat"
  bottom: "inception_3a/1x1"
  bottom: "inception_3a/3x3"
  bottom: "inception_3a/5x5"
  bottom: "inception_3a/pool_proj"
  top: "inception_3a/output"
}
layer {
  name: "inception_3b/1x1"
  type: "Convolution"
  bottom: "inception_3a/output"
  top: "inception_3b/1x1"
  param {
    lr_mult: 1
    decay_mult: 1
  }
  param {
    lr_mult: 2
    decay_mult: 0
  }
  convolution_param {
    num_output: 128
    kernel_size: 1
    weight_filler {
      type: "xavier"
      std: 0.03
    }
    bias_filler {
      type: "constant"
      value: 0.2
    }
  }
}
layer {
  name: "inception_3b/relu_1x1"
  type: "ReLU"
  bottom: "inception_3b/1x1"
  top: "inception_3b/1x1"
}
layer {
  name: "inception_3b/3x3_reduce"
  type: "Convolution"
  bottom: "inception_3a/output"
  top: "inception_3b/3x3_reduce"
  param {
    lr_mult: 1
    decay_mult: 1
  }
  param {
    lr_mult: 2
    decay_mult: 0
  }
  convolution_param {
    num_output: 128
    kernel_size: 1
    weight_filler {
      type: "xavier"
      std: 0.09
    }
    bias_filler {
      type: "constant"
      value: 0.2
    }
  }
}
layer {
  name: "inception_3b/relu_3x3_reduce"
  type: "ReLU"
  bottom: "inception_3b/3x3_reduce"
  top: "inception_3b/3x3_reduce"
}
layer {
  name: "inception_3b/3x3"
  type: "Convolution"
  bottom: "inception_3b/3x3_reduce"
  top: "inception_3b/3x3"
  param {
    lr_mult: 1
    decay_mult: 1
  }
  param {
    lr_mult: 2
    decay_mult: 0
  }
  convolution_param {
    num_output: 192
    pad: 1
    kernel_size: 3
    weight_filler {
      type: "xavier"
      std: 0.03
    }
    bias_filler {
      type: "constant"
      value: 0.2
    }
  }
}
layer {
  name: "inception_3b/relu_3x3"
  type: "ReLU"
  bottom: "inception_3b/3x3"
  top: "inception_3b/3x3"
}
layer {
  name: "inception_3b/5x5_reduce"
  type: "Convolution"
  bottom: "inception_3a/output"
  top: "inception_3b/5x5_reduce"
  param {
    lr_mult: 1
    decay_mult: 1
  }
  param {
    lr_mult: 2
    decay_mult: 0
  }
  convolution_param {
    num_output: 32
    kernel_size: 1
    weight_filler {
      type: "xavier"
      std: 0.2
    }
    bias_filler {
      type: "constant"
      value: 0.2
    }
  }
}
layer {
  name: "inception_3b/relu_5x5_reduce"
  type: "ReLU"
  bottom: "inception_3b/5x5_reduce"
  top: "inception_3b/5x5_reduce"
}
layer {
  name: "inception_3b/5x5"
  type: "Convolution"
  bottom: "inception_3b/5x5_reduce"
  top: "inception_3b/5x5"
  param {
    lr_mult: 1
    decay_mult: 1
  }
  param {
    lr_mult: 2
    decay_mult: 0
  }
  convolution_param {
    num_output: 96
    pad: 2
    kernel_size: 5
    weight_filler {
      type: "xavier"
      std: 0.03
    }
    bias_filler {
      type: "constant"
      value: 0.2
    }
  }
}
layer {
  name: "inception_3b/relu_5x5"
  type: "ReLU"
  bottom: "inception_3b/5x5"
  top: "inception_3b/5x5"
}
layer {
  name: "inception_3b/pool"
  type: "Pooling"
  bottom: "inception_3a/output"
  top: "inception_3b/pool"
  pooling_param {
    pool: MAX
    kernel_size: 3
    stride: 1
    pad: 1
  }
}
layer {
  name: "inception_3b/pool_proj"
  type: "Convolution"
  bottom: "inception_3b/pool"
  top: "inception_3b/pool_proj"
  param {
    lr_mult: 1
    decay_mult: 1
  }
  param {
    lr_mult: 2
    decay_mult: 0
  }
  convolution_param {
    num_output: 64
    kernel_size: 1
    weight_filler {
      type: "xavier"
      std: 0.1
    }
    bias_filler {
      type: "constant"
      value: 0.2
    }
  }
}
layer {
  name: "inception_3b/relu_pool_proj"
  type: "ReLU"
  bottom: "inception_3b/pool_proj"
  top: "inception_3b/pool_proj"
}
layer {
  name: "inception_3b/output"
  type: "Concat"
  bottom: "inception_3b/1x1"
  bottom: "inception_3b/3x3"
  bottom: "inception_3b/5x5"
  bottom: "inception_3b/pool_proj"
  top: "inception_3b/output"
}
layer {
  name: "pool3/3x3_s2"
  type: "Pooling"
  bottom: "inception_3b/output"
  top: "pool3/3x3_s2"
  pooling_param {
    pool: MAX
    kernel_size: 3
    stride: 2
  }
}
layer {
  name: "inception_4a/1x1"
  type: "Convolution"
  bottom: "pool3/3x3_s2"
  top: "inception_4a/1x1"
  param {
    lr_mult: 1
    decay_mult: 1
  }
  param {
    lr_mult: 2
    decay_mult: 0
  }
  convolution_param {
    num_output: 192
    kernel_size: 1
    weight_filler {
      type: "xavier"
      std: 0.03
    }
    bias_filler {
      type: "constant"
      value: 0.2
    }
  }
}
layer {
  name: "inception_4a/relu_1x1"
  type: "ReLU"
  bottom: "inception_4a/1x1"
  top: "inception_4a/1x1"
}
layer {
  name: "inception_4a/3x3_reduce"
  type: "Convolution"
  bottom: "pool3/3x3_s2"
  top: "inception_4a/3x3_reduce"
  param {
    lr_mult: 1
    decay_mult: 1
  }
  param {
    lr_mult: 2
    decay_mult: 0
  }
  convolution_param {
    num_output: 96
    kernel_size: 1
    weight_filler {
      type: "xavier"
      std: 0.09
    }
    bias_filler {
      type: "constant"
      value: 0.2
    }
  }
}
layer {
  name: "inception_4a/relu_3x3_reduce"
  type: "ReLU"
  bottom: "inception_4a/3x3_reduce"
  top: "inception_4a/3x3_reduce"
}
layer {
  name: "inception_4a/3x3"
  type: "Convolution"
  bottom: "inception_4a/3x3_reduce"
  top: "inception_4a/3x3"
  param {
    lr_mult: 1
    decay_mult: 1
  }
  param {
    lr_mult: 2
    decay_mult: 0
  }
  convolution_param {
    num_output: 208
    pad: 1
    kernel_size: 3
    weight_filler {
      type: "xavier"
      std: 0.03
    }
    bias_filler {
      type: "constant"
      value: 0.2
    }
  }
}
layer {
  name: "inception_4a/relu_3x3"
  type: "ReLU"
  bottom: "inception_4a/3x3"
  top: "inception_4a/3x3"
}
layer {
  name: "inception_4a/5x5_reduce"
  type: "Convolution"
  bottom: "pool3/3x3_s2"
  top: "inception_4a/5x5_reduce"
  param {
    lr_mult: 1
    decay_mult: 1
  }
  param {
    lr_mult: 2
    decay_mult: 0
  }
  convolution_param {
    num_output: 16
    kernel_size: 1
    weight_filler {
      type: "xavier"
      std: 0.2
    }
    bias_filler {
      type: "constant"
      value: 0.2
    }
  }
}
layer {
  name: "inception_4a/relu_5x5_reduce"
  type: "ReLU"
  bottom: "inception_4a/5x5_reduce"
  top: "inception_4a/5x5_reduce"
}
layer {
  name: "inception_4a/5x5"
  type: "Convolution"
  bottom: "inception_4a/5x5_reduce"
  top: "inception_4a/5x5"
  param {
    lr_mult: 1
    decay_mult: 1
  }
  param {
    lr_mult: 2
    decay_mult: 0
  }
  convolution_param {
    num_output: 48
    pad: 2
    kernel_size: 5
    weight_filler {
      type: "xavier"
      std: 0.03
    }
    bias_filler {
      type: "constant"
      value: 0.2
    }
  }
}
layer {
  name: "inception_4a/relu_5x5"
  type: "ReLU"
  bottom: "inception_4a/5x5"
  top: "inception_4a/5x5"
}
layer {
  name: "inception_4a/pool"
  type: "Pooling"
  bottom: "pool3/3x3_s2"
  top: "inception_4a/pool"
  pooling_param {
    pool: MAX
    kernel_size: 3
    stride: 1
    pad: 1
  }
}
layer {
  name: "inception_4a/pool_proj"
  type: "Convolution"
  bottom: "inception_4a/pool"
  top: "inception_4a/pool_proj"
  param {
    lr_mult: 1
    decay_mult: 1
  }
  param {
    lr_mult: 2
    decay_mult: 0
  }
  convolution_param {
    num_output: 64
    kernel_size: 1
    weight_filler {
      type: "xavier"
      std: 0.1
    }
    bias_filler {
      type: "constant"
      value: 0.2
    }
  }
}
layer {
  name: "inception_4a/relu_pool_proj"
  type: "ReLU"
  bottom: "inception_4a/pool_proj"
  top: "inception_4a/pool_proj"
}
layer {
  name: "inception_4a/output"
  type: "Concat"
  bottom: "inception_4a/1x1"
  bottom: "inception_4a/3x3"
  bottom: "inception_4a/5x5"
  bottom: "inception_4a/pool_proj"
  top: "inception_4a/output"
}
layer {
  name: "loss1/ave_pool"
  type: "Pooling"
  bottom: "inception_4a/output"
  top: "loss1/ave_pool"
  pooling_param {
    pool: AVE
    kernel_size: 5
    stride: 3
  }
}
layer {
  name: "loss1/conv"
  type: "Convolution"
  bottom: "loss1/ave_pool"
  top: "loss1/conv"
  param {
    lr_mult: 1
    decay_mult: 1
  }
  param {
    lr_mult: 2
    decay_mult: 0
  }
  convolution_param {
    num_output: 128
    kernel_size: 1
    weight_filler {
      type: "xavier"
      std: 0.08
    }
    bias_filler {
      type: "constant"
      value: 0.2
    }
  }
}
layer {
  name: "loss1/relu_conv"
  type: "ReLU"
  bottom: "loss1/conv"
  top: "loss1/conv"
}
layer {
  name: "loss1/fc"
  type: "InnerProduct"
  bottom: "loss1/conv"
  top: "loss1/fc"
  param {
    lr_mult: 1
    decay_mult: 1
  }
  param {
    lr_mult: 2
    decay_mult: 0
  }
  inner_product_param {
    num_output: 1024
    weight_filler {
      type: "xavier"
      std: 0.02
    }
    bias_filler {
      type: "constant"
      value: 0.2
    }
  }
}
layer {
  name: "loss1/relu_fc"
  type: "ReLU"
  bottom: "loss1/fc"
  top: "loss1/fc"
}
layer {
  name: "loss1/drop_fc"
  type: "Dropout"
  bottom: "loss1/fc"
  top: "loss1/fc"
  dropout_param {
    dropout_ratio: 0.7
  }
}
layer {
  name: "loss1/classifier_plantvillage"
  type: "InnerProduct"
  bottom: "loss1/fc"
  top: "loss1/classifier_plantvillage"
  param {
    lr_mult: 1
    decay_mult: 1
  }
  param {
    lr_mult: 2
    decay_mult: 0
  }
  inner_product_param {
    num_output: 38
    weight_filler {
      type: "xavier"
      std: 0.0009765625
    }
    bias_filler {
      type: "constant"
      value: 0
    }
  }
}
layer {
  name: "inception_4b/1x1"
  type: "Convolution"
  bottom: "inception_4a/output"
  top: "inception_4b/1x1"
  param {
    lr_mult: 1
    decay_mult: 1
  }
  param {
    lr_mult: 2
    decay_mult: 0
  }
  convolution_param {
    num_output: 160
    kernel_size: 1
    weight_filler {
      type: "xavier"
      std: 0.03
    }
    bias_filler {
      type: "constant"
      value: 0.2
    }
  }
}
layer {
  name: "inception_4b/relu_1x1"
  type: "ReLU"
  bottom: "inception_4b/1x1"
  top: "inception_4b/1x1"
}
layer {
  name: "inception_4b/3x3_reduce"
  type: "Convolution"
  bottom: "inception_4a/output"
  top: "inception_4b/3x3_reduce"
  param {
    lr_mult: 1
    decay_mult: 1
  }
  param {
    lr_mult: 2
    decay_mult: 0
  }
  convolution_param {
    num_output: 112
    kernel_size: 1
    weight_filler {
      type: "xavier"
      std: 0.09
    }
    bias_filler {
      type: "constant"
      value: 0.2
    }
  }
}
layer {
  name: "inception_4b/relu_3x3_reduce"
  type: "ReLU"
  bottom: "inception_4b/3x3_reduce"
  top: "inception_4b/3x3_reduce"
}
layer {
  name: "inception_4b/3x3"
  type: "Convolution"
  bottom: "inception_4b/3x3_reduce"
  top: "inception_4b/3x3"
  param {
    lr_mult: 1
    decay_mult: 1
  }
  param {
    lr_mult: 2
    decay_mult: 0
  }
  convolution_param {
    num_output: 224
    pad: 1
    kernel_size: 3
    weight_filler {
      type: "xavier"
      std: 0.03
    }
    bias_filler {
      type: "constant"
      value: 0.2
    }
  }
}
layer {
  name: "inception_4b/relu_3x3"
  type: "ReLU"
  bottom: "inception_4b/3x3"
  top: "inception_4b/3x3"
}
layer {
  name: "inception_4b/5x5_reduce"
  type: "Convolution"
  bottom: "inception_4a/output"
  top: "inception_4b/5x5_reduce"
  param {
    lr_mult: 1
    decay_mult: 1
  }
  param {
    lr_mult: 2
    decay_mult: 0
  }
  convolution_param {
    num_output: 24
    kernel_size: 1
    weight_filler {
      type: "xavier"
      std: 0.2
    }
    bias_filler {
      type: "constant"
      value: 0.2
    }
  }
}
layer {
  name: "inception_4b/relu_5x5_reduce"
  type: "ReLU"
  bottom: "inception_4b/5x5_reduce"
  top: "inception_4b/5x5_reduce"
}
layer {
  name: "inception_4b/5x5"
  type: "Convolution"
  bottom: "inception_4b/5x5_reduce"
  top: "inception_4b/5x5"
  param {
    lr_mult: 1
    decay_mult: 1
  }
  param {
    lr_mult: 2
    decay_mult: 0
  }
  convolution_param {
    num_output: 64
    pad: 2
    kernel_size: 5
    weight_filler {
      type: "xavier"
      std: 0.03
    }
    bias_filler {
      type: "constant"
      value: 0.2
    }
  }
}
layer {
  name: "inception_4b/relu_5x5"
  type: "ReLU"
  bottom: "inception_4b/5x5"
  top: "inception_4b/5x5"
}
layer {
  name: "inception_4b/pool"
  type: "Pooling"
  bottom: "inception_4a/output"
  top: "inception_4b/pool"
  pooling_param {
    pool: MAX
    kernel_size: 3
    stride: 1
    pad: 1
  }
}
layer {
  name: "inception_4b/pool_proj"
  type: "Convolution"
  bottom: "inception_4b/pool"
  top: "inception_4b/pool_proj"
  param {
    lr_mult: 1
    decay_mult: 1
  }
  param {
    lr_mult: 2
    decay_mult: 0
  }
  convolution_param {
    num_output: 64
    kernel_size: 1
    weight_filler {
      type: "xavier"
      std: 0.1
    }
    bias_filler {
      type: "constant"
      value: 0.2
    }
  }
}
layer {
  name: "inception_4b/relu_pool_proj"
  type: "ReLU"
  bottom: "inception_4b/pool_proj"
  top: "inception_4b/pool_proj"
}
layer {
  name: "inception_4b/output"
  type: "Concat"
  bottom: "inception_4b/1x1"
  bottom: "inception_4b/3x3"
  bottom: "inception_4b/5x5"
  bottom: "inception_4b/pool_proj"
  top: "inception_4b/output"
}
layer {
  name: "inception_4c/1x1"
  type: "Convolution"
  bottom: "inception_4b/output"
  top: "inception_4c/1x1"
  param {
    lr_mult: 1
    decay_mult: 1
  }
  param {
    lr_mult: 2
    decay_mult: 0
  }
  convolution_param {
    num_output: 128
    kernel_size: 1
    weight_filler {
      type: "xavier"
      std: 0.03
    }
    bias_filler {
      type: "constant"
      value: 0.2
    }
  }
}
layer {
  name: "inception_4c/relu_1x1"
  type: "ReLU"
  bottom: "inception_4c/1x1"
  top: "inception_4c/1x1"
}
layer {
  name: "inception_4c/3x3_reduce"
  type: "Convolution"
  bottom: "inception_4b/output"
  top: "inception_4c/3x3_reduce"
  param {
    lr_mult: 1
    decay_mult: 1
  }
  param {
    lr_mult: 2
    decay_mult: 0
  }
  convolution_param {
    num_output: 128
    kernel_size: 1
    weight_filler {
      type: "xavier"
      std: 0.09
    }
    bias_filler {
      type: "constant"
      value: 0.2
    }
  }
}
layer {
  name: "inception_4c/relu_3x3_reduce"
  type: "ReLU"
  bottom: "inception_4c/3x3_reduce"
  top: "inception_4c/3x3_reduce"
}
layer {
  name: "inception_4c/3x3"
  type: "Convolution"
  bottom: "inception_4c/3x3_reduce"
  top: "inception_4c/3x3"
  param {
    lr_mult: 1
    decay_mult: 1
  }
  param {
    lr_mult: 2
    decay_mult: 0
  }
  convolution_param {
    num_output: 256
    pad: 1
    kernel_size: 3
    weight_filler {
      type: "xavier"
      std: 0.03
    }
    bias_filler {
      type: "constant"
      value: 0.2
    }
  }
}
layer {
  name: "inception_4c/relu_3x3"
  type: "ReLU"
  bottom: "inception_4c/3x3"
  top: "inception_4c/3x3"
}
layer {
  name: "inception_4c/5x5_reduce"
  type: "Convolution"
  bottom: "inception_4b/output"
  top: "inception_4c/5x5_reduce"
  param {
    lr_mult: 1
    decay_mult: 1
  }
  param {
    lr_mult: 2
    decay_mult: 0
  }
  convolution_param {
    num_output: 24
    kernel_size: 1
    weight_filler {
      type: "xavier"
      std: 0.2
    }
    bias_filler {
      type: "constant"
      value: 0.2
    }
  }
}
layer {
  name: "inception_4c/relu_5x5_reduce"
  type: "ReLU"
  bottom: "inception_4c/5x5_reduce"
  top: "inception_4c/5x5_reduce"
}
layer {
  name: "inception_4c/5x5"
  type: "Convolution"
  bottom: "inception_4c/5x5_reduce"
  top: "inception_4c/5x5"
  param {
    lr_mult: 1
    decay_mult: 1
  }
  param {
    lr_mult: 2
    decay_mult: 0
  }
  convolution_param {
    num_output: 64
    pad: 2
    kernel_size: 5
    weight_filler {
      type: "xavier"
      std: 0.03
    }
    bias_filler {
      type: "constant"
      value: 0.2
    }
  }
}
layer {
  name: "inception_4c/relu_5x5"
  type: "ReLU"
  bottom: "inception_4c/5x5"
  top: "inception_4c/5x5"
}
layer {
  name: "inception_4c/pool"
  type: "Pooling"
  bottom: "inception_4b/output"
  top: "inception_4c/pool"
  pooling_param {
    pool: MAX
    kernel_size: 3
    stride: 1
    pad: 1
  }
}
layer {
  name: "inception_4c/pool_proj"
  type: "Convolution"
  bottom: "inception_4c/pool"
  top: "inception_4c/pool_proj"
  param {
    lr_mult: 1
    decay_mult: 1
  }
  param {
    lr_mult: 2
    decay_mult: 0
  }
  convolution_param {
    num_output: 64
    kernel_size: 1
    weight_filler {
      type: "xavier"
      std: 0.1
    }
    bias_filler {
      type: "constant"
      value: 0.2
    }
  }
}
layer {
  name: "inception_4c/relu_pool_proj"
  type: "ReLU"
  bottom: "inception_4c/pool_proj"
  top: "inception_4c/pool_proj"
}
layer {
  name: "inception_4c/output"
  type: "Concat"
  bottom: "inception_4c/1x1"
  bottom: "inception_4c/3x3"
  bottom: "inception_4c/5x5"
  bottom: "inception_4c/pool_proj"
  top: "inception_4c/output"
}
layer {
  name: "inception_4d/1x1"
  type: "Convolution"
  bottom: "inception_4c/output"
  top: "inception_4d/1x1"
  param {
    lr_mult: 1
    decay_mult: 1
  }
  param {
    lr_mult: 2
    decay_mult: 0
  }
  convolution_param {
    num_output: 112
    kernel_size: 1
    weight_filler {
      type: "xavier"
      std: 0.03
    }
    bias_filler {
      type: "constant"
      value: 0.2
    }
  }
}
layer {
  name: "inception_4d/relu_1x1"
  type: "ReLU"
  bottom: "inception_4d/1x1"
  top: "inception_4d/1x1"
}
layer {
  name: "inception_4d/3x3_reduce"
  type: "Convolution"
  bottom: "inception_4c/output"
  top: "inception_4d/3x3_reduce"
  param {
    lr_mult: 1
    decay_mult: 1
  }
  param {
    lr_mult: 2
    decay_mult: 0
  }
  convolution_param {
    num_output: 144
    kernel_size: 1
    weight_filler {
      type: "xavier"
      std: 0.09
    }
    bias_filler {
      type: "constant"
      value: 0.2
    }
  }
}
layer {
  name: "inception_4d/relu_3x3_reduce"
  type: "ReLU"
  bottom: "inception_4d/3x3_reduce"
  top: "inception_4d/3x3_reduce"
}
layer {
  name: "inception_4d/3x3"
  type: "Convolution"
  bottom: "inception_4d/3x3_reduce"
  top: "inception_4d/3x3"
  param {
    lr_mult: 1
    decay_mult: 1
  }
  param {
    lr_mult: 2
    decay_mult: 0
  }
  convolution_param {
    num_output: 288
    pad: 1
    kernel_size: 3
    weight_filler {
      type: "xavier"
      std: 0.03
    }
    bias_filler {
      type: "constant"
      value: 0.2
    }
  }
}
layer {
  name: "inception_4d/relu_3x3"
  type: "ReLU"
  bottom: "inception_4d/3x3"
  top: "inception_4d/3x3"
}
layer {
  name: "inception_4d/5x5_reduce"
  type: "Convolution"
  bottom: "inception_4c/output"
  top: "inception_4d/5x5_reduce"
  param {
    lr_mult: 1
    decay_mult: 1
  }
  param {
    lr_mult: 2
    decay_mult: 0
  }
  convolution_param {
    num_output: 32
    kernel_size: 1
    weight_filler {
      type: "xavier"
      std: 0.2
    }
    bias_filler {
      type: "constant"
      value: 0.2
    }
  }
}
layer {
  name: "inception_4d/relu_5x5_reduce"
  type: "ReLU"
  bottom: "inception_4d/5x5_reduce"
  top: "inception_4d/5x5_reduce"
}
layer {
  name: "inception_4d/5x5"
  type: "Convolution"
  bottom: "inception_4d/5x5_reduce"
  top: "inception_4d/5x5"
  param {
    lr_mult: 1
    decay_mult: 1
  }
  param {
    lr_mult: 2
    decay_mult: 0
  }
  convolution_param {
    num_output: 64
    pad: 2
    kernel_size: 5
    weight_filler {
      type: "xavier"
      std: 0.03
    }
    bias_filler {
      type: "constant"
      value: 0.2
    }
  }
}
layer {
  name: "inception_4d/relu_5x5"
  type: "ReLU"
  bottom: "inception_4d/5x5"
  top: "inception_4d/5x5"
}
layer {
  name: "inception_4d/pool"
  type: "Pooling"
  bottom: "inception_4c/output"
  top: "inception_4d/pool"
  pooling_param {
    pool: MAX
    kernel_size: 3
    stride: 1
    pad: 1
  }
}
layer {
  name: "inception_4d/pool_proj"
  type: "Convolution"
  bottom: "inception_4d/pool"
  top: "inception_4d/pool_proj"
  param {
    lr_mult: 1
    decay_mult: 1
  }
  param {
    lr_mult: 2
    decay_mult: 0
  }
  convolution_param {
    num_output: 64
    kernel_size: 1
    weight_filler {
      type: "xavier"
      std: 0.1
    }
    bias_filler {
      type: "constant"
      value: 0.2
    }
  }
}
layer {
  name: "inception_4d/relu_pool_proj"
  type: "ReLU"
  bottom: "inception_4d/pool_proj"
  top: "inception_4d/pool_proj"
}
layer {
  name: "inception_4d/output"
  type: "Concat"
  bottom: "inception_4d/1x1"
  bottom: "inception_4d/3x3"
  bottom: "inception_4d/5x5"
  bottom: "inception_4d/pool_proj"
  top: "inception_4d/output"
}
layer {
  name: "loss2/ave_pool"
  type: "Pooling"
  bottom: "inception_4d/output"
  top: "loss2/ave_pool"
  pooling_param {
    pool: AVE
    kernel_size: 5
    stride: 3
  }
}
layer {
  name: "loss2/conv"
  type: "Convolution"
  bottom: "loss2/ave_pool"
  top: "loss2/conv"
  param {
    lr_mult: 1
    decay_mult: 1
  }
  param {
    lr_mult: 2
    decay_mult: 0
  }
  convolution_param {
    num_output: 128
    kernel_size: 1
    weight_filler {
      type: "xavier"
      std: 0.08
    }
    bias_filler {
      type: "constant"
      value: 0.2
    }
  }
}
layer {
  name: "loss2/relu_conv"
  type: "ReLU"
  bottom: "loss2/conv"
  top: "loss2/conv"
}
layer {
  name: "loss2/fc"
  type: "InnerProduct"
  bottom: "loss2/conv"
  top: "loss2/fc"
  param {
    lr_mult: 1
    decay_mult: 1
  }
  param {
    lr_mult: 2
    decay_mult: 0
  }
  inner_product_param {
    num_output: 1024
    weight_filler {
      type: "xavier"
      std: 0.02
    }
    bias_filler {
      type: "constant"
      value: 0.2
    }
  }
}
layer {
  name: "loss2/relu_fc"
  type: "ReLU"
  bottom: "loss2/fc"
  top: "loss2/fc"
}
layer {
  name: "loss2/drop_fc"
  type: "Dropout"
  bottom: "loss2/fc"
  top: "loss2/fc"
  dropout_param {
    dropout_ratio: 0.7
  }
}
layer {
  name: "loss2/classifier_plantvillage"
  type: "InnerProduct"
  bottom: "loss2/fc"
  top: "loss2/classifier_plantvillage"
  param {
    lr_mult: 1
    decay_mult: 1
  }
  param {
    lr_mult: 2
    decay_mult: 0
  }
  inner_product_param {
    num_output: 38
    weight_filler {
      type: "xavier"
      std: 0.0009765625
    }
    bias_filler {
      type: "constant"
      value: 0
    }
  }
}
layer {
  name: "inception_4e/1x1"
  type: "Convolution"
  bottom: "inception_4d/output"
  top: "inception_4e/1x1"
  param {
    lr_mult: 1
    decay_mult: 1
  }
  param {
    lr_mult: 2
    decay_mult: 0
  }
  convolution_param {
    num_output: 256
    kernel_size: 1
    weight_filler {
      type: "xavier"
      std: 0.03
    }
    bias_filler {
      type: "constant"
      value: 0.2
    }
  }
}
layer {
  name: "inception_4e/relu_1x1"
  type: "ReLU"
  bottom: "inception_4e/1x1"
  top: "inception_4e/1x1"
}
layer {
  name: "inception_4e/3x3_reduce"
  type: "Convolution"
  bottom: "inception_4d/output"
  top: "inception_4e/3x3_reduce"
  param {
    lr_mult: 1
    decay_mult: 1
  }
  param {
    lr_mult: 2
    decay_mult: 0
  }
  convolution_param {
    num_output: 160
    kernel_size: 1
    weight_filler {
      type: "xavier"
      std: 0.09
    }
    bias_filler {
      type: "constant"
      value: 0.2
    }
  }
}
layer {
  name: "inception_4e/relu_3x3_reduce"
  type: "ReLU"
  bottom: "inception_4e/3x3_reduce"
  top: "inception_4e/3x3_reduce"
}
layer {
  name: "inception_4e/3x3"
  type: "Convolution"
  bottom: "inception_4e/3x3_reduce"
  top: "inception_4e/3x3"
  param {
    lr_mult: 1
    decay_mult: 1
  }
  param {
    lr_mult: 2
    decay_mult: 0
  }
  convolution_param {
    num_output: 320
    pad: 1
    kernel_size: 3
    weight_filler {
      type: "xavier"
      std: 0.03
    }
    bias_filler {
      type: "constant"
      value: 0.2
    }
  }
}
layer {
  name: "inception_4e/relu_3x3"
  type: "ReLU"
  bottom: "inception_4e/3x3"
  top: "inception_4e/3x3"
}
layer {
  name: "inception_4e/5x5_reduce"
  type: "Convolution"
  bottom: "inception_4d/output"
  top: "inception_4e/5x5_reduce"
  param {
    lr_mult: 1
    decay_mult: 1
  }
  param {
    lr_mult: 2
    decay_mult: 0
  }
  convolution_param {
    num_output: 32
    kernel_size: 1
    weight_filler {
      type: "xavier"
      std: 0.2
    }
    bias_filler {
      type: "constant"
      value: 0.2
    }
  }
}
layer {
  name: "inception_4e/relu_5x5_reduce"
  type: "ReLU"
  bottom: "inception_4e/5x5_reduce"
  top: "inception_4e/5x5_reduce"
}
layer {
  name: "inception_4e/5x5"
  type: "Convolution"
  bottom: "inception_4e/5x5_reduce"
  top: "inception_4e/
I0403 15:37:33.178805 20093 layer_factory.hpp:77] Creating layer data
I0403 15:37:33.179393 20093 net.cpp:91] Creating Layer data
I0403 15:37:33.179425 20093 net.cpp:399] data -> data
I0403 15:37:33.179473 20093 net.cpp:399] data -> label
I0403 15:37:33.179510 20093 data_transformer.cpp:25] Loading mean file from: /home/mohanty/data/final_dataset/lmdb/grayscale-20-80/mean.binaryproto
I0403 15:37:33.188143 20099 db_lmdb.cpp:38] Opened lmdb /home/mohanty/data/final_dataset/lmdb/grayscale-20-80/test_db
I0403 15:37:33.197475 20093 data_layer.cpp:41] output data size: 24,3,224,224
I0403 15:37:33.225460 20093 net.cpp:141] Setting up data
I0403 15:37:33.225565 20093 net.cpp:148] Top shape: 24 3 224 224 (3612672)
I0403 15:37:33.225589 20093 net.cpp:148] Top shape: 24 (24)
I0403 15:37:33.225605 20093 net.cpp:156] Memory required for data: 14450784
I0403 15:37:33.225631 20093 layer_factory.hpp:77] Creating layer label_data_1_split
I0403 15:37:33.225658 20093 net.cpp:91] Creating Layer label_data_1_split
I0403 15:37:33.225677 20093 net.cpp:425] label_data_1_split <- label
I0403 15:37:33.225708 20093 net.cpp:399] label_data_1_split -> label_data_1_split_0
I0403 15:37:33.225738 20093 net.cpp:399] label_data_1_split -> label_data_1_split_1
I0403 15:37:33.225759 20093 net.cpp:399] label_data_1_split -> label_data_1_split_2
I0403 15:37:33.225780 20093 net.cpp:399] label_data_1_split -> label_data_1_split_3
I0403 15:37:33.225800 20093 net.cpp:399] label_data_1_split -> label_data_1_split_4
I0403 15:37:33.225819 20093 net.cpp:399] label_data_1_split -> label_data_1_split_5
I0403 15:37:33.225838 20093 net.cpp:399] label_data_1_split -> label_data_1_split_6
I0403 15:37:33.225859 20093 net.cpp:399] label_data_1_split -> label_data_1_split_7
I0403 15:37:33.225878 20093 net.cpp:399] label_data_1_split -> label_data_1_split_8
I0403 15:37:33.225899 20093 net.cpp:399] label_data_1_split -> label_data_1_split_9
I0403 15:37:33.226022 20093 net.cpp:141] Setting up label_data_1_split
I0403 15:37:33.226047 20093 net.cpp:148] Top shape: 24 (24)
I0403 15:37:33.226069 20093 net.cpp:148] Top shape: 24 (24)
I0403 15:37:33.226086 20093 net.cpp:148] Top shape: 24 (24)
I0403 15:37:33.226104 20093 net.cpp:148] Top shape: 24 (24)
I0403 15:37:33.226119 20093 net.cpp:148] Top shape: 24 (24)
I0403 15:37:33.226135 20093 net.cpp:148] Top shape: 24 (24)
I0403 15:37:33.226150 20093 net.cpp:148] Top shape: 24 (24)
I0403 15:37:33.226166 20093 net.cpp:148] Top shape: 24 (24)
I0403 15:37:33.226182 20093 net.cpp:148] Top shape: 24 (24)
I0403 15:37:33.226198 20093 net.cpp:148] Top shape: 24 (24)
I0403 15:37:33.226245 20093 net.cpp:156] Memory required for data: 14451744
I0403 15:37:33.226261 20093 layer_factory.hpp:77] Creating layer conv1/7x7_s2
I0403 15:37:33.226294 20093 net.cpp:91] Creating Layer conv1/7x7_s2
I0403 15:37:33.226312 20093 net.cpp:425] conv1/7x7_s2 <- data
I0403 15:37:33.226332 20093 net.cpp:399] conv1/7x7_s2 -> conv1/7x7_s2
I0403 15:37:33.368981 20093 net.cpp:141] Setting up conv1/7x7_s2
I0403 15:37:33.369066 20093 net.cpp:148] Top shape: 24 64 112 112 (19267584)
I0403 15:37:33.369087 20093 net.cpp:156] Memory required for data: 91522080
I0403 15:37:33.369119 20093 layer_factory.hpp:77] Creating layer conv1/relu_7x7
I0403 15:37:33.369148 20093 net.cpp:91] Creating Layer conv1/relu_7x7
I0403 15:37:33.369166 20093 net.cpp:425] conv1/relu_7x7 <- conv1/7x7_s2
I0403 15:37:33.369185 20093 net.cpp:386] conv1/relu_7x7 -> conv1/7x7_s2 (in-place)
I0403 15:37:33.369457 20093 net.cpp:141] Setting up conv1/relu_7x7
I0403 15:37:33.369484 20093 net.cpp:148] Top shape: 24 64 112 112 (19267584)
I0403 15:37:33.369499 20093 net.cpp:156] Memory required for data: 168592416
I0403 15:37:33.369515 20093 layer_factory.hpp:77] Creating layer pool1/3x3_s2
I0403 15:37:33.369539 20093 net.cpp:91] Creating Layer pool1/3x3_s2
I0403 15:37:33.369559 20093 net.cpp:425] pool1/3x3_s2 <- conv1/7x7_s2
I0403 15:37:33.369577 20093 net.cpp:399] pool1/3x3_s2 -> pool1/3x3_s2
I0403 15:37:33.369652 20093 net.cpp:141] Setting up pool1/3x3_s2
I0403 15:37:33.369678 20093 net.cpp:148] Top shape: 24 64 56 56 (4816896)
I0403 15:37:33.369693 20093 net.cpp:156] Memory required for data: 187860000
I0403 15:37:33.369707 20093 layer_factory.hpp:77] Creating layer pool1/norm1
I0403 15:37:33.369731 20093 net.cpp:91] Creating Layer pool1/norm1
I0403 15:37:33.369750 20093 net.cpp:425] pool1/norm1 <- pool1/3x3_s2
I0403 15:37:33.369767 20093 net.cpp:399] pool1/norm1 -> pool1/norm1
I0403 15:37:33.370069 20093 net.cpp:141] Setting up pool1/norm1
I0403 15:37:33.370096 20093 net.cpp:148] Top shape: 24 64 56 56 (4816896)
I0403 15:37:33.370112 20093 net.cpp:156] Memory required for data: 207127584
I0403 15:37:33.370127 20093 layer_factory.hpp:77] Creating layer conv2/3x3_reduce
I0403 15:37:33.370152 20093 net.cpp:91] Creating Layer conv2/3x3_reduce
I0403 15:37:33.370169 20093 net.cpp:425] conv2/3x3_reduce <- pool1/norm1
I0403 15:37:33.370188 20093 net.cpp:399] conv2/3x3_reduce -> conv2/3x3_reduce
I0403 15:37:33.371608 20093 net.cpp:141] Setting up conv2/3x3_reduce
I0403 15:37:33.371639 20093 net.cpp:148] Top shape: 24 64 56 56 (4816896)
I0403 15:37:33.371656 20093 net.cpp:156] Memory required for data: 226395168
I0403 15:37:33.371678 20093 layer_factory.hpp:77] Creating layer conv2/relu_3x3_reduce
I0403 15:37:33.371697 20093 net.cpp:91] Creating Layer conv2/relu_3x3_reduce
I0403 15:37:33.371714 20093 net.cpp:425] conv2/relu_3x3_reduce <- conv2/3x3_reduce
I0403 15:37:33.371732 20093 net.cpp:386] conv2/relu_3x3_reduce -> conv2/3x3_reduce (in-place)
I0403 15:37:33.372009 20093 net.cpp:141] Setting up conv2/relu_3x3_reduce
I0403 15:37:33.372036 20093 net.cpp:148] Top shape: 24 64 56 56 (4816896)
I0403 15:37:33.372057 20093 net.cpp:156] Memory required for data: 245662752
I0403 15:37:33.372074 20093 layer_factory.hpp:77] Creating layer conv2/3x3
I0403 15:37:33.372099 20093 net.cpp:91] Creating Layer conv2/3x3
I0403 15:37:33.372117 20093 net.cpp:425] conv2/3x3 <- conv2/3x3_reduce
I0403 15:37:33.372139 20093 net.cpp:399] conv2/3x3 -> conv2/3x3
I0403 15:37:33.374593 20093 net.cpp:141] Setting up conv2/3x3
I0403 15:37:33.374624 20093 net.cpp:148] Top shape: 24 192 56 56 (14450688)
I0403 15:37:33.374641 20093 net.cpp:156] Memory required for data: 303465504
I0403 15:37:33.374663 20093 layer_factory.hpp:77] Creating layer conv2/relu_3x3
I0403 15:37:33.374686 20093 net.cpp:91] Creating Layer conv2/relu_3x3
I0403 15:37:33.374704 20093 net.cpp:425] conv2/relu_3x3 <- conv2/3x3
I0403 15:37:33.374722 20093 net.cpp:386] conv2/relu_3x3 -> conv2/3x3 (in-place)
I0403 15:37:33.374904 20093 net.cpp:141] Setting up conv2/relu_3x3
I0403 15:37:33.374930 20093 net.cpp:148] Top shape: 24 192 56 56 (14450688)
I0403 15:37:33.374977 20093 net.cpp:156] Memory required for data: 361268256
I0403 15:37:33.374994 20093 layer_factory.hpp:77] Creating layer conv2/norm2
I0403 15:37:33.375015 20093 net.cpp:91] Creating Layer conv2/norm2
I0403 15:37:33.375032 20093 net.cpp:425] conv2/norm2 <- conv2/3x3
I0403 15:37:33.375058 20093 net.cpp:399] conv2/norm2 -> conv2/norm2
I0403 15:37:33.375377 20093 net.cpp:141] Setting up conv2/norm2
I0403 15:37:33.375407 20093 net.cpp:148] Top shape: 24 192 56 56 (14450688)
I0403 15:37:33.375424 20093 net.cpp:156] Memory required for data: 419071008
I0403 15:37:33.375440 20093 layer_factory.hpp:77] Creating layer pool2/3x3_s2
I0403 15:37:33.375458 20093 net.cpp:91] Creating Layer pool2/3x3_s2
I0403 15:37:33.375474 20093 net.cpp:425] pool2/3x3_s2 <- conv2/norm2
I0403 15:37:33.375495 20093 net.cpp:399] pool2/3x3_s2 -> pool2/3x3_s2
I0403 15:37:33.375550 20093 net.cpp:141] Setting up pool2/3x3_s2
I0403 15:37:33.375602 20093 net.cpp:148] Top shape: 24 192 28 28 (3612672)
I0403 15:37:33.375620 20093 net.cpp:156] Memory required for data: 433521696
I0403 15:37:33.375635 20093 layer_factory.hpp:77] Creating layer pool2/3x3_s2_pool2/3x3_s2_0_split
I0403 15:37:33.375653 20093 net.cpp:91] Creating Layer pool2/3x3_s2_pool2/3x3_s2_0_split
I0403 15:37:33.375669 20093 net.cpp:425] pool2/3x3_s2_pool2/3x3_s2_0_split <- pool2/3x3_s2
I0403 15:37:33.375686 20093 net.cpp:399] pool2/3x3_s2_pool2/3x3_s2_0_split -> pool2/3x3_s2_pool2/3x3_s2_0_split_0
I0403 15:37:33.375706 20093 net.cpp:399] pool2/3x3_s2_pool2/3x3_s2_0_split -> pool2/3x3_s2_pool2/3x3_s2_0_split_1
I0403 15:37:33.375728 20093 net.cpp:399] pool2/3x3_s2_pool2/3x3_s2_0_split -> pool2/3x3_s2_pool2/3x3_s2_0_split_2
I0403 15:37:33.375749 20093 net.cpp:399] pool2/3x3_s2_pool2/3x3_s2_0_split -> pool2/3x3_s2_pool2/3x3_s2_0_split_3
I0403 15:37:33.375824 20093 net.cpp:141] Setting up pool2/3x3_s2_pool2/3x3_s2_0_split
I0403 15:37:33.375849 20093 net.cpp:148] Top shape: 24 192 28 28 (3612672)
I0403 15:37:33.375865 20093 net.cpp:148] Top shape: 24 192 28 28 (3612672)
I0403 15:37:33.375880 20093 net.cpp:148] Top shape: 24 192 28 28 (3612672)
I0403 15:37:33.375896 20093 net.cpp:148] Top shape: 24 192 28 28 (3612672)
I0403 15:37:33.375910 20093 net.cpp:156] Memory required for data: 491324448
I0403 15:37:33.375926 20093 layer_factory.hpp:77] Creating layer inception_3a/1x1
I0403 15:37:33.375947 20093 net.cpp:91] Creating Layer inception_3a/1x1
I0403 15:37:33.375965 20093 net.cpp:425] inception_3a/1x1 <- pool2/3x3_s2_pool2/3x3_s2_0_split_0
I0403 15:37:33.375988 20093 net.cpp:399] inception_3a/1x1 -> inception_3a/1x1
I0403 15:37:33.377604 20093 net.cpp:141] Setting up inception_3a/1x1
I0403 15:37:33.377635 20093 net.cpp:148] Top shape: 24 64 28 28 (1204224)
I0403 15:37:33.377652 20093 net.cpp:156] Memory required for data: 496141344
I0403 15:37:33.377671 20093 layer_factory.hpp:77] Creating layer inception_3a/relu_1x1
I0403 15:37:33.377689 20093 net.cpp:91] Creating Layer inception_3a/relu_1x1
I0403 15:37:33.377707 20093 net.cpp:425] inception_3a/relu_1x1 <- inception_3a/1x1
I0403 15:37:33.377727 20093 net.cpp:386] inception_3a/relu_1x1 -> inception_3a/1x1 (in-place)
I0403 15:37:33.377907 20093 net.cpp:141] Setting up inception_3a/relu_1x1
I0403 15:37:33.377933 20093 net.cpp:148] Top shape: 24 64 28 28 (1204224)
I0403 15:37:33.377948 20093 net.cpp:156] Memory required for data: 500958240
I0403 15:37:33.377962 20093 layer_factory.hpp:77] Creating layer inception_3a/3x3_reduce
I0403 15:37:33.377985 20093 net.cpp:91] Creating Layer inception_3a/3x3_reduce
I0403 15:37:33.378003 20093 net.cpp:425] inception_3a/3x3_reduce <- pool2/3x3_s2_pool2/3x3_s2_0_split_1
I0403 15:37:33.378024 20093 net.cpp:399] inception_3a/3x3_reduce -> inception_3a/3x3_reduce
I0403 15:37:33.379871 20093 net.cpp:141] Setting up inception_3a/3x3_reduce
I0403 15:37:33.379904 20093 net.cpp:148] Top shape: 24 96 28 28 (1806336)
I0403 15:37:33.379920 20093 net.cpp:156] Memory required for data: 508183584
I0403 15:37:33.379942 20093 layer_factory.hpp:77] Creating layer inception_3a/relu_3x3_reduce
I0403 15:37:33.379982 20093 net.cpp:91] Creating Layer inception_3a/relu_3x3_reduce
I0403 15:37:33.380002 20093 net.cpp:425] inception_3a/relu_3x3_reduce <- inception_3a/3x3_reduce
I0403 15:37:33.380020 20093 net.cpp:386] inception_3a/relu_3x3_reduce -> inception_3a/3x3_reduce (in-place)
I0403 15:37:33.380215 20093 net.cpp:141] Setting up inception_3a/relu_3x3_reduce
I0403 15:37:33.380244 20093 net.cpp:148] Top shape: 24 96 28 28 (1806336)
I0403 15:37:33.380260 20093 net.cpp:156] Memory required for data: 515408928
I0403 15:37:33.380275 20093 layer_factory.hpp:77] Creating layer inception_3a/3x3
I0403 15:37:33.380300 20093 net.cpp:91] Creating Layer inception_3a/3x3
I0403 15:37:33.380318 20093 net.cpp:425] inception_3a/3x3 <- inception_3a/3x3_reduce
I0403 15:37:33.380337 20093 net.cpp:399] inception_3a/3x3 -> inception_3a/3x3
I0403 15:37:33.382053 20093 net.cpp:141] Setting up inception_3a/3x3
I0403 15:37:33.382082 20093 net.cpp:148] Top shape: 24 128 28 28 (2408448)
I0403 15:37:33.382097 20093 net.cpp:156] Memory required for data: 525042720
I0403 15:37:33.382117 20093 layer_factory.hpp:77] Creating layer inception_3a/relu_3x3
I0403 15:37:33.382138 20093 net.cpp:91] Creating Layer inception_3a/relu_3x3
I0403 15:37:33.382154 20093 net.cpp:425] inception_3a/relu_3x3 <- inception_3a/3x3
I0403 15:37:33.382170 20093 net.cpp:386] inception_3a/relu_3x3 -> inception_3a/3x3 (in-place)
I0403 15:37:33.382448 20093 net.cpp:141] Setting up inception_3a/relu_3x3
I0403 15:37:33.382475 20093 net.cpp:148] Top shape: 24 128 28 28 (2408448)
I0403 15:37:33.382490 20093 net.cpp:156] Memory required for data: 534676512
I0403 15:37:33.382505 20093 layer_factory.hpp:77] Creating layer inception_3a/5x5_reduce
I0403 15:37:33.382527 20093 net.cpp:91] Creating Layer inception_3a/5x5_reduce
I0403 15:37:33.382545 20093 net.cpp:425] inception_3a/5x5_reduce <- pool2/3x3_s2_pool2/3x3_s2_0_split_2
I0403 15:37:33.382566 20093 net.cpp:399] inception_3a/5x5_reduce -> inception_3a/5x5_reduce
I0403 15:37:33.383546 20093 net.cpp:141] Setting up inception_3a/5x5_reduce
I0403 15:37:33.383574 20093 net.cpp:148] Top shape: 24 16 28 28 (301056)
I0403 15:37:33.383590 20093 net.cpp:156] Memory required for data: 535880736
I0403 15:37:33.383610 20093 layer_factory.hpp:77] Creating layer inception_3a/relu_5x5_reduce
I0403 15:37:33.383630 20093 net.cpp:91] Creating Layer inception_3a/relu_5x5_reduce
I0403 15:37:33.383646 20093 net.cpp:425] inception_3a/relu_5x5_reduce <- inception_3a/5x5_reduce
I0403 15:37:33.383664 20093 net.cpp:386] inception_3a/relu_5x5_reduce -> inception_3a/5x5_reduce (in-place)
I0403 15:37:33.383973 20093 net.cpp:141] Setting up inception_3a/relu_5x5_reduce
I0403 15:37:33.384001 20093 net.cpp:148] Top shape: 24 16 28 28 (301056)
I0403 15:37:33.384016 20093 net.cpp:156] Memory required for data: 537084960
I0403 15:37:33.384030 20093 layer_factory.hpp:77] Creating layer inception_3a/5x5
I0403 15:37:33.384058 20093 net.cpp:91] Creating Layer inception_3a/5x5
I0403 15:37:33.384078 20093 net.cpp:425] inception_3a/5x5 <- inception_3a/5x5_reduce
I0403 15:37:33.384098 20093 net.cpp:399] inception_3a/5x5 -> inception_3a/5x5
I0403 15:37:33.385140 20093 net.cpp:141] Setting up inception_3a/5x5
I0403 15:37:33.385169 20093 net.cpp:148] Top shape: 24 32 28 28 (602112)
I0403 15:37:33.385185 20093 net.cpp:156] Memory required for data: 539493408
I0403 15:37:33.385203 20093 layer_factory.hpp:77] Creating layer inception_3a/relu_5x5
I0403 15:37:33.385222 20093 net.cpp:91] Creating Layer inception_3a/relu_5x5
I0403 15:37:33.385238 20093 net.cpp:425] inception_3a/relu_5x5 <- inception_3a/5x5
I0403 15:37:33.385258 20093 net.cpp:386] inception_3a/relu_5x5 -> inception_3a/5x5 (in-place)
I0403 15:37:33.385434 20093 net.cpp:141] Setting up inception_3a/relu_5x5
I0403 15:37:33.385459 20093 net.cpp:148] Top shape: 24 32 28 28 (602112)
I0403 15:37:33.385473 20093 net.cpp:156] Memory required for data: 541901856
I0403 15:37:33.385488 20093 layer_factory.hpp:77] Creating layer inception_3a/pool
I0403 15:37:33.385509 20093 net.cpp:91] Creating Layer inception_3a/pool
I0403 15:37:33.385540 20093 net.cpp:425] inception_3a/pool <- pool2/3x3_s2_pool2/3x3_s2_0_split_3
I0403 15:37:33.385558 20093 net.cpp:399] inception_3a/pool -> inception_3a/pool
I0403 15:37:33.385618 20093 net.cpp:141] Setting up inception_3a/pool
I0403 15:37:33.385642 20093 net.cpp:148] Top shape: 24 192 28 28 (3612672)
I0403 15:37:33.385655 20093 net.cpp:156] Memory required for data: 556352544
I0403 15:37:33.385670 20093 layer_factory.hpp:77] Creating layer inception_3a/pool_proj
I0403 15:37:33.385691 20093 net.cpp:91] Creating Layer inception_3a/pool_proj
I0403 15:37:33.385710 20093 net.cpp:425] inception_3a/pool_proj <- inception_3a/pool
I0403 15:37:33.385731 20093 net.cpp:399] inception_3a/pool_proj -> inception_3a/pool_proj
I0403 15:37:33.386720 20093 net.cpp:141] Setting up inception_3a/pool_proj
I0403 15:37:33.386750 20093 net.cpp:148] Top shape: 24 32 28 28 (602112)
I0403 15:37:33.386766 20093 net.cpp:156] Memory required for data: 558760992
I0403 15:37:33.386788 20093 layer_factory.hpp:77] Creating layer inception_3a/relu_pool_proj
I0403 15:37:33.386811 20093 net.cpp:91] Creating Layer inception_3a/relu_pool_proj
I0403 15:37:33.386826 20093 net.cpp:425] inception_3a/relu_pool_proj <- inception_3a/pool_proj
I0403 15:37:33.386843 20093 net.cpp:386] inception_3a/relu_pool_proj -> inception_3a/pool_proj (in-place)
I0403 15:37:33.387132 20093 net.cpp:141] Setting up inception_3a/relu_pool_proj
I0403 15:37:33.387158 20093 net.cpp:148] Top shape: 24 32 28 28 (602112)
I0403 15:37:33.387176 20093 net.cpp:156] Memory required for data: 561169440
I0403 15:37:33.387190 20093 layer_factory.hpp:77] Creating layer inception_3a/output
I0403 15:37:33.387208 20093 net.cpp:91] Creating Layer inception_3a/output
I0403 15:37:33.387224 20093 net.cpp:425] inception_3a/output <- inception_3a/1x1
I0403 15:37:33.387239 20093 net.cpp:425] inception_3a/output <- inception_3a/3x3
I0403 15:37:33.387255 20093 net.cpp:425] inception_3a/output <- inception_3a/5x5
I0403 15:37:33.387271 20093 net.cpp:425] inception_3a/output <- inception_3a/pool_proj
I0403 15:37:33.387290 20093 net.cpp:399] inception_3a/output -> inception_3a/output
I0403 15:37:33.387341 20093 net.cpp:141] Setting up inception_3a/output
I0403 15:37:33.387364 20093 net.cpp:148] Top shape: 24 256 28 28 (4816896)
I0403 15:37:33.387378 20093 net.cpp:156] Memory required for data: 580437024
I0403 15:37:33.387393 20093 layer_factory.hpp:77] Creating layer inception_3a/output_inception_3a/output_0_split
I0403 15:37:33.387409 20093 net.cpp:91] Creating Layer inception_3a/output_inception_3a/output_0_split
I0403 15:37:33.387425 20093 net.cpp:425] inception_3a/output_inception_3a/output_0_split <- inception_3a/output
I0403 15:37:33.387444 20093 net.cpp:399] inception_3a/output_inception_3a/output_0_split -> inception_3a/output_inception_3a/output_0_split_0
I0403 15:37:33.387465 20093 net.cpp:399] inception_3a/output_inception_3a/output_0_split -> inception_3a/output_inception_3a/output_0_split_1
I0403 15:37:33.387486 20093 net.cpp:399] inception_3a/output_inception_3a/output_0_split -> inception_3a/output_inception_3a/output_0_split_2
I0403 15:37:33.387506 20093 net.cpp:399] inception_3a/output_inception_3a/output_0_split -> inception_3a/output_inception_3a/output_0_split_3
I0403 15:37:33.387588 20093 net.cpp:141] Setting up inception_3a/output_inception_3a/output_0_split
I0403 15:37:33.387610 20093 net.cpp:148] Top shape: 24 256 28 28 (4816896)
I0403 15:37:33.387627 20093 net.cpp:148] Top shape: 24 256 28 28 (4816896)
I0403 15:37:33.387644 20093 net.cpp:148] Top shape: 24 256 28 28 (4816896)
I0403 15:37:33.387658 20093 net.cpp:148] Top shape: 24 256 28 28 (4816896)
I0403 15:37:33.387671 20093 net.cpp:156] Memory required for data: 657507360
I0403 15:37:33.387686 20093 layer_factory.hpp:77] Creating layer inception_3b/1x1
I0403 15:37:33.387708 20093 net.cpp:91] Creating Layer inception_3b/1x1
I0403 15:37:33.387725 20093 net.cpp:425] inception_3b/1x1 <- inception_3a/output_inception_3a/output_0_split_0
I0403 15:37:33.387745 20093 net.cpp:399] inception_3b/1x1 -> inception_3b/1x1
I0403 15:37:33.388943 20093 net.cpp:141] Setting up inception_3b/1x1
I0403 15:37:33.388988 20093 net.cpp:148] Top shape: 24 128 28 28 (2408448)
I0403 15:37:33.389006 20093 net.cpp:156] Memory required for data: 667141152
I0403 15:37:33.389025 20093 layer_factory.hpp:77] Creating layer inception_3b/relu_1x1
I0403 15:37:33.389045 20093 net.cpp:91] Creating Layer inception_3b/relu_1x1
I0403 15:37:33.389075 20093 net.cpp:425] inception_3b/relu_1x1 <- inception_3b/1x1
I0403 15:37:33.389097 20093 net.cpp:386] inception_3b/relu_1x1 -> inception_3b/1x1 (in-place)
I0403 15:37:33.389279 20093 net.cpp:141] Setting up inception_3b/relu_1x1
I0403 15:37:33.389305 20093 net.cpp:148] Top shape: 24 128 28 28 (2408448)
I0403 15:37:33.389322 20093 net.cpp:156] Memory required for data: 676774944
I0403 15:37:33.389336 20093 layer_factory.hpp:77] Creating layer inception_3b/3x3_reduce
I0403 15:37:33.389359 20093 net.cpp:91] Creating Layer inception_3b/3x3_reduce
I0403 15:37:33.389377 20093 net.cpp:425] inception_3b/3x3_reduce <- inception_3a/output_inception_3a/output_0_split_1
I0403 15:37:33.389400 20093 net.cpp:399] inception_3b/3x3_reduce -> inception_3b/3x3_reduce
I0403 15:37:33.390595 20093 net.cpp:141] Setting up inception_3b/3x3_reduce
I0403 15:37:33.390625 20093 net.cpp:148] Top shape: 24 128 28 28 (2408448)
I0403 15:37:33.390640 20093 net.cpp:156] Memory required for data: 686408736
I0403 15:37:33.390658 20093 layer_factory.hpp:77] Creating layer inception_3b/relu_3x3_reduce
I0403 15:37:33.390678 20093 net.cpp:91] Creating Layer inception_3b/relu_3x3_reduce
I0403 15:37:33.390694 20093 net.cpp:425] inception_3b/relu_3x3_reduce <- inception_3b/3x3_reduce
I0403 15:37:33.390715 20093 net.cpp:386] inception_3b/relu_3x3_reduce -> inception_3b/3x3_reduce (in-place)
I0403 15:37:33.390898 20093 net.cpp:141] Setting up inception_3b/relu_3x3_reduce
I0403 15:37:33.390925 20093 net.cpp:148] Top shape: 24 128 28 28 (2408448)
I0403 15:37:33.390939 20093 net.cpp:156] Memory required for data: 696042528
I0403 15:37:33.390955 20093 layer_factory.hpp:77] Creating layer inception_3b/3x3
I0403 15:37:33.390982 20093 net.cpp:91] Creating Layer inception_3b/3x3
I0403 15:37:33.391000 20093 net.cpp:425] inception_3b/3x3 <- inception_3b/3x3_reduce
I0403 15:37:33.391021 20093 net.cpp:399] inception_3b/3x3 -> inception_3b/3x3
I0403 15:37:33.394093 20093 net.cpp:141] Setting up inception_3b/3x3
I0403 15:37:33.394122 20093 net.cpp:148] Top shape: 24 192 28 28 (3612672)
I0403 15:37:33.394139 20093 net.cpp:156] Memory required for data: 710493216
I0403 15:37:33.394158 20093 layer_factory.hpp:77] Creating layer inception_3b/relu_3x3
I0403 15:37:33.394181 20093 net.cpp:91] Creating Layer inception_3b/relu_3x3
I0403 15:37:33.394197 20093 net.cpp:425] inception_3b/relu_3x3 <- inception_3b/3x3
I0403 15:37:33.394217 20093 net.cpp:386] inception_3b/relu_3x3 -> inception_3b/3x3 (in-place)
I0403 15:37:33.394508 20093 net.cpp:141] Setting up inception_3b/relu_3x3
I0403 15:37:33.394536 20093 net.cpp:148] Top shape: 24 192 28 28 (3612672)
I0403 15:37:33.394552 20093 net.cpp:156] Memory required for data: 724943904
I0403 15:37:33.394567 20093 layer_factory.hpp:77] Creating layer inception_3b/5x5_reduce
I0403 15:37:33.394592 20093 net.cpp:91] Creating Layer inception_3b/5x5_reduce
I0403 15:37:33.394610 20093 net.cpp:425] inception_3b/5x5_reduce <- inception_3a/output_inception_3a/output_0_split_2
I0403 15:37:33.394634 20093 net.cpp:399] inception_3b/5x5_reduce -> inception_3b/5x5_reduce
I0403 15:37:33.395673 20093 net.cpp:141] Setting up inception_3b/5x5_reduce
I0403 15:37:33.395702 20093 net.cpp:148] Top shape: 24 32 28 28 (602112)
I0403 15:37:33.395719 20093 net.cpp:156] Memory required for data: 727352352
I0403 15:37:33.395737 20093 layer_factory.hpp:77] Creating layer inception_3b/relu_5x5_reduce
I0403 15:37:33.395761 20093 net.cpp:91] Creating Layer inception_3b/relu_5x5_reduce
I0403 15:37:33.395778 20093 net.cpp:425] inception_3b/relu_5x5_reduce <- inception_3b/5x5_reduce
I0403 15:37:33.395797 20093 net.cpp:386] inception_3b/relu_5x5_reduce -> inception_3b/5x5_reduce (in-place)
I0403 15:37:33.395997 20093 net.cpp:141] Setting up inception_3b/relu_5x5_reduce
I0403 15:37:33.396023 20093 net.cpp:148] Top shape: 24 32 28 28 (602112)
I0403 15:37:33.396041 20093 net.cpp:156] Memory required for data: 729760800
I0403 15:37:33.396061 20093 layer_factory.hpp:77] Creating layer inception_3b/5x5
I0403 15:37:33.396082 20093 net.cpp:91] Creating Layer inception_3b/5x5
I0403 15:37:33.396100 20093 net.cpp:425] inception_3b/5x5 <- inception_3b/5x5_reduce
I0403 15:37:33.396121 20093 net.cpp:399] inception_3b/5x5 -> inception_3b/5x5
I0403 15:37:33.398234 20093 net.cpp:141] Setting up inception_3b/5x5
I0403 15:37:33.398265 20093 net.cpp:148] Top shape: 24 96 28 28 (1806336)
I0403 15:37:33.398283 20093 net.cpp:156] Memory required for data: 736986144
I0403 15:37:33.398301 20093 layer_factory.hpp:77] Creating layer inception_3b/relu_5x5
I0403 15:37:33.398319 20093 net.cpp:91] Creating Layer inception_3b/relu_5x5
I0403 15:37:33.398336 20093 net.cpp:425] inception_3b/relu_5x5 <- inception_3b/5x5
I0403 15:37:33.398356 20093 net.cpp:386] inception_3b/relu_5x5 -> inception_3b/5x5 (in-place)
I0403 15:37:33.398561 20093 net.cpp:141] Setting up inception_3b/relu_5x5
I0403 15:37:33.398588 20093 net.cpp:148] Top shape: 24 96 28 28 (1806336)
I0403 15:37:33.398603 20093 net.cpp:156] Memory required for data: 744211488
I0403 15:37:33.398618 20093 layer_factory.hpp:77] Creating layer inception_3b/pool
I0403 15:37:33.398636 20093 net.cpp:91] Creating Layer inception_3b/pool
I0403 15:37:33.398653 20093 net.cpp:425] inception_3b/pool <- inception_3a/output_inception_3a/output_0_split_3
I0403 15:37:33.398671 20093 net.cpp:399] inception_3b/pool -> inception_3b/pool
I0403 15:37:33.398732 20093 net.cpp:141] Setting up inception_3b/pool
I0403 15:37:33.398757 20093 net.cpp:148] Top shape: 24 256 28 28 (4816896)
I0403 15:37:33.398772 20093 net.cpp:156] Memory required for data: 763479072
I0403 15:37:33.398787 20093 layer_factory.hpp:77] Creating layer inception_3b/pool_proj
I0403 15:37:33.398810 20093 net.cpp:91] Creating Layer inception_3b/pool_proj
I0403 15:37:33.398828 20093 net.cpp:425] inception_3b/pool_proj <- inception_3b/pool
I0403 15:37:33.398849 20093 net.cpp:399] inception_3b/pool_proj -> inception_3b/pool_proj
I0403 15:37:33.399971 20093 net.cpp:141] Setting up inception_3b/pool_proj
I0403 15:37:33.400002 20093 net.cpp:148] Top shape: 24 64 28 28 (1204224)
I0403 15:37:33.400019 20093 net.cpp:156] Memory required for data: 768295968
I0403 15:37:33.400039 20093 layer_factory.hpp:77] Creating layer inception_3b/relu_pool_proj
I0403 15:37:33.400063 20093 net.cpp:91] Creating Layer inception_3b/relu_pool_proj
I0403 15:37:33.400080 20093 net.cpp:425] inception_3b/relu_pool_proj <- inception_3b/pool_proj
I0403 15:37:33.400099 20093 net.cpp:386] inception_3b/relu_pool_proj -> inception_3b/pool_proj (in-place)
I0403 15:37:33.400527 20093 net.cpp:141] Setting up inception_3b/relu_pool_proj
I0403 15:37:33.400554 20093 net.cpp:148] Top shape: 24 64 28 28 (1204224)
I0403 15:37:33.400569 20093 net.cpp:156] Memory required for data: 773112864
I0403 15:37:33.400583 20093 layer_factory.hpp:77] Creating layer inception_3b/output
I0403 15:37:33.400604 20093 net.cpp:91] Creating Layer inception_3b/output
I0403 15:37:33.400619 20093 net.cpp:425] inception_3b/output <- inception_3b/1x1
I0403 15:37:33.400636 20093 net.cpp:425] inception_3b/output <- inception_3b/3x3
I0403 15:37:33.400652 20093 net.cpp:425] inception_3b/output <- inception_3b/5x5
I0403 15:37:33.400668 20093 net.cpp:425] inception_3b/output <- inception_3b/pool_proj
I0403 15:37:33.400684 20093 net.cpp:399] inception_3b/output -> inception_3b/output
I0403 15:37:33.400732 20093 net.cpp:141] Setting up inception_3b/output
I0403 15:37:33.400755 20093 net.cpp:148] Top shape: 24 480 28 28 (9031680)
I0403 15:37:33.400770 20093 net.cpp:156] Memory required for data: 809239584
I0403 15:37:33.400785 20093 layer_factory.hpp:77] Creating layer pool3/3x3_s2
I0403 15:37:33.400802 20093 net.cpp:91] Creating Layer pool3/3x3_s2
I0403 15:37:33.400818 20093 net.cpp:425] pool3/3x3_s2 <- inception_3b/output
I0403 15:37:33.400853 20093 net.cpp:399] pool3/3x3_s2 -> pool3/3x3_s2
I0403 15:37:33.400914 20093 net.cpp:141] Setting up pool3/3x3_s2
I0403 15:37:33.400938 20093 net.cpp:148] Top shape: 24 480 14 14 (2257920)
I0403 15:37:33.400954 20093 net.cpp:156] Memory required for data: 818271264
I0403 15:37:33.400969 20093 layer_factory.hpp:77] Creating layer pool3/3x3_s2_pool3/3x3_s2_0_split
I0403 15:37:33.400988 20093 net.cpp:91] Creating Layer pool3/3x3_s2_pool3/3x3_s2_0_split
I0403 15:37:33.401005 20093 net.cpp:425] pool3/3x3_s2_pool3/3x3_s2_0_split <- pool3/3x3_s2
I0403 15:37:33.401023 20093 net.cpp:399] pool3/3x3_s2_pool3/3x3_s2_0_split -> pool3/3x3_s2_pool3/3x3_s2_0_split_0
I0403 15:37:33.401044 20093 net.cpp:399] pool3/3x3_s2_pool3/3x3_s2_0_split -> pool3/3x3_s2_pool3/3x3_s2_0_split_1
I0403 15:37:33.401070 20093 net.cpp:399] pool3/3x3_s2_pool3/3x3_s2_0_split -> pool3/3x3_s2_pool3/3x3_s2_0_split_2
I0403 15:37:33.401089 20093 net.cpp:399] pool3/3x3_s2_pool3/3x3_s2_0_split -> pool3/3x3_s2_pool3/3x3_s2_0_split_3
I0403 15:37:33.401166 20093 net.cpp:141] Setting up pool3/3x3_s2_pool3/3x3_s2_0_split
I0403 15:37:33.401190 20093 net.cpp:148] Top shape: 24 480 14 14 (2257920)
I0403 15:37:33.401211 20093 net.cpp:148] Top shape: 24 480 14 14 (2257920)
I0403 15:37:33.401227 20093 net.cpp:148] Top shape: 24 480 14 14 (2257920)
I0403 15:37:33.401243 20093 net.cpp:148] Top shape: 24 480 14 14 (2257920)
I0403 15:37:33.401257 20093 net.cpp:156] Memory required for data: 854397984
I0403 15:37:33.401271 20093 layer_factory.hpp:77] Creating layer inception_4a/1x1
I0403 15:37:33.401291 20093 net.cpp:91] Creating Layer inception_4a/1x1
I0403 15:37:33.401309 20093 net.cpp:425] inception_4a/1x1 <- pool3/3x3_s2_pool3/3x3_s2_0_split_0
I0403 15:37:33.401331 20093 net.cpp:399] inception_4a/1x1 -> inception_4a/1x1
I0403 15:37:33.402940 20093 net.cpp:141] Setting up inception_4a/1x1
I0403 15:37:33.402974 20093 net.cpp:148] Top shape: 24 192 14 14 (903168)
I0403 15:37:33.402990 20093 net.cpp:156] Memory required for data: 858010656
I0403 15:37:33.403009 20093 layer_factory.hpp:77] Creating layer inception_4a/relu_1x1
I0403 15:37:33.403028 20093 net.cpp:91] Creating Layer inception_4a/relu_1x1
I0403 15:37:33.403043 20093 net.cpp:425] inception_4a/relu_1x1 <- inception_4a/1x1
I0403 15:37:33.403065 20093 net.cpp:386] inception_4a/relu_1x1 -> inception_4a/1x1 (in-place)
I0403 15:37:33.403249 20093 net.cpp:141] Setting up inception_4a/relu_1x1
I0403 15:37:33.403275 20093 net.cpp:148] Top shape: 24 192 14 14 (903168)
I0403 15:37:33.403290 20093 net.cpp:156] Memory required for data: 861623328
I0403 15:37:33.403303 20093 layer_factory.hpp:77] Creating layer inception_4a/3x3_reduce
I0403 15:37:33.403326 20093 net.cpp:91] Creating Layer inception_4a/3x3_reduce
I0403 15:37:33.403343 20093 net.cpp:425] inception_4a/3x3_reduce <- pool3/3x3_s2_pool3/3x3_s2_0_split_1
I0403 15:37:33.403365 20093 net.cpp:399] inception_4a/3x3_reduce -> inception_4a/3x3_reduce
I0403 15:37:33.404675 20093 net.cpp:141] Setting up inception_4a/3x3_reduce
I0403 15:37:33.404706 20093 net.cpp:148] Top shape: 24 96 14 14 (451584)
I0403 15:37:33.404721 20093 net.cpp:156] Memory required for data: 863429664
I0403 15:37:33.404747 20093 layer_factory.hpp:77] Creating layer inception_4a/relu_3x3_reduce
I0403 15:37:33.404767 20093 net.cpp:91] Creating Layer inception_4a/relu_3x3_reduce
I0403 15:37:33.404783 20093 net.cpp:425] inception_4a/relu_3x3_reduce <- inception_4a/3x3_reduce
I0403 15:37:33.404800 20093 net.cpp:386] inception_4a/relu_3x3_reduce -> inception_4a/3x3_reduce (in-place)
I0403 15:37:33.404984 20093 net.cpp:141] Setting up inception_4a/relu_3x3_reduce
I0403 15:37:33.405011 20093 net.cpp:148] Top shape: 24 96 14 14 (451584)
I0403 15:37:33.405026 20093 net.cpp:156] Memory required for data: 865236000
I0403 15:37:33.405041 20093 layer_factory.hpp:77] Creating layer inception_4a/3x3
I0403 15:37:33.405068 20093 net.cpp:91] Creating Layer inception_4a/3x3
I0403 15:37:33.405087 20093 net.cpp:425] inception_4a/3x3 <- inception_4a/3x3_reduce
I0403 15:37:33.405107 20093 net.cpp:399] inception_4a/3x3 -> inception_4a/3x3
I0403 15:37:33.407876 20093 net.cpp:141] Setting up inception_4a/3x3
I0403 15:37:33.407905 20093 net.cpp:148] Top shape: 24 208 14 14 (978432)
I0403 15:37:33.407922 20093 net.cpp:156] Memory required for data: 869149728
I0403 15:37:33.407940 20093 layer_factory.hpp:77] Creating layer inception_4a/relu_3x3
I0403 15:37:33.407959 20093 net.cpp:91] Creating Layer inception_4a/relu_3x3
I0403 15:37:33.407975 20093 net.cpp:425] inception_4a/relu_3x3 <- inception_4a/3x3
I0403 15:37:33.407995 20093 net.cpp:386] inception_4a/relu_3x3 -> inception_4a/3x3 (in-place)
I0403 15:37:33.408298 20093 net.cpp:141] Setting up inception_4a/relu_3x3
I0403 15:37:33.408324 20093 net.cpp:148] Top shape: 24 208 14 14 (978432)
I0403 15:37:33.408339 20093 net.cpp:156] Memory required for data: 873063456
I0403 15:37:33.408354 20093 layer_factory.hpp:77] Creating layer inception_4a/5x5_reduce
I0403 15:37:33.408375 20093 net.cpp:91] Creating Layer inception_4a/5x5_reduce
I0403 15:37:33.408392 20093 net.cpp:425] inception_4a/5x5_reduce <- pool3/3x3_s2_pool3/3x3_s2_0_split_2
I0403 15:37:33.408413 20093 net.cpp:399] inception_4a/5x5_reduce -> inception_4a/5x5_reduce
I0403 15:37:33.409477 20093 net.cpp:141] Setting up inception_4a/5x5_reduce
I0403 15:37:33.409507 20093 net.cpp:148] Top shape: 24 16 14 14 (75264)
I0403 15:37:33.409521 20093 net.cpp:156] Memory required for data: 873364512
I0403 15:37:33.409540 20093 layer_factory.hpp:77] Creating layer inception_4a/relu_5x5_reduce
I0403 15:37:33.409559 20093 net.cpp:91] Creating Layer inception_4a/relu_5x5_reduce
I0403 15:37:33.409574 20093 net.cpp:425] inception_4a/relu_5x5_reduce <- inception_4a/5x5_reduce
I0403 15:37:33.409595 20093 net.cpp:386] inception_4a/relu_5x5_reduce -> inception_4a/5x5_reduce (in-place)
I0403 15:37:33.409777 20093 net.cpp:141] Setting up inception_4a/relu_5x5_reduce
I0403 15:37:33.409802 20093 net.cpp:148] Top shape: 24 16 14 14 (75264)
I0403 15:37:33.409818 20093 net.cpp:156] Memory required for data: 873665568
I0403 15:37:33.409833 20093 layer_factory.hpp:77] Creating layer inception_4a/5x5
I0403 15:37:33.409857 20093 net.cpp:91] Creating Layer inception_4a/5x5
I0403 15:37:33.409874 20093 net.cpp:425] inception_4a/5x5 <- inception_4a/5x5_reduce
I0403 15:37:33.409898 20093 net.cpp:399] inception_4a/5x5 -> inception_4a/5x5
I0403 15:37:33.411017 20093 net.cpp:141] Setting up inception_4a/5x5
I0403 15:37:33.411044 20093 net.cpp:148] Top shape: 24 48 14 14 (225792)
I0403 15:37:33.411067 20093 net.cpp:156] Memory required for data: 874568736
I0403 15:37:33.411085 20093 layer_factory.hpp:77] Creating layer inception_4a/relu_5x5
I0403 15:37:33.411105 20093 net.cpp:91] Creating Layer inception_4a/relu_5x5
I0403 15:37:33.411123 20093 net.cpp:425] inception_4a/relu_5x5 <- inception_4a/5x5
I0403 15:37:33.411140 20093 net.cpp:386] inception_4a/relu_5x5 -> inception_4a/5x5 (in-place)
I0403 15:37:33.411324 20093 net.cpp:141] Setting up inception_4a/relu_5x5
I0403 15:37:33.411350 20093 net.cpp:148] Top shape: 24 48 14 14 (225792)
I0403 15:37:33.411366 20093 net.cpp:156] Memory required for data: 875471904
I0403 15:37:33.411381 20093 layer_factory.hpp:77] Creating layer inception_4a/pool
I0403 15:37:33.411398 20093 net.cpp:91] Creating Layer inception_4a/pool
I0403 15:37:33.411415 20093 net.cpp:425] inception_4a/pool <- pool3/3x3_s2_pool3/3x3_s2_0_split_3
I0403 15:37:33.411435 20093 net.cpp:399] inception_4a/pool -> inception_4a/pool
I0403 15:37:33.411497 20093 net.cpp:141] Setting up inception_4a/pool
I0403 15:37:33.411520 20093 net.cpp:148] Top shape: 24 480 14 14 (2257920)
I0403 15:37:33.411535 20093 net.cpp:156] Memory required for data: 884503584
I0403 15:37:33.411561 20093 layer_factory.hpp:77] Creating layer inception_4a/pool_proj
I0403 15:37:33.411584 20093 net.cpp:91] Creating Layer inception_4a/pool_proj
I0403 15:37:33.411602 20093 net.cpp:425] inception_4a/pool_proj <- inception_4a/pool
I0403 15:37:33.411619 20093 net.cpp:399] inception_4a/pool_proj -> inception_4a/pool_proj
I0403 15:37:33.412782 20093 net.cpp:141] Setting up inception_4a/pool_proj
I0403 15:37:33.412811 20093 net.cpp:148] Top shape: 24 64 14 14 (301056)
I0403 15:37:33.412840 20093 net.cpp:156] Memory required for data: 885707808
I0403 15:37:33.412863 20093 layer_factory.hpp:77] Creating layer inception_4a/relu_pool_proj
I0403 15:37:33.412883 20093 net.cpp:91] Creating Layer inception_4a/relu_pool_proj
I0403 15:37:33.412899 20093 net.cpp:425] inception_4a/relu_pool_proj <- inception_4a/pool_proj
I0403 15:37:33.412914 20093 net.cpp:386] inception_4a/relu_pool_proj -> inception_4a/pool_proj (in-place)
I0403 15:37:33.413198 20093 net.cpp:141] Setting up inception_4a/relu_pool_proj
I0403 15:37:33.413226 20093 net.cpp:148] Top shape: 24 64 14 14 (301056)
I0403 15:37:33.413242 20093 net.cpp:156] Memory required for data: 886912032
I0403 15:37:33.413257 20093 layer_factory.hpp:77] Creating layer inception_4a/output
I0403 15:37:33.413275 20093 net.cpp:91] Creating Layer inception_4a/output
I0403 15:37:33.413290 20093 net.cpp:425] inception_4a/output <- inception_4a/1x1
I0403 15:37:33.413305 20093 net.cpp:425] inception_4a/output <- inception_4a/3x3
I0403 15:37:33.413321 20093 net.cpp:425] inception_4a/output <- inception_4a/5x5
I0403 15:37:33.413336 20093 net.cpp:425] inception_4a/output <- inception_4a/pool_proj
I0403 15:37:33.413352 20093 net.cpp:399] inception_4a/output -> inception_4a/output
I0403 15:37:33.413399 20093 net.cpp:141] Setting up inception_4a/output
I0403 15:37:33.413421 20093 net.cpp:148] Top shape: 24 512 14 14 (2408448)
I0403 15:37:33.413436 20093 net.cpp:156] Memory required for data: 896545824
I0403 15:37:33.413450 20093 layer_factory.hpp:77] Creating layer inception_4a/output_inception_4a/output_0_split
I0403 15:37:33.413467 20093 net.cpp:91] Creating Layer inception_4a/output_inception_4a/output_0_split
I0403 15:37:33.413482 20093 net.cpp:425] inception_4a/output_inception_4a/output_0_split <- inception_4a/output
I0403 15:37:33.413501 20093 net.cpp:399] inception_4a/output_inception_4a/output_0_split -> inception_4a/output_inception_4a/output_0_split_0
I0403 15:37:33.413522 20093 net.cpp:399] inception_4a/output_inception_4a/output_0_split -> inception_4a/output_inception_4a/output_0_split_1
I0403 15:37:33.413542 20093 net.cpp:399] inception_4a/output_inception_4a/output_0_split -> inception_4a/output_inception_4a/output_0_split_2
I0403 15:37:33.413566 20093 net.cpp:399] inception_4a/output_inception_4a/output_0_split -> inception_4a/output_inception_4a/output_0_split_3
I0403 15:37:33.413585 20093 net.cpp:399] inception_4a/output_inception_4a/output_0_split -> inception_4a/output_inception_4a/output_0_split_4
I0403 15:37:33.413676 20093 net.cpp:141] Setting up inception_4a/output_inception_4a/output_0_split
I0403 15:37:33.413698 20093 net.cpp:148] Top shape: 24 512 14 14 (2408448)
I0403 15:37:33.413714 20093 net.cpp:148] Top shape: 24 512 14 14 (2408448)
I0403 15:37:33.413729 20093 net.cpp:148] Top shape: 24 512 14 14 (2408448)
I0403 15:37:33.413744 20093 net.cpp:148] Top shape: 24 512 14 14 (2408448)
I0403 15:37:33.413759 20093 net.cpp:148] Top shape: 24 512 14 14 (2408448)
I0403 15:37:33.413772 20093 net.cpp:156] Memory required for data: 944714784
I0403 15:37:33.413786 20093 layer_factory.hpp:77] Creating layer loss1/ave_pool
I0403 15:37:33.413803 20093 net.cpp:91] Creating Layer loss1/ave_pool
I0403 15:37:33.413820 20093 net.cpp:425] loss1/ave_pool <- inception_4a/output_inception_4a/output_0_split_0
I0403 15:37:33.413838 20093 net.cpp:399] loss1/ave_pool -> loss1/ave_pool
I0403 15:37:33.414046 20093 net.cpp:141] Setting up loss1/ave_pool
I0403 15:37:33.414077 20093 net.cpp:148] Top shape: 24 512 4 4 (196608)
I0403 15:37:33.414093 20093 net.cpp:156] Memory required for data: 945501216
I0403 15:37:33.414108 20093 layer_factory.hpp:77] Creating layer loss1/conv
I0403 15:37:33.414129 20093 net.cpp:91] Creating Layer loss1/conv
I0403 15:37:33.414146 20093 net.cpp:425] loss1/conv <- loss1/ave_pool
I0403 15:37:33.414163 20093 net.cpp:399] loss1/conv -> loss1/conv
I0403 15:37:33.415580 20093 net.cpp:141] Setting up loss1/conv
I0403 15:37:33.415607 20093 net.cpp:148] Top shape: 24 128 4 4 (49152)
I0403 15:37:33.415637 20093 net.cpp:156] Memory required for data: 945697824
I0403 15:37:33.415657 20093 layer_factory.hpp:77] Creating layer loss1/relu_conv
I0403 15:37:33.415674 20093 net.cpp:91] Creating Layer loss1/relu_conv
I0403 15:37:33.415689 20093 net.cpp:425] loss1/relu_conv <- loss1/conv
I0403 15:37:33.415709 20093 net.cpp:386] loss1/relu_conv -> loss1/conv (in-place)
I0403 15:37:33.415995 20093 net.cpp:141] Setting up loss1/relu_conv
I0403 15:37:33.416021 20093 net.cpp:148] Top shape: 24 128 4 4 (49152)
I0403 15:37:33.416035 20093 net.cpp:156] Memory required for data: 945894432
I0403 15:37:33.416054 20093 layer_factory.hpp:77] Creating layer loss1/fc
I0403 15:37:33.416079 20093 net.cpp:91] Creating Layer loss1/fc
I0403 15:37:33.416095 20093 net.cpp:425] loss1/fc <- loss1/conv
I0403 15:37:33.416115 20093 net.cpp:399] loss1/fc -> loss1/fc
I0403 15:37:33.433771 20093 net.cpp:141] Setting up loss1/fc
I0403 15:37:33.433806 20093 net.cpp:148] Top shape: 24 1024 (24576)
I0403 15:37:33.433821 20093 net.cpp:156] Memory required for data: 945992736
I0403 15:37:33.433840 20093 layer_factory.hpp:77] Creating layer loss1/relu_fc
I0403 15:37:33.433857 20093 net.cpp:91] Creating Layer loss1/relu_fc
I0403 15:37:33.433872 20093 net.cpp:425] loss1/relu_fc <- loss1/fc
I0403 15:37:33.433888 20093 net.cpp:386] loss1/relu_fc -> loss1/fc (in-place)
I0403 15:37:33.434078 20093 net.cpp:141] Setting up loss1/relu_fc
I0403 15:37:33.434103 20093 net.cpp:148] Top shape: 24 1024 (24576)
I0403 15:37:33.434118 20093 net.cpp:156] Memory required for data: 946091040
I0403 15:37:33.434133 20093 layer_factory.hpp:77] Creating layer loss1/drop_fc
I0403 15:37:33.434159 20093 net.cpp:91] Creating Layer loss1/drop_fc
I0403 15:37:33.434176 20093 net.cpp:425] loss1/drop_fc <- loss1/fc
I0403 15:37:33.434196 20093 net.cpp:386] loss1/drop_fc -> loss1/fc (in-place)
I0403 15:37:33.434247 20093 net.cpp:141] Setting up loss1/drop_fc
I0403 15:37:33.434270 20093 net.cpp:148] Top shape: 24 1024 (24576)
I0403 15:37:33.434285 20093 net.cpp:156] Memory required for data: 946189344
I0403 15:37:33.434299 20093 layer_factory.hpp:77] Creating layer loss1/classifier_plantvillage
I0403 15:37:33.434321 20093 net.cpp:91] Creating Layer loss1/classifier_plantvillage
I0403 15:37:33.434339 20093 net.cpp:425] loss1/classifier_plantvillage <- loss1/fc
I0403 15:37:33.434355 20093 net.cpp:399] loss1/classifier_plantvillage -> loss1/classifier_plantvillage
I0403 15:37:33.435261 20093 net.cpp:141] Setting up loss1/classifier_plantvillage
I0403 15:37:33.435291 20093 net.cpp:148] Top shape: 24 38 (912)
I0403 15:37:33.435307 20093 net.cpp:156] Memory required for data: 946192992
I0403 15:37:33.435323 20093 layer_factory.hpp:77] Creating layer loss1/classifier_plantvillage_loss1/classifier_plantvillage_0_split
I0403 15:37:33.435341 20093 net.cpp:91] Creating Layer loss1/classifier_plantvillage_loss1/classifier_plantvillage_0_split
I0403 15:37:33.435358 20093 net.cpp:425] loss1/classifier_plantvillage_loss1/classifier_plantvillage_0_split <- loss1/classifier_plantvillage
I0403 15:37:33.435374 20093 net.cpp:399] loss1/classifier_plantvillage_loss1/classifier_plantvillage_0_split -> loss1/classifier_plantvillage_loss1/classifier_plantvillage_0_split_0
I0403 15:37:33.435396 20093 net.cpp:399] loss1/classifier_plantvillage_loss1/classifier_plantvillage_0_split -> loss1/classifier_plantvillage_loss1/classifier_plantvillage_0_split_1
I0403 15:37:33.435418 20093 net.cpp:399] loss1/classifier_plantvillage_loss1/classifier_plantvillage_0_split -> loss1/classifier_plantvillage_loss1/classifier_plantvillage_0_split_2
I0403 15:37:33.435484 20093 net.cpp:141] Setting up loss1/classifier_plantvillage_loss1/classifier_plantvillage_0_split
I0403 15:37:33.435506 20093 net.cpp:148] Top shape: 24 38 (912)
I0403 15:37:33.435521 20093 net.cpp:148] Top shape: 24 38 (912)
I0403 15:37:33.435536 20093 net.cpp:148] Top shape: 24 38 (912)
I0403 15:37:33.435549 20093 net.cpp:156] Memory required for data: 946203936
I0403 15:37:33.435564 20093 layer_factory.hpp:77] Creating layer inception_4b/1x1
I0403 15:37:33.435583 20093 net.cpp:91] Creating Layer inception_4b/1x1
I0403 15:37:33.435614 20093 net.cpp:425] inception_4b/1x1 <- inception_4a/output_inception_4a/output_0_split_1
I0403 15:37:33.435638 20093 net.cpp:399] inception_4b/1x1 -> inception_4b/1x1
I0403 15:37:33.437386 20093 net.cpp:141] Setting up inception_4b/1x1
I0403 15:37:33.437415 20093 net.cpp:148] Top shape: 24 160 14 14 (752640)
I0403 15:37:33.437430 20093 net.cpp:156] Memory required for data: 949214496
I0403 15:37:33.437449 20093 layer_factory.hpp:77] Creating layer inception_4b/relu_1x1
I0403 15:37:33.437468 20093 net.cpp:91] Creating Layer inception_4b/relu_1x1
I0403 15:37:33.437484 20093 net.cpp:425] inception_4b/relu_1x1 <- inception_4b/1x1
I0403 15:37:33.437502 20093 net.cpp:386] inception_4b/relu_1x1 -> inception_4b/1x1 (in-place)
I0403 15:37:33.437685 20093 net.cpp:141] Setting up inception_4b/relu_1x1
I0403 15:37:33.437711 20093 net.cpp:148] Top shape: 24 160 14 14 (752640)
I0403 15:37:33.437726 20093 net.cpp:156] Memory required for data: 952225056
I0403 15:37:33.437741 20093 layer_factory.hpp:77] Creating layer inception_4b/3x3_reduce
I0403 15:37:33.437763 20093 net.cpp:91] Creating Layer inception_4b/3x3_reduce
I0403 15:37:33.437780 20093 net.cpp:425] inception_4b/3x3_reduce <- inception_4a/output_inception_4a/output_0_split_2
I0403 15:37:33.437804 20093 net.cpp:399] inception_4b/3x3_reduce -> inception_4b/3x3_reduce
I0403 15:37:33.439205 20093 net.cpp:141] Setting up inception_4b/3x3_reduce
I0403 15:37:33.439234 20093 net.cpp:148] Top shape: 24 112 14 14 (526848)
I0403 15:37:33.439249 20093 net.cpp:156] Memory required for data: 954332448
I0403 15:37:33.439268 20093 layer_factory.hpp:77] Creating layer inception_4b/relu_3x3_reduce
I0403 15:37:33.439290 20093 net.cpp:91] Creating Layer inception_4b/relu_3x3_reduce
I0403 15:37:33.439307 20093 net.cpp:425] inception_4b/relu_3x3_reduce <- inception_4b/3x3_reduce
I0403 15:37:33.439324 20093 net.cpp:386] inception_4b/relu_3x3_reduce -> inception_4b/3x3_reduce (in-place)
I0403 15:37:33.439610 20093 net.cpp:141] Setting up inception_4b/relu_3x3_reduce
I0403 15:37:33.439637 20093 net.cpp:148] Top shape: 24 112 14 14 (526848)
I0403 15:37:33.439653 20093 net.cpp:156] Memory required for data: 956439840
I0403 15:37:33.439667 20093 layer_factory.hpp:77] Creating layer inception_4b/3x3
I0403 15:37:33.439690 20093 net.cpp:91] Creating Layer inception_4b/3x3
I0403 15:37:33.439708 20093 net.cpp:425] inception_4b/3x3 <- inception_4b/3x3_reduce
I0403 15:37:33.439728 20093 net.cpp:399] inception_4b/3x3 -> inception_4b/3x3
I0403 15:37:33.442795 20093 net.cpp:141] Setting up inception_4b/3x3
I0403 15:37:33.442827 20093 net.cpp:148] Top shape: 24 224 14 14 (1053696)
I0403 15:37:33.442844 20093 net.cpp:156] Memory required for data: 960654624
I0403 15:37:33.442863 20093 layer_factory.hpp:77] Creating layer inception_4b/relu_3x3
I0403 15:37:33.442883 20093 net.cpp:91] Creating Layer inception_4b/relu_3x3
I0403 15:37:33.442898 20093 net.cpp:425] inception_4b/relu_3x3 <- inception_4b/3x3
I0403 15:37:33.442915 20093 net.cpp:386] inception_4b/relu_3x3 -> inception_4b/3x3 (in-place)
I0403 15:37:33.443107 20093 net.cpp:141] Setting up inception_4b/relu_3x3
I0403 15:37:33.443132 20093 net.cpp:148] Top shape: 24 224 14 14 (1053696)
I0403 15:37:33.443147 20093 net.cpp:156] Memory required for data: 964869408
I0403 15:37:33.443162 20093 layer_factory.hpp:77] Creating layer inception_4b/5x5_reduce
I0403 15:37:33.443186 20093 net.cpp:91] Creating Layer inception_4b/5x5_reduce
I0403 15:37:33.443203 20093 net.cpp:425] inception_4b/5x5_reduce <- inception_4a/output_inception_4a/output_0_split_3
I0403 15:37:33.443225 20093 net.cpp:399] inception_4b/5x5_reduce -> inception_4b/5x5_reduce
I0403 15:37:33.444339 20093 net.cpp:141] Setting up inception_4b/5x5_reduce
I0403 15:37:33.444368 20093 net.cpp:148] Top shape: 24 24 14 14 (112896)
I0403 15:37:33.444385 20093 net.cpp:156] Memory required for data: 965320992
I0403 15:37:33.444402 20093 layer_factory.hpp:77] Creating layer inception_4b/relu_5x5_reduce
I0403 15:37:33.444423 20093 net.cpp:91] Creating Layer inception_4b/relu_5x5_reduce
I0403 15:37:33.444454 20093 net.cpp:425] inception_4b/relu_5x5_reduce <- inception_4b/5x5_reduce
I0403 15:37:33.444473 20093 net.cpp:386] inception_4b/relu_5x5_reduce -> inception_4b/5x5_reduce (in-place)
I0403 15:37:33.444661 20093 net.cpp:141] Setting up inception_4b/relu_5x5_reduce
I0403 15:37:33.444687 20093 net.cpp:148] Top shape: 24 24 14 14 (112896)
I0403 15:37:33.444701 20093 net.cpp:156] Memory required for data: 965772576
I0403 15:37:33.444716 20093 layer_factory.hpp:77] Creating layer inception_4b/5x5
I0403 15:37:33.444743 20093 net.cpp:91] Creating Layer inception_4b/5x5
I0403 15:37:33.444761 20093 net.cpp:425] inception_4b/5x5 <- inception_4b/5x5_reduce
I0403 15:37:33.444780 20093 net.cpp:399] inception_4b/5x5 -> inception_4b/5x5
I0403 15:37:33.446041 20093 net.cpp:141] Setting up inception_4b/5x5
I0403 15:37:33.446074 20093 net.cpp:148] Top shape: 24 64 14 14 (301056)
I0403 15:37:33.446089 20093 net.cpp:156] Memory required for data: 966976800
I0403 15:37:33.446108 20093 layer_factory.hpp:77] Creating layer inception_4b/relu_5x5
I0403 15:37:33.446127 20093 net.cpp:91] Creating Layer inception_4b/relu_5x5
I0403 15:37:33.446143 20093 net.cpp:425] inception_4b/relu_5x5 <- inception_4b/5x5
I0403 15:37:33.446162 20093 net.cpp:386] inception_4b/relu_5x5 -> inception_4b/5x5 (in-place)
I0403 15:37:33.446476 20093 net.cpp:141] Setting up inception_4b/relu_5x5
I0403 15:37:33.446503 20093 net.cpp:148] Top shape: 24 64 14 14 (301056)
I0403 15:37:33.446519 20093 net.cpp:156] Memory required for data: 968181024
I0403 15:37:33.446534 20093 layer_factory.hpp:77] Creating layer inception_4b/pool
I0403 15:37:33.446553 20093 net.cpp:91] Creating Layer inception_4b/pool
I0403 15:37:33.446570 20093 net.cpp:425] inception_4b/pool <- inception_4a/output_inception_4a/output_0_split_4
I0403 15:37:33.446591 20093 net.cpp:399] inception_4b/pool -> inception_4b/pool
I0403 15:37:33.446660 20093 net.cpp:141] Setting up inception_4b/pool
I0403 15:37:33.446686 20093 net.cpp:148] Top shape: 24 512 14 14 (2408448)
I0403 15:37:33.446701 20093 net.cpp:156] Memory required for data: 977814816
I0403 15:37:33.446714 20093 layer_factory.hpp:77] Creating layer inception_4b/pool_proj
I0403 15:37:33.446740 20093 net.cpp:91] Creating Layer inception_4b/pool_proj
I0403 15:37:33.446759 20093 net.cpp:425] inception_4b/pool_proj <- inception_4b/pool
I0403 15:37:33.446779 20093 net.cpp:399] inception_4b/pool_proj -> inception_4b/pool_proj
I0403 15:37:33.448091 20093 net.cpp:141] Setting up inception_4b/pool_proj
I0403 15:37:33.448120 20093 net.cpp:148] Top shape: 24 64 14 14 (301056)
I0403 15:37:33.448137 20093 net.cpp:156] Memory required for data: 979019040
I0403 15:37:33.448155 20093 layer_factory.hpp:77] Creating layer inception_4b/relu_pool_proj
I0403 15:37:33.448178 20093 net.cpp:91] Creating Layer inception_4b/relu_pool_proj
I0403 15:37:33.448194 20093 net.cpp:425] inception_4b/relu_pool_proj <- inception_4b/pool_proj
I0403 15:37:33.448212 20093 net.cpp:386] inception_4b/relu_pool_proj -> inception_4b/pool_proj (in-place)
I0403 15:37:33.448406 20093 net.cpp:141] Setting up inception_4b/relu_pool_proj
I0403 15:37:33.448434 20093 net.cpp:148] Top shape: 24 64 14 14 (301056)
I0403 15:37:33.448451 20093 net.cpp:156] Memory required for data: 980223264
I0403 15:37:33.448467 20093 layer_factory.hpp:77] Creating layer inception_4b/output
I0403 15:37:33.448484 20093 net.cpp:91] Creating Layer inception_4b/output
I0403 15:37:33.448500 20093 net.cpp:425] inception_4b/output <- inception_4b/1x1
I0403 15:37:33.448516 20093 net.cpp:425] inception_4b/output <- inception_4b/3x3
I0403 15:37:33.448534 20093 net.cpp:425] inception_4b/output <- inception_4b/5x5
I0403 15:37:33.448549 20093 net.cpp:425] inception_4b/output <- inception_4b/pool_proj
I0403 15:37:33.448566 20093 net.cpp:399] inception_4b/output -> inception_4b/output
I0403 15:37:33.448616 20093 net.cpp:141] Setting up inception_4b/output
I0403 15:37:33.448640 20093 net.cpp:148] Top shape: 24 512 14 14 (2408448)
I0403 15:37:33.448655 20093 net.cpp:156] Memory required for data: 989857056
I0403 15:37:33.448688 20093 layer_factory.hpp:77] Creating layer inception_4b/output_inception_4b/output_0_split
I0403 15:37:33.448706 20093 net.cpp:91] Creating Layer inception_4b/output_inception_4b/output_0_split
I0403 15:37:33.448722 20093 net.cpp:425] inception_4b/output_inception_4b/output_0_split <- inception_4b/output
I0403 15:37:33.448743 20093 net.cpp:399] inception_4b/output_inception_4b/output_0_split -> inception_4b/output_inception_4b/output_0_split_0
I0403 15:37:33.448765 20093 net.cpp:399] inception_4b/output_inception_4b/output_0_split -> inception_4b/output_inception_4b/output_0_split_1
I0403 15:37:33.448786 20093 net.cpp:399] inception_4b/output_inception_4b/output_0_split -> inception_4b/output_inception_4b/output_0_split_2
I0403 15:37:33.448807 20093 net.cpp:399] inception_4b/output_inception_4b/output_0_split -> inception_4b/output_inception_4b/output_0_split_3
I0403 15:37:33.448896 20093 net.cpp:141] Setting up inception_4b/output_inception_4b/output_0_split
I0403 15:37:33.448920 20093 net.cpp:148] Top shape: 24 512 14 14 (2408448)
I0403 15:37:33.448936 20093 net.cpp:148] Top shape: 24 512 14 14 (2408448)
I0403 15:37:33.448952 20093 net.cpp:148] Top shape: 24 512 14 14 (2408448)
I0403 15:37:33.448968 20093 net.cpp:148] Top shape: 24 512 14 14 (2408448)
I0403 15:37:33.448982 20093 net.cpp:156] Memory required for data: 1028392224
I0403 15:37:33.448997 20093 layer_factory.hpp:77] Creating layer inception_4c/1x1
I0403 15:37:33.449020 20093 net.cpp:91] Creating Layer inception_4c/1x1
I0403 15:37:33.449038 20093 net.cpp:425] inception_4c/1x1 <- inception_4b/output_inception_4b/output_0_split_0
I0403 15:37:33.449064 20093 net.cpp:399] inception_4c/1x1 -> inception_4c/1x1
I0403 15:37:33.450587 20093 net.cpp:141] Setting up inception_4c/1x1
I0403 15:37:33.450621 20093 net.cpp:148] Top shape: 24 128 14 14 (602112)
I0403 15:37:33.450639 20093 net.cpp:156] Memory required for data: 1030800672
I0403 15:37:33.450659 20093 layer_factory.hpp:77] Creating layer inception_4c/relu_1x1
I0403 15:37:33.450677 20093 net.cpp:91] Creating Layer inception_4c/relu_1x1
I0403 15:37:33.450695 20093 net.cpp:425] inception_4c/relu_1x1 <- inception_4c/1x1
I0403 15:37:33.450713 20093 net.cpp:386] inception_4c/relu_1x1 -> inception_4c/1x1 (in-place)
I0403 15:37:33.450908 20093 net.cpp:141] Setting up inception_4c/relu_1x1
I0403 15:37:33.450937 20093 net.cpp:148] Top shape: 24 128 14 14 (602112)
I0403 15:37:33.450953 20093 net.cpp:156] Memory required for data: 1033209120
I0403 15:37:33.450968 20093 layer_factory.hpp:77] Creating layer inception_4c/3x3_reduce
I0403 15:37:33.450991 20093 net.cpp:91] Creating Layer inception_4c/3x3_reduce
I0403 15:37:33.451010 20093 net.cpp:425] inception_4c/3x3_reduce <- inception_4b/output_inception_4b/output_0_split_1
I0403 15:37:33.451031 20093 net.cpp:399] inception_4c/3x3_reduce -> inception_4c/3x3_reduce
I0403 15:37:33.453105 20093 net.cpp:141] Setting up inception_4c/3x3_reduce
I0403 15:37:33.453136 20093 net.cpp:148] Top shape: 24 128 14 14 (602112)
I0403 15:37:33.453153 20093 net.cpp:156] Memory required for data: 1035617568
I0403 15:37:33.453172 20093 layer_factory.hpp:77] Creating layer inception_4c/relu_3x3_reduce
I0403 15:37:33.453191 20093 net.cpp:91] Creating Layer inception_4c/relu_3x3_reduce
I0403 15:37:33.453215 20093 net.cpp:425] inception_4c/relu_3x3_reduce <- inception_4c/3x3_reduce
I0403 15:37:33.453233 20093 net.cpp:386] inception_4c/relu_3x3_reduce -> inception_4c/3x3_reduce (in-place)
I0403 15:37:33.453536 20093 net.cpp:141] Setting up inception_4c/relu_3x3_reduce
I0403 15:37:33.453563 20093 net.cpp:148] Top shape: 24 128 14 14 (602112)
I0403 15:37:33.453578 20093 net.cpp:156] Memory required for data: 1038026016
I0403 15:37:33.453594 20093 layer_factory.hpp:77] Creating layer inception_4c/3x3
I0403 15:37:33.453618 20093 net.cpp:91] Creating Layer inception_4c/3x3
I0403 15:37:33.453636 20093 net.cpp:425] inception_4c/3x3 <- inception_4c/3x3_reduce
I0403 15:37:33.453660 20093 net.cpp:399] inception_4c/3x3 -> inception_4c/3x3
I0403 15:37:33.457428 20093 net.cpp:141] Setting up inception_4c/3x3
I0403 15:37:33.457473 20093 net.cpp:148] Top shape: 24 256 14 14 (1204224)
I0403 15:37:33.457489 20093 net.cpp:156] Memory required for data: 1042842912
I0403 15:37:33.457523 20093 layer_factory.hpp:77] Creating layer inception_4c/relu_3x3
I0403 15:37:33.457543 20093 net.cpp:91] Creating Layer inception_4c/relu_3x3
I0403 15:37:33.457559 20093 net.cpp:425] inception_4c/relu_3x3 <- inception_4c/3x3
I0403 15:37:33.457579 20093 net.cpp:386] inception_4c/relu_3x3 -> inception_4c/3x3 (in-place)
I0403 15:37:33.457768 20093 net.cpp:141] Setting up inception_4c/relu_3x3
I0403 15:37:33.457794 20093 net.cpp:148] Top shape: 24 256 14 14 (1204224)
I0403 15:37:33.457808 20093 net.cpp:156] Memory required for data: 1047659808
I0403 15:37:33.457824 20093 layer_factory.hpp:77] Creating layer inception_4c/5x5_reduce
I0403 15:37:33.457846 20093 net.cpp:91] Creating Layer inception_4c/5x5_reduce
I0403 15:37:33.457864 20093 net.cpp:425] inception_4c/5x5_reduce <- inception_4b/output_inception_4b/output_0_split_2
I0403 15:37:33.457885 20093 net.cpp:399] inception_4c/5x5_reduce -> inception_4c/5x5_reduce
I0403 15:37:33.459020 20093 net.cpp:141] Setting up inception_4c/5x5_reduce
I0403 15:37:33.459059 20093 net.cpp:148] Top shape: 24 24 14 14 (112896)
I0403 15:37:33.459079 20093 net.cpp:156] Memory required for data: 1048111392
I0403 15:37:33.459096 20093 layer_factory.hpp:77] Creating layer inception_4c/relu_5x5_reduce
I0403 15:37:33.459117 20093 net.cpp:91] Creating Layer inception_4c/relu_5x5_reduce
I0403 15:37:33.459134 20093 net.cpp:425] inception_4c/relu_5x5_reduce <- inception_4c/5x5_reduce
I0403 15:37:33.459151 20093 net.cpp:386] inception_4c/relu_5x5_reduce -> inception_4c/5x5_reduce (in-place)
I0403 15:37:33.459339 20093 net.cpp:141] Setting up inception_4c/relu_5x5_reduce
I0403 15:37:33.459364 20093 net.cpp:148] Top shape: 24 24 14 14 (112896)
I0403 15:37:33.459379 20093 net.cpp:156] Memory required for data: 1048562976
I0403 15:37:33.459393 20093 layer_factory.hpp:77] Creating layer inception_4c/5x5
I0403 15:37:33.459417 20093 net.cpp:91] Creating Layer inception_4c/5x5
I0403 15:37:33.459435 20093 net.cpp:425] inception_4c/5x5 <- inception_4c/5x5_reduce
I0403 15:37:33.459455 20093 net.cpp:399] inception_4c/5x5 -> inception_4c/5x5
I0403 15:37:33.460748 20093 net.cpp:141] Setting up inception_4c/5x5
I0403 15:37:33.460777 20093 net.cpp:148] Top shape: 24 64 14 14 (301056)
I0403 15:37:33.460794 20093 net.cpp:156] Memory required for data: 1049767200
I0403 15:37:33.460813 20093 layer_factory.hpp:77] Creating layer inception_4c/relu_5x5
I0403 15:37:33.460831 20093 net.cpp:91] Creating Layer inception_4c/relu_5x5
I0403 15:37:33.460847 20093 net.cpp:425] inception_4c/relu_5x5 <- inception_4c/5x5
I0403 15:37:33.460863 20093 net.cpp:386] inception_4c/relu_5x5 -> inception_4c/5x5 (in-place)
I0403 15:37:33.461169 20093 net.cpp:141] Setting up inception_4c/relu_5x5
I0403 15:37:33.461195 20093 net.cpp:148] Top shape: 24 64 14 14 (301056)
I0403 15:37:33.461216 20093 net.cpp:156] Memory required for data: 1050971424
I0403 15:37:33.461231 20093 layer_factory.hpp:77] Creating layer inception_4c/pool
I0403 15:37:33.461249 20093 net.cpp:91] Creating Layer inception_4c/pool
I0403 15:37:33.461266 20093 net.cpp:425] inception_4c/pool <- inception_4b/output_inception_4b/output_0_split_3
I0403 15:37:33.461283 20093 net.cpp:399] inception_4c/pool -> inception_4c/pool
I0403 15:37:33.461351 20093 net.cpp:141] Setting up inception_4c/pool
I0403 15:37:33.461375 20093 net.cpp:148] Top shape: 24 512 14 14 (2408448)
I0403 15:37:33.461390 20093 net.cpp:156] Memory required for data: 1060605216
I0403 15:37:33.461405 20093 layer_factory.hpp:77] Creating layer inception_4c/pool_proj
I0403 15:37:33.461427 20093 net.cpp:91] Creating Layer inception_4c/pool_proj
I0403 15:37:33.461446 20093 net.cpp:425] inception_4c/pool_proj <- inception_4c/pool
I0403 15:37:33.461467 20093 net.cpp:399] inception_4c/pool_proj -> inception_4c/pool_proj
I0403 15:37:33.462738 20093 net.cpp:141] Setting up inception_4c/pool_proj
I0403 15:37:33.462766 20093 net.cpp:148] Top shape: 24 64 14 14 (301056)
I0403 15:37:33.462796 20093 net.cpp:156] Memory required for data: 1061809440
I0403 15:37:33.462816 20093 layer_factory.hpp:77] Creating layer inception_4c/relu_pool_proj
I0403 15:37:33.462836 20093 net.cpp:91] Creating Layer inception_4c/relu_pool_proj
I0403 15:37:33.462852 20093 net.cpp:425] inception_4c/relu_pool_proj <- inception_4c/pool_proj
I0403 15:37:33.462872 20093 net.cpp:386] inception_4c/relu_pool_proj -> inception_4c/pool_proj (in-place)
I0403 15:37:33.463066 20093 net.cpp:141] Setting up inception_4c/relu_pool_proj
I0403 15:37:33.463091 20093 net.cpp:148] Top shape: 24 64 14 14 (301056)
I0403 15:37:33.463106 20093 net.cpp:156] Memory required for data: 1063013664
I0403 15:37:33.463121 20093 layer_factory.hpp:77] Creating layer inception_4c/output
I0403 15:37:33.463140 20093 net.cpp:91] Creating Layer inception_4c/output
I0403 15:37:33.463157 20093 net.cpp:425] inception_4c/output <- inception_4c/1x1
I0403 15:37:33.463174 20093 net.cpp:425] inception_4c/output <- inception_4c/3x3
I0403 15:37:33.463189 20093 net.cpp:425] inception_4c/output <- inception_4c/5x5
I0403 15:37:33.463207 20093 net.cpp:425] inception_4c/output <- inception_4c/pool_proj
I0403 15:37:33.463223 20093 net.cpp:399] inception_4c/output -> inception_4c/output
I0403 15:37:33.463271 20093 net.cpp:141] Setting up inception_4c/output
I0403 15:37:33.463295 20093 net.cpp:148] Top shape: 24 512 14 14 (2408448)
I0403 15:37:33.463310 20093 net.cpp:156] Memory required for data: 1072647456
I0403 15:37:33.463325 20093 layer_factory.hpp:77] Creating layer inception_4c/output_inception_4c/output_0_split
I0403 15:37:33.463341 20093 net.cpp:91] Creating Layer inception_4c/output_inception_4c/output_0_split
I0403 15:37:33.463356 20093 net.cpp:425] inception_4c/output_inception_4c/output_0_split <- inception_4c/output
I0403 15:37:33.463376 20093 net.cpp:399] inception_4c/output_inception_4c/output_0_split -> inception_4c/output_inception_4c/output_0_split_0
I0403 15:37:33.463397 20093 net.cpp:399] inception_4c/output_inception_4c/output_0_split -> inception_4c/output_inception_4c/output_0_split_1
I0403 15:37:33.463418 20093 net.cpp:399] inception_4c/output_inception_4c/output_0_split -> inception_4c/output_inception_4c/output_0_split_2
I0403 15:37:33.463438 20093 net.cpp:399] inception_4c/output_inception_4c/output_0_split -> inception_4c/output_inception_4c/output_0_split_3
I0403 15:37:33.463524 20093 net.cpp:141] Setting up inception_4c/output_inception_4c/output_0_split
I0403 15:37:33.463548 20093 net.cpp:148] Top shape: 24 512 14 14 (2408448)
I0403 15:37:33.463564 20093 net.cpp:148] Top shape: 24 512 14 14 (2408448)
I0403 15:37:33.463580 20093 net.cpp:148] Top shape: 24 512 14 14 (2408448)
I0403 15:37:33.463598 20093 net.cpp:148] Top shape: 24 512 14 14 (2408448)
I0403 15:37:33.463611 20093 net.cpp:156] Memory required for data: 1111182624
I0403 15:37:33.463625 20093 layer_factory.hpp:77] Creating layer inception_4d/1x1
I0403 15:37:33.463647 20093 net.cpp:91] Creating Layer inception_4d/1x1
I0403 15:37:33.463665 20093 net.cpp:425] inception_4d/1x1 <- inception_4c/output_inception_4c/output_0_split_0
I0403 15:37:33.463686 20093 net.cpp:399] inception_4d/1x1 -> inception_4d/1x1
I0403 15:37:33.465116 20093 net.cpp:141] Setting up inception_4d/1x1
I0403 15:37:33.465149 20093 net.cpp:148] Top shape: 24 112 14 14 (526848)
I0403 15:37:33.465165 20093 net.cpp:156] Memory required for data: 1113290016
I0403 15:37:33.465184 20093 layer_factory.hpp:77] Creating layer inception_4d/relu_1x1
I0403 15:37:33.465203 20093 net.cpp:91] Creating Layer inception_4d/relu_1x1
I0403 15:37:33.465219 20093 net.cpp:425] inception_4d/relu_1x1 <- inception_4d/1x1
I0403 15:37:33.465239 20093 net.cpp:386] inception_4d/relu_1x1 -> inception_4d/1x1 (in-place)
I0403 15:37:33.465430 20093 net.cpp:141] Setting up inception_4d/relu_1x1
I0403 15:37:33.465454 20093 net.cpp:148] Top shape: 24 112 14 14 (526848)
I0403 15:37:33.465469 20093 net.cpp:156] Memory required for data: 1115397408
I0403 15:37:33.465483 20093 layer_factory.hpp:77] Creating layer inception_4d/3x3_reduce
I0403 15:37:33.465520 20093 net.cpp:91] Creating Layer inception_4d/3x3_reduce
I0403 15:37:33.465540 20093 net.cpp:425] inception_4d/3x3_reduce <- inception_4c/output_inception_4c/output_0_split_1
I0403 15:37:33.465561 20093 net.cpp:399] inception_4d/3x3_reduce -> inception_4d/3x3_reduce
I0403 15:37:33.467118 20093 net.cpp:141] Setting up inception_4d/3x3_reduce
I0403 15:37:33.467145 20093 net.cpp:148] Top shape: 24 144 14 14 (677376)
I0403 15:37:33.467161 20093 net.cpp:156] Memory required for data: 1118106912
I0403 15:37:33.467180 20093 layer_factory.hpp:77] Creating layer inception_4d/relu_3x3_reduce
I0403 15:37:33.467200 20093 net.cpp:91] Creating Layer inception_4d/relu_3x3_reduce
I0403 15:37:33.467218 20093 net.cpp:425] inception_4d/relu_3x3_reduce <- inception_4d/3x3_reduce
I0403 15:37:33.467236 20093 net.cpp:386] inception_4d/relu_3x3_reduce -> inception_4d/3x3_reduce (in-place)
I0403 15:37:33.467531 20093 net.cpp:141] Setting up inception_4d/relu_3x3_reduce
I0403 15:37:33.467558 20093 net.cpp:148] Top shape: 24 144 14 14 (677376)
I0403 15:37:33.467573 20093 net.cpp:156] Memory required for data: 1120816416
I0403 15:37:33.467587 20093 layer_factory.hpp:77] Creating layer inception_4d/3x3
I0403 15:37:33.467612 20093 net.cpp:91] Creating Layer inception_4d/3x3
I0403 15:37:33.467629 20093 net.cpp:425] inception_4d/3x3 <- inception_4d/3x3_reduce
I0403 15:37:33.467648 20093 net.cpp:399] inception_4d/3x3 -> inception_4d/3x3
I0403 15:37:33.472059 20093 net.cpp:141] Setting up inception_4d/3x3
I0403 15:37:33.472091 20093 net.cpp:148] Top shape: 24 288 14 14 (1354752)
I0403 15:37:33.472108 20093 net.cpp:156] Memory required for data: 1126235424
I0403 15:37:33.472127 20093 layer_factory.hpp:77] Creating layer inception_4d/relu_3x3
I0403 15:37:33.472146 20093 net.cpp:91] Creating Layer inception_4d/relu_3x3
I0403 15:37:33.472162 20093 net.cpp:425] inception_4d/relu_3x3 <- inception_4d/3x3
I0403 15:37:33.472182 20093 net.cpp:386] inception_4d/relu_3x3 -> inception_4d/3x3 (in-place)
I0403 15:37:33.472373 20093 net.cpp:141] Setting up inception_4d/relu_3x3
I0403 15:37:33.472400 20093 net.cpp:148] Top shape: 24 288 14 14 (1354752)
I0403 15:37:33.472415 20093 net.cpp:156] Memory required for data: 1131654432
I0403 15:37:33.472430 20093 layer_factory.hpp:77] Creating layer inception_4d/5x5_reduce
I0403 15:37:33.472452 20093 net.cpp:91] Creating Layer inception_4d/5x5_reduce
I0403 15:37:33.472470 20093 net.cpp:425] inception_4d/5x5_reduce <- inception_4c/output_inception_4c/output_0_split_2
I0403 15:37:33.472491 20093 net.cpp:399] inception_4d/5x5_reduce -> inception_4d/5x5_reduce
I0403 15:37:33.473678 20093 net.cpp:141] Setting up inception_4d/5x5_reduce
I0403 15:37:33.473707 20093 net.cpp:148] Top shape: 24 32 14 14 (150528)
I0403 15:37:33.473722 20093 net.cpp:156] Memory required for data: 1132256544
I0403 15:37:33.473742 20093 layer_factory.hpp:77] Creating layer inception_4d/relu_5x5_reduce
I0403 15:37:33.473759 20093 net.cpp:91] Creating Layer inception_4d/relu_5x5_reduce
I0403 15:37:33.473774 20093 net.cpp:425] inception_4d/relu_5x5_reduce <- inception_4d/5x5_reduce
I0403 15:37:33.473794 20093 net.cpp:386] inception_4d/relu_5x5_reduce -> inception_4d/5x5_reduce (in-place)
I0403 15:37:33.473986 20093 net.cpp:141] Setting up inception_4d/relu_5x5_reduce
I0403 15:37:33.474012 20093 net.cpp:148] Top shape: 24 32 14 14 (150528)
I0403 15:37:33.474026 20093 net.cpp:156] Memory required for data: 1132858656
I0403 15:37:33.474041 20093 layer_factory.hpp:77] Creating layer inception_4d/5x5
I0403 15:37:33.474086 20093 net.cpp:91] Creating Layer inception_4d/5x5
I0403 15:37:33.474104 20093 net.cpp:425] inception_4d/5x5 <- inception_4d/5x5_reduce
I0403 15:37:33.474126 20093 net.cpp:399] inception_4d/5x5 -> inception_4d/5x5
I0403 15:37:33.475713 20093 net.cpp:141] Setting up inception_4d/5x5
I0403 15:37:33.475741 20093 net.cpp:148] Top shape: 24 64 14 14 (301056)
I0403 15:37:33.475757 20093 net.cpp:156] Memory required for data: 1134062880
I0403 15:37:33.475777 20093 layer_factory.hpp:77] Creating layer inception_4d/relu_5x5
I0403 15:37:33.475814 20093 net.cpp:91] Creating Layer inception_4d/relu_5x5
I0403 15:37:33.475833 20093 net.cpp:425] inception_4d/relu_5x5 <- inception_4d/5x5
I0403 15:37:33.475852 20093 net.cpp:386] inception_4d/relu_5x5 -> inception_4d/5x5 (in-place)
I0403 15:37:33.476176 20093 net.cpp:141] Setting up inception_4d/relu_5x5
I0403 15:37:33.476203 20093 net.cpp:148] Top shape: 24 64 14 14 (301056)
I0403 15:37:33.476219 20093 net.cpp:156] Memory required for data: 1135267104
I0403 15:37:33.476234 20093 layer_factory.hpp:77] Creating layer inception_4d/pool
I0403 15:37:33.476255 20093 net.cpp:91] Creating Layer inception_4d/pool
I0403 15:37:33.476274 20093 net.cpp:425] inception_4d/pool <- inception_4c/output_inception_4c/output_0_split_3
I0403 15:37:33.476291 20093 net.cpp:399] inception_4d/pool -> inception_4d/pool
I0403 15:37:33.476366 20093 net.cpp:141] Setting up inception_4d/pool
I0403 15:37:33.476392 20093 net.cpp:148] Top shape: 24 512 14 14 (2408448)
I0403 15:37:33.476407 20093 net.cpp:156] Memory required for data: 1144900896
I0403 15:37:33.476421 20093 layer_factory.hpp:77] Creating layer inception_4d/pool_proj
I0403 15:37:33.476444 20093 net.cpp:91] Creating Layer inception_4d/pool_proj
I0403 15:37:33.476464 20093 net.cpp:425] inception_4d/pool_proj <- inception_4d/pool
I0403 15:37:33.476485 20093 net.cpp:399] inception_4d/pool_proj -> inception_4d/pool_proj
I0403 15:37:33.478382 20093 net.cpp:141] Setting up inception_4d/pool_proj
I0403 15:37:33.478415 20093 net.cpp:148] Top shape: 24 64 14 14 (301056)
I0403 15:37:33.478431 20093 net.cpp:156] Memory required for data: 1146105120
I0403 15:37:33.478451 20093 layer_factory.hpp:77] Creating layer inception_4d/relu_pool_proj
I0403 15:37:33.478471 20093 net.cpp:91] Creating Layer inception_4d/relu_pool_proj
I0403 15:37:33.478487 20093 net.cpp:425] inception_4d/relu_pool_proj <- inception_4d/pool_proj
I0403 15:37:33.478507 20093 net.cpp:386] inception_4d/relu_pool_proj -> inception_4d/pool_proj (in-place)
I0403 15:37:33.478705 20093 net.cpp:141] Setting up inception_4d/relu_pool_proj
I0403 15:37:33.478731 20093 net.cpp:148] Top shape: 24 64 14 14 (301056)
I0403 15:37:33.478747 20093 net.cpp:156] Memory required for data: 1147309344
I0403 15:37:33.478762 20093 layer_factory.hpp:77] Creating layer inception_4d/output
I0403 15:37:33.478780 20093 net.cpp:91] Creating Layer inception_4d/output
I0403 15:37:33.478796 20093 net.cpp:425] inception_4d/output <- inception_4d/1x1
I0403 15:37:33.478813 20093 net.cpp:425] inception_4d/output <- inception_4d/3x3
I0403 15:37:33.478831 20093 net.cpp:425] inception_4d/output <- inception_4d/5x5
I0403 15:37:33.478847 20093 net.cpp:425] inception_4d/output <- inception_4d/pool_proj
I0403 15:37:33.478866 20093 net.cpp:399] inception_4d/output -> inception_4d/output
I0403 15:37:33.478919 20093 net.cpp:141] Setting up inception_4d/output
I0403 15:37:33.478943 20093 net.cpp:148] Top shape: 24 528 14 14 (2483712)
I0403 15:37:33.478958 20093 net.cpp:156] Memory required for data: 1157244192
I0403 15:37:33.478973 20093 layer_factory.hpp:77] Creating layer inception_4d/output_inception_4d/output_0_split
I0403 15:37:33.478991 20093 net.cpp:91] Creating Layer inception_4d/output_inception_4d/output_0_split
I0403 15:37:33.479007 20093 net.cpp:425] inception_4d/output_inception_4d/output_0_split <- inception_4d/output
I0403 15:37:33.479028 20093 net.cpp:399] inception_4d/output_inception_4d/output_0_split -> inception_4d/output_inception_4d/output_0_split_0
I0403 15:37:33.479061 20093 net.cpp:399] inception_4d/output_inception_4d/output_0_split -> inception_4d/output_inception_4d/output_0_split_1
I0403 15:37:33.479087 20093 net.cpp:399] inception_4d/output_inception_4d/output_0_split -> inception_4d/output_inception_4d/output_0_split_2
I0403 15:37:33.479110 20093 net.cpp:399] inception_4d/output_inception_4d/output_0_split -> inception_4d/output_inception_4d/output_0_split_3
I0403 15:37:33.479130 20093 net.cpp:399] inception_4d/output_inception_4d/output_0_split -> inception_4d/output_inception_4d/output_0_split_4
I0403 15:37:33.479238 20093 net.cpp:141] Setting up inception_4d/output_inception_4d/output_0_split
I0403 15:37:33.479279 20093 net.cpp:148] Top shape: 24 528 14 14 (2483712)
I0403 15:37:33.479297 20093 net.cpp:148] Top shape: 24 528 14 14 (2483712)
I0403 15:37:33.479313 20093 net.cpp:148] Top shape: 24 528 14 14 (2483712)
I0403 15:37:33.479329 20093 net.cpp:148] Top shape: 24 528 14 14 (2483712)
I0403 15:37:33.479346 20093 net.cpp:148] Top shape: 24 528 14 14 (2483712)
I0403 15:37:33.479360 20093 net.cpp:156] Memory required for data: 1206918432
I0403 15:37:33.479375 20093 layer_factory.hpp:77] Creating layer loss2/ave_pool
I0403 15:37:33.479393 20093 net.cpp:91] Creating Layer loss2/ave_pool
I0403 15:37:33.479410 20093 net.cpp:425] loss2/ave_pool <- inception_4d/output_inception_4d/output_0_split_0
I0403 15:37:33.479434 20093 net.cpp:399] loss2/ave_pool -> loss2/ave_pool
I0403 15:37:33.479766 20093 net.cpp:141] Setting up loss2/ave_pool
I0403 15:37:33.479797 20093 net.cpp:148] Top shape: 24 528 4 4 (202752)
I0403 15:37:33.479814 20093 net.cpp:156] Memory required for data: 1207729440
I0403 15:37:33.479830 20093 layer_factory.hpp:77] Creating layer loss2/conv
I0403 15:37:33.479851 20093 net.cpp:91] Creating Layer loss2/conv
I0403 15:37:33.479871 20093 net.cpp:425] loss2/conv <- loss2/ave_pool
I0403 15:37:33.479892 20093 net.cpp:399] loss2/conv -> loss2/conv
I0403 15:37:33.481922 20093 net.cpp:141] Setting up loss2/conv
I0403 15:37:33.481952 20093 net.cpp:148] Top shape: 24 128 4 4 (49152)
I0403 15:37:33.481968 20093 net.cpp:156] Memory required for data: 1207926048
I0403 15:37:33.481987 20093 layer_factory.hpp:77] Creating layer loss2/relu_conv
I0403 15:37:33.482008 20093 net.cpp:91] Creating Layer loss2/relu_conv
I0403 15:37:33.482026 20093 net.cpp:425] loss2/relu_conv <- loss2/conv
I0403 15:37:33.482044 20093 net.cpp:386] loss2/relu_conv -> loss2/conv (in-place)
I0403 15:37:33.482353 20093 net.cpp:141] Setting up loss2/relu_conv
I0403 15:37:33.482381 20093 net.cpp:148] Top shape: 24 128 4 4 (49152)
I0403 15:37:33.482396 20093 net.cpp:156] Memory required for data: 1208122656
I0403 15:37:33.482412 20093 layer_factory.hpp:77] Creating layer loss2/fc
I0403 15:37:33.482434 20093 net.cpp:91] Creating Layer loss2/fc
I0403 15:37:33.482452 20093 net.cpp:425] loss2/fc <- loss2/conv
I0403 15:37:33.482473 20093 net.cpp:399] loss2/fc -> loss2/fc
I0403 15:37:33.500602 20093 net.cpp:141] Setting up loss2/fc
I0403 15:37:33.500646 20093 net.cpp:148] Top shape: 24 1024 (24576)
I0403 15:37:33.500661 20093 net.cpp:156] Memory required for data: 1208220960
I0403 15:37:33.500679 20093 layer_factory.hpp:77] Creating layer loss2/relu_fc
I0403 15:37:33.500697 20093 net.cpp:91] Creating Layer loss2/relu_fc
I0403 15:37:33.500713 20093 net.cpp:425] loss2/relu_fc <- loss2/fc
I0403 15:37:33.500732 20093 net.cpp:386] loss2/relu_fc -> loss2/fc (in-place)
I0403 15:37:33.501042 20093 net.cpp:141] Setting up loss2/relu_fc
I0403 15:37:33.501070 20093 net.cpp:148] Top shape: 24 1024 (24576)
I0403 15:37:33.501085 20093 net.cpp:156] Memory required for data: 1208319264
I0403 15:37:33.501101 20093 layer_factory.hpp:77] Creating layer loss2/drop_fc
I0403 15:37:33.501117 20093 net.cpp:91] Creating Layer loss2/drop_fc
I0403 15:37:33.501132 20093 net.cpp:425] loss2/drop_fc <- loss2/fc
I0403 15:37:33.501152 20093 net.cpp:386] loss2/drop_fc -> loss2/fc (in-place)
I0403 15:37:33.501200 20093 net.cpp:141] Setting up loss2/drop_fc
I0403 15:37:33.501224 20093 net.cpp:148] Top shape: 24 1024 (24576)
I0403 15:37:33.501240 20093 net.cpp:156] Memory required for data: 1208417568
I0403 15:37:33.501253 20093 layer_factory.hpp:77] Creating layer loss2/classifier_plantvillage
I0403 15:37:33.501271 20093 net.cpp:91] Creating Layer loss2/classifier_plantvillage
I0403 15:37:33.501286 20093 net.cpp:425] loss2/classifier_plantvillage <- loss2/fc
I0403 15:37:33.501305 20093 net.cpp:399] loss2/classifier_plantvillage -> loss2/classifier_plantvillage
I0403 15:37:33.501708 20093 net.cpp:141] Setting up loss2/classifier_plantvillage
I0403 15:37:33.501731 20093 net.cpp:148] Top shape: 24 38 (912)
I0403 15:37:33.501765 20093 net.cpp:156] Memory required for data: 1208421216
I0403 15:37:33.501785 20093 layer_factory.hpp:77] Creating layer loss2/classifier_plantvillage_loss2/classifier_plantvillage_0_split
I0403 15:37:33.501804 20093 net.cpp:91] Creating Layer loss2/classifier_plantvillage_loss2/classifier_plantvillage_0_split
I0403 15:37:33.501821 20093 net.cpp:425] loss2/classifier_plantvillage_loss2/classifier_plantvillage_0_split <- loss2/classifier_plantvillage
I0403 15:37:33.501837 20093 net.cpp:399] loss2/classifier_plantvillage_loss2/classifier_plantvillage_0_split -> loss2/classifier_plantvillage_loss2/classifier_plantvillage_0_split_0
I0403 15:37:33.501857 20093 net.cpp:399] loss2/classifier_plantvillage_loss2/classifier_plantvillage_0_split -> loss2/classifier_plantvillage_loss2/classifier_plantvillage_0_split_1
I0403 15:37:33.501881 20093 net.cpp:399] loss2/classifier_plantvillage_loss2/classifier_plantvillage_0_split -> loss2/classifier_plantvillage_loss2/classifier_plantvillage_0_split_2
I0403 15:37:33.501956 20093 net.cpp:141] Setting up loss2/classifier_plantvillage_loss2/classifier_plantvillage_0_split
I0403 15:37:33.501978 20093 net.cpp:148] Top shape: 24 38 (912)
I0403 15:37:33.501993 20093 net.cpp:148] Top shape: 24 38 (912)
I0403 15:37:33.502008 20093 net.cpp:148] Top shape: 24 38 (912)
I0403 15:37:33.502022 20093 net.cpp:156] Memory required for data: 1208432160
I0403 15:37:33.502035 20093 layer_factory.hpp:77] Creating layer inception_4e/1x1
I0403 15:37:33.502060 20093 net.cpp:91] Creating Layer inception_4e/1x1
I0403 15:37:33.502079 20093 net.cpp:425] inception_4e/1x1 <- inception_4d/output_inception_4d/output_0_split_1
I0403 15:37:33.502096 20093 net.cpp:399] inception_4e/1x1 -> inception_4e/1x1
I0403 15:37:33.503886 20093 net.cpp:141] Setting up inception_4e/1x1
I0403 15:37:33.503913 20093 net.cpp:148] Top shape: 24 256 14 14 (1204224)
I0403 15:37:33.503928 20093 net.cpp:156] Memory required for data: 1213249056
I0403 15:37:33.503945 20093 layer_factory.hpp:77] Creating layer inception_4e/relu_1x1
I0403 15:37:33.503965 20093 net.cpp:91] Creating Layer inception_4e/relu_1x1
I0403 15:37:33.503981 20093 net.cpp:425] inception_4e/relu_1x1 <- inception_4e/1x1
I0403 15:37:33.503998 20093 net.cpp:386] inception_4e/relu_1x1 -> inception_4e/1x1 (in-place)
I0403 15:37:33.504293 20093 net.cpp:141] Setting up inception_4e/relu_1x1
I0403 15:37:33.504318 20093 net.cpp:148] Top shape: 24 256 14 14 (1204224)
I0403 15:37:33.504333 20093 net.cpp:156] Memory required for data: 1218065952
I0403 15:37:33.504348 20093 layer_factory.hpp:77] Creating layer inception_4e/3x3_reduce
I0403 15:37:33.504369 20093 net.cpp:91] Creating Layer inception_4e/3x3_reduce
I0403 15:37:33.504385 20093 net.cpp:425] inception_4e/3x3_reduce <- inception_4d/output_inception_4d/output_0_split_2
I0403 15:37:33.504405 20093 net.cpp:399] inception_4e/3x3_reduce -> inception_4e/3x3_reduce
I0403 15:37:33.506485 20093 net.cpp:141] Setting up inception_4e/3x3_reduce
I0403 15:37:33.506513 20093 net.cpp:148] Top shape: 24 160 14 14 (752640)
I0403 15:37:33.506528 20093 net.cpp:156] Memory required for data: 1221076512
I0403 15:37:33.506546 20093 layer_factory.hpp:77] Creating layer inception_4e/relu_3x3_reduce
I0403 15:37:33.506566 20093 net.cpp:91] Creating Layer inception_4e/relu_3x3_reduce
I0403 15:37:33.506582 20093 net.cpp:425] inception_4e/relu_3x3_reduce <- inception_4e/3x3_reduce
I0403 15:37:33.506597 20093 net.cpp:386] inception_4e/relu_3x3_reduce -> inception_4e/3x3_reduce (in-place)
I0403 15:37:33.506778 20093 net.cpp:141] Setting up inception_4e/relu_3x3_reduce
I0403 15:37:33.506816 20093 net.cpp:148] Top shape: 24 160 14 14 (752640)
I0403 15:37:33.506831 20093 net.cpp:156] Memory required for data: 1224087072
I0403 15:37:33.506845 20093 layer_factory.hpp:77] Creating layer inception_4e/3x3
I0403 15:37:33.506867 20093 net.cpp:91] Creating Layer inception_4e/3x3
I0403 15:37:33.506886 20093 net.cpp:425] inception_4e/3x3 <- inception_4e/3x3_reduce
I0403 15:37:33.506903 20093 net.cpp:399] inception_4e/3x3 -> inception_4e/3x3
I0403 15:37:33.511817 20093 net.cpp:141] Setting up inception_4e/3x3
I0403 15:37:33.511859 20093 net.cpp:148] Top shape: 24 320 14 14 (1505280)
I0403 15:37:33.511876 20093 net.cpp:156] Memory required for data: 1230108192
I0403 15:37:33.511894 20093 layer_factory.hpp:77] Creating layer inception_4e/relu_3x3
I0403 15:37:33.511910 20093 net.cpp:91] Creating Layer inception_4e/relu_3x3
I0403 15:37:33.511926 20093 net.cpp:425] inception_4e/relu_3x3 <- inception_4e/3x3
I0403 15:37:33.511942 20093 net.cpp:386] inception_4e/relu_3x3 -> inception_4e/3x3 (in-place)
I0403 15:37:33.512239 20093 net.cpp:141] Setting up inception_4e/relu_3x3
I0403 15:37:33.512265 20093 net.cpp:148] Top shape: 24 320 14 14 (1505280)
I0403 15:37:33.512279 20093 net.cpp:156] Memory required for data: 1236129312
I0403 15:37:33.512293 20093 layer_factory.hpp:77] Creating layer inception_4e/5x5_reduce
I0403 15:37:33.512315 20093 net.cpp:91] Creating Layer inception_4e/5x5_reduce
I0403 15:37:33.512332 20093 net.cpp:425] inception_4e/5x5_reduce <- inception_4d/output_inception_4d/output_0_split_3
I0403 15:37:33.512353 20093 net.cpp:399] inception_4e/5x5_reduce -> inception_4e/5x5_reduce
I0403 15:37:33.513401 20093 net.cpp:141] Setting up inception_4e/5x5_reduce
I0403 15:37:33.513428 20093 net.cpp:148] Top shape: 24 32 14 14 (150528)
I0403 15:37:33.513443 20093 net.cpp:156] Memory required for data: 1236731424
I0403 15:37:33.513460 20093 layer_factory.hpp:77] Creating layer inception_4e/relu_5x5_reduce
I0403 15:37:33.513480 20093 net.cpp:91] Creating Layer inception_4e/relu_5x5_reduce
I0403 15:37:33.513496 20093 net.cpp:425] inception_4e/relu_5x5_reduce <- inception_4e/5x5_reduce
I0403 15:37:33.513512 20093 net.cpp:386] inception_4e/relu_5x5_reduce -> inception_4e/5x5_reduce (in-place)
I0403 15:37:33.513808 20093 net.cpp:141] Setting up inception_4e/relu_5x5_reduce
I0403 15:37:33.513833 20093 net.cpp:148] Top shape: 24 32 14 14 (150528)
I0403 15:37:33.513846 20093 net.cpp:156] Memory required for data: 1237333536
I0403 15:37:33.513860 20093 layer_factory.hpp:77] Creating layer inception_4e/5x5
I0403 15:37:33.513898 20093 net.cpp:91] Creating Layer inception_4e/5x5
I0403 15:37:33.513916 20093 net.cpp:425] inception_4e/5x5 <- inception_4e/5x5_reduce
I0403 15:37:33.513934 20093 net.cpp:399] inception_4e/5x5 -> inception_4e/5x5
I0403 15:37:33.515736 20093 net.cpp:141] Setting up inception_4e/5x5
I0403 15:37:33.515763 20093 net.cpp:148] Top shape: 24 128 14 14 (602112)
I0403 15:37:33.515779 20093 net.cpp:156] Memory required for data: 1239741984
I0403 15:37:33.515796 20093 layer_factory.hpp:77] Creating layer inception_4e/relu_5x5
I0403 15:37:33.515816 20093 net.cpp:91] Creating Layer inception_4e/relu_5x5
I0403 15:37:33.515833 20093 net.cpp:425] inception_4e/relu_5x5 <- inception_4e/5x5
I0403 15:37:33.515849 20093 net.cpp:386] inception_4e/relu_5x5 -> inception_4e/5x5 (in-place)
I0403 15:37:33.516039 20093 net.cpp:141] Setting up inception_4e/relu_5x5
I0403 15:37:33.516067 20093 net.cpp:148] Top shape: 24 128 14 14 (602112)
I0403 15:37:33.516082 20093 net.cpp:156] Memory required for data: 1242150432
I0403 15:37:33.516095 20093 layer_factory.hpp:77] Creating layer inception_4e/pool
I0403 15:37:33.516115 20093 net.cpp:91] Creating Layer inception_4e/pool
I0403 15:37:33.516131 20093 net.cpp:425] inception_4e/pool <- inception_4d/output_inception_4d/output_0_split_4
I0403 15:37:33.516149 20093 net.cpp:399] inception_4e/pool -> inception_4e/pool
I0403 15:37:33.516217 20093 net.cpp:141] Setting up inception_4e/pool
I0403 15:37:33.516240 20093 net.cpp:148] Top shape: 24 528 14 14 (2483712)
I0403 15:37:33.516254 20093 net.cpp:156] Memory required for data: 1252085280
I0403 15:37:33.516268 20093 layer_factory.hpp:77] Creating layer inception_4e/pool_proj
I0403 15:37:33.516288 20093 net.cpp:91] Creating Layer inception_4e/pool_proj
I0403 15:37:33.516304 20093 net.cpp:425] inception_4e/pool_proj <- inception_4e/pool
I0403 15:37:33.516324 20093 net.cpp:399] inception_4e/pool_proj -> inception_4e/pool_proj
I0403 15:37:33.517781 20093 net.cpp:141] Setting up inception_4e/pool_proj
I0403 15:37:33.517820 20093 net.cpp:148] Top shape: 24 128 14 14 (602112)
I0403 15:37:33.517837 20093 net.cpp:156] Memory required for data: 1254493728
I0403 15:37:33.517854 20093 layer_factory.hpp:77] Creating layer inception_4e/relu_pool_proj
I0403 15:37:33.517871 20093 net.cpp:91] Creating Layer inception_4e/relu_pool_proj
I0403 15:37:33.517886 20093 net.cpp:425] inception_4e/relu_pool_proj <- inception_4e/pool_proj
I0403 15:37:33.517904 20093 net.cpp:386] inception_4e/relu_pool_proj -> inception_4e/pool_proj (in-place)
I0403 15:37:33.518193 20093 net.cpp:141] Setting up inception_4e/relu_pool_proj
I0403 15:37:33.518220 20093 net.cpp:148] Top shape: 24 128 14 14 (602112)
I0403 15:37:33.518234 20093 net.cpp:156] Memory required for data: 1256902176
I0403 15:37:33.518249 20093 layer_factory.hpp:77] Creating layer inception_4e/output
I0403 15:37:33.518265 20093 net.cpp:91] Creating Layer inception_4e/output
I0403 15:37:33.518280 20093 net.cpp:425] inception_4e/output <- inception_4e/1x1
I0403 15:37:33.518296 20093 net.cpp:425] inception_4e/output <- inception_4e/3x3
I0403 15:37:33.518311 20093 net.cpp:425] inception_4e/output <- inception_4e/5x5
I0403 15:37:33.518326 20093 net.cpp:425] inception_4e/output <- inception_4e/pool_proj
I0403 15:37:33.518344 20093 net.cpp:399] inception_4e/output -> inception_4e/output
I0403 15:37:33.518393 20093 net.cpp:141] Setting up inception_4e/output
I0403 15:37:33.518415 20093 net.cpp:148] Top shape: 24 832 14 14 (3913728)
I0403 15:37:33.518429 20093 net.cpp:156] Memory required for data: 1272557088
I0403 15:37:33.518442 20093 layer_factory.hpp:77] Creating layer pool4/3x3_s2
I0403 15:37:33.518461 20093 net.cpp:91] Creating Layer pool4/3x3_s2
I0403 15:37:33.518477 20093 net.cpp:425] pool4/3x3_s2 <- inception_4e/output
I0403 15:37:33.518494 20093 net.cpp:399] pool4/3x3_s2 -> pool4/3x3_s2
I0403 15:37:33.518563 20093 net.cpp:141] Setting up pool4/3x3_s2
I0403 15:37:33.518585 20093 net.cpp:148] Top shape: 24 832 7 7 (978432)
I0403 15:37:33.518599 20093 net.cpp:156] Memory required for data: 1276470816
I0403 15:37:33.518613 20093 layer_factory.hpp:77] Creating layer pool4/3x3_s2_pool4/3x3_s2_0_split
I0403 15:37:33.518631 20093 net.cpp:91] Creating Layer pool4/3x3_s2_pool4/3x3_s2_0_split
I0403 15:37:33.518647 20093 net.cpp:425] pool4/3x3_s2_pool4/3x3_s2_0_split <- pool4/3x3_s2
I0403 15:37:33.518663 20093 net.cpp:399] pool4/3x3_s2_pool4/3x3_s2_0_split -> pool4/3x3_s2_pool4/3x3_s2_0_split_0
I0403 15:37:33.518682 20093 net.cpp:399] pool4/3x3_s2_pool4/3x3_s2_0_split -> pool4/3x3_s2_pool4/3x3_s2_0_split_1
I0403 15:37:33.518702 20093 net.cpp:399] pool4/3x3_s2_pool4/3x3_s2_0_split -> pool4/3x3_s2_pool4/3x3_s2_0_split_2
I0403 15:37:33.518719 20093 net.cpp:399] pool4/3x3_s2_pool4/3x3_s2_0_split -> pool4/3x3_s2_pool4/3x3_s2_0_split_3
I0403 15:37:33.518810 20093 net.cpp:141] Setting up pool4/3x3_s2_pool4/3x3_s2_0_split
I0403 15:37:33.518831 20093 net.cpp:148] Top shape: 24 832 7 7 (978432)
I0403 15:37:33.518846 20093 net.cpp:148] Top shape: 24 832 7 7 (978432)
I0403 15:37:33.518862 20093 net.cpp:148] Top shape: 24 832 7 7 (978432)
I0403 15:37:33.518875 20093 net.cpp:148] Top shape: 24 832 7 7 (978432)
I0403 15:37:33.518888 20093 net.cpp:156] Memory required for data: 1292125728
I0403 15:37:33.518903 20093 layer_factory.hpp:77] Creating layer inception_5a/1x1
I0403 15:37:33.518923 20093 net.cpp:91] Creating Layer inception_5a/1x1
I0403 15:37:33.518940 20093 net.cpp:425] inception_5a/1x1 <- pool4/3x3_s2_pool4/3x3_s2_0_split_0
I0403 15:37:33.518960 20093 net.cpp:399] inception_5a/1x1 -> inception_5a/1x1
I0403 15:37:33.521761 20093 net.cpp:141] Setting up inception_5a/1x1
I0403 15:37:33.521790 20093 net.cpp:148] Top shape: 24 256 7 7 (301056)
I0403 15:37:33.521806 20093 net.cpp:156] Memory required for data: 1293329952
I0403 15:37:33.521823 20093 layer_factory.hpp:77] Creating layer inception_5a/relu_1x1
I0403 15:37:33.521843 20093 net.cpp:91] Creating Layer inception_5a/relu_1x1
I0403 15:37:33.521858 20093 net.cpp:425] inception_5a/relu_1x1 <- inception_5a/1x1
I0403 15:37:33.521874 20093 net.cpp:386] inception_5a/relu_1x1 -> inception_5a/1x1 (in-place)
I0403 15:37:33.522187 20093 net.cpp:141] Setting up inception_5a/relu_1x1
I0403 15:37:33.522213 20093 net.cpp:148] Top shape: 24 256 7 7 (301056)
I0403 15:37:33.522228 20093 net.cpp:156] Memory required for data: 1294534176
I0403 15:37:33.522243 20093 layer_factory.hpp:77] Creating layer inception_5a/3x3_reduce
I0403 15:37:33.522264 20093 net.cpp:91] Creating Layer inception_5a/3x3_reduce
I0403 15:37:33.522281 20093 net.cpp:425] inception_5a/3x3_reduce <- pool4/3x3_s2_pool4/3x3_s2_0_split_1
I0403 15:37:33.522302 20093 net.cpp:399] inception_5a/3x3_reduce -> inception_5a/3x3_reduce
I0403 15:37:33.524744 20093 net.cpp:141] Setting up inception_5a/3x3_reduce
I0403 15:37:33.524773 20093 net.cpp:148] Top shape: 24 160 7 7 (188160)
I0403 15:37:33.524790 20093 net.cpp:156] Memory required for data: 1295286816
I0403 15:37:33.524806 20093 layer_factory.hpp:77] Creating layer inception_5a/relu_3x3_reduce
I0403 15:37:33.524823 20093 net.cpp:91] Creating Layer inception_5a/relu_3x3_reduce
I0403 15:37:33.524838 20093 net.cpp:425] inception_5a/relu_3x3_reduce <- inception_5a/3x3_reduce
I0403 15:37:33.524857 20093 net.cpp:386] inception_5a/relu_3x3_reduce -> inception_5a/3x3_reduce (in-place)
I0403 15:37:33.525039 20093 net.cpp:141] Setting up inception_5a/relu_3x3_reduce
I0403 15:37:33.525068 20093 net.cpp:148] Top shape: 24 160 7 7 (188160)
I0403 15:37:33.525082 20093 net.cpp:156] Memory required for data: 1296039456
I0403 15:37:33.525095 20093 layer_factory.hpp:77] Creating layer inception_5a/3x3
I0403 15:37:33.525116 20093 net.cpp:91] Creating Layer inception_5a/3x3
I0403 15:37:33.525133 20093 net.cpp:425] inception_5a/3x3 <- inception_5a/3x3_reduce
I0403 15:37:33.525153 20093 net.cpp:399] inception_5a/3x3 -> inception_5a/3x3
I0403 15:37:33.530066 20093 net.cpp:141] Setting up inception_5a/3x3
I0403 15:37:33.530094 20093 net.cpp:148] Top shape: 24 320 7 7 (376320)
I0403 15:37:33.530110 20093 net.cpp:156] Memory required for data: 1297544736
I0403 15:37:33.530128 20093 layer_factory.hpp:77] Creating layer inception_5a/relu_3x3
I0403 15:37:33.530148 20093 net.cpp:91] Creating Layer inception_5a/relu_3x3
I0403 15:37:33.530164 20093 net.cpp:425] inception_5a/relu_3x3 <- inception_5a/3x3
I0403 15:37:33.530181 20093 net.cpp:386] inception_5a/relu_3x3 -> inception_5a/3x3 (in-place)
I0403 15:37:33.530467 20093 net.cpp:141] Setting up inception_5a/relu_3x3
I0403 15:37:33.530493 20093 net.cpp:148] Top shape: 24 320 7 7 (376320)
I0403 15:37:33.530508 20093 net.cpp:156] Memory required for data: 1299050016
I0403 15:37:33.530521 20093 layer_factory.hpp:77] Creating layer inception_5a/5x5_reduce
I0403 15:37:33.530544 20093 net.cpp:91] Creating Layer inception_5a/5x5_reduce
I0403 15:37:33.530562 20093 net.cpp:425] inception_5a/5x5_reduce <- pool4/3x3_s2_pool4/3x3_s2_0_split_2
I0403 15:37:33.530585 20093 net.cpp:399] inception_5a/5x5_reduce -> inception_5a/5x5_reduce
I0403 15:37:33.531723 20093 net.cpp:141] Setting up inception_5a/5x5_reduce
I0403 15:37:33.531750 20093 net.cpp:148] Top shape: 24 32 7 7 (37632)
I0403 15:37:33.531765 20093 net.cpp:156] Memory required for data: 1299200544
I0403 15:37:33.531783 20093 layer_factory.hpp:77] Creating layer inception_5a/relu_5x5_reduce
I0403 15:37:33.531802 20093 net.cpp:91] Creating Layer inception_5a/relu_5x5_reduce
I0403 15:37:33.531818 20093 net.cpp:425] inception_5a/relu_5x5_reduce <- inception_5a/5x5_reduce
I0403 15:37:33.531834 20093 net.cpp:386] inception_5a/relu_5x5_reduce -> inception_5a/5x5_reduce (in-place)
I0403 15:37:33.532176 20093 net.cpp:141] Setting up inception_5a/relu_5x5_reduce
I0403 15:37:33.532202 20093 net.cpp:148] Top shape: 24 32 7 7 (37632)
I0403 15:37:33.532217 20093 net.cpp:156] Memory required for data: 1299351072
I0403 15:37:33.532232 20093 layer_factory.hpp:77] Creating layer inception_5a/5x5
I0403 15:37:33.532268 20093 net.cpp:91] Creating Layer inception_5a/5x5
I0403 15:37:33.532285 20093 net.cpp:425] inception_5a/5x5 <- inception_5a/5x5_reduce
I0403 15:37:33.532305 20093 net.cpp:399] inception_5a/5x5 -> inception_5a/5x5
I0403 15:37:33.534045 20093 net.cpp:141] Setting up inception_5a/5x5
I0403 15:37:33.534090 20093 net.cpp:148] Top shape: 24 128 7 7 (150528)
I0403 15:37:33.534112 20093 net.cpp:156] Memory required for data: 1299953184
I0403 15:37:33.534132 20093 layer_factory.hpp:77] Creating layer inception_5a/relu_5x5
I0403 15:37:33.534162 20093 net.cpp:91] Creating Layer inception_5a/relu_5x5
I0403 15:37:33.534179 20093 net.cpp:425] inception_5a/relu_5x5 <- inception_5a/5x5
I0403 15:37:33.534198 20093 net.cpp:386] inception_5a/relu_5x5 -> inception_5a/5x5 (in-place)
I0403 15:37:33.534389 20093 net.cpp:141] Setting up inception_5a/relu_5x5
I0403 15:37:33.534417 20093 net.cpp:148] Top shape: 24 128 7 7 (150528)
I0403 15:37:33.534437 20093 net.cpp:156] Memory required for data: 1300555296
I0403 15:37:33.534457 20093 layer_factory.hpp:77] Creating layer inception_5a/pool
I0403 15:37:33.534479 20093 net.cpp:91] Creating Layer inception_5a/pool
I0403 15:37:33.534507 20093 net.cpp:425] inception_5a/pool <- pool4/3x3_s2_pool4/3x3_s2_0_split_3
I0403 15:37:33.534535 20093 net.cpp:399] inception_5a/pool -> inception_5a/pool
I0403 15:37:33.534615 20093 net.cpp:141] Setting up inception_5a/pool
I0403 15:37:33.534638 20093 net.cpp:148] Top shape: 24 832 7 7 (978432)
I0403 15:37:33.534652 20093 net.cpp:156] Memory required for data: 1304469024
I0403 15:37:33.534665 20093 layer_factory.hpp:77] Creating layer inception_5a/pool_proj
I0403 15:37:33.534687 20093 net.cpp:91] Creating Layer inception_5a/pool_proj
I0403 15:37:33.534704 20093 net.cpp:425] inception_5a/pool_proj <- inception_5a/pool
I0403 15:37:33.534725 20093 net.cpp:399] inception_5a/pool_proj -> inception_5a/pool_proj
I0403 15:37:33.537148 20093 net.cpp:141] Setting up inception_5a/pool_proj
I0403 15:37:33.537179 20093 net.cpp:148] Top shape: 24 128 7 7 (150528)
I0403 15:37:33.537195 20093 net.cpp:156] Memory required for data: 1305071136
I0403 15:37:33.537214 20093 layer_factory.hpp:77] Creating layer inception_5a/relu_pool_proj
I0403 15:37:33.537232 20093 net.cpp:91] Creating Layer inception_5a/relu_pool_proj
I0403 15:37:33.537250 20093 net.cpp:425] inception_5a/relu_pool_proj <- inception_5a/pool_proj
I0403 15:37:33.537269 20093 net.cpp:386] inception_5a/relu_pool_proj -> inception_5a/pool_proj (in-place)
I0403 15:37:33.537580 20093 net.cpp:141] Setting up inception_5a/relu_pool_proj
I0403 15:37:33.537607 20093 net.cpp:148] Top shape: 24 128 7 7 (150528)
I0403 15:37:33.537622 20093 net.cpp:156] Memory required for data: 1305673248
I0403 15:37:33.537637 20093 layer_factory.hpp:77] Creating layer inception_5a/output
I0403 15:37:33.537654 20093 net.cpp:91] Creating Layer inception_5a/output
I0403 15:37:33.537670 20093 net.cpp:425] inception_5a/output <- inception_5a/1x1
I0403 15:37:33.537686 20093 net.cpp:425] inception_5a/output <- inception_5a/3x3
I0403 15:37:33.537703 20093 net.cpp:425] inception_5a/output <- inception_5a/5x5
I0403 15:37:33.537719 20093 net.cpp:425] inception_5a/output <- inception_5a/pool_proj
I0403 15:37:33.537737 20093 net.cpp:399] inception_5a/output -> inception_5a/output
I0403 15:37:33.537789 20093 net.cpp:141] Setting up inception_5a/output
I0403 15:37:33.537818 20093 net.cpp:148] Top shape: 24 832 7 7 (978432)
I0403 15:37:33.537833 20093 net.cpp:156] Memory required for data: 1309586976
I0403 15:37:33.537849 20093 layer_factory.hpp:77] Creating layer inception_5a/output_inception_5a/output_0_split
I0403 15:37:33.537866 20093 net.cpp:91] Creating Layer inception_5a/output_inception_5a/output_0_split
I0403 15:37:33.537883 20093 net.cpp:425] inception_5a/output_inception_5a/output_0_split <- inception_5a/output
I0403 15:37:33.537899 20093 net.cpp:399] inception_5a/output_inception_5a/output_0_split -> inception_5a/output_inception_5a/output_0_split_0
I0403 15:37:33.537919 20093 net.cpp:399] inception_5a/output_inception_5a/output_0_split -> inception_5a/output_inception_5a/output_0_split_1
I0403 15:37:33.537941 20093 net.cpp:399] inception_5a/output_inception_5a/output_0_split -> inception_5a/output_inception_5a/output_0_split_2
I0403 15:37:33.537964 20093 net.cpp:399] inception_5a/output_inception_5a/output_0_split -> inception_5a/output_inception_5a/output_0_split_3
I0403 15:37:33.538089 20093 net.cpp:141] Setting up inception_5a/output_inception_5a/output_0_split
I0403 15:37:33.538115 20093 net.cpp:148] Top shape: 24 832 7 7 (978432)
I0403 15:37:33.538130 20093 net.cpp:148] Top shape: 24 832 7 7 (978432)
I0403 15:37:33.538146 20093 net.cpp:148] Top shape: 24 832 7 7 (978432)
I0403 15:37:33.538161 20093 net.cpp:148] Top shape: 24 832 7 7 (978432)
I0403 15:37:33.538175 20093 net.cpp:156] Memory required for data: 1325241888
I0403 15:37:33.538190 20093 layer_factory.hpp:77] Creating layer inception_5b/1x1
I0403 15:37:33.538213 20093 net.cpp:91] Creating Layer inception_5b/1x1
I0403 15:37:33.538231 20093 net.cpp:425] inception_5b/1x1 <- inception_5a/output_inception_5a/output_0_split_0
I0403 15:37:33.538252 20093 net.cpp:399] inception_5b/1x1 -> inception_5b/1x1
I0403 15:37:33.542161 20093 net.cpp:141] Setting up inception_5b/1x1
I0403 15:37:33.542194 20093 net.cpp:148] Top shape: 24 384 7 7 (451584)
I0403 15:37:33.542213 20093 net.cpp:156] Memory required for data: 1327048224
I0403 15:37:33.542232 20093 layer_factory.hpp:77] Creating layer inception_5b/relu_1x1
I0403 15:37:33.542251 20093 net.cpp:91] Creating Layer inception_5b/relu_1x1
I0403 15:37:33.542268 20093 net.cpp:425] inception_5b/relu_1x1 <- inception_5b/1x1
I0403 15:37:33.542287 20093 net.cpp:386] inception_5b/relu_1x1 -> inception_5b/1x1 (in-place)
I0403 15:37:33.542601 20093 net.cpp:141] Setting up inception_5b/relu_1x1
I0403 15:37:33.542630 20093 net.cpp:148] Top shape: 24 384 7 7 (451584)
I0403 15:37:33.542646 20093 net.cpp:156] Memory required for data: 1328854560
I0403 15:37:33.542662 20093 layer_factory.hpp:77] Creating layer inception_5b/3x3_reduce
I0403 15:37:33.542685 20093 net.cpp:91] Creating Layer inception_5b/3x3_reduce
I0403 15:37:33.542702 20093 net.cpp:425] inception_5b/3x3_reduce <- inception_5a/output_inception_5a/output_0_split_1
I0403 15:37:33.542722 20093 net.cpp:399] inception_5b/3x3_reduce -> inception_5b/3x3_reduce
I0403 15:37:33.545506 20093 net.cpp:141] Setting up inception_5b/3x3_reduce
I0403 15:37:33.545537 20093 net.cpp:148] Top shape: 24 192 7 7 (225792)
I0403 15:37:33.545553 20093 net.cpp:156] Memory required for data: 1329757728
I0403 15:37:33.545572 20093 layer_factory.hpp:77] Creating layer inception_5b/relu_3x3_reduce
I0403 15:37:33.545589 20093 net.cpp:91] Creating Layer inception_5b/relu_3x3_reduce
I0403 15:37:33.545606 20093 net.cpp:425] inception_5b/relu_3x3_reduce <- inception_5b/3x3_reduce
I0403 15:37:33.545625 20093 net.cpp:386] inception_5b/relu_3x3_reduce -> inception_5b/3x3_reduce (in-place)
I0403 15:37:33.545824 20093 net.cpp:141] Setting up inception_5b/relu_3x3_reduce
I0403 15:37:33.545850 20093 net.cpp:148] Top shape: 24 192 7 7 (225792)
I0403 15:37:33.545864 20093 net.cpp:156] Memory required for data: 1330660896
I0403 15:37:33.545879 20093 layer_factory.hpp:77] Creating layer inception_5b/3x3
I0403 15:37:33.545902 20093 net.cpp:91] Creating Layer inception_5b/3x3
I0403 15:37:33.545919 20093 net.cpp:425] inception_5b/3x3 <- inception_5b/3x3_reduce
I0403 15:37:33.545940 20093 net.cpp:399] inception_5b/3x3 -> inception_5b/3x3
I0403 15:37:33.554924 20093 net.cpp:141] Setting up inception_5b/3x3
I0403 15:37:33.554956 20093 net.cpp:148] Top shape: 24 384 7 7 (451584)
I0403 15:37:33.554971 20093 net.cpp:156] Memory required for data: 1332467232
I0403 15:37:33.554991 20093 layer_factory.hpp:77] Creating layer inception_5b/relu_3x3
I0403 15:37:33.555008 20093 net.cpp:91] Creating Layer inception_5b/relu_3x3
I0403 15:37:33.555024 20093 net.cpp:425] inception_5b/relu_3x3 <- inception_5b/3x3
I0403 15:37:33.555044 20093 net.cpp:386] inception_5b/relu_3x3 -> inception_5b/3x3 (in-place)
I0403 15:37:33.555351 20093 net.cpp:141] Setting up inception_5b/relu_3x3
I0403 15:37:33.555377 20093 net.cpp:148] Top shape: 24 384 7 7 (451584)
I0403 15:37:33.555392 20093 net.cpp:156] Memory required for data: 1334273568
I0403 15:37:33.555405 20093 layer_factory.hpp:77] Creating layer inception_5b/5x5_reduce
I0403 15:37:33.555446 20093 net.cpp:91] Creating Layer inception_5b/5x5_reduce
I0403 15:37:33.555466 20093 net.cpp:425] inception_5b/5x5_reduce <- inception_5a/output_inception_5a/output_0_split_2
I0403 15:37:33.555488 20093 net.cpp:399] inception_5b/5x5_reduce -> inception_5b/5x5_reduce
I0403 15:37:33.556782 20093 net.cpp:141] Setting up inception_5b/5x5_reduce
I0403 15:37:33.556813 20093 net.cpp:148] Top shape: 24 48 7 7 (56448)
I0403 15:37:33.556829 20093 net.cpp:156] Memory required for data: 1334499360
I0403 15:37:33.556848 20093 layer_factory.hpp:77] Creating layer inception_5b/relu_5x5_reduce
I0403 15:37:33.556865 20093 net.cpp:91] Creating Layer inception_5b/relu_5x5_reduce
I0403 15:37:33.556882 20093 net.cpp:425] inception_5b/relu_5x5_reduce <- inception_5b/5x5_reduce
I0403 15:37:33.556901 20093 net.cpp:386] inception_5b/relu_5x5_reduce -> inception_5b/5x5_reduce (in-place)
I0403 15:37:33.557288 20093 net.cpp:141] Setting up inception_5b/relu_5x5_reduce
I0403 15:37:33.557314 20093 net.cpp:148] Top shape: 24 48 7 7 (56448)
I0403 15:37:33.557329 20093 net.cpp:156] Memory required for data: 1334725152
I0403 15:37:33.557344 20093 layer_factory.hpp:77] Creating layer inception_5b/5x5
I0403 15:37:33.557364 20093 net.cpp:91] Creating Layer inception_5b/5x5
I0403 15:37:33.557381 20093 net.cpp:425] inception_5b/5x5 <- inception_5b/5x5_reduce
I0403 15:37:33.557400 20093 net.cpp:399] inception_5b/5x5 -> inception_5b/5x5
I0403 15:37:33.559499 20093 net.cpp:141] Setting up inception_5b/5x5
I0403 15:37:33.559526 20093 net.cpp:148] Top shape: 24 128 7 7 (150528)
I0403 15:37:33.559541 20093 net.cpp:156] Memory required for data: 1335327264
I0403 15:37:33.559559 20093 layer_factory.hpp:77] Creating layer inception_5b/relu_5x5
I0403 15:37:33.559581 20093 net.cpp:91] Creating Layer inception_5b/relu_5x5
I0403 15:37:33.559597 20093 net.cpp:425] inception_5b/relu_5x5 <- inception_5b/5x5
I0403 15:37:33.559614 20093 net.cpp:386] inception_5b/relu_5x5 -> inception_5b/5x5 (in-place)
I0403 15:37:33.559806 20093 net.cpp:141] Setting up inception_5b/relu_5x5
I0403 15:37:33.559830 20093 net.cpp:148] Top shape: 24 128 7 7 (150528)
I0403 15:37:33.559849 20093 net.cpp:156] Memory required for data: 1335929376
I0403 15:37:33.559864 20093 layer_factory.hpp:77] Creating layer inception_5b/pool
I0403 15:37:33.559881 20093 net.cpp:91] Creating Layer inception_5b/pool
I0403 15:37:33.559897 20093 net.cpp:425] inception_5b/pool <- inception_5a/output_inception_5a/output_0_split_3
I0403 15:37:33.559916 20093 net.cpp:399] inception_5b/pool -> inception_5b/pool
I0403 15:37:33.559989 20093 net.cpp:141] Setting up inception_5b/pool
I0403 15:37:33.560014 20093 net.cpp:148] Top shape: 24 832 7 7 (978432)
I0403 15:37:33.560027 20093 net.cpp:156] Memory required for data: 1339843104
I0403 15:37:33.560041 20093 layer_factory.hpp:77] Creating layer inception_5b/pool_proj
I0403 15:37:33.560068 20093 net.cpp:91] Creating Layer inception_5b/pool_proj
I0403 15:37:33.560087 20093 net.cpp:425] inception_5b/pool_proj <- inception_5b/pool
I0403 15:37:33.560108 20093 net.cpp:399] inception_5b/pool_proj -> inception_5b/pool_proj
I0403 15:37:33.562450 20093 net.cpp:141] Setting up inception_5b/pool_proj
I0403 15:37:33.562481 20093 net.cpp:148] Top shape: 24 128 7 7 (150528)
I0403 15:37:33.562497 20093 net.cpp:156] Memory required for data: 1340445216
I0403 15:37:33.562515 20093 layer_factory.hpp:77] Creating layer inception_5b/relu_pool_proj
I0403 15:37:33.562533 20093 net.cpp:91] Creating Layer inception_5b/relu_pool_proj
I0403 15:37:33.562552 20093 net.cpp:425] inception_5b/relu_pool_proj <- inception_5b/pool_proj
I0403 15:37:33.562569 20093 net.cpp:386] inception_5b/relu_pool_proj -> inception_5b/pool_proj (in-place)
I0403 15:37:33.562868 20093 net.cpp:141] Setting up inception_5b/relu_pool_proj
I0403 15:37:33.562894 20093 net.cpp:148] Top shape: 24 128 7 7 (150528)
I0403 15:37:33.562909 20093 net.cpp:156] Memory required for data: 1341047328
I0403 15:37:33.562923 20093 layer_factory.hpp:77] Creating layer inception_5b/output
I0403 15:37:33.562942 20093 net.cpp:91] Creating Layer inception_5b/output
I0403 15:37:33.562971 20093 net.cpp:425] inception_5b/output <- inception_5b/1x1
I0403 15:37:33.562989 20093 net.cpp:425] inception_5b/output <- inception_5b/3x3
I0403 15:37:33.563005 20093 net.cpp:425] inception_5b/output <- inception_5b/5x5
I0403 15:37:33.563021 20093 net.cpp:425] inception_5b/output <- inception_5b/pool_proj
I0403 15:37:33.563041 20093 net.cpp:399] inception_5b/output -> inception_5b/output
I0403 15:37:33.563098 20093 net.cpp:141] Setting up inception_5b/output
I0403 15:37:33.563124 20093 net.cpp:148] Top shape: 24 1024 7 7 (1204224)
I0403 15:37:33.563139 20093 net.cpp:156] Memory required for data: 1345864224
I0403 15:37:33.563154 20093 layer_factory.hpp:77] Creating layer pool5/7x7_s1
I0403 15:37:33.563171 20093 net.cpp:91] Creating Layer pool5/7x7_s1
I0403 15:37:33.563186 20093 net.cpp:425] pool5/7x7_s1 <- inception_5b/output
I0403 15:37:33.563208 20093 net.cpp:399] pool5/7x7_s1 -> pool5/7x7_s1
I0403 15:37:33.563423 20093 net.cpp:141] Setting up pool5/7x7_s1
I0403 15:37:33.563448 20093 net.cpp:148] Top shape: 24 1024 1 1 (24576)
I0403 15:37:33.563463 20093 net.cpp:156] Memory required for data: 1345962528
I0403 15:37:33.563477 20093 layer_factory.hpp:77] Creating layer pool5/drop_7x7_s1
I0403 15:37:33.563495 20093 net.cpp:91] Creating Layer pool5/drop_7x7_s1
I0403 15:37:33.563511 20093 net.cpp:425] pool5/drop_7x7_s1 <- pool5/7x7_s1
I0403 15:37:33.563531 20093 net.cpp:386] pool5/drop_7x7_s1 -> pool5/7x7_s1 (in-place)
I0403 15:37:33.563582 20093 net.cpp:141] Setting up pool5/drop_7x7_s1
I0403 15:37:33.563609 20093 net.cpp:148] Top shape: 24 1024 1 1 (24576)
I0403 15:37:33.563626 20093 net.cpp:156] Memory required for data: 1346060832
I0403 15:37:33.563639 20093 layer_factory.hpp:77] Creating layer loss3/classifier_plantvillage
I0403 15:37:33.563657 20093 net.cpp:91] Creating Layer loss3/classifier_plantvillage
I0403 15:37:33.563673 20093 net.cpp:425] loss3/classifier_plantvillage <- pool5/7x7_s1
I0403 15:37:33.563694 20093 net.cpp:399] loss3/classifier_plantvillage -> loss3/classifier_plantvillage
I0403 15:37:33.564131 20093 net.cpp:141] Setting up loss3/classifier_plantvillage
I0403 15:37:33.564157 20093 net.cpp:148] Top shape: 24 38 (912)
I0403 15:37:33.564173 20093 net.cpp:156] Memory required for data: 1346064480
I0403 15:37:33.564190 20093 layer_factory.hpp:77] Creating layer loss3/classifier_plantvillage_loss3/classifier_plantvillage_0_split
I0403 15:37:33.564208 20093 net.cpp:91] Creating Layer loss3/classifier_plantvillage_loss3/classifier_plantvillage_0_split
I0403 15:37:33.564224 20093 net.cpp:425] loss3/classifier_plantvillage_loss3/classifier_plantvillage_0_split <- loss3/classifier_plantvillage
I0403 15:37:33.564240 20093 net.cpp:399] loss3/classifier_plantvillage_loss3/classifier_plantvillage_0_split -> loss3/classifier_plantvillage_loss3/classifier_plantvillage_0_split_0
I0403 15:37:33.564260 20093 net.cpp:399] loss3/classifier_plantvillage_loss3/classifier_plantvillage_0_split -> loss3/classifier_plantvillage_loss3/classifier_plantvillage_0_split_1
I0403 15:37:33.564283 20093 net.cpp:399] loss3/classifier_plantvillage_loss3/classifier_plantvillage_0_split -> loss3/classifier_plantvillage_loss3/classifier_plantvillage_0_split_2
I0403 15:37:33.564306 20093 net.cpp:399] loss3/classifier_plantvillage_loss3/classifier_plantvillage_0_split -> loss3/classifier_plantvillage_loss3/classifier_plantvillage_0_split_3
I0403 15:37:33.564409 20093 net.cpp:141] Setting up loss3/classifier_plantvillage_loss3/classifier_plantvillage_0_split
I0403 15:37:33.564432 20093 net.cpp:148] Top shape: 24 38 (912)
I0403 15:37:33.564448 20093 net.cpp:148] Top shape: 24 38 (912)
I0403 15:37:33.564463 20093 net.cpp:148] Top shape: 24 38 (912)
I0403 15:37:33.564478 20093 net.cpp:148] Top shape: 24 38 (912)
I0403 15:37:33.564492 20093 net.cpp:156] Memory required for data: 1346079072
I0403 15:37:33.564507 20093 layer_factory.hpp:77] Creating layer loss1/loss
I0403 15:37:33.564529 20093 net.cpp:91] Creating Layer loss1/loss
I0403 15:37:33.564548 20093 net.cpp:425] loss1/loss <- loss1/classifier_plantvillage_loss1/classifier_plantvillage_0_split_0
I0403 15:37:33.564579 20093 net.cpp:425] loss1/loss <- label_data_1_split_0
…
