…
I0403 16:32:41.315522 21180 net.cpp:313] The NetState phase (1) differed from the phase (0) specified by a rule in layer data
I0403 16:32:41.316689 21180 net.cpp:49] Initializing net from parameters: 
state {
  phase: TEST
}
layer {
  name: "data"
  type: "Data"
  top: "data"
  top: "label"
  include {
    phase: TEST
  }
  transform_param {
    mirror: false
    crop_size: 224
    mean_file: "/home/mohanty/data/final_dataset/lmdb/grayscale-20-80/mean.binaryproto"
  }
  data_param {
    source: "/home/mohanty/data/final_dataset/lmdb/grayscale-20-80/test_db"
    batch_size: 24
    backend: LMDB
  }
}
layer {
  name: "conv1/7x7_s2"
  type: "Convolution"
  bottom: "data"
  top: "conv1/7x7_s2"
  param {
    lr_mult: 1
    decay_mult: 1
  }
  param {
    lr_mult: 2
    decay_mult: 0
  }
  convolution_param {
    num_output: 64
    pad: 3
    kernel_size: 7
    stride: 2
    weight_filler {
      type: "xavier"
      std: 0.1
    }
    bias_filler {
      type: "constant"
      value: 0.2
    }
  }
}
layer {
  name: "conv1/relu_7x7"
  type: "ReLU"
  bottom: "conv1/7x7_s2"
  top: "conv1/7x7_s2"
}
layer {
  name: "pool1/3x3_s2"
  type: "Pooling"
  bottom: "conv1/7x7_s2"
  top: "pool1/3x3_s2"
  pooling_param {
    pool: MAX
    kernel_size: 3
    stride: 2
  }
}
layer {
  name: "pool1/norm1"
  type: "LRN"
  bottom: "pool1/3x3_s2"
  top: "pool1/norm1"
  lrn_param {
    local_size: 5
    alpha: 0.0001
    beta: 0.75
  }
}
layer {
  name: "conv2/3x3_reduce"
  type: "Convolution"
  bottom: "pool1/norm1"
  top: "conv2/3x3_reduce"
  param {
    lr_mult: 1
    decay_mult: 1
  }
  param {
    lr_mult: 2
    decay_mult: 0
  }
  convolution_param {
    num_output: 64
    kernel_size: 1
    weight_filler {
      type: "xavier"
      std: 0.1
    }
    bias_filler {
      type: "constant"
      value: 0.2
    }
  }
}
layer {
  name: "conv2/relu_3x3_reduce"
  type: "ReLU"
  bottom: "conv2/3x3_reduce"
  top: "conv2/3x3_reduce"
}
layer {
  name: "conv2/3x3"
  type: "Convolution"
  bottom: "conv2/3x3_reduce"
  top: "conv2/3x3"
  param {
    lr_mult: 1
    decay_mult: 1
  }
  param {
    lr_mult: 2
    decay_mult: 0
  }
  convolution_param {
    num_output: 192
    pad: 1
    kernel_size: 3
    weight_filler {
      type: "xavier"
      std: 0.03
    }
    bias_filler {
      type: "constant"
      value: 0.2
    }
  }
}
layer {
  name: "conv2/relu_3x3"
  type: "ReLU"
  bottom: "conv2/3x3"
  top: "conv2/3x3"
}
layer {
  name: "conv2/norm2"
  type: "LRN"
  bottom: "conv2/3x3"
  top: "conv2/norm2"
  lrn_param {
    local_size: 5
    alpha: 0.0001
    beta: 0.75
  }
}
layer {
  name: "pool2/3x3_s2"
  type: "Pooling"
  bottom: "conv2/norm2"
  top: "pool2/3x3_s2"
  pooling_param {
    pool: MAX
    kernel_size: 3
    stride: 2
  }
}
layer {
  name: "inception_3a/1x1"
  type: "Convolution"
  bottom: "pool2/3x3_s2"
  top: "inception_3a/1x1"
  param {
    lr_mult: 1
    decay_mult: 1
  }
  param {
    lr_mult: 2
    decay_mult: 0
  }
  convolution_param {
    num_output: 64
    kernel_size: 1
    weight_filler {
      type: "xavier"
      std: 0.03
    }
    bias_filler {
      type: "constant"
      value: 0.2
    }
  }
}
layer {
  name: "inception_3a/relu_1x1"
  type: "ReLU"
  bottom: "inception_3a/1x1"
  top: "inception_3a/1x1"
}
layer {
  name: "inception_3a/3x3_reduce"
  type: "Convolution"
  bottom: "pool2/3x3_s2"
  top: "inception_3a/3x3_reduce"
  param {
    lr_mult: 1
    decay_mult: 1
  }
  param {
    lr_mult: 2
    decay_mult: 0
  }
  convolution_param {
    num_output: 96
    kernel_size: 1
    weight_filler {
      type: "xavier"
      std: 0.09
    }
    bias_filler {
      type: "constant"
      value: 0.2
    }
  }
}
layer {
  name: "inception_3a/relu_3x3_reduce"
  type: "ReLU"
  bottom: "inception_3a/3x3_reduce"
  top: "inception_3a/3x3_reduce"
}
layer {
  name: "inception_3a/3x3"
  type: "Convolution"
  bottom: "inception_3a/3x3_reduce"
  top: "inception_3a/3x3"
  param {
    lr_mult: 1
    decay_mult: 1
  }
  param {
    lr_mult: 2
    decay_mult: 0
  }
  convolution_param {
    num_output: 128
    pad: 1
    kernel_size: 3
    weight_filler {
      type: "xavier"
      std: 0.03
    }
    bias_filler {
      type: "constant"
      value: 0.2
    }
  }
}
layer {
  name: "inception_3a/relu_3x3"
  type: "ReLU"
  bottom: "inception_3a/3x3"
  top: "inception_3a/3x3"
}
layer {
  name: "inception_3a/5x5_reduce"
  type: "Convolution"
  bottom: "pool2/3x3_s2"
  top: "inception_3a/5x5_reduce"
  param {
    lr_mult: 1
    decay_mult: 1
  }
  param {
    lr_mult: 2
    decay_mult: 0
  }
  convolution_param {
    num_output: 16
    kernel_size: 1
    weight_filler {
      type: "xavier"
      std: 0.2
    }
    bias_filler {
      type: "constant"
      value: 0.2
    }
  }
}
layer {
  name: "inception_3a/relu_5x5_reduce"
  type: "ReLU"
  bottom: "inception_3a/5x5_reduce"
  top: "inception_3a/5x5_reduce"
}
layer {
  name: "inception_3a/5x5"
  type: "Convolution"
  bottom: "inception_3a/5x5_reduce"
  top: "inception_3a/5x5"
  param {
    lr_mult: 1
    decay_mult: 1
  }
  param {
    lr_mult: 2
    decay_mult: 0
  }
  convolution_param {
    num_output: 32
    pad: 2
    kernel_size: 5
    weight_filler {
      type: "xavier"
      std: 0.03
    }
    bias_filler {
      type: "constant"
      value: 0.2
    }
  }
}
layer {
  name: "inception_3a/relu_5x5"
  type: "ReLU"
  bottom: "inception_3a/5x5"
  top: "inception_3a/5x5"
}
layer {
  name: "inception_3a/pool"
  type: "Pooling"
  bottom: "pool2/3x3_s2"
  top: "inception_3a/pool"
  pooling_param {
    pool: MAX
    kernel_size: 3
    stride: 1
    pad: 1
  }
}
layer {
  name: "inception_3a/pool_proj"
  type: "Convolution"
  bottom: "inception_3a/pool"
  top: "inception_3a/pool_proj"
  param {
    lr_mult: 1
    decay_mult: 1
  }
  param {
    lr_mult: 2
    decay_mult: 0
  }
  convolution_param {
    num_output: 32
    kernel_size: 1
    weight_filler {
      type: "xavier"
      std: 0.1
    }
    bias_filler {
      type: "constant"
      value: 0.2
    }
  }
}
layer {
  name: "inception_3a/relu_pool_proj"
  type: "ReLU"
  bottom: "inception_3a/pool_proj"
  top: "inception_3a/pool_proj"
}
layer {
  name: "inception_3a/output"
  type: "Concat"
  bottom: "inception_3a/1x1"
  bottom: "inception_3a/3x3"
  bottom: "inception_3a/5x5"
  bottom: "inception_3a/pool_proj"
  top: "inception_3a/output"
}
layer {
  name: "inception_3b/1x1"
  type: "Convolution"
  bottom: "inception_3a/output"
  top: "inception_3b/1x1"
  param {
    lr_mult: 1
    decay_mult: 1
  }
  param {
    lr_mult: 2
    decay_mult: 0
  }
  convolution_param {
    num_output: 128
    kernel_size: 1
    weight_filler {
      type: "xavier"
      std: 0.03
    }
    bias_filler {
      type: "constant"
      value: 0.2
    }
  }
}
layer {
  name: "inception_3b/relu_1x1"
  type: "ReLU"
  bottom: "inception_3b/1x1"
  top: "inception_3b/1x1"
}
layer {
  name: "inception_3b/3x3_reduce"
  type: "Convolution"
  bottom: "inception_3a/output"
  top: "inception_3b/3x3_reduce"
  param {
    lr_mult: 1
    decay_mult: 1
  }
  param {
    lr_mult: 2
    decay_mult: 0
  }
  convolution_param {
    num_output: 128
    kernel_size: 1
    weight_filler {
      type: "xavier"
      std: 0.09
    }
    bias_filler {
      type: "constant"
      value: 0.2
    }
  }
}
layer {
  name: "inception_3b/relu_3x3_reduce"
  type: "ReLU"
  bottom: "inception_3b/3x3_reduce"
  top: "inception_3b/3x3_reduce"
}
layer {
  name: "inception_3b/3x3"
  type: "Convolution"
  bottom: "inception_3b/3x3_reduce"
  top: "inception_3b/3x3"
  param {
    lr_mult: 1
    decay_mult: 1
  }
  param {
    lr_mult: 2
    decay_mult: 0
  }
  convolution_param {
    num_output: 192
    pad: 1
    kernel_size: 3
    weight_filler {
      type: "xavier"
      std: 0.03
    }
    bias_filler {
      type: "constant"
      value: 0.2
    }
  }
}
layer {
  name: "inception_3b/relu_3x3"
  type: "ReLU"
  bottom: "inception_3b/3x3"
  top: "inception_3b/3x3"
}
layer {
  name: "inception_3b/5x5_reduce"
  type: "Convolution"
  bottom: "inception_3a/output"
  top: "inception_3b/5x5_reduce"
  param {
    lr_mult: 1
    decay_mult: 1
  }
  param {
    lr_mult: 2
    decay_mult: 0
  }
  convolution_param {
    num_output: 32
    kernel_size: 1
    weight_filler {
      type: "xavier"
      std: 0.2
    }
    bias_filler {
      type: "constant"
      value: 0.2
    }
  }
}
layer {
  name: "inception_3b/relu_5x5_reduce"
  type: "ReLU"
  bottom: "inception_3b/5x5_reduce"
  top: "inception_3b/5x5_reduce"
}
layer {
  name: "inception_3b/5x5"
  type: "Convolution"
  bottom: "inception_3b/5x5_reduce"
  top: "inception_3b/5x5"
  param {
    lr_mult: 1
    decay_mult: 1
  }
  param {
    lr_mult: 2
    decay_mult: 0
  }
  convolution_param {
    num_output: 96
    pad: 2
    kernel_size: 5
    weight_filler {
      type: "xavier"
      std: 0.03
    }
    bias_filler {
      type: "constant"
      value: 0.2
    }
  }
}
layer {
  name: "inception_3b/relu_5x5"
  type: "ReLU"
  bottom: "inception_3b/5x5"
  top: "inception_3b/5x5"
}
layer {
  name: "inception_3b/pool"
  type: "Pooling"
  bottom: "inception_3a/output"
  top: "inception_3b/pool"
  pooling_param {
    pool: MAX
    kernel_size: 3
    stride: 1
    pad: 1
  }
}
layer {
  name: "inception_3b/pool_proj"
  type: "Convolution"
  bottom: "inception_3b/pool"
  top: "inception_3b/pool_proj"
  param {
    lr_mult: 1
    decay_mult: 1
  }
  param {
    lr_mult: 2
    decay_mult: 0
  }
  convolution_param {
    num_output: 64
    kernel_size: 1
    weight_filler {
      type: "xavier"
      std: 0.1
    }
    bias_filler {
      type: "constant"
      value: 0.2
    }
  }
}
layer {
  name: "inception_3b/relu_pool_proj"
  type: "ReLU"
  bottom: "inception_3b/pool_proj"
  top: "inception_3b/pool_proj"
}
layer {
  name: "inception_3b/output"
  type: "Concat"
  bottom: "inception_3b/1x1"
  bottom: "inception_3b/3x3"
  bottom: "inception_3b/5x5"
  bottom: "inception_3b/pool_proj"
  top: "inception_3b/output"
}
layer {
  name: "pool3/3x3_s2"
  type: "Pooling"
  bottom: "inception_3b/output"
  top: "pool3/3x3_s2"
  pooling_param {
    pool: MAX
    kernel_size: 3
    stride: 2
  }
}
layer {
  name: "inception_4a/1x1"
  type: "Convolution"
  bottom: "pool3/3x3_s2"
  top: "inception_4a/1x1"
  param {
    lr_mult: 1
    decay_mult: 1
  }
  param {
    lr_mult: 2
    decay_mult: 0
  }
  convolution_param {
    num_output: 192
    kernel_size: 1
    weight_filler {
      type: "xavier"
      std: 0.03
    }
    bias_filler {
      type: "constant"
      value: 0.2
    }
  }
}
layer {
  name: "inception_4a/relu_1x1"
  type: "ReLU"
  bottom: "inception_4a/1x1"
  top: "inception_4a/1x1"
}
layer {
  name: "inception_4a/3x3_reduce"
  type: "Convolution"
  bottom: "pool3/3x3_s2"
  top: "inception_4a/3x3_reduce"
  param {
    lr_mult: 1
    decay_mult: 1
  }
  param {
    lr_mult: 2
    decay_mult: 0
  }
  convolution_param {
    num_output: 96
    kernel_size: 1
    weight_filler {
      type: "xavier"
      std: 0.09
    }
    bias_filler {
      type: "constant"
      value: 0.2
    }
  }
}
layer {
  name: "inception_4a/relu_3x3_reduce"
  type: "ReLU"
  bottom: "inception_4a/3x3_reduce"
  top: "inception_4a/3x3_reduce"
}
layer {
  name: "inception_4a/3x3"
  type: "Convolution"
  bottom: "inception_4a/3x3_reduce"
  top: "inception_4a/3x3"
  param {
    lr_mult: 1
    decay_mult: 1
  }
  param {
    lr_mult: 2
    decay_mult: 0
  }
  convolution_param {
    num_output: 208
    pad: 1
    kernel_size: 3
    weight_filler {
      type: "xavier"
      std: 0.03
    }
    bias_filler {
      type: "constant"
      value: 0.2
    }
  }
}
layer {
  name: "inception_4a/relu_3x3"
  type: "ReLU"
  bottom: "inception_4a/3x3"
  top: "inception_4a/3x3"
}
layer {
  name: "inception_4a/5x5_reduce"
  type: "Convolution"
  bottom: "pool3/3x3_s2"
  top: "inception_4a/5x5_reduce"
  param {
    lr_mult: 1
    decay_mult: 1
  }
  param {
    lr_mult: 2
    decay_mult: 0
  }
  convolution_param {
    num_output: 16
    kernel_size: 1
    weight_filler {
      type: "xavier"
      std: 0.2
    }
    bias_filler {
      type: "constant"
      value: 0.2
    }
  }
}
layer {
  name: "inception_4a/relu_5x5_reduce"
  type: "ReLU"
  bottom: "inception_4a/5x5_reduce"
  top: "inception_4a/5x5_reduce"
}
layer {
  name: "inception_4a/5x5"
  type: "Convolution"
  bottom: "inception_4a/5x5_reduce"
  top: "inception_4a/5x5"
  param {
    lr_mult: 1
    decay_mult: 1
  }
  param {
    lr_mult: 2
    decay_mult: 0
  }
  convolution_param {
    num_output: 48
    pad: 2
    kernel_size: 5
    weight_filler {
      type: "xavier"
      std: 0.03
    }
    bias_filler {
      type: "constant"
      value: 0.2
    }
  }
}
layer {
  name: "inception_4a/relu_5x5"
  type: "ReLU"
  bottom: "inception_4a/5x5"
  top: "inception_4a/5x5"
}
layer {
  name: "inception_4a/pool"
  type: "Pooling"
  bottom: "pool3/3x3_s2"
  top: "inception_4a/pool"
  pooling_param {
    pool: MAX
    kernel_size: 3
    stride: 1
    pad: 1
  }
}
layer {
  name: "inception_4a/pool_proj"
  type: "Convolution"
  bottom: "inception_4a/pool"
  top: "inception_4a/pool_proj"
  param {
    lr_mult: 1
    decay_mult: 1
  }
  param {
    lr_mult: 2
    decay_mult: 0
  }
  convolution_param {
    num_output: 64
    kernel_size: 1
    weight_filler {
      type: "xavier"
      std: 0.1
    }
    bias_filler {
      type: "constant"
      value: 0.2
    }
  }
}
layer {
  name: "inception_4a/relu_pool_proj"
  type: "ReLU"
  bottom: "inception_4a/pool_proj"
  top: "inception_4a/pool_proj"
}
layer {
  name: "inception_4a/output"
  type: "Concat"
  bottom: "inception_4a/1x1"
  bottom: "inception_4a/3x3"
  bottom: "inception_4a/5x5"
  bottom: "inception_4a/pool_proj"
  top: "inception_4a/output"
}
layer {
  name: "loss1/ave_pool"
  type: "Pooling"
  bottom: "inception_4a/output"
  top: "loss1/ave_pool"
  pooling_param {
    pool: AVE
    kernel_size: 5
    stride: 3
  }
}
layer {
  name: "loss1/conv"
  type: "Convolution"
  bottom: "loss1/ave_pool"
  top: "loss1/conv"
  param {
    lr_mult: 1
    decay_mult: 1
  }
  param {
    lr_mult: 2
    decay_mult: 0
  }
  convolution_param {
    num_output: 128
    kernel_size: 1
    weight_filler {
      type: "xavier"
      std: 0.08
    }
    bias_filler {
      type: "constant"
      value: 0.2
    }
  }
}
layer {
  name: "loss1/relu_conv"
  type: "ReLU"
  bottom: "loss1/conv"
  top: "loss1/conv"
}
layer {
  name: "loss1/fc"
  type: "InnerProduct"
  bottom: "loss1/conv"
  top: "loss1/fc"
  param {
    lr_mult: 1
    decay_mult: 1
  }
  param {
    lr_mult: 2
    decay_mult: 0
  }
  inner_product_param {
    num_output: 1024
    weight_filler {
      type: "xavier"
      std: 0.02
    }
    bias_filler {
      type: "constant"
      value: 0.2
    }
  }
}
layer {
  name: "loss1/relu_fc"
  type: "ReLU"
  bottom: "loss1/fc"
  top: "loss1/fc"
}
layer {
  name: "loss1/drop_fc"
  type: "Dropout"
  bottom: "loss1/fc"
  top: "loss1/fc"
  dropout_param {
    dropout_ratio: 0.7
  }
}
layer {
  name: "loss1/classifier_plantvillage"
  type: "InnerProduct"
  bottom: "loss1/fc"
  top: "loss1/classifier_plantvillage"
  param {
    lr_mult: 1
    decay_mult: 1
  }
  param {
    lr_mult: 2
    decay_mult: 0
  }
  inner_product_param {
    num_output: 38
    weight_filler {
      type: "xavier"
      std: 0.0009765625
    }
    bias_filler {
      type: "constant"
      value: 0
    }
  }
}
layer {
  name: "inception_4b/1x1"
  type: "Convolution"
  bottom: "inception_4a/output"
  top: "inception_4b/1x1"
  param {
    lr_mult: 1
    decay_mult: 1
  }
  param {
    lr_mult: 2
    decay_mult: 0
  }
  convolution_param {
    num_output: 160
    kernel_size: 1
    weight_filler {
      type: "xavier"
      std: 0.03
    }
    bias_filler {
      type: "constant"
      value: 0.2
    }
  }
}
layer {
  name: "inception_4b/relu_1x1"
  type: "ReLU"
  bottom: "inception_4b/1x1"
  top: "inception_4b/1x1"
}
layer {
  name: "inception_4b/3x3_reduce"
  type: "Convolution"
  bottom: "inception_4a/output"
  top: "inception_4b/3x3_reduce"
  param {
    lr_mult: 1
    decay_mult: 1
  }
  param {
    lr_mult: 2
    decay_mult: 0
  }
  convolution_param {
    num_output: 112
    kernel_size: 1
    weight_filler {
      type: "xavier"
      std: 0.09
    }
    bias_filler {
      type: "constant"
      value: 0.2
    }
  }
}
layer {
  name: "inception_4b/relu_3x3_reduce"
  type: "ReLU"
  bottom: "inception_4b/3x3_reduce"
  top: "inception_4b/3x3_reduce"
}
layer {
  name: "inception_4b/3x3"
  type: "Convolution"
  bottom: "inception_4b/3x3_reduce"
  top: "inception_4b/3x3"
  param {
    lr_mult: 1
    decay_mult: 1
  }
  param {
    lr_mult: 2
    decay_mult: 0
  }
  convolution_param {
    num_output: 224
    pad: 1
    kernel_size: 3
    weight_filler {
      type: "xavier"
      std: 0.03
    }
    bias_filler {
      type: "constant"
      value: 0.2
    }
  }
}
layer {
  name: "inception_4b/relu_3x3"
  type: "ReLU"
  bottom: "inception_4b/3x3"
  top: "inception_4b/3x3"
}
layer {
  name: "inception_4b/5x5_reduce"
  type: "Convolution"
  bottom: "inception_4a/output"
  top: "inception_4b/5x5_reduce"
  param {
    lr_mult: 1
    decay_mult: 1
  }
  param {
    lr_mult: 2
    decay_mult: 0
  }
  convolution_param {
    num_output: 24
    kernel_size: 1
    weight_filler {
      type: "xavier"
      std: 0.2
    }
    bias_filler {
      type: "constant"
      value: 0.2
    }
  }
}
layer {
  name: "inception_4b/relu_5x5_reduce"
  type: "ReLU"
  bottom: "inception_4b/5x5_reduce"
  top: "inception_4b/5x5_reduce"
}
layer {
  name: "inception_4b/5x5"
  type: "Convolution"
  bottom: "inception_4b/5x5_reduce"
  top: "inception_4b/5x5"
  param {
    lr_mult: 1
    decay_mult: 1
  }
  param {
    lr_mult: 2
    decay_mult: 0
  }
  convolution_param {
    num_output: 64
    pad: 2
    kernel_size: 5
    weight_filler {
      type: "xavier"
      std: 0.03
    }
    bias_filler {
      type: "constant"
      value: 0.2
    }
  }
}
layer {
  name: "inception_4b/relu_5x5"
  type: "ReLU"
  bottom: "inception_4b/5x5"
  top: "inception_4b/5x5"
}
layer {
  name: "inception_4b/pool"
  type: "Pooling"
  bottom: "inception_4a/output"
  top: "inception_4b/pool"
  pooling_param {
    pool: MAX
    kernel_size: 3
    stride: 1
    pad: 1
  }
}
layer {
  name: "inception_4b/pool_proj"
  type: "Convolution"
  bottom: "inception_4b/pool"
  top: "inception_4b/pool_proj"
  param {
    lr_mult: 1
    decay_mult: 1
  }
  param {
    lr_mult: 2
    decay_mult: 0
  }
  convolution_param {
    num_output: 64
    kernel_size: 1
    weight_filler {
      type: "xavier"
      std: 0.1
    }
    bias_filler {
      type: "constant"
      value: 0.2
    }
  }
}
layer {
  name: "inception_4b/relu_pool_proj"
  type: "ReLU"
  bottom: "inception_4b/pool_proj"
  top: "inception_4b/pool_proj"
}
layer {
  name: "inception_4b/output"
  type: "Concat"
  bottom: "inception_4b/1x1"
  bottom: "inception_4b/3x3"
  bottom: "inception_4b/5x5"
  bottom: "inception_4b/pool_proj"
  top: "inception_4b/output"
}
layer {
  name: "inception_4c/1x1"
  type: "Convolution"
  bottom: "inception_4b/output"
  top: "inception_4c/1x1"
  param {
    lr_mult: 1
    decay_mult: 1
  }
  param {
    lr_mult: 2
    decay_mult: 0
  }
  convolution_param {
    num_output: 128
    kernel_size: 1
    weight_filler {
      type: "xavier"
      std: 0.03
    }
    bias_filler {
      type: "constant"
      value: 0.2
    }
  }
}
layer {
  name: "inception_4c/relu_1x1"
  type: "ReLU"
  bottom: "inception_4c/1x1"
  top: "inception_4c/1x1"
}
layer {
  name: "inception_4c/3x3_reduce"
  type: "Convolution"
  bottom: "inception_4b/output"
  top: "inception_4c/3x3_reduce"
  param {
    lr_mult: 1
    decay_mult: 1
  }
  param {
    lr_mult: 2
    decay_mult: 0
  }
  convolution_param {
    num_output: 128
    kernel_size: 1
    weight_filler {
      type: "xavier"
      std: 0.09
    }
    bias_filler {
      type: "constant"
      value: 0.2
    }
  }
}
layer {
  name: "inception_4c/relu_3x3_reduce"
  type: "ReLU"
  bottom: "inception_4c/3x3_reduce"
  top: "inception_4c/3x3_reduce"
}
layer {
  name: "inception_4c/3x3"
  type: "Convolution"
  bottom: "inception_4c/3x3_reduce"
  top: "inception_4c/3x3"
  param {
    lr_mult: 1
    decay_mult: 1
  }
  param {
    lr_mult: 2
    decay_mult: 0
  }
  convolution_param {
    num_output: 256
    pad: 1
    kernel_size: 3
    weight_filler {
      type: "xavier"
      std: 0.03
    }
    bias_filler {
      type: "constant"
      value: 0.2
    }
  }
}
layer {
  name: "inception_4c/relu_3x3"
  type: "ReLU"
  bottom: "inception_4c/3x3"
  top: "inception_4c/3x3"
}
layer {
  name: "inception_4c/5x5_reduce"
  type: "Convolution"
  bottom: "inception_4b/output"
  top: "inception_4c/5x5_reduce"
  param {
    lr_mult: 1
    decay_mult: 1
  }
  param {
    lr_mult: 2
    decay_mult: 0
  }
  convolution_param {
    num_output: 24
    kernel_size: 1
    weight_filler {
      type: "xavier"
      std: 0.2
    }
    bias_filler {
      type: "constant"
      value: 0.2
    }
  }
}
layer {
  name: "inception_4c/relu_5x5_reduce"
  type: "ReLU"
  bottom: "inception_4c/5x5_reduce"
  top: "inception_4c/5x5_reduce"
}
layer {
  name: "inception_4c/5x5"
  type: "Convolution"
  bottom: "inception_4c/5x5_reduce"
  top: "inception_4c/5x5"
  param {
    lr_mult: 1
    decay_mult: 1
  }
  param {
    lr_mult: 2
    decay_mult: 0
  }
  convolution_param {
    num_output: 64
    pad: 2
    kernel_size: 5
    weight_filler {
      type: "xavier"
      std: 0.03
    }
    bias_filler {
      type: "constant"
      value: 0.2
    }
  }
}
layer {
  name: "inception_4c/relu_5x5"
  type: "ReLU"
  bottom: "inception_4c/5x5"
  top: "inception_4c/5x5"
}
layer {
  name: "inception_4c/pool"
  type: "Pooling"
  bottom: "inception_4b/output"
  top: "inception_4c/pool"
  pooling_param {
    pool: MAX
    kernel_size: 3
    stride: 1
    pad: 1
  }
}
layer {
  name: "inception_4c/pool_proj"
  type: "Convolution"
  bottom: "inception_4c/pool"
  top: "inception_4c/pool_proj"
  param {
    lr_mult: 1
    decay_mult: 1
  }
  param {
    lr_mult: 2
    decay_mult: 0
  }
  convolution_param {
    num_output: 64
    kernel_size: 1
    weight_filler {
      type: "xavier"
      std: 0.1
    }
    bias_filler {
      type: "constant"
      value: 0.2
    }
  }
}
layer {
  name: "inception_4c/relu_pool_proj"
  type: "ReLU"
  bottom: "inception_4c/pool_proj"
  top: "inception_4c/pool_proj"
}
layer {
  name: "inception_4c/output"
  type: "Concat"
  bottom: "inception_4c/1x1"
  bottom: "inception_4c/3x3"
  bottom: "inception_4c/5x5"
  bottom: "inception_4c/pool_proj"
  top: "inception_4c/output"
}
layer {
  name: "inception_4d/1x1"
  type: "Convolution"
  bottom: "inception_4c/output"
  top: "inception_4d/1x1"
  param {
    lr_mult: 1
    decay_mult: 1
  }
  param {
    lr_mult: 2
    decay_mult: 0
  }
  convolution_param {
    num_output: 112
    kernel_size: 1
    weight_filler {
      type: "xavier"
      std: 0.03
    }
    bias_filler {
      type: "constant"
      value: 0.2
    }
  }
}
layer {
  name: "inception_4d/relu_1x1"
  type: "ReLU"
  bottom: "inception_4d/1x1"
  top: "inception_4d/1x1"
}
layer {
  name: "inception_4d/3x3_reduce"
  type: "Convolution"
  bottom: "inception_4c/output"
  top: "inception_4d/3x3_reduce"
  param {
    lr_mult: 1
    decay_mult: 1
  }
  param {
    lr_mult: 2
    decay_mult: 0
  }
  convolution_param {
    num_output: 144
    kernel_size: 1
    weight_filler {
      type: "xavier"
      std: 0.09
    }
    bias_filler {
      type: "constant"
      value: 0.2
    }
  }
}
layer {
  name: "inception_4d/relu_3x3_reduce"
  type: "ReLU"
  bottom: "inception_4d/3x3_reduce"
  top: "inception_4d/3x3_reduce"
}
layer {
  name: "inception_4d/3x3"
  type: "Convolution"
  bottom: "inception_4d/3x3_reduce"
  top: "inception_4d/3x3"
  param {
    lr_mult: 1
    decay_mult: 1
  }
  param {
    lr_mult: 2
    decay_mult: 0
  }
  convolution_param {
    num_output: 288
    pad: 1
    kernel_size: 3
    weight_filler {
      type: "xavier"
      std: 0.03
    }
    bias_filler {
      type: "constant"
      value: 0.2
    }
  }
}
layer {
  name: "inception_4d/relu_3x3"
  type: "ReLU"
  bottom: "inception_4d/3x3"
  top: "inception_4d/3x3"
}
layer {
  name: "inception_4d/5x5_reduce"
  type: "Convolution"
  bottom: "inception_4c/output"
  top: "inception_4d/5x5_reduce"
  param {
    lr_mult: 1
    decay_mult: 1
  }
  param {
    lr_mult: 2
    decay_mult: 0
  }
  convolution_param {
    num_output: 32
    kernel_size: 1
    weight_filler {
      type: "xavier"
      std: 0.2
    }
    bias_filler {
      type: "constant"
      value: 0.2
    }
  }
}
layer {
  name: "inception_4d/relu_5x5_reduce"
  type: "ReLU"
  bottom: "inception_4d/5x5_reduce"
  top: "inception_4d/5x5_reduce"
}
layer {
  name: "inception_4d/5x5"
  type: "Convolution"
  bottom: "inception_4d/5x5_reduce"
  top: "inception_4d/5x5"
  param {
    lr_mult: 1
    decay_mult: 1
  }
  param {
    lr_mult: 2
    decay_mult: 0
  }
  convolution_param {
    num_output: 64
    pad: 2
    kernel_size: 5
    weight_filler {
      type: "xavier"
      std: 0.03
    }
    bias_filler {
      type: "constant"
      value: 0.2
    }
  }
}
layer {
  name: "inception_4d/relu_5x5"
  type: "ReLU"
  bottom: "inception_4d/5x5"
  top: "inception_4d/5x5"
}
layer {
  name: "inception_4d/pool"
  type: "Pooling"
  bottom: "inception_4c/output"
  top: "inception_4d/pool"
  pooling_param {
    pool: MAX
    kernel_size: 3
    stride: 1
    pad: 1
  }
}
layer {
  name: "inception_4d/pool_proj"
  type: "Convolution"
  bottom: "inception_4d/pool"
  top: "inception_4d/pool_proj"
  param {
    lr_mult: 1
    decay_mult: 1
  }
  param {
    lr_mult: 2
    decay_mult: 0
  }
  convolution_param {
    num_output: 64
    kernel_size: 1
    weight_filler {
      type: "xavier"
      std: 0.1
    }
    bias_filler {
      type: "constant"
      value: 0.2
    }
  }
}
layer {
  name: "inception_4d/relu_pool_proj"
  type: "ReLU"
  bottom: "inception_4d/pool_proj"
  top: "inception_4d/pool_proj"
}
layer {
  name: "inception_4d/output"
  type: "Concat"
  bottom: "inception_4d/1x1"
  bottom: "inception_4d/3x3"
  bottom: "inception_4d/5x5"
  bottom: "inception_4d/pool_proj"
  top: "inception_4d/output"
}
layer {
  name: "loss2/ave_pool"
  type: "Pooling"
  bottom: "inception_4d/output"
  top: "loss2/ave_pool"
  pooling_param {
    pool: AVE
    kernel_size: 5
    stride: 3
  }
}
layer {
  name: "loss2/conv"
  type: "Convolution"
  bottom: "loss2/ave_pool"
  top: "loss2/conv"
  param {
    lr_mult: 1
    decay_mult: 1
  }
  param {
    lr_mult: 2
    decay_mult: 0
  }
  convolution_param {
    num_output: 128
    kernel_size: 1
    weight_filler {
      type: "xavier"
      std: 0.08
    }
    bias_filler {
      type: "constant"
      value: 0.2
    }
  }
}
layer {
  name: "loss2/relu_conv"
  type: "ReLU"
  bottom: "loss2/conv"
  top: "loss2/conv"
}
layer {
  name: "loss2/fc"
  type: "InnerProduct"
  bottom: "loss2/conv"
  top: "loss2/fc"
  param {
    lr_mult: 1
    decay_mult: 1
  }
  param {
    lr_mult: 2
    decay_mult: 0
  }
  inner_product_param {
    num_output: 1024
    weight_filler {
      type: "xavier"
      std: 0.02
    }
    bias_filler {
      type: "constant"
      value: 0.2
    }
  }
}
layer {
  name: "loss2/relu_fc"
  type: "ReLU"
  bottom: "loss2/fc"
  top: "loss2/fc"
}
layer {
  name: "loss2/drop_fc"
  type: "Dropout"
  bottom: "loss2/fc"
  top: "loss2/fc"
  dropout_param {
    dropout_ratio: 0.7
  }
}
layer {
  name: "loss2/classifier_plantvillage"
  type: "InnerProduct"
  bottom: "loss2/fc"
  top: "loss2/classifier_plantvillage"
  param {
    lr_mult: 1
    decay_mult: 1
  }
  param {
    lr_mult: 2
    decay_mult: 0
  }
  inner_product_param {
    num_output: 38
    weight_filler {
      type: "xavier"
      std: 0.0009765625
    }
    bias_filler {
      type: "constant"
      value: 0
    }
  }
}
layer {
  name: "inception_4e/1x1"
  type: "Convolution"
  bottom: "inception_4d/output"
  top: "inception_4e/1x1"
  param {
    lr_mult: 1
    decay_mult: 1
  }
  param {
    lr_mult: 2
    decay_mult: 0
  }
  convolution_param {
    num_output: 256
    kernel_size: 1
    weight_filler {
      type: "xavier"
      std: 0.03
    }
    bias_filler {
      type: "constant"
      value: 0.2
    }
  }
}
layer {
  name: "inception_4e/relu_1x1"
  type: "ReLU"
  bottom: "inception_4e/1x1"
  top: "inception_4e/1x1"
}
layer {
  name: "inception_4e/3x3_reduce"
  type: "Convolution"
  bottom: "inception_4d/output"
  top: "inception_4e/3x3_reduce"
  param {
    lr_mult: 1
    decay_mult: 1
  }
  param {
    lr_mult: 2
    decay_mult: 0
  }
  convolution_param {
    num_output: 160
    kernel_size: 1
    weight_filler {
      type: "xavier"
      std: 0.09
    }
    bias_filler {
      type: "constant"
      value: 0.2
    }
  }
}
layer {
  name: "inception_4e/relu_3x3_reduce"
  type: "ReLU"
  bottom: "inception_4e/3x3_reduce"
  top: "inception_4e/3x3_reduce"
}
layer {
  name: "inception_4e/3x3"
  type: "Convolution"
  bottom: "inception_4e/3x3_reduce"
  top: "inception_4e/3x3"
  param {
    lr_mult: 1
    decay_mult: 1
  }
  param {
    lr_mult: 2
    decay_mult: 0
  }
  convolution_param {
    num_output: 320
    pad: 1
    kernel_size: 3
    weight_filler {
      type: "xavier"
      std: 0.03
    }
    bias_filler {
      type: "constant"
      value: 0.2
    }
  }
}
layer {
  name: "inception_4e/relu_3x3"
  type: "ReLU"
  bottom: "inception_4e/3x3"
  top: "inception_4e/3x3"
}
layer {
  name: "inception_4e/5x5_reduce"
  type: "Convolution"
  bottom: "inception_4d/output"
  top: "inception_4e/5x5_reduce"
  param {
    lr_mult: 1
    decay_mult: 1
  }
  param {
    lr_mult: 2
    decay_mult: 0
  }
  convolution_param {
    num_output: 32
    kernel_size: 1
    weight_filler {
      type: "xavier"
      std: 0.2
    }
    bias_filler {
      type: "constant"
      value: 0.2
    }
  }
}
layer {
  name: "inception_4e/relu_5x5_reduce"
  type: "ReLU"
  bottom: "inception_4e/5x5_reduce"
  top: "inception_4e/5x5_reduce"
}
layer {
  name: "inception_4e/5x5"
  type: "Convolution"
  bottom: "inception_4e/5x5_reduce"
  top: "inception_4e/
I0403 16:32:41.317976 21180 layer_factory.hpp:77] Creating layer data
I0403 16:32:41.318614 21180 net.cpp:91] Creating Layer data
I0403 16:32:41.318650 21180 net.cpp:399] data -> data
I0403 16:32:41.318701 21180 net.cpp:399] data -> label
I0403 16:32:41.318737 21180 data_transformer.cpp:25] Loading mean file from: /home/mohanty/data/final_dataset/lmdb/grayscale-20-80/mean.binaryproto
I0403 16:32:41.319936 21183 db_lmdb.cpp:38] Opened lmdb /home/mohanty/data/final_dataset/lmdb/grayscale-20-80/test_db
I0403 16:32:41.331941 21180 data_layer.cpp:41] output data size: 24,3,224,224
I0403 16:32:41.359089 21180 net.cpp:141] Setting up data
I0403 16:32:41.359186 21180 net.cpp:148] Top shape: 24 3 224 224 (3612672)
I0403 16:32:41.359210 21180 net.cpp:148] Top shape: 24 (24)
I0403 16:32:41.359225 21180 net.cpp:156] Memory required for data: 14450784
I0403 16:32:41.359251 21180 layer_factory.hpp:77] Creating layer label_data_1_split
I0403 16:32:41.359277 21180 net.cpp:91] Creating Layer label_data_1_split
I0403 16:32:41.359297 21180 net.cpp:425] label_data_1_split <- label
I0403 16:32:41.359328 21180 net.cpp:399] label_data_1_split -> label_data_1_split_0
I0403 16:32:41.359357 21180 net.cpp:399] label_data_1_split -> label_data_1_split_1
I0403 16:32:41.359379 21180 net.cpp:399] label_data_1_split -> label_data_1_split_2
I0403 16:32:41.359400 21180 net.cpp:399] label_data_1_split -> label_data_1_split_3
I0403 16:32:41.359418 21180 net.cpp:399] label_data_1_split -> label_data_1_split_4
I0403 16:32:41.359438 21180 net.cpp:399] label_data_1_split -> label_data_1_split_5
I0403 16:32:41.359457 21180 net.cpp:399] label_data_1_split -> label_data_1_split_6
I0403 16:32:41.359477 21180 net.cpp:399] label_data_1_split -> label_data_1_split_7
I0403 16:32:41.359498 21180 net.cpp:399] label_data_1_split -> label_data_1_split_8
I0403 16:32:41.359516 21180 net.cpp:399] label_data_1_split -> label_data_1_split_9
I0403 16:32:41.359634 21180 net.cpp:141] Setting up label_data_1_split
I0403 16:32:41.359658 21180 net.cpp:148] Top shape: 24 (24)
I0403 16:32:41.359674 21180 net.cpp:148] Top shape: 24 (24)
I0403 16:32:41.359690 21180 net.cpp:148] Top shape: 24 (24)
I0403 16:32:41.359705 21180 net.cpp:148] Top shape: 24 (24)
I0403 16:32:41.359721 21180 net.cpp:148] Top shape: 24 (24)
I0403 16:32:41.359737 21180 net.cpp:148] Top shape: 24 (24)
I0403 16:32:41.359752 21180 net.cpp:148] Top shape: 24 (24)
I0403 16:32:41.359768 21180 net.cpp:148] Top shape: 24 (24)
I0403 16:32:41.359783 21180 net.cpp:148] Top shape: 24 (24)
I0403 16:32:41.359798 21180 net.cpp:148] Top shape: 24 (24)
I0403 16:32:41.359841 21180 net.cpp:156] Memory required for data: 14451744
I0403 16:32:41.359858 21180 layer_factory.hpp:77] Creating layer conv1/7x7_s2
I0403 16:32:41.359889 21180 net.cpp:91] Creating Layer conv1/7x7_s2
I0403 16:32:41.359907 21180 net.cpp:425] conv1/7x7_s2 <- data
I0403 16:32:41.359926 21180 net.cpp:399] conv1/7x7_s2 -> conv1/7x7_s2
I0403 16:32:41.502005 21180 net.cpp:141] Setting up conv1/7x7_s2
I0403 16:32:41.502102 21180 net.cpp:148] Top shape: 24 64 112 112 (19267584)
I0403 16:32:41.502121 21180 net.cpp:156] Memory required for data: 91522080
I0403 16:32:41.502174 21180 layer_factory.hpp:77] Creating layer conv1/relu_7x7
I0403 16:32:41.502207 21180 net.cpp:91] Creating Layer conv1/relu_7x7
I0403 16:32:41.502225 21180 net.cpp:425] conv1/relu_7x7 <- conv1/7x7_s2
I0403 16:32:41.502246 21180 net.cpp:386] conv1/relu_7x7 -> conv1/7x7_s2 (in-place)
I0403 16:32:41.502524 21180 net.cpp:141] Setting up conv1/relu_7x7
I0403 16:32:41.502552 21180 net.cpp:148] Top shape: 24 64 112 112 (19267584)
I0403 16:32:41.502568 21180 net.cpp:156] Memory required for data: 168592416
I0403 16:32:41.502584 21180 layer_factory.hpp:77] Creating layer pool1/3x3_s2
I0403 16:32:41.502610 21180 net.cpp:91] Creating Layer pool1/3x3_s2
I0403 16:32:41.502629 21180 net.cpp:425] pool1/3x3_s2 <- conv1/7x7_s2
I0403 16:32:41.502647 21180 net.cpp:399] pool1/3x3_s2 -> pool1/3x3_s2
I0403 16:32:41.502724 21180 net.cpp:141] Setting up pool1/3x3_s2
I0403 16:32:41.502749 21180 net.cpp:148] Top shape: 24 64 56 56 (4816896)
I0403 16:32:41.502764 21180 net.cpp:156] Memory required for data: 187860000
I0403 16:32:41.502780 21180 layer_factory.hpp:77] Creating layer pool1/norm1
I0403 16:32:41.502805 21180 net.cpp:91] Creating Layer pool1/norm1
I0403 16:32:41.502823 21180 net.cpp:425] pool1/norm1 <- pool1/3x3_s2
I0403 16:32:41.502841 21180 net.cpp:399] pool1/norm1 -> pool1/norm1
I0403 16:32:41.503154 21180 net.cpp:141] Setting up pool1/norm1
I0403 16:32:41.503181 21180 net.cpp:148] Top shape: 24 64 56 56 (4816896)
I0403 16:32:41.503198 21180 net.cpp:156] Memory required for data: 207127584
I0403 16:32:41.503214 21180 layer_factory.hpp:77] Creating layer conv2/3x3_reduce
I0403 16:32:41.503239 21180 net.cpp:91] Creating Layer conv2/3x3_reduce
I0403 16:32:41.503257 21180 net.cpp:425] conv2/3x3_reduce <- pool1/norm1
I0403 16:32:41.503276 21180 net.cpp:399] conv2/3x3_reduce -> conv2/3x3_reduce
I0403 16:32:41.504690 21180 net.cpp:141] Setting up conv2/3x3_reduce
I0403 16:32:41.504721 21180 net.cpp:148] Top shape: 24 64 56 56 (4816896)
I0403 16:32:41.504739 21180 net.cpp:156] Memory required for data: 226395168
I0403 16:32:41.504760 21180 layer_factory.hpp:77] Creating layer conv2/relu_3x3_reduce
I0403 16:32:41.504779 21180 net.cpp:91] Creating Layer conv2/relu_3x3_reduce
I0403 16:32:41.504796 21180 net.cpp:425] conv2/relu_3x3_reduce <- conv2/3x3_reduce
I0403 16:32:41.504813 21180 net.cpp:386] conv2/relu_3x3_reduce -> conv2/3x3_reduce (in-place)
I0403 16:32:41.505087 21180 net.cpp:141] Setting up conv2/relu_3x3_reduce
I0403 16:32:41.505115 21180 net.cpp:148] Top shape: 24 64 56 56 (4816896)
I0403 16:32:41.505131 21180 net.cpp:156] Memory required for data: 245662752
I0403 16:32:41.505146 21180 layer_factory.hpp:77] Creating layer conv2/3x3
I0403 16:32:41.505168 21180 net.cpp:91] Creating Layer conv2/3x3
I0403 16:32:41.505187 21180 net.cpp:425] conv2/3x3 <- conv2/3x3_reduce
I0403 16:32:41.505206 21180 net.cpp:399] conv2/3x3 -> conv2/3x3
I0403 16:32:41.507592 21180 net.cpp:141] Setting up conv2/3x3
I0403 16:32:41.507637 21180 net.cpp:148] Top shape: 24 192 56 56 (14450688)
I0403 16:32:41.507652 21180 net.cpp:156] Memory required for data: 303465504
I0403 16:32:41.507673 21180 layer_factory.hpp:77] Creating layer conv2/relu_3x3
I0403 16:32:41.507693 21180 net.cpp:91] Creating Layer conv2/relu_3x3
I0403 16:32:41.507709 21180 net.cpp:425] conv2/relu_3x3 <- conv2/3x3
I0403 16:32:41.507725 21180 net.cpp:386] conv2/relu_3x3 -> conv2/3x3 (in-place)
I0403 16:32:41.507896 21180 net.cpp:141] Setting up conv2/relu_3x3
I0403 16:32:41.507922 21180 net.cpp:148] Top shape: 24 192 56 56 (14450688)
I0403 16:32:41.507967 21180 net.cpp:156] Memory required for data: 361268256
I0403 16:32:41.507984 21180 layer_factory.hpp:77] Creating layer conv2/norm2
I0403 16:32:41.508003 21180 net.cpp:91] Creating Layer conv2/norm2
I0403 16:32:41.508019 21180 net.cpp:425] conv2/norm2 <- conv2/3x3
I0403 16:32:41.508038 21180 net.cpp:399] conv2/norm2 -> conv2/norm2
I0403 16:32:41.508347 21180 net.cpp:141] Setting up conv2/norm2
I0403 16:32:41.508376 21180 net.cpp:148] Top shape: 24 192 56 56 (14450688)
I0403 16:32:41.508393 21180 net.cpp:156] Memory required for data: 419071008
I0403 16:32:41.508409 21180 layer_factory.hpp:77] Creating layer pool2/3x3_s2
I0403 16:32:41.508427 21180 net.cpp:91] Creating Layer pool2/3x3_s2
I0403 16:32:41.508442 21180 net.cpp:425] pool2/3x3_s2 <- conv2/norm2
I0403 16:32:41.508463 21180 net.cpp:399] pool2/3x3_s2 -> pool2/3x3_s2
I0403 16:32:41.508517 21180 net.cpp:141] Setting up pool2/3x3_s2
I0403 16:32:41.508541 21180 net.cpp:148] Top shape: 24 192 28 28 (3612672)
I0403 16:32:41.508555 21180 net.cpp:156] Memory required for data: 433521696
I0403 16:32:41.508570 21180 layer_factory.hpp:77] Creating layer pool2/3x3_s2_pool2/3x3_s2_0_split
I0403 16:32:41.508590 21180 net.cpp:91] Creating Layer pool2/3x3_s2_pool2/3x3_s2_0_split
I0403 16:32:41.508607 21180 net.cpp:425] pool2/3x3_s2_pool2/3x3_s2_0_split <- pool2/3x3_s2
I0403 16:32:41.508625 21180 net.cpp:399] pool2/3x3_s2_pool2/3x3_s2_0_split -> pool2/3x3_s2_pool2/3x3_s2_0_split_0
I0403 16:32:41.508646 21180 net.cpp:399] pool2/3x3_s2_pool2/3x3_s2_0_split -> pool2/3x3_s2_pool2/3x3_s2_0_split_1
I0403 16:32:41.508666 21180 net.cpp:399] pool2/3x3_s2_pool2/3x3_s2_0_split -> pool2/3x3_s2_pool2/3x3_s2_0_split_2
I0403 16:32:41.508687 21180 net.cpp:399] pool2/3x3_s2_pool2/3x3_s2_0_split -> pool2/3x3_s2_pool2/3x3_s2_0_split_3
I0403 16:32:41.508757 21180 net.cpp:141] Setting up pool2/3x3_s2_pool2/3x3_s2_0_split
I0403 16:32:41.508780 21180 net.cpp:148] Top shape: 24 192 28 28 (3612672)
I0403 16:32:41.508796 21180 net.cpp:148] Top shape: 24 192 28 28 (3612672)
I0403 16:32:41.508812 21180 net.cpp:148] Top shape: 24 192 28 28 (3612672)
I0403 16:32:41.508828 21180 net.cpp:148] Top shape: 24 192 28 28 (3612672)
I0403 16:32:41.508846 21180 net.cpp:156] Memory required for data: 491324448
I0403 16:32:41.508860 21180 layer_factory.hpp:77] Creating layer inception_3a/1x1
I0403 16:32:41.508883 21180 net.cpp:91] Creating Layer inception_3a/1x1
I0403 16:32:41.508900 21180 net.cpp:425] inception_3a/1x1 <- pool2/3x3_s2_pool2/3x3_s2_0_split_0
I0403 16:32:41.508922 21180 net.cpp:399] inception_3a/1x1 -> inception_3a/1x1
I0403 16:32:41.510506 21180 net.cpp:141] Setting up inception_3a/1x1
I0403 16:32:41.510536 21180 net.cpp:148] Top shape: 24 64 28 28 (1204224)
I0403 16:32:41.510552 21180 net.cpp:156] Memory required for data: 496141344
I0403 16:32:41.510572 21180 layer_factory.hpp:77] Creating layer inception_3a/relu_1x1
I0403 16:32:41.510591 21180 net.cpp:91] Creating Layer inception_3a/relu_1x1
I0403 16:32:41.510607 21180 net.cpp:425] inception_3a/relu_1x1 <- inception_3a/1x1
I0403 16:32:41.510627 21180 net.cpp:386] inception_3a/relu_1x1 -> inception_3a/1x1 (in-place)
I0403 16:32:41.510807 21180 net.cpp:141] Setting up inception_3a/relu_1x1
I0403 16:32:41.510833 21180 net.cpp:148] Top shape: 24 64 28 28 (1204224)
I0403 16:32:41.510848 21180 net.cpp:156] Memory required for data: 500958240
I0403 16:32:41.510862 21180 layer_factory.hpp:77] Creating layer inception_3a/3x3_reduce
I0403 16:32:41.510885 21180 net.cpp:91] Creating Layer inception_3a/3x3_reduce
I0403 16:32:41.510903 21180 net.cpp:425] inception_3a/3x3_reduce <- pool2/3x3_s2_pool2/3x3_s2_0_split_1
I0403 16:32:41.510924 21180 net.cpp:399] inception_3a/3x3_reduce -> inception_3a/3x3_reduce
I0403 16:32:41.512668 21180 net.cpp:141] Setting up inception_3a/3x3_reduce
I0403 16:32:41.512701 21180 net.cpp:148] Top shape: 24 96 28 28 (1806336)
I0403 16:32:41.512717 21180 net.cpp:156] Memory required for data: 508183584
I0403 16:32:41.512739 21180 layer_factory.hpp:77] Creating layer inception_3a/relu_3x3_reduce
I0403 16:32:41.512778 21180 net.cpp:91] Creating Layer inception_3a/relu_3x3_reduce
I0403 16:32:41.512796 21180 net.cpp:425] inception_3a/relu_3x3_reduce <- inception_3a/3x3_reduce
I0403 16:32:41.512814 21180 net.cpp:386] inception_3a/relu_3x3_reduce -> inception_3a/3x3_reduce (in-place)
I0403 16:32:41.513002 21180 net.cpp:141] Setting up inception_3a/relu_3x3_reduce
I0403 16:32:41.513031 21180 net.cpp:148] Top shape: 24 96 28 28 (1806336)
I0403 16:32:41.513046 21180 net.cpp:156] Memory required for data: 515408928
I0403 16:32:41.513065 21180 layer_factory.hpp:77] Creating layer inception_3a/3x3
I0403 16:32:41.513090 21180 net.cpp:91] Creating Layer inception_3a/3x3
I0403 16:32:41.513110 21180 net.cpp:425] inception_3a/3x3 <- inception_3a/3x3_reduce
I0403 16:32:41.513129 21180 net.cpp:399] inception_3a/3x3 -> inception_3a/3x3
I0403 16:32:41.514868 21180 net.cpp:141] Setting up inception_3a/3x3
I0403 16:32:41.514896 21180 net.cpp:148] Top shape: 24 128 28 28 (2408448)
I0403 16:32:41.514912 21180 net.cpp:156] Memory required for data: 525042720
I0403 16:32:41.514931 21180 layer_factory.hpp:77] Creating layer inception_3a/relu_3x3
I0403 16:32:41.514951 21180 net.cpp:91] Creating Layer inception_3a/relu_3x3
I0403 16:32:41.514967 21180 net.cpp:425] inception_3a/relu_3x3 <- inception_3a/3x3
I0403 16:32:41.514988 21180 net.cpp:386] inception_3a/relu_3x3 -> inception_3a/3x3 (in-place)
I0403 16:32:41.515285 21180 net.cpp:141] Setting up inception_3a/relu_3x3
I0403 16:32:41.515311 21180 net.cpp:148] Top shape: 24 128 28 28 (2408448)
I0403 16:32:41.515327 21180 net.cpp:156] Memory required for data: 534676512
I0403 16:32:41.515342 21180 layer_factory.hpp:77] Creating layer inception_3a/5x5_reduce
I0403 16:32:41.515367 21180 net.cpp:91] Creating Layer inception_3a/5x5_reduce
I0403 16:32:41.515384 21180 net.cpp:425] inception_3a/5x5_reduce <- pool2/3x3_s2_pool2/3x3_s2_0_split_2
I0403 16:32:41.515408 21180 net.cpp:399] inception_3a/5x5_reduce -> inception_3a/5x5_reduce
I0403 16:32:41.516433 21180 net.cpp:141] Setting up inception_3a/5x5_reduce
I0403 16:32:41.516463 21180 net.cpp:148] Top shape: 24 16 28 28 (301056)
I0403 16:32:41.516479 21180 net.cpp:156] Memory required for data: 535880736
I0403 16:32:41.516497 21180 layer_factory.hpp:77] Creating layer inception_3a/relu_5x5_reduce
I0403 16:32:41.516520 21180 net.cpp:91] Creating Layer inception_3a/relu_5x5_reduce
I0403 16:32:41.516537 21180 net.cpp:425] inception_3a/relu_5x5_reduce <- inception_3a/5x5_reduce
I0403 16:32:41.516556 21180 net.cpp:386] inception_3a/relu_5x5_reduce -> inception_3a/5x5_reduce (in-place)
I0403 16:32:41.516868 21180 net.cpp:141] Setting up inception_3a/relu_5x5_reduce
I0403 16:32:41.516896 21180 net.cpp:148] Top shape: 24 16 28 28 (301056)
I0403 16:32:41.516911 21180 net.cpp:156] Memory required for data: 537084960
I0403 16:32:41.516926 21180 layer_factory.hpp:77] Creating layer inception_3a/5x5
I0403 16:32:41.516948 21180 net.cpp:91] Creating Layer inception_3a/5x5
I0403 16:32:41.516968 21180 net.cpp:425] inception_3a/5x5 <- inception_3a/5x5_reduce
I0403 16:32:41.516988 21180 net.cpp:399] inception_3a/5x5 -> inception_3a/5x5
I0403 16:32:41.518080 21180 net.cpp:141] Setting up inception_3a/5x5
I0403 16:32:41.518110 21180 net.cpp:148] Top shape: 24 32 28 28 (602112)
I0403 16:32:41.518126 21180 net.cpp:156] Memory required for data: 539493408
I0403 16:32:41.518146 21180 layer_factory.hpp:77] Creating layer inception_3a/relu_5x5
I0403 16:32:41.518164 21180 net.cpp:91] Creating Layer inception_3a/relu_5x5
I0403 16:32:41.518182 21180 net.cpp:425] inception_3a/relu_5x5 <- inception_3a/5x5
I0403 16:32:41.518201 21180 net.cpp:386] inception_3a/relu_5x5 -> inception_3a/5x5 (in-place)
I0403 16:32:41.518398 21180 net.cpp:141] Setting up inception_3a/relu_5x5
I0403 16:32:41.518424 21180 net.cpp:148] Top shape: 24 32 28 28 (602112)
I0403 16:32:41.518438 21180 net.cpp:156] Memory required for data: 541901856
I0403 16:32:41.518453 21180 layer_factory.hpp:77] Creating layer inception_3a/pool
I0403 16:32:41.518474 21180 net.cpp:91] Creating Layer inception_3a/pool
I0403 16:32:41.518506 21180 net.cpp:425] inception_3a/pool <- pool2/3x3_s2_pool2/3x3_s2_0_split_3
I0403 16:32:41.518525 21180 net.cpp:399] inception_3a/pool -> inception_3a/pool
I0403 16:32:41.518586 21180 net.cpp:141] Setting up inception_3a/pool
I0403 16:32:41.518611 21180 net.cpp:148] Top shape: 24 192 28 28 (3612672)
I0403 16:32:41.518626 21180 net.cpp:156] Memory required for data: 556352544
I0403 16:32:41.518641 21180 layer_factory.hpp:77] Creating layer inception_3a/pool_proj
I0403 16:32:41.518664 21180 net.cpp:91] Creating Layer inception_3a/pool_proj
I0403 16:32:41.518682 21180 net.cpp:425] inception_3a/pool_proj <- inception_3a/pool
I0403 16:32:41.518705 21180 net.cpp:399] inception_3a/pool_proj -> inception_3a/pool_proj
I0403 16:32:41.519728 21180 net.cpp:141] Setting up inception_3a/pool_proj
I0403 16:32:41.519760 21180 net.cpp:148] Top shape: 24 32 28 28 (602112)
I0403 16:32:41.519778 21180 net.cpp:156] Memory required for data: 558760992
I0403 16:32:41.519800 21180 layer_factory.hpp:77] Creating layer inception_3a/relu_pool_proj
I0403 16:32:41.519822 21180 net.cpp:91] Creating Layer inception_3a/relu_pool_proj
I0403 16:32:41.519840 21180 net.cpp:425] inception_3a/relu_pool_proj <- inception_3a/pool_proj
I0403 16:32:41.519860 21180 net.cpp:386] inception_3a/relu_pool_proj -> inception_3a/pool_proj (in-place)
I0403 16:32:41.520172 21180 net.cpp:141] Setting up inception_3a/relu_pool_proj
I0403 16:32:41.520200 21180 net.cpp:148] Top shape: 24 32 28 28 (602112)
I0403 16:32:41.520215 21180 net.cpp:156] Memory required for data: 561169440
I0403 16:32:41.520229 21180 layer_factory.hpp:77] Creating layer inception_3a/output
I0403 16:32:41.520248 21180 net.cpp:91] Creating Layer inception_3a/output
I0403 16:32:41.520264 21180 net.cpp:425] inception_3a/output <- inception_3a/1x1
I0403 16:32:41.520282 21180 net.cpp:425] inception_3a/output <- inception_3a/3x3
I0403 16:32:41.520298 21180 net.cpp:425] inception_3a/output <- inception_3a/5x5
I0403 16:32:41.520313 21180 net.cpp:425] inception_3a/output <- inception_3a/pool_proj
I0403 16:32:41.520333 21180 net.cpp:399] inception_3a/output -> inception_3a/output
I0403 16:32:41.520380 21180 net.cpp:141] Setting up inception_3a/output
I0403 16:32:41.520406 21180 net.cpp:148] Top shape: 24 256 28 28 (4816896)
I0403 16:32:41.520421 21180 net.cpp:156] Memory required for data: 580437024
I0403 16:32:41.520437 21180 layer_factory.hpp:77] Creating layer inception_3a/output_inception_3a/output_0_split
I0403 16:32:41.520453 21180 net.cpp:91] Creating Layer inception_3a/output_inception_3a/output_0_split
I0403 16:32:41.520468 21180 net.cpp:425] inception_3a/output_inception_3a/output_0_split <- inception_3a/output
I0403 16:32:41.520485 21180 net.cpp:399] inception_3a/output_inception_3a/output_0_split -> inception_3a/output_inception_3a/output_0_split_0
I0403 16:32:41.520509 21180 net.cpp:399] inception_3a/output_inception_3a/output_0_split -> inception_3a/output_inception_3a/output_0_split_1
I0403 16:32:41.520532 21180 net.cpp:399] inception_3a/output_inception_3a/output_0_split -> inception_3a/output_inception_3a/output_0_split_2
I0403 16:32:41.520553 21180 net.cpp:399] inception_3a/output_inception_3a/output_0_split -> inception_3a/output_inception_3a/output_0_split_3
I0403 16:32:41.520632 21180 net.cpp:141] Setting up inception_3a/output_inception_3a/output_0_split
I0403 16:32:41.520658 21180 net.cpp:148] Top shape: 24 256 28 28 (4816896)
I0403 16:32:41.520675 21180 net.cpp:148] Top shape: 24 256 28 28 (4816896)
I0403 16:32:41.520691 21180 net.cpp:148] Top shape: 24 256 28 28 (4816896)
I0403 16:32:41.520707 21180 net.cpp:148] Top shape: 24 256 28 28 (4816896)
I0403 16:32:41.520721 21180 net.cpp:156] Memory required for data: 657507360
I0403 16:32:41.520735 21180 layer_factory.hpp:77] Creating layer inception_3b/1x1
I0403 16:32:41.520758 21180 net.cpp:91] Creating Layer inception_3b/1x1
I0403 16:32:41.520776 21180 net.cpp:425] inception_3b/1x1 <- inception_3a/output_inception_3a/output_0_split_0
I0403 16:32:41.520797 21180 net.cpp:399] inception_3b/1x1 -> inception_3b/1x1
I0403 16:32:41.521968 21180 net.cpp:141] Setting up inception_3b/1x1
I0403 16:32:41.522011 21180 net.cpp:148] Top shape: 24 128 28 28 (2408448)
I0403 16:32:41.522029 21180 net.cpp:156] Memory required for data: 667141152
I0403 16:32:41.522050 21180 layer_factory.hpp:77] Creating layer inception_3b/relu_1x1
I0403 16:32:41.522071 21180 net.cpp:91] Creating Layer inception_3b/relu_1x1
I0403 16:32:41.522088 21180 net.cpp:425] inception_3b/relu_1x1 <- inception_3b/1x1
I0403 16:32:41.522109 21180 net.cpp:386] inception_3b/relu_1x1 -> inception_3b/1x1 (in-place)
I0403 16:32:41.522292 21180 net.cpp:141] Setting up inception_3b/relu_1x1
I0403 16:32:41.522317 21180 net.cpp:148] Top shape: 24 128 28 28 (2408448)
I0403 16:32:41.522332 21180 net.cpp:156] Memory required for data: 676774944
I0403 16:32:41.522346 21180 layer_factory.hpp:77] Creating layer inception_3b/3x3_reduce
I0403 16:32:41.522369 21180 net.cpp:91] Creating Layer inception_3b/3x3_reduce
I0403 16:32:41.522387 21180 net.cpp:425] inception_3b/3x3_reduce <- inception_3a/output_inception_3a/output_0_split_1
I0403 16:32:41.522408 21180 net.cpp:399] inception_3b/3x3_reduce -> inception_3b/3x3_reduce
I0403 16:32:41.523576 21180 net.cpp:141] Setting up inception_3b/3x3_reduce
I0403 16:32:41.523607 21180 net.cpp:148] Top shape: 24 128 28 28 (2408448)
I0403 16:32:41.523623 21180 net.cpp:156] Memory required for data: 686408736
I0403 16:32:41.523643 21180 layer_factory.hpp:77] Creating layer inception_3b/relu_3x3_reduce
I0403 16:32:41.523661 21180 net.cpp:91] Creating Layer inception_3b/relu_3x3_reduce
I0403 16:32:41.523677 21180 net.cpp:425] inception_3b/relu_3x3_reduce <- inception_3b/3x3_reduce
I0403 16:32:41.523697 21180 net.cpp:386] inception_3b/relu_3x3_reduce -> inception_3b/3x3_reduce (in-place)
I0403 16:32:41.523879 21180 net.cpp:141] Setting up inception_3b/relu_3x3_reduce
I0403 16:32:41.523903 21180 net.cpp:148] Top shape: 24 128 28 28 (2408448)
I0403 16:32:41.523918 21180 net.cpp:156] Memory required for data: 696042528
I0403 16:32:41.523933 21180 layer_factory.hpp:77] Creating layer inception_3b/3x3
I0403 16:32:41.523959 21180 net.cpp:91] Creating Layer inception_3b/3x3
I0403 16:32:41.523978 21180 net.cpp:425] inception_3b/3x3 <- inception_3b/3x3_reduce
I0403 16:32:41.523998 21180 net.cpp:399] inception_3b/3x3 -> inception_3b/3x3
I0403 16:32:41.526973 21180 net.cpp:141] Setting up inception_3b/3x3
I0403 16:32:41.527003 21180 net.cpp:148] Top shape: 24 192 28 28 (3612672)
I0403 16:32:41.527017 21180 net.cpp:156] Memory required for data: 710493216
I0403 16:32:41.527036 21180 layer_factory.hpp:77] Creating layer inception_3b/relu_3x3
I0403 16:32:41.527060 21180 net.cpp:91] Creating Layer inception_3b/relu_3x3
I0403 16:32:41.527078 21180 net.cpp:425] inception_3b/relu_3x3 <- inception_3b/3x3
I0403 16:32:41.527098 21180 net.cpp:386] inception_3b/relu_3x3 -> inception_3b/3x3 (in-place)
I0403 16:32:41.527390 21180 net.cpp:141] Setting up inception_3b/relu_3x3
I0403 16:32:41.527417 21180 net.cpp:148] Top shape: 24 192 28 28 (3612672)
I0403 16:32:41.527432 21180 net.cpp:156] Memory required for data: 724943904
I0403 16:32:41.527447 21180 layer_factory.hpp:77] Creating layer inception_3b/5x5_reduce
I0403 16:32:41.527470 21180 net.cpp:91] Creating Layer inception_3b/5x5_reduce
I0403 16:32:41.527488 21180 net.cpp:425] inception_3b/5x5_reduce <- inception_3a/output_inception_3a/output_0_split_2
I0403 16:32:41.527510 21180 net.cpp:399] inception_3b/5x5_reduce -> inception_3b/5x5_reduce
I0403 16:32:41.528544 21180 net.cpp:141] Setting up inception_3b/5x5_reduce
I0403 16:32:41.528573 21180 net.cpp:148] Top shape: 24 32 28 28 (602112)
I0403 16:32:41.528589 21180 net.cpp:156] Memory required for data: 727352352
I0403 16:32:41.528607 21180 layer_factory.hpp:77] Creating layer inception_3b/relu_5x5_reduce
I0403 16:32:41.528625 21180 net.cpp:91] Creating Layer inception_3b/relu_5x5_reduce
I0403 16:32:41.528641 21180 net.cpp:425] inception_3b/relu_5x5_reduce <- inception_3b/5x5_reduce
I0403 16:32:41.528661 21180 net.cpp:386] inception_3b/relu_5x5_reduce -> inception_3b/5x5_reduce (in-place)
I0403 16:32:41.528861 21180 net.cpp:141] Setting up inception_3b/relu_5x5_reduce
I0403 16:32:41.528885 21180 net.cpp:148] Top shape: 24 32 28 28 (602112)
I0403 16:32:41.528900 21180 net.cpp:156] Memory required for data: 729760800
I0403 16:32:41.528915 21180 layer_factory.hpp:77] Creating layer inception_3b/5x5
I0403 16:32:41.528939 21180 net.cpp:91] Creating Layer inception_3b/5x5
I0403 16:32:41.528956 21180 net.cpp:425] inception_3b/5x5 <- inception_3b/5x5_reduce
I0403 16:32:41.528977 21180 net.cpp:399] inception_3b/5x5 -> inception_3b/5x5
I0403 16:32:41.531003 21180 net.cpp:141] Setting up inception_3b/5x5
I0403 16:32:41.531035 21180 net.cpp:148] Top shape: 24 96 28 28 (1806336)
I0403 16:32:41.531056 21180 net.cpp:156] Memory required for data: 736986144
I0403 16:32:41.531076 21180 layer_factory.hpp:77] Creating layer inception_3b/relu_5x5
I0403 16:32:41.531095 21180 net.cpp:91] Creating Layer inception_3b/relu_5x5
I0403 16:32:41.531111 21180 net.cpp:425] inception_3b/relu_5x5 <- inception_3b/5x5
I0403 16:32:41.531127 21180 net.cpp:386] inception_3b/relu_5x5 -> inception_3b/5x5 (in-place)
I0403 16:32:41.531332 21180 net.cpp:141] Setting up inception_3b/relu_5x5
I0403 16:32:41.531358 21180 net.cpp:148] Top shape: 24 96 28 28 (1806336)
I0403 16:32:41.531373 21180 net.cpp:156] Memory required for data: 744211488
I0403 16:32:41.531388 21180 layer_factory.hpp:77] Creating layer inception_3b/pool
I0403 16:32:41.531405 21180 net.cpp:91] Creating Layer inception_3b/pool
I0403 16:32:41.531421 21180 net.cpp:425] inception_3b/pool <- inception_3a/output_inception_3a/output_0_split_3
I0403 16:32:41.531440 21180 net.cpp:399] inception_3b/pool -> inception_3b/pool
I0403 16:32:41.531497 21180 net.cpp:141] Setting up inception_3b/pool
I0403 16:32:41.531523 21180 net.cpp:148] Top shape: 24 256 28 28 (4816896)
I0403 16:32:41.531538 21180 net.cpp:156] Memory required for data: 763479072
I0403 16:32:41.531553 21180 layer_factory.hpp:77] Creating layer inception_3b/pool_proj
I0403 16:32:41.531575 21180 net.cpp:91] Creating Layer inception_3b/pool_proj
I0403 16:32:41.531594 21180 net.cpp:425] inception_3b/pool_proj <- inception_3b/pool
I0403 16:32:41.531615 21180 net.cpp:399] inception_3b/pool_proj -> inception_3b/pool_proj
I0403 16:32:41.532742 21180 net.cpp:141] Setting up inception_3b/pool_proj
I0403 16:32:41.532770 21180 net.cpp:148] Top shape: 24 64 28 28 (1204224)
I0403 16:32:41.532786 21180 net.cpp:156] Memory required for data: 768295968
I0403 16:32:41.532805 21180 layer_factory.hpp:77] Creating layer inception_3b/relu_pool_proj
I0403 16:32:41.532827 21180 net.cpp:91] Creating Layer inception_3b/relu_pool_proj
I0403 16:32:41.532845 21180 net.cpp:425] inception_3b/relu_pool_proj <- inception_3b/pool_proj
I0403 16:32:41.532862 21180 net.cpp:386] inception_3b/relu_pool_proj -> inception_3b/pool_proj (in-place)
I0403 16:32:41.533303 21180 net.cpp:141] Setting up inception_3b/relu_pool_proj
I0403 16:32:41.533329 21180 net.cpp:148] Top shape: 24 64 28 28 (1204224)
I0403 16:32:41.533344 21180 net.cpp:156] Memory required for data: 773112864
I0403 16:32:41.533357 21180 layer_factory.hpp:77] Creating layer inception_3b/output
I0403 16:32:41.533375 21180 net.cpp:91] Creating Layer inception_3b/output
I0403 16:32:41.533390 21180 net.cpp:425] inception_3b/output <- inception_3b/1x1
I0403 16:32:41.533408 21180 net.cpp:425] inception_3b/output <- inception_3b/3x3
I0403 16:32:41.533426 21180 net.cpp:425] inception_3b/output <- inception_3b/5x5
I0403 16:32:41.533440 21180 net.cpp:425] inception_3b/output <- inception_3b/pool_proj
I0403 16:32:41.533457 21180 net.cpp:399] inception_3b/output -> inception_3b/output
I0403 16:32:41.533502 21180 net.cpp:141] Setting up inception_3b/output
I0403 16:32:41.533525 21180 net.cpp:148] Top shape: 24 480 28 28 (9031680)
I0403 16:32:41.533540 21180 net.cpp:156] Memory required for data: 809239584
I0403 16:32:41.533553 21180 layer_factory.hpp:77] Creating layer pool3/3x3_s2
I0403 16:32:41.533571 21180 net.cpp:91] Creating Layer pool3/3x3_s2
I0403 16:32:41.533586 21180 net.cpp:425] pool3/3x3_s2 <- inception_3b/output
I0403 16:32:41.533622 21180 net.cpp:399] pool3/3x3_s2 -> pool3/3x3_s2
I0403 16:32:41.533681 21180 net.cpp:141] Setting up pool3/3x3_s2
I0403 16:32:41.533704 21180 net.cpp:148] Top shape: 24 480 14 14 (2257920)
I0403 16:32:41.533718 21180 net.cpp:156] Memory required for data: 818271264
I0403 16:32:41.533732 21180 layer_factory.hpp:77] Creating layer pool3/3x3_s2_pool3/3x3_s2_0_split
I0403 16:32:41.533751 21180 net.cpp:91] Creating Layer pool3/3x3_s2_pool3/3x3_s2_0_split
I0403 16:32:41.533766 21180 net.cpp:425] pool3/3x3_s2_pool3/3x3_s2_0_split <- pool3/3x3_s2
I0403 16:32:41.533783 21180 net.cpp:399] pool3/3x3_s2_pool3/3x3_s2_0_split -> pool3/3x3_s2_pool3/3x3_s2_0_split_0
I0403 16:32:41.533804 21180 net.cpp:399] pool3/3x3_s2_pool3/3x3_s2_0_split -> pool3/3x3_s2_pool3/3x3_s2_0_split_1
I0403 16:32:41.533823 21180 net.cpp:399] pool3/3x3_s2_pool3/3x3_s2_0_split -> pool3/3x3_s2_pool3/3x3_s2_0_split_2
I0403 16:32:41.533843 21180 net.cpp:399] pool3/3x3_s2_pool3/3x3_s2_0_split -> pool3/3x3_s2_pool3/3x3_s2_0_split_3
I0403 16:32:41.533917 21180 net.cpp:141] Setting up pool3/3x3_s2_pool3/3x3_s2_0_split
I0403 16:32:41.533939 21180 net.cpp:148] Top shape: 24 480 14 14 (2257920)
I0403 16:32:41.533956 21180 net.cpp:148] Top shape: 24 480 14 14 (2257920)
I0403 16:32:41.533970 21180 net.cpp:148] Top shape: 24 480 14 14 (2257920)
I0403 16:32:41.533987 21180 net.cpp:148] Top shape: 24 480 14 14 (2257920)
I0403 16:32:41.534000 21180 net.cpp:156] Memory required for data: 854397984
I0403 16:32:41.534014 21180 layer_factory.hpp:77] Creating layer inception_4a/1x1
I0403 16:32:41.534036 21180 net.cpp:91] Creating Layer inception_4a/1x1
I0403 16:32:41.534059 21180 net.cpp:425] inception_4a/1x1 <- pool3/3x3_s2_pool3/3x3_s2_0_split_0
I0403 16:32:41.534080 21180 net.cpp:399] inception_4a/1x1 -> inception_4a/1x1
I0403 16:32:41.535657 21180 net.cpp:141] Setting up inception_4a/1x1
I0403 16:32:41.535687 21180 net.cpp:148] Top shape: 24 192 14 14 (903168)
I0403 16:32:41.535703 21180 net.cpp:156] Memory required for data: 858010656
I0403 16:32:41.535722 21180 layer_factory.hpp:77] Creating layer inception_4a/relu_1x1
I0403 16:32:41.535739 21180 net.cpp:91] Creating Layer inception_4a/relu_1x1
I0403 16:32:41.535754 21180 net.cpp:425] inception_4a/relu_1x1 <- inception_4a/1x1
I0403 16:32:41.535771 21180 net.cpp:386] inception_4a/relu_1x1 -> inception_4a/1x1 (in-place)
I0403 16:32:41.535949 21180 net.cpp:141] Setting up inception_4a/relu_1x1
I0403 16:32:41.535976 21180 net.cpp:148] Top shape: 24 192 14 14 (903168)
I0403 16:32:41.535990 21180 net.cpp:156] Memory required for data: 861623328
I0403 16:32:41.536005 21180 layer_factory.hpp:77] Creating layer inception_4a/3x3_reduce
I0403 16:32:41.536027 21180 net.cpp:91] Creating Layer inception_4a/3x3_reduce
I0403 16:32:41.536044 21180 net.cpp:425] inception_4a/3x3_reduce <- pool3/3x3_s2_pool3/3x3_s2_0_split_1
I0403 16:32:41.536068 21180 net.cpp:399] inception_4a/3x3_reduce -> inception_4a/3x3_reduce
I0403 16:32:41.537353 21180 net.cpp:141] Setting up inception_4a/3x3_reduce
I0403 16:32:41.537379 21180 net.cpp:148] Top shape: 24 96 14 14 (451584)
I0403 16:32:41.537395 21180 net.cpp:156] Memory required for data: 863429664
I0403 16:32:41.537420 21180 layer_factory.hpp:77] Creating layer inception_4a/relu_3x3_reduce
I0403 16:32:41.537441 21180 net.cpp:91] Creating Layer inception_4a/relu_3x3_reduce
I0403 16:32:41.537456 21180 net.cpp:425] inception_4a/relu_3x3_reduce <- inception_4a/3x3_reduce
I0403 16:32:41.537473 21180 net.cpp:386] inception_4a/relu_3x3_reduce -> inception_4a/3x3_reduce (in-place)
I0403 16:32:41.537650 21180 net.cpp:141] Setting up inception_4a/relu_3x3_reduce
I0403 16:32:41.537678 21180 net.cpp:148] Top shape: 24 96 14 14 (451584)
I0403 16:32:41.537693 21180 net.cpp:156] Memory required for data: 865236000
I0403 16:32:41.537708 21180 layer_factory.hpp:77] Creating layer inception_4a/3x3
I0403 16:32:41.537730 21180 net.cpp:91] Creating Layer inception_4a/3x3
I0403 16:32:41.537747 21180 net.cpp:425] inception_4a/3x3 <- inception_4a/3x3_reduce
I0403 16:32:41.537765 21180 net.cpp:399] inception_4a/3x3 -> inception_4a/3x3
I0403 16:32:41.540442 21180 net.cpp:141] Setting up inception_4a/3x3
I0403 16:32:41.540472 21180 net.cpp:148] Top shape: 24 208 14 14 (978432)
I0403 16:32:41.540488 21180 net.cpp:156] Memory required for data: 869149728
I0403 16:32:41.540505 21180 layer_factory.hpp:77] Creating layer inception_4a/relu_3x3
I0403 16:32:41.540523 21180 net.cpp:91] Creating Layer inception_4a/relu_3x3
I0403 16:32:41.540539 21180 net.cpp:425] inception_4a/relu_3x3 <- inception_4a/3x3
I0403 16:32:41.540557 21180 net.cpp:386] inception_4a/relu_3x3 -> inception_4a/3x3 (in-place)
I0403 16:32:41.540846 21180 net.cpp:141] Setting up inception_4a/relu_3x3
I0403 16:32:41.540874 21180 net.cpp:148] Top shape: 24 208 14 14 (978432)
I0403 16:32:41.540889 21180 net.cpp:156] Memory required for data: 873063456
I0403 16:32:41.540904 21180 layer_factory.hpp:77] Creating layer inception_4a/5x5_reduce
I0403 16:32:41.540925 21180 net.cpp:91] Creating Layer inception_4a/5x5_reduce
I0403 16:32:41.540943 21180 net.cpp:425] inception_4a/5x5_reduce <- pool3/3x3_s2_pool3/3x3_s2_0_split_2
I0403 16:32:41.540966 21180 net.cpp:399] inception_4a/5x5_reduce -> inception_4a/5x5_reduce
I0403 16:32:41.542042 21180 net.cpp:141] Setting up inception_4a/5x5_reduce
I0403 16:32:41.542073 21180 net.cpp:148] Top shape: 24 16 14 14 (75264)
I0403 16:32:41.542089 21180 net.cpp:156] Memory required for data: 873364512
I0403 16:32:41.542107 21180 layer_factory.hpp:77] Creating layer inception_4a/relu_5x5_reduce
I0403 16:32:41.542125 21180 net.cpp:91] Creating Layer inception_4a/relu_5x5_reduce
I0403 16:32:41.542140 21180 net.cpp:425] inception_4a/relu_5x5_reduce <- inception_4a/5x5_reduce
I0403 16:32:41.542160 21180 net.cpp:386] inception_4a/relu_5x5_reduce -> inception_4a/5x5_reduce (in-place)
I0403 16:32:41.542348 21180 net.cpp:141] Setting up inception_4a/relu_5x5_reduce
I0403 16:32:41.542373 21180 net.cpp:148] Top shape: 24 16 14 14 (75264)
I0403 16:32:41.542387 21180 net.cpp:156] Memory required for data: 873665568
I0403 16:32:41.542402 21180 layer_factory.hpp:77] Creating layer inception_4a/5x5
I0403 16:32:41.542424 21180 net.cpp:91] Creating Layer inception_4a/5x5
I0403 16:32:41.542441 21180 net.cpp:425] inception_4a/5x5 <- inception_4a/5x5_reduce
I0403 16:32:41.542462 21180 net.cpp:399] inception_4a/5x5 -> inception_4a/5x5
I0403 16:32:41.543572 21180 net.cpp:141] Setting up inception_4a/5x5
I0403 16:32:41.543599 21180 net.cpp:148] Top shape: 24 48 14 14 (225792)
I0403 16:32:41.543614 21180 net.cpp:156] Memory required for data: 874568736
I0403 16:32:41.543632 21180 layer_factory.hpp:77] Creating layer inception_4a/relu_5x5
I0403 16:32:41.543653 21180 net.cpp:91] Creating Layer inception_4a/relu_5x5
I0403 16:32:41.543670 21180 net.cpp:425] inception_4a/relu_5x5 <- inception_4a/5x5
I0403 16:32:41.543686 21180 net.cpp:386] inception_4a/relu_5x5 -> inception_4a/5x5 (in-place)
I0403 16:32:41.543872 21180 net.cpp:141] Setting up inception_4a/relu_5x5
I0403 16:32:41.543900 21180 net.cpp:148] Top shape: 24 48 14 14 (225792)
I0403 16:32:41.543915 21180 net.cpp:156] Memory required for data: 875471904
I0403 16:32:41.543929 21180 layer_factory.hpp:77] Creating layer inception_4a/pool
I0403 16:32:41.543946 21180 net.cpp:91] Creating Layer inception_4a/pool
I0403 16:32:41.543962 21180 net.cpp:425] inception_4a/pool <- pool3/3x3_s2_pool3/3x3_s2_0_split_3
I0403 16:32:41.543979 21180 net.cpp:399] inception_4a/pool -> inception_4a/pool
I0403 16:32:41.544040 21180 net.cpp:141] Setting up inception_4a/pool
I0403 16:32:41.544069 21180 net.cpp:148] Top shape: 24 480 14 14 (2257920)
I0403 16:32:41.544083 21180 net.cpp:156] Memory required for data: 884503584
I0403 16:32:41.544097 21180 layer_factory.hpp:77] Creating layer inception_4a/pool_proj
I0403 16:32:41.544119 21180 net.cpp:91] Creating Layer inception_4a/pool_proj
I0403 16:32:41.544137 21180 net.cpp:425] inception_4a/pool_proj <- inception_4a/pool
I0403 16:32:41.544157 21180 net.cpp:399] inception_4a/pool_proj -> inception_4a/pool_proj
I0403 16:32:41.545389 21180 net.cpp:141] Setting up inception_4a/pool_proj
I0403 16:32:41.545418 21180 net.cpp:148] Top shape: 24 64 14 14 (301056)
I0403 16:32:41.545449 21180 net.cpp:156] Memory required for data: 885707808
I0403 16:32:41.545469 21180 layer_factory.hpp:77] Creating layer inception_4a/relu_pool_proj
I0403 16:32:41.545490 21180 net.cpp:91] Creating Layer inception_4a/relu_pool_proj
I0403 16:32:41.545507 21180 net.cpp:425] inception_4a/relu_pool_proj <- inception_4a/pool_proj
I0403 16:32:41.545537 21180 net.cpp:386] inception_4a/relu_pool_proj -> inception_4a/pool_proj (in-place)
I0403 16:32:41.545842 21180 net.cpp:141] Setting up inception_4a/relu_pool_proj
I0403 16:32:41.545869 21180 net.cpp:148] Top shape: 24 64 14 14 (301056)
I0403 16:32:41.545884 21180 net.cpp:156] Memory required for data: 886912032
I0403 16:32:41.545899 21180 layer_factory.hpp:77] Creating layer inception_4a/output
I0403 16:32:41.545918 21180 net.cpp:91] Creating Layer inception_4a/output
I0403 16:32:41.545935 21180 net.cpp:425] inception_4a/output <- inception_4a/1x1
I0403 16:32:41.545951 21180 net.cpp:425] inception_4a/output <- inception_4a/3x3
I0403 16:32:41.545967 21180 net.cpp:425] inception_4a/output <- inception_4a/5x5
I0403 16:32:41.545984 21180 net.cpp:425] inception_4a/output <- inception_4a/pool_proj
I0403 16:32:41.546000 21180 net.cpp:399] inception_4a/output -> inception_4a/output
I0403 16:32:41.546051 21180 net.cpp:141] Setting up inception_4a/output
I0403 16:32:41.546075 21180 net.cpp:148] Top shape: 24 512 14 14 (2408448)
I0403 16:32:41.546090 21180 net.cpp:156] Memory required for data: 896545824
I0403 16:32:41.546105 21180 layer_factory.hpp:77] Creating layer inception_4a/output_inception_4a/output_0_split
I0403 16:32:41.546123 21180 net.cpp:91] Creating Layer inception_4a/output_inception_4a/output_0_split
I0403 16:32:41.546139 21180 net.cpp:425] inception_4a/output_inception_4a/output_0_split <- inception_4a/output
I0403 16:32:41.546159 21180 net.cpp:399] inception_4a/output_inception_4a/output_0_split -> inception_4a/output_inception_4a/output_0_split_0
I0403 16:32:41.546180 21180 net.cpp:399] inception_4a/output_inception_4a/output_0_split -> inception_4a/output_inception_4a/output_0_split_1
I0403 16:32:41.546201 21180 net.cpp:399] inception_4a/output_inception_4a/output_0_split -> inception_4a/output_inception_4a/output_0_split_2
I0403 16:32:41.546234 21180 net.cpp:399] inception_4a/output_inception_4a/output_0_split -> inception_4a/output_inception_4a/output_0_split_3
I0403 16:32:41.546257 21180 net.cpp:399] inception_4a/output_inception_4a/output_0_split -> inception_4a/output_inception_4a/output_0_split_4
I0403 16:32:41.546349 21180 net.cpp:141] Setting up inception_4a/output_inception_4a/output_0_split
I0403 16:32:41.546371 21180 net.cpp:148] Top shape: 24 512 14 14 (2408448)
I0403 16:32:41.546387 21180 net.cpp:148] Top shape: 24 512 14 14 (2408448)
I0403 16:32:41.546403 21180 net.cpp:148] Top shape: 24 512 14 14 (2408448)
I0403 16:32:41.546418 21180 net.cpp:148] Top shape: 24 512 14 14 (2408448)
I0403 16:32:41.546433 21180 net.cpp:148] Top shape: 24 512 14 14 (2408448)
I0403 16:32:41.546447 21180 net.cpp:156] Memory required for data: 944714784
I0403 16:32:41.546460 21180 layer_factory.hpp:77] Creating layer loss1/ave_pool
I0403 16:32:41.546478 21180 net.cpp:91] Creating Layer loss1/ave_pool
I0403 16:32:41.546492 21180 net.cpp:425] loss1/ave_pool <- inception_4a/output_inception_4a/output_0_split_0
I0403 16:32:41.546512 21180 net.cpp:399] loss1/ave_pool -> loss1/ave_pool
I0403 16:32:41.546725 21180 net.cpp:141] Setting up loss1/ave_pool
I0403 16:32:41.546751 21180 net.cpp:148] Top shape: 24 512 4 4 (196608)
I0403 16:32:41.546764 21180 net.cpp:156] Memory required for data: 945501216
I0403 16:32:41.546779 21180 layer_factory.hpp:77] Creating layer loss1/conv
I0403 16:32:41.546802 21180 net.cpp:91] Creating Layer loss1/conv
I0403 16:32:41.546819 21180 net.cpp:425] loss1/conv <- loss1/ave_pool
I0403 16:32:41.546838 21180 net.cpp:399] loss1/conv -> loss1/conv
I0403 16:32:41.548307 21180 net.cpp:141] Setting up loss1/conv
I0403 16:32:41.548336 21180 net.cpp:148] Top shape: 24 128 4 4 (49152)
I0403 16:32:41.548365 21180 net.cpp:156] Memory required for data: 945697824
I0403 16:32:41.548385 21180 layer_factory.hpp:77] Creating layer loss1/relu_conv
I0403 16:32:41.548404 21180 net.cpp:91] Creating Layer loss1/relu_conv
I0403 16:32:41.548420 21180 net.cpp:425] loss1/relu_conv <- loss1/conv
I0403 16:32:41.548440 21180 net.cpp:386] loss1/relu_conv -> loss1/conv (in-place)
I0403 16:32:41.548738 21180 net.cpp:141] Setting up loss1/relu_conv
I0403 16:32:41.548764 21180 net.cpp:148] Top shape: 24 128 4 4 (49152)
I0403 16:32:41.548779 21180 net.cpp:156] Memory required for data: 945894432
I0403 16:32:41.548794 21180 layer_factory.hpp:77] Creating layer loss1/fc
I0403 16:32:41.548818 21180 net.cpp:91] Creating Layer loss1/fc
I0403 16:32:41.548837 21180 net.cpp:425] loss1/fc <- loss1/conv
I0403 16:32:41.548858 21180 net.cpp:399] loss1/fc -> loss1/fc
I0403 16:32:41.567208 21180 net.cpp:141] Setting up loss1/fc
I0403 16:32:41.567250 21180 net.cpp:148] Top shape: 24 1024 (24576)
I0403 16:32:41.567266 21180 net.cpp:156] Memory required for data: 945992736
I0403 16:32:41.567286 21180 layer_factory.hpp:77] Creating layer loss1/relu_fc
I0403 16:32:41.567306 21180 net.cpp:91] Creating Layer loss1/relu_fc
I0403 16:32:41.567322 21180 net.cpp:425] loss1/relu_fc <- loss1/fc
I0403 16:32:41.567339 21180 net.cpp:386] loss1/relu_fc -> loss1/fc (in-place)
I0403 16:32:41.567544 21180 net.cpp:141] Setting up loss1/relu_fc
I0403 16:32:41.567574 21180 net.cpp:148] Top shape: 24 1024 (24576)
I0403 16:32:41.567589 21180 net.cpp:156] Memory required for data: 946091040
I0403 16:32:41.567605 21180 layer_factory.hpp:77] Creating layer loss1/drop_fc
I0403 16:32:41.567631 21180 net.cpp:91] Creating Layer loss1/drop_fc
I0403 16:32:41.567649 21180 net.cpp:425] loss1/drop_fc <- loss1/fc
I0403 16:32:41.567669 21180 net.cpp:386] loss1/drop_fc -> loss1/fc (in-place)
I0403 16:32:41.567724 21180 net.cpp:141] Setting up loss1/drop_fc
I0403 16:32:41.567747 21180 net.cpp:148] Top shape: 24 1024 (24576)
I0403 16:32:41.567762 21180 net.cpp:156] Memory required for data: 946189344
I0403 16:32:41.567777 21180 layer_factory.hpp:77] Creating layer loss1/classifier_plantvillage
I0403 16:32:41.567800 21180 net.cpp:91] Creating Layer loss1/classifier_plantvillage
I0403 16:32:41.567817 21180 net.cpp:425] loss1/classifier_plantvillage <- loss1/fc
I0403 16:32:41.567836 21180 net.cpp:399] loss1/classifier_plantvillage -> loss1/classifier_plantvillage
I0403 16:32:41.568771 21180 net.cpp:141] Setting up loss1/classifier_plantvillage
I0403 16:32:41.568802 21180 net.cpp:148] Top shape: 24 38 (912)
I0403 16:32:41.568819 21180 net.cpp:156] Memory required for data: 946192992
I0403 16:32:41.568838 21180 layer_factory.hpp:77] Creating layer loss1/classifier_plantvillage_loss1/classifier_plantvillage_0_split
I0403 16:32:41.568856 21180 net.cpp:91] Creating Layer loss1/classifier_plantvillage_loss1/classifier_plantvillage_0_split
I0403 16:32:41.568873 21180 net.cpp:425] loss1/classifier_plantvillage_loss1/classifier_plantvillage_0_split <- loss1/classifier_plantvillage
I0403 16:32:41.568892 21180 net.cpp:399] loss1/classifier_plantvillage_loss1/classifier_plantvillage_0_split -> loss1/classifier_plantvillage_loss1/classifier_plantvillage_0_split_0
I0403 16:32:41.568915 21180 net.cpp:399] loss1/classifier_plantvillage_loss1/classifier_plantvillage_0_split -> loss1/classifier_plantvillage_loss1/classifier_plantvillage_0_split_1
I0403 16:32:41.568938 21180 net.cpp:399] loss1/classifier_plantvillage_loss1/classifier_plantvillage_0_split -> loss1/classifier_plantvillage_loss1/classifier_plantvillage_0_split_2
I0403 16:32:41.569008 21180 net.cpp:141] Setting up loss1/classifier_plantvillage_loss1/classifier_plantvillage_0_split
I0403 16:32:41.569032 21180 net.cpp:148] Top shape: 24 38 (912)
I0403 16:32:41.569072 21180 net.cpp:148] Top shape: 24 38 (912)
I0403 16:32:41.569090 21180 net.cpp:148] Top shape: 24 38 (912)
I0403 16:32:41.569104 21180 net.cpp:156] Memory required for data: 946203936
I0403 16:32:41.569119 21180 layer_factory.hpp:77] Creating layer inception_4b/1x1
I0403 16:32:41.569140 21180 net.cpp:91] Creating Layer inception_4b/1x1
I0403 16:32:41.569176 21180 net.cpp:425] inception_4b/1x1 <- inception_4a/output_inception_4a/output_0_split_1
I0403 16:32:41.569200 21180 net.cpp:399] inception_4b/1x1 -> inception_4b/1x1
I0403 16:32:41.570940 21180 net.cpp:141] Setting up inception_4b/1x1
I0403 16:32:41.570968 21180 net.cpp:148] Top shape: 24 160 14 14 (752640)
I0403 16:32:41.570983 21180 net.cpp:156] Memory required for data: 949214496
I0403 16:32:41.571002 21180 layer_factory.hpp:77] Creating layer inception_4b/relu_1x1
I0403 16:32:41.571022 21180 net.cpp:91] Creating Layer inception_4b/relu_1x1
I0403 16:32:41.571038 21180 net.cpp:425] inception_4b/relu_1x1 <- inception_4b/1x1
I0403 16:32:41.571063 21180 net.cpp:386] inception_4b/relu_1x1 -> inception_4b/1x1 (in-place)
I0403 16:32:41.571255 21180 net.cpp:141] Setting up inception_4b/relu_1x1
I0403 16:32:41.571281 21180 net.cpp:148] Top shape: 24 160 14 14 (752640)
I0403 16:32:41.571295 21180 net.cpp:156] Memory required for data: 952225056
I0403 16:32:41.571311 21180 layer_factory.hpp:77] Creating layer inception_4b/3x3_reduce
I0403 16:32:41.571333 21180 net.cpp:91] Creating Layer inception_4b/3x3_reduce
I0403 16:32:41.571352 21180 net.cpp:425] inception_4b/3x3_reduce <- inception_4a/output_inception_4a/output_0_split_2
I0403 16:32:41.571374 21180 net.cpp:399] inception_4b/3x3_reduce -> inception_4b/3x3_reduce
I0403 16:32:41.572796 21180 net.cpp:141] Setting up inception_4b/3x3_reduce
I0403 16:32:41.572824 21180 net.cpp:148] Top shape: 24 112 14 14 (526848)
I0403 16:32:41.572840 21180 net.cpp:156] Memory required for data: 954332448
I0403 16:32:41.572859 21180 layer_factory.hpp:77] Creating layer inception_4b/relu_3x3_reduce
I0403 16:32:41.572880 21180 net.cpp:91] Creating Layer inception_4b/relu_3x3_reduce
I0403 16:32:41.572897 21180 net.cpp:425] inception_4b/relu_3x3_reduce <- inception_4b/3x3_reduce
I0403 16:32:41.572914 21180 net.cpp:386] inception_4b/relu_3x3_reduce -> inception_4b/3x3_reduce (in-place)
I0403 16:32:41.573215 21180 net.cpp:141] Setting up inception_4b/relu_3x3_reduce
I0403 16:32:41.573240 21180 net.cpp:148] Top shape: 24 112 14 14 (526848)
I0403 16:32:41.573256 21180 net.cpp:156] Memory required for data: 956439840
I0403 16:32:41.573271 21180 layer_factory.hpp:77] Creating layer inception_4b/3x3
I0403 16:32:41.573293 21180 net.cpp:91] Creating Layer inception_4b/3x3
I0403 16:32:41.573312 21180 net.cpp:425] inception_4b/3x3 <- inception_4b/3x3_reduce
I0403 16:32:41.573334 21180 net.cpp:399] inception_4b/3x3 -> inception_4b/3x3
I0403 16:32:41.576406 21180 net.cpp:141] Setting up inception_4b/3x3
I0403 16:32:41.576436 21180 net.cpp:148] Top shape: 24 224 14 14 (1053696)
I0403 16:32:41.576453 21180 net.cpp:156] Memory required for data: 960654624
I0403 16:32:41.576472 21180 layer_factory.hpp:77] Creating layer inception_4b/relu_3x3
I0403 16:32:41.576490 21180 net.cpp:91] Creating Layer inception_4b/relu_3x3
I0403 16:32:41.576506 21180 net.cpp:425] inception_4b/relu_3x3 <- inception_4b/3x3
I0403 16:32:41.576524 21180 net.cpp:386] inception_4b/relu_3x3 -> inception_4b/3x3 (in-place)
I0403 16:32:41.576720 21180 net.cpp:141] Setting up inception_4b/relu_3x3
I0403 16:32:41.576745 21180 net.cpp:148] Top shape: 24 224 14 14 (1053696)
I0403 16:32:41.576761 21180 net.cpp:156] Memory required for data: 964869408
I0403 16:32:41.576776 21180 layer_factory.hpp:77] Creating layer inception_4b/5x5_reduce
I0403 16:32:41.576799 21180 net.cpp:91] Creating Layer inception_4b/5x5_reduce
I0403 16:32:41.576817 21180 net.cpp:425] inception_4b/5x5_reduce <- inception_4a/output_inception_4a/output_0_split_3
I0403 16:32:41.576838 21180 net.cpp:399] inception_4b/5x5_reduce -> inception_4b/5x5_reduce
I0403 16:32:41.577970 21180 net.cpp:141] Setting up inception_4b/5x5_reduce
I0403 16:32:41.577998 21180 net.cpp:148] Top shape: 24 24 14 14 (112896)
I0403 16:32:41.578013 21180 net.cpp:156] Memory required for data: 965320992
I0403 16:32:41.578032 21180 layer_factory.hpp:77] Creating layer inception_4b/relu_5x5_reduce
I0403 16:32:41.578058 21180 net.cpp:91] Creating Layer inception_4b/relu_5x5_reduce
I0403 16:32:41.578089 21180 net.cpp:425] inception_4b/relu_5x5_reduce <- inception_4b/5x5_reduce
I0403 16:32:41.578107 21180 net.cpp:386] inception_4b/relu_5x5_reduce -> inception_4b/5x5_reduce (in-place)
I0403 16:32:41.578299 21180 net.cpp:141] Setting up inception_4b/relu_5x5_reduce
I0403 16:32:41.578325 21180 net.cpp:148] Top shape: 24 24 14 14 (112896)
I0403 16:32:41.578339 21180 net.cpp:156] Memory required for data: 965772576
I0403 16:32:41.578356 21180 layer_factory.hpp:77] Creating layer inception_4b/5x5
I0403 16:32:41.578378 21180 net.cpp:91] Creating Layer inception_4b/5x5
I0403 16:32:41.578397 21180 net.cpp:425] inception_4b/5x5 <- inception_4b/5x5_reduce
I0403 16:32:41.578418 21180 net.cpp:399] inception_4b/5x5 -> inception_4b/5x5
I0403 16:32:41.579704 21180 net.cpp:141] Setting up inception_4b/5x5
I0403 16:32:41.579733 21180 net.cpp:148] Top shape: 24 64 14 14 (301056)
I0403 16:32:41.579748 21180 net.cpp:156] Memory required for data: 966976800
I0403 16:32:41.579768 21180 layer_factory.hpp:77] Creating layer inception_4b/relu_5x5
I0403 16:32:41.579787 21180 net.cpp:91] Creating Layer inception_4b/relu_5x5
I0403 16:32:41.579802 21180 net.cpp:425] inception_4b/relu_5x5 <- inception_4b/5x5
I0403 16:32:41.579823 21180 net.cpp:386] inception_4b/relu_5x5 -> inception_4b/5x5 (in-place)
I0403 16:32:41.580129 21180 net.cpp:141] Setting up inception_4b/relu_5x5
I0403 16:32:41.580155 21180 net.cpp:148] Top shape: 24 64 14 14 (301056)
I0403 16:32:41.580170 21180 net.cpp:156] Memory required for data: 968181024
I0403 16:32:41.580185 21180 layer_factory.hpp:77] Creating layer inception_4b/pool
I0403 16:32:41.580204 21180 net.cpp:91] Creating Layer inception_4b/pool
I0403 16:32:41.580220 21180 net.cpp:425] inception_4b/pool <- inception_4a/output_inception_4a/output_0_split_4
I0403 16:32:41.580243 21180 net.cpp:399] inception_4b/pool -> inception_4b/pool
I0403 16:32:41.580312 21180 net.cpp:141] Setting up inception_4b/pool
I0403 16:32:41.580335 21180 net.cpp:148] Top shape: 24 512 14 14 (2408448)
I0403 16:32:41.580349 21180 net.cpp:156] Memory required for data: 977814816
I0403 16:32:41.580364 21180 layer_factory.hpp:77] Creating layer inception_4b/pool_proj
I0403 16:32:41.580389 21180 net.cpp:91] Creating Layer inception_4b/pool_proj
I0403 16:32:41.580407 21180 net.cpp:425] inception_4b/pool_proj <- inception_4b/pool
I0403 16:32:41.580426 21180 net.cpp:399] inception_4b/pool_proj -> inception_4b/pool_proj
I0403 16:32:41.581677 21180 net.cpp:141] Setting up inception_4b/pool_proj
I0403 16:32:41.581706 21180 net.cpp:148] Top shape: 24 64 14 14 (301056)
I0403 16:32:41.581722 21180 net.cpp:156] Memory required for data: 979019040
I0403 16:32:41.581740 21180 layer_factory.hpp:77] Creating layer inception_4b/relu_pool_proj
I0403 16:32:41.581758 21180 net.cpp:91] Creating Layer inception_4b/relu_pool_proj
I0403 16:32:41.581775 21180 net.cpp:425] inception_4b/relu_pool_proj <- inception_4b/pool_proj
I0403 16:32:41.581795 21180 net.cpp:386] inception_4b/relu_pool_proj -> inception_4b/pool_proj (in-place)
I0403 16:32:41.581985 21180 net.cpp:141] Setting up inception_4b/relu_pool_proj
I0403 16:32:41.582010 21180 net.cpp:148] Top shape: 24 64 14 14 (301056)
I0403 16:32:41.582026 21180 net.cpp:156] Memory required for data: 980223264
I0403 16:32:41.582041 21180 layer_factory.hpp:77] Creating layer inception_4b/output
I0403 16:32:41.582065 21180 net.cpp:91] Creating Layer inception_4b/output
I0403 16:32:41.582084 21180 net.cpp:425] inception_4b/output <- inception_4b/1x1
I0403 16:32:41.582100 21180 net.cpp:425] inception_4b/output <- inception_4b/3x3
I0403 16:32:41.582118 21180 net.cpp:425] inception_4b/output <- inception_4b/5x5
I0403 16:32:41.582134 21180 net.cpp:425] inception_4b/output <- inception_4b/pool_proj
I0403 16:32:41.582150 21180 net.cpp:399] inception_4b/output -> inception_4b/output
I0403 16:32:41.582198 21180 net.cpp:141] Setting up inception_4b/output
I0403 16:32:41.582222 21180 net.cpp:148] Top shape: 24 512 14 14 (2408448)
I0403 16:32:41.582237 21180 net.cpp:156] Memory required for data: 989857056
I0403 16:32:41.582265 21180 layer_factory.hpp:77] Creating layer inception_4b/output_inception_4b/output_0_split
I0403 16:32:41.582284 21180 net.cpp:91] Creating Layer inception_4b/output_inception_4b/output_0_split
I0403 16:32:41.582300 21180 net.cpp:425] inception_4b/output_inception_4b/output_0_split <- inception_4b/output
I0403 16:32:41.582320 21180 net.cpp:399] inception_4b/output_inception_4b/output_0_split -> inception_4b/output_inception_4b/output_0_split_0
I0403 16:32:41.582342 21180 net.cpp:399] inception_4b/output_inception_4b/output_0_split -> inception_4b/output_inception_4b/output_0_split_1
I0403 16:32:41.582362 21180 net.cpp:399] inception_4b/output_inception_4b/output_0_split -> inception_4b/output_inception_4b/output_0_split_2
I0403 16:32:41.582383 21180 net.cpp:399] inception_4b/output_inception_4b/output_0_split -> inception_4b/output_inception_4b/output_0_split_3
I0403 16:32:41.582468 21180 net.cpp:141] Setting up inception_4b/output_inception_4b/output_0_split
I0403 16:32:41.582494 21180 net.cpp:148] Top shape: 24 512 14 14 (2408448)
I0403 16:32:41.582511 21180 net.cpp:148] Top shape: 24 512 14 14 (2408448)
I0403 16:32:41.582526 21180 net.cpp:148] Top shape: 24 512 14 14 (2408448)
I0403 16:32:41.582542 21180 net.cpp:148] Top shape: 24 512 14 14 (2408448)
I0403 16:32:41.582556 21180 net.cpp:156] Memory required for data: 1028392224
I0403 16:32:41.582571 21180 layer_factory.hpp:77] Creating layer inception_4c/1x1
I0403 16:32:41.582593 21180 net.cpp:91] Creating Layer inception_4c/1x1
I0403 16:32:41.582612 21180 net.cpp:425] inception_4c/1x1 <- inception_4b/output_inception_4b/output_0_split_0
I0403 16:32:41.582633 21180 net.cpp:399] inception_4c/1x1 -> inception_4c/1x1
I0403 16:32:41.584136 21180 net.cpp:141] Setting up inception_4c/1x1
I0403 16:32:41.584164 21180 net.cpp:148] Top shape: 24 128 14 14 (602112)
I0403 16:32:41.584179 21180 net.cpp:156] Memory required for data: 1030800672
I0403 16:32:41.584198 21180 layer_factory.hpp:77] Creating layer inception_4c/relu_1x1
I0403 16:32:41.584220 21180 net.cpp:91] Creating Layer inception_4c/relu_1x1
I0403 16:32:41.584239 21180 net.cpp:425] inception_4c/relu_1x1 <- inception_4c/1x1
I0403 16:32:41.584256 21180 net.cpp:386] inception_4c/relu_1x1 -> inception_4c/1x1 (in-place)
I0403 16:32:41.584447 21180 net.cpp:141] Setting up inception_4c/relu_1x1
I0403 16:32:41.584475 21180 net.cpp:148] Top shape: 24 128 14 14 (602112)
I0403 16:32:41.584491 21180 net.cpp:156] Memory required for data: 1033209120
I0403 16:32:41.584506 21180 layer_factory.hpp:77] Creating layer inception_4c/3x3_reduce
I0403 16:32:41.584528 21180 net.cpp:91] Creating Layer inception_4c/3x3_reduce
I0403 16:32:41.584547 21180 net.cpp:425] inception_4c/3x3_reduce <- inception_4b/output_inception_4b/output_0_split_1
I0403 16:32:41.584566 21180 net.cpp:399] inception_4c/3x3_reduce -> inception_4c/3x3_reduce
I0403 16:32:41.586586 21180 net.cpp:141] Setting up inception_4c/3x3_reduce
I0403 16:32:41.586617 21180 net.cpp:148] Top shape: 24 128 14 14 (602112)
I0403 16:32:41.586633 21180 net.cpp:156] Memory required for data: 1035617568
I0403 16:32:41.586652 21180 layer_factory.hpp:77] Creating layer inception_4c/relu_3x3_reduce
I0403 16:32:41.586670 21180 net.cpp:91] Creating Layer inception_4c/relu_3x3_reduce
I0403 16:32:41.586688 21180 net.cpp:425] inception_4c/relu_3x3_reduce <- inception_4c/3x3_reduce
I0403 16:32:41.586707 21180 net.cpp:386] inception_4c/relu_3x3_reduce -> inception_4c/3x3_reduce (in-place)
I0403 16:32:41.587013 21180 net.cpp:141] Setting up inception_4c/relu_3x3_reduce
I0403 16:32:41.587043 21180 net.cpp:148] Top shape: 24 128 14 14 (602112)
I0403 16:32:41.587064 21180 net.cpp:156] Memory required for data: 1038026016
I0403 16:32:41.587080 21180 layer_factory.hpp:77] Creating layer inception_4c/3x3
I0403 16:32:41.587105 21180 net.cpp:91] Creating Layer inception_4c/3x3
I0403 16:32:41.587122 21180 net.cpp:425] inception_4c/3x3 <- inception_4c/3x3_reduce
I0403 16:32:41.587146 21180 net.cpp:399] inception_4c/3x3 -> inception_4c/3x3
I0403 16:32:41.590878 21180 net.cpp:141] Setting up inception_4c/3x3
I0403 16:32:41.590920 21180 net.cpp:148] Top shape: 24 256 14 14 (1204224)
I0403 16:32:41.590937 21180 net.cpp:156] Memory required for data: 1042842912
I0403 16:32:41.590971 21180 layer_factory.hpp:77] Creating layer inception_4c/relu_3x3
I0403 16:32:41.590992 21180 net.cpp:91] Creating Layer inception_4c/relu_3x3
I0403 16:32:41.591008 21180 net.cpp:425] inception_4c/relu_3x3 <- inception_4c/3x3
I0403 16:32:41.591028 21180 net.cpp:386] inception_4c/relu_3x3 -> inception_4c/3x3 (in-place)
I0403 16:32:41.591226 21180 net.cpp:141] Setting up inception_4c/relu_3x3
I0403 16:32:41.591253 21180 net.cpp:148] Top shape: 24 256 14 14 (1204224)
I0403 16:32:41.591269 21180 net.cpp:156] Memory required for data: 1047659808
I0403 16:32:41.591284 21180 layer_factory.hpp:77] Creating layer inception_4c/5x5_reduce
I0403 16:32:41.591310 21180 net.cpp:91] Creating Layer inception_4c/5x5_reduce
I0403 16:32:41.591328 21180 net.cpp:425] inception_4c/5x5_reduce <- inception_4b/output_inception_4b/output_0_split_2
I0403 16:32:41.591351 21180 net.cpp:399] inception_4c/5x5_reduce -> inception_4c/5x5_reduce
I0403 16:32:41.592490 21180 net.cpp:141] Setting up inception_4c/5x5_reduce
I0403 16:32:41.592519 21180 net.cpp:148] Top shape: 24 24 14 14 (112896)
I0403 16:32:41.592533 21180 net.cpp:156] Memory required for data: 1048111392
I0403 16:32:41.592553 21180 layer_factory.hpp:77] Creating layer inception_4c/relu_5x5_reduce
I0403 16:32:41.592574 21180 net.cpp:91] Creating Layer inception_4c/relu_5x5_reduce
I0403 16:32:41.592592 21180 net.cpp:425] inception_4c/relu_5x5_reduce <- inception_4c/5x5_reduce
I0403 16:32:41.592609 21180 net.cpp:386] inception_4c/relu_5x5_reduce -> inception_4c/5x5_reduce (in-place)
I0403 16:32:41.592803 21180 net.cpp:141] Setting up inception_4c/relu_5x5_reduce
I0403 16:32:41.592828 21180 net.cpp:148] Top shape: 24 24 14 14 (112896)
I0403 16:32:41.592844 21180 net.cpp:156] Memory required for data: 1048562976
I0403 16:32:41.592859 21180 layer_factory.hpp:77] Creating layer inception_4c/5x5
I0403 16:32:41.592880 21180 net.cpp:91] Creating Layer inception_4c/5x5
I0403 16:32:41.592898 21180 net.cpp:425] inception_4c/5x5 <- inception_4c/5x5_reduce
I0403 16:32:41.592921 21180 net.cpp:399] inception_4c/5x5 -> inception_4c/5x5
I0403 16:32:41.594223 21180 net.cpp:141] Setting up inception_4c/5x5
I0403 16:32:41.594252 21180 net.cpp:148] Top shape: 24 64 14 14 (301056)
I0403 16:32:41.594269 21180 net.cpp:156] Memory required for data: 1049767200
I0403 16:32:41.594286 21180 layer_factory.hpp:77] Creating layer inception_4c/relu_5x5
I0403 16:32:41.594307 21180 net.cpp:91] Creating Layer inception_4c/relu_5x5
I0403 16:32:41.594326 21180 net.cpp:425] inception_4c/relu_5x5 <- inception_4c/5x5
I0403 16:32:41.594342 21180 net.cpp:386] inception_4c/relu_5x5 -> inception_4c/5x5 (in-place)
I0403 16:32:41.594642 21180 net.cpp:141] Setting up inception_4c/relu_5x5
I0403 16:32:41.594669 21180 net.cpp:148] Top shape: 24 64 14 14 (301056)
I0403 16:32:41.594686 21180 net.cpp:156] Memory required for data: 1050971424
I0403 16:32:41.594701 21180 layer_factory.hpp:77] Creating layer inception_4c/pool
I0403 16:32:41.594720 21180 net.cpp:91] Creating Layer inception_4c/pool
I0403 16:32:41.594738 21180 net.cpp:425] inception_4c/pool <- inception_4b/output_inception_4b/output_0_split_3
I0403 16:32:41.594758 21180 net.cpp:399] inception_4c/pool -> inception_4c/pool
I0403 16:32:41.594826 21180 net.cpp:141] Setting up inception_4c/pool
I0403 16:32:41.594851 21180 net.cpp:148] Top shape: 24 512 14 14 (2408448)
I0403 16:32:41.594866 21180 net.cpp:156] Memory required for data: 1060605216
I0403 16:32:41.594879 21180 layer_factory.hpp:77] Creating layer inception_4c/pool_proj
I0403 16:32:41.594902 21180 net.cpp:91] Creating Layer inception_4c/pool_proj
I0403 16:32:41.594920 21180 net.cpp:425] inception_4c/pool_proj <- inception_4c/pool
I0403 16:32:41.594944 21180 net.cpp:399] inception_4c/pool_proj -> inception_4c/pool_proj
I0403 16:32:41.596231 21180 net.cpp:141] Setting up inception_4c/pool_proj
I0403 16:32:41.596259 21180 net.cpp:148] Top shape: 24 64 14 14 (301056)
I0403 16:32:41.596288 21180 net.cpp:156] Memory required for data: 1061809440
I0403 16:32:41.596308 21180 layer_factory.hpp:77] Creating layer inception_4c/relu_pool_proj
I0403 16:32:41.596326 21180 net.cpp:91] Creating Layer inception_4c/relu_pool_proj
I0403 16:32:41.596343 21180 net.cpp:425] inception_4c/relu_pool_proj <- inception_4c/pool_proj
I0403 16:32:41.596364 21180 net.cpp:386] inception_4c/relu_pool_proj -> inception_4c/pool_proj (in-place)
I0403 16:32:41.596555 21180 net.cpp:141] Setting up inception_4c/relu_pool_proj
I0403 16:32:41.596580 21180 net.cpp:148] Top shape: 24 64 14 14 (301056)
I0403 16:32:41.596596 21180 net.cpp:156] Memory required for data: 1063013664
I0403 16:32:41.596609 21180 layer_factory.hpp:77] Creating layer inception_4c/output
I0403 16:32:41.596629 21180 net.cpp:91] Creating Layer inception_4c/output
I0403 16:32:41.596647 21180 net.cpp:425] inception_4c/output <- inception_4c/1x1
I0403 16:32:41.596663 21180 net.cpp:425] inception_4c/output <- inception_4c/3x3
I0403 16:32:41.596679 21180 net.cpp:425] inception_4c/output <- inception_4c/5x5
I0403 16:32:41.596695 21180 net.cpp:425] inception_4c/output <- inception_4c/pool_proj
I0403 16:32:41.596712 21180 net.cpp:399] inception_4c/output -> inception_4c/output
I0403 16:32:41.596763 21180 net.cpp:141] Setting up inception_4c/output
I0403 16:32:41.596787 21180 net.cpp:148] Top shape: 24 512 14 14 (2408448)
I0403 16:32:41.596801 21180 net.cpp:156] Memory required for data: 1072647456
I0403 16:32:41.596817 21180 layer_factory.hpp:77] Creating layer inception_4c/output_inception_4c/output_0_split
I0403 16:32:41.596833 21180 net.cpp:91] Creating Layer inception_4c/output_inception_4c/output_0_split
I0403 16:32:41.596849 21180 net.cpp:425] inception_4c/output_inception_4c/output_0_split <- inception_4c/output
I0403 16:32:41.596868 21180 net.cpp:399] inception_4c/output_inception_4c/output_0_split -> inception_4c/output_inception_4c/output_0_split_0
I0403 16:32:41.596890 21180 net.cpp:399] inception_4c/output_inception_4c/output_0_split -> inception_4c/output_inception_4c/output_0_split_1
I0403 16:32:41.596911 21180 net.cpp:399] inception_4c/output_inception_4c/output_0_split -> inception_4c/output_inception_4c/output_0_split_2
I0403 16:32:41.596933 21180 net.cpp:399] inception_4c/output_inception_4c/output_0_split -> inception_4c/output_inception_4c/output_0_split_3
I0403 16:32:41.597023 21180 net.cpp:141] Setting up inception_4c/output_inception_4c/output_0_split
I0403 16:32:41.597051 21180 net.cpp:148] Top shape: 24 512 14 14 (2408448)
I0403 16:32:41.597070 21180 net.cpp:148] Top shape: 24 512 14 14 (2408448)
I0403 16:32:41.597087 21180 net.cpp:148] Top shape: 24 512 14 14 (2408448)
I0403 16:32:41.597102 21180 net.cpp:148] Top shape: 24 512 14 14 (2408448)
I0403 16:32:41.597116 21180 net.cpp:156] Memory required for data: 1111182624
I0403 16:32:41.597131 21180 layer_factory.hpp:77] Creating layer inception_4d/1x1
I0403 16:32:41.597154 21180 net.cpp:91] Creating Layer inception_4d/1x1
I0403 16:32:41.597172 21180 net.cpp:425] inception_4d/1x1 <- inception_4c/output_inception_4c/output_0_split_0
I0403 16:32:41.597192 21180 net.cpp:399] inception_4d/1x1 -> inception_4d/1x1
I0403 16:32:41.598687 21180 net.cpp:141] Setting up inception_4d/1x1
I0403 16:32:41.598721 21180 net.cpp:148] Top shape: 24 112 14 14 (526848)
I0403 16:32:41.598737 21180 net.cpp:156] Memory required for data: 1113290016
I0403 16:32:41.598757 21180 layer_factory.hpp:77] Creating layer inception_4d/relu_1x1
I0403 16:32:41.598775 21180 net.cpp:91] Creating Layer inception_4d/relu_1x1
I0403 16:32:41.598793 21180 net.cpp:425] inception_4d/relu_1x1 <- inception_4d/1x1
I0403 16:32:41.598810 21180 net.cpp:386] inception_4d/relu_1x1 -> inception_4d/1x1 (in-place)
I0403 16:32:41.599014 21180 net.cpp:141] Setting up inception_4d/relu_1x1
I0403 16:32:41.599040 21180 net.cpp:148] Top shape: 24 112 14 14 (526848)
I0403 16:32:41.599061 21180 net.cpp:156] Memory required for data: 1115397408
I0403 16:32:41.599076 21180 layer_factory.hpp:77] Creating layer inception_4d/3x3_reduce
I0403 16:32:41.599118 21180 net.cpp:91] Creating Layer inception_4d/3x3_reduce
I0403 16:32:41.599138 21180 net.cpp:425] inception_4d/3x3_reduce <- inception_4c/output_inception_4c/output_0_split_1
I0403 16:32:41.599161 21180 net.cpp:399] inception_4d/3x3_reduce -> inception_4d/3x3_reduce
I0403 16:32:41.600786 21180 net.cpp:141] Setting up inception_4d/3x3_reduce
I0403 16:32:41.600816 21180 net.cpp:148] Top shape: 24 144 14 14 (677376)
I0403 16:32:41.600832 21180 net.cpp:156] Memory required for data: 1118106912
I0403 16:32:41.600852 21180 layer_factory.hpp:77] Creating layer inception_4d/relu_3x3_reduce
I0403 16:32:41.600873 21180 net.cpp:91] Creating Layer inception_4d/relu_3x3_reduce
I0403 16:32:41.600891 21180 net.cpp:425] inception_4d/relu_3x3_reduce <- inception_4d/3x3_reduce
I0403 16:32:41.600909 21180 net.cpp:386] inception_4d/relu_3x3_reduce -> inception_4d/3x3_reduce (in-place)
I0403 16:32:41.601224 21180 net.cpp:141] Setting up inception_4d/relu_3x3_reduce
I0403 16:32:41.601253 21180 net.cpp:148] Top shape: 24 144 14 14 (677376)
I0403 16:32:41.601269 21180 net.cpp:156] Memory required for data: 1120816416
I0403 16:32:41.601285 21180 layer_factory.hpp:77] Creating layer inception_4d/3x3
I0403 16:32:41.601310 21180 net.cpp:91] Creating Layer inception_4d/3x3
I0403 16:32:41.601328 21180 net.cpp:425] inception_4d/3x3 <- inception_4d/3x3_reduce
I0403 16:32:41.601348 21180 net.cpp:399] inception_4d/3x3 -> inception_4d/3x3
I0403 16:32:41.605890 21180 net.cpp:141] Setting up inception_4d/3x3
I0403 16:32:41.605922 21180 net.cpp:148] Top shape: 24 288 14 14 (1354752)
I0403 16:32:41.605940 21180 net.cpp:156] Memory required for data: 1126235424
I0403 16:32:41.605959 21180 layer_factory.hpp:77] Creating layer inception_4d/relu_3x3
I0403 16:32:41.605978 21180 net.cpp:91] Creating Layer inception_4d/relu_3x3
I0403 16:32:41.605995 21180 net.cpp:425] inception_4d/relu_3x3 <- inception_4d/3x3
I0403 16:32:41.606016 21180 net.cpp:386] inception_4d/relu_3x3 -> inception_4d/3x3 (in-place)
I0403 16:32:41.606221 21180 net.cpp:141] Setting up inception_4d/relu_3x3
I0403 16:32:41.606247 21180 net.cpp:148] Top shape: 24 288 14 14 (1354752)
I0403 16:32:41.606262 21180 net.cpp:156] Memory required for data: 1131654432
I0403 16:32:41.606277 21180 layer_factory.hpp:77] Creating layer inception_4d/5x5_reduce
I0403 16:32:41.606300 21180 net.cpp:91] Creating Layer inception_4d/5x5_reduce
I0403 16:32:41.606319 21180 net.cpp:425] inception_4d/5x5_reduce <- inception_4c/output_inception_4c/output_0_split_2
I0403 16:32:41.606343 21180 net.cpp:399] inception_4d/5x5_reduce -> inception_4d/5x5_reduce
I0403 16:32:41.607583 21180 net.cpp:141] Setting up inception_4d/5x5_reduce
I0403 16:32:41.607614 21180 net.cpp:148] Top shape: 24 32 14 14 (150528)
I0403 16:32:41.607630 21180 net.cpp:156] Memory required for data: 1132256544
I0403 16:32:41.607650 21180 layer_factory.hpp:77] Creating layer inception_4d/relu_5x5_reduce
I0403 16:32:41.607669 21180 net.cpp:91] Creating Layer inception_4d/relu_5x5_reduce
I0403 16:32:41.607686 21180 net.cpp:425] inception_4d/relu_5x5_reduce <- inception_4d/5x5_reduce
I0403 16:32:41.607707 21180 net.cpp:386] inception_4d/relu_5x5_reduce -> inception_4d/5x5_reduce (in-place)
I0403 16:32:41.607915 21180 net.cpp:141] Setting up inception_4d/relu_5x5_reduce
I0403 16:32:41.607942 21180 net.cpp:148] Top shape: 24 32 14 14 (150528)
I0403 16:32:41.607957 21180 net.cpp:156] Memory required for data: 1132858656
I0403 16:32:41.607974 21180 layer_factory.hpp:77] Creating layer inception_4d/5x5
I0403 16:32:41.607996 21180 net.cpp:91] Creating Layer inception_4d/5x5
I0403 16:32:41.608016 21180 net.cpp:425] inception_4d/5x5 <- inception_4d/5x5_reduce
I0403 16:32:41.608037 21180 net.cpp:399] inception_4d/5x5 -> inception_4d/5x5
I0403 16:32:41.609619 21180 net.cpp:141] Setting up inception_4d/5x5
I0403 16:32:41.609647 21180 net.cpp:148] Top shape: 24 64 14 14 (301056)
I0403 16:32:41.609663 21180 net.cpp:156] Memory required for data: 1134062880
I0403 16:32:41.609683 21180 layer_factory.hpp:77] Creating layer inception_4d/relu_5x5
I0403 16:32:41.609719 21180 net.cpp:91] Creating Layer inception_4d/relu_5x5
I0403 16:32:41.609737 21180 net.cpp:425] inception_4d/relu_5x5 <- inception_4d/5x5
I0403 16:32:41.609755 21180 net.cpp:386] inception_4d/relu_5x5 -> inception_4d/5x5 (in-place)
I0403 16:32:41.610072 21180 net.cpp:141] Setting up inception_4d/relu_5x5
I0403 16:32:41.610100 21180 net.cpp:148] Top shape: 24 64 14 14 (301056)
I0403 16:32:41.610115 21180 net.cpp:156] Memory required for data: 1135267104
I0403 16:32:41.610129 21180 layer_factory.hpp:77] Creating layer inception_4d/pool
I0403 16:32:41.610151 21180 net.cpp:91] Creating Layer inception_4d/pool
I0403 16:32:41.610167 21180 net.cpp:425] inception_4d/pool <- inception_4c/output_inception_4c/output_0_split_3
I0403 16:32:41.610186 21180 net.cpp:399] inception_4d/pool -> inception_4d/pool
I0403 16:32:41.610256 21180 net.cpp:141] Setting up inception_4d/pool
I0403 16:32:41.610281 21180 net.cpp:148] Top shape: 24 512 14 14 (2408448)
I0403 16:32:41.610296 21180 net.cpp:156] Memory required for data: 1144900896
I0403 16:32:41.610311 21180 layer_factory.hpp:77] Creating layer inception_4d/pool_proj
I0403 16:32:41.610333 21180 net.cpp:91] Creating Layer inception_4d/pool_proj
I0403 16:32:41.610352 21180 net.cpp:425] inception_4d/pool_proj <- inception_4d/pool
I0403 16:32:41.610373 21180 net.cpp:399] inception_4d/pool_proj -> inception_4d/pool_proj
I0403 16:32:41.612207 21180 net.cpp:141] Setting up inception_4d/pool_proj
I0403 16:32:41.612239 21180 net.cpp:148] Top shape: 24 64 14 14 (301056)
I0403 16:32:41.612257 21180 net.cpp:156] Memory required for data: 1146105120
I0403 16:32:41.612275 21180 layer_factory.hpp:77] Creating layer inception_4d/relu_pool_proj
I0403 16:32:41.612295 21180 net.cpp:91] Creating Layer inception_4d/relu_pool_proj
I0403 16:32:41.612313 21180 net.cpp:425] inception_4d/relu_pool_proj <- inception_4d/pool_proj
I0403 16:32:41.612332 21180 net.cpp:386] inception_4d/relu_pool_proj -> inception_4d/pool_proj (in-place)
I0403 16:32:41.612525 21180 net.cpp:141] Setting up inception_4d/relu_pool_proj
I0403 16:32:41.612551 21180 net.cpp:148] Top shape: 24 64 14 14 (301056)
I0403 16:32:41.612566 21180 net.cpp:156] Memory required for data: 1147309344
I0403 16:32:41.612581 21180 layer_factory.hpp:77] Creating layer inception_4d/output
I0403 16:32:41.612599 21180 net.cpp:91] Creating Layer inception_4d/output
I0403 16:32:41.612615 21180 net.cpp:425] inception_4d/output <- inception_4d/1x1
I0403 16:32:41.612632 21180 net.cpp:425] inception_4d/output <- inception_4d/3x3
I0403 16:32:41.612648 21180 net.cpp:425] inception_4d/output <- inception_4d/5x5
I0403 16:32:41.612664 21180 net.cpp:425] inception_4d/output <- inception_4d/pool_proj
I0403 16:32:41.612684 21180 net.cpp:399] inception_4d/output -> inception_4d/output
I0403 16:32:41.612735 21180 net.cpp:141] Setting up inception_4d/output
I0403 16:32:41.612761 21180 net.cpp:148] Top shape: 24 528 14 14 (2483712)
I0403 16:32:41.612776 21180 net.cpp:156] Memory required for data: 1157244192
I0403 16:32:41.612792 21180 layer_factory.hpp:77] Creating layer inception_4d/output_inception_4d/output_0_split
I0403 16:32:41.612809 21180 net.cpp:91] Creating Layer inception_4d/output_inception_4d/output_0_split
I0403 16:32:41.612825 21180 net.cpp:425] inception_4d/output_inception_4d/output_0_split <- inception_4d/output
I0403 16:32:41.612848 21180 net.cpp:399] inception_4d/output_inception_4d/output_0_split -> inception_4d/output_inception_4d/output_0_split_0
I0403 16:32:41.612869 21180 net.cpp:399] inception_4d/output_inception_4d/output_0_split -> inception_4d/output_inception_4d/output_0_split_1
I0403 16:32:41.612890 21180 net.cpp:399] inception_4d/output_inception_4d/output_0_split -> inception_4d/output_inception_4d/output_0_split_2
I0403 16:32:41.612910 21180 net.cpp:399] inception_4d/output_inception_4d/output_0_split -> inception_4d/output_inception_4d/output_0_split_3
I0403 16:32:41.612931 21180 net.cpp:399] inception_4d/output_inception_4d/output_0_split -> inception_4d/output_inception_4d/output_0_split_4
I0403 16:32:41.613037 21180 net.cpp:141] Setting up inception_4d/output_inception_4d/output_0_split
I0403 16:32:41.613081 21180 net.cpp:148] Top shape: 24 528 14 14 (2483712)
I0403 16:32:41.613101 21180 net.cpp:148] Top shape: 24 528 14 14 (2483712)
I0403 16:32:41.613116 21180 net.cpp:148] Top shape: 24 528 14 14 (2483712)
I0403 16:32:41.613131 21180 net.cpp:148] Top shape: 24 528 14 14 (2483712)
I0403 16:32:41.613147 21180 net.cpp:148] Top shape: 24 528 14 14 (2483712)
I0403 16:32:41.613162 21180 net.cpp:156] Memory required for data: 1206918432
I0403 16:32:41.613176 21180 layer_factory.hpp:77] Creating layer loss2/ave_pool
I0403 16:32:41.613194 21180 net.cpp:91] Creating Layer loss2/ave_pool
I0403 16:32:41.613210 21180 net.cpp:425] loss2/ave_pool <- inception_4d/output_inception_4d/output_0_split_0
I0403 16:32:41.613229 21180 net.cpp:399] loss2/ave_pool -> loss2/ave_pool
I0403 16:32:41.613559 21180 net.cpp:141] Setting up loss2/ave_pool
I0403 16:32:41.613587 21180 net.cpp:148] Top shape: 24 528 4 4 (202752)
I0403 16:32:41.613603 21180 net.cpp:156] Memory required for data: 1207729440
I0403 16:32:41.613618 21180 layer_factory.hpp:77] Creating layer loss2/conv
I0403 16:32:41.613641 21180 net.cpp:91] Creating Layer loss2/conv
I0403 16:32:41.613659 21180 net.cpp:425] loss2/conv <- loss2/ave_pool
I0403 16:32:41.613679 21180 net.cpp:399] loss2/conv -> loss2/conv
I0403 16:32:41.615654 21180 net.cpp:141] Setting up loss2/conv
I0403 16:32:41.615684 21180 net.cpp:148] Top shape: 24 128 4 4 (49152)
I0403 16:32:41.615701 21180 net.cpp:156] Memory required for data: 1207926048
I0403 16:32:41.615720 21180 layer_factory.hpp:77] Creating layer loss2/relu_conv
I0403 16:32:41.615741 21180 net.cpp:91] Creating Layer loss2/relu_conv
I0403 16:32:41.615757 21180 net.cpp:425] loss2/relu_conv <- loss2/conv
I0403 16:32:41.615774 21180 net.cpp:386] loss2/relu_conv -> loss2/conv (in-place)
I0403 16:32:41.616081 21180 net.cpp:141] Setting up loss2/relu_conv
I0403 16:32:41.616108 21180 net.cpp:148] Top shape: 24 128 4 4 (49152)
I0403 16:32:41.616123 21180 net.cpp:156] Memory required for data: 1208122656
I0403 16:32:41.616138 21180 layer_factory.hpp:77] Creating layer loss2/fc
I0403 16:32:41.616161 21180 net.cpp:91] Creating Layer loss2/fc
I0403 16:32:41.616179 21180 net.cpp:425] loss2/fc <- loss2/conv
I0403 16:32:41.616199 21180 net.cpp:399] loss2/fc -> loss2/fc
I0403 16:32:41.633924 21180 net.cpp:141] Setting up loss2/fc
I0403 16:32:41.633956 21180 net.cpp:148] Top shape: 24 1024 (24576)
I0403 16:32:41.633971 21180 net.cpp:156] Memory required for data: 1208220960
I0403 16:32:41.633990 21180 layer_factory.hpp:77] Creating layer loss2/relu_fc
I0403 16:32:41.634007 21180 net.cpp:91] Creating Layer loss2/relu_fc
I0403 16:32:41.634023 21180 net.cpp:425] loss2/relu_fc <- loss2/fc
I0403 16:32:41.634043 21180 net.cpp:386] loss2/relu_fc -> loss2/fc (in-place)
I0403 16:32:41.634353 21180 net.cpp:141] Setting up loss2/relu_fc
I0403 16:32:41.634380 21180 net.cpp:148] Top shape: 24 1024 (24576)
I0403 16:32:41.634394 21180 net.cpp:156] Memory required for data: 1208319264
I0403 16:32:41.634409 21180 layer_factory.hpp:77] Creating layer loss2/drop_fc
I0403 16:32:41.634428 21180 net.cpp:91] Creating Layer loss2/drop_fc
I0403 16:32:41.634443 21180 net.cpp:425] loss2/drop_fc <- loss2/fc
I0403 16:32:41.634462 21180 net.cpp:386] loss2/drop_fc -> loss2/fc (in-place)
I0403 16:32:41.634512 21180 net.cpp:141] Setting up loss2/drop_fc
I0403 16:32:41.634537 21180 net.cpp:148] Top shape: 24 1024 (24576)
I0403 16:32:41.634552 21180 net.cpp:156] Memory required for data: 1208417568
I0403 16:32:41.634567 21180 layer_factory.hpp:77] Creating layer loss2/classifier_plantvillage
I0403 16:32:41.634585 21180 net.cpp:91] Creating Layer loss2/classifier_plantvillage
I0403 16:32:41.634600 21180 net.cpp:425] loss2/classifier_plantvillage <- loss2/fc
I0403 16:32:41.634623 21180 net.cpp:399] loss2/classifier_plantvillage -> loss2/classifier_plantvillage
I0403 16:32:41.635026 21180 net.cpp:141] Setting up loss2/classifier_plantvillage
I0403 16:32:41.635054 21180 net.cpp:148] Top shape: 24 38 (912)
I0403 16:32:41.635085 21180 net.cpp:156] Memory required for data: 1208421216
I0403 16:32:41.635104 21180 layer_factory.hpp:77] Creating layer loss2/classifier_plantvillage_loss2/classifier_plantvillage_0_split
I0403 16:32:41.635124 21180 net.cpp:91] Creating Layer loss2/classifier_plantvillage_loss2/classifier_plantvillage_0_split
I0403 16:32:41.635141 21180 net.cpp:425] loss2/classifier_plantvillage_loss2/classifier_plantvillage_0_split <- loss2/classifier_plantvillage
I0403 16:32:41.635159 21180 net.cpp:399] loss2/classifier_plantvillage_loss2/classifier_plantvillage_0_split -> loss2/classifier_plantvillage_loss2/classifier_plantvillage_0_split_0
I0403 16:32:41.635177 21180 net.cpp:399] loss2/classifier_plantvillage_loss2/classifier_plantvillage_0_split -> loss2/classifier_plantvillage_loss2/classifier_plantvillage_0_split_1
I0403 16:32:41.635197 21180 net.cpp:399] loss2/classifier_plantvillage_loss2/classifier_plantvillage_0_split -> loss2/classifier_plantvillage_loss2/classifier_plantvillage_0_split_2
I0403 16:32:41.635278 21180 net.cpp:141] Setting up loss2/classifier_plantvillage_loss2/classifier_plantvillage_0_split
I0403 16:32:41.635301 21180 net.cpp:148] Top shape: 24 38 (912)
I0403 16:32:41.635318 21180 net.cpp:148] Top shape: 24 38 (912)
I0403 16:32:41.635332 21180 net.cpp:148] Top shape: 24 38 (912)
I0403 16:32:41.635345 21180 net.cpp:156] Memory required for data: 1208432160
I0403 16:32:41.635360 21180 layer_factory.hpp:77] Creating layer inception_4e/1x1
I0403 16:32:41.635381 21180 net.cpp:91] Creating Layer inception_4e/1x1
I0403 16:32:41.635399 21180 net.cpp:425] inception_4e/1x1 <- inception_4d/output_inception_4d/output_0_split_1
I0403 16:32:41.635417 21180 net.cpp:399] inception_4e/1x1 -> inception_4e/1x1
I0403 16:32:41.637256 21180 net.cpp:141] Setting up inception_4e/1x1
I0403 16:32:41.637284 21180 net.cpp:148] Top shape: 24 256 14 14 (1204224)
I0403 16:32:41.637300 21180 net.cpp:156] Memory required for data: 1213249056
I0403 16:32:41.637318 21180 layer_factory.hpp:77] Creating layer inception_4e/relu_1x1
I0403 16:32:41.637338 21180 net.cpp:91] Creating Layer inception_4e/relu_1x1
I0403 16:32:41.637356 21180 net.cpp:425] inception_4e/relu_1x1 <- inception_4e/1x1
I0403 16:32:41.637372 21180 net.cpp:386] inception_4e/relu_1x1 -> inception_4e/1x1 (in-place)
I0403 16:32:41.637675 21180 net.cpp:141] Setting up inception_4e/relu_1x1
I0403 16:32:41.637701 21180 net.cpp:148] Top shape: 24 256 14 14 (1204224)
I0403 16:32:41.637714 21180 net.cpp:156] Memory required for data: 1218065952
I0403 16:32:41.637729 21180 layer_factory.hpp:77] Creating layer inception_4e/3x3_reduce
I0403 16:32:41.637751 21180 net.cpp:91] Creating Layer inception_4e/3x3_reduce
I0403 16:32:41.637768 21180 net.cpp:425] inception_4e/3x3_reduce <- inception_4d/output_inception_4d/output_0_split_2
I0403 16:32:41.637789 21180 net.cpp:399] inception_4e/3x3_reduce -> inception_4e/3x3_reduce
I0403 16:32:41.639940 21180 net.cpp:141] Setting up inception_4e/3x3_reduce
I0403 16:32:41.639969 21180 net.cpp:148] Top shape: 24 160 14 14 (752640)
I0403 16:32:41.639984 21180 net.cpp:156] Memory required for data: 1221076512
I0403 16:32:41.640002 21180 layer_factory.hpp:77] Creating layer inception_4e/relu_3x3_reduce
I0403 16:32:41.640023 21180 net.cpp:91] Creating Layer inception_4e/relu_3x3_reduce
I0403 16:32:41.640041 21180 net.cpp:425] inception_4e/relu_3x3_reduce <- inception_4e/3x3_reduce
I0403 16:32:41.640064 21180 net.cpp:386] inception_4e/relu_3x3_reduce -> inception_4e/3x3_reduce (in-place)
I0403 16:32:41.640254 21180 net.cpp:141] Setting up inception_4e/relu_3x3_reduce
I0403 16:32:41.640277 21180 net.cpp:148] Top shape: 24 160 14 14 (752640)
I0403 16:32:41.640292 21180 net.cpp:156] Memory required for data: 1224087072
I0403 16:32:41.640306 21180 layer_factory.hpp:77] Creating layer inception_4e/3x3
I0403 16:32:41.640328 21180 net.cpp:91] Creating Layer inception_4e/3x3
I0403 16:32:41.640347 21180 net.cpp:425] inception_4e/3x3 <- inception_4e/3x3_reduce
I0403 16:32:41.640367 21180 net.cpp:399] inception_4e/3x3 -> inception_4e/3x3
I0403 16:32:41.645388 21180 net.cpp:141] Setting up inception_4e/3x3
I0403 16:32:41.645428 21180 net.cpp:148] Top shape: 24 320 14 14 (1505280)
I0403 16:32:41.645448 21180 net.cpp:156] Memory required for data: 1230108192
I0403 16:32:41.645467 21180 layer_factory.hpp:77] Creating layer inception_4e/relu_3x3
I0403 16:32:41.645484 21180 net.cpp:91] Creating Layer inception_4e/relu_3x3
I0403 16:32:41.645499 21180 net.cpp:425] inception_4e/relu_3x3 <- inception_4e/3x3
I0403 16:32:41.645516 21180 net.cpp:386] inception_4e/relu_3x3 -> inception_4e/3x3 (in-place)
I0403 16:32:41.645947 21180 net.cpp:141] Setting up inception_4e/relu_3x3
I0403 16:32:41.645978 21180 net.cpp:148] Top shape: 24 320 14 14 (1505280)
I0403 16:32:41.645995 21180 net.cpp:156] Memory required for data: 1236129312
I0403 16:32:41.646010 21180 layer_factory.hpp:77] Creating layer inception_4e/5x5_reduce
I0403 16:32:41.646035 21180 net.cpp:91] Creating Layer inception_4e/5x5_reduce
I0403 16:32:41.646057 21180 net.cpp:425] inception_4e/5x5_reduce <- inception_4d/output_inception_4d/output_0_split_3
I0403 16:32:41.646090 21180 net.cpp:399] inception_4e/5x5_reduce -> inception_4e/5x5_reduce
I0403 16:32:41.647187 21180 net.cpp:141] Setting up inception_4e/5x5_reduce
I0403 16:32:41.647214 21180 net.cpp:148] Top shape: 24 32 14 14 (150528)
I0403 16:32:41.647230 21180 net.cpp:156] Memory required for data: 1236731424
I0403 16:32:41.647250 21180 layer_factory.hpp:77] Creating layer inception_4e/relu_5x5_reduce
I0403 16:32:41.647270 21180 net.cpp:91] Creating Layer inception_4e/relu_5x5_reduce
I0403 16:32:41.647287 21180 net.cpp:425] inception_4e/relu_5x5_reduce <- inception_4e/5x5_reduce
I0403 16:32:41.647305 21180 net.cpp:386] inception_4e/relu_5x5_reduce -> inception_4e/5x5_reduce (in-place)
I0403 16:32:41.647611 21180 net.cpp:141] Setting up inception_4e/relu_5x5_reduce
I0403 16:32:41.647637 21180 net.cpp:148] Top shape: 24 32 14 14 (150528)
I0403 16:32:41.647652 21180 net.cpp:156] Memory required for data: 1237333536
I0403 16:32:41.647667 21180 layer_factory.hpp:77] Creating layer inception_4e/5x5
I0403 16:32:41.647706 21180 net.cpp:91] Creating Layer inception_4e/5x5
I0403 16:32:41.647724 21180 net.cpp:425] inception_4e/5x5 <- inception_4e/5x5_reduce
I0403 16:32:41.647743 21180 net.cpp:399] inception_4e/5x5 -> inception_4e/5x5
I0403 16:32:41.649660 21180 net.cpp:141] Setting up inception_4e/5x5
I0403 16:32:41.649689 21180 net.cpp:148] Top shape: 24 128 14 14 (602112)
I0403 16:32:41.649705 21180 net.cpp:156] Memory required for data: 1239741984
I0403 16:32:41.649724 21180 layer_factory.hpp:77] Creating layer inception_4e/relu_5x5
I0403 16:32:41.649744 21180 net.cpp:91] Creating Layer inception_4e/relu_5x5
I0403 16:32:41.649760 21180 net.cpp:425] inception_4e/relu_5x5 <- inception_4e/5x5
I0403 16:32:41.649780 21180 net.cpp:386] inception_4e/relu_5x5 -> inception_4e/5x5 (in-place)
I0403 16:32:41.649986 21180 net.cpp:141] Setting up inception_4e/relu_5x5
I0403 16:32:41.650012 21180 net.cpp:148] Top shape: 24 128 14 14 (602112)
I0403 16:32:41.650027 21180 net.cpp:156] Memory required for data: 1242150432
I0403 16:32:41.650043 21180 layer_factory.hpp:77] Creating layer inception_4e/pool
I0403 16:32:41.650068 21180 net.cpp:91] Creating Layer inception_4e/pool
I0403 16:32:41.650087 21180 net.cpp:425] inception_4e/pool <- inception_4d/output_inception_4d/output_0_split_4
I0403 16:32:41.650106 21180 net.cpp:399] inception_4e/pool -> inception_4e/pool
I0403 16:32:41.650179 21180 net.cpp:141] Setting up inception_4e/pool
I0403 16:32:41.650204 21180 net.cpp:148] Top shape: 24 528 14 14 (2483712)
I0403 16:32:41.650218 21180 net.cpp:156] Memory required for data: 1252085280
I0403 16:32:41.650234 21180 layer_factory.hpp:77] Creating layer inception_4e/pool_proj
I0403 16:32:41.650257 21180 net.cpp:91] Creating Layer inception_4e/pool_proj
I0403 16:32:41.650274 21180 net.cpp:425] inception_4e/pool_proj <- inception_4e/pool
I0403 16:32:41.650295 21180 net.cpp:399] inception_4e/pool_proj -> inception_4e/pool_proj
I0403 16:32:41.651873 21180 net.cpp:141] Setting up inception_4e/pool_proj
I0403 16:32:41.651916 21180 net.cpp:148] Top shape: 24 128 14 14 (602112)
I0403 16:32:41.651933 21180 net.cpp:156] Memory required for data: 1254493728
I0403 16:32:41.651953 21180 layer_factory.hpp:77] Creating layer inception_4e/relu_pool_proj
I0403 16:32:41.651971 21180 net.cpp:91] Creating Layer inception_4e/relu_pool_proj
I0403 16:32:41.651988 21180 net.cpp:425] inception_4e/relu_pool_proj <- inception_4e/pool_proj
I0403 16:32:41.652007 21180 net.cpp:386] inception_4e/relu_pool_proj -> inception_4e/pool_proj (in-place)
I0403 16:32:41.652318 21180 net.cpp:141] Setting up inception_4e/relu_pool_proj
I0403 16:32:41.652346 21180 net.cpp:148] Top shape: 24 128 14 14 (602112)
I0403 16:32:41.652362 21180 net.cpp:156] Memory required for data: 1256902176
I0403 16:32:41.652379 21180 layer_factory.hpp:77] Creating layer inception_4e/output
I0403 16:32:41.652396 21180 net.cpp:91] Creating Layer inception_4e/output
I0403 16:32:41.652412 21180 net.cpp:425] inception_4e/output <- inception_4e/1x1
I0403 16:32:41.652428 21180 net.cpp:425] inception_4e/output <- inception_4e/3x3
I0403 16:32:41.652444 21180 net.cpp:425] inception_4e/output <- inception_4e/5x5
I0403 16:32:41.652461 21180 net.cpp:425] inception_4e/output <- inception_4e/pool_proj
I0403 16:32:41.652480 21180 net.cpp:399] inception_4e/output -> inception_4e/output
I0403 16:32:41.652531 21180 net.cpp:141] Setting up inception_4e/output
I0403 16:32:41.652555 21180 net.cpp:148] Top shape: 24 832 14 14 (3913728)
I0403 16:32:41.652570 21180 net.cpp:156] Memory required for data: 1272557088
I0403 16:32:41.652585 21180 layer_factory.hpp:77] Creating layer pool4/3x3_s2
I0403 16:32:41.652608 21180 net.cpp:91] Creating Layer pool4/3x3_s2
I0403 16:32:41.652626 21180 net.cpp:425] pool4/3x3_s2 <- inception_4e/output
I0403 16:32:41.652644 21180 net.cpp:399] pool4/3x3_s2 -> pool4/3x3_s2
I0403 16:32:41.652715 21180 net.cpp:141] Setting up pool4/3x3_s2
I0403 16:32:41.652740 21180 net.cpp:148] Top shape: 24 832 7 7 (978432)
I0403 16:32:41.652756 21180 net.cpp:156] Memory required for data: 1276470816
I0403 16:32:41.652771 21180 layer_factory.hpp:77] Creating layer pool4/3x3_s2_pool4/3x3_s2_0_split
I0403 16:32:41.652788 21180 net.cpp:91] Creating Layer pool4/3x3_s2_pool4/3x3_s2_0_split
I0403 16:32:41.652806 21180 net.cpp:425] pool4/3x3_s2_pool4/3x3_s2_0_split <- pool4/3x3_s2
I0403 16:32:41.652825 21180 net.cpp:399] pool4/3x3_s2_pool4/3x3_s2_0_split -> pool4/3x3_s2_pool4/3x3_s2_0_split_0
I0403 16:32:41.652845 21180 net.cpp:399] pool4/3x3_s2_pool4/3x3_s2_0_split -> pool4/3x3_s2_pool4/3x3_s2_0_split_1
I0403 16:32:41.652865 21180 net.cpp:399] pool4/3x3_s2_pool4/3x3_s2_0_split -> pool4/3x3_s2_pool4/3x3_s2_0_split_2
I0403 16:32:41.652885 21180 net.cpp:399] pool4/3x3_s2_pool4/3x3_s2_0_split -> pool4/3x3_s2_pool4/3x3_s2_0_split_3
I0403 16:32:41.652981 21180 net.cpp:141] Setting up pool4/3x3_s2_pool4/3x3_s2_0_split
I0403 16:32:41.653004 21180 net.cpp:148] Top shape: 24 832 7 7 (978432)
I0403 16:32:41.653022 21180 net.cpp:148] Top shape: 24 832 7 7 (978432)
I0403 16:32:41.653036 21180 net.cpp:148] Top shape: 24 832 7 7 (978432)
I0403 16:32:41.653058 21180 net.cpp:148] Top shape: 24 832 7 7 (978432)
I0403 16:32:41.653072 21180 net.cpp:156] Memory required for data: 1292125728
I0403 16:32:41.653087 21180 layer_factory.hpp:77] Creating layer inception_5a/1x1
I0403 16:32:41.653110 21180 net.cpp:91] Creating Layer inception_5a/1x1
I0403 16:32:41.653128 21180 net.cpp:425] inception_5a/1x1 <- pool4/3x3_s2_pool4/3x3_s2_0_split_0
I0403 16:32:41.653149 21180 net.cpp:399] inception_5a/1x1 -> inception_5a/1x1
I0403 16:32:41.656203 21180 net.cpp:141] Setting up inception_5a/1x1
I0403 16:32:41.656234 21180 net.cpp:148] Top shape: 24 256 7 7 (301056)
I0403 16:32:41.656251 21180 net.cpp:156] Memory required for data: 1293329952
I0403 16:32:41.656271 21180 layer_factory.hpp:77] Creating layer inception_5a/relu_1x1
I0403 16:32:41.656289 21180 net.cpp:91] Creating Layer inception_5a/relu_1x1
I0403 16:32:41.656306 21180 net.cpp:425] inception_5a/relu_1x1 <- inception_5a/1x1
I0403 16:32:41.656327 21180 net.cpp:386] inception_5a/relu_1x1 -> inception_5a/1x1 (in-place)
I0403 16:32:41.656664 21180 net.cpp:141] Setting up inception_5a/relu_1x1
I0403 16:32:41.656692 21180 net.cpp:148] Top shape: 24 256 7 7 (301056)
I0403 16:32:41.656708 21180 net.cpp:156] Memory required for data: 1294534176
I0403 16:32:41.656723 21180 layer_factory.hpp:77] Creating layer inception_5a/3x3_reduce
I0403 16:32:41.656747 21180 net.cpp:91] Creating Layer inception_5a/3x3_reduce
I0403 16:32:41.656766 21180 net.cpp:425] inception_5a/3x3_reduce <- pool4/3x3_s2_pool4/3x3_s2_0_split_1
I0403 16:32:41.656790 21180 net.cpp:399] inception_5a/3x3_reduce -> inception_5a/3x3_reduce
I0403 16:32:41.659451 21180 net.cpp:141] Setting up inception_5a/3x3_reduce
I0403 16:32:41.659482 21180 net.cpp:148] Top shape: 24 160 7 7 (188160)
I0403 16:32:41.659499 21180 net.cpp:156] Memory required for data: 1295286816
I0403 16:32:41.659520 21180 layer_factory.hpp:77] Creating layer inception_5a/relu_3x3_reduce
I0403 16:32:41.659539 21180 net.cpp:91] Creating Layer inception_5a/relu_3x3_reduce
I0403 16:32:41.659556 21180 net.cpp:425] inception_5a/relu_3x3_reduce <- inception_5a/3x3_reduce
I0403 16:32:41.659576 21180 net.cpp:386] inception_5a/relu_3x3_reduce -> inception_5a/3x3_reduce (in-place)
I0403 16:32:41.659782 21180 net.cpp:141] Setting up inception_5a/relu_3x3_reduce
I0403 16:32:41.659809 21180 net.cpp:148] Top shape: 24 160 7 7 (188160)
I0403 16:32:41.659824 21180 net.cpp:156] Memory required for data: 1296039456
I0403 16:32:41.659839 21180 layer_factory.hpp:77] Creating layer inception_5a/3x3
I0403 16:32:41.659862 21180 net.cpp:91] Creating Layer inception_5a/3x3
I0403 16:32:41.659881 21180 net.cpp:425] inception_5a/3x3 <- inception_5a/3x3_reduce
I0403 16:32:41.659905 21180 net.cpp:399] inception_5a/3x3 -> inception_5a/3x3
I0403 16:32:41.665279 21180 net.cpp:141] Setting up inception_5a/3x3
I0403 16:32:41.665310 21180 net.cpp:148] Top shape: 24 320 7 7 (376320)
I0403 16:32:41.665326 21180 net.cpp:156] Memory required for data: 1297544736
I0403 16:32:41.665346 21180 layer_factory.hpp:77] Creating layer inception_5a/relu_3x3
I0403 16:32:41.665366 21180 net.cpp:91] Creating Layer inception_5a/relu_3x3
I0403 16:32:41.665386 21180 net.cpp:425] inception_5a/relu_3x3 <- inception_5a/3x3
I0403 16:32:41.665405 21180 net.cpp:386] inception_5a/relu_3x3 -> inception_5a/3x3 (in-place)
I0403 16:32:41.665721 21180 net.cpp:141] Setting up inception_5a/relu_3x3
I0403 16:32:41.665750 21180 net.cpp:148] Top shape: 24 320 7 7 (376320)
I0403 16:32:41.665766 21180 net.cpp:156] Memory required for data: 1299050016
I0403 16:32:41.665781 21180 layer_factory.hpp:77] Creating layer inception_5a/5x5_reduce
I0403 16:32:41.665805 21180 net.cpp:91] Creating Layer inception_5a/5x5_reduce
I0403 16:32:41.665823 21180 net.cpp:425] inception_5a/5x5_reduce <- pool4/3x3_s2_pool4/3x3_s2_0_split_2
I0403 16:32:41.665846 21180 net.cpp:399] inception_5a/5x5_reduce -> inception_5a/5x5_reduce
I0403 16:32:41.667129 21180 net.cpp:141] Setting up inception_5a/5x5_reduce
I0403 16:32:41.667160 21180 net.cpp:148] Top shape: 24 32 7 7 (37632)
I0403 16:32:41.667176 21180 net.cpp:156] Memory required for data: 1299200544
I0403 16:32:41.667196 21180 layer_factory.hpp:77] Creating layer inception_5a/relu_5x5_reduce
I0403 16:32:41.667217 21180 net.cpp:91] Creating Layer inception_5a/relu_5x5_reduce
I0403 16:32:41.667234 21180 net.cpp:425] inception_5a/relu_5x5_reduce <- inception_5a/5x5_reduce
I0403 16:32:41.667255 21180 net.cpp:386] inception_5a/relu_5x5_reduce -> inception_5a/5x5_reduce (in-place)
I0403 16:32:41.667582 21180 net.cpp:141] Setting up inception_5a/relu_5x5_reduce
I0403 16:32:41.667608 21180 net.cpp:148] Top shape: 24 32 7 7 (37632)
I0403 16:32:41.667624 21180 net.cpp:156] Memory required for data: 1299351072
I0403 16:32:41.667640 21180 layer_factory.hpp:77] Creating layer inception_5a/5x5
I0403 16:32:41.667664 21180 net.cpp:91] Creating Layer inception_5a/5x5
I0403 16:32:41.667682 21180 net.cpp:425] inception_5a/5x5 <- inception_5a/5x5_reduce
I0403 16:32:41.667704 21180 net.cpp:399] inception_5a/5x5 -> inception_5a/5x5
I0403 16:32:41.669574 21180 net.cpp:141] Setting up inception_5a/5x5
I0403 16:32:41.669616 21180 net.cpp:148] Top shape: 24 128 7 7 (150528)
I0403 16:32:41.669633 21180 net.cpp:156] Memory required for data: 1299953184
I0403 16:32:41.669652 21180 layer_factory.hpp:77] Creating layer inception_5a/relu_5x5
I0403 16:32:41.669672 21180 net.cpp:91] Creating Layer inception_5a/relu_5x5
I0403 16:32:41.669713 21180 net.cpp:425] inception_5a/relu_5x5 <- inception_5a/5x5
I0403 16:32:41.669731 21180 net.cpp:386] inception_5a/relu_5x5 -> inception_5a/5x5 (in-place)
I0403 16:32:41.669937 21180 net.cpp:141] Setting up inception_5a/relu_5x5
I0403 16:32:41.669963 21180 net.cpp:148] Top shape: 24 128 7 7 (150528)
I0403 16:32:41.669980 21180 net.cpp:156] Memory required for data: 1300555296
I0403 16:32:41.669994 21180 layer_factory.hpp:77] Creating layer inception_5a/pool
I0403 16:32:41.670016 21180 net.cpp:91] Creating Layer inception_5a/pool
I0403 16:32:41.670034 21180 net.cpp:425] inception_5a/pool <- pool4/3x3_s2_pool4/3x3_s2_0_split_3
I0403 16:32:41.670056 21180 net.cpp:399] inception_5a/pool -> inception_5a/pool
I0403 16:32:41.670135 21180 net.cpp:141] Setting up inception_5a/pool
I0403 16:32:41.670161 21180 net.cpp:148] Top shape: 24 832 7 7 (978432)
I0403 16:32:41.670176 21180 net.cpp:156] Memory required for data: 1304469024
I0403 16:32:41.670191 21180 layer_factory.hpp:77] Creating layer inception_5a/pool_proj
I0403 16:32:41.670214 21180 net.cpp:91] Creating Layer inception_5a/pool_proj
I0403 16:32:41.670233 21180 net.cpp:425] inception_5a/pool_proj <- inception_5a/pool
I0403 16:32:41.670255 21180 net.cpp:399] inception_5a/pool_proj -> inception_5a/pool_proj
I0403 16:32:41.672703 21180 net.cpp:141] Setting up inception_5a/pool_proj
I0403 16:32:41.672734 21180 net.cpp:148] Top shape: 24 128 7 7 (150528)
I0403 16:32:41.672749 21180 net.cpp:156] Memory required for data: 1305071136
I0403 16:32:41.672768 21180 layer_factory.hpp:77] Creating layer inception_5a/relu_pool_proj
I0403 16:32:41.672787 21180 net.cpp:91] Creating Layer inception_5a/relu_pool_proj
I0403 16:32:41.672804 21180 net.cpp:425] inception_5a/relu_pool_proj <- inception_5a/pool_proj
I0403 16:32:41.672827 21180 net.cpp:386] inception_5a/relu_pool_proj -> inception_5a/pool_proj (in-place)
I0403 16:32:41.673164 21180 net.cpp:141] Setting up inception_5a/relu_pool_proj
I0403 16:32:41.673190 21180 net.cpp:148] Top shape: 24 128 7 7 (150528)
I0403 16:32:41.673207 21180 net.cpp:156] Memory required for data: 1305673248
I0403 16:32:41.673220 21180 layer_factory.hpp:77] Creating layer inception_5a/output
I0403 16:32:41.673238 21180 net.cpp:91] Creating Layer inception_5a/output
I0403 16:32:41.673254 21180 net.cpp:425] inception_5a/output <- inception_5a/1x1
I0403 16:32:41.673271 21180 net.cpp:425] inception_5a/output <- inception_5a/3x3
I0403 16:32:41.673287 21180 net.cpp:425] inception_5a/output <- inception_5a/5x5
I0403 16:32:41.673303 21180 net.cpp:425] inception_5a/output <- inception_5a/pool_proj
I0403 16:32:41.673322 21180 net.cpp:399] inception_5a/output -> inception_5a/output
I0403 16:32:41.673374 21180 net.cpp:141] Setting up inception_5a/output
I0403 16:32:41.673398 21180 net.cpp:148] Top shape: 24 832 7 7 (978432)
I0403 16:32:41.673416 21180 net.cpp:156] Memory required for data: 1309586976
I0403 16:32:41.673431 21180 layer_factory.hpp:77] Creating layer inception_5a/output_inception_5a/output_0_split
I0403 16:32:41.673449 21180 net.cpp:91] Creating Layer inception_5a/output_inception_5a/output_0_split
I0403 16:32:41.673465 21180 net.cpp:425] inception_5a/output_inception_5a/output_0_split <- inception_5a/output
I0403 16:32:41.673483 21180 net.cpp:399] inception_5a/output_inception_5a/output_0_split -> inception_5a/output_inception_5a/output_0_split_0
I0403 16:32:41.673503 21180 net.cpp:399] inception_5a/output_inception_5a/output_0_split -> inception_5a/output_inception_5a/output_0_split_1
I0403 16:32:41.673524 21180 net.cpp:399] inception_5a/output_inception_5a/output_0_split -> inception_5a/output_inception_5a/output_0_split_2
I0403 16:32:41.673548 21180 net.cpp:399] inception_5a/output_inception_5a/output_0_split -> inception_5a/output_inception_5a/output_0_split_3
I0403 16:32:41.673666 21180 net.cpp:141] Setting up inception_5a/output_inception_5a/output_0_split
I0403 16:32:41.673691 21180 net.cpp:148] Top shape: 24 832 7 7 (978432)
I0403 16:32:41.673707 21180 net.cpp:148] Top shape: 24 832 7 7 (978432)
I0403 16:32:41.673723 21180 net.cpp:148] Top shape: 24 832 7 7 (978432)
I0403 16:32:41.673739 21180 net.cpp:148] Top shape: 24 832 7 7 (978432)
I0403 16:32:41.673753 21180 net.cpp:156] Memory required for data: 1325241888
I0403 16:32:41.673768 21180 layer_factory.hpp:77] Creating layer inception_5b/1x1
I0403 16:32:41.673791 21180 net.cpp:91] Creating Layer inception_5b/1x1
I0403 16:32:41.673810 21180 net.cpp:425] inception_5b/1x1 <- inception_5a/output_inception_5a/output_0_split_0
I0403 16:32:41.673831 21180 net.cpp:399] inception_5b/1x1 -> inception_5b/1x1
I0403 16:32:41.677742 21180 net.cpp:141] Setting up inception_5b/1x1
I0403 16:32:41.677777 21180 net.cpp:148] Top shape: 24 384 7 7 (451584)
I0403 16:32:41.677793 21180 net.cpp:156] Memory required for data: 1327048224
I0403 16:32:41.677813 21180 layer_factory.hpp:77] Creating layer inception_5b/relu_1x1
I0403 16:32:41.677831 21180 net.cpp:91] Creating Layer inception_5b/relu_1x1
I0403 16:32:41.677847 21180 net.cpp:425] inception_5b/relu_1x1 <- inception_5b/1x1
I0403 16:32:41.677868 21180 net.cpp:386] inception_5b/relu_1x1 -> inception_5b/1x1 (in-place)
I0403 16:32:41.678195 21180 net.cpp:141] Setting up inception_5b/relu_1x1
I0403 16:32:41.678225 21180 net.cpp:148] Top shape: 24 384 7 7 (451584)
I0403 16:32:41.678242 21180 net.cpp:156] Memory required for data: 1328854560
I0403 16:32:41.678257 21180 layer_factory.hpp:77] Creating layer inception_5b/3x3_reduce
I0403 16:32:41.678282 21180 net.cpp:91] Creating Layer inception_5b/3x3_reduce
I0403 16:32:41.678300 21180 net.cpp:425] inception_5b/3x3_reduce <- inception_5a/output_inception_5a/output_0_split_1
I0403 16:32:41.678320 21180 net.cpp:399] inception_5b/3x3_reduce -> inception_5b/3x3_reduce
I0403 16:32:41.681123 21180 net.cpp:141] Setting up inception_5b/3x3_reduce
I0403 16:32:41.681154 21180 net.cpp:148] Top shape: 24 192 7 7 (225792)
I0403 16:32:41.681171 21180 net.cpp:156] Memory required for data: 1329757728
I0403 16:32:41.681190 21180 layer_factory.hpp:77] Creating layer inception_5b/relu_3x3_reduce
I0403 16:32:41.681210 21180 net.cpp:91] Creating Layer inception_5b/relu_3x3_reduce
I0403 16:32:41.681226 21180 net.cpp:425] inception_5b/relu_3x3_reduce <- inception_5b/3x3_reduce
I0403 16:32:41.681246 21180 net.cpp:386] inception_5b/relu_3x3_reduce -> inception_5b/3x3_reduce (in-place)
I0403 16:32:41.681452 21180 net.cpp:141] Setting up inception_5b/relu_3x3_reduce
I0403 16:32:41.681478 21180 net.cpp:148] Top shape: 24 192 7 7 (225792)
I0403 16:32:41.681493 21180 net.cpp:156] Memory required for data: 1330660896
I0403 16:32:41.681507 21180 layer_factory.hpp:77] Creating layer inception_5b/3x3
I0403 16:32:41.681530 21180 net.cpp:91] Creating Layer inception_5b/3x3
I0403 16:32:41.681548 21180 net.cpp:425] inception_5b/3x3 <- inception_5b/3x3_reduce
I0403 16:32:41.681571 21180 net.cpp:399] inception_5b/3x3 -> inception_5b/3x3
I0403 16:32:41.688513 21180 net.cpp:141] Setting up inception_5b/3x3
I0403 16:32:41.688542 21180 net.cpp:148] Top shape: 24 384 7 7 (451584)
I0403 16:32:41.688560 21180 net.cpp:156] Memory required for data: 1332467232
I0403 16:32:41.688578 21180 layer_factory.hpp:77] Creating layer inception_5b/relu_3x3
I0403 16:32:41.688596 21180 net.cpp:91] Creating Layer inception_5b/relu_3x3
I0403 16:32:41.688613 21180 net.cpp:425] inception_5b/relu_3x3 <- inception_5b/3x3
I0403 16:32:41.688633 21180 net.cpp:386] inception_5b/relu_3x3 -> inception_5b/3x3 (in-place)
I0403 16:32:41.688947 21180 net.cpp:141] Setting up inception_5b/relu_3x3
I0403 16:32:41.688973 21180 net.cpp:148] Top shape: 24 384 7 7 (451584)
I0403 16:32:41.688989 21180 net.cpp:156] Memory required for data: 1334273568
I0403 16:32:41.689004 21180 layer_factory.hpp:77] Creating layer inception_5b/5x5_reduce
I0403 16:32:41.689045 21180 net.cpp:91] Creating Layer inception_5b/5x5_reduce
I0403 16:32:41.689076 21180 net.cpp:425] inception_5b/5x5_reduce <- inception_5a/output_inception_5a/output_0_split_2
I0403 16:32:41.689100 21180 net.cpp:399] inception_5b/5x5_reduce -> inception_5b/5x5_reduce
I0403 16:32:41.690439 21180 net.cpp:141] Setting up inception_5b/5x5_reduce
I0403 16:32:41.690470 21180 net.cpp:148] Top shape: 24 48 7 7 (56448)
I0403 16:32:41.690487 21180 net.cpp:156] Memory required for data: 1334499360
I0403 16:32:41.690505 21180 layer_factory.hpp:77] Creating layer inception_5b/relu_5x5_reduce
I0403 16:32:41.690524 21180 net.cpp:91] Creating Layer inception_5b/relu_5x5_reduce
I0403 16:32:41.690541 21180 net.cpp:425] inception_5b/relu_5x5_reduce <- inception_5b/5x5_reduce
I0403 16:32:41.690562 21180 net.cpp:386] inception_5b/relu_5x5_reduce -> inception_5b/5x5_reduce (in-place)
I0403 16:32:41.690950 21180 net.cpp:141] Setting up inception_5b/relu_5x5_reduce
I0403 16:32:41.690978 21180 net.cpp:148] Top shape: 24 48 7 7 (56448)
I0403 16:32:41.690992 21180 net.cpp:156] Memory required for data: 1334725152
I0403 16:32:41.691009 21180 layer_factory.hpp:77] Creating layer inception_5b/5x5
I0403 16:32:41.691030 21180 net.cpp:91] Creating Layer inception_5b/5x5
I0403 16:32:41.691052 21180 net.cpp:425] inception_5b/5x5 <- inception_5b/5x5_reduce
I0403 16:32:41.691073 21180 net.cpp:399] inception_5b/5x5 -> inception_5b/5x5
I0403 16:32:41.693264 21180 net.cpp:141] Setting up inception_5b/5x5
I0403 16:32:41.693291 21180 net.cpp:148] Top shape: 24 128 7 7 (150528)
I0403 16:32:41.693307 21180 net.cpp:156] Memory required for data: 1335327264
I0403 16:32:41.693325 21180 layer_factory.hpp:77] Creating layer inception_5b/relu_5x5
I0403 16:32:41.693344 21180 net.cpp:91] Creating Layer inception_5b/relu_5x5
I0403 16:32:41.693361 21180 net.cpp:425] inception_5b/relu_5x5 <- inception_5b/5x5
I0403 16:32:41.693382 21180 net.cpp:386] inception_5b/relu_5x5 -> inception_5b/5x5 (in-place)
I0403 16:32:41.693589 21180 net.cpp:141] Setting up inception_5b/relu_5x5
I0403 16:32:41.693614 21180 net.cpp:148] Top shape: 24 128 7 7 (150528)
I0403 16:32:41.693629 21180 net.cpp:156] Memory required for data: 1335929376
I0403 16:32:41.693645 21180 layer_factory.hpp:77] Creating layer inception_5b/pool
I0403 16:32:41.693665 21180 net.cpp:91] Creating Layer inception_5b/pool
I0403 16:32:41.693683 21180 net.cpp:425] inception_5b/pool <- inception_5a/output_inception_5a/output_0_split_3
I0403 16:32:41.693702 21180 net.cpp:399] inception_5b/pool -> inception_5b/pool
I0403 16:32:41.693779 21180 net.cpp:141] Setting up inception_5b/pool
I0403 16:32:41.693805 21180 net.cpp:148] Top shape: 24 832 7 7 (978432)
I0403 16:32:41.693820 21180 net.cpp:156] Memory required for data: 1339843104
I0403 16:32:41.693835 21180 layer_factory.hpp:77] Creating layer inception_5b/pool_proj
I0403 16:32:41.693858 21180 net.cpp:91] Creating Layer inception_5b/pool_proj
I0403 16:32:41.693876 21180 net.cpp:425] inception_5b/pool_proj <- inception_5b/pool
I0403 16:32:41.693897 21180 net.cpp:399] inception_5b/pool_proj -> inception_5b/pool_proj
I0403 16:32:41.696312 21180 net.cpp:141] Setting up inception_5b/pool_proj
I0403 16:32:41.696343 21180 net.cpp:148] Top shape: 24 128 7 7 (150528)
I0403 16:32:41.696359 21180 net.cpp:156] Memory required for data: 1340445216
I0403 16:32:41.696378 21180 layer_factory.hpp:77] Creating layer inception_5b/relu_pool_proj
I0403 16:32:41.696396 21180 net.cpp:91] Creating Layer inception_5b/relu_pool_proj
I0403 16:32:41.696411 21180 net.cpp:425] inception_5b/relu_pool_proj <- inception_5b/pool_proj
I0403 16:32:41.696432 21180 net.cpp:386] inception_5b/relu_pool_proj -> inception_5b/pool_proj (in-place)
I0403 16:32:41.696737 21180 net.cpp:141] Setting up inception_5b/relu_pool_proj
I0403 16:32:41.696765 21180 net.cpp:148] Top shape: 24 128 7 7 (150528)
I0403 16:32:41.696779 21180 net.cpp:156] Memory required for data: 1341047328
I0403 16:32:41.696794 21180 layer_factory.hpp:77] Creating layer inception_5b/output
I0403 16:32:41.696812 21180 net.cpp:91] Creating Layer inception_5b/output
I0403 16:32:41.696842 21180 net.cpp:425] inception_5b/output <- inception_5b/1x1
I0403 16:32:41.696861 21180 net.cpp:425] inception_5b/output <- inception_5b/3x3
I0403 16:32:41.696877 21180 net.cpp:425] inception_5b/output <- inception_5b/5x5
I0403 16:32:41.696892 21180 net.cpp:425] inception_5b/output <- inception_5b/pool_proj
I0403 16:32:41.696912 21180 net.cpp:399] inception_5b/output -> inception_5b/output
I0403 16:32:41.696964 21180 net.cpp:141] Setting up inception_5b/output
I0403 16:32:41.696987 21180 net.cpp:148] Top shape: 24 1024 7 7 (1204224)
I0403 16:32:41.697001 21180 net.cpp:156] Memory required for data: 1345864224
I0403 16:32:41.697016 21180 layer_factory.hpp:77] Creating layer pool5/7x7_s1
I0403 16:32:41.697036 21180 net.cpp:91] Creating Layer pool5/7x7_s1
I0403 16:32:41.697057 21180 net.cpp:425] pool5/7x7_s1 <- inception_5b/output
I0403 16:32:41.697075 21180 net.cpp:399] pool5/7x7_s1 -> pool5/7x7_s1
I0403 16:32:41.697304 21180 net.cpp:141] Setting up pool5/7x7_s1
I0403 16:32:41.697329 21180 net.cpp:148] Top shape: 24 1024 1 1 (24576)
I0403 16:32:41.697345 21180 net.cpp:156] Memory required for data: 1345962528
I0403 16:32:41.697358 21180 layer_factory.hpp:77] Creating layer pool5/drop_7x7_s1
I0403 16:32:41.697376 21180 net.cpp:91] Creating Layer pool5/drop_7x7_s1
I0403 16:32:41.697391 21180 net.cpp:425] pool5/drop_7x7_s1 <- pool5/7x7_s1
I0403 16:32:41.697410 21180 net.cpp:386] pool5/drop_7x7_s1 -> pool5/7x7_s1 (in-place)
I0403 16:32:41.697461 21180 net.cpp:141] Setting up pool5/drop_7x7_s1
I0403 16:32:41.697487 21180 net.cpp:148] Top shape: 24 1024 1 1 (24576)
I0403 16:32:41.697502 21180 net.cpp:156] Memory required for data: 1346060832
I0403 16:32:41.697517 21180 layer_factory.hpp:77] Creating layer loss3/classifier_plantvillage
I0403 16:32:41.697535 21180 net.cpp:91] Creating Layer loss3/classifier_plantvillage
I0403 16:32:41.697551 21180 net.cpp:425] loss3/classifier_plantvillage <- pool5/7x7_s1
I0403 16:32:41.697572 21180 net.cpp:399] loss3/classifier_plantvillage -> loss3/classifier_plantvillage
I0403 16:32:41.698000 21180 net.cpp:141] Setting up loss3/classifier_plantvillage
I0403 16:32:41.698029 21180 net.cpp:148] Top shape: 24 38 (912)
I0403 16:32:41.698045 21180 net.cpp:156] Memory required for data: 1346064480
I0403 16:32:41.698067 21180 layer_factory.hpp:77] Creating layer loss3/classifier_plantvillage_loss3/classifier_plantvillage_0_split
I0403 16:32:41.698086 21180 net.cpp:91] Creating Layer loss3/classifier_plantvillage_loss3/classifier_plantvillage_0_split
I0403 16:32:41.698101 21180 net.cpp:425] loss3/classifier_plantvillage_loss3/classifier_plantvillage_0_split <- loss3/classifier_plantvillage
I0403 16:32:41.698118 21180 net.cpp:399] loss3/classifier_plantvillage_loss3/classifier_plantvillage_0_split -> loss3/classifier_plantvillage_loss3/classifier_plantvillage_0_split_0
I0403 16:32:41.698137 21180 net.cpp:399] loss3/classifier_plantvillage_loss3/classifier_plantvillage_0_split -> loss3/classifier_plantvillage_loss3/classifier_plantvillage_0_split_1
I0403 16:32:41.698159 21180 net.cpp:399] loss3/classifier_plantvillage_loss3/classifier_plantvillage_0_split -> loss3/classifier_plantvillage_loss3/classifier_plantvillage_0_split_2
I0403 16:32:41.698180 21180 net.cpp:399] loss3/classifier_plantvillage_loss3/classifier_plantvillage_0_split -> loss3/classifier_plantvillage_loss3/classifier_plantvillage_0_split_3
I0403 16:32:41.698283 21180 net.cpp:141] Setting up loss3/classifier_plantvillage_loss3/classifier_plantvillage_0_split
I0403 16:32:41.698307 21180 net.cpp:148] Top shape: 24 38 (912)
I0403 16:32:41.698321 21180 net.cpp:148] Top shape: 24 38 (912)
I0403 16:32:41.698338 21180 net.cpp:148] Top shape: 24 38 (912)
I0403 16:32:41.698351 21180 net.cpp:148] Top shape: 24 38 (912)
I0403 16:32:41.698364 21180 net.cpp:156] Memory required for data: 1346079072
I0403 16:32:41.698379 21180 layer_factory.hpp:77] Creating layer loss1/loss
I0403 16:32:41.698400 21180 net.cpp:91] Creating Layer loss1/loss
I0403 16:32:41.698416 21180 net.cpp:425] loss1/loss <- loss1/classifier_plantvillage_loss1/classifier_plantvillage_0_split_0
I0403 16:32:41.698451 21180 net.cpp:425] loss1/loss <- label_data_1_split_0
…
