…
I0403 16:07:52.114037 20747 net.cpp:313] The NetState phase (1) differed from the phase (0) specified by a rule in layer data
I0403 16:07:52.115212 20747 net.cpp:49] Initializing net from parameters: 
state {
  phase: TEST
}
layer {
  name: "data"
  type: "Data"
  top: "data"
  top: "label"
  include {
    phase: TEST
  }
  transform_param {
    mirror: false
    crop_size: 224
    mean_file: "/home/mohanty/data/final_dataset/lmdb/grayscale-20-80/mean.binaryproto"
  }
  data_param {
    source: "/home/mohanty/data/final_dataset/lmdb/grayscale-20-80/test_db"
    batch_size: 24
    backend: LMDB
  }
}
layer {
  name: "conv1/7x7_s2"
  type: "Convolution"
  bottom: "data"
  top: "conv1/7x7_s2"
  param {
    lr_mult: 1
    decay_mult: 1
  }
  param {
    lr_mult: 2
    decay_mult: 0
  }
  convolution_param {
    num_output: 64
    pad: 3
    kernel_size: 7
    stride: 2
    weight_filler {
      type: "xavier"
      std: 0.1
    }
    bias_filler {
      type: "constant"
      value: 0.2
    }
  }
}
layer {
  name: "conv1/relu_7x7"
  type: "ReLU"
  bottom: "conv1/7x7_s2"
  top: "conv1/7x7_s2"
}
layer {
  name: "pool1/3x3_s2"
  type: "Pooling"
  bottom: "conv1/7x7_s2"
  top: "pool1/3x3_s2"
  pooling_param {
    pool: MAX
    kernel_size: 3
    stride: 2
  }
}
layer {
  name: "pool1/norm1"
  type: "LRN"
  bottom: "pool1/3x3_s2"
  top: "pool1/norm1"
  lrn_param {
    local_size: 5
    alpha: 0.0001
    beta: 0.75
  }
}
layer {
  name: "conv2/3x3_reduce"
  type: "Convolution"
  bottom: "pool1/norm1"
  top: "conv2/3x3_reduce"
  param {
    lr_mult: 1
    decay_mult: 1
  }
  param {
    lr_mult: 2
    decay_mult: 0
  }
  convolution_param {
    num_output: 64
    kernel_size: 1
    weight_filler {
      type: "xavier"
      std: 0.1
    }
    bias_filler {
      type: "constant"
      value: 0.2
    }
  }
}
layer {
  name: "conv2/relu_3x3_reduce"
  type: "ReLU"
  bottom: "conv2/3x3_reduce"
  top: "conv2/3x3_reduce"
}
layer {
  name: "conv2/3x3"
  type: "Convolution"
  bottom: "conv2/3x3_reduce"
  top: "conv2/3x3"
  param {
    lr_mult: 1
    decay_mult: 1
  }
  param {
    lr_mult: 2
    decay_mult: 0
  }
  convolution_param {
    num_output: 192
    pad: 1
    kernel_size: 3
    weight_filler {
      type: "xavier"
      std: 0.03
    }
    bias_filler {
      type: "constant"
      value: 0.2
    }
  }
}
layer {
  name: "conv2/relu_3x3"
  type: "ReLU"
  bottom: "conv2/3x3"
  top: "conv2/3x3"
}
layer {
  name: "conv2/norm2"
  type: "LRN"
  bottom: "conv2/3x3"
  top: "conv2/norm2"
  lrn_param {
    local_size: 5
    alpha: 0.0001
    beta: 0.75
  }
}
layer {
  name: "pool2/3x3_s2"
  type: "Pooling"
  bottom: "conv2/norm2"
  top: "pool2/3x3_s2"
  pooling_param {
    pool: MAX
    kernel_size: 3
    stride: 2
  }
}
layer {
  name: "inception_3a/1x1"
  type: "Convolution"
  bottom: "pool2/3x3_s2"
  top: "inception_3a/1x1"
  param {
    lr_mult: 1
    decay_mult: 1
  }
  param {
    lr_mult: 2
    decay_mult: 0
  }
  convolution_param {
    num_output: 64
    kernel_size: 1
    weight_filler {
      type: "xavier"
      std: 0.03
    }
    bias_filler {
      type: "constant"
      value: 0.2
    }
  }
}
layer {
  name: "inception_3a/relu_1x1"
  type: "ReLU"
  bottom: "inception_3a/1x1"
  top: "inception_3a/1x1"
}
layer {
  name: "inception_3a/3x3_reduce"
  type: "Convolution"
  bottom: "pool2/3x3_s2"
  top: "inception_3a/3x3_reduce"
  param {
    lr_mult: 1
    decay_mult: 1
  }
  param {
    lr_mult: 2
    decay_mult: 0
  }
  convolution_param {
    num_output: 96
    kernel_size: 1
    weight_filler {
      type: "xavier"
      std: 0.09
    }
    bias_filler {
      type: "constant"
      value: 0.2
    }
  }
}
layer {
  name: "inception_3a/relu_3x3_reduce"
  type: "ReLU"
  bottom: "inception_3a/3x3_reduce"
  top: "inception_3a/3x3_reduce"
}
layer {
  name: "inception_3a/3x3"
  type: "Convolution"
  bottom: "inception_3a/3x3_reduce"
  top: "inception_3a/3x3"
  param {
    lr_mult: 1
    decay_mult: 1
  }
  param {
    lr_mult: 2
    decay_mult: 0
  }
  convolution_param {
    num_output: 128
    pad: 1
    kernel_size: 3
    weight_filler {
      type: "xavier"
      std: 0.03
    }
    bias_filler {
      type: "constant"
      value: 0.2
    }
  }
}
layer {
  name: "inception_3a/relu_3x3"
  type: "ReLU"
  bottom: "inception_3a/3x3"
  top: "inception_3a/3x3"
}
layer {
  name: "inception_3a/5x5_reduce"
  type: "Convolution"
  bottom: "pool2/3x3_s2"
  top: "inception_3a/5x5_reduce"
  param {
    lr_mult: 1
    decay_mult: 1
  }
  param {
    lr_mult: 2
    decay_mult: 0
  }
  convolution_param {
    num_output: 16
    kernel_size: 1
    weight_filler {
      type: "xavier"
      std: 0.2
    }
    bias_filler {
      type: "constant"
      value: 0.2
    }
  }
}
layer {
  name: "inception_3a/relu_5x5_reduce"
  type: "ReLU"
  bottom: "inception_3a/5x5_reduce"
  top: "inception_3a/5x5_reduce"
}
layer {
  name: "inception_3a/5x5"
  type: "Convolution"
  bottom: "inception_3a/5x5_reduce"
  top: "inception_3a/5x5"
  param {
    lr_mult: 1
    decay_mult: 1
  }
  param {
    lr_mult: 2
    decay_mult: 0
  }
  convolution_param {
    num_output: 32
    pad: 2
    kernel_size: 5
    weight_filler {
      type: "xavier"
      std: 0.03
    }
    bias_filler {
      type: "constant"
      value: 0.2
    }
  }
}
layer {
  name: "inception_3a/relu_5x5"
  type: "ReLU"
  bottom: "inception_3a/5x5"
  top: "inception_3a/5x5"
}
layer {
  name: "inception_3a/pool"
  type: "Pooling"
  bottom: "pool2/3x3_s2"
  top: "inception_3a/pool"
  pooling_param {
    pool: MAX
    kernel_size: 3
    stride: 1
    pad: 1
  }
}
layer {
  name: "inception_3a/pool_proj"
  type: "Convolution"
  bottom: "inception_3a/pool"
  top: "inception_3a/pool_proj"
  param {
    lr_mult: 1
    decay_mult: 1
  }
  param {
    lr_mult: 2
    decay_mult: 0
  }
  convolution_param {
    num_output: 32
    kernel_size: 1
    weight_filler {
      type: "xavier"
      std: 0.1
    }
    bias_filler {
      type: "constant"
      value: 0.2
    }
  }
}
layer {
  name: "inception_3a/relu_pool_proj"
  type: "ReLU"
  bottom: "inception_3a/pool_proj"
  top: "inception_3a/pool_proj"
}
layer {
  name: "inception_3a/output"
  type: "Concat"
  bottom: "inception_3a/1x1"
  bottom: "inception_3a/3x3"
  bottom: "inception_3a/5x5"
  bottom: "inception_3a/pool_proj"
  top: "inception_3a/output"
}
layer {
  name: "inception_3b/1x1"
  type: "Convolution"
  bottom: "inception_3a/output"
  top: "inception_3b/1x1"
  param {
    lr_mult: 1
    decay_mult: 1
  }
  param {
    lr_mult: 2
    decay_mult: 0
  }
  convolution_param {
    num_output: 128
    kernel_size: 1
    weight_filler {
      type: "xavier"
      std: 0.03
    }
    bias_filler {
      type: "constant"
      value: 0.2
    }
  }
}
layer {
  name: "inception_3b/relu_1x1"
  type: "ReLU"
  bottom: "inception_3b/1x1"
  top: "inception_3b/1x1"
}
layer {
  name: "inception_3b/3x3_reduce"
  type: "Convolution"
  bottom: "inception_3a/output"
  top: "inception_3b/3x3_reduce"
  param {
    lr_mult: 1
    decay_mult: 1
  }
  param {
    lr_mult: 2
    decay_mult: 0
  }
  convolution_param {
    num_output: 128
    kernel_size: 1
    weight_filler {
      type: "xavier"
      std: 0.09
    }
    bias_filler {
      type: "constant"
      value: 0.2
    }
  }
}
layer {
  name: "inception_3b/relu_3x3_reduce"
  type: "ReLU"
  bottom: "inception_3b/3x3_reduce"
  top: "inception_3b/3x3_reduce"
}
layer {
  name: "inception_3b/3x3"
  type: "Convolution"
  bottom: "inception_3b/3x3_reduce"
  top: "inception_3b/3x3"
  param {
    lr_mult: 1
    decay_mult: 1
  }
  param {
    lr_mult: 2
    decay_mult: 0
  }
  convolution_param {
    num_output: 192
    pad: 1
    kernel_size: 3
    weight_filler {
      type: "xavier"
      std: 0.03
    }
    bias_filler {
      type: "constant"
      value: 0.2
    }
  }
}
layer {
  name: "inception_3b/relu_3x3"
  type: "ReLU"
  bottom: "inception_3b/3x3"
  top: "inception_3b/3x3"
}
layer {
  name: "inception_3b/5x5_reduce"
  type: "Convolution"
  bottom: "inception_3a/output"
  top: "inception_3b/5x5_reduce"
  param {
    lr_mult: 1
    decay_mult: 1
  }
  param {
    lr_mult: 2
    decay_mult: 0
  }
  convolution_param {
    num_output: 32
    kernel_size: 1
    weight_filler {
      type: "xavier"
      std: 0.2
    }
    bias_filler {
      type: "constant"
      value: 0.2
    }
  }
}
layer {
  name: "inception_3b/relu_5x5_reduce"
  type: "ReLU"
  bottom: "inception_3b/5x5_reduce"
  top: "inception_3b/5x5_reduce"
}
layer {
  name: "inception_3b/5x5"
  type: "Convolution"
  bottom: "inception_3b/5x5_reduce"
  top: "inception_3b/5x5"
  param {
    lr_mult: 1
    decay_mult: 1
  }
  param {
    lr_mult: 2
    decay_mult: 0
  }
  convolution_param {
    num_output: 96
    pad: 2
    kernel_size: 5
    weight_filler {
      type: "xavier"
      std: 0.03
    }
    bias_filler {
      type: "constant"
      value: 0.2
    }
  }
}
layer {
  name: "inception_3b/relu_5x5"
  type: "ReLU"
  bottom: "inception_3b/5x5"
  top: "inception_3b/5x5"
}
layer {
  name: "inception_3b/pool"
  type: "Pooling"
  bottom: "inception_3a/output"
  top: "inception_3b/pool"
  pooling_param {
    pool: MAX
    kernel_size: 3
    stride: 1
    pad: 1
  }
}
layer {
  name: "inception_3b/pool_proj"
  type: "Convolution"
  bottom: "inception_3b/pool"
  top: "inception_3b/pool_proj"
  param {
    lr_mult: 1
    decay_mult: 1
  }
  param {
    lr_mult: 2
    decay_mult: 0
  }
  convolution_param {
    num_output: 64
    kernel_size: 1
    weight_filler {
      type: "xavier"
      std: 0.1
    }
    bias_filler {
      type: "constant"
      value: 0.2
    }
  }
}
layer {
  name: "inception_3b/relu_pool_proj"
  type: "ReLU"
  bottom: "inception_3b/pool_proj"
  top: "inception_3b/pool_proj"
}
layer {
  name: "inception_3b/output"
  type: "Concat"
  bottom: "inception_3b/1x1"
  bottom: "inception_3b/3x3"
  bottom: "inception_3b/5x5"
  bottom: "inception_3b/pool_proj"
  top: "inception_3b/output"
}
layer {
  name: "pool3/3x3_s2"
  type: "Pooling"
  bottom: "inception_3b/output"
  top: "pool3/3x3_s2"
  pooling_param {
    pool: MAX
    kernel_size: 3
    stride: 2
  }
}
layer {
  name: "inception_4a/1x1"
  type: "Convolution"
  bottom: "pool3/3x3_s2"
  top: "inception_4a/1x1"
  param {
    lr_mult: 1
    decay_mult: 1
  }
  param {
    lr_mult: 2
    decay_mult: 0
  }
  convolution_param {
    num_output: 192
    kernel_size: 1
    weight_filler {
      type: "xavier"
      std: 0.03
    }
    bias_filler {
      type: "constant"
      value: 0.2
    }
  }
}
layer {
  name: "inception_4a/relu_1x1"
  type: "ReLU"
  bottom: "inception_4a/1x1"
  top: "inception_4a/1x1"
}
layer {
  name: "inception_4a/3x3_reduce"
  type: "Convolution"
  bottom: "pool3/3x3_s2"
  top: "inception_4a/3x3_reduce"
  param {
    lr_mult: 1
    decay_mult: 1
  }
  param {
    lr_mult: 2
    decay_mult: 0
  }
  convolution_param {
    num_output: 96
    kernel_size: 1
    weight_filler {
      type: "xavier"
      std: 0.09
    }
    bias_filler {
      type: "constant"
      value: 0.2
    }
  }
}
layer {
  name: "inception_4a/relu_3x3_reduce"
  type: "ReLU"
  bottom: "inception_4a/3x3_reduce"
  top: "inception_4a/3x3_reduce"
}
layer {
  name: "inception_4a/3x3"
  type: "Convolution"
  bottom: "inception_4a/3x3_reduce"
  top: "inception_4a/3x3"
  param {
    lr_mult: 1
    decay_mult: 1
  }
  param {
    lr_mult: 2
    decay_mult: 0
  }
  convolution_param {
    num_output: 208
    pad: 1
    kernel_size: 3
    weight_filler {
      type: "xavier"
      std: 0.03
    }
    bias_filler {
      type: "constant"
      value: 0.2
    }
  }
}
layer {
  name: "inception_4a/relu_3x3"
  type: "ReLU"
  bottom: "inception_4a/3x3"
  top: "inception_4a/3x3"
}
layer {
  name: "inception_4a/5x5_reduce"
  type: "Convolution"
  bottom: "pool3/3x3_s2"
  top: "inception_4a/5x5_reduce"
  param {
    lr_mult: 1
    decay_mult: 1
  }
  param {
    lr_mult: 2
    decay_mult: 0
  }
  convolution_param {
    num_output: 16
    kernel_size: 1
    weight_filler {
      type: "xavier"
      std: 0.2
    }
    bias_filler {
      type: "constant"
      value: 0.2
    }
  }
}
layer {
  name: "inception_4a/relu_5x5_reduce"
  type: "ReLU"
  bottom: "inception_4a/5x5_reduce"
  top: "inception_4a/5x5_reduce"
}
layer {
  name: "inception_4a/5x5"
  type: "Convolution"
  bottom: "inception_4a/5x5_reduce"
  top: "inception_4a/5x5"
  param {
    lr_mult: 1
    decay_mult: 1
  }
  param {
    lr_mult: 2
    decay_mult: 0
  }
  convolution_param {
    num_output: 48
    pad: 2
    kernel_size: 5
    weight_filler {
      type: "xavier"
      std: 0.03
    }
    bias_filler {
      type: "constant"
      value: 0.2
    }
  }
}
layer {
  name: "inception_4a/relu_5x5"
  type: "ReLU"
  bottom: "inception_4a/5x5"
  top: "inception_4a/5x5"
}
layer {
  name: "inception_4a/pool"
  type: "Pooling"
  bottom: "pool3/3x3_s2"
  top: "inception_4a/pool"
  pooling_param {
    pool: MAX
    kernel_size: 3
    stride: 1
    pad: 1
  }
}
layer {
  name: "inception_4a/pool_proj"
  type: "Convolution"
  bottom: "inception_4a/pool"
  top: "inception_4a/pool_proj"
  param {
    lr_mult: 1
    decay_mult: 1
  }
  param {
    lr_mult: 2
    decay_mult: 0
  }
  convolution_param {
    num_output: 64
    kernel_size: 1
    weight_filler {
      type: "xavier"
      std: 0.1
    }
    bias_filler {
      type: "constant"
      value: 0.2
    }
  }
}
layer {
  name: "inception_4a/relu_pool_proj"
  type: "ReLU"
  bottom: "inception_4a/pool_proj"
  top: "inception_4a/pool_proj"
}
layer {
  name: "inception_4a/output"
  type: "Concat"
  bottom: "inception_4a/1x1"
  bottom: "inception_4a/3x3"
  bottom: "inception_4a/5x5"
  bottom: "inception_4a/pool_proj"
  top: "inception_4a/output"
}
layer {
  name: "loss1/ave_pool"
  type: "Pooling"
  bottom: "inception_4a/output"
  top: "loss1/ave_pool"
  pooling_param {
    pool: AVE
    kernel_size: 5
    stride: 3
  }
}
layer {
  name: "loss1/conv"
  type: "Convolution"
  bottom: "loss1/ave_pool"
  top: "loss1/conv"
  param {
    lr_mult: 1
    decay_mult: 1
  }
  param {
    lr_mult: 2
    decay_mult: 0
  }
  convolution_param {
    num_output: 128
    kernel_size: 1
    weight_filler {
      type: "xavier"
      std: 0.08
    }
    bias_filler {
      type: "constant"
      value: 0.2
    }
  }
}
layer {
  name: "loss1/relu_conv"
  type: "ReLU"
  bottom: "loss1/conv"
  top: "loss1/conv"
}
layer {
  name: "loss1/fc"
  type: "InnerProduct"
  bottom: "loss1/conv"
  top: "loss1/fc"
  param {
    lr_mult: 1
    decay_mult: 1
  }
  param {
    lr_mult: 2
    decay_mult: 0
  }
  inner_product_param {
    num_output: 1024
    weight_filler {
      type: "xavier"
      std: 0.02
    }
    bias_filler {
      type: "constant"
      value: 0.2
    }
  }
}
layer {
  name: "loss1/relu_fc"
  type: "ReLU"
  bottom: "loss1/fc"
  top: "loss1/fc"
}
layer {
  name: "loss1/drop_fc"
  type: "Dropout"
  bottom: "loss1/fc"
  top: "loss1/fc"
  dropout_param {
    dropout_ratio: 0.7
  }
}
layer {
  name: "loss1/classifier_plantvillage"
  type: "InnerProduct"
  bottom: "loss1/fc"
  top: "loss1/classifier_plantvillage"
  param {
    lr_mult: 1
    decay_mult: 1
  }
  param {
    lr_mult: 2
    decay_mult: 0
  }
  inner_product_param {
    num_output: 38
    weight_filler {
      type: "xavier"
      std: 0.0009765625
    }
    bias_filler {
      type: "constant"
      value: 0
    }
  }
}
layer {
  name: "inception_4b/1x1"
  type: "Convolution"
  bottom: "inception_4a/output"
  top: "inception_4b/1x1"
  param {
    lr_mult: 1
    decay_mult: 1
  }
  param {
    lr_mult: 2
    decay_mult: 0
  }
  convolution_param {
    num_output: 160
    kernel_size: 1
    weight_filler {
      type: "xavier"
      std: 0.03
    }
    bias_filler {
      type: "constant"
      value: 0.2
    }
  }
}
layer {
  name: "inception_4b/relu_1x1"
  type: "ReLU"
  bottom: "inception_4b/1x1"
  top: "inception_4b/1x1"
}
layer {
  name: "inception_4b/3x3_reduce"
  type: "Convolution"
  bottom: "inception_4a/output"
  top: "inception_4b/3x3_reduce"
  param {
    lr_mult: 1
    decay_mult: 1
  }
  param {
    lr_mult: 2
    decay_mult: 0
  }
  convolution_param {
    num_output: 112
    kernel_size: 1
    weight_filler {
      type: "xavier"
      std: 0.09
    }
    bias_filler {
      type: "constant"
      value: 0.2
    }
  }
}
layer {
  name: "inception_4b/relu_3x3_reduce"
  type: "ReLU"
  bottom: "inception_4b/3x3_reduce"
  top: "inception_4b/3x3_reduce"
}
layer {
  name: "inception_4b/3x3"
  type: "Convolution"
  bottom: "inception_4b/3x3_reduce"
  top: "inception_4b/3x3"
  param {
    lr_mult: 1
    decay_mult: 1
  }
  param {
    lr_mult: 2
    decay_mult: 0
  }
  convolution_param {
    num_output: 224
    pad: 1
    kernel_size: 3
    weight_filler {
      type: "xavier"
      std: 0.03
    }
    bias_filler {
      type: "constant"
      value: 0.2
    }
  }
}
layer {
  name: "inception_4b/relu_3x3"
  type: "ReLU"
  bottom: "inception_4b/3x3"
  top: "inception_4b/3x3"
}
layer {
  name: "inception_4b/5x5_reduce"
  type: "Convolution"
  bottom: "inception_4a/output"
  top: "inception_4b/5x5_reduce"
  param {
    lr_mult: 1
    decay_mult: 1
  }
  param {
    lr_mult: 2
    decay_mult: 0
  }
  convolution_param {
    num_output: 24
    kernel_size: 1
    weight_filler {
      type: "xavier"
      std: 0.2
    }
    bias_filler {
      type: "constant"
      value: 0.2
    }
  }
}
layer {
  name: "inception_4b/relu_5x5_reduce"
  type: "ReLU"
  bottom: "inception_4b/5x5_reduce"
  top: "inception_4b/5x5_reduce"
}
layer {
  name: "inception_4b/5x5"
  type: "Convolution"
  bottom: "inception_4b/5x5_reduce"
  top: "inception_4b/5x5"
  param {
    lr_mult: 1
    decay_mult: 1
  }
  param {
    lr_mult: 2
    decay_mult: 0
  }
  convolution_param {
    num_output: 64
    pad: 2
    kernel_size: 5
    weight_filler {
      type: "xavier"
      std: 0.03
    }
    bias_filler {
      type: "constant"
      value: 0.2
    }
  }
}
layer {
  name: "inception_4b/relu_5x5"
  type: "ReLU"
  bottom: "inception_4b/5x5"
  top: "inception_4b/5x5"
}
layer {
  name: "inception_4b/pool"
  type: "Pooling"
  bottom: "inception_4a/output"
  top: "inception_4b/pool"
  pooling_param {
    pool: MAX
    kernel_size: 3
    stride: 1
    pad: 1
  }
}
layer {
  name: "inception_4b/pool_proj"
  type: "Convolution"
  bottom: "inception_4b/pool"
  top: "inception_4b/pool_proj"
  param {
    lr_mult: 1
    decay_mult: 1
  }
  param {
    lr_mult: 2
    decay_mult: 0
  }
  convolution_param {
    num_output: 64
    kernel_size: 1
    weight_filler {
      type: "xavier"
      std: 0.1
    }
    bias_filler {
      type: "constant"
      value: 0.2
    }
  }
}
layer {
  name: "inception_4b/relu_pool_proj"
  type: "ReLU"
  bottom: "inception_4b/pool_proj"
  top: "inception_4b/pool_proj"
}
layer {
  name: "inception_4b/output"
  type: "Concat"
  bottom: "inception_4b/1x1"
  bottom: "inception_4b/3x3"
  bottom: "inception_4b/5x5"
  bottom: "inception_4b/pool_proj"
  top: "inception_4b/output"
}
layer {
  name: "inception_4c/1x1"
  type: "Convolution"
  bottom: "inception_4b/output"
  top: "inception_4c/1x1"
  param {
    lr_mult: 1
    decay_mult: 1
  }
  param {
    lr_mult: 2
    decay_mult: 0
  }
  convolution_param {
    num_output: 128
    kernel_size: 1
    weight_filler {
      type: "xavier"
      std: 0.03
    }
    bias_filler {
      type: "constant"
      value: 0.2
    }
  }
}
layer {
  name: "inception_4c/relu_1x1"
  type: "ReLU"
  bottom: "inception_4c/1x1"
  top: "inception_4c/1x1"
}
layer {
  name: "inception_4c/3x3_reduce"
  type: "Convolution"
  bottom: "inception_4b/output"
  top: "inception_4c/3x3_reduce"
  param {
    lr_mult: 1
    decay_mult: 1
  }
  param {
    lr_mult: 2
    decay_mult: 0
  }
  convolution_param {
    num_output: 128
    kernel_size: 1
    weight_filler {
      type: "xavier"
      std: 0.09
    }
    bias_filler {
      type: "constant"
      value: 0.2
    }
  }
}
layer {
  name: "inception_4c/relu_3x3_reduce"
  type: "ReLU"
  bottom: "inception_4c/3x3_reduce"
  top: "inception_4c/3x3_reduce"
}
layer {
  name: "inception_4c/3x3"
  type: "Convolution"
  bottom: "inception_4c/3x3_reduce"
  top: "inception_4c/3x3"
  param {
    lr_mult: 1
    decay_mult: 1
  }
  param {
    lr_mult: 2
    decay_mult: 0
  }
  convolution_param {
    num_output: 256
    pad: 1
    kernel_size: 3
    weight_filler {
      type: "xavier"
      std: 0.03
    }
    bias_filler {
      type: "constant"
      value: 0.2
    }
  }
}
layer {
  name: "inception_4c/relu_3x3"
  type: "ReLU"
  bottom: "inception_4c/3x3"
  top: "inception_4c/3x3"
}
layer {
  name: "inception_4c/5x5_reduce"
  type: "Convolution"
  bottom: "inception_4b/output"
  top: "inception_4c/5x5_reduce"
  param {
    lr_mult: 1
    decay_mult: 1
  }
  param {
    lr_mult: 2
    decay_mult: 0
  }
  convolution_param {
    num_output: 24
    kernel_size: 1
    weight_filler {
      type: "xavier"
      std: 0.2
    }
    bias_filler {
      type: "constant"
      value: 0.2
    }
  }
}
layer {
  name: "inception_4c/relu_5x5_reduce"
  type: "ReLU"
  bottom: "inception_4c/5x5_reduce"
  top: "inception_4c/5x5_reduce"
}
layer {
  name: "inception_4c/5x5"
  type: "Convolution"
  bottom: "inception_4c/5x5_reduce"
  top: "inception_4c/5x5"
  param {
    lr_mult: 1
    decay_mult: 1
  }
  param {
    lr_mult: 2
    decay_mult: 0
  }
  convolution_param {
    num_output: 64
    pad: 2
    kernel_size: 5
    weight_filler {
      type: "xavier"
      std: 0.03
    }
    bias_filler {
      type: "constant"
      value: 0.2
    }
  }
}
layer {
  name: "inception_4c/relu_5x5"
  type: "ReLU"
  bottom: "inception_4c/5x5"
  top: "inception_4c/5x5"
}
layer {
  name: "inception_4c/pool"
  type: "Pooling"
  bottom: "inception_4b/output"
  top: "inception_4c/pool"
  pooling_param {
    pool: MAX
    kernel_size: 3
    stride: 1
    pad: 1
  }
}
layer {
  name: "inception_4c/pool_proj"
  type: "Convolution"
  bottom: "inception_4c/pool"
  top: "inception_4c/pool_proj"
  param {
    lr_mult: 1
    decay_mult: 1
  }
  param {
    lr_mult: 2
    decay_mult: 0
  }
  convolution_param {
    num_output: 64
    kernel_size: 1
    weight_filler {
      type: "xavier"
      std: 0.1
    }
    bias_filler {
      type: "constant"
      value: 0.2
    }
  }
}
layer {
  name: "inception_4c/relu_pool_proj"
  type: "ReLU"
  bottom: "inception_4c/pool_proj"
  top: "inception_4c/pool_proj"
}
layer {
  name: "inception_4c/output"
  type: "Concat"
  bottom: "inception_4c/1x1"
  bottom: "inception_4c/3x3"
  bottom: "inception_4c/5x5"
  bottom: "inception_4c/pool_proj"
  top: "inception_4c/output"
}
layer {
  name: "inception_4d/1x1"
  type: "Convolution"
  bottom: "inception_4c/output"
  top: "inception_4d/1x1"
  param {
    lr_mult: 1
    decay_mult: 1
  }
  param {
    lr_mult: 2
    decay_mult: 0
  }
  convolution_param {
    num_output: 112
    kernel_size: 1
    weight_filler {
      type: "xavier"
      std: 0.03
    }
    bias_filler {
      type: "constant"
      value: 0.2
    }
  }
}
layer {
  name: "inception_4d/relu_1x1"
  type: "ReLU"
  bottom: "inception_4d/1x1"
  top: "inception_4d/1x1"
}
layer {
  name: "inception_4d/3x3_reduce"
  type: "Convolution"
  bottom: "inception_4c/output"
  top: "inception_4d/3x3_reduce"
  param {
    lr_mult: 1
    decay_mult: 1
  }
  param {
    lr_mult: 2
    decay_mult: 0
  }
  convolution_param {
    num_output: 144
    kernel_size: 1
    weight_filler {
      type: "xavier"
      std: 0.09
    }
    bias_filler {
      type: "constant"
      value: 0.2
    }
  }
}
layer {
  name: "inception_4d/relu_3x3_reduce"
  type: "ReLU"
  bottom: "inception_4d/3x3_reduce"
  top: "inception_4d/3x3_reduce"
}
layer {
  name: "inception_4d/3x3"
  type: "Convolution"
  bottom: "inception_4d/3x3_reduce"
  top: "inception_4d/3x3"
  param {
    lr_mult: 1
    decay_mult: 1
  }
  param {
    lr_mult: 2
    decay_mult: 0
  }
  convolution_param {
    num_output: 288
    pad: 1
    kernel_size: 3
    weight_filler {
      type: "xavier"
      std: 0.03
    }
    bias_filler {
      type: "constant"
      value: 0.2
    }
  }
}
layer {
  name: "inception_4d/relu_3x3"
  type: "ReLU"
  bottom: "inception_4d/3x3"
  top: "inception_4d/3x3"
}
layer {
  name: "inception_4d/5x5_reduce"
  type: "Convolution"
  bottom: "inception_4c/output"
  top: "inception_4d/5x5_reduce"
  param {
    lr_mult: 1
    decay_mult: 1
  }
  param {
    lr_mult: 2
    decay_mult: 0
  }
  convolution_param {
    num_output: 32
    kernel_size: 1
    weight_filler {
      type: "xavier"
      std: 0.2
    }
    bias_filler {
      type: "constant"
      value: 0.2
    }
  }
}
layer {
  name: "inception_4d/relu_5x5_reduce"
  type: "ReLU"
  bottom: "inception_4d/5x5_reduce"
  top: "inception_4d/5x5_reduce"
}
layer {
  name: "inception_4d/5x5"
  type: "Convolution"
  bottom: "inception_4d/5x5_reduce"
  top: "inception_4d/5x5"
  param {
    lr_mult: 1
    decay_mult: 1
  }
  param {
    lr_mult: 2
    decay_mult: 0
  }
  convolution_param {
    num_output: 64
    pad: 2
    kernel_size: 5
    weight_filler {
      type: "xavier"
      std: 0.03
    }
    bias_filler {
      type: "constant"
      value: 0.2
    }
  }
}
layer {
  name: "inception_4d/relu_5x5"
  type: "ReLU"
  bottom: "inception_4d/5x5"
  top: "inception_4d/5x5"
}
layer {
  name: "inception_4d/pool"
  type: "Pooling"
  bottom: "inception_4c/output"
  top: "inception_4d/pool"
  pooling_param {
    pool: MAX
    kernel_size: 3
    stride: 1
    pad: 1
  }
}
layer {
  name: "inception_4d/pool_proj"
  type: "Convolution"
  bottom: "inception_4d/pool"
  top: "inception_4d/pool_proj"
  param {
    lr_mult: 1
    decay_mult: 1
  }
  param {
    lr_mult: 2
    decay_mult: 0
  }
  convolution_param {
    num_output: 64
    kernel_size: 1
    weight_filler {
      type: "xavier"
      std: 0.1
    }
    bias_filler {
      type: "constant"
      value: 0.2
    }
  }
}
layer {
  name: "inception_4d/relu_pool_proj"
  type: "ReLU"
  bottom: "inception_4d/pool_proj"
  top: "inception_4d/pool_proj"
}
layer {
  name: "inception_4d/output"
  type: "Concat"
  bottom: "inception_4d/1x1"
  bottom: "inception_4d/3x3"
  bottom: "inception_4d/5x5"
  bottom: "inception_4d/pool_proj"
  top: "inception_4d/output"
}
layer {
  name: "loss2/ave_pool"
  type: "Pooling"
  bottom: "inception_4d/output"
  top: "loss2/ave_pool"
  pooling_param {
    pool: AVE
    kernel_size: 5
    stride: 3
  }
}
layer {
  name: "loss2/conv"
  type: "Convolution"
  bottom: "loss2/ave_pool"
  top: "loss2/conv"
  param {
    lr_mult: 1
    decay_mult: 1
  }
  param {
    lr_mult: 2
    decay_mult: 0
  }
  convolution_param {
    num_output: 128
    kernel_size: 1
    weight_filler {
      type: "xavier"
      std: 0.08
    }
    bias_filler {
      type: "constant"
      value: 0.2
    }
  }
}
layer {
  name: "loss2/relu_conv"
  type: "ReLU"
  bottom: "loss2/conv"
  top: "loss2/conv"
}
layer {
  name: "loss2/fc"
  type: "InnerProduct"
  bottom: "loss2/conv"
  top: "loss2/fc"
  param {
    lr_mult: 1
    decay_mult: 1
  }
  param {
    lr_mult: 2
    decay_mult: 0
  }
  inner_product_param {
    num_output: 1024
    weight_filler {
      type: "xavier"
      std: 0.02
    }
    bias_filler {
      type: "constant"
      value: 0.2
    }
  }
}
layer {
  name: "loss2/relu_fc"
  type: "ReLU"
  bottom: "loss2/fc"
  top: "loss2/fc"
}
layer {
  name: "loss2/drop_fc"
  type: "Dropout"
  bottom: "loss2/fc"
  top: "loss2/fc"
  dropout_param {
    dropout_ratio: 0.7
  }
}
layer {
  name: "loss2/classifier_plantvillage"
  type: "InnerProduct"
  bottom: "loss2/fc"
  top: "loss2/classifier_plantvillage"
  param {
    lr_mult: 1
    decay_mult: 1
  }
  param {
    lr_mult: 2
    decay_mult: 0
  }
  inner_product_param {
    num_output: 38
    weight_filler {
      type: "xavier"
      std: 0.0009765625
    }
    bias_filler {
      type: "constant"
      value: 0
    }
  }
}
layer {
  name: "inception_4e/1x1"
  type: "Convolution"
  bottom: "inception_4d/output"
  top: "inception_4e/1x1"
  param {
    lr_mult: 1
    decay_mult: 1
  }
  param {
    lr_mult: 2
    decay_mult: 0
  }
  convolution_param {
    num_output: 256
    kernel_size: 1
    weight_filler {
      type: "xavier"
      std: 0.03
    }
    bias_filler {
      type: "constant"
      value: 0.2
    }
  }
}
layer {
  name: "inception_4e/relu_1x1"
  type: "ReLU"
  bottom: "inception_4e/1x1"
  top: "inception_4e/1x1"
}
layer {
  name: "inception_4e/3x3_reduce"
  type: "Convolution"
  bottom: "inception_4d/output"
  top: "inception_4e/3x3_reduce"
  param {
    lr_mult: 1
    decay_mult: 1
  }
  param {
    lr_mult: 2
    decay_mult: 0
  }
  convolution_param {
    num_output: 160
    kernel_size: 1
    weight_filler {
      type: "xavier"
      std: 0.09
    }
    bias_filler {
      type: "constant"
      value: 0.2
    }
  }
}
layer {
  name: "inception_4e/relu_3x3_reduce"
  type: "ReLU"
  bottom: "inception_4e/3x3_reduce"
  top: "inception_4e/3x3_reduce"
}
layer {
  name: "inception_4e/3x3"
  type: "Convolution"
  bottom: "inception_4e/3x3_reduce"
  top: "inception_4e/3x3"
  param {
    lr_mult: 1
    decay_mult: 1
  }
  param {
    lr_mult: 2
    decay_mult: 0
  }
  convolution_param {
    num_output: 320
    pad: 1
    kernel_size: 3
    weight_filler {
      type: "xavier"
      std: 0.03
    }
    bias_filler {
      type: "constant"
      value: 0.2
    }
  }
}
layer {
  name: "inception_4e/relu_3x3"
  type: "ReLU"
  bottom: "inception_4e/3x3"
  top: "inception_4e/3x3"
}
layer {
  name: "inception_4e/5x5_reduce"
  type: "Convolution"
  bottom: "inception_4d/output"
  top: "inception_4e/5x5_reduce"
  param {
    lr_mult: 1
    decay_mult: 1
  }
  param {
    lr_mult: 2
    decay_mult: 0
  }
  convolution_param {
    num_output: 32
    kernel_size: 1
    weight_filler {
      type: "xavier"
      std: 0.2
    }
    bias_filler {
      type: "constant"
      value: 0.2
    }
  }
}
layer {
  name: "inception_4e/relu_5x5_reduce"
  type: "ReLU"
  bottom: "inception_4e/5x5_reduce"
  top: "inception_4e/5x5_reduce"
}
layer {
  name: "inception_4e/5x5"
  type: "Convolution"
  bottom: "inception_4e/5x5_reduce"
  top: "inception_4e/
I0403 16:07:52.116472 20747 layer_factory.hpp:77] Creating layer data
I0403 16:07:52.117074 20747 net.cpp:91] Creating Layer data
I0403 16:07:52.117110 20747 net.cpp:399] data -> data
I0403 16:07:52.117161 20747 net.cpp:399] data -> label
I0403 16:07:52.117197 20747 data_transformer.cpp:25] Loading mean file from: /home/mohanty/data/final_dataset/lmdb/grayscale-20-80/mean.binaryproto
I0403 16:07:52.118443 20751 db_lmdb.cpp:38] Opened lmdb /home/mohanty/data/final_dataset/lmdb/grayscale-20-80/test_db
I0403 16:07:52.131352 20747 data_layer.cpp:41] output data size: 24,3,224,224
I0403 16:07:52.159354 20747 net.cpp:141] Setting up data
I0403 16:07:52.159449 20747 net.cpp:148] Top shape: 24 3 224 224 (3612672)
I0403 16:07:52.159471 20747 net.cpp:148] Top shape: 24 (24)
I0403 16:07:52.159487 20747 net.cpp:156] Memory required for data: 14450784
I0403 16:07:52.159514 20747 layer_factory.hpp:77] Creating layer label_data_1_split
I0403 16:07:52.159540 20747 net.cpp:91] Creating Layer label_data_1_split
I0403 16:07:52.159559 20747 net.cpp:425] label_data_1_split <- label
I0403 16:07:52.159590 20747 net.cpp:399] label_data_1_split -> label_data_1_split_0
I0403 16:07:52.159618 20747 net.cpp:399] label_data_1_split -> label_data_1_split_1
I0403 16:07:52.159641 20747 net.cpp:399] label_data_1_split -> label_data_1_split_2
I0403 16:07:52.159662 20747 net.cpp:399] label_data_1_split -> label_data_1_split_3
I0403 16:07:52.159682 20747 net.cpp:399] label_data_1_split -> label_data_1_split_4
I0403 16:07:52.159701 20747 net.cpp:399] label_data_1_split -> label_data_1_split_5
I0403 16:07:52.159723 20747 net.cpp:399] label_data_1_split -> label_data_1_split_6
I0403 16:07:52.159742 20747 net.cpp:399] label_data_1_split -> label_data_1_split_7
I0403 16:07:52.159762 20747 net.cpp:399] label_data_1_split -> label_data_1_split_8
I0403 16:07:52.159782 20747 net.cpp:399] label_data_1_split -> label_data_1_split_9
I0403 16:07:52.159899 20747 net.cpp:141] Setting up label_data_1_split
I0403 16:07:52.159924 20747 net.cpp:148] Top shape: 24 (24)
I0403 16:07:52.159941 20747 net.cpp:148] Top shape: 24 (24)
I0403 16:07:52.159957 20747 net.cpp:148] Top shape: 24 (24)
I0403 16:07:52.159973 20747 net.cpp:148] Top shape: 24 (24)
I0403 16:07:52.159989 20747 net.cpp:148] Top shape: 24 (24)
I0403 16:07:52.160004 20747 net.cpp:148] Top shape: 24 (24)
I0403 16:07:52.160024 20747 net.cpp:148] Top shape: 24 (24)
I0403 16:07:52.160042 20747 net.cpp:148] Top shape: 24 (24)
I0403 16:07:52.160058 20747 net.cpp:148] Top shape: 24 (24)
I0403 16:07:52.160074 20747 net.cpp:148] Top shape: 24 (24)
I0403 16:07:52.160118 20747 net.cpp:156] Memory required for data: 14451744
I0403 16:07:52.160135 20747 layer_factory.hpp:77] Creating layer conv1/7x7_s2
I0403 16:07:52.160166 20747 net.cpp:91] Creating Layer conv1/7x7_s2
I0403 16:07:52.160186 20747 net.cpp:425] conv1/7x7_s2 <- data
I0403 16:07:52.160205 20747 net.cpp:399] conv1/7x7_s2 -> conv1/7x7_s2
I0403 16:07:52.298845 20747 net.cpp:141] Setting up conv1/7x7_s2
I0403 16:07:52.298920 20747 net.cpp:148] Top shape: 24 64 112 112 (19267584)
I0403 16:07:52.298938 20747 net.cpp:156] Memory required for data: 91522080
I0403 16:07:52.298969 20747 layer_factory.hpp:77] Creating layer conv1/relu_7x7
I0403 16:07:52.298995 20747 net.cpp:91] Creating Layer conv1/relu_7x7
I0403 16:07:52.299015 20747 net.cpp:425] conv1/relu_7x7 <- conv1/7x7_s2
I0403 16:07:52.299041 20747 net.cpp:386] conv1/relu_7x7 -> conv1/7x7_s2 (in-place)
I0403 16:07:52.299310 20747 net.cpp:141] Setting up conv1/relu_7x7
I0403 16:07:52.299340 20747 net.cpp:148] Top shape: 24 64 112 112 (19267584)
I0403 16:07:52.299355 20747 net.cpp:156] Memory required for data: 168592416
I0403 16:07:52.299371 20747 layer_factory.hpp:77] Creating layer pool1/3x3_s2
I0403 16:07:52.299396 20747 net.cpp:91] Creating Layer pool1/3x3_s2
I0403 16:07:52.299414 20747 net.cpp:425] pool1/3x3_s2 <- conv1/7x7_s2
I0403 16:07:52.299434 20747 net.cpp:399] pool1/3x3_s2 -> pool1/3x3_s2
I0403 16:07:52.299511 20747 net.cpp:141] Setting up pool1/3x3_s2
I0403 16:07:52.299535 20747 net.cpp:148] Top shape: 24 64 56 56 (4816896)
I0403 16:07:52.299551 20747 net.cpp:156] Memory required for data: 187860000
I0403 16:07:52.299567 20747 layer_factory.hpp:77] Creating layer pool1/norm1
I0403 16:07:52.299592 20747 net.cpp:91] Creating Layer pool1/norm1
I0403 16:07:52.299609 20747 net.cpp:425] pool1/norm1 <- pool1/3x3_s2
I0403 16:07:52.299628 20747 net.cpp:399] pool1/norm1 -> pool1/norm1
I0403 16:07:52.299924 20747 net.cpp:141] Setting up pool1/norm1
I0403 16:07:52.299952 20747 net.cpp:148] Top shape: 24 64 56 56 (4816896)
I0403 16:07:52.299968 20747 net.cpp:156] Memory required for data: 207127584
I0403 16:07:52.299983 20747 layer_factory.hpp:77] Creating layer conv2/3x3_reduce
I0403 16:07:52.300009 20747 net.cpp:91] Creating Layer conv2/3x3_reduce
I0403 16:07:52.300031 20747 net.cpp:425] conv2/3x3_reduce <- pool1/norm1
I0403 16:07:52.300051 20747 net.cpp:399] conv2/3x3_reduce -> conv2/3x3_reduce
I0403 16:07:52.301399 20747 net.cpp:141] Setting up conv2/3x3_reduce
I0403 16:07:52.301429 20747 net.cpp:148] Top shape: 24 64 56 56 (4816896)
I0403 16:07:52.301445 20747 net.cpp:156] Memory required for data: 226395168
I0403 16:07:52.301467 20747 layer_factory.hpp:77] Creating layer conv2/relu_3x3_reduce
I0403 16:07:52.301486 20747 net.cpp:91] Creating Layer conv2/relu_3x3_reduce
I0403 16:07:52.301503 20747 net.cpp:425] conv2/relu_3x3_reduce <- conv2/3x3_reduce
I0403 16:07:52.301522 20747 net.cpp:386] conv2/relu_3x3_reduce -> conv2/3x3_reduce (in-place)
I0403 16:07:52.301779 20747 net.cpp:141] Setting up conv2/relu_3x3_reduce
I0403 16:07:52.301806 20747 net.cpp:148] Top shape: 24 64 56 56 (4816896)
I0403 16:07:52.301822 20747 net.cpp:156] Memory required for data: 245662752
I0403 16:07:52.301838 20747 layer_factory.hpp:77] Creating layer conv2/3x3
I0403 16:07:52.301862 20747 net.cpp:91] Creating Layer conv2/3x3
I0403 16:07:52.301878 20747 net.cpp:425] conv2/3x3 <- conv2/3x3_reduce
I0403 16:07:52.301898 20747 net.cpp:399] conv2/3x3 -> conv2/3x3
I0403 16:07:52.304195 20747 net.cpp:141] Setting up conv2/3x3
I0403 16:07:52.304239 20747 net.cpp:148] Top shape: 24 192 56 56 (14450688)
I0403 16:07:52.304255 20747 net.cpp:156] Memory required for data: 303465504
I0403 16:07:52.304276 20747 layer_factory.hpp:77] Creating layer conv2/relu_3x3
I0403 16:07:52.304296 20747 net.cpp:91] Creating Layer conv2/relu_3x3
I0403 16:07:52.304311 20747 net.cpp:425] conv2/relu_3x3 <- conv2/3x3
I0403 16:07:52.304329 20747 net.cpp:386] conv2/relu_3x3 -> conv2/3x3 (in-place)
I0403 16:07:52.304491 20747 net.cpp:141] Setting up conv2/relu_3x3
I0403 16:07:52.304517 20747 net.cpp:148] Top shape: 24 192 56 56 (14450688)
I0403 16:07:52.304574 20747 net.cpp:156] Memory required for data: 361268256
I0403 16:07:52.304590 20747 layer_factory.hpp:77] Creating layer conv2/norm2
I0403 16:07:52.304608 20747 net.cpp:91] Creating Layer conv2/norm2
I0403 16:07:52.304625 20747 net.cpp:425] conv2/norm2 <- conv2/3x3
I0403 16:07:52.304641 20747 net.cpp:399] conv2/norm2 -> conv2/norm2
I0403 16:07:52.304919 20747 net.cpp:141] Setting up conv2/norm2
I0403 16:07:52.304944 20747 net.cpp:148] Top shape: 24 192 56 56 (14450688)
I0403 16:07:52.304960 20747 net.cpp:156] Memory required for data: 419071008
I0403 16:07:52.304975 20747 layer_factory.hpp:77] Creating layer pool2/3x3_s2
I0403 16:07:52.304993 20747 net.cpp:91] Creating Layer pool2/3x3_s2
I0403 16:07:52.305008 20747 net.cpp:425] pool2/3x3_s2 <- conv2/norm2
I0403 16:07:52.305032 20747 net.cpp:399] pool2/3x3_s2 -> pool2/3x3_s2
I0403 16:07:52.305081 20747 net.cpp:141] Setting up pool2/3x3_s2
I0403 16:07:52.305104 20747 net.cpp:148] Top shape: 24 192 28 28 (3612672)
I0403 16:07:52.305117 20747 net.cpp:156] Memory required for data: 433521696
I0403 16:07:52.305131 20747 layer_factory.hpp:77] Creating layer pool2/3x3_s2_pool2/3x3_s2_0_split
I0403 16:07:52.305150 20747 net.cpp:91] Creating Layer pool2/3x3_s2_pool2/3x3_s2_0_split
I0403 16:07:52.305163 20747 net.cpp:425] pool2/3x3_s2_pool2/3x3_s2_0_split <- pool2/3x3_s2
I0403 16:07:52.305181 20747 net.cpp:399] pool2/3x3_s2_pool2/3x3_s2_0_split -> pool2/3x3_s2_pool2/3x3_s2_0_split_0
I0403 16:07:52.305198 20747 net.cpp:399] pool2/3x3_s2_pool2/3x3_s2_0_split -> pool2/3x3_s2_pool2/3x3_s2_0_split_1
I0403 16:07:52.305217 20747 net.cpp:399] pool2/3x3_s2_pool2/3x3_s2_0_split -> pool2/3x3_s2_pool2/3x3_s2_0_split_2
I0403 16:07:52.305236 20747 net.cpp:399] pool2/3x3_s2_pool2/3x3_s2_0_split -> pool2/3x3_s2_pool2/3x3_s2_0_split_3
I0403 16:07:52.305299 20747 net.cpp:141] Setting up pool2/3x3_s2_pool2/3x3_s2_0_split
I0403 16:07:52.305320 20747 net.cpp:148] Top shape: 24 192 28 28 (3612672)
I0403 16:07:52.305336 20747 net.cpp:148] Top shape: 24 192 28 28 (3612672)
I0403 16:07:52.305352 20747 net.cpp:148] Top shape: 24 192 28 28 (3612672)
I0403 16:07:52.305366 20747 net.cpp:148] Top shape: 24 192 28 28 (3612672)
I0403 16:07:52.305380 20747 net.cpp:156] Memory required for data: 491324448
I0403 16:07:52.305394 20747 layer_factory.hpp:77] Creating layer inception_3a/1x1
I0403 16:07:52.305414 20747 net.cpp:91] Creating Layer inception_3a/1x1
I0403 16:07:52.305430 20747 net.cpp:425] inception_3a/1x1 <- pool2/3x3_s2_pool2/3x3_s2_0_split_0
I0403 16:07:52.305449 20747 net.cpp:399] inception_3a/1x1 -> inception_3a/1x1
I0403 16:07:52.306867 20747 net.cpp:141] Setting up inception_3a/1x1
I0403 16:07:52.306895 20747 net.cpp:148] Top shape: 24 64 28 28 (1204224)
I0403 16:07:52.306911 20747 net.cpp:156] Memory required for data: 496141344
I0403 16:07:52.306929 20747 layer_factory.hpp:77] Creating layer inception_3a/relu_1x1
I0403 16:07:52.306946 20747 net.cpp:91] Creating Layer inception_3a/relu_1x1
I0403 16:07:52.306962 20747 net.cpp:425] inception_3a/relu_1x1 <- inception_3a/1x1
I0403 16:07:52.306979 20747 net.cpp:386] inception_3a/relu_1x1 -> inception_3a/1x1 (in-place)
I0403 16:07:52.307140 20747 net.cpp:141] Setting up inception_3a/relu_1x1
I0403 16:07:52.307164 20747 net.cpp:148] Top shape: 24 64 28 28 (1204224)
I0403 16:07:52.307179 20747 net.cpp:156] Memory required for data: 500958240
I0403 16:07:52.307194 20747 layer_factory.hpp:77] Creating layer inception_3a/3x3_reduce
I0403 16:07:52.307214 20747 net.cpp:91] Creating Layer inception_3a/3x3_reduce
I0403 16:07:52.307229 20747 net.cpp:425] inception_3a/3x3_reduce <- pool2/3x3_s2_pool2/3x3_s2_0_split_1
I0403 16:07:52.307247 20747 net.cpp:399] inception_3a/3x3_reduce -> inception_3a/3x3_reduce
I0403 16:07:52.308825 20747 net.cpp:141] Setting up inception_3a/3x3_reduce
I0403 16:07:52.308853 20747 net.cpp:148] Top shape: 24 96 28 28 (1806336)
I0403 16:07:52.308868 20747 net.cpp:156] Memory required for data: 508183584
I0403 16:07:52.308888 20747 layer_factory.hpp:77] Creating layer inception_3a/relu_3x3_reduce
I0403 16:07:52.308925 20747 net.cpp:91] Creating Layer inception_3a/relu_3x3_reduce
I0403 16:07:52.308943 20747 net.cpp:425] inception_3a/relu_3x3_reduce <- inception_3a/3x3_reduce
I0403 16:07:52.308959 20747 net.cpp:386] inception_3a/relu_3x3_reduce -> inception_3a/3x3_reduce (in-place)
I0403 16:07:52.309130 20747 net.cpp:141] Setting up inception_3a/relu_3x3_reduce
I0403 16:07:52.309155 20747 net.cpp:148] Top shape: 24 96 28 28 (1806336)
I0403 16:07:52.309170 20747 net.cpp:156] Memory required for data: 515408928
I0403 16:07:52.309185 20747 layer_factory.hpp:77] Creating layer inception_3a/3x3
I0403 16:07:52.309204 20747 net.cpp:91] Creating Layer inception_3a/3x3
I0403 16:07:52.309219 20747 net.cpp:425] inception_3a/3x3 <- inception_3a/3x3_reduce
I0403 16:07:52.309238 20747 net.cpp:399] inception_3a/3x3 -> inception_3a/3x3
I0403 16:07:52.310858 20747 net.cpp:141] Setting up inception_3a/3x3
I0403 16:07:52.310886 20747 net.cpp:148] Top shape: 24 128 28 28 (2408448)
I0403 16:07:52.310901 20747 net.cpp:156] Memory required for data: 525042720
I0403 16:07:52.310920 20747 layer_factory.hpp:77] Creating layer inception_3a/relu_3x3
I0403 16:07:52.310938 20747 net.cpp:91] Creating Layer inception_3a/relu_3x3
I0403 16:07:52.310955 20747 net.cpp:425] inception_3a/relu_3x3 <- inception_3a/3x3
I0403 16:07:52.310972 20747 net.cpp:386] inception_3a/relu_3x3 -> inception_3a/3x3 (in-place)
I0403 16:07:52.311249 20747 net.cpp:141] Setting up inception_3a/relu_3x3
I0403 16:07:52.311275 20747 net.cpp:148] Top shape: 24 128 28 28 (2408448)
I0403 16:07:52.311290 20747 net.cpp:156] Memory required for data: 534676512
I0403 16:07:52.311305 20747 layer_factory.hpp:77] Creating layer inception_3a/5x5_reduce
I0403 16:07:52.311326 20747 net.cpp:91] Creating Layer inception_3a/5x5_reduce
I0403 16:07:52.311343 20747 net.cpp:425] inception_3a/5x5_reduce <- pool2/3x3_s2_pool2/3x3_s2_0_split_2
I0403 16:07:52.311364 20747 net.cpp:399] inception_3a/5x5_reduce -> inception_3a/5x5_reduce
I0403 16:07:52.312330 20747 net.cpp:141] Setting up inception_3a/5x5_reduce
I0403 16:07:52.312356 20747 net.cpp:148] Top shape: 24 16 28 28 (301056)
I0403 16:07:52.312371 20747 net.cpp:156] Memory required for data: 535880736
I0403 16:07:52.312389 20747 layer_factory.hpp:77] Creating layer inception_3a/relu_5x5_reduce
I0403 16:07:52.312409 20747 net.cpp:91] Creating Layer inception_3a/relu_5x5_reduce
I0403 16:07:52.312425 20747 net.cpp:425] inception_3a/relu_5x5_reduce <- inception_3a/5x5_reduce
I0403 16:07:52.312443 20747 net.cpp:386] inception_3a/relu_5x5_reduce -> inception_3a/5x5_reduce (in-place)
I0403 16:07:52.312739 20747 net.cpp:141] Setting up inception_3a/relu_5x5_reduce
I0403 16:07:52.312764 20747 net.cpp:148] Top shape: 24 16 28 28 (301056)
I0403 16:07:52.312779 20747 net.cpp:156] Memory required for data: 537084960
I0403 16:07:52.312793 20747 layer_factory.hpp:77] Creating layer inception_3a/5x5
I0403 16:07:52.312818 20747 net.cpp:91] Creating Layer inception_3a/5x5
I0403 16:07:52.312834 20747 net.cpp:425] inception_3a/5x5 <- inception_3a/5x5_reduce
I0403 16:07:52.312852 20747 net.cpp:399] inception_3a/5x5 -> inception_3a/5x5
I0403 16:07:52.313860 20747 net.cpp:141] Setting up inception_3a/5x5
I0403 16:07:52.313887 20747 net.cpp:148] Top shape: 24 32 28 28 (602112)
I0403 16:07:52.313902 20747 net.cpp:156] Memory required for data: 539493408
I0403 16:07:52.313920 20747 layer_factory.hpp:77] Creating layer inception_3a/relu_5x5
I0403 16:07:52.313938 20747 net.cpp:91] Creating Layer inception_3a/relu_5x5
I0403 16:07:52.313953 20747 net.cpp:425] inception_3a/relu_5x5 <- inception_3a/5x5
I0403 16:07:52.313973 20747 net.cpp:386] inception_3a/relu_5x5 -> inception_3a/5x5 (in-place)
I0403 16:07:52.314151 20747 net.cpp:141] Setting up inception_3a/relu_5x5
I0403 16:07:52.314174 20747 net.cpp:148] Top shape: 24 32 28 28 (602112)
I0403 16:07:52.314189 20747 net.cpp:156] Memory required for data: 541901856
I0403 16:07:52.314203 20747 layer_factory.hpp:77] Creating layer inception_3a/pool
I0403 16:07:52.314224 20747 net.cpp:91] Creating Layer inception_3a/pool
I0403 16:07:52.314252 20747 net.cpp:425] inception_3a/pool <- pool2/3x3_s2_pool2/3x3_s2_0_split_3
I0403 16:07:52.314273 20747 net.cpp:399] inception_3a/pool -> inception_3a/pool
I0403 16:07:52.314332 20747 net.cpp:141] Setting up inception_3a/pool
I0403 16:07:52.314355 20747 net.cpp:148] Top shape: 24 192 28 28 (3612672)
I0403 16:07:52.314369 20747 net.cpp:156] Memory required for data: 556352544
I0403 16:07:52.314384 20747 layer_factory.hpp:77] Creating layer inception_3a/pool_proj
I0403 16:07:52.314405 20747 net.cpp:91] Creating Layer inception_3a/pool_proj
I0403 16:07:52.314422 20747 net.cpp:425] inception_3a/pool_proj <- inception_3a/pool
I0403 16:07:52.314442 20747 net.cpp:399] inception_3a/pool_proj -> inception_3a/pool_proj
I0403 16:07:52.315389 20747 net.cpp:141] Setting up inception_3a/pool_proj
I0403 16:07:52.315419 20747 net.cpp:148] Top shape: 24 32 28 28 (602112)
I0403 16:07:52.315434 20747 net.cpp:156] Memory required for data: 558760992
I0403 16:07:52.315455 20747 layer_factory.hpp:77] Creating layer inception_3a/relu_pool_proj
I0403 16:07:52.315476 20747 net.cpp:91] Creating Layer inception_3a/relu_pool_proj
I0403 16:07:52.315493 20747 net.cpp:425] inception_3a/relu_pool_proj <- inception_3a/pool_proj
I0403 16:07:52.315510 20747 net.cpp:386] inception_3a/relu_pool_proj -> inception_3a/pool_proj (in-place)
I0403 16:07:52.315783 20747 net.cpp:141] Setting up inception_3a/relu_pool_proj
I0403 16:07:52.315809 20747 net.cpp:148] Top shape: 24 32 28 28 (602112)
I0403 16:07:52.315822 20747 net.cpp:156] Memory required for data: 561169440
I0403 16:07:52.315837 20747 layer_factory.hpp:77] Creating layer inception_3a/output
I0403 16:07:52.315855 20747 net.cpp:91] Creating Layer inception_3a/output
I0403 16:07:52.315871 20747 net.cpp:425] inception_3a/output <- inception_3a/1x1
I0403 16:07:52.315887 20747 net.cpp:425] inception_3a/output <- inception_3a/3x3
I0403 16:07:52.315902 20747 net.cpp:425] inception_3a/output <- inception_3a/5x5
I0403 16:07:52.315918 20747 net.cpp:425] inception_3a/output <- inception_3a/pool_proj
I0403 16:07:52.315937 20747 net.cpp:399] inception_3a/output -> inception_3a/output
I0403 16:07:52.315996 20747 net.cpp:141] Setting up inception_3a/output
I0403 16:07:52.316025 20747 net.cpp:148] Top shape: 24 256 28 28 (4816896)
I0403 16:07:52.316040 20747 net.cpp:156] Memory required for data: 580437024
I0403 16:07:52.316054 20747 layer_factory.hpp:77] Creating layer inception_3a/output_inception_3a/output_0_split
I0403 16:07:52.316071 20747 net.cpp:91] Creating Layer inception_3a/output_inception_3a/output_0_split
I0403 16:07:52.316087 20747 net.cpp:425] inception_3a/output_inception_3a/output_0_split <- inception_3a/output
I0403 16:07:52.316107 20747 net.cpp:399] inception_3a/output_inception_3a/output_0_split -> inception_3a/output_inception_3a/output_0_split_0
I0403 16:07:52.316128 20747 net.cpp:399] inception_3a/output_inception_3a/output_0_split -> inception_3a/output_inception_3a/output_0_split_1
I0403 16:07:52.316149 20747 net.cpp:399] inception_3a/output_inception_3a/output_0_split -> inception_3a/output_inception_3a/output_0_split_2
I0403 16:07:52.316169 20747 net.cpp:399] inception_3a/output_inception_3a/output_0_split -> inception_3a/output_inception_3a/output_0_split_3
I0403 16:07:52.316243 20747 net.cpp:141] Setting up inception_3a/output_inception_3a/output_0_split
I0403 16:07:52.316265 20747 net.cpp:148] Top shape: 24 256 28 28 (4816896)
I0403 16:07:52.316282 20747 net.cpp:148] Top shape: 24 256 28 28 (4816896)
I0403 16:07:52.316296 20747 net.cpp:148] Top shape: 24 256 28 28 (4816896)
I0403 16:07:52.316311 20747 net.cpp:148] Top shape: 24 256 28 28 (4816896)
I0403 16:07:52.316325 20747 net.cpp:156] Memory required for data: 657507360
I0403 16:07:52.316339 20747 layer_factory.hpp:77] Creating layer inception_3b/1x1
I0403 16:07:52.316360 20747 net.cpp:91] Creating Layer inception_3b/1x1
I0403 16:07:52.316378 20747 net.cpp:425] inception_3b/1x1 <- inception_3a/output_inception_3a/output_0_split_0
I0403 16:07:52.316398 20747 net.cpp:399] inception_3b/1x1 -> inception_3b/1x1
I0403 16:07:52.317517 20747 net.cpp:141] Setting up inception_3b/1x1
I0403 16:07:52.317558 20747 net.cpp:148] Top shape: 24 128 28 28 (2408448)
I0403 16:07:52.317574 20747 net.cpp:156] Memory required for data: 667141152
I0403 16:07:52.317591 20747 layer_factory.hpp:77] Creating layer inception_3b/relu_1x1
I0403 16:07:52.317610 20747 net.cpp:91] Creating Layer inception_3b/relu_1x1
I0403 16:07:52.317636 20747 net.cpp:425] inception_3b/relu_1x1 <- inception_3b/1x1
I0403 16:07:52.317654 20747 net.cpp:386] inception_3b/relu_1x1 -> inception_3b/1x1 (in-place)
I0403 16:07:52.317821 20747 net.cpp:141] Setting up inception_3b/relu_1x1
I0403 16:07:52.317844 20747 net.cpp:148] Top shape: 24 128 28 28 (2408448)
I0403 16:07:52.317858 20747 net.cpp:156] Memory required for data: 676774944
I0403 16:07:52.317873 20747 layer_factory.hpp:77] Creating layer inception_3b/3x3_reduce
I0403 16:07:52.317893 20747 net.cpp:91] Creating Layer inception_3b/3x3_reduce
I0403 16:07:52.317910 20747 net.cpp:425] inception_3b/3x3_reduce <- inception_3a/output_inception_3a/output_0_split_1
I0403 16:07:52.317930 20747 net.cpp:399] inception_3b/3x3_reduce -> inception_3b/3x3_reduce
I0403 16:07:52.319027 20747 net.cpp:141] Setting up inception_3b/3x3_reduce
I0403 16:07:52.319054 20747 net.cpp:148] Top shape: 24 128 28 28 (2408448)
I0403 16:07:52.319068 20747 net.cpp:156] Memory required for data: 686408736
I0403 16:07:52.319087 20747 layer_factory.hpp:77] Creating layer inception_3b/relu_3x3_reduce
I0403 16:07:52.319103 20747 net.cpp:91] Creating Layer inception_3b/relu_3x3_reduce
I0403 16:07:52.319118 20747 net.cpp:425] inception_3b/relu_3x3_reduce <- inception_3b/3x3_reduce
I0403 16:07:52.319136 20747 net.cpp:386] inception_3b/relu_3x3_reduce -> inception_3b/3x3_reduce (in-place)
I0403 16:07:52.319300 20747 net.cpp:141] Setting up inception_3b/relu_3x3_reduce
I0403 16:07:52.319324 20747 net.cpp:148] Top shape: 24 128 28 28 (2408448)
I0403 16:07:52.319339 20747 net.cpp:156] Memory required for data: 696042528
I0403 16:07:52.319352 20747 layer_factory.hpp:77] Creating layer inception_3b/3x3
I0403 16:07:52.319377 20747 net.cpp:91] Creating Layer inception_3b/3x3
I0403 16:07:52.319394 20747 net.cpp:425] inception_3b/3x3 <- inception_3b/3x3_reduce
I0403 16:07:52.319412 20747 net.cpp:399] inception_3b/3x3 -> inception_3b/3x3
I0403 16:07:52.322198 20747 net.cpp:141] Setting up inception_3b/3x3
I0403 16:07:52.322227 20747 net.cpp:148] Top shape: 24 192 28 28 (3612672)
I0403 16:07:52.322240 20747 net.cpp:156] Memory required for data: 710493216
I0403 16:07:52.322258 20747 layer_factory.hpp:77] Creating layer inception_3b/relu_3x3
I0403 16:07:52.322278 20747 net.cpp:91] Creating Layer inception_3b/relu_3x3
I0403 16:07:52.322293 20747 net.cpp:425] inception_3b/relu_3x3 <- inception_3b/3x3
I0403 16:07:52.322310 20747 net.cpp:386] inception_3b/relu_3x3 -> inception_3b/3x3 (in-place)
I0403 16:07:52.322593 20747 net.cpp:141] Setting up inception_3b/relu_3x3
I0403 16:07:52.322619 20747 net.cpp:148] Top shape: 24 192 28 28 (3612672)
I0403 16:07:52.322634 20747 net.cpp:156] Memory required for data: 724943904
I0403 16:07:52.322649 20747 layer_factory.hpp:77] Creating layer inception_3b/5x5_reduce
I0403 16:07:52.322671 20747 net.cpp:91] Creating Layer inception_3b/5x5_reduce
I0403 16:07:52.322690 20747 net.cpp:425] inception_3b/5x5_reduce <- inception_3a/output_inception_3a/output_0_split_2
I0403 16:07:52.322710 20747 net.cpp:399] inception_3b/5x5_reduce -> inception_3b/5x5_reduce
I0403 16:07:52.323690 20747 net.cpp:141] Setting up inception_3b/5x5_reduce
I0403 16:07:52.323717 20747 net.cpp:148] Top shape: 24 32 28 28 (602112)
I0403 16:07:52.323732 20747 net.cpp:156] Memory required for data: 727352352
I0403 16:07:52.323750 20747 layer_factory.hpp:77] Creating layer inception_3b/relu_5x5_reduce
I0403 16:07:52.323768 20747 net.cpp:91] Creating Layer inception_3b/relu_5x5_reduce
I0403 16:07:52.323784 20747 net.cpp:425] inception_3b/relu_5x5_reduce <- inception_3b/5x5_reduce
I0403 16:07:52.323804 20747 net.cpp:386] inception_3b/relu_5x5_reduce -> inception_3b/5x5_reduce (in-place)
I0403 16:07:52.323993 20747 net.cpp:141] Setting up inception_3b/relu_5x5_reduce
I0403 16:07:52.324023 20747 net.cpp:148] Top shape: 24 32 28 28 (602112)
I0403 16:07:52.324038 20747 net.cpp:156] Memory required for data: 729760800
I0403 16:07:52.324054 20747 layer_factory.hpp:77] Creating layer inception_3b/5x5
I0403 16:07:52.324074 20747 net.cpp:91] Creating Layer inception_3b/5x5
I0403 16:07:52.324092 20747 net.cpp:425] inception_3b/5x5 <- inception_3b/5x5_reduce
I0403 16:07:52.324112 20747 net.cpp:399] inception_3b/5x5 -> inception_3b/5x5
I0403 16:07:52.326061 20747 net.cpp:141] Setting up inception_3b/5x5
I0403 16:07:52.326091 20747 net.cpp:148] Top shape: 24 96 28 28 (1806336)
I0403 16:07:52.326104 20747 net.cpp:156] Memory required for data: 736986144
I0403 16:07:52.326122 20747 layer_factory.hpp:77] Creating layer inception_3b/relu_5x5
I0403 16:07:52.326140 20747 net.cpp:91] Creating Layer inception_3b/relu_5x5
I0403 16:07:52.326155 20747 net.cpp:425] inception_3b/relu_5x5 <- inception_3b/5x5
I0403 16:07:52.326175 20747 net.cpp:386] inception_3b/relu_5x5 -> inception_3b/5x5 (in-place)
I0403 16:07:52.326364 20747 net.cpp:141] Setting up inception_3b/relu_5x5
I0403 16:07:52.326388 20747 net.cpp:148] Top shape: 24 96 28 28 (1806336)
I0403 16:07:52.326402 20747 net.cpp:156] Memory required for data: 744211488
I0403 16:07:52.326417 20747 layer_factory.hpp:77] Creating layer inception_3b/pool
I0403 16:07:52.326434 20747 net.cpp:91] Creating Layer inception_3b/pool
I0403 16:07:52.326449 20747 net.cpp:425] inception_3b/pool <- inception_3a/output_inception_3a/output_0_split_3
I0403 16:07:52.326467 20747 net.cpp:399] inception_3b/pool -> inception_3b/pool
I0403 16:07:52.326524 20747 net.cpp:141] Setting up inception_3b/pool
I0403 16:07:52.326546 20747 net.cpp:148] Top shape: 24 256 28 28 (4816896)
I0403 16:07:52.326560 20747 net.cpp:156] Memory required for data: 763479072
I0403 16:07:52.326575 20747 layer_factory.hpp:77] Creating layer inception_3b/pool_proj
I0403 16:07:52.326596 20747 net.cpp:91] Creating Layer inception_3b/pool_proj
I0403 16:07:52.326613 20747 net.cpp:425] inception_3b/pool_proj <- inception_3b/pool
I0403 16:07:52.326633 20747 net.cpp:399] inception_3b/pool_proj -> inception_3b/pool_proj
I0403 16:07:52.327704 20747 net.cpp:141] Setting up inception_3b/pool_proj
I0403 16:07:52.327734 20747 net.cpp:148] Top shape: 24 64 28 28 (1204224)
I0403 16:07:52.327751 20747 net.cpp:156] Memory required for data: 768295968
I0403 16:07:52.327770 20747 layer_factory.hpp:77] Creating layer inception_3b/relu_pool_proj
I0403 16:07:52.327790 20747 net.cpp:91] Creating Layer inception_3b/relu_pool_proj
I0403 16:07:52.327806 20747 net.cpp:425] inception_3b/relu_pool_proj <- inception_3b/pool_proj
I0403 16:07:52.327836 20747 net.cpp:386] inception_3b/relu_pool_proj -> inception_3b/pool_proj (in-place)
I0403 16:07:52.328277 20747 net.cpp:141] Setting up inception_3b/relu_pool_proj
I0403 16:07:52.328305 20747 net.cpp:148] Top shape: 24 64 28 28 (1204224)
I0403 16:07:52.328320 20747 net.cpp:156] Memory required for data: 773112864
I0403 16:07:52.328335 20747 layer_factory.hpp:77] Creating layer inception_3b/output
I0403 16:07:52.328363 20747 net.cpp:91] Creating Layer inception_3b/output
I0403 16:07:52.328379 20747 net.cpp:425] inception_3b/output <- inception_3b/1x1
I0403 16:07:52.328397 20747 net.cpp:425] inception_3b/output <- inception_3b/3x3
I0403 16:07:52.328413 20747 net.cpp:425] inception_3b/output <- inception_3b/5x5
I0403 16:07:52.328428 20747 net.cpp:425] inception_3b/output <- inception_3b/pool_proj
I0403 16:07:52.328446 20747 net.cpp:399] inception_3b/output -> inception_3b/output
I0403 16:07:52.328492 20747 net.cpp:141] Setting up inception_3b/output
I0403 16:07:52.328516 20747 net.cpp:148] Top shape: 24 480 28 28 (9031680)
I0403 16:07:52.328529 20747 net.cpp:156] Memory required for data: 809239584
I0403 16:07:52.328544 20747 layer_factory.hpp:77] Creating layer pool3/3x3_s2
I0403 16:07:52.328562 20747 net.cpp:91] Creating Layer pool3/3x3_s2
I0403 16:07:52.328577 20747 net.cpp:425] pool3/3x3_s2 <- inception_3b/output
I0403 16:07:52.328614 20747 net.cpp:399] pool3/3x3_s2 -> pool3/3x3_s2
I0403 16:07:52.328675 20747 net.cpp:141] Setting up pool3/3x3_s2
I0403 16:07:52.328698 20747 net.cpp:148] Top shape: 24 480 14 14 (2257920)
I0403 16:07:52.328713 20747 net.cpp:156] Memory required for data: 818271264
I0403 16:07:52.328727 20747 layer_factory.hpp:77] Creating layer pool3/3x3_s2_pool3/3x3_s2_0_split
I0403 16:07:52.328747 20747 net.cpp:91] Creating Layer pool3/3x3_s2_pool3/3x3_s2_0_split
I0403 16:07:52.328764 20747 net.cpp:425] pool3/3x3_s2_pool3/3x3_s2_0_split <- pool3/3x3_s2
I0403 16:07:52.328784 20747 net.cpp:399] pool3/3x3_s2_pool3/3x3_s2_0_split -> pool3/3x3_s2_pool3/3x3_s2_0_split_0
I0403 16:07:52.328805 20747 net.cpp:399] pool3/3x3_s2_pool3/3x3_s2_0_split -> pool3/3x3_s2_pool3/3x3_s2_0_split_1
I0403 16:07:52.328825 20747 net.cpp:399] pool3/3x3_s2_pool3/3x3_s2_0_split -> pool3/3x3_s2_pool3/3x3_s2_0_split_2
I0403 16:07:52.328845 20747 net.cpp:399] pool3/3x3_s2_pool3/3x3_s2_0_split -> pool3/3x3_s2_pool3/3x3_s2_0_split_3
I0403 16:07:52.328920 20747 net.cpp:141] Setting up pool3/3x3_s2_pool3/3x3_s2_0_split
I0403 16:07:52.328943 20747 net.cpp:148] Top shape: 24 480 14 14 (2257920)
I0403 16:07:52.328959 20747 net.cpp:148] Top shape: 24 480 14 14 (2257920)
I0403 16:07:52.328975 20747 net.cpp:148] Top shape: 24 480 14 14 (2257920)
I0403 16:07:52.328992 20747 net.cpp:148] Top shape: 24 480 14 14 (2257920)
I0403 16:07:52.329006 20747 net.cpp:156] Memory required for data: 854397984
I0403 16:07:52.329025 20747 layer_factory.hpp:77] Creating layer inception_4a/1x1
I0403 16:07:52.329049 20747 net.cpp:91] Creating Layer inception_4a/1x1
I0403 16:07:52.329068 20747 net.cpp:425] inception_4a/1x1 <- pool3/3x3_s2_pool3/3x3_s2_0_split_0
I0403 16:07:52.329090 20747 net.cpp:399] inception_4a/1x1 -> inception_4a/1x1
I0403 16:07:52.330694 20747 net.cpp:141] Setting up inception_4a/1x1
I0403 16:07:52.330725 20747 net.cpp:148] Top shape: 24 192 14 14 (903168)
I0403 16:07:52.330742 20747 net.cpp:156] Memory required for data: 858010656
I0403 16:07:52.330760 20747 layer_factory.hpp:77] Creating layer inception_4a/relu_1x1
I0403 16:07:52.330778 20747 net.cpp:91] Creating Layer inception_4a/relu_1x1
I0403 16:07:52.330795 20747 net.cpp:425] inception_4a/relu_1x1 <- inception_4a/1x1
I0403 16:07:52.330811 20747 net.cpp:386] inception_4a/relu_1x1 -> inception_4a/1x1 (in-place)
I0403 16:07:52.330996 20747 net.cpp:141] Setting up inception_4a/relu_1x1
I0403 16:07:52.331027 20747 net.cpp:148] Top shape: 24 192 14 14 (903168)
I0403 16:07:52.331043 20747 net.cpp:156] Memory required for data: 861623328
I0403 16:07:52.331056 20747 layer_factory.hpp:77] Creating layer inception_4a/3x3_reduce
I0403 16:07:52.331079 20747 net.cpp:91] Creating Layer inception_4a/3x3_reduce
I0403 16:07:52.331097 20747 net.cpp:425] inception_4a/3x3_reduce <- pool3/3x3_s2_pool3/3x3_s2_0_split_1
I0403 16:07:52.331118 20747 net.cpp:399] inception_4a/3x3_reduce -> inception_4a/3x3_reduce
I0403 16:07:52.332424 20747 net.cpp:141] Setting up inception_4a/3x3_reduce
I0403 16:07:52.332453 20747 net.cpp:148] Top shape: 24 96 14 14 (451584)
I0403 16:07:52.332468 20747 net.cpp:156] Memory required for data: 863429664
I0403 16:07:52.332494 20747 layer_factory.hpp:77] Creating layer inception_4a/relu_3x3_reduce
I0403 16:07:52.332515 20747 net.cpp:91] Creating Layer inception_4a/relu_3x3_reduce
I0403 16:07:52.332531 20747 net.cpp:425] inception_4a/relu_3x3_reduce <- inception_4a/3x3_reduce
I0403 16:07:52.332550 20747 net.cpp:386] inception_4a/relu_3x3_reduce -> inception_4a/3x3_reduce (in-place)
I0403 16:07:52.332728 20747 net.cpp:141] Setting up inception_4a/relu_3x3_reduce
I0403 16:07:52.332756 20747 net.cpp:148] Top shape: 24 96 14 14 (451584)
I0403 16:07:52.332772 20747 net.cpp:156] Memory required for data: 865236000
I0403 16:07:52.332787 20747 layer_factory.hpp:77] Creating layer inception_4a/3x3
I0403 16:07:52.332808 20747 net.cpp:91] Creating Layer inception_4a/3x3
I0403 16:07:52.332826 20747 net.cpp:425] inception_4a/3x3 <- inception_4a/3x3_reduce
I0403 16:07:52.332845 20747 net.cpp:399] inception_4a/3x3 -> inception_4a/3x3
I0403 16:07:52.335582 20747 net.cpp:141] Setting up inception_4a/3x3
I0403 16:07:52.335610 20747 net.cpp:148] Top shape: 24 208 14 14 (978432)
I0403 16:07:52.335625 20747 net.cpp:156] Memory required for data: 869149728
I0403 16:07:52.335644 20747 layer_factory.hpp:77] Creating layer inception_4a/relu_3x3
I0403 16:07:52.335662 20747 net.cpp:91] Creating Layer inception_4a/relu_3x3
I0403 16:07:52.335678 20747 net.cpp:425] inception_4a/relu_3x3 <- inception_4a/3x3
I0403 16:07:52.335698 20747 net.cpp:386] inception_4a/relu_3x3 -> inception_4a/3x3 (in-place)
I0403 16:07:52.335983 20747 net.cpp:141] Setting up inception_4a/relu_3x3
I0403 16:07:52.336009 20747 net.cpp:148] Top shape: 24 208 14 14 (978432)
I0403 16:07:52.336029 20747 net.cpp:156] Memory required for data: 873063456
I0403 16:07:52.336045 20747 layer_factory.hpp:77] Creating layer inception_4a/5x5_reduce
I0403 16:07:52.336067 20747 net.cpp:91] Creating Layer inception_4a/5x5_reduce
I0403 16:07:52.336086 20747 net.cpp:425] inception_4a/5x5_reduce <- pool3/3x3_s2_pool3/3x3_s2_0_split_2
I0403 16:07:52.336108 20747 net.cpp:399] inception_4a/5x5_reduce -> inception_4a/5x5_reduce
I0403 16:07:52.337151 20747 net.cpp:141] Setting up inception_4a/5x5_reduce
I0403 16:07:52.337178 20747 net.cpp:148] Top shape: 24 16 14 14 (75264)
I0403 16:07:52.337193 20747 net.cpp:156] Memory required for data: 873364512
I0403 16:07:52.337213 20747 layer_factory.hpp:77] Creating layer inception_4a/relu_5x5_reduce
I0403 16:07:52.337230 20747 net.cpp:91] Creating Layer inception_4a/relu_5x5_reduce
I0403 16:07:52.337246 20747 net.cpp:425] inception_4a/relu_5x5_reduce <- inception_4a/5x5_reduce
I0403 16:07:52.337266 20747 net.cpp:386] inception_4a/relu_5x5_reduce -> inception_4a/5x5_reduce (in-place)
I0403 16:07:52.337450 20747 net.cpp:141] Setting up inception_4a/relu_5x5_reduce
I0403 16:07:52.337476 20747 net.cpp:148] Top shape: 24 16 14 14 (75264)
I0403 16:07:52.337489 20747 net.cpp:156] Memory required for data: 873665568
I0403 16:07:52.337505 20747 layer_factory.hpp:77] Creating layer inception_4a/5x5
I0403 16:07:52.337527 20747 net.cpp:91] Creating Layer inception_4a/5x5
I0403 16:07:52.337545 20747 net.cpp:425] inception_4a/5x5 <- inception_4a/5x5_reduce
I0403 16:07:52.337566 20747 net.cpp:399] inception_4a/5x5 -> inception_4a/5x5
I0403 16:07:52.338690 20747 net.cpp:141] Setting up inception_4a/5x5
I0403 16:07:52.338717 20747 net.cpp:148] Top shape: 24 48 14 14 (225792)
I0403 16:07:52.338732 20747 net.cpp:156] Memory required for data: 874568736
I0403 16:07:52.338750 20747 layer_factory.hpp:77] Creating layer inception_4a/relu_5x5
I0403 16:07:52.338771 20747 net.cpp:91] Creating Layer inception_4a/relu_5x5
I0403 16:07:52.338788 20747 net.cpp:425] inception_4a/relu_5x5 <- inception_4a/5x5
I0403 16:07:52.338806 20747 net.cpp:386] inception_4a/relu_5x5 -> inception_4a/5x5 (in-place)
I0403 16:07:52.338989 20747 net.cpp:141] Setting up inception_4a/relu_5x5
I0403 16:07:52.339020 20747 net.cpp:148] Top shape: 24 48 14 14 (225792)
I0403 16:07:52.339037 20747 net.cpp:156] Memory required for data: 875471904
I0403 16:07:52.339052 20747 layer_factory.hpp:77] Creating layer inception_4a/pool
I0403 16:07:52.339071 20747 net.cpp:91] Creating Layer inception_4a/pool
I0403 16:07:52.339087 20747 net.cpp:425] inception_4a/pool <- pool3/3x3_s2_pool3/3x3_s2_0_split_3
I0403 16:07:52.339107 20747 net.cpp:399] inception_4a/pool -> inception_4a/pool
I0403 16:07:52.339169 20747 net.cpp:141] Setting up inception_4a/pool
I0403 16:07:52.339191 20747 net.cpp:148] Top shape: 24 480 14 14 (2257920)
I0403 16:07:52.339206 20747 net.cpp:156] Memory required for data: 884503584
I0403 16:07:52.339221 20747 layer_factory.hpp:77] Creating layer inception_4a/pool_proj
I0403 16:07:52.339243 20747 net.cpp:91] Creating Layer inception_4a/pool_proj
I0403 16:07:52.339262 20747 net.cpp:425] inception_4a/pool_proj <- inception_4a/pool
I0403 16:07:52.339282 20747 net.cpp:399] inception_4a/pool_proj -> inception_4a/pool_proj
I0403 16:07:52.340477 20747 net.cpp:141] Setting up inception_4a/pool_proj
I0403 16:07:52.340507 20747 net.cpp:148] Top shape: 24 64 14 14 (301056)
I0403 16:07:52.340538 20747 net.cpp:156] Memory required for data: 885707808
I0403 16:07:52.340558 20747 layer_factory.hpp:77] Creating layer inception_4a/relu_pool_proj
I0403 16:07:52.340579 20747 net.cpp:91] Creating Layer inception_4a/relu_pool_proj
I0403 16:07:52.340596 20747 net.cpp:425] inception_4a/relu_pool_proj <- inception_4a/pool_proj
I0403 16:07:52.340613 20747 net.cpp:386] inception_4a/relu_pool_proj -> inception_4a/pool_proj (in-place)
I0403 16:07:52.340903 20747 net.cpp:141] Setting up inception_4a/relu_pool_proj
I0403 16:07:52.340929 20747 net.cpp:148] Top shape: 24 64 14 14 (301056)
I0403 16:07:52.340945 20747 net.cpp:156] Memory required for data: 886912032
I0403 16:07:52.340960 20747 layer_factory.hpp:77] Creating layer inception_4a/output
I0403 16:07:52.340980 20747 net.cpp:91] Creating Layer inception_4a/output
I0403 16:07:52.340997 20747 net.cpp:425] inception_4a/output <- inception_4a/1x1
I0403 16:07:52.341014 20747 net.cpp:425] inception_4a/output <- inception_4a/3x3
I0403 16:07:52.341037 20747 net.cpp:425] inception_4a/output <- inception_4a/5x5
I0403 16:07:52.341053 20747 net.cpp:425] inception_4a/output <- inception_4a/pool_proj
I0403 16:07:52.341070 20747 net.cpp:399] inception_4a/output -> inception_4a/output
I0403 16:07:52.341117 20747 net.cpp:141] Setting up inception_4a/output
I0403 16:07:52.341140 20747 net.cpp:148] Top shape: 24 512 14 14 (2408448)
I0403 16:07:52.341155 20747 net.cpp:156] Memory required for data: 896545824
I0403 16:07:52.341169 20747 layer_factory.hpp:77] Creating layer inception_4a/output_inception_4a/output_0_split
I0403 16:07:52.341187 20747 net.cpp:91] Creating Layer inception_4a/output_inception_4a/output_0_split
I0403 16:07:52.341202 20747 net.cpp:425] inception_4a/output_inception_4a/output_0_split <- inception_4a/output
I0403 16:07:52.341224 20747 net.cpp:399] inception_4a/output_inception_4a/output_0_split -> inception_4a/output_inception_4a/output_0_split_0
I0403 16:07:52.341246 20747 net.cpp:399] inception_4a/output_inception_4a/output_0_split -> inception_4a/output_inception_4a/output_0_split_1
I0403 16:07:52.341267 20747 net.cpp:399] inception_4a/output_inception_4a/output_0_split -> inception_4a/output_inception_4a/output_0_split_2
I0403 16:07:52.341289 20747 net.cpp:399] inception_4a/output_inception_4a/output_0_split -> inception_4a/output_inception_4a/output_0_split_3
I0403 16:07:52.341310 20747 net.cpp:399] inception_4a/output_inception_4a/output_0_split -> inception_4a/output_inception_4a/output_0_split_4
I0403 16:07:52.341404 20747 net.cpp:141] Setting up inception_4a/output_inception_4a/output_0_split
I0403 16:07:52.341428 20747 net.cpp:148] Top shape: 24 512 14 14 (2408448)
I0403 16:07:52.341444 20747 net.cpp:148] Top shape: 24 512 14 14 (2408448)
I0403 16:07:52.341459 20747 net.cpp:148] Top shape: 24 512 14 14 (2408448)
I0403 16:07:52.341475 20747 net.cpp:148] Top shape: 24 512 14 14 (2408448)
I0403 16:07:52.341490 20747 net.cpp:148] Top shape: 24 512 14 14 (2408448)
I0403 16:07:52.341505 20747 net.cpp:156] Memory required for data: 944714784
I0403 16:07:52.341518 20747 layer_factory.hpp:77] Creating layer loss1/ave_pool
I0403 16:07:52.341536 20747 net.cpp:91] Creating Layer loss1/ave_pool
I0403 16:07:52.341552 20747 net.cpp:425] loss1/ave_pool <- inception_4a/output_inception_4a/output_0_split_0
I0403 16:07:52.341572 20747 net.cpp:399] loss1/ave_pool -> loss1/ave_pool
I0403 16:07:52.341787 20747 net.cpp:141] Setting up loss1/ave_pool
I0403 16:07:52.341812 20747 net.cpp:148] Top shape: 24 512 4 4 (196608)
I0403 16:07:52.341827 20747 net.cpp:156] Memory required for data: 945501216
I0403 16:07:52.341842 20747 layer_factory.hpp:77] Creating layer loss1/conv
I0403 16:07:52.341866 20747 net.cpp:91] Creating Layer loss1/conv
I0403 16:07:52.341883 20747 net.cpp:425] loss1/conv <- loss1/ave_pool
I0403 16:07:52.341902 20747 net.cpp:399] loss1/conv -> loss1/conv
I0403 16:07:52.343369 20747 net.cpp:141] Setting up loss1/conv
I0403 16:07:52.343397 20747 net.cpp:148] Top shape: 24 128 4 4 (49152)
I0403 16:07:52.343427 20747 net.cpp:156] Memory required for data: 945697824
I0403 16:07:52.343447 20747 layer_factory.hpp:77] Creating layer loss1/relu_conv
I0403 16:07:52.343466 20747 net.cpp:91] Creating Layer loss1/relu_conv
I0403 16:07:52.343482 20747 net.cpp:425] loss1/relu_conv <- loss1/conv
I0403 16:07:52.343502 20747 net.cpp:386] loss1/relu_conv -> loss1/conv (in-place)
I0403 16:07:52.343797 20747 net.cpp:141] Setting up loss1/relu_conv
I0403 16:07:52.343823 20747 net.cpp:148] Top shape: 24 128 4 4 (49152)
I0403 16:07:52.343839 20747 net.cpp:156] Memory required for data: 945894432
I0403 16:07:52.343854 20747 layer_factory.hpp:77] Creating layer loss1/fc
I0403 16:07:52.343878 20747 net.cpp:91] Creating Layer loss1/fc
I0403 16:07:52.343896 20747 net.cpp:425] loss1/fc <- loss1/conv
I0403 16:07:52.343917 20747 net.cpp:399] loss1/fc -> loss1/fc
I0403 16:07:52.361675 20747 net.cpp:141] Setting up loss1/fc
I0403 16:07:52.361712 20747 net.cpp:148] Top shape: 24 1024 (24576)
I0403 16:07:52.361728 20747 net.cpp:156] Memory required for data: 945992736
I0403 16:07:52.361747 20747 layer_factory.hpp:77] Creating layer loss1/relu_fc
I0403 16:07:52.361766 20747 net.cpp:91] Creating Layer loss1/relu_fc
I0403 16:07:52.361783 20747 net.cpp:425] loss1/relu_fc <- loss1/fc
I0403 16:07:52.361801 20747 net.cpp:386] loss1/relu_fc -> loss1/fc (in-place)
I0403 16:07:52.362013 20747 net.cpp:141] Setting up loss1/relu_fc
I0403 16:07:52.362041 20747 net.cpp:148] Top shape: 24 1024 (24576)
I0403 16:07:52.362056 20747 net.cpp:156] Memory required for data: 946091040
I0403 16:07:52.362071 20747 layer_factory.hpp:77] Creating layer loss1/drop_fc
I0403 16:07:52.362099 20747 net.cpp:91] Creating Layer loss1/drop_fc
I0403 16:07:52.362117 20747 net.cpp:425] loss1/drop_fc <- loss1/fc
I0403 16:07:52.362135 20747 net.cpp:386] loss1/drop_fc -> loss1/fc (in-place)
I0403 16:07:52.362188 20747 net.cpp:141] Setting up loss1/drop_fc
I0403 16:07:52.362211 20747 net.cpp:148] Top shape: 24 1024 (24576)
I0403 16:07:52.362226 20747 net.cpp:156] Memory required for data: 946189344
I0403 16:07:52.362241 20747 layer_factory.hpp:77] Creating layer loss1/classifier_plantvillage
I0403 16:07:52.362263 20747 net.cpp:91] Creating Layer loss1/classifier_plantvillage
I0403 16:07:52.362280 20747 net.cpp:425] loss1/classifier_plantvillage <- loss1/fc
I0403 16:07:52.362298 20747 net.cpp:399] loss1/classifier_plantvillage -> loss1/classifier_plantvillage
I0403 16:07:52.363227 20747 net.cpp:141] Setting up loss1/classifier_plantvillage
I0403 16:07:52.363256 20747 net.cpp:148] Top shape: 24 38 (912)
I0403 16:07:52.363272 20747 net.cpp:156] Memory required for data: 946192992
I0403 16:07:52.363289 20747 layer_factory.hpp:77] Creating layer loss1/classifier_plantvillage_loss1/classifier_plantvillage_0_split
I0403 16:07:52.363307 20747 net.cpp:91] Creating Layer loss1/classifier_plantvillage_loss1/classifier_plantvillage_0_split
I0403 16:07:52.363323 20747 net.cpp:425] loss1/classifier_plantvillage_loss1/classifier_plantvillage_0_split <- loss1/classifier_plantvillage
I0403 16:07:52.363342 20747 net.cpp:399] loss1/classifier_plantvillage_loss1/classifier_plantvillage_0_split -> loss1/classifier_plantvillage_loss1/classifier_plantvillage_0_split_0
I0403 16:07:52.363363 20747 net.cpp:399] loss1/classifier_plantvillage_loss1/classifier_plantvillage_0_split -> loss1/classifier_plantvillage_loss1/classifier_plantvillage_0_split_1
I0403 16:07:52.363384 20747 net.cpp:399] loss1/classifier_plantvillage_loss1/classifier_plantvillage_0_split -> loss1/classifier_plantvillage_loss1/classifier_plantvillage_0_split_2
I0403 16:07:52.363451 20747 net.cpp:141] Setting up loss1/classifier_plantvillage_loss1/classifier_plantvillage_0_split
I0403 16:07:52.363472 20747 net.cpp:148] Top shape: 24 38 (912)
I0403 16:07:52.363488 20747 net.cpp:148] Top shape: 24 38 (912)
I0403 16:07:52.363503 20747 net.cpp:148] Top shape: 24 38 (912)
I0403 16:07:52.363517 20747 net.cpp:156] Memory required for data: 946203936
I0403 16:07:52.363530 20747 layer_factory.hpp:77] Creating layer inception_4b/1x1
I0403 16:07:52.363550 20747 net.cpp:91] Creating Layer inception_4b/1x1
I0403 16:07:52.363584 20747 net.cpp:425] inception_4b/1x1 <- inception_4a/output_inception_4a/output_0_split_1
I0403 16:07:52.363607 20747 net.cpp:399] inception_4b/1x1 -> inception_4b/1x1
I0403 16:07:52.365298 20747 net.cpp:141] Setting up inception_4b/1x1
I0403 16:07:52.365326 20747 net.cpp:148] Top shape: 24 160 14 14 (752640)
I0403 16:07:52.365342 20747 net.cpp:156] Memory required for data: 949214496
I0403 16:07:52.365360 20747 layer_factory.hpp:77] Creating layer inception_4b/relu_1x1
I0403 16:07:52.365378 20747 net.cpp:91] Creating Layer inception_4b/relu_1x1
I0403 16:07:52.365393 20747 net.cpp:425] inception_4b/relu_1x1 <- inception_4b/1x1
I0403 16:07:52.365413 20747 net.cpp:386] inception_4b/relu_1x1 -> inception_4b/1x1 (in-place)
I0403 16:07:52.365594 20747 net.cpp:141] Setting up inception_4b/relu_1x1
I0403 16:07:52.365619 20747 net.cpp:148] Top shape: 24 160 14 14 (752640)
I0403 16:07:52.365633 20747 net.cpp:156] Memory required for data: 952225056
I0403 16:07:52.365648 20747 layer_factory.hpp:77] Creating layer inception_4b/3x3_reduce
I0403 16:07:52.365669 20747 net.cpp:91] Creating Layer inception_4b/3x3_reduce
I0403 16:07:52.365686 20747 net.cpp:425] inception_4b/3x3_reduce <- inception_4a/output_inception_4a/output_0_split_2
I0403 16:07:52.365710 20747 net.cpp:399] inception_4b/3x3_reduce -> inception_4b/3x3_reduce
I0403 16:07:52.367074 20747 net.cpp:141] Setting up inception_4b/3x3_reduce
I0403 16:07:52.367102 20747 net.cpp:148] Top shape: 24 112 14 14 (526848)
I0403 16:07:52.367117 20747 net.cpp:156] Memory required for data: 954332448
I0403 16:07:52.367136 20747 layer_factory.hpp:77] Creating layer inception_4b/relu_3x3_reduce
I0403 16:07:52.367156 20747 net.cpp:91] Creating Layer inception_4b/relu_3x3_reduce
I0403 16:07:52.367173 20747 net.cpp:425] inception_4b/relu_3x3_reduce <- inception_4b/3x3_reduce
I0403 16:07:52.367190 20747 net.cpp:386] inception_4b/relu_3x3_reduce -> inception_4b/3x3_reduce (in-place)
I0403 16:07:52.367477 20747 net.cpp:141] Setting up inception_4b/relu_3x3_reduce
I0403 16:07:52.367502 20747 net.cpp:148] Top shape: 24 112 14 14 (526848)
I0403 16:07:52.367517 20747 net.cpp:156] Memory required for data: 956439840
I0403 16:07:52.367532 20747 layer_factory.hpp:77] Creating layer inception_4b/3x3
I0403 16:07:52.367553 20747 net.cpp:91] Creating Layer inception_4b/3x3
I0403 16:07:52.367571 20747 net.cpp:425] inception_4b/3x3 <- inception_4b/3x3_reduce
I0403 16:07:52.367593 20747 net.cpp:399] inception_4b/3x3 -> inception_4b/3x3
I0403 16:07:52.370502 20747 net.cpp:141] Setting up inception_4b/3x3
I0403 16:07:52.370532 20747 net.cpp:148] Top shape: 24 224 14 14 (1053696)
I0403 16:07:52.370548 20747 net.cpp:156] Memory required for data: 960654624
I0403 16:07:52.370565 20747 layer_factory.hpp:77] Creating layer inception_4b/relu_3x3
I0403 16:07:52.370584 20747 net.cpp:91] Creating Layer inception_4b/relu_3x3
I0403 16:07:52.370599 20747 net.cpp:425] inception_4b/relu_3x3 <- inception_4b/3x3
I0403 16:07:52.370615 20747 net.cpp:386] inception_4b/relu_3x3 -> inception_4b/3x3 (in-place)
I0403 16:07:52.370793 20747 net.cpp:141] Setting up inception_4b/relu_3x3
I0403 16:07:52.370817 20747 net.cpp:148] Top shape: 24 224 14 14 (1053696)
I0403 16:07:52.370831 20747 net.cpp:156] Memory required for data: 964869408
I0403 16:07:52.370844 20747 layer_factory.hpp:77] Creating layer inception_4b/5x5_reduce
I0403 16:07:52.370867 20747 net.cpp:91] Creating Layer inception_4b/5x5_reduce
I0403 16:07:52.370883 20747 net.cpp:425] inception_4b/5x5_reduce <- inception_4a/output_inception_4a/output_0_split_3
I0403 16:07:52.370903 20747 net.cpp:399] inception_4b/5x5_reduce -> inception_4b/5x5_reduce
I0403 16:07:52.371969 20747 net.cpp:141] Setting up inception_4b/5x5_reduce
I0403 16:07:52.371996 20747 net.cpp:148] Top shape: 24 24 14 14 (112896)
I0403 16:07:52.372011 20747 net.cpp:156] Memory required for data: 965320992
I0403 16:07:52.372033 20747 layer_factory.hpp:77] Creating layer inception_4b/relu_5x5_reduce
I0403 16:07:52.372053 20747 net.cpp:91] Creating Layer inception_4b/relu_5x5_reduce
I0403 16:07:52.372083 20747 net.cpp:425] inception_4b/relu_5x5_reduce <- inception_4b/5x5_reduce
I0403 16:07:52.372102 20747 net.cpp:386] inception_4b/relu_5x5_reduce -> inception_4b/5x5_reduce (in-place)
I0403 16:07:52.372282 20747 net.cpp:141] Setting up inception_4b/relu_5x5_reduce
I0403 16:07:52.372305 20747 net.cpp:148] Top shape: 24 24 14 14 (112896)
I0403 16:07:52.372319 20747 net.cpp:156] Memory required for data: 965772576
I0403 16:07:52.372334 20747 layer_factory.hpp:77] Creating layer inception_4b/5x5
I0403 16:07:52.372357 20747 net.cpp:91] Creating Layer inception_4b/5x5
I0403 16:07:52.372375 20747 net.cpp:425] inception_4b/5x5 <- inception_4b/5x5_reduce
I0403 16:07:52.372392 20747 net.cpp:399] inception_4b/5x5 -> inception_4b/5x5
I0403 16:07:52.373599 20747 net.cpp:141] Setting up inception_4b/5x5
I0403 16:07:52.373625 20747 net.cpp:148] Top shape: 24 64 14 14 (301056)
I0403 16:07:52.373639 20747 net.cpp:156] Memory required for data: 966976800
I0403 16:07:52.373656 20747 layer_factory.hpp:77] Creating layer inception_4b/relu_5x5
I0403 16:07:52.373673 20747 net.cpp:91] Creating Layer inception_4b/relu_5x5
I0403 16:07:52.373689 20747 net.cpp:425] inception_4b/relu_5x5 <- inception_4b/5x5
I0403 16:07:52.373708 20747 net.cpp:386] inception_4b/relu_5x5 -> inception_4b/5x5 (in-place)
I0403 16:07:52.373986 20747 net.cpp:141] Setting up inception_4b/relu_5x5
I0403 16:07:52.374011 20747 net.cpp:148] Top shape: 24 64 14 14 (301056)
I0403 16:07:52.374045 20747 net.cpp:156] Memory required for data: 968181024
I0403 16:07:52.374060 20747 layer_factory.hpp:77] Creating layer inception_4b/pool
I0403 16:07:52.374079 20747 net.cpp:91] Creating Layer inception_4b/pool
I0403 16:07:52.374096 20747 net.cpp:425] inception_4b/pool <- inception_4a/output_inception_4a/output_0_split_4
I0403 16:07:52.374117 20747 net.cpp:399] inception_4b/pool -> inception_4b/pool
I0403 16:07:52.374181 20747 net.cpp:141] Setting up inception_4b/pool
I0403 16:07:52.374205 20747 net.cpp:148] Top shape: 24 512 14 14 (2408448)
I0403 16:07:52.374219 20747 net.cpp:156] Memory required for data: 977814816
I0403 16:07:52.374234 20747 layer_factory.hpp:77] Creating layer inception_4b/pool_proj
I0403 16:07:52.374258 20747 net.cpp:91] Creating Layer inception_4b/pool_proj
I0403 16:07:52.374274 20747 net.cpp:425] inception_4b/pool_proj <- inception_4b/pool
I0403 16:07:52.374292 20747 net.cpp:399] inception_4b/pool_proj -> inception_4b/pool_proj
I0403 16:07:52.375521 20747 net.cpp:141] Setting up inception_4b/pool_proj
I0403 16:07:52.375548 20747 net.cpp:148] Top shape: 24 64 14 14 (301056)
I0403 16:07:52.375563 20747 net.cpp:156] Memory required for data: 979019040
I0403 16:07:52.375581 20747 layer_factory.hpp:77] Creating layer inception_4b/relu_pool_proj
I0403 16:07:52.375600 20747 net.cpp:91] Creating Layer inception_4b/relu_pool_proj
I0403 16:07:52.375617 20747 net.cpp:425] inception_4b/relu_pool_proj <- inception_4b/pool_proj
I0403 16:07:52.375633 20747 net.cpp:386] inception_4b/relu_pool_proj -> inception_4b/pool_proj (in-place)
I0403 16:07:52.375814 20747 net.cpp:141] Setting up inception_4b/relu_pool_proj
I0403 16:07:52.375839 20747 net.cpp:148] Top shape: 24 64 14 14 (301056)
I0403 16:07:52.375854 20747 net.cpp:156] Memory required for data: 980223264
I0403 16:07:52.375867 20747 layer_factory.hpp:77] Creating layer inception_4b/output
I0403 16:07:52.375887 20747 net.cpp:91] Creating Layer inception_4b/output
I0403 16:07:52.375903 20747 net.cpp:425] inception_4b/output <- inception_4b/1x1
I0403 16:07:52.375918 20747 net.cpp:425] inception_4b/output <- inception_4b/3x3
I0403 16:07:52.375934 20747 net.cpp:425] inception_4b/output <- inception_4b/5x5
I0403 16:07:52.375949 20747 net.cpp:425] inception_4b/output <- inception_4b/pool_proj
I0403 16:07:52.375965 20747 net.cpp:399] inception_4b/output -> inception_4b/output
I0403 16:07:52.376013 20747 net.cpp:141] Setting up inception_4b/output
I0403 16:07:52.376040 20747 net.cpp:148] Top shape: 24 512 14 14 (2408448)
I0403 16:07:52.376055 20747 net.cpp:156] Memory required for data: 989857056
I0403 16:07:52.376083 20747 layer_factory.hpp:77] Creating layer inception_4b/output_inception_4b/output_0_split
I0403 16:07:52.376101 20747 net.cpp:91] Creating Layer inception_4b/output_inception_4b/output_0_split
I0403 16:07:52.376116 20747 net.cpp:425] inception_4b/output_inception_4b/output_0_split <- inception_4b/output
I0403 16:07:52.376137 20747 net.cpp:399] inception_4b/output_inception_4b/output_0_split -> inception_4b/output_inception_4b/output_0_split_0
I0403 16:07:52.376157 20747 net.cpp:399] inception_4b/output_inception_4b/output_0_split -> inception_4b/output_inception_4b/output_0_split_1
I0403 16:07:52.376178 20747 net.cpp:399] inception_4b/output_inception_4b/output_0_split -> inception_4b/output_inception_4b/output_0_split_2
I0403 16:07:52.376197 20747 net.cpp:399] inception_4b/output_inception_4b/output_0_split -> inception_4b/output_inception_4b/output_0_split_3
I0403 16:07:52.376281 20747 net.cpp:141] Setting up inception_4b/output_inception_4b/output_0_split
I0403 16:07:52.376304 20747 net.cpp:148] Top shape: 24 512 14 14 (2408448)
I0403 16:07:52.376327 20747 net.cpp:148] Top shape: 24 512 14 14 (2408448)
I0403 16:07:52.376343 20747 net.cpp:148] Top shape: 24 512 14 14 (2408448)
I0403 16:07:52.376358 20747 net.cpp:148] Top shape: 24 512 14 14 (2408448)
I0403 16:07:52.376370 20747 net.cpp:156] Memory required for data: 1028392224
I0403 16:07:52.376384 20747 layer_factory.hpp:77] Creating layer inception_4c/1x1
I0403 16:07:52.376405 20747 net.cpp:91] Creating Layer inception_4c/1x1
I0403 16:07:52.376422 20747 net.cpp:425] inception_4c/1x1 <- inception_4b/output_inception_4b/output_0_split_0
I0403 16:07:52.376443 20747 net.cpp:399] inception_4c/1x1 -> inception_4c/1x1
I0403 16:07:52.377878 20747 net.cpp:141] Setting up inception_4c/1x1
I0403 16:07:52.377909 20747 net.cpp:148] Top shape: 24 128 14 14 (602112)
I0403 16:07:52.377925 20747 net.cpp:156] Memory required for data: 1030800672
I0403 16:07:52.377943 20747 layer_factory.hpp:77] Creating layer inception_4c/relu_1x1
I0403 16:07:52.377961 20747 net.cpp:91] Creating Layer inception_4c/relu_1x1
I0403 16:07:52.377976 20747 net.cpp:425] inception_4c/relu_1x1 <- inception_4c/1x1
I0403 16:07:52.377995 20747 net.cpp:386] inception_4c/relu_1x1 -> inception_4c/1x1 (in-place)
I0403 16:07:52.378190 20747 net.cpp:141] Setting up inception_4c/relu_1x1
I0403 16:07:52.378217 20747 net.cpp:148] Top shape: 24 128 14 14 (602112)
I0403 16:07:52.378232 20747 net.cpp:156] Memory required for data: 1033209120
I0403 16:07:52.378247 20747 layer_factory.hpp:77] Creating layer inception_4c/3x3_reduce
I0403 16:07:52.378268 20747 net.cpp:91] Creating Layer inception_4c/3x3_reduce
I0403 16:07:52.378285 20747 net.cpp:425] inception_4c/3x3_reduce <- inception_4b/output_inception_4b/output_0_split_1
I0403 16:07:52.378304 20747 net.cpp:399] inception_4c/3x3_reduce -> inception_4c/3x3_reduce
I0403 16:07:52.380250 20747 net.cpp:141] Setting up inception_4c/3x3_reduce
I0403 16:07:52.380280 20747 net.cpp:148] Top shape: 24 128 14 14 (602112)
I0403 16:07:52.380295 20747 net.cpp:156] Memory required for data: 1035617568
I0403 16:07:52.380311 20747 layer_factory.hpp:77] Creating layer inception_4c/relu_3x3_reduce
I0403 16:07:52.380329 20747 net.cpp:91] Creating Layer inception_4c/relu_3x3_reduce
I0403 16:07:52.380345 20747 net.cpp:425] inception_4c/relu_3x3_reduce <- inception_4c/3x3_reduce
I0403 16:07:52.380364 20747 net.cpp:386] inception_4c/relu_3x3_reduce -> inception_4c/3x3_reduce (in-place)
I0403 16:07:52.380651 20747 net.cpp:141] Setting up inception_4c/relu_3x3_reduce
I0403 16:07:52.380677 20747 net.cpp:148] Top shape: 24 128 14 14 (602112)
I0403 16:07:52.380692 20747 net.cpp:156] Memory required for data: 1038026016
I0403 16:07:52.380707 20747 layer_factory.hpp:77] Creating layer inception_4c/3x3
I0403 16:07:52.380729 20747 net.cpp:91] Creating Layer inception_4c/3x3
I0403 16:07:52.380746 20747 net.cpp:425] inception_4c/3x3 <- inception_4c/3x3_reduce
I0403 16:07:52.380767 20747 net.cpp:399] inception_4c/3x3 -> inception_4c/3x3
I0403 16:07:52.384367 20747 net.cpp:141] Setting up inception_4c/3x3
I0403 16:07:52.384407 20747 net.cpp:148] Top shape: 24 256 14 14 (1204224)
I0403 16:07:52.384423 20747 net.cpp:156] Memory required for data: 1042842912
I0403 16:07:52.384456 20747 layer_factory.hpp:77] Creating layer inception_4c/relu_3x3
I0403 16:07:52.384477 20747 net.cpp:91] Creating Layer inception_4c/relu_3x3
I0403 16:07:52.384493 20747 net.cpp:425] inception_4c/relu_3x3 <- inception_4c/3x3
I0403 16:07:52.384512 20747 net.cpp:386] inception_4c/relu_3x3 -> inception_4c/3x3 (in-place)
I0403 16:07:52.384696 20747 net.cpp:141] Setting up inception_4c/relu_3x3
I0403 16:07:52.384721 20747 net.cpp:148] Top shape: 24 256 14 14 (1204224)
I0403 16:07:52.384735 20747 net.cpp:156] Memory required for data: 1047659808
I0403 16:07:52.384749 20747 layer_factory.hpp:77] Creating layer inception_4c/5x5_reduce
I0403 16:07:52.384771 20747 net.cpp:91] Creating Layer inception_4c/5x5_reduce
I0403 16:07:52.384788 20747 net.cpp:425] inception_4c/5x5_reduce <- inception_4b/output_inception_4b/output_0_split_2
I0403 16:07:52.384809 20747 net.cpp:399] inception_4c/5x5_reduce -> inception_4c/5x5_reduce
I0403 16:07:52.385910 20747 net.cpp:141] Setting up inception_4c/5x5_reduce
I0403 16:07:52.385937 20747 net.cpp:148] Top shape: 24 24 14 14 (112896)
I0403 16:07:52.385952 20747 net.cpp:156] Memory required for data: 1048111392
I0403 16:07:52.385969 20747 layer_factory.hpp:77] Creating layer inception_4c/relu_5x5_reduce
I0403 16:07:52.385989 20747 net.cpp:91] Creating Layer inception_4c/relu_5x5_reduce
I0403 16:07:52.386008 20747 net.cpp:425] inception_4c/relu_5x5_reduce <- inception_4c/5x5_reduce
I0403 16:07:52.386029 20747 net.cpp:386] inception_4c/relu_5x5_reduce -> inception_4c/5x5_reduce (in-place)
I0403 16:07:52.386214 20747 net.cpp:141] Setting up inception_4c/relu_5x5_reduce
I0403 16:07:52.386239 20747 net.cpp:148] Top shape: 24 24 14 14 (112896)
I0403 16:07:52.386252 20747 net.cpp:156] Memory required for data: 1048562976
I0403 16:07:52.386267 20747 layer_factory.hpp:77] Creating layer inception_4c/5x5
I0403 16:07:52.386288 20747 net.cpp:91] Creating Layer inception_4c/5x5
I0403 16:07:52.386307 20747 net.cpp:425] inception_4c/5x5 <- inception_4c/5x5_reduce
I0403 16:07:52.386327 20747 net.cpp:399] inception_4c/5x5 -> inception_4c/5x5
I0403 16:07:52.387579 20747 net.cpp:141] Setting up inception_4c/5x5
I0403 16:07:52.387606 20747 net.cpp:148] Top shape: 24 64 14 14 (301056)
I0403 16:07:52.387621 20747 net.cpp:156] Memory required for data: 1049767200
I0403 16:07:52.387639 20747 layer_factory.hpp:77] Creating layer inception_4c/relu_5x5
I0403 16:07:52.387660 20747 net.cpp:91] Creating Layer inception_4c/relu_5x5
I0403 16:07:52.387677 20747 net.cpp:425] inception_4c/relu_5x5 <- inception_4c/5x5
I0403 16:07:52.387694 20747 net.cpp:386] inception_4c/relu_5x5 -> inception_4c/5x5 (in-place)
I0403 16:07:52.387989 20747 net.cpp:141] Setting up inception_4c/relu_5x5
I0403 16:07:52.388015 20747 net.cpp:148] Top shape: 24 64 14 14 (301056)
I0403 16:07:52.388042 20747 net.cpp:156] Memory required for data: 1050971424
I0403 16:07:52.388057 20747 layer_factory.hpp:77] Creating layer inception_4c/pool
I0403 16:07:52.388077 20747 net.cpp:91] Creating Layer inception_4c/pool
I0403 16:07:52.388093 20747 net.cpp:425] inception_4c/pool <- inception_4b/output_inception_4b/output_0_split_3
I0403 16:07:52.388110 20747 net.cpp:399] inception_4c/pool -> inception_4c/pool
I0403 16:07:52.388176 20747 net.cpp:141] Setting up inception_4c/pool
I0403 16:07:52.388200 20747 net.cpp:148] Top shape: 24 512 14 14 (2408448)
I0403 16:07:52.388214 20747 net.cpp:156] Memory required for data: 1060605216
I0403 16:07:52.388228 20747 layer_factory.hpp:77] Creating layer inception_4c/pool_proj
I0403 16:07:52.388250 20747 net.cpp:91] Creating Layer inception_4c/pool_proj
I0403 16:07:52.388267 20747 net.cpp:425] inception_4c/pool_proj <- inception_4c/pool
I0403 16:07:52.388288 20747 net.cpp:399] inception_4c/pool_proj -> inception_4c/pool_proj
I0403 16:07:52.389538 20747 net.cpp:141] Setting up inception_4c/pool_proj
I0403 16:07:52.389565 20747 net.cpp:148] Top shape: 24 64 14 14 (301056)
I0403 16:07:52.389595 20747 net.cpp:156] Memory required for data: 1061809440
I0403 16:07:52.389616 20747 layer_factory.hpp:77] Creating layer inception_4c/relu_pool_proj
I0403 16:07:52.389633 20747 net.cpp:91] Creating Layer inception_4c/relu_pool_proj
I0403 16:07:52.389662 20747 net.cpp:425] inception_4c/relu_pool_proj <- inception_4c/pool_proj
I0403 16:07:52.389683 20747 net.cpp:386] inception_4c/relu_pool_proj -> inception_4c/pool_proj (in-place)
I0403 16:07:52.389868 20747 net.cpp:141] Setting up inception_4c/relu_pool_proj
I0403 16:07:52.389892 20747 net.cpp:148] Top shape: 24 64 14 14 (301056)
I0403 16:07:52.389906 20747 net.cpp:156] Memory required for data: 1063013664
I0403 16:07:52.389920 20747 layer_factory.hpp:77] Creating layer inception_4c/output
I0403 16:07:52.389940 20747 net.cpp:91] Creating Layer inception_4c/output
I0403 16:07:52.389956 20747 net.cpp:425] inception_4c/output <- inception_4c/1x1
I0403 16:07:52.389973 20747 net.cpp:425] inception_4c/output <- inception_4c/3x3
I0403 16:07:52.389988 20747 net.cpp:425] inception_4c/output <- inception_4c/5x5
I0403 16:07:52.390003 20747 net.cpp:425] inception_4c/output <- inception_4c/pool_proj
I0403 16:07:52.390024 20747 net.cpp:399] inception_4c/output -> inception_4c/output
I0403 16:07:52.390074 20747 net.cpp:141] Setting up inception_4c/output
I0403 16:07:52.390096 20747 net.cpp:148] Top shape: 24 512 14 14 (2408448)
I0403 16:07:52.390110 20747 net.cpp:156] Memory required for data: 1072647456
I0403 16:07:52.390125 20747 layer_factory.hpp:77] Creating layer inception_4c/output_inception_4c/output_0_split
I0403 16:07:52.390141 20747 net.cpp:91] Creating Layer inception_4c/output_inception_4c/output_0_split
I0403 16:07:52.390156 20747 net.cpp:425] inception_4c/output_inception_4c/output_0_split <- inception_4c/output
I0403 16:07:52.390175 20747 net.cpp:399] inception_4c/output_inception_4c/output_0_split -> inception_4c/output_inception_4c/output_0_split_0
I0403 16:07:52.390197 20747 net.cpp:399] inception_4c/output_inception_4c/output_0_split -> inception_4c/output_inception_4c/output_0_split_1
I0403 16:07:52.390216 20747 net.cpp:399] inception_4c/output_inception_4c/output_0_split -> inception_4c/output_inception_4c/output_0_split_2
I0403 16:07:52.390235 20747 net.cpp:399] inception_4c/output_inception_4c/output_0_split -> inception_4c/output_inception_4c/output_0_split_3
I0403 16:07:52.390319 20747 net.cpp:141] Setting up inception_4c/output_inception_4c/output_0_split
I0403 16:07:52.390342 20747 net.cpp:148] Top shape: 24 512 14 14 (2408448)
I0403 16:07:52.390358 20747 net.cpp:148] Top shape: 24 512 14 14 (2408448)
I0403 16:07:52.390373 20747 net.cpp:148] Top shape: 24 512 14 14 (2408448)
I0403 16:07:52.390388 20747 net.cpp:148] Top shape: 24 512 14 14 (2408448)
I0403 16:07:52.390401 20747 net.cpp:156] Memory required for data: 1111182624
I0403 16:07:52.390415 20747 layer_factory.hpp:77] Creating layer inception_4d/1x1
I0403 16:07:52.390437 20747 net.cpp:91] Creating Layer inception_4d/1x1
I0403 16:07:52.390455 20747 net.cpp:425] inception_4d/1x1 <- inception_4c/output_inception_4c/output_0_split_0
I0403 16:07:52.390475 20747 net.cpp:399] inception_4d/1x1 -> inception_4d/1x1
I0403 16:07:52.391854 20747 net.cpp:141] Setting up inception_4d/1x1
I0403 16:07:52.391883 20747 net.cpp:148] Top shape: 24 112 14 14 (526848)
I0403 16:07:52.391899 20747 net.cpp:156] Memory required for data: 1113290016
I0403 16:07:52.391917 20747 layer_factory.hpp:77] Creating layer inception_4d/relu_1x1
I0403 16:07:52.391935 20747 net.cpp:91] Creating Layer inception_4d/relu_1x1
I0403 16:07:52.391950 20747 net.cpp:425] inception_4d/relu_1x1 <- inception_4d/1x1
I0403 16:07:52.391971 20747 net.cpp:386] inception_4d/relu_1x1 -> inception_4d/1x1 (in-place)
I0403 16:07:52.392160 20747 net.cpp:141] Setting up inception_4d/relu_1x1
I0403 16:07:52.392186 20747 net.cpp:148] Top shape: 24 112 14 14 (526848)
I0403 16:07:52.392200 20747 net.cpp:156] Memory required for data: 1115397408
I0403 16:07:52.392215 20747 layer_factory.hpp:77] Creating layer inception_4d/3x3_reduce
I0403 16:07:52.392251 20747 net.cpp:91] Creating Layer inception_4d/3x3_reduce
I0403 16:07:52.392269 20747 net.cpp:425] inception_4d/3x3_reduce <- inception_4c/output_inception_4c/output_0_split_1
I0403 16:07:52.392290 20747 net.cpp:399] inception_4d/3x3_reduce -> inception_4d/3x3_reduce
I0403 16:07:52.393810 20747 net.cpp:141] Setting up inception_4d/3x3_reduce
I0403 16:07:52.393836 20747 net.cpp:148] Top shape: 24 144 14 14 (677376)
I0403 16:07:52.393851 20747 net.cpp:156] Memory required for data: 1118106912
I0403 16:07:52.393869 20747 layer_factory.hpp:77] Creating layer inception_4d/relu_3x3_reduce
I0403 16:07:52.393887 20747 net.cpp:91] Creating Layer inception_4d/relu_3x3_reduce
I0403 16:07:52.393904 20747 net.cpp:425] inception_4d/relu_3x3_reduce <- inception_4d/3x3_reduce
I0403 16:07:52.393921 20747 net.cpp:386] inception_4d/relu_3x3_reduce -> inception_4d/3x3_reduce (in-place)
I0403 16:07:52.394206 20747 net.cpp:141] Setting up inception_4d/relu_3x3_reduce
I0403 16:07:52.394230 20747 net.cpp:148] Top shape: 24 144 14 14 (677376)
I0403 16:07:52.394244 20747 net.cpp:156] Memory required for data: 1120816416
I0403 16:07:52.394259 20747 layer_factory.hpp:77] Creating layer inception_4d/3x3
I0403 16:07:52.394281 20747 net.cpp:91] Creating Layer inception_4d/3x3
I0403 16:07:52.394299 20747 net.cpp:425] inception_4d/3x3 <- inception_4d/3x3_reduce
I0403 16:07:52.394316 20747 net.cpp:399] inception_4d/3x3 -> inception_4d/3x3
I0403 16:07:52.398432 20747 net.cpp:141] Setting up inception_4d/3x3
I0403 16:07:52.398461 20747 net.cpp:148] Top shape: 24 288 14 14 (1354752)
I0403 16:07:52.398476 20747 net.cpp:156] Memory required for data: 1126235424
I0403 16:07:52.398494 20747 layer_factory.hpp:77] Creating layer inception_4d/relu_3x3
I0403 16:07:52.398510 20747 net.cpp:91] Creating Layer inception_4d/relu_3x3
I0403 16:07:52.398525 20747 net.cpp:425] inception_4d/relu_3x3 <- inception_4d/3x3
I0403 16:07:52.398545 20747 net.cpp:386] inception_4d/relu_3x3 -> inception_4d/3x3 (in-place)
I0403 16:07:52.398723 20747 net.cpp:141] Setting up inception_4d/relu_3x3
I0403 16:07:52.398746 20747 net.cpp:148] Top shape: 24 288 14 14 (1354752)
I0403 16:07:52.398761 20747 net.cpp:156] Memory required for data: 1131654432
I0403 16:07:52.398774 20747 layer_factory.hpp:77] Creating layer inception_4d/5x5_reduce
I0403 16:07:52.398797 20747 net.cpp:91] Creating Layer inception_4d/5x5_reduce
I0403 16:07:52.398814 20747 net.cpp:425] inception_4d/5x5_reduce <- inception_4c/output_inception_4c/output_0_split_2
I0403 16:07:52.398835 20747 net.cpp:399] inception_4d/5x5_reduce -> inception_4d/5x5_reduce
I0403 16:07:52.399952 20747 net.cpp:141] Setting up inception_4d/5x5_reduce
I0403 16:07:52.399978 20747 net.cpp:148] Top shape: 24 32 14 14 (150528)
I0403 16:07:52.399993 20747 net.cpp:156] Memory required for data: 1132256544
I0403 16:07:52.400010 20747 layer_factory.hpp:77] Creating layer inception_4d/relu_5x5_reduce
I0403 16:07:52.400032 20747 net.cpp:91] Creating Layer inception_4d/relu_5x5_reduce
I0403 16:07:52.400049 20747 net.cpp:425] inception_4d/relu_5x5_reduce <- inception_4d/5x5_reduce
I0403 16:07:52.400068 20747 net.cpp:386] inception_4d/relu_5x5_reduce -> inception_4d/5x5_reduce (in-place)
I0403 16:07:52.400252 20747 net.cpp:141] Setting up inception_4d/relu_5x5_reduce
I0403 16:07:52.400276 20747 net.cpp:148] Top shape: 24 32 14 14 (150528)
I0403 16:07:52.400290 20747 net.cpp:156] Memory required for data: 1132858656
I0403 16:07:52.400305 20747 layer_factory.hpp:77] Creating layer inception_4d/5x5
I0403 16:07:52.400326 20747 net.cpp:91] Creating Layer inception_4d/5x5
I0403 16:07:52.400342 20747 net.cpp:425] inception_4d/5x5 <- inception_4d/5x5_reduce
I0403 16:07:52.400362 20747 net.cpp:399] inception_4d/5x5 -> inception_4d/5x5
I0403 16:07:52.401794 20747 net.cpp:141] Setting up inception_4d/5x5
I0403 16:07:52.401821 20747 net.cpp:148] Top shape: 24 64 14 14 (301056)
I0403 16:07:52.401835 20747 net.cpp:156] Memory required for data: 1134062880
I0403 16:07:52.401854 20747 layer_factory.hpp:77] Creating layer inception_4d/relu_5x5
I0403 16:07:52.401888 20747 net.cpp:91] Creating Layer inception_4d/relu_5x5
I0403 16:07:52.401906 20747 net.cpp:425] inception_4d/relu_5x5 <- inception_4d/5x5
I0403 16:07:52.401922 20747 net.cpp:386] inception_4d/relu_5x5 -> inception_4d/5x5 (in-place)
I0403 16:07:52.402225 20747 net.cpp:141] Setting up inception_4d/relu_5x5
I0403 16:07:52.402251 20747 net.cpp:148] Top shape: 24 64 14 14 (301056)
I0403 16:07:52.402266 20747 net.cpp:156] Memory required for data: 1135267104
I0403 16:07:52.402279 20747 layer_factory.hpp:77] Creating layer inception_4d/pool
I0403 16:07:52.402298 20747 net.cpp:91] Creating Layer inception_4d/pool
I0403 16:07:52.402314 20747 net.cpp:425] inception_4d/pool <- inception_4c/output_inception_4c/output_0_split_3
I0403 16:07:52.402333 20747 net.cpp:399] inception_4d/pool -> inception_4d/pool
I0403 16:07:52.402397 20747 net.cpp:141] Setting up inception_4d/pool
I0403 16:07:52.402420 20747 net.cpp:148] Top shape: 24 512 14 14 (2408448)
I0403 16:07:52.402433 20747 net.cpp:156] Memory required for data: 1144900896
I0403 16:07:52.402448 20747 layer_factory.hpp:77] Creating layer inception_4d/pool_proj
I0403 16:07:52.402469 20747 net.cpp:91] Creating Layer inception_4d/pool_proj
I0403 16:07:52.402487 20747 net.cpp:425] inception_4d/pool_proj <- inception_4d/pool
I0403 16:07:52.402506 20747 net.cpp:399] inception_4d/pool_proj -> inception_4d/pool_proj
I0403 16:07:52.404227 20747 net.cpp:141] Setting up inception_4d/pool_proj
I0403 16:07:52.404258 20747 net.cpp:148] Top shape: 24 64 14 14 (301056)
I0403 16:07:52.404273 20747 net.cpp:156] Memory required for data: 1146105120
I0403 16:07:52.404290 20747 layer_factory.hpp:77] Creating layer inception_4d/relu_pool_proj
I0403 16:07:52.404307 20747 net.cpp:91] Creating Layer inception_4d/relu_pool_proj
I0403 16:07:52.404322 20747 net.cpp:425] inception_4d/relu_pool_proj <- inception_4d/pool_proj
I0403 16:07:52.404341 20747 net.cpp:386] inception_4d/relu_pool_proj -> inception_4d/pool_proj (in-place)
I0403 16:07:52.404522 20747 net.cpp:141] Setting up inception_4d/relu_pool_proj
I0403 16:07:52.404546 20747 net.cpp:148] Top shape: 24 64 14 14 (301056)
I0403 16:07:52.404561 20747 net.cpp:156] Memory required for data: 1147309344
I0403 16:07:52.404574 20747 layer_factory.hpp:77] Creating layer inception_4d/output
I0403 16:07:52.404590 20747 net.cpp:91] Creating Layer inception_4d/output
I0403 16:07:52.404605 20747 net.cpp:425] inception_4d/output <- inception_4d/1x1
I0403 16:07:52.404621 20747 net.cpp:425] inception_4d/output <- inception_4d/3x3
I0403 16:07:52.404636 20747 net.cpp:425] inception_4d/output <- inception_4d/5x5
I0403 16:07:52.404651 20747 net.cpp:425] inception_4d/output <- inception_4d/pool_proj
I0403 16:07:52.404670 20747 net.cpp:399] inception_4d/output -> inception_4d/output
I0403 16:07:52.404717 20747 net.cpp:141] Setting up inception_4d/output
I0403 16:07:52.404739 20747 net.cpp:148] Top shape: 24 528 14 14 (2483712)
I0403 16:07:52.404753 20747 net.cpp:156] Memory required for data: 1157244192
I0403 16:07:52.404767 20747 layer_factory.hpp:77] Creating layer inception_4d/output_inception_4d/output_0_split
I0403 16:07:52.404784 20747 net.cpp:91] Creating Layer inception_4d/output_inception_4d/output_0_split
I0403 16:07:52.404799 20747 net.cpp:425] inception_4d/output_inception_4d/output_0_split <- inception_4d/output
I0403 16:07:52.404819 20747 net.cpp:399] inception_4d/output_inception_4d/output_0_split -> inception_4d/output_inception_4d/output_0_split_0
I0403 16:07:52.404840 20747 net.cpp:399] inception_4d/output_inception_4d/output_0_split -> inception_4d/output_inception_4d/output_0_split_1
I0403 16:07:52.404860 20747 net.cpp:399] inception_4d/output_inception_4d/output_0_split -> inception_4d/output_inception_4d/output_0_split_2
I0403 16:07:52.404880 20747 net.cpp:399] inception_4d/output_inception_4d/output_0_split -> inception_4d/output_inception_4d/output_0_split_3
I0403 16:07:52.404898 20747 net.cpp:399] inception_4d/output_inception_4d/output_0_split -> inception_4d/output_inception_4d/output_0_split_4
I0403 16:07:52.404997 20747 net.cpp:141] Setting up inception_4d/output_inception_4d/output_0_split
I0403 16:07:52.405038 20747 net.cpp:148] Top shape: 24 528 14 14 (2483712)
I0403 16:07:52.405055 20747 net.cpp:148] Top shape: 24 528 14 14 (2483712)
I0403 16:07:52.405071 20747 net.cpp:148] Top shape: 24 528 14 14 (2483712)
I0403 16:07:52.405086 20747 net.cpp:148] Top shape: 24 528 14 14 (2483712)
I0403 16:07:52.405099 20747 net.cpp:148] Top shape: 24 528 14 14 (2483712)
I0403 16:07:52.405113 20747 net.cpp:156] Memory required for data: 1206918432
I0403 16:07:52.405127 20747 layer_factory.hpp:77] Creating layer loss2/ave_pool
I0403 16:07:52.405143 20747 net.cpp:91] Creating Layer loss2/ave_pool
I0403 16:07:52.405158 20747 net.cpp:425] loss2/ave_pool <- inception_4d/output_inception_4d/output_0_split_0
I0403 16:07:52.405179 20747 net.cpp:399] loss2/ave_pool -> loss2/ave_pool
I0403 16:07:52.405488 20747 net.cpp:141] Setting up loss2/ave_pool
I0403 16:07:52.405515 20747 net.cpp:148] Top shape: 24 528 4 4 (202752)
I0403 16:07:52.405530 20747 net.cpp:156] Memory required for data: 1207729440
I0403 16:07:52.405544 20747 layer_factory.hpp:77] Creating layer loss2/conv
I0403 16:07:52.405565 20747 net.cpp:91] Creating Layer loss2/conv
I0403 16:07:52.405582 20747 net.cpp:425] loss2/conv <- loss2/ave_pool
I0403 16:07:52.405601 20747 net.cpp:399] loss2/conv -> loss2/conv
I0403 16:07:52.407428 20747 net.cpp:141] Setting up loss2/conv
I0403 16:07:52.407454 20747 net.cpp:148] Top shape: 24 128 4 4 (49152)
I0403 16:07:52.407469 20747 net.cpp:156] Memory required for data: 1207926048
I0403 16:07:52.407486 20747 layer_factory.hpp:77] Creating layer loss2/relu_conv
I0403 16:07:52.407506 20747 net.cpp:91] Creating Layer loss2/relu_conv
I0403 16:07:52.407522 20747 net.cpp:425] loss2/relu_conv <- loss2/conv
I0403 16:07:52.407539 20747 net.cpp:386] loss2/relu_conv -> loss2/conv (in-place)
I0403 16:07:52.407820 20747 net.cpp:141] Setting up loss2/relu_conv
I0403 16:07:52.407845 20747 net.cpp:148] Top shape: 24 128 4 4 (49152)
I0403 16:07:52.407860 20747 net.cpp:156] Memory required for data: 1208122656
I0403 16:07:52.407873 20747 layer_factory.hpp:77] Creating layer loss2/fc
I0403 16:07:52.407893 20747 net.cpp:91] Creating Layer loss2/fc
I0403 16:07:52.407909 20747 net.cpp:425] loss2/fc <- loss2/conv
I0403 16:07:52.407927 20747 net.cpp:399] loss2/fc -> loss2/fc
I0403 16:07:52.425464 20747 net.cpp:141] Setting up loss2/fc
I0403 16:07:52.425510 20747 net.cpp:148] Top shape: 24 1024 (24576)
I0403 16:07:52.425525 20747 net.cpp:156] Memory required for data: 1208220960
I0403 16:07:52.425544 20747 layer_factory.hpp:77] Creating layer loss2/relu_fc
I0403 16:07:52.425564 20747 net.cpp:91] Creating Layer loss2/relu_fc
I0403 16:07:52.425580 20747 net.cpp:425] loss2/relu_fc <- loss2/fc
I0403 16:07:52.425602 20747 net.cpp:386] loss2/relu_fc -> loss2/fc (in-place)
I0403 16:07:52.425918 20747 net.cpp:141] Setting up loss2/relu_fc
I0403 16:07:52.425945 20747 net.cpp:148] Top shape: 24 1024 (24576)
I0403 16:07:52.425961 20747 net.cpp:156] Memory required for data: 1208319264
I0403 16:07:52.425976 20747 layer_factory.hpp:77] Creating layer loss2/drop_fc
I0403 16:07:52.425995 20747 net.cpp:91] Creating Layer loss2/drop_fc
I0403 16:07:52.426012 20747 net.cpp:425] loss2/drop_fc <- loss2/fc
I0403 16:07:52.426051 20747 net.cpp:386] loss2/drop_fc -> loss2/fc (in-place)
I0403 16:07:52.426105 20747 net.cpp:141] Setting up loss2/drop_fc
I0403 16:07:52.426131 20747 net.cpp:148] Top shape: 24 1024 (24576)
I0403 16:07:52.426146 20747 net.cpp:156] Memory required for data: 1208417568
I0403 16:07:52.426162 20747 layer_factory.hpp:77] Creating layer loss2/classifier_plantvillage
I0403 16:07:52.426179 20747 net.cpp:91] Creating Layer loss2/classifier_plantvillage
I0403 16:07:52.426197 20747 net.cpp:425] loss2/classifier_plantvillage <- loss2/fc
I0403 16:07:52.426218 20747 net.cpp:399] loss2/classifier_plantvillage -> loss2/classifier_plantvillage
I0403 16:07:52.426641 20747 net.cpp:141] Setting up loss2/classifier_plantvillage
I0403 16:07:52.426666 20747 net.cpp:148] Top shape: 24 38 (912)
I0403 16:07:52.426705 20747 net.cpp:156] Memory required for data: 1208421216
I0403 16:07:52.426725 20747 layer_factory.hpp:77] Creating layer loss2/classifier_plantvillage_loss2/classifier_plantvillage_0_split
I0403 16:07:52.426746 20747 net.cpp:91] Creating Layer loss2/classifier_plantvillage_loss2/classifier_plantvillage_0_split
I0403 16:07:52.426764 20747 net.cpp:425] loss2/classifier_plantvillage_loss2/classifier_plantvillage_0_split <- loss2/classifier_plantvillage
I0403 16:07:52.426780 20747 net.cpp:399] loss2/classifier_plantvillage_loss2/classifier_plantvillage_0_split -> loss2/classifier_plantvillage_loss2/classifier_plantvillage_0_split_0
I0403 16:07:52.426801 20747 net.cpp:399] loss2/classifier_plantvillage_loss2/classifier_plantvillage_0_split -> loss2/classifier_plantvillage_loss2/classifier_plantvillage_0_split_1
I0403 16:07:52.426825 20747 net.cpp:399] loss2/classifier_plantvillage_loss2/classifier_plantvillage_0_split -> loss2/classifier_plantvillage_loss2/classifier_plantvillage_0_split_2
I0403 16:07:52.426903 20747 net.cpp:141] Setting up loss2/classifier_plantvillage_loss2/classifier_plantvillage_0_split
I0403 16:07:52.426926 20747 net.cpp:148] Top shape: 24 38 (912)
I0403 16:07:52.426942 20747 net.cpp:148] Top shape: 24 38 (912)
I0403 16:07:52.426957 20747 net.cpp:148] Top shape: 24 38 (912)
I0403 16:07:52.426971 20747 net.cpp:156] Memory required for data: 1208432160
I0403 16:07:52.426985 20747 layer_factory.hpp:77] Creating layer inception_4e/1x1
I0403 16:07:52.427008 20747 net.cpp:91] Creating Layer inception_4e/1x1
I0403 16:07:52.427031 20747 net.cpp:425] inception_4e/1x1 <- inception_4d/output_inception_4d/output_0_split_1
I0403 16:07:52.427052 20747 net.cpp:399] inception_4e/1x1 -> inception_4e/1x1
I0403 16:07:52.428961 20747 net.cpp:141] Setting up inception_4e/1x1
I0403 16:07:52.428990 20747 net.cpp:148] Top shape: 24 256 14 14 (1204224)
I0403 16:07:52.429005 20747 net.cpp:156] Memory required for data: 1213249056
I0403 16:07:52.429028 20747 layer_factory.hpp:77] Creating layer inception_4e/relu_1x1
I0403 16:07:52.429050 20747 net.cpp:91] Creating Layer inception_4e/relu_1x1
I0403 16:07:52.429069 20747 net.cpp:425] inception_4e/relu_1x1 <- inception_4e/1x1
I0403 16:07:52.429085 20747 net.cpp:386] inception_4e/relu_1x1 -> inception_4e/1x1 (in-place)
I0403 16:07:52.429394 20747 net.cpp:141] Setting up inception_4e/relu_1x1
I0403 16:07:52.429421 20747 net.cpp:148] Top shape: 24 256 14 14 (1204224)
I0403 16:07:52.429436 20747 net.cpp:156] Memory required for data: 1218065952
I0403 16:07:52.429452 20747 layer_factory.hpp:77] Creating layer inception_4e/3x3_reduce
I0403 16:07:52.429474 20747 net.cpp:91] Creating Layer inception_4e/3x3_reduce
I0403 16:07:52.429492 20747 net.cpp:425] inception_4e/3x3_reduce <- inception_4d/output_inception_4d/output_0_split_2
I0403 16:07:52.429514 20747 net.cpp:399] inception_4e/3x3_reduce -> inception_4e/3x3_reduce
I0403 16:07:52.431723 20747 net.cpp:141] Setting up inception_4e/3x3_reduce
I0403 16:07:52.431751 20747 net.cpp:148] Top shape: 24 160 14 14 (752640)
I0403 16:07:52.431767 20747 net.cpp:156] Memory required for data: 1221076512
I0403 16:07:52.431787 20747 layer_factory.hpp:77] Creating layer inception_4e/relu_3x3_reduce
I0403 16:07:52.431807 20747 net.cpp:91] Creating Layer inception_4e/relu_3x3_reduce
I0403 16:07:52.431824 20747 net.cpp:425] inception_4e/relu_3x3_reduce <- inception_4e/3x3_reduce
I0403 16:07:52.431841 20747 net.cpp:386] inception_4e/relu_3x3_reduce -> inception_4e/3x3_reduce (in-place)
I0403 16:07:52.432039 20747 net.cpp:141] Setting up inception_4e/relu_3x3_reduce
I0403 16:07:52.432067 20747 net.cpp:148] Top shape: 24 160 14 14 (752640)
I0403 16:07:52.432082 20747 net.cpp:156] Memory required for data: 1224087072
I0403 16:07:52.432097 20747 layer_factory.hpp:77] Creating layer inception_4e/3x3
I0403 16:07:52.432118 20747 net.cpp:91] Creating Layer inception_4e/3x3
I0403 16:07:52.432135 20747 net.cpp:425] inception_4e/3x3 <- inception_4e/3x3_reduce
I0403 16:07:52.432157 20747 net.cpp:399] inception_4e/3x3 -> inception_4e/3x3
I0403 16:07:52.437314 20747 net.cpp:141] Setting up inception_4e/3x3
I0403 16:07:52.437360 20747 net.cpp:148] Top shape: 24 320 14 14 (1505280)
I0403 16:07:52.437376 20747 net.cpp:156] Memory required for data: 1230108192
I0403 16:07:52.437396 20747 layer_factory.hpp:77] Creating layer inception_4e/relu_3x3
I0403 16:07:52.437413 20747 net.cpp:91] Creating Layer inception_4e/relu_3x3
I0403 16:07:52.437429 20747 net.cpp:425] inception_4e/relu_3x3 <- inception_4e/3x3
I0403 16:07:52.437448 20747 net.cpp:386] inception_4e/relu_3x3 -> inception_4e/3x3 (in-place)
I0403 16:07:52.437757 20747 net.cpp:141] Setting up inception_4e/relu_3x3
I0403 16:07:52.437786 20747 net.cpp:148] Top shape: 24 320 14 14 (1505280)
I0403 16:07:52.437803 20747 net.cpp:156] Memory required for data: 1236129312
I0403 16:07:52.437819 20747 layer_factory.hpp:77] Creating layer inception_4e/5x5_reduce
I0403 16:07:52.437842 20747 net.cpp:91] Creating Layer inception_4e/5x5_reduce
I0403 16:07:52.437861 20747 net.cpp:425] inception_4e/5x5_reduce <- inception_4d/output_inception_4d/output_0_split_3
I0403 16:07:52.437883 20747 net.cpp:399] inception_4e/5x5_reduce -> inception_4e/5x5_reduce
I0403 16:07:52.439007 20747 net.cpp:141] Setting up inception_4e/5x5_reduce
I0403 16:07:52.439038 20747 net.cpp:148] Top shape: 24 32 14 14 (150528)
I0403 16:07:52.439054 20747 net.cpp:156] Memory required for data: 1236731424
I0403 16:07:52.439074 20747 layer_factory.hpp:77] Creating layer inception_4e/relu_5x5_reduce
I0403 16:07:52.439095 20747 net.cpp:91] Creating Layer inception_4e/relu_5x5_reduce
I0403 16:07:52.439111 20747 net.cpp:425] inception_4e/relu_5x5_reduce <- inception_4e/5x5_reduce
I0403 16:07:52.439128 20747 net.cpp:386] inception_4e/relu_5x5_reduce -> inception_4e/5x5_reduce (in-place)
I0403 16:07:52.439436 20747 net.cpp:141] Setting up inception_4e/relu_5x5_reduce
I0403 16:07:52.439463 20747 net.cpp:148] Top shape: 24 32 14 14 (150528)
I0403 16:07:52.439478 20747 net.cpp:156] Memory required for data: 1237333536
I0403 16:07:52.439493 20747 layer_factory.hpp:77] Creating layer inception_4e/5x5
I0403 16:07:52.439534 20747 net.cpp:91] Creating Layer inception_4e/5x5
I0403 16:07:52.439553 20747 net.cpp:425] inception_4e/5x5 <- inception_4e/5x5_reduce
I0403 16:07:52.439574 20747 net.cpp:399] inception_4e/5x5 -> inception_4e/5x5
I0403 16:07:52.441483 20747 net.cpp:141] Setting up inception_4e/5x5
I0403 16:07:52.441511 20747 net.cpp:148] Top shape: 24 128 14 14 (602112)
I0403 16:07:52.441527 20747 net.cpp:156] Memory required for data: 1239741984
I0403 16:07:52.441546 20747 layer_factory.hpp:77] Creating layer inception_4e/relu_5x5
I0403 16:07:52.441565 20747 net.cpp:91] Creating Layer inception_4e/relu_5x5
I0403 16:07:52.441584 20747 net.cpp:425] inception_4e/relu_5x5 <- inception_4e/5x5
I0403 16:07:52.441602 20747 net.cpp:386] inception_4e/relu_5x5 -> inception_4e/5x5 (in-place)
I0403 16:07:52.441805 20747 net.cpp:141] Setting up inception_4e/relu_5x5
I0403 16:07:52.441830 20747 net.cpp:148] Top shape: 24 128 14 14 (602112)
I0403 16:07:52.441845 20747 net.cpp:156] Memory required for data: 1242150432
I0403 16:07:52.441859 20747 layer_factory.hpp:77] Creating layer inception_4e/pool
I0403 16:07:52.441880 20747 net.cpp:91] Creating Layer inception_4e/pool
I0403 16:07:52.441897 20747 net.cpp:425] inception_4e/pool <- inception_4d/output_inception_4d/output_0_split_4
I0403 16:07:52.441915 20747 net.cpp:399] inception_4e/pool -> inception_4e/pool
I0403 16:07:52.441988 20747 net.cpp:141] Setting up inception_4e/pool
I0403 16:07:52.442013 20747 net.cpp:148] Top shape: 24 528 14 14 (2483712)
I0403 16:07:52.442033 20747 net.cpp:156] Memory required for data: 1252085280
I0403 16:07:52.442049 20747 layer_factory.hpp:77] Creating layer inception_4e/pool_proj
I0403 16:07:52.442070 20747 net.cpp:91] Creating Layer inception_4e/pool_proj
I0403 16:07:52.442088 20747 net.cpp:425] inception_4e/pool_proj <- inception_4e/pool
I0403 16:07:52.442108 20747 net.cpp:399] inception_4e/pool_proj -> inception_4e/pool_proj
I0403 16:07:52.443661 20747 net.cpp:141] Setting up inception_4e/pool_proj
I0403 16:07:52.443703 20747 net.cpp:148] Top shape: 24 128 14 14 (602112)
I0403 16:07:52.443720 20747 net.cpp:156] Memory required for data: 1254493728
I0403 16:07:52.443738 20747 layer_factory.hpp:77] Creating layer inception_4e/relu_pool_proj
I0403 16:07:52.443756 20747 net.cpp:91] Creating Layer inception_4e/relu_pool_proj
I0403 16:07:52.443773 20747 net.cpp:425] inception_4e/relu_pool_proj <- inception_4e/pool_proj
I0403 16:07:52.443794 20747 net.cpp:386] inception_4e/relu_pool_proj -> inception_4e/pool_proj (in-place)
I0403 16:07:52.444108 20747 net.cpp:141] Setting up inception_4e/relu_pool_proj
I0403 16:07:52.444139 20747 net.cpp:148] Top shape: 24 128 14 14 (602112)
I0403 16:07:52.444165 20747 net.cpp:156] Memory required for data: 1256902176
I0403 16:07:52.444180 20747 layer_factory.hpp:77] Creating layer inception_4e/output
I0403 16:07:52.444198 20747 net.cpp:91] Creating Layer inception_4e/output
I0403 16:07:52.444213 20747 net.cpp:425] inception_4e/output <- inception_4e/1x1
I0403 16:07:52.444231 20747 net.cpp:425] inception_4e/output <- inception_4e/3x3
I0403 16:07:52.444247 20747 net.cpp:425] inception_4e/output <- inception_4e/5x5
I0403 16:07:52.444262 20747 net.cpp:425] inception_4e/output <- inception_4e/pool_proj
I0403 16:07:52.444281 20747 net.cpp:399] inception_4e/output -> inception_4e/output
I0403 16:07:52.444330 20747 net.cpp:141] Setting up inception_4e/output
I0403 16:07:52.444353 20747 net.cpp:148] Top shape: 24 832 14 14 (3913728)
I0403 16:07:52.444367 20747 net.cpp:156] Memory required for data: 1272557088
I0403 16:07:52.444381 20747 layer_factory.hpp:77] Creating layer pool4/3x3_s2
I0403 16:07:52.444401 20747 net.cpp:91] Creating Layer pool4/3x3_s2
I0403 16:07:52.444425 20747 net.cpp:425] pool4/3x3_s2 <- inception_4e/output
I0403 16:07:52.444443 20747 net.cpp:399] pool4/3x3_s2 -> pool4/3x3_s2
I0403 16:07:52.444514 20747 net.cpp:141] Setting up pool4/3x3_s2
I0403 16:07:52.444537 20747 net.cpp:148] Top shape: 24 832 7 7 (978432)
I0403 16:07:52.444551 20747 net.cpp:156] Memory required for data: 1276470816
I0403 16:07:52.444566 20747 layer_factory.hpp:77] Creating layer pool4/3x3_s2_pool4/3x3_s2_0_split
I0403 16:07:52.444584 20747 net.cpp:91] Creating Layer pool4/3x3_s2_pool4/3x3_s2_0_split
I0403 16:07:52.444602 20747 net.cpp:425] pool4/3x3_s2_pool4/3x3_s2_0_split <- pool4/3x3_s2
I0403 16:07:52.444619 20747 net.cpp:399] pool4/3x3_s2_pool4/3x3_s2_0_split -> pool4/3x3_s2_pool4/3x3_s2_0_split_0
I0403 16:07:52.444639 20747 net.cpp:399] pool4/3x3_s2_pool4/3x3_s2_0_split -> pool4/3x3_s2_pool4/3x3_s2_0_split_1
I0403 16:07:52.444658 20747 net.cpp:399] pool4/3x3_s2_pool4/3x3_s2_0_split -> pool4/3x3_s2_pool4/3x3_s2_0_split_2
I0403 16:07:52.444679 20747 net.cpp:399] pool4/3x3_s2_pool4/3x3_s2_0_split -> pool4/3x3_s2_pool4/3x3_s2_0_split_3
I0403 16:07:52.444769 20747 net.cpp:141] Setting up pool4/3x3_s2_pool4/3x3_s2_0_split
I0403 16:07:52.444793 20747 net.cpp:148] Top shape: 24 832 7 7 (978432)
I0403 16:07:52.444808 20747 net.cpp:148] Top shape: 24 832 7 7 (978432)
I0403 16:07:52.444823 20747 net.cpp:148] Top shape: 24 832 7 7 (978432)
I0403 16:07:52.444839 20747 net.cpp:148] Top shape: 24 832 7 7 (978432)
I0403 16:07:52.444851 20747 net.cpp:156] Memory required for data: 1292125728
I0403 16:07:52.444866 20747 layer_factory.hpp:77] Creating layer inception_5a/1x1
I0403 16:07:52.444888 20747 net.cpp:91] Creating Layer inception_5a/1x1
I0403 16:07:52.444906 20747 net.cpp:425] inception_5a/1x1 <- pool4/3x3_s2_pool4/3x3_s2_0_split_0
I0403 16:07:52.444928 20747 net.cpp:399] inception_5a/1x1 -> inception_5a/1x1
I0403 16:07:52.447823 20747 net.cpp:141] Setting up inception_5a/1x1
I0403 16:07:52.447852 20747 net.cpp:148] Top shape: 24 256 7 7 (301056)
I0403 16:07:52.447867 20747 net.cpp:156] Memory required for data: 1293329952
I0403 16:07:52.447885 20747 layer_factory.hpp:77] Creating layer inception_5a/relu_1x1
I0403 16:07:52.447907 20747 net.cpp:91] Creating Layer inception_5a/relu_1x1
I0403 16:07:52.447927 20747 net.cpp:425] inception_5a/relu_1x1 <- inception_5a/1x1
I0403 16:07:52.447947 20747 net.cpp:386] inception_5a/relu_1x1 -> inception_5a/1x1 (in-place)
I0403 16:07:52.448334 20747 net.cpp:141] Setting up inception_5a/relu_1x1
I0403 16:07:52.448362 20747 net.cpp:148] Top shape: 24 256 7 7 (301056)
I0403 16:07:52.448381 20747 net.cpp:156] Memory required for data: 1294534176
I0403 16:07:52.448396 20747 layer_factory.hpp:77] Creating layer inception_5a/3x3_reduce
I0403 16:07:52.448418 20747 net.cpp:91] Creating Layer inception_5a/3x3_reduce
I0403 16:07:52.448436 20747 net.cpp:425] inception_5a/3x3_reduce <- pool4/3x3_s2_pool4/3x3_s2_0_split_1
I0403 16:07:52.448458 20747 net.cpp:399] inception_5a/3x3_reduce -> inception_5a/3x3_reduce
I0403 16:07:52.450933 20747 net.cpp:141] Setting up inception_5a/3x3_reduce
I0403 16:07:52.450964 20747 net.cpp:148] Top shape: 24 160 7 7 (188160)
I0403 16:07:52.450980 20747 net.cpp:156] Memory required for data: 1295286816
I0403 16:07:52.451000 20747 layer_factory.hpp:77] Creating layer inception_5a/relu_3x3_reduce
I0403 16:07:52.451021 20747 net.cpp:91] Creating Layer inception_5a/relu_3x3_reduce
I0403 16:07:52.451038 20747 net.cpp:425] inception_5a/relu_3x3_reduce <- inception_5a/3x3_reduce
I0403 16:07:52.451058 20747 net.cpp:386] inception_5a/relu_3x3_reduce -> inception_5a/3x3_reduce (in-place)
I0403 16:07:52.451247 20747 net.cpp:141] Setting up inception_5a/relu_3x3_reduce
I0403 16:07:52.451272 20747 net.cpp:148] Top shape: 24 160 7 7 (188160)
I0403 16:07:52.451287 20747 net.cpp:156] Memory required for data: 1296039456
I0403 16:07:52.451302 20747 layer_factory.hpp:77] Creating layer inception_5a/3x3
I0403 16:07:52.451323 20747 net.cpp:91] Creating Layer inception_5a/3x3
I0403 16:07:52.451340 20747 net.cpp:425] inception_5a/3x3 <- inception_5a/3x3_reduce
I0403 16:07:52.451362 20747 net.cpp:399] inception_5a/3x3 -> inception_5a/3x3
I0403 16:07:52.456393 20747 net.cpp:141] Setting up inception_5a/3x3
I0403 16:07:52.456423 20747 net.cpp:148] Top shape: 24 320 7 7 (376320)
I0403 16:07:52.456437 20747 net.cpp:156] Memory required for data: 1297544736
I0403 16:07:52.456455 20747 layer_factory.hpp:77] Creating layer inception_5a/relu_3x3
I0403 16:07:52.456475 20747 net.cpp:91] Creating Layer inception_5a/relu_3x3
I0403 16:07:52.456492 20747 net.cpp:425] inception_5a/relu_3x3 <- inception_5a/3x3
I0403 16:07:52.456509 20747 net.cpp:386] inception_5a/relu_3x3 -> inception_5a/3x3 (in-place)
I0403 16:07:52.456804 20747 net.cpp:141] Setting up inception_5a/relu_3x3
I0403 16:07:52.456828 20747 net.cpp:148] Top shape: 24 320 7 7 (376320)
I0403 16:07:52.456843 20747 net.cpp:156] Memory required for data: 1299050016
I0403 16:07:52.456858 20747 layer_factory.hpp:77] Creating layer inception_5a/5x5_reduce
I0403 16:07:52.456881 20747 net.cpp:91] Creating Layer inception_5a/5x5_reduce
I0403 16:07:52.456897 20747 net.cpp:425] inception_5a/5x5_reduce <- pool4/3x3_s2_pool4/3x3_s2_0_split_2
I0403 16:07:52.456919 20747 net.cpp:399] inception_5a/5x5_reduce -> inception_5a/5x5_reduce
I0403 16:07:52.458119 20747 net.cpp:141] Setting up inception_5a/5x5_reduce
I0403 16:07:52.458147 20747 net.cpp:148] Top shape: 24 32 7 7 (37632)
I0403 16:07:52.458161 20747 net.cpp:156] Memory required for data: 1299200544
I0403 16:07:52.458179 20747 layer_factory.hpp:77] Creating layer inception_5a/relu_5x5_reduce
I0403 16:07:52.458199 20747 net.cpp:91] Creating Layer inception_5a/relu_5x5_reduce
I0403 16:07:52.458215 20747 net.cpp:425] inception_5a/relu_5x5_reduce <- inception_5a/5x5_reduce
I0403 16:07:52.458232 20747 net.cpp:386] inception_5a/relu_5x5_reduce -> inception_5a/5x5_reduce (in-place)
I0403 16:07:52.458525 20747 net.cpp:141] Setting up inception_5a/relu_5x5_reduce
I0403 16:07:52.458550 20747 net.cpp:148] Top shape: 24 32 7 7 (37632)
I0403 16:07:52.458565 20747 net.cpp:156] Memory required for data: 1299351072
I0403 16:07:52.458580 20747 layer_factory.hpp:77] Creating layer inception_5a/5x5
I0403 16:07:52.458600 20747 net.cpp:91] Creating Layer inception_5a/5x5
I0403 16:07:52.458617 20747 net.cpp:425] inception_5a/5x5 <- inception_5a/5x5_reduce
I0403 16:07:52.458637 20747 net.cpp:399] inception_5a/5x5 -> inception_5a/5x5
I0403 16:07:52.460320 20747 net.cpp:141] Setting up inception_5a/5x5
I0403 16:07:52.460360 20747 net.cpp:148] Top shape: 24 128 7 7 (150528)
I0403 16:07:52.460374 20747 net.cpp:156] Memory required for data: 1299953184
I0403 16:07:52.460392 20747 layer_factory.hpp:77] Creating layer inception_5a/relu_5x5
I0403 16:07:52.460412 20747 net.cpp:91] Creating Layer inception_5a/relu_5x5
I0403 16:07:52.460428 20747 net.cpp:425] inception_5a/relu_5x5 <- inception_5a/5x5
I0403 16:07:52.460445 20747 net.cpp:386] inception_5a/relu_5x5 -> inception_5a/5x5 (in-place)
I0403 16:07:52.460630 20747 net.cpp:141] Setting up inception_5a/relu_5x5
I0403 16:07:52.460654 20747 net.cpp:148] Top shape: 24 128 7 7 (150528)
I0403 16:07:52.460669 20747 net.cpp:156] Memory required for data: 1300555296
I0403 16:07:52.460682 20747 layer_factory.hpp:77] Creating layer inception_5a/pool
I0403 16:07:52.460701 20747 net.cpp:91] Creating Layer inception_5a/pool
I0403 16:07:52.460717 20747 net.cpp:425] inception_5a/pool <- pool4/3x3_s2_pool4/3x3_s2_0_split_3
I0403 16:07:52.460736 20747 net.cpp:399] inception_5a/pool -> inception_5a/pool
I0403 16:07:52.460805 20747 net.cpp:141] Setting up inception_5a/pool
I0403 16:07:52.460829 20747 net.cpp:148] Top shape: 24 832 7 7 (978432)
I0403 16:07:52.460841 20747 net.cpp:156] Memory required for data: 1304469024
I0403 16:07:52.460855 20747 layer_factory.hpp:77] Creating layer inception_5a/pool_proj
I0403 16:07:52.460876 20747 net.cpp:91] Creating Layer inception_5a/pool_proj
I0403 16:07:52.460892 20747 net.cpp:425] inception_5a/pool_proj <- inception_5a/pool
I0403 16:07:52.460912 20747 net.cpp:399] inception_5a/pool_proj -> inception_5a/pool_proj
I0403 16:07:52.463148 20747 net.cpp:141] Setting up inception_5a/pool_proj
I0403 16:07:52.463177 20747 net.cpp:148] Top shape: 24 128 7 7 (150528)
I0403 16:07:52.463193 20747 net.cpp:156] Memory required for data: 1305071136
I0403 16:07:52.463210 20747 layer_factory.hpp:77] Creating layer inception_5a/relu_pool_proj
I0403 16:07:52.463228 20747 net.cpp:91] Creating Layer inception_5a/relu_pool_proj
I0403 16:07:52.463244 20747 net.cpp:425] inception_5a/relu_pool_proj <- inception_5a/pool_proj
I0403 16:07:52.463263 20747 net.cpp:386] inception_5a/relu_pool_proj -> inception_5a/pool_proj (in-place)
I0403 16:07:52.463557 20747 net.cpp:141] Setting up inception_5a/relu_pool_proj
I0403 16:07:52.463582 20747 net.cpp:148] Top shape: 24 128 7 7 (150528)
I0403 16:07:52.463595 20747 net.cpp:156] Memory required for data: 1305673248
I0403 16:07:52.463609 20747 layer_factory.hpp:77] Creating layer inception_5a/output
I0403 16:07:52.463626 20747 net.cpp:91] Creating Layer inception_5a/output
I0403 16:07:52.463641 20747 net.cpp:425] inception_5a/output <- inception_5a/1x1
I0403 16:07:52.463657 20747 net.cpp:425] inception_5a/output <- inception_5a/3x3
I0403 16:07:52.463673 20747 net.cpp:425] inception_5a/output <- inception_5a/5x5
I0403 16:07:52.463688 20747 net.cpp:425] inception_5a/output <- inception_5a/pool_proj
I0403 16:07:52.463706 20747 net.cpp:399] inception_5a/output -> inception_5a/output
I0403 16:07:52.463755 20747 net.cpp:141] Setting up inception_5a/output
I0403 16:07:52.463780 20747 net.cpp:148] Top shape: 24 832 7 7 (978432)
I0403 16:07:52.463794 20747 net.cpp:156] Memory required for data: 1309586976
I0403 16:07:52.463809 20747 layer_factory.hpp:77] Creating layer inception_5a/output_inception_5a/output_0_split
I0403 16:07:52.463825 20747 net.cpp:91] Creating Layer inception_5a/output_inception_5a/output_0_split
I0403 16:07:52.463840 20747 net.cpp:425] inception_5a/output_inception_5a/output_0_split <- inception_5a/output
I0403 16:07:52.463856 20747 net.cpp:399] inception_5a/output_inception_5a/output_0_split -> inception_5a/output_inception_5a/output_0_split_0
I0403 16:07:52.463876 20747 net.cpp:399] inception_5a/output_inception_5a/output_0_split -> inception_5a/output_inception_5a/output_0_split_1
I0403 16:07:52.463897 20747 net.cpp:399] inception_5a/output_inception_5a/output_0_split -> inception_5a/output_inception_5a/output_0_split_2
I0403 16:07:52.463918 20747 net.cpp:399] inception_5a/output_inception_5a/output_0_split -> inception_5a/output_inception_5a/output_0_split_3
I0403 16:07:52.464032 20747 net.cpp:141] Setting up inception_5a/output_inception_5a/output_0_split
I0403 16:07:52.464056 20747 net.cpp:148] Top shape: 24 832 7 7 (978432)
I0403 16:07:52.464071 20747 net.cpp:148] Top shape: 24 832 7 7 (978432)
I0403 16:07:52.464085 20747 net.cpp:148] Top shape: 24 832 7 7 (978432)
I0403 16:07:52.464100 20747 net.cpp:148] Top shape: 24 832 7 7 (978432)
I0403 16:07:52.464113 20747 net.cpp:156] Memory required for data: 1325241888
I0403 16:07:52.464126 20747 layer_factory.hpp:77] Creating layer inception_5b/1x1
I0403 16:07:52.464148 20747 net.cpp:91] Creating Layer inception_5b/1x1
I0403 16:07:52.464164 20747 net.cpp:425] inception_5b/1x1 <- inception_5a/output_inception_5a/output_0_split_0
I0403 16:07:52.464184 20747 net.cpp:399] inception_5b/1x1 -> inception_5b/1x1
I0403 16:07:52.467852 20747 net.cpp:141] Setting up inception_5b/1x1
I0403 16:07:52.467885 20747 net.cpp:148] Top shape: 24 384 7 7 (451584)
I0403 16:07:52.467901 20747 net.cpp:156] Memory required for data: 1327048224
I0403 16:07:52.467919 20747 layer_factory.hpp:77] Creating layer inception_5b/relu_1x1
I0403 16:07:52.467936 20747 net.cpp:91] Creating Layer inception_5b/relu_1x1
I0403 16:07:52.467952 20747 net.cpp:425] inception_5b/relu_1x1 <- inception_5b/1x1
I0403 16:07:52.467972 20747 net.cpp:386] inception_5b/relu_1x1 -> inception_5b/1x1 (in-place)
I0403 16:07:52.468279 20747 net.cpp:141] Setting up inception_5b/relu_1x1
I0403 16:07:52.468307 20747 net.cpp:148] Top shape: 24 384 7 7 (451584)
I0403 16:07:52.468322 20747 net.cpp:156] Memory required for data: 1328854560
I0403 16:07:52.468336 20747 layer_factory.hpp:77] Creating layer inception_5b/3x3_reduce
I0403 16:07:52.468358 20747 net.cpp:91] Creating Layer inception_5b/3x3_reduce
I0403 16:07:52.468376 20747 net.cpp:425] inception_5b/3x3_reduce <- inception_5a/output_inception_5a/output_0_split_1
I0403 16:07:52.468394 20747 net.cpp:399] inception_5b/3x3_reduce -> inception_5b/3x3_reduce
I0403 16:07:52.470990 20747 net.cpp:141] Setting up inception_5b/3x3_reduce
I0403 16:07:52.471021 20747 net.cpp:148] Top shape: 24 192 7 7 (225792)
I0403 16:07:52.471038 20747 net.cpp:156] Memory required for data: 1329757728
I0403 16:07:52.471055 20747 layer_factory.hpp:77] Creating layer inception_5b/relu_3x3_reduce
I0403 16:07:52.471073 20747 net.cpp:91] Creating Layer inception_5b/relu_3x3_reduce
I0403 16:07:52.471091 20747 net.cpp:425] inception_5b/relu_3x3_reduce <- inception_5b/3x3_reduce
I0403 16:07:52.471109 20747 net.cpp:386] inception_5b/relu_3x3_reduce -> inception_5b/3x3_reduce (in-place)
I0403 16:07:52.471298 20747 net.cpp:141] Setting up inception_5b/relu_3x3_reduce
I0403 16:07:52.471323 20747 net.cpp:148] Top shape: 24 192 7 7 (225792)
I0403 16:07:52.471336 20747 net.cpp:156] Memory required for data: 1330660896
I0403 16:07:52.471350 20747 layer_factory.hpp:77] Creating layer inception_5b/3x3
I0403 16:07:52.471371 20747 net.cpp:91] Creating Layer inception_5b/3x3
I0403 16:07:52.471388 20747 net.cpp:425] inception_5b/3x3 <- inception_5b/3x3_reduce
I0403 16:07:52.471410 20747 net.cpp:399] inception_5b/3x3 -> inception_5b/3x3
I0403 16:07:52.478190 20747 net.cpp:141] Setting up inception_5b/3x3
I0403 16:07:52.478219 20747 net.cpp:148] Top shape: 24 384 7 7 (451584)
I0403 16:07:52.478235 20747 net.cpp:156] Memory required for data: 1332467232
I0403 16:07:52.478252 20747 layer_factory.hpp:77] Creating layer inception_5b/relu_3x3
I0403 16:07:52.478271 20747 net.cpp:91] Creating Layer inception_5b/relu_3x3
I0403 16:07:52.478286 20747 net.cpp:425] inception_5b/relu_3x3 <- inception_5b/3x3
I0403 16:07:52.478307 20747 net.cpp:386] inception_5b/relu_3x3 -> inception_5b/3x3 (in-place)
I0403 16:07:52.478611 20747 net.cpp:141] Setting up inception_5b/relu_3x3
I0403 16:07:52.478637 20747 net.cpp:148] Top shape: 24 384 7 7 (451584)
I0403 16:07:52.478652 20747 net.cpp:156] Memory required for data: 1334273568
I0403 16:07:52.478667 20747 layer_factory.hpp:77] Creating layer inception_5b/5x5_reduce
I0403 16:07:52.478704 20747 net.cpp:91] Creating Layer inception_5b/5x5_reduce
I0403 16:07:52.478724 20747 net.cpp:425] inception_5b/5x5_reduce <- inception_5a/output_inception_5a/output_0_split_2
I0403 16:07:52.478744 20747 net.cpp:399] inception_5b/5x5_reduce -> inception_5b/5x5_reduce
I0403 16:07:52.480037 20747 net.cpp:141] Setting up inception_5b/5x5_reduce
I0403 16:07:52.480067 20747 net.cpp:148] Top shape: 24 48 7 7 (56448)
I0403 16:07:52.480083 20747 net.cpp:156] Memory required for data: 1334499360
I0403 16:07:52.480101 20747 layer_factory.hpp:77] Creating layer inception_5b/relu_5x5_reduce
I0403 16:07:52.480119 20747 net.cpp:91] Creating Layer inception_5b/relu_5x5_reduce
I0403 16:07:52.480134 20747 net.cpp:425] inception_5b/relu_5x5_reduce <- inception_5b/5x5_reduce
I0403 16:07:52.480154 20747 net.cpp:386] inception_5b/relu_5x5_reduce -> inception_5b/5x5_reduce (in-place)
I0403 16:07:52.480530 20747 net.cpp:141] Setting up inception_5b/relu_5x5_reduce
I0403 16:07:52.480556 20747 net.cpp:148] Top shape: 24 48 7 7 (56448)
I0403 16:07:52.480571 20747 net.cpp:156] Memory required for data: 1334725152
I0403 16:07:52.480586 20747 layer_factory.hpp:77] Creating layer inception_5b/5x5
I0403 16:07:52.480605 20747 net.cpp:91] Creating Layer inception_5b/5x5
I0403 16:07:52.480623 20747 net.cpp:425] inception_5b/5x5 <- inception_5b/5x5_reduce
I0403 16:07:52.480640 20747 net.cpp:399] inception_5b/5x5 -> inception_5b/5x5
I0403 16:07:52.482703 20747 net.cpp:141] Setting up inception_5b/5x5
I0403 16:07:52.482730 20747 net.cpp:148] Top shape: 24 128 7 7 (150528)
I0403 16:07:52.482745 20747 net.cpp:156] Memory required for data: 1335327264
I0403 16:07:52.482764 20747 layer_factory.hpp:77] Creating layer inception_5b/relu_5x5
I0403 16:07:52.482781 20747 net.cpp:91] Creating Layer inception_5b/relu_5x5
I0403 16:07:52.482798 20747 net.cpp:425] inception_5b/relu_5x5 <- inception_5b/5x5
I0403 16:07:52.482817 20747 net.cpp:386] inception_5b/relu_5x5 -> inception_5b/5x5 (in-place)
I0403 16:07:52.483013 20747 net.cpp:141] Setting up inception_5b/relu_5x5
I0403 16:07:52.483042 20747 net.cpp:148] Top shape: 24 128 7 7 (150528)
I0403 16:07:52.483057 20747 net.cpp:156] Memory required for data: 1335929376
I0403 16:07:52.483070 20747 layer_factory.hpp:77] Creating layer inception_5b/pool
I0403 16:07:52.483090 20747 net.cpp:91] Creating Layer inception_5b/pool
I0403 16:07:52.483108 20747 net.cpp:425] inception_5b/pool <- inception_5a/output_inception_5a/output_0_split_3
I0403 16:07:52.483125 20747 net.cpp:399] inception_5b/pool -> inception_5b/pool
I0403 16:07:52.483199 20747 net.cpp:141] Setting up inception_5b/pool
I0403 16:07:52.483223 20747 net.cpp:148] Top shape: 24 832 7 7 (978432)
I0403 16:07:52.483237 20747 net.cpp:156] Memory required for data: 1339843104
I0403 16:07:52.483252 20747 layer_factory.hpp:77] Creating layer inception_5b/pool_proj
I0403 16:07:52.483273 20747 net.cpp:91] Creating Layer inception_5b/pool_proj
I0403 16:07:52.483290 20747 net.cpp:425] inception_5b/pool_proj <- inception_5b/pool
I0403 16:07:52.483311 20747 net.cpp:399] inception_5b/pool_proj -> inception_5b/pool_proj
I0403 16:07:52.485628 20747 net.cpp:141] Setting up inception_5b/pool_proj
I0403 16:07:52.485657 20747 net.cpp:148] Top shape: 24 128 7 7 (150528)
I0403 16:07:52.485672 20747 net.cpp:156] Memory required for data: 1340445216
I0403 16:07:52.485690 20747 layer_factory.hpp:77] Creating layer inception_5b/relu_pool_proj
I0403 16:07:52.485708 20747 net.cpp:91] Creating Layer inception_5b/relu_pool_proj
I0403 16:07:52.485724 20747 net.cpp:425] inception_5b/relu_pool_proj <- inception_5b/pool_proj
I0403 16:07:52.485743 20747 net.cpp:386] inception_5b/relu_pool_proj -> inception_5b/pool_proj (in-place)
I0403 16:07:52.486045 20747 net.cpp:141] Setting up inception_5b/relu_pool_proj
I0403 16:07:52.486073 20747 net.cpp:148] Top shape: 24 128 7 7 (150528)
I0403 16:07:52.486088 20747 net.cpp:156] Memory required for data: 1341047328
I0403 16:07:52.486102 20747 layer_factory.hpp:77] Creating layer inception_5b/output
I0403 16:07:52.486119 20747 net.cpp:91] Creating Layer inception_5b/output
I0403 16:07:52.486150 20747 net.cpp:425] inception_5b/output <- inception_5b/1x1
I0403 16:07:52.486167 20747 net.cpp:425] inception_5b/output <- inception_5b/3x3
I0403 16:07:52.486184 20747 net.cpp:425] inception_5b/output <- inception_5b/5x5
I0403 16:07:52.486199 20747 net.cpp:425] inception_5b/output <- inception_5b/pool_proj
I0403 16:07:52.486219 20747 net.cpp:399] inception_5b/output -> inception_5b/output
I0403 16:07:52.486271 20747 net.cpp:141] Setting up inception_5b/output
I0403 16:07:52.486295 20747 net.cpp:148] Top shape: 24 1024 7 7 (1204224)
I0403 16:07:52.486310 20747 net.cpp:156] Memory required for data: 1345864224
I0403 16:07:52.486325 20747 layer_factory.hpp:77] Creating layer pool5/7x7_s1
I0403 16:07:52.486345 20747 net.cpp:91] Creating Layer pool5/7x7_s1
I0403 16:07:52.486361 20747 net.cpp:425] pool5/7x7_s1 <- inception_5b/output
I0403 16:07:52.486382 20747 net.cpp:399] pool5/7x7_s1 -> pool5/7x7_s1
I0403 16:07:52.486598 20747 net.cpp:141] Setting up pool5/7x7_s1
I0403 16:07:52.486624 20747 net.cpp:148] Top shape: 24 1024 1 1 (24576)
I0403 16:07:52.486639 20747 net.cpp:156] Memory required for data: 1345962528
I0403 16:07:52.486654 20747 layer_factory.hpp:77] Creating layer pool5/drop_7x7_s1
I0403 16:07:52.486670 20747 net.cpp:91] Creating Layer pool5/drop_7x7_s1
I0403 16:07:52.486686 20747 net.cpp:425] pool5/drop_7x7_s1 <- pool5/7x7_s1
I0403 16:07:52.486706 20747 net.cpp:386] pool5/drop_7x7_s1 -> pool5/7x7_s1 (in-place)
I0403 16:07:52.486757 20747 net.cpp:141] Setting up pool5/drop_7x7_s1
I0403 16:07:52.486784 20747 net.cpp:148] Top shape: 24 1024 1 1 (24576)
I0403 16:07:52.486799 20747 net.cpp:156] Memory required for data: 1346060832
I0403 16:07:52.486814 20747 layer_factory.hpp:77] Creating layer loss3/classifier_plantvillage
I0403 16:07:52.486832 20747 net.cpp:91] Creating Layer loss3/classifier_plantvillage
I0403 16:07:52.486848 20747 net.cpp:425] loss3/classifier_plantvillage <- pool5/7x7_s1
I0403 16:07:52.486870 20747 net.cpp:399] loss3/classifier_plantvillage -> loss3/classifier_plantvillage
I0403 16:07:52.487305 20747 net.cpp:141] Setting up loss3/classifier_plantvillage
I0403 16:07:52.487332 20747 net.cpp:148] Top shape: 24 38 (912)
I0403 16:07:52.487347 20747 net.cpp:156] Memory required for data: 1346064480
I0403 16:07:52.487365 20747 layer_factory.hpp:77] Creating layer loss3/classifier_plantvillage_loss3/classifier_plantvillage_0_split
I0403 16:07:52.487383 20747 net.cpp:91] Creating Layer loss3/classifier_plantvillage_loss3/classifier_plantvillage_0_split
I0403 16:07:52.487399 20747 net.cpp:425] loss3/classifier_plantvillage_loss3/classifier_plantvillage_0_split <- loss3/classifier_plantvillage
I0403 16:07:52.487416 20747 net.cpp:399] loss3/classifier_plantvillage_loss3/classifier_plantvillage_0_split -> loss3/classifier_plantvillage_loss3/classifier_plantvillage_0_split_0
I0403 16:07:52.487437 20747 net.cpp:399] loss3/classifier_plantvillage_loss3/classifier_plantvillage_0_split -> loss3/classifier_plantvillage_loss3/classifier_plantvillage_0_split_1
I0403 16:07:52.487458 20747 net.cpp:399] loss3/classifier_plantvillage_loss3/classifier_plantvillage_0_split -> loss3/classifier_plantvillage_loss3/classifier_plantvillage_0_split_2
I0403 16:07:52.487479 20747 net.cpp:399] loss3/classifier_plantvillage_loss3/classifier_plantvillage_0_split -> loss3/classifier_plantvillage_loss3/classifier_plantvillage_0_split_3
I0403 16:07:52.487581 20747 net.cpp:141] Setting up loss3/classifier_plantvillage_loss3/classifier_plantvillage_0_split
I0403 16:07:52.487604 20747 net.cpp:148] Top shape: 24 38 (912)
I0403 16:07:52.487619 20747 net.cpp:148] Top shape: 24 38 (912)
I0403 16:07:52.487634 20747 net.cpp:148] Top shape: 24 38 (912)
I0403 16:07:52.487649 20747 net.cpp:148] Top shape: 24 38 (912)
I0403 16:07:52.487663 20747 net.cpp:156] Memory required for data: 1346079072
I0403 16:07:52.487678 20747 layer_factory.hpp:77] Creating layer loss1/loss
I0403 16:07:52.487700 20747 net.cpp:91] Creating Layer loss1/loss
I0403 16:07:52.487717 20747 net.cpp:425] loss1/loss <- loss1/classifier_plantvillage_loss1/classifier_plantvillage_0_split_0
I0403 16:07:52.487748 20747 net.cpp:425] loss1/loss <- label_data_1_split_0
…
