…
I0403 16:46:27.557837 21436 net.cpp:313] The NetState phase (1) differed from the phase (0) specified by a rule in layer data
I0403 16:46:27.559114 21436 net.cpp:49] Initializing net from parameters: 
state {
  phase: TEST
}
layer {
  name: "data"
  type: "Data"
  top: "data"
  top: "label"
  include {
    phase: TEST
  }
  transform_param {
    mirror: false
    crop_size: 224
    mean_file: "/home/mohanty/data/final_dataset/lmdb/grayscale-20-80/mean.binaryproto"
  }
  data_param {
    source: "/home/mohanty/data/final_dataset/lmdb/grayscale-20-80/test_db"
    batch_size: 24
    backend: LMDB
  }
}
layer {
  name: "conv1/7x7_s2"
  type: "Convolution"
  bottom: "data"
  top: "conv1/7x7_s2"
  param {
    lr_mult: 1
    decay_mult: 1
  }
  param {
    lr_mult: 2
    decay_mult: 0
  }
  convolution_param {
    num_output: 64
    pad: 3
    kernel_size: 7
    stride: 2
    weight_filler {
      type: "xavier"
      std: 0.1
    }
    bias_filler {
      type: "constant"
      value: 0.2
    }
  }
}
layer {
  name: "conv1/relu_7x7"
  type: "ReLU"
  bottom: "conv1/7x7_s2"
  top: "conv1/7x7_s2"
}
layer {
  name: "pool1/3x3_s2"
  type: "Pooling"
  bottom: "conv1/7x7_s2"
  top: "pool1/3x3_s2"
  pooling_param {
    pool: MAX
    kernel_size: 3
    stride: 2
  }
}
layer {
  name: "pool1/norm1"
  type: "LRN"
  bottom: "pool1/3x3_s2"
  top: "pool1/norm1"
  lrn_param {
    local_size: 5
    alpha: 0.0001
    beta: 0.75
  }
}
layer {
  name: "conv2/3x3_reduce"
  type: "Convolution"
  bottom: "pool1/norm1"
  top: "conv2/3x3_reduce"
  param {
    lr_mult: 1
    decay_mult: 1
  }
  param {
    lr_mult: 2
    decay_mult: 0
  }
  convolution_param {
    num_output: 64
    kernel_size: 1
    weight_filler {
      type: "xavier"
      std: 0.1
    }
    bias_filler {
      type: "constant"
      value: 0.2
    }
  }
}
layer {
  name: "conv2/relu_3x3_reduce"
  type: "ReLU"
  bottom: "conv2/3x3_reduce"
  top: "conv2/3x3_reduce"
}
layer {
  name: "conv2/3x3"
  type: "Convolution"
  bottom: "conv2/3x3_reduce"
  top: "conv2/3x3"
  param {
    lr_mult: 1
    decay_mult: 1
  }
  param {
    lr_mult: 2
    decay_mult: 0
  }
  convolution_param {
    num_output: 192
    pad: 1
    kernel_size: 3
    weight_filler {
      type: "xavier"
      std: 0.03
    }
    bias_filler {
      type: "constant"
      value: 0.2
    }
  }
}
layer {
  name: "conv2/relu_3x3"
  type: "ReLU"
  bottom: "conv2/3x3"
  top: "conv2/3x3"
}
layer {
  name: "conv2/norm2"
  type: "LRN"
  bottom: "conv2/3x3"
  top: "conv2/norm2"
  lrn_param {
    local_size: 5
    alpha: 0.0001
    beta: 0.75
  }
}
layer {
  name: "pool2/3x3_s2"
  type: "Pooling"
  bottom: "conv2/norm2"
  top: "pool2/3x3_s2"
  pooling_param {
    pool: MAX
    kernel_size: 3
    stride: 2
  }
}
layer {
  name: "inception_3a/1x1"
  type: "Convolution"
  bottom: "pool2/3x3_s2"
  top: "inception_3a/1x1"
  param {
    lr_mult: 1
    decay_mult: 1
  }
  param {
    lr_mult: 2
    decay_mult: 0
  }
  convolution_param {
    num_output: 64
    kernel_size: 1
    weight_filler {
      type: "xavier"
      std: 0.03
    }
    bias_filler {
      type: "constant"
      value: 0.2
    }
  }
}
layer {
  name: "inception_3a/relu_1x1"
  type: "ReLU"
  bottom: "inception_3a/1x1"
  top: "inception_3a/1x1"
}
layer {
  name: "inception_3a/3x3_reduce"
  type: "Convolution"
  bottom: "pool2/3x3_s2"
  top: "inception_3a/3x3_reduce"
  param {
    lr_mult: 1
    decay_mult: 1
  }
  param {
    lr_mult: 2
    decay_mult: 0
  }
  convolution_param {
    num_output: 96
    kernel_size: 1
    weight_filler {
      type: "xavier"
      std: 0.09
    }
    bias_filler {
      type: "constant"
      value: 0.2
    }
  }
}
layer {
  name: "inception_3a/relu_3x3_reduce"
  type: "ReLU"
  bottom: "inception_3a/3x3_reduce"
  top: "inception_3a/3x3_reduce"
}
layer {
  name: "inception_3a/3x3"
  type: "Convolution"
  bottom: "inception_3a/3x3_reduce"
  top: "inception_3a/3x3"
  param {
    lr_mult: 1
    decay_mult: 1
  }
  param {
    lr_mult: 2
    decay_mult: 0
  }
  convolution_param {
    num_output: 128
    pad: 1
    kernel_size: 3
    weight_filler {
      type: "xavier"
      std: 0.03
    }
    bias_filler {
      type: "constant"
      value: 0.2
    }
  }
}
layer {
  name: "inception_3a/relu_3x3"
  type: "ReLU"
  bottom: "inception_3a/3x3"
  top: "inception_3a/3x3"
}
layer {
  name: "inception_3a/5x5_reduce"
  type: "Convolution"
  bottom: "pool2/3x3_s2"
  top: "inception_3a/5x5_reduce"
  param {
    lr_mult: 1
    decay_mult: 1
  }
  param {
    lr_mult: 2
    decay_mult: 0
  }
  convolution_param {
    num_output: 16
    kernel_size: 1
    weight_filler {
      type: "xavier"
      std: 0.2
    }
    bias_filler {
      type: "constant"
      value: 0.2
    }
  }
}
layer {
  name: "inception_3a/relu_5x5_reduce"
  type: "ReLU"
  bottom: "inception_3a/5x5_reduce"
  top: "inception_3a/5x5_reduce"
}
layer {
  name: "inception_3a/5x5"
  type: "Convolution"
  bottom: "inception_3a/5x5_reduce"
  top: "inception_3a/5x5"
  param {
    lr_mult: 1
    decay_mult: 1
  }
  param {
    lr_mult: 2
    decay_mult: 0
  }
  convolution_param {
    num_output: 32
    pad: 2
    kernel_size: 5
    weight_filler {
      type: "xavier"
      std: 0.03
    }
    bias_filler {
      type: "constant"
      value: 0.2
    }
  }
}
layer {
  name: "inception_3a/relu_5x5"
  type: "ReLU"
  bottom: "inception_3a/5x5"
  top: "inception_3a/5x5"
}
layer {
  name: "inception_3a/pool"
  type: "Pooling"
  bottom: "pool2/3x3_s2"
  top: "inception_3a/pool"
  pooling_param {
    pool: MAX
    kernel_size: 3
    stride: 1
    pad: 1
  }
}
layer {
  name: "inception_3a/pool_proj"
  type: "Convolution"
  bottom: "inception_3a/pool"
  top: "inception_3a/pool_proj"
  param {
    lr_mult: 1
    decay_mult: 1
  }
  param {
    lr_mult: 2
    decay_mult: 0
  }
  convolution_param {
    num_output: 32
    kernel_size: 1
    weight_filler {
      type: "xavier"
      std: 0.1
    }
    bias_filler {
      type: "constant"
      value: 0.2
    }
  }
}
layer {
  name: "inception_3a/relu_pool_proj"
  type: "ReLU"
  bottom: "inception_3a/pool_proj"
  top: "inception_3a/pool_proj"
}
layer {
  name: "inception_3a/output"
  type: "Concat"
  bottom: "inception_3a/1x1"
  bottom: "inception_3a/3x3"
  bottom: "inception_3a/5x5"
  bottom: "inception_3a/pool_proj"
  top: "inception_3a/output"
}
layer {
  name: "inception_3b/1x1"
  type: "Convolution"
  bottom: "inception_3a/output"
  top: "inception_3b/1x1"
  param {
    lr_mult: 1
    decay_mult: 1
  }
  param {
    lr_mult: 2
    decay_mult: 0
  }
  convolution_param {
    num_output: 128
    kernel_size: 1
    weight_filler {
      type: "xavier"
      std: 0.03
    }
    bias_filler {
      type: "constant"
      value: 0.2
    }
  }
}
layer {
  name: "inception_3b/relu_1x1"
  type: "ReLU"
  bottom: "inception_3b/1x1"
  top: "inception_3b/1x1"
}
layer {
  name: "inception_3b/3x3_reduce"
  type: "Convolution"
  bottom: "inception_3a/output"
  top: "inception_3b/3x3_reduce"
  param {
    lr_mult: 1
    decay_mult: 1
  }
  param {
    lr_mult: 2
    decay_mult: 0
  }
  convolution_param {
    num_output: 128
    kernel_size: 1
    weight_filler {
      type: "xavier"
      std: 0.09
    }
    bias_filler {
      type: "constant"
      value: 0.2
    }
  }
}
layer {
  name: "inception_3b/relu_3x3_reduce"
  type: "ReLU"
  bottom: "inception_3b/3x3_reduce"
  top: "inception_3b/3x3_reduce"
}
layer {
  name: "inception_3b/3x3"
  type: "Convolution"
  bottom: "inception_3b/3x3_reduce"
  top: "inception_3b/3x3"
  param {
    lr_mult: 1
    decay_mult: 1
  }
  param {
    lr_mult: 2
    decay_mult: 0
  }
  convolution_param {
    num_output: 192
    pad: 1
    kernel_size: 3
    weight_filler {
      type: "xavier"
      std: 0.03
    }
    bias_filler {
      type: "constant"
      value: 0.2
    }
  }
}
layer {
  name: "inception_3b/relu_3x3"
  type: "ReLU"
  bottom: "inception_3b/3x3"
  top: "inception_3b/3x3"
}
layer {
  name: "inception_3b/5x5_reduce"
  type: "Convolution"
  bottom: "inception_3a/output"
  top: "inception_3b/5x5_reduce"
  param {
    lr_mult: 1
    decay_mult: 1
  }
  param {
    lr_mult: 2
    decay_mult: 0
  }
  convolution_param {
    num_output: 32
    kernel_size: 1
    weight_filler {
      type: "xavier"
      std: 0.2
    }
    bias_filler {
      type: "constant"
      value: 0.2
    }
  }
}
layer {
  name: "inception_3b/relu_5x5_reduce"
  type: "ReLU"
  bottom: "inception_3b/5x5_reduce"
  top: "inception_3b/5x5_reduce"
}
layer {
  name: "inception_3b/5x5"
  type: "Convolution"
  bottom: "inception_3b/5x5_reduce"
  top: "inception_3b/5x5"
  param {
    lr_mult: 1
    decay_mult: 1
  }
  param {
    lr_mult: 2
    decay_mult: 0
  }
  convolution_param {
    num_output: 96
    pad: 2
    kernel_size: 5
    weight_filler {
      type: "xavier"
      std: 0.03
    }
    bias_filler {
      type: "constant"
      value: 0.2
    }
  }
}
layer {
  name: "inception_3b/relu_5x5"
  type: "ReLU"
  bottom: "inception_3b/5x5"
  top: "inception_3b/5x5"
}
layer {
  name: "inception_3b/pool"
  type: "Pooling"
  bottom: "inception_3a/output"
  top: "inception_3b/pool"
  pooling_param {
    pool: MAX
    kernel_size: 3
    stride: 1
    pad: 1
  }
}
layer {
  name: "inception_3b/pool_proj"
  type: "Convolution"
  bottom: "inception_3b/pool"
  top: "inception_3b/pool_proj"
  param {
    lr_mult: 1
    decay_mult: 1
  }
  param {
    lr_mult: 2
    decay_mult: 0
  }
  convolution_param {
    num_output: 64
    kernel_size: 1
    weight_filler {
      type: "xavier"
      std: 0.1
    }
    bias_filler {
      type: "constant"
      value: 0.2
    }
  }
}
layer {
  name: "inception_3b/relu_pool_proj"
  type: "ReLU"
  bottom: "inception_3b/pool_proj"
  top: "inception_3b/pool_proj"
}
layer {
  name: "inception_3b/output"
  type: "Concat"
  bottom: "inception_3b/1x1"
  bottom: "inception_3b/3x3"
  bottom: "inception_3b/5x5"
  bottom: "inception_3b/pool_proj"
  top: "inception_3b/output"
}
layer {
  name: "pool3/3x3_s2"
  type: "Pooling"
  bottom: "inception_3b/output"
  top: "pool3/3x3_s2"
  pooling_param {
    pool: MAX
    kernel_size: 3
    stride: 2
  }
}
layer {
  name: "inception_4a/1x1"
  type: "Convolution"
  bottom: "pool3/3x3_s2"
  top: "inception_4a/1x1"
  param {
    lr_mult: 1
    decay_mult: 1
  }
  param {
    lr_mult: 2
    decay_mult: 0
  }
  convolution_param {
    num_output: 192
    kernel_size: 1
    weight_filler {
      type: "xavier"
      std: 0.03
    }
    bias_filler {
      type: "constant"
      value: 0.2
    }
  }
}
layer {
  name: "inception_4a/relu_1x1"
  type: "ReLU"
  bottom: "inception_4a/1x1"
  top: "inception_4a/1x1"
}
layer {
  name: "inception_4a/3x3_reduce"
  type: "Convolution"
  bottom: "pool3/3x3_s2"
  top: "inception_4a/3x3_reduce"
  param {
    lr_mult: 1
    decay_mult: 1
  }
  param {
    lr_mult: 2
    decay_mult: 0
  }
  convolution_param {
    num_output: 96
    kernel_size: 1
    weight_filler {
      type: "xavier"
      std: 0.09
    }
    bias_filler {
      type: "constant"
      value: 0.2
    }
  }
}
layer {
  name: "inception_4a/relu_3x3_reduce"
  type: "ReLU"
  bottom: "inception_4a/3x3_reduce"
  top: "inception_4a/3x3_reduce"
}
layer {
  name: "inception_4a/3x3"
  type: "Convolution"
  bottom: "inception_4a/3x3_reduce"
  top: "inception_4a/3x3"
  param {
    lr_mult: 1
    decay_mult: 1
  }
  param {
    lr_mult: 2
    decay_mult: 0
  }
  convolution_param {
    num_output: 208
    pad: 1
    kernel_size: 3
    weight_filler {
      type: "xavier"
      std: 0.03
    }
    bias_filler {
      type: "constant"
      value: 0.2
    }
  }
}
layer {
  name: "inception_4a/relu_3x3"
  type: "ReLU"
  bottom: "inception_4a/3x3"
  top: "inception_4a/3x3"
}
layer {
  name: "inception_4a/5x5_reduce"
  type: "Convolution"
  bottom: "pool3/3x3_s2"
  top: "inception_4a/5x5_reduce"
  param {
    lr_mult: 1
    decay_mult: 1
  }
  param {
    lr_mult: 2
    decay_mult: 0
  }
  convolution_param {
    num_output: 16
    kernel_size: 1
    weight_filler {
      type: "xavier"
      std: 0.2
    }
    bias_filler {
      type: "constant"
      value: 0.2
    }
  }
}
layer {
  name: "inception_4a/relu_5x5_reduce"
  type: "ReLU"
  bottom: "inception_4a/5x5_reduce"
  top: "inception_4a/5x5_reduce"
}
layer {
  name: "inception_4a/5x5"
  type: "Convolution"
  bottom: "inception_4a/5x5_reduce"
  top: "inception_4a/5x5"
  param {
    lr_mult: 1
    decay_mult: 1
  }
  param {
    lr_mult: 2
    decay_mult: 0
  }
  convolution_param {
    num_output: 48
    pad: 2
    kernel_size: 5
    weight_filler {
      type: "xavier"
      std: 0.03
    }
    bias_filler {
      type: "constant"
      value: 0.2
    }
  }
}
layer {
  name: "inception_4a/relu_5x5"
  type: "ReLU"
  bottom: "inception_4a/5x5"
  top: "inception_4a/5x5"
}
layer {
  name: "inception_4a/pool"
  type: "Pooling"
  bottom: "pool3/3x3_s2"
  top: "inception_4a/pool"
  pooling_param {
    pool: MAX
    kernel_size: 3
    stride: 1
    pad: 1
  }
}
layer {
  name: "inception_4a/pool_proj"
  type: "Convolution"
  bottom: "inception_4a/pool"
  top: "inception_4a/pool_proj"
  param {
    lr_mult: 1
    decay_mult: 1
  }
  param {
    lr_mult: 2
    decay_mult: 0
  }
  convolution_param {
    num_output: 64
    kernel_size: 1
    weight_filler {
      type: "xavier"
      std: 0.1
    }
    bias_filler {
      type: "constant"
      value: 0.2
    }
  }
}
layer {
  name: "inception_4a/relu_pool_proj"
  type: "ReLU"
  bottom: "inception_4a/pool_proj"
  top: "inception_4a/pool_proj"
}
layer {
  name: "inception_4a/output"
  type: "Concat"
  bottom: "inception_4a/1x1"
  bottom: "inception_4a/3x3"
  bottom: "inception_4a/5x5"
  bottom: "inception_4a/pool_proj"
  top: "inception_4a/output"
}
layer {
  name: "loss1/ave_pool"
  type: "Pooling"
  bottom: "inception_4a/output"
  top: "loss1/ave_pool"
  pooling_param {
    pool: AVE
    kernel_size: 5
    stride: 3
  }
}
layer {
  name: "loss1/conv"
  type: "Convolution"
  bottom: "loss1/ave_pool"
  top: "loss1/conv"
  param {
    lr_mult: 1
    decay_mult: 1
  }
  param {
    lr_mult: 2
    decay_mult: 0
  }
  convolution_param {
    num_output: 128
    kernel_size: 1
    weight_filler {
      type: "xavier"
      std: 0.08
    }
    bias_filler {
      type: "constant"
      value: 0.2
    }
  }
}
layer {
  name: "loss1/relu_conv"
  type: "ReLU"
  bottom: "loss1/conv"
  top: "loss1/conv"
}
layer {
  name: "loss1/fc"
  type: "InnerProduct"
  bottom: "loss1/conv"
  top: "loss1/fc"
  param {
    lr_mult: 1
    decay_mult: 1
  }
  param {
    lr_mult: 2
    decay_mult: 0
  }
  inner_product_param {
    num_output: 1024
    weight_filler {
      type: "xavier"
      std: 0.02
    }
    bias_filler {
      type: "constant"
      value: 0.2
    }
  }
}
layer {
  name: "loss1/relu_fc"
  type: "ReLU"
  bottom: "loss1/fc"
  top: "loss1/fc"
}
layer {
  name: "loss1/drop_fc"
  type: "Dropout"
  bottom: "loss1/fc"
  top: "loss1/fc"
  dropout_param {
    dropout_ratio: 0.7
  }
}
layer {
  name: "loss1/classifier_plantvillage"
  type: "InnerProduct"
  bottom: "loss1/fc"
  top: "loss1/classifier_plantvillage"
  param {
    lr_mult: 1
    decay_mult: 1
  }
  param {
    lr_mult: 2
    decay_mult: 0
  }
  inner_product_param {
    num_output: 38
    weight_filler {
      type: "xavier"
      std: 0.0009765625
    }
    bias_filler {
      type: "constant"
      value: 0
    }
  }
}
layer {
  name: "inception_4b/1x1"
  type: "Convolution"
  bottom: "inception_4a/output"
  top: "inception_4b/1x1"
  param {
    lr_mult: 1
    decay_mult: 1
  }
  param {
    lr_mult: 2
    decay_mult: 0
  }
  convolution_param {
    num_output: 160
    kernel_size: 1
    weight_filler {
      type: "xavier"
      std: 0.03
    }
    bias_filler {
      type: "constant"
      value: 0.2
    }
  }
}
layer {
  name: "inception_4b/relu_1x1"
  type: "ReLU"
  bottom: "inception_4b/1x1"
  top: "inception_4b/1x1"
}
layer {
  name: "inception_4b/3x3_reduce"
  type: "Convolution"
  bottom: "inception_4a/output"
  top: "inception_4b/3x3_reduce"
  param {
    lr_mult: 1
    decay_mult: 1
  }
  param {
    lr_mult: 2
    decay_mult: 0
  }
  convolution_param {
    num_output: 112
    kernel_size: 1
    weight_filler {
      type: "xavier"
      std: 0.09
    }
    bias_filler {
      type: "constant"
      value: 0.2
    }
  }
}
layer {
  name: "inception_4b/relu_3x3_reduce"
  type: "ReLU"
  bottom: "inception_4b/3x3_reduce"
  top: "inception_4b/3x3_reduce"
}
layer {
  name: "inception_4b/3x3"
  type: "Convolution"
  bottom: "inception_4b/3x3_reduce"
  top: "inception_4b/3x3"
  param {
    lr_mult: 1
    decay_mult: 1
  }
  param {
    lr_mult: 2
    decay_mult: 0
  }
  convolution_param {
    num_output: 224
    pad: 1
    kernel_size: 3
    weight_filler {
      type: "xavier"
      std: 0.03
    }
    bias_filler {
      type: "constant"
      value: 0.2
    }
  }
}
layer {
  name: "inception_4b/relu_3x3"
  type: "ReLU"
  bottom: "inception_4b/3x3"
  top: "inception_4b/3x3"
}
layer {
  name: "inception_4b/5x5_reduce"
  type: "Convolution"
  bottom: "inception_4a/output"
  top: "inception_4b/5x5_reduce"
  param {
    lr_mult: 1
    decay_mult: 1
  }
  param {
    lr_mult: 2
    decay_mult: 0
  }
  convolution_param {
    num_output: 24
    kernel_size: 1
    weight_filler {
      type: "xavier"
      std: 0.2
    }
    bias_filler {
      type: "constant"
      value: 0.2
    }
  }
}
layer {
  name: "inception_4b/relu_5x5_reduce"
  type: "ReLU"
  bottom: "inception_4b/5x5_reduce"
  top: "inception_4b/5x5_reduce"
}
layer {
  name: "inception_4b/5x5"
  type: "Convolution"
  bottom: "inception_4b/5x5_reduce"
  top: "inception_4b/5x5"
  param {
    lr_mult: 1
    decay_mult: 1
  }
  param {
    lr_mult: 2
    decay_mult: 0
  }
  convolution_param {
    num_output: 64
    pad: 2
    kernel_size: 5
    weight_filler {
      type: "xavier"
      std: 0.03
    }
    bias_filler {
      type: "constant"
      value: 0.2
    }
  }
}
layer {
  name: "inception_4b/relu_5x5"
  type: "ReLU"
  bottom: "inception_4b/5x5"
  top: "inception_4b/5x5"
}
layer {
  name: "inception_4b/pool"
  type: "Pooling"
  bottom: "inception_4a/output"
  top: "inception_4b/pool"
  pooling_param {
    pool: MAX
    kernel_size: 3
    stride: 1
    pad: 1
  }
}
layer {
  name: "inception_4b/pool_proj"
  type: "Convolution"
  bottom: "inception_4b/pool"
  top: "inception_4b/pool_proj"
  param {
    lr_mult: 1
    decay_mult: 1
  }
  param {
    lr_mult: 2
    decay_mult: 0
  }
  convolution_param {
    num_output: 64
    kernel_size: 1
    weight_filler {
      type: "xavier"
      std: 0.1
    }
    bias_filler {
      type: "constant"
      value: 0.2
    }
  }
}
layer {
  name: "inception_4b/relu_pool_proj"
  type: "ReLU"
  bottom: "inception_4b/pool_proj"
  top: "inception_4b/pool_proj"
}
layer {
  name: "inception_4b/output"
  type: "Concat"
  bottom: "inception_4b/1x1"
  bottom: "inception_4b/3x3"
  bottom: "inception_4b/5x5"
  bottom: "inception_4b/pool_proj"
  top: "inception_4b/output"
}
layer {
  name: "inception_4c/1x1"
  type: "Convolution"
  bottom: "inception_4b/output"
  top: "inception_4c/1x1"
  param {
    lr_mult: 1
    decay_mult: 1
  }
  param {
    lr_mult: 2
    decay_mult: 0
  }
  convolution_param {
    num_output: 128
    kernel_size: 1
    weight_filler {
      type: "xavier"
      std: 0.03
    }
    bias_filler {
      type: "constant"
      value: 0.2
    }
  }
}
layer {
  name: "inception_4c/relu_1x1"
  type: "ReLU"
  bottom: "inception_4c/1x1"
  top: "inception_4c/1x1"
}
layer {
  name: "inception_4c/3x3_reduce"
  type: "Convolution"
  bottom: "inception_4b/output"
  top: "inception_4c/3x3_reduce"
  param {
    lr_mult: 1
    decay_mult: 1
  }
  param {
    lr_mult: 2
    decay_mult: 0
  }
  convolution_param {
    num_output: 128
    kernel_size: 1
    weight_filler {
      type: "xavier"
      std: 0.09
    }
    bias_filler {
      type: "constant"
      value: 0.2
    }
  }
}
layer {
  name: "inception_4c/relu_3x3_reduce"
  type: "ReLU"
  bottom: "inception_4c/3x3_reduce"
  top: "inception_4c/3x3_reduce"
}
layer {
  name: "inception_4c/3x3"
  type: "Convolution"
  bottom: "inception_4c/3x3_reduce"
  top: "inception_4c/3x3"
  param {
    lr_mult: 1
    decay_mult: 1
  }
  param {
    lr_mult: 2
    decay_mult: 0
  }
  convolution_param {
    num_output: 256
    pad: 1
    kernel_size: 3
    weight_filler {
      type: "xavier"
      std: 0.03
    }
    bias_filler {
      type: "constant"
      value: 0.2
    }
  }
}
layer {
  name: "inception_4c/relu_3x3"
  type: "ReLU"
  bottom: "inception_4c/3x3"
  top: "inception_4c/3x3"
}
layer {
  name: "inception_4c/5x5_reduce"
  type: "Convolution"
  bottom: "inception_4b/output"
  top: "inception_4c/5x5_reduce"
  param {
    lr_mult: 1
    decay_mult: 1
  }
  param {
    lr_mult: 2
    decay_mult: 0
  }
  convolution_param {
    num_output: 24
    kernel_size: 1
    weight_filler {
      type: "xavier"
      std: 0.2
    }
    bias_filler {
      type: "constant"
      value: 0.2
    }
  }
}
layer {
  name: "inception_4c/relu_5x5_reduce"
  type: "ReLU"
  bottom: "inception_4c/5x5_reduce"
  top: "inception_4c/5x5_reduce"
}
layer {
  name: "inception_4c/5x5"
  type: "Convolution"
  bottom: "inception_4c/5x5_reduce"
  top: "inception_4c/5x5"
  param {
    lr_mult: 1
    decay_mult: 1
  }
  param {
    lr_mult: 2
    decay_mult: 0
  }
  convolution_param {
    num_output: 64
    pad: 2
    kernel_size: 5
    weight_filler {
      type: "xavier"
      std: 0.03
    }
    bias_filler {
      type: "constant"
      value: 0.2
    }
  }
}
layer {
  name: "inception_4c/relu_5x5"
  type: "ReLU"
  bottom: "inception_4c/5x5"
  top: "inception_4c/5x5"
}
layer {
  name: "inception_4c/pool"
  type: "Pooling"
  bottom: "inception_4b/output"
  top: "inception_4c/pool"
  pooling_param {
    pool: MAX
    kernel_size: 3
    stride: 1
    pad: 1
  }
}
layer {
  name: "inception_4c/pool_proj"
  type: "Convolution"
  bottom: "inception_4c/pool"
  top: "inception_4c/pool_proj"
  param {
    lr_mult: 1
    decay_mult: 1
  }
  param {
    lr_mult: 2
    decay_mult: 0
  }
  convolution_param {
    num_output: 64
    kernel_size: 1
    weight_filler {
      type: "xavier"
      std: 0.1
    }
    bias_filler {
      type: "constant"
      value: 0.2
    }
  }
}
layer {
  name: "inception_4c/relu_pool_proj"
  type: "ReLU"
  bottom: "inception_4c/pool_proj"
  top: "inception_4c/pool_proj"
}
layer {
  name: "inception_4c/output"
  type: "Concat"
  bottom: "inception_4c/1x1"
  bottom: "inception_4c/3x3"
  bottom: "inception_4c/5x5"
  bottom: "inception_4c/pool_proj"
  top: "inception_4c/output"
}
layer {
  name: "inception_4d/1x1"
  type: "Convolution"
  bottom: "inception_4c/output"
  top: "inception_4d/1x1"
  param {
    lr_mult: 1
    decay_mult: 1
  }
  param {
    lr_mult: 2
    decay_mult: 0
  }
  convolution_param {
    num_output: 112
    kernel_size: 1
    weight_filler {
      type: "xavier"
      std: 0.03
    }
    bias_filler {
      type: "constant"
      value: 0.2
    }
  }
}
layer {
  name: "inception_4d/relu_1x1"
  type: "ReLU"
  bottom: "inception_4d/1x1"
  top: "inception_4d/1x1"
}
layer {
  name: "inception_4d/3x3_reduce"
  type: "Convolution"
  bottom: "inception_4c/output"
  top: "inception_4d/3x3_reduce"
  param {
    lr_mult: 1
    decay_mult: 1
  }
  param {
    lr_mult: 2
    decay_mult: 0
  }
  convolution_param {
    num_output: 144
    kernel_size: 1
    weight_filler {
      type: "xavier"
      std: 0.09
    }
    bias_filler {
      type: "constant"
      value: 0.2
    }
  }
}
layer {
  name: "inception_4d/relu_3x3_reduce"
  type: "ReLU"
  bottom: "inception_4d/3x3_reduce"
  top: "inception_4d/3x3_reduce"
}
layer {
  name: "inception_4d/3x3"
  type: "Convolution"
  bottom: "inception_4d/3x3_reduce"
  top: "inception_4d/3x3"
  param {
    lr_mult: 1
    decay_mult: 1
  }
  param {
    lr_mult: 2
    decay_mult: 0
  }
  convolution_param {
    num_output: 288
    pad: 1
    kernel_size: 3
    weight_filler {
      type: "xavier"
      std: 0.03
    }
    bias_filler {
      type: "constant"
      value: 0.2
    }
  }
}
layer {
  name: "inception_4d/relu_3x3"
  type: "ReLU"
  bottom: "inception_4d/3x3"
  top: "inception_4d/3x3"
}
layer {
  name: "inception_4d/5x5_reduce"
  type: "Convolution"
  bottom: "inception_4c/output"
  top: "inception_4d/5x5_reduce"
  param {
    lr_mult: 1
    decay_mult: 1
  }
  param {
    lr_mult: 2
    decay_mult: 0
  }
  convolution_param {
    num_output: 32
    kernel_size: 1
    weight_filler {
      type: "xavier"
      std: 0.2
    }
    bias_filler {
      type: "constant"
      value: 0.2
    }
  }
}
layer {
  name: "inception_4d/relu_5x5_reduce"
  type: "ReLU"
  bottom: "inception_4d/5x5_reduce"
  top: "inception_4d/5x5_reduce"
}
layer {
  name: "inception_4d/5x5"
  type: "Convolution"
  bottom: "inception_4d/5x5_reduce"
  top: "inception_4d/5x5"
  param {
    lr_mult: 1
    decay_mult: 1
  }
  param {
    lr_mult: 2
    decay_mult: 0
  }
  convolution_param {
    num_output: 64
    pad: 2
    kernel_size: 5
    weight_filler {
      type: "xavier"
      std: 0.03
    }
    bias_filler {
      type: "constant"
      value: 0.2
    }
  }
}
layer {
  name: "inception_4d/relu_5x5"
  type: "ReLU"
  bottom: "inception_4d/5x5"
  top: "inception_4d/5x5"
}
layer {
  name: "inception_4d/pool"
  type: "Pooling"
  bottom: "inception_4c/output"
  top: "inception_4d/pool"
  pooling_param {
    pool: MAX
    kernel_size: 3
    stride: 1
    pad: 1
  }
}
layer {
  name: "inception_4d/pool_proj"
  type: "Convolution"
  bottom: "inception_4d/pool"
  top: "inception_4d/pool_proj"
  param {
    lr_mult: 1
    decay_mult: 1
  }
  param {
    lr_mult: 2
    decay_mult: 0
  }
  convolution_param {
    num_output: 64
    kernel_size: 1
    weight_filler {
      type: "xavier"
      std: 0.1
    }
    bias_filler {
      type: "constant"
      value: 0.2
    }
  }
}
layer {
  name: "inception_4d/relu_pool_proj"
  type: "ReLU"
  bottom: "inception_4d/pool_proj"
  top: "inception_4d/pool_proj"
}
layer {
  name: "inception_4d/output"
  type: "Concat"
  bottom: "inception_4d/1x1"
  bottom: "inception_4d/3x3"
  bottom: "inception_4d/5x5"
  bottom: "inception_4d/pool_proj"
  top: "inception_4d/output"
}
layer {
  name: "loss2/ave_pool"
  type: "Pooling"
  bottom: "inception_4d/output"
  top: "loss2/ave_pool"
  pooling_param {
    pool: AVE
    kernel_size: 5
    stride: 3
  }
}
layer {
  name: "loss2/conv"
  type: "Convolution"
  bottom: "loss2/ave_pool"
  top: "loss2/conv"
  param {
    lr_mult: 1
    decay_mult: 1
  }
  param {
    lr_mult: 2
    decay_mult: 0
  }
  convolution_param {
    num_output: 128
    kernel_size: 1
    weight_filler {
      type: "xavier"
      std: 0.08
    }
    bias_filler {
      type: "constant"
      value: 0.2
    }
  }
}
layer {
  name: "loss2/relu_conv"
  type: "ReLU"
  bottom: "loss2/conv"
  top: "loss2/conv"
}
layer {
  name: "loss2/fc"
  type: "InnerProduct"
  bottom: "loss2/conv"
  top: "loss2/fc"
  param {
    lr_mult: 1
    decay_mult: 1
  }
  param {
    lr_mult: 2
    decay_mult: 0
  }
  inner_product_param {
    num_output: 1024
    weight_filler {
      type: "xavier"
      std: 0.02
    }
    bias_filler {
      type: "constant"
      value: 0.2
    }
  }
}
layer {
  name: "loss2/relu_fc"
  type: "ReLU"
  bottom: "loss2/fc"
  top: "loss2/fc"
}
layer {
  name: "loss2/drop_fc"
  type: "Dropout"
  bottom: "loss2/fc"
  top: "loss2/fc"
  dropout_param {
    dropout_ratio: 0.7
  }
}
layer {
  name: "loss2/classifier_plantvillage"
  type: "InnerProduct"
  bottom: "loss2/fc"
  top: "loss2/classifier_plantvillage"
  param {
    lr_mult: 1
    decay_mult: 1
  }
  param {
    lr_mult: 2
    decay_mult: 0
  }
  inner_product_param {
    num_output: 38
    weight_filler {
      type: "xavier"
      std: 0.0009765625
    }
    bias_filler {
      type: "constant"
      value: 0
    }
  }
}
layer {
  name: "inception_4e/1x1"
  type: "Convolution"
  bottom: "inception_4d/output"
  top: "inception_4e/1x1"
  param {
    lr_mult: 1
    decay_mult: 1
  }
  param {
    lr_mult: 2
    decay_mult: 0
  }
  convolution_param {
    num_output: 256
    kernel_size: 1
    weight_filler {
      type: "xavier"
      std: 0.03
    }
    bias_filler {
      type: "constant"
      value: 0.2
    }
  }
}
layer {
  name: "inception_4e/relu_1x1"
  type: "ReLU"
  bottom: "inception_4e/1x1"
  top: "inception_4e/1x1"
}
layer {
  name: "inception_4e/3x3_reduce"
  type: "Convolution"
  bottom: "inception_4d/output"
  top: "inception_4e/3x3_reduce"
  param {
    lr_mult: 1
    decay_mult: 1
  }
  param {
    lr_mult: 2
    decay_mult: 0
  }
  convolution_param {
    num_output: 160
    kernel_size: 1
    weight_filler {
      type: "xavier"
      std: 0.09
    }
    bias_filler {
      type: "constant"
      value: 0.2
    }
  }
}
layer {
  name: "inception_4e/relu_3x3_reduce"
  type: "ReLU"
  bottom: "inception_4e/3x3_reduce"
  top: "inception_4e/3x3_reduce"
}
layer {
  name: "inception_4e/3x3"
  type: "Convolution"
  bottom: "inception_4e/3x3_reduce"
  top: "inception_4e/3x3"
  param {
    lr_mult: 1
    decay_mult: 1
  }
  param {
    lr_mult: 2
    decay_mult: 0
  }
  convolution_param {
    num_output: 320
    pad: 1
    kernel_size: 3
    weight_filler {
      type: "xavier"
      std: 0.03
    }
    bias_filler {
      type: "constant"
      value: 0.2
    }
  }
}
layer {
  name: "inception_4e/relu_3x3"
  type: "ReLU"
  bottom: "inception_4e/3x3"
  top: "inception_4e/3x3"
}
layer {
  name: "inception_4e/5x5_reduce"
  type: "Convolution"
  bottom: "inception_4d/output"
  top: "inception_4e/5x5_reduce"
  param {
    lr_mult: 1
    decay_mult: 1
  }
  param {
    lr_mult: 2
    decay_mult: 0
  }
  convolution_param {
    num_output: 32
    kernel_size: 1
    weight_filler {
      type: "xavier"
      std: 0.2
    }
    bias_filler {
      type: "constant"
      value: 0.2
    }
  }
}
layer {
  name: "inception_4e/relu_5x5_reduce"
  type: "ReLU"
  bottom: "inception_4e/5x5_reduce"
  top: "inception_4e/5x5_reduce"
}
layer {
  name: "inception_4e/5x5"
  type: "Convolution"
  bottom: "inception_4e/5x5_reduce"
  top: "inception_4e/
I0403 16:46:27.560398 21436 layer_factory.hpp:77] Creating layer data
I0403 16:46:27.561024 21436 net.cpp:91] Creating Layer data
I0403 16:46:27.561064 21436 net.cpp:399] data -> data
I0403 16:46:27.561120 21436 net.cpp:399] data -> label
I0403 16:46:27.561158 21436 data_transformer.cpp:25] Loading mean file from: /home/mohanty/data/final_dataset/lmdb/grayscale-20-80/mean.binaryproto
I0403 16:46:27.562436 21439 db_lmdb.cpp:38] Opened lmdb /home/mohanty/data/final_dataset/lmdb/grayscale-20-80/test_db
I0403 16:46:27.574559 21436 data_layer.cpp:41] output data size: 24,3,224,224
I0403 16:46:27.602288 21436 net.cpp:141] Setting up data
I0403 16:46:27.602391 21436 net.cpp:148] Top shape: 24 3 224 224 (3612672)
I0403 16:46:27.602416 21436 net.cpp:148] Top shape: 24 (24)
I0403 16:46:27.602432 21436 net.cpp:156] Memory required for data: 14450784
I0403 16:46:27.602460 21436 layer_factory.hpp:77] Creating layer label_data_1_split
I0403 16:46:27.602489 21436 net.cpp:91] Creating Layer label_data_1_split
I0403 16:46:27.602509 21436 net.cpp:425] label_data_1_split <- label
I0403 16:46:27.602542 21436 net.cpp:399] label_data_1_split -> label_data_1_split_0
I0403 16:46:27.602572 21436 net.cpp:399] label_data_1_split -> label_data_1_split_1
I0403 16:46:27.602596 21436 net.cpp:399] label_data_1_split -> label_data_1_split_2
I0403 16:46:27.602618 21436 net.cpp:399] label_data_1_split -> label_data_1_split_3
I0403 16:46:27.602639 21436 net.cpp:399] label_data_1_split -> label_data_1_split_4
I0403 16:46:27.602661 21436 net.cpp:399] label_data_1_split -> label_data_1_split_5
I0403 16:46:27.602681 21436 net.cpp:399] label_data_1_split -> label_data_1_split_6
I0403 16:46:27.602704 21436 net.cpp:399] label_data_1_split -> label_data_1_split_7
I0403 16:46:27.602723 21436 net.cpp:399] label_data_1_split -> label_data_1_split_8
I0403 16:46:27.602744 21436 net.cpp:399] label_data_1_split -> label_data_1_split_9
I0403 16:46:27.602866 21436 net.cpp:141] Setting up label_data_1_split
I0403 16:46:27.602891 21436 net.cpp:148] Top shape: 24 (24)
I0403 16:46:27.602910 21436 net.cpp:148] Top shape: 24 (24)
I0403 16:46:27.602927 21436 net.cpp:148] Top shape: 24 (24)
I0403 16:46:27.602944 21436 net.cpp:148] Top shape: 24 (24)
I0403 16:46:27.602962 21436 net.cpp:148] Top shape: 24 (24)
I0403 16:46:27.602977 21436 net.cpp:148] Top shape: 24 (24)
I0403 16:46:27.602994 21436 net.cpp:148] Top shape: 24 (24)
I0403 16:46:27.603010 21436 net.cpp:148] Top shape: 24 (24)
I0403 16:46:27.603027 21436 net.cpp:148] Top shape: 24 (24)
I0403 16:46:27.603044 21436 net.cpp:148] Top shape: 24 (24)
I0403 16:46:27.603086 21436 net.cpp:156] Memory required for data: 14451744
I0403 16:46:27.603106 21436 layer_factory.hpp:77] Creating layer conv1/7x7_s2
I0403 16:46:27.603138 21436 net.cpp:91] Creating Layer conv1/7x7_s2
I0403 16:46:27.603158 21436 net.cpp:425] conv1/7x7_s2 <- data
I0403 16:46:27.603178 21436 net.cpp:399] conv1/7x7_s2 -> conv1/7x7_s2
I0403 16:46:27.740785 21436 net.cpp:141] Setting up conv1/7x7_s2
I0403 16:46:27.740878 21436 net.cpp:148] Top shape: 24 64 112 112 (19267584)
I0403 16:46:27.740898 21436 net.cpp:156] Memory required for data: 91522080
I0403 16:46:27.740931 21436 layer_factory.hpp:77] Creating layer conv1/relu_7x7
I0403 16:46:27.740959 21436 net.cpp:91] Creating Layer conv1/relu_7x7
I0403 16:46:27.740980 21436 net.cpp:425] conv1/relu_7x7 <- conv1/7x7_s2
I0403 16:46:27.741001 21436 net.cpp:386] conv1/relu_7x7 -> conv1/7x7_s2 (in-place)
I0403 16:46:27.741274 21436 net.cpp:141] Setting up conv1/relu_7x7
I0403 16:46:27.741304 21436 net.cpp:148] Top shape: 24 64 112 112 (19267584)
I0403 16:46:27.741322 21436 net.cpp:156] Memory required for data: 168592416
I0403 16:46:27.741338 21436 layer_factory.hpp:77] Creating layer pool1/3x3_s2
I0403 16:46:27.741365 21436 net.cpp:91] Creating Layer pool1/3x3_s2
I0403 16:46:27.741384 21436 net.cpp:425] pool1/3x3_s2 <- conv1/7x7_s2
I0403 16:46:27.741403 21436 net.cpp:399] pool1/3x3_s2 -> pool1/3x3_s2
I0403 16:46:27.741478 21436 net.cpp:141] Setting up pool1/3x3_s2
I0403 16:46:27.741504 21436 net.cpp:148] Top shape: 24 64 56 56 (4816896)
I0403 16:46:27.741520 21436 net.cpp:156] Memory required for data: 187860000
I0403 16:46:27.741536 21436 layer_factory.hpp:77] Creating layer pool1/norm1
I0403 16:46:27.741561 21436 net.cpp:91] Creating Layer pool1/norm1
I0403 16:46:27.741580 21436 net.cpp:425] pool1/norm1 <- pool1/3x3_s2
I0403 16:46:27.741598 21436 net.cpp:399] pool1/norm1 -> pool1/norm1
I0403 16:46:27.741894 21436 net.cpp:141] Setting up pool1/norm1
I0403 16:46:27.741921 21436 net.cpp:148] Top shape: 24 64 56 56 (4816896)
I0403 16:46:27.741937 21436 net.cpp:156] Memory required for data: 207127584
I0403 16:46:27.741953 21436 layer_factory.hpp:77] Creating layer conv2/3x3_reduce
I0403 16:46:27.741979 21436 net.cpp:91] Creating Layer conv2/3x3_reduce
I0403 16:46:27.741997 21436 net.cpp:425] conv2/3x3_reduce <- pool1/norm1
I0403 16:46:27.742017 21436 net.cpp:399] conv2/3x3_reduce -> conv2/3x3_reduce
I0403 16:46:27.743391 21436 net.cpp:141] Setting up conv2/3x3_reduce
I0403 16:46:27.743423 21436 net.cpp:148] Top shape: 24 64 56 56 (4816896)
I0403 16:46:27.743440 21436 net.cpp:156] Memory required for data: 226395168
I0403 16:46:27.743463 21436 layer_factory.hpp:77] Creating layer conv2/relu_3x3_reduce
I0403 16:46:27.743482 21436 net.cpp:91] Creating Layer conv2/relu_3x3_reduce
I0403 16:46:27.743499 21436 net.cpp:425] conv2/relu_3x3_reduce <- conv2/3x3_reduce
I0403 16:46:27.743517 21436 net.cpp:386] conv2/relu_3x3_reduce -> conv2/3x3_reduce (in-place)
I0403 16:46:27.743775 21436 net.cpp:141] Setting up conv2/relu_3x3_reduce
I0403 16:46:27.743803 21436 net.cpp:148] Top shape: 24 64 56 56 (4816896)
I0403 16:46:27.743819 21436 net.cpp:156] Memory required for data: 245662752
I0403 16:46:27.743834 21436 layer_factory.hpp:77] Creating layer conv2/3x3
I0403 16:46:27.743859 21436 net.cpp:91] Creating Layer conv2/3x3
I0403 16:46:27.743875 21436 net.cpp:425] conv2/3x3 <- conv2/3x3_reduce
I0403 16:46:27.743896 21436 net.cpp:399] conv2/3x3 -> conv2/3x3
I0403 16:46:27.746206 21436 net.cpp:141] Setting up conv2/3x3
I0403 16:46:27.746239 21436 net.cpp:148] Top shape: 24 192 56 56 (14450688)
I0403 16:46:27.746258 21436 net.cpp:156] Memory required for data: 303465504
I0403 16:46:27.746281 21436 layer_factory.hpp:77] Creating layer conv2/relu_3x3
I0403 16:46:27.746302 21436 net.cpp:91] Creating Layer conv2/relu_3x3
I0403 16:46:27.746321 21436 net.cpp:425] conv2/relu_3x3 <- conv2/3x3
I0403 16:46:27.746340 21436 net.cpp:386] conv2/relu_3x3 -> conv2/3x3 (in-place)
I0403 16:46:27.746510 21436 net.cpp:141] Setting up conv2/relu_3x3
I0403 16:46:27.746537 21436 net.cpp:148] Top shape: 24 192 56 56 (14450688)
I0403 16:46:27.746584 21436 net.cpp:156] Memory required for data: 361268256
I0403 16:46:27.746601 21436 layer_factory.hpp:77] Creating layer conv2/norm2
I0403 16:46:27.746621 21436 net.cpp:91] Creating Layer conv2/norm2
I0403 16:46:27.746639 21436 net.cpp:425] conv2/norm2 <- conv2/3x3
I0403 16:46:27.746657 21436 net.cpp:399] conv2/norm2 -> conv2/norm2
I0403 16:46:27.746963 21436 net.cpp:141] Setting up conv2/norm2
I0403 16:46:27.746990 21436 net.cpp:148] Top shape: 24 192 56 56 (14450688)
I0403 16:46:27.747006 21436 net.cpp:156] Memory required for data: 419071008
I0403 16:46:27.747022 21436 layer_factory.hpp:77] Creating layer pool2/3x3_s2
I0403 16:46:27.747041 21436 net.cpp:91] Creating Layer pool2/3x3_s2
I0403 16:46:27.747063 21436 net.cpp:425] pool2/3x3_s2 <- conv2/norm2
I0403 16:46:27.747083 21436 net.cpp:399] pool2/3x3_s2 -> pool2/3x3_s2
I0403 16:46:27.747134 21436 net.cpp:141] Setting up pool2/3x3_s2
I0403 16:46:27.747159 21436 net.cpp:148] Top shape: 24 192 28 28 (3612672)
I0403 16:46:27.747174 21436 net.cpp:156] Memory required for data: 433521696
I0403 16:46:27.747189 21436 layer_factory.hpp:77] Creating layer pool2/3x3_s2_pool2/3x3_s2_0_split
I0403 16:46:27.747208 21436 net.cpp:91] Creating Layer pool2/3x3_s2_pool2/3x3_s2_0_split
I0403 16:46:27.747225 21436 net.cpp:425] pool2/3x3_s2_pool2/3x3_s2_0_split <- pool2/3x3_s2
I0403 16:46:27.747243 21436 net.cpp:399] pool2/3x3_s2_pool2/3x3_s2_0_split -> pool2/3x3_s2_pool2/3x3_s2_0_split_0
I0403 16:46:27.747263 21436 net.cpp:399] pool2/3x3_s2_pool2/3x3_s2_0_split -> pool2/3x3_s2_pool2/3x3_s2_0_split_1
I0403 16:46:27.747283 21436 net.cpp:399] pool2/3x3_s2_pool2/3x3_s2_0_split -> pool2/3x3_s2_pool2/3x3_s2_0_split_2
I0403 16:46:27.747304 21436 net.cpp:399] pool2/3x3_s2_pool2/3x3_s2_0_split -> pool2/3x3_s2_pool2/3x3_s2_0_split_3
I0403 16:46:27.747370 21436 net.cpp:141] Setting up pool2/3x3_s2_pool2/3x3_s2_0_split
I0403 16:46:27.747393 21436 net.cpp:148] Top shape: 24 192 28 28 (3612672)
I0403 16:46:27.747411 21436 net.cpp:148] Top shape: 24 192 28 28 (3612672)
I0403 16:46:27.747426 21436 net.cpp:148] Top shape: 24 192 28 28 (3612672)
I0403 16:46:27.747443 21436 net.cpp:148] Top shape: 24 192 28 28 (3612672)
I0403 16:46:27.747457 21436 net.cpp:156] Memory required for data: 491324448
I0403 16:46:27.747473 21436 layer_factory.hpp:77] Creating layer inception_3a/1x1
I0403 16:46:27.747495 21436 net.cpp:91] Creating Layer inception_3a/1x1
I0403 16:46:27.747512 21436 net.cpp:425] inception_3a/1x1 <- pool2/3x3_s2_pool2/3x3_s2_0_split_0
I0403 16:46:27.747531 21436 net.cpp:399] inception_3a/1x1 -> inception_3a/1x1
I0403 16:46:27.749094 21436 net.cpp:141] Setting up inception_3a/1x1
I0403 16:46:27.749125 21436 net.cpp:148] Top shape: 24 64 28 28 (1204224)
I0403 16:46:27.749141 21436 net.cpp:156] Memory required for data: 496141344
I0403 16:46:27.749161 21436 layer_factory.hpp:77] Creating layer inception_3a/relu_1x1
I0403 16:46:27.749182 21436 net.cpp:91] Creating Layer inception_3a/relu_1x1
I0403 16:46:27.749202 21436 net.cpp:425] inception_3a/relu_1x1 <- inception_3a/1x1
I0403 16:46:27.749227 21436 net.cpp:386] inception_3a/relu_1x1 -> inception_3a/1x1 (in-place)
I0403 16:46:27.749411 21436 net.cpp:141] Setting up inception_3a/relu_1x1
I0403 16:46:27.749439 21436 net.cpp:148] Top shape: 24 64 28 28 (1204224)
I0403 16:46:27.749454 21436 net.cpp:156] Memory required for data: 500958240
I0403 16:46:27.749469 21436 layer_factory.hpp:77] Creating layer inception_3a/3x3_reduce
I0403 16:46:27.749492 21436 net.cpp:91] Creating Layer inception_3a/3x3_reduce
I0403 16:46:27.749511 21436 net.cpp:425] inception_3a/3x3_reduce <- pool2/3x3_s2_pool2/3x3_s2_0_split_1
I0403 16:46:27.749536 21436 net.cpp:399] inception_3a/3x3_reduce -> inception_3a/3x3_reduce
I0403 16:46:27.751301 21436 net.cpp:141] Setting up inception_3a/3x3_reduce
I0403 16:46:27.751334 21436 net.cpp:148] Top shape: 24 96 28 28 (1806336)
I0403 16:46:27.751351 21436 net.cpp:156] Memory required for data: 508183584
I0403 16:46:27.751374 21436 layer_factory.hpp:77] Creating layer inception_3a/relu_3x3_reduce
I0403 16:46:27.751413 21436 net.cpp:91] Creating Layer inception_3a/relu_3x3_reduce
I0403 16:46:27.751432 21436 net.cpp:425] inception_3a/relu_3x3_reduce <- inception_3a/3x3_reduce
I0403 16:46:27.751453 21436 net.cpp:386] inception_3a/relu_3x3_reduce -> inception_3a/3x3_reduce (in-place)
I0403 16:46:27.751648 21436 net.cpp:141] Setting up inception_3a/relu_3x3_reduce
I0403 16:46:27.751674 21436 net.cpp:148] Top shape: 24 96 28 28 (1806336)
I0403 16:46:27.751690 21436 net.cpp:156] Memory required for data: 515408928
I0403 16:46:27.751705 21436 layer_factory.hpp:77] Creating layer inception_3a/3x3
I0403 16:46:27.751729 21436 net.cpp:91] Creating Layer inception_3a/3x3
I0403 16:46:27.751747 21436 net.cpp:425] inception_3a/3x3 <- inception_3a/3x3_reduce
I0403 16:46:27.751770 21436 net.cpp:399] inception_3a/3x3 -> inception_3a/3x3
I0403 16:46:27.753561 21436 net.cpp:141] Setting up inception_3a/3x3
I0403 16:46:27.753595 21436 net.cpp:148] Top shape: 24 128 28 28 (2408448)
I0403 16:46:27.753613 21436 net.cpp:156] Memory required for data: 525042720
I0403 16:46:27.753634 21436 layer_factory.hpp:77] Creating layer inception_3a/relu_3x3
I0403 16:46:27.753654 21436 net.cpp:91] Creating Layer inception_3a/relu_3x3
I0403 16:46:27.753672 21436 net.cpp:425] inception_3a/relu_3x3 <- inception_3a/3x3
I0403 16:46:27.753693 21436 net.cpp:386] inception_3a/relu_3x3 -> inception_3a/3x3 (in-place)
I0403 16:46:27.753989 21436 net.cpp:141] Setting up inception_3a/relu_3x3
I0403 16:46:27.754021 21436 net.cpp:148] Top shape: 24 128 28 28 (2408448)
I0403 16:46:27.754040 21436 net.cpp:156] Memory required for data: 534676512
I0403 16:46:27.754062 21436 layer_factory.hpp:77] Creating layer inception_3a/5x5_reduce
I0403 16:46:27.754088 21436 net.cpp:91] Creating Layer inception_3a/5x5_reduce
I0403 16:46:27.754108 21436 net.cpp:425] inception_3a/5x5_reduce <- pool2/3x3_s2_pool2/3x3_s2_0_split_2
I0403 16:46:27.754129 21436 net.cpp:399] inception_3a/5x5_reduce -> inception_3a/5x5_reduce
I0403 16:46:27.755136 21436 net.cpp:141] Setting up inception_3a/5x5_reduce
I0403 16:46:27.755167 21436 net.cpp:148] Top shape: 24 16 28 28 (301056)
I0403 16:46:27.755183 21436 net.cpp:156] Memory required for data: 535880736
I0403 16:46:27.755205 21436 layer_factory.hpp:77] Creating layer inception_3a/relu_5x5_reduce
I0403 16:46:27.755224 21436 net.cpp:91] Creating Layer inception_3a/relu_5x5_reduce
I0403 16:46:27.755241 21436 net.cpp:425] inception_3a/relu_5x5_reduce <- inception_3a/5x5_reduce
I0403 16:46:27.755264 21436 net.cpp:386] inception_3a/relu_5x5_reduce -> inception_3a/5x5_reduce (in-place)
I0403 16:46:27.755578 21436 net.cpp:141] Setting up inception_3a/relu_5x5_reduce
I0403 16:46:27.755607 21436 net.cpp:148] Top shape: 24 16 28 28 (301056)
I0403 16:46:27.755625 21436 net.cpp:156] Memory required for data: 537084960
I0403 16:46:27.755640 21436 layer_factory.hpp:77] Creating layer inception_3a/5x5
I0403 16:46:27.755664 21436 net.cpp:91] Creating Layer inception_3a/5x5
I0403 16:46:27.755683 21436 net.cpp:425] inception_3a/5x5 <- inception_3a/5x5_reduce
I0403 16:46:27.755705 21436 net.cpp:399] inception_3a/5x5 -> inception_3a/5x5
I0403 16:46:27.756758 21436 net.cpp:141] Setting up inception_3a/5x5
I0403 16:46:27.756790 21436 net.cpp:148] Top shape: 24 32 28 28 (602112)
I0403 16:46:27.756808 21436 net.cpp:156] Memory required for data: 539493408
I0403 16:46:27.756827 21436 layer_factory.hpp:77] Creating layer inception_3a/relu_5x5
I0403 16:46:27.756847 21436 net.cpp:91] Creating Layer inception_3a/relu_5x5
I0403 16:46:27.756863 21436 net.cpp:425] inception_3a/relu_5x5 <- inception_3a/5x5
I0403 16:46:27.756885 21436 net.cpp:386] inception_3a/relu_5x5 -> inception_3a/5x5 (in-place)
I0403 16:46:27.757071 21436 net.cpp:141] Setting up inception_3a/relu_5x5
I0403 16:46:27.757097 21436 net.cpp:148] Top shape: 24 32 28 28 (602112)
I0403 16:46:27.757112 21436 net.cpp:156] Memory required for data: 541901856
I0403 16:46:27.757128 21436 layer_factory.hpp:77] Creating layer inception_3a/pool
I0403 16:46:27.757148 21436 net.cpp:91] Creating Layer inception_3a/pool
I0403 16:46:27.757180 21436 net.cpp:425] inception_3a/pool <- pool2/3x3_s2_pool2/3x3_s2_0_split_3
I0403 16:46:27.757202 21436 net.cpp:399] inception_3a/pool -> inception_3a/pool
I0403 16:46:27.757264 21436 net.cpp:141] Setting up inception_3a/pool
I0403 16:46:27.757289 21436 net.cpp:148] Top shape: 24 192 28 28 (3612672)
I0403 16:46:27.757304 21436 net.cpp:156] Memory required for data: 556352544
I0403 16:46:27.757320 21436 layer_factory.hpp:77] Creating layer inception_3a/pool_proj
I0403 16:46:27.757346 21436 net.cpp:91] Creating Layer inception_3a/pool_proj
I0403 16:46:27.757365 21436 net.cpp:425] inception_3a/pool_proj <- inception_3a/pool
I0403 16:46:27.757385 21436 net.cpp:399] inception_3a/pool_proj -> inception_3a/pool_proj
I0403 16:46:27.758400 21436 net.cpp:141] Setting up inception_3a/pool_proj
I0403 16:46:27.758430 21436 net.cpp:148] Top shape: 24 32 28 28 (602112)
I0403 16:46:27.758446 21436 net.cpp:156] Memory required for data: 558760992
I0403 16:46:27.758472 21436 layer_factory.hpp:77] Creating layer inception_3a/relu_pool_proj
I0403 16:46:27.758493 21436 net.cpp:91] Creating Layer inception_3a/relu_pool_proj
I0403 16:46:27.758510 21436 net.cpp:425] inception_3a/relu_pool_proj <- inception_3a/pool_proj
I0403 16:46:27.758532 21436 net.cpp:386] inception_3a/relu_pool_proj -> inception_3a/pool_proj (in-place)
I0403 16:46:27.758817 21436 net.cpp:141] Setting up inception_3a/relu_pool_proj
I0403 16:46:27.758847 21436 net.cpp:148] Top shape: 24 32 28 28 (602112)
I0403 16:46:27.758865 21436 net.cpp:156] Memory required for data: 561169440
I0403 16:46:27.758880 21436 layer_factory.hpp:77] Creating layer inception_3a/output
I0403 16:46:27.758899 21436 net.cpp:91] Creating Layer inception_3a/output
I0403 16:46:27.758916 21436 net.cpp:425] inception_3a/output <- inception_3a/1x1
I0403 16:46:27.758934 21436 net.cpp:425] inception_3a/output <- inception_3a/3x3
I0403 16:46:27.758950 21436 net.cpp:425] inception_3a/output <- inception_3a/5x5
I0403 16:46:27.758966 21436 net.cpp:425] inception_3a/output <- inception_3a/pool_proj
I0403 16:46:27.758987 21436 net.cpp:399] inception_3a/output -> inception_3a/output
I0403 16:46:27.759037 21436 net.cpp:141] Setting up inception_3a/output
I0403 16:46:27.759066 21436 net.cpp:148] Top shape: 24 256 28 28 (4816896)
I0403 16:46:27.759083 21436 net.cpp:156] Memory required for data: 580437024
I0403 16:46:27.759099 21436 layer_factory.hpp:77] Creating layer inception_3a/output_inception_3a/output_0_split
I0403 16:46:27.759119 21436 net.cpp:91] Creating Layer inception_3a/output_inception_3a/output_0_split
I0403 16:46:27.759136 21436 net.cpp:425] inception_3a/output_inception_3a/output_0_split <- inception_3a/output
I0403 16:46:27.759156 21436 net.cpp:399] inception_3a/output_inception_3a/output_0_split -> inception_3a/output_inception_3a/output_0_split_0
I0403 16:46:27.759177 21436 net.cpp:399] inception_3a/output_inception_3a/output_0_split -> inception_3a/output_inception_3a/output_0_split_1
I0403 16:46:27.759204 21436 net.cpp:399] inception_3a/output_inception_3a/output_0_split -> inception_3a/output_inception_3a/output_0_split_2
I0403 16:46:27.759227 21436 net.cpp:399] inception_3a/output_inception_3a/output_0_split -> inception_3a/output_inception_3a/output_0_split_3
I0403 16:46:27.759305 21436 net.cpp:141] Setting up inception_3a/output_inception_3a/output_0_split
I0403 16:46:27.759331 21436 net.cpp:148] Top shape: 24 256 28 28 (4816896)
I0403 16:46:27.759351 21436 net.cpp:148] Top shape: 24 256 28 28 (4816896)
I0403 16:46:27.759366 21436 net.cpp:148] Top shape: 24 256 28 28 (4816896)
I0403 16:46:27.759382 21436 net.cpp:148] Top shape: 24 256 28 28 (4816896)
I0403 16:46:27.759397 21436 net.cpp:156] Memory required for data: 657507360
I0403 16:46:27.759413 21436 layer_factory.hpp:77] Creating layer inception_3b/1x1
I0403 16:46:27.759435 21436 net.cpp:91] Creating Layer inception_3b/1x1
I0403 16:46:27.759454 21436 net.cpp:425] inception_3b/1x1 <- inception_3a/output_inception_3a/output_0_split_0
I0403 16:46:27.759474 21436 net.cpp:399] inception_3b/1x1 -> inception_3b/1x1
I0403 16:46:27.760658 21436 net.cpp:141] Setting up inception_3b/1x1
I0403 16:46:27.760701 21436 net.cpp:148] Top shape: 24 128 28 28 (2408448)
I0403 16:46:27.760725 21436 net.cpp:156] Memory required for data: 667141152
I0403 16:46:27.760746 21436 layer_factory.hpp:77] Creating layer inception_3b/relu_1x1
I0403 16:46:27.760766 21436 net.cpp:91] Creating Layer inception_3b/relu_1x1
I0403 16:46:27.760782 21436 net.cpp:425] inception_3b/relu_1x1 <- inception_3b/1x1
I0403 16:46:27.760802 21436 net.cpp:386] inception_3b/relu_1x1 -> inception_3b/1x1 (in-place)
I0403 16:46:27.760984 21436 net.cpp:141] Setting up inception_3b/relu_1x1
I0403 16:46:27.761015 21436 net.cpp:148] Top shape: 24 128 28 28 (2408448)
I0403 16:46:27.761032 21436 net.cpp:156] Memory required for data: 676774944
I0403 16:46:27.761052 21436 layer_factory.hpp:77] Creating layer inception_3b/3x3_reduce
I0403 16:46:27.761080 21436 net.cpp:91] Creating Layer inception_3b/3x3_reduce
I0403 16:46:27.761101 21436 net.cpp:425] inception_3b/3x3_reduce <- inception_3a/output_inception_3a/output_0_split_1
I0403 16:46:27.761121 21436 net.cpp:399] inception_3b/3x3_reduce -> inception_3b/3x3_reduce
I0403 16:46:27.762312 21436 net.cpp:141] Setting up inception_3b/3x3_reduce
I0403 16:46:27.762343 21436 net.cpp:148] Top shape: 24 128 28 28 (2408448)
I0403 16:46:27.762361 21436 net.cpp:156] Memory required for data: 686408736
I0403 16:46:27.762380 21436 layer_factory.hpp:77] Creating layer inception_3b/relu_3x3_reduce
I0403 16:46:27.762403 21436 net.cpp:91] Creating Layer inception_3b/relu_3x3_reduce
I0403 16:46:27.762423 21436 net.cpp:425] inception_3b/relu_3x3_reduce <- inception_3b/3x3_reduce
I0403 16:46:27.762442 21436 net.cpp:386] inception_3b/relu_3x3_reduce -> inception_3b/3x3_reduce (in-place)
I0403 16:46:27.762622 21436 net.cpp:141] Setting up inception_3b/relu_3x3_reduce
I0403 16:46:27.762650 21436 net.cpp:148] Top shape: 24 128 28 28 (2408448)
I0403 16:46:27.762666 21436 net.cpp:156] Memory required for data: 696042528
I0403 16:46:27.762683 21436 layer_factory.hpp:77] Creating layer inception_3b/3x3
I0403 16:46:27.762708 21436 net.cpp:91] Creating Layer inception_3b/3x3
I0403 16:46:27.762727 21436 net.cpp:425] inception_3b/3x3 <- inception_3b/3x3_reduce
I0403 16:46:27.762749 21436 net.cpp:399] inception_3b/3x3 -> inception_3b/3x3
I0403 16:46:27.765791 21436 net.cpp:141] Setting up inception_3b/3x3
I0403 16:46:27.765825 21436 net.cpp:148] Top shape: 24 192 28 28 (3612672)
I0403 16:46:27.765843 21436 net.cpp:156] Memory required for data: 710493216
I0403 16:46:27.765864 21436 layer_factory.hpp:77] Creating layer inception_3b/relu_3x3
I0403 16:46:27.765884 21436 net.cpp:91] Creating Layer inception_3b/relu_3x3
I0403 16:46:27.765902 21436 net.cpp:425] inception_3b/relu_3x3 <- inception_3b/3x3
I0403 16:46:27.765923 21436 net.cpp:386] inception_3b/relu_3x3 -> inception_3b/3x3 (in-place)
I0403 16:46:27.766224 21436 net.cpp:141] Setting up inception_3b/relu_3x3
I0403 16:46:27.766257 21436 net.cpp:148] Top shape: 24 192 28 28 (3612672)
I0403 16:46:27.766274 21436 net.cpp:156] Memory required for data: 724943904
I0403 16:46:27.766293 21436 layer_factory.hpp:77] Creating layer inception_3b/5x5_reduce
I0403 16:46:27.766319 21436 net.cpp:91] Creating Layer inception_3b/5x5_reduce
I0403 16:46:27.766338 21436 net.cpp:425] inception_3b/5x5_reduce <- inception_3a/output_inception_3a/output_0_split_2
I0403 16:46:27.766360 21436 net.cpp:399] inception_3b/5x5_reduce -> inception_3b/5x5_reduce
I0403 16:46:27.767402 21436 net.cpp:141] Setting up inception_3b/5x5_reduce
I0403 16:46:27.767436 21436 net.cpp:148] Top shape: 24 32 28 28 (602112)
I0403 16:46:27.767453 21436 net.cpp:156] Memory required for data: 727352352
I0403 16:46:27.767474 21436 layer_factory.hpp:77] Creating layer inception_3b/relu_5x5_reduce
I0403 16:46:27.767494 21436 net.cpp:91] Creating Layer inception_3b/relu_5x5_reduce
I0403 16:46:27.767513 21436 net.cpp:425] inception_3b/relu_5x5_reduce <- inception_3b/5x5_reduce
I0403 16:46:27.767534 21436 net.cpp:386] inception_3b/relu_5x5_reduce -> inception_3b/5x5_reduce (in-place)
I0403 16:46:27.767730 21436 net.cpp:141] Setting up inception_3b/relu_5x5_reduce
I0403 16:46:27.767760 21436 net.cpp:148] Top shape: 24 32 28 28 (602112)
I0403 16:46:27.767776 21436 net.cpp:156] Memory required for data: 729760800
I0403 16:46:27.767792 21436 layer_factory.hpp:77] Creating layer inception_3b/5x5
I0403 16:46:27.767817 21436 net.cpp:91] Creating Layer inception_3b/5x5
I0403 16:46:27.767835 21436 net.cpp:425] inception_3b/5x5 <- inception_3b/5x5_reduce
I0403 16:46:27.767860 21436 net.cpp:399] inception_3b/5x5 -> inception_3b/5x5
I0403 16:46:27.769929 21436 net.cpp:141] Setting up inception_3b/5x5
I0403 16:46:27.769960 21436 net.cpp:148] Top shape: 24 96 28 28 (1806336)
I0403 16:46:27.769978 21436 net.cpp:156] Memory required for data: 736986144
I0403 16:46:27.769996 21436 layer_factory.hpp:77] Creating layer inception_3b/relu_5x5
I0403 16:46:27.770017 21436 net.cpp:91] Creating Layer inception_3b/relu_5x5
I0403 16:46:27.770036 21436 net.cpp:425] inception_3b/relu_5x5 <- inception_3b/5x5
I0403 16:46:27.770061 21436 net.cpp:386] inception_3b/relu_5x5 -> inception_3b/5x5 (in-place)
I0403 16:46:27.770257 21436 net.cpp:141] Setting up inception_3b/relu_5x5
I0403 16:46:27.770284 21436 net.cpp:148] Top shape: 24 96 28 28 (1806336)
I0403 16:46:27.770300 21436 net.cpp:156] Memory required for data: 744211488
I0403 16:46:27.770316 21436 layer_factory.hpp:77] Creating layer inception_3b/pool
I0403 16:46:27.770335 21436 net.cpp:91] Creating Layer inception_3b/pool
I0403 16:46:27.770352 21436 net.cpp:425] inception_3b/pool <- inception_3a/output_inception_3a/output_0_split_3
I0403 16:46:27.770372 21436 net.cpp:399] inception_3b/pool -> inception_3b/pool
I0403 16:46:27.770429 21436 net.cpp:141] Setting up inception_3b/pool
I0403 16:46:27.770454 21436 net.cpp:148] Top shape: 24 256 28 28 (4816896)
I0403 16:46:27.770469 21436 net.cpp:156] Memory required for data: 763479072
I0403 16:46:27.770484 21436 layer_factory.hpp:77] Creating layer inception_3b/pool_proj
I0403 16:46:27.770509 21436 net.cpp:91] Creating Layer inception_3b/pool_proj
I0403 16:46:27.770526 21436 net.cpp:425] inception_3b/pool_proj <- inception_3b/pool
I0403 16:46:27.770545 21436 net.cpp:399] inception_3b/pool_proj -> inception_3b/pool_proj
I0403 16:46:27.771615 21436 net.cpp:141] Setting up inception_3b/pool_proj
I0403 16:46:27.771644 21436 net.cpp:148] Top shape: 24 64 28 28 (1204224)
I0403 16:46:27.771661 21436 net.cpp:156] Memory required for data: 768295968
I0403 16:46:27.771680 21436 layer_factory.hpp:77] Creating layer inception_3b/relu_pool_proj
I0403 16:46:27.771700 21436 net.cpp:91] Creating Layer inception_3b/relu_pool_proj
I0403 16:46:27.771718 21436 net.cpp:425] inception_3b/relu_pool_proj <- inception_3b/pool_proj
I0403 16:46:27.771738 21436 net.cpp:386] inception_3b/relu_pool_proj -> inception_3b/pool_proj (in-place)
I0403 16:46:27.772152 21436 net.cpp:141] Setting up inception_3b/relu_pool_proj
I0403 16:46:27.772178 21436 net.cpp:148] Top shape: 24 64 28 28 (1204224)
I0403 16:46:27.772193 21436 net.cpp:156] Memory required for data: 773112864
I0403 16:46:27.772209 21436 layer_factory.hpp:77] Creating layer inception_3b/output
I0403 16:46:27.772227 21436 net.cpp:91] Creating Layer inception_3b/output
I0403 16:46:27.772243 21436 net.cpp:425] inception_3b/output <- inception_3b/1x1
I0403 16:46:27.772259 21436 net.cpp:425] inception_3b/output <- inception_3b/3x3
I0403 16:46:27.772275 21436 net.cpp:425] inception_3b/output <- inception_3b/5x5
I0403 16:46:27.772290 21436 net.cpp:425] inception_3b/output <- inception_3b/pool_proj
I0403 16:46:27.772310 21436 net.cpp:399] inception_3b/output -> inception_3b/output
I0403 16:46:27.772356 21436 net.cpp:141] Setting up inception_3b/output
I0403 16:46:27.772382 21436 net.cpp:148] Top shape: 24 480 28 28 (9031680)
I0403 16:46:27.772405 21436 net.cpp:156] Memory required for data: 809239584
I0403 16:46:27.772420 21436 layer_factory.hpp:77] Creating layer pool3/3x3_s2
I0403 16:46:27.772439 21436 net.cpp:91] Creating Layer pool3/3x3_s2
I0403 16:46:27.772454 21436 net.cpp:425] pool3/3x3_s2 <- inception_3b/output
I0403 16:46:27.772490 21436 net.cpp:399] pool3/3x3_s2 -> pool3/3x3_s2
I0403 16:46:27.772550 21436 net.cpp:141] Setting up pool3/3x3_s2
I0403 16:46:27.772574 21436 net.cpp:148] Top shape: 24 480 14 14 (2257920)
I0403 16:46:27.772589 21436 net.cpp:156] Memory required for data: 818271264
I0403 16:46:27.772604 21436 layer_factory.hpp:77] Creating layer pool3/3x3_s2_pool3/3x3_s2_0_split
I0403 16:46:27.772624 21436 net.cpp:91] Creating Layer pool3/3x3_s2_pool3/3x3_s2_0_split
I0403 16:46:27.772641 21436 net.cpp:425] pool3/3x3_s2_pool3/3x3_s2_0_split <- pool3/3x3_s2
I0403 16:46:27.772660 21436 net.cpp:399] pool3/3x3_s2_pool3/3x3_s2_0_split -> pool3/3x3_s2_pool3/3x3_s2_0_split_0
I0403 16:46:27.772680 21436 net.cpp:399] pool3/3x3_s2_pool3/3x3_s2_0_split -> pool3/3x3_s2_pool3/3x3_s2_0_split_1
I0403 16:46:27.772698 21436 net.cpp:399] pool3/3x3_s2_pool3/3x3_s2_0_split -> pool3/3x3_s2_pool3/3x3_s2_0_split_2
I0403 16:46:27.772718 21436 net.cpp:399] pool3/3x3_s2_pool3/3x3_s2_0_split -> pool3/3x3_s2_pool3/3x3_s2_0_split_3
I0403 16:46:27.772797 21436 net.cpp:141] Setting up pool3/3x3_s2_pool3/3x3_s2_0_split
I0403 16:46:27.772821 21436 net.cpp:148] Top shape: 24 480 14 14 (2257920)
I0403 16:46:27.772837 21436 net.cpp:148] Top shape: 24 480 14 14 (2257920)
I0403 16:46:27.772853 21436 net.cpp:148] Top shape: 24 480 14 14 (2257920)
I0403 16:46:27.772868 21436 net.cpp:148] Top shape: 24 480 14 14 (2257920)
I0403 16:46:27.772883 21436 net.cpp:156] Memory required for data: 854397984
I0403 16:46:27.772898 21436 layer_factory.hpp:77] Creating layer inception_4a/1x1
I0403 16:46:27.772920 21436 net.cpp:91] Creating Layer inception_4a/1x1
I0403 16:46:27.772938 21436 net.cpp:425] inception_4a/1x1 <- pool3/3x3_s2_pool3/3x3_s2_0_split_0
I0403 16:46:27.772960 21436 net.cpp:399] inception_4a/1x1 -> inception_4a/1x1
I0403 16:46:27.774559 21436 net.cpp:141] Setting up inception_4a/1x1
I0403 16:46:27.774588 21436 net.cpp:148] Top shape: 24 192 14 14 (903168)
I0403 16:46:27.774605 21436 net.cpp:156] Memory required for data: 858010656
I0403 16:46:27.774623 21436 layer_factory.hpp:77] Creating layer inception_4a/relu_1x1
I0403 16:46:27.774646 21436 net.cpp:91] Creating Layer inception_4a/relu_1x1
I0403 16:46:27.774664 21436 net.cpp:425] inception_4a/relu_1x1 <- inception_4a/1x1
I0403 16:46:27.774684 21436 net.cpp:386] inception_4a/relu_1x1 -> inception_4a/1x1 (in-place)
I0403 16:46:27.774860 21436 net.cpp:141] Setting up inception_4a/relu_1x1
I0403 16:46:27.774890 21436 net.cpp:148] Top shape: 24 192 14 14 (903168)
I0403 16:46:27.774907 21436 net.cpp:156] Memory required for data: 861623328
I0403 16:46:27.774924 21436 layer_factory.hpp:77] Creating layer inception_4a/3x3_reduce
I0403 16:46:27.774947 21436 net.cpp:91] Creating Layer inception_4a/3x3_reduce
I0403 16:46:27.774966 21436 net.cpp:425] inception_4a/3x3_reduce <- pool3/3x3_s2_pool3/3x3_s2_0_split_1
I0403 16:46:27.774987 21436 net.cpp:399] inception_4a/3x3_reduce -> inception_4a/3x3_reduce
I0403 16:46:27.776294 21436 net.cpp:141] Setting up inception_4a/3x3_reduce
I0403 16:46:27.776324 21436 net.cpp:148] Top shape: 24 96 14 14 (451584)
I0403 16:46:27.776341 21436 net.cpp:156] Memory required for data: 863429664
I0403 16:46:27.776367 21436 layer_factory.hpp:77] Creating layer inception_4a/relu_3x3_reduce
I0403 16:46:27.776389 21436 net.cpp:91] Creating Layer inception_4a/relu_3x3_reduce
I0403 16:46:27.776407 21436 net.cpp:425] inception_4a/relu_3x3_reduce <- inception_4a/3x3_reduce
I0403 16:46:27.776427 21436 net.cpp:386] inception_4a/relu_3x3_reduce -> inception_4a/3x3_reduce (in-place)
I0403 16:46:27.776603 21436 net.cpp:141] Setting up inception_4a/relu_3x3_reduce
I0403 16:46:27.776628 21436 net.cpp:148] Top shape: 24 96 14 14 (451584)
I0403 16:46:27.776643 21436 net.cpp:156] Memory required for data: 865236000
I0403 16:46:27.776659 21436 layer_factory.hpp:77] Creating layer inception_4a/3x3
I0403 16:46:27.776681 21436 net.cpp:91] Creating Layer inception_4a/3x3
I0403 16:46:27.776698 21436 net.cpp:425] inception_4a/3x3 <- inception_4a/3x3_reduce
I0403 16:46:27.776721 21436 net.cpp:399] inception_4a/3x3 -> inception_4a/3x3
I0403 16:46:27.779448 21436 net.cpp:141] Setting up inception_4a/3x3
I0403 16:46:27.779479 21436 net.cpp:148] Top shape: 24 208 14 14 (978432)
I0403 16:46:27.779496 21436 net.cpp:156] Memory required for data: 869149728
I0403 16:46:27.779517 21436 layer_factory.hpp:77] Creating layer inception_4a/relu_3x3
I0403 16:46:27.779541 21436 net.cpp:91] Creating Layer inception_4a/relu_3x3
I0403 16:46:27.779558 21436 net.cpp:425] inception_4a/relu_3x3 <- inception_4a/3x3
I0403 16:46:27.779577 21436 net.cpp:386] inception_4a/relu_3x3 -> inception_4a/3x3 (in-place)
I0403 16:46:27.779861 21436 net.cpp:141] Setting up inception_4a/relu_3x3
I0403 16:46:27.779889 21436 net.cpp:148] Top shape: 24 208 14 14 (978432)
I0403 16:46:27.779906 21436 net.cpp:156] Memory required for data: 873063456
I0403 16:46:27.779923 21436 layer_factory.hpp:77] Creating layer inception_4a/5x5_reduce
I0403 16:46:27.779949 21436 net.cpp:91] Creating Layer inception_4a/5x5_reduce
I0403 16:46:27.779970 21436 net.cpp:425] inception_4a/5x5_reduce <- pool3/3x3_s2_pool3/3x3_s2_0_split_2
I0403 16:46:27.779990 21436 net.cpp:399] inception_4a/5x5_reduce -> inception_4a/5x5_reduce
I0403 16:46:27.781025 21436 net.cpp:141] Setting up inception_4a/5x5_reduce
I0403 16:46:27.781062 21436 net.cpp:148] Top shape: 24 16 14 14 (75264)
I0403 16:46:27.781082 21436 net.cpp:156] Memory required for data: 873364512
I0403 16:46:27.781102 21436 layer_factory.hpp:77] Creating layer inception_4a/relu_5x5_reduce
I0403 16:46:27.781121 21436 net.cpp:91] Creating Layer inception_4a/relu_5x5_reduce
I0403 16:46:27.781138 21436 net.cpp:425] inception_4a/relu_5x5_reduce <- inception_4a/5x5_reduce
I0403 16:46:27.781159 21436 net.cpp:386] inception_4a/relu_5x5_reduce -> inception_4a/5x5_reduce (in-place)
I0403 16:46:27.781342 21436 net.cpp:141] Setting up inception_4a/relu_5x5_reduce
I0403 16:46:27.781368 21436 net.cpp:148] Top shape: 24 16 14 14 (75264)
I0403 16:46:27.781383 21436 net.cpp:156] Memory required for data: 873665568
I0403 16:46:27.781399 21436 layer_factory.hpp:77] Creating layer inception_4a/5x5
I0403 16:46:27.781422 21436 net.cpp:91] Creating Layer inception_4a/5x5
I0403 16:46:27.781440 21436 net.cpp:425] inception_4a/5x5 <- inception_4a/5x5_reduce
I0403 16:46:27.781462 21436 net.cpp:399] inception_4a/5x5 -> inception_4a/5x5
I0403 16:46:27.782573 21436 net.cpp:141] Setting up inception_4a/5x5
I0403 16:46:27.782603 21436 net.cpp:148] Top shape: 24 48 14 14 (225792)
I0403 16:46:27.782620 21436 net.cpp:156] Memory required for data: 874568736
I0403 16:46:27.782639 21436 layer_factory.hpp:77] Creating layer inception_4a/relu_5x5
I0403 16:46:27.782660 21436 net.cpp:91] Creating Layer inception_4a/relu_5x5
I0403 16:46:27.782677 21436 net.cpp:425] inception_4a/relu_5x5 <- inception_4a/5x5
I0403 16:46:27.782696 21436 net.cpp:386] inception_4a/relu_5x5 -> inception_4a/5x5 (in-place)
I0403 16:46:27.782874 21436 net.cpp:141] Setting up inception_4a/relu_5x5
I0403 16:46:27.782899 21436 net.cpp:148] Top shape: 24 48 14 14 (225792)
I0403 16:46:27.782913 21436 net.cpp:156] Memory required for data: 875471904
I0403 16:46:27.782928 21436 layer_factory.hpp:77] Creating layer inception_4a/pool
I0403 16:46:27.782950 21436 net.cpp:91] Creating Layer inception_4a/pool
I0403 16:46:27.782970 21436 net.cpp:425] inception_4a/pool <- pool3/3x3_s2_pool3/3x3_s2_0_split_3
I0403 16:46:27.782989 21436 net.cpp:399] inception_4a/pool -> inception_4a/pool
I0403 16:46:27.783058 21436 net.cpp:141] Setting up inception_4a/pool
I0403 16:46:27.783095 21436 net.cpp:148] Top shape: 24 480 14 14 (2257920)
I0403 16:46:27.783112 21436 net.cpp:156] Memory required for data: 884503584
I0403 16:46:27.783126 21436 layer_factory.hpp:77] Creating layer inception_4a/pool_proj
I0403 16:46:27.783150 21436 net.cpp:91] Creating Layer inception_4a/pool_proj
I0403 16:46:27.783169 21436 net.cpp:425] inception_4a/pool_proj <- inception_4a/pool
I0403 16:46:27.783190 21436 net.cpp:399] inception_4a/pool_proj -> inception_4a/pool_proj
I0403 16:46:27.784421 21436 net.cpp:141] Setting up inception_4a/pool_proj
I0403 16:46:27.784451 21436 net.cpp:148] Top shape: 24 64 14 14 (301056)
I0403 16:46:27.784485 21436 net.cpp:156] Memory required for data: 885707808
I0403 16:46:27.784505 21436 layer_factory.hpp:77] Creating layer inception_4a/relu_pool_proj
I0403 16:46:27.784528 21436 net.cpp:91] Creating Layer inception_4a/relu_pool_proj
I0403 16:46:27.784546 21436 net.cpp:425] inception_4a/relu_pool_proj <- inception_4a/pool_proj
I0403 16:46:27.784564 21436 net.cpp:386] inception_4a/relu_pool_proj -> inception_4a/pool_proj (in-place)
I0403 16:46:27.784867 21436 net.cpp:141] Setting up inception_4a/relu_pool_proj
I0403 16:46:27.784894 21436 net.cpp:148] Top shape: 24 64 14 14 (301056)
I0403 16:46:27.784909 21436 net.cpp:156] Memory required for data: 886912032
I0403 16:46:27.784925 21436 layer_factory.hpp:77] Creating layer inception_4a/output
I0403 16:46:27.784942 21436 net.cpp:91] Creating Layer inception_4a/output
I0403 16:46:27.784965 21436 net.cpp:425] inception_4a/output <- inception_4a/1x1
I0403 16:46:27.784981 21436 net.cpp:425] inception_4a/output <- inception_4a/3x3
I0403 16:46:27.784998 21436 net.cpp:425] inception_4a/output <- inception_4a/5x5
I0403 16:46:27.785014 21436 net.cpp:425] inception_4a/output <- inception_4a/pool_proj
I0403 16:46:27.785032 21436 net.cpp:399] inception_4a/output -> inception_4a/output
I0403 16:46:27.785082 21436 net.cpp:141] Setting up inception_4a/output
I0403 16:46:27.785109 21436 net.cpp:148] Top shape: 24 512 14 14 (2408448)
I0403 16:46:27.785125 21436 net.cpp:156] Memory required for data: 896545824
I0403 16:46:27.785140 21436 layer_factory.hpp:77] Creating layer inception_4a/output_inception_4a/output_0_split
I0403 16:46:27.785158 21436 net.cpp:91] Creating Layer inception_4a/output_inception_4a/output_0_split
I0403 16:46:27.785174 21436 net.cpp:425] inception_4a/output_inception_4a/output_0_split <- inception_4a/output
I0403 16:46:27.785195 21436 net.cpp:399] inception_4a/output_inception_4a/output_0_split -> inception_4a/output_inception_4a/output_0_split_0
I0403 16:46:27.785218 21436 net.cpp:399] inception_4a/output_inception_4a/output_0_split -> inception_4a/output_inception_4a/output_0_split_1
I0403 16:46:27.785239 21436 net.cpp:399] inception_4a/output_inception_4a/output_0_split -> inception_4a/output_inception_4a/output_0_split_2
I0403 16:46:27.785260 21436 net.cpp:399] inception_4a/output_inception_4a/output_0_split -> inception_4a/output_inception_4a/output_0_split_3
I0403 16:46:27.785279 21436 net.cpp:399] inception_4a/output_inception_4a/output_0_split -> inception_4a/output_inception_4a/output_0_split_4
I0403 16:46:27.785375 21436 net.cpp:141] Setting up inception_4a/output_inception_4a/output_0_split
I0403 16:46:27.785399 21436 net.cpp:148] Top shape: 24 512 14 14 (2408448)
I0403 16:46:27.785418 21436 net.cpp:148] Top shape: 24 512 14 14 (2408448)
I0403 16:46:27.785435 21436 net.cpp:148] Top shape: 24 512 14 14 (2408448)
I0403 16:46:27.785451 21436 net.cpp:148] Top shape: 24 512 14 14 (2408448)
I0403 16:46:27.785467 21436 net.cpp:148] Top shape: 24 512 14 14 (2408448)
I0403 16:46:27.785482 21436 net.cpp:156] Memory required for data: 944714784
I0403 16:46:27.785497 21436 layer_factory.hpp:77] Creating layer loss1/ave_pool
I0403 16:46:27.785516 21436 net.cpp:91] Creating Layer loss1/ave_pool
I0403 16:46:27.785532 21436 net.cpp:425] loss1/ave_pool <- inception_4a/output_inception_4a/output_0_split_0
I0403 16:46:27.785552 21436 net.cpp:399] loss1/ave_pool -> loss1/ave_pool
I0403 16:46:27.785773 21436 net.cpp:141] Setting up loss1/ave_pool
I0403 16:46:27.785800 21436 net.cpp:148] Top shape: 24 512 4 4 (196608)
I0403 16:46:27.785815 21436 net.cpp:156] Memory required for data: 945501216
I0403 16:46:27.785830 21436 layer_factory.hpp:77] Creating layer loss1/conv
I0403 16:46:27.785853 21436 net.cpp:91] Creating Layer loss1/conv
I0403 16:46:27.785871 21436 net.cpp:425] loss1/conv <- loss1/ave_pool
I0403 16:46:27.785893 21436 net.cpp:399] loss1/conv -> loss1/conv
I0403 16:46:27.787396 21436 net.cpp:141] Setting up loss1/conv
I0403 16:46:27.787425 21436 net.cpp:148] Top shape: 24 128 4 4 (49152)
I0403 16:46:27.787456 21436 net.cpp:156] Memory required for data: 945697824
I0403 16:46:27.787477 21436 layer_factory.hpp:77] Creating layer loss1/relu_conv
I0403 16:46:27.787498 21436 net.cpp:91] Creating Layer loss1/relu_conv
I0403 16:46:27.787516 21436 net.cpp:425] loss1/relu_conv <- loss1/conv
I0403 16:46:27.787533 21436 net.cpp:386] loss1/relu_conv -> loss1/conv (in-place)
I0403 16:46:27.787832 21436 net.cpp:141] Setting up loss1/relu_conv
I0403 16:46:27.787859 21436 net.cpp:148] Top shape: 24 128 4 4 (49152)
I0403 16:46:27.787875 21436 net.cpp:156] Memory required for data: 945894432
I0403 16:46:27.787891 21436 layer_factory.hpp:77] Creating layer loss1/fc
I0403 16:46:27.787917 21436 net.cpp:91] Creating Layer loss1/fc
I0403 16:46:27.787936 21436 net.cpp:425] loss1/fc <- loss1/conv
I0403 16:46:27.787958 21436 net.cpp:399] loss1/fc -> loss1/fc
I0403 16:46:27.806576 21436 net.cpp:141] Setting up loss1/fc
I0403 16:46:27.806619 21436 net.cpp:148] Top shape: 24 1024 (24576)
I0403 16:46:27.806635 21436 net.cpp:156] Memory required for data: 945992736
I0403 16:46:27.806654 21436 layer_factory.hpp:77] Creating layer loss1/relu_fc
I0403 16:46:27.806673 21436 net.cpp:91] Creating Layer loss1/relu_fc
I0403 16:46:27.806691 21436 net.cpp:425] loss1/relu_fc <- loss1/fc
I0403 16:46:27.806711 21436 net.cpp:386] loss1/relu_fc -> loss1/fc (in-place)
I0403 16:46:27.806905 21436 net.cpp:141] Setting up loss1/relu_fc
I0403 16:46:27.806934 21436 net.cpp:148] Top shape: 24 1024 (24576)
I0403 16:46:27.806951 21436 net.cpp:156] Memory required for data: 946091040
I0403 16:46:27.806967 21436 layer_factory.hpp:77] Creating layer loss1/drop_fc
I0403 16:46:27.806994 21436 net.cpp:91] Creating Layer loss1/drop_fc
I0403 16:46:27.807013 21436 net.cpp:425] loss1/drop_fc <- loss1/fc
I0403 16:46:27.807030 21436 net.cpp:386] loss1/drop_fc -> loss1/fc (in-place)
I0403 16:46:27.807088 21436 net.cpp:141] Setting up loss1/drop_fc
I0403 16:46:27.807112 21436 net.cpp:148] Top shape: 24 1024 (24576)
I0403 16:46:27.807127 21436 net.cpp:156] Memory required for data: 946189344
I0403 16:46:27.807142 21436 layer_factory.hpp:77] Creating layer loss1/classifier_plantvillage
I0403 16:46:27.807162 21436 net.cpp:91] Creating Layer loss1/classifier_plantvillage
I0403 16:46:27.807178 21436 net.cpp:425] loss1/classifier_plantvillage <- loss1/fc
I0403 16:46:27.807199 21436 net.cpp:399] loss1/classifier_plantvillage -> loss1/classifier_plantvillage
I0403 16:46:27.808128 21436 net.cpp:141] Setting up loss1/classifier_plantvillage
I0403 16:46:27.808157 21436 net.cpp:148] Top shape: 24 38 (912)
I0403 16:46:27.808172 21436 net.cpp:156] Memory required for data: 946192992
I0403 16:46:27.808190 21436 layer_factory.hpp:77] Creating layer loss1/classifier_plantvillage_loss1/classifier_plantvillage_0_split
I0403 16:46:27.808210 21436 net.cpp:91] Creating Layer loss1/classifier_plantvillage_loss1/classifier_plantvillage_0_split
I0403 16:46:27.808228 21436 net.cpp:425] loss1/classifier_plantvillage_loss1/classifier_plantvillage_0_split <- loss1/classifier_plantvillage
I0403 16:46:27.808246 21436 net.cpp:399] loss1/classifier_plantvillage_loss1/classifier_plantvillage_0_split -> loss1/classifier_plantvillage_loss1/classifier_plantvillage_0_split_0
I0403 16:46:27.808267 21436 net.cpp:399] loss1/classifier_plantvillage_loss1/classifier_plantvillage_0_split -> loss1/classifier_plantvillage_loss1/classifier_plantvillage_0_split_1
I0403 16:46:27.808287 21436 net.cpp:399] loss1/classifier_plantvillage_loss1/classifier_plantvillage_0_split -> loss1/classifier_plantvillage_loss1/classifier_plantvillage_0_split_2
I0403 16:46:27.808358 21436 net.cpp:141] Setting up loss1/classifier_plantvillage_loss1/classifier_plantvillage_0_split
I0403 16:46:27.808382 21436 net.cpp:148] Top shape: 24 38 (912)
I0403 16:46:27.808398 21436 net.cpp:148] Top shape: 24 38 (912)
I0403 16:46:27.808414 21436 net.cpp:148] Top shape: 24 38 (912)
I0403 16:46:27.808429 21436 net.cpp:156] Memory required for data: 946203936
I0403 16:46:27.808444 21436 layer_factory.hpp:77] Creating layer inception_4b/1x1
I0403 16:46:27.808467 21436 net.cpp:91] Creating Layer inception_4b/1x1
I0403 16:46:27.808501 21436 net.cpp:425] inception_4b/1x1 <- inception_4a/output_inception_4a/output_0_split_1
I0403 16:46:27.808522 21436 net.cpp:399] inception_4b/1x1 -> inception_4b/1x1
I0403 16:46:27.810219 21436 net.cpp:141] Setting up inception_4b/1x1
I0403 16:46:27.810250 21436 net.cpp:148] Top shape: 24 160 14 14 (752640)
I0403 16:46:27.810267 21436 net.cpp:156] Memory required for data: 949214496
I0403 16:46:27.810286 21436 layer_factory.hpp:77] Creating layer inception_4b/relu_1x1
I0403 16:46:27.810304 21436 net.cpp:91] Creating Layer inception_4b/relu_1x1
I0403 16:46:27.810320 21436 net.cpp:425] inception_4b/relu_1x1 <- inception_4b/1x1
I0403 16:46:27.810340 21436 net.cpp:386] inception_4b/relu_1x1 -> inception_4b/1x1 (in-place)
I0403 16:46:27.810523 21436 net.cpp:141] Setting up inception_4b/relu_1x1
I0403 16:46:27.810547 21436 net.cpp:148] Top shape: 24 160 14 14 (752640)
I0403 16:46:27.810562 21436 net.cpp:156] Memory required for data: 952225056
I0403 16:46:27.810577 21436 layer_factory.hpp:77] Creating layer inception_4b/3x3_reduce
I0403 16:46:27.810605 21436 net.cpp:91] Creating Layer inception_4b/3x3_reduce
I0403 16:46:27.810622 21436 net.cpp:425] inception_4b/3x3_reduce <- inception_4a/output_inception_4a/output_0_split_2
I0403 16:46:27.810644 21436 net.cpp:399] inception_4b/3x3_reduce -> inception_4b/3x3_reduce
I0403 16:46:27.812036 21436 net.cpp:141] Setting up inception_4b/3x3_reduce
I0403 16:46:27.812067 21436 net.cpp:148] Top shape: 24 112 14 14 (526848)
I0403 16:46:27.812084 21436 net.cpp:156] Memory required for data: 954332448
I0403 16:46:27.812103 21436 layer_factory.hpp:77] Creating layer inception_4b/relu_3x3_reduce
I0403 16:46:27.812122 21436 net.cpp:91] Creating Layer inception_4b/relu_3x3_reduce
I0403 16:46:27.812139 21436 net.cpp:425] inception_4b/relu_3x3_reduce <- inception_4b/3x3_reduce
I0403 16:46:27.812158 21436 net.cpp:386] inception_4b/relu_3x3_reduce -> inception_4b/3x3_reduce (in-place)
I0403 16:46:27.812446 21436 net.cpp:141] Setting up inception_4b/relu_3x3_reduce
I0403 16:46:27.812474 21436 net.cpp:148] Top shape: 24 112 14 14 (526848)
I0403 16:46:27.812489 21436 net.cpp:156] Memory required for data: 956439840
I0403 16:46:27.812504 21436 layer_factory.hpp:77] Creating layer inception_4b/3x3
I0403 16:46:27.812526 21436 net.cpp:91] Creating Layer inception_4b/3x3
I0403 16:46:27.812544 21436 net.cpp:425] inception_4b/3x3 <- inception_4b/3x3_reduce
I0403 16:46:27.812566 21436 net.cpp:399] inception_4b/3x3 -> inception_4b/3x3
I0403 16:46:27.815636 21436 net.cpp:141] Setting up inception_4b/3x3
I0403 16:46:27.815667 21436 net.cpp:148] Top shape: 24 224 14 14 (1053696)
I0403 16:46:27.815683 21436 net.cpp:156] Memory required for data: 960654624
I0403 16:46:27.815702 21436 layer_factory.hpp:77] Creating layer inception_4b/relu_3x3
I0403 16:46:27.815737 21436 net.cpp:91] Creating Layer inception_4b/relu_3x3
I0403 16:46:27.815754 21436 net.cpp:425] inception_4b/relu_3x3 <- inception_4b/3x3
I0403 16:46:27.815773 21436 net.cpp:386] inception_4b/relu_3x3 -> inception_4b/3x3 (in-place)
I0403 16:46:27.815959 21436 net.cpp:141] Setting up inception_4b/relu_3x3
I0403 16:46:27.815987 21436 net.cpp:148] Top shape: 24 224 14 14 (1053696)
I0403 16:46:27.816004 21436 net.cpp:156] Memory required for data: 964869408
I0403 16:46:27.816018 21436 layer_factory.hpp:77] Creating layer inception_4b/5x5_reduce
I0403 16:46:27.816041 21436 net.cpp:91] Creating Layer inception_4b/5x5_reduce
I0403 16:46:27.816064 21436 net.cpp:425] inception_4b/5x5_reduce <- inception_4a/output_inception_4a/output_0_split_3
I0403 16:46:27.816085 21436 net.cpp:399] inception_4b/5x5_reduce -> inception_4b/5x5_reduce
I0403 16:46:27.817199 21436 net.cpp:141] Setting up inception_4b/5x5_reduce
I0403 16:46:27.817230 21436 net.cpp:148] Top shape: 24 24 14 14 (112896)
I0403 16:46:27.817246 21436 net.cpp:156] Memory required for data: 965320992
I0403 16:46:27.817265 21436 layer_factory.hpp:77] Creating layer inception_4b/relu_5x5_reduce
I0403 16:46:27.817283 21436 net.cpp:91] Creating Layer inception_4b/relu_5x5_reduce
I0403 16:46:27.817327 21436 net.cpp:425] inception_4b/relu_5x5_reduce <- inception_4b/5x5_reduce
I0403 16:46:27.817348 21436 net.cpp:386] inception_4b/relu_5x5_reduce -> inception_4b/5x5_reduce (in-place)
I0403 16:46:27.817530 21436 net.cpp:141] Setting up inception_4b/relu_5x5_reduce
I0403 16:46:27.817555 21436 net.cpp:148] Top shape: 24 24 14 14 (112896)
I0403 16:46:27.817570 21436 net.cpp:156] Memory required for data: 965772576
I0403 16:46:27.817584 21436 layer_factory.hpp:77] Creating layer inception_4b/5x5
I0403 16:46:27.817606 21436 net.cpp:91] Creating Layer inception_4b/5x5
I0403 16:46:27.817625 21436 net.cpp:425] inception_4b/5x5 <- inception_4b/5x5_reduce
I0403 16:46:27.817644 21436 net.cpp:399] inception_4b/5x5 -> inception_4b/5x5
I0403 16:46:27.818938 21436 net.cpp:141] Setting up inception_4b/5x5
I0403 16:46:27.818967 21436 net.cpp:148] Top shape: 24 64 14 14 (301056)
I0403 16:46:27.818984 21436 net.cpp:156] Memory required for data: 966976800
I0403 16:46:27.819002 21436 layer_factory.hpp:77] Creating layer inception_4b/relu_5x5
I0403 16:46:27.819020 21436 net.cpp:91] Creating Layer inception_4b/relu_5x5
I0403 16:46:27.819036 21436 net.cpp:425] inception_4b/relu_5x5 <- inception_4b/5x5
I0403 16:46:27.819059 21436 net.cpp:386] inception_4b/relu_5x5 -> inception_4b/5x5 (in-place)
I0403 16:46:27.819344 21436 net.cpp:141] Setting up inception_4b/relu_5x5
I0403 16:46:27.819372 21436 net.cpp:148] Top shape: 24 64 14 14 (301056)
I0403 16:46:27.819388 21436 net.cpp:156] Memory required for data: 968181024
I0403 16:46:27.819403 21436 layer_factory.hpp:77] Creating layer inception_4b/pool
I0403 16:46:27.819422 21436 net.cpp:91] Creating Layer inception_4b/pool
I0403 16:46:27.819437 21436 net.cpp:425] inception_4b/pool <- inception_4a/output_inception_4a/output_0_split_4
I0403 16:46:27.819458 21436 net.cpp:399] inception_4b/pool -> inception_4b/pool
I0403 16:46:27.819521 21436 net.cpp:141] Setting up inception_4b/pool
I0403 16:46:27.819545 21436 net.cpp:148] Top shape: 24 512 14 14 (2408448)
I0403 16:46:27.819560 21436 net.cpp:156] Memory required for data: 977814816
I0403 16:46:27.819573 21436 layer_factory.hpp:77] Creating layer inception_4b/pool_proj
I0403 16:46:27.819596 21436 net.cpp:91] Creating Layer inception_4b/pool_proj
I0403 16:46:27.819613 21436 net.cpp:425] inception_4b/pool_proj <- inception_4b/pool
I0403 16:46:27.819634 21436 net.cpp:399] inception_4b/pool_proj -> inception_4b/pool_proj
I0403 16:46:27.820860 21436 net.cpp:141] Setting up inception_4b/pool_proj
I0403 16:46:27.820890 21436 net.cpp:148] Top shape: 24 64 14 14 (301056)
I0403 16:46:27.820906 21436 net.cpp:156] Memory required for data: 979019040
I0403 16:46:27.820924 21436 layer_factory.hpp:77] Creating layer inception_4b/relu_pool_proj
I0403 16:46:27.820942 21436 net.cpp:91] Creating Layer inception_4b/relu_pool_proj
I0403 16:46:27.820958 21436 net.cpp:425] inception_4b/relu_pool_proj <- inception_4b/pool_proj
I0403 16:46:27.820977 21436 net.cpp:386] inception_4b/relu_pool_proj -> inception_4b/pool_proj (in-place)
I0403 16:46:27.821161 21436 net.cpp:141] Setting up inception_4b/relu_pool_proj
I0403 16:46:27.821185 21436 net.cpp:148] Top shape: 24 64 14 14 (301056)
I0403 16:46:27.821199 21436 net.cpp:156] Memory required for data: 980223264
I0403 16:46:27.821213 21436 layer_factory.hpp:77] Creating layer inception_4b/output
I0403 16:46:27.821231 21436 net.cpp:91] Creating Layer inception_4b/output
I0403 16:46:27.821246 21436 net.cpp:425] inception_4b/output <- inception_4b/1x1
I0403 16:46:27.821262 21436 net.cpp:425] inception_4b/output <- inception_4b/3x3
I0403 16:46:27.821279 21436 net.cpp:425] inception_4b/output <- inception_4b/5x5
I0403 16:46:27.821293 21436 net.cpp:425] inception_4b/output <- inception_4b/pool_proj
I0403 16:46:27.821312 21436 net.cpp:399] inception_4b/output -> inception_4b/output
I0403 16:46:27.821357 21436 net.cpp:141] Setting up inception_4b/output
I0403 16:46:27.821382 21436 net.cpp:148] Top shape: 24 512 14 14 (2408448)
I0403 16:46:27.821398 21436 net.cpp:156] Memory required for data: 989857056
I0403 16:46:27.821427 21436 layer_factory.hpp:77] Creating layer inception_4b/output_inception_4b/output_0_split
I0403 16:46:27.821445 21436 net.cpp:91] Creating Layer inception_4b/output_inception_4b/output_0_split
I0403 16:46:27.821460 21436 net.cpp:425] inception_4b/output_inception_4b/output_0_split <- inception_4b/output
I0403 16:46:27.821476 21436 net.cpp:399] inception_4b/output_inception_4b/output_0_split -> inception_4b/output_inception_4b/output_0_split_0
I0403 16:46:27.821499 21436 net.cpp:399] inception_4b/output_inception_4b/output_0_split -> inception_4b/output_inception_4b/output_0_split_1
I0403 16:46:27.821521 21436 net.cpp:399] inception_4b/output_inception_4b/output_0_split -> inception_4b/output_inception_4b/output_0_split_2
I0403 16:46:27.821540 21436 net.cpp:399] inception_4b/output_inception_4b/output_0_split -> inception_4b/output_inception_4b/output_0_split_3
I0403 16:46:27.821624 21436 net.cpp:141] Setting up inception_4b/output_inception_4b/output_0_split
I0403 16:46:27.821646 21436 net.cpp:148] Top shape: 24 512 14 14 (2408448)
I0403 16:46:27.821662 21436 net.cpp:148] Top shape: 24 512 14 14 (2408448)
I0403 16:46:27.821677 21436 net.cpp:148] Top shape: 24 512 14 14 (2408448)
I0403 16:46:27.821692 21436 net.cpp:148] Top shape: 24 512 14 14 (2408448)
I0403 16:46:27.821707 21436 net.cpp:156] Memory required for data: 1028392224
I0403 16:46:27.821720 21436 layer_factory.hpp:77] Creating layer inception_4c/1x1
I0403 16:46:27.821744 21436 net.cpp:91] Creating Layer inception_4c/1x1
I0403 16:46:27.821761 21436 net.cpp:425] inception_4c/1x1 <- inception_4b/output_inception_4b/output_0_split_0
I0403 16:46:27.821780 21436 net.cpp:399] inception_4c/1x1 -> inception_4c/1x1
I0403 16:46:27.823268 21436 net.cpp:141] Setting up inception_4c/1x1
I0403 16:46:27.823297 21436 net.cpp:148] Top shape: 24 128 14 14 (602112)
I0403 16:46:27.823313 21436 net.cpp:156] Memory required for data: 1030800672
I0403 16:46:27.823344 21436 layer_factory.hpp:77] Creating layer inception_4c/relu_1x1
I0403 16:46:27.823364 21436 net.cpp:91] Creating Layer inception_4c/relu_1x1
I0403 16:46:27.823380 21436 net.cpp:425] inception_4c/relu_1x1 <- inception_4c/1x1
I0403 16:46:27.823398 21436 net.cpp:386] inception_4c/relu_1x1 -> inception_4c/1x1 (in-place)
I0403 16:46:27.823578 21436 net.cpp:141] Setting up inception_4c/relu_1x1
I0403 16:46:27.823603 21436 net.cpp:148] Top shape: 24 128 14 14 (602112)
I0403 16:46:27.823621 21436 net.cpp:156] Memory required for data: 1033209120
I0403 16:46:27.823637 21436 layer_factory.hpp:77] Creating layer inception_4c/3x3_reduce
I0403 16:46:27.823657 21436 net.cpp:91] Creating Layer inception_4c/3x3_reduce
I0403 16:46:27.823673 21436 net.cpp:425] inception_4c/3x3_reduce <- inception_4b/output_inception_4b/output_0_split_1
I0403 16:46:27.823693 21436 net.cpp:399] inception_4c/3x3_reduce -> inception_4c/3x3_reduce
I0403 16:46:27.825621 21436 net.cpp:141] Setting up inception_4c/3x3_reduce
I0403 16:46:27.825652 21436 net.cpp:148] Top shape: 24 128 14 14 (602112)
I0403 16:46:27.825671 21436 net.cpp:156] Memory required for data: 1035617568
I0403 16:46:27.825690 21436 layer_factory.hpp:77] Creating layer inception_4c/relu_3x3_reduce
I0403 16:46:27.825707 21436 net.cpp:91] Creating Layer inception_4c/relu_3x3_reduce
I0403 16:46:27.825722 21436 net.cpp:425] inception_4c/relu_3x3_reduce <- inception_4c/3x3_reduce
I0403 16:46:27.825739 21436 net.cpp:386] inception_4c/relu_3x3_reduce -> inception_4c/3x3_reduce (in-place)
I0403 16:46:27.826040 21436 net.cpp:141] Setting up inception_4c/relu_3x3_reduce
I0403 16:46:27.826073 21436 net.cpp:148] Top shape: 24 128 14 14 (602112)
I0403 16:46:27.826091 21436 net.cpp:156] Memory required for data: 1038026016
I0403 16:46:27.826105 21436 layer_factory.hpp:77] Creating layer inception_4c/3x3
I0403 16:46:27.826129 21436 net.cpp:91] Creating Layer inception_4c/3x3
I0403 16:46:27.826148 21436 net.cpp:425] inception_4c/3x3 <- inception_4c/3x3_reduce
I0403 16:46:27.826167 21436 net.cpp:399] inception_4c/3x3 -> inception_4c/3x3
I0403 16:46:27.829802 21436 net.cpp:141] Setting up inception_4c/3x3
I0403 16:46:27.829846 21436 net.cpp:148] Top shape: 24 256 14 14 (1204224)
I0403 16:46:27.829864 21436 net.cpp:156] Memory required for data: 1042842912
I0403 16:46:27.829896 21436 layer_factory.hpp:77] Creating layer inception_4c/relu_3x3
I0403 16:46:27.829916 21436 net.cpp:91] Creating Layer inception_4c/relu_3x3
I0403 16:46:27.829932 21436 net.cpp:425] inception_4c/relu_3x3 <- inception_4c/3x3
I0403 16:46:27.829952 21436 net.cpp:386] inception_4c/relu_3x3 -> inception_4c/3x3 (in-place)
I0403 16:46:27.830137 21436 net.cpp:141] Setting up inception_4c/relu_3x3
I0403 16:46:27.830163 21436 net.cpp:148] Top shape: 24 256 14 14 (1204224)
I0403 16:46:27.830178 21436 net.cpp:156] Memory required for data: 1047659808
I0403 16:46:27.830191 21436 layer_factory.hpp:77] Creating layer inception_4c/5x5_reduce
I0403 16:46:27.830216 21436 net.cpp:91] Creating Layer inception_4c/5x5_reduce
I0403 16:46:27.830235 21436 net.cpp:425] inception_4c/5x5_reduce <- inception_4b/output_inception_4b/output_0_split_2
I0403 16:46:27.830255 21436 net.cpp:399] inception_4c/5x5_reduce -> inception_4c/5x5_reduce
I0403 16:46:27.831372 21436 net.cpp:141] Setting up inception_4c/5x5_reduce
I0403 16:46:27.831403 21436 net.cpp:148] Top shape: 24 24 14 14 (112896)
I0403 16:46:27.831419 21436 net.cpp:156] Memory required for data: 1048111392
I0403 16:46:27.831437 21436 layer_factory.hpp:77] Creating layer inception_4c/relu_5x5_reduce
I0403 16:46:27.831455 21436 net.cpp:91] Creating Layer inception_4c/relu_5x5_reduce
I0403 16:46:27.831471 21436 net.cpp:425] inception_4c/relu_5x5_reduce <- inception_4c/5x5_reduce
I0403 16:46:27.831491 21436 net.cpp:386] inception_4c/relu_5x5_reduce -> inception_4c/5x5_reduce (in-place)
I0403 16:46:27.831676 21436 net.cpp:141] Setting up inception_4c/relu_5x5_reduce
I0403 16:46:27.831701 21436 net.cpp:148] Top shape: 24 24 14 14 (112896)
I0403 16:46:27.831714 21436 net.cpp:156] Memory required for data: 1048562976
I0403 16:46:27.831728 21436 layer_factory.hpp:77] Creating layer inception_4c/5x5
I0403 16:46:27.831750 21436 net.cpp:91] Creating Layer inception_4c/5x5
I0403 16:46:27.831768 21436 net.cpp:425] inception_4c/5x5 <- inception_4c/5x5_reduce
I0403 16:46:27.831789 21436 net.cpp:399] inception_4c/5x5 -> inception_4c/5x5
I0403 16:46:27.833020 21436 net.cpp:141] Setting up inception_4c/5x5
I0403 16:46:27.833051 21436 net.cpp:148] Top shape: 24 64 14 14 (301056)
I0403 16:46:27.833068 21436 net.cpp:156] Memory required for data: 1049767200
I0403 16:46:27.833086 21436 layer_factory.hpp:77] Creating layer inception_4c/relu_5x5
I0403 16:46:27.833104 21436 net.cpp:91] Creating Layer inception_4c/relu_5x5
I0403 16:46:27.833120 21436 net.cpp:425] inception_4c/relu_5x5 <- inception_4c/5x5
I0403 16:46:27.833139 21436 net.cpp:386] inception_4c/relu_5x5 -> inception_4c/5x5 (in-place)
I0403 16:46:27.833427 21436 net.cpp:141] Setting up inception_4c/relu_5x5
I0403 16:46:27.833453 21436 net.cpp:148] Top shape: 24 64 14 14 (301056)
I0403 16:46:27.833468 21436 net.cpp:156] Memory required for data: 1050971424
I0403 16:46:27.833482 21436 layer_factory.hpp:77] Creating layer inception_4c/pool
I0403 16:46:27.833500 21436 net.cpp:91] Creating Layer inception_4c/pool
I0403 16:46:27.833516 21436 net.cpp:425] inception_4c/pool <- inception_4b/output_inception_4b/output_0_split_3
I0403 16:46:27.833537 21436 net.cpp:399] inception_4c/pool -> inception_4c/pool
I0403 16:46:27.833603 21436 net.cpp:141] Setting up inception_4c/pool
I0403 16:46:27.833626 21436 net.cpp:148] Top shape: 24 512 14 14 (2408448)
I0403 16:46:27.833642 21436 net.cpp:156] Memory required for data: 1060605216
I0403 16:46:27.833655 21436 layer_factory.hpp:77] Creating layer inception_4c/pool_proj
I0403 16:46:27.833681 21436 net.cpp:91] Creating Layer inception_4c/pool_proj
I0403 16:46:27.833698 21436 net.cpp:425] inception_4c/pool_proj <- inception_4c/pool
I0403 16:46:27.833717 21436 net.cpp:399] inception_4c/pool_proj -> inception_4c/pool_proj
I0403 16:46:27.834974 21436 net.cpp:141] Setting up inception_4c/pool_proj
I0403 16:46:27.835005 21436 net.cpp:148] Top shape: 24 64 14 14 (301056)
I0403 16:46:27.835036 21436 net.cpp:156] Memory required for data: 1061809440
I0403 16:46:27.835059 21436 layer_factory.hpp:77] Creating layer inception_4c/relu_pool_proj
I0403 16:46:27.835078 21436 net.cpp:91] Creating Layer inception_4c/relu_pool_proj
I0403 16:46:27.835095 21436 net.cpp:425] inception_4c/relu_pool_proj <- inception_4c/pool_proj
I0403 16:46:27.835116 21436 net.cpp:386] inception_4c/relu_pool_proj -> inception_4c/pool_proj (in-place)
I0403 16:46:27.835305 21436 net.cpp:141] Setting up inception_4c/relu_pool_proj
I0403 16:46:27.835330 21436 net.cpp:148] Top shape: 24 64 14 14 (301056)
I0403 16:46:27.835345 21436 net.cpp:156] Memory required for data: 1063013664
I0403 16:46:27.835361 21436 layer_factory.hpp:77] Creating layer inception_4c/output
I0403 16:46:27.835378 21436 net.cpp:91] Creating Layer inception_4c/output
I0403 16:46:27.835394 21436 net.cpp:425] inception_4c/output <- inception_4c/1x1
I0403 16:46:27.835410 21436 net.cpp:425] inception_4c/output <- inception_4c/3x3
I0403 16:46:27.835427 21436 net.cpp:425] inception_4c/output <- inception_4c/5x5
I0403 16:46:27.835443 21436 net.cpp:425] inception_4c/output <- inception_4c/pool_proj
I0403 16:46:27.835461 21436 net.cpp:399] inception_4c/output -> inception_4c/output
I0403 16:46:27.835510 21436 net.cpp:141] Setting up inception_4c/output
I0403 16:46:27.835536 21436 net.cpp:148] Top shape: 24 512 14 14 (2408448)
I0403 16:46:27.835551 21436 net.cpp:156] Memory required for data: 1072647456
I0403 16:46:27.835566 21436 layer_factory.hpp:77] Creating layer inception_4c/output_inception_4c/output_0_split
I0403 16:46:27.835583 21436 net.cpp:91] Creating Layer inception_4c/output_inception_4c/output_0_split
I0403 16:46:27.835599 21436 net.cpp:425] inception_4c/output_inception_4c/output_0_split <- inception_4c/output
I0403 16:46:27.835616 21436 net.cpp:399] inception_4c/output_inception_4c/output_0_split -> inception_4c/output_inception_4c/output_0_split_0
I0403 16:46:27.835640 21436 net.cpp:399] inception_4c/output_inception_4c/output_0_split -> inception_4c/output_inception_4c/output_0_split_1
I0403 16:46:27.835661 21436 net.cpp:399] inception_4c/output_inception_4c/output_0_split -> inception_4c/output_inception_4c/output_0_split_2
I0403 16:46:27.835682 21436 net.cpp:399] inception_4c/output_inception_4c/output_0_split -> inception_4c/output_inception_4c/output_0_split_3
I0403 16:46:27.835770 21436 net.cpp:141] Setting up inception_4c/output_inception_4c/output_0_split
I0403 16:46:27.835794 21436 net.cpp:148] Top shape: 24 512 14 14 (2408448)
I0403 16:46:27.835810 21436 net.cpp:148] Top shape: 24 512 14 14 (2408448)
I0403 16:46:27.835826 21436 net.cpp:148] Top shape: 24 512 14 14 (2408448)
I0403 16:46:27.835842 21436 net.cpp:148] Top shape: 24 512 14 14 (2408448)
I0403 16:46:27.835855 21436 net.cpp:156] Memory required for data: 1111182624
I0403 16:46:27.835870 21436 layer_factory.hpp:77] Creating layer inception_4d/1x1
I0403 16:46:27.835894 21436 net.cpp:91] Creating Layer inception_4d/1x1
I0403 16:46:27.835912 21436 net.cpp:425] inception_4d/1x1 <- inception_4c/output_inception_4c/output_0_split_0
I0403 16:46:27.835932 21436 net.cpp:399] inception_4d/1x1 -> inception_4d/1x1
I0403 16:46:27.837355 21436 net.cpp:141] Setting up inception_4d/1x1
I0403 16:46:27.837384 21436 net.cpp:148] Top shape: 24 112 14 14 (526848)
I0403 16:46:27.837400 21436 net.cpp:156] Memory required for data: 1113290016
I0403 16:46:27.837419 21436 layer_factory.hpp:77] Creating layer inception_4d/relu_1x1
I0403 16:46:27.837440 21436 net.cpp:91] Creating Layer inception_4d/relu_1x1
I0403 16:46:27.837460 21436 net.cpp:425] inception_4d/relu_1x1 <- inception_4d/1x1
I0403 16:46:27.837477 21436 net.cpp:386] inception_4d/relu_1x1 -> inception_4d/1x1 (in-place)
I0403 16:46:27.837664 21436 net.cpp:141] Setting up inception_4d/relu_1x1
I0403 16:46:27.837692 21436 net.cpp:148] Top shape: 24 112 14 14 (526848)
I0403 16:46:27.837708 21436 net.cpp:156] Memory required for data: 1115397408
I0403 16:46:27.837723 21436 layer_factory.hpp:77] Creating layer inception_4d/3x3_reduce
I0403 16:46:27.837761 21436 net.cpp:91] Creating Layer inception_4d/3x3_reduce
I0403 16:46:27.837781 21436 net.cpp:425] inception_4d/3x3_reduce <- inception_4c/output_inception_4c/output_0_split_1
I0403 16:46:27.837805 21436 net.cpp:399] inception_4d/3x3_reduce -> inception_4d/3x3_reduce
I0403 16:46:27.839377 21436 net.cpp:141] Setting up inception_4d/3x3_reduce
I0403 16:46:27.839406 21436 net.cpp:148] Top shape: 24 144 14 14 (677376)
I0403 16:46:27.839422 21436 net.cpp:156] Memory required for data: 1118106912
I0403 16:46:27.839440 21436 layer_factory.hpp:77] Creating layer inception_4d/relu_3x3_reduce
I0403 16:46:27.839462 21436 net.cpp:91] Creating Layer inception_4d/relu_3x3_reduce
I0403 16:46:27.839479 21436 net.cpp:425] inception_4d/relu_3x3_reduce <- inception_4d/3x3_reduce
I0403 16:46:27.839496 21436 net.cpp:386] inception_4d/relu_3x3_reduce -> inception_4d/3x3_reduce (in-place)
I0403 16:46:27.839792 21436 net.cpp:141] Setting up inception_4d/relu_3x3_reduce
I0403 16:46:27.839820 21436 net.cpp:148] Top shape: 24 144 14 14 (677376)
I0403 16:46:27.839835 21436 net.cpp:156] Memory required for data: 1120816416
I0403 16:46:27.839850 21436 layer_factory.hpp:77] Creating layer inception_4d/3x3
I0403 16:46:27.839874 21436 net.cpp:91] Creating Layer inception_4d/3x3
I0403 16:46:27.839891 21436 net.cpp:425] inception_4d/3x3 <- inception_4d/3x3_reduce
I0403 16:46:27.839915 21436 net.cpp:399] inception_4d/3x3 -> inception_4d/3x3
I0403 16:46:27.844291 21436 net.cpp:141] Setting up inception_4d/3x3
I0403 16:46:27.844321 21436 net.cpp:148] Top shape: 24 288 14 14 (1354752)
I0403 16:46:27.844337 21436 net.cpp:156] Memory required for data: 1126235424
I0403 16:46:27.844355 21436 layer_factory.hpp:77] Creating layer inception_4d/relu_3x3
I0403 16:46:27.844377 21436 net.cpp:91] Creating Layer inception_4d/relu_3x3
I0403 16:46:27.844393 21436 net.cpp:425] inception_4d/relu_3x3 <- inception_4d/3x3
I0403 16:46:27.844411 21436 net.cpp:386] inception_4d/relu_3x3 -> inception_4d/3x3 (in-place)
I0403 16:46:27.844602 21436 net.cpp:141] Setting up inception_4d/relu_3x3
I0403 16:46:27.844630 21436 net.cpp:148] Top shape: 24 288 14 14 (1354752)
I0403 16:46:27.844645 21436 net.cpp:156] Memory required for data: 1131654432
I0403 16:46:27.844661 21436 layer_factory.hpp:77] Creating layer inception_4d/5x5_reduce
I0403 16:46:27.844683 21436 net.cpp:91] Creating Layer inception_4d/5x5_reduce
I0403 16:46:27.844702 21436 net.cpp:425] inception_4d/5x5_reduce <- inception_4c/output_inception_4c/output_0_split_2
I0403 16:46:27.844722 21436 net.cpp:399] inception_4d/5x5_reduce -> inception_4d/5x5_reduce
I0403 16:46:27.845906 21436 net.cpp:141] Setting up inception_4d/5x5_reduce
I0403 16:46:27.845935 21436 net.cpp:148] Top shape: 24 32 14 14 (150528)
I0403 16:46:27.845950 21436 net.cpp:156] Memory required for data: 1132256544
I0403 16:46:27.845971 21436 layer_factory.hpp:77] Creating layer inception_4d/relu_5x5_reduce
I0403 16:46:27.845991 21436 net.cpp:91] Creating Layer inception_4d/relu_5x5_reduce
I0403 16:46:27.846009 21436 net.cpp:425] inception_4d/relu_5x5_reduce <- inception_4d/5x5_reduce
I0403 16:46:27.846027 21436 net.cpp:386] inception_4d/relu_5x5_reduce -> inception_4d/5x5_reduce (in-place)
I0403 16:46:27.846222 21436 net.cpp:141] Setting up inception_4d/relu_5x5_reduce
I0403 16:46:27.846251 21436 net.cpp:148] Top shape: 24 32 14 14 (150528)
I0403 16:46:27.846266 21436 net.cpp:156] Memory required for data: 1132858656
I0403 16:46:27.846282 21436 layer_factory.hpp:77] Creating layer inception_4d/5x5
I0403 16:46:27.846303 21436 net.cpp:91] Creating Layer inception_4d/5x5
I0403 16:46:27.846323 21436 net.cpp:425] inception_4d/5x5 <- inception_4d/5x5_reduce
I0403 16:46:27.846343 21436 net.cpp:399] inception_4d/5x5 -> inception_4d/5x5
I0403 16:46:27.847858 21436 net.cpp:141] Setting up inception_4d/5x5
I0403 16:46:27.847887 21436 net.cpp:148] Top shape: 24 64 14 14 (301056)
I0403 16:46:27.847901 21436 net.cpp:156] Memory required for data: 1134062880
I0403 16:46:27.847920 21436 layer_factory.hpp:77] Creating layer inception_4d/relu_5x5
I0403 16:46:27.847954 21436 net.cpp:91] Creating Layer inception_4d/relu_5x5
I0403 16:46:27.847972 21436 net.cpp:425] inception_4d/relu_5x5 <- inception_4d/5x5
I0403 16:46:27.847992 21436 net.cpp:386] inception_4d/relu_5x5 -> inception_4d/5x5 (in-place)
I0403 16:46:27.848304 21436 net.cpp:141] Setting up inception_4d/relu_5x5
I0403 16:46:27.848331 21436 net.cpp:148] Top shape: 24 64 14 14 (301056)
I0403 16:46:27.848346 21436 net.cpp:156] Memory required for data: 1135267104
I0403 16:46:27.848361 21436 layer_factory.hpp:77] Creating layer inception_4d/pool
I0403 16:46:27.848378 21436 net.cpp:91] Creating Layer inception_4d/pool
I0403 16:46:27.848394 21436 net.cpp:425] inception_4d/pool <- inception_4c/output_inception_4c/output_0_split_3
I0403 16:46:27.848414 21436 net.cpp:399] inception_4d/pool -> inception_4d/pool
I0403 16:46:27.848480 21436 net.cpp:141] Setting up inception_4d/pool
I0403 16:46:27.848503 21436 net.cpp:148] Top shape: 24 512 14 14 (2408448)
I0403 16:46:27.848518 21436 net.cpp:156] Memory required for data: 1144900896
I0403 16:46:27.848533 21436 layer_factory.hpp:77] Creating layer inception_4d/pool_proj
I0403 16:46:27.848557 21436 net.cpp:91] Creating Layer inception_4d/pool_proj
I0403 16:46:27.848574 21436 net.cpp:425] inception_4d/pool_proj <- inception_4d/pool
I0403 16:46:27.848592 21436 net.cpp:399] inception_4d/pool_proj -> inception_4d/pool_proj
I0403 16:46:27.850347 21436 net.cpp:141] Setting up inception_4d/pool_proj
I0403 16:46:27.850378 21436 net.cpp:148] Top shape: 24 64 14 14 (301056)
I0403 16:46:27.850394 21436 net.cpp:156] Memory required for data: 1146105120
I0403 16:46:27.850412 21436 layer_factory.hpp:77] Creating layer inception_4d/relu_pool_proj
I0403 16:46:27.850435 21436 net.cpp:91] Creating Layer inception_4d/relu_pool_proj
I0403 16:46:27.850450 21436 net.cpp:425] inception_4d/relu_pool_proj <- inception_4d/pool_proj
I0403 16:46:27.850467 21436 net.cpp:386] inception_4d/relu_pool_proj -> inception_4d/pool_proj (in-place)
I0403 16:46:27.850651 21436 net.cpp:141] Setting up inception_4d/relu_pool_proj
I0403 16:46:27.850677 21436 net.cpp:148] Top shape: 24 64 14 14 (301056)
I0403 16:46:27.850693 21436 net.cpp:156] Memory required for data: 1147309344
I0403 16:46:27.850708 21436 layer_factory.hpp:77] Creating layer inception_4d/output
I0403 16:46:27.850725 21436 net.cpp:91] Creating Layer inception_4d/output
I0403 16:46:27.850741 21436 net.cpp:425] inception_4d/output <- inception_4d/1x1
I0403 16:46:27.850759 21436 net.cpp:425] inception_4d/output <- inception_4d/3x3
I0403 16:46:27.850774 21436 net.cpp:425] inception_4d/output <- inception_4d/5x5
I0403 16:46:27.850790 21436 net.cpp:425] inception_4d/output <- inception_4d/pool_proj
I0403 16:46:27.850808 21436 net.cpp:399] inception_4d/output -> inception_4d/output
I0403 16:46:27.850857 21436 net.cpp:141] Setting up inception_4d/output
I0403 16:46:27.850878 21436 net.cpp:148] Top shape: 24 528 14 14 (2483712)
I0403 16:46:27.850893 21436 net.cpp:156] Memory required for data: 1157244192
I0403 16:46:27.850908 21436 layer_factory.hpp:77] Creating layer inception_4d/output_inception_4d/output_0_split
I0403 16:46:27.850927 21436 net.cpp:91] Creating Layer inception_4d/output_inception_4d/output_0_split
I0403 16:46:27.850944 21436 net.cpp:425] inception_4d/output_inception_4d/output_0_split <- inception_4d/output
I0403 16:46:27.850963 21436 net.cpp:399] inception_4d/output_inception_4d/output_0_split -> inception_4d/output_inception_4d/output_0_split_0
I0403 16:46:27.850986 21436 net.cpp:399] inception_4d/output_inception_4d/output_0_split -> inception_4d/output_inception_4d/output_0_split_1
I0403 16:46:27.851008 21436 net.cpp:399] inception_4d/output_inception_4d/output_0_split -> inception_4d/output_inception_4d/output_0_split_2
I0403 16:46:27.851028 21436 net.cpp:399] inception_4d/output_inception_4d/output_0_split -> inception_4d/output_inception_4d/output_0_split_3
I0403 16:46:27.851052 21436 net.cpp:399] inception_4d/output_inception_4d/output_0_split -> inception_4d/output_inception_4d/output_0_split_4
I0403 16:46:27.851156 21436 net.cpp:141] Setting up inception_4d/output_inception_4d/output_0_split
I0403 16:46:27.851191 21436 net.cpp:148] Top shape: 24 528 14 14 (2483712)
I0403 16:46:27.851209 21436 net.cpp:148] Top shape: 24 528 14 14 (2483712)
I0403 16:46:27.851224 21436 net.cpp:148] Top shape: 24 528 14 14 (2483712)
I0403 16:46:27.851239 21436 net.cpp:148] Top shape: 24 528 14 14 (2483712)
I0403 16:46:27.851255 21436 net.cpp:148] Top shape: 24 528 14 14 (2483712)
I0403 16:46:27.851269 21436 net.cpp:156] Memory required for data: 1206918432
I0403 16:46:27.851284 21436 layer_factory.hpp:77] Creating layer loss2/ave_pool
I0403 16:46:27.851303 21436 net.cpp:91] Creating Layer loss2/ave_pool
I0403 16:46:27.851320 21436 net.cpp:425] loss2/ave_pool <- inception_4d/output_inception_4d/output_0_split_0
I0403 16:46:27.851338 21436 net.cpp:399] loss2/ave_pool -> loss2/ave_pool
I0403 16:46:27.851647 21436 net.cpp:141] Setting up loss2/ave_pool
I0403 16:46:27.851676 21436 net.cpp:148] Top shape: 24 528 4 4 (202752)
I0403 16:46:27.851692 21436 net.cpp:156] Memory required for data: 1207729440
I0403 16:46:27.851707 21436 layer_factory.hpp:77] Creating layer loss2/conv
I0403 16:46:27.851728 21436 net.cpp:91] Creating Layer loss2/conv
I0403 16:46:27.851744 21436 net.cpp:425] loss2/conv <- loss2/ave_pool
I0403 16:46:27.851765 21436 net.cpp:399] loss2/conv -> loss2/conv
I0403 16:46:27.853667 21436 net.cpp:141] Setting up loss2/conv
I0403 16:46:27.853694 21436 net.cpp:148] Top shape: 24 128 4 4 (49152)
I0403 16:46:27.853709 21436 net.cpp:156] Memory required for data: 1207926048
I0403 16:46:27.853726 21436 layer_factory.hpp:77] Creating layer loss2/relu_conv
I0403 16:46:27.853744 21436 net.cpp:91] Creating Layer loss2/relu_conv
I0403 16:46:27.853760 21436 net.cpp:425] loss2/relu_conv <- loss2/conv
I0403 16:46:27.853780 21436 net.cpp:386] loss2/relu_conv -> loss2/conv (in-place)
I0403 16:46:27.854059 21436 net.cpp:141] Setting up loss2/relu_conv
I0403 16:46:27.854085 21436 net.cpp:148] Top shape: 24 128 4 4 (49152)
I0403 16:46:27.854099 21436 net.cpp:156] Memory required for data: 1208122656
I0403 16:46:27.854113 21436 layer_factory.hpp:77] Creating layer loss2/fc
I0403 16:46:27.854132 21436 net.cpp:91] Creating Layer loss2/fc
I0403 16:46:27.854147 21436 net.cpp:425] loss2/fc <- loss2/conv
I0403 16:46:27.854168 21436 net.cpp:399] loss2/fc -> loss2/fc
I0403 16:46:27.871258 21436 net.cpp:141] Setting up loss2/fc
I0403 16:46:27.871289 21436 net.cpp:148] Top shape: 24 1024 (24576)
I0403 16:46:27.871304 21436 net.cpp:156] Memory required for data: 1208220960
I0403 16:46:27.871321 21436 layer_factory.hpp:77] Creating layer loss2/relu_fc
I0403 16:46:27.871340 21436 net.cpp:91] Creating Layer loss2/relu_fc
I0403 16:46:27.871357 21436 net.cpp:425] loss2/relu_fc <- loss2/fc
I0403 16:46:27.871373 21436 net.cpp:386] loss2/relu_fc -> loss2/fc (in-place)
I0403 16:46:27.871662 21436 net.cpp:141] Setting up loss2/relu_fc
I0403 16:46:27.871690 21436 net.cpp:148] Top shape: 24 1024 (24576)
I0403 16:46:27.871706 21436 net.cpp:156] Memory required for data: 1208319264
I0403 16:46:27.871721 21436 layer_factory.hpp:77] Creating layer loss2/drop_fc
I0403 16:46:27.871737 21436 net.cpp:91] Creating Layer loss2/drop_fc
I0403 16:46:27.871752 21436 net.cpp:425] loss2/drop_fc <- loss2/fc
I0403 16:46:27.871768 21436 net.cpp:386] loss2/drop_fc -> loss2/fc (in-place)
I0403 16:46:27.871819 21436 net.cpp:141] Setting up loss2/drop_fc
I0403 16:46:27.871840 21436 net.cpp:148] Top shape: 24 1024 (24576)
I0403 16:46:27.871855 21436 net.cpp:156] Memory required for data: 1208417568
I0403 16:46:27.871868 21436 layer_factory.hpp:77] Creating layer loss2/classifier_plantvillage
I0403 16:46:27.871888 21436 net.cpp:91] Creating Layer loss2/classifier_plantvillage
I0403 16:46:27.871906 21436 net.cpp:425] loss2/classifier_plantvillage <- loss2/fc
I0403 16:46:27.871923 21436 net.cpp:399] loss2/classifier_plantvillage -> loss2/classifier_plantvillage
I0403 16:46:27.872316 21436 net.cpp:141] Setting up loss2/classifier_plantvillage
I0403 16:46:27.872341 21436 net.cpp:148] Top shape: 24 38 (912)
I0403 16:46:27.872370 21436 net.cpp:156] Memory required for data: 1208421216
I0403 16:46:27.872387 21436 layer_factory.hpp:77] Creating layer loss2/classifier_plantvillage_loss2/classifier_plantvillage_0_split
I0403 16:46:27.872406 21436 net.cpp:91] Creating Layer loss2/classifier_plantvillage_loss2/classifier_plantvillage_0_split
I0403 16:46:27.872421 21436 net.cpp:425] loss2/classifier_plantvillage_loss2/classifier_plantvillage_0_split <- loss2/classifier_plantvillage
I0403 16:46:27.872439 21436 net.cpp:399] loss2/classifier_plantvillage_loss2/classifier_plantvillage_0_split -> loss2/classifier_plantvillage_loss2/classifier_plantvillage_0_split_0
I0403 16:46:27.872459 21436 net.cpp:399] loss2/classifier_plantvillage_loss2/classifier_plantvillage_0_split -> loss2/classifier_plantvillage_loss2/classifier_plantvillage_0_split_1
I0403 16:46:27.872478 21436 net.cpp:399] loss2/classifier_plantvillage_loss2/classifier_plantvillage_0_split -> loss2/classifier_plantvillage_loss2/classifier_plantvillage_0_split_2
I0403 16:46:27.872553 21436 net.cpp:141] Setting up loss2/classifier_plantvillage_loss2/classifier_plantvillage_0_split
I0403 16:46:27.872577 21436 net.cpp:148] Top shape: 24 38 (912)
I0403 16:46:27.872593 21436 net.cpp:148] Top shape: 24 38 (912)
I0403 16:46:27.872608 21436 net.cpp:148] Top shape: 24 38 (912)
I0403 16:46:27.872622 21436 net.cpp:156] Memory required for data: 1208432160
I0403 16:46:27.872634 21436 layer_factory.hpp:77] Creating layer inception_4e/1x1
I0403 16:46:27.872653 21436 net.cpp:91] Creating Layer inception_4e/1x1
I0403 16:46:27.872668 21436 net.cpp:425] inception_4e/1x1 <- inception_4d/output_inception_4d/output_0_split_1
I0403 16:46:27.872687 21436 net.cpp:399] inception_4e/1x1 -> inception_4e/1x1
I0403 16:46:27.874449 21436 net.cpp:141] Setting up inception_4e/1x1
I0403 16:46:27.874476 21436 net.cpp:148] Top shape: 24 256 14 14 (1204224)
I0403 16:46:27.874491 21436 net.cpp:156] Memory required for data: 1213249056
I0403 16:46:27.874510 21436 layer_factory.hpp:77] Creating layer inception_4e/relu_1x1
I0403 16:46:27.874526 21436 net.cpp:91] Creating Layer inception_4e/relu_1x1
I0403 16:46:27.874542 21436 net.cpp:425] inception_4e/relu_1x1 <- inception_4e/1x1
I0403 16:46:27.874560 21436 net.cpp:386] inception_4e/relu_1x1 -> inception_4e/1x1 (in-place)
I0403 16:46:27.874852 21436 net.cpp:141] Setting up inception_4e/relu_1x1
I0403 16:46:27.874877 21436 net.cpp:148] Top shape: 24 256 14 14 (1204224)
I0403 16:46:27.874891 21436 net.cpp:156] Memory required for data: 1218065952
I0403 16:46:27.874905 21436 layer_factory.hpp:77] Creating layer inception_4e/3x3_reduce
I0403 16:46:27.874927 21436 net.cpp:91] Creating Layer inception_4e/3x3_reduce
I0403 16:46:27.874943 21436 net.cpp:425] inception_4e/3x3_reduce <- inception_4d/output_inception_4d/output_0_split_2
I0403 16:46:27.874966 21436 net.cpp:399] inception_4e/3x3_reduce -> inception_4e/3x3_reduce
I0403 16:46:27.877020 21436 net.cpp:141] Setting up inception_4e/3x3_reduce
I0403 16:46:27.877053 21436 net.cpp:148] Top shape: 24 160 14 14 (752640)
I0403 16:46:27.877070 21436 net.cpp:156] Memory required for data: 1221076512
I0403 16:46:27.877089 21436 layer_factory.hpp:77] Creating layer inception_4e/relu_3x3_reduce
I0403 16:46:27.877106 21436 net.cpp:91] Creating Layer inception_4e/relu_3x3_reduce
I0403 16:46:27.877121 21436 net.cpp:425] inception_4e/relu_3x3_reduce <- inception_4e/3x3_reduce
I0403 16:46:27.877140 21436 net.cpp:386] inception_4e/relu_3x3_reduce -> inception_4e/3x3_reduce (in-place)
I0403 16:46:27.877321 21436 net.cpp:141] Setting up inception_4e/relu_3x3_reduce
I0403 16:46:27.877344 21436 net.cpp:148] Top shape: 24 160 14 14 (752640)
I0403 16:46:27.877358 21436 net.cpp:156] Memory required for data: 1224087072
I0403 16:46:27.877373 21436 layer_factory.hpp:77] Creating layer inception_4e/3x3
I0403 16:46:27.877395 21436 net.cpp:91] Creating Layer inception_4e/3x3
I0403 16:46:27.877413 21436 net.cpp:425] inception_4e/3x3 <- inception_4e/3x3_reduce
I0403 16:46:27.877434 21436 net.cpp:399] inception_4e/3x3 -> inception_4e/3x3
I0403 16:46:27.882297 21436 net.cpp:141] Setting up inception_4e/3x3
I0403 16:46:27.882336 21436 net.cpp:148] Top shape: 24 320 14 14 (1505280)
I0403 16:46:27.882352 21436 net.cpp:156] Memory required for data: 1230108192
I0403 16:46:27.882370 21436 layer_factory.hpp:77] Creating layer inception_4e/relu_3x3
I0403 16:46:27.882390 21436 net.cpp:91] Creating Layer inception_4e/relu_3x3
I0403 16:46:27.882407 21436 net.cpp:425] inception_4e/relu_3x3 <- inception_4e/3x3
I0403 16:46:27.882423 21436 net.cpp:386] inception_4e/relu_3x3 -> inception_4e/3x3 (in-place)
I0403 16:46:27.882730 21436 net.cpp:141] Setting up inception_4e/relu_3x3
I0403 16:46:27.882755 21436 net.cpp:148] Top shape: 24 320 14 14 (1505280)
I0403 16:46:27.882771 21436 net.cpp:156] Memory required for data: 1236129312
I0403 16:46:27.882784 21436 layer_factory.hpp:77] Creating layer inception_4e/5x5_reduce
I0403 16:46:27.882807 21436 net.cpp:91] Creating Layer inception_4e/5x5_reduce
I0403 16:46:27.882827 21436 net.cpp:425] inception_4e/5x5_reduce <- inception_4d/output_inception_4d/output_0_split_3
I0403 16:46:27.882846 21436 net.cpp:399] inception_4e/5x5_reduce -> inception_4e/5x5_reduce
I0403 16:46:27.883900 21436 net.cpp:141] Setting up inception_4e/5x5_reduce
I0403 16:46:27.883927 21436 net.cpp:148] Top shape: 24 32 14 14 (150528)
I0403 16:46:27.883941 21436 net.cpp:156] Memory required for data: 1236731424
I0403 16:46:27.883960 21436 layer_factory.hpp:77] Creating layer inception_4e/relu_5x5_reduce
I0403 16:46:27.883977 21436 net.cpp:91] Creating Layer inception_4e/relu_5x5_reduce
I0403 16:46:27.883992 21436 net.cpp:425] inception_4e/relu_5x5_reduce <- inception_4e/5x5_reduce
I0403 16:46:27.884011 21436 net.cpp:386] inception_4e/relu_5x5_reduce -> inception_4e/5x5_reduce (in-place)
I0403 16:46:27.884305 21436 net.cpp:141] Setting up inception_4e/relu_5x5_reduce
I0403 16:46:27.884330 21436 net.cpp:148] Top shape: 24 32 14 14 (150528)
I0403 16:46:27.884344 21436 net.cpp:156] Memory required for data: 1237333536
I0403 16:46:27.884358 21436 layer_factory.hpp:77] Creating layer inception_4e/5x5
I0403 16:46:27.884395 21436 net.cpp:91] Creating Layer inception_4e/5x5
I0403 16:46:27.884413 21436 net.cpp:425] inception_4e/5x5 <- inception_4e/5x5_reduce
I0403 16:46:27.884433 21436 net.cpp:399] inception_4e/5x5 -> inception_4e/5x5
I0403 16:46:27.886330 21436 net.cpp:141] Setting up inception_4e/5x5
I0403 16:46:27.886360 21436 net.cpp:148] Top shape: 24 128 14 14 (602112)
I0403 16:46:27.886378 21436 net.cpp:156] Memory required for data: 1239741984
I0403 16:46:27.886395 21436 layer_factory.hpp:77] Creating layer inception_4e/relu_5x5
I0403 16:46:27.886414 21436 net.cpp:91] Creating Layer inception_4e/relu_5x5
I0403 16:46:27.886430 21436 net.cpp:425] inception_4e/relu_5x5 <- inception_4e/5x5
I0403 16:46:27.886446 21436 net.cpp:386] inception_4e/relu_5x5 -> inception_4e/5x5 (in-place)
I0403 16:46:27.886638 21436 net.cpp:141] Setting up inception_4e/relu_5x5
I0403 16:46:27.886663 21436 net.cpp:148] Top shape: 24 128 14 14 (602112)
I0403 16:46:27.886677 21436 net.cpp:156] Memory required for data: 1242150432
I0403 16:46:27.886692 21436 layer_factory.hpp:77] Creating layer inception_4e/pool
I0403 16:46:27.886708 21436 net.cpp:91] Creating Layer inception_4e/pool
I0403 16:46:27.886725 21436 net.cpp:425] inception_4e/pool <- inception_4d/output_inception_4d/output_0_split_4
I0403 16:46:27.886744 21436 net.cpp:399] inception_4e/pool -> inception_4e/pool
I0403 16:46:27.886812 21436 net.cpp:141] Setting up inception_4e/pool
I0403 16:46:27.886837 21436 net.cpp:148] Top shape: 24 528 14 14 (2483712)
I0403 16:46:27.886852 21436 net.cpp:156] Memory required for data: 1252085280
I0403 16:46:27.886865 21436 layer_factory.hpp:77] Creating layer inception_4e/pool_proj
I0403 16:46:27.886886 21436 net.cpp:91] Creating Layer inception_4e/pool_proj
I0403 16:46:27.886904 21436 net.cpp:425] inception_4e/pool_proj <- inception_4e/pool
I0403 16:46:27.886921 21436 net.cpp:399] inception_4e/pool_proj -> inception_4e/pool_proj
I0403 16:46:27.888487 21436 net.cpp:141] Setting up inception_4e/pool_proj
I0403 16:46:27.888530 21436 net.cpp:148] Top shape: 24 128 14 14 (602112)
I0403 16:46:27.888546 21436 net.cpp:156] Memory required for data: 1254493728
I0403 16:46:27.888564 21436 layer_factory.hpp:77] Creating layer inception_4e/relu_pool_proj
I0403 16:46:27.888582 21436 net.cpp:91] Creating Layer inception_4e/relu_pool_proj
I0403 16:46:27.888598 21436 net.cpp:425] inception_4e/relu_pool_proj <- inception_4e/pool_proj
I0403 16:46:27.888615 21436 net.cpp:386] inception_4e/relu_pool_proj -> inception_4e/pool_proj (in-place)
I0403 16:46:27.888913 21436 net.cpp:141] Setting up inception_4e/relu_pool_proj
I0403 16:46:27.888942 21436 net.cpp:148] Top shape: 24 128 14 14 (602112)
I0403 16:46:27.888960 21436 net.cpp:156] Memory required for data: 1256902176
I0403 16:46:27.888975 21436 layer_factory.hpp:77] Creating layer inception_4e/output
I0403 16:46:27.888993 21436 net.cpp:91] Creating Layer inception_4e/output
I0403 16:46:27.889020 21436 net.cpp:425] inception_4e/output <- inception_4e/1x1
I0403 16:46:27.889039 21436 net.cpp:425] inception_4e/output <- inception_4e/3x3
I0403 16:46:27.889060 21436 net.cpp:425] inception_4e/output <- inception_4e/5x5
I0403 16:46:27.889077 21436 net.cpp:425] inception_4e/output <- inception_4e/pool_proj
I0403 16:46:27.889094 21436 net.cpp:399] inception_4e/output -> inception_4e/output
I0403 16:46:27.889148 21436 net.cpp:141] Setting up inception_4e/output
I0403 16:46:27.889173 21436 net.cpp:148] Top shape: 24 832 14 14 (3913728)
I0403 16:46:27.889188 21436 net.cpp:156] Memory required for data: 1272557088
I0403 16:46:27.889202 21436 layer_factory.hpp:77] Creating layer pool4/3x3_s2
I0403 16:46:27.889225 21436 net.cpp:91] Creating Layer pool4/3x3_s2
I0403 16:46:27.889241 21436 net.cpp:425] pool4/3x3_s2 <- inception_4e/output
I0403 16:46:27.889261 21436 net.cpp:399] pool4/3x3_s2 -> pool4/3x3_s2
I0403 16:46:27.889331 21436 net.cpp:141] Setting up pool4/3x3_s2
I0403 16:46:27.889356 21436 net.cpp:148] Top shape: 24 832 7 7 (978432)
I0403 16:46:27.889370 21436 net.cpp:156] Memory required for data: 1276470816
I0403 16:46:27.889385 21436 layer_factory.hpp:77] Creating layer pool4/3x3_s2_pool4/3x3_s2_0_split
I0403 16:46:27.889402 21436 net.cpp:91] Creating Layer pool4/3x3_s2_pool4/3x3_s2_0_split
I0403 16:46:27.889420 21436 net.cpp:425] pool4/3x3_s2_pool4/3x3_s2_0_split <- pool4/3x3_s2
I0403 16:46:27.889438 21436 net.cpp:399] pool4/3x3_s2_pool4/3x3_s2_0_split -> pool4/3x3_s2_pool4/3x3_s2_0_split_0
I0403 16:46:27.889459 21436 net.cpp:399] pool4/3x3_s2_pool4/3x3_s2_0_split -> pool4/3x3_s2_pool4/3x3_s2_0_split_1
I0403 16:46:27.889479 21436 net.cpp:399] pool4/3x3_s2_pool4/3x3_s2_0_split -> pool4/3x3_s2_pool4/3x3_s2_0_split_2
I0403 16:46:27.889500 21436 net.cpp:399] pool4/3x3_s2_pool4/3x3_s2_0_split -> pool4/3x3_s2_pool4/3x3_s2_0_split_3
I0403 16:46:27.889593 21436 net.cpp:141] Setting up pool4/3x3_s2_pool4/3x3_s2_0_split
I0403 16:46:27.889617 21436 net.cpp:148] Top shape: 24 832 7 7 (978432)
I0403 16:46:27.889633 21436 net.cpp:148] Top shape: 24 832 7 7 (978432)
I0403 16:46:27.889649 21436 net.cpp:148] Top shape: 24 832 7 7 (978432)
I0403 16:46:27.889664 21436 net.cpp:148] Top shape: 24 832 7 7 (978432)
I0403 16:46:27.889678 21436 net.cpp:156] Memory required for data: 1292125728
I0403 16:46:27.889693 21436 layer_factory.hpp:77] Creating layer inception_5a/1x1
I0403 16:46:27.889717 21436 net.cpp:91] Creating Layer inception_5a/1x1
I0403 16:46:27.889735 21436 net.cpp:425] inception_5a/1x1 <- pool4/3x3_s2_pool4/3x3_s2_0_split_0
I0403 16:46:27.889755 21436 net.cpp:399] inception_5a/1x1 -> inception_5a/1x1
I0403 16:46:27.892700 21436 net.cpp:141] Setting up inception_5a/1x1
I0403 16:46:27.892732 21436 net.cpp:148] Top shape: 24 256 7 7 (301056)
I0403 16:46:27.892750 21436 net.cpp:156] Memory required for data: 1293329952
I0403 16:46:27.892771 21436 layer_factory.hpp:77] Creating layer inception_5a/relu_1x1
I0403 16:46:27.892788 21436 net.cpp:91] Creating Layer inception_5a/relu_1x1
I0403 16:46:27.892805 21436 net.cpp:425] inception_5a/relu_1x1 <- inception_5a/1x1
I0403 16:46:27.892825 21436 net.cpp:386] inception_5a/relu_1x1 -> inception_5a/1x1 (in-place)
I0403 16:46:27.893151 21436 net.cpp:141] Setting up inception_5a/relu_1x1
I0403 16:46:27.893182 21436 net.cpp:148] Top shape: 24 256 7 7 (301056)
I0403 16:46:27.893198 21436 net.cpp:156] Memory required for data: 1294534176
I0403 16:46:27.893213 21436 layer_factory.hpp:77] Creating layer inception_5a/3x3_reduce
I0403 16:46:27.893236 21436 net.cpp:91] Creating Layer inception_5a/3x3_reduce
I0403 16:46:27.893254 21436 net.cpp:425] inception_5a/3x3_reduce <- pool4/3x3_s2_pool4/3x3_s2_0_split_1
I0403 16:46:27.893275 21436 net.cpp:399] inception_5a/3x3_reduce -> inception_5a/3x3_reduce
I0403 16:46:27.896677 21436 net.cpp:141] Setting up inception_5a/3x3_reduce
I0403 16:46:27.896706 21436 net.cpp:148] Top shape: 24 160 7 7 (188160)
I0403 16:46:27.896723 21436 net.cpp:156] Memory required for data: 1295286816
I0403 16:46:27.896741 21436 layer_factory.hpp:77] Creating layer inception_5a/relu_3x3_reduce
I0403 16:46:27.896762 21436 net.cpp:91] Creating Layer inception_5a/relu_3x3_reduce
I0403 16:46:27.896780 21436 net.cpp:425] inception_5a/relu_3x3_reduce <- inception_5a/3x3_reduce
I0403 16:46:27.896798 21436 net.cpp:386] inception_5a/relu_3x3_reduce -> inception_5a/3x3_reduce (in-place)
I0403 16:46:27.896993 21436 net.cpp:141] Setting up inception_5a/relu_3x3_reduce
I0403 16:46:27.897022 21436 net.cpp:148] Top shape: 24 160 7 7 (188160)
I0403 16:46:27.897037 21436 net.cpp:156] Memory required for data: 1296039456
I0403 16:46:27.897058 21436 layer_factory.hpp:77] Creating layer inception_5a/3x3
I0403 16:46:27.897083 21436 net.cpp:91] Creating Layer inception_5a/3x3
I0403 16:46:27.897101 21436 net.cpp:425] inception_5a/3x3 <- inception_5a/3x3_reduce
I0403 16:46:27.897120 21436 net.cpp:399] inception_5a/3x3 -> inception_5a/3x3
I0403 16:46:27.902372 21436 net.cpp:141] Setting up inception_5a/3x3
I0403 16:46:27.902406 21436 net.cpp:148] Top shape: 24 320 7 7 (376320)
I0403 16:46:27.902425 21436 net.cpp:156] Memory required for data: 1297544736
I0403 16:46:27.902443 21436 layer_factory.hpp:77] Creating layer inception_5a/relu_3x3
I0403 16:46:27.902462 21436 net.cpp:91] Creating Layer inception_5a/relu_3x3
I0403 16:46:27.902478 21436 net.cpp:425] inception_5a/relu_3x3 <- inception_5a/3x3
I0403 16:46:27.902497 21436 net.cpp:386] inception_5a/relu_3x3 -> inception_5a/3x3 (in-place)
I0403 16:46:27.902806 21436 net.cpp:141] Setting up inception_5a/relu_3x3
I0403 16:46:27.902834 21436 net.cpp:148] Top shape: 24 320 7 7 (376320)
I0403 16:46:27.902850 21436 net.cpp:156] Memory required for data: 1299050016
I0403 16:46:27.902865 21436 layer_factory.hpp:77] Creating layer inception_5a/5x5_reduce
I0403 16:46:27.902889 21436 net.cpp:91] Creating Layer inception_5a/5x5_reduce
I0403 16:46:27.902909 21436 net.cpp:425] inception_5a/5x5_reduce <- pool4/3x3_s2_pool4/3x3_s2_0_split_2
I0403 16:46:27.902928 21436 net.cpp:399] inception_5a/5x5_reduce -> inception_5a/5x5_reduce
I0403 16:46:27.904150 21436 net.cpp:141] Setting up inception_5a/5x5_reduce
I0403 16:46:27.904181 21436 net.cpp:148] Top shape: 24 32 7 7 (37632)
I0403 16:46:27.904198 21436 net.cpp:156] Memory required for data: 1299200544
I0403 16:46:27.904218 21436 layer_factory.hpp:77] Creating layer inception_5a/relu_5x5_reduce
I0403 16:46:27.904237 21436 net.cpp:91] Creating Layer inception_5a/relu_5x5_reduce
I0403 16:46:27.904253 21436 net.cpp:425] inception_5a/relu_5x5_reduce <- inception_5a/5x5_reduce
I0403 16:46:27.904273 21436 net.cpp:386] inception_5a/relu_5x5_reduce -> inception_5a/5x5_reduce (in-place)
I0403 16:46:27.904584 21436 net.cpp:141] Setting up inception_5a/relu_5x5_reduce
I0403 16:46:27.904611 21436 net.cpp:148] Top shape: 24 32 7 7 (37632)
I0403 16:46:27.904626 21436 net.cpp:156] Memory required for data: 1299351072
I0403 16:46:27.904641 21436 layer_factory.hpp:77] Creating layer inception_5a/5x5
I0403 16:46:27.904664 21436 net.cpp:91] Creating Layer inception_5a/5x5
I0403 16:46:27.904682 21436 net.cpp:425] inception_5a/5x5 <- inception_5a/5x5_reduce
I0403 16:46:27.904705 21436 net.cpp:399] inception_5a/5x5 -> inception_5a/5x5
I0403 16:46:27.906524 21436 net.cpp:141] Setting up inception_5a/5x5
I0403 16:46:27.906568 21436 net.cpp:148] Top shape: 24 128 7 7 (150528)
I0403 16:46:27.906584 21436 net.cpp:156] Memory required for data: 1299953184
I0403 16:46:27.906602 21436 layer_factory.hpp:77] Creating layer inception_5a/relu_5x5
I0403 16:46:27.906621 21436 net.cpp:91] Creating Layer inception_5a/relu_5x5
I0403 16:46:27.906637 21436 net.cpp:425] inception_5a/relu_5x5 <- inception_5a/5x5
I0403 16:46:27.906656 21436 net.cpp:386] inception_5a/relu_5x5 -> inception_5a/5x5 (in-place)
I0403 16:46:27.906852 21436 net.cpp:141] Setting up inception_5a/relu_5x5
I0403 16:46:27.906877 21436 net.cpp:148] Top shape: 24 128 7 7 (150528)
I0403 16:46:27.906890 21436 net.cpp:156] Memory required for data: 1300555296
I0403 16:46:27.906905 21436 layer_factory.hpp:77] Creating layer inception_5a/pool
I0403 16:46:27.906924 21436 net.cpp:91] Creating Layer inception_5a/pool
I0403 16:46:27.906939 21436 net.cpp:425] inception_5a/pool <- pool4/3x3_s2_pool4/3x3_s2_0_split_3
I0403 16:46:27.906960 21436 net.cpp:399] inception_5a/pool -> inception_5a/pool
I0403 16:46:27.907030 21436 net.cpp:141] Setting up inception_5a/pool
I0403 16:46:27.907060 21436 net.cpp:148] Top shape: 24 832 7 7 (978432)
I0403 16:46:27.907078 21436 net.cpp:156] Memory required for data: 1304469024
I0403 16:46:27.907093 21436 layer_factory.hpp:77] Creating layer inception_5a/pool_proj
I0403 16:46:27.907114 21436 net.cpp:91] Creating Layer inception_5a/pool_proj
I0403 16:46:27.907131 21436 net.cpp:425] inception_5a/pool_proj <- inception_5a/pool
I0403 16:46:27.907150 21436 net.cpp:399] inception_5a/pool_proj -> inception_5a/pool_proj
I0403 16:46:27.909436 21436 net.cpp:141] Setting up inception_5a/pool_proj
I0403 16:46:27.909466 21436 net.cpp:148] Top shape: 24 128 7 7 (150528)
I0403 16:46:27.909482 21436 net.cpp:156] Memory required for data: 1305071136
I0403 16:46:27.909500 21436 layer_factory.hpp:77] Creating layer inception_5a/relu_pool_proj
I0403 16:46:27.909523 21436 net.cpp:91] Creating Layer inception_5a/relu_pool_proj
I0403 16:46:27.909540 21436 net.cpp:425] inception_5a/relu_pool_proj <- inception_5a/pool_proj
I0403 16:46:27.909557 21436 net.cpp:386] inception_5a/relu_pool_proj -> inception_5a/pool_proj (in-place)
I0403 16:46:27.909850 21436 net.cpp:141] Setting up inception_5a/relu_pool_proj
I0403 16:46:27.909876 21436 net.cpp:148] Top shape: 24 128 7 7 (150528)
I0403 16:46:27.909891 21436 net.cpp:156] Memory required for data: 1305673248
I0403 16:46:27.909906 21436 layer_factory.hpp:77] Creating layer inception_5a/output
I0403 16:46:27.909926 21436 net.cpp:91] Creating Layer inception_5a/output
I0403 16:46:27.909943 21436 net.cpp:425] inception_5a/output <- inception_5a/1x1
I0403 16:46:27.909962 21436 net.cpp:425] inception_5a/output <- inception_5a/3x3
I0403 16:46:27.909979 21436 net.cpp:425] inception_5a/output <- inception_5a/5x5
I0403 16:46:27.909996 21436 net.cpp:425] inception_5a/output <- inception_5a/pool_proj
I0403 16:46:27.910012 21436 net.cpp:399] inception_5a/output -> inception_5a/output
I0403 16:46:27.910068 21436 net.cpp:141] Setting up inception_5a/output
I0403 16:46:27.910092 21436 net.cpp:148] Top shape: 24 832 7 7 (978432)
I0403 16:46:27.910106 21436 net.cpp:156] Memory required for data: 1309586976
I0403 16:46:27.910121 21436 layer_factory.hpp:77] Creating layer inception_5a/output_inception_5a/output_0_split
I0403 16:46:27.910140 21436 net.cpp:91] Creating Layer inception_5a/output_inception_5a/output_0_split
I0403 16:46:27.910156 21436 net.cpp:425] inception_5a/output_inception_5a/output_0_split <- inception_5a/output
I0403 16:46:27.910176 21436 net.cpp:399] inception_5a/output_inception_5a/output_0_split -> inception_5a/output_inception_5a/output_0_split_0
I0403 16:46:27.910195 21436 net.cpp:399] inception_5a/output_inception_5a/output_0_split -> inception_5a/output_inception_5a/output_0_split_1
I0403 16:46:27.910217 21436 net.cpp:399] inception_5a/output_inception_5a/output_0_split -> inception_5a/output_inception_5a/output_0_split_2
I0403 16:46:27.910236 21436 net.cpp:399] inception_5a/output_inception_5a/output_0_split -> inception_5a/output_inception_5a/output_0_split_3
I0403 16:46:27.910351 21436 net.cpp:141] Setting up inception_5a/output_inception_5a/output_0_split
I0403 16:46:27.910375 21436 net.cpp:148] Top shape: 24 832 7 7 (978432)
I0403 16:46:27.910392 21436 net.cpp:148] Top shape: 24 832 7 7 (978432)
I0403 16:46:27.910408 21436 net.cpp:148] Top shape: 24 832 7 7 (978432)
I0403 16:46:27.910423 21436 net.cpp:148] Top shape: 24 832 7 7 (978432)
I0403 16:46:27.910437 21436 net.cpp:156] Memory required for data: 1325241888
I0403 16:46:27.910452 21436 layer_factory.hpp:77] Creating layer inception_5b/1x1
I0403 16:46:27.910473 21436 net.cpp:91] Creating Layer inception_5b/1x1
I0403 16:46:27.910491 21436 net.cpp:425] inception_5b/1x1 <- inception_5a/output_inception_5a/output_0_split_0
I0403 16:46:27.910512 21436 net.cpp:399] inception_5b/1x1 -> inception_5b/1x1
I0403 16:46:27.914358 21436 net.cpp:141] Setting up inception_5b/1x1
I0403 16:46:27.914389 21436 net.cpp:148] Top shape: 24 384 7 7 (451584)
I0403 16:46:27.914405 21436 net.cpp:156] Memory required for data: 1327048224
I0403 16:46:27.914424 21436 layer_factory.hpp:77] Creating layer inception_5b/relu_1x1
I0403 16:46:27.914445 21436 net.cpp:91] Creating Layer inception_5b/relu_1x1
I0403 16:46:27.914463 21436 net.cpp:425] inception_5b/relu_1x1 <- inception_5b/1x1
I0403 16:46:27.914480 21436 net.cpp:386] inception_5b/relu_1x1 -> inception_5b/1x1 (in-place)
I0403 16:46:27.914819 21436 net.cpp:141] Setting up inception_5b/relu_1x1
I0403 16:46:27.914846 21436 net.cpp:148] Top shape: 24 384 7 7 (451584)
I0403 16:46:27.914861 21436 net.cpp:156] Memory required for data: 1328854560
I0403 16:46:27.914877 21436 layer_factory.hpp:77] Creating layer inception_5b/3x3_reduce
I0403 16:46:27.914899 21436 net.cpp:91] Creating Layer inception_5b/3x3_reduce
I0403 16:46:27.914917 21436 net.cpp:425] inception_5b/3x3_reduce <- inception_5a/output_inception_5a/output_0_split_1
I0403 16:46:27.914940 21436 net.cpp:399] inception_5b/3x3_reduce -> inception_5b/3x3_reduce
I0403 16:46:27.917634 21436 net.cpp:141] Setting up inception_5b/3x3_reduce
I0403 16:46:27.917665 21436 net.cpp:148] Top shape: 24 192 7 7 (225792)
I0403 16:46:27.917680 21436 net.cpp:156] Memory required for data: 1329757728
I0403 16:46:27.917697 21436 layer_factory.hpp:77] Creating layer inception_5b/relu_3x3_reduce
I0403 16:46:27.917717 21436 net.cpp:91] Creating Layer inception_5b/relu_3x3_reduce
I0403 16:46:27.917735 21436 net.cpp:425] inception_5b/relu_3x3_reduce <- inception_5b/3x3_reduce
I0403 16:46:27.917752 21436 net.cpp:386] inception_5b/relu_3x3_reduce -> inception_5b/3x3_reduce (in-place)
I0403 16:46:27.917940 21436 net.cpp:141] Setting up inception_5b/relu_3x3_reduce
I0403 16:46:27.917968 21436 net.cpp:148] Top shape: 24 192 7 7 (225792)
I0403 16:46:27.917984 21436 net.cpp:156] Memory required for data: 1330660896
I0403 16:46:27.917999 21436 layer_factory.hpp:77] Creating layer inception_5b/3x3
I0403 16:46:27.918020 21436 net.cpp:91] Creating Layer inception_5b/3x3
I0403 16:46:27.918037 21436 net.cpp:425] inception_5b/3x3 <- inception_5b/3x3_reduce
I0403 16:46:27.918072 21436 net.cpp:399] inception_5b/3x3 -> inception_5b/3x3
I0403 16:46:27.924788 21436 net.cpp:141] Setting up inception_5b/3x3
I0403 16:46:27.924818 21436 net.cpp:148] Top shape: 24 384 7 7 (451584)
I0403 16:46:27.924834 21436 net.cpp:156] Memory required for data: 1332467232
I0403 16:46:27.924852 21436 layer_factory.hpp:77] Creating layer inception_5b/relu_3x3
I0403 16:46:27.924872 21436 net.cpp:91] Creating Layer inception_5b/relu_3x3
I0403 16:46:27.924890 21436 net.cpp:425] inception_5b/relu_3x3 <- inception_5b/3x3
I0403 16:46:27.924907 21436 net.cpp:386] inception_5b/relu_3x3 -> inception_5b/3x3 (in-place)
I0403 16:46:27.925211 21436 net.cpp:141] Setting up inception_5b/relu_3x3
I0403 16:46:27.925238 21436 net.cpp:148] Top shape: 24 384 7 7 (451584)
I0403 16:46:27.925253 21436 net.cpp:156] Memory required for data: 1334273568
I0403 16:46:27.925268 21436 layer_factory.hpp:77] Creating layer inception_5b/5x5_reduce
I0403 16:46:27.925310 21436 net.cpp:91] Creating Layer inception_5b/5x5_reduce
I0403 16:46:27.925329 21436 net.cpp:425] inception_5b/5x5_reduce <- inception_5a/output_inception_5a/output_0_split_2
I0403 16:46:27.925349 21436 net.cpp:399] inception_5b/5x5_reduce -> inception_5b/5x5_reduce
I0403 16:46:27.926625 21436 net.cpp:141] Setting up inception_5b/5x5_reduce
I0403 16:46:27.926656 21436 net.cpp:148] Top shape: 24 48 7 7 (56448)
I0403 16:46:27.926671 21436 net.cpp:156] Memory required for data: 1334499360
I0403 16:46:27.926690 21436 layer_factory.hpp:77] Creating layer inception_5b/relu_5x5_reduce
I0403 16:46:27.926708 21436 net.cpp:91] Creating Layer inception_5b/relu_5x5_reduce
I0403 16:46:27.926724 21436 net.cpp:425] inception_5b/relu_5x5_reduce <- inception_5b/5x5_reduce
I0403 16:46:27.926741 21436 net.cpp:386] inception_5b/relu_5x5_reduce -> inception_5b/5x5_reduce (in-place)
I0403 16:46:27.927122 21436 net.cpp:141] Setting up inception_5b/relu_5x5_reduce
I0403 16:46:27.927150 21436 net.cpp:148] Top shape: 24 48 7 7 (56448)
I0403 16:46:27.927165 21436 net.cpp:156] Memory required for data: 1334725152
I0403 16:46:27.927180 21436 layer_factory.hpp:77] Creating layer inception_5b/5x5
I0403 16:46:27.927199 21436 net.cpp:91] Creating Layer inception_5b/5x5
I0403 16:46:27.927217 21436 net.cpp:425] inception_5b/5x5 <- inception_5b/5x5_reduce
I0403 16:46:27.927235 21436 net.cpp:399] inception_5b/5x5 -> inception_5b/5x5
I0403 16:46:27.929324 21436 net.cpp:141] Setting up inception_5b/5x5
I0403 16:46:27.929355 21436 net.cpp:148] Top shape: 24 128 7 7 (150528)
I0403 16:46:27.929371 21436 net.cpp:156] Memory required for data: 1335327264
I0403 16:46:27.929390 21436 layer_factory.hpp:77] Creating layer inception_5b/relu_5x5
I0403 16:46:27.929407 21436 net.cpp:91] Creating Layer inception_5b/relu_5x5
I0403 16:46:27.929424 21436 net.cpp:425] inception_5b/relu_5x5 <- inception_5b/5x5
I0403 16:46:27.929442 21436 net.cpp:386] inception_5b/relu_5x5 -> inception_5b/5x5 (in-place)
I0403 16:46:27.929636 21436 net.cpp:141] Setting up inception_5b/relu_5x5
I0403 16:46:27.929661 21436 net.cpp:148] Top shape: 24 128 7 7 (150528)
I0403 16:46:27.929675 21436 net.cpp:156] Memory required for data: 1335929376
I0403 16:46:27.929690 21436 layer_factory.hpp:77] Creating layer inception_5b/pool
I0403 16:46:27.929708 21436 net.cpp:91] Creating Layer inception_5b/pool
I0403 16:46:27.929724 21436 net.cpp:425] inception_5b/pool <- inception_5a/output_inception_5a/output_0_split_3
I0403 16:46:27.929744 21436 net.cpp:399] inception_5b/pool -> inception_5b/pool
I0403 16:46:27.929818 21436 net.cpp:141] Setting up inception_5b/pool
I0403 16:46:27.929841 21436 net.cpp:148] Top shape: 24 832 7 7 (978432)
I0403 16:46:27.929857 21436 net.cpp:156] Memory required for data: 1339843104
I0403 16:46:27.929872 21436 layer_factory.hpp:77] Creating layer inception_5b/pool_proj
I0403 16:46:27.929894 21436 net.cpp:91] Creating Layer inception_5b/pool_proj
I0403 16:46:27.929913 21436 net.cpp:425] inception_5b/pool_proj <- inception_5b/pool
I0403 16:46:27.929931 21436 net.cpp:399] inception_5b/pool_proj -> inception_5b/pool_proj
I0403 16:46:27.932310 21436 net.cpp:141] Setting up inception_5b/pool_proj
I0403 16:46:27.932343 21436 net.cpp:148] Top shape: 24 128 7 7 (150528)
I0403 16:46:27.932359 21436 net.cpp:156] Memory required for data: 1340445216
I0403 16:46:27.932379 21436 layer_factory.hpp:77] Creating layer inception_5b/relu_pool_proj
I0403 16:46:27.932396 21436 net.cpp:91] Creating Layer inception_5b/relu_pool_proj
I0403 16:46:27.932412 21436 net.cpp:425] inception_5b/relu_pool_proj <- inception_5b/pool_proj
I0403 16:46:27.932430 21436 net.cpp:386] inception_5b/relu_pool_proj -> inception_5b/pool_proj (in-place)
I0403 16:46:27.932736 21436 net.cpp:141] Setting up inception_5b/relu_pool_proj
I0403 16:46:27.932765 21436 net.cpp:148] Top shape: 24 128 7 7 (150528)
I0403 16:46:27.932781 21436 net.cpp:156] Memory required for data: 1341047328
I0403 16:46:27.932796 21436 layer_factory.hpp:77] Creating layer inception_5b/output
I0403 16:46:27.932814 21436 net.cpp:91] Creating Layer inception_5b/output
I0403 16:46:27.932844 21436 net.cpp:425] inception_5b/output <- inception_5b/1x1
I0403 16:46:27.932862 21436 net.cpp:425] inception_5b/output <- inception_5b/3x3
I0403 16:46:27.932878 21436 net.cpp:425] inception_5b/output <- inception_5b/5x5
I0403 16:46:27.932893 21436 net.cpp:425] inception_5b/output <- inception_5b/pool_proj
I0403 16:46:27.932910 21436 net.cpp:399] inception_5b/output -> inception_5b/output
I0403 16:46:27.932963 21436 net.cpp:141] Setting up inception_5b/output
I0403 16:46:27.932987 21436 net.cpp:148] Top shape: 24 1024 7 7 (1204224)
I0403 16:46:27.933002 21436 net.cpp:156] Memory required for data: 1345864224
I0403 16:46:27.933017 21436 layer_factory.hpp:77] Creating layer pool5/7x7_s1
I0403 16:46:27.933035 21436 net.cpp:91] Creating Layer pool5/7x7_s1
I0403 16:46:27.933056 21436 net.cpp:425] pool5/7x7_s1 <- inception_5b/output
I0403 16:46:27.933076 21436 net.cpp:399] pool5/7x7_s1 -> pool5/7x7_s1
I0403 16:46:27.933293 21436 net.cpp:141] Setting up pool5/7x7_s1
I0403 16:46:27.933320 21436 net.cpp:148] Top shape: 24 1024 1 1 (24576)
I0403 16:46:27.933336 21436 net.cpp:156] Memory required for data: 1345962528
I0403 16:46:27.933351 21436 layer_factory.hpp:77] Creating layer pool5/drop_7x7_s1
I0403 16:46:27.933368 21436 net.cpp:91] Creating Layer pool5/drop_7x7_s1
I0403 16:46:27.933384 21436 net.cpp:425] pool5/drop_7x7_s1 <- pool5/7x7_s1
I0403 16:46:27.933401 21436 net.cpp:386] pool5/drop_7x7_s1 -> pool5/7x7_s1 (in-place)
I0403 16:46:27.933454 21436 net.cpp:141] Setting up pool5/drop_7x7_s1
I0403 16:46:27.933476 21436 net.cpp:148] Top shape: 24 1024 1 1 (24576)
I0403 16:46:27.933490 21436 net.cpp:156] Memory required for data: 1346060832
I0403 16:46:27.933506 21436 layer_factory.hpp:77] Creating layer loss3/classifier_plantvillage
I0403 16:46:27.933527 21436 net.cpp:91] Creating Layer loss3/classifier_plantvillage
I0403 16:46:27.933544 21436 net.cpp:425] loss3/classifier_plantvillage <- pool5/7x7_s1
I0403 16:46:27.933563 21436 net.cpp:399] loss3/classifier_plantvillage -> loss3/classifier_plantvillage
I0403 16:46:27.933993 21436 net.cpp:141] Setting up loss3/classifier_plantvillage
I0403 16:46:27.934017 21436 net.cpp:148] Top shape: 24 38 (912)
I0403 16:46:27.934031 21436 net.cpp:156] Memory required for data: 1346064480
I0403 16:46:27.934054 21436 layer_factory.hpp:77] Creating layer loss3/classifier_plantvillage_loss3/classifier_plantvillage_0_split
I0403 16:46:27.934077 21436 net.cpp:91] Creating Layer loss3/classifier_plantvillage_loss3/classifier_plantvillage_0_split
I0403 16:46:27.934092 21436 net.cpp:425] loss3/classifier_plantvillage_loss3/classifier_plantvillage_0_split <- loss3/classifier_plantvillage
I0403 16:46:27.934113 21436 net.cpp:399] loss3/classifier_plantvillage_loss3/classifier_plantvillage_0_split -> loss3/classifier_plantvillage_loss3/classifier_plantvillage_0_split_0
I0403 16:46:27.934134 21436 net.cpp:399] loss3/classifier_plantvillage_loss3/classifier_plantvillage_0_split -> loss3/classifier_plantvillage_loss3/classifier_plantvillage_0_split_1
I0403 16:46:27.934154 21436 net.cpp:399] loss3/classifier_plantvillage_loss3/classifier_plantvillage_0_split -> loss3/classifier_plantvillage_loss3/classifier_plantvillage_0_split_2
I0403 16:46:27.934173 21436 net.cpp:399] loss3/classifier_plantvillage_loss3/classifier_plantvillage_0_split -> loss3/classifier_plantvillage_loss3/classifier_plantvillage_0_split_3
I0403 16:46:27.934279 21436 net.cpp:141] Setting up loss3/classifier_plantvillage_loss3/classifier_plantvillage_0_split
I0403 16:46:27.934303 21436 net.cpp:148] Top shape: 24 38 (912)
I0403 16:46:27.934319 21436 net.cpp:148] Top shape: 24 38 (912)
I0403 16:46:27.934334 21436 net.cpp:148] Top shape: 24 38 (912)
I0403 16:46:27.934350 21436 net.cpp:148] Top shape: 24 38 (912)
I0403 16:46:27.934376 21436 net.cpp:156] Memory required for data: 1346079072
I0403 16:46:27.934389 21436 layer_factory.hpp:77] Creating layer loss1/loss
I0403 16:46:27.934411 21436 net.cpp:91] Creating Layer loss1/loss
I0403 16:46:27.934427 21436 net.cpp:425] loss1/loss <- loss1/classifier_plantvillage_loss1/classifier_plantvillage_0_split_0
I0403 16:46:27.934458 21436 net.cpp:425] loss1/loss <- label_data_1_split_0
…
