…
I0403 16:27:11.440793 21088 net.cpp:313] The NetState phase (1) differed from the phase (0) specified by a rule in layer data
I0403 16:27:11.442044 21088 net.cpp:49] Initializing net from parameters: 
state {
  phase: TEST
}
layer {
  name: "data"
  type: "Data"
  top: "data"
  top: "label"
  include {
    phase: TEST
  }
  transform_param {
    mirror: false
    crop_size: 224
    mean_file: "/home/mohanty/data/final_dataset/lmdb/grayscale-20-80/mean.binaryproto"
  }
  data_param {
    source: "/home/mohanty/data/final_dataset/lmdb/grayscale-20-80/test_db"
    batch_size: 24
    backend: LMDB
  }
}
layer {
  name: "conv1/7x7_s2"
  type: "Convolution"
  bottom: "data"
  top: "conv1/7x7_s2"
  param {
    lr_mult: 1
    decay_mult: 1
  }
  param {
    lr_mult: 2
    decay_mult: 0
  }
  convolution_param {
    num_output: 64
    pad: 3
    kernel_size: 7
    stride: 2
    weight_filler {
      type: "xavier"
      std: 0.1
    }
    bias_filler {
      type: "constant"
      value: 0.2
    }
  }
}
layer {
  name: "conv1/relu_7x7"
  type: "ReLU"
  bottom: "conv1/7x7_s2"
  top: "conv1/7x7_s2"
}
layer {
  name: "pool1/3x3_s2"
  type: "Pooling"
  bottom: "conv1/7x7_s2"
  top: "pool1/3x3_s2"
  pooling_param {
    pool: MAX
    kernel_size: 3
    stride: 2
  }
}
layer {
  name: "pool1/norm1"
  type: "LRN"
  bottom: "pool1/3x3_s2"
  top: "pool1/norm1"
  lrn_param {
    local_size: 5
    alpha: 0.0001
    beta: 0.75
  }
}
layer {
  name: "conv2/3x3_reduce"
  type: "Convolution"
  bottom: "pool1/norm1"
  top: "conv2/3x3_reduce"
  param {
    lr_mult: 1
    decay_mult: 1
  }
  param {
    lr_mult: 2
    decay_mult: 0
  }
  convolution_param {
    num_output: 64
    kernel_size: 1
    weight_filler {
      type: "xavier"
      std: 0.1
    }
    bias_filler {
      type: "constant"
      value: 0.2
    }
  }
}
layer {
  name: "conv2/relu_3x3_reduce"
  type: "ReLU"
  bottom: "conv2/3x3_reduce"
  top: "conv2/3x3_reduce"
}
layer {
  name: "conv2/3x3"
  type: "Convolution"
  bottom: "conv2/3x3_reduce"
  top: "conv2/3x3"
  param {
    lr_mult: 1
    decay_mult: 1
  }
  param {
    lr_mult: 2
    decay_mult: 0
  }
  convolution_param {
    num_output: 192
    pad: 1
    kernel_size: 3
    weight_filler {
      type: "xavier"
      std: 0.03
    }
    bias_filler {
      type: "constant"
      value: 0.2
    }
  }
}
layer {
  name: "conv2/relu_3x3"
  type: "ReLU"
  bottom: "conv2/3x3"
  top: "conv2/3x3"
}
layer {
  name: "conv2/norm2"
  type: "LRN"
  bottom: "conv2/3x3"
  top: "conv2/norm2"
  lrn_param {
    local_size: 5
    alpha: 0.0001
    beta: 0.75
  }
}
layer {
  name: "pool2/3x3_s2"
  type: "Pooling"
  bottom: "conv2/norm2"
  top: "pool2/3x3_s2"
  pooling_param {
    pool: MAX
    kernel_size: 3
    stride: 2
  }
}
layer {
  name: "inception_3a/1x1"
  type: "Convolution"
  bottom: "pool2/3x3_s2"
  top: "inception_3a/1x1"
  param {
    lr_mult: 1
    decay_mult: 1
  }
  param {
    lr_mult: 2
    decay_mult: 0
  }
  convolution_param {
    num_output: 64
    kernel_size: 1
    weight_filler {
      type: "xavier"
      std: 0.03
    }
    bias_filler {
      type: "constant"
      value: 0.2
    }
  }
}
layer {
  name: "inception_3a/relu_1x1"
  type: "ReLU"
  bottom: "inception_3a/1x1"
  top: "inception_3a/1x1"
}
layer {
  name: "inception_3a/3x3_reduce"
  type: "Convolution"
  bottom: "pool2/3x3_s2"
  top: "inception_3a/3x3_reduce"
  param {
    lr_mult: 1
    decay_mult: 1
  }
  param {
    lr_mult: 2
    decay_mult: 0
  }
  convolution_param {
    num_output: 96
    kernel_size: 1
    weight_filler {
      type: "xavier"
      std: 0.09
    }
    bias_filler {
      type: "constant"
      value: 0.2
    }
  }
}
layer {
  name: "inception_3a/relu_3x3_reduce"
  type: "ReLU"
  bottom: "inception_3a/3x3_reduce"
  top: "inception_3a/3x3_reduce"
}
layer {
  name: "inception_3a/3x3"
  type: "Convolution"
  bottom: "inception_3a/3x3_reduce"
  top: "inception_3a/3x3"
  param {
    lr_mult: 1
    decay_mult: 1
  }
  param {
    lr_mult: 2
    decay_mult: 0
  }
  convolution_param {
    num_output: 128
    pad: 1
    kernel_size: 3
    weight_filler {
      type: "xavier"
      std: 0.03
    }
    bias_filler {
      type: "constant"
      value: 0.2
    }
  }
}
layer {
  name: "inception_3a/relu_3x3"
  type: "ReLU"
  bottom: "inception_3a/3x3"
  top: "inception_3a/3x3"
}
layer {
  name: "inception_3a/5x5_reduce"
  type: "Convolution"
  bottom: "pool2/3x3_s2"
  top: "inception_3a/5x5_reduce"
  param {
    lr_mult: 1
    decay_mult: 1
  }
  param {
    lr_mult: 2
    decay_mult: 0
  }
  convolution_param {
    num_output: 16
    kernel_size: 1
    weight_filler {
      type: "xavier"
      std: 0.2
    }
    bias_filler {
      type: "constant"
      value: 0.2
    }
  }
}
layer {
  name: "inception_3a/relu_5x5_reduce"
  type: "ReLU"
  bottom: "inception_3a/5x5_reduce"
  top: "inception_3a/5x5_reduce"
}
layer {
  name: "inception_3a/5x5"
  type: "Convolution"
  bottom: "inception_3a/5x5_reduce"
  top: "inception_3a/5x5"
  param {
    lr_mult: 1
    decay_mult: 1
  }
  param {
    lr_mult: 2
    decay_mult: 0
  }
  convolution_param {
    num_output: 32
    pad: 2
    kernel_size: 5
    weight_filler {
      type: "xavier"
      std: 0.03
    }
    bias_filler {
      type: "constant"
      value: 0.2
    }
  }
}
layer {
  name: "inception_3a/relu_5x5"
  type: "ReLU"
  bottom: "inception_3a/5x5"
  top: "inception_3a/5x5"
}
layer {
  name: "inception_3a/pool"
  type: "Pooling"
  bottom: "pool2/3x3_s2"
  top: "inception_3a/pool"
  pooling_param {
    pool: MAX
    kernel_size: 3
    stride: 1
    pad: 1
  }
}
layer {
  name: "inception_3a/pool_proj"
  type: "Convolution"
  bottom: "inception_3a/pool"
  top: "inception_3a/pool_proj"
  param {
    lr_mult: 1
    decay_mult: 1
  }
  param {
    lr_mult: 2
    decay_mult: 0
  }
  convolution_param {
    num_output: 32
    kernel_size: 1
    weight_filler {
      type: "xavier"
      std: 0.1
    }
    bias_filler {
      type: "constant"
      value: 0.2
    }
  }
}
layer {
  name: "inception_3a/relu_pool_proj"
  type: "ReLU"
  bottom: "inception_3a/pool_proj"
  top: "inception_3a/pool_proj"
}
layer {
  name: "inception_3a/output"
  type: "Concat"
  bottom: "inception_3a/1x1"
  bottom: "inception_3a/3x3"
  bottom: "inception_3a/5x5"
  bottom: "inception_3a/pool_proj"
  top: "inception_3a/output"
}
layer {
  name: "inception_3b/1x1"
  type: "Convolution"
  bottom: "inception_3a/output"
  top: "inception_3b/1x1"
  param {
    lr_mult: 1
    decay_mult: 1
  }
  param {
    lr_mult: 2
    decay_mult: 0
  }
  convolution_param {
    num_output: 128
    kernel_size: 1
    weight_filler {
      type: "xavier"
      std: 0.03
    }
    bias_filler {
      type: "constant"
      value: 0.2
    }
  }
}
layer {
  name: "inception_3b/relu_1x1"
  type: "ReLU"
  bottom: "inception_3b/1x1"
  top: "inception_3b/1x1"
}
layer {
  name: "inception_3b/3x3_reduce"
  type: "Convolution"
  bottom: "inception_3a/output"
  top: "inception_3b/3x3_reduce"
  param {
    lr_mult: 1
    decay_mult: 1
  }
  param {
    lr_mult: 2
    decay_mult: 0
  }
  convolution_param {
    num_output: 128
    kernel_size: 1
    weight_filler {
      type: "xavier"
      std: 0.09
    }
    bias_filler {
      type: "constant"
      value: 0.2
    }
  }
}
layer {
  name: "inception_3b/relu_3x3_reduce"
  type: "ReLU"
  bottom: "inception_3b/3x3_reduce"
  top: "inception_3b/3x3_reduce"
}
layer {
  name: "inception_3b/3x3"
  type: "Convolution"
  bottom: "inception_3b/3x3_reduce"
  top: "inception_3b/3x3"
  param {
    lr_mult: 1
    decay_mult: 1
  }
  param {
    lr_mult: 2
    decay_mult: 0
  }
  convolution_param {
    num_output: 192
    pad: 1
    kernel_size: 3
    weight_filler {
      type: "xavier"
      std: 0.03
    }
    bias_filler {
      type: "constant"
      value: 0.2
    }
  }
}
layer {
  name: "inception_3b/relu_3x3"
  type: "ReLU"
  bottom: "inception_3b/3x3"
  top: "inception_3b/3x3"
}
layer {
  name: "inception_3b/5x5_reduce"
  type: "Convolution"
  bottom: "inception_3a/output"
  top: "inception_3b/5x5_reduce"
  param {
    lr_mult: 1
    decay_mult: 1
  }
  param {
    lr_mult: 2
    decay_mult: 0
  }
  convolution_param {
    num_output: 32
    kernel_size: 1
    weight_filler {
      type: "xavier"
      std: 0.2
    }
    bias_filler {
      type: "constant"
      value: 0.2
    }
  }
}
layer {
  name: "inception_3b/relu_5x5_reduce"
  type: "ReLU"
  bottom: "inception_3b/5x5_reduce"
  top: "inception_3b/5x5_reduce"
}
layer {
  name: "inception_3b/5x5"
  type: "Convolution"
  bottom: "inception_3b/5x5_reduce"
  top: "inception_3b/5x5"
  param {
    lr_mult: 1
    decay_mult: 1
  }
  param {
    lr_mult: 2
    decay_mult: 0
  }
  convolution_param {
    num_output: 96
    pad: 2
    kernel_size: 5
    weight_filler {
      type: "xavier"
      std: 0.03
    }
    bias_filler {
      type: "constant"
      value: 0.2
    }
  }
}
layer {
  name: "inception_3b/relu_5x5"
  type: "ReLU"
  bottom: "inception_3b/5x5"
  top: "inception_3b/5x5"
}
layer {
  name: "inception_3b/pool"
  type: "Pooling"
  bottom: "inception_3a/output"
  top: "inception_3b/pool"
  pooling_param {
    pool: MAX
    kernel_size: 3
    stride: 1
    pad: 1
  }
}
layer {
  name: "inception_3b/pool_proj"
  type: "Convolution"
  bottom: "inception_3b/pool"
  top: "inception_3b/pool_proj"
  param {
    lr_mult: 1
    decay_mult: 1
  }
  param {
    lr_mult: 2
    decay_mult: 0
  }
  convolution_param {
    num_output: 64
    kernel_size: 1
    weight_filler {
      type: "xavier"
      std: 0.1
    }
    bias_filler {
      type: "constant"
      value: 0.2
    }
  }
}
layer {
  name: "inception_3b/relu_pool_proj"
  type: "ReLU"
  bottom: "inception_3b/pool_proj"
  top: "inception_3b/pool_proj"
}
layer {
  name: "inception_3b/output"
  type: "Concat"
  bottom: "inception_3b/1x1"
  bottom: "inception_3b/3x3"
  bottom: "inception_3b/5x5"
  bottom: "inception_3b/pool_proj"
  top: "inception_3b/output"
}
layer {
  name: "pool3/3x3_s2"
  type: "Pooling"
  bottom: "inception_3b/output"
  top: "pool3/3x3_s2"
  pooling_param {
    pool: MAX
    kernel_size: 3
    stride: 2
  }
}
layer {
  name: "inception_4a/1x1"
  type: "Convolution"
  bottom: "pool3/3x3_s2"
  top: "inception_4a/1x1"
  param {
    lr_mult: 1
    decay_mult: 1
  }
  param {
    lr_mult: 2
    decay_mult: 0
  }
  convolution_param {
    num_output: 192
    kernel_size: 1
    weight_filler {
      type: "xavier"
      std: 0.03
    }
    bias_filler {
      type: "constant"
      value: 0.2
    }
  }
}
layer {
  name: "inception_4a/relu_1x1"
  type: "ReLU"
  bottom: "inception_4a/1x1"
  top: "inception_4a/1x1"
}
layer {
  name: "inception_4a/3x3_reduce"
  type: "Convolution"
  bottom: "pool3/3x3_s2"
  top: "inception_4a/3x3_reduce"
  param {
    lr_mult: 1
    decay_mult: 1
  }
  param {
    lr_mult: 2
    decay_mult: 0
  }
  convolution_param {
    num_output: 96
    kernel_size: 1
    weight_filler {
      type: "xavier"
      std: 0.09
    }
    bias_filler {
      type: "constant"
      value: 0.2
    }
  }
}
layer {
  name: "inception_4a/relu_3x3_reduce"
  type: "ReLU"
  bottom: "inception_4a/3x3_reduce"
  top: "inception_4a/3x3_reduce"
}
layer {
  name: "inception_4a/3x3"
  type: "Convolution"
  bottom: "inception_4a/3x3_reduce"
  top: "inception_4a/3x3"
  param {
    lr_mult: 1
    decay_mult: 1
  }
  param {
    lr_mult: 2
    decay_mult: 0
  }
  convolution_param {
    num_output: 208
    pad: 1
    kernel_size: 3
    weight_filler {
      type: "xavier"
      std: 0.03
    }
    bias_filler {
      type: "constant"
      value: 0.2
    }
  }
}
layer {
  name: "inception_4a/relu_3x3"
  type: "ReLU"
  bottom: "inception_4a/3x3"
  top: "inception_4a/3x3"
}
layer {
  name: "inception_4a/5x5_reduce"
  type: "Convolution"
  bottom: "pool3/3x3_s2"
  top: "inception_4a/5x5_reduce"
  param {
    lr_mult: 1
    decay_mult: 1
  }
  param {
    lr_mult: 2
    decay_mult: 0
  }
  convolution_param {
    num_output: 16
    kernel_size: 1
    weight_filler {
      type: "xavier"
      std: 0.2
    }
    bias_filler {
      type: "constant"
      value: 0.2
    }
  }
}
layer {
  name: "inception_4a/relu_5x5_reduce"
  type: "ReLU"
  bottom: "inception_4a/5x5_reduce"
  top: "inception_4a/5x5_reduce"
}
layer {
  name: "inception_4a/5x5"
  type: "Convolution"
  bottom: "inception_4a/5x5_reduce"
  top: "inception_4a/5x5"
  param {
    lr_mult: 1
    decay_mult: 1
  }
  param {
    lr_mult: 2
    decay_mult: 0
  }
  convolution_param {
    num_output: 48
    pad: 2
    kernel_size: 5
    weight_filler {
      type: "xavier"
      std: 0.03
    }
    bias_filler {
      type: "constant"
      value: 0.2
    }
  }
}
layer {
  name: "inception_4a/relu_5x5"
  type: "ReLU"
  bottom: "inception_4a/5x5"
  top: "inception_4a/5x5"
}
layer {
  name: "inception_4a/pool"
  type: "Pooling"
  bottom: "pool3/3x3_s2"
  top: "inception_4a/pool"
  pooling_param {
    pool: MAX
    kernel_size: 3
    stride: 1
    pad: 1
  }
}
layer {
  name: "inception_4a/pool_proj"
  type: "Convolution"
  bottom: "inception_4a/pool"
  top: "inception_4a/pool_proj"
  param {
    lr_mult: 1
    decay_mult: 1
  }
  param {
    lr_mult: 2
    decay_mult: 0
  }
  convolution_param {
    num_output: 64
    kernel_size: 1
    weight_filler {
      type: "xavier"
      std: 0.1
    }
    bias_filler {
      type: "constant"
      value: 0.2
    }
  }
}
layer {
  name: "inception_4a/relu_pool_proj"
  type: "ReLU"
  bottom: "inception_4a/pool_proj"
  top: "inception_4a/pool_proj"
}
layer {
  name: "inception_4a/output"
  type: "Concat"
  bottom: "inception_4a/1x1"
  bottom: "inception_4a/3x3"
  bottom: "inception_4a/5x5"
  bottom: "inception_4a/pool_proj"
  top: "inception_4a/output"
}
layer {
  name: "loss1/ave_pool"
  type: "Pooling"
  bottom: "inception_4a/output"
  top: "loss1/ave_pool"
  pooling_param {
    pool: AVE
    kernel_size: 5
    stride: 3
  }
}
layer {
  name: "loss1/conv"
  type: "Convolution"
  bottom: "loss1/ave_pool"
  top: "loss1/conv"
  param {
    lr_mult: 1
    decay_mult: 1
  }
  param {
    lr_mult: 2
    decay_mult: 0
  }
  convolution_param {
    num_output: 128
    kernel_size: 1
    weight_filler {
      type: "xavier"
      std: 0.08
    }
    bias_filler {
      type: "constant"
      value: 0.2
    }
  }
}
layer {
  name: "loss1/relu_conv"
  type: "ReLU"
  bottom: "loss1/conv"
  top: "loss1/conv"
}
layer {
  name: "loss1/fc"
  type: "InnerProduct"
  bottom: "loss1/conv"
  top: "loss1/fc"
  param {
    lr_mult: 1
    decay_mult: 1
  }
  param {
    lr_mult: 2
    decay_mult: 0
  }
  inner_product_param {
    num_output: 1024
    weight_filler {
      type: "xavier"
      std: 0.02
    }
    bias_filler {
      type: "constant"
      value: 0.2
    }
  }
}
layer {
  name: "loss1/relu_fc"
  type: "ReLU"
  bottom: "loss1/fc"
  top: "loss1/fc"
}
layer {
  name: "loss1/drop_fc"
  type: "Dropout"
  bottom: "loss1/fc"
  top: "loss1/fc"
  dropout_param {
    dropout_ratio: 0.7
  }
}
layer {
  name: "loss1/classifier_plantvillage"
  type: "InnerProduct"
  bottom: "loss1/fc"
  top: "loss1/classifier_plantvillage"
  param {
    lr_mult: 1
    decay_mult: 1
  }
  param {
    lr_mult: 2
    decay_mult: 0
  }
  inner_product_param {
    num_output: 38
    weight_filler {
      type: "xavier"
      std: 0.0009765625
    }
    bias_filler {
      type: "constant"
      value: 0
    }
  }
}
layer {
  name: "inception_4b/1x1"
  type: "Convolution"
  bottom: "inception_4a/output"
  top: "inception_4b/1x1"
  param {
    lr_mult: 1
    decay_mult: 1
  }
  param {
    lr_mult: 2
    decay_mult: 0
  }
  convolution_param {
    num_output: 160
    kernel_size: 1
    weight_filler {
      type: "xavier"
      std: 0.03
    }
    bias_filler {
      type: "constant"
      value: 0.2
    }
  }
}
layer {
  name: "inception_4b/relu_1x1"
  type: "ReLU"
  bottom: "inception_4b/1x1"
  top: "inception_4b/1x1"
}
layer {
  name: "inception_4b/3x3_reduce"
  type: "Convolution"
  bottom: "inception_4a/output"
  top: "inception_4b/3x3_reduce"
  param {
    lr_mult: 1
    decay_mult: 1
  }
  param {
    lr_mult: 2
    decay_mult: 0
  }
  convolution_param {
    num_output: 112
    kernel_size: 1
    weight_filler {
      type: "xavier"
      std: 0.09
    }
    bias_filler {
      type: "constant"
      value: 0.2
    }
  }
}
layer {
  name: "inception_4b/relu_3x3_reduce"
  type: "ReLU"
  bottom: "inception_4b/3x3_reduce"
  top: "inception_4b/3x3_reduce"
}
layer {
  name: "inception_4b/3x3"
  type: "Convolution"
  bottom: "inception_4b/3x3_reduce"
  top: "inception_4b/3x3"
  param {
    lr_mult: 1
    decay_mult: 1
  }
  param {
    lr_mult: 2
    decay_mult: 0
  }
  convolution_param {
    num_output: 224
    pad: 1
    kernel_size: 3
    weight_filler {
      type: "xavier"
      std: 0.03
    }
    bias_filler {
      type: "constant"
      value: 0.2
    }
  }
}
layer {
  name: "inception_4b/relu_3x3"
  type: "ReLU"
  bottom: "inception_4b/3x3"
  top: "inception_4b/3x3"
}
layer {
  name: "inception_4b/5x5_reduce"
  type: "Convolution"
  bottom: "inception_4a/output"
  top: "inception_4b/5x5_reduce"
  param {
    lr_mult: 1
    decay_mult: 1
  }
  param {
    lr_mult: 2
    decay_mult: 0
  }
  convolution_param {
    num_output: 24
    kernel_size: 1
    weight_filler {
      type: "xavier"
      std: 0.2
    }
    bias_filler {
      type: "constant"
      value: 0.2
    }
  }
}
layer {
  name: "inception_4b/relu_5x5_reduce"
  type: "ReLU"
  bottom: "inception_4b/5x5_reduce"
  top: "inception_4b/5x5_reduce"
}
layer {
  name: "inception_4b/5x5"
  type: "Convolution"
  bottom: "inception_4b/5x5_reduce"
  top: "inception_4b/5x5"
  param {
    lr_mult: 1
    decay_mult: 1
  }
  param {
    lr_mult: 2
    decay_mult: 0
  }
  convolution_param {
    num_output: 64
    pad: 2
    kernel_size: 5
    weight_filler {
      type: "xavier"
      std: 0.03
    }
    bias_filler {
      type: "constant"
      value: 0.2
    }
  }
}
layer {
  name: "inception_4b/relu_5x5"
  type: "ReLU"
  bottom: "inception_4b/5x5"
  top: "inception_4b/5x5"
}
layer {
  name: "inception_4b/pool"
  type: "Pooling"
  bottom: "inception_4a/output"
  top: "inception_4b/pool"
  pooling_param {
    pool: MAX
    kernel_size: 3
    stride: 1
    pad: 1
  }
}
layer {
  name: "inception_4b/pool_proj"
  type: "Convolution"
  bottom: "inception_4b/pool"
  top: "inception_4b/pool_proj"
  param {
    lr_mult: 1
    decay_mult: 1
  }
  param {
    lr_mult: 2
    decay_mult: 0
  }
  convolution_param {
    num_output: 64
    kernel_size: 1
    weight_filler {
      type: "xavier"
      std: 0.1
    }
    bias_filler {
      type: "constant"
      value: 0.2
    }
  }
}
layer {
  name: "inception_4b/relu_pool_proj"
  type: "ReLU"
  bottom: "inception_4b/pool_proj"
  top: "inception_4b/pool_proj"
}
layer {
  name: "inception_4b/output"
  type: "Concat"
  bottom: "inception_4b/1x1"
  bottom: "inception_4b/3x3"
  bottom: "inception_4b/5x5"
  bottom: "inception_4b/pool_proj"
  top: "inception_4b/output"
}
layer {
  name: "inception_4c/1x1"
  type: "Convolution"
  bottom: "inception_4b/output"
  top: "inception_4c/1x1"
  param {
    lr_mult: 1
    decay_mult: 1
  }
  param {
    lr_mult: 2
    decay_mult: 0
  }
  convolution_param {
    num_output: 128
    kernel_size: 1
    weight_filler {
      type: "xavier"
      std: 0.03
    }
    bias_filler {
      type: "constant"
      value: 0.2
    }
  }
}
layer {
  name: "inception_4c/relu_1x1"
  type: "ReLU"
  bottom: "inception_4c/1x1"
  top: "inception_4c/1x1"
}
layer {
  name: "inception_4c/3x3_reduce"
  type: "Convolution"
  bottom: "inception_4b/output"
  top: "inception_4c/3x3_reduce"
  param {
    lr_mult: 1
    decay_mult: 1
  }
  param {
    lr_mult: 2
    decay_mult: 0
  }
  convolution_param {
    num_output: 128
    kernel_size: 1
    weight_filler {
      type: "xavier"
      std: 0.09
    }
    bias_filler {
      type: "constant"
      value: 0.2
    }
  }
}
layer {
  name: "inception_4c/relu_3x3_reduce"
  type: "ReLU"
  bottom: "inception_4c/3x3_reduce"
  top: "inception_4c/3x3_reduce"
}
layer {
  name: "inception_4c/3x3"
  type: "Convolution"
  bottom: "inception_4c/3x3_reduce"
  top: "inception_4c/3x3"
  param {
    lr_mult: 1
    decay_mult: 1
  }
  param {
    lr_mult: 2
    decay_mult: 0
  }
  convolution_param {
    num_output: 256
    pad: 1
    kernel_size: 3
    weight_filler {
      type: "xavier"
      std: 0.03
    }
    bias_filler {
      type: "constant"
      value: 0.2
    }
  }
}
layer {
  name: "inception_4c/relu_3x3"
  type: "ReLU"
  bottom: "inception_4c/3x3"
  top: "inception_4c/3x3"
}
layer {
  name: "inception_4c/5x5_reduce"
  type: "Convolution"
  bottom: "inception_4b/output"
  top: "inception_4c/5x5_reduce"
  param {
    lr_mult: 1
    decay_mult: 1
  }
  param {
    lr_mult: 2
    decay_mult: 0
  }
  convolution_param {
    num_output: 24
    kernel_size: 1
    weight_filler {
      type: "xavier"
      std: 0.2
    }
    bias_filler {
      type: "constant"
      value: 0.2
    }
  }
}
layer {
  name: "inception_4c/relu_5x5_reduce"
  type: "ReLU"
  bottom: "inception_4c/5x5_reduce"
  top: "inception_4c/5x5_reduce"
}
layer {
  name: "inception_4c/5x5"
  type: "Convolution"
  bottom: "inception_4c/5x5_reduce"
  top: "inception_4c/5x5"
  param {
    lr_mult: 1
    decay_mult: 1
  }
  param {
    lr_mult: 2
    decay_mult: 0
  }
  convolution_param {
    num_output: 64
    pad: 2
    kernel_size: 5
    weight_filler {
      type: "xavier"
      std: 0.03
    }
    bias_filler {
      type: "constant"
      value: 0.2
    }
  }
}
layer {
  name: "inception_4c/relu_5x5"
  type: "ReLU"
  bottom: "inception_4c/5x5"
  top: "inception_4c/5x5"
}
layer {
  name: "inception_4c/pool"
  type: "Pooling"
  bottom: "inception_4b/output"
  top: "inception_4c/pool"
  pooling_param {
    pool: MAX
    kernel_size: 3
    stride: 1
    pad: 1
  }
}
layer {
  name: "inception_4c/pool_proj"
  type: "Convolution"
  bottom: "inception_4c/pool"
  top: "inception_4c/pool_proj"
  param {
    lr_mult: 1
    decay_mult: 1
  }
  param {
    lr_mult: 2
    decay_mult: 0
  }
  convolution_param {
    num_output: 64
    kernel_size: 1
    weight_filler {
      type: "xavier"
      std: 0.1
    }
    bias_filler {
      type: "constant"
      value: 0.2
    }
  }
}
layer {
  name: "inception_4c/relu_pool_proj"
  type: "ReLU"
  bottom: "inception_4c/pool_proj"
  top: "inception_4c/pool_proj"
}
layer {
  name: "inception_4c/output"
  type: "Concat"
  bottom: "inception_4c/1x1"
  bottom: "inception_4c/3x3"
  bottom: "inception_4c/5x5"
  bottom: "inception_4c/pool_proj"
  top: "inception_4c/output"
}
layer {
  name: "inception_4d/1x1"
  type: "Convolution"
  bottom: "inception_4c/output"
  top: "inception_4d/1x1"
  param {
    lr_mult: 1
    decay_mult: 1
  }
  param {
    lr_mult: 2
    decay_mult: 0
  }
  convolution_param {
    num_output: 112
    kernel_size: 1
    weight_filler {
      type: "xavier"
      std: 0.03
    }
    bias_filler {
      type: "constant"
      value: 0.2
    }
  }
}
layer {
  name: "inception_4d/relu_1x1"
  type: "ReLU"
  bottom: "inception_4d/1x1"
  top: "inception_4d/1x1"
}
layer {
  name: "inception_4d/3x3_reduce"
  type: "Convolution"
  bottom: "inception_4c/output"
  top: "inception_4d/3x3_reduce"
  param {
    lr_mult: 1
    decay_mult: 1
  }
  param {
    lr_mult: 2
    decay_mult: 0
  }
  convolution_param {
    num_output: 144
    kernel_size: 1
    weight_filler {
      type: "xavier"
      std: 0.09
    }
    bias_filler {
      type: "constant"
      value: 0.2
    }
  }
}
layer {
  name: "inception_4d/relu_3x3_reduce"
  type: "ReLU"
  bottom: "inception_4d/3x3_reduce"
  top: "inception_4d/3x3_reduce"
}
layer {
  name: "inception_4d/3x3"
  type: "Convolution"
  bottom: "inception_4d/3x3_reduce"
  top: "inception_4d/3x3"
  param {
    lr_mult: 1
    decay_mult: 1
  }
  param {
    lr_mult: 2
    decay_mult: 0
  }
  convolution_param {
    num_output: 288
    pad: 1
    kernel_size: 3
    weight_filler {
      type: "xavier"
      std: 0.03
    }
    bias_filler {
      type: "constant"
      value: 0.2
    }
  }
}
layer {
  name: "inception_4d/relu_3x3"
  type: "ReLU"
  bottom: "inception_4d/3x3"
  top: "inception_4d/3x3"
}
layer {
  name: "inception_4d/5x5_reduce"
  type: "Convolution"
  bottom: "inception_4c/output"
  top: "inception_4d/5x5_reduce"
  param {
    lr_mult: 1
    decay_mult: 1
  }
  param {
    lr_mult: 2
    decay_mult: 0
  }
  convolution_param {
    num_output: 32
    kernel_size: 1
    weight_filler {
      type: "xavier"
      std: 0.2
    }
    bias_filler {
      type: "constant"
      value: 0.2
    }
  }
}
layer {
  name: "inception_4d/relu_5x5_reduce"
  type: "ReLU"
  bottom: "inception_4d/5x5_reduce"
  top: "inception_4d/5x5_reduce"
}
layer {
  name: "inception_4d/5x5"
  type: "Convolution"
  bottom: "inception_4d/5x5_reduce"
  top: "inception_4d/5x5"
  param {
    lr_mult: 1
    decay_mult: 1
  }
  param {
    lr_mult: 2
    decay_mult: 0
  }
  convolution_param {
    num_output: 64
    pad: 2
    kernel_size: 5
    weight_filler {
      type: "xavier"
      std: 0.03
    }
    bias_filler {
      type: "constant"
      value: 0.2
    }
  }
}
layer {
  name: "inception_4d/relu_5x5"
  type: "ReLU"
  bottom: "inception_4d/5x5"
  top: "inception_4d/5x5"
}
layer {
  name: "inception_4d/pool"
  type: "Pooling"
  bottom: "inception_4c/output"
  top: "inception_4d/pool"
  pooling_param {
    pool: MAX
    kernel_size: 3
    stride: 1
    pad: 1
  }
}
layer {
  name: "inception_4d/pool_proj"
  type: "Convolution"
  bottom: "inception_4d/pool"
  top: "inception_4d/pool_proj"
  param {
    lr_mult: 1
    decay_mult: 1
  }
  param {
    lr_mult: 2
    decay_mult: 0
  }
  convolution_param {
    num_output: 64
    kernel_size: 1
    weight_filler {
      type: "xavier"
      std: 0.1
    }
    bias_filler {
      type: "constant"
      value: 0.2
    }
  }
}
layer {
  name: "inception_4d/relu_pool_proj"
  type: "ReLU"
  bottom: "inception_4d/pool_proj"
  top: "inception_4d/pool_proj"
}
layer {
  name: "inception_4d/output"
  type: "Concat"
  bottom: "inception_4d/1x1"
  bottom: "inception_4d/3x3"
  bottom: "inception_4d/5x5"
  bottom: "inception_4d/pool_proj"
  top: "inception_4d/output"
}
layer {
  name: "loss2/ave_pool"
  type: "Pooling"
  bottom: "inception_4d/output"
  top: "loss2/ave_pool"
  pooling_param {
    pool: AVE
    kernel_size: 5
    stride: 3
  }
}
layer {
  name: "loss2/conv"
  type: "Convolution"
  bottom: "loss2/ave_pool"
  top: "loss2/conv"
  param {
    lr_mult: 1
    decay_mult: 1
  }
  param {
    lr_mult: 2
    decay_mult: 0
  }
  convolution_param {
    num_output: 128
    kernel_size: 1
    weight_filler {
      type: "xavier"
      std: 0.08
    }
    bias_filler {
      type: "constant"
      value: 0.2
    }
  }
}
layer {
  name: "loss2/relu_conv"
  type: "ReLU"
  bottom: "loss2/conv"
  top: "loss2/conv"
}
layer {
  name: "loss2/fc"
  type: "InnerProduct"
  bottom: "loss2/conv"
  top: "loss2/fc"
  param {
    lr_mult: 1
    decay_mult: 1
  }
  param {
    lr_mult: 2
    decay_mult: 0
  }
  inner_product_param {
    num_output: 1024
    weight_filler {
      type: "xavier"
      std: 0.02
    }
    bias_filler {
      type: "constant"
      value: 0.2
    }
  }
}
layer {
  name: "loss2/relu_fc"
  type: "ReLU"
  bottom: "loss2/fc"
  top: "loss2/fc"
}
layer {
  name: "loss2/drop_fc"
  type: "Dropout"
  bottom: "loss2/fc"
  top: "loss2/fc"
  dropout_param {
    dropout_ratio: 0.7
  }
}
layer {
  name: "loss2/classifier_plantvillage"
  type: "InnerProduct"
  bottom: "loss2/fc"
  top: "loss2/classifier_plantvillage"
  param {
    lr_mult: 1
    decay_mult: 1
  }
  param {
    lr_mult: 2
    decay_mult: 0
  }
  inner_product_param {
    num_output: 38
    weight_filler {
      type: "xavier"
      std: 0.0009765625
    }
    bias_filler {
      type: "constant"
      value: 0
    }
  }
}
layer {
  name: "inception_4e/1x1"
  type: "Convolution"
  bottom: "inception_4d/output"
  top: "inception_4e/1x1"
  param {
    lr_mult: 1
    decay_mult: 1
  }
  param {
    lr_mult: 2
    decay_mult: 0
  }
  convolution_param {
    num_output: 256
    kernel_size: 1
    weight_filler {
      type: "xavier"
      std: 0.03
    }
    bias_filler {
      type: "constant"
      value: 0.2
    }
  }
}
layer {
  name: "inception_4e/relu_1x1"
  type: "ReLU"
  bottom: "inception_4e/1x1"
  top: "inception_4e/1x1"
}
layer {
  name: "inception_4e/3x3_reduce"
  type: "Convolution"
  bottom: "inception_4d/output"
  top: "inception_4e/3x3_reduce"
  param {
    lr_mult: 1
    decay_mult: 1
  }
  param {
    lr_mult: 2
    decay_mult: 0
  }
  convolution_param {
    num_output: 160
    kernel_size: 1
    weight_filler {
      type: "xavier"
      std: 0.09
    }
    bias_filler {
      type: "constant"
      value: 0.2
    }
  }
}
layer {
  name: "inception_4e/relu_3x3_reduce"
  type: "ReLU"
  bottom: "inception_4e/3x3_reduce"
  top: "inception_4e/3x3_reduce"
}
layer {
  name: "inception_4e/3x3"
  type: "Convolution"
  bottom: "inception_4e/3x3_reduce"
  top: "inception_4e/3x3"
  param {
    lr_mult: 1
    decay_mult: 1
  }
  param {
    lr_mult: 2
    decay_mult: 0
  }
  convolution_param {
    num_output: 320
    pad: 1
    kernel_size: 3
    weight_filler {
      type: "xavier"
      std: 0.03
    }
    bias_filler {
      type: "constant"
      value: 0.2
    }
  }
}
layer {
  name: "inception_4e/relu_3x3"
  type: "ReLU"
  bottom: "inception_4e/3x3"
  top: "inception_4e/3x3"
}
layer {
  name: "inception_4e/5x5_reduce"
  type: "Convolution"
  bottom: "inception_4d/output"
  top: "inception_4e/5x5_reduce"
  param {
    lr_mult: 1
    decay_mult: 1
  }
  param {
    lr_mult: 2
    decay_mult: 0
  }
  convolution_param {
    num_output: 32
    kernel_size: 1
    weight_filler {
      type: "xavier"
      std: 0.2
    }
    bias_filler {
      type: "constant"
      value: 0.2
    }
  }
}
layer {
  name: "inception_4e/relu_5x5_reduce"
  type: "ReLU"
  bottom: "inception_4e/5x5_reduce"
  top: "inception_4e/5x5_reduce"
}
layer {
  name: "inception_4e/5x5"
  type: "Convolution"
  bottom: "inception_4e/5x5_reduce"
  top: "inception_4e/
I0403 16:27:11.443377 21088 layer_factory.hpp:77] Creating layer data
I0403 16:27:11.444034 21088 net.cpp:91] Creating Layer data
I0403 16:27:11.444067 21088 net.cpp:399] data -> data
I0403 16:27:11.444118 21088 net.cpp:399] data -> label
I0403 16:27:11.444156 21088 data_transformer.cpp:25] Loading mean file from: /home/mohanty/data/final_dataset/lmdb/grayscale-20-80/mean.binaryproto
I0403 16:27:11.445386 21091 db_lmdb.cpp:38] Opened lmdb /home/mohanty/data/final_dataset/lmdb/grayscale-20-80/test_db
I0403 16:27:11.457432 21088 data_layer.cpp:41] output data size: 24,3,224,224
I0403 16:27:11.484097 21088 net.cpp:141] Setting up data
I0403 16:27:11.484194 21088 net.cpp:148] Top shape: 24 3 224 224 (3612672)
I0403 16:27:11.484216 21088 net.cpp:148] Top shape: 24 (24)
I0403 16:27:11.484232 21088 net.cpp:156] Memory required for data: 14450784
I0403 16:27:11.484259 21088 layer_factory.hpp:77] Creating layer label_data_1_split
I0403 16:27:11.484285 21088 net.cpp:91] Creating Layer label_data_1_split
I0403 16:27:11.484303 21088 net.cpp:425] label_data_1_split <- label
I0403 16:27:11.484335 21088 net.cpp:399] label_data_1_split -> label_data_1_split_0
I0403 16:27:11.484364 21088 net.cpp:399] label_data_1_split -> label_data_1_split_1
I0403 16:27:11.484385 21088 net.cpp:399] label_data_1_split -> label_data_1_split_2
I0403 16:27:11.484406 21088 net.cpp:399] label_data_1_split -> label_data_1_split_3
I0403 16:27:11.484426 21088 net.cpp:399] label_data_1_split -> label_data_1_split_4
I0403 16:27:11.484446 21088 net.cpp:399] label_data_1_split -> label_data_1_split_5
I0403 16:27:11.484465 21088 net.cpp:399] label_data_1_split -> label_data_1_split_6
I0403 16:27:11.484486 21088 net.cpp:399] label_data_1_split -> label_data_1_split_7
I0403 16:27:11.484505 21088 net.cpp:399] label_data_1_split -> label_data_1_split_8
I0403 16:27:11.484525 21088 net.cpp:399] label_data_1_split -> label_data_1_split_9
I0403 16:27:11.484639 21088 net.cpp:141] Setting up label_data_1_split
I0403 16:27:11.484663 21088 net.cpp:148] Top shape: 24 (24)
I0403 16:27:11.484679 21088 net.cpp:148] Top shape: 24 (24)
I0403 16:27:11.484695 21088 net.cpp:148] Top shape: 24 (24)
I0403 16:27:11.484711 21088 net.cpp:148] Top shape: 24 (24)
I0403 16:27:11.484726 21088 net.cpp:148] Top shape: 24 (24)
I0403 16:27:11.484741 21088 net.cpp:148] Top shape: 24 (24)
I0403 16:27:11.484757 21088 net.cpp:148] Top shape: 24 (24)
I0403 16:27:11.484773 21088 net.cpp:148] Top shape: 24 (24)
I0403 16:27:11.484788 21088 net.cpp:148] Top shape: 24 (24)
I0403 16:27:11.484804 21088 net.cpp:148] Top shape: 24 (24)
I0403 16:27:11.484846 21088 net.cpp:156] Memory required for data: 14451744
I0403 16:27:11.484863 21088 layer_factory.hpp:77] Creating layer conv1/7x7_s2
I0403 16:27:11.484894 21088 net.cpp:91] Creating Layer conv1/7x7_s2
I0403 16:27:11.484912 21088 net.cpp:425] conv1/7x7_s2 <- data
I0403 16:27:11.484932 21088 net.cpp:399] conv1/7x7_s2 -> conv1/7x7_s2
I0403 16:27:11.621237 21088 net.cpp:141] Setting up conv1/7x7_s2
I0403 16:27:11.621315 21088 net.cpp:148] Top shape: 24 64 112 112 (19267584)
I0403 16:27:11.621332 21088 net.cpp:156] Memory required for data: 91522080
I0403 16:27:11.621364 21088 layer_factory.hpp:77] Creating layer conv1/relu_7x7
I0403 16:27:11.621392 21088 net.cpp:91] Creating Layer conv1/relu_7x7
I0403 16:27:11.621412 21088 net.cpp:425] conv1/relu_7x7 <- conv1/7x7_s2
I0403 16:27:11.621431 21088 net.cpp:386] conv1/relu_7x7 -> conv1/7x7_s2 (in-place)
I0403 16:27:11.621697 21088 net.cpp:141] Setting up conv1/relu_7x7
I0403 16:27:11.621726 21088 net.cpp:148] Top shape: 24 64 112 112 (19267584)
I0403 16:27:11.621742 21088 net.cpp:156] Memory required for data: 168592416
I0403 16:27:11.621757 21088 layer_factory.hpp:77] Creating layer pool1/3x3_s2
I0403 16:27:11.621783 21088 net.cpp:91] Creating Layer pool1/3x3_s2
I0403 16:27:11.621801 21088 net.cpp:425] pool1/3x3_s2 <- conv1/7x7_s2
I0403 16:27:11.621821 21088 net.cpp:399] pool1/3x3_s2 -> pool1/3x3_s2
I0403 16:27:11.621897 21088 net.cpp:141] Setting up pool1/3x3_s2
I0403 16:27:11.621923 21088 net.cpp:148] Top shape: 24 64 56 56 (4816896)
I0403 16:27:11.621938 21088 net.cpp:156] Memory required for data: 187860000
I0403 16:27:11.621954 21088 layer_factory.hpp:77] Creating layer pool1/norm1
I0403 16:27:11.621979 21088 net.cpp:91] Creating Layer pool1/norm1
I0403 16:27:11.621999 21088 net.cpp:425] pool1/norm1 <- pool1/3x3_s2
I0403 16:27:11.622021 21088 net.cpp:399] pool1/norm1 -> pool1/norm1
I0403 16:27:11.622318 21088 net.cpp:141] Setting up pool1/norm1
I0403 16:27:11.622346 21088 net.cpp:148] Top shape: 24 64 56 56 (4816896)
I0403 16:27:11.622364 21088 net.cpp:156] Memory required for data: 207127584
I0403 16:27:11.622378 21088 layer_factory.hpp:77] Creating layer conv2/3x3_reduce
I0403 16:27:11.622403 21088 net.cpp:91] Creating Layer conv2/3x3_reduce
I0403 16:27:11.622421 21088 net.cpp:425] conv2/3x3_reduce <- pool1/norm1
I0403 16:27:11.622439 21088 net.cpp:399] conv2/3x3_reduce -> conv2/3x3_reduce
I0403 16:27:11.623855 21088 net.cpp:141] Setting up conv2/3x3_reduce
I0403 16:27:11.623888 21088 net.cpp:148] Top shape: 24 64 56 56 (4816896)
I0403 16:27:11.623905 21088 net.cpp:156] Memory required for data: 226395168
I0403 16:27:11.623927 21088 layer_factory.hpp:77] Creating layer conv2/relu_3x3_reduce
I0403 16:27:11.623947 21088 net.cpp:91] Creating Layer conv2/relu_3x3_reduce
I0403 16:27:11.623965 21088 net.cpp:425] conv2/relu_3x3_reduce <- conv2/3x3_reduce
I0403 16:27:11.623986 21088 net.cpp:386] conv2/relu_3x3_reduce -> conv2/3x3_reduce (in-place)
I0403 16:27:11.624274 21088 net.cpp:141] Setting up conv2/relu_3x3_reduce
I0403 16:27:11.624303 21088 net.cpp:148] Top shape: 24 64 56 56 (4816896)
I0403 16:27:11.624320 21088 net.cpp:156] Memory required for data: 245662752
I0403 16:27:11.624336 21088 layer_factory.hpp:77] Creating layer conv2/3x3
I0403 16:27:11.624361 21088 net.cpp:91] Creating Layer conv2/3x3
I0403 16:27:11.624379 21088 net.cpp:425] conv2/3x3 <- conv2/3x3_reduce
I0403 16:27:11.624399 21088 net.cpp:399] conv2/3x3 -> conv2/3x3
I0403 16:27:11.626812 21088 net.cpp:141] Setting up conv2/3x3
I0403 16:27:11.626847 21088 net.cpp:148] Top shape: 24 192 56 56 (14450688)
I0403 16:27:11.626865 21088 net.cpp:156] Memory required for data: 303465504
I0403 16:27:11.626888 21088 layer_factory.hpp:77] Creating layer conv2/relu_3x3
I0403 16:27:11.626906 21088 net.cpp:91] Creating Layer conv2/relu_3x3
I0403 16:27:11.626924 21088 net.cpp:425] conv2/relu_3x3 <- conv2/3x3
I0403 16:27:11.626945 21088 net.cpp:386] conv2/relu_3x3 -> conv2/3x3 (in-place)
I0403 16:27:11.627140 21088 net.cpp:141] Setting up conv2/relu_3x3
I0403 16:27:11.627166 21088 net.cpp:148] Top shape: 24 192 56 56 (14450688)
I0403 16:27:11.627213 21088 net.cpp:156] Memory required for data: 361268256
I0403 16:27:11.627231 21088 layer_factory.hpp:77] Creating layer conv2/norm2
I0403 16:27:11.627252 21088 net.cpp:91] Creating Layer conv2/norm2
I0403 16:27:11.627270 21088 net.cpp:425] conv2/norm2 <- conv2/3x3
I0403 16:27:11.627290 21088 net.cpp:399] conv2/norm2 -> conv2/norm2
I0403 16:27:11.627614 21088 net.cpp:141] Setting up conv2/norm2
I0403 16:27:11.627641 21088 net.cpp:148] Top shape: 24 192 56 56 (14450688)
I0403 16:27:11.627657 21088 net.cpp:156] Memory required for data: 419071008
I0403 16:27:11.627672 21088 layer_factory.hpp:77] Creating layer pool2/3x3_s2
I0403 16:27:11.627693 21088 net.cpp:91] Creating Layer pool2/3x3_s2
I0403 16:27:11.627710 21088 net.cpp:425] pool2/3x3_s2 <- conv2/norm2
I0403 16:27:11.627729 21088 net.cpp:399] pool2/3x3_s2 -> pool2/3x3_s2
I0403 16:27:11.627785 21088 net.cpp:141] Setting up pool2/3x3_s2
I0403 16:27:11.627810 21088 net.cpp:148] Top shape: 24 192 28 28 (3612672)
I0403 16:27:11.627825 21088 net.cpp:156] Memory required for data: 433521696
I0403 16:27:11.627840 21088 layer_factory.hpp:77] Creating layer pool2/3x3_s2_pool2/3x3_s2_0_split
I0403 16:27:11.627858 21088 net.cpp:91] Creating Layer pool2/3x3_s2_pool2/3x3_s2_0_split
I0403 16:27:11.627877 21088 net.cpp:425] pool2/3x3_s2_pool2/3x3_s2_0_split <- pool2/3x3_s2
I0403 16:27:11.627897 21088 net.cpp:399] pool2/3x3_s2_pool2/3x3_s2_0_split -> pool2/3x3_s2_pool2/3x3_s2_0_split_0
I0403 16:27:11.627915 21088 net.cpp:399] pool2/3x3_s2_pool2/3x3_s2_0_split -> pool2/3x3_s2_pool2/3x3_s2_0_split_1
I0403 16:27:11.627936 21088 net.cpp:399] pool2/3x3_s2_pool2/3x3_s2_0_split -> pool2/3x3_s2_pool2/3x3_s2_0_split_2
I0403 16:27:11.627956 21088 net.cpp:399] pool2/3x3_s2_pool2/3x3_s2_0_split -> pool2/3x3_s2_pool2/3x3_s2_0_split_3
I0403 16:27:11.628043 21088 net.cpp:141] Setting up pool2/3x3_s2_pool2/3x3_s2_0_split
I0403 16:27:11.628068 21088 net.cpp:148] Top shape: 24 192 28 28 (3612672)
I0403 16:27:11.628087 21088 net.cpp:148] Top shape: 24 192 28 28 (3612672)
I0403 16:27:11.628103 21088 net.cpp:148] Top shape: 24 192 28 28 (3612672)
I0403 16:27:11.628118 21088 net.cpp:148] Top shape: 24 192 28 28 (3612672)
I0403 16:27:11.628132 21088 net.cpp:156] Memory required for data: 491324448
I0403 16:27:11.628147 21088 layer_factory.hpp:77] Creating layer inception_3a/1x1
I0403 16:27:11.628170 21088 net.cpp:91] Creating Layer inception_3a/1x1
I0403 16:27:11.628188 21088 net.cpp:425] inception_3a/1x1 <- pool2/3x3_s2_pool2/3x3_s2_0_split_0
I0403 16:27:11.628211 21088 net.cpp:399] inception_3a/1x1 -> inception_3a/1x1
I0403 16:27:11.629845 21088 net.cpp:141] Setting up inception_3a/1x1
I0403 16:27:11.629879 21088 net.cpp:148] Top shape: 24 64 28 28 (1204224)
I0403 16:27:11.629896 21088 net.cpp:156] Memory required for data: 496141344
I0403 16:27:11.629917 21088 layer_factory.hpp:77] Creating layer inception_3a/relu_1x1
I0403 16:27:11.629935 21088 net.cpp:91] Creating Layer inception_3a/relu_1x1
I0403 16:27:11.629952 21088 net.cpp:425] inception_3a/relu_1x1 <- inception_3a/1x1
I0403 16:27:11.629971 21088 net.cpp:386] inception_3a/relu_1x1 -> inception_3a/1x1 (in-place)
I0403 16:27:11.630163 21088 net.cpp:141] Setting up inception_3a/relu_1x1
I0403 16:27:11.630190 21088 net.cpp:148] Top shape: 24 64 28 28 (1204224)
I0403 16:27:11.630205 21088 net.cpp:156] Memory required for data: 500958240
I0403 16:27:11.630221 21088 layer_factory.hpp:77] Creating layer inception_3a/3x3_reduce
I0403 16:27:11.630244 21088 net.cpp:91] Creating Layer inception_3a/3x3_reduce
I0403 16:27:11.630262 21088 net.cpp:425] inception_3a/3x3_reduce <- pool2/3x3_s2_pool2/3x3_s2_0_split_1
I0403 16:27:11.630285 21088 net.cpp:399] inception_3a/3x3_reduce -> inception_3a/3x3_reduce
I0403 16:27:11.632035 21088 net.cpp:141] Setting up inception_3a/3x3_reduce
I0403 16:27:11.632066 21088 net.cpp:148] Top shape: 24 96 28 28 (1806336)
I0403 16:27:11.632083 21088 net.cpp:156] Memory required for data: 508183584
I0403 16:27:11.632105 21088 layer_factory.hpp:77] Creating layer inception_3a/relu_3x3_reduce
I0403 16:27:11.632148 21088 net.cpp:91] Creating Layer inception_3a/relu_3x3_reduce
I0403 16:27:11.632167 21088 net.cpp:425] inception_3a/relu_3x3_reduce <- inception_3a/3x3_reduce
I0403 16:27:11.632185 21088 net.cpp:386] inception_3a/relu_3x3_reduce -> inception_3a/3x3_reduce (in-place)
I0403 16:27:11.632372 21088 net.cpp:141] Setting up inception_3a/relu_3x3_reduce
I0403 16:27:11.632400 21088 net.cpp:148] Top shape: 24 96 28 28 (1806336)
I0403 16:27:11.632414 21088 net.cpp:156] Memory required for data: 515408928
I0403 16:27:11.632429 21088 layer_factory.hpp:77] Creating layer inception_3a/3x3
I0403 16:27:11.632455 21088 net.cpp:91] Creating Layer inception_3a/3x3
I0403 16:27:11.632483 21088 net.cpp:425] inception_3a/3x3 <- inception_3a/3x3_reduce
I0403 16:27:11.632508 21088 net.cpp:399] inception_3a/3x3 -> inception_3a/3x3
I0403 16:27:11.634197 21088 net.cpp:141] Setting up inception_3a/3x3
I0403 16:27:11.634227 21088 net.cpp:148] Top shape: 24 128 28 28 (2408448)
I0403 16:27:11.634243 21088 net.cpp:156] Memory required for data: 525042720
I0403 16:27:11.634261 21088 layer_factory.hpp:77] Creating layer inception_3a/relu_3x3
I0403 16:27:11.634279 21088 net.cpp:91] Creating Layer inception_3a/relu_3x3
I0403 16:27:11.634295 21088 net.cpp:425] inception_3a/relu_3x3 <- inception_3a/3x3
I0403 16:27:11.634318 21088 net.cpp:386] inception_3a/relu_3x3 -> inception_3a/3x3 (in-place)
I0403 16:27:11.634595 21088 net.cpp:141] Setting up inception_3a/relu_3x3
I0403 16:27:11.634623 21088 net.cpp:148] Top shape: 24 128 28 28 (2408448)
I0403 16:27:11.634639 21088 net.cpp:156] Memory required for data: 534676512
I0403 16:27:11.634654 21088 layer_factory.hpp:77] Creating layer inception_3a/5x5_reduce
I0403 16:27:11.634675 21088 net.cpp:91] Creating Layer inception_3a/5x5_reduce
I0403 16:27:11.634695 21088 net.cpp:425] inception_3a/5x5_reduce <- pool2/3x3_s2_pool2/3x3_s2_0_split_2
I0403 16:27:11.634716 21088 net.cpp:399] inception_3a/5x5_reduce -> inception_3a/5x5_reduce
I0403 16:27:11.635699 21088 net.cpp:141] Setting up inception_3a/5x5_reduce
I0403 16:27:11.635725 21088 net.cpp:148] Top shape: 24 16 28 28 (301056)
I0403 16:27:11.635741 21088 net.cpp:156] Memory required for data: 535880736
I0403 16:27:11.635761 21088 layer_factory.hpp:77] Creating layer inception_3a/relu_5x5_reduce
I0403 16:27:11.635778 21088 net.cpp:91] Creating Layer inception_3a/relu_5x5_reduce
I0403 16:27:11.635794 21088 net.cpp:425] inception_3a/relu_5x5_reduce <- inception_3a/5x5_reduce
I0403 16:27:11.635814 21088 net.cpp:386] inception_3a/relu_5x5_reduce -> inception_3a/5x5_reduce (in-place)
I0403 16:27:11.636123 21088 net.cpp:141] Setting up inception_3a/relu_5x5_reduce
I0403 16:27:11.636149 21088 net.cpp:148] Top shape: 24 16 28 28 (301056)
I0403 16:27:11.636165 21088 net.cpp:156] Memory required for data: 537084960
I0403 16:27:11.636180 21088 layer_factory.hpp:77] Creating layer inception_3a/5x5
I0403 16:27:11.636203 21088 net.cpp:91] Creating Layer inception_3a/5x5
I0403 16:27:11.636221 21088 net.cpp:425] inception_3a/5x5 <- inception_3a/5x5_reduce
I0403 16:27:11.636242 21088 net.cpp:399] inception_3a/5x5 -> inception_3a/5x5
I0403 16:27:11.637274 21088 net.cpp:141] Setting up inception_3a/5x5
I0403 16:27:11.637305 21088 net.cpp:148] Top shape: 24 32 28 28 (602112)
I0403 16:27:11.637322 21088 net.cpp:156] Memory required for data: 539493408
I0403 16:27:11.637341 21088 layer_factory.hpp:77] Creating layer inception_3a/relu_5x5
I0403 16:27:11.637359 21088 net.cpp:91] Creating Layer inception_3a/relu_5x5
I0403 16:27:11.637377 21088 net.cpp:425] inception_3a/relu_5x5 <- inception_3a/5x5
I0403 16:27:11.637398 21088 net.cpp:386] inception_3a/relu_5x5 -> inception_3a/5x5 (in-place)
I0403 16:27:11.637576 21088 net.cpp:141] Setting up inception_3a/relu_5x5
I0403 16:27:11.637603 21088 net.cpp:148] Top shape: 24 32 28 28 (602112)
I0403 16:27:11.637617 21088 net.cpp:156] Memory required for data: 541901856
I0403 16:27:11.637632 21088 layer_factory.hpp:77] Creating layer inception_3a/pool
I0403 16:27:11.637650 21088 net.cpp:91] Creating Layer inception_3a/pool
I0403 16:27:11.637681 21088 net.cpp:425] inception_3a/pool <- pool2/3x3_s2_pool2/3x3_s2_0_split_3
I0403 16:27:11.637703 21088 net.cpp:399] inception_3a/pool -> inception_3a/pool
I0403 16:27:11.637763 21088 net.cpp:141] Setting up inception_3a/pool
I0403 16:27:11.637787 21088 net.cpp:148] Top shape: 24 192 28 28 (3612672)
I0403 16:27:11.637801 21088 net.cpp:156] Memory required for data: 556352544
I0403 16:27:11.637816 21088 layer_factory.hpp:77] Creating layer inception_3a/pool_proj
I0403 16:27:11.637840 21088 net.cpp:91] Creating Layer inception_3a/pool_proj
I0403 16:27:11.637857 21088 net.cpp:425] inception_3a/pool_proj <- inception_3a/pool
I0403 16:27:11.637879 21088 net.cpp:399] inception_3a/pool_proj -> inception_3a/pool_proj
I0403 16:27:11.638926 21088 net.cpp:141] Setting up inception_3a/pool_proj
I0403 16:27:11.638955 21088 net.cpp:148] Top shape: 24 32 28 28 (602112)
I0403 16:27:11.638972 21088 net.cpp:156] Memory required for data: 558760992
I0403 16:27:11.638996 21088 layer_factory.hpp:77] Creating layer inception_3a/relu_pool_proj
I0403 16:27:11.639022 21088 net.cpp:91] Creating Layer inception_3a/relu_pool_proj
I0403 16:27:11.639041 21088 net.cpp:425] inception_3a/relu_pool_proj <- inception_3a/pool_proj
I0403 16:27:11.639062 21088 net.cpp:386] inception_3a/relu_pool_proj -> inception_3a/pool_proj (in-place)
I0403 16:27:11.639349 21088 net.cpp:141] Setting up inception_3a/relu_pool_proj
I0403 16:27:11.639376 21088 net.cpp:148] Top shape: 24 32 28 28 (602112)
I0403 16:27:11.639392 21088 net.cpp:156] Memory required for data: 561169440
I0403 16:27:11.639408 21088 layer_factory.hpp:77] Creating layer inception_3a/output
I0403 16:27:11.639427 21088 net.cpp:91] Creating Layer inception_3a/output
I0403 16:27:11.639443 21088 net.cpp:425] inception_3a/output <- inception_3a/1x1
I0403 16:27:11.639461 21088 net.cpp:425] inception_3a/output <- inception_3a/3x3
I0403 16:27:11.639478 21088 net.cpp:425] inception_3a/output <- inception_3a/5x5
I0403 16:27:11.639495 21088 net.cpp:425] inception_3a/output <- inception_3a/pool_proj
I0403 16:27:11.639515 21088 net.cpp:399] inception_3a/output -> inception_3a/output
I0403 16:27:11.639565 21088 net.cpp:141] Setting up inception_3a/output
I0403 16:27:11.639592 21088 net.cpp:148] Top shape: 24 256 28 28 (4816896)
I0403 16:27:11.639610 21088 net.cpp:156] Memory required for data: 580437024
I0403 16:27:11.639624 21088 layer_factory.hpp:77] Creating layer inception_3a/output_inception_3a/output_0_split
I0403 16:27:11.639642 21088 net.cpp:91] Creating Layer inception_3a/output_inception_3a/output_0_split
I0403 16:27:11.639657 21088 net.cpp:425] inception_3a/output_inception_3a/output_0_split <- inception_3a/output
I0403 16:27:11.639677 21088 net.cpp:399] inception_3a/output_inception_3a/output_0_split -> inception_3a/output_inception_3a/output_0_split_0
I0403 16:27:11.639696 21088 net.cpp:399] inception_3a/output_inception_3a/output_0_split -> inception_3a/output_inception_3a/output_0_split_1
I0403 16:27:11.639722 21088 net.cpp:399] inception_3a/output_inception_3a/output_0_split -> inception_3a/output_inception_3a/output_0_split_2
I0403 16:27:11.639745 21088 net.cpp:399] inception_3a/output_inception_3a/output_0_split -> inception_3a/output_inception_3a/output_0_split_3
I0403 16:27:11.639824 21088 net.cpp:141] Setting up inception_3a/output_inception_3a/output_0_split
I0403 16:27:11.639852 21088 net.cpp:148] Top shape: 24 256 28 28 (4816896)
I0403 16:27:11.639870 21088 net.cpp:148] Top shape: 24 256 28 28 (4816896)
I0403 16:27:11.639886 21088 net.cpp:148] Top shape: 24 256 28 28 (4816896)
I0403 16:27:11.639904 21088 net.cpp:148] Top shape: 24 256 28 28 (4816896)
I0403 16:27:11.639917 21088 net.cpp:156] Memory required for data: 657507360
I0403 16:27:11.639933 21088 layer_factory.hpp:77] Creating layer inception_3b/1x1
I0403 16:27:11.639956 21088 net.cpp:91] Creating Layer inception_3b/1x1
I0403 16:27:11.639974 21088 net.cpp:425] inception_3b/1x1 <- inception_3a/output_inception_3a/output_0_split_0
I0403 16:27:11.639994 21088 net.cpp:399] inception_3b/1x1 -> inception_3b/1x1
I0403 16:27:11.641178 21088 net.cpp:141] Setting up inception_3b/1x1
I0403 16:27:11.641218 21088 net.cpp:148] Top shape: 24 128 28 28 (2408448)
I0403 16:27:11.641234 21088 net.cpp:156] Memory required for data: 667141152
I0403 16:27:11.641253 21088 layer_factory.hpp:77] Creating layer inception_3b/relu_1x1
I0403 16:27:11.641274 21088 net.cpp:91] Creating Layer inception_3b/relu_1x1
I0403 16:27:11.641291 21088 net.cpp:425] inception_3b/relu_1x1 <- inception_3b/1x1
I0403 16:27:11.641309 21088 net.cpp:386] inception_3b/relu_1x1 -> inception_3b/1x1 (in-place)
I0403 16:27:11.641492 21088 net.cpp:141] Setting up inception_3b/relu_1x1
I0403 16:27:11.641517 21088 net.cpp:148] Top shape: 24 128 28 28 (2408448)
I0403 16:27:11.641532 21088 net.cpp:156] Memory required for data: 676774944
I0403 16:27:11.641547 21088 layer_factory.hpp:77] Creating layer inception_3b/3x3_reduce
I0403 16:27:11.641569 21088 net.cpp:91] Creating Layer inception_3b/3x3_reduce
I0403 16:27:11.641587 21088 net.cpp:425] inception_3b/3x3_reduce <- inception_3a/output_inception_3a/output_0_split_1
I0403 16:27:11.641609 21088 net.cpp:399] inception_3b/3x3_reduce -> inception_3b/3x3_reduce
I0403 16:27:11.642784 21088 net.cpp:141] Setting up inception_3b/3x3_reduce
I0403 16:27:11.642814 21088 net.cpp:148] Top shape: 24 128 28 28 (2408448)
I0403 16:27:11.642832 21088 net.cpp:156] Memory required for data: 686408736
I0403 16:27:11.642849 21088 layer_factory.hpp:77] Creating layer inception_3b/relu_3x3_reduce
I0403 16:27:11.642868 21088 net.cpp:91] Creating Layer inception_3b/relu_3x3_reduce
I0403 16:27:11.642882 21088 net.cpp:425] inception_3b/relu_3x3_reduce <- inception_3b/3x3_reduce
I0403 16:27:11.642899 21088 net.cpp:386] inception_3b/relu_3x3_reduce -> inception_3b/3x3_reduce (in-place)
I0403 16:27:11.643075 21088 net.cpp:141] Setting up inception_3b/relu_3x3_reduce
I0403 16:27:11.643102 21088 net.cpp:148] Top shape: 24 128 28 28 (2408448)
I0403 16:27:11.643117 21088 net.cpp:156] Memory required for data: 696042528
I0403 16:27:11.643132 21088 layer_factory.hpp:77] Creating layer inception_3b/3x3
I0403 16:27:11.643157 21088 net.cpp:91] Creating Layer inception_3b/3x3
I0403 16:27:11.643174 21088 net.cpp:425] inception_3b/3x3 <- inception_3b/3x3_reduce
I0403 16:27:11.643195 21088 net.cpp:399] inception_3b/3x3 -> inception_3b/3x3
I0403 16:27:11.646080 21088 net.cpp:141] Setting up inception_3b/3x3
I0403 16:27:11.646107 21088 net.cpp:148] Top shape: 24 192 28 28 (3612672)
I0403 16:27:11.646122 21088 net.cpp:156] Memory required for data: 710493216
I0403 16:27:11.646141 21088 layer_factory.hpp:77] Creating layer inception_3b/relu_3x3
I0403 16:27:11.646159 21088 net.cpp:91] Creating Layer inception_3b/relu_3x3
I0403 16:27:11.646174 21088 net.cpp:425] inception_3b/relu_3x3 <- inception_3b/3x3
I0403 16:27:11.646194 21088 net.cpp:386] inception_3b/relu_3x3 -> inception_3b/3x3 (in-place)
I0403 16:27:11.646468 21088 net.cpp:141] Setting up inception_3b/relu_3x3
I0403 16:27:11.646494 21088 net.cpp:148] Top shape: 24 192 28 28 (3612672)
I0403 16:27:11.646509 21088 net.cpp:156] Memory required for data: 724943904
I0403 16:27:11.646524 21088 layer_factory.hpp:77] Creating layer inception_3b/5x5_reduce
I0403 16:27:11.646545 21088 net.cpp:91] Creating Layer inception_3b/5x5_reduce
I0403 16:27:11.646564 21088 net.cpp:425] inception_3b/5x5_reduce <- inception_3a/output_inception_3a/output_0_split_2
I0403 16:27:11.646585 21088 net.cpp:399] inception_3b/5x5_reduce -> inception_3b/5x5_reduce
I0403 16:27:11.647569 21088 net.cpp:141] Setting up inception_3b/5x5_reduce
I0403 16:27:11.647598 21088 net.cpp:148] Top shape: 24 32 28 28 (602112)
I0403 16:27:11.647614 21088 net.cpp:156] Memory required for data: 727352352
I0403 16:27:11.647632 21088 layer_factory.hpp:77] Creating layer inception_3b/relu_5x5_reduce
I0403 16:27:11.647650 21088 net.cpp:91] Creating Layer inception_3b/relu_5x5_reduce
I0403 16:27:11.647665 21088 net.cpp:425] inception_3b/relu_5x5_reduce <- inception_3b/5x5_reduce
I0403 16:27:11.647686 21088 net.cpp:386] inception_3b/relu_5x5_reduce -> inception_3b/5x5_reduce (in-place)
I0403 16:27:11.647879 21088 net.cpp:141] Setting up inception_3b/relu_5x5_reduce
I0403 16:27:11.647904 21088 net.cpp:148] Top shape: 24 32 28 28 (602112)
I0403 16:27:11.647919 21088 net.cpp:156] Memory required for data: 729760800
I0403 16:27:11.647933 21088 layer_factory.hpp:77] Creating layer inception_3b/5x5
I0403 16:27:11.647955 21088 net.cpp:91] Creating Layer inception_3b/5x5
I0403 16:27:11.647974 21088 net.cpp:425] inception_3b/5x5 <- inception_3b/5x5_reduce
I0403 16:27:11.647994 21088 net.cpp:399] inception_3b/5x5 -> inception_3b/5x5
I0403 16:27:11.649950 21088 net.cpp:141] Setting up inception_3b/5x5
I0403 16:27:11.649981 21088 net.cpp:148] Top shape: 24 96 28 28 (1806336)
I0403 16:27:11.649996 21088 net.cpp:156] Memory required for data: 736986144
I0403 16:27:11.650015 21088 layer_factory.hpp:77] Creating layer inception_3b/relu_5x5
I0403 16:27:11.650038 21088 net.cpp:91] Creating Layer inception_3b/relu_5x5
I0403 16:27:11.650053 21088 net.cpp:425] inception_3b/relu_5x5 <- inception_3b/5x5
I0403 16:27:11.650070 21088 net.cpp:386] inception_3b/relu_5x5 -> inception_3b/5x5 (in-place)
I0403 16:27:11.650259 21088 net.cpp:141] Setting up inception_3b/relu_5x5
I0403 16:27:11.650285 21088 net.cpp:148] Top shape: 24 96 28 28 (1806336)
I0403 16:27:11.650298 21088 net.cpp:156] Memory required for data: 744211488
I0403 16:27:11.650313 21088 layer_factory.hpp:77] Creating layer inception_3b/pool
I0403 16:27:11.650331 21088 net.cpp:91] Creating Layer inception_3b/pool
I0403 16:27:11.650346 21088 net.cpp:425] inception_3b/pool <- inception_3a/output_inception_3a/output_0_split_3
I0403 16:27:11.650364 21088 net.cpp:399] inception_3b/pool -> inception_3b/pool
I0403 16:27:11.650419 21088 net.cpp:141] Setting up inception_3b/pool
I0403 16:27:11.650445 21088 net.cpp:148] Top shape: 24 256 28 28 (4816896)
I0403 16:27:11.650460 21088 net.cpp:156] Memory required for data: 763479072
I0403 16:27:11.650475 21088 layer_factory.hpp:77] Creating layer inception_3b/pool_proj
I0403 16:27:11.650493 21088 net.cpp:91] Creating Layer inception_3b/pool_proj
I0403 16:27:11.650511 21088 net.cpp:425] inception_3b/pool_proj <- inception_3b/pool
I0403 16:27:11.650532 21088 net.cpp:399] inception_3b/pool_proj -> inception_3b/pool_proj
I0403 16:27:11.651583 21088 net.cpp:141] Setting up inception_3b/pool_proj
I0403 16:27:11.651610 21088 net.cpp:148] Top shape: 24 64 28 28 (1204224)
I0403 16:27:11.651626 21088 net.cpp:156] Memory required for data: 768295968
I0403 16:27:11.651644 21088 layer_factory.hpp:77] Creating layer inception_3b/relu_pool_proj
I0403 16:27:11.651664 21088 net.cpp:91] Creating Layer inception_3b/relu_pool_proj
I0403 16:27:11.651681 21088 net.cpp:425] inception_3b/relu_pool_proj <- inception_3b/pool_proj
I0403 16:27:11.651698 21088 net.cpp:386] inception_3b/relu_pool_proj -> inception_3b/pool_proj (in-place)
I0403 16:27:11.652091 21088 net.cpp:141] Setting up inception_3b/relu_pool_proj
I0403 16:27:11.652117 21088 net.cpp:148] Top shape: 24 64 28 28 (1204224)
I0403 16:27:11.652132 21088 net.cpp:156] Memory required for data: 773112864
I0403 16:27:11.652146 21088 layer_factory.hpp:77] Creating layer inception_3b/output
I0403 16:27:11.652163 21088 net.cpp:91] Creating Layer inception_3b/output
I0403 16:27:11.652179 21088 net.cpp:425] inception_3b/output <- inception_3b/1x1
I0403 16:27:11.652195 21088 net.cpp:425] inception_3b/output <- inception_3b/3x3
I0403 16:27:11.652211 21088 net.cpp:425] inception_3b/output <- inception_3b/5x5
I0403 16:27:11.652227 21088 net.cpp:425] inception_3b/output <- inception_3b/pool_proj
I0403 16:27:11.652246 21088 net.cpp:399] inception_3b/output -> inception_3b/output
I0403 16:27:11.652289 21088 net.cpp:141] Setting up inception_3b/output
I0403 16:27:11.652315 21088 net.cpp:148] Top shape: 24 480 28 28 (9031680)
I0403 16:27:11.652330 21088 net.cpp:156] Memory required for data: 809239584
I0403 16:27:11.652344 21088 layer_factory.hpp:77] Creating layer pool3/3x3_s2
I0403 16:27:11.652361 21088 net.cpp:91] Creating Layer pool3/3x3_s2
I0403 16:27:11.652377 21088 net.cpp:425] pool3/3x3_s2 <- inception_3b/output
I0403 16:27:11.652412 21088 net.cpp:399] pool3/3x3_s2 -> pool3/3x3_s2
I0403 16:27:11.652472 21088 net.cpp:141] Setting up pool3/3x3_s2
I0403 16:27:11.652494 21088 net.cpp:148] Top shape: 24 480 14 14 (2257920)
I0403 16:27:11.652508 21088 net.cpp:156] Memory required for data: 818271264
I0403 16:27:11.652523 21088 layer_factory.hpp:77] Creating layer pool3/3x3_s2_pool3/3x3_s2_0_split
I0403 16:27:11.652542 21088 net.cpp:91] Creating Layer pool3/3x3_s2_pool3/3x3_s2_0_split
I0403 16:27:11.652557 21088 net.cpp:425] pool3/3x3_s2_pool3/3x3_s2_0_split <- pool3/3x3_s2
I0403 16:27:11.652575 21088 net.cpp:399] pool3/3x3_s2_pool3/3x3_s2_0_split -> pool3/3x3_s2_pool3/3x3_s2_0_split_0
I0403 16:27:11.652593 21088 net.cpp:399] pool3/3x3_s2_pool3/3x3_s2_0_split -> pool3/3x3_s2_pool3/3x3_s2_0_split_1
I0403 16:27:11.652614 21088 net.cpp:399] pool3/3x3_s2_pool3/3x3_s2_0_split -> pool3/3x3_s2_pool3/3x3_s2_0_split_2
I0403 16:27:11.652634 21088 net.cpp:399] pool3/3x3_s2_pool3/3x3_s2_0_split -> pool3/3x3_s2_pool3/3x3_s2_0_split_3
I0403 16:27:11.652709 21088 net.cpp:141] Setting up pool3/3x3_s2_pool3/3x3_s2_0_split
I0403 16:27:11.652731 21088 net.cpp:148] Top shape: 24 480 14 14 (2257920)
I0403 16:27:11.652747 21088 net.cpp:148] Top shape: 24 480 14 14 (2257920)
I0403 16:27:11.652761 21088 net.cpp:148] Top shape: 24 480 14 14 (2257920)
I0403 16:27:11.652777 21088 net.cpp:148] Top shape: 24 480 14 14 (2257920)
I0403 16:27:11.652791 21088 net.cpp:156] Memory required for data: 854397984
I0403 16:27:11.652806 21088 layer_factory.hpp:77] Creating layer inception_4a/1x1
I0403 16:27:11.652827 21088 net.cpp:91] Creating Layer inception_4a/1x1
I0403 16:27:11.652842 21088 net.cpp:425] inception_4a/1x1 <- pool3/3x3_s2_pool3/3x3_s2_0_split_0
I0403 16:27:11.652863 21088 net.cpp:399] inception_4a/1x1 -> inception_4a/1x1
I0403 16:27:11.654425 21088 net.cpp:141] Setting up inception_4a/1x1
I0403 16:27:11.654453 21088 net.cpp:148] Top shape: 24 192 14 14 (903168)
I0403 16:27:11.654467 21088 net.cpp:156] Memory required for data: 858010656
I0403 16:27:11.654485 21088 layer_factory.hpp:77] Creating layer inception_4a/relu_1x1
I0403 16:27:11.654505 21088 net.cpp:91] Creating Layer inception_4a/relu_1x1
I0403 16:27:11.654521 21088 net.cpp:425] inception_4a/relu_1x1 <- inception_4a/1x1
I0403 16:27:11.654538 21088 net.cpp:386] inception_4a/relu_1x1 -> inception_4a/1x1 (in-place)
I0403 16:27:11.654713 21088 net.cpp:141] Setting up inception_4a/relu_1x1
I0403 16:27:11.654742 21088 net.cpp:148] Top shape: 24 192 14 14 (903168)
I0403 16:27:11.654757 21088 net.cpp:156] Memory required for data: 861623328
I0403 16:27:11.654772 21088 layer_factory.hpp:77] Creating layer inception_4a/3x3_reduce
I0403 16:27:11.654793 21088 net.cpp:91] Creating Layer inception_4a/3x3_reduce
I0403 16:27:11.654810 21088 net.cpp:425] inception_4a/3x3_reduce <- pool3/3x3_s2_pool3/3x3_s2_0_split_1
I0403 16:27:11.654829 21088 net.cpp:399] inception_4a/3x3_reduce -> inception_4a/3x3_reduce
I0403 16:27:11.656101 21088 net.cpp:141] Setting up inception_4a/3x3_reduce
I0403 16:27:11.656128 21088 net.cpp:148] Top shape: 24 96 14 14 (451584)
I0403 16:27:11.656144 21088 net.cpp:156] Memory required for data: 863429664
I0403 16:27:11.656168 21088 layer_factory.hpp:77] Creating layer inception_4a/relu_3x3_reduce
I0403 16:27:11.656190 21088 net.cpp:91] Creating Layer inception_4a/relu_3x3_reduce
I0403 16:27:11.656208 21088 net.cpp:425] inception_4a/relu_3x3_reduce <- inception_4a/3x3_reduce
I0403 16:27:11.656224 21088 net.cpp:386] inception_4a/relu_3x3_reduce -> inception_4a/3x3_reduce (in-place)
I0403 16:27:11.656397 21088 net.cpp:141] Setting up inception_4a/relu_3x3_reduce
I0403 16:27:11.656431 21088 net.cpp:148] Top shape: 24 96 14 14 (451584)
I0403 16:27:11.656445 21088 net.cpp:156] Memory required for data: 865236000
I0403 16:27:11.656460 21088 layer_factory.hpp:77] Creating layer inception_4a/3x3
I0403 16:27:11.656483 21088 net.cpp:91] Creating Layer inception_4a/3x3
I0403 16:27:11.656500 21088 net.cpp:425] inception_4a/3x3 <- inception_4a/3x3_reduce
I0403 16:27:11.656518 21088 net.cpp:399] inception_4a/3x3 -> inception_4a/3x3
I0403 16:27:11.659144 21088 net.cpp:141] Setting up inception_4a/3x3
I0403 16:27:11.659174 21088 net.cpp:148] Top shape: 24 208 14 14 (978432)
I0403 16:27:11.659190 21088 net.cpp:156] Memory required for data: 869149728
I0403 16:27:11.659209 21088 layer_factory.hpp:77] Creating layer inception_4a/relu_3x3
I0403 16:27:11.659225 21088 net.cpp:91] Creating Layer inception_4a/relu_3x3
I0403 16:27:11.659240 21088 net.cpp:425] inception_4a/relu_3x3 <- inception_4a/3x3
I0403 16:27:11.659257 21088 net.cpp:386] inception_4a/relu_3x3 -> inception_4a/3x3 (in-place)
I0403 16:27:11.659531 21088 net.cpp:141] Setting up inception_4a/relu_3x3
I0403 16:27:11.659559 21088 net.cpp:148] Top shape: 24 208 14 14 (978432)
I0403 16:27:11.659574 21088 net.cpp:156] Memory required for data: 873063456
I0403 16:27:11.659589 21088 layer_factory.hpp:77] Creating layer inception_4a/5x5_reduce
I0403 16:27:11.659610 21088 net.cpp:91] Creating Layer inception_4a/5x5_reduce
I0403 16:27:11.659626 21088 net.cpp:425] inception_4a/5x5_reduce <- pool3/3x3_s2_pool3/3x3_s2_0_split_2
I0403 16:27:11.659644 21088 net.cpp:399] inception_4a/5x5_reduce -> inception_4a/5x5_reduce
I0403 16:27:11.660637 21088 net.cpp:141] Setting up inception_4a/5x5_reduce
I0403 16:27:11.660666 21088 net.cpp:148] Top shape: 24 16 14 14 (75264)
I0403 16:27:11.660681 21088 net.cpp:156] Memory required for data: 873364512
I0403 16:27:11.660698 21088 layer_factory.hpp:77] Creating layer inception_4a/relu_5x5_reduce
I0403 16:27:11.660717 21088 net.cpp:91] Creating Layer inception_4a/relu_5x5_reduce
I0403 16:27:11.660732 21088 net.cpp:425] inception_4a/relu_5x5_reduce <- inception_4a/5x5_reduce
I0403 16:27:11.660750 21088 net.cpp:386] inception_4a/relu_5x5_reduce -> inception_4a/5x5_reduce (in-place)
I0403 16:27:11.660923 21088 net.cpp:141] Setting up inception_4a/relu_5x5_reduce
I0403 16:27:11.660948 21088 net.cpp:148] Top shape: 24 16 14 14 (75264)
I0403 16:27:11.660962 21088 net.cpp:156] Memory required for data: 873665568
I0403 16:27:11.660976 21088 layer_factory.hpp:77] Creating layer inception_4a/5x5
I0403 16:27:11.660997 21088 net.cpp:91] Creating Layer inception_4a/5x5
I0403 16:27:11.661015 21088 net.cpp:425] inception_4a/5x5 <- inception_4a/5x5_reduce
I0403 16:27:11.661039 21088 net.cpp:399] inception_4a/5x5 -> inception_4a/5x5
I0403 16:27:11.662091 21088 net.cpp:141] Setting up inception_4a/5x5
I0403 16:27:11.662117 21088 net.cpp:148] Top shape: 24 48 14 14 (225792)
I0403 16:27:11.662132 21088 net.cpp:156] Memory required for data: 874568736
I0403 16:27:11.662149 21088 layer_factory.hpp:77] Creating layer inception_4a/relu_5x5
I0403 16:27:11.662168 21088 net.cpp:91] Creating Layer inception_4a/relu_5x5
I0403 16:27:11.662183 21088 net.cpp:425] inception_4a/relu_5x5 <- inception_4a/5x5
I0403 16:27:11.662201 21088 net.cpp:386] inception_4a/relu_5x5 -> inception_4a/5x5 (in-place)
I0403 16:27:11.662375 21088 net.cpp:141] Setting up inception_4a/relu_5x5
I0403 16:27:11.662400 21088 net.cpp:148] Top shape: 24 48 14 14 (225792)
I0403 16:27:11.662415 21088 net.cpp:156] Memory required for data: 875471904
I0403 16:27:11.662428 21088 layer_factory.hpp:77] Creating layer inception_4a/pool
I0403 16:27:11.662447 21088 net.cpp:91] Creating Layer inception_4a/pool
I0403 16:27:11.662463 21088 net.cpp:425] inception_4a/pool <- pool3/3x3_s2_pool3/3x3_s2_0_split_3
I0403 16:27:11.662480 21088 net.cpp:399] inception_4a/pool -> inception_4a/pool
I0403 16:27:11.662539 21088 net.cpp:141] Setting up inception_4a/pool
I0403 16:27:11.662562 21088 net.cpp:148] Top shape: 24 480 14 14 (2257920)
I0403 16:27:11.662576 21088 net.cpp:156] Memory required for data: 884503584
I0403 16:27:11.662590 21088 layer_factory.hpp:77] Creating layer inception_4a/pool_proj
I0403 16:27:11.662611 21088 net.cpp:91] Creating Layer inception_4a/pool_proj
I0403 16:27:11.662627 21088 net.cpp:425] inception_4a/pool_proj <- inception_4a/pool
I0403 16:27:11.662647 21088 net.cpp:399] inception_4a/pool_proj -> inception_4a/pool_proj
I0403 16:27:11.663797 21088 net.cpp:141] Setting up inception_4a/pool_proj
I0403 16:27:11.663825 21088 net.cpp:148] Top shape: 24 64 14 14 (301056)
I0403 16:27:11.663853 21088 net.cpp:156] Memory required for data: 885707808
I0403 16:27:11.663872 21088 layer_factory.hpp:77] Creating layer inception_4a/relu_pool_proj
I0403 16:27:11.663892 21088 net.cpp:91] Creating Layer inception_4a/relu_pool_proj
I0403 16:27:11.663908 21088 net.cpp:425] inception_4a/relu_pool_proj <- inception_4a/pool_proj
I0403 16:27:11.663925 21088 net.cpp:386] inception_4a/relu_pool_proj -> inception_4a/pool_proj (in-place)
I0403 16:27:11.664202 21088 net.cpp:141] Setting up inception_4a/relu_pool_proj
I0403 16:27:11.664228 21088 net.cpp:148] Top shape: 24 64 14 14 (301056)
I0403 16:27:11.664242 21088 net.cpp:156] Memory required for data: 886912032
I0403 16:27:11.664257 21088 layer_factory.hpp:77] Creating layer inception_4a/output
I0403 16:27:11.664273 21088 net.cpp:91] Creating Layer inception_4a/output
I0403 16:27:11.664288 21088 net.cpp:425] inception_4a/output <- inception_4a/1x1
I0403 16:27:11.664306 21088 net.cpp:425] inception_4a/output <- inception_4a/3x3
I0403 16:27:11.664324 21088 net.cpp:425] inception_4a/output <- inception_4a/5x5
I0403 16:27:11.664338 21088 net.cpp:425] inception_4a/output <- inception_4a/pool_proj
I0403 16:27:11.664355 21088 net.cpp:399] inception_4a/output -> inception_4a/output
I0403 16:27:11.664399 21088 net.cpp:141] Setting up inception_4a/output
I0403 16:27:11.664422 21088 net.cpp:148] Top shape: 24 512 14 14 (2408448)
I0403 16:27:11.664435 21088 net.cpp:156] Memory required for data: 896545824
I0403 16:27:11.664449 21088 layer_factory.hpp:77] Creating layer inception_4a/output_inception_4a/output_0_split
I0403 16:27:11.664466 21088 net.cpp:91] Creating Layer inception_4a/output_inception_4a/output_0_split
I0403 16:27:11.664480 21088 net.cpp:425] inception_4a/output_inception_4a/output_0_split <- inception_4a/output
I0403 16:27:11.664499 21088 net.cpp:399] inception_4a/output_inception_4a/output_0_split -> inception_4a/output_inception_4a/output_0_split_0
I0403 16:27:11.664520 21088 net.cpp:399] inception_4a/output_inception_4a/output_0_split -> inception_4a/output_inception_4a/output_0_split_1
I0403 16:27:11.664538 21088 net.cpp:399] inception_4a/output_inception_4a/output_0_split -> inception_4a/output_inception_4a/output_0_split_2
I0403 16:27:11.664557 21088 net.cpp:399] inception_4a/output_inception_4a/output_0_split -> inception_4a/output_inception_4a/output_0_split_3
I0403 16:27:11.664577 21088 net.cpp:399] inception_4a/output_inception_4a/output_0_split -> inception_4a/output_inception_4a/output_0_split_4
I0403 16:27:11.664664 21088 net.cpp:141] Setting up inception_4a/output_inception_4a/output_0_split
I0403 16:27:11.664687 21088 net.cpp:148] Top shape: 24 512 14 14 (2408448)
I0403 16:27:11.664703 21088 net.cpp:148] Top shape: 24 512 14 14 (2408448)
I0403 16:27:11.664718 21088 net.cpp:148] Top shape: 24 512 14 14 (2408448)
I0403 16:27:11.664733 21088 net.cpp:148] Top shape: 24 512 14 14 (2408448)
I0403 16:27:11.664747 21088 net.cpp:148] Top shape: 24 512 14 14 (2408448)
I0403 16:27:11.664760 21088 net.cpp:156] Memory required for data: 944714784
I0403 16:27:11.664774 21088 layer_factory.hpp:77] Creating layer loss1/ave_pool
I0403 16:27:11.664790 21088 net.cpp:91] Creating Layer loss1/ave_pool
I0403 16:27:11.664806 21088 net.cpp:425] loss1/ave_pool <- inception_4a/output_inception_4a/output_0_split_0
I0403 16:27:11.664825 21088 net.cpp:399] loss1/ave_pool -> loss1/ave_pool
I0403 16:27:11.665032 21088 net.cpp:141] Setting up loss1/ave_pool
I0403 16:27:11.665056 21088 net.cpp:148] Top shape: 24 512 4 4 (196608)
I0403 16:27:11.665071 21088 net.cpp:156] Memory required for data: 945501216
I0403 16:27:11.665086 21088 layer_factory.hpp:77] Creating layer loss1/conv
I0403 16:27:11.665107 21088 net.cpp:91] Creating Layer loss1/conv
I0403 16:27:11.665123 21088 net.cpp:425] loss1/conv <- loss1/ave_pool
I0403 16:27:11.665143 21088 net.cpp:399] loss1/conv -> loss1/conv
I0403 16:27:11.666512 21088 net.cpp:141] Setting up loss1/conv
I0403 16:27:11.666540 21088 net.cpp:148] Top shape: 24 128 4 4 (49152)
I0403 16:27:11.666568 21088 net.cpp:156] Memory required for data: 945697824
I0403 16:27:11.666587 21088 layer_factory.hpp:77] Creating layer loss1/relu_conv
I0403 16:27:11.666604 21088 net.cpp:91] Creating Layer loss1/relu_conv
I0403 16:27:11.666620 21088 net.cpp:425] loss1/relu_conv <- loss1/conv
I0403 16:27:11.666636 21088 net.cpp:386] loss1/relu_conv -> loss1/conv (in-place)
I0403 16:27:11.666909 21088 net.cpp:141] Setting up loss1/relu_conv
I0403 16:27:11.666937 21088 net.cpp:148] Top shape: 24 128 4 4 (49152)
I0403 16:27:11.666952 21088 net.cpp:156] Memory required for data: 945894432
I0403 16:27:11.666967 21088 layer_factory.hpp:77] Creating layer loss1/fc
I0403 16:27:11.666990 21088 net.cpp:91] Creating Layer loss1/fc
I0403 16:27:11.667006 21088 net.cpp:425] loss1/fc <- loss1/conv
I0403 16:27:11.667045 21088 net.cpp:399] loss1/fc -> loss1/fc
I0403 16:27:11.684725 21088 net.cpp:141] Setting up loss1/fc
I0403 16:27:11.684759 21088 net.cpp:148] Top shape: 24 1024 (24576)
I0403 16:27:11.684774 21088 net.cpp:156] Memory required for data: 945992736
I0403 16:27:11.684793 21088 layer_factory.hpp:77] Creating layer loss1/relu_fc
I0403 16:27:11.684814 21088 net.cpp:91] Creating Layer loss1/relu_fc
I0403 16:27:11.684831 21088 net.cpp:425] loss1/relu_fc <- loss1/fc
I0403 16:27:11.684849 21088 net.cpp:386] loss1/relu_fc -> loss1/fc (in-place)
I0403 16:27:11.685060 21088 net.cpp:141] Setting up loss1/relu_fc
I0403 16:27:11.685086 21088 net.cpp:148] Top shape: 24 1024 (24576)
I0403 16:27:11.685101 21088 net.cpp:156] Memory required for data: 946091040
I0403 16:27:11.685117 21088 layer_factory.hpp:77] Creating layer loss1/drop_fc
I0403 16:27:11.685142 21088 net.cpp:91] Creating Layer loss1/drop_fc
I0403 16:27:11.685160 21088 net.cpp:425] loss1/drop_fc <- loss1/fc
I0403 16:27:11.685189 21088 net.cpp:386] loss1/drop_fc -> loss1/fc (in-place)
I0403 16:27:11.685242 21088 net.cpp:141] Setting up loss1/drop_fc
I0403 16:27:11.685266 21088 net.cpp:148] Top shape: 24 1024 (24576)
I0403 16:27:11.685279 21088 net.cpp:156] Memory required for data: 946189344
I0403 16:27:11.685294 21088 layer_factory.hpp:77] Creating layer loss1/classifier_plantvillage
I0403 16:27:11.685315 21088 net.cpp:91] Creating Layer loss1/classifier_plantvillage
I0403 16:27:11.685333 21088 net.cpp:425] loss1/classifier_plantvillage <- loss1/fc
I0403 16:27:11.685350 21088 net.cpp:399] loss1/classifier_plantvillage -> loss1/classifier_plantvillage
I0403 16:27:11.686266 21088 net.cpp:141] Setting up loss1/classifier_plantvillage
I0403 16:27:11.686298 21088 net.cpp:148] Top shape: 24 38 (912)
I0403 16:27:11.686314 21088 net.cpp:156] Memory required for data: 946192992
I0403 16:27:11.686331 21088 layer_factory.hpp:77] Creating layer loss1/classifier_plantvillage_loss1/classifier_plantvillage_0_split
I0403 16:27:11.686349 21088 net.cpp:91] Creating Layer loss1/classifier_plantvillage_loss1/classifier_plantvillage_0_split
I0403 16:27:11.686364 21088 net.cpp:425] loss1/classifier_plantvillage_loss1/classifier_plantvillage_0_split <- loss1/classifier_plantvillage
I0403 16:27:11.686381 21088 net.cpp:399] loss1/classifier_plantvillage_loss1/classifier_plantvillage_0_split -> loss1/classifier_plantvillage_loss1/classifier_plantvillage_0_split_0
I0403 16:27:11.686401 21088 net.cpp:399] loss1/classifier_plantvillage_loss1/classifier_plantvillage_0_split -> loss1/classifier_plantvillage_loss1/classifier_plantvillage_0_split_1
I0403 16:27:11.686421 21088 net.cpp:399] loss1/classifier_plantvillage_loss1/classifier_plantvillage_0_split -> loss1/classifier_plantvillage_loss1/classifier_plantvillage_0_split_2
I0403 16:27:11.686487 21088 net.cpp:141] Setting up loss1/classifier_plantvillage_loss1/classifier_plantvillage_0_split
I0403 16:27:11.686511 21088 net.cpp:148] Top shape: 24 38 (912)
I0403 16:27:11.686527 21088 net.cpp:148] Top shape: 24 38 (912)
I0403 16:27:11.686542 21088 net.cpp:148] Top shape: 24 38 (912)
I0403 16:27:11.686556 21088 net.cpp:156] Memory required for data: 946203936
I0403 16:27:11.686570 21088 layer_factory.hpp:77] Creating layer inception_4b/1x1
I0403 16:27:11.686589 21088 net.cpp:91] Creating Layer inception_4b/1x1
I0403 16:27:11.686625 21088 net.cpp:425] inception_4b/1x1 <- inception_4a/output_inception_4a/output_0_split_1
I0403 16:27:11.686647 21088 net.cpp:399] inception_4b/1x1 -> inception_4b/1x1
I0403 16:27:11.688347 21088 net.cpp:141] Setting up inception_4b/1x1
I0403 16:27:11.688379 21088 net.cpp:148] Top shape: 24 160 14 14 (752640)
I0403 16:27:11.688395 21088 net.cpp:156] Memory required for data: 949214496
I0403 16:27:11.688413 21088 layer_factory.hpp:77] Creating layer inception_4b/relu_1x1
I0403 16:27:11.688431 21088 net.cpp:91] Creating Layer inception_4b/relu_1x1
I0403 16:27:11.688447 21088 net.cpp:425] inception_4b/relu_1x1 <- inception_4b/1x1
I0403 16:27:11.688464 21088 net.cpp:386] inception_4b/relu_1x1 -> inception_4b/1x1 (in-place)
I0403 16:27:11.688647 21088 net.cpp:141] Setting up inception_4b/relu_1x1
I0403 16:27:11.688673 21088 net.cpp:148] Top shape: 24 160 14 14 (752640)
I0403 16:27:11.688688 21088 net.cpp:156] Memory required for data: 952225056
I0403 16:27:11.688701 21088 layer_factory.hpp:77] Creating layer inception_4b/3x3_reduce
I0403 16:27:11.688724 21088 net.cpp:91] Creating Layer inception_4b/3x3_reduce
I0403 16:27:11.688741 21088 net.cpp:425] inception_4b/3x3_reduce <- inception_4a/output_inception_4a/output_0_split_2
I0403 16:27:11.688762 21088 net.cpp:399] inception_4b/3x3_reduce -> inception_4b/3x3_reduce
I0403 16:27:11.690165 21088 net.cpp:141] Setting up inception_4b/3x3_reduce
I0403 16:27:11.690193 21088 net.cpp:148] Top shape: 24 112 14 14 (526848)
I0403 16:27:11.690208 21088 net.cpp:156] Memory required for data: 954332448
I0403 16:27:11.690227 21088 layer_factory.hpp:77] Creating layer inception_4b/relu_3x3_reduce
I0403 16:27:11.690243 21088 net.cpp:91] Creating Layer inception_4b/relu_3x3_reduce
I0403 16:27:11.690263 21088 net.cpp:425] inception_4b/relu_3x3_reduce <- inception_4b/3x3_reduce
I0403 16:27:11.690280 21088 net.cpp:386] inception_4b/relu_3x3_reduce -> inception_4b/3x3_reduce (in-place)
I0403 16:27:11.690565 21088 net.cpp:141] Setting up inception_4b/relu_3x3_reduce
I0403 16:27:11.690592 21088 net.cpp:148] Top shape: 24 112 14 14 (526848)
I0403 16:27:11.690605 21088 net.cpp:156] Memory required for data: 956439840
I0403 16:27:11.690620 21088 layer_factory.hpp:77] Creating layer inception_4b/3x3
I0403 16:27:11.690642 21088 net.cpp:91] Creating Layer inception_4b/3x3
I0403 16:27:11.690660 21088 net.cpp:425] inception_4b/3x3 <- inception_4b/3x3_reduce
I0403 16:27:11.690682 21088 net.cpp:399] inception_4b/3x3 -> inception_4b/3x3
I0403 16:27:11.693728 21088 net.cpp:141] Setting up inception_4b/3x3
I0403 16:27:11.693758 21088 net.cpp:148] Top shape: 24 224 14 14 (1053696)
I0403 16:27:11.693773 21088 net.cpp:156] Memory required for data: 960654624
I0403 16:27:11.693791 21088 layer_factory.hpp:77] Creating layer inception_4b/relu_3x3
I0403 16:27:11.693812 21088 net.cpp:91] Creating Layer inception_4b/relu_3x3
I0403 16:27:11.693830 21088 net.cpp:425] inception_4b/relu_3x3 <- inception_4b/3x3
I0403 16:27:11.693847 21088 net.cpp:386] inception_4b/relu_3x3 -> inception_4b/3x3 (in-place)
I0403 16:27:11.694044 21088 net.cpp:141] Setting up inception_4b/relu_3x3
I0403 16:27:11.694072 21088 net.cpp:148] Top shape: 24 224 14 14 (1053696)
I0403 16:27:11.694087 21088 net.cpp:156] Memory required for data: 964869408
I0403 16:27:11.694103 21088 layer_factory.hpp:77] Creating layer inception_4b/5x5_reduce
I0403 16:27:11.694136 21088 net.cpp:91] Creating Layer inception_4b/5x5_reduce
I0403 16:27:11.694154 21088 net.cpp:425] inception_4b/5x5_reduce <- inception_4a/output_inception_4a/output_0_split_3
I0403 16:27:11.694174 21088 net.cpp:399] inception_4b/5x5_reduce -> inception_4b/5x5_reduce
I0403 16:27:11.695266 21088 net.cpp:141] Setting up inception_4b/5x5_reduce
I0403 16:27:11.695297 21088 net.cpp:148] Top shape: 24 24 14 14 (112896)
I0403 16:27:11.695312 21088 net.cpp:156] Memory required for data: 965320992
I0403 16:27:11.695332 21088 layer_factory.hpp:77] Creating layer inception_4b/relu_5x5_reduce
I0403 16:27:11.695348 21088 net.cpp:91] Creating Layer inception_4b/relu_5x5_reduce
I0403 16:27:11.695380 21088 net.cpp:425] inception_4b/relu_5x5_reduce <- inception_4b/5x5_reduce
I0403 16:27:11.695401 21088 net.cpp:386] inception_4b/relu_5x5_reduce -> inception_4b/5x5_reduce (in-place)
I0403 16:27:11.695587 21088 net.cpp:141] Setting up inception_4b/relu_5x5_reduce
I0403 16:27:11.695612 21088 net.cpp:148] Top shape: 24 24 14 14 (112896)
I0403 16:27:11.695626 21088 net.cpp:156] Memory required for data: 965772576
I0403 16:27:11.695641 21088 layer_factory.hpp:77] Creating layer inception_4b/5x5
I0403 16:27:11.695662 21088 net.cpp:91] Creating Layer inception_4b/5x5
I0403 16:27:11.695680 21088 net.cpp:425] inception_4b/5x5 <- inception_4b/5x5_reduce
I0403 16:27:11.695701 21088 net.cpp:399] inception_4b/5x5 -> inception_4b/5x5
I0403 16:27:11.696933 21088 net.cpp:141] Setting up inception_4b/5x5
I0403 16:27:11.696964 21088 net.cpp:148] Top shape: 24 64 14 14 (301056)
I0403 16:27:11.696980 21088 net.cpp:156] Memory required for data: 966976800
I0403 16:27:11.696998 21088 layer_factory.hpp:77] Creating layer inception_4b/relu_5x5
I0403 16:27:11.697019 21088 net.cpp:91] Creating Layer inception_4b/relu_5x5
I0403 16:27:11.697037 21088 net.cpp:425] inception_4b/relu_5x5 <- inception_4b/5x5
I0403 16:27:11.697054 21088 net.cpp:386] inception_4b/relu_5x5 -> inception_4b/5x5 (in-place)
I0403 16:27:11.697340 21088 net.cpp:141] Setting up inception_4b/relu_5x5
I0403 16:27:11.697368 21088 net.cpp:148] Top shape: 24 64 14 14 (301056)
I0403 16:27:11.697384 21088 net.cpp:156] Memory required for data: 968181024
I0403 16:27:11.697399 21088 layer_factory.hpp:77] Creating layer inception_4b/pool
I0403 16:27:11.697418 21088 net.cpp:91] Creating Layer inception_4b/pool
I0403 16:27:11.697433 21088 net.cpp:425] inception_4b/pool <- inception_4a/output_inception_4a/output_0_split_4
I0403 16:27:11.697456 21088 net.cpp:399] inception_4b/pool -> inception_4b/pool
I0403 16:27:11.697521 21088 net.cpp:141] Setting up inception_4b/pool
I0403 16:27:11.697546 21088 net.cpp:148] Top shape: 24 512 14 14 (2408448)
I0403 16:27:11.697559 21088 net.cpp:156] Memory required for data: 977814816
I0403 16:27:11.697574 21088 layer_factory.hpp:77] Creating layer inception_4b/pool_proj
I0403 16:27:11.697595 21088 net.cpp:91] Creating Layer inception_4b/pool_proj
I0403 16:27:11.697614 21088 net.cpp:425] inception_4b/pool_proj <- inception_4b/pool
I0403 16:27:11.697633 21088 net.cpp:399] inception_4b/pool_proj -> inception_4b/pool_proj
I0403 16:27:11.698853 21088 net.cpp:141] Setting up inception_4b/pool_proj
I0403 16:27:11.698880 21088 net.cpp:148] Top shape: 24 64 14 14 (301056)
I0403 16:27:11.698895 21088 net.cpp:156] Memory required for data: 979019040
I0403 16:27:11.698915 21088 layer_factory.hpp:77] Creating layer inception_4b/relu_pool_proj
I0403 16:27:11.698931 21088 net.cpp:91] Creating Layer inception_4b/relu_pool_proj
I0403 16:27:11.698948 21088 net.cpp:425] inception_4b/relu_pool_proj <- inception_4b/pool_proj
I0403 16:27:11.698968 21088 net.cpp:386] inception_4b/relu_pool_proj -> inception_4b/pool_proj (in-place)
I0403 16:27:11.699156 21088 net.cpp:141] Setting up inception_4b/relu_pool_proj
I0403 16:27:11.699180 21088 net.cpp:148] Top shape: 24 64 14 14 (301056)
I0403 16:27:11.699195 21088 net.cpp:156] Memory required for data: 980223264
I0403 16:27:11.699210 21088 layer_factory.hpp:77] Creating layer inception_4b/output
I0403 16:27:11.699228 21088 net.cpp:91] Creating Layer inception_4b/output
I0403 16:27:11.699245 21088 net.cpp:425] inception_4b/output <- inception_4b/1x1
I0403 16:27:11.699262 21088 net.cpp:425] inception_4b/output <- inception_4b/3x3
I0403 16:27:11.699278 21088 net.cpp:425] inception_4b/output <- inception_4b/5x5
I0403 16:27:11.699295 21088 net.cpp:425] inception_4b/output <- inception_4b/pool_proj
I0403 16:27:11.699311 21088 net.cpp:399] inception_4b/output -> inception_4b/output
I0403 16:27:11.699355 21088 net.cpp:141] Setting up inception_4b/output
I0403 16:27:11.699380 21088 net.cpp:148] Top shape: 24 512 14 14 (2408448)
I0403 16:27:11.699396 21088 net.cpp:156] Memory required for data: 989857056
I0403 16:27:11.699425 21088 layer_factory.hpp:77] Creating layer inception_4b/output_inception_4b/output_0_split
I0403 16:27:11.699443 21088 net.cpp:91] Creating Layer inception_4b/output_inception_4b/output_0_split
I0403 16:27:11.699458 21088 net.cpp:425] inception_4b/output_inception_4b/output_0_split <- inception_4b/output
I0403 16:27:11.699478 21088 net.cpp:399] inception_4b/output_inception_4b/output_0_split -> inception_4b/output_inception_4b/output_0_split_0
I0403 16:27:11.699499 21088 net.cpp:399] inception_4b/output_inception_4b/output_0_split -> inception_4b/output_inception_4b/output_0_split_1
I0403 16:27:11.699518 21088 net.cpp:399] inception_4b/output_inception_4b/output_0_split -> inception_4b/output_inception_4b/output_0_split_2
I0403 16:27:11.699538 21088 net.cpp:399] inception_4b/output_inception_4b/output_0_split -> inception_4b/output_inception_4b/output_0_split_3
I0403 16:27:11.699620 21088 net.cpp:141] Setting up inception_4b/output_inception_4b/output_0_split
I0403 16:27:11.699645 21088 net.cpp:148] Top shape: 24 512 14 14 (2408448)
I0403 16:27:11.699661 21088 net.cpp:148] Top shape: 24 512 14 14 (2408448)
I0403 16:27:11.699676 21088 net.cpp:148] Top shape: 24 512 14 14 (2408448)
I0403 16:27:11.699692 21088 net.cpp:148] Top shape: 24 512 14 14 (2408448)
I0403 16:27:11.699705 21088 net.cpp:156] Memory required for data: 1028392224
I0403 16:27:11.699719 21088 layer_factory.hpp:77] Creating layer inception_4c/1x1
I0403 16:27:11.699743 21088 net.cpp:91] Creating Layer inception_4c/1x1
I0403 16:27:11.699760 21088 net.cpp:425] inception_4c/1x1 <- inception_4b/output_inception_4b/output_0_split_0
I0403 16:27:11.699779 21088 net.cpp:399] inception_4c/1x1 -> inception_4c/1x1
I0403 16:27:11.701227 21088 net.cpp:141] Setting up inception_4c/1x1
I0403 16:27:11.701254 21088 net.cpp:148] Top shape: 24 128 14 14 (602112)
I0403 16:27:11.701270 21088 net.cpp:156] Memory required for data: 1030800672
I0403 16:27:11.701287 21088 layer_factory.hpp:77] Creating layer inception_4c/relu_1x1
I0403 16:27:11.701310 21088 net.cpp:91] Creating Layer inception_4c/relu_1x1
I0403 16:27:11.701328 21088 net.cpp:425] inception_4c/relu_1x1 <- inception_4c/1x1
I0403 16:27:11.701344 21088 net.cpp:386] inception_4c/relu_1x1 -> inception_4c/1x1 (in-place)
I0403 16:27:11.701529 21088 net.cpp:141] Setting up inception_4c/relu_1x1
I0403 16:27:11.701553 21088 net.cpp:148] Top shape: 24 128 14 14 (602112)
I0403 16:27:11.701567 21088 net.cpp:156] Memory required for data: 1033209120
I0403 16:27:11.701582 21088 layer_factory.hpp:77] Creating layer inception_4c/3x3_reduce
I0403 16:27:11.701606 21088 net.cpp:91] Creating Layer inception_4c/3x3_reduce
I0403 16:27:11.701622 21088 net.cpp:425] inception_4c/3x3_reduce <- inception_4b/output_inception_4b/output_0_split_1
I0403 16:27:11.701642 21088 net.cpp:399] inception_4c/3x3_reduce -> inception_4c/3x3_reduce
I0403 16:27:11.703606 21088 net.cpp:141] Setting up inception_4c/3x3_reduce
I0403 16:27:11.703637 21088 net.cpp:148] Top shape: 24 128 14 14 (602112)
I0403 16:27:11.703655 21088 net.cpp:156] Memory required for data: 1035617568
I0403 16:27:11.703672 21088 layer_factory.hpp:77] Creating layer inception_4c/relu_3x3_reduce
I0403 16:27:11.703691 21088 net.cpp:91] Creating Layer inception_4c/relu_3x3_reduce
I0403 16:27:11.703707 21088 net.cpp:425] inception_4c/relu_3x3_reduce <- inception_4c/3x3_reduce
I0403 16:27:11.703728 21088 net.cpp:386] inception_4c/relu_3x3_reduce -> inception_4c/3x3_reduce (in-place)
I0403 16:27:11.704023 21088 net.cpp:141] Setting up inception_4c/relu_3x3_reduce
I0403 16:27:11.704052 21088 net.cpp:148] Top shape: 24 128 14 14 (602112)
I0403 16:27:11.704068 21088 net.cpp:156] Memory required for data: 1038026016
I0403 16:27:11.704083 21088 layer_factory.hpp:77] Creating layer inception_4c/3x3
I0403 16:27:11.704107 21088 net.cpp:91] Creating Layer inception_4c/3x3
I0403 16:27:11.704125 21088 net.cpp:425] inception_4c/3x3 <- inception_4c/3x3_reduce
I0403 16:27:11.704144 21088 net.cpp:399] inception_4c/3x3 -> inception_4c/3x3
I0403 16:27:11.707765 21088 net.cpp:141] Setting up inception_4c/3x3
I0403 16:27:11.707808 21088 net.cpp:148] Top shape: 24 256 14 14 (1204224)
I0403 16:27:11.707823 21088 net.cpp:156] Memory required for data: 1042842912
I0403 16:27:11.707856 21088 layer_factory.hpp:77] Creating layer inception_4c/relu_3x3
I0403 16:27:11.707877 21088 net.cpp:91] Creating Layer inception_4c/relu_3x3
I0403 16:27:11.707893 21088 net.cpp:425] inception_4c/relu_3x3 <- inception_4c/3x3
I0403 16:27:11.707913 21088 net.cpp:386] inception_4c/relu_3x3 -> inception_4c/3x3 (in-place)
I0403 16:27:11.708112 21088 net.cpp:141] Setting up inception_4c/relu_3x3
I0403 16:27:11.708139 21088 net.cpp:148] Top shape: 24 256 14 14 (1204224)
I0403 16:27:11.708154 21088 net.cpp:156] Memory required for data: 1047659808
I0403 16:27:11.708169 21088 layer_factory.hpp:77] Creating layer inception_4c/5x5_reduce
I0403 16:27:11.708191 21088 net.cpp:91] Creating Layer inception_4c/5x5_reduce
I0403 16:27:11.708210 21088 net.cpp:425] inception_4c/5x5_reduce <- inception_4b/output_inception_4b/output_0_split_2
I0403 16:27:11.708231 21088 net.cpp:399] inception_4c/5x5_reduce -> inception_4c/5x5_reduce
I0403 16:27:11.709329 21088 net.cpp:141] Setting up inception_4c/5x5_reduce
I0403 16:27:11.709359 21088 net.cpp:148] Top shape: 24 24 14 14 (112896)
I0403 16:27:11.709375 21088 net.cpp:156] Memory required for data: 1048111392
I0403 16:27:11.709393 21088 layer_factory.hpp:77] Creating layer inception_4c/relu_5x5_reduce
I0403 16:27:11.709411 21088 net.cpp:91] Creating Layer inception_4c/relu_5x5_reduce
I0403 16:27:11.709427 21088 net.cpp:425] inception_4c/relu_5x5_reduce <- inception_4c/5x5_reduce
I0403 16:27:11.709446 21088 net.cpp:386] inception_4c/relu_5x5_reduce -> inception_4c/5x5_reduce (in-place)
I0403 16:27:11.709631 21088 net.cpp:141] Setting up inception_4c/relu_5x5_reduce
I0403 16:27:11.709656 21088 net.cpp:148] Top shape: 24 24 14 14 (112896)
I0403 16:27:11.709671 21088 net.cpp:156] Memory required for data: 1048562976
I0403 16:27:11.709684 21088 layer_factory.hpp:77] Creating layer inception_4c/5x5
I0403 16:27:11.709707 21088 net.cpp:91] Creating Layer inception_4c/5x5
I0403 16:27:11.709724 21088 net.cpp:425] inception_4c/5x5 <- inception_4c/5x5_reduce
I0403 16:27:11.709744 21088 net.cpp:399] inception_4c/5x5 -> inception_4c/5x5
I0403 16:27:11.710989 21088 net.cpp:141] Setting up inception_4c/5x5
I0403 16:27:11.711019 21088 net.cpp:148] Top shape: 24 64 14 14 (301056)
I0403 16:27:11.711036 21088 net.cpp:156] Memory required for data: 1049767200
I0403 16:27:11.711055 21088 layer_factory.hpp:77] Creating layer inception_4c/relu_5x5
I0403 16:27:11.711076 21088 net.cpp:91] Creating Layer inception_4c/relu_5x5
I0403 16:27:11.711092 21088 net.cpp:425] inception_4c/relu_5x5 <- inception_4c/5x5
I0403 16:27:11.711109 21088 net.cpp:386] inception_4c/relu_5x5 -> inception_4c/5x5 (in-place)
I0403 16:27:11.711400 21088 net.cpp:141] Setting up inception_4c/relu_5x5
I0403 16:27:11.711426 21088 net.cpp:148] Top shape: 24 64 14 14 (301056)
I0403 16:27:11.711441 21088 net.cpp:156] Memory required for data: 1050971424
I0403 16:27:11.711455 21088 layer_factory.hpp:77] Creating layer inception_4c/pool
I0403 16:27:11.711477 21088 net.cpp:91] Creating Layer inception_4c/pool
I0403 16:27:11.711493 21088 net.cpp:425] inception_4c/pool <- inception_4b/output_inception_4b/output_0_split_3
I0403 16:27:11.711509 21088 net.cpp:399] inception_4c/pool -> inception_4c/pool
I0403 16:27:11.711577 21088 net.cpp:141] Setting up inception_4c/pool
I0403 16:27:11.711601 21088 net.cpp:148] Top shape: 24 512 14 14 (2408448)
I0403 16:27:11.711616 21088 net.cpp:156] Memory required for data: 1060605216
I0403 16:27:11.711629 21088 layer_factory.hpp:77] Creating layer inception_4c/pool_proj
I0403 16:27:11.711650 21088 net.cpp:91] Creating Layer inception_4c/pool_proj
I0403 16:27:11.711668 21088 net.cpp:425] inception_4c/pool_proj <- inception_4c/pool
I0403 16:27:11.711688 21088 net.cpp:399] inception_4c/pool_proj -> inception_4c/pool_proj
I0403 16:27:11.712913 21088 net.cpp:141] Setting up inception_4c/pool_proj
I0403 16:27:11.712941 21088 net.cpp:148] Top shape: 24 64 14 14 (301056)
I0403 16:27:11.712970 21088 net.cpp:156] Memory required for data: 1061809440
I0403 16:27:11.712990 21088 layer_factory.hpp:77] Creating layer inception_4c/relu_pool_proj
I0403 16:27:11.713008 21088 net.cpp:91] Creating Layer inception_4c/relu_pool_proj
I0403 16:27:11.713029 21088 net.cpp:425] inception_4c/relu_pool_proj <- inception_4c/pool_proj
I0403 16:27:11.713049 21088 net.cpp:386] inception_4c/relu_pool_proj -> inception_4c/pool_proj (in-place)
I0403 16:27:11.713237 21088 net.cpp:141] Setting up inception_4c/relu_pool_proj
I0403 16:27:11.713260 21088 net.cpp:148] Top shape: 24 64 14 14 (301056)
I0403 16:27:11.713274 21088 net.cpp:156] Memory required for data: 1063013664
I0403 16:27:11.713289 21088 layer_factory.hpp:77] Creating layer inception_4c/output
I0403 16:27:11.713306 21088 net.cpp:91] Creating Layer inception_4c/output
I0403 16:27:11.713321 21088 net.cpp:425] inception_4c/output <- inception_4c/1x1
I0403 16:27:11.713336 21088 net.cpp:425] inception_4c/output <- inception_4c/3x3
I0403 16:27:11.713356 21088 net.cpp:425] inception_4c/output <- inception_4c/5x5
I0403 16:27:11.713371 21088 net.cpp:425] inception_4c/output <- inception_4c/pool_proj
I0403 16:27:11.713387 21088 net.cpp:399] inception_4c/output -> inception_4c/output
I0403 16:27:11.713433 21088 net.cpp:141] Setting up inception_4c/output
I0403 16:27:11.713457 21088 net.cpp:148] Top shape: 24 512 14 14 (2408448)
I0403 16:27:11.713474 21088 net.cpp:156] Memory required for data: 1072647456
I0403 16:27:11.713487 21088 layer_factory.hpp:77] Creating layer inception_4c/output_inception_4c/output_0_split
I0403 16:27:11.713505 21088 net.cpp:91] Creating Layer inception_4c/output_inception_4c/output_0_split
I0403 16:27:11.713520 21088 net.cpp:425] inception_4c/output_inception_4c/output_0_split <- inception_4c/output
I0403 16:27:11.713538 21088 net.cpp:399] inception_4c/output_inception_4c/output_0_split -> inception_4c/output_inception_4c/output_0_split_0
I0403 16:27:11.713559 21088 net.cpp:399] inception_4c/output_inception_4c/output_0_split -> inception_4c/output_inception_4c/output_0_split_1
I0403 16:27:11.713578 21088 net.cpp:399] inception_4c/output_inception_4c/output_0_split -> inception_4c/output_inception_4c/output_0_split_2
I0403 16:27:11.713598 21088 net.cpp:399] inception_4c/output_inception_4c/output_0_split -> inception_4c/output_inception_4c/output_0_split_3
I0403 16:27:11.713681 21088 net.cpp:141] Setting up inception_4c/output_inception_4c/output_0_split
I0403 16:27:11.713707 21088 net.cpp:148] Top shape: 24 512 14 14 (2408448)
I0403 16:27:11.713724 21088 net.cpp:148] Top shape: 24 512 14 14 (2408448)
I0403 16:27:11.713739 21088 net.cpp:148] Top shape: 24 512 14 14 (2408448)
I0403 16:27:11.713754 21088 net.cpp:148] Top shape: 24 512 14 14 (2408448)
I0403 16:27:11.713768 21088 net.cpp:156] Memory required for data: 1111182624
I0403 16:27:11.713783 21088 layer_factory.hpp:77] Creating layer inception_4d/1x1
I0403 16:27:11.713801 21088 net.cpp:91] Creating Layer inception_4d/1x1
I0403 16:27:11.713817 21088 net.cpp:425] inception_4d/1x1 <- inception_4c/output_inception_4c/output_0_split_0
I0403 16:27:11.713837 21088 net.cpp:399] inception_4d/1x1 -> inception_4d/1x1
I0403 16:27:11.715224 21088 net.cpp:141] Setting up inception_4d/1x1
I0403 16:27:11.715251 21088 net.cpp:148] Top shape: 24 112 14 14 (526848)
I0403 16:27:11.715270 21088 net.cpp:156] Memory required for data: 1113290016
I0403 16:27:11.715288 21088 layer_factory.hpp:77] Creating layer inception_4d/relu_1x1
I0403 16:27:11.715306 21088 net.cpp:91] Creating Layer inception_4d/relu_1x1
I0403 16:27:11.715322 21088 net.cpp:425] inception_4d/relu_1x1 <- inception_4d/1x1
I0403 16:27:11.715339 21088 net.cpp:386] inception_4d/relu_1x1 -> inception_4d/1x1 (in-place)
I0403 16:27:11.715525 21088 net.cpp:141] Setting up inception_4d/relu_1x1
I0403 16:27:11.715553 21088 net.cpp:148] Top shape: 24 112 14 14 (526848)
I0403 16:27:11.715567 21088 net.cpp:156] Memory required for data: 1115397408
I0403 16:27:11.715581 21088 layer_factory.hpp:77] Creating layer inception_4d/3x3_reduce
I0403 16:27:11.715617 21088 net.cpp:91] Creating Layer inception_4d/3x3_reduce
I0403 16:27:11.715636 21088 net.cpp:425] inception_4d/3x3_reduce <- inception_4c/output_inception_4c/output_0_split_1
I0403 16:27:11.715654 21088 net.cpp:399] inception_4d/3x3_reduce -> inception_4d/3x3_reduce
I0403 16:27:11.717170 21088 net.cpp:141] Setting up inception_4d/3x3_reduce
I0403 16:27:11.717196 21088 net.cpp:148] Top shape: 24 144 14 14 (677376)
I0403 16:27:11.717211 21088 net.cpp:156] Memory required for data: 1118106912
I0403 16:27:11.717229 21088 layer_factory.hpp:77] Creating layer inception_4d/relu_3x3_reduce
I0403 16:27:11.717249 21088 net.cpp:91] Creating Layer inception_4d/relu_3x3_reduce
I0403 16:27:11.717265 21088 net.cpp:425] inception_4d/relu_3x3_reduce <- inception_4d/3x3_reduce
I0403 16:27:11.717283 21088 net.cpp:386] inception_4d/relu_3x3_reduce -> inception_4d/3x3_reduce (in-place)
I0403 16:27:11.717573 21088 net.cpp:141] Setting up inception_4d/relu_3x3_reduce
I0403 16:27:11.717599 21088 net.cpp:148] Top shape: 24 144 14 14 (677376)
I0403 16:27:11.717614 21088 net.cpp:156] Memory required for data: 1120816416
I0403 16:27:11.717628 21088 layer_factory.hpp:77] Creating layer inception_4d/3x3
I0403 16:27:11.717653 21088 net.cpp:91] Creating Layer inception_4d/3x3
I0403 16:27:11.717669 21088 net.cpp:425] inception_4d/3x3 <- inception_4d/3x3_reduce
I0403 16:27:11.717690 21088 net.cpp:399] inception_4d/3x3 -> inception_4d/3x3
I0403 16:27:11.722108 21088 net.cpp:141] Setting up inception_4d/3x3
I0403 16:27:11.722138 21088 net.cpp:148] Top shape: 24 288 14 14 (1354752)
I0403 16:27:11.722153 21088 net.cpp:156] Memory required for data: 1126235424
I0403 16:27:11.722172 21088 layer_factory.hpp:77] Creating layer inception_4d/relu_3x3
I0403 16:27:11.722193 21088 net.cpp:91] Creating Layer inception_4d/relu_3x3
I0403 16:27:11.722210 21088 net.cpp:425] inception_4d/relu_3x3 <- inception_4d/3x3
I0403 16:27:11.722228 21088 net.cpp:386] inception_4d/relu_3x3 -> inception_4d/3x3 (in-place)
I0403 16:27:11.722416 21088 net.cpp:141] Setting up inception_4d/relu_3x3
I0403 16:27:11.722442 21088 net.cpp:148] Top shape: 24 288 14 14 (1354752)
I0403 16:27:11.722457 21088 net.cpp:156] Memory required for data: 1131654432
I0403 16:27:11.722472 21088 layer_factory.hpp:77] Creating layer inception_4d/5x5_reduce
I0403 16:27:11.722493 21088 net.cpp:91] Creating Layer inception_4d/5x5_reduce
I0403 16:27:11.722512 21088 net.cpp:425] inception_4d/5x5_reduce <- inception_4c/output_inception_4c/output_0_split_2
I0403 16:27:11.722533 21088 net.cpp:399] inception_4d/5x5_reduce -> inception_4d/5x5_reduce
I0403 16:27:11.723721 21088 net.cpp:141] Setting up inception_4d/5x5_reduce
I0403 16:27:11.723752 21088 net.cpp:148] Top shape: 24 32 14 14 (150528)
I0403 16:27:11.723768 21088 net.cpp:156] Memory required for data: 1132256544
I0403 16:27:11.723788 21088 layer_factory.hpp:77] Creating layer inception_4d/relu_5x5_reduce
I0403 16:27:11.723805 21088 net.cpp:91] Creating Layer inception_4d/relu_5x5_reduce
I0403 16:27:11.723821 21088 net.cpp:425] inception_4d/relu_5x5_reduce <- inception_4d/5x5_reduce
I0403 16:27:11.723839 21088 net.cpp:386] inception_4d/relu_5x5_reduce -> inception_4d/5x5_reduce (in-place)
I0403 16:27:11.724041 21088 net.cpp:141] Setting up inception_4d/relu_5x5_reduce
I0403 16:27:11.724069 21088 net.cpp:148] Top shape: 24 32 14 14 (150528)
I0403 16:27:11.724086 21088 net.cpp:156] Memory required for data: 1132858656
I0403 16:27:11.724100 21088 layer_factory.hpp:77] Creating layer inception_4d/5x5
I0403 16:27:11.724123 21088 net.cpp:91] Creating Layer inception_4d/5x5
I0403 16:27:11.724141 21088 net.cpp:425] inception_4d/5x5 <- inception_4d/5x5_reduce
I0403 16:27:11.724164 21088 net.cpp:399] inception_4d/5x5 -> inception_4d/5x5
I0403 16:27:11.725692 21088 net.cpp:141] Setting up inception_4d/5x5
I0403 16:27:11.725719 21088 net.cpp:148] Top shape: 24 64 14 14 (301056)
I0403 16:27:11.725735 21088 net.cpp:156] Memory required for data: 1134062880
I0403 16:27:11.725755 21088 layer_factory.hpp:77] Creating layer inception_4d/relu_5x5
I0403 16:27:11.725790 21088 net.cpp:91] Creating Layer inception_4d/relu_5x5
I0403 16:27:11.725811 21088 net.cpp:425] inception_4d/relu_5x5 <- inception_4d/5x5
I0403 16:27:11.725828 21088 net.cpp:386] inception_4d/relu_5x5 -> inception_4d/5x5 (in-place)
I0403 16:27:11.726143 21088 net.cpp:141] Setting up inception_4d/relu_5x5
I0403 16:27:11.726171 21088 net.cpp:148] Top shape: 24 64 14 14 (301056)
I0403 16:27:11.726186 21088 net.cpp:156] Memory required for data: 1135267104
I0403 16:27:11.726200 21088 layer_factory.hpp:77] Creating layer inception_4d/pool
I0403 16:27:11.726218 21088 net.cpp:91] Creating Layer inception_4d/pool
I0403 16:27:11.726235 21088 net.cpp:425] inception_4d/pool <- inception_4c/output_inception_4c/output_0_split_3
I0403 16:27:11.726255 21088 net.cpp:399] inception_4d/pool -> inception_4d/pool
I0403 16:27:11.726323 21088 net.cpp:141] Setting up inception_4d/pool
I0403 16:27:11.726351 21088 net.cpp:148] Top shape: 24 512 14 14 (2408448)
I0403 16:27:11.726366 21088 net.cpp:156] Memory required for data: 1144900896
I0403 16:27:11.726380 21088 layer_factory.hpp:77] Creating layer inception_4d/pool_proj
I0403 16:27:11.726403 21088 net.cpp:91] Creating Layer inception_4d/pool_proj
I0403 16:27:11.726421 21088 net.cpp:425] inception_4d/pool_proj <- inception_4d/pool
I0403 16:27:11.726440 21088 net.cpp:399] inception_4d/pool_proj -> inception_4d/pool_proj
I0403 16:27:11.728317 21088 net.cpp:141] Setting up inception_4d/pool_proj
I0403 16:27:11.728346 21088 net.cpp:148] Top shape: 24 64 14 14 (301056)
I0403 16:27:11.728363 21088 net.cpp:156] Memory required for data: 1146105120
I0403 16:27:11.728382 21088 layer_factory.hpp:77] Creating layer inception_4d/relu_pool_proj
I0403 16:27:11.728402 21088 net.cpp:91] Creating Layer inception_4d/relu_pool_proj
I0403 16:27:11.728420 21088 net.cpp:425] inception_4d/relu_pool_proj <- inception_4d/pool_proj
I0403 16:27:11.728438 21088 net.cpp:386] inception_4d/relu_pool_proj -> inception_4d/pool_proj (in-place)
I0403 16:27:11.728634 21088 net.cpp:141] Setting up inception_4d/relu_pool_proj
I0403 16:27:11.728659 21088 net.cpp:148] Top shape: 24 64 14 14 (301056)
I0403 16:27:11.728674 21088 net.cpp:156] Memory required for data: 1147309344
I0403 16:27:11.728689 21088 layer_factory.hpp:77] Creating layer inception_4d/output
I0403 16:27:11.728708 21088 net.cpp:91] Creating Layer inception_4d/output
I0403 16:27:11.728724 21088 net.cpp:425] inception_4d/output <- inception_4d/1x1
I0403 16:27:11.728740 21088 net.cpp:425] inception_4d/output <- inception_4d/3x3
I0403 16:27:11.728756 21088 net.cpp:425] inception_4d/output <- inception_4d/5x5
I0403 16:27:11.728772 21088 net.cpp:425] inception_4d/output <- inception_4d/pool_proj
I0403 16:27:11.728791 21088 net.cpp:399] inception_4d/output -> inception_4d/output
I0403 16:27:11.728840 21088 net.cpp:141] Setting up inception_4d/output
I0403 16:27:11.728868 21088 net.cpp:148] Top shape: 24 528 14 14 (2483712)
I0403 16:27:11.728883 21088 net.cpp:156] Memory required for data: 1157244192
I0403 16:27:11.728898 21088 layer_factory.hpp:77] Creating layer inception_4d/output_inception_4d/output_0_split
I0403 16:27:11.728915 21088 net.cpp:91] Creating Layer inception_4d/output_inception_4d/output_0_split
I0403 16:27:11.728931 21088 net.cpp:425] inception_4d/output_inception_4d/output_0_split <- inception_4d/output
I0403 16:27:11.728950 21088 net.cpp:399] inception_4d/output_inception_4d/output_0_split -> inception_4d/output_inception_4d/output_0_split_0
I0403 16:27:11.728973 21088 net.cpp:399] inception_4d/output_inception_4d/output_0_split -> inception_4d/output_inception_4d/output_0_split_1
I0403 16:27:11.728996 21088 net.cpp:399] inception_4d/output_inception_4d/output_0_split -> inception_4d/output_inception_4d/output_0_split_2
I0403 16:27:11.729020 21088 net.cpp:399] inception_4d/output_inception_4d/output_0_split -> inception_4d/output_inception_4d/output_0_split_3
I0403 16:27:11.729043 21088 net.cpp:399] inception_4d/output_inception_4d/output_0_split -> inception_4d/output_inception_4d/output_0_split_4
I0403 16:27:11.729149 21088 net.cpp:141] Setting up inception_4d/output_inception_4d/output_0_split
I0403 16:27:11.729187 21088 net.cpp:148] Top shape: 24 528 14 14 (2483712)
I0403 16:27:11.729205 21088 net.cpp:148] Top shape: 24 528 14 14 (2483712)
I0403 16:27:11.729221 21088 net.cpp:148] Top shape: 24 528 14 14 (2483712)
I0403 16:27:11.729249 21088 net.cpp:148] Top shape: 24 528 14 14 (2483712)
I0403 16:27:11.729264 21088 net.cpp:148] Top shape: 24 528 14 14 (2483712)
I0403 16:27:11.729277 21088 net.cpp:156] Memory required for data: 1206918432
I0403 16:27:11.729292 21088 layer_factory.hpp:77] Creating layer loss2/ave_pool
I0403 16:27:11.729312 21088 net.cpp:91] Creating Layer loss2/ave_pool
I0403 16:27:11.729328 21088 net.cpp:425] loss2/ave_pool <- inception_4d/output_inception_4d/output_0_split_0
I0403 16:27:11.729347 21088 net.cpp:399] loss2/ave_pool -> loss2/ave_pool
I0403 16:27:11.729661 21088 net.cpp:141] Setting up loss2/ave_pool
I0403 16:27:11.729687 21088 net.cpp:148] Top shape: 24 528 4 4 (202752)
I0403 16:27:11.729702 21088 net.cpp:156] Memory required for data: 1207729440
I0403 16:27:11.729717 21088 layer_factory.hpp:77] Creating layer loss2/conv
I0403 16:27:11.729740 21088 net.cpp:91] Creating Layer loss2/conv
I0403 16:27:11.729758 21088 net.cpp:425] loss2/conv <- loss2/ave_pool
I0403 16:27:11.729776 21088 net.cpp:399] loss2/conv -> loss2/conv
I0403 16:27:11.731675 21088 net.cpp:141] Setting up loss2/conv
I0403 16:27:11.731703 21088 net.cpp:148] Top shape: 24 128 4 4 (49152)
I0403 16:27:11.731719 21088 net.cpp:156] Memory required for data: 1207926048
I0403 16:27:11.731739 21088 layer_factory.hpp:77] Creating layer loss2/relu_conv
I0403 16:27:11.731756 21088 net.cpp:91] Creating Layer loss2/relu_conv
I0403 16:27:11.731772 21088 net.cpp:425] loss2/relu_conv <- loss2/conv
I0403 16:27:11.731791 21088 net.cpp:386] loss2/relu_conv -> loss2/conv (in-place)
I0403 16:27:11.732103 21088 net.cpp:141] Setting up loss2/relu_conv
I0403 16:27:11.732130 21088 net.cpp:148] Top shape: 24 128 4 4 (49152)
I0403 16:27:11.732146 21088 net.cpp:156] Memory required for data: 1208122656
I0403 16:27:11.732161 21088 layer_factory.hpp:77] Creating layer loss2/fc
I0403 16:27:11.732180 21088 net.cpp:91] Creating Layer loss2/fc
I0403 16:27:11.732197 21088 net.cpp:425] loss2/fc <- loss2/conv
I0403 16:27:11.732218 21088 net.cpp:399] loss2/fc -> loss2/fc
I0403 16:27:11.749423 21088 net.cpp:141] Setting up loss2/fc
I0403 16:27:11.749454 21088 net.cpp:148] Top shape: 24 1024 (24576)
I0403 16:27:11.749469 21088 net.cpp:156] Memory required for data: 1208220960
I0403 16:27:11.749486 21088 layer_factory.hpp:77] Creating layer loss2/relu_fc
I0403 16:27:11.749503 21088 net.cpp:91] Creating Layer loss2/relu_fc
I0403 16:27:11.749518 21088 net.cpp:425] loss2/relu_fc <- loss2/fc
I0403 16:27:11.749536 21088 net.cpp:386] loss2/relu_fc -> loss2/fc (in-place)
I0403 16:27:11.749825 21088 net.cpp:141] Setting up loss2/relu_fc
I0403 16:27:11.749853 21088 net.cpp:148] Top shape: 24 1024 (24576)
I0403 16:27:11.749868 21088 net.cpp:156] Memory required for data: 1208319264
I0403 16:27:11.749883 21088 layer_factory.hpp:77] Creating layer loss2/drop_fc
I0403 16:27:11.749900 21088 net.cpp:91] Creating Layer loss2/drop_fc
I0403 16:27:11.749915 21088 net.cpp:425] loss2/drop_fc <- loss2/fc
I0403 16:27:11.749933 21088 net.cpp:386] loss2/drop_fc -> loss2/fc (in-place)
I0403 16:27:11.749981 21088 net.cpp:141] Setting up loss2/drop_fc
I0403 16:27:11.750005 21088 net.cpp:148] Top shape: 24 1024 (24576)
I0403 16:27:11.750021 21088 net.cpp:156] Memory required for data: 1208417568
I0403 16:27:11.750037 21088 layer_factory.hpp:77] Creating layer loss2/classifier_plantvillage
I0403 16:27:11.750056 21088 net.cpp:91] Creating Layer loss2/classifier_plantvillage
I0403 16:27:11.750072 21088 net.cpp:425] loss2/classifier_plantvillage <- loss2/fc
I0403 16:27:11.750090 21088 net.cpp:399] loss2/classifier_plantvillage -> loss2/classifier_plantvillage
I0403 16:27:11.750478 21088 net.cpp:141] Setting up loss2/classifier_plantvillage
I0403 16:27:11.750504 21088 net.cpp:148] Top shape: 24 38 (912)
I0403 16:27:11.750533 21088 net.cpp:156] Memory required for data: 1208421216
I0403 16:27:11.750552 21088 layer_factory.hpp:77] Creating layer loss2/classifier_plantvillage_loss2/classifier_plantvillage_0_split
I0403 16:27:11.750569 21088 net.cpp:91] Creating Layer loss2/classifier_plantvillage_loss2/classifier_plantvillage_0_split
I0403 16:27:11.750584 21088 net.cpp:425] loss2/classifier_plantvillage_loss2/classifier_plantvillage_0_split <- loss2/classifier_plantvillage
I0403 16:27:11.750603 21088 net.cpp:399] loss2/classifier_plantvillage_loss2/classifier_plantvillage_0_split -> loss2/classifier_plantvillage_loss2/classifier_plantvillage_0_split_0
I0403 16:27:11.750623 21088 net.cpp:399] loss2/classifier_plantvillage_loss2/classifier_plantvillage_0_split -> loss2/classifier_plantvillage_loss2/classifier_plantvillage_0_split_1
I0403 16:27:11.750643 21088 net.cpp:399] loss2/classifier_plantvillage_loss2/classifier_plantvillage_0_split -> loss2/classifier_plantvillage_loss2/classifier_plantvillage_0_split_2
I0403 16:27:11.750718 21088 net.cpp:141] Setting up loss2/classifier_plantvillage_loss2/classifier_plantvillage_0_split
I0403 16:27:11.750741 21088 net.cpp:148] Top shape: 24 38 (912)
I0403 16:27:11.750756 21088 net.cpp:148] Top shape: 24 38 (912)
I0403 16:27:11.750771 21088 net.cpp:148] Top shape: 24 38 (912)
I0403 16:27:11.750784 21088 net.cpp:156] Memory required for data: 1208432160
I0403 16:27:11.750798 21088 layer_factory.hpp:77] Creating layer inception_4e/1x1
I0403 16:27:11.750819 21088 net.cpp:91] Creating Layer inception_4e/1x1
I0403 16:27:11.750836 21088 net.cpp:425] inception_4e/1x1 <- inception_4d/output_inception_4d/output_0_split_1
I0403 16:27:11.750855 21088 net.cpp:399] inception_4e/1x1 -> inception_4e/1x1
I0403 16:27:11.752626 21088 net.cpp:141] Setting up inception_4e/1x1
I0403 16:27:11.752653 21088 net.cpp:148] Top shape: 24 256 14 14 (1204224)
I0403 16:27:11.752668 21088 net.cpp:156] Memory required for data: 1213249056
I0403 16:27:11.752686 21088 layer_factory.hpp:77] Creating layer inception_4e/relu_1x1
I0403 16:27:11.752704 21088 net.cpp:91] Creating Layer inception_4e/relu_1x1
I0403 16:27:11.752722 21088 net.cpp:425] inception_4e/relu_1x1 <- inception_4e/1x1
I0403 16:27:11.752738 21088 net.cpp:386] inception_4e/relu_1x1 -> inception_4e/1x1 (in-place)
I0403 16:27:11.753029 21088 net.cpp:141] Setting up inception_4e/relu_1x1
I0403 16:27:11.753054 21088 net.cpp:148] Top shape: 24 256 14 14 (1204224)
I0403 16:27:11.753068 21088 net.cpp:156] Memory required for data: 1218065952
I0403 16:27:11.753083 21088 layer_factory.hpp:77] Creating layer inception_4e/3x3_reduce
I0403 16:27:11.753104 21088 net.cpp:91] Creating Layer inception_4e/3x3_reduce
I0403 16:27:11.753121 21088 net.cpp:425] inception_4e/3x3_reduce <- inception_4d/output_inception_4d/output_0_split_2
I0403 16:27:11.753141 21088 net.cpp:399] inception_4e/3x3_reduce -> inception_4e/3x3_reduce
I0403 16:27:11.755213 21088 net.cpp:141] Setting up inception_4e/3x3_reduce
I0403 16:27:11.755239 21088 net.cpp:148] Top shape: 24 160 14 14 (752640)
I0403 16:27:11.755254 21088 net.cpp:156] Memory required for data: 1221076512
I0403 16:27:11.755272 21088 layer_factory.hpp:77] Creating layer inception_4e/relu_3x3_reduce
I0403 16:27:11.755290 21088 net.cpp:91] Creating Layer inception_4e/relu_3x3_reduce
I0403 16:27:11.755305 21088 net.cpp:425] inception_4e/relu_3x3_reduce <- inception_4e/3x3_reduce
I0403 16:27:11.755322 21088 net.cpp:386] inception_4e/relu_3x3_reduce -> inception_4e/3x3_reduce (in-place)
I0403 16:27:11.755504 21088 net.cpp:141] Setting up inception_4e/relu_3x3_reduce
I0403 16:27:11.755527 21088 net.cpp:148] Top shape: 24 160 14 14 (752640)
I0403 16:27:11.755542 21088 net.cpp:156] Memory required for data: 1224087072
I0403 16:27:11.755556 21088 layer_factory.hpp:77] Creating layer inception_4e/3x3
I0403 16:27:11.755576 21088 net.cpp:91] Creating Layer inception_4e/3x3
I0403 16:27:11.755592 21088 net.cpp:425] inception_4e/3x3 <- inception_4e/3x3_reduce
I0403 16:27:11.755612 21088 net.cpp:399] inception_4e/3x3 -> inception_4e/3x3
I0403 16:27:11.760483 21088 net.cpp:141] Setting up inception_4e/3x3
I0403 16:27:11.760522 21088 net.cpp:148] Top shape: 24 320 14 14 (1505280)
I0403 16:27:11.760538 21088 net.cpp:156] Memory required for data: 1230108192
I0403 16:27:11.760556 21088 layer_factory.hpp:77] Creating layer inception_4e/relu_3x3
I0403 16:27:11.760576 21088 net.cpp:91] Creating Layer inception_4e/relu_3x3
I0403 16:27:11.760591 21088 net.cpp:425] inception_4e/relu_3x3 <- inception_4e/3x3
I0403 16:27:11.760608 21088 net.cpp:386] inception_4e/relu_3x3 -> inception_4e/3x3 (in-place)
I0403 16:27:11.760905 21088 net.cpp:141] Setting up inception_4e/relu_3x3
I0403 16:27:11.760932 21088 net.cpp:148] Top shape: 24 320 14 14 (1505280)
I0403 16:27:11.760947 21088 net.cpp:156] Memory required for data: 1236129312
I0403 16:27:11.760964 21088 layer_factory.hpp:77] Creating layer inception_4e/5x5_reduce
I0403 16:27:11.760983 21088 net.cpp:91] Creating Layer inception_4e/5x5_reduce
I0403 16:27:11.760999 21088 net.cpp:425] inception_4e/5x5_reduce <- inception_4d/output_inception_4d/output_0_split_3
I0403 16:27:11.761024 21088 net.cpp:399] inception_4e/5x5_reduce -> inception_4e/5x5_reduce
I0403 16:27:11.762076 21088 net.cpp:141] Setting up inception_4e/5x5_reduce
I0403 16:27:11.762102 21088 net.cpp:148] Top shape: 24 32 14 14 (150528)
I0403 16:27:11.762117 21088 net.cpp:156] Memory required for data: 1236731424
I0403 16:27:11.762135 21088 layer_factory.hpp:77] Creating layer inception_4e/relu_5x5_reduce
I0403 16:27:11.762152 21088 net.cpp:91] Creating Layer inception_4e/relu_5x5_reduce
I0403 16:27:11.762171 21088 net.cpp:425] inception_4e/relu_5x5_reduce <- inception_4e/5x5_reduce
I0403 16:27:11.762187 21088 net.cpp:386] inception_4e/relu_5x5_reduce -> inception_4e/5x5_reduce (in-place)
I0403 16:27:11.762486 21088 net.cpp:141] Setting up inception_4e/relu_5x5_reduce
I0403 16:27:11.762511 21088 net.cpp:148] Top shape: 24 32 14 14 (150528)
I0403 16:27:11.762526 21088 net.cpp:156] Memory required for data: 1237333536
I0403 16:27:11.762540 21088 layer_factory.hpp:77] Creating layer inception_4e/5x5
I0403 16:27:11.762578 21088 net.cpp:91] Creating Layer inception_4e/5x5
I0403 16:27:11.762598 21088 net.cpp:425] inception_4e/5x5 <- inception_4e/5x5_reduce
I0403 16:27:11.762616 21088 net.cpp:399] inception_4e/5x5 -> inception_4e/5x5
I0403 16:27:11.764432 21088 net.cpp:141] Setting up inception_4e/5x5
I0403 16:27:11.764461 21088 net.cpp:148] Top shape: 24 128 14 14 (602112)
I0403 16:27:11.764477 21088 net.cpp:156] Memory required for data: 1239741984
I0403 16:27:11.764494 21088 layer_factory.hpp:77] Creating layer inception_4e/relu_5x5
I0403 16:27:11.764513 21088 net.cpp:91] Creating Layer inception_4e/relu_5x5
I0403 16:27:11.764528 21088 net.cpp:425] inception_4e/relu_5x5 <- inception_4e/5x5
I0403 16:27:11.764546 21088 net.cpp:386] inception_4e/relu_5x5 -> inception_4e/5x5 (in-place)
I0403 16:27:11.764739 21088 net.cpp:141] Setting up inception_4e/relu_5x5
I0403 16:27:11.764765 21088 net.cpp:148] Top shape: 24 128 14 14 (602112)
I0403 16:27:11.764778 21088 net.cpp:156] Memory required for data: 1242150432
I0403 16:27:11.764792 21088 layer_factory.hpp:77] Creating layer inception_4e/pool
I0403 16:27:11.764811 21088 net.cpp:91] Creating Layer inception_4e/pool
I0403 16:27:11.764824 21088 net.cpp:425] inception_4e/pool <- inception_4d/output_inception_4d/output_0_split_4
I0403 16:27:11.764844 21088 net.cpp:399] inception_4e/pool -> inception_4e/pool
I0403 16:27:11.764912 21088 net.cpp:141] Setting up inception_4e/pool
I0403 16:27:11.764935 21088 net.cpp:148] Top shape: 24 528 14 14 (2483712)
I0403 16:27:11.764950 21088 net.cpp:156] Memory required for data: 1252085280
I0403 16:27:11.764966 21088 layer_factory.hpp:77] Creating layer inception_4e/pool_proj
I0403 16:27:11.764989 21088 net.cpp:91] Creating Layer inception_4e/pool_proj
I0403 16:27:11.765007 21088 net.cpp:425] inception_4e/pool_proj <- inception_4e/pool
I0403 16:27:11.765028 21088 net.cpp:399] inception_4e/pool_proj -> inception_4e/pool_proj
I0403 16:27:11.766501 21088 net.cpp:141] Setting up inception_4e/pool_proj
I0403 16:27:11.766541 21088 net.cpp:148] Top shape: 24 128 14 14 (602112)
I0403 16:27:11.766558 21088 net.cpp:156] Memory required for data: 1254493728
I0403 16:27:11.766576 21088 layer_factory.hpp:77] Creating layer inception_4e/relu_pool_proj
I0403 16:27:11.766592 21088 net.cpp:91] Creating Layer inception_4e/relu_pool_proj
I0403 16:27:11.766608 21088 net.cpp:425] inception_4e/relu_pool_proj <- inception_4e/pool_proj
I0403 16:27:11.766628 21088 net.cpp:386] inception_4e/relu_pool_proj -> inception_4e/pool_proj (in-place)
I0403 16:27:11.766913 21088 net.cpp:141] Setting up inception_4e/relu_pool_proj
I0403 16:27:11.766942 21088 net.cpp:148] Top shape: 24 128 14 14 (602112)
I0403 16:27:11.766957 21088 net.cpp:156] Memory required for data: 1256902176
I0403 16:27:11.766971 21088 layer_factory.hpp:77] Creating layer inception_4e/output
I0403 16:27:11.766988 21088 net.cpp:91] Creating Layer inception_4e/output
I0403 16:27:11.767002 21088 net.cpp:425] inception_4e/output <- inception_4e/1x1
I0403 16:27:11.767024 21088 net.cpp:425] inception_4e/output <- inception_4e/3x3
I0403 16:27:11.767040 21088 net.cpp:425] inception_4e/output <- inception_4e/5x5
I0403 16:27:11.767055 21088 net.cpp:425] inception_4e/output <- inception_4e/pool_proj
I0403 16:27:11.767072 21088 net.cpp:399] inception_4e/output -> inception_4e/output
I0403 16:27:11.767122 21088 net.cpp:141] Setting up inception_4e/output
I0403 16:27:11.767144 21088 net.cpp:148] Top shape: 24 832 14 14 (3913728)
I0403 16:27:11.767158 21088 net.cpp:156] Memory required for data: 1272557088
I0403 16:27:11.767173 21088 layer_factory.hpp:77] Creating layer pool4/3x3_s2
I0403 16:27:11.767191 21088 net.cpp:91] Creating Layer pool4/3x3_s2
I0403 16:27:11.767209 21088 net.cpp:425] pool4/3x3_s2 <- inception_4e/output
I0403 16:27:11.767225 21088 net.cpp:399] pool4/3x3_s2 -> pool4/3x3_s2
I0403 16:27:11.767292 21088 net.cpp:141] Setting up pool4/3x3_s2
I0403 16:27:11.767314 21088 net.cpp:148] Top shape: 24 832 7 7 (978432)
I0403 16:27:11.767328 21088 net.cpp:156] Memory required for data: 1276470816
I0403 16:27:11.767343 21088 layer_factory.hpp:77] Creating layer pool4/3x3_s2_pool4/3x3_s2_0_split
I0403 16:27:11.767359 21088 net.cpp:91] Creating Layer pool4/3x3_s2_pool4/3x3_s2_0_split
I0403 16:27:11.767374 21088 net.cpp:425] pool4/3x3_s2_pool4/3x3_s2_0_split <- pool4/3x3_s2
I0403 16:27:11.767392 21088 net.cpp:399] pool4/3x3_s2_pool4/3x3_s2_0_split -> pool4/3x3_s2_pool4/3x3_s2_0_split_0
I0403 16:27:11.767412 21088 net.cpp:399] pool4/3x3_s2_pool4/3x3_s2_0_split -> pool4/3x3_s2_pool4/3x3_s2_0_split_1
I0403 16:27:11.767431 21088 net.cpp:399] pool4/3x3_s2_pool4/3x3_s2_0_split -> pool4/3x3_s2_pool4/3x3_s2_0_split_2
I0403 16:27:11.767451 21088 net.cpp:399] pool4/3x3_s2_pool4/3x3_s2_0_split -> pool4/3x3_s2_pool4/3x3_s2_0_split_3
I0403 16:27:11.767536 21088 net.cpp:141] Setting up pool4/3x3_s2_pool4/3x3_s2_0_split
I0403 16:27:11.767561 21088 net.cpp:148] Top shape: 24 832 7 7 (978432)
I0403 16:27:11.767577 21088 net.cpp:148] Top shape: 24 832 7 7 (978432)
I0403 16:27:11.767592 21088 net.cpp:148] Top shape: 24 832 7 7 (978432)
I0403 16:27:11.767607 21088 net.cpp:148] Top shape: 24 832 7 7 (978432)
I0403 16:27:11.767621 21088 net.cpp:156] Memory required for data: 1292125728
I0403 16:27:11.767635 21088 layer_factory.hpp:77] Creating layer inception_5a/1x1
I0403 16:27:11.767655 21088 net.cpp:91] Creating Layer inception_5a/1x1
I0403 16:27:11.767673 21088 net.cpp:425] inception_5a/1x1 <- pool4/3x3_s2_pool4/3x3_s2_0_split_0
I0403 16:27:11.767690 21088 net.cpp:399] inception_5a/1x1 -> inception_5a/1x1
I0403 16:27:11.770506 21088 net.cpp:141] Setting up inception_5a/1x1
I0403 16:27:11.770535 21088 net.cpp:148] Top shape: 24 256 7 7 (301056)
I0403 16:27:11.770551 21088 net.cpp:156] Memory required for data: 1293329952
I0403 16:27:11.770568 21088 layer_factory.hpp:77] Creating layer inception_5a/relu_1x1
I0403 16:27:11.770586 21088 net.cpp:91] Creating Layer inception_5a/relu_1x1
I0403 16:27:11.770601 21088 net.cpp:425] inception_5a/relu_1x1 <- inception_5a/1x1
I0403 16:27:11.770619 21088 net.cpp:386] inception_5a/relu_1x1 -> inception_5a/1x1 (in-place)
I0403 16:27:11.770926 21088 net.cpp:141] Setting up inception_5a/relu_1x1
I0403 16:27:11.770951 21088 net.cpp:148] Top shape: 24 256 7 7 (301056)
I0403 16:27:11.770967 21088 net.cpp:156] Memory required for data: 1294534176
I0403 16:27:11.770982 21088 layer_factory.hpp:77] Creating layer inception_5a/3x3_reduce
I0403 16:27:11.771003 21088 net.cpp:91] Creating Layer inception_5a/3x3_reduce
I0403 16:27:11.771024 21088 net.cpp:425] inception_5a/3x3_reduce <- pool4/3x3_s2_pool4/3x3_s2_0_split_1
I0403 16:27:11.771047 21088 net.cpp:399] inception_5a/3x3_reduce -> inception_5a/3x3_reduce
I0403 16:27:11.773495 21088 net.cpp:141] Setting up inception_5a/3x3_reduce
I0403 16:27:11.773524 21088 net.cpp:148] Top shape: 24 160 7 7 (188160)
I0403 16:27:11.773540 21088 net.cpp:156] Memory required for data: 1295286816
I0403 16:27:11.773561 21088 layer_factory.hpp:77] Creating layer inception_5a/relu_3x3_reduce
I0403 16:27:11.773581 21088 net.cpp:91] Creating Layer inception_5a/relu_3x3_reduce
I0403 16:27:11.773597 21088 net.cpp:425] inception_5a/relu_3x3_reduce <- inception_5a/3x3_reduce
I0403 16:27:11.773614 21088 net.cpp:386] inception_5a/relu_3x3_reduce -> inception_5a/3x3_reduce (in-place)
I0403 16:27:11.773803 21088 net.cpp:141] Setting up inception_5a/relu_3x3_reduce
I0403 16:27:11.773829 21088 net.cpp:148] Top shape: 24 160 7 7 (188160)
I0403 16:27:11.773844 21088 net.cpp:156] Memory required for data: 1296039456
I0403 16:27:11.773859 21088 layer_factory.hpp:77] Creating layer inception_5a/3x3
I0403 16:27:11.773881 21088 net.cpp:91] Creating Layer inception_5a/3x3
I0403 16:27:11.773900 21088 net.cpp:425] inception_5a/3x3 <- inception_5a/3x3_reduce
I0403 16:27:11.773921 21088 net.cpp:399] inception_5a/3x3 -> inception_5a/3x3
I0403 16:27:11.779194 21088 net.cpp:141] Setting up inception_5a/3x3
I0403 16:27:11.779228 21088 net.cpp:148] Top shape: 24 320 7 7 (376320)
I0403 16:27:11.779245 21088 net.cpp:156] Memory required for data: 1297544736
I0403 16:27:11.779264 21088 layer_factory.hpp:77] Creating layer inception_5a/relu_3x3
I0403 16:27:11.779284 21088 net.cpp:91] Creating Layer inception_5a/relu_3x3
I0403 16:27:11.779299 21088 net.cpp:425] inception_5a/relu_3x3 <- inception_5a/3x3
I0403 16:27:11.779320 21088 net.cpp:386] inception_5a/relu_3x3 -> inception_5a/3x3 (in-place)
I0403 16:27:11.779629 21088 net.cpp:141] Setting up inception_5a/relu_3x3
I0403 16:27:11.779659 21088 net.cpp:148] Top shape: 24 320 7 7 (376320)
I0403 16:27:11.779675 21088 net.cpp:156] Memory required for data: 1299050016
I0403 16:27:11.779690 21088 layer_factory.hpp:77] Creating layer inception_5a/5x5_reduce
I0403 16:27:11.779712 21088 net.cpp:91] Creating Layer inception_5a/5x5_reduce
I0403 16:27:11.779731 21088 net.cpp:425] inception_5a/5x5_reduce <- pool4/3x3_s2_pool4/3x3_s2_0_split_2
I0403 16:27:11.779750 21088 net.cpp:399] inception_5a/5x5_reduce -> inception_5a/5x5_reduce
I0403 16:27:11.780983 21088 net.cpp:141] Setting up inception_5a/5x5_reduce
I0403 16:27:11.781014 21088 net.cpp:148] Top shape: 24 32 7 7 (37632)
I0403 16:27:11.781035 21088 net.cpp:156] Memory required for data: 1299200544
I0403 16:27:11.781054 21088 layer_factory.hpp:77] Creating layer inception_5a/relu_5x5_reduce
I0403 16:27:11.781075 21088 net.cpp:91] Creating Layer inception_5a/relu_5x5_reduce
I0403 16:27:11.781090 21088 net.cpp:425] inception_5a/relu_5x5_reduce <- inception_5a/5x5_reduce
I0403 16:27:11.781111 21088 net.cpp:386] inception_5a/relu_5x5_reduce -> inception_5a/5x5_reduce (in-place)
I0403 16:27:11.781422 21088 net.cpp:141] Setting up inception_5a/relu_5x5_reduce
I0403 16:27:11.781450 21088 net.cpp:148] Top shape: 24 32 7 7 (37632)
I0403 16:27:11.781464 21088 net.cpp:156] Memory required for data: 1299351072
I0403 16:27:11.781481 21088 layer_factory.hpp:77] Creating layer inception_5a/5x5
I0403 16:27:11.781502 21088 net.cpp:91] Creating Layer inception_5a/5x5
I0403 16:27:11.781520 21088 net.cpp:425] inception_5a/5x5 <- inception_5a/5x5_reduce
I0403 16:27:11.781543 21088 net.cpp:399] inception_5a/5x5 -> inception_5a/5x5
I0403 16:27:11.783371 21088 net.cpp:141] Setting up inception_5a/5x5
I0403 16:27:11.783416 21088 net.cpp:148] Top shape: 24 128 7 7 (150528)
I0403 16:27:11.783432 21088 net.cpp:156] Memory required for data: 1299953184
I0403 16:27:11.783452 21088 layer_factory.hpp:77] Creating layer inception_5a/relu_5x5
I0403 16:27:11.783469 21088 net.cpp:91] Creating Layer inception_5a/relu_5x5
I0403 16:27:11.783486 21088 net.cpp:425] inception_5a/relu_5x5 <- inception_5a/5x5
I0403 16:27:11.783505 21088 net.cpp:386] inception_5a/relu_5x5 -> inception_5a/5x5 (in-place)
I0403 16:27:11.783706 21088 net.cpp:141] Setting up inception_5a/relu_5x5
I0403 16:27:11.783732 21088 net.cpp:148] Top shape: 24 128 7 7 (150528)
I0403 16:27:11.783747 21088 net.cpp:156] Memory required for data: 1300555296
I0403 16:27:11.783762 21088 layer_factory.hpp:77] Creating layer inception_5a/pool
I0403 16:27:11.783779 21088 net.cpp:91] Creating Layer inception_5a/pool
I0403 16:27:11.783795 21088 net.cpp:425] inception_5a/pool <- pool4/3x3_s2_pool4/3x3_s2_0_split_3
I0403 16:27:11.783817 21088 net.cpp:399] inception_5a/pool -> inception_5a/pool
I0403 16:27:11.783890 21088 net.cpp:141] Setting up inception_5a/pool
I0403 16:27:11.783915 21088 net.cpp:148] Top shape: 24 832 7 7 (978432)
I0403 16:27:11.783928 21088 net.cpp:156] Memory required for data: 1304469024
I0403 16:27:11.783943 21088 layer_factory.hpp:77] Creating layer inception_5a/pool_proj
I0403 16:27:11.783969 21088 net.cpp:91] Creating Layer inception_5a/pool_proj
I0403 16:27:11.783987 21088 net.cpp:425] inception_5a/pool_proj <- inception_5a/pool
I0403 16:27:11.784006 21088 net.cpp:399] inception_5a/pool_proj -> inception_5a/pool_proj
I0403 16:27:11.786382 21088 net.cpp:141] Setting up inception_5a/pool_proj
I0403 16:27:11.786417 21088 net.cpp:148] Top shape: 24 128 7 7 (150528)
I0403 16:27:11.786433 21088 net.cpp:156] Memory required for data: 1305071136
I0403 16:27:11.786451 21088 layer_factory.hpp:77] Creating layer inception_5a/relu_pool_proj
I0403 16:27:11.786470 21088 net.cpp:91] Creating Layer inception_5a/relu_pool_proj
I0403 16:27:11.786486 21088 net.cpp:425] inception_5a/relu_pool_proj <- inception_5a/pool_proj
I0403 16:27:11.786504 21088 net.cpp:386] inception_5a/relu_pool_proj -> inception_5a/pool_proj (in-place)
I0403 16:27:11.786809 21088 net.cpp:141] Setting up inception_5a/relu_pool_proj
I0403 16:27:11.786839 21088 net.cpp:148] Top shape: 24 128 7 7 (150528)
I0403 16:27:11.786854 21088 net.cpp:156] Memory required for data: 1305673248
I0403 16:27:11.786870 21088 layer_factory.hpp:77] Creating layer inception_5a/output
I0403 16:27:11.786887 21088 net.cpp:91] Creating Layer inception_5a/output
I0403 16:27:11.786902 21088 net.cpp:425] inception_5a/output <- inception_5a/1x1
I0403 16:27:11.786919 21088 net.cpp:425] inception_5a/output <- inception_5a/3x3
I0403 16:27:11.786936 21088 net.cpp:425] inception_5a/output <- inception_5a/5x5
I0403 16:27:11.786952 21088 net.cpp:425] inception_5a/output <- inception_5a/pool_proj
I0403 16:27:11.786970 21088 net.cpp:399] inception_5a/output -> inception_5a/output
I0403 16:27:11.787029 21088 net.cpp:141] Setting up inception_5a/output
I0403 16:27:11.787053 21088 net.cpp:148] Top shape: 24 832 7 7 (978432)
I0403 16:27:11.787068 21088 net.cpp:156] Memory required for data: 1309586976
I0403 16:27:11.787083 21088 layer_factory.hpp:77] Creating layer inception_5a/output_inception_5a/output_0_split
I0403 16:27:11.787102 21088 net.cpp:91] Creating Layer inception_5a/output_inception_5a/output_0_split
I0403 16:27:11.787119 21088 net.cpp:425] inception_5a/output_inception_5a/output_0_split <- inception_5a/output
I0403 16:27:11.787137 21088 net.cpp:399] inception_5a/output_inception_5a/output_0_split -> inception_5a/output_inception_5a/output_0_split_0
I0403 16:27:11.787158 21088 net.cpp:399] inception_5a/output_inception_5a/output_0_split -> inception_5a/output_inception_5a/output_0_split_1
I0403 16:27:11.787178 21088 net.cpp:399] inception_5a/output_inception_5a/output_0_split -> inception_5a/output_inception_5a/output_0_split_2
I0403 16:27:11.787199 21088 net.cpp:399] inception_5a/output_inception_5a/output_0_split -> inception_5a/output_inception_5a/output_0_split_3
I0403 16:27:11.787317 21088 net.cpp:141] Setting up inception_5a/output_inception_5a/output_0_split
I0403 16:27:11.787341 21088 net.cpp:148] Top shape: 24 832 7 7 (978432)
I0403 16:27:11.787358 21088 net.cpp:148] Top shape: 24 832 7 7 (978432)
I0403 16:27:11.787374 21088 net.cpp:148] Top shape: 24 832 7 7 (978432)
I0403 16:27:11.787389 21088 net.cpp:148] Top shape: 24 832 7 7 (978432)
I0403 16:27:11.787403 21088 net.cpp:156] Memory required for data: 1325241888
I0403 16:27:11.787418 21088 layer_factory.hpp:77] Creating layer inception_5b/1x1
I0403 16:27:11.787441 21088 net.cpp:91] Creating Layer inception_5b/1x1
I0403 16:27:11.787459 21088 net.cpp:425] inception_5b/1x1 <- inception_5a/output_inception_5a/output_0_split_0
I0403 16:27:11.787480 21088 net.cpp:399] inception_5b/1x1 -> inception_5b/1x1
I0403 16:27:11.791409 21088 net.cpp:141] Setting up inception_5b/1x1
I0403 16:27:11.791440 21088 net.cpp:148] Top shape: 24 384 7 7 (451584)
I0403 16:27:11.791455 21088 net.cpp:156] Memory required for data: 1327048224
I0403 16:27:11.791474 21088 layer_factory.hpp:77] Creating layer inception_5b/relu_1x1
I0403 16:27:11.791496 21088 net.cpp:91] Creating Layer inception_5b/relu_1x1
I0403 16:27:11.791512 21088 net.cpp:425] inception_5b/relu_1x1 <- inception_5b/1x1
I0403 16:27:11.791532 21088 net.cpp:386] inception_5b/relu_1x1 -> inception_5b/1x1 (in-place)
I0403 16:27:11.791851 21088 net.cpp:141] Setting up inception_5b/relu_1x1
I0403 16:27:11.791878 21088 net.cpp:148] Top shape: 24 384 7 7 (451584)
I0403 16:27:11.791893 21088 net.cpp:156] Memory required for data: 1328854560
I0403 16:27:11.791909 21088 layer_factory.hpp:77] Creating layer inception_5b/3x3_reduce
I0403 16:27:11.791942 21088 net.cpp:91] Creating Layer inception_5b/3x3_reduce
I0403 16:27:11.791963 21088 net.cpp:425] inception_5b/3x3_reduce <- inception_5a/output_inception_5a/output_0_split_1
I0403 16:27:11.791982 21088 net.cpp:399] inception_5b/3x3_reduce -> inception_5b/3x3_reduce
I0403 16:27:11.794718 21088 net.cpp:141] Setting up inception_5b/3x3_reduce
I0403 16:27:11.794749 21088 net.cpp:148] Top shape: 24 192 7 7 (225792)
I0403 16:27:11.794765 21088 net.cpp:156] Memory required for data: 1329757728
I0403 16:27:11.794785 21088 layer_factory.hpp:77] Creating layer inception_5b/relu_3x3_reduce
I0403 16:27:11.794802 21088 net.cpp:91] Creating Layer inception_5b/relu_3x3_reduce
I0403 16:27:11.794818 21088 net.cpp:425] inception_5b/relu_3x3_reduce <- inception_5b/3x3_reduce
I0403 16:27:11.794836 21088 net.cpp:386] inception_5b/relu_3x3_reduce -> inception_5b/3x3_reduce (in-place)
I0403 16:27:11.795032 21088 net.cpp:141] Setting up inception_5b/relu_3x3_reduce
I0403 16:27:11.795059 21088 net.cpp:148] Top shape: 24 192 7 7 (225792)
I0403 16:27:11.795075 21088 net.cpp:156] Memory required for data: 1330660896
I0403 16:27:11.795089 21088 layer_factory.hpp:77] Creating layer inception_5b/3x3
I0403 16:27:11.795111 21088 net.cpp:91] Creating Layer inception_5b/3x3
I0403 16:27:11.795130 21088 net.cpp:425] inception_5b/3x3 <- inception_5b/3x3_reduce
I0403 16:27:11.795151 21088 net.cpp:399] inception_5b/3x3 -> inception_5b/3x3
I0403 16:27:11.801897 21088 net.cpp:141] Setting up inception_5b/3x3
I0403 16:27:11.801928 21088 net.cpp:148] Top shape: 24 384 7 7 (451584)
I0403 16:27:11.801944 21088 net.cpp:156] Memory required for data: 1332467232
I0403 16:27:11.801964 21088 layer_factory.hpp:77] Creating layer inception_5b/relu_3x3
I0403 16:27:11.801982 21088 net.cpp:91] Creating Layer inception_5b/relu_3x3
I0403 16:27:11.801998 21088 net.cpp:425] inception_5b/relu_3x3 <- inception_5b/3x3
I0403 16:27:11.802016 21088 net.cpp:386] inception_5b/relu_3x3 -> inception_5b/3x3 (in-place)
I0403 16:27:11.802333 21088 net.cpp:141] Setting up inception_5b/relu_3x3
I0403 16:27:11.802361 21088 net.cpp:148] Top shape: 24 384 7 7 (451584)
I0403 16:27:11.802377 21088 net.cpp:156] Memory required for data: 1334273568
I0403 16:27:11.802392 21088 layer_factory.hpp:77] Creating layer inception_5b/5x5_reduce
I0403 16:27:11.802433 21088 net.cpp:91] Creating Layer inception_5b/5x5_reduce
I0403 16:27:11.802451 21088 net.cpp:425] inception_5b/5x5_reduce <- inception_5a/output_inception_5a/output_0_split_2
I0403 16:27:11.802471 21088 net.cpp:399] inception_5b/5x5_reduce -> inception_5b/5x5_reduce
I0403 16:27:11.803757 21088 net.cpp:141] Setting up inception_5b/5x5_reduce
I0403 16:27:11.803786 21088 net.cpp:148] Top shape: 24 48 7 7 (56448)
I0403 16:27:11.803800 21088 net.cpp:156] Memory required for data: 1334499360
I0403 16:27:11.803822 21088 layer_factory.hpp:77] Creating layer inception_5b/relu_5x5_reduce
I0403 16:27:11.803839 21088 net.cpp:91] Creating Layer inception_5b/relu_5x5_reduce
I0403 16:27:11.803855 21088 net.cpp:425] inception_5b/relu_5x5_reduce <- inception_5b/5x5_reduce
I0403 16:27:11.803872 21088 net.cpp:386] inception_5b/relu_5x5_reduce -> inception_5b/5x5_reduce (in-place)
I0403 16:27:11.804253 21088 net.cpp:141] Setting up inception_5b/relu_5x5_reduce
I0403 16:27:11.804280 21088 net.cpp:148] Top shape: 24 48 7 7 (56448)
I0403 16:27:11.804294 21088 net.cpp:156] Memory required for data: 1334725152
I0403 16:27:11.804309 21088 layer_factory.hpp:77] Creating layer inception_5b/5x5
I0403 16:27:11.804329 21088 net.cpp:91] Creating Layer inception_5b/5x5
I0403 16:27:11.804347 21088 net.cpp:425] inception_5b/5x5 <- inception_5b/5x5_reduce
I0403 16:27:11.804364 21088 net.cpp:399] inception_5b/5x5 -> inception_5b/5x5
I0403 16:27:11.806449 21088 net.cpp:141] Setting up inception_5b/5x5
I0403 16:27:11.806478 21088 net.cpp:148] Top shape: 24 128 7 7 (150528)
I0403 16:27:11.806493 21088 net.cpp:156] Memory required for data: 1335327264
I0403 16:27:11.806510 21088 layer_factory.hpp:77] Creating layer inception_5b/relu_5x5
I0403 16:27:11.806529 21088 net.cpp:91] Creating Layer inception_5b/relu_5x5
I0403 16:27:11.806545 21088 net.cpp:425] inception_5b/relu_5x5 <- inception_5b/5x5
I0403 16:27:11.806565 21088 net.cpp:386] inception_5b/relu_5x5 -> inception_5b/5x5 (in-place)
I0403 16:27:11.806762 21088 net.cpp:141] Setting up inception_5b/relu_5x5
I0403 16:27:11.806787 21088 net.cpp:148] Top shape: 24 128 7 7 (150528)
I0403 16:27:11.806802 21088 net.cpp:156] Memory required for data: 1335929376
I0403 16:27:11.806816 21088 layer_factory.hpp:77] Creating layer inception_5b/pool
I0403 16:27:11.806836 21088 net.cpp:91] Creating Layer inception_5b/pool
I0403 16:27:11.806854 21088 net.cpp:425] inception_5b/pool <- inception_5a/output_inception_5a/output_0_split_3
I0403 16:27:11.806872 21088 net.cpp:399] inception_5b/pool -> inception_5b/pool
I0403 16:27:11.806946 21088 net.cpp:141] Setting up inception_5b/pool
I0403 16:27:11.806973 21088 net.cpp:148] Top shape: 24 832 7 7 (978432)
I0403 16:27:11.806988 21088 net.cpp:156] Memory required for data: 1339843104
I0403 16:27:11.807003 21088 layer_factory.hpp:77] Creating layer inception_5b/pool_proj
I0403 16:27:11.807027 21088 net.cpp:91] Creating Layer inception_5b/pool_proj
I0403 16:27:11.807049 21088 net.cpp:425] inception_5b/pool_proj <- inception_5b/pool
I0403 16:27:11.807070 21088 net.cpp:399] inception_5b/pool_proj -> inception_5b/pool_proj
I0403 16:27:11.809397 21088 net.cpp:141] Setting up inception_5b/pool_proj
I0403 16:27:11.809433 21088 net.cpp:148] Top shape: 24 128 7 7 (150528)
I0403 16:27:11.809454 21088 net.cpp:156] Memory required for data: 1340445216
I0403 16:27:11.809476 21088 layer_factory.hpp:77] Creating layer inception_5b/relu_pool_proj
I0403 16:27:11.809496 21088 net.cpp:91] Creating Layer inception_5b/relu_pool_proj
I0403 16:27:11.809520 21088 net.cpp:425] inception_5b/relu_pool_proj <- inception_5b/pool_proj
I0403 16:27:11.809545 21088 net.cpp:386] inception_5b/relu_pool_proj -> inception_5b/pool_proj (in-place)
I0403 16:27:11.809859 21088 net.cpp:141] Setting up inception_5b/relu_pool_proj
I0403 16:27:11.809888 21088 net.cpp:148] Top shape: 24 128 7 7 (150528)
I0403 16:27:11.809903 21088 net.cpp:156] Memory required for data: 1341047328
I0403 16:27:11.809918 21088 layer_factory.hpp:77] Creating layer inception_5b/output
I0403 16:27:11.809937 21088 net.cpp:91] Creating Layer inception_5b/output
I0403 16:27:11.809968 21088 net.cpp:425] inception_5b/output <- inception_5b/1x1
I0403 16:27:11.809986 21088 net.cpp:425] inception_5b/output <- inception_5b/3x3
I0403 16:27:11.810003 21088 net.cpp:425] inception_5b/output <- inception_5b/5x5
I0403 16:27:11.810022 21088 net.cpp:425] inception_5b/output <- inception_5b/pool_proj
I0403 16:27:11.810044 21088 net.cpp:399] inception_5b/output -> inception_5b/output
I0403 16:27:11.810099 21088 net.cpp:141] Setting up inception_5b/output
I0403 16:27:11.810123 21088 net.cpp:148] Top shape: 24 1024 7 7 (1204224)
I0403 16:27:11.810138 21088 net.cpp:156] Memory required for data: 1345864224
I0403 16:27:11.810153 21088 layer_factory.hpp:77] Creating layer pool5/7x7_s1
I0403 16:27:11.810173 21088 net.cpp:91] Creating Layer pool5/7x7_s1
I0403 16:27:11.810190 21088 net.cpp:425] pool5/7x7_s1 <- inception_5b/output
I0403 16:27:11.810209 21088 net.cpp:399] pool5/7x7_s1 -> pool5/7x7_s1
I0403 16:27:11.810427 21088 net.cpp:141] Setting up pool5/7x7_s1
I0403 16:27:11.810456 21088 net.cpp:148] Top shape: 24 1024 1 1 (24576)
I0403 16:27:11.810472 21088 net.cpp:156] Memory required for data: 1345962528
I0403 16:27:11.810485 21088 layer_factory.hpp:77] Creating layer pool5/drop_7x7_s1
I0403 16:27:11.810503 21088 net.cpp:91] Creating Layer pool5/drop_7x7_s1
I0403 16:27:11.810518 21088 net.cpp:425] pool5/drop_7x7_s1 <- pool5/7x7_s1
I0403 16:27:11.810539 21088 net.cpp:386] pool5/drop_7x7_s1 -> pool5/7x7_s1 (in-place)
I0403 16:27:11.810590 21088 net.cpp:141] Setting up pool5/drop_7x7_s1
I0403 16:27:11.810612 21088 net.cpp:148] Top shape: 24 1024 1 1 (24576)
I0403 16:27:11.810626 21088 net.cpp:156] Memory required for data: 1346060832
I0403 16:27:11.810641 21088 layer_factory.hpp:77] Creating layer loss3/classifier_plantvillage
I0403 16:27:11.810662 21088 net.cpp:91] Creating Layer loss3/classifier_plantvillage
I0403 16:27:11.810679 21088 net.cpp:425] loss3/classifier_plantvillage <- pool5/7x7_s1
I0403 16:27:11.810700 21088 net.cpp:399] loss3/classifier_plantvillage -> loss3/classifier_plantvillage
I0403 16:27:11.811136 21088 net.cpp:141] Setting up loss3/classifier_plantvillage
I0403 16:27:11.811161 21088 net.cpp:148] Top shape: 24 38 (912)
I0403 16:27:11.811177 21088 net.cpp:156] Memory required for data: 1346064480
I0403 16:27:11.811194 21088 layer_factory.hpp:77] Creating layer loss3/classifier_plantvillage_loss3/classifier_plantvillage_0_split
I0403 16:27:11.811216 21088 net.cpp:91] Creating Layer loss3/classifier_plantvillage_loss3/classifier_plantvillage_0_split
I0403 16:27:11.811233 21088 net.cpp:425] loss3/classifier_plantvillage_loss3/classifier_plantvillage_0_split <- loss3/classifier_plantvillage
I0403 16:27:11.811250 21088 net.cpp:399] loss3/classifier_plantvillage_loss3/classifier_plantvillage_0_split -> loss3/classifier_plantvillage_loss3/classifier_plantvillage_0_split_0
I0403 16:27:11.811269 21088 net.cpp:399] loss3/classifier_plantvillage_loss3/classifier_plantvillage_0_split -> loss3/classifier_plantvillage_loss3/classifier_plantvillage_0_split_1
I0403 16:27:11.811290 21088 net.cpp:399] loss3/classifier_plantvillage_loss3/classifier_plantvillage_0_split -> loss3/classifier_plantvillage_loss3/classifier_plantvillage_0_split_2
I0403 16:27:11.811308 21088 net.cpp:399] loss3/classifier_plantvillage_loss3/classifier_plantvillage_0_split -> loss3/classifier_plantvillage_loss3/classifier_plantvillage_0_split_3
I0403 16:27:11.811413 21088 net.cpp:141] Setting up loss3/classifier_plantvillage_loss3/classifier_plantvillage_0_split
I0403 16:27:11.811435 21088 net.cpp:148] Top shape: 24 38 (912)
I0403 16:27:11.811451 21088 net.cpp:148] Top shape: 24 38 (912)
I0403 16:27:11.811466 21088 net.cpp:148] Top shape: 24 38 (912)
I0403 16:27:11.811481 21088 net.cpp:148] Top shape: 24 38 (912)
I0403 16:27:11.811494 21088 net.cpp:156] Memory required for data: 1346079072
I0403 16:27:11.811509 21088 layer_factory.hpp:77] Creating layer loss1/loss
I0403 16:27:11.811532 21088 net.cpp:91] Creating Layer loss1/loss
I0403 16:27:11.811549 21088 net.cpp:425] loss1/loss <- loss1/classifier_plantvillage_loss1/classifier_plantvillage_0_split_0
I0403 16:27:11.811580 21088 net.cpp:425] loss1/loss <- label_data_1_split_0
…
