…
I0403 15:45:47.116560 20246 net.cpp:313] The NetState phase (1) differed from the phase (0) specified by a rule in layer data
I0403 15:45:47.117799 20246 net.cpp:49] Initializing net from parameters: 
state {
  phase: TEST
}
layer {
  name: "data"
  type: "Data"
  top: "data"
  top: "label"
  include {
    phase: TEST
  }
  transform_param {
    mirror: false
    crop_size: 224
    mean_file: "/home/mohanty/data/final_dataset/lmdb/grayscale-20-80/mean.binaryproto"
  }
  data_param {
    source: "/home/mohanty/data/final_dataset/lmdb/grayscale-20-80/test_db"
    batch_size: 24
    backend: LMDB
  }
}
layer {
  name: "conv1/7x7_s2"
  type: "Convolution"
  bottom: "data"
  top: "conv1/7x7_s2"
  param {
    lr_mult: 1
    decay_mult: 1
  }
  param {
    lr_mult: 2
    decay_mult: 0
  }
  convolution_param {
    num_output: 64
    pad: 3
    kernel_size: 7
    stride: 2
    weight_filler {
      type: "xavier"
      std: 0.1
    }
    bias_filler {
      type: "constant"
      value: 0.2
    }
  }
}
layer {
  name: "conv1/relu_7x7"
  type: "ReLU"
  bottom: "conv1/7x7_s2"
  top: "conv1/7x7_s2"
}
layer {
  name: "pool1/3x3_s2"
  type: "Pooling"
  bottom: "conv1/7x7_s2"
  top: "pool1/3x3_s2"
  pooling_param {
    pool: MAX
    kernel_size: 3
    stride: 2
  }
}
layer {
  name: "pool1/norm1"
  type: "LRN"
  bottom: "pool1/3x3_s2"
  top: "pool1/norm1"
  lrn_param {
    local_size: 5
    alpha: 0.0001
    beta: 0.75
  }
}
layer {
  name: "conv2/3x3_reduce"
  type: "Convolution"
  bottom: "pool1/norm1"
  top: "conv2/3x3_reduce"
  param {
    lr_mult: 1
    decay_mult: 1
  }
  param {
    lr_mult: 2
    decay_mult: 0
  }
  convolution_param {
    num_output: 64
    kernel_size: 1
    weight_filler {
      type: "xavier"
      std: 0.1
    }
    bias_filler {
      type: "constant"
      value: 0.2
    }
  }
}
layer {
  name: "conv2/relu_3x3_reduce"
  type: "ReLU"
  bottom: "conv2/3x3_reduce"
  top: "conv2/3x3_reduce"
}
layer {
  name: "conv2/3x3"
  type: "Convolution"
  bottom: "conv2/3x3_reduce"
  top: "conv2/3x3"
  param {
    lr_mult: 1
    decay_mult: 1
  }
  param {
    lr_mult: 2
    decay_mult: 0
  }
  convolution_param {
    num_output: 192
    pad: 1
    kernel_size: 3
    weight_filler {
      type: "xavier"
      std: 0.03
    }
    bias_filler {
      type: "constant"
      value: 0.2
    }
  }
}
layer {
  name: "conv2/relu_3x3"
  type: "ReLU"
  bottom: "conv2/3x3"
  top: "conv2/3x3"
}
layer {
  name: "conv2/norm2"
  type: "LRN"
  bottom: "conv2/3x3"
  top: "conv2/norm2"
  lrn_param {
    local_size: 5
    alpha: 0.0001
    beta: 0.75
  }
}
layer {
  name: "pool2/3x3_s2"
  type: "Pooling"
  bottom: "conv2/norm2"
  top: "pool2/3x3_s2"
  pooling_param {
    pool: MAX
    kernel_size: 3
    stride: 2
  }
}
layer {
  name: "inception_3a/1x1"
  type: "Convolution"
  bottom: "pool2/3x3_s2"
  top: "inception_3a/1x1"
  param {
    lr_mult: 1
    decay_mult: 1
  }
  param {
    lr_mult: 2
    decay_mult: 0
  }
  convolution_param {
    num_output: 64
    kernel_size: 1
    weight_filler {
      type: "xavier"
      std: 0.03
    }
    bias_filler {
      type: "constant"
      value: 0.2
    }
  }
}
layer {
  name: "inception_3a/relu_1x1"
  type: "ReLU"
  bottom: "inception_3a/1x1"
  top: "inception_3a/1x1"
}
layer {
  name: "inception_3a/3x3_reduce"
  type: "Convolution"
  bottom: "pool2/3x3_s2"
  top: "inception_3a/3x3_reduce"
  param {
    lr_mult: 1
    decay_mult: 1
  }
  param {
    lr_mult: 2
    decay_mult: 0
  }
  convolution_param {
    num_output: 96
    kernel_size: 1
    weight_filler {
      type: "xavier"
      std: 0.09
    }
    bias_filler {
      type: "constant"
      value: 0.2
    }
  }
}
layer {
  name: "inception_3a/relu_3x3_reduce"
  type: "ReLU"
  bottom: "inception_3a/3x3_reduce"
  top: "inception_3a/3x3_reduce"
}
layer {
  name: "inception_3a/3x3"
  type: "Convolution"
  bottom: "inception_3a/3x3_reduce"
  top: "inception_3a/3x3"
  param {
    lr_mult: 1
    decay_mult: 1
  }
  param {
    lr_mult: 2
    decay_mult: 0
  }
  convolution_param {
    num_output: 128
    pad: 1
    kernel_size: 3
    weight_filler {
      type: "xavier"
      std: 0.03
    }
    bias_filler {
      type: "constant"
      value: 0.2
    }
  }
}
layer {
  name: "inception_3a/relu_3x3"
  type: "ReLU"
  bottom: "inception_3a/3x3"
  top: "inception_3a/3x3"
}
layer {
  name: "inception_3a/5x5_reduce"
  type: "Convolution"
  bottom: "pool2/3x3_s2"
  top: "inception_3a/5x5_reduce"
  param {
    lr_mult: 1
    decay_mult: 1
  }
  param {
    lr_mult: 2
    decay_mult: 0
  }
  convolution_param {
    num_output: 16
    kernel_size: 1
    weight_filler {
      type: "xavier"
      std: 0.2
    }
    bias_filler {
      type: "constant"
      value: 0.2
    }
  }
}
layer {
  name: "inception_3a/relu_5x5_reduce"
  type: "ReLU"
  bottom: "inception_3a/5x5_reduce"
  top: "inception_3a/5x5_reduce"
}
layer {
  name: "inception_3a/5x5"
  type: "Convolution"
  bottom: "inception_3a/5x5_reduce"
  top: "inception_3a/5x5"
  param {
    lr_mult: 1
    decay_mult: 1
  }
  param {
    lr_mult: 2
    decay_mult: 0
  }
  convolution_param {
    num_output: 32
    pad: 2
    kernel_size: 5
    weight_filler {
      type: "xavier"
      std: 0.03
    }
    bias_filler {
      type: "constant"
      value: 0.2
    }
  }
}
layer {
  name: "inception_3a/relu_5x5"
  type: "ReLU"
  bottom: "inception_3a/5x5"
  top: "inception_3a/5x5"
}
layer {
  name: "inception_3a/pool"
  type: "Pooling"
  bottom: "pool2/3x3_s2"
  top: "inception_3a/pool"
  pooling_param {
    pool: MAX
    kernel_size: 3
    stride: 1
    pad: 1
  }
}
layer {
  name: "inception_3a/pool_proj"
  type: "Convolution"
  bottom: "inception_3a/pool"
  top: "inception_3a/pool_proj"
  param {
    lr_mult: 1
    decay_mult: 1
  }
  param {
    lr_mult: 2
    decay_mult: 0
  }
  convolution_param {
    num_output: 32
    kernel_size: 1
    weight_filler {
      type: "xavier"
      std: 0.1
    }
    bias_filler {
      type: "constant"
      value: 0.2
    }
  }
}
layer {
  name: "inception_3a/relu_pool_proj"
  type: "ReLU"
  bottom: "inception_3a/pool_proj"
  top: "inception_3a/pool_proj"
}
layer {
  name: "inception_3a/output"
  type: "Concat"
  bottom: "inception_3a/1x1"
  bottom: "inception_3a/3x3"
  bottom: "inception_3a/5x5"
  bottom: "inception_3a/pool_proj"
  top: "inception_3a/output"
}
layer {
  name: "inception_3b/1x1"
  type: "Convolution"
  bottom: "inception_3a/output"
  top: "inception_3b/1x1"
  param {
    lr_mult: 1
    decay_mult: 1
  }
  param {
    lr_mult: 2
    decay_mult: 0
  }
  convolution_param {
    num_output: 128
    kernel_size: 1
    weight_filler {
      type: "xavier"
      std: 0.03
    }
    bias_filler {
      type: "constant"
      value: 0.2
    }
  }
}
layer {
  name: "inception_3b/relu_1x1"
  type: "ReLU"
  bottom: "inception_3b/1x1"
  top: "inception_3b/1x1"
}
layer {
  name: "inception_3b/3x3_reduce"
  type: "Convolution"
  bottom: "inception_3a/output"
  top: "inception_3b/3x3_reduce"
  param {
    lr_mult: 1
    decay_mult: 1
  }
  param {
    lr_mult: 2
    decay_mult: 0
  }
  convolution_param {
    num_output: 128
    kernel_size: 1
    weight_filler {
      type: "xavier"
      std: 0.09
    }
    bias_filler {
      type: "constant"
      value: 0.2
    }
  }
}
layer {
  name: "inception_3b/relu_3x3_reduce"
  type: "ReLU"
  bottom: "inception_3b/3x3_reduce"
  top: "inception_3b/3x3_reduce"
}
layer {
  name: "inception_3b/3x3"
  type: "Convolution"
  bottom: "inception_3b/3x3_reduce"
  top: "inception_3b/3x3"
  param {
    lr_mult: 1
    decay_mult: 1
  }
  param {
    lr_mult: 2
    decay_mult: 0
  }
  convolution_param {
    num_output: 192
    pad: 1
    kernel_size: 3
    weight_filler {
      type: "xavier"
      std: 0.03
    }
    bias_filler {
      type: "constant"
      value: 0.2
    }
  }
}
layer {
  name: "inception_3b/relu_3x3"
  type: "ReLU"
  bottom: "inception_3b/3x3"
  top: "inception_3b/3x3"
}
layer {
  name: "inception_3b/5x5_reduce"
  type: "Convolution"
  bottom: "inception_3a/output"
  top: "inception_3b/5x5_reduce"
  param {
    lr_mult: 1
    decay_mult: 1
  }
  param {
    lr_mult: 2
    decay_mult: 0
  }
  convolution_param {
    num_output: 32
    kernel_size: 1
    weight_filler {
      type: "xavier"
      std: 0.2
    }
    bias_filler {
      type: "constant"
      value: 0.2
    }
  }
}
layer {
  name: "inception_3b/relu_5x5_reduce"
  type: "ReLU"
  bottom: "inception_3b/5x5_reduce"
  top: "inception_3b/5x5_reduce"
}
layer {
  name: "inception_3b/5x5"
  type: "Convolution"
  bottom: "inception_3b/5x5_reduce"
  top: "inception_3b/5x5"
  param {
    lr_mult: 1
    decay_mult: 1
  }
  param {
    lr_mult: 2
    decay_mult: 0
  }
  convolution_param {
    num_output: 96
    pad: 2
    kernel_size: 5
    weight_filler {
      type: "xavier"
      std: 0.03
    }
    bias_filler {
      type: "constant"
      value: 0.2
    }
  }
}
layer {
  name: "inception_3b/relu_5x5"
  type: "ReLU"
  bottom: "inception_3b/5x5"
  top: "inception_3b/5x5"
}
layer {
  name: "inception_3b/pool"
  type: "Pooling"
  bottom: "inception_3a/output"
  top: "inception_3b/pool"
  pooling_param {
    pool: MAX
    kernel_size: 3
    stride: 1
    pad: 1
  }
}
layer {
  name: "inception_3b/pool_proj"
  type: "Convolution"
  bottom: "inception_3b/pool"
  top: "inception_3b/pool_proj"
  param {
    lr_mult: 1
    decay_mult: 1
  }
  param {
    lr_mult: 2
    decay_mult: 0
  }
  convolution_param {
    num_output: 64
    kernel_size: 1
    weight_filler {
      type: "xavier"
      std: 0.1
    }
    bias_filler {
      type: "constant"
      value: 0.2
    }
  }
}
layer {
  name: "inception_3b/relu_pool_proj"
  type: "ReLU"
  bottom: "inception_3b/pool_proj"
  top: "inception_3b/pool_proj"
}
layer {
  name: "inception_3b/output"
  type: "Concat"
  bottom: "inception_3b/1x1"
  bottom: "inception_3b/3x3"
  bottom: "inception_3b/5x5"
  bottom: "inception_3b/pool_proj"
  top: "inception_3b/output"
}
layer {
  name: "pool3/3x3_s2"
  type: "Pooling"
  bottom: "inception_3b/output"
  top: "pool3/3x3_s2"
  pooling_param {
    pool: MAX
    kernel_size: 3
    stride: 2
  }
}
layer {
  name: "inception_4a/1x1"
  type: "Convolution"
  bottom: "pool3/3x3_s2"
  top: "inception_4a/1x1"
  param {
    lr_mult: 1
    decay_mult: 1
  }
  param {
    lr_mult: 2
    decay_mult: 0
  }
  convolution_param {
    num_output: 192
    kernel_size: 1
    weight_filler {
      type: "xavier"
      std: 0.03
    }
    bias_filler {
      type: "constant"
      value: 0.2
    }
  }
}
layer {
  name: "inception_4a/relu_1x1"
  type: "ReLU"
  bottom: "inception_4a/1x1"
  top: "inception_4a/1x1"
}
layer {
  name: "inception_4a/3x3_reduce"
  type: "Convolution"
  bottom: "pool3/3x3_s2"
  top: "inception_4a/3x3_reduce"
  param {
    lr_mult: 1
    decay_mult: 1
  }
  param {
    lr_mult: 2
    decay_mult: 0
  }
  convolution_param {
    num_output: 96
    kernel_size: 1
    weight_filler {
      type: "xavier"
      std: 0.09
    }
    bias_filler {
      type: "constant"
      value: 0.2
    }
  }
}
layer {
  name: "inception_4a/relu_3x3_reduce"
  type: "ReLU"
  bottom: "inception_4a/3x3_reduce"
  top: "inception_4a/3x3_reduce"
}
layer {
  name: "inception_4a/3x3"
  type: "Convolution"
  bottom: "inception_4a/3x3_reduce"
  top: "inception_4a/3x3"
  param {
    lr_mult: 1
    decay_mult: 1
  }
  param {
    lr_mult: 2
    decay_mult: 0
  }
  convolution_param {
    num_output: 208
    pad: 1
    kernel_size: 3
    weight_filler {
      type: "xavier"
      std: 0.03
    }
    bias_filler {
      type: "constant"
      value: 0.2
    }
  }
}
layer {
  name: "inception_4a/relu_3x3"
  type: "ReLU"
  bottom: "inception_4a/3x3"
  top: "inception_4a/3x3"
}
layer {
  name: "inception_4a/5x5_reduce"
  type: "Convolution"
  bottom: "pool3/3x3_s2"
  top: "inception_4a/5x5_reduce"
  param {
    lr_mult: 1
    decay_mult: 1
  }
  param {
    lr_mult: 2
    decay_mult: 0
  }
  convolution_param {
    num_output: 16
    kernel_size: 1
    weight_filler {
      type: "xavier"
      std: 0.2
    }
    bias_filler {
      type: "constant"
      value: 0.2
    }
  }
}
layer {
  name: "inception_4a/relu_5x5_reduce"
  type: "ReLU"
  bottom: "inception_4a/5x5_reduce"
  top: "inception_4a/5x5_reduce"
}
layer {
  name: "inception_4a/5x5"
  type: "Convolution"
  bottom: "inception_4a/5x5_reduce"
  top: "inception_4a/5x5"
  param {
    lr_mult: 1
    decay_mult: 1
  }
  param {
    lr_mult: 2
    decay_mult: 0
  }
  convolution_param {
    num_output: 48
    pad: 2
    kernel_size: 5
    weight_filler {
      type: "xavier"
      std: 0.03
    }
    bias_filler {
      type: "constant"
      value: 0.2
    }
  }
}
layer {
  name: "inception_4a/relu_5x5"
  type: "ReLU"
  bottom: "inception_4a/5x5"
  top: "inception_4a/5x5"
}
layer {
  name: "inception_4a/pool"
  type: "Pooling"
  bottom: "pool3/3x3_s2"
  top: "inception_4a/pool"
  pooling_param {
    pool: MAX
    kernel_size: 3
    stride: 1
    pad: 1
  }
}
layer {
  name: "inception_4a/pool_proj"
  type: "Convolution"
  bottom: "inception_4a/pool"
  top: "inception_4a/pool_proj"
  param {
    lr_mult: 1
    decay_mult: 1
  }
  param {
    lr_mult: 2
    decay_mult: 0
  }
  convolution_param {
    num_output: 64
    kernel_size: 1
    weight_filler {
      type: "xavier"
      std: 0.1
    }
    bias_filler {
      type: "constant"
      value: 0.2
    }
  }
}
layer {
  name: "inception_4a/relu_pool_proj"
  type: "ReLU"
  bottom: "inception_4a/pool_proj"
  top: "inception_4a/pool_proj"
}
layer {
  name: "inception_4a/output"
  type: "Concat"
  bottom: "inception_4a/1x1"
  bottom: "inception_4a/3x3"
  bottom: "inception_4a/5x5"
  bottom: "inception_4a/pool_proj"
  top: "inception_4a/output"
}
layer {
  name: "loss1/ave_pool"
  type: "Pooling"
  bottom: "inception_4a/output"
  top: "loss1/ave_pool"
  pooling_param {
    pool: AVE
    kernel_size: 5
    stride: 3
  }
}
layer {
  name: "loss1/conv"
  type: "Convolution"
  bottom: "loss1/ave_pool"
  top: "loss1/conv"
  param {
    lr_mult: 1
    decay_mult: 1
  }
  param {
    lr_mult: 2
    decay_mult: 0
  }
  convolution_param {
    num_output: 128
    kernel_size: 1
    weight_filler {
      type: "xavier"
      std: 0.08
    }
    bias_filler {
      type: "constant"
      value: 0.2
    }
  }
}
layer {
  name: "loss1/relu_conv"
  type: "ReLU"
  bottom: "loss1/conv"
  top: "loss1/conv"
}
layer {
  name: "loss1/fc"
  type: "InnerProduct"
  bottom: "loss1/conv"
  top: "loss1/fc"
  param {
    lr_mult: 1
    decay_mult: 1
  }
  param {
    lr_mult: 2
    decay_mult: 0
  }
  inner_product_param {
    num_output: 1024
    weight_filler {
      type: "xavier"
      std: 0.02
    }
    bias_filler {
      type: "constant"
      value: 0.2
    }
  }
}
layer {
  name: "loss1/relu_fc"
  type: "ReLU"
  bottom: "loss1/fc"
  top: "loss1/fc"
}
layer {
  name: "loss1/drop_fc"
  type: "Dropout"
  bottom: "loss1/fc"
  top: "loss1/fc"
  dropout_param {
    dropout_ratio: 0.7
  }
}
layer {
  name: "loss1/classifier_plantvillage"
  type: "InnerProduct"
  bottom: "loss1/fc"
  top: "loss1/classifier_plantvillage"
  param {
    lr_mult: 1
    decay_mult: 1
  }
  param {
    lr_mult: 2
    decay_mult: 0
  }
  inner_product_param {
    num_output: 38
    weight_filler {
      type: "xavier"
      std: 0.0009765625
    }
    bias_filler {
      type: "constant"
      value: 0
    }
  }
}
layer {
  name: "inception_4b/1x1"
  type: "Convolution"
  bottom: "inception_4a/output"
  top: "inception_4b/1x1"
  param {
    lr_mult: 1
    decay_mult: 1
  }
  param {
    lr_mult: 2
    decay_mult: 0
  }
  convolution_param {
    num_output: 160
    kernel_size: 1
    weight_filler {
      type: "xavier"
      std: 0.03
    }
    bias_filler {
      type: "constant"
      value: 0.2
    }
  }
}
layer {
  name: "inception_4b/relu_1x1"
  type: "ReLU"
  bottom: "inception_4b/1x1"
  top: "inception_4b/1x1"
}
layer {
  name: "inception_4b/3x3_reduce"
  type: "Convolution"
  bottom: "inception_4a/output"
  top: "inception_4b/3x3_reduce"
  param {
    lr_mult: 1
    decay_mult: 1
  }
  param {
    lr_mult: 2
    decay_mult: 0
  }
  convolution_param {
    num_output: 112
    kernel_size: 1
    weight_filler {
      type: "xavier"
      std: 0.09
    }
    bias_filler {
      type: "constant"
      value: 0.2
    }
  }
}
layer {
  name: "inception_4b/relu_3x3_reduce"
  type: "ReLU"
  bottom: "inception_4b/3x3_reduce"
  top: "inception_4b/3x3_reduce"
}
layer {
  name: "inception_4b/3x3"
  type: "Convolution"
  bottom: "inception_4b/3x3_reduce"
  top: "inception_4b/3x3"
  param {
    lr_mult: 1
    decay_mult: 1
  }
  param {
    lr_mult: 2
    decay_mult: 0
  }
  convolution_param {
    num_output: 224
    pad: 1
    kernel_size: 3
    weight_filler {
      type: "xavier"
      std: 0.03
    }
    bias_filler {
      type: "constant"
      value: 0.2
    }
  }
}
layer {
  name: "inception_4b/relu_3x3"
  type: "ReLU"
  bottom: "inception_4b/3x3"
  top: "inception_4b/3x3"
}
layer {
  name: "inception_4b/5x5_reduce"
  type: "Convolution"
  bottom: "inception_4a/output"
  top: "inception_4b/5x5_reduce"
  param {
    lr_mult: 1
    decay_mult: 1
  }
  param {
    lr_mult: 2
    decay_mult: 0
  }
  convolution_param {
    num_output: 24
    kernel_size: 1
    weight_filler {
      type: "xavier"
      std: 0.2
    }
    bias_filler {
      type: "constant"
      value: 0.2
    }
  }
}
layer {
  name: "inception_4b/relu_5x5_reduce"
  type: "ReLU"
  bottom: "inception_4b/5x5_reduce"
  top: "inception_4b/5x5_reduce"
}
layer {
  name: "inception_4b/5x5"
  type: "Convolution"
  bottom: "inception_4b/5x5_reduce"
  top: "inception_4b/5x5"
  param {
    lr_mult: 1
    decay_mult: 1
  }
  param {
    lr_mult: 2
    decay_mult: 0
  }
  convolution_param {
    num_output: 64
    pad: 2
    kernel_size: 5
    weight_filler {
      type: "xavier"
      std: 0.03
    }
    bias_filler {
      type: "constant"
      value: 0.2
    }
  }
}
layer {
  name: "inception_4b/relu_5x5"
  type: "ReLU"
  bottom: "inception_4b/5x5"
  top: "inception_4b/5x5"
}
layer {
  name: "inception_4b/pool"
  type: "Pooling"
  bottom: "inception_4a/output"
  top: "inception_4b/pool"
  pooling_param {
    pool: MAX
    kernel_size: 3
    stride: 1
    pad: 1
  }
}
layer {
  name: "inception_4b/pool_proj"
  type: "Convolution"
  bottom: "inception_4b/pool"
  top: "inception_4b/pool_proj"
  param {
    lr_mult: 1
    decay_mult: 1
  }
  param {
    lr_mult: 2
    decay_mult: 0
  }
  convolution_param {
    num_output: 64
    kernel_size: 1
    weight_filler {
      type: "xavier"
      std: 0.1
    }
    bias_filler {
      type: "constant"
      value: 0.2
    }
  }
}
layer {
  name: "inception_4b/relu_pool_proj"
  type: "ReLU"
  bottom: "inception_4b/pool_proj"
  top: "inception_4b/pool_proj"
}
layer {
  name: "inception_4b/output"
  type: "Concat"
  bottom: "inception_4b/1x1"
  bottom: "inception_4b/3x3"
  bottom: "inception_4b/5x5"
  bottom: "inception_4b/pool_proj"
  top: "inception_4b/output"
}
layer {
  name: "inception_4c/1x1"
  type: "Convolution"
  bottom: "inception_4b/output"
  top: "inception_4c/1x1"
  param {
    lr_mult: 1
    decay_mult: 1
  }
  param {
    lr_mult: 2
    decay_mult: 0
  }
  convolution_param {
    num_output: 128
    kernel_size: 1
    weight_filler {
      type: "xavier"
      std: 0.03
    }
    bias_filler {
      type: "constant"
      value: 0.2
    }
  }
}
layer {
  name: "inception_4c/relu_1x1"
  type: "ReLU"
  bottom: "inception_4c/1x1"
  top: "inception_4c/1x1"
}
layer {
  name: "inception_4c/3x3_reduce"
  type: "Convolution"
  bottom: "inception_4b/output"
  top: "inception_4c/3x3_reduce"
  param {
    lr_mult: 1
    decay_mult: 1
  }
  param {
    lr_mult: 2
    decay_mult: 0
  }
  convolution_param {
    num_output: 128
    kernel_size: 1
    weight_filler {
      type: "xavier"
      std: 0.09
    }
    bias_filler {
      type: "constant"
      value: 0.2
    }
  }
}
layer {
  name: "inception_4c/relu_3x3_reduce"
  type: "ReLU"
  bottom: "inception_4c/3x3_reduce"
  top: "inception_4c/3x3_reduce"
}
layer {
  name: "inception_4c/3x3"
  type: "Convolution"
  bottom: "inception_4c/3x3_reduce"
  top: "inception_4c/3x3"
  param {
    lr_mult: 1
    decay_mult: 1
  }
  param {
    lr_mult: 2
    decay_mult: 0
  }
  convolution_param {
    num_output: 256
    pad: 1
    kernel_size: 3
    weight_filler {
      type: "xavier"
      std: 0.03
    }
    bias_filler {
      type: "constant"
      value: 0.2
    }
  }
}
layer {
  name: "inception_4c/relu_3x3"
  type: "ReLU"
  bottom: "inception_4c/3x3"
  top: "inception_4c/3x3"
}
layer {
  name: "inception_4c/5x5_reduce"
  type: "Convolution"
  bottom: "inception_4b/output"
  top: "inception_4c/5x5_reduce"
  param {
    lr_mult: 1
    decay_mult: 1
  }
  param {
    lr_mult: 2
    decay_mult: 0
  }
  convolution_param {
    num_output: 24
    kernel_size: 1
    weight_filler {
      type: "xavier"
      std: 0.2
    }
    bias_filler {
      type: "constant"
      value: 0.2
    }
  }
}
layer {
  name: "inception_4c/relu_5x5_reduce"
  type: "ReLU"
  bottom: "inception_4c/5x5_reduce"
  top: "inception_4c/5x5_reduce"
}
layer {
  name: "inception_4c/5x5"
  type: "Convolution"
  bottom: "inception_4c/5x5_reduce"
  top: "inception_4c/5x5"
  param {
    lr_mult: 1
    decay_mult: 1
  }
  param {
    lr_mult: 2
    decay_mult: 0
  }
  convolution_param {
    num_output: 64
    pad: 2
    kernel_size: 5
    weight_filler {
      type: "xavier"
      std: 0.03
    }
    bias_filler {
      type: "constant"
      value: 0.2
    }
  }
}
layer {
  name: "inception_4c/relu_5x5"
  type: "ReLU"
  bottom: "inception_4c/5x5"
  top: "inception_4c/5x5"
}
layer {
  name: "inception_4c/pool"
  type: "Pooling"
  bottom: "inception_4b/output"
  top: "inception_4c/pool"
  pooling_param {
    pool: MAX
    kernel_size: 3
    stride: 1
    pad: 1
  }
}
layer {
  name: "inception_4c/pool_proj"
  type: "Convolution"
  bottom: "inception_4c/pool"
  top: "inception_4c/pool_proj"
  param {
    lr_mult: 1
    decay_mult: 1
  }
  param {
    lr_mult: 2
    decay_mult: 0
  }
  convolution_param {
    num_output: 64
    kernel_size: 1
    weight_filler {
      type: "xavier"
      std: 0.1
    }
    bias_filler {
      type: "constant"
      value: 0.2
    }
  }
}
layer {
  name: "inception_4c/relu_pool_proj"
  type: "ReLU"
  bottom: "inception_4c/pool_proj"
  top: "inception_4c/pool_proj"
}
layer {
  name: "inception_4c/output"
  type: "Concat"
  bottom: "inception_4c/1x1"
  bottom: "inception_4c/3x3"
  bottom: "inception_4c/5x5"
  bottom: "inception_4c/pool_proj"
  top: "inception_4c/output"
}
layer {
  name: "inception_4d/1x1"
  type: "Convolution"
  bottom: "inception_4c/output"
  top: "inception_4d/1x1"
  param {
    lr_mult: 1
    decay_mult: 1
  }
  param {
    lr_mult: 2
    decay_mult: 0
  }
  convolution_param {
    num_output: 112
    kernel_size: 1
    weight_filler {
      type: "xavier"
      std: 0.03
    }
    bias_filler {
      type: "constant"
      value: 0.2
    }
  }
}
layer {
  name: "inception_4d/relu_1x1"
  type: "ReLU"
  bottom: "inception_4d/1x1"
  top: "inception_4d/1x1"
}
layer {
  name: "inception_4d/3x3_reduce"
  type: "Convolution"
  bottom: "inception_4c/output"
  top: "inception_4d/3x3_reduce"
  param {
    lr_mult: 1
    decay_mult: 1
  }
  param {
    lr_mult: 2
    decay_mult: 0
  }
  convolution_param {
    num_output: 144
    kernel_size: 1
    weight_filler {
      type: "xavier"
      std: 0.09
    }
    bias_filler {
      type: "constant"
      value: 0.2
    }
  }
}
layer {
  name: "inception_4d/relu_3x3_reduce"
  type: "ReLU"
  bottom: "inception_4d/3x3_reduce"
  top: "inception_4d/3x3_reduce"
}
layer {
  name: "inception_4d/3x3"
  type: "Convolution"
  bottom: "inception_4d/3x3_reduce"
  top: "inception_4d/3x3"
  param {
    lr_mult: 1
    decay_mult: 1
  }
  param {
    lr_mult: 2
    decay_mult: 0
  }
  convolution_param {
    num_output: 288
    pad: 1
    kernel_size: 3
    weight_filler {
      type: "xavier"
      std: 0.03
    }
    bias_filler {
      type: "constant"
      value: 0.2
    }
  }
}
layer {
  name: "inception_4d/relu_3x3"
  type: "ReLU"
  bottom: "inception_4d/3x3"
  top: "inception_4d/3x3"
}
layer {
  name: "inception_4d/5x5_reduce"
  type: "Convolution"
  bottom: "inception_4c/output"
  top: "inception_4d/5x5_reduce"
  param {
    lr_mult: 1
    decay_mult: 1
  }
  param {
    lr_mult: 2
    decay_mult: 0
  }
  convolution_param {
    num_output: 32
    kernel_size: 1
    weight_filler {
      type: "xavier"
      std: 0.2
    }
    bias_filler {
      type: "constant"
      value: 0.2
    }
  }
}
layer {
  name: "inception_4d/relu_5x5_reduce"
  type: "ReLU"
  bottom: "inception_4d/5x5_reduce"
  top: "inception_4d/5x5_reduce"
}
layer {
  name: "inception_4d/5x5"
  type: "Convolution"
  bottom: "inception_4d/5x5_reduce"
  top: "inception_4d/5x5"
  param {
    lr_mult: 1
    decay_mult: 1
  }
  param {
    lr_mult: 2
    decay_mult: 0
  }
  convolution_param {
    num_output: 64
    pad: 2
    kernel_size: 5
    weight_filler {
      type: "xavier"
      std: 0.03
    }
    bias_filler {
      type: "constant"
      value: 0.2
    }
  }
}
layer {
  name: "inception_4d/relu_5x5"
  type: "ReLU"
  bottom: "inception_4d/5x5"
  top: "inception_4d/5x5"
}
layer {
  name: "inception_4d/pool"
  type: "Pooling"
  bottom: "inception_4c/output"
  top: "inception_4d/pool"
  pooling_param {
    pool: MAX
    kernel_size: 3
    stride: 1
    pad: 1
  }
}
layer {
  name: "inception_4d/pool_proj"
  type: "Convolution"
  bottom: "inception_4d/pool"
  top: "inception_4d/pool_proj"
  param {
    lr_mult: 1
    decay_mult: 1
  }
  param {
    lr_mult: 2
    decay_mult: 0
  }
  convolution_param {
    num_output: 64
    kernel_size: 1
    weight_filler {
      type: "xavier"
      std: 0.1
    }
    bias_filler {
      type: "constant"
      value: 0.2
    }
  }
}
layer {
  name: "inception_4d/relu_pool_proj"
  type: "ReLU"
  bottom: "inception_4d/pool_proj"
  top: "inception_4d/pool_proj"
}
layer {
  name: "inception_4d/output"
  type: "Concat"
  bottom: "inception_4d/1x1"
  bottom: "inception_4d/3x3"
  bottom: "inception_4d/5x5"
  bottom: "inception_4d/pool_proj"
  top: "inception_4d/output"
}
layer {
  name: "loss2/ave_pool"
  type: "Pooling"
  bottom: "inception_4d/output"
  top: "loss2/ave_pool"
  pooling_param {
    pool: AVE
    kernel_size: 5
    stride: 3
  }
}
layer {
  name: "loss2/conv"
  type: "Convolution"
  bottom: "loss2/ave_pool"
  top: "loss2/conv"
  param {
    lr_mult: 1
    decay_mult: 1
  }
  param {
    lr_mult: 2
    decay_mult: 0
  }
  convolution_param {
    num_output: 128
    kernel_size: 1
    weight_filler {
      type: "xavier"
      std: 0.08
    }
    bias_filler {
      type: "constant"
      value: 0.2
    }
  }
}
layer {
  name: "loss2/relu_conv"
  type: "ReLU"
  bottom: "loss2/conv"
  top: "loss2/conv"
}
layer {
  name: "loss2/fc"
  type: "InnerProduct"
  bottom: "loss2/conv"
  top: "loss2/fc"
  param {
    lr_mult: 1
    decay_mult: 1
  }
  param {
    lr_mult: 2
    decay_mult: 0
  }
  inner_product_param {
    num_output: 1024
    weight_filler {
      type: "xavier"
      std: 0.02
    }
    bias_filler {
      type: "constant"
      value: 0.2
    }
  }
}
layer {
  name: "loss2/relu_fc"
  type: "ReLU"
  bottom: "loss2/fc"
  top: "loss2/fc"
}
layer {
  name: "loss2/drop_fc"
  type: "Dropout"
  bottom: "loss2/fc"
  top: "loss2/fc"
  dropout_param {
    dropout_ratio: 0.7
  }
}
layer {
  name: "loss2/classifier_plantvillage"
  type: "InnerProduct"
  bottom: "loss2/fc"
  top: "loss2/classifier_plantvillage"
  param {
    lr_mult: 1
    decay_mult: 1
  }
  param {
    lr_mult: 2
    decay_mult: 0
  }
  inner_product_param {
    num_output: 38
    weight_filler {
      type: "xavier"
      std: 0.0009765625
    }
    bias_filler {
      type: "constant"
      value: 0
    }
  }
}
layer {
  name: "inception_4e/1x1"
  type: "Convolution"
  bottom: "inception_4d/output"
  top: "inception_4e/1x1"
  param {
    lr_mult: 1
    decay_mult: 1
  }
  param {
    lr_mult: 2
    decay_mult: 0
  }
  convolution_param {
    num_output: 256
    kernel_size: 1
    weight_filler {
      type: "xavier"
      std: 0.03
    }
    bias_filler {
      type: "constant"
      value: 0.2
    }
  }
}
layer {
  name: "inception_4e/relu_1x1"
  type: "ReLU"
  bottom: "inception_4e/1x1"
  top: "inception_4e/1x1"
}
layer {
  name: "inception_4e/3x3_reduce"
  type: "Convolution"
  bottom: "inception_4d/output"
  top: "inception_4e/3x3_reduce"
  param {
    lr_mult: 1
    decay_mult: 1
  }
  param {
    lr_mult: 2
    decay_mult: 0
  }
  convolution_param {
    num_output: 160
    kernel_size: 1
    weight_filler {
      type: "xavier"
      std: 0.09
    }
    bias_filler {
      type: "constant"
      value: 0.2
    }
  }
}
layer {
  name: "inception_4e/relu_3x3_reduce"
  type: "ReLU"
  bottom: "inception_4e/3x3_reduce"
  top: "inception_4e/3x3_reduce"
}
layer {
  name: "inception_4e/3x3"
  type: "Convolution"
  bottom: "inception_4e/3x3_reduce"
  top: "inception_4e/3x3"
  param {
    lr_mult: 1
    decay_mult: 1
  }
  param {
    lr_mult: 2
    decay_mult: 0
  }
  convolution_param {
    num_output: 320
    pad: 1
    kernel_size: 3
    weight_filler {
      type: "xavier"
      std: 0.03
    }
    bias_filler {
      type: "constant"
      value: 0.2
    }
  }
}
layer {
  name: "inception_4e/relu_3x3"
  type: "ReLU"
  bottom: "inception_4e/3x3"
  top: "inception_4e/3x3"
}
layer {
  name: "inception_4e/5x5_reduce"
  type: "Convolution"
  bottom: "inception_4d/output"
  top: "inception_4e/5x5_reduce"
  param {
    lr_mult: 1
    decay_mult: 1
  }
  param {
    lr_mult: 2
    decay_mult: 0
  }
  convolution_param {
    num_output: 32
    kernel_size: 1
    weight_filler {
      type: "xavier"
      std: 0.2
    }
    bias_filler {
      type: "constant"
      value: 0.2
    }
  }
}
layer {
  name: "inception_4e/relu_5x5_reduce"
  type: "ReLU"
  bottom: "inception_4e/5x5_reduce"
  top: "inception_4e/5x5_reduce"
}
layer {
  name: "inception_4e/5x5"
  type: "Convolution"
  bottom: "inception_4e/5x5_reduce"
  top: "inception_4e/
I0403 15:45:47.119114 20246 layer_factory.hpp:77] Creating layer data
I0403 15:45:47.119735 20246 net.cpp:91] Creating Layer data
I0403 15:45:47.119766 20246 net.cpp:399] data -> data
I0403 15:45:47.119817 20246 net.cpp:399] data -> label
I0403 15:45:47.119858 20246 data_transformer.cpp:25] Loading mean file from: /home/mohanty/data/final_dataset/lmdb/grayscale-20-80/mean.binaryproto
I0403 15:45:47.121116 20250 db_lmdb.cpp:38] Opened lmdb /home/mohanty/data/final_dataset/lmdb/grayscale-20-80/test_db
I0403 15:45:47.133092 20246 data_layer.cpp:41] output data size: 24,3,224,224
I0403 15:45:47.160142 20246 net.cpp:141] Setting up data
I0403 15:45:47.160226 20246 net.cpp:148] Top shape: 24 3 224 224 (3612672)
I0403 15:45:47.160248 20246 net.cpp:148] Top shape: 24 (24)
I0403 15:45:47.160264 20246 net.cpp:156] Memory required for data: 14450784
I0403 15:45:47.160290 20246 layer_factory.hpp:77] Creating layer label_data_1_split
I0403 15:45:47.160315 20246 net.cpp:91] Creating Layer label_data_1_split
I0403 15:45:47.160333 20246 net.cpp:425] label_data_1_split <- label
I0403 15:45:47.160365 20246 net.cpp:399] label_data_1_split -> label_data_1_split_0
I0403 15:45:47.160392 20246 net.cpp:399] label_data_1_split -> label_data_1_split_1
I0403 15:45:47.160413 20246 net.cpp:399] label_data_1_split -> label_data_1_split_2
I0403 15:45:47.160434 20246 net.cpp:399] label_data_1_split -> label_data_1_split_3
I0403 15:45:47.160452 20246 net.cpp:399] label_data_1_split -> label_data_1_split_4
I0403 15:45:47.160472 20246 net.cpp:399] label_data_1_split -> label_data_1_split_5
I0403 15:45:47.160491 20246 net.cpp:399] label_data_1_split -> label_data_1_split_6
I0403 15:45:47.160511 20246 net.cpp:399] label_data_1_split -> label_data_1_split_7
I0403 15:45:47.160531 20246 net.cpp:399] label_data_1_split -> label_data_1_split_8
I0403 15:45:47.160550 20246 net.cpp:399] label_data_1_split -> label_data_1_split_9
I0403 15:45:47.160666 20246 net.cpp:141] Setting up label_data_1_split
I0403 15:45:47.160691 20246 net.cpp:148] Top shape: 24 (24)
I0403 15:45:47.160706 20246 net.cpp:148] Top shape: 24 (24)
I0403 15:45:47.160722 20246 net.cpp:148] Top shape: 24 (24)
I0403 15:45:47.160738 20246 net.cpp:148] Top shape: 24 (24)
I0403 15:45:47.160753 20246 net.cpp:148] Top shape: 24 (24)
I0403 15:45:47.160768 20246 net.cpp:148] Top shape: 24 (24)
I0403 15:45:47.160784 20246 net.cpp:148] Top shape: 24 (24)
I0403 15:45:47.160799 20246 net.cpp:148] Top shape: 24 (24)
I0403 15:45:47.160815 20246 net.cpp:148] Top shape: 24 (24)
I0403 15:45:47.160830 20246 net.cpp:148] Top shape: 24 (24)
I0403 15:45:47.160873 20246 net.cpp:156] Memory required for data: 14451744
I0403 15:45:47.160889 20246 layer_factory.hpp:77] Creating layer conv1/7x7_s2
I0403 15:45:47.160920 20246 net.cpp:91] Creating Layer conv1/7x7_s2
I0403 15:45:47.160938 20246 net.cpp:425] conv1/7x7_s2 <- data
I0403 15:45:47.160958 20246 net.cpp:399] conv1/7x7_s2 -> conv1/7x7_s2
I0403 15:45:47.304858 20246 net.cpp:141] Setting up conv1/7x7_s2
I0403 15:45:47.304922 20246 net.cpp:148] Top shape: 24 64 112 112 (19267584)
I0403 15:45:47.304940 20246 net.cpp:156] Memory required for data: 91522080
I0403 15:45:47.304972 20246 layer_factory.hpp:77] Creating layer conv1/relu_7x7
I0403 15:45:47.304999 20246 net.cpp:91] Creating Layer conv1/relu_7x7
I0403 15:45:47.305018 20246 net.cpp:425] conv1/relu_7x7 <- conv1/7x7_s2
I0403 15:45:47.305037 20246 net.cpp:386] conv1/relu_7x7 -> conv1/7x7_s2 (in-place)
I0403 15:45:47.305330 20246 net.cpp:141] Setting up conv1/relu_7x7
I0403 15:45:47.305358 20246 net.cpp:148] Top shape: 24 64 112 112 (19267584)
I0403 15:45:47.305374 20246 net.cpp:156] Memory required for data: 168592416
I0403 15:45:47.305390 20246 layer_factory.hpp:77] Creating layer pool1/3x3_s2
I0403 15:45:47.305415 20246 net.cpp:91] Creating Layer pool1/3x3_s2
I0403 15:45:47.305433 20246 net.cpp:425] pool1/3x3_s2 <- conv1/7x7_s2
I0403 15:45:47.305466 20246 net.cpp:399] pool1/3x3_s2 -> pool1/3x3_s2
I0403 15:45:47.305544 20246 net.cpp:141] Setting up pool1/3x3_s2
I0403 15:45:47.305569 20246 net.cpp:148] Top shape: 24 64 56 56 (4816896)
I0403 15:45:47.305584 20246 net.cpp:156] Memory required for data: 187860000
I0403 15:45:47.305599 20246 layer_factory.hpp:77] Creating layer pool1/norm1
I0403 15:45:47.305626 20246 net.cpp:91] Creating Layer pool1/norm1
I0403 15:45:47.305644 20246 net.cpp:425] pool1/norm1 <- pool1/3x3_s2
I0403 15:45:47.305666 20246 net.cpp:399] pool1/norm1 -> pool1/norm1
I0403 15:45:47.305974 20246 net.cpp:141] Setting up pool1/norm1
I0403 15:45:47.306002 20246 net.cpp:148] Top shape: 24 64 56 56 (4816896)
I0403 15:45:47.306046 20246 net.cpp:156] Memory required for data: 207127584
I0403 15:45:47.306071 20246 layer_factory.hpp:77] Creating layer conv2/3x3_reduce
I0403 15:45:47.306097 20246 net.cpp:91] Creating Layer conv2/3x3_reduce
I0403 15:45:47.306115 20246 net.cpp:425] conv2/3x3_reduce <- pool1/norm1
I0403 15:45:47.306133 20246 net.cpp:399] conv2/3x3_reduce -> conv2/3x3_reduce
I0403 15:45:47.307548 20246 net.cpp:141] Setting up conv2/3x3_reduce
I0403 15:45:47.307579 20246 net.cpp:148] Top shape: 24 64 56 56 (4816896)
I0403 15:45:47.307595 20246 net.cpp:156] Memory required for data: 226395168
I0403 15:45:47.307618 20246 layer_factory.hpp:77] Creating layer conv2/relu_3x3_reduce
I0403 15:45:47.307638 20246 net.cpp:91] Creating Layer conv2/relu_3x3_reduce
I0403 15:45:47.307654 20246 net.cpp:425] conv2/relu_3x3_reduce <- conv2/3x3_reduce
I0403 15:45:47.307672 20246 net.cpp:386] conv2/relu_3x3_reduce -> conv2/3x3_reduce (in-place)
I0403 15:45:47.308003 20246 net.cpp:141] Setting up conv2/relu_3x3_reduce
I0403 15:45:47.308030 20246 net.cpp:148] Top shape: 24 64 56 56 (4816896)
I0403 15:45:47.308045 20246 net.cpp:156] Memory required for data: 245662752
I0403 15:45:47.308074 20246 layer_factory.hpp:77] Creating layer conv2/3x3
I0403 15:45:47.308099 20246 net.cpp:91] Creating Layer conv2/3x3
I0403 15:45:47.308117 20246 net.cpp:425] conv2/3x3 <- conv2/3x3_reduce
I0403 15:45:47.308141 20246 net.cpp:399] conv2/3x3 -> conv2/3x3
I0403 15:45:47.310461 20246 net.cpp:141] Setting up conv2/3x3
I0403 15:45:47.310489 20246 net.cpp:148] Top shape: 24 192 56 56 (14450688)
I0403 15:45:47.310508 20246 net.cpp:156] Memory required for data: 303465504
I0403 15:45:47.310529 20246 layer_factory.hpp:77] Creating layer conv2/relu_3x3
I0403 15:45:47.310547 20246 net.cpp:91] Creating Layer conv2/relu_3x3
I0403 15:45:47.310564 20246 net.cpp:425] conv2/relu_3x3 <- conv2/3x3
I0403 15:45:47.310580 20246 net.cpp:386] conv2/relu_3x3 -> conv2/3x3 (in-place)
I0403 15:45:47.310771 20246 net.cpp:141] Setting up conv2/relu_3x3
I0403 15:45:47.310797 20246 net.cpp:148] Top shape: 24 192 56 56 (14450688)
I0403 15:45:47.310842 20246 net.cpp:156] Memory required for data: 361268256
I0403 15:45:47.310858 20246 layer_factory.hpp:77] Creating layer conv2/norm2
I0403 15:45:47.310880 20246 net.cpp:91] Creating Layer conv2/norm2
I0403 15:45:47.310897 20246 net.cpp:425] conv2/norm2 <- conv2/3x3
I0403 15:45:47.310915 20246 net.cpp:399] conv2/norm2 -> conv2/norm2
I0403 15:45:47.311249 20246 net.cpp:141] Setting up conv2/norm2
I0403 15:45:47.311275 20246 net.cpp:148] Top shape: 24 192 56 56 (14450688)
I0403 15:45:47.311291 20246 net.cpp:156] Memory required for data: 419071008
I0403 15:45:47.311306 20246 layer_factory.hpp:77] Creating layer pool2/3x3_s2
I0403 15:45:47.311326 20246 net.cpp:91] Creating Layer pool2/3x3_s2
I0403 15:45:47.311343 20246 net.cpp:425] pool2/3x3_s2 <- conv2/norm2
I0403 15:45:47.311360 20246 net.cpp:399] pool2/3x3_s2 -> pool2/3x3_s2
I0403 15:45:47.311415 20246 net.cpp:141] Setting up pool2/3x3_s2
I0403 15:45:47.311450 20246 net.cpp:148] Top shape: 24 192 28 28 (3612672)
I0403 15:45:47.311465 20246 net.cpp:156] Memory required for data: 433521696
I0403 15:45:47.311478 20246 layer_factory.hpp:77] Creating layer pool2/3x3_s2_pool2/3x3_s2_0_split
I0403 15:45:47.311496 20246 net.cpp:91] Creating Layer pool2/3x3_s2_pool2/3x3_s2_0_split
I0403 15:45:47.311511 20246 net.cpp:425] pool2/3x3_s2_pool2/3x3_s2_0_split <- pool2/3x3_s2
I0403 15:45:47.311529 20246 net.cpp:399] pool2/3x3_s2_pool2/3x3_s2_0_split -> pool2/3x3_s2_pool2/3x3_s2_0_split_0
I0403 15:45:47.311549 20246 net.cpp:399] pool2/3x3_s2_pool2/3x3_s2_0_split -> pool2/3x3_s2_pool2/3x3_s2_0_split_1
I0403 15:45:47.311568 20246 net.cpp:399] pool2/3x3_s2_pool2/3x3_s2_0_split -> pool2/3x3_s2_pool2/3x3_s2_0_split_2
I0403 15:45:47.311588 20246 net.cpp:399] pool2/3x3_s2_pool2/3x3_s2_0_split -> pool2/3x3_s2_pool2/3x3_s2_0_split_3
I0403 15:45:47.311656 20246 net.cpp:141] Setting up pool2/3x3_s2_pool2/3x3_s2_0_split
I0403 15:45:47.311681 20246 net.cpp:148] Top shape: 24 192 28 28 (3612672)
I0403 15:45:47.311697 20246 net.cpp:148] Top shape: 24 192 28 28 (3612672)
I0403 15:45:47.311713 20246 net.cpp:148] Top shape: 24 192 28 28 (3612672)
I0403 15:45:47.311728 20246 net.cpp:148] Top shape: 24 192 28 28 (3612672)
I0403 15:45:47.311741 20246 net.cpp:156] Memory required for data: 491324448
I0403 15:45:47.311755 20246 layer_factory.hpp:77] Creating layer inception_3a/1x1
I0403 15:45:47.311777 20246 net.cpp:91] Creating Layer inception_3a/1x1
I0403 15:45:47.311794 20246 net.cpp:425] inception_3a/1x1 <- pool2/3x3_s2_pool2/3x3_s2_0_split_0
I0403 15:45:47.311812 20246 net.cpp:399] inception_3a/1x1 -> inception_3a/1x1
I0403 15:45:47.313336 20246 net.cpp:141] Setting up inception_3a/1x1
I0403 15:45:47.313365 20246 net.cpp:148] Top shape: 24 64 28 28 (1204224)
I0403 15:45:47.313380 20246 net.cpp:156] Memory required for data: 496141344
I0403 15:45:47.313400 20246 layer_factory.hpp:77] Creating layer inception_3a/relu_1x1
I0403 15:45:47.313418 20246 net.cpp:91] Creating Layer inception_3a/relu_1x1
I0403 15:45:47.313434 20246 net.cpp:425] inception_3a/relu_1x1 <- inception_3a/1x1
I0403 15:45:47.313452 20246 net.cpp:386] inception_3a/relu_1x1 -> inception_3a/1x1 (in-place)
I0403 15:45:47.313621 20246 net.cpp:141] Setting up inception_3a/relu_1x1
I0403 15:45:47.313648 20246 net.cpp:148] Top shape: 24 64 28 28 (1204224)
I0403 15:45:47.313663 20246 net.cpp:156] Memory required for data: 500958240
I0403 15:45:47.313678 20246 layer_factory.hpp:77] Creating layer inception_3a/3x3_reduce
I0403 15:45:47.313699 20246 net.cpp:91] Creating Layer inception_3a/3x3_reduce
I0403 15:45:47.313716 20246 net.cpp:425] inception_3a/3x3_reduce <- pool2/3x3_s2_pool2/3x3_s2_0_split_1
I0403 15:45:47.313735 20246 net.cpp:399] inception_3a/3x3_reduce -> inception_3a/3x3_reduce
I0403 15:45:47.315414 20246 net.cpp:141] Setting up inception_3a/3x3_reduce
I0403 15:45:47.315443 20246 net.cpp:148] Top shape: 24 96 28 28 (1806336)
I0403 15:45:47.315459 20246 net.cpp:156] Memory required for data: 508183584
I0403 15:45:47.315484 20246 layer_factory.hpp:77] Creating layer inception_3a/relu_3x3_reduce
I0403 15:45:47.315518 20246 net.cpp:91] Creating Layer inception_3a/relu_3x3_reduce
I0403 15:45:47.315536 20246 net.cpp:425] inception_3a/relu_3x3_reduce <- inception_3a/3x3_reduce
I0403 15:45:47.315554 20246 net.cpp:386] inception_3a/relu_3x3_reduce -> inception_3a/3x3_reduce (in-place)
I0403 15:45:47.315734 20246 net.cpp:141] Setting up inception_3a/relu_3x3_reduce
I0403 15:45:47.315759 20246 net.cpp:148] Top shape: 24 96 28 28 (1806336)
I0403 15:45:47.315773 20246 net.cpp:156] Memory required for data: 515408928
I0403 15:45:47.315788 20246 layer_factory.hpp:77] Creating layer inception_3a/3x3
I0403 15:45:47.315809 20246 net.cpp:91] Creating Layer inception_3a/3x3
I0403 15:45:47.315826 20246 net.cpp:425] inception_3a/3x3 <- inception_3a/3x3_reduce
I0403 15:45:47.315847 20246 net.cpp:399] inception_3a/3x3 -> inception_3a/3x3
I0403 15:45:47.317540 20246 net.cpp:141] Setting up inception_3a/3x3
I0403 15:45:47.317569 20246 net.cpp:148] Top shape: 24 128 28 28 (2408448)
I0403 15:45:47.317582 20246 net.cpp:156] Memory required for data: 525042720
I0403 15:45:47.317600 20246 layer_factory.hpp:77] Creating layer inception_3a/relu_3x3
I0403 15:45:47.317620 20246 net.cpp:91] Creating Layer inception_3a/relu_3x3
I0403 15:45:47.317637 20246 net.cpp:425] inception_3a/relu_3x3 <- inception_3a/3x3
I0403 15:45:47.317653 20246 net.cpp:386] inception_3a/relu_3x3 -> inception_3a/3x3 (in-place)
I0403 15:45:47.317925 20246 net.cpp:141] Setting up inception_3a/relu_3x3
I0403 15:45:47.317951 20246 net.cpp:148] Top shape: 24 128 28 28 (2408448)
I0403 15:45:47.317968 20246 net.cpp:156] Memory required for data: 534676512
I0403 15:45:47.317982 20246 layer_factory.hpp:77] Creating layer inception_3a/5x5_reduce
I0403 15:45:47.318006 20246 net.cpp:91] Creating Layer inception_3a/5x5_reduce
I0403 15:45:47.318023 20246 net.cpp:425] inception_3a/5x5_reduce <- pool2/3x3_s2_pool2/3x3_s2_0_split_2
I0403 15:45:47.318042 20246 net.cpp:399] inception_3a/5x5_reduce -> inception_3a/5x5_reduce
I0403 15:45:47.318989 20246 net.cpp:141] Setting up inception_3a/5x5_reduce
I0403 15:45:47.319018 20246 net.cpp:148] Top shape: 24 16 28 28 (301056)
I0403 15:45:47.319034 20246 net.cpp:156] Memory required for data: 535880736
I0403 15:45:47.319056 20246 layer_factory.hpp:77] Creating layer inception_3a/relu_5x5_reduce
I0403 15:45:47.319075 20246 net.cpp:91] Creating Layer inception_3a/relu_5x5_reduce
I0403 15:45:47.319092 20246 net.cpp:425] inception_3a/relu_5x5_reduce <- inception_3a/5x5_reduce
I0403 15:45:47.319111 20246 net.cpp:386] inception_3a/relu_5x5_reduce -> inception_3a/5x5_reduce (in-place)
I0403 15:45:47.319407 20246 net.cpp:141] Setting up inception_3a/relu_5x5_reduce
I0403 15:45:47.319432 20246 net.cpp:148] Top shape: 24 16 28 28 (301056)
I0403 15:45:47.319447 20246 net.cpp:156] Memory required for data: 537084960
I0403 15:45:47.319461 20246 layer_factory.hpp:77] Creating layer inception_3a/5x5
I0403 15:45:47.319483 20246 net.cpp:91] Creating Layer inception_3a/5x5
I0403 15:45:47.319500 20246 net.cpp:425] inception_3a/5x5 <- inception_3a/5x5_reduce
I0403 15:45:47.319520 20246 net.cpp:399] inception_3a/5x5 -> inception_3a/5x5
I0403 15:45:47.320514 20246 net.cpp:141] Setting up inception_3a/5x5
I0403 15:45:47.320541 20246 net.cpp:148] Top shape: 24 32 28 28 (602112)
I0403 15:45:47.320556 20246 net.cpp:156] Memory required for data: 539493408
I0403 15:45:47.320574 20246 layer_factory.hpp:77] Creating layer inception_3a/relu_5x5
I0403 15:45:47.320593 20246 net.cpp:91] Creating Layer inception_3a/relu_5x5
I0403 15:45:47.320610 20246 net.cpp:425] inception_3a/relu_5x5 <- inception_3a/5x5
I0403 15:45:47.320626 20246 net.cpp:386] inception_3a/relu_5x5 -> inception_3a/5x5 (in-place)
I0403 15:45:47.320796 20246 net.cpp:141] Setting up inception_3a/relu_5x5
I0403 15:45:47.320822 20246 net.cpp:148] Top shape: 24 32 28 28 (602112)
I0403 15:45:47.320837 20246 net.cpp:156] Memory required for data: 541901856
I0403 15:45:47.320850 20246 layer_factory.hpp:77] Creating layer inception_3a/pool
I0403 15:45:47.320868 20246 net.cpp:91] Creating Layer inception_3a/pool
I0403 15:45:47.320897 20246 net.cpp:425] inception_3a/pool <- pool2/3x3_s2_pool2/3x3_s2_0_split_3
I0403 15:45:47.320917 20246 net.cpp:399] inception_3a/pool -> inception_3a/pool
I0403 15:45:47.320976 20246 net.cpp:141] Setting up inception_3a/pool
I0403 15:45:47.320998 20246 net.cpp:148] Top shape: 24 192 28 28 (3612672)
I0403 15:45:47.321012 20246 net.cpp:156] Memory required for data: 556352544
I0403 15:45:47.321027 20246 layer_factory.hpp:77] Creating layer inception_3a/pool_proj
I0403 15:45:47.321054 20246 net.cpp:91] Creating Layer inception_3a/pool_proj
I0403 15:45:47.321072 20246 net.cpp:425] inception_3a/pool_proj <- inception_3a/pool
I0403 15:45:47.321091 20246 net.cpp:399] inception_3a/pool_proj -> inception_3a/pool_proj
I0403 15:45:47.322029 20246 net.cpp:141] Setting up inception_3a/pool_proj
I0403 15:45:47.322060 20246 net.cpp:148] Top shape: 24 32 28 28 (602112)
I0403 15:45:47.322077 20246 net.cpp:156] Memory required for data: 558760992
I0403 15:45:47.322099 20246 layer_factory.hpp:77] Creating layer inception_3a/relu_pool_proj
I0403 15:45:47.322119 20246 net.cpp:91] Creating Layer inception_3a/relu_pool_proj
I0403 15:45:47.322135 20246 net.cpp:425] inception_3a/relu_pool_proj <- inception_3a/pool_proj
I0403 15:45:47.322154 20246 net.cpp:386] inception_3a/relu_pool_proj -> inception_3a/pool_proj (in-place)
I0403 15:45:47.322422 20246 net.cpp:141] Setting up inception_3a/relu_pool_proj
I0403 15:45:47.322448 20246 net.cpp:148] Top shape: 24 32 28 28 (602112)
I0403 15:45:47.322463 20246 net.cpp:156] Memory required for data: 561169440
I0403 15:45:47.322477 20246 layer_factory.hpp:77] Creating layer inception_3a/output
I0403 15:45:47.322496 20246 net.cpp:91] Creating Layer inception_3a/output
I0403 15:45:47.322512 20246 net.cpp:425] inception_3a/output <- inception_3a/1x1
I0403 15:45:47.322528 20246 net.cpp:425] inception_3a/output <- inception_3a/3x3
I0403 15:45:47.322543 20246 net.cpp:425] inception_3a/output <- inception_3a/5x5
I0403 15:45:47.322559 20246 net.cpp:425] inception_3a/output <- inception_3a/pool_proj
I0403 15:45:47.322576 20246 net.cpp:399] inception_3a/output -> inception_3a/output
I0403 15:45:47.322621 20246 net.cpp:141] Setting up inception_3a/output
I0403 15:45:47.322644 20246 net.cpp:148] Top shape: 24 256 28 28 (4816896)
I0403 15:45:47.322659 20246 net.cpp:156] Memory required for data: 580437024
I0403 15:45:47.322672 20246 layer_factory.hpp:77] Creating layer inception_3a/output_inception_3a/output_0_split
I0403 15:45:47.322688 20246 net.cpp:91] Creating Layer inception_3a/output_inception_3a/output_0_split
I0403 15:45:47.322703 20246 net.cpp:425] inception_3a/output_inception_3a/output_0_split <- inception_3a/output
I0403 15:45:47.322722 20246 net.cpp:399] inception_3a/output_inception_3a/output_0_split -> inception_3a/output_inception_3a/output_0_split_0
I0403 15:45:47.322741 20246 net.cpp:399] inception_3a/output_inception_3a/output_0_split -> inception_3a/output_inception_3a/output_0_split_1
I0403 15:45:47.322765 20246 net.cpp:399] inception_3a/output_inception_3a/output_0_split -> inception_3a/output_inception_3a/output_0_split_2
I0403 15:45:47.322787 20246 net.cpp:399] inception_3a/output_inception_3a/output_0_split -> inception_3a/output_inception_3a/output_0_split_3
I0403 15:45:47.322857 20246 net.cpp:141] Setting up inception_3a/output_inception_3a/output_0_split
I0403 15:45:47.322880 20246 net.cpp:148] Top shape: 24 256 28 28 (4816896)
I0403 15:45:47.322898 20246 net.cpp:148] Top shape: 24 256 28 28 (4816896)
I0403 15:45:47.322914 20246 net.cpp:148] Top shape: 24 256 28 28 (4816896)
I0403 15:45:47.322929 20246 net.cpp:148] Top shape: 24 256 28 28 (4816896)
I0403 15:45:47.322942 20246 net.cpp:156] Memory required for data: 657507360
I0403 15:45:47.322957 20246 layer_factory.hpp:77] Creating layer inception_3b/1x1
I0403 15:45:47.322978 20246 net.cpp:91] Creating Layer inception_3b/1x1
I0403 15:45:47.322993 20246 net.cpp:425] inception_3b/1x1 <- inception_3a/output_inception_3a/output_0_split_0
I0403 15:45:47.323014 20246 net.cpp:399] inception_3b/1x1 -> inception_3b/1x1
I0403 15:45:47.324149 20246 net.cpp:141] Setting up inception_3b/1x1
I0403 15:45:47.324189 20246 net.cpp:148] Top shape: 24 128 28 28 (2408448)
I0403 15:45:47.324205 20246 net.cpp:156] Memory required for data: 667141152
I0403 15:45:47.324224 20246 layer_factory.hpp:77] Creating layer inception_3b/relu_1x1
I0403 15:45:47.324247 20246 net.cpp:91] Creating Layer inception_3b/relu_1x1
I0403 15:45:47.324265 20246 net.cpp:425] inception_3b/relu_1x1 <- inception_3b/1x1
I0403 15:45:47.324281 20246 net.cpp:386] inception_3b/relu_1x1 -> inception_3b/1x1 (in-place)
I0403 15:45:47.324461 20246 net.cpp:141] Setting up inception_3b/relu_1x1
I0403 15:45:47.324488 20246 net.cpp:148] Top shape: 24 128 28 28 (2408448)
I0403 15:45:47.324504 20246 net.cpp:156] Memory required for data: 676774944
I0403 15:45:47.324519 20246 layer_factory.hpp:77] Creating layer inception_3b/3x3_reduce
I0403 15:45:47.324542 20246 net.cpp:91] Creating Layer inception_3b/3x3_reduce
I0403 15:45:47.324559 20246 net.cpp:425] inception_3b/3x3_reduce <- inception_3a/output_inception_3a/output_0_split_1
I0403 15:45:47.324579 20246 net.cpp:399] inception_3b/3x3_reduce -> inception_3b/3x3_reduce
I0403 15:45:47.325742 20246 net.cpp:141] Setting up inception_3b/3x3_reduce
I0403 15:45:47.325770 20246 net.cpp:148] Top shape: 24 128 28 28 (2408448)
I0403 15:45:47.325785 20246 net.cpp:156] Memory required for data: 686408736
I0403 15:45:47.325804 20246 layer_factory.hpp:77] Creating layer inception_3b/relu_3x3_reduce
I0403 15:45:47.325825 20246 net.cpp:91] Creating Layer inception_3b/relu_3x3_reduce
I0403 15:45:47.325842 20246 net.cpp:425] inception_3b/relu_3x3_reduce <- inception_3b/3x3_reduce
I0403 15:45:47.325860 20246 net.cpp:386] inception_3b/relu_3x3_reduce -> inception_3b/3x3_reduce (in-place)
I0403 15:45:47.326035 20246 net.cpp:141] Setting up inception_3b/relu_3x3_reduce
I0403 15:45:47.326067 20246 net.cpp:148] Top shape: 24 128 28 28 (2408448)
I0403 15:45:47.326084 20246 net.cpp:156] Memory required for data: 696042528
I0403 15:45:47.326099 20246 layer_factory.hpp:77] Creating layer inception_3b/3x3
I0403 15:45:47.326123 20246 net.cpp:91] Creating Layer inception_3b/3x3
I0403 15:45:47.326141 20246 net.cpp:425] inception_3b/3x3 <- inception_3b/3x3_reduce
I0403 15:45:47.326162 20246 net.cpp:399] inception_3b/3x3 -> inception_3b/3x3
I0403 15:45:47.329203 20246 net.cpp:141] Setting up inception_3b/3x3
I0403 15:45:47.329233 20246 net.cpp:148] Top shape: 24 192 28 28 (3612672)
I0403 15:45:47.329249 20246 net.cpp:156] Memory required for data: 710493216
I0403 15:45:47.329267 20246 layer_factory.hpp:77] Creating layer inception_3b/relu_3x3
I0403 15:45:47.329288 20246 net.cpp:91] Creating Layer inception_3b/relu_3x3
I0403 15:45:47.329304 20246 net.cpp:425] inception_3b/relu_3x3 <- inception_3b/3x3
I0403 15:45:47.329321 20246 net.cpp:386] inception_3b/relu_3x3 -> inception_3b/3x3 (in-place)
I0403 15:45:47.329604 20246 net.cpp:141] Setting up inception_3b/relu_3x3
I0403 15:45:47.329632 20246 net.cpp:148] Top shape: 24 192 28 28 (3612672)
I0403 15:45:47.329646 20246 net.cpp:156] Memory required for data: 724943904
I0403 15:45:47.329661 20246 layer_factory.hpp:77] Creating layer inception_3b/5x5_reduce
I0403 15:45:47.329686 20246 net.cpp:91] Creating Layer inception_3b/5x5_reduce
I0403 15:45:47.329704 20246 net.cpp:425] inception_3b/5x5_reduce <- inception_3a/output_inception_3a/output_0_split_2
I0403 15:45:47.329722 20246 net.cpp:399] inception_3b/5x5_reduce -> inception_3b/5x5_reduce
I0403 15:45:47.330732 20246 net.cpp:141] Setting up inception_3b/5x5_reduce
I0403 15:45:47.330760 20246 net.cpp:148] Top shape: 24 32 28 28 (602112)
I0403 15:45:47.330775 20246 net.cpp:156] Memory required for data: 727352352
I0403 15:45:47.330795 20246 layer_factory.hpp:77] Creating layer inception_3b/relu_5x5_reduce
I0403 15:45:47.330814 20246 net.cpp:91] Creating Layer inception_3b/relu_5x5_reduce
I0403 15:45:47.330832 20246 net.cpp:425] inception_3b/relu_5x5_reduce <- inception_3b/5x5_reduce
I0403 15:45:47.330848 20246 net.cpp:386] inception_3b/relu_5x5_reduce -> inception_3b/5x5_reduce (in-place)
I0403 15:45:47.331042 20246 net.cpp:141] Setting up inception_3b/relu_5x5_reduce
I0403 15:45:47.331071 20246 net.cpp:148] Top shape: 24 32 28 28 (602112)
I0403 15:45:47.331087 20246 net.cpp:156] Memory required for data: 729760800
I0403 15:45:47.331102 20246 layer_factory.hpp:77] Creating layer inception_3b/5x5
I0403 15:45:47.331125 20246 net.cpp:91] Creating Layer inception_3b/5x5
I0403 15:45:47.331142 20246 net.cpp:425] inception_3b/5x5 <- inception_3b/5x5_reduce
I0403 15:45:47.331166 20246 net.cpp:399] inception_3b/5x5 -> inception_3b/5x5
I0403 15:45:47.333168 20246 net.cpp:141] Setting up inception_3b/5x5
I0403 15:45:47.333197 20246 net.cpp:148] Top shape: 24 96 28 28 (1806336)
I0403 15:45:47.333212 20246 net.cpp:156] Memory required for data: 736986144
I0403 15:45:47.333231 20246 layer_factory.hpp:77] Creating layer inception_3b/relu_5x5
I0403 15:45:47.333252 20246 net.cpp:91] Creating Layer inception_3b/relu_5x5
I0403 15:45:47.333268 20246 net.cpp:425] inception_3b/relu_5x5 <- inception_3b/5x5
I0403 15:45:47.333286 20246 net.cpp:386] inception_3b/relu_5x5 -> inception_3b/5x5 (in-place)
I0403 15:45:47.333478 20246 net.cpp:141] Setting up inception_3b/relu_5x5
I0403 15:45:47.333503 20246 net.cpp:148] Top shape: 24 96 28 28 (1806336)
I0403 15:45:47.333518 20246 net.cpp:156] Memory required for data: 744211488
I0403 15:45:47.333534 20246 layer_factory.hpp:77] Creating layer inception_3b/pool
I0403 15:45:47.333550 20246 net.cpp:91] Creating Layer inception_3b/pool
I0403 15:45:47.333565 20246 net.cpp:425] inception_3b/pool <- inception_3a/output_inception_3a/output_0_split_3
I0403 15:45:47.333583 20246 net.cpp:399] inception_3b/pool -> inception_3b/pool
I0403 15:45:47.333641 20246 net.cpp:141] Setting up inception_3b/pool
I0403 15:45:47.333663 20246 net.cpp:148] Top shape: 24 256 28 28 (4816896)
I0403 15:45:47.333678 20246 net.cpp:156] Memory required for data: 763479072
I0403 15:45:47.333693 20246 layer_factory.hpp:77] Creating layer inception_3b/pool_proj
I0403 15:45:47.333715 20246 net.cpp:91] Creating Layer inception_3b/pool_proj
I0403 15:45:47.333732 20246 net.cpp:425] inception_3b/pool_proj <- inception_3b/pool
I0403 15:45:47.333753 20246 net.cpp:399] inception_3b/pool_proj -> inception_3b/pool_proj
I0403 15:45:47.334820 20246 net.cpp:141] Setting up inception_3b/pool_proj
I0403 15:45:47.334846 20246 net.cpp:148] Top shape: 24 64 28 28 (1204224)
I0403 15:45:47.334862 20246 net.cpp:156] Memory required for data: 768295968
I0403 15:45:47.334880 20246 layer_factory.hpp:77] Creating layer inception_3b/relu_pool_proj
I0403 15:45:47.334898 20246 net.cpp:91] Creating Layer inception_3b/relu_pool_proj
I0403 15:45:47.334913 20246 net.cpp:425] inception_3b/relu_pool_proj <- inception_3b/pool_proj
I0403 15:45:47.334933 20246 net.cpp:386] inception_3b/relu_pool_proj -> inception_3b/pool_proj (in-place)
I0403 15:45:47.335336 20246 net.cpp:141] Setting up inception_3b/relu_pool_proj
I0403 15:45:47.335366 20246 net.cpp:148] Top shape: 24 64 28 28 (1204224)
I0403 15:45:47.335381 20246 net.cpp:156] Memory required for data: 773112864
I0403 15:45:47.335396 20246 layer_factory.hpp:77] Creating layer inception_3b/output
I0403 15:45:47.335412 20246 net.cpp:91] Creating Layer inception_3b/output
I0403 15:45:47.335428 20246 net.cpp:425] inception_3b/output <- inception_3b/1x1
I0403 15:45:47.335444 20246 net.cpp:425] inception_3b/output <- inception_3b/3x3
I0403 15:45:47.335460 20246 net.cpp:425] inception_3b/output <- inception_3b/5x5
I0403 15:45:47.335476 20246 net.cpp:425] inception_3b/output <- inception_3b/pool_proj
I0403 15:45:47.335495 20246 net.cpp:399] inception_3b/output -> inception_3b/output
I0403 15:45:47.335539 20246 net.cpp:141] Setting up inception_3b/output
I0403 15:45:47.335562 20246 net.cpp:148] Top shape: 24 480 28 28 (9031680)
I0403 15:45:47.335577 20246 net.cpp:156] Memory required for data: 809239584
I0403 15:45:47.335592 20246 layer_factory.hpp:77] Creating layer pool3/3x3_s2
I0403 15:45:47.335611 20246 net.cpp:91] Creating Layer pool3/3x3_s2
I0403 15:45:47.335628 20246 net.cpp:425] pool3/3x3_s2 <- inception_3b/output
I0403 15:45:47.335661 20246 net.cpp:399] pool3/3x3_s2 -> pool3/3x3_s2
I0403 15:45:47.335722 20246 net.cpp:141] Setting up pool3/3x3_s2
I0403 15:45:47.335747 20246 net.cpp:148] Top shape: 24 480 14 14 (2257920)
I0403 15:45:47.335760 20246 net.cpp:156] Memory required for data: 818271264
I0403 15:45:47.335775 20246 layer_factory.hpp:77] Creating layer pool3/3x3_s2_pool3/3x3_s2_0_split
I0403 15:45:47.335793 20246 net.cpp:91] Creating Layer pool3/3x3_s2_pool3/3x3_s2_0_split
I0403 15:45:47.335808 20246 net.cpp:425] pool3/3x3_s2_pool3/3x3_s2_0_split <- pool3/3x3_s2
I0403 15:45:47.335826 20246 net.cpp:399] pool3/3x3_s2_pool3/3x3_s2_0_split -> pool3/3x3_s2_pool3/3x3_s2_0_split_0
I0403 15:45:47.335846 20246 net.cpp:399] pool3/3x3_s2_pool3/3x3_s2_0_split -> pool3/3x3_s2_pool3/3x3_s2_0_split_1
I0403 15:45:47.335865 20246 net.cpp:399] pool3/3x3_s2_pool3/3x3_s2_0_split -> pool3/3x3_s2_pool3/3x3_s2_0_split_2
I0403 15:45:47.335885 20246 net.cpp:399] pool3/3x3_s2_pool3/3x3_s2_0_split -> pool3/3x3_s2_pool3/3x3_s2_0_split_3
I0403 15:45:47.335960 20246 net.cpp:141] Setting up pool3/3x3_s2_pool3/3x3_s2_0_split
I0403 15:45:47.335983 20246 net.cpp:148] Top shape: 24 480 14 14 (2257920)
I0403 15:45:47.336000 20246 net.cpp:148] Top shape: 24 480 14 14 (2257920)
I0403 15:45:47.336015 20246 net.cpp:148] Top shape: 24 480 14 14 (2257920)
I0403 15:45:47.336030 20246 net.cpp:148] Top shape: 24 480 14 14 (2257920)
I0403 15:45:47.336045 20246 net.cpp:156] Memory required for data: 854397984
I0403 15:45:47.336063 20246 layer_factory.hpp:77] Creating layer inception_4a/1x1
I0403 15:45:47.336086 20246 net.cpp:91] Creating Layer inception_4a/1x1
I0403 15:45:47.336104 20246 net.cpp:425] inception_4a/1x1 <- pool3/3x3_s2_pool3/3x3_s2_0_split_0
I0403 15:45:47.336125 20246 net.cpp:399] inception_4a/1x1 -> inception_4a/1x1
I0403 15:45:47.337713 20246 net.cpp:141] Setting up inception_4a/1x1
I0403 15:45:47.337740 20246 net.cpp:148] Top shape: 24 192 14 14 (903168)
I0403 15:45:47.337756 20246 net.cpp:156] Memory required for data: 858010656
I0403 15:45:47.337774 20246 layer_factory.hpp:77] Creating layer inception_4a/relu_1x1
I0403 15:45:47.337793 20246 net.cpp:91] Creating Layer inception_4a/relu_1x1
I0403 15:45:47.337808 20246 net.cpp:425] inception_4a/relu_1x1 <- inception_4a/1x1
I0403 15:45:47.337827 20246 net.cpp:386] inception_4a/relu_1x1 -> inception_4a/1x1 (in-place)
I0403 15:45:47.338009 20246 net.cpp:141] Setting up inception_4a/relu_1x1
I0403 15:45:47.338034 20246 net.cpp:148] Top shape: 24 192 14 14 (903168)
I0403 15:45:47.338059 20246 net.cpp:156] Memory required for data: 861623328
I0403 15:45:47.338078 20246 layer_factory.hpp:77] Creating layer inception_4a/3x3_reduce
I0403 15:45:47.338099 20246 net.cpp:91] Creating Layer inception_4a/3x3_reduce
I0403 15:45:47.338117 20246 net.cpp:425] inception_4a/3x3_reduce <- pool3/3x3_s2_pool3/3x3_s2_0_split_1
I0403 15:45:47.338140 20246 net.cpp:399] inception_4a/3x3_reduce -> inception_4a/3x3_reduce
I0403 15:45:47.339448 20246 net.cpp:141] Setting up inception_4a/3x3_reduce
I0403 15:45:47.339476 20246 net.cpp:148] Top shape: 24 96 14 14 (451584)
I0403 15:45:47.339491 20246 net.cpp:156] Memory required for data: 863429664
I0403 15:45:47.339516 20246 layer_factory.hpp:77] Creating layer inception_4a/relu_3x3_reduce
I0403 15:45:47.339535 20246 net.cpp:91] Creating Layer inception_4a/relu_3x3_reduce
I0403 15:45:47.339551 20246 net.cpp:425] inception_4a/relu_3x3_reduce <- inception_4a/3x3_reduce
I0403 15:45:47.339571 20246 net.cpp:386] inception_4a/relu_3x3_reduce -> inception_4a/3x3_reduce (in-place)
I0403 15:45:47.339752 20246 net.cpp:141] Setting up inception_4a/relu_3x3_reduce
I0403 15:45:47.339778 20246 net.cpp:148] Top shape: 24 96 14 14 (451584)
I0403 15:45:47.339792 20246 net.cpp:156] Memory required for data: 865236000
I0403 15:45:47.339807 20246 layer_factory.hpp:77] Creating layer inception_4a/3x3
I0403 15:45:47.339829 20246 net.cpp:91] Creating Layer inception_4a/3x3
I0403 15:45:47.339846 20246 net.cpp:425] inception_4a/3x3 <- inception_4a/3x3_reduce
I0403 15:45:47.339867 20246 net.cpp:399] inception_4a/3x3 -> inception_4a/3x3
I0403 15:45:47.342598 20246 net.cpp:141] Setting up inception_4a/3x3
I0403 15:45:47.342628 20246 net.cpp:148] Top shape: 24 208 14 14 (978432)
I0403 15:45:47.342643 20246 net.cpp:156] Memory required for data: 869149728
I0403 15:45:47.342660 20246 layer_factory.hpp:77] Creating layer inception_4a/relu_3x3
I0403 15:45:47.342681 20246 net.cpp:91] Creating Layer inception_4a/relu_3x3
I0403 15:45:47.342699 20246 net.cpp:425] inception_4a/relu_3x3 <- inception_4a/3x3
I0403 15:45:47.342715 20246 net.cpp:386] inception_4a/relu_3x3 -> inception_4a/3x3 (in-place)
I0403 15:45:47.343011 20246 net.cpp:141] Setting up inception_4a/relu_3x3
I0403 15:45:47.343050 20246 net.cpp:148] Top shape: 24 208 14 14 (978432)
I0403 15:45:47.343067 20246 net.cpp:156] Memory required for data: 873063456
I0403 15:45:47.343082 20246 layer_factory.hpp:77] Creating layer inception_4a/5x5_reduce
I0403 15:45:47.343104 20246 net.cpp:91] Creating Layer inception_4a/5x5_reduce
I0403 15:45:47.343122 20246 net.cpp:425] inception_4a/5x5_reduce <- pool3/3x3_s2_pool3/3x3_s2_0_split_2
I0403 15:45:47.343144 20246 net.cpp:399] inception_4a/5x5_reduce -> inception_4a/5x5_reduce
I0403 15:45:47.344158 20246 net.cpp:141] Setting up inception_4a/5x5_reduce
I0403 15:45:47.344184 20246 net.cpp:148] Top shape: 24 16 14 14 (75264)
I0403 15:45:47.344199 20246 net.cpp:156] Memory required for data: 873364512
I0403 15:45:47.344218 20246 layer_factory.hpp:77] Creating layer inception_4a/relu_5x5_reduce
I0403 15:45:47.344238 20246 net.cpp:91] Creating Layer inception_4a/relu_5x5_reduce
I0403 15:45:47.344254 20246 net.cpp:425] inception_4a/relu_5x5_reduce <- inception_4a/5x5_reduce
I0403 15:45:47.344272 20246 net.cpp:386] inception_4a/relu_5x5_reduce -> inception_4a/5x5_reduce (in-place)
I0403 15:45:47.344446 20246 net.cpp:141] Setting up inception_4a/relu_5x5_reduce
I0403 15:45:47.344472 20246 net.cpp:148] Top shape: 24 16 14 14 (75264)
I0403 15:45:47.344486 20246 net.cpp:156] Memory required for data: 873665568
I0403 15:45:47.344501 20246 layer_factory.hpp:77] Creating layer inception_4a/5x5
I0403 15:45:47.344523 20246 net.cpp:91] Creating Layer inception_4a/5x5
I0403 15:45:47.344540 20246 net.cpp:425] inception_4a/5x5 <- inception_4a/5x5_reduce
I0403 15:45:47.344560 20246 net.cpp:399] inception_4a/5x5 -> inception_4a/5x5
I0403 15:45:47.345639 20246 net.cpp:141] Setting up inception_4a/5x5
I0403 15:45:47.345669 20246 net.cpp:148] Top shape: 24 48 14 14 (225792)
I0403 15:45:47.345684 20246 net.cpp:156] Memory required for data: 874568736
I0403 15:45:47.345701 20246 layer_factory.hpp:77] Creating layer inception_4a/relu_5x5
I0403 15:45:47.345718 20246 net.cpp:91] Creating Layer inception_4a/relu_5x5
I0403 15:45:47.345734 20246 net.cpp:425] inception_4a/relu_5x5 <- inception_4a/5x5
I0403 15:45:47.345752 20246 net.cpp:386] inception_4a/relu_5x5 -> inception_4a/5x5 (in-place)
I0403 15:45:47.345947 20246 net.cpp:141] Setting up inception_4a/relu_5x5
I0403 15:45:47.345974 20246 net.cpp:148] Top shape: 24 48 14 14 (225792)
I0403 15:45:47.345988 20246 net.cpp:156] Memory required for data: 875471904
I0403 15:45:47.346004 20246 layer_factory.hpp:77] Creating layer inception_4a/pool
I0403 15:45:47.346021 20246 net.cpp:91] Creating Layer inception_4a/pool
I0403 15:45:47.346037 20246 net.cpp:425] inception_4a/pool <- pool3/3x3_s2_pool3/3x3_s2_0_split_3
I0403 15:45:47.346062 20246 net.cpp:399] inception_4a/pool -> inception_4a/pool
I0403 15:45:47.346138 20246 net.cpp:141] Setting up inception_4a/pool
I0403 15:45:47.346161 20246 net.cpp:148] Top shape: 24 480 14 14 (2257920)
I0403 15:45:47.346175 20246 net.cpp:156] Memory required for data: 884503584
I0403 15:45:47.346190 20246 layer_factory.hpp:77] Creating layer inception_4a/pool_proj
I0403 15:45:47.346212 20246 net.cpp:91] Creating Layer inception_4a/pool_proj
I0403 15:45:47.346230 20246 net.cpp:425] inception_4a/pool_proj <- inception_4a/pool
I0403 15:45:47.346247 20246 net.cpp:399] inception_4a/pool_proj -> inception_4a/pool_proj
I0403 15:45:47.347399 20246 net.cpp:141] Setting up inception_4a/pool_proj
I0403 15:45:47.347427 20246 net.cpp:148] Top shape: 24 64 14 14 (301056)
I0403 15:45:47.347458 20246 net.cpp:156] Memory required for data: 885707808
I0403 15:45:47.347477 20246 layer_factory.hpp:77] Creating layer inception_4a/relu_pool_proj
I0403 15:45:47.347494 20246 net.cpp:91] Creating Layer inception_4a/relu_pool_proj
I0403 15:45:47.347512 20246 net.cpp:425] inception_4a/relu_pool_proj <- inception_4a/pool_proj
I0403 15:45:47.347529 20246 net.cpp:386] inception_4a/relu_pool_proj -> inception_4a/pool_proj (in-place)
I0403 15:45:47.347823 20246 net.cpp:141] Setting up inception_4a/relu_pool_proj
I0403 15:45:47.347851 20246 net.cpp:148] Top shape: 24 64 14 14 (301056)
I0403 15:45:47.347865 20246 net.cpp:156] Memory required for data: 886912032
I0403 15:45:47.347879 20246 layer_factory.hpp:77] Creating layer inception_4a/output
I0403 15:45:47.347898 20246 net.cpp:91] Creating Layer inception_4a/output
I0403 15:45:47.347913 20246 net.cpp:425] inception_4a/output <- inception_4a/1x1
I0403 15:45:47.347929 20246 net.cpp:425] inception_4a/output <- inception_4a/3x3
I0403 15:45:47.347945 20246 net.cpp:425] inception_4a/output <- inception_4a/5x5
I0403 15:45:47.347962 20246 net.cpp:425] inception_4a/output <- inception_4a/pool_proj
I0403 15:45:47.347981 20246 net.cpp:399] inception_4a/output -> inception_4a/output
I0403 15:45:47.348026 20246 net.cpp:141] Setting up inception_4a/output
I0403 15:45:47.348062 20246 net.cpp:148] Top shape: 24 512 14 14 (2408448)
I0403 15:45:47.348081 20246 net.cpp:156] Memory required for data: 896545824
I0403 15:45:47.348096 20246 layer_factory.hpp:77] Creating layer inception_4a/output_inception_4a/output_0_split
I0403 15:45:47.348114 20246 net.cpp:91] Creating Layer inception_4a/output_inception_4a/output_0_split
I0403 15:45:47.348130 20246 net.cpp:425] inception_4a/output_inception_4a/output_0_split <- inception_4a/output
I0403 15:45:47.348150 20246 net.cpp:399] inception_4a/output_inception_4a/output_0_split -> inception_4a/output_inception_4a/output_0_split_0
I0403 15:45:47.348172 20246 net.cpp:399] inception_4a/output_inception_4a/output_0_split -> inception_4a/output_inception_4a/output_0_split_1
I0403 15:45:47.348192 20246 net.cpp:399] inception_4a/output_inception_4a/output_0_split -> inception_4a/output_inception_4a/output_0_split_2
I0403 15:45:47.348212 20246 net.cpp:399] inception_4a/output_inception_4a/output_0_split -> inception_4a/output_inception_4a/output_0_split_3
I0403 15:45:47.348232 20246 net.cpp:399] inception_4a/output_inception_4a/output_0_split -> inception_4a/output_inception_4a/output_0_split_4
I0403 15:45:47.348325 20246 net.cpp:141] Setting up inception_4a/output_inception_4a/output_0_split
I0403 15:45:47.348348 20246 net.cpp:148] Top shape: 24 512 14 14 (2408448)
I0403 15:45:47.348364 20246 net.cpp:148] Top shape: 24 512 14 14 (2408448)
I0403 15:45:47.348381 20246 net.cpp:148] Top shape: 24 512 14 14 (2408448)
I0403 15:45:47.348397 20246 net.cpp:148] Top shape: 24 512 14 14 (2408448)
I0403 15:45:47.348412 20246 net.cpp:148] Top shape: 24 512 14 14 (2408448)
I0403 15:45:47.348425 20246 net.cpp:156] Memory required for data: 944714784
I0403 15:45:47.348439 20246 layer_factory.hpp:77] Creating layer loss1/ave_pool
I0403 15:45:47.348459 20246 net.cpp:91] Creating Layer loss1/ave_pool
I0403 15:45:47.348476 20246 net.cpp:425] loss1/ave_pool <- inception_4a/output_inception_4a/output_0_split_0
I0403 15:45:47.348495 20246 net.cpp:399] loss1/ave_pool -> loss1/ave_pool
I0403 15:45:47.348709 20246 net.cpp:141] Setting up loss1/ave_pool
I0403 15:45:47.348736 20246 net.cpp:148] Top shape: 24 512 4 4 (196608)
I0403 15:45:47.348750 20246 net.cpp:156] Memory required for data: 945501216
I0403 15:45:47.348764 20246 layer_factory.hpp:77] Creating layer loss1/conv
I0403 15:45:47.348788 20246 net.cpp:91] Creating Layer loss1/conv
I0403 15:45:47.348804 20246 net.cpp:425] loss1/conv <- loss1/ave_pool
I0403 15:45:47.348825 20246 net.cpp:399] loss1/conv -> loss1/conv
I0403 15:45:47.350268 20246 net.cpp:141] Setting up loss1/conv
I0403 15:45:47.350296 20246 net.cpp:148] Top shape: 24 128 4 4 (49152)
I0403 15:45:47.350327 20246 net.cpp:156] Memory required for data: 945697824
I0403 15:45:47.350347 20246 layer_factory.hpp:77] Creating layer loss1/relu_conv
I0403 15:45:47.350366 20246 net.cpp:91] Creating Layer loss1/relu_conv
I0403 15:45:47.350383 20246 net.cpp:425] loss1/relu_conv <- loss1/conv
I0403 15:45:47.350400 20246 net.cpp:386] loss1/relu_conv -> loss1/conv (in-place)
I0403 15:45:47.350692 20246 net.cpp:141] Setting up loss1/relu_conv
I0403 15:45:47.350718 20246 net.cpp:148] Top shape: 24 128 4 4 (49152)
I0403 15:45:47.350733 20246 net.cpp:156] Memory required for data: 945894432
I0403 15:45:47.350749 20246 layer_factory.hpp:77] Creating layer loss1/fc
I0403 15:45:47.350774 20246 net.cpp:91] Creating Layer loss1/fc
I0403 15:45:47.350791 20246 net.cpp:425] loss1/fc <- loss1/conv
I0403 15:45:47.350812 20246 net.cpp:399] loss1/fc -> loss1/fc
I0403 15:45:47.369132 20246 net.cpp:141] Setting up loss1/fc
I0403 15:45:47.369189 20246 net.cpp:148] Top shape: 24 1024 (24576)
I0403 15:45:47.369205 20246 net.cpp:156] Memory required for data: 945992736
I0403 15:45:47.369226 20246 layer_factory.hpp:77] Creating layer loss1/relu_fc
I0403 15:45:47.369258 20246 net.cpp:91] Creating Layer loss1/relu_fc
I0403 15:45:47.369276 20246 net.cpp:425] loss1/relu_fc <- loss1/fc
I0403 15:45:47.369297 20246 net.cpp:386] loss1/relu_fc -> loss1/fc (in-place)
I0403 15:45:47.369511 20246 net.cpp:141] Setting up loss1/relu_fc
I0403 15:45:47.369537 20246 net.cpp:148] Top shape: 24 1024 (24576)
I0403 15:45:47.369551 20246 net.cpp:156] Memory required for data: 946091040
I0403 15:45:47.369566 20246 layer_factory.hpp:77] Creating layer loss1/drop_fc
I0403 15:45:47.369598 20246 net.cpp:91] Creating Layer loss1/drop_fc
I0403 15:45:47.369616 20246 net.cpp:425] loss1/drop_fc <- loss1/fc
I0403 15:45:47.369634 20246 net.cpp:386] loss1/drop_fc -> loss1/fc (in-place)
I0403 15:45:47.369688 20246 net.cpp:141] Setting up loss1/drop_fc
I0403 15:45:47.369714 20246 net.cpp:148] Top shape: 24 1024 (24576)
I0403 15:45:47.369730 20246 net.cpp:156] Memory required for data: 946189344
I0403 15:45:47.369745 20246 layer_factory.hpp:77] Creating layer loss1/classifier_plantvillage
I0403 15:45:47.369765 20246 net.cpp:91] Creating Layer loss1/classifier_plantvillage
I0403 15:45:47.369781 20246 net.cpp:425] loss1/classifier_plantvillage <- loss1/fc
I0403 15:45:47.369804 20246 net.cpp:399] loss1/classifier_plantvillage -> loss1/classifier_plantvillage
I0403 15:45:47.370757 20246 net.cpp:141] Setting up loss1/classifier_plantvillage
I0403 15:45:47.370786 20246 net.cpp:148] Top shape: 24 38 (912)
I0403 15:45:47.370801 20246 net.cpp:156] Memory required for data: 946192992
I0403 15:45:47.370820 20246 layer_factory.hpp:77] Creating layer loss1/classifier_plantvillage_loss1/classifier_plantvillage_0_split
I0403 15:45:47.370838 20246 net.cpp:91] Creating Layer loss1/classifier_plantvillage_loss1/classifier_plantvillage_0_split
I0403 15:45:47.370853 20246 net.cpp:425] loss1/classifier_plantvillage_loss1/classifier_plantvillage_0_split <- loss1/classifier_plantvillage
I0403 15:45:47.370873 20246 net.cpp:399] loss1/classifier_plantvillage_loss1/classifier_plantvillage_0_split -> loss1/classifier_plantvillage_loss1/classifier_plantvillage_0_split_0
I0403 15:45:47.370895 20246 net.cpp:399] loss1/classifier_plantvillage_loss1/classifier_plantvillage_0_split -> loss1/classifier_plantvillage_loss1/classifier_plantvillage_0_split_1
I0403 15:45:47.370915 20246 net.cpp:399] loss1/classifier_plantvillage_loss1/classifier_plantvillage_0_split -> loss1/classifier_plantvillage_loss1/classifier_plantvillage_0_split_2
I0403 15:45:47.370985 20246 net.cpp:141] Setting up loss1/classifier_plantvillage_loss1/classifier_plantvillage_0_split
I0403 15:45:47.371007 20246 net.cpp:148] Top shape: 24 38 (912)
I0403 15:45:47.371024 20246 net.cpp:148] Top shape: 24 38 (912)
I0403 15:45:47.371039 20246 net.cpp:148] Top shape: 24 38 (912)
I0403 15:45:47.371058 20246 net.cpp:156] Memory required for data: 946203936
I0403 15:45:47.371073 20246 layer_factory.hpp:77] Creating layer inception_4b/1x1
I0403 15:45:47.371098 20246 net.cpp:91] Creating Layer inception_4b/1x1
I0403 15:45:47.371141 20246 net.cpp:425] inception_4b/1x1 <- inception_4a/output_inception_4a/output_0_split_1
I0403 15:45:47.371161 20246 net.cpp:399] inception_4b/1x1 -> inception_4b/1x1
I0403 15:45:47.372916 20246 net.cpp:141] Setting up inception_4b/1x1
I0403 15:45:47.372959 20246 net.cpp:148] Top shape: 24 160 14 14 (752640)
I0403 15:45:47.372974 20246 net.cpp:156] Memory required for data: 949214496
I0403 15:45:47.372993 20246 layer_factory.hpp:77] Creating layer inception_4b/relu_1x1
I0403 15:45:47.373013 20246 net.cpp:91] Creating Layer inception_4b/relu_1x1
I0403 15:45:47.373031 20246 net.cpp:425] inception_4b/relu_1x1 <- inception_4b/1x1
I0403 15:45:47.373054 20246 net.cpp:386] inception_4b/relu_1x1 -> inception_4b/1x1 (in-place)
I0403 15:45:47.373265 20246 net.cpp:141] Setting up inception_4b/relu_1x1
I0403 15:45:47.373296 20246 net.cpp:148] Top shape: 24 160 14 14 (752640)
I0403 15:45:47.373312 20246 net.cpp:156] Memory required for data: 952225056
I0403 15:45:47.373327 20246 layer_factory.hpp:77] Creating layer inception_4b/3x3_reduce
I0403 15:45:47.373356 20246 net.cpp:91] Creating Layer inception_4b/3x3_reduce
I0403 15:45:47.373375 20246 net.cpp:425] inception_4b/3x3_reduce <- inception_4a/output_inception_4a/output_0_split_2
I0403 15:45:47.373406 20246 net.cpp:399] inception_4b/3x3_reduce -> inception_4b/3x3_reduce
I0403 15:45:47.374833 20246 net.cpp:141] Setting up inception_4b/3x3_reduce
I0403 15:45:47.374866 20246 net.cpp:148] Top shape: 24 112 14 14 (526848)
I0403 15:45:47.374882 20246 net.cpp:156] Memory required for data: 954332448
I0403 15:45:47.374902 20246 layer_factory.hpp:77] Creating layer inception_4b/relu_3x3_reduce
I0403 15:45:47.374920 20246 net.cpp:91] Creating Layer inception_4b/relu_3x3_reduce
I0403 15:45:47.374938 20246 net.cpp:425] inception_4b/relu_3x3_reduce <- inception_4b/3x3_reduce
I0403 15:45:47.374954 20246 net.cpp:386] inception_4b/relu_3x3_reduce -> inception_4b/3x3_reduce (in-place)
I0403 15:45:47.375255 20246 net.cpp:141] Setting up inception_4b/relu_3x3_reduce
I0403 15:45:47.375286 20246 net.cpp:148] Top shape: 24 112 14 14 (526848)
I0403 15:45:47.375303 20246 net.cpp:156] Memory required for data: 956439840
I0403 15:45:47.375318 20246 layer_factory.hpp:77] Creating layer inception_4b/3x3
I0403 15:45:47.375341 20246 net.cpp:91] Creating Layer inception_4b/3x3
I0403 15:45:47.375360 20246 net.cpp:425] inception_4b/3x3 <- inception_4b/3x3_reduce
I0403 15:45:47.375378 20246 net.cpp:399] inception_4b/3x3 -> inception_4b/3x3
I0403 15:45:47.378541 20246 net.cpp:141] Setting up inception_4b/3x3
I0403 15:45:47.378571 20246 net.cpp:148] Top shape: 24 224 14 14 (1053696)
I0403 15:45:47.378588 20246 net.cpp:156] Memory required for data: 960654624
I0403 15:45:47.378607 20246 layer_factory.hpp:77] Creating layer inception_4b/relu_3x3
I0403 15:45:47.378625 20246 net.cpp:91] Creating Layer inception_4b/relu_3x3
I0403 15:45:47.378643 20246 net.cpp:425] inception_4b/relu_3x3 <- inception_4b/3x3
I0403 15:45:47.378664 20246 net.cpp:386] inception_4b/relu_3x3 -> inception_4b/3x3 (in-place)
I0403 15:45:47.378857 20246 net.cpp:141] Setting up inception_4b/relu_3x3
I0403 15:45:47.378885 20246 net.cpp:148] Top shape: 24 224 14 14 (1053696)
I0403 15:45:47.378900 20246 net.cpp:156] Memory required for data: 964869408
I0403 15:45:47.378914 20246 layer_factory.hpp:77] Creating layer inception_4b/5x5_reduce
I0403 15:45:47.378937 20246 net.cpp:91] Creating Layer inception_4b/5x5_reduce
I0403 15:45:47.378957 20246 net.cpp:425] inception_4b/5x5_reduce <- inception_4a/output_inception_4a/output_0_split_3
I0403 15:45:47.378979 20246 net.cpp:399] inception_4b/5x5_reduce -> inception_4b/5x5_reduce
I0403 15:45:47.380137 20246 net.cpp:141] Setting up inception_4b/5x5_reduce
I0403 15:45:47.380169 20246 net.cpp:148] Top shape: 24 24 14 14 (112896)
I0403 15:45:47.380187 20246 net.cpp:156] Memory required for data: 965320992
I0403 15:45:47.380206 20246 layer_factory.hpp:77] Creating layer inception_4b/relu_5x5_reduce
I0403 15:45:47.380225 20246 net.cpp:91] Creating Layer inception_4b/relu_5x5_reduce
I0403 15:45:47.380257 20246 net.cpp:425] inception_4b/relu_5x5_reduce <- inception_4b/5x5_reduce
I0403 15:45:47.380277 20246 net.cpp:386] inception_4b/relu_5x5_reduce -> inception_4b/5x5_reduce (in-place)
I0403 15:45:47.380473 20246 net.cpp:141] Setting up inception_4b/relu_5x5_reduce
I0403 15:45:47.380502 20246 net.cpp:148] Top shape: 24 24 14 14 (112896)
I0403 15:45:47.380522 20246 net.cpp:156] Memory required for data: 965772576
I0403 15:45:47.380538 20246 layer_factory.hpp:77] Creating layer inception_4b/5x5
I0403 15:45:47.380561 20246 net.cpp:91] Creating Layer inception_4b/5x5
I0403 15:45:47.380579 20246 net.cpp:425] inception_4b/5x5 <- inception_4b/5x5_reduce
I0403 15:45:47.380601 20246 net.cpp:399] inception_4b/5x5 -> inception_4b/5x5
I0403 15:45:47.381896 20246 net.cpp:141] Setting up inception_4b/5x5
I0403 15:45:47.381927 20246 net.cpp:148] Top shape: 24 64 14 14 (301056)
I0403 15:45:47.381942 20246 net.cpp:156] Memory required for data: 966976800
I0403 15:45:47.381963 20246 layer_factory.hpp:77] Creating layer inception_4b/relu_5x5
I0403 15:45:47.381984 20246 net.cpp:91] Creating Layer inception_4b/relu_5x5
I0403 15:45:47.382002 20246 net.cpp:425] inception_4b/relu_5x5 <- inception_4b/5x5
I0403 15:45:47.382019 20246 net.cpp:386] inception_4b/relu_5x5 -> inception_4b/5x5 (in-place)
I0403 15:45:47.382329 20246 net.cpp:141] Setting up inception_4b/relu_5x5
I0403 15:45:47.382357 20246 net.cpp:148] Top shape: 24 64 14 14 (301056)
I0403 15:45:47.382374 20246 net.cpp:156] Memory required for data: 968181024
I0403 15:45:47.382388 20246 layer_factory.hpp:77] Creating layer inception_4b/pool
I0403 15:45:47.382410 20246 net.cpp:91] Creating Layer inception_4b/pool
I0403 15:45:47.382427 20246 net.cpp:425] inception_4b/pool <- inception_4a/output_inception_4a/output_0_split_4
I0403 15:45:47.382447 20246 net.cpp:399] inception_4b/pool -> inception_4b/pool
I0403 15:45:47.382516 20246 net.cpp:141] Setting up inception_4b/pool
I0403 15:45:47.382541 20246 net.cpp:148] Top shape: 24 512 14 14 (2408448)
I0403 15:45:47.382556 20246 net.cpp:156] Memory required for data: 977814816
I0403 15:45:47.382571 20246 layer_factory.hpp:77] Creating layer inception_4b/pool_proj
I0403 15:45:47.382594 20246 net.cpp:91] Creating Layer inception_4b/pool_proj
I0403 15:45:47.382612 20246 net.cpp:425] inception_4b/pool_proj <- inception_4b/pool
I0403 15:45:47.382633 20246 net.cpp:399] inception_4b/pool_proj -> inception_4b/pool_proj
I0403 15:45:47.383904 20246 net.cpp:141] Setting up inception_4b/pool_proj
I0403 15:45:47.383934 20246 net.cpp:148] Top shape: 24 64 14 14 (301056)
I0403 15:45:47.383950 20246 net.cpp:156] Memory required for data: 979019040
I0403 15:45:47.383971 20246 layer_factory.hpp:77] Creating layer inception_4b/relu_pool_proj
I0403 15:45:47.383992 20246 net.cpp:91] Creating Layer inception_4b/relu_pool_proj
I0403 15:45:47.384011 20246 net.cpp:425] inception_4b/relu_pool_proj <- inception_4b/pool_proj
I0403 15:45:47.384027 20246 net.cpp:386] inception_4b/relu_pool_proj -> inception_4b/pool_proj (in-place)
I0403 15:45:47.384223 20246 net.cpp:141] Setting up inception_4b/relu_pool_proj
I0403 15:45:47.384253 20246 net.cpp:148] Top shape: 24 64 14 14 (301056)
I0403 15:45:47.384269 20246 net.cpp:156] Memory required for data: 980223264
I0403 15:45:47.384284 20246 layer_factory.hpp:77] Creating layer inception_4b/output
I0403 15:45:47.384302 20246 net.cpp:91] Creating Layer inception_4b/output
I0403 15:45:47.384320 20246 net.cpp:425] inception_4b/output <- inception_4b/1x1
I0403 15:45:47.384336 20246 net.cpp:425] inception_4b/output <- inception_4b/3x3
I0403 15:45:47.384352 20246 net.cpp:425] inception_4b/output <- inception_4b/5x5
I0403 15:45:47.384368 20246 net.cpp:425] inception_4b/output <- inception_4b/pool_proj
I0403 15:45:47.384393 20246 net.cpp:399] inception_4b/output -> inception_4b/output
I0403 15:45:47.384443 20246 net.cpp:141] Setting up inception_4b/output
I0403 15:45:47.384471 20246 net.cpp:148] Top shape: 24 512 14 14 (2408448)
I0403 15:45:47.384497 20246 net.cpp:156] Memory required for data: 989857056
I0403 15:45:47.384527 20246 layer_factory.hpp:77] Creating layer inception_4b/output_inception_4b/output_0_split
I0403 15:45:47.384547 20246 net.cpp:91] Creating Layer inception_4b/output_inception_4b/output_0_split
I0403 15:45:47.384563 20246 net.cpp:425] inception_4b/output_inception_4b/output_0_split <- inception_4b/output
I0403 15:45:47.384582 20246 net.cpp:399] inception_4b/output_inception_4b/output_0_split -> inception_4b/output_inception_4b/output_0_split_0
I0403 15:45:47.384603 20246 net.cpp:399] inception_4b/output_inception_4b/output_0_split -> inception_4b/output_inception_4b/output_0_split_1
I0403 15:45:47.384626 20246 net.cpp:399] inception_4b/output_inception_4b/output_0_split -> inception_4b/output_inception_4b/output_0_split_2
I0403 15:45:47.384649 20246 net.cpp:399] inception_4b/output_inception_4b/output_0_split -> inception_4b/output_inception_4b/output_0_split_3
I0403 15:45:47.384738 20246 net.cpp:141] Setting up inception_4b/output_inception_4b/output_0_split
I0403 15:45:47.384768 20246 net.cpp:148] Top shape: 24 512 14 14 (2408448)
I0403 15:45:47.384791 20246 net.cpp:148] Top shape: 24 512 14 14 (2408448)
I0403 15:45:47.384815 20246 net.cpp:148] Top shape: 24 512 14 14 (2408448)
I0403 15:45:47.384838 20246 net.cpp:148] Top shape: 24 512 14 14 (2408448)
I0403 15:45:47.384861 20246 net.cpp:156] Memory required for data: 1028392224
I0403 15:45:47.384884 20246 layer_factory.hpp:77] Creating layer inception_4c/1x1
I0403 15:45:47.384914 20246 net.cpp:91] Creating Layer inception_4c/1x1
I0403 15:45:47.384939 20246 net.cpp:425] inception_4c/1x1 <- inception_4b/output_inception_4b/output_0_split_0
I0403 15:45:47.384961 20246 net.cpp:399] inception_4c/1x1 -> inception_4c/1x1
I0403 15:45:47.386489 20246 net.cpp:141] Setting up inception_4c/1x1
I0403 15:45:47.386518 20246 net.cpp:148] Top shape: 24 128 14 14 (602112)
I0403 15:45:47.386534 20246 net.cpp:156] Memory required for data: 1030800672
I0403 15:45:47.386554 20246 layer_factory.hpp:77] Creating layer inception_4c/relu_1x1
I0403 15:45:47.386572 20246 net.cpp:91] Creating Layer inception_4c/relu_1x1
I0403 15:45:47.386589 20246 net.cpp:425] inception_4c/relu_1x1 <- inception_4c/1x1
I0403 15:45:47.386608 20246 net.cpp:386] inception_4c/relu_1x1 -> inception_4c/1x1 (in-place)
I0403 15:45:47.386801 20246 net.cpp:141] Setting up inception_4c/relu_1x1
I0403 15:45:47.386827 20246 net.cpp:148] Top shape: 24 128 14 14 (602112)
I0403 15:45:47.386842 20246 net.cpp:156] Memory required for data: 1033209120
I0403 15:45:47.386857 20246 layer_factory.hpp:77] Creating layer inception_4c/3x3_reduce
I0403 15:45:47.386881 20246 net.cpp:91] Creating Layer inception_4c/3x3_reduce
I0403 15:45:47.386899 20246 net.cpp:425] inception_4c/3x3_reduce <- inception_4b/output_inception_4b/output_0_split_1
I0403 15:45:47.386921 20246 net.cpp:399] inception_4c/3x3_reduce -> inception_4c/3x3_reduce
I0403 15:45:47.388988 20246 net.cpp:141] Setting up inception_4c/3x3_reduce
I0403 15:45:47.389019 20246 net.cpp:148] Top shape: 24 128 14 14 (602112)
I0403 15:45:47.389035 20246 net.cpp:156] Memory required for data: 1035617568
I0403 15:45:47.389060 20246 layer_factory.hpp:77] Creating layer inception_4c/relu_3x3_reduce
I0403 15:45:47.389082 20246 net.cpp:91] Creating Layer inception_4c/relu_3x3_reduce
I0403 15:45:47.389101 20246 net.cpp:425] inception_4c/relu_3x3_reduce <- inception_4c/3x3_reduce
I0403 15:45:47.389117 20246 net.cpp:386] inception_4c/relu_3x3_reduce -> inception_4c/3x3_reduce (in-place)
I0403 15:45:47.389422 20246 net.cpp:141] Setting up inception_4c/relu_3x3_reduce
I0403 15:45:47.389451 20246 net.cpp:148] Top shape: 24 128 14 14 (602112)
I0403 15:45:47.389467 20246 net.cpp:156] Memory required for data: 1038026016
I0403 15:45:47.389482 20246 layer_factory.hpp:77] Creating layer inception_4c/3x3
I0403 15:45:47.389504 20246 net.cpp:91] Creating Layer inception_4c/3x3
I0403 15:45:47.389523 20246 net.cpp:425] inception_4c/3x3 <- inception_4c/3x3_reduce
I0403 15:45:47.389544 20246 net.cpp:399] inception_4c/3x3 -> inception_4c/3x3
I0403 15:45:47.393388 20246 net.cpp:141] Setting up inception_4c/3x3
I0403 15:45:47.393429 20246 net.cpp:148] Top shape: 24 256 14 14 (1204224)
I0403 15:45:47.393445 20246 net.cpp:156] Memory required for data: 1042842912
I0403 15:45:47.393477 20246 layer_factory.hpp:77] Creating layer inception_4c/relu_3x3
I0403 15:45:47.393499 20246 net.cpp:91] Creating Layer inception_4c/relu_3x3
I0403 15:45:47.393517 20246 net.cpp:425] inception_4c/relu_3x3 <- inception_4c/3x3
I0403 15:45:47.393533 20246 net.cpp:386] inception_4c/relu_3x3 -> inception_4c/3x3 (in-place)
I0403 15:45:47.393715 20246 net.cpp:141] Setting up inception_4c/relu_3x3
I0403 15:45:47.393743 20246 net.cpp:148] Top shape: 24 256 14 14 (1204224)
I0403 15:45:47.393757 20246 net.cpp:156] Memory required for data: 1047659808
I0403 15:45:47.393771 20246 layer_factory.hpp:77] Creating layer inception_4c/5x5_reduce
I0403 15:45:47.393795 20246 net.cpp:91] Creating Layer inception_4c/5x5_reduce
I0403 15:45:47.393813 20246 net.cpp:425] inception_4c/5x5_reduce <- inception_4b/output_inception_4b/output_0_split_2
I0403 15:45:47.393831 20246 net.cpp:399] inception_4c/5x5_reduce -> inception_4c/5x5_reduce
I0403 15:45:47.396193 20246 net.cpp:141] Setting up inception_4c/5x5_reduce
I0403 15:45:47.396224 20246 net.cpp:148] Top shape: 24 24 14 14 (112896)
I0403 15:45:47.396240 20246 net.cpp:156] Memory required for data: 1048111392
I0403 15:45:47.396258 20246 layer_factory.hpp:77] Creating layer inception_4c/relu_5x5_reduce
I0403 15:45:47.396276 20246 net.cpp:91] Creating Layer inception_4c/relu_5x5_reduce
I0403 15:45:47.396292 20246 net.cpp:425] inception_4c/relu_5x5_reduce <- inception_4c/5x5_reduce
I0403 15:45:47.396309 20246 net.cpp:386] inception_4c/relu_5x5_reduce -> inception_4c/5x5_reduce (in-place)
I0403 15:45:47.396494 20246 net.cpp:141] Setting up inception_4c/relu_5x5_reduce
I0403 15:45:47.396522 20246 net.cpp:148] Top shape: 24 24 14 14 (112896)
I0403 15:45:47.396536 20246 net.cpp:156] Memory required for data: 1048562976
I0403 15:45:47.396551 20246 layer_factory.hpp:77] Creating layer inception_4c/5x5
I0403 15:45:47.396572 20246 net.cpp:91] Creating Layer inception_4c/5x5
I0403 15:45:47.396590 20246 net.cpp:425] inception_4c/5x5 <- inception_4c/5x5_reduce
I0403 15:45:47.396608 20246 net.cpp:399] inception_4c/5x5 -> inception_4c/5x5
I0403 15:45:47.397846 20246 net.cpp:141] Setting up inception_4c/5x5
I0403 15:45:47.397873 20246 net.cpp:148] Top shape: 24 64 14 14 (301056)
I0403 15:45:47.397888 20246 net.cpp:156] Memory required for data: 1049767200
I0403 15:45:47.397907 20246 layer_factory.hpp:77] Creating layer inception_4c/relu_5x5
I0403 15:45:47.397923 20246 net.cpp:91] Creating Layer inception_4c/relu_5x5
I0403 15:45:47.397939 20246 net.cpp:425] inception_4c/relu_5x5 <- inception_4c/5x5
I0403 15:45:47.397958 20246 net.cpp:386] inception_4c/relu_5x5 -> inception_4c/5x5 (in-place)
I0403 15:45:47.398258 20246 net.cpp:141] Setting up inception_4c/relu_5x5
I0403 15:45:47.398284 20246 net.cpp:148] Top shape: 24 64 14 14 (301056)
I0403 15:45:47.398299 20246 net.cpp:156] Memory required for data: 1050971424
I0403 15:45:47.398313 20246 layer_factory.hpp:77] Creating layer inception_4c/pool
I0403 15:45:47.398331 20246 net.cpp:91] Creating Layer inception_4c/pool
I0403 15:45:47.398346 20246 net.cpp:425] inception_4c/pool <- inception_4b/output_inception_4b/output_0_split_3
I0403 15:45:47.398366 20246 net.cpp:399] inception_4c/pool -> inception_4c/pool
I0403 15:45:47.398432 20246 net.cpp:141] Setting up inception_4c/pool
I0403 15:45:47.398455 20246 net.cpp:148] Top shape: 24 512 14 14 (2408448)
I0403 15:45:47.398469 20246 net.cpp:156] Memory required for data: 1060605216
I0403 15:45:47.398483 20246 layer_factory.hpp:77] Creating layer inception_4c/pool_proj
I0403 15:45:47.398509 20246 net.cpp:91] Creating Layer inception_4c/pool_proj
I0403 15:45:47.398525 20246 net.cpp:425] inception_4c/pool_proj <- inception_4c/pool
I0403 15:45:47.398543 20246 net.cpp:399] inception_4c/pool_proj -> inception_4c/pool_proj
I0403 15:45:47.399811 20246 net.cpp:141] Setting up inception_4c/pool_proj
I0403 15:45:47.399839 20246 net.cpp:148] Top shape: 24 64 14 14 (301056)
I0403 15:45:47.399869 20246 net.cpp:156] Memory required for data: 1061809440
I0403 15:45:47.399888 20246 layer_factory.hpp:77] Creating layer inception_4c/relu_pool_proj
I0403 15:45:47.399907 20246 net.cpp:91] Creating Layer inception_4c/relu_pool_proj
I0403 15:45:47.399924 20246 net.cpp:425] inception_4c/relu_pool_proj <- inception_4c/pool_proj
I0403 15:45:47.399941 20246 net.cpp:386] inception_4c/relu_pool_proj -> inception_4c/pool_proj (in-place)
I0403 15:45:47.400132 20246 net.cpp:141] Setting up inception_4c/relu_pool_proj
I0403 15:45:47.400157 20246 net.cpp:148] Top shape: 24 64 14 14 (301056)
I0403 15:45:47.400171 20246 net.cpp:156] Memory required for data: 1063013664
I0403 15:45:47.400187 20246 layer_factory.hpp:77] Creating layer inception_4c/output
I0403 15:45:47.400203 20246 net.cpp:91] Creating Layer inception_4c/output
I0403 15:45:47.400218 20246 net.cpp:425] inception_4c/output <- inception_4c/1x1
I0403 15:45:47.400234 20246 net.cpp:425] inception_4c/output <- inception_4c/3x3
I0403 15:45:47.400249 20246 net.cpp:425] inception_4c/output <- inception_4c/5x5
I0403 15:45:47.400265 20246 net.cpp:425] inception_4c/output <- inception_4c/pool_proj
I0403 15:45:47.400284 20246 net.cpp:399] inception_4c/output -> inception_4c/output
I0403 15:45:47.400329 20246 net.cpp:141] Setting up inception_4c/output
I0403 15:45:47.400352 20246 net.cpp:148] Top shape: 24 512 14 14 (2408448)
I0403 15:45:47.400369 20246 net.cpp:156] Memory required for data: 1072647456
I0403 15:45:47.400383 20246 layer_factory.hpp:77] Creating layer inception_4c/output_inception_4c/output_0_split
I0403 15:45:47.400400 20246 net.cpp:91] Creating Layer inception_4c/output_inception_4c/output_0_split
I0403 15:45:47.400415 20246 net.cpp:425] inception_4c/output_inception_4c/output_0_split <- inception_4c/output
I0403 15:45:47.400432 20246 net.cpp:399] inception_4c/output_inception_4c/output_0_split -> inception_4c/output_inception_4c/output_0_split_0
I0403 15:45:47.400451 20246 net.cpp:399] inception_4c/output_inception_4c/output_0_split -> inception_4c/output_inception_4c/output_0_split_1
I0403 15:45:47.400470 20246 net.cpp:399] inception_4c/output_inception_4c/output_0_split -> inception_4c/output_inception_4c/output_0_split_2
I0403 15:45:47.400492 20246 net.cpp:399] inception_4c/output_inception_4c/output_0_split -> inception_4c/output_inception_4c/output_0_split_3
I0403 15:45:47.400579 20246 net.cpp:141] Setting up inception_4c/output_inception_4c/output_0_split
I0403 15:45:47.400602 20246 net.cpp:148] Top shape: 24 512 14 14 (2408448)
I0403 15:45:47.400619 20246 net.cpp:148] Top shape: 24 512 14 14 (2408448)
I0403 15:45:47.400634 20246 net.cpp:148] Top shape: 24 512 14 14 (2408448)
I0403 15:45:47.400648 20246 net.cpp:148] Top shape: 24 512 14 14 (2408448)
I0403 15:45:47.400661 20246 net.cpp:156] Memory required for data: 1111182624
I0403 15:45:47.400676 20246 layer_factory.hpp:77] Creating layer inception_4d/1x1
I0403 15:45:47.400697 20246 net.cpp:91] Creating Layer inception_4d/1x1
I0403 15:45:47.400714 20246 net.cpp:425] inception_4d/1x1 <- inception_4c/output_inception_4c/output_0_split_0
I0403 15:45:47.400734 20246 net.cpp:399] inception_4d/1x1 -> inception_4d/1x1
I0403 15:45:47.402122 20246 net.cpp:141] Setting up inception_4d/1x1
I0403 15:45:47.402149 20246 net.cpp:148] Top shape: 24 112 14 14 (526848)
I0403 15:45:47.402164 20246 net.cpp:156] Memory required for data: 1113290016
I0403 15:45:47.402182 20246 layer_factory.hpp:77] Creating layer inception_4d/relu_1x1
I0403 15:45:47.402202 20246 net.cpp:91] Creating Layer inception_4d/relu_1x1
I0403 15:45:47.402218 20246 net.cpp:425] inception_4d/relu_1x1 <- inception_4d/1x1
I0403 15:45:47.402235 20246 net.cpp:386] inception_4d/relu_1x1 -> inception_4d/1x1 (in-place)
I0403 15:45:47.402418 20246 net.cpp:141] Setting up inception_4d/relu_1x1
I0403 15:45:47.402443 20246 net.cpp:148] Top shape: 24 112 14 14 (526848)
I0403 15:45:47.402461 20246 net.cpp:156] Memory required for data: 1115397408
I0403 15:45:47.402474 20246 layer_factory.hpp:77] Creating layer inception_4d/3x3_reduce
I0403 15:45:47.402508 20246 net.cpp:91] Creating Layer inception_4d/3x3_reduce
I0403 15:45:47.402525 20246 net.cpp:425] inception_4d/3x3_reduce <- inception_4c/output_inception_4c/output_0_split_1
I0403 15:45:47.402549 20246 net.cpp:399] inception_4d/3x3_reduce -> inception_4d/3x3_reduce
I0403 15:45:47.404089 20246 net.cpp:141] Setting up inception_4d/3x3_reduce
I0403 15:45:47.404116 20246 net.cpp:148] Top shape: 24 144 14 14 (677376)
I0403 15:45:47.404131 20246 net.cpp:156] Memory required for data: 1118106912
I0403 15:45:47.404150 20246 layer_factory.hpp:77] Creating layer inception_4d/relu_3x3_reduce
I0403 15:45:47.404167 20246 net.cpp:91] Creating Layer inception_4d/relu_3x3_reduce
I0403 15:45:47.404183 20246 net.cpp:425] inception_4d/relu_3x3_reduce <- inception_4d/3x3_reduce
I0403 15:45:47.404202 20246 net.cpp:386] inception_4d/relu_3x3_reduce -> inception_4d/3x3_reduce (in-place)
I0403 15:45:47.404496 20246 net.cpp:141] Setting up inception_4d/relu_3x3_reduce
I0403 15:45:47.404522 20246 net.cpp:148] Top shape: 24 144 14 14 (677376)
I0403 15:45:47.404536 20246 net.cpp:156] Memory required for data: 1120816416
I0403 15:45:47.404551 20246 layer_factory.hpp:77] Creating layer inception_4d/3x3
I0403 15:45:47.404572 20246 net.cpp:91] Creating Layer inception_4d/3x3
I0403 15:45:47.404589 20246 net.cpp:425] inception_4d/3x3 <- inception_4d/3x3_reduce
I0403 15:45:47.404609 20246 net.cpp:399] inception_4d/3x3 -> inception_4d/3x3
I0403 15:45:47.408896 20246 net.cpp:141] Setting up inception_4d/3x3
I0403 15:45:47.408924 20246 net.cpp:148] Top shape: 24 288 14 14 (1354752)
I0403 15:45:47.408939 20246 net.cpp:156] Memory required for data: 1126235424
I0403 15:45:47.408957 20246 layer_factory.hpp:77] Creating layer inception_4d/relu_3x3
I0403 15:45:47.408977 20246 net.cpp:91] Creating Layer inception_4d/relu_3x3
I0403 15:45:47.408993 20246 net.cpp:425] inception_4d/relu_3x3 <- inception_4d/3x3
I0403 15:45:47.409008 20246 net.cpp:386] inception_4d/relu_3x3 -> inception_4d/3x3 (in-place)
I0403 15:45:47.409190 20246 net.cpp:141] Setting up inception_4d/relu_3x3
I0403 15:45:47.409215 20246 net.cpp:148] Top shape: 24 288 14 14 (1354752)
I0403 15:45:47.409229 20246 net.cpp:156] Memory required for data: 1131654432
I0403 15:45:47.409242 20246 layer_factory.hpp:77] Creating layer inception_4d/5x5_reduce
I0403 15:45:47.409265 20246 net.cpp:91] Creating Layer inception_4d/5x5_reduce
I0403 15:45:47.409282 20246 net.cpp:425] inception_4d/5x5_reduce <- inception_4c/output_inception_4c/output_0_split_2
I0403 15:45:47.409301 20246 net.cpp:399] inception_4d/5x5_reduce -> inception_4d/5x5_reduce
I0403 15:45:47.410476 20246 net.cpp:141] Setting up inception_4d/5x5_reduce
I0403 15:45:47.410503 20246 net.cpp:148] Top shape: 24 32 14 14 (150528)
I0403 15:45:47.410518 20246 net.cpp:156] Memory required for data: 1132256544
I0403 15:45:47.410536 20246 layer_factory.hpp:77] Creating layer inception_4d/relu_5x5_reduce
I0403 15:45:47.410554 20246 net.cpp:91] Creating Layer inception_4d/relu_5x5_reduce
I0403 15:45:47.410570 20246 net.cpp:425] inception_4d/relu_5x5_reduce <- inception_4d/5x5_reduce
I0403 15:45:47.410588 20246 net.cpp:386] inception_4d/relu_5x5_reduce -> inception_4d/5x5_reduce (in-place)
I0403 15:45:47.410768 20246 net.cpp:141] Setting up inception_4d/relu_5x5_reduce
I0403 15:45:47.410795 20246 net.cpp:148] Top shape: 24 32 14 14 (150528)
I0403 15:45:47.410810 20246 net.cpp:156] Memory required for data: 1132858656
I0403 15:45:47.410825 20246 layer_factory.hpp:77] Creating layer inception_4d/5x5
I0403 15:45:47.410845 20246 net.cpp:91] Creating Layer inception_4d/5x5
I0403 15:45:47.410861 20246 net.cpp:425] inception_4d/5x5 <- inception_4d/5x5_reduce
I0403 15:45:47.410879 20246 net.cpp:399] inception_4d/5x5 -> inception_4d/5x5
I0403 15:45:47.412317 20246 net.cpp:141] Setting up inception_4d/5x5
I0403 15:45:47.412346 20246 net.cpp:148] Top shape: 24 64 14 14 (301056)
I0403 15:45:47.412361 20246 net.cpp:156] Memory required for data: 1134062880
I0403 15:45:47.412379 20246 layer_factory.hpp:77] Creating layer inception_4d/relu_5x5
I0403 15:45:47.412412 20246 net.cpp:91] Creating Layer inception_4d/relu_5x5
I0403 15:45:47.412428 20246 net.cpp:425] inception_4d/relu_5x5 <- inception_4d/5x5
I0403 15:45:47.412444 20246 net.cpp:386] inception_4d/relu_5x5 -> inception_4d/5x5 (in-place)
I0403 15:45:47.412735 20246 net.cpp:141] Setting up inception_4d/relu_5x5
I0403 15:45:47.412763 20246 net.cpp:148] Top shape: 24 64 14 14 (301056)
I0403 15:45:47.412778 20246 net.cpp:156] Memory required for data: 1135267104
I0403 15:45:47.412793 20246 layer_factory.hpp:77] Creating layer inception_4d/pool
I0403 15:45:47.412809 20246 net.cpp:91] Creating Layer inception_4d/pool
I0403 15:45:47.412824 20246 net.cpp:425] inception_4d/pool <- inception_4c/output_inception_4c/output_0_split_3
I0403 15:45:47.412842 20246 net.cpp:399] inception_4d/pool -> inception_4d/pool
I0403 15:45:47.412906 20246 net.cpp:141] Setting up inception_4d/pool
I0403 15:45:47.412930 20246 net.cpp:148] Top shape: 24 512 14 14 (2408448)
I0403 15:45:47.412943 20246 net.cpp:156] Memory required for data: 1144900896
I0403 15:45:47.412957 20246 layer_factory.hpp:77] Creating layer inception_4d/pool_proj
I0403 15:45:47.412978 20246 net.cpp:91] Creating Layer inception_4d/pool_proj
I0403 15:45:47.412995 20246 net.cpp:425] inception_4d/pool_proj <- inception_4d/pool
I0403 15:45:47.413014 20246 net.cpp:399] inception_4d/pool_proj -> inception_4d/pool_proj
I0403 15:45:47.414826 20246 net.cpp:141] Setting up inception_4d/pool_proj
I0403 15:45:47.414856 20246 net.cpp:148] Top shape: 24 64 14 14 (301056)
I0403 15:45:47.414872 20246 net.cpp:156] Memory required for data: 1146105120
I0403 15:45:47.414891 20246 layer_factory.hpp:77] Creating layer inception_4d/relu_pool_proj
I0403 15:45:47.414911 20246 net.cpp:91] Creating Layer inception_4d/relu_pool_proj
I0403 15:45:47.414927 20246 net.cpp:425] inception_4d/relu_pool_proj <- inception_4d/pool_proj
I0403 15:45:47.414944 20246 net.cpp:386] inception_4d/relu_pool_proj -> inception_4d/pool_proj (in-place)
I0403 15:45:47.415133 20246 net.cpp:141] Setting up inception_4d/relu_pool_proj
I0403 15:45:47.415159 20246 net.cpp:148] Top shape: 24 64 14 14 (301056)
I0403 15:45:47.415174 20246 net.cpp:156] Memory required for data: 1147309344
I0403 15:45:47.415187 20246 layer_factory.hpp:77] Creating layer inception_4d/output
I0403 15:45:47.415206 20246 net.cpp:91] Creating Layer inception_4d/output
I0403 15:45:47.415223 20246 net.cpp:425] inception_4d/output <- inception_4d/1x1
I0403 15:45:47.415240 20246 net.cpp:425] inception_4d/output <- inception_4d/3x3
I0403 15:45:47.415256 20246 net.cpp:425] inception_4d/output <- inception_4d/5x5
I0403 15:45:47.415271 20246 net.cpp:425] inception_4d/output <- inception_4d/pool_proj
I0403 15:45:47.415287 20246 net.cpp:399] inception_4d/output -> inception_4d/output
I0403 15:45:47.415334 20246 net.cpp:141] Setting up inception_4d/output
I0403 15:45:47.415359 20246 net.cpp:148] Top shape: 24 528 14 14 (2483712)
I0403 15:45:47.415372 20246 net.cpp:156] Memory required for data: 1157244192
I0403 15:45:47.415386 20246 layer_factory.hpp:77] Creating layer inception_4d/output_inception_4d/output_0_split
I0403 15:45:47.415405 20246 net.cpp:91] Creating Layer inception_4d/output_inception_4d/output_0_split
I0403 15:45:47.415419 20246 net.cpp:425] inception_4d/output_inception_4d/output_0_split <- inception_4d/output
I0403 15:45:47.415438 20246 net.cpp:399] inception_4d/output_inception_4d/output_0_split -> inception_4d/output_inception_4d/output_0_split_0
I0403 15:45:47.415460 20246 net.cpp:399] inception_4d/output_inception_4d/output_0_split -> inception_4d/output_inception_4d/output_0_split_1
I0403 15:45:47.415480 20246 net.cpp:399] inception_4d/output_inception_4d/output_0_split -> inception_4d/output_inception_4d/output_0_split_2
I0403 15:45:47.415505 20246 net.cpp:399] inception_4d/output_inception_4d/output_0_split -> inception_4d/output_inception_4d/output_0_split_3
I0403 15:45:47.415525 20246 net.cpp:399] inception_4d/output_inception_4d/output_0_split -> inception_4d/output_inception_4d/output_0_split_4
I0403 15:45:47.415626 20246 net.cpp:141] Setting up inception_4d/output_inception_4d/output_0_split
I0403 15:45:47.415660 20246 net.cpp:148] Top shape: 24 528 14 14 (2483712)
I0403 15:45:47.415678 20246 net.cpp:148] Top shape: 24 528 14 14 (2483712)
I0403 15:45:47.415693 20246 net.cpp:148] Top shape: 24 528 14 14 (2483712)
I0403 15:45:47.415709 20246 net.cpp:148] Top shape: 24 528 14 14 (2483712)
I0403 15:45:47.415724 20246 net.cpp:148] Top shape: 24 528 14 14 (2483712)
I0403 15:45:47.415737 20246 net.cpp:156] Memory required for data: 1206918432
I0403 15:45:47.415751 20246 layer_factory.hpp:77] Creating layer loss2/ave_pool
I0403 15:45:47.415769 20246 net.cpp:91] Creating Layer loss2/ave_pool
I0403 15:45:47.415784 20246 net.cpp:425] loss2/ave_pool <- inception_4d/output_inception_4d/output_0_split_0
I0403 15:45:47.415805 20246 net.cpp:399] loss2/ave_pool -> loss2/ave_pool
I0403 15:45:47.416123 20246 net.cpp:141] Setting up loss2/ave_pool
I0403 15:45:47.416151 20246 net.cpp:148] Top shape: 24 528 4 4 (202752)
I0403 15:45:47.416165 20246 net.cpp:156] Memory required for data: 1207729440
I0403 15:45:47.416179 20246 layer_factory.hpp:77] Creating layer loss2/conv
I0403 15:45:47.416201 20246 net.cpp:91] Creating Layer loss2/conv
I0403 15:45:47.416219 20246 net.cpp:425] loss2/conv <- loss2/ave_pool
I0403 15:45:47.416240 20246 net.cpp:399] loss2/conv -> loss2/conv
I0403 15:45:47.418171 20246 net.cpp:141] Setting up loss2/conv
I0403 15:45:47.418203 20246 net.cpp:148] Top shape: 24 128 4 4 (49152)
I0403 15:45:47.418220 20246 net.cpp:156] Memory required for data: 1207926048
I0403 15:45:47.418238 20246 layer_factory.hpp:77] Creating layer loss2/relu_conv
I0403 15:45:47.418256 20246 net.cpp:91] Creating Layer loss2/relu_conv
I0403 15:45:47.418272 20246 net.cpp:425] loss2/relu_conv <- loss2/conv
I0403 15:45:47.418292 20246 net.cpp:386] loss2/relu_conv -> loss2/conv (in-place)
I0403 15:45:47.418581 20246 net.cpp:141] Setting up loss2/relu_conv
I0403 15:45:47.418611 20246 net.cpp:148] Top shape: 24 128 4 4 (49152)
I0403 15:45:47.418627 20246 net.cpp:156] Memory required for data: 1208122656
I0403 15:45:47.418640 20246 layer_factory.hpp:77] Creating layer loss2/fc
I0403 15:45:47.418658 20246 net.cpp:91] Creating Layer loss2/fc
I0403 15:45:47.418675 20246 net.cpp:425] loss2/fc <- loss2/conv
I0403 15:45:47.418696 20246 net.cpp:399] loss2/fc -> loss2/fc
I0403 15:45:47.436172 20246 net.cpp:141] Setting up loss2/fc
I0403 15:45:47.436203 20246 net.cpp:148] Top shape: 24 1024 (24576)
I0403 15:45:47.436218 20246 net.cpp:156] Memory required for data: 1208220960
I0403 15:45:47.436235 20246 layer_factory.hpp:77] Creating layer loss2/relu_fc
I0403 15:45:47.436255 20246 net.cpp:91] Creating Layer loss2/relu_fc
I0403 15:45:47.436270 20246 net.cpp:425] loss2/relu_fc <- loss2/fc
I0403 15:45:47.436287 20246 net.cpp:386] loss2/relu_fc -> loss2/fc (in-place)
I0403 15:45:47.436596 20246 net.cpp:141] Setting up loss2/relu_fc
I0403 15:45:47.436624 20246 net.cpp:148] Top shape: 24 1024 (24576)
I0403 15:45:47.436637 20246 net.cpp:156] Memory required for data: 1208319264
I0403 15:45:47.436652 20246 layer_factory.hpp:77] Creating layer loss2/drop_fc
I0403 15:45:47.436671 20246 net.cpp:91] Creating Layer loss2/drop_fc
I0403 15:45:47.436688 20246 net.cpp:425] loss2/drop_fc <- loss2/fc
I0403 15:45:47.436705 20246 net.cpp:386] loss2/drop_fc -> loss2/fc (in-place)
I0403 15:45:47.436758 20246 net.cpp:141] Setting up loss2/drop_fc
I0403 15:45:47.436780 20246 net.cpp:148] Top shape: 24 1024 (24576)
I0403 15:45:47.436794 20246 net.cpp:156] Memory required for data: 1208417568
I0403 15:45:47.436810 20246 layer_factory.hpp:77] Creating layer loss2/classifier_plantvillage
I0403 15:45:47.436827 20246 net.cpp:91] Creating Layer loss2/classifier_plantvillage
I0403 15:45:47.436843 20246 net.cpp:425] loss2/classifier_plantvillage <- loss2/fc
I0403 15:45:47.436864 20246 net.cpp:399] loss2/classifier_plantvillage -> loss2/classifier_plantvillage
I0403 15:45:47.437273 20246 net.cpp:141] Setting up loss2/classifier_plantvillage
I0403 15:45:47.437297 20246 net.cpp:148] Top shape: 24 38 (912)
I0403 15:45:47.437328 20246 net.cpp:156] Memory required for data: 1208421216
I0403 15:45:47.437347 20246 layer_factory.hpp:77] Creating layer loss2/classifier_plantvillage_loss2/classifier_plantvillage_0_split
I0403 15:45:47.437364 20246 net.cpp:91] Creating Layer loss2/classifier_plantvillage_loss2/classifier_plantvillage_0_split
I0403 15:45:47.437381 20246 net.cpp:425] loss2/classifier_plantvillage_loss2/classifier_plantvillage_0_split <- loss2/classifier_plantvillage
I0403 15:45:47.437400 20246 net.cpp:399] loss2/classifier_plantvillage_loss2/classifier_plantvillage_0_split -> loss2/classifier_plantvillage_loss2/classifier_plantvillage_0_split_0
I0403 15:45:47.437422 20246 net.cpp:399] loss2/classifier_plantvillage_loss2/classifier_plantvillage_0_split -> loss2/classifier_plantvillage_loss2/classifier_plantvillage_0_split_1
I0403 15:45:47.437440 20246 net.cpp:399] loss2/classifier_plantvillage_loss2/classifier_plantvillage_0_split -> loss2/classifier_plantvillage_loss2/classifier_plantvillage_0_split_2
I0403 15:45:47.437516 20246 net.cpp:141] Setting up loss2/classifier_plantvillage_loss2/classifier_plantvillage_0_split
I0403 15:45:47.437539 20246 net.cpp:148] Top shape: 24 38 (912)
I0403 15:45:47.437556 20246 net.cpp:148] Top shape: 24 38 (912)
I0403 15:45:47.437571 20246 net.cpp:148] Top shape: 24 38 (912)
I0403 15:45:47.437583 20246 net.cpp:156] Memory required for data: 1208432160
I0403 15:45:47.437598 20246 layer_factory.hpp:77] Creating layer inception_4e/1x1
I0403 15:45:47.437631 20246 net.cpp:91] Creating Layer inception_4e/1x1
I0403 15:45:47.437649 20246 net.cpp:425] inception_4e/1x1 <- inception_4d/output_inception_4d/output_0_split_1
I0403 15:45:47.437669 20246 net.cpp:399] inception_4e/1x1 -> inception_4e/1x1
I0403 15:45:47.439515 20246 net.cpp:141] Setting up inception_4e/1x1
I0403 15:45:47.439545 20246 net.cpp:148] Top shape: 24 256 14 14 (1204224)
I0403 15:45:47.439560 20246 net.cpp:156] Memory required for data: 1213249056
I0403 15:45:47.439579 20246 layer_factory.hpp:77] Creating layer inception_4e/relu_1x1
I0403 15:45:47.439595 20246 net.cpp:91] Creating Layer inception_4e/relu_1x1
I0403 15:45:47.439611 20246 net.cpp:425] inception_4e/relu_1x1 <- inception_4e/1x1
I0403 15:45:47.439630 20246 net.cpp:386] inception_4e/relu_1x1 -> inception_4e/1x1 (in-place)
I0403 15:45:47.439926 20246 net.cpp:141] Setting up inception_4e/relu_1x1
I0403 15:45:47.439954 20246 net.cpp:148] Top shape: 24 256 14 14 (1204224)
I0403 15:45:47.439970 20246 net.cpp:156] Memory required for data: 1218065952
I0403 15:45:47.439985 20246 layer_factory.hpp:77] Creating layer inception_4e/3x3_reduce
I0403 15:45:47.440006 20246 net.cpp:91] Creating Layer inception_4e/3x3_reduce
I0403 15:45:47.440024 20246 net.cpp:425] inception_4e/3x3_reduce <- inception_4d/output_inception_4d/output_0_split_2
I0403 15:45:47.440045 20246 net.cpp:399] inception_4e/3x3_reduce -> inception_4e/3x3_reduce
I0403 15:45:47.442216 20246 net.cpp:141] Setting up inception_4e/3x3_reduce
I0403 15:45:47.442258 20246 net.cpp:148] Top shape: 24 160 14 14 (752640)
I0403 15:45:47.442273 20246 net.cpp:156] Memory required for data: 1221076512
I0403 15:45:47.442293 20246 layer_factory.hpp:77] Creating layer inception_4e/relu_3x3_reduce
I0403 15:45:47.442312 20246 net.cpp:91] Creating Layer inception_4e/relu_3x3_reduce
I0403 15:45:47.442327 20246 net.cpp:425] inception_4e/relu_3x3_reduce <- inception_4e/3x3_reduce
I0403 15:45:47.442344 20246 net.cpp:386] inception_4e/relu_3x3_reduce -> inception_4e/3x3_reduce (in-place)
I0403 15:45:47.442533 20246 net.cpp:141] Setting up inception_4e/relu_3x3_reduce
I0403 15:45:47.442559 20246 net.cpp:148] Top shape: 24 160 14 14 (752640)
I0403 15:45:47.442571 20246 net.cpp:156] Memory required for data: 1224087072
I0403 15:45:47.442586 20246 layer_factory.hpp:77] Creating layer inception_4e/3x3
I0403 15:45:47.442608 20246 net.cpp:91] Creating Layer inception_4e/3x3
I0403 15:45:47.442625 20246 net.cpp:425] inception_4e/3x3 <- inception_4e/3x3_reduce
I0403 15:45:47.442646 20246 net.cpp:399] inception_4e/3x3 -> inception_4e/3x3
I0403 15:45:47.447670 20246 net.cpp:141] Setting up inception_4e/3x3
I0403 15:45:47.447713 20246 net.cpp:148] Top shape: 24 320 14 14 (1505280)
I0403 15:45:47.447729 20246 net.cpp:156] Memory required for data: 1230108192
I0403 15:45:47.447746 20246 layer_factory.hpp:77] Creating layer inception_4e/relu_3x3
I0403 15:45:47.447765 20246 net.cpp:91] Creating Layer inception_4e/relu_3x3
I0403 15:45:47.447780 20246 net.cpp:425] inception_4e/relu_3x3 <- inception_4e/3x3
I0403 15:45:47.447799 20246 net.cpp:386] inception_4e/relu_3x3 -> inception_4e/3x3 (in-place)
I0403 15:45:47.448117 20246 net.cpp:141] Setting up inception_4e/relu_3x3
I0403 15:45:47.448144 20246 net.cpp:148] Top shape: 24 320 14 14 (1505280)
I0403 15:45:47.448159 20246 net.cpp:156] Memory required for data: 1236129312
I0403 15:45:47.448173 20246 layer_factory.hpp:77] Creating layer inception_4e/5x5_reduce
I0403 15:45:47.448196 20246 net.cpp:91] Creating Layer inception_4e/5x5_reduce
I0403 15:45:47.448215 20246 net.cpp:425] inception_4e/5x5_reduce <- inception_4d/output_inception_4d/output_0_split_3
I0403 15:45:47.448235 20246 net.cpp:399] inception_4e/5x5_reduce -> inception_4e/5x5_reduce
I0403 15:45:47.449319 20246 net.cpp:141] Setting up inception_4e/5x5_reduce
I0403 15:45:47.449348 20246 net.cpp:148] Top shape: 24 32 14 14 (150528)
I0403 15:45:47.449364 20246 net.cpp:156] Memory required for data: 1236731424
I0403 15:45:47.449383 20246 layer_factory.hpp:77] Creating layer inception_4e/relu_5x5_reduce
I0403 15:45:47.449400 20246 net.cpp:91] Creating Layer inception_4e/relu_5x5_reduce
I0403 15:45:47.449416 20246 net.cpp:425] inception_4e/relu_5x5_reduce <- inception_4e/5x5_reduce
I0403 15:45:47.449434 20246 net.cpp:386] inception_4e/relu_5x5_reduce -> inception_4e/5x5_reduce (in-place)
I0403 15:45:47.449740 20246 net.cpp:141] Setting up inception_4e/relu_5x5_reduce
I0403 15:45:47.449769 20246 net.cpp:148] Top shape: 24 32 14 14 (150528)
I0403 15:45:47.449784 20246 net.cpp:156] Memory required for data: 1237333536
I0403 15:45:47.449800 20246 layer_factory.hpp:77] Creating layer inception_4e/5x5
I0403 15:45:47.449841 20246 net.cpp:91] Creating Layer inception_4e/5x5
I0403 15:45:47.449861 20246 net.cpp:425] inception_4e/5x5 <- inception_4e/5x5_reduce
I0403 15:45:47.449879 20246 net.cpp:399] inception_4e/5x5 -> inception_4e/5x5
I0403 15:45:47.451746 20246 net.cpp:141] Setting up inception_4e/5x5
I0403 15:45:47.451776 20246 net.cpp:148] Top shape: 24 128 14 14 (602112)
I0403 15:45:47.451791 20246 net.cpp:156] Memory required for data: 1239741984
I0403 15:45:47.451809 20246 layer_factory.hpp:77] Creating layer inception_4e/relu_5x5
I0403 15:45:47.451828 20246 net.cpp:91] Creating Layer inception_4e/relu_5x5
I0403 15:45:47.451845 20246 net.cpp:425] inception_4e/relu_5x5 <- inception_4e/5x5
I0403 15:45:47.451863 20246 net.cpp:386] inception_4e/relu_5x5 -> inception_4e/5x5 (in-place)
I0403 15:45:47.452064 20246 net.cpp:141] Setting up inception_4e/relu_5x5
I0403 15:45:47.452091 20246 net.cpp:148] Top shape: 24 128 14 14 (602112)
I0403 15:45:47.452106 20246 net.cpp:156] Memory required for data: 1242150432
I0403 15:45:47.452121 20246 layer_factory.hpp:77] Creating layer inception_4e/pool
I0403 15:45:47.452139 20246 net.cpp:91] Creating Layer inception_4e/pool
I0403 15:45:47.452154 20246 net.cpp:425] inception_4e/pool <- inception_4d/output_inception_4d/output_0_split_4
I0403 15:45:47.452174 20246 net.cpp:399] inception_4e/pool -> inception_4e/pool
I0403 15:45:47.452244 20246 net.cpp:141] Setting up inception_4e/pool
I0403 15:45:47.452267 20246 net.cpp:148] Top shape: 24 528 14 14 (2483712)
I0403 15:45:47.452281 20246 net.cpp:156] Memory required for data: 1252085280
I0403 15:45:47.452296 20246 layer_factory.hpp:77] Creating layer inception_4e/pool_proj
I0403 15:45:47.452317 20246 net.cpp:91] Creating Layer inception_4e/pool_proj
I0403 15:45:47.452334 20246 net.cpp:425] inception_4e/pool_proj <- inception_4e/pool
I0403 15:45:47.452355 20246 net.cpp:399] inception_4e/pool_proj -> inception_4e/pool_proj
I0403 15:45:47.453865 20246 net.cpp:141] Setting up inception_4e/pool_proj
I0403 15:45:47.453902 20246 net.cpp:148] Top shape: 24 128 14 14 (602112)
I0403 15:45:47.453918 20246 net.cpp:156] Memory required for data: 1254493728
I0403 15:45:47.453936 20246 layer_factory.hpp:77] Creating layer inception_4e/relu_pool_proj
I0403 15:45:47.453956 20246 net.cpp:91] Creating Layer inception_4e/relu_pool_proj
I0403 15:45:47.453974 20246 net.cpp:425] inception_4e/relu_pool_proj <- inception_4e/pool_proj
I0403 15:45:47.453990 20246 net.cpp:386] inception_4e/relu_pool_proj -> inception_4e/pool_proj (in-place)
I0403 15:45:47.454289 20246 net.cpp:141] Setting up inception_4e/relu_pool_proj
I0403 15:45:47.454315 20246 net.cpp:148] Top shape: 24 128 14 14 (602112)
I0403 15:45:47.454330 20246 net.cpp:156] Memory required for data: 1256902176
I0403 15:45:47.454345 20246 layer_factory.hpp:77] Creating layer inception_4e/output
I0403 15:45:47.454365 20246 net.cpp:91] Creating Layer inception_4e/output
I0403 15:45:47.454380 20246 net.cpp:425] inception_4e/output <- inception_4e/1x1
I0403 15:45:47.454396 20246 net.cpp:425] inception_4e/output <- inception_4e/3x3
I0403 15:45:47.454412 20246 net.cpp:425] inception_4e/output <- inception_4e/5x5
I0403 15:45:47.454427 20246 net.cpp:425] inception_4e/output <- inception_4e/pool_proj
I0403 15:45:47.454444 20246 net.cpp:399] inception_4e/output -> inception_4e/output
I0403 15:45:47.454494 20246 net.cpp:141] Setting up inception_4e/output
I0403 15:45:47.454517 20246 net.cpp:148] Top shape: 24 832 14 14 (3913728)
I0403 15:45:47.454532 20246 net.cpp:156] Memory required for data: 1272557088
I0403 15:45:47.454546 20246 layer_factory.hpp:77] Creating layer pool4/3x3_s2
I0403 15:45:47.454563 20246 net.cpp:91] Creating Layer pool4/3x3_s2
I0403 15:45:47.454578 20246 net.cpp:425] pool4/3x3_s2 <- inception_4e/output
I0403 15:45:47.454601 20246 net.cpp:399] pool4/3x3_s2 -> pool4/3x3_s2
I0403 15:45:47.454668 20246 net.cpp:141] Setting up pool4/3x3_s2
I0403 15:45:47.454695 20246 net.cpp:148] Top shape: 24 832 7 7 (978432)
I0403 15:45:47.454710 20246 net.cpp:156] Memory required for data: 1276470816
I0403 15:45:47.454725 20246 layer_factory.hpp:77] Creating layer pool4/3x3_s2_pool4/3x3_s2_0_split
I0403 15:45:47.454741 20246 net.cpp:91] Creating Layer pool4/3x3_s2_pool4/3x3_s2_0_split
I0403 15:45:47.454756 20246 net.cpp:425] pool4/3x3_s2_pool4/3x3_s2_0_split <- pool4/3x3_s2
I0403 15:45:47.454772 20246 net.cpp:399] pool4/3x3_s2_pool4/3x3_s2_0_split -> pool4/3x3_s2_pool4/3x3_s2_0_split_0
I0403 15:45:47.454792 20246 net.cpp:399] pool4/3x3_s2_pool4/3x3_s2_0_split -> pool4/3x3_s2_pool4/3x3_s2_0_split_1
I0403 15:45:47.454814 20246 net.cpp:399] pool4/3x3_s2_pool4/3x3_s2_0_split -> pool4/3x3_s2_pool4/3x3_s2_0_split_2
I0403 15:45:47.454835 20246 net.cpp:399] pool4/3x3_s2_pool4/3x3_s2_0_split -> pool4/3x3_s2_pool4/3x3_s2_0_split_3
I0403 15:45:47.454926 20246 net.cpp:141] Setting up pool4/3x3_s2_pool4/3x3_s2_0_split
I0403 15:45:47.454948 20246 net.cpp:148] Top shape: 24 832 7 7 (978432)
I0403 15:45:47.454965 20246 net.cpp:148] Top shape: 24 832 7 7 (978432)
I0403 15:45:47.454980 20246 net.cpp:148] Top shape: 24 832 7 7 (978432)
I0403 15:45:47.454994 20246 net.cpp:148] Top shape: 24 832 7 7 (978432)
I0403 15:45:47.455008 20246 net.cpp:156] Memory required for data: 1292125728
I0403 15:45:47.455021 20246 layer_factory.hpp:77] Creating layer inception_5a/1x1
I0403 15:45:47.455044 20246 net.cpp:91] Creating Layer inception_5a/1x1
I0403 15:45:47.455065 20246 net.cpp:425] inception_5a/1x1 <- pool4/3x3_s2_pool4/3x3_s2_0_split_0
I0403 15:45:47.455087 20246 net.cpp:399] inception_5a/1x1 -> inception_5a/1x1
I0403 15:45:47.457936 20246 net.cpp:141] Setting up inception_5a/1x1
I0403 15:45:47.457965 20246 net.cpp:148] Top shape: 24 256 7 7 (301056)
I0403 15:45:47.457980 20246 net.cpp:156] Memory required for data: 1293329952
I0403 15:45:47.457999 20246 layer_factory.hpp:77] Creating layer inception_5a/relu_1x1
I0403 15:45:47.458019 20246 net.cpp:91] Creating Layer inception_5a/relu_1x1
I0403 15:45:47.458036 20246 net.cpp:425] inception_5a/relu_1x1 <- inception_5a/1x1
I0403 15:45:47.458063 20246 net.cpp:386] inception_5a/relu_1x1 -> inception_5a/1x1 (in-place)
I0403 15:45:47.458379 20246 net.cpp:141] Setting up inception_5a/relu_1x1
I0403 15:45:47.458405 20246 net.cpp:148] Top shape: 24 256 7 7 (301056)
I0403 15:45:47.458420 20246 net.cpp:156] Memory required for data: 1294534176
I0403 15:45:47.458434 20246 layer_factory.hpp:77] Creating layer inception_5a/3x3_reduce
I0403 15:45:47.458458 20246 net.cpp:91] Creating Layer inception_5a/3x3_reduce
I0403 15:45:47.458475 20246 net.cpp:425] inception_5a/3x3_reduce <- pool4/3x3_s2_pool4/3x3_s2_0_split_1
I0403 15:45:47.458494 20246 net.cpp:399] inception_5a/3x3_reduce -> inception_5a/3x3_reduce
I0403 15:45:47.460947 20246 net.cpp:141] Setting up inception_5a/3x3_reduce
I0403 15:45:47.460978 20246 net.cpp:148] Top shape: 24 160 7 7 (188160)
I0403 15:45:47.460993 20246 net.cpp:156] Memory required for data: 1295286816
I0403 15:45:47.461010 20246 layer_factory.hpp:77] Creating layer inception_5a/relu_3x3_reduce
I0403 15:45:47.461030 20246 net.cpp:91] Creating Layer inception_5a/relu_3x3_reduce
I0403 15:45:47.461052 20246 net.cpp:425] inception_5a/relu_3x3_reduce <- inception_5a/3x3_reduce
I0403 15:45:47.461071 20246 net.cpp:386] inception_5a/relu_3x3_reduce -> inception_5a/3x3_reduce (in-place)
I0403 15:45:47.461261 20246 net.cpp:141] Setting up inception_5a/relu_3x3_reduce
I0403 15:45:47.461287 20246 net.cpp:148] Top shape: 24 160 7 7 (188160)
I0403 15:45:47.461300 20246 net.cpp:156] Memory required for data: 1296039456
I0403 15:45:47.461314 20246 layer_factory.hpp:77] Creating layer inception_5a/3x3
I0403 15:45:47.461338 20246 net.cpp:91] Creating Layer inception_5a/3x3
I0403 15:45:47.461356 20246 net.cpp:425] inception_5a/3x3 <- inception_5a/3x3_reduce
I0403 15:45:47.461374 20246 net.cpp:399] inception_5a/3x3 -> inception_5a/3x3
I0403 15:45:47.466593 20246 net.cpp:141] Setting up inception_5a/3x3
I0403 15:45:47.466624 20246 net.cpp:148] Top shape: 24 320 7 7 (376320)
I0403 15:45:47.466641 20246 net.cpp:156] Memory required for data: 1297544736
I0403 15:45:47.466660 20246 layer_factory.hpp:77] Creating layer inception_5a/relu_3x3
I0403 15:45:47.466678 20246 net.cpp:91] Creating Layer inception_5a/relu_3x3
I0403 15:45:47.466694 20246 net.cpp:425] inception_5a/relu_3x3 <- inception_5a/3x3
I0403 15:45:47.466711 20246 net.cpp:386] inception_5a/relu_3x3 -> inception_5a/3x3 (in-place)
I0403 15:45:47.467011 20246 net.cpp:141] Setting up inception_5a/relu_3x3
I0403 15:45:47.467038 20246 net.cpp:148] Top shape: 24 320 7 7 (376320)
I0403 15:45:47.467063 20246 net.cpp:156] Memory required for data: 1299050016
I0403 15:45:47.467078 20246 layer_factory.hpp:77] Creating layer inception_5a/5x5_reduce
I0403 15:45:47.467099 20246 net.cpp:91] Creating Layer inception_5a/5x5_reduce
I0403 15:45:47.467115 20246 net.cpp:425] inception_5a/5x5_reduce <- pool4/3x3_s2_pool4/3x3_s2_0_split_2
I0403 15:45:47.467138 20246 net.cpp:399] inception_5a/5x5_reduce -> inception_5a/5x5_reduce
I0403 15:45:47.468323 20246 net.cpp:141] Setting up inception_5a/5x5_reduce
I0403 15:45:47.468353 20246 net.cpp:148] Top shape: 24 32 7 7 (37632)
I0403 15:45:47.468371 20246 net.cpp:156] Memory required for data: 1299200544
I0403 15:45:47.468389 20246 layer_factory.hpp:77] Creating layer inception_5a/relu_5x5_reduce
I0403 15:45:47.468407 20246 net.cpp:91] Creating Layer inception_5a/relu_5x5_reduce
I0403 15:45:47.468422 20246 net.cpp:425] inception_5a/relu_5x5_reduce <- inception_5a/5x5_reduce
I0403 15:45:47.468442 20246 net.cpp:386] inception_5a/relu_5x5_reduce -> inception_5a/5x5_reduce (in-place)
I0403 15:45:47.468744 20246 net.cpp:141] Setting up inception_5a/relu_5x5_reduce
I0403 15:45:47.468772 20246 net.cpp:148] Top shape: 24 32 7 7 (37632)
I0403 15:45:47.468788 20246 net.cpp:156] Memory required for data: 1299351072
I0403 15:45:47.468803 20246 layer_factory.hpp:77] Creating layer inception_5a/5x5
I0403 15:45:47.468825 20246 net.cpp:91] Creating Layer inception_5a/5x5
I0403 15:45:47.468842 20246 net.cpp:425] inception_5a/5x5 <- inception_5a/5x5_reduce
I0403 15:45:47.468860 20246 net.cpp:399] inception_5a/5x5 -> inception_5a/5x5
I0403 15:45:47.470582 20246 net.cpp:141] Setting up inception_5a/5x5
I0403 15:45:47.470623 20246 net.cpp:148] Top shape: 24 128 7 7 (150528)
I0403 15:45:47.470638 20246 net.cpp:156] Memory required for data: 1299953184
I0403 15:45:47.470656 20246 layer_factory.hpp:77] Creating layer inception_5a/relu_5x5
I0403 15:45:47.470676 20246 net.cpp:91] Creating Layer inception_5a/relu_5x5
I0403 15:45:47.470693 20246 net.cpp:425] inception_5a/relu_5x5 <- inception_5a/5x5
I0403 15:45:47.470710 20246 net.cpp:386] inception_5a/relu_5x5 -> inception_5a/5x5 (in-place)
I0403 15:45:47.470904 20246 net.cpp:141] Setting up inception_5a/relu_5x5
I0403 15:45:47.470932 20246 net.cpp:148] Top shape: 24 128 7 7 (150528)
I0403 15:45:47.470947 20246 net.cpp:156] Memory required for data: 1300555296
I0403 15:45:47.470963 20246 layer_factory.hpp:77] Creating layer inception_5a/pool
I0403 15:45:47.470979 20246 net.cpp:91] Creating Layer inception_5a/pool
I0403 15:45:47.470994 20246 net.cpp:425] inception_5a/pool <- pool4/3x3_s2_pool4/3x3_s2_0_split_3
I0403 15:45:47.471014 20246 net.cpp:399] inception_5a/pool -> inception_5a/pool
I0403 15:45:47.471112 20246 net.cpp:141] Setting up inception_5a/pool
I0403 15:45:47.471138 20246 net.cpp:148] Top shape: 24 832 7 7 (978432)
I0403 15:45:47.471153 20246 net.cpp:156] Memory required for data: 1304469024
I0403 15:45:47.471168 20246 layer_factory.hpp:77] Creating layer inception_5a/pool_proj
I0403 15:45:47.471190 20246 net.cpp:91] Creating Layer inception_5a/pool_proj
I0403 15:45:47.471209 20246 net.cpp:425] inception_5a/pool_proj <- inception_5a/pool
I0403 15:45:47.471230 20246 net.cpp:399] inception_5a/pool_proj -> inception_5a/pool_proj
I0403 15:45:47.473592 20246 net.cpp:141] Setting up inception_5a/pool_proj
I0403 15:45:47.473623 20246 net.cpp:148] Top shape: 24 128 7 7 (150528)
I0403 15:45:47.473639 20246 net.cpp:156] Memory required for data: 1305071136
I0403 15:45:47.473657 20246 layer_factory.hpp:77] Creating layer inception_5a/relu_pool_proj
I0403 15:45:47.473680 20246 net.cpp:91] Creating Layer inception_5a/relu_pool_proj
I0403 15:45:47.473698 20246 net.cpp:425] inception_5a/relu_pool_proj <- inception_5a/pool_proj
I0403 15:45:47.473716 20246 net.cpp:386] inception_5a/relu_pool_proj -> inception_5a/pool_proj (in-place)
I0403 15:45:47.474022 20246 net.cpp:141] Setting up inception_5a/relu_pool_proj
I0403 15:45:47.474053 20246 net.cpp:148] Top shape: 24 128 7 7 (150528)
I0403 15:45:47.474071 20246 net.cpp:156] Memory required for data: 1305673248
I0403 15:45:47.474086 20246 layer_factory.hpp:77] Creating layer inception_5a/output
I0403 15:45:47.474102 20246 net.cpp:91] Creating Layer inception_5a/output
I0403 15:45:47.474118 20246 net.cpp:425] inception_5a/output <- inception_5a/1x1
I0403 15:45:47.474138 20246 net.cpp:425] inception_5a/output <- inception_5a/3x3
I0403 15:45:47.474155 20246 net.cpp:425] inception_5a/output <- inception_5a/5x5
I0403 15:45:47.474171 20246 net.cpp:425] inception_5a/output <- inception_5a/pool_proj
I0403 15:45:47.474189 20246 net.cpp:399] inception_5a/output -> inception_5a/output
I0403 15:45:47.474242 20246 net.cpp:141] Setting up inception_5a/output
I0403 15:45:47.474267 20246 net.cpp:148] Top shape: 24 832 7 7 (978432)
I0403 15:45:47.474282 20246 net.cpp:156] Memory required for data: 1309586976
I0403 15:45:47.474297 20246 layer_factory.hpp:77] Creating layer inception_5a/output_inception_5a/output_0_split
I0403 15:45:47.474313 20246 net.cpp:91] Creating Layer inception_5a/output_inception_5a/output_0_split
I0403 15:45:47.474329 20246 net.cpp:425] inception_5a/output_inception_5a/output_0_split <- inception_5a/output
I0403 15:45:47.474349 20246 net.cpp:399] inception_5a/output_inception_5a/output_0_split -> inception_5a/output_inception_5a/output_0_split_0
I0403 15:45:47.474370 20246 net.cpp:399] inception_5a/output_inception_5a/output_0_split -> inception_5a/output_inception_5a/output_0_split_1
I0403 15:45:47.474391 20246 net.cpp:399] inception_5a/output_inception_5a/output_0_split -> inception_5a/output_inception_5a/output_0_split_2
I0403 15:45:47.474411 20246 net.cpp:399] inception_5a/output_inception_5a/output_0_split -> inception_5a/output_inception_5a/output_0_split_3
I0403 15:45:47.474529 20246 net.cpp:141] Setting up inception_5a/output_inception_5a/output_0_split
I0403 15:45:47.474555 20246 net.cpp:148] Top shape: 24 832 7 7 (978432)
I0403 15:45:47.474573 20246 net.cpp:148] Top shape: 24 832 7 7 (978432)
I0403 15:45:47.474589 20246 net.cpp:148] Top shape: 24 832 7 7 (978432)
I0403 15:45:47.474604 20246 net.cpp:148] Top shape: 24 832 7 7 (978432)
I0403 15:45:47.474618 20246 net.cpp:156] Memory required for data: 1325241888
I0403 15:45:47.474632 20246 layer_factory.hpp:77] Creating layer inception_5b/1x1
I0403 15:45:47.474656 20246 net.cpp:91] Creating Layer inception_5b/1x1
I0403 15:45:47.474674 20246 net.cpp:425] inception_5b/1x1 <- inception_5a/output_inception_5a/output_0_split_0
I0403 15:45:47.474694 20246 net.cpp:399] inception_5b/1x1 -> inception_5b/1x1
I0403 15:45:47.478601 20246 net.cpp:141] Setting up inception_5b/1x1
I0403 15:45:47.478632 20246 net.cpp:148] Top shape: 24 384 7 7 (451584)
I0403 15:45:47.478648 20246 net.cpp:156] Memory required for data: 1327048224
I0403 15:45:47.478667 20246 layer_factory.hpp:77] Creating layer inception_5b/relu_1x1
I0403 15:45:47.478688 20246 net.cpp:91] Creating Layer inception_5b/relu_1x1
I0403 15:45:47.478704 20246 net.cpp:425] inception_5b/relu_1x1 <- inception_5b/1x1
I0403 15:45:47.478723 20246 net.cpp:386] inception_5b/relu_1x1 -> inception_5b/1x1 (in-place)
I0403 15:45:47.479043 20246 net.cpp:141] Setting up inception_5b/relu_1x1
I0403 15:45:47.479074 20246 net.cpp:148] Top shape: 24 384 7 7 (451584)
I0403 15:45:47.479089 20246 net.cpp:156] Memory required for data: 1328854560
I0403 15:45:47.479105 20246 layer_factory.hpp:77] Creating layer inception_5b/3x3_reduce
I0403 15:45:47.479130 20246 net.cpp:91] Creating Layer inception_5b/3x3_reduce
I0403 15:45:47.479147 20246 net.cpp:425] inception_5b/3x3_reduce <- inception_5a/output_inception_5a/output_0_split_1
I0403 15:45:47.479171 20246 net.cpp:399] inception_5b/3x3_reduce -> inception_5b/3x3_reduce
I0403 15:45:47.481923 20246 net.cpp:141] Setting up inception_5b/3x3_reduce
I0403 15:45:47.481952 20246 net.cpp:148] Top shape: 24 192 7 7 (225792)
I0403 15:45:47.481968 20246 net.cpp:156] Memory required for data: 1329757728
I0403 15:45:47.481987 20246 layer_factory.hpp:77] Creating layer inception_5b/relu_3x3_reduce
I0403 15:45:47.482007 20246 net.cpp:91] Creating Layer inception_5b/relu_3x3_reduce
I0403 15:45:47.482023 20246 net.cpp:425] inception_5b/relu_3x3_reduce <- inception_5b/3x3_reduce
I0403 15:45:47.482040 20246 net.cpp:386] inception_5b/relu_3x3_reduce -> inception_5b/3x3_reduce (in-place)
I0403 15:45:47.482235 20246 net.cpp:141] Setting up inception_5b/relu_3x3_reduce
I0403 15:45:47.482262 20246 net.cpp:148] Top shape: 24 192 7 7 (225792)
I0403 15:45:47.482277 20246 net.cpp:156] Memory required for data: 1330660896
I0403 15:45:47.482292 20246 layer_factory.hpp:77] Creating layer inception_5b/3x3
I0403 15:45:47.482314 20246 net.cpp:91] Creating Layer inception_5b/3x3
I0403 15:45:47.482331 20246 net.cpp:425] inception_5b/3x3 <- inception_5b/3x3_reduce
I0403 15:45:47.482349 20246 net.cpp:399] inception_5b/3x3 -> inception_5b/3x3
I0403 15:45:47.489081 20246 net.cpp:141] Setting up inception_5b/3x3
I0403 15:45:47.489121 20246 net.cpp:148] Top shape: 24 384 7 7 (451584)
I0403 15:45:47.489136 20246 net.cpp:156] Memory required for data: 1332467232
I0403 15:45:47.489154 20246 layer_factory.hpp:77] Creating layer inception_5b/relu_3x3
I0403 15:45:47.489173 20246 net.cpp:91] Creating Layer inception_5b/relu_3x3
I0403 15:45:47.489189 20246 net.cpp:425] inception_5b/relu_3x3 <- inception_5b/3x3
I0403 15:45:47.489207 20246 net.cpp:386] inception_5b/relu_3x3 -> inception_5b/3x3 (in-place)
I0403 15:45:47.489498 20246 net.cpp:141] Setting up inception_5b/relu_3x3
I0403 15:45:47.489523 20246 net.cpp:148] Top shape: 24 384 7 7 (451584)
I0403 15:45:47.489537 20246 net.cpp:156] Memory required for data: 1334273568
I0403 15:45:47.489552 20246 layer_factory.hpp:77] Creating layer inception_5b/5x5_reduce
I0403 15:45:47.489589 20246 net.cpp:91] Creating Layer inception_5b/5x5_reduce
I0403 15:45:47.489608 20246 net.cpp:425] inception_5b/5x5_reduce <- inception_5a/output_inception_5a/output_0_split_2
I0403 15:45:47.489629 20246 net.cpp:399] inception_5b/5x5_reduce -> inception_5b/5x5_reduce
I0403 15:45:47.490871 20246 net.cpp:141] Setting up inception_5b/5x5_reduce
I0403 15:45:47.490898 20246 net.cpp:148] Top shape: 24 48 7 7 (56448)
I0403 15:45:47.490913 20246 net.cpp:156] Memory required for data: 1334499360
I0403 15:45:47.490931 20246 layer_factory.hpp:77] Creating layer inception_5b/relu_5x5_reduce
I0403 15:45:47.490950 20246 net.cpp:91] Creating Layer inception_5b/relu_5x5_reduce
I0403 15:45:47.490967 20246 net.cpp:425] inception_5b/relu_5x5_reduce <- inception_5b/5x5_reduce
I0403 15:45:47.490984 20246 net.cpp:386] inception_5b/relu_5x5_reduce -> inception_5b/5x5_reduce (in-place)
I0403 15:45:47.491350 20246 net.cpp:141] Setting up inception_5b/relu_5x5_reduce
I0403 15:45:47.491375 20246 net.cpp:148] Top shape: 24 48 7 7 (56448)
I0403 15:45:47.491390 20246 net.cpp:156] Memory required for data: 1334725152
I0403 15:45:47.491403 20246 layer_factory.hpp:77] Creating layer inception_5b/5x5
I0403 15:45:47.491425 20246 net.cpp:91] Creating Layer inception_5b/5x5
I0403 15:45:47.491441 20246 net.cpp:425] inception_5b/5x5 <- inception_5b/5x5_reduce
I0403 15:45:47.491458 20246 net.cpp:399] inception_5b/5x5 -> inception_5b/5x5
I0403 15:45:47.493473 20246 net.cpp:141] Setting up inception_5b/5x5
I0403 15:45:47.493499 20246 net.cpp:148] Top shape: 24 128 7 7 (150528)
I0403 15:45:47.493515 20246 net.cpp:156] Memory required for data: 1335327264
I0403 15:45:47.493531 20246 layer_factory.hpp:77] Creating layer inception_5b/relu_5x5
I0403 15:45:47.493551 20246 net.cpp:91] Creating Layer inception_5b/relu_5x5
I0403 15:45:47.493566 20246 net.cpp:425] inception_5b/relu_5x5 <- inception_5b/5x5
I0403 15:45:47.493583 20246 net.cpp:386] inception_5b/relu_5x5 -> inception_5b/5x5 (in-place)
I0403 15:45:47.493772 20246 net.cpp:141] Setting up inception_5b/relu_5x5
I0403 15:45:47.493795 20246 net.cpp:148] Top shape: 24 128 7 7 (150528)
I0403 15:45:47.493808 20246 net.cpp:156] Memory required for data: 1335929376
I0403 15:45:47.493823 20246 layer_factory.hpp:77] Creating layer inception_5b/pool
I0403 15:45:47.493839 20246 net.cpp:91] Creating Layer inception_5b/pool
I0403 15:45:47.493854 20246 net.cpp:425] inception_5b/pool <- inception_5a/output_inception_5a/output_0_split_3
I0403 15:45:47.493873 20246 net.cpp:399] inception_5b/pool -> inception_5b/pool
I0403 15:45:47.493945 20246 net.cpp:141] Setting up inception_5b/pool
I0403 15:45:47.493969 20246 net.cpp:148] Top shape: 24 832 7 7 (978432)
I0403 15:45:47.493983 20246 net.cpp:156] Memory required for data: 1339843104
I0403 15:45:47.493996 20246 layer_factory.hpp:77] Creating layer inception_5b/pool_proj
I0403 15:45:47.494019 20246 net.cpp:91] Creating Layer inception_5b/pool_proj
I0403 15:45:47.494036 20246 net.cpp:425] inception_5b/pool_proj <- inception_5b/pool
I0403 15:45:47.494057 20246 net.cpp:399] inception_5b/pool_proj -> inception_5b/pool_proj
I0403 15:45:47.496341 20246 net.cpp:141] Setting up inception_5b/pool_proj
I0403 15:45:47.496369 20246 net.cpp:148] Top shape: 24 128 7 7 (150528)
I0403 15:45:47.496384 20246 net.cpp:156] Memory required for data: 1340445216
I0403 15:45:47.496402 20246 layer_factory.hpp:77] Creating layer inception_5b/relu_pool_proj
I0403 15:45:47.496420 20246 net.cpp:91] Creating Layer inception_5b/relu_pool_proj
I0403 15:45:47.496436 20246 net.cpp:425] inception_5b/relu_pool_proj <- inception_5b/pool_proj
I0403 15:45:47.496453 20246 net.cpp:386] inception_5b/relu_pool_proj -> inception_5b/pool_proj (in-place)
I0403 15:45:47.496767 20246 net.cpp:141] Setting up inception_5b/relu_pool_proj
I0403 15:45:47.496793 20246 net.cpp:148] Top shape: 24 128 7 7 (150528)
I0403 15:45:47.496808 20246 net.cpp:156] Memory required for data: 1341047328
I0403 15:45:47.496822 20246 layer_factory.hpp:77] Creating layer inception_5b/output
I0403 15:45:47.496842 20246 net.cpp:91] Creating Layer inception_5b/output
I0403 15:45:47.496872 20246 net.cpp:425] inception_5b/output <- inception_5b/1x1
I0403 15:45:47.496891 20246 net.cpp:425] inception_5b/output <- inception_5b/3x3
I0403 15:45:47.496906 20246 net.cpp:425] inception_5b/output <- inception_5b/5x5
I0403 15:45:47.496922 20246 net.cpp:425] inception_5b/output <- inception_5b/pool_proj
I0403 15:45:47.496937 20246 net.cpp:399] inception_5b/output -> inception_5b/output
I0403 15:45:47.496991 20246 net.cpp:141] Setting up inception_5b/output
I0403 15:45:47.497015 20246 net.cpp:148] Top shape: 24 1024 7 7 (1204224)
I0403 15:45:47.497030 20246 net.cpp:156] Memory required for data: 1345864224
I0403 15:45:47.497061 20246 layer_factory.hpp:77] Creating layer pool5/7x7_s1
I0403 15:45:47.497077 20246 net.cpp:91] Creating Layer pool5/7x7_s1
I0403 15:45:47.497092 20246 net.cpp:425] pool5/7x7_s1 <- inception_5b/output
I0403 15:45:47.497112 20246 net.cpp:399] pool5/7x7_s1 -> pool5/7x7_s1
I0403 15:45:47.497324 20246 net.cpp:141] Setting up pool5/7x7_s1
I0403 15:45:47.497350 20246 net.cpp:148] Top shape: 24 1024 1 1 (24576)
I0403 15:45:47.497365 20246 net.cpp:156] Memory required for data: 1345962528
I0403 15:45:47.497380 20246 layer_factory.hpp:77] Creating layer pool5/drop_7x7_s1
I0403 15:45:47.497395 20246 net.cpp:91] Creating Layer pool5/drop_7x7_s1
I0403 15:45:47.497411 20246 net.cpp:425] pool5/drop_7x7_s1 <- pool5/7x7_s1
I0403 15:45:47.497426 20246 net.cpp:386] pool5/drop_7x7_s1 -> pool5/7x7_s1 (in-place)
I0403 15:45:47.497476 20246 net.cpp:141] Setting up pool5/drop_7x7_s1
I0403 15:45:47.497498 20246 net.cpp:148] Top shape: 24 1024 1 1 (24576)
I0403 15:45:47.497511 20246 net.cpp:156] Memory required for data: 1346060832
I0403 15:45:47.497525 20246 layer_factory.hpp:77] Creating layer loss3/classifier_plantvillage
I0403 15:45:47.497545 20246 net.cpp:91] Creating Layer loss3/classifier_plantvillage
I0403 15:45:47.497561 20246 net.cpp:425] loss3/classifier_plantvillage <- pool5/7x7_s1
I0403 15:45:47.497580 20246 net.cpp:399] loss3/classifier_plantvillage -> loss3/classifier_plantvillage
I0403 15:45:47.497993 20246 net.cpp:141] Setting up loss3/classifier_plantvillage
I0403 15:45:47.498018 20246 net.cpp:148] Top shape: 24 38 (912)
I0403 15:45:47.498030 20246 net.cpp:156] Memory required for data: 1346064480
I0403 15:45:47.498056 20246 layer_factory.hpp:77] Creating layer loss3/classifier_plantvillage_loss3/classifier_plantvillage_0_split
I0403 15:45:47.498076 20246 net.cpp:91] Creating Layer loss3/classifier_plantvillage_loss3/classifier_plantvillage_0_split
I0403 15:45:47.498092 20246 net.cpp:425] loss3/classifier_plantvillage_loss3/classifier_plantvillage_0_split <- loss3/classifier_plantvillage
I0403 15:45:47.498111 20246 net.cpp:399] loss3/classifier_plantvillage_loss3/classifier_plantvillage_0_split -> loss3/classifier_plantvillage_loss3/classifier_plantvillage_0_split_0
I0403 15:45:47.498132 20246 net.cpp:399] loss3/classifier_plantvillage_loss3/classifier_plantvillage_0_split -> loss3/classifier_plantvillage_loss3/classifier_plantvillage_0_split_1
I0403 15:45:47.498152 20246 net.cpp:399] loss3/classifier_plantvillage_loss3/classifier_plantvillage_0_split -> loss3/classifier_plantvillage_loss3/classifier_plantvillage_0_split_2
I0403 15:45:47.498170 20246 net.cpp:399] loss3/classifier_plantvillage_loss3/classifier_plantvillage_0_split -> loss3/classifier_plantvillage_loss3/classifier_plantvillage_0_split_3
I0403 15:45:47.498270 20246 net.cpp:141] Setting up loss3/classifier_plantvillage_loss3/classifier_plantvillage_0_split
I0403 15:45:47.498296 20246 net.cpp:148] Top shape: 24 38 (912)
I0403 15:45:47.498311 20246 net.cpp:148] Top shape: 24 38 (912)
I0403 15:45:47.498325 20246 net.cpp:148] Top shape: 24 38 (912)
I0403 15:45:47.498339 20246 net.cpp:148] Top shape: 24 38 (912)
I0403 15:45:47.498353 20246 net.cpp:156] Memory required for data: 1346079072
I0403 15:45:47.498366 20246 layer_factory.hpp:77] Creating layer loss1/loss
I0403 15:45:47.498388 20246 net.cpp:91] Creating Layer loss1/loss
I0403 15:45:47.498404 20246 net.cpp:425] loss1/loss <- loss1/classifier_plantvillage_loss1/classifier_plantvillage_0_split_0
I0403 15:45:47.498435 20246 net.cpp:425] loss1/loss <- label_data_1_split_0
…
