…
I0403 02:30:37.720211 19579 net.cpp:313] The NetState phase (0) differed from the phase (1) specified by a rule in layer loss3/top-5
I0403 02:30:37.724931 19579 net.cpp:49] Initializing net from parameters: 
state {
  phase: TRAIN
}
layer {
  name: "data"
  type: "Data"
  top: "data"
  top: "label"
  include {
    phase: TRAIN
  }
  transform_param {
    mirror: true
    crop_size: 224
    mean_file: "/home/mohanty/data/final_dataset/lmdb/grayscale-60-40/mean.binaryproto"
  }
  data_param {
    source: "/home/mohanty/data/final_dataset/lmdb/grayscale-60-40/train_db"
    batch_size: 24
    backend: LMDB
  }
}
layer {
  name: "conv1/7x7_s2"
  type: "Convolution"
  bottom: "data"
  top: "conv1/7x7_s2"
  param {
    lr_mult: 1
    decay_mult: 1
  }
  param {
    lr_mult: 2
    decay_mult: 0
  }
  convolution_param {
    num_output: 64
    pad: 3
    kernel_size: 7
    stride: 2
    weight_filler {
      type: "xavier"
      std: 0.1
    }
    bias_filler {
      type: "constant"
      value: 0.2
    }
  }
}
layer {
  name: "conv1/relu_7x7"
  type: "ReLU"
  bottom: "conv1/7x7_s2"
  top: "conv1/7x7_s2"
}
layer {
  name: "pool1/3x3_s2"
  type: "Pooling"
  bottom: "conv1/7x7_s2"
  top: "pool1/3x3_s2"
  pooling_param {
    pool: MAX
    kernel_size: 3
    stride: 2
  }
}
layer {
  name: "pool1/norm1"
  type: "LRN"
  bottom: "pool1/3x3_s2"
  top: "pool1/norm1"
  lrn_param {
    local_size: 5
    alpha: 0.0001
    beta: 0.75
  }
}
layer {
  name: "conv2/3x3_reduce"
  type: "Convolution"
  bottom: "pool1/norm1"
  top: "conv2/3x3_reduce"
  param {
    lr_mult: 1
    decay_mult: 1
  }
  param {
    lr_mult: 2
    decay_mult: 0
  }
  convolution_param {
    num_output: 64
    kernel_size: 1
    weight_filler {
      type: "xavier"
      std: 0.1
    }
    bias_filler {
      type: "constant"
      value: 0.2
    }
  }
}
layer {
  name: "conv2/relu_3x3_reduce"
  type: "ReLU"
  bottom: "conv2/3x3_reduce"
  top: "conv2/3x3_reduce"
}
layer {
  name: "conv2/3x3"
  type: "Convolution"
  bottom: "conv2/3x3_reduce"
  top: "conv2/3x3"
  param {
    lr_mult: 1
    decay_mult: 1
  }
  param {
    lr_mult: 2
    decay_mult: 0
  }
  convolution_param {
    num_output: 192
    pad: 1
    kernel_size: 3
    weight_filler {
      type: "xavier"
      std: 0.03
    }
    bias_filler {
      type: "constant"
      value: 0.2
    }
  }
}
layer {
  name: "conv2/relu_3x3"
  type: "ReLU"
  bottom: "conv2/3x3"
  top: "conv2/3x3"
}
layer {
  name: "conv2/norm2"
  type: "LRN"
  bottom: "conv2/3x3"
  top: "conv2/norm2"
  lrn_param {
    local_size: 5
    alpha: 0.0001
    beta: 0.75
  }
}
layer {
  name: "pool2/3x3_s2"
  type: "Pooling"
  bottom: "conv2/norm2"
  top: "pool2/3x3_s2"
  pooling_param {
    pool: MAX
    kernel_size: 3
    stride: 2
  }
}
layer {
  name: "inception_3a/1x1"
  type: "Convolution"
  bottom: "pool2/3x3_s2"
  top: "inception_3a/1x1"
  param {
    lr_mult: 1
    decay_mult: 1
  }
  param {
    lr_mult: 2
    decay_mult: 0
  }
  convolution_param {
    num_output: 64
    kernel_size: 1
    weight_filler {
      type: "xavier"
      std: 0.03
    }
    bias_filler {
      type: "constant"
      value: 0.2
    }
  }
}
layer {
  name: "inception_3a/relu_1x1"
  type: "ReLU"
  bottom: "inception_3a/1x1"
  top: "inception_3a/1x1"
}
layer {
  name: "inception_3a/3x3_reduce"
  type: "Convolution"
  bottom: "pool2/3x3_s2"
  top: "inception_3a/3x3_reduce"
  param {
    lr_mult: 1
    decay_mult: 1
  }
  param {
    lr_mult: 2
    decay_mult: 0
  }
  convolution_param {
    num_output: 96
    kernel_size: 1
    weight_filler {
      type: "xavier"
      std: 0.09
    }
    bias_filler {
      type: "constant"
      value: 0.2
    }
  }
}
layer {
  name: "inception_3a/relu_3x3_reduce"
  type: "ReLU"
  bottom: "inception_3a/3x3_reduce"
  top: "inception_3a/3x3_reduce"
}
layer {
  name: "inception_3a/3x3"
  type: "Convolution"
  bottom: "inception_3a/3x3_reduce"
  top: "inception_3a/3x3"
  param {
    lr_mult: 1
    decay_mult: 1
  }
  param {
    lr_mult: 2
    decay_mult: 0
  }
  convolution_param {
    num_output: 128
    pad: 1
    kernel_size: 3
    weight_filler {
      type: "xavier"
      std: 0.03
    }
    bias_filler {
      type: "constant"
      value: 0.2
    }
  }
}
layer {
  name: "inception_3a/relu_3x3"
  type: "ReLU"
  bottom: "inception_3a/3x3"
  top: "inception_3a/3x3"
}
layer {
  name: "inception_3a/5x5_reduce"
  type: "Convolution"
  bottom: "pool2/3x3_s2"
  top: "inception_3a/5x5_reduce"
  param {
    lr_mult: 1
    decay_mult: 1
  }
  param {
    lr_mult: 2
    decay_mult: 0
  }
  convolution_param {
    num_output: 16
    kernel_size: 1
    weight_filler {
      type: "xavier"
      std: 0.2
    }
    bias_filler {
      type: "constant"
      value: 0.2
    }
  }
}
layer {
  name: "inception_3a/relu_5x5_reduce"
  type: "ReLU"
  bottom: "inception_3a/5x5_reduce"
  top: "inception_3a/5x5_reduce"
}
layer {
  name: "inception_3a/5x5"
  type: "Convolution"
  bottom: "inception_3a/5x5_reduce"
  top: "inception_3a/5x5"
  param {
    lr_mult: 1
    decay_mult: 1
  }
  param {
    lr_mult: 2
    decay_mult: 0
  }
  convolution_param {
    num_output: 32
    pad: 2
    kernel_size: 5
    weight_filler {
      type: "xavier"
      std: 0.03
    }
    bias_filler {
      type: "constant"
      value: 0.2
    }
  }
}
layer {
  name: "inception_3a/relu_5x5"
  type: "ReLU"
  bottom: "inception_3a/5x5"
  top: "inception_3a/5x5"
}
layer {
  name: "inception_3a/pool"
  type: "Pooling"
  bottom: "pool2/3x3_s2"
  top: "inception_3a/pool"
  pooling_param {
    pool: MAX
    kernel_size: 3
    stride: 1
    pad: 1
  }
}
layer {
  name: "inception_3a/pool_proj"
  type: "Convolution"
  bottom: "inception_3a/pool"
  top: "inception_3a/pool_proj"
  param {
    lr_mult: 1
    decay_mult: 1
  }
  param {
    lr_mult: 2
    decay_mult: 0
  }
  convolution_param {
    num_output: 32
    kernel_size: 1
    weight_filler {
      type: "xavier"
      std: 0.1
    }
    bias_filler {
      type: "constant"
      value: 0.2
    }
  }
}
layer {
  name: "inception_3a/relu_pool_proj"
  type: "ReLU"
  bottom: "inception_3a/pool_proj"
  top: "inception_3a/pool_proj"
}
layer {
  name: "inception_3a/output"
  type: "Concat"
  bottom: "inception_3a/1x1"
  bottom: "inception_3a/3x3"
  bottom: "inception_3a/5x5"
  bottom: "inception_3a/pool_proj"
  top: "inception_3a/output"
}
layer {
  name: "inception_3b/1x1"
  type: "Convolution"
  bottom: "inception_3a/output"
  top: "inception_3b/1x1"
  param {
    lr_mult: 1
    decay_mult: 1
  }
  param {
    lr_mult: 2
    decay_mult: 0
  }
  convolution_param {
    num_output: 128
    kernel_size: 1
    weight_filler {
      type: "xavier"
      std: 0.03
    }
    bias_filler {
      type: "constant"
      value: 0.2
    }
  }
}
layer {
  name: "inception_3b/relu_1x1"
  type: "ReLU"
  bottom: "inception_3b/1x1"
  top: "inception_3b/1x1"
}
layer {
  name: "inception_3b/3x3_reduce"
  type: "Convolution"
  bottom: "inception_3a/output"
  top: "inception_3b/3x3_reduce"
  param {
    lr_mult: 1
    decay_mult: 1
  }
  param {
    lr_mult: 2
    decay_mult: 0
  }
  convolution_param {
    num_output: 128
    kernel_size: 1
    weight_filler {
      type: "xavier"
      std: 0.09
    }
    bias_filler {
      type: "constant"
      value: 0.2
    }
  }
}
layer {
  name: "inception_3b/relu_3x3_reduce"
  type: "ReLU"
  bottom: "inception_3b/3x3_reduce"
  top: "inception_3b/3x3_reduce"
}
layer {
  name: "inception_3b/3x3"
  type: "Convolution"
  bottom: "inception_3b/3x3_reduce"
  top: "inception_3b/3x3"
  param {
    lr_mult: 1
    decay_mult: 1
  }
  param {
    lr_mult: 2
    decay_mult: 0
  }
  convolution_param {
    num_output: 192
    pad: 1
    kernel_size: 3
    weight_filler {
      type: "xavier"
      std: 0.03
    }
    bias_filler {
      type: "constant"
      value: 0.2
    }
  }
}
layer {
  name: "inception_3b/relu_3x3"
  type: "ReLU"
  bottom: "inception_3b/3x3"
  top: "inception_3b/3x3"
}
layer {
  name: "inception_3b/5x5_reduce"
  type: "Convolution"
  bottom: "inception_3a/output"
  top: "inception_3b/5x5_reduce"
  param {
    lr_mult: 1
    decay_mult: 1
  }
  param {
    lr_mult: 2
    decay_mult: 0
  }
  convolution_param {
    num_output: 32
    kernel_size: 1
    weight_filler {
      type: "xavier"
      std: 0.2
    }
    bias_filler {
      type: "constant"
      value: 0.2
    }
  }
}
layer {
  name: "inception_3b/relu_5x5_reduce"
  type: "ReLU"
  bottom: "inception_3b/5x5_reduce"
  top: "inception_3b/5x5_reduce"
}
layer {
  name: "inception_3b/5x5"
  type: "Convolution"
  bottom: "inception_3b/5x5_reduce"
  top: "inception_3b/5x5"
  param {
    lr_mult: 1
    decay_mult: 1
  }
  param {
    lr_mult: 2
    decay_mult: 0
  }
  convolution_param {
    num_output: 96
    pad: 2
    kernel_size: 5
    weight_filler {
      type: "xavier"
      std: 0.03
    }
    bias_filler {
      type: "constant"
      value: 0.2
    }
  }
}
layer {
  name: "inception_3b/relu_5x5"
  type: "ReLU"
  bottom: "inception_3b/5x5"
  top: "inception_3b/5x5"
}
layer {
  name: "inception_3b/pool"
  type: "Pooling"
  bottom: "inception_3a/output"
  top: "inception_3b/pool"
  pooling_param {
    pool: MAX
    kernel_size: 3
    stride: 1
    pad: 1
  }
}
layer {
  name: "inception_3b/pool_proj"
  type: "Convolution"
  bottom: "inception_3b/pool"
  top: "inception_3b/pool_proj"
  param {
    lr_mult: 1
    decay_mult: 1
  }
  param {
    lr_mult: 2
    decay_mult: 0
  }
  convolution_param {
    num_output: 64
    kernel_size: 1
    weight_filler {
      type: "xavier"
      std: 0.1
    }
    bias_filler {
      type: "constant"
      value: 0.2
    }
  }
}
layer {
  name: "inception_3b/relu_pool_proj"
  type: "ReLU"
  bottom: "inception_3b/pool_proj"
  top: "inception_3b/pool_proj"
}
layer {
  name: "inception_3b/output"
  type: "Concat"
  bottom: "inception_3b/1x1"
  bottom: "inception_3b/3x3"
  bottom: "inception_3b/5x5"
  bottom: "inception_3b/pool_proj"
  top: "inception_3b/output"
}
layer {
  name: "pool3/3x3_s2"
  type: "Pooling"
  bottom: "inception_3b/output"
  top: "pool3/3x3_s2"
  pooling_param {
    pool: MAX
    kernel_size: 3
    stride: 2
  }
}
layer {
  name: "inception_4a/1x1"
  type: "Convolution"
  bottom: "pool3/3x3_s2"
  top: "inception_4a/1x1"
  param {
    lr_mult: 1
    decay_mult: 1
  }
  param {
    lr_mult: 2
    decay_mult: 0
  }
  convolution_param {
    num_output: 192
    kernel_size: 1
    weight_filler {
      type: "xavier"
      std: 0.03
    }
    bias_filler {
      type: "constant"
      value: 0.2
    }
  }
}
layer {
  name: "inception_4a/relu_1x1"
  type: "ReLU"
  bottom: "inception_4a/1x1"
  top: "inception_4a/1x1"
}
layer {
  name: "inception_4a/3x3_reduce"
  type: "Convolution"
  bottom: "pool3/3x3_s2"
  top: "inception_4a/3x3_reduce"
  param {
    lr_mult: 1
    decay_mult: 1
  }
  param {
    lr_mult: 2
    decay_mult: 0
  }
  convolution_param {
    num_output: 96
    kernel_size: 1
    weight_filler {
      type: "xavier"
      std: 0.09
    }
    bias_filler {
      type: "constant"
      value: 0.2
    }
  }
}
layer {
  name: "inception_4a/relu_3x3_reduce"
  type: "ReLU"
  bottom: "inception_4a/3x3_reduce"
  top: "inception_4a/3x3_reduce"
}
layer {
  name: "inception_4a/3x3"
  type: "Convolution"
  bottom: "inception_4a/3x3_reduce"
  top: "inception_4a/3x3"
  param {
    lr_mult: 1
    decay_mult: 1
  }
  param {
    lr_mult: 2
    decay_mult: 0
  }
  convolution_param {
    num_output: 208
    pad: 1
    kernel_size: 3
    weight_filler {
      type: "xavier"
      std: 0.03
    }
    bias_filler {
      type: "constant"
      value: 0.2
    }
  }
}
layer {
  name: "inception_4a/relu_3x3"
  type: "ReLU"
  bottom: "inception_4a/3x3"
  top: "inception_4a/3x3"
}
layer {
  name: "inception_4a/5x5_reduce"
  type: "Convolution"
  bottom: "pool3/3x3_s2"
  top: "inception_4a/5x5_reduce"
  param {
    lr_mult: 1
    decay_mult: 1
  }
  param {
    lr_mult: 2
    decay_mult: 0
  }
  convolution_param {
    num_output: 16
    kernel_size: 1
    weight_filler {
      type: "xavier"
      std: 0.2
    }
    bias_filler {
      type: "constant"
      value: 0.2
    }
  }
}
layer {
  name: "inception_4a/relu_5x5_reduce"
  type: "ReLU"
  bottom: "inception_4a/5x5_reduce"
  top: "inception_4a/5x5_reduce"
}
layer {
  name: "inception_4a/5x5"
  type: "Convolution"
  bottom: "inception_4a/5x5_reduce"
  top: "inception_4a/5x5"
  param {
    lr_mult: 1
    decay_mult: 1
  }
  param {
    lr_mult: 2
    decay_mult: 0
  }
  convolution_param {
    num_output: 48
    pad: 2
    kernel_size: 5
    weight_filler {
      type: "xavier"
      std: 0.03
    }
    bias_filler {
      type: "constant"
      value: 0.2
    }
  }
}
layer {
  name: "inception_4a/relu_5x5"
  type: "ReLU"
  bottom: "inception_4a/5x5"
  top: "inception_4a/5x5"
}
layer {
  name: "inception_4a/pool"
  type: "Pooling"
  bottom: "pool3/3x3_s2"
  top: "inception_4a/pool"
  pooling_param {
    pool: MAX
    kernel_size: 3
    stride: 1
    pad: 1
  }
}
layer {
  name: "inception_4a/pool_proj"
  type: "Convolution"
  bottom: "inception_4a/pool"
  top: "inception_4a/pool_proj"
  param {
    lr_mult: 1
    decay_mult: 1
  }
  param {
    lr_mult: 2
    decay_mult: 0
  }
  convolution_param {
    num_output: 64
    kernel_size: 1
    weight_filler {
      type: "xavier"
      std: 0.1
    }
    bias_filler {
      type: "constant"
      value: 0.2
    }
  }
}
layer {
  name: "inception_4a/relu_pool_proj"
  type: "ReLU"
  bottom: "inception_4a/pool_proj"
  top: "inception_4a/pool_proj"
}
layer {
  name: "inception_4a/output"
  type: "Concat"
  bottom: "inception_4a/1x1"
  bottom: "inception_4a/3x3"
  bottom: "inception_4a/5x5"
  bottom: "inception_4a/pool_proj"
  top: "inception_4a/output"
}
layer {
  name: "loss1/ave_pool"
  type: "Pooling"
  bottom: "inception_4a/output"
  top: "loss1/ave_pool"
  pooling_param {
    pool: AVE
    kernel_size: 5
    stride: 3
  }
}
layer {
  name: "loss1/conv"
  type: "Convolution"
  bottom: "loss1/ave_pool"
  top: "loss1/conv"
  param {
    lr_mult: 1
    decay_mult: 1
  }
  param {
    lr_mult: 2
    decay_mult: 0
  }
  convolution_param {
    num_output: 128
    kernel_size: 1
    weight_filler {
      type: "xavier"
      std: 0.08
    }
    bias_filler {
      type: "constant"
      value: 0.2
    }
  }
}
layer {
  name: "loss1/relu_conv"
  type: "ReLU"
  bottom: "loss1/conv"
  top: "loss1/conv"
}
layer {
  name: "loss1/fc"
  type: "InnerProduct"
  bottom: "loss1/conv"
  top: "loss1/fc"
  param {
    lr_mult: 1
    decay_mult: 1
  }
  param {
    lr_mult: 2
    decay_mult: 0
  }
  inner_product_param {
    num_output: 1024
    weight_filler {
      type: "xavier"
      std: 0.02
    }
    bias_filler {
      type: "constant"
      value: 0.2
    }
  }
}
layer {
  name: "loss1/relu_fc"
  type: "ReLU"
  bottom: "loss1/fc"
  top: "loss1/fc"
}
layer {
  name: "loss1/drop_fc"
  type: "Dropout"
  bottom: "loss1/fc"
  top: "loss1/fc"
  dropout_param {
    dropout_ratio: 0.7
  }
}
layer {
  name: "loss1/classifier_plantvillage"
  type: "InnerProduct"
  bottom: "loss1/fc"
  top: "loss1/classifier_plantvillage"
  param {
    lr_mult: 1
    decay_mult: 1
  }
  param {
    lr_mult: 2
    decay_mult: 0
  }
  inner_product_param {
    num_output: 38
    weight_filler {
      type: "xavier"
      std: 0.0009765625
    }
    bias_filler {
      type: "constant"
      value: 0
    }
  }
}
layer {
  name: "inception_4b/1x1"
  type: "Convolution"
  bottom: "inception_4a/output"
  top: "inception_4b/1x1"
  param {
    lr_mult: 1
    decay_mult: 1
  }
  param {
    lr_mult: 2
    decay_mult: 0
  }
  convolution_param {
    num_output: 160
    kernel_size: 1
    weight_filler {
      type: "xavier"
      std: 0.03
    }
    bias_filler {
      type: "constant"
      value: 0.2
    }
  }
}
layer {
  name: "inception_4b/relu_1x1"
  type: "ReLU"
  bottom: "inception_4b/1x1"
  top: "inception_4b/1x1"
}
layer {
  name: "inception_4b/3x3_reduce"
  type: "Convolution"
  bottom: "inception_4a/output"
  top: "inception_4b/3x3_reduce"
  param {
    lr_mult: 1
    decay_mult: 1
  }
  param {
    lr_mult: 2
    decay_mult: 0
  }
  convolution_param {
    num_output: 112
    kernel_size: 1
    weight_filler {
      type: "xavier"
      std: 0.09
    }
    bias_filler {
      type: "constant"
      value: 0.2
    }
  }
}
layer {
  name: "inception_4b/relu_3x3_reduce"
  type: "ReLU"
  bottom: "inception_4b/3x3_reduce"
  top: "inception_4b/3x3_reduce"
}
layer {
  name: "inception_4b/3x3"
  type: "Convolution"
  bottom: "inception_4b/3x3_reduce"
  top: "inception_4b/3x3"
  param {
    lr_mult: 1
    decay_mult: 1
  }
  param {
    lr_mult: 2
    decay_mult: 0
  }
  convolution_param {
    num_output: 224
    pad: 1
    kernel_size: 3
    weight_filler {
      type: "xavier"
      std: 0.03
    }
    bias_filler {
      type: "constant"
      value: 0.2
    }
  }
}
layer {
  name: "inception_4b/relu_3x3"
  type: "ReLU"
  bottom: "inception_4b/3x3"
  top: "inception_4b/3x3"
}
layer {
  name: "inception_4b/5x5_reduce"
  type: "Convolution"
  bottom: "inception_4a/output"
  top: "inception_4b/5x5_reduce"
  param {
    lr_mult: 1
    decay_mult: 1
  }
  param {
    lr_mult: 2
    decay_mult: 0
  }
  convolution_param {
    num_output: 24
    kernel_size: 1
    weight_filler {
      type: "xavier"
      std: 0.2
    }
    bias_filler {
      type: "constant"
      value: 0.2
    }
  }
}
layer {
  name: "inception_4b/relu_5x5_reduce"
  type: "ReLU"
  bottom: "inception_4b/5x5_reduce"
  top: "inception_4b/5x5_reduce"
}
layer {
  name: "inception_4b/5x5"
  type: "Convolution"
  bottom: "inception_4b/5x5_reduce"
  top: "inception_4b/5x5"
  param {
    lr_mult: 1
    decay_mult: 1
  }
  param {
    lr_mult: 2
    decay_mult: 0
  }
  convolution_param {
    num_output: 64
    pad: 2
    kernel_size: 5
    weight_filler {
      type: "xavier"
      std: 0.03
    }
    bias_filler {
      type: "constant"
      value: 0.2
    }
  }
}
layer {
  name: "inception_4b/relu_5x5"
  type: "ReLU"
  bottom: "inception_4b/5x5"
  top: "inception_4b/5x5"
}
layer {
  name: "inception_4b/pool"
  type: "Pooling"
  bottom: "inception_4a/output"
  top: "inception_4b/pool"
  pooling_param {
    pool: MAX
    kernel_size: 3
    stride: 1
    pad: 1
  }
}
layer {
  name: "inception_4b/pool_proj"
  type: "Convolution"
  bottom: "inception_4b/pool"
  top: "inception_4b/pool_proj"
  param {
    lr_mult: 1
    decay_mult: 1
  }
  param {
    lr_mult: 2
    decay_mult: 0
  }
  convolution_param {
    num_output: 64
    kernel_size: 1
    weight_filler {
      type: "xavier"
      std: 0.1
    }
    bias_filler {
      type: "constant"
      value: 0.2
    }
  }
}
layer {
  name: "inception_4b/relu_pool_proj"
  type: "ReLU"
  bottom: "inception_4b/pool_proj"
  top: "inception_4b/pool_proj"
}
layer {
  name: "inception_4b/output"
  type: "Concat"
  bottom: "inception_4b/1x1"
  bottom: "inception_4b/3x3"
  bottom: "inception_4b/5x5"
  bottom: "inception_4b/pool_proj"
  top: "inception_4b/output"
}
layer {
  name: "inception_4c/1x1"
  type: "Convolution"
  bottom: "inception_4b/output"
  top: "inception_4c/1x1"
  param {
    lr_mult: 1
    decay_mult: 1
  }
  param {
    lr_mult: 2
    decay_mult: 0
  }
  convolution_param {
    num_output: 128
    kernel_size: 1
    weight_filler {
      type: "xavier"
      std: 0.03
    }
    bias_filler {
      type: "constant"
      value: 0.2
    }
  }
}
layer {
  name: "inception_4c/relu_1x1"
  type: "ReLU"
  bottom: "inception_4c/1x1"
  top: "inception_4c/1x1"
}
layer {
  name: "inception_4c/3x3_reduce"
  type: "Convolution"
  bottom: "inception_4b/output"
  top: "inception_4c/3x3_reduce"
  param {
    lr_mult: 1
    decay_mult: 1
  }
  param {
    lr_mult: 2
    decay_mult: 0
  }
  convolution_param {
    num_output: 128
    kernel_size: 1
    weight_filler {
      type: "xavier"
      std: 0.09
    }
    bias_filler {
      type: "constant"
      value: 0.2
    }
  }
}
layer {
  name: "inception_4c/relu_3x3_reduce"
  type: "ReLU"
  bottom: "inception_4c/3x3_reduce"
  top: "inception_4c/3x3_reduce"
}
layer {
  name: "inception_4c/3x3"
  type: "Convolution"
  bottom: "inception_4c/3x3_reduce"
  top: "inception_4c/3x3"
  param {
    lr_mult: 1
    decay_mult: 1
  }
  param {
    lr_mult: 2
    decay_mult: 0
  }
  convolution_param {
    num_output: 256
    pad: 1
    kernel_size: 3
    weight_filler {
      type: "xavier"
      std: 0.03
    }
    bias_filler {
      type: "constant"
      value: 0.2
    }
  }
}
layer {
  name: "inception_4c/relu_3x3"
  type: "ReLU"
  bottom: "inception_4c/3x3"
  top: "inception_4c/3x3"
}
layer {
  name: "inception_4c/5x5_reduce"
  type: "Convolution"
  bottom: "inception_4b/output"
  top: "inception_4c/5x5_reduce"
  param {
    lr_mult: 1
    decay_mult: 1
  }
  param {
    lr_mult: 2
    decay_mult: 0
  }
  convolution_param {
    num_output: 24
    kernel_size: 1
    weight_filler {
      type: "xavier"
      std: 0.2
    }
    bias_filler {
      type: "constant"
      value: 0.2
    }
  }
}
layer {
  name: "inception_4c/relu_5x5_reduce"
  type: "ReLU"
  bottom: "inception_4c/5x5_reduce"
  top: "inception_4c/5x5_reduce"
}
layer {
  name: "inception_4c/5x5"
  type: "Convolution"
  bottom: "inception_4c/5x5_reduce"
  top: "inception_4c/5x5"
  param {
    lr_mult: 1
    decay_mult: 1
  }
  param {
    lr_mult: 2
    decay_mult: 0
  }
  convolution_param {
    num_output: 64
    pad: 2
    kernel_size: 5
    weight_filler {
      type: "xavier"
      std: 0.03
    }
    bias_filler {
      type: "constant"
      value: 0.2
    }
  }
}
layer {
  name: "inception_4c/relu_5x5"
  type: "ReLU"
  bottom: "inception_4c/5x5"
  top: "inception_4c/5x5"
}
layer {
  name: "inception_4c/pool"
  type: "Pooling"
  bottom: "inception_4b/output"
  top: "inception_4c/pool"
  pooling_param {
    pool: MAX
    kernel_size: 3
    stride: 1
    pad: 1
  }
}
layer {
  name: "inception_4c/pool_proj"
  type: "Convolution"
  bottom: "inception_4c/pool"
  top: "inception_4c/pool_proj"
  param {
    lr_mult: 1
    decay_mult: 1
  }
  param {
    lr_mult: 2
    decay_mult: 0
  }
  convolution_param {
    num_output: 64
    kernel_size: 1
    weight_filler {
      type: "xavier"
      std: 0.1
    }
    bias_filler {
      type: "constant"
      value: 0.2
    }
  }
}
layer {
  name: "inception_4c/relu_pool_proj"
  type: "ReLU"
  bottom: "inception_4c/pool_proj"
  top: "inception_4c/pool_proj"
}
layer {
  name: "inception_4c/output"
  type: "Concat"
  bottom: "inception_4c/1x1"
  bottom: "inception_4c/3x3"
  bottom: "inception_4c/5x5"
  bottom: "inception_4c/pool_proj"
  top: "inception_4c/output"
}
layer {
  name: "inception_4d/1x1"
  type: "Convolution"
  bottom: "inception_4c/output"
  top: "inception_4d/1x1"
  param {
    lr_mult: 1
    decay_mult: 1
  }
  param {
    lr_mult: 2
    decay_mult: 0
  }
  convolution_param {
    num_output: 112
    kernel_size: 1
    weight_filler {
      type: "xavier"
      std: 0.03
    }
    bias_filler {
      type: "constant"
      value: 0.2
    }
  }
}
layer {
  name: "inception_4d/relu_1x1"
  type: "ReLU"
  bottom: "inception_4d/1x1"
  top: "inception_4d/1x1"
}
layer {
  name: "inception_4d/3x3_reduce"
  type: "Convolution"
  bottom: "inception_4c/output"
  top: "inception_4d/3x3_reduce"
  param {
    lr_mult: 1
    decay_mult: 1
  }
  param {
    lr_mult: 2
    decay_mult: 0
  }
  convolution_param {
    num_output: 144
    kernel_size: 1
    weight_filler {
      type: "xavier"
      std: 0.09
    }
    bias_filler {
      type: "constant"
      value: 0.2
    }
  }
}
layer {
  name: "inception_4d/relu_3x3_reduce"
  type: "ReLU"
  bottom: "inception_4d/3x3_reduce"
  top: "inception_4d/3x3_reduce"
}
layer {
  name: "inception_4d/3x3"
  type: "Convolution"
  bottom: "inception_4d/3x3_reduce"
  top: "inception_4d/3x3"
  param {
    lr_mult: 1
    decay_mult: 1
  }
  param {
    lr_mult: 2
    decay_mult: 0
  }
  convolution_param {
    num_output: 288
    pad: 1
    kernel_size: 3
    weight_filler {
      type: "xavier"
      std: 0.03
    }
    bias_filler {
      type: "constant"
      value: 0.2
    }
  }
}
layer {
  name: "inception_4d/relu_3x3"
  type: "ReLU"
  bottom: "inception_4d/3x3"
  top: "inception_4d/3x3"
}
layer {
  name: "inception_4d/5x5_reduce"
  type: "Convolution"
  bottom: "inception_4c/output"
  top: "inception_4d/5x5_reduce"
  param {
    lr_mult: 1
    decay_mult: 1
  }
  param {
    lr_mult: 2
    decay_mult: 0
  }
  convolution_param {
    num_output: 32
    kernel_size: 1
    weight_filler {
      type: "xavier"
      std: 0.2
    }
    bias_filler {
      type: "constant"
      value: 0.2
    }
  }
}
layer {
  name: "inception_4d/relu_5x5_reduce"
  type: "ReLU"
  bottom: "inception_4d/5x5_reduce"
  top: "inception_4d/5x5_reduce"
}
layer {
  name: "inception_4d/5x5"
  type: "Convolution"
  bottom: "inception_4d/5x5_reduce"
  top: "inception_4d/5x5"
  param {
    lr_mult: 1
    decay_mult: 1
  }
  param {
    lr_mult: 2
    decay_mult: 0
  }
  convolution_param {
    num_output: 64
    pad: 2
    kernel_size: 5
    weight_filler {
      type: "xavier"
      std: 0.03
    }
    bias_filler {
      type: "constant"
      value: 0.2
    }
  }
}
layer {
  name: "inception_4d/relu_5x5"
  type: "ReLU"
  bottom: "inception_4d/5x5"
  top: "inception_4d/5x5"
}
layer {
  name: "inception_4d/pool"
  type: "Pooling"
  bottom: "inception_4c/output"
  top: "inception_4d/pool"
  pooling_param {
    pool: MAX
    kernel_size: 3
    stride: 1
    pad: 1
  }
}
layer {
  name: "inception_4d/pool_proj"
  type: "Convolution"
  bottom: "inception_4d/pool"
  top: "inception_4d/pool_proj"
  param {
    lr_mult: 1
    decay_mult: 1
  }
  param {
    lr_mult: 2
    decay_mult: 0
  }
  convolution_param {
    num_output: 64
    kernel_size: 1
    weight_filler {
      type: "xavier"
      std: 0.1
    }
    bias_filler {
      type: "constant"
      value: 0.2
    }
  }
}
layer {
  name: "inception_4d/relu_pool_proj"
  type: "ReLU"
  bottom: "inception_4d/pool_proj"
  top: "inception_4d/pool_proj"
}
layer {
  name: "inception_4d/output"
  type: "Concat"
  bottom: "inception_4d/1x1"
  bottom: "inception_4d/3x3"
  bottom: "inception_4d/5x5"
  bottom: "inception_4d/pool_proj"
  top: "inception_4d/output"
}
layer {
  name: "loss2/ave_pool"
  type: "Pooling"
  bottom: "inception_4d/output"
  top: "loss2/ave_pool"
  pooling_param {
    pool: AVE
    kernel_size: 5
    stride: 3
  }
}
layer {
  name: "loss2/conv"
  type: "Convolution"
  bottom: "loss2/ave_pool"
  top: "loss2/conv"
  param {
    lr_mult: 1
    decay_mult: 1
  }
  param {
    lr_mult: 2
    decay_mult: 0
  }
  convolution_param {
    num_output: 128
    kernel_size: 1
    weight_filler {
      type: "xavier"
      std: 0.08
    }
    bias_filler {
      type: "constant"
      value: 0.2
    }
  }
}
layer {
  name: "loss2/relu_conv"
  type: "ReLU"
  bottom: "loss2/conv"
  top: "loss2/conv"
}
layer {
  name: "loss2/fc"
  type: "InnerProduct"
  bottom: "loss2/conv"
  top: "loss2/fc"
  param {
    lr_mult: 1
    decay_mult: 1
  }
  param {
    lr_mult: 2
    decay_mult: 0
  }
  inner_product_param {
    num_output: 1024
    weight_filler {
      type: "xavier"
      std: 0.02
    }
    bias_filler {
      type: "constant"
      value: 0.2
    }
  }
}
layer {
  name: "loss2/relu_fc"
  type: "ReLU"
  bottom: "loss2/fc"
  top: "loss2/fc"
}
layer {
  name: "loss2/drop_fc"
  type: "Dropout"
  bottom: "loss2/fc"
  top: "loss2/fc"
  dropout_param {
    dropout_ratio: 0.7
  }
}
layer {
  name: "loss2/classifier_plantvillage"
  type: "InnerProduct"
  bottom: "loss2/fc"
  top: "loss2/classifier_plantvillage"
  param {
    lr_mult: 1
    decay_mult: 1
  }
  param {
    lr_mult: 2
    decay_mult: 0
  }
  inner_product_param {
    num_output: 38
    weight_filler {
      type: "xavier"
      std: 0.0009765625
    }
    bias_filler {
      type: "constant"
      value: 0
    }
  }
}
layer {
  name: "inception_4e/1x1"
  type: "Convolution"
  bottom: "inception_4d/output"
  top: "inception_4e/1x1"
  param {
    lr_mult: 1
    decay_mult: 1
  }
  param {
    lr_mult: 2
    decay_mult: 0
  }
  convolution_param {
    num_output: 256
    kernel_size: 1
    weight_filler {
      type: "xavier"
      std: 0.03
    }
    bias_filler {
      type: "constant"
      value: 0.2
    }
  }
}
layer {
  name: "inception_4e/relu_1x1"
  type: "ReLU"
  bottom: "inception_4e/1x1"
  top: "inception_4e/1x1"
}
layer {
  name: "inception_4e/3x3_reduce"
  type: "Convolution"
  bottom: "inception_4d/output"
  top: "inception_4e/3x3_reduce"
  param {
    lr_mult: 1
    decay_mult: 1
  }
  param {
    lr_mult: 2
    decay_mult: 0
  }
  convolution_param {
    num_output: 160
    kernel_size: 1
    weight_filler {
      type: "xavier"
      std: 0.09
    }
    bias_filler {
      type: "constant"
      value: 0.2
    }
  }
}
layer {
  name: "inception_4e/relu_3x3_reduce"
  type: "ReLU"
  bottom: "inception_4e/3x3_reduce"
  top: "inception_4e/3x3_reduce"
}
layer {
  name: "inception_4e/3x3"
  type: "Convolution"
  bottom: "inception_4e/3x3_reduce"
  top: "inception_4e/3x3"
  param {
    lr_mult: 1
    decay_mult: 1
  }
  param {
    lr_mult: 2
    decay_mult: 0
  }
  convolution_param {
    num_output: 320
    pad: 1
    kernel_size: 3
    weight_filler {
      type: "xavier"
      std: 0.03
    }
    bias_filler {
      type: "constant"
      value: 0.2
    }
  }
}
layer {
  name: "inception_4e/relu_3x3"
  type: "ReLU"
  bottom: "inception_4e/3x3"
  top: "inception_4e/3x3"
}
layer {
  name: "inception_4e/5x5_reduce"
  type: "Convolution"
  bottom: "inception_4d/output"
  top: "inception_4e/5x5_reduce"
  param {
    lr_mult: 1
    decay_mult: 1
  }
  param {
    lr_mult: 2
    decay_mult: 0
  }
  convolution_param {
    num_output: 32
    kernel_size: 1
    weight_filler {
      type: "xavier"
      std: 0.2
    }
    bias_filler {
      type: "constant"
      value: 0.2
    }
  }
}
layer {
  name: "inception_4e/relu_5x5_reduce"
  type: "ReLU"
  bottom: "inception_4e/5x5_reduce"
  top: "inception_4e/5x5_reduce"
}
layer {
  name: "inception_4e/5x5"
  type: "Convolution"
  bottom: "inception_4e/5x5_reduce"
  top: "inception_4
I0403 02:30:37.726388 19579 layer_factory.hpp:77] Creating layer data
I0403 02:30:37.727120 19579 net.cpp:91] Creating Layer data
I0403 02:30:37.727166 19579 net.cpp:399] data -> data
I0403 02:30:37.727228 19579 net.cpp:399] data -> label
I0403 02:30:37.727268 19579 data_transformer.cpp:25] Loading mean file from: /home/mohanty/data/final_dataset/lmdb/grayscale-60-40/mean.binaryproto
I0403 02:30:37.763903 19587 db_lmdb.cpp:38] Opened lmdb /home/mohanty/data/final_dataset/lmdb/grayscale-60-40/train_db
I0403 02:30:37.779626 19579 data_layer.cpp:41] output data size: 24,3,224,224
I0403 02:30:37.811746 19579 net.cpp:141] Setting up data
I0403 02:30:37.811836 19579 net.cpp:148] Top shape: 24 3 224 224 (3612672)
I0403 02:30:37.811900 19579 net.cpp:148] Top shape: 24 (24)
I0403 02:30:37.811956 19579 net.cpp:156] Memory required for data: 14450784
I0403 02:30:37.812047 19579 layer_factory.hpp:77] Creating layer label_data_1_split
I0403 02:30:37.812084 19579 net.cpp:91] Creating Layer label_data_1_split
I0403 02:30:37.812129 19579 net.cpp:425] label_data_1_split <- label
I0403 02:30:37.812180 19579 net.cpp:399] label_data_1_split -> label_data_1_split_0
I0403 02:30:37.812211 19579 net.cpp:399] label_data_1_split -> label_data_1_split_1
I0403 02:30:37.812238 19579 net.cpp:399] label_data_1_split -> label_data_1_split_2
I0403 02:30:37.812340 19579 net.cpp:141] Setting up label_data_1_split
I0403 02:30:37.812371 19579 net.cpp:148] Top shape: 24 (24)
I0403 02:30:37.812403 19579 net.cpp:148] Top shape: 24 (24)
I0403 02:30:37.812422 19579 net.cpp:148] Top shape: 24 (24)
I0403 02:30:37.812438 19579 net.cpp:156] Memory required for data: 14451072
I0403 02:30:37.812455 19579 layer_factory.hpp:77] Creating layer conv1/7x7_s2
I0403 02:30:37.812494 19579 net.cpp:91] Creating Layer conv1/7x7_s2
I0403 02:30:37.812516 19579 net.cpp:425] conv1/7x7_s2 <- data
I0403 02:30:37.812541 19579 net.cpp:399] conv1/7x7_s2 -> conv1/7x7_s2
I0403 02:30:37.813719 19579 net.cpp:141] Setting up conv1/7x7_s2
I0403 02:30:37.813760 19579 net.cpp:148] Top shape: 24 64 112 112 (19267584)
I0403 02:30:37.813782 19579 net.cpp:156] Memory required for data: 91521408
I0403 02:30:37.813823 19579 layer_factory.hpp:77] Creating layer conv1/relu_7x7
I0403 02:30:37.813853 19579 net.cpp:91] Creating Layer conv1/relu_7x7
I0403 02:30:37.813874 19579 net.cpp:425] conv1/relu_7x7 <- conv1/7x7_s2
I0403 02:30:37.813894 19579 net.cpp:386] conv1/relu_7x7 -> conv1/7x7_s2 (in-place)
I0403 02:30:37.813920 19579 net.cpp:141] Setting up conv1/relu_7x7
I0403 02:30:37.813941 19579 net.cpp:148] Top shape: 24 64 112 112 (19267584)
I0403 02:30:37.813958 19579 net.cpp:156] Memory required for data: 168591744
I0403 02:30:37.813977 19579 layer_factory.hpp:77] Creating layer pool1/3x3_s2
I0403 02:30:37.814002 19579 net.cpp:91] Creating Layer pool1/3x3_s2
I0403 02:30:37.814020 19579 net.cpp:425] pool1/3x3_s2 <- conv1/7x7_s2
I0403 02:30:37.814049 19579 net.cpp:399] pool1/3x3_s2 -> pool1/3x3_s2
I0403 02:30:37.814126 19579 net.cpp:141] Setting up pool1/3x3_s2
I0403 02:30:37.814155 19579 net.cpp:148] Top shape: 24 64 56 56 (4816896)
I0403 02:30:37.814174 19579 net.cpp:156] Memory required for data: 187859328
I0403 02:30:37.814191 19579 layer_factory.hpp:77] Creating layer pool1/norm1
I0403 02:30:37.814215 19579 net.cpp:91] Creating Layer pool1/norm1
I0403 02:30:37.814234 19579 net.cpp:425] pool1/norm1 <- pool1/3x3_s2
I0403 02:30:37.814255 19579 net.cpp:399] pool1/norm1 -> pool1/norm1
I0403 02:30:37.814317 19579 net.cpp:141] Setting up pool1/norm1
I0403 02:30:37.814345 19579 net.cpp:148] Top shape: 24 64 56 56 (4816896)
I0403 02:30:37.814364 19579 net.cpp:156] Memory required for data: 207126912
I0403 02:30:37.814383 19579 layer_factory.hpp:77] Creating layer conv2/3x3_reduce
I0403 02:30:37.814407 19579 net.cpp:91] Creating Layer conv2/3x3_reduce
I0403 02:30:37.814426 19579 net.cpp:425] conv2/3x3_reduce <- pool1/norm1
I0403 02:30:37.814451 19579 net.cpp:399] conv2/3x3_reduce -> conv2/3x3_reduce
I0403 02:30:37.816794 19579 net.cpp:141] Setting up conv2/3x3_reduce
I0403 02:30:37.816834 19579 net.cpp:148] Top shape: 24 64 56 56 (4816896)
I0403 02:30:37.816854 19579 net.cpp:156] Memory required for data: 226394496
I0403 02:30:37.816880 19579 layer_factory.hpp:77] Creating layer conv2/relu_3x3_reduce
I0403 02:30:37.816905 19579 net.cpp:91] Creating Layer conv2/relu_3x3_reduce
I0403 02:30:37.816926 19579 net.cpp:425] conv2/relu_3x3_reduce <- conv2/3x3_reduce
I0403 02:30:37.816947 19579 net.cpp:386] conv2/relu_3x3_reduce -> conv2/3x3_reduce (in-place)
I0403 02:30:37.816970 19579 net.cpp:141] Setting up conv2/relu_3x3_reduce
I0403 02:30:37.816992 19579 net.cpp:148] Top shape: 24 64 56 56 (4816896)
I0403 02:30:37.817009 19579 net.cpp:156] Memory required for data: 245662080
I0403 02:30:37.817034 19579 layer_factory.hpp:77] Creating layer conv2/3x3
I0403 02:30:37.817064 19579 net.cpp:91] Creating Layer conv2/3x3
I0403 02:30:37.817085 19579 net.cpp:425] conv2/3x3 <- conv2/3x3_reduce
I0403 02:30:37.817128 19579 net.cpp:399] conv2/3x3 -> conv2/3x3
I0403 02:30:37.818738 19579 net.cpp:141] Setting up conv2/3x3
I0403 02:30:37.818794 19579 net.cpp:148] Top shape: 24 192 56 56 (14450688)
I0403 02:30:37.818841 19579 net.cpp:156] Memory required for data: 303464832
I0403 02:30:37.818855 19589 blocking_queue.cpp:50] Waiting for data
I0403 02:30:37.818867 19579 layer_factory.hpp:77] Creating layer conv2/relu_3x3
I0403 02:30:37.818934 19579 net.cpp:91] Creating Layer conv2/relu_3x3
I0403 02:30:37.818964 19579 net.cpp:425] conv2/relu_3x3 <- conv2/3x3
I0403 02:30:37.818990 19579 net.cpp:386] conv2/relu_3x3 -> conv2/3x3 (in-place)
I0403 02:30:37.819041 19579 net.cpp:141] Setting up conv2/relu_3x3
I0403 02:30:37.819069 19579 net.cpp:148] Top shape: 24 192 56 56 (14450688)
I0403 02:30:37.819089 19579 net.cpp:156] Memory required for data: 361267584
I0403 02:30:37.819121 19579 layer_factory.hpp:77] Creating layer conv2/norm2
I0403 02:30:37.819170 19579 net.cpp:91] Creating Layer conv2/norm2
I0403 02:30:37.819190 19579 net.cpp:425] conv2/norm2 <- conv2/3x3
I0403 02:30:37.819213 19579 net.cpp:399] conv2/norm2 -> conv2/norm2
I0403 02:30:37.819286 19579 net.cpp:141] Setting up conv2/norm2
I0403 02:30:37.819316 19579 net.cpp:148] Top shape: 24 192 56 56 (14450688)
I0403 02:30:37.819335 19579 net.cpp:156] Memory required for data: 419070336
I0403 02:30:37.819355 19579 layer_factory.hpp:77] Creating layer pool2/3x3_s2
I0403 02:30:37.819380 19579 net.cpp:91] Creating Layer pool2/3x3_s2
I0403 02:30:37.819399 19579 net.cpp:425] pool2/3x3_s2 <- conv2/norm2
I0403 02:30:37.819422 19579 net.cpp:399] pool2/3x3_s2 -> pool2/3x3_s2
I0403 02:30:37.819483 19579 net.cpp:141] Setting up pool2/3x3_s2
I0403 02:30:37.819511 19579 net.cpp:148] Top shape: 24 192 28 28 (3612672)
I0403 02:30:37.819530 19579 net.cpp:156] Memory required for data: 433521024
I0403 02:30:37.819550 19579 layer_factory.hpp:77] Creating layer pool2/3x3_s2_pool2/3x3_s2_0_split
I0403 02:30:37.819573 19579 net.cpp:91] Creating Layer pool2/3x3_s2_pool2/3x3_s2_0_split
I0403 02:30:37.819593 19579 net.cpp:425] pool2/3x3_s2_pool2/3x3_s2_0_split <- pool2/3x3_s2
I0403 02:30:37.819617 19579 net.cpp:399] pool2/3x3_s2_pool2/3x3_s2_0_split -> pool2/3x3_s2_pool2/3x3_s2_0_split_0
I0403 02:30:37.819641 19579 net.cpp:399] pool2/3x3_s2_pool2/3x3_s2_0_split -> pool2/3x3_s2_pool2/3x3_s2_0_split_1
I0403 02:30:37.819669 19579 net.cpp:399] pool2/3x3_s2_pool2/3x3_s2_0_split -> pool2/3x3_s2_pool2/3x3_s2_0_split_2
I0403 02:30:37.819695 19579 net.cpp:399] pool2/3x3_s2_pool2/3x3_s2_0_split -> pool2/3x3_s2_pool2/3x3_s2_0_split_3
I0403 02:30:37.819772 19579 net.cpp:141] Setting up pool2/3x3_s2_pool2/3x3_s2_0_split
I0403 02:30:37.819800 19579 net.cpp:148] Top shape: 24 192 28 28 (3612672)
I0403 02:30:37.819821 19579 net.cpp:148] Top shape: 24 192 28 28 (3612672)
I0403 02:30:37.819841 19579 net.cpp:148] Top shape: 24 192 28 28 (3612672)
I0403 02:30:37.819861 19579 net.cpp:148] Top shape: 24 192 28 28 (3612672)
I0403 02:30:37.819880 19579 net.cpp:156] Memory required for data: 491323776
I0403 02:30:37.819900 19579 layer_factory.hpp:77] Creating layer inception_3a/1x1
I0403 02:30:37.819929 19579 net.cpp:91] Creating Layer inception_3a/1x1
I0403 02:30:37.819952 19579 net.cpp:425] inception_3a/1x1 <- pool2/3x3_s2_pool2/3x3_s2_0_split_0
I0403 02:30:37.819978 19579 net.cpp:399] inception_3a/1x1 -> inception_3a/1x1
I0403 02:30:37.821056 19579 net.cpp:141] Setting up inception_3a/1x1
I0403 02:30:37.821092 19579 net.cpp:148] Top shape: 24 64 28 28 (1204224)
I0403 02:30:37.821112 19579 net.cpp:156] Memory required for data: 496140672
I0403 02:30:37.821135 19579 layer_factory.hpp:77] Creating layer inception_3a/relu_1x1
I0403 02:30:37.821158 19579 net.cpp:91] Creating Layer inception_3a/relu_1x1
I0403 02:30:37.821177 19579 net.cpp:425] inception_3a/relu_1x1 <- inception_3a/1x1
I0403 02:30:37.821198 19579 net.cpp:386] inception_3a/relu_1x1 -> inception_3a/1x1 (in-place)
I0403 02:30:37.821234 19579 net.cpp:141] Setting up inception_3a/relu_1x1
I0403 02:30:37.821256 19579 net.cpp:148] Top shape: 24 64 28 28 (1204224)
I0403 02:30:37.821296 19579 net.cpp:156] Memory required for data: 500957568
I0403 02:30:37.821317 19579 layer_factory.hpp:77] Creating layer inception_3a/3x3_reduce
I0403 02:30:37.821347 19579 net.cpp:91] Creating Layer inception_3a/3x3_reduce
I0403 02:30:37.821369 19579 net.cpp:425] inception_3a/3x3_reduce <- pool2/3x3_s2_pool2/3x3_s2_0_split_1
I0403 02:30:37.821398 19579 net.cpp:399] inception_3a/3x3_reduce -> inception_3a/3x3_reduce
I0403 02:30:37.822461 19579 net.cpp:141] Setting up inception_3a/3x3_reduce
I0403 02:30:37.822499 19579 net.cpp:148] Top shape: 24 96 28 28 (1806336)
I0403 02:30:37.822521 19579 net.cpp:156] Memory required for data: 508182912
I0403 02:30:37.822551 19579 layer_factory.hpp:77] Creating layer inception_3a/relu_3x3_reduce
I0403 02:30:37.822582 19579 net.cpp:91] Creating Layer inception_3a/relu_3x3_reduce
I0403 02:30:37.822607 19579 net.cpp:425] inception_3a/relu_3x3_reduce <- inception_3a/3x3_reduce
I0403 02:30:37.822631 19579 net.cpp:386] inception_3a/relu_3x3_reduce -> inception_3a/3x3_reduce (in-place)
I0403 02:30:37.822659 19579 net.cpp:141] Setting up inception_3a/relu_3x3_reduce
I0403 02:30:37.822682 19579 net.cpp:148] Top shape: 24 96 28 28 (1806336)
I0403 02:30:37.822701 19579 net.cpp:156] Memory required for data: 515408256
I0403 02:30:37.822720 19579 layer_factory.hpp:77] Creating layer inception_3a/3x3
I0403 02:30:37.822749 19579 net.cpp:91] Creating Layer inception_3a/3x3
I0403 02:30:37.822772 19579 net.cpp:425] inception_3a/3x3 <- inception_3a/3x3_reduce
I0403 02:30:37.822798 19579 net.cpp:399] inception_3a/3x3 -> inception_3a/3x3
I0403 02:30:37.823873 19579 net.cpp:141] Setting up inception_3a/3x3
I0403 02:30:37.823907 19579 net.cpp:148] Top shape: 24 128 28 28 (2408448)
I0403 02:30:37.823928 19579 net.cpp:156] Memory required for data: 525042048
I0403 02:30:37.823951 19579 layer_factory.hpp:77] Creating layer inception_3a/relu_3x3
I0403 02:30:37.823976 19579 net.cpp:91] Creating Layer inception_3a/relu_3x3
I0403 02:30:37.823997 19579 net.cpp:425] inception_3a/relu_3x3 <- inception_3a/3x3
I0403 02:30:37.824035 19579 net.cpp:386] inception_3a/relu_3x3 -> inception_3a/3x3 (in-place)
I0403 02:30:37.824061 19579 net.cpp:141] Setting up inception_3a/relu_3x3
I0403 02:30:37.824082 19579 net.cpp:148] Top shape: 24 128 28 28 (2408448)
I0403 02:30:37.824100 19579 net.cpp:156] Memory required for data: 534675840
I0403 02:30:37.824116 19579 layer_factory.hpp:77] Creating layer inception_3a/5x5_reduce
I0403 02:30:37.824144 19579 net.cpp:91] Creating Layer inception_3a/5x5_reduce
I0403 02:30:37.824167 19579 net.cpp:425] inception_3a/5x5_reduce <- pool2/3x3_s2_pool2/3x3_s2_0_split_2
I0403 02:30:37.824196 19579 net.cpp:399] inception_3a/5x5_reduce -> inception_3a/5x5_reduce
I0403 02:30:37.824496 19579 net.cpp:141] Setting up inception_3a/5x5_reduce
I0403 02:30:37.824530 19579 net.cpp:148] Top shape: 24 16 28 28 (301056)
I0403 02:30:37.824550 19579 net.cpp:156] Memory required for data: 535880064
I0403 02:30:37.824573 19579 layer_factory.hpp:77] Creating layer inception_3a/relu_5x5_reduce
I0403 02:30:37.824597 19579 net.cpp:91] Creating Layer inception_3a/relu_5x5_reduce
I0403 02:30:37.824618 19579 net.cpp:425] inception_3a/relu_5x5_reduce <- inception_3a/5x5_reduce
I0403 02:30:37.824645 19579 net.cpp:386] inception_3a/relu_5x5_reduce -> inception_3a/5x5_reduce (in-place)
I0403 02:30:37.824671 19579 net.cpp:141] Setting up inception_3a/relu_5x5_reduce
I0403 02:30:37.824693 19579 net.cpp:148] Top shape: 24 16 28 28 (301056)
I0403 02:30:37.824712 19579 net.cpp:156] Memory required for data: 537084288
I0403 02:30:37.824730 19579 layer_factory.hpp:77] Creating layer inception_3a/5x5
I0403 02:30:37.824758 19579 net.cpp:91] Creating Layer inception_3a/5x5
I0403 02:30:37.824779 19579 net.cpp:425] inception_3a/5x5 <- inception_3a/5x5_reduce
I0403 02:30:37.824805 19579 net.cpp:399] inception_3a/5x5 -> inception_3a/5x5
I0403 02:30:37.825170 19579 net.cpp:141] Setting up inception_3a/5x5
I0403 02:30:37.825201 19579 net.cpp:148] Top shape: 24 32 28 28 (602112)
I0403 02:30:37.825249 19579 net.cpp:156] Memory required for data: 539492736
I0403 02:30:37.825274 19579 layer_factory.hpp:77] Creating layer inception_3a/relu_5x5
I0403 02:30:37.825301 19579 net.cpp:91] Creating Layer inception_3a/relu_5x5
I0403 02:30:37.825321 19579 net.cpp:425] inception_3a/relu_5x5 <- inception_3a/5x5
I0403 02:30:37.825348 19579 net.cpp:386] inception_3a/relu_5x5 -> inception_3a/5x5 (in-place)
I0403 02:30:37.825376 19579 net.cpp:141] Setting up inception_3a/relu_5x5
I0403 02:30:37.825398 19579 net.cpp:148] Top shape: 24 32 28 28 (602112)
I0403 02:30:37.825418 19579 net.cpp:156] Memory required for data: 541901184
I0403 02:30:37.825438 19579 layer_factory.hpp:77] Creating layer inception_3a/pool
I0403 02:30:37.825461 19579 net.cpp:91] Creating Layer inception_3a/pool
I0403 02:30:37.825481 19579 net.cpp:425] inception_3a/pool <- pool2/3x3_s2_pool2/3x3_s2_0_split_3
I0403 02:30:37.825505 19579 net.cpp:399] inception_3a/pool -> inception_3a/pool
I0403 02:30:37.825572 19579 net.cpp:141] Setting up inception_3a/pool
I0403 02:30:37.825603 19579 net.cpp:148] Top shape: 24 192 28 28 (3612672)
I0403 02:30:37.825623 19579 net.cpp:156] Memory required for data: 556351872
I0403 02:30:37.825641 19579 layer_factory.hpp:77] Creating layer inception_3a/pool_proj
I0403 02:30:37.825670 19579 net.cpp:91] Creating Layer inception_3a/pool_proj
I0403 02:30:37.825692 19579 net.cpp:425] inception_3a/pool_proj <- inception_3a/pool
I0403 02:30:37.825721 19579 net.cpp:399] inception_3a/pool_proj -> inception_3a/pool_proj
I0403 02:30:37.826036 19579 net.cpp:141] Setting up inception_3a/pool_proj
I0403 02:30:37.826066 19579 net.cpp:148] Top shape: 24 32 28 28 (602112)
I0403 02:30:37.826086 19579 net.cpp:156] Memory required for data: 558760320
I0403 02:30:37.826133 19579 layer_factory.hpp:77] Creating layer inception_3a/relu_pool_proj
I0403 02:30:37.826184 19579 net.cpp:91] Creating Layer inception_3a/relu_pool_proj
I0403 02:30:37.826238 19579 net.cpp:425] inception_3a/relu_pool_proj <- inception_3a/pool_proj
I0403 02:30:37.826287 19579 net.cpp:386] inception_3a/relu_pool_proj -> inception_3a/pool_proj (in-place)
I0403 02:30:37.826329 19579 net.cpp:141] Setting up inception_3a/relu_pool_proj
I0403 02:30:37.826359 19579 net.cpp:148] Top shape: 24 32 28 28 (602112)
I0403 02:30:37.826395 19579 net.cpp:156] Memory required for data: 561168768
I0403 02:30:37.826442 19579 layer_factory.hpp:77] Creating layer inception_3a/output
I0403 02:30:37.826494 19579 net.cpp:91] Creating Layer inception_3a/output
I0403 02:30:37.826535 19579 net.cpp:425] inception_3a/output <- inception_3a/1x1
I0403 02:30:37.826581 19579 net.cpp:425] inception_3a/output <- inception_3a/3x3
I0403 02:30:37.826613 19579 net.cpp:425] inception_3a/output <- inception_3a/5x5
I0403 02:30:37.826644 19579 net.cpp:425] inception_3a/output <- inception_3a/pool_proj
I0403 02:30:37.826668 19579 net.cpp:399] inception_3a/output -> inception_3a/output
I0403 02:30:37.826768 19579 net.cpp:141] Setting up inception_3a/output
I0403 02:30:37.826799 19579 net.cpp:148] Top shape: 24 256 28 28 (4816896)
I0403 02:30:37.826819 19579 net.cpp:156] Memory required for data: 580436352
I0403 02:30:37.826838 19579 layer_factory.hpp:77] Creating layer inception_3a/output_inception_3a/output_0_split
I0403 02:30:37.826863 19579 net.cpp:91] Creating Layer inception_3a/output_inception_3a/output_0_split
I0403 02:30:37.826884 19579 net.cpp:425] inception_3a/output_inception_3a/output_0_split <- inception_3a/output
I0403 02:30:37.826915 19579 net.cpp:399] inception_3a/output_inception_3a/output_0_split -> inception_3a/output_inception_3a/output_0_split_0
I0403 02:30:37.826944 19579 net.cpp:399] inception_3a/output_inception_3a/output_0_split -> inception_3a/output_inception_3a/output_0_split_1
I0403 02:30:37.826972 19579 net.cpp:399] inception_3a/output_inception_3a/output_0_split -> inception_3a/output_inception_3a/output_0_split_2
I0403 02:30:37.827016 19579 net.cpp:399] inception_3a/output_inception_3a/output_0_split -> inception_3a/output_inception_3a/output_0_split_3
I0403 02:30:37.827131 19579 net.cpp:141] Setting up inception_3a/output_inception_3a/output_0_split
I0403 02:30:37.827203 19579 net.cpp:148] Top shape: 24 256 28 28 (4816896)
I0403 02:30:37.827261 19579 net.cpp:148] Top shape: 24 256 28 28 (4816896)
I0403 02:30:37.827313 19579 net.cpp:148] Top shape: 24 256 28 28 (4816896)
I0403 02:30:37.827356 19579 net.cpp:148] Top shape: 24 256 28 28 (4816896)
I0403 02:30:37.827397 19579 net.cpp:156] Memory required for data: 657506688
I0403 02:30:37.827419 19579 layer_factory.hpp:77] Creating layer inception_3b/1x1
I0403 02:30:37.827458 19579 net.cpp:91] Creating Layer inception_3b/1x1
I0403 02:30:37.827493 19579 net.cpp:425] inception_3b/1x1 <- inception_3a/output_inception_3a/output_0_split_0
I0403 02:30:37.827520 19579 net.cpp:399] inception_3b/1x1 -> inception_3b/1x1
I0403 02:30:37.828007 19579 net.cpp:141] Setting up inception_3b/1x1
I0403 02:30:37.828076 19579 net.cpp:148] Top shape: 24 128 28 28 (2408448)
I0403 02:30:37.828115 19579 net.cpp:156] Memory required for data: 667140480
I0403 02:30:37.828161 19579 layer_factory.hpp:77] Creating layer inception_3b/relu_1x1
I0403 02:30:37.828199 19579 net.cpp:91] Creating Layer inception_3b/relu_1x1
I0403 02:30:37.828268 19579 net.cpp:425] inception_3b/relu_1x1 <- inception_3b/1x1
I0403 02:30:37.828325 19579 net.cpp:386] inception_3b/relu_1x1 -> inception_3b/1x1 (in-place)
I0403 02:30:37.828372 19579 net.cpp:141] Setting up inception_3b/relu_1x1
I0403 02:30:37.828394 19579 net.cpp:148] Top shape: 24 128 28 28 (2408448)
I0403 02:30:37.828413 19579 net.cpp:156] Memory required for data: 676774272
I0403 02:30:37.828454 19579 layer_factory.hpp:77] Creating layer inception_3b/3x3_reduce
I0403 02:30:37.828512 19579 net.cpp:91] Creating Layer inception_3b/3x3_reduce
I0403 02:30:37.828543 19579 net.cpp:425] inception_3b/3x3_reduce <- inception_3a/output_inception_3a/output_0_split_1
I0403 02:30:37.828584 19579 net.cpp:399] inception_3b/3x3_reduce -> inception_3b/3x3_reduce
I0403 02:30:37.829128 19579 net.cpp:141] Setting up inception_3b/3x3_reduce
I0403 02:30:37.829180 19579 net.cpp:148] Top shape: 24 128 28 28 (2408448)
I0403 02:30:37.829210 19579 net.cpp:156] Memory required for data: 686408064
I0403 02:30:37.829253 19579 layer_factory.hpp:77] Creating layer inception_3b/relu_3x3_reduce
I0403 02:30:37.829283 19579 net.cpp:91] Creating Layer inception_3b/relu_3x3_reduce
I0403 02:30:37.829325 19579 net.cpp:425] inception_3b/relu_3x3_reduce <- inception_3b/3x3_reduce
I0403 02:30:37.829375 19579 net.cpp:386] inception_3b/relu_3x3_reduce -> inception_3b/3x3_reduce (in-place)
I0403 02:30:37.829423 19579 net.cpp:141] Setting up inception_3b/relu_3x3_reduce
I0403 02:30:37.829457 19579 net.cpp:148] Top shape: 24 128 28 28 (2408448)
I0403 02:30:37.829499 19579 net.cpp:156] Memory required for data: 696041856
I0403 02:30:37.829546 19579 layer_factory.hpp:77] Creating layer inception_3b/3x3
I0403 02:30:37.829582 19579 net.cpp:91] Creating Layer inception_3b/3x3
I0403 02:30:37.829627 19579 net.cpp:425] inception_3b/3x3 <- inception_3b/3x3_reduce
I0403 02:30:37.829673 19579 net.cpp:399] inception_3b/3x3 -> inception_3b/3x3
I0403 02:30:37.832049 19579 net.cpp:141] Setting up inception_3b/3x3
I0403 02:30:37.832085 19579 net.cpp:148] Top shape: 24 192 28 28 (3612672)
I0403 02:30:37.832104 19579 net.cpp:156] Memory required for data: 710492544
I0403 02:30:37.832124 19579 layer_factory.hpp:77] Creating layer inception_3b/relu_3x3
I0403 02:30:37.832147 19579 net.cpp:91] Creating Layer inception_3b/relu_3x3
I0403 02:30:37.832166 19579 net.cpp:425] inception_3b/relu_3x3 <- inception_3b/3x3
I0403 02:30:37.832190 19579 net.cpp:386] inception_3b/relu_3x3 -> inception_3b/3x3 (in-place)
I0403 02:30:37.832216 19579 net.cpp:141] Setting up inception_3b/relu_3x3
I0403 02:30:37.832238 19579 net.cpp:148] Top shape: 24 192 28 28 (3612672)
I0403 02:30:37.832255 19579 net.cpp:156] Memory required for data: 724943232
I0403 02:30:37.832273 19579 layer_factory.hpp:77] Creating layer inception_3b/5x5_reduce
I0403 02:30:37.832300 19579 net.cpp:91] Creating Layer inception_3b/5x5_reduce
I0403 02:30:37.832324 19579 net.cpp:425] inception_3b/5x5_reduce <- inception_3a/output_inception_3a/output_0_split_2
I0403 02:30:37.832365 19579 net.cpp:399] inception_3b/5x5_reduce -> inception_3b/5x5_reduce
I0403 02:30:37.832666 19579 net.cpp:141] Setting up inception_3b/5x5_reduce
I0403 02:30:37.832698 19579 net.cpp:148] Top shape: 24 32 28 28 (602112)
I0403 02:30:37.832716 19579 net.cpp:156] Memory required for data: 727351680
I0403 02:30:37.832738 19579 layer_factory.hpp:77] Creating layer inception_3b/relu_5x5_reduce
I0403 02:30:37.832761 19579 net.cpp:91] Creating Layer inception_3b/relu_5x5_reduce
I0403 02:30:37.832780 19579 net.cpp:425] inception_3b/relu_5x5_reduce <- inception_3b/5x5_reduce
I0403 02:30:37.832804 19579 net.cpp:386] inception_3b/relu_5x5_reduce -> inception_3b/5x5_reduce (in-place)
I0403 02:30:37.832828 19579 net.cpp:141] Setting up inception_3b/relu_5x5_reduce
I0403 02:30:37.832849 19579 net.cpp:148] Top shape: 24 32 28 28 (602112)
I0403 02:30:37.832865 19579 net.cpp:156] Memory required for data: 729760128
I0403 02:30:37.832882 19579 layer_factory.hpp:77] Creating layer inception_3b/5x5
I0403 02:30:37.832909 19579 net.cpp:91] Creating Layer inception_3b/5x5
I0403 02:30:37.832931 19579 net.cpp:425] inception_3b/5x5 <- inception_3b/5x5_reduce
I0403 02:30:37.832954 19579 net.cpp:399] inception_3b/5x5 -> inception_3b/5x5
I0403 02:30:37.834344 19579 net.cpp:141] Setting up inception_3b/5x5
I0403 02:30:37.834404 19579 net.cpp:148] Top shape: 24 96 28 28 (1806336)
I0403 02:30:37.834444 19579 net.cpp:156] Memory required for data: 736985472
I0403 02:30:37.834466 19579 layer_factory.hpp:77] Creating layer inception_3b/relu_5x5
I0403 02:30:37.834509 19579 net.cpp:91] Creating Layer inception_3b/relu_5x5
I0403 02:30:37.834542 19579 net.cpp:425] inception_3b/relu_5x5 <- inception_3b/5x5
I0403 02:30:37.834564 19579 net.cpp:386] inception_3b/relu_5x5 -> inception_3b/5x5 (in-place)
I0403 02:30:37.834611 19579 net.cpp:141] Setting up inception_3b/relu_5x5
I0403 02:30:37.834632 19579 net.cpp:148] Top shape: 24 96 28 28 (1806336)
I0403 02:30:37.834650 19579 net.cpp:156] Memory required for data: 744210816
I0403 02:30:37.834667 19579 layer_factory.hpp:77] Creating layer inception_3b/pool
I0403 02:30:37.834691 19579 net.cpp:91] Creating Layer inception_3b/pool
I0403 02:30:37.834712 19579 net.cpp:425] inception_3b/pool <- inception_3a/output_inception_3a/output_0_split_3
I0403 02:30:37.834734 19579 net.cpp:399] inception_3b/pool -> inception_3b/pool
I0403 02:30:37.834794 19579 net.cpp:141] Setting up inception_3b/pool
I0403 02:30:37.834821 19579 net.cpp:148] Top shape: 24 256 28 28 (4816896)
I0403 02:30:37.834841 19579 net.cpp:156] Memory required for data: 763478400
I0403 02:30:37.834858 19579 layer_factory.hpp:77] Creating layer inception_3b/pool_proj
I0403 02:30:37.834887 19579 net.cpp:91] Creating Layer inception_3b/pool_proj
I0403 02:30:37.834910 19579 net.cpp:425] inception_3b/pool_proj <- inception_3b/pool
I0403 02:30:37.834944 19579 net.cpp:399] inception_3b/pool_proj -> inception_3b/pool_proj
I0403 02:30:37.835311 19579 net.cpp:141] Setting up inception_3b/pool_proj
I0403 02:30:37.835343 19579 net.cpp:148] Top shape: 24 64 28 28 (1204224)
I0403 02:30:37.835361 19579 net.cpp:156] Memory required for data: 768295296
I0403 02:30:37.835382 19579 layer_factory.hpp:77] Creating layer inception_3b/relu_pool_proj
I0403 02:30:37.835404 19579 net.cpp:91] Creating Layer inception_3b/relu_pool_proj
I0403 02:30:37.835424 19579 net.cpp:425] inception_3b/relu_pool_proj <- inception_3b/pool_proj
I0403 02:30:37.835450 19579 net.cpp:386] inception_3b/relu_pool_proj -> inception_3b/pool_proj (in-place)
I0403 02:30:37.835474 19579 net.cpp:141] Setting up inception_3b/relu_pool_proj
I0403 02:30:37.835494 19579 net.cpp:148] Top shape: 24 64 28 28 (1204224)
I0403 02:30:37.835511 19579 net.cpp:156] Memory required for data: 773112192
I0403 02:30:37.835528 19579 layer_factory.hpp:77] Creating layer inception_3b/output
I0403 02:30:37.835549 19579 net.cpp:91] Creating Layer inception_3b/output
I0403 02:30:37.835567 19579 net.cpp:425] inception_3b/output <- inception_3b/1x1
I0403 02:30:37.835605 19579 net.cpp:425] inception_3b/output <- inception_3b/3x3
I0403 02:30:37.835626 19579 net.cpp:425] inception_3b/output <- inception_3b/5x5
I0403 02:30:37.835645 19579 net.cpp:425] inception_3b/output <- inception_3b/pool_proj
I0403 02:30:37.835667 19579 net.cpp:399] inception_3b/output -> inception_3b/output
I0403 02:30:37.835714 19579 net.cpp:141] Setting up inception_3b/output
I0403 02:30:37.835743 19579 net.cpp:148] Top shape: 24 480 28 28 (9031680)
I0403 02:30:37.835762 19579 net.cpp:156] Memory required for data: 809238912
I0403 02:30:37.835779 19579 layer_factory.hpp:77] Creating layer pool3/3x3_s2
I0403 02:30:37.835803 19579 net.cpp:91] Creating Layer pool3/3x3_s2
I0403 02:30:37.835824 19579 net.cpp:425] pool3/3x3_s2 <- inception_3b/output
I0403 02:30:37.835845 19579 net.cpp:399] pool3/3x3_s2 -> pool3/3x3_s2
I0403 02:30:37.835904 19579 net.cpp:141] Setting up pool3/3x3_s2
I0403 02:30:37.835932 19579 net.cpp:148] Top shape: 24 480 14 14 (2257920)
I0403 02:30:37.835948 19579 net.cpp:156] Memory required for data: 818270592
I0403 02:30:37.835966 19579 layer_factory.hpp:77] Creating layer pool3/3x3_s2_pool3/3x3_s2_0_split
I0403 02:30:37.835988 19579 net.cpp:91] Creating Layer pool3/3x3_s2_pool3/3x3_s2_0_split
I0403 02:30:37.836005 19579 net.cpp:425] pool3/3x3_s2_pool3/3x3_s2_0_split <- pool3/3x3_s2
I0403 02:30:37.836031 19579 net.cpp:399] pool3/3x3_s2_pool3/3x3_s2_0_split -> pool3/3x3_s2_pool3/3x3_s2_0_split_0
I0403 02:30:37.836061 19579 net.cpp:399] pool3/3x3_s2_pool3/3x3_s2_0_split -> pool3/3x3_s2_pool3/3x3_s2_0_split_1
I0403 02:30:37.836088 19579 net.cpp:399] pool3/3x3_s2_pool3/3x3_s2_0_split -> pool3/3x3_s2_pool3/3x3_s2_0_split_2
I0403 02:30:37.836112 19579 net.cpp:399] pool3/3x3_s2_pool3/3x3_s2_0_split -> pool3/3x3_s2_pool3/3x3_s2_0_split_3
I0403 02:30:37.836190 19579 net.cpp:141] Setting up pool3/3x3_s2_pool3/3x3_s2_0_split
I0403 02:30:37.836217 19579 net.cpp:148] Top shape: 24 480 14 14 (2257920)
I0403 02:30:37.836236 19579 net.cpp:148] Top shape: 24 480 14 14 (2257920)
I0403 02:30:37.836256 19579 net.cpp:148] Top shape: 24 480 14 14 (2257920)
I0403 02:30:37.836274 19579 net.cpp:148] Top shape: 24 480 14 14 (2257920)
I0403 02:30:37.836292 19579 net.cpp:156] Memory required for data: 854397312
I0403 02:30:37.836308 19579 layer_factory.hpp:77] Creating layer inception_4a/1x1
I0403 02:30:37.836340 19579 net.cpp:91] Creating Layer inception_4a/1x1
I0403 02:30:37.836364 19579 net.cpp:425] inception_4a/1x1 <- pool3/3x3_s2_pool3/3x3_s2_0_split_0
I0403 02:30:37.836388 19579 net.cpp:399] inception_4a/1x1 -> inception_4a/1x1
I0403 02:30:37.837242 19579 net.cpp:141] Setting up inception_4a/1x1
I0403 02:30:37.837275 19579 net.cpp:148] Top shape: 24 192 14 14 (903168)
I0403 02:30:37.837292 19579 net.cpp:156] Memory required for data: 858009984
I0403 02:30:37.837313 19579 layer_factory.hpp:77] Creating layer inception_4a/relu_1x1
I0403 02:30:37.837337 19579 net.cpp:91] Creating Layer inception_4a/relu_1x1
I0403 02:30:37.837357 19579 net.cpp:425] inception_4a/relu_1x1 <- inception_4a/1x1
I0403 02:30:37.837379 19579 net.cpp:386] inception_4a/relu_1x1 -> inception_4a/1x1 (in-place)
I0403 02:30:37.837404 19579 net.cpp:141] Setting up inception_4a/relu_1x1
I0403 02:30:37.837424 19579 net.cpp:148] Top shape: 24 192 14 14 (903168)
I0403 02:30:37.837442 19579 net.cpp:156] Memory required for data: 861622656
I0403 02:30:37.837460 19579 layer_factory.hpp:77] Creating layer inception_4a/3x3_reduce
I0403 02:30:37.837484 19579 net.cpp:91] Creating Layer inception_4a/3x3_reduce
I0403 02:30:37.837504 19579 net.cpp:425] inception_4a/3x3_reduce <- pool3/3x3_s2_pool3/3x3_s2_0_split_1
I0403 02:30:37.837532 19579 net.cpp:399] inception_4a/3x3_reduce -> inception_4a/3x3_reduce
I0403 02:30:37.838135 19579 net.cpp:141] Setting up inception_4a/3x3_reduce
I0403 02:30:37.838165 19579 net.cpp:148] Top shape: 24 96 14 14 (451584)
I0403 02:30:37.838202 19579 net.cpp:156] Memory required for data: 863428992
I0403 02:30:37.838233 19579 layer_factory.hpp:77] Creating layer inception_4a/relu_3x3_reduce
I0403 02:30:37.838292 19579 net.cpp:91] Creating Layer inception_4a/relu_3x3_reduce
I0403 02:30:37.838348 19579 net.cpp:425] inception_4a/relu_3x3_reduce <- inception_4a/3x3_reduce
I0403 02:30:37.838407 19579 net.cpp:386] inception_4a/relu_3x3_reduce -> inception_4a/3x3_reduce (in-place)
I0403 02:30:37.838455 19579 net.cpp:141] Setting up inception_4a/relu_3x3_reduce
I0403 02:30:37.838502 19579 net.cpp:148] Top shape: 24 96 14 14 (451584)
I0403 02:30:37.838542 19579 net.cpp:156] Memory required for data: 865235328
I0403 02:30:37.838560 19579 layer_factory.hpp:77] Creating layer inception_4a/3x3
I0403 02:30:37.838604 19579 net.cpp:91] Creating Layer inception_4a/3x3
I0403 02:30:37.838624 19579 net.cpp:425] inception_4a/3x3 <- inception_4a/3x3_reduce
I0403 02:30:37.838650 19579 net.cpp:399] inception_4a/3x3 -> inception_4a/3x3
I0403 02:30:37.840751 19579 net.cpp:141] Setting up inception_4a/3x3
I0403 02:30:37.840787 19579 net.cpp:148] Top shape: 24 208 14 14 (978432)
I0403 02:30:37.840806 19579 net.cpp:156] Memory required for data: 869149056
I0403 02:30:37.840828 19579 layer_factory.hpp:77] Creating layer inception_4a/relu_3x3
I0403 02:30:37.840850 19579 net.cpp:91] Creating Layer inception_4a/relu_3x3
I0403 02:30:37.840869 19579 net.cpp:425] inception_4a/relu_3x3 <- inception_4a/3x3
I0403 02:30:37.840891 19579 net.cpp:386] inception_4a/relu_3x3 -> inception_4a/3x3 (in-place)
I0403 02:30:37.840914 19579 net.cpp:141] Setting up inception_4a/relu_3x3
I0403 02:30:37.840934 19579 net.cpp:148] Top shape: 24 208 14 14 (978432)
I0403 02:30:37.840951 19579 net.cpp:156] Memory required for data: 873062784
I0403 02:30:37.840968 19579 layer_factory.hpp:77] Creating layer inception_4a/5x5_reduce
I0403 02:30:37.840996 19579 net.cpp:91] Creating Layer inception_4a/5x5_reduce
I0403 02:30:37.841017 19579 net.cpp:425] inception_4a/5x5_reduce <- pool3/3x3_s2_pool3/3x3_s2_0_split_2
I0403 02:30:37.841049 19579 net.cpp:399] inception_4a/5x5_reduce -> inception_4a/5x5_reduce
I0403 02:30:37.841351 19579 net.cpp:141] Setting up inception_4a/5x5_reduce
I0403 02:30:37.841401 19579 net.cpp:148] Top shape: 24 16 14 14 (75264)
I0403 02:30:37.841449 19579 net.cpp:156] Memory required for data: 873363840
I0403 02:30:37.841488 19579 layer_factory.hpp:77] Creating layer inception_4a/relu_5x5_reduce
I0403 02:30:37.841537 19579 net.cpp:91] Creating Layer inception_4a/relu_5x5_reduce
I0403 02:30:37.841580 19579 net.cpp:425] inception_4a/relu_5x5_reduce <- inception_4a/5x5_reduce
I0403 02:30:37.841626 19579 net.cpp:386] inception_4a/relu_5x5_reduce -> inception_4a/5x5_reduce (in-place)
I0403 02:30:37.841663 19579 net.cpp:141] Setting up inception_4a/relu_5x5_reduce
I0403 02:30:37.841716 19579 net.cpp:148] Top shape: 24 16 14 14 (75264)
I0403 02:30:37.841742 19579 net.cpp:156] Memory required for data: 873664896
I0403 02:30:37.841770 19579 layer_factory.hpp:77] Creating layer inception_4a/5x5
I0403 02:30:37.841799 19579 net.cpp:91] Creating Layer inception_4a/5x5
I0403 02:30:37.841821 19579 net.cpp:425] inception_4a/5x5 <- inception_4a/5x5_reduce
I0403 02:30:37.841847 19579 net.cpp:399] inception_4a/5x5 -> inception_4a/5x5
I0403 02:30:37.842237 19579 net.cpp:141] Setting up inception_4a/5x5
I0403 02:30:37.842269 19579 net.cpp:148] Top shape: 24 48 14 14 (225792)
I0403 02:30:37.842288 19579 net.cpp:156] Memory required for data: 874568064
I0403 02:30:37.842308 19579 layer_factory.hpp:77] Creating layer inception_4a/relu_5x5
I0403 02:30:37.842330 19579 net.cpp:91] Creating Layer inception_4a/relu_5x5
I0403 02:30:37.842350 19579 net.cpp:425] inception_4a/relu_5x5 <- inception_4a/5x5
I0403 02:30:37.842370 19579 net.cpp:386] inception_4a/relu_5x5 -> inception_4a/5x5 (in-place)
I0403 02:30:37.842393 19579 net.cpp:141] Setting up inception_4a/relu_5x5
I0403 02:30:37.842413 19579 net.cpp:148] Top shape: 24 48 14 14 (225792)
I0403 02:30:37.842430 19579 net.cpp:156] Memory required for data: 875471232
I0403 02:30:37.842447 19579 layer_factory.hpp:77] Creating layer inception_4a/pool
I0403 02:30:37.842471 19579 net.cpp:91] Creating Layer inception_4a/pool
I0403 02:30:37.842492 19579 net.cpp:425] inception_4a/pool <- pool3/3x3_s2_pool3/3x3_s2_0_split_3
I0403 02:30:37.842531 19579 net.cpp:399] inception_4a/pool -> inception_4a/pool
I0403 02:30:37.842595 19579 net.cpp:141] Setting up inception_4a/pool
I0403 02:30:37.842622 19579 net.cpp:148] Top shape: 24 480 14 14 (2257920)
I0403 02:30:37.842640 19579 net.cpp:156] Memory required for data: 884502912
I0403 02:30:37.842658 19579 layer_factory.hpp:77] Creating layer inception_4a/pool_proj
I0403 02:30:37.842684 19579 net.cpp:91] Creating Layer inception_4a/pool_proj
I0403 02:30:37.842705 19579 net.cpp:425] inception_4a/pool_proj <- inception_4a/pool
I0403 02:30:37.842731 19579 net.cpp:399] inception_4a/pool_proj -> inception_4a/pool_proj
I0403 02:30:37.843185 19579 net.cpp:141] Setting up inception_4a/pool_proj
I0403 02:30:37.843217 19579 net.cpp:148] Top shape: 24 64 14 14 (301056)
I0403 02:30:37.843235 19579 net.cpp:156] Memory required for data: 885707136
I0403 02:30:37.843255 19579 layer_factory.hpp:77] Creating layer inception_4a/relu_pool_proj
I0403 02:30:37.843279 19579 net.cpp:91] Creating Layer inception_4a/relu_pool_proj
I0403 02:30:37.843300 19579 net.cpp:425] inception_4a/relu_pool_proj <- inception_4a/pool_proj
I0403 02:30:37.843322 19579 net.cpp:386] inception_4a/relu_pool_proj -> inception_4a/pool_proj (in-place)
I0403 02:30:37.843344 19579 net.cpp:141] Setting up inception_4a/relu_pool_proj
I0403 02:30:37.843365 19579 net.cpp:148] Top shape: 24 64 14 14 (301056)
I0403 02:30:37.843382 19579 net.cpp:156] Memory required for data: 886911360
I0403 02:30:37.843400 19579 layer_factory.hpp:77] Creating layer inception_4a/output
I0403 02:30:37.843420 19579 net.cpp:91] Creating Layer inception_4a/output
I0403 02:30:37.843437 19579 net.cpp:425] inception_4a/output <- inception_4a/1x1
I0403 02:30:37.843456 19579 net.cpp:425] inception_4a/output <- inception_4a/3x3
I0403 02:30:37.843475 19579 net.cpp:425] inception_4a/output <- inception_4a/5x5
I0403 02:30:37.843495 19579 net.cpp:425] inception_4a/output <- inception_4a/pool_proj
I0403 02:30:37.843521 19579 net.cpp:399] inception_4a/output -> inception_4a/output
I0403 02:30:37.843565 19579 net.cpp:141] Setting up inception_4a/output
I0403 02:30:37.843592 19579 net.cpp:148] Top shape: 24 512 14 14 (2408448)
I0403 02:30:37.843610 19579 net.cpp:156] Memory required for data: 896545152
I0403 02:30:37.843627 19579 layer_factory.hpp:77] Creating layer inception_4a/output_inception_4a/output_0_split
I0403 02:30:37.843652 19579 net.cpp:91] Creating Layer inception_4a/output_inception_4a/output_0_split
I0403 02:30:37.843672 19579 net.cpp:425] inception_4a/output_inception_4a/output_0_split <- inception_4a/output
I0403 02:30:37.843693 19579 net.cpp:399] inception_4a/output_inception_4a/output_0_split -> inception_4a/output_inception_4a/output_0_split_0
I0403 02:30:37.843718 19579 net.cpp:399] inception_4a/output_inception_4a/output_0_split -> inception_4a/output_inception_4a/output_0_split_1
I0403 02:30:37.843746 19579 net.cpp:399] inception_4a/output_inception_4a/output_0_split -> inception_4a/output_inception_4a/output_0_split_2
I0403 02:30:37.843770 19579 net.cpp:399] inception_4a/output_inception_4a/output_0_split -> inception_4a/output_inception_4a/output_0_split_3
I0403 02:30:37.843796 19579 net.cpp:399] inception_4a/output_inception_4a/output_0_split -> inception_4a/output_inception_4a/output_0_split_4
I0403 02:30:37.843886 19579 net.cpp:141] Setting up inception_4a/output_inception_4a/output_0_split
I0403 02:30:37.843941 19579 net.cpp:148] Top shape: 24 512 14 14 (2408448)
I0403 02:30:37.843994 19579 net.cpp:148] Top shape: 24 512 14 14 (2408448)
I0403 02:30:37.844030 19579 net.cpp:148] Top shape: 24 512 14 14 (2408448)
I0403 02:30:37.844084 19579 net.cpp:148] Top shape: 24 512 14 14 (2408448)
I0403 02:30:37.844127 19579 net.cpp:148] Top shape: 24 512 14 14 (2408448)
I0403 02:30:37.844161 19579 net.cpp:156] Memory required for data: 944714112
I0403 02:30:37.844182 19579 layer_factory.hpp:77] Creating layer loss1/ave_pool
I0403 02:30:37.844210 19579 net.cpp:91] Creating Layer loss1/ave_pool
I0403 02:30:37.844249 19579 net.cpp:425] loss1/ave_pool <- inception_4a/output_inception_4a/output_0_split_0
I0403 02:30:37.844296 19579 net.cpp:399] loss1/ave_pool -> loss1/ave_pool
I0403 02:30:37.844354 19579 net.cpp:141] Setting up loss1/ave_pool
I0403 02:30:37.844383 19579 net.cpp:148] Top shape: 24 512 4 4 (196608)
I0403 02:30:37.844400 19579 net.cpp:156] Memory required for data: 945500544
I0403 02:30:37.844418 19579 layer_factory.hpp:77] Creating layer loss1/conv
I0403 02:30:37.844444 19579 net.cpp:91] Creating Layer loss1/conv
I0403 02:30:37.844465 19579 net.cpp:425] loss1/conv <- loss1/ave_pool
I0403 02:30:37.844491 19579 net.cpp:399] loss1/conv -> loss1/conv
I0403 02:30:37.845170 19579 net.cpp:141] Setting up loss1/conv
I0403 02:30:37.845202 19579 net.cpp:148] Top shape: 24 128 4 4 (49152)
I0403 02:30:37.845221 19579 net.cpp:156] Memory required for data: 945697152
I0403 02:30:37.845243 19579 layer_factory.hpp:77] Creating layer loss1/relu_conv
I0403 02:30:37.845266 19579 net.cpp:91] Creating Layer loss1/relu_conv
I0403 02:30:37.845286 19579 net.cpp:425] loss1/relu_conv <- loss1/conv
I0403 02:30:37.845312 19579 net.cpp:386] loss1/relu_conv -> loss1/conv (in-place)
I0403 02:30:37.845337 19579 net.cpp:141] Setting up loss1/relu_conv
I0403 02:30:37.845388 19579 net.cpp:148] Top shape: 24 128 4 4 (49152)
I0403 02:30:37.845438 19579 net.cpp:156] Memory required for data: 945893760
I0403 02:30:37.845487 19579 layer_factory.hpp:77] Creating layer loss1/fc
I0403 02:30:37.845549 19579 net.cpp:91] Creating Layer loss1/fc
I0403 02:30:37.845592 19579 net.cpp:425] loss1/fc <- loss1/conv
I0403 02:30:37.845633 19579 net.cpp:399] loss1/fc -> loss1/fc
I0403 02:30:37.865370 19579 net.cpp:141] Setting up loss1/fc
I0403 02:30:37.865417 19579 net.cpp:148] Top shape: 24 1024 (24576)
I0403 02:30:37.865437 19579 net.cpp:156] Memory required for data: 945992064
I0403 02:30:37.865459 19579 layer_factory.hpp:77] Creating layer loss1/relu_fc
I0403 02:30:37.865484 19579 net.cpp:91] Creating Layer loss1/relu_fc
I0403 02:30:37.865504 19579 net.cpp:425] loss1/relu_fc <- loss1/fc
I0403 02:30:37.865528 19579 net.cpp:386] loss1/relu_fc -> loss1/fc (in-place)
I0403 02:30:37.865555 19579 net.cpp:141] Setting up loss1/relu_fc
I0403 02:30:37.865576 19579 net.cpp:148] Top shape: 24 1024 (24576)
I0403 02:30:37.865592 19579 net.cpp:156] Memory required for data: 946090368
I0403 02:30:37.865608 19579 layer_factory.hpp:77] Creating layer loss1/drop_fc
I0403 02:30:37.865660 19579 net.cpp:91] Creating Layer loss1/drop_fc
I0403 02:30:37.865684 19579 net.cpp:425] loss1/drop_fc <- loss1/fc
I0403 02:30:37.865708 19579 net.cpp:386] loss1/drop_fc -> loss1/fc (in-place)
I0403 02:30:37.865780 19579 net.cpp:141] Setting up loss1/drop_fc
I0403 02:30:37.865808 19579 net.cpp:148] Top shape: 24 1024 (24576)
I0403 02:30:37.865826 19579 net.cpp:156] Memory required for data: 946188672
I0403 02:30:37.865844 19579 layer_factory.hpp:77] Creating layer loss1/classifier_plantvillage
I0403 02:30:37.865871 19579 net.cpp:91] Creating Layer loss1/classifier_plantvillage
I0403 02:30:37.865892 19579 net.cpp:425] loss1/classifier_plantvillage <- loss1/fc
I0403 02:30:37.865916 19579 net.cpp:399] loss1/classifier_plantvillage -> loss1/classifier_plantvillage
I0403 02:30:37.866920 19579 net.cpp:141] Setting up loss1/classifier_plantvillage
I0403 02:30:37.866955 19579 net.cpp:148] Top shape: 24 38 (912)
I0403 02:30:37.866976 19579 net.cpp:156] Memory required for data: 946192320
I0403 02:30:37.866997 19579 layer_factory.hpp:77] Creating layer inception_4b/1x1
I0403 02:30:37.867034 19579 net.cpp:91] Creating Layer inception_4b/1x1
I0403 02:30:37.867058 19579 net.cpp:425] inception_4b/1x1 <- inception_4a/output_inception_4a/output_0_split_1
I0403 02:30:37.867082 19579 net.cpp:399] inception_4b/1x1 -> inception_4b/1x1
I0403 02:30:37.867887 19579 net.cpp:141] Setting up inception_4b/1x1
I0403 02:30:37.867918 19579 net.cpp:148] Top shape: 24 160 14 14 (752640)
I0403 02:30:37.867938 19579 net.cpp:156] Memory required for data: 949202880
I0403 02:30:37.867959 19579 layer_factory.hpp:77] Creating layer inception_4b/relu_1x1
I0403 02:30:37.868000 19579 net.cpp:91] Creating Layer inception_4b/relu_1x1
I0403 02:30:37.868021 19579 net.cpp:425] inception_4b/relu_1x1 <- inception_4b/1x1
I0403 02:30:37.868052 19579 net.cpp:386] inception_4b/relu_1x1 -> inception_4b/1x1 (in-place)
I0403 02:30:37.868078 19579 net.cpp:141] Setting up inception_4b/relu_1x1
I0403 02:30:37.868100 19579 net.cpp:148] Top shape: 24 160 14 14 (752640)
I0403 02:30:37.868116 19579 net.cpp:156] Memory required for data: 952213440
I0403 02:30:37.868134 19579 layer_factory.hpp:77] Creating layer inception_4b/3x3_reduce
I0403 02:30:37.868162 19579 net.cpp:91] Creating Layer inception_4b/3x3_reduce
I0403 02:30:37.868185 19579 net.cpp:425] inception_4b/3x3_reduce <- inception_4a/output_inception_4a/output_0_split_2
I0403 02:30:37.868208 19579 net.cpp:399] inception_4b/3x3_reduce -> inception_4b/3x3_reduce
I0403 02:30:37.868849 19579 net.cpp:141] Setting up inception_4b/3x3_reduce
I0403 02:30:37.868880 19579 net.cpp:148] Top shape: 24 112 14 14 (526848)
I0403 02:30:37.868899 19579 net.cpp:156] Memory required for data: 954320832
I0403 02:30:37.868947 19579 layer_factory.hpp:77] Creating layer inception_4b/relu_3x3_reduce
I0403 02:30:37.868998 19579 net.cpp:91] Creating Layer inception_4b/relu_3x3_reduce
I0403 02:30:37.869055 19579 net.cpp:425] inception_4b/relu_3x3_reduce <- inception_4b/3x3_reduce
I0403 02:30:37.869089 19579 net.cpp:386] inception_4b/relu_3x3_reduce -> inception_4b/3x3_reduce (in-place)
I0403 02:30:37.869129 19579 net.cpp:141] Setting up inception_4b/relu_3x3_reduce
I0403 02:30:37.869153 19579 net.cpp:148] Top shape: 24 112 14 14 (526848)
I0403 02:30:37.869202 19579 net.cpp:156] Memory required for data: 956428224
I0403 02:30:37.869221 19579 layer_factory.hpp:77] Creating layer inception_4b/3x3
I0403 02:30:37.869249 19579 net.cpp:91] Creating Layer inception_4b/3x3
I0403 02:30:37.869271 19579 net.cpp:425] inception_4b/3x3 <- inception_4b/3x3_reduce
I0403 02:30:37.869293 19579 net.cpp:399] inception_4b/3x3 -> inception_4b/3x3
I0403 02:30:37.871678 19579 net.cpp:141] Setting up inception_4b/3x3
I0403 02:30:37.871716 19579 net.cpp:148] Top shape: 24 224 14 14 (1053696)
I0403 02:30:37.871736 19579 net.cpp:156] Memory required for data: 960643008
I0403 02:30:37.871757 19579 layer_factory.hpp:77] Creating layer inception_4b/relu_3x3
I0403 02:30:37.871779 19579 net.cpp:91] Creating Layer inception_4b/relu_3x3
I0403 02:30:37.871798 19579 net.cpp:425] inception_4b/relu_3x3 <- inception_4b/3x3
I0403 02:30:37.871822 19579 net.cpp:386] inception_4b/relu_3x3 -> inception_4b/3x3 (in-place)
I0403 02:30:37.871847 19579 net.cpp:141] Setting up inception_4b/relu_3x3
I0403 02:30:37.871870 19579 net.cpp:148] Top shape: 24 224 14 14 (1053696)
I0403 02:30:37.871886 19579 net.cpp:156] Memory required for data: 964857792
I0403 02:30:37.871902 19579 layer_factory.hpp:77] Creating layer inception_4b/5x5_reduce
I0403 02:30:37.871929 19579 net.cpp:91] Creating Layer inception_4b/5x5_reduce
I0403 02:30:37.871950 19579 net.cpp:425] inception_4b/5x5_reduce <- inception_4a/output_inception_4a/output_0_split_3
I0403 02:30:37.871974 19579 net.cpp:399] inception_4b/5x5_reduce -> inception_4b/5x5_reduce
I0403 02:30:37.872325 19579 net.cpp:141] Setting up inception_4b/5x5_reduce
I0403 02:30:37.872372 19579 net.cpp:148] Top shape: 24 24 14 14 (112896)
I0403 02:30:37.872401 19579 net.cpp:156] Memory required for data: 965309376
I0403 02:30:37.872434 19579 layer_factory.hpp:77] Creating layer inception_4b/relu_5x5_reduce
I0403 02:30:37.872458 19579 net.cpp:91] Creating Layer inception_4b/relu_5x5_reduce
I0403 02:30:37.872501 19579 net.cpp:425] inception_4b/relu_5x5_reduce <- inception_4b/5x5_reduce
I0403 02:30:37.872557 19579 net.cpp:386] inception_4b/relu_5x5_reduce -> inception_4b/5x5_reduce (in-place)
I0403 02:30:37.872613 19579 net.cpp:141] Setting up inception_4b/relu_5x5_reduce
I0403 02:30:37.872637 19579 net.cpp:148] Top shape: 24 24 14 14 (112896)
I0403 02:30:37.872653 19579 net.cpp:156] Memory required for data: 965760960
I0403 02:30:37.872670 19579 layer_factory.hpp:77] Creating layer inception_4b/5x5
I0403 02:30:37.872714 19579 net.cpp:91] Creating Layer inception_4b/5x5
I0403 02:30:37.872735 19579 net.cpp:425] inception_4b/5x5 <- inception_4b/5x5_reduce
I0403 02:30:37.872761 19579 net.cpp:399] inception_4b/5x5 -> inception_4b/5x5
I0403 02:30:37.873287 19579 net.cpp:141] Setting up inception_4b/5x5
I0403 02:30:37.873319 19579 net.cpp:148] Top shape: 24 64 14 14 (301056)
I0403 02:30:37.873338 19579 net.cpp:156] Memory required for data: 966965184
I0403 02:30:37.873360 19579 layer_factory.hpp:77] Creating layer inception_4b/relu_5x5
I0403 02:30:37.873383 19579 net.cpp:91] Creating Layer inception_4b/relu_5x5
I0403 02:30:37.873401 19579 net.cpp:425] inception_4b/relu_5x5 <- inception_4b/5x5
I0403 02:30:37.873425 19579 net.cpp:386] inception_4b/relu_5x5 -> inception_4b/5x5 (in-place)
I0403 02:30:37.873450 19579 net.cpp:141] Setting up inception_4b/relu_5x5
I0403 02:30:37.873471 19579 net.cpp:148] Top shape: 24 64 14 14 (301056)
I0403 02:30:37.873491 19579 net.cpp:156] Memory required for data: 968169408
I0403 02:30:37.873507 19579 layer_factory.hpp:77] Creating layer inception_4b/pool
I0403 02:30:37.873528 19579 net.cpp:91] Creating Layer inception_4b/pool
I0403 02:30:37.873548 19579 net.cpp:425] inception_4b/pool <- inception_4a/output_inception_4a/output_0_split_4
I0403 02:30:37.873569 19579 net.cpp:399] inception_4b/pool -> inception_4b/pool
I0403 02:30:37.873636 19579 net.cpp:141] Setting up inception_4b/pool
I0403 02:30:37.873662 19579 net.cpp:148] Top shape: 24 512 14 14 (2408448)
I0403 02:30:37.873680 19579 net.cpp:156] Memory required for data: 977803200
I0403 02:30:37.873695 19579 layer_factory.hpp:77] Creating layer inception_4b/pool_proj
I0403 02:30:37.873723 19579 net.cpp:91] Creating Layer inception_4b/pool_proj
I0403 02:30:37.873745 19579 net.cpp:425] inception_4b/pool_proj <- inception_4b/pool
I0403 02:30:37.873770 19579 net.cpp:399] inception_4b/pool_proj -> inception_4b/pool_proj
I0403 02:30:37.874258 19579 net.cpp:141] Setting up inception_4b/pool_proj
I0403 02:30:37.874291 19579 net.cpp:148] Top shape: 24 64 14 14 (301056)
I0403 02:30:37.874310 19579 net.cpp:156] Memory required for data: 979007424
I0403 02:30:37.874331 19579 layer_factory.hpp:77] Creating layer inception_4b/relu_pool_proj
I0403 02:30:37.874354 19579 net.cpp:91] Creating Layer inception_4b/relu_pool_proj
I0403 02:30:37.874374 19579 net.cpp:425] inception_4b/relu_pool_proj <- inception_4b/pool_proj
I0403 02:30:37.874397 19579 net.cpp:386] inception_4b/relu_pool_proj -> inception_4b/pool_proj (in-place)
I0403 02:30:37.874419 19579 net.cpp:141] Setting up inception_4b/relu_pool_proj
I0403 02:30:37.874439 19579 net.cpp:148] Top shape: 24 64 14 14 (301056)
I0403 02:30:37.874456 19579 net.cpp:156] Memory required for data: 980211648
I0403 02:30:37.874474 19579 layer_factory.hpp:77] Creating layer inception_4b/output
I0403 02:30:37.874495 19579 net.cpp:91] Creating Layer inception_4b/output
I0403 02:30:37.874513 19579 net.cpp:425] inception_4b/output <- inception_4b/1x1
I0403 02:30:37.874533 19579 net.cpp:425] inception_4b/output <- inception_4b/3x3
I0403 02:30:37.874553 19579 net.cpp:425] inception_4b/output <- inception_4b/5x5
I0403 02:30:37.874573 19579 net.cpp:425] inception_4b/output <- inception_4b/pool_proj
I0403 02:30:37.874598 19579 net.cpp:399] inception_4b/output -> inception_4b/output
I0403 02:30:37.874644 19579 net.cpp:141] Setting up inception_4b/output
I0403 02:30:37.874675 19579 net.cpp:148] Top shape: 24 512 14 14 (2408448)
I0403 02:30:37.874692 19579 net.cpp:156] Memory required for data: 989845440
I0403 02:30:37.874711 19579 layer_factory.hpp:77] Creating layer inception_4b/output_inception_4b/output_0_split
I0403 02:30:37.874732 19579 net.cpp:91] Creating Layer inception_4b/output_inception_4b/output_0_split
I0403 02:30:37.874752 19579 net.cpp:425] inception_4b/output_inception_4b/output_0_split <- inception_4b/output
I0403 02:30:37.874773 19579 net.cpp:399] inception_4b/output_inception_4b/output_0_split -> inception_4b/output_inception_4b/output_0_split_0
I0403 02:30:37.874802 19579 net.cpp:399] inception_4b/output_inception_4b/output_0_split -> inception_4b/output_inception_4b/output_0_split_1
I0403 02:30:37.874845 19579 net.cpp:399] inception_4b/output_inception_4b/output_0_split -> inception_4b/output_inception_4b/output_0_split_2
I0403 02:30:37.874871 19579 net.cpp:399] inception_4b/output_inception_4b/output_0_split -> inception_4b/output_inception_4b/output_0_split_3
I0403 02:30:37.874955 19579 net.cpp:141] Setting up inception_4b/output_inception_4b/output_0_split
I0403 02:30:37.874984 19579 net.cpp:148] Top shape: 24 512 14 14 (2408448)
I0403 02:30:37.875033 19579 net.cpp:148] Top shape: 24 512 14 14 (2408448)
I0403 02:30:37.875088 19579 net.cpp:148] Top shape: 24 512 14 14 (2408448)
I0403 02:30:37.875144 19579 net.cpp:148] Top shape: 24 512 14 14 (2408448)
I0403 02:30:37.875185 19579 net.cpp:156] Memory required for data: 1028380608
I0403 02:30:37.875211 19579 layer_factory.hpp:77] Creating layer inception_4c/1x1
I0403 02:30:37.875244 19579 net.cpp:91] Creating Layer inception_4c/1x1
I0403 02:30:37.875299 19579 net.cpp:425] inception_4c/1x1 <- inception_4b/output_inception_4b/output_0_split_0
I0403 02:30:37.875347 19579 net.cpp:399] inception_4c/1x1 -> inception_4c/1x1
I0403 02:30:37.876066 19579 net.cpp:141] Setting up inception_4c/1x1
I0403 02:30:37.876111 19579 net.cpp:148] Top shape: 24 128 14 14 (602112)
I0403 02:30:37.876132 19579 net.cpp:156] Memory required for data: 1030789056
I0403 02:30:37.876183 19579 layer_factory.hpp:77] Creating layer inception_4c/relu_1x1
I0403 02:30:37.876229 19579 net.cpp:91] Creating Layer inception_4c/relu_1x1
I0403 02:30:37.876272 19579 net.cpp:425] inception_4c/relu_1x1 <- inception_4c/1x1
I0403 02:30:37.876294 19579 net.cpp:386] inception_4c/relu_1x1 -> inception_4c/1x1 (in-place)
I0403 02:30:37.876317 19579 net.cpp:141] Setting up inception_4c/relu_1x1
I0403 02:30:37.876338 19579 net.cpp:148] Top shape: 24 128 14 14 (602112)
I0403 02:30:37.876354 19579 net.cpp:156] Memory required for data: 1033197504
I0403 02:30:37.876373 19579 layer_factory.hpp:77] Creating layer inception_4c/3x3_reduce
I0403 02:30:37.876399 19579 net.cpp:91] Creating Layer inception_4c/3x3_reduce
I0403 02:30:37.876420 19579 net.cpp:425] inception_4c/3x3_reduce <- inception_4b/output_inception_4b/output_0_split_1
I0403 02:30:37.876446 19579 net.cpp:399] inception_4c/3x3_reduce -> inception_4c/3x3_reduce
I0403 02:30:37.877763 19579 net.cpp:141] Setting up inception_4c/3x3_reduce
I0403 02:30:37.877810 19579 net.cpp:148] Top shape: 24 128 14 14 (602112)
I0403 02:30:37.877863 19579 net.cpp:156] Memory required for data: 1035605952
I0403 02:30:37.877902 19579 layer_factory.hpp:77] Creating layer inception_4c/relu_3x3_reduce
I0403 02:30:37.877934 19579 net.cpp:91] Creating Layer inception_4c/relu_3x3_reduce
I0403 02:30:37.877974 19579 net.cpp:425] inception_4c/relu_3x3_reduce <- inception_4c/3x3_reduce
I0403 02:30:37.878010 19579 net.cpp:386] inception_4c/relu_3x3_reduce -> inception_4c/3x3_reduce (in-place)
I0403 02:30:37.878062 19579 net.cpp:141] Setting up inception_4c/relu_3x3_reduce
I0403 02:30:37.878118 19579 net.cpp:148] Top shape: 24 128 14 14 (602112)
I0403 02:30:37.878162 19579 net.cpp:156] Memory required for data: 1038014400
I0403 02:30:37.878212 19579 layer_factory.hpp:77] Creating layer inception_4c/3x3
I0403 02:30:37.878267 19579 net.cpp:91] Creating Layer inception_4c/3x3
I0403 02:30:37.878296 19579 net.cpp:425] inception_4c/3x3 <- inception_4c/3x3_reduce
I0403 02:30:37.878325 19579 net.cpp:399] inception_4c/3x3 -> inception_4c/3x3
I0403 02:30:37.881273 19579 net.cpp:141] Setting up inception_4c/3x3
I0403 02:30:37.907188 19579 net.cpp:148] Top shape: 24 256 14 14 (1204224)
I0403 02:30:37.907217 19579 net.cpp:156] Memory required for data: 1042831296
I0403 02:30:37.907263 19579 layer_factory.hpp:77] Creating layer inception_4c/relu_3x3
I0403 02:30:37.907310 19579 net.cpp:91] Creating Layer inception_4c/relu_3x3
I0403 02:30:37.907367 19579 net.cpp:425] inception_4c/relu_3x3 <- inception_4c/3x3
I0403 02:30:37.907393 19579 net.cpp:386] inception_4c/relu_3x3 -> inception_4c/3x3 (in-place)
I0403 02:30:37.907460 19579 net.cpp:141] Setting up inception_4c/relu_3x3
I0403 02:30:37.907511 19579 net.cpp:148] Top shape: 24 256 14 14 (1204224)
I0403 02:30:37.907532 19579 net.cpp:156] Memory required for data: 1047648192
I0403 02:30:37.907557 19579 layer_factory.hpp:77] Creating layer inception_4c/5x5_reduce
I0403 02:30:37.907601 19579 net.cpp:91] Creating Layer inception_4c/5x5_reduce
I0403 02:30:37.907644 19579 net.cpp:425] inception_4c/5x5_reduce <- inception_4b/output_inception_4b/output_0_split_2
I0403 02:30:37.907670 19579 net.cpp:399] inception_4c/5x5_reduce -> inception_4c/5x5_reduce
I0403 02:30:37.908046 19579 net.cpp:141] Setting up inception_4c/5x5_reduce
I0403 02:30:37.908108 19579 net.cpp:148] Top shape: 24 24 14 14 (112896)
I0403 02:30:37.908149 19579 net.cpp:156] Memory required for data: 1048099776
I0403 02:30:37.908195 19579 layer_factory.hpp:77] Creating layer inception_4c/relu_5x5_reduce
I0403 02:30:37.908241 19579 net.cpp:91] Creating Layer inception_4c/relu_5x5_reduce
I0403 02:30:37.908282 19579 net.cpp:425] inception_4c/relu_5x5_reduce <- inception_4c/5x5_reduce
I0403 02:30:37.908326 19579 net.cpp:386] inception_4c/relu_5x5_reduce -> inception_4c/5x5_reduce (in-place)
I0403 02:30:37.908376 19579 net.cpp:141] Setting up inception_4c/relu_5x5_reduce
I0403 02:30:37.908419 19579 net.cpp:148] Top shape: 24 24 14 14 (112896)
I0403 02:30:37.908455 19579 net.cpp:156] Memory required for data: 1048551360
I0403 02:30:37.908489 19579 layer_factory.hpp:77] Creating layer inception_4c/5x5
I0403 02:30:37.908550 19579 net.cpp:91] Creating Layer inception_4c/5x5
I0403 02:30:37.908596 19579 net.cpp:425] inception_4c/5x5 <- inception_4c/5x5_reduce
I0403 02:30:37.908651 19579 net.cpp:399] inception_4c/5x5 -> inception_4c/5x5
I0403 02:30:37.909431 19579 net.cpp:141] Setting up inception_4c/5x5
I0403 02:30:37.909462 19579 net.cpp:148] Top shape: 24 64 14 14 (301056)
I0403 02:30:37.909482 19579 net.cpp:156] Memory required for data: 1049755584
I0403 02:30:37.909505 19579 layer_factory.hpp:77] Creating layer inception_4c/relu_5x5
I0403 02:30:37.909530 19579 net.cpp:91] Creating Layer inception_4c/relu_5x5
I0403 02:30:37.909553 19579 net.cpp:425] inception_4c/relu_5x5 <- inception_4c/5x5
I0403 02:30:37.909574 19579 net.cpp:386] inception_4c/relu_5x5 -> inception_4c/5x5 (in-place)
I0403 02:30:37.909597 19579 net.cpp:141] Setting up inception_4c/relu_5x5
I0403 02:30:37.909618 19579 net.cpp:148] Top shape: 24 64 14 14 (301056)
I0403 02:30:37.909636 19579 net.cpp:156] Memory required for data: 1050959808
I0403 02:30:37.909653 19579 layer_factory.hpp:77] Creating layer inception_4c/pool
I0403 02:30:37.909677 19579 net.cpp:91] Creating Layer inception_4c/pool
I0403 02:30:37.909698 19579 net.cpp:425] inception_4c/pool <- inception_4b/output_inception_4b/output_0_split_3
I0403 02:30:37.909719 19579 net.cpp:399] inception_4c/pool -> inception_4c/pool
I0403 02:30:37.909787 19579 net.cpp:141] Setting up inception_4c/pool
I0403 02:30:37.909816 19579 net.cpp:148] Top shape: 24 512 14 14 (2408448)
I0403 02:30:37.909834 19579 net.cpp:156] Memory required for data: 1060593600
I0403 02:30:37.909852 19579 layer_factory.hpp:77] Creating layer inception_4c/pool_proj
I0403 02:30:37.909880 19579 net.cpp:91] Creating Layer inception_4c/pool_proj
I0403 02:30:37.909900 19579 net.cpp:425] inception_4c/pool_proj <- inception_4c/pool
I0403 02:30:37.909924 19579 net.cpp:399] inception_4c/pool_proj -> inception_4c/pool_proj
I0403 02:30:37.910411 19579 net.cpp:141] Setting up inception_4c/pool_proj
I0403 02:30:37.910442 19579 net.cpp:148] Top shape: 24 64 14 14 (301056)
I0403 02:30:37.910459 19579 net.cpp:156] Memory required for data: 1061797824
I0403 02:30:37.910481 19579 layer_factory.hpp:77] Creating layer inception_4c/relu_pool_proj
I0403 02:30:37.910503 19579 net.cpp:91] Creating Layer inception_4c/relu_pool_proj
I0403 02:30:37.910523 19579 net.cpp:425] inception_4c/relu_pool_proj <- inception_4c/pool_proj
I0403 02:30:37.910547 19579 net.cpp:386] inception_4c/relu_pool_proj -> inception_4c/pool_proj (in-place)
I0403 02:30:37.910573 19579 net.cpp:141] Setting up inception_4c/relu_pool_proj
I0403 02:30:37.910611 19579 net.cpp:148] Top shape: 24 64 14 14 (301056)
I0403 02:30:37.910634 19579 net.cpp:156] Memory required for data: 1063002048
I0403 02:30:37.910666 19579 layer_factory.hpp:77] Creating layer inception_4c/output
I0403 02:30:37.910715 19579 net.cpp:91] Creating Layer inception_4c/output
I0403 02:30:37.910756 19579 net.cpp:425] inception_4c/output <- inception_4c/1x1
I0403 02:30:37.910778 19579 net.cpp:425] inception_4c/output <- inception_4c/3x3
I0403 02:30:37.910806 19579 net.cpp:425] inception_4c/output <- inception_4c/5x5
I0403 02:30:37.910827 19579 net.cpp:425] inception_4c/output <- inception_4c/pool_proj
I0403 02:30:37.910859 19579 net.cpp:399] inception_4c/output -> inception_4c/output
I0403 02:30:37.910910 19579 net.cpp:141] Setting up inception_4c/output
I0403 02:30:37.910958 19579 net.cpp:148] Top shape: 24 512 14 14 (2408448)
I0403 02:30:37.911007 19579 net.cpp:156] Memory required for data: 1072635840
I0403 02:30:37.911061 19579 layer_factory.hpp:77] Creating layer inception_4c/output_inception_4c/output_0_split
I0403 02:30:37.911114 19579 net.cpp:91] Creating Layer inception_4c/output_inception_4c/output_0_split
I0403 02:30:37.911146 19579 net.cpp:425] inception_4c/output_inception_4c/output_0_split <- inception_4c/output
I0403 02:30:37.911178 19579 net.cpp:399] inception_4c/output_inception_4c/output_0_split -> inception_4c/output_inception_4c/output_0_split_0
I0403 02:30:37.911227 19579 net.cpp:399] inception_4c/output_inception_4c/output_0_split -> inception_4c/output_inception_4c/output_0_split_1
I0403 02:30:37.911253 19579 net.cpp:399] inception_4c/output_inception_4c/output_0_split -> inception_4c/output_inception_4c/output_0_split_2
I0403 02:30:37.911278 19579 net.cpp:399] inception_4c/output_inception_4c/output_0_split -> inception_4c/output_inception_4c/output_0_split_3
I0403 02:30:37.911365 19579 net.cpp:141] Setting up inception_4c/output_inception_4c/output_0_split
I0403 02:30:37.911391 19579 net.cpp:148] Top shape: 24 512 14 14 (2408448)
I0403 02:30:37.911411 19579 net.cpp:148] Top shape: 24 512 14 14 (2408448)
I0403 02:30:37.911429 19579 net.cpp:148] Top shape: 24 512 14 14 (2408448)
I0403 02:30:37.911448 19579 net.cpp:148] Top shape: 24 512 14 14 (2408448)
I0403 02:30:37.911464 19579 net.cpp:156] Memory required for data: 1111171008
I0403 02:30:37.911481 19579 layer_factory.hpp:77] Creating layer inception_4d/1x1
I0403 02:30:37.911509 19579 net.cpp:91] Creating Layer inception_4d/1x1
I0403 02:30:37.911530 19579 net.cpp:425] inception_4d/1x1 <- inception_4c/output_inception_4c/output_0_split_0
I0403 02:30:37.911553 19579 net.cpp:399] inception_4d/1x1 -> inception_4d/1x1
I0403 02:30:37.912231 19579 net.cpp:141] Setting up inception_4d/1x1
I0403 02:30:37.912266 19579 net.cpp:148] Top shape: 24 112 14 14 (526848)
I0403 02:30:37.912286 19579 net.cpp:156] Memory required for data: 1113278400
I0403 02:30:37.912307 19579 layer_factory.hpp:77] Creating layer inception_4d/relu_1x1
I0403 02:30:37.912329 19579 net.cpp:91] Creating Layer inception_4d/relu_1x1
I0403 02:30:37.912348 19579 net.cpp:425] inception_4d/relu_1x1 <- inception_4d/1x1
I0403 02:30:37.912369 19579 net.cpp:386] inception_4d/relu_1x1 -> inception_4d/1x1 (in-place)
I0403 02:30:37.912394 19579 net.cpp:141] Setting up inception_4d/relu_1x1
I0403 02:30:37.912417 19579 net.cpp:148] Top shape: 24 112 14 14 (526848)
I0403 02:30:37.912443 19579 net.cpp:156] Memory required for data: 1115385792
I0403 02:30:37.912489 19579 layer_factory.hpp:77] Creating layer inception_4d/3x3_reduce
I0403 02:30:37.912550 19579 net.cpp:91] Creating Layer inception_4d/3x3_reduce
I0403 02:30:37.912585 19579 net.cpp:425] inception_4d/3x3_reduce <- inception_4c/output_inception_4c/output_0_split_1
I0403 02:30:37.912637 19579 net.cpp:399] inception_4d/3x3_reduce -> inception_4d/3x3_reduce
I0403 02:30:37.913415 19579 net.cpp:141] Setting up inception_4d/3x3_reduce
I0403 02:30:37.913451 19579 net.cpp:148] Top shape: 24 144 14 14 (677376)
I0403 02:30:37.913471 19579 net.cpp:156] Memory required for data: 1118095296
I0403 02:30:37.913511 19579 layer_factory.hpp:77] Creating layer inception_4d/relu_3x3_reduce
I0403 02:30:37.913545 19579 net.cpp:91] Creating Layer inception_4d/relu_3x3_reduce
I0403 02:30:37.913576 19579 net.cpp:425] inception_4d/relu_3x3_reduce <- inception_4d/3x3_reduce
I0403 02:30:37.913601 19579 net.cpp:386] inception_4d/relu_3x3_reduce -> inception_4d/3x3_reduce (in-place)
I0403 02:30:37.913635 19579 net.cpp:141] Setting up inception_4d/relu_3x3_reduce
I0403 02:30:37.913681 19579 net.cpp:148] Top shape: 24 144 14 14 (677376)
I0403 02:30:37.913720 19579 net.cpp:156] Memory required for data: 1120804800
I0403 02:30:37.913739 19579 layer_factory.hpp:77] Creating layer inception_4d/3x3
I0403 02:30:37.913770 19579 net.cpp:91] Creating Layer inception_4d/3x3
I0403 02:30:37.913815 19579 net.cpp:425] inception_4d/3x3 <- inception_4d/3x3_reduce
I0403 02:30:37.913872 19579 net.cpp:399] inception_4d/3x3 -> inception_4d/3x3
I0403 02:30:37.917773 19579 net.cpp:141] Setting up inception_4d/3x3
I0403 02:30:37.917814 19579 net.cpp:148] Top shape: 24 288 14 14 (1354752)
I0403 02:30:37.917834 19579 net.cpp:156] Memory required for data: 1126223808
I0403 02:30:37.917856 19579 layer_factory.hpp:77] Creating layer inception_4d/relu_3x3
I0403 02:30:37.917881 19579 net.cpp:91] Creating Layer inception_4d/relu_3x3
I0403 02:30:37.917903 19579 net.cpp:425] inception_4d/relu_3x3 <- inception_4d/3x3
I0403 02:30:37.917927 19579 net.cpp:386] inception_4d/relu_3x3 -> inception_4d/3x3 (in-place)
I0403 02:30:37.917951 19579 net.cpp:141] Setting up inception_4d/relu_3x3
I0403 02:30:37.917973 19579 net.cpp:148] Top shape: 24 288 14 14 (1354752)
I0403 02:30:37.917990 19579 net.cpp:156] Memory required for data: 1131642816
I0403 02:30:37.918006 19579 layer_factory.hpp:77] Creating layer inception_4d/5x5_reduce
I0403 02:30:37.918037 19579 net.cpp:91] Creating Layer inception_4d/5x5_reduce
I0403 02:30:37.918061 19579 net.cpp:425] inception_4d/5x5_reduce <- inception_4c/output_inception_4c/output_0_split_2
I0403 02:30:37.918087 19579 net.cpp:399] inception_4d/5x5_reduce -> inception_4d/5x5_reduce
I0403 02:30:37.918467 19579 net.cpp:141] Setting up inception_4d/5x5_reduce
I0403 02:30:37.918498 19579 net.cpp:148] Top shape: 24 32 14 14 (150528)
I0403 02:30:37.918516 19579 net.cpp:156] Memory required for data: 1132244928
I0403 02:30:37.918537 19579 layer_factory.hpp:77] Creating layer inception_4d/relu_5x5_reduce
I0403 02:30:37.918560 19579 net.cpp:91] Creating Layer inception_4d/relu_5x5_reduce
I0403 02:30:37.918579 19579 net.cpp:425] inception_4d/relu_5x5_reduce <- inception_4d/5x5_reduce
I0403 02:30:37.918601 19579 net.cpp:386] inception_4d/relu_5x5_reduce -> inception_4d/5x5_reduce (in-place)
I0403 02:30:37.918622 19579 net.cpp:141] Setting up inception_4d/relu_5x5_reduce
I0403 02:30:37.918643 19579 net.cpp:148] Top shape: 24 32 14 14 (150528)
I0403 02:30:37.918660 19579 net.cpp:156] Memory required for data: 1132847040
I0403 02:30:37.918678 19579 layer_factory.hpp:77] Creating layer inception_4d/5x5
I0403 02:30:37.918705 19579 net.cpp:91] Creating Layer inception_4d/5x5
I0403 02:30:37.918726 19579 net.cpp:425] inception_4d/5x5 <- inception_4d/5x5_reduce
I0403 02:30:37.918752 19579 net.cpp:399] inception_4d/5x5 -> inception_4d/5x5
I0403 02:30:37.919389 19579 net.cpp:141] Setting up inception_4d/5x5
I0403 02:30:37.919420 19579 net.cpp:148] Top shape: 24 64 14 14 (301056)
I0403 02:30:37.919438 19579 net.cpp:156] Memory required for data: 1134051264
I0403 02:30:37.919459 19579 layer_factory.hpp:77] Creating layer inception_4d/relu_5x5
I0403 02:30:37.919482 19579 net.cpp:91] Creating Layer inception_4d/relu_5x5
I0403 02:30:37.919502 19579 net.cpp:425] inception_4d/relu_5x5 <- inception_4d/5x5
I0403 02:30:37.919523 19579 net.cpp:386] inception_4d/relu_5x5 -> inception_4d/5x5 (in-place)
I0403 02:30:37.919546 19579 net.cpp:141] Setting up inception_4d/relu_5x5
I0403 02:30:37.919567 19579 net.cpp:148] Top shape: 24 64 14 14 (301056)
I0403 02:30:37.919585 19579 net.cpp:156] Memory required for data: 1135255488
I0403 02:30:37.919602 19579 layer_factory.hpp:77] Creating layer inception_4d/pool
I0403 02:30:37.919646 19579 net.cpp:91] Creating Layer inception_4d/pool
I0403 02:30:37.919667 19579 net.cpp:425] inception_4d/pool <- inception_4c/output_inception_4c/output_0_split_3
I0403 02:30:37.919690 19579 net.cpp:399] inception_4d/pool -> inception_4d/pool
I0403 02:30:37.919755 19579 net.cpp:141] Setting up inception_4d/pool
I0403 02:30:37.919785 19579 net.cpp:148] Top shape: 24 512 14 14 (2408448)
I0403 02:30:37.919802 19579 net.cpp:156] Memory required for data: 1144889280
I0403 02:30:37.919821 19579 layer_factory.hpp:77] Creating layer inception_4d/pool_proj
I0403 02:30:37.919847 19579 net.cpp:91] Creating Layer inception_4d/pool_proj
I0403 02:30:37.919868 19579 net.cpp:425] inception_4d/pool_proj <- inception_4d/pool
I0403 02:30:37.919891 19579 net.cpp:399] inception_4d/pool_proj -> inception_4d/pool_proj
I0403 02:30:37.920997 19579 net.cpp:141] Setting up inception_4d/pool_proj
I0403 02:30:37.921038 19579 net.cpp:148] Top shape: 24 64 14 14 (301056)
I0403 02:30:37.921059 19579 net.cpp:156] Memory required for data: 1146093504
I0403 02:30:37.921082 19579 layer_factory.hpp:77] Creating layer inception_4d/relu_pool_proj
I0403 02:30:37.921108 19579 net.cpp:91] Creating Layer inception_4d/relu_pool_proj
I0403 02:30:37.921128 19579 net.cpp:425] inception_4d/relu_pool_proj <- inception_4d/pool_proj
I0403 02:30:37.921150 19579 net.cpp:386] inception_4d/relu_pool_proj -> inception_4d/pool_proj (in-place)
I0403 02:30:37.921190 19579 net.cpp:141] Setting up inception_4d/relu_pool_proj
I0403 02:30:37.921226 19579 net.cpp:148] Top shape: 24 64 14 14 (301056)
I0403 02:30:37.921250 19579 net.cpp:156] Memory required for data: 1147297728
I0403 02:30:37.921303 19579 layer_factory.hpp:77] Creating layer inception_4d/output
I0403 02:30:37.921329 19579 net.cpp:91] Creating Layer inception_4d/output
I0403 02:30:37.921362 19579 net.cpp:425] inception_4d/output <- inception_4d/1x1
I0403 02:30:37.921388 19579 net.cpp:425] inception_4d/output <- inception_4d/3x3
I0403 02:30:37.921408 19579 net.cpp:425] inception_4d/output <- inception_4d/5x5
I0403 02:30:37.921435 19579 net.cpp:425] inception_4d/output <- inception_4d/pool_proj
I0403 02:30:37.921473 19579 net.cpp:399] inception_4d/output -> inception_4d/output
I0403 02:30:37.921545 19579 net.cpp:141] Setting up inception_4d/output
I0403 02:30:37.921591 19579 net.cpp:148] Top shape: 24 528 14 14 (2483712)
I0403 02:30:37.921627 19579 net.cpp:156] Memory required for data: 1157232576
I0403 02:30:37.921643 19579 layer_factory.hpp:77] Creating layer inception_4d/output_inception_4d/output_0_split
I0403 02:30:37.921669 19579 net.cpp:91] Creating Layer inception_4d/output_inception_4d/output_0_split
I0403 02:30:37.921689 19579 net.cpp:425] inception_4d/output_inception_4d/output_0_split <- inception_4d/output
I0403 02:30:37.921711 19579 net.cpp:399] inception_4d/output_inception_4d/output_0_split -> inception_4d/output_inception_4d/output_0_split_0
I0403 02:30:37.921736 19579 net.cpp:399] inception_4d/output_inception_4d/output_0_split -> inception_4d/output_inception_4d/output_0_split_1
I0403 02:30:37.921763 19579 net.cpp:399] inception_4d/output_inception_4d/output_0_split -> inception_4d/output_inception_4d/output_0_split_2
I0403 02:30:37.921792 19579 net.cpp:399] inception_4d/output_inception_4d/output_0_split -> inception_4d/output_inception_4d/output_0_split_3
I0403 02:30:37.921814 19579 net.cpp:399] inception_4d/output_inception_4d/output_0_split -> inception_4d/output_inception_4d/output_0_split_4
I0403 02:30:37.921911 19579 net.cpp:141] Setting up inception_4d/output_inception_4d/output_0_split
I0403 02:30:37.921938 19579 net.cpp:148] Top shape: 24 528 14 14 (2483712)
I0403 02:30:37.921957 19579 net.cpp:148] Top shape: 24 528 14 14 (2483712)
I0403 02:30:37.921975 19579 net.cpp:148] Top shape: 24 528 14 14 (2483712)
I0403 02:30:37.921993 19579 net.cpp:148] Top shape: 24 528 14 14 (2483712)
I0403 02:30:37.922011 19579 net.cpp:148] Top shape: 24 528 14 14 (2483712)
I0403 02:30:37.922034 19579 net.cpp:156] Memory required for data: 1206906816
I0403 02:30:37.922070 19579 layer_factory.hpp:77] Creating layer loss2/ave_pool
I0403 02:30:37.922092 19579 net.cpp:91] Creating Layer loss2/ave_pool
I0403 02:30:37.922111 19579 net.cpp:425] loss2/ave_pool <- inception_4d/output_inception_4d/output_0_split_0
I0403 02:30:37.922134 19579 net.cpp:399] loss2/ave_pool -> loss2/ave_pool
I0403 02:30:37.922184 19579 net.cpp:141] Setting up loss2/ave_pool
I0403 02:30:37.922212 19579 net.cpp:148] Top shape: 24 528 4 4 (202752)
I0403 02:30:37.922230 19579 net.cpp:156] Memory required for data: 1207717824
I0403 02:30:37.922277 19579 layer_factory.hpp:77] Creating layer loss2/conv
I0403 02:30:37.922310 19579 net.cpp:91] Creating Layer loss2/conv
I0403 02:30:37.922353 19579 net.cpp:425] loss2/conv <- loss2/ave_pool
I0403 02:30:37.922412 19579 net.cpp:399] loss2/conv -> loss2/conv
I0403 02:30:37.923753 19579 net.cpp:141] Setting up loss2/conv
I0403 02:30:37.923789 19579 net.cpp:148] Top shape: 24 128 4 4 (49152)
I0403 02:30:37.923807 19579 net.cpp:156] Memory required for data: 1207914432
I0403 02:30:37.923828 19579 layer_factory.hpp:77] Creating layer loss2/relu_conv
I0403 02:30:37.923851 19579 net.cpp:91] Creating Layer loss2/relu_conv
I0403 02:30:37.923871 19579 net.cpp:425] loss2/relu_conv <- loss2/conv
I0403 02:30:37.923895 19579 net.cpp:386] loss2/relu_conv -> loss2/conv (in-place)
I0403 02:30:37.923920 19579 net.cpp:141] Setting up loss2/relu_conv
I0403 02:30:37.923941 19579 net.cpp:148] Top shape: 24 128 4 4 (49152)
I0403 02:30:37.923959 19579 net.cpp:156] Memory required for data: 1208111040
I0403 02:30:37.924000 19579 layer_factory.hpp:77] Creating layer loss2/fc
I0403 02:30:37.924023 19579 net.cpp:91] Creating Layer loss2/fc
I0403 02:30:37.924080 19579 net.cpp:425] loss2/fc <- loss2/conv
I0403 02:30:37.924134 19579 net.cpp:399] loss2/fc -> loss2/fc
I0403 02:30:37.943704 19579 net.cpp:141] Setting up loss2/fc
I0403 02:30:37.943747 19579 net.cpp:148] Top shape: 24 1024 (24576)
I0403 02:30:37.943768 19579 net.cpp:156] Memory required for data: 1208209344
I0403 02:30:37.943794 19579 layer_factory.hpp:77] Creating layer loss2/relu_fc
I0403 02:30:37.943819 19579 net.cpp:91] Creating Layer loss2/relu_fc
I0403 02:30:37.943840 19579 net.cpp:425] loss2/relu_fc <- loss2/fc
I0403 02:30:37.943861 19579 net.cpp:386] loss2/relu_fc -> loss2/fc (in-place)
I0403 02:30:37.943884 19579 net.cpp:141] Setting up loss2/relu_fc
I0403 02:30:37.943905 19579 net.cpp:148] Top shape: 24 1024 (24576)
I0403 02:30:37.943922 19579 net.cpp:156] Memory required for data: 1208307648
I0403 02:30:37.943939 19579 layer_factory.hpp:77] Creating layer loss2/drop_fc
I0403 02:30:37.943960 19579 net.cpp:91] Creating Layer loss2/drop_fc
I0403 02:30:37.943979 19579 net.cpp:425] loss2/drop_fc <- loss2/fc
I0403 02:30:37.944002 19579 net.cpp:386] loss2/drop_fc -> loss2/fc (in-place)
I0403 02:30:37.944056 19579 net.cpp:141] Setting up loss2/drop_fc
I0403 02:30:37.944082 19579 net.cpp:148] Top shape: 24 1024 (24576)
I0403 02:30:37.944100 19579 net.cpp:156] Memory required for data: 1208405952
I0403 02:30:37.944118 19579 layer_factory.hpp:77] Creating layer loss2/classifier_plantvillage
I0403 02:30:37.944142 19579 net.cpp:91] Creating Layer loss2/classifier_plantvillage
I0403 02:30:37.944164 19579 net.cpp:425] loss2/classifier_plantvillage <- loss2/fc
I0403 02:30:37.944185 19579 net.cpp:399] loss2/classifier_plantvillage -> loss2/classifier_plantvillage
I0403 02:30:37.944583 19579 net.cpp:141] Setting up loss2/classifier_plantvillage
I0403 02:30:37.944613 19579 net.cpp:148] Top shape: 24 38 (912)
I0403 02:30:37.944630 19579 net.cpp:156] Memory required for data: 1208409600
I0403 02:30:37.944653 19579 layer_factory.hpp:77] Creating layer inception_4e/1x1
I0403 02:30:37.944681 19579 net.cpp:91] Creating Layer inception_4e/1x1
I0403 02:30:37.944703 19579 net.cpp:425] inception_4e/1x1 <- inception_4d/output_inception_4d/output_0_split_1
I0403 02:30:37.944728 19579 net.cpp:399] inception_4e/1x1 -> inception_4e/1x1
I0403 02:30:37.945901 19579 net.cpp:141] Setting up inception_4e/1x1
I0403 02:30:37.945933 19579 net.cpp:148] Top shape: 24 256 14 14 (1204224)
I0403 02:30:37.945972 19579 net.cpp:156] Memory required for data: 1213226496
I0403 02:30:37.945996 19579 layer_factory.hpp:77] Creating layer inception_4e/relu_1x1
I0403 02:30:37.946017 19579 net.cpp:91] Creating Layer inception_4e/relu_1x1
I0403 02:30:37.946041 19579 net.cpp:425] inception_4e/relu_1x1 <- inception_4e/1x1
I0403 02:30:37.946066 19579 net.cpp:386] inception_4e/relu_1x1 -> inception_4e/1x1 (in-place)
I0403 02:30:37.946092 19579 net.cpp:141] Setting up inception_4e/relu_1x1
I0403 02:30:37.946113 19579 net.cpp:148] Top shape: 24 256 14 14 (1204224)
I0403 02:30:37.946130 19579 net.cpp:156] Memory required for data: 1218043392
I0403 02:30:37.946147 19579 layer_factory.hpp:77] Creating layer inception_4e/3x3_reduce
I0403 02:30:37.946176 19579 net.cpp:91] Creating Layer inception_4e/3x3_reduce
I0403 02:30:37.946195 19579 net.cpp:425] inception_4e/3x3_reduce <- inception_4d/output_inception_4d/output_0_split_2
I0403 02:30:37.946219 19579 net.cpp:399] inception_4e/3x3_reduce -> inception_4e/3x3_reduce
I0403 02:30:37.947671 19579 net.cpp:141] Setting up inception_4e/3x3_reduce
I0403 02:30:37.947708 19579 net.cpp:148] Top shape: 24 160 14 14 (752640)
I0403 02:30:37.947727 19579 net.cpp:156] Memory required for data: 1221053952
I0403 02:30:37.947749 19579 layer_factory.hpp:77] Creating layer inception_4e/relu_3x3_reduce
I0403 02:30:37.947772 19579 net.cpp:91] Creating Layer inception_4e/relu_3x3_reduce
I0403 02:30:37.947793 19579 net.cpp:425] inception_4e/relu_3x3_reduce <- inception_4e/3x3_reduce
I0403 02:30:37.947814 19579 net.cpp:386] inception_4e/relu_3x3_reduce -> inception_4e/3x3_reduce (in-place)
I0403 02:30:37.947868 19579 net.cpp:141] Setting up inception_4e/relu_3x3_reduce
I0403 02:30:37.947916 19579 net.cpp:148] Top shape: 24 160 14 14 (752640)
I0403 02:30:37.947955 19579 net.cpp:156] Memory required for data: 1224064512
I0403 02:30:37.947993 19579 layer_factory.hpp:77] Creating layer inception_4e/3x3
I0403 02:30:37.948022 19579 net.cpp:91] Creating Layer inception_4e/3x3
I0403 02:30:37.948065 19579 net.cpp:425] inception_4e/3x3 <- inception_4e/3x3_reduce
I0403 02:30:37.948096 19579 net.cpp:399] inception_4e/3x3 -> inception_4e/3x3
I0403 02:30:37.952775 19579 net.cpp:141] Setting up inception_4e/3x3
I0403 02:30:37.952816 19579 net.cpp:148] Top shape: 24 320 14 14 (1505280)
I0403 02:30:37.952837 19579 net.cpp:156] Memory required for data: 1230085632
I0403 02:30:37.952858 19579 layer_factory.hpp:77] Creating layer inception_4e/relu_3x3
I0403 02:30:37.952883 19579 net.cpp:91] Creating Layer inception_4e/relu_3x3
I0403 02:30:37.952903 19579 net.cpp:425] inception_4e/relu_3x3 <- inception_4e/3x3
I0403 02:30:37.952929 19579 net.cpp:386] inception_4e/relu_3x3 -> inception_4e/3x3 (in-place)
I0403 02:30:37.952955 19579 net.cpp:141] Setting up inception_4e/relu_3x3
I0403 02:30:37.952976 19579 net.cpp:148] Top shape: 24 320 14 14 (1505280)
I0403 02:30:37.952994 19579 net.cpp:156] Memory required for data: 1236106752
I0403 02:30:37.953012 19579 layer_factory.hpp:77] Creating layer inception_4e/5x5_reduce
I0403 02:30:37.953044 19579 net.cpp:91] Creating Layer inception_4e/5x5_reduce
I0403 02:30:37.953068 19579 net.cpp:425] inception_4e/5x5_reduce <- inception_4d/output_inception_4d/output_0_split_3
I0403 02:30:37.953095 19579 net.cpp:399] inception_4e/5x5_reduce -> inception_4e/5x5_reduce
I0403 02:30:37.953486 19579 net.cpp:141] Setting up inception_4e/5x5_reduce
I0403 02:30:37.953518 19579 net.cpp:148] Top shape: 24 32 14 14 (150528)
I0403 02:30:37.953537 19579 net.cpp:156] Memory required for data: 1236708864
I0403 02:30:37.953558 19579 layer_factory.hpp:77] Creating layer inception_4e/relu_5x5_reduce
I0403 02:30:37.953584 19579 net.cpp:91] Creating Layer inception_4e/relu_5x5_reduce
I0403 02:30:37.953606 19579 net.cpp:425] inception_4e/relu_5x5_reduce <- inception_4e/5x5_reduce
I0403 02:30:37.953629 19579 net.cpp:386] inception_4e/relu_5x5_reduce -> inception_4e/5x5_reduce (in-place)
I0403 02:30:37.953652 19579 net.cpp:141] Setting up inception_4e/relu_5x5_reduce
I0403 02:30:37.953673 19579 net.cpp:148] Top shape: 24 32 14 14 (150528)
I0403 02:30:37.953711 19579 net.cpp:156] Memory required for data: 1237310976
I0403 02:30:37.953729 19579 layer_factory.hpp:77] Creating layer inception_4e/5x5
I0403 02:30:37.953758 19579 net.cpp:91] Creating Layer inception_4e/5x5
I0403 02:30:37.953780 19579 net.cpp:425] inception_4e/5x5 <- inception_4e/5x5_reduce
I0403 02:30:37.953807 19579 net.cpp:399] inception_4e/5x5 -> inception_4e/5x5
I0403 02:30:37.954761 19579 net.cpp:141] Setting up inception_4e/5x5
I0403 02:30:37.954793 19579 net.cpp:148] Top shape: 24 128 14 14 (602112)
I0403 02:30:37.954813 19579 net.cpp:156] Memory required for data: 1239719424
I0403 02:30:37.954834 19579 layer_factory.hpp:77] Creating layer inception_4e/relu_5x5
I0403 02:30:37.954857 19579 net.cpp:91] Creating Layer inception_4e/relu_5x5
I0403 02:30:37.954877 19579 net.cpp:425] inception_4e/relu_5x5 <- inception_4e/5x5
I0403 02:30:37.954898 19579 net.cpp:386] inception_4e/relu_5x5 -> inception_4e/5x5 (in-place)
I0403 02:30:37.954922 19579 net.cpp:141] Setting up inception_4e/relu_5x5
I0403 02:30:37.954942 19579 net.cpp:148] Top shape: 24 128 14 14 (602112)
I0403 02:30:37.954960 19579 net.cpp:156] Memory required for data: 1242127872
I0403 02:30:37.954977 19579 layer_factory.hpp:77] Creating layer inception_4e/pool
I0403 02:30:37.956290 19579 net.cpp:91] Creating Layer inception_4e/pool
I0403 02:30:37.956328 19579 net.cpp:425] inception_4e/pool <- inception_4d/output_inception_4d/output_0_split_4
I0403 02:30:37.956360 19579 net.cpp:399] inception_4e/pool -> inception_4e/pool
I0403 02:30:37.956449 19579 net.cpp:141] Setting up inception_4e/pool
I0403 02:30:37.956516 19579 net.cpp:148] Top shape: 24 528 14 14 (2483712)
I0403 02:30:37.956570 19579 net.cpp:156] Memory required for data: 1252062720
I0403 02:30:37.956591 19579 layer_factory.hpp:77] Creating layer inception_4e/pool_proj
I0403 02:30:37.956630 19579 net.cpp:91] Creating Layer inception_4e/pool_proj
I0403 02:30:37.956665 19579 net.cpp:425] inception_4e/pool_proj <- inception_4e/pool
I0403 02:30:37.956693 19579 net.cpp:399] inception_4e/pool_proj -> inception_4e/pool_proj
I0403 02:30:37.957423 19579 net.cpp:141] Setting up inception_4e/pool_proj
I0403 02:30:37.957456 19579 net.cpp:148] Top shape: 24 128 14 14 (602112)
I0403 02:30:37.957475 19579 net.cpp:156] Memory required for data: 1254471168
I0403 02:30:37.957497 19579 layer_factory.hpp:77] Creating layer inception_4e/relu_pool_proj
I0403 02:30:37.957520 19579 net.cpp:91] Creating Layer inception_4e/relu_pool_proj
I0403 02:30:37.957540 19579 net.cpp:425] inception_4e/relu_pool_proj <- inception_4e/pool_proj
I0403 02:30:37.957566 19579 net.cpp:386] inception_4e/relu_pool_proj -> inception_4e/pool_proj (in-place)
I0403 02:30:37.957592 19579 net.cpp:141] Setting up inception_4e/relu_pool_proj
I0403 02:30:37.957612 19579 net.cpp:148] Top shape: 24 128 14 14 (602112)
I0403 02:30:37.957630 19579 net.cpp:156] Memory required for data: 1256879616
I0403 02:30:37.957648 19579 layer_factory.hpp:77] Creating layer inception_4e/output
I0403 02:30:37.957670 19579 net.cpp:91] Creating Layer inception_4e/output
I0403 02:30:37.957690 19579 net.cpp:425] inception_4e/output <- inception_4e/1x1
I0403 02:30:37.957710 19579 net.cpp:425] inception_4e/output <- inception_4e/3x3
I0403 02:30:37.957731 19579 net.cpp:425] inception_4e/output <- inception_4e/5x5
I0403 02:30:37.957751 19579 net.cpp:425] inception_4e/output <- inception_4e/pool_proj
I0403 02:30:37.957773 19579 net.cpp:399] inception_4e/output -> inception_4e/output
I0403 02:30:37.957823 19579 net.cpp:141] Setting up inception_4e/output
I0403 02:30:37.957851 19579 net.cpp:148] Top shape: 24 832 14 14 (3913728)
I0403 02:30:37.957869 19579 net.cpp:156] Memory required for data: 1272534528
I0403 02:30:37.957886 19579 layer_factory.hpp:77] Creating layer pool4/3x3_s2
I0403 02:30:37.957911 19579 net.cpp:91] Creating Layer pool4/3x3_s2
I0403 02:30:37.957931 19579 net.cpp:425] pool4/3x3_s2 <- inception_4e/output
I0403 02:30:37.957954 19579 net.cpp:399] pool4/3x3_s2 -> pool4/3x3_s2
I0403 02:30:37.958019 19579 net.cpp:141] Setting up pool4/3x3_s2
I0403 02:30:37.958067 19579 net.cpp:148] Top shape: 24 832 7 7 (978432)
I0403 02:30:37.958087 19579 net.cpp:156] Memory required for data: 1276448256
I0403 02:30:37.958106 19579 layer_factory.hpp:77] Creating layer pool4/3x3_s2_pool4/3x3_s2_0_split
I0403 02:30:37.958127 19579 net.cpp:91] Creating Layer pool4/3x3_s2_pool4/3x3_s2_0_split
I0403 02:30:37.958148 19579 net.cpp:425] pool4/3x3_s2_pool4/3x3_s2_0_split <- pool4/3x3_s2
I0403 02:30:37.958178 19579 net.cpp:399] pool4/3x3_s2_pool4/3x3_s2_0_split -> pool4/3x3_s2_pool4/3x3_s2_0_split_0
I0403 02:30:37.958204 19579 net.cpp:399] pool4/3x3_s2_pool4/3x3_s2_0_split -> pool4/3x3_s2_pool4/3x3_s2_0_split_1
I0403 02:30:37.958230 19579 net.cpp:399] pool4/3x3_s2_pool4/3x3_s2_0_split -> pool4/3x3_s2_pool4/3x3_s2_0_split_2
I0403 02:30:37.958256 19579 net.cpp:399] pool4/3x3_s2_pool4/3x3_s2_0_split -> pool4/3x3_s2_pool4/3x3_s2_0_split_3
I0403 02:30:37.958338 19579 net.cpp:141] Setting up pool4/3x3_s2_pool4/3x3_s2_0_split
I0403 02:30:37.958369 19579 net.cpp:148] Top shape: 24 832 7 7 (978432)
I0403 02:30:37.958395 19579 net.cpp:148] Top shape: 24 832 7 7 (978432)
I0403 02:30:37.958431 19579 net.cpp:148] Top shape: 24 832 7 7 (978432)
I0403 02:30:37.958468 19579 net.cpp:148] Top shape: 24 832 7 7 (978432)
I0403 02:30:37.958514 19579 net.cpp:156] Memory required for data: 1292103168
I0403 02:30:37.958546 19579 layer_factory.hpp:77] Creating layer inception_5a/1x1
I0403 02:30:37.958583 19579 net.cpp:91] Creating Layer inception_5a/1x1
I0403 02:30:37.958619 19579 net.cpp:425] inception_5a/1x1 <- pool4/3x3_s2_pool4/3x3_s2_0_split_0
I0403 02:30:37.958650 19579 net.cpp:399] inception_5a/1x1 -> inception_5a/1x1
I0403 02:30:37.961110 19579 net.cpp:141] Setting up inception_5a/1x1
I0403 02:30:37.961148 19579 net.cpp:148] Top shape: 24 256 7 7 (301056)
I0403 02:30:37.961169 19579 net.cpp:156] Memory required for data: 1293307392
I0403 02:30:37.961192 19579 layer_factory.hpp:77] Creating layer inception_5a/relu_1x1
I0403 02:30:37.961220 19579 net.cpp:91] Creating Layer inception_5a/relu_1x1
I0403 02:30:37.961241 19579 net.cpp:425] inception_5a/relu_1x1 <- inception_5a/1x1
I0403 02:30:37.961263 19579 net.cpp:386] inception_5a/relu_1x1 -> inception_5a/1x1 (in-place)
I0403 02:30:37.961287 19579 net.cpp:141] Setting up inception_5a/relu_1x1
I0403 02:30:37.961310 19579 net.cpp:148] Top shape: 24 256 7 7 (301056)
I0403 02:30:37.961328 19579 net.cpp:156] Memory required for data: 1294511616
I0403 02:30:37.961345 19579 layer_factory.hpp:77] Creating layer inception_5a/3x3_reduce
I0403 02:30:37.961374 19579 net.cpp:91] Creating Layer inception_5a/3x3_reduce
I0403 02:30:37.961396 19579 net.cpp:425] inception_5a/3x3_reduce <- pool4/3x3_s2_pool4/3x3_s2_0_split_1
I0403 02:30:37.961423 19579 net.cpp:399] inception_5a/3x3_reduce -> inception_5a/3x3_reduce
I0403 02:30:37.963274 19579 net.cpp:141] Setting up inception_5a/3x3_reduce
I0403 02:30:37.963326 19579 net.cpp:148] Top shape: 24 160 7 7 (188160)
I0403 02:30:37.963347 19579 net.cpp:156] Memory required for data: 1295264256
I0403 02:30:37.963382 19579 layer_factory.hpp:77] Creating layer inception_5a/relu_3x3_reduce
I0403 02:30:37.963423 19579 net.cpp:91] Creating Layer inception_5a/relu_3x3_reduce
I0403 02:30:37.963446 19579 net.cpp:425] inception_5a/relu_3x3_reduce <- inception_5a/3x3_reduce
I0403 02:30:37.963485 19579 net.cpp:386] inception_5a/relu_3x3_reduce -> inception_5a/3x3_reduce (in-place)
I0403 02:30:37.963531 19579 net.cpp:141] Setting up inception_5a/relu_3x3_reduce
I0403 02:30:37.963565 19579 net.cpp:148] Top shape: 24 160 7 7 (188160)
I0403 02:30:37.963593 19579 net.cpp:156] Memory required for data: 1296016896
I0403 02:30:37.963630 19579 layer_factory.hpp:77] Creating layer inception_5a/3x3
I0403 02:30:37.963663 19579 net.cpp:91] Creating Layer inception_5a/3x3
I0403 02:30:37.963711 19579 net.cpp:425] inception_5a/3x3 <- inception_5a/3x3_reduce
I0403 02:30:37.963763 19579 net.cpp:399] inception_5a/3x3 -> inception_5a/3x3
I0403 02:30:37.968595 19579 net.cpp:141] Setting up inception_5a/3x3
I0403 02:30:37.968649 19579 net.cpp:148] Top shape: 24 320 7 7 (376320)
I0403 02:30:37.968672 19579 net.cpp:156] Memory required for data: 1297522176
I0403 02:30:37.968698 19579 layer_factory.hpp:77] Creating layer inception_5a/relu_3x3
I0403 02:30:37.968726 19579 net.cpp:91] Creating Layer inception_5a/relu_3x3
I0403 02:30:37.968750 19579 net.cpp:425] inception_5a/relu_3x3 <- inception_5a/3x3
I0403 02:30:37.968773 19579 net.cpp:386] inception_5a/relu_3x3 -> inception_5a/3x3 (in-place)
I0403 02:30:37.968799 19579 net.cpp:141] Setting up inception_5a/relu_3x3
I0403 02:30:37.968824 19579 net.cpp:148] Top shape: 24 320 7 7 (376320)
I0403 02:30:37.968844 19579 net.cpp:156] Memory required for data: 1299027456
I0403 02:30:37.968864 19579 layer_factory.hpp:77] Creating layer inception_5a/5x5_reduce
I0403 02:30:37.968894 19579 net.cpp:91] Creating Layer inception_5a/5x5_reduce
I0403 02:30:37.968919 19579 net.cpp:425] inception_5a/5x5_reduce <- pool4/3x3_s2_pool4/3x3_s2_0_split_2
I0403 02:30:37.968943 19579 net.cpp:399] inception_5a/5x5_reduce -> inception_5a/5x5_reduce
I0403 02:30:37.969445 19579 net.cpp:141] Setting up inception_5a/5x5_reduce
I0403 02:30:37.969480 19579 net.cpp:148] Top shape: 24 32 7 7 (37632)
I0403 02:30:37.969501 19579 net.cpp:156] Memory required for data: 1299177984
I0403 02:30:37.969522 19579 layer_factory.hpp:77] Creating layer inception_5a/relu_5x5_reduce
I0403 02:30:37.969545 19579 net.cpp:91] Creating Layer inception_5a/relu_5x5_reduce
I0403 02:30:37.969565 19579 net.cpp:425] inception_5a/relu_5x5_reduce <- inception_5a/5x5_reduce
I0403 02:30:37.969586 19579 net.cpp:386] inception_5a/relu_5x5_reduce -> inception_5a/5x5_reduce (in-place)
I0403 02:30:37.969610 19579 net.cpp:141] Setting up inception_5a/relu_5x5_reduce
I0403 02:30:37.969632 19579 net.cpp:148] Top shape: 24 32 7 7 (37632)
I0403 02:30:37.969650 19579 net.cpp:156] Memory required for data: 1299328512
I0403 02:30:37.969666 19579 layer_factory.hpp:77] Creating layer inception_5a/5x5
I0403 02:30:37.969693 19579 net.cpp:91] Creating Layer inception_5a/5x5
I0403 02:30:37.969714 19579 net.cpp:425] inception_5a/5x5 <- inception_5a/5x5_reduce
I0403 02:30:37.969741 19579 net.cpp:399] inception_5a/5x5 -> inception_5a/5x5
I0403 02:30:37.970698 19579 net.cpp:141] Setting up inception_5a/5x5
I0403 02:30:37.970746 19579 net.cpp:148] Top shape: 24 128 7 7 (150528)
I0403 02:30:37.970765 19579 net.cpp:156] Memory required for data: 1299930624
I0403 02:30:37.970813 19579 layer_factory.hpp:77] Creating layer inception_5a/relu_5x5
I0403 02:30:37.970866 19579 net.cpp:91] Creating Layer inception_5a/relu_5x5
I0403 02:30:37.970909 19579 net.cpp:425] inception_5a/relu_5x5 <- inception_5a/5x5
I0403 02:30:37.970959 19579 net.cpp:386] inception_5a/relu_5x5 -> inception_5a/5x5 (in-place)
I0403 02:30:37.970990 19579 net.cpp:141] Setting up inception_5a/relu_5x5
I0403 02:30:37.971040 19579 net.cpp:148] Top shape: 24 128 7 7 (150528)
I0403 02:30:37.971079 19579 net.cpp:156] Memory required for data: 1300532736
I0403 02:30:37.971123 19579 layer_factory.hpp:77] Creating layer inception_5a/pool
I0403 02:30:37.971145 19579 net.cpp:91] Creating Layer inception_5a/pool
I0403 02:30:37.971164 19579 net.cpp:425] inception_5a/pool <- pool4/3x3_s2_pool4/3x3_s2_0_split_3
I0403 02:30:37.971189 19579 net.cpp:399] inception_5a/pool -> inception_5a/pool
I0403 02:30:37.971254 19579 net.cpp:141] Setting up inception_5a/pool
I0403 02:30:37.971282 19579 net.cpp:148] Top shape: 24 832 7 7 (978432)
I0403 02:30:37.971300 19579 net.cpp:156] Memory required for data: 1304446464
I0403 02:30:37.971318 19579 layer_factory.hpp:77] Creating layer inception_5a/pool_proj
I0403 02:30:37.971346 19579 net.cpp:91] Creating Layer inception_5a/pool_proj
I0403 02:30:37.971369 19579 net.cpp:425] inception_5a/pool_proj <- inception_5a/pool
I0403 02:30:37.971395 19579 net.cpp:399] inception_5a/pool_proj -> inception_5a/pool_proj
I0403 02:30:37.973001 19579 net.cpp:141] Setting up inception_5a/pool_proj
I0403 02:30:37.973058 19579 net.cpp:148] Top shape: 24 128 7 7 (150528)
I0403 02:30:37.973104 19579 net.cpp:156] Memory required for data: 1305048576
I0403 02:30:37.973175 19579 layer_factory.hpp:77] Creating layer inception_5a/relu_pool_proj
I0403 02:30:37.973234 19579 net.cpp:91] Creating Layer inception_5a/relu_pool_proj
I0403 02:30:37.973268 19579 net.cpp:425] inception_5a/relu_pool_proj <- inception_5a/pool_proj
I0403 02:30:37.973318 19579 net.cpp:386] inception_5a/relu_pool_proj -> inception_5a/pool_proj (in-place)
I0403 02:30:37.973342 19579 net.cpp:141] Setting up inception_5a/relu_pool_proj
I0403 02:30:37.973363 19579 net.cpp:148] Top shape: 24 128 7 7 (150528)
I0403 02:30:37.973407 19579 net.cpp:156] Memory required for data: 1305650688
I0403 02:30:37.973445 19579 layer_factory.hpp:77] Creating layer inception_5a/output
I0403 02:30:37.973495 19579 net.cpp:91] Creating Layer inception_5a/output
I0403 02:30:37.973538 19579 net.cpp:425] inception_5a/output <- inception_5a/1x1
I0403 02:30:37.973567 19579 net.cpp:425] inception_5a/output <- inception_5a/3x3
I0403 02:30:37.973594 19579 net.cpp:425] inception_5a/output <- inception_5a/5x5
I0403 02:30:37.973614 19579 net.cpp:425] inception_5a/output <- inception_5a/pool_proj
I0403 02:30:37.973659 19579 net.cpp:399] inception_5a/output -> inception_5a/output
I0403 02:30:37.973706 19579 net.cpp:141] Setting up inception_5a/output
I0403 02:30:37.973737 19579 net.cpp:148] Top shape: 24 832 7 7 (978432)
I0403 02:30:37.973755 19579 net.cpp:156] Memory required for data: 1309564416
I0403 02:30:37.973773 19579 layer_factory.hpp:77] Creating layer inception_5a/output_inception_5a/output_0_split
I0403 02:30:37.973794 19579 net.cpp:91] Creating Layer inception_5a/output_inception_5a/output_0_split
I0403 02:30:37.973814 19579 net.cpp:425] inception_5a/output_inception_5a/output_0_split <- inception_5a/output
I0403 02:30:37.973835 19579 net.cpp:399] inception_5a/output_inception_5a/output_0_split -> inception_5a/output_inception_5a/output_0_split_0
I0403 02:30:37.973860 19579 net.cpp:399] inception_5a/output_inception_5a/output_0_split -> inception_5a/output_inception_5a/output_0_split_1
I0403 02:30:37.973891 19579 net.cpp:399] inception_5a/output_inception_5a/output_0_split -> inception_5a/output_inception_5a/output_0_split_2
I0403 02:30:37.973917 19579 net.cpp:399] inception_5a/output_inception_5a/output_0_split -> inception_5a/output_inception_5a/output_0_split_3
I0403 02:30:37.974000 19579 net.cpp:141] Setting up inception_5a/output_inception_5a/output_0_split
I0403 02:30:37.974031 19579 net.cpp:148] Top shape: 24 832 7 7 (978432)
I0403 02:30:37.974053 19579 net.cpp:148] Top shape: 24 832 7 7 (978432)
I0403 02:30:37.974072 19579 net.cpp:148] Top shape: 24 832 7 7 (978432)
I0403 02:30:37.974092 19579 net.cpp:148] Top shape: 24 832 7 7 (978432)
I0403 02:30:37.974108 19579 net.cpp:156] Memory required for data: 1325219328
I0403 02:30:37.974126 19579 layer_factory.hpp:77] Creating layer inception_5b/1x1
I0403 02:30:37.974153 19579 net.cpp:91] Creating Layer inception_5b/1x1
I0403 02:30:37.974175 19579 net.cpp:425] inception_5b/1x1 <- inception_5a/output_inception_5a/output_0_split_0
I0403 02:30:37.974201 19579 net.cpp:399] inception_5b/1x1 -> inception_5b/1x1
I0403 02:30:37.977334 19579 net.cpp:141] Setting up inception_5b/1x1
I0403 02:30:37.977371 19579 net.cpp:148] Top shape: 24 384 7 7 (451584)
I0403 02:30:37.977391 19579 net.cpp:156] Memory required for data: 1327025664
I0403 02:30:37.977413 19579 layer_factory.hpp:77] Creating layer inception_5b/relu_1x1
I0403 02:30:37.977439 19579 net.cpp:91] Creating Layer inception_5b/relu_1x1
I0403 02:30:37.977460 19579 net.cpp:425] inception_5b/relu_1x1 <- inception_5b/1x1
I0403 02:30:37.977481 19579 net.cpp:386] inception_5b/relu_1x1 -> inception_5b/1x1 (in-place)
I0403 02:30:37.977505 19579 net.cpp:141] Setting up inception_5b/relu_1x1
I0403 02:30:37.977526 19579 net.cpp:148] Top shape: 24 384 7 7 (451584)
I0403 02:30:37.977543 19579 net.cpp:156] Memory required for data: 1328832000
I0403 02:30:37.977560 19579 layer_factory.hpp:77] Creating layer inception_5b/3x3_reduce
I0403 02:30:37.977587 19579 net.cpp:91] Creating Layer inception_5b/3x3_reduce
I0403 02:30:37.977627 19579 net.cpp:425] inception_5b/3x3_reduce <- inception_5a/output_inception_5a/output_0_split_1
I0403 02:30:37.977655 19579 net.cpp:399] inception_5b/3x3_reduce -> inception_5b/3x3_reduce
I0403 02:30:37.979673 19579 net.cpp:141] Setting up inception_5b/3x3_reduce
I0403 02:30:37.979714 19579 net.cpp:148] Top shape: 24 192 7 7 (225792)
I0403 02:30:37.979734 19579 net.cpp:156] Memory required for data: 1329735168
I0403 02:30:37.979758 19579 layer_factory.hpp:77] Creating layer inception_5b/relu_3x3_reduce
I0403 02:30:37.979782 19579 net.cpp:91] Creating Layer inception_5b/relu_3x3_reduce
I0403 02:30:37.979804 19579 net.cpp:425] inception_5b/relu_3x3_reduce <- inception_5b/3x3_reduce
I0403 02:30:37.979825 19579 net.cpp:386] inception_5b/relu_3x3_reduce -> inception_5b/3x3_reduce (in-place)
I0403 02:30:37.979849 19579 net.cpp:141] Setting up inception_5b/relu_3x3_reduce
I0403 02:30:37.979871 19579 net.cpp:148] Top shape: 24 192 7 7 (225792)
I0403 02:30:37.979888 19579 net.cpp:156] Memory required for data: 1330638336
I0403 02:30:37.979907 19579 layer_factory.hpp:77] Creating layer inception_5b/3x3
I0403 02:30:37.979934 19579 net.cpp:91] Creating Layer inception_5b/3x3
I0403 02:30:37.979955 19579 net.cpp:425] inception_5b/3x3 <- inception_5b/3x3_reduce
I0403 02:30:37.979980 19579 net.cpp:399] inception_5b/3x3 -> inception_5b/3x3
I0403 02:30:37.986536 19579 net.cpp:141] Setting up inception_5b/3x3
I0403 02:30:37.986573 19579 net.cpp:148] Top shape: 24 384 7 7 (451584)
I0403 02:30:37.986594 19579 net.cpp:156] Memory required for data: 1332444672
I0403 02:30:37.986618 19579 layer_factory.hpp:77] Creating layer inception_5b/relu_3x3
I0403 02:30:37.986642 19579 net.cpp:91] Creating Layer inception_5b/relu_3x3
I0403 02:30:37.986665 19579 net.cpp:425] inception_5b/relu_3x3 <- inception_5b/3x3
I0403 02:30:37.986690 19579 net.cpp:386] inception_5b/relu_3x3 -> inception_5b/3x3 (in-place)
I0403 02:30:37.986716 19579 net.cpp:141] Setting up inception_5b/relu_3x3
I0403 02:30:37.986737 19579 net.cpp:148] Top shape: 24 384 7 7 (451584)
I0403 02:30:37.986755 19579 net.cpp:156] Memory required for data: 1334251008
I0403 02:30:37.986773 19579 layer_factory.hpp:77] Creating layer inception_5b/5x5_reduce
I0403 02:30:37.986802 19579 net.cpp:91] Creating Layer inception_5b/5x5_reduce
I0403 02:30:37.986824 19579 net.cpp:425] inception_5b/5x5_reduce <- inception_5a/output_inception_5a/output_0_split_2
I0403 02:30:37.986847 19579 net.cpp:399] inception_5b/5x5_reduce -> inception_5b/5x5_reduce
I0403 02:30:37.987411 19579 net.cpp:141] Setting up inception_5b/5x5_reduce
I0403 02:30:37.987442 19579 net.cpp:148] Top shape: 24 48 7 7 (56448)
I0403 02:30:37.987460 19579 net.cpp:156] Memory required for data: 1334476800
I0403 02:30:37.987483 19579 layer_factory.hpp:77] Creating layer inception_5b/relu_5x5_reduce
I0403 02:30:37.987505 19579 net.cpp:91] Creating Layer inception_5b/relu_5x5_reduce
I0403 02:30:37.987525 19579 net.cpp:425] inception_5b/relu_5x5_reduce <- inception_5b/5x5_reduce
I0403 02:30:37.987550 19579 net.cpp:386] inception_5b/relu_5x5_reduce -> inception_5b/5x5_reduce (in-place)
I0403 02:30:37.987574 19579 net.cpp:141] Setting up inception_5b/relu_5x5_reduce
I0403 02:30:37.987596 19579 net.cpp:148] Top shape: 24 48 7 7 (56448)
I0403 02:30:37.987613 19579 net.cpp:156] Memory required for data: 1334702592
I0403 02:30:37.987632 19579 layer_factory.hpp:77] Creating layer inception_5b/5x5
I0403 02:30:37.987658 19579 net.cpp:91] Creating Layer inception_5b/5x5
I0403 02:30:37.987680 19579 net.cpp:425] inception_5b/5x5 <- inception_5b/5x5_reduce
I0403 02:30:37.987704 19579 net.cpp:399] inception_5b/5x5 -> inception_5b/5x5
I0403 02:30:37.989022 19579 net.cpp:141] Setting up inception_5b/5x5
I0403 02:30:37.989070 19579 net.cpp:148] Top shape: 24 128 7 7 (150528)
I0403 02:30:37.989090 19579 net.cpp:156] Memory required for data: 1335304704
I0403 02:30:37.989112 19579 layer_factory.hpp:77] Creating layer inception_5b/relu_5x5
I0403 02:30:37.989136 19579 net.cpp:91] Creating Layer inception_5b/relu_5x5
I0403 02:30:37.989156 19579 net.cpp:425] inception_5b/relu_5x5 <- inception_5b/5x5
I0403 02:30:37.989197 19579 net.cpp:386] inception_5b/relu_5x5 -> inception_5b/5x5 (in-place)
I0403 02:30:37.989223 19579 net.cpp:141] Setting up inception_5b/relu_5x5
I0403 02:30:37.989244 19579 net.cpp:148] Top shape: 24 128 7 7 (150528)
I0403 02:30:37.989261 19579 net.cpp:156] Memory required for data: 1335906816
I0403 02:30:37.989279 19579 layer_factory.hpp:77] Creating layer inception_5b/pool
I0403 02:30:37.989300 19579 net.cpp:91] Creating Layer inception_5b/pool
I0403 02:30:37.989320 19579 net.cpp:425] inception_5b/pool <- inception_5a/output_inception_5a/output_0_split_3
I0403 02:30:37.989346 19579 net.cpp:399] inception_5b/pool -> inception_5b/pool
I0403 02:30:37.989413 19579 net.cpp:141] Setting up inception_5b/pool
I0403 02:30:37.989440 19579 net.cpp:148] Top shape: 24 832 7 7 (978432)
I0403 02:30:37.989459 19579 net.cpp:156] Memory required for data: 1339820544
I0403 02:30:37.989476 19579 layer_factory.hpp:77] Creating layer inception_5b/pool_proj
I0403 02:30:37.989543 19579 net.cpp:91] Creating Layer inception_5b/pool_proj
I0403 02:30:37.989576 19579 net.cpp:425] inception_5b/pool_proj <- inception_5b/pool
I0403 02:30:37.989601 19579 net.cpp:399] inception_5b/pool_proj -> inception_5b/pool_proj
I0403 02:30:37.991214 19579 net.cpp:141] Setting up inception_5b/pool_proj
I0403 02:30:37.991277 19579 net.cpp:148] Top shape: 24 128 7 7 (150528)
I0403 02:30:37.991322 19579 net.cpp:156] Memory required for data: 1340422656
I0403 02:30:37.991353 19579 layer_factory.hpp:77] Creating layer inception_5b/relu_pool_proj
I0403 02:30:37.991376 19579 net.cpp:91] Creating Layer inception_5b/relu_pool_proj
I0403 02:30:37.991420 19579 net.cpp:425] inception_5b/relu_pool_proj <- inception_5b/pool_proj
I0403 02:30:37.991471 19579 net.cpp:386] inception_5b/relu_pool_proj -> inception_5b/pool_proj (in-place)
I0403 02:30:37.991518 19579 net.cpp:141] Setting up inception_5b/relu_pool_proj
I0403 02:30:37.991574 19579 net.cpp:148] Top shape: 24 128 7 7 (150528)
I0403 02:30:37.991616 19579 net.cpp:156] Memory required for data: 1341024768
I0403 02:30:37.991667 19579 layer_factory.hpp:77] Creating layer inception_5b/output
I0403 02:30:37.991714 19579 net.cpp:91] Creating Layer inception_5b/output
I0403 02:30:37.991765 19579 net.cpp:425] inception_5b/output <- inception_5b/1x1
I0403 02:30:37.991801 19579 net.cpp:425] inception_5b/output <- inception_5b/3x3
I0403 02:30:37.991824 19579 net.cpp:425] inception_5b/output <- inception_5b/5x5
I0403 02:30:37.991845 19579 net.cpp:425] inception_5b/output <- inception_5b/pool_proj
I0403 02:30:37.991866 19579 net.cpp:399] inception_5b/output -> inception_5b/output
I0403 02:30:37.991930 19579 net.cpp:141] Setting up inception_5b/output
I0403 02:30:37.991988 19579 net.cpp:148] Top shape: 24 1024 7 7 (1204224)
I0403 02:30:37.992013 19579 net.cpp:156] Memory required for data: 1345841664
I0403 02:30:37.992043 19579 layer_factory.hpp:77] Creating layer pool5/7x7_s1
I0403 02:30:37.992072 19579 net.cpp:91] Creating Layer pool5/7x7_s1
I0403 02:30:37.992120 19579 net.cpp:425] pool5/7x7_s1 <- inception_5b/output
I0403 02:30:37.992146 19579 net.cpp:399] pool5/7x7_s1 -> pool5/7x7_s1
I0403 02:30:37.992197 19579 net.cpp:141] Setting up pool5/7x7_s1
I0403 02:30:37.992225 19579 net.cpp:148] Top shape: 24 1024 1 1 (24576)
I0403 02:30:37.992244 19579 net.cpp:156] Memory required for data: 1345939968
I0403 02:30:37.992261 19579 layer_factory.hpp:77] Creating layer pool5/drop_7x7_s1
I0403 02:30:37.992283 19579 net.cpp:91] Creating Layer pool5/drop_7x7_s1
I0403 02:30:37.992303 19579 net.cpp:425] pool5/drop_7x7_s1 <- pool5/7x7_s1
I0403 02:30:37.992324 19579 net.cpp:386] pool5/drop_7x7_s1 -> pool5/7x7_s1 (in-place)
I0403 02:30:37.992372 19579 net.cpp:141] Setting up pool5/drop_7x7_s1
I0403 02:30:37.992399 19579 net.cpp:148] Top shape: 24 1024 1 1 (24576)
I0403 02:30:37.992418 19579 net.cpp:156] Memory required for data: 1346038272
I0403 02:30:37.992435 19579 layer_factory.hpp:77] Creating layer loss3/classifier_plantvillage
I0403 02:30:37.992462 19579 net.cpp:91] Creating Layer loss3/classifier_plantvillage
I0403 02:30:37.992499 19579 net.cpp:425] loss3/classifier_plantvillage <- pool5/7x7_s1
I0403 02:30:37.992523 19579 net.cpp:399] loss3/classifier_plantvillage -> loss3/classifier_plantvillage
I0403 02:30:37.992940 19579 net.cpp:141] Setting up loss3/classifier_plantvillage
I0403 02:30:37.992969 19579 net.cpp:148] Top shape: 24 38 (912)
I0403 02:30:37.992987 19579 net.cpp:156] Memory required for data: 1346041920
I0403 02:30:37.993010 19579 layer_factory.hpp:77] Creating layer loss1/loss
I0403 02:30:37.993075 19579 net.cpp:91] Creating Layer loss1/loss
I0403 02:30:37.993100 19579 net.cpp:425] loss1/loss <- loss1/classifier_plantvillage
I0403 02:30:37.993121 19579 net.cpp:425] loss1/loss <- label_data_1_split_0
I0403 02:30:37.993146 19579 net.cpp:399] loss1/loss -> loss1/loss
…
I0403 02:30:38.021040 19579 net.cpp:313] The NetState phase (1) differed from the phase (0) specified by a rule in layer data
I0403 02:30:38.025887 19579 net.cpp:49] Initializing net from parameters: 
state {
  phase: TEST
}
layer {
  name: "data"
  type: "Data"
  top: "data"
  top: "label"
  include {
    phase: TEST
  }
  transform_param {
    mirror: false
    crop_size: 224
    mean_file: "/home/mohanty/data/final_dataset/lmdb/grayscale-60-40/mean.binaryproto"
  }
  data_param {
    source: "/home/mohanty/data/final_dataset/lmdb/grayscale-60-40/test_db"
    batch_size: 24
    backend: LMDB
  }
}
layer {
  name: "conv1/7x7_s2"
  type: "Convolution"
  bottom: "data"
  top: "conv1/7x7_s2"
  param {
    lr_mult: 1
    decay_mult: 1
  }
  param {
    lr_mult: 2
    decay_mult: 0
  }
  convolution_param {
    num_output: 64
    pad: 3
    kernel_size: 7
    stride: 2
    weight_filler {
      type: "xavier"
      std: 0.1
    }
    bias_filler {
      type: "constant"
      value: 0.2
    }
  }
}
layer {
  name: "conv1/relu_7x7"
  type: "ReLU"
  bottom: "conv1/7x7_s2"
  top: "conv1/7x7_s2"
}
layer {
  name: "pool1/3x3_s2"
  type: "Pooling"
  bottom: "conv1/7x7_s2"
  top: "pool1/3x3_s2"
  pooling_param {
    pool: MAX
    kernel_size: 3
    stride: 2
  }
}
layer {
  name: "pool1/norm1"
  type: "LRN"
  bottom: "pool1/3x3_s2"
  top: "pool1/norm1"
  lrn_param {
    local_size: 5
    alpha: 0.0001
    beta: 0.75
  }
}
layer {
  name: "conv2/3x3_reduce"
  type: "Convolution"
  bottom: "pool1/norm1"
  top: "conv2/3x3_reduce"
  param {
    lr_mult: 1
    decay_mult: 1
  }
  param {
    lr_mult: 2
    decay_mult: 0
  }
  convolution_param {
    num_output: 64
    kernel_size: 1
    weight_filler {
      type: "xavier"
      std: 0.1
    }
    bias_filler {
      type: "constant"
      value: 0.2
    }
  }
}
layer {
  name: "conv2/relu_3x3_reduce"
  type: "ReLU"
  bottom: "conv2/3x3_reduce"
  top: "conv2/3x3_reduce"
}
layer {
  name: "conv2/3x3"
  type: "Convolution"
  bottom: "conv2/3x3_reduce"
  top: "conv2/3x3"
  param {
    lr_mult: 1
    decay_mult: 1
  }
  param {
    lr_mult: 2
    decay_mult: 0
  }
  convolution_param {
    num_output: 192
    pad: 1
    kernel_size: 3
    weight_filler {
      type: "xavier"
      std: 0.03
    }
    bias_filler {
      type: "constant"
      value: 0.2
    }
  }
}
layer {
  name: "conv2/relu_3x3"
  type: "ReLU"
  bottom: "conv2/3x3"
  top: "conv2/3x3"
}
layer {
  name: "conv2/norm2"
  type: "LRN"
  bottom: "conv2/3x3"
  top: "conv2/norm2"
  lrn_param {
    local_size: 5
    alpha: 0.0001
    beta: 0.75
  }
}
layer {
  name: "pool2/3x3_s2"
  type: "Pooling"
  bottom: "conv2/norm2"
  top: "pool2/3x3_s2"
  pooling_param {
    pool: MAX
    kernel_size: 3
    stride: 2
  }
}
layer {
  name: "inception_3a/1x1"
  type: "Convolution"
  bottom: "pool2/3x3_s2"
  top: "inception_3a/1x1"
  param {
    lr_mult: 1
    decay_mult: 1
  }
  param {
    lr_mult: 2
    decay_mult: 0
  }
  convolution_param {
    num_output: 64
    kernel_size: 1
    weight_filler {
      type: "xavier"
      std: 0.03
    }
    bias_filler {
      type: "constant"
      value: 0.2
    }
  }
}
layer {
  name: "inception_3a/relu_1x1"
  type: "ReLU"
  bottom: "inception_3a/1x1"
  top: "inception_3a/1x1"
}
layer {
  name: "inception_3a/3x3_reduce"
  type: "Convolution"
  bottom: "pool2/3x3_s2"
  top: "inception_3a/3x3_reduce"
  param {
    lr_mult: 1
    decay_mult: 1
  }
  param {
    lr_mult: 2
    decay_mult: 0
  }
  convolution_param {
    num_output: 96
    kernel_size: 1
    weight_filler {
      type: "xavier"
      std: 0.09
    }
    bias_filler {
      type: "constant"
      value: 0.2
    }
  }
}
layer {
  name: "inception_3a/relu_3x3_reduce"
  type: "ReLU"
  bottom: "inception_3a/3x3_reduce"
  top: "inception_3a/3x3_reduce"
}
layer {
  name: "inception_3a/3x3"
  type: "Convolution"
  bottom: "inception_3a/3x3_reduce"
  top: "inception_3a/3x3"
  param {
    lr_mult: 1
    decay_mult: 1
  }
  param {
    lr_mult: 2
    decay_mult: 0
  }
  convolution_param {
    num_output: 128
    pad: 1
    kernel_size: 3
    weight_filler {
      type: "xavier"
      std: 0.03
    }
    bias_filler {
      type: "constant"
      value: 0.2
    }
  }
}
layer {
  name: "inception_3a/relu_3x3"
  type: "ReLU"
  bottom: "inception_3a/3x3"
  top: "inception_3a/3x3"
}
layer {
  name: "inception_3a/5x5_reduce"
  type: "Convolution"
  bottom: "pool2/3x3_s2"
  top: "inception_3a/5x5_reduce"
  param {
    lr_mult: 1
    decay_mult: 1
  }
  param {
    lr_mult: 2
    decay_mult: 0
  }
  convolution_param {
    num_output: 16
    kernel_size: 1
    weight_filler {
      type: "xavier"
      std: 0.2
    }
    bias_filler {
      type: "constant"
      value: 0.2
    }
  }
}
layer {
  name: "inception_3a/relu_5x5_reduce"
  type: "ReLU"
  bottom: "inception_3a/5x5_reduce"
  top: "inception_3a/5x5_reduce"
}
layer {
  name: "inception_3a/5x5"
  type: "Convolution"
  bottom: "inception_3a/5x5_reduce"
  top: "inception_3a/5x5"
  param {
    lr_mult: 1
    decay_mult: 1
  }
  param {
    lr_mult: 2
    decay_mult: 0
  }
  convolution_param {
    num_output: 32
    pad: 2
    kernel_size: 5
    weight_filler {
      type: "xavier"
      std: 0.03
    }
    bias_filler {
      type: "constant"
      value: 0.2
    }
  }
}
layer {
  name: "inception_3a/relu_5x5"
  type: "ReLU"
  bottom: "inception_3a/5x5"
  top: "inception_3a/5x5"
}
layer {
  name: "inception_3a/pool"
  type: "Pooling"
  bottom: "pool2/3x3_s2"
  top: "inception_3a/pool"
  pooling_param {
    pool: MAX
    kernel_size: 3
    stride: 1
    pad: 1
  }
}
layer {
  name: "inception_3a/pool_proj"
  type: "Convolution"
  bottom: "inception_3a/pool"
  top: "inception_3a/pool_proj"
  param {
    lr_mult: 1
    decay_mult: 1
  }
  param {
    lr_mult: 2
    decay_mult: 0
  }
  convolution_param {
    num_output: 32
    kernel_size: 1
    weight_filler {
      type: "xavier"
      std: 0.1
    }
    bias_filler {
      type: "constant"
      value: 0.2
    }
  }
}
layer {
  name: "inception_3a/relu_pool_proj"
  type: "ReLU"
  bottom: "inception_3a/pool_proj"
  top: "inception_3a/pool_proj"
}
layer {
  name: "inception_3a/output"
  type: "Concat"
  bottom: "inception_3a/1x1"
  bottom: "inception_3a/3x3"
  bottom: "inception_3a/5x5"
  bottom: "inception_3a/pool_proj"
  top: "inception_3a/output"
}
layer {
  name: "inception_3b/1x1"
  type: "Convolution"
  bottom: "inception_3a/output"
  top: "inception_3b/1x1"
  param {
    lr_mult: 1
    decay_mult: 1
  }
  param {
    lr_mult: 2
    decay_mult: 0
  }
  convolution_param {
    num_output: 128
    kernel_size: 1
    weight_filler {
      type: "xavier"
      std: 0.03
    }
    bias_filler {
      type: "constant"
      value: 0.2
    }
  }
}
layer {
  name: "inception_3b/relu_1x1"
  type: "ReLU"
  bottom: "inception_3b/1x1"
  top: "inception_3b/1x1"
}
layer {
  name: "inception_3b/3x3_reduce"
  type: "Convolution"
  bottom: "inception_3a/output"
  top: "inception_3b/3x3_reduce"
  param {
    lr_mult: 1
    decay_mult: 1
  }
  param {
    lr_mult: 2
    decay_mult: 0
  }
  convolution_param {
    num_output: 128
    kernel_size: 1
    weight_filler {
      type: "xavier"
      std: 0.09
    }
    bias_filler {
      type: "constant"
      value: 0.2
    }
  }
}
layer {
  name: "inception_3b/relu_3x3_reduce"
  type: "ReLU"
  bottom: "inception_3b/3x3_reduce"
  top: "inception_3b/3x3_reduce"
}
layer {
  name: "inception_3b/3x3"
  type: "Convolution"
  bottom: "inception_3b/3x3_reduce"
  top: "inception_3b/3x3"
  param {
    lr_mult: 1
    decay_mult: 1
  }
  param {
    lr_mult: 2
    decay_mult: 0
  }
  convolution_param {
    num_output: 192
    pad: 1
    kernel_size: 3
    weight_filler {
      type: "xavier"
      std: 0.03
    }
    bias_filler {
      type: "constant"
      value: 0.2
    }
  }
}
layer {
  name: "inception_3b/relu_3x3"
  type: "ReLU"
  bottom: "inception_3b/3x3"
  top: "inception_3b/3x3"
}
layer {
  name: "inception_3b/5x5_reduce"
  type: "Convolution"
  bottom: "inception_3a/output"
  top: "inception_3b/5x5_reduce"
  param {
    lr_mult: 1
    decay_mult: 1
  }
  param {
    lr_mult: 2
    decay_mult: 0
  }
  convolution_param {
    num_output: 32
    kernel_size: 1
    weight_filler {
      type: "xavier"
      std: 0.2
    }
    bias_filler {
      type: "constant"
      value: 0.2
    }
  }
}
layer {
  name: "inception_3b/relu_5x5_reduce"
  type: "ReLU"
  bottom: "inception_3b/5x5_reduce"
  top: "inception_3b/5x5_reduce"
}
layer {
  name: "inception_3b/5x5"
  type: "Convolution"
  bottom: "inception_3b/5x5_reduce"
  top: "inception_3b/5x5"
  param {
    lr_mult: 1
    decay_mult: 1
  }
  param {
    lr_mult: 2
    decay_mult: 0
  }
  convolution_param {
    num_output: 96
    pad: 2
    kernel_size: 5
    weight_filler {
      type: "xavier"
      std: 0.03
    }
    bias_filler {
      type: "constant"
      value: 0.2
    }
  }
}
layer {
  name: "inception_3b/relu_5x5"
  type: "ReLU"
  bottom: "inception_3b/5x5"
  top: "inception_3b/5x5"
}
layer {
  name: "inception_3b/pool"
  type: "Pooling"
  bottom: "inception_3a/output"
  top: "inception_3b/pool"
  pooling_param {
    pool: MAX
    kernel_size: 3
    stride: 1
    pad: 1
  }
}
layer {
  name: "inception_3b/pool_proj"
  type: "Convolution"
  bottom: "inception_3b/pool"
  top: "inception_3b/pool_proj"
  param {
    lr_mult: 1
    decay_mult: 1
  }
  param {
    lr_mult: 2
    decay_mult: 0
  }
  convolution_param {
    num_output: 64
    kernel_size: 1
    weight_filler {
      type: "xavier"
      std: 0.1
    }
    bias_filler {
      type: "constant"
      value: 0.2
    }
  }
}
layer {
  name: "inception_3b/relu_pool_proj"
  type: "ReLU"
  bottom: "inception_3b/pool_proj"
  top: "inception_3b/pool_proj"
}
layer {
  name: "inception_3b/output"
  type: "Concat"
  bottom: "inception_3b/1x1"
  bottom: "inception_3b/3x3"
  bottom: "inception_3b/5x5"
  bottom: "inception_3b/pool_proj"
  top: "inception_3b/output"
}
layer {
  name: "pool3/3x3_s2"
  type: "Pooling"
  bottom: "inception_3b/output"
  top: "pool3/3x3_s2"
  pooling_param {
    pool: MAX
    kernel_size: 3
    stride: 2
  }
}
layer {
  name: "inception_4a/1x1"
  type: "Convolution"
  bottom: "pool3/3x3_s2"
  top: "inception_4a/1x1"
  param {
    lr_mult: 1
    decay_mult: 1
  }
  param {
    lr_mult: 2
    decay_mult: 0
  }
  convolution_param {
    num_output: 192
    kernel_size: 1
    weight_filler {
      type: "xavier"
      std: 0.03
    }
    bias_filler {
      type: "constant"
      value: 0.2
    }
  }
}
layer {
  name: "inception_4a/relu_1x1"
  type: "ReLU"
  bottom: "inception_4a/1x1"
  top: "inception_4a/1x1"
}
layer {
  name: "inception_4a/3x3_reduce"
  type: "Convolution"
  bottom: "pool3/3x3_s2"
  top: "inception_4a/3x3_reduce"
  param {
    lr_mult: 1
    decay_mult: 1
  }
  param {
    lr_mult: 2
    decay_mult: 0
  }
  convolution_param {
    num_output: 96
    kernel_size: 1
    weight_filler {
      type: "xavier"
      std: 0.09
    }
    bias_filler {
      type: "constant"
      value: 0.2
    }
  }
}
layer {
  name: "inception_4a/relu_3x3_reduce"
  type: "ReLU"
  bottom: "inception_4a/3x3_reduce"
  top: "inception_4a/3x3_reduce"
}
layer {
  name: "inception_4a/3x3"
  type: "Convolution"
  bottom: "inception_4a/3x3_reduce"
  top: "inception_4a/3x3"
  param {
    lr_mult: 1
    decay_mult: 1
  }
  param {
    lr_mult: 2
    decay_mult: 0
  }
  convolution_param {
    num_output: 208
    pad: 1
    kernel_size: 3
    weight_filler {
      type: "xavier"
      std: 0.03
    }
    bias_filler {
      type: "constant"
      value: 0.2
    }
  }
}
layer {
  name: "inception_4a/relu_3x3"
  type: "ReLU"
  bottom: "inception_4a/3x3"
  top: "inception_4a/3x3"
}
layer {
  name: "inception_4a/5x5_reduce"
  type: "Convolution"
  bottom: "pool3/3x3_s2"
  top: "inception_4a/5x5_reduce"
  param {
    lr_mult: 1
    decay_mult: 1
  }
  param {
    lr_mult: 2
    decay_mult: 0
  }
  convolution_param {
    num_output: 16
    kernel_size: 1
    weight_filler {
      type: "xavier"
      std: 0.2
    }
    bias_filler {
      type: "constant"
      value: 0.2
    }
  }
}
layer {
  name: "inception_4a/relu_5x5_reduce"
  type: "ReLU"
  bottom: "inception_4a/5x5_reduce"
  top: "inception_4a/5x5_reduce"
}
layer {
  name: "inception_4a/5x5"
  type: "Convolution"
  bottom: "inception_4a/5x5_reduce"
  top: "inception_4a/5x5"
  param {
    lr_mult: 1
    decay_mult: 1
  }
  param {
    lr_mult: 2
    decay_mult: 0
  }
  convolution_param {
    num_output: 48
    pad: 2
    kernel_size: 5
    weight_filler {
      type: "xavier"
      std: 0.03
    }
    bias_filler {
      type: "constant"
      value: 0.2
    }
  }
}
layer {
  name: "inception_4a/relu_5x5"
  type: "ReLU"
  bottom: "inception_4a/5x5"
  top: "inception_4a/5x5"
}
layer {
  name: "inception_4a/pool"
  type: "Pooling"
  bottom: "pool3/3x3_s2"
  top: "inception_4a/pool"
  pooling_param {
    pool: MAX
    kernel_size: 3
    stride: 1
    pad: 1
  }
}
layer {
  name: "inception_4a/pool_proj"
  type: "Convolution"
  bottom: "inception_4a/pool"
  top: "inception_4a/pool_proj"
  param {
    lr_mult: 1
    decay_mult: 1
  }
  param {
    lr_mult: 2
    decay_mult: 0
  }
  convolution_param {
    num_output: 64
    kernel_size: 1
    weight_filler {
      type: "xavier"
      std: 0.1
    }
    bias_filler {
      type: "constant"
      value: 0.2
    }
  }
}
layer {
  name: "inception_4a/relu_pool_proj"
  type: "ReLU"
  bottom: "inception_4a/pool_proj"
  top: "inception_4a/pool_proj"
}
layer {
  name: "inception_4a/output"
  type: "Concat"
  bottom: "inception_4a/1x1"
  bottom: "inception_4a/3x3"
  bottom: "inception_4a/5x5"
  bottom: "inception_4a/pool_proj"
  top: "inception_4a/output"
}
layer {
  name: "loss1/ave_pool"
  type: "Pooling"
  bottom: "inception_4a/output"
  top: "loss1/ave_pool"
  pooling_param {
    pool: AVE
    kernel_size: 5
    stride: 3
  }
}
layer {
  name: "loss1/conv"
  type: "Convolution"
  bottom: "loss1/ave_pool"
  top: "loss1/conv"
  param {
    lr_mult: 1
    decay_mult: 1
  }
  param {
    lr_mult: 2
    decay_mult: 0
  }
  convolution_param {
    num_output: 128
    kernel_size: 1
    weight_filler {
      type: "xavier"
      std: 0.08
    }
    bias_filler {
      type: "constant"
      value: 0.2
    }
  }
}
layer {
  name: "loss1/relu_conv"
  type: "ReLU"
  bottom: "loss1/conv"
  top: "loss1/conv"
}
layer {
  name: "loss1/fc"
  type: "InnerProduct"
  bottom: "loss1/conv"
  top: "loss1/fc"
  param {
    lr_mult: 1
    decay_mult: 1
  }
  param {
    lr_mult: 2
    decay_mult: 0
  }
  inner_product_param {
    num_output: 1024
    weight_filler {
      type: "xavier"
      std: 0.02
    }
    bias_filler {
      type: "constant"
      value: 0.2
    }
  }
}
layer {
  name: "loss1/relu_fc"
  type: "ReLU"
  bottom: "loss1/fc"
  top: "loss1/fc"
}
layer {
  name: "loss1/drop_fc"
  type: "Dropout"
  bottom: "loss1/fc"
  top: "loss1/fc"
  dropout_param {
    dropout_ratio: 0.7
  }
}
layer {
  name: "loss1/classifier_plantvillage"
  type: "InnerProduct"
  bottom: "loss1/fc"
  top: "loss1/classifier_plantvillage"
  param {
    lr_mult: 1
    decay_mult: 1
  }
  param {
    lr_mult: 2
    decay_mult: 0
  }
  inner_product_param {
    num_output: 38
    weight_filler {
      type: "xavier"
      std: 0.0009765625
    }
    bias_filler {
      type: "constant"
      value: 0
    }
  }
}
layer {
  name: "inception_4b/1x1"
  type: "Convolution"
  bottom: "inception_4a/output"
  top: "inception_4b/1x1"
  param {
    lr_mult: 1
    decay_mult: 1
  }
  param {
    lr_mult: 2
    decay_mult: 0
  }
  convolution_param {
    num_output: 160
    kernel_size: 1
    weight_filler {
      type: "xavier"
      std: 0.03
    }
    bias_filler {
      type: "constant"
      value: 0.2
    }
  }
}
layer {
…
I0403 02:30:38.339292 19579 layer_factory.hpp:77] Creating layer inception_4c/pool
I0403 02:30:38.339314 19579 net.cpp:91] Creating Layer inception_4c/pool
I0403 02:30:38.339335 19579 net.cpp:425] inception_4c/pool <- inception_4b/output_inception_4b/output_0_split_3
I0403 02:30:38.339357 19579 net.cpp:399] inception_4c/pool -> inception_4c/pool
I0403 02:30:38.339428 19579 net.cpp:141] Setting up inception_4c/pool
I0403 02:30:38.339457 19579 net.cpp:148] Top shape: 24 512 14 14 (2408448)
I0403 02:30:38.339475 19579 net.cpp:156] Memory required for data: 1060605120
I0403 02:30:38.339491 19579 layer_factory.hpp:77] Creating layer inception_4c/pool_proj
I0403 02:30:38.339521 19579 net.cpp:91] Creating Layer inception_4c/pool_proj
I0403 02:30:38.339543 19579 net.cpp:425] inception_4c/pool_proj <- inception_4c/pool
I0403 02:30:38.339567 19579 net.cpp:399] inception_4c/pool_proj -> inception_4c/pool_proj
I0403 02:30:38.340442 19579 net.cpp:141] Setting up inception_4c/pool_proj
I0403 02:30:38.340476 19579 net.cpp:148] Top shape: 24 64 14 14 (301056)
I0403 02:30:38.340518 19579 net.cpp:156] Memory required for data: 1061809344
I0403 02:30:38.340556 19579 layer_factory.hpp:77] Creating layer inception_4c/relu_pool_proj
I0403 02:30:38.340615 19579 net.cpp:91] Creating Layer inception_4c/relu_pool_proj
I0403 02:30:38.340649 19579 net.cpp:425] inception_4c/relu_pool_proj <- inception_4c/pool_proj
I0403 02:30:38.340692 19579 net.cpp:386] inception_4c/relu_pool_proj -> inception_4c/pool_proj (in-place)
I0403 02:30:38.340744 19579 net.cpp:141] Setting up inception_4c/relu_pool_proj
I0403 02:30:38.340770 19579 net.cpp:148] Top shape: 24 64 14 14 (301056)
I0403 02:30:38.340793 19579 net.cpp:156] Memory required for data: 1063013568
I0403 02:30:38.340811 19579 layer_factory.hpp:77] Creating layer inception_4c/output
I0403 02:30:38.340833 19579 net.cpp:91] Creating Layer inception_4c/output
I0403 02:30:38.340853 19579 net.cpp:425] inception_4c/output <- inception_4c/1x1
I0403 02:30:38.340873 19579 net.cpp:425] inception_4c/output <- inception_4c/3x3
I0403 02:30:38.340893 19579 net.cpp:425] inception_4c/output <- inception_4c/5x5
I0403 02:30:38.340914 19579 net.cpp:425] inception_4c/output <- inception_4c/pool_proj
I0403 02:30:38.340935 19579 net.cpp:399] inception_4c/output -> inception_4c/output
I0403 02:30:38.340991 19579 net.cpp:141] Setting up inception_4c/output
I0403 02:30:38.341020 19579 net.cpp:148] Top shape: 24 512 14 14 (2408448)
I0403 02:30:38.341044 19579 net.cpp:156] Memory required for data: 1072647360
I0403 02:30:38.341063 19579 layer_factory.hpp:77] Creating layer inception_4c/output_inception_4c/output_0_split
I0403 02:30:38.341089 19579 net.cpp:91] Creating Layer inception_4c/output_inception_4c/output_0_split
I0403 02:30:38.341110 19579 net.cpp:425] inception_4c/output_inception_4c/output_0_split <- inception_4c/output
I0403 02:30:38.341132 19579 net.cpp:399] inception_4c/output_inception_4c/output_0_split -> inception_4c/output_inception_4c/output_0_split_0
I0403 02:30:38.341157 19579 net.cpp:399] inception_4c/output_inception_4c/output_0_split -> inception_4c/output_inception_4c/output_0_split_1
I0403 02:30:38.341183 19579 net.cpp:399] inception_4c/output_inception_4c/output_0_split -> inception_4c/output_inception_4c/output_0_split_2
I0403 02:30:38.341209 19579 net.cpp:399] inception_4c/output_inception_4c/output_0_split -> inception_4c/output_inception_4c/output_0_split_3
I0403 02:30:38.341325 19579 net.cpp:141] Setting up inception_4c/output_inception_4c/output_0_split
I0403 02:30:38.341373 19579 net.cpp:148] Top shape: 24 512 14 14 (2408448)
I0403 02:30:38.341406 19579 net.cpp:148] Top shape: 24 512 14 14 (2408448)
I0403 02:30:38.341457 19579 net.cpp:148] Top shape: 24 512 14 14 (2408448)
I0403 02:30:38.341506 19579 net.cpp:148] Top shape: 24 512 14 14 (2408448)
I0403 02:30:38.341555 19579 net.cpp:156] Memory required for data: 1111182528
I0403 02:30:38.341588 19579 layer_factory.hpp:77] Creating layer inception_4d/1x1
I0403 02:30:38.341616 19579 net.cpp:91] Creating Layer inception_4d/1x1
I0403 02:30:38.341660 19579 net.cpp:425] inception_4d/1x1 <- inception_4c/output_inception_4c/output_0_split_0
I0403 02:30:38.341713 19579 net.cpp:399] inception_4d/1x1 -> inception_4d/1x1
I0403 02:30:38.342661 19579 net.cpp:141] Setting up inception_4d/1x1
I0403 02:30:38.342702 19579 net.cpp:148] Top shape: 24 112 14 14 (526848)
I0403 02:30:38.342732 19579 net.cpp:156] Memory required for data: 1113289920
I0403 02:30:38.342754 19579 layer_factory.hpp:77] Creating layer inception_4d/relu_1x1
I0403 02:30:38.342779 19579 net.cpp:91] Creating Layer inception_4d/relu_1x1
I0403 02:30:38.342810 19579 net.cpp:425] inception_4d/relu_1x1 <- inception_4d/1x1
I0403 02:30:38.342864 19579 net.cpp:386] inception_4d/relu_1x1 -> inception_4d/1x1 (in-place)
I0403 02:30:38.342907 19579 net.cpp:141] Setting up inception_4d/relu_1x1
I0403 02:30:38.342931 19579 net.cpp:148] Top shape: 24 112 14 14 (526848)
I0403 02:30:38.342979 19579 net.cpp:156] Memory required for data: 1115397312
I0403 02:30:38.343025 19579 layer_factory.hpp:77] Creating layer inception_4d/3x3_reduce
I0403 02:30:38.343065 19579 net.cpp:91] Creating Layer inception_4d/3x3_reduce
I0403 02:30:38.343087 19579 net.cpp:425] inception_4d/3x3_reduce <- inception_4c/output_inception_4c/output_0_split_1
I0403 02:30:38.343111 19579 net.cpp:399] inception_4d/3x3_reduce -> inception_4d/3x3_reduce
I0403 02:30:38.343930 19579 net.cpp:141] Setting up inception_4d/3x3_reduce
I0403 02:30:38.343964 19579 net.cpp:148] Top shape: 24 144 14 14 (677376)
I0403 02:30:38.343984 19579 net.cpp:156] Memory required for data: 1118106816
I0403 02:30:38.344035 19579 layer_factory.hpp:77] Creating layer inception_4d/relu_3x3_reduce
I0403 02:30:38.344089 19579 net.cpp:91] Creating Layer inception_4d/relu_3x3_reduce
I0403 02:30:38.344110 19579 net.cpp:425] inception_4d/relu_3x3_reduce <- inception_4d/3x3_reduce
I0403 02:30:38.344131 19579 net.cpp:386] inception_4d/relu_3x3_reduce -> inception_4d/3x3_reduce (in-place)
I0403 02:30:38.344154 19579 net.cpp:141] Setting up inception_4d/relu_3x3_reduce
I0403 02:30:38.344175 19579 net.cpp:148] Top shape: 24 144 14 14 (677376)
I0403 02:30:38.344192 19579 net.cpp:156] Memory required for data: 1120816320
I0403 02:30:38.344209 19579 layer_factory.hpp:77] Creating layer inception_4d/3x3
I0403 02:30:38.344236 19579 net.cpp:91] Creating Layer inception_4d/3x3
I0403 02:30:38.344363 19579 net.cpp:425] inception_4d/3x3 <- inception_4d/3x3_reduce
I0403 02:30:38.344399 19579 net.cpp:399] inception_4d/3x3 -> inception_4d/3x3
I0403 02:30:38.348651 19579 net.cpp:141] Setting up inception_4d/3x3
I0403 02:30:38.348683 19579 net.cpp:148] Top shape: 24 288 14 14 (1354752)
I0403 02:30:38.348703 19579 net.cpp:156] Memory required for data: 1126235328
I0403 02:30:38.348726 19579 layer_factory.hpp:77] Creating layer inception_4d/relu_3x3
I0403 02:30:38.348748 19579 net.cpp:91] Creating Layer inception_4d/relu_3x3
I0403 02:30:38.348767 19579 net.cpp:425] inception_4d/relu_3x3 <- inception_4d/3x3
I0403 02:30:38.348789 19579 net.cpp:386] inception_4d/relu_3x3 -> inception_4d/3x3 (in-place)
I0403 02:30:38.348842 19579 net.cpp:141] Setting up inception_4d/relu_3x3
I0403 02:30:38.348892 19579 net.cpp:148] Top shape: 24 288 14 14 (1354752)
I0403 02:30:38.348938 19579 net.cpp:156] Memory required for data: 1131654336
I0403 02:30:38.348983 19579 layer_factory.hpp:77] Creating layer inception_4d/5x5_reduce
I0403 02:30:38.349040 19579 net.cpp:91] Creating Layer inception_4d/5x5_reduce
I0403 02:30:38.349064 19579 net.cpp:425] inception_4d/5x5_reduce <- inception_4c/output_inception_4c/output_0_split_2
I0403 02:30:38.349094 19579 net.cpp:399] inception_4d/5x5_reduce -> inception_4d/5x5_reduce
I0403 02:30:38.349524 19579 net.cpp:141] Setting up inception_4d/5x5_reduce
I0403 02:30:38.349555 19579 net.cpp:148] Top shape: 24 32 14 14 (150528)
I0403 02:30:38.349573 19579 net.cpp:156] Memory required for data: 1132256448
I0403 02:30:38.349594 19579 layer_factory.hpp:77] Creating layer inception_4d/relu_5x5_reduce
I0403 02:30:38.349617 19579 net.cpp:91] Creating Layer inception_4d/relu_5x5_reduce
I0403 02:30:38.349637 19579 net.cpp:425] inception_4d/relu_5x5_reduce <- inception_4d/5x5_reduce
I0403 02:30:38.349658 19579 net.cpp:386] inception_4d/relu_5x5_reduce -> inception_4d/5x5_reduce (in-place)
I0403 02:30:38.349683 19579 net.cpp:141] Setting up inception_4d/relu_5x5_reduce
I0403 02:30:38.349704 19579 net.cpp:148] Top shape: 24 32 14 14 (150528)
I0403 02:30:38.349720 19579 net.cpp:156] Memory required for data: 1132858560
I0403 02:30:38.349737 19579 layer_factory.hpp:77] Creating layer inception_4d/5x5
I0403 02:30:38.349766 19579 net.cpp:91] Creating Layer inception_4d/5x5
I0403 02:30:38.349787 19579 net.cpp:425] inception_4d/5x5 <- inception_4d/5x5_reduce
I0403 02:30:38.349813 19579 net.cpp:399] inception_4d/5x5 -> inception_4d/5x5
I0403 02:30:38.350595 19579 net.cpp:141] Setting up inception_4d/5x5
I0403 02:30:38.350628 19579 net.cpp:148] Top shape: 24 64 14 14 (301056)
I0403 02:30:38.350646 19579 net.cpp:156] Memory required for data: 1134062784
I0403 02:30:38.350668 19579 layer_factory.hpp:77] Creating layer inception_4d/relu_5x5
I0403 02:30:38.350692 19579 net.cpp:91] Creating Layer inception_4d/relu_5x5
I0403 02:30:38.350713 19579 net.cpp:425] inception_4d/relu_5x5 <- inception_4d/5x5
I0403 02:30:38.350734 19579 net.cpp:386] inception_4d/relu_5x5 -> inception_4d/5x5 (in-place)
I0403 02:30:38.350762 19579 net.cpp:141] Setting up inception_4d/relu_5x5
I0403 02:30:38.350785 19579 net.cpp:148] Top shape: 24 64 14 14 (301056)
I0403 02:30:38.350801 19579 net.cpp:156] Memory required for data: 1135267008
I0403 02:30:38.350819 19579 layer_factory.hpp:77] Creating layer inception_4d/pool
I0403 02:30:38.350841 19579 net.cpp:91] Creating Layer inception_4d/pool
I0403 02:30:38.350860 19579 net.cpp:425] inception_4d/pool <- inception_4c/output_inception_4c/output_0_split_3
I0403 02:30:38.350884 19579 net.cpp:399] inception_4d/pool -> inception_4d/pool
I0403 02:30:38.350955 19579 net.cpp:141] Setting up inception_4d/pool
I0403 02:30:38.350983 19579 net.cpp:148] Top shape: 24 512 14 14 (2408448)
I0403 02:30:38.351001 19579 net.cpp:156] Memory required for data: 1144900800
I0403 02:30:38.351018 19579 layer_factory.hpp:77] Creating layer inception_4d/pool_proj
I0403 02:30:38.351053 19579 net.cpp:91] Creating Layer inception_4d/pool_proj
I0403 02:30:38.351076 19579 net.cpp:425] inception_4d/pool_proj <- inception_4d/pool
I0403 02:30:38.351104 19579 net.cpp:399] inception_4d/pool_proj -> inception_4d/pool_proj
I0403 02:30:38.351616 19579 net.cpp:141] Setting up inception_4d/pool_proj
I0403 02:30:38.351649 19579 net.cpp:148] Top shape: 24 64 14 14 (301056)
I0403 02:30:38.351667 19579 net.cpp:156] Memory required for data: 1146105024
I0403 02:30:38.351689 19579 layer_factory.hpp:77] Creating layer inception_4d/relu_pool_proj
I0403 02:30:38.351714 19579 net.cpp:91] Creating Layer inception_4d/relu_pool_proj
I0403 02:30:38.351735 19579 net.cpp:425] inception_4d/relu_pool_proj <- inception_4d/pool_proj
I0403 02:30:38.351757 19579 net.cpp:386] inception_4d/relu_pool_proj -> inception_4d/pool_proj (in-place)
I0403 02:30:38.351781 19579 net.cpp:141] Setting up inception_4d/relu_pool_proj
I0403 02:30:38.351804 19579 net.cpp:148] Top shape: 24 64 14 14 (301056)
I0403 02:30:38.351822 19579 net.cpp:156] Memory required for data: 1147309248
I0403 02:30:38.351840 19579 layer_factory.hpp:77] Creating layer inception_4d/output
I0403 02:30:38.351886 19579 net.cpp:91] Creating Layer inception_4d/output
I0403 02:30:38.351907 19579 net.cpp:425] inception_4d/output <- inception_4d/1x1
I0403 02:30:38.351927 19579 net.cpp:425] inception_4d/output <- inception_4d/3x3
I0403 02:30:38.351946 19579 net.cpp:425] inception_4d/output <- inception_4d/5x5
I0403 02:30:38.351968 19579 net.cpp:425] inception_4d/output <- inception_4d/pool_proj
I0403 02:30:38.351989 19579 net.cpp:399] inception_4d/output -> inception_4d/output
I0403 02:30:38.352043 19579 net.cpp:141] Setting up inception_4d/output
I0403 02:30:38.352075 19579 net.cpp:148] Top shape: 24 528 14 14 (2483712)
I0403 02:30:38.352094 19579 net.cpp:156] Memory required for data: 1157244096
I0403 02:30:38.352113 19579 layer_factory.hpp:77] Creating layer inception_4d/output_inception_4d/output_0_split
I0403 02:30:38.352133 19579 net.cpp:91] Creating Layer inception_4d/output_inception_4d/output_0_split
I0403 02:30:38.352174 19579 net.cpp:425] inception_4d/output_inception_4d/output_0_split <- inception_4d/output
I0403 02:30:38.352224 19579 net.cpp:399] inception_4d/output_inception_4d/output_0_split -> inception_4d/output_inception_4d/output_0_split_0
I0403 02:30:38.352260 19579 net.cpp:399] inception_4d/output_inception_4d/output_0_split -> inception_4d/output_inception_4d/output_0_split_1
I0403 02:30:38.352288 19579 net.cpp:399] inception_4d/output_inception_4d/output_0_split -> inception_4d/output_inception_4d/output_0_split_2
I0403 02:30:38.352313 19579 net.cpp:399] inception_4d/output_inception_4d/output_0_split -> inception_4d/output_inception_4d/output_0_split_3
I0403 02:30:38.352336 19579 net.cpp:399] inception_4d/output_inception_4d/output_0_split -> inception_4d/output_inception_4d/output_0_split_4
I0403 02:30:38.352443 19579 net.cpp:141] Setting up inception_4d/output_inception_4d/output_0_split
I0403 02:30:38.352471 19579 net.cpp:148] Top shape: 24 528 14 14 (2483712)
I0403 02:30:38.352491 19579 net.cpp:148] Top shape: 24 528 14 14 (2483712)
I0403 02:30:38.352509 19579 net.cpp:148] Top shape: 24 528 14 14 (2483712)
I0403 02:30:38.352527 19579 net.cpp:148] Top shape: 24 528 14 14 (2483712)
I0403 02:30:38.352546 19579 net.cpp:148] Top shape: 24 528 14 14 (2483712)
I0403 02:30:38.352566 19579 net.cpp:156] Memory required for data: 1206918336
I0403 02:30:38.352741 19579 layer_factory.hpp:77] Creating layer loss2/ave_pool
I0403 02:30:38.352968 19579 net.cpp:91] Creating Layer loss2/ave_pool
I0403 02:30:38.352999 19579 net.cpp:425] loss2/ave_pool <- inception_4d/output_inception_4d/output_0_split_0
I0403 02:30:38.353024 19579 net.cpp:399] loss2/ave_pool -> loss2/ave_pool
I0403 02:30:38.353086 19579 net.cpp:141] Setting up loss2/ave_pool
I0403 02:30:38.353116 19579 net.cpp:148] Top shape: 24 528 4 4 (202752)
I0403 02:30:38.353134 19579 net.cpp:156] Memory required for data: 1207729344
I0403 02:30:38.353152 19579 layer_factory.hpp:77] Creating layer loss2/conv
I0403 02:30:38.353178 19579 net.cpp:91] Creating Layer loss2/conv
I0403 02:30:38.353200 19579 net.cpp:425] loss2/conv <- loss2/ave_pool
I0403 02:30:38.353226 19579 net.cpp:399] loss2/conv -> loss2/conv
I0403 02:30:38.354595 19579 net.cpp:141] Setting up loss2/conv
I0403 02:30:38.354631 19579 net.cpp:148] Top shape: 24 128 4 4 (49152)
I0403 02:30:38.354651 19579 net.cpp:156] Memory required for data: 1207925952
I0403 02:30:38.354672 19579 layer_factory.hpp:77] Creating layer loss2/relu_conv
I0403 02:30:38.354694 19579 net.cpp:91] Creating Layer loss2/relu_conv
I0403 02:30:38.354719 19579 net.cpp:425] loss2/relu_conv <- loss2/conv
I0403 02:30:38.354742 19579 net.cpp:386] loss2/relu_conv -> loss2/conv (in-place)
I0403 02:30:38.354765 19579 net.cpp:141] Setting up loss2/relu_conv
I0403 02:30:38.354790 19579 net.cpp:148] Top shape: 24 128 4 4 (49152)
I0403 02:30:38.354809 19579 net.cpp:156] Memory required for data: 1208122560
I0403 02:30:38.354825 19579 layer_factory.hpp:77] Creating layer loss2/fc
I0403 02:30:38.354849 19579 net.cpp:91] Creating Layer loss2/fc
I0403 02:30:38.354977 19579 net.cpp:425] loss2/fc <- loss2/conv
I0403 02:30:38.355016 19579 net.cpp:399] loss2/fc -> loss2/fc
I0403 02:30:38.390434 19579 net.cpp:141] Setting up loss2/fc
I0403 02:30:38.390508 19579 net.cpp:148] Top shape: 24 1024 (24576)
I0403 02:30:38.390532 19579 net.cpp:156] Memory required for data: 1208220864
I0403 02:30:38.390558 19579 layer_factory.hpp:77] Creating layer loss2/relu_fc
I0403 02:30:38.390583 19579 net.cpp:91] Creating Layer loss2/relu_fc
I0403 02:30:38.390605 19579 net.cpp:425] loss2/relu_fc <- loss2/fc
I0403 02:30:38.390627 19579 net.cpp:386] loss2/relu_fc -> loss2/fc (in-place)
I0403 02:30:38.390652 19579 net.cpp:141] Setting up loss2/relu_fc
I0403 02:30:38.390672 19579 net.cpp:148] Top shape: 24 1024 (24576)
I0403 02:30:38.390691 19579 net.cpp:156] Memory required for data: 1208319168
I0403 02:30:38.390708 19579 layer_factory.hpp:77] Creating layer loss2/drop_fc
I0403 02:30:38.390730 19579 net.cpp:91] Creating Layer loss2/drop_fc
I0403 02:30:38.390748 19579 net.cpp:425] loss2/drop_fc <- loss2/fc
I0403 02:30:38.390777 19579 net.cpp:386] loss2/drop_fc -> loss2/fc (in-place)
I0403 02:30:38.390837 19579 net.cpp:141] Setting up loss2/drop_fc
I0403 02:30:38.390868 19579 net.cpp:148] Top shape: 24 1024 (24576)
I0403 02:30:38.390887 19579 net.cpp:156] Memory required for data: 1208417472
I0403 02:30:38.390905 19579 layer_factory.hpp:77] Creating layer loss2/classifier_plantvillage
I0403 02:30:38.390929 19579 net.cpp:91] Creating Layer loss2/classifier_plantvillage
I0403 02:30:38.390949 19579 net.cpp:425] loss2/classifier_plantvillage <- loss2/fc
I0403 02:30:38.390976 19579 net.cpp:399] loss2/classifier_plantvillage -> loss2/classifier_plantvillage
I0403 02:30:38.391876 19579 net.cpp:141] Setting up loss2/classifier_plantvillage
I0403 02:30:38.391948 19579 net.cpp:148] Top shape: 24 38 (912)
I0403 02:30:38.391988 19579 net.cpp:156] Memory required for data: 1208421120
I0403 02:30:38.392045 19579 layer_factory.hpp:77] Creating layer loss2/classifier_plantvillage_loss2/classifier_plantvillage_0_split
I0403 02:30:38.392096 19579 net.cpp:91] Creating Layer loss2/classifier_plantvillage_loss2/classifier_plantvillage_0_split
I0403 02:30:38.392138 19579 net.cpp:425] loss2/classifier_plantvillage_loss2/classifier_plantvillage_0_split <- loss2/classifier_plantvillage
I0403 02:30:38.392190 19579 net.cpp:399] loss2/classifier_plantvillage_loss2/classifier_plantvillage_0_split -> loss2/classifier_plantvillage_loss2/classifier_plantvillage_0_split_0
I0403 02:30:38.392249 19579 net.cpp:399] loss2/classifier_plantvillage_loss2/classifier_plantvillage_0_split -> loss2/classifier_plantvillage_loss2/classifier_plantvillage_0_split_1
I0403 02:30:38.392307 19579 net.cpp:399] loss2/classifier_plantvillage_loss2/classifier_plantvillage_0_split -> loss2/classifier_plantvillage_loss2/classifier_plantvillage_0_split_2
I0403 02:30:38.392490 19579 net.cpp:141] Setting up loss2/classifier_plantvillage_loss2/classifier_plantvillage_0_split
I0403 02:30:38.392550 19579 net.cpp:148] Top shape: 24 38 (912)
I0403 02:30:38.392590 19579 net.cpp:148] Top shape: 24 38 (912)
I0403 02:30:38.392627 19579 net.cpp:148] Top shape: 24 38 (912)
I0403 02:30:38.392663 19579 net.cpp:156] Memory required for data: 1208432064
I0403 02:30:38.392699 19579 layer_factory.hpp:77] Creating layer inception_4e/1x1
I0403 02:30:38.392763 19579 net.cpp:91] Creating Layer inception_4e/1x1
I0403 02:30:38.392810 19579 net.cpp:425] inception_4e/1x1 <- inception_4d/output_inception_4d/output_0_split_1
I0403 02:30:38.392863 19579 net.cpp:399] inception_4e/1x1 -> inception_4e/1x1
I0403 02:30:38.395606 19579 net.cpp:141] Setting up inception_4e/1x1
I0403 02:30:38.395696 19579 net.cpp:148] Top shape: 24 256 14 14 (1204224)
I0403 02:30:38.395777 19579 net.cpp:156] Memory required for data: 1213248960
I0403 02:30:38.395853 19579 layer_factory.hpp:77] Creating layer inception_4e/relu_1x1
I0403 02:30:38.395941 19579 net.cpp:91] Creating Layer inception_4e/relu_1x1
I0403 02:30:38.396025 19579 net.cpp:425] inception_4e/relu_1x1 <- inception_4e/1x1
I0403 02:30:38.396093 19579 net.cpp:386] inception_4e/relu_1x1 -> inception_4e/1x1 (in-place)
I0403 02:30:38.396199 19579 net.cpp:141] Setting up inception_4e/relu_1x1
I0403 02:30:38.396248 19579 net.cpp:148] Top shape: 24 256 14 14 (1204224)
I0403 02:30:38.396286 19579 net.cpp:156] Memory required for data: 1218065856
I0403 02:30:38.396320 19579 layer_factory.hpp:77] Creating layer inception_4e/3x3_reduce
I0403 02:30:38.396378 19579 net.cpp:91] Creating Layer inception_4e/3x3_reduce
I0403 02:30:38.396422 19579 net.cpp:425] inception_4e/3x3_reduce <- inception_4d/output_inception_4d/output_0_split_2
I0403 02:30:38.396472 19579 net.cpp:399] inception_4e/3x3_reduce -> inception_4e/3x3_reduce
I0403 02:30:38.399349 19579 net.cpp:141] Setting up inception_4e/3x3_reduce
I0403 02:30:38.399394 19579 net.cpp:148] Top shape: 24 160 14 14 (752640)
I0403 02:30:38.399422 19579 net.cpp:156] Memory required for data: 1221076416
I0403 02:30:38.399454 19579 layer_factory.hpp:77] Creating layer inception_4e/relu_3x3_reduce
I0403 02:30:38.399477 19579 net.cpp:91] Creating Layer inception_4e/relu_3x3_reduce
I0403 02:30:38.399504 19579 net.cpp:425] inception_4e/relu_3x3_reduce <- inception_4e/3x3_reduce
I0403 02:30:38.399528 19579 net.cpp:386] inception_4e/relu_3x3_reduce -> inception_4e/3x3_reduce (in-place)
I0403 02:30:38.399551 19579 net.cpp:141] Setting up inception_4e/relu_3x3_reduce
I0403 02:30:38.399572 19579 net.cpp:148] Top shape: 24 160 14 14 (752640)
I0403 02:30:38.399590 19579 net.cpp:156] Memory required for data: 1224086976
I0403 02:30:38.399607 19579 layer_factory.hpp:77] Creating layer inception_4e/3x3
I0403 02:30:38.399636 19579 net.cpp:91] Creating Layer inception_4e/3x3
I0403 02:30:38.399658 19579 net.cpp:425] inception_4e/3x3 <- inception_4e/3x3_reduce
I0403 02:30:38.399684 19579 net.cpp:399] inception_4e/3x3 -> inception_4e/3x3
I0403 02:30:38.404394 19579 net.cpp:141] Setting up inception_4e/3x3
I0403 02:30:38.404430 19579 net.cpp:148] Top shape: 24 320 14 14 (1505280)
I0403 02:30:38.404450 19579 net.cpp:156] Memory required for data: 1230108096
I0403 02:30:38.404472 19579 layer_factory.hpp:77] Creating layer inception_4e/relu_3x3
I0403 02:30:38.404500 19579 net.cpp:91] Creating Layer inception_4e/relu_3x3
I0403 02:30:38.404522 19579 net.cpp:425] inception_4e/relu_3x3 <- inception_4e/3x3
I0403 02:30:38.404544 19579 net.cpp:386] inception_4e/relu_3x3 -> inception_4e/3x3 (in-place)
I0403 02:30:38.404569 19579 net.cpp:141] Setting up inception_4e/relu_3x3
I0403 02:30:38.404592 19579 net.cpp:148] Top shape: 24 320 14 14 (1505280)
I0403 02:30:38.404608 19579 net.cpp:156] Memory required for data: 1236129216
I0403 02:30:38.404626 19579 layer_factory.hpp:77] Creating layer inception_4e/5x5_reduce
I0403 02:30:38.404654 19579 net.cpp:91] Creating Layer inception_4e/5x5_reduce
I0403 02:30:38.404676 19579 net.cpp:425] inception_4e/5x5_reduce <- inception_4d/output_inception_4d/output_0_split_3
I0403 02:30:38.404700 19579 net.cpp:399] inception_4e/5x5_reduce -> inception_4e/5x5_reduce
I0403 02:30:38.405726 19579 net.cpp:141] Setting up inception_4e/5x5_reduce
I0403 02:30:38.405766 19579 net.cpp:148] Top shape: 24 32 14 14 (150528)
I0403 02:30:38.405786 19579 net.cpp:156] Memory required for data: 1236731328
I0403 02:30:38.405808 19579 layer_factory.hpp:77] Creating layer inception_4e/relu_5x5_reduce
I0403 02:30:38.405833 19579 net.cpp:91] Creating Layer inception_4e/relu_5x5_reduce
I0403 02:30:38.405855 19579 net.cpp:425] inception_4e/relu_5x5_reduce <- inception_4e/5x5_reduce
I0403 02:30:38.405881 19579 net.cpp:386] inception_4e/relu_5x5_reduce -> inception_4e/5x5_reduce (in-place)
I0403 02:30:38.405906 19579 net.cpp:141] Setting up inception_4e/relu_5x5_reduce
I0403 02:30:38.405928 19579 net.cpp:148] Top shape: 24 32 14 14 (150528)
I0403 02:30:38.405944 19579 net.cpp:156] Memory required for data: 1237333440
I0403 02:30:38.405961 19579 layer_factory.hpp:77] Creating layer inception_4e/5x5
I0403 02:30:38.406015 19579 net.cpp:91] Creating Layer inception_4e/5x5
I0403 02:30:38.406045 19579 net.cpp:425] inception_4e/5x5 <- inception_4e/5x5_reduce
I0403 02:30:38.406080 19579 net.cpp:399] inception_4e/5x5 -> inception_4e/5x5
I0403 02:30:38.407052 19579 net.cpp:141] Setting up inception_4e/5x5
I0403 02:30:38.407100 19579 net.cpp:148] Top shape: 24 128 14 14 (602112)
I0403 02:30:38.407120 19579 net.cpp:156] Memory required for data: 1239741888
I0403 02:30:38.407142 19579 layer_factory.hpp:77] Creating layer inception_4e/relu_5x5
I0403 02:30:38.407165 19579 net.cpp:91] Creating Layer inception_4e/relu_5x5
I0403 02:30:38.407186 19579 net.cpp:425] inception_4e/relu_5x5 <- inception_4e/5x5
I0403 02:30:38.407210 19579 net.cpp:386] inception_4e/relu_5x5 -> inception_4e/5x5 (in-place)
I0403 02:30:38.407237 19579 net.cpp:141] Setting up inception_4e/relu_5x5
I0403 02:30:38.407258 19579 net.cpp:148] Top shape: 24 128 14 14 (602112)
I0403 02:30:38.407276 19579 net.cpp:156] Memory required for data: 1242150336
I0403 02:30:38.407294 19579 layer_factory.hpp:77] Creating layer inception_4e/pool
I0403 02:30:38.407315 19579 net.cpp:91] Creating Layer inception_4e/pool
I0403 02:30:38.407333 19579 net.cpp:425] inception_4e/pool <- inception_4d/output_inception_4d/output_0_split_4
I0403 02:30:38.407357 19579 net.cpp:399] inception_4e/pool -> inception_4e/pool
I0403 02:30:38.407426 19579 net.cpp:141] Setting up inception_4e/pool
I0403 02:30:38.407455 19579 net.cpp:148] Top shape: 24 528 14 14 (2483712)
I0403 02:30:38.407474 19579 net.cpp:156] Memory required for data: 1252085184
I0403 02:30:38.407491 19579 layer_factory.hpp:77] Creating layer inception_4e/pool_proj
I0403 02:30:38.407518 19579 net.cpp:91] Creating Layer inception_4e/pool_proj
I0403 02:30:38.407541 19579 net.cpp:425] inception_4e/pool_proj <- inception_4e/pool
I0403 02:30:38.407570 19579 net.cpp:399] inception_4e/pool_proj -> inception_4e/pool_proj
I0403 02:30:38.408284 19579 net.cpp:141] Setting up inception_4e/pool_proj
I0403 02:30:38.408316 19579 net.cpp:148] Top shape: 24 128 14 14 (602112)
I0403 02:30:38.408337 19579 net.cpp:156] Memory required for data: 1254493632
I0403 02:30:38.408365 19579 layer_factory.hpp:77] Creating layer inception_4e/relu_pool_proj
I0403 02:30:38.408399 19579 net.cpp:91] Creating Layer inception_4e/relu_pool_proj
I0403 02:30:38.408421 19579 net.cpp:425] inception_4e/relu_pool_proj <- inception_4e/pool_proj
I0403 02:30:38.408442 19579 net.cpp:386] inception_4e/relu_pool_proj -> inception_4e/pool_proj (in-place)
I0403 02:30:38.408466 19579 net.cpp:141] Setting up inception_4e/relu_pool_proj
I0403 02:30:38.408488 19579 net.cpp:148] Top shape: 24 128 14 14 (602112)
I0403 02:30:38.408505 19579 net.cpp:156] Memory required for data: 1256902080
I0403 02:30:38.408521 19579 layer_factory.hpp:77] Creating layer inception_4e/output
I0403 02:30:38.408545 19579 net.cpp:91] Creating Layer inception_4e/output
I0403 02:30:38.408565 19579 net.cpp:425] inception_4e/output <- inception_4e/1x1
I0403 02:30:38.408586 19579 net.cpp:425] inception_4e/output <- inception_4e/3x3
I0403 02:30:38.408604 19579 net.cpp:425] inception_4e/output <- inception_4e/5x5
I0403 02:30:38.408625 19579 net.cpp:425] inception_4e/output <- inception_4e/pool_proj
I0403 02:30:38.408646 19579 net.cpp:399] inception_4e/output -> inception_4e/output
I0403 02:30:38.408695 19579 net.cpp:141] Setting up inception_4e/output
I0403 02:30:38.408726 19579 net.cpp:148] Top shape: 24 832 14 14 (3913728)
I0403 02:30:38.408746 19579 net.cpp:156] Memory required for data: 1272556992
I0403 02:30:38.408763 19579 layer_factory.hpp:77] Creating layer pool4/3x3_s2
I0403 02:30:38.408784 19579 net.cpp:91] Creating Layer pool4/3x3_s2
I0403 02:30:38.408804 19579 net.cpp:425] pool4/3x3_s2 <- inception_4e/output
I0403 02:30:38.408825 19579 net.cpp:399] pool4/3x3_s2 -> pool4/3x3_s2
I0403 02:30:38.408888 19579 net.cpp:141] Setting up pool4/3x3_s2
I0403 02:30:38.408915 19579 net.cpp:148] Top shape: 24 832 7 7 (978432)
I0403 02:30:38.408933 19579 net.cpp:156] Memory required for data: 1276470720
I0403 02:30:38.408951 19579 layer_factory.hpp:77] Creating layer pool4/3x3_s2_pool4/3x3_s2_0_split
I0403 02:30:38.408977 19579 net.cpp:91] Creating Layer pool4/3x3_s2_pool4/3x3_s2_0_split
I0403 02:30:38.409008 19579 net.cpp:425] pool4/3x3_s2_pool4/3x3_s2_0_split <- pool4/3x3_s2
I0403 02:30:38.409051 19579 net.cpp:399] pool4/3x3_s2_pool4/3x3_s2_0_split -> pool4/3x3_s2_pool4/3x3_s2_0_split_0
I0403 02:30:38.409078 19579 net.cpp:399] pool4/3x3_s2_pool4/3x3_s2_0_split -> pool4/3x3_s2_pool4/3x3_s2_0_split_1
I0403 02:30:38.409106 19579 net.cpp:399] pool4/3x3_s2_pool4/3x3_s2_0_split -> pool4/3x3_s2_pool4/3x3_s2_0_split_2
I0403 02:30:38.409133 19579 net.cpp:399] pool4/3x3_s2_pool4/3x3_s2_0_split -> pool4/3x3_s2_pool4/3x3_s2_0_split_3
I0403 02:30:38.409217 19579 net.cpp:141] Setting up pool4/3x3_s2_pool4/3x3_s2_0_split
I0403 02:30:38.409246 19579 net.cpp:148] Top shape: 24 832 7 7 (978432)
I0403 02:30:38.409267 19579 net.cpp:148] Top shape: 24 832 7 7 (978432)
I0403 02:30:38.409286 19579 net.cpp:148] Top shape: 24 832 7 7 (978432)
I0403 02:30:38.409307 19579 net.cpp:148] Top shape: 24 832 7 7 (978432)
I0403 02:30:38.409323 19579 net.cpp:156] Memory required for data: 1292125632
I0403 02:30:38.409343 19579 layer_factory.hpp:77] Creating layer inception_5a/1x1
I0403 02:30:38.409373 19579 net.cpp:91] Creating Layer inception_5a/1x1
I0403 02:30:38.409395 19579 net.cpp:425] inception_5a/1x1 <- pool4/3x3_s2_pool4/3x3_s2_0_split_0
I0403 02:30:38.409420 19579 net.cpp:399] inception_5a/1x1 -> inception_5a/1x1
I0403 02:30:38.411772 19579 net.cpp:141] Setting up inception_5a/1x1
I0403 02:30:38.411810 19579 net.cpp:148] Top shape: 24 256 7 7 (301056)
I0403 02:30:38.411830 19579 net.cpp:156] Memory required for data: 1293329856
I0403 02:30:38.411852 19579 layer_factory.hpp:77] Creating layer inception_5a/relu_1x1
I0403 02:30:38.411875 19579 net.cpp:91] Creating Layer inception_5a/relu_1x1
I0403 02:30:38.411895 19579 net.cpp:425] inception_5a/relu_1x1 <- inception_5a/1x1
I0403 02:30:38.411919 19579 net.cpp:386] inception_5a/relu_1x1 -> inception_5a/1x1 (in-place)
I0403 02:30:38.411944 19579 net.cpp:141] Setting up inception_5a/relu_1x1
I0403 02:30:38.411965 19579 net.cpp:148] Top shape: 24 256 7 7 (301056)
I0403 02:30:38.411983 19579 net.cpp:156] Memory required for data: 1294534080
I0403 02:30:38.412006 19579 layer_factory.hpp:77] Creating layer inception_5a/3x3_reduce
I0403 02:30:38.412034 19579 net.cpp:91] Creating Layer inception_5a/3x3_reduce
I0403 02:30:38.412055 19579 net.cpp:425] inception_5a/3x3_reduce <- pool4/3x3_s2_pool4/3x3_s2_0_split_1
I0403 02:30:38.412081 19579 net.cpp:399] inception_5a/3x3_reduce -> inception_5a/3x3_reduce
I0403 02:30:38.415058 19579 net.cpp:141] Setting up inception_5a/3x3_reduce
I0403 02:30:38.415110 19579 net.cpp:148] Top shape: 24 160 7 7 (188160)
I0403 02:30:38.415155 19579 net.cpp:156] Memory required for data: 1295286720
I0403 02:30:38.415179 19579 layer_factory.hpp:77] Creating layer inception_5a/relu_3x3_reduce
I0403 02:30:38.415205 19579 net.cpp:91] Creating Layer inception_5a/relu_3x3_reduce
I0403 02:30:38.415235 19579 net.cpp:425] inception_5a/relu_3x3_reduce <- inception_5a/3x3_reduce
I0403 02:30:38.415288 19579 net.cpp:386] inception_5a/relu_3x3_reduce -> inception_5a/3x3_reduce (in-place)
I0403 02:30:38.415338 19579 net.cpp:141] Setting up inception_5a/relu_3x3_reduce
I0403 02:30:38.415360 19579 net.cpp:148] Top shape: 24 160 7 7 (188160)
I0403 02:30:38.415377 19579 net.cpp:156] Memory required for data: 1296039360
I0403 02:30:38.415395 19579 layer_factory.hpp:77] Creating layer inception_5a/3x3
I0403 02:30:38.415464 19579 net.cpp:91] Creating Layer inception_5a/3x3
I0403 02:30:38.415518 19579 net.cpp:425] inception_5a/3x3 <- inception_5a/3x3_reduce
I0403 02:30:38.415586 19579 net.cpp:399] inception_5a/3x3 -> inception_5a/3x3
I0403 02:30:38.420526 19579 net.cpp:141] Setting up inception_5a/3x3
I0403 02:30:38.420562 19579 net.cpp:148] Top shape: 24 320 7 7 (376320)
I0403 02:30:38.420583 19579 net.cpp:156] Memory required for data: 1297544640
I0403 02:30:38.420604 19579 layer_factory.hpp:77] Creating layer inception_5a/relu_3x3
I0403 02:30:38.420627 19579 net.cpp:91] Creating Layer inception_5a/relu_3x3
I0403 02:30:38.420647 19579 net.cpp:425] inception_5a/relu_3x3 <- inception_5a/3x3
I0403 02:30:38.420670 19579 net.cpp:386] inception_5a/relu_3x3 -> inception_5a/3x3 (in-place)
I0403 02:30:38.420716 19579 net.cpp:141] Setting up inception_5a/relu_3x3
I0403 02:30:38.420742 19579 net.cpp:148] Top shape: 24 320 7 7 (376320)
I0403 02:30:38.420759 19579 net.cpp:156] Memory required for data: 1299049920
I0403 02:30:38.420776 19579 layer_factory.hpp:77] Creating layer inception_5a/5x5_reduce
I0403 02:30:38.420802 19579 net.cpp:91] Creating Layer inception_5a/5x5_reduce
I0403 02:30:38.420825 19579 net.cpp:425] inception_5a/5x5_reduce <- pool4/3x3_s2_pool4/3x3_s2_0_split_2
I0403 02:30:38.420850 19579 net.cpp:399] inception_5a/5x5_reduce -> inception_5a/5x5_reduce
I0403 02:30:38.421325 19579 net.cpp:141] Setting up inception_5a/5x5_reduce
I0403 02:30:38.421381 19579 net.cpp:148] Top shape: 24 32 7 7 (37632)
I0403 02:30:38.421428 19579 net.cpp:156] Memory required for data: 1299200448
I0403 02:30:38.421476 19579 layer_factory.hpp:77] Creating layer inception_5a/relu_5x5_reduce
I0403 02:30:38.421517 19579 net.cpp:91] Creating Layer inception_5a/relu_5x5_reduce
I0403 02:30:38.421548 19579 net.cpp:425] inception_5a/relu_5x5_reduce <- inception_5a/5x5_reduce
I0403 02:30:38.421581 19579 net.cpp:386] inception_5a/relu_5x5_reduce -> inception_5a/5x5_reduce (in-place)
I0403 02:30:38.421639 19579 net.cpp:141] Setting up inception_5a/relu_5x5_reduce
I0403 02:30:38.421680 19579 net.cpp:148] Top shape: 24 32 7 7 (37632)
I0403 02:30:38.421710 19579 net.cpp:156] Memory required for data: 1299350976
I0403 02:30:38.421728 19579 layer_factory.hpp:77] Creating layer inception_5a/5x5
I0403 02:30:38.421771 19579 net.cpp:91] Creating Layer inception_5a/5x5
I0403 02:30:38.421797 19579 net.cpp:425] inception_5a/5x5 <- inception_5a/5x5_reduce
I0403 02:30:38.421823 19579 net.cpp:399] inception_5a/5x5 -> inception_5a/5x5
I0403 02:30:38.422792 19579 net.cpp:141] Setting up inception_5a/5x5
I0403 02:30:38.422824 19579 net.cpp:148] Top shape: 24 128 7 7 (150528)
I0403 02:30:38.422843 19579 net.cpp:156] Memory required for data: 1299953088
I0403 02:30:38.422864 19579 layer_factory.hpp:77] Creating layer inception_5a/relu_5x5
I0403 02:30:38.422891 19579 net.cpp:91] Creating Layer inception_5a/relu_5x5
I0403 02:30:38.422912 19579 net.cpp:425] inception_5a/relu_5x5 <- inception_5a/5x5
I0403 02:30:38.422935 19579 net.cpp:386] inception_5a/relu_5x5 -> inception_5a/5x5 (in-place)
I0403 02:30:38.422958 19579 net.cpp:141] Setting up inception_5a/relu_5x5
I0403 02:30:38.422978 19579 net.cpp:148] Top shape: 24 128 7 7 (150528)
I0403 02:30:38.423001 19579 net.cpp:156] Memory required for data: 1300555200
I0403 02:30:38.423020 19579 layer_factory.hpp:77] Creating layer inception_5a/pool
I0403 02:30:38.423041 19579 net.cpp:91] Creating Layer inception_5a/pool
I0403 02:30:38.423060 19579 net.cpp:425] inception_5a/pool <- pool4/3x3_s2_pool4/3x3_s2_0_split_3
I0403 02:30:38.423085 19579 net.cpp:399] inception_5a/pool -> inception_5a/pool
I0403 02:30:38.423151 19579 net.cpp:141] Setting up inception_5a/pool
I0403 02:30:38.423182 19579 net.cpp:148] Top shape: 24 832 7 7 (978432)
I0403 02:30:38.423200 19579 net.cpp:156] Memory required for data: 1304468928
I0403 02:30:38.423218 19579 layer_factory.hpp:77] Creating layer inception_5a/pool_proj
I0403 02:30:38.423243 19579 net.cpp:91] Creating Layer inception_5a/pool_proj
I0403 02:30:38.423264 19579 net.cpp:425] inception_5a/pool_proj <- inception_5a/pool
I0403 02:30:38.423293 19579 net.cpp:399] inception_5a/pool_proj -> inception_5a/pool_proj
I0403 02:30:38.424901 19579 net.cpp:141] Setting up inception_5a/pool_proj
I0403 02:30:38.424937 19579 net.cpp:148] Top shape: 24 128 7 7 (150528)
I0403 02:30:38.424957 19579 net.cpp:156] Memory required for data: 1305071040
I0403 02:30:38.424978 19579 layer_factory.hpp:77] Creating layer inception_5a/relu_pool_proj
I0403 02:30:38.425009 19579 net.cpp:91] Creating Layer inception_5a/relu_pool_proj
I0403 02:30:38.425031 19579 net.cpp:425] inception_5a/relu_pool_proj <- inception_5a/pool_proj
I0403 02:30:38.425055 19579 net.cpp:386] inception_5a/relu_pool_proj -> inception_5a/pool_proj (in-place)
I0403 02:30:38.425078 19579 net.cpp:141] Setting up inception_5a/relu_pool_proj
I0403 02:30:38.425119 19579 net.cpp:148] Top shape: 24 128 7 7 (150528)
I0403 02:30:38.425137 19579 net.cpp:156] Memory required for data: 1305673152
I0403 02:30:38.425155 19579 layer_factory.hpp:77] Creating layer inception_5a/output
I0403 02:30:38.425181 19579 net.cpp:91] Creating Layer inception_5a/output
I0403 02:30:38.425202 19579 net.cpp:425] inception_5a/output <- inception_5a/1x1
I0403 02:30:38.425223 19579 net.cpp:425] inception_5a/output <- inception_5a/3x3
I0403 02:30:38.425243 19579 net.cpp:425] inception_5a/output <- inception_5a/5x5
I0403 02:30:38.425263 19579 net.cpp:425] inception_5a/output <- inception_5a/pool_proj
I0403 02:30:38.425285 19579 net.cpp:399] inception_5a/output -> inception_5a/output
I0403 02:30:38.425333 19579 net.cpp:141] Setting up inception_5a/output
I0403 02:30:38.425364 19579 net.cpp:148] Top shape: 24 832 7 7 (978432)
I0403 02:30:38.425384 19579 net.cpp:156] Memory required for data: 1309586880
I0403 02:30:38.425401 19579 layer_factory.hpp:77] Creating layer inception_5a/output_inception_5a/output_0_split
I0403 02:30:38.425422 19579 net.cpp:91] Creating Layer inception_5a/output_inception_5a/output_0_split
I0403 02:30:38.425442 19579 net.cpp:425] inception_5a/output_inception_5a/output_0_split <- inception_5a/output
I0403 02:30:38.425464 19579 net.cpp:399] inception_5a/output_inception_5a/output_0_split -> inception_5a/output_inception_5a/output_0_split_0
I0403 02:30:38.425495 19579 net.cpp:399] inception_5a/output_inception_5a/output_0_split -> inception_5a/output_inception_5a/output_0_split_1
I0403 02:30:38.425521 19579 net.cpp:399] inception_5a/output_inception_5a/output_0_split -> inception_5a/output_inception_5a/output_0_split_2
I0403 02:30:38.425546 19579 net.cpp:399] inception_5a/output_inception_5a/output_0_split -> inception_5a/output_inception_5a/output_0_split_3
I0403 02:30:38.425631 19579 net.cpp:141] Setting up inception_5a/output_inception_5a/output_0_split
I0403 02:30:38.425657 19579 net.cpp:148] Top shape: 24 832 7 7 (978432)
I0403 02:30:38.425676 19579 net.cpp:148] Top shape: 24 832 7 7 (978432)
I0403 02:30:38.425695 19579 net.cpp:148] Top shape: 24 832 7 7 (978432)
I0403 02:30:38.425714 19579 net.cpp:148] Top shape: 24 832 7 7 (978432)
I0403 02:30:38.425731 19579 net.cpp:156] Memory required for data: 1325241792
I0403 02:30:38.425748 19579 layer_factory.hpp:77] Creating layer inception_5b/1x1
I0403 02:30:38.425776 19579 net.cpp:91] Creating Layer inception_5b/1x1
I0403 02:30:38.425796 19579 net.cpp:425] inception_5b/1x1 <- inception_5a/output_inception_5a/output_0_split_0
I0403 02:30:38.425823 19579 net.cpp:399] inception_5b/1x1 -> inception_5b/1x1
I0403 02:30:38.429029 19579 net.cpp:141] Setting up inception_5b/1x1
I0403 02:30:38.429067 19579 net.cpp:148] Top shape: 24 384 7 7 (451584)
I0403 02:30:38.443749 19579 net.cpp:156] Memory required for data: 1327048128
I0403 02:30:38.443796 19579 layer_factory.hpp:77] Creating layer inception_5b/relu_1x1
I0403 02:30:38.443835 19579 net.cpp:91] Creating Layer inception_5b/relu_1x1
I0403 02:30:38.443866 19579 net.cpp:425] inception_5b/relu_1x1 <- inception_5b/1x1
I0403 02:30:38.443893 19579 net.cpp:386] inception_5b/relu_1x1 -> inception_5b/1x1 (in-place)
I0403 02:30:38.443938 19579 net.cpp:141] Setting up inception_5b/relu_1x1
I0403 02:30:38.443984 19579 net.cpp:148] Top shape: 24 384 7 7 (451584)
I0403 02:30:38.444020 19579 net.cpp:156] Memory required for data: 1328854464
I0403 02:30:38.444079 19579 layer_factory.hpp:77] Creating layer inception_5b/3x3_reduce
I0403 02:30:38.444147 19579 net.cpp:91] Creating Layer inception_5b/3x3_reduce
I0403 02:30:38.444196 19579 net.cpp:425] inception_5b/3x3_reduce <- inception_5a/output_inception_5a/output_0_split_1
I0403 02:30:38.444259 19579 net.cpp:399] inception_5b/3x3_reduce -> inception_5b/3x3_reduce
I0403 02:30:38.448760 19579 net.cpp:141] Setting up inception_5b/3x3_reduce
I0403 02:30:38.448834 19579 net.cpp:148] Top shape: 24 192 7 7 (225792)
I0403 02:30:38.448874 19579 net.cpp:156] Memory required for data: 1329757632
I0403 02:30:38.448923 19579 layer_factory.hpp:77] Creating layer inception_5b/relu_3x3_reduce
I0403 02:30:38.449061 19579 net.cpp:91] Creating Layer inception_5b/relu_3x3_reduce
I0403 02:30:38.449087 19579 net.cpp:425] inception_5b/relu_3x3_reduce <- inception_5b/3x3_reduce
I0403 02:30:38.449110 19579 net.cpp:386] inception_5b/relu_3x3_reduce -> inception_5b/3x3_reduce (in-place)
I0403 02:30:38.449136 19579 net.cpp:141] Setting up inception_5b/relu_3x3_reduce
I0403 02:30:38.449177 19579 net.cpp:148] Top shape: 24 192 7 7 (225792)
I0403 02:30:38.449208 19579 net.cpp:156] Memory required for data: 1330660800
I0403 02:30:38.449242 19579 layer_factory.hpp:77] Creating layer inception_5b/3x3
I0403 02:30:38.449272 19579 net.cpp:91] Creating Layer inception_5b/3x3
I0403 02:30:38.449314 19579 net.cpp:425] inception_5b/3x3 <- inception_5b/3x3_reduce
I0403 02:30:38.449362 19579 net.cpp:399] inception_5b/3x3 -> inception_5b/3x3
I0403 02:30:38.456573 19579 net.cpp:141] Setting up inception_5b/3x3
I0403 02:30:38.456610 19579 net.cpp:148] Top shape: 24 384 7 7 (451584)
I0403 02:30:38.456629 19579 net.cpp:156] Memory required for data: 1332467136
I0403 02:30:38.456652 19579 layer_factory.hpp:77] Creating layer inception_5b/relu_3x3
I0403 02:30:38.456675 19579 net.cpp:91] Creating Layer inception_5b/relu_3x3
I0403 02:30:38.456694 19579 net.cpp:425] inception_5b/relu_3x3 <- inception_5b/3x3
I0403 02:30:38.456718 19579 net.cpp:386] inception_5b/relu_3x3 -> inception_5b/3x3 (in-place)
I0403 02:30:38.456744 19579 net.cpp:141] Setting up inception_5b/relu_3x3
I0403 02:30:38.456765 19579 net.cpp:148] Top shape: 24 384 7 7 (451584)
I0403 02:30:38.456784 19579 net.cpp:156] Memory required for data: 1334273472
I0403 02:30:38.456800 19579 layer_factory.hpp:77] Creating layer inception_5b/5x5_reduce
I0403 02:30:38.456828 19579 net.cpp:91] Creating Layer inception_5b/5x5_reduce
I0403 02:30:38.456851 19579 net.cpp:425] inception_5b/5x5_reduce <- inception_5a/output_inception_5a/output_0_split_2
I0403 02:30:38.456874 19579 net.cpp:399] inception_5b/5x5_reduce -> inception_5b/5x5_reduce
I0403 02:30:38.458189 19579 net.cpp:141] Setting up inception_5b/5x5_reduce
I0403 02:30:38.458222 19579 net.cpp:148] Top shape: 24 48 7 7 (56448)
I0403 02:30:38.458241 19579 net.cpp:156] Memory required for data: 1334499264
I0403 02:30:38.458263 19579 layer_factory.hpp:77] Creating layer inception_5b/relu_5x5_reduce
I0403 02:30:38.458286 19579 net.cpp:91] Creating Layer inception_5b/relu_5x5_reduce
I0403 02:30:38.458305 19579 net.cpp:425] inception_5b/relu_5x5_reduce <- inception_5b/5x5_reduce
I0403 02:30:38.458329 19579 net.cpp:386] inception_5b/relu_5x5_reduce -> inception_5b/5x5_reduce (in-place)
I0403 02:30:38.458356 19579 net.cpp:141] Setting up inception_5b/relu_5x5_reduce
I0403 02:30:38.458377 19579 net.cpp:148] Top shape: 24 48 7 7 (56448)
I0403 02:30:38.458395 19579 net.cpp:156] Memory required for data: 1334725056
I0403 02:30:38.458412 19579 layer_factory.hpp:77] Creating layer inception_5b/5x5
I0403 02:30:38.458441 19579 net.cpp:91] Creating Layer inception_5b/5x5
I0403 02:30:38.458461 19579 net.cpp:425] inception_5b/5x5 <- inception_5b/5x5_reduce
I0403 02:30:38.458485 19579 net.cpp:399] inception_5b/5x5 -> inception_5b/5x5
I0403 02:30:38.459923 19579 net.cpp:141] Setting up inception_5b/5x5
I0403 02:30:38.460036 19579 net.cpp:148] Top shape: 24 128 7 7 (150528)
I0403 02:30:38.460054 19579 net.cpp:156] Memory required for data: 1335327168
I0403 02:30:38.460077 19579 layer_factory.hpp:77] Creating layer inception_5b/relu_5x5
I0403 02:30:38.460098 19579 net.cpp:91] Creating Layer inception_5b/relu_5x5
I0403 02:30:38.460119 19579 net.cpp:425] inception_5b/relu_5x5 <- inception_5b/5x5
I0403 02:30:38.460144 19579 net.cpp:386] inception_5b/relu_5x5 -> inception_5b/5x5 (in-place)
I0403 02:30:38.460170 19579 net.cpp:141] Setting up inception_5b/relu_5x5
I0403 02:30:38.460191 19579 net.cpp:148] Top shape: 24 128 7 7 (150528)
I0403 02:30:38.460208 19579 net.cpp:156] Memory required for data: 1335929280
I0403 02:30:38.460225 19579 layer_factory.hpp:77] Creating layer inception_5b/pool
I0403 02:30:38.460245 19579 net.cpp:91] Creating Layer inception_5b/pool
I0403 02:30:38.460284 19579 net.cpp:425] inception_5b/pool <- inception_5a/output_inception_5a/output_0_split_3
I0403 02:30:38.460309 19579 net.cpp:399] inception_5b/pool -> inception_5b/pool
I0403 02:30:38.460382 19579 net.cpp:141] Setting up inception_5b/pool
I0403 02:30:38.460410 19579 net.cpp:148] Top shape: 24 832 7 7 (978432)
I0403 02:30:38.460428 19579 net.cpp:156] Memory required for data: 1339843008
I0403 02:30:38.460445 19579 layer_factory.hpp:77] Creating layer inception_5b/pool_proj
I0403 02:30:38.460474 19579 net.cpp:91] Creating Layer inception_5b/pool_proj
I0403 02:30:38.460496 19579 net.cpp:425] inception_5b/pool_proj <- inception_5b/pool
I0403 02:30:38.460522 19579 net.cpp:399] inception_5b/pool_proj -> inception_5b/pool_proj
I0403 02:30:38.462256 19579 net.cpp:141] Setting up inception_5b/pool_proj
I0403 02:30:38.462296 19579 net.cpp:148] Top shape: 24 128 7 7 (150528)
I0403 02:30:38.462314 19579 net.cpp:156] Memory required for data: 1340445120
I0403 02:30:38.462349 19579 layer_factory.hpp:77] Creating layer inception_5b/relu_pool_proj
I0403 02:30:38.462384 19579 net.cpp:91] Creating Layer inception_5b/relu_pool_proj
I0403 02:30:38.462406 19579 net.cpp:425] inception_5b/relu_pool_proj <- inception_5b/pool_proj
I0403 02:30:38.462432 19579 net.cpp:386] inception_5b/relu_pool_proj -> inception_5b/pool_proj (in-place)
I0403 02:30:38.462457 19579 net.cpp:141] Setting up inception_5b/relu_pool_proj
I0403 02:30:38.462478 19579 net.cpp:148] Top shape: 24 128 7 7 (150528)
I0403 02:30:38.462496 19579 net.cpp:156] Memory required for data: 1341047232
I0403 02:30:38.462512 19579 layer_factory.hpp:77] Creating layer inception_5b/output
I0403 02:30:38.462533 19579 net.cpp:91] Creating Layer inception_5b/output
I0403 02:30:38.462553 19579 net.cpp:425] inception_5b/output <- inception_5b/1x1
I0403 02:30:38.462574 19579 net.cpp:425] inception_5b/output <- inception_5b/3x3
I0403 02:30:38.462594 19579 net.cpp:425] inception_5b/output <- inception_5b/5x5
I0403 02:30:38.462613 19579 net.cpp:425] inception_5b/output <- inception_5b/pool_proj
I0403 02:30:38.462636 19579 net.cpp:399] inception_5b/output -> inception_5b/output
I0403 02:30:38.462687 19579 net.cpp:141] Setting up inception_5b/output
I0403 02:30:38.462715 19579 net.cpp:148] Top shape: 24 1024 7 7 (1204224)
I0403 02:30:38.462736 19579 net.cpp:156] Memory required for data: 1345864128
I0403 02:30:38.462755 19579 layer_factory.hpp:77] Creating layer pool5/7x7_s1
I0403 02:30:38.462779 19579 net.cpp:91] Creating Layer pool5/7x7_s1
I0403 02:30:38.462798 19579 net.cpp:425] pool5/7x7_s1 <- inception_5b/output
I0403 02:30:38.462822 19579 net.cpp:399] pool5/7x7_s1 -> pool5/7x7_s1
I0403 02:30:38.462870 19579 net.cpp:141] Setting up pool5/7x7_s1
I0403 02:30:38.462898 19579 net.cpp:148] Top shape: 24 1024 1 1 (24576)
I0403 02:30:38.462914 19579 net.cpp:156] Memory required for data: 1345962432
I0403 02:30:38.462932 19579 layer_factory.hpp:77] Creating layer pool5/drop_7x7_s1
I0403 02:30:38.462957 19579 net.cpp:91] Creating Layer pool5/drop_7x7_s1
I0403 02:30:38.462977 19579 net.cpp:425] pool5/drop_7x7_s1 <- pool5/7x7_s1
I0403 02:30:38.463006 19579 net.cpp:386] pool5/drop_7x7_s1 -> pool5/7x7_s1 (in-place)
I0403 02:30:38.463057 19579 net.cpp:141] Setting up pool5/drop_7x7_s1
I0403 02:30:38.463083 19579 net.cpp:148] Top shape: 24 1024 1 1 (24576)
I0403 02:30:38.463100 19579 net.cpp:156] Memory required for data: 1346060736
I0403 02:30:38.463121 19579 layer_factory.hpp:77] Creating layer loss3/classifier_plantvillage
I0403 02:30:38.463151 19579 net.cpp:91] Creating Layer loss3/classifier_plantvillage
I0403 02:30:38.463176 19579 net.cpp:425] loss3/classifier_plantvillage <- pool5/7x7_s1
I0403 02:30:38.463209 19579 net.cpp:399] loss3/classifier_plantvillage -> loss3/classifier_plantvillage
I0403 02:30:38.463630 19579 net.cpp:141] Setting up loss3/classifier_plantvillage
I0403 02:30:38.463661 19579 net.cpp:148] Top shape: 24 38 (912)
I0403 02:30:38.463680 19579 net.cpp:156] Memory required for data: 1346064384
I0403 02:30:38.463701 19579 layer_factory.hpp:77] Creating layer loss3/classifier_plantvillage_loss3/classifier_plantvillage_0_split
I0403 02:30:38.463742 19579 net.cpp:91] Creating Layer loss3/classifier_plantvillage_loss3/classifier_plantvillage_0_split
I0403 02:30:38.463762 19579 net.cpp:425] loss3/classifier_plantvillage_loss3/classifier_plantvillage_0_split <- loss3/classifier_plantvillage
I0403 02:30:38.463788 19579 net.cpp:399] loss3/classifier_plantvillage_loss3/classifier_plantvillage_0_split -> loss3/classifier_plantvillage_loss3/classifier_plantvillage_0_split_0
I0403 02:30:38.463814 19579 net.cpp:399] loss3/classifier_plantvillage_loss3/classifier_plantvillage_0_split -> loss3/classifier_plantvillage_loss3/classifier_plantvillage_0_split_1
I0403 02:30:38.463840 19579 net.cpp:399] loss3/classifier_plantvillage_loss3/classifier_plantvillage_0_split -> loss3/classifier_plantvillage_loss3/classifier_plantvillage_0_split_2
I0403 02:30:38.463920 19579 net.cpp:141] Setting up loss3/classifier_plantvillage_loss3/classifier_plantvillage_0_split
I0403 02:30:38.463953 19579 net.cpp:148] Top shape: 24 38 (912)
I0403 02:30:38.463978 19579 net.cpp:148] Top shape: 24 38 (912)
I0403 02:30:38.464001 19579 net.cpp:148] Top shape: 24 38 (912)
I0403 02:30:38.464032 19579 net.cpp:156] Memory required for data: 1346075328
I0403 02:30:38.464278 19579 layer_factory.hpp:77] Creating layer loss1/loss
I0403 02:30:38.464309 19579 net.cpp:91] Creating Layer loss1/loss
I0403 02:30:38.464331 19579 net.cpp:425] loss1/loss <- loss1/classifier_plantvillage_loss1/classifier_plantvillage_0_split_0
I0403 02:30:38.464351 19579 net.cpp:425] loss1/loss <- label_data_1_split_0
…
