…
I0403 10:35:23.210799 10136 net.cpp:313] The NetState phase (0) differed from the phase (1) specified by a rule in layer loss3/top-5
I0403 10:35:23.214694 10136 net.cpp:49] Initializing net from parameters: 
state {
  phase: TRAIN
}
layer {
  name: "data"
  type: "Data"
  top: "data"
  top: "label"
  include {
    phase: TRAIN
  }
  transform_param {
    mirror: true
    crop_size: 224
    mean_file: "/home/mohanty/data/final_dataset/lmdb/color-20-80/mean.binaryproto"
  }
  data_param {
    source: "/home/mohanty/data/final_dataset/lmdb/color-20-80/train_db"
    batch_size: 24
    backend: LMDB
  }
}
layer {
  name: "conv1/7x7_s2"
  type: "Convolution"
  bottom: "data"
  top: "conv1/7x7_s2"
  param {
    lr_mult: 1
    decay_mult: 1
  }
  param {
    lr_mult: 2
    decay_mult: 0
  }
  convolution_param {
    num_output: 64
    pad: 3
    kernel_size: 7
    stride: 2
    weight_filler {
      type: "xavier"
      std: 0.1
    }
    bias_filler {
      type: "constant"
      value: 0.2
    }
  }
}
layer {
  name: "conv1/relu_7x7"
  type: "ReLU"
  bottom: "conv1/7x7_s2"
  top: "conv1/7x7_s2"
}
layer {
  name: "pool1/3x3_s2"
  type: "Pooling"
  bottom: "conv1/7x7_s2"
  top: "pool1/3x3_s2"
  pooling_param {
    pool: MAX
    kernel_size: 3
    stride: 2
  }
}
layer {
  name: "pool1/norm1"
  type: "LRN"
  bottom: "pool1/3x3_s2"
  top: "pool1/norm1"
  lrn_param {
    local_size: 5
    alpha: 0.0001
    beta: 0.75
  }
}
layer {
  name: "conv2/3x3_reduce"
  type: "Convolution"
  bottom: "pool1/norm1"
  top: "conv2/3x3_reduce"
  param {
    lr_mult: 1
    decay_mult: 1
  }
  param {
    lr_mult: 2
    decay_mult: 0
  }
  convolution_param {
    num_output: 64
    kernel_size: 1
    weight_filler {
      type: "xavier"
      std: 0.1
    }
    bias_filler {
      type: "constant"
      value: 0.2
    }
  }
}
layer {
  name: "conv2/relu_3x3_reduce"
  type: "ReLU"
  bottom: "conv2/3x3_reduce"
  top: "conv2/3x3_reduce"
}
layer {
  name: "conv2/3x3"
  type: "Convolution"
  bottom: "conv2/3x3_reduce"
  top: "conv2/3x3"
  param {
    lr_mult: 1
    decay_mult: 1
  }
  param {
    lr_mult: 2
    decay_mult: 0
  }
  convolution_param {
    num_output: 192
    pad: 1
    kernel_size: 3
    weight_filler {
      type: "xavier"
      std: 0.03
    }
    bias_filler {
      type: "constant"
      value: 0.2
    }
  }
}
layer {
  name: "conv2/relu_3x3"
  type: "ReLU"
  bottom: "conv2/3x3"
  top: "conv2/3x3"
}
layer {
  name: "conv2/norm2"
  type: "LRN"
  bottom: "conv2/3x3"
  top: "conv2/norm2"
  lrn_param {
    local_size: 5
    alpha: 0.0001
    beta: 0.75
  }
}
layer {
  name: "pool2/3x3_s2"
  type: "Pooling"
  bottom: "conv2/norm2"
  top: "pool2/3x3_s2"
  pooling_param {
    pool: MAX
    kernel_size: 3
    stride: 2
  }
}
layer {
  name: "inception_3a/1x1"
  type: "Convolution"
  bottom: "pool2/3x3_s2"
  top: "inception_3a/1x1"
  param {
    lr_mult: 1
    decay_mult: 1
  }
  param {
    lr_mult: 2
    decay_mult: 0
  }
  convolution_param {
    num_output: 64
    kernel_size: 1
    weight_filler {
      type: "xavier"
      std: 0.03
    }
    bias_filler {
      type: "constant"
      value: 0.2
    }
  }
}
layer {
  name: "inception_3a/relu_1x1"
  type: "ReLU"
  bottom: "inception_3a/1x1"
  top: "inception_3a/1x1"
}
layer {
  name: "inception_3a/3x3_reduce"
  type: "Convolution"
  bottom: "pool2/3x3_s2"
  top: "inception_3a/3x3_reduce"
  param {
    lr_mult: 1
    decay_mult: 1
  }
  param {
    lr_mult: 2
    decay_mult: 0
  }
  convolution_param {
    num_output: 96
    kernel_size: 1
    weight_filler {
      type: "xavier"
      std: 0.09
    }
    bias_filler {
      type: "constant"
      value: 0.2
    }
  }
}
layer {
  name: "inception_3a/relu_3x3_reduce"
  type: "ReLU"
  bottom: "inception_3a/3x3_reduce"
  top: "inception_3a/3x3_reduce"
}
layer {
  name: "inception_3a/3x3"
  type: "Convolution"
  bottom: "inception_3a/3x3_reduce"
  top: "inception_3a/3x3"
  param {
    lr_mult: 1
    decay_mult: 1
  }
  param {
    lr_mult: 2
    decay_mult: 0
  }
  convolution_param {
    num_output: 128
    pad: 1
    kernel_size: 3
    weight_filler {
      type: "xavier"
      std: 0.03
    }
    bias_filler {
      type: "constant"
      value: 0.2
    }
  }
}
layer {
  name: "inception_3a/relu_3x3"
  type: "ReLU"
  bottom: "inception_3a/3x3"
  top: "inception_3a/3x3"
}
layer {
  name: "inception_3a/5x5_reduce"
  type: "Convolution"
  bottom: "pool2/3x3_s2"
  top: "inception_3a/5x5_reduce"
  param {
    lr_mult: 1
    decay_mult: 1
  }
  param {
    lr_mult: 2
    decay_mult: 0
  }
  convolution_param {
    num_output: 16
    kernel_size: 1
    weight_filler {
      type: "xavier"
      std: 0.2
    }
    bias_filler {
      type: "constant"
      value: 0.2
    }
  }
}
layer {
  name: "inception_3a/relu_5x5_reduce"
  type: "ReLU"
  bottom: "inception_3a/5x5_reduce"
  top: "inception_3a/5x5_reduce"
}
layer {
  name: "inception_3a/5x5"
  type: "Convolution"
  bottom: "inception_3a/5x5_reduce"
  top: "inception_3a/5x5"
  param {
    lr_mult: 1
    decay_mult: 1
  }
  param {
    lr_mult: 2
    decay_mult: 0
  }
  convolution_param {
    num_output: 32
    pad: 2
    kernel_size: 5
    weight_filler {
      type: "xavier"
      std: 0.03
    }
    bias_filler {
      type: "constant"
      value: 0.2
    }
  }
}
layer {
  name: "inception_3a/relu_5x5"
  type: "ReLU"
  bottom: "inception_3a/5x5"
  top: "inception_3a/5x5"
}
layer {
  name: "inception_3a/pool"
  type: "Pooling"
  bottom: "pool2/3x3_s2"
  top: "inception_3a/pool"
  pooling_param {
    pool: MAX
    kernel_size: 3
    stride: 1
    pad: 1
  }
}
layer {
  name: "inception_3a/pool_proj"
  type: "Convolution"
  bottom: "inception_3a/pool"
  top: "inception_3a/pool_proj"
  param {
    lr_mult: 1
    decay_mult: 1
  }
  param {
    lr_mult: 2
    decay_mult: 0
  }
  convolution_param {
    num_output: 32
    kernel_size: 1
    weight_filler {
      type: "xavier"
      std: 0.1
    }
    bias_filler {
      type: "constant"
      value: 0.2
    }
  }
}
layer {
  name: "inception_3a/relu_pool_proj"
  type: "ReLU"
  bottom: "inception_3a/pool_proj"
  top: "inception_3a/pool_proj"
}
layer {
  name: "inception_3a/output"
  type: "Concat"
  bottom: "inception_3a/1x1"
  bottom: "inception_3a/3x3"
  bottom: "inception_3a/5x5"
  bottom: "inception_3a/pool_proj"
  top: "inception_3a/output"
}
layer {
  name: "inception_3b/1x1"
  type: "Convolution"
  bottom: "inception_3a/output"
  top: "inception_3b/1x1"
  param {
    lr_mult: 1
    decay_mult: 1
  }
  param {
    lr_mult: 2
    decay_mult: 0
  }
  convolution_param {
    num_output: 128
    kernel_size: 1
    weight_filler {
      type: "xavier"
      std: 0.03
    }
    bias_filler {
      type: "constant"
      value: 0.2
    }
  }
}
layer {
  name: "inception_3b/relu_1x1"
  type: "ReLU"
  bottom: "inception_3b/1x1"
  top: "inception_3b/1x1"
}
layer {
  name: "inception_3b/3x3_reduce"
  type: "Convolution"
  bottom: "inception_3a/output"
  top: "inception_3b/3x3_reduce"
  param {
    lr_mult: 1
    decay_mult: 1
  }
  param {
    lr_mult: 2
    decay_mult: 0
  }
  convolution_param {
    num_output: 128
    kernel_size: 1
    weight_filler {
      type: "xavier"
      std: 0.09
    }
    bias_filler {
      type: "constant"
      value: 0.2
    }
  }
}
layer {
  name: "inception_3b/relu_3x3_reduce"
  type: "ReLU"
  bottom: "inception_3b/3x3_reduce"
  top: "inception_3b/3x3_reduce"
}
layer {
  name: "inception_3b/3x3"
  type: "Convolution"
  bottom: "inception_3b/3x3_reduce"
  top: "inception_3b/3x3"
  param {
    lr_mult: 1
    decay_mult: 1
  }
  param {
    lr_mult: 2
    decay_mult: 0
  }
  convolution_param {
    num_output: 192
    pad: 1
    kernel_size: 3
    weight_filler {
      type: "xavier"
      std: 0.03
    }
    bias_filler {
      type: "constant"
      value: 0.2
    }
  }
}
layer {
  name: "inception_3b/relu_3x3"
  type: "ReLU"
  bottom: "inception_3b/3x3"
  top: "inception_3b/3x3"
}
layer {
  name: "inception_3b/5x5_reduce"
  type: "Convolution"
  bottom: "inception_3a/output"
  top: "inception_3b/5x5_reduce"
  param {
    lr_mult: 1
    decay_mult: 1
  }
  param {
    lr_mult: 2
    decay_mult: 0
  }
  convolution_param {
    num_output: 32
    kernel_size: 1
    weight_filler {
      type: "xavier"
      std: 0.2
    }
    bias_filler {
      type: "constant"
      value: 0.2
    }
  }
}
layer {
  name: "inception_3b/relu_5x5_reduce"
  type: "ReLU"
  bottom: "inception_3b/5x5_reduce"
  top: "inception_3b/5x5_reduce"
}
layer {
  name: "inception_3b/5x5"
  type: "Convolution"
  bottom: "inception_3b/5x5_reduce"
  top: "inception_3b/5x5"
  param {
    lr_mult: 1
    decay_mult: 1
  }
  param {
    lr_mult: 2
    decay_mult: 0
  }
  convolution_param {
    num_output: 96
    pad: 2
    kernel_size: 5
    weight_filler {
      type: "xavier"
      std: 0.03
    }
    bias_filler {
      type: "constant"
      value: 0.2
    }
  }
}
layer {
  name: "inception_3b/relu_5x5"
  type: "ReLU"
  bottom: "inception_3b/5x5"
  top: "inception_3b/5x5"
}
layer {
  name: "inception_3b/pool"
  type: "Pooling"
  bottom: "inception_3a/output"
  top: "inception_3b/pool"
  pooling_param {
    pool: MAX
    kernel_size: 3
    stride: 1
    pad: 1
  }
}
layer {
  name: "inception_3b/pool_proj"
  type: "Convolution"
  bottom: "inception_3b/pool"
  top: "inception_3b/pool_proj"
  param {
    lr_mult: 1
    decay_mult: 1
  }
  param {
    lr_mult: 2
    decay_mult: 0
  }
  convolution_param {
    num_output: 64
    kernel_size: 1
    weight_filler {
      type: "xavier"
      std: 0.1
    }
    bias_filler {
      type: "constant"
      value: 0.2
    }
  }
}
layer {
  name: "inception_3b/relu_pool_proj"
  type: "ReLU"
  bottom: "inception_3b/pool_proj"
  top: "inception_3b/pool_proj"
}
layer {
  name: "inception_3b/output"
  type: "Concat"
  bottom: "inception_3b/1x1"
  bottom: "inception_3b/3x3"
  bottom: "inception_3b/5x5"
  bottom: "inception_3b/pool_proj"
  top: "inception_3b/output"
}
layer {
  name: "pool3/3x3_s2"
  type: "Pooling"
  bottom: "inception_3b/output"
  top: "pool3/3x3_s2"
  pooling_param {
    pool: MAX
    kernel_size: 3
    stride: 2
  }
}
layer {
  name: "inception_4a/1x1"
  type: "Convolution"
  bottom: "pool3/3x3_s2"
  top: "inception_4a/1x1"
  param {
    lr_mult: 1
    decay_mult: 1
  }
  param {
    lr_mult: 2
    decay_mult: 0
  }
  convolution_param {
    num_output: 192
    kernel_size: 1
    weight_filler {
      type: "xavier"
      std: 0.03
    }
    bias_filler {
      type: "constant"
      value: 0.2
    }
  }
}
layer {
  name: "inception_4a/relu_1x1"
  type: "ReLU"
  bottom: "inception_4a/1x1"
  top: "inception_4a/1x1"
}
layer {
  name: "inception_4a/3x3_reduce"
  type: "Convolution"
  bottom: "pool3/3x3_s2"
  top: "inception_4a/3x3_reduce"
  param {
    lr_mult: 1
    decay_mult: 1
  }
  param {
    lr_mult: 2
    decay_mult: 0
  }
  convolution_param {
    num_output: 96
    kernel_size: 1
    weight_filler {
      type: "xavier"
      std: 0.09
    }
    bias_filler {
      type: "constant"
      value: 0.2
    }
  }
}
layer {
  name: "inception_4a/relu_3x3_reduce"
  type: "ReLU"
  bottom: "inception_4a/3x3_reduce"
  top: "inception_4a/3x3_reduce"
}
layer {
  name: "inception_4a/3x3"
  type: "Convolution"
  bottom: "inception_4a/3x3_reduce"
  top: "inception_4a/3x3"
  param {
    lr_mult: 1
    decay_mult: 1
  }
  param {
    lr_mult: 2
    decay_mult: 0
  }
  convolution_param {
    num_output: 208
    pad: 1
    kernel_size: 3
    weight_filler {
      type: "xavier"
      std: 0.03
    }
    bias_filler {
      type: "constant"
      value: 0.2
    }
  }
}
layer {
  name: "inception_4a/relu_3x3"
  type: "ReLU"
  bottom: "inception_4a/3x3"
  top: "inception_4a/3x3"
}
layer {
  name: "inception_4a/5x5_reduce"
  type: "Convolution"
  bottom: "pool3/3x3_s2"
  top: "inception_4a/5x5_reduce"
  param {
    lr_mult: 1
    decay_mult: 1
  }
  param {
    lr_mult: 2
    decay_mult: 0
  }
  convolution_param {
    num_output: 16
    kernel_size: 1
    weight_filler {
      type: "xavier"
      std: 0.2
    }
    bias_filler {
      type: "constant"
      value: 0.2
    }
  }
}
layer {
  name: "inception_4a/relu_5x5_reduce"
  type: "ReLU"
  bottom: "inception_4a/5x5_reduce"
  top: "inception_4a/5x5_reduce"
}
layer {
  name: "inception_4a/5x5"
  type: "Convolution"
  bottom: "inception_4a/5x5_reduce"
  top: "inception_4a/5x5"
  param {
    lr_mult: 1
    decay_mult: 1
  }
  param {
    lr_mult: 2
    decay_mult: 0
  }
  convolution_param {
    num_output: 48
    pad: 2
    kernel_size: 5
    weight_filler {
      type: "xavier"
      std: 0.03
    }
    bias_filler {
      type: "constant"
      value: 0.2
    }
  }
}
layer {
  name: "inception_4a/relu_5x5"
  type: "ReLU"
  bottom: "inception_4a/5x5"
  top: "inception_4a/5x5"
}
layer {
  name: "inception_4a/pool"
  type: "Pooling"
  bottom: "pool3/3x3_s2"
  top: "inception_4a/pool"
  pooling_param {
    pool: MAX
    kernel_size: 3
    stride: 1
    pad: 1
  }
}
layer {
  name: "inception_4a/pool_proj"
  type: "Convolution"
  bottom: "inception_4a/pool"
  top: "inception_4a/pool_proj"
  param {
    lr_mult: 1
    decay_mult: 1
  }
  param {
    lr_mult: 2
    decay_mult: 0
  }
  convolution_param {
    num_output: 64
    kernel_size: 1
    weight_filler {
      type: "xavier"
      std: 0.1
    }
    bias_filler {
      type: "constant"
      value: 0.2
    }
  }
}
layer {
  name: "inception_4a/relu_pool_proj"
  type: "ReLU"
  bottom: "inception_4a/pool_proj"
  top: "inception_4a/pool_proj"
}
layer {
  name: "inception_4a/output"
  type: "Concat"
  bottom: "inception_4a/1x1"
  bottom: "inception_4a/3x3"
  bottom: "inception_4a/5x5"
  bottom: "inception_4a/pool_proj"
  top: "inception_4a/output"
}
layer {
  name: "loss1/ave_pool"
  type: "Pooling"
  bottom: "inception_4a/output"
  top: "loss1/ave_pool"
  pooling_param {
    pool: AVE
    kernel_size: 5
    stride: 3
  }
}
layer {
  name: "loss1/conv"
  type: "Convolution"
  bottom: "loss1/ave_pool"
  top: "loss1/conv"
  param {
    lr_mult: 1
    decay_mult: 1
  }
  param {
    lr_mult: 2
    decay_mult: 0
  }
  convolution_param {
    num_output: 128
    kernel_size: 1
    weight_filler {
      type: "xavier"
      std: 0.08
    }
    bias_filler {
      type: "constant"
      value: 0.2
    }
  }
}
layer {
  name: "loss1/relu_conv"
  type: "ReLU"
  bottom: "loss1/conv"
  top: "loss1/conv"
}
layer {
  name: "loss1/fc"
  type: "InnerProduct"
  bottom: "loss1/conv"
  top: "loss1/fc"
  param {
    lr_mult: 1
    decay_mult: 1
  }
  param {
    lr_mult: 2
    decay_mult: 0
  }
  inner_product_param {
    num_output: 1024
    weight_filler {
      type: "xavier"
      std: 0.02
    }
    bias_filler {
      type: "constant"
      value: 0.2
    }
  }
}
layer {
  name: "loss1/relu_fc"
  type: "ReLU"
  bottom: "loss1/fc"
  top: "loss1/fc"
}
layer {
  name: "loss1/drop_fc"
  type: "Dropout"
  bottom: "loss1/fc"
  top: "loss1/fc"
  dropout_param {
    dropout_ratio: 0.7
  }
}
layer {
  name: "loss1/classifier_plantvillage"
  type: "InnerProduct"
  bottom: "loss1/fc"
  top: "loss1/classifier_plantvillage"
  param {
    lr_mult: 1
    decay_mult: 1
  }
  param {
    lr_mult: 2
    decay_mult: 0
  }
  inner_product_param {
    num_output: 38
    weight_filler {
      type: "xavier"
      std: 0.0009765625
    }
    bias_filler {
      type: "constant"
      value: 0
    }
  }
}
layer {
  name: "inception_4b/1x1"
  type: "Convolution"
  bottom: "inception_4a/output"
  top: "inception_4b/1x1"
  param {
    lr_mult: 1
    decay_mult: 1
  }
  param {
    lr_mult: 2
    decay_mult: 0
  }
  convolution_param {
    num_output: 160
    kernel_size: 1
    weight_filler {
      type: "xavier"
      std: 0.03
    }
    bias_filler {
      type: "constant"
      value: 0.2
    }
  }
}
layer {
  name: "inception_4b/relu_1x1"
  type: "ReLU"
  bottom: "inception_4b/1x1"
  top: "inception_4b/1x1"
}
layer {
  name: "inception_4b/3x3_reduce"
  type: "Convolution"
  bottom: "inception_4a/output"
  top: "inception_4b/3x3_reduce"
  param {
    lr_mult: 1
    decay_mult: 1
  }
  param {
    lr_mult: 2
    decay_mult: 0
  }
  convolution_param {
    num_output: 112
    kernel_size: 1
    weight_filler {
      type: "xavier"
      std: 0.09
    }
    bias_filler {
      type: "constant"
      value: 0.2
    }
  }
}
layer {
  name: "inception_4b/relu_3x3_reduce"
  type: "ReLU"
  bottom: "inception_4b/3x3_reduce"
  top: "inception_4b/3x3_reduce"
}
layer {
  name: "inception_4b/3x3"
  type: "Convolution"
  bottom: "inception_4b/3x3_reduce"
  top: "inception_4b/3x3"
  param {
    lr_mult: 1
    decay_mult: 1
  }
  param {
    lr_mult: 2
    decay_mult: 0
  }
  convolution_param {
    num_output: 224
    pad: 1
    kernel_size: 3
    weight_filler {
      type: "xavier"
      std: 0.03
    }
    bias_filler {
      type: "constant"
      value: 0.2
    }
  }
}
layer {
  name: "inception_4b/relu_3x3"
  type: "ReLU"
  bottom: "inception_4b/3x3"
  top: "inception_4b/3x3"
}
layer {
  name: "inception_4b/5x5_reduce"
  type: "Convolution"
  bottom: "inception_4a/output"
  top: "inception_4b/5x5_reduce"
  param {
    lr_mult: 1
    decay_mult: 1
  }
  param {
    lr_mult: 2
    decay_mult: 0
  }
  convolution_param {
    num_output: 24
    kernel_size: 1
    weight_filler {
      type: "xavier"
      std: 0.2
    }
    bias_filler {
      type: "constant"
      value: 0.2
    }
  }
}
layer {
  name: "inception_4b/relu_5x5_reduce"
  type: "ReLU"
  bottom: "inception_4b/5x5_reduce"
  top: "inception_4b/5x5_reduce"
}
layer {
  name: "inception_4b/5x5"
  type: "Convolution"
  bottom: "inception_4b/5x5_reduce"
  top: "inception_4b/5x5"
  param {
    lr_mult: 1
    decay_mult: 1
  }
  param {
    lr_mult: 2
    decay_mult: 0
  }
  convolution_param {
    num_output: 64
    pad: 2
    kernel_size: 5
    weight_filler {
      type: "xavier"
      std: 0.03
    }
    bias_filler {
      type: "constant"
      value: 0.2
    }
  }
}
layer {
  name: "inception_4b/relu_5x5"
  type: "ReLU"
  bottom: "inception_4b/5x5"
  top: "inception_4b/5x5"
}
layer {
  name: "inception_4b/pool"
  type: "Pooling"
  bottom: "inception_4a/output"
  top: "inception_4b/pool"
  pooling_param {
    pool: MAX
    kernel_size: 3
    stride: 1
    pad: 1
  }
}
layer {
  name: "inception_4b/pool_proj"
  type: "Convolution"
  bottom: "inception_4b/pool"
  top: "inception_4b/pool_proj"
  param {
    lr_mult: 1
    decay_mult: 1
  }
  param {
    lr_mult: 2
    decay_mult: 0
  }
  convolution_param {
    num_output: 64
    kernel_size: 1
    weight_filler {
      type: "xavier"
      std: 0.1
    }
    bias_filler {
      type: "constant"
      value: 0.2
    }
  }
}
layer {
  name: "inception_4b/relu_pool_proj"
  type: "ReLU"
  bottom: "inception_4b/pool_proj"
  top: "inception_4b/pool_proj"
}
layer {
  name: "inception_4b/output"
  type: "Concat"
  bottom: "inception_4b/1x1"
  bottom: "inception_4b/3x3"
  bottom: "inception_4b/5x5"
  bottom: "inception_4b/pool_proj"
  top: "inception_4b/output"
}
layer {
  name: "inception_4c/1x1"
  type: "Convolution"
  bottom: "inception_4b/output"
  top: "inception_4c/1x1"
  param {
    lr_mult: 1
    decay_mult: 1
  }
  param {
    lr_mult: 2
    decay_mult: 0
  }
  convolution_param {
    num_output: 128
    kernel_size: 1
    weight_filler {
      type: "xavier"
      std: 0.03
    }
    bias_filler {
      type: "constant"
      value: 0.2
    }
  }
}
layer {
  name: "inception_4c/relu_1x1"
  type: "ReLU"
  bottom: "inception_4c/1x1"
  top: "inception_4c/1x1"
}
layer {
  name: "inception_4c/3x3_reduce"
  type: "Convolution"
  bottom: "inception_4b/output"
  top: "inception_4c/3x3_reduce"
  param {
    lr_mult: 1
    decay_mult: 1
  }
  param {
    lr_mult: 2
    decay_mult: 0
  }
  convolution_param {
    num_output: 128
    kernel_size: 1
    weight_filler {
      type: "xavier"
      std: 0.09
    }
    bias_filler {
      type: "constant"
      value: 0.2
    }
  }
}
layer {
  name: "inception_4c/relu_3x3_reduce"
  type: "ReLU"
  bottom: "inception_4c/3x3_reduce"
  top: "inception_4c/3x3_reduce"
}
layer {
  name: "inception_4c/3x3"
  type: "Convolution"
  bottom: "inception_4c/3x3_reduce"
  top: "inception_4c/3x3"
  param {
    lr_mult: 1
    decay_mult: 1
  }
  param {
    lr_mult: 2
    decay_mult: 0
  }
  convolution_param {
    num_output: 256
    pad: 1
    kernel_size: 3
    weight_filler {
      type: "xavier"
      std: 0.03
    }
    bias_filler {
      type: "constant"
      value: 0.2
    }
  }
}
layer {
  name: "inception_4c/relu_3x3"
  type: "ReLU"
  bottom: "inception_4c/3x3"
  top: "inception_4c/3x3"
}
layer {
  name: "inception_4c/5x5_reduce"
  type: "Convolution"
  bottom: "inception_4b/output"
  top: "inception_4c/5x5_reduce"
  param {
    lr_mult: 1
    decay_mult: 1
  }
  param {
    lr_mult: 2
    decay_mult: 0
  }
  convolution_param {
    num_output: 24
    kernel_size: 1
    weight_filler {
      type: "xavier"
      std: 0.2
    }
    bias_filler {
      type: "constant"
      value: 0.2
    }
  }
}
layer {
  name: "inception_4c/relu_5x5_reduce"
  type: "ReLU"
  bottom: "inception_4c/5x5_reduce"
  top: "inception_4c/5x5_reduce"
}
layer {
  name: "inception_4c/5x5"
  type: "Convolution"
  bottom: "inception_4c/5x5_reduce"
  top: "inception_4c/5x5"
  param {
    lr_mult: 1
    decay_mult: 1
  }
  param {
    lr_mult: 2
    decay_mult: 0
  }
  convolution_param {
    num_output: 64
    pad: 2
    kernel_size: 5
    weight_filler {
      type: "xavier"
      std: 0.03
    }
    bias_filler {
      type: "constant"
      value: 0.2
    }
  }
}
layer {
  name: "inception_4c/relu_5x5"
  type: "ReLU"
  bottom: "inception_4c/5x5"
  top: "inception_4c/5x5"
}
layer {
  name: "inception_4c/pool"
  type: "Pooling"
  bottom: "inception_4b/output"
  top: "inception_4c/pool"
  pooling_param {
    pool: MAX
    kernel_size: 3
    stride: 1
    pad: 1
  }
}
layer {
  name: "inception_4c/pool_proj"
  type: "Convolution"
  bottom: "inception_4c/pool"
  top: "inception_4c/pool_proj"
  param {
    lr_mult: 1
    decay_mult: 1
  }
  param {
    lr_mult: 2
    decay_mult: 0
  }
  convolution_param {
    num_output: 64
    kernel_size: 1
    weight_filler {
      type: "xavier"
      std: 0.1
    }
    bias_filler {
      type: "constant"
      value: 0.2
    }
  }
}
layer {
  name: "inception_4c/relu_pool_proj"
  type: "ReLU"
  bottom: "inception_4c/pool_proj"
  top: "inception_4c/pool_proj"
}
layer {
  name: "inception_4c/output"
  type: "Concat"
  bottom: "inception_4c/1x1"
  bottom: "inception_4c/3x3"
  bottom: "inception_4c/5x5"
  bottom: "inception_4c/pool_proj"
  top: "inception_4c/output"
}
layer {
  name: "inception_4d/1x1"
  type: "Convolution"
  bottom: "inception_4c/output"
  top: "inception_4d/1x1"
  param {
    lr_mult: 1
    decay_mult: 1
  }
  param {
    lr_mult: 2
    decay_mult: 0
  }
  convolution_param {
    num_output: 112
    kernel_size: 1
    weight_filler {
      type: "xavier"
      std: 0.03
    }
    bias_filler {
      type: "constant"
      value: 0.2
    }
  }
}
layer {
  name: "inception_4d/relu_1x1"
  type: "ReLU"
  bottom: "inception_4d/1x1"
  top: "inception_4d/1x1"
}
layer {
  name: "inception_4d/3x3_reduce"
  type: "Convolution"
  bottom: "inception_4c/output"
  top: "inception_4d/3x3_reduce"
  param {
    lr_mult: 1
    decay_mult: 1
  }
  param {
    lr_mult: 2
    decay_mult: 0
  }
  convolution_param {
    num_output: 144
    kernel_size: 1
    weight_filler {
      type: "xavier"
      std: 0.09
    }
    bias_filler {
      type: "constant"
      value: 0.2
    }
  }
}
layer {
  name: "inception_4d/relu_3x3_reduce"
  type: "ReLU"
  bottom: "inception_4d/3x3_reduce"
  top: "inception_4d/3x3_reduce"
}
layer {
  name: "inception_4d/3x3"
  type: "Convolution"
  bottom: "inception_4d/3x3_reduce"
  top: "inception_4d/3x3"
  param {
    lr_mult: 1
    decay_mult: 1
  }
  param {
    lr_mult: 2
    decay_mult: 0
  }
  convolution_param {
    num_output: 288
    pad: 1
    kernel_size: 3
    weight_filler {
      type: "xavier"
      std: 0.03
    }
    bias_filler {
      type: "constant"
      value: 0.2
    }
  }
}
layer {
  name: "inception_4d/relu_3x3"
  type: "ReLU"
  bottom: "inception_4d/3x3"
  top: "inception_4d/3x3"
}
layer {
  name: "inception_4d/5x5_reduce"
  type: "Convolution"
  bottom: "inception_4c/output"
  top: "inception_4d/5x5_reduce"
  param {
    lr_mult: 1
    decay_mult: 1
  }
  param {
    lr_mult: 2
    decay_mult: 0
  }
  convolution_param {
    num_output: 32
    kernel_size: 1
    weight_filler {
      type: "xavier"
      std: 0.2
    }
    bias_filler {
      type: "constant"
      value: 0.2
    }
  }
}
layer {
  name: "inception_4d/relu_5x5_reduce"
  type: "ReLU"
  bottom: "inception_4d/5x5_reduce"
  top: "inception_4d/5x5_reduce"
}
layer {
  name: "inception_4d/5x5"
  type: "Convolution"
  bottom: "inception_4d/5x5_reduce"
  top: "inception_4d/5x5"
  param {
    lr_mult: 1
    decay_mult: 1
  }
  param {
    lr_mult: 2
    decay_mult: 0
  }
  convolution_param {
    num_output: 64
    pad: 2
    kernel_size: 5
    weight_filler {
      type: "xavier"
      std: 0.03
    }
    bias_filler {
      type: "constant"
      value: 0.2
    }
  }
}
layer {
  name: "inception_4d/relu_5x5"
  type: "ReLU"
  bottom: "inception_4d/5x5"
  top: "inception_4d/5x5"
}
layer {
  name: "inception_4d/pool"
  type: "Pooling"
  bottom: "inception_4c/output"
  top: "inception_4d/pool"
  pooling_param {
    pool: MAX
    kernel_size: 3
    stride: 1
    pad: 1
  }
}
layer {
  name: "inception_4d/pool_proj"
  type: "Convolution"
  bottom: "inception_4d/pool"
  top: "inception_4d/pool_proj"
  param {
    lr_mult: 1
    decay_mult: 1
  }
  param {
    lr_mult: 2
    decay_mult: 0
  }
  convolution_param {
    num_output: 64
    kernel_size: 1
    weight_filler {
      type: "xavier"
      std: 0.1
    }
    bias_filler {
      type: "constant"
      value: 0.2
    }
  }
}
layer {
  name: "inception_4d/relu_pool_proj"
  type: "ReLU"
  bottom: "inception_4d/pool_proj"
  top: "inception_4d/pool_proj"
}
layer {
  name: "inception_4d/output"
  type: "Concat"
  bottom: "inception_4d/1x1"
  bottom: "inception_4d/3x3"
  bottom: "inception_4d/5x5"
  bottom: "inception_4d/pool_proj"
  top: "inception_4d/output"
}
layer {
  name: "loss2/ave_pool"
  type: "Pooling"
  bottom: "inception_4d/output"
  top: "loss2/ave_pool"
  pooling_param {
    pool: AVE
    kernel_size: 5
    stride: 3
  }
}
layer {
  name: "loss2/conv"
  type: "Convolution"
  bottom: "loss2/ave_pool"
  top: "loss2/conv"
  param {
    lr_mult: 1
    decay_mult: 1
  }
  param {
    lr_mult: 2
    decay_mult: 0
  }
  convolution_param {
    num_output: 128
    kernel_size: 1
    weight_filler {
      type: "xavier"
      std: 0.08
    }
    bias_filler {
      type: "constant"
      value: 0.2
    }
  }
}
layer {
  name: "loss2/relu_conv"
  type: "ReLU"
  bottom: "loss2/conv"
  top: "loss2/conv"
}
layer {
  name: "loss2/fc"
  type: "InnerProduct"
  bottom: "loss2/conv"
  top: "loss2/fc"
  param {
    lr_mult: 1
    decay_mult: 1
  }
  param {
    lr_mult: 2
    decay_mult: 0
  }
  inner_product_param {
    num_output: 1024
    weight_filler {
      type: "xavier"
      std: 0.02
    }
    bias_filler {
      type: "constant"
      value: 0.2
    }
  }
}
layer {
  name: "loss2/relu_fc"
  type: "ReLU"
  bottom: "loss2/fc"
  top: "loss2/fc"
}
layer {
  name: "loss2/drop_fc"
  type: "Dropout"
  bottom: "loss2/fc"
  top: "loss2/fc"
  dropout_param {
    dropout_ratio: 0.7
  }
}
layer {
  name: "loss2/classifier_plantvillage"
  type: "InnerProduct"
  bottom: "loss2/fc"
  top: "loss2/classifier_plantvillage"
  param {
    lr_mult: 1
    decay_mult: 1
  }
  param {
    lr_mult: 2
    decay_mult: 0
  }
  inner_product_param {
    num_output: 38
    weight_filler {
      type: "xavier"
      std: 0.0009765625
    }
    bias_filler {
      type: "constant"
      value: 0
    }
  }
}
layer {
  name: "inception_4e/1x1"
  type: "Convolution"
  bottom: "inception_4d/output"
  top: "inception_4e/1x1"
  param {
    lr_mult: 1
    decay_mult: 1
  }
  param {
    lr_mult: 2
    decay_mult: 0
  }
  convolution_param {
    num_output: 256
    kernel_size: 1
    weight_filler {
      type: "xavier"
      std: 0.03
    }
    bias_filler {
      type: "constant"
      value: 0.2
    }
  }
}
layer {
  name: "inception_4e/relu_1x1"
  type: "ReLU"
  bottom: "inception_4e/1x1"
  top: "inception_4e/1x1"
}
layer {
  name: "inception_4e/3x3_reduce"
  type: "Convolution"
  bottom: "inception_4d/output"
  top: "inception_4e/3x3_reduce"
  param {
    lr_mult: 1
    decay_mult: 1
  }
  param {
    lr_mult: 2
    decay_mult: 0
  }
  convolution_param {
    num_output: 160
    kernel_size: 1
    weight_filler {
      type: "xavier"
      std: 0.09
    }
    bias_filler {
      type: "constant"
      value: 0.2
    }
  }
}
layer {
  name: "inception_4e/relu_3x3_reduce"
  type: "ReLU"
  bottom: "inception_4e/3x3_reduce"
  top: "inception_4e/3x3_reduce"
}
layer {
  name: "inception_4e/3x3"
  type: "Convolution"
  bottom: "inception_4e/3x3_reduce"
  top: "inception_4e/3x3"
  param {
    lr_mult: 1
    decay_mult: 1
  }
  param {
    lr_mult: 2
    decay_mult: 0
  }
  convolution_param {
    num_output: 320
    pad: 1
    kernel_size: 3
    weight_filler {
      type: "xavier"
      std: 0.03
    }
    bias_filler {
      type: "constant"
      value: 0.2
    }
  }
}
layer {
  name: "inception_4e/relu_3x3"
  type: "ReLU"
  bottom: "inception_4e/3x3"
  top: "inception_4e/3x3"
}
layer {
  name: "inception_4e/5x5_reduce"
  type: "Convolution"
  bottom: "inception_4d/output"
  top: "inception_4e/5x5_reduce"
  param {
    lr_mult: 1
    decay_mult: 1
  }
  param {
    lr_mult: 2
    decay_mult: 0
  }
  convolution_param {
    num_output: 32
    kernel_size: 1
    weight_filler {
      type: "xavier"
      std: 0.2
    }
    bias_filler {
      type: "constant"
      value: 0.2
    }
  }
}
layer {
  name: "inception_4e/relu_5x5_reduce"
  type: "ReLU"
  bottom: "inception_4e/5x5_reduce"
  top: "inception_4e/5x5_reduce"
}
layer {
  name: "inception_4e/5x5"
  type: "Convolution"
  bottom: "inception_4e/5x5_reduce"
  top: "inception_4e/5x5"
 
I0403 10:35:23.215900 10136 layer_factory.hpp:77] Creating layer data
I0403 10:35:23.216552 10136 net.cpp:91] Creating Layer data
I0403 10:35:23.216591 10136 net.cpp:399] data -> data
I0403 10:35:23.216650 10136 net.cpp:399] data -> label
I0403 10:35:23.216686 10136 data_transformer.cpp:25] Loading mean file from: /home/mohanty/data/final_dataset/lmdb/color-20-80/mean.binaryproto
I0403 10:35:23.305282 10138 db_lmdb.cpp:38] Opened lmdb /home/mohanty/data/final_dataset/lmdb/color-20-80/train_db
I0403 10:35:23.315071 10136 data_layer.cpp:41] output data size: 24,3,224,224
I0403 10:35:23.343936 10136 net.cpp:141] Setting up data
I0403 10:35:23.344008 10136 net.cpp:148] Top shape: 24 3 224 224 (3612672)
I0403 10:35:23.344033 10136 net.cpp:148] Top shape: 24 (24)
I0403 10:35:23.344049 10136 net.cpp:156] Memory required for data: 14450784
I0403 10:35:23.344113 10136 layer_factory.hpp:77] Creating layer label_data_1_split
I0403 10:35:23.344148 10136 net.cpp:91] Creating Layer label_data_1_split
I0403 10:35:23.344172 10136 net.cpp:425] label_data_1_split <- label
I0403 10:35:23.344203 10136 net.cpp:399] label_data_1_split -> label_data_1_split_0
I0403 10:35:23.344233 10136 net.cpp:399] label_data_1_split -> label_data_1_split_1
I0403 10:35:23.344256 10136 net.cpp:399] label_data_1_split -> label_data_1_split_2
I0403 10:35:23.344323 10136 net.cpp:141] Setting up label_data_1_split
I0403 10:35:23.344349 10136 net.cpp:148] Top shape: 24 (24)
I0403 10:35:23.344369 10136 net.cpp:148] Top shape: 24 (24)
I0403 10:35:23.344386 10136 net.cpp:148] Top shape: 24 (24)
I0403 10:35:23.344401 10136 net.cpp:156] Memory required for data: 14451072
I0403 10:35:23.344419 10136 layer_factory.hpp:77] Creating layer conv1/7x7_s2
I0403 10:35:23.344455 10136 net.cpp:91] Creating Layer conv1/7x7_s2
I0403 10:35:23.344477 10136 net.cpp:425] conv1/7x7_s2 <- data
I0403 10:35:23.344499 10136 net.cpp:399] conv1/7x7_s2 -> conv1/7x7_s2
I0403 10:35:23.345461 10136 net.cpp:141] Setting up conv1/7x7_s2
I0403 10:35:23.345491 10136 net.cpp:148] Top shape: 24 64 112 112 (19267584)
I0403 10:35:23.345520 10136 net.cpp:156] Memory required for data: 91521408
I0403 10:35:23.345562 10136 layer_factory.hpp:77] Creating layer conv1/relu_7x7
I0403 10:35:23.345592 10136 net.cpp:91] Creating Layer conv1/relu_7x7
I0403 10:35:23.345610 10136 net.cpp:425] conv1/relu_7x7 <- conv1/7x7_s2
I0403 10:35:23.345630 10136 net.cpp:386] conv1/relu_7x7 -> conv1/7x7_s2 (in-place)
I0403 10:35:23.345654 10136 net.cpp:141] Setting up conv1/relu_7x7
I0403 10:35:23.345674 10136 net.cpp:148] Top shape: 24 64 112 112 (19267584)
I0403 10:35:23.345690 10136 net.cpp:156] Memory required for data: 168591744
I0403 10:35:23.345707 10136 layer_factory.hpp:77] Creating layer pool1/3x3_s2
I0403 10:35:23.345731 10136 net.cpp:91] Creating Layer pool1/3x3_s2
I0403 10:35:23.345747 10136 net.cpp:425] pool1/3x3_s2 <- conv1/7x7_s2
I0403 10:35:23.345767 10136 net.cpp:399] pool1/3x3_s2 -> pool1/3x3_s2
I0403 10:35:23.345835 10136 net.cpp:141] Setting up pool1/3x3_s2
I0403 10:35:23.345861 10136 net.cpp:148] Top shape: 24 64 56 56 (4816896)
I0403 10:35:23.345878 10136 net.cpp:156] Memory required for data: 187859328
I0403 10:35:23.345895 10136 layer_factory.hpp:77] Creating layer pool1/norm1
I0403 10:35:23.345916 10136 net.cpp:91] Creating Layer pool1/norm1
I0403 10:35:23.345933 10136 net.cpp:425] pool1/norm1 <- pool1/3x3_s2
I0403 10:35:23.345954 10136 net.cpp:399] pool1/norm1 -> pool1/norm1
I0403 10:35:23.346009 10136 net.cpp:141] Setting up pool1/norm1
I0403 10:35:23.346034 10136 net.cpp:148] Top shape: 24 64 56 56 (4816896)
I0403 10:35:23.346050 10136 net.cpp:156] Memory required for data: 207126912
I0403 10:35:23.346067 10136 layer_factory.hpp:77] Creating layer conv2/3x3_reduce
I0403 10:35:23.346091 10136 net.cpp:91] Creating Layer conv2/3x3_reduce
I0403 10:35:23.346109 10136 net.cpp:425] conv2/3x3_reduce <- pool1/norm1
I0403 10:35:23.346132 10136 net.cpp:399] conv2/3x3_reduce -> conv2/3x3_reduce
I0403 10:35:23.348326 10136 net.cpp:141] Setting up conv2/3x3_reduce
I0403 10:35:23.348366 10136 net.cpp:148] Top shape: 24 64 56 56 (4816896)
I0403 10:35:23.348383 10136 net.cpp:156] Memory required for data: 226394496
I0403 10:35:23.348408 10136 layer_factory.hpp:77] Creating layer conv2/relu_3x3_reduce
I0403 10:35:23.348431 10136 net.cpp:91] Creating Layer conv2/relu_3x3_reduce
I0403 10:35:23.348449 10136 net.cpp:425] conv2/relu_3x3_reduce <- conv2/3x3_reduce
I0403 10:35:23.348469 10136 net.cpp:386] conv2/relu_3x3_reduce -> conv2/3x3_reduce (in-place)
I0403 10:35:23.348490 10136 net.cpp:141] Setting up conv2/relu_3x3_reduce
I0403 10:35:23.348517 10136 net.cpp:148] Top shape: 24 64 56 56 (4816896)
I0403 10:35:23.348536 10136 net.cpp:156] Memory required for data: 245662080
I0403 10:35:23.348553 10136 layer_factory.hpp:77] Creating layer conv2/3x3
I0403 10:35:23.348579 10136 net.cpp:91] Creating Layer conv2/3x3
I0403 10:35:23.348599 10136 net.cpp:425] conv2/3x3 <- conv2/3x3_reduce
I0403 10:35:23.348639 10136 net.cpp:399] conv2/3x3 -> conv2/3x3
I0403 10:35:23.350045 10136 net.cpp:141] Setting up conv2/3x3
I0403 10:35:23.350074 10140 blocking_queue.cpp:50] Waiting for data
I0403 10:35:23.350076 10136 net.cpp:148] Top shape: 24 192 56 56 (14450688)
I0403 10:35:23.350126 10136 net.cpp:156] Memory required for data: 303464832
I0403 10:35:23.350152 10136 layer_factory.hpp:77] Creating layer conv2/relu_3x3
I0403 10:35:23.350175 10136 net.cpp:91] Creating Layer conv2/relu_3x3
I0403 10:35:23.350193 10136 net.cpp:425] conv2/relu_3x3 <- conv2/3x3
I0403 10:35:23.350214 10136 net.cpp:386] conv2/relu_3x3 -> conv2/3x3 (in-place)
I0403 10:35:23.350236 10136 net.cpp:141] Setting up conv2/relu_3x3
I0403 10:35:23.350256 10136 net.cpp:148] Top shape: 24 192 56 56 (14450688)
I0403 10:35:23.350271 10136 net.cpp:156] Memory required for data: 361267584
I0403 10:35:23.350287 10136 layer_factory.hpp:77] Creating layer conv2/norm2
I0403 10:35:23.350306 10136 net.cpp:91] Creating Layer conv2/norm2
I0403 10:35:23.350324 10136 net.cpp:425] conv2/norm2 <- conv2/3x3
I0403 10:35:23.350344 10136 net.cpp:399] conv2/norm2 -> conv2/norm2
I0403 10:35:23.350394 10136 net.cpp:141] Setting up conv2/norm2
I0403 10:35:23.350419 10136 net.cpp:148] Top shape: 24 192 56 56 (14450688)
I0403 10:35:23.350436 10136 net.cpp:156] Memory required for data: 419070336
I0403 10:35:23.350452 10136 layer_factory.hpp:77] Creating layer pool2/3x3_s2
I0403 10:35:23.350472 10136 net.cpp:91] Creating Layer pool2/3x3_s2
I0403 10:35:23.350492 10136 net.cpp:425] pool2/3x3_s2 <- conv2/norm2
I0403 10:35:23.350517 10136 net.cpp:399] pool2/3x3_s2 -> pool2/3x3_s2
I0403 10:35:23.350569 10136 net.cpp:141] Setting up pool2/3x3_s2
I0403 10:35:23.350594 10136 net.cpp:148] Top shape: 24 192 28 28 (3612672)
I0403 10:35:23.350610 10136 net.cpp:156] Memory required for data: 433521024
I0403 10:35:23.350626 10136 layer_factory.hpp:77] Creating layer pool2/3x3_s2_pool2/3x3_s2_0_split
I0403 10:35:23.350647 10136 net.cpp:91] Creating Layer pool2/3x3_s2_pool2/3x3_s2_0_split
I0403 10:35:23.350666 10136 net.cpp:425] pool2/3x3_s2_pool2/3x3_s2_0_split <- pool2/3x3_s2
I0403 10:35:23.350685 10136 net.cpp:399] pool2/3x3_s2_pool2/3x3_s2_0_split -> pool2/3x3_s2_pool2/3x3_s2_0_split_0
I0403 10:35:23.350708 10136 net.cpp:399] pool2/3x3_s2_pool2/3x3_s2_0_split -> pool2/3x3_s2_pool2/3x3_s2_0_split_1
I0403 10:35:23.350730 10136 net.cpp:399] pool2/3x3_s2_pool2/3x3_s2_0_split -> pool2/3x3_s2_pool2/3x3_s2_0_split_2
I0403 10:35:23.350752 10136 net.cpp:399] pool2/3x3_s2_pool2/3x3_s2_0_split -> pool2/3x3_s2_pool2/3x3_s2_0_split_3
I0403 10:35:23.350826 10136 net.cpp:141] Setting up pool2/3x3_s2_pool2/3x3_s2_0_split
I0403 10:35:23.350850 10136 net.cpp:148] Top shape: 24 192 28 28 (3612672)
I0403 10:35:23.350867 10136 net.cpp:148] Top shape: 24 192 28 28 (3612672)
I0403 10:35:23.350884 10136 net.cpp:148] Top shape: 24 192 28 28 (3612672)
I0403 10:35:23.350900 10136 net.cpp:148] Top shape: 24 192 28 28 (3612672)
I0403 10:35:23.350916 10136 net.cpp:156] Memory required for data: 491323776
I0403 10:35:23.350932 10136 layer_factory.hpp:77] Creating layer inception_3a/1x1
I0403 10:35:23.350955 10136 net.cpp:91] Creating Layer inception_3a/1x1
I0403 10:35:23.350972 10136 net.cpp:425] inception_3a/1x1 <- pool2/3x3_s2_pool2/3x3_s2_0_split_0
I0403 10:35:23.350993 10136 net.cpp:399] inception_3a/1x1 -> inception_3a/1x1
I0403 10:35:23.351814 10136 net.cpp:141] Setting up inception_3a/1x1
I0403 10:35:23.351845 10136 net.cpp:148] Top shape: 24 64 28 28 (1204224)
I0403 10:35:23.351861 10136 net.cpp:156] Memory required for data: 496140672
I0403 10:35:23.351882 10136 layer_factory.hpp:77] Creating layer inception_3a/relu_1x1
I0403 10:35:23.351902 10136 net.cpp:91] Creating Layer inception_3a/relu_1x1
I0403 10:35:23.351922 10136 net.cpp:425] inception_3a/relu_1x1 <- inception_3a/1x1
I0403 10:35:23.351941 10136 net.cpp:386] inception_3a/relu_1x1 -> inception_3a/1x1 (in-place)
I0403 10:35:23.351963 10136 net.cpp:141] Setting up inception_3a/relu_1x1
I0403 10:35:23.351981 10136 net.cpp:148] Top shape: 24 64 28 28 (1204224)
I0403 10:35:23.352015 10136 net.cpp:156] Memory required for data: 500957568
I0403 10:35:23.352032 10136 layer_factory.hpp:77] Creating layer inception_3a/3x3_reduce
I0403 10:35:23.352061 10136 net.cpp:91] Creating Layer inception_3a/3x3_reduce
I0403 10:35:23.352080 10136 net.cpp:425] inception_3a/3x3_reduce <- pool2/3x3_s2_pool2/3x3_s2_0_split_1
I0403 10:35:23.352102 10136 net.cpp:399] inception_3a/3x3_reduce -> inception_3a/3x3_reduce
I0403 10:35:23.352968 10136 net.cpp:141] Setting up inception_3a/3x3_reduce
I0403 10:35:23.352999 10136 net.cpp:148] Top shape: 24 96 28 28 (1806336)
I0403 10:35:23.353018 10136 net.cpp:156] Memory required for data: 508182912
I0403 10:35:23.353041 10136 layer_factory.hpp:77] Creating layer inception_3a/relu_3x3_reduce
I0403 10:35:23.353065 10136 net.cpp:91] Creating Layer inception_3a/relu_3x3_reduce
I0403 10:35:23.353083 10136 net.cpp:425] inception_3a/relu_3x3_reduce <- inception_3a/3x3_reduce
I0403 10:35:23.353106 10136 net.cpp:386] inception_3a/relu_3x3_reduce -> inception_3a/3x3_reduce (in-place)
I0403 10:35:23.353128 10136 net.cpp:141] Setting up inception_3a/relu_3x3_reduce
I0403 10:35:23.353148 10136 net.cpp:148] Top shape: 24 96 28 28 (1806336)
I0403 10:35:23.353165 10136 net.cpp:156] Memory required for data: 515408256
I0403 10:35:23.353180 10136 layer_factory.hpp:77] Creating layer inception_3a/3x3
I0403 10:35:23.353205 10136 net.cpp:91] Creating Layer inception_3a/3x3
I0403 10:35:23.353224 10136 net.cpp:425] inception_3a/3x3 <- inception_3a/3x3_reduce
I0403 10:35:23.353246 10136 net.cpp:399] inception_3a/3x3 -> inception_3a/3x3
I0403 10:35:23.354104 10136 net.cpp:141] Setting up inception_3a/3x3
I0403 10:35:23.354132 10136 net.cpp:148] Top shape: 24 128 28 28 (2408448)
I0403 10:35:23.354151 10136 net.cpp:156] Memory required for data: 525042048
I0403 10:35:23.354171 10136 layer_factory.hpp:77] Creating layer inception_3a/relu_3x3
I0403 10:35:23.354190 10136 net.cpp:91] Creating Layer inception_3a/relu_3x3
I0403 10:35:23.354209 10136 net.cpp:425] inception_3a/relu_3x3 <- inception_3a/3x3
I0403 10:35:23.354229 10136 net.cpp:386] inception_3a/relu_3x3 -> inception_3a/3x3 (in-place)
I0403 10:35:23.354254 10136 net.cpp:141] Setting up inception_3a/relu_3x3
I0403 10:35:23.354274 10136 net.cpp:148] Top shape: 24 128 28 28 (2408448)
I0403 10:35:23.354290 10136 net.cpp:156] Memory required for data: 534675840
I0403 10:35:23.354305 10136 layer_factory.hpp:77] Creating layer inception_3a/5x5_reduce
I0403 10:35:23.354327 10136 net.cpp:91] Creating Layer inception_3a/5x5_reduce
I0403 10:35:23.354346 10136 net.cpp:425] inception_3a/5x5_reduce <- pool2/3x3_s2_pool2/3x3_s2_0_split_2
I0403 10:35:23.354369 10136 net.cpp:399] inception_3a/5x5_reduce -> inception_3a/5x5_reduce
I0403 10:35:23.354609 10136 net.cpp:141] Setting up inception_3a/5x5_reduce
I0403 10:35:23.354636 10136 net.cpp:148] Top shape: 24 16 28 28 (301056)
I0403 10:35:23.354653 10136 net.cpp:156] Memory required for data: 535880064
I0403 10:35:23.354673 10136 layer_factory.hpp:77] Creating layer inception_3a/relu_5x5_reduce
I0403 10:35:23.354694 10136 net.cpp:91] Creating Layer inception_3a/relu_5x5_reduce
I0403 10:35:23.354712 10136 net.cpp:425] inception_3a/relu_5x5_reduce <- inception_3a/5x5_reduce
I0403 10:35:23.354734 10136 net.cpp:386] inception_3a/relu_5x5_reduce -> inception_3a/5x5_reduce (in-place)
I0403 10:35:23.354756 10136 net.cpp:141] Setting up inception_3a/relu_5x5_reduce
I0403 10:35:23.354776 10136 net.cpp:148] Top shape: 24 16 28 28 (301056)
I0403 10:35:23.354794 10136 net.cpp:156] Memory required for data: 537084288
I0403 10:35:23.354810 10136 layer_factory.hpp:77] Creating layer inception_3a/5x5
I0403 10:35:23.354835 10136 net.cpp:91] Creating Layer inception_3a/5x5
I0403 10:35:23.354853 10136 net.cpp:425] inception_3a/5x5 <- inception_3a/5x5_reduce
I0403 10:35:23.354876 10136 net.cpp:399] inception_3a/5x5 -> inception_3a/5x5
I0403 10:35:23.355159 10136 net.cpp:141] Setting up inception_3a/5x5
I0403 10:35:23.355185 10136 net.cpp:148] Top shape: 24 32 28 28 (602112)
I0403 10:35:23.355217 10136 net.cpp:156] Memory required for data: 539492736
I0403 10:35:23.355238 10136 layer_factory.hpp:77] Creating layer inception_3a/relu_5x5
I0403 10:35:23.355260 10136 net.cpp:91] Creating Layer inception_3a/relu_5x5
I0403 10:35:23.355278 10136 net.cpp:425] inception_3a/relu_5x5 <- inception_3a/5x5
I0403 10:35:23.355299 10136 net.cpp:386] inception_3a/relu_5x5 -> inception_3a/5x5 (in-place)
I0403 10:35:23.355324 10136 net.cpp:141] Setting up inception_3a/relu_5x5
I0403 10:35:23.355342 10136 net.cpp:148] Top shape: 24 32 28 28 (602112)
I0403 10:35:23.355360 10136 net.cpp:156] Memory required for data: 541901184
I0403 10:35:23.355376 10136 layer_factory.hpp:77] Creating layer inception_3a/pool
I0403 10:35:23.355394 10136 net.cpp:91] Creating Layer inception_3a/pool
I0403 10:35:23.355412 10136 net.cpp:425] inception_3a/pool <- pool2/3x3_s2_pool2/3x3_s2_0_split_3
I0403 10:35:23.355432 10136 net.cpp:399] inception_3a/pool -> inception_3a/pool
I0403 10:35:23.355487 10136 net.cpp:141] Setting up inception_3a/pool
I0403 10:35:23.355525 10136 net.cpp:148] Top shape: 24 192 28 28 (3612672)
I0403 10:35:23.355545 10136 net.cpp:156] Memory required for data: 556351872
I0403 10:35:23.355562 10136 layer_factory.hpp:77] Creating layer inception_3a/pool_proj
I0403 10:35:23.355587 10136 net.cpp:91] Creating Layer inception_3a/pool_proj
I0403 10:35:23.355607 10136 net.cpp:425] inception_3a/pool_proj <- inception_3a/pool
I0403 10:35:23.355630 10136 net.cpp:399] inception_3a/pool_proj -> inception_3a/pool_proj
I0403 10:35:23.355872 10136 net.cpp:141] Setting up inception_3a/pool_proj
I0403 10:35:23.355900 10136 net.cpp:148] Top shape: 24 32 28 28 (602112)
I0403 10:35:23.355917 10136 net.cpp:156] Memory required for data: 558760320
I0403 10:35:23.355943 10136 layer_factory.hpp:77] Creating layer inception_3a/relu_pool_proj
I0403 10:35:23.355967 10136 net.cpp:91] Creating Layer inception_3a/relu_pool_proj
I0403 10:35:23.355985 10136 net.cpp:425] inception_3a/relu_pool_proj <- inception_3a/pool_proj
I0403 10:35:23.356004 10136 net.cpp:386] inception_3a/relu_pool_proj -> inception_3a/pool_proj (in-place)
I0403 10:35:23.356026 10136 net.cpp:141] Setting up inception_3a/relu_pool_proj
I0403 10:35:23.356046 10136 net.cpp:148] Top shape: 24 32 28 28 (602112)
I0403 10:35:23.356062 10136 net.cpp:156] Memory required for data: 561168768
I0403 10:35:23.356077 10136 layer_factory.hpp:77] Creating layer inception_3a/output
I0403 10:35:23.356098 10136 net.cpp:91] Creating Layer inception_3a/output
I0403 10:35:23.356114 10136 net.cpp:425] inception_3a/output <- inception_3a/1x1
I0403 10:35:23.356132 10136 net.cpp:425] inception_3a/output <- inception_3a/3x3
I0403 10:35:23.356150 10136 net.cpp:425] inception_3a/output <- inception_3a/5x5
I0403 10:35:23.356168 10136 net.cpp:425] inception_3a/output <- inception_3a/pool_proj
I0403 10:35:23.356187 10136 net.cpp:399] inception_3a/output -> inception_3a/output
I0403 10:35:23.356235 10136 net.cpp:141] Setting up inception_3a/output
I0403 10:35:23.356259 10136 net.cpp:148] Top shape: 24 256 28 28 (4816896)
I0403 10:35:23.356276 10136 net.cpp:156] Memory required for data: 580436352
I0403 10:35:23.356292 10136 layer_factory.hpp:77] Creating layer inception_3a/output_inception_3a/output_0_split
I0403 10:35:23.356318 10136 net.cpp:91] Creating Layer inception_3a/output_inception_3a/output_0_split
I0403 10:35:23.356338 10136 net.cpp:425] inception_3a/output_inception_3a/output_0_split <- inception_3a/output
I0403 10:35:23.356359 10136 net.cpp:399] inception_3a/output_inception_3a/output_0_split -> inception_3a/output_inception_3a/output_0_split_0
I0403 10:35:23.356380 10136 net.cpp:399] inception_3a/output_inception_3a/output_0_split -> inception_3a/output_inception_3a/output_0_split_1
I0403 10:35:23.356403 10136 net.cpp:399] inception_3a/output_inception_3a/output_0_split -> inception_3a/output_inception_3a/output_0_split_2
I0403 10:35:23.356427 10136 net.cpp:399] inception_3a/output_inception_3a/output_0_split -> inception_3a/output_inception_3a/output_0_split_3
I0403 10:35:23.356498 10136 net.cpp:141] Setting up inception_3a/output_inception_3a/output_0_split
I0403 10:35:23.356539 10136 net.cpp:148] Top shape: 24 256 28 28 (4816896)
I0403 10:35:23.356559 10136 net.cpp:148] Top shape: 24 256 28 28 (4816896)
I0403 10:35:23.356577 10136 net.cpp:148] Top shape: 24 256 28 28 (4816896)
I0403 10:35:23.356595 10136 net.cpp:148] Top shape: 24 256 28 28 (4816896)
I0403 10:35:23.356611 10136 net.cpp:156] Memory required for data: 657506688
I0403 10:35:23.356627 10136 layer_factory.hpp:77] Creating layer inception_3b/1x1
I0403 10:35:23.356652 10136 net.cpp:91] Creating Layer inception_3b/1x1
I0403 10:35:23.356672 10136 net.cpp:425] inception_3b/1x1 <- inception_3a/output_inception_3a/output_0_split_0
I0403 10:35:23.356695 10136 net.cpp:399] inception_3b/1x1 -> inception_3b/1x1
I0403 10:35:23.357089 10136 net.cpp:141] Setting up inception_3b/1x1
I0403 10:35:23.357117 10136 net.cpp:148] Top shape: 24 128 28 28 (2408448)
I0403 10:35:23.357134 10136 net.cpp:156] Memory required for data: 667140480
I0403 10:35:23.357154 10136 layer_factory.hpp:77] Creating layer inception_3b/relu_1x1
I0403 10:35:23.357174 10136 net.cpp:91] Creating Layer inception_3b/relu_1x1
I0403 10:35:23.357192 10136 net.cpp:425] inception_3b/relu_1x1 <- inception_3b/1x1
I0403 10:35:23.357215 10136 net.cpp:386] inception_3b/relu_1x1 -> inception_3b/1x1 (in-place)
I0403 10:35:23.357237 10136 net.cpp:141] Setting up inception_3b/relu_1x1
I0403 10:35:23.357256 10136 net.cpp:148] Top shape: 24 128 28 28 (2408448)
I0403 10:35:23.357275 10136 net.cpp:156] Memory required for data: 676774272
I0403 10:35:23.357290 10136 layer_factory.hpp:77] Creating layer inception_3b/3x3_reduce
I0403 10:35:23.357314 10136 net.cpp:91] Creating Layer inception_3b/3x3_reduce
I0403 10:35:23.357333 10136 net.cpp:425] inception_3b/3x3_reduce <- inception_3a/output_inception_3a/output_0_split_1
I0403 10:35:23.357354 10136 net.cpp:399] inception_3b/3x3_reduce -> inception_3b/3x3_reduce
I0403 10:35:23.357758 10136 net.cpp:141] Setting up inception_3b/3x3_reduce
I0403 10:35:23.357786 10136 net.cpp:148] Top shape: 24 128 28 28 (2408448)
I0403 10:35:23.357805 10136 net.cpp:156] Memory required for data: 686408064
I0403 10:35:23.357825 10136 layer_factory.hpp:77] Creating layer inception_3b/relu_3x3_reduce
I0403 10:35:23.357846 10136 net.cpp:91] Creating Layer inception_3b/relu_3x3_reduce
I0403 10:35:23.357864 10136 net.cpp:425] inception_3b/relu_3x3_reduce <- inception_3b/3x3_reduce
I0403 10:35:23.357884 10136 net.cpp:386] inception_3b/relu_3x3_reduce -> inception_3b/3x3_reduce (in-place)
I0403 10:35:23.357910 10136 net.cpp:141] Setting up inception_3b/relu_3x3_reduce
I0403 10:35:23.357930 10136 net.cpp:148] Top shape: 24 128 28 28 (2408448)
I0403 10:35:23.357946 10136 net.cpp:156] Memory required for data: 696041856
I0403 10:35:23.357961 10136 layer_factory.hpp:77] Creating layer inception_3b/3x3
I0403 10:35:23.357990 10136 net.cpp:91] Creating Layer inception_3b/3x3
I0403 10:35:23.358011 10136 net.cpp:425] inception_3b/3x3 <- inception_3b/3x3_reduce
I0403 10:35:23.358031 10136 net.cpp:399] inception_3b/3x3 -> inception_3b/3x3
I0403 10:35:23.360083 10136 net.cpp:141] Setting up inception_3b/3x3
I0403 10:35:23.360115 10136 net.cpp:148] Top shape: 24 192 28 28 (3612672)
I0403 10:35:23.360131 10136 net.cpp:156] Memory required for data: 710492544
I0403 10:35:23.360151 10136 layer_factory.hpp:77] Creating layer inception_3b/relu_3x3
I0403 10:35:23.360172 10136 net.cpp:91] Creating Layer inception_3b/relu_3x3
I0403 10:35:23.360191 10136 net.cpp:425] inception_3b/relu_3x3 <- inception_3b/3x3
I0403 10:35:23.360215 10136 net.cpp:386] inception_3b/relu_3x3 -> inception_3b/3x3 (in-place)
I0403 10:35:23.360239 10136 net.cpp:141] Setting up inception_3b/relu_3x3
I0403 10:35:23.360258 10136 net.cpp:148] Top shape: 24 192 28 28 (3612672)
I0403 10:35:23.360275 10136 net.cpp:156] Memory required for data: 724943232
I0403 10:35:23.360291 10136 layer_factory.hpp:77] Creating layer inception_3b/5x5_reduce
I0403 10:35:23.360316 10136 net.cpp:91] Creating Layer inception_3b/5x5_reduce
I0403 10:35:23.360337 10136 net.cpp:425] inception_3b/5x5_reduce <- inception_3a/output_inception_3a/output_0_split_2
I0403 10:35:23.360373 10136 net.cpp:399] inception_3b/5x5_reduce -> inception_3b/5x5_reduce
I0403 10:35:23.360646 10136 net.cpp:141] Setting up inception_3b/5x5_reduce
I0403 10:35:23.360672 10136 net.cpp:148] Top shape: 24 32 28 28 (602112)
I0403 10:35:23.360690 10136 net.cpp:156] Memory required for data: 727351680
I0403 10:35:23.360710 10136 layer_factory.hpp:77] Creating layer inception_3b/relu_5x5_reduce
I0403 10:35:23.360730 10136 net.cpp:91] Creating Layer inception_3b/relu_5x5_reduce
I0403 10:35:23.360749 10136 net.cpp:425] inception_3b/relu_5x5_reduce <- inception_3b/5x5_reduce
I0403 10:35:23.360769 10136 net.cpp:386] inception_3b/relu_5x5_reduce -> inception_3b/5x5_reduce (in-place)
I0403 10:35:23.360791 10136 net.cpp:141] Setting up inception_3b/relu_5x5_reduce
I0403 10:35:23.360811 10136 net.cpp:148] Top shape: 24 32 28 28 (602112)
I0403 10:35:23.360827 10136 net.cpp:156] Memory required for data: 729760128
I0403 10:35:23.360844 10136 layer_factory.hpp:77] Creating layer inception_3b/5x5
I0403 10:35:23.360870 10136 net.cpp:91] Creating Layer inception_3b/5x5
I0403 10:35:23.360890 10136 net.cpp:425] inception_3b/5x5 <- inception_3b/5x5_reduce
I0403 10:35:23.360911 10136 net.cpp:399] inception_3b/5x5 -> inception_3b/5x5
I0403 10:35:23.362133 10136 net.cpp:141] Setting up inception_3b/5x5
I0403 10:35:23.362162 10136 net.cpp:148] Top shape: 24 96 28 28 (1806336)
I0403 10:35:23.362181 10136 net.cpp:156] Memory required for data: 736985472
I0403 10:35:23.362201 10136 layer_factory.hpp:77] Creating layer inception_3b/relu_5x5
I0403 10:35:23.362227 10136 net.cpp:91] Creating Layer inception_3b/relu_5x5
I0403 10:35:23.362246 10136 net.cpp:425] inception_3b/relu_5x5 <- inception_3b/5x5
I0403 10:35:23.362267 10136 net.cpp:386] inception_3b/relu_5x5 -> inception_3b/5x5 (in-place)
I0403 10:35:23.362287 10136 net.cpp:141] Setting up inception_3b/relu_5x5
I0403 10:35:23.362306 10136 net.cpp:148] Top shape: 24 96 28 28 (1806336)
I0403 10:35:23.362323 10136 net.cpp:156] Memory required for data: 744210816
I0403 10:35:23.362339 10136 layer_factory.hpp:77] Creating layer inception_3b/pool
I0403 10:35:23.362361 10136 net.cpp:91] Creating Layer inception_3b/pool
I0403 10:35:23.362380 10136 net.cpp:425] inception_3b/pool <- inception_3a/output_inception_3a/output_0_split_3
I0403 10:35:23.362399 10136 net.cpp:399] inception_3b/pool -> inception_3b/pool
I0403 10:35:23.362452 10136 net.cpp:141] Setting up inception_3b/pool
I0403 10:35:23.362476 10136 net.cpp:148] Top shape: 24 256 28 28 (4816896)
I0403 10:35:23.362493 10136 net.cpp:156] Memory required for data: 763478400
I0403 10:35:23.362514 10136 layer_factory.hpp:77] Creating layer inception_3b/pool_proj
I0403 10:35:23.362540 10136 net.cpp:91] Creating Layer inception_3b/pool_proj
I0403 10:35:23.362561 10136 net.cpp:425] inception_3b/pool_proj <- inception_3b/pool
I0403 10:35:23.362582 10136 net.cpp:399] inception_3b/pool_proj -> inception_3b/pool_proj
I0403 10:35:23.362877 10136 net.cpp:141] Setting up inception_3b/pool_proj
I0403 10:35:23.362905 10136 net.cpp:148] Top shape: 24 64 28 28 (1204224)
I0403 10:35:23.362920 10136 net.cpp:156] Memory required for data: 768295296
I0403 10:35:23.362939 10136 layer_factory.hpp:77] Creating layer inception_3b/relu_pool_proj
I0403 10:35:23.362960 10136 net.cpp:91] Creating Layer inception_3b/relu_pool_proj
I0403 10:35:23.362977 10136 net.cpp:425] inception_3b/relu_pool_proj <- inception_3b/pool_proj
I0403 10:35:23.363000 10136 net.cpp:386] inception_3b/relu_pool_proj -> inception_3b/pool_proj (in-place)
I0403 10:35:23.363023 10136 net.cpp:141] Setting up inception_3b/relu_pool_proj
I0403 10:35:23.363041 10136 net.cpp:148] Top shape: 24 64 28 28 (1204224)
I0403 10:35:23.363057 10136 net.cpp:156] Memory required for data: 773112192
I0403 10:35:23.363072 10136 layer_factory.hpp:77] Creating layer inception_3b/output
I0403 10:35:23.363091 10136 net.cpp:91] Creating Layer inception_3b/output
I0403 10:35:23.363108 10136 net.cpp:425] inception_3b/output <- inception_3b/1x1
I0403 10:35:23.363142 10136 net.cpp:425] inception_3b/output <- inception_3b/3x3
I0403 10:35:23.363160 10136 net.cpp:425] inception_3b/output <- inception_3b/5x5
I0403 10:35:23.363178 10136 net.cpp:425] inception_3b/output <- inception_3b/pool_proj
I0403 10:35:23.363199 10136 net.cpp:399] inception_3b/output -> inception_3b/output
I0403 10:35:23.363240 10136 net.cpp:141] Setting up inception_3b/output
I0403 10:35:23.363263 10136 net.cpp:148] Top shape: 24 480 28 28 (9031680)
I0403 10:35:23.363281 10136 net.cpp:156] Memory required for data: 809238912
I0403 10:35:23.363297 10136 layer_factory.hpp:77] Creating layer pool3/3x3_s2
I0403 10:35:23.363319 10136 net.cpp:91] Creating Layer pool3/3x3_s2
I0403 10:35:23.363337 10136 net.cpp:425] pool3/3x3_s2 <- inception_3b/output
I0403 10:35:23.363356 10136 net.cpp:399] pool3/3x3_s2 -> pool3/3x3_s2
I0403 10:35:23.363407 10136 net.cpp:141] Setting up pool3/3x3_s2
I0403 10:35:23.363432 10136 net.cpp:148] Top shape: 24 480 14 14 (2257920)
I0403 10:35:23.363448 10136 net.cpp:156] Memory required for data: 818270592
I0403 10:35:23.363464 10136 layer_factory.hpp:77] Creating layer pool3/3x3_s2_pool3/3x3_s2_0_split
I0403 10:35:23.363483 10136 net.cpp:91] Creating Layer pool3/3x3_s2_pool3/3x3_s2_0_split
I0403 10:35:23.363500 10136 net.cpp:425] pool3/3x3_s2_pool3/3x3_s2_0_split <- pool3/3x3_s2
I0403 10:35:23.363528 10136 net.cpp:399] pool3/3x3_s2_pool3/3x3_s2_0_split -> pool3/3x3_s2_pool3/3x3_s2_0_split_0
I0403 10:35:23.363553 10136 net.cpp:399] pool3/3x3_s2_pool3/3x3_s2_0_split -> pool3/3x3_s2_pool3/3x3_s2_0_split_1
I0403 10:35:23.363575 10136 net.cpp:399] pool3/3x3_s2_pool3/3x3_s2_0_split -> pool3/3x3_s2_pool3/3x3_s2_0_split_2
I0403 10:35:23.363597 10136 net.cpp:399] pool3/3x3_s2_pool3/3x3_s2_0_split -> pool3/3x3_s2_pool3/3x3_s2_0_split_3
I0403 10:35:23.363662 10136 net.cpp:141] Setting up pool3/3x3_s2_pool3/3x3_s2_0_split
I0403 10:35:23.363688 10136 net.cpp:148] Top shape: 24 480 14 14 (2257920)
I0403 10:35:23.363708 10136 net.cpp:148] Top shape: 24 480 14 14 (2257920)
I0403 10:35:23.363724 10136 net.cpp:148] Top shape: 24 480 14 14 (2257920)
I0403 10:35:23.363742 10136 net.cpp:148] Top shape: 24 480 14 14 (2257920)
I0403 10:35:23.363757 10136 net.cpp:156] Memory required for data: 854397312
I0403 10:35:23.363772 10136 layer_factory.hpp:77] Creating layer inception_4a/1x1
I0403 10:35:23.363795 10136 net.cpp:91] Creating Layer inception_4a/1x1
I0403 10:35:23.363813 10136 net.cpp:425] inception_4a/1x1 <- pool3/3x3_s2_pool3/3x3_s2_0_split_0
I0403 10:35:23.363838 10136 net.cpp:399] inception_4a/1x1 -> inception_4a/1x1
I0403 10:35:23.364562 10136 net.cpp:141] Setting up inception_4a/1x1
I0403 10:35:23.364588 10136 net.cpp:148] Top shape: 24 192 14 14 (903168)
I0403 10:35:23.364605 10136 net.cpp:156] Memory required for data: 858009984
I0403 10:35:23.364624 10136 layer_factory.hpp:77] Creating layer inception_4a/relu_1x1
I0403 10:35:23.364645 10136 net.cpp:91] Creating Layer inception_4a/relu_1x1
I0403 10:35:23.364662 10136 net.cpp:425] inception_4a/relu_1x1 <- inception_4a/1x1
I0403 10:35:23.364683 10136 net.cpp:386] inception_4a/relu_1x1 -> inception_4a/1x1 (in-place)
I0403 10:35:23.364704 10136 net.cpp:141] Setting up inception_4a/relu_1x1
I0403 10:35:23.364723 10136 net.cpp:148] Top shape: 24 192 14 14 (903168)
I0403 10:35:23.364739 10136 net.cpp:156] Memory required for data: 861622656
I0403 10:35:23.364755 10136 layer_factory.hpp:77] Creating layer inception_4a/3x3_reduce
I0403 10:35:23.364781 10136 net.cpp:91] Creating Layer inception_4a/3x3_reduce
I0403 10:35:23.364804 10136 net.cpp:425] inception_4a/3x3_reduce <- pool3/3x3_s2_pool3/3x3_s2_0_split_1
I0403 10:35:23.364825 10136 net.cpp:399] inception_4a/3x3_reduce -> inception_4a/3x3_reduce
I0403 10:35:23.365298 10136 net.cpp:141] Setting up inception_4a/3x3_reduce
I0403 10:35:23.365324 10136 net.cpp:148] Top shape: 24 96 14 14 (451584)
I0403 10:35:23.365341 10136 net.cpp:156] Memory required for data: 863428992
I0403 10:35:23.365367 10136 layer_factory.hpp:77] Creating layer inception_4a/relu_3x3_reduce
I0403 10:35:23.365389 10136 net.cpp:91] Creating Layer inception_4a/relu_3x3_reduce
I0403 10:35:23.365422 10136 net.cpp:425] inception_4a/relu_3x3_reduce <- inception_4a/3x3_reduce
I0403 10:35:23.365444 10136 net.cpp:386] inception_4a/relu_3x3_reduce -> inception_4a/3x3_reduce (in-place)
I0403 10:35:23.365468 10136 net.cpp:141] Setting up inception_4a/relu_3x3_reduce
I0403 10:35:23.365486 10136 net.cpp:148] Top shape: 24 96 14 14 (451584)
I0403 10:35:23.365500 10136 net.cpp:156] Memory required for data: 865235328
I0403 10:35:23.365530 10136 layer_factory.hpp:77] Creating layer inception_4a/3x3
I0403 10:35:23.365556 10136 net.cpp:91] Creating Layer inception_4a/3x3
I0403 10:35:23.365578 10136 net.cpp:425] inception_4a/3x3 <- inception_4a/3x3_reduce
I0403 10:35:23.365599 10136 net.cpp:399] inception_4a/3x3 -> inception_4a/3x3
I0403 10:35:23.367357 10136 net.cpp:141] Setting up inception_4a/3x3
I0403 10:35:23.367386 10136 net.cpp:148] Top shape: 24 208 14 14 (978432)
I0403 10:35:23.367403 10136 net.cpp:156] Memory required for data: 869149056
I0403 10:35:23.367424 10136 layer_factory.hpp:77] Creating layer inception_4a/relu_3x3
I0403 10:35:23.367444 10136 net.cpp:91] Creating Layer inception_4a/relu_3x3
I0403 10:35:23.367461 10136 net.cpp:425] inception_4a/relu_3x3 <- inception_4a/3x3
I0403 10:35:23.367480 10136 net.cpp:386] inception_4a/relu_3x3 -> inception_4a/3x3 (in-place)
I0403 10:35:23.367503 10136 net.cpp:141] Setting up inception_4a/relu_3x3
I0403 10:35:23.367528 10136 net.cpp:148] Top shape: 24 208 14 14 (978432)
I0403 10:35:23.367545 10136 net.cpp:156] Memory required for data: 873062784
I0403 10:35:23.367561 10136 layer_factory.hpp:77] Creating layer inception_4a/5x5_reduce
I0403 10:35:23.367585 10136 net.cpp:91] Creating Layer inception_4a/5x5_reduce
I0403 10:35:23.367604 10136 net.cpp:425] inception_4a/5x5_reduce <- pool3/3x3_s2_pool3/3x3_s2_0_split_2
I0403 10:35:23.367627 10136 net.cpp:399] inception_4a/5x5_reduce -> inception_4a/5x5_reduce
I0403 10:35:23.367884 10136 net.cpp:141] Setting up inception_4a/5x5_reduce
I0403 10:35:23.367910 10136 net.cpp:148] Top shape: 24 16 14 14 (75264)
I0403 10:35:23.367928 10136 net.cpp:156] Memory required for data: 873363840
I0403 10:35:23.367949 10136 layer_factory.hpp:77] Creating layer inception_4a/relu_5x5_reduce
I0403 10:35:23.367967 10136 net.cpp:91] Creating Layer inception_4a/relu_5x5_reduce
I0403 10:35:23.367985 10136 net.cpp:425] inception_4a/relu_5x5_reduce <- inception_4a/5x5_reduce
I0403 10:35:23.368005 10136 net.cpp:386] inception_4a/relu_5x5_reduce -> inception_4a/5x5_reduce (in-place)
I0403 10:35:23.368028 10136 net.cpp:141] Setting up inception_4a/relu_5x5_reduce
I0403 10:35:23.368048 10136 net.cpp:148] Top shape: 24 16 14 14 (75264)
I0403 10:35:23.368064 10136 net.cpp:156] Memory required for data: 873664896
I0403 10:35:23.368079 10136 layer_factory.hpp:77] Creating layer inception_4a/5x5
I0403 10:35:23.368100 10136 net.cpp:91] Creating Layer inception_4a/5x5
I0403 10:35:23.368119 10136 net.cpp:425] inception_4a/5x5 <- inception_4a/5x5_reduce
I0403 10:35:23.368144 10136 net.cpp:399] inception_4a/5x5 -> inception_4a/5x5
I0403 10:35:23.368463 10136 net.cpp:141] Setting up inception_4a/5x5
I0403 10:35:23.368490 10136 net.cpp:148] Top shape: 24 48 14 14 (225792)
I0403 10:35:23.368511 10136 net.cpp:156] Memory required for data: 874568064
I0403 10:35:23.368532 10136 layer_factory.hpp:77] Creating layer inception_4a/relu_5x5
I0403 10:35:23.368553 10136 net.cpp:91] Creating Layer inception_4a/relu_5x5
I0403 10:35:23.368571 10136 net.cpp:425] inception_4a/relu_5x5 <- inception_4a/5x5
I0403 10:35:23.368590 10136 net.cpp:386] inception_4a/relu_5x5 -> inception_4a/5x5 (in-place)
I0403 10:35:23.368612 10136 net.cpp:141] Setting up inception_4a/relu_5x5
I0403 10:35:23.368629 10136 net.cpp:148] Top shape: 24 48 14 14 (225792)
I0403 10:35:23.368644 10136 net.cpp:156] Memory required for data: 875471232
I0403 10:35:23.368660 10136 layer_factory.hpp:77] Creating layer inception_4a/pool
I0403 10:35:23.368681 10136 net.cpp:91] Creating Layer inception_4a/pool
I0403 10:35:23.368700 10136 net.cpp:425] inception_4a/pool <- pool3/3x3_s2_pool3/3x3_s2_0_split_3
I0403 10:35:23.368736 10136 net.cpp:399] inception_4a/pool -> inception_4a/pool
I0403 10:35:23.368793 10136 net.cpp:141] Setting up inception_4a/pool
I0403 10:35:23.368818 10136 net.cpp:148] Top shape: 24 480 14 14 (2257920)
I0403 10:35:23.368834 10136 net.cpp:156] Memory required for data: 884502912
I0403 10:35:23.368850 10136 layer_factory.hpp:77] Creating layer inception_4a/pool_proj
I0403 10:35:23.368875 10136 net.cpp:91] Creating Layer inception_4a/pool_proj
I0403 10:35:23.368896 10136 net.cpp:425] inception_4a/pool_proj <- inception_4a/pool
I0403 10:35:23.368916 10136 net.cpp:399] inception_4a/pool_proj -> inception_4a/pool_proj
I0403 10:35:23.369295 10136 net.cpp:141] Setting up inception_4a/pool_proj
I0403 10:35:23.369323 10136 net.cpp:148] Top shape: 24 64 14 14 (301056)
I0403 10:35:23.369343 10136 net.cpp:156] Memory required for data: 885707136
I0403 10:35:23.369361 10136 layer_factory.hpp:77] Creating layer inception_4a/relu_pool_proj
I0403 10:35:23.369382 10136 net.cpp:91] Creating Layer inception_4a/relu_pool_proj
I0403 10:35:23.369400 10136 net.cpp:425] inception_4a/relu_pool_proj <- inception_4a/pool_proj
I0403 10:35:23.369420 10136 net.cpp:386] inception_4a/relu_pool_proj -> inception_4a/pool_proj (in-place)
I0403 10:35:23.369439 10136 net.cpp:141] Setting up inception_4a/relu_pool_proj
I0403 10:35:23.369459 10136 net.cpp:148] Top shape: 24 64 14 14 (301056)
I0403 10:35:23.369475 10136 net.cpp:156] Memory required for data: 886911360
I0403 10:35:23.369491 10136 layer_factory.hpp:77] Creating layer inception_4a/output
I0403 10:35:23.369514 10136 net.cpp:91] Creating Layer inception_4a/output
I0403 10:35:23.369534 10136 net.cpp:425] inception_4a/output <- inception_4a/1x1
I0403 10:35:23.369550 10136 net.cpp:425] inception_4a/output <- inception_4a/3x3
I0403 10:35:23.369567 10136 net.cpp:425] inception_4a/output <- inception_4a/5x5
I0403 10:35:23.369585 10136 net.cpp:425] inception_4a/output <- inception_4a/pool_proj
I0403 10:35:23.369607 10136 net.cpp:399] inception_4a/output -> inception_4a/output
I0403 10:35:23.369647 10136 net.cpp:141] Setting up inception_4a/output
I0403 10:35:23.369673 10136 net.cpp:148] Top shape: 24 512 14 14 (2408448)
I0403 10:35:23.369690 10136 net.cpp:156] Memory required for data: 896545152
I0403 10:35:23.369706 10136 layer_factory.hpp:77] Creating layer inception_4a/output_inception_4a/output_0_split
I0403 10:35:23.369726 10136 net.cpp:91] Creating Layer inception_4a/output_inception_4a/output_0_split
I0403 10:35:23.369743 10136 net.cpp:425] inception_4a/output_inception_4a/output_0_split <- inception_4a/output
I0403 10:35:23.369763 10136 net.cpp:399] inception_4a/output_inception_4a/output_0_split -> inception_4a/output_inception_4a/output_0_split_0
I0403 10:35:23.369784 10136 net.cpp:399] inception_4a/output_inception_4a/output_0_split -> inception_4a/output_inception_4a/output_0_split_1
I0403 10:35:23.369812 10136 net.cpp:399] inception_4a/output_inception_4a/output_0_split -> inception_4a/output_inception_4a/output_0_split_2
I0403 10:35:23.369834 10136 net.cpp:399] inception_4a/output_inception_4a/output_0_split -> inception_4a/output_inception_4a/output_0_split_3
I0403 10:35:23.369856 10136 net.cpp:399] inception_4a/output_inception_4a/output_0_split -> inception_4a/output_inception_4a/output_0_split_4
I0403 10:35:23.369933 10136 net.cpp:141] Setting up inception_4a/output_inception_4a/output_0_split
I0403 10:35:23.369957 10136 net.cpp:148] Top shape: 24 512 14 14 (2408448)
I0403 10:35:23.369976 10136 net.cpp:148] Top shape: 24 512 14 14 (2408448)
I0403 10:35:23.369993 10136 net.cpp:148] Top shape: 24 512 14 14 (2408448)
I0403 10:35:23.370010 10136 net.cpp:148] Top shape: 24 512 14 14 (2408448)
I0403 10:35:23.370028 10136 net.cpp:148] Top shape: 24 512 14 14 (2408448)
I0403 10:35:23.370043 10136 net.cpp:156] Memory required for data: 944714112
I0403 10:35:23.370059 10136 layer_factory.hpp:77] Creating layer loss1/ave_pool
I0403 10:35:23.370080 10136 net.cpp:91] Creating Layer loss1/ave_pool
I0403 10:35:23.370098 10136 net.cpp:425] loss1/ave_pool <- inception_4a/output_inception_4a/output_0_split_0
I0403 10:35:23.370131 10136 net.cpp:399] loss1/ave_pool -> loss1/ave_pool
I0403 10:35:23.370173 10136 net.cpp:141] Setting up loss1/ave_pool
I0403 10:35:23.370198 10136 net.cpp:148] Top shape: 24 512 4 4 (196608)
I0403 10:35:23.370214 10136 net.cpp:156] Memory required for data: 945500544
I0403 10:35:23.370230 10136 layer_factory.hpp:77] Creating layer loss1/conv
I0403 10:35:23.370255 10136 net.cpp:91] Creating Layer loss1/conv
I0403 10:35:23.370273 10136 net.cpp:425] loss1/conv <- loss1/ave_pool
I0403 10:35:23.370296 10136 net.cpp:399] loss1/conv -> loss1/conv
I0403 10:35:23.370869 10136 net.cpp:141] Setting up loss1/conv
I0403 10:35:23.370896 10136 net.cpp:148] Top shape: 24 128 4 4 (49152)
I0403 10:35:23.370913 10136 net.cpp:156] Memory required for data: 945697152
I0403 10:35:23.370931 10136 layer_factory.hpp:77] Creating layer loss1/relu_conv
I0403 10:35:23.370952 10136 net.cpp:91] Creating Layer loss1/relu_conv
I0403 10:35:23.370970 10136 net.cpp:425] loss1/relu_conv <- loss1/conv
I0403 10:35:23.370987 10136 net.cpp:386] loss1/relu_conv -> loss1/conv (in-place)
I0403 10:35:23.371008 10136 net.cpp:141] Setting up loss1/relu_conv
I0403 10:35:23.371027 10136 net.cpp:148] Top shape: 24 128 4 4 (49152)
I0403 10:35:23.371044 10136 net.cpp:156] Memory required for data: 945893760
I0403 10:35:23.371059 10136 layer_factory.hpp:77] Creating layer loss1/fc
I0403 10:35:23.371084 10136 net.cpp:91] Creating Layer loss1/fc
I0403 10:35:23.371103 10136 net.cpp:425] loss1/fc <- loss1/conv
I0403 10:35:23.371129 10136 net.cpp:399] loss1/fc -> loss1/fc
I0403 10:35:23.387326 10136 net.cpp:141] Setting up loss1/fc
I0403 10:35:23.387374 10136 net.cpp:148] Top shape: 24 1024 (24576)
I0403 10:35:23.387393 10136 net.cpp:156] Memory required for data: 945992064
I0403 10:35:23.387414 10136 layer_factory.hpp:77] Creating layer loss1/relu_fc
I0403 10:35:23.387436 10136 net.cpp:91] Creating Layer loss1/relu_fc
I0403 10:35:23.387455 10136 net.cpp:425] loss1/relu_fc <- loss1/fc
I0403 10:35:23.387475 10136 net.cpp:386] loss1/relu_fc -> loss1/fc (in-place)
I0403 10:35:23.387497 10136 net.cpp:141] Setting up loss1/relu_fc
I0403 10:35:23.387522 10136 net.cpp:148] Top shape: 24 1024 (24576)
I0403 10:35:23.387540 10136 net.cpp:156] Memory required for data: 946090368
I0403 10:35:23.387555 10136 layer_factory.hpp:77] Creating layer loss1/drop_fc
I0403 10:35:23.387588 10136 net.cpp:91] Creating Layer loss1/drop_fc
I0403 10:35:23.387609 10136 net.cpp:425] loss1/drop_fc <- loss1/fc
I0403 10:35:23.387629 10136 net.cpp:386] loss1/drop_fc -> loss1/fc (in-place)
I0403 10:35:23.387676 10136 net.cpp:141] Setting up loss1/drop_fc
I0403 10:35:23.387701 10136 net.cpp:148] Top shape: 24 1024 (24576)
I0403 10:35:23.387717 10136 net.cpp:156] Memory required for data: 946188672
I0403 10:35:23.387733 10136 layer_factory.hpp:77] Creating layer loss1/classifier_plantvillage
I0403 10:35:23.387758 10136 net.cpp:91] Creating Layer loss1/classifier_plantvillage
I0403 10:35:23.387776 10136 net.cpp:425] loss1/classifier_plantvillage <- loss1/fc
I0403 10:35:23.387799 10136 net.cpp:399] loss1/classifier_plantvillage -> loss1/classifier_plantvillage
I0403 10:35:23.388654 10136 net.cpp:141] Setting up loss1/classifier_plantvillage
I0403 10:35:23.388682 10136 net.cpp:148] Top shape: 24 38 (912)
I0403 10:35:23.388700 10136 net.cpp:156] Memory required for data: 946192320
I0403 10:35:23.388720 10136 layer_factory.hpp:77] Creating layer inception_4b/1x1
I0403 10:35:23.388747 10136 net.cpp:91] Creating Layer inception_4b/1x1
I0403 10:35:23.388767 10136 net.cpp:425] inception_4b/1x1 <- inception_4a/output_inception_4a/output_0_split_1
I0403 10:35:23.388789 10136 net.cpp:399] inception_4b/1x1 -> inception_4b/1x1
I0403 10:35:23.389467 10136 net.cpp:141] Setting up inception_4b/1x1
I0403 10:35:23.389493 10136 net.cpp:148] Top shape: 24 160 14 14 (752640)
I0403 10:35:23.389514 10136 net.cpp:156] Memory required for data: 949202880
I0403 10:35:23.389535 10136 layer_factory.hpp:77] Creating layer inception_4b/relu_1x1
I0403 10:35:23.389574 10136 net.cpp:91] Creating Layer inception_4b/relu_1x1
I0403 10:35:23.389592 10136 net.cpp:425] inception_4b/relu_1x1 <- inception_4b/1x1
I0403 10:35:23.389616 10136 net.cpp:386] inception_4b/relu_1x1 -> inception_4b/1x1 (in-place)
I0403 10:35:23.389638 10136 net.cpp:141] Setting up inception_4b/relu_1x1
I0403 10:35:23.389657 10136 net.cpp:148] Top shape: 24 160 14 14 (752640)
I0403 10:35:23.389673 10136 net.cpp:156] Memory required for data: 952213440
I0403 10:35:23.389688 10136 layer_factory.hpp:77] Creating layer inception_4b/3x3_reduce
I0403 10:35:23.389714 10136 net.cpp:91] Creating Layer inception_4b/3x3_reduce
I0403 10:35:23.389734 10136 net.cpp:425] inception_4b/3x3_reduce <- inception_4a/output_inception_4a/output_0_split_2
I0403 10:35:23.389753 10136 net.cpp:399] inception_4b/3x3_reduce -> inception_4b/3x3_reduce
I0403 10:35:23.390290 10136 net.cpp:141] Setting up inception_4b/3x3_reduce
I0403 10:35:23.390316 10136 net.cpp:148] Top shape: 24 112 14 14 (526848)
I0403 10:35:23.390332 10136 net.cpp:156] Memory required for data: 954320832
I0403 10:35:23.390352 10136 layer_factory.hpp:77] Creating layer inception_4b/relu_3x3_reduce
I0403 10:35:23.390372 10136 net.cpp:91] Creating Layer inception_4b/relu_3x3_reduce
I0403 10:35:23.390389 10136 net.cpp:425] inception_4b/relu_3x3_reduce <- inception_4b/3x3_reduce
I0403 10:35:23.390411 10136 net.cpp:386] inception_4b/relu_3x3_reduce -> inception_4b/3x3_reduce (in-place)
I0403 10:35:23.390434 10136 net.cpp:141] Setting up inception_4b/relu_3x3_reduce
I0403 10:35:23.390452 10136 net.cpp:148] Top shape: 24 112 14 14 (526848)
I0403 10:35:23.390468 10136 net.cpp:156] Memory required for data: 956428224
I0403 10:35:23.390485 10136 layer_factory.hpp:77] Creating layer inception_4b/3x3
I0403 10:35:23.390512 10136 net.cpp:91] Creating Layer inception_4b/3x3
I0403 10:35:23.390533 10136 net.cpp:425] inception_4b/3x3 <- inception_4b/3x3_reduce
I0403 10:35:23.390554 10136 net.cpp:399] inception_4b/3x3 -> inception_4b/3x3
I0403 10:35:23.392567 10136 net.cpp:141] Setting up inception_4b/3x3
I0403 10:35:23.392596 10136 net.cpp:148] Top shape: 24 224 14 14 (1053696)
I0403 10:35:23.392614 10136 net.cpp:156] Memory required for data: 960643008
I0403 10:35:23.392633 10136 layer_factory.hpp:77] Creating layer inception_4b/relu_3x3
I0403 10:35:23.392653 10136 net.cpp:91] Creating Layer inception_4b/relu_3x3
I0403 10:35:23.392671 10136 net.cpp:425] inception_4b/relu_3x3 <- inception_4b/3x3
I0403 10:35:23.392693 10136 net.cpp:386] inception_4b/relu_3x3 -> inception_4b/3x3 (in-place)
I0403 10:35:23.392715 10136 net.cpp:141] Setting up inception_4b/relu_3x3
I0403 10:35:23.392735 10136 net.cpp:148] Top shape: 24 224 14 14 (1053696)
I0403 10:35:23.392751 10136 net.cpp:156] Memory required for data: 964857792
I0403 10:35:23.392767 10136 layer_factory.hpp:77] Creating layer inception_4b/5x5_reduce
I0403 10:35:23.392791 10136 net.cpp:91] Creating Layer inception_4b/5x5_reduce
I0403 10:35:23.392812 10136 net.cpp:425] inception_4b/5x5_reduce <- inception_4a/output_inception_4a/output_0_split_3
I0403 10:35:23.392832 10136 net.cpp:399] inception_4b/5x5_reduce -> inception_4b/5x5_reduce
I0403 10:35:23.393124 10136 net.cpp:141] Setting up inception_4b/5x5_reduce
I0403 10:35:23.393151 10136 net.cpp:148] Top shape: 24 24 14 14 (112896)
I0403 10:35:23.393168 10136 net.cpp:156] Memory required for data: 965309376
I0403 10:35:23.393187 10136 layer_factory.hpp:77] Creating layer inception_4b/relu_5x5_reduce
I0403 10:35:23.393208 10136 net.cpp:91] Creating Layer inception_4b/relu_5x5_reduce
I0403 10:35:23.393225 10136 net.cpp:425] inception_4b/relu_5x5_reduce <- inception_4b/5x5_reduce
I0403 10:35:23.393251 10136 net.cpp:386] inception_4b/relu_5x5_reduce -> inception_4b/5x5_reduce (in-place)
I0403 10:35:23.393275 10136 net.cpp:141] Setting up inception_4b/relu_5x5_reduce
I0403 10:35:23.393293 10136 net.cpp:148] Top shape: 24 24 14 14 (112896)
I0403 10:35:23.393308 10136 net.cpp:156] Memory required for data: 965760960
I0403 10:35:23.393323 10136 layer_factory.hpp:77] Creating layer inception_4b/5x5
I0403 10:35:23.393364 10136 net.cpp:91] Creating Layer inception_4b/5x5
I0403 10:35:23.393385 10136 net.cpp:425] inception_4b/5x5 <- inception_4b/5x5_reduce
I0403 10:35:23.393406 10136 net.cpp:399] inception_4b/5x5 -> inception_4b/5x5
I0403 10:35:23.393841 10136 net.cpp:141] Setting up inception_4b/5x5
I0403 10:35:23.393868 10136 net.cpp:148] Top shape: 24 64 14 14 (301056)
I0403 10:35:23.393885 10136 net.cpp:156] Memory required for data: 966965184
I0403 10:35:23.393904 10136 layer_factory.hpp:77] Creating layer inception_4b/relu_5x5
I0403 10:35:23.393923 10136 net.cpp:91] Creating Layer inception_4b/relu_5x5
I0403 10:35:23.393942 10136 net.cpp:425] inception_4b/relu_5x5 <- inception_4b/5x5
I0403 10:35:23.393964 10136 net.cpp:386] inception_4b/relu_5x5 -> inception_4b/5x5 (in-place)
I0403 10:35:23.393986 10136 net.cpp:141] Setting up inception_4b/relu_5x5
I0403 10:35:23.394006 10136 net.cpp:148] Top shape: 24 64 14 14 (301056)
I0403 10:35:23.394021 10136 net.cpp:156] Memory required for data: 968169408
I0403 10:35:23.394037 10136 layer_factory.hpp:77] Creating layer inception_4b/pool
I0403 10:35:23.394057 10136 net.cpp:91] Creating Layer inception_4b/pool
I0403 10:35:23.394074 10136 net.cpp:425] inception_4b/pool <- inception_4a/output_inception_4a/output_0_split_4
I0403 10:35:23.394094 10136 net.cpp:399] inception_4b/pool -> inception_4b/pool
I0403 10:35:23.394150 10136 net.cpp:141] Setting up inception_4b/pool
I0403 10:35:23.394175 10136 net.cpp:148] Top shape: 24 512 14 14 (2408448)
I0403 10:35:23.394191 10136 net.cpp:156] Memory required for data: 977803200
I0403 10:35:23.394207 10136 layer_factory.hpp:77] Creating layer inception_4b/pool_proj
I0403 10:35:23.394232 10136 net.cpp:91] Creating Layer inception_4b/pool_proj
I0403 10:35:23.394251 10136 net.cpp:425] inception_4b/pool_proj <- inception_4b/pool
I0403 10:35:23.394273 10136 net.cpp:399] inception_4b/pool_proj -> inception_4b/pool_proj
I0403 10:35:23.394685 10136 net.cpp:141] Setting up inception_4b/pool_proj
I0403 10:35:23.394714 10136 net.cpp:148] Top shape: 24 64 14 14 (301056)
I0403 10:35:23.394732 10136 net.cpp:156] Memory required for data: 979007424
I0403 10:35:23.394752 10136 layer_factory.hpp:77] Creating layer inception_4b/relu_pool_proj
I0403 10:35:23.394773 10136 net.cpp:91] Creating Layer inception_4b/relu_pool_proj
I0403 10:35:23.394790 10136 net.cpp:425] inception_4b/relu_pool_proj <- inception_4b/pool_proj
I0403 10:35:23.394809 10136 net.cpp:386] inception_4b/relu_pool_proj -> inception_4b/pool_proj (in-place)
I0403 10:35:23.394840 10136 net.cpp:141] Setting up inception_4b/relu_pool_proj
I0403 10:35:23.394858 10136 net.cpp:148] Top shape: 24 64 14 14 (301056)
I0403 10:35:23.394875 10136 net.cpp:156] Memory required for data: 980211648
I0403 10:35:23.394889 10136 layer_factory.hpp:77] Creating layer inception_4b/output
I0403 10:35:23.394908 10136 net.cpp:91] Creating Layer inception_4b/output
I0403 10:35:23.394925 10136 net.cpp:425] inception_4b/output <- inception_4b/1x1
I0403 10:35:23.394943 10136 net.cpp:425] inception_4b/output <- inception_4b/3x3
I0403 10:35:23.394960 10136 net.cpp:425] inception_4b/output <- inception_4b/5x5
I0403 10:35:23.394979 10136 net.cpp:425] inception_4b/output <- inception_4b/pool_proj
I0403 10:35:23.395000 10136 net.cpp:399] inception_4b/output -> inception_4b/output
I0403 10:35:23.395042 10136 net.cpp:141] Setting up inception_4b/output
I0403 10:35:23.395066 10136 net.cpp:148] Top shape: 24 512 14 14 (2408448)
I0403 10:35:23.395083 10136 net.cpp:156] Memory required for data: 989845440
I0403 10:35:23.395099 10136 layer_factory.hpp:77] Creating layer inception_4b/output_inception_4b/output_0_split
I0403 10:35:23.395119 10136 net.cpp:91] Creating Layer inception_4b/output_inception_4b/output_0_split
I0403 10:35:23.395138 10136 net.cpp:425] inception_4b/output_inception_4b/output_0_split <- inception_4b/output
I0403 10:35:23.395158 10136 net.cpp:399] inception_4b/output_inception_4b/output_0_split -> inception_4b/output_inception_4b/output_0_split_0
I0403 10:35:23.395181 10136 net.cpp:399] inception_4b/output_inception_4b/output_0_split -> inception_4b/output_inception_4b/output_0_split_1
I0403 10:35:23.395217 10136 net.cpp:399] inception_4b/output_inception_4b/output_0_split -> inception_4b/output_inception_4b/output_0_split_2
I0403 10:35:23.395242 10136 net.cpp:399] inception_4b/output_inception_4b/output_0_split -> inception_4b/output_inception_4b/output_0_split_3
I0403 10:35:23.395313 10136 net.cpp:141] Setting up inception_4b/output_inception_4b/output_0_split
I0403 10:35:23.395339 10136 net.cpp:148] Top shape: 24 512 14 14 (2408448)
I0403 10:35:23.395357 10136 net.cpp:148] Top shape: 24 512 14 14 (2408448)
I0403 10:35:23.395375 10136 net.cpp:148] Top shape: 24 512 14 14 (2408448)
I0403 10:35:23.395390 10136 net.cpp:148] Top shape: 24 512 14 14 (2408448)
I0403 10:35:23.395406 10136 net.cpp:156] Memory required for data: 1028380608
I0403 10:35:23.395422 10136 layer_factory.hpp:77] Creating layer inception_4c/1x1
I0403 10:35:23.395447 10136 net.cpp:91] Creating Layer inception_4c/1x1
I0403 10:35:23.395467 10136 net.cpp:425] inception_4c/1x1 <- inception_4b/output_inception_4b/output_0_split_0
I0403 10:35:23.395490 10136 net.cpp:399] inception_4c/1x1 -> inception_4c/1x1
I0403 10:35:23.396076 10136 net.cpp:141] Setting up inception_4c/1x1
I0403 10:35:23.396103 10136 net.cpp:148] Top shape: 24 128 14 14 (602112)
I0403 10:35:23.396121 10136 net.cpp:156] Memory required for data: 1030789056
I0403 10:35:23.396139 10136 layer_factory.hpp:77] Creating layer inception_4c/relu_1x1
I0403 10:35:23.396162 10136 net.cpp:91] Creating Layer inception_4c/relu_1x1
I0403 10:35:23.396183 10136 net.cpp:425] inception_4c/relu_1x1 <- inception_4c/1x1
I0403 10:35:23.396201 10136 net.cpp:386] inception_4c/relu_1x1 -> inception_4c/1x1 (in-place)
I0403 10:35:23.396222 10136 net.cpp:141] Setting up inception_4c/relu_1x1
I0403 10:35:23.396240 10136 net.cpp:148] Top shape: 24 128 14 14 (602112)
I0403 10:35:23.396256 10136 net.cpp:156] Memory required for data: 1033197504
I0403 10:35:23.396272 10136 layer_factory.hpp:77] Creating layer inception_4c/3x3_reduce
I0403 10:35:23.396297 10136 net.cpp:91] Creating Layer inception_4c/3x3_reduce
I0403 10:35:23.396316 10136 net.cpp:425] inception_4c/3x3_reduce <- inception_4b/output_inception_4b/output_0_split_1
I0403 10:35:23.396338 10136 net.cpp:399] inception_4c/3x3_reduce -> inception_4c/3x3_reduce
I0403 10:35:23.397452 10136 net.cpp:141] Setting up inception_4c/3x3_reduce
I0403 10:35:23.397481 10136 net.cpp:148] Top shape: 24 128 14 14 (602112)
I0403 10:35:23.397498 10136 net.cpp:156] Memory required for data: 1035605952
I0403 10:35:23.397523 10136 layer_factory.hpp:77] Creating layer inception_4c/relu_3x3_reduce
I0403 10:35:23.397547 10136 net.cpp:91] Creating Layer inception_4c/relu_3x3_reduce
I0403 10:35:23.397564 10136 net.cpp:425] inception_4c/relu_3x3_reduce <- inception_4c/3x3_reduce
I0403 10:35:23.397586 10136 net.cpp:386] inception_4c/relu_3x3_reduce -> inception_4c/3x3_reduce (in-place)
I0403 10:35:23.397608 10136 net.cpp:141] Setting up inception_4c/relu_3x3_reduce
I0403 10:35:23.397629 10136 net.cpp:148] Top shape: 24 128 14 14 (602112)
I0403 10:35:23.397644 10136 net.cpp:156] Memory required for data: 1038014400
I0403 10:35:23.397660 10136 layer_factory.hpp:77] Creating layer inception_4c/3x3
I0403 10:35:23.397683 10136 net.cpp:91] Creating Layer inception_4c/3x3
I0403 10:35:23.397703 10136 net.cpp:425] inception_4c/3x3 <- inception_4c/3x3_reduce
I0403 10:35:23.397723 10136 net.cpp:399] inception_4c/3x3 -> inception_4c/3x3
I0403 10:35:23.400166 10136 net.cpp:141] Setting up inception_4c/3x3
I0403 10:35:23.400194 10136 net.cpp:148] Top shape: 24 256 14 14 (1204224)
I0403 10:35:23.400213 10136 net.cpp:156] Memory required for data: 1042831296
I0403 10:35:23.400243 10136 layer_factory.hpp:77] Creating layer inception_4c/relu_3x3
I0403 10:35:23.400265 10136 net.cpp:91] Creating Layer inception_4c/relu_3x3
I0403 10:35:23.400285 10136 net.cpp:425] inception_4c/relu_3x3 <- inception_4c/3x3
I0403 10:35:23.400305 10136 net.cpp:386] inception_4c/relu_3x3 -> inception_4c/3x3 (in-place)
I0403 10:35:23.400342 10136 net.cpp:141] Setting up inception_4c/relu_3x3
I0403 10:35:23.400362 10136 net.cpp:148] Top shape: 24 256 14 14 (1204224)
I0403 10:35:23.400377 10136 net.cpp:156] Memory required for data: 1047648192
I0403 10:35:23.400393 10136 layer_factory.hpp:77] Creating layer inception_4c/5x5_reduce
I0403 10:35:23.400413 10136 net.cpp:91] Creating Layer inception_4c/5x5_reduce
I0403 10:35:23.400432 10136 net.cpp:425] inception_4c/5x5_reduce <- inception_4b/output_inception_4b/output_0_split_2
I0403 10:35:23.400456 10136 net.cpp:399] inception_4c/5x5_reduce -> inception_4c/5x5_reduce
I0403 10:35:23.400745 10136 net.cpp:141] Setting up inception_4c/5x5_reduce
I0403 10:35:23.400771 10136 net.cpp:148] Top shape: 24 24 14 14 (112896)
I0403 10:35:23.400799 10136 net.cpp:156] Memory required for data: 1048099776
I0403 10:35:23.400818 10136 layer_factory.hpp:77] Creating layer inception_4c/relu_5x5_reduce
I0403 10:35:23.400838 10136 net.cpp:91] Creating Layer inception_4c/relu_5x5_reduce
I0403 10:35:23.400857 10136 net.cpp:425] inception_4c/relu_5x5_reduce <- inception_4c/5x5_reduce
I0403 10:35:23.400874 10136 net.cpp:386] inception_4c/relu_5x5_reduce -> inception_4c/5x5_reduce (in-place)
I0403 10:35:23.400894 10136 net.cpp:141] Setting up inception_4c/relu_5x5_reduce
I0403 10:35:23.400913 10136 net.cpp:148] Top shape: 24 24 14 14 (112896)
I0403 10:35:23.400928 10136 net.cpp:156] Memory required for data: 1048551360
I0403 10:35:23.400943 10136 layer_factory.hpp:77] Creating layer inception_4c/5x5
I0403 10:35:23.400967 10136 net.cpp:91] Creating Layer inception_4c/5x5
I0403 10:35:23.400986 10136 net.cpp:425] inception_4c/5x5 <- inception_4c/5x5_reduce
I0403 10:35:23.401006 10136 net.cpp:399] inception_4c/5x5 -> inception_4c/5x5
I0403 10:35:23.401417 10136 net.cpp:141] Setting up inception_4c/5x5
I0403 10:35:23.401442 10136 net.cpp:148] Top shape: 24 64 14 14 (301056)
I0403 10:35:23.401456 10136 net.cpp:156] Memory required for data: 1049755584
I0403 10:35:23.401474 10136 layer_factory.hpp:77] Creating layer inception_4c/relu_5x5
I0403 10:35:23.401494 10136 net.cpp:91] Creating Layer inception_4c/relu_5x5
I0403 10:35:23.401516 10136 net.cpp:425] inception_4c/relu_5x5 <- inception_4c/5x5
I0403 10:35:23.401536 10136 net.cpp:386] inception_4c/relu_5x5 -> inception_4c/5x5 (in-place)
I0403 10:35:23.401556 10136 net.cpp:141] Setting up inception_4c/relu_5x5
I0403 10:35:23.401574 10136 net.cpp:148] Top shape: 24 64 14 14 (301056)
I0403 10:35:23.401589 10136 net.cpp:156] Memory required for data: 1050959808
I0403 10:35:23.401605 10136 layer_factory.hpp:77] Creating layer inception_4c/pool
I0403 10:35:23.401625 10136 net.cpp:91] Creating Layer inception_4c/pool
I0403 10:35:23.401641 10136 net.cpp:425] inception_4c/pool <- inception_4b/output_inception_4b/output_0_split_3
I0403 10:35:23.401659 10136 net.cpp:399] inception_4c/pool -> inception_4c/pool
I0403 10:35:23.401710 10136 net.cpp:141] Setting up inception_4c/pool
I0403 10:35:23.401733 10136 net.cpp:148] Top shape: 24 512 14 14 (2408448)
I0403 10:35:23.401751 10136 net.cpp:156] Memory required for data: 1060593600
I0403 10:35:23.401765 10136 layer_factory.hpp:77] Creating layer inception_4c/pool_proj
I0403 10:35:23.401790 10136 net.cpp:91] Creating Layer inception_4c/pool_proj
I0403 10:35:23.401808 10136 net.cpp:425] inception_4c/pool_proj <- inception_4c/pool
I0403 10:35:23.401829 10136 net.cpp:399] inception_4c/pool_proj -> inception_4c/pool_proj
I0403 10:35:23.402209 10136 net.cpp:141] Setting up inception_4c/pool_proj
I0403 10:35:23.402235 10136 net.cpp:148] Top shape: 24 64 14 14 (301056)
I0403 10:35:23.402251 10136 net.cpp:156] Memory required for data: 1061797824
I0403 10:35:23.402269 10136 layer_factory.hpp:77] Creating layer inception_4c/relu_pool_proj
I0403 10:35:23.402292 10136 net.cpp:91] Creating Layer inception_4c/relu_pool_proj
I0403 10:35:23.402308 10136 net.cpp:425] inception_4c/relu_pool_proj <- inception_4c/pool_proj
I0403 10:35:23.402326 10136 net.cpp:386] inception_4c/relu_pool_proj -> inception_4c/pool_proj (in-place)
I0403 10:35:23.402348 10136 net.cpp:141] Setting up inception_4c/relu_pool_proj
I0403 10:35:23.402379 10136 net.cpp:148] Top shape: 24 64 14 14 (301056)
I0403 10:35:23.402395 10136 net.cpp:156] Memory required for data: 1063002048
I0403 10:35:23.402410 10136 layer_factory.hpp:77] Creating layer inception_4c/output
I0403 10:35:23.402427 10136 net.cpp:91] Creating Layer inception_4c/output
I0403 10:35:23.402443 10136 net.cpp:425] inception_4c/output <- inception_4c/1x1
I0403 10:35:23.402462 10136 net.cpp:425] inception_4c/output <- inception_4c/3x3
I0403 10:35:23.402477 10136 net.cpp:425] inception_4c/output <- inception_4c/5x5
I0403 10:35:23.402494 10136 net.cpp:425] inception_4c/output <- inception_4c/pool_proj
I0403 10:35:23.402516 10136 net.cpp:399] inception_4c/output -> inception_4c/output
I0403 10:35:23.402573 10136 net.cpp:141] Setting up inception_4c/output
I0403 10:35:23.402609 10136 net.cpp:148] Top shape: 24 512 14 14 (2408448)
I0403 10:35:23.402626 10136 net.cpp:156] Memory required for data: 1072635840
I0403 10:35:23.402643 10136 layer_factory.hpp:77] Creating layer inception_4c/output_inception_4c/output_0_split
I0403 10:35:23.402664 10136 net.cpp:91] Creating Layer inception_4c/output_inception_4c/output_0_split
I0403 10:35:23.402683 10136 net.cpp:425] inception_4c/output_inception_4c/output_0_split <- inception_4c/output
I0403 10:35:23.402704 10136 net.cpp:399] inception_4c/output_inception_4c/output_0_split -> inception_4c/output_inception_4c/output_0_split_0
I0403 10:35:23.402725 10136 net.cpp:399] inception_4c/output_inception_4c/output_0_split -> inception_4c/output_inception_4c/output_0_split_1
I0403 10:35:23.402747 10136 net.cpp:399] inception_4c/output_inception_4c/output_0_split -> inception_4c/output_inception_4c/output_0_split_2
I0403 10:35:23.402770 10136 net.cpp:399] inception_4c/output_inception_4c/output_0_split -> inception_4c/output_inception_4c/output_0_split_3
I0403 10:35:23.402842 10136 net.cpp:141] Setting up inception_4c/output_inception_4c/output_0_split
I0403 10:35:23.402878 10136 net.cpp:148] Top shape: 24 512 14 14 (2408448)
I0403 10:35:23.402894 10136 net.cpp:148] Top shape: 24 512 14 14 (2408448)
I0403 10:35:23.402911 10136 net.cpp:148] Top shape: 24 512 14 14 (2408448)
I0403 10:35:23.402927 10136 net.cpp:148] Top shape: 24 512 14 14 (2408448)
I0403 10:35:23.402942 10136 net.cpp:156] Memory required for data: 1111171008
I0403 10:35:23.402958 10136 layer_factory.hpp:77] Creating layer inception_4d/1x1
I0403 10:35:23.402982 10136 net.cpp:91] Creating Layer inception_4d/1x1
I0403 10:35:23.403002 10136 net.cpp:425] inception_4d/1x1 <- inception_4c/output_inception_4c/output_0_split_0
I0403 10:35:23.403024 10136 net.cpp:399] inception_4d/1x1 -> inception_4d/1x1
I0403 10:35:23.403551 10136 net.cpp:141] Setting up inception_4d/1x1
I0403 10:35:23.403578 10136 net.cpp:148] Top shape: 24 112 14 14 (526848)
I0403 10:35:23.403594 10136 net.cpp:156] Memory required for data: 1113278400
I0403 10:35:23.403611 10136 layer_factory.hpp:77] Creating layer inception_4d/relu_1x1
I0403 10:35:23.403633 10136 net.cpp:91] Creating Layer inception_4d/relu_1x1
I0403 10:35:23.403652 10136 net.cpp:425] inception_4d/relu_1x1 <- inception_4d/1x1
I0403 10:35:23.403671 10136 net.cpp:386] inception_4d/relu_1x1 -> inception_4d/1x1 (in-place)
I0403 10:35:23.403692 10136 net.cpp:141] Setting up inception_4d/relu_1x1
I0403 10:35:23.403710 10136 net.cpp:148] Top shape: 24 112 14 14 (526848)
I0403 10:35:23.403726 10136 net.cpp:156] Memory required for data: 1115385792
I0403 10:35:23.403741 10136 layer_factory.hpp:77] Creating layer inception_4d/3x3_reduce
I0403 10:35:23.403765 10136 net.cpp:91] Creating Layer inception_4d/3x3_reduce
I0403 10:35:23.403784 10136 net.cpp:425] inception_4d/3x3_reduce <- inception_4c/output_inception_4c/output_0_split_1
I0403 10:35:23.403806 10136 net.cpp:399] inception_4d/3x3_reduce -> inception_4d/3x3_reduce
I0403 10:35:23.404433 10136 net.cpp:141] Setting up inception_4d/3x3_reduce
I0403 10:35:23.404461 10136 net.cpp:148] Top shape: 24 144 14 14 (677376)
I0403 10:35:23.404479 10136 net.cpp:156] Memory required for data: 1118095296
I0403 10:35:23.404515 10136 layer_factory.hpp:77] Creating layer inception_4d/relu_3x3_reduce
I0403 10:35:23.404537 10136 net.cpp:91] Creating Layer inception_4d/relu_3x3_reduce
I0403 10:35:23.404556 10136 net.cpp:425] inception_4d/relu_3x3_reduce <- inception_4d/3x3_reduce
I0403 10:35:23.404574 10136 net.cpp:386] inception_4d/relu_3x3_reduce -> inception_4d/3x3_reduce (in-place)
I0403 10:35:23.404594 10136 net.cpp:141] Setting up inception_4d/relu_3x3_reduce
I0403 10:35:23.404613 10136 net.cpp:148] Top shape: 24 144 14 14 (677376)
I0403 10:35:23.404629 10136 net.cpp:156] Memory required for data: 1120804800
I0403 10:35:23.404644 10136 layer_factory.hpp:77] Creating layer inception_4d/3x3
I0403 10:35:23.404669 10136 net.cpp:91] Creating Layer inception_4d/3x3
I0403 10:35:23.404687 10136 net.cpp:425] inception_4d/3x3 <- inception_4d/3x3_reduce
I0403 10:35:23.404711 10136 net.cpp:399] inception_4d/3x3 -> inception_4d/3x3
I0403 10:35:23.407794 10136 net.cpp:141] Setting up inception_4d/3x3
I0403 10:35:23.407824 10136 net.cpp:148] Top shape: 24 288 14 14 (1354752)
I0403 10:35:23.407840 10136 net.cpp:156] Memory required for data: 1126223808
I0403 10:35:23.407860 10136 layer_factory.hpp:77] Creating layer inception_4d/relu_3x3
I0403 10:35:23.407879 10136 net.cpp:91] Creating Layer inception_4d/relu_3x3
I0403 10:35:23.407898 10136 net.cpp:425] inception_4d/relu_3x3 <- inception_4d/3x3
I0403 10:35:23.407917 10136 net.cpp:386] inception_4d/relu_3x3 -> inception_4d/3x3 (in-place)
I0403 10:35:23.407941 10136 net.cpp:141] Setting up inception_4d/relu_3x3
I0403 10:35:23.407960 10136 net.cpp:148] Top shape: 24 288 14 14 (1354752)
I0403 10:35:23.407976 10136 net.cpp:156] Memory required for data: 1131642816
I0403 10:35:23.407991 10136 layer_factory.hpp:77] Creating layer inception_4d/5x5_reduce
I0403 10:35:23.408013 10136 net.cpp:91] Creating Layer inception_4d/5x5_reduce
I0403 10:35:23.408031 10136 net.cpp:425] inception_4d/5x5_reduce <- inception_4c/output_inception_4c/output_0_split_2
I0403 10:35:23.408054 10136 net.cpp:399] inception_4d/5x5_reduce -> inception_4d/5x5_reduce
I0403 10:35:23.408365 10136 net.cpp:141] Setting up inception_4d/5x5_reduce
I0403 10:35:23.408390 10136 net.cpp:148] Top shape: 24 32 14 14 (150528)
I0403 10:35:23.408406 10136 net.cpp:156] Memory required for data: 1132244928
I0403 10:35:23.408426 10136 layer_factory.hpp:77] Creating layer inception_4d/relu_5x5_reduce
I0403 10:35:23.408444 10136 net.cpp:91] Creating Layer inception_4d/relu_5x5_reduce
I0403 10:35:23.408463 10136 net.cpp:425] inception_4d/relu_5x5_reduce <- inception_4d/5x5_reduce
I0403 10:35:23.408480 10136 net.cpp:386] inception_4d/relu_5x5_reduce -> inception_4d/5x5_reduce (in-place)
I0403 10:35:23.408500 10136 net.cpp:141] Setting up inception_4d/relu_5x5_reduce
I0403 10:35:23.408524 10136 net.cpp:148] Top shape: 24 32 14 14 (150528)
I0403 10:35:23.408541 10136 net.cpp:156] Memory required for data: 1132847040
I0403 10:35:23.408557 10136 layer_factory.hpp:77] Creating layer inception_4d/5x5
I0403 10:35:23.408581 10136 net.cpp:91] Creating Layer inception_4d/5x5
I0403 10:35:23.408601 10136 net.cpp:425] inception_4d/5x5 <- inception_4d/5x5_reduce
I0403 10:35:23.408624 10136 net.cpp:399] inception_4d/5x5 -> inception_4d/5x5
I0403 10:35:23.409116 10136 net.cpp:141] Setting up inception_4d/5x5
I0403 10:35:23.409142 10136 net.cpp:148] Top shape: 24 64 14 14 (301056)
I0403 10:35:23.409157 10136 net.cpp:156] Memory required for data: 1134051264
I0403 10:35:23.409176 10136 layer_factory.hpp:77] Creating layer inception_4d/relu_5x5
I0403 10:35:23.409195 10136 net.cpp:91] Creating Layer inception_4d/relu_5x5
I0403 10:35:23.409214 10136 net.cpp:425] inception_4d/relu_5x5 <- inception_4d/5x5
I0403 10:35:23.409232 10136 net.cpp:386] inception_4d/relu_5x5 -> inception_4d/5x5 (in-place)
I0403 10:35:23.409255 10136 net.cpp:141] Setting up inception_4d/relu_5x5
I0403 10:35:23.409276 10136 net.cpp:148] Top shape: 24 64 14 14 (301056)
I0403 10:35:23.409292 10136 net.cpp:156] Memory required for data: 1135255488
I0403 10:35:23.409308 10136 layer_factory.hpp:77] Creating layer inception_4d/pool
I0403 10:35:23.409342 10136 net.cpp:91] Creating Layer inception_4d/pool
I0403 10:35:23.409359 10136 net.cpp:425] inception_4d/pool <- inception_4c/output_inception_4c/output_0_split_3
I0403 10:35:23.409379 10136 net.cpp:399] inception_4d/pool -> inception_4d/pool
I0403 10:35:23.409435 10136 net.cpp:141] Setting up inception_4d/pool
I0403 10:35:23.409459 10136 net.cpp:148] Top shape: 24 512 14 14 (2408448)
I0403 10:35:23.409476 10136 net.cpp:156] Memory required for data: 1144889280
I0403 10:35:23.409490 10136 layer_factory.hpp:77] Creating layer inception_4d/pool_proj
I0403 10:35:23.409518 10136 net.cpp:91] Creating Layer inception_4d/pool_proj
I0403 10:35:23.409539 10136 net.cpp:425] inception_4d/pool_proj <- inception_4d/pool
I0403 10:35:23.409562 10136 net.cpp:399] inception_4d/pool_proj -> inception_4d/pool_proj
I0403 10:35:23.410465 10136 net.cpp:141] Setting up inception_4d/pool_proj
I0403 10:35:23.410497 10136 net.cpp:148] Top shape: 24 64 14 14 (301056)
I0403 10:35:23.410521 10136 net.cpp:156] Memory required for data: 1146093504
I0403 10:35:23.410542 10136 layer_factory.hpp:77] Creating layer inception_4d/relu_pool_proj
I0403 10:35:23.410562 10136 net.cpp:91] Creating Layer inception_4d/relu_pool_proj
I0403 10:35:23.410580 10136 net.cpp:425] inception_4d/relu_pool_proj <- inception_4d/pool_proj
I0403 10:35:23.410599 10136 net.cpp:386] inception_4d/relu_pool_proj -> inception_4d/pool_proj (in-place)
I0403 10:35:23.410621 10136 net.cpp:141] Setting up inception_4d/relu_pool_proj
I0403 10:35:23.410640 10136 net.cpp:148] Top shape: 24 64 14 14 (301056)
I0403 10:35:23.410656 10136 net.cpp:156] Memory required for data: 1147297728
I0403 10:35:23.410671 10136 layer_factory.hpp:77] Creating layer inception_4d/output
I0403 10:35:23.410691 10136 net.cpp:91] Creating Layer inception_4d/output
I0403 10:35:23.410707 10136 net.cpp:425] inception_4d/output <- inception_4d/1x1
I0403 10:35:23.410725 10136 net.cpp:425] inception_4d/output <- inception_4d/3x3
I0403 10:35:23.410742 10136 net.cpp:425] inception_4d/output <- inception_4d/5x5
I0403 10:35:23.410758 10136 net.cpp:425] inception_4d/output <- inception_4d/pool_proj
I0403 10:35:23.410779 10136 net.cpp:399] inception_4d/output -> inception_4d/output
I0403 10:35:23.410822 10136 net.cpp:141] Setting up inception_4d/output
I0403 10:35:23.410848 10136 net.cpp:148] Top shape: 24 528 14 14 (2483712)
I0403 10:35:23.410866 10136 net.cpp:156] Memory required for data: 1157232576
I0403 10:35:23.410882 10136 layer_factory.hpp:77] Creating layer inception_4d/output_inception_4d/output_0_split
I0403 10:35:23.410902 10136 net.cpp:91] Creating Layer inception_4d/output_inception_4d/output_0_split
I0403 10:35:23.410917 10136 net.cpp:425] inception_4d/output_inception_4d/output_0_split <- inception_4d/output
I0403 10:35:23.410936 10136 net.cpp:399] inception_4d/output_inception_4d/output_0_split -> inception_4d/output_inception_4d/output_0_split_0
I0403 10:35:23.410959 10136 net.cpp:399] inception_4d/output_inception_4d/output_0_split -> inception_4d/output_inception_4d/output_0_split_1
I0403 10:35:23.410985 10136 net.cpp:399] inception_4d/output_inception_4d/output_0_split -> inception_4d/output_inception_4d/output_0_split_2
I0403 10:35:23.411008 10136 net.cpp:399] inception_4d/output_inception_4d/output_0_split -> inception_4d/output_inception_4d/output_0_split_3
I0403 10:35:23.411031 10136 net.cpp:399] inception_4d/output_inception_4d/output_0_split -> inception_4d/output_inception_4d/output_0_split_4
I0403 10:35:23.411109 10136 net.cpp:141] Setting up inception_4d/output_inception_4d/output_0_split
I0403 10:35:23.411134 10136 net.cpp:148] Top shape: 24 528 14 14 (2483712)
I0403 10:35:23.411151 10136 net.cpp:148] Top shape: 24 528 14 14 (2483712)
I0403 10:35:23.411169 10136 net.cpp:148] Top shape: 24 528 14 14 (2483712)
I0403 10:35:23.411185 10136 net.cpp:148] Top shape: 24 528 14 14 (2483712)
I0403 10:35:23.411201 10136 net.cpp:148] Top shape: 24 528 14 14 (2483712)
I0403 10:35:23.411216 10136 net.cpp:156] Memory required for data: 1206906816
I0403 10:35:23.411245 10136 layer_factory.hpp:77] Creating layer loss2/ave_pool
I0403 10:35:23.411268 10136 net.cpp:91] Creating Layer loss2/ave_pool
I0403 10:35:23.411288 10136 net.cpp:425] loss2/ave_pool <- inception_4d/output_inception_4d/output_0_split_0
I0403 10:35:23.411309 10136 net.cpp:399] loss2/ave_pool -> loss2/ave_pool
I0403 10:35:23.411348 10136 net.cpp:141] Setting up loss2/ave_pool
I0403 10:35:23.411373 10136 net.cpp:148] Top shape: 24 528 4 4 (202752)
I0403 10:35:23.411389 10136 net.cpp:156] Memory required for data: 1207717824
I0403 10:35:23.411406 10136 layer_factory.hpp:77] Creating layer loss2/conv
I0403 10:35:23.411429 10136 net.cpp:91] Creating Layer loss2/conv
I0403 10:35:23.411448 10136 net.cpp:425] loss2/conv <- loss2/ave_pool
I0403 10:35:23.411469 10136 net.cpp:399] loss2/conv -> loss2/conv
I0403 10:35:23.412564 10136 net.cpp:141] Setting up loss2/conv
I0403 10:35:23.412592 10136 net.cpp:148] Top shape: 24 128 4 4 (49152)
I0403 10:35:23.412608 10136 net.cpp:156] Memory required for data: 1207914432
I0403 10:35:23.412628 10136 layer_factory.hpp:77] Creating layer loss2/relu_conv
I0403 10:35:23.412649 10136 net.cpp:91] Creating Layer loss2/relu_conv
I0403 10:35:23.412667 10136 net.cpp:425] loss2/relu_conv <- loss2/conv
I0403 10:35:23.412690 10136 net.cpp:386] loss2/relu_conv -> loss2/conv (in-place)
I0403 10:35:23.412713 10136 net.cpp:141] Setting up loss2/relu_conv
I0403 10:35:23.412731 10136 net.cpp:148] Top shape: 24 128 4 4 (49152)
I0403 10:35:23.412746 10136 net.cpp:156] Memory required for data: 1208111040
I0403 10:35:23.412762 10136 layer_factory.hpp:77] Creating layer loss2/fc
I0403 10:35:23.412781 10136 net.cpp:91] Creating Layer loss2/fc
I0403 10:35:23.412799 10136 net.cpp:425] loss2/fc <- loss2/conv
I0403 10:35:23.412822 10136 net.cpp:399] loss2/fc -> loss2/fc
I0403 10:35:23.428236 10136 net.cpp:141] Setting up loss2/fc
I0403 10:35:23.428272 10136 net.cpp:148] Top shape: 24 1024 (24576)
I0403 10:35:23.428288 10136 net.cpp:156] Memory required for data: 1208209344
I0403 10:35:23.428308 10136 layer_factory.hpp:77] Creating layer loss2/relu_fc
I0403 10:35:23.428328 10136 net.cpp:91] Creating Layer loss2/relu_fc
I0403 10:35:23.428345 10136 net.cpp:425] loss2/relu_fc <- loss2/fc
I0403 10:35:23.428369 10136 net.cpp:386] loss2/relu_fc -> loss2/fc (in-place)
I0403 10:35:23.428390 10136 net.cpp:141] Setting up loss2/relu_fc
I0403 10:35:23.428409 10136 net.cpp:148] Top shape: 24 1024 (24576)
I0403 10:35:23.428424 10136 net.cpp:156] Memory required for data: 1208307648
I0403 10:35:23.428439 10136 layer_factory.hpp:77] Creating layer loss2/drop_fc
I0403 10:35:23.428459 10136 net.cpp:91] Creating Layer loss2/drop_fc
I0403 10:35:23.428474 10136 net.cpp:425] loss2/drop_fc <- loss2/fc
I0403 10:35:23.428495 10136 net.cpp:386] loss2/drop_fc -> loss2/fc (in-place)
I0403 10:35:23.428539 10136 net.cpp:141] Setting up loss2/drop_fc
I0403 10:35:23.428562 10136 net.cpp:148] Top shape: 24 1024 (24576)
I0403 10:35:23.428580 10136 net.cpp:156] Memory required for data: 1208405952
I0403 10:35:23.428594 10136 layer_factory.hpp:77] Creating layer loss2/classifier_plantvillage
I0403 10:35:23.428616 10136 net.cpp:91] Creating Layer loss2/classifier_plantvillage
I0403 10:35:23.428634 10136 net.cpp:425] loss2/classifier_plantvillage <- loss2/fc
I0403 10:35:23.428655 10136 net.cpp:399] loss2/classifier_plantvillage -> loss2/classifier_plantvillage
I0403 10:35:23.428967 10136 net.cpp:141] Setting up loss2/classifier_plantvillage
I0403 10:35:23.428992 10136 net.cpp:148] Top shape: 24 38 (912)
I0403 10:35:23.429008 10136 net.cpp:156] Memory required for data: 1208409600
I0403 10:35:23.429025 10136 layer_factory.hpp:77] Creating layer inception_4e/1x1
I0403 10:35:23.429052 10136 net.cpp:91] Creating Layer inception_4e/1x1
I0403 10:35:23.429071 10136 net.cpp:425] inception_4e/1x1 <- inception_4d/output_inception_4d/output_0_split_1
I0403 10:35:23.429095 10136 net.cpp:399] inception_4e/1x1 -> inception_4e/1x1
I0403 10:35:23.430019 10136 net.cpp:141] Setting up inception_4e/1x1
I0403 10:35:23.430045 10136 net.cpp:148] Top shape: 24 256 14 14 (1204224)
I0403 10:35:23.430078 10136 net.cpp:156] Memory required for data: 1213226496
I0403 10:35:23.430096 10136 layer_factory.hpp:77] Creating layer inception_4e/relu_1x1
I0403 10:35:23.430116 10136 net.cpp:91] Creating Layer inception_4e/relu_1x1
I0403 10:35:23.430135 10136 net.cpp:425] inception_4e/relu_1x1 <- inception_4e/1x1
I0403 10:35:23.430153 10136 net.cpp:386] inception_4e/relu_1x1 -> inception_4e/1x1 (in-place)
I0403 10:35:23.430172 10136 net.cpp:141] Setting up inception_4e/relu_1x1
I0403 10:35:23.430191 10136 net.cpp:148] Top shape: 24 256 14 14 (1204224)
I0403 10:35:23.430205 10136 net.cpp:156] Memory required for data: 1218043392
I0403 10:35:23.430220 10136 layer_factory.hpp:77] Creating layer inception_4e/3x3_reduce
I0403 10:35:23.430243 10136 net.cpp:91] Creating Layer inception_4e/3x3_reduce
I0403 10:35:23.430263 10136 net.cpp:425] inception_4e/3x3_reduce <- inception_4d/output_inception_4d/output_0_split_2
I0403 10:35:23.430284 10136 net.cpp:399] inception_4e/3x3_reduce -> inception_4e/3x3_reduce
I0403 10:35:23.431445 10136 net.cpp:141] Setting up inception_4e/3x3_reduce
I0403 10:35:23.431473 10136 net.cpp:148] Top shape: 24 160 14 14 (752640)
I0403 10:35:23.431490 10136 net.cpp:156] Memory required for data: 1221053952
I0403 10:35:23.431512 10136 layer_factory.hpp:77] Creating layer inception_4e/relu_3x3_reduce
I0403 10:35:23.431534 10136 net.cpp:91] Creating Layer inception_4e/relu_3x3_reduce
I0403 10:35:23.431551 10136 net.cpp:425] inception_4e/relu_3x3_reduce <- inception_4e/3x3_reduce
I0403 10:35:23.431572 10136 net.cpp:386] inception_4e/relu_3x3_reduce -> inception_4e/3x3_reduce (in-place)
I0403 10:35:23.431592 10136 net.cpp:141] Setting up inception_4e/relu_3x3_reduce
I0403 10:35:23.431612 10136 net.cpp:148] Top shape: 24 160 14 14 (752640)
I0403 10:35:23.431627 10136 net.cpp:156] Memory required for data: 1224064512
I0403 10:35:23.431643 10136 layer_factory.hpp:77] Creating layer inception_4e/3x3
I0403 10:35:23.431666 10136 net.cpp:91] Creating Layer inception_4e/3x3
I0403 10:35:23.431685 10136 net.cpp:425] inception_4e/3x3 <- inception_4e/3x3_reduce
I0403 10:35:23.431705 10136 net.cpp:399] inception_4e/3x3 -> inception_4e/3x3
I0403 10:35:23.435359 10136 net.cpp:141] Setting up inception_4e/3x3
I0403 10:35:23.435387 10136 net.cpp:148] Top shape: 24 320 14 14 (1505280)
I0403 10:35:23.435405 10136 net.cpp:156] Memory required for data: 1230085632
I0403 10:35:23.435425 10136 layer_factory.hpp:77] Creating layer inception_4e/relu_3x3
I0403 10:35:23.435446 10136 net.cpp:91] Creating Layer inception_4e/relu_3x3
I0403 10:35:23.435464 10136 net.cpp:425] inception_4e/relu_3x3 <- inception_4e/3x3
I0403 10:35:23.435482 10136 net.cpp:386] inception_4e/relu_3x3 -> inception_4e/3x3 (in-place)
I0403 10:35:23.435503 10136 net.cpp:141] Setting up inception_4e/relu_3x3
I0403 10:35:23.435534 10136 net.cpp:148] Top shape: 24 320 14 14 (1505280)
I0403 10:35:23.435549 10136 net.cpp:156] Memory required for data: 1236106752
I0403 10:35:23.435565 10136 layer_factory.hpp:77] Creating layer inception_4e/5x5_reduce
I0403 10:35:23.435590 10136 net.cpp:91] Creating Layer inception_4e/5x5_reduce
I0403 10:35:23.435608 10136 net.cpp:425] inception_4e/5x5_reduce <- inception_4d/output_inception_4d/output_0_split_3
I0403 10:35:23.435629 10136 net.cpp:399] inception_4e/5x5_reduce -> inception_4e/5x5_reduce
I0403 10:35:23.435935 10136 net.cpp:141] Setting up inception_4e/5x5_reduce
I0403 10:35:23.435961 10136 net.cpp:148] Top shape: 24 32 14 14 (150528)
I0403 10:35:23.435976 10136 net.cpp:156] Memory required for data: 1236708864
I0403 10:35:23.435995 10136 layer_factory.hpp:77] Creating layer inception_4e/relu_5x5_reduce
I0403 10:35:23.436014 10136 net.cpp:91] Creating Layer inception_4e/relu_5x5_reduce
I0403 10:35:23.436033 10136 net.cpp:425] inception_4e/relu_5x5_reduce <- inception_4e/5x5_reduce
I0403 10:35:23.436050 10136 net.cpp:386] inception_4e/relu_5x5_reduce -> inception_4e/5x5_reduce (in-place)
I0403 10:35:23.436072 10136 net.cpp:141] Setting up inception_4e/relu_5x5_reduce
I0403 10:35:23.436090 10136 net.cpp:148] Top shape: 24 32 14 14 (150528)
I0403 10:35:23.436123 10136 net.cpp:156] Memory required for data: 1237310976
I0403 10:35:23.436139 10136 layer_factory.hpp:77] Creating layer inception_4e/5x5
I0403 10:35:23.436163 10136 net.cpp:91] Creating Layer inception_4e/5x5
I0403 10:35:23.436182 10136 net.cpp:425] inception_4e/5x5 <- inception_4e/5x5_reduce
I0403 10:35:23.436205 10136 net.cpp:399] inception_4e/5x5 -> inception_4e/5x5
I0403 10:35:23.436959 10136 net.cpp:141] Setting up inception_4e/5x5
I0403 10:35:23.436986 10136 net.cpp:148] Top shape: 24 128 14 14 (602112)
I0403 10:35:23.437002 10136 net.cpp:156] Memory required for data: 1239719424
I0403 10:35:23.437021 10136 layer_factory.hpp:77] Creating layer inception_4e/relu_5x5
I0403 10:35:23.437043 10136 net.cpp:91] Creating Layer inception_4e/relu_5x5
I0403 10:35:23.437062 10136 net.cpp:425] inception_4e/relu_5x5 <- inception_4e/5x5
I0403 10:35:23.437080 10136 net.cpp:386] inception_4e/relu_5x5 -> inception_4e/5x5 (in-place)
I0403 10:35:23.437100 10136 net.cpp:141] Setting up inception_4e/relu_5x5
I0403 10:35:23.437117 10136 net.cpp:148] Top shape: 24 128 14 14 (602112)
I0403 10:35:23.437134 10136 net.cpp:156] Memory required for data: 1242127872
I0403 10:35:23.437147 10136 layer_factory.hpp:77] Creating layer inception_4e/pool
I0403 10:35:23.437185 10136 net.cpp:91] Creating Layer inception_4e/pool
I0403 10:35:23.437206 10136 net.cpp:425] inception_4e/pool <- inception_4d/output_inception_4d/output_0_split_4
I0403 10:35:23.437223 10136 net.cpp:399] inception_4e/pool -> inception_4e/pool
I0403 10:35:23.437275 10136 net.cpp:141] Setting up inception_4e/pool
I0403 10:35:23.437299 10136 net.cpp:148] Top shape: 24 528 14 14 (2483712)
I0403 10:35:23.437314 10136 net.cpp:156] Memory required for data: 1252062720
I0403 10:35:23.437330 10136 layer_factory.hpp:77] Creating layer inception_4e/pool_proj
I0403 10:35:23.437353 10136 net.cpp:91] Creating Layer inception_4e/pool_proj
I0403 10:35:23.437371 10136 net.cpp:425] inception_4e/pool_proj <- inception_4e/pool
I0403 10:35:23.437392 10136 net.cpp:399] inception_4e/pool_proj -> inception_4e/pool_proj
I0403 10:35:23.437958 10136 net.cpp:141] Setting up inception_4e/pool_proj
I0403 10:35:23.437983 10136 net.cpp:148] Top shape: 24 128 14 14 (602112)
I0403 10:35:23.437999 10136 net.cpp:156] Memory required for data: 1254471168
I0403 10:35:23.438019 10136 layer_factory.hpp:77] Creating layer inception_4e/relu_pool_proj
I0403 10:35:23.438037 10136 net.cpp:91] Creating Layer inception_4e/relu_pool_proj
I0403 10:35:23.438055 10136 net.cpp:425] inception_4e/relu_pool_proj <- inception_4e/pool_proj
I0403 10:35:23.438073 10136 net.cpp:386] inception_4e/relu_pool_proj -> inception_4e/pool_proj (in-place)
I0403 10:35:23.438092 10136 net.cpp:141] Setting up inception_4e/relu_pool_proj
I0403 10:35:23.438112 10136 net.cpp:148] Top shape: 24 128 14 14 (602112)
I0403 10:35:23.438128 10136 net.cpp:156] Memory required for data: 1256879616
I0403 10:35:23.438143 10136 layer_factory.hpp:77] Creating layer inception_4e/output
I0403 10:35:23.438163 10136 net.cpp:91] Creating Layer inception_4e/output
I0403 10:35:23.438179 10136 net.cpp:425] inception_4e/output <- inception_4e/1x1
I0403 10:35:23.438194 10136 net.cpp:425] inception_4e/output <- inception_4e/3x3
I0403 10:35:23.438210 10136 net.cpp:425] inception_4e/output <- inception_4e/5x5
I0403 10:35:23.438227 10136 net.cpp:425] inception_4e/output <- inception_4e/pool_proj
I0403 10:35:23.438246 10136 net.cpp:399] inception_4e/output -> inception_4e/output
I0403 10:35:23.438287 10136 net.cpp:141] Setting up inception_4e/output
I0403 10:35:23.438310 10136 net.cpp:148] Top shape: 24 832 14 14 (3913728)
I0403 10:35:23.438325 10136 net.cpp:156] Memory required for data: 1272534528
I0403 10:35:23.438340 10136 layer_factory.hpp:77] Creating layer pool4/3x3_s2
I0403 10:35:23.438361 10136 net.cpp:91] Creating Layer pool4/3x3_s2
I0403 10:35:23.438380 10136 net.cpp:425] pool4/3x3_s2 <- inception_4e/output
I0403 10:35:23.438398 10136 net.cpp:399] pool4/3x3_s2 -> pool4/3x3_s2
I0403 10:35:23.438451 10136 net.cpp:141] Setting up pool4/3x3_s2
I0403 10:35:23.438484 10136 net.cpp:148] Top shape: 24 832 7 7 (978432)
I0403 10:35:23.438503 10136 net.cpp:156] Memory required for data: 1276448256
I0403 10:35:23.438522 10136 layer_factory.hpp:77] Creating layer pool4/3x3_s2_pool4/3x3_s2_0_split
I0403 10:35:23.438544 10136 net.cpp:91] Creating Layer pool4/3x3_s2_pool4/3x3_s2_0_split
I0403 10:35:23.438560 10136 net.cpp:425] pool4/3x3_s2_pool4/3x3_s2_0_split <- pool4/3x3_s2
I0403 10:35:23.438581 10136 net.cpp:399] pool4/3x3_s2_pool4/3x3_s2_0_split -> pool4/3x3_s2_pool4/3x3_s2_0_split_0
I0403 10:35:23.438603 10136 net.cpp:399] pool4/3x3_s2_pool4/3x3_s2_0_split -> pool4/3x3_s2_pool4/3x3_s2_0_split_1
I0403 10:35:23.438626 10136 net.cpp:399] pool4/3x3_s2_pool4/3x3_s2_0_split -> pool4/3x3_s2_pool4/3x3_s2_0_split_2
I0403 10:35:23.438647 10136 net.cpp:399] pool4/3x3_s2_pool4/3x3_s2_0_split -> pool4/3x3_s2_pool4/3x3_s2_0_split_3
I0403 10:35:23.438714 10136 net.cpp:141] Setting up pool4/3x3_s2_pool4/3x3_s2_0_split
I0403 10:35:23.438743 10136 net.cpp:148] Top shape: 24 832 7 7 (978432)
I0403 10:35:23.438761 10136 net.cpp:148] Top shape: 24 832 7 7 (978432)
I0403 10:35:23.438778 10136 net.cpp:148] Top shape: 24 832 7 7 (978432)
I0403 10:35:23.438796 10136 net.cpp:148] Top shape: 24 832 7 7 (978432)
I0403 10:35:23.438810 10136 net.cpp:156] Memory required for data: 1292103168
I0403 10:35:23.438827 10136 layer_factory.hpp:77] Creating layer inception_5a/1x1
I0403 10:35:23.438849 10136 net.cpp:91] Creating Layer inception_5a/1x1
I0403 10:35:23.438868 10136 net.cpp:425] inception_5a/1x1 <- pool4/3x3_s2_pool4/3x3_s2_0_split_0
I0403 10:35:23.438887 10136 net.cpp:399] inception_5a/1x1 -> inception_5a/1x1
I0403 10:35:23.440816 10136 net.cpp:141] Setting up inception_5a/1x1
I0403 10:35:23.440845 10136 net.cpp:148] Top shape: 24 256 7 7 (301056)
I0403 10:35:23.440863 10136 net.cpp:156] Memory required for data: 1293307392
I0403 10:35:23.440882 10136 layer_factory.hpp:77] Creating layer inception_5a/relu_1x1
I0403 10:35:23.440901 10136 net.cpp:91] Creating Layer inception_5a/relu_1x1
I0403 10:35:23.440920 10136 net.cpp:425] inception_5a/relu_1x1 <- inception_5a/1x1
I0403 10:35:23.440939 10136 net.cpp:386] inception_5a/relu_1x1 -> inception_5a/1x1 (in-place)
I0403 10:35:23.440959 10136 net.cpp:141] Setting up inception_5a/relu_1x1
I0403 10:35:23.440978 10136 net.cpp:148] Top shape: 24 256 7 7 (301056)
I0403 10:35:23.440994 10136 net.cpp:156] Memory required for data: 1294511616
I0403 10:35:23.441009 10136 layer_factory.hpp:77] Creating layer inception_5a/3x3_reduce
I0403 10:35:23.441032 10136 net.cpp:91] Creating Layer inception_5a/3x3_reduce
I0403 10:35:23.441051 10136 net.cpp:425] inception_5a/3x3_reduce <- pool4/3x3_s2_pool4/3x3_s2_0_split_1
I0403 10:35:23.441074 10136 net.cpp:399] inception_5a/3x3_reduce -> inception_5a/3x3_reduce
I0403 10:35:23.442539 10136 net.cpp:141] Setting up inception_5a/3x3_reduce
I0403 10:35:23.442569 10136 net.cpp:148] Top shape: 24 160 7 7 (188160)
I0403 10:35:23.442586 10136 net.cpp:156] Memory required for data: 1295264256
I0403 10:35:23.442606 10136 layer_factory.hpp:77] Creating layer inception_5a/relu_3x3_reduce
I0403 10:35:23.442626 10136 net.cpp:91] Creating Layer inception_5a/relu_3x3_reduce
I0403 10:35:23.442644 10136 net.cpp:425] inception_5a/relu_3x3_reduce <- inception_5a/3x3_reduce
I0403 10:35:23.442662 10136 net.cpp:386] inception_5a/relu_3x3_reduce -> inception_5a/3x3_reduce (in-place)
I0403 10:35:23.442684 10136 net.cpp:141] Setting up inception_5a/relu_3x3_reduce
I0403 10:35:23.442703 10136 net.cpp:148] Top shape: 24 160 7 7 (188160)
I0403 10:35:23.442718 10136 net.cpp:156] Memory required for data: 1296016896
I0403 10:35:23.442734 10136 layer_factory.hpp:77] Creating layer inception_5a/3x3
I0403 10:35:23.442759 10136 net.cpp:91] Creating Layer inception_5a/3x3
I0403 10:35:23.442778 10136 net.cpp:425] inception_5a/3x3 <- inception_5a/3x3_reduce
I0403 10:35:23.442802 10136 net.cpp:399] inception_5a/3x3 -> inception_5a/3x3
I0403 10:35:23.446578 10136 net.cpp:141] Setting up inception_5a/3x3
I0403 10:35:23.446609 10136 net.cpp:148] Top shape: 24 320 7 7 (376320)
I0403 10:35:23.446641 10136 net.cpp:156] Memory required for data: 1297522176
I0403 10:35:23.446661 10136 layer_factory.hpp:77] Creating layer inception_5a/relu_3x3
I0403 10:35:23.446682 10136 net.cpp:91] Creating Layer inception_5a/relu_3x3
I0403 10:35:23.446701 10136 net.cpp:425] inception_5a/relu_3x3 <- inception_5a/3x3
I0403 10:35:23.446720 10136 net.cpp:386] inception_5a/relu_3x3 -> inception_5a/3x3 (in-place)
I0403 10:35:23.446743 10136 net.cpp:141] Setting up inception_5a/relu_3x3
I0403 10:35:23.446760 10136 net.cpp:148] Top shape: 24 320 7 7 (376320)
I0403 10:35:23.446775 10136 net.cpp:156] Memory required for data: 1299027456
I0403 10:35:23.446791 10136 layer_factory.hpp:77] Creating layer inception_5a/5x5_reduce
I0403 10:35:23.446816 10136 net.cpp:91] Creating Layer inception_5a/5x5_reduce
I0403 10:35:23.446836 10136 net.cpp:425] inception_5a/5x5_reduce <- pool4/3x3_s2_pool4/3x3_s2_0_split_2
I0403 10:35:23.446859 10136 net.cpp:399] inception_5a/5x5_reduce -> inception_5a/5x5_reduce
I0403 10:35:23.447240 10136 net.cpp:141] Setting up inception_5a/5x5_reduce
I0403 10:35:23.447268 10136 net.cpp:148] Top shape: 24 32 7 7 (37632)
I0403 10:35:23.447283 10136 net.cpp:156] Memory required for data: 1299177984
I0403 10:35:23.447302 10136 layer_factory.hpp:77] Creating layer inception_5a/relu_5x5_reduce
I0403 10:35:23.447327 10136 net.cpp:91] Creating Layer inception_5a/relu_5x5_reduce
I0403 10:35:23.447347 10136 net.cpp:425] inception_5a/relu_5x5_reduce <- inception_5a/5x5_reduce
I0403 10:35:23.447365 10136 net.cpp:386] inception_5a/relu_5x5_reduce -> inception_5a/5x5_reduce (in-place)
I0403 10:35:23.447386 10136 net.cpp:141] Setting up inception_5a/relu_5x5_reduce
I0403 10:35:23.447404 10136 net.cpp:148] Top shape: 24 32 7 7 (37632)
I0403 10:35:23.447419 10136 net.cpp:156] Memory required for data: 1299328512
I0403 10:35:23.447435 10136 layer_factory.hpp:77] Creating layer inception_5a/5x5
I0403 10:35:23.447459 10136 net.cpp:91] Creating Layer inception_5a/5x5
I0403 10:35:23.447479 10136 net.cpp:425] inception_5a/5x5 <- inception_5a/5x5_reduce
I0403 10:35:23.447501 10136 net.cpp:399] inception_5a/5x5 -> inception_5a/5x5
I0403 10:35:23.448281 10136 net.cpp:141] Setting up inception_5a/5x5
I0403 10:35:23.448307 10136 net.cpp:148] Top shape: 24 128 7 7 (150528)
I0403 10:35:23.448323 10136 net.cpp:156] Memory required for data: 1299930624
I0403 10:35:23.448341 10136 layer_factory.hpp:77] Creating layer inception_5a/relu_5x5
I0403 10:35:23.448361 10136 net.cpp:91] Creating Layer inception_5a/relu_5x5
I0403 10:35:23.448380 10136 net.cpp:425] inception_5a/relu_5x5 <- inception_5a/5x5
I0403 10:35:23.448398 10136 net.cpp:386] inception_5a/relu_5x5 -> inception_5a/5x5 (in-place)
I0403 10:35:23.448420 10136 net.cpp:141] Setting up inception_5a/relu_5x5
I0403 10:35:23.448438 10136 net.cpp:148] Top shape: 24 128 7 7 (150528)
I0403 10:35:23.448454 10136 net.cpp:156] Memory required for data: 1300532736
I0403 10:35:23.448470 10136 layer_factory.hpp:77] Creating layer inception_5a/pool
I0403 10:35:23.448488 10136 net.cpp:91] Creating Layer inception_5a/pool
I0403 10:35:23.448521 10136 net.cpp:425] inception_5a/pool <- pool4/3x3_s2_pool4/3x3_s2_0_split_3
I0403 10:35:23.448545 10136 net.cpp:399] inception_5a/pool -> inception_5a/pool
I0403 10:35:23.448602 10136 net.cpp:141] Setting up inception_5a/pool
I0403 10:35:23.448626 10136 net.cpp:148] Top shape: 24 832 7 7 (978432)
I0403 10:35:23.448642 10136 net.cpp:156] Memory required for data: 1304446464
I0403 10:35:23.448659 10136 layer_factory.hpp:77] Creating layer inception_5a/pool_proj
I0403 10:35:23.448684 10136 net.cpp:91] Creating Layer inception_5a/pool_proj
I0403 10:35:23.448704 10136 net.cpp:425] inception_5a/pool_proj <- inception_5a/pool
I0403 10:35:23.448727 10136 net.cpp:399] inception_5a/pool_proj -> inception_5a/pool_proj
I0403 10:35:23.450114 10136 net.cpp:141] Setting up inception_5a/pool_proj
I0403 10:35:23.450156 10136 net.cpp:148] Top shape: 24 128 7 7 (150528)
I0403 10:35:23.450173 10136 net.cpp:156] Memory required for data: 1305048576
I0403 10:35:23.450206 10136 layer_factory.hpp:77] Creating layer inception_5a/relu_pool_proj
I0403 10:35:23.450228 10136 net.cpp:91] Creating Layer inception_5a/relu_pool_proj
I0403 10:35:23.450247 10136 net.cpp:425] inception_5a/relu_pool_proj <- inception_5a/pool_proj
I0403 10:35:23.450264 10136 net.cpp:386] inception_5a/relu_pool_proj -> inception_5a/pool_proj (in-place)
I0403 10:35:23.450286 10136 net.cpp:141] Setting up inception_5a/relu_pool_proj
I0403 10:35:23.450305 10136 net.cpp:148] Top shape: 24 128 7 7 (150528)
I0403 10:35:23.450320 10136 net.cpp:156] Memory required for data: 1305650688
I0403 10:35:23.450335 10136 layer_factory.hpp:77] Creating layer inception_5a/output
I0403 10:35:23.450355 10136 net.cpp:91] Creating Layer inception_5a/output
I0403 10:35:23.450371 10136 net.cpp:425] inception_5a/output <- inception_5a/1x1
I0403 10:35:23.450387 10136 net.cpp:425] inception_5a/output <- inception_5a/3x3
I0403 10:35:23.450405 10136 net.cpp:425] inception_5a/output <- inception_5a/5x5
I0403 10:35:23.450423 10136 net.cpp:425] inception_5a/output <- inception_5a/pool_proj
I0403 10:35:23.450443 10136 net.cpp:399] inception_5a/output -> inception_5a/output
I0403 10:35:23.450482 10136 net.cpp:141] Setting up inception_5a/output
I0403 10:35:23.450511 10136 net.cpp:148] Top shape: 24 832 7 7 (978432)
I0403 10:35:23.450530 10136 net.cpp:156] Memory required for data: 1309564416
I0403 10:35:23.450546 10136 layer_factory.hpp:77] Creating layer inception_5a/output_inception_5a/output_0_split
I0403 10:35:23.450563 10136 net.cpp:91] Creating Layer inception_5a/output_inception_5a/output_0_split
I0403 10:35:23.450580 10136 net.cpp:425] inception_5a/output_inception_5a/output_0_split <- inception_5a/output
I0403 10:35:23.450599 10136 net.cpp:399] inception_5a/output_inception_5a/output_0_split -> inception_5a/output_inception_5a/output_0_split_0
I0403 10:35:23.450620 10136 net.cpp:399] inception_5a/output_inception_5a/output_0_split -> inception_5a/output_inception_5a/output_0_split_1
I0403 10:35:23.450644 10136 net.cpp:399] inception_5a/output_inception_5a/output_0_split -> inception_5a/output_inception_5a/output_0_split_2
I0403 10:35:23.450669 10136 net.cpp:399] inception_5a/output_inception_5a/output_0_split -> inception_5a/output_inception_5a/output_0_split_3
I0403 10:35:23.450741 10136 net.cpp:141] Setting up inception_5a/output_inception_5a/output_0_split
I0403 10:35:23.450764 10136 net.cpp:148] Top shape: 24 832 7 7 (978432)
I0403 10:35:23.450781 10136 net.cpp:148] Top shape: 24 832 7 7 (978432)
I0403 10:35:23.450799 10136 net.cpp:148] Top shape: 24 832 7 7 (978432)
I0403 10:35:23.450815 10136 net.cpp:148] Top shape: 24 832 7 7 (978432)
I0403 10:35:23.450830 10136 net.cpp:156] Memory required for data: 1325219328
I0403 10:35:23.450845 10136 layer_factory.hpp:77] Creating layer inception_5b/1x1
I0403 10:35:23.450867 10136 net.cpp:91] Creating Layer inception_5b/1x1
I0403 10:35:23.450886 10136 net.cpp:425] inception_5b/1x1 <- inception_5a/output_inception_5a/output_0_split_0
I0403 10:35:23.450907 10136 net.cpp:399] inception_5b/1x1 -> inception_5b/1x1
I0403 10:35:23.453392 10136 net.cpp:141] Setting up inception_5b/1x1
I0403 10:35:23.453420 10136 net.cpp:148] Top shape: 24 384 7 7 (451584)
I0403 10:35:23.453438 10136 net.cpp:156] Memory required for data: 1327025664
I0403 10:35:23.453457 10136 layer_factory.hpp:77] Creating layer inception_5b/relu_1x1
I0403 10:35:23.453476 10136 net.cpp:91] Creating Layer inception_5b/relu_1x1
I0403 10:35:23.453495 10136 net.cpp:425] inception_5b/relu_1x1 <- inception_5b/1x1
I0403 10:35:23.453516 10136 net.cpp:386] inception_5b/relu_1x1 -> inception_5b/1x1 (in-place)
I0403 10:35:23.453538 10136 net.cpp:141] Setting up inception_5b/relu_1x1
I0403 10:35:23.453557 10136 net.cpp:148] Top shape: 24 384 7 7 (451584)
I0403 10:35:23.453572 10136 net.cpp:156] Memory required for data: 1328832000
I0403 10:35:23.453586 10136 layer_factory.hpp:77] Creating layer inception_5b/3x3_reduce
I0403 10:35:23.453609 10136 net.cpp:91] Creating Layer inception_5b/3x3_reduce
I0403 10:35:23.453641 10136 net.cpp:425] inception_5b/3x3_reduce <- inception_5a/output_inception_5a/output_0_split_1
I0403 10:35:23.453665 10136 net.cpp:399] inception_5b/3x3_reduce -> inception_5b/3x3_reduce
I0403 10:35:23.455231 10136 net.cpp:141] Setting up inception_5b/3x3_reduce
I0403 10:35:23.455261 10136 net.cpp:148] Top shape: 24 192 7 7 (225792)
I0403 10:35:23.455277 10136 net.cpp:156] Memory required for data: 1329735168
I0403 10:35:23.455296 10136 layer_factory.hpp:77] Creating layer inception_5b/relu_3x3_reduce
I0403 10:35:23.455317 10136 net.cpp:91] Creating Layer inception_5b/relu_3x3_reduce
I0403 10:35:23.455333 10136 net.cpp:425] inception_5b/relu_3x3_reduce <- inception_5b/3x3_reduce
I0403 10:35:23.455353 10136 net.cpp:386] inception_5b/relu_3x3_reduce -> inception_5b/3x3_reduce (in-place)
I0403 10:35:23.455373 10136 net.cpp:141] Setting up inception_5b/relu_3x3_reduce
I0403 10:35:23.455390 10136 net.cpp:148] Top shape: 24 192 7 7 (225792)
I0403 10:35:23.455405 10136 net.cpp:156] Memory required for data: 1330638336
I0403 10:35:23.455421 10136 layer_factory.hpp:77] Creating layer inception_5b/3x3
I0403 10:35:23.455445 10136 net.cpp:91] Creating Layer inception_5b/3x3
I0403 10:35:23.455464 10136 net.cpp:425] inception_5b/3x3 <- inception_5b/3x3_reduce
I0403 10:35:23.455487 10136 net.cpp:399] inception_5b/3x3 -> inception_5b/3x3
I0403 10:35:23.460551 10136 net.cpp:141] Setting up inception_5b/3x3
I0403 10:35:23.460578 10136 net.cpp:148] Top shape: 24 384 7 7 (451584)
I0403 10:35:23.460594 10136 net.cpp:156] Memory required for data: 1332444672
I0403 10:35:23.460613 10136 layer_factory.hpp:77] Creating layer inception_5b/relu_3x3
I0403 10:35:23.460633 10136 net.cpp:91] Creating Layer inception_5b/relu_3x3
I0403 10:35:23.460651 10136 net.cpp:425] inception_5b/relu_3x3 <- inception_5b/3x3
I0403 10:35:23.460672 10136 net.cpp:386] inception_5b/relu_3x3 -> inception_5b/3x3 (in-place)
I0403 10:35:23.460692 10136 net.cpp:141] Setting up inception_5b/relu_3x3
I0403 10:35:23.460711 10136 net.cpp:148] Top shape: 24 384 7 7 (451584)
I0403 10:35:23.460726 10136 net.cpp:156] Memory required for data: 1334251008
I0403 10:35:23.460741 10136 layer_factory.hpp:77] Creating layer inception_5b/5x5_reduce
I0403 10:35:23.460763 10136 net.cpp:91] Creating Layer inception_5b/5x5_reduce
I0403 10:35:23.460782 10136 net.cpp:425] inception_5b/5x5_reduce <- inception_5a/output_inception_5a/output_0_split_2
I0403 10:35:23.460803 10136 net.cpp:399] inception_5b/5x5_reduce -> inception_5b/5x5_reduce
I0403 10:35:23.461230 10136 net.cpp:141] Setting up inception_5b/5x5_reduce
I0403 10:35:23.461256 10136 net.cpp:148] Top shape: 24 48 7 7 (56448)
I0403 10:35:23.461271 10136 net.cpp:156] Memory required for data: 1334476800
I0403 10:35:23.461289 10136 layer_factory.hpp:77] Creating layer inception_5b/relu_5x5_reduce
I0403 10:35:23.461308 10136 net.cpp:91] Creating Layer inception_5b/relu_5x5_reduce
I0403 10:35:23.461324 10136 net.cpp:425] inception_5b/relu_5x5_reduce <- inception_5b/5x5_reduce
I0403 10:35:23.461344 10136 net.cpp:386] inception_5b/relu_5x5_reduce -> inception_5b/5x5_reduce (in-place)
I0403 10:35:23.461365 10136 net.cpp:141] Setting up inception_5b/relu_5x5_reduce
I0403 10:35:23.461383 10136 net.cpp:148] Top shape: 24 48 7 7 (56448)
I0403 10:35:23.461398 10136 net.cpp:156] Memory required for data: 1334702592
I0403 10:35:23.461413 10136 layer_factory.hpp:77] Creating layer inception_5b/5x5
I0403 10:35:23.461436 10136 net.cpp:91] Creating Layer inception_5b/5x5
I0403 10:35:23.461454 10136 net.cpp:425] inception_5b/5x5 <- inception_5b/5x5_reduce
I0403 10:35:23.461473 10136 net.cpp:399] inception_5b/5x5 -> inception_5b/5x5
I0403 10:35:23.462483 10136 net.cpp:141] Setting up inception_5b/5x5
I0403 10:35:23.462515 10136 net.cpp:148] Top shape: 24 128 7 7 (150528)
I0403 10:35:23.462533 10136 net.cpp:156] Memory required for data: 1335304704
I0403 10:35:23.462551 10136 layer_factory.hpp:77] Creating layer inception_5b/relu_5x5
I0403 10:35:23.462570 10136 net.cpp:91] Creating Layer inception_5b/relu_5x5
I0403 10:35:23.462586 10136 net.cpp:425] inception_5b/relu_5x5 <- inception_5b/5x5
I0403 10:35:23.462620 10136 net.cpp:386] inception_5b/relu_5x5 -> inception_5b/5x5 (in-place)
I0403 10:35:23.462642 10136 net.cpp:141] Setting up inception_5b/relu_5x5
I0403 10:35:23.462661 10136 net.cpp:148] Top shape: 24 128 7 7 (150528)
I0403 10:35:23.462677 10136 net.cpp:156] Memory required for data: 1335906816
I0403 10:35:23.462692 10136 layer_factory.hpp:77] Creating layer inception_5b/pool
I0403 10:35:23.462708 10136 net.cpp:91] Creating Layer inception_5b/pool
I0403 10:35:23.462725 10136 net.cpp:425] inception_5b/pool <- inception_5a/output_inception_5a/output_0_split_3
I0403 10:35:23.462743 10136 net.cpp:399] inception_5b/pool -> inception_5b/pool
I0403 10:35:23.462797 10136 net.cpp:141] Setting up inception_5b/pool
I0403 10:35:23.462821 10136 net.cpp:148] Top shape: 24 832 7 7 (978432)
I0403 10:35:23.462836 10136 net.cpp:156] Memory required for data: 1339820544
I0403 10:35:23.462852 10136 layer_factory.hpp:77] Creating layer inception_5b/pool_proj
I0403 10:35:23.462875 10136 net.cpp:91] Creating Layer inception_5b/pool_proj
I0403 10:35:23.462894 10136 net.cpp:425] inception_5b/pool_proj <- inception_5b/pool
I0403 10:35:23.462913 10136 net.cpp:399] inception_5b/pool_proj -> inception_5b/pool_proj
I0403 10:35:23.464170 10136 net.cpp:141] Setting up inception_5b/pool_proj
I0403 10:35:23.464197 10136 net.cpp:148] Top shape: 24 128 7 7 (150528)
I0403 10:35:23.464213 10136 net.cpp:156] Memory required for data: 1340422656
I0403 10:35:23.464232 10136 layer_factory.hpp:77] Creating layer inception_5b/relu_pool_proj
I0403 10:35:23.464252 10136 net.cpp:91] Creating Layer inception_5b/relu_pool_proj
I0403 10:35:23.464270 10136 net.cpp:425] inception_5b/relu_pool_proj <- inception_5b/pool_proj
I0403 10:35:23.464293 10136 net.cpp:386] inception_5b/relu_pool_proj -> inception_5b/pool_proj (in-place)
I0403 10:35:23.464313 10136 net.cpp:141] Setting up inception_5b/relu_pool_proj
I0403 10:35:23.464331 10136 net.cpp:148] Top shape: 24 128 7 7 (150528)
I0403 10:35:23.464347 10136 net.cpp:156] Memory required for data: 1341024768
I0403 10:35:23.464361 10136 layer_factory.hpp:77] Creating layer inception_5b/output
I0403 10:35:23.464380 10136 net.cpp:91] Creating Layer inception_5b/output
I0403 10:35:23.464397 10136 net.cpp:425] inception_5b/output <- inception_5b/1x1
I0403 10:35:23.464413 10136 net.cpp:425] inception_5b/output <- inception_5b/3x3
I0403 10:35:23.464429 10136 net.cpp:425] inception_5b/output <- inception_5b/5x5
I0403 10:35:23.464444 10136 net.cpp:425] inception_5b/output <- inception_5b/pool_proj
I0403 10:35:23.464462 10136 net.cpp:399] inception_5b/output -> inception_5b/output
I0403 10:35:23.464503 10136 net.cpp:141] Setting up inception_5b/output
I0403 10:35:23.464530 10136 net.cpp:148] Top shape: 24 1024 7 7 (1204224)
I0403 10:35:23.464546 10136 net.cpp:156] Memory required for data: 1345841664
I0403 10:35:23.464562 10136 layer_factory.hpp:77] Creating layer pool5/7x7_s1
I0403 10:35:23.464581 10136 net.cpp:91] Creating Layer pool5/7x7_s1
I0403 10:35:23.464598 10136 net.cpp:425] pool5/7x7_s1 <- inception_5b/output
I0403 10:35:23.464619 10136 net.cpp:399] pool5/7x7_s1 -> pool5/7x7_s1
I0403 10:35:23.464658 10136 net.cpp:141] Setting up pool5/7x7_s1
I0403 10:35:23.464680 10136 net.cpp:148] Top shape: 24 1024 1 1 (24576)
I0403 10:35:23.464694 10136 net.cpp:156] Memory required for data: 1345939968
I0403 10:35:23.464709 10136 layer_factory.hpp:77] Creating layer pool5/drop_7x7_s1
I0403 10:35:23.464730 10136 net.cpp:91] Creating Layer pool5/drop_7x7_s1
I0403 10:35:23.464747 10136 net.cpp:425] pool5/drop_7x7_s1 <- pool5/7x7_s1
I0403 10:35:23.464767 10136 net.cpp:386] pool5/drop_7x7_s1 -> pool5/7x7_s1 (in-place)
I0403 10:35:23.464805 10136 net.cpp:141] Setting up pool5/drop_7x7_s1
I0403 10:35:23.464828 10136 net.cpp:148] Top shape: 24 1024 1 1 (24576)
I0403 10:35:23.464843 10136 net.cpp:156] Memory required for data: 1346038272
I0403 10:35:23.464857 10136 layer_factory.hpp:77] Creating layer loss3/classifier_plantvillage
I0403 10:35:23.464880 10136 net.cpp:91] Creating Layer loss3/classifier_plantvillage
I0403 10:35:23.464910 10136 net.cpp:425] loss3/classifier_plantvillage <- pool5/7x7_s1
I0403 10:35:23.464931 10136 net.cpp:399] loss3/classifier_plantvillage -> loss3/classifier_plantvillage
I0403 10:35:23.465255 10136 net.cpp:141] Setting up loss3/classifier_plantvillage
I0403 10:35:23.465281 10136 net.cpp:148] Top shape: 24 38 (912)
I0403 10:35:23.465296 10136 net.cpp:156] Memory required for data: 1346041920
I0403 10:35:23.465313 10136 layer_factory.hpp:77] Creating layer loss1/loss
I0403 10:35:23.465340 10136 net.cpp:91] Creating Layer loss1/loss
I0403 10:35:23.465361 10136 net.cpp:425] loss1/loss <- loss1/classifier_plantvillage
I0403 10:35:23.465378 10136 net.cpp:425] loss1/loss <- label_data_1_split_0
I0403 10:35:23.465396 10136 net.cpp:399] loss1/loss -> loss1/loss
…
I0403 10:35:23.475167 10136 net.cpp:313] The NetState phase (1) differed from the phase (0) specified by a rule in layer data
I0403 10:35:23.478940 10136 net.cpp:49] Initializing net from parameters: 
state {
  phase: TEST
}
layer {
  name: "data"
  type: "Data"
  top: "data"
  top: "label"
  include {
    phase: TEST
  }
  transform_param {
    mirror: false
    crop_size: 224
    mean_file: "/home/mohanty/data/final_dataset/lmdb/color-20-80/mean.binaryproto"
  }
  data_param {
    source: "/home/mohanty/data/final_dataset/lmdb/color-20-80/test_db"
    batch_size: 24
    backend: LMDB
  }
}
layer {
  name: "conv1/7x7_s2"
  type: "Convolution"
  bottom: "data"
  top: "conv1/7x7_s2"
  param {
    lr_mult: 1
    decay_mult: 1
  }
  param {
    lr_mult: 2
    decay_mult: 0
  }
  convolution_param {
    num_output: 64
    pad: 3
    kernel_size: 7
    stride: 2
    weight_filler {
      type: "xavier"
      std: 0.1
    }
    bias_filler {
      type: "constant"
      value: 0.2
    }
  }
}
layer {
  name: "conv1/relu_7x7"
  type: "ReLU"
  bottom: "conv1/7x7_s2"
  top: "conv1/7x7_s2"
}
layer {
  name: "pool1/3x3_s2"
  type: "Pooling"
  bottom: "conv1/7x7_s2"
  top: "pool1/3x3_s2"
  pooling_param {
    pool: MAX
    kernel_size: 3
    stride: 2
  }
}
layer {
  name: "pool1/norm1"
  type: "LRN"
  bottom: "pool1/3x3_s2"
  top: "pool1/norm1"
  lrn_param {
    local_size: 5
    alpha: 0.0001
    beta: 0.75
  }
}
layer {
  name: "conv2/3x3_reduce"
  type: "Convolution"
  bottom: "pool1/norm1"
  top: "conv2/3x3_reduce"
  param {
    lr_mult: 1
    decay_mult: 1
  }
  param {
    lr_mult: 2
    decay_mult: 0
  }
  convolution_param {
    num_output: 64
    kernel_size: 1
    weight_filler {
      type: "xavier"
      std: 0.1
    }
    bias_filler {
      type: "constant"
      value: 0.2
    }
  }
}
layer {
  name: "conv2/relu_3x3_reduce"
  type: "ReLU"
  bottom: "conv2/3x3_reduce"
  top: "conv2/3x3_reduce"
}
layer {
  name: "conv2/3x3"
  type: "Convolution"
  bottom: "conv2/3x3_reduce"
  top: "conv2/3x3"
  param {
    lr_mult: 1
    decay_mult: 1
  }
  param {
    lr_mult: 2
    decay_mult: 0
  }
  convolution_param {
    num_output: 192
    pad: 1
    kernel_size: 3
    weight_filler {
      type: "xavier"
      std: 0.03
    }
    bias_filler {
      type: "constant"
      value: 0.2
    }
  }
}
layer {
  name: "conv2/relu_3x3"
  type: "ReLU"
  bottom: "conv2/3x3"
  top: "conv2/3x3"
}
layer {
  name: "conv2/norm2"
  type: "LRN"
  bottom: "conv2/3x3"
  top: "conv2/norm2"
  lrn_param {
    local_size: 5
    alpha: 0.0001
    beta: 0.75
  }
}
layer {
  name: "pool2/3x3_s2"
  type: "Pooling"
  bottom: "conv2/norm2"
  top: "pool2/3x3_s2"
  pooling_param {
    pool: MAX
    kernel_size: 3
    stride: 2
  }
}
layer {
  name: "inception_3a/1x1"
  type: "Convolution"
  bottom: "pool2/3x3_s2"
  top: "inception_3a/1x1"
  param {
    lr_mult: 1
    decay_mult: 1
  }
  param {
    lr_mult: 2
    decay_mult: 0
  }
  convolution_param {
    num_output: 64
    kernel_size: 1
    weight_filler {
      type: "xavier"
      std: 0.03
    }
    bias_filler {
      type: "constant"
      value: 0.2
    }
  }
}
layer {
  name: "inception_3a/relu_1x1"
  type: "ReLU"
  bottom: "inception_3a/1x1"
  top: "inception_3a/1x1"
}
layer {
  name: "inception_3a/3x3_reduce"
  type: "Convolution"
  bottom: "pool2/3x3_s2"
  top: "inception_3a/3x3_reduce"
  param {
    lr_mult: 1
    decay_mult: 1
  }
  param {
    lr_mult: 2
    decay_mult: 0
  }
  convolution_param {
    num_output: 96
    kernel_size: 1
    weight_filler {
      type: "xavier"
      std: 0.09
    }
    bias_filler {
      type: "constant"
      value: 0.2
    }
  }
}
layer {
  name: "inception_3a/relu_3x3_reduce"
  type: "ReLU"
  bottom: "inception_3a/3x3_reduce"
  top: "inception_3a/3x3_reduce"
}
layer {
  name: "inception_3a/3x3"
  type: "Convolution"
  bottom: "inception_3a/3x3_reduce"
  top: "inception_3a/3x3"
  param {
    lr_mult: 1
    decay_mult: 1
  }
  param {
    lr_mult: 2
    decay_mult: 0
  }
  convolution_param {
    num_output: 128
    pad: 1
    kernel_size: 3
    weight_filler {
      type: "xavier"
      std: 0.03
    }
    bias_filler {
      type: "constant"
      value: 0.2
    }
  }
}
layer {
  name: "inception_3a/relu_3x3"
  type: "ReLU"
  bottom: "inception_3a/3x3"
  top: "inception_3a/3x3"
}
layer {
  name: "inception_3a/5x5_reduce"
  type: "Convolution"
  bottom: "pool2/3x3_s2"
  top: "inception_3a/5x5_reduce"
  param {
    lr_mult: 1
    decay_mult: 1
  }
  param {
    lr_mult: 2
    decay_mult: 0
  }
  convolution_param {
    num_output: 16
    kernel_size: 1
    weight_filler {
      type: "xavier"
      std: 0.2
    }
    bias_filler {
      type: "constant"
      value: 0.2
    }
  }
}
layer {
  name: "inception_3a/relu_5x5_reduce"
  type: "ReLU"
  bottom: "inception_3a/5x5_reduce"
  top: "inception_3a/5x5_reduce"
}
layer {
  name: "inception_3a/5x5"
  type: "Convolution"
  bottom: "inception_3a/5x5_reduce"
  top: "inception_3a/5x5"
  param {
    lr_mult: 1
    decay_mult: 1
  }
  param {
    lr_mult: 2
    decay_mult: 0
  }
  convolution_param {
    num_output: 32
    pad: 2
    kernel_size: 5
    weight_filler {
      type: "xavier"
      std: 0.03
    }
    bias_filler {
      type: "constant"
      value: 0.2
    }
  }
}
layer {
  name: "inception_3a/relu_5x5"
  type: "ReLU"
  bottom: "inception_3a/5x5"
  top: "inception_3a/5x5"
}
layer {
  name: "inception_3a/pool"
  type: "Pooling"
  bottom: "pool2/3x3_s2"
  top: "inception_3a/pool"
  pooling_param {
    pool: MAX
    kernel_size: 3
    stride: 1
    pad: 1
  }
}
layer {
  name: "inception_3a/pool_proj"
  type: "Convolution"
  bottom: "inception_3a/pool"
  top: "inception_3a/pool_proj"
  param {
    lr_mult: 1
    decay_mult: 1
  }
  param {
    lr_mult: 2
    decay_mult: 0
  }
  convolution_param {
    num_output: 32
    kernel_size: 1
    weight_filler {
      type: "xavier"
      std: 0.1
    }
    bias_filler {
      type: "constant"
      value: 0.2
    }
  }
}
layer {
  name: "inception_3a/relu_pool_proj"
  type: "ReLU"
  bottom: "inception_3a/pool_proj"
  top: "inception_3a/pool_proj"
}
layer {
  name: "inception_3a/output"
  type: "Concat"
  bottom: "inception_3a/1x1"
  bottom: "inception_3a/3x3"
  bottom: "inception_3a/5x5"
  bottom: "inception_3a/pool_proj"
  top: "inception_3a/output"
}
layer {
  name: "inception_3b/1x1"
  type: "Convolution"
  bottom: "inception_3a/output"
  top: "inception_3b/1x1"
  param {
    lr_mult: 1
    decay_mult: 1
  }
  param {
    lr_mult: 2
    decay_mult: 0
  }
  convolution_param {
    num_output: 128
    kernel_size: 1
    weight_filler {
      type: "xavier"
      std: 0.03
    }
    bias_filler {
      type: "constant"
      value: 0.2
    }
  }
}
layer {
  name: "inception_3b/relu_1x1"
  type: "ReLU"
  bottom: "inception_3b/1x1"
  top: "inception_3b/1x1"
}
layer {
  name: "inception_3b/3x3_reduce"
  type: "Convolution"
  bottom: "inception_3a/output"
  top: "inception_3b/3x3_reduce"
  param {
    lr_mult: 1
    decay_mult: 1
  }
  param {
    lr_mult: 2
    decay_mult: 0
  }
  convolution_param {
    num_output: 128
    kernel_size: 1
    weight_filler {
      type: "xavier"
      std: 0.09
    }
    bias_filler {
      type: "constant"
      value: 0.2
    }
  }
}
layer {
  name: "inception_3b/relu_3x3_reduce"
  type: "ReLU"
  bottom: "inception_3b/3x3_reduce"
  top: "inception_3b/3x3_reduce"
}
layer {
  name: "inception_3b/3x3"
  type: "Convolution"
  bottom: "inception_3b/3x3_reduce"
  top: "inception_3b/3x3"
  param {
    lr_mult: 1
    decay_mult: 1
  }
  param {
    lr_mult: 2
    decay_mult: 0
  }
  convolution_param {
    num_output: 192
    pad: 1
    kernel_size: 3
    weight_filler {
      type: "xavier"
      std: 0.03
    }
    bias_filler {
      type: "constant"
      value: 0.2
    }
  }
}
layer {
  name: "inception_3b/relu_3x3"
  type: "ReLU"
  bottom: "inception_3b/3x3"
  top: "inception_3b/3x3"
}
layer {
  name: "inception_3b/5x5_reduce"
  type: "Convolution"
  bottom: "inception_3a/output"
  top: "inception_3b/5x5_reduce"
  param {
    lr_mult: 1
    decay_mult: 1
  }
  param {
    lr_mult: 2
    decay_mult: 0
  }
  convolution_param {
    num_output: 32
    kernel_size: 1
    weight_filler {
      type: "xavier"
      std: 0.2
    }
    bias_filler {
      type: "constant"
      value: 0.2
    }
  }
}
layer {
  name: "inception_3b/relu_5x5_reduce"
  type: "ReLU"
  bottom: "inception_3b/5x5_reduce"
  top: "inception_3b/5x5_reduce"
}
layer {
  name: "inception_3b/5x5"
  type: "Convolution"
  bottom: "inception_3b/5x5_reduce"
  top: "inception_3b/5x5"
  param {
    lr_mult: 1
    decay_mult: 1
  }
  param {
    lr_mult: 2
    decay_mult: 0
  }
  convolution_param {
    num_output: 96
    pad: 2
    kernel_size: 5
    weight_filler {
      type: "xavier"
      std: 0.03
    }
    bias_filler {
      type: "constant"
      value: 0.2
    }
  }
}
layer {
  name: "inception_3b/relu_5x5"
  type: "ReLU"
  bottom: "inception_3b/5x5"
  top: "inception_3b/5x5"
}
layer {
  name: "inception_3b/pool"
  type: "Pooling"
  bottom: "inception_3a/output"
  top: "inception_3b/pool"
  pooling_param {
    pool: MAX
    kernel_size: 3
    stride: 1
    pad: 1
  }
}
layer {
  name: "inception_3b/pool_proj"
  type: "Convolution"
  bottom: "inception_3b/pool"
  top: "inception_3b/pool_proj"
  param {
    lr_mult: 1
    decay_mult: 1
  }
  param {
    lr_mult: 2
    decay_mult: 0
  }
  convolution_param {
    num_output: 64
    kernel_size: 1
    weight_filler {
      type: "xavier"
      std: 0.1
    }
    bias_filler {
      type: "constant"
      value: 0.2
    }
  }
}
layer {
  name: "inception_3b/relu_pool_proj"
  type: "ReLU"
  bottom: "inception_3b/pool_proj"
  top: "inception_3b/pool_proj"
}
layer {
  name: "inception_3b/output"
  type: "Concat"
  bottom: "inception_3b/1x1"
  bottom: "inception_3b/3x3"
  bottom: "inception_3b/5x5"
  bottom: "inception_3b/pool_proj"
  top: "inception_3b/output"
}
layer {
  name: "pool3/3x3_s2"
  type: "Pooling"
  bottom: "inception_3b/output"
  top: "pool3/3x3_s2"
  pooling_param {
    pool: MAX
    kernel_size: 3
    stride: 2
  }
}
layer {
  name: "inception_4a/1x1"
  type: "Convolution"
  bottom: "pool3/3x3_s2"
  top: "inception_4a/1x1"
  param {
    lr_mult: 1
    decay_mult: 1
  }
  param {
    lr_mult: 2
    decay_mult: 0
  }
  convolution_param {
    num_output: 192
    kernel_size: 1
    weight_filler {
      type: "xavier"
      std: 0.03
    }
    bias_filler {
      type: "constant"
      value: 0.2
    }
  }
}
layer {
  name: "inception_4a/relu_1x1"
  type: "ReLU"
  bottom: "inception_4a/1x1"
  top: "inception_4a/1x1"
}
layer {
  name: "inception_4a/3x3_reduce"
  type: "Convolution"
  bottom: "pool3/3x3_s2"
  top: "inception_4a/3x3_reduce"
  param {
    lr_mult: 1
    decay_mult: 1
  }
  param {
    lr_mult: 2
    decay_mult: 0
  }
  convolution_param {
    num_output: 96
    kernel_size: 1
    weight_filler {
      type: "xavier"
      std: 0.09
    }
    bias_filler {
      type: "constant"
      value: 0.2
    }
  }
}
layer {
  name: "inception_4a/relu_3x3_reduce"
  type: "ReLU"
  bottom: "inception_4a/3x3_reduce"
  top: "inception_4a/3x3_reduce"
}
layer {
  name: "inception_4a/3x3"
  type: "Convolution"
  bottom: "inception_4a/3x3_reduce"
  top: "inception_4a/3x3"
  param {
    lr_mult: 1
    decay_mult: 1
  }
  param {
    lr_mult: 2
    decay_mult: 0
  }
  convolution_param {
    num_output: 208
    pad: 1
    kernel_size: 3
    weight_filler {
      type: "xavier"
      std: 0.03
    }
    bias_filler {
      type: "constant"
      value: 0.2
    }
  }
}
layer {
  name: "inception_4a/relu_3x3"
  type: "ReLU"
  bottom: "inception_4a/3x3"
  top: "inception_4a/3x3"
}
layer {
  name: "inception_4a/5x5_reduce"
  type: "Convolution"
  bottom: "pool3/3x3_s2"
  top: "inception_4a/5x5_reduce"
  param {
    lr_mult: 1
    decay_mult: 1
  }
  param {
    lr_mult: 2
    decay_mult: 0
  }
  convolution_param {
    num_output: 16
    kernel_size: 1
    weight_filler {
      type: "xavier"
      std: 0.2
    }
    bias_filler {
      type: "constant"
      value: 0.2
    }
  }
}
layer {
  name: "inception_4a/relu_5x5_reduce"
  type: "ReLU"
  bottom: "inception_4a/5x5_reduce"
  top: "inception_4a/5x5_reduce"
}
layer {
  name: "inception_4a/5x5"
  type: "Convolution"
  bottom: "inception_4a/5x5_reduce"
  top: "inception_4a/5x5"
  param {
    lr_mult: 1
    decay_mult: 1
  }
  param {
    lr_mult: 2
    decay_mult: 0
  }
  convolution_param {
    num_output: 48
    pad: 2
    kernel_size: 5
    weight_filler {
      type: "xavier"
      std: 0.03
    }
    bias_filler {
      type: "constant"
      value: 0.2
    }
  }
}
layer {
  name: "inception_4a/relu_5x5"
  type: "ReLU"
  bottom: "inception_4a/5x5"
  top: "inception_4a/5x5"
}
layer {
  name: "inception_4a/pool"
  type: "Pooling"
  bottom: "pool3/3x3_s2"
  top: "inception_4a/pool"
  pooling_param {
    pool: MAX
    kernel_size: 3
    stride: 1
    pad: 1
  }
}
layer {
  name: "inception_4a/pool_proj"
  type: "Convolution"
  bottom: "inception_4a/pool"
  top: "inception_4a/pool_proj"
  param {
    lr_mult: 1
    decay_mult: 1
  }
  param {
    lr_mult: 2
    decay_mult: 0
  }
  convolution_param {
    num_output: 64
    kernel_size: 1
    weight_filler {
      type: "xavier"
      std: 0.1
    }
    bias_filler {
      type: "constant"
      value: 0.2
    }
  }
}
layer {
  name: "inception_4a/relu_pool_proj"
  type: "ReLU"
  bottom: "inception_4a/pool_proj"
  top: "inception_4a/pool_proj"
}
layer {
  name: "inception_4a/output"
  type: "Concat"
  bottom: "inception_4a/1x1"
  bottom: "inception_4a/3x3"
  bottom: "inception_4a/5x5"
  bottom: "inception_4a/pool_proj"
  top: "inception_4a/output"
}
layer {
  name: "loss1/ave_pool"
  type: "Pooling"
  bottom: "inception_4a/output"
  top: "loss1/ave_pool"
  pooling_param {
    pool: AVE
    kernel_size: 5
    stride: 3
  }
}
layer {
  name: "loss1/conv"
  type: "Convolution"
  bottom: "loss1/ave_pool"
  top: "loss1/conv"
  param {
    lr_mult: 1
    decay_mult: 1
  }
  param {
    lr_mult: 2
    decay_mult: 0
  }
  convolution_param {
    num_output: 128
    kernel_size: 1
    weight_filler {
      type: "xavier"
      std: 0.08
    }
    bias_filler {
      type: "constant"
      value: 0.2
    }
  }
}
layer {
  name: "loss1/relu_conv"
  type: "ReLU"
  bottom: "loss1/conv"
  top: "loss1/conv"
}
layer {
  name: "loss1/fc"
  type: "InnerProduct"
  bottom: "loss1/conv"
  top: "loss1/fc"
  param {
    lr_mult: 1
    decay_mult: 1
  }
  param {
    lr_mult: 2
    decay_mult: 0
  }
  inner_product_param {
    num_output: 1024
    weight_filler {
      type: "xavier"
      std: 0.02
    }
    bias_filler {
      type: "constant"
      value: 0.2
    }
  }
}
layer {
  name: "loss1/relu_fc"
  type: "ReLU"
  bottom: "loss1/fc"
  top: "loss1/fc"
}
layer {
  name: "loss1/drop_fc"
  type: "Dropout"
  bottom: "loss1/fc"
  top: "loss1/fc"
  dropout_param {
    dropout_ratio: 0.7
  }
}
layer {
  name: "loss1/classifier_plantvillage"
  type: "InnerProduct"
  bottom: "loss1/fc"
  top: "loss1/classifier_plantvillage"
  param {
    lr_mult: 1
    decay_mult: 1
  }
  param {
    lr_mult: 2
    decay_mult: 0
  }
  inner_product_param {
    num_output: 38
    weight_filler {
      type: "xavier"
      std: 0.0009765625
    }
    bias_filler {
      type: "constant"
      value: 0
    }
  }
}
layer {
  name: "inception_4b/1x1"
  type: "Convolution"
  bottom: "inception_4a/output"
  top: "inception_4b/1x1"
  param {
    lr_mult: 1
    decay_mult: 1
  }
  param {
    lr_mult: 2
    decay_mult: 0
  }
  convolution_param {
    num_output: 160
    kernel_size: 1
    weight_filler {
      type: "xavier"
      std: 0.03
    }
    bias_filler {
      type: "constant"
      value: 0.2
    }
  }
}
layer {
  name: "inception_4b/relu_1x1"
…
I0403 10:35:23.713342 10136 layer_factory.hpp:77] Creating layer inception_4c/pool
I0403 10:35:23.713366 10136 net.cpp:91] Creating Layer inception_4c/pool
I0403 10:35:23.713387 10136 net.cpp:425] inception_4c/pool <- inception_4b/output_inception_4b/output_0_split_3
I0403 10:35:23.713407 10136 net.cpp:399] inception_4c/pool -> inception_4c/pool
I0403 10:35:23.713471 10136 net.cpp:141] Setting up inception_4c/pool
I0403 10:35:23.713497 10136 net.cpp:148] Top shape: 24 512 14 14 (2408448)
I0403 10:35:23.713521 10136 net.cpp:156] Memory required for data: 1060605120
I0403 10:35:23.713537 10136 layer_factory.hpp:77] Creating layer inception_4c/pool_proj
I0403 10:35:23.713567 10136 net.cpp:91] Creating Layer inception_4c/pool_proj
I0403 10:35:23.713587 10136 net.cpp:425] inception_4c/pool_proj <- inception_4c/pool
I0403 10:35:23.713609 10136 net.cpp:399] inception_4c/pool_proj -> inception_4c/pool_proj
I0403 10:35:23.714057 10136 net.cpp:141] Setting up inception_4c/pool_proj
I0403 10:35:23.714085 10136 net.cpp:148] Top shape: 24 64 14 14 (301056)
I0403 10:35:23.714102 10136 net.cpp:156] Memory required for data: 1061809344
I0403 10:35:23.714123 10136 layer_factory.hpp:77] Creating layer inception_4c/relu_pool_proj
I0403 10:35:23.714143 10136 net.cpp:91] Creating Layer inception_4c/relu_pool_proj
I0403 10:35:23.714164 10136 net.cpp:425] inception_4c/relu_pool_proj <- inception_4c/pool_proj
I0403 10:35:23.714186 10136 net.cpp:386] inception_4c/relu_pool_proj -> inception_4c/pool_proj (in-place)
I0403 10:35:23.714208 10136 net.cpp:141] Setting up inception_4c/relu_pool_proj
I0403 10:35:23.714229 10136 net.cpp:148] Top shape: 24 64 14 14 (301056)
I0403 10:35:23.714246 10136 net.cpp:156] Memory required for data: 1063013568
I0403 10:35:23.714263 10136 layer_factory.hpp:77] Creating layer inception_4c/output
I0403 10:35:23.714282 10136 net.cpp:91] Creating Layer inception_4c/output
I0403 10:35:23.714299 10136 net.cpp:425] inception_4c/output <- inception_4c/1x1
I0403 10:35:23.714318 10136 net.cpp:425] inception_4c/output <- inception_4c/3x3
I0403 10:35:23.714336 10136 net.cpp:425] inception_4c/output <- inception_4c/5x5
I0403 10:35:23.714355 10136 net.cpp:425] inception_4c/output <- inception_4c/pool_proj
I0403 10:35:23.714380 10136 net.cpp:399] inception_4c/output -> inception_4c/output
I0403 10:35:23.714426 10136 net.cpp:141] Setting up inception_4c/output
I0403 10:35:23.714450 10136 net.cpp:148] Top shape: 24 512 14 14 (2408448)
I0403 10:35:23.714468 10136 net.cpp:156] Memory required for data: 1072647360
I0403 10:35:23.714485 10136 layer_factory.hpp:77] Creating layer inception_4c/output_inception_4c/output_0_split
I0403 10:35:23.714505 10136 net.cpp:91] Creating Layer inception_4c/output_inception_4c/output_0_split
I0403 10:35:23.714529 10136 net.cpp:425] inception_4c/output_inception_4c/output_0_split <- inception_4c/output
I0403 10:35:23.714555 10136 net.cpp:399] inception_4c/output_inception_4c/output_0_split -> inception_4c/output_inception_4c/output_0_split_0
I0403 10:35:23.714579 10136 net.cpp:399] inception_4c/output_inception_4c/output_0_split -> inception_4c/output_inception_4c/output_0_split_1
I0403 10:35:23.714603 10136 net.cpp:399] inception_4c/output_inception_4c/output_0_split -> inception_4c/output_inception_4c/output_0_split_2
I0403 10:35:23.714627 10136 net.cpp:399] inception_4c/output_inception_4c/output_0_split -> inception_4c/output_inception_4c/output_0_split_3
I0403 10:35:23.714731 10136 net.cpp:141] Setting up inception_4c/output_inception_4c/output_0_split
I0403 10:35:23.714758 10136 net.cpp:148] Top shape: 24 512 14 14 (2408448)
I0403 10:35:23.714777 10136 net.cpp:148] Top shape: 24 512 14 14 (2408448)
I0403 10:35:23.714795 10136 net.cpp:148] Top shape: 24 512 14 14 (2408448)
I0403 10:35:23.714812 10136 net.cpp:148] Top shape: 24 512 14 14 (2408448)
I0403 10:35:23.714828 10136 net.cpp:156] Memory required for data: 1111182528
I0403 10:35:23.714845 10136 layer_factory.hpp:77] Creating layer inception_4d/1x1
I0403 10:35:23.714872 10136 net.cpp:91] Creating Layer inception_4d/1x1
I0403 10:35:23.714893 10136 net.cpp:425] inception_4d/1x1 <- inception_4c/output_inception_4c/output_0_split_0
I0403 10:35:23.714915 10136 net.cpp:399] inception_4d/1x1 -> inception_4d/1x1
I0403 10:35:23.715523 10136 net.cpp:141] Setting up inception_4d/1x1
I0403 10:35:23.715554 10136 net.cpp:148] Top shape: 24 112 14 14 (526848)
I0403 10:35:23.715574 10136 net.cpp:156] Memory required for data: 1113289920
I0403 10:35:23.715602 10136 layer_factory.hpp:77] Creating layer inception_4d/relu_1x1
I0403 10:35:23.715623 10136 net.cpp:91] Creating Layer inception_4d/relu_1x1
I0403 10:35:23.715642 10136 net.cpp:425] inception_4d/relu_1x1 <- inception_4d/1x1
I0403 10:35:23.715662 10136 net.cpp:386] inception_4d/relu_1x1 -> inception_4d/1x1 (in-place)
I0403 10:35:23.715684 10136 net.cpp:141] Setting up inception_4d/relu_1x1
I0403 10:35:23.715704 10136 net.cpp:148] Top shape: 24 112 14 14 (526848)
I0403 10:35:23.715720 10136 net.cpp:156] Memory required for data: 1115397312
I0403 10:35:23.715735 10136 layer_factory.hpp:77] Creating layer inception_4d/3x3_reduce
I0403 10:35:23.715761 10136 net.cpp:91] Creating Layer inception_4d/3x3_reduce
I0403 10:35:23.715781 10136 net.cpp:425] inception_4d/3x3_reduce <- inception_4c/output_inception_4c/output_0_split_1
I0403 10:35:23.715806 10136 net.cpp:399] inception_4d/3x3_reduce -> inception_4d/3x3_reduce
I0403 10:35:23.716534 10136 net.cpp:141] Setting up inception_4d/3x3_reduce
I0403 10:35:23.716563 10136 net.cpp:148] Top shape: 24 144 14 14 (677376)
I0403 10:35:23.716581 10136 net.cpp:156] Memory required for data: 1118106816
I0403 10:35:23.716601 10136 layer_factory.hpp:77] Creating layer inception_4d/relu_3x3_reduce
I0403 10:35:23.716624 10136 net.cpp:91] Creating Layer inception_4d/relu_3x3_reduce
I0403 10:35:23.716645 10136 net.cpp:425] inception_4d/relu_3x3_reduce <- inception_4d/3x3_reduce
I0403 10:35:23.716665 10136 net.cpp:386] inception_4d/relu_3x3_reduce -> inception_4d/3x3_reduce (in-place)
I0403 10:35:23.716687 10136 net.cpp:141] Setting up inception_4d/relu_3x3_reduce
I0403 10:35:23.716706 10136 net.cpp:148] Top shape: 24 144 14 14 (677376)
I0403 10:35:23.716722 10136 net.cpp:156] Memory required for data: 1120816320
I0403 10:35:23.716738 10136 layer_factory.hpp:77] Creating layer inception_4d/3x3
I0403 10:35:23.716765 10136 net.cpp:91] Creating Layer inception_4d/3x3
I0403 10:35:23.716786 10136 net.cpp:425] inception_4d/3x3 <- inception_4d/3x3_reduce
I0403 10:35:23.716807 10136 net.cpp:399] inception_4d/3x3 -> inception_4d/3x3
I0403 10:35:23.720234 10136 net.cpp:141] Setting up inception_4d/3x3
I0403 10:35:23.720268 10136 net.cpp:148] Top shape: 24 288 14 14 (1354752)
I0403 10:35:23.720288 10136 net.cpp:156] Memory required for data: 1126235328
I0403 10:35:23.720309 10136 layer_factory.hpp:77] Creating layer inception_4d/relu_3x3
I0403 10:35:23.720330 10136 net.cpp:91] Creating Layer inception_4d/relu_3x3
I0403 10:35:23.720350 10136 net.cpp:425] inception_4d/relu_3x3 <- inception_4d/3x3
I0403 10:35:23.720373 10136 net.cpp:386] inception_4d/relu_3x3 -> inception_4d/3x3 (in-place)
I0403 10:35:23.720396 10136 net.cpp:141] Setting up inception_4d/relu_3x3
I0403 10:35:23.720417 10136 net.cpp:148] Top shape: 24 288 14 14 (1354752)
I0403 10:35:23.720433 10136 net.cpp:156] Memory required for data: 1131654336
I0403 10:35:23.720449 10136 layer_factory.hpp:77] Creating layer inception_4d/5x5_reduce
I0403 10:35:23.720492 10136 net.cpp:91] Creating Layer inception_4d/5x5_reduce
I0403 10:35:23.720521 10136 net.cpp:425] inception_4d/5x5_reduce <- inception_4c/output_inception_4c/output_0_split_2
I0403 10:35:23.720546 10136 net.cpp:399] inception_4d/5x5_reduce -> inception_4d/5x5_reduce
I0403 10:35:23.720921 10136 net.cpp:141] Setting up inception_4d/5x5_reduce
I0403 10:35:23.720948 10136 net.cpp:148] Top shape: 24 32 14 14 (150528)
I0403 10:35:23.720965 10136 net.cpp:156] Memory required for data: 1132256448
I0403 10:35:23.720985 10136 layer_factory.hpp:77] Creating layer inception_4d/relu_5x5_reduce
I0403 10:35:23.721006 10136 net.cpp:91] Creating Layer inception_4d/relu_5x5_reduce
I0403 10:35:23.721025 10136 net.cpp:425] inception_4d/relu_5x5_reduce <- inception_4d/5x5_reduce
I0403 10:35:23.721048 10136 net.cpp:386] inception_4d/relu_5x5_reduce -> inception_4d/5x5_reduce (in-place)
I0403 10:35:23.721072 10136 net.cpp:141] Setting up inception_4d/relu_5x5_reduce
I0403 10:35:23.721092 10136 net.cpp:148] Top shape: 24 32 14 14 (150528)
I0403 10:35:23.721108 10136 net.cpp:156] Memory required for data: 1132858560
I0403 10:35:23.721125 10136 layer_factory.hpp:77] Creating layer inception_4d/5x5
I0403 10:35:23.721151 10136 net.cpp:91] Creating Layer inception_4d/5x5
I0403 10:35:23.721173 10136 net.cpp:425] inception_4d/5x5 <- inception_4d/5x5_reduce
I0403 10:35:23.721195 10136 net.cpp:399] inception_4d/5x5 -> inception_4d/5x5
I0403 10:35:23.721801 10136 net.cpp:141] Setting up inception_4d/5x5
I0403 10:35:23.721829 10136 net.cpp:148] Top shape: 24 64 14 14 (301056)
I0403 10:35:23.721848 10136 net.cpp:156] Memory required for data: 1134062784
I0403 10:35:23.721868 10136 layer_factory.hpp:77] Creating layer inception_4d/relu_5x5
I0403 10:35:23.721889 10136 net.cpp:91] Creating Layer inception_4d/relu_5x5
I0403 10:35:23.721906 10136 net.cpp:425] inception_4d/relu_5x5 <- inception_4d/5x5
I0403 10:35:23.721928 10136 net.cpp:386] inception_4d/relu_5x5 -> inception_4d/5x5 (in-place)
I0403 10:35:23.721951 10136 net.cpp:141] Setting up inception_4d/relu_5x5
I0403 10:35:23.721972 10136 net.cpp:148] Top shape: 24 64 14 14 (301056)
I0403 10:35:23.721989 10136 net.cpp:156] Memory required for data: 1135267008
I0403 10:35:23.722008 10136 layer_factory.hpp:77] Creating layer inception_4d/pool
I0403 10:35:23.722026 10136 net.cpp:91] Creating Layer inception_4d/pool
I0403 10:35:23.722045 10136 net.cpp:425] inception_4d/pool <- inception_4c/output_inception_4c/output_0_split_3
I0403 10:35:23.722069 10136 net.cpp:399] inception_4d/pool -> inception_4d/pool
I0403 10:35:23.722131 10136 net.cpp:141] Setting up inception_4d/pool
I0403 10:35:23.722157 10136 net.cpp:148] Top shape: 24 512 14 14 (2408448)
I0403 10:35:23.722175 10136 net.cpp:156] Memory required for data: 1144900800
I0403 10:35:23.722192 10136 layer_factory.hpp:77] Creating layer inception_4d/pool_proj
I0403 10:35:23.722218 10136 net.cpp:91] Creating Layer inception_4d/pool_proj
I0403 10:35:23.722239 10136 net.cpp:425] inception_4d/pool_proj <- inception_4d/pool
I0403 10:35:23.722264 10136 net.cpp:399] inception_4d/pool_proj -> inception_4d/pool_proj
I0403 10:35:23.722724 10136 net.cpp:141] Setting up inception_4d/pool_proj
I0403 10:35:23.722753 10136 net.cpp:148] Top shape: 24 64 14 14 (301056)
I0403 10:35:23.722770 10136 net.cpp:156] Memory required for data: 1146105024
I0403 10:35:23.722790 10136 layer_factory.hpp:77] Creating layer inception_4d/relu_pool_proj
I0403 10:35:23.722812 10136 net.cpp:91] Creating Layer inception_4d/relu_pool_proj
I0403 10:35:23.722832 10136 net.cpp:425] inception_4d/relu_pool_proj <- inception_4d/pool_proj
I0403 10:35:23.722853 10136 net.cpp:386] inception_4d/relu_pool_proj -> inception_4d/pool_proj (in-place)
I0403 10:35:23.722877 10136 net.cpp:141] Setting up inception_4d/relu_pool_proj
I0403 10:35:23.722897 10136 net.cpp:148] Top shape: 24 64 14 14 (301056)
I0403 10:35:23.722913 10136 net.cpp:156] Memory required for data: 1147309248
I0403 10:35:23.722929 10136 layer_factory.hpp:77] Creating layer inception_4d/output
I0403 10:35:23.722967 10136 net.cpp:91] Creating Layer inception_4d/output
I0403 10:35:23.722988 10136 net.cpp:425] inception_4d/output <- inception_4d/1x1
I0403 10:35:23.723007 10136 net.cpp:425] inception_4d/output <- inception_4d/3x3
I0403 10:35:23.723026 10136 net.cpp:425] inception_4d/output <- inception_4d/5x5
I0403 10:35:23.723044 10136 net.cpp:425] inception_4d/output <- inception_4d/pool_proj
I0403 10:35:23.723064 10136 net.cpp:399] inception_4d/output -> inception_4d/output
I0403 10:35:23.723112 10136 net.cpp:141] Setting up inception_4d/output
I0403 10:35:23.723139 10136 net.cpp:148] Top shape: 24 528 14 14 (2483712)
I0403 10:35:23.723155 10136 net.cpp:156] Memory required for data: 1157244096
I0403 10:35:23.723172 10136 layer_factory.hpp:77] Creating layer inception_4d/output_inception_4d/output_0_split
I0403 10:35:23.723193 10136 net.cpp:91] Creating Layer inception_4d/output_inception_4d/output_0_split
I0403 10:35:23.723212 10136 net.cpp:425] inception_4d/output_inception_4d/output_0_split <- inception_4d/output
I0403 10:35:23.723234 10136 net.cpp:399] inception_4d/output_inception_4d/output_0_split -> inception_4d/output_inception_4d/output_0_split_0
I0403 10:35:23.723259 10136 net.cpp:399] inception_4d/output_inception_4d/output_0_split -> inception_4d/output_inception_4d/output_0_split_1
I0403 10:35:23.723284 10136 net.cpp:399] inception_4d/output_inception_4d/output_0_split -> inception_4d/output_inception_4d/output_0_split_2
I0403 10:35:23.723309 10136 net.cpp:399] inception_4d/output_inception_4d/output_0_split -> inception_4d/output_inception_4d/output_0_split_3
I0403 10:35:23.723340 10136 net.cpp:399] inception_4d/output_inception_4d/output_0_split -> inception_4d/output_inception_4d/output_0_split_4
I0403 10:35:23.723448 10136 net.cpp:141] Setting up inception_4d/output_inception_4d/output_0_split
I0403 10:35:23.723474 10136 net.cpp:148] Top shape: 24 528 14 14 (2483712)
I0403 10:35:23.723492 10136 net.cpp:148] Top shape: 24 528 14 14 (2483712)
I0403 10:35:23.723517 10136 net.cpp:148] Top shape: 24 528 14 14 (2483712)
I0403 10:35:23.723537 10136 net.cpp:148] Top shape: 24 528 14 14 (2483712)
I0403 10:35:23.723556 10136 net.cpp:148] Top shape: 24 528 14 14 (2483712)
I0403 10:35:23.723572 10136 net.cpp:156] Memory required for data: 1206918336
I0403 10:35:23.723588 10136 layer_factory.hpp:77] Creating layer loss2/ave_pool
I0403 10:35:23.723611 10136 net.cpp:91] Creating Layer loss2/ave_pool
I0403 10:35:23.723631 10136 net.cpp:425] loss2/ave_pool <- inception_4d/output_inception_4d/output_0_split_0
I0403 10:35:23.723651 10136 net.cpp:399] loss2/ave_pool -> loss2/ave_pool
I0403 10:35:23.723698 10136 net.cpp:141] Setting up loss2/ave_pool
I0403 10:35:23.723724 10136 net.cpp:148] Top shape: 24 528 4 4 (202752)
I0403 10:35:23.723742 10136 net.cpp:156] Memory required for data: 1207729344
I0403 10:35:23.723758 10136 layer_factory.hpp:77] Creating layer loss2/conv
I0403 10:35:23.723783 10136 net.cpp:91] Creating Layer loss2/conv
I0403 10:35:23.723803 10136 net.cpp:425] loss2/conv <- loss2/ave_pool
I0403 10:35:23.723829 10136 net.cpp:399] loss2/conv -> loss2/conv
I0403 10:35:23.725042 10136 net.cpp:141] Setting up loss2/conv
I0403 10:35:23.725074 10136 net.cpp:148] Top shape: 24 128 4 4 (49152)
I0403 10:35:23.725091 10136 net.cpp:156] Memory required for data: 1207925952
I0403 10:35:23.725112 10136 layer_factory.hpp:77] Creating layer loss2/relu_conv
I0403 10:35:23.725133 10136 net.cpp:91] Creating Layer loss2/relu_conv
I0403 10:35:23.725152 10136 net.cpp:425] loss2/relu_conv <- loss2/conv
I0403 10:35:23.725174 10136 net.cpp:386] loss2/relu_conv -> loss2/conv (in-place)
I0403 10:35:23.725199 10136 net.cpp:141] Setting up loss2/relu_conv
I0403 10:35:23.725220 10136 net.cpp:148] Top shape: 24 128 4 4 (49152)
I0403 10:35:23.725237 10136 net.cpp:156] Memory required for data: 1208122560
I0403 10:35:23.725255 10136 layer_factory.hpp:77] Creating layer loss2/fc
I0403 10:35:23.725282 10136 net.cpp:91] Creating Layer loss2/fc
I0403 10:35:23.725308 10136 net.cpp:425] loss2/fc <- loss2/conv
I0403 10:35:23.725338 10136 net.cpp:399] loss2/fc -> loss2/fc
I0403 10:35:23.742183 10136 net.cpp:141] Setting up loss2/fc
I0403 10:35:23.742240 10136 net.cpp:148] Top shape: 24 1024 (24576)
I0403 10:35:23.742280 10136 net.cpp:156] Memory required for data: 1208220864
I0403 10:35:23.742305 10136 layer_factory.hpp:77] Creating layer loss2/relu_fc
I0403 10:35:23.742338 10136 net.cpp:91] Creating Layer loss2/relu_fc
I0403 10:35:23.742363 10136 net.cpp:425] loss2/relu_fc <- loss2/fc
I0403 10:35:23.742386 10136 net.cpp:386] loss2/relu_fc -> loss2/fc (in-place)
I0403 10:35:23.742411 10136 net.cpp:141] Setting up loss2/relu_fc
I0403 10:35:23.742432 10136 net.cpp:148] Top shape: 24 1024 (24576)
I0403 10:35:23.742449 10136 net.cpp:156] Memory required for data: 1208319168
I0403 10:35:23.742467 10136 layer_factory.hpp:77] Creating layer loss2/drop_fc
I0403 10:35:23.742489 10136 net.cpp:91] Creating Layer loss2/drop_fc
I0403 10:35:23.742517 10136 net.cpp:425] loss2/drop_fc <- loss2/fc
I0403 10:35:23.742540 10136 net.cpp:386] loss2/drop_fc -> loss2/fc (in-place)
I0403 10:35:23.742591 10136 net.cpp:141] Setting up loss2/drop_fc
I0403 10:35:23.742617 10136 net.cpp:148] Top shape: 24 1024 (24576)
I0403 10:35:23.742635 10136 net.cpp:156] Memory required for data: 1208417472
I0403 10:35:23.742651 10136 layer_factory.hpp:77] Creating layer loss2/classifier_plantvillage
I0403 10:35:23.742677 10136 net.cpp:91] Creating Layer loss2/classifier_plantvillage
I0403 10:35:23.742697 10136 net.cpp:425] loss2/classifier_plantvillage <- loss2/fc
I0403 10:35:23.742722 10136 net.cpp:399] loss2/classifier_plantvillage -> loss2/classifier_plantvillage
I0403 10:35:23.743104 10136 net.cpp:141] Setting up loss2/classifier_plantvillage
I0403 10:35:23.743131 10136 net.cpp:148] Top shape: 24 38 (912)
I0403 10:35:23.743149 10136 net.cpp:156] Memory required for data: 1208421120
I0403 10:35:23.743173 10136 layer_factory.hpp:77] Creating layer loss2/classifier_plantvillage_loss2/classifier_plantvillage_0_split
I0403 10:35:23.743198 10136 net.cpp:91] Creating Layer loss2/classifier_plantvillage_loss2/classifier_plantvillage_0_split
I0403 10:35:23.743218 10136 net.cpp:425] loss2/classifier_plantvillage_loss2/classifier_plantvillage_0_split <- loss2/classifier_plantvillage
I0403 10:35:23.743239 10136 net.cpp:399] loss2/classifier_plantvillage_loss2/classifier_plantvillage_0_split -> loss2/classifier_plantvillage_loss2/classifier_plantvillage_0_split_0
I0403 10:35:23.743266 10136 net.cpp:399] loss2/classifier_plantvillage_loss2/classifier_plantvillage_0_split -> loss2/classifier_plantvillage_loss2/classifier_plantvillage_0_split_1
I0403 10:35:23.743289 10136 net.cpp:399] loss2/classifier_plantvillage_loss2/classifier_plantvillage_0_split -> loss2/classifier_plantvillage_loss2/classifier_plantvillage_0_split_2
I0403 10:35:23.743366 10136 net.cpp:141] Setting up loss2/classifier_plantvillage_loss2/classifier_plantvillage_0_split
I0403 10:35:23.743392 10136 net.cpp:148] Top shape: 24 38 (912)
I0403 10:35:23.743412 10136 net.cpp:148] Top shape: 24 38 (912)
I0403 10:35:23.743430 10136 net.cpp:148] Top shape: 24 38 (912)
I0403 10:35:23.743456 10136 net.cpp:156] Memory required for data: 1208432064
I0403 10:35:23.743474 10136 layer_factory.hpp:77] Creating layer inception_4e/1x1
I0403 10:35:23.743499 10136 net.cpp:91] Creating Layer inception_4e/1x1
I0403 10:35:23.743530 10136 net.cpp:425] inception_4e/1x1 <- inception_4d/output_inception_4d/output_0_split_1
I0403 10:35:23.743562 10136 net.cpp:399] inception_4e/1x1 -> inception_4e/1x1
I0403 10:35:23.744665 10136 net.cpp:141] Setting up inception_4e/1x1
I0403 10:35:23.744696 10136 net.cpp:148] Top shape: 24 256 14 14 (1204224)
I0403 10:35:23.744720 10136 net.cpp:156] Memory required for data: 1213248960
I0403 10:35:23.744740 10136 layer_factory.hpp:77] Creating layer inception_4e/relu_1x1
I0403 10:35:23.744760 10136 net.cpp:91] Creating Layer inception_4e/relu_1x1
I0403 10:35:23.744779 10136 net.cpp:425] inception_4e/relu_1x1 <- inception_4e/1x1
I0403 10:35:23.744802 10136 net.cpp:386] inception_4e/relu_1x1 -> inception_4e/1x1 (in-place)
I0403 10:35:23.744825 10136 net.cpp:141] Setting up inception_4e/relu_1x1
I0403 10:35:23.744865 10136 net.cpp:148] Top shape: 24 256 14 14 (1204224)
I0403 10:35:23.744882 10136 net.cpp:156] Memory required for data: 1218065856
I0403 10:35:23.744899 10136 layer_factory.hpp:77] Creating layer inception_4e/3x3_reduce
I0403 10:35:23.744923 10136 net.cpp:91] Creating Layer inception_4e/3x3_reduce
I0403 10:35:23.744943 10136 net.cpp:425] inception_4e/3x3_reduce <- inception_4d/output_inception_4d/output_0_split_2
I0403 10:35:23.744966 10136 net.cpp:399] inception_4e/3x3_reduce -> inception_4e/3x3_reduce
I0403 10:35:23.746304 10136 net.cpp:141] Setting up inception_4e/3x3_reduce
I0403 10:35:23.746335 10136 net.cpp:148] Top shape: 24 160 14 14 (752640)
I0403 10:35:23.746353 10136 net.cpp:156] Memory required for data: 1221076416
I0403 10:35:23.746373 10136 layer_factory.hpp:77] Creating layer inception_4e/relu_3x3_reduce
I0403 10:35:23.746394 10136 net.cpp:91] Creating Layer inception_4e/relu_3x3_reduce
I0403 10:35:23.746413 10136 net.cpp:425] inception_4e/relu_3x3_reduce <- inception_4e/3x3_reduce
I0403 10:35:23.746433 10136 net.cpp:386] inception_4e/relu_3x3_reduce -> inception_4e/3x3_reduce (in-place)
I0403 10:35:23.746455 10136 net.cpp:141] Setting up inception_4e/relu_3x3_reduce
I0403 10:35:23.746474 10136 net.cpp:148] Top shape: 24 160 14 14 (752640)
I0403 10:35:23.746490 10136 net.cpp:156] Memory required for data: 1224086976
I0403 10:35:23.746506 10136 layer_factory.hpp:77] Creating layer inception_4e/3x3
I0403 10:35:23.746539 10136 net.cpp:91] Creating Layer inception_4e/3x3
I0403 10:35:23.746562 10136 net.cpp:425] inception_4e/3x3 <- inception_4e/3x3_reduce
I0403 10:35:23.746584 10136 net.cpp:399] inception_4e/3x3 -> inception_4e/3x3
I0403 10:35:23.750486 10136 net.cpp:141] Setting up inception_4e/3x3
I0403 10:35:23.750522 10136 net.cpp:148] Top shape: 24 320 14 14 (1505280)
I0403 10:35:23.750541 10136 net.cpp:156] Memory required for data: 1230108096
I0403 10:35:23.750561 10136 layer_factory.hpp:77] Creating layer inception_4e/relu_3x3
I0403 10:35:23.750582 10136 net.cpp:91] Creating Layer inception_4e/relu_3x3
I0403 10:35:23.750600 10136 net.cpp:425] inception_4e/relu_3x3 <- inception_4e/3x3
I0403 10:35:23.750623 10136 net.cpp:386] inception_4e/relu_3x3 -> inception_4e/3x3 (in-place)
I0403 10:35:23.750646 10136 net.cpp:141] Setting up inception_4e/relu_3x3
I0403 10:35:23.750666 10136 net.cpp:148] Top shape: 24 320 14 14 (1505280)
I0403 10:35:23.750682 10136 net.cpp:156] Memory required for data: 1236129216
I0403 10:35:23.750699 10136 layer_factory.hpp:77] Creating layer inception_4e/5x5_reduce
I0403 10:35:23.750722 10136 net.cpp:91] Creating Layer inception_4e/5x5_reduce
I0403 10:35:23.750742 10136 net.cpp:425] inception_4e/5x5_reduce <- inception_4d/output_inception_4d/output_0_split_3
I0403 10:35:23.750764 10136 net.cpp:399] inception_4e/5x5_reduce -> inception_4e/5x5_reduce
I0403 10:35:23.751644 10136 net.cpp:141] Setting up inception_4e/5x5_reduce
I0403 10:35:23.751673 10136 net.cpp:148] Top shape: 24 32 14 14 (150528)
I0403 10:35:23.751691 10136 net.cpp:156] Memory required for data: 1236731328
I0403 10:35:23.751713 10136 layer_factory.hpp:77] Creating layer inception_4e/relu_5x5_reduce
I0403 10:35:23.751732 10136 net.cpp:91] Creating Layer inception_4e/relu_5x5_reduce
I0403 10:35:23.751751 10136 net.cpp:425] inception_4e/relu_5x5_reduce <- inception_4e/5x5_reduce
I0403 10:35:23.751771 10136 net.cpp:386] inception_4e/relu_5x5_reduce -> inception_4e/5x5_reduce (in-place)
I0403 10:35:23.751792 10136 net.cpp:141] Setting up inception_4e/relu_5x5_reduce
I0403 10:35:23.751812 10136 net.cpp:148] Top shape: 24 32 14 14 (150528)
I0403 10:35:23.751830 10136 net.cpp:156] Memory required for data: 1237333440
I0403 10:35:23.751847 10136 layer_factory.hpp:77] Creating layer inception_4e/5x5
I0403 10:35:23.751888 10136 net.cpp:91] Creating Layer inception_4e/5x5
I0403 10:35:23.751910 10136 net.cpp:425] inception_4e/5x5 <- inception_4e/5x5_reduce
I0403 10:35:23.751932 10136 net.cpp:399] inception_4e/5x5 -> inception_4e/5x5
I0403 10:35:23.752737 10136 net.cpp:141] Setting up inception_4e/5x5
I0403 10:35:23.752777 10136 net.cpp:148] Top shape: 24 128 14 14 (602112)
I0403 10:35:23.752796 10136 net.cpp:156] Memory required for data: 1239741888
I0403 10:35:23.752816 10136 layer_factory.hpp:77] Creating layer inception_4e/relu_5x5
I0403 10:35:23.752847 10136 net.cpp:91] Creating Layer inception_4e/relu_5x5
I0403 10:35:23.752866 10136 net.cpp:425] inception_4e/relu_5x5 <- inception_4e/5x5
I0403 10:35:23.752888 10136 net.cpp:386] inception_4e/relu_5x5 -> inception_4e/5x5 (in-place)
I0403 10:35:23.752912 10136 net.cpp:141] Setting up inception_4e/relu_5x5
I0403 10:35:23.752930 10136 net.cpp:148] Top shape: 24 128 14 14 (602112)
I0403 10:35:23.752946 10136 net.cpp:156] Memory required for data: 1242150336
I0403 10:35:23.752962 10136 layer_factory.hpp:77] Creating layer inception_4e/pool
I0403 10:35:23.752984 10136 net.cpp:91] Creating Layer inception_4e/pool
I0403 10:35:23.753001 10136 net.cpp:425] inception_4e/pool <- inception_4d/output_inception_4d/output_0_split_4
I0403 10:35:23.753024 10136 net.cpp:399] inception_4e/pool -> inception_4e/pool
I0403 10:35:23.753082 10136 net.cpp:141] Setting up inception_4e/pool
I0403 10:35:23.753106 10136 net.cpp:148] Top shape: 24 528 14 14 (2483712)
I0403 10:35:23.753123 10136 net.cpp:156] Memory required for data: 1252085184
I0403 10:35:23.753139 10136 layer_factory.hpp:77] Creating layer inception_4e/pool_proj
I0403 10:35:23.753165 10136 net.cpp:91] Creating Layer inception_4e/pool_proj
I0403 10:35:23.753186 10136 net.cpp:425] inception_4e/pool_proj <- inception_4e/pool
I0403 10:35:23.753209 10136 net.cpp:399] inception_4e/pool_proj -> inception_4e/pool_proj
I0403 10:35:23.753821 10136 net.cpp:141] Setting up inception_4e/pool_proj
I0403 10:35:23.753847 10136 net.cpp:148] Top shape: 24 128 14 14 (602112)
I0403 10:35:23.753865 10136 net.cpp:156] Memory required for data: 1254493632
I0403 10:35:23.753885 10136 layer_factory.hpp:77] Creating layer inception_4e/relu_pool_proj
I0403 10:35:23.753906 10136 net.cpp:91] Creating Layer inception_4e/relu_pool_proj
I0403 10:35:23.753924 10136 net.cpp:425] inception_4e/relu_pool_proj <- inception_4e/pool_proj
I0403 10:35:23.753944 10136 net.cpp:386] inception_4e/relu_pool_proj -> inception_4e/pool_proj (in-place)
I0403 10:35:23.753965 10136 net.cpp:141] Setting up inception_4e/relu_pool_proj
I0403 10:35:23.753985 10136 net.cpp:148] Top shape: 24 128 14 14 (602112)
I0403 10:35:23.754001 10136 net.cpp:156] Memory required for data: 1256902080
I0403 10:35:23.754016 10136 layer_factory.hpp:77] Creating layer inception_4e/output
I0403 10:35:23.754037 10136 net.cpp:91] Creating Layer inception_4e/output
I0403 10:35:23.754055 10136 net.cpp:425] inception_4e/output <- inception_4e/1x1
I0403 10:35:23.754073 10136 net.cpp:425] inception_4e/output <- inception_4e/3x3
I0403 10:35:23.754091 10136 net.cpp:425] inception_4e/output <- inception_4e/5x5
I0403 10:35:23.754109 10136 net.cpp:425] inception_4e/output <- inception_4e/pool_proj
I0403 10:35:23.754130 10136 net.cpp:399] inception_4e/output -> inception_4e/output
I0403 10:35:23.754173 10136 net.cpp:141] Setting up inception_4e/output
I0403 10:35:23.754201 10136 net.cpp:148] Top shape: 24 832 14 14 (3913728)
I0403 10:35:23.754220 10136 net.cpp:156] Memory required for data: 1272556992
I0403 10:35:23.754235 10136 layer_factory.hpp:77] Creating layer pool4/3x3_s2
I0403 10:35:23.754254 10136 net.cpp:91] Creating Layer pool4/3x3_s2
I0403 10:35:23.754272 10136 net.cpp:425] pool4/3x3_s2 <- inception_4e/output
I0403 10:35:23.754292 10136 net.cpp:399] pool4/3x3_s2 -> pool4/3x3_s2
I0403 10:35:23.754348 10136 net.cpp:141] Setting up pool4/3x3_s2
I0403 10:35:23.754372 10136 net.cpp:148] Top shape: 24 832 7 7 (978432)
I0403 10:35:23.754389 10136 net.cpp:156] Memory required for data: 1276470720
I0403 10:35:23.754405 10136 layer_factory.hpp:77] Creating layer pool4/3x3_s2_pool4/3x3_s2_0_split
I0403 10:35:23.754423 10136 net.cpp:91] Creating Layer pool4/3x3_s2_pool4/3x3_s2_0_split
I0403 10:35:23.754441 10136 net.cpp:425] pool4/3x3_s2_pool4/3x3_s2_0_split <- pool4/3x3_s2
I0403 10:35:23.754477 10136 net.cpp:399] pool4/3x3_s2_pool4/3x3_s2_0_split -> pool4/3x3_s2_pool4/3x3_s2_0_split_0
I0403 10:35:23.754503 10136 net.cpp:399] pool4/3x3_s2_pool4/3x3_s2_0_split -> pool4/3x3_s2_pool4/3x3_s2_0_split_1
I0403 10:35:23.754540 10136 net.cpp:399] pool4/3x3_s2_pool4/3x3_s2_0_split -> pool4/3x3_s2_pool4/3x3_s2_0_split_2
I0403 10:35:23.754565 10136 net.cpp:399] pool4/3x3_s2_pool4/3x3_s2_0_split -> pool4/3x3_s2_pool4/3x3_s2_0_split_3
I0403 10:35:23.754638 10136 net.cpp:141] Setting up pool4/3x3_s2_pool4/3x3_s2_0_split
I0403 10:35:23.754663 10136 net.cpp:148] Top shape: 24 832 7 7 (978432)
I0403 10:35:23.754681 10136 net.cpp:148] Top shape: 24 832 7 7 (978432)
I0403 10:35:23.754699 10136 net.cpp:148] Top shape: 24 832 7 7 (978432)
I0403 10:35:23.754717 10136 net.cpp:148] Top shape: 24 832 7 7 (978432)
I0403 10:35:23.754734 10136 net.cpp:156] Memory required for data: 1292125632
I0403 10:35:23.754748 10136 layer_factory.hpp:77] Creating layer inception_5a/1x1
I0403 10:35:23.754772 10136 net.cpp:91] Creating Layer inception_5a/1x1
I0403 10:35:23.754793 10136 net.cpp:425] inception_5a/1x1 <- pool4/3x3_s2_pool4/3x3_s2_0_split_0
I0403 10:35:23.754815 10136 net.cpp:399] inception_5a/1x1 -> inception_5a/1x1
I0403 10:35:23.756773 10136 net.cpp:141] Setting up inception_5a/1x1
I0403 10:35:23.756803 10136 net.cpp:148] Top shape: 24 256 7 7 (301056)
I0403 10:35:23.756821 10136 net.cpp:156] Memory required for data: 1293329856
I0403 10:35:23.756850 10136 layer_factory.hpp:77] Creating layer inception_5a/relu_1x1
I0403 10:35:23.756870 10136 net.cpp:91] Creating Layer inception_5a/relu_1x1
I0403 10:35:23.756888 10136 net.cpp:425] inception_5a/relu_1x1 <- inception_5a/1x1
I0403 10:35:23.756911 10136 net.cpp:386] inception_5a/relu_1x1 -> inception_5a/1x1 (in-place)
I0403 10:35:23.756940 10136 net.cpp:141] Setting up inception_5a/relu_1x1
I0403 10:35:23.756961 10136 net.cpp:148] Top shape: 24 256 7 7 (301056)
I0403 10:35:23.756978 10136 net.cpp:156] Memory required for data: 1294534080
I0403 10:35:23.756992 10136 layer_factory.hpp:77] Creating layer inception_5a/3x3_reduce
I0403 10:35:23.757017 10136 net.cpp:91] Creating Layer inception_5a/3x3_reduce
I0403 10:35:23.757037 10136 net.cpp:425] inception_5a/3x3_reduce <- pool4/3x3_s2_pool4/3x3_s2_0_split_1
I0403 10:35:23.757060 10136 net.cpp:399] inception_5a/3x3_reduce -> inception_5a/3x3_reduce
I0403 10:35:23.759707 10136 net.cpp:141] Setting up inception_5a/3x3_reduce
I0403 10:35:23.759748 10136 net.cpp:148] Top shape: 24 160 7 7 (188160)
I0403 10:35:23.759768 10136 net.cpp:156] Memory required for data: 1295286720
I0403 10:35:23.759789 10136 layer_factory.hpp:77] Creating layer inception_5a/relu_3x3_reduce
I0403 10:35:23.759814 10136 net.cpp:91] Creating Layer inception_5a/relu_3x3_reduce
I0403 10:35:23.759834 10136 net.cpp:425] inception_5a/relu_3x3_reduce <- inception_5a/3x3_reduce
I0403 10:35:23.759862 10136 net.cpp:386] inception_5a/relu_3x3_reduce -> inception_5a/3x3_reduce (in-place)
I0403 10:35:23.759886 10136 net.cpp:141] Setting up inception_5a/relu_3x3_reduce
I0403 10:35:23.759907 10136 net.cpp:148] Top shape: 24 160 7 7 (188160)
I0403 10:35:23.759924 10136 net.cpp:156] Memory required for data: 1296039360
I0403 10:35:23.759941 10136 layer_factory.hpp:77] Creating layer inception_5a/3x3
I0403 10:35:23.759968 10136 net.cpp:91] Creating Layer inception_5a/3x3
I0403 10:35:23.759989 10136 net.cpp:425] inception_5a/3x3 <- inception_5a/3x3_reduce
I0403 10:35:23.760015 10136 net.cpp:399] inception_5a/3x3 -> inception_5a/3x3
I0403 10:35:23.764047 10136 net.cpp:141] Setting up inception_5a/3x3
I0403 10:35:23.764080 10136 net.cpp:148] Top shape: 24 320 7 7 (376320)
I0403 10:35:23.764098 10136 net.cpp:156] Memory required for data: 1297544640
I0403 10:35:23.764120 10136 layer_factory.hpp:77] Creating layer inception_5a/relu_3x3
I0403 10:35:23.764140 10136 net.cpp:91] Creating Layer inception_5a/relu_3x3
I0403 10:35:23.764160 10136 net.cpp:425] inception_5a/relu_3x3 <- inception_5a/3x3
I0403 10:35:23.764181 10136 net.cpp:386] inception_5a/relu_3x3 -> inception_5a/3x3 (in-place)
I0403 10:35:23.764224 10136 net.cpp:141] Setting up inception_5a/relu_3x3
I0403 10:35:23.764245 10136 net.cpp:148] Top shape: 24 320 7 7 (376320)
I0403 10:35:23.764262 10136 net.cpp:156] Memory required for data: 1299049920
I0403 10:35:23.764278 10136 layer_factory.hpp:77] Creating layer inception_5a/5x5_reduce
I0403 10:35:23.764303 10136 net.cpp:91] Creating Layer inception_5a/5x5_reduce
I0403 10:35:23.764324 10136 net.cpp:425] inception_5a/5x5_reduce <- pool4/3x3_s2_pool4/3x3_s2_0_split_2
I0403 10:35:23.764349 10136 net.cpp:399] inception_5a/5x5_reduce -> inception_5a/5x5_reduce
I0403 10:35:23.764757 10136 net.cpp:141] Setting up inception_5a/5x5_reduce
I0403 10:35:23.764786 10136 net.cpp:148] Top shape: 24 32 7 7 (37632)
I0403 10:35:23.764804 10136 net.cpp:156] Memory required for data: 1299200448
I0403 10:35:23.764825 10136 layer_factory.hpp:77] Creating layer inception_5a/relu_5x5_reduce
I0403 10:35:23.764847 10136 net.cpp:91] Creating Layer inception_5a/relu_5x5_reduce
I0403 10:35:23.764876 10136 net.cpp:425] inception_5a/relu_5x5_reduce <- inception_5a/5x5_reduce
I0403 10:35:23.764896 10136 net.cpp:386] inception_5a/relu_5x5_reduce -> inception_5a/5x5_reduce (in-place)
I0403 10:35:23.764919 10136 net.cpp:141] Setting up inception_5a/relu_5x5_reduce
I0403 10:35:23.764938 10136 net.cpp:148] Top shape: 24 32 7 7 (37632)
I0403 10:35:23.764955 10136 net.cpp:156] Memory required for data: 1299350976
I0403 10:35:23.764971 10136 layer_factory.hpp:77] Creating layer inception_5a/5x5
I0403 10:35:23.764998 10136 net.cpp:91] Creating Layer inception_5a/5x5
I0403 10:35:23.765018 10136 net.cpp:425] inception_5a/5x5 <- inception_5a/5x5_reduce
I0403 10:35:23.765043 10136 net.cpp:399] inception_5a/5x5 -> inception_5a/5x5
I0403 10:35:23.765904 10136 net.cpp:141] Setting up inception_5a/5x5
I0403 10:35:23.765936 10136 net.cpp:148] Top shape: 24 128 7 7 (150528)
I0403 10:35:23.765955 10136 net.cpp:156] Memory required for data: 1299953088
I0403 10:35:23.765976 10136 layer_factory.hpp:77] Creating layer inception_5a/relu_5x5
I0403 10:35:23.765997 10136 net.cpp:91] Creating Layer inception_5a/relu_5x5
I0403 10:35:23.766016 10136 net.cpp:425] inception_5a/relu_5x5 <- inception_5a/5x5
I0403 10:35:23.766037 10136 net.cpp:386] inception_5a/relu_5x5 -> inception_5a/5x5 (in-place)
I0403 10:35:23.766058 10136 net.cpp:141] Setting up inception_5a/relu_5x5
I0403 10:35:23.766078 10136 net.cpp:148] Top shape: 24 128 7 7 (150528)
I0403 10:35:23.766094 10136 net.cpp:156] Memory required for data: 1300555200
I0403 10:35:23.766111 10136 layer_factory.hpp:77] Creating layer inception_5a/pool
I0403 10:35:23.766131 10136 net.cpp:91] Creating Layer inception_5a/pool
I0403 10:35:23.766151 10136 net.cpp:425] inception_5a/pool <- pool4/3x3_s2_pool4/3x3_s2_0_split_3
I0403 10:35:23.766175 10136 net.cpp:399] inception_5a/pool -> inception_5a/pool
I0403 10:35:23.766233 10136 net.cpp:141] Setting up inception_5a/pool
I0403 10:35:23.766259 10136 net.cpp:148] Top shape: 24 832 7 7 (978432)
I0403 10:35:23.766276 10136 net.cpp:156] Memory required for data: 1304468928
I0403 10:35:23.766294 10136 layer_factory.hpp:77] Creating layer inception_5a/pool_proj
I0403 10:35:23.766319 10136 net.cpp:91] Creating Layer inception_5a/pool_proj
I0403 10:35:23.766340 10136 net.cpp:425] inception_5a/pool_proj <- inception_5a/pool
I0403 10:35:23.766363 10136 net.cpp:399] inception_5a/pool_proj -> inception_5a/pool_proj
I0403 10:35:23.767770 10136 net.cpp:141] Setting up inception_5a/pool_proj
I0403 10:35:23.767803 10136 net.cpp:148] Top shape: 24 128 7 7 (150528)
I0403 10:35:23.767822 10136 net.cpp:156] Memory required for data: 1305071040
I0403 10:35:23.767843 10136 layer_factory.hpp:77] Creating layer inception_5a/relu_pool_proj
I0403 10:35:23.767864 10136 net.cpp:91] Creating Layer inception_5a/relu_pool_proj
I0403 10:35:23.767890 10136 net.cpp:425] inception_5a/relu_pool_proj <- inception_5a/pool_proj
I0403 10:35:23.767910 10136 net.cpp:386] inception_5a/relu_pool_proj -> inception_5a/pool_proj (in-place)
I0403 10:35:23.767935 10136 net.cpp:141] Setting up inception_5a/relu_pool_proj
I0403 10:35:23.767971 10136 net.cpp:148] Top shape: 24 128 7 7 (150528)
I0403 10:35:23.767988 10136 net.cpp:156] Memory required for data: 1305673152
I0403 10:35:23.768005 10136 layer_factory.hpp:77] Creating layer inception_5a/output
I0403 10:35:23.768026 10136 net.cpp:91] Creating Layer inception_5a/output
I0403 10:35:23.768045 10136 net.cpp:425] inception_5a/output <- inception_5a/1x1
I0403 10:35:23.768064 10136 net.cpp:425] inception_5a/output <- inception_5a/3x3
I0403 10:35:23.768084 10136 net.cpp:425] inception_5a/output <- inception_5a/5x5
I0403 10:35:23.768101 10136 net.cpp:425] inception_5a/output <- inception_5a/pool_proj
I0403 10:35:23.768126 10136 net.cpp:399] inception_5a/output -> inception_5a/output
I0403 10:35:23.768168 10136 net.cpp:141] Setting up inception_5a/output
I0403 10:35:23.768196 10136 net.cpp:148] Top shape: 24 832 7 7 (978432)
I0403 10:35:23.768215 10136 net.cpp:156] Memory required for data: 1309586880
I0403 10:35:23.768231 10136 layer_factory.hpp:77] Creating layer inception_5a/output_inception_5a/output_0_split
I0403 10:35:23.768252 10136 net.cpp:91] Creating Layer inception_5a/output_inception_5a/output_0_split
I0403 10:35:23.768270 10136 net.cpp:425] inception_5a/output_inception_5a/output_0_split <- inception_5a/output
I0403 10:35:23.768290 10136 net.cpp:399] inception_5a/output_inception_5a/output_0_split -> inception_5a/output_inception_5a/output_0_split_0
I0403 10:35:23.768313 10136 net.cpp:399] inception_5a/output_inception_5a/output_0_split -> inception_5a/output_inception_5a/output_0_split_1
I0403 10:35:23.768340 10136 net.cpp:399] inception_5a/output_inception_5a/output_0_split -> inception_5a/output_inception_5a/output_0_split_2
I0403 10:35:23.768367 10136 net.cpp:399] inception_5a/output_inception_5a/output_0_split -> inception_5a/output_inception_5a/output_0_split_3
I0403 10:35:23.768441 10136 net.cpp:141] Setting up inception_5a/output_inception_5a/output_0_split
I0403 10:35:23.768467 10136 net.cpp:148] Top shape: 24 832 7 7 (978432)
I0403 10:35:23.768486 10136 net.cpp:148] Top shape: 24 832 7 7 (978432)
I0403 10:35:23.768503 10136 net.cpp:148] Top shape: 24 832 7 7 (978432)
I0403 10:35:23.768528 10136 net.cpp:148] Top shape: 24 832 7 7 (978432)
I0403 10:35:23.768548 10136 net.cpp:156] Memory required for data: 1325241792
I0403 10:35:23.768563 10136 layer_factory.hpp:77] Creating layer inception_5b/1x1
I0403 10:35:23.768596 10136 net.cpp:91] Creating Layer inception_5b/1x1
I0403 10:35:23.768616 10136 net.cpp:425] inception_5b/1x1 <- inception_5a/output_inception_5a/output_0_split_0
I0403 10:35:23.768642 10136 net.cpp:399] inception_5b/1x1 -> inception_5b/1x1
I0403 10:35:23.771373 10136 net.cpp:141] Setting up inception_5b/1x1
I0403 10:35:23.771404 10136 net.cpp:148] Top shape: 24 384 7 7 (451584)
I0403 10:35:23.771422 10136 net.cpp:156] Memory required for data: 1327048128
I0403 10:35:23.771443 10136 layer_factory.hpp:77] Creating layer inception_5b/relu_1x1
I0403 10:35:23.771464 10136 net.cpp:91] Creating Layer inception_5b/relu_1x1
I0403 10:35:23.771483 10136 net.cpp:425] inception_5b/relu_1x1 <- inception_5b/1x1
I0403 10:35:23.771504 10136 net.cpp:386] inception_5b/relu_1x1 -> inception_5b/1x1 (in-place)
I0403 10:35:23.771533 10136 net.cpp:141] Setting up inception_5b/relu_1x1
I0403 10:35:23.771556 10136 net.cpp:148] Top shape: 24 384 7 7 (451584)
I0403 10:35:23.771572 10136 net.cpp:156] Memory required for data: 1328854464
I0403 10:35:23.771589 10136 layer_factory.hpp:77] Creating layer inception_5b/3x3_reduce
I0403 10:35:23.771615 10136 net.cpp:91] Creating Layer inception_5b/3x3_reduce
I0403 10:35:23.771636 10136 net.cpp:425] inception_5b/3x3_reduce <- inception_5a/output_inception_5a/output_0_split_1
I0403 10:35:23.771661 10136 net.cpp:399] inception_5b/3x3_reduce -> inception_5b/3x3_reduce
I0403 10:35:23.773382 10136 net.cpp:141] Setting up inception_5b/3x3_reduce
I0403 10:35:23.773412 10136 net.cpp:148] Top shape: 24 192 7 7 (225792)
I0403 10:35:23.773432 10136 net.cpp:156] Memory required for data: 1329757632
I0403 10:35:23.773452 10136 layer_factory.hpp:77] Creating layer inception_5b/relu_3x3_reduce
I0403 10:35:23.773489 10136 net.cpp:91] Creating Layer inception_5b/relu_3x3_reduce
I0403 10:35:23.773512 10136 net.cpp:425] inception_5b/relu_3x3_reduce <- inception_5b/3x3_reduce
I0403 10:35:23.773535 10136 net.cpp:386] inception_5b/relu_3x3_reduce -> inception_5b/3x3_reduce (in-place)
I0403 10:35:23.773561 10136 net.cpp:141] Setting up inception_5b/relu_3x3_reduce
I0403 10:35:23.773581 10136 net.cpp:148] Top shape: 24 192 7 7 (225792)
I0403 10:35:23.773598 10136 net.cpp:156] Memory required for data: 1330660800
I0403 10:35:23.773614 10136 layer_factory.hpp:77] Creating layer inception_5b/3x3
I0403 10:35:23.773640 10136 net.cpp:91] Creating Layer inception_5b/3x3
I0403 10:35:23.773661 10136 net.cpp:425] inception_5b/3x3 <- inception_5b/3x3_reduce
I0403 10:35:23.773686 10136 net.cpp:399] inception_5b/3x3 -> inception_5b/3x3
I0403 10:35:23.779299 10136 net.cpp:141] Setting up inception_5b/3x3
I0403 10:35:23.779330 10136 net.cpp:148] Top shape: 24 384 7 7 (451584)
I0403 10:35:23.779346 10136 net.cpp:156] Memory required for data: 1332467136
I0403 10:35:23.779366 10136 layer_factory.hpp:77] Creating layer inception_5b/relu_3x3
I0403 10:35:23.779387 10136 net.cpp:91] Creating Layer inception_5b/relu_3x3
I0403 10:35:23.779407 10136 net.cpp:425] inception_5b/relu_3x3 <- inception_5b/3x3
I0403 10:35:23.779429 10136 net.cpp:386] inception_5b/relu_3x3 -> inception_5b/3x3 (in-place)
I0403 10:35:23.779453 10136 net.cpp:141] Setting up inception_5b/relu_3x3
I0403 10:35:23.779471 10136 net.cpp:148] Top shape: 24 384 7 7 (451584)
I0403 10:35:23.779487 10136 net.cpp:156] Memory required for data: 1334273472
I0403 10:35:23.779502 10136 layer_factory.hpp:77] Creating layer inception_5b/5x5_reduce
I0403 10:35:23.779536 10136 net.cpp:91] Creating Layer inception_5b/5x5_reduce
I0403 10:35:23.779558 10136 net.cpp:425] inception_5b/5x5_reduce <- inception_5a/output_inception_5a/output_0_split_2
I0403 10:35:23.779580 10136 net.cpp:399] inception_5b/5x5_reduce -> inception_5b/5x5_reduce
I0403 10:35:23.780580 10136 net.cpp:141] Setting up inception_5b/5x5_reduce
I0403 10:35:23.780609 10136 net.cpp:148] Top shape: 24 48 7 7 (56448)
I0403 10:35:23.780627 10136 net.cpp:156] Memory required for data: 1334499264
I0403 10:35:23.780647 10136 layer_factory.hpp:77] Creating layer inception_5b/relu_5x5_reduce
I0403 10:35:23.780668 10136 net.cpp:91] Creating Layer inception_5b/relu_5x5_reduce
I0403 10:35:23.780688 10136 net.cpp:425] inception_5b/relu_5x5_reduce <- inception_5b/5x5_reduce
I0403 10:35:23.780709 10136 net.cpp:386] inception_5b/relu_5x5_reduce -> inception_5b/5x5_reduce (in-place)
I0403 10:35:23.780731 10136 net.cpp:141] Setting up inception_5b/relu_5x5_reduce
I0403 10:35:23.780751 10136 net.cpp:148] Top shape: 24 48 7 7 (56448)
I0403 10:35:23.780768 10136 net.cpp:156] Memory required for data: 1334725056
I0403 10:35:23.780784 10136 layer_factory.hpp:77] Creating layer inception_5b/5x5
I0403 10:35:23.780810 10136 net.cpp:91] Creating Layer inception_5b/5x5
I0403 10:35:23.780830 10136 net.cpp:425] inception_5b/5x5 <- inception_5b/5x5_reduce
I0403 10:35:23.780851 10136 net.cpp:399] inception_5b/5x5 -> inception_5b/5x5
I0403 10:35:23.781987 10136 net.cpp:141] Setting up inception_5b/5x5
I0403 10:35:23.782014 10136 net.cpp:148] Top shape: 24 128 7 7 (150528)
I0403 10:35:23.782032 10136 net.cpp:156] Memory required for data: 1335327168
I0403 10:35:23.782052 10136 layer_factory.hpp:77] Creating layer inception_5b/relu_5x5
I0403 10:35:23.782071 10136 net.cpp:91] Creating Layer inception_5b/relu_5x5
I0403 10:35:23.782090 10136 net.cpp:425] inception_5b/relu_5x5 <- inception_5b/5x5
I0403 10:35:23.782109 10136 net.cpp:386] inception_5b/relu_5x5 -> inception_5b/5x5 (in-place)
I0403 10:35:23.782130 10136 net.cpp:141] Setting up inception_5b/relu_5x5
I0403 10:35:23.782148 10136 net.cpp:148] Top shape: 24 128 7 7 (150528)
I0403 10:35:23.782166 10136 net.cpp:156] Memory required for data: 1335929280
I0403 10:35:23.782182 10136 layer_factory.hpp:77] Creating layer inception_5b/pool
I0403 10:35:23.782203 10136 net.cpp:91] Creating Layer inception_5b/pool
I0403 10:35:23.782238 10136 net.cpp:425] inception_5b/pool <- inception_5a/output_inception_5a/output_0_split_3
I0403 10:35:23.782259 10136 net.cpp:399] inception_5b/pool -> inception_5b/pool
I0403 10:35:23.782320 10136 net.cpp:141] Setting up inception_5b/pool
I0403 10:35:23.782346 10136 net.cpp:148] Top shape: 24 832 7 7 (978432)
I0403 10:35:23.782362 10136 net.cpp:156] Memory required for data: 1339843008
I0403 10:35:23.782379 10136 layer_factory.hpp:77] Creating layer inception_5b/pool_proj
I0403 10:35:23.782403 10136 net.cpp:91] Creating Layer inception_5b/pool_proj
I0403 10:35:23.782423 10136 net.cpp:425] inception_5b/pool_proj <- inception_5b/pool
I0403 10:35:23.782446 10136 net.cpp:399] inception_5b/pool_proj -> inception_5b/pool_proj
I0403 10:35:23.783869 10136 net.cpp:141] Setting up inception_5b/pool_proj
I0403 10:35:23.783901 10136 net.cpp:148] Top shape: 24 128 7 7 (150528)
I0403 10:35:23.783920 10136 net.cpp:156] Memory required for data: 1340445120
I0403 10:35:23.783941 10136 layer_factory.hpp:77] Creating layer inception_5b/relu_pool_proj
I0403 10:35:23.783962 10136 net.cpp:91] Creating Layer inception_5b/relu_pool_proj
I0403 10:35:23.783980 10136 net.cpp:425] inception_5b/relu_pool_proj <- inception_5b/pool_proj
I0403 10:35:23.784003 10136 net.cpp:386] inception_5b/relu_pool_proj -> inception_5b/pool_proj (in-place)
I0403 10:35:23.784029 10136 net.cpp:141] Setting up inception_5b/relu_pool_proj
I0403 10:35:23.784047 10136 net.cpp:148] Top shape: 24 128 7 7 (150528)
I0403 10:35:23.784065 10136 net.cpp:156] Memory required for data: 1341047232
I0403 10:35:23.784081 10136 layer_factory.hpp:77] Creating layer inception_5b/output
I0403 10:35:23.784102 10136 net.cpp:91] Creating Layer inception_5b/output
I0403 10:35:23.784121 10136 net.cpp:425] inception_5b/output <- inception_5b/1x1
I0403 10:35:23.784138 10136 net.cpp:425] inception_5b/output <- inception_5b/3x3
I0403 10:35:23.784157 10136 net.cpp:425] inception_5b/output <- inception_5b/5x5
I0403 10:35:23.784176 10136 net.cpp:425] inception_5b/output <- inception_5b/pool_proj
I0403 10:35:23.784198 10136 net.cpp:399] inception_5b/output -> inception_5b/output
I0403 10:35:23.784246 10136 net.cpp:141] Setting up inception_5b/output
I0403 10:35:23.784271 10136 net.cpp:148] Top shape: 24 1024 7 7 (1204224)
I0403 10:35:23.784289 10136 net.cpp:156] Memory required for data: 1345864128
I0403 10:35:23.784307 10136 layer_factory.hpp:77] Creating layer pool5/7x7_s1
I0403 10:35:23.784329 10136 net.cpp:91] Creating Layer pool5/7x7_s1
I0403 10:35:23.784349 10136 net.cpp:425] pool5/7x7_s1 <- inception_5b/output
I0403 10:35:23.784369 10136 net.cpp:399] pool5/7x7_s1 -> pool5/7x7_s1
I0403 10:35:23.784414 10136 net.cpp:141] Setting up pool5/7x7_s1
I0403 10:35:23.784438 10136 net.cpp:148] Top shape: 24 1024 1 1 (24576)
I0403 10:35:23.784456 10136 net.cpp:156] Memory required for data: 1345962432
I0403 10:35:23.784472 10136 layer_factory.hpp:77] Creating layer pool5/drop_7x7_s1
I0403 10:35:23.784494 10136 net.cpp:91] Creating Layer pool5/drop_7x7_s1
I0403 10:35:23.784518 10136 net.cpp:425] pool5/drop_7x7_s1 <- pool5/7x7_s1
I0403 10:35:23.784543 10136 net.cpp:386] pool5/drop_7x7_s1 -> pool5/7x7_s1 (in-place)
I0403 10:35:23.784585 10136 net.cpp:141] Setting up pool5/drop_7x7_s1
I0403 10:35:23.784612 10136 net.cpp:148] Top shape: 24 1024 1 1 (24576)
I0403 10:35:23.784631 10136 net.cpp:156] Memory required for data: 1346060736
I0403 10:35:23.784648 10136 layer_factory.hpp:77] Creating layer loss3/classifier_plantvillage
I0403 10:35:23.784672 10136 net.cpp:91] Creating Layer loss3/classifier_plantvillage
I0403 10:35:23.784690 10136 net.cpp:425] loss3/classifier_plantvillage <- pool5/7x7_s1
I0403 10:35:23.784714 10136 net.cpp:399] loss3/classifier_plantvillage -> loss3/classifier_plantvillage
I0403 10:35:23.785075 10136 net.cpp:141] Setting up loss3/classifier_plantvillage
I0403 10:35:23.785104 10136 net.cpp:148] Top shape: 24 38 (912)
I0403 10:35:23.785121 10136 net.cpp:156] Memory required for data: 1346064384
I0403 10:35:23.785142 10136 layer_factory.hpp:77] Creating layer loss3/classifier_plantvillage_loss3/classifier_plantvillage_0_split
I0403 10:35:23.785179 10136 net.cpp:91] Creating Layer loss3/classifier_plantvillage_loss3/classifier_plantvillage_0_split
I0403 10:35:23.785199 10136 net.cpp:425] loss3/classifier_plantvillage_loss3/classifier_plantvillage_0_split <- loss3/classifier_plantvillage
I0403 10:35:23.785223 10136 net.cpp:399] loss3/classifier_plantvillage_loss3/classifier_plantvillage_0_split -> loss3/classifier_plantvillage_loss3/classifier_plantvillage_0_split_0
I0403 10:35:23.785249 10136 net.cpp:399] loss3/classifier_plantvillage_loss3/classifier_plantvillage_0_split -> loss3/classifier_plantvillage_loss3/classifier_plantvillage_0_split_1
I0403 10:35:23.785274 10136 net.cpp:399] loss3/classifier_plantvillage_loss3/classifier_plantvillage_0_split -> loss3/classifier_plantvillage_loss3/classifier_plantvillage_0_split_2
I0403 10:35:23.785344 10136 net.cpp:141] Setting up loss3/classifier_plantvillage_loss3/classifier_plantvillage_0_split
I0403 10:35:23.785370 10136 net.cpp:148] Top shape: 24 38 (912)
I0403 10:35:23.785388 10136 net.cpp:148] Top shape: 24 38 (912)
I0403 10:35:23.785406 10136 net.cpp:148] Top shape: 24 38 (912)
I0403 10:35:23.785423 10136 net.cpp:156] Memory required for data: 1346075328
I0403 10:35:23.785439 10136 layer_factory.hpp:77] Creating layer loss1/loss
I0403 10:35:23.785460 10136 net.cpp:91] Creating Layer loss1/loss
I0403 10:35:23.785480 10136 net.cpp:425] loss1/loss <- loss1/classifier_plantvillage_loss1/classifier_plantvillage_0_split_0
I0403 10:35:23.785498 10136 net.cpp:425] loss1/loss <- label_data_1_split_0
…
