…
I0403 18:57:35.901478 18240 net.cpp:313] The NetState phase (1) differed from the phase (0) specified by a rule in layer data
I0403 18:57:35.902698 18240 net.cpp:49] Initializing net from parameters: 
state {
  phase: TEST
}
layer {
  name: "data"
  type: "Data"
  top: "data"
  top: "label"
  include {
    phase: TEST
  }
  transform_param {
    mirror: false
    crop_size: 224
    mean_file: "/home/mohanty/data/final_dataset/lmdb/segmented-60-40/mean.binaryproto"
  }
  data_param {
    source: "/home/mohanty/data/final_dataset/lmdb/segmented-60-40/test_db"
    batch_size: 24
    backend: LMDB
  }
}
layer {
  name: "conv1/7x7_s2"
  type: "Convolution"
  bottom: "data"
  top: "conv1/7x7_s2"
  param {
    lr_mult: 1
    decay_mult: 1
  }
  param {
    lr_mult: 2
    decay_mult: 0
  }
  convolution_param {
    num_output: 64
    pad: 3
    kernel_size: 7
    stride: 2
    weight_filler {
      type: "xavier"
      std: 0.1
    }
    bias_filler {
      type: "constant"
      value: 0.2
    }
  }
}
layer {
  name: "conv1/relu_7x7"
  type: "ReLU"
  bottom: "conv1/7x7_s2"
  top: "conv1/7x7_s2"
}
layer {
  name: "pool1/3x3_s2"
  type: "Pooling"
  bottom: "conv1/7x7_s2"
  top: "pool1/3x3_s2"
  pooling_param {
    pool: MAX
    kernel_size: 3
    stride: 2
  }
}
layer {
  name: "pool1/norm1"
  type: "LRN"
  bottom: "pool1/3x3_s2"
  top: "pool1/norm1"
  lrn_param {
    local_size: 5
    alpha: 0.0001
    beta: 0.75
  }
}
layer {
  name: "conv2/3x3_reduce"
  type: "Convolution"
  bottom: "pool1/norm1"
  top: "conv2/3x3_reduce"
  param {
    lr_mult: 1
    decay_mult: 1
  }
  param {
    lr_mult: 2
    decay_mult: 0
  }
  convolution_param {
    num_output: 64
    kernel_size: 1
    weight_filler {
      type: "xavier"
      std: 0.1
    }
    bias_filler {
      type: "constant"
      value: 0.2
    }
  }
}
layer {
  name: "conv2/relu_3x3_reduce"
  type: "ReLU"
  bottom: "conv2/3x3_reduce"
  top: "conv2/3x3_reduce"
}
layer {
  name: "conv2/3x3"
  type: "Convolution"
  bottom: "conv2/3x3_reduce"
  top: "conv2/3x3"
  param {
    lr_mult: 1
    decay_mult: 1
  }
  param {
    lr_mult: 2
    decay_mult: 0
  }
  convolution_param {
    num_output: 192
    pad: 1
    kernel_size: 3
    weight_filler {
      type: "xavier"
      std: 0.03
    }
    bias_filler {
      type: "constant"
      value: 0.2
    }
  }
}
layer {
  name: "conv2/relu_3x3"
  type: "ReLU"
  bottom: "conv2/3x3"
  top: "conv2/3x3"
}
layer {
  name: "conv2/norm2"
  type: "LRN"
  bottom: "conv2/3x3"
  top: "conv2/norm2"
  lrn_param {
    local_size: 5
    alpha: 0.0001
    beta: 0.75
  }
}
layer {
  name: "pool2/3x3_s2"
  type: "Pooling"
  bottom: "conv2/norm2"
  top: "pool2/3x3_s2"
  pooling_param {
    pool: MAX
    kernel_size: 3
    stride: 2
  }
}
layer {
  name: "inception_3a/1x1"
  type: "Convolution"
  bottom: "pool2/3x3_s2"
  top: "inception_3a/1x1"
  param {
    lr_mult: 1
    decay_mult: 1
  }
  param {
    lr_mult: 2
    decay_mult: 0
  }
  convolution_param {
    num_output: 64
    kernel_size: 1
    weight_filler {
      type: "xavier"
      std: 0.03
    }
    bias_filler {
      type: "constant"
      value: 0.2
    }
  }
}
layer {
  name: "inception_3a/relu_1x1"
  type: "ReLU"
  bottom: "inception_3a/1x1"
  top: "inception_3a/1x1"
}
layer {
  name: "inception_3a/3x3_reduce"
  type: "Convolution"
  bottom: "pool2/3x3_s2"
  top: "inception_3a/3x3_reduce"
  param {
    lr_mult: 1
    decay_mult: 1
  }
  param {
    lr_mult: 2
    decay_mult: 0
  }
  convolution_param {
    num_output: 96
    kernel_size: 1
    weight_filler {
      type: "xavier"
      std: 0.09
    }
    bias_filler {
      type: "constant"
      value: 0.2
    }
  }
}
layer {
  name: "inception_3a/relu_3x3_reduce"
  type: "ReLU"
  bottom: "inception_3a/3x3_reduce"
  top: "inception_3a/3x3_reduce"
}
layer {
  name: "inception_3a/3x3"
  type: "Convolution"
  bottom: "inception_3a/3x3_reduce"
  top: "inception_3a/3x3"
  param {
    lr_mult: 1
    decay_mult: 1
  }
  param {
    lr_mult: 2
    decay_mult: 0
  }
  convolution_param {
    num_output: 128
    pad: 1
    kernel_size: 3
    weight_filler {
      type: "xavier"
      std: 0.03
    }
    bias_filler {
      type: "constant"
      value: 0.2
    }
  }
}
layer {
  name: "inception_3a/relu_3x3"
  type: "ReLU"
  bottom: "inception_3a/3x3"
  top: "inception_3a/3x3"
}
layer {
  name: "inception_3a/5x5_reduce"
  type: "Convolution"
  bottom: "pool2/3x3_s2"
  top: "inception_3a/5x5_reduce"
  param {
    lr_mult: 1
    decay_mult: 1
  }
  param {
    lr_mult: 2
    decay_mult: 0
  }
  convolution_param {
    num_output: 16
    kernel_size: 1
    weight_filler {
      type: "xavier"
      std: 0.2
    }
    bias_filler {
      type: "constant"
      value: 0.2
    }
  }
}
layer {
  name: "inception_3a/relu_5x5_reduce"
  type: "ReLU"
  bottom: "inception_3a/5x5_reduce"
  top: "inception_3a/5x5_reduce"
}
layer {
  name: "inception_3a/5x5"
  type: "Convolution"
  bottom: "inception_3a/5x5_reduce"
  top: "inception_3a/5x5"
  param {
    lr_mult: 1
    decay_mult: 1
  }
  param {
    lr_mult: 2
    decay_mult: 0
  }
  convolution_param {
    num_output: 32
    pad: 2
    kernel_size: 5
    weight_filler {
      type: "xavier"
      std: 0.03
    }
    bias_filler {
      type: "constant"
      value: 0.2
    }
  }
}
layer {
  name: "inception_3a/relu_5x5"
  type: "ReLU"
  bottom: "inception_3a/5x5"
  top: "inception_3a/5x5"
}
layer {
  name: "inception_3a/pool"
  type: "Pooling"
  bottom: "pool2/3x3_s2"
  top: "inception_3a/pool"
  pooling_param {
    pool: MAX
    kernel_size: 3
    stride: 1
    pad: 1
  }
}
layer {
  name: "inception_3a/pool_proj"
  type: "Convolution"
  bottom: "inception_3a/pool"
  top: "inception_3a/pool_proj"
  param {
    lr_mult: 1
    decay_mult: 1
  }
  param {
    lr_mult: 2
    decay_mult: 0
  }
  convolution_param {
    num_output: 32
    kernel_size: 1
    weight_filler {
      type: "xavier"
      std: 0.1
    }
    bias_filler {
      type: "constant"
      value: 0.2
    }
  }
}
layer {
  name: "inception_3a/relu_pool_proj"
  type: "ReLU"
  bottom: "inception_3a/pool_proj"
  top: "inception_3a/pool_proj"
}
layer {
  name: "inception_3a/output"
  type: "Concat"
  bottom: "inception_3a/1x1"
  bottom: "inception_3a/3x3"
  bottom: "inception_3a/5x5"
  bottom: "inception_3a/pool_proj"
  top: "inception_3a/output"
}
layer {
  name: "inception_3b/1x1"
  type: "Convolution"
  bottom: "inception_3a/output"
  top: "inception_3b/1x1"
  param {
    lr_mult: 1
    decay_mult: 1
  }
  param {
    lr_mult: 2
    decay_mult: 0
  }
  convolution_param {
    num_output: 128
    kernel_size: 1
    weight_filler {
      type: "xavier"
      std: 0.03
    }
    bias_filler {
      type: "constant"
      value: 0.2
    }
  }
}
layer {
  name: "inception_3b/relu_1x1"
  type: "ReLU"
  bottom: "inception_3b/1x1"
  top: "inception_3b/1x1"
}
layer {
  name: "inception_3b/3x3_reduce"
  type: "Convolution"
  bottom: "inception_3a/output"
  top: "inception_3b/3x3_reduce"
  param {
    lr_mult: 1
    decay_mult: 1
  }
  param {
    lr_mult: 2
    decay_mult: 0
  }
  convolution_param {
    num_output: 128
    kernel_size: 1
    weight_filler {
      type: "xavier"
      std: 0.09
    }
    bias_filler {
      type: "constant"
      value: 0.2
    }
  }
}
layer {
  name: "inception_3b/relu_3x3_reduce"
  type: "ReLU"
  bottom: "inception_3b/3x3_reduce"
  top: "inception_3b/3x3_reduce"
}
layer {
  name: "inception_3b/3x3"
  type: "Convolution"
  bottom: "inception_3b/3x3_reduce"
  top: "inception_3b/3x3"
  param {
    lr_mult: 1
    decay_mult: 1
  }
  param {
    lr_mult: 2
    decay_mult: 0
  }
  convolution_param {
    num_output: 192
    pad: 1
    kernel_size: 3
    weight_filler {
      type: "xavier"
      std: 0.03
    }
    bias_filler {
      type: "constant"
      value: 0.2
    }
  }
}
layer {
  name: "inception_3b/relu_3x3"
  type: "ReLU"
  bottom: "inception_3b/3x3"
  top: "inception_3b/3x3"
}
layer {
  name: "inception_3b/5x5_reduce"
  type: "Convolution"
  bottom: "inception_3a/output"
  top: "inception_3b/5x5_reduce"
  param {
    lr_mult: 1
    decay_mult: 1
  }
  param {
    lr_mult: 2
    decay_mult: 0
  }
  convolution_param {
    num_output: 32
    kernel_size: 1
    weight_filler {
      type: "xavier"
      std: 0.2
    }
    bias_filler {
      type: "constant"
      value: 0.2
    }
  }
}
layer {
  name: "inception_3b/relu_5x5_reduce"
  type: "ReLU"
  bottom: "inception_3b/5x5_reduce"
  top: "inception_3b/5x5_reduce"
}
layer {
  name: "inception_3b/5x5"
  type: "Convolution"
  bottom: "inception_3b/5x5_reduce"
  top: "inception_3b/5x5"
  param {
    lr_mult: 1
    decay_mult: 1
  }
  param {
    lr_mult: 2
    decay_mult: 0
  }
  convolution_param {
    num_output: 96
    pad: 2
    kernel_size: 5
    weight_filler {
      type: "xavier"
      std: 0.03
    }
    bias_filler {
      type: "constant"
      value: 0.2
    }
  }
}
layer {
  name: "inception_3b/relu_5x5"
  type: "ReLU"
  bottom: "inception_3b/5x5"
  top: "inception_3b/5x5"
}
layer {
  name: "inception_3b/pool"
  type: "Pooling"
  bottom: "inception_3a/output"
  top: "inception_3b/pool"
  pooling_param {
    pool: MAX
    kernel_size: 3
    stride: 1
    pad: 1
  }
}
layer {
  name: "inception_3b/pool_proj"
  type: "Convolution"
  bottom: "inception_3b/pool"
  top: "inception_3b/pool_proj"
  param {
    lr_mult: 1
    decay_mult: 1
  }
  param {
    lr_mult: 2
    decay_mult: 0
  }
  convolution_param {
    num_output: 64
    kernel_size: 1
    weight_filler {
      type: "xavier"
      std: 0.1
    }
    bias_filler {
      type: "constant"
      value: 0.2
    }
  }
}
layer {
  name: "inception_3b/relu_pool_proj"
  type: "ReLU"
  bottom: "inception_3b/pool_proj"
  top: "inception_3b/pool_proj"
}
layer {
  name: "inception_3b/output"
  type: "Concat"
  bottom: "inception_3b/1x1"
  bottom: "inception_3b/3x3"
  bottom: "inception_3b/5x5"
  bottom: "inception_3b/pool_proj"
  top: "inception_3b/output"
}
layer {
  name: "pool3/3x3_s2"
  type: "Pooling"
  bottom: "inception_3b/output"
  top: "pool3/3x3_s2"
  pooling_param {
    pool: MAX
    kernel_size: 3
    stride: 2
  }
}
layer {
  name: "inception_4a/1x1"
  type: "Convolution"
  bottom: "pool3/3x3_s2"
  top: "inception_4a/1x1"
  param {
    lr_mult: 1
    decay_mult: 1
  }
  param {
    lr_mult: 2
    decay_mult: 0
  }
  convolution_param {
    num_output: 192
    kernel_size: 1
    weight_filler {
      type: "xavier"
      std: 0.03
    }
    bias_filler {
      type: "constant"
      value: 0.2
    }
  }
}
layer {
  name: "inception_4a/relu_1x1"
  type: "ReLU"
  bottom: "inception_4a/1x1"
  top: "inception_4a/1x1"
}
layer {
  name: "inception_4a/3x3_reduce"
  type: "Convolution"
  bottom: "pool3/3x3_s2"
  top: "inception_4a/3x3_reduce"
  param {
    lr_mult: 1
    decay_mult: 1
  }
  param {
    lr_mult: 2
    decay_mult: 0
  }
  convolution_param {
    num_output: 96
    kernel_size: 1
    weight_filler {
      type: "xavier"
      std: 0.09
    }
    bias_filler {
      type: "constant"
      value: 0.2
    }
  }
}
layer {
  name: "inception_4a/relu_3x3_reduce"
  type: "ReLU"
  bottom: "inception_4a/3x3_reduce"
  top: "inception_4a/3x3_reduce"
}
layer {
  name: "inception_4a/3x3"
  type: "Convolution"
  bottom: "inception_4a/3x3_reduce"
  top: "inception_4a/3x3"
  param {
    lr_mult: 1
    decay_mult: 1
  }
  param {
    lr_mult: 2
    decay_mult: 0
  }
  convolution_param {
    num_output: 208
    pad: 1
    kernel_size: 3
    weight_filler {
      type: "xavier"
      std: 0.03
    }
    bias_filler {
      type: "constant"
      value: 0.2
    }
  }
}
layer {
  name: "inception_4a/relu_3x3"
  type: "ReLU"
  bottom: "inception_4a/3x3"
  top: "inception_4a/3x3"
}
layer {
  name: "inception_4a/5x5_reduce"
  type: "Convolution"
  bottom: "pool3/3x3_s2"
  top: "inception_4a/5x5_reduce"
  param {
    lr_mult: 1
    decay_mult: 1
  }
  param {
    lr_mult: 2
    decay_mult: 0
  }
  convolution_param {
    num_output: 16
    kernel_size: 1
    weight_filler {
      type: "xavier"
      std: 0.2
    }
    bias_filler {
      type: "constant"
      value: 0.2
    }
  }
}
layer {
  name: "inception_4a/relu_5x5_reduce"
  type: "ReLU"
  bottom: "inception_4a/5x5_reduce"
  top: "inception_4a/5x5_reduce"
}
layer {
  name: "inception_4a/5x5"
  type: "Convolution"
  bottom: "inception_4a/5x5_reduce"
  top: "inception_4a/5x5"
  param {
    lr_mult: 1
    decay_mult: 1
  }
  param {
    lr_mult: 2
    decay_mult: 0
  }
  convolution_param {
    num_output: 48
    pad: 2
    kernel_size: 5
    weight_filler {
      type: "xavier"
      std: 0.03
    }
    bias_filler {
      type: "constant"
      value: 0.2
    }
  }
}
layer {
  name: "inception_4a/relu_5x5"
  type: "ReLU"
  bottom: "inception_4a/5x5"
  top: "inception_4a/5x5"
}
layer {
  name: "inception_4a/pool"
  type: "Pooling"
  bottom: "pool3/3x3_s2"
  top: "inception_4a/pool"
  pooling_param {
    pool: MAX
    kernel_size: 3
    stride: 1
    pad: 1
  }
}
layer {
  name: "inception_4a/pool_proj"
  type: "Convolution"
  bottom: "inception_4a/pool"
  top: "inception_4a/pool_proj"
  param {
    lr_mult: 1
    decay_mult: 1
  }
  param {
    lr_mult: 2
    decay_mult: 0
  }
  convolution_param {
    num_output: 64
    kernel_size: 1
    weight_filler {
      type: "xavier"
      std: 0.1
    }
    bias_filler {
      type: "constant"
      value: 0.2
    }
  }
}
layer {
  name: "inception_4a/relu_pool_proj"
  type: "ReLU"
  bottom: "inception_4a/pool_proj"
  top: "inception_4a/pool_proj"
}
layer {
  name: "inception_4a/output"
  type: "Concat"
  bottom: "inception_4a/1x1"
  bottom: "inception_4a/3x3"
  bottom: "inception_4a/5x5"
  bottom: "inception_4a/pool_proj"
  top: "inception_4a/output"
}
layer {
  name: "loss1/ave_pool"
  type: "Pooling"
  bottom: "inception_4a/output"
  top: "loss1/ave_pool"
  pooling_param {
    pool: AVE
    kernel_size: 5
    stride: 3
  }
}
layer {
  name: "loss1/conv"
  type: "Convolution"
  bottom: "loss1/ave_pool"
  top: "loss1/conv"
  param {
    lr_mult: 1
    decay_mult: 1
  }
  param {
    lr_mult: 2
    decay_mult: 0
  }
  convolution_param {
    num_output: 128
    kernel_size: 1
    weight_filler {
      type: "xavier"
      std: 0.08
    }
    bias_filler {
      type: "constant"
      value: 0.2
    }
  }
}
layer {
  name: "loss1/relu_conv"
  type: "ReLU"
  bottom: "loss1/conv"
  top: "loss1/conv"
}
layer {
  name: "loss1/fc"
  type: "InnerProduct"
  bottom: "loss1/conv"
  top: "loss1/fc"
  param {
    lr_mult: 1
    decay_mult: 1
  }
  param {
    lr_mult: 2
    decay_mult: 0
  }
  inner_product_param {
    num_output: 1024
    weight_filler {
      type: "xavier"
      std: 0.02
    }
    bias_filler {
      type: "constant"
      value: 0.2
    }
  }
}
layer {
  name: "loss1/relu_fc"
  type: "ReLU"
  bottom: "loss1/fc"
  top: "loss1/fc"
}
layer {
  name: "loss1/drop_fc"
  type: "Dropout"
  bottom: "loss1/fc"
  top: "loss1/fc"
  dropout_param {
    dropout_ratio: 0.7
  }
}
layer {
  name: "loss1/classifier_plantvillage"
  type: "InnerProduct"
  bottom: "loss1/fc"
  top: "loss1/classifier_plantvillage"
  param {
    lr_mult: 1
    decay_mult: 1
  }
  param {
    lr_mult: 2
    decay_mult: 0
  }
  inner_product_param {
    num_output: 38
    weight_filler {
      type: "xavier"
      std: 0.0009765625
    }
    bias_filler {
      type: "constant"
      value: 0
    }
  }
}
layer {
  name: "inception_4b/1x1"
  type: "Convolution"
  bottom: "inception_4a/output"
  top: "inception_4b/1x1"
  param {
    lr_mult: 1
    decay_mult: 1
  }
  param {
    lr_mult: 2
    decay_mult: 0
  }
  convolution_param {
    num_output: 160
    kernel_size: 1
    weight_filler {
      type: "xavier"
      std: 0.03
    }
    bias_filler {
      type: "constant"
      value: 0.2
    }
  }
}
layer {
  name: "inception_4b/relu_1x1"
  type: "ReLU"
  bottom: "inception_4b/1x1"
  top: "inception_4b/1x1"
}
layer {
  name: "inception_4b/3x3_reduce"
  type: "Convolution"
  bottom: "inception_4a/output"
  top: "inception_4b/3x3_reduce"
  param {
    lr_mult: 1
    decay_mult: 1
  }
  param {
    lr_mult: 2
    decay_mult: 0
  }
  convolution_param {
    num_output: 112
    kernel_size: 1
    weight_filler {
      type: "xavier"
      std: 0.09
    }
    bias_filler {
      type: "constant"
      value: 0.2
    }
  }
}
layer {
  name: "inception_4b/relu_3x3_reduce"
  type: "ReLU"
  bottom: "inception_4b/3x3_reduce"
  top: "inception_4b/3x3_reduce"
}
layer {
  name: "inception_4b/3x3"
  type: "Convolution"
  bottom: "inception_4b/3x3_reduce"
  top: "inception_4b/3x3"
  param {
    lr_mult: 1
    decay_mult: 1
  }
  param {
    lr_mult: 2
    decay_mult: 0
  }
  convolution_param {
    num_output: 224
    pad: 1
    kernel_size: 3
    weight_filler {
      type: "xavier"
      std: 0.03
    }
    bias_filler {
      type: "constant"
      value: 0.2
    }
  }
}
layer {
  name: "inception_4b/relu_3x3"
  type: "ReLU"
  bottom: "inception_4b/3x3"
  top: "inception_4b/3x3"
}
layer {
  name: "inception_4b/5x5_reduce"
  type: "Convolution"
  bottom: "inception_4a/output"
  top: "inception_4b/5x5_reduce"
  param {
    lr_mult: 1
    decay_mult: 1
  }
  param {
    lr_mult: 2
    decay_mult: 0
  }
  convolution_param {
    num_output: 24
    kernel_size: 1
    weight_filler {
      type: "xavier"
      std: 0.2
    }
    bias_filler {
      type: "constant"
      value: 0.2
    }
  }
}
layer {
  name: "inception_4b/relu_5x5_reduce"
  type: "ReLU"
  bottom: "inception_4b/5x5_reduce"
  top: "inception_4b/5x5_reduce"
}
layer {
  name: "inception_4b/5x5"
  type: "Convolution"
  bottom: "inception_4b/5x5_reduce"
  top: "inception_4b/5x5"
  param {
    lr_mult: 1
    decay_mult: 1
  }
  param {
    lr_mult: 2
    decay_mult: 0
  }
  convolution_param {
    num_output: 64
    pad: 2
    kernel_size: 5
    weight_filler {
      type: "xavier"
      std: 0.03
    }
    bias_filler {
      type: "constant"
      value: 0.2
    }
  }
}
layer {
  name: "inception_4b/relu_5x5"
  type: "ReLU"
  bottom: "inception_4b/5x5"
  top: "inception_4b/5x5"
}
layer {
  name: "inception_4b/pool"
  type: "Pooling"
  bottom: "inception_4a/output"
  top: "inception_4b/pool"
  pooling_param {
    pool: MAX
    kernel_size: 3
    stride: 1
    pad: 1
  }
}
layer {
  name: "inception_4b/pool_proj"
  type: "Convolution"
  bottom: "inception_4b/pool"
  top: "inception_4b/pool_proj"
  param {
    lr_mult: 1
    decay_mult: 1
  }
  param {
    lr_mult: 2
    decay_mult: 0
  }
  convolution_param {
    num_output: 64
    kernel_size: 1
    weight_filler {
      type: "xavier"
      std: 0.1
    }
    bias_filler {
      type: "constant"
      value: 0.2
    }
  }
}
layer {
  name: "inception_4b/relu_pool_proj"
  type: "ReLU"
  bottom: "inception_4b/pool_proj"
  top: "inception_4b/pool_proj"
}
layer {
  name: "inception_4b/output"
  type: "Concat"
  bottom: "inception_4b/1x1"
  bottom: "inception_4b/3x3"
  bottom: "inception_4b/5x5"
  bottom: "inception_4b/pool_proj"
  top: "inception_4b/output"
}
layer {
  name: "inception_4c/1x1"
  type: "Convolution"
  bottom: "inception_4b/output"
  top: "inception_4c/1x1"
  param {
    lr_mult: 1
    decay_mult: 1
  }
  param {
    lr_mult: 2
    decay_mult: 0
  }
  convolution_param {
    num_output: 128
    kernel_size: 1
    weight_filler {
      type: "xavier"
      std: 0.03
    }
    bias_filler {
      type: "constant"
      value: 0.2
    }
  }
}
layer {
  name: "inception_4c/relu_1x1"
  type: "ReLU"
  bottom: "inception_4c/1x1"
  top: "inception_4c/1x1"
}
layer {
  name: "inception_4c/3x3_reduce"
  type: "Convolution"
  bottom: "inception_4b/output"
  top: "inception_4c/3x3_reduce"
  param {
    lr_mult: 1
    decay_mult: 1
  }
  param {
    lr_mult: 2
    decay_mult: 0
  }
  convolution_param {
    num_output: 128
    kernel_size: 1
    weight_filler {
      type: "xavier"
      std: 0.09
    }
    bias_filler {
      type: "constant"
      value: 0.2
    }
  }
}
layer {
  name: "inception_4c/relu_3x3_reduce"
  type: "ReLU"
  bottom: "inception_4c/3x3_reduce"
  top: "inception_4c/3x3_reduce"
}
layer {
  name: "inception_4c/3x3"
  type: "Convolution"
  bottom: "inception_4c/3x3_reduce"
  top: "inception_4c/3x3"
  param {
    lr_mult: 1
    decay_mult: 1
  }
  param {
    lr_mult: 2
    decay_mult: 0
  }
  convolution_param {
    num_output: 256
    pad: 1
    kernel_size: 3
    weight_filler {
      type: "xavier"
      std: 0.03
    }
    bias_filler {
      type: "constant"
      value: 0.2
    }
  }
}
layer {
  name: "inception_4c/relu_3x3"
  type: "ReLU"
  bottom: "inception_4c/3x3"
  top: "inception_4c/3x3"
}
layer {
  name: "inception_4c/5x5_reduce"
  type: "Convolution"
  bottom: "inception_4b/output"
  top: "inception_4c/5x5_reduce"
  param {
    lr_mult: 1
    decay_mult: 1
  }
  param {
    lr_mult: 2
    decay_mult: 0
  }
  convolution_param {
    num_output: 24
    kernel_size: 1
    weight_filler {
      type: "xavier"
      std: 0.2
    }
    bias_filler {
      type: "constant"
      value: 0.2
    }
  }
}
layer {
  name: "inception_4c/relu_5x5_reduce"
  type: "ReLU"
  bottom: "inception_4c/5x5_reduce"
  top: "inception_4c/5x5_reduce"
}
layer {
  name: "inception_4c/5x5"
  type: "Convolution"
  bottom: "inception_4c/5x5_reduce"
  top: "inception_4c/5x5"
  param {
    lr_mult: 1
    decay_mult: 1
  }
  param {
    lr_mult: 2
    decay_mult: 0
  }
  convolution_param {
    num_output: 64
    pad: 2
    kernel_size: 5
    weight_filler {
      type: "xavier"
      std: 0.03
    }
    bias_filler {
      type: "constant"
      value: 0.2
    }
  }
}
layer {
  name: "inception_4c/relu_5x5"
  type: "ReLU"
  bottom: "inception_4c/5x5"
  top: "inception_4c/5x5"
}
layer {
  name: "inception_4c/pool"
  type: "Pooling"
  bottom: "inception_4b/output"
  top: "inception_4c/pool"
  pooling_param {
    pool: MAX
    kernel_size: 3
    stride: 1
    pad: 1
  }
}
layer {
  name: "inception_4c/pool_proj"
  type: "Convolution"
  bottom: "inception_4c/pool"
  top: "inception_4c/pool_proj"
  param {
    lr_mult: 1
    decay_mult: 1
  }
  param {
    lr_mult: 2
    decay_mult: 0
  }
  convolution_param {
    num_output: 64
    kernel_size: 1
    weight_filler {
      type: "xavier"
      std: 0.1
    }
    bias_filler {
      type: "constant"
      value: 0.2
    }
  }
}
layer {
  name: "inception_4c/relu_pool_proj"
  type: "ReLU"
  bottom: "inception_4c/pool_proj"
  top: "inception_4c/pool_proj"
}
layer {
  name: "inception_4c/output"
  type: "Concat"
  bottom: "inception_4c/1x1"
  bottom: "inception_4c/3x3"
  bottom: "inception_4c/5x5"
  bottom: "inception_4c/pool_proj"
  top: "inception_4c/output"
}
layer {
  name: "inception_4d/1x1"
  type: "Convolution"
  bottom: "inception_4c/output"
  top: "inception_4d/1x1"
  param {
    lr_mult: 1
    decay_mult: 1
  }
  param {
    lr_mult: 2
    decay_mult: 0
  }
  convolution_param {
    num_output: 112
    kernel_size: 1
    weight_filler {
      type: "xavier"
      std: 0.03
    }
    bias_filler {
      type: "constant"
      value: 0.2
    }
  }
}
layer {
  name: "inception_4d/relu_1x1"
  type: "ReLU"
  bottom: "inception_4d/1x1"
  top: "inception_4d/1x1"
}
layer {
  name: "inception_4d/3x3_reduce"
  type: "Convolution"
  bottom: "inception_4c/output"
  top: "inception_4d/3x3_reduce"
  param {
    lr_mult: 1
    decay_mult: 1
  }
  param {
    lr_mult: 2
    decay_mult: 0
  }
  convolution_param {
    num_output: 144
    kernel_size: 1
    weight_filler {
      type: "xavier"
      std: 0.09
    }
    bias_filler {
      type: "constant"
      value: 0.2
    }
  }
}
layer {
  name: "inception_4d/relu_3x3_reduce"
  type: "ReLU"
  bottom: "inception_4d/3x3_reduce"
  top: "inception_4d/3x3_reduce"
}
layer {
  name: "inception_4d/3x3"
  type: "Convolution"
  bottom: "inception_4d/3x3_reduce"
  top: "inception_4d/3x3"
  param {
    lr_mult: 1
    decay_mult: 1
  }
  param {
    lr_mult: 2
    decay_mult: 0
  }
  convolution_param {
    num_output: 288
    pad: 1
    kernel_size: 3
    weight_filler {
      type: "xavier"
      std: 0.03
    }
    bias_filler {
      type: "constant"
      value: 0.2
    }
  }
}
layer {
  name: "inception_4d/relu_3x3"
  type: "ReLU"
  bottom: "inception_4d/3x3"
  top: "inception_4d/3x3"
}
layer {
  name: "inception_4d/5x5_reduce"
  type: "Convolution"
  bottom: "inception_4c/output"
  top: "inception_4d/5x5_reduce"
  param {
    lr_mult: 1
    decay_mult: 1
  }
  param {
    lr_mult: 2
    decay_mult: 0
  }
  convolution_param {
    num_output: 32
    kernel_size: 1
    weight_filler {
      type: "xavier"
      std: 0.2
    }
    bias_filler {
      type: "constant"
      value: 0.2
    }
  }
}
layer {
  name: "inception_4d/relu_5x5_reduce"
  type: "ReLU"
  bottom: "inception_4d/5x5_reduce"
  top: "inception_4d/5x5_reduce"
}
layer {
  name: "inception_4d/5x5"
  type: "Convolution"
  bottom: "inception_4d/5x5_reduce"
  top: "inception_4d/5x5"
  param {
    lr_mult: 1
    decay_mult: 1
  }
  param {
    lr_mult: 2
    decay_mult: 0
  }
  convolution_param {
    num_output: 64
    pad: 2
    kernel_size: 5
    weight_filler {
      type: "xavier"
      std: 0.03
    }
    bias_filler {
      type: "constant"
      value: 0.2
    }
  }
}
layer {
  name: "inception_4d/relu_5x5"
  type: "ReLU"
  bottom: "inception_4d/5x5"
  top: "inception_4d/5x5"
}
layer {
  name: "inception_4d/pool"
  type: "Pooling"
  bottom: "inception_4c/output"
  top: "inception_4d/pool"
  pooling_param {
    pool: MAX
    kernel_size: 3
    stride: 1
    pad: 1
  }
}
layer {
  name: "inception_4d/pool_proj"
  type: "Convolution"
  bottom: "inception_4d/pool"
  top: "inception_4d/pool_proj"
  param {
    lr_mult: 1
    decay_mult: 1
  }
  param {
    lr_mult: 2
    decay_mult: 0
  }
  convolution_param {
    num_output: 64
    kernel_size: 1
    weight_filler {
      type: "xavier"
      std: 0.1
    }
    bias_filler {
      type: "constant"
      value: 0.2
    }
  }
}
layer {
  name: "inception_4d/relu_pool_proj"
  type: "ReLU"
  bottom: "inception_4d/pool_proj"
  top: "inception_4d/pool_proj"
}
layer {
  name: "inception_4d/output"
  type: "Concat"
  bottom: "inception_4d/1x1"
  bottom: "inception_4d/3x3"
  bottom: "inception_4d/5x5"
  bottom: "inception_4d/pool_proj"
  top: "inception_4d/output"
}
layer {
  name: "loss2/ave_pool"
  type: "Pooling"
  bottom: "inception_4d/output"
  top: "loss2/ave_pool"
  pooling_param {
    pool: AVE
    kernel_size: 5
    stride: 3
  }
}
layer {
  name: "loss2/conv"
  type: "Convolution"
  bottom: "loss2/ave_pool"
  top: "loss2/conv"
  param {
    lr_mult: 1
    decay_mult: 1
  }
  param {
    lr_mult: 2
    decay_mult: 0
  }
  convolution_param {
    num_output: 128
    kernel_size: 1
    weight_filler {
      type: "xavier"
      std: 0.08
    }
    bias_filler {
      type: "constant"
      value: 0.2
    }
  }
}
layer {
  name: "loss2/relu_conv"
  type: "ReLU"
  bottom: "loss2/conv"
  top: "loss2/conv"
}
layer {
  name: "loss2/fc"
  type: "InnerProduct"
  bottom: "loss2/conv"
  top: "loss2/fc"
  param {
    lr_mult: 1
    decay_mult: 1
  }
  param {
    lr_mult: 2
    decay_mult: 0
  }
  inner_product_param {
    num_output: 1024
    weight_filler {
      type: "xavier"
      std: 0.02
    }
    bias_filler {
      type: "constant"
      value: 0.2
    }
  }
}
layer {
  name: "loss2/relu_fc"
  type: "ReLU"
  bottom: "loss2/fc"
  top: "loss2/fc"
}
layer {
  name: "loss2/drop_fc"
  type: "Dropout"
  bottom: "loss2/fc"
  top: "loss2/fc"
  dropout_param {
    dropout_ratio: 0.7
  }
}
layer {
  name: "loss2/classifier_plantvillage"
  type: "InnerProduct"
  bottom: "loss2/fc"
  top: "loss2/classifier_plantvillage"
  param {
    lr_mult: 1
    decay_mult: 1
  }
  param {
    lr_mult: 2
    decay_mult: 0
  }
  inner_product_param {
    num_output: 38
    weight_filler {
      type: "xavier"
      std: 0.0009765625
    }
    bias_filler {
      type: "constant"
      value: 0
    }
  }
}
layer {
  name: "inception_4e/1x1"
  type: "Convolution"
  bottom: "inception_4d/output"
  top: "inception_4e/1x1"
  param {
    lr_mult: 1
    decay_mult: 1
  }
  param {
    lr_mult: 2
    decay_mult: 0
  }
  convolution_param {
    num_output: 256
    kernel_size: 1
    weight_filler {
      type: "xavier"
      std: 0.03
    }
    bias_filler {
      type: "constant"
      value: 0.2
    }
  }
}
layer {
  name: "inception_4e/relu_1x1"
  type: "ReLU"
  bottom: "inception_4e/1x1"
  top: "inception_4e/1x1"
}
layer {
  name: "inception_4e/3x3_reduce"
  type: "Convolution"
  bottom: "inception_4d/output"
  top: "inception_4e/3x3_reduce"
  param {
    lr_mult: 1
    decay_mult: 1
  }
  param {
    lr_mult: 2
    decay_mult: 0
  }
  convolution_param {
    num_output: 160
    kernel_size: 1
    weight_filler {
      type: "xavier"
      std: 0.09
    }
    bias_filler {
      type: "constant"
      value: 0.2
    }
  }
}
layer {
  name: "inception_4e/relu_3x3_reduce"
  type: "ReLU"
  bottom: "inception_4e/3x3_reduce"
  top: "inception_4e/3x3_reduce"
}
layer {
  name: "inception_4e/3x3"
  type: "Convolution"
  bottom: "inception_4e/3x3_reduce"
  top: "inception_4e/3x3"
  param {
    lr_mult: 1
    decay_mult: 1
  }
  param {
    lr_mult: 2
    decay_mult: 0
  }
  convolution_param {
    num_output: 320
    pad: 1
    kernel_size: 3
    weight_filler {
      type: "xavier"
      std: 0.03
    }
    bias_filler {
      type: "constant"
      value: 0.2
    }
  }
}
layer {
  name: "inception_4e/relu_3x3"
  type: "ReLU"
  bottom: "inception_4e/3x3"
  top: "inception_4e/3x3"
}
layer {
  name: "inception_4e/5x5_reduce"
  type: "Convolution"
  bottom: "inception_4d/output"
  top: "inception_4e/5x5_reduce"
  param {
    lr_mult: 1
    decay_mult: 1
  }
  param {
    lr_mult: 2
    decay_mult: 0
  }
  convolution_param {
    num_output: 32
    kernel_size: 1
    weight_filler {
      type: "xavier"
      std: 0.2
    }
    bias_filler {
      type: "constant"
      value: 0.2
    }
  }
}
layer {
  name: "inception_4e/relu_5x5_reduce"
  type: "ReLU"
  bottom: "inception_4e/5x5_reduce"
  top: "inception_4e/5x5_reduce"
}
layer {
  name: "inception_4e/5x5"
  type: "Convolution"
  bottom: "inception_4e/5x5_reduce"
  top: "inception_4e/
I0403 18:57:35.903962 18240 layer_factory.hpp:77] Creating layer data
I0403 18:57:35.904584 18240 net.cpp:91] Creating Layer data
I0403 18:57:35.904615 18240 net.cpp:399] data -> data
I0403 18:57:35.904669 18240 net.cpp:399] data -> label
I0403 18:57:35.904706 18240 data_transformer.cpp:25] Loading mean file from: /home/mohanty/data/final_dataset/lmdb/segmented-60-40/mean.binaryproto
I0403 18:57:35.905884 18244 db_lmdb.cpp:38] Opened lmdb /home/mohanty/data/final_dataset/lmdb/segmented-60-40/test_db
I0403 18:57:35.917795 18240 data_layer.cpp:41] output data size: 24,3,224,224
I0403 18:57:35.945227 18240 net.cpp:141] Setting up data
I0403 18:57:35.945302 18240 net.cpp:148] Top shape: 24 3 224 224 (3612672)
I0403 18:57:35.945327 18240 net.cpp:148] Top shape: 24 (24)
I0403 18:57:35.945344 18240 net.cpp:156] Memory required for data: 14450784
I0403 18:57:35.945371 18240 layer_factory.hpp:77] Creating layer label_data_1_split
I0403 18:57:35.945402 18240 net.cpp:91] Creating Layer label_data_1_split
I0403 18:57:35.945423 18240 net.cpp:425] label_data_1_split <- label
I0403 18:57:35.945456 18240 net.cpp:399] label_data_1_split -> label_data_1_split_0
I0403 18:57:35.945485 18240 net.cpp:399] label_data_1_split -> label_data_1_split_1
I0403 18:57:35.945508 18240 net.cpp:399] label_data_1_split -> label_data_1_split_2
I0403 18:57:35.945531 18240 net.cpp:399] label_data_1_split -> label_data_1_split_3
I0403 18:57:35.945554 18240 net.cpp:399] label_data_1_split -> label_data_1_split_4
I0403 18:57:35.945576 18240 net.cpp:399] label_data_1_split -> label_data_1_split_5
I0403 18:57:35.945598 18240 net.cpp:399] label_data_1_split -> label_data_1_split_6
I0403 18:57:35.945621 18240 net.cpp:399] label_data_1_split -> label_data_1_split_7
I0403 18:57:35.945641 18240 net.cpp:399] label_data_1_split -> label_data_1_split_8
I0403 18:57:35.945663 18240 net.cpp:399] label_data_1_split -> label_data_1_split_9
I0403 18:57:35.945785 18240 net.cpp:141] Setting up label_data_1_split
I0403 18:57:35.945811 18240 net.cpp:148] Top shape: 24 (24)
I0403 18:57:35.945828 18240 net.cpp:148] Top shape: 24 (24)
I0403 18:57:35.945844 18240 net.cpp:148] Top shape: 24 (24)
I0403 18:57:35.945861 18240 net.cpp:148] Top shape: 24 (24)
I0403 18:57:35.945878 18240 net.cpp:148] Top shape: 24 (24)
I0403 18:57:35.945894 18240 net.cpp:148] Top shape: 24 (24)
I0403 18:57:35.945911 18240 net.cpp:148] Top shape: 24 (24)
I0403 18:57:35.945929 18240 net.cpp:148] Top shape: 24 (24)
I0403 18:57:35.945945 18240 net.cpp:148] Top shape: 24 (24)
I0403 18:57:35.945961 18240 net.cpp:148] Top shape: 24 (24)
I0403 18:57:35.946012 18240 net.cpp:156] Memory required for data: 14451744
I0403 18:57:35.946030 18240 layer_factory.hpp:77] Creating layer conv1/7x7_s2
I0403 18:57:35.946063 18240 net.cpp:91] Creating Layer conv1/7x7_s2
I0403 18:57:35.946084 18240 net.cpp:425] conv1/7x7_s2 <- data
I0403 18:57:35.946104 18240 net.cpp:399] conv1/7x7_s2 -> conv1/7x7_s2
I0403 18:57:36.084923 18240 net.cpp:141] Setting up conv1/7x7_s2
I0403 18:57:36.085012 18240 net.cpp:148] Top shape: 24 64 112 112 (19267584)
I0403 18:57:36.085032 18240 net.cpp:156] Memory required for data: 91522080
I0403 18:57:36.085063 18240 layer_factory.hpp:77] Creating layer conv1/relu_7x7
I0403 18:57:36.085090 18240 net.cpp:91] Creating Layer conv1/relu_7x7
I0403 18:57:36.085109 18240 net.cpp:425] conv1/relu_7x7 <- conv1/7x7_s2
I0403 18:57:36.085129 18240 net.cpp:386] conv1/relu_7x7 -> conv1/7x7_s2 (in-place)
I0403 18:57:36.085382 18240 net.cpp:141] Setting up conv1/relu_7x7
I0403 18:57:36.085409 18240 net.cpp:148] Top shape: 24 64 112 112 (19267584)
I0403 18:57:36.085425 18240 net.cpp:156] Memory required for data: 168592416
I0403 18:57:36.085440 18240 layer_factory.hpp:77] Creating layer pool1/3x3_s2
I0403 18:57:36.085465 18240 net.cpp:91] Creating Layer pool1/3x3_s2
I0403 18:57:36.085484 18240 net.cpp:425] pool1/3x3_s2 <- conv1/7x7_s2
I0403 18:57:36.085502 18240 net.cpp:399] pool1/3x3_s2 -> pool1/3x3_s2
I0403 18:57:36.085577 18240 net.cpp:141] Setting up pool1/3x3_s2
I0403 18:57:36.085599 18240 net.cpp:148] Top shape: 24 64 56 56 (4816896)
I0403 18:57:36.085615 18240 net.cpp:156] Memory required for data: 187860000
I0403 18:57:36.085630 18240 layer_factory.hpp:77] Creating layer pool1/norm1
I0403 18:57:36.085655 18240 net.cpp:91] Creating Layer pool1/norm1
I0403 18:57:36.085672 18240 net.cpp:425] pool1/norm1 <- pool1/3x3_s2
I0403 18:57:36.085690 18240 net.cpp:399] pool1/norm1 -> pool1/norm1
I0403 18:57:36.085973 18240 net.cpp:141] Setting up pool1/norm1
I0403 18:57:36.086014 18240 net.cpp:148] Top shape: 24 64 56 56 (4816896)
I0403 18:57:36.086032 18240 net.cpp:156] Memory required for data: 207127584
I0403 18:57:36.086047 18240 layer_factory.hpp:77] Creating layer conv2/3x3_reduce
I0403 18:57:36.086072 18240 net.cpp:91] Creating Layer conv2/3x3_reduce
I0403 18:57:36.086091 18240 net.cpp:425] conv2/3x3_reduce <- pool1/norm1
I0403 18:57:36.086110 18240 net.cpp:399] conv2/3x3_reduce -> conv2/3x3_reduce
I0403 18:57:36.087427 18240 net.cpp:141] Setting up conv2/3x3_reduce
I0403 18:57:36.087457 18240 net.cpp:148] Top shape: 24 64 56 56 (4816896)
I0403 18:57:36.087473 18240 net.cpp:156] Memory required for data: 226395168
I0403 18:57:36.087496 18240 layer_factory.hpp:77] Creating layer conv2/relu_3x3_reduce
I0403 18:57:36.087514 18240 net.cpp:91] Creating Layer conv2/relu_3x3_reduce
I0403 18:57:36.087530 18240 net.cpp:425] conv2/relu_3x3_reduce <- conv2/3x3_reduce
I0403 18:57:36.087548 18240 net.cpp:386] conv2/relu_3x3_reduce -> conv2/3x3_reduce (in-place)
I0403 18:57:36.087795 18240 net.cpp:141] Setting up conv2/relu_3x3_reduce
I0403 18:57:36.087821 18240 net.cpp:148] Top shape: 24 64 56 56 (4816896)
I0403 18:57:36.087837 18240 net.cpp:156] Memory required for data: 245662752
I0403 18:57:36.087852 18240 layer_factory.hpp:77] Creating layer conv2/3x3
I0403 18:57:36.087875 18240 net.cpp:91] Creating Layer conv2/3x3
I0403 18:57:36.087893 18240 net.cpp:425] conv2/3x3 <- conv2/3x3_reduce
I0403 18:57:36.087911 18240 net.cpp:399] conv2/3x3 -> conv2/3x3
I0403 18:57:36.090101 18240 net.cpp:141] Setting up conv2/3x3
I0403 18:57:36.090131 18240 net.cpp:148] Top shape: 24 192 56 56 (14450688)
I0403 18:57:36.090148 18240 net.cpp:156] Memory required for data: 303465504
I0403 18:57:36.090169 18240 layer_factory.hpp:77] Creating layer conv2/relu_3x3
I0403 18:57:36.090189 18240 net.cpp:91] Creating Layer conv2/relu_3x3
I0403 18:57:36.090205 18240 net.cpp:425] conv2/relu_3x3 <- conv2/3x3
I0403 18:57:36.090232 18240 net.cpp:386] conv2/relu_3x3 -> conv2/3x3 (in-place)
I0403 18:57:36.090391 18240 net.cpp:141] Setting up conv2/relu_3x3
I0403 18:57:36.090416 18240 net.cpp:148] Top shape: 24 192 56 56 (14450688)
I0403 18:57:36.090462 18240 net.cpp:156] Memory required for data: 361268256
I0403 18:57:36.090478 18240 layer_factory.hpp:77] Creating layer conv2/norm2
I0403 18:57:36.090498 18240 net.cpp:91] Creating Layer conv2/norm2
I0403 18:57:36.090514 18240 net.cpp:425] conv2/norm2 <- conv2/3x3
I0403 18:57:36.090533 18240 net.cpp:399] conv2/norm2 -> conv2/norm2
I0403 18:57:36.090821 18240 net.cpp:141] Setting up conv2/norm2
I0403 18:57:36.090848 18240 net.cpp:148] Top shape: 24 192 56 56 (14450688)
I0403 18:57:36.090863 18240 net.cpp:156] Memory required for data: 419071008
I0403 18:57:36.090878 18240 layer_factory.hpp:77] Creating layer pool2/3x3_s2
I0403 18:57:36.090899 18240 net.cpp:91] Creating Layer pool2/3x3_s2
I0403 18:57:36.090916 18240 net.cpp:425] pool2/3x3_s2 <- conv2/norm2
I0403 18:57:36.090934 18240 net.cpp:399] pool2/3x3_s2 -> pool2/3x3_s2
I0403 18:57:36.090991 18240 net.cpp:141] Setting up pool2/3x3_s2
I0403 18:57:36.091014 18240 net.cpp:148] Top shape: 24 192 28 28 (3612672)
I0403 18:57:36.091029 18240 net.cpp:156] Memory required for data: 433521696
I0403 18:57:36.091044 18240 layer_factory.hpp:77] Creating layer pool2/3x3_s2_pool2/3x3_s2_0_split
I0403 18:57:36.091061 18240 net.cpp:91] Creating Layer pool2/3x3_s2_pool2/3x3_s2_0_split
I0403 18:57:36.091078 18240 net.cpp:425] pool2/3x3_s2_pool2/3x3_s2_0_split <- pool2/3x3_s2
I0403 18:57:36.091096 18240 net.cpp:399] pool2/3x3_s2_pool2/3x3_s2_0_split -> pool2/3x3_s2_pool2/3x3_s2_0_split_0
I0403 18:57:36.091117 18240 net.cpp:399] pool2/3x3_s2_pool2/3x3_s2_0_split -> pool2/3x3_s2_pool2/3x3_s2_0_split_1
I0403 18:57:36.091137 18240 net.cpp:399] pool2/3x3_s2_pool2/3x3_s2_0_split -> pool2/3x3_s2_pool2/3x3_s2_0_split_2
I0403 18:57:36.091156 18240 net.cpp:399] pool2/3x3_s2_pool2/3x3_s2_0_split -> pool2/3x3_s2_pool2/3x3_s2_0_split_3
I0403 18:57:36.091226 18240 net.cpp:141] Setting up pool2/3x3_s2_pool2/3x3_s2_0_split
I0403 18:57:36.091250 18240 net.cpp:148] Top shape: 24 192 28 28 (3612672)
I0403 18:57:36.091269 18240 net.cpp:148] Top shape: 24 192 28 28 (3612672)
I0403 18:57:36.091284 18240 net.cpp:148] Top shape: 24 192 28 28 (3612672)
I0403 18:57:36.091300 18240 net.cpp:148] Top shape: 24 192 28 28 (3612672)
I0403 18:57:36.091315 18240 net.cpp:156] Memory required for data: 491324448
I0403 18:57:36.091328 18240 layer_factory.hpp:77] Creating layer inception_3a/1x1
I0403 18:57:36.091351 18240 net.cpp:91] Creating Layer inception_3a/1x1
I0403 18:57:36.091368 18240 net.cpp:425] inception_3a/1x1 <- pool2/3x3_s2_pool2/3x3_s2_0_split_0
I0403 18:57:36.091387 18240 net.cpp:399] inception_3a/1x1 -> inception_3a/1x1
I0403 18:57:36.092900 18240 net.cpp:141] Setting up inception_3a/1x1
I0403 18:57:36.092929 18240 net.cpp:148] Top shape: 24 64 28 28 (1204224)
I0403 18:57:36.092946 18240 net.cpp:156] Memory required for data: 496141344
I0403 18:57:36.092964 18240 layer_factory.hpp:77] Creating layer inception_3a/relu_1x1
I0403 18:57:36.092991 18240 net.cpp:91] Creating Layer inception_3a/relu_1x1
I0403 18:57:36.093009 18240 net.cpp:425] inception_3a/relu_1x1 <- inception_3a/1x1
I0403 18:57:36.093027 18240 net.cpp:386] inception_3a/relu_1x1 -> inception_3a/1x1 (in-place)
I0403 18:57:36.093197 18240 net.cpp:141] Setting up inception_3a/relu_1x1
I0403 18:57:36.093225 18240 net.cpp:148] Top shape: 24 64 28 28 (1204224)
I0403 18:57:36.093240 18240 net.cpp:156] Memory required for data: 500958240
I0403 18:57:36.093256 18240 layer_factory.hpp:77] Creating layer inception_3a/3x3_reduce
I0403 18:57:36.093279 18240 net.cpp:91] Creating Layer inception_3a/3x3_reduce
I0403 18:57:36.093297 18240 net.cpp:425] inception_3a/3x3_reduce <- pool2/3x3_s2_pool2/3x3_s2_0_split_1
I0403 18:57:36.093317 18240 net.cpp:399] inception_3a/3x3_reduce -> inception_3a/3x3_reduce
I0403 18:57:36.094998 18240 net.cpp:141] Setting up inception_3a/3x3_reduce
I0403 18:57:36.095028 18240 net.cpp:148] Top shape: 24 96 28 28 (1806336)
I0403 18:57:36.095043 18240 net.cpp:156] Memory required for data: 508183584
I0403 18:57:36.095068 18240 layer_factory.hpp:77] Creating layer inception_3a/relu_3x3_reduce
I0403 18:57:36.095103 18240 net.cpp:91] Creating Layer inception_3a/relu_3x3_reduce
I0403 18:57:36.095120 18240 net.cpp:425] inception_3a/relu_3x3_reduce <- inception_3a/3x3_reduce
I0403 18:57:36.095140 18240 net.cpp:386] inception_3a/relu_3x3_reduce -> inception_3a/3x3_reduce (in-place)
I0403 18:57:36.095324 18240 net.cpp:141] Setting up inception_3a/relu_3x3_reduce
I0403 18:57:36.095348 18240 net.cpp:148] Top shape: 24 96 28 28 (1806336)
I0403 18:57:36.095363 18240 net.cpp:156] Memory required for data: 515408928
I0403 18:57:36.095378 18240 layer_factory.hpp:77] Creating layer inception_3a/3x3
I0403 18:57:36.095402 18240 net.cpp:91] Creating Layer inception_3a/3x3
I0403 18:57:36.095419 18240 net.cpp:425] inception_3a/3x3 <- inception_3a/3x3_reduce
I0403 18:57:36.095441 18240 net.cpp:399] inception_3a/3x3 -> inception_3a/3x3
I0403 18:57:36.097076 18240 net.cpp:141] Setting up inception_3a/3x3
I0403 18:57:36.097106 18240 net.cpp:148] Top shape: 24 128 28 28 (2408448)
I0403 18:57:36.097123 18240 net.cpp:156] Memory required for data: 525042720
I0403 18:57:36.097142 18240 layer_factory.hpp:77] Creating layer inception_3a/relu_3x3
I0403 18:57:36.097160 18240 net.cpp:91] Creating Layer inception_3a/relu_3x3
I0403 18:57:36.097175 18240 net.cpp:425] inception_3a/relu_3x3 <- inception_3a/3x3
I0403 18:57:36.097195 18240 net.cpp:386] inception_3a/relu_3x3 -> inception_3a/3x3 (in-place)
I0403 18:57:36.097466 18240 net.cpp:141] Setting up inception_3a/relu_3x3
I0403 18:57:36.097496 18240 net.cpp:148] Top shape: 24 128 28 28 (2408448)
I0403 18:57:36.097512 18240 net.cpp:156] Memory required for data: 534676512
I0403 18:57:36.097527 18240 layer_factory.hpp:77] Creating layer inception_3a/5x5_reduce
I0403 18:57:36.097550 18240 net.cpp:91] Creating Layer inception_3a/5x5_reduce
I0403 18:57:36.097568 18240 net.cpp:425] inception_3a/5x5_reduce <- pool2/3x3_s2_pool2/3x3_s2_0_split_2
I0403 18:57:36.097586 18240 net.cpp:399] inception_3a/5x5_reduce -> inception_3a/5x5_reduce
I0403 18:57:36.098531 18240 net.cpp:141] Setting up inception_3a/5x5_reduce
I0403 18:57:36.098561 18240 net.cpp:148] Top shape: 24 16 28 28 (301056)
I0403 18:57:36.098577 18240 net.cpp:156] Memory required for data: 535880736
I0403 18:57:36.098597 18240 layer_factory.hpp:77] Creating layer inception_3a/relu_5x5_reduce
I0403 18:57:36.098615 18240 net.cpp:91] Creating Layer inception_3a/relu_5x5_reduce
I0403 18:57:36.098630 18240 net.cpp:425] inception_3a/relu_5x5_reduce <- inception_3a/5x5_reduce
I0403 18:57:36.098651 18240 net.cpp:386] inception_3a/relu_5x5_reduce -> inception_3a/5x5_reduce (in-place)
I0403 18:57:36.098947 18240 net.cpp:141] Setting up inception_3a/relu_5x5_reduce
I0403 18:57:36.098973 18240 net.cpp:148] Top shape: 24 16 28 28 (301056)
I0403 18:57:36.098999 18240 net.cpp:156] Memory required for data: 537084960
I0403 18:57:36.099017 18240 layer_factory.hpp:77] Creating layer inception_3a/5x5
I0403 18:57:36.099040 18240 net.cpp:91] Creating Layer inception_3a/5x5
I0403 18:57:36.099057 18240 net.cpp:425] inception_3a/5x5 <- inception_3a/5x5_reduce
I0403 18:57:36.099079 18240 net.cpp:399] inception_3a/5x5 -> inception_3a/5x5
I0403 18:57:36.100078 18240 net.cpp:141] Setting up inception_3a/5x5
I0403 18:57:36.100106 18240 net.cpp:148] Top shape: 24 32 28 28 (602112)
I0403 18:57:36.100122 18240 net.cpp:156] Memory required for data: 539493408
I0403 18:57:36.100142 18240 layer_factory.hpp:77] Creating layer inception_3a/relu_5x5
I0403 18:57:36.100162 18240 net.cpp:91] Creating Layer inception_3a/relu_5x5
I0403 18:57:36.100178 18240 net.cpp:425] inception_3a/relu_5x5 <- inception_3a/5x5
I0403 18:57:36.100196 18240 net.cpp:386] inception_3a/relu_5x5 -> inception_3a/5x5 (in-place)
I0403 18:57:36.100369 18240 net.cpp:141] Setting up inception_3a/relu_5x5
I0403 18:57:36.100394 18240 net.cpp:148] Top shape: 24 32 28 28 (602112)
I0403 18:57:36.100409 18240 net.cpp:156] Memory required for data: 541901856
I0403 18:57:36.100425 18240 layer_factory.hpp:77] Creating layer inception_3a/pool
I0403 18:57:36.100442 18240 net.cpp:91] Creating Layer inception_3a/pool
I0403 18:57:36.100471 18240 net.cpp:425] inception_3a/pool <- pool2/3x3_s2_pool2/3x3_s2_0_split_3
I0403 18:57:36.100493 18240 net.cpp:399] inception_3a/pool -> inception_3a/pool
I0403 18:57:36.100549 18240 net.cpp:141] Setting up inception_3a/pool
I0403 18:57:36.100572 18240 net.cpp:148] Top shape: 24 192 28 28 (3612672)
I0403 18:57:36.100587 18240 net.cpp:156] Memory required for data: 556352544
I0403 18:57:36.100601 18240 layer_factory.hpp:77] Creating layer inception_3a/pool_proj
I0403 18:57:36.100626 18240 net.cpp:91] Creating Layer inception_3a/pool_proj
I0403 18:57:36.100644 18240 net.cpp:425] inception_3a/pool_proj <- inception_3a/pool
I0403 18:57:36.100663 18240 net.cpp:399] inception_3a/pool_proj -> inception_3a/pool_proj
I0403 18:57:36.101609 18240 net.cpp:141] Setting up inception_3a/pool_proj
I0403 18:57:36.101637 18240 net.cpp:148] Top shape: 24 32 28 28 (602112)
I0403 18:57:36.101654 18240 net.cpp:156] Memory required for data: 558760992
I0403 18:57:36.101677 18240 layer_factory.hpp:77] Creating layer inception_3a/relu_pool_proj
I0403 18:57:36.101697 18240 net.cpp:91] Creating Layer inception_3a/relu_pool_proj
I0403 18:57:36.101713 18240 net.cpp:425] inception_3a/relu_pool_proj <- inception_3a/pool_proj
I0403 18:57:36.101732 18240 net.cpp:386] inception_3a/relu_pool_proj -> inception_3a/pool_proj (in-place)
I0403 18:57:36.102008 18240 net.cpp:141] Setting up inception_3a/relu_pool_proj
I0403 18:57:36.102036 18240 net.cpp:148] Top shape: 24 32 28 28 (602112)
I0403 18:57:36.102053 18240 net.cpp:156] Memory required for data: 561169440
I0403 18:57:36.102068 18240 layer_factory.hpp:77] Creating layer inception_3a/output
I0403 18:57:36.102087 18240 net.cpp:91] Creating Layer inception_3a/output
I0403 18:57:36.102102 18240 net.cpp:425] inception_3a/output <- inception_3a/1x1
I0403 18:57:36.102118 18240 net.cpp:425] inception_3a/output <- inception_3a/3x3
I0403 18:57:36.102134 18240 net.cpp:425] inception_3a/output <- inception_3a/5x5
I0403 18:57:36.102150 18240 net.cpp:425] inception_3a/output <- inception_3a/pool_proj
I0403 18:57:36.102167 18240 net.cpp:399] inception_3a/output -> inception_3a/output
I0403 18:57:36.102215 18240 net.cpp:141] Setting up inception_3a/output
I0403 18:57:36.102237 18240 net.cpp:148] Top shape: 24 256 28 28 (4816896)
I0403 18:57:36.102252 18240 net.cpp:156] Memory required for data: 580437024
I0403 18:57:36.102267 18240 layer_factory.hpp:77] Creating layer inception_3a/output_inception_3a/output_0_split
I0403 18:57:36.102284 18240 net.cpp:91] Creating Layer inception_3a/output_inception_3a/output_0_split
I0403 18:57:36.102299 18240 net.cpp:425] inception_3a/output_inception_3a/output_0_split <- inception_3a/output
I0403 18:57:36.102320 18240 net.cpp:399] inception_3a/output_inception_3a/output_0_split -> inception_3a/output_inception_3a/output_0_split_0
I0403 18:57:36.102341 18240 net.cpp:399] inception_3a/output_inception_3a/output_0_split -> inception_3a/output_inception_3a/output_0_split_1
I0403 18:57:36.102365 18240 net.cpp:399] inception_3a/output_inception_3a/output_0_split -> inception_3a/output_inception_3a/output_0_split_2
I0403 18:57:36.102387 18240 net.cpp:399] inception_3a/output_inception_3a/output_0_split -> inception_3a/output_inception_3a/output_0_split_3
I0403 18:57:36.102459 18240 net.cpp:141] Setting up inception_3a/output_inception_3a/output_0_split
I0403 18:57:36.102481 18240 net.cpp:148] Top shape: 24 256 28 28 (4816896)
I0403 18:57:36.102501 18240 net.cpp:148] Top shape: 24 256 28 28 (4816896)
I0403 18:57:36.102519 18240 net.cpp:148] Top shape: 24 256 28 28 (4816896)
I0403 18:57:36.102533 18240 net.cpp:148] Top shape: 24 256 28 28 (4816896)
I0403 18:57:36.102547 18240 net.cpp:156] Memory required for data: 657507360
I0403 18:57:36.102562 18240 layer_factory.hpp:77] Creating layer inception_3b/1x1
I0403 18:57:36.102582 18240 net.cpp:91] Creating Layer inception_3b/1x1
I0403 18:57:36.102599 18240 net.cpp:425] inception_3b/1x1 <- inception_3a/output_inception_3a/output_0_split_0
I0403 18:57:36.102620 18240 net.cpp:399] inception_3b/1x1 -> inception_3b/1x1
I0403 18:57:36.103744 18240 net.cpp:141] Setting up inception_3b/1x1
I0403 18:57:36.103782 18240 net.cpp:148] Top shape: 24 128 28 28 (2408448)
I0403 18:57:36.103799 18240 net.cpp:156] Memory required for data: 667141152
I0403 18:57:36.103818 18240 layer_factory.hpp:77] Creating layer inception_3b/relu_1x1
I0403 18:57:36.103839 18240 net.cpp:91] Creating Layer inception_3b/relu_1x1
I0403 18:57:36.103857 18240 net.cpp:425] inception_3b/relu_1x1 <- inception_3b/1x1
I0403 18:57:36.103874 18240 net.cpp:386] inception_3b/relu_1x1 -> inception_3b/1x1 (in-place)
I0403 18:57:36.104053 18240 net.cpp:141] Setting up inception_3b/relu_1x1
I0403 18:57:36.104079 18240 net.cpp:148] Top shape: 24 128 28 28 (2408448)
I0403 18:57:36.104094 18240 net.cpp:156] Memory required for data: 676774944
I0403 18:57:36.104110 18240 layer_factory.hpp:77] Creating layer inception_3b/3x3_reduce
I0403 18:57:36.104132 18240 net.cpp:91] Creating Layer inception_3b/3x3_reduce
I0403 18:57:36.104151 18240 net.cpp:425] inception_3b/3x3_reduce <- inception_3a/output_inception_3a/output_0_split_1
I0403 18:57:36.104169 18240 net.cpp:399] inception_3b/3x3_reduce -> inception_3b/3x3_reduce
I0403 18:57:36.105321 18240 net.cpp:141] Setting up inception_3b/3x3_reduce
I0403 18:57:36.105350 18240 net.cpp:148] Top shape: 24 128 28 28 (2408448)
I0403 18:57:36.105365 18240 net.cpp:156] Memory required for data: 686408736
I0403 18:57:36.105383 18240 layer_factory.hpp:77] Creating layer inception_3b/relu_3x3_reduce
I0403 18:57:36.105403 18240 net.cpp:91] Creating Layer inception_3b/relu_3x3_reduce
I0403 18:57:36.105420 18240 net.cpp:425] inception_3b/relu_3x3_reduce <- inception_3b/3x3_reduce
I0403 18:57:36.105438 18240 net.cpp:386] inception_3b/relu_3x3_reduce -> inception_3b/3x3_reduce (in-place)
I0403 18:57:36.105610 18240 net.cpp:141] Setting up inception_3b/relu_3x3_reduce
I0403 18:57:36.105638 18240 net.cpp:148] Top shape: 24 128 28 28 (2408448)
I0403 18:57:36.105653 18240 net.cpp:156] Memory required for data: 696042528
I0403 18:57:36.105667 18240 layer_factory.hpp:77] Creating layer inception_3b/3x3
I0403 18:57:36.105691 18240 net.cpp:91] Creating Layer inception_3b/3x3
I0403 18:57:36.105710 18240 net.cpp:425] inception_3b/3x3 <- inception_3b/3x3_reduce
I0403 18:57:36.105731 18240 net.cpp:399] inception_3b/3x3 -> inception_3b/3x3
I0403 18:57:36.108608 18240 net.cpp:141] Setting up inception_3b/3x3
I0403 18:57:36.108639 18240 net.cpp:148] Top shape: 24 192 28 28 (3612672)
I0403 18:57:36.108655 18240 net.cpp:156] Memory required for data: 710493216
I0403 18:57:36.108675 18240 layer_factory.hpp:77] Creating layer inception_3b/relu_3x3
I0403 18:57:36.108693 18240 net.cpp:91] Creating Layer inception_3b/relu_3x3
I0403 18:57:36.108710 18240 net.cpp:425] inception_3b/relu_3x3 <- inception_3b/3x3
I0403 18:57:36.108729 18240 net.cpp:386] inception_3b/relu_3x3 -> inception_3b/3x3 (in-place)
I0403 18:57:36.109020 18240 net.cpp:141] Setting up inception_3b/relu_3x3
I0403 18:57:36.109050 18240 net.cpp:148] Top shape: 24 192 28 28 (3612672)
I0403 18:57:36.109067 18240 net.cpp:156] Memory required for data: 724943904
I0403 18:57:36.109082 18240 layer_factory.hpp:77] Creating layer inception_3b/5x5_reduce
I0403 18:57:36.109105 18240 net.cpp:91] Creating Layer inception_3b/5x5_reduce
I0403 18:57:36.109123 18240 net.cpp:425] inception_3b/5x5_reduce <- inception_3a/output_inception_3a/output_0_split_2
I0403 18:57:36.109143 18240 net.cpp:399] inception_3b/5x5_reduce -> inception_3b/5x5_reduce
I0403 18:57:36.110128 18240 net.cpp:141] Setting up inception_3b/5x5_reduce
I0403 18:57:36.110157 18240 net.cpp:148] Top shape: 24 32 28 28 (602112)
I0403 18:57:36.110172 18240 net.cpp:156] Memory required for data: 727352352
I0403 18:57:36.110191 18240 layer_factory.hpp:77] Creating layer inception_3b/relu_5x5_reduce
I0403 18:57:36.110221 18240 net.cpp:91] Creating Layer inception_3b/relu_5x5_reduce
I0403 18:57:36.110239 18240 net.cpp:425] inception_3b/relu_5x5_reduce <- inception_3b/5x5_reduce
I0403 18:57:36.110256 18240 net.cpp:386] inception_3b/relu_5x5_reduce -> inception_3b/5x5_reduce (in-place)
I0403 18:57:36.110445 18240 net.cpp:141] Setting up inception_3b/relu_5x5_reduce
I0403 18:57:36.110469 18240 net.cpp:148] Top shape: 24 32 28 28 (602112)
I0403 18:57:36.110484 18240 net.cpp:156] Memory required for data: 729760800
I0403 18:57:36.110499 18240 layer_factory.hpp:77] Creating layer inception_3b/5x5
I0403 18:57:36.110522 18240 net.cpp:91] Creating Layer inception_3b/5x5
I0403 18:57:36.110539 18240 net.cpp:425] inception_3b/5x5 <- inception_3b/5x5_reduce
I0403 18:57:36.110561 18240 net.cpp:399] inception_3b/5x5 -> inception_3b/5x5
I0403 18:57:36.112516 18240 net.cpp:141] Setting up inception_3b/5x5
I0403 18:57:36.112545 18240 net.cpp:148] Top shape: 24 96 28 28 (1806336)
I0403 18:57:36.112562 18240 net.cpp:156] Memory required for data: 736986144
I0403 18:57:36.112581 18240 layer_factory.hpp:77] Creating layer inception_3b/relu_5x5
I0403 18:57:36.112602 18240 net.cpp:91] Creating Layer inception_3b/relu_5x5
I0403 18:57:36.112619 18240 net.cpp:425] inception_3b/relu_5x5 <- inception_3b/5x5
I0403 18:57:36.112637 18240 net.cpp:386] inception_3b/relu_5x5 -> inception_3b/5x5 (in-place)
I0403 18:57:36.112828 18240 net.cpp:141] Setting up inception_3b/relu_5x5
I0403 18:57:36.112854 18240 net.cpp:148] Top shape: 24 96 28 28 (1806336)
I0403 18:57:36.112869 18240 net.cpp:156] Memory required for data: 744211488
I0403 18:57:36.112884 18240 layer_factory.hpp:77] Creating layer inception_3b/pool
I0403 18:57:36.112902 18240 net.cpp:91] Creating Layer inception_3b/pool
I0403 18:57:36.112920 18240 net.cpp:425] inception_3b/pool <- inception_3a/output_inception_3a/output_0_split_3
I0403 18:57:36.112937 18240 net.cpp:399] inception_3b/pool -> inception_3b/pool
I0403 18:57:36.112998 18240 net.cpp:141] Setting up inception_3b/pool
I0403 18:57:36.113020 18240 net.cpp:148] Top shape: 24 256 28 28 (4816896)
I0403 18:57:36.113035 18240 net.cpp:156] Memory required for data: 763479072
I0403 18:57:36.113050 18240 layer_factory.hpp:77] Creating layer inception_3b/pool_proj
I0403 18:57:36.113072 18240 net.cpp:91] Creating Layer inception_3b/pool_proj
I0403 18:57:36.113090 18240 net.cpp:425] inception_3b/pool_proj <- inception_3b/pool
I0403 18:57:36.113111 18240 net.cpp:399] inception_3b/pool_proj -> inception_3b/pool_proj
I0403 18:57:36.114152 18240 net.cpp:141] Setting up inception_3b/pool_proj
I0403 18:57:36.114179 18240 net.cpp:148] Top shape: 24 64 28 28 (1204224)
I0403 18:57:36.114195 18240 net.cpp:156] Memory required for data: 768295968
I0403 18:57:36.114215 18240 layer_factory.hpp:77] Creating layer inception_3b/relu_pool_proj
I0403 18:57:36.114233 18240 net.cpp:91] Creating Layer inception_3b/relu_pool_proj
I0403 18:57:36.114250 18240 net.cpp:425] inception_3b/relu_pool_proj <- inception_3b/pool_proj
I0403 18:57:36.114269 18240 net.cpp:386] inception_3b/relu_pool_proj -> inception_3b/pool_proj (in-place)
I0403 18:57:36.114660 18240 net.cpp:141] Setting up inception_3b/relu_pool_proj
I0403 18:57:36.114689 18240 net.cpp:148] Top shape: 24 64 28 28 (1204224)
I0403 18:57:36.114706 18240 net.cpp:156] Memory required for data: 773112864
I0403 18:57:36.114722 18240 layer_factory.hpp:77] Creating layer inception_3b/output
I0403 18:57:36.114740 18240 net.cpp:91] Creating Layer inception_3b/output
I0403 18:57:36.114756 18240 net.cpp:425] inception_3b/output <- inception_3b/1x1
I0403 18:57:36.114773 18240 net.cpp:425] inception_3b/output <- inception_3b/3x3
I0403 18:57:36.114789 18240 net.cpp:425] inception_3b/output <- inception_3b/5x5
I0403 18:57:36.114805 18240 net.cpp:425] inception_3b/output <- inception_3b/pool_proj
I0403 18:57:36.114825 18240 net.cpp:399] inception_3b/output -> inception_3b/output
I0403 18:57:36.114868 18240 net.cpp:141] Setting up inception_3b/output
I0403 18:57:36.114892 18240 net.cpp:148] Top shape: 24 480 28 28 (9031680)
I0403 18:57:36.114907 18240 net.cpp:156] Memory required for data: 809239584
I0403 18:57:36.114922 18240 layer_factory.hpp:77] Creating layer pool3/3x3_s2
I0403 18:57:36.114941 18240 net.cpp:91] Creating Layer pool3/3x3_s2
I0403 18:57:36.114959 18240 net.cpp:425] pool3/3x3_s2 <- inception_3b/output
I0403 18:57:36.114995 18240 net.cpp:399] pool3/3x3_s2 -> pool3/3x3_s2
I0403 18:57:36.115056 18240 net.cpp:141] Setting up pool3/3x3_s2
I0403 18:57:36.115079 18240 net.cpp:148] Top shape: 24 480 14 14 (2257920)
I0403 18:57:36.115094 18240 net.cpp:156] Memory required for data: 818271264
I0403 18:57:36.115109 18240 layer_factory.hpp:77] Creating layer pool3/3x3_s2_pool3/3x3_s2_0_split
I0403 18:57:36.115126 18240 net.cpp:91] Creating Layer pool3/3x3_s2_pool3/3x3_s2_0_split
I0403 18:57:36.115142 18240 net.cpp:425] pool3/3x3_s2_pool3/3x3_s2_0_split <- pool3/3x3_s2
I0403 18:57:36.115162 18240 net.cpp:399] pool3/3x3_s2_pool3/3x3_s2_0_split -> pool3/3x3_s2_pool3/3x3_s2_0_split_0
I0403 18:57:36.115182 18240 net.cpp:399] pool3/3x3_s2_pool3/3x3_s2_0_split -> pool3/3x3_s2_pool3/3x3_s2_0_split_1
I0403 18:57:36.115202 18240 net.cpp:399] pool3/3x3_s2_pool3/3x3_s2_0_split -> pool3/3x3_s2_pool3/3x3_s2_0_split_2
I0403 18:57:36.115221 18240 net.cpp:399] pool3/3x3_s2_pool3/3x3_s2_0_split -> pool3/3x3_s2_pool3/3x3_s2_0_split_3
I0403 18:57:36.115298 18240 net.cpp:141] Setting up pool3/3x3_s2_pool3/3x3_s2_0_split
I0403 18:57:36.115320 18240 net.cpp:148] Top shape: 24 480 14 14 (2257920)
I0403 18:57:36.115337 18240 net.cpp:148] Top shape: 24 480 14 14 (2257920)
I0403 18:57:36.115353 18240 net.cpp:148] Top shape: 24 480 14 14 (2257920)
I0403 18:57:36.115370 18240 net.cpp:148] Top shape: 24 480 14 14 (2257920)
I0403 18:57:36.115384 18240 net.cpp:156] Memory required for data: 854397984
I0403 18:57:36.115399 18240 layer_factory.hpp:77] Creating layer inception_4a/1x1
I0403 18:57:36.115422 18240 net.cpp:91] Creating Layer inception_4a/1x1
I0403 18:57:36.115439 18240 net.cpp:425] inception_4a/1x1 <- pool3/3x3_s2_pool3/3x3_s2_0_split_0
I0403 18:57:36.115463 18240 net.cpp:399] inception_4a/1x1 -> inception_4a/1x1
I0403 18:57:36.117012 18240 net.cpp:141] Setting up inception_4a/1x1
I0403 18:57:36.117040 18240 net.cpp:148] Top shape: 24 192 14 14 (903168)
I0403 18:57:36.117056 18240 net.cpp:156] Memory required for data: 858010656
I0403 18:57:36.117075 18240 layer_factory.hpp:77] Creating layer inception_4a/relu_1x1
I0403 18:57:36.117094 18240 net.cpp:91] Creating Layer inception_4a/relu_1x1
I0403 18:57:36.117110 18240 net.cpp:425] inception_4a/relu_1x1 <- inception_4a/1x1
I0403 18:57:36.117132 18240 net.cpp:386] inception_4a/relu_1x1 -> inception_4a/1x1 (in-place)
I0403 18:57:36.117305 18240 net.cpp:141] Setting up inception_4a/relu_1x1
I0403 18:57:36.117329 18240 net.cpp:148] Top shape: 24 192 14 14 (903168)
I0403 18:57:36.117344 18240 net.cpp:156] Memory required for data: 861623328
I0403 18:57:36.117359 18240 layer_factory.hpp:77] Creating layer inception_4a/3x3_reduce
I0403 18:57:36.117383 18240 net.cpp:91] Creating Layer inception_4a/3x3_reduce
I0403 18:57:36.117400 18240 net.cpp:425] inception_4a/3x3_reduce <- pool3/3x3_s2_pool3/3x3_s2_0_split_1
I0403 18:57:36.117421 18240 net.cpp:399] inception_4a/3x3_reduce -> inception_4a/3x3_reduce
I0403 18:57:36.118683 18240 net.cpp:141] Setting up inception_4a/3x3_reduce
I0403 18:57:36.118711 18240 net.cpp:148] Top shape: 24 96 14 14 (451584)
I0403 18:57:36.118726 18240 net.cpp:156] Memory required for data: 863429664
I0403 18:57:36.118752 18240 layer_factory.hpp:77] Creating layer inception_4a/relu_3x3_reduce
I0403 18:57:36.118772 18240 net.cpp:91] Creating Layer inception_4a/relu_3x3_reduce
I0403 18:57:36.118788 18240 net.cpp:425] inception_4a/relu_3x3_reduce <- inception_4a/3x3_reduce
I0403 18:57:36.118808 18240 net.cpp:386] inception_4a/relu_3x3_reduce -> inception_4a/3x3_reduce (in-place)
I0403 18:57:36.118988 18240 net.cpp:141] Setting up inception_4a/relu_3x3_reduce
I0403 18:57:36.119014 18240 net.cpp:148] Top shape: 24 96 14 14 (451584)
I0403 18:57:36.119029 18240 net.cpp:156] Memory required for data: 865236000
I0403 18:57:36.119045 18240 layer_factory.hpp:77] Creating layer inception_4a/3x3
I0403 18:57:36.119067 18240 net.cpp:91] Creating Layer inception_4a/3x3
I0403 18:57:36.119086 18240 net.cpp:425] inception_4a/3x3 <- inception_4a/3x3_reduce
I0403 18:57:36.119107 18240 net.cpp:399] inception_4a/3x3 -> inception_4a/3x3
I0403 18:57:36.121753 18240 net.cpp:141] Setting up inception_4a/3x3
I0403 18:57:36.121783 18240 net.cpp:148] Top shape: 24 208 14 14 (978432)
I0403 18:57:36.121798 18240 net.cpp:156] Memory required for data: 869149728
I0403 18:57:36.121817 18240 layer_factory.hpp:77] Creating layer inception_4a/relu_3x3
I0403 18:57:36.121837 18240 net.cpp:91] Creating Layer inception_4a/relu_3x3
I0403 18:57:36.121855 18240 net.cpp:425] inception_4a/relu_3x3 <- inception_4a/3x3
I0403 18:57:36.121871 18240 net.cpp:386] inception_4a/relu_3x3 -> inception_4a/3x3 (in-place)
I0403 18:57:36.122154 18240 net.cpp:141] Setting up inception_4a/relu_3x3
I0403 18:57:36.122181 18240 net.cpp:148] Top shape: 24 208 14 14 (978432)
I0403 18:57:36.122196 18240 net.cpp:156] Memory required for data: 873063456
I0403 18:57:36.122212 18240 layer_factory.hpp:77] Creating layer inception_4a/5x5_reduce
I0403 18:57:36.122236 18240 net.cpp:91] Creating Layer inception_4a/5x5_reduce
I0403 18:57:36.122253 18240 net.cpp:425] inception_4a/5x5_reduce <- pool3/3x3_s2_pool3/3x3_s2_0_split_2
I0403 18:57:36.122275 18240 net.cpp:399] inception_4a/5x5_reduce -> inception_4a/5x5_reduce
I0403 18:57:36.123288 18240 net.cpp:141] Setting up inception_4a/5x5_reduce
I0403 18:57:36.123317 18240 net.cpp:148] Top shape: 24 16 14 14 (75264)
I0403 18:57:36.123332 18240 net.cpp:156] Memory required for data: 873364512
I0403 18:57:36.123350 18240 layer_factory.hpp:77] Creating layer inception_4a/relu_5x5_reduce
I0403 18:57:36.123371 18240 net.cpp:91] Creating Layer inception_4a/relu_5x5_reduce
I0403 18:57:36.123389 18240 net.cpp:425] inception_4a/relu_5x5_reduce <- inception_4a/5x5_reduce
I0403 18:57:36.123406 18240 net.cpp:386] inception_4a/relu_5x5_reduce -> inception_4a/5x5_reduce (in-place)
I0403 18:57:36.123584 18240 net.cpp:141] Setting up inception_4a/relu_5x5_reduce
I0403 18:57:36.123610 18240 net.cpp:148] Top shape: 24 16 14 14 (75264)
I0403 18:57:36.123625 18240 net.cpp:156] Memory required for data: 873665568
I0403 18:57:36.123639 18240 layer_factory.hpp:77] Creating layer inception_4a/5x5
I0403 18:57:36.123661 18240 net.cpp:91] Creating Layer inception_4a/5x5
I0403 18:57:36.123679 18240 net.cpp:425] inception_4a/5x5 <- inception_4a/5x5_reduce
I0403 18:57:36.123703 18240 net.cpp:399] inception_4a/5x5 -> inception_4a/5x5
I0403 18:57:36.124786 18240 net.cpp:141] Setting up inception_4a/5x5
I0403 18:57:36.124816 18240 net.cpp:148] Top shape: 24 48 14 14 (225792)
I0403 18:57:36.124832 18240 net.cpp:156] Memory required for data: 874568736
I0403 18:57:36.124851 18240 layer_factory.hpp:77] Creating layer inception_4a/relu_5x5
I0403 18:57:36.124871 18240 net.cpp:91] Creating Layer inception_4a/relu_5x5
I0403 18:57:36.124887 18240 net.cpp:425] inception_4a/relu_5x5 <- inception_4a/5x5
I0403 18:57:36.124907 18240 net.cpp:386] inception_4a/relu_5x5 -> inception_4a/5x5 (in-place)
I0403 18:57:36.125087 18240 net.cpp:141] Setting up inception_4a/relu_5x5
I0403 18:57:36.125111 18240 net.cpp:148] Top shape: 24 48 14 14 (225792)
I0403 18:57:36.125126 18240 net.cpp:156] Memory required for data: 875471904
I0403 18:57:36.125141 18240 layer_factory.hpp:77] Creating layer inception_4a/pool
I0403 18:57:36.125159 18240 net.cpp:91] Creating Layer inception_4a/pool
I0403 18:57:36.125174 18240 net.cpp:425] inception_4a/pool <- pool3/3x3_s2_pool3/3x3_s2_0_split_3
I0403 18:57:36.125195 18240 net.cpp:399] inception_4a/pool -> inception_4a/pool
I0403 18:57:36.125258 18240 net.cpp:141] Setting up inception_4a/pool
I0403 18:57:36.125283 18240 net.cpp:148] Top shape: 24 480 14 14 (2257920)
I0403 18:57:36.125298 18240 net.cpp:156] Memory required for data: 884503584
I0403 18:57:36.125313 18240 layer_factory.hpp:77] Creating layer inception_4a/pool_proj
I0403 18:57:36.125334 18240 net.cpp:91] Creating Layer inception_4a/pool_proj
I0403 18:57:36.125351 18240 net.cpp:425] inception_4a/pool_proj <- inception_4a/pool
I0403 18:57:36.125372 18240 net.cpp:399] inception_4a/pool_proj -> inception_4a/pool_proj
I0403 18:57:36.126519 18240 net.cpp:141] Setting up inception_4a/pool_proj
I0403 18:57:36.126546 18240 net.cpp:148] Top shape: 24 64 14 14 (301056)
I0403 18:57:36.126576 18240 net.cpp:156] Memory required for data: 885707808
I0403 18:57:36.126596 18240 layer_factory.hpp:77] Creating layer inception_4a/relu_pool_proj
I0403 18:57:36.126617 18240 net.cpp:91] Creating Layer inception_4a/relu_pool_proj
I0403 18:57:36.126634 18240 net.cpp:425] inception_4a/relu_pool_proj <- inception_4a/pool_proj
I0403 18:57:36.126652 18240 net.cpp:386] inception_4a/relu_pool_proj -> inception_4a/pool_proj (in-place)
I0403 18:57:36.126926 18240 net.cpp:141] Setting up inception_4a/relu_pool_proj
I0403 18:57:36.126953 18240 net.cpp:148] Top shape: 24 64 14 14 (301056)
I0403 18:57:36.126970 18240 net.cpp:156] Memory required for data: 886912032
I0403 18:57:36.126989 18240 layer_factory.hpp:77] Creating layer inception_4a/output
I0403 18:57:36.127008 18240 net.cpp:91] Creating Layer inception_4a/output
I0403 18:57:36.127024 18240 net.cpp:425] inception_4a/output <- inception_4a/1x1
I0403 18:57:36.127041 18240 net.cpp:425] inception_4a/output <- inception_4a/3x3
I0403 18:57:36.127058 18240 net.cpp:425] inception_4a/output <- inception_4a/5x5
I0403 18:57:36.127074 18240 net.cpp:425] inception_4a/output <- inception_4a/pool_proj
I0403 18:57:36.127092 18240 net.cpp:399] inception_4a/output -> inception_4a/output
I0403 18:57:36.127135 18240 net.cpp:141] Setting up inception_4a/output
I0403 18:57:36.127163 18240 net.cpp:148] Top shape: 24 512 14 14 (2408448)
I0403 18:57:36.127180 18240 net.cpp:156] Memory required for data: 896545824
I0403 18:57:36.127195 18240 layer_factory.hpp:77] Creating layer inception_4a/output_inception_4a/output_0_split
I0403 18:57:36.127214 18240 net.cpp:91] Creating Layer inception_4a/output_inception_4a/output_0_split
I0403 18:57:36.127230 18240 net.cpp:425] inception_4a/output_inception_4a/output_0_split <- inception_4a/output
I0403 18:57:36.127250 18240 net.cpp:399] inception_4a/output_inception_4a/output_0_split -> inception_4a/output_inception_4a/output_0_split_0
I0403 18:57:36.127271 18240 net.cpp:399] inception_4a/output_inception_4a/output_0_split -> inception_4a/output_inception_4a/output_0_split_1
I0403 18:57:36.127291 18240 net.cpp:399] inception_4a/output_inception_4a/output_0_split -> inception_4a/output_inception_4a/output_0_split_2
I0403 18:57:36.127311 18240 net.cpp:399] inception_4a/output_inception_4a/output_0_split -> inception_4a/output_inception_4a/output_0_split_3
I0403 18:57:36.127331 18240 net.cpp:399] inception_4a/output_inception_4a/output_0_split -> inception_4a/output_inception_4a/output_0_split_4
I0403 18:57:36.127423 18240 net.cpp:141] Setting up inception_4a/output_inception_4a/output_0_split
I0403 18:57:36.127445 18240 net.cpp:148] Top shape: 24 512 14 14 (2408448)
I0403 18:57:36.127462 18240 net.cpp:148] Top shape: 24 512 14 14 (2408448)
I0403 18:57:36.127480 18240 net.cpp:148] Top shape: 24 512 14 14 (2408448)
I0403 18:57:36.127496 18240 net.cpp:148] Top shape: 24 512 14 14 (2408448)
I0403 18:57:36.127511 18240 net.cpp:148] Top shape: 24 512 14 14 (2408448)
I0403 18:57:36.127526 18240 net.cpp:156] Memory required for data: 944714784
I0403 18:57:36.127539 18240 layer_factory.hpp:77] Creating layer loss1/ave_pool
I0403 18:57:36.127559 18240 net.cpp:91] Creating Layer loss1/ave_pool
I0403 18:57:36.127578 18240 net.cpp:425] loss1/ave_pool <- inception_4a/output_inception_4a/output_0_split_0
I0403 18:57:36.127595 18240 net.cpp:399] loss1/ave_pool -> loss1/ave_pool
I0403 18:57:36.127797 18240 net.cpp:141] Setting up loss1/ave_pool
I0403 18:57:36.127823 18240 net.cpp:148] Top shape: 24 512 4 4 (196608)
I0403 18:57:36.127838 18240 net.cpp:156] Memory required for data: 945501216
I0403 18:57:36.127853 18240 layer_factory.hpp:77] Creating layer loss1/conv
I0403 18:57:36.127876 18240 net.cpp:91] Creating Layer loss1/conv
I0403 18:57:36.127892 18240 net.cpp:425] loss1/conv <- loss1/ave_pool
I0403 18:57:36.127913 18240 net.cpp:399] loss1/conv -> loss1/conv
I0403 18:57:36.129320 18240 net.cpp:141] Setting up loss1/conv
I0403 18:57:36.129349 18240 net.cpp:148] Top shape: 24 128 4 4 (49152)
I0403 18:57:36.129379 18240 net.cpp:156] Memory required for data: 945697824
I0403 18:57:36.129400 18240 layer_factory.hpp:77] Creating layer loss1/relu_conv
I0403 18:57:36.129421 18240 net.cpp:91] Creating Layer loss1/relu_conv
I0403 18:57:36.129438 18240 net.cpp:425] loss1/relu_conv <- loss1/conv
I0403 18:57:36.129456 18240 net.cpp:386] loss1/relu_conv -> loss1/conv (in-place)
I0403 18:57:36.129739 18240 net.cpp:141] Setting up loss1/relu_conv
I0403 18:57:36.129765 18240 net.cpp:148] Top shape: 24 128 4 4 (49152)
I0403 18:57:36.129781 18240 net.cpp:156] Memory required for data: 945894432
I0403 18:57:36.129796 18240 layer_factory.hpp:77] Creating layer loss1/fc
I0403 18:57:36.129822 18240 net.cpp:91] Creating Layer loss1/fc
I0403 18:57:36.129839 18240 net.cpp:425] loss1/fc <- loss1/conv
I0403 18:57:36.129861 18240 net.cpp:399] loss1/fc -> loss1/fc
I0403 18:57:36.147496 18240 net.cpp:141] Setting up loss1/fc
I0403 18:57:36.147529 18240 net.cpp:148] Top shape: 24 1024 (24576)
I0403 18:57:36.147547 18240 net.cpp:156] Memory required for data: 945992736
I0403 18:57:36.147567 18240 layer_factory.hpp:77] Creating layer loss1/relu_fc
I0403 18:57:36.147583 18240 net.cpp:91] Creating Layer loss1/relu_fc
I0403 18:57:36.147600 18240 net.cpp:425] loss1/relu_fc <- loss1/fc
I0403 18:57:36.147620 18240 net.cpp:386] loss1/relu_fc -> loss1/fc (in-place)
I0403 18:57:36.147801 18240 net.cpp:141] Setting up loss1/relu_fc
I0403 18:57:36.147826 18240 net.cpp:148] Top shape: 24 1024 (24576)
I0403 18:57:36.147841 18240 net.cpp:156] Memory required for data: 946091040
I0403 18:57:36.147856 18240 layer_factory.hpp:77] Creating layer loss1/drop_fc
I0403 18:57:36.147884 18240 net.cpp:91] Creating Layer loss1/drop_fc
I0403 18:57:36.147902 18240 net.cpp:425] loss1/drop_fc <- loss1/fc
I0403 18:57:36.147919 18240 net.cpp:386] loss1/drop_fc -> loss1/fc (in-place)
I0403 18:57:36.147972 18240 net.cpp:141] Setting up loss1/drop_fc
I0403 18:57:36.148000 18240 net.cpp:148] Top shape: 24 1024 (24576)
I0403 18:57:36.148015 18240 net.cpp:156] Memory required for data: 946189344
I0403 18:57:36.148030 18240 layer_factory.hpp:77] Creating layer loss1/classifier_plantvillage
I0403 18:57:36.148049 18240 net.cpp:91] Creating Layer loss1/classifier_plantvillage
I0403 18:57:36.148066 18240 net.cpp:425] loss1/classifier_plantvillage <- loss1/fc
I0403 18:57:36.148087 18240 net.cpp:399] loss1/classifier_plantvillage -> loss1/classifier_plantvillage
I0403 18:57:36.148991 18240 net.cpp:141] Setting up loss1/classifier_plantvillage
I0403 18:57:36.149019 18240 net.cpp:148] Top shape: 24 38 (912)
I0403 18:57:36.149034 18240 net.cpp:156] Memory required for data: 946192992
I0403 18:57:36.149054 18240 layer_factory.hpp:77] Creating layer loss1/classifier_plantvillage_loss1/classifier_plantvillage_0_split
I0403 18:57:36.149075 18240 net.cpp:91] Creating Layer loss1/classifier_plantvillage_loss1/classifier_plantvillage_0_split
I0403 18:57:36.149091 18240 net.cpp:425] loss1/classifier_plantvillage_loss1/classifier_plantvillage_0_split <- loss1/classifier_plantvillage
I0403 18:57:36.149108 18240 net.cpp:399] loss1/classifier_plantvillage_loss1/classifier_plantvillage_0_split -> loss1/classifier_plantvillage_loss1/classifier_plantvillage_0_split_0
I0403 18:57:36.149129 18240 net.cpp:399] loss1/classifier_plantvillage_loss1/classifier_plantvillage_0_split -> loss1/classifier_plantvillage_loss1/classifier_plantvillage_0_split_1
I0403 18:57:36.149149 18240 net.cpp:399] loss1/classifier_plantvillage_loss1/classifier_plantvillage_0_split -> loss1/classifier_plantvillage_loss1/classifier_plantvillage_0_split_2
I0403 18:57:36.149217 18240 net.cpp:141] Setting up loss1/classifier_plantvillage_loss1/classifier_plantvillage_0_split
I0403 18:57:36.149240 18240 net.cpp:148] Top shape: 24 38 (912)
I0403 18:57:36.149257 18240 net.cpp:148] Top shape: 24 38 (912)
I0403 18:57:36.149273 18240 net.cpp:148] Top shape: 24 38 (912)
I0403 18:57:36.149287 18240 net.cpp:156] Memory required for data: 946203936
I0403 18:57:36.149302 18240 layer_factory.hpp:77] Creating layer inception_4b/1x1
I0403 18:57:36.149325 18240 net.cpp:91] Creating Layer inception_4b/1x1
I0403 18:57:36.149360 18240 net.cpp:425] inception_4b/1x1 <- inception_4a/output_inception_4a/output_0_split_1
I0403 18:57:36.149380 18240 net.cpp:399] inception_4b/1x1 -> inception_4b/1x1
I0403 18:57:36.151015 18240 net.cpp:141] Setting up inception_4b/1x1
I0403 18:57:36.151043 18240 net.cpp:148] Top shape: 24 160 14 14 (752640)
I0403 18:57:36.151059 18240 net.cpp:156] Memory required for data: 949214496
I0403 18:57:36.151077 18240 layer_factory.hpp:77] Creating layer inception_4b/relu_1x1
I0403 18:57:36.151099 18240 net.cpp:91] Creating Layer inception_4b/relu_1x1
I0403 18:57:36.151116 18240 net.cpp:425] inception_4b/relu_1x1 <- inception_4b/1x1
I0403 18:57:36.151134 18240 net.cpp:386] inception_4b/relu_1x1 -> inception_4b/1x1 (in-place)
I0403 18:57:36.151314 18240 net.cpp:141] Setting up inception_4b/relu_1x1
I0403 18:57:36.151338 18240 net.cpp:148] Top shape: 24 160 14 14 (752640)
I0403 18:57:36.151353 18240 net.cpp:156] Memory required for data: 952225056
I0403 18:57:36.151368 18240 layer_factory.hpp:77] Creating layer inception_4b/3x3_reduce
I0403 18:57:36.151394 18240 net.cpp:91] Creating Layer inception_4b/3x3_reduce
I0403 18:57:36.151412 18240 net.cpp:425] inception_4b/3x3_reduce <- inception_4a/output_inception_4a/output_0_split_2
I0403 18:57:36.151433 18240 net.cpp:399] inception_4b/3x3_reduce -> inception_4b/3x3_reduce
I0403 18:57:36.152781 18240 net.cpp:141] Setting up inception_4b/3x3_reduce
I0403 18:57:36.152812 18240 net.cpp:148] Top shape: 24 112 14 14 (526848)
I0403 18:57:36.152829 18240 net.cpp:156] Memory required for data: 954332448
I0403 18:57:36.152849 18240 layer_factory.hpp:77] Creating layer inception_4b/relu_3x3_reduce
I0403 18:57:36.152868 18240 net.cpp:91] Creating Layer inception_4b/relu_3x3_reduce
I0403 18:57:36.152884 18240 net.cpp:425] inception_4b/relu_3x3_reduce <- inception_4b/3x3_reduce
I0403 18:57:36.152904 18240 net.cpp:386] inception_4b/relu_3x3_reduce -> inception_4b/3x3_reduce (in-place)
I0403 18:57:36.153192 18240 net.cpp:141] Setting up inception_4b/relu_3x3_reduce
I0403 18:57:36.153221 18240 net.cpp:148] Top shape: 24 112 14 14 (526848)
I0403 18:57:36.153237 18240 net.cpp:156] Memory required for data: 956439840
I0403 18:57:36.153254 18240 layer_factory.hpp:77] Creating layer inception_4b/3x3
I0403 18:57:36.153275 18240 net.cpp:91] Creating Layer inception_4b/3x3
I0403 18:57:36.153293 18240 net.cpp:425] inception_4b/3x3 <- inception_4b/3x3_reduce
I0403 18:57:36.153312 18240 net.cpp:399] inception_4b/3x3 -> inception_4b/3x3
I0403 18:57:36.156271 18240 net.cpp:141] Setting up inception_4b/3x3
I0403 18:57:36.156301 18240 net.cpp:148] Top shape: 24 224 14 14 (1053696)
I0403 18:57:36.156317 18240 net.cpp:156] Memory required for data: 960654624
I0403 18:57:36.156337 18240 layer_factory.hpp:77] Creating layer inception_4b/relu_3x3
I0403 18:57:36.156357 18240 net.cpp:91] Creating Layer inception_4b/relu_3x3
I0403 18:57:36.156373 18240 net.cpp:425] inception_4b/relu_3x3 <- inception_4b/3x3
I0403 18:57:36.156391 18240 net.cpp:386] inception_4b/relu_3x3 -> inception_4b/3x3 (in-place)
I0403 18:57:36.156571 18240 net.cpp:141] Setting up inception_4b/relu_3x3
I0403 18:57:36.156597 18240 net.cpp:148] Top shape: 24 224 14 14 (1053696)
I0403 18:57:36.156612 18240 net.cpp:156] Memory required for data: 964869408
I0403 18:57:36.156627 18240 layer_factory.hpp:77] Creating layer inception_4b/5x5_reduce
I0403 18:57:36.156651 18240 net.cpp:91] Creating Layer inception_4b/5x5_reduce
I0403 18:57:36.156668 18240 net.cpp:425] inception_4b/5x5_reduce <- inception_4a/output_inception_4a/output_0_split_3
I0403 18:57:36.156690 18240 net.cpp:399] inception_4b/5x5_reduce -> inception_4b/5x5_reduce
I0403 18:57:36.157774 18240 net.cpp:141] Setting up inception_4b/5x5_reduce
I0403 18:57:36.157804 18240 net.cpp:148] Top shape: 24 24 14 14 (112896)
I0403 18:57:36.157821 18240 net.cpp:156] Memory required for data: 965320992
I0403 18:57:36.157840 18240 layer_factory.hpp:77] Creating layer inception_4b/relu_5x5_reduce
I0403 18:57:36.157860 18240 net.cpp:91] Creating Layer inception_4b/relu_5x5_reduce
I0403 18:57:36.157891 18240 net.cpp:425] inception_4b/relu_5x5_reduce <- inception_4b/5x5_reduce
I0403 18:57:36.157908 18240 net.cpp:386] inception_4b/relu_5x5_reduce -> inception_4b/5x5_reduce (in-place)
I0403 18:57:36.158099 18240 net.cpp:141] Setting up inception_4b/relu_5x5_reduce
I0403 18:57:36.158124 18240 net.cpp:148] Top shape: 24 24 14 14 (112896)
I0403 18:57:36.158139 18240 net.cpp:156] Memory required for data: 965772576
I0403 18:57:36.158154 18240 layer_factory.hpp:77] Creating layer inception_4b/5x5
I0403 18:57:36.158179 18240 net.cpp:91] Creating Layer inception_4b/5x5
I0403 18:57:36.158197 18240 net.cpp:425] inception_4b/5x5 <- inception_4b/5x5_reduce
I0403 18:57:36.158220 18240 net.cpp:399] inception_4b/5x5 -> inception_4b/5x5
I0403 18:57:36.159446 18240 net.cpp:141] Setting up inception_4b/5x5
I0403 18:57:36.159474 18240 net.cpp:148] Top shape: 24 64 14 14 (301056)
I0403 18:57:36.159490 18240 net.cpp:156] Memory required for data: 966976800
I0403 18:57:36.159509 18240 layer_factory.hpp:77] Creating layer inception_4b/relu_5x5
I0403 18:57:36.159529 18240 net.cpp:91] Creating Layer inception_4b/relu_5x5
I0403 18:57:36.159548 18240 net.cpp:425] inception_4b/relu_5x5 <- inception_4b/5x5
I0403 18:57:36.159565 18240 net.cpp:386] inception_4b/relu_5x5 -> inception_4b/5x5 (in-place)
I0403 18:57:36.159848 18240 net.cpp:141] Setting up inception_4b/relu_5x5
I0403 18:57:36.159874 18240 net.cpp:148] Top shape: 24 64 14 14 (301056)
I0403 18:57:36.159889 18240 net.cpp:156] Memory required for data: 968181024
I0403 18:57:36.159904 18240 layer_factory.hpp:77] Creating layer inception_4b/pool
I0403 18:57:36.159925 18240 net.cpp:91] Creating Layer inception_4b/pool
I0403 18:57:36.159942 18240 net.cpp:425] inception_4b/pool <- inception_4a/output_inception_4a/output_0_split_4
I0403 18:57:36.159960 18240 net.cpp:399] inception_4b/pool -> inception_4b/pool
I0403 18:57:36.160029 18240 net.cpp:141] Setting up inception_4b/pool
I0403 18:57:36.160053 18240 net.cpp:148] Top shape: 24 512 14 14 (2408448)
I0403 18:57:36.160068 18240 net.cpp:156] Memory required for data: 977814816
I0403 18:57:36.160082 18240 layer_factory.hpp:77] Creating layer inception_4b/pool_proj
I0403 18:57:36.160105 18240 net.cpp:91] Creating Layer inception_4b/pool_proj
I0403 18:57:36.160123 18240 net.cpp:425] inception_4b/pool_proj <- inception_4b/pool
I0403 18:57:36.160145 18240 net.cpp:399] inception_4b/pool_proj -> inception_4b/pool_proj
I0403 18:57:36.161387 18240 net.cpp:141] Setting up inception_4b/pool_proj
I0403 18:57:36.161415 18240 net.cpp:148] Top shape: 24 64 14 14 (301056)
I0403 18:57:36.161432 18240 net.cpp:156] Memory required for data: 979019040
I0403 18:57:36.161450 18240 layer_factory.hpp:77] Creating layer inception_4b/relu_pool_proj
I0403 18:57:36.161471 18240 net.cpp:91] Creating Layer inception_4b/relu_pool_proj
I0403 18:57:36.161489 18240 net.cpp:425] inception_4b/relu_pool_proj <- inception_4b/pool_proj
I0403 18:57:36.161505 18240 net.cpp:386] inception_4b/relu_pool_proj -> inception_4b/pool_proj (in-place)
I0403 18:57:36.161687 18240 net.cpp:141] Setting up inception_4b/relu_pool_proj
I0403 18:57:36.161712 18240 net.cpp:148] Top shape: 24 64 14 14 (301056)
I0403 18:57:36.161727 18240 net.cpp:156] Memory required for data: 980223264
I0403 18:57:36.161742 18240 layer_factory.hpp:77] Creating layer inception_4b/output
I0403 18:57:36.161761 18240 net.cpp:91] Creating Layer inception_4b/output
I0403 18:57:36.161775 18240 net.cpp:425] inception_4b/output <- inception_4b/1x1
I0403 18:57:36.161792 18240 net.cpp:425] inception_4b/output <- inception_4b/3x3
I0403 18:57:36.161808 18240 net.cpp:425] inception_4b/output <- inception_4b/5x5
I0403 18:57:36.161824 18240 net.cpp:425] inception_4b/output <- inception_4b/pool_proj
I0403 18:57:36.161844 18240 net.cpp:399] inception_4b/output -> inception_4b/output
I0403 18:57:36.161890 18240 net.cpp:141] Setting up inception_4b/output
I0403 18:57:36.161916 18240 net.cpp:148] Top shape: 24 512 14 14 (2408448)
I0403 18:57:36.161931 18240 net.cpp:156] Memory required for data: 989857056
I0403 18:57:36.161962 18240 layer_factory.hpp:77] Creating layer inception_4b/output_inception_4b/output_0_split
I0403 18:57:36.161985 18240 net.cpp:91] Creating Layer inception_4b/output_inception_4b/output_0_split
I0403 18:57:36.162003 18240 net.cpp:425] inception_4b/output_inception_4b/output_0_split <- inception_4b/output
I0403 18:57:36.162020 18240 net.cpp:399] inception_4b/output_inception_4b/output_0_split -> inception_4b/output_inception_4b/output_0_split_0
I0403 18:57:36.162041 18240 net.cpp:399] inception_4b/output_inception_4b/output_0_split -> inception_4b/output_inception_4b/output_0_split_1
I0403 18:57:36.162065 18240 net.cpp:399] inception_4b/output_inception_4b/output_0_split -> inception_4b/output_inception_4b/output_0_split_2
I0403 18:57:36.162086 18240 net.cpp:399] inception_4b/output_inception_4b/output_0_split -> inception_4b/output_inception_4b/output_0_split_3
I0403 18:57:36.162169 18240 net.cpp:141] Setting up inception_4b/output_inception_4b/output_0_split
I0403 18:57:36.162194 18240 net.cpp:148] Top shape: 24 512 14 14 (2408448)
I0403 18:57:36.162211 18240 net.cpp:148] Top shape: 24 512 14 14 (2408448)
I0403 18:57:36.162227 18240 net.cpp:148] Top shape: 24 512 14 14 (2408448)
I0403 18:57:36.162242 18240 net.cpp:148] Top shape: 24 512 14 14 (2408448)
I0403 18:57:36.162256 18240 net.cpp:156] Memory required for data: 1028392224
I0403 18:57:36.162271 18240 layer_factory.hpp:77] Creating layer inception_4c/1x1
I0403 18:57:36.162293 18240 net.cpp:91] Creating Layer inception_4c/1x1
I0403 18:57:36.162312 18240 net.cpp:425] inception_4c/1x1 <- inception_4b/output_inception_4b/output_0_split_0
I0403 18:57:36.162333 18240 net.cpp:399] inception_4c/1x1 -> inception_4c/1x1
I0403 18:57:36.163763 18240 net.cpp:141] Setting up inception_4c/1x1
I0403 18:57:36.163791 18240 net.cpp:148] Top shape: 24 128 14 14 (602112)
I0403 18:57:36.163806 18240 net.cpp:156] Memory required for data: 1030800672
I0403 18:57:36.163825 18240 layer_factory.hpp:77] Creating layer inception_4c/relu_1x1
I0403 18:57:36.163843 18240 net.cpp:91] Creating Layer inception_4c/relu_1x1
I0403 18:57:36.163861 18240 net.cpp:425] inception_4c/relu_1x1 <- inception_4c/1x1
I0403 18:57:36.163880 18240 net.cpp:386] inception_4c/relu_1x1 -> inception_4c/1x1 (in-place)
I0403 18:57:36.164067 18240 net.cpp:141] Setting up inception_4c/relu_1x1
I0403 18:57:36.164091 18240 net.cpp:148] Top shape: 24 128 14 14 (602112)
I0403 18:57:36.164106 18240 net.cpp:156] Memory required for data: 1033209120
I0403 18:57:36.164122 18240 layer_factory.hpp:77] Creating layer inception_4c/3x3_reduce
I0403 18:57:36.164144 18240 net.cpp:91] Creating Layer inception_4c/3x3_reduce
I0403 18:57:36.164162 18240 net.cpp:425] inception_4c/3x3_reduce <- inception_4b/output_inception_4b/output_0_split_1
I0403 18:57:36.164183 18240 net.cpp:399] inception_4c/3x3_reduce -> inception_4c/3x3_reduce
I0403 18:57:36.166115 18240 net.cpp:141] Setting up inception_4c/3x3_reduce
I0403 18:57:36.166143 18240 net.cpp:148] Top shape: 24 128 14 14 (602112)
I0403 18:57:36.166159 18240 net.cpp:156] Memory required for data: 1035617568
I0403 18:57:36.166179 18240 layer_factory.hpp:77] Creating layer inception_4c/relu_3x3_reduce
I0403 18:57:36.166200 18240 net.cpp:91] Creating Layer inception_4c/relu_3x3_reduce
I0403 18:57:36.166218 18240 net.cpp:425] inception_4c/relu_3x3_reduce <- inception_4c/3x3_reduce
I0403 18:57:36.166234 18240 net.cpp:386] inception_4c/relu_3x3_reduce -> inception_4c/3x3_reduce (in-place)
I0403 18:57:36.166520 18240 net.cpp:141] Setting up inception_4c/relu_3x3_reduce
I0403 18:57:36.166548 18240 net.cpp:148] Top shape: 24 128 14 14 (602112)
I0403 18:57:36.166563 18240 net.cpp:156] Memory required for data: 1038026016
I0403 18:57:36.166577 18240 layer_factory.hpp:77] Creating layer inception_4c/3x3
I0403 18:57:36.166600 18240 net.cpp:91] Creating Layer inception_4c/3x3
I0403 18:57:36.166617 18240 net.cpp:425] inception_4c/3x3 <- inception_4c/3x3_reduce
I0403 18:57:36.166640 18240 net.cpp:399] inception_4c/3x3 -> inception_4c/3x3
I0403 18:57:36.170269 18240 net.cpp:141] Setting up inception_4c/3x3
I0403 18:57:36.170310 18240 net.cpp:148] Top shape: 24 256 14 14 (1204224)
I0403 18:57:36.170325 18240 net.cpp:156] Memory required for data: 1042842912
I0403 18:57:36.170361 18240 layer_factory.hpp:77] Creating layer inception_4c/relu_3x3
I0403 18:57:36.170384 18240 net.cpp:91] Creating Layer inception_4c/relu_3x3
I0403 18:57:36.170402 18240 net.cpp:425] inception_4c/relu_3x3 <- inception_4c/3x3
I0403 18:57:36.170419 18240 net.cpp:386] inception_4c/relu_3x3 -> inception_4c/3x3 (in-place)
I0403 18:57:36.170601 18240 net.cpp:141] Setting up inception_4c/relu_3x3
I0403 18:57:36.170629 18240 net.cpp:148] Top shape: 24 256 14 14 (1204224)
I0403 18:57:36.170645 18240 net.cpp:156] Memory required for data: 1047659808
I0403 18:57:36.170661 18240 layer_factory.hpp:77] Creating layer inception_4c/5x5_reduce
I0403 18:57:36.170685 18240 net.cpp:91] Creating Layer inception_4c/5x5_reduce
I0403 18:57:36.170702 18240 net.cpp:425] inception_4c/5x5_reduce <- inception_4b/output_inception_4b/output_0_split_2
I0403 18:57:36.170722 18240 net.cpp:399] inception_4c/5x5_reduce -> inception_4c/5x5_reduce
I0403 18:57:36.171821 18240 net.cpp:141] Setting up inception_4c/5x5_reduce
I0403 18:57:36.171851 18240 net.cpp:148] Top shape: 24 24 14 14 (112896)
I0403 18:57:36.171869 18240 net.cpp:156] Memory required for data: 1048111392
I0403 18:57:36.171886 18240 layer_factory.hpp:77] Creating layer inception_4c/relu_5x5_reduce
I0403 18:57:36.171905 18240 net.cpp:91] Creating Layer inception_4c/relu_5x5_reduce
I0403 18:57:36.171921 18240 net.cpp:425] inception_4c/relu_5x5_reduce <- inception_4c/5x5_reduce
I0403 18:57:36.171941 18240 net.cpp:386] inception_4c/relu_5x5_reduce -> inception_4c/5x5_reduce (in-place)
I0403 18:57:36.172127 18240 net.cpp:141] Setting up inception_4c/relu_5x5_reduce
I0403 18:57:36.172154 18240 net.cpp:148] Top shape: 24 24 14 14 (112896)
I0403 18:57:36.172170 18240 net.cpp:156] Memory required for data: 1048562976
I0403 18:57:36.172184 18240 layer_factory.hpp:77] Creating layer inception_4c/5x5
I0403 18:57:36.172209 18240 net.cpp:91] Creating Layer inception_4c/5x5
I0403 18:57:36.172227 18240 net.cpp:425] inception_4c/5x5 <- inception_4c/5x5_reduce
I0403 18:57:36.172248 18240 net.cpp:399] inception_4c/5x5 -> inception_4c/5x5
I0403 18:57:36.173490 18240 net.cpp:141] Setting up inception_4c/5x5
I0403 18:57:36.173517 18240 net.cpp:148] Top shape: 24 64 14 14 (301056)
I0403 18:57:36.173533 18240 net.cpp:156] Memory required for data: 1049767200
I0403 18:57:36.173552 18240 layer_factory.hpp:77] Creating layer inception_4c/relu_5x5
I0403 18:57:36.173570 18240 net.cpp:91] Creating Layer inception_4c/relu_5x5
I0403 18:57:36.173588 18240 net.cpp:425] inception_4c/relu_5x5 <- inception_4c/5x5
I0403 18:57:36.173607 18240 net.cpp:386] inception_4c/relu_5x5 -> inception_4c/5x5 (in-place)
I0403 18:57:36.173899 18240 net.cpp:141] Setting up inception_4c/relu_5x5
I0403 18:57:36.173925 18240 net.cpp:148] Top shape: 24 64 14 14 (301056)
I0403 18:57:36.173941 18240 net.cpp:156] Memory required for data: 1050971424
I0403 18:57:36.173956 18240 layer_factory.hpp:77] Creating layer inception_4c/pool
I0403 18:57:36.173975 18240 net.cpp:91] Creating Layer inception_4c/pool
I0403 18:57:36.173996 18240 net.cpp:425] inception_4c/pool <- inception_4b/output_inception_4b/output_0_split_3
I0403 18:57:36.174017 18240 net.cpp:399] inception_4c/pool -> inception_4c/pool
I0403 18:57:36.174083 18240 net.cpp:141] Setting up inception_4c/pool
I0403 18:57:36.174108 18240 net.cpp:148] Top shape: 24 512 14 14 (2408448)
I0403 18:57:36.174124 18240 net.cpp:156] Memory required for data: 1060605216
I0403 18:57:36.174139 18240 layer_factory.hpp:77] Creating layer inception_4c/pool_proj
I0403 18:57:36.174162 18240 net.cpp:91] Creating Layer inception_4c/pool_proj
I0403 18:57:36.174180 18240 net.cpp:425] inception_4c/pool_proj <- inception_4c/pool
I0403 18:57:36.174201 18240 net.cpp:399] inception_4c/pool_proj -> inception_4c/pool_proj
I0403 18:57:36.175420 18240 net.cpp:141] Setting up inception_4c/pool_proj
I0403 18:57:36.175449 18240 net.cpp:148] Top shape: 24 64 14 14 (301056)
I0403 18:57:36.175478 18240 net.cpp:156] Memory required for data: 1061809440
I0403 18:57:36.175498 18240 layer_factory.hpp:77] Creating layer inception_4c/relu_pool_proj
I0403 18:57:36.175519 18240 net.cpp:91] Creating Layer inception_4c/relu_pool_proj
I0403 18:57:36.175536 18240 net.cpp:425] inception_4c/relu_pool_proj <- inception_4c/pool_proj
I0403 18:57:36.175554 18240 net.cpp:386] inception_4c/relu_pool_proj -> inception_4c/pool_proj (in-place)
I0403 18:57:36.175736 18240 net.cpp:141] Setting up inception_4c/relu_pool_proj
I0403 18:57:36.175761 18240 net.cpp:148] Top shape: 24 64 14 14 (301056)
I0403 18:57:36.175777 18240 net.cpp:156] Memory required for data: 1063013664
I0403 18:57:36.175792 18240 layer_factory.hpp:77] Creating layer inception_4c/output
I0403 18:57:36.175811 18240 net.cpp:91] Creating Layer inception_4c/output
I0403 18:57:36.175827 18240 net.cpp:425] inception_4c/output <- inception_4c/1x1
I0403 18:57:36.175843 18240 net.cpp:425] inception_4c/output <- inception_4c/3x3
I0403 18:57:36.175859 18240 net.cpp:425] inception_4c/output <- inception_4c/5x5
I0403 18:57:36.175875 18240 net.cpp:425] inception_4c/output <- inception_4c/pool_proj
I0403 18:57:36.175894 18240 net.cpp:399] inception_4c/output -> inception_4c/output
I0403 18:57:36.175941 18240 net.cpp:141] Setting up inception_4c/output
I0403 18:57:36.175967 18240 net.cpp:148] Top shape: 24 512 14 14 (2408448)
I0403 18:57:36.175987 18240 net.cpp:156] Memory required for data: 1072647456
I0403 18:57:36.176003 18240 layer_factory.hpp:77] Creating layer inception_4c/output_inception_4c/output_0_split
I0403 18:57:36.176020 18240 net.cpp:91] Creating Layer inception_4c/output_inception_4c/output_0_split
I0403 18:57:36.176036 18240 net.cpp:425] inception_4c/output_inception_4c/output_0_split <- inception_4c/output
I0403 18:57:36.176054 18240 net.cpp:399] inception_4c/output_inception_4c/output_0_split -> inception_4c/output_inception_4c/output_0_split_0
I0403 18:57:36.176074 18240 net.cpp:399] inception_4c/output_inception_4c/output_0_split -> inception_4c/output_inception_4c/output_0_split_1
I0403 18:57:36.176098 18240 net.cpp:399] inception_4c/output_inception_4c/output_0_split -> inception_4c/output_inception_4c/output_0_split_2
I0403 18:57:36.176120 18240 net.cpp:399] inception_4c/output_inception_4c/output_0_split -> inception_4c/output_inception_4c/output_0_split_3
I0403 18:57:36.176206 18240 net.cpp:141] Setting up inception_4c/output_inception_4c/output_0_split
I0403 18:57:36.176230 18240 net.cpp:148] Top shape: 24 512 14 14 (2408448)
I0403 18:57:36.176247 18240 net.cpp:148] Top shape: 24 512 14 14 (2408448)
I0403 18:57:36.176265 18240 net.cpp:148] Top shape: 24 512 14 14 (2408448)
I0403 18:57:36.176280 18240 net.cpp:148] Top shape: 24 512 14 14 (2408448)
I0403 18:57:36.176295 18240 net.cpp:156] Memory required for data: 1111182624
I0403 18:57:36.176309 18240 layer_factory.hpp:77] Creating layer inception_4d/1x1
I0403 18:57:36.176331 18240 net.cpp:91] Creating Layer inception_4d/1x1
I0403 18:57:36.176349 18240 net.cpp:425] inception_4d/1x1 <- inception_4c/output_inception_4c/output_0_split_0
I0403 18:57:36.176370 18240 net.cpp:399] inception_4d/1x1 -> inception_4d/1x1
I0403 18:57:36.177752 18240 net.cpp:141] Setting up inception_4d/1x1
I0403 18:57:36.177780 18240 net.cpp:148] Top shape: 24 112 14 14 (526848)
I0403 18:57:36.177796 18240 net.cpp:156] Memory required for data: 1113290016
I0403 18:57:36.177814 18240 layer_factory.hpp:77] Creating layer inception_4d/relu_1x1
I0403 18:57:36.177837 18240 net.cpp:91] Creating Layer inception_4d/relu_1x1
I0403 18:57:36.177855 18240 net.cpp:425] inception_4d/relu_1x1 <- inception_4d/1x1
I0403 18:57:36.177872 18240 net.cpp:386] inception_4d/relu_1x1 -> inception_4d/1x1 (in-place)
I0403 18:57:36.178061 18240 net.cpp:141] Setting up inception_4d/relu_1x1
I0403 18:57:36.178088 18240 net.cpp:148] Top shape: 24 112 14 14 (526848)
I0403 18:57:36.178104 18240 net.cpp:156] Memory required for data: 1115397408
I0403 18:57:36.178120 18240 layer_factory.hpp:77] Creating layer inception_4d/3x3_reduce
I0403 18:57:36.178153 18240 net.cpp:91] Creating Layer inception_4d/3x3_reduce
I0403 18:57:36.178171 18240 net.cpp:425] inception_4d/3x3_reduce <- inception_4c/output_inception_4c/output_0_split_1
I0403 18:57:36.178194 18240 net.cpp:399] inception_4d/3x3_reduce -> inception_4d/3x3_reduce
I0403 18:57:36.179759 18240 net.cpp:141] Setting up inception_4d/3x3_reduce
I0403 18:57:36.179787 18240 net.cpp:148] Top shape: 24 144 14 14 (677376)
I0403 18:57:36.179805 18240 net.cpp:156] Memory required for data: 1118106912
I0403 18:57:36.179822 18240 layer_factory.hpp:77] Creating layer inception_4d/relu_3x3_reduce
I0403 18:57:36.179841 18240 net.cpp:91] Creating Layer inception_4d/relu_3x3_reduce
I0403 18:57:36.179857 18240 net.cpp:425] inception_4d/relu_3x3_reduce <- inception_4d/3x3_reduce
I0403 18:57:36.179877 18240 net.cpp:386] inception_4d/relu_3x3_reduce -> inception_4d/3x3_reduce (in-place)
I0403 18:57:36.180169 18240 net.cpp:141] Setting up inception_4d/relu_3x3_reduce
I0403 18:57:36.180196 18240 net.cpp:148] Top shape: 24 144 14 14 (677376)
I0403 18:57:36.180212 18240 net.cpp:156] Memory required for data: 1120816416
I0403 18:57:36.180227 18240 layer_factory.hpp:77] Creating layer inception_4d/3x3
I0403 18:57:36.180250 18240 net.cpp:91] Creating Layer inception_4d/3x3
I0403 18:57:36.180268 18240 net.cpp:425] inception_4d/3x3 <- inception_4d/3x3_reduce
I0403 18:57:36.180289 18240 net.cpp:399] inception_4d/3x3 -> inception_4d/3x3
I0403 18:57:36.184542 18240 net.cpp:141] Setting up inception_4d/3x3
I0403 18:57:36.184571 18240 net.cpp:148] Top shape: 24 288 14 14 (1354752)
I0403 18:57:36.184587 18240 net.cpp:156] Memory required for data: 1126235424
I0403 18:57:36.184607 18240 layer_factory.hpp:77] Creating layer inception_4d/relu_3x3
I0403 18:57:36.184628 18240 net.cpp:91] Creating Layer inception_4d/relu_3x3
I0403 18:57:36.184644 18240 net.cpp:425] inception_4d/relu_3x3 <- inception_4d/3x3
I0403 18:57:36.184661 18240 net.cpp:386] inception_4d/relu_3x3 -> inception_4d/3x3 (in-place)
I0403 18:57:36.184846 18240 net.cpp:141] Setting up inception_4d/relu_3x3
I0403 18:57:36.184876 18240 net.cpp:148] Top shape: 24 288 14 14 (1354752)
I0403 18:57:36.184892 18240 net.cpp:156] Memory required for data: 1131654432
I0403 18:57:36.184907 18240 layer_factory.hpp:77] Creating layer inception_4d/5x5_reduce
I0403 18:57:36.184931 18240 net.cpp:91] Creating Layer inception_4d/5x5_reduce
I0403 18:57:36.184948 18240 net.cpp:425] inception_4d/5x5_reduce <- inception_4c/output_inception_4c/output_0_split_2
I0403 18:57:36.184967 18240 net.cpp:399] inception_4d/5x5_reduce -> inception_4d/5x5_reduce
I0403 18:57:36.186125 18240 net.cpp:141] Setting up inception_4d/5x5_reduce
I0403 18:57:36.186152 18240 net.cpp:148] Top shape: 24 32 14 14 (150528)
I0403 18:57:36.186167 18240 net.cpp:156] Memory required for data: 1132256544
I0403 18:57:36.186187 18240 layer_factory.hpp:77] Creating layer inception_4d/relu_5x5_reduce
I0403 18:57:36.186209 18240 net.cpp:91] Creating Layer inception_4d/relu_5x5_reduce
I0403 18:57:36.186226 18240 net.cpp:425] inception_4d/relu_5x5_reduce <- inception_4d/5x5_reduce
I0403 18:57:36.186245 18240 net.cpp:386] inception_4d/relu_5x5_reduce -> inception_4d/5x5_reduce (in-place)
I0403 18:57:36.186431 18240 net.cpp:141] Setting up inception_4d/relu_5x5_reduce
I0403 18:57:36.186460 18240 net.cpp:148] Top shape: 24 32 14 14 (150528)
I0403 18:57:36.186475 18240 net.cpp:156] Memory required for data: 1132858656
I0403 18:57:36.186491 18240 layer_factory.hpp:77] Creating layer inception_4d/5x5
I0403 18:57:36.186512 18240 net.cpp:91] Creating Layer inception_4d/5x5
I0403 18:57:36.186530 18240 net.cpp:425] inception_4d/5x5 <- inception_4d/5x5_reduce
I0403 18:57:36.186549 18240 net.cpp:399] inception_4d/5x5 -> inception_4d/5x5
I0403 18:57:36.188037 18240 net.cpp:141] Setting up inception_4d/5x5
I0403 18:57:36.188066 18240 net.cpp:148] Top shape: 24 64 14 14 (301056)
I0403 18:57:36.188083 18240 net.cpp:156] Memory required for data: 1134062880
I0403 18:57:36.188103 18240 layer_factory.hpp:77] Creating layer inception_4d/relu_5x5
I0403 18:57:36.188135 18240 net.cpp:91] Creating Layer inception_4d/relu_5x5
I0403 18:57:36.188153 18240 net.cpp:425] inception_4d/relu_5x5 <- inception_4d/5x5
I0403 18:57:36.188171 18240 net.cpp:386] inception_4d/relu_5x5 -> inception_4d/5x5 (in-place)
I0403 18:57:36.188470 18240 net.cpp:141] Setting up inception_4d/relu_5x5
I0403 18:57:36.188499 18240 net.cpp:148] Top shape: 24 64 14 14 (301056)
I0403 18:57:36.188516 18240 net.cpp:156] Memory required for data: 1135267104
I0403 18:57:36.188531 18240 layer_factory.hpp:77] Creating layer inception_4d/pool
I0403 18:57:36.188549 18240 net.cpp:91] Creating Layer inception_4d/pool
I0403 18:57:36.188565 18240 net.cpp:425] inception_4d/pool <- inception_4c/output_inception_4c/output_0_split_3
I0403 18:57:36.188586 18240 net.cpp:399] inception_4d/pool -> inception_4d/pool
I0403 18:57:36.188657 18240 net.cpp:141] Setting up inception_4d/pool
I0403 18:57:36.188679 18240 net.cpp:148] Top shape: 24 512 14 14 (2408448)
I0403 18:57:36.188694 18240 net.cpp:156] Memory required for data: 1144900896
I0403 18:57:36.188709 18240 layer_factory.hpp:77] Creating layer inception_4d/pool_proj
I0403 18:57:36.188732 18240 net.cpp:91] Creating Layer inception_4d/pool_proj
I0403 18:57:36.188752 18240 net.cpp:425] inception_4d/pool_proj <- inception_4d/pool
I0403 18:57:36.188771 18240 net.cpp:399] inception_4d/pool_proj -> inception_4d/pool_proj
I0403 18:57:36.190534 18240 net.cpp:141] Setting up inception_4d/pool_proj
I0403 18:57:36.190563 18240 net.cpp:148] Top shape: 24 64 14 14 (301056)
I0403 18:57:36.190579 18240 net.cpp:156] Memory required for data: 1146105120
I0403 18:57:36.190598 18240 layer_factory.hpp:77] Creating layer inception_4d/relu_pool_proj
I0403 18:57:36.190618 18240 net.cpp:91] Creating Layer inception_4d/relu_pool_proj
I0403 18:57:36.190635 18240 net.cpp:425] inception_4d/relu_pool_proj <- inception_4d/pool_proj
I0403 18:57:36.190654 18240 net.cpp:386] inception_4d/relu_pool_proj -> inception_4d/pool_proj (in-place)
I0403 18:57:36.190839 18240 net.cpp:141] Setting up inception_4d/relu_pool_proj
I0403 18:57:36.190865 18240 net.cpp:148] Top shape: 24 64 14 14 (301056)
I0403 18:57:36.190881 18240 net.cpp:156] Memory required for data: 1147309344
I0403 18:57:36.190896 18240 layer_factory.hpp:77] Creating layer inception_4d/output
I0403 18:57:36.190913 18240 net.cpp:91] Creating Layer inception_4d/output
I0403 18:57:36.190929 18240 net.cpp:425] inception_4d/output <- inception_4d/1x1
I0403 18:57:36.190946 18240 net.cpp:425] inception_4d/output <- inception_4d/3x3
I0403 18:57:36.190963 18240 net.cpp:425] inception_4d/output <- inception_4d/5x5
I0403 18:57:36.190982 18240 net.cpp:425] inception_4d/output <- inception_4d/pool_proj
I0403 18:57:36.191001 18240 net.cpp:399] inception_4d/output -> inception_4d/output
I0403 18:57:36.191051 18240 net.cpp:141] Setting up inception_4d/output
I0403 18:57:36.191074 18240 net.cpp:148] Top shape: 24 528 14 14 (2483712)
I0403 18:57:36.191088 18240 net.cpp:156] Memory required for data: 1157244192
I0403 18:57:36.191103 18240 layer_factory.hpp:77] Creating layer inception_4d/output_inception_4d/output_0_split
I0403 18:57:36.191123 18240 net.cpp:91] Creating Layer inception_4d/output_inception_4d/output_0_split
I0403 18:57:36.191140 18240 net.cpp:425] inception_4d/output_inception_4d/output_0_split <- inception_4d/output
I0403 18:57:36.191157 18240 net.cpp:399] inception_4d/output_inception_4d/output_0_split -> inception_4d/output_inception_4d/output_0_split_0
I0403 18:57:36.191179 18240 net.cpp:399] inception_4d/output_inception_4d/output_0_split -> inception_4d/output_inception_4d/output_0_split_1
I0403 18:57:36.191200 18240 net.cpp:399] inception_4d/output_inception_4d/output_0_split -> inception_4d/output_inception_4d/output_0_split_2
I0403 18:57:36.191225 18240 net.cpp:399] inception_4d/output_inception_4d/output_0_split -> inception_4d/output_inception_4d/output_0_split_3
I0403 18:57:36.191246 18240 net.cpp:399] inception_4d/output_inception_4d/output_0_split -> inception_4d/output_inception_4d/output_0_split_4
I0403 18:57:36.191346 18240 net.cpp:141] Setting up inception_4d/output_inception_4d/output_0_split
I0403 18:57:36.191380 18240 net.cpp:148] Top shape: 24 528 14 14 (2483712)
I0403 18:57:36.191398 18240 net.cpp:148] Top shape: 24 528 14 14 (2483712)
I0403 18:57:36.191414 18240 net.cpp:148] Top shape: 24 528 14 14 (2483712)
I0403 18:57:36.191429 18240 net.cpp:148] Top shape: 24 528 14 14 (2483712)
I0403 18:57:36.191445 18240 net.cpp:148] Top shape: 24 528 14 14 (2483712)
I0403 18:57:36.191459 18240 net.cpp:156] Memory required for data: 1206918432
I0403 18:57:36.191474 18240 layer_factory.hpp:77] Creating layer loss2/ave_pool
I0403 18:57:36.191493 18240 net.cpp:91] Creating Layer loss2/ave_pool
I0403 18:57:36.191509 18240 net.cpp:425] loss2/ave_pool <- inception_4d/output_inception_4d/output_0_split_0
I0403 18:57:36.191529 18240 net.cpp:399] loss2/ave_pool -> loss2/ave_pool
I0403 18:57:36.191843 18240 net.cpp:141] Setting up loss2/ave_pool
I0403 18:57:36.191869 18240 net.cpp:148] Top shape: 24 528 4 4 (202752)
I0403 18:57:36.191884 18240 net.cpp:156] Memory required for data: 1207729440
I0403 18:57:36.191900 18240 layer_factory.hpp:77] Creating layer loss2/conv
I0403 18:57:36.191923 18240 net.cpp:91] Creating Layer loss2/conv
I0403 18:57:36.191941 18240 net.cpp:425] loss2/conv <- loss2/ave_pool
I0403 18:57:36.191963 18240 net.cpp:399] loss2/conv -> loss2/conv
I0403 18:57:36.193856 18240 net.cpp:141] Setting up loss2/conv
I0403 18:57:36.193886 18240 net.cpp:148] Top shape: 24 128 4 4 (49152)
I0403 18:57:36.193903 18240 net.cpp:156] Memory required for data: 1207926048
I0403 18:57:36.193922 18240 layer_factory.hpp:77] Creating layer loss2/relu_conv
I0403 18:57:36.193940 18240 net.cpp:91] Creating Layer loss2/relu_conv
I0403 18:57:36.193958 18240 net.cpp:425] loss2/relu_conv <- loss2/conv
I0403 18:57:36.193980 18240 net.cpp:386] loss2/relu_conv -> loss2/conv (in-place)
I0403 18:57:36.194267 18240 net.cpp:141] Setting up loss2/relu_conv
I0403 18:57:36.194294 18240 net.cpp:148] Top shape: 24 128 4 4 (49152)
I0403 18:57:36.194310 18240 net.cpp:156] Memory required for data: 1208122656
I0403 18:57:36.194326 18240 layer_factory.hpp:77] Creating layer loss2/fc
I0403 18:57:36.194345 18240 net.cpp:91] Creating Layer loss2/fc
I0403 18:57:36.194362 18240 net.cpp:425] loss2/fc <- loss2/conv
I0403 18:57:36.194385 18240 net.cpp:399] loss2/fc -> loss2/fc
I0403 18:57:36.212003 18240 net.cpp:141] Setting up loss2/fc
I0403 18:57:36.212039 18240 net.cpp:148] Top shape: 24 1024 (24576)
I0403 18:57:36.212055 18240 net.cpp:156] Memory required for data: 1208220960
I0403 18:57:36.212076 18240 layer_factory.hpp:77] Creating layer loss2/relu_fc
I0403 18:57:36.212098 18240 net.cpp:91] Creating Layer loss2/relu_fc
I0403 18:57:36.212116 18240 net.cpp:425] loss2/relu_fc <- loss2/fc
I0403 18:57:36.212133 18240 net.cpp:386] loss2/relu_fc -> loss2/fc (in-place)
I0403 18:57:36.212435 18240 net.cpp:141] Setting up loss2/relu_fc
I0403 18:57:36.212461 18240 net.cpp:148] Top shape: 24 1024 (24576)
I0403 18:57:36.212476 18240 net.cpp:156] Memory required for data: 1208319264
I0403 18:57:36.212491 18240 layer_factory.hpp:77] Creating layer loss2/drop_fc
I0403 18:57:36.212512 18240 net.cpp:91] Creating Layer loss2/drop_fc
I0403 18:57:36.212529 18240 net.cpp:425] loss2/drop_fc <- loss2/fc
I0403 18:57:36.212546 18240 net.cpp:386] loss2/drop_fc -> loss2/fc (in-place)
I0403 18:57:36.212597 18240 net.cpp:141] Setting up loss2/drop_fc
I0403 18:57:36.212620 18240 net.cpp:148] Top shape: 24 1024 (24576)
I0403 18:57:36.212635 18240 net.cpp:156] Memory required for data: 1208417568
I0403 18:57:36.212649 18240 layer_factory.hpp:77] Creating layer loss2/classifier_plantvillage
I0403 18:57:36.212668 18240 net.cpp:91] Creating Layer loss2/classifier_plantvillage
I0403 18:57:36.212684 18240 net.cpp:425] loss2/classifier_plantvillage <- loss2/fc
I0403 18:57:36.212707 18240 net.cpp:399] loss2/classifier_plantvillage -> loss2/classifier_plantvillage
I0403 18:57:36.213137 18240 net.cpp:141] Setting up loss2/classifier_plantvillage
I0403 18:57:36.213163 18240 net.cpp:148] Top shape: 24 38 (912)
I0403 18:57:36.213194 18240 net.cpp:156] Memory required for data: 1208421216
I0403 18:57:36.213215 18240 layer_factory.hpp:77] Creating layer loss2/classifier_plantvillage_loss2/classifier_plantvillage_0_split
I0403 18:57:36.213234 18240 net.cpp:91] Creating Layer loss2/classifier_plantvillage_loss2/classifier_plantvillage_0_split
I0403 18:57:36.213251 18240 net.cpp:425] loss2/classifier_plantvillage_loss2/classifier_plantvillage_0_split <- loss2/classifier_plantvillage
I0403 18:57:36.213273 18240 net.cpp:399] loss2/classifier_plantvillage_loss2/classifier_plantvillage_0_split -> loss2/classifier_plantvillage_loss2/classifier_plantvillage_0_split_0
I0403 18:57:36.213294 18240 net.cpp:399] loss2/classifier_plantvillage_loss2/classifier_plantvillage_0_split -> loss2/classifier_plantvillage_loss2/classifier_plantvillage_0_split_1
I0403 18:57:36.213327 18240 net.cpp:399] loss2/classifier_plantvillage_loss2/classifier_plantvillage_0_split -> loss2/classifier_plantvillage_loss2/classifier_plantvillage_0_split_2
I0403 18:57:36.213404 18240 net.cpp:141] Setting up loss2/classifier_plantvillage_loss2/classifier_plantvillage_0_split
I0403 18:57:36.213430 18240 net.cpp:148] Top shape: 24 38 (912)
I0403 18:57:36.213448 18240 net.cpp:148] Top shape: 24 38 (912)
I0403 18:57:36.213464 18240 net.cpp:148] Top shape: 24 38 (912)
I0403 18:57:36.213479 18240 net.cpp:156] Memory required for data: 1208432160
I0403 18:57:36.213493 18240 layer_factory.hpp:77] Creating layer inception_4e/1x1
I0403 18:57:36.213513 18240 net.cpp:91] Creating Layer inception_4e/1x1
I0403 18:57:36.213531 18240 net.cpp:425] inception_4e/1x1 <- inception_4d/output_inception_4d/output_0_split_1
I0403 18:57:36.213549 18240 net.cpp:399] inception_4e/1x1 -> inception_4e/1x1
I0403 18:57:36.215368 18240 net.cpp:141] Setting up inception_4e/1x1
I0403 18:57:36.215396 18240 net.cpp:148] Top shape: 24 256 14 14 (1204224)
I0403 18:57:36.215412 18240 net.cpp:156] Memory required for data: 1213249056
I0403 18:57:36.215432 18240 layer_factory.hpp:77] Creating layer inception_4e/relu_1x1
I0403 18:57:36.215451 18240 net.cpp:91] Creating Layer inception_4e/relu_1x1
I0403 18:57:36.215467 18240 net.cpp:425] inception_4e/relu_1x1 <- inception_4e/1x1
I0403 18:57:36.215487 18240 net.cpp:386] inception_4e/relu_1x1 -> inception_4e/1x1 (in-place)
I0403 18:57:36.215791 18240 net.cpp:141] Setting up inception_4e/relu_1x1
I0403 18:57:36.215817 18240 net.cpp:148] Top shape: 24 256 14 14 (1204224)
I0403 18:57:36.215833 18240 net.cpp:156] Memory required for data: 1218065952
I0403 18:57:36.215848 18240 layer_factory.hpp:77] Creating layer inception_4e/3x3_reduce
I0403 18:57:36.215870 18240 net.cpp:91] Creating Layer inception_4e/3x3_reduce
I0403 18:57:36.215888 18240 net.cpp:425] inception_4e/3x3_reduce <- inception_4d/output_inception_4d/output_0_split_2
I0403 18:57:36.215910 18240 net.cpp:399] inception_4e/3x3_reduce -> inception_4e/3x3_reduce
I0403 18:57:36.218026 18240 net.cpp:141] Setting up inception_4e/3x3_reduce
I0403 18:57:36.218058 18240 net.cpp:148] Top shape: 24 160 14 14 (752640)
I0403 18:57:36.218075 18240 net.cpp:156] Memory required for data: 1221076512
I0403 18:57:36.218094 18240 layer_factory.hpp:77] Creating layer inception_4e/relu_3x3_reduce
I0403 18:57:36.218112 18240 net.cpp:91] Creating Layer inception_4e/relu_3x3_reduce
I0403 18:57:36.218128 18240 net.cpp:425] inception_4e/relu_3x3_reduce <- inception_4e/3x3_reduce
I0403 18:57:36.218149 18240 net.cpp:386] inception_4e/relu_3x3_reduce -> inception_4e/3x3_reduce (in-place)
I0403 18:57:36.218335 18240 net.cpp:141] Setting up inception_4e/relu_3x3_reduce
I0403 18:57:36.218361 18240 net.cpp:148] Top shape: 24 160 14 14 (752640)
I0403 18:57:36.218375 18240 net.cpp:156] Memory required for data: 1224087072
I0403 18:57:36.218390 18240 layer_factory.hpp:77] Creating layer inception_4e/3x3
I0403 18:57:36.218413 18240 net.cpp:91] Creating Layer inception_4e/3x3
I0403 18:57:36.218431 18240 net.cpp:425] inception_4e/3x3 <- inception_4e/3x3_reduce
I0403 18:57:36.218453 18240 net.cpp:399] inception_4e/3x3 -> inception_4e/3x3
I0403 18:57:36.223469 18240 net.cpp:141] Setting up inception_4e/3x3
I0403 18:57:36.223510 18240 net.cpp:148] Top shape: 24 320 14 14 (1505280)
I0403 18:57:36.223526 18240 net.cpp:156] Memory required for data: 1230108192
I0403 18:57:36.223546 18240 layer_factory.hpp:77] Creating layer inception_4e/relu_3x3
I0403 18:57:36.223564 18240 net.cpp:91] Creating Layer inception_4e/relu_3x3
I0403 18:57:36.223582 18240 net.cpp:425] inception_4e/relu_3x3 <- inception_4e/3x3
I0403 18:57:36.223603 18240 net.cpp:386] inception_4e/relu_3x3 -> inception_4e/3x3 (in-place)
I0403 18:57:36.223904 18240 net.cpp:141] Setting up inception_4e/relu_3x3
I0403 18:57:36.223932 18240 net.cpp:148] Top shape: 24 320 14 14 (1505280)
I0403 18:57:36.223947 18240 net.cpp:156] Memory required for data: 1236129312
I0403 18:57:36.223963 18240 layer_factory.hpp:77] Creating layer inception_4e/5x5_reduce
I0403 18:57:36.223992 18240 net.cpp:91] Creating Layer inception_4e/5x5_reduce
I0403 18:57:36.224012 18240 net.cpp:425] inception_4e/5x5_reduce <- inception_4d/output_inception_4d/output_0_split_3
I0403 18:57:36.224035 18240 net.cpp:399] inception_4e/5x5_reduce -> inception_4e/5x5_reduce
I0403 18:57:36.225102 18240 net.cpp:141] Setting up inception_4e/5x5_reduce
I0403 18:57:36.225132 18240 net.cpp:148] Top shape: 24 32 14 14 (150528)
I0403 18:57:36.225149 18240 net.cpp:156] Memory required for data: 1236731424
I0403 18:57:36.225168 18240 layer_factory.hpp:77] Creating layer inception_4e/relu_5x5_reduce
I0403 18:57:36.225186 18240 net.cpp:91] Creating Layer inception_4e/relu_5x5_reduce
I0403 18:57:36.225204 18240 net.cpp:425] inception_4e/relu_5x5_reduce <- inception_4e/5x5_reduce
I0403 18:57:36.225221 18240 net.cpp:386] inception_4e/relu_5x5_reduce -> inception_4e/5x5_reduce (in-place)
I0403 18:57:36.225520 18240 net.cpp:141] Setting up inception_4e/relu_5x5_reduce
I0403 18:57:36.225549 18240 net.cpp:148] Top shape: 24 32 14 14 (150528)
I0403 18:57:36.225564 18240 net.cpp:156] Memory required for data: 1237333536
I0403 18:57:36.225580 18240 layer_factory.hpp:77] Creating layer inception_4e/5x5
I0403 18:57:36.225620 18240 net.cpp:91] Creating Layer inception_4e/5x5
I0403 18:57:36.225638 18240 net.cpp:425] inception_4e/5x5 <- inception_4e/5x5_reduce
I0403 18:57:36.225657 18240 net.cpp:399] inception_4e/5x5 -> inception_4e/5x5
I0403 18:57:36.227519 18240 net.cpp:141] Setting up inception_4e/5x5
I0403 18:57:36.227548 18240 net.cpp:148] Top shape: 24 128 14 14 (602112)
I0403 18:57:36.227566 18240 net.cpp:156] Memory required for data: 1239741984
I0403 18:57:36.227586 18240 layer_factory.hpp:77] Creating layer inception_4e/relu_5x5
I0403 18:57:36.227607 18240 net.cpp:91] Creating Layer inception_4e/relu_5x5
I0403 18:57:36.227624 18240 net.cpp:425] inception_4e/relu_5x5 <- inception_4e/5x5
I0403 18:57:36.227641 18240 net.cpp:386] inception_4e/relu_5x5 -> inception_4e/5x5 (in-place)
I0403 18:57:36.227840 18240 net.cpp:141] Setting up inception_4e/relu_5x5
I0403 18:57:36.227869 18240 net.cpp:148] Top shape: 24 128 14 14 (602112)
I0403 18:57:36.227885 18240 net.cpp:156] Memory required for data: 1242150432
I0403 18:57:36.227900 18240 layer_factory.hpp:77] Creating layer inception_4e/pool
I0403 18:57:36.227917 18240 net.cpp:91] Creating Layer inception_4e/pool
I0403 18:57:36.227934 18240 net.cpp:425] inception_4e/pool <- inception_4d/output_inception_4d/output_0_split_4
I0403 18:57:36.227954 18240 net.cpp:399] inception_4e/pool -> inception_4e/pool
I0403 18:57:36.228029 18240 net.cpp:141] Setting up inception_4e/pool
I0403 18:57:36.228052 18240 net.cpp:148] Top shape: 24 528 14 14 (2483712)
I0403 18:57:36.228068 18240 net.cpp:156] Memory required for data: 1252085280
I0403 18:57:36.228083 18240 layer_factory.hpp:77] Creating layer inception_4e/pool_proj
I0403 18:57:36.228106 18240 net.cpp:91] Creating Layer inception_4e/pool_proj
I0403 18:57:36.228123 18240 net.cpp:425] inception_4e/pool_proj <- inception_4e/pool
I0403 18:57:36.228144 18240 net.cpp:399] inception_4e/pool_proj -> inception_4e/pool_proj
I0403 18:57:36.229670 18240 net.cpp:141] Setting up inception_4e/pool_proj
I0403 18:57:36.229708 18240 net.cpp:148] Top shape: 24 128 14 14 (602112)
I0403 18:57:36.229725 18240 net.cpp:156] Memory required for data: 1254493728
I0403 18:57:36.229743 18240 layer_factory.hpp:77] Creating layer inception_4e/relu_pool_proj
I0403 18:57:36.229765 18240 net.cpp:91] Creating Layer inception_4e/relu_pool_proj
I0403 18:57:36.229782 18240 net.cpp:425] inception_4e/relu_pool_proj <- inception_4e/pool_proj
I0403 18:57:36.229800 18240 net.cpp:386] inception_4e/relu_pool_proj -> inception_4e/pool_proj (in-place)
I0403 18:57:36.230103 18240 net.cpp:141] Setting up inception_4e/relu_pool_proj
I0403 18:57:36.230129 18240 net.cpp:148] Top shape: 24 128 14 14 (602112)
I0403 18:57:36.230145 18240 net.cpp:156] Memory required for data: 1256902176
I0403 18:57:36.230161 18240 layer_factory.hpp:77] Creating layer inception_4e/output
I0403 18:57:36.230181 18240 net.cpp:91] Creating Layer inception_4e/output
I0403 18:57:36.230198 18240 net.cpp:425] inception_4e/output <- inception_4e/1x1
I0403 18:57:36.230216 18240 net.cpp:425] inception_4e/output <- inception_4e/3x3
I0403 18:57:36.230233 18240 net.cpp:425] inception_4e/output <- inception_4e/5x5
I0403 18:57:36.230249 18240 net.cpp:425] inception_4e/output <- inception_4e/pool_proj
I0403 18:57:36.230267 18240 net.cpp:399] inception_4e/output -> inception_4e/output
I0403 18:57:36.230317 18240 net.cpp:141] Setting up inception_4e/output
I0403 18:57:36.230353 18240 net.cpp:148] Top shape: 24 832 14 14 (3913728)
I0403 18:57:36.230370 18240 net.cpp:156] Memory required for data: 1272557088
I0403 18:57:36.230386 18240 layer_factory.hpp:77] Creating layer pool4/3x3_s2
I0403 18:57:36.230404 18240 net.cpp:91] Creating Layer pool4/3x3_s2
I0403 18:57:36.230422 18240 net.cpp:425] pool4/3x3_s2 <- inception_4e/output
I0403 18:57:36.230443 18240 net.cpp:399] pool4/3x3_s2 -> pool4/3x3_s2
I0403 18:57:36.230512 18240 net.cpp:141] Setting up pool4/3x3_s2
I0403 18:57:36.230540 18240 net.cpp:148] Top shape: 24 832 7 7 (978432)
I0403 18:57:36.230556 18240 net.cpp:156] Memory required for data: 1276470816
I0403 18:57:36.230572 18240 layer_factory.hpp:77] Creating layer pool4/3x3_s2_pool4/3x3_s2_0_split
I0403 18:57:36.230590 18240 net.cpp:91] Creating Layer pool4/3x3_s2_pool4/3x3_s2_0_split
I0403 18:57:36.230607 18240 net.cpp:425] pool4/3x3_s2_pool4/3x3_s2_0_split <- pool4/3x3_s2
I0403 18:57:36.230634 18240 net.cpp:399] pool4/3x3_s2_pool4/3x3_s2_0_split -> pool4/3x3_s2_pool4/3x3_s2_0_split_0
I0403 18:57:36.230659 18240 net.cpp:399] pool4/3x3_s2_pool4/3x3_s2_0_split -> pool4/3x3_s2_pool4/3x3_s2_0_split_1
I0403 18:57:36.230680 18240 net.cpp:399] pool4/3x3_s2_pool4/3x3_s2_0_split -> pool4/3x3_s2_pool4/3x3_s2_0_split_2
I0403 18:57:36.230701 18240 net.cpp:399] pool4/3x3_s2_pool4/3x3_s2_0_split -> pool4/3x3_s2_pool4/3x3_s2_0_split_3
I0403 18:57:36.230797 18240 net.cpp:141] Setting up pool4/3x3_s2_pool4/3x3_s2_0_split
I0403 18:57:36.230820 18240 net.cpp:148] Top shape: 24 832 7 7 (978432)
I0403 18:57:36.230837 18240 net.cpp:148] Top shape: 24 832 7 7 (978432)
I0403 18:57:36.230854 18240 net.cpp:148] Top shape: 24 832 7 7 (978432)
I0403 18:57:36.230871 18240 net.cpp:148] Top shape: 24 832 7 7 (978432)
I0403 18:57:36.230885 18240 net.cpp:156] Memory required for data: 1292125728
I0403 18:57:36.230913 18240 layer_factory.hpp:77] Creating layer inception_5a/1x1
I0403 18:57:36.230936 18240 net.cpp:91] Creating Layer inception_5a/1x1
I0403 18:57:36.230955 18240 net.cpp:425] inception_5a/1x1 <- pool4/3x3_s2_pool4/3x3_s2_0_split_0
I0403 18:57:36.230975 18240 net.cpp:399] inception_5a/1x1 -> inception_5a/1x1
I0403 18:57:36.233829 18240 net.cpp:141] Setting up inception_5a/1x1
I0403 18:57:36.233858 18240 net.cpp:148] Top shape: 24 256 7 7 (301056)
I0403 18:57:36.233875 18240 net.cpp:156] Memory required for data: 1293329952
I0403 18:57:36.233892 18240 layer_factory.hpp:77] Creating layer inception_5a/relu_1x1
I0403 18:57:36.233913 18240 net.cpp:91] Creating Layer inception_5a/relu_1x1
I0403 18:57:36.233930 18240 net.cpp:425] inception_5a/relu_1x1 <- inception_5a/1x1
I0403 18:57:36.233948 18240 net.cpp:386] inception_5a/relu_1x1 -> inception_5a/1x1 (in-place)
I0403 18:57:36.234267 18240 net.cpp:141] Setting up inception_5a/relu_1x1
I0403 18:57:36.234293 18240 net.cpp:148] Top shape: 24 256 7 7 (301056)
I0403 18:57:36.234308 18240 net.cpp:156] Memory required for data: 1294534176
I0403 18:57:36.234324 18240 layer_factory.hpp:77] Creating layer inception_5a/3x3_reduce
I0403 18:57:36.234349 18240 net.cpp:91] Creating Layer inception_5a/3x3_reduce
I0403 18:57:36.234366 18240 net.cpp:425] inception_5a/3x3_reduce <- pool4/3x3_s2_pool4/3x3_s2_0_split_1
I0403 18:57:36.234386 18240 net.cpp:399] inception_5a/3x3_reduce -> inception_5a/3x3_reduce
I0403 18:57:36.236845 18240 net.cpp:141] Setting up inception_5a/3x3_reduce
I0403 18:57:36.236876 18240 net.cpp:148] Top shape: 24 160 7 7 (188160)
I0403 18:57:36.236891 18240 net.cpp:156] Memory required for data: 1295286816
I0403 18:57:36.236909 18240 layer_factory.hpp:77] Creating layer inception_5a/relu_3x3_reduce
I0403 18:57:36.236930 18240 net.cpp:91] Creating Layer inception_5a/relu_3x3_reduce
I0403 18:57:36.236948 18240 net.cpp:425] inception_5a/relu_3x3_reduce <- inception_5a/3x3_reduce
I0403 18:57:36.236965 18240 net.cpp:386] inception_5a/relu_3x3_reduce -> inception_5a/3x3_reduce (in-place)
I0403 18:57:36.237159 18240 net.cpp:141] Setting up inception_5a/relu_3x3_reduce
I0403 18:57:36.237184 18240 net.cpp:148] Top shape: 24 160 7 7 (188160)
I0403 18:57:36.237198 18240 net.cpp:156] Memory required for data: 1296039456
I0403 18:57:36.237215 18240 layer_factory.hpp:77] Creating layer inception_5a/3x3
I0403 18:57:36.237238 18240 net.cpp:91] Creating Layer inception_5a/3x3
I0403 18:57:36.237257 18240 net.cpp:425] inception_5a/3x3 <- inception_5a/3x3_reduce
I0403 18:57:36.237277 18240 net.cpp:399] inception_5a/3x3 -> inception_5a/3x3
I0403 18:57:36.242321 18240 net.cpp:141] Setting up inception_5a/3x3
I0403 18:57:36.242352 18240 net.cpp:148] Top shape: 24 320 7 7 (376320)
I0403 18:57:36.242368 18240 net.cpp:156] Memory required for data: 1297544736
I0403 18:57:36.242388 18240 layer_factory.hpp:77] Creating layer inception_5a/relu_3x3
I0403 18:57:36.242406 18240 net.cpp:91] Creating Layer inception_5a/relu_3x3
I0403 18:57:36.242422 18240 net.cpp:425] inception_5a/relu_3x3 <- inception_5a/3x3
I0403 18:57:36.242440 18240 net.cpp:386] inception_5a/relu_3x3 -> inception_5a/3x3 (in-place)
I0403 18:57:36.242738 18240 net.cpp:141] Setting up inception_5a/relu_3x3
I0403 18:57:36.242766 18240 net.cpp:148] Top shape: 24 320 7 7 (376320)
I0403 18:57:36.242782 18240 net.cpp:156] Memory required for data: 1299050016
I0403 18:57:36.242797 18240 layer_factory.hpp:77] Creating layer inception_5a/5x5_reduce
I0403 18:57:36.242817 18240 net.cpp:91] Creating Layer inception_5a/5x5_reduce
I0403 18:57:36.242835 18240 net.cpp:425] inception_5a/5x5_reduce <- pool4/3x3_s2_pool4/3x3_s2_0_split_2
I0403 18:57:36.242856 18240 net.cpp:399] inception_5a/5x5_reduce -> inception_5a/5x5_reduce
I0403 18:57:36.244065 18240 net.cpp:141] Setting up inception_5a/5x5_reduce
I0403 18:57:36.244096 18240 net.cpp:148] Top shape: 24 32 7 7 (37632)
I0403 18:57:36.244113 18240 net.cpp:156] Memory required for data: 1299200544
I0403 18:57:36.244132 18240 layer_factory.hpp:77] Creating layer inception_5a/relu_5x5_reduce
I0403 18:57:36.244153 18240 net.cpp:91] Creating Layer inception_5a/relu_5x5_reduce
I0403 18:57:36.244169 18240 net.cpp:425] inception_5a/relu_5x5_reduce <- inception_5a/5x5_reduce
I0403 18:57:36.244189 18240 net.cpp:386] inception_5a/relu_5x5_reduce -> inception_5a/5x5_reduce (in-place)
I0403 18:57:36.244503 18240 net.cpp:141] Setting up inception_5a/relu_5x5_reduce
I0403 18:57:36.244531 18240 net.cpp:148] Top shape: 24 32 7 7 (37632)
I0403 18:57:36.244547 18240 net.cpp:156] Memory required for data: 1299351072
I0403 18:57:36.244563 18240 layer_factory.hpp:77] Creating layer inception_5a/5x5
I0403 18:57:36.244586 18240 net.cpp:91] Creating Layer inception_5a/5x5
I0403 18:57:36.244603 18240 net.cpp:425] inception_5a/5x5 <- inception_5a/5x5_reduce
I0403 18:57:36.244623 18240 net.cpp:399] inception_5a/5x5 -> inception_5a/5x5
I0403 18:57:36.246397 18240 net.cpp:141] Setting up inception_5a/5x5
I0403 18:57:36.246438 18240 net.cpp:148] Top shape: 24 128 7 7 (150528)
I0403 18:57:36.246456 18240 net.cpp:156] Memory required for data: 1299953184
I0403 18:57:36.246474 18240 layer_factory.hpp:77] Creating layer inception_5a/relu_5x5
I0403 18:57:36.246492 18240 net.cpp:91] Creating Layer inception_5a/relu_5x5
I0403 18:57:36.246510 18240 net.cpp:425] inception_5a/relu_5x5 <- inception_5a/5x5
I0403 18:57:36.246526 18240 net.cpp:386] inception_5a/relu_5x5 -> inception_5a/5x5 (in-place)
I0403 18:57:36.246721 18240 net.cpp:141] Setting up inception_5a/relu_5x5
I0403 18:57:36.246747 18240 net.cpp:148] Top shape: 24 128 7 7 (150528)
I0403 18:57:36.246762 18240 net.cpp:156] Memory required for data: 1300555296
I0403 18:57:36.246778 18240 layer_factory.hpp:77] Creating layer inception_5a/pool
I0403 18:57:36.246794 18240 net.cpp:91] Creating Layer inception_5a/pool
I0403 18:57:36.246810 18240 net.cpp:425] inception_5a/pool <- pool4/3x3_s2_pool4/3x3_s2_0_split_3
I0403 18:57:36.246831 18240 net.cpp:399] inception_5a/pool -> inception_5a/pool
I0403 18:57:36.246902 18240 net.cpp:141] Setting up inception_5a/pool
I0403 18:57:36.246928 18240 net.cpp:148] Top shape: 24 832 7 7 (978432)
I0403 18:57:36.246943 18240 net.cpp:156] Memory required for data: 1304469024
I0403 18:57:36.246958 18240 layer_factory.hpp:77] Creating layer inception_5a/pool_proj
I0403 18:57:36.246983 18240 net.cpp:91] Creating Layer inception_5a/pool_proj
I0403 18:57:36.247001 18240 net.cpp:425] inception_5a/pool_proj <- inception_5a/pool
I0403 18:57:36.247023 18240 net.cpp:399] inception_5a/pool_proj -> inception_5a/pool_proj
I0403 18:57:36.249315 18240 net.cpp:141] Setting up inception_5a/pool_proj
I0403 18:57:36.249344 18240 net.cpp:148] Top shape: 24 128 7 7 (150528)
I0403 18:57:36.249361 18240 net.cpp:156] Memory required for data: 1305071136
I0403 18:57:36.249379 18240 layer_factory.hpp:77] Creating layer inception_5a/relu_pool_proj
I0403 18:57:36.249400 18240 net.cpp:91] Creating Layer inception_5a/relu_pool_proj
I0403 18:57:36.249418 18240 net.cpp:425] inception_5a/relu_pool_proj <- inception_5a/pool_proj
I0403 18:57:36.249435 18240 net.cpp:386] inception_5a/relu_pool_proj -> inception_5a/pool_proj (in-place)
I0403 18:57:36.249732 18240 net.cpp:141] Setting up inception_5a/relu_pool_proj
I0403 18:57:36.249758 18240 net.cpp:148] Top shape: 24 128 7 7 (150528)
I0403 18:57:36.249773 18240 net.cpp:156] Memory required for data: 1305673248
I0403 18:57:36.249788 18240 layer_factory.hpp:77] Creating layer inception_5a/output
I0403 18:57:36.249807 18240 net.cpp:91] Creating Layer inception_5a/output
I0403 18:57:36.249825 18240 net.cpp:425] inception_5a/output <- inception_5a/1x1
I0403 18:57:36.249841 18240 net.cpp:425] inception_5a/output <- inception_5a/3x3
I0403 18:57:36.249857 18240 net.cpp:425] inception_5a/output <- inception_5a/5x5
I0403 18:57:36.249873 18240 net.cpp:425] inception_5a/output <- inception_5a/pool_proj
I0403 18:57:36.249891 18240 net.cpp:399] inception_5a/output -> inception_5a/output
I0403 18:57:36.249943 18240 net.cpp:141] Setting up inception_5a/output
I0403 18:57:36.249966 18240 net.cpp:148] Top shape: 24 832 7 7 (978432)
I0403 18:57:36.249985 18240 net.cpp:156] Memory required for data: 1309586976
I0403 18:57:36.250001 18240 layer_factory.hpp:77] Creating layer inception_5a/output_inception_5a/output_0_split
I0403 18:57:36.250018 18240 net.cpp:91] Creating Layer inception_5a/output_inception_5a/output_0_split
I0403 18:57:36.250035 18240 net.cpp:425] inception_5a/output_inception_5a/output_0_split <- inception_5a/output
I0403 18:57:36.250056 18240 net.cpp:399] inception_5a/output_inception_5a/output_0_split -> inception_5a/output_inception_5a/output_0_split_0
I0403 18:57:36.250077 18240 net.cpp:399] inception_5a/output_inception_5a/output_0_split -> inception_5a/output_inception_5a/output_0_split_1
I0403 18:57:36.250097 18240 net.cpp:399] inception_5a/output_inception_5a/output_0_split -> inception_5a/output_inception_5a/output_0_split_2
I0403 18:57:36.250118 18240 net.cpp:399] inception_5a/output_inception_5a/output_0_split -> inception_5a/output_inception_5a/output_0_split_3
I0403 18:57:36.250231 18240 net.cpp:141] Setting up inception_5a/output_inception_5a/output_0_split
I0403 18:57:36.250257 18240 net.cpp:148] Top shape: 24 832 7 7 (978432)
I0403 18:57:36.250274 18240 net.cpp:148] Top shape: 24 832 7 7 (978432)
I0403 18:57:36.250291 18240 net.cpp:148] Top shape: 24 832 7 7 (978432)
I0403 18:57:36.250308 18240 net.cpp:148] Top shape: 24 832 7 7 (978432)
I0403 18:57:36.250321 18240 net.cpp:156] Memory required for data: 1325241888
I0403 18:57:36.250335 18240 layer_factory.hpp:77] Creating layer inception_5b/1x1
I0403 18:57:36.250358 18240 net.cpp:91] Creating Layer inception_5b/1x1
I0403 18:57:36.250376 18240 net.cpp:425] inception_5b/1x1 <- inception_5a/output_inception_5a/output_0_split_0
I0403 18:57:36.250396 18240 net.cpp:399] inception_5b/1x1 -> inception_5b/1x1
I0403 18:57:36.254166 18240 net.cpp:141] Setting up inception_5b/1x1
I0403 18:57:36.254196 18240 net.cpp:148] Top shape: 24 384 7 7 (451584)
I0403 18:57:36.254212 18240 net.cpp:156] Memory required for data: 1327048224
I0403 18:57:36.254231 18240 layer_factory.hpp:77] Creating layer inception_5b/relu_1x1
I0403 18:57:36.254254 18240 net.cpp:91] Creating Layer inception_5b/relu_1x1
I0403 18:57:36.254271 18240 net.cpp:425] inception_5b/relu_1x1 <- inception_5b/1x1
I0403 18:57:36.254289 18240 net.cpp:386] inception_5b/relu_1x1 -> inception_5b/1x1 (in-place)
I0403 18:57:36.254593 18240 net.cpp:141] Setting up inception_5b/relu_1x1
I0403 18:57:36.254619 18240 net.cpp:148] Top shape: 24 384 7 7 (451584)
I0403 18:57:36.254636 18240 net.cpp:156] Memory required for data: 1328854560
I0403 18:57:36.254650 18240 layer_factory.hpp:77] Creating layer inception_5b/3x3_reduce
I0403 18:57:36.254673 18240 net.cpp:91] Creating Layer inception_5b/3x3_reduce
I0403 18:57:36.254690 18240 net.cpp:425] inception_5b/3x3_reduce <- inception_5a/output_inception_5a/output_0_split_1
I0403 18:57:36.254712 18240 net.cpp:399] inception_5b/3x3_reduce -> inception_5b/3x3_reduce
I0403 18:57:36.257391 18240 net.cpp:141] Setting up inception_5b/3x3_reduce
I0403 18:57:36.257421 18240 net.cpp:148] Top shape: 24 192 7 7 (225792)
I0403 18:57:36.257437 18240 net.cpp:156] Memory required for data: 1329757728
I0403 18:57:36.257455 18240 layer_factory.hpp:77] Creating layer inception_5b/relu_3x3_reduce
I0403 18:57:36.257477 18240 net.cpp:91] Creating Layer inception_5b/relu_3x3_reduce
I0403 18:57:36.257493 18240 net.cpp:425] inception_5b/relu_3x3_reduce <- inception_5b/3x3_reduce
I0403 18:57:36.257511 18240 net.cpp:386] inception_5b/relu_3x3_reduce -> inception_5b/3x3_reduce (in-place)
I0403 18:57:36.257701 18240 net.cpp:141] Setting up inception_5b/relu_3x3_reduce
I0403 18:57:36.257731 18240 net.cpp:148] Top shape: 24 192 7 7 (225792)
I0403 18:57:36.257746 18240 net.cpp:156] Memory required for data: 1330660896
I0403 18:57:36.257762 18240 layer_factory.hpp:77] Creating layer inception_5b/3x3
I0403 18:57:36.257784 18240 net.cpp:91] Creating Layer inception_5b/3x3
I0403 18:57:36.257802 18240 net.cpp:425] inception_5b/3x3 <- inception_5b/3x3_reduce
I0403 18:57:36.257822 18240 net.cpp:399] inception_5b/3x3 -> inception_5b/3x3
I0403 18:57:36.264540 18240 net.cpp:141] Setting up inception_5b/3x3
I0403 18:57:36.264569 18240 net.cpp:148] Top shape: 24 384 7 7 (451584)
I0403 18:57:36.264585 18240 net.cpp:156] Memory required for data: 1332467232
I0403 18:57:36.264605 18240 layer_factory.hpp:77] Creating layer inception_5b/relu_3x3
I0403 18:57:36.264626 18240 net.cpp:91] Creating Layer inception_5b/relu_3x3
I0403 18:57:36.264643 18240 net.cpp:425] inception_5b/relu_3x3 <- inception_5b/3x3
I0403 18:57:36.264662 18240 net.cpp:386] inception_5b/relu_3x3 -> inception_5b/3x3 (in-place)
I0403 18:57:36.264962 18240 net.cpp:141] Setting up inception_5b/relu_3x3
I0403 18:57:36.264993 18240 net.cpp:148] Top shape: 24 384 7 7 (451584)
I0403 18:57:36.265009 18240 net.cpp:156] Memory required for data: 1334273568
I0403 18:57:36.265024 18240 layer_factory.hpp:77] Creating layer inception_5b/5x5_reduce
I0403 18:57:36.265061 18240 net.cpp:91] Creating Layer inception_5b/5x5_reduce
I0403 18:57:36.265080 18240 net.cpp:425] inception_5b/5x5_reduce <- inception_5a/output_inception_5a/output_0_split_2
I0403 18:57:36.265103 18240 net.cpp:399] inception_5b/5x5_reduce -> inception_5b/5x5_reduce
I0403 18:57:36.266432 18240 net.cpp:141] Setting up inception_5b/5x5_reduce
I0403 18:57:36.266459 18240 net.cpp:148] Top shape: 24 48 7 7 (56448)
I0403 18:57:36.266476 18240 net.cpp:156] Memory required for data: 1334499360
I0403 18:57:36.266494 18240 layer_factory.hpp:77] Creating layer inception_5b/relu_5x5_reduce
I0403 18:57:36.266515 18240 net.cpp:91] Creating Layer inception_5b/relu_5x5_reduce
I0403 18:57:36.266533 18240 net.cpp:425] inception_5b/relu_5x5_reduce <- inception_5b/5x5_reduce
I0403 18:57:36.266551 18240 net.cpp:386] inception_5b/relu_5x5_reduce -> inception_5b/5x5_reduce (in-place)
I0403 18:57:36.266932 18240 net.cpp:141] Setting up inception_5b/relu_5x5_reduce
I0403 18:57:36.266959 18240 net.cpp:148] Top shape: 24 48 7 7 (56448)
I0403 18:57:36.266975 18240 net.cpp:156] Memory required for data: 1334725152
I0403 18:57:36.266995 18240 layer_factory.hpp:77] Creating layer inception_5b/5x5
I0403 18:57:36.267017 18240 net.cpp:91] Creating Layer inception_5b/5x5
I0403 18:57:36.267033 18240 net.cpp:425] inception_5b/5x5 <- inception_5b/5x5_reduce
I0403 18:57:36.267053 18240 net.cpp:399] inception_5b/5x5 -> inception_5b/5x5
I0403 18:57:36.269130 18240 net.cpp:141] Setting up inception_5b/5x5
I0403 18:57:36.269158 18240 net.cpp:148] Top shape: 24 128 7 7 (150528)
I0403 18:57:36.269175 18240 net.cpp:156] Memory required for data: 1335327264
I0403 18:57:36.269193 18240 layer_factory.hpp:77] Creating layer inception_5b/relu_5x5
I0403 18:57:36.269214 18240 net.cpp:91] Creating Layer inception_5b/relu_5x5
I0403 18:57:36.269232 18240 net.cpp:425] inception_5b/relu_5x5 <- inception_5b/5x5
I0403 18:57:36.269251 18240 net.cpp:386] inception_5b/relu_5x5 -> inception_5b/5x5 (in-place)
I0403 18:57:36.269448 18240 net.cpp:141] Setting up inception_5b/relu_5x5
I0403 18:57:36.269474 18240 net.cpp:148] Top shape: 24 128 7 7 (150528)
I0403 18:57:36.269489 18240 net.cpp:156] Memory required for data: 1335929376
I0403 18:57:36.269505 18240 layer_factory.hpp:77] Creating layer inception_5b/pool
I0403 18:57:36.269522 18240 net.cpp:91] Creating Layer inception_5b/pool
I0403 18:57:36.269539 18240 net.cpp:425] inception_5b/pool <- inception_5a/output_inception_5a/output_0_split_3
I0403 18:57:36.269561 18240 net.cpp:399] inception_5b/pool -> inception_5b/pool
I0403 18:57:36.269634 18240 net.cpp:141] Setting up inception_5b/pool
I0403 18:57:36.269659 18240 net.cpp:148] Top shape: 24 832 7 7 (978432)
I0403 18:57:36.269675 18240 net.cpp:156] Memory required for data: 1339843104
I0403 18:57:36.269690 18240 layer_factory.hpp:77] Creating layer inception_5b/pool_proj
I0403 18:57:36.269713 18240 net.cpp:91] Creating Layer inception_5b/pool_proj
I0403 18:57:36.269732 18240 net.cpp:425] inception_5b/pool_proj <- inception_5b/pool
I0403 18:57:36.269752 18240 net.cpp:399] inception_5b/pool_proj -> inception_5b/pool_proj
I0403 18:57:36.272078 18240 net.cpp:141] Setting up inception_5b/pool_proj
I0403 18:57:36.272109 18240 net.cpp:148] Top shape: 24 128 7 7 (150528)
I0403 18:57:36.272125 18240 net.cpp:156] Memory required for data: 1340445216
I0403 18:57:36.272145 18240 layer_factory.hpp:77] Creating layer inception_5b/relu_pool_proj
I0403 18:57:36.272166 18240 net.cpp:91] Creating Layer inception_5b/relu_pool_proj
I0403 18:57:36.272183 18240 net.cpp:425] inception_5b/relu_pool_proj <- inception_5b/pool_proj
I0403 18:57:36.272202 18240 net.cpp:386] inception_5b/relu_pool_proj -> inception_5b/pool_proj (in-place)
I0403 18:57:36.272508 18240 net.cpp:141] Setting up inception_5b/relu_pool_proj
I0403 18:57:36.272536 18240 net.cpp:148] Top shape: 24 128 7 7 (150528)
I0403 18:57:36.272550 18240 net.cpp:156] Memory required for data: 1341047328
I0403 18:57:36.272567 18240 layer_factory.hpp:77] Creating layer inception_5b/output
I0403 18:57:36.272586 18240 net.cpp:91] Creating Layer inception_5b/output
I0403 18:57:36.272616 18240 net.cpp:425] inception_5b/output <- inception_5b/1x1
I0403 18:57:36.272635 18240 net.cpp:425] inception_5b/output <- inception_5b/3x3
I0403 18:57:36.272652 18240 net.cpp:425] inception_5b/output <- inception_5b/5x5
I0403 18:57:36.272670 18240 net.cpp:425] inception_5b/output <- inception_5b/pool_proj
I0403 18:57:36.272686 18240 net.cpp:399] inception_5b/output -> inception_5b/output
I0403 18:57:36.272740 18240 net.cpp:141] Setting up inception_5b/output
I0403 18:57:36.272763 18240 net.cpp:148] Top shape: 24 1024 7 7 (1204224)
I0403 18:57:36.272779 18240 net.cpp:156] Memory required for data: 1345864224
I0403 18:57:36.272794 18240 layer_factory.hpp:77] Creating layer pool5/7x7_s1
I0403 18:57:36.272811 18240 net.cpp:91] Creating Layer pool5/7x7_s1
I0403 18:57:36.272828 18240 net.cpp:425] pool5/7x7_s1 <- inception_5b/output
I0403 18:57:36.272881 18240 net.cpp:399] pool5/7x7_s1 -> pool5/7x7_s1
I0403 18:57:36.273111 18240 net.cpp:141] Setting up pool5/7x7_s1
I0403 18:57:36.273151 18240 net.cpp:148] Top shape: 24 1024 1 1 (24576)
I0403 18:57:36.273167 18240 net.cpp:156] Memory required for data: 1345962528
I0403 18:57:36.273183 18240 layer_factory.hpp:77] Creating layer pool5/drop_7x7_s1
I0403 18:57:36.273201 18240 net.cpp:91] Creating Layer pool5/drop_7x7_s1
I0403 18:57:36.273218 18240 net.cpp:425] pool5/drop_7x7_s1 <- pool5/7x7_s1
I0403 18:57:36.273236 18240 net.cpp:386] pool5/drop_7x7_s1 -> pool5/7x7_s1 (in-place)
I0403 18:57:36.273288 18240 net.cpp:141] Setting up pool5/drop_7x7_s1
I0403 18:57:36.273311 18240 net.cpp:148] Top shape: 24 1024 1 1 (24576)
I0403 18:57:36.273326 18240 net.cpp:156] Memory required for data: 1346060832
I0403 18:57:36.273341 18240 layer_factory.hpp:77] Creating layer loss3/classifier_plantvillage
I0403 18:57:36.273365 18240 net.cpp:91] Creating Layer loss3/classifier_plantvillage
I0403 18:57:36.273382 18240 net.cpp:425] loss3/classifier_plantvillage <- pool5/7x7_s1
I0403 18:57:36.273401 18240 net.cpp:399] loss3/classifier_plantvillage -> loss3/classifier_plantvillage
I0403 18:57:36.273829 18240 net.cpp:141] Setting up loss3/classifier_plantvillage
I0403 18:57:36.273854 18240 net.cpp:148] Top shape: 24 38 (912)
I0403 18:57:36.273869 18240 net.cpp:156] Memory required for data: 1346064480
I0403 18:57:36.273887 18240 layer_factory.hpp:77] Creating layer loss3/classifier_plantvillage_loss3/classifier_plantvillage_0_split
I0403 18:57:36.273905 18240 net.cpp:91] Creating Layer loss3/classifier_plantvillage_loss3/classifier_plantvillage_0_split
I0403 18:57:36.273922 18240 net.cpp:425] loss3/classifier_plantvillage_loss3/classifier_plantvillage_0_split <- loss3/classifier_plantvillage
I0403 18:57:36.273943 18240 net.cpp:399] loss3/classifier_plantvillage_loss3/classifier_plantvillage_0_split -> loss3/classifier_plantvillage_loss3/classifier_plantvillage_0_split_0
I0403 18:57:36.273965 18240 net.cpp:399] loss3/classifier_plantvillage_loss3/classifier_plantvillage_0_split -> loss3/classifier_plantvillage_loss3/classifier_plantvillage_0_split_1
I0403 18:57:36.273990 18240 net.cpp:399] loss3/classifier_plantvillage_loss3/classifier_plantvillage_0_split -> loss3/classifier_plantvillage_loss3/classifier_plantvillage_0_split_2
I0403 18:57:36.274013 18240 net.cpp:399] loss3/classifier_plantvillage_loss3/classifier_plantvillage_0_split -> loss3/classifier_plantvillage_loss3/classifier_plantvillage_0_split_3
I0403 18:57:36.274116 18240 net.cpp:141] Setting up loss3/classifier_plantvillage_loss3/classifier_plantvillage_0_split
I0403 18:57:36.274142 18240 net.cpp:148] Top shape: 24 38 (912)
I0403 18:57:36.274159 18240 net.cpp:148] Top shape: 24 38 (912)
I0403 18:57:36.274175 18240 net.cpp:148] Top shape: 24 38 (912)
I0403 18:57:36.274191 18240 net.cpp:148] Top shape: 24 38 (912)
I0403 18:57:36.274207 18240 net.cpp:156] Memory required for data: 1346079072
I0403 18:57:36.274221 18240 layer_factory.hpp:77] Creating layer loss1/loss
I0403 18:57:36.274243 18240 net.cpp:91] Creating Layer loss1/loss
I0403 18:57:36.274260 18240 net.cpp:425] loss1/loss <- loss1/classifier_plantvillage_loss1/classifier_plantvillage_0_split_0
I0403 18:57:36.274291 18240 net.cpp:425] loss1/loss <- label_data_1_split_0
…
