…
I0403 18:54:47.364469 18069 net.cpp:313] The NetState phase (1) differed from the phase (0) specified by a rule in layer data
I0403 18:54:47.365654 18069 net.cpp:49] Initializing net from parameters: 
state {
  phase: TEST
}
layer {
  name: "data"
  type: "Data"
  top: "data"
  top: "label"
  include {
    phase: TEST
  }
  transform_param {
    mirror: false
    crop_size: 224
    mean_file: "/home/mohanty/data/final_dataset/lmdb/segmented-60-40/mean.binaryproto"
  }
  data_param {
    source: "/home/mohanty/data/final_dataset/lmdb/segmented-60-40/test_db"
    batch_size: 24
    backend: LMDB
  }
}
layer {
  name: "conv1/7x7_s2"
  type: "Convolution"
  bottom: "data"
  top: "conv1/7x7_s2"
  param {
    lr_mult: 1
    decay_mult: 1
  }
  param {
    lr_mult: 2
    decay_mult: 0
  }
  convolution_param {
    num_output: 64
    pad: 3
    kernel_size: 7
    stride: 2
    weight_filler {
      type: "xavier"
      std: 0.1
    }
    bias_filler {
      type: "constant"
      value: 0.2
    }
  }
}
layer {
  name: "conv1/relu_7x7"
  type: "ReLU"
  bottom: "conv1/7x7_s2"
  top: "conv1/7x7_s2"
}
layer {
  name: "pool1/3x3_s2"
  type: "Pooling"
  bottom: "conv1/7x7_s2"
  top: "pool1/3x3_s2"
  pooling_param {
    pool: MAX
    kernel_size: 3
    stride: 2
  }
}
layer {
  name: "pool1/norm1"
  type: "LRN"
  bottom: "pool1/3x3_s2"
  top: "pool1/norm1"
  lrn_param {
    local_size: 5
    alpha: 0.0001
    beta: 0.75
  }
}
layer {
  name: "conv2/3x3_reduce"
  type: "Convolution"
  bottom: "pool1/norm1"
  top: "conv2/3x3_reduce"
  param {
    lr_mult: 1
    decay_mult: 1
  }
  param {
    lr_mult: 2
    decay_mult: 0
  }
  convolution_param {
    num_output: 64
    kernel_size: 1
    weight_filler {
      type: "xavier"
      std: 0.1
    }
    bias_filler {
      type: "constant"
      value: 0.2
    }
  }
}
layer {
  name: "conv2/relu_3x3_reduce"
  type: "ReLU"
  bottom: "conv2/3x3_reduce"
  top: "conv2/3x3_reduce"
}
layer {
  name: "conv2/3x3"
  type: "Convolution"
  bottom: "conv2/3x3_reduce"
  top: "conv2/3x3"
  param {
    lr_mult: 1
    decay_mult: 1
  }
  param {
    lr_mult: 2
    decay_mult: 0
  }
  convolution_param {
    num_output: 192
    pad: 1
    kernel_size: 3
    weight_filler {
      type: "xavier"
      std: 0.03
    }
    bias_filler {
      type: "constant"
      value: 0.2
    }
  }
}
layer {
  name: "conv2/relu_3x3"
  type: "ReLU"
  bottom: "conv2/3x3"
  top: "conv2/3x3"
}
layer {
  name: "conv2/norm2"
  type: "LRN"
  bottom: "conv2/3x3"
  top: "conv2/norm2"
  lrn_param {
    local_size: 5
    alpha: 0.0001
    beta: 0.75
  }
}
layer {
  name: "pool2/3x3_s2"
  type: "Pooling"
  bottom: "conv2/norm2"
  top: "pool2/3x3_s2"
  pooling_param {
    pool: MAX
    kernel_size: 3
    stride: 2
  }
}
layer {
  name: "inception_3a/1x1"
  type: "Convolution"
  bottom: "pool2/3x3_s2"
  top: "inception_3a/1x1"
  param {
    lr_mult: 1
    decay_mult: 1
  }
  param {
    lr_mult: 2
    decay_mult: 0
  }
  convolution_param {
    num_output: 64
    kernel_size: 1
    weight_filler {
      type: "xavier"
      std: 0.03
    }
    bias_filler {
      type: "constant"
      value: 0.2
    }
  }
}
layer {
  name: "inception_3a/relu_1x1"
  type: "ReLU"
  bottom: "inception_3a/1x1"
  top: "inception_3a/1x1"
}
layer {
  name: "inception_3a/3x3_reduce"
  type: "Convolution"
  bottom: "pool2/3x3_s2"
  top: "inception_3a/3x3_reduce"
  param {
    lr_mult: 1
    decay_mult: 1
  }
  param {
    lr_mult: 2
    decay_mult: 0
  }
  convolution_param {
    num_output: 96
    kernel_size: 1
    weight_filler {
      type: "xavier"
      std: 0.09
    }
    bias_filler {
      type: "constant"
      value: 0.2
    }
  }
}
layer {
  name: "inception_3a/relu_3x3_reduce"
  type: "ReLU"
  bottom: "inception_3a/3x3_reduce"
  top: "inception_3a/3x3_reduce"
}
layer {
  name: "inception_3a/3x3"
  type: "Convolution"
  bottom: "inception_3a/3x3_reduce"
  top: "inception_3a/3x3"
  param {
    lr_mult: 1
    decay_mult: 1
  }
  param {
    lr_mult: 2
    decay_mult: 0
  }
  convolution_param {
    num_output: 128
    pad: 1
    kernel_size: 3
    weight_filler {
      type: "xavier"
      std: 0.03
    }
    bias_filler {
      type: "constant"
      value: 0.2
    }
  }
}
layer {
  name: "inception_3a/relu_3x3"
  type: "ReLU"
  bottom: "inception_3a/3x3"
  top: "inception_3a/3x3"
}
layer {
  name: "inception_3a/5x5_reduce"
  type: "Convolution"
  bottom: "pool2/3x3_s2"
  top: "inception_3a/5x5_reduce"
  param {
    lr_mult: 1
    decay_mult: 1
  }
  param {
    lr_mult: 2
    decay_mult: 0
  }
  convolution_param {
    num_output: 16
    kernel_size: 1
    weight_filler {
      type: "xavier"
      std: 0.2
    }
    bias_filler {
      type: "constant"
      value: 0.2
    }
  }
}
layer {
  name: "inception_3a/relu_5x5_reduce"
  type: "ReLU"
  bottom: "inception_3a/5x5_reduce"
  top: "inception_3a/5x5_reduce"
}
layer {
  name: "inception_3a/5x5"
  type: "Convolution"
  bottom: "inception_3a/5x5_reduce"
  top: "inception_3a/5x5"
  param {
    lr_mult: 1
    decay_mult: 1
  }
  param {
    lr_mult: 2
    decay_mult: 0
  }
  convolution_param {
    num_output: 32
    pad: 2
    kernel_size: 5
    weight_filler {
      type: "xavier"
      std: 0.03
    }
    bias_filler {
      type: "constant"
      value: 0.2
    }
  }
}
layer {
  name: "inception_3a/relu_5x5"
  type: "ReLU"
  bottom: "inception_3a/5x5"
  top: "inception_3a/5x5"
}
layer {
  name: "inception_3a/pool"
  type: "Pooling"
  bottom: "pool2/3x3_s2"
  top: "inception_3a/pool"
  pooling_param {
    pool: MAX
    kernel_size: 3
    stride: 1
    pad: 1
  }
}
layer {
  name: "inception_3a/pool_proj"
  type: "Convolution"
  bottom: "inception_3a/pool"
  top: "inception_3a/pool_proj"
  param {
    lr_mult: 1
    decay_mult: 1
  }
  param {
    lr_mult: 2
    decay_mult: 0
  }
  convolution_param {
    num_output: 32
    kernel_size: 1
    weight_filler {
      type: "xavier"
      std: 0.1
    }
    bias_filler {
      type: "constant"
      value: 0.2
    }
  }
}
layer {
  name: "inception_3a/relu_pool_proj"
  type: "ReLU"
  bottom: "inception_3a/pool_proj"
  top: "inception_3a/pool_proj"
}
layer {
  name: "inception_3a/output"
  type: "Concat"
  bottom: "inception_3a/1x1"
  bottom: "inception_3a/3x3"
  bottom: "inception_3a/5x5"
  bottom: "inception_3a/pool_proj"
  top: "inception_3a/output"
}
layer {
  name: "inception_3b/1x1"
  type: "Convolution"
  bottom: "inception_3a/output"
  top: "inception_3b/1x1"
  param {
    lr_mult: 1
    decay_mult: 1
  }
  param {
    lr_mult: 2
    decay_mult: 0
  }
  convolution_param {
    num_output: 128
    kernel_size: 1
    weight_filler {
      type: "xavier"
      std: 0.03
    }
    bias_filler {
      type: "constant"
      value: 0.2
    }
  }
}
layer {
  name: "inception_3b/relu_1x1"
  type: "ReLU"
  bottom: "inception_3b/1x1"
  top: "inception_3b/1x1"
}
layer {
  name: "inception_3b/3x3_reduce"
  type: "Convolution"
  bottom: "inception_3a/output"
  top: "inception_3b/3x3_reduce"
  param {
    lr_mult: 1
    decay_mult: 1
  }
  param {
    lr_mult: 2
    decay_mult: 0
  }
  convolution_param {
    num_output: 128
    kernel_size: 1
    weight_filler {
      type: "xavier"
      std: 0.09
    }
    bias_filler {
      type: "constant"
      value: 0.2
    }
  }
}
layer {
  name: "inception_3b/relu_3x3_reduce"
  type: "ReLU"
  bottom: "inception_3b/3x3_reduce"
  top: "inception_3b/3x3_reduce"
}
layer {
  name: "inception_3b/3x3"
  type: "Convolution"
  bottom: "inception_3b/3x3_reduce"
  top: "inception_3b/3x3"
  param {
    lr_mult: 1
    decay_mult: 1
  }
  param {
    lr_mult: 2
    decay_mult: 0
  }
  convolution_param {
    num_output: 192
    pad: 1
    kernel_size: 3
    weight_filler {
      type: "xavier"
      std: 0.03
    }
    bias_filler {
      type: "constant"
      value: 0.2
    }
  }
}
layer {
  name: "inception_3b/relu_3x3"
  type: "ReLU"
  bottom: "inception_3b/3x3"
  top: "inception_3b/3x3"
}
layer {
  name: "inception_3b/5x5_reduce"
  type: "Convolution"
  bottom: "inception_3a/output"
  top: "inception_3b/5x5_reduce"
  param {
    lr_mult: 1
    decay_mult: 1
  }
  param {
    lr_mult: 2
    decay_mult: 0
  }
  convolution_param {
    num_output: 32
    kernel_size: 1
    weight_filler {
      type: "xavier"
      std: 0.2
    }
    bias_filler {
      type: "constant"
      value: 0.2
    }
  }
}
layer {
  name: "inception_3b/relu_5x5_reduce"
  type: "ReLU"
  bottom: "inception_3b/5x5_reduce"
  top: "inception_3b/5x5_reduce"
}
layer {
  name: "inception_3b/5x5"
  type: "Convolution"
  bottom: "inception_3b/5x5_reduce"
  top: "inception_3b/5x5"
  param {
    lr_mult: 1
    decay_mult: 1
  }
  param {
    lr_mult: 2
    decay_mult: 0
  }
  convolution_param {
    num_output: 96
    pad: 2
    kernel_size: 5
    weight_filler {
      type: "xavier"
      std: 0.03
    }
    bias_filler {
      type: "constant"
      value: 0.2
    }
  }
}
layer {
  name: "inception_3b/relu_5x5"
  type: "ReLU"
  bottom: "inception_3b/5x5"
  top: "inception_3b/5x5"
}
layer {
  name: "inception_3b/pool"
  type: "Pooling"
  bottom: "inception_3a/output"
  top: "inception_3b/pool"
  pooling_param {
    pool: MAX
    kernel_size: 3
    stride: 1
    pad: 1
  }
}
layer {
  name: "inception_3b/pool_proj"
  type: "Convolution"
  bottom: "inception_3b/pool"
  top: "inception_3b/pool_proj"
  param {
    lr_mult: 1
    decay_mult: 1
  }
  param {
    lr_mult: 2
    decay_mult: 0
  }
  convolution_param {
    num_output: 64
    kernel_size: 1
    weight_filler {
      type: "xavier"
      std: 0.1
    }
    bias_filler {
      type: "constant"
      value: 0.2
    }
  }
}
layer {
  name: "inception_3b/relu_pool_proj"
  type: "ReLU"
  bottom: "inception_3b/pool_proj"
  top: "inception_3b/pool_proj"
}
layer {
  name: "inception_3b/output"
  type: "Concat"
  bottom: "inception_3b/1x1"
  bottom: "inception_3b/3x3"
  bottom: "inception_3b/5x5"
  bottom: "inception_3b/pool_proj"
  top: "inception_3b/output"
}
layer {
  name: "pool3/3x3_s2"
  type: "Pooling"
  bottom: "inception_3b/output"
  top: "pool3/3x3_s2"
  pooling_param {
    pool: MAX
    kernel_size: 3
    stride: 2
  }
}
layer {
  name: "inception_4a/1x1"
  type: "Convolution"
  bottom: "pool3/3x3_s2"
  top: "inception_4a/1x1"
  param {
    lr_mult: 1
    decay_mult: 1
  }
  param {
    lr_mult: 2
    decay_mult: 0
  }
  convolution_param {
    num_output: 192
    kernel_size: 1
    weight_filler {
      type: "xavier"
      std: 0.03
    }
    bias_filler {
      type: "constant"
      value: 0.2
    }
  }
}
layer {
  name: "inception_4a/relu_1x1"
  type: "ReLU"
  bottom: "inception_4a/1x1"
  top: "inception_4a/1x1"
}
layer {
  name: "inception_4a/3x3_reduce"
  type: "Convolution"
  bottom: "pool3/3x3_s2"
  top: "inception_4a/3x3_reduce"
  param {
    lr_mult: 1
    decay_mult: 1
  }
  param {
    lr_mult: 2
    decay_mult: 0
  }
  convolution_param {
    num_output: 96
    kernel_size: 1
    weight_filler {
      type: "xavier"
      std: 0.09
    }
    bias_filler {
      type: "constant"
      value: 0.2
    }
  }
}
layer {
  name: "inception_4a/relu_3x3_reduce"
  type: "ReLU"
  bottom: "inception_4a/3x3_reduce"
  top: "inception_4a/3x3_reduce"
}
layer {
  name: "inception_4a/3x3"
  type: "Convolution"
  bottom: "inception_4a/3x3_reduce"
  top: "inception_4a/3x3"
  param {
    lr_mult: 1
    decay_mult: 1
  }
  param {
    lr_mult: 2
    decay_mult: 0
  }
  convolution_param {
    num_output: 208
    pad: 1
    kernel_size: 3
    weight_filler {
      type: "xavier"
      std: 0.03
    }
    bias_filler {
      type: "constant"
      value: 0.2
    }
  }
}
layer {
  name: "inception_4a/relu_3x3"
  type: "ReLU"
  bottom: "inception_4a/3x3"
  top: "inception_4a/3x3"
}
layer {
  name: "inception_4a/5x5_reduce"
  type: "Convolution"
  bottom: "pool3/3x3_s2"
  top: "inception_4a/5x5_reduce"
  param {
    lr_mult: 1
    decay_mult: 1
  }
  param {
    lr_mult: 2
    decay_mult: 0
  }
  convolution_param {
    num_output: 16
    kernel_size: 1
    weight_filler {
      type: "xavier"
      std: 0.2
    }
    bias_filler {
      type: "constant"
      value: 0.2
    }
  }
}
layer {
  name: "inception_4a/relu_5x5_reduce"
  type: "ReLU"
  bottom: "inception_4a/5x5_reduce"
  top: "inception_4a/5x5_reduce"
}
layer {
  name: "inception_4a/5x5"
  type: "Convolution"
  bottom: "inception_4a/5x5_reduce"
  top: "inception_4a/5x5"
  param {
    lr_mult: 1
    decay_mult: 1
  }
  param {
    lr_mult: 2
    decay_mult: 0
  }
  convolution_param {
    num_output: 48
    pad: 2
    kernel_size: 5
    weight_filler {
      type: "xavier"
      std: 0.03
    }
    bias_filler {
      type: "constant"
      value: 0.2
    }
  }
}
layer {
  name: "inception_4a/relu_5x5"
  type: "ReLU"
  bottom: "inception_4a/5x5"
  top: "inception_4a/5x5"
}
layer {
  name: "inception_4a/pool"
  type: "Pooling"
  bottom: "pool3/3x3_s2"
  top: "inception_4a/pool"
  pooling_param {
    pool: MAX
    kernel_size: 3
    stride: 1
    pad: 1
  }
}
layer {
  name: "inception_4a/pool_proj"
  type: "Convolution"
  bottom: "inception_4a/pool"
  top: "inception_4a/pool_proj"
  param {
    lr_mult: 1
    decay_mult: 1
  }
  param {
    lr_mult: 2
    decay_mult: 0
  }
  convolution_param {
    num_output: 64
    kernel_size: 1
    weight_filler {
      type: "xavier"
      std: 0.1
    }
    bias_filler {
      type: "constant"
      value: 0.2
    }
  }
}
layer {
  name: "inception_4a/relu_pool_proj"
  type: "ReLU"
  bottom: "inception_4a/pool_proj"
  top: "inception_4a/pool_proj"
}
layer {
  name: "inception_4a/output"
  type: "Concat"
  bottom: "inception_4a/1x1"
  bottom: "inception_4a/3x3"
  bottom: "inception_4a/5x5"
  bottom: "inception_4a/pool_proj"
  top: "inception_4a/output"
}
layer {
  name: "loss1/ave_pool"
  type: "Pooling"
  bottom: "inception_4a/output"
  top: "loss1/ave_pool"
  pooling_param {
    pool: AVE
    kernel_size: 5
    stride: 3
  }
}
layer {
  name: "loss1/conv"
  type: "Convolution"
  bottom: "loss1/ave_pool"
  top: "loss1/conv"
  param {
    lr_mult: 1
    decay_mult: 1
  }
  param {
    lr_mult: 2
    decay_mult: 0
  }
  convolution_param {
    num_output: 128
    kernel_size: 1
    weight_filler {
      type: "xavier"
      std: 0.08
    }
    bias_filler {
      type: "constant"
      value: 0.2
    }
  }
}
layer {
  name: "loss1/relu_conv"
  type: "ReLU"
  bottom: "loss1/conv"
  top: "loss1/conv"
}
layer {
  name: "loss1/fc"
  type: "InnerProduct"
  bottom: "loss1/conv"
  top: "loss1/fc"
  param {
    lr_mult: 1
    decay_mult: 1
  }
  param {
    lr_mult: 2
    decay_mult: 0
  }
  inner_product_param {
    num_output: 1024
    weight_filler {
      type: "xavier"
      std: 0.02
    }
    bias_filler {
      type: "constant"
      value: 0.2
    }
  }
}
layer {
  name: "loss1/relu_fc"
  type: "ReLU"
  bottom: "loss1/fc"
  top: "loss1/fc"
}
layer {
  name: "loss1/drop_fc"
  type: "Dropout"
  bottom: "loss1/fc"
  top: "loss1/fc"
  dropout_param {
    dropout_ratio: 0.7
  }
}
layer {
  name: "loss1/classifier_plantvillage"
  type: "InnerProduct"
  bottom: "loss1/fc"
  top: "loss1/classifier_plantvillage"
  param {
    lr_mult: 1
    decay_mult: 1
  }
  param {
    lr_mult: 2
    decay_mult: 0
  }
  inner_product_param {
    num_output: 38
    weight_filler {
      type: "xavier"
      std: 0.0009765625
    }
    bias_filler {
      type: "constant"
      value: 0
    }
  }
}
layer {
  name: "inception_4b/1x1"
  type: "Convolution"
  bottom: "inception_4a/output"
  top: "inception_4b/1x1"
  param {
    lr_mult: 1
    decay_mult: 1
  }
  param {
    lr_mult: 2
    decay_mult: 0
  }
  convolution_param {
    num_output: 160
    kernel_size: 1
    weight_filler {
      type: "xavier"
      std: 0.03
    }
    bias_filler {
      type: "constant"
      value: 0.2
    }
  }
}
layer {
  name: "inception_4b/relu_1x1"
  type: "ReLU"
  bottom: "inception_4b/1x1"
  top: "inception_4b/1x1"
}
layer {
  name: "inception_4b/3x3_reduce"
  type: "Convolution"
  bottom: "inception_4a/output"
  top: "inception_4b/3x3_reduce"
  param {
    lr_mult: 1
    decay_mult: 1
  }
  param {
    lr_mult: 2
    decay_mult: 0
  }
  convolution_param {
    num_output: 112
    kernel_size: 1
    weight_filler {
      type: "xavier"
      std: 0.09
    }
    bias_filler {
      type: "constant"
      value: 0.2
    }
  }
}
layer {
  name: "inception_4b/relu_3x3_reduce"
  type: "ReLU"
  bottom: "inception_4b/3x3_reduce"
  top: "inception_4b/3x3_reduce"
}
layer {
  name: "inception_4b/3x3"
  type: "Convolution"
  bottom: "inception_4b/3x3_reduce"
  top: "inception_4b/3x3"
  param {
    lr_mult: 1
    decay_mult: 1
  }
  param {
    lr_mult: 2
    decay_mult: 0
  }
  convolution_param {
    num_output: 224
    pad: 1
    kernel_size: 3
    weight_filler {
      type: "xavier"
      std: 0.03
    }
    bias_filler {
      type: "constant"
      value: 0.2
    }
  }
}
layer {
  name: "inception_4b/relu_3x3"
  type: "ReLU"
  bottom: "inception_4b/3x3"
  top: "inception_4b/3x3"
}
layer {
  name: "inception_4b/5x5_reduce"
  type: "Convolution"
  bottom: "inception_4a/output"
  top: "inception_4b/5x5_reduce"
  param {
    lr_mult: 1
    decay_mult: 1
  }
  param {
    lr_mult: 2
    decay_mult: 0
  }
  convolution_param {
    num_output: 24
    kernel_size: 1
    weight_filler {
      type: "xavier"
      std: 0.2
    }
    bias_filler {
      type: "constant"
      value: 0.2
    }
  }
}
layer {
  name: "inception_4b/relu_5x5_reduce"
  type: "ReLU"
  bottom: "inception_4b/5x5_reduce"
  top: "inception_4b/5x5_reduce"
}
layer {
  name: "inception_4b/5x5"
  type: "Convolution"
  bottom: "inception_4b/5x5_reduce"
  top: "inception_4b/5x5"
  param {
    lr_mult: 1
    decay_mult: 1
  }
  param {
    lr_mult: 2
    decay_mult: 0
  }
  convolution_param {
    num_output: 64
    pad: 2
    kernel_size: 5
    weight_filler {
      type: "xavier"
      std: 0.03
    }
    bias_filler {
      type: "constant"
      value: 0.2
    }
  }
}
layer {
  name: "inception_4b/relu_5x5"
  type: "ReLU"
  bottom: "inception_4b/5x5"
  top: "inception_4b/5x5"
}
layer {
  name: "inception_4b/pool"
  type: "Pooling"
  bottom: "inception_4a/output"
  top: "inception_4b/pool"
  pooling_param {
    pool: MAX
    kernel_size: 3
    stride: 1
    pad: 1
  }
}
layer {
  name: "inception_4b/pool_proj"
  type: "Convolution"
  bottom: "inception_4b/pool"
  top: "inception_4b/pool_proj"
  param {
    lr_mult: 1
    decay_mult: 1
  }
  param {
    lr_mult: 2
    decay_mult: 0
  }
  convolution_param {
    num_output: 64
    kernel_size: 1
    weight_filler {
      type: "xavier"
      std: 0.1
    }
    bias_filler {
      type: "constant"
      value: 0.2
    }
  }
}
layer {
  name: "inception_4b/relu_pool_proj"
  type: "ReLU"
  bottom: "inception_4b/pool_proj"
  top: "inception_4b/pool_proj"
}
layer {
  name: "inception_4b/output"
  type: "Concat"
  bottom: "inception_4b/1x1"
  bottom: "inception_4b/3x3"
  bottom: "inception_4b/5x5"
  bottom: "inception_4b/pool_proj"
  top: "inception_4b/output"
}
layer {
  name: "inception_4c/1x1"
  type: "Convolution"
  bottom: "inception_4b/output"
  top: "inception_4c/1x1"
  param {
    lr_mult: 1
    decay_mult: 1
  }
  param {
    lr_mult: 2
    decay_mult: 0
  }
  convolution_param {
    num_output: 128
    kernel_size: 1
    weight_filler {
      type: "xavier"
      std: 0.03
    }
    bias_filler {
      type: "constant"
      value: 0.2
    }
  }
}
layer {
  name: "inception_4c/relu_1x1"
  type: "ReLU"
  bottom: "inception_4c/1x1"
  top: "inception_4c/1x1"
}
layer {
  name: "inception_4c/3x3_reduce"
  type: "Convolution"
  bottom: "inception_4b/output"
  top: "inception_4c/3x3_reduce"
  param {
    lr_mult: 1
    decay_mult: 1
  }
  param {
    lr_mult: 2
    decay_mult: 0
  }
  convolution_param {
    num_output: 128
    kernel_size: 1
    weight_filler {
      type: "xavier"
      std: 0.09
    }
    bias_filler {
      type: "constant"
      value: 0.2
    }
  }
}
layer {
  name: "inception_4c/relu_3x3_reduce"
  type: "ReLU"
  bottom: "inception_4c/3x3_reduce"
  top: "inception_4c/3x3_reduce"
}
layer {
  name: "inception_4c/3x3"
  type: "Convolution"
  bottom: "inception_4c/3x3_reduce"
  top: "inception_4c/3x3"
  param {
    lr_mult: 1
    decay_mult: 1
  }
  param {
    lr_mult: 2
    decay_mult: 0
  }
  convolution_param {
    num_output: 256
    pad: 1
    kernel_size: 3
    weight_filler {
      type: "xavier"
      std: 0.03
    }
    bias_filler {
      type: "constant"
      value: 0.2
    }
  }
}
layer {
  name: "inception_4c/relu_3x3"
  type: "ReLU"
  bottom: "inception_4c/3x3"
  top: "inception_4c/3x3"
}
layer {
  name: "inception_4c/5x5_reduce"
  type: "Convolution"
  bottom: "inception_4b/output"
  top: "inception_4c/5x5_reduce"
  param {
    lr_mult: 1
    decay_mult: 1
  }
  param {
    lr_mult: 2
    decay_mult: 0
  }
  convolution_param {
    num_output: 24
    kernel_size: 1
    weight_filler {
      type: "xavier"
      std: 0.2
    }
    bias_filler {
      type: "constant"
      value: 0.2
    }
  }
}
layer {
  name: "inception_4c/relu_5x5_reduce"
  type: "ReLU"
  bottom: "inception_4c/5x5_reduce"
  top: "inception_4c/5x5_reduce"
}
layer {
  name: "inception_4c/5x5"
  type: "Convolution"
  bottom: "inception_4c/5x5_reduce"
  top: "inception_4c/5x5"
  param {
    lr_mult: 1
    decay_mult: 1
  }
  param {
    lr_mult: 2
    decay_mult: 0
  }
  convolution_param {
    num_output: 64
    pad: 2
    kernel_size: 5
    weight_filler {
      type: "xavier"
      std: 0.03
    }
    bias_filler {
      type: "constant"
      value: 0.2
    }
  }
}
layer {
  name: "inception_4c/relu_5x5"
  type: "ReLU"
  bottom: "inception_4c/5x5"
  top: "inception_4c/5x5"
}
layer {
  name: "inception_4c/pool"
  type: "Pooling"
  bottom: "inception_4b/output"
  top: "inception_4c/pool"
  pooling_param {
    pool: MAX
    kernel_size: 3
    stride: 1
    pad: 1
  }
}
layer {
  name: "inception_4c/pool_proj"
  type: "Convolution"
  bottom: "inception_4c/pool"
  top: "inception_4c/pool_proj"
  param {
    lr_mult: 1
    decay_mult: 1
  }
  param {
    lr_mult: 2
    decay_mult: 0
  }
  convolution_param {
    num_output: 64
    kernel_size: 1
    weight_filler {
      type: "xavier"
      std: 0.1
    }
    bias_filler {
      type: "constant"
      value: 0.2
    }
  }
}
layer {
  name: "inception_4c/relu_pool_proj"
  type: "ReLU"
  bottom: "inception_4c/pool_proj"
  top: "inception_4c/pool_proj"
}
layer {
  name: "inception_4c/output"
  type: "Concat"
  bottom: "inception_4c/1x1"
  bottom: "inception_4c/3x3"
  bottom: "inception_4c/5x5"
  bottom: "inception_4c/pool_proj"
  top: "inception_4c/output"
}
layer {
  name: "inception_4d/1x1"
  type: "Convolution"
  bottom: "inception_4c/output"
  top: "inception_4d/1x1"
  param {
    lr_mult: 1
    decay_mult: 1
  }
  param {
    lr_mult: 2
    decay_mult: 0
  }
  convolution_param {
    num_output: 112
    kernel_size: 1
    weight_filler {
      type: "xavier"
      std: 0.03
    }
    bias_filler {
      type: "constant"
      value: 0.2
    }
  }
}
layer {
  name: "inception_4d/relu_1x1"
  type: "ReLU"
  bottom: "inception_4d/1x1"
  top: "inception_4d/1x1"
}
layer {
  name: "inception_4d/3x3_reduce"
  type: "Convolution"
  bottom: "inception_4c/output"
  top: "inception_4d/3x3_reduce"
  param {
    lr_mult: 1
    decay_mult: 1
  }
  param {
    lr_mult: 2
    decay_mult: 0
  }
  convolution_param {
    num_output: 144
    kernel_size: 1
    weight_filler {
      type: "xavier"
      std: 0.09
    }
    bias_filler {
      type: "constant"
      value: 0.2
    }
  }
}
layer {
  name: "inception_4d/relu_3x3_reduce"
  type: "ReLU"
  bottom: "inception_4d/3x3_reduce"
  top: "inception_4d/3x3_reduce"
}
layer {
  name: "inception_4d/3x3"
  type: "Convolution"
  bottom: "inception_4d/3x3_reduce"
  top: "inception_4d/3x3"
  param {
    lr_mult: 1
    decay_mult: 1
  }
  param {
    lr_mult: 2
    decay_mult: 0
  }
  convolution_param {
    num_output: 288
    pad: 1
    kernel_size: 3
    weight_filler {
      type: "xavier"
      std: 0.03
    }
    bias_filler {
      type: "constant"
      value: 0.2
    }
  }
}
layer {
  name: "inception_4d/relu_3x3"
  type: "ReLU"
  bottom: "inception_4d/3x3"
  top: "inception_4d/3x3"
}
layer {
  name: "inception_4d/5x5_reduce"
  type: "Convolution"
  bottom: "inception_4c/output"
  top: "inception_4d/5x5_reduce"
  param {
    lr_mult: 1
    decay_mult: 1
  }
  param {
    lr_mult: 2
    decay_mult: 0
  }
  convolution_param {
    num_output: 32
    kernel_size: 1
    weight_filler {
      type: "xavier"
      std: 0.2
    }
    bias_filler {
      type: "constant"
      value: 0.2
    }
  }
}
layer {
  name: "inception_4d/relu_5x5_reduce"
  type: "ReLU"
  bottom: "inception_4d/5x5_reduce"
  top: "inception_4d/5x5_reduce"
}
layer {
  name: "inception_4d/5x5"
  type: "Convolution"
  bottom: "inception_4d/5x5_reduce"
  top: "inception_4d/5x5"
  param {
    lr_mult: 1
    decay_mult: 1
  }
  param {
    lr_mult: 2
    decay_mult: 0
  }
  convolution_param {
    num_output: 64
    pad: 2
    kernel_size: 5
    weight_filler {
      type: "xavier"
      std: 0.03
    }
    bias_filler {
      type: "constant"
      value: 0.2
    }
  }
}
layer {
  name: "inception_4d/relu_5x5"
  type: "ReLU"
  bottom: "inception_4d/5x5"
  top: "inception_4d/5x5"
}
layer {
  name: "inception_4d/pool"
  type: "Pooling"
  bottom: "inception_4c/output"
  top: "inception_4d/pool"
  pooling_param {
    pool: MAX
    kernel_size: 3
    stride: 1
    pad: 1
  }
}
layer {
  name: "inception_4d/pool_proj"
  type: "Convolution"
  bottom: "inception_4d/pool"
  top: "inception_4d/pool_proj"
  param {
    lr_mult: 1
    decay_mult: 1
  }
  param {
    lr_mult: 2
    decay_mult: 0
  }
  convolution_param {
    num_output: 64
    kernel_size: 1
    weight_filler {
      type: "xavier"
      std: 0.1
    }
    bias_filler {
      type: "constant"
      value: 0.2
    }
  }
}
layer {
  name: "inception_4d/relu_pool_proj"
  type: "ReLU"
  bottom: "inception_4d/pool_proj"
  top: "inception_4d/pool_proj"
}
layer {
  name: "inception_4d/output"
  type: "Concat"
  bottom: "inception_4d/1x1"
  bottom: "inception_4d/3x3"
  bottom: "inception_4d/5x5"
  bottom: "inception_4d/pool_proj"
  top: "inception_4d/output"
}
layer {
  name: "loss2/ave_pool"
  type: "Pooling"
  bottom: "inception_4d/output"
  top: "loss2/ave_pool"
  pooling_param {
    pool: AVE
    kernel_size: 5
    stride: 3
  }
}
layer {
  name: "loss2/conv"
  type: "Convolution"
  bottom: "loss2/ave_pool"
  top: "loss2/conv"
  param {
    lr_mult: 1
    decay_mult: 1
  }
  param {
    lr_mult: 2
    decay_mult: 0
  }
  convolution_param {
    num_output: 128
    kernel_size: 1
    weight_filler {
      type: "xavier"
      std: 0.08
    }
    bias_filler {
      type: "constant"
      value: 0.2
    }
  }
}
layer {
  name: "loss2/relu_conv"
  type: "ReLU"
  bottom: "loss2/conv"
  top: "loss2/conv"
}
layer {
  name: "loss2/fc"
  type: "InnerProduct"
  bottom: "loss2/conv"
  top: "loss2/fc"
  param {
    lr_mult: 1
    decay_mult: 1
  }
  param {
    lr_mult: 2
    decay_mult: 0
  }
  inner_product_param {
    num_output: 1024
    weight_filler {
      type: "xavier"
      std: 0.02
    }
    bias_filler {
      type: "constant"
      value: 0.2
    }
  }
}
layer {
  name: "loss2/relu_fc"
  type: "ReLU"
  bottom: "loss2/fc"
  top: "loss2/fc"
}
layer {
  name: "loss2/drop_fc"
  type: "Dropout"
  bottom: "loss2/fc"
  top: "loss2/fc"
  dropout_param {
    dropout_ratio: 0.7
  }
}
layer {
  name: "loss2/classifier_plantvillage"
  type: "InnerProduct"
  bottom: "loss2/fc"
  top: "loss2/classifier_plantvillage"
  param {
    lr_mult: 1
    decay_mult: 1
  }
  param {
    lr_mult: 2
    decay_mult: 0
  }
  inner_product_param {
    num_output: 38
    weight_filler {
      type: "xavier"
      std: 0.0009765625
    }
    bias_filler {
      type: "constant"
      value: 0
    }
  }
}
layer {
  name: "inception_4e/1x1"
  type: "Convolution"
  bottom: "inception_4d/output"
  top: "inception_4e/1x1"
  param {
    lr_mult: 1
    decay_mult: 1
  }
  param {
    lr_mult: 2
    decay_mult: 0
  }
  convolution_param {
    num_output: 256
    kernel_size: 1
    weight_filler {
      type: "xavier"
      std: 0.03
    }
    bias_filler {
      type: "constant"
      value: 0.2
    }
  }
}
layer {
  name: "inception_4e/relu_1x1"
  type: "ReLU"
  bottom: "inception_4e/1x1"
  top: "inception_4e/1x1"
}
layer {
  name: "inception_4e/3x3_reduce"
  type: "Convolution"
  bottom: "inception_4d/output"
  top: "inception_4e/3x3_reduce"
  param {
    lr_mult: 1
    decay_mult: 1
  }
  param {
    lr_mult: 2
    decay_mult: 0
  }
  convolution_param {
    num_output: 160
    kernel_size: 1
    weight_filler {
      type: "xavier"
      std: 0.09
    }
    bias_filler {
      type: "constant"
      value: 0.2
    }
  }
}
layer {
  name: "inception_4e/relu_3x3_reduce"
  type: "ReLU"
  bottom: "inception_4e/3x3_reduce"
  top: "inception_4e/3x3_reduce"
}
layer {
  name: "inception_4e/3x3"
  type: "Convolution"
  bottom: "inception_4e/3x3_reduce"
  top: "inception_4e/3x3"
  param {
    lr_mult: 1
    decay_mult: 1
  }
  param {
    lr_mult: 2
    decay_mult: 0
  }
  convolution_param {
    num_output: 320
    pad: 1
    kernel_size: 3
    weight_filler {
      type: "xavier"
      std: 0.03
    }
    bias_filler {
      type: "constant"
      value: 0.2
    }
  }
}
layer {
  name: "inception_4e/relu_3x3"
  type: "ReLU"
  bottom: "inception_4e/3x3"
  top: "inception_4e/3x3"
}
layer {
  name: "inception_4e/5x5_reduce"
  type: "Convolution"
  bottom: "inception_4d/output"
  top: "inception_4e/5x5_reduce"
  param {
    lr_mult: 1
    decay_mult: 1
  }
  param {
    lr_mult: 2
    decay_mult: 0
  }
  convolution_param {
    num_output: 32
    kernel_size: 1
    weight_filler {
      type: "xavier"
      std: 0.2
    }
    bias_filler {
      type: "constant"
      value: 0.2
    }
  }
}
layer {
  name: "inception_4e/relu_5x5_reduce"
  type: "ReLU"
  bottom: "inception_4e/5x5_reduce"
  top: "inception_4e/5x5_reduce"
}
layer {
  name: "inception_4e/5x5"
  type: "Convolution"
  bottom: "inception_4e/5x5_reduce"
  top: "inception_4e/
I0403 18:54:47.366854 18069 layer_factory.hpp:77] Creating layer data
I0403 18:54:47.367447 18069 net.cpp:91] Creating Layer data
I0403 18:54:47.367477 18069 net.cpp:399] data -> data
I0403 18:54:47.367528 18069 net.cpp:399] data -> label
I0403 18:54:47.367564 18069 data_transformer.cpp:25] Loading mean file from: /home/mohanty/data/final_dataset/lmdb/segmented-60-40/mean.binaryproto
I0403 18:54:47.368695 18072 db_lmdb.cpp:38] Opened lmdb /home/mohanty/data/final_dataset/lmdb/segmented-60-40/test_db
I0403 18:54:47.380307 18069 data_layer.cpp:41] output data size: 24,3,224,224
I0403 18:54:47.406812 18069 net.cpp:141] Setting up data
I0403 18:54:47.406904 18069 net.cpp:148] Top shape: 24 3 224 224 (3612672)
I0403 18:54:47.406927 18069 net.cpp:148] Top shape: 24 (24)
I0403 18:54:47.406944 18069 net.cpp:156] Memory required for data: 14450784
I0403 18:54:47.406970 18069 layer_factory.hpp:77] Creating layer label_data_1_split
I0403 18:54:47.407001 18069 net.cpp:91] Creating Layer label_data_1_split
I0403 18:54:47.407021 18069 net.cpp:425] label_data_1_split <- label
I0403 18:54:47.407053 18069 net.cpp:399] label_data_1_split -> label_data_1_split_0
I0403 18:54:47.407083 18069 net.cpp:399] label_data_1_split -> label_data_1_split_1
I0403 18:54:47.407105 18069 net.cpp:399] label_data_1_split -> label_data_1_split_2
I0403 18:54:47.407127 18069 net.cpp:399] label_data_1_split -> label_data_1_split_3
I0403 18:54:47.407148 18069 net.cpp:399] label_data_1_split -> label_data_1_split_4
I0403 18:54:47.407181 18069 net.cpp:399] label_data_1_split -> label_data_1_split_5
I0403 18:54:47.407202 18069 net.cpp:399] label_data_1_split -> label_data_1_split_6
I0403 18:54:47.407222 18069 net.cpp:399] label_data_1_split -> label_data_1_split_7
I0403 18:54:47.407243 18069 net.cpp:399] label_data_1_split -> label_data_1_split_8
I0403 18:54:47.407263 18069 net.cpp:399] label_data_1_split -> label_data_1_split_9
I0403 18:54:47.407380 18069 net.cpp:141] Setting up label_data_1_split
I0403 18:54:47.407404 18069 net.cpp:148] Top shape: 24 (24)
I0403 18:54:47.407421 18069 net.cpp:148] Top shape: 24 (24)
I0403 18:54:47.407438 18069 net.cpp:148] Top shape: 24 (24)
I0403 18:54:47.407452 18069 net.cpp:148] Top shape: 24 (24)
I0403 18:54:47.407469 18069 net.cpp:148] Top shape: 24 (24)
I0403 18:54:47.407483 18069 net.cpp:148] Top shape: 24 (24)
I0403 18:54:47.407498 18069 net.cpp:148] Top shape: 24 (24)
I0403 18:54:47.407513 18069 net.cpp:148] Top shape: 24 (24)
I0403 18:54:47.407529 18069 net.cpp:148] Top shape: 24 (24)
I0403 18:54:47.407546 18069 net.cpp:148] Top shape: 24 (24)
I0403 18:54:47.407589 18069 net.cpp:156] Memory required for data: 14451744
I0403 18:54:47.407605 18069 layer_factory.hpp:77] Creating layer conv1/7x7_s2
I0403 18:54:47.407637 18069 net.cpp:91] Creating Layer conv1/7x7_s2
I0403 18:54:47.407656 18069 net.cpp:425] conv1/7x7_s2 <- data
I0403 18:54:47.407675 18069 net.cpp:399] conv1/7x7_s2 -> conv1/7x7_s2
I0403 18:54:47.545147 18069 net.cpp:141] Setting up conv1/7x7_s2
I0403 18:54:47.545222 18069 net.cpp:148] Top shape: 24 64 112 112 (19267584)
I0403 18:54:47.545241 18069 net.cpp:156] Memory required for data: 91522080
I0403 18:54:47.545274 18069 layer_factory.hpp:77] Creating layer conv1/relu_7x7
I0403 18:54:47.545301 18069 net.cpp:91] Creating Layer conv1/relu_7x7
I0403 18:54:47.545321 18069 net.cpp:425] conv1/relu_7x7 <- conv1/7x7_s2
I0403 18:54:47.545341 18069 net.cpp:386] conv1/relu_7x7 -> conv1/7x7_s2 (in-place)
I0403 18:54:47.545611 18069 net.cpp:141] Setting up conv1/relu_7x7
I0403 18:54:47.545639 18069 net.cpp:148] Top shape: 24 64 112 112 (19267584)
I0403 18:54:47.545656 18069 net.cpp:156] Memory required for data: 168592416
I0403 18:54:47.545672 18069 layer_factory.hpp:77] Creating layer pool1/3x3_s2
I0403 18:54:47.545698 18069 net.cpp:91] Creating Layer pool1/3x3_s2
I0403 18:54:47.545717 18069 net.cpp:425] pool1/3x3_s2 <- conv1/7x7_s2
I0403 18:54:47.545737 18069 net.cpp:399] pool1/3x3_s2 -> pool1/3x3_s2
I0403 18:54:47.545835 18069 net.cpp:141] Setting up pool1/3x3_s2
I0403 18:54:47.545861 18069 net.cpp:148] Top shape: 24 64 56 56 (4816896)
I0403 18:54:47.545877 18069 net.cpp:156] Memory required for data: 187860000
I0403 18:54:47.545893 18069 layer_factory.hpp:77] Creating layer pool1/norm1
I0403 18:54:47.545918 18069 net.cpp:91] Creating Layer pool1/norm1
I0403 18:54:47.545938 18069 net.cpp:425] pool1/norm1 <- pool1/3x3_s2
I0403 18:54:47.545956 18069 net.cpp:399] pool1/norm1 -> pool1/norm1
I0403 18:54:47.546264 18069 net.cpp:141] Setting up pool1/norm1
I0403 18:54:47.546293 18069 net.cpp:148] Top shape: 24 64 56 56 (4816896)
I0403 18:54:47.546310 18069 net.cpp:156] Memory required for data: 207127584
I0403 18:54:47.546326 18069 layer_factory.hpp:77] Creating layer conv2/3x3_reduce
I0403 18:54:47.546352 18069 net.cpp:91] Creating Layer conv2/3x3_reduce
I0403 18:54:47.546370 18069 net.cpp:425] conv2/3x3_reduce <- pool1/norm1
I0403 18:54:47.546389 18069 net.cpp:399] conv2/3x3_reduce -> conv2/3x3_reduce
I0403 18:54:47.547758 18069 net.cpp:141] Setting up conv2/3x3_reduce
I0403 18:54:47.547788 18069 net.cpp:148] Top shape: 24 64 56 56 (4816896)
I0403 18:54:47.547806 18069 net.cpp:156] Memory required for data: 226395168
I0403 18:54:47.547827 18069 layer_factory.hpp:77] Creating layer conv2/relu_3x3_reduce
I0403 18:54:47.547847 18069 net.cpp:91] Creating Layer conv2/relu_3x3_reduce
I0403 18:54:47.547863 18069 net.cpp:425] conv2/relu_3x3_reduce <- conv2/3x3_reduce
I0403 18:54:47.547880 18069 net.cpp:386] conv2/relu_3x3_reduce -> conv2/3x3_reduce (in-place)
I0403 18:54:47.548153 18069 net.cpp:141] Setting up conv2/relu_3x3_reduce
I0403 18:54:47.548182 18069 net.cpp:148] Top shape: 24 64 56 56 (4816896)
I0403 18:54:47.548197 18069 net.cpp:156] Memory required for data: 245662752
I0403 18:54:47.548221 18069 layer_factory.hpp:77] Creating layer conv2/3x3
I0403 18:54:47.548244 18069 net.cpp:91] Creating Layer conv2/3x3
I0403 18:54:47.548261 18069 net.cpp:425] conv2/3x3 <- conv2/3x3_reduce
I0403 18:54:47.548280 18069 net.cpp:399] conv2/3x3 -> conv2/3x3
I0403 18:54:47.550534 18069 net.cpp:141] Setting up conv2/3x3
I0403 18:54:47.550565 18069 net.cpp:148] Top shape: 24 192 56 56 (14450688)
I0403 18:54:47.550581 18069 net.cpp:156] Memory required for data: 303465504
I0403 18:54:47.550604 18069 layer_factory.hpp:77] Creating layer conv2/relu_3x3
I0403 18:54:47.550624 18069 net.cpp:91] Creating Layer conv2/relu_3x3
I0403 18:54:47.550640 18069 net.cpp:425] conv2/relu_3x3 <- conv2/3x3
I0403 18:54:47.550657 18069 net.cpp:386] conv2/relu_3x3 -> conv2/3x3 (in-place)
I0403 18:54:47.550837 18069 net.cpp:141] Setting up conv2/relu_3x3
I0403 18:54:47.550863 18069 net.cpp:148] Top shape: 24 192 56 56 (14450688)
I0403 18:54:47.550910 18069 net.cpp:156] Memory required for data: 361268256
I0403 18:54:47.550930 18069 layer_factory.hpp:77] Creating layer conv2/norm2
I0403 18:54:47.550950 18069 net.cpp:91] Creating Layer conv2/norm2
I0403 18:54:47.550966 18069 net.cpp:425] conv2/norm2 <- conv2/3x3
I0403 18:54:47.550990 18069 net.cpp:399] conv2/norm2 -> conv2/norm2
I0403 18:54:47.551298 18069 net.cpp:141] Setting up conv2/norm2
I0403 18:54:47.551326 18069 net.cpp:148] Top shape: 24 192 56 56 (14450688)
I0403 18:54:47.551342 18069 net.cpp:156] Memory required for data: 419071008
I0403 18:54:47.551357 18069 layer_factory.hpp:77] Creating layer pool2/3x3_s2
I0403 18:54:47.551375 18069 net.cpp:91] Creating Layer pool2/3x3_s2
I0403 18:54:47.551393 18069 net.cpp:425] pool2/3x3_s2 <- conv2/norm2
I0403 18:54:47.551410 18069 net.cpp:399] pool2/3x3_s2 -> pool2/3x3_s2
I0403 18:54:47.551460 18069 net.cpp:141] Setting up pool2/3x3_s2
I0403 18:54:47.551483 18069 net.cpp:148] Top shape: 24 192 28 28 (3612672)
I0403 18:54:47.551497 18069 net.cpp:156] Memory required for data: 433521696
I0403 18:54:47.551512 18069 layer_factory.hpp:77] Creating layer pool2/3x3_s2_pool2/3x3_s2_0_split
I0403 18:54:47.551529 18069 net.cpp:91] Creating Layer pool2/3x3_s2_pool2/3x3_s2_0_split
I0403 18:54:47.551545 18069 net.cpp:425] pool2/3x3_s2_pool2/3x3_s2_0_split <- pool2/3x3_s2
I0403 18:54:47.551563 18069 net.cpp:399] pool2/3x3_s2_pool2/3x3_s2_0_split -> pool2/3x3_s2_pool2/3x3_s2_0_split_0
I0403 18:54:47.551583 18069 net.cpp:399] pool2/3x3_s2_pool2/3x3_s2_0_split -> pool2/3x3_s2_pool2/3x3_s2_0_split_1
I0403 18:54:47.551602 18069 net.cpp:399] pool2/3x3_s2_pool2/3x3_s2_0_split -> pool2/3x3_s2_pool2/3x3_s2_0_split_2
I0403 18:54:47.551623 18069 net.cpp:399] pool2/3x3_s2_pool2/3x3_s2_0_split -> pool2/3x3_s2_pool2/3x3_s2_0_split_3
I0403 18:54:47.551687 18069 net.cpp:141] Setting up pool2/3x3_s2_pool2/3x3_s2_0_split
I0403 18:54:47.551710 18069 net.cpp:148] Top shape: 24 192 28 28 (3612672)
I0403 18:54:47.551726 18069 net.cpp:148] Top shape: 24 192 28 28 (3612672)
I0403 18:54:47.551743 18069 net.cpp:148] Top shape: 24 192 28 28 (3612672)
I0403 18:54:47.551759 18069 net.cpp:148] Top shape: 24 192 28 28 (3612672)
I0403 18:54:47.551772 18069 net.cpp:156] Memory required for data: 491324448
I0403 18:54:47.551787 18069 layer_factory.hpp:77] Creating layer inception_3a/1x1
I0403 18:54:47.551807 18069 net.cpp:91] Creating Layer inception_3a/1x1
I0403 18:54:47.551825 18069 net.cpp:425] inception_3a/1x1 <- pool2/3x3_s2_pool2/3x3_s2_0_split_0
I0403 18:54:47.551842 18069 net.cpp:399] inception_3a/1x1 -> inception_3a/1x1
I0403 18:54:47.553345 18069 net.cpp:141] Setting up inception_3a/1x1
I0403 18:54:47.553375 18069 net.cpp:148] Top shape: 24 64 28 28 (1204224)
I0403 18:54:47.553392 18069 net.cpp:156] Memory required for data: 496141344
I0403 18:54:47.553411 18069 layer_factory.hpp:77] Creating layer inception_3a/relu_1x1
I0403 18:54:47.553429 18069 net.cpp:91] Creating Layer inception_3a/relu_1x1
I0403 18:54:47.553447 18069 net.cpp:425] inception_3a/relu_1x1 <- inception_3a/1x1
I0403 18:54:47.553467 18069 net.cpp:386] inception_3a/relu_1x1 -> inception_3a/1x1 (in-place)
I0403 18:54:47.553644 18069 net.cpp:141] Setting up inception_3a/relu_1x1
I0403 18:54:47.553669 18069 net.cpp:148] Top shape: 24 64 28 28 (1204224)
I0403 18:54:47.553684 18069 net.cpp:156] Memory required for data: 500958240
I0403 18:54:47.553699 18069 layer_factory.hpp:77] Creating layer inception_3a/3x3_reduce
I0403 18:54:47.553722 18069 net.cpp:91] Creating Layer inception_3a/3x3_reduce
I0403 18:54:47.553740 18069 net.cpp:425] inception_3a/3x3_reduce <- pool2/3x3_s2_pool2/3x3_s2_0_split_1
I0403 18:54:47.553761 18069 net.cpp:399] inception_3a/3x3_reduce -> inception_3a/3x3_reduce
I0403 18:54:47.555479 18069 net.cpp:141] Setting up inception_3a/3x3_reduce
I0403 18:54:47.555507 18069 net.cpp:148] Top shape: 24 96 28 28 (1806336)
I0403 18:54:47.555524 18069 net.cpp:156] Memory required for data: 508183584
I0403 18:54:47.555546 18069 layer_factory.hpp:77] Creating layer inception_3a/relu_3x3_reduce
I0403 18:54:47.555586 18069 net.cpp:91] Creating Layer inception_3a/relu_3x3_reduce
I0403 18:54:47.555605 18069 net.cpp:425] inception_3a/relu_3x3_reduce <- inception_3a/3x3_reduce
I0403 18:54:47.555622 18069 net.cpp:386] inception_3a/relu_3x3_reduce -> inception_3a/3x3_reduce (in-place)
I0403 18:54:47.555805 18069 net.cpp:141] Setting up inception_3a/relu_3x3_reduce
I0403 18:54:47.555835 18069 net.cpp:148] Top shape: 24 96 28 28 (1806336)
I0403 18:54:47.555852 18069 net.cpp:156] Memory required for data: 515408928
I0403 18:54:47.555867 18069 layer_factory.hpp:77] Creating layer inception_3a/3x3
I0403 18:54:47.555891 18069 net.cpp:91] Creating Layer inception_3a/3x3
I0403 18:54:47.555909 18069 net.cpp:425] inception_3a/3x3 <- inception_3a/3x3_reduce
I0403 18:54:47.555929 18069 net.cpp:399] inception_3a/3x3 -> inception_3a/3x3
I0403 18:54:47.557610 18069 net.cpp:141] Setting up inception_3a/3x3
I0403 18:54:47.557639 18069 net.cpp:148] Top shape: 24 128 28 28 (2408448)
I0403 18:54:47.557654 18069 net.cpp:156] Memory required for data: 525042720
I0403 18:54:47.557672 18069 layer_factory.hpp:77] Creating layer inception_3a/relu_3x3
I0403 18:54:47.557693 18069 net.cpp:91] Creating Layer inception_3a/relu_3x3
I0403 18:54:47.557710 18069 net.cpp:425] inception_3a/relu_3x3 <- inception_3a/3x3
I0403 18:54:47.557729 18069 net.cpp:386] inception_3a/relu_3x3 -> inception_3a/3x3 (in-place)
I0403 18:54:47.558012 18069 net.cpp:141] Setting up inception_3a/relu_3x3
I0403 18:54:47.558038 18069 net.cpp:148] Top shape: 24 128 28 28 (2408448)
I0403 18:54:47.558054 18069 net.cpp:156] Memory required for data: 534676512
I0403 18:54:47.558070 18069 layer_factory.hpp:77] Creating layer inception_3a/5x5_reduce
I0403 18:54:47.558094 18069 net.cpp:91] Creating Layer inception_3a/5x5_reduce
I0403 18:54:47.558111 18069 net.cpp:425] inception_3a/5x5_reduce <- pool2/3x3_s2_pool2/3x3_s2_0_split_2
I0403 18:54:47.558133 18069 net.cpp:399] inception_3a/5x5_reduce -> inception_3a/5x5_reduce
I0403 18:54:47.559124 18069 net.cpp:141] Setting up inception_3a/5x5_reduce
I0403 18:54:47.559154 18069 net.cpp:148] Top shape: 24 16 28 28 (301056)
I0403 18:54:47.559170 18069 net.cpp:156] Memory required for data: 535880736
I0403 18:54:47.559188 18069 layer_factory.hpp:77] Creating layer inception_3a/relu_5x5_reduce
I0403 18:54:47.559209 18069 net.cpp:91] Creating Layer inception_3a/relu_5x5_reduce
I0403 18:54:47.559234 18069 net.cpp:425] inception_3a/relu_5x5_reduce <- inception_3a/5x5_reduce
I0403 18:54:47.559252 18069 net.cpp:386] inception_3a/relu_5x5_reduce -> inception_3a/5x5_reduce (in-place)
I0403 18:54:47.559557 18069 net.cpp:141] Setting up inception_3a/relu_5x5_reduce
I0403 18:54:47.559583 18069 net.cpp:148] Top shape: 24 16 28 28 (301056)
I0403 18:54:47.559598 18069 net.cpp:156] Memory required for data: 537084960
I0403 18:54:47.559613 18069 layer_factory.hpp:77] Creating layer inception_3a/5x5
I0403 18:54:47.559638 18069 net.cpp:91] Creating Layer inception_3a/5x5
I0403 18:54:47.559658 18069 net.cpp:425] inception_3a/5x5 <- inception_3a/5x5_reduce
I0403 18:54:47.559676 18069 net.cpp:399] inception_3a/5x5 -> inception_3a/5x5
I0403 18:54:47.560716 18069 net.cpp:141] Setting up inception_3a/5x5
I0403 18:54:47.560745 18069 net.cpp:148] Top shape: 24 32 28 28 (602112)
I0403 18:54:47.560760 18069 net.cpp:156] Memory required for data: 539493408
I0403 18:54:47.560778 18069 layer_factory.hpp:77] Creating layer inception_3a/relu_5x5
I0403 18:54:47.560797 18069 net.cpp:91] Creating Layer inception_3a/relu_5x5
I0403 18:54:47.560813 18069 net.cpp:425] inception_3a/relu_5x5 <- inception_3a/5x5
I0403 18:54:47.560832 18069 net.cpp:386] inception_3a/relu_5x5 -> inception_3a/5x5 (in-place)
I0403 18:54:47.561014 18069 net.cpp:141] Setting up inception_3a/relu_5x5
I0403 18:54:47.561039 18069 net.cpp:148] Top shape: 24 32 28 28 (602112)
I0403 18:54:47.561054 18069 net.cpp:156] Memory required for data: 541901856
I0403 18:54:47.561069 18069 layer_factory.hpp:77] Creating layer inception_3a/pool
I0403 18:54:47.561090 18069 net.cpp:91] Creating Layer inception_3a/pool
I0403 18:54:47.561120 18069 net.cpp:425] inception_3a/pool <- pool2/3x3_s2_pool2/3x3_s2_0_split_3
I0403 18:54:47.561141 18069 net.cpp:399] inception_3a/pool -> inception_3a/pool
I0403 18:54:47.561199 18069 net.cpp:141] Setting up inception_3a/pool
I0403 18:54:47.561223 18069 net.cpp:148] Top shape: 24 192 28 28 (3612672)
I0403 18:54:47.561239 18069 net.cpp:156] Memory required for data: 556352544
I0403 18:54:47.561254 18069 layer_factory.hpp:77] Creating layer inception_3a/pool_proj
I0403 18:54:47.561276 18069 net.cpp:91] Creating Layer inception_3a/pool_proj
I0403 18:54:47.561293 18069 net.cpp:425] inception_3a/pool_proj <- inception_3a/pool
I0403 18:54:47.561316 18069 net.cpp:399] inception_3a/pool_proj -> inception_3a/pool_proj
I0403 18:54:47.562330 18069 net.cpp:141] Setting up inception_3a/pool_proj
I0403 18:54:47.562361 18069 net.cpp:148] Top shape: 24 32 28 28 (602112)
I0403 18:54:47.562377 18069 net.cpp:156] Memory required for data: 558760992
I0403 18:54:47.562399 18069 layer_factory.hpp:77] Creating layer inception_3a/relu_pool_proj
I0403 18:54:47.562420 18069 net.cpp:91] Creating Layer inception_3a/relu_pool_proj
I0403 18:54:47.562438 18069 net.cpp:425] inception_3a/relu_pool_proj <- inception_3a/pool_proj
I0403 18:54:47.562456 18069 net.cpp:386] inception_3a/relu_pool_proj -> inception_3a/pool_proj (in-place)
I0403 18:54:47.562742 18069 net.cpp:141] Setting up inception_3a/relu_pool_proj
I0403 18:54:47.562769 18069 net.cpp:148] Top shape: 24 32 28 28 (602112)
I0403 18:54:47.562784 18069 net.cpp:156] Memory required for data: 561169440
I0403 18:54:47.562799 18069 layer_factory.hpp:77] Creating layer inception_3a/output
I0403 18:54:47.562819 18069 net.cpp:91] Creating Layer inception_3a/output
I0403 18:54:47.562834 18069 net.cpp:425] inception_3a/output <- inception_3a/1x1
I0403 18:54:47.562851 18069 net.cpp:425] inception_3a/output <- inception_3a/3x3
I0403 18:54:47.562867 18069 net.cpp:425] inception_3a/output <- inception_3a/5x5
I0403 18:54:47.562885 18069 net.cpp:425] inception_3a/output <- inception_3a/pool_proj
I0403 18:54:47.562903 18069 net.cpp:399] inception_3a/output -> inception_3a/output
I0403 18:54:47.562952 18069 net.cpp:141] Setting up inception_3a/output
I0403 18:54:47.562976 18069 net.cpp:148] Top shape: 24 256 28 28 (4816896)
I0403 18:54:47.562995 18069 net.cpp:156] Memory required for data: 580437024
I0403 18:54:47.563011 18069 layer_factory.hpp:77] Creating layer inception_3a/output_inception_3a/output_0_split
I0403 18:54:47.563029 18069 net.cpp:91] Creating Layer inception_3a/output_inception_3a/output_0_split
I0403 18:54:47.563045 18069 net.cpp:425] inception_3a/output_inception_3a/output_0_split <- inception_3a/output
I0403 18:54:47.563065 18069 net.cpp:399] inception_3a/output_inception_3a/output_0_split -> inception_3a/output_inception_3a/output_0_split_0
I0403 18:54:47.563086 18069 net.cpp:399] inception_3a/output_inception_3a/output_0_split -> inception_3a/output_inception_3a/output_0_split_1
I0403 18:54:47.563108 18069 net.cpp:399] inception_3a/output_inception_3a/output_0_split -> inception_3a/output_inception_3a/output_0_split_2
I0403 18:54:47.563130 18069 net.cpp:399] inception_3a/output_inception_3a/output_0_split -> inception_3a/output_inception_3a/output_0_split_3
I0403 18:54:47.563211 18069 net.cpp:141] Setting up inception_3a/output_inception_3a/output_0_split
I0403 18:54:47.563235 18069 net.cpp:148] Top shape: 24 256 28 28 (4816896)
I0403 18:54:47.563251 18069 net.cpp:148] Top shape: 24 256 28 28 (4816896)
I0403 18:54:47.563266 18069 net.cpp:148] Top shape: 24 256 28 28 (4816896)
I0403 18:54:47.563282 18069 net.cpp:148] Top shape: 24 256 28 28 (4816896)
I0403 18:54:47.563297 18069 net.cpp:156] Memory required for data: 657507360
I0403 18:54:47.563311 18069 layer_factory.hpp:77] Creating layer inception_3b/1x1
I0403 18:54:47.563334 18069 net.cpp:91] Creating Layer inception_3b/1x1
I0403 18:54:47.563352 18069 net.cpp:425] inception_3b/1x1 <- inception_3a/output_inception_3a/output_0_split_0
I0403 18:54:47.563374 18069 net.cpp:399] inception_3b/1x1 -> inception_3b/1x1
I0403 18:54:47.564533 18069 net.cpp:141] Setting up inception_3b/1x1
I0403 18:54:47.564575 18069 net.cpp:148] Top shape: 24 128 28 28 (2408448)
I0403 18:54:47.564594 18069 net.cpp:156] Memory required for data: 667141152
I0403 18:54:47.564612 18069 layer_factory.hpp:77] Creating layer inception_3b/relu_1x1
I0403 18:54:47.564630 18069 net.cpp:91] Creating Layer inception_3b/relu_1x1
I0403 18:54:47.564646 18069 net.cpp:425] inception_3b/relu_1x1 <- inception_3b/1x1
I0403 18:54:47.564667 18069 net.cpp:386] inception_3b/relu_1x1 -> inception_3b/1x1 (in-place)
I0403 18:54:47.564843 18069 net.cpp:141] Setting up inception_3b/relu_1x1
I0403 18:54:47.564869 18069 net.cpp:148] Top shape: 24 128 28 28 (2408448)
I0403 18:54:47.564884 18069 net.cpp:156] Memory required for data: 676774944
I0403 18:54:47.564899 18069 layer_factory.hpp:77] Creating layer inception_3b/3x3_reduce
I0403 18:54:47.564923 18069 net.cpp:91] Creating Layer inception_3b/3x3_reduce
I0403 18:54:47.564939 18069 net.cpp:425] inception_3b/3x3_reduce <- inception_3a/output_inception_3a/output_0_split_1
I0403 18:54:47.564960 18069 net.cpp:399] inception_3b/3x3_reduce -> inception_3b/3x3_reduce
I0403 18:54:47.566124 18069 net.cpp:141] Setting up inception_3b/3x3_reduce
I0403 18:54:47.566154 18069 net.cpp:148] Top shape: 24 128 28 28 (2408448)
I0403 18:54:47.566170 18069 net.cpp:156] Memory required for data: 686408736
I0403 18:54:47.566190 18069 layer_factory.hpp:77] Creating layer inception_3b/relu_3x3_reduce
I0403 18:54:47.566210 18069 net.cpp:91] Creating Layer inception_3b/relu_3x3_reduce
I0403 18:54:47.566226 18069 net.cpp:425] inception_3b/relu_3x3_reduce <- inception_3b/3x3_reduce
I0403 18:54:47.566248 18069 net.cpp:386] inception_3b/relu_3x3_reduce -> inception_3b/3x3_reduce (in-place)
I0403 18:54:47.566427 18069 net.cpp:141] Setting up inception_3b/relu_3x3_reduce
I0403 18:54:47.566452 18069 net.cpp:148] Top shape: 24 128 28 28 (2408448)
I0403 18:54:47.566468 18069 net.cpp:156] Memory required for data: 696042528
I0403 18:54:47.566483 18069 layer_factory.hpp:77] Creating layer inception_3b/3x3
I0403 18:54:47.566510 18069 net.cpp:91] Creating Layer inception_3b/3x3
I0403 18:54:47.566529 18069 net.cpp:425] inception_3b/3x3 <- inception_3b/3x3_reduce
I0403 18:54:47.566548 18069 net.cpp:399] inception_3b/3x3 -> inception_3b/3x3
I0403 18:54:47.569555 18069 net.cpp:141] Setting up inception_3b/3x3
I0403 18:54:47.569586 18069 net.cpp:148] Top shape: 24 192 28 28 (3612672)
I0403 18:54:47.569602 18069 net.cpp:156] Memory required for data: 710493216
I0403 18:54:47.569622 18069 layer_factory.hpp:77] Creating layer inception_3b/relu_3x3
I0403 18:54:47.569643 18069 net.cpp:91] Creating Layer inception_3b/relu_3x3
I0403 18:54:47.569661 18069 net.cpp:425] inception_3b/relu_3x3 <- inception_3b/3x3
I0403 18:54:47.569679 18069 net.cpp:386] inception_3b/relu_3x3 -> inception_3b/3x3 (in-place)
I0403 18:54:47.569975 18069 net.cpp:141] Setting up inception_3b/relu_3x3
I0403 18:54:47.570006 18069 net.cpp:148] Top shape: 24 192 28 28 (3612672)
I0403 18:54:47.570021 18069 net.cpp:156] Memory required for data: 724943904
I0403 18:54:47.570037 18069 layer_factory.hpp:77] Creating layer inception_3b/5x5_reduce
I0403 18:54:47.570061 18069 net.cpp:91] Creating Layer inception_3b/5x5_reduce
I0403 18:54:47.570080 18069 net.cpp:425] inception_3b/5x5_reduce <- inception_3a/output_inception_3a/output_0_split_2
I0403 18:54:47.570101 18069 net.cpp:399] inception_3b/5x5_reduce -> inception_3b/5x5_reduce
I0403 18:54:47.571110 18069 net.cpp:141] Setting up inception_3b/5x5_reduce
I0403 18:54:47.571138 18069 net.cpp:148] Top shape: 24 32 28 28 (602112)
I0403 18:54:47.571154 18069 net.cpp:156] Memory required for data: 727352352
I0403 18:54:47.571174 18069 layer_factory.hpp:77] Creating layer inception_3b/relu_5x5_reduce
I0403 18:54:47.571195 18069 net.cpp:91] Creating Layer inception_3b/relu_5x5_reduce
I0403 18:54:47.571214 18069 net.cpp:425] inception_3b/relu_5x5_reduce <- inception_3b/5x5_reduce
I0403 18:54:47.571233 18069 net.cpp:386] inception_3b/relu_5x5_reduce -> inception_3b/5x5_reduce (in-place)
I0403 18:54:47.571427 18069 net.cpp:141] Setting up inception_3b/relu_5x5_reduce
I0403 18:54:47.571454 18069 net.cpp:148] Top shape: 24 32 28 28 (602112)
I0403 18:54:47.571472 18069 net.cpp:156] Memory required for data: 729760800
I0403 18:54:47.571487 18069 layer_factory.hpp:77] Creating layer inception_3b/5x5
I0403 18:54:47.571507 18069 net.cpp:91] Creating Layer inception_3b/5x5
I0403 18:54:47.571524 18069 net.cpp:425] inception_3b/5x5 <- inception_3b/5x5_reduce
I0403 18:54:47.571545 18069 net.cpp:399] inception_3b/5x5 -> inception_3b/5x5
I0403 18:54:47.573586 18069 net.cpp:141] Setting up inception_3b/5x5
I0403 18:54:47.573616 18069 net.cpp:148] Top shape: 24 96 28 28 (1806336)
I0403 18:54:47.573632 18069 net.cpp:156] Memory required for data: 736986144
I0403 18:54:47.573652 18069 layer_factory.hpp:77] Creating layer inception_3b/relu_5x5
I0403 18:54:47.573669 18069 net.cpp:91] Creating Layer inception_3b/relu_5x5
I0403 18:54:47.573685 18069 net.cpp:425] inception_3b/relu_5x5 <- inception_3b/5x5
I0403 18:54:47.573705 18069 net.cpp:386] inception_3b/relu_5x5 -> inception_3b/5x5 (in-place)
I0403 18:54:47.573901 18069 net.cpp:141] Setting up inception_3b/relu_5x5
I0403 18:54:47.573926 18069 net.cpp:148] Top shape: 24 96 28 28 (1806336)
I0403 18:54:47.573941 18069 net.cpp:156] Memory required for data: 744211488
I0403 18:54:47.573957 18069 layer_factory.hpp:77] Creating layer inception_3b/pool
I0403 18:54:47.573976 18069 net.cpp:91] Creating Layer inception_3b/pool
I0403 18:54:47.573998 18069 net.cpp:425] inception_3b/pool <- inception_3a/output_inception_3a/output_0_split_3
I0403 18:54:47.574017 18069 net.cpp:399] inception_3b/pool -> inception_3b/pool
I0403 18:54:47.574076 18069 net.cpp:141] Setting up inception_3b/pool
I0403 18:54:47.574100 18069 net.cpp:148] Top shape: 24 256 28 28 (4816896)
I0403 18:54:47.574115 18069 net.cpp:156] Memory required for data: 763479072
I0403 18:54:47.574131 18069 layer_factory.hpp:77] Creating layer inception_3b/pool_proj
I0403 18:54:47.574153 18069 net.cpp:91] Creating Layer inception_3b/pool_proj
I0403 18:54:47.574172 18069 net.cpp:425] inception_3b/pool_proj <- inception_3b/pool
I0403 18:54:47.574193 18069 net.cpp:399] inception_3b/pool_proj -> inception_3b/pool_proj
I0403 18:54:47.575273 18069 net.cpp:141] Setting up inception_3b/pool_proj
I0403 18:54:47.575304 18069 net.cpp:148] Top shape: 24 64 28 28 (1204224)
I0403 18:54:47.575321 18069 net.cpp:156] Memory required for data: 768295968
I0403 18:54:47.575340 18069 layer_factory.hpp:77] Creating layer inception_3b/relu_pool_proj
I0403 18:54:47.575358 18069 net.cpp:91] Creating Layer inception_3b/relu_pool_proj
I0403 18:54:47.575376 18069 net.cpp:425] inception_3b/relu_pool_proj <- inception_3b/pool_proj
I0403 18:54:47.575392 18069 net.cpp:386] inception_3b/relu_pool_proj -> inception_3b/pool_proj (in-place)
I0403 18:54:47.575799 18069 net.cpp:141] Setting up inception_3b/relu_pool_proj
I0403 18:54:47.575826 18069 net.cpp:148] Top shape: 24 64 28 28 (1204224)
I0403 18:54:47.575842 18069 net.cpp:156] Memory required for data: 773112864
I0403 18:54:47.575857 18069 layer_factory.hpp:77] Creating layer inception_3b/output
I0403 18:54:47.575876 18069 net.cpp:91] Creating Layer inception_3b/output
I0403 18:54:47.575893 18069 net.cpp:425] inception_3b/output <- inception_3b/1x1
I0403 18:54:47.575911 18069 net.cpp:425] inception_3b/output <- inception_3b/3x3
I0403 18:54:47.575927 18069 net.cpp:425] inception_3b/output <- inception_3b/5x5
I0403 18:54:47.575943 18069 net.cpp:425] inception_3b/output <- inception_3b/pool_proj
I0403 18:54:47.575960 18069 net.cpp:399] inception_3b/output -> inception_3b/output
I0403 18:54:47.576010 18069 net.cpp:141] Setting up inception_3b/output
I0403 18:54:47.576035 18069 net.cpp:148] Top shape: 24 480 28 28 (9031680)
I0403 18:54:47.576050 18069 net.cpp:156] Memory required for data: 809239584
I0403 18:54:47.576064 18069 layer_factory.hpp:77] Creating layer pool3/3x3_s2
I0403 18:54:47.576082 18069 net.cpp:91] Creating Layer pool3/3x3_s2
I0403 18:54:47.576098 18069 net.cpp:425] pool3/3x3_s2 <- inception_3b/output
I0403 18:54:47.576133 18069 net.cpp:399] pool3/3x3_s2 -> pool3/3x3_s2
I0403 18:54:47.576195 18069 net.cpp:141] Setting up pool3/3x3_s2
I0403 18:54:47.576220 18069 net.cpp:148] Top shape: 24 480 14 14 (2257920)
I0403 18:54:47.576236 18069 net.cpp:156] Memory required for data: 818271264
I0403 18:54:47.576251 18069 layer_factory.hpp:77] Creating layer pool3/3x3_s2_pool3/3x3_s2_0_split
I0403 18:54:47.576270 18069 net.cpp:91] Creating Layer pool3/3x3_s2_pool3/3x3_s2_0_split
I0403 18:54:47.576287 18069 net.cpp:425] pool3/3x3_s2_pool3/3x3_s2_0_split <- pool3/3x3_s2
I0403 18:54:47.576306 18069 net.cpp:399] pool3/3x3_s2_pool3/3x3_s2_0_split -> pool3/3x3_s2_pool3/3x3_s2_0_split_0
I0403 18:54:47.576326 18069 net.cpp:399] pool3/3x3_s2_pool3/3x3_s2_0_split -> pool3/3x3_s2_pool3/3x3_s2_0_split_1
I0403 18:54:47.576347 18069 net.cpp:399] pool3/3x3_s2_pool3/3x3_s2_0_split -> pool3/3x3_s2_pool3/3x3_s2_0_split_2
I0403 18:54:47.576369 18069 net.cpp:399] pool3/3x3_s2_pool3/3x3_s2_0_split -> pool3/3x3_s2_pool3/3x3_s2_0_split_3
I0403 18:54:47.576444 18069 net.cpp:141] Setting up pool3/3x3_s2_pool3/3x3_s2_0_split
I0403 18:54:47.576467 18069 net.cpp:148] Top shape: 24 480 14 14 (2257920)
I0403 18:54:47.576488 18069 net.cpp:148] Top shape: 24 480 14 14 (2257920)
I0403 18:54:47.576503 18069 net.cpp:148] Top shape: 24 480 14 14 (2257920)
I0403 18:54:47.576519 18069 net.cpp:148] Top shape: 24 480 14 14 (2257920)
I0403 18:54:47.576534 18069 net.cpp:156] Memory required for data: 854397984
I0403 18:54:47.576550 18069 layer_factory.hpp:77] Creating layer inception_4a/1x1
I0403 18:54:47.576570 18069 net.cpp:91] Creating Layer inception_4a/1x1
I0403 18:54:47.576586 18069 net.cpp:425] inception_4a/1x1 <- pool3/3x3_s2_pool3/3x3_s2_0_split_0
I0403 18:54:47.576607 18069 net.cpp:399] inception_4a/1x1 -> inception_4a/1x1
I0403 18:54:47.578213 18069 net.cpp:141] Setting up inception_4a/1x1
I0403 18:54:47.578244 18069 net.cpp:148] Top shape: 24 192 14 14 (903168)
I0403 18:54:47.578261 18069 net.cpp:156] Memory required for data: 858010656
I0403 18:54:47.578280 18069 layer_factory.hpp:77] Creating layer inception_4a/relu_1x1
I0403 18:54:47.578299 18069 net.cpp:91] Creating Layer inception_4a/relu_1x1
I0403 18:54:47.578315 18069 net.cpp:425] inception_4a/relu_1x1 <- inception_4a/1x1
I0403 18:54:47.578332 18069 net.cpp:386] inception_4a/relu_1x1 -> inception_4a/1x1 (in-place)
I0403 18:54:47.578515 18069 net.cpp:141] Setting up inception_4a/relu_1x1
I0403 18:54:47.578541 18069 net.cpp:148] Top shape: 24 192 14 14 (903168)
I0403 18:54:47.578557 18069 net.cpp:156] Memory required for data: 861623328
I0403 18:54:47.578570 18069 layer_factory.hpp:77] Creating layer inception_4a/3x3_reduce
I0403 18:54:47.578593 18069 net.cpp:91] Creating Layer inception_4a/3x3_reduce
I0403 18:54:47.578610 18069 net.cpp:425] inception_4a/3x3_reduce <- pool3/3x3_s2_pool3/3x3_s2_0_split_1
I0403 18:54:47.578632 18069 net.cpp:399] inception_4a/3x3_reduce -> inception_4a/3x3_reduce
I0403 18:54:47.579952 18069 net.cpp:141] Setting up inception_4a/3x3_reduce
I0403 18:54:47.579987 18069 net.cpp:148] Top shape: 24 96 14 14 (451584)
I0403 18:54:47.580004 18069 net.cpp:156] Memory required for data: 863429664
I0403 18:54:47.580030 18069 layer_factory.hpp:77] Creating layer inception_4a/relu_3x3_reduce
I0403 18:54:47.580050 18069 net.cpp:91] Creating Layer inception_4a/relu_3x3_reduce
I0403 18:54:47.580067 18069 net.cpp:425] inception_4a/relu_3x3_reduce <- inception_4a/3x3_reduce
I0403 18:54:47.580085 18069 net.cpp:386] inception_4a/relu_3x3_reduce -> inception_4a/3x3_reduce (in-place)
I0403 18:54:47.580266 18069 net.cpp:141] Setting up inception_4a/relu_3x3_reduce
I0403 18:54:47.580293 18069 net.cpp:148] Top shape: 24 96 14 14 (451584)
I0403 18:54:47.580309 18069 net.cpp:156] Memory required for data: 865236000
I0403 18:54:47.580325 18069 layer_factory.hpp:77] Creating layer inception_4a/3x3
I0403 18:54:47.580349 18069 net.cpp:91] Creating Layer inception_4a/3x3
I0403 18:54:47.580368 18069 net.cpp:425] inception_4a/3x3 <- inception_4a/3x3_reduce
I0403 18:54:47.580387 18069 net.cpp:399] inception_4a/3x3 -> inception_4a/3x3
I0403 18:54:47.583125 18069 net.cpp:141] Setting up inception_4a/3x3
I0403 18:54:47.583155 18069 net.cpp:148] Top shape: 24 208 14 14 (978432)
I0403 18:54:47.583173 18069 net.cpp:156] Memory required for data: 869149728
I0403 18:54:47.583190 18069 layer_factory.hpp:77] Creating layer inception_4a/relu_3x3
I0403 18:54:47.583219 18069 net.cpp:91] Creating Layer inception_4a/relu_3x3
I0403 18:54:47.583235 18069 net.cpp:425] inception_4a/relu_3x3 <- inception_4a/3x3
I0403 18:54:47.583256 18069 net.cpp:386] inception_4a/relu_3x3 -> inception_4a/3x3 (in-place)
I0403 18:54:47.583541 18069 net.cpp:141] Setting up inception_4a/relu_3x3
I0403 18:54:47.583569 18069 net.cpp:148] Top shape: 24 208 14 14 (978432)
I0403 18:54:47.583583 18069 net.cpp:156] Memory required for data: 873063456
I0403 18:54:47.583600 18069 layer_factory.hpp:77] Creating layer inception_4a/5x5_reduce
I0403 18:54:47.583623 18069 net.cpp:91] Creating Layer inception_4a/5x5_reduce
I0403 18:54:47.583642 18069 net.cpp:425] inception_4a/5x5_reduce <- pool3/3x3_s2_pool3/3x3_s2_0_split_2
I0403 18:54:47.583665 18069 net.cpp:399] inception_4a/5x5_reduce -> inception_4a/5x5_reduce
I0403 18:54:47.584707 18069 net.cpp:141] Setting up inception_4a/5x5_reduce
I0403 18:54:47.584735 18069 net.cpp:148] Top shape: 24 16 14 14 (75264)
I0403 18:54:47.584751 18069 net.cpp:156] Memory required for data: 873364512
I0403 18:54:47.584770 18069 layer_factory.hpp:77] Creating layer inception_4a/relu_5x5_reduce
I0403 18:54:47.584789 18069 net.cpp:91] Creating Layer inception_4a/relu_5x5_reduce
I0403 18:54:47.584806 18069 net.cpp:425] inception_4a/relu_5x5_reduce <- inception_4a/5x5_reduce
I0403 18:54:47.584826 18069 net.cpp:386] inception_4a/relu_5x5_reduce -> inception_4a/5x5_reduce (in-place)
I0403 18:54:47.585013 18069 net.cpp:141] Setting up inception_4a/relu_5x5_reduce
I0403 18:54:47.585039 18069 net.cpp:148] Top shape: 24 16 14 14 (75264)
I0403 18:54:47.585054 18069 net.cpp:156] Memory required for data: 873665568
I0403 18:54:47.585069 18069 layer_factory.hpp:77] Creating layer inception_4a/5x5
I0403 18:54:47.585093 18069 net.cpp:91] Creating Layer inception_4a/5x5
I0403 18:54:47.585109 18069 net.cpp:425] inception_4a/5x5 <- inception_4a/5x5_reduce
I0403 18:54:47.585130 18069 net.cpp:399] inception_4a/5x5 -> inception_4a/5x5
I0403 18:54:47.586235 18069 net.cpp:141] Setting up inception_4a/5x5
I0403 18:54:47.586262 18069 net.cpp:148] Top shape: 24 48 14 14 (225792)
I0403 18:54:47.586278 18069 net.cpp:156] Memory required for data: 874568736
I0403 18:54:47.586298 18069 layer_factory.hpp:77] Creating layer inception_4a/relu_5x5
I0403 18:54:47.586318 18069 net.cpp:91] Creating Layer inception_4a/relu_5x5
I0403 18:54:47.586335 18069 net.cpp:425] inception_4a/relu_5x5 <- inception_4a/5x5
I0403 18:54:47.586354 18069 net.cpp:386] inception_4a/relu_5x5 -> inception_4a/5x5 (in-place)
I0403 18:54:47.586534 18069 net.cpp:141] Setting up inception_4a/relu_5x5
I0403 18:54:47.586562 18069 net.cpp:148] Top shape: 24 48 14 14 (225792)
I0403 18:54:47.586578 18069 net.cpp:156] Memory required for data: 875471904
I0403 18:54:47.586594 18069 layer_factory.hpp:77] Creating layer inception_4a/pool
I0403 18:54:47.586612 18069 net.cpp:91] Creating Layer inception_4a/pool
I0403 18:54:47.586629 18069 net.cpp:425] inception_4a/pool <- pool3/3x3_s2_pool3/3x3_s2_0_split_3
I0403 18:54:47.586650 18069 net.cpp:399] inception_4a/pool -> inception_4a/pool
I0403 18:54:47.586711 18069 net.cpp:141] Setting up inception_4a/pool
I0403 18:54:47.586735 18069 net.cpp:148] Top shape: 24 480 14 14 (2257920)
I0403 18:54:47.586750 18069 net.cpp:156] Memory required for data: 884503584
I0403 18:54:47.586765 18069 layer_factory.hpp:77] Creating layer inception_4a/pool_proj
I0403 18:54:47.586787 18069 net.cpp:91] Creating Layer inception_4a/pool_proj
I0403 18:54:47.586805 18069 net.cpp:425] inception_4a/pool_proj <- inception_4a/pool
I0403 18:54:47.586825 18069 net.cpp:399] inception_4a/pool_proj -> inception_4a/pool_proj
I0403 18:54:47.588011 18069 net.cpp:141] Setting up inception_4a/pool_proj
I0403 18:54:47.588040 18069 net.cpp:148] Top shape: 24 64 14 14 (301056)
I0403 18:54:47.588071 18069 net.cpp:156] Memory required for data: 885707808
I0403 18:54:47.588095 18069 layer_factory.hpp:77] Creating layer inception_4a/relu_pool_proj
I0403 18:54:47.588114 18069 net.cpp:91] Creating Layer inception_4a/relu_pool_proj
I0403 18:54:47.588131 18069 net.cpp:425] inception_4a/relu_pool_proj <- inception_4a/pool_proj
I0403 18:54:47.588150 18069 net.cpp:386] inception_4a/relu_pool_proj -> inception_4a/pool_proj (in-place)
I0403 18:54:47.588438 18069 net.cpp:141] Setting up inception_4a/relu_pool_proj
I0403 18:54:47.588466 18069 net.cpp:148] Top shape: 24 64 14 14 (301056)
I0403 18:54:47.588484 18069 net.cpp:156] Memory required for data: 886912032
I0403 18:54:47.588498 18069 layer_factory.hpp:77] Creating layer inception_4a/output
I0403 18:54:47.588516 18069 net.cpp:91] Creating Layer inception_4a/output
I0403 18:54:47.588532 18069 net.cpp:425] inception_4a/output <- inception_4a/1x1
I0403 18:54:47.588549 18069 net.cpp:425] inception_4a/output <- inception_4a/3x3
I0403 18:54:47.588565 18069 net.cpp:425] inception_4a/output <- inception_4a/5x5
I0403 18:54:47.588582 18069 net.cpp:425] inception_4a/output <- inception_4a/pool_proj
I0403 18:54:47.588598 18069 net.cpp:399] inception_4a/output -> inception_4a/output
I0403 18:54:47.588645 18069 net.cpp:141] Setting up inception_4a/output
I0403 18:54:47.588670 18069 net.cpp:148] Top shape: 24 512 14 14 (2408448)
I0403 18:54:47.588685 18069 net.cpp:156] Memory required for data: 896545824
I0403 18:54:47.588699 18069 layer_factory.hpp:77] Creating layer inception_4a/output_inception_4a/output_0_split
I0403 18:54:47.588717 18069 net.cpp:91] Creating Layer inception_4a/output_inception_4a/output_0_split
I0403 18:54:47.588733 18069 net.cpp:425] inception_4a/output_inception_4a/output_0_split <- inception_4a/output
I0403 18:54:47.588754 18069 net.cpp:399] inception_4a/output_inception_4a/output_0_split -> inception_4a/output_inception_4a/output_0_split_0
I0403 18:54:47.588776 18069 net.cpp:399] inception_4a/output_inception_4a/output_0_split -> inception_4a/output_inception_4a/output_0_split_1
I0403 18:54:47.588798 18069 net.cpp:399] inception_4a/output_inception_4a/output_0_split -> inception_4a/output_inception_4a/output_0_split_2
I0403 18:54:47.588822 18069 net.cpp:399] inception_4a/output_inception_4a/output_0_split -> inception_4a/output_inception_4a/output_0_split_3
I0403 18:54:47.588843 18069 net.cpp:399] inception_4a/output_inception_4a/output_0_split -> inception_4a/output_inception_4a/output_0_split_4
I0403 18:54:47.588937 18069 net.cpp:141] Setting up inception_4a/output_inception_4a/output_0_split
I0403 18:54:47.588961 18069 net.cpp:148] Top shape: 24 512 14 14 (2408448)
I0403 18:54:47.588987 18069 net.cpp:148] Top shape: 24 512 14 14 (2408448)
I0403 18:54:47.589007 18069 net.cpp:148] Top shape: 24 512 14 14 (2408448)
I0403 18:54:47.589023 18069 net.cpp:148] Top shape: 24 512 14 14 (2408448)
I0403 18:54:47.589040 18069 net.cpp:148] Top shape: 24 512 14 14 (2408448)
I0403 18:54:47.589054 18069 net.cpp:156] Memory required for data: 944714784
I0403 18:54:47.589068 18069 layer_factory.hpp:77] Creating layer loss1/ave_pool
I0403 18:54:47.589087 18069 net.cpp:91] Creating Layer loss1/ave_pool
I0403 18:54:47.589103 18069 net.cpp:425] loss1/ave_pool <- inception_4a/output_inception_4a/output_0_split_0
I0403 18:54:47.589125 18069 net.cpp:399] loss1/ave_pool -> loss1/ave_pool
I0403 18:54:47.589332 18069 net.cpp:141] Setting up loss1/ave_pool
I0403 18:54:47.589360 18069 net.cpp:148] Top shape: 24 512 4 4 (196608)
I0403 18:54:47.589376 18069 net.cpp:156] Memory required for data: 945501216
I0403 18:54:47.589391 18069 layer_factory.hpp:77] Creating layer loss1/conv
I0403 18:54:47.589414 18069 net.cpp:91] Creating Layer loss1/conv
I0403 18:54:47.589432 18069 net.cpp:425] loss1/conv <- loss1/ave_pool
I0403 18:54:47.589452 18069 net.cpp:399] loss1/conv -> loss1/conv
I0403 18:54:47.590876 18069 net.cpp:141] Setting up loss1/conv
I0403 18:54:47.590904 18069 net.cpp:148] Top shape: 24 128 4 4 (49152)
I0403 18:54:47.590935 18069 net.cpp:156] Memory required for data: 945697824
I0403 18:54:47.590955 18069 layer_factory.hpp:77] Creating layer loss1/relu_conv
I0403 18:54:47.590975 18069 net.cpp:91] Creating Layer loss1/relu_conv
I0403 18:54:47.590996 18069 net.cpp:425] loss1/relu_conv <- loss1/conv
I0403 18:54:47.591015 18069 net.cpp:386] loss1/relu_conv -> loss1/conv (in-place)
I0403 18:54:47.591315 18069 net.cpp:141] Setting up loss1/relu_conv
I0403 18:54:47.591341 18069 net.cpp:148] Top shape: 24 128 4 4 (49152)
I0403 18:54:47.591356 18069 net.cpp:156] Memory required for data: 945894432
I0403 18:54:47.591370 18069 layer_factory.hpp:77] Creating layer loss1/fc
I0403 18:54:47.591403 18069 net.cpp:91] Creating Layer loss1/fc
I0403 18:54:47.591423 18069 net.cpp:425] loss1/fc <- loss1/conv
I0403 18:54:47.591442 18069 net.cpp:399] loss1/fc -> loss1/fc
I0403 18:54:47.609143 18069 net.cpp:141] Setting up loss1/fc
I0403 18:54:47.609177 18069 net.cpp:148] Top shape: 24 1024 (24576)
I0403 18:54:47.609194 18069 net.cpp:156] Memory required for data: 945992736
I0403 18:54:47.609213 18069 layer_factory.hpp:77] Creating layer loss1/relu_fc
I0403 18:54:47.609231 18069 net.cpp:91] Creating Layer loss1/relu_fc
I0403 18:54:47.609247 18069 net.cpp:425] loss1/relu_fc <- loss1/fc
I0403 18:54:47.609264 18069 net.cpp:386] loss1/relu_fc -> loss1/fc (in-place)
I0403 18:54:47.609446 18069 net.cpp:141] Setting up loss1/relu_fc
I0403 18:54:47.609470 18069 net.cpp:148] Top shape: 24 1024 (24576)
I0403 18:54:47.609485 18069 net.cpp:156] Memory required for data: 946091040
I0403 18:54:47.609500 18069 layer_factory.hpp:77] Creating layer loss1/drop_fc
I0403 18:54:47.609525 18069 net.cpp:91] Creating Layer loss1/drop_fc
I0403 18:54:47.609542 18069 net.cpp:425] loss1/drop_fc <- loss1/fc
I0403 18:54:47.609562 18069 net.cpp:386] loss1/drop_fc -> loss1/fc (in-place)
I0403 18:54:47.609613 18069 net.cpp:141] Setting up loss1/drop_fc
I0403 18:54:47.609637 18069 net.cpp:148] Top shape: 24 1024 (24576)
I0403 18:54:47.609650 18069 net.cpp:156] Memory required for data: 946189344
I0403 18:54:47.609666 18069 layer_factory.hpp:77] Creating layer loss1/classifier_plantvillage
I0403 18:54:47.609688 18069 net.cpp:91] Creating Layer loss1/classifier_plantvillage
I0403 18:54:47.609704 18069 net.cpp:425] loss1/classifier_plantvillage <- loss1/fc
I0403 18:54:47.609722 18069 net.cpp:399] loss1/classifier_plantvillage -> loss1/classifier_plantvillage
I0403 18:54:47.610620 18069 net.cpp:141] Setting up loss1/classifier_plantvillage
I0403 18:54:47.610649 18069 net.cpp:148] Top shape: 24 38 (912)
I0403 18:54:47.610664 18069 net.cpp:156] Memory required for data: 946192992
I0403 18:54:47.610683 18069 layer_factory.hpp:77] Creating layer loss1/classifier_plantvillage_loss1/classifier_plantvillage_0_split
I0403 18:54:47.610702 18069 net.cpp:91] Creating Layer loss1/classifier_plantvillage_loss1/classifier_plantvillage_0_split
I0403 18:54:47.610718 18069 net.cpp:425] loss1/classifier_plantvillage_loss1/classifier_plantvillage_0_split <- loss1/classifier_plantvillage
I0403 18:54:47.610734 18069 net.cpp:399] loss1/classifier_plantvillage_loss1/classifier_plantvillage_0_split -> loss1/classifier_plantvillage_loss1/classifier_plantvillage_0_split_0
I0403 18:54:47.610757 18069 net.cpp:399] loss1/classifier_plantvillage_loss1/classifier_plantvillage_0_split -> loss1/classifier_plantvillage_loss1/classifier_plantvillage_0_split_1
I0403 18:54:47.610780 18069 net.cpp:399] loss1/classifier_plantvillage_loss1/classifier_plantvillage_0_split -> loss1/classifier_plantvillage_loss1/classifier_plantvillage_0_split_2
I0403 18:54:47.610846 18069 net.cpp:141] Setting up loss1/classifier_plantvillage_loss1/classifier_plantvillage_0_split
I0403 18:54:47.610868 18069 net.cpp:148] Top shape: 24 38 (912)
I0403 18:54:47.610883 18069 net.cpp:148] Top shape: 24 38 (912)
I0403 18:54:47.610899 18069 net.cpp:148] Top shape: 24 38 (912)
I0403 18:54:47.610913 18069 net.cpp:156] Memory required for data: 946203936
I0403 18:54:47.610927 18069 layer_factory.hpp:77] Creating layer inception_4b/1x1
I0403 18:54:47.610947 18069 net.cpp:91] Creating Layer inception_4b/1x1
I0403 18:54:47.610983 18069 net.cpp:425] inception_4b/1x1 <- inception_4a/output_inception_4a/output_0_split_1
I0403 18:54:47.611007 18069 net.cpp:399] inception_4b/1x1 -> inception_4b/1x1
I0403 18:54:47.612704 18069 net.cpp:141] Setting up inception_4b/1x1
I0403 18:54:47.612731 18069 net.cpp:148] Top shape: 24 160 14 14 (752640)
I0403 18:54:47.612747 18069 net.cpp:156] Memory required for data: 949214496
I0403 18:54:47.612766 18069 layer_factory.hpp:77] Creating layer inception_4b/relu_1x1
I0403 18:54:47.612783 18069 net.cpp:91] Creating Layer inception_4b/relu_1x1
I0403 18:54:47.612799 18069 net.cpp:425] inception_4b/relu_1x1 <- inception_4b/1x1
I0403 18:54:47.612819 18069 net.cpp:386] inception_4b/relu_1x1 -> inception_4b/1x1 (in-place)
I0403 18:54:47.613003 18069 net.cpp:141] Setting up inception_4b/relu_1x1
I0403 18:54:47.613028 18069 net.cpp:148] Top shape: 24 160 14 14 (752640)
I0403 18:54:47.613042 18069 net.cpp:156] Memory required for data: 952225056
I0403 18:54:47.613056 18069 layer_factory.hpp:77] Creating layer inception_4b/3x3_reduce
I0403 18:54:47.613078 18069 net.cpp:91] Creating Layer inception_4b/3x3_reduce
I0403 18:54:47.613095 18069 net.cpp:425] inception_4b/3x3_reduce <- inception_4a/output_inception_4a/output_0_split_2
I0403 18:54:47.613118 18069 net.cpp:399] inception_4b/3x3_reduce -> inception_4b/3x3_reduce
I0403 18:54:47.614470 18069 net.cpp:141] Setting up inception_4b/3x3_reduce
I0403 18:54:47.614497 18069 net.cpp:148] Top shape: 24 112 14 14 (526848)
I0403 18:54:47.614512 18069 net.cpp:156] Memory required for data: 954332448
I0403 18:54:47.614531 18069 layer_factory.hpp:77] Creating layer inception_4b/relu_3x3_reduce
I0403 18:54:47.614552 18069 net.cpp:91] Creating Layer inception_4b/relu_3x3_reduce
I0403 18:54:47.614569 18069 net.cpp:425] inception_4b/relu_3x3_reduce <- inception_4b/3x3_reduce
I0403 18:54:47.614586 18069 net.cpp:386] inception_4b/relu_3x3_reduce -> inception_4b/3x3_reduce (in-place)
I0403 18:54:47.614867 18069 net.cpp:141] Setting up inception_4b/relu_3x3_reduce
I0403 18:54:47.614894 18069 net.cpp:148] Top shape: 24 112 14 14 (526848)
I0403 18:54:47.614908 18069 net.cpp:156] Memory required for data: 956439840
I0403 18:54:47.614923 18069 layer_factory.hpp:77] Creating layer inception_4b/3x3
I0403 18:54:47.614946 18069 net.cpp:91] Creating Layer inception_4b/3x3
I0403 18:54:47.614964 18069 net.cpp:425] inception_4b/3x3 <- inception_4b/3x3_reduce
I0403 18:54:47.614990 18069 net.cpp:399] inception_4b/3x3 -> inception_4b/3x3
I0403 18:54:47.617986 18069 net.cpp:141] Setting up inception_4b/3x3
I0403 18:54:47.618017 18069 net.cpp:148] Top shape: 24 224 14 14 (1053696)
I0403 18:54:47.618034 18069 net.cpp:156] Memory required for data: 960654624
I0403 18:54:47.618053 18069 layer_factory.hpp:77] Creating layer inception_4b/relu_3x3
I0403 18:54:47.618072 18069 net.cpp:91] Creating Layer inception_4b/relu_3x3
I0403 18:54:47.618088 18069 net.cpp:425] inception_4b/relu_3x3 <- inception_4b/3x3
I0403 18:54:47.618105 18069 net.cpp:386] inception_4b/relu_3x3 -> inception_4b/3x3 (in-place)
I0403 18:54:47.618297 18069 net.cpp:141] Setting up inception_4b/relu_3x3
I0403 18:54:47.618322 18069 net.cpp:148] Top shape: 24 224 14 14 (1053696)
I0403 18:54:47.618336 18069 net.cpp:156] Memory required for data: 964869408
I0403 18:54:47.618350 18069 layer_factory.hpp:77] Creating layer inception_4b/5x5_reduce
I0403 18:54:47.618373 18069 net.cpp:91] Creating Layer inception_4b/5x5_reduce
I0403 18:54:47.618391 18069 net.cpp:425] inception_4b/5x5_reduce <- inception_4a/output_inception_4a/output_0_split_3
I0403 18:54:47.618413 18069 net.cpp:399] inception_4b/5x5_reduce -> inception_4b/5x5_reduce
I0403 18:54:47.619521 18069 net.cpp:141] Setting up inception_4b/5x5_reduce
I0403 18:54:47.619549 18069 net.cpp:148] Top shape: 24 24 14 14 (112896)
I0403 18:54:47.619565 18069 net.cpp:156] Memory required for data: 965320992
I0403 18:54:47.619585 18069 layer_factory.hpp:77] Creating layer inception_4b/relu_5x5_reduce
I0403 18:54:47.619606 18069 net.cpp:91] Creating Layer inception_4b/relu_5x5_reduce
I0403 18:54:47.619635 18069 net.cpp:425] inception_4b/relu_5x5_reduce <- inception_4b/5x5_reduce
I0403 18:54:47.619653 18069 net.cpp:386] inception_4b/relu_5x5_reduce -> inception_4b/5x5_reduce (in-place)
I0403 18:54:47.619840 18069 net.cpp:141] Setting up inception_4b/relu_5x5_reduce
I0403 18:54:47.619865 18069 net.cpp:148] Top shape: 24 24 14 14 (112896)
I0403 18:54:47.619880 18069 net.cpp:156] Memory required for data: 965772576
I0403 18:54:47.619895 18069 layer_factory.hpp:77] Creating layer inception_4b/5x5
I0403 18:54:47.619920 18069 net.cpp:91] Creating Layer inception_4b/5x5
I0403 18:54:47.619938 18069 net.cpp:425] inception_4b/5x5 <- inception_4b/5x5_reduce
I0403 18:54:47.619957 18069 net.cpp:399] inception_4b/5x5 -> inception_4b/5x5
I0403 18:54:47.621202 18069 net.cpp:141] Setting up inception_4b/5x5
I0403 18:54:47.621234 18069 net.cpp:148] Top shape: 24 64 14 14 (301056)
I0403 18:54:47.621250 18069 net.cpp:156] Memory required for data: 966976800
I0403 18:54:47.621269 18069 layer_factory.hpp:77] Creating layer inception_4b/relu_5x5
I0403 18:54:47.621289 18069 net.cpp:91] Creating Layer inception_4b/relu_5x5
I0403 18:54:47.621305 18069 net.cpp:425] inception_4b/relu_5x5 <- inception_4b/5x5
I0403 18:54:47.621333 18069 net.cpp:386] inception_4b/relu_5x5 -> inception_4b/5x5 (in-place)
I0403 18:54:47.621629 18069 net.cpp:141] Setting up inception_4b/relu_5x5
I0403 18:54:47.621656 18069 net.cpp:148] Top shape: 24 64 14 14 (301056)
I0403 18:54:47.621672 18069 net.cpp:156] Memory required for data: 968181024
I0403 18:54:47.621687 18069 layer_factory.hpp:77] Creating layer inception_4b/pool
I0403 18:54:47.621706 18069 net.cpp:91] Creating Layer inception_4b/pool
I0403 18:54:47.621722 18069 net.cpp:425] inception_4b/pool <- inception_4a/output_inception_4a/output_0_split_4
I0403 18:54:47.621742 18069 net.cpp:399] inception_4b/pool -> inception_4b/pool
I0403 18:54:47.621809 18069 net.cpp:141] Setting up inception_4b/pool
I0403 18:54:47.621832 18069 net.cpp:148] Top shape: 24 512 14 14 (2408448)
I0403 18:54:47.621847 18069 net.cpp:156] Memory required for data: 977814816
I0403 18:54:47.621863 18069 layer_factory.hpp:77] Creating layer inception_4b/pool_proj
I0403 18:54:47.621888 18069 net.cpp:91] Creating Layer inception_4b/pool_proj
I0403 18:54:47.621906 18069 net.cpp:425] inception_4b/pool_proj <- inception_4b/pool
I0403 18:54:47.621925 18069 net.cpp:399] inception_4b/pool_proj -> inception_4b/pool_proj
I0403 18:54:47.623177 18069 net.cpp:141] Setting up inception_4b/pool_proj
I0403 18:54:47.623206 18069 net.cpp:148] Top shape: 24 64 14 14 (301056)
I0403 18:54:47.623225 18069 net.cpp:156] Memory required for data: 979019040
I0403 18:54:47.623245 18069 layer_factory.hpp:77] Creating layer inception_4b/relu_pool_proj
I0403 18:54:47.623265 18069 net.cpp:91] Creating Layer inception_4b/relu_pool_proj
I0403 18:54:47.623284 18069 net.cpp:425] inception_4b/relu_pool_proj <- inception_4b/pool_proj
I0403 18:54:47.623301 18069 net.cpp:386] inception_4b/relu_pool_proj -> inception_4b/pool_proj (in-place)
I0403 18:54:47.623491 18069 net.cpp:141] Setting up inception_4b/relu_pool_proj
I0403 18:54:47.623527 18069 net.cpp:148] Top shape: 24 64 14 14 (301056)
I0403 18:54:47.623543 18069 net.cpp:156] Memory required for data: 980223264
I0403 18:54:47.623558 18069 layer_factory.hpp:77] Creating layer inception_4b/output
I0403 18:54:47.623575 18069 net.cpp:91] Creating Layer inception_4b/output
I0403 18:54:47.623591 18069 net.cpp:425] inception_4b/output <- inception_4b/1x1
I0403 18:54:47.623608 18069 net.cpp:425] inception_4b/output <- inception_4b/3x3
I0403 18:54:47.623625 18069 net.cpp:425] inception_4b/output <- inception_4b/5x5
I0403 18:54:47.623641 18069 net.cpp:425] inception_4b/output <- inception_4b/pool_proj
I0403 18:54:47.623658 18069 net.cpp:399] inception_4b/output -> inception_4b/output
I0403 18:54:47.623708 18069 net.cpp:141] Setting up inception_4b/output
I0403 18:54:47.623731 18069 net.cpp:148] Top shape: 24 512 14 14 (2408448)
I0403 18:54:47.623746 18069 net.cpp:156] Memory required for data: 989857056
I0403 18:54:47.623775 18069 layer_factory.hpp:77] Creating layer inception_4b/output_inception_4b/output_0_split
I0403 18:54:47.623795 18069 net.cpp:91] Creating Layer inception_4b/output_inception_4b/output_0_split
I0403 18:54:47.623811 18069 net.cpp:425] inception_4b/output_inception_4b/output_0_split <- inception_4b/output
I0403 18:54:47.623832 18069 net.cpp:399] inception_4b/output_inception_4b/output_0_split -> inception_4b/output_inception_4b/output_0_split_0
I0403 18:54:47.623853 18069 net.cpp:399] inception_4b/output_inception_4b/output_0_split -> inception_4b/output_inception_4b/output_0_split_1
I0403 18:54:47.623875 18069 net.cpp:399] inception_4b/output_inception_4b/output_0_split -> inception_4b/output_inception_4b/output_0_split_2
I0403 18:54:47.623896 18069 net.cpp:399] inception_4b/output_inception_4b/output_0_split -> inception_4b/output_inception_4b/output_0_split_3
I0403 18:54:47.623989 18069 net.cpp:141] Setting up inception_4b/output_inception_4b/output_0_split
I0403 18:54:47.624014 18069 net.cpp:148] Top shape: 24 512 14 14 (2408448)
I0403 18:54:47.624032 18069 net.cpp:148] Top shape: 24 512 14 14 (2408448)
I0403 18:54:47.624047 18069 net.cpp:148] Top shape: 24 512 14 14 (2408448)
I0403 18:54:47.624063 18069 net.cpp:148] Top shape: 24 512 14 14 (2408448)
I0403 18:54:47.624078 18069 net.cpp:156] Memory required for data: 1028392224
I0403 18:54:47.624094 18069 layer_factory.hpp:77] Creating layer inception_4c/1x1
I0403 18:54:47.624115 18069 net.cpp:91] Creating Layer inception_4c/1x1
I0403 18:54:47.624133 18069 net.cpp:425] inception_4c/1x1 <- inception_4b/output_inception_4b/output_0_split_0
I0403 18:54:47.624155 18069 net.cpp:399] inception_4c/1x1 -> inception_4c/1x1
I0403 18:54:47.625640 18069 net.cpp:141] Setting up inception_4c/1x1
I0403 18:54:47.625672 18069 net.cpp:148] Top shape: 24 128 14 14 (602112)
I0403 18:54:47.625689 18069 net.cpp:156] Memory required for data: 1030800672
I0403 18:54:47.625708 18069 layer_factory.hpp:77] Creating layer inception_4c/relu_1x1
I0403 18:54:47.625726 18069 net.cpp:91] Creating Layer inception_4c/relu_1x1
I0403 18:54:47.625743 18069 net.cpp:425] inception_4c/relu_1x1 <- inception_4c/1x1
I0403 18:54:47.625761 18069 net.cpp:386] inception_4c/relu_1x1 -> inception_4c/1x1 (in-place)
I0403 18:54:47.625948 18069 net.cpp:141] Setting up inception_4c/relu_1x1
I0403 18:54:47.625977 18069 net.cpp:148] Top shape: 24 128 14 14 (602112)
I0403 18:54:47.625998 18069 net.cpp:156] Memory required for data: 1033209120
I0403 18:54:47.626013 18069 layer_factory.hpp:77] Creating layer inception_4c/3x3_reduce
I0403 18:54:47.626037 18069 net.cpp:91] Creating Layer inception_4c/3x3_reduce
I0403 18:54:47.626056 18069 net.cpp:425] inception_4c/3x3_reduce <- inception_4b/output_inception_4b/output_0_split_1
I0403 18:54:47.626078 18069 net.cpp:399] inception_4c/3x3_reduce -> inception_4c/3x3_reduce
I0403 18:54:47.628093 18069 net.cpp:141] Setting up inception_4c/3x3_reduce
I0403 18:54:47.628123 18069 net.cpp:148] Top shape: 24 128 14 14 (602112)
I0403 18:54:47.628140 18069 net.cpp:156] Memory required for data: 1035617568
I0403 18:54:47.628159 18069 layer_factory.hpp:77] Creating layer inception_4c/relu_3x3_reduce
I0403 18:54:47.628177 18069 net.cpp:91] Creating Layer inception_4c/relu_3x3_reduce
I0403 18:54:47.628196 18069 net.cpp:425] inception_4c/relu_3x3_reduce <- inception_4c/3x3_reduce
I0403 18:54:47.628216 18069 net.cpp:386] inception_4c/relu_3x3_reduce -> inception_4c/3x3_reduce (in-place)
I0403 18:54:47.628509 18069 net.cpp:141] Setting up inception_4c/relu_3x3_reduce
I0403 18:54:47.628536 18069 net.cpp:148] Top shape: 24 128 14 14 (602112)
I0403 18:54:47.628552 18069 net.cpp:156] Memory required for data: 1038026016
I0403 18:54:47.628567 18069 layer_factory.hpp:77] Creating layer inception_4c/3x3
I0403 18:54:47.628590 18069 net.cpp:91] Creating Layer inception_4c/3x3
I0403 18:54:47.628608 18069 net.cpp:425] inception_4c/3x3 <- inception_4c/3x3_reduce
I0403 18:54:47.628631 18069 net.cpp:399] inception_4c/3x3 -> inception_4c/3x3
I0403 18:54:47.632341 18069 net.cpp:141] Setting up inception_4c/3x3
I0403 18:54:47.632383 18069 net.cpp:148] Top shape: 24 256 14 14 (1204224)
I0403 18:54:47.632401 18069 net.cpp:156] Memory required for data: 1042842912
I0403 18:54:47.632434 18069 layer_factory.hpp:77] Creating layer inception_4c/relu_3x3
I0403 18:54:47.632455 18069 net.cpp:91] Creating Layer inception_4c/relu_3x3
I0403 18:54:47.632472 18069 net.cpp:425] inception_4c/relu_3x3 <- inception_4c/3x3
I0403 18:54:47.632493 18069 net.cpp:386] inception_4c/relu_3x3 -> inception_4c/3x3 (in-place)
I0403 18:54:47.632680 18069 net.cpp:141] Setting up inception_4c/relu_3x3
I0403 18:54:47.632706 18069 net.cpp:148] Top shape: 24 256 14 14 (1204224)
I0403 18:54:47.632721 18069 net.cpp:156] Memory required for data: 1047659808
I0403 18:54:47.632736 18069 layer_factory.hpp:77] Creating layer inception_4c/5x5_reduce
I0403 18:54:47.632760 18069 net.cpp:91] Creating Layer inception_4c/5x5_reduce
I0403 18:54:47.632777 18069 net.cpp:425] inception_4c/5x5_reduce <- inception_4b/output_inception_4b/output_0_split_2
I0403 18:54:47.632799 18069 net.cpp:399] inception_4c/5x5_reduce -> inception_4c/5x5_reduce
I0403 18:54:47.633922 18069 net.cpp:141] Setting up inception_4c/5x5_reduce
I0403 18:54:47.633950 18069 net.cpp:148] Top shape: 24 24 14 14 (112896)
I0403 18:54:47.633966 18069 net.cpp:156] Memory required for data: 1048111392
I0403 18:54:47.633988 18069 layer_factory.hpp:77] Creating layer inception_4c/relu_5x5_reduce
I0403 18:54:47.634011 18069 net.cpp:91] Creating Layer inception_4c/relu_5x5_reduce
I0403 18:54:47.634028 18069 net.cpp:425] inception_4c/relu_5x5_reduce <- inception_4c/5x5_reduce
I0403 18:54:47.634045 18069 net.cpp:386] inception_4c/relu_5x5_reduce -> inception_4c/5x5_reduce (in-place)
I0403 18:54:47.634234 18069 net.cpp:141] Setting up inception_4c/relu_5x5_reduce
I0403 18:54:47.634259 18069 net.cpp:148] Top shape: 24 24 14 14 (112896)
I0403 18:54:47.634286 18069 net.cpp:156] Memory required for data: 1048562976
I0403 18:54:47.634302 18069 layer_factory.hpp:77] Creating layer inception_4c/5x5
I0403 18:54:47.634330 18069 net.cpp:91] Creating Layer inception_4c/5x5
I0403 18:54:47.634349 18069 net.cpp:425] inception_4c/5x5 <- inception_4c/5x5_reduce
I0403 18:54:47.634369 18069 net.cpp:399] inception_4c/5x5 -> inception_4c/5x5
I0403 18:54:47.635694 18069 net.cpp:141] Setting up inception_4c/5x5
I0403 18:54:47.635721 18069 net.cpp:148] Top shape: 24 64 14 14 (301056)
I0403 18:54:47.635741 18069 net.cpp:156] Memory required for data: 1049767200
I0403 18:54:47.635761 18069 layer_factory.hpp:77] Creating layer inception_4c/relu_5x5
I0403 18:54:47.635778 18069 net.cpp:91] Creating Layer inception_4c/relu_5x5
I0403 18:54:47.635795 18069 net.cpp:425] inception_4c/relu_5x5 <- inception_4c/5x5
I0403 18:54:47.635813 18069 net.cpp:386] inception_4c/relu_5x5 -> inception_4c/5x5 (in-place)
I0403 18:54:47.636114 18069 net.cpp:141] Setting up inception_4c/relu_5x5
I0403 18:54:47.636142 18069 net.cpp:148] Top shape: 24 64 14 14 (301056)
I0403 18:54:47.636160 18069 net.cpp:156] Memory required for data: 1050971424
I0403 18:54:47.636175 18069 layer_factory.hpp:77] Creating layer inception_4c/pool
I0403 18:54:47.636193 18069 net.cpp:91] Creating Layer inception_4c/pool
I0403 18:54:47.636211 18069 net.cpp:425] inception_4c/pool <- inception_4b/output_inception_4b/output_0_split_3
I0403 18:54:47.636229 18069 net.cpp:399] inception_4c/pool -> inception_4c/pool
I0403 18:54:47.636298 18069 net.cpp:141] Setting up inception_4c/pool
I0403 18:54:47.636323 18069 net.cpp:148] Top shape: 24 512 14 14 (2408448)
I0403 18:54:47.636338 18069 net.cpp:156] Memory required for data: 1060605216
I0403 18:54:47.636353 18069 layer_factory.hpp:77] Creating layer inception_4c/pool_proj
I0403 18:54:47.636375 18069 net.cpp:91] Creating Layer inception_4c/pool_proj
I0403 18:54:47.636394 18069 net.cpp:425] inception_4c/pool_proj <- inception_4c/pool
I0403 18:54:47.636415 18069 net.cpp:399] inception_4c/pool_proj -> inception_4c/pool_proj
I0403 18:54:47.637720 18069 net.cpp:141] Setting up inception_4c/pool_proj
I0403 18:54:47.637748 18069 net.cpp:148] Top shape: 24 64 14 14 (301056)
I0403 18:54:47.637778 18069 net.cpp:156] Memory required for data: 1061809440
I0403 18:54:47.637799 18069 layer_factory.hpp:77] Creating layer inception_4c/relu_pool_proj
I0403 18:54:47.637817 18069 net.cpp:91] Creating Layer inception_4c/relu_pool_proj
I0403 18:54:47.637835 18069 net.cpp:425] inception_4c/relu_pool_proj <- inception_4c/pool_proj
I0403 18:54:47.637856 18069 net.cpp:386] inception_4c/relu_pool_proj -> inception_4c/pool_proj (in-place)
I0403 18:54:47.638048 18069 net.cpp:141] Setting up inception_4c/relu_pool_proj
I0403 18:54:47.638074 18069 net.cpp:148] Top shape: 24 64 14 14 (301056)
I0403 18:54:47.638089 18069 net.cpp:156] Memory required for data: 1063013664
I0403 18:54:47.638104 18069 layer_factory.hpp:77] Creating layer inception_4c/output
I0403 18:54:47.638125 18069 net.cpp:91] Creating Layer inception_4c/output
I0403 18:54:47.638142 18069 net.cpp:425] inception_4c/output <- inception_4c/1x1
I0403 18:54:47.638159 18069 net.cpp:425] inception_4c/output <- inception_4c/3x3
I0403 18:54:47.638176 18069 net.cpp:425] inception_4c/output <- inception_4c/5x5
I0403 18:54:47.638193 18069 net.cpp:425] inception_4c/output <- inception_4c/pool_proj
I0403 18:54:47.638211 18069 net.cpp:399] inception_4c/output -> inception_4c/output
I0403 18:54:47.638260 18069 net.cpp:141] Setting up inception_4c/output
I0403 18:54:47.638285 18069 net.cpp:148] Top shape: 24 512 14 14 (2408448)
I0403 18:54:47.638300 18069 net.cpp:156] Memory required for data: 1072647456
I0403 18:54:47.638315 18069 layer_factory.hpp:77] Creating layer inception_4c/output_inception_4c/output_0_split
I0403 18:54:47.638332 18069 net.cpp:91] Creating Layer inception_4c/output_inception_4c/output_0_split
I0403 18:54:47.638348 18069 net.cpp:425] inception_4c/output_inception_4c/output_0_split <- inception_4c/output
I0403 18:54:47.638371 18069 net.cpp:399] inception_4c/output_inception_4c/output_0_split -> inception_4c/output_inception_4c/output_0_split_0
I0403 18:54:47.638393 18069 net.cpp:399] inception_4c/output_inception_4c/output_0_split -> inception_4c/output_inception_4c/output_0_split_1
I0403 18:54:47.638414 18069 net.cpp:399] inception_4c/output_inception_4c/output_0_split -> inception_4c/output_inception_4c/output_0_split_2
I0403 18:54:47.638435 18069 net.cpp:399] inception_4c/output_inception_4c/output_0_split -> inception_4c/output_inception_4c/output_0_split_3
I0403 18:54:47.638523 18069 net.cpp:141] Setting up inception_4c/output_inception_4c/output_0_split
I0403 18:54:47.638546 18069 net.cpp:148] Top shape: 24 512 14 14 (2408448)
I0403 18:54:47.638563 18069 net.cpp:148] Top shape: 24 512 14 14 (2408448)
I0403 18:54:47.638579 18069 net.cpp:148] Top shape: 24 512 14 14 (2408448)
I0403 18:54:47.638595 18069 net.cpp:148] Top shape: 24 512 14 14 (2408448)
I0403 18:54:47.638608 18069 net.cpp:156] Memory required for data: 1111182624
I0403 18:54:47.638623 18069 layer_factory.hpp:77] Creating layer inception_4d/1x1
I0403 18:54:47.638646 18069 net.cpp:91] Creating Layer inception_4d/1x1
I0403 18:54:47.638664 18069 net.cpp:425] inception_4d/1x1 <- inception_4c/output_inception_4c/output_0_split_0
I0403 18:54:47.638687 18069 net.cpp:399] inception_4d/1x1 -> inception_4d/1x1
I0403 18:54:47.640122 18069 net.cpp:141] Setting up inception_4d/1x1
I0403 18:54:47.640152 18069 net.cpp:148] Top shape: 24 112 14 14 (526848)
I0403 18:54:47.640167 18069 net.cpp:156] Memory required for data: 1113290016
I0403 18:54:47.640187 18069 layer_factory.hpp:77] Creating layer inception_4d/relu_1x1
I0403 18:54:47.640207 18069 net.cpp:91] Creating Layer inception_4d/relu_1x1
I0403 18:54:47.640223 18069 net.cpp:425] inception_4d/relu_1x1 <- inception_4d/1x1
I0403 18:54:47.640242 18069 net.cpp:386] inception_4d/relu_1x1 -> inception_4d/1x1 (in-place)
I0403 18:54:47.640427 18069 net.cpp:141] Setting up inception_4d/relu_1x1
I0403 18:54:47.640452 18069 net.cpp:148] Top shape: 24 112 14 14 (526848)
I0403 18:54:47.640467 18069 net.cpp:156] Memory required for data: 1115397408
I0403 18:54:47.640481 18069 layer_factory.hpp:77] Creating layer inception_4d/3x3_reduce
I0403 18:54:47.640518 18069 net.cpp:91] Creating Layer inception_4d/3x3_reduce
I0403 18:54:47.640537 18069 net.cpp:425] inception_4d/3x3_reduce <- inception_4c/output_inception_4c/output_0_split_1
I0403 18:54:47.640559 18069 net.cpp:399] inception_4d/3x3_reduce -> inception_4d/3x3_reduce
I0403 18:54:47.642079 18069 net.cpp:141] Setting up inception_4d/3x3_reduce
I0403 18:54:47.642107 18069 net.cpp:148] Top shape: 24 144 14 14 (677376)
I0403 18:54:47.642122 18069 net.cpp:156] Memory required for data: 1118106912
I0403 18:54:47.642140 18069 layer_factory.hpp:77] Creating layer inception_4d/relu_3x3_reduce
I0403 18:54:47.642161 18069 net.cpp:91] Creating Layer inception_4d/relu_3x3_reduce
I0403 18:54:47.642179 18069 net.cpp:425] inception_4d/relu_3x3_reduce <- inception_4d/3x3_reduce
I0403 18:54:47.642195 18069 net.cpp:386] inception_4d/relu_3x3_reduce -> inception_4d/3x3_reduce (in-place)
I0403 18:54:47.642484 18069 net.cpp:141] Setting up inception_4d/relu_3x3_reduce
I0403 18:54:47.642510 18069 net.cpp:148] Top shape: 24 144 14 14 (677376)
I0403 18:54:47.642525 18069 net.cpp:156] Memory required for data: 1120816416
I0403 18:54:47.642540 18069 layer_factory.hpp:77] Creating layer inception_4d/3x3
I0403 18:54:47.642566 18069 net.cpp:91] Creating Layer inception_4d/3x3
I0403 18:54:47.642585 18069 net.cpp:425] inception_4d/3x3 <- inception_4d/3x3_reduce
I0403 18:54:47.642604 18069 net.cpp:399] inception_4d/3x3 -> inception_4d/3x3
I0403 18:54:47.646843 18069 net.cpp:141] Setting up inception_4d/3x3
I0403 18:54:47.646874 18069 net.cpp:148] Top shape: 24 288 14 14 (1354752)
I0403 18:54:47.646890 18069 net.cpp:156] Memory required for data: 1126235424
I0403 18:54:47.646908 18069 layer_factory.hpp:77] Creating layer inception_4d/relu_3x3
I0403 18:54:47.646932 18069 net.cpp:91] Creating Layer inception_4d/relu_3x3
I0403 18:54:47.646951 18069 net.cpp:425] inception_4d/relu_3x3 <- inception_4d/3x3
I0403 18:54:47.646971 18069 net.cpp:386] inception_4d/relu_3x3 -> inception_4d/3x3 (in-place)
I0403 18:54:47.647161 18069 net.cpp:141] Setting up inception_4d/relu_3x3
I0403 18:54:47.647186 18069 net.cpp:148] Top shape: 24 288 14 14 (1354752)
I0403 18:54:47.647202 18069 net.cpp:156] Memory required for data: 1131654432
I0403 18:54:47.647225 18069 layer_factory.hpp:77] Creating layer inception_4d/5x5_reduce
I0403 18:54:47.647248 18069 net.cpp:91] Creating Layer inception_4d/5x5_reduce
I0403 18:54:47.647266 18069 net.cpp:425] inception_4d/5x5_reduce <- inception_4c/output_inception_4c/output_0_split_2
I0403 18:54:47.647287 18069 net.cpp:399] inception_4d/5x5_reduce -> inception_4d/5x5_reduce
I0403 18:54:47.648433 18069 net.cpp:141] Setting up inception_4d/5x5_reduce
I0403 18:54:47.648461 18069 net.cpp:148] Top shape: 24 32 14 14 (150528)
I0403 18:54:47.648476 18069 net.cpp:156] Memory required for data: 1132256544
I0403 18:54:47.648495 18069 layer_factory.hpp:77] Creating layer inception_4d/relu_5x5_reduce
I0403 18:54:47.648514 18069 net.cpp:91] Creating Layer inception_4d/relu_5x5_reduce
I0403 18:54:47.648531 18069 net.cpp:425] inception_4d/relu_5x5_reduce <- inception_4d/5x5_reduce
I0403 18:54:47.648550 18069 net.cpp:386] inception_4d/relu_5x5_reduce -> inception_4d/5x5_reduce (in-place)
I0403 18:54:47.648736 18069 net.cpp:141] Setting up inception_4d/relu_5x5_reduce
I0403 18:54:47.648761 18069 net.cpp:148] Top shape: 24 32 14 14 (150528)
I0403 18:54:47.648777 18069 net.cpp:156] Memory required for data: 1132858656
I0403 18:54:47.648792 18069 layer_factory.hpp:77] Creating layer inception_4d/5x5
I0403 18:54:47.648813 18069 net.cpp:91] Creating Layer inception_4d/5x5
I0403 18:54:47.648831 18069 net.cpp:425] inception_4d/5x5 <- inception_4d/5x5_reduce
I0403 18:54:47.648852 18069 net.cpp:399] inception_4d/5x5 -> inception_4d/5x5
I0403 18:54:47.650337 18069 net.cpp:141] Setting up inception_4d/5x5
I0403 18:54:47.650365 18069 net.cpp:148] Top shape: 24 64 14 14 (301056)
I0403 18:54:47.650380 18069 net.cpp:156] Memory required for data: 1134062880
I0403 18:54:47.650398 18069 layer_factory.hpp:77] Creating layer inception_4d/relu_5x5
I0403 18:54:47.650434 18069 net.cpp:91] Creating Layer inception_4d/relu_5x5
I0403 18:54:47.650451 18069 net.cpp:425] inception_4d/relu_5x5 <- inception_4d/5x5
I0403 18:54:47.650470 18069 net.cpp:386] inception_4d/relu_5x5 -> inception_4d/5x5 (in-place)
I0403 18:54:47.650768 18069 net.cpp:141] Setting up inception_4d/relu_5x5
I0403 18:54:47.650794 18069 net.cpp:148] Top shape: 24 64 14 14 (301056)
I0403 18:54:47.650810 18069 net.cpp:156] Memory required for data: 1135267104
I0403 18:54:47.650825 18069 layer_factory.hpp:77] Creating layer inception_4d/pool
I0403 18:54:47.650845 18069 net.cpp:91] Creating Layer inception_4d/pool
I0403 18:54:47.650861 18069 net.cpp:425] inception_4d/pool <- inception_4c/output_inception_4c/output_0_split_3
I0403 18:54:47.650879 18069 net.cpp:399] inception_4d/pool -> inception_4d/pool
I0403 18:54:47.650948 18069 net.cpp:141] Setting up inception_4d/pool
I0403 18:54:47.650971 18069 net.cpp:148] Top shape: 24 512 14 14 (2408448)
I0403 18:54:47.650990 18069 net.cpp:156] Memory required for data: 1144900896
I0403 18:54:47.651006 18069 layer_factory.hpp:77] Creating layer inception_4d/pool_proj
I0403 18:54:47.651028 18069 net.cpp:91] Creating Layer inception_4d/pool_proj
I0403 18:54:47.651046 18069 net.cpp:425] inception_4d/pool_proj <- inception_4d/pool
I0403 18:54:47.651067 18069 net.cpp:399] inception_4d/pool_proj -> inception_4d/pool_proj
I0403 18:54:47.652827 18069 net.cpp:141] Setting up inception_4d/pool_proj
I0403 18:54:47.652858 18069 net.cpp:148] Top shape: 24 64 14 14 (301056)
I0403 18:54:47.652874 18069 net.cpp:156] Memory required for data: 1146105120
I0403 18:54:47.652905 18069 layer_factory.hpp:77] Creating layer inception_4d/relu_pool_proj
I0403 18:54:47.652925 18069 net.cpp:91] Creating Layer inception_4d/relu_pool_proj
I0403 18:54:47.652942 18069 net.cpp:425] inception_4d/relu_pool_proj <- inception_4d/pool_proj
I0403 18:54:47.652962 18069 net.cpp:386] inception_4d/relu_pool_proj -> inception_4d/pool_proj (in-place)
I0403 18:54:47.653156 18069 net.cpp:141] Setting up inception_4d/relu_pool_proj
I0403 18:54:47.653193 18069 net.cpp:148] Top shape: 24 64 14 14 (301056)
I0403 18:54:47.653209 18069 net.cpp:156] Memory required for data: 1147309344
I0403 18:54:47.653224 18069 layer_factory.hpp:77] Creating layer inception_4d/output
I0403 18:54:47.653241 18069 net.cpp:91] Creating Layer inception_4d/output
I0403 18:54:47.653256 18069 net.cpp:425] inception_4d/output <- inception_4d/1x1
I0403 18:54:47.653273 18069 net.cpp:425] inception_4d/output <- inception_4d/3x3
I0403 18:54:47.653290 18069 net.cpp:425] inception_4d/output <- inception_4d/5x5
I0403 18:54:47.653304 18069 net.cpp:425] inception_4d/output <- inception_4d/pool_proj
I0403 18:54:47.653324 18069 net.cpp:399] inception_4d/output -> inception_4d/output
I0403 18:54:47.653375 18069 net.cpp:141] Setting up inception_4d/output
I0403 18:54:47.653398 18069 net.cpp:148] Top shape: 24 528 14 14 (2483712)
I0403 18:54:47.653411 18069 net.cpp:156] Memory required for data: 1157244192
I0403 18:54:47.653425 18069 layer_factory.hpp:77] Creating layer inception_4d/output_inception_4d/output_0_split
I0403 18:54:47.653444 18069 net.cpp:91] Creating Layer inception_4d/output_inception_4d/output_0_split
I0403 18:54:47.653460 18069 net.cpp:425] inception_4d/output_inception_4d/output_0_split <- inception_4d/output
I0403 18:54:47.653483 18069 net.cpp:399] inception_4d/output_inception_4d/output_0_split -> inception_4d/output_inception_4d/output_0_split_0
I0403 18:54:47.653506 18069 net.cpp:399] inception_4d/output_inception_4d/output_0_split -> inception_4d/output_inception_4d/output_0_split_1
I0403 18:54:47.653527 18069 net.cpp:399] inception_4d/output_inception_4d/output_0_split -> inception_4d/output_inception_4d/output_0_split_2
I0403 18:54:47.653548 18069 net.cpp:399] inception_4d/output_inception_4d/output_0_split -> inception_4d/output_inception_4d/output_0_split_3
I0403 18:54:47.653568 18069 net.cpp:399] inception_4d/output_inception_4d/output_0_split -> inception_4d/output_inception_4d/output_0_split_4
I0403 18:54:47.653671 18069 net.cpp:141] Setting up inception_4d/output_inception_4d/output_0_split
I0403 18:54:47.653708 18069 net.cpp:148] Top shape: 24 528 14 14 (2483712)
I0403 18:54:47.653726 18069 net.cpp:148] Top shape: 24 528 14 14 (2483712)
I0403 18:54:47.653743 18069 net.cpp:148] Top shape: 24 528 14 14 (2483712)
I0403 18:54:47.653758 18069 net.cpp:148] Top shape: 24 528 14 14 (2483712)
I0403 18:54:47.653774 18069 net.cpp:148] Top shape: 24 528 14 14 (2483712)
I0403 18:54:47.653787 18069 net.cpp:156] Memory required for data: 1206918432
I0403 18:54:47.653802 18069 layer_factory.hpp:77] Creating layer loss2/ave_pool
I0403 18:54:47.653820 18069 net.cpp:91] Creating Layer loss2/ave_pool
I0403 18:54:47.653836 18069 net.cpp:425] loss2/ave_pool <- inception_4d/output_inception_4d/output_0_split_0
I0403 18:54:47.653856 18069 net.cpp:399] loss2/ave_pool -> loss2/ave_pool
I0403 18:54:47.654175 18069 net.cpp:141] Setting up loss2/ave_pool
I0403 18:54:47.654206 18069 net.cpp:148] Top shape: 24 528 4 4 (202752)
I0403 18:54:47.654222 18069 net.cpp:156] Memory required for data: 1207729440
I0403 18:54:47.654237 18069 layer_factory.hpp:77] Creating layer loss2/conv
I0403 18:54:47.654259 18069 net.cpp:91] Creating Layer loss2/conv
I0403 18:54:47.654278 18069 net.cpp:425] loss2/conv <- loss2/ave_pool
I0403 18:54:47.654299 18069 net.cpp:399] loss2/conv -> loss2/conv
I0403 18:54:47.656186 18069 net.cpp:141] Setting up loss2/conv
I0403 18:54:47.656215 18069 net.cpp:148] Top shape: 24 128 4 4 (49152)
I0403 18:54:47.656231 18069 net.cpp:156] Memory required for data: 1207926048
I0403 18:54:47.656250 18069 layer_factory.hpp:77] Creating layer loss2/relu_conv
I0403 18:54:47.656270 18069 net.cpp:91] Creating Layer loss2/relu_conv
I0403 18:54:47.656287 18069 net.cpp:425] loss2/relu_conv <- loss2/conv
I0403 18:54:47.656306 18069 net.cpp:386] loss2/relu_conv -> loss2/conv (in-place)
I0403 18:54:47.656591 18069 net.cpp:141] Setting up loss2/relu_conv
I0403 18:54:47.656618 18069 net.cpp:148] Top shape: 24 128 4 4 (49152)
I0403 18:54:47.656633 18069 net.cpp:156] Memory required for data: 1208122656
I0403 18:54:47.656648 18069 layer_factory.hpp:77] Creating layer loss2/fc
I0403 18:54:47.656668 18069 net.cpp:91] Creating Layer loss2/fc
I0403 18:54:47.656685 18069 net.cpp:425] loss2/fc <- loss2/conv
I0403 18:54:47.656705 18069 net.cpp:399] loss2/fc -> loss2/fc
I0403 18:54:47.674886 18069 net.cpp:141] Setting up loss2/fc
I0403 18:54:47.674931 18069 net.cpp:148] Top shape: 24 1024 (24576)
I0403 18:54:47.674947 18069 net.cpp:156] Memory required for data: 1208220960
I0403 18:54:47.674965 18069 layer_factory.hpp:77] Creating layer loss2/relu_fc
I0403 18:54:47.674988 18069 net.cpp:91] Creating Layer loss2/relu_fc
I0403 18:54:47.675006 18069 net.cpp:425] loss2/relu_fc <- loss2/fc
I0403 18:54:47.675026 18069 net.cpp:386] loss2/relu_fc -> loss2/fc (in-place)
I0403 18:54:47.675333 18069 net.cpp:141] Setting up loss2/relu_fc
I0403 18:54:47.675359 18069 net.cpp:148] Top shape: 24 1024 (24576)
I0403 18:54:47.675374 18069 net.cpp:156] Memory required for data: 1208319264
I0403 18:54:47.675390 18069 layer_factory.hpp:77] Creating layer loss2/drop_fc
I0403 18:54:47.675408 18069 net.cpp:91] Creating Layer loss2/drop_fc
I0403 18:54:47.675426 18069 net.cpp:425] loss2/drop_fc <- loss2/fc
I0403 18:54:47.675446 18069 net.cpp:386] loss2/drop_fc -> loss2/fc (in-place)
I0403 18:54:47.675495 18069 net.cpp:141] Setting up loss2/drop_fc
I0403 18:54:47.675521 18069 net.cpp:148] Top shape: 24 1024 (24576)
I0403 18:54:47.675537 18069 net.cpp:156] Memory required for data: 1208417568
I0403 18:54:47.675551 18069 layer_factory.hpp:77] Creating layer loss2/classifier_plantvillage
I0403 18:54:47.675571 18069 net.cpp:91] Creating Layer loss2/classifier_plantvillage
I0403 18:54:47.675587 18069 net.cpp:425] loss2/classifier_plantvillage <- loss2/fc
I0403 18:54:47.675609 18069 net.cpp:399] loss2/classifier_plantvillage -> loss2/classifier_plantvillage
I0403 18:54:47.676031 18069 net.cpp:141] Setting up loss2/classifier_plantvillage
I0403 18:54:47.676056 18069 net.cpp:148] Top shape: 24 38 (912)
I0403 18:54:47.676089 18069 net.cpp:156] Memory required for data: 1208421216
I0403 18:54:47.676120 18069 layer_factory.hpp:77] Creating layer loss2/classifier_plantvillage_loss2/classifier_plantvillage_0_split
I0403 18:54:47.676141 18069 net.cpp:91] Creating Layer loss2/classifier_plantvillage_loss2/classifier_plantvillage_0_split
I0403 18:54:47.676158 18069 net.cpp:425] loss2/classifier_plantvillage_loss2/classifier_plantvillage_0_split <- loss2/classifier_plantvillage
I0403 18:54:47.676177 18069 net.cpp:399] loss2/classifier_plantvillage_loss2/classifier_plantvillage_0_split -> loss2/classifier_plantvillage_loss2/classifier_plantvillage_0_split_0
I0403 18:54:47.676197 18069 net.cpp:399] loss2/classifier_plantvillage_loss2/classifier_plantvillage_0_split -> loss2/classifier_plantvillage_loss2/classifier_plantvillage_0_split_1
I0403 18:54:47.676220 18069 net.cpp:399] loss2/classifier_plantvillage_loss2/classifier_plantvillage_0_split -> loss2/classifier_plantvillage_loss2/classifier_plantvillage_0_split_2
I0403 18:54:47.676297 18069 net.cpp:141] Setting up loss2/classifier_plantvillage_loss2/classifier_plantvillage_0_split
I0403 18:54:47.676321 18069 net.cpp:148] Top shape: 24 38 (912)
I0403 18:54:47.676337 18069 net.cpp:148] Top shape: 24 38 (912)
I0403 18:54:47.676352 18069 net.cpp:148] Top shape: 24 38 (912)
I0403 18:54:47.676369 18069 net.cpp:156] Memory required for data: 1208432160
I0403 18:54:47.676383 18069 layer_factory.hpp:77] Creating layer inception_4e/1x1
I0403 18:54:47.676408 18069 net.cpp:91] Creating Layer inception_4e/1x1
I0403 18:54:47.676425 18069 net.cpp:425] inception_4e/1x1 <- inception_4d/output_inception_4d/output_0_split_1
I0403 18:54:47.676445 18069 net.cpp:399] inception_4e/1x1 -> inception_4e/1x1
I0403 18:54:47.678259 18069 net.cpp:141] Setting up inception_4e/1x1
I0403 18:54:47.678287 18069 net.cpp:148] Top shape: 24 256 14 14 (1204224)
I0403 18:54:47.678303 18069 net.cpp:156] Memory required for data: 1213249056
I0403 18:54:47.678320 18069 layer_factory.hpp:77] Creating layer inception_4e/relu_1x1
I0403 18:54:47.678341 18069 net.cpp:91] Creating Layer inception_4e/relu_1x1
I0403 18:54:47.678359 18069 net.cpp:425] inception_4e/relu_1x1 <- inception_4e/1x1
I0403 18:54:47.678375 18069 net.cpp:386] inception_4e/relu_1x1 -> inception_4e/1x1 (in-place)
I0403 18:54:47.678673 18069 net.cpp:141] Setting up inception_4e/relu_1x1
I0403 18:54:47.678699 18069 net.cpp:148] Top shape: 24 256 14 14 (1204224)
I0403 18:54:47.678714 18069 net.cpp:156] Memory required for data: 1218065952
I0403 18:54:47.678728 18069 layer_factory.hpp:77] Creating layer inception_4e/3x3_reduce
I0403 18:54:47.678751 18069 net.cpp:91] Creating Layer inception_4e/3x3_reduce
I0403 18:54:47.678769 18069 net.cpp:425] inception_4e/3x3_reduce <- inception_4d/output_inception_4d/output_0_split_2
I0403 18:54:47.678791 18069 net.cpp:399] inception_4e/3x3_reduce -> inception_4e/3x3_reduce
I0403 18:54:47.680917 18069 net.cpp:141] Setting up inception_4e/3x3_reduce
I0403 18:54:47.680945 18069 net.cpp:148] Top shape: 24 160 14 14 (752640)
I0403 18:54:47.680961 18069 net.cpp:156] Memory required for data: 1221076512
I0403 18:54:47.680984 18069 layer_factory.hpp:77] Creating layer inception_4e/relu_3x3_reduce
I0403 18:54:47.681005 18069 net.cpp:91] Creating Layer inception_4e/relu_3x3_reduce
I0403 18:54:47.681022 18069 net.cpp:425] inception_4e/relu_3x3_reduce <- inception_4e/3x3_reduce
I0403 18:54:47.681040 18069 net.cpp:386] inception_4e/relu_3x3_reduce -> inception_4e/3x3_reduce (in-place)
I0403 18:54:47.681223 18069 net.cpp:141] Setting up inception_4e/relu_3x3_reduce
I0403 18:54:47.681251 18069 net.cpp:148] Top shape: 24 160 14 14 (752640)
I0403 18:54:47.681265 18069 net.cpp:156] Memory required for data: 1224087072
I0403 18:54:47.681280 18069 layer_factory.hpp:77] Creating layer inception_4e/3x3
I0403 18:54:47.681305 18069 net.cpp:91] Creating Layer inception_4e/3x3
I0403 18:54:47.681324 18069 net.cpp:425] inception_4e/3x3 <- inception_4e/3x3_reduce
I0403 18:54:47.681342 18069 net.cpp:399] inception_4e/3x3 -> inception_4e/3x3
I0403 18:54:47.686358 18069 net.cpp:141] Setting up inception_4e/3x3
I0403 18:54:47.686403 18069 net.cpp:148] Top shape: 24 320 14 14 (1505280)
I0403 18:54:47.686420 18069 net.cpp:156] Memory required for data: 1230108192
I0403 18:54:47.686439 18069 layer_factory.hpp:77] Creating layer inception_4e/relu_3x3
I0403 18:54:47.686456 18069 net.cpp:91] Creating Layer inception_4e/relu_3x3
I0403 18:54:47.686473 18069 net.cpp:425] inception_4e/relu_3x3 <- inception_4e/3x3
I0403 18:54:47.686491 18069 net.cpp:386] inception_4e/relu_3x3 -> inception_4e/3x3 (in-place)
I0403 18:54:47.686792 18069 net.cpp:141] Setting up inception_4e/relu_3x3
I0403 18:54:47.686818 18069 net.cpp:148] Top shape: 24 320 14 14 (1505280)
I0403 18:54:47.686835 18069 net.cpp:156] Memory required for data: 1236129312
I0403 18:54:47.686848 18069 layer_factory.hpp:77] Creating layer inception_4e/5x5_reduce
I0403 18:54:47.686872 18069 net.cpp:91] Creating Layer inception_4e/5x5_reduce
I0403 18:54:47.686889 18069 net.cpp:425] inception_4e/5x5_reduce <- inception_4d/output_inception_4d/output_0_split_3
I0403 18:54:47.686911 18069 net.cpp:399] inception_4e/5x5_reduce -> inception_4e/5x5_reduce
I0403 18:54:47.687984 18069 net.cpp:141] Setting up inception_4e/5x5_reduce
I0403 18:54:47.688012 18069 net.cpp:148] Top shape: 24 32 14 14 (150528)
I0403 18:54:47.688027 18069 net.cpp:156] Memory required for data: 1236731424
I0403 18:54:47.688045 18069 layer_factory.hpp:77] Creating layer inception_4e/relu_5x5_reduce
I0403 18:54:47.688066 18069 net.cpp:91] Creating Layer inception_4e/relu_5x5_reduce
I0403 18:54:47.688083 18069 net.cpp:425] inception_4e/relu_5x5_reduce <- inception_4e/5x5_reduce
I0403 18:54:47.688100 18069 net.cpp:386] inception_4e/relu_5x5_reduce -> inception_4e/5x5_reduce (in-place)
I0403 18:54:47.688398 18069 net.cpp:141] Setting up inception_4e/relu_5x5_reduce
I0403 18:54:47.688424 18069 net.cpp:148] Top shape: 24 32 14 14 (150528)
I0403 18:54:47.688439 18069 net.cpp:156] Memory required for data: 1237333536
I0403 18:54:47.688454 18069 layer_factory.hpp:77] Creating layer inception_4e/5x5
I0403 18:54:47.688493 18069 net.cpp:91] Creating Layer inception_4e/5x5
I0403 18:54:47.688513 18069 net.cpp:425] inception_4e/5x5 <- inception_4e/5x5_reduce
I0403 18:54:47.688532 18069 net.cpp:399] inception_4e/5x5 -> inception_4e/5x5
I0403 18:54:47.690389 18069 net.cpp:141] Setting up inception_4e/5x5
I0403 18:54:47.690418 18069 net.cpp:148] Top shape: 24 128 14 14 (602112)
I0403 18:54:47.690434 18069 net.cpp:156] Memory required for data: 1239741984
I0403 18:54:47.690453 18069 layer_factory.hpp:77] Creating layer inception_4e/relu_5x5
I0403 18:54:47.690474 18069 net.cpp:91] Creating Layer inception_4e/relu_5x5
I0403 18:54:47.690490 18069 net.cpp:425] inception_4e/relu_5x5 <- inception_4e/5x5
I0403 18:54:47.690507 18069 net.cpp:386] inception_4e/relu_5x5 -> inception_4e/5x5 (in-place)
I0403 18:54:47.690702 18069 net.cpp:141] Setting up inception_4e/relu_5x5
I0403 18:54:47.690727 18069 net.cpp:148] Top shape: 24 128 14 14 (602112)
I0403 18:54:47.690742 18069 net.cpp:156] Memory required for data: 1242150432
I0403 18:54:47.690757 18069 layer_factory.hpp:77] Creating layer inception_4e/pool
I0403 18:54:47.690778 18069 net.cpp:91] Creating Layer inception_4e/pool
I0403 18:54:47.690794 18069 net.cpp:425] inception_4e/pool <- inception_4d/output_inception_4d/output_0_split_4
I0403 18:54:47.690812 18069 net.cpp:399] inception_4e/pool -> inception_4e/pool
I0403 18:54:47.690886 18069 net.cpp:141] Setting up inception_4e/pool
I0403 18:54:47.690910 18069 net.cpp:148] Top shape: 24 528 14 14 (2483712)
I0403 18:54:47.690924 18069 net.cpp:156] Memory required for data: 1252085280
I0403 18:54:47.690943 18069 layer_factory.hpp:77] Creating layer inception_4e/pool_proj
I0403 18:54:47.690965 18069 net.cpp:91] Creating Layer inception_4e/pool_proj
I0403 18:54:47.690987 18069 net.cpp:425] inception_4e/pool_proj <- inception_4e/pool
I0403 18:54:47.691010 18069 net.cpp:399] inception_4e/pool_proj -> inception_4e/pool_proj
I0403 18:54:47.692512 18069 net.cpp:141] Setting up inception_4e/pool_proj
I0403 18:54:47.692551 18069 net.cpp:148] Top shape: 24 128 14 14 (602112)
I0403 18:54:47.692567 18069 net.cpp:156] Memory required for data: 1254493728
I0403 18:54:47.692586 18069 layer_factory.hpp:77] Creating layer inception_4e/relu_pool_proj
I0403 18:54:47.692605 18069 net.cpp:91] Creating Layer inception_4e/relu_pool_proj
I0403 18:54:47.692621 18069 net.cpp:425] inception_4e/relu_pool_proj <- inception_4e/pool_proj
I0403 18:54:47.692641 18069 net.cpp:386] inception_4e/relu_pool_proj -> inception_4e/pool_proj (in-place)
I0403 18:54:47.692946 18069 net.cpp:141] Setting up inception_4e/relu_pool_proj
I0403 18:54:47.692991 18069 net.cpp:148] Top shape: 24 128 14 14 (602112)
I0403 18:54:47.693011 18069 net.cpp:156] Memory required for data: 1256902176
I0403 18:54:47.693028 18069 layer_factory.hpp:77] Creating layer inception_4e/output
I0403 18:54:47.693049 18069 net.cpp:91] Creating Layer inception_4e/output
I0403 18:54:47.693068 18069 net.cpp:425] inception_4e/output <- inception_4e/1x1
I0403 18:54:47.693087 18069 net.cpp:425] inception_4e/output <- inception_4e/3x3
I0403 18:54:47.693104 18069 net.cpp:425] inception_4e/output <- inception_4e/5x5
I0403 18:54:47.693126 18069 net.cpp:425] inception_4e/output <- inception_4e/pool_proj
I0403 18:54:47.693152 18069 net.cpp:399] inception_4e/output -> inception_4e/output
I0403 18:54:47.693209 18069 net.cpp:141] Setting up inception_4e/output
I0403 18:54:47.693246 18069 net.cpp:148] Top shape: 24 832 14 14 (3913728)
I0403 18:54:47.693261 18069 net.cpp:156] Memory required for data: 1272557088
I0403 18:54:47.693277 18069 layer_factory.hpp:77] Creating layer pool4/3x3_s2
I0403 18:54:47.693310 18069 net.cpp:91] Creating Layer pool4/3x3_s2
I0403 18:54:47.693325 18069 net.cpp:425] pool4/3x3_s2 <- inception_4e/output
I0403 18:54:47.693343 18069 net.cpp:399] pool4/3x3_s2 -> pool4/3x3_s2
I0403 18:54:47.693413 18069 net.cpp:141] Setting up pool4/3x3_s2
I0403 18:54:47.693436 18069 net.cpp:148] Top shape: 24 832 7 7 (978432)
I0403 18:54:47.693459 18069 net.cpp:156] Memory required for data: 1276470816
I0403 18:54:47.693473 18069 layer_factory.hpp:77] Creating layer pool4/3x3_s2_pool4/3x3_s2_0_split
I0403 18:54:47.693493 18069 net.cpp:91] Creating Layer pool4/3x3_s2_pool4/3x3_s2_0_split
I0403 18:54:47.693511 18069 net.cpp:425] pool4/3x3_s2_pool4/3x3_s2_0_split <- pool4/3x3_s2
I0403 18:54:47.693527 18069 net.cpp:399] pool4/3x3_s2_pool4/3x3_s2_0_split -> pool4/3x3_s2_pool4/3x3_s2_0_split_0
I0403 18:54:47.693550 18069 net.cpp:399] pool4/3x3_s2_pool4/3x3_s2_0_split -> pool4/3x3_s2_pool4/3x3_s2_0_split_1
I0403 18:54:47.693574 18069 net.cpp:399] pool4/3x3_s2_pool4/3x3_s2_0_split -> pool4/3x3_s2_pool4/3x3_s2_0_split_2
I0403 18:54:47.693595 18069 net.cpp:399] pool4/3x3_s2_pool4/3x3_s2_0_split -> pool4/3x3_s2_pool4/3x3_s2_0_split_3
I0403 18:54:47.693686 18069 net.cpp:141] Setting up pool4/3x3_s2_pool4/3x3_s2_0_split
I0403 18:54:47.693709 18069 net.cpp:148] Top shape: 24 832 7 7 (978432)
I0403 18:54:47.693725 18069 net.cpp:148] Top shape: 24 832 7 7 (978432)
I0403 18:54:47.693742 18069 net.cpp:148] Top shape: 24 832 7 7 (978432)
I0403 18:54:47.693758 18069 net.cpp:148] Top shape: 24 832 7 7 (978432)
I0403 18:54:47.693771 18069 net.cpp:156] Memory required for data: 1292125728
I0403 18:54:47.693786 18069 layer_factory.hpp:77] Creating layer inception_5a/1x1
I0403 18:54:47.693820 18069 net.cpp:91] Creating Layer inception_5a/1x1
I0403 18:54:47.693840 18069 net.cpp:425] inception_5a/1x1 <- pool4/3x3_s2_pool4/3x3_s2_0_split_0
I0403 18:54:47.693895 18069 net.cpp:399] inception_5a/1x1 -> inception_5a/1x1
I0403 18:54:47.697592 18069 net.cpp:141] Setting up inception_5a/1x1
I0403 18:54:47.697624 18069 net.cpp:148] Top shape: 24 256 7 7 (301056)
I0403 18:54:47.697665 18069 net.cpp:156] Memory required for data: 1293329952
I0403 18:54:47.697695 18069 layer_factory.hpp:77] Creating layer inception_5a/relu_1x1
I0403 18:54:47.697731 18069 net.cpp:91] Creating Layer inception_5a/relu_1x1
I0403 18:54:47.697757 18069 net.cpp:425] inception_5a/relu_1x1 <- inception_5a/1x1
I0403 18:54:47.697788 18069 net.cpp:386] inception_5a/relu_1x1 -> inception_5a/1x1 (in-place)
I0403 18:54:47.698174 18069 net.cpp:141] Setting up inception_5a/relu_1x1
I0403 18:54:47.698202 18069 net.cpp:148] Top shape: 24 256 7 7 (301056)
I0403 18:54:47.698217 18069 net.cpp:156] Memory required for data: 1294534176
I0403 18:54:47.698232 18069 layer_factory.hpp:77] Creating layer inception_5a/3x3_reduce
I0403 18:54:47.698256 18069 net.cpp:91] Creating Layer inception_5a/3x3_reduce
I0403 18:54:47.698274 18069 net.cpp:425] inception_5a/3x3_reduce <- pool4/3x3_s2_pool4/3x3_s2_0_split_1
I0403 18:54:47.698297 18069 net.cpp:399] inception_5a/3x3_reduce -> inception_5a/3x3_reduce
I0403 18:54:47.700867 18069 net.cpp:141] Setting up inception_5a/3x3_reduce
I0403 18:54:47.700899 18069 net.cpp:148] Top shape: 24 160 7 7 (188160)
I0403 18:54:47.700917 18069 net.cpp:156] Memory required for data: 1295286816
I0403 18:54:47.700937 18069 layer_factory.hpp:77] Creating layer inception_5a/relu_3x3_reduce
I0403 18:54:47.700955 18069 net.cpp:91] Creating Layer inception_5a/relu_3x3_reduce
I0403 18:54:47.700973 18069 net.cpp:425] inception_5a/relu_3x3_reduce <- inception_5a/3x3_reduce
I0403 18:54:47.700997 18069 net.cpp:386] inception_5a/relu_3x3_reduce -> inception_5a/3x3_reduce (in-place)
I0403 18:54:47.701192 18069 net.cpp:141] Setting up inception_5a/relu_3x3_reduce
I0403 18:54:47.701218 18069 net.cpp:148] Top shape: 24 160 7 7 (188160)
I0403 18:54:47.701233 18069 net.cpp:156] Memory required for data: 1296039456
I0403 18:54:47.701249 18069 layer_factory.hpp:77] Creating layer inception_5a/3x3
I0403 18:54:47.701272 18069 net.cpp:91] Creating Layer inception_5a/3x3
I0403 18:54:47.701290 18069 net.cpp:425] inception_5a/3x3 <- inception_5a/3x3_reduce
I0403 18:54:47.701313 18069 net.cpp:399] inception_5a/3x3 -> inception_5a/3x3
I0403 18:54:47.706437 18069 net.cpp:141] Setting up inception_5a/3x3
I0403 18:54:47.706467 18069 net.cpp:148] Top shape: 24 320 7 7 (376320)
I0403 18:54:47.706483 18069 net.cpp:156] Memory required for data: 1297544736
I0403 18:54:47.706501 18069 layer_factory.hpp:77] Creating layer inception_5a/relu_3x3
I0403 18:54:47.706521 18069 net.cpp:91] Creating Layer inception_5a/relu_3x3
I0403 18:54:47.706538 18069 net.cpp:425] inception_5a/relu_3x3 <- inception_5a/3x3
I0403 18:54:47.706557 18069 net.cpp:386] inception_5a/relu_3x3 -> inception_5a/3x3 (in-place)
I0403 18:54:47.706848 18069 net.cpp:141] Setting up inception_5a/relu_3x3
I0403 18:54:47.706876 18069 net.cpp:148] Top shape: 24 320 7 7 (376320)
I0403 18:54:47.706890 18069 net.cpp:156] Memory required for data: 1299050016
I0403 18:54:47.706904 18069 layer_factory.hpp:77] Creating layer inception_5a/5x5_reduce
I0403 18:54:47.706928 18069 net.cpp:91] Creating Layer inception_5a/5x5_reduce
I0403 18:54:47.706945 18069 net.cpp:425] inception_5a/5x5_reduce <- pool4/3x3_s2_pool4/3x3_s2_0_split_2
I0403 18:54:47.706967 18069 net.cpp:399] inception_5a/5x5_reduce -> inception_5a/5x5_reduce
I0403 18:54:47.708144 18069 net.cpp:141] Setting up inception_5a/5x5_reduce
I0403 18:54:47.708173 18069 net.cpp:148] Top shape: 24 32 7 7 (37632)
I0403 18:54:47.708189 18069 net.cpp:156] Memory required for data: 1299200544
I0403 18:54:47.708209 18069 layer_factory.hpp:77] Creating layer inception_5a/relu_5x5_reduce
I0403 18:54:47.708228 18069 net.cpp:91] Creating Layer inception_5a/relu_5x5_reduce
I0403 18:54:47.708245 18069 net.cpp:425] inception_5a/relu_5x5_reduce <- inception_5a/5x5_reduce
I0403 18:54:47.708264 18069 net.cpp:386] inception_5a/relu_5x5_reduce -> inception_5a/5x5_reduce (in-place)
I0403 18:54:47.708564 18069 net.cpp:141] Setting up inception_5a/relu_5x5_reduce
I0403 18:54:47.708590 18069 net.cpp:148] Top shape: 24 32 7 7 (37632)
I0403 18:54:47.708606 18069 net.cpp:156] Memory required for data: 1299351072
I0403 18:54:47.708621 18069 layer_factory.hpp:77] Creating layer inception_5a/5x5
I0403 18:54:47.708642 18069 net.cpp:91] Creating Layer inception_5a/5x5
I0403 18:54:47.708660 18069 net.cpp:425] inception_5a/5x5 <- inception_5a/5x5_reduce
I0403 18:54:47.708683 18069 net.cpp:399] inception_5a/5x5 -> inception_5a/5x5
I0403 18:54:47.710422 18069 net.cpp:141] Setting up inception_5a/5x5
I0403 18:54:47.710460 18069 net.cpp:148] Top shape: 24 128 7 7 (150528)
I0403 18:54:47.710476 18069 net.cpp:156] Memory required for data: 1299953184
I0403 18:54:47.710495 18069 layer_factory.hpp:77] Creating layer inception_5a/relu_5x5
I0403 18:54:47.710516 18069 net.cpp:91] Creating Layer inception_5a/relu_5x5
I0403 18:54:47.710535 18069 net.cpp:425] inception_5a/relu_5x5 <- inception_5a/5x5
I0403 18:54:47.710552 18069 net.cpp:386] inception_5a/relu_5x5 -> inception_5a/5x5 (in-place)
I0403 18:54:47.710742 18069 net.cpp:141] Setting up inception_5a/relu_5x5
I0403 18:54:47.710767 18069 net.cpp:148] Top shape: 24 128 7 7 (150528)
I0403 18:54:47.710783 18069 net.cpp:156] Memory required for data: 1300555296
I0403 18:54:47.710798 18069 layer_factory.hpp:77] Creating layer inception_5a/pool
I0403 18:54:47.710818 18069 net.cpp:91] Creating Layer inception_5a/pool
I0403 18:54:47.710834 18069 net.cpp:425] inception_5a/pool <- pool4/3x3_s2_pool4/3x3_s2_0_split_3
I0403 18:54:47.710853 18069 net.cpp:399] inception_5a/pool -> inception_5a/pool
I0403 18:54:47.710924 18069 net.cpp:141] Setting up inception_5a/pool
I0403 18:54:47.710948 18069 net.cpp:148] Top shape: 24 832 7 7 (978432)
I0403 18:54:47.710963 18069 net.cpp:156] Memory required for data: 1304469024
I0403 18:54:47.710981 18069 layer_factory.hpp:77] Creating layer inception_5a/pool_proj
I0403 18:54:47.711004 18069 net.cpp:91] Creating Layer inception_5a/pool_proj
I0403 18:54:47.711022 18069 net.cpp:425] inception_5a/pool_proj <- inception_5a/pool
I0403 18:54:47.711045 18069 net.cpp:399] inception_5a/pool_proj -> inception_5a/pool_proj
I0403 18:54:47.713335 18069 net.cpp:141] Setting up inception_5a/pool_proj
I0403 18:54:47.713363 18069 net.cpp:148] Top shape: 24 128 7 7 (150528)
I0403 18:54:47.713379 18069 net.cpp:156] Memory required for data: 1305071136
I0403 18:54:47.713398 18069 layer_factory.hpp:77] Creating layer inception_5a/relu_pool_proj
I0403 18:54:47.713415 18069 net.cpp:91] Creating Layer inception_5a/relu_pool_proj
I0403 18:54:47.713431 18069 net.cpp:425] inception_5a/relu_pool_proj <- inception_5a/pool_proj
I0403 18:54:47.713451 18069 net.cpp:386] inception_5a/relu_pool_proj -> inception_5a/pool_proj (in-place)
I0403 18:54:47.713747 18069 net.cpp:141] Setting up inception_5a/relu_pool_proj
I0403 18:54:47.713773 18069 net.cpp:148] Top shape: 24 128 7 7 (150528)
I0403 18:54:47.713789 18069 net.cpp:156] Memory required for data: 1305673248
I0403 18:54:47.713804 18069 layer_factory.hpp:77] Creating layer inception_5a/output
I0403 18:54:47.713820 18069 net.cpp:91] Creating Layer inception_5a/output
I0403 18:54:47.713836 18069 net.cpp:425] inception_5a/output <- inception_5a/1x1
I0403 18:54:47.713853 18069 net.cpp:425] inception_5a/output <- inception_5a/3x3
I0403 18:54:47.713870 18069 net.cpp:425] inception_5a/output <- inception_5a/5x5
I0403 18:54:47.713886 18069 net.cpp:425] inception_5a/output <- inception_5a/pool_proj
I0403 18:54:47.713906 18069 net.cpp:399] inception_5a/output -> inception_5a/output
I0403 18:54:47.713955 18069 net.cpp:141] Setting up inception_5a/output
I0403 18:54:47.713984 18069 net.cpp:148] Top shape: 24 832 7 7 (978432)
I0403 18:54:47.714001 18069 net.cpp:156] Memory required for data: 1309586976
I0403 18:54:47.714016 18069 layer_factory.hpp:77] Creating layer inception_5a/output_inception_5a/output_0_split
I0403 18:54:47.714033 18069 net.cpp:91] Creating Layer inception_5a/output_inception_5a/output_0_split
I0403 18:54:47.714051 18069 net.cpp:425] inception_5a/output_inception_5a/output_0_split <- inception_5a/output
I0403 18:54:47.714067 18069 net.cpp:399] inception_5a/output_inception_5a/output_0_split -> inception_5a/output_inception_5a/output_0_split_0
I0403 18:54:47.714087 18069 net.cpp:399] inception_5a/output_inception_5a/output_0_split -> inception_5a/output_inception_5a/output_0_split_1
I0403 18:54:47.714110 18069 net.cpp:399] inception_5a/output_inception_5a/output_0_split -> inception_5a/output_inception_5a/output_0_split_2
I0403 18:54:47.714131 18069 net.cpp:399] inception_5a/output_inception_5a/output_0_split -> inception_5a/output_inception_5a/output_0_split_3
I0403 18:54:47.714246 18069 net.cpp:141] Setting up inception_5a/output_inception_5a/output_0_split
I0403 18:54:47.714268 18069 net.cpp:148] Top shape: 24 832 7 7 (978432)
I0403 18:54:47.714285 18069 net.cpp:148] Top shape: 24 832 7 7 (978432)
I0403 18:54:47.714301 18069 net.cpp:148] Top shape: 24 832 7 7 (978432)
I0403 18:54:47.714316 18069 net.cpp:148] Top shape: 24 832 7 7 (978432)
I0403 18:54:47.714329 18069 net.cpp:156] Memory required for data: 1325241888
I0403 18:54:47.714344 18069 layer_factory.hpp:77] Creating layer inception_5b/1x1
I0403 18:54:47.714366 18069 net.cpp:91] Creating Layer inception_5b/1x1
I0403 18:54:47.714385 18069 net.cpp:425] inception_5b/1x1 <- inception_5a/output_inception_5a/output_0_split_0
I0403 18:54:47.714406 18069 net.cpp:399] inception_5b/1x1 -> inception_5b/1x1
I0403 18:54:47.718190 18069 net.cpp:141] Setting up inception_5b/1x1
I0403 18:54:47.718222 18069 net.cpp:148] Top shape: 24 384 7 7 (451584)
I0403 18:54:47.718240 18069 net.cpp:156] Memory required for data: 1327048224
I0403 18:54:47.718258 18069 layer_factory.hpp:77] Creating layer inception_5b/relu_1x1
I0403 18:54:47.718276 18069 net.cpp:91] Creating Layer inception_5b/relu_1x1
I0403 18:54:47.718291 18069 net.cpp:425] inception_5b/relu_1x1 <- inception_5b/1x1
I0403 18:54:47.718312 18069 net.cpp:386] inception_5b/relu_1x1 -> inception_5b/1x1 (in-place)
I0403 18:54:47.718616 18069 net.cpp:141] Setting up inception_5b/relu_1x1
I0403 18:54:47.718646 18069 net.cpp:148] Top shape: 24 384 7 7 (451584)
I0403 18:54:47.718662 18069 net.cpp:156] Memory required for data: 1328854560
I0403 18:54:47.718677 18069 layer_factory.hpp:77] Creating layer inception_5b/3x3_reduce
I0403 18:54:47.718699 18069 net.cpp:91] Creating Layer inception_5b/3x3_reduce
I0403 18:54:47.718716 18069 net.cpp:425] inception_5b/3x3_reduce <- inception_5a/output_inception_5a/output_0_split_1
I0403 18:54:47.718735 18069 net.cpp:399] inception_5b/3x3_reduce -> inception_5b/3x3_reduce
I0403 18:54:47.721407 18069 net.cpp:141] Setting up inception_5b/3x3_reduce
I0403 18:54:47.721437 18069 net.cpp:148] Top shape: 24 192 7 7 (225792)
I0403 18:54:47.721453 18069 net.cpp:156] Memory required for data: 1329757728
I0403 18:54:47.721473 18069 layer_factory.hpp:77] Creating layer inception_5b/relu_3x3_reduce
I0403 18:54:47.721493 18069 net.cpp:91] Creating Layer inception_5b/relu_3x3_reduce
I0403 18:54:47.721509 18069 net.cpp:425] inception_5b/relu_3x3_reduce <- inception_5b/3x3_reduce
I0403 18:54:47.721529 18069 net.cpp:386] inception_5b/relu_3x3_reduce -> inception_5b/3x3_reduce (in-place)
I0403 18:54:47.721721 18069 net.cpp:141] Setting up inception_5b/relu_3x3_reduce
I0403 18:54:47.721746 18069 net.cpp:148] Top shape: 24 192 7 7 (225792)
I0403 18:54:47.721761 18069 net.cpp:156] Memory required for data: 1330660896
I0403 18:54:47.721776 18069 layer_factory.hpp:77] Creating layer inception_5b/3x3
I0403 18:54:47.721798 18069 net.cpp:91] Creating Layer inception_5b/3x3
I0403 18:54:47.721815 18069 net.cpp:425] inception_5b/3x3 <- inception_5b/3x3_reduce
I0403 18:54:47.721837 18069 net.cpp:399] inception_5b/3x3 -> inception_5b/3x3
I0403 18:54:47.728863 18069 net.cpp:141] Setting up inception_5b/3x3
I0403 18:54:47.728893 18069 net.cpp:148] Top shape: 24 384 7 7 (451584)
I0403 18:54:47.728909 18069 net.cpp:156] Memory required for data: 1332467232
I0403 18:54:47.728929 18069 layer_factory.hpp:77] Creating layer inception_5b/relu_3x3
I0403 18:54:47.728947 18069 net.cpp:91] Creating Layer inception_5b/relu_3x3
I0403 18:54:47.728965 18069 net.cpp:425] inception_5b/relu_3x3 <- inception_5b/3x3
I0403 18:54:47.728994 18069 net.cpp:386] inception_5b/relu_3x3 -> inception_5b/3x3 (in-place)
I0403 18:54:47.729307 18069 net.cpp:141] Setting up inception_5b/relu_3x3
I0403 18:54:47.729334 18069 net.cpp:148] Top shape: 24 384 7 7 (451584)
I0403 18:54:47.729351 18069 net.cpp:156] Memory required for data: 1334273568
I0403 18:54:47.729367 18069 layer_factory.hpp:77] Creating layer inception_5b/5x5_reduce
I0403 18:54:47.729405 18069 net.cpp:91] Creating Layer inception_5b/5x5_reduce
I0403 18:54:47.729424 18069 net.cpp:425] inception_5b/5x5_reduce <- inception_5a/output_inception_5a/output_0_split_2
I0403 18:54:47.729449 18069 net.cpp:399] inception_5b/5x5_reduce -> inception_5b/5x5_reduce
I0403 18:54:47.730767 18069 net.cpp:141] Setting up inception_5b/5x5_reduce
I0403 18:54:47.730798 18069 net.cpp:148] Top shape: 24 48 7 7 (56448)
I0403 18:54:47.730814 18069 net.cpp:156] Memory required for data: 1334499360
I0403 18:54:47.730834 18069 layer_factory.hpp:77] Creating layer inception_5b/relu_5x5_reduce
I0403 18:54:47.730854 18069 net.cpp:91] Creating Layer inception_5b/relu_5x5_reduce
I0403 18:54:47.730870 18069 net.cpp:425] inception_5b/relu_5x5_reduce <- inception_5b/5x5_reduce
I0403 18:54:47.730890 18069 net.cpp:386] inception_5b/relu_5x5_reduce -> inception_5b/5x5_reduce (in-place)
I0403 18:54:47.731290 18069 net.cpp:141] Setting up inception_5b/relu_5x5_reduce
I0403 18:54:47.731318 18069 net.cpp:148] Top shape: 24 48 7 7 (56448)
I0403 18:54:47.731334 18069 net.cpp:156] Memory required for data: 1334725152
I0403 18:54:47.731350 18069 layer_factory.hpp:77] Creating layer inception_5b/5x5
I0403 18:54:47.731370 18069 net.cpp:91] Creating Layer inception_5b/5x5
I0403 18:54:47.731389 18069 net.cpp:425] inception_5b/5x5 <- inception_5b/5x5_reduce
I0403 18:54:47.731408 18069 net.cpp:399] inception_5b/5x5 -> inception_5b/5x5
I0403 18:54:47.733577 18069 net.cpp:141] Setting up inception_5b/5x5
I0403 18:54:47.733605 18069 net.cpp:148] Top shape: 24 128 7 7 (150528)
I0403 18:54:47.733621 18069 net.cpp:156] Memory required for data: 1335327264
I0403 18:54:47.733640 18069 layer_factory.hpp:77] Creating layer inception_5b/relu_5x5
I0403 18:54:47.733661 18069 net.cpp:91] Creating Layer inception_5b/relu_5x5
I0403 18:54:47.733680 18069 net.cpp:425] inception_5b/relu_5x5 <- inception_5b/5x5
I0403 18:54:47.733697 18069 net.cpp:386] inception_5b/relu_5x5 -> inception_5b/5x5 (in-place)
I0403 18:54:47.733897 18069 net.cpp:141] Setting up inception_5b/relu_5x5
I0403 18:54:47.733923 18069 net.cpp:148] Top shape: 24 128 7 7 (150528)
I0403 18:54:47.733942 18069 net.cpp:156] Memory required for data: 1335929376
I0403 18:54:47.733958 18069 layer_factory.hpp:77] Creating layer inception_5b/pool
I0403 18:54:47.733980 18069 net.cpp:91] Creating Layer inception_5b/pool
I0403 18:54:47.733999 18069 net.cpp:425] inception_5b/pool <- inception_5a/output_inception_5a/output_0_split_3
I0403 18:54:47.734019 18069 net.cpp:399] inception_5b/pool -> inception_5b/pool
I0403 18:54:47.734094 18069 net.cpp:141] Setting up inception_5b/pool
I0403 18:54:47.734119 18069 net.cpp:148] Top shape: 24 832 7 7 (978432)
I0403 18:54:47.734133 18069 net.cpp:156] Memory required for data: 1339843104
I0403 18:54:47.734149 18069 layer_factory.hpp:77] Creating layer inception_5b/pool_proj
I0403 18:54:47.734172 18069 net.cpp:91] Creating Layer inception_5b/pool_proj
I0403 18:54:47.734190 18069 net.cpp:425] inception_5b/pool_proj <- inception_5b/pool
I0403 18:54:47.734215 18069 net.cpp:399] inception_5b/pool_proj -> inception_5b/pool_proj
I0403 18:54:47.736603 18069 net.cpp:141] Setting up inception_5b/pool_proj
I0403 18:54:47.736632 18069 net.cpp:148] Top shape: 24 128 7 7 (150528)
I0403 18:54:47.736649 18069 net.cpp:156] Memory required for data: 1340445216
I0403 18:54:47.736668 18069 layer_factory.hpp:77] Creating layer inception_5b/relu_pool_proj
I0403 18:54:47.736686 18069 net.cpp:91] Creating Layer inception_5b/relu_pool_proj
I0403 18:54:47.736707 18069 net.cpp:425] inception_5b/relu_pool_proj <- inception_5b/pool_proj
I0403 18:54:47.736726 18069 net.cpp:386] inception_5b/relu_pool_proj -> inception_5b/pool_proj (in-place)
I0403 18:54:47.737040 18069 net.cpp:141] Setting up inception_5b/relu_pool_proj
I0403 18:54:47.737067 18069 net.cpp:148] Top shape: 24 128 7 7 (150528)
I0403 18:54:47.737082 18069 net.cpp:156] Memory required for data: 1341047328
I0403 18:54:47.737097 18069 layer_factory.hpp:77] Creating layer inception_5b/output
I0403 18:54:47.737115 18069 net.cpp:91] Creating Layer inception_5b/output
I0403 18:54:47.737148 18069 net.cpp:425] inception_5b/output <- inception_5b/1x1
I0403 18:54:47.737167 18069 net.cpp:425] inception_5b/output <- inception_5b/3x3
I0403 18:54:47.737185 18069 net.cpp:425] inception_5b/output <- inception_5b/5x5
I0403 18:54:47.737201 18069 net.cpp:425] inception_5b/output <- inception_5b/pool_proj
I0403 18:54:47.737222 18069 net.cpp:399] inception_5b/output -> inception_5b/output
I0403 18:54:47.737277 18069 net.cpp:141] Setting up inception_5b/output
I0403 18:54:47.737303 18069 net.cpp:148] Top shape: 24 1024 7 7 (1204224)
I0403 18:54:47.737318 18069 net.cpp:156] Memory required for data: 1345864224
I0403 18:54:47.737334 18069 layer_factory.hpp:77] Creating layer pool5/7x7_s1
I0403 18:54:47.737351 18069 net.cpp:91] Creating Layer pool5/7x7_s1
I0403 18:54:47.737367 18069 net.cpp:425] pool5/7x7_s1 <- inception_5b/output
I0403 18:54:47.737390 18069 net.cpp:399] pool5/7x7_s1 -> pool5/7x7_s1
I0403 18:54:47.737634 18069 net.cpp:141] Setting up pool5/7x7_s1
I0403 18:54:47.737661 18069 net.cpp:148] Top shape: 24 1024 1 1 (24576)
I0403 18:54:47.737678 18069 net.cpp:156] Memory required for data: 1345962528
I0403 18:54:47.737694 18069 layer_factory.hpp:77] Creating layer pool5/drop_7x7_s1
I0403 18:54:47.737712 18069 net.cpp:91] Creating Layer pool5/drop_7x7_s1
I0403 18:54:47.737741 18069 net.cpp:425] pool5/drop_7x7_s1 <- pool5/7x7_s1
I0403 18:54:47.737762 18069 net.cpp:386] pool5/drop_7x7_s1 -> pool5/7x7_s1 (in-place)
I0403 18:54:47.737814 18069 net.cpp:141] Setting up pool5/drop_7x7_s1
I0403 18:54:47.737843 18069 net.cpp:148] Top shape: 24 1024 1 1 (24576)
I0403 18:54:47.737859 18069 net.cpp:156] Memory required for data: 1346060832
I0403 18:54:47.737874 18069 layer_factory.hpp:77] Creating layer loss3/classifier_plantvillage
I0403 18:54:47.737893 18069 net.cpp:91] Creating Layer loss3/classifier_plantvillage
I0403 18:54:47.737910 18069 net.cpp:425] loss3/classifier_plantvillage <- pool5/7x7_s1
I0403 18:54:47.737932 18069 net.cpp:399] loss3/classifier_plantvillage -> loss3/classifier_plantvillage
I0403 18:54:47.738378 18069 net.cpp:141] Setting up loss3/classifier_plantvillage
I0403 18:54:47.738404 18069 net.cpp:148] Top shape: 24 38 (912)
I0403 18:54:47.738420 18069 net.cpp:156] Memory required for data: 1346064480
I0403 18:54:47.738440 18069 layer_factory.hpp:77] Creating layer loss3/classifier_plantvillage_loss3/classifier_plantvillage_0_split
I0403 18:54:47.738457 18069 net.cpp:91] Creating Layer loss3/classifier_plantvillage_loss3/classifier_plantvillage_0_split
I0403 18:54:47.738474 18069 net.cpp:425] loss3/classifier_plantvillage_loss3/classifier_plantvillage_0_split <- loss3/classifier_plantvillage
I0403 18:54:47.738492 18069 net.cpp:399] loss3/classifier_plantvillage_loss3/classifier_plantvillage_0_split -> loss3/classifier_plantvillage_loss3/classifier_plantvillage_0_split_0
I0403 18:54:47.738513 18069 net.cpp:399] loss3/classifier_plantvillage_loss3/classifier_plantvillage_0_split -> loss3/classifier_plantvillage_loss3/classifier_plantvillage_0_split_1
I0403 18:54:47.738538 18069 net.cpp:399] loss3/classifier_plantvillage_loss3/classifier_plantvillage_0_split -> loss3/classifier_plantvillage_loss3/classifier_plantvillage_0_split_2
I0403 18:54:47.738560 18069 net.cpp:399] loss3/classifier_plantvillage_loss3/classifier_plantvillage_0_split -> loss3/classifier_plantvillage_loss3/classifier_plantvillage_0_split_3
I0403 18:54:47.738682 18069 net.cpp:141] Setting up loss3/classifier_plantvillage_loss3/classifier_plantvillage_0_split
I0403 18:54:47.738705 18069 net.cpp:148] Top shape: 24 38 (912)
I0403 18:54:47.738723 18069 net.cpp:148] Top shape: 24 38 (912)
I0403 18:54:47.738739 18069 net.cpp:148] Top shape: 24 38 (912)
I0403 18:54:47.738755 18069 net.cpp:148] Top shape: 24 38 (912)
I0403 18:54:47.738770 18069 net.cpp:156] Memory required for data: 1346079072
I0403 18:54:47.738785 18069 layer_factory.hpp:77] Creating layer loss1/loss
I0403 18:54:47.738811 18069 net.cpp:91] Creating Layer loss1/loss
I0403 18:54:47.738829 18069 net.cpp:425] loss1/loss <- loss1/classifier_plantvillage_loss1/classifier_plantvillage_0_split_0
I0403 18:54:47.738862 18069 net.cpp:425] loss1/loss <- label_data_1_split_0
…
