…
I0403 18:56:11.210458 18172 net.cpp:313] The NetState phase (1) differed from the phase (0) specified by a rule in layer data
I0403 18:56:11.211573 18172 net.cpp:49] Initializing net from parameters: 
state {
  phase: TEST
}
layer {
  name: "data"
  type: "Data"
  top: "data"
  top: "label"
  include {
    phase: TEST
  }
  transform_param {
    mirror: false
    crop_size: 224
    mean_file: "/home/mohanty/data/final_dataset/lmdb/segmented-60-40/mean.binaryproto"
  }
  data_param {
    source: "/home/mohanty/data/final_dataset/lmdb/segmented-60-40/test_db"
    batch_size: 24
    backend: LMDB
  }
}
layer {
  name: "conv1/7x7_s2"
  type: "Convolution"
  bottom: "data"
  top: "conv1/7x7_s2"
  param {
    lr_mult: 1
    decay_mult: 1
  }
  param {
    lr_mult: 2
    decay_mult: 0
  }
  convolution_param {
    num_output: 64
    pad: 3
    kernel_size: 7
    stride: 2
    weight_filler {
      type: "xavier"
      std: 0.1
    }
    bias_filler {
      type: "constant"
      value: 0.2
    }
  }
}
layer {
  name: "conv1/relu_7x7"
  type: "ReLU"
  bottom: "conv1/7x7_s2"
  top: "conv1/7x7_s2"
}
layer {
  name: "pool1/3x3_s2"
  type: "Pooling"
  bottom: "conv1/7x7_s2"
  top: "pool1/3x3_s2"
  pooling_param {
    pool: MAX
    kernel_size: 3
    stride: 2
  }
}
layer {
  name: "pool1/norm1"
  type: "LRN"
  bottom: "pool1/3x3_s2"
  top: "pool1/norm1"
  lrn_param {
    local_size: 5
    alpha: 0.0001
    beta: 0.75
  }
}
layer {
  name: "conv2/3x3_reduce"
  type: "Convolution"
  bottom: "pool1/norm1"
  top: "conv2/3x3_reduce"
  param {
    lr_mult: 1
    decay_mult: 1
  }
  param {
    lr_mult: 2
    decay_mult: 0
  }
  convolution_param {
    num_output: 64
    kernel_size: 1
    weight_filler {
      type: "xavier"
      std: 0.1
    }
    bias_filler {
      type: "constant"
      value: 0.2
    }
  }
}
layer {
  name: "conv2/relu_3x3_reduce"
  type: "ReLU"
  bottom: "conv2/3x3_reduce"
  top: "conv2/3x3_reduce"
}
layer {
  name: "conv2/3x3"
  type: "Convolution"
  bottom: "conv2/3x3_reduce"
  top: "conv2/3x3"
  param {
    lr_mult: 1
    decay_mult: 1
  }
  param {
    lr_mult: 2
    decay_mult: 0
  }
  convolution_param {
    num_output: 192
    pad: 1
    kernel_size: 3
    weight_filler {
      type: "xavier"
      std: 0.03
    }
    bias_filler {
      type: "constant"
      value: 0.2
    }
  }
}
layer {
  name: "conv2/relu_3x3"
  type: "ReLU"
  bottom: "conv2/3x3"
  top: "conv2/3x3"
}
layer {
  name: "conv2/norm2"
  type: "LRN"
  bottom: "conv2/3x3"
  top: "conv2/norm2"
  lrn_param {
    local_size: 5
    alpha: 0.0001
    beta: 0.75
  }
}
layer {
  name: "pool2/3x3_s2"
  type: "Pooling"
  bottom: "conv2/norm2"
  top: "pool2/3x3_s2"
  pooling_param {
    pool: MAX
    kernel_size: 3
    stride: 2
  }
}
layer {
  name: "inception_3a/1x1"
  type: "Convolution"
  bottom: "pool2/3x3_s2"
  top: "inception_3a/1x1"
  param {
    lr_mult: 1
    decay_mult: 1
  }
  param {
    lr_mult: 2
    decay_mult: 0
  }
  convolution_param {
    num_output: 64
    kernel_size: 1
    weight_filler {
      type: "xavier"
      std: 0.03
    }
    bias_filler {
      type: "constant"
      value: 0.2
    }
  }
}
layer {
  name: "inception_3a/relu_1x1"
  type: "ReLU"
  bottom: "inception_3a/1x1"
  top: "inception_3a/1x1"
}
layer {
  name: "inception_3a/3x3_reduce"
  type: "Convolution"
  bottom: "pool2/3x3_s2"
  top: "inception_3a/3x3_reduce"
  param {
    lr_mult: 1
    decay_mult: 1
  }
  param {
    lr_mult: 2
    decay_mult: 0
  }
  convolution_param {
    num_output: 96
    kernel_size: 1
    weight_filler {
      type: "xavier"
      std: 0.09
    }
    bias_filler {
      type: "constant"
      value: 0.2
    }
  }
}
layer {
  name: "inception_3a/relu_3x3_reduce"
  type: "ReLU"
  bottom: "inception_3a/3x3_reduce"
  top: "inception_3a/3x3_reduce"
}
layer {
  name: "inception_3a/3x3"
  type: "Convolution"
  bottom: "inception_3a/3x3_reduce"
  top: "inception_3a/3x3"
  param {
    lr_mult: 1
    decay_mult: 1
  }
  param {
    lr_mult: 2
    decay_mult: 0
  }
  convolution_param {
    num_output: 128
    pad: 1
    kernel_size: 3
    weight_filler {
      type: "xavier"
      std: 0.03
    }
    bias_filler {
      type: "constant"
      value: 0.2
    }
  }
}
layer {
  name: "inception_3a/relu_3x3"
  type: "ReLU"
  bottom: "inception_3a/3x3"
  top: "inception_3a/3x3"
}
layer {
  name: "inception_3a/5x5_reduce"
  type: "Convolution"
  bottom: "pool2/3x3_s2"
  top: "inception_3a/5x5_reduce"
  param {
    lr_mult: 1
    decay_mult: 1
  }
  param {
    lr_mult: 2
    decay_mult: 0
  }
  convolution_param {
    num_output: 16
    kernel_size: 1
    weight_filler {
      type: "xavier"
      std: 0.2
    }
    bias_filler {
      type: "constant"
      value: 0.2
    }
  }
}
layer {
  name: "inception_3a/relu_5x5_reduce"
  type: "ReLU"
  bottom: "inception_3a/5x5_reduce"
  top: "inception_3a/5x5_reduce"
}
layer {
  name: "inception_3a/5x5"
  type: "Convolution"
  bottom: "inception_3a/5x5_reduce"
  top: "inception_3a/5x5"
  param {
    lr_mult: 1
    decay_mult: 1
  }
  param {
    lr_mult: 2
    decay_mult: 0
  }
  convolution_param {
    num_output: 32
    pad: 2
    kernel_size: 5
    weight_filler {
      type: "xavier"
      std: 0.03
    }
    bias_filler {
      type: "constant"
      value: 0.2
    }
  }
}
layer {
  name: "inception_3a/relu_5x5"
  type: "ReLU"
  bottom: "inception_3a/5x5"
  top: "inception_3a/5x5"
}
layer {
  name: "inception_3a/pool"
  type: "Pooling"
  bottom: "pool2/3x3_s2"
  top: "inception_3a/pool"
  pooling_param {
    pool: MAX
    kernel_size: 3
    stride: 1
    pad: 1
  }
}
layer {
  name: "inception_3a/pool_proj"
  type: "Convolution"
  bottom: "inception_3a/pool"
  top: "inception_3a/pool_proj"
  param {
    lr_mult: 1
    decay_mult: 1
  }
  param {
    lr_mult: 2
    decay_mult: 0
  }
  convolution_param {
    num_output: 32
    kernel_size: 1
    weight_filler {
      type: "xavier"
      std: 0.1
    }
    bias_filler {
      type: "constant"
      value: 0.2
    }
  }
}
layer {
  name: "inception_3a/relu_pool_proj"
  type: "ReLU"
  bottom: "inception_3a/pool_proj"
  top: "inception_3a/pool_proj"
}
layer {
  name: "inception_3a/output"
  type: "Concat"
  bottom: "inception_3a/1x1"
  bottom: "inception_3a/3x3"
  bottom: "inception_3a/5x5"
  bottom: "inception_3a/pool_proj"
  top: "inception_3a/output"
}
layer {
  name: "inception_3b/1x1"
  type: "Convolution"
  bottom: "inception_3a/output"
  top: "inception_3b/1x1"
  param {
    lr_mult: 1
    decay_mult: 1
  }
  param {
    lr_mult: 2
    decay_mult: 0
  }
  convolution_param {
    num_output: 128
    kernel_size: 1
    weight_filler {
      type: "xavier"
      std: 0.03
    }
    bias_filler {
      type: "constant"
      value: 0.2
    }
  }
}
layer {
  name: "inception_3b/relu_1x1"
  type: "ReLU"
  bottom: "inception_3b/1x1"
  top: "inception_3b/1x1"
}
layer {
  name: "inception_3b/3x3_reduce"
  type: "Convolution"
  bottom: "inception_3a/output"
  top: "inception_3b/3x3_reduce"
  param {
    lr_mult: 1
    decay_mult: 1
  }
  param {
    lr_mult: 2
    decay_mult: 0
  }
  convolution_param {
    num_output: 128
    kernel_size: 1
    weight_filler {
      type: "xavier"
      std: 0.09
    }
    bias_filler {
      type: "constant"
      value: 0.2
    }
  }
}
layer {
  name: "inception_3b/relu_3x3_reduce"
  type: "ReLU"
  bottom: "inception_3b/3x3_reduce"
  top: "inception_3b/3x3_reduce"
}
layer {
  name: "inception_3b/3x3"
  type: "Convolution"
  bottom: "inception_3b/3x3_reduce"
  top: "inception_3b/3x3"
  param {
    lr_mult: 1
    decay_mult: 1
  }
  param {
    lr_mult: 2
    decay_mult: 0
  }
  convolution_param {
    num_output: 192
    pad: 1
    kernel_size: 3
    weight_filler {
      type: "xavier"
      std: 0.03
    }
    bias_filler {
      type: "constant"
      value: 0.2
    }
  }
}
layer {
  name: "inception_3b/relu_3x3"
  type: "ReLU"
  bottom: "inception_3b/3x3"
  top: "inception_3b/3x3"
}
layer {
  name: "inception_3b/5x5_reduce"
  type: "Convolution"
  bottom: "inception_3a/output"
  top: "inception_3b/5x5_reduce"
  param {
    lr_mult: 1
    decay_mult: 1
  }
  param {
    lr_mult: 2
    decay_mult: 0
  }
  convolution_param {
    num_output: 32
    kernel_size: 1
    weight_filler {
      type: "xavier"
      std: 0.2
    }
    bias_filler {
      type: "constant"
      value: 0.2
    }
  }
}
layer {
  name: "inception_3b/relu_5x5_reduce"
  type: "ReLU"
  bottom: "inception_3b/5x5_reduce"
  top: "inception_3b/5x5_reduce"
}
layer {
  name: "inception_3b/5x5"
  type: "Convolution"
  bottom: "inception_3b/5x5_reduce"
  top: "inception_3b/5x5"
  param {
    lr_mult: 1
    decay_mult: 1
  }
  param {
    lr_mult: 2
    decay_mult: 0
  }
  convolution_param {
    num_output: 96
    pad: 2
    kernel_size: 5
    weight_filler {
      type: "xavier"
      std: 0.03
    }
    bias_filler {
      type: "constant"
      value: 0.2
    }
  }
}
layer {
  name: "inception_3b/relu_5x5"
  type: "ReLU"
  bottom: "inception_3b/5x5"
  top: "inception_3b/5x5"
}
layer {
  name: "inception_3b/pool"
  type: "Pooling"
  bottom: "inception_3a/output"
  top: "inception_3b/pool"
  pooling_param {
    pool: MAX
    kernel_size: 3
    stride: 1
    pad: 1
  }
}
layer {
  name: "inception_3b/pool_proj"
  type: "Convolution"
  bottom: "inception_3b/pool"
  top: "inception_3b/pool_proj"
  param {
    lr_mult: 1
    decay_mult: 1
  }
  param {
    lr_mult: 2
    decay_mult: 0
  }
  convolution_param {
    num_output: 64
    kernel_size: 1
    weight_filler {
      type: "xavier"
      std: 0.1
    }
    bias_filler {
      type: "constant"
      value: 0.2
    }
  }
}
layer {
  name: "inception_3b/relu_pool_proj"
  type: "ReLU"
  bottom: "inception_3b/pool_proj"
  top: "inception_3b/pool_proj"
}
layer {
  name: "inception_3b/output"
  type: "Concat"
  bottom: "inception_3b/1x1"
  bottom: "inception_3b/3x3"
  bottom: "inception_3b/5x5"
  bottom: "inception_3b/pool_proj"
  top: "inception_3b/output"
}
layer {
  name: "pool3/3x3_s2"
  type: "Pooling"
  bottom: "inception_3b/output"
  top: "pool3/3x3_s2"
  pooling_param {
    pool: MAX
    kernel_size: 3
    stride: 2
  }
}
layer {
  name: "inception_4a/1x1"
  type: "Convolution"
  bottom: "pool3/3x3_s2"
  top: "inception_4a/1x1"
  param {
    lr_mult: 1
    decay_mult: 1
  }
  param {
    lr_mult: 2
    decay_mult: 0
  }
  convolution_param {
    num_output: 192
    kernel_size: 1
    weight_filler {
      type: "xavier"
      std: 0.03
    }
    bias_filler {
      type: "constant"
      value: 0.2
    }
  }
}
layer {
  name: "inception_4a/relu_1x1"
  type: "ReLU"
  bottom: "inception_4a/1x1"
  top: "inception_4a/1x1"
}
layer {
  name: "inception_4a/3x3_reduce"
  type: "Convolution"
  bottom: "pool3/3x3_s2"
  top: "inception_4a/3x3_reduce"
  param {
    lr_mult: 1
    decay_mult: 1
  }
  param {
    lr_mult: 2
    decay_mult: 0
  }
  convolution_param {
    num_output: 96
    kernel_size: 1
    weight_filler {
      type: "xavier"
      std: 0.09
    }
    bias_filler {
      type: "constant"
      value: 0.2
    }
  }
}
layer {
  name: "inception_4a/relu_3x3_reduce"
  type: "ReLU"
  bottom: "inception_4a/3x3_reduce"
  top: "inception_4a/3x3_reduce"
}
layer {
  name: "inception_4a/3x3"
  type: "Convolution"
  bottom: "inception_4a/3x3_reduce"
  top: "inception_4a/3x3"
  param {
    lr_mult: 1
    decay_mult: 1
  }
  param {
    lr_mult: 2
    decay_mult: 0
  }
  convolution_param {
    num_output: 208
    pad: 1
    kernel_size: 3
    weight_filler {
      type: "xavier"
      std: 0.03
    }
    bias_filler {
      type: "constant"
      value: 0.2
    }
  }
}
layer {
  name: "inception_4a/relu_3x3"
  type: "ReLU"
  bottom: "inception_4a/3x3"
  top: "inception_4a/3x3"
}
layer {
  name: "inception_4a/5x5_reduce"
  type: "Convolution"
  bottom: "pool3/3x3_s2"
  top: "inception_4a/5x5_reduce"
  param {
    lr_mult: 1
    decay_mult: 1
  }
  param {
    lr_mult: 2
    decay_mult: 0
  }
  convolution_param {
    num_output: 16
    kernel_size: 1
    weight_filler {
      type: "xavier"
      std: 0.2
    }
    bias_filler {
      type: "constant"
      value: 0.2
    }
  }
}
layer {
  name: "inception_4a/relu_5x5_reduce"
  type: "ReLU"
  bottom: "inception_4a/5x5_reduce"
  top: "inception_4a/5x5_reduce"
}
layer {
  name: "inception_4a/5x5"
  type: "Convolution"
  bottom: "inception_4a/5x5_reduce"
  top: "inception_4a/5x5"
  param {
    lr_mult: 1
    decay_mult: 1
  }
  param {
    lr_mult: 2
    decay_mult: 0
  }
  convolution_param {
    num_output: 48
    pad: 2
    kernel_size: 5
    weight_filler {
      type: "xavier"
      std: 0.03
    }
    bias_filler {
      type: "constant"
      value: 0.2
    }
  }
}
layer {
  name: "inception_4a/relu_5x5"
  type: "ReLU"
  bottom: "inception_4a/5x5"
  top: "inception_4a/5x5"
}
layer {
  name: "inception_4a/pool"
  type: "Pooling"
  bottom: "pool3/3x3_s2"
  top: "inception_4a/pool"
  pooling_param {
    pool: MAX
    kernel_size: 3
    stride: 1
    pad: 1
  }
}
layer {
  name: "inception_4a/pool_proj"
  type: "Convolution"
  bottom: "inception_4a/pool"
  top: "inception_4a/pool_proj"
  param {
    lr_mult: 1
    decay_mult: 1
  }
  param {
    lr_mult: 2
    decay_mult: 0
  }
  convolution_param {
    num_output: 64
    kernel_size: 1
    weight_filler {
      type: "xavier"
      std: 0.1
    }
    bias_filler {
      type: "constant"
      value: 0.2
    }
  }
}
layer {
  name: "inception_4a/relu_pool_proj"
  type: "ReLU"
  bottom: "inception_4a/pool_proj"
  top: "inception_4a/pool_proj"
}
layer {
  name: "inception_4a/output"
  type: "Concat"
  bottom: "inception_4a/1x1"
  bottom: "inception_4a/3x3"
  bottom: "inception_4a/5x5"
  bottom: "inception_4a/pool_proj"
  top: "inception_4a/output"
}
layer {
  name: "loss1/ave_pool"
  type: "Pooling"
  bottom: "inception_4a/output"
  top: "loss1/ave_pool"
  pooling_param {
    pool: AVE
    kernel_size: 5
    stride: 3
  }
}
layer {
  name: "loss1/conv"
  type: "Convolution"
  bottom: "loss1/ave_pool"
  top: "loss1/conv"
  param {
    lr_mult: 1
    decay_mult: 1
  }
  param {
    lr_mult: 2
    decay_mult: 0
  }
  convolution_param {
    num_output: 128
    kernel_size: 1
    weight_filler {
      type: "xavier"
      std: 0.08
    }
    bias_filler {
      type: "constant"
      value: 0.2
    }
  }
}
layer {
  name: "loss1/relu_conv"
  type: "ReLU"
  bottom: "loss1/conv"
  top: "loss1/conv"
}
layer {
  name: "loss1/fc"
  type: "InnerProduct"
  bottom: "loss1/conv"
  top: "loss1/fc"
  param {
    lr_mult: 1
    decay_mult: 1
  }
  param {
    lr_mult: 2
    decay_mult: 0
  }
  inner_product_param {
    num_output: 1024
    weight_filler {
      type: "xavier"
      std: 0.02
    }
    bias_filler {
      type: "constant"
      value: 0.2
    }
  }
}
layer {
  name: "loss1/relu_fc"
  type: "ReLU"
  bottom: "loss1/fc"
  top: "loss1/fc"
}
layer {
  name: "loss1/drop_fc"
  type: "Dropout"
  bottom: "loss1/fc"
  top: "loss1/fc"
  dropout_param {
    dropout_ratio: 0.7
  }
}
layer {
  name: "loss1/classifier_plantvillage"
  type: "InnerProduct"
  bottom: "loss1/fc"
  top: "loss1/classifier_plantvillage"
  param {
    lr_mult: 1
    decay_mult: 1
  }
  param {
    lr_mult: 2
    decay_mult: 0
  }
  inner_product_param {
    num_output: 38
    weight_filler {
      type: "xavier"
      std: 0.0009765625
    }
    bias_filler {
      type: "constant"
      value: 0
    }
  }
}
layer {
  name: "inception_4b/1x1"
  type: "Convolution"
  bottom: "inception_4a/output"
  top: "inception_4b/1x1"
  param {
    lr_mult: 1
    decay_mult: 1
  }
  param {
    lr_mult: 2
    decay_mult: 0
  }
  convolution_param {
    num_output: 160
    kernel_size: 1
    weight_filler {
      type: "xavier"
      std: 0.03
    }
    bias_filler {
      type: "constant"
      value: 0.2
    }
  }
}
layer {
  name: "inception_4b/relu_1x1"
  type: "ReLU"
  bottom: "inception_4b/1x1"
  top: "inception_4b/1x1"
}
layer {
  name: "inception_4b/3x3_reduce"
  type: "Convolution"
  bottom: "inception_4a/output"
  top: "inception_4b/3x3_reduce"
  param {
    lr_mult: 1
    decay_mult: 1
  }
  param {
    lr_mult: 2
    decay_mult: 0
  }
  convolution_param {
    num_output: 112
    kernel_size: 1
    weight_filler {
      type: "xavier"
      std: 0.09
    }
    bias_filler {
      type: "constant"
      value: 0.2
    }
  }
}
layer {
  name: "inception_4b/relu_3x3_reduce"
  type: "ReLU"
  bottom: "inception_4b/3x3_reduce"
  top: "inception_4b/3x3_reduce"
}
layer {
  name: "inception_4b/3x3"
  type: "Convolution"
  bottom: "inception_4b/3x3_reduce"
  top: "inception_4b/3x3"
  param {
    lr_mult: 1
    decay_mult: 1
  }
  param {
    lr_mult: 2
    decay_mult: 0
  }
  convolution_param {
    num_output: 224
    pad: 1
    kernel_size: 3
    weight_filler {
      type: "xavier"
      std: 0.03
    }
    bias_filler {
      type: "constant"
      value: 0.2
    }
  }
}
layer {
  name: "inception_4b/relu_3x3"
  type: "ReLU"
  bottom: "inception_4b/3x3"
  top: "inception_4b/3x3"
}
layer {
  name: "inception_4b/5x5_reduce"
  type: "Convolution"
  bottom: "inception_4a/output"
  top: "inception_4b/5x5_reduce"
  param {
    lr_mult: 1
    decay_mult: 1
  }
  param {
    lr_mult: 2
    decay_mult: 0
  }
  convolution_param {
    num_output: 24
    kernel_size: 1
    weight_filler {
      type: "xavier"
      std: 0.2
    }
    bias_filler {
      type: "constant"
      value: 0.2
    }
  }
}
layer {
  name: "inception_4b/relu_5x5_reduce"
  type: "ReLU"
  bottom: "inception_4b/5x5_reduce"
  top: "inception_4b/5x5_reduce"
}
layer {
  name: "inception_4b/5x5"
  type: "Convolution"
  bottom: "inception_4b/5x5_reduce"
  top: "inception_4b/5x5"
  param {
    lr_mult: 1
    decay_mult: 1
  }
  param {
    lr_mult: 2
    decay_mult: 0
  }
  convolution_param {
    num_output: 64
    pad: 2
    kernel_size: 5
    weight_filler {
      type: "xavier"
      std: 0.03
    }
    bias_filler {
      type: "constant"
      value: 0.2
    }
  }
}
layer {
  name: "inception_4b/relu_5x5"
  type: "ReLU"
  bottom: "inception_4b/5x5"
  top: "inception_4b/5x5"
}
layer {
  name: "inception_4b/pool"
  type: "Pooling"
  bottom: "inception_4a/output"
  top: "inception_4b/pool"
  pooling_param {
    pool: MAX
    kernel_size: 3
    stride: 1
    pad: 1
  }
}
layer {
  name: "inception_4b/pool_proj"
  type: "Convolution"
  bottom: "inception_4b/pool"
  top: "inception_4b/pool_proj"
  param {
    lr_mult: 1
    decay_mult: 1
  }
  param {
    lr_mult: 2
    decay_mult: 0
  }
  convolution_param {
    num_output: 64
    kernel_size: 1
    weight_filler {
      type: "xavier"
      std: 0.1
    }
    bias_filler {
      type: "constant"
      value: 0.2
    }
  }
}
layer {
  name: "inception_4b/relu_pool_proj"
  type: "ReLU"
  bottom: "inception_4b/pool_proj"
  top: "inception_4b/pool_proj"
}
layer {
  name: "inception_4b/output"
  type: "Concat"
  bottom: "inception_4b/1x1"
  bottom: "inception_4b/3x3"
  bottom: "inception_4b/5x5"
  bottom: "inception_4b/pool_proj"
  top: "inception_4b/output"
}
layer {
  name: "inception_4c/1x1"
  type: "Convolution"
  bottom: "inception_4b/output"
  top: "inception_4c/1x1"
  param {
    lr_mult: 1
    decay_mult: 1
  }
  param {
    lr_mult: 2
    decay_mult: 0
  }
  convolution_param {
    num_output: 128
    kernel_size: 1
    weight_filler {
      type: "xavier"
      std: 0.03
    }
    bias_filler {
      type: "constant"
      value: 0.2
    }
  }
}
layer {
  name: "inception_4c/relu_1x1"
  type: "ReLU"
  bottom: "inception_4c/1x1"
  top: "inception_4c/1x1"
}
layer {
  name: "inception_4c/3x3_reduce"
  type: "Convolution"
  bottom: "inception_4b/output"
  top: "inception_4c/3x3_reduce"
  param {
    lr_mult: 1
    decay_mult: 1
  }
  param {
    lr_mult: 2
    decay_mult: 0
  }
  convolution_param {
    num_output: 128
    kernel_size: 1
    weight_filler {
      type: "xavier"
      std: 0.09
    }
    bias_filler {
      type: "constant"
      value: 0.2
    }
  }
}
layer {
  name: "inception_4c/relu_3x3_reduce"
  type: "ReLU"
  bottom: "inception_4c/3x3_reduce"
  top: "inception_4c/3x3_reduce"
}
layer {
  name: "inception_4c/3x3"
  type: "Convolution"
  bottom: "inception_4c/3x3_reduce"
  top: "inception_4c/3x3"
  param {
    lr_mult: 1
    decay_mult: 1
  }
  param {
    lr_mult: 2
    decay_mult: 0
  }
  convolution_param {
    num_output: 256
    pad: 1
    kernel_size: 3
    weight_filler {
      type: "xavier"
      std: 0.03
    }
    bias_filler {
      type: "constant"
      value: 0.2
    }
  }
}
layer {
  name: "inception_4c/relu_3x3"
  type: "ReLU"
  bottom: "inception_4c/3x3"
  top: "inception_4c/3x3"
}
layer {
  name: "inception_4c/5x5_reduce"
  type: "Convolution"
  bottom: "inception_4b/output"
  top: "inception_4c/5x5_reduce"
  param {
    lr_mult: 1
    decay_mult: 1
  }
  param {
    lr_mult: 2
    decay_mult: 0
  }
  convolution_param {
    num_output: 24
    kernel_size: 1
    weight_filler {
      type: "xavier"
      std: 0.2
    }
    bias_filler {
      type: "constant"
      value: 0.2
    }
  }
}
layer {
  name: "inception_4c/relu_5x5_reduce"
  type: "ReLU"
  bottom: "inception_4c/5x5_reduce"
  top: "inception_4c/5x5_reduce"
}
layer {
  name: "inception_4c/5x5"
  type: "Convolution"
  bottom: "inception_4c/5x5_reduce"
  top: "inception_4c/5x5"
  param {
    lr_mult: 1
    decay_mult: 1
  }
  param {
    lr_mult: 2
    decay_mult: 0
  }
  convolution_param {
    num_output: 64
    pad: 2
    kernel_size: 5
    weight_filler {
      type: "xavier"
      std: 0.03
    }
    bias_filler {
      type: "constant"
      value: 0.2
    }
  }
}
layer {
  name: "inception_4c/relu_5x5"
  type: "ReLU"
  bottom: "inception_4c/5x5"
  top: "inception_4c/5x5"
}
layer {
  name: "inception_4c/pool"
  type: "Pooling"
  bottom: "inception_4b/output"
  top: "inception_4c/pool"
  pooling_param {
    pool: MAX
    kernel_size: 3
    stride: 1
    pad: 1
  }
}
layer {
  name: "inception_4c/pool_proj"
  type: "Convolution"
  bottom: "inception_4c/pool"
  top: "inception_4c/pool_proj"
  param {
    lr_mult: 1
    decay_mult: 1
  }
  param {
    lr_mult: 2
    decay_mult: 0
  }
  convolution_param {
    num_output: 64
    kernel_size: 1
    weight_filler {
      type: "xavier"
      std: 0.1
    }
    bias_filler {
      type: "constant"
      value: 0.2
    }
  }
}
layer {
  name: "inception_4c/relu_pool_proj"
  type: "ReLU"
  bottom: "inception_4c/pool_proj"
  top: "inception_4c/pool_proj"
}
layer {
  name: "inception_4c/output"
  type: "Concat"
  bottom: "inception_4c/1x1"
  bottom: "inception_4c/3x3"
  bottom: "inception_4c/5x5"
  bottom: "inception_4c/pool_proj"
  top: "inception_4c/output"
}
layer {
  name: "inception_4d/1x1"
  type: "Convolution"
  bottom: "inception_4c/output"
  top: "inception_4d/1x1"
  param {
    lr_mult: 1
    decay_mult: 1
  }
  param {
    lr_mult: 2
    decay_mult: 0
  }
  convolution_param {
    num_output: 112
    kernel_size: 1
    weight_filler {
      type: "xavier"
      std: 0.03
    }
    bias_filler {
      type: "constant"
      value: 0.2
    }
  }
}
layer {
  name: "inception_4d/relu_1x1"
  type: "ReLU"
  bottom: "inception_4d/1x1"
  top: "inception_4d/1x1"
}
layer {
  name: "inception_4d/3x3_reduce"
  type: "Convolution"
  bottom: "inception_4c/output"
  top: "inception_4d/3x3_reduce"
  param {
    lr_mult: 1
    decay_mult: 1
  }
  param {
    lr_mult: 2
    decay_mult: 0
  }
  convolution_param {
    num_output: 144
    kernel_size: 1
    weight_filler {
      type: "xavier"
      std: 0.09
    }
    bias_filler {
      type: "constant"
      value: 0.2
    }
  }
}
layer {
  name: "inception_4d/relu_3x3_reduce"
  type: "ReLU"
  bottom: "inception_4d/3x3_reduce"
  top: "inception_4d/3x3_reduce"
}
layer {
  name: "inception_4d/3x3"
  type: "Convolution"
  bottom: "inception_4d/3x3_reduce"
  top: "inception_4d/3x3"
  param {
    lr_mult: 1
    decay_mult: 1
  }
  param {
    lr_mult: 2
    decay_mult: 0
  }
  convolution_param {
    num_output: 288
    pad: 1
    kernel_size: 3
    weight_filler {
      type: "xavier"
      std: 0.03
    }
    bias_filler {
      type: "constant"
      value: 0.2
    }
  }
}
layer {
  name: "inception_4d/relu_3x3"
  type: "ReLU"
  bottom: "inception_4d/3x3"
  top: "inception_4d/3x3"
}
layer {
  name: "inception_4d/5x5_reduce"
  type: "Convolution"
  bottom: "inception_4c/output"
  top: "inception_4d/5x5_reduce"
  param {
    lr_mult: 1
    decay_mult: 1
  }
  param {
    lr_mult: 2
    decay_mult: 0
  }
  convolution_param {
    num_output: 32
    kernel_size: 1
    weight_filler {
      type: "xavier"
      std: 0.2
    }
    bias_filler {
      type: "constant"
      value: 0.2
    }
  }
}
layer {
  name: "inception_4d/relu_5x5_reduce"
  type: "ReLU"
  bottom: "inception_4d/5x5_reduce"
  top: "inception_4d/5x5_reduce"
}
layer {
  name: "inception_4d/5x5"
  type: "Convolution"
  bottom: "inception_4d/5x5_reduce"
  top: "inception_4d/5x5"
  param {
    lr_mult: 1
    decay_mult: 1
  }
  param {
    lr_mult: 2
    decay_mult: 0
  }
  convolution_param {
    num_output: 64
    pad: 2
    kernel_size: 5
    weight_filler {
      type: "xavier"
      std: 0.03
    }
    bias_filler {
      type: "constant"
      value: 0.2
    }
  }
}
layer {
  name: "inception_4d/relu_5x5"
  type: "ReLU"
  bottom: "inception_4d/5x5"
  top: "inception_4d/5x5"
}
layer {
  name: "inception_4d/pool"
  type: "Pooling"
  bottom: "inception_4c/output"
  top: "inception_4d/pool"
  pooling_param {
    pool: MAX
    kernel_size: 3
    stride: 1
    pad: 1
  }
}
layer {
  name: "inception_4d/pool_proj"
  type: "Convolution"
  bottom: "inception_4d/pool"
  top: "inception_4d/pool_proj"
  param {
    lr_mult: 1
    decay_mult: 1
  }
  param {
    lr_mult: 2
    decay_mult: 0
  }
  convolution_param {
    num_output: 64
    kernel_size: 1
    weight_filler {
      type: "xavier"
      std: 0.1
    }
    bias_filler {
      type: "constant"
      value: 0.2
    }
  }
}
layer {
  name: "inception_4d/relu_pool_proj"
  type: "ReLU"
  bottom: "inception_4d/pool_proj"
  top: "inception_4d/pool_proj"
}
layer {
  name: "inception_4d/output"
  type: "Concat"
  bottom: "inception_4d/1x1"
  bottom: "inception_4d/3x3"
  bottom: "inception_4d/5x5"
  bottom: "inception_4d/pool_proj"
  top: "inception_4d/output"
}
layer {
  name: "loss2/ave_pool"
  type: "Pooling"
  bottom: "inception_4d/output"
  top: "loss2/ave_pool"
  pooling_param {
    pool: AVE
    kernel_size: 5
    stride: 3
  }
}
layer {
  name: "loss2/conv"
  type: "Convolution"
  bottom: "loss2/ave_pool"
  top: "loss2/conv"
  param {
    lr_mult: 1
    decay_mult: 1
  }
  param {
    lr_mult: 2
    decay_mult: 0
  }
  convolution_param {
    num_output: 128
    kernel_size: 1
    weight_filler {
      type: "xavier"
      std: 0.08
    }
    bias_filler {
      type: "constant"
      value: 0.2
    }
  }
}
layer {
  name: "loss2/relu_conv"
  type: "ReLU"
  bottom: "loss2/conv"
  top: "loss2/conv"
}
layer {
  name: "loss2/fc"
  type: "InnerProduct"
  bottom: "loss2/conv"
  top: "loss2/fc"
  param {
    lr_mult: 1
    decay_mult: 1
  }
  param {
    lr_mult: 2
    decay_mult: 0
  }
  inner_product_param {
    num_output: 1024
    weight_filler {
      type: "xavier"
      std: 0.02
    }
    bias_filler {
      type: "constant"
      value: 0.2
    }
  }
}
layer {
  name: "loss2/relu_fc"
  type: "ReLU"
  bottom: "loss2/fc"
  top: "loss2/fc"
}
layer {
  name: "loss2/drop_fc"
  type: "Dropout"
  bottom: "loss2/fc"
  top: "loss2/fc"
  dropout_param {
    dropout_ratio: 0.7
  }
}
layer {
  name: "loss2/classifier_plantvillage"
  type: "InnerProduct"
  bottom: "loss2/fc"
  top: "loss2/classifier_plantvillage"
  param {
    lr_mult: 1
    decay_mult: 1
  }
  param {
    lr_mult: 2
    decay_mult: 0
  }
  inner_product_param {
    num_output: 38
    weight_filler {
      type: "xavier"
      std: 0.0009765625
    }
    bias_filler {
      type: "constant"
      value: 0
    }
  }
}
layer {
  name: "inception_4e/1x1"
  type: "Convolution"
  bottom: "inception_4d/output"
  top: "inception_4e/1x1"
  param {
    lr_mult: 1
    decay_mult: 1
  }
  param {
    lr_mult: 2
    decay_mult: 0
  }
  convolution_param {
    num_output: 256
    kernel_size: 1
    weight_filler {
      type: "xavier"
      std: 0.03
    }
    bias_filler {
      type: "constant"
      value: 0.2
    }
  }
}
layer {
  name: "inception_4e/relu_1x1"
  type: "ReLU"
  bottom: "inception_4e/1x1"
  top: "inception_4e/1x1"
}
layer {
  name: "inception_4e/3x3_reduce"
  type: "Convolution"
  bottom: "inception_4d/output"
  top: "inception_4e/3x3_reduce"
  param {
    lr_mult: 1
    decay_mult: 1
  }
  param {
    lr_mult: 2
    decay_mult: 0
  }
  convolution_param {
    num_output: 160
    kernel_size: 1
    weight_filler {
      type: "xavier"
      std: 0.09
    }
    bias_filler {
      type: "constant"
      value: 0.2
    }
  }
}
layer {
  name: "inception_4e/relu_3x3_reduce"
  type: "ReLU"
  bottom: "inception_4e/3x3_reduce"
  top: "inception_4e/3x3_reduce"
}
layer {
  name: "inception_4e/3x3"
  type: "Convolution"
  bottom: "inception_4e/3x3_reduce"
  top: "inception_4e/3x3"
  param {
    lr_mult: 1
    decay_mult: 1
  }
  param {
    lr_mult: 2
    decay_mult: 0
  }
  convolution_param {
    num_output: 320
    pad: 1
    kernel_size: 3
    weight_filler {
      type: "xavier"
      std: 0.03
    }
    bias_filler {
      type: "constant"
      value: 0.2
    }
  }
}
layer {
  name: "inception_4e/relu_3x3"
  type: "ReLU"
  bottom: "inception_4e/3x3"
  top: "inception_4e/3x3"
}
layer {
  name: "inception_4e/5x5_reduce"
  type: "Convolution"
  bottom: "inception_4d/output"
  top: "inception_4e/5x5_reduce"
  param {
    lr_mult: 1
    decay_mult: 1
  }
  param {
    lr_mult: 2
    decay_mult: 0
  }
  convolution_param {
    num_output: 32
    kernel_size: 1
    weight_filler {
      type: "xavier"
      std: 0.2
    }
    bias_filler {
      type: "constant"
      value: 0.2
    }
  }
}
layer {
  name: "inception_4e/relu_5x5_reduce"
  type: "ReLU"
  bottom: "inception_4e/5x5_reduce"
  top: "inception_4e/5x5_reduce"
}
layer {
  name: "inception_4e/5x5"
  type: "Convolution"
  bottom: "inception_4e/5x5_reduce"
  top: "inception_4e/
I0403 18:56:11.212765 18172 layer_factory.hpp:77] Creating layer data
I0403 18:56:11.213340 18172 net.cpp:91] Creating Layer data
I0403 18:56:11.213371 18172 net.cpp:399] data -> data
I0403 18:56:11.213420 18172 net.cpp:399] data -> label
I0403 18:56:11.213455 18172 data_transformer.cpp:25] Loading mean file from: /home/mohanty/data/final_dataset/lmdb/segmented-60-40/mean.binaryproto
I0403 18:56:11.214591 18175 db_lmdb.cpp:38] Opened lmdb /home/mohanty/data/final_dataset/lmdb/segmented-60-40/test_db
I0403 18:56:11.226063 18172 data_layer.cpp:41] output data size: 24,3,224,224
I0403 18:56:11.252377 18172 net.cpp:141] Setting up data
I0403 18:56:11.252454 18172 net.cpp:148] Top shape: 24 3 224 224 (3612672)
I0403 18:56:11.252478 18172 net.cpp:148] Top shape: 24 (24)
I0403 18:56:11.252495 18172 net.cpp:156] Memory required for data: 14450784
I0403 18:56:11.252523 18172 layer_factory.hpp:77] Creating layer label_data_1_split
I0403 18:56:11.252552 18172 net.cpp:91] Creating Layer label_data_1_split
I0403 18:56:11.252573 18172 net.cpp:425] label_data_1_split <- label
I0403 18:56:11.252604 18172 net.cpp:399] label_data_1_split -> label_data_1_split_0
I0403 18:56:11.252632 18172 net.cpp:399] label_data_1_split -> label_data_1_split_1
I0403 18:56:11.252655 18172 net.cpp:399] label_data_1_split -> label_data_1_split_2
I0403 18:56:11.252676 18172 net.cpp:399] label_data_1_split -> label_data_1_split_3
I0403 18:56:11.252697 18172 net.cpp:399] label_data_1_split -> label_data_1_split_4
I0403 18:56:11.252718 18172 net.cpp:399] label_data_1_split -> label_data_1_split_5
I0403 18:56:11.252737 18172 net.cpp:399] label_data_1_split -> label_data_1_split_6
I0403 18:56:11.252758 18172 net.cpp:399] label_data_1_split -> label_data_1_split_7
I0403 18:56:11.252779 18172 net.cpp:399] label_data_1_split -> label_data_1_split_8
I0403 18:56:11.252800 18172 net.cpp:399] label_data_1_split -> label_data_1_split_9
I0403 18:56:11.252918 18172 net.cpp:141] Setting up label_data_1_split
I0403 18:56:11.252943 18172 net.cpp:148] Top shape: 24 (24)
I0403 18:56:11.252965 18172 net.cpp:148] Top shape: 24 (24)
I0403 18:56:11.252984 18172 net.cpp:148] Top shape: 24 (24)
I0403 18:56:11.253000 18172 net.cpp:148] Top shape: 24 (24)
I0403 18:56:11.253016 18172 net.cpp:148] Top shape: 24 (24)
I0403 18:56:11.253033 18172 net.cpp:148] Top shape: 24 (24)
I0403 18:56:11.253048 18172 net.cpp:148] Top shape: 24 (24)
I0403 18:56:11.253065 18172 net.cpp:148] Top shape: 24 (24)
I0403 18:56:11.253080 18172 net.cpp:148] Top shape: 24 (24)
I0403 18:56:11.253096 18172 net.cpp:148] Top shape: 24 (24)
I0403 18:56:11.253140 18172 net.cpp:156] Memory required for data: 14451744
I0403 18:56:11.253157 18172 layer_factory.hpp:77] Creating layer conv1/7x7_s2
I0403 18:56:11.253190 18172 net.cpp:91] Creating Layer conv1/7x7_s2
I0403 18:56:11.253209 18172 net.cpp:425] conv1/7x7_s2 <- data
I0403 18:56:11.253228 18172 net.cpp:399] conv1/7x7_s2 -> conv1/7x7_s2
I0403 18:56:11.390035 18172 net.cpp:141] Setting up conv1/7x7_s2
I0403 18:56:11.390120 18172 net.cpp:148] Top shape: 24 64 112 112 (19267584)
I0403 18:56:11.390137 18172 net.cpp:156] Memory required for data: 91522080
I0403 18:56:11.390168 18172 layer_factory.hpp:77] Creating layer conv1/relu_7x7
I0403 18:56:11.390197 18172 net.cpp:91] Creating Layer conv1/relu_7x7
I0403 18:56:11.390216 18172 net.cpp:425] conv1/relu_7x7 <- conv1/7x7_s2
I0403 18:56:11.390235 18172 net.cpp:386] conv1/relu_7x7 -> conv1/7x7_s2 (in-place)
I0403 18:56:11.390481 18172 net.cpp:141] Setting up conv1/relu_7x7
I0403 18:56:11.390507 18172 net.cpp:148] Top shape: 24 64 112 112 (19267584)
I0403 18:56:11.390522 18172 net.cpp:156] Memory required for data: 168592416
I0403 18:56:11.390537 18172 layer_factory.hpp:77] Creating layer pool1/3x3_s2
I0403 18:56:11.390561 18172 net.cpp:91] Creating Layer pool1/3x3_s2
I0403 18:56:11.390578 18172 net.cpp:425] pool1/3x3_s2 <- conv1/7x7_s2
I0403 18:56:11.390595 18172 net.cpp:399] pool1/3x3_s2 -> pool1/3x3_s2
I0403 18:56:11.390666 18172 net.cpp:141] Setting up pool1/3x3_s2
I0403 18:56:11.390688 18172 net.cpp:148] Top shape: 24 64 56 56 (4816896)
I0403 18:56:11.390702 18172 net.cpp:156] Memory required for data: 187860000
I0403 18:56:11.390717 18172 layer_factory.hpp:77] Creating layer pool1/norm1
I0403 18:56:11.390740 18172 net.cpp:91] Creating Layer pool1/norm1
I0403 18:56:11.390758 18172 net.cpp:425] pool1/norm1 <- pool1/3x3_s2
I0403 18:56:11.390774 18172 net.cpp:399] pool1/norm1 -> pool1/norm1
I0403 18:56:11.391052 18172 net.cpp:141] Setting up pool1/norm1
I0403 18:56:11.391078 18172 net.cpp:148] Top shape: 24 64 56 56 (4816896)
I0403 18:56:11.391093 18172 net.cpp:156] Memory required for data: 207127584
I0403 18:56:11.391108 18172 layer_factory.hpp:77] Creating layer conv2/3x3_reduce
I0403 18:56:11.391132 18172 net.cpp:91] Creating Layer conv2/3x3_reduce
I0403 18:56:11.391147 18172 net.cpp:425] conv2/3x3_reduce <- pool1/norm1
I0403 18:56:11.391165 18172 net.cpp:399] conv2/3x3_reduce -> conv2/3x3_reduce
I0403 18:56:11.392449 18172 net.cpp:141] Setting up conv2/3x3_reduce
I0403 18:56:11.392478 18172 net.cpp:148] Top shape: 24 64 56 56 (4816896)
I0403 18:56:11.392494 18172 net.cpp:156] Memory required for data: 226395168
I0403 18:56:11.392515 18172 layer_factory.hpp:77] Creating layer conv2/relu_3x3_reduce
I0403 18:56:11.392534 18172 net.cpp:91] Creating Layer conv2/relu_3x3_reduce
I0403 18:56:11.392550 18172 net.cpp:425] conv2/relu_3x3_reduce <- conv2/3x3_reduce
I0403 18:56:11.392567 18172 net.cpp:386] conv2/relu_3x3_reduce -> conv2/3x3_reduce (in-place)
I0403 18:56:11.392812 18172 net.cpp:141] Setting up conv2/relu_3x3_reduce
I0403 18:56:11.392838 18172 net.cpp:148] Top shape: 24 64 56 56 (4816896)
I0403 18:56:11.392853 18172 net.cpp:156] Memory required for data: 245662752
I0403 18:56:11.392868 18172 layer_factory.hpp:77] Creating layer conv2/3x3
I0403 18:56:11.392889 18172 net.cpp:91] Creating Layer conv2/3x3
I0403 18:56:11.392905 18172 net.cpp:425] conv2/3x3 <- conv2/3x3_reduce
I0403 18:56:11.392925 18172 net.cpp:399] conv2/3x3 -> conv2/3x3
I0403 18:56:11.395092 18172 net.cpp:141] Setting up conv2/3x3
I0403 18:56:11.395123 18172 net.cpp:148] Top shape: 24 192 56 56 (14450688)
I0403 18:56:11.395138 18172 net.cpp:156] Memory required for data: 303465504
I0403 18:56:11.395159 18172 layer_factory.hpp:77] Creating layer conv2/relu_3x3
I0403 18:56:11.395179 18172 net.cpp:91] Creating Layer conv2/relu_3x3
I0403 18:56:11.395195 18172 net.cpp:425] conv2/relu_3x3 <- conv2/3x3
I0403 18:56:11.395212 18172 net.cpp:386] conv2/relu_3x3 -> conv2/3x3 (in-place)
I0403 18:56:11.395390 18172 net.cpp:141] Setting up conv2/relu_3x3
I0403 18:56:11.395414 18172 net.cpp:148] Top shape: 24 192 56 56 (14450688)
I0403 18:56:11.395458 18172 net.cpp:156] Memory required for data: 361268256
I0403 18:56:11.395474 18172 layer_factory.hpp:77] Creating layer conv2/norm2
I0403 18:56:11.395496 18172 net.cpp:91] Creating Layer conv2/norm2
I0403 18:56:11.395512 18172 net.cpp:425] conv2/norm2 <- conv2/3x3
I0403 18:56:11.395530 18172 net.cpp:399] conv2/norm2 -> conv2/norm2
I0403 18:56:11.395828 18172 net.cpp:141] Setting up conv2/norm2
I0403 18:56:11.395855 18172 net.cpp:148] Top shape: 24 192 56 56 (14450688)
I0403 18:56:11.395870 18172 net.cpp:156] Memory required for data: 419071008
I0403 18:56:11.395885 18172 layer_factory.hpp:77] Creating layer pool2/3x3_s2
I0403 18:56:11.395905 18172 net.cpp:91] Creating Layer pool2/3x3_s2
I0403 18:56:11.395922 18172 net.cpp:425] pool2/3x3_s2 <- conv2/norm2
I0403 18:56:11.395939 18172 net.cpp:399] pool2/3x3_s2 -> pool2/3x3_s2
I0403 18:56:11.395998 18172 net.cpp:141] Setting up pool2/3x3_s2
I0403 18:56:11.396020 18172 net.cpp:148] Top shape: 24 192 28 28 (3612672)
I0403 18:56:11.396035 18172 net.cpp:156] Memory required for data: 433521696
I0403 18:56:11.396050 18172 layer_factory.hpp:77] Creating layer pool2/3x3_s2_pool2/3x3_s2_0_split
I0403 18:56:11.396067 18172 net.cpp:91] Creating Layer pool2/3x3_s2_pool2/3x3_s2_0_split
I0403 18:56:11.396082 18172 net.cpp:425] pool2/3x3_s2_pool2/3x3_s2_0_split <- pool2/3x3_s2
I0403 18:56:11.396101 18172 net.cpp:399] pool2/3x3_s2_pool2/3x3_s2_0_split -> pool2/3x3_s2_pool2/3x3_s2_0_split_0
I0403 18:56:11.396122 18172 net.cpp:399] pool2/3x3_s2_pool2/3x3_s2_0_split -> pool2/3x3_s2_pool2/3x3_s2_0_split_1
I0403 18:56:11.396142 18172 net.cpp:399] pool2/3x3_s2_pool2/3x3_s2_0_split -> pool2/3x3_s2_pool2/3x3_s2_0_split_2
I0403 18:56:11.396162 18172 net.cpp:399] pool2/3x3_s2_pool2/3x3_s2_0_split -> pool2/3x3_s2_pool2/3x3_s2_0_split_3
I0403 18:56:11.396232 18172 net.cpp:141] Setting up pool2/3x3_s2_pool2/3x3_s2_0_split
I0403 18:56:11.396256 18172 net.cpp:148] Top shape: 24 192 28 28 (3612672)
I0403 18:56:11.396272 18172 net.cpp:148] Top shape: 24 192 28 28 (3612672)
I0403 18:56:11.396288 18172 net.cpp:148] Top shape: 24 192 28 28 (3612672)
I0403 18:56:11.396303 18172 net.cpp:148] Top shape: 24 192 28 28 (3612672)
I0403 18:56:11.396317 18172 net.cpp:156] Memory required for data: 491324448
I0403 18:56:11.396332 18172 layer_factory.hpp:77] Creating layer inception_3a/1x1
I0403 18:56:11.396354 18172 net.cpp:91] Creating Layer inception_3a/1x1
I0403 18:56:11.396370 18172 net.cpp:425] inception_3a/1x1 <- pool2/3x3_s2_pool2/3x3_s2_0_split_0
I0403 18:56:11.396389 18172 net.cpp:399] inception_3a/1x1 -> inception_3a/1x1
I0403 18:56:11.397910 18172 net.cpp:141] Setting up inception_3a/1x1
I0403 18:56:11.397939 18172 net.cpp:148] Top shape: 24 64 28 28 (1204224)
I0403 18:56:11.397960 18172 net.cpp:156] Memory required for data: 496141344
I0403 18:56:11.397980 18172 layer_factory.hpp:77] Creating layer inception_3a/relu_1x1
I0403 18:56:11.398000 18172 net.cpp:91] Creating Layer inception_3a/relu_1x1
I0403 18:56:11.398016 18172 net.cpp:425] inception_3a/relu_1x1 <- inception_3a/1x1
I0403 18:56:11.398033 18172 net.cpp:386] inception_3a/relu_1x1 -> inception_3a/1x1 (in-place)
I0403 18:56:11.398202 18172 net.cpp:141] Setting up inception_3a/relu_1x1
I0403 18:56:11.398227 18172 net.cpp:148] Top shape: 24 64 28 28 (1204224)
I0403 18:56:11.398242 18172 net.cpp:156] Memory required for data: 500958240
I0403 18:56:11.398257 18172 layer_factory.hpp:77] Creating layer inception_3a/3x3_reduce
I0403 18:56:11.398278 18172 net.cpp:91] Creating Layer inception_3a/3x3_reduce
I0403 18:56:11.398295 18172 net.cpp:425] inception_3a/3x3_reduce <- pool2/3x3_s2_pool2/3x3_s2_0_split_1
I0403 18:56:11.398316 18172 net.cpp:399] inception_3a/3x3_reduce -> inception_3a/3x3_reduce
I0403 18:56:11.399997 18172 net.cpp:141] Setting up inception_3a/3x3_reduce
I0403 18:56:11.400028 18172 net.cpp:148] Top shape: 24 96 28 28 (1806336)
I0403 18:56:11.400045 18172 net.cpp:156] Memory required for data: 508183584
I0403 18:56:11.400066 18172 layer_factory.hpp:77] Creating layer inception_3a/relu_3x3_reduce
I0403 18:56:11.400100 18172 net.cpp:91] Creating Layer inception_3a/relu_3x3_reduce
I0403 18:56:11.400118 18172 net.cpp:425] inception_3a/relu_3x3_reduce <- inception_3a/3x3_reduce
I0403 18:56:11.400138 18172 net.cpp:386] inception_3a/relu_3x3_reduce -> inception_3a/3x3_reduce (in-place)
I0403 18:56:11.400318 18172 net.cpp:141] Setting up inception_3a/relu_3x3_reduce
I0403 18:56:11.400343 18172 net.cpp:148] Top shape: 24 96 28 28 (1806336)
I0403 18:56:11.400358 18172 net.cpp:156] Memory required for data: 515408928
I0403 18:56:11.400372 18172 layer_factory.hpp:77] Creating layer inception_3a/3x3
I0403 18:56:11.400394 18172 net.cpp:91] Creating Layer inception_3a/3x3
I0403 18:56:11.400411 18172 net.cpp:425] inception_3a/3x3 <- inception_3a/3x3_reduce
I0403 18:56:11.400434 18172 net.cpp:399] inception_3a/3x3 -> inception_3a/3x3
I0403 18:56:11.402065 18172 net.cpp:141] Setting up inception_3a/3x3
I0403 18:56:11.402096 18172 net.cpp:148] Top shape: 24 128 28 28 (2408448)
I0403 18:56:11.402112 18172 net.cpp:156] Memory required for data: 525042720
I0403 18:56:11.402129 18172 layer_factory.hpp:77] Creating layer inception_3a/relu_3x3
I0403 18:56:11.402148 18172 net.cpp:91] Creating Layer inception_3a/relu_3x3
I0403 18:56:11.402163 18172 net.cpp:425] inception_3a/relu_3x3 <- inception_3a/3x3
I0403 18:56:11.402184 18172 net.cpp:386] inception_3a/relu_3x3 -> inception_3a/3x3 (in-place)
I0403 18:56:11.402454 18172 net.cpp:141] Setting up inception_3a/relu_3x3
I0403 18:56:11.402482 18172 net.cpp:148] Top shape: 24 128 28 28 (2408448)
I0403 18:56:11.402498 18172 net.cpp:156] Memory required for data: 534676512
I0403 18:56:11.402513 18172 layer_factory.hpp:77] Creating layer inception_3a/5x5_reduce
I0403 18:56:11.402534 18172 net.cpp:91] Creating Layer inception_3a/5x5_reduce
I0403 18:56:11.402552 18172 net.cpp:425] inception_3a/5x5_reduce <- pool2/3x3_s2_pool2/3x3_s2_0_split_2
I0403 18:56:11.402571 18172 net.cpp:399] inception_3a/5x5_reduce -> inception_3a/5x5_reduce
I0403 18:56:11.403506 18172 net.cpp:141] Setting up inception_3a/5x5_reduce
I0403 18:56:11.403537 18172 net.cpp:148] Top shape: 24 16 28 28 (301056)
I0403 18:56:11.403553 18172 net.cpp:156] Memory required for data: 535880736
I0403 18:56:11.403571 18172 layer_factory.hpp:77] Creating layer inception_3a/relu_5x5_reduce
I0403 18:56:11.403589 18172 net.cpp:91] Creating Layer inception_3a/relu_5x5_reduce
I0403 18:56:11.403604 18172 net.cpp:425] inception_3a/relu_5x5_reduce <- inception_3a/5x5_reduce
I0403 18:56:11.403625 18172 net.cpp:386] inception_3a/relu_5x5_reduce -> inception_3a/5x5_reduce (in-place)
I0403 18:56:11.403915 18172 net.cpp:141] Setting up inception_3a/relu_5x5_reduce
I0403 18:56:11.403941 18172 net.cpp:148] Top shape: 24 16 28 28 (301056)
I0403 18:56:11.403961 18172 net.cpp:156] Memory required for data: 537084960
I0403 18:56:11.403977 18172 layer_factory.hpp:77] Creating layer inception_3a/5x5
I0403 18:56:11.404000 18172 net.cpp:91] Creating Layer inception_3a/5x5
I0403 18:56:11.404017 18172 net.cpp:425] inception_3a/5x5 <- inception_3a/5x5_reduce
I0403 18:56:11.404039 18172 net.cpp:399] inception_3a/5x5 -> inception_3a/5x5
I0403 18:56:11.405019 18172 net.cpp:141] Setting up inception_3a/5x5
I0403 18:56:11.405046 18172 net.cpp:148] Top shape: 24 32 28 28 (602112)
I0403 18:56:11.405062 18172 net.cpp:156] Memory required for data: 539493408
I0403 18:56:11.405083 18172 layer_factory.hpp:77] Creating layer inception_3a/relu_5x5
I0403 18:56:11.405102 18172 net.cpp:91] Creating Layer inception_3a/relu_5x5
I0403 18:56:11.405117 18172 net.cpp:425] inception_3a/relu_5x5 <- inception_3a/5x5
I0403 18:56:11.405135 18172 net.cpp:386] inception_3a/relu_5x5 -> inception_3a/5x5 (in-place)
I0403 18:56:11.405306 18172 net.cpp:141] Setting up inception_3a/relu_5x5
I0403 18:56:11.405330 18172 net.cpp:148] Top shape: 24 32 28 28 (602112)
I0403 18:56:11.405344 18172 net.cpp:156] Memory required for data: 541901856
I0403 18:56:11.405359 18172 layer_factory.hpp:77] Creating layer inception_3a/pool
I0403 18:56:11.405377 18172 net.cpp:91] Creating Layer inception_3a/pool
I0403 18:56:11.405406 18172 net.cpp:425] inception_3a/pool <- pool2/3x3_s2_pool2/3x3_s2_0_split_3
I0403 18:56:11.405428 18172 net.cpp:399] inception_3a/pool -> inception_3a/pool
I0403 18:56:11.405484 18172 net.cpp:141] Setting up inception_3a/pool
I0403 18:56:11.405508 18172 net.cpp:148] Top shape: 24 192 28 28 (3612672)
I0403 18:56:11.405521 18172 net.cpp:156] Memory required for data: 556352544
I0403 18:56:11.405536 18172 layer_factory.hpp:77] Creating layer inception_3a/pool_proj
I0403 18:56:11.405561 18172 net.cpp:91] Creating Layer inception_3a/pool_proj
I0403 18:56:11.405578 18172 net.cpp:425] inception_3a/pool_proj <- inception_3a/pool
I0403 18:56:11.405596 18172 net.cpp:399] inception_3a/pool_proj -> inception_3a/pool_proj
I0403 18:56:11.406533 18172 net.cpp:141] Setting up inception_3a/pool_proj
I0403 18:56:11.406560 18172 net.cpp:148] Top shape: 24 32 28 28 (602112)
I0403 18:56:11.406575 18172 net.cpp:156] Memory required for data: 558760992
I0403 18:56:11.406599 18172 layer_factory.hpp:77] Creating layer inception_3a/relu_pool_proj
I0403 18:56:11.406618 18172 net.cpp:91] Creating Layer inception_3a/relu_pool_proj
I0403 18:56:11.406635 18172 net.cpp:425] inception_3a/relu_pool_proj <- inception_3a/pool_proj
I0403 18:56:11.406654 18172 net.cpp:386] inception_3a/relu_pool_proj -> inception_3a/pool_proj (in-place)
I0403 18:56:11.406925 18172 net.cpp:141] Setting up inception_3a/relu_pool_proj
I0403 18:56:11.406957 18172 net.cpp:148] Top shape: 24 32 28 28 (602112)
I0403 18:56:11.406973 18172 net.cpp:156] Memory required for data: 561169440
I0403 18:56:11.406990 18172 layer_factory.hpp:77] Creating layer inception_3a/output
I0403 18:56:11.407006 18172 net.cpp:91] Creating Layer inception_3a/output
I0403 18:56:11.407022 18172 net.cpp:425] inception_3a/output <- inception_3a/1x1
I0403 18:56:11.407038 18172 net.cpp:425] inception_3a/output <- inception_3a/3x3
I0403 18:56:11.407054 18172 net.cpp:425] inception_3a/output <- inception_3a/5x5
I0403 18:56:11.407070 18172 net.cpp:425] inception_3a/output <- inception_3a/pool_proj
I0403 18:56:11.407089 18172 net.cpp:399] inception_3a/output -> inception_3a/output
I0403 18:56:11.407135 18172 net.cpp:141] Setting up inception_3a/output
I0403 18:56:11.407157 18172 net.cpp:148] Top shape: 24 256 28 28 (4816896)
I0403 18:56:11.407171 18172 net.cpp:156] Memory required for data: 580437024
I0403 18:56:11.407186 18172 layer_factory.hpp:77] Creating layer inception_3a/output_inception_3a/output_0_split
I0403 18:56:11.407207 18172 net.cpp:91] Creating Layer inception_3a/output_inception_3a/output_0_split
I0403 18:56:11.407224 18172 net.cpp:425] inception_3a/output_inception_3a/output_0_split <- inception_3a/output
I0403 18:56:11.407243 18172 net.cpp:399] inception_3a/output_inception_3a/output_0_split -> inception_3a/output_inception_3a/output_0_split_0
I0403 18:56:11.407261 18172 net.cpp:399] inception_3a/output_inception_3a/output_0_split -> inception_3a/output_inception_3a/output_0_split_1
I0403 18:56:11.407285 18172 net.cpp:399] inception_3a/output_inception_3a/output_0_split -> inception_3a/output_inception_3a/output_0_split_2
I0403 18:56:11.407306 18172 net.cpp:399] inception_3a/output_inception_3a/output_0_split -> inception_3a/output_inception_3a/output_0_split_3
I0403 18:56:11.407378 18172 net.cpp:141] Setting up inception_3a/output_inception_3a/output_0_split
I0403 18:56:11.407400 18172 net.cpp:148] Top shape: 24 256 28 28 (4816896)
I0403 18:56:11.407420 18172 net.cpp:148] Top shape: 24 256 28 28 (4816896)
I0403 18:56:11.407435 18172 net.cpp:148] Top shape: 24 256 28 28 (4816896)
I0403 18:56:11.407450 18172 net.cpp:148] Top shape: 24 256 28 28 (4816896)
I0403 18:56:11.407464 18172 net.cpp:156] Memory required for data: 657507360
I0403 18:56:11.407479 18172 layer_factory.hpp:77] Creating layer inception_3b/1x1
I0403 18:56:11.407498 18172 net.cpp:91] Creating Layer inception_3b/1x1
I0403 18:56:11.407515 18172 net.cpp:425] inception_3b/1x1 <- inception_3a/output_inception_3a/output_0_split_0
I0403 18:56:11.407534 18172 net.cpp:399] inception_3b/1x1 -> inception_3b/1x1
I0403 18:56:11.408671 18172 net.cpp:141] Setting up inception_3b/1x1
I0403 18:56:11.408710 18172 net.cpp:148] Top shape: 24 128 28 28 (2408448)
I0403 18:56:11.408726 18172 net.cpp:156] Memory required for data: 667141152
I0403 18:56:11.408745 18172 layer_factory.hpp:77] Creating layer inception_3b/relu_1x1
I0403 18:56:11.408766 18172 net.cpp:91] Creating Layer inception_3b/relu_1x1
I0403 18:56:11.408782 18172 net.cpp:425] inception_3b/relu_1x1 <- inception_3b/1x1
I0403 18:56:11.408799 18172 net.cpp:386] inception_3b/relu_1x1 -> inception_3b/1x1 (in-place)
I0403 18:56:11.408982 18172 net.cpp:141] Setting up inception_3b/relu_1x1
I0403 18:56:11.409008 18172 net.cpp:148] Top shape: 24 128 28 28 (2408448)
I0403 18:56:11.409024 18172 net.cpp:156] Memory required for data: 676774944
I0403 18:56:11.409039 18172 layer_factory.hpp:77] Creating layer inception_3b/3x3_reduce
I0403 18:56:11.409061 18172 net.cpp:91] Creating Layer inception_3b/3x3_reduce
I0403 18:56:11.409078 18172 net.cpp:425] inception_3b/3x3_reduce <- inception_3a/output_inception_3a/output_0_split_1
I0403 18:56:11.409098 18172 net.cpp:399] inception_3b/3x3_reduce -> inception_3b/3x3_reduce
I0403 18:56:11.410213 18172 net.cpp:141] Setting up inception_3b/3x3_reduce
I0403 18:56:11.410240 18172 net.cpp:148] Top shape: 24 128 28 28 (2408448)
I0403 18:56:11.410255 18172 net.cpp:156] Memory required for data: 686408736
I0403 18:56:11.410274 18172 layer_factory.hpp:77] Creating layer inception_3b/relu_3x3_reduce
I0403 18:56:11.410293 18172 net.cpp:91] Creating Layer inception_3b/relu_3x3_reduce
I0403 18:56:11.410310 18172 net.cpp:425] inception_3b/relu_3x3_reduce <- inception_3b/3x3_reduce
I0403 18:56:11.410327 18172 net.cpp:386] inception_3b/relu_3x3_reduce -> inception_3b/3x3_reduce (in-place)
I0403 18:56:11.410502 18172 net.cpp:141] Setting up inception_3b/relu_3x3_reduce
I0403 18:56:11.410529 18172 net.cpp:148] Top shape: 24 128 28 28 (2408448)
I0403 18:56:11.410544 18172 net.cpp:156] Memory required for data: 696042528
I0403 18:56:11.410559 18172 layer_factory.hpp:77] Creating layer inception_3b/3x3
I0403 18:56:11.410583 18172 net.cpp:91] Creating Layer inception_3b/3x3
I0403 18:56:11.410601 18172 net.cpp:425] inception_3b/3x3 <- inception_3b/3x3_reduce
I0403 18:56:11.410622 18172 net.cpp:399] inception_3b/3x3 -> inception_3b/3x3
I0403 18:56:11.413485 18172 net.cpp:141] Setting up inception_3b/3x3
I0403 18:56:11.413513 18172 net.cpp:148] Top shape: 24 192 28 28 (3612672)
I0403 18:56:11.413529 18172 net.cpp:156] Memory required for data: 710493216
I0403 18:56:11.413548 18172 layer_factory.hpp:77] Creating layer inception_3b/relu_3x3
I0403 18:56:11.413566 18172 net.cpp:91] Creating Layer inception_3b/relu_3x3
I0403 18:56:11.413583 18172 net.cpp:425] inception_3b/relu_3x3 <- inception_3b/3x3
I0403 18:56:11.413600 18172 net.cpp:386] inception_3b/relu_3x3 -> inception_3b/3x3 (in-place)
I0403 18:56:11.413869 18172 net.cpp:141] Setting up inception_3b/relu_3x3
I0403 18:56:11.413897 18172 net.cpp:148] Top shape: 24 192 28 28 (3612672)
I0403 18:56:11.413913 18172 net.cpp:156] Memory required for data: 724943904
I0403 18:56:11.413928 18172 layer_factory.hpp:77] Creating layer inception_3b/5x5_reduce
I0403 18:56:11.413954 18172 net.cpp:91] Creating Layer inception_3b/5x5_reduce
I0403 18:56:11.413974 18172 net.cpp:425] inception_3b/5x5_reduce <- inception_3a/output_inception_3a/output_0_split_2
I0403 18:56:11.413991 18172 net.cpp:399] inception_3b/5x5_reduce -> inception_3b/5x5_reduce
I0403 18:56:11.414939 18172 net.cpp:141] Setting up inception_3b/5x5_reduce
I0403 18:56:11.414971 18172 net.cpp:148] Top shape: 24 32 28 28 (602112)
I0403 18:56:11.414988 18172 net.cpp:156] Memory required for data: 727352352
I0403 18:56:11.415005 18172 layer_factory.hpp:77] Creating layer inception_3b/relu_5x5_reduce
I0403 18:56:11.415024 18172 net.cpp:91] Creating Layer inception_3b/relu_5x5_reduce
I0403 18:56:11.415040 18172 net.cpp:425] inception_3b/relu_5x5_reduce <- inception_3b/5x5_reduce
I0403 18:56:11.415058 18172 net.cpp:386] inception_3b/relu_5x5_reduce -> inception_3b/5x5_reduce (in-place)
I0403 18:56:11.415240 18172 net.cpp:141] Setting up inception_3b/relu_5x5_reduce
I0403 18:56:11.415263 18172 net.cpp:148] Top shape: 24 32 28 28 (602112)
I0403 18:56:11.415278 18172 net.cpp:156] Memory required for data: 729760800
I0403 18:56:11.415293 18172 layer_factory.hpp:77] Creating layer inception_3b/5x5
I0403 18:56:11.415315 18172 net.cpp:91] Creating Layer inception_3b/5x5
I0403 18:56:11.415333 18172 net.cpp:425] inception_3b/5x5 <- inception_3b/5x5_reduce
I0403 18:56:11.415352 18172 net.cpp:399] inception_3b/5x5 -> inception_3b/5x5
I0403 18:56:11.417244 18172 net.cpp:141] Setting up inception_3b/5x5
I0403 18:56:11.417273 18172 net.cpp:148] Top shape: 24 96 28 28 (1806336)
I0403 18:56:11.417289 18172 net.cpp:156] Memory required for data: 736986144
I0403 18:56:11.417306 18172 layer_factory.hpp:77] Creating layer inception_3b/relu_5x5
I0403 18:56:11.417326 18172 net.cpp:91] Creating Layer inception_3b/relu_5x5
I0403 18:56:11.417343 18172 net.cpp:425] inception_3b/relu_5x5 <- inception_3b/5x5
I0403 18:56:11.417361 18172 net.cpp:386] inception_3b/relu_5x5 -> inception_3b/5x5 (in-place)
I0403 18:56:11.417546 18172 net.cpp:141] Setting up inception_3b/relu_5x5
I0403 18:56:11.417569 18172 net.cpp:148] Top shape: 24 96 28 28 (1806336)
I0403 18:56:11.417584 18172 net.cpp:156] Memory required for data: 744211488
I0403 18:56:11.417598 18172 layer_factory.hpp:77] Creating layer inception_3b/pool
I0403 18:56:11.417616 18172 net.cpp:91] Creating Layer inception_3b/pool
I0403 18:56:11.417632 18172 net.cpp:425] inception_3b/pool <- inception_3a/output_inception_3a/output_0_split_3
I0403 18:56:11.417649 18172 net.cpp:399] inception_3b/pool -> inception_3b/pool
I0403 18:56:11.417702 18172 net.cpp:141] Setting up inception_3b/pool
I0403 18:56:11.417724 18172 net.cpp:148] Top shape: 24 256 28 28 (4816896)
I0403 18:56:11.417738 18172 net.cpp:156] Memory required for data: 763479072
I0403 18:56:11.417753 18172 layer_factory.hpp:77] Creating layer inception_3b/pool_proj
I0403 18:56:11.417774 18172 net.cpp:91] Creating Layer inception_3b/pool_proj
I0403 18:56:11.417790 18172 net.cpp:425] inception_3b/pool_proj <- inception_3b/pool
I0403 18:56:11.417810 18172 net.cpp:399] inception_3b/pool_proj -> inception_3b/pool_proj
I0403 18:56:11.418820 18172 net.cpp:141] Setting up inception_3b/pool_proj
I0403 18:56:11.418846 18172 net.cpp:148] Top shape: 24 64 28 28 (1204224)
I0403 18:56:11.418861 18172 net.cpp:156] Memory required for data: 768295968
I0403 18:56:11.418879 18172 layer_factory.hpp:77] Creating layer inception_3b/relu_pool_proj
I0403 18:56:11.418897 18172 net.cpp:91] Creating Layer inception_3b/relu_pool_proj
I0403 18:56:11.418926 18172 net.cpp:425] inception_3b/relu_pool_proj <- inception_3b/pool_proj
I0403 18:56:11.418954 18172 net.cpp:386] inception_3b/relu_pool_proj -> inception_3b/pool_proj (in-place)
I0403 18:56:11.419389 18172 net.cpp:141] Setting up inception_3b/relu_pool_proj
I0403 18:56:11.419415 18172 net.cpp:148] Top shape: 24 64 28 28 (1204224)
I0403 18:56:11.419430 18172 net.cpp:156] Memory required for data: 773112864
I0403 18:56:11.419445 18172 layer_factory.hpp:77] Creating layer inception_3b/output
I0403 18:56:11.419461 18172 net.cpp:91] Creating Layer inception_3b/output
I0403 18:56:11.419476 18172 net.cpp:425] inception_3b/output <- inception_3b/1x1
I0403 18:56:11.419492 18172 net.cpp:425] inception_3b/output <- inception_3b/3x3
I0403 18:56:11.419508 18172 net.cpp:425] inception_3b/output <- inception_3b/5x5
I0403 18:56:11.419524 18172 net.cpp:425] inception_3b/output <- inception_3b/pool_proj
I0403 18:56:11.419543 18172 net.cpp:399] inception_3b/output -> inception_3b/output
I0403 18:56:11.419585 18172 net.cpp:141] Setting up inception_3b/output
I0403 18:56:11.419606 18172 net.cpp:148] Top shape: 24 480 28 28 (9031680)
I0403 18:56:11.419620 18172 net.cpp:156] Memory required for data: 809239584
I0403 18:56:11.419636 18172 layer_factory.hpp:77] Creating layer pool3/3x3_s2
I0403 18:56:11.419654 18172 net.cpp:91] Creating Layer pool3/3x3_s2
I0403 18:56:11.419670 18172 net.cpp:425] pool3/3x3_s2 <- inception_3b/output
I0403 18:56:11.419703 18172 net.cpp:399] pool3/3x3_s2 -> pool3/3x3_s2
I0403 18:56:11.419764 18172 net.cpp:141] Setting up pool3/3x3_s2
I0403 18:56:11.419785 18172 net.cpp:148] Top shape: 24 480 14 14 (2257920)
I0403 18:56:11.419800 18172 net.cpp:156] Memory required for data: 818271264
I0403 18:56:11.419813 18172 layer_factory.hpp:77] Creating layer pool3/3x3_s2_pool3/3x3_s2_0_split
I0403 18:56:11.419832 18172 net.cpp:91] Creating Layer pool3/3x3_s2_pool3/3x3_s2_0_split
I0403 18:56:11.419848 18172 net.cpp:425] pool3/3x3_s2_pool3/3x3_s2_0_split <- pool3/3x3_s2
I0403 18:56:11.419864 18172 net.cpp:399] pool3/3x3_s2_pool3/3x3_s2_0_split -> pool3/3x3_s2_pool3/3x3_s2_0_split_0
I0403 18:56:11.419883 18172 net.cpp:399] pool3/3x3_s2_pool3/3x3_s2_0_split -> pool3/3x3_s2_pool3/3x3_s2_0_split_1
I0403 18:56:11.419903 18172 net.cpp:399] pool3/3x3_s2_pool3/3x3_s2_0_split -> pool3/3x3_s2_pool3/3x3_s2_0_split_2
I0403 18:56:11.419921 18172 net.cpp:399] pool3/3x3_s2_pool3/3x3_s2_0_split -> pool3/3x3_s2_pool3/3x3_s2_0_split_3
I0403 18:56:11.419999 18172 net.cpp:141] Setting up pool3/3x3_s2_pool3/3x3_s2_0_split
I0403 18:56:11.420022 18172 net.cpp:148] Top shape: 24 480 14 14 (2257920)
I0403 18:56:11.420037 18172 net.cpp:148] Top shape: 24 480 14 14 (2257920)
I0403 18:56:11.420053 18172 net.cpp:148] Top shape: 24 480 14 14 (2257920)
I0403 18:56:11.420066 18172 net.cpp:148] Top shape: 24 480 14 14 (2257920)
I0403 18:56:11.420080 18172 net.cpp:156] Memory required for data: 854397984
I0403 18:56:11.420095 18172 layer_factory.hpp:77] Creating layer inception_4a/1x1
I0403 18:56:11.420116 18172 net.cpp:91] Creating Layer inception_4a/1x1
I0403 18:56:11.420133 18172 net.cpp:425] inception_4a/1x1 <- pool3/3x3_s2_pool3/3x3_s2_0_split_0
I0403 18:56:11.420155 18172 net.cpp:399] inception_4a/1x1 -> inception_4a/1x1
I0403 18:56:11.421727 18172 net.cpp:141] Setting up inception_4a/1x1
I0403 18:56:11.421756 18172 net.cpp:148] Top shape: 24 192 14 14 (903168)
I0403 18:56:11.421771 18172 net.cpp:156] Memory required for data: 858010656
I0403 18:56:11.421789 18172 layer_factory.hpp:77] Creating layer inception_4a/relu_1x1
I0403 18:56:11.421810 18172 net.cpp:91] Creating Layer inception_4a/relu_1x1
I0403 18:56:11.421828 18172 net.cpp:425] inception_4a/relu_1x1 <- inception_4a/1x1
I0403 18:56:11.421844 18172 net.cpp:386] inception_4a/relu_1x1 -> inception_4a/1x1 (in-place)
I0403 18:56:11.422024 18172 net.cpp:141] Setting up inception_4a/relu_1x1
I0403 18:56:11.422047 18172 net.cpp:148] Top shape: 24 192 14 14 (903168)
I0403 18:56:11.422065 18172 net.cpp:156] Memory required for data: 861623328
I0403 18:56:11.422081 18172 layer_factory.hpp:77] Creating layer inception_4a/3x3_reduce
I0403 18:56:11.422101 18172 net.cpp:91] Creating Layer inception_4a/3x3_reduce
I0403 18:56:11.422116 18172 net.cpp:425] inception_4a/3x3_reduce <- pool3/3x3_s2_pool3/3x3_s2_0_split_1
I0403 18:56:11.422137 18172 net.cpp:399] inception_4a/3x3_reduce -> inception_4a/3x3_reduce
I0403 18:56:11.423390 18172 net.cpp:141] Setting up inception_4a/3x3_reduce
I0403 18:56:11.423418 18172 net.cpp:148] Top shape: 24 96 14 14 (451584)
I0403 18:56:11.423434 18172 net.cpp:156] Memory required for data: 863429664
I0403 18:56:11.423459 18172 layer_factory.hpp:77] Creating layer inception_4a/relu_3x3_reduce
I0403 18:56:11.423478 18172 net.cpp:91] Creating Layer inception_4a/relu_3x3_reduce
I0403 18:56:11.423494 18172 net.cpp:425] inception_4a/relu_3x3_reduce <- inception_4a/3x3_reduce
I0403 18:56:11.423513 18172 net.cpp:386] inception_4a/relu_3x3_reduce -> inception_4a/3x3_reduce (in-place)
I0403 18:56:11.423687 18172 net.cpp:141] Setting up inception_4a/relu_3x3_reduce
I0403 18:56:11.423712 18172 net.cpp:148] Top shape: 24 96 14 14 (451584)
I0403 18:56:11.423727 18172 net.cpp:156] Memory required for data: 865236000
I0403 18:56:11.423740 18172 layer_factory.hpp:77] Creating layer inception_4a/3x3
I0403 18:56:11.423763 18172 net.cpp:91] Creating Layer inception_4a/3x3
I0403 18:56:11.423780 18172 net.cpp:425] inception_4a/3x3 <- inception_4a/3x3_reduce
I0403 18:56:11.423801 18172 net.cpp:399] inception_4a/3x3 -> inception_4a/3x3
I0403 18:56:11.426447 18172 net.cpp:141] Setting up inception_4a/3x3
I0403 18:56:11.426476 18172 net.cpp:148] Top shape: 24 208 14 14 (978432)
I0403 18:56:11.426491 18172 net.cpp:156] Memory required for data: 869149728
I0403 18:56:11.426508 18172 layer_factory.hpp:77] Creating layer inception_4a/relu_3x3
I0403 18:56:11.426528 18172 net.cpp:91] Creating Layer inception_4a/relu_3x3
I0403 18:56:11.426545 18172 net.cpp:425] inception_4a/relu_3x3 <- inception_4a/3x3
I0403 18:56:11.426563 18172 net.cpp:386] inception_4a/relu_3x3 -> inception_4a/3x3 (in-place)
I0403 18:56:11.426838 18172 net.cpp:141] Setting up inception_4a/relu_3x3
I0403 18:56:11.426864 18172 net.cpp:148] Top shape: 24 208 14 14 (978432)
I0403 18:56:11.426878 18172 net.cpp:156] Memory required for data: 873063456
I0403 18:56:11.426893 18172 layer_factory.hpp:77] Creating layer inception_4a/5x5_reduce
I0403 18:56:11.426918 18172 net.cpp:91] Creating Layer inception_4a/5x5_reduce
I0403 18:56:11.426934 18172 net.cpp:425] inception_4a/5x5_reduce <- pool3/3x3_s2_pool3/3x3_s2_0_split_2
I0403 18:56:11.426959 18172 net.cpp:399] inception_4a/5x5_reduce -> inception_4a/5x5_reduce
I0403 18:56:11.427966 18172 net.cpp:141] Setting up inception_4a/5x5_reduce
I0403 18:56:11.427994 18172 net.cpp:148] Top shape: 24 16 14 14 (75264)
I0403 18:56:11.428009 18172 net.cpp:156] Memory required for data: 873364512
I0403 18:56:11.428027 18172 layer_factory.hpp:77] Creating layer inception_4a/relu_5x5_reduce
I0403 18:56:11.428047 18172 net.cpp:91] Creating Layer inception_4a/relu_5x5_reduce
I0403 18:56:11.428064 18172 net.cpp:425] inception_4a/relu_5x5_reduce <- inception_4a/5x5_reduce
I0403 18:56:11.428082 18172 net.cpp:386] inception_4a/relu_5x5_reduce -> inception_4a/5x5_reduce (in-place)
I0403 18:56:11.428263 18172 net.cpp:141] Setting up inception_4a/relu_5x5_reduce
I0403 18:56:11.428288 18172 net.cpp:148] Top shape: 24 16 14 14 (75264)
I0403 18:56:11.428303 18172 net.cpp:156] Memory required for data: 873665568
I0403 18:56:11.428318 18172 layer_factory.hpp:77] Creating layer inception_4a/5x5
I0403 18:56:11.428339 18172 net.cpp:91] Creating Layer inception_4a/5x5
I0403 18:56:11.428357 18172 net.cpp:425] inception_4a/5x5 <- inception_4a/5x5_reduce
I0403 18:56:11.428378 18172 net.cpp:399] inception_4a/5x5 -> inception_4a/5x5
I0403 18:56:11.429466 18172 net.cpp:141] Setting up inception_4a/5x5
I0403 18:56:11.429492 18172 net.cpp:148] Top shape: 24 48 14 14 (225792)
I0403 18:56:11.429508 18172 net.cpp:156] Memory required for data: 874568736
I0403 18:56:11.429527 18172 layer_factory.hpp:77] Creating layer inception_4a/relu_5x5
I0403 18:56:11.429544 18172 net.cpp:91] Creating Layer inception_4a/relu_5x5
I0403 18:56:11.429560 18172 net.cpp:425] inception_4a/relu_5x5 <- inception_4a/5x5
I0403 18:56:11.429579 18172 net.cpp:386] inception_4a/relu_5x5 -> inception_4a/5x5 (in-place)
I0403 18:56:11.429756 18172 net.cpp:141] Setting up inception_4a/relu_5x5
I0403 18:56:11.429780 18172 net.cpp:148] Top shape: 24 48 14 14 (225792)
I0403 18:56:11.429795 18172 net.cpp:156] Memory required for data: 875471904
I0403 18:56:11.429811 18172 layer_factory.hpp:77] Creating layer inception_4a/pool
I0403 18:56:11.429829 18172 net.cpp:91] Creating Layer inception_4a/pool
I0403 18:56:11.429847 18172 net.cpp:425] inception_4a/pool <- pool3/3x3_s2_pool3/3x3_s2_0_split_3
I0403 18:56:11.429864 18172 net.cpp:399] inception_4a/pool -> inception_4a/pool
I0403 18:56:11.429939 18172 net.cpp:141] Setting up inception_4a/pool
I0403 18:56:11.429968 18172 net.cpp:148] Top shape: 24 480 14 14 (2257920)
I0403 18:56:11.429983 18172 net.cpp:156] Memory required for data: 884503584
I0403 18:56:11.429998 18172 layer_factory.hpp:77] Creating layer inception_4a/pool_proj
I0403 18:56:11.430022 18172 net.cpp:91] Creating Layer inception_4a/pool_proj
I0403 18:56:11.430039 18172 net.cpp:425] inception_4a/pool_proj <- inception_4a/pool
I0403 18:56:11.430060 18172 net.cpp:399] inception_4a/pool_proj -> inception_4a/pool_proj
I0403 18:56:11.431236 18172 net.cpp:141] Setting up inception_4a/pool_proj
I0403 18:56:11.431263 18172 net.cpp:148] Top shape: 24 64 14 14 (301056)
I0403 18:56:11.431294 18172 net.cpp:156] Memory required for data: 885707808
I0403 18:56:11.431314 18172 layer_factory.hpp:77] Creating layer inception_4a/relu_pool_proj
I0403 18:56:11.431334 18172 net.cpp:91] Creating Layer inception_4a/relu_pool_proj
I0403 18:56:11.431350 18172 net.cpp:425] inception_4a/relu_pool_proj <- inception_4a/pool_proj
I0403 18:56:11.431368 18172 net.cpp:386] inception_4a/relu_pool_proj -> inception_4a/pool_proj (in-place)
I0403 18:56:11.431651 18172 net.cpp:141] Setting up inception_4a/relu_pool_proj
I0403 18:56:11.431679 18172 net.cpp:148] Top shape: 24 64 14 14 (301056)
I0403 18:56:11.431692 18172 net.cpp:156] Memory required for data: 886912032
I0403 18:56:11.431707 18172 layer_factory.hpp:77] Creating layer inception_4a/output
I0403 18:56:11.431725 18172 net.cpp:91] Creating Layer inception_4a/output
I0403 18:56:11.431740 18172 net.cpp:425] inception_4a/output <- inception_4a/1x1
I0403 18:56:11.431757 18172 net.cpp:425] inception_4a/output <- inception_4a/3x3
I0403 18:56:11.431777 18172 net.cpp:425] inception_4a/output <- inception_4a/5x5
I0403 18:56:11.431793 18172 net.cpp:425] inception_4a/output <- inception_4a/pool_proj
I0403 18:56:11.431809 18172 net.cpp:399] inception_4a/output -> inception_4a/output
I0403 18:56:11.431852 18172 net.cpp:141] Setting up inception_4a/output
I0403 18:56:11.431877 18172 net.cpp:148] Top shape: 24 512 14 14 (2408448)
I0403 18:56:11.431892 18172 net.cpp:156] Memory required for data: 896545824
I0403 18:56:11.431907 18172 layer_factory.hpp:77] Creating layer inception_4a/output_inception_4a/output_0_split
I0403 18:56:11.431926 18172 net.cpp:91] Creating Layer inception_4a/output_inception_4a/output_0_split
I0403 18:56:11.431941 18172 net.cpp:425] inception_4a/output_inception_4a/output_0_split <- inception_4a/output
I0403 18:56:11.431965 18172 net.cpp:399] inception_4a/output_inception_4a/output_0_split -> inception_4a/output_inception_4a/output_0_split_0
I0403 18:56:11.431988 18172 net.cpp:399] inception_4a/output_inception_4a/output_0_split -> inception_4a/output_inception_4a/output_0_split_1
I0403 18:56:11.432008 18172 net.cpp:399] inception_4a/output_inception_4a/output_0_split -> inception_4a/output_inception_4a/output_0_split_2
I0403 18:56:11.432029 18172 net.cpp:399] inception_4a/output_inception_4a/output_0_split -> inception_4a/output_inception_4a/output_0_split_3
I0403 18:56:11.432049 18172 net.cpp:399] inception_4a/output_inception_4a/output_0_split -> inception_4a/output_inception_4a/output_0_split_4
I0403 18:56:11.432139 18172 net.cpp:141] Setting up inception_4a/output_inception_4a/output_0_split
I0403 18:56:11.432163 18172 net.cpp:148] Top shape: 24 512 14 14 (2408448)
I0403 18:56:11.432180 18172 net.cpp:148] Top shape: 24 512 14 14 (2408448)
I0403 18:56:11.432196 18172 net.cpp:148] Top shape: 24 512 14 14 (2408448)
I0403 18:56:11.432212 18172 net.cpp:148] Top shape: 24 512 14 14 (2408448)
I0403 18:56:11.432229 18172 net.cpp:148] Top shape: 24 512 14 14 (2408448)
I0403 18:56:11.432241 18172 net.cpp:156] Memory required for data: 944714784
I0403 18:56:11.432256 18172 layer_factory.hpp:77] Creating layer loss1/ave_pool
I0403 18:56:11.432273 18172 net.cpp:91] Creating Layer loss1/ave_pool
I0403 18:56:11.432289 18172 net.cpp:425] loss1/ave_pool <- inception_4a/output_inception_4a/output_0_split_0
I0403 18:56:11.432309 18172 net.cpp:399] loss1/ave_pool -> loss1/ave_pool
I0403 18:56:11.432512 18172 net.cpp:141] Setting up loss1/ave_pool
I0403 18:56:11.432538 18172 net.cpp:148] Top shape: 24 512 4 4 (196608)
I0403 18:56:11.432553 18172 net.cpp:156] Memory required for data: 945501216
I0403 18:56:11.432567 18172 layer_factory.hpp:77] Creating layer loss1/conv
I0403 18:56:11.432588 18172 net.cpp:91] Creating Layer loss1/conv
I0403 18:56:11.432606 18172 net.cpp:425] loss1/conv <- loss1/ave_pool
I0403 18:56:11.432626 18172 net.cpp:399] loss1/conv -> loss1/conv
I0403 18:56:11.434015 18172 net.cpp:141] Setting up loss1/conv
I0403 18:56:11.434042 18172 net.cpp:148] Top shape: 24 128 4 4 (49152)
I0403 18:56:11.434072 18172 net.cpp:156] Memory required for data: 945697824
I0403 18:56:11.434092 18172 layer_factory.hpp:77] Creating layer loss1/relu_conv
I0403 18:56:11.434113 18172 net.cpp:91] Creating Layer loss1/relu_conv
I0403 18:56:11.434129 18172 net.cpp:425] loss1/relu_conv <- loss1/conv
I0403 18:56:11.434146 18172 net.cpp:386] loss1/relu_conv -> loss1/conv (in-place)
I0403 18:56:11.434427 18172 net.cpp:141] Setting up loss1/relu_conv
I0403 18:56:11.434453 18172 net.cpp:148] Top shape: 24 128 4 4 (49152)
I0403 18:56:11.434468 18172 net.cpp:156] Memory required for data: 945894432
I0403 18:56:11.434483 18172 layer_factory.hpp:77] Creating layer loss1/fc
I0403 18:56:11.434507 18172 net.cpp:91] Creating Layer loss1/fc
I0403 18:56:11.434525 18172 net.cpp:425] loss1/fc <- loss1/conv
I0403 18:56:11.434546 18172 net.cpp:399] loss1/fc -> loss1/fc
I0403 18:56:11.451853 18172 net.cpp:141] Setting up loss1/fc
I0403 18:56:11.451886 18172 net.cpp:148] Top shape: 24 1024 (24576)
I0403 18:56:11.451901 18172 net.cpp:156] Memory required for data: 945992736
I0403 18:56:11.451920 18172 layer_factory.hpp:77] Creating layer loss1/relu_fc
I0403 18:56:11.451956 18172 net.cpp:91] Creating Layer loss1/relu_fc
I0403 18:56:11.451972 18172 net.cpp:425] loss1/relu_fc <- loss1/fc
I0403 18:56:11.451992 18172 net.cpp:386] loss1/relu_fc -> loss1/fc (in-place)
I0403 18:56:11.452174 18172 net.cpp:141] Setting up loss1/relu_fc
I0403 18:56:11.452201 18172 net.cpp:148] Top shape: 24 1024 (24576)
I0403 18:56:11.452229 18172 net.cpp:156] Memory required for data: 946091040
I0403 18:56:11.452244 18172 layer_factory.hpp:77] Creating layer loss1/drop_fc
I0403 18:56:11.452268 18172 net.cpp:91] Creating Layer loss1/drop_fc
I0403 18:56:11.452286 18172 net.cpp:425] loss1/drop_fc <- loss1/fc
I0403 18:56:11.452302 18172 net.cpp:386] loss1/drop_fc -> loss1/fc (in-place)
I0403 18:56:11.452353 18172 net.cpp:141] Setting up loss1/drop_fc
I0403 18:56:11.452374 18172 net.cpp:148] Top shape: 24 1024 (24576)
I0403 18:56:11.452389 18172 net.cpp:156] Memory required for data: 946189344
I0403 18:56:11.452404 18172 layer_factory.hpp:77] Creating layer loss1/classifier_plantvillage
I0403 18:56:11.452421 18172 net.cpp:91] Creating Layer loss1/classifier_plantvillage
I0403 18:56:11.452436 18172 net.cpp:425] loss1/classifier_plantvillage <- loss1/fc
I0403 18:56:11.452457 18172 net.cpp:399] loss1/classifier_plantvillage -> loss1/classifier_plantvillage
I0403 18:56:11.453331 18172 net.cpp:141] Setting up loss1/classifier_plantvillage
I0403 18:56:11.453358 18172 net.cpp:148] Top shape: 24 38 (912)
I0403 18:56:11.453373 18172 net.cpp:156] Memory required for data: 946192992
I0403 18:56:11.453390 18172 layer_factory.hpp:77] Creating layer loss1/classifier_plantvillage_loss1/classifier_plantvillage_0_split
I0403 18:56:11.453410 18172 net.cpp:91] Creating Layer loss1/classifier_plantvillage_loss1/classifier_plantvillage_0_split
I0403 18:56:11.453425 18172 net.cpp:425] loss1/classifier_plantvillage_loss1/classifier_plantvillage_0_split <- loss1/classifier_plantvillage
I0403 18:56:11.453441 18172 net.cpp:399] loss1/classifier_plantvillage_loss1/classifier_plantvillage_0_split -> loss1/classifier_plantvillage_loss1/classifier_plantvillage_0_split_0
I0403 18:56:11.453461 18172 net.cpp:399] loss1/classifier_plantvillage_loss1/classifier_plantvillage_0_split -> loss1/classifier_plantvillage_loss1/classifier_plantvillage_0_split_1
I0403 18:56:11.453480 18172 net.cpp:399] loss1/classifier_plantvillage_loss1/classifier_plantvillage_0_split -> loss1/classifier_plantvillage_loss1/classifier_plantvillage_0_split_2
I0403 18:56:11.453547 18172 net.cpp:141] Setting up loss1/classifier_plantvillage_loss1/classifier_plantvillage_0_split
I0403 18:56:11.453568 18172 net.cpp:148] Top shape: 24 38 (912)
I0403 18:56:11.453583 18172 net.cpp:148] Top shape: 24 38 (912)
I0403 18:56:11.453598 18172 net.cpp:148] Top shape: 24 38 (912)
I0403 18:56:11.453611 18172 net.cpp:156] Memory required for data: 946203936
I0403 18:56:11.453625 18172 layer_factory.hpp:77] Creating layer inception_4b/1x1
I0403 18:56:11.453646 18172 net.cpp:91] Creating Layer inception_4b/1x1
I0403 18:56:11.453678 18172 net.cpp:425] inception_4b/1x1 <- inception_4a/output_inception_4a/output_0_split_1
I0403 18:56:11.453697 18172 net.cpp:399] inception_4b/1x1 -> inception_4b/1x1
I0403 18:56:11.455278 18172 net.cpp:141] Setting up inception_4b/1x1
I0403 18:56:11.455305 18172 net.cpp:148] Top shape: 24 160 14 14 (752640)
I0403 18:56:11.455320 18172 net.cpp:156] Memory required for data: 949214496
I0403 18:56:11.455338 18172 layer_factory.hpp:77] Creating layer inception_4b/relu_1x1
I0403 18:56:11.455358 18172 net.cpp:91] Creating Layer inception_4b/relu_1x1
I0403 18:56:11.455374 18172 net.cpp:425] inception_4b/relu_1x1 <- inception_4b/1x1
I0403 18:56:11.455391 18172 net.cpp:386] inception_4b/relu_1x1 -> inception_4b/1x1 (in-place)
I0403 18:56:11.455565 18172 net.cpp:141] Setting up inception_4b/relu_1x1
I0403 18:56:11.455588 18172 net.cpp:148] Top shape: 24 160 14 14 (752640)
I0403 18:56:11.455602 18172 net.cpp:156] Memory required for data: 952225056
I0403 18:56:11.455617 18172 layer_factory.hpp:77] Creating layer inception_4b/3x3_reduce
I0403 18:56:11.455641 18172 net.cpp:91] Creating Layer inception_4b/3x3_reduce
I0403 18:56:11.455658 18172 net.cpp:425] inception_4b/3x3_reduce <- inception_4a/output_inception_4a/output_0_split_2
I0403 18:56:11.455678 18172 net.cpp:399] inception_4b/3x3_reduce -> inception_4b/3x3_reduce
I0403 18:56:11.456979 18172 net.cpp:141] Setting up inception_4b/3x3_reduce
I0403 18:56:11.457005 18172 net.cpp:148] Top shape: 24 112 14 14 (526848)
I0403 18:56:11.457020 18172 net.cpp:156] Memory required for data: 954332448
I0403 18:56:11.457038 18172 layer_factory.hpp:77] Creating layer inception_4b/relu_3x3_reduce
I0403 18:56:11.457056 18172 net.cpp:91] Creating Layer inception_4b/relu_3x3_reduce
I0403 18:56:11.457070 18172 net.cpp:425] inception_4b/relu_3x3_reduce <- inception_4b/3x3_reduce
I0403 18:56:11.457088 18172 net.cpp:386] inception_4b/relu_3x3_reduce -> inception_4b/3x3_reduce (in-place)
I0403 18:56:11.457361 18172 net.cpp:141] Setting up inception_4b/relu_3x3_reduce
I0403 18:56:11.457387 18172 net.cpp:148] Top shape: 24 112 14 14 (526848)
I0403 18:56:11.457401 18172 net.cpp:156] Memory required for data: 956439840
I0403 18:56:11.457417 18172 layer_factory.hpp:77] Creating layer inception_4b/3x3
I0403 18:56:11.457437 18172 net.cpp:91] Creating Layer inception_4b/3x3
I0403 18:56:11.457454 18172 net.cpp:425] inception_4b/3x3 <- inception_4b/3x3_reduce
I0403 18:56:11.457478 18172 net.cpp:399] inception_4b/3x3 -> inception_4b/3x3
I0403 18:56:11.460364 18172 net.cpp:141] Setting up inception_4b/3x3
I0403 18:56:11.460392 18172 net.cpp:148] Top shape: 24 224 14 14 (1053696)
I0403 18:56:11.460408 18172 net.cpp:156] Memory required for data: 960654624
I0403 18:56:11.460425 18172 layer_factory.hpp:77] Creating layer inception_4b/relu_3x3
I0403 18:56:11.460445 18172 net.cpp:91] Creating Layer inception_4b/relu_3x3
I0403 18:56:11.460461 18172 net.cpp:425] inception_4b/relu_3x3 <- inception_4b/3x3
I0403 18:56:11.460479 18172 net.cpp:386] inception_4b/relu_3x3 -> inception_4b/3x3 (in-place)
I0403 18:56:11.460654 18172 net.cpp:141] Setting up inception_4b/relu_3x3
I0403 18:56:11.460680 18172 net.cpp:148] Top shape: 24 224 14 14 (1053696)
I0403 18:56:11.460695 18172 net.cpp:156] Memory required for data: 964869408
I0403 18:56:11.460708 18172 layer_factory.hpp:77] Creating layer inception_4b/5x5_reduce
I0403 18:56:11.460728 18172 net.cpp:91] Creating Layer inception_4b/5x5_reduce
I0403 18:56:11.460744 18172 net.cpp:425] inception_4b/5x5_reduce <- inception_4a/output_inception_4a/output_0_split_3
I0403 18:56:11.460767 18172 net.cpp:399] inception_4b/5x5_reduce -> inception_4b/5x5_reduce
I0403 18:56:11.461822 18172 net.cpp:141] Setting up inception_4b/5x5_reduce
I0403 18:56:11.461850 18172 net.cpp:148] Top shape: 24 24 14 14 (112896)
I0403 18:56:11.461866 18172 net.cpp:156] Memory required for data: 965320992
I0403 18:56:11.461885 18172 layer_factory.hpp:77] Creating layer inception_4b/relu_5x5_reduce
I0403 18:56:11.461902 18172 net.cpp:91] Creating Layer inception_4b/relu_5x5_reduce
I0403 18:56:11.461932 18172 net.cpp:425] inception_4b/relu_5x5_reduce <- inception_4b/5x5_reduce
I0403 18:56:11.461954 18172 net.cpp:386] inception_4b/relu_5x5_reduce -> inception_4b/5x5_reduce (in-place)
I0403 18:56:11.462136 18172 net.cpp:141] Setting up inception_4b/relu_5x5_reduce
I0403 18:56:11.462160 18172 net.cpp:148] Top shape: 24 24 14 14 (112896)
I0403 18:56:11.462175 18172 net.cpp:156] Memory required for data: 965772576
I0403 18:56:11.462188 18172 layer_factory.hpp:77] Creating layer inception_4b/5x5
I0403 18:56:11.462211 18172 net.cpp:91] Creating Layer inception_4b/5x5
I0403 18:56:11.462229 18172 net.cpp:425] inception_4b/5x5 <- inception_4b/5x5_reduce
I0403 18:56:11.462249 18172 net.cpp:399] inception_4b/5x5 -> inception_4b/5x5
I0403 18:56:11.463464 18172 net.cpp:141] Setting up inception_4b/5x5
I0403 18:56:11.463490 18172 net.cpp:148] Top shape: 24 64 14 14 (301056)
I0403 18:56:11.463505 18172 net.cpp:156] Memory required for data: 966976800
I0403 18:56:11.463522 18172 layer_factory.hpp:77] Creating layer inception_4b/relu_5x5
I0403 18:56:11.463542 18172 net.cpp:91] Creating Layer inception_4b/relu_5x5
I0403 18:56:11.463559 18172 net.cpp:425] inception_4b/relu_5x5 <- inception_4b/5x5
I0403 18:56:11.463577 18172 net.cpp:386] inception_4b/relu_5x5 -> inception_4b/5x5 (in-place)
I0403 18:56:11.463852 18172 net.cpp:141] Setting up inception_4b/relu_5x5
I0403 18:56:11.463877 18172 net.cpp:148] Top shape: 24 64 14 14 (301056)
I0403 18:56:11.463892 18172 net.cpp:156] Memory required for data: 968181024
I0403 18:56:11.463907 18172 layer_factory.hpp:77] Creating layer inception_4b/pool
I0403 18:56:11.463928 18172 net.cpp:91] Creating Layer inception_4b/pool
I0403 18:56:11.463944 18172 net.cpp:425] inception_4b/pool <- inception_4a/output_inception_4a/output_0_split_4
I0403 18:56:11.463968 18172 net.cpp:399] inception_4b/pool -> inception_4b/pool
I0403 18:56:11.464031 18172 net.cpp:141] Setting up inception_4b/pool
I0403 18:56:11.464054 18172 net.cpp:148] Top shape: 24 512 14 14 (2408448)
I0403 18:56:11.464068 18172 net.cpp:156] Memory required for data: 977814816
I0403 18:56:11.464082 18172 layer_factory.hpp:77] Creating layer inception_4b/pool_proj
I0403 18:56:11.464103 18172 net.cpp:91] Creating Layer inception_4b/pool_proj
I0403 18:56:11.464120 18172 net.cpp:425] inception_4b/pool_proj <- inception_4b/pool
I0403 18:56:11.464140 18172 net.cpp:399] inception_4b/pool_proj -> inception_4b/pool_proj
I0403 18:56:11.465304 18172 net.cpp:141] Setting up inception_4b/pool_proj
I0403 18:56:11.465332 18172 net.cpp:148] Top shape: 24 64 14 14 (301056)
I0403 18:56:11.465348 18172 net.cpp:156] Memory required for data: 979019040
I0403 18:56:11.465366 18172 layer_factory.hpp:77] Creating layer inception_4b/relu_pool_proj
I0403 18:56:11.465384 18172 net.cpp:91] Creating Layer inception_4b/relu_pool_proj
I0403 18:56:11.465399 18172 net.cpp:425] inception_4b/relu_pool_proj <- inception_4b/pool_proj
I0403 18:56:11.465417 18172 net.cpp:386] inception_4b/relu_pool_proj -> inception_4b/pool_proj (in-place)
I0403 18:56:11.465592 18172 net.cpp:141] Setting up inception_4b/relu_pool_proj
I0403 18:56:11.465616 18172 net.cpp:148] Top shape: 24 64 14 14 (301056)
I0403 18:56:11.465631 18172 net.cpp:156] Memory required for data: 980223264
I0403 18:56:11.465646 18172 layer_factory.hpp:77] Creating layer inception_4b/output
I0403 18:56:11.465662 18172 net.cpp:91] Creating Layer inception_4b/output
I0403 18:56:11.465677 18172 net.cpp:425] inception_4b/output <- inception_4b/1x1
I0403 18:56:11.465692 18172 net.cpp:425] inception_4b/output <- inception_4b/3x3
I0403 18:56:11.465708 18172 net.cpp:425] inception_4b/output <- inception_4b/5x5
I0403 18:56:11.465723 18172 net.cpp:425] inception_4b/output <- inception_4b/pool_proj
I0403 18:56:11.465740 18172 net.cpp:399] inception_4b/output -> inception_4b/output
I0403 18:56:11.465785 18172 net.cpp:141] Setting up inception_4b/output
I0403 18:56:11.465808 18172 net.cpp:148] Top shape: 24 512 14 14 (2408448)
I0403 18:56:11.465823 18172 net.cpp:156] Memory required for data: 989857056
I0403 18:56:11.465852 18172 layer_factory.hpp:77] Creating layer inception_4b/output_inception_4b/output_0_split
I0403 18:56:11.465869 18172 net.cpp:91] Creating Layer inception_4b/output_inception_4b/output_0_split
I0403 18:56:11.465884 18172 net.cpp:425] inception_4b/output_inception_4b/output_0_split <- inception_4b/output
I0403 18:56:11.465901 18172 net.cpp:399] inception_4b/output_inception_4b/output_0_split -> inception_4b/output_inception_4b/output_0_split_0
I0403 18:56:11.465922 18172 net.cpp:399] inception_4b/output_inception_4b/output_0_split -> inception_4b/output_inception_4b/output_0_split_1
I0403 18:56:11.465944 18172 net.cpp:399] inception_4b/output_inception_4b/output_0_split -> inception_4b/output_inception_4b/output_0_split_2
I0403 18:56:11.465967 18172 net.cpp:399] inception_4b/output_inception_4b/output_0_split -> inception_4b/output_inception_4b/output_0_split_3
I0403 18:56:11.466049 18172 net.cpp:141] Setting up inception_4b/output_inception_4b/output_0_split
I0403 18:56:11.466071 18172 net.cpp:148] Top shape: 24 512 14 14 (2408448)
I0403 18:56:11.466086 18172 net.cpp:148] Top shape: 24 512 14 14 (2408448)
I0403 18:56:11.466101 18172 net.cpp:148] Top shape: 24 512 14 14 (2408448)
I0403 18:56:11.466116 18172 net.cpp:148] Top shape: 24 512 14 14 (2408448)
I0403 18:56:11.466130 18172 net.cpp:156] Memory required for data: 1028392224
I0403 18:56:11.466143 18172 layer_factory.hpp:77] Creating layer inception_4c/1x1
I0403 18:56:11.466164 18172 net.cpp:91] Creating Layer inception_4c/1x1
I0403 18:56:11.466181 18172 net.cpp:425] inception_4c/1x1 <- inception_4b/output_inception_4b/output_0_split_0
I0403 18:56:11.466202 18172 net.cpp:399] inception_4c/1x1 -> inception_4c/1x1
I0403 18:56:11.467582 18172 net.cpp:141] Setting up inception_4c/1x1
I0403 18:56:11.467609 18172 net.cpp:148] Top shape: 24 128 14 14 (602112)
I0403 18:56:11.467624 18172 net.cpp:156] Memory required for data: 1030800672
I0403 18:56:11.467643 18172 layer_factory.hpp:77] Creating layer inception_4c/relu_1x1
I0403 18:56:11.467660 18172 net.cpp:91] Creating Layer inception_4c/relu_1x1
I0403 18:56:11.467675 18172 net.cpp:425] inception_4c/relu_1x1 <- inception_4c/1x1
I0403 18:56:11.467694 18172 net.cpp:386] inception_4c/relu_1x1 -> inception_4c/1x1 (in-place)
I0403 18:56:11.467870 18172 net.cpp:141] Setting up inception_4c/relu_1x1
I0403 18:56:11.467895 18172 net.cpp:148] Top shape: 24 128 14 14 (602112)
I0403 18:56:11.467908 18172 net.cpp:156] Memory required for data: 1033209120
I0403 18:56:11.467924 18172 layer_factory.hpp:77] Creating layer inception_4c/3x3_reduce
I0403 18:56:11.467949 18172 net.cpp:91] Creating Layer inception_4c/3x3_reduce
I0403 18:56:11.467967 18172 net.cpp:425] inception_4c/3x3_reduce <- inception_4b/output_inception_4b/output_0_split_1
I0403 18:56:11.467988 18172 net.cpp:399] inception_4c/3x3_reduce -> inception_4c/3x3_reduce
I0403 18:56:11.469910 18172 net.cpp:141] Setting up inception_4c/3x3_reduce
I0403 18:56:11.469940 18172 net.cpp:148] Top shape: 24 128 14 14 (602112)
I0403 18:56:11.469964 18172 net.cpp:156] Memory required for data: 1035617568
I0403 18:56:11.469982 18172 layer_factory.hpp:77] Creating layer inception_4c/relu_3x3_reduce
I0403 18:56:11.470000 18172 net.cpp:91] Creating Layer inception_4c/relu_3x3_reduce
I0403 18:56:11.470016 18172 net.cpp:425] inception_4c/relu_3x3_reduce <- inception_4c/3x3_reduce
I0403 18:56:11.470033 18172 net.cpp:386] inception_4c/relu_3x3_reduce -> inception_4c/3x3_reduce (in-place)
I0403 18:56:11.470320 18172 net.cpp:141] Setting up inception_4c/relu_3x3_reduce
I0403 18:56:11.470347 18172 net.cpp:148] Top shape: 24 128 14 14 (602112)
I0403 18:56:11.470365 18172 net.cpp:156] Memory required for data: 1038026016
I0403 18:56:11.470379 18172 layer_factory.hpp:77] Creating layer inception_4c/3x3
I0403 18:56:11.470399 18172 net.cpp:91] Creating Layer inception_4c/3x3
I0403 18:56:11.470415 18172 net.cpp:425] inception_4c/3x3 <- inception_4c/3x3_reduce
I0403 18:56:11.470438 18172 net.cpp:399] inception_4c/3x3 -> inception_4c/3x3
I0403 18:56:11.474026 18172 net.cpp:141] Setting up inception_4c/3x3
I0403 18:56:11.474068 18172 net.cpp:148] Top shape: 24 256 14 14 (1204224)
I0403 18:56:11.474086 18172 net.cpp:156] Memory required for data: 1042842912
I0403 18:56:11.474117 18172 layer_factory.hpp:77] Creating layer inception_4c/relu_3x3
I0403 18:56:11.474138 18172 net.cpp:91] Creating Layer inception_4c/relu_3x3
I0403 18:56:11.474154 18172 net.cpp:425] inception_4c/relu_3x3 <- inception_4c/3x3
I0403 18:56:11.474174 18172 net.cpp:386] inception_4c/relu_3x3 -> inception_4c/3x3 (in-place)
I0403 18:56:11.474354 18172 net.cpp:141] Setting up inception_4c/relu_3x3
I0403 18:56:11.474381 18172 net.cpp:148] Top shape: 24 256 14 14 (1204224)
I0403 18:56:11.474397 18172 net.cpp:156] Memory required for data: 1047659808
I0403 18:56:11.474411 18172 layer_factory.hpp:77] Creating layer inception_4c/5x5_reduce
I0403 18:56:11.474434 18172 net.cpp:91] Creating Layer inception_4c/5x5_reduce
I0403 18:56:11.474452 18172 net.cpp:425] inception_4c/5x5_reduce <- inception_4b/output_inception_4b/output_0_split_2
I0403 18:56:11.474472 18172 net.cpp:399] inception_4c/5x5_reduce -> inception_4c/5x5_reduce
I0403 18:56:11.475563 18172 net.cpp:141] Setting up inception_4c/5x5_reduce
I0403 18:56:11.475592 18172 net.cpp:148] Top shape: 24 24 14 14 (112896)
I0403 18:56:11.475608 18172 net.cpp:156] Memory required for data: 1048111392
I0403 18:56:11.475627 18172 layer_factory.hpp:77] Creating layer inception_4c/relu_5x5_reduce
I0403 18:56:11.475646 18172 net.cpp:91] Creating Layer inception_4c/relu_5x5_reduce
I0403 18:56:11.475662 18172 net.cpp:425] inception_4c/relu_5x5_reduce <- inception_4c/5x5_reduce
I0403 18:56:11.475680 18172 net.cpp:386] inception_4c/relu_5x5_reduce -> inception_4c/5x5_reduce (in-place)
I0403 18:56:11.475865 18172 net.cpp:141] Setting up inception_4c/relu_5x5_reduce
I0403 18:56:11.475889 18172 net.cpp:148] Top shape: 24 24 14 14 (112896)
I0403 18:56:11.475904 18172 net.cpp:156] Memory required for data: 1048562976
I0403 18:56:11.475919 18172 layer_factory.hpp:77] Creating layer inception_4c/5x5
I0403 18:56:11.475960 18172 net.cpp:91] Creating Layer inception_4c/5x5
I0403 18:56:11.475980 18172 net.cpp:425] inception_4c/5x5 <- inception_4c/5x5_reduce
I0403 18:56:11.476003 18172 net.cpp:399] inception_4c/5x5 -> inception_4c/5x5
I0403 18:56:11.477265 18172 net.cpp:141] Setting up inception_4c/5x5
I0403 18:56:11.477293 18172 net.cpp:148] Top shape: 24 64 14 14 (301056)
I0403 18:56:11.477308 18172 net.cpp:156] Memory required for data: 1049767200
I0403 18:56:11.477327 18172 layer_factory.hpp:77] Creating layer inception_4c/relu_5x5
I0403 18:56:11.477346 18172 net.cpp:91] Creating Layer inception_4c/relu_5x5
I0403 18:56:11.477361 18172 net.cpp:425] inception_4c/relu_5x5 <- inception_4c/5x5
I0403 18:56:11.477380 18172 net.cpp:386] inception_4c/relu_5x5 -> inception_4c/5x5 (in-place)
I0403 18:56:11.477672 18172 net.cpp:141] Setting up inception_4c/relu_5x5
I0403 18:56:11.477699 18172 net.cpp:148] Top shape: 24 64 14 14 (301056)
I0403 18:56:11.477715 18172 net.cpp:156] Memory required for data: 1050971424
I0403 18:56:11.477730 18172 layer_factory.hpp:77] Creating layer inception_4c/pool
I0403 18:56:11.477747 18172 net.cpp:91] Creating Layer inception_4c/pool
I0403 18:56:11.477763 18172 net.cpp:425] inception_4c/pool <- inception_4b/output_inception_4b/output_0_split_3
I0403 18:56:11.477783 18172 net.cpp:399] inception_4c/pool -> inception_4c/pool
I0403 18:56:11.477850 18172 net.cpp:141] Setting up inception_4c/pool
I0403 18:56:11.477874 18172 net.cpp:148] Top shape: 24 512 14 14 (2408448)
I0403 18:56:11.477888 18172 net.cpp:156] Memory required for data: 1060605216
I0403 18:56:11.477903 18172 layer_factory.hpp:77] Creating layer inception_4c/pool_proj
I0403 18:56:11.477926 18172 net.cpp:91] Creating Layer inception_4c/pool_proj
I0403 18:56:11.477943 18172 net.cpp:425] inception_4c/pool_proj <- inception_4c/pool
I0403 18:56:11.477967 18172 net.cpp:399] inception_4c/pool_proj -> inception_4c/pool_proj
I0403 18:56:11.479193 18172 net.cpp:141] Setting up inception_4c/pool_proj
I0403 18:56:11.479223 18172 net.cpp:148] Top shape: 24 64 14 14 (301056)
I0403 18:56:11.479254 18172 net.cpp:156] Memory required for data: 1061809440
I0403 18:56:11.479272 18172 layer_factory.hpp:77] Creating layer inception_4c/relu_pool_proj
I0403 18:56:11.479291 18172 net.cpp:91] Creating Layer inception_4c/relu_pool_proj
I0403 18:56:11.479307 18172 net.cpp:425] inception_4c/relu_pool_proj <- inception_4c/pool_proj
I0403 18:56:11.479327 18172 net.cpp:386] inception_4c/relu_pool_proj -> inception_4c/pool_proj (in-place)
I0403 18:56:11.479509 18172 net.cpp:141] Setting up inception_4c/relu_pool_proj
I0403 18:56:11.479533 18172 net.cpp:148] Top shape: 24 64 14 14 (301056)
I0403 18:56:11.479548 18172 net.cpp:156] Memory required for data: 1063013664
I0403 18:56:11.479563 18172 layer_factory.hpp:77] Creating layer inception_4c/output
I0403 18:56:11.479580 18172 net.cpp:91] Creating Layer inception_4c/output
I0403 18:56:11.479595 18172 net.cpp:425] inception_4c/output <- inception_4c/1x1
I0403 18:56:11.479612 18172 net.cpp:425] inception_4c/output <- inception_4c/3x3
I0403 18:56:11.479629 18172 net.cpp:425] inception_4c/output <- inception_4c/5x5
I0403 18:56:11.479643 18172 net.cpp:425] inception_4c/output <- inception_4c/pool_proj
I0403 18:56:11.479662 18172 net.cpp:399] inception_4c/output -> inception_4c/output
I0403 18:56:11.479708 18172 net.cpp:141] Setting up inception_4c/output
I0403 18:56:11.479733 18172 net.cpp:148] Top shape: 24 512 14 14 (2408448)
I0403 18:56:11.479748 18172 net.cpp:156] Memory required for data: 1072647456
I0403 18:56:11.479764 18172 layer_factory.hpp:77] Creating layer inception_4c/output_inception_4c/output_0_split
I0403 18:56:11.479781 18172 net.cpp:91] Creating Layer inception_4c/output_inception_4c/output_0_split
I0403 18:56:11.479797 18172 net.cpp:425] inception_4c/output_inception_4c/output_0_split <- inception_4c/output
I0403 18:56:11.479815 18172 net.cpp:399] inception_4c/output_inception_4c/output_0_split -> inception_4c/output_inception_4c/output_0_split_0
I0403 18:56:11.479835 18172 net.cpp:399] inception_4c/output_inception_4c/output_0_split -> inception_4c/output_inception_4c/output_0_split_1
I0403 18:56:11.479858 18172 net.cpp:399] inception_4c/output_inception_4c/output_0_split -> inception_4c/output_inception_4c/output_0_split_2
I0403 18:56:11.479879 18172 net.cpp:399] inception_4c/output_inception_4c/output_0_split -> inception_4c/output_inception_4c/output_0_split_3
I0403 18:56:11.479971 18172 net.cpp:141] Setting up inception_4c/output_inception_4c/output_0_split
I0403 18:56:11.479995 18172 net.cpp:148] Top shape: 24 512 14 14 (2408448)
I0403 18:56:11.480010 18172 net.cpp:148] Top shape: 24 512 14 14 (2408448)
I0403 18:56:11.480026 18172 net.cpp:148] Top shape: 24 512 14 14 (2408448)
I0403 18:56:11.480041 18172 net.cpp:148] Top shape: 24 512 14 14 (2408448)
I0403 18:56:11.480054 18172 net.cpp:156] Memory required for data: 1111182624
I0403 18:56:11.480069 18172 layer_factory.hpp:77] Creating layer inception_4d/1x1
I0403 18:56:11.480090 18172 net.cpp:91] Creating Layer inception_4d/1x1
I0403 18:56:11.480108 18172 net.cpp:425] inception_4d/1x1 <- inception_4c/output_inception_4c/output_0_split_0
I0403 18:56:11.480129 18172 net.cpp:399] inception_4d/1x1 -> inception_4d/1x1
I0403 18:56:11.481506 18172 net.cpp:141] Setting up inception_4d/1x1
I0403 18:56:11.481534 18172 net.cpp:148] Top shape: 24 112 14 14 (526848)
I0403 18:56:11.481549 18172 net.cpp:156] Memory required for data: 1113290016
I0403 18:56:11.481567 18172 layer_factory.hpp:77] Creating layer inception_4d/relu_1x1
I0403 18:56:11.481588 18172 net.cpp:91] Creating Layer inception_4d/relu_1x1
I0403 18:56:11.481606 18172 net.cpp:425] inception_4d/relu_1x1 <- inception_4d/1x1
I0403 18:56:11.481622 18172 net.cpp:386] inception_4d/relu_1x1 -> inception_4d/1x1 (in-place)
I0403 18:56:11.481807 18172 net.cpp:141] Setting up inception_4d/relu_1x1
I0403 18:56:11.481833 18172 net.cpp:148] Top shape: 24 112 14 14 (526848)
I0403 18:56:11.481849 18172 net.cpp:156] Memory required for data: 1115397408
I0403 18:56:11.481863 18172 layer_factory.hpp:77] Creating layer inception_4d/3x3_reduce
I0403 18:56:11.481899 18172 net.cpp:91] Creating Layer inception_4d/3x3_reduce
I0403 18:56:11.481917 18172 net.cpp:425] inception_4d/3x3_reduce <- inception_4c/output_inception_4c/output_0_split_1
I0403 18:56:11.481935 18172 net.cpp:399] inception_4d/3x3_reduce -> inception_4d/3x3_reduce
I0403 18:56:11.483451 18172 net.cpp:141] Setting up inception_4d/3x3_reduce
I0403 18:56:11.483479 18172 net.cpp:148] Top shape: 24 144 14 14 (677376)
I0403 18:56:11.483494 18172 net.cpp:156] Memory required for data: 1118106912
I0403 18:56:11.483511 18172 layer_factory.hpp:77] Creating layer inception_4d/relu_3x3_reduce
I0403 18:56:11.483531 18172 net.cpp:91] Creating Layer inception_4d/relu_3x3_reduce
I0403 18:56:11.483548 18172 net.cpp:425] inception_4d/relu_3x3_reduce <- inception_4d/3x3_reduce
I0403 18:56:11.483566 18172 net.cpp:386] inception_4d/relu_3x3_reduce -> inception_4d/3x3_reduce (in-place)
I0403 18:56:11.483853 18172 net.cpp:141] Setting up inception_4d/relu_3x3_reduce
I0403 18:56:11.483880 18172 net.cpp:148] Top shape: 24 144 14 14 (677376)
I0403 18:56:11.483894 18172 net.cpp:156] Memory required for data: 1120816416
I0403 18:56:11.483909 18172 layer_factory.hpp:77] Creating layer inception_4d/3x3
I0403 18:56:11.483949 18172 net.cpp:91] Creating Layer inception_4d/3x3
I0403 18:56:11.483969 18172 net.cpp:425] inception_4d/3x3 <- inception_4d/3x3_reduce
I0403 18:56:11.483992 18172 net.cpp:399] inception_4d/3x3 -> inception_4d/3x3
I0403 18:56:11.488229 18172 net.cpp:141] Setting up inception_4d/3x3
I0403 18:56:11.488255 18172 net.cpp:148] Top shape: 24 288 14 14 (1354752)
I0403 18:56:11.488270 18172 net.cpp:156] Memory required for data: 1126235424
I0403 18:56:11.488288 18172 layer_factory.hpp:77] Creating layer inception_4d/relu_3x3
I0403 18:56:11.488308 18172 net.cpp:91] Creating Layer inception_4d/relu_3x3
I0403 18:56:11.488324 18172 net.cpp:425] inception_4d/relu_3x3 <- inception_4d/3x3
I0403 18:56:11.488342 18172 net.cpp:386] inception_4d/relu_3x3 -> inception_4d/3x3 (in-place)
I0403 18:56:11.488523 18172 net.cpp:141] Setting up inception_4d/relu_3x3
I0403 18:56:11.488548 18172 net.cpp:148] Top shape: 24 288 14 14 (1354752)
I0403 18:56:11.488564 18172 net.cpp:156] Memory required for data: 1131654432
I0403 18:56:11.488579 18172 layer_factory.hpp:77] Creating layer inception_4d/5x5_reduce
I0403 18:56:11.488600 18172 net.cpp:91] Creating Layer inception_4d/5x5_reduce
I0403 18:56:11.488617 18172 net.cpp:425] inception_4d/5x5_reduce <- inception_4c/output_inception_4c/output_0_split_2
I0403 18:56:11.488636 18172 net.cpp:399] inception_4d/5x5_reduce -> inception_4d/5x5_reduce
I0403 18:56:11.489763 18172 net.cpp:141] Setting up inception_4d/5x5_reduce
I0403 18:56:11.489790 18172 net.cpp:148] Top shape: 24 32 14 14 (150528)
I0403 18:56:11.489806 18172 net.cpp:156] Memory required for data: 1132256544
I0403 18:56:11.489823 18172 layer_factory.hpp:77] Creating layer inception_4d/relu_5x5_reduce
I0403 18:56:11.489843 18172 net.cpp:91] Creating Layer inception_4d/relu_5x5_reduce
I0403 18:56:11.489859 18172 net.cpp:425] inception_4d/relu_5x5_reduce <- inception_4d/5x5_reduce
I0403 18:56:11.489876 18172 net.cpp:386] inception_4d/relu_5x5_reduce -> inception_4d/5x5_reduce (in-place)
I0403 18:56:11.490059 18172 net.cpp:141] Setting up inception_4d/relu_5x5_reduce
I0403 18:56:11.490087 18172 net.cpp:148] Top shape: 24 32 14 14 (150528)
I0403 18:56:11.490102 18172 net.cpp:156] Memory required for data: 1132858656
I0403 18:56:11.490115 18172 layer_factory.hpp:77] Creating layer inception_4d/5x5
I0403 18:56:11.490137 18172 net.cpp:91] Creating Layer inception_4d/5x5
I0403 18:56:11.490154 18172 net.cpp:425] inception_4d/5x5 <- inception_4d/5x5_reduce
I0403 18:56:11.490172 18172 net.cpp:399] inception_4d/5x5 -> inception_4d/5x5
I0403 18:56:11.491618 18172 net.cpp:141] Setting up inception_4d/5x5
I0403 18:56:11.491647 18172 net.cpp:148] Top shape: 24 64 14 14 (301056)
I0403 18:56:11.491662 18172 net.cpp:156] Memory required for data: 1134062880
I0403 18:56:11.491680 18172 layer_factory.hpp:77] Creating layer inception_4d/relu_5x5
I0403 18:56:11.491711 18172 net.cpp:91] Creating Layer inception_4d/relu_5x5
I0403 18:56:11.491729 18172 net.cpp:425] inception_4d/relu_5x5 <- inception_4d/5x5
I0403 18:56:11.491747 18172 net.cpp:386] inception_4d/relu_5x5 -> inception_4d/5x5 (in-place)
I0403 18:56:11.492048 18172 net.cpp:141] Setting up inception_4d/relu_5x5
I0403 18:56:11.492075 18172 net.cpp:148] Top shape: 24 64 14 14 (301056)
I0403 18:56:11.492090 18172 net.cpp:156] Memory required for data: 1135267104
I0403 18:56:11.492105 18172 layer_factory.hpp:77] Creating layer inception_4d/pool
I0403 18:56:11.492122 18172 net.cpp:91] Creating Layer inception_4d/pool
I0403 18:56:11.492137 18172 net.cpp:425] inception_4d/pool <- inception_4c/output_inception_4c/output_0_split_3
I0403 18:56:11.492157 18172 net.cpp:399] inception_4d/pool -> inception_4d/pool
I0403 18:56:11.492223 18172 net.cpp:141] Setting up inception_4d/pool
I0403 18:56:11.492246 18172 net.cpp:148] Top shape: 24 512 14 14 (2408448)
I0403 18:56:11.492261 18172 net.cpp:156] Memory required for data: 1144900896
I0403 18:56:11.492275 18172 layer_factory.hpp:77] Creating layer inception_4d/pool_proj
I0403 18:56:11.492298 18172 net.cpp:91] Creating Layer inception_4d/pool_proj
I0403 18:56:11.492316 18172 net.cpp:425] inception_4d/pool_proj <- inception_4d/pool
I0403 18:56:11.492333 18172 net.cpp:399] inception_4d/pool_proj -> inception_4d/pool_proj
I0403 18:56:11.494050 18172 net.cpp:141] Setting up inception_4d/pool_proj
I0403 18:56:11.494078 18172 net.cpp:148] Top shape: 24 64 14 14 (301056)
I0403 18:56:11.494094 18172 net.cpp:156] Memory required for data: 1146105120
I0403 18:56:11.494112 18172 layer_factory.hpp:77] Creating layer inception_4d/relu_pool_proj
I0403 18:56:11.494132 18172 net.cpp:91] Creating Layer inception_4d/relu_pool_proj
I0403 18:56:11.494148 18172 net.cpp:425] inception_4d/relu_pool_proj <- inception_4d/pool_proj
I0403 18:56:11.494166 18172 net.cpp:386] inception_4d/relu_pool_proj -> inception_4d/pool_proj (in-place)
I0403 18:56:11.494346 18172 net.cpp:141] Setting up inception_4d/relu_pool_proj
I0403 18:56:11.494372 18172 net.cpp:148] Top shape: 24 64 14 14 (301056)
I0403 18:56:11.494386 18172 net.cpp:156] Memory required for data: 1147309344
I0403 18:56:11.494401 18172 layer_factory.hpp:77] Creating layer inception_4d/output
I0403 18:56:11.494418 18172 net.cpp:91] Creating Layer inception_4d/output
I0403 18:56:11.494434 18172 net.cpp:425] inception_4d/output <- inception_4d/1x1
I0403 18:56:11.494451 18172 net.cpp:425] inception_4d/output <- inception_4d/3x3
I0403 18:56:11.494465 18172 net.cpp:425] inception_4d/output <- inception_4d/5x5
I0403 18:56:11.494480 18172 net.cpp:425] inception_4d/output <- inception_4d/pool_proj
I0403 18:56:11.494498 18172 net.cpp:399] inception_4d/output -> inception_4d/output
I0403 18:56:11.494544 18172 net.cpp:141] Setting up inception_4d/output
I0403 18:56:11.494566 18172 net.cpp:148] Top shape: 24 528 14 14 (2483712)
I0403 18:56:11.494580 18172 net.cpp:156] Memory required for data: 1157244192
I0403 18:56:11.494595 18172 layer_factory.hpp:77] Creating layer inception_4d/output_inception_4d/output_0_split
I0403 18:56:11.494613 18172 net.cpp:91] Creating Layer inception_4d/output_inception_4d/output_0_split
I0403 18:56:11.494629 18172 net.cpp:425] inception_4d/output_inception_4d/output_0_split <- inception_4d/output
I0403 18:56:11.494647 18172 net.cpp:399] inception_4d/output_inception_4d/output_0_split -> inception_4d/output_inception_4d/output_0_split_0
I0403 18:56:11.494665 18172 net.cpp:399] inception_4d/output_inception_4d/output_0_split -> inception_4d/output_inception_4d/output_0_split_1
I0403 18:56:11.494693 18172 net.cpp:399] inception_4d/output_inception_4d/output_0_split -> inception_4d/output_inception_4d/output_0_split_2
I0403 18:56:11.494712 18172 net.cpp:399] inception_4d/output_inception_4d/output_0_split -> inception_4d/output_inception_4d/output_0_split_3
I0403 18:56:11.494730 18172 net.cpp:399] inception_4d/output_inception_4d/output_0_split -> inception_4d/output_inception_4d/output_0_split_4
I0403 18:56:11.494828 18172 net.cpp:141] Setting up inception_4d/output_inception_4d/output_0_split
I0403 18:56:11.494863 18172 net.cpp:148] Top shape: 24 528 14 14 (2483712)
I0403 18:56:11.494879 18172 net.cpp:148] Top shape: 24 528 14 14 (2483712)
I0403 18:56:11.494894 18172 net.cpp:148] Top shape: 24 528 14 14 (2483712)
I0403 18:56:11.494907 18172 net.cpp:148] Top shape: 24 528 14 14 (2483712)
I0403 18:56:11.494922 18172 net.cpp:148] Top shape: 24 528 14 14 (2483712)
I0403 18:56:11.494935 18172 net.cpp:156] Memory required for data: 1206918432
I0403 18:56:11.494953 18172 layer_factory.hpp:77] Creating layer loss2/ave_pool
I0403 18:56:11.494971 18172 net.cpp:91] Creating Layer loss2/ave_pool
I0403 18:56:11.494987 18172 net.cpp:425] loss2/ave_pool <- inception_4d/output_inception_4d/output_0_split_0
I0403 18:56:11.495007 18172 net.cpp:399] loss2/ave_pool -> loss2/ave_pool
I0403 18:56:11.495309 18172 net.cpp:141] Setting up loss2/ave_pool
I0403 18:56:11.495335 18172 net.cpp:148] Top shape: 24 528 4 4 (202752)
I0403 18:56:11.495350 18172 net.cpp:156] Memory required for data: 1207729440
I0403 18:56:11.495364 18172 layer_factory.hpp:77] Creating layer loss2/conv
I0403 18:56:11.495386 18172 net.cpp:91] Creating Layer loss2/conv
I0403 18:56:11.495404 18172 net.cpp:425] loss2/conv <- loss2/ave_pool
I0403 18:56:11.495424 18172 net.cpp:399] loss2/conv -> loss2/conv
I0403 18:56:11.497289 18172 net.cpp:141] Setting up loss2/conv
I0403 18:56:11.497318 18172 net.cpp:148] Top shape: 24 128 4 4 (49152)
I0403 18:56:11.497335 18172 net.cpp:156] Memory required for data: 1207926048
I0403 18:56:11.497354 18172 layer_factory.hpp:77] Creating layer loss2/relu_conv
I0403 18:56:11.497371 18172 net.cpp:91] Creating Layer loss2/relu_conv
I0403 18:56:11.497387 18172 net.cpp:425] loss2/relu_conv <- loss2/conv
I0403 18:56:11.497406 18172 net.cpp:386] loss2/relu_conv -> loss2/conv (in-place)
I0403 18:56:11.497684 18172 net.cpp:141] Setting up loss2/relu_conv
I0403 18:56:11.497711 18172 net.cpp:148] Top shape: 24 128 4 4 (49152)
I0403 18:56:11.497726 18172 net.cpp:156] Memory required for data: 1208122656
I0403 18:56:11.497740 18172 layer_factory.hpp:77] Creating layer loss2/fc
I0403 18:56:11.497759 18172 net.cpp:91] Creating Layer loss2/fc
I0403 18:56:11.497774 18172 net.cpp:425] loss2/fc <- loss2/conv
I0403 18:56:11.497795 18172 net.cpp:399] loss2/fc -> loss2/fc
I0403 18:56:11.514998 18172 net.cpp:141] Setting up loss2/fc
I0403 18:56:11.515032 18172 net.cpp:148] Top shape: 24 1024 (24576)
I0403 18:56:11.515046 18172 net.cpp:156] Memory required for data: 1208220960
I0403 18:56:11.515064 18172 layer_factory.hpp:77] Creating layer loss2/relu_fc
I0403 18:56:11.515084 18172 net.cpp:91] Creating Layer loss2/relu_fc
I0403 18:56:11.515101 18172 net.cpp:425] loss2/relu_fc <- loss2/fc
I0403 18:56:11.515118 18172 net.cpp:386] loss2/relu_fc -> loss2/fc (in-place)
I0403 18:56:11.515410 18172 net.cpp:141] Setting up loss2/relu_fc
I0403 18:56:11.515435 18172 net.cpp:148] Top shape: 24 1024 (24576)
I0403 18:56:11.515450 18172 net.cpp:156] Memory required for data: 1208319264
I0403 18:56:11.515465 18172 layer_factory.hpp:77] Creating layer loss2/drop_fc
I0403 18:56:11.515485 18172 net.cpp:91] Creating Layer loss2/drop_fc
I0403 18:56:11.515501 18172 net.cpp:425] loss2/drop_fc <- loss2/fc
I0403 18:56:11.515517 18172 net.cpp:386] loss2/drop_fc -> loss2/fc (in-place)
I0403 18:56:11.515568 18172 net.cpp:141] Setting up loss2/drop_fc
I0403 18:56:11.515588 18172 net.cpp:148] Top shape: 24 1024 (24576)
I0403 18:56:11.515602 18172 net.cpp:156] Memory required for data: 1208417568
I0403 18:56:11.515616 18172 layer_factory.hpp:77] Creating layer loss2/classifier_plantvillage
I0403 18:56:11.515637 18172 net.cpp:91] Creating Layer loss2/classifier_plantvillage
I0403 18:56:11.515655 18172 net.cpp:425] loss2/classifier_plantvillage <- loss2/fc
I0403 18:56:11.515672 18172 net.cpp:399] loss2/classifier_plantvillage -> loss2/classifier_plantvillage
I0403 18:56:11.516069 18172 net.cpp:141] Setting up loss2/classifier_plantvillage
I0403 18:56:11.516093 18172 net.cpp:148] Top shape: 24 38 (912)
I0403 18:56:11.516124 18172 net.cpp:156] Memory required for data: 1208421216
I0403 18:56:11.516141 18172 layer_factory.hpp:77] Creating layer loss2/classifier_plantvillage_loss2/classifier_plantvillage_0_split
I0403 18:56:11.516160 18172 net.cpp:91] Creating Layer loss2/classifier_plantvillage_loss2/classifier_plantvillage_0_split
I0403 18:56:11.516175 18172 net.cpp:425] loss2/classifier_plantvillage_loss2/classifier_plantvillage_0_split <- loss2/classifier_plantvillage
I0403 18:56:11.516193 18172 net.cpp:399] loss2/classifier_plantvillage_loss2/classifier_plantvillage_0_split -> loss2/classifier_plantvillage_loss2/classifier_plantvillage_0_split_0
I0403 18:56:11.516216 18172 net.cpp:399] loss2/classifier_plantvillage_loss2/classifier_plantvillage_0_split -> loss2/classifier_plantvillage_loss2/classifier_plantvillage_0_split_1
I0403 18:56:11.516235 18172 net.cpp:399] loss2/classifier_plantvillage_loss2/classifier_plantvillage_0_split -> loss2/classifier_plantvillage_loss2/classifier_plantvillage_0_split_2
I0403 18:56:11.516310 18172 net.cpp:141] Setting up loss2/classifier_plantvillage_loss2/classifier_plantvillage_0_split
I0403 18:56:11.516335 18172 net.cpp:148] Top shape: 24 38 (912)
I0403 18:56:11.516351 18172 net.cpp:148] Top shape: 24 38 (912)
I0403 18:56:11.516366 18172 net.cpp:148] Top shape: 24 38 (912)
I0403 18:56:11.516381 18172 net.cpp:156] Memory required for data: 1208432160
I0403 18:56:11.516394 18172 layer_factory.hpp:77] Creating layer inception_4e/1x1
I0403 18:56:11.516414 18172 net.cpp:91] Creating Layer inception_4e/1x1
I0403 18:56:11.516430 18172 net.cpp:425] inception_4e/1x1 <- inception_4d/output_inception_4d/output_0_split_1
I0403 18:56:11.516448 18172 net.cpp:399] inception_4e/1x1 -> inception_4e/1x1
I0403 18:56:11.518218 18172 net.cpp:141] Setting up inception_4e/1x1
I0403 18:56:11.518244 18172 net.cpp:148] Top shape: 24 256 14 14 (1204224)
I0403 18:56:11.518260 18172 net.cpp:156] Memory required for data: 1213249056
I0403 18:56:11.518277 18172 layer_factory.hpp:77] Creating layer inception_4e/relu_1x1
I0403 18:56:11.518295 18172 net.cpp:91] Creating Layer inception_4e/relu_1x1
I0403 18:56:11.518311 18172 net.cpp:425] inception_4e/relu_1x1 <- inception_4e/1x1
I0403 18:56:11.518329 18172 net.cpp:386] inception_4e/relu_1x1 -> inception_4e/1x1 (in-place)
I0403 18:56:11.518620 18172 net.cpp:141] Setting up inception_4e/relu_1x1
I0403 18:56:11.518646 18172 net.cpp:148] Top shape: 24 256 14 14 (1204224)
I0403 18:56:11.518659 18172 net.cpp:156] Memory required for data: 1218065952
I0403 18:56:11.518674 18172 layer_factory.hpp:77] Creating layer inception_4e/3x3_reduce
I0403 18:56:11.518695 18172 net.cpp:91] Creating Layer inception_4e/3x3_reduce
I0403 18:56:11.518713 18172 net.cpp:425] inception_4e/3x3_reduce <- inception_4d/output_inception_4d/output_0_split_2
I0403 18:56:11.518734 18172 net.cpp:399] inception_4e/3x3_reduce -> inception_4e/3x3_reduce
I0403 18:56:11.520809 18172 net.cpp:141] Setting up inception_4e/3x3_reduce
I0403 18:56:11.520839 18172 net.cpp:148] Top shape: 24 160 14 14 (752640)
I0403 18:56:11.520856 18172 net.cpp:156] Memory required for data: 1221076512
I0403 18:56:11.520874 18172 layer_factory.hpp:77] Creating layer inception_4e/relu_3x3_reduce
I0403 18:56:11.520892 18172 net.cpp:91] Creating Layer inception_4e/relu_3x3_reduce
I0403 18:56:11.520908 18172 net.cpp:425] inception_4e/relu_3x3_reduce <- inception_4e/3x3_reduce
I0403 18:56:11.520927 18172 net.cpp:386] inception_4e/relu_3x3_reduce -> inception_4e/3x3_reduce (in-place)
I0403 18:56:11.521112 18172 net.cpp:141] Setting up inception_4e/relu_3x3_reduce
I0403 18:56:11.521136 18172 net.cpp:148] Top shape: 24 160 14 14 (752640)
I0403 18:56:11.521152 18172 net.cpp:156] Memory required for data: 1224087072
I0403 18:56:11.521167 18172 layer_factory.hpp:77] Creating layer inception_4e/3x3
I0403 18:56:11.521189 18172 net.cpp:91] Creating Layer inception_4e/3x3
I0403 18:56:11.521209 18172 net.cpp:425] inception_4e/3x3 <- inception_4e/3x3_reduce
I0403 18:56:11.521231 18172 net.cpp:399] inception_4e/3x3 -> inception_4e/3x3
I0403 18:56:11.526252 18172 net.cpp:141] Setting up inception_4e/3x3
I0403 18:56:11.526291 18172 net.cpp:148] Top shape: 24 320 14 14 (1505280)
I0403 18:56:11.526309 18172 net.cpp:156] Memory required for data: 1230108192
I0403 18:56:11.526326 18172 layer_factory.hpp:77] Creating layer inception_4e/relu_3x3
I0403 18:56:11.526345 18172 net.cpp:91] Creating Layer inception_4e/relu_3x3
I0403 18:56:11.526361 18172 net.cpp:425] inception_4e/relu_3x3 <- inception_4e/3x3
I0403 18:56:11.526381 18172 net.cpp:386] inception_4e/relu_3x3 -> inception_4e/3x3 (in-place)
I0403 18:56:11.526681 18172 net.cpp:141] Setting up inception_4e/relu_3x3
I0403 18:56:11.526707 18172 net.cpp:148] Top shape: 24 320 14 14 (1505280)
I0403 18:56:11.526722 18172 net.cpp:156] Memory required for data: 1236129312
I0403 18:56:11.526736 18172 layer_factory.hpp:77] Creating layer inception_4e/5x5_reduce
I0403 18:56:11.526763 18172 net.cpp:91] Creating Layer inception_4e/5x5_reduce
I0403 18:56:11.526782 18172 net.cpp:425] inception_4e/5x5_reduce <- inception_4d/output_inception_4d/output_0_split_3
I0403 18:56:11.526803 18172 net.cpp:399] inception_4e/5x5_reduce -> inception_4e/5x5_reduce
I0403 18:56:11.527879 18172 net.cpp:141] Setting up inception_4e/5x5_reduce
I0403 18:56:11.527907 18172 net.cpp:148] Top shape: 24 32 14 14 (150528)
I0403 18:56:11.527923 18172 net.cpp:156] Memory required for data: 1236731424
I0403 18:56:11.527941 18172 layer_factory.hpp:77] Creating layer inception_4e/relu_5x5_reduce
I0403 18:56:11.527964 18172 net.cpp:91] Creating Layer inception_4e/relu_5x5_reduce
I0403 18:56:11.527981 18172 net.cpp:425] inception_4e/relu_5x5_reduce <- inception_4e/5x5_reduce
I0403 18:56:11.528002 18172 net.cpp:386] inception_4e/relu_5x5_reduce -> inception_4e/5x5_reduce (in-place)
I0403 18:56:11.528296 18172 net.cpp:141] Setting up inception_4e/relu_5x5_reduce
I0403 18:56:11.528323 18172 net.cpp:148] Top shape: 24 32 14 14 (150528)
I0403 18:56:11.528338 18172 net.cpp:156] Memory required for data: 1237333536
I0403 18:56:11.528354 18172 layer_factory.hpp:77] Creating layer inception_4e/5x5
I0403 18:56:11.528391 18172 net.cpp:91] Creating Layer inception_4e/5x5
I0403 18:56:11.528409 18172 net.cpp:425] inception_4e/5x5 <- inception_4e/5x5_reduce
I0403 18:56:11.528429 18172 net.cpp:399] inception_4e/5x5 -> inception_4e/5x5
I0403 18:56:11.530325 18172 net.cpp:141] Setting up inception_4e/5x5
I0403 18:56:11.530355 18172 net.cpp:148] Top shape: 24 128 14 14 (602112)
I0403 18:56:11.530372 18172 net.cpp:156] Memory required for data: 1239741984
I0403 18:56:11.530391 18172 layer_factory.hpp:77] Creating layer inception_4e/relu_5x5
I0403 18:56:11.530410 18172 net.cpp:91] Creating Layer inception_4e/relu_5x5
I0403 18:56:11.530426 18172 net.cpp:425] inception_4e/relu_5x5 <- inception_4e/5x5
I0403 18:56:11.530442 18172 net.cpp:386] inception_4e/relu_5x5 -> inception_4e/5x5 (in-place)
I0403 18:56:11.530642 18172 net.cpp:141] Setting up inception_4e/relu_5x5
I0403 18:56:11.530668 18172 net.cpp:148] Top shape: 24 128 14 14 (602112)
I0403 18:56:11.530684 18172 net.cpp:156] Memory required for data: 1242150432
I0403 18:56:11.530699 18172 layer_factory.hpp:77] Creating layer inception_4e/pool
I0403 18:56:11.530717 18172 net.cpp:91] Creating Layer inception_4e/pool
I0403 18:56:11.530732 18172 net.cpp:425] inception_4e/pool <- inception_4d/output_inception_4d/output_0_split_4
I0403 18:56:11.530752 18172 net.cpp:399] inception_4e/pool -> inception_4e/pool
I0403 18:56:11.530825 18172 net.cpp:141] Setting up inception_4e/pool
I0403 18:56:11.530850 18172 net.cpp:148] Top shape: 24 528 14 14 (2483712)
I0403 18:56:11.530865 18172 net.cpp:156] Memory required for data: 1252085280
I0403 18:56:11.530879 18172 layer_factory.hpp:77] Creating layer inception_4e/pool_proj
I0403 18:56:11.530901 18172 net.cpp:91] Creating Layer inception_4e/pool_proj
I0403 18:56:11.530918 18172 net.cpp:425] inception_4e/pool_proj <- inception_4e/pool
I0403 18:56:11.530936 18172 net.cpp:399] inception_4e/pool_proj -> inception_4e/pool_proj
I0403 18:56:11.532510 18172 net.cpp:141] Setting up inception_4e/pool_proj
I0403 18:56:11.532549 18172 net.cpp:148] Top shape: 24 128 14 14 (602112)
I0403 18:56:11.532565 18172 net.cpp:156] Memory required for data: 1254493728
I0403 18:56:11.532583 18172 layer_factory.hpp:77] Creating layer inception_4e/relu_pool_proj
I0403 18:56:11.532604 18172 net.cpp:91] Creating Layer inception_4e/relu_pool_proj
I0403 18:56:11.532621 18172 net.cpp:425] inception_4e/relu_pool_proj <- inception_4e/pool_proj
I0403 18:56:11.532639 18172 net.cpp:386] inception_4e/relu_pool_proj -> inception_4e/pool_proj (in-place)
I0403 18:56:11.532935 18172 net.cpp:141] Setting up inception_4e/relu_pool_proj
I0403 18:56:11.532965 18172 net.cpp:148] Top shape: 24 128 14 14 (602112)
I0403 18:56:11.532980 18172 net.cpp:156] Memory required for data: 1256902176
I0403 18:56:11.532995 18172 layer_factory.hpp:77] Creating layer inception_4e/output
I0403 18:56:11.533015 18172 net.cpp:91] Creating Layer inception_4e/output
I0403 18:56:11.533032 18172 net.cpp:425] inception_4e/output <- inception_4e/1x1
I0403 18:56:11.533049 18172 net.cpp:425] inception_4e/output <- inception_4e/3x3
I0403 18:56:11.533066 18172 net.cpp:425] inception_4e/output <- inception_4e/5x5
I0403 18:56:11.533080 18172 net.cpp:425] inception_4e/output <- inception_4e/pool_proj
I0403 18:56:11.533097 18172 net.cpp:399] inception_4e/output -> inception_4e/output
I0403 18:56:11.533149 18172 net.cpp:141] Setting up inception_4e/output
I0403 18:56:11.533172 18172 net.cpp:148] Top shape: 24 832 14 14 (3913728)
I0403 18:56:11.533186 18172 net.cpp:156] Memory required for data: 1272557088
I0403 18:56:11.533201 18172 layer_factory.hpp:77] Creating layer pool4/3x3_s2
I0403 18:56:11.533220 18172 net.cpp:91] Creating Layer pool4/3x3_s2
I0403 18:56:11.533236 18172 net.cpp:425] pool4/3x3_s2 <- inception_4e/output
I0403 18:56:11.533255 18172 net.cpp:399] pool4/3x3_s2 -> pool4/3x3_s2
I0403 18:56:11.533324 18172 net.cpp:141] Setting up pool4/3x3_s2
I0403 18:56:11.533347 18172 net.cpp:148] Top shape: 24 832 7 7 (978432)
I0403 18:56:11.533362 18172 net.cpp:156] Memory required for data: 1276470816
I0403 18:56:11.533376 18172 layer_factory.hpp:77] Creating layer pool4/3x3_s2_pool4/3x3_s2_0_split
I0403 18:56:11.533393 18172 net.cpp:91] Creating Layer pool4/3x3_s2_pool4/3x3_s2_0_split
I0403 18:56:11.533409 18172 net.cpp:425] pool4/3x3_s2_pool4/3x3_s2_0_split <- pool4/3x3_s2
I0403 18:56:11.533427 18172 net.cpp:399] pool4/3x3_s2_pool4/3x3_s2_0_split -> pool4/3x3_s2_pool4/3x3_s2_0_split_0
I0403 18:56:11.533449 18172 net.cpp:399] pool4/3x3_s2_pool4/3x3_s2_0_split -> pool4/3x3_s2_pool4/3x3_s2_0_split_1
I0403 18:56:11.533470 18172 net.cpp:399] pool4/3x3_s2_pool4/3x3_s2_0_split -> pool4/3x3_s2_pool4/3x3_s2_0_split_2
I0403 18:56:11.533489 18172 net.cpp:399] pool4/3x3_s2_pool4/3x3_s2_0_split -> pool4/3x3_s2_pool4/3x3_s2_0_split_3
I0403 18:56:11.533579 18172 net.cpp:141] Setting up pool4/3x3_s2_pool4/3x3_s2_0_split
I0403 18:56:11.533602 18172 net.cpp:148] Top shape: 24 832 7 7 (978432)
I0403 18:56:11.533618 18172 net.cpp:148] Top shape: 24 832 7 7 (978432)
I0403 18:56:11.533634 18172 net.cpp:148] Top shape: 24 832 7 7 (978432)
I0403 18:56:11.533649 18172 net.cpp:148] Top shape: 24 832 7 7 (978432)
I0403 18:56:11.533663 18172 net.cpp:156] Memory required for data: 1292125728
I0403 18:56:11.533677 18172 layer_factory.hpp:77] Creating layer inception_5a/1x1
I0403 18:56:11.533701 18172 net.cpp:91] Creating Layer inception_5a/1x1
I0403 18:56:11.533720 18172 net.cpp:425] inception_5a/1x1 <- pool4/3x3_s2_pool4/3x3_s2_0_split_0
I0403 18:56:11.533737 18172 net.cpp:399] inception_5a/1x1 -> inception_5a/1x1
I0403 18:56:11.540037 18172 net.cpp:141] Setting up inception_5a/1x1
I0403 18:56:11.540086 18172 net.cpp:148] Top shape: 24 256 7 7 (301056)
I0403 18:56:11.540104 18172 net.cpp:156] Memory required for data: 1293329952
I0403 18:56:11.540123 18172 layer_factory.hpp:77] Creating layer inception_5a/relu_1x1
I0403 18:56:11.540141 18172 net.cpp:91] Creating Layer inception_5a/relu_1x1
I0403 18:56:11.540158 18172 net.cpp:425] inception_5a/relu_1x1 <- inception_5a/1x1
I0403 18:56:11.540177 18172 net.cpp:386] inception_5a/relu_1x1 -> inception_5a/1x1 (in-place)
I0403 18:56:11.540505 18172 net.cpp:141] Setting up inception_5a/relu_1x1
I0403 18:56:11.540534 18172 net.cpp:148] Top shape: 24 256 7 7 (301056)
I0403 18:56:11.540557 18172 net.cpp:156] Memory required for data: 1294534176
I0403 18:56:11.540572 18172 layer_factory.hpp:77] Creating layer inception_5a/3x3_reduce
I0403 18:56:11.540594 18172 net.cpp:91] Creating Layer inception_5a/3x3_reduce
I0403 18:56:11.540612 18172 net.cpp:425] inception_5a/3x3_reduce <- pool4/3x3_s2_pool4/3x3_s2_0_split_1
I0403 18:56:11.540632 18172 net.cpp:399] inception_5a/3x3_reduce -> inception_5a/3x3_reduce
I0403 18:56:11.543061 18172 net.cpp:141] Setting up inception_5a/3x3_reduce
I0403 18:56:11.543089 18172 net.cpp:148] Top shape: 24 160 7 7 (188160)
I0403 18:56:11.543105 18172 net.cpp:156] Memory required for data: 1295286816
I0403 18:56:11.543123 18172 layer_factory.hpp:77] Creating layer inception_5a/relu_3x3_reduce
I0403 18:56:11.543144 18172 net.cpp:91] Creating Layer inception_5a/relu_3x3_reduce
I0403 18:56:11.543161 18172 net.cpp:425] inception_5a/relu_3x3_reduce <- inception_5a/3x3_reduce
I0403 18:56:11.543179 18172 net.cpp:386] inception_5a/relu_3x3_reduce -> inception_5a/3x3_reduce (in-place)
I0403 18:56:11.543365 18172 net.cpp:141] Setting up inception_5a/relu_3x3_reduce
I0403 18:56:11.543387 18172 net.cpp:148] Top shape: 24 160 7 7 (188160)
I0403 18:56:11.543401 18172 net.cpp:156] Memory required for data: 1296039456
I0403 18:56:11.543416 18172 layer_factory.hpp:77] Creating layer inception_5a/3x3
I0403 18:56:11.543440 18172 net.cpp:91] Creating Layer inception_5a/3x3
I0403 18:56:11.543457 18172 net.cpp:425] inception_5a/3x3 <- inception_5a/3x3_reduce
I0403 18:56:11.543475 18172 net.cpp:399] inception_5a/3x3 -> inception_5a/3x3
I0403 18:56:11.548378 18172 net.cpp:141] Setting up inception_5a/3x3
I0403 18:56:11.548409 18172 net.cpp:148] Top shape: 24 320 7 7 (376320)
I0403 18:56:11.548425 18172 net.cpp:156] Memory required for data: 1297544736
I0403 18:56:11.548444 18172 layer_factory.hpp:77] Creating layer inception_5a/relu_3x3
I0403 18:56:11.548461 18172 net.cpp:91] Creating Layer inception_5a/relu_3x3
I0403 18:56:11.548477 18172 net.cpp:425] inception_5a/relu_3x3 <- inception_5a/3x3
I0403 18:56:11.548493 18172 net.cpp:386] inception_5a/relu_3x3 -> inception_5a/3x3 (in-place)
I0403 18:56:11.548784 18172 net.cpp:141] Setting up inception_5a/relu_3x3
I0403 18:56:11.548812 18172 net.cpp:148] Top shape: 24 320 7 7 (376320)
I0403 18:56:11.548827 18172 net.cpp:156] Memory required for data: 1299050016
I0403 18:56:11.548842 18172 layer_factory.hpp:77] Creating layer inception_5a/5x5_reduce
I0403 18:56:11.548864 18172 net.cpp:91] Creating Layer inception_5a/5x5_reduce
I0403 18:56:11.548882 18172 net.cpp:425] inception_5a/5x5_reduce <- pool4/3x3_s2_pool4/3x3_s2_0_split_2
I0403 18:56:11.548900 18172 net.cpp:399] inception_5a/5x5_reduce -> inception_5a/5x5_reduce
I0403 18:56:11.550092 18172 net.cpp:141] Setting up inception_5a/5x5_reduce
I0403 18:56:11.550122 18172 net.cpp:148] Top shape: 24 32 7 7 (37632)
I0403 18:56:11.550138 18172 net.cpp:156] Memory required for data: 1299200544
I0403 18:56:11.550158 18172 layer_factory.hpp:77] Creating layer inception_5a/relu_5x5_reduce
I0403 18:56:11.550175 18172 net.cpp:91] Creating Layer inception_5a/relu_5x5_reduce
I0403 18:56:11.550190 18172 net.cpp:425] inception_5a/relu_5x5_reduce <- inception_5a/5x5_reduce
I0403 18:56:11.550211 18172 net.cpp:386] inception_5a/relu_5x5_reduce -> inception_5a/5x5_reduce (in-place)
I0403 18:56:11.550506 18172 net.cpp:141] Setting up inception_5a/relu_5x5_reduce
I0403 18:56:11.550534 18172 net.cpp:148] Top shape: 24 32 7 7 (37632)
I0403 18:56:11.550549 18172 net.cpp:156] Memory required for data: 1299351072
I0403 18:56:11.550564 18172 layer_factory.hpp:77] Creating layer inception_5a/5x5
I0403 18:56:11.550585 18172 net.cpp:91] Creating Layer inception_5a/5x5
I0403 18:56:11.550601 18172 net.cpp:425] inception_5a/5x5 <- inception_5a/5x5_reduce
I0403 18:56:11.550621 18172 net.cpp:399] inception_5a/5x5 -> inception_5a/5x5
I0403 18:56:11.552309 18172 net.cpp:141] Setting up inception_5a/5x5
I0403 18:56:11.552350 18172 net.cpp:148] Top shape: 24 128 7 7 (150528)
I0403 18:56:11.552366 18172 net.cpp:156] Memory required for data: 1299953184
I0403 18:56:11.552384 18172 layer_factory.hpp:77] Creating layer inception_5a/relu_5x5
I0403 18:56:11.552402 18172 net.cpp:91] Creating Layer inception_5a/relu_5x5
I0403 18:56:11.552417 18172 net.cpp:425] inception_5a/relu_5x5 <- inception_5a/5x5
I0403 18:56:11.552434 18172 net.cpp:386] inception_5a/relu_5x5 -> inception_5a/5x5 (in-place)
I0403 18:56:11.552625 18172 net.cpp:141] Setting up inception_5a/relu_5x5
I0403 18:56:11.552650 18172 net.cpp:148] Top shape: 24 128 7 7 (150528)
I0403 18:56:11.552664 18172 net.cpp:156] Memory required for data: 1300555296
I0403 18:56:11.552678 18172 layer_factory.hpp:77] Creating layer inception_5a/pool
I0403 18:56:11.552696 18172 net.cpp:91] Creating Layer inception_5a/pool
I0403 18:56:11.552712 18172 net.cpp:425] inception_5a/pool <- pool4/3x3_s2_pool4/3x3_s2_0_split_3
I0403 18:56:11.552733 18172 net.cpp:399] inception_5a/pool -> inception_5a/pool
I0403 18:56:11.552801 18172 net.cpp:141] Setting up inception_5a/pool
I0403 18:56:11.552826 18172 net.cpp:148] Top shape: 24 832 7 7 (978432)
I0403 18:56:11.552841 18172 net.cpp:156] Memory required for data: 1304469024
I0403 18:56:11.552855 18172 layer_factory.hpp:77] Creating layer inception_5a/pool_proj
I0403 18:56:11.552876 18172 net.cpp:91] Creating Layer inception_5a/pool_proj
I0403 18:56:11.552894 18172 net.cpp:425] inception_5a/pool_proj <- inception_5a/pool
I0403 18:56:11.552912 18172 net.cpp:399] inception_5a/pool_proj -> inception_5a/pool_proj
I0403 18:56:11.555135 18172 net.cpp:141] Setting up inception_5a/pool_proj
I0403 18:56:11.555163 18172 net.cpp:148] Top shape: 24 128 7 7 (150528)
I0403 18:56:11.555178 18172 net.cpp:156] Memory required for data: 1305071136
I0403 18:56:11.555197 18172 layer_factory.hpp:77] Creating layer inception_5a/relu_pool_proj
I0403 18:56:11.555217 18172 net.cpp:91] Creating Layer inception_5a/relu_pool_proj
I0403 18:56:11.555234 18172 net.cpp:425] inception_5a/relu_pool_proj <- inception_5a/pool_proj
I0403 18:56:11.555250 18172 net.cpp:386] inception_5a/relu_pool_proj -> inception_5a/pool_proj (in-place)
I0403 18:56:11.555538 18172 net.cpp:141] Setting up inception_5a/relu_pool_proj
I0403 18:56:11.555563 18172 net.cpp:148] Top shape: 24 128 7 7 (150528)
I0403 18:56:11.555578 18172 net.cpp:156] Memory required for data: 1305673248
I0403 18:56:11.555593 18172 layer_factory.hpp:77] Creating layer inception_5a/output
I0403 18:56:11.555613 18172 net.cpp:91] Creating Layer inception_5a/output
I0403 18:56:11.555629 18172 net.cpp:425] inception_5a/output <- inception_5a/1x1
I0403 18:56:11.555645 18172 net.cpp:425] inception_5a/output <- inception_5a/3x3
I0403 18:56:11.555660 18172 net.cpp:425] inception_5a/output <- inception_5a/5x5
I0403 18:56:11.555675 18172 net.cpp:425] inception_5a/output <- inception_5a/pool_proj
I0403 18:56:11.555692 18172 net.cpp:399] inception_5a/output -> inception_5a/output
I0403 18:56:11.555743 18172 net.cpp:141] Setting up inception_5a/output
I0403 18:56:11.555765 18172 net.cpp:148] Top shape: 24 832 7 7 (978432)
I0403 18:56:11.555779 18172 net.cpp:156] Memory required for data: 1309586976
I0403 18:56:11.555794 18172 layer_factory.hpp:77] Creating layer inception_5a/output_inception_5a/output_0_split
I0403 18:56:11.555809 18172 net.cpp:91] Creating Layer inception_5a/output_inception_5a/output_0_split
I0403 18:56:11.555824 18172 net.cpp:425] inception_5a/output_inception_5a/output_0_split <- inception_5a/output
I0403 18:56:11.555843 18172 net.cpp:399] inception_5a/output_inception_5a/output_0_split -> inception_5a/output_inception_5a/output_0_split_0
I0403 18:56:11.555863 18172 net.cpp:399] inception_5a/output_inception_5a/output_0_split -> inception_5a/output_inception_5a/output_0_split_1
I0403 18:56:11.555882 18172 net.cpp:399] inception_5a/output_inception_5a/output_0_split -> inception_5a/output_inception_5a/output_0_split_2
I0403 18:56:11.555902 18172 net.cpp:399] inception_5a/output_inception_5a/output_0_split -> inception_5a/output_inception_5a/output_0_split_3
I0403 18:56:11.556020 18172 net.cpp:141] Setting up inception_5a/output_inception_5a/output_0_split
I0403 18:56:11.556044 18172 net.cpp:148] Top shape: 24 832 7 7 (978432)
I0403 18:56:11.556061 18172 net.cpp:148] Top shape: 24 832 7 7 (978432)
I0403 18:56:11.556076 18172 net.cpp:148] Top shape: 24 832 7 7 (978432)
I0403 18:56:11.556090 18172 net.cpp:148] Top shape: 24 832 7 7 (978432)
I0403 18:56:11.556103 18172 net.cpp:156] Memory required for data: 1325241888
I0403 18:56:11.556118 18172 layer_factory.hpp:77] Creating layer inception_5b/1x1
I0403 18:56:11.556138 18172 net.cpp:91] Creating Layer inception_5b/1x1
I0403 18:56:11.556156 18172 net.cpp:425] inception_5b/1x1 <- inception_5a/output_inception_5a/output_0_split_0
I0403 18:56:11.556174 18172 net.cpp:399] inception_5b/1x1 -> inception_5b/1x1
I0403 18:56:11.559839 18172 net.cpp:141] Setting up inception_5b/1x1
I0403 18:56:11.559869 18172 net.cpp:148] Top shape: 24 384 7 7 (451584)
I0403 18:56:11.559885 18172 net.cpp:156] Memory required for data: 1327048224
I0403 18:56:11.559902 18172 layer_factory.hpp:77] Creating layer inception_5b/relu_1x1
I0403 18:56:11.559922 18172 net.cpp:91] Creating Layer inception_5b/relu_1x1
I0403 18:56:11.559938 18172 net.cpp:425] inception_5b/relu_1x1 <- inception_5b/1x1
I0403 18:56:11.559960 18172 net.cpp:386] inception_5b/relu_1x1 -> inception_5b/1x1 (in-place)
I0403 18:56:11.560257 18172 net.cpp:141] Setting up inception_5b/relu_1x1
I0403 18:56:11.560283 18172 net.cpp:148] Top shape: 24 384 7 7 (451584)
I0403 18:56:11.560297 18172 net.cpp:156] Memory required for data: 1328854560
I0403 18:56:11.560312 18172 layer_factory.hpp:77] Creating layer inception_5b/3x3_reduce
I0403 18:56:11.560334 18172 net.cpp:91] Creating Layer inception_5b/3x3_reduce
I0403 18:56:11.560351 18172 net.cpp:425] inception_5b/3x3_reduce <- inception_5a/output_inception_5a/output_0_split_1
I0403 18:56:11.560372 18172 net.cpp:399] inception_5b/3x3_reduce -> inception_5b/3x3_reduce
I0403 18:56:11.562999 18172 net.cpp:141] Setting up inception_5b/3x3_reduce
I0403 18:56:11.563029 18172 net.cpp:148] Top shape: 24 192 7 7 (225792)
I0403 18:56:11.563043 18172 net.cpp:156] Memory required for data: 1329757728
I0403 18:56:11.563061 18172 layer_factory.hpp:77] Creating layer inception_5b/relu_3x3_reduce
I0403 18:56:11.563081 18172 net.cpp:91] Creating Layer inception_5b/relu_3x3_reduce
I0403 18:56:11.563098 18172 net.cpp:425] inception_5b/relu_3x3_reduce <- inception_5b/3x3_reduce
I0403 18:56:11.563115 18172 net.cpp:386] inception_5b/relu_3x3_reduce -> inception_5b/3x3_reduce (in-place)
I0403 18:56:11.563304 18172 net.cpp:141] Setting up inception_5b/relu_3x3_reduce
I0403 18:56:11.563331 18172 net.cpp:148] Top shape: 24 192 7 7 (225792)
I0403 18:56:11.563345 18172 net.cpp:156] Memory required for data: 1330660896
I0403 18:56:11.563360 18172 layer_factory.hpp:77] Creating layer inception_5b/3x3
I0403 18:56:11.563382 18172 net.cpp:91] Creating Layer inception_5b/3x3
I0403 18:56:11.563400 18172 net.cpp:425] inception_5b/3x3 <- inception_5b/3x3_reduce
I0403 18:56:11.563418 18172 net.cpp:399] inception_5b/3x3 -> inception_5b/3x3
I0403 18:56:11.569980 18172 net.cpp:141] Setting up inception_5b/3x3
I0403 18:56:11.570008 18172 net.cpp:148] Top shape: 24 384 7 7 (451584)
I0403 18:56:11.570024 18172 net.cpp:156] Memory required for data: 1332467232
I0403 18:56:11.570042 18172 layer_factory.hpp:77] Creating layer inception_5b/relu_3x3
I0403 18:56:11.570061 18172 net.cpp:91] Creating Layer inception_5b/relu_3x3
I0403 18:56:11.570078 18172 net.cpp:425] inception_5b/relu_3x3 <- inception_5b/3x3
I0403 18:56:11.570096 18172 net.cpp:386] inception_5b/relu_3x3 -> inception_5b/3x3 (in-place)
I0403 18:56:11.570389 18172 net.cpp:141] Setting up inception_5b/relu_3x3
I0403 18:56:11.570413 18172 net.cpp:148] Top shape: 24 384 7 7 (451584)
I0403 18:56:11.570428 18172 net.cpp:156] Memory required for data: 1334273568
I0403 18:56:11.570443 18172 layer_factory.hpp:77] Creating layer inception_5b/5x5_reduce
I0403 18:56:11.570482 18172 net.cpp:91] Creating Layer inception_5b/5x5_reduce
I0403 18:56:11.570500 18172 net.cpp:425] inception_5b/5x5_reduce <- inception_5a/output_inception_5a/output_0_split_2
I0403 18:56:11.570519 18172 net.cpp:399] inception_5b/5x5_reduce -> inception_5b/5x5_reduce
I0403 18:56:11.571764 18172 net.cpp:141] Setting up inception_5b/5x5_reduce
I0403 18:56:11.571791 18172 net.cpp:148] Top shape: 24 48 7 7 (56448)
I0403 18:56:11.571806 18172 net.cpp:156] Memory required for data: 1334499360
I0403 18:56:11.571823 18172 layer_factory.hpp:77] Creating layer inception_5b/relu_5x5_reduce
I0403 18:56:11.571843 18172 net.cpp:91] Creating Layer inception_5b/relu_5x5_reduce
I0403 18:56:11.571859 18172 net.cpp:425] inception_5b/relu_5x5_reduce <- inception_5b/5x5_reduce
I0403 18:56:11.571877 18172 net.cpp:386] inception_5b/relu_5x5_reduce -> inception_5b/5x5_reduce (in-place)
I0403 18:56:11.572278 18172 net.cpp:141] Setting up inception_5b/relu_5x5_reduce
I0403 18:56:11.572302 18172 net.cpp:148] Top shape: 24 48 7 7 (56448)
I0403 18:56:11.572317 18172 net.cpp:156] Memory required for data: 1334725152
I0403 18:56:11.572332 18172 layer_factory.hpp:77] Creating layer inception_5b/5x5
I0403 18:56:11.572351 18172 net.cpp:91] Creating Layer inception_5b/5x5
I0403 18:56:11.572370 18172 net.cpp:425] inception_5b/5x5 <- inception_5b/5x5_reduce
I0403 18:56:11.572387 18172 net.cpp:399] inception_5b/5x5 -> inception_5b/5x5
I0403 18:56:11.574422 18172 net.cpp:141] Setting up inception_5b/5x5
I0403 18:56:11.574451 18172 net.cpp:148] Top shape: 24 128 7 7 (150528)
I0403 18:56:11.574466 18172 net.cpp:156] Memory required for data: 1335327264
I0403 18:56:11.574486 18172 layer_factory.hpp:77] Creating layer inception_5b/relu_5x5
I0403 18:56:11.574502 18172 net.cpp:91] Creating Layer inception_5b/relu_5x5
I0403 18:56:11.574518 18172 net.cpp:425] inception_5b/relu_5x5 <- inception_5b/5x5
I0403 18:56:11.574537 18172 net.cpp:386] inception_5b/relu_5x5 -> inception_5b/5x5 (in-place)
I0403 18:56:11.574728 18172 net.cpp:141] Setting up inception_5b/relu_5x5
I0403 18:56:11.574751 18172 net.cpp:148] Top shape: 24 128 7 7 (150528)
I0403 18:56:11.574765 18172 net.cpp:156] Memory required for data: 1335929376
I0403 18:56:11.574779 18172 layer_factory.hpp:77] Creating layer inception_5b/pool
I0403 18:56:11.574797 18172 net.cpp:91] Creating Layer inception_5b/pool
I0403 18:56:11.574812 18172 net.cpp:425] inception_5b/pool <- inception_5a/output_inception_5a/output_0_split_3
I0403 18:56:11.574831 18172 net.cpp:399] inception_5b/pool -> inception_5b/pool
I0403 18:56:11.574903 18172 net.cpp:141] Setting up inception_5b/pool
I0403 18:56:11.574939 18172 net.cpp:148] Top shape: 24 832 7 7 (978432)
I0403 18:56:11.574959 18172 net.cpp:156] Memory required for data: 1339843104
I0403 18:56:11.574975 18172 layer_factory.hpp:77] Creating layer inception_5b/pool_proj
I0403 18:56:11.574997 18172 net.cpp:91] Creating Layer inception_5b/pool_proj
I0403 18:56:11.575016 18172 net.cpp:425] inception_5b/pool_proj <- inception_5b/pool
I0403 18:56:11.575034 18172 net.cpp:399] inception_5b/pool_proj -> inception_5b/pool_proj
I0403 18:56:11.577299 18172 net.cpp:141] Setting up inception_5b/pool_proj
I0403 18:56:11.577328 18172 net.cpp:148] Top shape: 24 128 7 7 (150528)
I0403 18:56:11.577347 18172 net.cpp:156] Memory required for data: 1340445216
I0403 18:56:11.577365 18172 layer_factory.hpp:77] Creating layer inception_5b/relu_pool_proj
I0403 18:56:11.577383 18172 net.cpp:91] Creating Layer inception_5b/relu_pool_proj
I0403 18:56:11.577399 18172 net.cpp:425] inception_5b/relu_pool_proj <- inception_5b/pool_proj
I0403 18:56:11.577415 18172 net.cpp:386] inception_5b/relu_pool_proj -> inception_5b/pool_proj (in-place)
I0403 18:56:11.577707 18172 net.cpp:141] Setting up inception_5b/relu_pool_proj
I0403 18:56:11.577733 18172 net.cpp:148] Top shape: 24 128 7 7 (150528)
I0403 18:56:11.577749 18172 net.cpp:156] Memory required for data: 1341047328
I0403 18:56:11.577764 18172 layer_factory.hpp:77] Creating layer inception_5b/output
I0403 18:56:11.577781 18172 net.cpp:91] Creating Layer inception_5b/output
I0403 18:56:11.577811 18172 net.cpp:425] inception_5b/output <- inception_5b/1x1
I0403 18:56:11.577827 18172 net.cpp:425] inception_5b/output <- inception_5b/3x3
I0403 18:56:11.577843 18172 net.cpp:425] inception_5b/output <- inception_5b/5x5
I0403 18:56:11.577859 18172 net.cpp:425] inception_5b/output <- inception_5b/pool_proj
I0403 18:56:11.577877 18172 net.cpp:399] inception_5b/output -> inception_5b/output
I0403 18:56:11.577929 18172 net.cpp:141] Setting up inception_5b/output
I0403 18:56:11.577956 18172 net.cpp:148] Top shape: 24 1024 7 7 (1204224)
I0403 18:56:11.577972 18172 net.cpp:156] Memory required for data: 1345864224
I0403 18:56:11.577987 18172 layer_factory.hpp:77] Creating layer pool5/7x7_s1
I0403 18:56:11.578007 18172 net.cpp:91] Creating Layer pool5/7x7_s1
I0403 18:56:11.578023 18172 net.cpp:425] pool5/7x7_s1 <- inception_5b/output
I0403 18:56:11.578040 18172 net.cpp:399] pool5/7x7_s1 -> pool5/7x7_s1
I0403 18:56:11.578253 18172 net.cpp:141] Setting up pool5/7x7_s1
I0403 18:56:11.578280 18172 net.cpp:148] Top shape: 24 1024 1 1 (24576)
I0403 18:56:11.578295 18172 net.cpp:156] Memory required for data: 1345962528
I0403 18:56:11.578310 18172 layer_factory.hpp:77] Creating layer pool5/drop_7x7_s1
I0403 18:56:11.578327 18172 net.cpp:91] Creating Layer pool5/drop_7x7_s1
I0403 18:56:11.578342 18172 net.cpp:425] pool5/drop_7x7_s1 <- pool5/7x7_s1
I0403 18:56:11.578359 18172 net.cpp:386] pool5/drop_7x7_s1 -> pool5/7x7_s1 (in-place)
I0403 18:56:11.578409 18172 net.cpp:141] Setting up pool5/drop_7x7_s1
I0403 18:56:11.578433 18172 net.cpp:148] Top shape: 24 1024 1 1 (24576)
I0403 18:56:11.578447 18172 net.cpp:156] Memory required for data: 1346060832
I0403 18:56:11.578461 18172 layer_factory.hpp:77] Creating layer loss3/classifier_plantvillage
I0403 18:56:11.578482 18172 net.cpp:91] Creating Layer loss3/classifier_plantvillage
I0403 18:56:11.578500 18172 net.cpp:425] loss3/classifier_plantvillage <- pool5/7x7_s1
I0403 18:56:11.578517 18172 net.cpp:399] loss3/classifier_plantvillage -> loss3/classifier_plantvillage
I0403 18:56:11.578969 18172 net.cpp:141] Setting up loss3/classifier_plantvillage
I0403 18:56:11.578995 18172 net.cpp:148] Top shape: 24 38 (912)
I0403 18:56:11.579011 18172 net.cpp:156] Memory required for data: 1346064480
I0403 18:56:11.579030 18172 layer_factory.hpp:77] Creating layer loss3/classifier_plantvillage_loss3/classifier_plantvillage_0_split
I0403 18:56:11.579049 18172 net.cpp:91] Creating Layer loss3/classifier_plantvillage_loss3/classifier_plantvillage_0_split
I0403 18:56:11.579066 18172 net.cpp:425] loss3/classifier_plantvillage_loss3/classifier_plantvillage_0_split <- loss3/classifier_plantvillage
I0403 18:56:11.579087 18172 net.cpp:399] loss3/classifier_plantvillage_loss3/classifier_plantvillage_0_split -> loss3/classifier_plantvillage_loss3/classifier_plantvillage_0_split_0
I0403 18:56:11.579110 18172 net.cpp:399] loss3/classifier_plantvillage_loss3/classifier_plantvillage_0_split -> loss3/classifier_plantvillage_loss3/classifier_plantvillage_0_split_1
I0403 18:56:11.579131 18172 net.cpp:399] loss3/classifier_plantvillage_loss3/classifier_plantvillage_0_split -> loss3/classifier_plantvillage_loss3/classifier_plantvillage_0_split_2
I0403 18:56:11.579152 18172 net.cpp:399] loss3/classifier_plantvillage_loss3/classifier_plantvillage_0_split -> loss3/classifier_plantvillage_loss3/classifier_plantvillage_0_split_3
I0403 18:56:11.579272 18172 net.cpp:141] Setting up loss3/classifier_plantvillage_loss3/classifier_plantvillage_0_split
I0403 18:56:11.579298 18172 net.cpp:148] Top shape: 24 38 (912)
I0403 18:56:11.579314 18172 net.cpp:148] Top shape: 24 38 (912)
I0403 18:56:11.579330 18172 net.cpp:148] Top shape: 24 38 (912)
I0403 18:56:11.579345 18172 net.cpp:148] Top shape: 24 38 (912)
I0403 18:56:11.579360 18172 net.cpp:156] Memory required for data: 1346079072
I0403 18:56:11.579375 18172 layer_factory.hpp:77] Creating layer loss1/loss
I0403 18:56:11.579396 18172 net.cpp:91] Creating Layer loss1/loss
I0403 18:56:11.579413 18172 net.cpp:425] loss1/loss <- loss1/classifier_plantvillage_loss1/classifier_plantvillage_0_split_0
I0403 18:56:11.579444 18172 net.cpp:425] loss1/loss <- label_data_1_split_0
…
